…
I0506 11:25:12.676448 11809 net.cpp:322] The NetState phase (0) differed from the phase (1) specified by a rule in layer data_hdf5
I0506 11:25:12.676504 11809 net.cpp:322] The NetState phase (0) differed from the phase (1) specified by a rule in layer accuracy
I0506 11:25:12.676892 11809 net.cpp:49] Initializing net from parameters: 
name: "caffe_test_127x50_x_unshifted"
state {
  phase: TRAIN
}
layer {
  name: "data_hdf5"
  type: "HDF5Data"
  top: "data"
  top: "label"
  include {
    phase: TRAIN
  }
  hdf5_data_param {
    source: "/lustre/atlas/proj-shared/hep105/caffe_titan/minosmatch_nukecczdefs_127x50_x_unshifted_me1Bmc.trainlist"
    batch_size: 100
  }
}
layer {
  name: "conv1"
  type: "Convolution"
  bottom: "data"
  top: "conv1"
  convolution_param {
    num_output: 12
    pad: 0
    stride: 1
    weight_filler {
      type: "xavier"
    }
    bias_filler {
      type: "constant"
    }
    kernel_h: 8
    kernel_w: 3
  }
}
layer {
  name: "relu1"
  type: "ReLU"
  bottom: "conv1"
  top: "conv1"
}
layer {
  name: "pool1"
  type: "Pooling"
  bottom: "conv1"
  top: "pool1"
  pooling_param {
    pool: MAX
    kernel_h: 2
    kernel_w: 1
    stride_h: 2
    stride_w: 1
  }
}
layer {
  name: "conv2"
  type: "Convolution"
  bottom: "pool1"
  top: "conv2"
  convolution_param {
    num_output: 20
    pad: 0
    stride: 1
    weight_filler {
      type: "xavier"
    }
    bias_filler {
      type: "constant"
    }
    kernel_h: 7
    kernel_w: 3
  }
}
layer {
  name: "relu2"
  type: "ReLU"
  bottom: "conv2"
  top: "conv2"
}
layer {
  name: "pool2"
  type: "Pooling"
  bottom: "conv2"
  top: "pool2"
  pooling_param {
    pool: MAX
    kernel_h: 2
    kernel_w: 1
    stride_h: 2
    stride_w: 1
  }
}
layer {
  name: "conv3"
  type: "Convolution"
  bottom: "pool2"
  top: "conv3"
  convolution_param {
    num_output: 28
    pad: 0
    stride: 1
    weight_filler {
      type: "xavier"
    }
    bias_filler {
      type: "constant"
    }
    kernel_h: 6
    kernel_w: 3
  }
}
layer {
  name: "relu3"
  type: "ReLU"
  bottom: "conv3"
  top: "conv3"
}
layer {
  name: "pool3"
  type: "Pooling"
  bottom: "conv3"
  top: "pool3"
  pooling_param {
    pool: MAX
    kernel_h: 2
    kernel_w: 1
    stride_h: 2
    stride_w: 1
  }
}
layer {
  name: "conv4"
  type: "Convolution"
  bottom: "pool3"
  top: "conv4"
  convolution_param {
    num_output: 36
    pad: 0
    stride: 1
    weight_filler {
      type: "xavier"
    }
    bias_filler {
      type: "constant"
    }
    kernel_h: 6
    kernel_w: 3
  }
}
layer {
  name: "relu4"
  type: "ReLU"
  bottom: "conv4"
  top: "conv4"
}
layer {
  name: "pool4"
  type: "Pooling"
  bottom: "conv4"
  top: "pool4"
  pooling_param {
    pool: MAX
    kernel_h: 2
    kernel_w: 1
    stride_h: 2
    stride_w: 1
  }
}
layer {
  name: "ip1"
  type: "InnerProduct"
  bottom: "pool4"
  top: "ip1"
  inner_product_param {
    num_output: 196
    weight_filler {
      type: "xavier"
    }
    bias_filler {
      type: "constant"
    }
  }
}
layer {
  name: "relu5"
  type: "ReLU"
  bottom: "ip1"
  top: "ip1"
}
layer {
  name: "drop1"
  type: "Dropout"
  bottom: "ip1"
  top: "ip1"
  dropout_param {
    dropout_ratio: 0.5
  }
}
layer {
  name: "ip2"
  type: "InnerProduct"
  bottom: "ip1"
  top: "ip2"
  inner_product_param {
    num_output: 98
    weight_filler {
      type: "xavier"
    }
    bias_filler {
      type: "constant"
    }
  }
}
layer {
  name: "relu6"
  type: "ReLU"
  bottom: "ip2"
  top: "ip2"
}
layer {
  name: "drop2"
  type: "Dropout"
  bottom: "ip2"
  top: "ip2"
  dropout_param {
    dropout_ratio: 0.5
  }
}
layer {
  name: "ip3"
  type: "InnerProduct"
  bottom: "ip2"
  top: "ip3"
  inner_product_param {
    num_output: 11
    weight_filler {
      type: "xavier"
    }
    bias_filler {
      type: "constant"
    }
  }
}
layer {
  name: "drop3"
  type: "Dropout"
  bottom: "ip3"
  top: "ip3"
  dropout_param {
    dropout_ratio: 0.5
  }
}
layer {
  name: "loss"
  type: "SoftmaxWithLoss"
  bottom: "ip3"
  bottom: "label"
  top: "loss"
}
I0506 11:25:12.677095 11809 layer_factory.hpp:77] Creating layer data_hdf5
I0506 11:25:12.677119 11809 net.cpp:106] Creating Layer data_hdf5
I0506 11:25:12.677141 11809 net.cpp:411] data_hdf5 -> data
I0506 11:25:12.677181 11809 net.cpp:411] data_hdf5 -> label
I0506 11:25:12.677213 11809 hdf5_data_layer.cpp:79] Loading list of HDF5 filenames from: /lustre/atlas/proj-shared/hep105/caffe_titan/minosmatch_nukecczdefs_127x50_x_unshifted_me1Bmc.trainlist
I0506 11:25:12.679455 11809 hdf5_data_layer.cpp:93] Number of HDF5 files: 15
I0506 11:25:12.695644 11809 hdf5.cpp:32] Datatype class: H5T_FLOAT
I0506 11:25:19.327793 11809 hdf5.cpp:35] Datatype class: H5T_INTEGER
I0506 11:25:19.331293 11809 net.cpp:150] Setting up data_hdf5
I0506 11:25:19.331342 11809 net.cpp:157] Top shape: 100 1 127 50 (635000)
I0506 11:25:19.331360 11809 net.cpp:157] Top shape: 100 (100)
I0506 11:25:19.331377 11809 net.cpp:165] Memory required for data: 2540400
I0506 11:25:19.331405 11809 layer_factory.hpp:77] Creating layer conv1
I0506 11:25:19.331440 11809 net.cpp:106] Creating Layer conv1
I0506 11:25:19.331464 11809 net.cpp:454] conv1 <- data
I0506 11:25:19.331486 11809 net.cpp:411] conv1 -> conv1
I0506 11:25:22.657706 11809 net.cpp:150] Setting up conv1
I0506 11:25:22.657755 11809 net.cpp:157] Top shape: 100 12 120 48 (6912000)
I0506 11:25:22.657769 11809 net.cpp:165] Memory required for data: 30188400
I0506 11:25:22.657802 11809 layer_factory.hpp:77] Creating layer relu1
I0506 11:25:22.657824 11809 net.cpp:106] Creating Layer relu1
I0506 11:25:22.657838 11809 net.cpp:454] relu1 <- conv1
I0506 11:25:22.657879 11809 net.cpp:397] relu1 -> conv1 (in-place)
I0506 11:25:22.658401 11809 net.cpp:150] Setting up relu1
I0506 11:25:22.658423 11809 net.cpp:157] Top shape: 100 12 120 48 (6912000)
I0506 11:25:22.658437 11809 net.cpp:165] Memory required for data: 57836400
I0506 11:25:22.658449 11809 layer_factory.hpp:77] Creating layer pool1
I0506 11:25:22.658479 11809 net.cpp:106] Creating Layer pool1
I0506 11:25:22.658493 11809 net.cpp:454] pool1 <- conv1
I0506 11:25:22.658509 11809 net.cpp:411] pool1 -> pool1
I0506 11:25:22.658601 11809 net.cpp:150] Setting up pool1
I0506 11:25:22.658618 11809 net.cpp:157] Top shape: 100 12 60 48 (3456000)
I0506 11:25:22.658634 11809 net.cpp:165] Memory required for data: 71660400
I0506 11:25:22.658653 11809 layer_factory.hpp:77] Creating layer conv2
I0506 11:25:22.658676 11809 net.cpp:106] Creating Layer conv2
I0506 11:25:22.658697 11809 net.cpp:454] conv2 <- pool1
I0506 11:25:22.658713 11809 net.cpp:411] conv2 -> conv2
I0506 11:25:22.661551 11809 net.cpp:150] Setting up conv2
I0506 11:25:22.661584 11809 net.cpp:157] Top shape: 100 20 54 46 (4968000)
I0506 11:25:22.661598 11809 net.cpp:165] Memory required for data: 91532400
I0506 11:25:22.661625 11809 layer_factory.hpp:77] Creating layer relu2
I0506 11:25:22.661653 11809 net.cpp:106] Creating Layer relu2
I0506 11:25:22.661667 11809 net.cpp:454] relu2 <- conv2
I0506 11:25:22.661684 11809 net.cpp:397] relu2 -> conv2 (in-place)
I0506 11:25:22.662055 11809 net.cpp:150] Setting up relu2
I0506 11:25:22.662075 11809 net.cpp:157] Top shape: 100 20 54 46 (4968000)
I0506 11:25:22.662087 11809 net.cpp:165] Memory required for data: 111404400
I0506 11:25:22.662099 11809 layer_factory.hpp:77] Creating layer pool2
I0506 11:25:22.662125 11809 net.cpp:106] Creating Layer pool2
I0506 11:25:22.662138 11809 net.cpp:454] pool2 <- conv2
I0506 11:25:22.662158 11809 net.cpp:411] pool2 -> pool2
I0506 11:25:22.662245 11809 net.cpp:150] Setting up pool2
I0506 11:25:22.662279 11809 net.cpp:157] Top shape: 100 20 27 46 (2484000)
I0506 11:25:22.662292 11809 net.cpp:165] Memory required for data: 121340400
I0506 11:25:22.662307 11809 layer_factory.hpp:77] Creating layer conv3
I0506 11:25:22.662336 11809 net.cpp:106] Creating Layer conv3
I0506 11:25:22.662350 11809 net.cpp:454] conv3 <- pool2
I0506 11:25:22.662374 11809 net.cpp:411] conv3 -> conv3
I0506 11:25:22.664371 11809 net.cpp:150] Setting up conv3
I0506 11:25:22.664399 11809 net.cpp:157] Top shape: 100 28 22 44 (2710400)
I0506 11:25:22.664412 11809 net.cpp:165] Memory required for data: 132182000
I0506 11:25:22.664443 11809 layer_factory.hpp:77] Creating layer relu3
I0506 11:25:22.664460 11809 net.cpp:106] Creating Layer relu3
I0506 11:25:22.664475 11809 net.cpp:454] relu3 <- conv3
I0506 11:25:22.664490 11809 net.cpp:397] relu3 -> conv3 (in-place)
I0506 11:25:22.665012 11809 net.cpp:150] Setting up relu3
I0506 11:25:22.665035 11809 net.cpp:157] Top shape: 100 28 22 44 (2710400)
I0506 11:25:22.665048 11809 net.cpp:165] Memory required for data: 143023600
I0506 11:25:22.665060 11809 layer_factory.hpp:77] Creating layer pool3
I0506 11:25:22.665083 11809 net.cpp:106] Creating Layer pool3
I0506 11:25:22.665105 11809 net.cpp:454] pool3 <- conv3
I0506 11:25:22.665122 11809 net.cpp:411] pool3 -> pool3
I0506 11:25:22.665205 11809 net.cpp:150] Setting up pool3
I0506 11:25:22.665223 11809 net.cpp:157] Top shape: 100 28 11 44 (1355200)
I0506 11:25:22.665243 11809 net.cpp:165] Memory required for data: 148444400
I0506 11:25:22.665256 11809 layer_factory.hpp:77] Creating layer conv4
I0506 11:25:22.665282 11809 net.cpp:106] Creating Layer conv4
I0506 11:25:22.665293 11809 net.cpp:454] conv4 <- pool3
I0506 11:25:22.665309 11809 net.cpp:411] conv4 -> conv4
I0506 11:25:22.668344 11809 net.cpp:150] Setting up conv4
I0506 11:25:22.668378 11809 net.cpp:157] Top shape: 100 36 6 42 (907200)
I0506 11:25:22.668392 11809 net.cpp:165] Memory required for data: 152073200
I0506 11:25:22.668412 11809 layer_factory.hpp:77] Creating layer relu4
I0506 11:25:22.668437 11809 net.cpp:106] Creating Layer relu4
I0506 11:25:22.668462 11809 net.cpp:454] relu4 <- conv4
I0506 11:25:22.668478 11809 net.cpp:397] relu4 -> conv4 (in-place)
I0506 11:25:22.668997 11809 net.cpp:150] Setting up relu4
I0506 11:25:22.669019 11809 net.cpp:157] Top shape: 100 36 6 42 (907200)
I0506 11:25:22.669034 11809 net.cpp:165] Memory required for data: 155702000
I0506 11:25:22.669049 11809 layer_factory.hpp:77] Creating layer pool4
I0506 11:25:22.669078 11809 net.cpp:106] Creating Layer pool4
I0506 11:25:22.669092 11809 net.cpp:454] pool4 <- conv4
I0506 11:25:22.669108 11809 net.cpp:411] pool4 -> pool4
I0506 11:25:22.669195 11809 net.cpp:150] Setting up pool4
I0506 11:25:22.669222 11809 net.cpp:157] Top shape: 100 36 3 42 (453600)
I0506 11:25:22.669234 11809 net.cpp:165] Memory required for data: 157516400
I0506 11:25:22.669247 11809 layer_factory.hpp:77] Creating layer ip1
I0506 11:25:22.669276 11809 net.cpp:106] Creating Layer ip1
I0506 11:25:22.669291 11809 net.cpp:454] ip1 <- pool4
I0506 11:25:22.669309 11809 net.cpp:411] ip1 -> ip1
I0506 11:25:22.685197 11809 net.cpp:150] Setting up ip1
I0506 11:25:22.685228 11809 net.cpp:157] Top shape: 100 196 (19600)
I0506 11:25:22.685241 11809 net.cpp:165] Memory required for data: 157594800
I0506 11:25:22.685276 11809 layer_factory.hpp:77] Creating layer relu5
I0506 11:25:22.685303 11809 net.cpp:106] Creating Layer relu5
I0506 11:25:22.685318 11809 net.cpp:454] relu5 <- ip1
I0506 11:25:22.685333 11809 net.cpp:397] relu5 -> ip1 (in-place)
I0506 11:25:22.685704 11809 net.cpp:150] Setting up relu5
I0506 11:25:22.685724 11809 net.cpp:157] Top shape: 100 196 (19600)
I0506 11:25:22.685737 11809 net.cpp:165] Memory required for data: 157673200
I0506 11:25:22.685752 11809 layer_factory.hpp:77] Creating layer drop1
I0506 11:25:22.685781 11809 net.cpp:106] Creating Layer drop1
I0506 11:25:22.685794 11809 net.cpp:454] drop1 <- ip1
I0506 11:25:22.685813 11809 net.cpp:397] drop1 -> ip1 (in-place)
I0506 11:25:22.685871 11809 net.cpp:150] Setting up drop1
I0506 11:25:22.685902 11809 net.cpp:157] Top shape: 100 196 (19600)
I0506 11:25:22.685915 11809 net.cpp:165] Memory required for data: 157751600
I0506 11:25:22.685930 11809 layer_factory.hpp:77] Creating layer ip2
I0506 11:25:22.685950 11809 net.cpp:106] Creating Layer ip2
I0506 11:25:22.685969 11809 net.cpp:454] ip2 <- ip1
I0506 11:25:22.685988 11809 net.cpp:411] ip2 -> ip2
I0506 11:25:22.686492 11809 net.cpp:150] Setting up ip2
I0506 11:25:22.686511 11809 net.cpp:157] Top shape: 100 98 (9800)
I0506 11:25:22.686524 11809 net.cpp:165] Memory required for data: 157790800
I0506 11:25:22.686544 11809 layer_factory.hpp:77] Creating layer relu6
I0506 11:25:22.686570 11809 net.cpp:106] Creating Layer relu6
I0506 11:25:22.686583 11809 net.cpp:454] relu6 <- ip2
I0506 11:25:22.686597 11809 net.cpp:397] relu6 -> ip2 (in-place)
I0506 11:25:22.687147 11809 net.cpp:150] Setting up relu6
I0506 11:25:22.687173 11809 net.cpp:157] Top shape: 100 98 (9800)
I0506 11:25:22.687186 11809 net.cpp:165] Memory required for data: 157830000
I0506 11:25:22.687203 11809 layer_factory.hpp:77] Creating layer drop2
I0506 11:25:22.687225 11809 net.cpp:106] Creating Layer drop2
I0506 11:25:22.687239 11809 net.cpp:454] drop2 <- ip2
I0506 11:25:22.687254 11809 net.cpp:397] drop2 -> ip2 (in-place)
I0506 11:25:22.687305 11809 net.cpp:150] Setting up drop2
I0506 11:25:22.687328 11809 net.cpp:157] Top shape: 100 98 (9800)
I0506 11:25:22.687340 11809 net.cpp:165] Memory required for data: 157869200
I0506 11:25:22.687353 11809 layer_factory.hpp:77] Creating layer ip3
I0506 11:25:22.687368 11809 net.cpp:106] Creating Layer ip3
I0506 11:25:22.687383 11809 net.cpp:454] ip3 <- ip2
I0506 11:25:22.687408 11809 net.cpp:411] ip3 -> ip3
I0506 11:25:22.687641 11809 net.cpp:150] Setting up ip3
I0506 11:25:22.687660 11809 net.cpp:157] Top shape: 100 11 (1100)
I0506 11:25:22.687672 11809 net.cpp:165] Memory required for data: 157873600
I0506 11:25:22.687693 11809 layer_factory.hpp:77] Creating layer drop3
I0506 11:25:22.687713 11809 net.cpp:106] Creating Layer drop3
I0506 11:25:22.687726 11809 net.cpp:454] drop3 <- ip3
I0506 11:25:22.687746 11809 net.cpp:397] drop3 -> ip3 (in-place)
I0506 11:25:22.687790 11809 net.cpp:150] Setting up drop3
I0506 11:25:22.687820 11809 net.cpp:157] Top shape: 100 11 (1100)
I0506 11:25:22.687834 11809 net.cpp:165] Memory required for data: 157878000
I0506 11:25:22.687846 11809 layer_factory.hpp:77] Creating layer loss
I0506 11:25:22.687867 11809 net.cpp:106] Creating Layer loss
I0506 11:25:22.687880 11809 net.cpp:454] loss <- ip3
I0506 11:25:22.687899 11809 net.cpp:454] loss <- label
I0506 11:25:22.687914 11809 net.cpp:411] loss -> loss
I0506 11:25:22.687947 11809 layer_factory.hpp:77] Creating layer loss
…
I0506 11:25:22.691018 11809 solver.cpp:181] Creating test net (#0) specified by net file: /lustre/atlas/proj-shared/hep105/caffe_titan/minosmatch_nukecczdefs_127x50_x_unshifted_me1Bmc.prototxt
I0506 11:25:22.691087 11809 net.cpp:322] The NetState phase (1) differed from the phase (0) specified by a rule in layer data_hdf5
I0506 11:25:22.691458 11809 net.cpp:49] Initializing net from parameters: 
name: "caffe_test_127x50_x_unshifted"
state {
  phase: TEST
}
layer {
  name: "data_hdf5"
  type: "HDF5Data"
  top: "data"
  top: "label"
  include {
    phase: TEST
  }
  hdf5_data_param {
    source: "/lustre/atlas/proj-shared/hep105/caffe_titan/minosmatch_nukecczdefs_127x50_x_unshifted_me1Bmc.testlist"
    batch_size: 100
  }
}
layer {
  name: "conv1"
  type: "Convolution"
  bottom: "data"
  top: "conv1"
  convolution_param {
    num_output: 12
    pad: 0
    stride: 1
    weight_filler {
      type: "xavier"
    }
    bias_filler {
      type: "constant"
    }
    kernel_h: 8
    kernel_w: 3
  }
}
layer {
  name: "relu1"
  type: "ReLU"
  bottom: "conv1"
  top: "conv1"
}
layer {
  name: "pool1"
  type: "Pooling"
  bottom: "conv1"
  top: "pool1"
  pooling_param {
    pool: MAX
    kernel_h: 2
    kernel_w: 1
    stride_h: 2
    stride_w: 1
  }
}
layer {
  name: "conv2"
  type: "Convolution"
  bottom: "pool1"
  top: "conv2"
  convolution_param {
    num_output: 20
    pad: 0
    stride: 1
    weight_filler {
      type: "xavier"
    }
    bias_filler {
      type: "constant"
    }
    kernel_h: 7
    kernel_w: 3
  }
}
layer {
  name: "relu2"
  type: "ReLU"
  bottom: "conv2"
  top: "conv2"
}
layer {
  name: "pool2"
  type: "Pooling"
  bottom: "conv2"
  top: "pool2"
  pooling_param {
    pool: MAX
    kernel_h: 2
    kernel_w: 1
    stride_h: 2
    stride_w: 1
  }
}
layer {
  name: "conv3"
  type: "Convolution"
  bottom: "pool2"
  top: "conv3"
  convolution_param {
    num_output: 28
    pad: 0
    stride: 1
    weight_filler {
      type: "xavier"
    }
    bias_filler {
      type: "constant"
    }
    kernel_h: 6
    kernel_w: 3
  }
}
layer {
  name: "relu3"
  type: "ReLU"
  bottom: "conv3"
  top: "conv3"
}
layer {
  name: "pool3"
  type: "Pooling"
  bottom: "conv3"
  top: "pool3"
  pooling_param {
    pool: MAX
    kernel_h: 2
    kernel_w: 1
    stride_h: 2
    stride_w: 1
  }
}
layer {
  name: "conv4"
  type: "Convolution"
  bottom: "pool3"
  top: "conv4"
  convolution_param {
    num_output: 36
    pad: 0
    stride: 1
    weight_filler {
      type: "xavier"
    }
    bias_filler {
      type: "constant"
    }
    kernel_h: 6
    kernel_w: 3
  }
}
layer {
  name: "relu4"
  type: "ReLU"
  bottom: "conv4"
  top: "conv4"
}
layer {
  name: "pool4"
  type: "Pooling"
  bottom: "conv4"
  top: "pool4"
  pooling_param {
    pool: MAX
    kernel_h: 2
    kernel_w: 1
    stride_h: 2
    stride_w: 1
  }
}
layer {
  name: "ip1"
  type: "InnerProduct"
  bottom: "pool4"
  top: "ip1"
  inner_product_param {
    num_output: 196
    weight_filler {
      type: "xavier"
    }
    bias_filler {
      type: "constant"
    }
  }
}
layer {
  name: "relu5"
  type: "ReLU"
  bottom: "ip1"
  top: "ip1"
}
layer {
  name: "drop1"
  type: "Dropout"
  bottom: "ip1"
  top: "ip1"
  dropout_param {
    dropout_ratio: 0.5
  }
}
layer {
  name: "ip2"
  type: "InnerProduct"
  bottom: "ip1"
  top: "ip2"
  inner_product_param {
    num_output: 98
    weight_filler {
      type: "xavier"
    }
    bias_filler {
      type: "constant"
    }
  }
}
layer {
  name: "relu6"
  type: "ReLU"
  bottom: "ip2"
  top: "ip2"
}
layer {
  name: "drop2"
  type: "Dropout"
  bottom: "ip2"
  top: "ip2"
  dropout_param {
    dropout_ratio: 0.5
  }
}
layer {
  name: "ip3"
  type: "InnerProduct"
  bottom: "ip2"
  top: "ip3"
  inner_product_param {
    num_output: 11
    weight_filler {
      type: "xavier"
    }
    bias_filler {
      type: "constant"
    }
  }
}
layer {
  name: "drop3"
  type: "Dropout"
  bottom: "ip3"
  top: "ip3"
  dropout_param {
    dropout_ratio: 0.5
  }
}
layer {
  name: "accuracy"
  type: "Accuracy"
  bottom: "ip3"
  bottom: "label"
  top: "accuracy"
  include {
    phase: TEST
  }
}
layer {
  name: "loss"
  type: "SoftmaxWithLoss"
  bottom: "ip3"
  bottom: "label"
  top: "loss"
}
I0506 11:25:22.691690 11809 layer_factory.hpp:77] Creating layer data_hdf5
I0506 11:25:22.691710 11809 net.cpp:106] Creating Layer data_hdf5
I0506 11:25:22.691726 11809 net.cpp:411] data_hdf5 -> data
I0506 11:25:22.691748 11809 net.cpp:411] data_hdf5 -> label
I0506 11:25:22.691766 11809 hdf5_data_layer.cpp:79] Loading list of HDF5 filenames from: /lustre/atlas/proj-shared/hep105/caffe_titan/minosmatch_nukecczdefs_127x50_x_unshifted_me1Bmc.testlist
I0506 11:25:22.694321 11809 hdf5_data_layer.cpp:93] Number of HDF5 files: 3
I0506 11:25:29.460294 11809 net.cpp:150] Setting up data_hdf5
I0506 11:25:29.460341 11809 net.cpp:157] Top shape: 100 1 127 50 (635000)
I0506 11:25:29.460361 11809 net.cpp:157] Top shape: 100 (100)
I0506 11:25:29.460373 11809 net.cpp:165] Memory required for data: 2540400
I0506 11:25:29.460388 11809 layer_factory.hpp:77] Creating layer label_data_hdf5_1_split
I0506 11:25:29.460417 11809 net.cpp:106] Creating Layer label_data_hdf5_1_split
I0506 11:25:29.460430 11809 net.cpp:454] label_data_hdf5_1_split <- label
I0506 11:25:29.460453 11809 net.cpp:411] label_data_hdf5_1_split -> label_data_hdf5_1_split_0
I0506 11:25:29.460491 11809 net.cpp:411] label_data_hdf5_1_split -> label_data_hdf5_1_split_1
I0506 11:25:29.460566 11809 net.cpp:150] Setting up label_data_hdf5_1_split
I0506 11:25:29.460582 11809 net.cpp:157] Top shape: 100 (100)
I0506 11:25:29.460597 11809 net.cpp:157] Top shape: 100 (100)
I0506 11:25:29.460611 11809 net.cpp:165] Memory required for data: 2541200
I0506 11:25:29.460631 11809 layer_factory.hpp:77] Creating layer conv1
I0506 11:25:29.460654 11809 net.cpp:106] Creating Layer conv1
I0506 11:25:29.460680 11809 net.cpp:454] conv1 <- data
I0506 11:25:29.460695 11809 net.cpp:411] conv1 -> conv1
I0506 11:25:29.462556 11809 net.cpp:150] Setting up conv1
I0506 11:25:29.462585 11809 net.cpp:157] Top shape: 100 12 120 48 (6912000)
I0506 11:25:29.462599 11809 net.cpp:165] Memory required for data: 30189200
I0506 11:25:29.462621 11809 layer_factory.hpp:77] Creating layer relu1
I0506 11:25:29.462656 11809 net.cpp:106] Creating Layer relu1
I0506 11:25:29.462671 11809 net.cpp:454] relu1 <- conv1
I0506 11:25:29.462687 11809 net.cpp:397] relu1 -> conv1 (in-place)
I0506 11:25:29.463201 11809 net.cpp:150] Setting up relu1
I0506 11:25:29.463223 11809 net.cpp:157] Top shape: 100 12 120 48 (6912000)
I0506 11:25:29.463237 11809 net.cpp:165] Memory required for data: 57837200
I0506 11:25:29.463253 11809 layer_factory.hpp:77] Creating layer pool1
I0506 11:25:29.463281 11809 net.cpp:106] Creating Layer pool1
I0506 11:25:29.463294 11809 net.cpp:454] pool1 <- conv1
I0506 11:25:29.463310 11809 net.cpp:411] pool1 -> pool1
I0506 11:25:29.463399 11809 net.cpp:150] Setting up pool1
I0506 11:25:29.463415 11809 net.cpp:157] Top shape: 100 12 60 48 (3456000)
I0506 11:25:29.463430 11809 net.cpp:165] Memory required for data: 71661200
I0506 11:25:29.463449 11809 layer_factory.hpp:77] Creating layer conv2
I0506 11:25:29.463471 11809 net.cpp:106] Creating Layer conv2
I0506 11:25:29.463493 11809 net.cpp:454] conv2 <- pool1
I0506 11:25:29.463510 11809 net.cpp:411] conv2 -> conv2
I0506 11:25:29.465447 11809 net.cpp:150] Setting up conv2
I0506 11:25:29.465471 11809 net.cpp:157] Top shape: 100 20 54 46 (4968000)
I0506 11:25:29.465497 11809 net.cpp:165] Memory required for data: 91533200
I0506 11:25:29.465529 11809 layer_factory.hpp:77] Creating layer relu2
I0506 11:25:29.465554 11809 net.cpp:106] Creating Layer relu2
I0506 11:25:29.465569 11809 net.cpp:454] relu2 <- conv2
I0506 11:25:29.465590 11809 net.cpp:397] relu2 -> conv2 (in-place)
I0506 11:25:29.465946 11809 net.cpp:150] Setting up relu2
I0506 11:25:29.465970 11809 net.cpp:157] Top shape: 100 20 54 46 (4968000)
I0506 11:25:29.465982 11809 net.cpp:165] Memory required for data: 111405200
I0506 11:25:29.465997 11809 layer_factory.hpp:77] Creating layer pool2
I0506 11:25:29.466019 11809 net.cpp:106] Creating Layer pool2
I0506 11:25:29.466032 11809 net.cpp:454] pool2 <- conv2
I0506 11:25:29.466048 11809 net.cpp:411] pool2 -> pool2
I0506 11:25:29.466140 11809 net.cpp:150] Setting up pool2
I0506 11:25:29.466157 11809 net.cpp:157] Top shape: 100 20 27 46 (2484000)
I0506 11:25:29.466171 11809 net.cpp:165] Memory required for data: 121341200
I0506 11:25:29.466183 11809 layer_factory.hpp:77] Creating layer conv3
I0506 11:25:29.466209 11809 net.cpp:106] Creating Layer conv3
I0506 11:25:29.466233 11809 net.cpp:454] conv3 <- pool2
I0506 11:25:29.466249 11809 net.cpp:411] conv3 -> conv3
I0506 11:25:29.468263 11809 net.cpp:150] Setting up conv3
I0506 11:25:29.468296 11809 net.cpp:157] Top shape: 100 28 22 44 (2710400)
I0506 11:25:29.468308 11809 net.cpp:165] Memory required for data: 132182800
I0506 11:25:29.468334 11809 layer_factory.hpp:77] Creating layer relu3
I0506 11:25:29.468358 11809 net.cpp:106] Creating Layer relu3
I0506 11:25:29.468371 11809 net.cpp:454] relu3 <- conv3
I0506 11:25:29.468387 11809 net.cpp:397] relu3 -> conv3 (in-place)
I0506 11:25:29.468896 11809 net.cpp:150] Setting up relu3
I0506 11:25:29.468919 11809 net.cpp:157] Top shape: 100 28 22 44 (2710400)
I0506 11:25:29.468932 11809 net.cpp:165] Memory required for data: 143024400
I0506 11:25:29.468945 11809 layer_factory.hpp:77] Creating layer pool3
I0506 11:25:29.468976 11809 net.cpp:106] Creating Layer pool3
I0506 11:25:29.468989 11809 net.cpp:454] pool3 <- conv3
I0506 11:25:29.469004 11809 net.cpp:411] pool3 -> pool3
I0506 11:25:29.469092 11809 net.cpp:150] Setting up pool3
I0506 11:25:29.469110 11809 net.cpp:157] Top shape: 100 28 11 44 (1355200)
I0506 11:25:29.469120 11809 net.cpp:165] Memory required for data: 148445200
I0506 11:25:29.469135 11809 layer_factory.hpp:77] Creating layer conv4
I0506 11:25:29.469164 11809 net.cpp:106] Creating Layer conv4
I0506 11:25:29.469178 11809 net.cpp:454] conv4 <- pool3
I0506 11:25:29.469202 11809 net.cpp:411] conv4 -> conv4
I0506 11:25:29.471372 11809 net.cpp:150] Setting up conv4
I0506 11:25:29.471400 11809 net.cpp:157] Top shape: 100 36 6 42 (907200)
I0506 11:25:29.471415 11809 net.cpp:165] Memory required for data: 152074000
I0506 11:25:29.471433 11809 layer_factory.hpp:77] Creating layer relu4
I0506 11:25:29.471456 11809 net.cpp:106] Creating Layer relu4
I0506 11:25:29.471478 11809 net.cpp:454] relu4 <- conv4
I0506 11:25:29.471493 11809 net.cpp:397] relu4 -> conv4 (in-place)
I0506 11:25:29.471997 11809 net.cpp:150] Setting up relu4
I0506 11:25:29.472020 11809 net.cpp:157] Top shape: 100 36 6 42 (907200)
I0506 11:25:29.472033 11809 net.cpp:165] Memory required for data: 155702800
I0506 11:25:29.472049 11809 layer_factory.hpp:77] Creating layer pool4
I0506 11:25:29.472076 11809 net.cpp:106] Creating Layer pool4
I0506 11:25:29.472090 11809 net.cpp:454] pool4 <- conv4
I0506 11:25:29.472105 11809 net.cpp:411] pool4 -> pool4
I0506 11:25:29.472194 11809 net.cpp:150] Setting up pool4
I0506 11:25:29.472211 11809 net.cpp:157] Top shape: 100 36 3 42 (453600)
I0506 11:25:29.472226 11809 net.cpp:165] Memory required for data: 157517200
I0506 11:25:29.472239 11809 layer_factory.hpp:77] Creating layer ip1
I0506 11:25:29.472255 11809 net.cpp:106] Creating Layer ip1
I0506 11:25:29.472275 11809 net.cpp:454] ip1 <- pool4
I0506 11:25:29.472300 11809 net.cpp:411] ip1 -> ip1
I0506 11:25:29.488200 11809 net.cpp:150] Setting up ip1
I0506 11:25:29.488231 11809 net.cpp:157] Top shape: 100 196 (19600)
I0506 11:25:29.488255 11809 net.cpp:165] Memory required for data: 157595600
I0506 11:25:29.488289 11809 layer_factory.hpp:77] Creating layer relu5
I0506 11:25:29.488318 11809 net.cpp:106] Creating Layer relu5
I0506 11:25:29.488332 11809 net.cpp:454] relu5 <- ip1
I0506 11:25:29.488348 11809 net.cpp:397] relu5 -> ip1 (in-place)
I0506 11:25:29.488726 11809 net.cpp:150] Setting up relu5
I0506 11:25:29.488745 11809 net.cpp:157] Top shape: 100 196 (19600)
I0506 11:25:29.488759 11809 net.cpp:165] Memory required for data: 157674000
I0506 11:25:29.488775 11809 layer_factory.hpp:77] Creating layer drop1
I0506 11:25:29.488804 11809 net.cpp:106] Creating Layer drop1
I0506 11:25:29.488818 11809 net.cpp:454] drop1 <- ip1
I0506 11:25:29.488837 11809 net.cpp:397] drop1 -> ip1 (in-place)
I0506 11:25:29.488899 11809 net.cpp:150] Setting up drop1
I0506 11:25:29.488919 11809 net.cpp:157] Top shape: 100 196 (19600)
I0506 11:25:29.488934 11809 net.cpp:165] Memory required for data: 157752400
I0506 11:25:29.488945 11809 layer_factory.hpp:77] Creating layer ip2
I0506 11:25:29.488965 11809 net.cpp:106] Creating Layer ip2
I0506 11:25:29.488976 11809 net.cpp:454] ip2 <- ip1
I0506 11:25:29.489001 11809 net.cpp:411] ip2 -> ip2
I0506 11:25:29.489516 11809 net.cpp:150] Setting up ip2
I0506 11:25:29.489536 11809 net.cpp:157] Top shape: 100 98 (9800)
I0506 11:25:29.489547 11809 net.cpp:165] Memory required for data: 157791600
I0506 11:25:29.489568 11809 layer_factory.hpp:77] Creating layer relu6
I0506 11:25:29.489593 11809 net.cpp:106] Creating Layer relu6
I0506 11:25:29.489606 11809 net.cpp:454] relu6 <- ip2
I0506 11:25:29.489621 11809 net.cpp:397] relu6 -> ip2 (in-place)
I0506 11:25:29.490185 11809 net.cpp:150] Setting up relu6
I0506 11:25:29.490211 11809 net.cpp:157] Top shape: 100 98 (9800)
I0506 11:25:29.490224 11809 net.cpp:165] Memory required for data: 157830800
I0506 11:25:29.490242 11809 layer_factory.hpp:77] Creating layer drop2
I0506 11:25:29.490265 11809 net.cpp:106] Creating Layer drop2
I0506 11:25:29.490278 11809 net.cpp:454] drop2 <- ip2
I0506 11:25:29.490293 11809 net.cpp:397] drop2 -> ip2 (in-place)
I0506 11:25:29.490351 11809 net.cpp:150] Setting up drop2
I0506 11:25:29.490367 11809 net.cpp:157] Top shape: 100 98 (9800)
I0506 11:25:29.490380 11809 net.cpp:165] Memory required for data: 157870000
I0506 11:25:29.490392 11809 layer_factory.hpp:77] Creating layer ip3
I0506 11:25:29.490407 11809 net.cpp:106] Creating Layer ip3
I0506 11:25:29.490422 11809 net.cpp:454] ip3 <- ip2
I0506 11:25:29.490447 11809 net.cpp:411] ip3 -> ip3
I0506 11:25:29.490686 11809 net.cpp:150] Setting up ip3
I0506 11:25:29.490705 11809 net.cpp:157] Top shape: 100 11 (1100)
I0506 11:25:29.490718 11809 net.cpp:165] Memory required for data: 157874400
I0506 11:25:29.490738 11809 layer_factory.hpp:77] Creating layer drop3
I0506 11:25:29.490761 11809 net.cpp:106] Creating Layer drop3
I0506 11:25:29.490773 11809 net.cpp:454] drop3 <- ip3
I0506 11:25:29.490792 11809 net.cpp:397] drop3 -> ip3 (in-place)
I0506 11:25:29.490839 11809 net.cpp:150] Setting up drop3
I0506 11:25:29.490864 11809 net.cpp:157] Top shape: 100 11 (1100)
I0506 11:25:29.490876 11809 net.cpp:165] Memory required for data: 157878800
I0506 11:25:29.490890 11809 layer_factory.hpp:77] Creating layer ip3_drop3_0_split
I0506 11:25:29.490902 11809 net.cpp:106] Creating Layer ip3_drop3_0_split
I0506 11:25:29.490917 11809 net.cpp:454] ip3_drop3_0_split <- ip3
I0506 11:25:29.490932 11809 net.cpp:411] ip3_drop3_0_split -> ip3_drop3_0_split_0
I0506 11:25:29.490955 11809 net.cpp:411] ip3_drop3_0_split -> ip3_drop3_0_split_1
I0506 11:25:29.491042 11809 net.cpp:150] Setting up ip3_drop3_0_split
I0506 11:25:29.491060 11809 net.cpp:157] Top shape: 100 11 (1100)
I0506 11:25:29.491075 11809 net.cpp:157] Top shape: 100 11 (1100)
I0506 11:25:29.491089 11809 net.cpp:165] Memory required for data: 157887600
I0506 11:25:29.491101 11809 layer_factory.hpp:77] Creating layer accuracy
I0506 11:25:29.491128 11809 net.cpp:106] Creating Layer accuracy
I0506 11:25:29.491142 11809 net.cpp:454] accuracy <- ip3_drop3_0_split_0
I0506 11:25:29.491163 11809 net.cpp:454] accuracy <- label_data_hdf5_1_split_0
I0506 11:25:29.491181 11809 net.cpp:411] accuracy -> accuracy
…
