…
I0525 23:29:18.117683 26495 net.cpp:322] The NetState phase (0) differed from the phase (1) specified by a rule in layer data_hdf5
I0525 23:29:18.117740 26495 net.cpp:322] The NetState phase (0) differed from the phase (1) specified by a rule in layer accuracy
I0525 23:29:18.118088 26495 net.cpp:49] Initializing net from parameters: 
name: "caffe_test_127x50_x_unshifted"
state {
  phase: TRAIN
}
layer {
  name: "data_hdf5"
  type: "HDF5Data"
  top: "data"
  top: "label"
  include {
    phase: TRAIN
  }
  hdf5_data_param {
    source: "/lustre/atlas/proj-shared/hep105/caffe_titan/minosmatch_nukecczdefs_127x50_x_unshifted_me1Bmc.trainlist"
    batch_size: 10
  }
}
layer {
  name: "conv1"
  type: "Convolution"
  bottom: "data"
  top: "conv1"
  convolution_param {
    num_output: 12
    pad: 0
    stride: 1
    weight_filler {
      type: "xavier"
    }
    bias_filler {
      type: "constant"
    }
    kernel_h: 8
    kernel_w: 3
  }
}
layer {
  name: "relu1"
  type: "ReLU"
  bottom: "conv1"
  top: "conv1"
}
layer {
  name: "pool1"
  type: "Pooling"
  bottom: "conv1"
  top: "pool1"
  pooling_param {
    pool: MAX
    kernel_h: 2
    kernel_w: 1
    stride_h: 2
    stride_w: 1
  }
}
layer {
  name: "conv2"
  type: "Convolution"
  bottom: "pool1"
  top: "conv2"
  convolution_param {
    num_output: 20
    pad: 0
    stride: 1
    weight_filler {
      type: "xavier"
    }
    bias_filler {
      type: "constant"
    }
    kernel_h: 7
    kernel_w: 3
  }
}
layer {
  name: "relu2"
  type: "ReLU"
  bottom: "conv2"
  top: "conv2"
}
layer {
  name: "pool2"
  type: "Pooling"
  bottom: "conv2"
  top: "pool2"
  pooling_param {
    pool: MAX
    kernel_h: 2
    kernel_w: 1
    stride_h: 2
    stride_w: 1
  }
}
layer {
  name: "conv3"
  type: "Convolution"
  bottom: "pool2"
  top: "conv3"
  convolution_param {
    num_output: 28
    pad: 0
    stride: 1
    weight_filler {
      type: "xavier"
    }
    bias_filler {
      type: "constant"
    }
    kernel_h: 6
    kernel_w: 3
  }
}
layer {
  name: "relu3"
  type: "ReLU"
  bottom: "conv3"
  top: "conv3"
}
layer {
  name: "pool3"
  type: "Pooling"
  bottom: "conv3"
  top: "pool3"
  pooling_param {
    pool: MAX
    kernel_h: 2
    kernel_w: 1
    stride_h: 2
    stride_w: 1
  }
}
layer {
  name: "conv4"
  type: "Convolution"
  bottom: "pool3"
  top: "conv4"
  convolution_param {
    num_output: 36
    pad: 0
    stride: 1
    weight_filler {
      type: "xavier"
    }
    bias_filler {
      type: "constant"
    }
    kernel_h: 6
    kernel_w: 3
  }
}
layer {
  name: "relu4"
  type: "ReLU"
  bottom: "conv4"
  top: "conv4"
}
layer {
  name: "pool4"
  type: "Pooling"
  bottom: "conv4"
  top: "pool4"
  pooling_param {
    pool: MAX
    kernel_h: 2
    kernel_w: 1
    stride_h: 2
    stride_w: 1
  }
}
layer {
  name: "ip1"
  type: "InnerProduct"
  bottom: "pool4"
  top: "ip1"
  inner_product_param {
    num_output: 196
    weight_filler {
      type: "xavier"
    }
    bias_filler {
      type: "constant"
    }
  }
}
layer {
  name: "relu5"
  type: "ReLU"
  bottom: "ip1"
  top: "ip1"
}
layer {
  name: "drop1"
  type: "Dropout"
  bottom: "ip1"
  top: "ip1"
  dropout_param {
    dropout_ratio: 0.5
  }
}
layer {
  name: "ip2"
  type: "InnerProduct"
  bottom: "ip1"
  top: "ip2"
  inner_product_param {
    num_output: 98
    weight_filler {
      type: "xavier"
    }
    bias_filler {
      type: "constant"
    }
  }
}
layer {
  name: "relu6"
  type: "ReLU"
  bottom: "ip2"
  top: "ip2"
}
layer {
  name: "drop2"
  type: "Dropout"
  bottom: "ip2"
  top: "ip2"
  dropout_param {
    dropout_ratio: 0.5
  }
}
layer {
  name: "ip3"
  type: "InnerProduct"
  bottom: "ip2"
  top: "ip3"
  inner_product_param {
    num_output: 11
    weight_filler {
      type: "xavier"
    }
    bias_filler {
      type: "constant"
    }
  }
}
layer {
  name: "drop3"
  type: "Dropout"
  bottom: "ip3"
  top: "ip3"
  dropout_param {
    dropout_ratio: 0.5
  }
}
layer {
  name: "loss"
  type: "SoftmaxWithLoss"
  bottom: "ip3"
  bottom: "label"
  top: "loss"
}
I0525 23:29:18.118268 26495 layer_factory.hpp:77] Creating layer data_hdf5
I0525 23:29:18.118293 26495 net.cpp:106] Creating Layer data_hdf5
I0525 23:29:18.118306 26495 net.cpp:411] data_hdf5 -> data
I0525 23:29:18.118340 26495 net.cpp:411] data_hdf5 -> label
I0525 23:29:18.118373 26495 hdf5_data_layer.cpp:79] Loading list of HDF5 filenames from: /lustre/atlas/proj-shared/hep105/caffe_titan/minosmatch_nukecczdefs_127x50_x_unshifted_me1Bmc.trainlist
I0525 23:29:18.119563 26495 hdf5_data_layer.cpp:93] Number of HDF5 files: 15
I0525 23:29:18.121919 26495 hdf5.cpp:32] Datatype class: H5T_FLOAT
I0525 23:29:39.676532 26495 hdf5.cpp:35] Datatype class: H5T_INTEGER
I0525 23:29:39.681892 26495 net.cpp:150] Setting up data_hdf5
I0525 23:29:39.681936 26495 net.cpp:157] Top shape: 10 1 127 50 (63500)
I0525 23:29:39.681951 26495 net.cpp:157] Top shape: 10 (10)
I0525 23:29:39.681962 26495 net.cpp:165] Memory required for data: 254040
I0525 23:29:39.681975 26495 layer_factory.hpp:77] Creating layer conv1
I0525 23:29:39.682008 26495 net.cpp:106] Creating Layer conv1
I0525 23:29:39.682020 26495 net.cpp:454] conv1 <- data
I0525 23:29:39.682044 26495 net.cpp:411] conv1 -> conv1
I0525 23:29:40.044317 26495 net.cpp:150] Setting up conv1
I0525 23:29:40.044363 26495 net.cpp:157] Top shape: 10 12 120 48 (691200)
I0525 23:29:40.044374 26495 net.cpp:165] Memory required for data: 3018840
I0525 23:29:40.044406 26495 layer_factory.hpp:77] Creating layer relu1
I0525 23:29:40.044427 26495 net.cpp:106] Creating Layer relu1
I0525 23:29:40.044438 26495 net.cpp:454] relu1 <- conv1
I0525 23:29:40.044452 26495 net.cpp:397] relu1 -> conv1 (in-place)
I0525 23:29:40.044975 26495 net.cpp:150] Setting up relu1
I0525 23:29:40.044992 26495 net.cpp:157] Top shape: 10 12 120 48 (691200)
I0525 23:29:40.045002 26495 net.cpp:165] Memory required for data: 5783640
I0525 23:29:40.045012 26495 layer_factory.hpp:77] Creating layer pool1
I0525 23:29:40.045029 26495 net.cpp:106] Creating Layer pool1
I0525 23:29:40.045049 26495 net.cpp:454] pool1 <- conv1
I0525 23:29:40.045060 26495 net.cpp:411] pool1 -> pool1
I0525 23:29:40.045140 26495 net.cpp:150] Setting up pool1
I0525 23:29:40.045155 26495 net.cpp:157] Top shape: 10 12 60 48 (345600)
I0525 23:29:40.045164 26495 net.cpp:165] Memory required for data: 7166040
I0525 23:29:40.045174 26495 layer_factory.hpp:77] Creating layer conv2
I0525 23:29:40.045195 26495 net.cpp:106] Creating Layer conv2
I0525 23:29:40.045207 26495 net.cpp:454] conv2 <- pool1
I0525 23:29:40.045219 26495 net.cpp:411] conv2 -> conv2
I0525 23:29:40.047916 26495 net.cpp:150] Setting up conv2
I0525 23:29:40.047945 26495 net.cpp:157] Top shape: 10 20 54 46 (496800)
I0525 23:29:40.047955 26495 net.cpp:165] Memory required for data: 9153240
I0525 23:29:40.047974 26495 layer_factory.hpp:77] Creating layer relu2
I0525 23:29:40.047989 26495 net.cpp:106] Creating Layer relu2
I0525 23:29:40.047999 26495 net.cpp:454] relu2 <- conv2
I0525 23:29:40.048012 26495 net.cpp:397] relu2 -> conv2 (in-place)
I0525 23:29:40.048344 26495 net.cpp:150] Setting up relu2
I0525 23:29:40.048359 26495 net.cpp:157] Top shape: 10 20 54 46 (496800)
I0525 23:29:40.048369 26495 net.cpp:165] Memory required for data: 11140440
I0525 23:29:40.048380 26495 layer_factory.hpp:77] Creating layer pool2
I0525 23:29:40.048393 26495 net.cpp:106] Creating Layer pool2
I0525 23:29:40.048403 26495 net.cpp:454] pool2 <- conv2
I0525 23:29:40.048415 26495 net.cpp:411] pool2 -> pool2
I0525 23:29:40.048497 26495 net.cpp:150] Setting up pool2
I0525 23:29:40.048511 26495 net.cpp:157] Top shape: 10 20 27 46 (248400)
I0525 23:29:40.048521 26495 net.cpp:165] Memory required for data: 12134040
I0525 23:29:40.048528 26495 layer_factory.hpp:77] Creating layer conv3
I0525 23:29:40.048547 26495 net.cpp:106] Creating Layer conv3
I0525 23:29:40.048557 26495 net.cpp:454] conv3 <- pool2
I0525 23:29:40.048570 26495 net.cpp:411] conv3 -> conv3
I0525 23:29:40.050683 26495 net.cpp:150] Setting up conv3
I0525 23:29:40.050707 26495 net.cpp:157] Top shape: 10 28 22 44 (271040)
I0525 23:29:40.050717 26495 net.cpp:165] Memory required for data: 13218200
I0525 23:29:40.050736 26495 layer_factory.hpp:77] Creating layer relu3
I0525 23:29:40.050752 26495 net.cpp:106] Creating Layer relu3
I0525 23:29:40.050762 26495 net.cpp:454] relu3 <- conv3
I0525 23:29:40.050776 26495 net.cpp:397] relu3 -> conv3 (in-place)
I0525 23:29:40.051236 26495 net.cpp:150] Setting up relu3
I0525 23:29:40.051254 26495 net.cpp:157] Top shape: 10 28 22 44 (271040)
I0525 23:29:40.051265 26495 net.cpp:165] Memory required for data: 14302360
I0525 23:29:40.051275 26495 layer_factory.hpp:77] Creating layer pool3
I0525 23:29:40.051288 26495 net.cpp:106] Creating Layer pool3
I0525 23:29:40.051298 26495 net.cpp:454] pool3 <- conv3
I0525 23:29:40.051311 26495 net.cpp:411] pool3 -> pool3
I0525 23:29:40.051378 26495 net.cpp:150] Setting up pool3
I0525 23:29:40.051393 26495 net.cpp:157] Top shape: 10 28 11 44 (135520)
I0525 23:29:40.051401 26495 net.cpp:165] Memory required for data: 14844440
I0525 23:29:40.051411 26495 layer_factory.hpp:77] Creating layer conv4
I0525 23:29:40.051429 26495 net.cpp:106] Creating Layer conv4
I0525 23:29:40.051440 26495 net.cpp:454] conv4 <- pool3
I0525 23:29:40.051452 26495 net.cpp:411] conv4 -> conv4
I0525 23:29:40.054185 26495 net.cpp:150] Setting up conv4
I0525 23:29:40.054214 26495 net.cpp:157] Top shape: 10 36 6 42 (90720)
I0525 23:29:40.054224 26495 net.cpp:165] Memory required for data: 15207320
I0525 23:29:40.054240 26495 layer_factory.hpp:77] Creating layer relu4
I0525 23:29:40.054255 26495 net.cpp:106] Creating Layer relu4
I0525 23:29:40.054265 26495 net.cpp:454] relu4 <- conv4
I0525 23:29:40.054277 26495 net.cpp:397] relu4 -> conv4 (in-place)
I0525 23:29:40.054746 26495 net.cpp:150] Setting up relu4
I0525 23:29:40.054764 26495 net.cpp:157] Top shape: 10 36 6 42 (90720)
I0525 23:29:40.054774 26495 net.cpp:165] Memory required for data: 15570200
I0525 23:29:40.054785 26495 layer_factory.hpp:77] Creating layer pool4
I0525 23:29:40.054797 26495 net.cpp:106] Creating Layer pool4
I0525 23:29:40.054807 26495 net.cpp:454] pool4 <- conv4
I0525 23:29:40.054821 26495 net.cpp:411] pool4 -> pool4
I0525 23:29:40.054889 26495 net.cpp:150] Setting up pool4
I0525 23:29:40.054903 26495 net.cpp:157] Top shape: 10 36 3 42 (45360)
I0525 23:29:40.054913 26495 net.cpp:165] Memory required for data: 15751640
I0525 23:29:40.054920 26495 layer_factory.hpp:77] Creating layer ip1
I0525 23:29:40.054939 26495 net.cpp:106] Creating Layer ip1
I0525 23:29:40.054949 26495 net.cpp:454] ip1 <- pool4
I0525 23:29:40.054963 26495 net.cpp:411] ip1 -> ip1
I0525 23:29:40.070442 26495 net.cpp:150] Setting up ip1
I0525 23:29:40.070472 26495 net.cpp:157] Top shape: 10 196 (1960)
I0525 23:29:40.070483 26495 net.cpp:165] Memory required for data: 15759480
I0525 23:29:40.070504 26495 layer_factory.hpp:77] Creating layer relu5
I0525 23:29:40.070519 26495 net.cpp:106] Creating Layer relu5
I0525 23:29:40.070529 26495 net.cpp:454] relu5 <- ip1
I0525 23:29:40.070543 26495 net.cpp:397] relu5 -> ip1 (in-place)
I0525 23:29:40.070889 26495 net.cpp:150] Setting up relu5
I0525 23:29:40.070904 26495 net.cpp:157] Top shape: 10 196 (1960)
I0525 23:29:40.070914 26495 net.cpp:165] Memory required for data: 15767320
I0525 23:29:40.070922 26495 layer_factory.hpp:77] Creating layer drop1
I0525 23:29:40.070945 26495 net.cpp:106] Creating Layer drop1
I0525 23:29:40.070955 26495 net.cpp:454] drop1 <- ip1
I0525 23:29:40.070967 26495 net.cpp:397] drop1 -> ip1 (in-place)
I0525 23:29:40.071027 26495 net.cpp:150] Setting up drop1
I0525 23:29:40.071040 26495 net.cpp:157] Top shape: 10 196 (1960)
I0525 23:29:40.071049 26495 net.cpp:165] Memory required for data: 15775160
I0525 23:29:40.071059 26495 layer_factory.hpp:77] Creating layer ip2
I0525 23:29:40.071077 26495 net.cpp:106] Creating Layer ip2
I0525 23:29:40.071089 26495 net.cpp:454] ip2 <- ip1
I0525 23:29:40.071101 26495 net.cpp:411] ip2 -> ip2
I0525 23:29:40.071568 26495 net.cpp:150] Setting up ip2
I0525 23:29:40.071581 26495 net.cpp:157] Top shape: 10 98 (980)
I0525 23:29:40.071591 26495 net.cpp:165] Memory required for data: 15779080
I0525 23:29:40.071606 26495 layer_factory.hpp:77] Creating layer relu6
I0525 23:29:40.071620 26495 net.cpp:106] Creating Layer relu6
I0525 23:29:40.071630 26495 net.cpp:454] relu6 <- ip2
I0525 23:29:40.071641 26495 net.cpp:397] relu6 -> ip2 (in-place)
I0525 23:29:40.072162 26495 net.cpp:150] Setting up relu6
I0525 23:29:40.072178 26495 net.cpp:157] Top shape: 10 98 (980)
I0525 23:29:40.072188 26495 net.cpp:165] Memory required for data: 15783000
I0525 23:29:40.072198 26495 layer_factory.hpp:77] Creating layer drop2
I0525 23:29:40.072211 26495 net.cpp:106] Creating Layer drop2
I0525 23:29:40.072221 26495 net.cpp:454] drop2 <- ip2
I0525 23:29:40.072234 26495 net.cpp:397] drop2 -> ip2 (in-place)
I0525 23:29:40.072276 26495 net.cpp:150] Setting up drop2
I0525 23:29:40.072289 26495 net.cpp:157] Top shape: 10 98 (980)
I0525 23:29:40.072300 26495 net.cpp:165] Memory required for data: 15786920
I0525 23:29:40.072309 26495 layer_factory.hpp:77] Creating layer ip3
I0525 23:29:40.072324 26495 net.cpp:106] Creating Layer ip3
I0525 23:29:40.072332 26495 net.cpp:454] ip3 <- ip2
I0525 23:29:40.072345 26495 net.cpp:411] ip3 -> ip3
I0525 23:29:40.072556 26495 net.cpp:150] Setting up ip3
I0525 23:29:40.072568 26495 net.cpp:157] Top shape: 10 11 (110)
I0525 23:29:40.072578 26495 net.cpp:165] Memory required for data: 15787360
I0525 23:29:40.072593 26495 layer_factory.hpp:77] Creating layer drop3
I0525 23:29:40.072605 26495 net.cpp:106] Creating Layer drop3
I0525 23:29:40.072615 26495 net.cpp:454] drop3 <- ip3
I0525 23:29:40.072628 26495 net.cpp:397] drop3 -> ip3 (in-place)
I0525 23:29:40.072667 26495 net.cpp:150] Setting up drop3
I0525 23:29:40.072680 26495 net.cpp:157] Top shape: 10 11 (110)
I0525 23:29:40.072690 26495 net.cpp:165] Memory required for data: 15787800
I0525 23:29:40.072700 26495 layer_factory.hpp:77] Creating layer loss
I0525 23:29:40.072720 26495 net.cpp:106] Creating Layer loss
I0525 23:29:40.072729 26495 net.cpp:454] loss <- ip3
I0525 23:29:40.072741 26495 net.cpp:454] loss <- label
I0525 23:29:40.072753 26495 net.cpp:411] loss -> loss
I0525 23:29:40.072772 26495 layer_factory.hpp:77] Creating layer loss
…
I0525 23:29:40.075448 26495 solver.cpp:181] Creating test net (#0) specified by net file: /lustre/atlas/proj-shared/hep105/caffe_titan/caffe_workflow/logs_bslr/bs_10_lr_0.0025_2016-05-20T15.48.50.893607.prototxt
I0525 23:29:40.075518 26495 net.cpp:322] The NetState phase (1) differed from the phase (0) specified by a rule in layer data_hdf5
I0525 23:29:40.075872 26495 net.cpp:49] Initializing net from parameters: 
name: "caffe_test_127x50_x_unshifted"
state {
  phase: TEST
}
layer {
  name: "data_hdf5"
  type: "HDF5Data"
  top: "data"
  top: "label"
  include {
    phase: TEST
  }
  hdf5_data_param {
    source: "/lustre/atlas/proj-shared/hep105/caffe_titan/minosmatch_nukecczdefs_127x50_x_unshifted_me1Bmc.testlist"
    batch_size: 10
  }
}
layer {
  name: "conv1"
  type: "Convolution"
  bottom: "data"
  top: "conv1"
  convolution_param {
    num_output: 12
    pad: 0
    stride: 1
    weight_filler {
      type: "xavier"
    }
    bias_filler {
      type: "constant"
    }
    kernel_h: 8
    kernel_w: 3
  }
}
layer {
  name: "relu1"
  type: "ReLU"
  bottom: "conv1"
  top: "conv1"
}
layer {
  name: "pool1"
  type: "Pooling"
  bottom: "conv1"
  top: "pool1"
  pooling_param {
    pool: MAX
    kernel_h: 2
    kernel_w: 1
    stride_h: 2
    stride_w: 1
  }
}
layer {
  name: "conv2"
  type: "Convolution"
  bottom: "pool1"
  top: "conv2"
  convolution_param {
    num_output: 20
    pad: 0
    stride: 1
    weight_filler {
      type: "xavier"
    }
    bias_filler {
      type: "constant"
    }
    kernel_h: 7
    kernel_w: 3
  }
}
layer {
  name: "relu2"
  type: "ReLU"
  bottom: "conv2"
  top: "conv2"
}
layer {
  name: "pool2"
  type: "Pooling"
  bottom: "conv2"
  top: "pool2"
  pooling_param {
    pool: MAX
    kernel_h: 2
    kernel_w: 1
    stride_h: 2
    stride_w: 1
  }
}
layer {
  name: "conv3"
  type: "Convolution"
  bottom: "pool2"
  top: "conv3"
  convolution_param {
    num_output: 28
    pad: 0
    stride: 1
    weight_filler {
      type: "xavier"
    }
    bias_filler {
      type: "constant"
    }
    kernel_h: 6
    kernel_w: 3
  }
}
layer {
  name: "relu3"
  type: "ReLU"
  bottom: "conv3"
  top: "conv3"
}
layer {
  name: "pool3"
  type: "Pooling"
  bottom: "conv3"
  top: "pool3"
  pooling_param {
    pool: MAX
    kernel_h: 2
    kernel_w: 1
    stride_h: 2
    stride_w: 1
  }
}
layer {
  name: "conv4"
  type: "Convolution"
  bottom: "pool3"
  top: "conv4"
  convolution_param {
    num_output: 36
    pad: 0
    stride: 1
    weight_filler {
      type: "xavier"
    }
    bias_filler {
      type: "constant"
    }
    kernel_h: 6
    kernel_w: 3
  }
}
layer {
  name: "relu4"
  type: "ReLU"
  bottom: "conv4"
  top: "conv4"
}
layer {
  name: "pool4"
  type: "Pooling"
  bottom: "conv4"
  top: "pool4"
  pooling_param {
    pool: MAX
    kernel_h: 2
    kernel_w: 1
    stride_h: 2
    stride_w: 1
  }
}
layer {
  name: "ip1"
  type: "InnerProduct"
  bottom: "pool4"
  top: "ip1"
  inner_product_param {
    num_output: 196
    weight_filler {
      type: "xavier"
    }
    bias_filler {
      type: "constant"
    }
  }
}
layer {
  name: "relu5"
  type: "ReLU"
  bottom: "ip1"
  top: "ip1"
}
layer {
  name: "drop1"
  type: "Dropout"
  bottom: "ip1"
  top: "ip1"
  dropout_param {
    dropout_ratio: 0.5
  }
}
layer {
  name: "ip2"
  type: "InnerProduct"
  bottom: "ip1"
  top: "ip2"
  inner_product_param {
    num_output: 98
    weight_filler {
      type: "xavier"
    }
    bias_filler {
      type: "constant"
    }
  }
}
layer {
  name: "relu6"
  type: "ReLU"
  bottom: "ip2"
  top: "ip2"
}
layer {
  name: "drop2"
  type: "Dropout"
  bottom: "ip2"
  top: "ip2"
  dropout_param {
    dropout_ratio: 0.5
  }
}
layer {
  name: "ip3"
  type: "InnerProduct"
  bottom: "ip2"
  top: "ip3"
  inner_product_param {
    num_output: 11
    weight_filler {
      type: "xavier"
    }
    bias_filler {
      type: "constant"
    }
  }
}
layer {
  name: "drop3"
  type: "Dropout"
  bottom: "ip3"
  top: "ip3"
  dropout_param {
    dropout_ratio: 0.5
  }
}
layer {
  name: "accuracy"
  type: "Accuracy"
  bottom: "ip3"
  bottom: "label"
  top: "accuracy"
  include {
    phase: TEST
  }
}
layer {
  name: "loss"
  type: "SoftmaxWithLoss"
  bottom: "ip3"
  bottom: "label"
  top: "loss"
}
I0525 23:29:40.076063 26495 layer_factory.hpp:77] Creating layer data_hdf5
I0525 23:29:40.076078 26495 net.cpp:106] Creating Layer data_hdf5
I0525 23:29:40.076092 26495 net.cpp:411] data_hdf5 -> data
I0525 23:29:40.076108 26495 net.cpp:411] data_hdf5 -> label
I0525 23:29:40.076124 26495 hdf5_data_layer.cpp:79] Loading list of HDF5 filenames from: /lustre/atlas/proj-shared/hep105/caffe_titan/minosmatch_nukecczdefs_127x50_x_unshifted_me1Bmc.testlist
I0525 23:29:40.077494 26495 hdf5_data_layer.cpp:93] Number of HDF5 files: 3
I0525 23:30:01.447733 26495 net.cpp:150] Setting up data_hdf5
I0525 23:30:01.447898 26495 net.cpp:157] Top shape: 10 1 127 50 (63500)
I0525 23:30:01.447913 26495 net.cpp:157] Top shape: 10 (10)
I0525 23:30:01.447924 26495 net.cpp:165] Memory required for data: 254040
I0525 23:30:01.447937 26495 layer_factory.hpp:77] Creating layer label_data_hdf5_1_split
I0525 23:30:01.447967 26495 net.cpp:106] Creating Layer label_data_hdf5_1_split
I0525 23:30:01.447976 26495 net.cpp:454] label_data_hdf5_1_split <- label
I0525 23:30:01.447991 26495 net.cpp:411] label_data_hdf5_1_split -> label_data_hdf5_1_split_0
I0525 23:30:01.448012 26495 net.cpp:411] label_data_hdf5_1_split -> label_data_hdf5_1_split_1
I0525 23:30:01.448086 26495 net.cpp:150] Setting up label_data_hdf5_1_split
I0525 23:30:01.448099 26495 net.cpp:157] Top shape: 10 (10)
I0525 23:30:01.448112 26495 net.cpp:157] Top shape: 10 (10)
I0525 23:30:01.448122 26495 net.cpp:165] Memory required for data: 254120
I0525 23:30:01.448132 26495 layer_factory.hpp:77] Creating layer conv1
I0525 23:30:01.448151 26495 net.cpp:106] Creating Layer conv1
I0525 23:30:01.448163 26495 net.cpp:454] conv1 <- data
I0525 23:30:01.448178 26495 net.cpp:411] conv1 -> conv1
I0525 23:30:01.450145 26495 net.cpp:150] Setting up conv1
I0525 23:30:01.450170 26495 net.cpp:157] Top shape: 10 12 120 48 (691200)
I0525 23:30:01.450181 26495 net.cpp:165] Memory required for data: 3018920
I0525 23:30:01.450202 26495 layer_factory.hpp:77] Creating layer relu1
I0525 23:30:01.450217 26495 net.cpp:106] Creating Layer relu1
I0525 23:30:01.450227 26495 net.cpp:454] relu1 <- conv1
I0525 23:30:01.450240 26495 net.cpp:397] relu1 -> conv1 (in-place)
I0525 23:30:01.450747 26495 net.cpp:150] Setting up relu1
I0525 23:30:01.450763 26495 net.cpp:157] Top shape: 10 12 120 48 (691200)
I0525 23:30:01.450774 26495 net.cpp:165] Memory required for data: 5783720
I0525 23:30:01.450784 26495 layer_factory.hpp:77] Creating layer pool1
I0525 23:30:01.450799 26495 net.cpp:106] Creating Layer pool1
I0525 23:30:01.450809 26495 net.cpp:454] pool1 <- conv1
I0525 23:30:01.450822 26495 net.cpp:411] pool1 -> pool1
I0525 23:30:01.450896 26495 net.cpp:150] Setting up pool1
I0525 23:30:01.450911 26495 net.cpp:157] Top shape: 10 12 60 48 (345600)
I0525 23:30:01.450919 26495 net.cpp:165] Memory required for data: 7166120
I0525 23:30:01.450929 26495 layer_factory.hpp:77] Creating layer conv2
I0525 23:30:01.450947 26495 net.cpp:106] Creating Layer conv2
I0525 23:30:01.450958 26495 net.cpp:454] conv2 <- pool1
I0525 23:30:01.450971 26495 net.cpp:411] conv2 -> conv2
I0525 23:30:01.452886 26495 net.cpp:150] Setting up conv2
I0525 23:30:01.452909 26495 net.cpp:157] Top shape: 10 20 54 46 (496800)
I0525 23:30:01.452921 26495 net.cpp:165] Memory required for data: 9153320
I0525 23:30:01.452939 26495 layer_factory.hpp:77] Creating layer relu2
I0525 23:30:01.452953 26495 net.cpp:106] Creating Layer relu2
I0525 23:30:01.452963 26495 net.cpp:454] relu2 <- conv2
I0525 23:30:01.452976 26495 net.cpp:397] relu2 -> conv2 (in-place)
I0525 23:30:01.453320 26495 net.cpp:150] Setting up relu2
I0525 23:30:01.453336 26495 net.cpp:157] Top shape: 10 20 54 46 (496800)
I0525 23:30:01.453346 26495 net.cpp:165] Memory required for data: 11140520
I0525 23:30:01.453356 26495 layer_factory.hpp:77] Creating layer pool2
I0525 23:30:01.453368 26495 net.cpp:106] Creating Layer pool2
I0525 23:30:01.453378 26495 net.cpp:454] pool2 <- conv2
I0525 23:30:01.453392 26495 net.cpp:411] pool2 -> pool2
I0525 23:30:01.453464 26495 net.cpp:150] Setting up pool2
I0525 23:30:01.453479 26495 net.cpp:157] Top shape: 10 20 27 46 (248400)
I0525 23:30:01.453487 26495 net.cpp:165] Memory required for data: 12134120
I0525 23:30:01.453497 26495 layer_factory.hpp:77] Creating layer conv3
I0525 23:30:01.453516 26495 net.cpp:106] Creating Layer conv3
I0525 23:30:01.453526 26495 net.cpp:454] conv3 <- pool2
I0525 23:30:01.453539 26495 net.cpp:411] conv3 -> conv3
I0525 23:30:01.455538 26495 net.cpp:150] Setting up conv3
I0525 23:30:01.455561 26495 net.cpp:157] Top shape: 10 28 22 44 (271040)
I0525 23:30:01.455574 26495 net.cpp:165] Memory required for data: 13218280
I0525 23:30:01.455592 26495 layer_factory.hpp:77] Creating layer relu3
I0525 23:30:01.455618 26495 net.cpp:106] Creating Layer relu3
I0525 23:30:01.455628 26495 net.cpp:454] relu3 <- conv3
I0525 23:30:01.455642 26495 net.cpp:397] relu3 -> conv3 (in-place)
I0525 23:30:01.456113 26495 net.cpp:150] Setting up relu3
I0525 23:30:01.456135 26495 net.cpp:157] Top shape: 10 28 22 44 (271040)
I0525 23:30:01.456146 26495 net.cpp:165] Memory required for data: 14302440
I0525 23:30:01.456153 26495 layer_factory.hpp:77] Creating layer pool3
I0525 23:30:01.456166 26495 net.cpp:106] Creating Layer pool3
I0525 23:30:01.456176 26495 net.cpp:454] pool3 <- conv3
I0525 23:30:01.456188 26495 net.cpp:411] pool3 -> pool3
I0525 23:30:01.456259 26495 net.cpp:150] Setting up pool3
I0525 23:30:01.456272 26495 net.cpp:157] Top shape: 10 28 11 44 (135520)
I0525 23:30:01.456282 26495 net.cpp:165] Memory required for data: 14844520
I0525 23:30:01.456292 26495 layer_factory.hpp:77] Creating layer conv4
I0525 23:30:01.456310 26495 net.cpp:106] Creating Layer conv4
I0525 23:30:01.456320 26495 net.cpp:454] conv4 <- pool3
I0525 23:30:01.456333 26495 net.cpp:411] conv4 -> conv4
I0525 23:30:01.458396 26495 net.cpp:150] Setting up conv4
I0525 23:30:01.458418 26495 net.cpp:157] Top shape: 10 36 6 42 (90720)
I0525 23:30:01.458431 26495 net.cpp:165] Memory required for data: 15207400
I0525 23:30:01.458446 26495 layer_factory.hpp:77] Creating layer relu4
I0525 23:30:01.458461 26495 net.cpp:106] Creating Layer relu4
I0525 23:30:01.458470 26495 net.cpp:454] relu4 <- conv4
I0525 23:30:01.458483 26495 net.cpp:397] relu4 -> conv4 (in-place)
I0525 23:30:01.458950 26495 net.cpp:150] Setting up relu4
I0525 23:30:01.458966 26495 net.cpp:157] Top shape: 10 36 6 42 (90720)
I0525 23:30:01.458976 26495 net.cpp:165] Memory required for data: 15570280
I0525 23:30:01.458986 26495 layer_factory.hpp:77] Creating layer pool4
I0525 23:30:01.459000 26495 net.cpp:106] Creating Layer pool4
I0525 23:30:01.459010 26495 net.cpp:454] pool4 <- conv4
I0525 23:30:01.459023 26495 net.cpp:411] pool4 -> pool4
I0525 23:30:01.459096 26495 net.cpp:150] Setting up pool4
I0525 23:30:01.459110 26495 net.cpp:157] Top shape: 10 36 3 42 (45360)
I0525 23:30:01.459120 26495 net.cpp:165] Memory required for data: 15751720
I0525 23:30:01.459130 26495 layer_factory.hpp:77] Creating layer ip1
I0525 23:30:01.459146 26495 net.cpp:106] Creating Layer ip1
I0525 23:30:01.459156 26495 net.cpp:454] ip1 <- pool4
I0525 23:30:01.459170 26495 net.cpp:411] ip1 -> ip1
I0525 23:30:01.474588 26495 net.cpp:150] Setting up ip1
I0525 23:30:01.474617 26495 net.cpp:157] Top shape: 10 196 (1960)
I0525 23:30:01.474628 26495 net.cpp:165] Memory required for data: 15759560
I0525 23:30:01.474650 26495 layer_factory.hpp:77] Creating layer relu5
I0525 23:30:01.474666 26495 net.cpp:106] Creating Layer relu5
I0525 23:30:01.474676 26495 net.cpp:454] relu5 <- ip1
I0525 23:30:01.474691 26495 net.cpp:397] relu5 -> ip1 (in-place)
I0525 23:30:01.475040 26495 net.cpp:150] Setting up relu5
I0525 23:30:01.475054 26495 net.cpp:157] Top shape: 10 196 (1960)
I0525 23:30:01.475064 26495 net.cpp:165] Memory required for data: 15767400
I0525 23:30:01.475075 26495 layer_factory.hpp:77] Creating layer drop1
I0525 23:30:01.475093 26495 net.cpp:106] Creating Layer drop1
I0525 23:30:01.475102 26495 net.cpp:454] drop1 <- ip1
I0525 23:30:01.475116 26495 net.cpp:397] drop1 -> ip1 (in-place)
I0525 23:30:01.475162 26495 net.cpp:150] Setting up drop1
I0525 23:30:01.475174 26495 net.cpp:157] Top shape: 10 196 (1960)
I0525 23:30:01.475184 26495 net.cpp:165] Memory required for data: 15775240
I0525 23:30:01.475193 26495 layer_factory.hpp:77] Creating layer ip2
I0525 23:30:01.475208 26495 net.cpp:106] Creating Layer ip2
I0525 23:30:01.475219 26495 net.cpp:454] ip2 <- ip1
I0525 23:30:01.475231 26495 net.cpp:411] ip2 -> ip2
I0525 23:30:01.475716 26495 net.cpp:150] Setting up ip2
I0525 23:30:01.475730 26495 net.cpp:157] Top shape: 10 98 (980)
I0525 23:30:01.475739 26495 net.cpp:165] Memory required for data: 15779160
I0525 23:30:01.475755 26495 layer_factory.hpp:77] Creating layer relu6
I0525 23:30:01.475780 26495 net.cpp:106] Creating Layer relu6
I0525 23:30:01.475791 26495 net.cpp:454] relu6 <- ip2
I0525 23:30:01.475803 26495 net.cpp:397] relu6 -> ip2 (in-place)
I0525 23:30:01.476346 26495 net.cpp:150] Setting up relu6
I0525 23:30:01.476362 26495 net.cpp:157] Top shape: 10 98 (980)
I0525 23:30:01.476372 26495 net.cpp:165] Memory required for data: 15783080
I0525 23:30:01.476382 26495 layer_factory.hpp:77] Creating layer drop2
I0525 23:30:01.476397 26495 net.cpp:106] Creating Layer drop2
I0525 23:30:01.476407 26495 net.cpp:454] drop2 <- ip2
I0525 23:30:01.476419 26495 net.cpp:397] drop2 -> ip2 (in-place)
I0525 23:30:01.476464 26495 net.cpp:150] Setting up drop2
I0525 23:30:01.476476 26495 net.cpp:157] Top shape: 10 98 (980)
I0525 23:30:01.476486 26495 net.cpp:165] Memory required for data: 15787000
I0525 23:30:01.476493 26495 layer_factory.hpp:77] Creating layer ip3
I0525 23:30:01.476508 26495 net.cpp:106] Creating Layer ip3
I0525 23:30:01.476518 26495 net.cpp:454] ip3 <- ip2
I0525 23:30:01.476532 26495 net.cpp:411] ip3 -> ip3
I0525 23:30:01.476753 26495 net.cpp:150] Setting up ip3
I0525 23:30:01.476766 26495 net.cpp:157] Top shape: 10 11 (110)
I0525 23:30:01.476776 26495 net.cpp:165] Memory required for data: 15787440
I0525 23:30:01.476793 26495 layer_factory.hpp:77] Creating layer drop3
I0525 23:30:01.476805 26495 net.cpp:106] Creating Layer drop3
I0525 23:30:01.476815 26495 net.cpp:454] drop3 <- ip3
I0525 23:30:01.476827 26495 net.cpp:397] drop3 -> ip3 (in-place)
I0525 23:30:01.476869 26495 net.cpp:150] Setting up drop3
I0525 23:30:01.476881 26495 net.cpp:157] Top shape: 10 11 (110)
I0525 23:30:01.476891 26495 net.cpp:165] Memory required for data: 15787880
I0525 23:30:01.476902 26495 layer_factory.hpp:77] Creating layer ip3_drop3_0_split
I0525 23:30:01.476914 26495 net.cpp:106] Creating Layer ip3_drop3_0_split
I0525 23:30:01.476924 26495 net.cpp:454] ip3_drop3_0_split <- ip3
I0525 23:30:01.476938 26495 net.cpp:411] ip3_drop3_0_split -> ip3_drop3_0_split_0
I0525 23:30:01.476953 26495 net.cpp:411] ip3_drop3_0_split -> ip3_drop3_0_split_1
I0525 23:30:01.477025 26495 net.cpp:150] Setting up ip3_drop3_0_split
I0525 23:30:01.477047 26495 net.cpp:157] Top shape: 10 11 (110)
I0525 23:30:01.477061 26495 net.cpp:157] Top shape: 10 11 (110)
I0525 23:30:01.477071 26495 net.cpp:165] Memory required for data: 15788760
I0525 23:30:01.477080 26495 layer_factory.hpp:77] Creating layer accuracy
I0525 23:30:01.477102 26495 net.cpp:106] Creating Layer accuracy
I0525 23:30:01.477113 26495 net.cpp:454] accuracy <- ip3_drop3_0_split_0
I0525 23:30:01.477123 26495 net.cpp:454] accuracy <- label_data_hdf5_1_split_0
I0525 23:30:01.477138 26495 net.cpp:411] accuracy -> accuracy
…
