…
I0525 18:54:18.168720  2318 net.cpp:322] The NetState phase (0) differed from the phase (1) specified by a rule in layer data_hdf5
I0525 18:54:18.168778  2318 net.cpp:322] The NetState phase (0) differed from the phase (1) specified by a rule in layer accuracy
I0525 18:54:18.169126  2318 net.cpp:49] Initializing net from parameters: 
name: "caffe_test_127x50_x_unshifted"
state {
  phase: TRAIN
}
layer {
  name: "data_hdf5"
  type: "HDF5Data"
  top: "data"
  top: "label"
  include {
    phase: TRAIN
  }
  hdf5_data_param {
    source: "/lustre/atlas/proj-shared/hep105/caffe_titan/minosmatch_nukecczdefs_127x50_x_unshifted_me1Bmc.trainlist"
    batch_size: 100
  }
}
layer {
  name: "conv1"
  type: "Convolution"
  bottom: "data"
  top: "conv1"
  convolution_param {
    num_output: 12
    pad: 0
    stride: 1
    weight_filler {
      type: "xavier"
    }
    bias_filler {
      type: "constant"
    }
    kernel_h: 8
    kernel_w: 3
  }
}
layer {
  name: "relu1"
  type: "ReLU"
  bottom: "conv1"
  top: "conv1"
}
layer {
  name: "pool1"
  type: "Pooling"
  bottom: "conv1"
  top: "pool1"
  pooling_param {
    pool: MAX
    kernel_h: 2
    kernel_w: 1
    stride_h: 2
    stride_w: 1
  }
}
layer {
  name: "conv2"
  type: "Convolution"
  bottom: "pool1"
  top: "conv2"
  convolution_param {
    num_output: 20
    pad: 0
    stride: 1
    weight_filler {
      type: "xavier"
    }
    bias_filler {
      type: "constant"
    }
    kernel_h: 7
    kernel_w: 3
  }
}
layer {
  name: "relu2"
  type: "ReLU"
  bottom: "conv2"
  top: "conv2"
}
layer {
  name: "pool2"
  type: "Pooling"
  bottom: "conv2"
  top: "pool2"
  pooling_param {
    pool: MAX
    kernel_h: 2
    kernel_w: 1
    stride_h: 2
    stride_w: 1
  }
}
layer {
  name: "conv3"
  type: "Convolution"
  bottom: "pool2"
  top: "conv3"
  convolution_param {
    num_output: 28
    pad: 0
    stride: 1
    weight_filler {
      type: "xavier"
    }
    bias_filler {
      type: "constant"
    }
    kernel_h: 6
    kernel_w: 3
  }
}
layer {
  name: "relu3"
  type: "ReLU"
  bottom: "conv3"
  top: "conv3"
}
layer {
  name: "pool3"
  type: "Pooling"
  bottom: "conv3"
  top: "pool3"
  pooling_param {
    pool: MAX
    kernel_h: 2
    kernel_w: 1
    stride_h: 2
    stride_w: 1
  }
}
layer {
  name: "conv4"
  type: "Convolution"
  bottom: "pool3"
  top: "conv4"
  convolution_param {
    num_output: 36
    pad: 0
    stride: 1
    weight_filler {
      type: "xavier"
    }
    bias_filler {
      type: "constant"
    }
    kernel_h: 6
    kernel_w: 3
  }
}
layer {
  name: "relu4"
  type: "ReLU"
  bottom: "conv4"
  top: "conv4"
}
layer {
  name: "pool4"
  type: "Pooling"
  bottom: "conv4"
  top: "pool4"
  pooling_param {
    pool: MAX
    kernel_h: 2
    kernel_w: 1
    stride_h: 2
    stride_w: 1
  }
}
layer {
  name: "ip1"
  type: "InnerProduct"
  bottom: "pool4"
  top: "ip1"
  inner_product_param {
    num_output: 196
    weight_filler {
      type: "xavier"
    }
    bias_filler {
      type: "constant"
    }
  }
}
layer {
  name: "relu5"
  type: "ReLU"
  bottom: "ip1"
  top: "ip1"
}
layer {
  name: "drop1"
  type: "Dropout"
  bottom: "ip1"
  top: "ip1"
  dropout_param {
    dropout_ratio: 0.5
  }
}
layer {
  name: "ip2"
  type: "InnerProduct"
  bottom: "ip1"
  top: "ip2"
  inner_product_param {
    num_output: 98
    weight_filler {
      type: "xavier"
    }
    bias_filler {
      type: "constant"
    }
  }
}
layer {
  name: "relu6"
  type: "ReLU"
  bottom: "ip2"
  top: "ip2"
}
layer {
  name: "drop2"
  type: "Dropout"
  bottom: "ip2"
  top: "ip2"
  dropout_param {
    dropout_ratio: 0.5
  }
}
layer {
  name: "ip3"
  type: "InnerProduct"
  bottom: "ip2"
  top: "ip3"
  inner_product_param {
    num_output: 11
    weight_filler {
      type: "xavier"
    }
    bias_filler {
      type: "constant"
    }
  }
}
layer {
  name: "drop3"
  type: "Dropout"
  bottom: "ip3"
  top: "ip3"
  dropout_param {
    dropout_ratio: 0.5
  }
}
layer {
  name: "loss"
  type: "SoftmaxWithLoss"
  bottom: "ip3"
  bottom: "label"
  top: "loss"
}
I0525 18:54:18.169306  2318 layer_factory.hpp:77] Creating layer data_hdf5
I0525 18:54:18.169329  2318 net.cpp:106] Creating Layer data_hdf5
I0525 18:54:18.169344  2318 net.cpp:411] data_hdf5 -> data
I0525 18:54:18.169378  2318 net.cpp:411] data_hdf5 -> label
I0525 18:54:18.169411  2318 hdf5_data_layer.cpp:79] Loading list of HDF5 filenames from: /lustre/atlas/proj-shared/hep105/caffe_titan/minosmatch_nukecczdefs_127x50_x_unshifted_me1Bmc.trainlist
I0525 18:54:18.183357  2318 hdf5_data_layer.cpp:93] Number of HDF5 files: 15
I0525 18:54:18.192078  2318 hdf5.cpp:32] Datatype class: H5T_FLOAT
I0525 18:54:39.778655  2318 hdf5.cpp:35] Datatype class: H5T_INTEGER
I0525 18:54:39.783921  2318 net.cpp:150] Setting up data_hdf5
I0525 18:54:39.783963  2318 net.cpp:157] Top shape: 100 1 127 50 (635000)
I0525 18:54:39.783978  2318 net.cpp:157] Top shape: 100 (100)
I0525 18:54:39.783989  2318 net.cpp:165] Memory required for data: 2540400
I0525 18:54:39.784003  2318 layer_factory.hpp:77] Creating layer conv1
I0525 18:54:39.784037  2318 net.cpp:106] Creating Layer conv1
I0525 18:54:39.784049  2318 net.cpp:454] conv1 <- data
I0525 18:54:39.784072  2318 net.cpp:411] conv1 -> conv1
I0525 18:54:43.179265  2318 net.cpp:150] Setting up conv1
I0525 18:54:43.179312  2318 net.cpp:157] Top shape: 100 12 120 48 (6912000)
I0525 18:54:43.179323  2318 net.cpp:165] Memory required for data: 30188400
I0525 18:54:43.179353  2318 layer_factory.hpp:77] Creating layer relu1
I0525 18:54:43.179375  2318 net.cpp:106] Creating Layer relu1
I0525 18:54:43.179386  2318 net.cpp:454] relu1 <- conv1
I0525 18:54:43.179399  2318 net.cpp:397] relu1 -> conv1 (in-place)
I0525 18:54:43.179919  2318 net.cpp:150] Setting up relu1
I0525 18:54:43.179936  2318 net.cpp:157] Top shape: 100 12 120 48 (6912000)
I0525 18:54:43.179947  2318 net.cpp:165] Memory required for data: 57836400
I0525 18:54:43.179957  2318 layer_factory.hpp:77] Creating layer pool1
I0525 18:54:43.179975  2318 net.cpp:106] Creating Layer pool1
I0525 18:54:43.179985  2318 net.cpp:454] pool1 <- conv1
I0525 18:54:43.179998  2318 net.cpp:411] pool1 -> pool1
I0525 18:54:43.180078  2318 net.cpp:150] Setting up pool1
I0525 18:54:43.180102  2318 net.cpp:157] Top shape: 100 12 60 48 (3456000)
I0525 18:54:43.180114  2318 net.cpp:165] Memory required for data: 71660400
I0525 18:54:43.180124  2318 layer_factory.hpp:77] Creating layer conv2
I0525 18:54:43.180145  2318 net.cpp:106] Creating Layer conv2
I0525 18:54:43.180155  2318 net.cpp:454] conv2 <- pool1
I0525 18:54:43.180168  2318 net.cpp:411] conv2 -> conv2
I0525 18:54:43.182899  2318 net.cpp:150] Setting up conv2
I0525 18:54:43.182926  2318 net.cpp:157] Top shape: 100 20 54 46 (4968000)
I0525 18:54:43.182937  2318 net.cpp:165] Memory required for data: 91532400
I0525 18:54:43.182956  2318 layer_factory.hpp:77] Creating layer relu2
I0525 18:54:43.182971  2318 net.cpp:106] Creating Layer relu2
I0525 18:54:43.182981  2318 net.cpp:454] relu2 <- conv2
I0525 18:54:43.182993  2318 net.cpp:397] relu2 -> conv2 (in-place)
I0525 18:54:43.183325  2318 net.cpp:150] Setting up relu2
I0525 18:54:43.183338  2318 net.cpp:157] Top shape: 100 20 54 46 (4968000)
I0525 18:54:43.183348  2318 net.cpp:165] Memory required for data: 111404400
I0525 18:54:43.183359  2318 layer_factory.hpp:77] Creating layer pool2
I0525 18:54:43.183372  2318 net.cpp:106] Creating Layer pool2
I0525 18:54:43.183382  2318 net.cpp:454] pool2 <- conv2
I0525 18:54:43.183393  2318 net.cpp:411] pool2 -> pool2
I0525 18:54:43.183475  2318 net.cpp:150] Setting up pool2
I0525 18:54:43.183487  2318 net.cpp:157] Top shape: 100 20 27 46 (2484000)
I0525 18:54:43.183497  2318 net.cpp:165] Memory required for data: 121340400
I0525 18:54:43.183506  2318 layer_factory.hpp:77] Creating layer conv3
I0525 18:54:43.183524  2318 net.cpp:106] Creating Layer conv3
I0525 18:54:43.183534  2318 net.cpp:454] conv3 <- pool2
I0525 18:54:43.183548  2318 net.cpp:411] conv3 -> conv3
I0525 18:54:43.185556  2318 net.cpp:150] Setting up conv3
I0525 18:54:43.185580  2318 net.cpp:157] Top shape: 100 28 22 44 (2710400)
I0525 18:54:43.185592  2318 net.cpp:165] Memory required for data: 132182000
I0525 18:54:43.185612  2318 layer_factory.hpp:77] Creating layer relu3
I0525 18:54:43.185628  2318 net.cpp:106] Creating Layer relu3
I0525 18:54:43.185639  2318 net.cpp:454] relu3 <- conv3
I0525 18:54:43.185652  2318 net.cpp:397] relu3 -> conv3 (in-place)
I0525 18:54:43.186122  2318 net.cpp:150] Setting up relu3
I0525 18:54:43.186139  2318 net.cpp:157] Top shape: 100 28 22 44 (2710400)
I0525 18:54:43.186149  2318 net.cpp:165] Memory required for data: 143023600
I0525 18:54:43.186161  2318 layer_factory.hpp:77] Creating layer pool3
I0525 18:54:43.186173  2318 net.cpp:106] Creating Layer pool3
I0525 18:54:43.186182  2318 net.cpp:454] pool3 <- conv3
I0525 18:54:43.186195  2318 net.cpp:411] pool3 -> pool3
I0525 18:54:43.186262  2318 net.cpp:150] Setting up pool3
I0525 18:54:43.186275  2318 net.cpp:157] Top shape: 100 28 11 44 (1355200)
I0525 18:54:43.186285  2318 net.cpp:165] Memory required for data: 148444400
I0525 18:54:43.186293  2318 layer_factory.hpp:77] Creating layer conv4
I0525 18:54:43.186311  2318 net.cpp:106] Creating Layer conv4
I0525 18:54:43.186322  2318 net.cpp:454] conv4 <- pool3
I0525 18:54:43.186336  2318 net.cpp:411] conv4 -> conv4
I0525 18:54:43.189302  2318 net.cpp:150] Setting up conv4
I0525 18:54:43.189332  2318 net.cpp:157] Top shape: 100 36 6 42 (907200)
I0525 18:54:43.189342  2318 net.cpp:165] Memory required for data: 152073200
I0525 18:54:43.189357  2318 layer_factory.hpp:77] Creating layer relu4
I0525 18:54:43.189371  2318 net.cpp:106] Creating Layer relu4
I0525 18:54:43.189381  2318 net.cpp:454] relu4 <- conv4
I0525 18:54:43.189394  2318 net.cpp:397] relu4 -> conv4 (in-place)
I0525 18:54:43.189858  2318 net.cpp:150] Setting up relu4
I0525 18:54:43.189874  2318 net.cpp:157] Top shape: 100 36 6 42 (907200)
I0525 18:54:43.189884  2318 net.cpp:165] Memory required for data: 155702000
I0525 18:54:43.189895  2318 layer_factory.hpp:77] Creating layer pool4
I0525 18:54:43.189908  2318 net.cpp:106] Creating Layer pool4
I0525 18:54:43.189918  2318 net.cpp:454] pool4 <- conv4
I0525 18:54:43.189931  2318 net.cpp:411] pool4 -> pool4
I0525 18:54:43.189998  2318 net.cpp:150] Setting up pool4
I0525 18:54:43.190012  2318 net.cpp:157] Top shape: 100 36 3 42 (453600)
I0525 18:54:43.190022  2318 net.cpp:165] Memory required for data: 157516400
I0525 18:54:43.190031  2318 layer_factory.hpp:77] Creating layer ip1
I0525 18:54:43.190050  2318 net.cpp:106] Creating Layer ip1
I0525 18:54:43.190060  2318 net.cpp:454] ip1 <- pool4
I0525 18:54:43.190074  2318 net.cpp:411] ip1 -> ip1
I0525 18:54:43.205575  2318 net.cpp:150] Setting up ip1
I0525 18:54:43.205607  2318 net.cpp:157] Top shape: 100 196 (19600)
I0525 18:54:43.205620  2318 net.cpp:165] Memory required for data: 157594800
I0525 18:54:43.205646  2318 layer_factory.hpp:77] Creating layer relu5
I0525 18:54:43.205660  2318 net.cpp:106] Creating Layer relu5
I0525 18:54:43.205670  2318 net.cpp:454] relu5 <- ip1
I0525 18:54:43.205684  2318 net.cpp:397] relu5 -> ip1 (in-place)
I0525 18:54:43.206024  2318 net.cpp:150] Setting up relu5
I0525 18:54:43.206038  2318 net.cpp:157] Top shape: 100 196 (19600)
I0525 18:54:43.206048  2318 net.cpp:165] Memory required for data: 157673200
I0525 18:54:43.206058  2318 layer_factory.hpp:77] Creating layer drop1
I0525 18:54:43.206080  2318 net.cpp:106] Creating Layer drop1
I0525 18:54:43.206090  2318 net.cpp:454] drop1 <- ip1
I0525 18:54:43.206104  2318 net.cpp:397] drop1 -> ip1 (in-place)
I0525 18:54:43.206162  2318 net.cpp:150] Setting up drop1
I0525 18:54:43.206176  2318 net.cpp:157] Top shape: 100 196 (19600)
I0525 18:54:43.206185  2318 net.cpp:165] Memory required for data: 157751600
I0525 18:54:43.206195  2318 layer_factory.hpp:77] Creating layer ip2
I0525 18:54:43.206214  2318 net.cpp:106] Creating Layer ip2
I0525 18:54:43.206224  2318 net.cpp:454] ip2 <- ip1
I0525 18:54:43.206235  2318 net.cpp:411] ip2 -> ip2
I0525 18:54:43.206701  2318 net.cpp:150] Setting up ip2
I0525 18:54:43.206714  2318 net.cpp:157] Top shape: 100 98 (9800)
I0525 18:54:43.206724  2318 net.cpp:165] Memory required for data: 157790800
I0525 18:54:43.206739  2318 layer_factory.hpp:77] Creating layer relu6
I0525 18:54:43.206751  2318 net.cpp:106] Creating Layer relu6
I0525 18:54:43.206761  2318 net.cpp:454] relu6 <- ip2
I0525 18:54:43.206773  2318 net.cpp:397] relu6 -> ip2 (in-place)
I0525 18:54:43.207291  2318 net.cpp:150] Setting up relu6
I0525 18:54:43.207307  2318 net.cpp:157] Top shape: 100 98 (9800)
I0525 18:54:43.207317  2318 net.cpp:165] Memory required for data: 157830000
I0525 18:54:43.207327  2318 layer_factory.hpp:77] Creating layer drop2
I0525 18:54:43.207340  2318 net.cpp:106] Creating Layer drop2
I0525 18:54:43.207350  2318 net.cpp:454] drop2 <- ip2
I0525 18:54:43.207362  2318 net.cpp:397] drop2 -> ip2 (in-place)
I0525 18:54:43.207406  2318 net.cpp:150] Setting up drop2
I0525 18:54:43.207418  2318 net.cpp:157] Top shape: 100 98 (9800)
I0525 18:54:43.207429  2318 net.cpp:165] Memory required for data: 157869200
I0525 18:54:43.207439  2318 layer_factory.hpp:77] Creating layer ip3
I0525 18:54:43.207453  2318 net.cpp:106] Creating Layer ip3
I0525 18:54:43.207463  2318 net.cpp:454] ip3 <- ip2
I0525 18:54:43.207475  2318 net.cpp:411] ip3 -> ip3
I0525 18:54:43.207684  2318 net.cpp:150] Setting up ip3
I0525 18:54:43.207697  2318 net.cpp:157] Top shape: 100 11 (1100)
I0525 18:54:43.207708  2318 net.cpp:165] Memory required for data: 157873600
I0525 18:54:43.207723  2318 layer_factory.hpp:77] Creating layer drop3
I0525 18:54:43.207736  2318 net.cpp:106] Creating Layer drop3
I0525 18:54:43.207746  2318 net.cpp:454] drop3 <- ip3
I0525 18:54:43.207758  2318 net.cpp:397] drop3 -> ip3 (in-place)
I0525 18:54:43.207798  2318 net.cpp:150] Setting up drop3
I0525 18:54:43.207810  2318 net.cpp:157] Top shape: 100 11 (1100)
I0525 18:54:43.207820  2318 net.cpp:165] Memory required for data: 157878000
I0525 18:54:43.207830  2318 layer_factory.hpp:77] Creating layer loss
I0525 18:54:43.207849  2318 net.cpp:106] Creating Layer loss
I0525 18:54:43.207859  2318 net.cpp:454] loss <- ip3
I0525 18:54:43.207870  2318 net.cpp:454] loss <- label
I0525 18:54:43.207883  2318 net.cpp:411] loss -> loss
I0525 18:54:43.207901  2318 layer_factory.hpp:77] Creating layer loss
…
I0525 18:54:43.210597  2318 solver.cpp:181] Creating test net (#0) specified by net file: /lustre/atlas/proj-shared/hep105/caffe_titan/caffe_workflow/logs_bslr/bs_100_lr_0.0030_2016-05-20T15.49.25.861282.prototxt
I0525 18:54:43.210669  2318 net.cpp:322] The NetState phase (1) differed from the phase (0) specified by a rule in layer data_hdf5
I0525 18:54:43.211024  2318 net.cpp:49] Initializing net from parameters: 
name: "caffe_test_127x50_x_unshifted"
state {
  phase: TEST
}
layer {
  name: "data_hdf5"
  type: "HDF5Data"
  top: "data"
  top: "label"
  include {
    phase: TEST
  }
  hdf5_data_param {
    source: "/lustre/atlas/proj-shared/hep105/caffe_titan/minosmatch_nukecczdefs_127x50_x_unshifted_me1Bmc.testlist"
    batch_size: 100
  }
}
layer {
  name: "conv1"
  type: "Convolution"
  bottom: "data"
  top: "conv1"
  convolution_param {
    num_output: 12
    pad: 0
    stride: 1
    weight_filler {
      type: "xavier"
    }
    bias_filler {
      type: "constant"
    }
    kernel_h: 8
    kernel_w: 3
  }
}
layer {
  name: "relu1"
  type: "ReLU"
  bottom: "conv1"
  top: "conv1"
}
layer {
  name: "pool1"
  type: "Pooling"
  bottom: "conv1"
  top: "pool1"
  pooling_param {
    pool: MAX
    kernel_h: 2
    kernel_w: 1
    stride_h: 2
    stride_w: 1
  }
}
layer {
  name: "conv2"
  type: "Convolution"
  bottom: "pool1"
  top: "conv2"
  convolution_param {
    num_output: 20
    pad: 0
    stride: 1
    weight_filler {
      type: "xavier"
    }
    bias_filler {
      type: "constant"
    }
    kernel_h: 7
    kernel_w: 3
  }
}
layer {
  name: "relu2"
  type: "ReLU"
  bottom: "conv2"
  top: "conv2"
}
layer {
  name: "pool2"
  type: "Pooling"
  bottom: "conv2"
  top: "pool2"
  pooling_param {
    pool: MAX
    kernel_h: 2
    kernel_w: 1
    stride_h: 2
    stride_w: 1
  }
}
layer {
  name: "conv3"
  type: "Convolution"
  bottom: "pool2"
  top: "conv3"
  convolution_param {
    num_output: 28
    pad: 0
    stride: 1
    weight_filler {
      type: "xavier"
    }
    bias_filler {
      type: "constant"
    }
    kernel_h: 6
    kernel_w: 3
  }
}
layer {
  name: "relu3"
  type: "ReLU"
  bottom: "conv3"
  top: "conv3"
}
layer {
  name: "pool3"
  type: "Pooling"
  bottom: "conv3"
  top: "pool3"
  pooling_param {
    pool: MAX
    kernel_h: 2
    kernel_w: 1
    stride_h: 2
    stride_w: 1
  }
}
layer {
  name: "conv4"
  type: "Convolution"
  bottom: "pool3"
  top: "conv4"
  convolution_param {
    num_output: 36
    pad: 0
    stride: 1
    weight_filler {
      type: "xavier"
    }
    bias_filler {
      type: "constant"
    }
    kernel_h: 6
    kernel_w: 3
  }
}
layer {
  name: "relu4"
  type: "ReLU"
  bottom: "conv4"
  top: "conv4"
}
layer {
  name: "pool4"
  type: "Pooling"
  bottom: "conv4"
  top: "pool4"
  pooling_param {
    pool: MAX
    kernel_h: 2
    kernel_w: 1
    stride_h: 2
    stride_w: 1
  }
}
layer {
  name: "ip1"
  type: "InnerProduct"
  bottom: "pool4"
  top: "ip1"
  inner_product_param {
    num_output: 196
    weight_filler {
      type: "xavier"
    }
    bias_filler {
      type: "constant"
    }
  }
}
layer {
  name: "relu5"
  type: "ReLU"
  bottom: "ip1"
  top: "ip1"
}
layer {
  name: "drop1"
  type: "Dropout"
  bottom: "ip1"
  top: "ip1"
  dropout_param {
    dropout_ratio: 0.5
  }
}
layer {
  name: "ip2"
  type: "InnerProduct"
  bottom: "ip1"
  top: "ip2"
  inner_product_param {
    num_output: 98
    weight_filler {
      type: "xavier"
    }
    bias_filler {
      type: "constant"
    }
  }
}
layer {
  name: "relu6"
  type: "ReLU"
  bottom: "ip2"
  top: "ip2"
}
layer {
  name: "drop2"
  type: "Dropout"
  bottom: "ip2"
  top: "ip2"
  dropout_param {
    dropout_ratio: 0.5
  }
}
layer {
  name: "ip3"
  type: "InnerProduct"
  bottom: "ip2"
  top: "ip3"
  inner_product_param {
    num_output: 11
    weight_filler {
      type: "xavier"
    }
    bias_filler {
      type: "constant"
    }
  }
}
layer {
  name: "drop3"
  type: "Dropout"
  bottom: "ip3"
  top: "ip3"
  dropout_param {
    dropout_ratio: 0.5
  }
}
layer {
  name: "accuracy"
  type: "Accuracy"
  bottom: "ip3"
  bottom: "label"
  top: "accuracy"
  include {
    phase: TEST
  }
}
layer {
  name: "loss"
  type: "SoftmaxWithLoss"
  bottom: "ip3"
  bottom: "label"
  top: "loss"
}
I0525 18:54:43.211212  2318 layer_factory.hpp:77] Creating layer data_hdf5
I0525 18:54:43.211228  2318 net.cpp:106] Creating Layer data_hdf5
I0525 18:54:43.211241  2318 net.cpp:411] data_hdf5 -> data
I0525 18:54:43.211258  2318 net.cpp:411] data_hdf5 -> label
I0525 18:54:43.211274  2318 hdf5_data_layer.cpp:79] Loading list of HDF5 filenames from: /lustre/atlas/proj-shared/hep105/caffe_titan/minosmatch_nukecczdefs_127x50_x_unshifted_me1Bmc.testlist
I0525 18:54:43.238121  2318 hdf5_data_layer.cpp:93] Number of HDF5 files: 3
I0525 18:55:04.609536  2318 net.cpp:150] Setting up data_hdf5
I0525 18:55:04.609700  2318 net.cpp:157] Top shape: 100 1 127 50 (635000)
I0525 18:55:04.609715  2318 net.cpp:157] Top shape: 100 (100)
I0525 18:55:04.609729  2318 net.cpp:165] Memory required for data: 2540400
I0525 18:55:04.609741  2318 layer_factory.hpp:77] Creating layer label_data_hdf5_1_split
I0525 18:55:04.609769  2318 net.cpp:106] Creating Layer label_data_hdf5_1_split
I0525 18:55:04.609781  2318 net.cpp:454] label_data_hdf5_1_split <- label
I0525 18:55:04.609796  2318 net.cpp:411] label_data_hdf5_1_split -> label_data_hdf5_1_split_0
I0525 18:55:04.609817  2318 net.cpp:411] label_data_hdf5_1_split -> label_data_hdf5_1_split_1
I0525 18:55:04.609889  2318 net.cpp:150] Setting up label_data_hdf5_1_split
I0525 18:55:04.609902  2318 net.cpp:157] Top shape: 100 (100)
I0525 18:55:04.609915  2318 net.cpp:157] Top shape: 100 (100)
I0525 18:55:04.609923  2318 net.cpp:165] Memory required for data: 2541200
I0525 18:55:04.609933  2318 layer_factory.hpp:77] Creating layer conv1
I0525 18:55:04.609956  2318 net.cpp:106] Creating Layer conv1
I0525 18:55:04.609967  2318 net.cpp:454] conv1 <- data
I0525 18:55:04.609982  2318 net.cpp:411] conv1 -> conv1
I0525 18:55:04.611903  2318 net.cpp:150] Setting up conv1
I0525 18:55:04.611927  2318 net.cpp:157] Top shape: 100 12 120 48 (6912000)
I0525 18:55:04.611939  2318 net.cpp:165] Memory required for data: 30189200
I0525 18:55:04.611959  2318 layer_factory.hpp:77] Creating layer relu1
I0525 18:55:04.611974  2318 net.cpp:106] Creating Layer relu1
I0525 18:55:04.611984  2318 net.cpp:454] relu1 <- conv1
I0525 18:55:04.611997  2318 net.cpp:397] relu1 -> conv1 (in-place)
I0525 18:55:04.612504  2318 net.cpp:150] Setting up relu1
I0525 18:55:04.612520  2318 net.cpp:157] Top shape: 100 12 120 48 (6912000)
I0525 18:55:04.612531  2318 net.cpp:165] Memory required for data: 57837200
I0525 18:55:04.612541  2318 layer_factory.hpp:77] Creating layer pool1
I0525 18:55:04.612558  2318 net.cpp:106] Creating Layer pool1
I0525 18:55:04.612568  2318 net.cpp:454] pool1 <- conv1
I0525 18:55:04.612581  2318 net.cpp:411] pool1 -> pool1
I0525 18:55:04.612658  2318 net.cpp:150] Setting up pool1
I0525 18:55:04.612670  2318 net.cpp:157] Top shape: 100 12 60 48 (3456000)
I0525 18:55:04.612680  2318 net.cpp:165] Memory required for data: 71661200
I0525 18:55:04.612690  2318 layer_factory.hpp:77] Creating layer conv2
I0525 18:55:04.612709  2318 net.cpp:106] Creating Layer conv2
I0525 18:55:04.612720  2318 net.cpp:454] conv2 <- pool1
I0525 18:55:04.612733  2318 net.cpp:411] conv2 -> conv2
I0525 18:55:04.614650  2318 net.cpp:150] Setting up conv2
I0525 18:55:04.614672  2318 net.cpp:157] Top shape: 100 20 54 46 (4968000)
I0525 18:55:04.614686  2318 net.cpp:165] Memory required for data: 91533200
I0525 18:55:04.614702  2318 layer_factory.hpp:77] Creating layer relu2
I0525 18:55:04.614717  2318 net.cpp:106] Creating Layer relu2
I0525 18:55:04.614727  2318 net.cpp:454] relu2 <- conv2
I0525 18:55:04.614738  2318 net.cpp:397] relu2 -> conv2 (in-place)
I0525 18:55:04.615074  2318 net.cpp:150] Setting up relu2
I0525 18:55:04.615088  2318 net.cpp:157] Top shape: 100 20 54 46 (4968000)
I0525 18:55:04.615098  2318 net.cpp:165] Memory required for data: 111405200
I0525 18:55:04.615108  2318 layer_factory.hpp:77] Creating layer pool2
I0525 18:55:04.615123  2318 net.cpp:106] Creating Layer pool2
I0525 18:55:04.615133  2318 net.cpp:454] pool2 <- conv2
I0525 18:55:04.615144  2318 net.cpp:411] pool2 -> pool2
I0525 18:55:04.615216  2318 net.cpp:150] Setting up pool2
I0525 18:55:04.615229  2318 net.cpp:157] Top shape: 100 20 27 46 (2484000)
I0525 18:55:04.615239  2318 net.cpp:165] Memory required for data: 121341200
I0525 18:55:04.615249  2318 layer_factory.hpp:77] Creating layer conv3
I0525 18:55:04.615269  2318 net.cpp:106] Creating Layer conv3
I0525 18:55:04.615280  2318 net.cpp:454] conv3 <- pool2
I0525 18:55:04.615294  2318 net.cpp:411] conv3 -> conv3
I0525 18:55:04.617286  2318 net.cpp:150] Setting up conv3
I0525 18:55:04.617310  2318 net.cpp:157] Top shape: 100 28 22 44 (2710400)
I0525 18:55:04.617321  2318 net.cpp:165] Memory required for data: 132182800
I0525 18:55:04.617353  2318 layer_factory.hpp:77] Creating layer relu3
I0525 18:55:04.617367  2318 net.cpp:106] Creating Layer relu3
I0525 18:55:04.617377  2318 net.cpp:454] relu3 <- conv3
I0525 18:55:04.617390  2318 net.cpp:397] relu3 -> conv3 (in-place)
I0525 18:55:04.617863  2318 net.cpp:150] Setting up relu3
I0525 18:55:04.617879  2318 net.cpp:157] Top shape: 100 28 22 44 (2710400)
I0525 18:55:04.617890  2318 net.cpp:165] Memory required for data: 143024400
I0525 18:55:04.617900  2318 layer_factory.hpp:77] Creating layer pool3
I0525 18:55:04.617913  2318 net.cpp:106] Creating Layer pool3
I0525 18:55:04.617923  2318 net.cpp:454] pool3 <- conv3
I0525 18:55:04.617936  2318 net.cpp:411] pool3 -> pool3
I0525 18:55:04.618007  2318 net.cpp:150] Setting up pool3
I0525 18:55:04.618021  2318 net.cpp:157] Top shape: 100 28 11 44 (1355200)
I0525 18:55:04.618031  2318 net.cpp:165] Memory required for data: 148445200
I0525 18:55:04.618041  2318 layer_factory.hpp:77] Creating layer conv4
I0525 18:55:04.618060  2318 net.cpp:106] Creating Layer conv4
I0525 18:55:04.618070  2318 net.cpp:454] conv4 <- pool3
I0525 18:55:04.618085  2318 net.cpp:411] conv4 -> conv4
I0525 18:55:04.620170  2318 net.cpp:150] Setting up conv4
I0525 18:55:04.620193  2318 net.cpp:157] Top shape: 100 36 6 42 (907200)
I0525 18:55:04.620205  2318 net.cpp:165] Memory required for data: 152074000
I0525 18:55:04.620220  2318 layer_factory.hpp:77] Creating layer relu4
I0525 18:55:04.620235  2318 net.cpp:106] Creating Layer relu4
I0525 18:55:04.620245  2318 net.cpp:454] relu4 <- conv4
I0525 18:55:04.620259  2318 net.cpp:397] relu4 -> conv4 (in-place)
I0525 18:55:04.620731  2318 net.cpp:150] Setting up relu4
I0525 18:55:04.620748  2318 net.cpp:157] Top shape: 100 36 6 42 (907200)
I0525 18:55:04.620757  2318 net.cpp:165] Memory required for data: 155702800
I0525 18:55:04.620767  2318 layer_factory.hpp:77] Creating layer pool4
I0525 18:55:04.620781  2318 net.cpp:106] Creating Layer pool4
I0525 18:55:04.620791  2318 net.cpp:454] pool4 <- conv4
I0525 18:55:04.620805  2318 net.cpp:411] pool4 -> pool4
I0525 18:55:04.620875  2318 net.cpp:150] Setting up pool4
I0525 18:55:04.620889  2318 net.cpp:157] Top shape: 100 36 3 42 (453600)
I0525 18:55:04.620898  2318 net.cpp:165] Memory required for data: 157517200
I0525 18:55:04.620908  2318 layer_factory.hpp:77] Creating layer ip1
I0525 18:55:04.620923  2318 net.cpp:106] Creating Layer ip1
I0525 18:55:04.620934  2318 net.cpp:454] ip1 <- pool4
I0525 18:55:04.620947  2318 net.cpp:411] ip1 -> ip1
I0525 18:55:04.636440  2318 net.cpp:150] Setting up ip1
I0525 18:55:04.636469  2318 net.cpp:157] Top shape: 100 196 (19600)
I0525 18:55:04.636482  2318 net.cpp:165] Memory required for data: 157595600
I0525 18:55:04.636504  2318 layer_factory.hpp:77] Creating layer relu5
I0525 18:55:04.636519  2318 net.cpp:106] Creating Layer relu5
I0525 18:55:04.636530  2318 net.cpp:454] relu5 <- ip1
I0525 18:55:04.636543  2318 net.cpp:397] relu5 -> ip1 (in-place)
I0525 18:55:04.636894  2318 net.cpp:150] Setting up relu5
I0525 18:55:04.636909  2318 net.cpp:157] Top shape: 100 196 (19600)
I0525 18:55:04.636917  2318 net.cpp:165] Memory required for data: 157674000
I0525 18:55:04.636929  2318 layer_factory.hpp:77] Creating layer drop1
I0525 18:55:04.636946  2318 net.cpp:106] Creating Layer drop1
I0525 18:55:04.636956  2318 net.cpp:454] drop1 <- ip1
I0525 18:55:04.636970  2318 net.cpp:397] drop1 -> ip1 (in-place)
I0525 18:55:04.637014  2318 net.cpp:150] Setting up drop1
I0525 18:55:04.637027  2318 net.cpp:157] Top shape: 100 196 (19600)
I0525 18:55:04.637037  2318 net.cpp:165] Memory required for data: 157752400
I0525 18:55:04.637047  2318 layer_factory.hpp:77] Creating layer ip2
I0525 18:55:04.637061  2318 net.cpp:106] Creating Layer ip2
I0525 18:55:04.637071  2318 net.cpp:454] ip2 <- ip1
I0525 18:55:04.637085  2318 net.cpp:411] ip2 -> ip2
I0525 18:55:04.637563  2318 net.cpp:150] Setting up ip2
I0525 18:55:04.637578  2318 net.cpp:157] Top shape: 100 98 (9800)
I0525 18:55:04.637588  2318 net.cpp:165] Memory required for data: 157791600
I0525 18:55:04.637603  2318 layer_factory.hpp:77] Creating layer relu6
I0525 18:55:04.637629  2318 net.cpp:106] Creating Layer relu6
I0525 18:55:04.637640  2318 net.cpp:454] relu6 <- ip2
I0525 18:55:04.637653  2318 net.cpp:397] relu6 -> ip2 (in-place)
I0525 18:55:04.638190  2318 net.cpp:150] Setting up relu6
I0525 18:55:04.638206  2318 net.cpp:157] Top shape: 100 98 (9800)
I0525 18:55:04.638216  2318 net.cpp:165] Memory required for data: 157830800
I0525 18:55:04.638226  2318 layer_factory.hpp:77] Creating layer drop2
I0525 18:55:04.638241  2318 net.cpp:106] Creating Layer drop2
I0525 18:55:04.638250  2318 net.cpp:454] drop2 <- ip2
I0525 18:55:04.638264  2318 net.cpp:397] drop2 -> ip2 (in-place)
I0525 18:55:04.638309  2318 net.cpp:150] Setting up drop2
I0525 18:55:04.638321  2318 net.cpp:157] Top shape: 100 98 (9800)
I0525 18:55:04.638331  2318 net.cpp:165] Memory required for data: 157870000
I0525 18:55:04.638340  2318 layer_factory.hpp:77] Creating layer ip3
I0525 18:55:04.638355  2318 net.cpp:106] Creating Layer ip3
I0525 18:55:04.638365  2318 net.cpp:454] ip3 <- ip2
I0525 18:55:04.638378  2318 net.cpp:411] ip3 -> ip3
I0525 18:55:04.638602  2318 net.cpp:150] Setting up ip3
I0525 18:55:04.638615  2318 net.cpp:157] Top shape: 100 11 (1100)
I0525 18:55:04.638624  2318 net.cpp:165] Memory required for data: 157874400
I0525 18:55:04.638640  2318 layer_factory.hpp:77] Creating layer drop3
I0525 18:55:04.638653  2318 net.cpp:106] Creating Layer drop3
I0525 18:55:04.638664  2318 net.cpp:454] drop3 <- ip3
I0525 18:55:04.638676  2318 net.cpp:397] drop3 -> ip3 (in-place)
I0525 18:55:04.638717  2318 net.cpp:150] Setting up drop3
I0525 18:55:04.638731  2318 net.cpp:157] Top shape: 100 11 (1100)
I0525 18:55:04.638741  2318 net.cpp:165] Memory required for data: 157878800
I0525 18:55:04.638751  2318 layer_factory.hpp:77] Creating layer ip3_drop3_0_split
I0525 18:55:04.638764  2318 net.cpp:106] Creating Layer ip3_drop3_0_split
I0525 18:55:04.638774  2318 net.cpp:454] ip3_drop3_0_split <- ip3
I0525 18:55:04.638787  2318 net.cpp:411] ip3_drop3_0_split -> ip3_drop3_0_split_0
I0525 18:55:04.638803  2318 net.cpp:411] ip3_drop3_0_split -> ip3_drop3_0_split_1
I0525 18:55:04.638876  2318 net.cpp:150] Setting up ip3_drop3_0_split
I0525 18:55:04.638890  2318 net.cpp:157] Top shape: 100 11 (1100)
I0525 18:55:04.638902  2318 net.cpp:157] Top shape: 100 11 (1100)
I0525 18:55:04.638912  2318 net.cpp:165] Memory required for data: 157887600
I0525 18:55:04.638922  2318 layer_factory.hpp:77] Creating layer accuracy
I0525 18:55:04.638944  2318 net.cpp:106] Creating Layer accuracy
I0525 18:55:04.638954  2318 net.cpp:454] accuracy <- ip3_drop3_0_split_0
I0525 18:55:04.638965  2318 net.cpp:454] accuracy <- label_data_hdf5_1_split_0
I0525 18:55:04.638979  2318 net.cpp:411] accuracy -> accuracy
…
