…
I0521 16:01:50.409543 28425 net.cpp:322] The NetState phase (0) differed from the phase (1) specified by a rule in layer data_hdf5
I0521 16:01:50.409602 28425 net.cpp:322] The NetState phase (0) differed from the phase (1) specified by a rule in layer accuracy
I0521 16:01:50.409950 28425 net.cpp:49] Initializing net from parameters: 
name: "caffe_test_127x50_x_unshifted"
state {
  phase: TRAIN
}
layer {
  name: "data_hdf5"
  type: "HDF5Data"
  top: "data"
  top: "label"
  include {
    phase: TRAIN
  }
  hdf5_data_param {
    source: "/lustre/atlas/proj-shared/hep105/caffe_titan/minosmatch_nukecczdefs_127x50_x_unshifted_me1Bmc.trainlist"
    batch_size: 10
  }
}
layer {
  name: "conv1"
  type: "Convolution"
  bottom: "data"
  top: "conv1"
  convolution_param {
    num_output: 12
    pad: 0
    stride: 1
    weight_filler {
      type: "xavier"
    }
    bias_filler {
      type: "constant"
    }
    kernel_h: 8
    kernel_w: 3
  }
}
layer {
  name: "relu1"
  type: "ReLU"
  bottom: "conv1"
  top: "conv1"
}
layer {
  name: "pool1"
  type: "Pooling"
  bottom: "conv1"
  top: "pool1"
  pooling_param {
    pool: MAX
    kernel_h: 2
    kernel_w: 1
    stride_h: 2
    stride_w: 1
  }
}
layer {
  name: "conv2"
  type: "Convolution"
  bottom: "pool1"
  top: "conv2"
  convolution_param {
    num_output: 20
    pad: 0
    stride: 1
    weight_filler {
      type: "xavier"
    }
    bias_filler {
      type: "constant"
    }
    kernel_h: 7
    kernel_w: 3
  }
}
layer {
  name: "relu2"
  type: "ReLU"
  bottom: "conv2"
  top: "conv2"
}
layer {
  name: "pool2"
  type: "Pooling"
  bottom: "conv2"
  top: "pool2"
  pooling_param {
    pool: MAX
    kernel_h: 2
    kernel_w: 1
    stride_h: 2
    stride_w: 1
  }
}
layer {
  name: "conv3"
  type: "Convolution"
  bottom: "pool2"
  top: "conv3"
  convolution_param {
    num_output: 28
    pad: 0
    stride: 1
    weight_filler {
      type: "xavier"
    }
    bias_filler {
      type: "constant"
    }
    kernel_h: 6
    kernel_w: 3
  }
}
layer {
  name: "relu3"
  type: "ReLU"
  bottom: "conv3"
  top: "conv3"
}
layer {
  name: "pool3"
  type: "Pooling"
  bottom: "conv3"
  top: "pool3"
  pooling_param {
    pool: MAX
    kernel_h: 2
    kernel_w: 1
    stride_h: 2
    stride_w: 1
  }
}
layer {
  name: "conv4"
  type: "Convolution"
  bottom: "pool3"
  top: "conv4"
  convolution_param {
    num_output: 36
    pad: 0
    stride: 1
    weight_filler {
      type: "xavier"
    }
    bias_filler {
      type: "constant"
    }
    kernel_h: 6
    kernel_w: 3
  }
}
layer {
  name: "relu4"
  type: "ReLU"
  bottom: "conv4"
  top: "conv4"
}
layer {
  name: "pool4"
  type: "Pooling"
  bottom: "conv4"
  top: "pool4"
  pooling_param {
    pool: MAX
    kernel_h: 2
    kernel_w: 1
    stride_h: 2
    stride_w: 1
  }
}
layer {
  name: "ip1"
  type: "InnerProduct"
  bottom: "pool4"
  top: "ip1"
  inner_product_param {
    num_output: 196
    weight_filler {
      type: "xavier"
    }
    bias_filler {
      type: "constant"
    }
  }
}
layer {
  name: "relu5"
  type: "ReLU"
  bottom: "ip1"
  top: "ip1"
}
layer {
  name: "drop1"
  type: "Dropout"
  bottom: "ip1"
  top: "ip1"
  dropout_param {
    dropout_ratio: 0.5
  }
}
layer {
  name: "ip2"
  type: "InnerProduct"
  bottom: "ip1"
  top: "ip2"
  inner_product_param {
    num_output: 98
    weight_filler {
      type: "xavier"
    }
    bias_filler {
      type: "constant"
    }
  }
}
layer {
  name: "relu6"
  type: "ReLU"
  bottom: "ip2"
  top: "ip2"
}
layer {
  name: "drop2"
  type: "Dropout"
  bottom: "ip2"
  top: "ip2"
  dropout_param {
    dropout_ratio: 0.5
  }
}
layer {
  name: "ip3"
  type: "InnerProduct"
  bottom: "ip2"
  top: "ip3"
  inner_product_param {
    num_output: 11
    weight_filler {
      type: "xavier"
    }
    bias_filler {
      type: "constant"
    }
  }
}
layer {
  name: "drop3"
  type: "Dropout"
  bottom: "ip3"
  top: "ip3"
  dropout_param {
    dropout_ratio: 0.5
  }
}
layer {
  name: "loss"
  type: "SoftmaxWithLoss"
  bottom: "ip3"
  bottom: "label"
  top: "loss"
}
I0521 16:01:50.410126 28425 layer_factory.hpp:77] Creating layer data_hdf5
I0521 16:01:50.410151 28425 net.cpp:106] Creating Layer data_hdf5
I0521 16:01:50.410164 28425 net.cpp:411] data_hdf5 -> data
I0521 16:01:50.410228 28425 net.cpp:411] data_hdf5 -> label
I0521 16:01:50.410260 28425 hdf5_data_layer.cpp:79] Loading list of HDF5 filenames from: /lustre/atlas/proj-shared/hep105/caffe_titan/minosmatch_nukecczdefs_127x50_x_unshifted_me1Bmc.trainlist
I0521 16:01:50.411558 28425 hdf5_data_layer.cpp:93] Number of HDF5 files: 15
I0521 16:01:50.413794 28425 hdf5.cpp:32] Datatype class: H5T_FLOAT
I0521 16:02:11.880520 28425 hdf5.cpp:35] Datatype class: H5T_INTEGER
I0521 16:02:11.885704 28425 net.cpp:150] Setting up data_hdf5
I0521 16:02:11.885745 28425 net.cpp:157] Top shape: 10 1 127 50 (63500)
I0521 16:02:11.885758 28425 net.cpp:157] Top shape: 10 (10)
I0521 16:02:11.885769 28425 net.cpp:165] Memory required for data: 254040
I0521 16:02:11.885782 28425 layer_factory.hpp:77] Creating layer conv1
I0521 16:02:11.885817 28425 net.cpp:106] Creating Layer conv1
I0521 16:02:11.885828 28425 net.cpp:454] conv1 <- data
I0521 16:02:11.885850 28425 net.cpp:411] conv1 -> conv1
I0521 16:02:13.033063 28425 net.cpp:150] Setting up conv1
I0521 16:02:13.033110 28425 net.cpp:157] Top shape: 10 12 120 48 (691200)
I0521 16:02:13.033121 28425 net.cpp:165] Memory required for data: 3018840
I0521 16:02:13.033150 28425 layer_factory.hpp:77] Creating layer relu1
I0521 16:02:13.033171 28425 net.cpp:106] Creating Layer relu1
I0521 16:02:13.033182 28425 net.cpp:454] relu1 <- conv1
I0521 16:02:13.033196 28425 net.cpp:397] relu1 -> conv1 (in-place)
I0521 16:02:13.033720 28425 net.cpp:150] Setting up relu1
I0521 16:02:13.033737 28425 net.cpp:157] Top shape: 10 12 120 48 (691200)
I0521 16:02:13.033747 28425 net.cpp:165] Memory required for data: 5783640
I0521 16:02:13.033756 28425 layer_factory.hpp:77] Creating layer pool1
I0521 16:02:13.033774 28425 net.cpp:106] Creating Layer pool1
I0521 16:02:13.033784 28425 net.cpp:454] pool1 <- conv1
I0521 16:02:13.033797 28425 net.cpp:411] pool1 -> pool1
I0521 16:02:13.033879 28425 net.cpp:150] Setting up pool1
I0521 16:02:13.033891 28425 net.cpp:157] Top shape: 10 12 60 48 (345600)
I0521 16:02:13.033901 28425 net.cpp:165] Memory required for data: 7166040
I0521 16:02:13.033911 28425 layer_factory.hpp:77] Creating layer conv2
I0521 16:02:13.033933 28425 net.cpp:106] Creating Layer conv2
I0521 16:02:13.033943 28425 net.cpp:454] conv2 <- pool1
I0521 16:02:13.033957 28425 net.cpp:411] conv2 -> conv2
I0521 16:02:13.036653 28425 net.cpp:150] Setting up conv2
I0521 16:02:13.036681 28425 net.cpp:157] Top shape: 10 20 54 46 (496800)
I0521 16:02:13.036691 28425 net.cpp:165] Memory required for data: 9153240
I0521 16:02:13.036710 28425 layer_factory.hpp:77] Creating layer relu2
I0521 16:02:13.036725 28425 net.cpp:106] Creating Layer relu2
I0521 16:02:13.036734 28425 net.cpp:454] relu2 <- conv2
I0521 16:02:13.036747 28425 net.cpp:397] relu2 -> conv2 (in-place)
I0521 16:02:13.037080 28425 net.cpp:150] Setting up relu2
I0521 16:02:13.037093 28425 net.cpp:157] Top shape: 10 20 54 46 (496800)
I0521 16:02:13.037103 28425 net.cpp:165] Memory required for data: 11140440
I0521 16:02:13.037113 28425 layer_factory.hpp:77] Creating layer pool2
I0521 16:02:13.037127 28425 net.cpp:106] Creating Layer pool2
I0521 16:02:13.037137 28425 net.cpp:454] pool2 <- conv2
I0521 16:02:13.037148 28425 net.cpp:411] pool2 -> pool2
I0521 16:02:13.037227 28425 net.cpp:150] Setting up pool2
I0521 16:02:13.037241 28425 net.cpp:157] Top shape: 10 20 27 46 (248400)
I0521 16:02:13.037251 28425 net.cpp:165] Memory required for data: 12134040
I0521 16:02:13.037261 28425 layer_factory.hpp:77] Creating layer conv3
I0521 16:02:13.037277 28425 net.cpp:106] Creating Layer conv3
I0521 16:02:13.037288 28425 net.cpp:454] conv3 <- pool2
I0521 16:02:13.037302 28425 net.cpp:411] conv3 -> conv3
I0521 16:02:13.039388 28425 net.cpp:150] Setting up conv3
I0521 16:02:13.039412 28425 net.cpp:157] Top shape: 10 28 22 44 (271040)
I0521 16:02:13.039423 28425 net.cpp:165] Memory required for data: 13218200
I0521 16:02:13.039443 28425 layer_factory.hpp:77] Creating layer relu3
I0521 16:02:13.039458 28425 net.cpp:106] Creating Layer relu3
I0521 16:02:13.039469 28425 net.cpp:454] relu3 <- conv3
I0521 16:02:13.039481 28425 net.cpp:397] relu3 -> conv3 (in-place)
I0521 16:02:13.039954 28425 net.cpp:150] Setting up relu3
I0521 16:02:13.039973 28425 net.cpp:157] Top shape: 10 28 22 44 (271040)
I0521 16:02:13.039983 28425 net.cpp:165] Memory required for data: 14302360
I0521 16:02:13.039994 28425 layer_factory.hpp:77] Creating layer pool3
I0521 16:02:13.040006 28425 net.cpp:106] Creating Layer pool3
I0521 16:02:13.040016 28425 net.cpp:454] pool3 <- conv3
I0521 16:02:13.040029 28425 net.cpp:411] pool3 -> pool3
I0521 16:02:13.040096 28425 net.cpp:150] Setting up pool3
I0521 16:02:13.040109 28425 net.cpp:157] Top shape: 10 28 11 44 (135520)
I0521 16:02:13.040119 28425 net.cpp:165] Memory required for data: 14844440
I0521 16:02:13.040128 28425 layer_factory.hpp:77] Creating layer conv4
I0521 16:02:13.040146 28425 net.cpp:106] Creating Layer conv4
I0521 16:02:13.040158 28425 net.cpp:454] conv4 <- pool3
I0521 16:02:13.040170 28425 net.cpp:411] conv4 -> conv4
I0521 16:02:13.042867 28425 net.cpp:150] Setting up conv4
I0521 16:02:13.042896 28425 net.cpp:157] Top shape: 10 36 6 42 (90720)
I0521 16:02:13.042906 28425 net.cpp:165] Memory required for data: 15207320
I0521 16:02:13.042922 28425 layer_factory.hpp:77] Creating layer relu4
I0521 16:02:13.042935 28425 net.cpp:106] Creating Layer relu4
I0521 16:02:13.042945 28425 net.cpp:454] relu4 <- conv4
I0521 16:02:13.042958 28425 net.cpp:397] relu4 -> conv4 (in-place)
I0521 16:02:13.043422 28425 net.cpp:150] Setting up relu4
I0521 16:02:13.043438 28425 net.cpp:157] Top shape: 10 36 6 42 (90720)
I0521 16:02:13.043448 28425 net.cpp:165] Memory required for data: 15570200
I0521 16:02:13.043459 28425 layer_factory.hpp:77] Creating layer pool4
I0521 16:02:13.043473 28425 net.cpp:106] Creating Layer pool4
I0521 16:02:13.043481 28425 net.cpp:454] pool4 <- conv4
I0521 16:02:13.043494 28425 net.cpp:411] pool4 -> pool4
I0521 16:02:13.043562 28425 net.cpp:150] Setting up pool4
I0521 16:02:13.043576 28425 net.cpp:157] Top shape: 10 36 3 42 (45360)
I0521 16:02:13.043586 28425 net.cpp:165] Memory required for data: 15751640
I0521 16:02:13.043596 28425 layer_factory.hpp:77] Creating layer ip1
I0521 16:02:13.043614 28425 net.cpp:106] Creating Layer ip1
I0521 16:02:13.043624 28425 net.cpp:454] ip1 <- pool4
I0521 16:02:13.043637 28425 net.cpp:411] ip1 -> ip1
I0521 16:02:13.059073 28425 net.cpp:150] Setting up ip1
I0521 16:02:13.059103 28425 net.cpp:157] Top shape: 10 196 (1960)
I0521 16:02:13.059113 28425 net.cpp:165] Memory required for data: 15759480
I0521 16:02:13.059136 28425 layer_factory.hpp:77] Creating layer relu5
I0521 16:02:13.059151 28425 net.cpp:106] Creating Layer relu5
I0521 16:02:13.059161 28425 net.cpp:454] relu5 <- ip1
I0521 16:02:13.059175 28425 net.cpp:397] relu5 -> ip1 (in-place)
I0521 16:02:13.059517 28425 net.cpp:150] Setting up relu5
I0521 16:02:13.059531 28425 net.cpp:157] Top shape: 10 196 (1960)
I0521 16:02:13.059541 28425 net.cpp:165] Memory required for data: 15767320
I0521 16:02:13.059552 28425 layer_factory.hpp:77] Creating layer drop1
I0521 16:02:13.059573 28425 net.cpp:106] Creating Layer drop1
I0521 16:02:13.059583 28425 net.cpp:454] drop1 <- ip1
I0521 16:02:13.059595 28425 net.cpp:397] drop1 -> ip1 (in-place)
I0521 16:02:13.059655 28425 net.cpp:150] Setting up drop1
I0521 16:02:13.059669 28425 net.cpp:157] Top shape: 10 196 (1960)
I0521 16:02:13.059679 28425 net.cpp:165] Memory required for data: 15775160
I0521 16:02:13.059689 28425 layer_factory.hpp:77] Creating layer ip2
I0521 16:02:13.059706 28425 net.cpp:106] Creating Layer ip2
I0521 16:02:13.059716 28425 net.cpp:454] ip2 <- ip1
I0521 16:02:13.059730 28425 net.cpp:411] ip2 -> ip2
I0521 16:02:13.060201 28425 net.cpp:150] Setting up ip2
I0521 16:02:13.060214 28425 net.cpp:157] Top shape: 10 98 (980)
I0521 16:02:13.060225 28425 net.cpp:165] Memory required for data: 15779080
I0521 16:02:13.060240 28425 layer_factory.hpp:77] Creating layer relu6
I0521 16:02:13.060252 28425 net.cpp:106] Creating Layer relu6
I0521 16:02:13.060262 28425 net.cpp:454] relu6 <- ip2
I0521 16:02:13.060274 28425 net.cpp:397] relu6 -> ip2 (in-place)
I0521 16:02:13.060796 28425 net.cpp:150] Setting up relu6
I0521 16:02:13.060811 28425 net.cpp:157] Top shape: 10 98 (980)
I0521 16:02:13.060822 28425 net.cpp:165] Memory required for data: 15783000
I0521 16:02:13.060832 28425 layer_factory.hpp:77] Creating layer drop2
I0521 16:02:13.060844 28425 net.cpp:106] Creating Layer drop2
I0521 16:02:13.060854 28425 net.cpp:454] drop2 <- ip2
I0521 16:02:13.060866 28425 net.cpp:397] drop2 -> ip2 (in-place)
I0521 16:02:13.060909 28425 net.cpp:150] Setting up drop2
I0521 16:02:13.060922 28425 net.cpp:157] Top shape: 10 98 (980)
I0521 16:02:13.060932 28425 net.cpp:165] Memory required for data: 15786920
I0521 16:02:13.060942 28425 layer_factory.hpp:77] Creating layer ip3
I0521 16:02:13.060956 28425 net.cpp:106] Creating Layer ip3
I0521 16:02:13.060964 28425 net.cpp:454] ip3 <- ip2
I0521 16:02:13.060977 28425 net.cpp:411] ip3 -> ip3
I0521 16:02:13.061187 28425 net.cpp:150] Setting up ip3
I0521 16:02:13.061200 28425 net.cpp:157] Top shape: 10 11 (110)
I0521 16:02:13.061210 28425 net.cpp:165] Memory required for data: 15787360
I0521 16:02:13.061225 28425 layer_factory.hpp:77] Creating layer drop3
I0521 16:02:13.061239 28425 net.cpp:106] Creating Layer drop3
I0521 16:02:13.061247 28425 net.cpp:454] drop3 <- ip3
I0521 16:02:13.061260 28425 net.cpp:397] drop3 -> ip3 (in-place)
I0521 16:02:13.061298 28425 net.cpp:150] Setting up drop3
I0521 16:02:13.061311 28425 net.cpp:157] Top shape: 10 11 (110)
I0521 16:02:13.061321 28425 net.cpp:165] Memory required for data: 15787800
I0521 16:02:13.061331 28425 layer_factory.hpp:77] Creating layer loss
I0521 16:02:13.061354 28425 net.cpp:106] Creating Layer loss
I0521 16:02:13.061364 28425 net.cpp:454] loss <- ip3
I0521 16:02:13.061375 28425 net.cpp:454] loss <- label
I0521 16:02:13.061388 28425 net.cpp:411] loss -> loss
I0521 16:02:13.061405 28425 layer_factory.hpp:77] Creating layer loss
…
I0521 16:02:13.064018 28425 solver.cpp:181] Creating test net (#0) specified by net file: /lustre/atlas/proj-shared/hep105/caffe_titan/caffe_workflow/logs_bslr/bs_10_lr_0.0035_2016-05-20T15.48.51.674992.prototxt
I0521 16:02:13.064088 28425 net.cpp:322] The NetState phase (1) differed from the phase (0) specified by a rule in layer data_hdf5
I0521 16:02:13.064440 28425 net.cpp:49] Initializing net from parameters: 
name: "caffe_test_127x50_x_unshifted"
state {
  phase: TEST
}
layer {
  name: "data_hdf5"
  type: "HDF5Data"
  top: "data"
  top: "label"
  include {
    phase: TEST
  }
  hdf5_data_param {
    source: "/lustre/atlas/proj-shared/hep105/caffe_titan/minosmatch_nukecczdefs_127x50_x_unshifted_me1Bmc.testlist"
    batch_size: 10
  }
}
layer {
  name: "conv1"
  type: "Convolution"
  bottom: "data"
  top: "conv1"
  convolution_param {
    num_output: 12
    pad: 0
    stride: 1
    weight_filler {
      type: "xavier"
    }
    bias_filler {
      type: "constant"
    }
    kernel_h: 8
    kernel_w: 3
  }
}
layer {
  name: "relu1"
  type: "ReLU"
  bottom: "conv1"
  top: "conv1"
}
layer {
  name: "pool1"
  type: "Pooling"
  bottom: "conv1"
  top: "pool1"
  pooling_param {
    pool: MAX
    kernel_h: 2
    kernel_w: 1
    stride_h: 2
    stride_w: 1
  }
}
layer {
  name: "conv2"
  type: "Convolution"
  bottom: "pool1"
  top: "conv2"
  convolution_param {
    num_output: 20
    pad: 0
    stride: 1
    weight_filler {
      type: "xavier"
    }
    bias_filler {
      type: "constant"
    }
    kernel_h: 7
    kernel_w: 3
  }
}
layer {
  name: "relu2"
  type: "ReLU"
  bottom: "conv2"
  top: "conv2"
}
layer {
  name: "pool2"
  type: "Pooling"
  bottom: "conv2"
  top: "pool2"
  pooling_param {
    pool: MAX
    kernel_h: 2
    kernel_w: 1
    stride_h: 2
    stride_w: 1
  }
}
layer {
  name: "conv3"
  type: "Convolution"
  bottom: "pool2"
  top: "conv3"
  convolution_param {
    num_output: 28
    pad: 0
    stride: 1
    weight_filler {
      type: "xavier"
    }
    bias_filler {
      type: "constant"
    }
    kernel_h: 6
    kernel_w: 3
  }
}
layer {
  name: "relu3"
  type: "ReLU"
  bottom: "conv3"
  top: "conv3"
}
layer {
  name: "pool3"
  type: "Pooling"
  bottom: "conv3"
  top: "pool3"
  pooling_param {
    pool: MAX
    kernel_h: 2
    kernel_w: 1
    stride_h: 2
    stride_w: 1
  }
}
layer {
  name: "conv4"
  type: "Convolution"
  bottom: "pool3"
  top: "conv4"
  convolution_param {
    num_output: 36
    pad: 0
    stride: 1
    weight_filler {
      type: "xavier"
    }
    bias_filler {
      type: "constant"
    }
    kernel_h: 6
    kernel_w: 3
  }
}
layer {
  name: "relu4"
  type: "ReLU"
  bottom: "conv4"
  top: "conv4"
}
layer {
  name: "pool4"
  type: "Pooling"
  bottom: "conv4"
  top: "pool4"
  pooling_param {
    pool: MAX
    kernel_h: 2
    kernel_w: 1
    stride_h: 2
    stride_w: 1
  }
}
layer {
  name: "ip1"
  type: "InnerProduct"
  bottom: "pool4"
  top: "ip1"
  inner_product_param {
    num_output: 196
    weight_filler {
      type: "xavier"
    }
    bias_filler {
      type: "constant"
    }
  }
}
layer {
  name: "relu5"
  type: "ReLU"
  bottom: "ip1"
  top: "ip1"
}
layer {
  name: "drop1"
  type: "Dropout"
  bottom: "ip1"
  top: "ip1"
  dropout_param {
    dropout_ratio: 0.5
  }
}
layer {
  name: "ip2"
  type: "InnerProduct"
  bottom: "ip1"
  top: "ip2"
  inner_product_param {
    num_output: 98
    weight_filler {
      type: "xavier"
    }
    bias_filler {
      type: "constant"
    }
  }
}
layer {
  name: "relu6"
  type: "ReLU"
  bottom: "ip2"
  top: "ip2"
}
layer {
  name: "drop2"
  type: "Dropout"
  bottom: "ip2"
  top: "ip2"
  dropout_param {
    dropout_ratio: 0.5
  }
}
layer {
  name: "ip3"
  type: "InnerProduct"
  bottom: "ip2"
  top: "ip3"
  inner_product_param {
    num_output: 11
    weight_filler {
      type: "xavier"
    }
    bias_filler {
      type: "constant"
    }
  }
}
layer {
  name: "drop3"
  type: "Dropout"
  bottom: "ip3"
  top: "ip3"
  dropout_param {
    dropout_ratio: 0.5
  }
}
layer {
  name: "accuracy"
  type: "Accuracy"
  bottom: "ip3"
  bottom: "label"
  top: "accuracy"
  include {
    phase: TEST
  }
}
layer {
  name: "loss"
  type: "SoftmaxWithLoss"
  bottom: "ip3"
  bottom: "label"
  top: "loss"
}
I0521 16:02:13.064630 28425 layer_factory.hpp:77] Creating layer data_hdf5
I0521 16:02:13.064646 28425 net.cpp:106] Creating Layer data_hdf5
I0521 16:02:13.064658 28425 net.cpp:411] data_hdf5 -> data
I0521 16:02:13.064674 28425 net.cpp:411] data_hdf5 -> label
I0521 16:02:13.064692 28425 hdf5_data_layer.cpp:79] Loading list of HDF5 filenames from: /lustre/atlas/proj-shared/hep105/caffe_titan/minosmatch_nukecczdefs_127x50_x_unshifted_me1Bmc.testlist
I0521 16:02:13.065822 28425 hdf5_data_layer.cpp:93] Number of HDF5 files: 3
I0521 16:02:34.354626 28425 net.cpp:150] Setting up data_hdf5
I0521 16:02:34.367938 28425 net.cpp:157] Top shape: 10 1 127 50 (63500)
I0521 16:02:34.367956 28425 net.cpp:157] Top shape: 10 (10)
I0521 16:02:34.367967 28425 net.cpp:165] Memory required for data: 254040
I0521 16:02:34.367981 28425 layer_factory.hpp:77] Creating layer label_data_hdf5_1_split
I0521 16:02:34.368010 28425 net.cpp:106] Creating Layer label_data_hdf5_1_split
I0521 16:02:34.368021 28425 net.cpp:454] label_data_hdf5_1_split <- label
I0521 16:02:34.368034 28425 net.cpp:411] label_data_hdf5_1_split -> label_data_hdf5_1_split_0
I0521 16:02:34.368057 28425 net.cpp:411] label_data_hdf5_1_split -> label_data_hdf5_1_split_1
I0521 16:02:34.368144 28425 net.cpp:150] Setting up label_data_hdf5_1_split
I0521 16:02:34.368158 28425 net.cpp:157] Top shape: 10 (10)
I0521 16:02:34.368170 28425 net.cpp:157] Top shape: 10 (10)
I0521 16:02:34.368180 28425 net.cpp:165] Memory required for data: 254120
I0521 16:02:34.368188 28425 layer_factory.hpp:77] Creating layer conv1
I0521 16:02:34.368212 28425 net.cpp:106] Creating Layer conv1
I0521 16:02:34.368223 28425 net.cpp:454] conv1 <- data
I0521 16:02:34.368239 28425 net.cpp:411] conv1 -> conv1
I0521 16:02:34.370210 28425 net.cpp:150] Setting up conv1
I0521 16:02:34.370235 28425 net.cpp:157] Top shape: 10 12 120 48 (691200)
I0521 16:02:34.370246 28425 net.cpp:165] Memory required for data: 3018920
I0521 16:02:34.370267 28425 layer_factory.hpp:77] Creating layer relu1
I0521 16:02:34.370282 28425 net.cpp:106] Creating Layer relu1
I0521 16:02:34.370292 28425 net.cpp:454] relu1 <- conv1
I0521 16:02:34.370306 28425 net.cpp:397] relu1 -> conv1 (in-place)
I0521 16:02:34.370817 28425 net.cpp:150] Setting up relu1
I0521 16:02:34.370833 28425 net.cpp:157] Top shape: 10 12 120 48 (691200)
I0521 16:02:34.370844 28425 net.cpp:165] Memory required for data: 5783720
I0521 16:02:34.370854 28425 layer_factory.hpp:77] Creating layer pool1
I0521 16:02:34.370872 28425 net.cpp:106] Creating Layer pool1
I0521 16:02:34.370882 28425 net.cpp:454] pool1 <- conv1
I0521 16:02:34.370894 28425 net.cpp:411] pool1 -> pool1
I0521 16:02:34.370970 28425 net.cpp:150] Setting up pool1
I0521 16:02:34.370983 28425 net.cpp:157] Top shape: 10 12 60 48 (345600)
I0521 16:02:34.370993 28425 net.cpp:165] Memory required for data: 7166120
I0521 16:02:34.371003 28425 layer_factory.hpp:77] Creating layer conv2
I0521 16:02:34.371021 28425 net.cpp:106] Creating Layer conv2
I0521 16:02:34.371031 28425 net.cpp:454] conv2 <- pool1
I0521 16:02:34.371045 28425 net.cpp:411] conv2 -> conv2
I0521 16:02:34.373004 28425 net.cpp:150] Setting up conv2
I0521 16:02:34.373028 28425 net.cpp:157] Top shape: 10 20 54 46 (496800)
I0521 16:02:34.373040 28425 net.cpp:165] Memory required for data: 9153320
I0521 16:02:34.373059 28425 layer_factory.hpp:77] Creating layer relu2
I0521 16:02:34.373073 28425 net.cpp:106] Creating Layer relu2
I0521 16:02:34.373087 28425 net.cpp:454] relu2 <- conv2
I0521 16:02:34.373100 28425 net.cpp:397] relu2 -> conv2 (in-place)
I0521 16:02:34.373438 28425 net.cpp:150] Setting up relu2
I0521 16:02:34.373452 28425 net.cpp:157] Top shape: 10 20 54 46 (496800)
I0521 16:02:34.373462 28425 net.cpp:165] Memory required for data: 11140520
I0521 16:02:34.373472 28425 layer_factory.hpp:77] Creating layer pool2
I0521 16:02:34.373486 28425 net.cpp:106] Creating Layer pool2
I0521 16:02:34.373497 28425 net.cpp:454] pool2 <- conv2
I0521 16:02:34.373509 28425 net.cpp:411] pool2 -> pool2
I0521 16:02:34.373582 28425 net.cpp:150] Setting up pool2
I0521 16:02:34.373595 28425 net.cpp:157] Top shape: 10 20 27 46 (248400)
I0521 16:02:34.373605 28425 net.cpp:165] Memory required for data: 12134120
I0521 16:02:34.373615 28425 layer_factory.hpp:77] Creating layer conv3
I0521 16:02:34.373634 28425 net.cpp:106] Creating Layer conv3
I0521 16:02:34.373644 28425 net.cpp:454] conv3 <- pool2
I0521 16:02:34.373661 28425 net.cpp:411] conv3 -> conv3
I0521 16:02:34.375674 28425 net.cpp:150] Setting up conv3
I0521 16:02:34.375697 28425 net.cpp:157] Top shape: 10 28 22 44 (271040)
I0521 16:02:34.375710 28425 net.cpp:165] Memory required for data: 13218280
I0521 16:02:34.375727 28425 layer_factory.hpp:77] Creating layer relu3
I0521 16:02:34.375756 28425 net.cpp:106] Creating Layer relu3
I0521 16:02:34.375766 28425 net.cpp:454] relu3 <- conv3
I0521 16:02:34.375778 28425 net.cpp:397] relu3 -> conv3 (in-place)
I0521 16:02:34.376258 28425 net.cpp:150] Setting up relu3
I0521 16:02:34.376276 28425 net.cpp:157] Top shape: 10 28 22 44 (271040)
I0521 16:02:34.376286 28425 net.cpp:165] Memory required for data: 14302440
I0521 16:02:34.376296 28425 layer_factory.hpp:77] Creating layer pool3
I0521 16:02:34.376309 28425 net.cpp:106] Creating Layer pool3
I0521 16:02:34.376319 28425 net.cpp:454] pool3 <- conv3
I0521 16:02:34.376332 28425 net.cpp:411] pool3 -> pool3
I0521 16:02:34.376405 28425 net.cpp:150] Setting up pool3
I0521 16:02:34.376418 28425 net.cpp:157] Top shape: 10 28 11 44 (135520)
I0521 16:02:34.376427 28425 net.cpp:165] Memory required for data: 14844520
I0521 16:02:34.376438 28425 layer_factory.hpp:77] Creating layer conv4
I0521 16:02:34.376456 28425 net.cpp:106] Creating Layer conv4
I0521 16:02:34.376466 28425 net.cpp:454] conv4 <- pool3
I0521 16:02:34.376482 28425 net.cpp:411] conv4 -> conv4
I0521 16:02:34.378541 28425 net.cpp:150] Setting up conv4
I0521 16:02:34.378563 28425 net.cpp:157] Top shape: 10 36 6 42 (90720)
I0521 16:02:34.378576 28425 net.cpp:165] Memory required for data: 15207400
I0521 16:02:34.378593 28425 layer_factory.hpp:77] Creating layer relu4
I0521 16:02:34.378607 28425 net.cpp:106] Creating Layer relu4
I0521 16:02:34.378617 28425 net.cpp:454] relu4 <- conv4
I0521 16:02:34.378628 28425 net.cpp:397] relu4 -> conv4 (in-place)
I0521 16:02:34.379094 28425 net.cpp:150] Setting up relu4
I0521 16:02:34.379111 28425 net.cpp:157] Top shape: 10 36 6 42 (90720)
I0521 16:02:34.379120 28425 net.cpp:165] Memory required for data: 15570280
I0521 16:02:34.379130 28425 layer_factory.hpp:77] Creating layer pool4
I0521 16:02:34.379143 28425 net.cpp:106] Creating Layer pool4
I0521 16:02:34.379153 28425 net.cpp:454] pool4 <- conv4
I0521 16:02:34.379166 28425 net.cpp:411] pool4 -> pool4
I0521 16:02:34.379238 28425 net.cpp:150] Setting up pool4
I0521 16:02:34.379252 28425 net.cpp:157] Top shape: 10 36 3 42 (45360)
I0521 16:02:34.379262 28425 net.cpp:165] Memory required for data: 15751720
I0521 16:02:34.379271 28425 layer_factory.hpp:77] Creating layer ip1
I0521 16:02:34.379287 28425 net.cpp:106] Creating Layer ip1
I0521 16:02:34.379297 28425 net.cpp:454] ip1 <- pool4
I0521 16:02:34.379312 28425 net.cpp:411] ip1 -> ip1
I0521 16:02:34.394815 28425 net.cpp:150] Setting up ip1
I0521 16:02:34.394843 28425 net.cpp:157] Top shape: 10 196 (1960)
I0521 16:02:34.394855 28425 net.cpp:165] Memory required for data: 15759560
I0521 16:02:34.394876 28425 layer_factory.hpp:77] Creating layer relu5
I0521 16:02:34.394892 28425 net.cpp:106] Creating Layer relu5
I0521 16:02:34.394902 28425 net.cpp:454] relu5 <- ip1
I0521 16:02:34.394917 28425 net.cpp:397] relu5 -> ip1 (in-place)
I0521 16:02:34.395262 28425 net.cpp:150] Setting up relu5
I0521 16:02:34.395277 28425 net.cpp:157] Top shape: 10 196 (1960)
I0521 16:02:34.395285 28425 net.cpp:165] Memory required for data: 15767400
I0521 16:02:34.395295 28425 layer_factory.hpp:77] Creating layer drop1
I0521 16:02:34.395315 28425 net.cpp:106] Creating Layer drop1
I0521 16:02:34.395325 28425 net.cpp:454] drop1 <- ip1
I0521 16:02:34.395339 28425 net.cpp:397] drop1 -> ip1 (in-place)
I0521 16:02:34.395383 28425 net.cpp:150] Setting up drop1
I0521 16:02:34.395397 28425 net.cpp:157] Top shape: 10 196 (1960)
I0521 16:02:34.395407 28425 net.cpp:165] Memory required for data: 15775240
I0521 16:02:34.395417 28425 layer_factory.hpp:77] Creating layer ip2
I0521 16:02:34.395431 28425 net.cpp:106] Creating Layer ip2
I0521 16:02:34.395442 28425 net.cpp:454] ip2 <- ip1
I0521 16:02:34.395455 28425 net.cpp:411] ip2 -> ip2
I0521 16:02:34.395939 28425 net.cpp:150] Setting up ip2
I0521 16:02:34.395952 28425 net.cpp:157] Top shape: 10 98 (980)
I0521 16:02:34.395962 28425 net.cpp:165] Memory required for data: 15779160
I0521 16:02:34.395978 28425 layer_factory.hpp:77] Creating layer relu6
I0521 16:02:34.396003 28425 net.cpp:106] Creating Layer relu6
I0521 16:02:34.396013 28425 net.cpp:454] relu6 <- ip2
I0521 16:02:34.396026 28425 net.cpp:397] relu6 -> ip2 (in-place)
I0521 16:02:34.396560 28425 net.cpp:150] Setting up relu6
I0521 16:02:34.396576 28425 net.cpp:157] Top shape: 10 98 (980)
I0521 16:02:34.396590 28425 net.cpp:165] Memory required for data: 15783080
I0521 16:02:34.396600 28425 layer_factory.hpp:77] Creating layer drop2
I0521 16:02:34.396615 28425 net.cpp:106] Creating Layer drop2
I0521 16:02:34.396625 28425 net.cpp:454] drop2 <- ip2
I0521 16:02:34.396637 28425 net.cpp:397] drop2 -> ip2 (in-place)
I0521 16:02:34.396682 28425 net.cpp:150] Setting up drop2
I0521 16:02:34.396694 28425 net.cpp:157] Top shape: 10 98 (980)
I0521 16:02:34.396704 28425 net.cpp:165] Memory required for data: 15787000
I0521 16:02:34.396714 28425 layer_factory.hpp:77] Creating layer ip3
I0521 16:02:34.396728 28425 net.cpp:106] Creating Layer ip3
I0521 16:02:34.396739 28425 net.cpp:454] ip3 <- ip2
I0521 16:02:34.396752 28425 net.cpp:411] ip3 -> ip3
I0521 16:02:34.396971 28425 net.cpp:150] Setting up ip3
I0521 16:02:34.396986 28425 net.cpp:157] Top shape: 10 11 (110)
I0521 16:02:34.396994 28425 net.cpp:165] Memory required for data: 15787440
I0521 16:02:34.397011 28425 layer_factory.hpp:77] Creating layer drop3
I0521 16:02:34.397023 28425 net.cpp:106] Creating Layer drop3
I0521 16:02:34.397032 28425 net.cpp:454] drop3 <- ip3
I0521 16:02:34.397045 28425 net.cpp:397] drop3 -> ip3 (in-place)
I0521 16:02:34.397086 28425 net.cpp:150] Setting up drop3
I0521 16:02:34.397099 28425 net.cpp:157] Top shape: 10 11 (110)
I0521 16:02:34.397109 28425 net.cpp:165] Memory required for data: 15787880
I0521 16:02:34.397119 28425 layer_factory.hpp:77] Creating layer ip3_drop3_0_split
I0521 16:02:34.397132 28425 net.cpp:106] Creating Layer ip3_drop3_0_split
I0521 16:02:34.397142 28425 net.cpp:454] ip3_drop3_0_split <- ip3
I0521 16:02:34.397156 28425 net.cpp:411] ip3_drop3_0_split -> ip3_drop3_0_split_0
I0521 16:02:34.397171 28425 net.cpp:411] ip3_drop3_0_split -> ip3_drop3_0_split_1
I0521 16:02:34.397243 28425 net.cpp:150] Setting up ip3_drop3_0_split
I0521 16:02:34.397256 28425 net.cpp:157] Top shape: 10 11 (110)
I0521 16:02:34.397269 28425 net.cpp:157] Top shape: 10 11 (110)
I0521 16:02:34.397279 28425 net.cpp:165] Memory required for data: 15788760
I0521 16:02:34.397289 28425 layer_factory.hpp:77] Creating layer accuracy
I0521 16:02:34.397308 28425 net.cpp:106] Creating Layer accuracy
I0521 16:02:34.397318 28425 net.cpp:454] accuracy <- ip3_drop3_0_split_0
I0521 16:02:34.397330 28425 net.cpp:454] accuracy <- label_data_hdf5_1_split_0
I0521 16:02:34.397344 28425 net.cpp:411] accuracy -> accuracy
…
