…
I0521 18:02:10.624518 17204 net.cpp:322] The NetState phase (0) differed from the phase (1) specified by a rule in layer data_hdf5
I0521 18:02:10.624577 17204 net.cpp:322] The NetState phase (0) differed from the phase (1) specified by a rule in layer accuracy
I0521 18:02:10.624923 17204 net.cpp:49] Initializing net from parameters: 
name: "caffe_test_127x50_x_unshifted"
state {
  phase: TRAIN
}
layer {
  name: "data_hdf5"
  type: "HDF5Data"
  top: "data"
  top: "label"
  include {
    phase: TRAIN
  }
  hdf5_data_param {
    source: "/lustre/atlas/proj-shared/hep105/caffe_titan/minosmatch_nukecczdefs_127x50_x_unshifted_me1Bmc.trainlist"
    batch_size: 10
  }
}
layer {
  name: "conv1"
  type: "Convolution"
  bottom: "data"
  top: "conv1"
  convolution_param {
    num_output: 12
    pad: 0
    stride: 1
    weight_filler {
      type: "xavier"
    }
    bias_filler {
      type: "constant"
    }
    kernel_h: 8
    kernel_w: 3
  }
}
layer {
  name: "relu1"
  type: "ReLU"
  bottom: "conv1"
  top: "conv1"
}
layer {
  name: "pool1"
  type: "Pooling"
  bottom: "conv1"
  top: "pool1"
  pooling_param {
    pool: MAX
    kernel_h: 2
    kernel_w: 1
    stride_h: 2
    stride_w: 1
  }
}
layer {
  name: "conv2"
  type: "Convolution"
  bottom: "pool1"
  top: "conv2"
  convolution_param {
    num_output: 20
    pad: 0
    stride: 1
    weight_filler {
      type: "xavier"
    }
    bias_filler {
      type: "constant"
    }
    kernel_h: 7
    kernel_w: 3
  }
}
layer {
  name: "relu2"
  type: "ReLU"
  bottom: "conv2"
  top: "conv2"
}
layer {
  name: "pool2"
  type: "Pooling"
  bottom: "conv2"
  top: "pool2"
  pooling_param {
    pool: MAX
    kernel_h: 2
    kernel_w: 1
    stride_h: 2
    stride_w: 1
  }
}
layer {
  name: "conv3"
  type: "Convolution"
  bottom: "pool2"
  top: "conv3"
  convolution_param {
    num_output: 28
    pad: 0
    stride: 1
    weight_filler {
      type: "xavier"
    }
    bias_filler {
      type: "constant"
    }
    kernel_h: 6
    kernel_w: 3
  }
}
layer {
  name: "relu3"
  type: "ReLU"
  bottom: "conv3"
  top: "conv3"
}
layer {
  name: "pool3"
  type: "Pooling"
  bottom: "conv3"
  top: "pool3"
  pooling_param {
    pool: MAX
    kernel_h: 2
    kernel_w: 1
    stride_h: 2
    stride_w: 1
  }
}
layer {
  name: "conv4"
  type: "Convolution"
  bottom: "pool3"
  top: "conv4"
  convolution_param {
    num_output: 36
    pad: 0
    stride: 1
    weight_filler {
      type: "xavier"
    }
    bias_filler {
      type: "constant"
    }
    kernel_h: 6
    kernel_w: 3
  }
}
layer {
  name: "relu4"
  type: "ReLU"
  bottom: "conv4"
  top: "conv4"
}
layer {
  name: "pool4"
  type: "Pooling"
  bottom: "conv4"
  top: "pool4"
  pooling_param {
    pool: MAX
    kernel_h: 2
    kernel_w: 1
    stride_h: 2
    stride_w: 1
  }
}
layer {
  name: "ip1"
  type: "InnerProduct"
  bottom: "pool4"
  top: "ip1"
  inner_product_param {
    num_output: 196
    weight_filler {
      type: "xavier"
    }
    bias_filler {
      type: "constant"
    }
  }
}
layer {
  name: "relu5"
  type: "ReLU"
  bottom: "ip1"
  top: "ip1"
}
layer {
  name: "drop1"
  type: "Dropout"
  bottom: "ip1"
  top: "ip1"
  dropout_param {
    dropout_ratio: 0.5
  }
}
layer {
  name: "ip2"
  type: "InnerProduct"
  bottom: "ip1"
  top: "ip2"
  inner_product_param {
    num_output: 98
    weight_filler {
      type: "xavier"
    }
    bias_filler {
      type: "constant"
    }
  }
}
layer {
  name: "relu6"
  type: "ReLU"
  bottom: "ip2"
  top: "ip2"
}
layer {
  name: "drop2"
  type: "Dropout"
  bottom: "ip2"
  top: "ip2"
  dropout_param {
    dropout_ratio: 0.5
  }
}
layer {
  name: "ip3"
  type: "InnerProduct"
  bottom: "ip2"
  top: "ip3"
  inner_product_param {
    num_output: 11
    weight_filler {
      type: "xavier"
    }
    bias_filler {
      type: "constant"
    }
  }
}
layer {
  name: "drop3"
  type: "Dropout"
  bottom: "ip3"
  top: "ip3"
  dropout_param {
    dropout_ratio: 0.5
  }
}
layer {
  name: "loss"
  type: "SoftmaxWithLoss"
  bottom: "ip3"
  bottom: "label"
  top: "loss"
}
I0521 18:02:10.625107 17204 layer_factory.hpp:77] Creating layer data_hdf5
I0521 18:02:10.625130 17204 net.cpp:106] Creating Layer data_hdf5
I0521 18:02:10.625144 17204 net.cpp:411] data_hdf5 -> data
I0521 18:02:10.625177 17204 net.cpp:411] data_hdf5 -> label
I0521 18:02:10.625211 17204 hdf5_data_layer.cpp:79] Loading list of HDF5 filenames from: /lustre/atlas/proj-shared/hep105/caffe_titan/minosmatch_nukecczdefs_127x50_x_unshifted_me1Bmc.trainlist
I0521 18:02:10.626456 17204 hdf5_data_layer.cpp:93] Number of HDF5 files: 15
I0521 18:02:10.628626 17204 hdf5.cpp:32] Datatype class: H5T_FLOAT
I0521 18:02:32.172950 17204 hdf5.cpp:35] Datatype class: H5T_INTEGER
I0521 18:02:32.178087 17204 net.cpp:150] Setting up data_hdf5
I0521 18:02:32.178128 17204 net.cpp:157] Top shape: 10 1 127 50 (63500)
I0521 18:02:32.178143 17204 net.cpp:157] Top shape: 10 (10)
I0521 18:02:32.178154 17204 net.cpp:165] Memory required for data: 254040
I0521 18:02:32.178167 17204 layer_factory.hpp:77] Creating layer conv1
I0521 18:02:32.178202 17204 net.cpp:106] Creating Layer conv1
I0521 18:02:32.178213 17204 net.cpp:454] conv1 <- data
I0521 18:02:32.178237 17204 net.cpp:411] conv1 -> conv1
I0521 18:02:33.053012 17204 net.cpp:150] Setting up conv1
I0521 18:02:33.053058 17204 net.cpp:157] Top shape: 10 12 120 48 (691200)
I0521 18:02:33.053069 17204 net.cpp:165] Memory required for data: 3018840
I0521 18:02:33.053098 17204 layer_factory.hpp:77] Creating layer relu1
I0521 18:02:33.053119 17204 net.cpp:106] Creating Layer relu1
I0521 18:02:33.053129 17204 net.cpp:454] relu1 <- conv1
I0521 18:02:33.053143 17204 net.cpp:397] relu1 -> conv1 (in-place)
I0521 18:02:33.053663 17204 net.cpp:150] Setting up relu1
I0521 18:02:33.053679 17204 net.cpp:157] Top shape: 10 12 120 48 (691200)
I0521 18:02:33.053691 17204 net.cpp:165] Memory required for data: 5783640
I0521 18:02:33.053702 17204 layer_factory.hpp:77] Creating layer pool1
I0521 18:02:33.053720 17204 net.cpp:106] Creating Layer pool1
I0521 18:02:33.053730 17204 net.cpp:454] pool1 <- conv1
I0521 18:02:33.053745 17204 net.cpp:411] pool1 -> pool1
I0521 18:02:33.053823 17204 net.cpp:150] Setting up pool1
I0521 18:02:33.053838 17204 net.cpp:157] Top shape: 10 12 60 48 (345600)
I0521 18:02:33.053848 17204 net.cpp:165] Memory required for data: 7166040
I0521 18:02:33.053858 17204 layer_factory.hpp:77] Creating layer conv2
I0521 18:02:33.053879 17204 net.cpp:106] Creating Layer conv2
I0521 18:02:33.053890 17204 net.cpp:454] conv2 <- pool1
I0521 18:02:33.053903 17204 net.cpp:411] conv2 -> conv2
I0521 18:02:33.056612 17204 net.cpp:150] Setting up conv2
I0521 18:02:33.056639 17204 net.cpp:157] Top shape: 10 20 54 46 (496800)
I0521 18:02:33.056650 17204 net.cpp:165] Memory required for data: 9153240
I0521 18:02:33.056669 17204 layer_factory.hpp:77] Creating layer relu2
I0521 18:02:33.056684 17204 net.cpp:106] Creating Layer relu2
I0521 18:02:33.056694 17204 net.cpp:454] relu2 <- conv2
I0521 18:02:33.056706 17204 net.cpp:397] relu2 -> conv2 (in-place)
I0521 18:02:33.057037 17204 net.cpp:150] Setting up relu2
I0521 18:02:33.057052 17204 net.cpp:157] Top shape: 10 20 54 46 (496800)
I0521 18:02:33.057062 17204 net.cpp:165] Memory required for data: 11140440
I0521 18:02:33.057073 17204 layer_factory.hpp:77] Creating layer pool2
I0521 18:02:33.057086 17204 net.cpp:106] Creating Layer pool2
I0521 18:02:33.057096 17204 net.cpp:454] pool2 <- conv2
I0521 18:02:33.057109 17204 net.cpp:411] pool2 -> pool2
I0521 18:02:33.057189 17204 net.cpp:150] Setting up pool2
I0521 18:02:33.057202 17204 net.cpp:157] Top shape: 10 20 27 46 (248400)
I0521 18:02:33.057210 17204 net.cpp:165] Memory required for data: 12134040
I0521 18:02:33.057220 17204 layer_factory.hpp:77] Creating layer conv3
I0521 18:02:33.057238 17204 net.cpp:106] Creating Layer conv3
I0521 18:02:33.057248 17204 net.cpp:454] conv3 <- pool2
I0521 18:02:33.057261 17204 net.cpp:411] conv3 -> conv3
I0521 18:02:33.059348 17204 net.cpp:150] Setting up conv3
I0521 18:02:33.059371 17204 net.cpp:157] Top shape: 10 28 22 44 (271040)
I0521 18:02:33.059383 17204 net.cpp:165] Memory required for data: 13218200
I0521 18:02:33.059402 17204 layer_factory.hpp:77] Creating layer relu3
I0521 18:02:33.059417 17204 net.cpp:106] Creating Layer relu3
I0521 18:02:33.059427 17204 net.cpp:454] relu3 <- conv3
I0521 18:02:33.059440 17204 net.cpp:397] relu3 -> conv3 (in-place)
I0521 18:02:33.059917 17204 net.cpp:150] Setting up relu3
I0521 18:02:33.059937 17204 net.cpp:157] Top shape: 10 28 22 44 (271040)
I0521 18:02:33.059947 17204 net.cpp:165] Memory required for data: 14302360
I0521 18:02:33.059957 17204 layer_factory.hpp:77] Creating layer pool3
I0521 18:02:33.059969 17204 net.cpp:106] Creating Layer pool3
I0521 18:02:33.059979 17204 net.cpp:454] pool3 <- conv3
I0521 18:02:33.059991 17204 net.cpp:411] pool3 -> pool3
I0521 18:02:33.060058 17204 net.cpp:150] Setting up pool3
I0521 18:02:33.060072 17204 net.cpp:157] Top shape: 10 28 11 44 (135520)
I0521 18:02:33.060082 17204 net.cpp:165] Memory required for data: 14844440
I0521 18:02:33.060091 17204 layer_factory.hpp:77] Creating layer conv4
I0521 18:02:33.060108 17204 net.cpp:106] Creating Layer conv4
I0521 18:02:33.060118 17204 net.cpp:454] conv4 <- pool3
I0521 18:02:33.060132 17204 net.cpp:411] conv4 -> conv4
I0521 18:02:33.062825 17204 net.cpp:150] Setting up conv4
I0521 18:02:33.062855 17204 net.cpp:157] Top shape: 10 36 6 42 (90720)
I0521 18:02:33.062865 17204 net.cpp:165] Memory required for data: 15207320
I0521 18:02:33.062880 17204 layer_factory.hpp:77] Creating layer relu4
I0521 18:02:33.062894 17204 net.cpp:106] Creating Layer relu4
I0521 18:02:33.062903 17204 net.cpp:454] relu4 <- conv4
I0521 18:02:33.062916 17204 net.cpp:397] relu4 -> conv4 (in-place)
I0521 18:02:33.063382 17204 net.cpp:150] Setting up relu4
I0521 18:02:33.063398 17204 net.cpp:157] Top shape: 10 36 6 42 (90720)
I0521 18:02:33.063408 17204 net.cpp:165] Memory required for data: 15570200
I0521 18:02:33.063419 17204 layer_factory.hpp:77] Creating layer pool4
I0521 18:02:33.063432 17204 net.cpp:106] Creating Layer pool4
I0521 18:02:33.063441 17204 net.cpp:454] pool4 <- conv4
I0521 18:02:33.063454 17204 net.cpp:411] pool4 -> pool4
I0521 18:02:33.063522 17204 net.cpp:150] Setting up pool4
I0521 18:02:33.063536 17204 net.cpp:157] Top shape: 10 36 3 42 (45360)
I0521 18:02:33.063545 17204 net.cpp:165] Memory required for data: 15751640
I0521 18:02:33.063555 17204 layer_factory.hpp:77] Creating layer ip1
I0521 18:02:33.063576 17204 net.cpp:106] Creating Layer ip1
I0521 18:02:33.063586 17204 net.cpp:454] ip1 <- pool4
I0521 18:02:33.063598 17204 net.cpp:411] ip1 -> ip1
I0521 18:02:33.079033 17204 net.cpp:150] Setting up ip1
I0521 18:02:33.079061 17204 net.cpp:157] Top shape: 10 196 (1960)
I0521 18:02:33.079076 17204 net.cpp:165] Memory required for data: 15759480
I0521 18:02:33.079103 17204 layer_factory.hpp:77] Creating layer relu5
I0521 18:02:33.079118 17204 net.cpp:106] Creating Layer relu5
I0521 18:02:33.079128 17204 net.cpp:454] relu5 <- ip1
I0521 18:02:33.079141 17204 net.cpp:397] relu5 -> ip1 (in-place)
I0521 18:02:33.079484 17204 net.cpp:150] Setting up relu5
I0521 18:02:33.079499 17204 net.cpp:157] Top shape: 10 196 (1960)
I0521 18:02:33.079509 17204 net.cpp:165] Memory required for data: 15767320
I0521 18:02:33.079519 17204 layer_factory.hpp:77] Creating layer drop1
I0521 18:02:33.079540 17204 net.cpp:106] Creating Layer drop1
I0521 18:02:33.079550 17204 net.cpp:454] drop1 <- ip1
I0521 18:02:33.079562 17204 net.cpp:397] drop1 -> ip1 (in-place)
I0521 18:02:33.079622 17204 net.cpp:150] Setting up drop1
I0521 18:02:33.079634 17204 net.cpp:157] Top shape: 10 196 (1960)
I0521 18:02:33.079644 17204 net.cpp:165] Memory required for data: 15775160
I0521 18:02:33.079654 17204 layer_factory.hpp:77] Creating layer ip2
I0521 18:02:33.079673 17204 net.cpp:106] Creating Layer ip2
I0521 18:02:33.079682 17204 net.cpp:454] ip2 <- ip1
I0521 18:02:33.079696 17204 net.cpp:411] ip2 -> ip2
I0521 18:02:33.080166 17204 net.cpp:150] Setting up ip2
I0521 18:02:33.080179 17204 net.cpp:157] Top shape: 10 98 (980)
I0521 18:02:33.080189 17204 net.cpp:165] Memory required for data: 15779080
I0521 18:02:33.080205 17204 layer_factory.hpp:77] Creating layer relu6
I0521 18:02:33.080217 17204 net.cpp:106] Creating Layer relu6
I0521 18:02:33.080227 17204 net.cpp:454] relu6 <- ip2
I0521 18:02:33.080240 17204 net.cpp:397] relu6 -> ip2 (in-place)
I0521 18:02:33.080756 17204 net.cpp:150] Setting up relu6
I0521 18:02:33.080773 17204 net.cpp:157] Top shape: 10 98 (980)
I0521 18:02:33.080782 17204 net.cpp:165] Memory required for data: 15783000
I0521 18:02:33.080793 17204 layer_factory.hpp:77] Creating layer drop2
I0521 18:02:33.080806 17204 net.cpp:106] Creating Layer drop2
I0521 18:02:33.080816 17204 net.cpp:454] drop2 <- ip2
I0521 18:02:33.080828 17204 net.cpp:397] drop2 -> ip2 (in-place)
I0521 18:02:33.080870 17204 net.cpp:150] Setting up drop2
I0521 18:02:33.080883 17204 net.cpp:157] Top shape: 10 98 (980)
I0521 18:02:33.080894 17204 net.cpp:165] Memory required for data: 15786920
I0521 18:02:33.080904 17204 layer_factory.hpp:77] Creating layer ip3
I0521 18:02:33.080917 17204 net.cpp:106] Creating Layer ip3
I0521 18:02:33.080927 17204 net.cpp:454] ip3 <- ip2
I0521 18:02:33.080940 17204 net.cpp:411] ip3 -> ip3
I0521 18:02:33.081146 17204 net.cpp:150] Setting up ip3
I0521 18:02:33.081159 17204 net.cpp:157] Top shape: 10 11 (110)
I0521 18:02:33.081169 17204 net.cpp:165] Memory required for data: 15787360
I0521 18:02:33.081184 17204 layer_factory.hpp:77] Creating layer drop3
I0521 18:02:33.081197 17204 net.cpp:106] Creating Layer drop3
I0521 18:02:33.081207 17204 net.cpp:454] drop3 <- ip3
I0521 18:02:33.081219 17204 net.cpp:397] drop3 -> ip3 (in-place)
I0521 18:02:33.081257 17204 net.cpp:150] Setting up drop3
I0521 18:02:33.081270 17204 net.cpp:157] Top shape: 10 11 (110)
I0521 18:02:33.081279 17204 net.cpp:165] Memory required for data: 15787800
I0521 18:02:33.081290 17204 layer_factory.hpp:77] Creating layer loss
I0521 18:02:33.081308 17204 net.cpp:106] Creating Layer loss
I0521 18:02:33.081318 17204 net.cpp:454] loss <- ip3
I0521 18:02:33.081329 17204 net.cpp:454] loss <- label
I0521 18:02:33.081341 17204 net.cpp:411] loss -> loss
I0521 18:02:33.081357 17204 layer_factory.hpp:77] Creating layer loss
…
I0521 18:02:33.083956 17204 solver.cpp:181] Creating test net (#0) specified by net file: /lustre/atlas/proj-shared/hep105/caffe_titan/caffe_workflow/logs_bslr/bs_10_lr_0.0045_2016-05-20T15.48.52.465324.prototxt
I0521 18:02:33.084028 17204 net.cpp:322] The NetState phase (1) differed from the phase (0) specified by a rule in layer data_hdf5
I0521 18:02:33.084379 17204 net.cpp:49] Initializing net from parameters: 
name: "caffe_test_127x50_x_unshifted"
state {
  phase: TEST
}
layer {
  name: "data_hdf5"
  type: "HDF5Data"
  top: "data"
  top: "label"
  include {
    phase: TEST
  }
  hdf5_data_param {
    source: "/lustre/atlas/proj-shared/hep105/caffe_titan/minosmatch_nukecczdefs_127x50_x_unshifted_me1Bmc.testlist"
    batch_size: 10
  }
}
layer {
  name: "conv1"
  type: "Convolution"
  bottom: "data"
  top: "conv1"
  convolution_param {
    num_output: 12
    pad: 0
    stride: 1
    weight_filler {
      type: "xavier"
    }
    bias_filler {
      type: "constant"
    }
    kernel_h: 8
    kernel_w: 3
  }
}
layer {
  name: "relu1"
  type: "ReLU"
  bottom: "conv1"
  top: "conv1"
}
layer {
  name: "pool1"
  type: "Pooling"
  bottom: "conv1"
  top: "pool1"
  pooling_param {
    pool: MAX
    kernel_h: 2
    kernel_w: 1
    stride_h: 2
    stride_w: 1
  }
}
layer {
  name: "conv2"
  type: "Convolution"
  bottom: "pool1"
  top: "conv2"
  convolution_param {
    num_output: 20
    pad: 0
    stride: 1
    weight_filler {
      type: "xavier"
    }
    bias_filler {
      type: "constant"
    }
    kernel_h: 7
    kernel_w: 3
  }
}
layer {
  name: "relu2"
  type: "ReLU"
  bottom: "conv2"
  top: "conv2"
}
layer {
  name: "pool2"
  type: "Pooling"
  bottom: "conv2"
  top: "pool2"
  pooling_param {
    pool: MAX
    kernel_h: 2
    kernel_w: 1
    stride_h: 2
    stride_w: 1
  }
}
layer {
  name: "conv3"
  type: "Convolution"
  bottom: "pool2"
  top: "conv3"
  convolution_param {
    num_output: 28
    pad: 0
    stride: 1
    weight_filler {
      type: "xavier"
    }
    bias_filler {
      type: "constant"
    }
    kernel_h: 6
    kernel_w: 3
  }
}
layer {
  name: "relu3"
  type: "ReLU"
  bottom: "conv3"
  top: "conv3"
}
layer {
  name: "pool3"
  type: "Pooling"
  bottom: "conv3"
  top: "pool3"
  pooling_param {
    pool: MAX
    kernel_h: 2
    kernel_w: 1
    stride_h: 2
    stride_w: 1
  }
}
layer {
  name: "conv4"
  type: "Convolution"
  bottom: "pool3"
  top: "conv4"
  convolution_param {
    num_output: 36
    pad: 0
    stride: 1
    weight_filler {
      type: "xavier"
    }
    bias_filler {
      type: "constant"
    }
    kernel_h: 6
    kernel_w: 3
  }
}
layer {
  name: "relu4"
  type: "ReLU"
  bottom: "conv4"
  top: "conv4"
}
layer {
  name: "pool4"
  type: "Pooling"
  bottom: "conv4"
  top: "pool4"
  pooling_param {
    pool: MAX
    kernel_h: 2
    kernel_w: 1
    stride_h: 2
    stride_w: 1
  }
}
layer {
  name: "ip1"
  type: "InnerProduct"
  bottom: "pool4"
  top: "ip1"
  inner_product_param {
    num_output: 196
    weight_filler {
      type: "xavier"
    }
    bias_filler {
      type: "constant"
    }
  }
}
layer {
  name: "relu5"
  type: "ReLU"
  bottom: "ip1"
  top: "ip1"
}
layer {
  name: "drop1"
  type: "Dropout"
  bottom: "ip1"
  top: "ip1"
  dropout_param {
    dropout_ratio: 0.5
  }
}
layer {
  name: "ip2"
  type: "InnerProduct"
  bottom: "ip1"
  top: "ip2"
  inner_product_param {
    num_output: 98
    weight_filler {
      type: "xavier"
    }
    bias_filler {
      type: "constant"
    }
  }
}
layer {
  name: "relu6"
  type: "ReLU"
  bottom: "ip2"
  top: "ip2"
}
layer {
  name: "drop2"
  type: "Dropout"
  bottom: "ip2"
  top: "ip2"
  dropout_param {
    dropout_ratio: 0.5
  }
}
layer {
  name: "ip3"
  type: "InnerProduct"
  bottom: "ip2"
  top: "ip3"
  inner_product_param {
    num_output: 11
    weight_filler {
      type: "xavier"
    }
    bias_filler {
      type: "constant"
    }
  }
}
layer {
  name: "drop3"
  type: "Dropout"
  bottom: "ip3"
  top: "ip3"
  dropout_param {
    dropout_ratio: 0.5
  }
}
layer {
  name: "accuracy"
  type: "Accuracy"
  bottom: "ip3"
  bottom: "label"
  top: "accuracy"
  include {
    phase: TEST
  }
}
layer {
  name: "loss"
  type: "SoftmaxWithLoss"
  bottom: "ip3"
  bottom: "label"
  top: "loss"
}
I0521 18:02:33.084569 17204 layer_factory.hpp:77] Creating layer data_hdf5
I0521 18:02:33.084585 17204 net.cpp:106] Creating Layer data_hdf5
I0521 18:02:33.084597 17204 net.cpp:411] data_hdf5 -> data
I0521 18:02:33.084614 17204 net.cpp:411] data_hdf5 -> label
I0521 18:02:33.084630 17204 hdf5_data_layer.cpp:79] Loading list of HDF5 filenames from: /lustre/atlas/proj-shared/hep105/caffe_titan/minosmatch_nukecczdefs_127x50_x_unshifted_me1Bmc.testlist
I0521 18:02:33.085907 17204 hdf5_data_layer.cpp:93] Number of HDF5 files: 3
I0521 18:02:54.351536 17204 net.cpp:150] Setting up data_hdf5
I0521 18:02:54.351711 17204 net.cpp:157] Top shape: 10 1 127 50 (63500)
I0521 18:02:54.351725 17204 net.cpp:157] Top shape: 10 (10)
I0521 18:02:54.351735 17204 net.cpp:165] Memory required for data: 254040
I0521 18:02:54.351749 17204 layer_factory.hpp:77] Creating layer label_data_hdf5_1_split
I0521 18:02:54.351778 17204 net.cpp:106] Creating Layer label_data_hdf5_1_split
I0521 18:02:54.351789 17204 net.cpp:454] label_data_hdf5_1_split <- label
I0521 18:02:54.351804 17204 net.cpp:411] label_data_hdf5_1_split -> label_data_hdf5_1_split_0
I0521 18:02:54.351825 17204 net.cpp:411] label_data_hdf5_1_split -> label_data_hdf5_1_split_1
I0521 18:02:54.351898 17204 net.cpp:150] Setting up label_data_hdf5_1_split
I0521 18:02:54.351912 17204 net.cpp:157] Top shape: 10 (10)
I0521 18:02:54.351924 17204 net.cpp:157] Top shape: 10 (10)
I0521 18:02:54.351933 17204 net.cpp:165] Memory required for data: 254120
I0521 18:02:54.351943 17204 layer_factory.hpp:77] Creating layer conv1
I0521 18:02:54.351966 17204 net.cpp:106] Creating Layer conv1
I0521 18:02:54.351977 17204 net.cpp:454] conv1 <- data
I0521 18:02:54.351990 17204 net.cpp:411] conv1 -> conv1
I0521 18:02:54.353919 17204 net.cpp:150] Setting up conv1
I0521 18:02:54.353937 17204 net.cpp:157] Top shape: 10 12 120 48 (691200)
I0521 18:02:54.353947 17204 net.cpp:165] Memory required for data: 3018920
I0521 18:02:54.353967 17204 layer_factory.hpp:77] Creating layer relu1
I0521 18:02:54.353982 17204 net.cpp:106] Creating Layer relu1
I0521 18:02:54.353992 17204 net.cpp:454] relu1 <- conv1
I0521 18:02:54.354006 17204 net.cpp:397] relu1 -> conv1 (in-place)
I0521 18:02:54.354513 17204 net.cpp:150] Setting up relu1
I0521 18:02:54.354529 17204 net.cpp:157] Top shape: 10 12 120 48 (691200)
I0521 18:02:54.354539 17204 net.cpp:165] Memory required for data: 5783720
I0521 18:02:54.354549 17204 layer_factory.hpp:77] Creating layer pool1
I0521 18:02:54.354565 17204 net.cpp:106] Creating Layer pool1
I0521 18:02:54.354576 17204 net.cpp:454] pool1 <- conv1
I0521 18:02:54.354589 17204 net.cpp:411] pool1 -> pool1
I0521 18:02:54.354665 17204 net.cpp:150] Setting up pool1
I0521 18:02:54.354677 17204 net.cpp:157] Top shape: 10 12 60 48 (345600)
I0521 18:02:54.354687 17204 net.cpp:165] Memory required for data: 7166120
I0521 18:02:54.354697 17204 layer_factory.hpp:77] Creating layer conv2
I0521 18:02:54.354714 17204 net.cpp:106] Creating Layer conv2
I0521 18:02:54.354725 17204 net.cpp:454] conv2 <- pool1
I0521 18:02:54.354738 17204 net.cpp:411] conv2 -> conv2
I0521 18:02:54.356653 17204 net.cpp:150] Setting up conv2
I0521 18:02:54.356675 17204 net.cpp:157] Top shape: 10 20 54 46 (496800)
I0521 18:02:54.356688 17204 net.cpp:165] Memory required for data: 9153320
I0521 18:02:54.356705 17204 layer_factory.hpp:77] Creating layer relu2
I0521 18:02:54.356719 17204 net.cpp:106] Creating Layer relu2
I0521 18:02:54.356729 17204 net.cpp:454] relu2 <- conv2
I0521 18:02:54.356741 17204 net.cpp:397] relu2 -> conv2 (in-place)
I0521 18:02:54.357077 17204 net.cpp:150] Setting up relu2
I0521 18:02:54.357091 17204 net.cpp:157] Top shape: 10 20 54 46 (496800)
I0521 18:02:54.357101 17204 net.cpp:165] Memory required for data: 11140520
I0521 18:02:54.357111 17204 layer_factory.hpp:77] Creating layer pool2
I0521 18:02:54.357125 17204 net.cpp:106] Creating Layer pool2
I0521 18:02:54.357134 17204 net.cpp:454] pool2 <- conv2
I0521 18:02:54.357146 17204 net.cpp:411] pool2 -> pool2
I0521 18:02:54.357219 17204 net.cpp:150] Setting up pool2
I0521 18:02:54.357233 17204 net.cpp:157] Top shape: 10 20 27 46 (248400)
I0521 18:02:54.357242 17204 net.cpp:165] Memory required for data: 12134120
I0521 18:02:54.357252 17204 layer_factory.hpp:77] Creating layer conv3
I0521 18:02:54.357271 17204 net.cpp:106] Creating Layer conv3
I0521 18:02:54.357282 17204 net.cpp:454] conv3 <- pool2
I0521 18:02:54.357296 17204 net.cpp:411] conv3 -> conv3
I0521 18:02:54.359298 17204 net.cpp:150] Setting up conv3
I0521 18:02:54.359321 17204 net.cpp:157] Top shape: 10 28 22 44 (271040)
I0521 18:02:54.359333 17204 net.cpp:165] Memory required for data: 13218280
I0521 18:02:54.359351 17204 layer_factory.hpp:77] Creating layer relu3
I0521 18:02:54.359377 17204 net.cpp:106] Creating Layer relu3
I0521 18:02:54.359388 17204 net.cpp:454] relu3 <- conv3
I0521 18:02:54.359402 17204 net.cpp:397] relu3 -> conv3 (in-place)
I0521 18:02:54.359880 17204 net.cpp:150] Setting up relu3
I0521 18:02:54.359896 17204 net.cpp:157] Top shape: 10 28 22 44 (271040)
I0521 18:02:54.359906 17204 net.cpp:165] Memory required for data: 14302440
I0521 18:02:54.359916 17204 layer_factory.hpp:77] Creating layer pool3
I0521 18:02:54.359930 17204 net.cpp:106] Creating Layer pool3
I0521 18:02:54.359941 17204 net.cpp:454] pool3 <- conv3
I0521 18:02:54.359953 17204 net.cpp:411] pool3 -> pool3
I0521 18:02:54.360025 17204 net.cpp:150] Setting up pool3
I0521 18:02:54.360038 17204 net.cpp:157] Top shape: 10 28 11 44 (135520)
I0521 18:02:54.360049 17204 net.cpp:165] Memory required for data: 14844520
I0521 18:02:54.360057 17204 layer_factory.hpp:77] Creating layer conv4
I0521 18:02:54.360075 17204 net.cpp:106] Creating Layer conv4
I0521 18:02:54.360085 17204 net.cpp:454] conv4 <- pool3
I0521 18:02:54.360100 17204 net.cpp:411] conv4 -> conv4
I0521 18:02:54.362160 17204 net.cpp:150] Setting up conv4
I0521 18:02:54.362182 17204 net.cpp:157] Top shape: 10 36 6 42 (90720)
I0521 18:02:54.362195 17204 net.cpp:165] Memory required for data: 15207400
I0521 18:02:54.362210 17204 layer_factory.hpp:77] Creating layer relu4
I0521 18:02:54.362223 17204 net.cpp:106] Creating Layer relu4
I0521 18:02:54.362233 17204 net.cpp:454] relu4 <- conv4
I0521 18:02:54.362246 17204 net.cpp:397] relu4 -> conv4 (in-place)
I0521 18:02:54.362711 17204 net.cpp:150] Setting up relu4
I0521 18:02:54.362727 17204 net.cpp:157] Top shape: 10 36 6 42 (90720)
I0521 18:02:54.362737 17204 net.cpp:165] Memory required for data: 15570280
I0521 18:02:54.362747 17204 layer_factory.hpp:77] Creating layer pool4
I0521 18:02:54.362761 17204 net.cpp:106] Creating Layer pool4
I0521 18:02:54.362771 17204 net.cpp:454] pool4 <- conv4
I0521 18:02:54.362784 17204 net.cpp:411] pool4 -> pool4
I0521 18:02:54.362855 17204 net.cpp:150] Setting up pool4
I0521 18:02:54.362869 17204 net.cpp:157] Top shape: 10 36 3 42 (45360)
I0521 18:02:54.362879 17204 net.cpp:165] Memory required for data: 15751720
I0521 18:02:54.362886 17204 layer_factory.hpp:77] Creating layer ip1
I0521 18:02:54.362902 17204 net.cpp:106] Creating Layer ip1
I0521 18:02:54.362912 17204 net.cpp:454] ip1 <- pool4
I0521 18:02:54.362926 17204 net.cpp:411] ip1 -> ip1
I0521 18:02:54.378428 17204 net.cpp:150] Setting up ip1
I0521 18:02:54.378458 17204 net.cpp:157] Top shape: 10 196 (1960)
I0521 18:02:54.378468 17204 net.cpp:165] Memory required for data: 15759560
I0521 18:02:54.378490 17204 layer_factory.hpp:77] Creating layer relu5
I0521 18:02:54.378505 17204 net.cpp:106] Creating Layer relu5
I0521 18:02:54.378515 17204 net.cpp:454] relu5 <- ip1
I0521 18:02:54.378528 17204 net.cpp:397] relu5 -> ip1 (in-place)
I0521 18:02:54.378878 17204 net.cpp:150] Setting up relu5
I0521 18:02:54.378892 17204 net.cpp:157] Top shape: 10 196 (1960)
I0521 18:02:54.378903 17204 net.cpp:165] Memory required for data: 15767400
I0521 18:02:54.378913 17204 layer_factory.hpp:77] Creating layer drop1
I0521 18:02:54.378931 17204 net.cpp:106] Creating Layer drop1
I0521 18:02:54.378942 17204 net.cpp:454] drop1 <- ip1
I0521 18:02:54.378954 17204 net.cpp:397] drop1 -> ip1 (in-place)
I0521 18:02:54.379000 17204 net.cpp:150] Setting up drop1
I0521 18:02:54.379014 17204 net.cpp:157] Top shape: 10 196 (1960)
I0521 18:02:54.379024 17204 net.cpp:165] Memory required for data: 15775240
I0521 18:02:54.379032 17204 layer_factory.hpp:77] Creating layer ip2
I0521 18:02:54.379047 17204 net.cpp:106] Creating Layer ip2
I0521 18:02:54.379056 17204 net.cpp:454] ip2 <- ip1
I0521 18:02:54.379070 17204 net.cpp:411] ip2 -> ip2
I0521 18:02:54.379549 17204 net.cpp:150] Setting up ip2
I0521 18:02:54.379562 17204 net.cpp:157] Top shape: 10 98 (980)
I0521 18:02:54.379572 17204 net.cpp:165] Memory required for data: 15779160
I0521 18:02:54.379588 17204 layer_factory.hpp:77] Creating layer relu6
I0521 18:02:54.379613 17204 net.cpp:106] Creating Layer relu6
I0521 18:02:54.379623 17204 net.cpp:454] relu6 <- ip2
I0521 18:02:54.379637 17204 net.cpp:397] relu6 -> ip2 (in-place)
I0521 18:02:54.380182 17204 net.cpp:150] Setting up relu6
I0521 18:02:54.380203 17204 net.cpp:157] Top shape: 10 98 (980)
I0521 18:02:54.380213 17204 net.cpp:165] Memory required for data: 15783080
I0521 18:02:54.380223 17204 layer_factory.hpp:77] Creating layer drop2
I0521 18:02:54.380237 17204 net.cpp:106] Creating Layer drop2
I0521 18:02:54.380249 17204 net.cpp:454] drop2 <- ip2
I0521 18:02:54.380261 17204 net.cpp:397] drop2 -> ip2 (in-place)
I0521 18:02:54.380306 17204 net.cpp:150] Setting up drop2
I0521 18:02:54.380318 17204 net.cpp:157] Top shape: 10 98 (980)
I0521 18:02:54.380329 17204 net.cpp:165] Memory required for data: 15787000
I0521 18:02:54.380339 17204 layer_factory.hpp:77] Creating layer ip3
I0521 18:02:54.380353 17204 net.cpp:106] Creating Layer ip3
I0521 18:02:54.380364 17204 net.cpp:454] ip3 <- ip2
I0521 18:02:54.380378 17204 net.cpp:411] ip3 -> ip3
I0521 18:02:54.380599 17204 net.cpp:150] Setting up ip3
I0521 18:02:54.380611 17204 net.cpp:157] Top shape: 10 11 (110)
I0521 18:02:54.380621 17204 net.cpp:165] Memory required for data: 15787440
I0521 18:02:54.380636 17204 layer_factory.hpp:77] Creating layer drop3
I0521 18:02:54.380650 17204 net.cpp:106] Creating Layer drop3
I0521 18:02:54.380659 17204 net.cpp:454] drop3 <- ip3
I0521 18:02:54.380672 17204 net.cpp:397] drop3 -> ip3 (in-place)
I0521 18:02:54.380713 17204 net.cpp:150] Setting up drop3
I0521 18:02:54.380727 17204 net.cpp:157] Top shape: 10 11 (110)
I0521 18:02:54.380736 17204 net.cpp:165] Memory required for data: 15787880
I0521 18:02:54.380745 17204 layer_factory.hpp:77] Creating layer ip3_drop3_0_split
I0521 18:02:54.380759 17204 net.cpp:106] Creating Layer ip3_drop3_0_split
I0521 18:02:54.380769 17204 net.cpp:454] ip3_drop3_0_split <- ip3
I0521 18:02:54.380782 17204 net.cpp:411] ip3_drop3_0_split -> ip3_drop3_0_split_0
I0521 18:02:54.380796 17204 net.cpp:411] ip3_drop3_0_split -> ip3_drop3_0_split_1
I0521 18:02:54.380870 17204 net.cpp:150] Setting up ip3_drop3_0_split
I0521 18:02:54.380883 17204 net.cpp:157] Top shape: 10 11 (110)
I0521 18:02:54.380895 17204 net.cpp:157] Top shape: 10 11 (110)
I0521 18:02:54.380905 17204 net.cpp:165] Memory required for data: 15788760
I0521 18:02:54.380915 17204 layer_factory.hpp:77] Creating layer accuracy
I0521 18:02:54.380936 17204 net.cpp:106] Creating Layer accuracy
I0521 18:02:54.380946 17204 net.cpp:454] accuracy <- ip3_drop3_0_split_0
I0521 18:02:54.380957 17204 net.cpp:454] accuracy <- label_data_hdf5_1_split_0
I0521 18:02:54.380971 17204 net.cpp:411] accuracy -> accuracy
…
