…
I0521 11:37:54.903070 20157 net.cpp:322] The NetState phase (0) differed from the phase (1) specified by a rule in layer data_hdf5
I0521 11:37:54.903129 20157 net.cpp:322] The NetState phase (0) differed from the phase (1) specified by a rule in layer accuracy
I0521 11:37:54.903478 20157 net.cpp:49] Initializing net from parameters: 
name: "caffe_test_127x50_x_unshifted"
state {
  phase: TRAIN
}
layer {
  name: "data_hdf5"
  type: "HDF5Data"
  top: "data"
  top: "label"
  include {
    phase: TRAIN
  }
  hdf5_data_param {
    source: "/lustre/atlas/proj-shared/hep105/caffe_titan/minosmatch_nukecczdefs_127x50_x_unshifted_me1Bmc.trainlist"
    batch_size: 10
  }
}
layer {
  name: "conv1"
  type: "Convolution"
  bottom: "data"
  top: "conv1"
  convolution_param {
    num_output: 12
    pad: 0
    stride: 1
    weight_filler {
      type: "xavier"
    }
    bias_filler {
      type: "constant"
    }
    kernel_h: 8
    kernel_w: 3
  }
}
layer {
  name: "relu1"
  type: "ReLU"
  bottom: "conv1"
  top: "conv1"
}
layer {
  name: "pool1"
  type: "Pooling"
  bottom: "conv1"
  top: "pool1"
  pooling_param {
    pool: MAX
    kernel_h: 2
    kernel_w: 1
    stride_h: 2
    stride_w: 1
  }
}
layer {
  name: "conv2"
  type: "Convolution"
  bottom: "pool1"
  top: "conv2"
  convolution_param {
    num_output: 20
    pad: 0
    stride: 1
    weight_filler {
      type: "xavier"
    }
    bias_filler {
      type: "constant"
    }
    kernel_h: 7
    kernel_w: 3
  }
}
layer {
  name: "relu2"
  type: "ReLU"
  bottom: "conv2"
  top: "conv2"
}
layer {
  name: "pool2"
  type: "Pooling"
  bottom: "conv2"
  top: "pool2"
  pooling_param {
    pool: MAX
    kernel_h: 2
    kernel_w: 1
    stride_h: 2
    stride_w: 1
  }
}
layer {
  name: "conv3"
  type: "Convolution"
  bottom: "pool2"
  top: "conv3"
  convolution_param {
    num_output: 28
    pad: 0
    stride: 1
    weight_filler {
      type: "xavier"
    }
    bias_filler {
      type: "constant"
    }
    kernel_h: 6
    kernel_w: 3
  }
}
layer {
  name: "relu3"
  type: "ReLU"
  bottom: "conv3"
  top: "conv3"
}
layer {
  name: "pool3"
  type: "Pooling"
  bottom: "conv3"
  top: "pool3"
  pooling_param {
    pool: MAX
    kernel_h: 2
    kernel_w: 1
    stride_h: 2
    stride_w: 1
  }
}
layer {
  name: "conv4"
  type: "Convolution"
  bottom: "pool3"
  top: "conv4"
  convolution_param {
    num_output: 36
    pad: 0
    stride: 1
    weight_filler {
      type: "xavier"
    }
    bias_filler {
      type: "constant"
    }
    kernel_h: 6
    kernel_w: 3
  }
}
layer {
  name: "relu4"
  type: "ReLU"
  bottom: "conv4"
  top: "conv4"
}
layer {
  name: "pool4"
  type: "Pooling"
  bottom: "conv4"
  top: "pool4"
  pooling_param {
    pool: MAX
    kernel_h: 2
    kernel_w: 1
    stride_h: 2
    stride_w: 1
  }
}
layer {
  name: "ip1"
  type: "InnerProduct"
  bottom: "pool4"
  top: "ip1"
  inner_product_param {
    num_output: 196
    weight_filler {
      type: "xavier"
    }
    bias_filler {
      type: "constant"
    }
  }
}
layer {
  name: "relu5"
  type: "ReLU"
  bottom: "ip1"
  top: "ip1"
}
layer {
  name: "drop1"
  type: "Dropout"
  bottom: "ip1"
  top: "ip1"
  dropout_param {
    dropout_ratio: 0.5
  }
}
layer {
  name: "ip2"
  type: "InnerProduct"
  bottom: "ip1"
  top: "ip2"
  inner_product_param {
    num_output: 98
    weight_filler {
      type: "xavier"
    }
    bias_filler {
      type: "constant"
    }
  }
}
layer {
  name: "relu6"
  type: "ReLU"
  bottom: "ip2"
  top: "ip2"
}
layer {
  name: "drop2"
  type: "Dropout"
  bottom: "ip2"
  top: "ip2"
  dropout_param {
    dropout_ratio: 0.5
  }
}
layer {
  name: "ip3"
  type: "InnerProduct"
  bottom: "ip2"
  top: "ip3"
  inner_product_param {
    num_output: 11
    weight_filler {
      type: "xavier"
    }
    bias_filler {
      type: "constant"
    }
  }
}
layer {
  name: "drop3"
  type: "Dropout"
  bottom: "ip3"
  top: "ip3"
  dropout_param {
    dropout_ratio: 0.5
  }
}
layer {
  name: "loss"
  type: "SoftmaxWithLoss"
  bottom: "ip3"
  bottom: "label"
  top: "loss"
}
I0521 11:37:54.903661 20157 layer_factory.hpp:77] Creating layer data_hdf5
I0521 11:37:54.903686 20157 net.cpp:106] Creating Layer data_hdf5
I0521 11:37:54.903700 20157 net.cpp:411] data_hdf5 -> data
I0521 11:37:54.903733 20157 net.cpp:411] data_hdf5 -> label
I0521 11:37:54.903766 20157 hdf5_data_layer.cpp:79] Loading list of HDF5 filenames from: /lustre/atlas/proj-shared/hep105/caffe_titan/minosmatch_nukecczdefs_127x50_x_unshifted_me1Bmc.trainlist
I0521 11:37:54.905098 20157 hdf5_data_layer.cpp:93] Number of HDF5 files: 15
I0521 11:37:54.907354 20157 hdf5.cpp:32] Datatype class: H5T_FLOAT
I0521 11:38:16.470098 20157 hdf5.cpp:35] Datatype class: H5T_INTEGER
I0521 11:38:16.475314 20157 net.cpp:150] Setting up data_hdf5
I0521 11:38:16.475354 20157 net.cpp:157] Top shape: 10 1 127 50 (63500)
I0521 11:38:16.475368 20157 net.cpp:157] Top shape: 10 (10)
I0521 11:38:16.475381 20157 net.cpp:165] Memory required for data: 254040
I0521 11:38:16.475394 20157 layer_factory.hpp:77] Creating layer conv1
I0521 11:38:16.475430 20157 net.cpp:106] Creating Layer conv1
I0521 11:38:16.475440 20157 net.cpp:454] conv1 <- data
I0521 11:38:16.475462 20157 net.cpp:411] conv1 -> conv1
I0521 11:38:16.841440 20157 net.cpp:150] Setting up conv1
I0521 11:38:16.841486 20157 net.cpp:157] Top shape: 10 12 120 48 (691200)
I0521 11:38:16.841497 20157 net.cpp:165] Memory required for data: 3018840
I0521 11:38:16.841528 20157 layer_factory.hpp:77] Creating layer relu1
I0521 11:38:16.841548 20157 net.cpp:106] Creating Layer relu1
I0521 11:38:16.841560 20157 net.cpp:454] relu1 <- conv1
I0521 11:38:16.841573 20157 net.cpp:397] relu1 -> conv1 (in-place)
I0521 11:38:16.842097 20157 net.cpp:150] Setting up relu1
I0521 11:38:16.842114 20157 net.cpp:157] Top shape: 10 12 120 48 (691200)
I0521 11:38:16.842125 20157 net.cpp:165] Memory required for data: 5783640
I0521 11:38:16.842135 20157 layer_factory.hpp:77] Creating layer pool1
I0521 11:38:16.842152 20157 net.cpp:106] Creating Layer pool1
I0521 11:38:16.842162 20157 net.cpp:454] pool1 <- conv1
I0521 11:38:16.842176 20157 net.cpp:411] pool1 -> pool1
I0521 11:38:16.842255 20157 net.cpp:150] Setting up pool1
I0521 11:38:16.842268 20157 net.cpp:157] Top shape: 10 12 60 48 (345600)
I0521 11:38:16.842278 20157 net.cpp:165] Memory required for data: 7166040
I0521 11:38:16.842286 20157 layer_factory.hpp:77] Creating layer conv2
I0521 11:38:16.842308 20157 net.cpp:106] Creating Layer conv2
I0521 11:38:16.842319 20157 net.cpp:454] conv2 <- pool1
I0521 11:38:16.842331 20157 net.cpp:411] conv2 -> conv2
I0521 11:38:16.845021 20157 net.cpp:150] Setting up conv2
I0521 11:38:16.845047 20157 net.cpp:157] Top shape: 10 20 54 46 (496800)
I0521 11:38:16.845058 20157 net.cpp:165] Memory required for data: 9153240
I0521 11:38:16.845077 20157 layer_factory.hpp:77] Creating layer relu2
I0521 11:38:16.845093 20157 net.cpp:106] Creating Layer relu2
I0521 11:38:16.845103 20157 net.cpp:454] relu2 <- conv2
I0521 11:38:16.845115 20157 net.cpp:397] relu2 -> conv2 (in-place)
I0521 11:38:16.845448 20157 net.cpp:150] Setting up relu2
I0521 11:38:16.845463 20157 net.cpp:157] Top shape: 10 20 54 46 (496800)
I0521 11:38:16.845473 20157 net.cpp:165] Memory required for data: 11140440
I0521 11:38:16.845482 20157 layer_factory.hpp:77] Creating layer pool2
I0521 11:38:16.845495 20157 net.cpp:106] Creating Layer pool2
I0521 11:38:16.845505 20157 net.cpp:454] pool2 <- conv2
I0521 11:38:16.845518 20157 net.cpp:411] pool2 -> pool2
I0521 11:38:16.845598 20157 net.cpp:150] Setting up pool2
I0521 11:38:16.845612 20157 net.cpp:157] Top shape: 10 20 27 46 (248400)
I0521 11:38:16.845621 20157 net.cpp:165] Memory required for data: 12134040
I0521 11:38:16.845628 20157 layer_factory.hpp:77] Creating layer conv3
I0521 11:38:16.845648 20157 net.cpp:106] Creating Layer conv3
I0521 11:38:16.845657 20157 net.cpp:454] conv3 <- pool2
I0521 11:38:16.845670 20157 net.cpp:411] conv3 -> conv3
I0521 11:38:16.847769 20157 net.cpp:150] Setting up conv3
I0521 11:38:16.847792 20157 net.cpp:157] Top shape: 10 28 22 44 (271040)
I0521 11:38:16.847805 20157 net.cpp:165] Memory required for data: 13218200
I0521 11:38:16.847834 20157 layer_factory.hpp:77] Creating layer relu3
I0521 11:38:16.847851 20157 net.cpp:106] Creating Layer relu3
I0521 11:38:16.847861 20157 net.cpp:454] relu3 <- conv3
I0521 11:38:16.847874 20157 net.cpp:397] relu3 -> conv3 (in-place)
I0521 11:38:16.848340 20157 net.cpp:150] Setting up relu3
I0521 11:38:16.848359 20157 net.cpp:157] Top shape: 10 28 22 44 (271040)
I0521 11:38:16.848371 20157 net.cpp:165] Memory required for data: 14302360
I0521 11:38:16.848381 20157 layer_factory.hpp:77] Creating layer pool3
I0521 11:38:16.848393 20157 net.cpp:106] Creating Layer pool3
I0521 11:38:16.848402 20157 net.cpp:454] pool3 <- conv3
I0521 11:38:16.848415 20157 net.cpp:411] pool3 -> pool3
I0521 11:38:16.848484 20157 net.cpp:150] Setting up pool3
I0521 11:38:16.848496 20157 net.cpp:157] Top shape: 10 28 11 44 (135520)
I0521 11:38:16.848506 20157 net.cpp:165] Memory required for data: 14844440
I0521 11:38:16.848515 20157 layer_factory.hpp:77] Creating layer conv4
I0521 11:38:16.848532 20157 net.cpp:106] Creating Layer conv4
I0521 11:38:16.848542 20157 net.cpp:454] conv4 <- pool3
I0521 11:38:16.848556 20157 net.cpp:411] conv4 -> conv4
I0521 11:38:16.851261 20157 net.cpp:150] Setting up conv4
I0521 11:38:16.851289 20157 net.cpp:157] Top shape: 10 36 6 42 (90720)
I0521 11:38:16.851300 20157 net.cpp:165] Memory required for data: 15207320
I0521 11:38:16.851315 20157 layer_factory.hpp:77] Creating layer relu4
I0521 11:38:16.851330 20157 net.cpp:106] Creating Layer relu4
I0521 11:38:16.851339 20157 net.cpp:454] relu4 <- conv4
I0521 11:38:16.851351 20157 net.cpp:397] relu4 -> conv4 (in-place)
I0521 11:38:16.851826 20157 net.cpp:150] Setting up relu4
I0521 11:38:16.851842 20157 net.cpp:157] Top shape: 10 36 6 42 (90720)
I0521 11:38:16.851853 20157 net.cpp:165] Memory required for data: 15570200
I0521 11:38:16.851863 20157 layer_factory.hpp:77] Creating layer pool4
I0521 11:38:16.851876 20157 net.cpp:106] Creating Layer pool4
I0521 11:38:16.851886 20157 net.cpp:454] pool4 <- conv4
I0521 11:38:16.851899 20157 net.cpp:411] pool4 -> pool4
I0521 11:38:16.851968 20157 net.cpp:150] Setting up pool4
I0521 11:38:16.851981 20157 net.cpp:157] Top shape: 10 36 3 42 (45360)
I0521 11:38:16.851991 20157 net.cpp:165] Memory required for data: 15751640
I0521 11:38:16.852001 20157 layer_factory.hpp:77] Creating layer ip1
I0521 11:38:16.852021 20157 net.cpp:106] Creating Layer ip1
I0521 11:38:16.852031 20157 net.cpp:454] ip1 <- pool4
I0521 11:38:16.852044 20157 net.cpp:411] ip1 -> ip1
I0521 11:38:16.867498 20157 net.cpp:150] Setting up ip1
I0521 11:38:16.867527 20157 net.cpp:157] Top shape: 10 196 (1960)
I0521 11:38:16.867539 20157 net.cpp:165] Memory required for data: 15759480
I0521 11:38:16.867560 20157 layer_factory.hpp:77] Creating layer relu5
I0521 11:38:16.867575 20157 net.cpp:106] Creating Layer relu5
I0521 11:38:16.867585 20157 net.cpp:454] relu5 <- ip1
I0521 11:38:16.867599 20157 net.cpp:397] relu5 -> ip1 (in-place)
I0521 11:38:16.867947 20157 net.cpp:150] Setting up relu5
I0521 11:38:16.867961 20157 net.cpp:157] Top shape: 10 196 (1960)
I0521 11:38:16.867971 20157 net.cpp:165] Memory required for data: 15767320
I0521 11:38:16.867981 20157 layer_factory.hpp:77] Creating layer drop1
I0521 11:38:16.868003 20157 net.cpp:106] Creating Layer drop1
I0521 11:38:16.868013 20157 net.cpp:454] drop1 <- ip1
I0521 11:38:16.868026 20157 net.cpp:397] drop1 -> ip1 (in-place)
I0521 11:38:16.868084 20157 net.cpp:150] Setting up drop1
I0521 11:38:16.868098 20157 net.cpp:157] Top shape: 10 196 (1960)
I0521 11:38:16.868108 20157 net.cpp:165] Memory required for data: 15775160
I0521 11:38:16.868119 20157 layer_factory.hpp:77] Creating layer ip2
I0521 11:38:16.868136 20157 net.cpp:106] Creating Layer ip2
I0521 11:38:16.868146 20157 net.cpp:454] ip2 <- ip1
I0521 11:38:16.868160 20157 net.cpp:411] ip2 -> ip2
I0521 11:38:16.868624 20157 net.cpp:150] Setting up ip2
I0521 11:38:16.868638 20157 net.cpp:157] Top shape: 10 98 (980)
I0521 11:38:16.868648 20157 net.cpp:165] Memory required for data: 15779080
I0521 11:38:16.868662 20157 layer_factory.hpp:77] Creating layer relu6
I0521 11:38:16.868675 20157 net.cpp:106] Creating Layer relu6
I0521 11:38:16.868685 20157 net.cpp:454] relu6 <- ip2
I0521 11:38:16.868697 20157 net.cpp:397] relu6 -> ip2 (in-place)
I0521 11:38:16.869254 20157 net.cpp:150] Setting up relu6
I0521 11:38:16.869277 20157 net.cpp:157] Top shape: 10 98 (980)
I0521 11:38:16.869285 20157 net.cpp:165] Memory required for data: 15783000
I0521 11:38:16.869297 20157 layer_factory.hpp:77] Creating layer drop2
I0521 11:38:16.869309 20157 net.cpp:106] Creating Layer drop2
I0521 11:38:16.869318 20157 net.cpp:454] drop2 <- ip2
I0521 11:38:16.869331 20157 net.cpp:397] drop2 -> ip2 (in-place)
I0521 11:38:16.869374 20157 net.cpp:150] Setting up drop2
I0521 11:38:16.869387 20157 net.cpp:157] Top shape: 10 98 (980)
I0521 11:38:16.869397 20157 net.cpp:165] Memory required for data: 15786920
I0521 11:38:16.869408 20157 layer_factory.hpp:77] Creating layer ip3
I0521 11:38:16.869421 20157 net.cpp:106] Creating Layer ip3
I0521 11:38:16.869431 20157 net.cpp:454] ip3 <- ip2
I0521 11:38:16.869443 20157 net.cpp:411] ip3 -> ip3
I0521 11:38:16.869652 20157 net.cpp:150] Setting up ip3
I0521 11:38:16.869665 20157 net.cpp:157] Top shape: 10 11 (110)
I0521 11:38:16.869675 20157 net.cpp:165] Memory required for data: 15787360
I0521 11:38:16.869690 20157 layer_factory.hpp:77] Creating layer drop3
I0521 11:38:16.869704 20157 net.cpp:106] Creating Layer drop3
I0521 11:38:16.869714 20157 net.cpp:454] drop3 <- ip3
I0521 11:38:16.869725 20157 net.cpp:397] drop3 -> ip3 (in-place)
I0521 11:38:16.869765 20157 net.cpp:150] Setting up drop3
I0521 11:38:16.869777 20157 net.cpp:157] Top shape: 10 11 (110)
I0521 11:38:16.869787 20157 net.cpp:165] Memory required for data: 15787800
I0521 11:38:16.869797 20157 layer_factory.hpp:77] Creating layer loss
I0521 11:38:16.869817 20157 net.cpp:106] Creating Layer loss
I0521 11:38:16.869827 20157 net.cpp:454] loss <- ip3
I0521 11:38:16.869837 20157 net.cpp:454] loss <- label
I0521 11:38:16.869849 20157 net.cpp:411] loss -> loss
I0521 11:38:16.869866 20157 layer_factory.hpp:77] Creating layer loss
…
I0521 11:38:16.872501 20157 solver.cpp:181] Creating test net (#0) specified by net file: /lustre/atlas/proj-shared/hep105/caffe_titan/caffe_workflow/logs_bslr/bs_10_lr_0.0005_2016-05-20T15.48.49.278163.prototxt
I0521 11:38:16.872573 20157 net.cpp:322] The NetState phase (1) differed from the phase (0) specified by a rule in layer data_hdf5
I0521 11:38:16.872927 20157 net.cpp:49] Initializing net from parameters: 
name: "caffe_test_127x50_x_unshifted"
state {
  phase: TEST
}
layer {
  name: "data_hdf5"
  type: "HDF5Data"
  top: "data"
  top: "label"
  include {
    phase: TEST
  }
  hdf5_data_param {
    source: "/lustre/atlas/proj-shared/hep105/caffe_titan/minosmatch_nukecczdefs_127x50_x_unshifted_me1Bmc.testlist"
    batch_size: 10
  }
}
layer {
  name: "conv1"
  type: "Convolution"
  bottom: "data"
  top: "conv1"
  convolution_param {
    num_output: 12
    pad: 0
    stride: 1
    weight_filler {
      type: "xavier"
    }
    bias_filler {
      type: "constant"
    }
    kernel_h: 8
    kernel_w: 3
  }
}
layer {
  name: "relu1"
  type: "ReLU"
  bottom: "conv1"
  top: "conv1"
}
layer {
  name: "pool1"
  type: "Pooling"
  bottom: "conv1"
  top: "pool1"
  pooling_param {
    pool: MAX
    kernel_h: 2
    kernel_w: 1
    stride_h: 2
    stride_w: 1
  }
}
layer {
  name: "conv2"
  type: "Convolution"
  bottom: "pool1"
  top: "conv2"
  convolution_param {
    num_output: 20
    pad: 0
    stride: 1
    weight_filler {
      type: "xavier"
    }
    bias_filler {
      type: "constant"
    }
    kernel_h: 7
    kernel_w: 3
  }
}
layer {
  name: "relu2"
  type: "ReLU"
  bottom: "conv2"
  top: "conv2"
}
layer {
  name: "pool2"
  type: "Pooling"
  bottom: "conv2"
  top: "pool2"
  pooling_param {
    pool: MAX
    kernel_h: 2
    kernel_w: 1
    stride_h: 2
    stride_w: 1
  }
}
layer {
  name: "conv3"
  type: "Convolution"
  bottom: "pool2"
  top: "conv3"
  convolution_param {
    num_output: 28
    pad: 0
    stride: 1
    weight_filler {
      type: "xavier"
    }
    bias_filler {
      type: "constant"
    }
    kernel_h: 6
    kernel_w: 3
  }
}
layer {
  name: "relu3"
  type: "ReLU"
  bottom: "conv3"
  top: "conv3"
}
layer {
  name: "pool3"
  type: "Pooling"
  bottom: "conv3"
  top: "pool3"
  pooling_param {
    pool: MAX
    kernel_h: 2
    kernel_w: 1
    stride_h: 2
    stride_w: 1
  }
}
layer {
  name: "conv4"
  type: "Convolution"
  bottom: "pool3"
  top: "conv4"
  convolution_param {
    num_output: 36
    pad: 0
    stride: 1
    weight_filler {
      type: "xavier"
    }
    bias_filler {
      type: "constant"
    }
    kernel_h: 6
    kernel_w: 3
  }
}
layer {
  name: "relu4"
  type: "ReLU"
  bottom: "conv4"
  top: "conv4"
}
layer {
  name: "pool4"
  type: "Pooling"
  bottom: "conv4"
  top: "pool4"
  pooling_param {
    pool: MAX
    kernel_h: 2
    kernel_w: 1
    stride_h: 2
    stride_w: 1
  }
}
layer {
  name: "ip1"
  type: "InnerProduct"
  bottom: "pool4"
  top: "ip1"
  inner_product_param {
    num_output: 196
    weight_filler {
      type: "xavier"
    }
    bias_filler {
      type: "constant"
    }
  }
}
layer {
  name: "relu5"
  type: "ReLU"
  bottom: "ip1"
  top: "ip1"
}
layer {
  name: "drop1"
  type: "Dropout"
  bottom: "ip1"
  top: "ip1"
  dropout_param {
    dropout_ratio: 0.5
  }
}
layer {
  name: "ip2"
  type: "InnerProduct"
  bottom: "ip1"
  top: "ip2"
  inner_product_param {
    num_output: 98
    weight_filler {
      type: "xavier"
    }
    bias_filler {
      type: "constant"
    }
  }
}
layer {
  name: "relu6"
  type: "ReLU"
  bottom: "ip2"
  top: "ip2"
}
layer {
  name: "drop2"
  type: "Dropout"
  bottom: "ip2"
  top: "ip2"
  dropout_param {
    dropout_ratio: 0.5
  }
}
layer {
  name: "ip3"
  type: "InnerProduct"
  bottom: "ip2"
  top: "ip3"
  inner_product_param {
    num_output: 11
    weight_filler {
      type: "xavier"
    }
    bias_filler {
      type: "constant"
    }
  }
}
layer {
  name: "drop3"
  type: "Dropout"
  bottom: "ip3"
  top: "ip3"
  dropout_param {
    dropout_ratio: 0.5
  }
}
layer {
  name: "accuracy"
  type: "Accuracy"
  bottom: "ip3"
  bottom: "label"
  top: "accuracy"
  include {
    phase: TEST
  }
}
layer {
  name: "loss"
  type: "SoftmaxWithLoss"
  bottom: "ip3"
  bottom: "label"
  top: "loss"
}
I0521 11:38:16.873117 20157 layer_factory.hpp:77] Creating layer data_hdf5
I0521 11:38:16.873132 20157 net.cpp:106] Creating Layer data_hdf5
I0521 11:38:16.873144 20157 net.cpp:411] data_hdf5 -> data
I0521 11:38:16.873162 20157 net.cpp:411] data_hdf5 -> label
I0521 11:38:16.873177 20157 hdf5_data_layer.cpp:79] Loading list of HDF5 filenames from: /lustre/atlas/proj-shared/hep105/caffe_titan/minosmatch_nukecczdefs_127x50_x_unshifted_me1Bmc.testlist
I0521 11:38:16.874537 20157 hdf5_data_layer.cpp:93] Number of HDF5 files: 3
I0521 11:38:38.190363 20157 net.cpp:150] Setting up data_hdf5
I0521 11:38:38.190529 20157 net.cpp:157] Top shape: 10 1 127 50 (63500)
I0521 11:38:38.190543 20157 net.cpp:157] Top shape: 10 (10)
I0521 11:38:38.190556 20157 net.cpp:165] Memory required for data: 254040
I0521 11:38:38.190568 20157 layer_factory.hpp:77] Creating layer label_data_hdf5_1_split
I0521 11:38:38.190596 20157 net.cpp:106] Creating Layer label_data_hdf5_1_split
I0521 11:38:38.190608 20157 net.cpp:454] label_data_hdf5_1_split <- label
I0521 11:38:38.190623 20157 net.cpp:411] label_data_hdf5_1_split -> label_data_hdf5_1_split_0
I0521 11:38:38.190644 20157 net.cpp:411] label_data_hdf5_1_split -> label_data_hdf5_1_split_1
I0521 11:38:38.190717 20157 net.cpp:150] Setting up label_data_hdf5_1_split
I0521 11:38:38.190732 20157 net.cpp:157] Top shape: 10 (10)
I0521 11:38:38.190742 20157 net.cpp:157] Top shape: 10 (10)
I0521 11:38:38.190752 20157 net.cpp:165] Memory required for data: 254120
I0521 11:38:38.190762 20157 layer_factory.hpp:77] Creating layer conv1
I0521 11:38:38.190783 20157 net.cpp:106] Creating Layer conv1
I0521 11:38:38.190794 20157 net.cpp:454] conv1 <- data
I0521 11:38:38.190809 20157 net.cpp:411] conv1 -> conv1
I0521 11:38:38.192793 20157 net.cpp:150] Setting up conv1
I0521 11:38:38.192816 20157 net.cpp:157] Top shape: 10 12 120 48 (691200)
I0521 11:38:38.192829 20157 net.cpp:165] Memory required for data: 3018920
I0521 11:38:38.192849 20157 layer_factory.hpp:77] Creating layer relu1
I0521 11:38:38.192864 20157 net.cpp:106] Creating Layer relu1
I0521 11:38:38.192875 20157 net.cpp:454] relu1 <- conv1
I0521 11:38:38.192888 20157 net.cpp:397] relu1 -> conv1 (in-place)
I0521 11:38:38.193397 20157 net.cpp:150] Setting up relu1
I0521 11:38:38.193414 20157 net.cpp:157] Top shape: 10 12 120 48 (691200)
I0521 11:38:38.193424 20157 net.cpp:165] Memory required for data: 5783720
I0521 11:38:38.193434 20157 layer_factory.hpp:77] Creating layer pool1
I0521 11:38:38.193451 20157 net.cpp:106] Creating Layer pool1
I0521 11:38:38.193461 20157 net.cpp:454] pool1 <- conv1
I0521 11:38:38.193475 20157 net.cpp:411] pool1 -> pool1
I0521 11:38:38.193550 20157 net.cpp:150] Setting up pool1
I0521 11:38:38.193563 20157 net.cpp:157] Top shape: 10 12 60 48 (345600)
I0521 11:38:38.193573 20157 net.cpp:165] Memory required for data: 7166120
I0521 11:38:38.193585 20157 layer_factory.hpp:77] Creating layer conv2
I0521 11:38:38.193603 20157 net.cpp:106] Creating Layer conv2
I0521 11:38:38.193614 20157 net.cpp:454] conv2 <- pool1
I0521 11:38:38.193629 20157 net.cpp:411] conv2 -> conv2
I0521 11:38:38.195538 20157 net.cpp:150] Setting up conv2
I0521 11:38:38.195560 20157 net.cpp:157] Top shape: 10 20 54 46 (496800)
I0521 11:38:38.195572 20157 net.cpp:165] Memory required for data: 9153320
I0521 11:38:38.195590 20157 layer_factory.hpp:77] Creating layer relu2
I0521 11:38:38.195605 20157 net.cpp:106] Creating Layer relu2
I0521 11:38:38.195614 20157 net.cpp:454] relu2 <- conv2
I0521 11:38:38.195626 20157 net.cpp:397] relu2 -> conv2 (in-place)
I0521 11:38:38.195971 20157 net.cpp:150] Setting up relu2
I0521 11:38:38.195986 20157 net.cpp:157] Top shape: 10 20 54 46 (496800)
I0521 11:38:38.195996 20157 net.cpp:165] Memory required for data: 11140520
I0521 11:38:38.196005 20157 layer_factory.hpp:77] Creating layer pool2
I0521 11:38:38.196018 20157 net.cpp:106] Creating Layer pool2
I0521 11:38:38.196028 20157 net.cpp:454] pool2 <- conv2
I0521 11:38:38.196041 20157 net.cpp:411] pool2 -> pool2
I0521 11:38:38.196115 20157 net.cpp:150] Setting up pool2
I0521 11:38:38.196127 20157 net.cpp:157] Top shape: 10 20 27 46 (248400)
I0521 11:38:38.196137 20157 net.cpp:165] Memory required for data: 12134120
I0521 11:38:38.196147 20157 layer_factory.hpp:77] Creating layer conv3
I0521 11:38:38.196164 20157 net.cpp:106] Creating Layer conv3
I0521 11:38:38.196176 20157 net.cpp:454] conv3 <- pool2
I0521 11:38:38.196189 20157 net.cpp:411] conv3 -> conv3
I0521 11:38:38.198199 20157 net.cpp:150] Setting up conv3
I0521 11:38:38.198223 20157 net.cpp:157] Top shape: 10 28 22 44 (271040)
I0521 11:38:38.198235 20157 net.cpp:165] Memory required for data: 13218280
I0521 11:38:38.198253 20157 layer_factory.hpp:77] Creating layer relu3
I0521 11:38:38.198279 20157 net.cpp:106] Creating Layer relu3
I0521 11:38:38.198289 20157 net.cpp:454] relu3 <- conv3
I0521 11:38:38.198302 20157 net.cpp:397] relu3 -> conv3 (in-place)
I0521 11:38:38.198776 20157 net.cpp:150] Setting up relu3
I0521 11:38:38.198791 20157 net.cpp:157] Top shape: 10 28 22 44 (271040)
I0521 11:38:38.198801 20157 net.cpp:165] Memory required for data: 14302440
I0521 11:38:38.198812 20157 layer_factory.hpp:77] Creating layer pool3
I0521 11:38:38.198824 20157 net.cpp:106] Creating Layer pool3
I0521 11:38:38.198834 20157 net.cpp:454] pool3 <- conv3
I0521 11:38:38.198848 20157 net.cpp:411] pool3 -> pool3
I0521 11:38:38.198920 20157 net.cpp:150] Setting up pool3
I0521 11:38:38.198933 20157 net.cpp:157] Top shape: 10 28 11 44 (135520)
I0521 11:38:38.198942 20157 net.cpp:165] Memory required for data: 14844520
I0521 11:38:38.198952 20157 layer_factory.hpp:77] Creating layer conv4
I0521 11:38:38.198972 20157 net.cpp:106] Creating Layer conv4
I0521 11:38:38.198982 20157 net.cpp:454] conv4 <- pool3
I0521 11:38:38.198995 20157 net.cpp:411] conv4 -> conv4
I0521 11:38:38.201066 20157 net.cpp:150] Setting up conv4
I0521 11:38:38.201087 20157 net.cpp:157] Top shape: 10 36 6 42 (90720)
I0521 11:38:38.201102 20157 net.cpp:165] Memory required for data: 15207400
I0521 11:38:38.201117 20157 layer_factory.hpp:77] Creating layer relu4
I0521 11:38:38.201129 20157 net.cpp:106] Creating Layer relu4
I0521 11:38:38.201139 20157 net.cpp:454] relu4 <- conv4
I0521 11:38:38.201151 20157 net.cpp:397] relu4 -> conv4 (in-place)
I0521 11:38:38.201622 20157 net.cpp:150] Setting up relu4
I0521 11:38:38.201639 20157 net.cpp:157] Top shape: 10 36 6 42 (90720)
I0521 11:38:38.201649 20157 net.cpp:165] Memory required for data: 15570280
I0521 11:38:38.201659 20157 layer_factory.hpp:77] Creating layer pool4
I0521 11:38:38.201673 20157 net.cpp:106] Creating Layer pool4
I0521 11:38:38.201683 20157 net.cpp:454] pool4 <- conv4
I0521 11:38:38.201695 20157 net.cpp:411] pool4 -> pool4
I0521 11:38:38.201766 20157 net.cpp:150] Setting up pool4
I0521 11:38:38.201781 20157 net.cpp:157] Top shape: 10 36 3 42 (45360)
I0521 11:38:38.201789 20157 net.cpp:165] Memory required for data: 15751720
I0521 11:38:38.201800 20157 layer_factory.hpp:77] Creating layer ip1
I0521 11:38:38.201815 20157 net.cpp:106] Creating Layer ip1
I0521 11:38:38.201827 20157 net.cpp:454] ip1 <- pool4
I0521 11:38:38.201840 20157 net.cpp:411] ip1 -> ip1
I0521 11:38:38.217336 20157 net.cpp:150] Setting up ip1
I0521 11:38:38.217365 20157 net.cpp:157] Top shape: 10 196 (1960)
I0521 11:38:38.217376 20157 net.cpp:165] Memory required for data: 15759560
I0521 11:38:38.217403 20157 layer_factory.hpp:77] Creating layer relu5
I0521 11:38:38.217418 20157 net.cpp:106] Creating Layer relu5
I0521 11:38:38.217429 20157 net.cpp:454] relu5 <- ip1
I0521 11:38:38.217442 20157 net.cpp:397] relu5 -> ip1 (in-place)
I0521 11:38:38.217792 20157 net.cpp:150] Setting up relu5
I0521 11:38:38.217805 20157 net.cpp:157] Top shape: 10 196 (1960)
I0521 11:38:38.217815 20157 net.cpp:165] Memory required for data: 15767400
I0521 11:38:38.217825 20157 layer_factory.hpp:77] Creating layer drop1
I0521 11:38:38.217844 20157 net.cpp:106] Creating Layer drop1
I0521 11:38:38.217855 20157 net.cpp:454] drop1 <- ip1
I0521 11:38:38.217869 20157 net.cpp:397] drop1 -> ip1 (in-place)
I0521 11:38:38.217913 20157 net.cpp:150] Setting up drop1
I0521 11:38:38.217926 20157 net.cpp:157] Top shape: 10 196 (1960)
I0521 11:38:38.217936 20157 net.cpp:165] Memory required for data: 15775240
I0521 11:38:38.217946 20157 layer_factory.hpp:77] Creating layer ip2
I0521 11:38:38.217960 20157 net.cpp:106] Creating Layer ip2
I0521 11:38:38.217970 20157 net.cpp:454] ip2 <- ip1
I0521 11:38:38.217984 20157 net.cpp:411] ip2 -> ip2
I0521 11:38:38.218461 20157 net.cpp:150] Setting up ip2
I0521 11:38:38.218474 20157 net.cpp:157] Top shape: 10 98 (980)
I0521 11:38:38.218484 20157 net.cpp:165] Memory required for data: 15779160
I0521 11:38:38.218499 20157 layer_factory.hpp:77] Creating layer relu6
I0521 11:38:38.218525 20157 net.cpp:106] Creating Layer relu6
I0521 11:38:38.218535 20157 net.cpp:454] relu6 <- ip2
I0521 11:38:38.218547 20157 net.cpp:397] relu6 -> ip2 (in-place)
I0521 11:38:38.219086 20157 net.cpp:150] Setting up relu6
I0521 11:38:38.219107 20157 net.cpp:157] Top shape: 10 98 (980)
I0521 11:38:38.219117 20157 net.cpp:165] Memory required for data: 15783080
I0521 11:38:38.219127 20157 layer_factory.hpp:77] Creating layer drop2
I0521 11:38:38.219141 20157 net.cpp:106] Creating Layer drop2
I0521 11:38:38.219151 20157 net.cpp:454] drop2 <- ip2
I0521 11:38:38.219163 20157 net.cpp:397] drop2 -> ip2 (in-place)
I0521 11:38:38.219208 20157 net.cpp:150] Setting up drop2
I0521 11:38:38.219220 20157 net.cpp:157] Top shape: 10 98 (980)
I0521 11:38:38.219230 20157 net.cpp:165] Memory required for data: 15787000
I0521 11:38:38.219240 20157 layer_factory.hpp:77] Creating layer ip3
I0521 11:38:38.219254 20157 net.cpp:106] Creating Layer ip3
I0521 11:38:38.219264 20157 net.cpp:454] ip3 <- ip2
I0521 11:38:38.219279 20157 net.cpp:411] ip3 -> ip3
I0521 11:38:38.219498 20157 net.cpp:150] Setting up ip3
I0521 11:38:38.219511 20157 net.cpp:157] Top shape: 10 11 (110)
I0521 11:38:38.219521 20157 net.cpp:165] Memory required for data: 15787440
I0521 11:38:38.219537 20157 layer_factory.hpp:77] Creating layer drop3
I0521 11:38:38.219549 20157 net.cpp:106] Creating Layer drop3
I0521 11:38:38.219559 20157 net.cpp:454] drop3 <- ip3
I0521 11:38:38.219571 20157 net.cpp:397] drop3 -> ip3 (in-place)
I0521 11:38:38.219612 20157 net.cpp:150] Setting up drop3
I0521 11:38:38.219625 20157 net.cpp:157] Top shape: 10 11 (110)
I0521 11:38:38.219635 20157 net.cpp:165] Memory required for data: 15787880
I0521 11:38:38.219645 20157 layer_factory.hpp:77] Creating layer ip3_drop3_0_split
I0521 11:38:38.219658 20157 net.cpp:106] Creating Layer ip3_drop3_0_split
I0521 11:38:38.219668 20157 net.cpp:454] ip3_drop3_0_split <- ip3
I0521 11:38:38.219681 20157 net.cpp:411] ip3_drop3_0_split -> ip3_drop3_0_split_0
I0521 11:38:38.219696 20157 net.cpp:411] ip3_drop3_0_split -> ip3_drop3_0_split_1
I0521 11:38:38.219769 20157 net.cpp:150] Setting up ip3_drop3_0_split
I0521 11:38:38.219782 20157 net.cpp:157] Top shape: 10 11 (110)
I0521 11:38:38.219794 20157 net.cpp:157] Top shape: 10 11 (110)
I0521 11:38:38.219805 20157 net.cpp:165] Memory required for data: 15788760
I0521 11:38:38.219822 20157 layer_factory.hpp:77] Creating layer accuracy
I0521 11:38:38.219843 20157 net.cpp:106] Creating Layer accuracy
I0521 11:38:38.219853 20157 net.cpp:454] accuracy <- ip3_drop3_0_split_0
I0521 11:38:38.219864 20157 net.cpp:454] accuracy <- label_data_hdf5_1_split_0
I0521 11:38:38.219878 20157 net.cpp:411] accuracy -> accuracy
…
