…
I0526 03:30:25.880683 26891 net.cpp:322] The NetState phase (0) differed from the phase (1) specified by a rule in layer data_hdf5
I0526 03:30:25.880741 26891 net.cpp:322] The NetState phase (0) differed from the phase (1) specified by a rule in layer accuracy
I0526 03:30:25.881099 26891 net.cpp:49] Initializing net from parameters: 
name: "caffe_test_127x50_x_unshifted"
state {
  phase: TRAIN
}
layer {
  name: "data_hdf5"
  type: "HDF5Data"
  top: "data"
  top: "label"
  include {
    phase: TRAIN
  }
  hdf5_data_param {
    source: "/lustre/atlas/proj-shared/hep105/caffe_titan/minosmatch_nukecczdefs_127x50_x_unshifted_me1Bmc.trainlist"
    batch_size: 10
  }
}
layer {
  name: "conv1"
  type: "Convolution"
  bottom: "data"
  top: "conv1"
  convolution_param {
    num_output: 12
    pad: 0
    stride: 1
    weight_filler {
      type: "xavier"
    }
    bias_filler {
      type: "constant"
    }
    kernel_h: 8
    kernel_w: 3
  }
}
layer {
  name: "relu1"
  type: "ReLU"
  bottom: "conv1"
  top: "conv1"
}
layer {
  name: "pool1"
  type: "Pooling"
  bottom: "conv1"
  top: "pool1"
  pooling_param {
    pool: MAX
    kernel_h: 2
    kernel_w: 1
    stride_h: 2
    stride_w: 1
  }
}
layer {
  name: "conv2"
  type: "Convolution"
  bottom: "pool1"
  top: "conv2"
  convolution_param {
    num_output: 20
    pad: 0
    stride: 1
    weight_filler {
      type: "xavier"
    }
    bias_filler {
      type: "constant"
    }
    kernel_h: 7
    kernel_w: 3
  }
}
layer {
  name: "relu2"
  type: "ReLU"
  bottom: "conv2"
  top: "conv2"
}
layer {
  name: "pool2"
  type: "Pooling"
  bottom: "conv2"
  top: "pool2"
  pooling_param {
    pool: MAX
    kernel_h: 2
    kernel_w: 1
    stride_h: 2
    stride_w: 1
  }
}
layer {
  name: "conv3"
  type: "Convolution"
  bottom: "pool2"
  top: "conv3"
  convolution_param {
    num_output: 28
    pad: 0
    stride: 1
    weight_filler {
      type: "xavier"
    }
    bias_filler {
      type: "constant"
    }
    kernel_h: 6
    kernel_w: 3
  }
}
layer {
  name: "relu3"
  type: "ReLU"
  bottom: "conv3"
  top: "conv3"
}
layer {
  name: "pool3"
  type: "Pooling"
  bottom: "conv3"
  top: "pool3"
  pooling_param {
    pool: MAX
    kernel_h: 2
    kernel_w: 1
    stride_h: 2
    stride_w: 1
  }
}
layer {
  name: "conv4"
  type: "Convolution"
  bottom: "pool3"
  top: "conv4"
  convolution_param {
    num_output: 36
    pad: 0
    stride: 1
    weight_filler {
      type: "xavier"
    }
    bias_filler {
      type: "constant"
    }
    kernel_h: 6
    kernel_w: 3
  }
}
layer {
  name: "relu4"
  type: "ReLU"
  bottom: "conv4"
  top: "conv4"
}
layer {
  name: "pool4"
  type: "Pooling"
  bottom: "conv4"
  top: "pool4"
  pooling_param {
    pool: MAX
    kernel_h: 2
    kernel_w: 1
    stride_h: 2
    stride_w: 1
  }
}
layer {
  name: "ip1"
  type: "InnerProduct"
  bottom: "pool4"
  top: "ip1"
  inner_product_param {
    num_output: 196
    weight_filler {
      type: "xavier"
    }
    bias_filler {
      type: "constant"
    }
  }
}
layer {
  name: "relu5"
  type: "ReLU"
  bottom: "ip1"
  top: "ip1"
}
layer {
  name: "drop1"
  type: "Dropout"
  bottom: "ip1"
  top: "ip1"
  dropout_param {
    dropout_ratio: 0.5
  }
}
layer {
  name: "ip2"
  type: "InnerProduct"
  bottom: "ip1"
  top: "ip2"
  inner_product_param {
    num_output: 98
    weight_filler {
      type: "xavier"
    }
    bias_filler {
      type: "constant"
    }
  }
}
layer {
  name: "relu6"
  type: "ReLU"
  bottom: "ip2"
  top: "ip2"
}
layer {
  name: "drop2"
  type: "Dropout"
  bottom: "ip2"
  top: "ip2"
  dropout_param {
    dropout_ratio: 0.5
  }
}
layer {
  name: "ip3"
  type: "InnerProduct"
  bottom: "ip2"
  top: "ip3"
  inner_product_param {
    num_output: 11
    weight_filler {
      type: "xavier"
    }
    bias_filler {
      type: "constant"
    }
  }
}
layer {
  name: "drop3"
  type: "Dropout"
  bottom: "ip3"
  top: "ip3"
  dropout_param {
    dropout_ratio: 0.5
  }
}
layer {
  name: "loss"
  type: "SoftmaxWithLoss"
  bottom: "ip3"
  bottom: "label"
  top: "loss"
}
I0526 03:30:25.881278 26891 layer_factory.hpp:77] Creating layer data_hdf5
I0526 03:30:25.881304 26891 net.cpp:106] Creating Layer data_hdf5
I0526 03:30:25.881317 26891 net.cpp:411] data_hdf5 -> data
I0526 03:30:25.881351 26891 net.cpp:411] data_hdf5 -> label
I0526 03:30:25.881384 26891 hdf5_data_layer.cpp:79] Loading list of HDF5 filenames from: /lustre/atlas/proj-shared/hep105/caffe_titan/minosmatch_nukecczdefs_127x50_x_unshifted_me1Bmc.trainlist
I0526 03:30:25.882690 26891 hdf5_data_layer.cpp:93] Number of HDF5 files: 15
I0526 03:30:25.884934 26891 hdf5.cpp:32] Datatype class: H5T_FLOAT
I0526 03:30:47.452800 26891 hdf5.cpp:35] Datatype class: H5T_INTEGER
I0526 03:30:47.457909 26891 net.cpp:150] Setting up data_hdf5
I0526 03:30:47.457953 26891 net.cpp:157] Top shape: 10 1 127 50 (63500)
I0526 03:30:47.457968 26891 net.cpp:157] Top shape: 10 (10)
I0526 03:30:47.457978 26891 net.cpp:165] Memory required for data: 254040
I0526 03:30:47.457991 26891 layer_factory.hpp:77] Creating layer conv1
I0526 03:30:47.458024 26891 net.cpp:106] Creating Layer conv1
I0526 03:30:47.458037 26891 net.cpp:454] conv1 <- data
I0526 03:30:47.458060 26891 net.cpp:411] conv1 -> conv1
I0526 03:30:48.848695 26891 net.cpp:150] Setting up conv1
I0526 03:30:48.848742 26891 net.cpp:157] Top shape: 10 12 120 48 (691200)
I0526 03:30:48.848752 26891 net.cpp:165] Memory required for data: 3018840
I0526 03:30:48.848780 26891 layer_factory.hpp:77] Creating layer relu1
I0526 03:30:48.848801 26891 net.cpp:106] Creating Layer relu1
I0526 03:30:48.848812 26891 net.cpp:454] relu1 <- conv1
I0526 03:30:48.848826 26891 net.cpp:397] relu1 -> conv1 (in-place)
I0526 03:30:48.849354 26891 net.cpp:150] Setting up relu1
I0526 03:30:48.849371 26891 net.cpp:157] Top shape: 10 12 120 48 (691200)
I0526 03:30:48.849382 26891 net.cpp:165] Memory required for data: 5783640
I0526 03:30:48.849392 26891 layer_factory.hpp:77] Creating layer pool1
I0526 03:30:48.849409 26891 net.cpp:106] Creating Layer pool1
I0526 03:30:48.849419 26891 net.cpp:454] pool1 <- conv1
I0526 03:30:48.849432 26891 net.cpp:411] pool1 -> pool1
I0526 03:30:48.849512 26891 net.cpp:150] Setting up pool1
I0526 03:30:48.849526 26891 net.cpp:157] Top shape: 10 12 60 48 (345600)
I0526 03:30:48.849535 26891 net.cpp:165] Memory required for data: 7166040
I0526 03:30:48.849545 26891 layer_factory.hpp:77] Creating layer conv2
I0526 03:30:48.849565 26891 net.cpp:106] Creating Layer conv2
I0526 03:30:48.849575 26891 net.cpp:454] conv2 <- pool1
I0526 03:30:48.849588 26891 net.cpp:411] conv2 -> conv2
I0526 03:30:48.852267 26891 net.cpp:150] Setting up conv2
I0526 03:30:48.852294 26891 net.cpp:157] Top shape: 10 20 54 46 (496800)
I0526 03:30:48.852304 26891 net.cpp:165] Memory required for data: 9153240
I0526 03:30:48.852324 26891 layer_factory.hpp:77] Creating layer relu2
I0526 03:30:48.852337 26891 net.cpp:106] Creating Layer relu2
I0526 03:30:48.852347 26891 net.cpp:454] relu2 <- conv2
I0526 03:30:48.852360 26891 net.cpp:397] relu2 -> conv2 (in-place)
I0526 03:30:48.852692 26891 net.cpp:150] Setting up relu2
I0526 03:30:48.852707 26891 net.cpp:157] Top shape: 10 20 54 46 (496800)
I0526 03:30:48.852717 26891 net.cpp:165] Memory required for data: 11140440
I0526 03:30:48.852727 26891 layer_factory.hpp:77] Creating layer pool2
I0526 03:30:48.852740 26891 net.cpp:106] Creating Layer pool2
I0526 03:30:48.852749 26891 net.cpp:454] pool2 <- conv2
I0526 03:30:48.852762 26891 net.cpp:411] pool2 -> pool2
I0526 03:30:48.852843 26891 net.cpp:150] Setting up pool2
I0526 03:30:48.852856 26891 net.cpp:157] Top shape: 10 20 27 46 (248400)
I0526 03:30:48.852865 26891 net.cpp:165] Memory required for data: 12134040
I0526 03:30:48.852875 26891 layer_factory.hpp:77] Creating layer conv3
I0526 03:30:48.852893 26891 net.cpp:106] Creating Layer conv3
I0526 03:30:48.852903 26891 net.cpp:454] conv3 <- pool2
I0526 03:30:48.852917 26891 net.cpp:411] conv3 -> conv3
I0526 03:30:48.855023 26891 net.cpp:150] Setting up conv3
I0526 03:30:48.855042 26891 net.cpp:157] Top shape: 10 28 22 44 (271040)
I0526 03:30:48.855053 26891 net.cpp:165] Memory required for data: 13218200
I0526 03:30:48.855072 26891 layer_factory.hpp:77] Creating layer relu3
I0526 03:30:48.855087 26891 net.cpp:106] Creating Layer relu3
I0526 03:30:48.855098 26891 net.cpp:454] relu3 <- conv3
I0526 03:30:48.855110 26891 net.cpp:397] relu3 -> conv3 (in-place)
I0526 03:30:48.855571 26891 net.cpp:150] Setting up relu3
I0526 03:30:48.855588 26891 net.cpp:157] Top shape: 10 28 22 44 (271040)
I0526 03:30:48.855598 26891 net.cpp:165] Memory required for data: 14302360
I0526 03:30:48.855608 26891 layer_factory.hpp:77] Creating layer pool3
I0526 03:30:48.855621 26891 net.cpp:106] Creating Layer pool3
I0526 03:30:48.855630 26891 net.cpp:454] pool3 <- conv3
I0526 03:30:48.855643 26891 net.cpp:411] pool3 -> pool3
I0526 03:30:48.855711 26891 net.cpp:150] Setting up pool3
I0526 03:30:48.855725 26891 net.cpp:157] Top shape: 10 28 11 44 (135520)
I0526 03:30:48.855734 26891 net.cpp:165] Memory required for data: 14844440
I0526 03:30:48.855744 26891 layer_factory.hpp:77] Creating layer conv4
I0526 03:30:48.855762 26891 net.cpp:106] Creating Layer conv4
I0526 03:30:48.855772 26891 net.cpp:454] conv4 <- pool3
I0526 03:30:48.855785 26891 net.cpp:411] conv4 -> conv4
I0526 03:30:48.858500 26891 net.cpp:150] Setting up conv4
I0526 03:30:48.858526 26891 net.cpp:157] Top shape: 10 36 6 42 (90720)
I0526 03:30:48.858537 26891 net.cpp:165] Memory required for data: 15207320
I0526 03:30:48.858556 26891 layer_factory.hpp:77] Creating layer relu4
I0526 03:30:48.858569 26891 net.cpp:106] Creating Layer relu4
I0526 03:30:48.858579 26891 net.cpp:454] relu4 <- conv4
I0526 03:30:48.858593 26891 net.cpp:397] relu4 -> conv4 (in-place)
I0526 03:30:48.859061 26891 net.cpp:150] Setting up relu4
I0526 03:30:48.859077 26891 net.cpp:157] Top shape: 10 36 6 42 (90720)
I0526 03:30:48.859087 26891 net.cpp:165] Memory required for data: 15570200
I0526 03:30:48.859097 26891 layer_factory.hpp:77] Creating layer pool4
I0526 03:30:48.859110 26891 net.cpp:106] Creating Layer pool4
I0526 03:30:48.859120 26891 net.cpp:454] pool4 <- conv4
I0526 03:30:48.859134 26891 net.cpp:411] pool4 -> pool4
I0526 03:30:48.859203 26891 net.cpp:150] Setting up pool4
I0526 03:30:48.859216 26891 net.cpp:157] Top shape: 10 36 3 42 (45360)
I0526 03:30:48.859226 26891 net.cpp:165] Memory required for data: 15751640
I0526 03:30:48.859236 26891 layer_factory.hpp:77] Creating layer ip1
I0526 03:30:48.859254 26891 net.cpp:106] Creating Layer ip1
I0526 03:30:48.859264 26891 net.cpp:454] ip1 <- pool4
I0526 03:30:48.859277 26891 net.cpp:411] ip1 -> ip1
I0526 03:30:48.874603 26891 net.cpp:150] Setting up ip1
I0526 03:30:48.874631 26891 net.cpp:157] Top shape: 10 196 (1960)
I0526 03:30:48.874642 26891 net.cpp:165] Memory required for data: 15759480
I0526 03:30:48.874667 26891 layer_factory.hpp:77] Creating layer relu5
I0526 03:30:48.874682 26891 net.cpp:106] Creating Layer relu5
I0526 03:30:48.874692 26891 net.cpp:454] relu5 <- ip1
I0526 03:30:48.874706 26891 net.cpp:397] relu5 -> ip1 (in-place)
I0526 03:30:48.875049 26891 net.cpp:150] Setting up relu5
I0526 03:30:48.875063 26891 net.cpp:157] Top shape: 10 196 (1960)
I0526 03:30:48.875073 26891 net.cpp:165] Memory required for data: 15767320
I0526 03:30:48.875083 26891 layer_factory.hpp:77] Creating layer drop1
I0526 03:30:48.875104 26891 net.cpp:106] Creating Layer drop1
I0526 03:30:48.875114 26891 net.cpp:454] drop1 <- ip1
I0526 03:30:48.875126 26891 net.cpp:397] drop1 -> ip1 (in-place)
I0526 03:30:48.875185 26891 net.cpp:150] Setting up drop1
I0526 03:30:48.875200 26891 net.cpp:157] Top shape: 10 196 (1960)
I0526 03:30:48.875208 26891 net.cpp:165] Memory required for data: 15775160
I0526 03:30:48.875218 26891 layer_factory.hpp:77] Creating layer ip2
I0526 03:30:48.875236 26891 net.cpp:106] Creating Layer ip2
I0526 03:30:48.875247 26891 net.cpp:454] ip2 <- ip1
I0526 03:30:48.875260 26891 net.cpp:411] ip2 -> ip2
I0526 03:30:48.875725 26891 net.cpp:150] Setting up ip2
I0526 03:30:48.875738 26891 net.cpp:157] Top shape: 10 98 (980)
I0526 03:30:48.875748 26891 net.cpp:165] Memory required for data: 15779080
I0526 03:30:48.875763 26891 layer_factory.hpp:77] Creating layer relu6
I0526 03:30:48.875777 26891 net.cpp:106] Creating Layer relu6
I0526 03:30:48.875785 26891 net.cpp:454] relu6 <- ip2
I0526 03:30:48.875797 26891 net.cpp:397] relu6 -> ip2 (in-place)
I0526 03:30:48.876315 26891 net.cpp:150] Setting up relu6
I0526 03:30:48.876332 26891 net.cpp:157] Top shape: 10 98 (980)
I0526 03:30:48.876343 26891 net.cpp:165] Memory required for data: 15783000
I0526 03:30:48.876353 26891 layer_factory.hpp:77] Creating layer drop2
I0526 03:30:48.876365 26891 net.cpp:106] Creating Layer drop2
I0526 03:30:48.876374 26891 net.cpp:454] drop2 <- ip2
I0526 03:30:48.876387 26891 net.cpp:397] drop2 -> ip2 (in-place)
I0526 03:30:48.876430 26891 net.cpp:150] Setting up drop2
I0526 03:30:48.876443 26891 net.cpp:157] Top shape: 10 98 (980)
I0526 03:30:48.876453 26891 net.cpp:165] Memory required for data: 15786920
I0526 03:30:48.876463 26891 layer_factory.hpp:77] Creating layer ip3
I0526 03:30:48.876477 26891 net.cpp:106] Creating Layer ip3
I0526 03:30:48.876487 26891 net.cpp:454] ip3 <- ip2
I0526 03:30:48.876499 26891 net.cpp:411] ip3 -> ip3
I0526 03:30:48.876709 26891 net.cpp:150] Setting up ip3
I0526 03:30:48.876723 26891 net.cpp:157] Top shape: 10 11 (110)
I0526 03:30:48.876732 26891 net.cpp:165] Memory required for data: 15787360
I0526 03:30:48.876747 26891 layer_factory.hpp:77] Creating layer drop3
I0526 03:30:48.876760 26891 net.cpp:106] Creating Layer drop3
I0526 03:30:48.876770 26891 net.cpp:454] drop3 <- ip3
I0526 03:30:48.876782 26891 net.cpp:397] drop3 -> ip3 (in-place)
I0526 03:30:48.876821 26891 net.cpp:150] Setting up drop3
I0526 03:30:48.876834 26891 net.cpp:157] Top shape: 10 11 (110)
I0526 03:30:48.876844 26891 net.cpp:165] Memory required for data: 15787800
I0526 03:30:48.876853 26891 layer_factory.hpp:77] Creating layer loss
I0526 03:30:48.876873 26891 net.cpp:106] Creating Layer loss
I0526 03:30:48.876883 26891 net.cpp:454] loss <- ip3
I0526 03:30:48.876894 26891 net.cpp:454] loss <- label
I0526 03:30:48.876906 26891 net.cpp:411] loss -> loss
I0526 03:30:48.876924 26891 layer_factory.hpp:77] Creating layer loss
…
I0526 03:30:48.879534 26891 solver.cpp:181] Creating test net (#0) specified by net file: /lustre/atlas/proj-shared/hep105/caffe_titan/caffe_workflow/logs_bslr/bs_10_lr_0.0010_2016-05-20T15.48.49.668316.prototxt
I0526 03:30:48.879604 26891 net.cpp:322] The NetState phase (1) differed from the phase (0) specified by a rule in layer data_hdf5
I0526 03:30:48.879987 26891 net.cpp:49] Initializing net from parameters: 
name: "caffe_test_127x50_x_unshifted"
state {
  phase: TEST
}
layer {
  name: "data_hdf5"
  type: "HDF5Data"
  top: "data"
  top: "label"
  include {
    phase: TEST
  }
  hdf5_data_param {
    source: "/lustre/atlas/proj-shared/hep105/caffe_titan/minosmatch_nukecczdefs_127x50_x_unshifted_me1Bmc.testlist"
    batch_size: 10
  }
}
layer {
  name: "conv1"
  type: "Convolution"
  bottom: "data"
  top: "conv1"
  convolution_param {
    num_output: 12
    pad: 0
    stride: 1
    weight_filler {
      type: "xavier"
    }
    bias_filler {
      type: "constant"
    }
    kernel_h: 8
    kernel_w: 3
  }
}
layer {
  name: "relu1"
  type: "ReLU"
  bottom: "conv1"
  top: "conv1"
}
layer {
  name: "pool1"
  type: "Pooling"
  bottom: "conv1"
  top: "pool1"
  pooling_param {
    pool: MAX
    kernel_h: 2
    kernel_w: 1
    stride_h: 2
    stride_w: 1
  }
}
layer {
  name: "conv2"
  type: "Convolution"
  bottom: "pool1"
  top: "conv2"
  convolution_param {
    num_output: 20
    pad: 0
    stride: 1
    weight_filler {
      type: "xavier"
    }
    bias_filler {
      type: "constant"
    }
    kernel_h: 7
    kernel_w: 3
  }
}
layer {
  name: "relu2"
  type: "ReLU"
  bottom: "conv2"
  top: "conv2"
}
layer {
  name: "pool2"
  type: "Pooling"
  bottom: "conv2"
  top: "pool2"
  pooling_param {
    pool: MAX
    kernel_h: 2
    kernel_w: 1
    stride_h: 2
    stride_w: 1
  }
}
layer {
  name: "conv3"
  type: "Convolution"
  bottom: "pool2"
  top: "conv3"
  convolution_param {
    num_output: 28
    pad: 0
    stride: 1
    weight_filler {
      type: "xavier"
    }
    bias_filler {
      type: "constant"
    }
    kernel_h: 6
    kernel_w: 3
  }
}
layer {
  name: "relu3"
  type: "ReLU"
  bottom: "conv3"
  top: "conv3"
}
layer {
  name: "pool3"
  type: "Pooling"
  bottom: "conv3"
  top: "pool3"
  pooling_param {
    pool: MAX
    kernel_h: 2
    kernel_w: 1
    stride_h: 2
    stride_w: 1
  }
}
layer {
  name: "conv4"
  type: "Convolution"
  bottom: "pool3"
  top: "conv4"
  convolution_param {
    num_output: 36
    pad: 0
    stride: 1
    weight_filler {
      type: "xavier"
    }
    bias_filler {
      type: "constant"
    }
    kernel_h: 6
    kernel_w: 3
  }
}
layer {
  name: "relu4"
  type: "ReLU"
  bottom: "conv4"
  top: "conv4"
}
layer {
  name: "pool4"
  type: "Pooling"
  bottom: "conv4"
  top: "pool4"
  pooling_param {
    pool: MAX
    kernel_h: 2
    kernel_w: 1
    stride_h: 2
    stride_w: 1
  }
}
layer {
  name: "ip1"
  type: "InnerProduct"
  bottom: "pool4"
  top: "ip1"
  inner_product_param {
    num_output: 196
    weight_filler {
      type: "xavier"
    }
    bias_filler {
      type: "constant"
    }
  }
}
layer {
  name: "relu5"
  type: "ReLU"
  bottom: "ip1"
  top: "ip1"
}
layer {
  name: "drop1"
  type: "Dropout"
  bottom: "ip1"
  top: "ip1"
  dropout_param {
    dropout_ratio: 0.5
  }
}
layer {
  name: "ip2"
  type: "InnerProduct"
  bottom: "ip1"
  top: "ip2"
  inner_product_param {
    num_output: 98
    weight_filler {
      type: "xavier"
    }
    bias_filler {
      type: "constant"
    }
  }
}
layer {
  name: "relu6"
  type: "ReLU"
  bottom: "ip2"
  top: "ip2"
}
layer {
  name: "drop2"
  type: "Dropout"
  bottom: "ip2"
  top: "ip2"
  dropout_param {
    dropout_ratio: 0.5
  }
}
layer {
  name: "ip3"
  type: "InnerProduct"
  bottom: "ip2"
  top: "ip3"
  inner_product_param {
    num_output: 11
    weight_filler {
      type: "xavier"
    }
    bias_filler {
      type: "constant"
    }
  }
}
layer {
  name: "drop3"
  type: "Dropout"
  bottom: "ip3"
  top: "ip3"
  dropout_param {
    dropout_ratio: 0.5
  }
}
layer {
  name: "accuracy"
  type: "Accuracy"
  bottom: "ip3"
  bottom: "label"
  top: "accuracy"
  include {
    phase: TEST
  }
}
layer {
  name: "loss"
  type: "SoftmaxWithLoss"
  bottom: "ip3"
  bottom: "label"
  top: "loss"
}
I0526 03:30:48.880177 26891 layer_factory.hpp:77] Creating layer data_hdf5
I0526 03:30:48.880192 26891 net.cpp:106] Creating Layer data_hdf5
I0526 03:30:48.880204 26891 net.cpp:411] data_hdf5 -> data
I0526 03:30:48.880221 26891 net.cpp:411] data_hdf5 -> label
I0526 03:30:48.880237 26891 hdf5_data_layer.cpp:79] Loading list of HDF5 filenames from: /lustre/atlas/proj-shared/hep105/caffe_titan/minosmatch_nukecczdefs_127x50_x_unshifted_me1Bmc.testlist
I0526 03:30:48.881434 26891 hdf5_data_layer.cpp:93] Number of HDF5 files: 3
I0526 03:31:10.202589 26891 net.cpp:150] Setting up data_hdf5
I0526 03:31:10.202757 26891 net.cpp:157] Top shape: 10 1 127 50 (63500)
I0526 03:31:10.202772 26891 net.cpp:157] Top shape: 10 (10)
I0526 03:31:10.202782 26891 net.cpp:165] Memory required for data: 254040
I0526 03:31:10.202795 26891 layer_factory.hpp:77] Creating layer label_data_hdf5_1_split
I0526 03:31:10.202824 26891 net.cpp:106] Creating Layer label_data_hdf5_1_split
I0526 03:31:10.202836 26891 net.cpp:454] label_data_hdf5_1_split <- label
I0526 03:31:10.202850 26891 net.cpp:411] label_data_hdf5_1_split -> label_data_hdf5_1_split_0
I0526 03:31:10.202872 26891 net.cpp:411] label_data_hdf5_1_split -> label_data_hdf5_1_split_1
I0526 03:31:10.202945 26891 net.cpp:150] Setting up label_data_hdf5_1_split
I0526 03:31:10.202960 26891 net.cpp:157] Top shape: 10 (10)
I0526 03:31:10.202971 26891 net.cpp:157] Top shape: 10 (10)
I0526 03:31:10.202980 26891 net.cpp:165] Memory required for data: 254120
I0526 03:31:10.202991 26891 layer_factory.hpp:77] Creating layer conv1
I0526 03:31:10.203011 26891 net.cpp:106] Creating Layer conv1
I0526 03:31:10.203022 26891 net.cpp:454] conv1 <- data
I0526 03:31:10.203037 26891 net.cpp:411] conv1 -> conv1
I0526 03:31:10.204998 26891 net.cpp:150] Setting up conv1
I0526 03:31:10.205023 26891 net.cpp:157] Top shape: 10 12 120 48 (691200)
I0526 03:31:10.205042 26891 net.cpp:165] Memory required for data: 3018920
I0526 03:31:10.205065 26891 layer_factory.hpp:77] Creating layer relu1
I0526 03:31:10.205080 26891 net.cpp:106] Creating Layer relu1
I0526 03:31:10.205090 26891 net.cpp:454] relu1 <- conv1
I0526 03:31:10.205103 26891 net.cpp:397] relu1 -> conv1 (in-place)
I0526 03:31:10.205608 26891 net.cpp:150] Setting up relu1
I0526 03:31:10.205624 26891 net.cpp:157] Top shape: 10 12 120 48 (691200)
I0526 03:31:10.205636 26891 net.cpp:165] Memory required for data: 5783720
I0526 03:31:10.205646 26891 layer_factory.hpp:77] Creating layer pool1
I0526 03:31:10.205662 26891 net.cpp:106] Creating Layer pool1
I0526 03:31:10.205672 26891 net.cpp:454] pool1 <- conv1
I0526 03:31:10.205685 26891 net.cpp:411] pool1 -> pool1
I0526 03:31:10.205760 26891 net.cpp:150] Setting up pool1
I0526 03:31:10.205773 26891 net.cpp:157] Top shape: 10 12 60 48 (345600)
I0526 03:31:10.205783 26891 net.cpp:165] Memory required for data: 7166120
I0526 03:31:10.205793 26891 layer_factory.hpp:77] Creating layer conv2
I0526 03:31:10.205811 26891 net.cpp:106] Creating Layer conv2
I0526 03:31:10.205821 26891 net.cpp:454] conv2 <- pool1
I0526 03:31:10.205835 26891 net.cpp:411] conv2 -> conv2
I0526 03:31:10.207746 26891 net.cpp:150] Setting up conv2
I0526 03:31:10.207768 26891 net.cpp:157] Top shape: 10 20 54 46 (496800)
I0526 03:31:10.207782 26891 net.cpp:165] Memory required for data: 9153320
I0526 03:31:10.207799 26891 layer_factory.hpp:77] Creating layer relu2
I0526 03:31:10.207813 26891 net.cpp:106] Creating Layer relu2
I0526 03:31:10.207823 26891 net.cpp:454] relu2 <- conv2
I0526 03:31:10.207835 26891 net.cpp:397] relu2 -> conv2 (in-place)
I0526 03:31:10.208170 26891 net.cpp:150] Setting up relu2
I0526 03:31:10.208184 26891 net.cpp:157] Top shape: 10 20 54 46 (496800)
I0526 03:31:10.208195 26891 net.cpp:165] Memory required for data: 11140520
I0526 03:31:10.208205 26891 layer_factory.hpp:77] Creating layer pool2
I0526 03:31:10.208220 26891 net.cpp:106] Creating Layer pool2
I0526 03:31:10.208230 26891 net.cpp:454] pool2 <- conv2
I0526 03:31:10.208241 26891 net.cpp:411] pool2 -> pool2
I0526 03:31:10.208315 26891 net.cpp:150] Setting up pool2
I0526 03:31:10.208328 26891 net.cpp:157] Top shape: 10 20 27 46 (248400)
I0526 03:31:10.208338 26891 net.cpp:165] Memory required for data: 12134120
I0526 03:31:10.208348 26891 layer_factory.hpp:77] Creating layer conv3
I0526 03:31:10.208367 26891 net.cpp:106] Creating Layer conv3
I0526 03:31:10.208379 26891 net.cpp:454] conv3 <- pool2
I0526 03:31:10.208392 26891 net.cpp:411] conv3 -> conv3
I0526 03:31:10.210394 26891 net.cpp:150] Setting up conv3
I0526 03:31:10.210418 26891 net.cpp:157] Top shape: 10 28 22 44 (271040)
I0526 03:31:10.210429 26891 net.cpp:165] Memory required for data: 13218280
I0526 03:31:10.210448 26891 layer_factory.hpp:77] Creating layer relu3
I0526 03:31:10.210475 26891 net.cpp:106] Creating Layer relu3
I0526 03:31:10.210485 26891 net.cpp:454] relu3 <- conv3
I0526 03:31:10.210499 26891 net.cpp:397] relu3 -> conv3 (in-place)
I0526 03:31:10.210973 26891 net.cpp:150] Setting up relu3
I0526 03:31:10.210989 26891 net.cpp:157] Top shape: 10 28 22 44 (271040)
I0526 03:31:10.210999 26891 net.cpp:165] Memory required for data: 14302440
I0526 03:31:10.211009 26891 layer_factory.hpp:77] Creating layer pool3
I0526 03:31:10.211024 26891 net.cpp:106] Creating Layer pool3
I0526 03:31:10.211033 26891 net.cpp:454] pool3 <- conv3
I0526 03:31:10.211046 26891 net.cpp:411] pool3 -> pool3
I0526 03:31:10.211117 26891 net.cpp:150] Setting up pool3
I0526 03:31:10.211130 26891 net.cpp:157] Top shape: 10 28 11 44 (135520)
I0526 03:31:10.211140 26891 net.cpp:165] Memory required for data: 14844520
I0526 03:31:10.211150 26891 layer_factory.hpp:77] Creating layer conv4
I0526 03:31:10.211169 26891 net.cpp:106] Creating Layer conv4
I0526 03:31:10.211179 26891 net.cpp:454] conv4 <- pool3
I0526 03:31:10.211194 26891 net.cpp:411] conv4 -> conv4
I0526 03:31:10.213254 26891 net.cpp:150] Setting up conv4
I0526 03:31:10.213277 26891 net.cpp:157] Top shape: 10 36 6 42 (90720)
I0526 03:31:10.213289 26891 net.cpp:165] Memory required for data: 15207400
I0526 03:31:10.213307 26891 layer_factory.hpp:77] Creating layer relu4
I0526 03:31:10.213320 26891 net.cpp:106] Creating Layer relu4
I0526 03:31:10.213330 26891 net.cpp:454] relu4 <- conv4
I0526 03:31:10.213343 26891 net.cpp:397] relu4 -> conv4 (in-place)
I0526 03:31:10.213814 26891 net.cpp:150] Setting up relu4
I0526 03:31:10.213830 26891 net.cpp:157] Top shape: 10 36 6 42 (90720)
I0526 03:31:10.213840 26891 net.cpp:165] Memory required for data: 15570280
I0526 03:31:10.213850 26891 layer_factory.hpp:77] Creating layer pool4
I0526 03:31:10.213863 26891 net.cpp:106] Creating Layer pool4
I0526 03:31:10.213873 26891 net.cpp:454] pool4 <- conv4
I0526 03:31:10.213887 26891 net.cpp:411] pool4 -> pool4
I0526 03:31:10.213958 26891 net.cpp:150] Setting up pool4
I0526 03:31:10.213973 26891 net.cpp:157] Top shape: 10 36 3 42 (45360)
I0526 03:31:10.213981 26891 net.cpp:165] Memory required for data: 15751720
I0526 03:31:10.213990 26891 layer_factory.hpp:77] Creating layer ip1
I0526 03:31:10.214005 26891 net.cpp:106] Creating Layer ip1
I0526 03:31:10.214016 26891 net.cpp:454] ip1 <- pool4
I0526 03:31:10.214031 26891 net.cpp:411] ip1 -> ip1
I0526 03:31:10.229305 26891 net.cpp:150] Setting up ip1
I0526 03:31:10.229333 26891 net.cpp:157] Top shape: 10 196 (1960)
I0526 03:31:10.229344 26891 net.cpp:165] Memory required for data: 15759560
I0526 03:31:10.229367 26891 layer_factory.hpp:77] Creating layer relu5
I0526 03:31:10.229382 26891 net.cpp:106] Creating Layer relu5
I0526 03:31:10.229393 26891 net.cpp:454] relu5 <- ip1
I0526 03:31:10.229408 26891 net.cpp:397] relu5 -> ip1 (in-place)
I0526 03:31:10.229753 26891 net.cpp:150] Setting up relu5
I0526 03:31:10.229766 26891 net.cpp:157] Top shape: 10 196 (1960)
I0526 03:31:10.229776 26891 net.cpp:165] Memory required for data: 15767400
I0526 03:31:10.229786 26891 layer_factory.hpp:77] Creating layer drop1
I0526 03:31:10.229805 26891 net.cpp:106] Creating Layer drop1
I0526 03:31:10.229815 26891 net.cpp:454] drop1 <- ip1
I0526 03:31:10.229827 26891 net.cpp:397] drop1 -> ip1 (in-place)
I0526 03:31:10.229873 26891 net.cpp:150] Setting up drop1
I0526 03:31:10.229887 26891 net.cpp:157] Top shape: 10 196 (1960)
I0526 03:31:10.229897 26891 net.cpp:165] Memory required for data: 15775240
I0526 03:31:10.229905 26891 layer_factory.hpp:77] Creating layer ip2
I0526 03:31:10.229919 26891 net.cpp:106] Creating Layer ip2
I0526 03:31:10.229929 26891 net.cpp:454] ip2 <- ip1
I0526 03:31:10.229943 26891 net.cpp:411] ip2 -> ip2
I0526 03:31:10.230424 26891 net.cpp:150] Setting up ip2
I0526 03:31:10.230438 26891 net.cpp:157] Top shape: 10 98 (980)
I0526 03:31:10.230448 26891 net.cpp:165] Memory required for data: 15779160
I0526 03:31:10.230463 26891 layer_factory.hpp:77] Creating layer relu6
I0526 03:31:10.230489 26891 net.cpp:106] Creating Layer relu6
I0526 03:31:10.230500 26891 net.cpp:454] relu6 <- ip2
I0526 03:31:10.230512 26891 net.cpp:397] relu6 -> ip2 (in-place)
I0526 03:31:10.231058 26891 net.cpp:150] Setting up relu6
I0526 03:31:10.231076 26891 net.cpp:157] Top shape: 10 98 (980)
I0526 03:31:10.231086 26891 net.cpp:165] Memory required for data: 15783080
I0526 03:31:10.231096 26891 layer_factory.hpp:77] Creating layer drop2
I0526 03:31:10.231108 26891 net.cpp:106] Creating Layer drop2
I0526 03:31:10.231118 26891 net.cpp:454] drop2 <- ip2
I0526 03:31:10.231132 26891 net.cpp:397] drop2 -> ip2 (in-place)
I0526 03:31:10.231176 26891 net.cpp:150] Setting up drop2
I0526 03:31:10.231189 26891 net.cpp:157] Top shape: 10 98 (980)
I0526 03:31:10.231199 26891 net.cpp:165] Memory required for data: 15787000
I0526 03:31:10.231209 26891 layer_factory.hpp:77] Creating layer ip3
I0526 03:31:10.231223 26891 net.cpp:106] Creating Layer ip3
I0526 03:31:10.231233 26891 net.cpp:454] ip3 <- ip2
I0526 03:31:10.231247 26891 net.cpp:411] ip3 -> ip3
I0526 03:31:10.231467 26891 net.cpp:150] Setting up ip3
I0526 03:31:10.231480 26891 net.cpp:157] Top shape: 10 11 (110)
I0526 03:31:10.231490 26891 net.cpp:165] Memory required for data: 15787440
I0526 03:31:10.231505 26891 layer_factory.hpp:77] Creating layer drop3
I0526 03:31:10.231518 26891 net.cpp:106] Creating Layer drop3
I0526 03:31:10.231528 26891 net.cpp:454] drop3 <- ip3
I0526 03:31:10.231541 26891 net.cpp:397] drop3 -> ip3 (in-place)
I0526 03:31:10.231582 26891 net.cpp:150] Setting up drop3
I0526 03:31:10.231595 26891 net.cpp:157] Top shape: 10 11 (110)
I0526 03:31:10.231606 26891 net.cpp:165] Memory required for data: 15787880
I0526 03:31:10.231614 26891 layer_factory.hpp:77] Creating layer ip3_drop3_0_split
I0526 03:31:10.231627 26891 net.cpp:106] Creating Layer ip3_drop3_0_split
I0526 03:31:10.231637 26891 net.cpp:454] ip3_drop3_0_split <- ip3
I0526 03:31:10.231652 26891 net.cpp:411] ip3_drop3_0_split -> ip3_drop3_0_split_0
I0526 03:31:10.231667 26891 net.cpp:411] ip3_drop3_0_split -> ip3_drop3_0_split_1
I0526 03:31:10.231740 26891 net.cpp:150] Setting up ip3_drop3_0_split
I0526 03:31:10.231753 26891 net.cpp:157] Top shape: 10 11 (110)
I0526 03:31:10.231765 26891 net.cpp:157] Top shape: 10 11 (110)
I0526 03:31:10.231775 26891 net.cpp:165] Memory required for data: 15788760
I0526 03:31:10.231786 26891 layer_factory.hpp:77] Creating layer accuracy
I0526 03:31:10.231807 26891 net.cpp:106] Creating Layer accuracy
I0526 03:31:10.231817 26891 net.cpp:454] accuracy <- ip3_drop3_0_split_0
I0526 03:31:10.231828 26891 net.cpp:454] accuracy <- label_data_hdf5_1_split_0
I0526 03:31:10.231842 26891 net.cpp:411] accuracy -> accuracy
…
