…
I0526 09:32:49.032598 22046 net.cpp:322] The NetState phase (0) differed from the phase (1) specified by a rule in layer data_hdf5
I0526 09:32:49.032660 22046 net.cpp:322] The NetState phase (0) differed from the phase (1) specified by a rule in layer accuracy
I0526 09:32:49.033036 22046 net.cpp:49] Initializing net from parameters: 
name: "caffe_test_127x50_x_unshifted"
state {
  phase: TRAIN
}
layer {
  name: "data_hdf5"
  type: "HDF5Data"
  top: "data"
  top: "label"
  include {
    phase: TRAIN
  }
  hdf5_data_param {
    source: "/lustre/atlas/proj-shared/hep105/caffe_titan/minosmatch_nukecczdefs_127x50_x_unshifted_me1Bmc.trainlist"
    batch_size: 10
  }
}
layer {
  name: "conv1"
  type: "Convolution"
  bottom: "data"
  top: "conv1"
  convolution_param {
    num_output: 12
    pad: 0
    stride: 1
    weight_filler {
      type: "xavier"
    }
    bias_filler {
      type: "constant"
    }
    kernel_h: 8
    kernel_w: 3
  }
}
layer {
  name: "relu1"
  type: "ReLU"
  bottom: "conv1"
  top: "conv1"
}
layer {
  name: "pool1"
  type: "Pooling"
  bottom: "conv1"
  top: "pool1"
  pooling_param {
    pool: MAX
    kernel_h: 2
    kernel_w: 1
    stride_h: 2
    stride_w: 1
  }
}
layer {
  name: "conv2"
  type: "Convolution"
  bottom: "pool1"
  top: "conv2"
  convolution_param {
    num_output: 20
    pad: 0
    stride: 1
    weight_filler {
      type: "xavier"
    }
    bias_filler {
      type: "constant"
    }
    kernel_h: 7
    kernel_w: 3
  }
}
layer {
  name: "relu2"
  type: "ReLU"
  bottom: "conv2"
  top: "conv2"
}
layer {
  name: "pool2"
  type: "Pooling"
  bottom: "conv2"
  top: "pool2"
  pooling_param {
    pool: MAX
    kernel_h: 2
    kernel_w: 1
    stride_h: 2
    stride_w: 1
  }
}
layer {
  name: "conv3"
  type: "Convolution"
  bottom: "pool2"
  top: "conv3"
  convolution_param {
    num_output: 28
    pad: 0
    stride: 1
    weight_filler {
      type: "xavier"
    }
    bias_filler {
      type: "constant"
    }
    kernel_h: 6
    kernel_w: 3
  }
}
layer {
  name: "relu3"
  type: "ReLU"
  bottom: "conv3"
  top: "conv3"
}
layer {
  name: "pool3"
  type: "Pooling"
  bottom: "conv3"
  top: "pool3"
  pooling_param {
    pool: MAX
    kernel_h: 2
    kernel_w: 1
    stride_h: 2
    stride_w: 1
  }
}
layer {
  name: "conv4"
  type: "Convolution"
  bottom: "pool3"
  top: "conv4"
  convolution_param {
    num_output: 36
    pad: 0
    stride: 1
    weight_filler {
      type: "xavier"
    }
    bias_filler {
      type: "constant"
    }
    kernel_h: 6
    kernel_w: 3
  }
}
layer {
  name: "relu4"
  type: "ReLU"
  bottom: "conv4"
  top: "conv4"
}
layer {
  name: "pool4"
  type: "Pooling"
  bottom: "conv4"
  top: "pool4"
  pooling_param {
    pool: MAX
    kernel_h: 2
    kernel_w: 1
    stride_h: 2
    stride_w: 1
  }
}
layer {
  name: "ip1"
  type: "InnerProduct"
  bottom: "pool4"
  top: "ip1"
  inner_product_param {
    num_output: 196
    weight_filler {
      type: "xavier"
    }
    bias_filler {
      type: "constant"
    }
  }
}
layer {
  name: "relu5"
  type: "ReLU"
  bottom: "ip1"
  top: "ip1"
}
layer {
  name: "drop1"
  type: "Dropout"
  bottom: "ip1"
  top: "ip1"
  dropout_param {
    dropout_ratio: 0.5
  }
}
layer {
  name: "ip2"
  type: "InnerProduct"
  bottom: "ip1"
  top: "ip2"
  inner_product_param {
    num_output: 98
    weight_filler {
      type: "xavier"
    }
    bias_filler {
      type: "constant"
    }
  }
}
layer {
  name: "relu6"
  type: "ReLU"
  bottom: "ip2"
  top: "ip2"
}
layer {
  name: "drop2"
  type: "Dropout"
  bottom: "ip2"
  top: "ip2"
  dropout_param {
    dropout_ratio: 0.5
  }
}
layer {
  name: "ip3"
  type: "InnerProduct"
  bottom: "ip2"
  top: "ip3"
  inner_product_param {
    num_output: 11
    weight_filler {
      type: "xavier"
    }
    bias_filler {
      type: "constant"
    }
  }
}
layer {
  name: "drop3"
  type: "Dropout"
  bottom: "ip3"
  top: "ip3"
  dropout_param {
    dropout_ratio: 0.5
  }
}
layer {
  name: "loss"
  type: "SoftmaxWithLoss"
  bottom: "ip3"
  bottom: "label"
  top: "loss"
}
I0526 09:32:49.033243 22046 layer_factory.hpp:77] Creating layer data_hdf5
I0526 09:32:49.033272 22046 net.cpp:106] Creating Layer data_hdf5
I0526 09:32:49.033296 22046 net.cpp:411] data_hdf5 -> data
I0526 09:32:49.033329 22046 net.cpp:411] data_hdf5 -> label
I0526 09:32:49.033366 22046 hdf5_data_layer.cpp:79] Loading list of HDF5 filenames from: /lustre/atlas/proj-shared/hep105/caffe_titan/minosmatch_nukecczdefs_127x50_x_unshifted_me1Bmc.trainlist
I0526 09:32:49.034657 22046 hdf5_data_layer.cpp:93] Number of HDF5 files: 15
I0526 09:32:49.036859 22046 hdf5.cpp:32] Datatype class: H5T_FLOAT
I0526 09:33:10.592357 22046 hdf5.cpp:35] Datatype class: H5T_INTEGER
I0526 09:33:10.597676 22046 net.cpp:150] Setting up data_hdf5
I0526 09:33:10.597718 22046 net.cpp:157] Top shape: 10 1 127 50 (63500)
I0526 09:33:10.597735 22046 net.cpp:157] Top shape: 10 (10)
I0526 09:33:10.597748 22046 net.cpp:165] Memory required for data: 254040
I0526 09:33:10.597766 22046 layer_factory.hpp:77] Creating layer conv1
I0526 09:33:10.597812 22046 net.cpp:106] Creating Layer conv1
I0526 09:33:10.597826 22046 net.cpp:454] conv1 <- data
I0526 09:33:10.597851 22046 net.cpp:411] conv1 -> conv1
I0526 09:33:10.964447 22046 net.cpp:150] Setting up conv1
I0526 09:33:10.964498 22046 net.cpp:157] Top shape: 10 12 120 48 (691200)
I0526 09:33:10.964520 22046 net.cpp:165] Memory required for data: 3018840
I0526 09:33:10.964551 22046 layer_factory.hpp:77] Creating layer relu1
I0526 09:33:10.964573 22046 net.cpp:106] Creating Layer relu1
I0526 09:33:10.964612 22046 net.cpp:454] relu1 <- conv1
I0526 09:33:10.964628 22046 net.cpp:397] relu1 -> conv1 (in-place)
I0526 09:33:10.965167 22046 net.cpp:150] Setting up relu1
I0526 09:33:10.965190 22046 net.cpp:157] Top shape: 10 12 120 48 (691200)
I0526 09:33:10.965204 22046 net.cpp:165] Memory required for data: 5783640
I0526 09:33:10.965216 22046 layer_factory.hpp:77] Creating layer pool1
I0526 09:33:10.965247 22046 net.cpp:106] Creating Layer pool1
I0526 09:33:10.965261 22046 net.cpp:454] pool1 <- conv1
I0526 09:33:10.965277 22046 net.cpp:411] pool1 -> pool1
I0526 09:33:10.965370 22046 net.cpp:150] Setting up pool1
I0526 09:33:10.965389 22046 net.cpp:157] Top shape: 10 12 60 48 (345600)
I0526 09:33:10.965409 22046 net.cpp:165] Memory required for data: 7166040
I0526 09:33:10.965428 22046 layer_factory.hpp:77] Creating layer conv2
I0526 09:33:10.965452 22046 net.cpp:106] Creating Layer conv2
I0526 09:33:10.965466 22046 net.cpp:454] conv2 <- pool1
I0526 09:33:10.965486 22046 net.cpp:411] conv2 -> conv2
I0526 09:33:10.968196 22046 net.cpp:150] Setting up conv2
I0526 09:33:10.968226 22046 net.cpp:157] Top shape: 10 20 54 46 (496800)
I0526 09:33:10.968240 22046 net.cpp:165] Memory required for data: 9153240
I0526 09:33:10.968267 22046 layer_factory.hpp:77] Creating layer relu2
I0526 09:33:10.968296 22046 net.cpp:106] Creating Layer relu2
I0526 09:33:10.968308 22046 net.cpp:454] relu2 <- conv2
I0526 09:33:10.968324 22046 net.cpp:397] relu2 -> conv2 (in-place)
I0526 09:33:10.968682 22046 net.cpp:150] Setting up relu2
I0526 09:33:10.968701 22046 net.cpp:157] Top shape: 10 20 54 46 (496800)
I0526 09:33:10.968714 22046 net.cpp:165] Memory required for data: 11140440
I0526 09:33:10.968726 22046 layer_factory.hpp:77] Creating layer pool2
I0526 09:33:10.968751 22046 net.cpp:106] Creating Layer pool2
I0526 09:33:10.968765 22046 net.cpp:454] pool2 <- conv2
I0526 09:33:10.968780 22046 net.cpp:411] pool2 -> pool2
I0526 09:33:10.968874 22046 net.cpp:150] Setting up pool2
I0526 09:33:10.968891 22046 net.cpp:157] Top shape: 10 20 27 46 (248400)
I0526 09:33:10.968906 22046 net.cpp:165] Memory required for data: 12134040
I0526 09:33:10.968926 22046 layer_factory.hpp:77] Creating layer conv3
I0526 09:33:10.968947 22046 net.cpp:106] Creating Layer conv3
I0526 09:33:10.968967 22046 net.cpp:454] conv3 <- pool2
I0526 09:33:10.968983 22046 net.cpp:411] conv3 -> conv3
I0526 09:33:10.971108 22046 net.cpp:150] Setting up conv3
I0526 09:33:10.971133 22046 net.cpp:157] Top shape: 10 28 22 44 (271040)
I0526 09:33:10.971154 22046 net.cpp:165] Memory required for data: 13218200
I0526 09:33:10.971176 22046 layer_factory.hpp:77] Creating layer relu3
I0526 09:33:10.971207 22046 net.cpp:106] Creating Layer relu3
I0526 09:33:10.971221 22046 net.cpp:454] relu3 <- conv3
I0526 09:33:10.971237 22046 net.cpp:397] relu3 -> conv3 (in-place)
I0526 09:33:10.971730 22046 net.cpp:150] Setting up relu3
I0526 09:33:10.971755 22046 net.cpp:157] Top shape: 10 28 22 44 (271040)
I0526 09:33:10.971768 22046 net.cpp:165] Memory required for data: 14302360
I0526 09:33:10.971784 22046 layer_factory.hpp:77] Creating layer pool3
I0526 09:33:10.971807 22046 net.cpp:106] Creating Layer pool3
I0526 09:33:10.971822 22046 net.cpp:454] pool3 <- conv3
I0526 09:33:10.971837 22046 net.cpp:411] pool3 -> pool3
I0526 09:33:10.971918 22046 net.cpp:150] Setting up pool3
I0526 09:33:10.971942 22046 net.cpp:157] Top shape: 10 28 11 44 (135520)
I0526 09:33:10.971954 22046 net.cpp:165] Memory required for data: 14844440
I0526 09:33:10.971969 22046 layer_factory.hpp:77] Creating layer conv4
I0526 09:33:10.971997 22046 net.cpp:106] Creating Layer conv4
I0526 09:33:10.972009 22046 net.cpp:454] conv4 <- pool3
I0526 09:33:10.972025 22046 net.cpp:411] conv4 -> conv4
I0526 09:33:10.974750 22046 net.cpp:150] Setting up conv4
I0526 09:33:10.974781 22046 net.cpp:157] Top shape: 10 36 6 42 (90720)
I0526 09:33:10.974797 22046 net.cpp:165] Memory required for data: 15207320
I0526 09:33:10.974815 22046 layer_factory.hpp:77] Creating layer relu4
I0526 09:33:10.974848 22046 net.cpp:106] Creating Layer relu4
I0526 09:33:10.974863 22046 net.cpp:454] relu4 <- conv4
I0526 09:33:10.974879 22046 net.cpp:397] relu4 -> conv4 (in-place)
I0526 09:33:10.975370 22046 net.cpp:150] Setting up relu4
I0526 09:33:10.975394 22046 net.cpp:157] Top shape: 10 36 6 42 (90720)
I0526 09:33:10.975407 22046 net.cpp:165] Memory required for data: 15570200
I0526 09:33:10.975424 22046 layer_factory.hpp:77] Creating layer pool4
I0526 09:33:10.975446 22046 net.cpp:106] Creating Layer pool4
I0526 09:33:10.975461 22046 net.cpp:454] pool4 <- conv4
I0526 09:33:10.975476 22046 net.cpp:411] pool4 -> pool4
I0526 09:33:10.975559 22046 net.cpp:150] Setting up pool4
I0526 09:33:10.975582 22046 net.cpp:157] Top shape: 10 36 3 42 (45360)
I0526 09:33:10.975594 22046 net.cpp:165] Memory required for data: 15751640
I0526 09:33:10.975610 22046 layer_factory.hpp:77] Creating layer ip1
I0526 09:33:10.975636 22046 net.cpp:106] Creating Layer ip1
I0526 09:33:10.975649 22046 net.cpp:454] ip1 <- pool4
I0526 09:33:10.975666 22046 net.cpp:411] ip1 -> ip1
I0526 09:33:10.991062 22046 net.cpp:150] Setting up ip1
I0526 09:33:10.991118 22046 net.cpp:157] Top shape: 10 196 (1960)
I0526 09:33:10.991132 22046 net.cpp:165] Memory required for data: 15759480
I0526 09:33:10.991174 22046 layer_factory.hpp:77] Creating layer relu5
I0526 09:33:10.991192 22046 net.cpp:106] Creating Layer relu5
I0526 09:33:10.991205 22046 net.cpp:454] relu5 <- ip1
I0526 09:33:10.991222 22046 net.cpp:397] relu5 -> ip1 (in-place)
I0526 09:33:10.991590 22046 net.cpp:150] Setting up relu5
I0526 09:33:10.991611 22046 net.cpp:157] Top shape: 10 196 (1960)
I0526 09:33:10.991624 22046 net.cpp:165] Memory required for data: 15767320
I0526 09:33:10.991636 22046 layer_factory.hpp:77] Creating layer drop1
I0526 09:33:10.991674 22046 net.cpp:106] Creating Layer drop1
I0526 09:33:10.991688 22046 net.cpp:454] drop1 <- ip1
I0526 09:33:10.991710 22046 net.cpp:397] drop1 -> ip1 (in-place)
I0526 09:33:10.991783 22046 net.cpp:150] Setting up drop1
I0526 09:33:10.991801 22046 net.cpp:157] Top shape: 10 196 (1960)
I0526 09:33:10.991812 22046 net.cpp:165] Memory required for data: 15775160
I0526 09:33:10.991827 22046 layer_factory.hpp:77] Creating layer ip2
I0526 09:33:10.991848 22046 net.cpp:106] Creating Layer ip2
I0526 09:33:10.991861 22046 net.cpp:454] ip2 <- ip1
I0526 09:33:10.991884 22046 net.cpp:411] ip2 -> ip2
I0526 09:33:10.992377 22046 net.cpp:150] Setting up ip2
I0526 09:33:10.992396 22046 net.cpp:157] Top shape: 10 98 (980)
I0526 09:33:10.992409 22046 net.cpp:165] Memory required for data: 15779080
I0526 09:33:10.992430 22046 layer_factory.hpp:77] Creating layer relu6
I0526 09:33:10.992451 22046 net.cpp:106] Creating Layer relu6
I0526 09:33:10.992465 22046 net.cpp:454] relu6 <- ip2
I0526 09:33:10.992480 22046 net.cpp:397] relu6 -> ip2 (in-place)
I0526 09:33:10.993029 22046 net.cpp:150] Setting up relu6
I0526 09:33:10.993052 22046 net.cpp:157] Top shape: 10 98 (980)
I0526 09:33:10.993065 22046 net.cpp:165] Memory required for data: 15783000
I0526 09:33:10.993082 22046 layer_factory.hpp:77] Creating layer drop2
I0526 09:33:10.993104 22046 net.cpp:106] Creating Layer drop2
I0526 09:33:10.993118 22046 net.cpp:454] drop2 <- ip2
I0526 09:33:10.993134 22046 net.cpp:397] drop2 -> ip2 (in-place)
I0526 09:33:10.993191 22046 net.cpp:150] Setting up drop2
I0526 09:33:10.993207 22046 net.cpp:157] Top shape: 10 98 (980)
I0526 09:33:10.993219 22046 net.cpp:165] Memory required for data: 15786920
I0526 09:33:10.993234 22046 layer_factory.hpp:77] Creating layer ip3
I0526 09:33:10.993250 22046 net.cpp:106] Creating Layer ip3
I0526 09:33:10.993266 22046 net.cpp:454] ip3 <- ip2
I0526 09:33:10.993288 22046 net.cpp:411] ip3 -> ip3
I0526 09:33:10.993515 22046 net.cpp:150] Setting up ip3
I0526 09:33:10.993533 22046 net.cpp:157] Top shape: 10 11 (110)
I0526 09:33:10.993546 22046 net.cpp:165] Memory required for data: 15787360
I0526 09:33:10.993566 22046 layer_factory.hpp:77] Creating layer drop3
I0526 09:33:10.993588 22046 net.cpp:106] Creating Layer drop3
I0526 09:33:10.993600 22046 net.cpp:454] drop3 <- ip3
I0526 09:33:10.993616 22046 net.cpp:397] drop3 -> ip3 (in-place)
I0526 09:33:10.993662 22046 net.cpp:150] Setting up drop3
I0526 09:33:10.993685 22046 net.cpp:157] Top shape: 10 11 (110)
I0526 09:33:10.993698 22046 net.cpp:165] Memory required for data: 15787800
I0526 09:33:10.993719 22046 layer_factory.hpp:77] Creating layer loss
I0526 09:33:10.993741 22046 net.cpp:106] Creating Layer loss
I0526 09:33:10.993755 22046 net.cpp:454] loss <- ip3
I0526 09:33:10.993775 22046 net.cpp:454] loss <- label
I0526 09:33:10.993791 22046 net.cpp:411] loss -> loss
I0526 09:33:10.993811 22046 layer_factory.hpp:77] Creating layer loss
…
I0526 09:33:10.996610 22046 solver.cpp:181] Creating test net (#0) specified by net file: /lustre/atlas/proj-shared/hep105/caffe_titan/caffe_workflow/logs_bslr/bs_10_lr_0.0045_2016-05-20T15.48.52.465324.prototxt
I0526 09:33:10.996690 22046 net.cpp:322] The NetState phase (1) differed from the phase (0) specified by a rule in layer data_hdf5
I0526 09:33:10.997066 22046 net.cpp:49] Initializing net from parameters: 
name: "caffe_test_127x50_x_unshifted"
state {
  phase: TEST
}
layer {
  name: "data_hdf5"
  type: "HDF5Data"
  top: "data"
  top: "label"
  include {
    phase: TEST
  }
  hdf5_data_param {
    source: "/lustre/atlas/proj-shared/hep105/caffe_titan/minosmatch_nukecczdefs_127x50_x_unshifted_me1Bmc.testlist"
    batch_size: 10
  }
}
layer {
  name: "conv1"
  type: "Convolution"
  bottom: "data"
  top: "conv1"
  convolution_param {
    num_output: 12
    pad: 0
    stride: 1
    weight_filler {
      type: "xavier"
    }
    bias_filler {
      type: "constant"
    }
    kernel_h: 8
    kernel_w: 3
  }
}
layer {
  name: "relu1"
  type: "ReLU"
  bottom: "conv1"
  top: "conv1"
}
layer {
  name: "pool1"
  type: "Pooling"
  bottom: "conv1"
  top: "pool1"
  pooling_param {
    pool: MAX
    kernel_h: 2
    kernel_w: 1
    stride_h: 2
    stride_w: 1
  }
}
layer {
  name: "conv2"
  type: "Convolution"
  bottom: "pool1"
  top: "conv2"
  convolution_param {
    num_output: 20
    pad: 0
    stride: 1
    weight_filler {
      type: "xavier"
    }
    bias_filler {
      type: "constant"
    }
    kernel_h: 7
    kernel_w: 3
  }
}
layer {
  name: "relu2"
  type: "ReLU"
  bottom: "conv2"
  top: "conv2"
}
layer {
  name: "pool2"
  type: "Pooling"
  bottom: "conv2"
  top: "pool2"
  pooling_param {
    pool: MAX
    kernel_h: 2
    kernel_w: 1
    stride_h: 2
    stride_w: 1
  }
}
layer {
  name: "conv3"
  type: "Convolution"
  bottom: "pool2"
  top: "conv3"
  convolution_param {
    num_output: 28
    pad: 0
    stride: 1
    weight_filler {
      type: "xavier"
    }
    bias_filler {
      type: "constant"
    }
    kernel_h: 6
    kernel_w: 3
  }
}
layer {
  name: "relu3"
  type: "ReLU"
  bottom: "conv3"
  top: "conv3"
}
layer {
  name: "pool3"
  type: "Pooling"
  bottom: "conv3"
  top: "pool3"
  pooling_param {
    pool: MAX
    kernel_h: 2
    kernel_w: 1
    stride_h: 2
    stride_w: 1
  }
}
layer {
  name: "conv4"
  type: "Convolution"
  bottom: "pool3"
  top: "conv4"
  convolution_param {
    num_output: 36
    pad: 0
    stride: 1
    weight_filler {
      type: "xavier"
    }
    bias_filler {
      type: "constant"
    }
    kernel_h: 6
    kernel_w: 3
  }
}
layer {
  name: "relu4"
  type: "ReLU"
  bottom: "conv4"
  top: "conv4"
}
layer {
  name: "pool4"
  type: "Pooling"
  bottom: "conv4"
  top: "pool4"
  pooling_param {
    pool: MAX
    kernel_h: 2
    kernel_w: 1
    stride_h: 2
    stride_w: 1
  }
}
layer {
  name: "ip1"
  type: "InnerProduct"
  bottom: "pool4"
  top: "ip1"
  inner_product_param {
    num_output: 196
    weight_filler {
      type: "xavier"
    }
    bias_filler {
      type: "constant"
    }
  }
}
layer {
  name: "relu5"
  type: "ReLU"
  bottom: "ip1"
  top: "ip1"
}
layer {
  name: "drop1"
  type: "Dropout"
  bottom: "ip1"
  top: "ip1"
  dropout_param {
    dropout_ratio: 0.5
  }
}
layer {
  name: "ip2"
  type: "InnerProduct"
  bottom: "ip1"
  top: "ip2"
  inner_product_param {
    num_output: 98
    weight_filler {
      type: "xavier"
    }
    bias_filler {
      type: "constant"
    }
  }
}
layer {
  name: "relu6"
  type: "ReLU"
  bottom: "ip2"
  top: "ip2"
}
layer {
  name: "drop2"
  type: "Dropout"
  bottom: "ip2"
  top: "ip2"
  dropout_param {
    dropout_ratio: 0.5
  }
}
layer {
  name: "ip3"
  type: "InnerProduct"
  bottom: "ip2"
  top: "ip3"
  inner_product_param {
    num_output: 11
    weight_filler {
      type: "xavier"
    }
    bias_filler {
      type: "constant"
    }
  }
}
layer {
  name: "drop3"
  type: "Dropout"
  bottom: "ip3"
  top: "ip3"
  dropout_param {
    dropout_ratio: 0.5
  }
}
layer {
  name: "accuracy"
  type: "Accuracy"
  bottom: "ip3"
  bottom: "label"
  top: "accuracy"
  include {
    phase: TEST
  }
}
layer {
  name: "loss"
  type: "SoftmaxWithLoss"
  bottom: "ip3"
  bottom: "label"
  top: "loss"
}
I0526 09:33:10.997292 22046 layer_factory.hpp:77] Creating layer data_hdf5
I0526 09:33:10.997311 22046 net.cpp:106] Creating Layer data_hdf5
I0526 09:33:10.997330 22046 net.cpp:411] data_hdf5 -> data
I0526 09:33:10.997349 22046 net.cpp:411] data_hdf5 -> label
I0526 09:33:10.997371 22046 hdf5_data_layer.cpp:79] Loading list of HDF5 filenames from: /lustre/atlas/proj-shared/hep105/caffe_titan/minosmatch_nukecczdefs_127x50_x_unshifted_me1Bmc.testlist
I0526 09:33:10.998606 22046 hdf5_data_layer.cpp:93] Number of HDF5 files: 3
I0526 09:33:32.326251 22046 net.cpp:150] Setting up data_hdf5
I0526 09:33:32.326421 22046 net.cpp:157] Top shape: 10 1 127 50 (63500)
I0526 09:33:32.326441 22046 net.cpp:157] Top shape: 10 (10)
I0526 09:33:32.326453 22046 net.cpp:165] Memory required for data: 254040
I0526 09:33:32.326468 22046 layer_factory.hpp:77] Creating layer label_data_hdf5_1_split
I0526 09:33:32.326503 22046 net.cpp:106] Creating Layer label_data_hdf5_1_split
I0526 09:33:32.326535 22046 net.cpp:454] label_data_hdf5_1_split <- label
I0526 09:33:32.326552 22046 net.cpp:411] label_data_hdf5_1_split -> label_data_hdf5_1_split_0
I0526 09:33:32.326575 22046 net.cpp:411] label_data_hdf5_1_split -> label_data_hdf5_1_split_1
I0526 09:33:32.326663 22046 net.cpp:150] Setting up label_data_hdf5_1_split
I0526 09:33:32.326679 22046 net.cpp:157] Top shape: 10 (10)
I0526 09:33:32.326694 22046 net.cpp:157] Top shape: 10 (10)
I0526 09:33:32.326707 22046 net.cpp:165] Memory required for data: 254120
I0526 09:33:32.326719 22046 layer_factory.hpp:77] Creating layer conv1
I0526 09:33:32.326751 22046 net.cpp:106] Creating Layer conv1
I0526 09:33:32.326766 22046 net.cpp:454] conv1 <- data
I0526 09:33:32.326782 22046 net.cpp:411] conv1 -> conv1
I0526 09:33:32.328788 22046 net.cpp:150] Setting up conv1
I0526 09:33:32.328814 22046 net.cpp:157] Top shape: 10 12 120 48 (691200)
I0526 09:33:32.328835 22046 net.cpp:165] Memory required for data: 3018920
I0526 09:33:32.328860 22046 layer_factory.hpp:77] Creating layer relu1
I0526 09:33:32.328889 22046 net.cpp:106] Creating Layer relu1
I0526 09:33:32.328903 22046 net.cpp:454] relu1 <- conv1
I0526 09:33:32.328919 22046 net.cpp:397] relu1 -> conv1 (in-place)
I0526 09:33:32.329447 22046 net.cpp:150] Setting up relu1
I0526 09:33:32.329469 22046 net.cpp:157] Top shape: 10 12 120 48 (691200)
I0526 09:33:32.329483 22046 net.cpp:165] Memory required for data: 5783720
I0526 09:33:32.329495 22046 layer_factory.hpp:77] Creating layer pool1
I0526 09:33:32.329524 22046 net.cpp:106] Creating Layer pool1
I0526 09:33:32.329538 22046 net.cpp:454] pool1 <- conv1
I0526 09:33:32.329561 22046 net.cpp:411] pool1 -> pool1
I0526 09:33:32.329660 22046 net.cpp:150] Setting up pool1
I0526 09:33:32.329677 22046 net.cpp:157] Top shape: 10 12 60 48 (345600)
I0526 09:33:32.329690 22046 net.cpp:165] Memory required for data: 7166120
I0526 09:33:32.329702 22046 layer_factory.hpp:77] Creating layer conv2
I0526 09:33:32.329730 22046 net.cpp:106] Creating Layer conv2
I0526 09:33:32.329744 22046 net.cpp:454] conv2 <- pool1
I0526 09:33:32.329761 22046 net.cpp:411] conv2 -> conv2
I0526 09:33:32.331710 22046 net.cpp:150] Setting up conv2
I0526 09:33:32.331734 22046 net.cpp:157] Top shape: 10 20 54 46 (496800)
I0526 09:33:32.331755 22046 net.cpp:165] Memory required for data: 9153320
I0526 09:33:32.331776 22046 layer_factory.hpp:77] Creating layer relu2
I0526 09:33:32.331796 22046 net.cpp:106] Creating Layer relu2
I0526 09:33:32.331817 22046 net.cpp:454] relu2 <- conv2
I0526 09:33:32.331833 22046 net.cpp:397] relu2 -> conv2 (in-place)
I0526 09:33:32.332182 22046 net.cpp:150] Setting up relu2
I0526 09:33:32.332202 22046 net.cpp:157] Top shape: 10 20 54 46 (496800)
I0526 09:33:32.332216 22046 net.cpp:165] Memory required for data: 11140520
I0526 09:33:32.332231 22046 layer_factory.hpp:77] Creating layer pool2
I0526 09:33:32.332252 22046 net.cpp:106] Creating Layer pool2
I0526 09:33:32.332267 22046 net.cpp:454] pool2 <- conv2
I0526 09:33:32.332281 22046 net.cpp:411] pool2 -> pool2
I0526 09:33:32.332376 22046 net.cpp:150] Setting up pool2
I0526 09:33:32.332391 22046 net.cpp:157] Top shape: 10 20 27 46 (248400)
I0526 09:33:32.332404 22046 net.cpp:165] Memory required for data: 12134120
I0526 09:33:32.332419 22046 layer_factory.hpp:77] Creating layer conv3
I0526 09:33:32.332442 22046 net.cpp:106] Creating Layer conv3
I0526 09:33:32.332463 22046 net.cpp:454] conv3 <- pool2
I0526 09:33:32.332479 22046 net.cpp:411] conv3 -> conv3
I0526 09:33:32.334601 22046 net.cpp:150] Setting up conv3
I0526 09:33:32.334627 22046 net.cpp:157] Top shape: 10 28 22 44 (271040)
I0526 09:33:32.334646 22046 net.cpp:165] Memory required for data: 13218280
I0526 09:33:32.334669 22046 layer_factory.hpp:77] Creating layer relu3
I0526 09:33:32.334710 22046 net.cpp:106] Creating Layer relu3
I0526 09:33:32.334724 22046 net.cpp:454] relu3 <- conv3
I0526 09:33:32.334740 22046 net.cpp:397] relu3 -> conv3 (in-place)
I0526 09:33:32.335242 22046 net.cpp:150] Setting up relu3
I0526 09:33:32.335265 22046 net.cpp:157] Top shape: 10 28 22 44 (271040)
I0526 09:33:32.335278 22046 net.cpp:165] Memory required for data: 14302440
I0526 09:33:32.335294 22046 layer_factory.hpp:77] Creating layer pool3
I0526 09:33:32.335319 22046 net.cpp:106] Creating Layer pool3
I0526 09:33:32.335332 22046 net.cpp:454] pool3 <- conv3
I0526 09:33:32.335350 22046 net.cpp:411] pool3 -> pool3
I0526 09:33:32.335434 22046 net.cpp:150] Setting up pool3
I0526 09:33:32.335451 22046 net.cpp:157] Top shape: 10 28 11 44 (135520)
I0526 09:33:32.335466 22046 net.cpp:165] Memory required for data: 14844520
I0526 09:33:32.335479 22046 layer_factory.hpp:77] Creating layer conv4
I0526 09:33:32.335506 22046 net.cpp:106] Creating Layer conv4
I0526 09:33:32.335520 22046 net.cpp:454] conv4 <- pool3
I0526 09:33:32.335536 22046 net.cpp:411] conv4 -> conv4
I0526 09:33:32.337631 22046 net.cpp:150] Setting up conv4
I0526 09:33:32.337656 22046 net.cpp:157] Top shape: 10 36 6 42 (90720)
I0526 09:33:32.337677 22046 net.cpp:165] Memory required for data: 15207400
I0526 09:33:32.337695 22046 layer_factory.hpp:77] Creating layer relu4
I0526 09:33:32.337715 22046 net.cpp:106] Creating Layer relu4
I0526 09:33:32.337736 22046 net.cpp:454] relu4 <- conv4
I0526 09:33:32.337754 22046 net.cpp:397] relu4 -> conv4 (in-place)
I0526 09:33:32.338239 22046 net.cpp:150] Setting up relu4
I0526 09:33:32.338263 22046 net.cpp:157] Top shape: 10 36 6 42 (90720)
I0526 09:33:32.338276 22046 net.cpp:165] Memory required for data: 15570280
I0526 09:33:32.338292 22046 layer_factory.hpp:77] Creating layer pool4
I0526 09:33:32.338317 22046 net.cpp:106] Creating Layer pool4
I0526 09:33:32.338330 22046 net.cpp:454] pool4 <- conv4
I0526 09:33:32.338347 22046 net.cpp:411] pool4 -> pool4
I0526 09:33:32.338433 22046 net.cpp:150] Setting up pool4
I0526 09:33:32.338449 22046 net.cpp:157] Top shape: 10 36 3 42 (45360)
I0526 09:33:32.338464 22046 net.cpp:165] Memory required for data: 15751720
I0526 09:33:32.338476 22046 layer_factory.hpp:77] Creating layer ip1
I0526 09:33:32.338500 22046 net.cpp:106] Creating Layer ip1
I0526 09:33:32.338513 22046 net.cpp:454] ip1 <- pool4
I0526 09:33:32.338536 22046 net.cpp:411] ip1 -> ip1
I0526 09:33:32.353876 22046 net.cpp:150] Setting up ip1
I0526 09:33:32.353909 22046 net.cpp:157] Top shape: 10 196 (1960)
I0526 09:33:32.353930 22046 net.cpp:165] Memory required for data: 15759560
I0526 09:33:32.353956 22046 layer_factory.hpp:77] Creating layer relu5
I0526 09:33:32.353979 22046 net.cpp:106] Creating Layer relu5
I0526 09:33:32.354003 22046 net.cpp:454] relu5 <- ip1
I0526 09:33:32.354019 22046 net.cpp:397] relu5 -> ip1 (in-place)
I0526 09:33:32.354387 22046 net.cpp:150] Setting up relu5
I0526 09:33:32.354406 22046 net.cpp:157] Top shape: 10 196 (1960)
I0526 09:33:32.354420 22046 net.cpp:165] Memory required for data: 15767400
I0526 09:33:32.354435 22046 layer_factory.hpp:77] Creating layer drop1
I0526 09:33:32.354465 22046 net.cpp:106] Creating Layer drop1
I0526 09:33:32.354478 22046 net.cpp:454] drop1 <- ip1
I0526 09:33:32.354495 22046 net.cpp:397] drop1 -> ip1 (in-place)
I0526 09:33:32.354552 22046 net.cpp:150] Setting up drop1
I0526 09:33:32.354568 22046 net.cpp:157] Top shape: 10 196 (1960)
I0526 09:33:32.354581 22046 net.cpp:165] Memory required for data: 15775240
I0526 09:33:32.354593 22046 layer_factory.hpp:77] Creating layer ip2
I0526 09:33:32.354614 22046 net.cpp:106] Creating Layer ip2
I0526 09:33:32.354626 22046 net.cpp:454] ip2 <- ip1
I0526 09:33:32.354650 22046 net.cpp:411] ip2 -> ip2
I0526 09:33:32.355147 22046 net.cpp:150] Setting up ip2
I0526 09:33:32.355166 22046 net.cpp:157] Top shape: 10 98 (980)
I0526 09:33:32.355178 22046 net.cpp:165] Memory required for data: 15779160
I0526 09:33:32.355200 22046 layer_factory.hpp:77] Creating layer relu6
I0526 09:33:32.355234 22046 net.cpp:106] Creating Layer relu6
I0526 09:33:32.355247 22046 net.cpp:454] relu6 <- ip2
I0526 09:33:32.355263 22046 net.cpp:397] relu6 -> ip2 (in-place)
I0526 09:33:32.355836 22046 net.cpp:150] Setting up relu6
I0526 09:33:32.355859 22046 net.cpp:157] Top shape: 10 98 (980)
I0526 09:33:32.355873 22046 net.cpp:165] Memory required for data: 15783080
I0526 09:33:32.355886 22046 layer_factory.hpp:77] Creating layer drop2
I0526 09:33:32.355906 22046 net.cpp:106] Creating Layer drop2
I0526 09:33:32.355927 22046 net.cpp:454] drop2 <- ip2
I0526 09:33:32.355944 22046 net.cpp:397] drop2 -> ip2 (in-place)
I0526 09:33:32.355998 22046 net.cpp:150] Setting up drop2
I0526 09:33:32.356020 22046 net.cpp:157] Top shape: 10 98 (980)
I0526 09:33:32.356034 22046 net.cpp:165] Memory required for data: 15787000
I0526 09:33:32.356045 22046 layer_factory.hpp:77] Creating layer ip3
I0526 09:33:32.356072 22046 net.cpp:106] Creating Layer ip3
I0526 09:33:32.356086 22046 net.cpp:454] ip3 <- ip2
I0526 09:33:32.356104 22046 net.cpp:411] ip3 -> ip3
I0526 09:33:32.356346 22046 net.cpp:150] Setting up ip3
I0526 09:33:32.356365 22046 net.cpp:157] Top shape: 10 11 (110)
I0526 09:33:32.356379 22046 net.cpp:165] Memory required for data: 15787440
I0526 09:33:32.356400 22046 layer_factory.hpp:77] Creating layer drop3
I0526 09:33:32.356415 22046 net.cpp:106] Creating Layer drop3
I0526 09:33:32.356434 22046 net.cpp:454] drop3 <- ip3
I0526 09:33:32.356451 22046 net.cpp:397] drop3 -> ip3 (in-place)
I0526 09:33:32.356498 22046 net.cpp:150] Setting up drop3
I0526 09:33:32.356515 22046 net.cpp:157] Top shape: 10 11 (110)
I0526 09:33:32.356528 22046 net.cpp:165] Memory required for data: 15787880
I0526 09:33:32.356547 22046 layer_factory.hpp:77] Creating layer ip3_drop3_0_split
I0526 09:33:32.356564 22046 net.cpp:106] Creating Layer ip3_drop3_0_split
I0526 09:33:32.356578 22046 net.cpp:454] ip3_drop3_0_split <- ip3
I0526 09:33:32.356595 22046 net.cpp:411] ip3_drop3_0_split -> ip3_drop3_0_split_0
I0526 09:33:32.356612 22046 net.cpp:411] ip3_drop3_0_split -> ip3_drop3_0_split_1
I0526 09:33:32.356699 22046 net.cpp:150] Setting up ip3_drop3_0_split
I0526 09:33:32.356727 22046 net.cpp:157] Top shape: 10 11 (110)
I0526 09:33:32.356744 22046 net.cpp:157] Top shape: 10 11 (110)
I0526 09:33:32.356757 22046 net.cpp:165] Memory required for data: 15788760
I0526 09:33:32.356770 22046 layer_factory.hpp:77] Creating layer accuracy
I0526 09:33:32.356799 22046 net.cpp:106] Creating Layer accuracy
I0526 09:33:32.356813 22046 net.cpp:454] accuracy <- ip3_drop3_0_split_0
I0526 09:33:32.356827 22046 net.cpp:454] accuracy <- label_data_hdf5_1_split_0
I0526 09:33:32.356847 22046 net.cpp:411] accuracy -> accuracy
…
