…
I0520 16:12:42.378167 24275 net.cpp:322] The NetState phase (0) differed from the phase (1) specified by a rule in layer data_hdf5
I0520 16:12:42.378227 24275 net.cpp:322] The NetState phase (0) differed from the phase (1) specified by a rule in layer accuracy
I0520 16:12:42.378576 24275 net.cpp:49] Initializing net from parameters: 
name: "caffe_test_127x50_x_unshifted"
state {
  phase: TRAIN
}
layer {
  name: "data_hdf5"
  type: "HDF5Data"
  top: "data"
  top: "label"
  include {
    phase: TRAIN
  }
  hdf5_data_param {
    source: "/lustre/atlas/proj-shared/hep105/caffe_titan/minosmatch_nukecczdefs_127x50_x_unshifted_me1Bmc.trainlist"
    batch_size: 10
  }
}
layer {
  name: "conv1"
  type: "Convolution"
  bottom: "data"
  top: "conv1"
  convolution_param {
    num_output: 12
    pad: 0
    stride: 1
    weight_filler {
      type: "xavier"
    }
    bias_filler {
      type: "constant"
    }
    kernel_h: 8
    kernel_w: 3
  }
}
layer {
  name: "relu1"
  type: "ReLU"
  bottom: "conv1"
  top: "conv1"
}
layer {
  name: "pool1"
  type: "Pooling"
  bottom: "conv1"
  top: "pool1"
  pooling_param {
    pool: MAX
    kernel_h: 2
    kernel_w: 1
    stride_h: 2
    stride_w: 1
  }
}
layer {
  name: "conv2"
  type: "Convolution"
  bottom: "pool1"
  top: "conv2"
  convolution_param {
    num_output: 20
    pad: 0
    stride: 1
    weight_filler {
      type: "xavier"
    }
    bias_filler {
      type: "constant"
    }
    kernel_h: 7
    kernel_w: 3
  }
}
layer {
  name: "relu2"
  type: "ReLU"
  bottom: "conv2"
  top: "conv2"
}
layer {
  name: "pool2"
  type: "Pooling"
  bottom: "conv2"
  top: "pool2"
  pooling_param {
    pool: MAX
    kernel_h: 2
    kernel_w: 1
    stride_h: 2
    stride_w: 1
  }
}
layer {
  name: "conv3"
  type: "Convolution"
  bottom: "pool2"
  top: "conv3"
  convolution_param {
    num_output: 28
    pad: 0
    stride: 1
    weight_filler {
      type: "xavier"
    }
    bias_filler {
      type: "constant"
    }
    kernel_h: 6
    kernel_w: 3
  }
}
layer {
  name: "relu3"
  type: "ReLU"
  bottom: "conv3"
  top: "conv3"
}
layer {
  name: "pool3"
  type: "Pooling"
  bottom: "conv3"
  top: "pool3"
  pooling_param {
    pool: MAX
    kernel_h: 2
    kernel_w: 1
    stride_h: 2
    stride_w: 1
  }
}
layer {
  name: "conv4"
  type: "Convolution"
  bottom: "pool3"
  top: "conv4"
  convolution_param {
    num_output: 36
    pad: 0
    stride: 1
    weight_filler {
      type: "xavier"
    }
    bias_filler {
      type: "constant"
    }
    kernel_h: 6
    kernel_w: 3
  }
}
layer {
  name: "relu4"
  type: "ReLU"
  bottom: "conv4"
  top: "conv4"
}
layer {
  name: "pool4"
  type: "Pooling"
  bottom: "conv4"
  top: "pool4"
  pooling_param {
    pool: MAX
    kernel_h: 2
    kernel_w: 1
    stride_h: 2
    stride_w: 1
  }
}
layer {
  name: "ip1"
  type: "InnerProduct"
  bottom: "pool4"
  top: "ip1"
  inner_product_param {
    num_output: 196
    weight_filler {
      type: "xavier"
    }
    bias_filler {
      type: "constant"
    }
  }
}
layer {
  name: "relu5"
  type: "ReLU"
  bottom: "ip1"
  top: "ip1"
}
layer {
  name: "drop1"
  type: "Dropout"
  bottom: "ip1"
  top: "ip1"
  dropout_param {
    dropout_ratio: 0.5
  }
}
layer {
  name: "ip2"
  type: "InnerProduct"
  bottom: "ip1"
  top: "ip2"
  inner_product_param {
    num_output: 98
    weight_filler {
      type: "xavier"
    }
    bias_filler {
      type: "constant"
    }
  }
}
layer {
  name: "relu6"
  type: "ReLU"
  bottom: "ip2"
  top: "ip2"
}
layer {
  name: "drop2"
  type: "Dropout"
  bottom: "ip2"
  top: "ip2"
  dropout_param {
    dropout_ratio: 0.5
  }
}
layer {
  name: "ip3"
  type: "InnerProduct"
  bottom: "ip2"
  top: "ip3"
  inner_product_param {
    num_output: 11
    weight_filler {
      type: "xavier"
    }
    bias_filler {
      type: "constant"
    }
  }
}
layer {
  name: "drop3"
  type: "Dropout"
  bottom: "ip3"
  top: "ip3"
  dropout_param {
    dropout_ratio: 0.5
  }
}
layer {
  name: "loss"
  type: "SoftmaxWithLoss"
  bottom: "ip3"
  bottom: "label"
  top: "loss"
}
I0520 16:12:42.378757 24275 layer_factory.hpp:77] Creating layer data_hdf5
I0520 16:12:42.378782 24275 net.cpp:106] Creating Layer data_hdf5
I0520 16:12:42.378796 24275 net.cpp:411] data_hdf5 -> data
I0520 16:12:42.378831 24275 net.cpp:411] data_hdf5 -> label
I0520 16:12:42.378864 24275 hdf5_data_layer.cpp:79] Loading list of HDF5 filenames from: /lustre/atlas/proj-shared/hep105/caffe_titan/minosmatch_nukecczdefs_127x50_x_unshifted_me1Bmc.trainlist
I0520 16:12:42.391041 24275 hdf5_data_layer.cpp:93] Number of HDF5 files: 15
I0520 16:12:42.403092 24275 hdf5.cpp:32] Datatype class: H5T_FLOAT
I0520 16:13:03.962020 24275 hdf5.cpp:35] Datatype class: H5T_INTEGER
I0520 16:13:03.967049 24275 net.cpp:150] Setting up data_hdf5
I0520 16:13:03.967089 24275 net.cpp:157] Top shape: 10 1 127 50 (63500)
I0520 16:13:03.967104 24275 net.cpp:157] Top shape: 10 (10)
I0520 16:13:03.967118 24275 net.cpp:165] Memory required for data: 254040
I0520 16:13:03.967130 24275 layer_factory.hpp:77] Creating layer conv1
I0520 16:13:03.967165 24275 net.cpp:106] Creating Layer conv1
I0520 16:13:03.967176 24275 net.cpp:454] conv1 <- data
I0520 16:13:03.967196 24275 net.cpp:411] conv1 -> conv1
I0520 16:13:05.423094 24275 net.cpp:150] Setting up conv1
I0520 16:13:05.423140 24275 net.cpp:157] Top shape: 10 12 120 48 (691200)
I0520 16:13:05.423151 24275 net.cpp:165] Memory required for data: 3018840
I0520 16:13:05.423179 24275 layer_factory.hpp:77] Creating layer relu1
I0520 16:13:05.423200 24275 net.cpp:106] Creating Layer relu1
I0520 16:13:05.423212 24275 net.cpp:454] relu1 <- conv1
I0520 16:13:05.423225 24275 net.cpp:397] relu1 -> conv1 (in-place)
I0520 16:13:05.423756 24275 net.cpp:150] Setting up relu1
I0520 16:13:05.423774 24275 net.cpp:157] Top shape: 10 12 120 48 (691200)
I0520 16:13:05.423784 24275 net.cpp:165] Memory required for data: 5783640
I0520 16:13:05.423795 24275 layer_factory.hpp:77] Creating layer pool1
I0520 16:13:05.423813 24275 net.cpp:106] Creating Layer pool1
I0520 16:13:05.423823 24275 net.cpp:454] pool1 <- conv1
I0520 16:13:05.423837 24275 net.cpp:411] pool1 -> pool1
I0520 16:13:05.423918 24275 net.cpp:150] Setting up pool1
I0520 16:13:05.423931 24275 net.cpp:157] Top shape: 10 12 60 48 (345600)
I0520 16:13:05.423943 24275 net.cpp:165] Memory required for data: 7166040
I0520 16:13:05.423952 24275 layer_factory.hpp:77] Creating layer conv2
I0520 16:13:05.423974 24275 net.cpp:106] Creating Layer conv2
I0520 16:13:05.423985 24275 net.cpp:454] conv2 <- pool1
I0520 16:13:05.423998 24275 net.cpp:411] conv2 -> conv2
I0520 16:13:05.426728 24275 net.cpp:150] Setting up conv2
I0520 16:13:05.426754 24275 net.cpp:157] Top shape: 10 20 54 46 (496800)
I0520 16:13:05.426765 24275 net.cpp:165] Memory required for data: 9153240
I0520 16:13:05.426784 24275 layer_factory.hpp:77] Creating layer relu2
I0520 16:13:05.426800 24275 net.cpp:106] Creating Layer relu2
I0520 16:13:05.426810 24275 net.cpp:454] relu2 <- conv2
I0520 16:13:05.426822 24275 net.cpp:397] relu2 -> conv2 (in-place)
I0520 16:13:05.427153 24275 net.cpp:150] Setting up relu2
I0520 16:13:05.427167 24275 net.cpp:157] Top shape: 10 20 54 46 (496800)
I0520 16:13:05.427177 24275 net.cpp:165] Memory required for data: 11140440
I0520 16:13:05.427188 24275 layer_factory.hpp:77] Creating layer pool2
I0520 16:13:05.427201 24275 net.cpp:106] Creating Layer pool2
I0520 16:13:05.427211 24275 net.cpp:454] pool2 <- conv2
I0520 16:13:05.427223 24275 net.cpp:411] pool2 -> pool2
I0520 16:13:05.427302 24275 net.cpp:150] Setting up pool2
I0520 16:13:05.427316 24275 net.cpp:157] Top shape: 10 20 27 46 (248400)
I0520 16:13:05.427326 24275 net.cpp:165] Memory required for data: 12134040
I0520 16:13:05.427333 24275 layer_factory.hpp:77] Creating layer conv3
I0520 16:13:05.427352 24275 net.cpp:106] Creating Layer conv3
I0520 16:13:05.427362 24275 net.cpp:454] conv3 <- pool2
I0520 16:13:05.427376 24275 net.cpp:411] conv3 -> conv3
I0520 16:13:05.429482 24275 net.cpp:150] Setting up conv3
I0520 16:13:05.429502 24275 net.cpp:157] Top shape: 10 28 22 44 (271040)
I0520 16:13:05.429512 24275 net.cpp:165] Memory required for data: 13218200
I0520 16:13:05.429532 24275 layer_factory.hpp:77] Creating layer relu3
I0520 16:13:05.429548 24275 net.cpp:106] Creating Layer relu3
I0520 16:13:05.429558 24275 net.cpp:454] relu3 <- conv3
I0520 16:13:05.429570 24275 net.cpp:397] relu3 -> conv3 (in-place)
I0520 16:13:05.430032 24275 net.cpp:150] Setting up relu3
I0520 16:13:05.430049 24275 net.cpp:157] Top shape: 10 28 22 44 (271040)
I0520 16:13:05.430060 24275 net.cpp:165] Memory required for data: 14302360
I0520 16:13:05.430070 24275 layer_factory.hpp:77] Creating layer pool3
I0520 16:13:05.430083 24275 net.cpp:106] Creating Layer pool3
I0520 16:13:05.430094 24275 net.cpp:454] pool3 <- conv3
I0520 16:13:05.430106 24275 net.cpp:411] pool3 -> pool3
I0520 16:13:05.430173 24275 net.cpp:150] Setting up pool3
I0520 16:13:05.430187 24275 net.cpp:157] Top shape: 10 28 11 44 (135520)
I0520 16:13:05.430197 24275 net.cpp:165] Memory required for data: 14844440
I0520 16:13:05.430204 24275 layer_factory.hpp:77] Creating layer conv4
I0520 16:13:05.430222 24275 net.cpp:106] Creating Layer conv4
I0520 16:13:05.430232 24275 net.cpp:454] conv4 <- pool3
I0520 16:13:05.430245 24275 net.cpp:411] conv4 -> conv4
I0520 16:13:05.432982 24275 net.cpp:150] Setting up conv4
I0520 16:13:05.433009 24275 net.cpp:157] Top shape: 10 36 6 42 (90720)
I0520 16:13:05.433022 24275 net.cpp:165] Memory required for data: 15207320
I0520 16:13:05.433037 24275 layer_factory.hpp:77] Creating layer relu4
I0520 16:13:05.433050 24275 net.cpp:106] Creating Layer relu4
I0520 16:13:05.433061 24275 net.cpp:454] relu4 <- conv4
I0520 16:13:05.433074 24275 net.cpp:397] relu4 -> conv4 (in-place)
I0520 16:13:05.433539 24275 net.cpp:150] Setting up relu4
I0520 16:13:05.433557 24275 net.cpp:157] Top shape: 10 36 6 42 (90720)
I0520 16:13:05.433567 24275 net.cpp:165] Memory required for data: 15570200
I0520 16:13:05.433576 24275 layer_factory.hpp:77] Creating layer pool4
I0520 16:13:05.433589 24275 net.cpp:106] Creating Layer pool4
I0520 16:13:05.433599 24275 net.cpp:454] pool4 <- conv4
I0520 16:13:05.433612 24275 net.cpp:411] pool4 -> pool4
I0520 16:13:05.433681 24275 net.cpp:150] Setting up pool4
I0520 16:13:05.433693 24275 net.cpp:157] Top shape: 10 36 3 42 (45360)
I0520 16:13:05.433703 24275 net.cpp:165] Memory required for data: 15751640
I0520 16:13:05.433714 24275 layer_factory.hpp:77] Creating layer ip1
I0520 16:13:05.433734 24275 net.cpp:106] Creating Layer ip1
I0520 16:13:05.433745 24275 net.cpp:454] ip1 <- pool4
I0520 16:13:05.433758 24275 net.cpp:411] ip1 -> ip1
I0520 16:13:05.449195 24275 net.cpp:150] Setting up ip1
I0520 16:13:05.449224 24275 net.cpp:157] Top shape: 10 196 (1960)
I0520 16:13:05.449235 24275 net.cpp:165] Memory required for data: 15759480
I0520 16:13:05.449257 24275 layer_factory.hpp:77] Creating layer relu5
I0520 16:13:05.449271 24275 net.cpp:106] Creating Layer relu5
I0520 16:13:05.449282 24275 net.cpp:454] relu5 <- ip1
I0520 16:13:05.449295 24275 net.cpp:397] relu5 -> ip1 (in-place)
I0520 16:13:05.449640 24275 net.cpp:150] Setting up relu5
I0520 16:13:05.449654 24275 net.cpp:157] Top shape: 10 196 (1960)
I0520 16:13:05.449666 24275 net.cpp:165] Memory required for data: 15767320
I0520 16:13:05.449676 24275 layer_factory.hpp:77] Creating layer drop1
I0520 16:13:05.449697 24275 net.cpp:106] Creating Layer drop1
I0520 16:13:05.449707 24275 net.cpp:454] drop1 <- ip1
I0520 16:13:05.449720 24275 net.cpp:397] drop1 -> ip1 (in-place)
I0520 16:13:05.449779 24275 net.cpp:150] Setting up drop1
I0520 16:13:05.449792 24275 net.cpp:157] Top shape: 10 196 (1960)
I0520 16:13:05.449802 24275 net.cpp:165] Memory required for data: 15775160
I0520 16:13:05.449812 24275 layer_factory.hpp:77] Creating layer ip2
I0520 16:13:05.449831 24275 net.cpp:106] Creating Layer ip2
I0520 16:13:05.449841 24275 net.cpp:454] ip2 <- ip1
I0520 16:13:05.449854 24275 net.cpp:411] ip2 -> ip2
I0520 16:13:05.450320 24275 net.cpp:150] Setting up ip2
I0520 16:13:05.450333 24275 net.cpp:157] Top shape: 10 98 (980)
I0520 16:13:05.450342 24275 net.cpp:165] Memory required for data: 15779080
I0520 16:13:05.450358 24275 layer_factory.hpp:77] Creating layer relu6
I0520 16:13:05.450371 24275 net.cpp:106] Creating Layer relu6
I0520 16:13:05.450381 24275 net.cpp:454] relu6 <- ip2
I0520 16:13:05.450392 24275 net.cpp:397] relu6 -> ip2 (in-place)
I0520 16:13:05.450908 24275 net.cpp:150] Setting up relu6
I0520 16:13:05.450924 24275 net.cpp:157] Top shape: 10 98 (980)
I0520 16:13:05.450934 24275 net.cpp:165] Memory required for data: 15783000
I0520 16:13:05.450944 24275 layer_factory.hpp:77] Creating layer drop2
I0520 16:13:05.450958 24275 net.cpp:106] Creating Layer drop2
I0520 16:13:05.450968 24275 net.cpp:454] drop2 <- ip2
I0520 16:13:05.450979 24275 net.cpp:397] drop2 -> ip2 (in-place)
I0520 16:13:05.451022 24275 net.cpp:150] Setting up drop2
I0520 16:13:05.451035 24275 net.cpp:157] Top shape: 10 98 (980)
I0520 16:13:05.451045 24275 net.cpp:165] Memory required for data: 15786920
I0520 16:13:05.451056 24275 layer_factory.hpp:77] Creating layer ip3
I0520 16:13:05.451068 24275 net.cpp:106] Creating Layer ip3
I0520 16:13:05.451078 24275 net.cpp:454] ip3 <- ip2
I0520 16:13:05.451092 24275 net.cpp:411] ip3 -> ip3
I0520 16:13:05.451302 24275 net.cpp:150] Setting up ip3
I0520 16:13:05.451314 24275 net.cpp:157] Top shape: 10 11 (110)
I0520 16:13:05.451324 24275 net.cpp:165] Memory required for data: 15787360
I0520 16:13:05.451339 24275 layer_factory.hpp:77] Creating layer drop3
I0520 16:13:05.451352 24275 net.cpp:106] Creating Layer drop3
I0520 16:13:05.451361 24275 net.cpp:454] drop3 <- ip3
I0520 16:13:05.451373 24275 net.cpp:397] drop3 -> ip3 (in-place)
I0520 16:13:05.451412 24275 net.cpp:150] Setting up drop3
I0520 16:13:05.451426 24275 net.cpp:157] Top shape: 10 11 (110)
I0520 16:13:05.451436 24275 net.cpp:165] Memory required for data: 15787800
I0520 16:13:05.451445 24275 layer_factory.hpp:77] Creating layer loss
I0520 16:13:05.451464 24275 net.cpp:106] Creating Layer loss
I0520 16:13:05.451474 24275 net.cpp:454] loss <- ip3
I0520 16:13:05.451485 24275 net.cpp:454] loss <- label
I0520 16:13:05.451498 24275 net.cpp:411] loss -> loss
I0520 16:13:05.451515 24275 layer_factory.hpp:77] Creating layer loss
…
I0520 16:13:05.454058 24275 solver.cpp:181] Creating test net (#0) specified by net file: /lustre/atlas/proj-shared/hep105/caffe_titan/caffe_workflow/logs_bslr/bs_10_lr_0.0025_2016-05-20T15.48.50.893607.prototxt
I0520 16:13:05.454130 24275 net.cpp:322] The NetState phase (1) differed from the phase (0) specified by a rule in layer data_hdf5
I0520 16:13:05.454481 24275 net.cpp:49] Initializing net from parameters: 
name: "caffe_test_127x50_x_unshifted"
state {
  phase: TEST
}
layer {
  name: "data_hdf5"
  type: "HDF5Data"
  top: "data"
  top: "label"
  include {
    phase: TEST
  }
  hdf5_data_param {
    source: "/lustre/atlas/proj-shared/hep105/caffe_titan/minosmatch_nukecczdefs_127x50_x_unshifted_me1Bmc.testlist"
    batch_size: 10
  }
}
layer {
  name: "conv1"
  type: "Convolution"
  bottom: "data"
  top: "conv1"
  convolution_param {
    num_output: 12
    pad: 0
    stride: 1
    weight_filler {
      type: "xavier"
    }
    bias_filler {
      type: "constant"
    }
    kernel_h: 8
    kernel_w: 3
  }
}
layer {
  name: "relu1"
  type: "ReLU"
  bottom: "conv1"
  top: "conv1"
}
layer {
  name: "pool1"
  type: "Pooling"
  bottom: "conv1"
  top: "pool1"
  pooling_param {
    pool: MAX
    kernel_h: 2
    kernel_w: 1
    stride_h: 2
    stride_w: 1
  }
}
layer {
  name: "conv2"
  type: "Convolution"
  bottom: "pool1"
  top: "conv2"
  convolution_param {
    num_output: 20
    pad: 0
    stride: 1
    weight_filler {
      type: "xavier"
    }
    bias_filler {
      type: "constant"
    }
    kernel_h: 7
    kernel_w: 3
  }
}
layer {
  name: "relu2"
  type: "ReLU"
  bottom: "conv2"
  top: "conv2"
}
layer {
  name: "pool2"
  type: "Pooling"
  bottom: "conv2"
  top: "pool2"
  pooling_param {
    pool: MAX
    kernel_h: 2
    kernel_w: 1
    stride_h: 2
    stride_w: 1
  }
}
layer {
  name: "conv3"
  type: "Convolution"
  bottom: "pool2"
  top: "conv3"
  convolution_param {
    num_output: 28
    pad: 0
    stride: 1
    weight_filler {
      type: "xavier"
    }
    bias_filler {
      type: "constant"
    }
    kernel_h: 6
    kernel_w: 3
  }
}
layer {
  name: "relu3"
  type: "ReLU"
  bottom: "conv3"
  top: "conv3"
}
layer {
  name: "pool3"
  type: "Pooling"
  bottom: "conv3"
  top: "pool3"
  pooling_param {
    pool: MAX
    kernel_h: 2
    kernel_w: 1
    stride_h: 2
    stride_w: 1
  }
}
layer {
  name: "conv4"
  type: "Convolution"
  bottom: "pool3"
  top: "conv4"
  convolution_param {
    num_output: 36
    pad: 0
    stride: 1
    weight_filler {
      type: "xavier"
    }
    bias_filler {
      type: "constant"
    }
    kernel_h: 6
    kernel_w: 3
  }
}
layer {
  name: "relu4"
  type: "ReLU"
  bottom: "conv4"
  top: "conv4"
}
layer {
  name: "pool4"
  type: "Pooling"
  bottom: "conv4"
  top: "pool4"
  pooling_param {
    pool: MAX
    kernel_h: 2
    kernel_w: 1
    stride_h: 2
    stride_w: 1
  }
}
layer {
  name: "ip1"
  type: "InnerProduct"
  bottom: "pool4"
  top: "ip1"
  inner_product_param {
    num_output: 196
    weight_filler {
      type: "xavier"
    }
    bias_filler {
      type: "constant"
    }
  }
}
layer {
  name: "relu5"
  type: "ReLU"
  bottom: "ip1"
  top: "ip1"
}
layer {
  name: "drop1"
  type: "Dropout"
  bottom: "ip1"
  top: "ip1"
  dropout_param {
    dropout_ratio: 0.5
  }
}
layer {
  name: "ip2"
  type: "InnerProduct"
  bottom: "ip1"
  top: "ip2"
  inner_product_param {
    num_output: 98
    weight_filler {
      type: "xavier"
    }
    bias_filler {
      type: "constant"
    }
  }
}
layer {
  name: "relu6"
  type: "ReLU"
  bottom: "ip2"
  top: "ip2"
}
layer {
  name: "drop2"
  type: "Dropout"
  bottom: "ip2"
  top: "ip2"
  dropout_param {
    dropout_ratio: 0.5
  }
}
layer {
  name: "ip3"
  type: "InnerProduct"
  bottom: "ip2"
  top: "ip3"
  inner_product_param {
    num_output: 11
    weight_filler {
      type: "xavier"
    }
    bias_filler {
      type: "constant"
    }
  }
}
layer {
  name: "drop3"
  type: "Dropout"
  bottom: "ip3"
  top: "ip3"
  dropout_param {
    dropout_ratio: 0.5
  }
}
layer {
  name: "accuracy"
  type: "Accuracy"
  bottom: "ip3"
  bottom: "label"
  top: "accuracy"
  include {
    phase: TEST
  }
}
layer {
  name: "loss"
  type: "SoftmaxWithLoss"
  bottom: "ip3"
  bottom: "label"
  top: "loss"
}
I0520 16:13:05.454673 24275 layer_factory.hpp:77] Creating layer data_hdf5
I0520 16:13:05.454687 24275 net.cpp:106] Creating Layer data_hdf5
I0520 16:13:05.454700 24275 net.cpp:411] data_hdf5 -> data
I0520 16:13:05.454717 24275 net.cpp:411] data_hdf5 -> label
I0520 16:13:05.454733 24275 hdf5_data_layer.cpp:79] Loading list of HDF5 filenames from: /lustre/atlas/proj-shared/hep105/caffe_titan/minosmatch_nukecczdefs_127x50_x_unshifted_me1Bmc.testlist
I0520 16:13:05.456060 24275 hdf5_data_layer.cpp:93] Number of HDF5 files: 3
I0520 16:13:26.855919 24275 net.cpp:150] Setting up data_hdf5
I0520 16:13:26.856097 24275 net.cpp:157] Top shape: 10 1 127 50 (63500)
I0520 16:13:26.856112 24275 net.cpp:157] Top shape: 10 (10)
I0520 16:13:26.856123 24275 net.cpp:165] Memory required for data: 254040
I0520 16:13:26.856137 24275 layer_factory.hpp:77] Creating layer label_data_hdf5_1_split
I0520 16:13:26.856166 24275 net.cpp:106] Creating Layer label_data_hdf5_1_split
I0520 16:13:26.856178 24275 net.cpp:454] label_data_hdf5_1_split <- label
I0520 16:13:26.856192 24275 net.cpp:411] label_data_hdf5_1_split -> label_data_hdf5_1_split_0
I0520 16:13:26.856215 24275 net.cpp:411] label_data_hdf5_1_split -> label_data_hdf5_1_split_1
I0520 16:13:26.856287 24275 net.cpp:150] Setting up label_data_hdf5_1_split
I0520 16:13:26.856302 24275 net.cpp:157] Top shape: 10 (10)
I0520 16:13:26.856313 24275 net.cpp:157] Top shape: 10 (10)
I0520 16:13:26.856323 24275 net.cpp:165] Memory required for data: 254120
I0520 16:13:26.856334 24275 layer_factory.hpp:77] Creating layer conv1
I0520 16:13:26.856354 24275 net.cpp:106] Creating Layer conv1
I0520 16:13:26.856365 24275 net.cpp:454] conv1 <- data
I0520 16:13:26.856380 24275 net.cpp:411] conv1 -> conv1
I0520 16:13:26.858319 24275 net.cpp:150] Setting up conv1
I0520 16:13:26.858343 24275 net.cpp:157] Top shape: 10 12 120 48 (691200)
I0520 16:13:26.858355 24275 net.cpp:165] Memory required for data: 3018920
I0520 16:13:26.858376 24275 layer_factory.hpp:77] Creating layer relu1
I0520 16:13:26.858391 24275 net.cpp:106] Creating Layer relu1
I0520 16:13:26.858400 24275 net.cpp:454] relu1 <- conv1
I0520 16:13:26.858413 24275 net.cpp:397] relu1 -> conv1 (in-place)
I0520 16:13:26.858921 24275 net.cpp:150] Setting up relu1
I0520 16:13:26.858937 24275 net.cpp:157] Top shape: 10 12 120 48 (691200)
I0520 16:13:26.858947 24275 net.cpp:165] Memory required for data: 5783720
I0520 16:13:26.858957 24275 layer_factory.hpp:77] Creating layer pool1
I0520 16:13:26.858973 24275 net.cpp:106] Creating Layer pool1
I0520 16:13:26.858983 24275 net.cpp:454] pool1 <- conv1
I0520 16:13:26.858996 24275 net.cpp:411] pool1 -> pool1
I0520 16:13:26.859071 24275 net.cpp:150] Setting up pool1
I0520 16:13:26.859084 24275 net.cpp:157] Top shape: 10 12 60 48 (345600)
I0520 16:13:26.859097 24275 net.cpp:165] Memory required for data: 7166120
I0520 16:13:26.859107 24275 layer_factory.hpp:77] Creating layer conv2
I0520 16:13:26.859125 24275 net.cpp:106] Creating Layer conv2
I0520 16:13:26.859135 24275 net.cpp:454] conv2 <- pool1
I0520 16:13:26.859149 24275 net.cpp:411] conv2 -> conv2
I0520 16:13:26.861078 24275 net.cpp:150] Setting up conv2
I0520 16:13:26.861106 24275 net.cpp:157] Top shape: 10 20 54 46 (496800)
I0520 16:13:26.861116 24275 net.cpp:165] Memory required for data: 9153320
I0520 16:13:26.861136 24275 layer_factory.hpp:77] Creating layer relu2
I0520 16:13:26.861150 24275 net.cpp:106] Creating Layer relu2
I0520 16:13:26.861160 24275 net.cpp:454] relu2 <- conv2
I0520 16:13:26.861172 24275 net.cpp:397] relu2 -> conv2 (in-place)
I0520 16:13:26.861508 24275 net.cpp:150] Setting up relu2
I0520 16:13:26.861523 24275 net.cpp:157] Top shape: 10 20 54 46 (496800)
I0520 16:13:26.861533 24275 net.cpp:165] Memory required for data: 11140520
I0520 16:13:26.861543 24275 layer_factory.hpp:77] Creating layer pool2
I0520 16:13:26.861555 24275 net.cpp:106] Creating Layer pool2
I0520 16:13:26.861565 24275 net.cpp:454] pool2 <- conv2
I0520 16:13:26.861578 24275 net.cpp:411] pool2 -> pool2
I0520 16:13:26.861651 24275 net.cpp:150] Setting up pool2
I0520 16:13:26.861665 24275 net.cpp:157] Top shape: 10 20 27 46 (248400)
I0520 16:13:26.861673 24275 net.cpp:165] Memory required for data: 12134120
I0520 16:13:26.861683 24275 layer_factory.hpp:77] Creating layer conv3
I0520 16:13:26.861701 24275 net.cpp:106] Creating Layer conv3
I0520 16:13:26.861712 24275 net.cpp:454] conv3 <- pool2
I0520 16:13:26.861726 24275 net.cpp:411] conv3 -> conv3
I0520 16:13:26.863732 24275 net.cpp:150] Setting up conv3
I0520 16:13:26.863756 24275 net.cpp:157] Top shape: 10 28 22 44 (271040)
I0520 16:13:26.863768 24275 net.cpp:165] Memory required for data: 13218280
I0520 16:13:26.863786 24275 layer_factory.hpp:77] Creating layer relu3
I0520 16:13:26.863812 24275 net.cpp:106] Creating Layer relu3
I0520 16:13:26.863823 24275 net.cpp:454] relu3 <- conv3
I0520 16:13:26.863837 24275 net.cpp:397] relu3 -> conv3 (in-place)
I0520 16:13:26.864312 24275 net.cpp:150] Setting up relu3
I0520 16:13:26.864328 24275 net.cpp:157] Top shape: 10 28 22 44 (271040)
I0520 16:13:26.864339 24275 net.cpp:165] Memory required for data: 14302440
I0520 16:13:26.864349 24275 layer_factory.hpp:77] Creating layer pool3
I0520 16:13:26.864362 24275 net.cpp:106] Creating Layer pool3
I0520 16:13:26.864372 24275 net.cpp:454] pool3 <- conv3
I0520 16:13:26.864385 24275 net.cpp:411] pool3 -> pool3
I0520 16:13:26.864456 24275 net.cpp:150] Setting up pool3
I0520 16:13:26.864470 24275 net.cpp:157] Top shape: 10 28 11 44 (135520)
I0520 16:13:26.864480 24275 net.cpp:165] Memory required for data: 14844520
I0520 16:13:26.864487 24275 layer_factory.hpp:77] Creating layer conv4
I0520 16:13:26.864505 24275 net.cpp:106] Creating Layer conv4
I0520 16:13:26.864516 24275 net.cpp:454] conv4 <- pool3
I0520 16:13:26.864531 24275 net.cpp:411] conv4 -> conv4
I0520 16:13:26.866583 24275 net.cpp:150] Setting up conv4
I0520 16:13:26.866605 24275 net.cpp:157] Top shape: 10 36 6 42 (90720)
I0520 16:13:26.866618 24275 net.cpp:165] Memory required for data: 15207400
I0520 16:13:26.866632 24275 layer_factory.hpp:77] Creating layer relu4
I0520 16:13:26.866647 24275 net.cpp:106] Creating Layer relu4
I0520 16:13:26.866657 24275 net.cpp:454] relu4 <- conv4
I0520 16:13:26.866668 24275 net.cpp:397] relu4 -> conv4 (in-place)
I0520 16:13:26.867132 24275 net.cpp:150] Setting up relu4
I0520 16:13:26.867149 24275 net.cpp:157] Top shape: 10 36 6 42 (90720)
I0520 16:13:26.867159 24275 net.cpp:165] Memory required for data: 15570280
I0520 16:13:26.867169 24275 layer_factory.hpp:77] Creating layer pool4
I0520 16:13:26.867182 24275 net.cpp:106] Creating Layer pool4
I0520 16:13:26.867192 24275 net.cpp:454] pool4 <- conv4
I0520 16:13:26.867207 24275 net.cpp:411] pool4 -> pool4
I0520 16:13:26.867279 24275 net.cpp:150] Setting up pool4
I0520 16:13:26.867291 24275 net.cpp:157] Top shape: 10 36 3 42 (45360)
I0520 16:13:26.867301 24275 net.cpp:165] Memory required for data: 15751720
I0520 16:13:26.867311 24275 layer_factory.hpp:77] Creating layer ip1
I0520 16:13:26.867326 24275 net.cpp:106] Creating Layer ip1
I0520 16:13:26.867336 24275 net.cpp:454] ip1 <- pool4
I0520 16:13:26.867352 24275 net.cpp:411] ip1 -> ip1
I0520 16:13:26.882838 24275 net.cpp:150] Setting up ip1
I0520 16:13:26.882866 24275 net.cpp:157] Top shape: 10 196 (1960)
I0520 16:13:26.882876 24275 net.cpp:165] Memory required for data: 15759560
I0520 16:13:26.882899 24275 layer_factory.hpp:77] Creating layer relu5
I0520 16:13:26.882913 24275 net.cpp:106] Creating Layer relu5
I0520 16:13:26.882925 24275 net.cpp:454] relu5 <- ip1
I0520 16:13:26.882937 24275 net.cpp:397] relu5 -> ip1 (in-place)
I0520 16:13:26.883283 24275 net.cpp:150] Setting up relu5
I0520 16:13:26.883297 24275 net.cpp:157] Top shape: 10 196 (1960)
I0520 16:13:26.883307 24275 net.cpp:165] Memory required for data: 15767400
I0520 16:13:26.883317 24275 layer_factory.hpp:77] Creating layer drop1
I0520 16:13:26.883335 24275 net.cpp:106] Creating Layer drop1
I0520 16:13:26.883345 24275 net.cpp:454] drop1 <- ip1
I0520 16:13:26.883358 24275 net.cpp:397] drop1 -> ip1 (in-place)
I0520 16:13:26.883404 24275 net.cpp:150] Setting up drop1
I0520 16:13:26.883416 24275 net.cpp:157] Top shape: 10 196 (1960)
I0520 16:13:26.883427 24275 net.cpp:165] Memory required for data: 15775240
I0520 16:13:26.883436 24275 layer_factory.hpp:77] Creating layer ip2
I0520 16:13:26.883450 24275 net.cpp:106] Creating Layer ip2
I0520 16:13:26.883460 24275 net.cpp:454] ip2 <- ip1
I0520 16:13:26.883474 24275 net.cpp:411] ip2 -> ip2
I0520 16:13:26.883957 24275 net.cpp:150] Setting up ip2
I0520 16:13:26.883970 24275 net.cpp:157] Top shape: 10 98 (980)
I0520 16:13:26.883980 24275 net.cpp:165] Memory required for data: 15779160
I0520 16:13:26.883996 24275 layer_factory.hpp:77] Creating layer relu6
I0520 16:13:26.884023 24275 net.cpp:106] Creating Layer relu6
I0520 16:13:26.884034 24275 net.cpp:454] relu6 <- ip2
I0520 16:13:26.884047 24275 net.cpp:397] relu6 -> ip2 (in-place)
I0520 16:13:26.884578 24275 net.cpp:150] Setting up relu6
I0520 16:13:26.884600 24275 net.cpp:157] Top shape: 10 98 (980)
I0520 16:13:26.884610 24275 net.cpp:165] Memory required for data: 15783080
I0520 16:13:26.884619 24275 layer_factory.hpp:77] Creating layer drop2
I0520 16:13:26.884634 24275 net.cpp:106] Creating Layer drop2
I0520 16:13:26.884644 24275 net.cpp:454] drop2 <- ip2
I0520 16:13:26.884656 24275 net.cpp:397] drop2 -> ip2 (in-place)
I0520 16:13:26.884699 24275 net.cpp:150] Setting up drop2
I0520 16:13:26.884712 24275 net.cpp:157] Top shape: 10 98 (980)
I0520 16:13:26.884722 24275 net.cpp:165] Memory required for data: 15787000
I0520 16:13:26.884732 24275 layer_factory.hpp:77] Creating layer ip3
I0520 16:13:26.884747 24275 net.cpp:106] Creating Layer ip3
I0520 16:13:26.884757 24275 net.cpp:454] ip3 <- ip2
I0520 16:13:26.884770 24275 net.cpp:411] ip3 -> ip3
I0520 16:13:26.884989 24275 net.cpp:150] Setting up ip3
I0520 16:13:26.885001 24275 net.cpp:157] Top shape: 10 11 (110)
I0520 16:13:26.885011 24275 net.cpp:165] Memory required for data: 15787440
I0520 16:13:26.885026 24275 layer_factory.hpp:77] Creating layer drop3
I0520 16:13:26.885040 24275 net.cpp:106] Creating Layer drop3
I0520 16:13:26.885049 24275 net.cpp:454] drop3 <- ip3
I0520 16:13:26.885062 24275 net.cpp:397] drop3 -> ip3 (in-place)
I0520 16:13:26.885103 24275 net.cpp:150] Setting up drop3
I0520 16:13:26.885116 24275 net.cpp:157] Top shape: 10 11 (110)
I0520 16:13:26.885126 24275 net.cpp:165] Memory required for data: 15787880
I0520 16:13:26.885136 24275 layer_factory.hpp:77] Creating layer ip3_drop3_0_split
I0520 16:13:26.885150 24275 net.cpp:106] Creating Layer ip3_drop3_0_split
I0520 16:13:26.885159 24275 net.cpp:454] ip3_drop3_0_split <- ip3
I0520 16:13:26.885172 24275 net.cpp:411] ip3_drop3_0_split -> ip3_drop3_0_split_0
I0520 16:13:26.885188 24275 net.cpp:411] ip3_drop3_0_split -> ip3_drop3_0_split_1
I0520 16:13:26.885262 24275 net.cpp:150] Setting up ip3_drop3_0_split
I0520 16:13:26.885274 24275 net.cpp:157] Top shape: 10 11 (110)
I0520 16:13:26.885289 24275 net.cpp:157] Top shape: 10 11 (110)
I0520 16:13:26.885299 24275 net.cpp:165] Memory required for data: 15788760
I0520 16:13:26.885309 24275 layer_factory.hpp:77] Creating layer accuracy
I0520 16:13:26.885330 24275 net.cpp:106] Creating Layer accuracy
I0520 16:13:26.885340 24275 net.cpp:454] accuracy <- ip3_drop3_0_split_0
I0520 16:13:26.885351 24275 net.cpp:454] accuracy <- label_data_hdf5_1_split_0
I0520 16:13:26.885365 24275 net.cpp:411] accuracy -> accuracy
…
