…
I0521 12:00:15.757220   390 net.cpp:322] The NetState phase (0) differed from the phase (1) specified by a rule in layer data_hdf5
I0521 12:00:15.757279   390 net.cpp:322] The NetState phase (0) differed from the phase (1) specified by a rule in layer accuracy
I0521 12:00:15.757627   390 net.cpp:49] Initializing net from parameters: 
name: "caffe_test_127x50_x_unshifted"
state {
  phase: TRAIN
}
layer {
  name: "data_hdf5"
  type: "HDF5Data"
  top: "data"
  top: "label"
  include {
    phase: TRAIN
  }
  hdf5_data_param {
    source: "/lustre/atlas/proj-shared/hep105/caffe_titan/minosmatch_nukecczdefs_127x50_x_unshifted_me1Bmc.trainlist"
    batch_size: 10
  }
}
layer {
  name: "conv1"
  type: "Convolution"
  bottom: "data"
  top: "conv1"
  convolution_param {
    num_output: 12
    pad: 0
    stride: 1
    weight_filler {
      type: "xavier"
    }
    bias_filler {
      type: "constant"
    }
    kernel_h: 8
    kernel_w: 3
  }
}
layer {
  name: "relu1"
  type: "ReLU"
  bottom: "conv1"
  top: "conv1"
}
layer {
  name: "pool1"
  type: "Pooling"
  bottom: "conv1"
  top: "pool1"
  pooling_param {
    pool: MAX
    kernel_h: 2
    kernel_w: 1
    stride_h: 2
    stride_w: 1
  }
}
layer {
  name: "conv2"
  type: "Convolution"
  bottom: "pool1"
  top: "conv2"
  convolution_param {
    num_output: 20
    pad: 0
    stride: 1
    weight_filler {
      type: "xavier"
    }
    bias_filler {
      type: "constant"
    }
    kernel_h: 7
    kernel_w: 3
  }
}
layer {
  name: "relu2"
  type: "ReLU"
  bottom: "conv2"
  top: "conv2"
}
layer {
  name: "pool2"
  type: "Pooling"
  bottom: "conv2"
  top: "pool2"
  pooling_param {
    pool: MAX
    kernel_h: 2
    kernel_w: 1
    stride_h: 2
    stride_w: 1
  }
}
layer {
  name: "conv3"
  type: "Convolution"
  bottom: "pool2"
  top: "conv3"
  convolution_param {
    num_output: 28
    pad: 0
    stride: 1
    weight_filler {
      type: "xavier"
    }
    bias_filler {
      type: "constant"
    }
    kernel_h: 6
    kernel_w: 3
  }
}
layer {
  name: "relu3"
  type: "ReLU"
  bottom: "conv3"
  top: "conv3"
}
layer {
  name: "pool3"
  type: "Pooling"
  bottom: "conv3"
  top: "pool3"
  pooling_param {
    pool: MAX
    kernel_h: 2
    kernel_w: 1
    stride_h: 2
    stride_w: 1
  }
}
layer {
  name: "conv4"
  type: "Convolution"
  bottom: "pool3"
  top: "conv4"
  convolution_param {
    num_output: 36
    pad: 0
    stride: 1
    weight_filler {
      type: "xavier"
    }
    bias_filler {
      type: "constant"
    }
    kernel_h: 6
    kernel_w: 3
  }
}
layer {
  name: "relu4"
  type: "ReLU"
  bottom: "conv4"
  top: "conv4"
}
layer {
  name: "pool4"
  type: "Pooling"
  bottom: "conv4"
  top: "pool4"
  pooling_param {
    pool: MAX
    kernel_h: 2
    kernel_w: 1
    stride_h: 2
    stride_w: 1
  }
}
layer {
  name: "ip1"
  type: "InnerProduct"
  bottom: "pool4"
  top: "ip1"
  inner_product_param {
    num_output: 196
    weight_filler {
      type: "xavier"
    }
    bias_filler {
      type: "constant"
    }
  }
}
layer {
  name: "relu5"
  type: "ReLU"
  bottom: "ip1"
  top: "ip1"
}
layer {
  name: "drop1"
  type: "Dropout"
  bottom: "ip1"
  top: "ip1"
  dropout_param {
    dropout_ratio: 0.5
  }
}
layer {
  name: "ip2"
  type: "InnerProduct"
  bottom: "ip1"
  top: "ip2"
  inner_product_param {
    num_output: 98
    weight_filler {
      type: "xavier"
    }
    bias_filler {
      type: "constant"
    }
  }
}
layer {
  name: "relu6"
  type: "ReLU"
  bottom: "ip2"
  top: "ip2"
}
layer {
  name: "drop2"
  type: "Dropout"
  bottom: "ip2"
  top: "ip2"
  dropout_param {
    dropout_ratio: 0.5
  }
}
layer {
  name: "ip3"
  type: "InnerProduct"
  bottom: "ip2"
  top: "ip3"
  inner_product_param {
    num_output: 11
    weight_filler {
      type: "xavier"
    }
    bias_filler {
      type: "constant"
    }
  }
}
layer {
  name: "drop3"
  type: "Dropout"
  bottom: "ip3"
  top: "ip3"
  dropout_param {
    dropout_ratio: 0.5
  }
}
layer {
  name: "loss"
  type: "SoftmaxWithLoss"
  bottom: "ip3"
  bottom: "label"
  top: "loss"
}
I0521 12:00:15.757805   390 layer_factory.hpp:77] Creating layer data_hdf5
I0521 12:00:15.757829   390 net.cpp:106] Creating Layer data_hdf5
I0521 12:00:15.757843   390 net.cpp:411] data_hdf5 -> data
I0521 12:00:15.757876   390 net.cpp:411] data_hdf5 -> label
I0521 12:00:15.757910   390 hdf5_data_layer.cpp:79] Loading list of HDF5 filenames from: /lustre/atlas/proj-shared/hep105/caffe_titan/minosmatch_nukecczdefs_127x50_x_unshifted_me1Bmc.trainlist
I0521 12:00:15.759116   390 hdf5_data_layer.cpp:93] Number of HDF5 files: 15
I0521 12:00:15.761293   390 hdf5.cpp:32] Datatype class: H5T_FLOAT
I0521 12:00:37.331534   390 hdf5.cpp:35] Datatype class: H5T_INTEGER
I0521 12:00:37.336693   390 net.cpp:150] Setting up data_hdf5
I0521 12:00:37.336731   390 net.cpp:157] Top shape: 10 1 127 50 (63500)
I0521 12:00:37.336746   390 net.cpp:157] Top shape: 10 (10)
I0521 12:00:37.336758   390 net.cpp:165] Memory required for data: 254040
I0521 12:00:37.336772   390 layer_factory.hpp:77] Creating layer conv1
I0521 12:00:37.336807   390 net.cpp:106] Creating Layer conv1
I0521 12:00:37.336817   390 net.cpp:454] conv1 <- data
I0521 12:00:37.336838   390 net.cpp:411] conv1 -> conv1
I0521 12:00:37.705144   390 net.cpp:150] Setting up conv1
I0521 12:00:37.705188   390 net.cpp:157] Top shape: 10 12 120 48 (691200)
I0521 12:00:37.705199   390 net.cpp:165] Memory required for data: 3018840
I0521 12:00:37.705229   390 layer_factory.hpp:77] Creating layer relu1
I0521 12:00:37.705250   390 net.cpp:106] Creating Layer relu1
I0521 12:00:37.705261   390 net.cpp:454] relu1 <- conv1
I0521 12:00:37.705276   390 net.cpp:397] relu1 -> conv1 (in-place)
I0521 12:00:37.705792   390 net.cpp:150] Setting up relu1
I0521 12:00:37.705809   390 net.cpp:157] Top shape: 10 12 120 48 (691200)
I0521 12:00:37.705819   390 net.cpp:165] Memory required for data: 5783640
I0521 12:00:37.705831   390 layer_factory.hpp:77] Creating layer pool1
I0521 12:00:37.705847   390 net.cpp:106] Creating Layer pool1
I0521 12:00:37.705857   390 net.cpp:454] pool1 <- conv1
I0521 12:00:37.705870   390 net.cpp:411] pool1 -> pool1
I0521 12:00:37.705950   390 net.cpp:150] Setting up pool1
I0521 12:00:37.705965   390 net.cpp:157] Top shape: 10 12 60 48 (345600)
I0521 12:00:37.705974   390 net.cpp:165] Memory required for data: 7166040
I0521 12:00:37.705984   390 layer_factory.hpp:77] Creating layer conv2
I0521 12:00:37.706007   390 net.cpp:106] Creating Layer conv2
I0521 12:00:37.706017   390 net.cpp:454] conv2 <- pool1
I0521 12:00:37.706030   390 net.cpp:411] conv2 -> conv2
I0521 12:00:37.708705   390 net.cpp:150] Setting up conv2
I0521 12:00:37.708734   390 net.cpp:157] Top shape: 10 20 54 46 (496800)
I0521 12:00:37.708745   390 net.cpp:165] Memory required for data: 9153240
I0521 12:00:37.708763   390 layer_factory.hpp:77] Creating layer relu2
I0521 12:00:37.708778   390 net.cpp:106] Creating Layer relu2
I0521 12:00:37.708788   390 net.cpp:454] relu2 <- conv2
I0521 12:00:37.708801   390 net.cpp:397] relu2 -> conv2 (in-place)
I0521 12:00:37.709131   390 net.cpp:150] Setting up relu2
I0521 12:00:37.709146   390 net.cpp:157] Top shape: 10 20 54 46 (496800)
I0521 12:00:37.709156   390 net.cpp:165] Memory required for data: 11140440
I0521 12:00:37.709167   390 layer_factory.hpp:77] Creating layer pool2
I0521 12:00:37.709179   390 net.cpp:106] Creating Layer pool2
I0521 12:00:37.709189   390 net.cpp:454] pool2 <- conv2
I0521 12:00:37.709202   390 net.cpp:411] pool2 -> pool2
I0521 12:00:37.709281   390 net.cpp:150] Setting up pool2
I0521 12:00:37.709295   390 net.cpp:157] Top shape: 10 20 27 46 (248400)
I0521 12:00:37.709305   390 net.cpp:165] Memory required for data: 12134040
I0521 12:00:37.709312   390 layer_factory.hpp:77] Creating layer conv3
I0521 12:00:37.709331   390 net.cpp:106] Creating Layer conv3
I0521 12:00:37.709342   390 net.cpp:454] conv3 <- pool2
I0521 12:00:37.709354   390 net.cpp:411] conv3 -> conv3
I0521 12:00:37.711450   390 net.cpp:150] Setting up conv3
I0521 12:00:37.711474   390 net.cpp:157] Top shape: 10 28 22 44 (271040)
I0521 12:00:37.711486   390 net.cpp:165] Memory required for data: 13218200
I0521 12:00:37.711504   390 layer_factory.hpp:77] Creating layer relu3
I0521 12:00:37.711520   390 net.cpp:106] Creating Layer relu3
I0521 12:00:37.711531   390 net.cpp:454] relu3 <- conv3
I0521 12:00:37.711544   390 net.cpp:397] relu3 -> conv3 (in-place)
I0521 12:00:37.712007   390 net.cpp:150] Setting up relu3
I0521 12:00:37.712025   390 net.cpp:157] Top shape: 10 28 22 44 (271040)
I0521 12:00:37.712036   390 net.cpp:165] Memory required for data: 14302360
I0521 12:00:37.712046   390 layer_factory.hpp:77] Creating layer pool3
I0521 12:00:37.712059   390 net.cpp:106] Creating Layer pool3
I0521 12:00:37.712069   390 net.cpp:454] pool3 <- conv3
I0521 12:00:37.712082   390 net.cpp:411] pool3 -> pool3
I0521 12:00:37.712151   390 net.cpp:150] Setting up pool3
I0521 12:00:37.712163   390 net.cpp:157] Top shape: 10 28 11 44 (135520)
I0521 12:00:37.712173   390 net.cpp:165] Memory required for data: 14844440
I0521 12:00:37.712182   390 layer_factory.hpp:77] Creating layer conv4
I0521 12:00:37.712199   390 net.cpp:106] Creating Layer conv4
I0521 12:00:37.712209   390 net.cpp:454] conv4 <- pool3
I0521 12:00:37.712222   390 net.cpp:411] conv4 -> conv4
I0521 12:00:37.714951   390 net.cpp:150] Setting up conv4
I0521 12:00:37.714979   390 net.cpp:157] Top shape: 10 36 6 42 (90720)
I0521 12:00:37.714990   390 net.cpp:165] Memory required for data: 15207320
I0521 12:00:37.715005   390 layer_factory.hpp:77] Creating layer relu4
I0521 12:00:37.715020   390 net.cpp:106] Creating Layer relu4
I0521 12:00:37.715030   390 net.cpp:454] relu4 <- conv4
I0521 12:00:37.715044   390 net.cpp:397] relu4 -> conv4 (in-place)
I0521 12:00:37.715509   390 net.cpp:150] Setting up relu4
I0521 12:00:37.715525   390 net.cpp:157] Top shape: 10 36 6 42 (90720)
I0521 12:00:37.715535   390 net.cpp:165] Memory required for data: 15570200
I0521 12:00:37.715545   390 layer_factory.hpp:77] Creating layer pool4
I0521 12:00:37.715559   390 net.cpp:106] Creating Layer pool4
I0521 12:00:37.715569   390 net.cpp:454] pool4 <- conv4
I0521 12:00:37.715579   390 net.cpp:411] pool4 -> pool4
I0521 12:00:37.715648   390 net.cpp:150] Setting up pool4
I0521 12:00:37.715662   390 net.cpp:157] Top shape: 10 36 3 42 (45360)
I0521 12:00:37.715672   390 net.cpp:165] Memory required for data: 15751640
I0521 12:00:37.715682   390 layer_factory.hpp:77] Creating layer ip1
I0521 12:00:37.715700   390 net.cpp:106] Creating Layer ip1
I0521 12:00:37.715713   390 net.cpp:454] ip1 <- pool4
I0521 12:00:37.715725   390 net.cpp:411] ip1 -> ip1
I0521 12:00:37.731166   390 net.cpp:150] Setting up ip1
I0521 12:00:37.731195   390 net.cpp:157] Top shape: 10 196 (1960)
I0521 12:00:37.731206   390 net.cpp:165] Memory required for data: 15759480
I0521 12:00:37.731228   390 layer_factory.hpp:77] Creating layer relu5
I0521 12:00:37.731243   390 net.cpp:106] Creating Layer relu5
I0521 12:00:37.731253   390 net.cpp:454] relu5 <- ip1
I0521 12:00:37.731267   390 net.cpp:397] relu5 -> ip1 (in-place)
I0521 12:00:37.731611   390 net.cpp:150] Setting up relu5
I0521 12:00:37.731624   390 net.cpp:157] Top shape: 10 196 (1960)
I0521 12:00:37.731634   390 net.cpp:165] Memory required for data: 15767320
I0521 12:00:37.731644   390 layer_factory.hpp:77] Creating layer drop1
I0521 12:00:37.731665   390 net.cpp:106] Creating Layer drop1
I0521 12:00:37.731676   390 net.cpp:454] drop1 <- ip1
I0521 12:00:37.731688   390 net.cpp:397] drop1 -> ip1 (in-place)
I0521 12:00:37.731748   390 net.cpp:150] Setting up drop1
I0521 12:00:37.731761   390 net.cpp:157] Top shape: 10 196 (1960)
I0521 12:00:37.731770   390 net.cpp:165] Memory required for data: 15775160
I0521 12:00:37.731781   390 layer_factory.hpp:77] Creating layer ip2
I0521 12:00:37.731799   390 net.cpp:106] Creating Layer ip2
I0521 12:00:37.731809   390 net.cpp:454] ip2 <- ip1
I0521 12:00:37.731823   390 net.cpp:411] ip2 -> ip2
I0521 12:00:37.732287   390 net.cpp:150] Setting up ip2
I0521 12:00:37.732300   390 net.cpp:157] Top shape: 10 98 (980)
I0521 12:00:37.732311   390 net.cpp:165] Memory required for data: 15779080
I0521 12:00:37.732326   390 layer_factory.hpp:77] Creating layer relu6
I0521 12:00:37.732337   390 net.cpp:106] Creating Layer relu6
I0521 12:00:37.732347   390 net.cpp:454] relu6 <- ip2
I0521 12:00:37.732359   390 net.cpp:397] relu6 -> ip2 (in-place)
I0521 12:00:37.732882   390 net.cpp:150] Setting up relu6
I0521 12:00:37.732899   390 net.cpp:157] Top shape: 10 98 (980)
I0521 12:00:37.732908   390 net.cpp:165] Memory required for data: 15783000
I0521 12:00:37.732918   390 layer_factory.hpp:77] Creating layer drop2
I0521 12:00:37.732931   390 net.cpp:106] Creating Layer drop2
I0521 12:00:37.732941   390 net.cpp:454] drop2 <- ip2
I0521 12:00:37.732954   390 net.cpp:397] drop2 -> ip2 (in-place)
I0521 12:00:37.732996   390 net.cpp:150] Setting up drop2
I0521 12:00:37.733009   390 net.cpp:157] Top shape: 10 98 (980)
I0521 12:00:37.733019   390 net.cpp:165] Memory required for data: 15786920
I0521 12:00:37.733029   390 layer_factory.hpp:77] Creating layer ip3
I0521 12:00:37.733042   390 net.cpp:106] Creating Layer ip3
I0521 12:00:37.733052   390 net.cpp:454] ip3 <- ip2
I0521 12:00:37.733064   390 net.cpp:411] ip3 -> ip3
I0521 12:00:37.733273   390 net.cpp:150] Setting up ip3
I0521 12:00:37.733285   390 net.cpp:157] Top shape: 10 11 (110)
I0521 12:00:37.733295   390 net.cpp:165] Memory required for data: 15787360
I0521 12:00:37.733310   390 layer_factory.hpp:77] Creating layer drop3
I0521 12:00:37.733324   390 net.cpp:106] Creating Layer drop3
I0521 12:00:37.733333   390 net.cpp:454] drop3 <- ip3
I0521 12:00:37.733345   390 net.cpp:397] drop3 -> ip3 (in-place)
I0521 12:00:37.733384   390 net.cpp:150] Setting up drop3
I0521 12:00:37.733397   390 net.cpp:157] Top shape: 10 11 (110)
I0521 12:00:37.733407   390 net.cpp:165] Memory required for data: 15787800
I0521 12:00:37.733417   390 layer_factory.hpp:77] Creating layer loss
I0521 12:00:37.733436   390 net.cpp:106] Creating Layer loss
I0521 12:00:37.733446   390 net.cpp:454] loss <- ip3
I0521 12:00:37.733458   390 net.cpp:454] loss <- label
I0521 12:00:37.733469   390 net.cpp:411] loss -> loss
I0521 12:00:37.733486   390 layer_factory.hpp:77] Creating layer loss
…
I0521 12:00:37.736196   390 solver.cpp:181] Creating test net (#0) specified by net file: /lustre/atlas/proj-shared/hep105/caffe_titan/caffe_workflow/logs_bslr/bs_10_lr_0.0010_2016-05-20T15.48.49.668316.prototxt
I0521 12:00:37.736268   390 net.cpp:322] The NetState phase (1) differed from the phase (0) specified by a rule in layer data_hdf5
I0521 12:00:37.736618   390 net.cpp:49] Initializing net from parameters: 
name: "caffe_test_127x50_x_unshifted"
state {
  phase: TEST
}
layer {
  name: "data_hdf5"
  type: "HDF5Data"
  top: "data"
  top: "label"
  include {
    phase: TEST
  }
  hdf5_data_param {
    source: "/lustre/atlas/proj-shared/hep105/caffe_titan/minosmatch_nukecczdefs_127x50_x_unshifted_me1Bmc.testlist"
    batch_size: 10
  }
}
layer {
  name: "conv1"
  type: "Convolution"
  bottom: "data"
  top: "conv1"
  convolution_param {
    num_output: 12
    pad: 0
    stride: 1
    weight_filler {
      type: "xavier"
    }
    bias_filler {
      type: "constant"
    }
    kernel_h: 8
    kernel_w: 3
  }
}
layer {
  name: "relu1"
  type: "ReLU"
  bottom: "conv1"
  top: "conv1"
}
layer {
  name: "pool1"
  type: "Pooling"
  bottom: "conv1"
  top: "pool1"
  pooling_param {
    pool: MAX
    kernel_h: 2
    kernel_w: 1
    stride_h: 2
    stride_w: 1
  }
}
layer {
  name: "conv2"
  type: "Convolution"
  bottom: "pool1"
  top: "conv2"
  convolution_param {
    num_output: 20
    pad: 0
    stride: 1
    weight_filler {
      type: "xavier"
    }
    bias_filler {
      type: "constant"
    }
    kernel_h: 7
    kernel_w: 3
  }
}
layer {
  name: "relu2"
  type: "ReLU"
  bottom: "conv2"
  top: "conv2"
}
layer {
  name: "pool2"
  type: "Pooling"
  bottom: "conv2"
  top: "pool2"
  pooling_param {
    pool: MAX
    kernel_h: 2
    kernel_w: 1
    stride_h: 2
    stride_w: 1
  }
}
layer {
  name: "conv3"
  type: "Convolution"
  bottom: "pool2"
  top: "conv3"
  convolution_param {
    num_output: 28
    pad: 0
    stride: 1
    weight_filler {
      type: "xavier"
    }
    bias_filler {
      type: "constant"
    }
    kernel_h: 6
    kernel_w: 3
  }
}
layer {
  name: "relu3"
  type: "ReLU"
  bottom: "conv3"
  top: "conv3"
}
layer {
  name: "pool3"
  type: "Pooling"
  bottom: "conv3"
  top: "pool3"
  pooling_param {
    pool: MAX
    kernel_h: 2
    kernel_w: 1
    stride_h: 2
    stride_w: 1
  }
}
layer {
  name: "conv4"
  type: "Convolution"
  bottom: "pool3"
  top: "conv4"
  convolution_param {
    num_output: 36
    pad: 0
    stride: 1
    weight_filler {
      type: "xavier"
    }
    bias_filler {
      type: "constant"
    }
    kernel_h: 6
    kernel_w: 3
  }
}
layer {
  name: "relu4"
  type: "ReLU"
  bottom: "conv4"
  top: "conv4"
}
layer {
  name: "pool4"
  type: "Pooling"
  bottom: "conv4"
  top: "pool4"
  pooling_param {
    pool: MAX
    kernel_h: 2
    kernel_w: 1
    stride_h: 2
    stride_w: 1
  }
}
layer {
  name: "ip1"
  type: "InnerProduct"
  bottom: "pool4"
  top: "ip1"
  inner_product_param {
    num_output: 196
    weight_filler {
      type: "xavier"
    }
    bias_filler {
      type: "constant"
    }
  }
}
layer {
  name: "relu5"
  type: "ReLU"
  bottom: "ip1"
  top: "ip1"
}
layer {
  name: "drop1"
  type: "Dropout"
  bottom: "ip1"
  top: "ip1"
  dropout_param {
    dropout_ratio: 0.5
  }
}
layer {
  name: "ip2"
  type: "InnerProduct"
  bottom: "ip1"
  top: "ip2"
  inner_product_param {
    num_output: 98
    weight_filler {
      type: "xavier"
    }
    bias_filler {
      type: "constant"
    }
  }
}
layer {
  name: "relu6"
  type: "ReLU"
  bottom: "ip2"
  top: "ip2"
}
layer {
  name: "drop2"
  type: "Dropout"
  bottom: "ip2"
  top: "ip2"
  dropout_param {
    dropout_ratio: 0.5
  }
}
layer {
  name: "ip3"
  type: "InnerProduct"
  bottom: "ip2"
  top: "ip3"
  inner_product_param {
    num_output: 11
    weight_filler {
      type: "xavier"
    }
    bias_filler {
      type: "constant"
    }
  }
}
layer {
  name: "drop3"
  type: "Dropout"
  bottom: "ip3"
  top: "ip3"
  dropout_param {
    dropout_ratio: 0.5
  }
}
layer {
  name: "accuracy"
  type: "Accuracy"
  bottom: "ip3"
  bottom: "label"
  top: "accuracy"
  include {
    phase: TEST
  }
}
layer {
  name: "loss"
  type: "SoftmaxWithLoss"
  bottom: "ip3"
  bottom: "label"
  top: "loss"
}
I0521 12:00:37.736807   390 layer_factory.hpp:77] Creating layer data_hdf5
I0521 12:00:37.736824   390 net.cpp:106] Creating Layer data_hdf5
I0521 12:00:37.736836   390 net.cpp:411] data_hdf5 -> data
I0521 12:00:37.736852   390 net.cpp:411] data_hdf5 -> label
I0521 12:00:37.736868   390 hdf5_data_layer.cpp:79] Loading list of HDF5 filenames from: /lustre/atlas/proj-shared/hep105/caffe_titan/minosmatch_nukecczdefs_127x50_x_unshifted_me1Bmc.testlist
I0521 12:00:37.738227   390 hdf5_data_layer.cpp:93] Number of HDF5 files: 3
I0521 12:00:59.047340   390 net.cpp:150] Setting up data_hdf5
I0521 12:00:59.047505   390 net.cpp:157] Top shape: 10 1 127 50 (63500)
I0521 12:00:59.047520   390 net.cpp:157] Top shape: 10 (10)
I0521 12:00:59.047530   390 net.cpp:165] Memory required for data: 254040
I0521 12:00:59.047545   390 layer_factory.hpp:77] Creating layer label_data_hdf5_1_split
I0521 12:00:59.047574   390 net.cpp:106] Creating Layer label_data_hdf5_1_split
I0521 12:00:59.047585   390 net.cpp:454] label_data_hdf5_1_split <- label
I0521 12:00:59.047600   390 net.cpp:411] label_data_hdf5_1_split -> label_data_hdf5_1_split_0
I0521 12:00:59.047621   390 net.cpp:411] label_data_hdf5_1_split -> label_data_hdf5_1_split_1
I0521 12:00:59.047693   390 net.cpp:150] Setting up label_data_hdf5_1_split
I0521 12:00:59.047706   390 net.cpp:157] Top shape: 10 (10)
I0521 12:00:59.047719   390 net.cpp:157] Top shape: 10 (10)
I0521 12:00:59.047727   390 net.cpp:165] Memory required for data: 254120
I0521 12:00:59.047739   390 layer_factory.hpp:77] Creating layer conv1
I0521 12:00:59.047760   390 net.cpp:106] Creating Layer conv1
I0521 12:00:59.047770   390 net.cpp:454] conv1 <- data
I0521 12:00:59.047785   390 net.cpp:411] conv1 -> conv1
I0521 12:00:59.049718   390 net.cpp:150] Setting up conv1
I0521 12:00:59.049742   390 net.cpp:157] Top shape: 10 12 120 48 (691200)
I0521 12:00:59.049754   390 net.cpp:165] Memory required for data: 3018920
I0521 12:00:59.049774   390 layer_factory.hpp:77] Creating layer relu1
I0521 12:00:59.049789   390 net.cpp:106] Creating Layer relu1
I0521 12:00:59.049799   390 net.cpp:454] relu1 <- conv1
I0521 12:00:59.049811   390 net.cpp:397] relu1 -> conv1 (in-place)
I0521 12:00:59.050326   390 net.cpp:150] Setting up relu1
I0521 12:00:59.050343   390 net.cpp:157] Top shape: 10 12 120 48 (691200)
I0521 12:00:59.050353   390 net.cpp:165] Memory required for data: 5783720
I0521 12:00:59.050362   390 layer_factory.hpp:77] Creating layer pool1
I0521 12:00:59.050379   390 net.cpp:106] Creating Layer pool1
I0521 12:00:59.050389   390 net.cpp:454] pool1 <- conv1
I0521 12:00:59.050401   390 net.cpp:411] pool1 -> pool1
I0521 12:00:59.050477   390 net.cpp:150] Setting up pool1
I0521 12:00:59.050489   390 net.cpp:157] Top shape: 10 12 60 48 (345600)
I0521 12:00:59.050499   390 net.cpp:165] Memory required for data: 7166120
I0521 12:00:59.050508   390 layer_factory.hpp:77] Creating layer conv2
I0521 12:00:59.050524   390 net.cpp:106] Creating Layer conv2
I0521 12:00:59.050535   390 net.cpp:454] conv2 <- pool1
I0521 12:00:59.050549   390 net.cpp:411] conv2 -> conv2
I0521 12:00:59.052459   390 net.cpp:150] Setting up conv2
I0521 12:00:59.052480   390 net.cpp:157] Top shape: 10 20 54 46 (496800)
I0521 12:00:59.052494   390 net.cpp:165] Memory required for data: 9153320
I0521 12:00:59.052510   390 layer_factory.hpp:77] Creating layer relu2
I0521 12:00:59.052525   390 net.cpp:106] Creating Layer relu2
I0521 12:00:59.052534   390 net.cpp:454] relu2 <- conv2
I0521 12:00:59.052547   390 net.cpp:397] relu2 -> conv2 (in-place)
I0521 12:00:59.052884   390 net.cpp:150] Setting up relu2
I0521 12:00:59.052898   390 net.cpp:157] Top shape: 10 20 54 46 (496800)
I0521 12:00:59.052908   390 net.cpp:165] Memory required for data: 11140520
I0521 12:00:59.052919   390 layer_factory.hpp:77] Creating layer pool2
I0521 12:00:59.052932   390 net.cpp:106] Creating Layer pool2
I0521 12:00:59.052942   390 net.cpp:454] pool2 <- conv2
I0521 12:00:59.052955   390 net.cpp:411] pool2 -> pool2
I0521 12:00:59.053028   390 net.cpp:150] Setting up pool2
I0521 12:00:59.053042   390 net.cpp:157] Top shape: 10 20 27 46 (248400)
I0521 12:00:59.053051   390 net.cpp:165] Memory required for data: 12134120
I0521 12:00:59.053061   390 layer_factory.hpp:77] Creating layer conv3
I0521 12:00:59.053081   390 net.cpp:106] Creating Layer conv3
I0521 12:00:59.053092   390 net.cpp:454] conv3 <- pool2
I0521 12:00:59.053107   390 net.cpp:411] conv3 -> conv3
I0521 12:00:59.055119   390 net.cpp:150] Setting up conv3
I0521 12:00:59.055141   390 net.cpp:157] Top shape: 10 28 22 44 (271040)
I0521 12:00:59.055155   390 net.cpp:165] Memory required for data: 13218280
I0521 12:00:59.055173   390 layer_factory.hpp:77] Creating layer relu3
I0521 12:00:59.055200   390 net.cpp:106] Creating Layer relu3
I0521 12:00:59.055210   390 net.cpp:454] relu3 <- conv3
I0521 12:00:59.055222   390 net.cpp:397] relu3 -> conv3 (in-place)
I0521 12:00:59.055691   390 net.cpp:150] Setting up relu3
I0521 12:00:59.055707   390 net.cpp:157] Top shape: 10 28 22 44 (271040)
I0521 12:00:59.055717   390 net.cpp:165] Memory required for data: 14302440
I0521 12:00:59.055727   390 layer_factory.hpp:77] Creating layer pool3
I0521 12:00:59.055742   390 net.cpp:106] Creating Layer pool3
I0521 12:00:59.055750   390 net.cpp:454] pool3 <- conv3
I0521 12:00:59.055764   390 net.cpp:411] pool3 -> pool3
I0521 12:00:59.055835   390 net.cpp:150] Setting up pool3
I0521 12:00:59.055848   390 net.cpp:157] Top shape: 10 28 11 44 (135520)
I0521 12:00:59.055858   390 net.cpp:165] Memory required for data: 14844520
I0521 12:00:59.055867   390 layer_factory.hpp:77] Creating layer conv4
I0521 12:00:59.055886   390 net.cpp:106] Creating Layer conv4
I0521 12:00:59.055896   390 net.cpp:454] conv4 <- pool3
I0521 12:00:59.055909   390 net.cpp:411] conv4 -> conv4
I0521 12:00:59.057962   390 net.cpp:150] Setting up conv4
I0521 12:00:59.057986   390 net.cpp:157] Top shape: 10 36 6 42 (90720)
I0521 12:00:59.057997   390 net.cpp:165] Memory required for data: 15207400
I0521 12:00:59.058012   390 layer_factory.hpp:77] Creating layer relu4
I0521 12:00:59.058027   390 net.cpp:106] Creating Layer relu4
I0521 12:00:59.058037   390 net.cpp:454] relu4 <- conv4
I0521 12:00:59.058048   390 net.cpp:397] relu4 -> conv4 (in-place)
I0521 12:00:59.058524   390 net.cpp:150] Setting up relu4
I0521 12:00:59.058540   390 net.cpp:157] Top shape: 10 36 6 42 (90720)
I0521 12:00:59.058550   390 net.cpp:165] Memory required for data: 15570280
I0521 12:00:59.058560   390 layer_factory.hpp:77] Creating layer pool4
I0521 12:00:59.058574   390 net.cpp:106] Creating Layer pool4
I0521 12:00:59.058584   390 net.cpp:454] pool4 <- conv4
I0521 12:00:59.058598   390 net.cpp:411] pool4 -> pool4
I0521 12:00:59.058670   390 net.cpp:150] Setting up pool4
I0521 12:00:59.058682   390 net.cpp:157] Top shape: 10 36 3 42 (45360)
I0521 12:00:59.058692   390 net.cpp:165] Memory required for data: 15751720
I0521 12:00:59.058701   390 layer_factory.hpp:77] Creating layer ip1
I0521 12:00:59.058715   390 net.cpp:106] Creating Layer ip1
I0521 12:00:59.058727   390 net.cpp:454] ip1 <- pool4
I0521 12:00:59.058739   390 net.cpp:411] ip1 -> ip1
I0521 12:00:59.074231   390 net.cpp:150] Setting up ip1
I0521 12:00:59.074259   390 net.cpp:157] Top shape: 10 196 (1960)
I0521 12:00:59.074275   390 net.cpp:165] Memory required for data: 15759560
I0521 12:00:59.074296   390 layer_factory.hpp:77] Creating layer relu5
I0521 12:00:59.074312   390 net.cpp:106] Creating Layer relu5
I0521 12:00:59.074323   390 net.cpp:454] relu5 <- ip1
I0521 12:00:59.074339   390 net.cpp:397] relu5 -> ip1 (in-place)
I0521 12:00:59.074688   390 net.cpp:150] Setting up relu5
I0521 12:00:59.074702   390 net.cpp:157] Top shape: 10 196 (1960)
I0521 12:00:59.074712   390 net.cpp:165] Memory required for data: 15767400
I0521 12:00:59.074723   390 layer_factory.hpp:77] Creating layer drop1
I0521 12:00:59.074741   390 net.cpp:106] Creating Layer drop1
I0521 12:00:59.074751   390 net.cpp:454] drop1 <- ip1
I0521 12:00:59.074765   390 net.cpp:397] drop1 -> ip1 (in-place)
I0521 12:00:59.074810   390 net.cpp:150] Setting up drop1
I0521 12:00:59.074822   390 net.cpp:157] Top shape: 10 196 (1960)
I0521 12:00:59.074832   390 net.cpp:165] Memory required for data: 15775240
I0521 12:00:59.074841   390 layer_factory.hpp:77] Creating layer ip2
I0521 12:00:59.074856   390 net.cpp:106] Creating Layer ip2
I0521 12:00:59.074865   390 net.cpp:454] ip2 <- ip1
I0521 12:00:59.074879   390 net.cpp:411] ip2 -> ip2
I0521 12:00:59.075356   390 net.cpp:150] Setting up ip2
I0521 12:00:59.075371   390 net.cpp:157] Top shape: 10 98 (980)
I0521 12:00:59.075381   390 net.cpp:165] Memory required for data: 15779160
I0521 12:00:59.075395   390 layer_factory.hpp:77] Creating layer relu6
I0521 12:00:59.075422   390 net.cpp:106] Creating Layer relu6
I0521 12:00:59.075431   390 net.cpp:454] relu6 <- ip2
I0521 12:00:59.075444   390 net.cpp:397] relu6 -> ip2 (in-place)
I0521 12:00:59.075978   390 net.cpp:150] Setting up relu6
I0521 12:00:59.075995   390 net.cpp:157] Top shape: 10 98 (980)
I0521 12:00:59.076005   390 net.cpp:165] Memory required for data: 15783080
I0521 12:00:59.076015   390 layer_factory.hpp:77] Creating layer drop2
I0521 12:00:59.076028   390 net.cpp:106] Creating Layer drop2
I0521 12:00:59.076040   390 net.cpp:454] drop2 <- ip2
I0521 12:00:59.076052   390 net.cpp:397] drop2 -> ip2 (in-place)
I0521 12:00:59.076097   390 net.cpp:150] Setting up drop2
I0521 12:00:59.076109   390 net.cpp:157] Top shape: 10 98 (980)
I0521 12:00:59.076118   390 net.cpp:165] Memory required for data: 15787000
I0521 12:00:59.076128   390 layer_factory.hpp:77] Creating layer ip3
I0521 12:00:59.076143   390 net.cpp:106] Creating Layer ip3
I0521 12:00:59.076153   390 net.cpp:454] ip3 <- ip2
I0521 12:00:59.076167   390 net.cpp:411] ip3 -> ip3
I0521 12:00:59.076386   390 net.cpp:150] Setting up ip3
I0521 12:00:59.076400   390 net.cpp:157] Top shape: 10 11 (110)
I0521 12:00:59.076409   390 net.cpp:165] Memory required for data: 15787440
I0521 12:00:59.076424   390 layer_factory.hpp:77] Creating layer drop3
I0521 12:00:59.076437   390 net.cpp:106] Creating Layer drop3
I0521 12:00:59.076447   390 net.cpp:454] drop3 <- ip3
I0521 12:00:59.076460   390 net.cpp:397] drop3 -> ip3 (in-place)
I0521 12:00:59.076501   390 net.cpp:150] Setting up drop3
I0521 12:00:59.076514   390 net.cpp:157] Top shape: 10 11 (110)
I0521 12:00:59.076524   390 net.cpp:165] Memory required for data: 15787880
I0521 12:00:59.076534   390 layer_factory.hpp:77] Creating layer ip3_drop3_0_split
I0521 12:00:59.076546   390 net.cpp:106] Creating Layer ip3_drop3_0_split
I0521 12:00:59.076556   390 net.cpp:454] ip3_drop3_0_split <- ip3
I0521 12:00:59.076570   390 net.cpp:411] ip3_drop3_0_split -> ip3_drop3_0_split_0
I0521 12:00:59.076584   390 net.cpp:411] ip3_drop3_0_split -> ip3_drop3_0_split_1
I0521 12:00:59.076656   390 net.cpp:150] Setting up ip3_drop3_0_split
I0521 12:00:59.076669   390 net.cpp:157] Top shape: 10 11 (110)
I0521 12:00:59.076681   390 net.cpp:157] Top shape: 10 11 (110)
I0521 12:00:59.076691   390 net.cpp:165] Memory required for data: 15788760
I0521 12:00:59.076702   390 layer_factory.hpp:77] Creating layer accuracy
I0521 12:00:59.076725   390 net.cpp:106] Creating Layer accuracy
I0521 12:00:59.076735   390 net.cpp:454] accuracy <- ip3_drop3_0_split_0
I0521 12:00:59.076745   390 net.cpp:454] accuracy <- label_data_hdf5_1_split_0
I0521 12:00:59.076759   390 net.cpp:411] accuracy -> accuracy
…
