…
I0525 16:53:26.824324 29117 net.cpp:322] The NetState phase (0) differed from the phase (1) specified by a rule in layer data_hdf5
I0525 16:53:26.824394 29117 net.cpp:322] The NetState phase (0) differed from the phase (1) specified by a rule in layer accuracy
I0525 16:53:26.824770 29117 net.cpp:49] Initializing net from parameters: 
name: "caffe_test_127x50_x_unshifted"
state {
  phase: TRAIN
}
layer {
  name: "data_hdf5"
  type: "HDF5Data"
  top: "data"
  top: "label"
  include {
    phase: TRAIN
  }
  hdf5_data_param {
    source: "/lustre/atlas/proj-shared/hep105/caffe_titan/minosmatch_nukecczdefs_127x50_x_unshifted_me1Bmc.trainlist"
    batch_size: 100
  }
}
layer {
  name: "conv1"
  type: "Convolution"
  bottom: "data"
  top: "conv1"
  convolution_param {
    num_output: 12
    pad: 0
    stride: 1
    weight_filler {
      type: "xavier"
    }
    bias_filler {
      type: "constant"
    }
    kernel_h: 8
    kernel_w: 3
  }
}
layer {
  name: "relu1"
  type: "ReLU"
  bottom: "conv1"
  top: "conv1"
}
layer {
  name: "pool1"
  type: "Pooling"
  bottom: "conv1"
  top: "pool1"
  pooling_param {
    pool: MAX
    kernel_h: 2
    kernel_w: 1
    stride_h: 2
    stride_w: 1
  }
}
layer {
  name: "conv2"
  type: "Convolution"
  bottom: "pool1"
  top: "conv2"
  convolution_param {
    num_output: 20
    pad: 0
    stride: 1
    weight_filler {
      type: "xavier"
    }
    bias_filler {
      type: "constant"
    }
    kernel_h: 7
    kernel_w: 3
  }
}
layer {
  name: "relu2"
  type: "ReLU"
  bottom: "conv2"
  top: "conv2"
}
layer {
  name: "pool2"
  type: "Pooling"
  bottom: "conv2"
  top: "pool2"
  pooling_param {
    pool: MAX
    kernel_h: 2
    kernel_w: 1
    stride_h: 2
    stride_w: 1
  }
}
layer {
  name: "conv3"
  type: "Convolution"
  bottom: "pool2"
  top: "conv3"
  convolution_param {
    num_output: 28
    pad: 0
    stride: 1
    weight_filler {
      type: "xavier"
    }
    bias_filler {
      type: "constant"
    }
    kernel_h: 6
    kernel_w: 3
  }
}
layer {
  name: "relu3"
  type: "ReLU"
  bottom: "conv3"
  top: "conv3"
}
layer {
  name: "pool3"
  type: "Pooling"
  bottom: "conv3"
  top: "pool3"
  pooling_param {
    pool: MAX
    kernel_h: 2
    kernel_w: 1
    stride_h: 2
    stride_w: 1
  }
}
layer {
  name: "conv4"
  type: "Convolution"
  bottom: "pool3"
  top: "conv4"
  convolution_param {
    num_output: 36
    pad: 0
    stride: 1
    weight_filler {
      type: "xavier"
    }
    bias_filler {
      type: "constant"
    }
    kernel_h: 6
    kernel_w: 3
  }
}
layer {
  name: "relu4"
  type: "ReLU"
  bottom: "conv4"
  top: "conv4"
}
layer {
  name: "pool4"
  type: "Pooling"
  bottom: "conv4"
  top: "pool4"
  pooling_param {
    pool: MAX
    kernel_h: 2
    kernel_w: 1
    stride_h: 2
    stride_w: 1
  }
}
layer {
  name: "ip1"
  type: "InnerProduct"
  bottom: "pool4"
  top: "ip1"
  inner_product_param {
    num_output: 196
    weight_filler {
      type: "xavier"
    }
    bias_filler {
      type: "constant"
    }
  }
}
layer {
  name: "relu5"
  type: "ReLU"
  bottom: "ip1"
  top: "ip1"
}
layer {
  name: "drop1"
  type: "Dropout"
  bottom: "ip1"
  top: "ip1"
  dropout_param {
    dropout_ratio: 0.5
  }
}
layer {
  name: "ip2"
  type: "InnerProduct"
  bottom: "ip1"
  top: "ip2"
  inner_product_param {
    num_output: 98
    weight_filler {
      type: "xavier"
    }
    bias_filler {
      type: "constant"
    }
  }
}
layer {
  name: "relu6"
  type: "ReLU"
  bottom: "ip2"
  top: "ip2"
}
layer {
  name: "drop2"
  type: "Dropout"
  bottom: "ip2"
  top: "ip2"
  dropout_param {
    dropout_ratio: 0.5
  }
}
layer {
  name: "ip3"
  type: "InnerProduct"
  bottom: "ip2"
  top: "ip3"
  inner_product_param {
    num_output: 11
    weight_filler {
      type: "xavier"
    }
    bias_filler {
      type: "constant"
    }
  }
}
layer {
  name: "drop3"
  type: "Dropout"
  bottom: "ip3"
  top: "ip3"
  dropout_param {
    dropout_ratio: 0.5
  }
}
layer {
  name: "loss"
  type: "SoftmaxWithLoss"
  bottom: "ip3"
  bottom: "label"
  top: "loss"
}
I0525 16:53:26.824982 29117 layer_factory.hpp:77] Creating layer data_hdf5
I0525 16:53:26.825011 29117 net.cpp:106] Creating Layer data_hdf5
I0525 16:53:26.825029 29117 net.cpp:411] data_hdf5 -> data
I0525 16:53:26.825070 29117 net.cpp:411] data_hdf5 -> label
I0525 16:53:26.825109 29117 hdf5_data_layer.cpp:79] Loading list of HDF5 filenames from: /lustre/atlas/proj-shared/hep105/caffe_titan/minosmatch_nukecczdefs_127x50_x_unshifted_me1Bmc.trainlist
I0525 16:53:26.836607 29117 hdf5_data_layer.cpp:93] Number of HDF5 files: 15
I0525 16:53:26.851325 29117 hdf5.cpp:32] Datatype class: H5T_FLOAT
I0525 16:53:48.446795 29117 hdf5.cpp:35] Datatype class: H5T_INTEGER
I0525 16:53:48.452190 29117 net.cpp:150] Setting up data_hdf5
I0525 16:53:48.452232 29117 net.cpp:157] Top shape: 100 1 127 50 (635000)
I0525 16:53:48.452250 29117 net.cpp:157] Top shape: 100 (100)
I0525 16:53:48.452263 29117 net.cpp:165] Memory required for data: 2540400
I0525 16:53:48.452282 29117 layer_factory.hpp:77] Creating layer conv1
I0525 16:53:48.452330 29117 net.cpp:106] Creating Layer conv1
I0525 16:53:48.452344 29117 net.cpp:454] conv1 <- data
I0525 16:53:48.452369 29117 net.cpp:411] conv1 -> conv1
I0525 16:53:51.414569 29117 net.cpp:150] Setting up conv1
I0525 16:53:51.414623 29117 net.cpp:157] Top shape: 100 12 120 48 (6912000)
I0525 16:53:51.414636 29117 net.cpp:165] Memory required for data: 30188400
I0525 16:53:51.414667 29117 layer_factory.hpp:77] Creating layer relu1
I0525 16:53:51.414690 29117 net.cpp:106] Creating Layer relu1
I0525 16:53:51.414702 29117 net.cpp:454] relu1 <- conv1
I0525 16:53:51.414726 29117 net.cpp:397] relu1 -> conv1 (in-place)
I0525 16:53:51.415273 29117 net.cpp:150] Setting up relu1
I0525 16:53:51.415298 29117 net.cpp:157] Top shape: 100 12 120 48 (6912000)
I0525 16:53:51.415312 29117 net.cpp:165] Memory required for data: 57836400
I0525 16:53:51.415328 29117 layer_factory.hpp:77] Creating layer pool1
I0525 16:53:51.415355 29117 net.cpp:106] Creating Layer pool1
I0525 16:53:51.415369 29117 net.cpp:454] pool1 <- conv1
I0525 16:53:51.415386 29117 net.cpp:411] pool1 -> pool1
I0525 16:53:51.415479 29117 net.cpp:150] Setting up pool1
I0525 16:53:51.415498 29117 net.cpp:157] Top shape: 100 12 60 48 (3456000)
I0525 16:53:51.415513 29117 net.cpp:165] Memory required for data: 71660400
I0525 16:53:51.415534 29117 layer_factory.hpp:77] Creating layer conv2
I0525 16:53:51.415558 29117 net.cpp:106] Creating Layer conv2
I0525 16:53:51.415572 29117 net.cpp:454] conv2 <- pool1
I0525 16:53:51.415587 29117 net.cpp:411] conv2 -> conv2
I0525 16:53:51.418344 29117 net.cpp:150] Setting up conv2
I0525 16:53:51.418375 29117 net.cpp:157] Top shape: 100 20 54 46 (4968000)
I0525 16:53:51.418391 29117 net.cpp:165] Memory required for data: 91532400
I0525 16:53:51.418418 29117 layer_factory.hpp:77] Creating layer relu2
I0525 16:53:51.418447 29117 net.cpp:106] Creating Layer relu2
I0525 16:53:51.418462 29117 net.cpp:454] relu2 <- conv2
I0525 16:53:51.418478 29117 net.cpp:397] relu2 -> conv2 (in-place)
I0525 16:53:51.418833 29117 net.cpp:150] Setting up relu2
I0525 16:53:51.418853 29117 net.cpp:157] Top shape: 100 20 54 46 (4968000)
I0525 16:53:51.418865 29117 net.cpp:165] Memory required for data: 111404400
I0525 16:53:51.418881 29117 layer_factory.hpp:77] Creating layer pool2
I0525 16:53:51.418905 29117 net.cpp:106] Creating Layer pool2
I0525 16:53:51.418917 29117 net.cpp:454] pool2 <- conv2
I0525 16:53:51.418933 29117 net.cpp:411] pool2 -> pool2
I0525 16:53:51.419028 29117 net.cpp:150] Setting up pool2
I0525 16:53:51.419046 29117 net.cpp:157] Top shape: 100 20 27 46 (2484000)
I0525 16:53:51.419061 29117 net.cpp:165] Memory required for data: 121340400
I0525 16:53:51.419081 29117 layer_factory.hpp:77] Creating layer conv3
I0525 16:53:51.419102 29117 net.cpp:106] Creating Layer conv3
I0525 16:53:51.419124 29117 net.cpp:454] conv3 <- pool2
I0525 16:53:51.419140 29117 net.cpp:411] conv3 -> conv3
I0525 16:53:51.421100 29117 net.cpp:150] Setting up conv3
I0525 16:53:51.421126 29117 net.cpp:157] Top shape: 100 28 22 44 (2710400)
I0525 16:53:51.421140 29117 net.cpp:165] Memory required for data: 132182000
I0525 16:53:51.421166 29117 layer_factory.hpp:77] Creating layer relu3
I0525 16:53:51.421195 29117 net.cpp:106] Creating Layer relu3
I0525 16:53:51.421208 29117 net.cpp:454] relu3 <- conv3
I0525 16:53:51.421224 29117 net.cpp:397] relu3 -> conv3 (in-place)
I0525 16:53:51.421728 29117 net.cpp:150] Setting up relu3
I0525 16:53:51.421753 29117 net.cpp:157] Top shape: 100 28 22 44 (2710400)
I0525 16:53:51.421766 29117 net.cpp:165] Memory required for data: 143023600
I0525 16:53:51.421783 29117 layer_factory.hpp:77] Creating layer pool3
I0525 16:53:51.421807 29117 net.cpp:106] Creating Layer pool3
I0525 16:53:51.421820 29117 net.cpp:454] pool3 <- conv3
I0525 16:53:51.421836 29117 net.cpp:411] pool3 -> pool3
I0525 16:53:51.421919 29117 net.cpp:150] Setting up pool3
I0525 16:53:51.421936 29117 net.cpp:157] Top shape: 100 28 11 44 (1355200)
I0525 16:53:51.421952 29117 net.cpp:165] Memory required for data: 148444400
I0525 16:53:51.421963 29117 layer_factory.hpp:77] Creating layer conv4
I0525 16:53:51.421984 29117 net.cpp:106] Creating Layer conv4
I0525 16:53:51.422004 29117 net.cpp:454] conv4 <- pool3
I0525 16:53:51.422021 29117 net.cpp:411] conv4 -> conv4
I0525 16:53:51.425024 29117 net.cpp:150] Setting up conv4
I0525 16:53:51.425060 29117 net.cpp:157] Top shape: 100 36 6 42 (907200)
I0525 16:53:51.425073 29117 net.cpp:165] Memory required for data: 152073200
I0525 16:53:51.425097 29117 layer_factory.hpp:77] Creating layer relu4
I0525 16:53:51.425127 29117 net.cpp:106] Creating Layer relu4
I0525 16:53:51.425140 29117 net.cpp:454] relu4 <- conv4
I0525 16:53:51.425156 29117 net.cpp:397] relu4 -> conv4 (in-place)
I0525 16:53:51.425649 29117 net.cpp:150] Setting up relu4
I0525 16:53:51.425673 29117 net.cpp:157] Top shape: 100 36 6 42 (907200)
I0525 16:53:51.425685 29117 net.cpp:165] Memory required for data: 155702000
I0525 16:53:51.425701 29117 layer_factory.hpp:77] Creating layer pool4
I0525 16:53:51.425724 29117 net.cpp:106] Creating Layer pool4
I0525 16:53:51.425739 29117 net.cpp:454] pool4 <- conv4
I0525 16:53:51.425755 29117 net.cpp:411] pool4 -> pool4
I0525 16:53:51.425837 29117 net.cpp:150] Setting up pool4
I0525 16:53:51.425859 29117 net.cpp:157] Top shape: 100 36 3 42 (453600)
I0525 16:53:51.425873 29117 net.cpp:165] Memory required for data: 157516400
I0525 16:53:51.425886 29117 layer_factory.hpp:77] Creating layer ip1
I0525 16:53:51.425915 29117 net.cpp:106] Creating Layer ip1
I0525 16:53:51.425928 29117 net.cpp:454] ip1 <- pool4
I0525 16:53:51.425945 29117 net.cpp:411] ip1 -> ip1
I0525 16:53:51.441331 29117 net.cpp:150] Setting up ip1
I0525 16:53:51.441365 29117 net.cpp:157] Top shape: 100 196 (19600)
I0525 16:53:51.441378 29117 net.cpp:165] Memory required for data: 157594800
I0525 16:53:51.441408 29117 layer_factory.hpp:77] Creating layer relu5
I0525 16:53:51.441437 29117 net.cpp:106] Creating Layer relu5
I0525 16:53:51.441452 29117 net.cpp:454] relu5 <- ip1
I0525 16:53:51.441468 29117 net.cpp:397] relu5 -> ip1 (in-place)
I0525 16:53:51.441833 29117 net.cpp:150] Setting up relu5
I0525 16:53:51.441854 29117 net.cpp:157] Top shape: 100 196 (19600)
I0525 16:53:51.441865 29117 net.cpp:165] Memory required for data: 157673200
I0525 16:53:51.441877 29117 layer_factory.hpp:77] Creating layer drop1
I0525 16:53:51.441910 29117 net.cpp:106] Creating Layer drop1
I0525 16:53:51.441925 29117 net.cpp:454] drop1 <- ip1
I0525 16:53:51.441941 29117 net.cpp:397] drop1 -> ip1 (in-place)
I0525 16:53:51.442011 29117 net.cpp:150] Setting up drop1
I0525 16:53:51.442028 29117 net.cpp:157] Top shape: 100 196 (19600)
I0525 16:53:51.442041 29117 net.cpp:165] Memory required for data: 157751600
I0525 16:53:51.442056 29117 layer_factory.hpp:77] Creating layer ip2
I0525 16:53:51.442077 29117 net.cpp:106] Creating Layer ip2
I0525 16:53:51.442097 29117 net.cpp:454] ip2 <- ip1
I0525 16:53:51.442113 29117 net.cpp:411] ip2 -> ip2
I0525 16:53:51.442603 29117 net.cpp:150] Setting up ip2
I0525 16:53:51.442623 29117 net.cpp:157] Top shape: 100 98 (9800)
I0525 16:53:51.442636 29117 net.cpp:165] Memory required for data: 157790800
I0525 16:53:51.442656 29117 layer_factory.hpp:77] Creating layer relu6
I0525 16:53:51.442677 29117 net.cpp:106] Creating Layer relu6
I0525 16:53:51.442690 29117 net.cpp:454] relu6 <- ip2
I0525 16:53:51.442705 29117 net.cpp:397] relu6 -> ip2 (in-place)
I0525 16:53:51.443259 29117 net.cpp:150] Setting up relu6
I0525 16:53:51.443282 29117 net.cpp:157] Top shape: 100 98 (9800)
I0525 16:53:51.443295 29117 net.cpp:165] Memory required for data: 157830000
I0525 16:53:51.443311 29117 layer_factory.hpp:77] Creating layer drop2
I0525 16:53:51.443334 29117 net.cpp:106] Creating Layer drop2
I0525 16:53:51.443348 29117 net.cpp:454] drop2 <- ip2
I0525 16:53:51.443363 29117 net.cpp:397] drop2 -> ip2 (in-place)
I0525 16:53:51.443419 29117 net.cpp:150] Setting up drop2
I0525 16:53:51.443435 29117 net.cpp:157] Top shape: 100 98 (9800)
I0525 16:53:51.443449 29117 net.cpp:165] Memory required for data: 157869200
I0525 16:53:51.443467 29117 layer_factory.hpp:77] Creating layer ip3
I0525 16:53:51.443485 29117 net.cpp:106] Creating Layer ip3
I0525 16:53:51.443496 29117 net.cpp:454] ip3 <- ip2
I0525 16:53:51.443514 29117 net.cpp:411] ip3 -> ip3
I0525 16:53:51.443744 29117 net.cpp:150] Setting up ip3
I0525 16:53:51.443763 29117 net.cpp:157] Top shape: 100 11 (1100)
I0525 16:53:51.443776 29117 net.cpp:165] Memory required for data: 157873600
I0525 16:53:51.443796 29117 layer_factory.hpp:77] Creating layer drop3
I0525 16:53:51.443819 29117 net.cpp:106] Creating Layer drop3
I0525 16:53:51.443831 29117 net.cpp:454] drop3 <- ip3
I0525 16:53:51.443846 29117 net.cpp:397] drop3 -> ip3 (in-place)
I0525 16:53:51.443893 29117 net.cpp:150] Setting up drop3
I0525 16:53:51.443915 29117 net.cpp:157] Top shape: 100 11 (1100)
I0525 16:53:51.443928 29117 net.cpp:165] Memory required for data: 157878000
I0525 16:53:51.443948 29117 layer_factory.hpp:77] Creating layer loss
I0525 16:53:51.443969 29117 net.cpp:106] Creating Layer loss
I0525 16:53:51.443984 29117 net.cpp:454] loss <- ip3
I0525 16:53:51.444003 29117 net.cpp:454] loss <- label
I0525 16:53:51.444018 29117 net.cpp:411] loss -> loss
I0525 16:53:51.444037 29117 layer_factory.hpp:77] Creating layer loss
…
I0525 16:53:51.446861 29117 solver.cpp:181] Creating test net (#0) specified by net file: /lustre/atlas/proj-shared/hep105/caffe_titan/caffe_workflow/logs_bslr/bs_100_lr_0.0020_2016-05-20T15.49.25.121647.prototxt
I0525 16:53:51.446940 29117 net.cpp:322] The NetState phase (1) differed from the phase (0) specified by a rule in layer data_hdf5
I0525 16:53:51.447319 29117 net.cpp:49] Initializing net from parameters: 
name: "caffe_test_127x50_x_unshifted"
state {
  phase: TEST
}
layer {
  name: "data_hdf5"
  type: "HDF5Data"
  top: "data"
  top: "label"
  include {
    phase: TEST
  }
  hdf5_data_param {
    source: "/lustre/atlas/proj-shared/hep105/caffe_titan/minosmatch_nukecczdefs_127x50_x_unshifted_me1Bmc.testlist"
    batch_size: 100
  }
}
layer {
  name: "conv1"
  type: "Convolution"
  bottom: "data"
  top: "conv1"
  convolution_param {
    num_output: 12
    pad: 0
    stride: 1
    weight_filler {
      type: "xavier"
    }
    bias_filler {
      type: "constant"
    }
    kernel_h: 8
    kernel_w: 3
  }
}
layer {
  name: "relu1"
  type: "ReLU"
  bottom: "conv1"
  top: "conv1"
}
layer {
  name: "pool1"
  type: "Pooling"
  bottom: "conv1"
  top: "pool1"
  pooling_param {
    pool: MAX
    kernel_h: 2
    kernel_w: 1
    stride_h: 2
    stride_w: 1
  }
}
layer {
  name: "conv2"
  type: "Convolution"
  bottom: "pool1"
  top: "conv2"
  convolution_param {
    num_output: 20
    pad: 0
    stride: 1
    weight_filler {
      type: "xavier"
    }
    bias_filler {
      type: "constant"
    }
    kernel_h: 7
    kernel_w: 3
  }
}
layer {
  name: "relu2"
  type: "ReLU"
  bottom: "conv2"
  top: "conv2"
}
layer {
  name: "pool2"
  type: "Pooling"
  bottom: "conv2"
  top: "pool2"
  pooling_param {
    pool: MAX
    kernel_h: 2
    kernel_w: 1
    stride_h: 2
    stride_w: 1
  }
}
layer {
  name: "conv3"
  type: "Convolution"
  bottom: "pool2"
  top: "conv3"
  convolution_param {
    num_output: 28
    pad: 0
    stride: 1
    weight_filler {
      type: "xavier"
    }
    bias_filler {
      type: "constant"
    }
    kernel_h: 6
    kernel_w: 3
  }
}
layer {
  name: "relu3"
  type: "ReLU"
  bottom: "conv3"
  top: "conv3"
}
layer {
  name: "pool3"
  type: "Pooling"
  bottom: "conv3"
  top: "pool3"
  pooling_param {
    pool: MAX
    kernel_h: 2
    kernel_w: 1
    stride_h: 2
    stride_w: 1
  }
}
layer {
  name: "conv4"
  type: "Convolution"
  bottom: "pool3"
  top: "conv4"
  convolution_param {
    num_output: 36
    pad: 0
    stride: 1
    weight_filler {
      type: "xavier"
    }
    bias_filler {
      type: "constant"
    }
    kernel_h: 6
    kernel_w: 3
  }
}
layer {
  name: "relu4"
  type: "ReLU"
  bottom: "conv4"
  top: "conv4"
}
layer {
  name: "pool4"
  type: "Pooling"
  bottom: "conv4"
  top: "pool4"
  pooling_param {
    pool: MAX
    kernel_h: 2
    kernel_w: 1
    stride_h: 2
    stride_w: 1
  }
}
layer {
  name: "ip1"
  type: "InnerProduct"
  bottom: "pool4"
  top: "ip1"
  inner_product_param {
    num_output: 196
    weight_filler {
      type: "xavier"
    }
    bias_filler {
      type: "constant"
    }
  }
}
layer {
  name: "relu5"
  type: "ReLU"
  bottom: "ip1"
  top: "ip1"
}
layer {
  name: "drop1"
  type: "Dropout"
  bottom: "ip1"
  top: "ip1"
  dropout_param {
    dropout_ratio: 0.5
  }
}
layer {
  name: "ip2"
  type: "InnerProduct"
  bottom: "ip1"
  top: "ip2"
  inner_product_param {
    num_output: 98
    weight_filler {
      type: "xavier"
    }
    bias_filler {
      type: "constant"
    }
  }
}
layer {
  name: "relu6"
  type: "ReLU"
  bottom: "ip2"
  top: "ip2"
}
layer {
  name: "drop2"
  type: "Dropout"
  bottom: "ip2"
  top: "ip2"
  dropout_param {
    dropout_ratio: 0.5
  }
}
layer {
  name: "ip3"
  type: "InnerProduct"
  bottom: "ip2"
  top: "ip3"
  inner_product_param {
    num_output: 11
    weight_filler {
      type: "xavier"
    }
    bias_filler {
      type: "constant"
    }
  }
}
layer {
  name: "drop3"
  type: "Dropout"
  bottom: "ip3"
  top: "ip3"
  dropout_param {
    dropout_ratio: 0.5
  }
}
layer {
  name: "accuracy"
  type: "Accuracy"
  bottom: "ip3"
  bottom: "label"
  top: "accuracy"
  include {
    phase: TEST
  }
}
layer {
  name: "loss"
  type: "SoftmaxWithLoss"
  bottom: "ip3"
  bottom: "label"
  top: "loss"
}
I0525 16:53:51.447540 29117 layer_factory.hpp:77] Creating layer data_hdf5
I0525 16:53:51.447561 29117 net.cpp:106] Creating Layer data_hdf5
I0525 16:53:51.447579 29117 net.cpp:411] data_hdf5 -> data
I0525 16:53:51.447599 29117 net.cpp:411] data_hdf5 -> label
I0525 16:53:51.447620 29117 hdf5_data_layer.cpp:79] Loading list of HDF5 filenames from: /lustre/atlas/proj-shared/hep105/caffe_titan/minosmatch_nukecczdefs_127x50_x_unshifted_me1Bmc.testlist
I0525 16:53:51.465700 29117 hdf5_data_layer.cpp:93] Number of HDF5 files: 3
I0525 16:54:12.845921 29117 net.cpp:150] Setting up data_hdf5
I0525 16:54:12.846091 29117 net.cpp:157] Top shape: 100 1 127 50 (635000)
I0525 16:54:12.846117 29117 net.cpp:157] Top shape: 100 (100)
I0525 16:54:12.846129 29117 net.cpp:165] Memory required for data: 2540400
I0525 16:54:12.846144 29117 layer_factory.hpp:77] Creating layer label_data_hdf5_1_split
I0525 16:54:12.846173 29117 net.cpp:106] Creating Layer label_data_hdf5_1_split
I0525 16:54:12.846191 29117 net.cpp:454] label_data_hdf5_1_split <- label
I0525 16:54:12.846209 29117 net.cpp:411] label_data_hdf5_1_split -> label_data_hdf5_1_split_0
I0525 16:54:12.846249 29117 net.cpp:411] label_data_hdf5_1_split -> label_data_hdf5_1_split_1
I0525 16:54:12.846329 29117 net.cpp:150] Setting up label_data_hdf5_1_split
I0525 16:54:12.846354 29117 net.cpp:157] Top shape: 100 (100)
I0525 16:54:12.846369 29117 net.cpp:157] Top shape: 100 (100)
I0525 16:54:12.846381 29117 net.cpp:165] Memory required for data: 2541200
I0525 16:54:12.846395 29117 layer_factory.hpp:77] Creating layer conv1
I0525 16:54:12.846417 29117 net.cpp:106] Creating Layer conv1
I0525 16:54:12.846432 29117 net.cpp:454] conv1 <- data
I0525 16:54:12.846458 29117 net.cpp:411] conv1 -> conv1
I0525 16:54:12.848510 29117 net.cpp:150] Setting up conv1
I0525 16:54:12.848533 29117 net.cpp:157] Top shape: 100 12 120 48 (6912000)
I0525 16:54:12.848554 29117 net.cpp:165] Memory required for data: 30189200
I0525 16:54:12.848577 29117 layer_factory.hpp:77] Creating layer relu1
I0525 16:54:12.848598 29117 net.cpp:106] Creating Layer relu1
I0525 16:54:12.848619 29117 net.cpp:454] relu1 <- conv1
I0525 16:54:12.848636 29117 net.cpp:397] relu1 -> conv1 (in-place)
I0525 16:54:12.849161 29117 net.cpp:150] Setting up relu1
I0525 16:54:12.849184 29117 net.cpp:157] Top shape: 100 12 120 48 (6912000)
I0525 16:54:12.849197 29117 net.cpp:165] Memory required for data: 57837200
I0525 16:54:12.849213 29117 layer_factory.hpp:77] Creating layer pool1
I0525 16:54:12.849241 29117 net.cpp:106] Creating Layer pool1
I0525 16:54:12.849253 29117 net.cpp:454] pool1 <- conv1
I0525 16:54:12.849269 29117 net.cpp:411] pool1 -> pool1
I0525 16:54:12.849359 29117 net.cpp:150] Setting up pool1
I0525 16:54:12.849375 29117 net.cpp:157] Top shape: 100 12 60 48 (3456000)
I0525 16:54:12.849390 29117 net.cpp:165] Memory required for data: 71661200
I0525 16:54:12.849411 29117 layer_factory.hpp:77] Creating layer conv2
I0525 16:54:12.849431 29117 net.cpp:106] Creating Layer conv2
I0525 16:54:12.849452 29117 net.cpp:454] conv2 <- pool1
I0525 16:54:12.849469 29117 net.cpp:411] conv2 -> conv2
I0525 16:54:12.851424 29117 net.cpp:150] Setting up conv2
I0525 16:54:12.851449 29117 net.cpp:157] Top shape: 100 20 54 46 (4968000)
I0525 16:54:12.851469 29117 net.cpp:165] Memory required for data: 91533200
I0525 16:54:12.851490 29117 layer_factory.hpp:77] Creating layer relu2
I0525 16:54:12.851511 29117 net.cpp:106] Creating Layer relu2
I0525 16:54:12.851532 29117 net.cpp:454] relu2 <- conv2
I0525 16:54:12.851548 29117 net.cpp:397] relu2 -> conv2 (in-place)
I0525 16:54:12.851900 29117 net.cpp:150] Setting up relu2
I0525 16:54:12.851919 29117 net.cpp:157] Top shape: 100 20 54 46 (4968000)
I0525 16:54:12.851933 29117 net.cpp:165] Memory required for data: 111405200
I0525 16:54:12.851948 29117 layer_factory.hpp:77] Creating layer pool2
I0525 16:54:12.851969 29117 net.cpp:106] Creating Layer pool2
I0525 16:54:12.851982 29117 net.cpp:454] pool2 <- conv2
I0525 16:54:12.851999 29117 net.cpp:411] pool2 -> pool2
I0525 16:54:12.852088 29117 net.cpp:150] Setting up pool2
I0525 16:54:12.852105 29117 net.cpp:157] Top shape: 100 20 27 46 (2484000)
I0525 16:54:12.852118 29117 net.cpp:165] Memory required for data: 121341200
I0525 16:54:12.852139 29117 layer_factory.hpp:77] Creating layer conv3
I0525 16:54:12.852162 29117 net.cpp:106] Creating Layer conv3
I0525 16:54:12.852175 29117 net.cpp:454] conv3 <- pool2
I0525 16:54:12.852192 29117 net.cpp:411] conv3 -> conv3
I0525 16:54:12.854223 29117 net.cpp:150] Setting up conv3
I0525 16:54:12.854249 29117 net.cpp:157] Top shape: 100 28 22 44 (2710400)
I0525 16:54:12.854267 29117 net.cpp:165] Memory required for data: 132182800
I0525 16:54:12.854307 29117 layer_factory.hpp:77] Creating layer relu3
I0525 16:54:12.854332 29117 net.cpp:106] Creating Layer relu3
I0525 16:54:12.854346 29117 net.cpp:454] relu3 <- conv3
I0525 16:54:12.854362 29117 net.cpp:397] relu3 -> conv3 (in-place)
I0525 16:54:12.854866 29117 net.cpp:150] Setting up relu3
I0525 16:54:12.854889 29117 net.cpp:157] Top shape: 100 28 22 44 (2710400)
I0525 16:54:12.854902 29117 net.cpp:165] Memory required for data: 143024400
I0525 16:54:12.854918 29117 layer_factory.hpp:77] Creating layer pool3
I0525 16:54:12.854943 29117 net.cpp:106] Creating Layer pool3
I0525 16:54:12.854956 29117 net.cpp:454] pool3 <- conv3
I0525 16:54:12.854972 29117 net.cpp:411] pool3 -> pool3
I0525 16:54:12.855059 29117 net.cpp:150] Setting up pool3
I0525 16:54:12.855077 29117 net.cpp:157] Top shape: 100 28 11 44 (1355200)
I0525 16:54:12.855093 29117 net.cpp:165] Memory required for data: 148445200
I0525 16:54:12.855104 29117 layer_factory.hpp:77] Creating layer conv4
I0525 16:54:12.855131 29117 net.cpp:106] Creating Layer conv4
I0525 16:54:12.855152 29117 net.cpp:454] conv4 <- pool3
I0525 16:54:12.855170 29117 net.cpp:411] conv4 -> conv4
I0525 16:54:12.857295 29117 net.cpp:150] Setting up conv4
I0525 16:54:12.857319 29117 net.cpp:157] Top shape: 100 36 6 42 (907200)
I0525 16:54:12.857333 29117 net.cpp:165] Memory required for data: 152074000
I0525 16:54:12.857352 29117 layer_factory.hpp:77] Creating layer relu4
I0525 16:54:12.857380 29117 net.cpp:106] Creating Layer relu4
I0525 16:54:12.857395 29117 net.cpp:454] relu4 <- conv4
I0525 16:54:12.857411 29117 net.cpp:397] relu4 -> conv4 (in-place)
I0525 16:54:12.857919 29117 net.cpp:150] Setting up relu4
I0525 16:54:12.857942 29117 net.cpp:157] Top shape: 100 36 6 42 (907200)
I0525 16:54:12.857955 29117 net.cpp:165] Memory required for data: 155702800
I0525 16:54:12.857971 29117 layer_factory.hpp:77] Creating layer pool4
I0525 16:54:12.857996 29117 net.cpp:106] Creating Layer pool4
I0525 16:54:12.858009 29117 net.cpp:454] pool4 <- conv4
I0525 16:54:12.858026 29117 net.cpp:411] pool4 -> pool4
I0525 16:54:12.858111 29117 net.cpp:150] Setting up pool4
I0525 16:54:12.858129 29117 net.cpp:157] Top shape: 100 36 3 42 (453600)
I0525 16:54:12.858141 29117 net.cpp:165] Memory required for data: 157517200
I0525 16:54:12.858156 29117 layer_factory.hpp:77] Creating layer ip1
I0525 16:54:12.858181 29117 net.cpp:106] Creating Layer ip1
I0525 16:54:12.858194 29117 net.cpp:454] ip1 <- pool4
I0525 16:54:12.858217 29117 net.cpp:411] ip1 -> ip1
I0525 16:54:12.873684 29117 net.cpp:150] Setting up ip1
I0525 16:54:12.873716 29117 net.cpp:157] Top shape: 100 196 (19600)
I0525 16:54:12.873735 29117 net.cpp:165] Memory required for data: 157595600
I0525 16:54:12.873761 29117 layer_factory.hpp:77] Creating layer relu5
I0525 16:54:12.873783 29117 net.cpp:106] Creating Layer relu5
I0525 16:54:12.873807 29117 net.cpp:454] relu5 <- ip1
I0525 16:54:12.873824 29117 net.cpp:397] relu5 -> ip1 (in-place)
I0525 16:54:12.874191 29117 net.cpp:150] Setting up relu5
I0525 16:54:12.874210 29117 net.cpp:157] Top shape: 100 196 (19600)
I0525 16:54:12.874223 29117 net.cpp:165] Memory required for data: 157674000
I0525 16:54:12.874238 29117 layer_factory.hpp:77] Creating layer drop1
I0525 16:54:12.874266 29117 net.cpp:106] Creating Layer drop1
I0525 16:54:12.874279 29117 net.cpp:454] drop1 <- ip1
I0525 16:54:12.874295 29117 net.cpp:397] drop1 -> ip1 (in-place)
I0525 16:54:12.874352 29117 net.cpp:150] Setting up drop1
I0525 16:54:12.874369 29117 net.cpp:157] Top shape: 100 196 (19600)
I0525 16:54:12.874382 29117 net.cpp:165] Memory required for data: 157752400
I0525 16:54:12.874397 29117 layer_factory.hpp:77] Creating layer ip2
I0525 16:54:12.874416 29117 net.cpp:106] Creating Layer ip2
I0525 16:54:12.874428 29117 net.cpp:454] ip2 <- ip1
I0525 16:54:12.874452 29117 net.cpp:411] ip2 -> ip2
I0525 16:54:12.874948 29117 net.cpp:150] Setting up ip2
I0525 16:54:12.874968 29117 net.cpp:157] Top shape: 100 98 (9800)
I0525 16:54:12.874979 29117 net.cpp:165] Memory required for data: 157791600
I0525 16:54:12.875000 29117 layer_factory.hpp:77] Creating layer relu6
I0525 16:54:12.875036 29117 net.cpp:106] Creating Layer relu6
I0525 16:54:12.875048 29117 net.cpp:454] relu6 <- ip2
I0525 16:54:12.875064 29117 net.cpp:397] relu6 -> ip2 (in-place)
I0525 16:54:12.875636 29117 net.cpp:150] Setting up relu6
I0525 16:54:12.875659 29117 net.cpp:157] Top shape: 100 98 (9800)
I0525 16:54:12.875672 29117 net.cpp:165] Memory required for data: 157830800
I0525 16:54:12.875685 29117 layer_factory.hpp:77] Creating layer drop2
I0525 16:54:12.875705 29117 net.cpp:106] Creating Layer drop2
I0525 16:54:12.875726 29117 net.cpp:454] drop2 <- ip2
I0525 16:54:12.875743 29117 net.cpp:397] drop2 -> ip2 (in-place)
I0525 16:54:12.875795 29117 net.cpp:150] Setting up drop2
I0525 16:54:12.875818 29117 net.cpp:157] Top shape: 100 98 (9800)
I0525 16:54:12.875830 29117 net.cpp:165] Memory required for data: 157870000
I0525 16:54:12.875849 29117 layer_factory.hpp:77] Creating layer ip3
I0525 16:54:12.875867 29117 net.cpp:106] Creating Layer ip3
I0525 16:54:12.875881 29117 net.cpp:454] ip3 <- ip2
I0525 16:54:12.875905 29117 net.cpp:411] ip3 -> ip3
I0525 16:54:12.876143 29117 net.cpp:150] Setting up ip3
I0525 16:54:12.876163 29117 net.cpp:157] Top shape: 100 11 (1100)
I0525 16:54:12.876175 29117 net.cpp:165] Memory required for data: 157874400
I0525 16:54:12.876196 29117 layer_factory.hpp:77] Creating layer drop3
I0525 16:54:12.876219 29117 net.cpp:106] Creating Layer drop3
I0525 16:54:12.876232 29117 net.cpp:454] drop3 <- ip3
I0525 16:54:12.876248 29117 net.cpp:397] drop3 -> ip3 (in-place)
I0525 16:54:12.876303 29117 net.cpp:150] Setting up drop3
I0525 16:54:12.876319 29117 net.cpp:157] Top shape: 100 11 (1100)
I0525 16:54:12.876332 29117 net.cpp:165] Memory required for data: 157878800
I0525 16:54:12.876344 29117 layer_factory.hpp:77] Creating layer ip3_drop3_0_split
I0525 16:54:12.876363 29117 net.cpp:106] Creating Layer ip3_drop3_0_split
I0525 16:54:12.876375 29117 net.cpp:454] ip3_drop3_0_split <- ip3
I0525 16:54:12.876399 29117 net.cpp:411] ip3_drop3_0_split -> ip3_drop3_0_split_0
I0525 16:54:12.876416 29117 net.cpp:411] ip3_drop3_0_split -> ip3_drop3_0_split_1
I0525 16:54:12.876504 29117 net.cpp:150] Setting up ip3_drop3_0_split
I0525 16:54:12.876526 29117 net.cpp:157] Top shape: 100 11 (1100)
I0525 16:54:12.876543 29117 net.cpp:157] Top shape: 100 11 (1100)
I0525 16:54:12.876556 29117 net.cpp:165] Memory required for data: 157887600
I0525 16:54:12.876569 29117 layer_factory.hpp:77] Creating layer accuracy
I0525 16:54:12.876600 29117 net.cpp:106] Creating Layer accuracy
I0525 16:54:12.876617 29117 net.cpp:454] accuracy <- ip3_drop3_0_split_0
I0525 16:54:12.876631 29117 net.cpp:454] accuracy <- label_data_hdf5_1_split_0
I0525 16:54:12.876647 29117 net.cpp:411] accuracy -> accuracy
…
