…
I0521 13:38:25.004029 14148 net.cpp:322] The NetState phase (0) differed from the phase (1) specified by a rule in layer data_hdf5
I0521 13:38:25.004099 14148 net.cpp:322] The NetState phase (0) differed from the phase (1) specified by a rule in layer accuracy
I0521 13:38:25.004448 14148 net.cpp:49] Initializing net from parameters: 
name: "caffe_test_127x50_x_unshifted"
state {
  phase: TRAIN
}
layer {
  name: "data_hdf5"
  type: "HDF5Data"
  top: "data"
  top: "label"
  include {
    phase: TRAIN
  }
  hdf5_data_param {
    source: "/lustre/atlas/proj-shared/hep105/caffe_titan/minosmatch_nukecczdefs_127x50_x_unshifted_me1Bmc.trainlist"
    batch_size: 10
  }
}
layer {
  name: "conv1"
  type: "Convolution"
  bottom: "data"
  top: "conv1"
  convolution_param {
    num_output: 12
    pad: 0
    stride: 1
    weight_filler {
      type: "xavier"
    }
    bias_filler {
      type: "constant"
    }
    kernel_h: 8
    kernel_w: 3
  }
}
layer {
  name: "relu1"
  type: "ReLU"
  bottom: "conv1"
  top: "conv1"
}
layer {
  name: "pool1"
  type: "Pooling"
  bottom: "conv1"
  top: "pool1"
  pooling_param {
    pool: MAX
    kernel_h: 2
    kernel_w: 1
    stride_h: 2
    stride_w: 1
  }
}
layer {
  name: "conv2"
  type: "Convolution"
  bottom: "pool1"
  top: "conv2"
  convolution_param {
    num_output: 20
    pad: 0
    stride: 1
    weight_filler {
      type: "xavier"
    }
    bias_filler {
      type: "constant"
    }
    kernel_h: 7
    kernel_w: 3
  }
}
layer {
  name: "relu2"
  type: "ReLU"
  bottom: "conv2"
  top: "conv2"
}
layer {
  name: "pool2"
  type: "Pooling"
  bottom: "conv2"
  top: "pool2"
  pooling_param {
    pool: MAX
    kernel_h: 2
    kernel_w: 1
    stride_h: 2
    stride_w: 1
  }
}
layer {
  name: "conv3"
  type: "Convolution"
  bottom: "pool2"
  top: "conv3"
  convolution_param {
    num_output: 28
    pad: 0
    stride: 1
    weight_filler {
      type: "xavier"
    }
    bias_filler {
      type: "constant"
    }
    kernel_h: 6
    kernel_w: 3
  }
}
layer {
  name: "relu3"
  type: "ReLU"
  bottom: "conv3"
  top: "conv3"
}
layer {
  name: "pool3"
  type: "Pooling"
  bottom: "conv3"
  top: "pool3"
  pooling_param {
    pool: MAX
    kernel_h: 2
    kernel_w: 1
    stride_h: 2
    stride_w: 1
  }
}
layer {
  name: "conv4"
  type: "Convolution"
  bottom: "pool3"
  top: "conv4"
  convolution_param {
    num_output: 36
    pad: 0
    stride: 1
    weight_filler {
      type: "xavier"
    }
    bias_filler {
      type: "constant"
    }
    kernel_h: 6
    kernel_w: 3
  }
}
layer {
  name: "relu4"
  type: "ReLU"
  bottom: "conv4"
  top: "conv4"
}
layer {
  name: "pool4"
  type: "Pooling"
  bottom: "conv4"
  top: "pool4"
  pooling_param {
    pool: MAX
    kernel_h: 2
    kernel_w: 1
    stride_h: 2
    stride_w: 1
  }
}
layer {
  name: "ip1"
  type: "InnerProduct"
  bottom: "pool4"
  top: "ip1"
  inner_product_param {
    num_output: 196
    weight_filler {
      type: "xavier"
    }
    bias_filler {
      type: "constant"
    }
  }
}
layer {
  name: "relu5"
  type: "ReLU"
  bottom: "ip1"
  top: "ip1"
}
layer {
  name: "drop1"
  type: "Dropout"
  bottom: "ip1"
  top: "ip1"
  dropout_param {
    dropout_ratio: 0.5
  }
}
layer {
  name: "ip2"
  type: "InnerProduct"
  bottom: "ip1"
  top: "ip2"
  inner_product_param {
    num_output: 98
    weight_filler {
      type: "xavier"
    }
    bias_filler {
      type: "constant"
    }
  }
}
layer {
  name: "relu6"
  type: "ReLU"
  bottom: "ip2"
  top: "ip2"
}
layer {
  name: "drop2"
  type: "Dropout"
  bottom: "ip2"
  top: "ip2"
  dropout_param {
    dropout_ratio: 0.5
  }
}
layer {
  name: "ip3"
  type: "InnerProduct"
  bottom: "ip2"
  top: "ip3"
  inner_product_param {
    num_output: 11
    weight_filler {
      type: "xavier"
    }
    bias_filler {
      type: "constant"
    }
  }
}
layer {
  name: "drop3"
  type: "Dropout"
  bottom: "ip3"
  top: "ip3"
  dropout_param {
    dropout_ratio: 0.5
  }
}
layer {
  name: "loss"
  type: "SoftmaxWithLoss"
  bottom: "ip3"
  bottom: "label"
  top: "loss"
}
I0521 13:38:25.004638 14148 layer_factory.hpp:77] Creating layer data_hdf5
I0521 13:38:25.004662 14148 net.cpp:106] Creating Layer data_hdf5
I0521 13:38:25.004676 14148 net.cpp:411] data_hdf5 -> data
I0521 13:38:25.004709 14148 net.cpp:411] data_hdf5 -> label
I0521 13:38:25.004741 14148 hdf5_data_layer.cpp:79] Loading list of HDF5 filenames from: /lustre/atlas/proj-shared/hep105/caffe_titan/minosmatch_nukecczdefs_127x50_x_unshifted_me1Bmc.trainlist
I0521 13:38:25.006024 14148 hdf5_data_layer.cpp:93] Number of HDF5 files: 15
I0521 13:38:25.008235 14148 hdf5.cpp:32] Datatype class: H5T_FLOAT
I0521 13:38:46.527127 14148 hdf5.cpp:35] Datatype class: H5T_INTEGER
I0521 13:38:46.532280 14148 net.cpp:150] Setting up data_hdf5
I0521 13:38:46.532320 14148 net.cpp:157] Top shape: 10 1 127 50 (63500)
I0521 13:38:46.532335 14148 net.cpp:157] Top shape: 10 (10)
I0521 13:38:46.532347 14148 net.cpp:165] Memory required for data: 254040
I0521 13:38:46.532361 14148 layer_factory.hpp:77] Creating layer conv1
I0521 13:38:46.532395 14148 net.cpp:106] Creating Layer conv1
I0521 13:38:46.532405 14148 net.cpp:454] conv1 <- data
I0521 13:38:46.532426 14148 net.cpp:411] conv1 -> conv1
I0521 13:38:47.340798 14148 net.cpp:150] Setting up conv1
I0521 13:38:47.340844 14148 net.cpp:157] Top shape: 10 12 120 48 (691200)
I0521 13:38:47.340855 14148 net.cpp:165] Memory required for data: 3018840
I0521 13:38:47.340884 14148 layer_factory.hpp:77] Creating layer relu1
I0521 13:38:47.340905 14148 net.cpp:106] Creating Layer relu1
I0521 13:38:47.340916 14148 net.cpp:454] relu1 <- conv1
I0521 13:38:47.340929 14148 net.cpp:397] relu1 -> conv1 (in-place)
I0521 13:38:47.341455 14148 net.cpp:150] Setting up relu1
I0521 13:38:47.341471 14148 net.cpp:157] Top shape: 10 12 120 48 (691200)
I0521 13:38:47.341481 14148 net.cpp:165] Memory required for data: 5783640
I0521 13:38:47.341490 14148 layer_factory.hpp:77] Creating layer pool1
I0521 13:38:47.341507 14148 net.cpp:106] Creating Layer pool1
I0521 13:38:47.341517 14148 net.cpp:454] pool1 <- conv1
I0521 13:38:47.341531 14148 net.cpp:411] pool1 -> pool1
I0521 13:38:47.341610 14148 net.cpp:150] Setting up pool1
I0521 13:38:47.341624 14148 net.cpp:157] Top shape: 10 12 60 48 (345600)
I0521 13:38:47.341634 14148 net.cpp:165] Memory required for data: 7166040
I0521 13:38:47.341645 14148 layer_factory.hpp:77] Creating layer conv2
I0521 13:38:47.341666 14148 net.cpp:106] Creating Layer conv2
I0521 13:38:47.341677 14148 net.cpp:454] conv2 <- pool1
I0521 13:38:47.341691 14148 net.cpp:411] conv2 -> conv2
I0521 13:38:47.344390 14148 net.cpp:150] Setting up conv2
I0521 13:38:47.344419 14148 net.cpp:157] Top shape: 10 20 54 46 (496800)
I0521 13:38:47.344429 14148 net.cpp:165] Memory required for data: 9153240
I0521 13:38:47.344446 14148 layer_factory.hpp:77] Creating layer relu2
I0521 13:38:47.344461 14148 net.cpp:106] Creating Layer relu2
I0521 13:38:47.344471 14148 net.cpp:454] relu2 <- conv2
I0521 13:38:47.344483 14148 net.cpp:397] relu2 -> conv2 (in-place)
I0521 13:38:47.344823 14148 net.cpp:150] Setting up relu2
I0521 13:38:47.344837 14148 net.cpp:157] Top shape: 10 20 54 46 (496800)
I0521 13:38:47.344848 14148 net.cpp:165] Memory required for data: 11140440
I0521 13:38:47.344858 14148 layer_factory.hpp:77] Creating layer pool2
I0521 13:38:47.344871 14148 net.cpp:106] Creating Layer pool2
I0521 13:38:47.344880 14148 net.cpp:454] pool2 <- conv2
I0521 13:38:47.344893 14148 net.cpp:411] pool2 -> pool2
I0521 13:38:47.344974 14148 net.cpp:150] Setting up pool2
I0521 13:38:47.344987 14148 net.cpp:157] Top shape: 10 20 27 46 (248400)
I0521 13:38:47.344996 14148 net.cpp:165] Memory required for data: 12134040
I0521 13:38:47.345005 14148 layer_factory.hpp:77] Creating layer conv3
I0521 13:38:47.345024 14148 net.cpp:106] Creating Layer conv3
I0521 13:38:47.345034 14148 net.cpp:454] conv3 <- pool2
I0521 13:38:47.345048 14148 net.cpp:411] conv3 -> conv3
I0521 13:38:47.347136 14148 net.cpp:150] Setting up conv3
I0521 13:38:47.347160 14148 net.cpp:157] Top shape: 10 28 22 44 (271040)
I0521 13:38:47.347172 14148 net.cpp:165] Memory required for data: 13218200
I0521 13:38:47.347190 14148 layer_factory.hpp:77] Creating layer relu3
I0521 13:38:47.347206 14148 net.cpp:106] Creating Layer relu3
I0521 13:38:47.347216 14148 net.cpp:454] relu3 <- conv3
I0521 13:38:47.347229 14148 net.cpp:397] relu3 -> conv3 (in-place)
I0521 13:38:47.347690 14148 net.cpp:150] Setting up relu3
I0521 13:38:47.347707 14148 net.cpp:157] Top shape: 10 28 22 44 (271040)
I0521 13:38:47.347718 14148 net.cpp:165] Memory required for data: 14302360
I0521 13:38:47.347728 14148 layer_factory.hpp:77] Creating layer pool3
I0521 13:38:47.347740 14148 net.cpp:106] Creating Layer pool3
I0521 13:38:47.347750 14148 net.cpp:454] pool3 <- conv3
I0521 13:38:47.347762 14148 net.cpp:411] pool3 -> pool3
I0521 13:38:47.347829 14148 net.cpp:150] Setting up pool3
I0521 13:38:47.347842 14148 net.cpp:157] Top shape: 10 28 11 44 (135520)
I0521 13:38:47.347852 14148 net.cpp:165] Memory required for data: 14844440
I0521 13:38:47.347859 14148 layer_factory.hpp:77] Creating layer conv4
I0521 13:38:47.347877 14148 net.cpp:106] Creating Layer conv4
I0521 13:38:47.347887 14148 net.cpp:454] conv4 <- pool3
I0521 13:38:47.347900 14148 net.cpp:411] conv4 -> conv4
I0521 13:38:47.350623 14148 net.cpp:150] Setting up conv4
I0521 13:38:47.350646 14148 net.cpp:157] Top shape: 10 36 6 42 (90720)
I0521 13:38:47.350656 14148 net.cpp:165] Memory required for data: 15207320
I0521 13:38:47.350672 14148 layer_factory.hpp:77] Creating layer relu4
I0521 13:38:47.350685 14148 net.cpp:106] Creating Layer relu4
I0521 13:38:47.350695 14148 net.cpp:454] relu4 <- conv4
I0521 13:38:47.350708 14148 net.cpp:397] relu4 -> conv4 (in-place)
I0521 13:38:47.351174 14148 net.cpp:150] Setting up relu4
I0521 13:38:47.351191 14148 net.cpp:157] Top shape: 10 36 6 42 (90720)
I0521 13:38:47.351202 14148 net.cpp:165] Memory required for data: 15570200
I0521 13:38:47.351212 14148 layer_factory.hpp:77] Creating layer pool4
I0521 13:38:47.351224 14148 net.cpp:106] Creating Layer pool4
I0521 13:38:47.351234 14148 net.cpp:454] pool4 <- conv4
I0521 13:38:47.351248 14148 net.cpp:411] pool4 -> pool4
I0521 13:38:47.351315 14148 net.cpp:150] Setting up pool4
I0521 13:38:47.351327 14148 net.cpp:157] Top shape: 10 36 3 42 (45360)
I0521 13:38:47.351337 14148 net.cpp:165] Memory required for data: 15751640
I0521 13:38:47.351347 14148 layer_factory.hpp:77] Creating layer ip1
I0521 13:38:47.351367 14148 net.cpp:106] Creating Layer ip1
I0521 13:38:47.351377 14148 net.cpp:454] ip1 <- pool4
I0521 13:38:47.351389 14148 net.cpp:411] ip1 -> ip1
I0521 13:38:47.366835 14148 net.cpp:150] Setting up ip1
I0521 13:38:47.366864 14148 net.cpp:157] Top shape: 10 196 (1960)
I0521 13:38:47.366875 14148 net.cpp:165] Memory required for data: 15759480
I0521 13:38:47.366899 14148 layer_factory.hpp:77] Creating layer relu5
I0521 13:38:47.366912 14148 net.cpp:106] Creating Layer relu5
I0521 13:38:47.366922 14148 net.cpp:454] relu5 <- ip1
I0521 13:38:47.366935 14148 net.cpp:397] relu5 -> ip1 (in-place)
I0521 13:38:47.367277 14148 net.cpp:150] Setting up relu5
I0521 13:38:47.367291 14148 net.cpp:157] Top shape: 10 196 (1960)
I0521 13:38:47.367300 14148 net.cpp:165] Memory required for data: 15767320
I0521 13:38:47.367311 14148 layer_factory.hpp:77] Creating layer drop1
I0521 13:38:47.367332 14148 net.cpp:106] Creating Layer drop1
I0521 13:38:47.367342 14148 net.cpp:454] drop1 <- ip1
I0521 13:38:47.367354 14148 net.cpp:397] drop1 -> ip1 (in-place)
I0521 13:38:47.367413 14148 net.cpp:150] Setting up drop1
I0521 13:38:47.367426 14148 net.cpp:157] Top shape: 10 196 (1960)
I0521 13:38:47.367436 14148 net.cpp:165] Memory required for data: 15775160
I0521 13:38:47.367446 14148 layer_factory.hpp:77] Creating layer ip2
I0521 13:38:47.367465 14148 net.cpp:106] Creating Layer ip2
I0521 13:38:47.367475 14148 net.cpp:454] ip2 <- ip1
I0521 13:38:47.367488 14148 net.cpp:411] ip2 -> ip2
I0521 13:38:47.367951 14148 net.cpp:150] Setting up ip2
I0521 13:38:47.367964 14148 net.cpp:157] Top shape: 10 98 (980)
I0521 13:38:47.367974 14148 net.cpp:165] Memory required for data: 15779080
I0521 13:38:47.367990 14148 layer_factory.hpp:77] Creating layer relu6
I0521 13:38:47.368003 14148 net.cpp:106] Creating Layer relu6
I0521 13:38:47.368012 14148 net.cpp:454] relu6 <- ip2
I0521 13:38:47.368024 14148 net.cpp:397] relu6 -> ip2 (in-place)
I0521 13:38:47.368556 14148 net.cpp:150] Setting up relu6
I0521 13:38:47.368572 14148 net.cpp:157] Top shape: 10 98 (980)
I0521 13:38:47.368582 14148 net.cpp:165] Memory required for data: 15783000
I0521 13:38:47.368592 14148 layer_factory.hpp:77] Creating layer drop2
I0521 13:38:47.368607 14148 net.cpp:106] Creating Layer drop2
I0521 13:38:47.368615 14148 net.cpp:454] drop2 <- ip2
I0521 13:38:47.368628 14148 net.cpp:397] drop2 -> ip2 (in-place)
I0521 13:38:47.368671 14148 net.cpp:150] Setting up drop2
I0521 13:38:47.368685 14148 net.cpp:157] Top shape: 10 98 (980)
I0521 13:38:47.368695 14148 net.cpp:165] Memory required for data: 15786920
I0521 13:38:47.368705 14148 layer_factory.hpp:77] Creating layer ip3
I0521 13:38:47.368717 14148 net.cpp:106] Creating Layer ip3
I0521 13:38:47.368727 14148 net.cpp:454] ip3 <- ip2
I0521 13:38:47.368741 14148 net.cpp:411] ip3 -> ip3
I0521 13:38:47.368948 14148 net.cpp:150] Setting up ip3
I0521 13:38:47.368963 14148 net.cpp:157] Top shape: 10 11 (110)
I0521 13:38:47.368973 14148 net.cpp:165] Memory required for data: 15787360
I0521 13:38:47.368988 14148 layer_factory.hpp:77] Creating layer drop3
I0521 13:38:47.369000 14148 net.cpp:106] Creating Layer drop3
I0521 13:38:47.369010 14148 net.cpp:454] drop3 <- ip3
I0521 13:38:47.369026 14148 net.cpp:397] drop3 -> ip3 (in-place)
I0521 13:38:47.369066 14148 net.cpp:150] Setting up drop3
I0521 13:38:47.369078 14148 net.cpp:157] Top shape: 10 11 (110)
I0521 13:38:47.369088 14148 net.cpp:165] Memory required for data: 15787800
I0521 13:38:47.369098 14148 layer_factory.hpp:77] Creating layer loss
I0521 13:38:47.369117 14148 net.cpp:106] Creating Layer loss
I0521 13:38:47.369127 14148 net.cpp:454] loss <- ip3
I0521 13:38:47.369138 14148 net.cpp:454] loss <- label
I0521 13:38:47.369149 14148 net.cpp:411] loss -> loss
I0521 13:38:47.369168 14148 layer_factory.hpp:77] Creating layer loss
…
I0521 13:38:47.371778 14148 solver.cpp:181] Creating test net (#0) specified by net file: /lustre/atlas/proj-shared/hep105/caffe_titan/caffe_workflow/logs_bslr/bs_10_lr_0.0015_2016-05-20T15.48.50.039036.prototxt
I0521 13:38:47.371850 14148 net.cpp:322] The NetState phase (1) differed from the phase (0) specified by a rule in layer data_hdf5
I0521 13:38:47.372202 14148 net.cpp:49] Initializing net from parameters: 
name: "caffe_test_127x50_x_unshifted"
state {
  phase: TEST
}
layer {
  name: "data_hdf5"
  type: "HDF5Data"
  top: "data"
  top: "label"
  include {
    phase: TEST
  }
  hdf5_data_param {
    source: "/lustre/atlas/proj-shared/hep105/caffe_titan/minosmatch_nukecczdefs_127x50_x_unshifted_me1Bmc.testlist"
    batch_size: 10
  }
}
layer {
  name: "conv1"
  type: "Convolution"
  bottom: "data"
  top: "conv1"
  convolution_param {
    num_output: 12
    pad: 0
    stride: 1
    weight_filler {
      type: "xavier"
    }
    bias_filler {
      type: "constant"
    }
    kernel_h: 8
    kernel_w: 3
  }
}
layer {
  name: "relu1"
  type: "ReLU"
  bottom: "conv1"
  top: "conv1"
}
layer {
  name: "pool1"
  type: "Pooling"
  bottom: "conv1"
  top: "pool1"
  pooling_param {
    pool: MAX
    kernel_h: 2
    kernel_w: 1
    stride_h: 2
    stride_w: 1
  }
}
layer {
  name: "conv2"
  type: "Convolution"
  bottom: "pool1"
  top: "conv2"
  convolution_param {
    num_output: 20
    pad: 0
    stride: 1
    weight_filler {
      type: "xavier"
    }
    bias_filler {
      type: "constant"
    }
    kernel_h: 7
    kernel_w: 3
  }
}
layer {
  name: "relu2"
  type: "ReLU"
  bottom: "conv2"
  top: "conv2"
}
layer {
  name: "pool2"
  type: "Pooling"
  bottom: "conv2"
  top: "pool2"
  pooling_param {
    pool: MAX
    kernel_h: 2
    kernel_w: 1
    stride_h: 2
    stride_w: 1
  }
}
layer {
  name: "conv3"
  type: "Convolution"
  bottom: "pool2"
  top: "conv3"
  convolution_param {
    num_output: 28
    pad: 0
    stride: 1
    weight_filler {
      type: "xavier"
    }
    bias_filler {
      type: "constant"
    }
    kernel_h: 6
    kernel_w: 3
  }
}
layer {
  name: "relu3"
  type: "ReLU"
  bottom: "conv3"
  top: "conv3"
}
layer {
  name: "pool3"
  type: "Pooling"
  bottom: "conv3"
  top: "pool3"
  pooling_param {
    pool: MAX
    kernel_h: 2
    kernel_w: 1
    stride_h: 2
    stride_w: 1
  }
}
layer {
  name: "conv4"
  type: "Convolution"
  bottom: "pool3"
  top: "conv4"
  convolution_param {
    num_output: 36
    pad: 0
    stride: 1
    weight_filler {
      type: "xavier"
    }
    bias_filler {
      type: "constant"
    }
    kernel_h: 6
    kernel_w: 3
  }
}
layer {
  name: "relu4"
  type: "ReLU"
  bottom: "conv4"
  top: "conv4"
}
layer {
  name: "pool4"
  type: "Pooling"
  bottom: "conv4"
  top: "pool4"
  pooling_param {
    pool: MAX
    kernel_h: 2
    kernel_w: 1
    stride_h: 2
    stride_w: 1
  }
}
layer {
  name: "ip1"
  type: "InnerProduct"
  bottom: "pool4"
  top: "ip1"
  inner_product_param {
    num_output: 196
    weight_filler {
      type: "xavier"
    }
    bias_filler {
      type: "constant"
    }
  }
}
layer {
  name: "relu5"
  type: "ReLU"
  bottom: "ip1"
  top: "ip1"
}
layer {
  name: "drop1"
  type: "Dropout"
  bottom: "ip1"
  top: "ip1"
  dropout_param {
    dropout_ratio: 0.5
  }
}
layer {
  name: "ip2"
  type: "InnerProduct"
  bottom: "ip1"
  top: "ip2"
  inner_product_param {
    num_output: 98
    weight_filler {
      type: "xavier"
    }
    bias_filler {
      type: "constant"
    }
  }
}
layer {
  name: "relu6"
  type: "ReLU"
  bottom: "ip2"
  top: "ip2"
}
layer {
  name: "drop2"
  type: "Dropout"
  bottom: "ip2"
  top: "ip2"
  dropout_param {
    dropout_ratio: 0.5
  }
}
layer {
  name: "ip3"
  type: "InnerProduct"
  bottom: "ip2"
  top: "ip3"
  inner_product_param {
    num_output: 11
    weight_filler {
      type: "xavier"
    }
    bias_filler {
      type: "constant"
    }
  }
}
layer {
  name: "drop3"
  type: "Dropout"
  bottom: "ip3"
  top: "ip3"
  dropout_param {
    dropout_ratio: 0.5
  }
}
layer {
  name: "accuracy"
  type: "Accuracy"
  bottom: "ip3"
  bottom: "label"
  top: "accuracy"
  include {
    phase: TEST
  }
}
layer {
  name: "loss"
  type: "SoftmaxWithLoss"
  bottom: "ip3"
  bottom: "label"
  top: "loss"
}
I0521 13:38:47.372392 14148 layer_factory.hpp:77] Creating layer data_hdf5
I0521 13:38:47.372408 14148 net.cpp:106] Creating Layer data_hdf5
I0521 13:38:47.372421 14148 net.cpp:411] data_hdf5 -> data
I0521 13:38:47.372437 14148 net.cpp:411] data_hdf5 -> label
I0521 13:38:47.372453 14148 hdf5_data_layer.cpp:79] Loading list of HDF5 filenames from: /lustre/atlas/proj-shared/hep105/caffe_titan/minosmatch_nukecczdefs_127x50_x_unshifted_me1Bmc.testlist
I0521 13:38:47.373697 14148 hdf5_data_layer.cpp:93] Number of HDF5 files: 3
I0521 13:39:08.683580 14148 net.cpp:150] Setting up data_hdf5
I0521 13:39:08.683750 14148 net.cpp:157] Top shape: 10 1 127 50 (63500)
I0521 13:39:08.683764 14148 net.cpp:157] Top shape: 10 (10)
I0521 13:39:08.683775 14148 net.cpp:165] Memory required for data: 254040
I0521 13:39:08.683789 14148 layer_factory.hpp:77] Creating layer label_data_hdf5_1_split
I0521 13:39:08.683817 14148 net.cpp:106] Creating Layer label_data_hdf5_1_split
I0521 13:39:08.683828 14148 net.cpp:454] label_data_hdf5_1_split <- label
I0521 13:39:08.683843 14148 net.cpp:411] label_data_hdf5_1_split -> label_data_hdf5_1_split_0
I0521 13:39:08.683864 14148 net.cpp:411] label_data_hdf5_1_split -> label_data_hdf5_1_split_1
I0521 13:39:08.683936 14148 net.cpp:150] Setting up label_data_hdf5_1_split
I0521 13:39:08.683950 14148 net.cpp:157] Top shape: 10 (10)
I0521 13:39:08.683962 14148 net.cpp:157] Top shape: 10 (10)
I0521 13:39:08.683971 14148 net.cpp:165] Memory required for data: 254120
I0521 13:39:08.683981 14148 layer_factory.hpp:77] Creating layer conv1
I0521 13:39:08.684005 14148 net.cpp:106] Creating Layer conv1
I0521 13:39:08.684015 14148 net.cpp:454] conv1 <- data
I0521 13:39:08.684031 14148 net.cpp:411] conv1 -> conv1
I0521 13:39:08.686002 14148 net.cpp:150] Setting up conv1
I0521 13:39:08.686031 14148 net.cpp:157] Top shape: 10 12 120 48 (691200)
I0521 13:39:08.686043 14148 net.cpp:165] Memory required for data: 3018920
I0521 13:39:08.686064 14148 layer_factory.hpp:77] Creating layer relu1
I0521 13:39:08.686079 14148 net.cpp:106] Creating Layer relu1
I0521 13:39:08.686089 14148 net.cpp:454] relu1 <- conv1
I0521 13:39:08.686100 14148 net.cpp:397] relu1 -> conv1 (in-place)
I0521 13:39:08.686606 14148 net.cpp:150] Setting up relu1
I0521 13:39:08.686622 14148 net.cpp:157] Top shape: 10 12 120 48 (691200)
I0521 13:39:08.686633 14148 net.cpp:165] Memory required for data: 5783720
I0521 13:39:08.686643 14148 layer_factory.hpp:77] Creating layer pool1
I0521 13:39:08.686661 14148 net.cpp:106] Creating Layer pool1
I0521 13:39:08.686669 14148 net.cpp:454] pool1 <- conv1
I0521 13:39:08.686684 14148 net.cpp:411] pool1 -> pool1
I0521 13:39:08.686758 14148 net.cpp:150] Setting up pool1
I0521 13:39:08.686772 14148 net.cpp:157] Top shape: 10 12 60 48 (345600)
I0521 13:39:08.686781 14148 net.cpp:165] Memory required for data: 7166120
I0521 13:39:08.686792 14148 layer_factory.hpp:77] Creating layer conv2
I0521 13:39:08.686810 14148 net.cpp:106] Creating Layer conv2
I0521 13:39:08.686820 14148 net.cpp:454] conv2 <- pool1
I0521 13:39:08.686836 14148 net.cpp:411] conv2 -> conv2
I0521 13:39:08.688748 14148 net.cpp:150] Setting up conv2
I0521 13:39:08.688771 14148 net.cpp:157] Top shape: 10 20 54 46 (496800)
I0521 13:39:08.688783 14148 net.cpp:165] Memory required for data: 9153320
I0521 13:39:08.688802 14148 layer_factory.hpp:77] Creating layer relu2
I0521 13:39:08.688815 14148 net.cpp:106] Creating Layer relu2
I0521 13:39:08.688825 14148 net.cpp:454] relu2 <- conv2
I0521 13:39:08.688838 14148 net.cpp:397] relu2 -> conv2 (in-place)
I0521 13:39:08.689173 14148 net.cpp:150] Setting up relu2
I0521 13:39:08.689188 14148 net.cpp:157] Top shape: 10 20 54 46 (496800)
I0521 13:39:08.689198 14148 net.cpp:165] Memory required for data: 11140520
I0521 13:39:08.689208 14148 layer_factory.hpp:77] Creating layer pool2
I0521 13:39:08.689221 14148 net.cpp:106] Creating Layer pool2
I0521 13:39:08.689230 14148 net.cpp:454] pool2 <- conv2
I0521 13:39:08.689244 14148 net.cpp:411] pool2 -> pool2
I0521 13:39:08.689316 14148 net.cpp:150] Setting up pool2
I0521 13:39:08.689328 14148 net.cpp:157] Top shape: 10 20 27 46 (248400)
I0521 13:39:08.689338 14148 net.cpp:165] Memory required for data: 12134120
I0521 13:39:08.689348 14148 layer_factory.hpp:77] Creating layer conv3
I0521 13:39:08.689365 14148 net.cpp:106] Creating Layer conv3
I0521 13:39:08.689376 14148 net.cpp:454] conv3 <- pool2
I0521 13:39:08.689390 14148 net.cpp:411] conv3 -> conv3
I0521 13:39:08.691417 14148 net.cpp:150] Setting up conv3
I0521 13:39:08.691437 14148 net.cpp:157] Top shape: 10 28 22 44 (271040)
I0521 13:39:08.691450 14148 net.cpp:165] Memory required for data: 13218280
I0521 13:39:08.691470 14148 layer_factory.hpp:77] Creating layer relu3
I0521 13:39:08.691496 14148 net.cpp:106] Creating Layer relu3
I0521 13:39:08.691507 14148 net.cpp:454] relu3 <- conv3
I0521 13:39:08.691520 14148 net.cpp:397] relu3 -> conv3 (in-place)
I0521 13:39:08.691992 14148 net.cpp:150] Setting up relu3
I0521 13:39:08.692006 14148 net.cpp:157] Top shape: 10 28 22 44 (271040)
I0521 13:39:08.692018 14148 net.cpp:165] Memory required for data: 14302440
I0521 13:39:08.692026 14148 layer_factory.hpp:77] Creating layer pool3
I0521 13:39:08.692039 14148 net.cpp:106] Creating Layer pool3
I0521 13:39:08.692049 14148 net.cpp:454] pool3 <- conv3
I0521 13:39:08.692064 14148 net.cpp:411] pool3 -> pool3
I0521 13:39:08.692133 14148 net.cpp:150] Setting up pool3
I0521 13:39:08.692147 14148 net.cpp:157] Top shape: 10 28 11 44 (135520)
I0521 13:39:08.692157 14148 net.cpp:165] Memory required for data: 14844520
I0521 13:39:08.692167 14148 layer_factory.hpp:77] Creating layer conv4
I0521 13:39:08.692185 14148 net.cpp:106] Creating Layer conv4
I0521 13:39:08.692195 14148 net.cpp:454] conv4 <- pool3
I0521 13:39:08.692210 14148 net.cpp:411] conv4 -> conv4
I0521 13:39:08.694275 14148 net.cpp:150] Setting up conv4
I0521 13:39:08.694298 14148 net.cpp:157] Top shape: 10 36 6 42 (90720)
I0521 13:39:08.694308 14148 net.cpp:165] Memory required for data: 15207400
I0521 13:39:08.694325 14148 layer_factory.hpp:77] Creating layer relu4
I0521 13:39:08.694339 14148 net.cpp:106] Creating Layer relu4
I0521 13:39:08.694349 14148 net.cpp:454] relu4 <- conv4
I0521 13:39:08.694360 14148 net.cpp:397] relu4 -> conv4 (in-place)
I0521 13:39:08.694825 14148 net.cpp:150] Setting up relu4
I0521 13:39:08.694841 14148 net.cpp:157] Top shape: 10 36 6 42 (90720)
I0521 13:39:08.694852 14148 net.cpp:165] Memory required for data: 15570280
I0521 13:39:08.694861 14148 layer_factory.hpp:77] Creating layer pool4
I0521 13:39:08.694875 14148 net.cpp:106] Creating Layer pool4
I0521 13:39:08.694885 14148 net.cpp:454] pool4 <- conv4
I0521 13:39:08.694898 14148 net.cpp:411] pool4 -> pool4
I0521 13:39:08.694969 14148 net.cpp:150] Setting up pool4
I0521 13:39:08.694983 14148 net.cpp:157] Top shape: 10 36 3 42 (45360)
I0521 13:39:08.694991 14148 net.cpp:165] Memory required for data: 15751720
I0521 13:39:08.695001 14148 layer_factory.hpp:77] Creating layer ip1
I0521 13:39:08.695017 14148 net.cpp:106] Creating Layer ip1
I0521 13:39:08.695027 14148 net.cpp:454] ip1 <- pool4
I0521 13:39:08.695041 14148 net.cpp:411] ip1 -> ip1
I0521 13:39:08.710495 14148 net.cpp:150] Setting up ip1
I0521 13:39:08.710520 14148 net.cpp:157] Top shape: 10 196 (1960)
I0521 13:39:08.710530 14148 net.cpp:165] Memory required for data: 15759560
I0521 13:39:08.710551 14148 layer_factory.hpp:77] Creating layer relu5
I0521 13:39:08.710567 14148 net.cpp:106] Creating Layer relu5
I0521 13:39:08.710577 14148 net.cpp:454] relu5 <- ip1
I0521 13:39:08.710590 14148 net.cpp:397] relu5 -> ip1 (in-place)
I0521 13:39:08.710938 14148 net.cpp:150] Setting up relu5
I0521 13:39:08.710952 14148 net.cpp:157] Top shape: 10 196 (1960)
I0521 13:39:08.710961 14148 net.cpp:165] Memory required for data: 15767400
I0521 13:39:08.710973 14148 layer_factory.hpp:77] Creating layer drop1
I0521 13:39:08.710990 14148 net.cpp:106] Creating Layer drop1
I0521 13:39:08.711000 14148 net.cpp:454] drop1 <- ip1
I0521 13:39:08.711014 14148 net.cpp:397] drop1 -> ip1 (in-place)
I0521 13:39:08.711057 14148 net.cpp:150] Setting up drop1
I0521 13:39:08.711071 14148 net.cpp:157] Top shape: 10 196 (1960)
I0521 13:39:08.711081 14148 net.cpp:165] Memory required for data: 15775240
I0521 13:39:08.711089 14148 layer_factory.hpp:77] Creating layer ip2
I0521 13:39:08.711104 14148 net.cpp:106] Creating Layer ip2
I0521 13:39:08.711114 14148 net.cpp:454] ip2 <- ip1
I0521 13:39:08.711128 14148 net.cpp:411] ip2 -> ip2
I0521 13:39:08.711606 14148 net.cpp:150] Setting up ip2
I0521 13:39:08.711619 14148 net.cpp:157] Top shape: 10 98 (980)
I0521 13:39:08.711629 14148 net.cpp:165] Memory required for data: 15779160
I0521 13:39:08.711644 14148 layer_factory.hpp:77] Creating layer relu6
I0521 13:39:08.711670 14148 net.cpp:106] Creating Layer relu6
I0521 13:39:08.711680 14148 net.cpp:454] relu6 <- ip2
I0521 13:39:08.711694 14148 net.cpp:397] relu6 -> ip2 (in-place)
I0521 13:39:08.712224 14148 net.cpp:150] Setting up relu6
I0521 13:39:08.712247 14148 net.cpp:157] Top shape: 10 98 (980)
I0521 13:39:08.712256 14148 net.cpp:165] Memory required for data: 15783080
I0521 13:39:08.712267 14148 layer_factory.hpp:77] Creating layer drop2
I0521 13:39:08.712282 14148 net.cpp:106] Creating Layer drop2
I0521 13:39:08.712292 14148 net.cpp:454] drop2 <- ip2
I0521 13:39:08.712306 14148 net.cpp:397] drop2 -> ip2 (in-place)
I0521 13:39:08.712349 14148 net.cpp:150] Setting up drop2
I0521 13:39:08.712363 14148 net.cpp:157] Top shape: 10 98 (980)
I0521 13:39:08.712373 14148 net.cpp:165] Memory required for data: 15787000
I0521 13:39:08.712383 14148 layer_factory.hpp:77] Creating layer ip3
I0521 13:39:08.712396 14148 net.cpp:106] Creating Layer ip3
I0521 13:39:08.712406 14148 net.cpp:454] ip3 <- ip2
I0521 13:39:08.712420 14148 net.cpp:411] ip3 -> ip3
I0521 13:39:08.712647 14148 net.cpp:150] Setting up ip3
I0521 13:39:08.712661 14148 net.cpp:157] Top shape: 10 11 (110)
I0521 13:39:08.712671 14148 net.cpp:165] Memory required for data: 15787440
I0521 13:39:08.712687 14148 layer_factory.hpp:77] Creating layer drop3
I0521 13:39:08.712699 14148 net.cpp:106] Creating Layer drop3
I0521 13:39:08.712709 14148 net.cpp:454] drop3 <- ip3
I0521 13:39:08.712723 14148 net.cpp:397] drop3 -> ip3 (in-place)
I0521 13:39:08.712764 14148 net.cpp:150] Setting up drop3
I0521 13:39:08.712776 14148 net.cpp:157] Top shape: 10 11 (110)
I0521 13:39:08.712786 14148 net.cpp:165] Memory required for data: 15787880
I0521 13:39:08.712796 14148 layer_factory.hpp:77] Creating layer ip3_drop3_0_split
I0521 13:39:08.712810 14148 net.cpp:106] Creating Layer ip3_drop3_0_split
I0521 13:39:08.712819 14148 net.cpp:454] ip3_drop3_0_split <- ip3
I0521 13:39:08.712832 14148 net.cpp:411] ip3_drop3_0_split -> ip3_drop3_0_split_0
I0521 13:39:08.712847 14148 net.cpp:411] ip3_drop3_0_split -> ip3_drop3_0_split_1
I0521 13:39:08.712920 14148 net.cpp:150] Setting up ip3_drop3_0_split
I0521 13:39:08.712934 14148 net.cpp:157] Top shape: 10 11 (110)
I0521 13:39:08.712946 14148 net.cpp:157] Top shape: 10 11 (110)
I0521 13:39:08.712956 14148 net.cpp:165] Memory required for data: 15788760
I0521 13:39:08.712966 14148 layer_factory.hpp:77] Creating layer accuracy
I0521 13:39:08.712988 14148 net.cpp:106] Creating Layer accuracy
I0521 13:39:08.712997 14148 net.cpp:454] accuracy <- ip3_drop3_0_split_0
I0521 13:39:08.713009 14148 net.cpp:454] accuracy <- label_data_hdf5_1_split_0
I0521 13:39:08.713022 14148 net.cpp:411] accuracy -> accuracy
…
