…
I0521 14:01:06.455361  1271 net.cpp:322] The NetState phase (0) differed from the phase (1) specified by a rule in layer data_hdf5
I0521 14:01:06.455421  1271 net.cpp:322] The NetState phase (0) differed from the phase (1) specified by a rule in layer accuracy
I0521 14:01:06.455768  1271 net.cpp:49] Initializing net from parameters: 
name: "caffe_test_127x50_x_unshifted"
state {
  phase: TRAIN
}
layer {
  name: "data_hdf5"
  type: "HDF5Data"
  top: "data"
  top: "label"
  include {
    phase: TRAIN
  }
  hdf5_data_param {
    source: "/lustre/atlas/proj-shared/hep105/caffe_titan/minosmatch_nukecczdefs_127x50_x_unshifted_me1Bmc.trainlist"
    batch_size: 10
  }
}
layer {
  name: "conv1"
  type: "Convolution"
  bottom: "data"
  top: "conv1"
  convolution_param {
    num_output: 12
    pad: 0
    stride: 1
    weight_filler {
      type: "xavier"
    }
    bias_filler {
      type: "constant"
    }
    kernel_h: 8
    kernel_w: 3
  }
}
layer {
  name: "relu1"
  type: "ReLU"
  bottom: "conv1"
  top: "conv1"
}
layer {
  name: "pool1"
  type: "Pooling"
  bottom: "conv1"
  top: "pool1"
  pooling_param {
    pool: MAX
    kernel_h: 2
    kernel_w: 1
    stride_h: 2
    stride_w: 1
  }
}
layer {
  name: "conv2"
  type: "Convolution"
  bottom: "pool1"
  top: "conv2"
  convolution_param {
    num_output: 20
    pad: 0
    stride: 1
    weight_filler {
      type: "xavier"
    }
    bias_filler {
      type: "constant"
    }
    kernel_h: 7
    kernel_w: 3
  }
}
layer {
  name: "relu2"
  type: "ReLU"
  bottom: "conv2"
  top: "conv2"
}
layer {
  name: "pool2"
  type: "Pooling"
  bottom: "conv2"
  top: "pool2"
  pooling_param {
    pool: MAX
    kernel_h: 2
    kernel_w: 1
    stride_h: 2
    stride_w: 1
  }
}
layer {
  name: "conv3"
  type: "Convolution"
  bottom: "pool2"
  top: "conv3"
  convolution_param {
    num_output: 28
    pad: 0
    stride: 1
    weight_filler {
      type: "xavier"
    }
    bias_filler {
      type: "constant"
    }
    kernel_h: 6
    kernel_w: 3
  }
}
layer {
  name: "relu3"
  type: "ReLU"
  bottom: "conv3"
  top: "conv3"
}
layer {
  name: "pool3"
  type: "Pooling"
  bottom: "conv3"
  top: "pool3"
  pooling_param {
    pool: MAX
    kernel_h: 2
    kernel_w: 1
    stride_h: 2
    stride_w: 1
  }
}
layer {
  name: "conv4"
  type: "Convolution"
  bottom: "pool3"
  top: "conv4"
  convolution_param {
    num_output: 36
    pad: 0
    stride: 1
    weight_filler {
      type: "xavier"
    }
    bias_filler {
      type: "constant"
    }
    kernel_h: 6
    kernel_w: 3
  }
}
layer {
  name: "relu4"
  type: "ReLU"
  bottom: "conv4"
  top: "conv4"
}
layer {
  name: "pool4"
  type: "Pooling"
  bottom: "conv4"
  top: "pool4"
  pooling_param {
    pool: MAX
    kernel_h: 2
    kernel_w: 1
    stride_h: 2
    stride_w: 1
  }
}
layer {
  name: "ip1"
  type: "InnerProduct"
  bottom: "pool4"
  top: "ip1"
  inner_product_param {
    num_output: 196
    weight_filler {
      type: "xavier"
    }
    bias_filler {
      type: "constant"
    }
  }
}
layer {
  name: "relu5"
  type: "ReLU"
  bottom: "ip1"
  top: "ip1"
}
layer {
  name: "drop1"
  type: "Dropout"
  bottom: "ip1"
  top: "ip1"
  dropout_param {
    dropout_ratio: 0.5
  }
}
layer {
  name: "ip2"
  type: "InnerProduct"
  bottom: "ip1"
  top: "ip2"
  inner_product_param {
    num_output: 98
    weight_filler {
      type: "xavier"
    }
    bias_filler {
      type: "constant"
    }
  }
}
layer {
  name: "relu6"
  type: "ReLU"
  bottom: "ip2"
  top: "ip2"
}
layer {
  name: "drop2"
  type: "Dropout"
  bottom: "ip2"
  top: "ip2"
  dropout_param {
    dropout_ratio: 0.5
  }
}
layer {
  name: "ip3"
  type: "InnerProduct"
  bottom: "ip2"
  top: "ip3"
  inner_product_param {
    num_output: 11
    weight_filler {
      type: "xavier"
    }
    bias_filler {
      type: "constant"
    }
  }
}
layer {
  name: "drop3"
  type: "Dropout"
  bottom: "ip3"
  top: "ip3"
  dropout_param {
    dropout_ratio: 0.5
  }
}
layer {
  name: "loss"
  type: "SoftmaxWithLoss"
  bottom: "ip3"
  bottom: "label"
  top: "loss"
}
I0521 14:01:06.455948  1271 layer_factory.hpp:77] Creating layer data_hdf5
I0521 14:01:06.455972  1271 net.cpp:106] Creating Layer data_hdf5
I0521 14:01:06.455987  1271 net.cpp:411] data_hdf5 -> data
I0521 14:01:06.456020  1271 net.cpp:411] data_hdf5 -> label
I0521 14:01:06.456053  1271 hdf5_data_layer.cpp:79] Loading list of HDF5 filenames from: /lustre/atlas/proj-shared/hep105/caffe_titan/minosmatch_nukecczdefs_127x50_x_unshifted_me1Bmc.trainlist
I0521 14:01:06.457299  1271 hdf5_data_layer.cpp:93] Number of HDF5 files: 15
I0521 14:01:06.459475  1271 hdf5.cpp:32] Datatype class: H5T_FLOAT
I0521 14:01:28.002847  1271 hdf5.cpp:35] Datatype class: H5T_INTEGER
I0521 14:01:28.008070  1271 net.cpp:150] Setting up data_hdf5
I0521 14:01:28.008111  1271 net.cpp:157] Top shape: 10 1 127 50 (63500)
I0521 14:01:28.008126  1271 net.cpp:157] Top shape: 10 (10)
I0521 14:01:28.008138  1271 net.cpp:165] Memory required for data: 254040
I0521 14:01:28.008153  1271 layer_factory.hpp:77] Creating layer conv1
I0521 14:01:28.008188  1271 net.cpp:106] Creating Layer conv1
I0521 14:01:28.008198  1271 net.cpp:454] conv1 <- data
I0521 14:01:28.008221  1271 net.cpp:411] conv1 -> conv1
I0521 14:01:28.375830  1271 net.cpp:150] Setting up conv1
I0521 14:01:28.375874  1271 net.cpp:157] Top shape: 10 12 120 48 (691200)
I0521 14:01:28.375885  1271 net.cpp:165] Memory required for data: 3018840
I0521 14:01:28.375913  1271 layer_factory.hpp:77] Creating layer relu1
I0521 14:01:28.375936  1271 net.cpp:106] Creating Layer relu1
I0521 14:01:28.375946  1271 net.cpp:454] relu1 <- conv1
I0521 14:01:28.375959  1271 net.cpp:397] relu1 -> conv1 (in-place)
I0521 14:01:28.376490  1271 net.cpp:150] Setting up relu1
I0521 14:01:28.376507  1271 net.cpp:157] Top shape: 10 12 120 48 (691200)
I0521 14:01:28.376518  1271 net.cpp:165] Memory required for data: 5783640
I0521 14:01:28.376529  1271 layer_factory.hpp:77] Creating layer pool1
I0521 14:01:28.376546  1271 net.cpp:106] Creating Layer pool1
I0521 14:01:28.376556  1271 net.cpp:454] pool1 <- conv1
I0521 14:01:28.376569  1271 net.cpp:411] pool1 -> pool1
I0521 14:01:28.376651  1271 net.cpp:150] Setting up pool1
I0521 14:01:28.376663  1271 net.cpp:157] Top shape: 10 12 60 48 (345600)
I0521 14:01:28.376674  1271 net.cpp:165] Memory required for data: 7166040
I0521 14:01:28.376684  1271 layer_factory.hpp:77] Creating layer conv2
I0521 14:01:28.376708  1271 net.cpp:106] Creating Layer conv2
I0521 14:01:28.376718  1271 net.cpp:454] conv2 <- pool1
I0521 14:01:28.376730  1271 net.cpp:411] conv2 -> conv2
I0521 14:01:28.379427  1271 net.cpp:150] Setting up conv2
I0521 14:01:28.379454  1271 net.cpp:157] Top shape: 10 20 54 46 (496800)
I0521 14:01:28.379465  1271 net.cpp:165] Memory required for data: 9153240
I0521 14:01:28.379484  1271 layer_factory.hpp:77] Creating layer relu2
I0521 14:01:28.379498  1271 net.cpp:106] Creating Layer relu2
I0521 14:01:28.379508  1271 net.cpp:454] relu2 <- conv2
I0521 14:01:28.379520  1271 net.cpp:397] relu2 -> conv2 (in-place)
I0521 14:01:28.379853  1271 net.cpp:150] Setting up relu2
I0521 14:01:28.379868  1271 net.cpp:157] Top shape: 10 20 54 46 (496800)
I0521 14:01:28.379878  1271 net.cpp:165] Memory required for data: 11140440
I0521 14:01:28.379887  1271 layer_factory.hpp:77] Creating layer pool2
I0521 14:01:28.379899  1271 net.cpp:106] Creating Layer pool2
I0521 14:01:28.379909  1271 net.cpp:454] pool2 <- conv2
I0521 14:01:28.379921  1271 net.cpp:411] pool2 -> pool2
I0521 14:01:28.380002  1271 net.cpp:150] Setting up pool2
I0521 14:01:28.380015  1271 net.cpp:157] Top shape: 10 20 27 46 (248400)
I0521 14:01:28.380024  1271 net.cpp:165] Memory required for data: 12134040
I0521 14:01:28.380033  1271 layer_factory.hpp:77] Creating layer conv3
I0521 14:01:28.380051  1271 net.cpp:106] Creating Layer conv3
I0521 14:01:28.380071  1271 net.cpp:454] conv3 <- pool2
I0521 14:01:28.380086  1271 net.cpp:411] conv3 -> conv3
I0521 14:01:28.382184  1271 net.cpp:150] Setting up conv3
I0521 14:01:28.382202  1271 net.cpp:157] Top shape: 10 28 22 44 (271040)
I0521 14:01:28.382213  1271 net.cpp:165] Memory required for data: 13218200
I0521 14:01:28.382231  1271 layer_factory.hpp:77] Creating layer relu3
I0521 14:01:28.382247  1271 net.cpp:106] Creating Layer relu3
I0521 14:01:28.382257  1271 net.cpp:454] relu3 <- conv3
I0521 14:01:28.382271  1271 net.cpp:397] relu3 -> conv3 (in-place)
I0521 14:01:28.382735  1271 net.cpp:150] Setting up relu3
I0521 14:01:28.382753  1271 net.cpp:157] Top shape: 10 28 22 44 (271040)
I0521 14:01:28.382764  1271 net.cpp:165] Memory required for data: 14302360
I0521 14:01:28.382774  1271 layer_factory.hpp:77] Creating layer pool3
I0521 14:01:28.382788  1271 net.cpp:106] Creating Layer pool3
I0521 14:01:28.382797  1271 net.cpp:454] pool3 <- conv3
I0521 14:01:28.382810  1271 net.cpp:411] pool3 -> pool3
I0521 14:01:28.382877  1271 net.cpp:150] Setting up pool3
I0521 14:01:28.382891  1271 net.cpp:157] Top shape: 10 28 11 44 (135520)
I0521 14:01:28.382900  1271 net.cpp:165] Memory required for data: 14844440
I0521 14:01:28.382908  1271 layer_factory.hpp:77] Creating layer conv4
I0521 14:01:28.382925  1271 net.cpp:106] Creating Layer conv4
I0521 14:01:28.382936  1271 net.cpp:454] conv4 <- pool3
I0521 14:01:28.382949  1271 net.cpp:411] conv4 -> conv4
I0521 14:01:28.385679  1271 net.cpp:150] Setting up conv4
I0521 14:01:28.385705  1271 net.cpp:157] Top shape: 10 36 6 42 (90720)
I0521 14:01:28.385716  1271 net.cpp:165] Memory required for data: 15207320
I0521 14:01:28.385733  1271 layer_factory.hpp:77] Creating layer relu4
I0521 14:01:28.385747  1271 net.cpp:106] Creating Layer relu4
I0521 14:01:28.385758  1271 net.cpp:454] relu4 <- conv4
I0521 14:01:28.385771  1271 net.cpp:397] relu4 -> conv4 (in-place)
I0521 14:01:28.386235  1271 net.cpp:150] Setting up relu4
I0521 14:01:28.386251  1271 net.cpp:157] Top shape: 10 36 6 42 (90720)
I0521 14:01:28.386262  1271 net.cpp:165] Memory required for data: 15570200
I0521 14:01:28.386272  1271 layer_factory.hpp:77] Creating layer pool4
I0521 14:01:28.386286  1271 net.cpp:106] Creating Layer pool4
I0521 14:01:28.386296  1271 net.cpp:454] pool4 <- conv4
I0521 14:01:28.386308  1271 net.cpp:411] pool4 -> pool4
I0521 14:01:28.386375  1271 net.cpp:150] Setting up pool4
I0521 14:01:28.386389  1271 net.cpp:157] Top shape: 10 36 3 42 (45360)
I0521 14:01:28.386399  1271 net.cpp:165] Memory required for data: 15751640
I0521 14:01:28.386409  1271 layer_factory.hpp:77] Creating layer ip1
I0521 14:01:28.386428  1271 net.cpp:106] Creating Layer ip1
I0521 14:01:28.386440  1271 net.cpp:454] ip1 <- pool4
I0521 14:01:28.386452  1271 net.cpp:411] ip1 -> ip1
I0521 14:01:28.401859  1271 net.cpp:150] Setting up ip1
I0521 14:01:28.401882  1271 net.cpp:157] Top shape: 10 196 (1960)
I0521 14:01:28.401895  1271 net.cpp:165] Memory required for data: 15759480
I0521 14:01:28.401921  1271 layer_factory.hpp:77] Creating layer relu5
I0521 14:01:28.401935  1271 net.cpp:106] Creating Layer relu5
I0521 14:01:28.401947  1271 net.cpp:454] relu5 <- ip1
I0521 14:01:28.401959  1271 net.cpp:397] relu5 -> ip1 (in-place)
I0521 14:01:28.402302  1271 net.cpp:150] Setting up relu5
I0521 14:01:28.402317  1271 net.cpp:157] Top shape: 10 196 (1960)
I0521 14:01:28.402326  1271 net.cpp:165] Memory required for data: 15767320
I0521 14:01:28.402338  1271 layer_factory.hpp:77] Creating layer drop1
I0521 14:01:28.402357  1271 net.cpp:106] Creating Layer drop1
I0521 14:01:28.402367  1271 net.cpp:454] drop1 <- ip1
I0521 14:01:28.402380  1271 net.cpp:397] drop1 -> ip1 (in-place)
I0521 14:01:28.402439  1271 net.cpp:150] Setting up drop1
I0521 14:01:28.402453  1271 net.cpp:157] Top shape: 10 196 (1960)
I0521 14:01:28.402462  1271 net.cpp:165] Memory required for data: 15775160
I0521 14:01:28.402472  1271 layer_factory.hpp:77] Creating layer ip2
I0521 14:01:28.402490  1271 net.cpp:106] Creating Layer ip2
I0521 14:01:28.402501  1271 net.cpp:454] ip2 <- ip1
I0521 14:01:28.402514  1271 net.cpp:411] ip2 -> ip2
I0521 14:01:28.402977  1271 net.cpp:150] Setting up ip2
I0521 14:01:28.402990  1271 net.cpp:157] Top shape: 10 98 (980)
I0521 14:01:28.403000  1271 net.cpp:165] Memory required for data: 15779080
I0521 14:01:28.403015  1271 layer_factory.hpp:77] Creating layer relu6
I0521 14:01:28.403028  1271 net.cpp:106] Creating Layer relu6
I0521 14:01:28.403038  1271 net.cpp:454] relu6 <- ip2
I0521 14:01:28.403049  1271 net.cpp:397] relu6 -> ip2 (in-place)
I0521 14:01:28.403569  1271 net.cpp:150] Setting up relu6
I0521 14:01:28.403585  1271 net.cpp:157] Top shape: 10 98 (980)
I0521 14:01:28.403595  1271 net.cpp:165] Memory required for data: 15783000
I0521 14:01:28.403606  1271 layer_factory.hpp:77] Creating layer drop2
I0521 14:01:28.403620  1271 net.cpp:106] Creating Layer drop2
I0521 14:01:28.403630  1271 net.cpp:454] drop2 <- ip2
I0521 14:01:28.403641  1271 net.cpp:397] drop2 -> ip2 (in-place)
I0521 14:01:28.403684  1271 net.cpp:150] Setting up drop2
I0521 14:01:28.403697  1271 net.cpp:157] Top shape: 10 98 (980)
I0521 14:01:28.403707  1271 net.cpp:165] Memory required for data: 15786920
I0521 14:01:28.403717  1271 layer_factory.hpp:77] Creating layer ip3
I0521 14:01:28.403731  1271 net.cpp:106] Creating Layer ip3
I0521 14:01:28.403740  1271 net.cpp:454] ip3 <- ip2
I0521 14:01:28.403753  1271 net.cpp:411] ip3 -> ip3
I0521 14:01:28.403960  1271 net.cpp:150] Setting up ip3
I0521 14:01:28.403973  1271 net.cpp:157] Top shape: 10 11 (110)
I0521 14:01:28.403983  1271 net.cpp:165] Memory required for data: 15787360
I0521 14:01:28.403998  1271 layer_factory.hpp:77] Creating layer drop3
I0521 14:01:28.404011  1271 net.cpp:106] Creating Layer drop3
I0521 14:01:28.404021  1271 net.cpp:454] drop3 <- ip3
I0521 14:01:28.404033  1271 net.cpp:397] drop3 -> ip3 (in-place)
I0521 14:01:28.404080  1271 net.cpp:150] Setting up drop3
I0521 14:01:28.404094  1271 net.cpp:157] Top shape: 10 11 (110)
I0521 14:01:28.404104  1271 net.cpp:165] Memory required for data: 15787800
I0521 14:01:28.404114  1271 layer_factory.hpp:77] Creating layer loss
I0521 14:01:28.404134  1271 net.cpp:106] Creating Layer loss
I0521 14:01:28.404144  1271 net.cpp:454] loss <- ip3
I0521 14:01:28.404155  1271 net.cpp:454] loss <- label
I0521 14:01:28.404168  1271 net.cpp:411] loss -> loss
I0521 14:01:28.404186  1271 layer_factory.hpp:77] Creating layer loss
…
I0521 14:01:28.406826  1271 solver.cpp:181] Creating test net (#0) specified by net file: /lustre/atlas/proj-shared/hep105/caffe_titan/caffe_workflow/logs_bslr/bs_10_lr_0.0020_2016-05-20T15.48.50.413054.prototxt
I0521 14:01:28.406898  1271 net.cpp:322] The NetState phase (1) differed from the phase (0) specified by a rule in layer data_hdf5
I0521 14:01:28.407249  1271 net.cpp:49] Initializing net from parameters: 
name: "caffe_test_127x50_x_unshifted"
state {
  phase: TEST
}
layer {
  name: "data_hdf5"
  type: "HDF5Data"
  top: "data"
  top: "label"
  include {
    phase: TEST
  }
  hdf5_data_param {
    source: "/lustre/atlas/proj-shared/hep105/caffe_titan/minosmatch_nukecczdefs_127x50_x_unshifted_me1Bmc.testlist"
    batch_size: 10
  }
}
layer {
  name: "conv1"
  type: "Convolution"
  bottom: "data"
  top: "conv1"
  convolution_param {
    num_output: 12
    pad: 0
    stride: 1
    weight_filler {
      type: "xavier"
    }
    bias_filler {
      type: "constant"
    }
    kernel_h: 8
    kernel_w: 3
  }
}
layer {
  name: "relu1"
  type: "ReLU"
  bottom: "conv1"
  top: "conv1"
}
layer {
  name: "pool1"
  type: "Pooling"
  bottom: "conv1"
  top: "pool1"
  pooling_param {
    pool: MAX
    kernel_h: 2
    kernel_w: 1
    stride_h: 2
    stride_w: 1
  }
}
layer {
  name: "conv2"
  type: "Convolution"
  bottom: "pool1"
  top: "conv2"
  convolution_param {
    num_output: 20
    pad: 0
    stride: 1
    weight_filler {
      type: "xavier"
    }
    bias_filler {
      type: "constant"
    }
    kernel_h: 7
    kernel_w: 3
  }
}
layer {
  name: "relu2"
  type: "ReLU"
  bottom: "conv2"
  top: "conv2"
}
layer {
  name: "pool2"
  type: "Pooling"
  bottom: "conv2"
  top: "pool2"
  pooling_param {
    pool: MAX
    kernel_h: 2
    kernel_w: 1
    stride_h: 2
    stride_w: 1
  }
}
layer {
  name: "conv3"
  type: "Convolution"
  bottom: "pool2"
  top: "conv3"
  convolution_param {
    num_output: 28
    pad: 0
    stride: 1
    weight_filler {
      type: "xavier"
    }
    bias_filler {
      type: "constant"
    }
    kernel_h: 6
    kernel_w: 3
  }
}
layer {
  name: "relu3"
  type: "ReLU"
  bottom: "conv3"
  top: "conv3"
}
layer {
  name: "pool3"
  type: "Pooling"
  bottom: "conv3"
  top: "pool3"
  pooling_param {
    pool: MAX
    kernel_h: 2
    kernel_w: 1
    stride_h: 2
    stride_w: 1
  }
}
layer {
  name: "conv4"
  type: "Convolution"
  bottom: "pool3"
  top: "conv4"
  convolution_param {
    num_output: 36
    pad: 0
    stride: 1
    weight_filler {
      type: "xavier"
    }
    bias_filler {
      type: "constant"
    }
    kernel_h: 6
    kernel_w: 3
  }
}
layer {
  name: "relu4"
  type: "ReLU"
  bottom: "conv4"
  top: "conv4"
}
layer {
  name: "pool4"
  type: "Pooling"
  bottom: "conv4"
  top: "pool4"
  pooling_param {
    pool: MAX
    kernel_h: 2
    kernel_w: 1
    stride_h: 2
    stride_w: 1
  }
}
layer {
  name: "ip1"
  type: "InnerProduct"
  bottom: "pool4"
  top: "ip1"
  inner_product_param {
    num_output: 196
    weight_filler {
      type: "xavier"
    }
    bias_filler {
      type: "constant"
    }
  }
}
layer {
  name: "relu5"
  type: "ReLU"
  bottom: "ip1"
  top: "ip1"
}
layer {
  name: "drop1"
  type: "Dropout"
  bottom: "ip1"
  top: "ip1"
  dropout_param {
    dropout_ratio: 0.5
  }
}
layer {
  name: "ip2"
  type: "InnerProduct"
  bottom: "ip1"
  top: "ip2"
  inner_product_param {
    num_output: 98
    weight_filler {
      type: "xavier"
    }
    bias_filler {
      type: "constant"
    }
  }
}
layer {
  name: "relu6"
  type: "ReLU"
  bottom: "ip2"
  top: "ip2"
}
layer {
  name: "drop2"
  type: "Dropout"
  bottom: "ip2"
  top: "ip2"
  dropout_param {
    dropout_ratio: 0.5
  }
}
layer {
  name: "ip3"
  type: "InnerProduct"
  bottom: "ip2"
  top: "ip3"
  inner_product_param {
    num_output: 11
    weight_filler {
      type: "xavier"
    }
    bias_filler {
      type: "constant"
    }
  }
}
layer {
  name: "drop3"
  type: "Dropout"
  bottom: "ip3"
  top: "ip3"
  dropout_param {
    dropout_ratio: 0.5
  }
}
layer {
  name: "accuracy"
  type: "Accuracy"
  bottom: "ip3"
  bottom: "label"
  top: "accuracy"
  include {
    phase: TEST
  }
}
layer {
  name: "loss"
  type: "SoftmaxWithLoss"
  bottom: "ip3"
  bottom: "label"
  top: "loss"
}
I0521 14:01:28.407439  1271 layer_factory.hpp:77] Creating layer data_hdf5
I0521 14:01:28.407455  1271 net.cpp:106] Creating Layer data_hdf5
I0521 14:01:28.407469  1271 net.cpp:411] data_hdf5 -> data
I0521 14:01:28.407485  1271 net.cpp:411] data_hdf5 -> label
I0521 14:01:28.407501  1271 hdf5_data_layer.cpp:79] Loading list of HDF5 filenames from: /lustre/atlas/proj-shared/hep105/caffe_titan/minosmatch_nukecczdefs_127x50_x_unshifted_me1Bmc.testlist
I0521 14:01:28.408886  1271 hdf5_data_layer.cpp:93] Number of HDF5 files: 3
I0521 14:01:49.710680  1271 net.cpp:150] Setting up data_hdf5
I0521 14:01:49.710846  1271 net.cpp:157] Top shape: 10 1 127 50 (63500)
I0521 14:01:49.710860  1271 net.cpp:157] Top shape: 10 (10)
I0521 14:01:49.710871  1271 net.cpp:165] Memory required for data: 254040
I0521 14:01:49.710886  1271 layer_factory.hpp:77] Creating layer label_data_hdf5_1_split
I0521 14:01:49.710914  1271 net.cpp:106] Creating Layer label_data_hdf5_1_split
I0521 14:01:49.710925  1271 net.cpp:454] label_data_hdf5_1_split <- label
I0521 14:01:49.710942  1271 net.cpp:411] label_data_hdf5_1_split -> label_data_hdf5_1_split_0
I0521 14:01:49.710963  1271 net.cpp:411] label_data_hdf5_1_split -> label_data_hdf5_1_split_1
I0521 14:01:49.711035  1271 net.cpp:150] Setting up label_data_hdf5_1_split
I0521 14:01:49.711048  1271 net.cpp:157] Top shape: 10 (10)
I0521 14:01:49.711061  1271 net.cpp:157] Top shape: 10 (10)
I0521 14:01:49.711071  1271 net.cpp:165] Memory required for data: 254120
I0521 14:01:49.711081  1271 layer_factory.hpp:77] Creating layer conv1
I0521 14:01:49.711103  1271 net.cpp:106] Creating Layer conv1
I0521 14:01:49.711113  1271 net.cpp:454] conv1 <- data
I0521 14:01:49.711128  1271 net.cpp:411] conv1 -> conv1
I0521 14:01:49.713079  1271 net.cpp:150] Setting up conv1
I0521 14:01:49.713104  1271 net.cpp:157] Top shape: 10 12 120 48 (691200)
I0521 14:01:49.713116  1271 net.cpp:165] Memory required for data: 3018920
I0521 14:01:49.713136  1271 layer_factory.hpp:77] Creating layer relu1
I0521 14:01:49.713151  1271 net.cpp:106] Creating Layer relu1
I0521 14:01:49.713161  1271 net.cpp:454] relu1 <- conv1
I0521 14:01:49.713174  1271 net.cpp:397] relu1 -> conv1 (in-place)
I0521 14:01:49.713681  1271 net.cpp:150] Setting up relu1
I0521 14:01:49.713698  1271 net.cpp:157] Top shape: 10 12 120 48 (691200)
I0521 14:01:49.713709  1271 net.cpp:165] Memory required for data: 5783720
I0521 14:01:49.713719  1271 layer_factory.hpp:77] Creating layer pool1
I0521 14:01:49.713735  1271 net.cpp:106] Creating Layer pool1
I0521 14:01:49.713745  1271 net.cpp:454] pool1 <- conv1
I0521 14:01:49.713758  1271 net.cpp:411] pool1 -> pool1
I0521 14:01:49.713832  1271 net.cpp:150] Setting up pool1
I0521 14:01:49.713846  1271 net.cpp:157] Top shape: 10 12 60 48 (345600)
I0521 14:01:49.713855  1271 net.cpp:165] Memory required for data: 7166120
I0521 14:01:49.713866  1271 layer_factory.hpp:77] Creating layer conv2
I0521 14:01:49.713883  1271 net.cpp:106] Creating Layer conv2
I0521 14:01:49.713894  1271 net.cpp:454] conv2 <- pool1
I0521 14:01:49.713908  1271 net.cpp:411] conv2 -> conv2
I0521 14:01:49.715819  1271 net.cpp:150] Setting up conv2
I0521 14:01:49.715842  1271 net.cpp:157] Top shape: 10 20 54 46 (496800)
I0521 14:01:49.715854  1271 net.cpp:165] Memory required for data: 9153320
I0521 14:01:49.715873  1271 layer_factory.hpp:77] Creating layer relu2
I0521 14:01:49.715885  1271 net.cpp:106] Creating Layer relu2
I0521 14:01:49.715895  1271 net.cpp:454] relu2 <- conv2
I0521 14:01:49.715909  1271 net.cpp:397] relu2 -> conv2 (in-place)
I0521 14:01:49.716254  1271 net.cpp:150] Setting up relu2
I0521 14:01:49.716269  1271 net.cpp:157] Top shape: 10 20 54 46 (496800)
I0521 14:01:49.716279  1271 net.cpp:165] Memory required for data: 11140520
I0521 14:01:49.716289  1271 layer_factory.hpp:77] Creating layer pool2
I0521 14:01:49.716303  1271 net.cpp:106] Creating Layer pool2
I0521 14:01:49.716313  1271 net.cpp:454] pool2 <- conv2
I0521 14:01:49.716325  1271 net.cpp:411] pool2 -> pool2
I0521 14:01:49.716398  1271 net.cpp:150] Setting up pool2
I0521 14:01:49.716411  1271 net.cpp:157] Top shape: 10 20 27 46 (248400)
I0521 14:01:49.716421  1271 net.cpp:165] Memory required for data: 12134120
I0521 14:01:49.716431  1271 layer_factory.hpp:77] Creating layer conv3
I0521 14:01:49.716450  1271 net.cpp:106] Creating Layer conv3
I0521 14:01:49.716461  1271 net.cpp:454] conv3 <- pool2
I0521 14:01:49.716475  1271 net.cpp:411] conv3 -> conv3
I0521 14:01:49.718473  1271 net.cpp:150] Setting up conv3
I0521 14:01:49.718497  1271 net.cpp:157] Top shape: 10 28 22 44 (271040)
I0521 14:01:49.718509  1271 net.cpp:165] Memory required for data: 13218280
I0521 14:01:49.718528  1271 layer_factory.hpp:77] Creating layer relu3
I0521 14:01:49.718554  1271 net.cpp:106] Creating Layer relu3
I0521 14:01:49.718564  1271 net.cpp:454] relu3 <- conv3
I0521 14:01:49.718577  1271 net.cpp:397] relu3 -> conv3 (in-place)
I0521 14:01:49.719050  1271 net.cpp:150] Setting up relu3
I0521 14:01:49.719066  1271 net.cpp:157] Top shape: 10 28 22 44 (271040)
I0521 14:01:49.719076  1271 net.cpp:165] Memory required for data: 14302440
I0521 14:01:49.719086  1271 layer_factory.hpp:77] Creating layer pool3
I0521 14:01:49.719099  1271 net.cpp:106] Creating Layer pool3
I0521 14:01:49.719110  1271 net.cpp:454] pool3 <- conv3
I0521 14:01:49.719122  1271 net.cpp:411] pool3 -> pool3
I0521 14:01:49.719193  1271 net.cpp:150] Setting up pool3
I0521 14:01:49.719207  1271 net.cpp:157] Top shape: 10 28 11 44 (135520)
I0521 14:01:49.719216  1271 net.cpp:165] Memory required for data: 14844520
I0521 14:01:49.719226  1271 layer_factory.hpp:77] Creating layer conv4
I0521 14:01:49.719244  1271 net.cpp:106] Creating Layer conv4
I0521 14:01:49.719254  1271 net.cpp:454] conv4 <- pool3
I0521 14:01:49.719269  1271 net.cpp:411] conv4 -> conv4
I0521 14:01:49.721341  1271 net.cpp:150] Setting up conv4
I0521 14:01:49.721364  1271 net.cpp:157] Top shape: 10 36 6 42 (90720)
I0521 14:01:49.721376  1271 net.cpp:165] Memory required for data: 15207400
I0521 14:01:49.721391  1271 layer_factory.hpp:77] Creating layer relu4
I0521 14:01:49.721405  1271 net.cpp:106] Creating Layer relu4
I0521 14:01:49.721415  1271 net.cpp:454] relu4 <- conv4
I0521 14:01:49.721428  1271 net.cpp:397] relu4 -> conv4 (in-place)
I0521 14:01:49.721895  1271 net.cpp:150] Setting up relu4
I0521 14:01:49.721911  1271 net.cpp:157] Top shape: 10 36 6 42 (90720)
I0521 14:01:49.721921  1271 net.cpp:165] Memory required for data: 15570280
I0521 14:01:49.721931  1271 layer_factory.hpp:77] Creating layer pool4
I0521 14:01:49.721942  1271 net.cpp:106] Creating Layer pool4
I0521 14:01:49.721952  1271 net.cpp:454] pool4 <- conv4
I0521 14:01:49.721966  1271 net.cpp:411] pool4 -> pool4
I0521 14:01:49.722038  1271 net.cpp:150] Setting up pool4
I0521 14:01:49.722051  1271 net.cpp:157] Top shape: 10 36 3 42 (45360)
I0521 14:01:49.722061  1271 net.cpp:165] Memory required for data: 15751720
I0521 14:01:49.722069  1271 layer_factory.hpp:77] Creating layer ip1
I0521 14:01:49.722085  1271 net.cpp:106] Creating Layer ip1
I0521 14:01:49.722096  1271 net.cpp:454] ip1 <- pool4
I0521 14:01:49.722110  1271 net.cpp:411] ip1 -> ip1
I0521 14:01:49.737576  1271 net.cpp:150] Setting up ip1
I0521 14:01:49.737606  1271 net.cpp:157] Top shape: 10 196 (1960)
I0521 14:01:49.737617  1271 net.cpp:165] Memory required for data: 15759560
I0521 14:01:49.737639  1271 layer_factory.hpp:77] Creating layer relu5
I0521 14:01:49.737654  1271 net.cpp:106] Creating Layer relu5
I0521 14:01:49.737664  1271 net.cpp:454] relu5 <- ip1
I0521 14:01:49.737679  1271 net.cpp:397] relu5 -> ip1 (in-place)
I0521 14:01:49.738026  1271 net.cpp:150] Setting up relu5
I0521 14:01:49.738039  1271 net.cpp:157] Top shape: 10 196 (1960)
I0521 14:01:49.738049  1271 net.cpp:165] Memory required for data: 15767400
I0521 14:01:49.738060  1271 layer_factory.hpp:77] Creating layer drop1
I0521 14:01:49.738078  1271 net.cpp:106] Creating Layer drop1
I0521 14:01:49.738088  1271 net.cpp:454] drop1 <- ip1
I0521 14:01:49.738101  1271 net.cpp:397] drop1 -> ip1 (in-place)
I0521 14:01:49.738147  1271 net.cpp:150] Setting up drop1
I0521 14:01:49.738158  1271 net.cpp:157] Top shape: 10 196 (1960)
I0521 14:01:49.738168  1271 net.cpp:165] Memory required for data: 15775240
I0521 14:01:49.738178  1271 layer_factory.hpp:77] Creating layer ip2
I0521 14:01:49.738193  1271 net.cpp:106] Creating Layer ip2
I0521 14:01:49.738203  1271 net.cpp:454] ip2 <- ip1
I0521 14:01:49.738216  1271 net.cpp:411] ip2 -> ip2
I0521 14:01:49.738695  1271 net.cpp:150] Setting up ip2
I0521 14:01:49.738709  1271 net.cpp:157] Top shape: 10 98 (980)
I0521 14:01:49.738718  1271 net.cpp:165] Memory required for data: 15779160
I0521 14:01:49.738734  1271 layer_factory.hpp:77] Creating layer relu6
I0521 14:01:49.738759  1271 net.cpp:106] Creating Layer relu6
I0521 14:01:49.738770  1271 net.cpp:454] relu6 <- ip2
I0521 14:01:49.738783  1271 net.cpp:397] relu6 -> ip2 (in-place)
I0521 14:01:49.739316  1271 net.cpp:150] Setting up relu6
I0521 14:01:49.739332  1271 net.cpp:157] Top shape: 10 98 (980)
I0521 14:01:49.739341  1271 net.cpp:165] Memory required for data: 15783080
I0521 14:01:49.739351  1271 layer_factory.hpp:77] Creating layer drop2
I0521 14:01:49.739365  1271 net.cpp:106] Creating Layer drop2
I0521 14:01:49.739375  1271 net.cpp:454] drop2 <- ip2
I0521 14:01:49.739388  1271 net.cpp:397] drop2 -> ip2 (in-place)
I0521 14:01:49.739434  1271 net.cpp:150] Setting up drop2
I0521 14:01:49.739446  1271 net.cpp:157] Top shape: 10 98 (980)
I0521 14:01:49.739455  1271 net.cpp:165] Memory required for data: 15787000
I0521 14:01:49.739465  1271 layer_factory.hpp:77] Creating layer ip3
I0521 14:01:49.739480  1271 net.cpp:106] Creating Layer ip3
I0521 14:01:49.739490  1271 net.cpp:454] ip3 <- ip2
I0521 14:01:49.739503  1271 net.cpp:411] ip3 -> ip3
I0521 14:01:49.739725  1271 net.cpp:150] Setting up ip3
I0521 14:01:49.739738  1271 net.cpp:157] Top shape: 10 11 (110)
I0521 14:01:49.739748  1271 net.cpp:165] Memory required for data: 15787440
I0521 14:01:49.739764  1271 layer_factory.hpp:77] Creating layer drop3
I0521 14:01:49.739778  1271 net.cpp:106] Creating Layer drop3
I0521 14:01:49.739787  1271 net.cpp:454] drop3 <- ip3
I0521 14:01:49.739800  1271 net.cpp:397] drop3 -> ip3 (in-place)
I0521 14:01:49.739841  1271 net.cpp:150] Setting up drop3
I0521 14:01:49.739855  1271 net.cpp:157] Top shape: 10 11 (110)
I0521 14:01:49.739864  1271 net.cpp:165] Memory required for data: 15787880
I0521 14:01:49.739874  1271 layer_factory.hpp:77] Creating layer ip3_drop3_0_split
I0521 14:01:49.739887  1271 net.cpp:106] Creating Layer ip3_drop3_0_split
I0521 14:01:49.739897  1271 net.cpp:454] ip3_drop3_0_split <- ip3
I0521 14:01:49.739910  1271 net.cpp:411] ip3_drop3_0_split -> ip3_drop3_0_split_0
I0521 14:01:49.739925  1271 net.cpp:411] ip3_drop3_0_split -> ip3_drop3_0_split_1
I0521 14:01:49.740000  1271 net.cpp:150] Setting up ip3_drop3_0_split
I0521 14:01:49.740012  1271 net.cpp:157] Top shape: 10 11 (110)
I0521 14:01:49.740025  1271 net.cpp:157] Top shape: 10 11 (110)
I0521 14:01:49.740036  1271 net.cpp:165] Memory required for data: 15788760
I0521 14:01:49.740046  1271 layer_factory.hpp:77] Creating layer accuracy
I0521 14:01:49.740073  1271 net.cpp:106] Creating Layer accuracy
I0521 14:01:49.740084  1271 net.cpp:454] accuracy <- ip3_drop3_0_split_0
I0521 14:01:49.740095  1271 net.cpp:454] accuracy <- label_data_hdf5_1_split_0
I0521 14:01:49.740109  1271 net.cpp:411] accuracy -> accuracy
…
