…
I0521 17:40:00.250543 12543 net.cpp:322] The NetState phase (0) differed from the phase (1) specified by a rule in layer data_hdf5
I0521 17:40:00.250602 12543 net.cpp:322] The NetState phase (0) differed from the phase (1) specified by a rule in layer accuracy
I0521 17:40:00.250948 12543 net.cpp:49] Initializing net from parameters: 
name: "caffe_test_127x50_x_unshifted"
state {
  phase: TRAIN
}
layer {
  name: "data_hdf5"
  type: "HDF5Data"
  top: "data"
  top: "label"
  include {
    phase: TRAIN
  }
  hdf5_data_param {
    source: "/lustre/atlas/proj-shared/hep105/caffe_titan/minosmatch_nukecczdefs_127x50_x_unshifted_me1Bmc.trainlist"
    batch_size: 10
  }
}
layer {
  name: "conv1"
  type: "Convolution"
  bottom: "data"
  top: "conv1"
  convolution_param {
    num_output: 12
    pad: 0
    stride: 1
    weight_filler {
      type: "xavier"
    }
    bias_filler {
      type: "constant"
    }
    kernel_h: 8
    kernel_w: 3
  }
}
layer {
  name: "relu1"
  type: "ReLU"
  bottom: "conv1"
  top: "conv1"
}
layer {
  name: "pool1"
  type: "Pooling"
  bottom: "conv1"
  top: "pool1"
  pooling_param {
    pool: MAX
    kernel_h: 2
    kernel_w: 1
    stride_h: 2
    stride_w: 1
  }
}
layer {
  name: "conv2"
  type: "Convolution"
  bottom: "pool1"
  top: "conv2"
  convolution_param {
    num_output: 20
    pad: 0
    stride: 1
    weight_filler {
      type: "xavier"
    }
    bias_filler {
      type: "constant"
    }
    kernel_h: 7
    kernel_w: 3
  }
}
layer {
  name: "relu2"
  type: "ReLU"
  bottom: "conv2"
  top: "conv2"
}
layer {
  name: "pool2"
  type: "Pooling"
  bottom: "conv2"
  top: "pool2"
  pooling_param {
    pool: MAX
    kernel_h: 2
    kernel_w: 1
    stride_h: 2
    stride_w: 1
  }
}
layer {
  name: "conv3"
  type: "Convolution"
  bottom: "pool2"
  top: "conv3"
  convolution_param {
    num_output: 28
    pad: 0
    stride: 1
    weight_filler {
      type: "xavier"
    }
    bias_filler {
      type: "constant"
    }
    kernel_h: 6
    kernel_w: 3
  }
}
layer {
  name: "relu3"
  type: "ReLU"
  bottom: "conv3"
  top: "conv3"
}
layer {
  name: "pool3"
  type: "Pooling"
  bottom: "conv3"
  top: "pool3"
  pooling_param {
    pool: MAX
    kernel_h: 2
    kernel_w: 1
    stride_h: 2
    stride_w: 1
  }
}
layer {
  name: "conv4"
  type: "Convolution"
  bottom: "pool3"
  top: "conv4"
  convolution_param {
    num_output: 36
    pad: 0
    stride: 1
    weight_filler {
      type: "xavier"
    }
    bias_filler {
      type: "constant"
    }
    kernel_h: 6
    kernel_w: 3
  }
}
layer {
  name: "relu4"
  type: "ReLU"
  bottom: "conv4"
  top: "conv4"
}
layer {
  name: "pool4"
  type: "Pooling"
  bottom: "conv4"
  top: "pool4"
  pooling_param {
    pool: MAX
    kernel_h: 2
    kernel_w: 1
    stride_h: 2
    stride_w: 1
  }
}
layer {
  name: "ip1"
  type: "InnerProduct"
  bottom: "pool4"
  top: "ip1"
  inner_product_param {
    num_output: 196
    weight_filler {
      type: "xavier"
    }
    bias_filler {
      type: "constant"
    }
  }
}
layer {
  name: "relu5"
  type: "ReLU"
  bottom: "ip1"
  top: "ip1"
}
layer {
  name: "drop1"
  type: "Dropout"
  bottom: "ip1"
  top: "ip1"
  dropout_param {
    dropout_ratio: 0.5
  }
}
layer {
  name: "ip2"
  type: "InnerProduct"
  bottom: "ip1"
  top: "ip2"
  inner_product_param {
    num_output: 98
    weight_filler {
      type: "xavier"
    }
    bias_filler {
      type: "constant"
    }
  }
}
layer {
  name: "relu6"
  type: "ReLU"
  bottom: "ip2"
  top: "ip2"
}
layer {
  name: "drop2"
  type: "Dropout"
  bottom: "ip2"
  top: "ip2"
  dropout_param {
    dropout_ratio: 0.5
  }
}
layer {
  name: "ip3"
  type: "InnerProduct"
  bottom: "ip2"
  top: "ip3"
  inner_product_param {
    num_output: 11
    weight_filler {
      type: "xavier"
    }
    bias_filler {
      type: "constant"
    }
  }
}
layer {
  name: "drop3"
  type: "Dropout"
  bottom: "ip3"
  top: "ip3"
  dropout_param {
    dropout_ratio: 0.5
  }
}
layer {
  name: "loss"
  type: "SoftmaxWithLoss"
  bottom: "ip3"
  bottom: "label"
  top: "loss"
}
I0521 17:40:00.251132 12543 layer_factory.hpp:77] Creating layer data_hdf5
I0521 17:40:00.251157 12543 net.cpp:106] Creating Layer data_hdf5
I0521 17:40:00.251171 12543 net.cpp:411] data_hdf5 -> data
I0521 17:40:00.251204 12543 net.cpp:411] data_hdf5 -> label
I0521 17:40:00.251235 12543 hdf5_data_layer.cpp:79] Loading list of HDF5 filenames from: /lustre/atlas/proj-shared/hep105/caffe_titan/minosmatch_nukecczdefs_127x50_x_unshifted_me1Bmc.trainlist
I0521 17:40:00.252461 12543 hdf5_data_layer.cpp:93] Number of HDF5 files: 15
I0521 17:40:00.254627 12543 hdf5.cpp:32] Datatype class: H5T_FLOAT
I0521 17:40:21.790148 12543 hdf5.cpp:35] Datatype class: H5T_INTEGER
I0521 17:40:21.795313 12543 net.cpp:150] Setting up data_hdf5
I0521 17:40:21.795354 12543 net.cpp:157] Top shape: 10 1 127 50 (63500)
I0521 17:40:21.795368 12543 net.cpp:157] Top shape: 10 (10)
I0521 17:40:21.795380 12543 net.cpp:165] Memory required for data: 254040
I0521 17:40:21.795394 12543 layer_factory.hpp:77] Creating layer conv1
I0521 17:40:21.795428 12543 net.cpp:106] Creating Layer conv1
I0521 17:40:21.795439 12543 net.cpp:454] conv1 <- data
I0521 17:40:21.795459 12543 net.cpp:411] conv1 -> conv1
I0521 17:40:22.159103 12543 net.cpp:150] Setting up conv1
I0521 17:40:22.159149 12543 net.cpp:157] Top shape: 10 12 120 48 (691200)
I0521 17:40:22.159160 12543 net.cpp:165] Memory required for data: 3018840
I0521 17:40:22.159190 12543 layer_factory.hpp:77] Creating layer relu1
I0521 17:40:22.159211 12543 net.cpp:106] Creating Layer relu1
I0521 17:40:22.159222 12543 net.cpp:454] relu1 <- conv1
I0521 17:40:22.159235 12543 net.cpp:397] relu1 -> conv1 (in-place)
I0521 17:40:22.159764 12543 net.cpp:150] Setting up relu1
I0521 17:40:22.159780 12543 net.cpp:157] Top shape: 10 12 120 48 (691200)
I0521 17:40:22.159790 12543 net.cpp:165] Memory required for data: 5783640
I0521 17:40:22.159802 12543 layer_factory.hpp:77] Creating layer pool1
I0521 17:40:22.159819 12543 net.cpp:106] Creating Layer pool1
I0521 17:40:22.159829 12543 net.cpp:454] pool1 <- conv1
I0521 17:40:22.159842 12543 net.cpp:411] pool1 -> pool1
I0521 17:40:22.159922 12543 net.cpp:150] Setting up pool1
I0521 17:40:22.159935 12543 net.cpp:157] Top shape: 10 12 60 48 (345600)
I0521 17:40:22.159945 12543 net.cpp:165] Memory required for data: 7166040
I0521 17:40:22.159956 12543 layer_factory.hpp:77] Creating layer conv2
I0521 17:40:22.159978 12543 net.cpp:106] Creating Layer conv2
I0521 17:40:22.159989 12543 net.cpp:454] conv2 <- pool1
I0521 17:40:22.160003 12543 net.cpp:411] conv2 -> conv2
I0521 17:40:22.162724 12543 net.cpp:150] Setting up conv2
I0521 17:40:22.162752 12543 net.cpp:157] Top shape: 10 20 54 46 (496800)
I0521 17:40:22.162762 12543 net.cpp:165] Memory required for data: 9153240
I0521 17:40:22.162781 12543 layer_factory.hpp:77] Creating layer relu2
I0521 17:40:22.162796 12543 net.cpp:106] Creating Layer relu2
I0521 17:40:22.162806 12543 net.cpp:454] relu2 <- conv2
I0521 17:40:22.162818 12543 net.cpp:397] relu2 -> conv2 (in-place)
I0521 17:40:22.163149 12543 net.cpp:150] Setting up relu2
I0521 17:40:22.163164 12543 net.cpp:157] Top shape: 10 20 54 46 (496800)
I0521 17:40:22.163174 12543 net.cpp:165] Memory required for data: 11140440
I0521 17:40:22.163185 12543 layer_factory.hpp:77] Creating layer pool2
I0521 17:40:22.163197 12543 net.cpp:106] Creating Layer pool2
I0521 17:40:22.163208 12543 net.cpp:454] pool2 <- conv2
I0521 17:40:22.163220 12543 net.cpp:411] pool2 -> pool2
I0521 17:40:22.163300 12543 net.cpp:150] Setting up pool2
I0521 17:40:22.163313 12543 net.cpp:157] Top shape: 10 20 27 46 (248400)
I0521 17:40:22.163322 12543 net.cpp:165] Memory required for data: 12134040
I0521 17:40:22.163332 12543 layer_factory.hpp:77] Creating layer conv3
I0521 17:40:22.163350 12543 net.cpp:106] Creating Layer conv3
I0521 17:40:22.163360 12543 net.cpp:454] conv3 <- pool2
I0521 17:40:22.163373 12543 net.cpp:411] conv3 -> conv3
I0521 17:40:22.165464 12543 net.cpp:150] Setting up conv3
I0521 17:40:22.165488 12543 net.cpp:157] Top shape: 10 28 22 44 (271040)
I0521 17:40:22.165500 12543 net.cpp:165] Memory required for data: 13218200
I0521 17:40:22.165518 12543 layer_factory.hpp:77] Creating layer relu3
I0521 17:40:22.165534 12543 net.cpp:106] Creating Layer relu3
I0521 17:40:22.165544 12543 net.cpp:454] relu3 <- conv3
I0521 17:40:22.165557 12543 net.cpp:397] relu3 -> conv3 (in-place)
I0521 17:40:22.166021 12543 net.cpp:150] Setting up relu3
I0521 17:40:22.166039 12543 net.cpp:157] Top shape: 10 28 22 44 (271040)
I0521 17:40:22.166049 12543 net.cpp:165] Memory required for data: 14302360
I0521 17:40:22.166060 12543 layer_factory.hpp:77] Creating layer pool3
I0521 17:40:22.166074 12543 net.cpp:106] Creating Layer pool3
I0521 17:40:22.166084 12543 net.cpp:454] pool3 <- conv3
I0521 17:40:22.166105 12543 net.cpp:411] pool3 -> pool3
I0521 17:40:22.166172 12543 net.cpp:150] Setting up pool3
I0521 17:40:22.166184 12543 net.cpp:157] Top shape: 10 28 11 44 (135520)
I0521 17:40:22.166194 12543 net.cpp:165] Memory required for data: 14844440
I0521 17:40:22.166203 12543 layer_factory.hpp:77] Creating layer conv4
I0521 17:40:22.166220 12543 net.cpp:106] Creating Layer conv4
I0521 17:40:22.166230 12543 net.cpp:454] conv4 <- pool3
I0521 17:40:22.166245 12543 net.cpp:411] conv4 -> conv4
I0521 17:40:22.168959 12543 net.cpp:150] Setting up conv4
I0521 17:40:22.168987 12543 net.cpp:157] Top shape: 10 36 6 42 (90720)
I0521 17:40:22.168998 12543 net.cpp:165] Memory required for data: 15207320
I0521 17:40:22.169013 12543 layer_factory.hpp:77] Creating layer relu4
I0521 17:40:22.169028 12543 net.cpp:106] Creating Layer relu4
I0521 17:40:22.169037 12543 net.cpp:454] relu4 <- conv4
I0521 17:40:22.169050 12543 net.cpp:397] relu4 -> conv4 (in-place)
I0521 17:40:22.169513 12543 net.cpp:150] Setting up relu4
I0521 17:40:22.169529 12543 net.cpp:157] Top shape: 10 36 6 42 (90720)
I0521 17:40:22.169539 12543 net.cpp:165] Memory required for data: 15570200
I0521 17:40:22.169549 12543 layer_factory.hpp:77] Creating layer pool4
I0521 17:40:22.169562 12543 net.cpp:106] Creating Layer pool4
I0521 17:40:22.169572 12543 net.cpp:454] pool4 <- conv4
I0521 17:40:22.169585 12543 net.cpp:411] pool4 -> pool4
I0521 17:40:22.169654 12543 net.cpp:150] Setting up pool4
I0521 17:40:22.169667 12543 net.cpp:157] Top shape: 10 36 3 42 (45360)
I0521 17:40:22.169677 12543 net.cpp:165] Memory required for data: 15751640
I0521 17:40:22.169687 12543 layer_factory.hpp:77] Creating layer ip1
I0521 17:40:22.169705 12543 net.cpp:106] Creating Layer ip1
I0521 17:40:22.169715 12543 net.cpp:454] ip1 <- pool4
I0521 17:40:22.169728 12543 net.cpp:411] ip1 -> ip1
I0521 17:40:22.185144 12543 net.cpp:150] Setting up ip1
I0521 17:40:22.185173 12543 net.cpp:157] Top shape: 10 196 (1960)
I0521 17:40:22.185184 12543 net.cpp:165] Memory required for data: 15759480
I0521 17:40:22.185205 12543 layer_factory.hpp:77] Creating layer relu5
I0521 17:40:22.185220 12543 net.cpp:106] Creating Layer relu5
I0521 17:40:22.185230 12543 net.cpp:454] relu5 <- ip1
I0521 17:40:22.185243 12543 net.cpp:397] relu5 -> ip1 (in-place)
I0521 17:40:22.185586 12543 net.cpp:150] Setting up relu5
I0521 17:40:22.185600 12543 net.cpp:157] Top shape: 10 196 (1960)
I0521 17:40:22.185611 12543 net.cpp:165] Memory required for data: 15767320
I0521 17:40:22.185621 12543 layer_factory.hpp:77] Creating layer drop1
I0521 17:40:22.185642 12543 net.cpp:106] Creating Layer drop1
I0521 17:40:22.185652 12543 net.cpp:454] drop1 <- ip1
I0521 17:40:22.185665 12543 net.cpp:397] drop1 -> ip1 (in-place)
I0521 17:40:22.185724 12543 net.cpp:150] Setting up drop1
I0521 17:40:22.185737 12543 net.cpp:157] Top shape: 10 196 (1960)
I0521 17:40:22.185747 12543 net.cpp:165] Memory required for data: 15775160
I0521 17:40:22.185757 12543 layer_factory.hpp:77] Creating layer ip2
I0521 17:40:22.185775 12543 net.cpp:106] Creating Layer ip2
I0521 17:40:22.185786 12543 net.cpp:454] ip2 <- ip1
I0521 17:40:22.185798 12543 net.cpp:411] ip2 -> ip2
I0521 17:40:22.186269 12543 net.cpp:150] Setting up ip2
I0521 17:40:22.186282 12543 net.cpp:157] Top shape: 10 98 (980)
I0521 17:40:22.186292 12543 net.cpp:165] Memory required for data: 15779080
I0521 17:40:22.186307 12543 layer_factory.hpp:77] Creating layer relu6
I0521 17:40:22.186321 12543 net.cpp:106] Creating Layer relu6
I0521 17:40:22.186329 12543 net.cpp:454] relu6 <- ip2
I0521 17:40:22.186342 12543 net.cpp:397] relu6 -> ip2 (in-place)
I0521 17:40:22.186863 12543 net.cpp:150] Setting up relu6
I0521 17:40:22.186879 12543 net.cpp:157] Top shape: 10 98 (980)
I0521 17:40:22.186889 12543 net.cpp:165] Memory required for data: 15783000
I0521 17:40:22.186899 12543 layer_factory.hpp:77] Creating layer drop2
I0521 17:40:22.186913 12543 net.cpp:106] Creating Layer drop2
I0521 17:40:22.186921 12543 net.cpp:454] drop2 <- ip2
I0521 17:40:22.186934 12543 net.cpp:397] drop2 -> ip2 (in-place)
I0521 17:40:22.186977 12543 net.cpp:150] Setting up drop2
I0521 17:40:22.186990 12543 net.cpp:157] Top shape: 10 98 (980)
I0521 17:40:22.187000 12543 net.cpp:165] Memory required for data: 15786920
I0521 17:40:22.187010 12543 layer_factory.hpp:77] Creating layer ip3
I0521 17:40:22.187023 12543 net.cpp:106] Creating Layer ip3
I0521 17:40:22.187032 12543 net.cpp:454] ip3 <- ip2
I0521 17:40:22.187046 12543 net.cpp:411] ip3 -> ip3
I0521 17:40:22.187253 12543 net.cpp:150] Setting up ip3
I0521 17:40:22.187266 12543 net.cpp:157] Top shape: 10 11 (110)
I0521 17:40:22.187276 12543 net.cpp:165] Memory required for data: 15787360
I0521 17:40:22.187293 12543 layer_factory.hpp:77] Creating layer drop3
I0521 17:40:22.187304 12543 net.cpp:106] Creating Layer drop3
I0521 17:40:22.187314 12543 net.cpp:454] drop3 <- ip3
I0521 17:40:22.187326 12543 net.cpp:397] drop3 -> ip3 (in-place)
I0521 17:40:22.187366 12543 net.cpp:150] Setting up drop3
I0521 17:40:22.187377 12543 net.cpp:157] Top shape: 10 11 (110)
I0521 17:40:22.187388 12543 net.cpp:165] Memory required for data: 15787800
I0521 17:40:22.187397 12543 layer_factory.hpp:77] Creating layer loss
I0521 17:40:22.187417 12543 net.cpp:106] Creating Layer loss
I0521 17:40:22.187427 12543 net.cpp:454] loss <- ip3
I0521 17:40:22.187438 12543 net.cpp:454] loss <- label
I0521 17:40:22.187449 12543 net.cpp:411] loss -> loss
I0521 17:40:22.187466 12543 layer_factory.hpp:77] Creating layer loss
…
I0521 17:40:22.190070 12543 solver.cpp:181] Creating test net (#0) specified by net file: /lustre/atlas/proj-shared/hep105/caffe_titan/caffe_workflow/logs_bslr/bs_10_lr_0.0040_2016-05-20T15.48.52.047393.prototxt
I0521 17:40:22.190155 12543 net.cpp:322] The NetState phase (1) differed from the phase (0) specified by a rule in layer data_hdf5
I0521 17:40:22.190505 12543 net.cpp:49] Initializing net from parameters: 
name: "caffe_test_127x50_x_unshifted"
state {
  phase: TEST
}
layer {
  name: "data_hdf5"
  type: "HDF5Data"
  top: "data"
  top: "label"
  include {
    phase: TEST
  }
  hdf5_data_param {
    source: "/lustre/atlas/proj-shared/hep105/caffe_titan/minosmatch_nukecczdefs_127x50_x_unshifted_me1Bmc.testlist"
    batch_size: 10
  }
}
layer {
  name: "conv1"
  type: "Convolution"
  bottom: "data"
  top: "conv1"
  convolution_param {
    num_output: 12
    pad: 0
    stride: 1
    weight_filler {
      type: "xavier"
    }
    bias_filler {
      type: "constant"
    }
    kernel_h: 8
    kernel_w: 3
  }
}
layer {
  name: "relu1"
  type: "ReLU"
  bottom: "conv1"
  top: "conv1"
}
layer {
  name: "pool1"
  type: "Pooling"
  bottom: "conv1"
  top: "pool1"
  pooling_param {
    pool: MAX
    kernel_h: 2
    kernel_w: 1
    stride_h: 2
    stride_w: 1
  }
}
layer {
  name: "conv2"
  type: "Convolution"
  bottom: "pool1"
  top: "conv2"
  convolution_param {
    num_output: 20
    pad: 0
    stride: 1
    weight_filler {
      type: "xavier"
    }
    bias_filler {
      type: "constant"
    }
    kernel_h: 7
    kernel_w: 3
  }
}
layer {
  name: "relu2"
  type: "ReLU"
  bottom: "conv2"
  top: "conv2"
}
layer {
  name: "pool2"
  type: "Pooling"
  bottom: "conv2"
  top: "pool2"
  pooling_param {
    pool: MAX
    kernel_h: 2
    kernel_w: 1
    stride_h: 2
    stride_w: 1
  }
}
layer {
  name: "conv3"
  type: "Convolution"
  bottom: "pool2"
  top: "conv3"
  convolution_param {
    num_output: 28
    pad: 0
    stride: 1
    weight_filler {
      type: "xavier"
    }
    bias_filler {
      type: "constant"
    }
    kernel_h: 6
    kernel_w: 3
  }
}
layer {
  name: "relu3"
  type: "ReLU"
  bottom: "conv3"
  top: "conv3"
}
layer {
  name: "pool3"
  type: "Pooling"
  bottom: "conv3"
  top: "pool3"
  pooling_param {
    pool: MAX
    kernel_h: 2
    kernel_w: 1
    stride_h: 2
    stride_w: 1
  }
}
layer {
  name: "conv4"
  type: "Convolution"
  bottom: "pool3"
  top: "conv4"
  convolution_param {
    num_output: 36
    pad: 0
    stride: 1
    weight_filler {
      type: "xavier"
    }
    bias_filler {
      type: "constant"
    }
    kernel_h: 6
    kernel_w: 3
  }
}
layer {
  name: "relu4"
  type: "ReLU"
  bottom: "conv4"
  top: "conv4"
}
layer {
  name: "pool4"
  type: "Pooling"
  bottom: "conv4"
  top: "pool4"
  pooling_param {
    pool: MAX
    kernel_h: 2
    kernel_w: 1
    stride_h: 2
    stride_w: 1
  }
}
layer {
  name: "ip1"
  type: "InnerProduct"
  bottom: "pool4"
  top: "ip1"
  inner_product_param {
    num_output: 196
    weight_filler {
      type: "xavier"
    }
    bias_filler {
      type: "constant"
    }
  }
}
layer {
  name: "relu5"
  type: "ReLU"
  bottom: "ip1"
  top: "ip1"
}
layer {
  name: "drop1"
  type: "Dropout"
  bottom: "ip1"
  top: "ip1"
  dropout_param {
    dropout_ratio: 0.5
  }
}
layer {
  name: "ip2"
  type: "InnerProduct"
  bottom: "ip1"
  top: "ip2"
  inner_product_param {
    num_output: 98
    weight_filler {
      type: "xavier"
    }
    bias_filler {
      type: "constant"
    }
  }
}
layer {
  name: "relu6"
  type: "ReLU"
  bottom: "ip2"
  top: "ip2"
}
layer {
  name: "drop2"
  type: "Dropout"
  bottom: "ip2"
  top: "ip2"
  dropout_param {
    dropout_ratio: 0.5
  }
}
layer {
  name: "ip3"
  type: "InnerProduct"
  bottom: "ip2"
  top: "ip3"
  inner_product_param {
    num_output: 11
    weight_filler {
      type: "xavier"
    }
    bias_filler {
      type: "constant"
    }
  }
}
layer {
  name: "drop3"
  type: "Dropout"
  bottom: "ip3"
  top: "ip3"
  dropout_param {
    dropout_ratio: 0.5
  }
}
layer {
  name: "accuracy"
  type: "Accuracy"
  bottom: "ip3"
  bottom: "label"
  top: "accuracy"
  include {
    phase: TEST
  }
}
layer {
  name: "loss"
  type: "SoftmaxWithLoss"
  bottom: "ip3"
  bottom: "label"
  top: "loss"
}
I0521 17:40:22.190696 12543 layer_factory.hpp:77] Creating layer data_hdf5
I0521 17:40:22.190711 12543 net.cpp:106] Creating Layer data_hdf5
I0521 17:40:22.190722 12543 net.cpp:411] data_hdf5 -> data
I0521 17:40:22.190739 12543 net.cpp:411] data_hdf5 -> label
I0521 17:40:22.190755 12543 hdf5_data_layer.cpp:79] Loading list of HDF5 filenames from: /lustre/atlas/proj-shared/hep105/caffe_titan/minosmatch_nukecczdefs_127x50_x_unshifted_me1Bmc.testlist
I0521 17:40:22.191993 12543 hdf5_data_layer.cpp:93] Number of HDF5 files: 3
I0521 17:40:43.511703 12543 net.cpp:150] Setting up data_hdf5
I0521 17:40:43.511885 12543 net.cpp:157] Top shape: 10 1 127 50 (63500)
I0521 17:40:43.511900 12543 net.cpp:157] Top shape: 10 (10)
I0521 17:40:43.511912 12543 net.cpp:165] Memory required for data: 254040
I0521 17:40:43.511925 12543 layer_factory.hpp:77] Creating layer label_data_hdf5_1_split
I0521 17:40:43.511955 12543 net.cpp:106] Creating Layer label_data_hdf5_1_split
I0521 17:40:43.511965 12543 net.cpp:454] label_data_hdf5_1_split <- label
I0521 17:40:43.511981 12543 net.cpp:411] label_data_hdf5_1_split -> label_data_hdf5_1_split_0
I0521 17:40:43.512002 12543 net.cpp:411] label_data_hdf5_1_split -> label_data_hdf5_1_split_1
I0521 17:40:43.512074 12543 net.cpp:150] Setting up label_data_hdf5_1_split
I0521 17:40:43.512089 12543 net.cpp:157] Top shape: 10 (10)
I0521 17:40:43.512100 12543 net.cpp:157] Top shape: 10 (10)
I0521 17:40:43.512109 12543 net.cpp:165] Memory required for data: 254120
I0521 17:40:43.512120 12543 layer_factory.hpp:77] Creating layer conv1
I0521 17:40:43.512142 12543 net.cpp:106] Creating Layer conv1
I0521 17:40:43.512152 12543 net.cpp:454] conv1 <- data
I0521 17:40:43.512167 12543 net.cpp:411] conv1 -> conv1
I0521 17:40:43.514144 12543 net.cpp:150] Setting up conv1
I0521 17:40:43.514168 12543 net.cpp:157] Top shape: 10 12 120 48 (691200)
I0521 17:40:43.514180 12543 net.cpp:165] Memory required for data: 3018920
I0521 17:40:43.514200 12543 layer_factory.hpp:77] Creating layer relu1
I0521 17:40:43.514215 12543 net.cpp:106] Creating Layer relu1
I0521 17:40:43.514225 12543 net.cpp:454] relu1 <- conv1
I0521 17:40:43.514237 12543 net.cpp:397] relu1 -> conv1 (in-place)
I0521 17:40:43.514750 12543 net.cpp:150] Setting up relu1
I0521 17:40:43.514765 12543 net.cpp:157] Top shape: 10 12 120 48 (691200)
I0521 17:40:43.514776 12543 net.cpp:165] Memory required for data: 5783720
I0521 17:40:43.514786 12543 layer_factory.hpp:77] Creating layer pool1
I0521 17:40:43.514802 12543 net.cpp:106] Creating Layer pool1
I0521 17:40:43.514812 12543 net.cpp:454] pool1 <- conv1
I0521 17:40:43.514825 12543 net.cpp:411] pool1 -> pool1
I0521 17:40:43.514900 12543 net.cpp:150] Setting up pool1
I0521 17:40:43.514914 12543 net.cpp:157] Top shape: 10 12 60 48 (345600)
I0521 17:40:43.514924 12543 net.cpp:165] Memory required for data: 7166120
I0521 17:40:43.514935 12543 layer_factory.hpp:77] Creating layer conv2
I0521 17:40:43.514951 12543 net.cpp:106] Creating Layer conv2
I0521 17:40:43.514961 12543 net.cpp:454] conv2 <- pool1
I0521 17:40:43.514976 12543 net.cpp:411] conv2 -> conv2
I0521 17:40:43.516896 12543 net.cpp:150] Setting up conv2
I0521 17:40:43.516918 12543 net.cpp:157] Top shape: 10 20 54 46 (496800)
I0521 17:40:43.516930 12543 net.cpp:165] Memory required for data: 9153320
I0521 17:40:43.516948 12543 layer_factory.hpp:77] Creating layer relu2
I0521 17:40:43.516963 12543 net.cpp:106] Creating Layer relu2
I0521 17:40:43.516973 12543 net.cpp:454] relu2 <- conv2
I0521 17:40:43.516985 12543 net.cpp:397] relu2 -> conv2 (in-place)
I0521 17:40:43.517319 12543 net.cpp:150] Setting up relu2
I0521 17:40:43.517333 12543 net.cpp:157] Top shape: 10 20 54 46 (496800)
I0521 17:40:43.517343 12543 net.cpp:165] Memory required for data: 11140520
I0521 17:40:43.517354 12543 layer_factory.hpp:77] Creating layer pool2
I0521 17:40:43.517367 12543 net.cpp:106] Creating Layer pool2
I0521 17:40:43.517376 12543 net.cpp:454] pool2 <- conv2
I0521 17:40:43.517390 12543 net.cpp:411] pool2 -> pool2
I0521 17:40:43.517462 12543 net.cpp:150] Setting up pool2
I0521 17:40:43.517475 12543 net.cpp:157] Top shape: 10 20 27 46 (248400)
I0521 17:40:43.517485 12543 net.cpp:165] Memory required for data: 12134120
I0521 17:40:43.517494 12543 layer_factory.hpp:77] Creating layer conv3
I0521 17:40:43.517513 12543 net.cpp:106] Creating Layer conv3
I0521 17:40:43.517524 12543 net.cpp:454] conv3 <- pool2
I0521 17:40:43.517537 12543 net.cpp:411] conv3 -> conv3
I0521 17:40:43.519551 12543 net.cpp:150] Setting up conv3
I0521 17:40:43.519572 12543 net.cpp:157] Top shape: 10 28 22 44 (271040)
I0521 17:40:43.519585 12543 net.cpp:165] Memory required for data: 13218280
I0521 17:40:43.519603 12543 layer_factory.hpp:77] Creating layer relu3
I0521 17:40:43.519630 12543 net.cpp:106] Creating Layer relu3
I0521 17:40:43.519640 12543 net.cpp:454] relu3 <- conv3
I0521 17:40:43.519654 12543 net.cpp:397] relu3 -> conv3 (in-place)
I0521 17:40:43.520126 12543 net.cpp:150] Setting up relu3
I0521 17:40:43.520143 12543 net.cpp:157] Top shape: 10 28 22 44 (271040)
I0521 17:40:43.520154 12543 net.cpp:165] Memory required for data: 14302440
I0521 17:40:43.520164 12543 layer_factory.hpp:77] Creating layer pool3
I0521 17:40:43.520177 12543 net.cpp:106] Creating Layer pool3
I0521 17:40:43.520186 12543 net.cpp:454] pool3 <- conv3
I0521 17:40:43.520200 12543 net.cpp:411] pool3 -> pool3
I0521 17:40:43.520272 12543 net.cpp:150] Setting up pool3
I0521 17:40:43.520285 12543 net.cpp:157] Top shape: 10 28 11 44 (135520)
I0521 17:40:43.520295 12543 net.cpp:165] Memory required for data: 14844520
I0521 17:40:43.520304 12543 layer_factory.hpp:77] Creating layer conv4
I0521 17:40:43.520323 12543 net.cpp:106] Creating Layer conv4
I0521 17:40:43.520334 12543 net.cpp:454] conv4 <- pool3
I0521 17:40:43.520349 12543 net.cpp:411] conv4 -> conv4
I0521 17:40:43.522416 12543 net.cpp:150] Setting up conv4
I0521 17:40:43.522439 12543 net.cpp:157] Top shape: 10 36 6 42 (90720)
I0521 17:40:43.522451 12543 net.cpp:165] Memory required for data: 15207400
I0521 17:40:43.522466 12543 layer_factory.hpp:77] Creating layer relu4
I0521 17:40:43.522480 12543 net.cpp:106] Creating Layer relu4
I0521 17:40:43.522490 12543 net.cpp:454] relu4 <- conv4
I0521 17:40:43.522502 12543 net.cpp:397] relu4 -> conv4 (in-place)
I0521 17:40:43.522970 12543 net.cpp:150] Setting up relu4
I0521 17:40:43.522986 12543 net.cpp:157] Top shape: 10 36 6 42 (90720)
I0521 17:40:43.522996 12543 net.cpp:165] Memory required for data: 15570280
I0521 17:40:43.523006 12543 layer_factory.hpp:77] Creating layer pool4
I0521 17:40:43.523020 12543 net.cpp:106] Creating Layer pool4
I0521 17:40:43.523030 12543 net.cpp:454] pool4 <- conv4
I0521 17:40:43.523043 12543 net.cpp:411] pool4 -> pool4
I0521 17:40:43.523114 12543 net.cpp:150] Setting up pool4
I0521 17:40:43.523128 12543 net.cpp:157] Top shape: 10 36 3 42 (45360)
I0521 17:40:43.523138 12543 net.cpp:165] Memory required for data: 15751720
I0521 17:40:43.523145 12543 layer_factory.hpp:77] Creating layer ip1
I0521 17:40:43.523161 12543 net.cpp:106] Creating Layer ip1
I0521 17:40:43.523171 12543 net.cpp:454] ip1 <- pool4
I0521 17:40:43.523185 12543 net.cpp:411] ip1 -> ip1
I0521 17:40:43.538642 12543 net.cpp:150] Setting up ip1
I0521 17:40:43.538671 12543 net.cpp:157] Top shape: 10 196 (1960)
I0521 17:40:43.538682 12543 net.cpp:165] Memory required for data: 15759560
I0521 17:40:43.538704 12543 layer_factory.hpp:77] Creating layer relu5
I0521 17:40:43.538719 12543 net.cpp:106] Creating Layer relu5
I0521 17:40:43.538730 12543 net.cpp:454] relu5 <- ip1
I0521 17:40:43.538743 12543 net.cpp:397] relu5 -> ip1 (in-place)
I0521 17:40:43.539091 12543 net.cpp:150] Setting up relu5
I0521 17:40:43.539105 12543 net.cpp:157] Top shape: 10 196 (1960)
I0521 17:40:43.539115 12543 net.cpp:165] Memory required for data: 15767400
I0521 17:40:43.539125 12543 layer_factory.hpp:77] Creating layer drop1
I0521 17:40:43.539144 12543 net.cpp:106] Creating Layer drop1
I0521 17:40:43.539154 12543 net.cpp:454] drop1 <- ip1
I0521 17:40:43.539166 12543 net.cpp:397] drop1 -> ip1 (in-place)
I0521 17:40:43.539211 12543 net.cpp:150] Setting up drop1
I0521 17:40:43.539223 12543 net.cpp:157] Top shape: 10 196 (1960)
I0521 17:40:43.539233 12543 net.cpp:165] Memory required for data: 15775240
I0521 17:40:43.539242 12543 layer_factory.hpp:77] Creating layer ip2
I0521 17:40:43.539257 12543 net.cpp:106] Creating Layer ip2
I0521 17:40:43.539266 12543 net.cpp:454] ip2 <- ip1
I0521 17:40:43.539280 12543 net.cpp:411] ip2 -> ip2
I0521 17:40:43.539758 12543 net.cpp:150] Setting up ip2
I0521 17:40:43.539772 12543 net.cpp:157] Top shape: 10 98 (980)
I0521 17:40:43.539782 12543 net.cpp:165] Memory required for data: 15779160
I0521 17:40:43.539796 12543 layer_factory.hpp:77] Creating layer relu6
I0521 17:40:43.539822 12543 net.cpp:106] Creating Layer relu6
I0521 17:40:43.539832 12543 net.cpp:454] relu6 <- ip2
I0521 17:40:43.539844 12543 net.cpp:397] relu6 -> ip2 (in-place)
I0521 17:40:43.540381 12543 net.cpp:150] Setting up relu6
I0521 17:40:43.540397 12543 net.cpp:157] Top shape: 10 98 (980)
I0521 17:40:43.540407 12543 net.cpp:165] Memory required for data: 15783080
I0521 17:40:43.540416 12543 layer_factory.hpp:77] Creating layer drop2
I0521 17:40:43.540431 12543 net.cpp:106] Creating Layer drop2
I0521 17:40:43.540441 12543 net.cpp:454] drop2 <- ip2
I0521 17:40:43.540453 12543 net.cpp:397] drop2 -> ip2 (in-place)
I0521 17:40:43.540498 12543 net.cpp:150] Setting up drop2
I0521 17:40:43.540510 12543 net.cpp:157] Top shape: 10 98 (980)
I0521 17:40:43.540520 12543 net.cpp:165] Memory required for data: 15787000
I0521 17:40:43.540529 12543 layer_factory.hpp:77] Creating layer ip3
I0521 17:40:43.540544 12543 net.cpp:106] Creating Layer ip3
I0521 17:40:43.540555 12543 net.cpp:454] ip3 <- ip2
I0521 17:40:43.540568 12543 net.cpp:411] ip3 -> ip3
I0521 17:40:43.540791 12543 net.cpp:150] Setting up ip3
I0521 17:40:43.540803 12543 net.cpp:157] Top shape: 10 11 (110)
I0521 17:40:43.540813 12543 net.cpp:165] Memory required for data: 15787440
I0521 17:40:43.540828 12543 layer_factory.hpp:77] Creating layer drop3
I0521 17:40:43.540841 12543 net.cpp:106] Creating Layer drop3
I0521 17:40:43.540851 12543 net.cpp:454] drop3 <- ip3
I0521 17:40:43.540864 12543 net.cpp:397] drop3 -> ip3 (in-place)
I0521 17:40:43.540905 12543 net.cpp:150] Setting up drop3
I0521 17:40:43.540918 12543 net.cpp:157] Top shape: 10 11 (110)
I0521 17:40:43.540928 12543 net.cpp:165] Memory required for data: 15787880
I0521 17:40:43.540938 12543 layer_factory.hpp:77] Creating layer ip3_drop3_0_split
I0521 17:40:43.540951 12543 net.cpp:106] Creating Layer ip3_drop3_0_split
I0521 17:40:43.540961 12543 net.cpp:454] ip3_drop3_0_split <- ip3
I0521 17:40:43.540974 12543 net.cpp:411] ip3_drop3_0_split -> ip3_drop3_0_split_0
I0521 17:40:43.540989 12543 net.cpp:411] ip3_drop3_0_split -> ip3_drop3_0_split_1
I0521 17:40:43.541062 12543 net.cpp:150] Setting up ip3_drop3_0_split
I0521 17:40:43.541075 12543 net.cpp:157] Top shape: 10 11 (110)
I0521 17:40:43.541087 12543 net.cpp:157] Top shape: 10 11 (110)
I0521 17:40:43.541098 12543 net.cpp:165] Memory required for data: 15788760
I0521 17:40:43.541108 12543 layer_factory.hpp:77] Creating layer accuracy
I0521 17:40:43.541131 12543 net.cpp:106] Creating Layer accuracy
I0521 17:40:43.541141 12543 net.cpp:454] accuracy <- ip3_drop3_0_split_0
I0521 17:40:43.541152 12543 net.cpp:454] accuracy <- label_data_hdf5_1_split_0
I0521 17:40:43.541167 12543 net.cpp:411] accuracy -> accuracy
…
