…
I0525 16:56:31.697428 21434 net.cpp:322] The NetState phase (0) differed from the phase (1) specified by a rule in layer data_hdf5
I0525 16:56:31.697487 21434 net.cpp:322] The NetState phase (0) differed from the phase (1) specified by a rule in layer accuracy
I0525 16:56:31.697830 21434 net.cpp:49] Initializing net from parameters: 
name: "caffe_test_127x50_x_unshifted"
state {
  phase: TRAIN
}
layer {
  name: "data_hdf5"
  type: "HDF5Data"
  top: "data"
  top: "label"
  include {
    phase: TRAIN
  }
  hdf5_data_param {
    source: "/lustre/atlas/proj-shared/hep105/caffe_titan/minosmatch_nukecczdefs_127x50_x_unshifted_me1Bmc.trainlist"
    batch_size: 100
  }
}
layer {
  name: "conv1"
  type: "Convolution"
  bottom: "data"
  top: "conv1"
  convolution_param {
    num_output: 12
    pad: 0
    stride: 1
    weight_filler {
      type: "xavier"
    }
    bias_filler {
      type: "constant"
    }
    kernel_h: 8
    kernel_w: 3
  }
}
layer {
  name: "relu1"
  type: "ReLU"
  bottom: "conv1"
  top: "conv1"
}
layer {
  name: "pool1"
  type: "Pooling"
  bottom: "conv1"
  top: "pool1"
  pooling_param {
    pool: MAX
    kernel_h: 2
    kernel_w: 1
    stride_h: 2
    stride_w: 1
  }
}
layer {
  name: "conv2"
  type: "Convolution"
  bottom: "pool1"
  top: "conv2"
  convolution_param {
    num_output: 20
    pad: 0
    stride: 1
    weight_filler {
      type: "xavier"
    }
    bias_filler {
      type: "constant"
    }
    kernel_h: 7
    kernel_w: 3
  }
}
layer {
  name: "relu2"
  type: "ReLU"
  bottom: "conv2"
  top: "conv2"
}
layer {
  name: "pool2"
  type: "Pooling"
  bottom: "conv2"
  top: "pool2"
  pooling_param {
    pool: MAX
    kernel_h: 2
    kernel_w: 1
    stride_h: 2
    stride_w: 1
  }
}
layer {
  name: "conv3"
  type: "Convolution"
  bottom: "pool2"
  top: "conv3"
  convolution_param {
    num_output: 28
    pad: 0
    stride: 1
    weight_filler {
      type: "xavier"
    }
    bias_filler {
      type: "constant"
    }
    kernel_h: 6
    kernel_w: 3
  }
}
layer {
  name: "relu3"
  type: "ReLU"
  bottom: "conv3"
  top: "conv3"
}
layer {
  name: "pool3"
  type: "Pooling"
  bottom: "conv3"
  top: "pool3"
  pooling_param {
    pool: MAX
    kernel_h: 2
    kernel_w: 1
    stride_h: 2
    stride_w: 1
  }
}
layer {
  name: "conv4"
  type: "Convolution"
  bottom: "pool3"
  top: "conv4"
  convolution_param {
    num_output: 36
    pad: 0
    stride: 1
    weight_filler {
      type: "xavier"
    }
    bias_filler {
      type: "constant"
    }
    kernel_h: 6
    kernel_w: 3
  }
}
layer {
  name: "relu4"
  type: "ReLU"
  bottom: "conv4"
  top: "conv4"
}
layer {
  name: "pool4"
  type: "Pooling"
  bottom: "conv4"
  top: "pool4"
  pooling_param {
    pool: MAX
    kernel_h: 2
    kernel_w: 1
    stride_h: 2
    stride_w: 1
  }
}
layer {
  name: "ip1"
  type: "InnerProduct"
  bottom: "pool4"
  top: "ip1"
  inner_product_param {
    num_output: 196
    weight_filler {
      type: "xavier"
    }
    bias_filler {
      type: "constant"
    }
  }
}
layer {
  name: "relu5"
  type: "ReLU"
  bottom: "ip1"
  top: "ip1"
}
layer {
  name: "drop1"
  type: "Dropout"
  bottom: "ip1"
  top: "ip1"
  dropout_param {
    dropout_ratio: 0.5
  }
}
layer {
  name: "ip2"
  type: "InnerProduct"
  bottom: "ip1"
  top: "ip2"
  inner_product_param {
    num_output: 98
    weight_filler {
      type: "xavier"
    }
    bias_filler {
      type: "constant"
    }
  }
}
layer {
  name: "relu6"
  type: "ReLU"
  bottom: "ip2"
  top: "ip2"
}
layer {
  name: "drop2"
  type: "Dropout"
  bottom: "ip2"
  top: "ip2"
  dropout_param {
    dropout_ratio: 0.5
  }
}
layer {
  name: "ip3"
  type: "InnerProduct"
  bottom: "ip2"
  top: "ip3"
  inner_product_param {
    num_output: 11
    weight_filler {
      type: "xavier"
    }
    bias_filler {
      type: "constant"
    }
  }
}
layer {
  name: "drop3"
  type: "Dropout"
  bottom: "ip3"
  top: "ip3"
  dropout_param {
    dropout_ratio: 0.5
  }
}
layer {
  name: "loss"
  type: "SoftmaxWithLoss"
  bottom: "ip3"
  bottom: "label"
  top: "loss"
}
I0525 16:56:31.698012 21434 layer_factory.hpp:77] Creating layer data_hdf5
I0525 16:56:31.698036 21434 net.cpp:106] Creating Layer data_hdf5
I0525 16:56:31.698050 21434 net.cpp:411] data_hdf5 -> data
I0525 16:56:31.698083 21434 net.cpp:411] data_hdf5 -> label
I0525 16:56:31.698117 21434 hdf5_data_layer.cpp:79] Loading list of HDF5 filenames from: /lustre/atlas/proj-shared/hep105/caffe_titan/minosmatch_nukecczdefs_127x50_x_unshifted_me1Bmc.trainlist
I0525 16:56:31.699421 21434 hdf5_data_layer.cpp:93] Number of HDF5 files: 15
I0525 16:56:31.701577 21434 hdf5.cpp:32] Datatype class: H5T_FLOAT
I0525 16:56:53.192419 21434 hdf5.cpp:35] Datatype class: H5T_INTEGER
I0525 16:56:53.197576 21434 net.cpp:150] Setting up data_hdf5
I0525 16:56:53.197615 21434 net.cpp:157] Top shape: 100 1 127 50 (635000)
I0525 16:56:53.197630 21434 net.cpp:157] Top shape: 100 (100)
I0525 16:56:53.197643 21434 net.cpp:165] Memory required for data: 2540400
I0525 16:56:53.197657 21434 layer_factory.hpp:77] Creating layer conv1
I0525 16:56:53.197690 21434 net.cpp:106] Creating Layer conv1
I0525 16:56:53.197701 21434 net.cpp:454] conv1 <- data
I0525 16:56:53.197721 21434 net.cpp:411] conv1 -> conv1
I0525 16:56:53.575520 21434 net.cpp:150] Setting up conv1
I0525 16:56:53.575567 21434 net.cpp:157] Top shape: 100 12 120 48 (6912000)
I0525 16:56:53.575577 21434 net.cpp:165] Memory required for data: 30188400
I0525 16:56:53.575605 21434 layer_factory.hpp:77] Creating layer relu1
I0525 16:56:53.575628 21434 net.cpp:106] Creating Layer relu1
I0525 16:56:53.575639 21434 net.cpp:454] relu1 <- conv1
I0525 16:56:53.575651 21434 net.cpp:397] relu1 -> conv1 (in-place)
I0525 16:56:53.576164 21434 net.cpp:150] Setting up relu1
I0525 16:56:53.576181 21434 net.cpp:157] Top shape: 100 12 120 48 (6912000)
I0525 16:56:53.576192 21434 net.cpp:165] Memory required for data: 57836400
I0525 16:56:53.576202 21434 layer_factory.hpp:77] Creating layer pool1
I0525 16:56:53.576220 21434 net.cpp:106] Creating Layer pool1
I0525 16:56:53.576230 21434 net.cpp:454] pool1 <- conv1
I0525 16:56:53.576243 21434 net.cpp:411] pool1 -> pool1
I0525 16:56:53.576323 21434 net.cpp:150] Setting up pool1
I0525 16:56:53.576338 21434 net.cpp:157] Top shape: 100 12 60 48 (3456000)
I0525 16:56:53.576349 21434 net.cpp:165] Memory required for data: 71660400
I0525 16:56:53.576359 21434 layer_factory.hpp:77] Creating layer conv2
I0525 16:56:53.576381 21434 net.cpp:106] Creating Layer conv2
I0525 16:56:53.576391 21434 net.cpp:454] conv2 <- pool1
I0525 16:56:53.576405 21434 net.cpp:411] conv2 -> conv2
I0525 16:56:53.579104 21434 net.cpp:150] Setting up conv2
I0525 16:56:53.579146 21434 net.cpp:157] Top shape: 100 20 54 46 (4968000)
I0525 16:56:53.579157 21434 net.cpp:165] Memory required for data: 91532400
I0525 16:56:53.579179 21434 layer_factory.hpp:77] Creating layer relu2
I0525 16:56:53.579191 21434 net.cpp:106] Creating Layer relu2
I0525 16:56:53.579202 21434 net.cpp:454] relu2 <- conv2
I0525 16:56:53.579216 21434 net.cpp:397] relu2 -> conv2 (in-place)
I0525 16:56:53.579547 21434 net.cpp:150] Setting up relu2
I0525 16:56:53.579561 21434 net.cpp:157] Top shape: 100 20 54 46 (4968000)
I0525 16:56:53.579572 21434 net.cpp:165] Memory required for data: 111404400
I0525 16:56:53.579582 21434 layer_factory.hpp:77] Creating layer pool2
I0525 16:56:53.579594 21434 net.cpp:106] Creating Layer pool2
I0525 16:56:53.579604 21434 net.cpp:454] pool2 <- conv2
I0525 16:56:53.579617 21434 net.cpp:411] pool2 -> pool2
I0525 16:56:53.579699 21434 net.cpp:150] Setting up pool2
I0525 16:56:53.579712 21434 net.cpp:157] Top shape: 100 20 27 46 (2484000)
I0525 16:56:53.579722 21434 net.cpp:165] Memory required for data: 121340400
I0525 16:56:53.579730 21434 layer_factory.hpp:77] Creating layer conv3
I0525 16:56:53.579748 21434 net.cpp:106] Creating Layer conv3
I0525 16:56:53.579759 21434 net.cpp:454] conv3 <- pool2
I0525 16:56:53.579772 21434 net.cpp:411] conv3 -> conv3
I0525 16:56:53.581694 21434 net.cpp:150] Setting up conv3
I0525 16:56:53.581717 21434 net.cpp:157] Top shape: 100 28 22 44 (2710400)
I0525 16:56:53.581730 21434 net.cpp:165] Memory required for data: 132182000
I0525 16:56:53.581748 21434 layer_factory.hpp:77] Creating layer relu3
I0525 16:56:53.581764 21434 net.cpp:106] Creating Layer relu3
I0525 16:56:53.581774 21434 net.cpp:454] relu3 <- conv3
I0525 16:56:53.581787 21434 net.cpp:397] relu3 -> conv3 (in-place)
I0525 16:56:53.582257 21434 net.cpp:150] Setting up relu3
I0525 16:56:53.582274 21434 net.cpp:157] Top shape: 100 28 22 44 (2710400)
I0525 16:56:53.582284 21434 net.cpp:165] Memory required for data: 143023600
I0525 16:56:53.582294 21434 layer_factory.hpp:77] Creating layer pool3
I0525 16:56:53.582307 21434 net.cpp:106] Creating Layer pool3
I0525 16:56:53.582317 21434 net.cpp:454] pool3 <- conv3
I0525 16:56:53.582330 21434 net.cpp:411] pool3 -> pool3
I0525 16:56:53.582397 21434 net.cpp:150] Setting up pool3
I0525 16:56:53.582411 21434 net.cpp:157] Top shape: 100 28 11 44 (1355200)
I0525 16:56:53.582420 21434 net.cpp:165] Memory required for data: 148444400
I0525 16:56:53.582428 21434 layer_factory.hpp:77] Creating layer conv4
I0525 16:56:53.582445 21434 net.cpp:106] Creating Layer conv4
I0525 16:56:53.582456 21434 net.cpp:454] conv4 <- pool3
I0525 16:56:53.582469 21434 net.cpp:411] conv4 -> conv4
I0525 16:56:53.585400 21434 net.cpp:150] Setting up conv4
I0525 16:56:53.585424 21434 net.cpp:157] Top shape: 100 36 6 42 (907200)
I0525 16:56:53.585436 21434 net.cpp:165] Memory required for data: 152073200
I0525 16:56:53.585451 21434 layer_factory.hpp:77] Creating layer relu4
I0525 16:56:53.585465 21434 net.cpp:106] Creating Layer relu4
I0525 16:56:53.585475 21434 net.cpp:454] relu4 <- conv4
I0525 16:56:53.585489 21434 net.cpp:397] relu4 -> conv4 (in-place)
I0525 16:56:53.585952 21434 net.cpp:150] Setting up relu4
I0525 16:56:53.585968 21434 net.cpp:157] Top shape: 100 36 6 42 (907200)
I0525 16:56:53.585979 21434 net.cpp:165] Memory required for data: 155702000
I0525 16:56:53.585989 21434 layer_factory.hpp:77] Creating layer pool4
I0525 16:56:53.586001 21434 net.cpp:106] Creating Layer pool4
I0525 16:56:53.586011 21434 net.cpp:454] pool4 <- conv4
I0525 16:56:53.586024 21434 net.cpp:411] pool4 -> pool4
I0525 16:56:53.586092 21434 net.cpp:150] Setting up pool4
I0525 16:56:53.586107 21434 net.cpp:157] Top shape: 100 36 3 42 (453600)
I0525 16:56:53.586115 21434 net.cpp:165] Memory required for data: 157516400
I0525 16:56:53.586125 21434 layer_factory.hpp:77] Creating layer ip1
I0525 16:56:53.586145 21434 net.cpp:106] Creating Layer ip1
I0525 16:56:53.586155 21434 net.cpp:454] ip1 <- pool4
I0525 16:56:53.586169 21434 net.cpp:411] ip1 -> ip1
I0525 16:56:53.601554 21434 net.cpp:150] Setting up ip1
I0525 16:56:53.601583 21434 net.cpp:157] Top shape: 100 196 (19600)
I0525 16:56:53.601594 21434 net.cpp:165] Memory required for data: 157594800
I0525 16:56:53.601616 21434 layer_factory.hpp:77] Creating layer relu5
I0525 16:56:53.601630 21434 net.cpp:106] Creating Layer relu5
I0525 16:56:53.601640 21434 net.cpp:454] relu5 <- ip1
I0525 16:56:53.601655 21434 net.cpp:397] relu5 -> ip1 (in-place)
I0525 16:56:53.601995 21434 net.cpp:150] Setting up relu5
I0525 16:56:53.602010 21434 net.cpp:157] Top shape: 100 196 (19600)
I0525 16:56:53.602020 21434 net.cpp:165] Memory required for data: 157673200
I0525 16:56:53.602030 21434 layer_factory.hpp:77] Creating layer drop1
I0525 16:56:53.602051 21434 net.cpp:106] Creating Layer drop1
I0525 16:56:53.602061 21434 net.cpp:454] drop1 <- ip1
I0525 16:56:53.602073 21434 net.cpp:397] drop1 -> ip1 (in-place)
I0525 16:56:53.602131 21434 net.cpp:150] Setting up drop1
I0525 16:56:53.602145 21434 net.cpp:157] Top shape: 100 196 (19600)
I0525 16:56:53.602155 21434 net.cpp:165] Memory required for data: 157751600
I0525 16:56:53.602164 21434 layer_factory.hpp:77] Creating layer ip2
I0525 16:56:53.602183 21434 net.cpp:106] Creating Layer ip2
I0525 16:56:53.602193 21434 net.cpp:454] ip2 <- ip1
I0525 16:56:53.602206 21434 net.cpp:411] ip2 -> ip2
I0525 16:56:53.602670 21434 net.cpp:150] Setting up ip2
I0525 16:56:53.602684 21434 net.cpp:157] Top shape: 100 98 (9800)
I0525 16:56:53.602694 21434 net.cpp:165] Memory required for data: 157790800
I0525 16:56:53.602708 21434 layer_factory.hpp:77] Creating layer relu6
I0525 16:56:53.602722 21434 net.cpp:106] Creating Layer relu6
I0525 16:56:53.602731 21434 net.cpp:454] relu6 <- ip2
I0525 16:56:53.602743 21434 net.cpp:397] relu6 -> ip2 (in-place)
I0525 16:56:53.603272 21434 net.cpp:150] Setting up relu6
I0525 16:56:53.603288 21434 net.cpp:157] Top shape: 100 98 (9800)
I0525 16:56:53.603298 21434 net.cpp:165] Memory required for data: 157830000
I0525 16:56:53.603308 21434 layer_factory.hpp:77] Creating layer drop2
I0525 16:56:53.603322 21434 net.cpp:106] Creating Layer drop2
I0525 16:56:53.603332 21434 net.cpp:454] drop2 <- ip2
I0525 16:56:53.603344 21434 net.cpp:397] drop2 -> ip2 (in-place)
I0525 16:56:53.603386 21434 net.cpp:150] Setting up drop2
I0525 16:56:53.603399 21434 net.cpp:157] Top shape: 100 98 (9800)
I0525 16:56:53.603410 21434 net.cpp:165] Memory required for data: 157869200
I0525 16:56:53.603420 21434 layer_factory.hpp:77] Creating layer ip3
I0525 16:56:53.603432 21434 net.cpp:106] Creating Layer ip3
I0525 16:56:53.603443 21434 net.cpp:454] ip3 <- ip2
I0525 16:56:53.603456 21434 net.cpp:411] ip3 -> ip3
I0525 16:56:53.603664 21434 net.cpp:150] Setting up ip3
I0525 16:56:53.603677 21434 net.cpp:157] Top shape: 100 11 (1100)
I0525 16:56:53.603688 21434 net.cpp:165] Memory required for data: 157873600
I0525 16:56:53.603703 21434 layer_factory.hpp:77] Creating layer drop3
I0525 16:56:53.603715 21434 net.cpp:106] Creating Layer drop3
I0525 16:56:53.603725 21434 net.cpp:454] drop3 <- ip3
I0525 16:56:53.603736 21434 net.cpp:397] drop3 -> ip3 (in-place)
I0525 16:56:53.603776 21434 net.cpp:150] Setting up drop3
I0525 16:56:53.603788 21434 net.cpp:157] Top shape: 100 11 (1100)
I0525 16:56:53.603799 21434 net.cpp:165] Memory required for data: 157878000
I0525 16:56:53.603809 21434 layer_factory.hpp:77] Creating layer loss
I0525 16:56:53.603828 21434 net.cpp:106] Creating Layer loss
I0525 16:56:53.603837 21434 net.cpp:454] loss <- ip3
I0525 16:56:53.603847 21434 net.cpp:454] loss <- label
I0525 16:56:53.603860 21434 net.cpp:411] loss -> loss
I0525 16:56:53.603878 21434 layer_factory.hpp:77] Creating layer loss
…
I0525 16:56:53.606626 21434 solver.cpp:181] Creating test net (#0) specified by net file: /lustre/atlas/proj-shared/hep105/caffe_titan/caffe_workflow/logs_bslr/bs_100_lr_0.0025_2016-05-20T15.49.25.489346.prototxt
I0525 16:56:53.606698 21434 net.cpp:322] The NetState phase (1) differed from the phase (0) specified by a rule in layer data_hdf5
I0525 16:56:53.607053 21434 net.cpp:49] Initializing net from parameters: 
name: "caffe_test_127x50_x_unshifted"
state {
  phase: TEST
}
layer {
  name: "data_hdf5"
  type: "HDF5Data"
  top: "data"
  top: "label"
  include {
    phase: TEST
  }
  hdf5_data_param {
    source: "/lustre/atlas/proj-shared/hep105/caffe_titan/minosmatch_nukecczdefs_127x50_x_unshifted_me1Bmc.testlist"
    batch_size: 100
  }
}
layer {
  name: "conv1"
  type: "Convolution"
  bottom: "data"
  top: "conv1"
  convolution_param {
    num_output: 12
    pad: 0
    stride: 1
    weight_filler {
      type: "xavier"
    }
    bias_filler {
      type: "constant"
    }
    kernel_h: 8
    kernel_w: 3
  }
}
layer {
  name: "relu1"
  type: "ReLU"
  bottom: "conv1"
  top: "conv1"
}
layer {
  name: "pool1"
  type: "Pooling"
  bottom: "conv1"
  top: "pool1"
  pooling_param {
    pool: MAX
    kernel_h: 2
    kernel_w: 1
    stride_h: 2
    stride_w: 1
  }
}
layer {
  name: "conv2"
  type: "Convolution"
  bottom: "pool1"
  top: "conv2"
  convolution_param {
    num_output: 20
    pad: 0
    stride: 1
    weight_filler {
      type: "xavier"
    }
    bias_filler {
      type: "constant"
    }
    kernel_h: 7
    kernel_w: 3
  }
}
layer {
  name: "relu2"
  type: "ReLU"
  bottom: "conv2"
  top: "conv2"
}
layer {
  name: "pool2"
  type: "Pooling"
  bottom: "conv2"
  top: "pool2"
  pooling_param {
    pool: MAX
    kernel_h: 2
    kernel_w: 1
    stride_h: 2
    stride_w: 1
  }
}
layer {
  name: "conv3"
  type: "Convolution"
  bottom: "pool2"
  top: "conv3"
  convolution_param {
    num_output: 28
    pad: 0
    stride: 1
    weight_filler {
      type: "xavier"
    }
    bias_filler {
      type: "constant"
    }
    kernel_h: 6
    kernel_w: 3
  }
}
layer {
  name: "relu3"
  type: "ReLU"
  bottom: "conv3"
  top: "conv3"
}
layer {
  name: "pool3"
  type: "Pooling"
  bottom: "conv3"
  top: "pool3"
  pooling_param {
    pool: MAX
    kernel_h: 2
    kernel_w: 1
    stride_h: 2
    stride_w: 1
  }
}
layer {
  name: "conv4"
  type: "Convolution"
  bottom: "pool3"
  top: "conv4"
  convolution_param {
    num_output: 36
    pad: 0
    stride: 1
    weight_filler {
      type: "xavier"
    }
    bias_filler {
      type: "constant"
    }
    kernel_h: 6
    kernel_w: 3
  }
}
layer {
  name: "relu4"
  type: "ReLU"
  bottom: "conv4"
  top: "conv4"
}
layer {
  name: "pool4"
  type: "Pooling"
  bottom: "conv4"
  top: "pool4"
  pooling_param {
    pool: MAX
    kernel_h: 2
    kernel_w: 1
    stride_h: 2
    stride_w: 1
  }
}
layer {
  name: "ip1"
  type: "InnerProduct"
  bottom: "pool4"
  top: "ip1"
  inner_product_param {
    num_output: 196
    weight_filler {
      type: "xavier"
    }
    bias_filler {
      type: "constant"
    }
  }
}
layer {
  name: "relu5"
  type: "ReLU"
  bottom: "ip1"
  top: "ip1"
}
layer {
  name: "drop1"
  type: "Dropout"
  bottom: "ip1"
  top: "ip1"
  dropout_param {
    dropout_ratio: 0.5
  }
}
layer {
  name: "ip2"
  type: "InnerProduct"
  bottom: "ip1"
  top: "ip2"
  inner_product_param {
    num_output: 98
    weight_filler {
      type: "xavier"
    }
    bias_filler {
      type: "constant"
    }
  }
}
layer {
  name: "relu6"
  type: "ReLU"
  bottom: "ip2"
  top: "ip2"
}
layer {
  name: "drop2"
  type: "Dropout"
  bottom: "ip2"
  top: "ip2"
  dropout_param {
    dropout_ratio: 0.5
  }
}
layer {
  name: "ip3"
  type: "InnerProduct"
  bottom: "ip2"
  top: "ip3"
  inner_product_param {
    num_output: 11
    weight_filler {
      type: "xavier"
    }
    bias_filler {
      type: "constant"
    }
  }
}
layer {
  name: "drop3"
  type: "Dropout"
  bottom: "ip3"
  top: "ip3"
  dropout_param {
    dropout_ratio: 0.5
  }
}
layer {
  name: "accuracy"
  type: "Accuracy"
  bottom: "ip3"
  bottom: "label"
  top: "accuracy"
  include {
    phase: TEST
  }
}
layer {
  name: "loss"
  type: "SoftmaxWithLoss"
  bottom: "ip3"
  bottom: "label"
  top: "loss"
}
I0525 16:56:53.607256 21434 layer_factory.hpp:77] Creating layer data_hdf5
I0525 16:56:53.607271 21434 net.cpp:106] Creating Layer data_hdf5
I0525 16:56:53.607283 21434 net.cpp:411] data_hdf5 -> data
I0525 16:56:53.607300 21434 net.cpp:411] data_hdf5 -> label
I0525 16:56:53.607316 21434 hdf5_data_layer.cpp:79] Loading list of HDF5 filenames from: /lustre/atlas/proj-shared/hep105/caffe_titan/minosmatch_nukecczdefs_127x50_x_unshifted_me1Bmc.testlist
I0525 16:56:53.608705 21434 hdf5_data_layer.cpp:93] Number of HDF5 files: 3
I0525 16:57:14.944720 21434 net.cpp:150] Setting up data_hdf5
I0525 16:57:14.944887 21434 net.cpp:157] Top shape: 100 1 127 50 (635000)
I0525 16:57:14.944902 21434 net.cpp:157] Top shape: 100 (100)
I0525 16:57:14.944914 21434 net.cpp:165] Memory required for data: 2540400
I0525 16:57:14.944928 21434 layer_factory.hpp:77] Creating layer label_data_hdf5_1_split
I0525 16:57:14.944957 21434 net.cpp:106] Creating Layer label_data_hdf5_1_split
I0525 16:57:14.944968 21434 net.cpp:454] label_data_hdf5_1_split <- label
I0525 16:57:14.944983 21434 net.cpp:411] label_data_hdf5_1_split -> label_data_hdf5_1_split_0
I0525 16:57:14.945004 21434 net.cpp:411] label_data_hdf5_1_split -> label_data_hdf5_1_split_1
I0525 16:57:14.945077 21434 net.cpp:150] Setting up label_data_hdf5_1_split
I0525 16:57:14.945092 21434 net.cpp:157] Top shape: 100 (100)
I0525 16:57:14.945103 21434 net.cpp:157] Top shape: 100 (100)
I0525 16:57:14.945113 21434 net.cpp:165] Memory required for data: 2541200
I0525 16:57:14.945123 21434 layer_factory.hpp:77] Creating layer conv1
I0525 16:57:14.945142 21434 net.cpp:106] Creating Layer conv1
I0525 16:57:14.945153 21434 net.cpp:454] conv1 <- data
I0525 16:57:14.945168 21434 net.cpp:411] conv1 -> conv1
I0525 16:57:14.947131 21434 net.cpp:150] Setting up conv1
I0525 16:57:14.947154 21434 net.cpp:157] Top shape: 100 12 120 48 (6912000)
I0525 16:57:14.947167 21434 net.cpp:165] Memory required for data: 30189200
I0525 16:57:14.947187 21434 layer_factory.hpp:77] Creating layer relu1
I0525 16:57:14.947201 21434 net.cpp:106] Creating Layer relu1
I0525 16:57:14.947211 21434 net.cpp:454] relu1 <- conv1
I0525 16:57:14.947224 21434 net.cpp:397] relu1 -> conv1 (in-place)
I0525 16:57:14.947723 21434 net.cpp:150] Setting up relu1
I0525 16:57:14.947739 21434 net.cpp:157] Top shape: 100 12 120 48 (6912000)
I0525 16:57:14.947749 21434 net.cpp:165] Memory required for data: 57837200
I0525 16:57:14.947759 21434 layer_factory.hpp:77] Creating layer pool1
I0525 16:57:14.947775 21434 net.cpp:106] Creating Layer pool1
I0525 16:57:14.947785 21434 net.cpp:454] pool1 <- conv1
I0525 16:57:14.947798 21434 net.cpp:411] pool1 -> pool1
I0525 16:57:14.947873 21434 net.cpp:150] Setting up pool1
I0525 16:57:14.947887 21434 net.cpp:157] Top shape: 100 12 60 48 (3456000)
I0525 16:57:14.947897 21434 net.cpp:165] Memory required for data: 71661200
I0525 16:57:14.947907 21434 layer_factory.hpp:77] Creating layer conv2
I0525 16:57:14.947926 21434 net.cpp:106] Creating Layer conv2
I0525 16:57:14.947935 21434 net.cpp:454] conv2 <- pool1
I0525 16:57:14.947948 21434 net.cpp:411] conv2 -> conv2
I0525 16:57:14.949862 21434 net.cpp:150] Setting up conv2
I0525 16:57:14.949884 21434 net.cpp:157] Top shape: 100 20 54 46 (4968000)
I0525 16:57:14.949898 21434 net.cpp:165] Memory required for data: 91533200
I0525 16:57:14.949914 21434 layer_factory.hpp:77] Creating layer relu2
I0525 16:57:14.949928 21434 net.cpp:106] Creating Layer relu2
I0525 16:57:14.949939 21434 net.cpp:454] relu2 <- conv2
I0525 16:57:14.949951 21434 net.cpp:397] relu2 -> conv2 (in-place)
I0525 16:57:14.950286 21434 net.cpp:150] Setting up relu2
I0525 16:57:14.950300 21434 net.cpp:157] Top shape: 100 20 54 46 (4968000)
I0525 16:57:14.950310 21434 net.cpp:165] Memory required for data: 111405200
I0525 16:57:14.950320 21434 layer_factory.hpp:77] Creating layer pool2
I0525 16:57:14.950335 21434 net.cpp:106] Creating Layer pool2
I0525 16:57:14.950345 21434 net.cpp:454] pool2 <- conv2
I0525 16:57:14.950356 21434 net.cpp:411] pool2 -> pool2
I0525 16:57:14.950428 21434 net.cpp:150] Setting up pool2
I0525 16:57:14.950443 21434 net.cpp:157] Top shape: 100 20 27 46 (2484000)
I0525 16:57:14.950451 21434 net.cpp:165] Memory required for data: 121341200
I0525 16:57:14.950461 21434 layer_factory.hpp:77] Creating layer conv3
I0525 16:57:14.950481 21434 net.cpp:106] Creating Layer conv3
I0525 16:57:14.950491 21434 net.cpp:454] conv3 <- pool2
I0525 16:57:14.950505 21434 net.cpp:411] conv3 -> conv3
I0525 16:57:14.952494 21434 net.cpp:150] Setting up conv3
I0525 16:57:14.952512 21434 net.cpp:157] Top shape: 100 28 22 44 (2710400)
I0525 16:57:14.952527 21434 net.cpp:165] Memory required for data: 132182800
I0525 16:57:14.952560 21434 layer_factory.hpp:77] Creating layer relu3
I0525 16:57:14.952574 21434 net.cpp:106] Creating Layer relu3
I0525 16:57:14.952584 21434 net.cpp:454] relu3 <- conv3
I0525 16:57:14.952594 21434 net.cpp:397] relu3 -> conv3 (in-place)
I0525 16:57:14.953065 21434 net.cpp:150] Setting up relu3
I0525 16:57:14.953081 21434 net.cpp:157] Top shape: 100 28 22 44 (2710400)
I0525 16:57:14.953090 21434 net.cpp:165] Memory required for data: 143024400
I0525 16:57:14.953100 21434 layer_factory.hpp:77] Creating layer pool3
I0525 16:57:14.953114 21434 net.cpp:106] Creating Layer pool3
I0525 16:57:14.953124 21434 net.cpp:454] pool3 <- conv3
I0525 16:57:14.953136 21434 net.cpp:411] pool3 -> pool3
I0525 16:57:14.953207 21434 net.cpp:150] Setting up pool3
I0525 16:57:14.953220 21434 net.cpp:157] Top shape: 100 28 11 44 (1355200)
I0525 16:57:14.953230 21434 net.cpp:165] Memory required for data: 148445200
I0525 16:57:14.953240 21434 layer_factory.hpp:77] Creating layer conv4
I0525 16:57:14.953255 21434 net.cpp:106] Creating Layer conv4
I0525 16:57:14.953266 21434 net.cpp:454] conv4 <- pool3
I0525 16:57:14.953280 21434 net.cpp:411] conv4 -> conv4
I0525 16:57:14.955359 21434 net.cpp:150] Setting up conv4
I0525 16:57:14.955380 21434 net.cpp:157] Top shape: 100 36 6 42 (907200)
I0525 16:57:14.955394 21434 net.cpp:165] Memory required for data: 152074000
I0525 16:57:14.955410 21434 layer_factory.hpp:77] Creating layer relu4
I0525 16:57:14.955422 21434 net.cpp:106] Creating Layer relu4
I0525 16:57:14.955432 21434 net.cpp:454] relu4 <- conv4
I0525 16:57:14.955446 21434 net.cpp:397] relu4 -> conv4 (in-place)
I0525 16:57:14.955916 21434 net.cpp:150] Setting up relu4
I0525 16:57:14.955932 21434 net.cpp:157] Top shape: 100 36 6 42 (907200)
I0525 16:57:14.955942 21434 net.cpp:165] Memory required for data: 155702800
I0525 16:57:14.955952 21434 layer_factory.hpp:77] Creating layer pool4
I0525 16:57:14.955965 21434 net.cpp:106] Creating Layer pool4
I0525 16:57:14.955976 21434 net.cpp:454] pool4 <- conv4
I0525 16:57:14.955988 21434 net.cpp:411] pool4 -> pool4
I0525 16:57:14.956059 21434 net.cpp:150] Setting up pool4
I0525 16:57:14.956073 21434 net.cpp:157] Top shape: 100 36 3 42 (453600)
I0525 16:57:14.956082 21434 net.cpp:165] Memory required for data: 157517200
I0525 16:57:14.956091 21434 layer_factory.hpp:77] Creating layer ip1
I0525 16:57:14.956105 21434 net.cpp:106] Creating Layer ip1
I0525 16:57:14.956116 21434 net.cpp:454] ip1 <- pool4
I0525 16:57:14.956130 21434 net.cpp:411] ip1 -> ip1
I0525 16:57:14.971581 21434 net.cpp:150] Setting up ip1
I0525 16:57:14.971608 21434 net.cpp:157] Top shape: 100 196 (19600)
I0525 16:57:14.971621 21434 net.cpp:165] Memory required for data: 157595600
I0525 16:57:14.971643 21434 layer_factory.hpp:77] Creating layer relu5
I0525 16:57:14.971657 21434 net.cpp:106] Creating Layer relu5
I0525 16:57:14.971668 21434 net.cpp:454] relu5 <- ip1
I0525 16:57:14.971681 21434 net.cpp:397] relu5 -> ip1 (in-place)
I0525 16:57:14.972030 21434 net.cpp:150] Setting up relu5
I0525 16:57:14.972043 21434 net.cpp:157] Top shape: 100 196 (19600)
I0525 16:57:14.972054 21434 net.cpp:165] Memory required for data: 157674000
I0525 16:57:14.972064 21434 layer_factory.hpp:77] Creating layer drop1
I0525 16:57:14.972082 21434 net.cpp:106] Creating Layer drop1
I0525 16:57:14.972091 21434 net.cpp:454] drop1 <- ip1
I0525 16:57:14.972105 21434 net.cpp:397] drop1 -> ip1 (in-place)
I0525 16:57:14.972149 21434 net.cpp:150] Setting up drop1
I0525 16:57:14.972162 21434 net.cpp:157] Top shape: 100 196 (19600)
I0525 16:57:14.972172 21434 net.cpp:165] Memory required for data: 157752400
I0525 16:57:14.972180 21434 layer_factory.hpp:77] Creating layer ip2
I0525 16:57:14.972195 21434 net.cpp:106] Creating Layer ip2
I0525 16:57:14.972205 21434 net.cpp:454] ip2 <- ip1
I0525 16:57:14.972218 21434 net.cpp:411] ip2 -> ip2
I0525 16:57:14.972697 21434 net.cpp:150] Setting up ip2
I0525 16:57:14.972712 21434 net.cpp:157] Top shape: 100 98 (9800)
I0525 16:57:14.972720 21434 net.cpp:165] Memory required for data: 157791600
I0525 16:57:14.972736 21434 layer_factory.hpp:77] Creating layer relu6
I0525 16:57:14.972761 21434 net.cpp:106] Creating Layer relu6
I0525 16:57:14.972771 21434 net.cpp:454] relu6 <- ip2
I0525 16:57:14.972784 21434 net.cpp:397] relu6 -> ip2 (in-place)
I0525 16:57:14.973326 21434 net.cpp:150] Setting up relu6
I0525 16:57:14.973342 21434 net.cpp:157] Top shape: 100 98 (9800)
I0525 16:57:14.973352 21434 net.cpp:165] Memory required for data: 157830800
I0525 16:57:14.973362 21434 layer_factory.hpp:77] Creating layer drop2
I0525 16:57:14.973376 21434 net.cpp:106] Creating Layer drop2
I0525 16:57:14.973386 21434 net.cpp:454] drop2 <- ip2
I0525 16:57:14.973398 21434 net.cpp:397] drop2 -> ip2 (in-place)
I0525 16:57:14.973443 21434 net.cpp:150] Setting up drop2
I0525 16:57:14.973455 21434 net.cpp:157] Top shape: 100 98 (9800)
I0525 16:57:14.973465 21434 net.cpp:165] Memory required for data: 157870000
I0525 16:57:14.973474 21434 layer_factory.hpp:77] Creating layer ip3
I0525 16:57:14.973489 21434 net.cpp:106] Creating Layer ip3
I0525 16:57:14.973498 21434 net.cpp:454] ip3 <- ip2
I0525 16:57:14.973511 21434 net.cpp:411] ip3 -> ip3
I0525 16:57:14.973737 21434 net.cpp:150] Setting up ip3
I0525 16:57:14.973749 21434 net.cpp:157] Top shape: 100 11 (1100)
I0525 16:57:14.973759 21434 net.cpp:165] Memory required for data: 157874400
I0525 16:57:14.973774 21434 layer_factory.hpp:77] Creating layer drop3
I0525 16:57:14.973788 21434 net.cpp:106] Creating Layer drop3
I0525 16:57:14.973798 21434 net.cpp:454] drop3 <- ip3
I0525 16:57:14.973810 21434 net.cpp:397] drop3 -> ip3 (in-place)
I0525 16:57:14.973852 21434 net.cpp:150] Setting up drop3
I0525 16:57:14.973865 21434 net.cpp:157] Top shape: 100 11 (1100)
I0525 16:57:14.973875 21434 net.cpp:165] Memory required for data: 157878800
I0525 16:57:14.973884 21434 layer_factory.hpp:77] Creating layer ip3_drop3_0_split
I0525 16:57:14.973897 21434 net.cpp:106] Creating Layer ip3_drop3_0_split
I0525 16:57:14.973907 21434 net.cpp:454] ip3_drop3_0_split <- ip3
I0525 16:57:14.973920 21434 net.cpp:411] ip3_drop3_0_split -> ip3_drop3_0_split_0
I0525 16:57:14.973935 21434 net.cpp:411] ip3_drop3_0_split -> ip3_drop3_0_split_1
I0525 16:57:14.974009 21434 net.cpp:150] Setting up ip3_drop3_0_split
I0525 16:57:14.974021 21434 net.cpp:157] Top shape: 100 11 (1100)
I0525 16:57:14.974033 21434 net.cpp:157] Top shape: 100 11 (1100)
I0525 16:57:14.974043 21434 net.cpp:165] Memory required for data: 157887600
I0525 16:57:14.974053 21434 layer_factory.hpp:77] Creating layer accuracy
I0525 16:57:14.974074 21434 net.cpp:106] Creating Layer accuracy
I0525 16:57:14.974084 21434 net.cpp:454] accuracy <- ip3_drop3_0_split_0
I0525 16:57:14.974095 21434 net.cpp:454] accuracy <- label_data_hdf5_1_split_0
I0525 16:57:14.974109 21434 net.cpp:411] accuracy -> accuracy
…
