…
I0521 15:39:27.795583  8221 net.cpp:322] The NetState phase (0) differed from the phase (1) specified by a rule in layer data_hdf5
I0521 15:39:27.795644  8221 net.cpp:322] The NetState phase (0) differed from the phase (1) specified by a rule in layer accuracy
I0521 15:39:27.796002  8221 net.cpp:49] Initializing net from parameters: 
name: "caffe_test_127x50_x_unshifted"
state {
  phase: TRAIN
}
layer {
  name: "data_hdf5"
  type: "HDF5Data"
  top: "data"
  top: "label"
  include {
    phase: TRAIN
  }
  hdf5_data_param {
    source: "/lustre/atlas/proj-shared/hep105/caffe_titan/minosmatch_nukecczdefs_127x50_x_unshifted_me1Bmc.trainlist"
    batch_size: 10
  }
}
layer {
  name: "conv1"
  type: "Convolution"
  bottom: "data"
  top: "conv1"
  convolution_param {
    num_output: 12
    pad: 0
    stride: 1
    weight_filler {
      type: "xavier"
    }
    bias_filler {
      type: "constant"
    }
    kernel_h: 8
    kernel_w: 3
  }
}
layer {
  name: "relu1"
  type: "ReLU"
  bottom: "conv1"
  top: "conv1"
}
layer {
  name: "pool1"
  type: "Pooling"
  bottom: "conv1"
  top: "pool1"
  pooling_param {
    pool: MAX
    kernel_h: 2
    kernel_w: 1
    stride_h: 2
    stride_w: 1
  }
}
layer {
  name: "conv2"
  type: "Convolution"
  bottom: "pool1"
  top: "conv2"
  convolution_param {
    num_output: 20
    pad: 0
    stride: 1
    weight_filler {
      type: "xavier"
    }
    bias_filler {
      type: "constant"
    }
    kernel_h: 7
    kernel_w: 3
  }
}
layer {
  name: "relu2"
  type: "ReLU"
  bottom: "conv2"
  top: "conv2"
}
layer {
  name: "pool2"
  type: "Pooling"
  bottom: "conv2"
  top: "pool2"
  pooling_param {
    pool: MAX
    kernel_h: 2
    kernel_w: 1
    stride_h: 2
    stride_w: 1
  }
}
layer {
  name: "conv3"
  type: "Convolution"
  bottom: "pool2"
  top: "conv3"
  convolution_param {
    num_output: 28
    pad: 0
    stride: 1
    weight_filler {
      type: "xavier"
    }
    bias_filler {
      type: "constant"
    }
    kernel_h: 6
    kernel_w: 3
  }
}
layer {
  name: "relu3"
  type: "ReLU"
  bottom: "conv3"
  top: "conv3"
}
layer {
  name: "pool3"
  type: "Pooling"
  bottom: "conv3"
  top: "pool3"
  pooling_param {
    pool: MAX
    kernel_h: 2
    kernel_w: 1
    stride_h: 2
    stride_w: 1
  }
}
layer {
  name: "conv4"
  type: "Convolution"
  bottom: "pool3"
  top: "conv4"
  convolution_param {
    num_output: 36
    pad: 0
    stride: 1
    weight_filler {
      type: "xavier"
    }
    bias_filler {
      type: "constant"
    }
    kernel_h: 6
    kernel_w: 3
  }
}
layer {
  name: "relu4"
  type: "ReLU"
  bottom: "conv4"
  top: "conv4"
}
layer {
  name: "pool4"
  type: "Pooling"
  bottom: "conv4"
  top: "pool4"
  pooling_param {
    pool: MAX
    kernel_h: 2
    kernel_w: 1
    stride_h: 2
    stride_w: 1
  }
}
layer {
  name: "ip1"
  type: "InnerProduct"
  bottom: "pool4"
  top: "ip1"
  inner_product_param {
    num_output: 196
    weight_filler {
      type: "xavier"
    }
    bias_filler {
      type: "constant"
    }
  }
}
layer {
  name: "relu5"
  type: "ReLU"
  bottom: "ip1"
  top: "ip1"
}
layer {
  name: "drop1"
  type: "Dropout"
  bottom: "ip1"
  top: "ip1"
  dropout_param {
    dropout_ratio: 0.5
  }
}
layer {
  name: "ip2"
  type: "InnerProduct"
  bottom: "ip1"
  top: "ip2"
  inner_product_param {
    num_output: 98
    weight_filler {
      type: "xavier"
    }
    bias_filler {
      type: "constant"
    }
  }
}
layer {
  name: "relu6"
  type: "ReLU"
  bottom: "ip2"
  top: "ip2"
}
layer {
  name: "drop2"
  type: "Dropout"
  bottom: "ip2"
  top: "ip2"
  dropout_param {
    dropout_ratio: 0.5
  }
}
layer {
  name: "ip3"
  type: "InnerProduct"
  bottom: "ip2"
  top: "ip3"
  inner_product_param {
    num_output: 11
    weight_filler {
      type: "xavier"
    }
    bias_filler {
      type: "constant"
    }
  }
}
layer {
  name: "drop3"
  type: "Dropout"
  bottom: "ip3"
  top: "ip3"
  dropout_param {
    dropout_ratio: 0.5
  }
}
layer {
  name: "loss"
  type: "SoftmaxWithLoss"
  bottom: "ip3"
  bottom: "label"
  top: "loss"
}
I0521 15:39:27.796180  8221 layer_factory.hpp:77] Creating layer data_hdf5
I0521 15:39:27.796203  8221 net.cpp:106] Creating Layer data_hdf5
I0521 15:39:27.796217  8221 net.cpp:411] data_hdf5 -> data
I0521 15:39:27.796250  8221 net.cpp:411] data_hdf5 -> label
I0521 15:39:27.796283  8221 hdf5_data_layer.cpp:79] Loading list of HDF5 filenames from: /lustre/atlas/proj-shared/hep105/caffe_titan/minosmatch_nukecczdefs_127x50_x_unshifted_me1Bmc.trainlist
I0521 15:39:27.812479  8221 hdf5_data_layer.cpp:93] Number of HDF5 files: 15
I0521 15:39:27.814698  8221 hdf5.cpp:32] Datatype class: H5T_FLOAT
I0521 15:39:49.304841  8221 hdf5.cpp:35] Datatype class: H5T_INTEGER
I0521 15:39:49.309958  8221 net.cpp:150] Setting up data_hdf5
I0521 15:39:49.309998  8221 net.cpp:157] Top shape: 10 1 127 50 (63500)
I0521 15:39:49.310014  8221 net.cpp:157] Top shape: 10 (10)
I0521 15:39:49.310026  8221 net.cpp:165] Memory required for data: 254040
I0521 15:39:49.310039  8221 layer_factory.hpp:77] Creating layer conv1
I0521 15:39:49.310073  8221 net.cpp:106] Creating Layer conv1
I0521 15:39:49.310084  8221 net.cpp:454] conv1 <- data
I0521 15:39:49.310104  8221 net.cpp:411] conv1 -> conv1
I0521 15:39:50.373136  8221 net.cpp:150] Setting up conv1
I0521 15:39:50.373180  8221 net.cpp:157] Top shape: 10 12 120 48 (691200)
I0521 15:39:50.373191  8221 net.cpp:165] Memory required for data: 3018840
I0521 15:39:50.373221  8221 layer_factory.hpp:77] Creating layer relu1
I0521 15:39:50.373242  8221 net.cpp:106] Creating Layer relu1
I0521 15:39:50.373253  8221 net.cpp:454] relu1 <- conv1
I0521 15:39:50.373266  8221 net.cpp:397] relu1 -> conv1 (in-place)
I0521 15:39:50.373790  8221 net.cpp:150] Setting up relu1
I0521 15:39:50.373805  8221 net.cpp:157] Top shape: 10 12 120 48 (691200)
I0521 15:39:50.373816  8221 net.cpp:165] Memory required for data: 5783640
I0521 15:39:50.373826  8221 layer_factory.hpp:77] Creating layer pool1
I0521 15:39:50.373843  8221 net.cpp:106] Creating Layer pool1
I0521 15:39:50.373853  8221 net.cpp:454] pool1 <- conv1
I0521 15:39:50.373867  8221 net.cpp:411] pool1 -> pool1
I0521 15:39:50.373945  8221 net.cpp:150] Setting up pool1
I0521 15:39:50.373960  8221 net.cpp:157] Top shape: 10 12 60 48 (345600)
I0521 15:39:50.373970  8221 net.cpp:165] Memory required for data: 7166040
I0521 15:39:50.373980  8221 layer_factory.hpp:77] Creating layer conv2
I0521 15:39:50.373998  8221 net.cpp:106] Creating Layer conv2
I0521 15:39:50.374009  8221 net.cpp:454] conv2 <- pool1
I0521 15:39:50.374023  8221 net.cpp:411] conv2 -> conv2
I0521 15:39:50.376721  8221 net.cpp:150] Setting up conv2
I0521 15:39:50.376749  8221 net.cpp:157] Top shape: 10 20 54 46 (496800)
I0521 15:39:50.376760  8221 net.cpp:165] Memory required for data: 9153240
I0521 15:39:50.376780  8221 layer_factory.hpp:77] Creating layer relu2
I0521 15:39:50.376794  8221 net.cpp:106] Creating Layer relu2
I0521 15:39:50.376804  8221 net.cpp:454] relu2 <- conv2
I0521 15:39:50.376817  8221 net.cpp:397] relu2 -> conv2 (in-place)
I0521 15:39:50.377148  8221 net.cpp:150] Setting up relu2
I0521 15:39:50.377162  8221 net.cpp:157] Top shape: 10 20 54 46 (496800)
I0521 15:39:50.377172  8221 net.cpp:165] Memory required for data: 11140440
I0521 15:39:50.377182  8221 layer_factory.hpp:77] Creating layer pool2
I0521 15:39:50.377194  8221 net.cpp:106] Creating Layer pool2
I0521 15:39:50.377204  8221 net.cpp:454] pool2 <- conv2
I0521 15:39:50.377216  8221 net.cpp:411] pool2 -> pool2
I0521 15:39:50.377296  8221 net.cpp:150] Setting up pool2
I0521 15:39:50.377310  8221 net.cpp:157] Top shape: 10 20 27 46 (248400)
I0521 15:39:50.377321  8221 net.cpp:165] Memory required for data: 12134040
I0521 15:39:50.377331  8221 layer_factory.hpp:77] Creating layer conv3
I0521 15:39:50.377349  8221 net.cpp:106] Creating Layer conv3
I0521 15:39:50.377359  8221 net.cpp:454] conv3 <- pool2
I0521 15:39:50.377372  8221 net.cpp:411] conv3 -> conv3
I0521 15:39:50.379467  8221 net.cpp:150] Setting up conv3
I0521 15:39:50.379490  8221 net.cpp:157] Top shape: 10 28 22 44 (271040)
I0521 15:39:50.379503  8221 net.cpp:165] Memory required for data: 13218200
I0521 15:39:50.379521  8221 layer_factory.hpp:77] Creating layer relu3
I0521 15:39:50.379537  8221 net.cpp:106] Creating Layer relu3
I0521 15:39:50.379547  8221 net.cpp:454] relu3 <- conv3
I0521 15:39:50.379559  8221 net.cpp:397] relu3 -> conv3 (in-place)
I0521 15:39:50.380038  8221 net.cpp:150] Setting up relu3
I0521 15:39:50.380056  8221 net.cpp:157] Top shape: 10 28 22 44 (271040)
I0521 15:39:50.380066  8221 net.cpp:165] Memory required for data: 14302360
I0521 15:39:50.380076  8221 layer_factory.hpp:77] Creating layer pool3
I0521 15:39:50.380089  8221 net.cpp:106] Creating Layer pool3
I0521 15:39:50.380100  8221 net.cpp:454] pool3 <- conv3
I0521 15:39:50.380111  8221 net.cpp:411] pool3 -> pool3
I0521 15:39:50.380179  8221 net.cpp:150] Setting up pool3
I0521 15:39:50.380192  8221 net.cpp:157] Top shape: 10 28 11 44 (135520)
I0521 15:39:50.380203  8221 net.cpp:165] Memory required for data: 14844440
I0521 15:39:50.380213  8221 layer_factory.hpp:77] Creating layer conv4
I0521 15:39:50.380228  8221 net.cpp:106] Creating Layer conv4
I0521 15:39:50.380239  8221 net.cpp:454] conv4 <- pool3
I0521 15:39:50.380252  8221 net.cpp:411] conv4 -> conv4
I0521 15:39:50.382968  8221 net.cpp:150] Setting up conv4
I0521 15:39:50.382997  8221 net.cpp:157] Top shape: 10 36 6 42 (90720)
I0521 15:39:50.383007  8221 net.cpp:165] Memory required for data: 15207320
I0521 15:39:50.383023  8221 layer_factory.hpp:77] Creating layer relu4
I0521 15:39:50.383036  8221 net.cpp:106] Creating Layer relu4
I0521 15:39:50.383046  8221 net.cpp:454] relu4 <- conv4
I0521 15:39:50.383059  8221 net.cpp:397] relu4 -> conv4 (in-place)
I0521 15:39:50.383525  8221 net.cpp:150] Setting up relu4
I0521 15:39:50.383541  8221 net.cpp:157] Top shape: 10 36 6 42 (90720)
I0521 15:39:50.383551  8221 net.cpp:165] Memory required for data: 15570200
I0521 15:39:50.383563  8221 layer_factory.hpp:77] Creating layer pool4
I0521 15:39:50.383574  8221 net.cpp:106] Creating Layer pool4
I0521 15:39:50.383584  8221 net.cpp:454] pool4 <- conv4
I0521 15:39:50.383597  8221 net.cpp:411] pool4 -> pool4
I0521 15:39:50.383666  8221 net.cpp:150] Setting up pool4
I0521 15:39:50.383678  8221 net.cpp:157] Top shape: 10 36 3 42 (45360)
I0521 15:39:50.383688  8221 net.cpp:165] Memory required for data: 15751640
I0521 15:39:50.383698  8221 layer_factory.hpp:77] Creating layer ip1
I0521 15:39:50.383718  8221 net.cpp:106] Creating Layer ip1
I0521 15:39:50.383728  8221 net.cpp:454] ip1 <- pool4
I0521 15:39:50.383740  8221 net.cpp:411] ip1 -> ip1
I0521 15:39:50.399163  8221 net.cpp:150] Setting up ip1
I0521 15:39:50.399191  8221 net.cpp:157] Top shape: 10 196 (1960)
I0521 15:39:50.399206  8221 net.cpp:165] Memory required for data: 15759480
I0521 15:39:50.399230  8221 layer_factory.hpp:77] Creating layer relu5
I0521 15:39:50.399245  8221 net.cpp:106] Creating Layer relu5
I0521 15:39:50.399255  8221 net.cpp:454] relu5 <- ip1
I0521 15:39:50.399266  8221 net.cpp:397] relu5 -> ip1 (in-place)
I0521 15:39:50.399611  8221 net.cpp:150] Setting up relu5
I0521 15:39:50.399624  8221 net.cpp:157] Top shape: 10 196 (1960)
I0521 15:39:50.399634  8221 net.cpp:165] Memory required for data: 15767320
I0521 15:39:50.399646  8221 layer_factory.hpp:77] Creating layer drop1
I0521 15:39:50.399667  8221 net.cpp:106] Creating Layer drop1
I0521 15:39:50.399677  8221 net.cpp:454] drop1 <- ip1
I0521 15:39:50.399689  8221 net.cpp:397] drop1 -> ip1 (in-place)
I0521 15:39:50.399749  8221 net.cpp:150] Setting up drop1
I0521 15:39:50.399762  8221 net.cpp:157] Top shape: 10 196 (1960)
I0521 15:39:50.399772  8221 net.cpp:165] Memory required for data: 15775160
I0521 15:39:50.399782  8221 layer_factory.hpp:77] Creating layer ip2
I0521 15:39:50.399801  8221 net.cpp:106] Creating Layer ip2
I0521 15:39:50.399817  8221 net.cpp:454] ip2 <- ip1
I0521 15:39:50.399830  8221 net.cpp:411] ip2 -> ip2
I0521 15:39:50.400295  8221 net.cpp:150] Setting up ip2
I0521 15:39:50.400308  8221 net.cpp:157] Top shape: 10 98 (980)
I0521 15:39:50.400318  8221 net.cpp:165] Memory required for data: 15779080
I0521 15:39:50.400334  8221 layer_factory.hpp:77] Creating layer relu6
I0521 15:39:50.400346  8221 net.cpp:106] Creating Layer relu6
I0521 15:39:50.400355  8221 net.cpp:454] relu6 <- ip2
I0521 15:39:50.400367  8221 net.cpp:397] relu6 -> ip2 (in-place)
I0521 15:39:50.400890  8221 net.cpp:150] Setting up relu6
I0521 15:39:50.400907  8221 net.cpp:157] Top shape: 10 98 (980)
I0521 15:39:50.400916  8221 net.cpp:165] Memory required for data: 15783000
I0521 15:39:50.400926  8221 layer_factory.hpp:77] Creating layer drop2
I0521 15:39:50.400938  8221 net.cpp:106] Creating Layer drop2
I0521 15:39:50.400949  8221 net.cpp:454] drop2 <- ip2
I0521 15:39:50.400960  8221 net.cpp:397] drop2 -> ip2 (in-place)
I0521 15:39:50.401002  8221 net.cpp:150] Setting up drop2
I0521 15:39:50.401015  8221 net.cpp:157] Top shape: 10 98 (980)
I0521 15:39:50.401026  8221 net.cpp:165] Memory required for data: 15786920
I0521 15:39:50.401036  8221 layer_factory.hpp:77] Creating layer ip3
I0521 15:39:50.401048  8221 net.cpp:106] Creating Layer ip3
I0521 15:39:50.401057  8221 net.cpp:454] ip3 <- ip2
I0521 15:39:50.401070  8221 net.cpp:411] ip3 -> ip3
I0521 15:39:50.401278  8221 net.cpp:150] Setting up ip3
I0521 15:39:50.401289  8221 net.cpp:157] Top shape: 10 11 (110)
I0521 15:39:50.401299  8221 net.cpp:165] Memory required for data: 15787360
I0521 15:39:50.401314  8221 layer_factory.hpp:77] Creating layer drop3
I0521 15:39:50.401326  8221 net.cpp:106] Creating Layer drop3
I0521 15:39:50.401337  8221 net.cpp:454] drop3 <- ip3
I0521 15:39:50.401350  8221 net.cpp:397] drop3 -> ip3 (in-place)
I0521 15:39:50.401388  8221 net.cpp:150] Setting up drop3
I0521 15:39:50.401401  8221 net.cpp:157] Top shape: 10 11 (110)
I0521 15:39:50.401410  8221 net.cpp:165] Memory required for data: 15787800
I0521 15:39:50.401420  8221 layer_factory.hpp:77] Creating layer loss
I0521 15:39:50.401439  8221 net.cpp:106] Creating Layer loss
I0521 15:39:50.401449  8221 net.cpp:454] loss <- ip3
I0521 15:39:50.401460  8221 net.cpp:454] loss <- label
I0521 15:39:50.401473  8221 net.cpp:411] loss -> loss
I0521 15:39:50.401489  8221 layer_factory.hpp:77] Creating layer loss
…
I0521 15:39:50.404132  8221 solver.cpp:181] Creating test net (#0) specified by net file: /lustre/atlas/proj-shared/hep105/caffe_titan/caffe_workflow/logs_bslr/bs_10_lr_0.0030_2016-05-20T15.48.51.258925.prototxt
I0521 15:39:50.404204  8221 net.cpp:322] The NetState phase (1) differed from the phase (0) specified by a rule in layer data_hdf5
I0521 15:39:50.404556  8221 net.cpp:49] Initializing net from parameters: 
name: "caffe_test_127x50_x_unshifted"
state {
  phase: TEST
}
layer {
  name: "data_hdf5"
  type: "HDF5Data"
  top: "data"
  top: "label"
  include {
    phase: TEST
  }
  hdf5_data_param {
    source: "/lustre/atlas/proj-shared/hep105/caffe_titan/minosmatch_nukecczdefs_127x50_x_unshifted_me1Bmc.testlist"
    batch_size: 10
  }
}
layer {
  name: "conv1"
  type: "Convolution"
  bottom: "data"
  top: "conv1"
  convolution_param {
    num_output: 12
    pad: 0
    stride: 1
    weight_filler {
      type: "xavier"
    }
    bias_filler {
      type: "constant"
    }
    kernel_h: 8
    kernel_w: 3
  }
}
layer {
  name: "relu1"
  type: "ReLU"
  bottom: "conv1"
  top: "conv1"
}
layer {
  name: "pool1"
  type: "Pooling"
  bottom: "conv1"
  top: "pool1"
  pooling_param {
    pool: MAX
    kernel_h: 2
    kernel_w: 1
    stride_h: 2
    stride_w: 1
  }
}
layer {
  name: "conv2"
  type: "Convolution"
  bottom: "pool1"
  top: "conv2"
  convolution_param {
    num_output: 20
    pad: 0
    stride: 1
    weight_filler {
      type: "xavier"
    }
    bias_filler {
      type: "constant"
    }
    kernel_h: 7
    kernel_w: 3
  }
}
layer {
  name: "relu2"
  type: "ReLU"
  bottom: "conv2"
  top: "conv2"
}
layer {
  name: "pool2"
  type: "Pooling"
  bottom: "conv2"
  top: "pool2"
  pooling_param {
    pool: MAX
    kernel_h: 2
    kernel_w: 1
    stride_h: 2
    stride_w: 1
  }
}
layer {
  name: "conv3"
  type: "Convolution"
  bottom: "pool2"
  top: "conv3"
  convolution_param {
    num_output: 28
    pad: 0
    stride: 1
    weight_filler {
      type: "xavier"
    }
    bias_filler {
      type: "constant"
    }
    kernel_h: 6
    kernel_w: 3
  }
}
layer {
  name: "relu3"
  type: "ReLU"
  bottom: "conv3"
  top: "conv3"
}
layer {
  name: "pool3"
  type: "Pooling"
  bottom: "conv3"
  top: "pool3"
  pooling_param {
    pool: MAX
    kernel_h: 2
    kernel_w: 1
    stride_h: 2
    stride_w: 1
  }
}
layer {
  name: "conv4"
  type: "Convolution"
  bottom: "pool3"
  top: "conv4"
  convolution_param {
    num_output: 36
    pad: 0
    stride: 1
    weight_filler {
      type: "xavier"
    }
    bias_filler {
      type: "constant"
    }
    kernel_h: 6
    kernel_w: 3
  }
}
layer {
  name: "relu4"
  type: "ReLU"
  bottom: "conv4"
  top: "conv4"
}
layer {
  name: "pool4"
  type: "Pooling"
  bottom: "conv4"
  top: "pool4"
  pooling_param {
    pool: MAX
    kernel_h: 2
    kernel_w: 1
    stride_h: 2
    stride_w: 1
  }
}
layer {
  name: "ip1"
  type: "InnerProduct"
  bottom: "pool4"
  top: "ip1"
  inner_product_param {
    num_output: 196
    weight_filler {
      type: "xavier"
    }
    bias_filler {
      type: "constant"
    }
  }
}
layer {
  name: "relu5"
  type: "ReLU"
  bottom: "ip1"
  top: "ip1"
}
layer {
  name: "drop1"
  type: "Dropout"
  bottom: "ip1"
  top: "ip1"
  dropout_param {
    dropout_ratio: 0.5
  }
}
layer {
  name: "ip2"
  type: "InnerProduct"
  bottom: "ip1"
  top: "ip2"
  inner_product_param {
    num_output: 98
    weight_filler {
      type: "xavier"
    }
    bias_filler {
      type: "constant"
    }
  }
}
layer {
  name: "relu6"
  type: "ReLU"
  bottom: "ip2"
  top: "ip2"
}
layer {
  name: "drop2"
  type: "Dropout"
  bottom: "ip2"
  top: "ip2"
  dropout_param {
    dropout_ratio: 0.5
  }
}
layer {
  name: "ip3"
  type: "InnerProduct"
  bottom: "ip2"
  top: "ip3"
  inner_product_param {
    num_output: 11
    weight_filler {
      type: "xavier"
    }
    bias_filler {
      type: "constant"
    }
  }
}
layer {
  name: "drop3"
  type: "Dropout"
  bottom: "ip3"
  top: "ip3"
  dropout_param {
    dropout_ratio: 0.5
  }
}
layer {
  name: "accuracy"
  type: "Accuracy"
  bottom: "ip3"
  bottom: "label"
  top: "accuracy"
  include {
    phase: TEST
  }
}
layer {
  name: "loss"
  type: "SoftmaxWithLoss"
  bottom: "ip3"
  bottom: "label"
  top: "loss"
}
I0521 15:39:50.404744  8221 layer_factory.hpp:77] Creating layer data_hdf5
I0521 15:39:50.404759  8221 net.cpp:106] Creating Layer data_hdf5
I0521 15:39:50.404772  8221 net.cpp:411] data_hdf5 -> data
I0521 15:39:50.404788  8221 net.cpp:411] data_hdf5 -> label
I0521 15:39:50.404803  8221 hdf5_data_layer.cpp:79] Loading list of HDF5 filenames from: /lustre/atlas/proj-shared/hep105/caffe_titan/minosmatch_nukecczdefs_127x50_x_unshifted_me1Bmc.testlist
I0521 15:39:50.406101  8221 hdf5_data_layer.cpp:93] Number of HDF5 files: 3
I0521 15:40:11.779224  8221 net.cpp:150] Setting up data_hdf5
I0521 15:40:11.779387  8221 net.cpp:157] Top shape: 10 1 127 50 (63500)
I0521 15:40:11.779402  8221 net.cpp:157] Top shape: 10 (10)
I0521 15:40:11.779417  8221 net.cpp:165] Memory required for data: 254040
I0521 15:40:11.779429  8221 layer_factory.hpp:77] Creating layer label_data_hdf5_1_split
I0521 15:40:11.779458  8221 net.cpp:106] Creating Layer label_data_hdf5_1_split
I0521 15:40:11.779467  8221 net.cpp:454] label_data_hdf5_1_split <- label
I0521 15:40:11.779482  8221 net.cpp:411] label_data_hdf5_1_split -> label_data_hdf5_1_split_0
I0521 15:40:11.779503  8221 net.cpp:411] label_data_hdf5_1_split -> label_data_hdf5_1_split_1
I0521 15:40:11.779577  8221 net.cpp:150] Setting up label_data_hdf5_1_split
I0521 15:40:11.779590  8221 net.cpp:157] Top shape: 10 (10)
I0521 15:40:11.779603  8221 net.cpp:157] Top shape: 10 (10)
I0521 15:40:11.779611  8221 net.cpp:165] Memory required for data: 254120
I0521 15:40:11.779621  8221 layer_factory.hpp:77] Creating layer conv1
I0521 15:40:11.779644  8221 net.cpp:106] Creating Layer conv1
I0521 15:40:11.779654  8221 net.cpp:454] conv1 <- data
I0521 15:40:11.779670  8221 net.cpp:411] conv1 -> conv1
I0521 15:40:11.781646  8221 net.cpp:150] Setting up conv1
I0521 15:40:11.781672  8221 net.cpp:157] Top shape: 10 12 120 48 (691200)
I0521 15:40:11.781682  8221 net.cpp:165] Memory required for data: 3018920
I0521 15:40:11.781702  8221 layer_factory.hpp:77] Creating layer relu1
I0521 15:40:11.781716  8221 net.cpp:106] Creating Layer relu1
I0521 15:40:11.781726  8221 net.cpp:454] relu1 <- conv1
I0521 15:40:11.781739  8221 net.cpp:397] relu1 -> conv1 (in-place)
I0521 15:40:11.782245  8221 net.cpp:150] Setting up relu1
I0521 15:40:11.782261  8221 net.cpp:157] Top shape: 10 12 120 48 (691200)
I0521 15:40:11.782271  8221 net.cpp:165] Memory required for data: 5783720
I0521 15:40:11.782281  8221 layer_factory.hpp:77] Creating layer pool1
I0521 15:40:11.782297  8221 net.cpp:106] Creating Layer pool1
I0521 15:40:11.782307  8221 net.cpp:454] pool1 <- conv1
I0521 15:40:11.782320  8221 net.cpp:411] pool1 -> pool1
I0521 15:40:11.782395  8221 net.cpp:150] Setting up pool1
I0521 15:40:11.782408  8221 net.cpp:157] Top shape: 10 12 60 48 (345600)
I0521 15:40:11.782418  8221 net.cpp:165] Memory required for data: 7166120
I0521 15:40:11.782426  8221 layer_factory.hpp:77] Creating layer conv2
I0521 15:40:11.782444  8221 net.cpp:106] Creating Layer conv2
I0521 15:40:11.782454  8221 net.cpp:454] conv2 <- pool1
I0521 15:40:11.782469  8221 net.cpp:411] conv2 -> conv2
I0521 15:40:11.784396  8221 net.cpp:150] Setting up conv2
I0521 15:40:11.784418  8221 net.cpp:157] Top shape: 10 20 54 46 (496800)
I0521 15:40:11.784430  8221 net.cpp:165] Memory required for data: 9153320
I0521 15:40:11.784448  8221 layer_factory.hpp:77] Creating layer relu2
I0521 15:40:11.784462  8221 net.cpp:106] Creating Layer relu2
I0521 15:40:11.784472  8221 net.cpp:454] relu2 <- conv2
I0521 15:40:11.784484  8221 net.cpp:397] relu2 -> conv2 (in-place)
I0521 15:40:11.784821  8221 net.cpp:150] Setting up relu2
I0521 15:40:11.784833  8221 net.cpp:157] Top shape: 10 20 54 46 (496800)
I0521 15:40:11.784844  8221 net.cpp:165] Memory required for data: 11140520
I0521 15:40:11.784854  8221 layer_factory.hpp:77] Creating layer pool2
I0521 15:40:11.784868  8221 net.cpp:106] Creating Layer pool2
I0521 15:40:11.784878  8221 net.cpp:454] pool2 <- conv2
I0521 15:40:11.784889  8221 net.cpp:411] pool2 -> pool2
I0521 15:40:11.784962  8221 net.cpp:150] Setting up pool2
I0521 15:40:11.784976  8221 net.cpp:157] Top shape: 10 20 27 46 (248400)
I0521 15:40:11.784986  8221 net.cpp:165] Memory required for data: 12134120
I0521 15:40:11.784996  8221 layer_factory.hpp:77] Creating layer conv3
I0521 15:40:11.785012  8221 net.cpp:106] Creating Layer conv3
I0521 15:40:11.785022  8221 net.cpp:454] conv3 <- pool2
I0521 15:40:11.785037  8221 net.cpp:411] conv3 -> conv3
I0521 15:40:11.787035  8221 net.cpp:150] Setting up conv3
I0521 15:40:11.787058  8221 net.cpp:157] Top shape: 10 28 22 44 (271040)
I0521 15:40:11.787070  8221 net.cpp:165] Memory required for data: 13218280
I0521 15:40:11.787088  8221 layer_factory.hpp:77] Creating layer relu3
I0521 15:40:11.787114  8221 net.cpp:106] Creating Layer relu3
I0521 15:40:11.787124  8221 net.cpp:454] relu3 <- conv3
I0521 15:40:11.787138  8221 net.cpp:397] relu3 -> conv3 (in-place)
I0521 15:40:11.787611  8221 net.cpp:150] Setting up relu3
I0521 15:40:11.787627  8221 net.cpp:157] Top shape: 10 28 22 44 (271040)
I0521 15:40:11.787637  8221 net.cpp:165] Memory required for data: 14302440
I0521 15:40:11.787647  8221 layer_factory.hpp:77] Creating layer pool3
I0521 15:40:11.787660  8221 net.cpp:106] Creating Layer pool3
I0521 15:40:11.787670  8221 net.cpp:454] pool3 <- conv3
I0521 15:40:11.787683  8221 net.cpp:411] pool3 -> pool3
I0521 15:40:11.787755  8221 net.cpp:150] Setting up pool3
I0521 15:40:11.787768  8221 net.cpp:157] Top shape: 10 28 11 44 (135520)
I0521 15:40:11.787778  8221 net.cpp:165] Memory required for data: 14844520
I0521 15:40:11.787787  8221 layer_factory.hpp:77] Creating layer conv4
I0521 15:40:11.787803  8221 net.cpp:106] Creating Layer conv4
I0521 15:40:11.787822  8221 net.cpp:454] conv4 <- pool3
I0521 15:40:11.787837  8221 net.cpp:411] conv4 -> conv4
I0521 15:40:11.789901  8221 net.cpp:150] Setting up conv4
I0521 15:40:11.789918  8221 net.cpp:157] Top shape: 10 36 6 42 (90720)
I0521 15:40:11.789929  8221 net.cpp:165] Memory required for data: 15207400
I0521 15:40:11.789944  8221 layer_factory.hpp:77] Creating layer relu4
I0521 15:40:11.789958  8221 net.cpp:106] Creating Layer relu4
I0521 15:40:11.789968  8221 net.cpp:454] relu4 <- conv4
I0521 15:40:11.789980  8221 net.cpp:397] relu4 -> conv4 (in-place)
I0521 15:40:11.790447  8221 net.cpp:150] Setting up relu4
I0521 15:40:11.790463  8221 net.cpp:157] Top shape: 10 36 6 42 (90720)
I0521 15:40:11.790473  8221 net.cpp:165] Memory required for data: 15570280
I0521 15:40:11.790483  8221 layer_factory.hpp:77] Creating layer pool4
I0521 15:40:11.790496  8221 net.cpp:106] Creating Layer pool4
I0521 15:40:11.790506  8221 net.cpp:454] pool4 <- conv4
I0521 15:40:11.790518  8221 net.cpp:411] pool4 -> pool4
I0521 15:40:11.790590  8221 net.cpp:150] Setting up pool4
I0521 15:40:11.790601  8221 net.cpp:157] Top shape: 10 36 3 42 (45360)
I0521 15:40:11.790611  8221 net.cpp:165] Memory required for data: 15751720
I0521 15:40:11.790621  8221 layer_factory.hpp:77] Creating layer ip1
I0521 15:40:11.790635  8221 net.cpp:106] Creating Layer ip1
I0521 15:40:11.790645  8221 net.cpp:454] ip1 <- pool4
I0521 15:40:11.790659  8221 net.cpp:411] ip1 -> ip1
I0521 15:40:11.806124  8221 net.cpp:150] Setting up ip1
I0521 15:40:11.806154  8221 net.cpp:157] Top shape: 10 196 (1960)
I0521 15:40:11.806164  8221 net.cpp:165] Memory required for data: 15759560
I0521 15:40:11.806186  8221 layer_factory.hpp:77] Creating layer relu5
I0521 15:40:11.806201  8221 net.cpp:106] Creating Layer relu5
I0521 15:40:11.806211  8221 net.cpp:454] relu5 <- ip1
I0521 15:40:11.806224  8221 net.cpp:397] relu5 -> ip1 (in-place)
I0521 15:40:11.806573  8221 net.cpp:150] Setting up relu5
I0521 15:40:11.806587  8221 net.cpp:157] Top shape: 10 196 (1960)
I0521 15:40:11.806596  8221 net.cpp:165] Memory required for data: 15767400
I0521 15:40:11.806607  8221 layer_factory.hpp:77] Creating layer drop1
I0521 15:40:11.806625  8221 net.cpp:106] Creating Layer drop1
I0521 15:40:11.806635  8221 net.cpp:454] drop1 <- ip1
I0521 15:40:11.806648  8221 net.cpp:397] drop1 -> ip1 (in-place)
I0521 15:40:11.806694  8221 net.cpp:150] Setting up drop1
I0521 15:40:11.806706  8221 net.cpp:157] Top shape: 10 196 (1960)
I0521 15:40:11.806718  8221 net.cpp:165] Memory required for data: 15775240
I0521 15:40:11.806727  8221 layer_factory.hpp:77] Creating layer ip2
I0521 15:40:11.806742  8221 net.cpp:106] Creating Layer ip2
I0521 15:40:11.806752  8221 net.cpp:454] ip2 <- ip1
I0521 15:40:11.806766  8221 net.cpp:411] ip2 -> ip2
I0521 15:40:11.807242  8221 net.cpp:150] Setting up ip2
I0521 15:40:11.807255  8221 net.cpp:157] Top shape: 10 98 (980)
I0521 15:40:11.807265  8221 net.cpp:165] Memory required for data: 15779160
I0521 15:40:11.807281  8221 layer_factory.hpp:77] Creating layer relu6
I0521 15:40:11.807306  8221 net.cpp:106] Creating Layer relu6
I0521 15:40:11.807315  8221 net.cpp:454] relu6 <- ip2
I0521 15:40:11.807328  8221 net.cpp:397] relu6 -> ip2 (in-place)
I0521 15:40:11.807878  8221 net.cpp:150] Setting up relu6
I0521 15:40:11.807898  8221 net.cpp:157] Top shape: 10 98 (980)
I0521 15:40:11.807909  8221 net.cpp:165] Memory required for data: 15783080
I0521 15:40:11.807917  8221 layer_factory.hpp:77] Creating layer drop2
I0521 15:40:11.807931  8221 net.cpp:106] Creating Layer drop2
I0521 15:40:11.807941  8221 net.cpp:454] drop2 <- ip2
I0521 15:40:11.807955  8221 net.cpp:397] drop2 -> ip2 (in-place)
I0521 15:40:11.807998  8221 net.cpp:150] Setting up drop2
I0521 15:40:11.808012  8221 net.cpp:157] Top shape: 10 98 (980)
I0521 15:40:11.808022  8221 net.cpp:165] Memory required for data: 15787000
I0521 15:40:11.808032  8221 layer_factory.hpp:77] Creating layer ip3
I0521 15:40:11.808046  8221 net.cpp:106] Creating Layer ip3
I0521 15:40:11.808056  8221 net.cpp:454] ip3 <- ip2
I0521 15:40:11.808070  8221 net.cpp:411] ip3 -> ip3
I0521 15:40:11.808290  8221 net.cpp:150] Setting up ip3
I0521 15:40:11.808303  8221 net.cpp:157] Top shape: 10 11 (110)
I0521 15:40:11.808313  8221 net.cpp:165] Memory required for data: 15787440
I0521 15:40:11.808328  8221 layer_factory.hpp:77] Creating layer drop3
I0521 15:40:11.808342  8221 net.cpp:106] Creating Layer drop3
I0521 15:40:11.808352  8221 net.cpp:454] drop3 <- ip3
I0521 15:40:11.808364  8221 net.cpp:397] drop3 -> ip3 (in-place)
I0521 15:40:11.808405  8221 net.cpp:150] Setting up drop3
I0521 15:40:11.808418  8221 net.cpp:157] Top shape: 10 11 (110)
I0521 15:40:11.808429  8221 net.cpp:165] Memory required for data: 15787880
I0521 15:40:11.808437  8221 layer_factory.hpp:77] Creating layer ip3_drop3_0_split
I0521 15:40:11.808451  8221 net.cpp:106] Creating Layer ip3_drop3_0_split
I0521 15:40:11.808461  8221 net.cpp:454] ip3_drop3_0_split <- ip3
I0521 15:40:11.808473  8221 net.cpp:411] ip3_drop3_0_split -> ip3_drop3_0_split_0
I0521 15:40:11.808488  8221 net.cpp:411] ip3_drop3_0_split -> ip3_drop3_0_split_1
I0521 15:40:11.808562  8221 net.cpp:150] Setting up ip3_drop3_0_split
I0521 15:40:11.808574  8221 net.cpp:157] Top shape: 10 11 (110)
I0521 15:40:11.808586  8221 net.cpp:157] Top shape: 10 11 (110)
I0521 15:40:11.808596  8221 net.cpp:165] Memory required for data: 15788760
I0521 15:40:11.808604  8221 layer_factory.hpp:77] Creating layer accuracy
I0521 15:40:11.808625  8221 net.cpp:106] Creating Layer accuracy
I0521 15:40:11.808636  8221 net.cpp:454] accuracy <- ip3_drop3_0_split_0
I0521 15:40:11.808647  8221 net.cpp:454] accuracy <- label_data_hdf5_1_split_0
I0521 15:40:11.808660  8221 net.cpp:411] accuracy -> accuracy
…
