…
I0525 14:55:46.467059 23721 net.cpp:322] The NetState phase (0) differed from the phase (1) specified by a rule in layer data_hdf5
I0525 14:55:46.467119 23721 net.cpp:322] The NetState phase (0) differed from the phase (1) specified by a rule in layer accuracy
I0525 14:55:46.467463 23721 net.cpp:49] Initializing net from parameters: 
name: "caffe_test_127x50_x_unshifted"
state {
  phase: TRAIN
}
layer {
  name: "data_hdf5"
  type: "HDF5Data"
  top: "data"
  top: "label"
  include {
    phase: TRAIN
  }
  hdf5_data_param {
    source: "/lustre/atlas/proj-shared/hep105/caffe_titan/minosmatch_nukecczdefs_127x50_x_unshifted_me1Bmc.trainlist"
    batch_size: 100
  }
}
layer {
  name: "conv1"
  type: "Convolution"
  bottom: "data"
  top: "conv1"
  convolution_param {
    num_output: 12
    pad: 0
    stride: 1
    weight_filler {
      type: "xavier"
    }
    bias_filler {
      type: "constant"
    }
    kernel_h: 8
    kernel_w: 3
  }
}
layer {
  name: "relu1"
  type: "ReLU"
  bottom: "conv1"
  top: "conv1"
}
layer {
  name: "pool1"
  type: "Pooling"
  bottom: "conv1"
  top: "pool1"
  pooling_param {
    pool: MAX
    kernel_h: 2
    kernel_w: 1
    stride_h: 2
    stride_w: 1
  }
}
layer {
  name: "conv2"
  type: "Convolution"
  bottom: "pool1"
  top: "conv2"
  convolution_param {
    num_output: 20
    pad: 0
    stride: 1
    weight_filler {
      type: "xavier"
    }
    bias_filler {
      type: "constant"
    }
    kernel_h: 7
    kernel_w: 3
  }
}
layer {
  name: "relu2"
  type: "ReLU"
  bottom: "conv2"
  top: "conv2"
}
layer {
  name: "pool2"
  type: "Pooling"
  bottom: "conv2"
  top: "pool2"
  pooling_param {
    pool: MAX
    kernel_h: 2
    kernel_w: 1
    stride_h: 2
    stride_w: 1
  }
}
layer {
  name: "conv3"
  type: "Convolution"
  bottom: "pool2"
  top: "conv3"
  convolution_param {
    num_output: 28
    pad: 0
    stride: 1
    weight_filler {
      type: "xavier"
    }
    bias_filler {
      type: "constant"
    }
    kernel_h: 6
    kernel_w: 3
  }
}
layer {
  name: "relu3"
  type: "ReLU"
  bottom: "conv3"
  top: "conv3"
}
layer {
  name: "pool3"
  type: "Pooling"
  bottom: "conv3"
  top: "pool3"
  pooling_param {
    pool: MAX
    kernel_h: 2
    kernel_w: 1
    stride_h: 2
    stride_w: 1
  }
}
layer {
  name: "conv4"
  type: "Convolution"
  bottom: "pool3"
  top: "conv4"
  convolution_param {
    num_output: 36
    pad: 0
    stride: 1
    weight_filler {
      type: "xavier"
    }
    bias_filler {
      type: "constant"
    }
    kernel_h: 6
    kernel_w: 3
  }
}
layer {
  name: "relu4"
  type: "ReLU"
  bottom: "conv4"
  top: "conv4"
}
layer {
  name: "pool4"
  type: "Pooling"
  bottom: "conv4"
  top: "pool4"
  pooling_param {
    pool: MAX
    kernel_h: 2
    kernel_w: 1
    stride_h: 2
    stride_w: 1
  }
}
layer {
  name: "ip1"
  type: "InnerProduct"
  bottom: "pool4"
  top: "ip1"
  inner_product_param {
    num_output: 196
    weight_filler {
      type: "xavier"
    }
    bias_filler {
      type: "constant"
    }
  }
}
layer {
  name: "relu5"
  type: "ReLU"
  bottom: "ip1"
  top: "ip1"
}
layer {
  name: "drop1"
  type: "Dropout"
  bottom: "ip1"
  top: "ip1"
  dropout_param {
    dropout_ratio: 0.5
  }
}
layer {
  name: "ip2"
  type: "InnerProduct"
  bottom: "ip1"
  top: "ip2"
  inner_product_param {
    num_output: 98
    weight_filler {
      type: "xavier"
    }
    bias_filler {
      type: "constant"
    }
  }
}
layer {
  name: "relu6"
  type: "ReLU"
  bottom: "ip2"
  top: "ip2"
}
layer {
  name: "drop2"
  type: "Dropout"
  bottom: "ip2"
  top: "ip2"
  dropout_param {
    dropout_ratio: 0.5
  }
}
layer {
  name: "ip3"
  type: "InnerProduct"
  bottom: "ip2"
  top: "ip3"
  inner_product_param {
    num_output: 11
    weight_filler {
      type: "xavier"
    }
    bias_filler {
      type: "constant"
    }
  }
}
layer {
  name: "drop3"
  type: "Dropout"
  bottom: "ip3"
  top: "ip3"
  dropout_param {
    dropout_ratio: 0.5
  }
}
layer {
  name: "loss"
  type: "SoftmaxWithLoss"
  bottom: "ip3"
  bottom: "label"
  top: "loss"
}
I0525 14:55:46.467640 23721 layer_factory.hpp:77] Creating layer data_hdf5
I0525 14:55:46.467664 23721 net.cpp:106] Creating Layer data_hdf5
I0525 14:55:46.467679 23721 net.cpp:411] data_hdf5 -> data
I0525 14:55:46.467711 23721 net.cpp:411] data_hdf5 -> label
I0525 14:55:46.467743 23721 hdf5_data_layer.cpp:79] Loading list of HDF5 filenames from: /lustre/atlas/proj-shared/hep105/caffe_titan/minosmatch_nukecczdefs_127x50_x_unshifted_me1Bmc.trainlist
I0525 14:55:46.469004 23721 hdf5_data_layer.cpp:93] Number of HDF5 files: 15
I0525 14:55:46.471213 23721 hdf5.cpp:32] Datatype class: H5T_FLOAT
I0525 14:56:07.957137 23721 hdf5.cpp:35] Datatype class: H5T_INTEGER
I0525 14:56:07.962211 23721 net.cpp:150] Setting up data_hdf5
I0525 14:56:07.962252 23721 net.cpp:157] Top shape: 100 1 127 50 (635000)
I0525 14:56:07.962266 23721 net.cpp:157] Top shape: 100 (100)
I0525 14:56:07.962280 23721 net.cpp:165] Memory required for data: 2540400
I0525 14:56:07.962292 23721 layer_factory.hpp:77] Creating layer conv1
I0525 14:56:07.962327 23721 net.cpp:106] Creating Layer conv1
I0525 14:56:07.962337 23721 net.cpp:454] conv1 <- data
I0525 14:56:07.962359 23721 net.cpp:411] conv1 -> conv1
I0525 14:56:08.333720 23721 net.cpp:150] Setting up conv1
I0525 14:56:08.333765 23721 net.cpp:157] Top shape: 100 12 120 48 (6912000)
I0525 14:56:08.333776 23721 net.cpp:165] Memory required for data: 30188400
I0525 14:56:08.333806 23721 layer_factory.hpp:77] Creating layer relu1
I0525 14:56:08.333827 23721 net.cpp:106] Creating Layer relu1
I0525 14:56:08.333838 23721 net.cpp:454] relu1 <- conv1
I0525 14:56:08.333853 23721 net.cpp:397] relu1 -> conv1 (in-place)
I0525 14:56:08.334369 23721 net.cpp:150] Setting up relu1
I0525 14:56:08.334386 23721 net.cpp:157] Top shape: 100 12 120 48 (6912000)
I0525 14:56:08.334398 23721 net.cpp:165] Memory required for data: 57836400
I0525 14:56:08.334408 23721 layer_factory.hpp:77] Creating layer pool1
I0525 14:56:08.334424 23721 net.cpp:106] Creating Layer pool1
I0525 14:56:08.334434 23721 net.cpp:454] pool1 <- conv1
I0525 14:56:08.334449 23721 net.cpp:411] pool1 -> pool1
I0525 14:56:08.334529 23721 net.cpp:150] Setting up pool1
I0525 14:56:08.334544 23721 net.cpp:157] Top shape: 100 12 60 48 (3456000)
I0525 14:56:08.334554 23721 net.cpp:165] Memory required for data: 71660400
I0525 14:56:08.334565 23721 layer_factory.hpp:77] Creating layer conv2
I0525 14:56:08.334588 23721 net.cpp:106] Creating Layer conv2
I0525 14:56:08.334597 23721 net.cpp:454] conv2 <- pool1
I0525 14:56:08.334621 23721 net.cpp:411] conv2 -> conv2
I0525 14:56:08.337340 23721 net.cpp:150] Setting up conv2
I0525 14:56:08.337368 23721 net.cpp:157] Top shape: 100 20 54 46 (4968000)
I0525 14:56:08.337378 23721 net.cpp:165] Memory required for data: 91532400
I0525 14:56:08.337399 23721 layer_factory.hpp:77] Creating layer relu2
I0525 14:56:08.337412 23721 net.cpp:106] Creating Layer relu2
I0525 14:56:08.337424 23721 net.cpp:454] relu2 <- conv2
I0525 14:56:08.337435 23721 net.cpp:397] relu2 -> conv2 (in-place)
I0525 14:56:08.337767 23721 net.cpp:150] Setting up relu2
I0525 14:56:08.337781 23721 net.cpp:157] Top shape: 100 20 54 46 (4968000)
I0525 14:56:08.337792 23721 net.cpp:165] Memory required for data: 111404400
I0525 14:56:08.337803 23721 layer_factory.hpp:77] Creating layer pool2
I0525 14:56:08.337815 23721 net.cpp:106] Creating Layer pool2
I0525 14:56:08.337826 23721 net.cpp:454] pool2 <- conv2
I0525 14:56:08.337838 23721 net.cpp:411] pool2 -> pool2
I0525 14:56:08.337919 23721 net.cpp:150] Setting up pool2
I0525 14:56:08.337934 23721 net.cpp:157] Top shape: 100 20 27 46 (2484000)
I0525 14:56:08.337944 23721 net.cpp:165] Memory required for data: 121340400
I0525 14:56:08.337954 23721 layer_factory.hpp:77] Creating layer conv3
I0525 14:56:08.337972 23721 net.cpp:106] Creating Layer conv3
I0525 14:56:08.337982 23721 net.cpp:454] conv3 <- pool2
I0525 14:56:08.337997 23721 net.cpp:411] conv3 -> conv3
I0525 14:56:08.339926 23721 net.cpp:150] Setting up conv3
I0525 14:56:08.339948 23721 net.cpp:157] Top shape: 100 28 22 44 (2710400)
I0525 14:56:08.339962 23721 net.cpp:165] Memory required for data: 132182000
I0525 14:56:08.339979 23721 layer_factory.hpp:77] Creating layer relu3
I0525 14:56:08.339995 23721 net.cpp:106] Creating Layer relu3
I0525 14:56:08.340006 23721 net.cpp:454] relu3 <- conv3
I0525 14:56:08.340018 23721 net.cpp:397] relu3 -> conv3 (in-place)
I0525 14:56:08.340487 23721 net.cpp:150] Setting up relu3
I0525 14:56:08.340504 23721 net.cpp:157] Top shape: 100 28 22 44 (2710400)
I0525 14:56:08.340515 23721 net.cpp:165] Memory required for data: 143023600
I0525 14:56:08.340525 23721 layer_factory.hpp:77] Creating layer pool3
I0525 14:56:08.340538 23721 net.cpp:106] Creating Layer pool3
I0525 14:56:08.340548 23721 net.cpp:454] pool3 <- conv3
I0525 14:56:08.340561 23721 net.cpp:411] pool3 -> pool3
I0525 14:56:08.340628 23721 net.cpp:150] Setting up pool3
I0525 14:56:08.340641 23721 net.cpp:157] Top shape: 100 28 11 44 (1355200)
I0525 14:56:08.340651 23721 net.cpp:165] Memory required for data: 148444400
I0525 14:56:08.340662 23721 layer_factory.hpp:77] Creating layer conv4
I0525 14:56:08.340677 23721 net.cpp:106] Creating Layer conv4
I0525 14:56:08.340687 23721 net.cpp:454] conv4 <- pool3
I0525 14:56:08.340701 23721 net.cpp:411] conv4 -> conv4
I0525 14:56:08.343649 23721 net.cpp:150] Setting up conv4
I0525 14:56:08.343678 23721 net.cpp:157] Top shape: 100 36 6 42 (907200)
I0525 14:56:08.343688 23721 net.cpp:165] Memory required for data: 152073200
I0525 14:56:08.343704 23721 layer_factory.hpp:77] Creating layer relu4
I0525 14:56:08.343719 23721 net.cpp:106] Creating Layer relu4
I0525 14:56:08.343729 23721 net.cpp:454] relu4 <- conv4
I0525 14:56:08.343741 23721 net.cpp:397] relu4 -> conv4 (in-place)
I0525 14:56:08.344207 23721 net.cpp:150] Setting up relu4
I0525 14:56:08.344223 23721 net.cpp:157] Top shape: 100 36 6 42 (907200)
I0525 14:56:08.344233 23721 net.cpp:165] Memory required for data: 155702000
I0525 14:56:08.344243 23721 layer_factory.hpp:77] Creating layer pool4
I0525 14:56:08.344255 23721 net.cpp:106] Creating Layer pool4
I0525 14:56:08.344265 23721 net.cpp:454] pool4 <- conv4
I0525 14:56:08.344277 23721 net.cpp:411] pool4 -> pool4
I0525 14:56:08.344346 23721 net.cpp:150] Setting up pool4
I0525 14:56:08.344359 23721 net.cpp:157] Top shape: 100 36 3 42 (453600)
I0525 14:56:08.344368 23721 net.cpp:165] Memory required for data: 157516400
I0525 14:56:08.344378 23721 layer_factory.hpp:77] Creating layer ip1
I0525 14:56:08.344399 23721 net.cpp:106] Creating Layer ip1
I0525 14:56:08.344409 23721 net.cpp:454] ip1 <- pool4
I0525 14:56:08.344424 23721 net.cpp:411] ip1 -> ip1
I0525 14:56:08.359805 23721 net.cpp:150] Setting up ip1
I0525 14:56:08.359833 23721 net.cpp:157] Top shape: 100 196 (19600)
I0525 14:56:08.359849 23721 net.cpp:165] Memory required for data: 157594800
I0525 14:56:08.359875 23721 layer_factory.hpp:77] Creating layer relu5
I0525 14:56:08.359891 23721 net.cpp:106] Creating Layer relu5
I0525 14:56:08.359902 23721 net.cpp:454] relu5 <- ip1
I0525 14:56:08.359916 23721 net.cpp:397] relu5 -> ip1 (in-place)
I0525 14:56:08.360256 23721 net.cpp:150] Setting up relu5
I0525 14:56:08.360270 23721 net.cpp:157] Top shape: 100 196 (19600)
I0525 14:56:08.360280 23721 net.cpp:165] Memory required for data: 157673200
I0525 14:56:08.360291 23721 layer_factory.hpp:77] Creating layer drop1
I0525 14:56:08.360311 23721 net.cpp:106] Creating Layer drop1
I0525 14:56:08.360321 23721 net.cpp:454] drop1 <- ip1
I0525 14:56:08.360333 23721 net.cpp:397] drop1 -> ip1 (in-place)
I0525 14:56:08.360393 23721 net.cpp:150] Setting up drop1
I0525 14:56:08.360406 23721 net.cpp:157] Top shape: 100 196 (19600)
I0525 14:56:08.360415 23721 net.cpp:165] Memory required for data: 157751600
I0525 14:56:08.360425 23721 layer_factory.hpp:77] Creating layer ip2
I0525 14:56:08.360442 23721 net.cpp:106] Creating Layer ip2
I0525 14:56:08.360453 23721 net.cpp:454] ip2 <- ip1
I0525 14:56:08.360466 23721 net.cpp:411] ip2 -> ip2
I0525 14:56:08.360932 23721 net.cpp:150] Setting up ip2
I0525 14:56:08.360945 23721 net.cpp:157] Top shape: 100 98 (9800)
I0525 14:56:08.360955 23721 net.cpp:165] Memory required for data: 157790800
I0525 14:56:08.360971 23721 layer_factory.hpp:77] Creating layer relu6
I0525 14:56:08.360983 23721 net.cpp:106] Creating Layer relu6
I0525 14:56:08.360993 23721 net.cpp:454] relu6 <- ip2
I0525 14:56:08.361004 23721 net.cpp:397] relu6 -> ip2 (in-place)
I0525 14:56:08.361529 23721 net.cpp:150] Setting up relu6
I0525 14:56:08.361546 23721 net.cpp:157] Top shape: 100 98 (9800)
I0525 14:56:08.361555 23721 net.cpp:165] Memory required for data: 157830000
I0525 14:56:08.361565 23721 layer_factory.hpp:77] Creating layer drop2
I0525 14:56:08.361578 23721 net.cpp:106] Creating Layer drop2
I0525 14:56:08.361588 23721 net.cpp:454] drop2 <- ip2
I0525 14:56:08.361600 23721 net.cpp:397] drop2 -> ip2 (in-place)
I0525 14:56:08.361644 23721 net.cpp:150] Setting up drop2
I0525 14:56:08.361656 23721 net.cpp:157] Top shape: 100 98 (9800)
I0525 14:56:08.361666 23721 net.cpp:165] Memory required for data: 157869200
I0525 14:56:08.361676 23721 layer_factory.hpp:77] Creating layer ip3
I0525 14:56:08.361690 23721 net.cpp:106] Creating Layer ip3
I0525 14:56:08.361699 23721 net.cpp:454] ip3 <- ip2
I0525 14:56:08.361709 23721 net.cpp:411] ip3 -> ip3
I0525 14:56:08.361920 23721 net.cpp:150] Setting up ip3
I0525 14:56:08.361933 23721 net.cpp:157] Top shape: 100 11 (1100)
I0525 14:56:08.361943 23721 net.cpp:165] Memory required for data: 157873600
I0525 14:56:08.361958 23721 layer_factory.hpp:77] Creating layer drop3
I0525 14:56:08.361971 23721 net.cpp:106] Creating Layer drop3
I0525 14:56:08.361981 23721 net.cpp:454] drop3 <- ip3
I0525 14:56:08.361994 23721 net.cpp:397] drop3 -> ip3 (in-place)
I0525 14:56:08.362032 23721 net.cpp:150] Setting up drop3
I0525 14:56:08.362046 23721 net.cpp:157] Top shape: 100 11 (1100)
I0525 14:56:08.362056 23721 net.cpp:165] Memory required for data: 157878000
I0525 14:56:08.362063 23721 layer_factory.hpp:77] Creating layer loss
I0525 14:56:08.362082 23721 net.cpp:106] Creating Layer loss
I0525 14:56:08.362092 23721 net.cpp:454] loss <- ip3
I0525 14:56:08.362103 23721 net.cpp:454] loss <- label
I0525 14:56:08.362115 23721 net.cpp:411] loss -> loss
I0525 14:56:08.362131 23721 layer_factory.hpp:77] Creating layer loss
…
I0525 14:56:08.364894 23721 solver.cpp:181] Creating test net (#0) specified by net file: /lustre/atlas/proj-shared/hep105/caffe_titan/caffe_workflow/logs_bslr/bs_100_lr_0.0015_2016-05-20T15.49.24.741074.prototxt
I0525 14:56:08.364966 23721 net.cpp:322] The NetState phase (1) differed from the phase (0) specified by a rule in layer data_hdf5
I0525 14:56:08.365319 23721 net.cpp:49] Initializing net from parameters: 
name: "caffe_test_127x50_x_unshifted"
state {
  phase: TEST
}
layer {
  name: "data_hdf5"
  type: "HDF5Data"
  top: "data"
  top: "label"
  include {
    phase: TEST
  }
  hdf5_data_param {
    source: "/lustre/atlas/proj-shared/hep105/caffe_titan/minosmatch_nukecczdefs_127x50_x_unshifted_me1Bmc.testlist"
    batch_size: 100
  }
}
layer {
  name: "conv1"
  type: "Convolution"
  bottom: "data"
  top: "conv1"
  convolution_param {
    num_output: 12
    pad: 0
    stride: 1
    weight_filler {
      type: "xavier"
    }
    bias_filler {
      type: "constant"
    }
    kernel_h: 8
    kernel_w: 3
  }
}
layer {
  name: "relu1"
  type: "ReLU"
  bottom: "conv1"
  top: "conv1"
}
layer {
  name: "pool1"
  type: "Pooling"
  bottom: "conv1"
  top: "pool1"
  pooling_param {
    pool: MAX
    kernel_h: 2
    kernel_w: 1
    stride_h: 2
    stride_w: 1
  }
}
layer {
  name: "conv2"
  type: "Convolution"
  bottom: "pool1"
  top: "conv2"
  convolution_param {
    num_output: 20
    pad: 0
    stride: 1
    weight_filler {
      type: "xavier"
    }
    bias_filler {
      type: "constant"
    }
    kernel_h: 7
    kernel_w: 3
  }
}
layer {
  name: "relu2"
  type: "ReLU"
  bottom: "conv2"
  top: "conv2"
}
layer {
  name: "pool2"
  type: "Pooling"
  bottom: "conv2"
  top: "pool2"
  pooling_param {
    pool: MAX
    kernel_h: 2
    kernel_w: 1
    stride_h: 2
    stride_w: 1
  }
}
layer {
  name: "conv3"
  type: "Convolution"
  bottom: "pool2"
  top: "conv3"
  convolution_param {
    num_output: 28
    pad: 0
    stride: 1
    weight_filler {
      type: "xavier"
    }
    bias_filler {
      type: "constant"
    }
    kernel_h: 6
    kernel_w: 3
  }
}
layer {
  name: "relu3"
  type: "ReLU"
  bottom: "conv3"
  top: "conv3"
}
layer {
  name: "pool3"
  type: "Pooling"
  bottom: "conv3"
  top: "pool3"
  pooling_param {
    pool: MAX
    kernel_h: 2
    kernel_w: 1
    stride_h: 2
    stride_w: 1
  }
}
layer {
  name: "conv4"
  type: "Convolution"
  bottom: "pool3"
  top: "conv4"
  convolution_param {
    num_output: 36
    pad: 0
    stride: 1
    weight_filler {
      type: "xavier"
    }
    bias_filler {
      type: "constant"
    }
    kernel_h: 6
    kernel_w: 3
  }
}
layer {
  name: "relu4"
  type: "ReLU"
  bottom: "conv4"
  top: "conv4"
}
layer {
  name: "pool4"
  type: "Pooling"
  bottom: "conv4"
  top: "pool4"
  pooling_param {
    pool: MAX
    kernel_h: 2
    kernel_w: 1
    stride_h: 2
    stride_w: 1
  }
}
layer {
  name: "ip1"
  type: "InnerProduct"
  bottom: "pool4"
  top: "ip1"
  inner_product_param {
    num_output: 196
    weight_filler {
      type: "xavier"
    }
    bias_filler {
      type: "constant"
    }
  }
}
layer {
  name: "relu5"
  type: "ReLU"
  bottom: "ip1"
  top: "ip1"
}
layer {
  name: "drop1"
  type: "Dropout"
  bottom: "ip1"
  top: "ip1"
  dropout_param {
    dropout_ratio: 0.5
  }
}
layer {
  name: "ip2"
  type: "InnerProduct"
  bottom: "ip1"
  top: "ip2"
  inner_product_param {
    num_output: 98
    weight_filler {
      type: "xavier"
    }
    bias_filler {
      type: "constant"
    }
  }
}
layer {
  name: "relu6"
  type: "ReLU"
  bottom: "ip2"
  top: "ip2"
}
layer {
  name: "drop2"
  type: "Dropout"
  bottom: "ip2"
  top: "ip2"
  dropout_param {
    dropout_ratio: 0.5
  }
}
layer {
  name: "ip3"
  type: "InnerProduct"
  bottom: "ip2"
  top: "ip3"
  inner_product_param {
    num_output: 11
    weight_filler {
      type: "xavier"
    }
    bias_filler {
      type: "constant"
    }
  }
}
layer {
  name: "drop3"
  type: "Dropout"
  bottom: "ip3"
  top: "ip3"
  dropout_param {
    dropout_ratio: 0.5
  }
}
layer {
  name: "accuracy"
  type: "Accuracy"
  bottom: "ip3"
  bottom: "label"
  top: "accuracy"
  include {
    phase: TEST
  }
}
layer {
  name: "loss"
  type: "SoftmaxWithLoss"
  bottom: "ip3"
  bottom: "label"
  top: "loss"
}
I0525 14:56:08.365509 23721 layer_factory.hpp:77] Creating layer data_hdf5
I0525 14:56:08.365523 23721 net.cpp:106] Creating Layer data_hdf5
I0525 14:56:08.365536 23721 net.cpp:411] data_hdf5 -> data
I0525 14:56:08.365553 23721 net.cpp:411] data_hdf5 -> label
I0525 14:56:08.365567 23721 hdf5_data_layer.cpp:79] Loading list of HDF5 filenames from: /lustre/atlas/proj-shared/hep105/caffe_titan/minosmatch_nukecczdefs_127x50_x_unshifted_me1Bmc.testlist
I0525 14:56:08.366925 23721 hdf5_data_layer.cpp:93] Number of HDF5 files: 3
I0525 14:56:29.661111 23721 net.cpp:150] Setting up data_hdf5
I0525 14:56:29.661276 23721 net.cpp:157] Top shape: 100 1 127 50 (635000)
I0525 14:56:29.661290 23721 net.cpp:157] Top shape: 100 (100)
I0525 14:56:29.661301 23721 net.cpp:165] Memory required for data: 2540400
I0525 14:56:29.661315 23721 layer_factory.hpp:77] Creating layer label_data_hdf5_1_split
I0525 14:56:29.661344 23721 net.cpp:106] Creating Layer label_data_hdf5_1_split
I0525 14:56:29.661355 23721 net.cpp:454] label_data_hdf5_1_split <- label
I0525 14:56:29.661370 23721 net.cpp:411] label_data_hdf5_1_split -> label_data_hdf5_1_split_0
I0525 14:56:29.661391 23721 net.cpp:411] label_data_hdf5_1_split -> label_data_hdf5_1_split_1
I0525 14:56:29.661463 23721 net.cpp:150] Setting up label_data_hdf5_1_split
I0525 14:56:29.661476 23721 net.cpp:157] Top shape: 100 (100)
I0525 14:56:29.661489 23721 net.cpp:157] Top shape: 100 (100)
I0525 14:56:29.661497 23721 net.cpp:165] Memory required for data: 2541200
I0525 14:56:29.661505 23721 layer_factory.hpp:77] Creating layer conv1
I0525 14:56:29.661526 23721 net.cpp:106] Creating Layer conv1
I0525 14:56:29.661535 23721 net.cpp:454] conv1 <- data
I0525 14:56:29.661550 23721 net.cpp:411] conv1 -> conv1
I0525 14:56:29.663511 23721 net.cpp:150] Setting up conv1
I0525 14:56:29.663530 23721 net.cpp:157] Top shape: 100 12 120 48 (6912000)
I0525 14:56:29.663545 23721 net.cpp:165] Memory required for data: 30189200
I0525 14:56:29.663566 23721 layer_factory.hpp:77] Creating layer relu1
I0525 14:56:29.663581 23721 net.cpp:106] Creating Layer relu1
I0525 14:56:29.663591 23721 net.cpp:454] relu1 <- conv1
I0525 14:56:29.663604 23721 net.cpp:397] relu1 -> conv1 (in-place)
I0525 14:56:29.664100 23721 net.cpp:150] Setting up relu1
I0525 14:56:29.664116 23721 net.cpp:157] Top shape: 100 12 120 48 (6912000)
I0525 14:56:29.664127 23721 net.cpp:165] Memory required for data: 57837200
I0525 14:56:29.664139 23721 layer_factory.hpp:77] Creating layer pool1
I0525 14:56:29.664155 23721 net.cpp:106] Creating Layer pool1
I0525 14:56:29.664165 23721 net.cpp:454] pool1 <- conv1
I0525 14:56:29.664177 23721 net.cpp:411] pool1 -> pool1
I0525 14:56:29.664252 23721 net.cpp:150] Setting up pool1
I0525 14:56:29.664266 23721 net.cpp:157] Top shape: 100 12 60 48 (3456000)
I0525 14:56:29.664275 23721 net.cpp:165] Memory required for data: 71661200
I0525 14:56:29.664286 23721 layer_factory.hpp:77] Creating layer conv2
I0525 14:56:29.664304 23721 net.cpp:106] Creating Layer conv2
I0525 14:56:29.664314 23721 net.cpp:454] conv2 <- pool1
I0525 14:56:29.664326 23721 net.cpp:411] conv2 -> conv2
I0525 14:56:29.666244 23721 net.cpp:150] Setting up conv2
I0525 14:56:29.666267 23721 net.cpp:157] Top shape: 100 20 54 46 (4968000)
I0525 14:56:29.666280 23721 net.cpp:165] Memory required for data: 91533200
I0525 14:56:29.666297 23721 layer_factory.hpp:77] Creating layer relu2
I0525 14:56:29.666311 23721 net.cpp:106] Creating Layer relu2
I0525 14:56:29.666321 23721 net.cpp:454] relu2 <- conv2
I0525 14:56:29.666332 23721 net.cpp:397] relu2 -> conv2 (in-place)
I0525 14:56:29.666676 23721 net.cpp:150] Setting up relu2
I0525 14:56:29.666690 23721 net.cpp:157] Top shape: 100 20 54 46 (4968000)
I0525 14:56:29.666700 23721 net.cpp:165] Memory required for data: 111405200
I0525 14:56:29.666710 23721 layer_factory.hpp:77] Creating layer pool2
I0525 14:56:29.666723 23721 net.cpp:106] Creating Layer pool2
I0525 14:56:29.666733 23721 net.cpp:454] pool2 <- conv2
I0525 14:56:29.666745 23721 net.cpp:411] pool2 -> pool2
I0525 14:56:29.666818 23721 net.cpp:150] Setting up pool2
I0525 14:56:29.666831 23721 net.cpp:157] Top shape: 100 20 27 46 (2484000)
I0525 14:56:29.666841 23721 net.cpp:165] Memory required for data: 121341200
I0525 14:56:29.666851 23721 layer_factory.hpp:77] Creating layer conv3
I0525 14:56:29.666870 23721 net.cpp:106] Creating Layer conv3
I0525 14:56:29.666882 23721 net.cpp:454] conv3 <- pool2
I0525 14:56:29.666894 23721 net.cpp:411] conv3 -> conv3
I0525 14:56:29.668875 23721 net.cpp:150] Setting up conv3
I0525 14:56:29.668895 23721 net.cpp:157] Top shape: 100 28 22 44 (2710400)
I0525 14:56:29.668907 23721 net.cpp:165] Memory required for data: 132182800
I0525 14:56:29.668939 23721 layer_factory.hpp:77] Creating layer relu3
I0525 14:56:29.668953 23721 net.cpp:106] Creating Layer relu3
I0525 14:56:29.668963 23721 net.cpp:454] relu3 <- conv3
I0525 14:56:29.668977 23721 net.cpp:397] relu3 -> conv3 (in-place)
I0525 14:56:29.669450 23721 net.cpp:150] Setting up relu3
I0525 14:56:29.669466 23721 net.cpp:157] Top shape: 100 28 22 44 (2710400)
I0525 14:56:29.669476 23721 net.cpp:165] Memory required for data: 143024400
I0525 14:56:29.669486 23721 layer_factory.hpp:77] Creating layer pool3
I0525 14:56:29.669499 23721 net.cpp:106] Creating Layer pool3
I0525 14:56:29.669508 23721 net.cpp:454] pool3 <- conv3
I0525 14:56:29.669523 23721 net.cpp:411] pool3 -> pool3
I0525 14:56:29.669594 23721 net.cpp:150] Setting up pool3
I0525 14:56:29.669606 23721 net.cpp:157] Top shape: 100 28 11 44 (1355200)
I0525 14:56:29.669616 23721 net.cpp:165] Memory required for data: 148445200
I0525 14:56:29.669625 23721 layer_factory.hpp:77] Creating layer conv4
I0525 14:56:29.669643 23721 net.cpp:106] Creating Layer conv4
I0525 14:56:29.669653 23721 net.cpp:454] conv4 <- pool3
I0525 14:56:29.669667 23721 net.cpp:411] conv4 -> conv4
I0525 14:56:29.671761 23721 net.cpp:150] Setting up conv4
I0525 14:56:29.671782 23721 net.cpp:157] Top shape: 100 36 6 42 (907200)
I0525 14:56:29.671795 23721 net.cpp:165] Memory required for data: 152074000
I0525 14:56:29.671809 23721 layer_factory.hpp:77] Creating layer relu4
I0525 14:56:29.671823 23721 net.cpp:106] Creating Layer relu4
I0525 14:56:29.671833 23721 net.cpp:454] relu4 <- conv4
I0525 14:56:29.671846 23721 net.cpp:397] relu4 -> conv4 (in-place)
I0525 14:56:29.672322 23721 net.cpp:150] Setting up relu4
I0525 14:56:29.672338 23721 net.cpp:157] Top shape: 100 36 6 42 (907200)
I0525 14:56:29.672348 23721 net.cpp:165] Memory required for data: 155702800
I0525 14:56:29.672358 23721 layer_factory.hpp:77] Creating layer pool4
I0525 14:56:29.672371 23721 net.cpp:106] Creating Layer pool4
I0525 14:56:29.672380 23721 net.cpp:454] pool4 <- conv4
I0525 14:56:29.672394 23721 net.cpp:411] pool4 -> pool4
I0525 14:56:29.672464 23721 net.cpp:150] Setting up pool4
I0525 14:56:29.672477 23721 net.cpp:157] Top shape: 100 36 3 42 (453600)
I0525 14:56:29.672487 23721 net.cpp:165] Memory required for data: 157517200
I0525 14:56:29.672497 23721 layer_factory.hpp:77] Creating layer ip1
I0525 14:56:29.672513 23721 net.cpp:106] Creating Layer ip1
I0525 14:56:29.672523 23721 net.cpp:454] ip1 <- pool4
I0525 14:56:29.672538 23721 net.cpp:411] ip1 -> ip1
I0525 14:56:29.687937 23721 net.cpp:150] Setting up ip1
I0525 14:56:29.687963 23721 net.cpp:157] Top shape: 100 196 (19600)
I0525 14:56:29.687976 23721 net.cpp:165] Memory required for data: 157595600
I0525 14:56:29.687999 23721 layer_factory.hpp:77] Creating layer relu5
I0525 14:56:29.688014 23721 net.cpp:106] Creating Layer relu5
I0525 14:56:29.688024 23721 net.cpp:454] relu5 <- ip1
I0525 14:56:29.688037 23721 net.cpp:397] relu5 -> ip1 (in-place)
I0525 14:56:29.688386 23721 net.cpp:150] Setting up relu5
I0525 14:56:29.688401 23721 net.cpp:157] Top shape: 100 196 (19600)
I0525 14:56:29.688410 23721 net.cpp:165] Memory required for data: 157674000
I0525 14:56:29.688421 23721 layer_factory.hpp:77] Creating layer drop1
I0525 14:56:29.688439 23721 net.cpp:106] Creating Layer drop1
I0525 14:56:29.688448 23721 net.cpp:454] drop1 <- ip1
I0525 14:56:29.688462 23721 net.cpp:397] drop1 -> ip1 (in-place)
I0525 14:56:29.688506 23721 net.cpp:150] Setting up drop1
I0525 14:56:29.688519 23721 net.cpp:157] Top shape: 100 196 (19600)
I0525 14:56:29.688529 23721 net.cpp:165] Memory required for data: 157752400
I0525 14:56:29.688539 23721 layer_factory.hpp:77] Creating layer ip2
I0525 14:56:29.688554 23721 net.cpp:106] Creating Layer ip2
I0525 14:56:29.688562 23721 net.cpp:454] ip2 <- ip1
I0525 14:56:29.688576 23721 net.cpp:411] ip2 -> ip2
I0525 14:56:29.689054 23721 net.cpp:150] Setting up ip2
I0525 14:56:29.689067 23721 net.cpp:157] Top shape: 100 98 (9800)
I0525 14:56:29.689077 23721 net.cpp:165] Memory required for data: 157791600
I0525 14:56:29.689093 23721 layer_factory.hpp:77] Creating layer relu6
I0525 14:56:29.689119 23721 net.cpp:106] Creating Layer relu6
I0525 14:56:29.689129 23721 net.cpp:454] relu6 <- ip2
I0525 14:56:29.689142 23721 net.cpp:397] relu6 -> ip2 (in-place)
I0525 14:56:29.689682 23721 net.cpp:150] Setting up relu6
I0525 14:56:29.689697 23721 net.cpp:157] Top shape: 100 98 (9800)
I0525 14:56:29.689707 23721 net.cpp:165] Memory required for data: 157830800
I0525 14:56:29.689718 23721 layer_factory.hpp:77] Creating layer drop2
I0525 14:56:29.689731 23721 net.cpp:106] Creating Layer drop2
I0525 14:56:29.689741 23721 net.cpp:454] drop2 <- ip2
I0525 14:56:29.689754 23721 net.cpp:397] drop2 -> ip2 (in-place)
I0525 14:56:29.689798 23721 net.cpp:150] Setting up drop2
I0525 14:56:29.689811 23721 net.cpp:157] Top shape: 100 98 (9800)
I0525 14:56:29.689821 23721 net.cpp:165] Memory required for data: 157870000
I0525 14:56:29.689831 23721 layer_factory.hpp:77] Creating layer ip3
I0525 14:56:29.689846 23721 net.cpp:106] Creating Layer ip3
I0525 14:56:29.689856 23721 net.cpp:454] ip3 <- ip2
I0525 14:56:29.689868 23721 net.cpp:411] ip3 -> ip3
I0525 14:56:29.690094 23721 net.cpp:150] Setting up ip3
I0525 14:56:29.690107 23721 net.cpp:157] Top shape: 100 11 (1100)
I0525 14:56:29.690117 23721 net.cpp:165] Memory required for data: 157874400
I0525 14:56:29.690134 23721 layer_factory.hpp:77] Creating layer drop3
I0525 14:56:29.690146 23721 net.cpp:106] Creating Layer drop3
I0525 14:56:29.690155 23721 net.cpp:454] drop3 <- ip3
I0525 14:56:29.690168 23721 net.cpp:397] drop3 -> ip3 (in-place)
I0525 14:56:29.690210 23721 net.cpp:150] Setting up drop3
I0525 14:56:29.690223 23721 net.cpp:157] Top shape: 100 11 (1100)
I0525 14:56:29.690232 23721 net.cpp:165] Memory required for data: 157878800
I0525 14:56:29.690240 23721 layer_factory.hpp:77] Creating layer ip3_drop3_0_split
I0525 14:56:29.690255 23721 net.cpp:106] Creating Layer ip3_drop3_0_split
I0525 14:56:29.690265 23721 net.cpp:454] ip3_drop3_0_split <- ip3
I0525 14:56:29.690277 23721 net.cpp:411] ip3_drop3_0_split -> ip3_drop3_0_split_0
I0525 14:56:29.690294 23721 net.cpp:411] ip3_drop3_0_split -> ip3_drop3_0_split_1
I0525 14:56:29.690366 23721 net.cpp:150] Setting up ip3_drop3_0_split
I0525 14:56:29.690378 23721 net.cpp:157] Top shape: 100 11 (1100)
I0525 14:56:29.690390 23721 net.cpp:157] Top shape: 100 11 (1100)
I0525 14:56:29.690400 23721 net.cpp:165] Memory required for data: 157887600
I0525 14:56:29.690410 23721 layer_factory.hpp:77] Creating layer accuracy
I0525 14:56:29.690431 23721 net.cpp:106] Creating Layer accuracy
I0525 14:56:29.690441 23721 net.cpp:454] accuracy <- ip3_drop3_0_split_0
I0525 14:56:29.690453 23721 net.cpp:454] accuracy <- label_data_hdf5_1_split_0
I0525 14:56:29.690466 23721 net.cpp:411] accuracy -> accuracy
…
