…
I0525 20:54:55.198329 22368 net.cpp:322] The NetState phase (0) differed from the phase (1) specified by a rule in layer data_hdf5
I0525 20:54:55.198395 22368 net.cpp:322] The NetState phase (0) differed from the phase (1) specified by a rule in layer accuracy
I0525 20:54:55.198768 22368 net.cpp:49] Initializing net from parameters: 
name: "caffe_test_127x50_x_unshifted"
state {
  phase: TRAIN
}
layer {
  name: "data_hdf5"
  type: "HDF5Data"
  top: "data"
  top: "label"
  include {
    phase: TRAIN
  }
  hdf5_data_param {
    source: "/lustre/atlas/proj-shared/hep105/caffe_titan/minosmatch_nukecczdefs_127x50_x_unshifted_me1Bmc.trainlist"
    batch_size: 100
  }
}
layer {
  name: "conv1"
  type: "Convolution"
  bottom: "data"
  top: "conv1"
  convolution_param {
    num_output: 12
    pad: 0
    stride: 1
    weight_filler {
      type: "xavier"
    }
    bias_filler {
      type: "constant"
    }
    kernel_h: 8
    kernel_w: 3
  }
}
layer {
  name: "relu1"
  type: "ReLU"
  bottom: "conv1"
  top: "conv1"
}
layer {
  name: "pool1"
  type: "Pooling"
  bottom: "conv1"
  top: "pool1"
  pooling_param {
    pool: MAX
    kernel_h: 2
    kernel_w: 1
    stride_h: 2
    stride_w: 1
  }
}
layer {
  name: "conv2"
  type: "Convolution"
  bottom: "pool1"
  top: "conv2"
  convolution_param {
    num_output: 20
    pad: 0
    stride: 1
    weight_filler {
      type: "xavier"
    }
    bias_filler {
      type: "constant"
    }
    kernel_h: 7
    kernel_w: 3
  }
}
layer {
  name: "relu2"
  type: "ReLU"
  bottom: "conv2"
  top: "conv2"
}
layer {
  name: "pool2"
  type: "Pooling"
  bottom: "conv2"
  top: "pool2"
  pooling_param {
    pool: MAX
    kernel_h: 2
    kernel_w: 1
    stride_h: 2
    stride_w: 1
  }
}
layer {
  name: "conv3"
  type: "Convolution"
  bottom: "pool2"
  top: "conv3"
  convolution_param {
    num_output: 28
    pad: 0
    stride: 1
    weight_filler {
      type: "xavier"
    }
    bias_filler {
      type: "constant"
    }
    kernel_h: 6
    kernel_w: 3
  }
}
layer {
  name: "relu3"
  type: "ReLU"
  bottom: "conv3"
  top: "conv3"
}
layer {
  name: "pool3"
  type: "Pooling"
  bottom: "conv3"
  top: "pool3"
  pooling_param {
    pool: MAX
    kernel_h: 2
    kernel_w: 1
    stride_h: 2
    stride_w: 1
  }
}
layer {
  name: "conv4"
  type: "Convolution"
  bottom: "pool3"
  top: "conv4"
  convolution_param {
    num_output: 36
    pad: 0
    stride: 1
    weight_filler {
      type: "xavier"
    }
    bias_filler {
      type: "constant"
    }
    kernel_h: 6
    kernel_w: 3
  }
}
layer {
  name: "relu4"
  type: "ReLU"
  bottom: "conv4"
  top: "conv4"
}
layer {
  name: "pool4"
  type: "Pooling"
  bottom: "conv4"
  top: "pool4"
  pooling_param {
    pool: MAX
    kernel_h: 2
    kernel_w: 1
    stride_h: 2
    stride_w: 1
  }
}
layer {
  name: "ip1"
  type: "InnerProduct"
  bottom: "pool4"
  top: "ip1"
  inner_product_param {
    num_output: 196
    weight_filler {
      type: "xavier"
    }
    bias_filler {
      type: "constant"
    }
  }
}
layer {
  name: "relu5"
  type: "ReLU"
  bottom: "ip1"
  top: "ip1"
}
layer {
  name: "drop1"
  type: "Dropout"
  bottom: "ip1"
  top: "ip1"
  dropout_param {
    dropout_ratio: 0.5
  }
}
layer {
  name: "ip2"
  type: "InnerProduct"
  bottom: "ip1"
  top: "ip2"
  inner_product_param {
    num_output: 98
    weight_filler {
      type: "xavier"
    }
    bias_filler {
      type: "constant"
    }
  }
}
layer {
  name: "relu6"
  type: "ReLU"
  bottom: "ip2"
  top: "ip2"
}
layer {
  name: "drop2"
  type: "Dropout"
  bottom: "ip2"
  top: "ip2"
  dropout_param {
    dropout_ratio: 0.5
  }
}
layer {
  name: "ip3"
  type: "InnerProduct"
  bottom: "ip2"
  top: "ip3"
  inner_product_param {
    num_output: 11
    weight_filler {
      type: "xavier"
    }
    bias_filler {
      type: "constant"
    }
  }
}
layer {
  name: "drop3"
  type: "Dropout"
  bottom: "ip3"
  top: "ip3"
  dropout_param {
    dropout_ratio: 0.5
  }
}
layer {
  name: "loss"
  type: "SoftmaxWithLoss"
  bottom: "ip3"
  bottom: "label"
  top: "loss"
}
I0525 20:54:55.198971 22368 layer_factory.hpp:77] Creating layer data_hdf5
I0525 20:54:55.199007 22368 net.cpp:106] Creating Layer data_hdf5
I0525 20:54:55.199025 22368 net.cpp:411] data_hdf5 -> data
I0525 20:54:55.199059 22368 net.cpp:411] data_hdf5 -> label
I0525 20:54:55.199100 22368 hdf5_data_layer.cpp:79] Loading list of HDF5 filenames from: /lustre/atlas/proj-shared/hep105/caffe_titan/minosmatch_nukecczdefs_127x50_x_unshifted_me1Bmc.trainlist
I0525 20:54:55.216652 22368 hdf5_data_layer.cpp:93] Number of HDF5 files: 15
I0525 20:54:55.236476 22368 hdf5.cpp:32] Datatype class: H5T_FLOAT
I0525 20:55:16.782124 22368 hdf5.cpp:35] Datatype class: H5T_INTEGER
I0525 20:55:16.787220 22368 net.cpp:150] Setting up data_hdf5
I0525 20:55:16.787261 22368 net.cpp:157] Top shape: 100 1 127 50 (635000)
I0525 20:55:16.787277 22368 net.cpp:157] Top shape: 100 (100)
I0525 20:55:16.787291 22368 net.cpp:165] Memory required for data: 2540400
I0525 20:55:16.787309 22368 layer_factory.hpp:77] Creating layer conv1
I0525 20:55:16.787356 22368 net.cpp:106] Creating Layer conv1
I0525 20:55:16.787370 22368 net.cpp:454] conv1 <- data
I0525 20:55:16.787395 22368 net.cpp:411] conv1 -> conv1
I0525 20:55:20.188161 22368 net.cpp:150] Setting up conv1
I0525 20:55:20.188216 22368 net.cpp:157] Top shape: 100 12 120 48 (6912000)
I0525 20:55:20.188240 22368 net.cpp:165] Memory required for data: 30188400
I0525 20:55:20.188269 22368 layer_factory.hpp:77] Creating layer relu1
I0525 20:55:20.188292 22368 net.cpp:106] Creating Layer relu1
I0525 20:55:20.188311 22368 net.cpp:454] relu1 <- conv1
I0525 20:55:20.188328 22368 net.cpp:397] relu1 -> conv1 (in-place)
I0525 20:55:20.188887 22368 net.cpp:150] Setting up relu1
I0525 20:55:20.188910 22368 net.cpp:157] Top shape: 100 12 120 48 (6912000)
I0525 20:55:20.188925 22368 net.cpp:165] Memory required for data: 57836400
I0525 20:55:20.188941 22368 layer_factory.hpp:77] Creating layer pool1
I0525 20:55:20.188967 22368 net.cpp:106] Creating Layer pool1
I0525 20:55:20.188983 22368 net.cpp:454] pool1 <- conv1
I0525 20:55:20.188999 22368 net.cpp:411] pool1 -> pool1
I0525 20:55:20.189092 22368 net.cpp:150] Setting up pool1
I0525 20:55:20.189111 22368 net.cpp:157] Top shape: 100 12 60 48 (3456000)
I0525 20:55:20.189126 22368 net.cpp:165] Memory required for data: 71660400
I0525 20:55:20.189146 22368 layer_factory.hpp:77] Creating layer conv2
I0525 20:55:20.189170 22368 net.cpp:106] Creating Layer conv2
I0525 20:55:20.189190 22368 net.cpp:454] conv2 <- pool1
I0525 20:55:20.189206 22368 net.cpp:411] conv2 -> conv2
I0525 20:55:20.191956 22368 net.cpp:150] Setting up conv2
I0525 20:55:20.191987 22368 net.cpp:157] Top shape: 100 20 54 46 (4968000)
I0525 20:55:20.192003 22368 net.cpp:165] Memory required for data: 91532400
I0525 20:55:20.192030 22368 layer_factory.hpp:77] Creating layer relu2
I0525 20:55:20.192059 22368 net.cpp:106] Creating Layer relu2
I0525 20:55:20.192073 22368 net.cpp:454] relu2 <- conv2
I0525 20:55:20.192090 22368 net.cpp:397] relu2 -> conv2 (in-place)
I0525 20:55:20.192445 22368 net.cpp:150] Setting up relu2
I0525 20:55:20.192466 22368 net.cpp:157] Top shape: 100 20 54 46 (4968000)
I0525 20:55:20.192478 22368 net.cpp:165] Memory required for data: 111404400
I0525 20:55:20.192490 22368 layer_factory.hpp:77] Creating layer pool2
I0525 20:55:20.192528 22368 net.cpp:106] Creating Layer pool2
I0525 20:55:20.192541 22368 net.cpp:454] pool2 <- conv2
I0525 20:55:20.192564 22368 net.cpp:411] pool2 -> pool2
I0525 20:55:20.192659 22368 net.cpp:150] Setting up pool2
I0525 20:55:20.192680 22368 net.cpp:157] Top shape: 100 20 27 46 (2484000)
I0525 20:55:20.192699 22368 net.cpp:165] Memory required for data: 121340400
I0525 20:55:20.192713 22368 layer_factory.hpp:77] Creating layer conv3
I0525 20:55:20.192734 22368 net.cpp:106] Creating Layer conv3
I0525 20:55:20.192749 22368 net.cpp:454] conv3 <- pool2
I0525 20:55:20.192764 22368 net.cpp:411] conv3 -> conv3
I0525 20:55:20.194702 22368 net.cpp:150] Setting up conv3
I0525 20:55:20.194727 22368 net.cpp:157] Top shape: 100 28 22 44 (2710400)
I0525 20:55:20.194748 22368 net.cpp:165] Memory required for data: 132182000
I0525 20:55:20.194771 22368 layer_factory.hpp:77] Creating layer relu3
I0525 20:55:20.194802 22368 net.cpp:106] Creating Layer relu3
I0525 20:55:20.194815 22368 net.cpp:454] relu3 <- conv3
I0525 20:55:20.194831 22368 net.cpp:397] relu3 -> conv3 (in-place)
I0525 20:55:20.195317 22368 net.cpp:150] Setting up relu3
I0525 20:55:20.195340 22368 net.cpp:157] Top shape: 100 28 22 44 (2710400)
I0525 20:55:20.195353 22368 net.cpp:165] Memory required for data: 143023600
I0525 20:55:20.195369 22368 layer_factory.hpp:77] Creating layer pool3
I0525 20:55:20.195392 22368 net.cpp:106] Creating Layer pool3
I0525 20:55:20.195406 22368 net.cpp:454] pool3 <- conv3
I0525 20:55:20.195422 22368 net.cpp:411] pool3 -> pool3
I0525 20:55:20.195502 22368 net.cpp:150] Setting up pool3
I0525 20:55:20.195521 22368 net.cpp:157] Top shape: 100 28 11 44 (1355200)
I0525 20:55:20.195536 22368 net.cpp:165] Memory required for data: 148444400
I0525 20:55:20.195549 22368 layer_factory.hpp:77] Creating layer conv4
I0525 20:55:20.195574 22368 net.cpp:106] Creating Layer conv4
I0525 20:55:20.195587 22368 net.cpp:454] conv4 <- pool3
I0525 20:55:20.195605 22368 net.cpp:411] conv4 -> conv4
I0525 20:55:20.198585 22368 net.cpp:150] Setting up conv4
I0525 20:55:20.198617 22368 net.cpp:157] Top shape: 100 36 6 42 (907200)
I0525 20:55:20.198633 22368 net.cpp:165] Memory required for data: 152073200
I0525 20:55:20.198652 22368 layer_factory.hpp:77] Creating layer relu4
I0525 20:55:20.198685 22368 net.cpp:106] Creating Layer relu4
I0525 20:55:20.198699 22368 net.cpp:454] relu4 <- conv4
I0525 20:55:20.198715 22368 net.cpp:397] relu4 -> conv4 (in-place)
I0525 20:55:20.199203 22368 net.cpp:150] Setting up relu4
I0525 20:55:20.199225 22368 net.cpp:157] Top shape: 100 36 6 42 (907200)
I0525 20:55:20.199239 22368 net.cpp:165] Memory required for data: 155702000
I0525 20:55:20.199254 22368 layer_factory.hpp:77] Creating layer pool4
I0525 20:55:20.199277 22368 net.cpp:106] Creating Layer pool4
I0525 20:55:20.199291 22368 net.cpp:454] pool4 <- conv4
I0525 20:55:20.199307 22368 net.cpp:411] pool4 -> pool4
I0525 20:55:20.199390 22368 net.cpp:150] Setting up pool4
I0525 20:55:20.199412 22368 net.cpp:157] Top shape: 100 36 3 42 (453600)
I0525 20:55:20.199425 22368 net.cpp:165] Memory required for data: 157516400
I0525 20:55:20.199440 22368 layer_factory.hpp:77] Creating layer ip1
I0525 20:55:20.199467 22368 net.cpp:106] Creating Layer ip1
I0525 20:55:20.199481 22368 net.cpp:454] ip1 <- pool4
I0525 20:55:20.199496 22368 net.cpp:411] ip1 -> ip1
I0525 20:55:20.214987 22368 net.cpp:150] Setting up ip1
I0525 20:55:20.215016 22368 net.cpp:157] Top shape: 100 196 (19600)
I0525 20:55:20.215039 22368 net.cpp:165] Memory required for data: 157594800
I0525 20:55:20.215064 22368 layer_factory.hpp:77] Creating layer relu5
I0525 20:55:20.215083 22368 net.cpp:106] Creating Layer relu5
I0525 20:55:20.215107 22368 net.cpp:454] relu5 <- ip1
I0525 20:55:20.215124 22368 net.cpp:397] relu5 -> ip1 (in-place)
I0525 20:55:20.215483 22368 net.cpp:150] Setting up relu5
I0525 20:55:20.215503 22368 net.cpp:157] Top shape: 100 196 (19600)
I0525 20:55:20.215517 22368 net.cpp:165] Memory required for data: 157673200
I0525 20:55:20.215531 22368 layer_factory.hpp:77] Creating layer drop1
I0525 20:55:20.215555 22368 net.cpp:106] Creating Layer drop1
I0525 20:55:20.215569 22368 net.cpp:454] drop1 <- ip1
I0525 20:55:20.215590 22368 net.cpp:397] drop1 -> ip1 (in-place)
I0525 20:55:20.215656 22368 net.cpp:150] Setting up drop1
I0525 20:55:20.215672 22368 net.cpp:157] Top shape: 100 196 (19600)
I0525 20:55:20.215689 22368 net.cpp:165] Memory required for data: 157751600
I0525 20:55:20.215703 22368 layer_factory.hpp:77] Creating layer ip2
I0525 20:55:20.215731 22368 net.cpp:106] Creating Layer ip2
I0525 20:55:20.215744 22368 net.cpp:454] ip2 <- ip1
I0525 20:55:20.215759 22368 net.cpp:411] ip2 -> ip2
I0525 20:55:20.216253 22368 net.cpp:150] Setting up ip2
I0525 20:55:20.216272 22368 net.cpp:157] Top shape: 100 98 (9800)
I0525 20:55:20.216284 22368 net.cpp:165] Memory required for data: 157790800
I0525 20:55:20.216305 22368 layer_factory.hpp:77] Creating layer relu6
I0525 20:55:20.216327 22368 net.cpp:106] Creating Layer relu6
I0525 20:55:20.216341 22368 net.cpp:454] relu6 <- ip2
I0525 20:55:20.216356 22368 net.cpp:397] relu6 -> ip2 (in-place)
I0525 20:55:20.216909 22368 net.cpp:150] Setting up relu6
I0525 20:55:20.216933 22368 net.cpp:157] Top shape: 100 98 (9800)
I0525 20:55:20.216945 22368 net.cpp:165] Memory required for data: 157830000
I0525 20:55:20.216961 22368 layer_factory.hpp:77] Creating layer drop2
I0525 20:55:20.216984 22368 net.cpp:106] Creating Layer drop2
I0525 20:55:20.216997 22368 net.cpp:454] drop2 <- ip2
I0525 20:55:20.217013 22368 net.cpp:397] drop2 -> ip2 (in-place)
I0525 20:55:20.217069 22368 net.cpp:150] Setting up drop2
I0525 20:55:20.217085 22368 net.cpp:157] Top shape: 100 98 (9800)
I0525 20:55:20.217098 22368 net.cpp:165] Memory required for data: 157869200
I0525 20:55:20.217113 22368 layer_factory.hpp:77] Creating layer ip3
I0525 20:55:20.217128 22368 net.cpp:106] Creating Layer ip3
I0525 20:55:20.217144 22368 net.cpp:454] ip3 <- ip2
I0525 20:55:20.217165 22368 net.cpp:411] ip3 -> ip3
I0525 20:55:20.217391 22368 net.cpp:150] Setting up ip3
I0525 20:55:20.217409 22368 net.cpp:157] Top shape: 100 11 (1100)
I0525 20:55:20.217422 22368 net.cpp:165] Memory required for data: 157873600
I0525 20:55:20.217443 22368 layer_factory.hpp:77] Creating layer drop3
I0525 20:55:20.217465 22368 net.cpp:106] Creating Layer drop3
I0525 20:55:20.217478 22368 net.cpp:454] drop3 <- ip3
I0525 20:55:20.217494 22368 net.cpp:397] drop3 -> ip3 (in-place)
I0525 20:55:20.217540 22368 net.cpp:150] Setting up drop3
I0525 20:55:20.217562 22368 net.cpp:157] Top shape: 100 11 (1100)
I0525 20:55:20.217576 22368 net.cpp:165] Memory required for data: 157878000
I0525 20:55:20.217594 22368 layer_factory.hpp:77] Creating layer loss
I0525 20:55:20.217617 22368 net.cpp:106] Creating Layer loss
I0525 20:55:20.217631 22368 net.cpp:454] loss <- ip3
I0525 20:55:20.217651 22368 net.cpp:454] loss <- label
I0525 20:55:20.217667 22368 net.cpp:411] loss -> loss
I0525 20:55:20.217685 22368 layer_factory.hpp:77] Creating layer loss
…
I0525 20:55:20.220499 22368 solver.cpp:181] Creating test net (#0) specified by net file: /lustre/atlas/proj-shared/hep105/caffe_titan/caffe_workflow/logs_bslr/bs_100_lr_0.0040_2016-05-20T15.49.26.605425.prototxt
I0525 20:55:20.220587 22368 net.cpp:322] The NetState phase (1) differed from the phase (0) specified by a rule in layer data_hdf5
I0525 20:55:20.220963 22368 net.cpp:49] Initializing net from parameters: 
name: "caffe_test_127x50_x_unshifted"
state {
  phase: TEST
}
layer {
  name: "data_hdf5"
  type: "HDF5Data"
  top: "data"
  top: "label"
  include {
    phase: TEST
  }
  hdf5_data_param {
    source: "/lustre/atlas/proj-shared/hep105/caffe_titan/minosmatch_nukecczdefs_127x50_x_unshifted_me1Bmc.testlist"
    batch_size: 100
  }
}
layer {
  name: "conv1"
  type: "Convolution"
  bottom: "data"
  top: "conv1"
  convolution_param {
    num_output: 12
    pad: 0
    stride: 1
    weight_filler {
      type: "xavier"
    }
    bias_filler {
      type: "constant"
    }
    kernel_h: 8
    kernel_w: 3
  }
}
layer {
  name: "relu1"
  type: "ReLU"
  bottom: "conv1"
  top: "conv1"
}
layer {
  name: "pool1"
  type: "Pooling"
  bottom: "conv1"
  top: "pool1"
  pooling_param {
    pool: MAX
    kernel_h: 2
    kernel_w: 1
    stride_h: 2
    stride_w: 1
  }
}
layer {
  name: "conv2"
  type: "Convolution"
  bottom: "pool1"
  top: "conv2"
  convolution_param {
    num_output: 20
    pad: 0
    stride: 1
    weight_filler {
      type: "xavier"
    }
    bias_filler {
      type: "constant"
    }
    kernel_h: 7
    kernel_w: 3
  }
}
layer {
  name: "relu2"
  type: "ReLU"
  bottom: "conv2"
  top: "conv2"
}
layer {
  name: "pool2"
  type: "Pooling"
  bottom: "conv2"
  top: "pool2"
  pooling_param {
    pool: MAX
    kernel_h: 2
    kernel_w: 1
    stride_h: 2
    stride_w: 1
  }
}
layer {
  name: "conv3"
  type: "Convolution"
  bottom: "pool2"
  top: "conv3"
  convolution_param {
    num_output: 28
    pad: 0
    stride: 1
    weight_filler {
      type: "xavier"
    }
    bias_filler {
      type: "constant"
    }
    kernel_h: 6
    kernel_w: 3
  }
}
layer {
  name: "relu3"
  type: "ReLU"
  bottom: "conv3"
  top: "conv3"
}
layer {
  name: "pool3"
  type: "Pooling"
  bottom: "conv3"
  top: "pool3"
  pooling_param {
    pool: MAX
    kernel_h: 2
    kernel_w: 1
    stride_h: 2
    stride_w: 1
  }
}
layer {
  name: "conv4"
  type: "Convolution"
  bottom: "pool3"
  top: "conv4"
  convolution_param {
    num_output: 36
    pad: 0
    stride: 1
    weight_filler {
      type: "xavier"
    }
    bias_filler {
      type: "constant"
    }
    kernel_h: 6
    kernel_w: 3
  }
}
layer {
  name: "relu4"
  type: "ReLU"
  bottom: "conv4"
  top: "conv4"
}
layer {
  name: "pool4"
  type: "Pooling"
  bottom: "conv4"
  top: "pool4"
  pooling_param {
    pool: MAX
    kernel_h: 2
    kernel_w: 1
    stride_h: 2
    stride_w: 1
  }
}
layer {
  name: "ip1"
  type: "InnerProduct"
  bottom: "pool4"
  top: "ip1"
  inner_product_param {
    num_output: 196
    weight_filler {
      type: "xavier"
    }
    bias_filler {
      type: "constant"
    }
  }
}
layer {
  name: "relu5"
  type: "ReLU"
  bottom: "ip1"
  top: "ip1"
}
layer {
  name: "drop1"
  type: "Dropout"
  bottom: "ip1"
  top: "ip1"
  dropout_param {
    dropout_ratio: 0.5
  }
}
layer {
  name: "ip2"
  type: "InnerProduct"
  bottom: "ip1"
  top: "ip2"
  inner_product_param {
    num_output: 98
    weight_filler {
      type: "xavier"
    }
    bias_filler {
      type: "constant"
    }
  }
}
layer {
  name: "relu6"
  type: "ReLU"
  bottom: "ip2"
  top: "ip2"
}
layer {
  name: "drop2"
  type: "Dropout"
  bottom: "ip2"
  top: "ip2"
  dropout_param {
    dropout_ratio: 0.5
  }
}
layer {
  name: "ip3"
  type: "InnerProduct"
  bottom: "ip2"
  top: "ip3"
  inner_product_param {
    num_output: 11
    weight_filler {
      type: "xavier"
    }
    bias_filler {
      type: "constant"
    }
  }
}
layer {
  name: "drop3"
  type: "Dropout"
  bottom: "ip3"
  top: "ip3"
  dropout_param {
    dropout_ratio: 0.5
  }
}
layer {
  name: "accuracy"
  type: "Accuracy"
  bottom: "ip3"
  bottom: "label"
  top: "accuracy"
  include {
    phase: TEST
  }
}
layer {
  name: "loss"
  type: "SoftmaxWithLoss"
  bottom: "ip3"
  bottom: "label"
  top: "loss"
}
I0525 20:55:20.221184 22368 layer_factory.hpp:77] Creating layer data_hdf5
I0525 20:55:20.221204 22368 net.cpp:106] Creating Layer data_hdf5
I0525 20:55:20.221218 22368 net.cpp:411] data_hdf5 -> data
I0525 20:55:20.221238 22368 net.cpp:411] data_hdf5 -> label
I0525 20:55:20.221259 22368 hdf5_data_layer.cpp:79] Loading list of HDF5 filenames from: /lustre/atlas/proj-shared/hep105/caffe_titan/minosmatch_nukecczdefs_127x50_x_unshifted_me1Bmc.testlist
I0525 20:55:20.239300 22368 hdf5_data_layer.cpp:93] Number of HDF5 files: 3
I0525 20:55:41.644196 22368 net.cpp:150] Setting up data_hdf5
I0525 20:55:41.644362 22368 net.cpp:157] Top shape: 100 1 127 50 (635000)
I0525 20:55:41.644381 22368 net.cpp:157] Top shape: 100 (100)
I0525 20:55:41.644392 22368 net.cpp:165] Memory required for data: 2540400
I0525 20:55:41.644407 22368 layer_factory.hpp:77] Creating layer label_data_hdf5_1_split
I0525 20:55:41.644435 22368 net.cpp:106] Creating Layer label_data_hdf5_1_split
I0525 20:55:41.644454 22368 net.cpp:454] label_data_hdf5_1_split <- label
I0525 20:55:41.644490 22368 net.cpp:411] label_data_hdf5_1_split -> label_data_hdf5_1_split_0
I0525 20:55:41.644520 22368 net.cpp:411] label_data_hdf5_1_split -> label_data_hdf5_1_split_1
I0525 20:55:41.644606 22368 net.cpp:150] Setting up label_data_hdf5_1_split
I0525 20:55:41.644624 22368 net.cpp:157] Top shape: 100 (100)
I0525 20:55:41.644639 22368 net.cpp:157] Top shape: 100 (100)
I0525 20:55:41.644652 22368 net.cpp:165] Memory required for data: 2541200
I0525 20:55:41.644665 22368 layer_factory.hpp:77] Creating layer conv1
I0525 20:55:41.644697 22368 net.cpp:106] Creating Layer conv1
I0525 20:55:41.644711 22368 net.cpp:454] conv1 <- data
I0525 20:55:41.644728 22368 net.cpp:411] conv1 -> conv1
I0525 20:55:41.646680 22368 net.cpp:150] Setting up conv1
I0525 20:55:41.646705 22368 net.cpp:157] Top shape: 100 12 120 48 (6912000)
I0525 20:55:41.646728 22368 net.cpp:165] Memory required for data: 30189200
I0525 20:55:41.646750 22368 layer_factory.hpp:77] Creating layer relu1
I0525 20:55:41.646771 22368 net.cpp:106] Creating Layer relu1
I0525 20:55:41.646793 22368 net.cpp:454] relu1 <- conv1
I0525 20:55:41.646809 22368 net.cpp:397] relu1 -> conv1 (in-place)
I0525 20:55:41.647392 22368 net.cpp:150] Setting up relu1
I0525 20:55:41.647411 22368 net.cpp:157] Top shape: 100 12 120 48 (6912000)
I0525 20:55:41.647428 22368 net.cpp:165] Memory required for data: 57837200
I0525 20:55:41.647439 22368 layer_factory.hpp:77] Creating layer pool1
I0525 20:55:41.647460 22368 net.cpp:106] Creating Layer pool1
I0525 20:55:41.647480 22368 net.cpp:454] pool1 <- conv1
I0525 20:55:41.647498 22368 net.cpp:411] pool1 -> pool1
I0525 20:55:41.647586 22368 net.cpp:150] Setting up pool1
I0525 20:55:41.647604 22368 net.cpp:157] Top shape: 100 12 60 48 (3456000)
I0525 20:55:41.647617 22368 net.cpp:165] Memory required for data: 71661200
I0525 20:55:41.647629 22368 layer_factory.hpp:77] Creating layer conv2
I0525 20:55:41.647652 22368 net.cpp:106] Creating Layer conv2
I0525 20:55:41.647671 22368 net.cpp:454] conv2 <- pool1
I0525 20:55:41.647688 22368 net.cpp:411] conv2 -> conv2
I0525 20:55:41.649636 22368 net.cpp:150] Setting up conv2
I0525 20:55:41.649660 22368 net.cpp:157] Top shape: 100 20 54 46 (4968000)
I0525 20:55:41.649680 22368 net.cpp:165] Memory required for data: 91533200
I0525 20:55:41.649703 22368 layer_factory.hpp:77] Creating layer relu2
I0525 20:55:41.649722 22368 net.cpp:106] Creating Layer relu2
I0525 20:55:41.649744 22368 net.cpp:454] relu2 <- conv2
I0525 20:55:41.649760 22368 net.cpp:397] relu2 -> conv2 (in-place)
I0525 20:55:41.650110 22368 net.cpp:150] Setting up relu2
I0525 20:55:41.650130 22368 net.cpp:157] Top shape: 100 20 54 46 (4968000)
I0525 20:55:41.650143 22368 net.cpp:165] Memory required for data: 111405200
I0525 20:55:41.650158 22368 layer_factory.hpp:77] Creating layer pool2
I0525 20:55:41.650180 22368 net.cpp:106] Creating Layer pool2
I0525 20:55:41.650193 22368 net.cpp:454] pool2 <- conv2
I0525 20:55:41.650209 22368 net.cpp:411] pool2 -> pool2
I0525 20:55:41.650302 22368 net.cpp:150] Setting up pool2
I0525 20:55:41.650319 22368 net.cpp:157] Top shape: 100 20 27 46 (2484000)
I0525 20:55:41.650334 22368 net.cpp:165] Memory required for data: 121341200
I0525 20:55:41.650347 22368 layer_factory.hpp:77] Creating layer conv3
I0525 20:55:41.650378 22368 net.cpp:106] Creating Layer conv3
I0525 20:55:41.650391 22368 net.cpp:454] conv3 <- pool2
I0525 20:55:41.650408 22368 net.cpp:411] conv3 -> conv3
I0525 20:55:41.652427 22368 net.cpp:150] Setting up conv3
I0525 20:55:41.652452 22368 net.cpp:157] Top shape: 100 28 22 44 (2710400)
I0525 20:55:41.652472 22368 net.cpp:165] Memory required for data: 132182800
I0525 20:55:41.652519 22368 layer_factory.hpp:77] Creating layer relu3
I0525 20:55:41.652545 22368 net.cpp:106] Creating Layer relu3
I0525 20:55:41.652560 22368 net.cpp:454] relu3 <- conv3
I0525 20:55:41.652575 22368 net.cpp:397] relu3 -> conv3 (in-place)
I0525 20:55:41.653072 22368 net.cpp:150] Setting up relu3
I0525 20:55:41.653095 22368 net.cpp:157] Top shape: 100 28 22 44 (2710400)
I0525 20:55:41.653108 22368 net.cpp:165] Memory required for data: 143024400
I0525 20:55:41.653125 22368 layer_factory.hpp:77] Creating layer pool3
I0525 20:55:41.653148 22368 net.cpp:106] Creating Layer pool3
I0525 20:55:41.653162 22368 net.cpp:454] pool3 <- conv3
I0525 20:55:41.653178 22368 net.cpp:411] pool3 -> pool3
I0525 20:55:41.653264 22368 net.cpp:150] Setting up pool3
I0525 20:55:41.653281 22368 net.cpp:157] Top shape: 100 28 11 44 (1355200)
I0525 20:55:41.653296 22368 net.cpp:165] Memory required for data: 148445200
I0525 20:55:41.653308 22368 layer_factory.hpp:77] Creating layer conv4
I0525 20:55:41.653329 22368 net.cpp:106] Creating Layer conv4
I0525 20:55:41.653343 22368 net.cpp:454] conv4 <- pool3
I0525 20:55:41.653367 22368 net.cpp:411] conv4 -> conv4
I0525 20:55:41.655478 22368 net.cpp:150] Setting up conv4
I0525 20:55:41.655503 22368 net.cpp:157] Top shape: 100 36 6 42 (907200)
I0525 20:55:41.655524 22368 net.cpp:165] Memory required for data: 152074000
I0525 20:55:41.655542 22368 layer_factory.hpp:77] Creating layer relu4
I0525 20:55:41.655562 22368 net.cpp:106] Creating Layer relu4
I0525 20:55:41.655575 22368 net.cpp:454] relu4 <- conv4
I0525 20:55:41.655601 22368 net.cpp:397] relu4 -> conv4 (in-place)
I0525 20:55:41.656090 22368 net.cpp:150] Setting up relu4
I0525 20:55:41.656113 22368 net.cpp:157] Top shape: 100 36 6 42 (907200)
I0525 20:55:41.656126 22368 net.cpp:165] Memory required for data: 155702800
I0525 20:55:41.656142 22368 layer_factory.hpp:77] Creating layer pool4
I0525 20:55:41.656167 22368 net.cpp:106] Creating Layer pool4
I0525 20:55:41.656179 22368 net.cpp:454] pool4 <- conv4
I0525 20:55:41.656195 22368 net.cpp:411] pool4 -> pool4
I0525 20:55:41.656280 22368 net.cpp:150] Setting up pool4
I0525 20:55:41.656297 22368 net.cpp:157] Top shape: 100 36 3 42 (453600)
I0525 20:55:41.656312 22368 net.cpp:165] Memory required for data: 157517200
I0525 20:55:41.656324 22368 layer_factory.hpp:77] Creating layer ip1
I0525 20:55:41.656349 22368 net.cpp:106] Creating Layer ip1
I0525 20:55:41.656361 22368 net.cpp:454] ip1 <- pool4
I0525 20:55:41.656384 22368 net.cpp:411] ip1 -> ip1
I0525 20:55:41.671836 22368 net.cpp:150] Setting up ip1
I0525 20:55:41.671869 22368 net.cpp:157] Top shape: 100 196 (19600)
I0525 20:55:41.671890 22368 net.cpp:165] Memory required for data: 157595600
I0525 20:55:41.671916 22368 layer_factory.hpp:77] Creating layer relu5
I0525 20:55:41.671936 22368 net.cpp:106] Creating Layer relu5
I0525 20:55:41.671962 22368 net.cpp:454] relu5 <- ip1
I0525 20:55:41.671978 22368 net.cpp:397] relu5 -> ip1 (in-place)
I0525 20:55:41.672345 22368 net.cpp:150] Setting up relu5
I0525 20:55:41.672365 22368 net.cpp:157] Top shape: 100 196 (19600)
I0525 20:55:41.672379 22368 net.cpp:165] Memory required for data: 157674000
I0525 20:55:41.672390 22368 layer_factory.hpp:77] Creating layer drop1
I0525 20:55:41.672422 22368 net.cpp:106] Creating Layer drop1
I0525 20:55:41.672435 22368 net.cpp:454] drop1 <- ip1
I0525 20:55:41.672451 22368 net.cpp:397] drop1 -> ip1 (in-place)
I0525 20:55:41.672513 22368 net.cpp:150] Setting up drop1
I0525 20:55:41.672530 22368 net.cpp:157] Top shape: 100 196 (19600)
I0525 20:55:41.672550 22368 net.cpp:165] Memory required for data: 157752400
I0525 20:55:41.672564 22368 layer_factory.hpp:77] Creating layer ip2
I0525 20:55:41.672580 22368 net.cpp:106] Creating Layer ip2
I0525 20:55:41.672595 22368 net.cpp:454] ip2 <- ip1
I0525 20:55:41.672619 22368 net.cpp:411] ip2 -> ip2
I0525 20:55:41.673115 22368 net.cpp:150] Setting up ip2
I0525 20:55:41.673133 22368 net.cpp:157] Top shape: 100 98 (9800)
I0525 20:55:41.673146 22368 net.cpp:165] Memory required for data: 157791600
I0525 20:55:41.673167 22368 layer_factory.hpp:77] Creating layer relu6
I0525 20:55:41.673203 22368 net.cpp:106] Creating Layer relu6
I0525 20:55:41.673216 22368 net.cpp:454] relu6 <- ip2
I0525 20:55:41.673233 22368 net.cpp:397] relu6 -> ip2 (in-place)
I0525 20:55:41.673795 22368 net.cpp:150] Setting up relu6
I0525 20:55:41.673817 22368 net.cpp:157] Top shape: 100 98 (9800)
I0525 20:55:41.673830 22368 net.cpp:165] Memory required for data: 157830800
I0525 20:55:41.673843 22368 layer_factory.hpp:77] Creating layer drop2
I0525 20:55:41.673862 22368 net.cpp:106] Creating Layer drop2
I0525 20:55:41.673884 22368 net.cpp:454] drop2 <- ip2
I0525 20:55:41.673900 22368 net.cpp:397] drop2 -> ip2 (in-place)
I0525 20:55:41.673954 22368 net.cpp:150] Setting up drop2
I0525 20:55:41.673974 22368 net.cpp:157] Top shape: 100 98 (9800)
I0525 20:55:41.673993 22368 net.cpp:165] Memory required for data: 157870000
I0525 20:55:41.674006 22368 layer_factory.hpp:77] Creating layer ip3
I0525 20:55:41.674028 22368 net.cpp:106] Creating Layer ip3
I0525 20:55:41.674041 22368 net.cpp:454] ip3 <- ip2
I0525 20:55:41.674060 22368 net.cpp:411] ip3 -> ip3
I0525 20:55:41.674305 22368 net.cpp:150] Setting up ip3
I0525 20:55:41.674324 22368 net.cpp:157] Top shape: 100 11 (1100)
I0525 20:55:41.674336 22368 net.cpp:165] Memory required for data: 157874400
I0525 20:55:41.674357 22368 layer_factory.hpp:77] Creating layer drop3
I0525 20:55:41.674379 22368 net.cpp:106] Creating Layer drop3
I0525 20:55:41.674392 22368 net.cpp:454] drop3 <- ip3
I0525 20:55:41.674408 22368 net.cpp:397] drop3 -> ip3 (in-place)
I0525 20:55:41.674463 22368 net.cpp:150] Setting up drop3
I0525 20:55:41.674479 22368 net.cpp:157] Top shape: 100 11 (1100)
I0525 20:55:41.674491 22368 net.cpp:165] Memory required for data: 157878800
I0525 20:55:41.674507 22368 layer_factory.hpp:77] Creating layer ip3_drop3_0_split
I0525 20:55:41.674523 22368 net.cpp:106] Creating Layer ip3_drop3_0_split
I0525 20:55:41.674535 22368 net.cpp:454] ip3_drop3_0_split <- ip3
I0525 20:55:41.674561 22368 net.cpp:411] ip3_drop3_0_split -> ip3_drop3_0_split_0
I0525 20:55:41.674579 22368 net.cpp:411] ip3_drop3_0_split -> ip3_drop3_0_split_1
I0525 20:55:41.674666 22368 net.cpp:150] Setting up ip3_drop3_0_split
I0525 20:55:41.674684 22368 net.cpp:157] Top shape: 100 11 (1100)
I0525 20:55:41.674698 22368 net.cpp:157] Top shape: 100 11 (1100)
I0525 20:55:41.674713 22368 net.cpp:165] Memory required for data: 157887600
I0525 20:55:41.674726 22368 layer_factory.hpp:77] Creating layer accuracy
I0525 20:55:41.674754 22368 net.cpp:106] Creating Layer accuracy
I0525 20:55:41.674772 22368 net.cpp:454] accuracy <- ip3_drop3_0_split_0
I0525 20:55:41.674787 22368 net.cpp:454] accuracy <- label_data_hdf5_1_split_0
I0525 20:55:41.674803 22368 net.cpp:411] accuracy -> accuracy
…
