…
I0525 22:55:46.997166 20705 net.cpp:322] The NetState phase (0) differed from the phase (1) specified by a rule in layer data_hdf5
I0525 22:55:46.997231 20705 net.cpp:322] The NetState phase (0) differed from the phase (1) specified by a rule in layer accuracy
I0525 22:55:46.997606 20705 net.cpp:49] Initializing net from parameters: 
name: "caffe_test_127x50_x_unshifted"
state {
  phase: TRAIN
}
layer {
  name: "data_hdf5"
  type: "HDF5Data"
  top: "data"
  top: "label"
  include {
    phase: TRAIN
  }
  hdf5_data_param {
    source: "/lustre/atlas/proj-shared/hep105/caffe_titan/minosmatch_nukecczdefs_127x50_x_unshifted_me1Bmc.trainlist"
    batch_size: 100
  }
}
layer {
  name: "conv1"
  type: "Convolution"
  bottom: "data"
  top: "conv1"
  convolution_param {
    num_output: 12
    pad: 0
    stride: 1
    weight_filler {
      type: "xavier"
    }
    bias_filler {
      type: "constant"
    }
    kernel_h: 8
    kernel_w: 3
  }
}
layer {
  name: "relu1"
  type: "ReLU"
  bottom: "conv1"
  top: "conv1"
}
layer {
  name: "pool1"
  type: "Pooling"
  bottom: "conv1"
  top: "pool1"
  pooling_param {
    pool: MAX
    kernel_h: 2
    kernel_w: 1
    stride_h: 2
    stride_w: 1
  }
}
layer {
  name: "conv2"
  type: "Convolution"
  bottom: "pool1"
  top: "conv2"
  convolution_param {
    num_output: 20
    pad: 0
    stride: 1
    weight_filler {
      type: "xavier"
    }
    bias_filler {
      type: "constant"
    }
    kernel_h: 7
    kernel_w: 3
  }
}
layer {
  name: "relu2"
  type: "ReLU"
  bottom: "conv2"
  top: "conv2"
}
layer {
  name: "pool2"
  type: "Pooling"
  bottom: "conv2"
  top: "pool2"
  pooling_param {
    pool: MAX
    kernel_h: 2
    kernel_w: 1
    stride_h: 2
    stride_w: 1
  }
}
layer {
  name: "conv3"
  type: "Convolution"
  bottom: "pool2"
  top: "conv3"
  convolution_param {
    num_output: 28
    pad: 0
    stride: 1
    weight_filler {
      type: "xavier"
    }
    bias_filler {
      type: "constant"
    }
    kernel_h: 6
    kernel_w: 3
  }
}
layer {
  name: "relu3"
  type: "ReLU"
  bottom: "conv3"
  top: "conv3"
}
layer {
  name: "pool3"
  type: "Pooling"
  bottom: "conv3"
  top: "pool3"
  pooling_param {
    pool: MAX
    kernel_h: 2
    kernel_w: 1
    stride_h: 2
    stride_w: 1
  }
}
layer {
  name: "conv4"
  type: "Convolution"
  bottom: "pool3"
  top: "conv4"
  convolution_param {
    num_output: 36
    pad: 0
    stride: 1
    weight_filler {
      type: "xavier"
    }
    bias_filler {
      type: "constant"
    }
    kernel_h: 6
    kernel_w: 3
  }
}
layer {
  name: "relu4"
  type: "ReLU"
  bottom: "conv4"
  top: "conv4"
}
layer {
  name: "pool4"
  type: "Pooling"
  bottom: "conv4"
  top: "pool4"
  pooling_param {
    pool: MAX
    kernel_h: 2
    kernel_w: 1
    stride_h: 2
    stride_w: 1
  }
}
layer {
  name: "ip1"
  type: "InnerProduct"
  bottom: "pool4"
  top: "ip1"
  inner_product_param {
    num_output: 196
    weight_filler {
      type: "xavier"
    }
    bias_filler {
      type: "constant"
    }
  }
}
layer {
  name: "relu5"
  type: "ReLU"
  bottom: "ip1"
  top: "ip1"
}
layer {
  name: "drop1"
  type: "Dropout"
  bottom: "ip1"
  top: "ip1"
  dropout_param {
    dropout_ratio: 0.5
  }
}
layer {
  name: "ip2"
  type: "InnerProduct"
  bottom: "ip1"
  top: "ip2"
  inner_product_param {
    num_output: 98
    weight_filler {
      type: "xavier"
    }
    bias_filler {
      type: "constant"
    }
  }
}
layer {
  name: "relu6"
  type: "ReLU"
  bottom: "ip2"
  top: "ip2"
}
layer {
  name: "drop2"
  type: "Dropout"
  bottom: "ip2"
  top: "ip2"
  dropout_param {
    dropout_ratio: 0.5
  }
}
layer {
  name: "ip3"
  type: "InnerProduct"
  bottom: "ip2"
  top: "ip3"
  inner_product_param {
    num_output: 11
    weight_filler {
      type: "xavier"
    }
    bias_filler {
      type: "constant"
    }
  }
}
layer {
  name: "drop3"
  type: "Dropout"
  bottom: "ip3"
  top: "ip3"
  dropout_param {
    dropout_ratio: 0.5
  }
}
layer {
  name: "loss"
  type: "SoftmaxWithLoss"
  bottom: "ip3"
  bottom: "label"
  top: "loss"
}
I0525 22:55:46.997810 20705 layer_factory.hpp:77] Creating layer data_hdf5
I0525 22:55:46.997848 20705 net.cpp:106] Creating Layer data_hdf5
I0525 22:55:46.997864 20705 net.cpp:411] data_hdf5 -> data
I0525 22:55:46.997897 20705 net.cpp:411] data_hdf5 -> label
I0525 22:55:46.997941 20705 hdf5_data_layer.cpp:79] Loading list of HDF5 filenames from: /lustre/atlas/proj-shared/hep105/caffe_titan/minosmatch_nukecczdefs_127x50_x_unshifted_me1Bmc.trainlist
I0525 22:55:47.012202 20705 hdf5_data_layer.cpp:93] Number of HDF5 files: 15
I0525 22:55:47.034795 20705 hdf5.cpp:32] Datatype class: H5T_FLOAT
I0525 22:56:08.543777 20705 hdf5.cpp:35] Datatype class: H5T_INTEGER
I0525 22:56:08.548954 20705 net.cpp:150] Setting up data_hdf5
I0525 22:56:08.548995 20705 net.cpp:157] Top shape: 100 1 127 50 (635000)
I0525 22:56:08.549012 20705 net.cpp:157] Top shape: 100 (100)
I0525 22:56:08.549024 20705 net.cpp:165] Memory required for data: 2540400
I0525 22:56:08.549044 20705 layer_factory.hpp:77] Creating layer conv1
I0525 22:56:08.549091 20705 net.cpp:106] Creating Layer conv1
I0525 22:56:08.549114 20705 net.cpp:454] conv1 <- data
I0525 22:56:08.549139 20705 net.cpp:411] conv1 -> conv1
I0525 22:56:11.832972 20705 net.cpp:150] Setting up conv1
I0525 22:56:11.833026 20705 net.cpp:157] Top shape: 100 12 120 48 (6912000)
I0525 22:56:11.833050 20705 net.cpp:165] Memory required for data: 30188400
I0525 22:56:11.833081 20705 layer_factory.hpp:77] Creating layer relu1
I0525 22:56:11.833101 20705 net.cpp:106] Creating Layer relu1
I0525 22:56:11.833114 20705 net.cpp:454] relu1 <- conv1
I0525 22:56:11.833137 20705 net.cpp:397] relu1 -> conv1 (in-place)
I0525 22:56:11.833685 20705 net.cpp:150] Setting up relu1
I0525 22:56:11.833709 20705 net.cpp:157] Top shape: 100 12 120 48 (6912000)
I0525 22:56:11.833721 20705 net.cpp:165] Memory required for data: 57836400
I0525 22:56:11.833737 20705 layer_factory.hpp:77] Creating layer pool1
I0525 22:56:11.833756 20705 net.cpp:106] Creating Layer pool1
I0525 22:56:11.833778 20705 net.cpp:454] pool1 <- conv1
I0525 22:56:11.833794 20705 net.cpp:411] pool1 -> pool1
I0525 22:56:11.833889 20705 net.cpp:150] Setting up pool1
I0525 22:56:11.833907 20705 net.cpp:157] Top shape: 100 12 60 48 (3456000)
I0525 22:56:11.833922 20705 net.cpp:165] Memory required for data: 71660400
I0525 22:56:11.833942 20705 layer_factory.hpp:77] Creating layer conv2
I0525 22:56:11.833967 20705 net.cpp:106] Creating Layer conv2
I0525 22:56:11.833981 20705 net.cpp:454] conv2 <- pool1
I0525 22:56:11.833997 20705 net.cpp:411] conv2 -> conv2
I0525 22:56:11.836743 20705 net.cpp:150] Setting up conv2
I0525 22:56:11.836774 20705 net.cpp:157] Top shape: 100 20 54 46 (4968000)
I0525 22:56:11.836788 20705 net.cpp:165] Memory required for data: 91532400
I0525 22:56:11.836815 20705 layer_factory.hpp:77] Creating layer relu2
I0525 22:56:11.836843 20705 net.cpp:106] Creating Layer relu2
I0525 22:56:11.836858 20705 net.cpp:454] relu2 <- conv2
I0525 22:56:11.836874 20705 net.cpp:397] relu2 -> conv2 (in-place)
I0525 22:56:11.837232 20705 net.cpp:150] Setting up relu2
I0525 22:56:11.837252 20705 net.cpp:157] Top shape: 100 20 54 46 (4968000)
I0525 22:56:11.837266 20705 net.cpp:165] Memory required for data: 111404400
I0525 22:56:11.837281 20705 layer_factory.hpp:77] Creating layer pool2
I0525 22:56:11.837296 20705 net.cpp:106] Creating Layer pool2
I0525 22:56:11.837318 20705 net.cpp:454] pool2 <- conv2
I0525 22:56:11.837334 20705 net.cpp:411] pool2 -> pool2
I0525 22:56:11.837429 20705 net.cpp:150] Setting up pool2
I0525 22:56:11.837446 20705 net.cpp:157] Top shape: 100 20 27 46 (2484000)
I0525 22:56:11.837462 20705 net.cpp:165] Memory required for data: 121340400
I0525 22:56:11.837482 20705 layer_factory.hpp:77] Creating layer conv3
I0525 22:56:11.837503 20705 net.cpp:106] Creating Layer conv3
I0525 22:56:11.837518 20705 net.cpp:454] conv3 <- pool2
I0525 22:56:11.837534 20705 net.cpp:411] conv3 -> conv3
I0525 22:56:11.839473 20705 net.cpp:150] Setting up conv3
I0525 22:56:11.839503 20705 net.cpp:157] Top shape: 100 28 22 44 (2710400)
I0525 22:56:11.839515 20705 net.cpp:165] Memory required for data: 132182000
I0525 22:56:11.839537 20705 layer_factory.hpp:77] Creating layer relu3
I0525 22:56:11.839570 20705 net.cpp:106] Creating Layer relu3
I0525 22:56:11.839583 20705 net.cpp:454] relu3 <- conv3
I0525 22:56:11.839599 20705 net.cpp:397] relu3 -> conv3 (in-place)
I0525 22:56:11.840092 20705 net.cpp:150] Setting up relu3
I0525 22:56:11.840116 20705 net.cpp:157] Top shape: 100 28 22 44 (2710400)
I0525 22:56:11.840129 20705 net.cpp:165] Memory required for data: 143023600
I0525 22:56:11.840147 20705 layer_factory.hpp:77] Creating layer pool3
I0525 22:56:11.840162 20705 net.cpp:106] Creating Layer pool3
I0525 22:56:11.840183 20705 net.cpp:454] pool3 <- conv3
I0525 22:56:11.840199 20705 net.cpp:411] pool3 -> pool3
I0525 22:56:11.840281 20705 net.cpp:150] Setting up pool3
I0525 22:56:11.840301 20705 net.cpp:157] Top shape: 100 28 11 44 (1355200)
I0525 22:56:11.840315 20705 net.cpp:165] Memory required for data: 148444400
I0525 22:56:11.840327 20705 layer_factory.hpp:77] Creating layer conv4
I0525 22:56:11.840361 20705 net.cpp:106] Creating Layer conv4
I0525 22:56:11.840381 20705 net.cpp:454] conv4 <- pool3
I0525 22:56:11.840399 20705 net.cpp:411] conv4 -> conv4
I0525 22:56:11.843344 20705 net.cpp:150] Setting up conv4
I0525 22:56:11.843376 20705 net.cpp:157] Top shape: 100 36 6 42 (907200)
I0525 22:56:11.843396 20705 net.cpp:165] Memory required for data: 152073200
I0525 22:56:11.843416 20705 layer_factory.hpp:77] Creating layer relu4
I0525 22:56:11.843437 20705 net.cpp:106] Creating Layer relu4
I0525 22:56:11.843451 20705 net.cpp:454] relu4 <- conv4
I0525 22:56:11.843466 20705 net.cpp:397] relu4 -> conv4 (in-place)
I0525 22:56:11.843961 20705 net.cpp:150] Setting up relu4
I0525 22:56:11.843983 20705 net.cpp:157] Top shape: 100 36 6 42 (907200)
I0525 22:56:11.843997 20705 net.cpp:165] Memory required for data: 155702000
I0525 22:56:11.844013 20705 layer_factory.hpp:77] Creating layer pool4
I0525 22:56:11.844028 20705 net.cpp:106] Creating Layer pool4
I0525 22:56:11.844043 20705 net.cpp:454] pool4 <- conv4
I0525 22:56:11.844068 20705 net.cpp:411] pool4 -> pool4
I0525 22:56:11.844151 20705 net.cpp:150] Setting up pool4
I0525 22:56:11.844167 20705 net.cpp:157] Top shape: 100 36 3 42 (453600)
I0525 22:56:11.844182 20705 net.cpp:165] Memory required for data: 157516400
I0525 22:56:11.844194 20705 layer_factory.hpp:77] Creating layer ip1
I0525 22:56:11.844216 20705 net.cpp:106] Creating Layer ip1
I0525 22:56:11.844235 20705 net.cpp:454] ip1 <- pool4
I0525 22:56:11.844251 20705 net.cpp:411] ip1 -> ip1
I0525 22:56:11.859586 20705 net.cpp:150] Setting up ip1
I0525 22:56:11.859622 20705 net.cpp:157] Top shape: 100 196 (19600)
I0525 22:56:11.859635 20705 net.cpp:165] Memory required for data: 157594800
I0525 22:56:11.859665 20705 layer_factory.hpp:77] Creating layer relu5
I0525 22:56:11.859694 20705 net.cpp:106] Creating Layer relu5
I0525 22:56:11.859709 20705 net.cpp:454] relu5 <- ip1
I0525 22:56:11.859724 20705 net.cpp:397] relu5 -> ip1 (in-place)
I0525 22:56:11.860090 20705 net.cpp:150] Setting up relu5
I0525 22:56:11.860110 20705 net.cpp:157] Top shape: 100 196 (19600)
I0525 22:56:11.860122 20705 net.cpp:165] Memory required for data: 157673200
I0525 22:56:11.860137 20705 layer_factory.hpp:77] Creating layer drop1
I0525 22:56:11.860160 20705 net.cpp:106] Creating Layer drop1
I0525 22:56:11.860182 20705 net.cpp:454] drop1 <- ip1
I0525 22:56:11.860196 20705 net.cpp:397] drop1 -> ip1 (in-place)
I0525 22:56:11.860267 20705 net.cpp:150] Setting up drop1
I0525 22:56:11.860283 20705 net.cpp:157] Top shape: 100 196 (19600)
I0525 22:56:11.860296 20705 net.cpp:165] Memory required for data: 157751600
I0525 22:56:11.860311 20705 layer_factory.hpp:77] Creating layer ip2
I0525 22:56:11.860333 20705 net.cpp:106] Creating Layer ip2
I0525 22:56:11.860352 20705 net.cpp:454] ip2 <- ip1
I0525 22:56:11.860381 20705 net.cpp:411] ip2 -> ip2
I0525 22:56:11.860872 20705 net.cpp:150] Setting up ip2
I0525 22:56:11.860891 20705 net.cpp:157] Top shape: 100 98 (9800)
I0525 22:56:11.860904 20705 net.cpp:165] Memory required for data: 157790800
I0525 22:56:11.860924 20705 layer_factory.hpp:77] Creating layer relu6
I0525 22:56:11.860946 20705 net.cpp:106] Creating Layer relu6
I0525 22:56:11.860960 20705 net.cpp:454] relu6 <- ip2
I0525 22:56:11.860975 20705 net.cpp:397] relu6 -> ip2 (in-place)
I0525 22:56:11.861522 20705 net.cpp:150] Setting up relu6
I0525 22:56:11.861546 20705 net.cpp:157] Top shape: 100 98 (9800)
I0525 22:56:11.861559 20705 net.cpp:165] Memory required for data: 157830000
I0525 22:56:11.861575 20705 layer_factory.hpp:77] Creating layer drop2
I0525 22:56:11.861590 20705 net.cpp:106] Creating Layer drop2
I0525 22:56:11.861604 20705 net.cpp:454] drop2 <- ip2
I0525 22:56:11.861627 20705 net.cpp:397] drop2 -> ip2 (in-place)
I0525 22:56:11.861677 20705 net.cpp:150] Setting up drop2
I0525 22:56:11.861699 20705 net.cpp:157] Top shape: 100 98 (9800)
I0525 22:56:11.861712 20705 net.cpp:165] Memory required for data: 157869200
I0525 22:56:11.861726 20705 layer_factory.hpp:77] Creating layer ip3
I0525 22:56:11.861744 20705 net.cpp:106] Creating Layer ip3
I0525 22:56:11.861757 20705 net.cpp:454] ip3 <- ip2
I0525 22:56:11.861773 20705 net.cpp:411] ip3 -> ip3
I0525 22:56:11.862001 20705 net.cpp:150] Setting up ip3
I0525 22:56:11.862020 20705 net.cpp:157] Top shape: 100 11 (1100)
I0525 22:56:11.862033 20705 net.cpp:165] Memory required for data: 157873600
I0525 22:56:11.862054 20705 layer_factory.hpp:77] Creating layer drop3
I0525 22:56:11.862069 20705 net.cpp:106] Creating Layer drop3
I0525 22:56:11.862082 20705 net.cpp:454] drop3 <- ip3
I0525 22:56:11.862104 20705 net.cpp:397] drop3 -> ip3 (in-place)
I0525 22:56:11.862151 20705 net.cpp:150] Setting up drop3
I0525 22:56:11.862167 20705 net.cpp:157] Top shape: 100 11 (1100)
I0525 22:56:11.862180 20705 net.cpp:165] Memory required for data: 157878000
I0525 22:56:11.862193 20705 layer_factory.hpp:77] Creating layer loss
I0525 22:56:11.862215 20705 net.cpp:106] Creating Layer loss
I0525 22:56:11.862226 20705 net.cpp:454] loss <- ip3
I0525 22:56:11.862241 20705 net.cpp:454] loss <- label
I0525 22:56:11.862272 20705 net.cpp:411] loss -> loss
I0525 22:56:11.862293 20705 layer_factory.hpp:77] Creating layer loss
…
I0525 22:56:11.865167 20705 solver.cpp:181] Creating test net (#0) specified by net file: /lustre/atlas/proj-shared/hep105/caffe_titan/caffe_workflow/logs_bslr/bs_100_lr_0.0050_2016-05-20T15.49.27.359689.prototxt
I0525 22:56:11.865247 20705 net.cpp:322] The NetState phase (1) differed from the phase (0) specified by a rule in layer data_hdf5
I0525 22:56:11.865628 20705 net.cpp:49] Initializing net from parameters: 
name: "caffe_test_127x50_x_unshifted"
state {
  phase: TEST
}
layer {
  name: "data_hdf5"
  type: "HDF5Data"
  top: "data"
  top: "label"
  include {
    phase: TEST
  }
  hdf5_data_param {
    source: "/lustre/atlas/proj-shared/hep105/caffe_titan/minosmatch_nukecczdefs_127x50_x_unshifted_me1Bmc.testlist"
    batch_size: 100
  }
}
layer {
  name: "conv1"
  type: "Convolution"
  bottom: "data"
  top: "conv1"
  convolution_param {
    num_output: 12
    pad: 0
    stride: 1
    weight_filler {
      type: "xavier"
    }
    bias_filler {
      type: "constant"
    }
    kernel_h: 8
    kernel_w: 3
  }
}
layer {
  name: "relu1"
  type: "ReLU"
  bottom: "conv1"
  top: "conv1"
}
layer {
  name: "pool1"
  type: "Pooling"
  bottom: "conv1"
  top: "pool1"
  pooling_param {
    pool: MAX
    kernel_h: 2
    kernel_w: 1
    stride_h: 2
    stride_w: 1
  }
}
layer {
  name: "conv2"
  type: "Convolution"
  bottom: "pool1"
  top: "conv2"
  convolution_param {
    num_output: 20
    pad: 0
    stride: 1
    weight_filler {
      type: "xavier"
    }
    bias_filler {
      type: "constant"
    }
    kernel_h: 7
    kernel_w: 3
  }
}
layer {
  name: "relu2"
  type: "ReLU"
  bottom: "conv2"
  top: "conv2"
}
layer {
  name: "pool2"
  type: "Pooling"
  bottom: "conv2"
  top: "pool2"
  pooling_param {
    pool: MAX
    kernel_h: 2
    kernel_w: 1
    stride_h: 2
    stride_w: 1
  }
}
layer {
  name: "conv3"
  type: "Convolution"
  bottom: "pool2"
  top: "conv3"
  convolution_param {
    num_output: 28
    pad: 0
    stride: 1
    weight_filler {
      type: "xavier"
    }
    bias_filler {
      type: "constant"
    }
    kernel_h: 6
    kernel_w: 3
  }
}
layer {
  name: "relu3"
  type: "ReLU"
  bottom: "conv3"
  top: "conv3"
}
layer {
  name: "pool3"
  type: "Pooling"
  bottom: "conv3"
  top: "pool3"
  pooling_param {
    pool: MAX
    kernel_h: 2
    kernel_w: 1
    stride_h: 2
    stride_w: 1
  }
}
layer {
  name: "conv4"
  type: "Convolution"
  bottom: "pool3"
  top: "conv4"
  convolution_param {
    num_output: 36
    pad: 0
    stride: 1
    weight_filler {
      type: "xavier"
    }
    bias_filler {
      type: "constant"
    }
    kernel_h: 6
    kernel_w: 3
  }
}
layer {
  name: "relu4"
  type: "ReLU"
  bottom: "conv4"
  top: "conv4"
}
layer {
  name: "pool4"
  type: "Pooling"
  bottom: "conv4"
  top: "pool4"
  pooling_param {
    pool: MAX
    kernel_h: 2
    kernel_w: 1
    stride_h: 2
    stride_w: 1
  }
}
layer {
  name: "ip1"
  type: "InnerProduct"
  bottom: "pool4"
  top: "ip1"
  inner_product_param {
    num_output: 196
    weight_filler {
      type: "xavier"
    }
    bias_filler {
      type: "constant"
    }
  }
}
layer {
  name: "relu5"
  type: "ReLU"
  bottom: "ip1"
  top: "ip1"
}
layer {
  name: "drop1"
  type: "Dropout"
  bottom: "ip1"
  top: "ip1"
  dropout_param {
    dropout_ratio: 0.5
  }
}
layer {
  name: "ip2"
  type: "InnerProduct"
  bottom: "ip1"
  top: "ip2"
  inner_product_param {
    num_output: 98
    weight_filler {
      type: "xavier"
    }
    bias_filler {
      type: "constant"
    }
  }
}
layer {
  name: "relu6"
  type: "ReLU"
  bottom: "ip2"
  top: "ip2"
}
layer {
  name: "drop2"
  type: "Dropout"
  bottom: "ip2"
  top: "ip2"
  dropout_param {
    dropout_ratio: 0.5
  }
}
layer {
  name: "ip3"
  type: "InnerProduct"
  bottom: "ip2"
  top: "ip3"
  inner_product_param {
    num_output: 11
    weight_filler {
      type: "xavier"
    }
    bias_filler {
      type: "constant"
    }
  }
}
layer {
  name: "drop3"
  type: "Dropout"
  bottom: "ip3"
  top: "ip3"
  dropout_param {
    dropout_ratio: 0.5
  }
}
layer {
  name: "accuracy"
  type: "Accuracy"
  bottom: "ip3"
  bottom: "label"
  top: "accuracy"
  include {
    phase: TEST
  }
}
layer {
  name: "loss"
  type: "SoftmaxWithLoss"
  bottom: "ip3"
  bottom: "label"
  top: "loss"
}
I0525 22:56:11.865849 20705 layer_factory.hpp:77] Creating layer data_hdf5
I0525 22:56:11.865875 20705 net.cpp:106] Creating Layer data_hdf5
I0525 22:56:11.865890 20705 net.cpp:411] data_hdf5 -> data
I0525 22:56:11.865911 20705 net.cpp:411] data_hdf5 -> label
I0525 22:56:11.865929 20705 hdf5_data_layer.cpp:79] Loading list of HDF5 filenames from: /lustre/atlas/proj-shared/hep105/caffe_titan/minosmatch_nukecczdefs_127x50_x_unshifted_me1Bmc.testlist
I0525 22:56:11.886209 20705 hdf5_data_layer.cpp:93] Number of HDF5 files: 3
I0525 22:56:33.250546 20705 net.cpp:150] Setting up data_hdf5
I0525 22:56:33.250715 20705 net.cpp:157] Top shape: 100 1 127 50 (635000)
I0525 22:56:33.250732 20705 net.cpp:157] Top shape: 100 (100)
I0525 22:56:33.250746 20705 net.cpp:165] Memory required for data: 2540400
I0525 22:56:33.250759 20705 layer_factory.hpp:77] Creating layer label_data_hdf5_1_split
I0525 22:56:33.250788 20705 net.cpp:106] Creating Layer label_data_hdf5_1_split
I0525 22:56:33.250808 20705 net.cpp:454] label_data_hdf5_1_split <- label
I0525 22:56:33.250843 20705 net.cpp:411] label_data_hdf5_1_split -> label_data_hdf5_1_split_0
I0525 22:56:33.250867 20705 net.cpp:411] label_data_hdf5_1_split -> label_data_hdf5_1_split_1
I0525 22:56:33.250946 20705 net.cpp:150] Setting up label_data_hdf5_1_split
I0525 22:56:33.250972 20705 net.cpp:157] Top shape: 100 (100)
I0525 22:56:33.250987 20705 net.cpp:157] Top shape: 100 (100)
I0525 22:56:33.251001 20705 net.cpp:165] Memory required for data: 2541200
I0525 22:56:33.251014 20705 layer_factory.hpp:77] Creating layer conv1
I0525 22:56:33.251046 20705 net.cpp:106] Creating Layer conv1
I0525 22:56:33.251060 20705 net.cpp:454] conv1 <- data
I0525 22:56:33.251078 20705 net.cpp:411] conv1 -> conv1
I0525 22:56:33.253043 20705 net.cpp:150] Setting up conv1
I0525 22:56:33.253069 20705 net.cpp:157] Top shape: 100 12 120 48 (6912000)
I0525 22:56:33.253090 20705 net.cpp:165] Memory required for data: 30189200
I0525 22:56:33.253114 20705 layer_factory.hpp:77] Creating layer relu1
I0525 22:56:33.253135 20705 net.cpp:106] Creating Layer relu1
I0525 22:56:33.253147 20705 net.cpp:454] relu1 <- conv1
I0525 22:56:33.253173 20705 net.cpp:397] relu1 -> conv1 (in-place)
I0525 22:56:33.253690 20705 net.cpp:150] Setting up relu1
I0525 22:56:33.253712 20705 net.cpp:157] Top shape: 100 12 120 48 (6912000)
I0525 22:56:33.253726 20705 net.cpp:165] Memory required for data: 57837200
I0525 22:56:33.253737 20705 layer_factory.hpp:77] Creating layer pool1
I0525 22:56:33.253767 20705 net.cpp:106] Creating Layer pool1
I0525 22:56:33.253782 20705 net.cpp:454] pool1 <- conv1
I0525 22:56:33.253798 20705 net.cpp:411] pool1 -> pool1
I0525 22:56:33.253888 20705 net.cpp:150] Setting up pool1
I0525 22:56:33.253906 20705 net.cpp:157] Top shape: 100 12 60 48 (3456000)
I0525 22:56:33.253921 20705 net.cpp:165] Memory required for data: 71661200
I0525 22:56:33.253939 20705 layer_factory.hpp:77] Creating layer conv2
I0525 22:56:33.253962 20705 net.cpp:106] Creating Layer conv2
I0525 22:56:33.253981 20705 net.cpp:454] conv2 <- pool1
I0525 22:56:33.253998 20705 net.cpp:411] conv2 -> conv2
I0525 22:56:33.255944 20705 net.cpp:150] Setting up conv2
I0525 22:56:33.255967 20705 net.cpp:157] Top shape: 100 20 54 46 (4968000)
I0525 22:56:33.255988 20705 net.cpp:165] Memory required for data: 91533200
I0525 22:56:33.256009 20705 layer_factory.hpp:77] Creating layer relu2
I0525 22:56:33.256029 20705 net.cpp:106] Creating Layer relu2
I0525 22:56:33.256052 20705 net.cpp:454] relu2 <- conv2
I0525 22:56:33.256067 20705 net.cpp:397] relu2 -> conv2 (in-place)
I0525 22:56:33.256425 20705 net.cpp:150] Setting up relu2
I0525 22:56:33.256445 20705 net.cpp:157] Top shape: 100 20 54 46 (4968000)
I0525 22:56:33.256458 20705 net.cpp:165] Memory required for data: 111405200
I0525 22:56:33.256474 20705 layer_factory.hpp:77] Creating layer pool2
I0525 22:56:33.256489 20705 net.cpp:106] Creating Layer pool2
I0525 22:56:33.256510 20705 net.cpp:454] pool2 <- conv2
I0525 22:56:33.256525 20705 net.cpp:411] pool2 -> pool2
I0525 22:56:33.256618 20705 net.cpp:150] Setting up pool2
I0525 22:56:33.256636 20705 net.cpp:157] Top shape: 100 20 27 46 (2484000)
I0525 22:56:33.256656 20705 net.cpp:165] Memory required for data: 121341200
I0525 22:56:33.256669 20705 layer_factory.hpp:77] Creating layer conv3
I0525 22:56:33.256695 20705 net.cpp:106] Creating Layer conv3
I0525 22:56:33.256706 20705 net.cpp:454] conv3 <- pool2
I0525 22:56:33.256731 20705 net.cpp:411] conv3 -> conv3
I0525 22:56:33.258738 20705 net.cpp:150] Setting up conv3
I0525 22:56:33.258762 20705 net.cpp:157] Top shape: 100 28 22 44 (2710400)
I0525 22:56:33.258781 20705 net.cpp:165] Memory required for data: 132182800
I0525 22:56:33.258821 20705 layer_factory.hpp:77] Creating layer relu3
I0525 22:56:33.258846 20705 net.cpp:106] Creating Layer relu3
I0525 22:56:33.258860 20705 net.cpp:454] relu3 <- conv3
I0525 22:56:33.258877 20705 net.cpp:397] relu3 -> conv3 (in-place)
I0525 22:56:33.259373 20705 net.cpp:150] Setting up relu3
I0525 22:56:33.259397 20705 net.cpp:157] Top shape: 100 28 22 44 (2710400)
I0525 22:56:33.259409 20705 net.cpp:165] Memory required for data: 143024400
I0525 22:56:33.259421 20705 layer_factory.hpp:77] Creating layer pool3
I0525 22:56:33.259441 20705 net.cpp:106] Creating Layer pool3
I0525 22:56:33.259462 20705 net.cpp:454] pool3 <- conv3
I0525 22:56:33.259479 20705 net.cpp:411] pool3 -> pool3
I0525 22:56:33.259565 20705 net.cpp:150] Setting up pool3
I0525 22:56:33.259583 20705 net.cpp:157] Top shape: 100 28 11 44 (1355200)
I0525 22:56:33.259595 20705 net.cpp:165] Memory required for data: 148445200
I0525 22:56:33.259611 20705 layer_factory.hpp:77] Creating layer conv4
I0525 22:56:33.259639 20705 net.cpp:106] Creating Layer conv4
I0525 22:56:33.259651 20705 net.cpp:454] conv4 <- pool3
I0525 22:56:33.259670 20705 net.cpp:411] conv4 -> conv4
I0525 22:56:33.261795 20705 net.cpp:150] Setting up conv4
I0525 22:56:33.261824 20705 net.cpp:157] Top shape: 100 36 6 42 (907200)
I0525 22:56:33.261837 20705 net.cpp:165] Memory required for data: 152074000
I0525 22:56:33.261857 20705 layer_factory.hpp:77] Creating layer relu4
I0525 22:56:33.261876 20705 net.cpp:106] Creating Layer relu4
I0525 22:56:33.261899 20705 net.cpp:454] relu4 <- conv4
I0525 22:56:33.261915 20705 net.cpp:397] relu4 -> conv4 (in-place)
I0525 22:56:33.262415 20705 net.cpp:150] Setting up relu4
I0525 22:56:33.262439 20705 net.cpp:157] Top shape: 100 36 6 42 (907200)
I0525 22:56:33.262452 20705 net.cpp:165] Memory required for data: 155702800
I0525 22:56:33.262465 20705 layer_factory.hpp:77] Creating layer pool4
I0525 22:56:33.262485 20705 net.cpp:106] Creating Layer pool4
I0525 22:56:33.262506 20705 net.cpp:454] pool4 <- conv4
I0525 22:56:33.262522 20705 net.cpp:411] pool4 -> pool4
I0525 22:56:33.262609 20705 net.cpp:150] Setting up pool4
I0525 22:56:33.262625 20705 net.cpp:157] Top shape: 100 36 3 42 (453600)
I0525 22:56:33.262640 20705 net.cpp:165] Memory required for data: 157517200
I0525 22:56:33.262653 20705 layer_factory.hpp:77] Creating layer ip1
I0525 22:56:33.262677 20705 net.cpp:106] Creating Layer ip1
I0525 22:56:33.262691 20705 net.cpp:454] ip1 <- pool4
I0525 22:56:33.262713 20705 net.cpp:411] ip1 -> ip1
I0525 22:56:33.278136 20705 net.cpp:150] Setting up ip1
I0525 22:56:33.278167 20705 net.cpp:157] Top shape: 100 196 (19600)
I0525 22:56:33.278189 20705 net.cpp:165] Memory required for data: 157595600
I0525 22:56:33.278216 20705 layer_factory.hpp:77] Creating layer relu5
I0525 22:56:33.278237 20705 net.cpp:106] Creating Layer relu5
I0525 22:56:33.278262 20705 net.cpp:454] relu5 <- ip1
I0525 22:56:33.278280 20705 net.cpp:397] relu5 -> ip1 (in-place)
I0525 22:56:33.278645 20705 net.cpp:150] Setting up relu5
I0525 22:56:33.278666 20705 net.cpp:157] Top shape: 100 196 (19600)
I0525 22:56:33.278678 20705 net.cpp:165] Memory required for data: 157674000
I0525 22:56:33.278693 20705 layer_factory.hpp:77] Creating layer drop1
I0525 22:56:33.278714 20705 net.cpp:106] Creating Layer drop1
I0525 22:56:33.278734 20705 net.cpp:454] drop1 <- ip1
I0525 22:56:33.278750 20705 net.cpp:397] drop1 -> ip1 (in-place)
I0525 22:56:33.278801 20705 net.cpp:150] Setting up drop1
I0525 22:56:33.278826 20705 net.cpp:157] Top shape: 100 196 (19600)
I0525 22:56:33.278839 20705 net.cpp:165] Memory required for data: 157752400
I0525 22:56:33.278851 20705 layer_factory.hpp:77] Creating layer ip2
I0525 22:56:33.278872 20705 net.cpp:106] Creating Layer ip2
I0525 22:56:33.278884 20705 net.cpp:454] ip2 <- ip1
I0525 22:56:33.278908 20705 net.cpp:411] ip2 -> ip2
I0525 22:56:33.279403 20705 net.cpp:150] Setting up ip2
I0525 22:56:33.279423 20705 net.cpp:157] Top shape: 100 98 (9800)
I0525 22:56:33.279438 20705 net.cpp:165] Memory required for data: 157791600
I0525 22:56:33.279458 20705 layer_factory.hpp:77] Creating layer relu6
I0525 22:56:33.279496 20705 net.cpp:106] Creating Layer relu6
I0525 22:56:33.279517 20705 net.cpp:454] relu6 <- ip2
I0525 22:56:33.279534 20705 net.cpp:397] relu6 -> ip2 (in-place)
I0525 22:56:33.280095 20705 net.cpp:150] Setting up relu6
I0525 22:56:33.280118 20705 net.cpp:157] Top shape: 100 98 (9800)
I0525 22:56:33.280131 20705 net.cpp:165] Memory required for data: 157830800
I0525 22:56:33.280143 20705 layer_factory.hpp:77] Creating layer drop2
I0525 22:56:33.280164 20705 net.cpp:106] Creating Layer drop2
I0525 22:56:33.280185 20705 net.cpp:454] drop2 <- ip2
I0525 22:56:33.280202 20705 net.cpp:397] drop2 -> ip2 (in-place)
I0525 22:56:33.280253 20705 net.cpp:150] Setting up drop2
I0525 22:56:33.280277 20705 net.cpp:157] Top shape: 100 98 (9800)
I0525 22:56:33.280289 20705 net.cpp:165] Memory required for data: 157870000
I0525 22:56:33.280308 20705 layer_factory.hpp:77] Creating layer ip3
I0525 22:56:33.280324 20705 net.cpp:106] Creating Layer ip3
I0525 22:56:33.280349 20705 net.cpp:454] ip3 <- ip2
I0525 22:56:33.280374 20705 net.cpp:411] ip3 -> ip3
I0525 22:56:33.280613 20705 net.cpp:150] Setting up ip3
I0525 22:56:33.280633 20705 net.cpp:157] Top shape: 100 11 (1100)
I0525 22:56:33.280647 20705 net.cpp:165] Memory required for data: 157874400
I0525 22:56:33.280668 20705 layer_factory.hpp:77] Creating layer drop3
I0525 22:56:33.280690 20705 net.cpp:106] Creating Layer drop3
I0525 22:56:33.280704 20705 net.cpp:454] drop3 <- ip3
I0525 22:56:33.280719 20705 net.cpp:397] drop3 -> ip3 (in-place)
I0525 22:56:33.280767 20705 net.cpp:150] Setting up drop3
I0525 22:56:33.280791 20705 net.cpp:157] Top shape: 100 11 (1100)
I0525 22:56:33.280802 20705 net.cpp:165] Memory required for data: 157878800
I0525 22:56:33.280817 20705 layer_factory.hpp:77] Creating layer ip3_drop3_0_split
I0525 22:56:33.280833 20705 net.cpp:106] Creating Layer ip3_drop3_0_split
I0525 22:56:33.280848 20705 net.cpp:454] ip3_drop3_0_split <- ip3
I0525 22:56:33.280869 20705 net.cpp:411] ip3_drop3_0_split -> ip3_drop3_0_split_0
I0525 22:56:33.280889 20705 net.cpp:411] ip3_drop3_0_split -> ip3_drop3_0_split_1
I0525 22:56:33.280978 20705 net.cpp:150] Setting up ip3_drop3_0_split
I0525 22:56:33.280995 20705 net.cpp:157] Top shape: 100 11 (1100)
I0525 22:56:33.281011 20705 net.cpp:157] Top shape: 100 11 (1100)
I0525 22:56:33.281023 20705 net.cpp:165] Memory required for data: 157887600
I0525 22:56:33.281038 20705 layer_factory.hpp:77] Creating layer accuracy
I0525 22:56:33.281066 20705 net.cpp:106] Creating Layer accuracy
I0525 22:56:33.281080 20705 net.cpp:454] accuracy <- ip3_drop3_0_split_0
I0525 22:56:33.281095 20705 net.cpp:454] accuracy <- label_data_hdf5_1_split_0
I0525 22:56:33.281111 20705 net.cpp:411] accuracy -> accuracy
…
