…
I0525 20:57:53.083164 29460 net.cpp:322] The NetState phase (0) differed from the phase (1) specified by a rule in layer data_hdf5
I0525 20:57:53.083230 29460 net.cpp:322] The NetState phase (0) differed from the phase (1) specified by a rule in layer accuracy
I0525 20:57:53.083607 29460 net.cpp:49] Initializing net from parameters: 
name: "caffe_test_127x50_x_unshifted"
state {
  phase: TRAIN
}
layer {
  name: "data_hdf5"
  type: "HDF5Data"
  top: "data"
  top: "label"
  include {
    phase: TRAIN
  }
  hdf5_data_param {
    source: "/lustre/atlas/proj-shared/hep105/caffe_titan/minosmatch_nukecczdefs_127x50_x_unshifted_me1Bmc.trainlist"
    batch_size: 100
  }
}
layer {
  name: "conv1"
  type: "Convolution"
  bottom: "data"
  top: "conv1"
  convolution_param {
    num_output: 12
    pad: 0
    stride: 1
    weight_filler {
      type: "xavier"
    }
    bias_filler {
      type: "constant"
    }
    kernel_h: 8
    kernel_w: 3
  }
}
layer {
  name: "relu1"
  type: "ReLU"
  bottom: "conv1"
  top: "conv1"
}
layer {
  name: "pool1"
  type: "Pooling"
  bottom: "conv1"
  top: "pool1"
  pooling_param {
    pool: MAX
    kernel_h: 2
    kernel_w: 1
    stride_h: 2
    stride_w: 1
  }
}
layer {
  name: "conv2"
  type: "Convolution"
  bottom: "pool1"
  top: "conv2"
  convolution_param {
    num_output: 20
    pad: 0
    stride: 1
    weight_filler {
      type: "xavier"
    }
    bias_filler {
      type: "constant"
    }
    kernel_h: 7
    kernel_w: 3
  }
}
layer {
  name: "relu2"
  type: "ReLU"
  bottom: "conv2"
  top: "conv2"
}
layer {
  name: "pool2"
  type: "Pooling"
  bottom: "conv2"
  top: "pool2"
  pooling_param {
    pool: MAX
    kernel_h: 2
    kernel_w: 1
    stride_h: 2
    stride_w: 1
  }
}
layer {
  name: "conv3"
  type: "Convolution"
  bottom: "pool2"
  top: "conv3"
  convolution_param {
    num_output: 28
    pad: 0
    stride: 1
    weight_filler {
      type: "xavier"
    }
    bias_filler {
      type: "constant"
    }
    kernel_h: 6
    kernel_w: 3
  }
}
layer {
  name: "relu3"
  type: "ReLU"
  bottom: "conv3"
  top: "conv3"
}
layer {
  name: "pool3"
  type: "Pooling"
  bottom: "conv3"
  top: "pool3"
  pooling_param {
    pool: MAX
    kernel_h: 2
    kernel_w: 1
    stride_h: 2
    stride_w: 1
  }
}
layer {
  name: "conv4"
  type: "Convolution"
  bottom: "pool3"
  top: "conv4"
  convolution_param {
    num_output: 36
    pad: 0
    stride: 1
    weight_filler {
      type: "xavier"
    }
    bias_filler {
      type: "constant"
    }
    kernel_h: 6
    kernel_w: 3
  }
}
layer {
  name: "relu4"
  type: "ReLU"
  bottom: "conv4"
  top: "conv4"
}
layer {
  name: "pool4"
  type: "Pooling"
  bottom: "conv4"
  top: "pool4"
  pooling_param {
    pool: MAX
    kernel_h: 2
    kernel_w: 1
    stride_h: 2
    stride_w: 1
  }
}
layer {
  name: "ip1"
  type: "InnerProduct"
  bottom: "pool4"
  top: "ip1"
  inner_product_param {
    num_output: 196
    weight_filler {
      type: "xavier"
    }
    bias_filler {
      type: "constant"
    }
  }
}
layer {
  name: "relu5"
  type: "ReLU"
  bottom: "ip1"
  top: "ip1"
}
layer {
  name: "drop1"
  type: "Dropout"
  bottom: "ip1"
  top: "ip1"
  dropout_param {
    dropout_ratio: 0.5
  }
}
layer {
  name: "ip2"
  type: "InnerProduct"
  bottom: "ip1"
  top: "ip2"
  inner_product_param {
    num_output: 98
    weight_filler {
      type: "xavier"
    }
    bias_filler {
      type: "constant"
    }
  }
}
layer {
  name: "relu6"
  type: "ReLU"
  bottom: "ip2"
  top: "ip2"
}
layer {
  name: "drop2"
  type: "Dropout"
  bottom: "ip2"
  top: "ip2"
  dropout_param {
    dropout_ratio: 0.5
  }
}
layer {
  name: "ip3"
  type: "InnerProduct"
  bottom: "ip2"
  top: "ip3"
  inner_product_param {
    num_output: 11
    weight_filler {
      type: "xavier"
    }
    bias_filler {
      type: "constant"
    }
  }
}
layer {
  name: "drop3"
  type: "Dropout"
  bottom: "ip3"
  top: "ip3"
  dropout_param {
    dropout_ratio: 0.5
  }
}
layer {
  name: "loss"
  type: "SoftmaxWithLoss"
  bottom: "ip3"
  bottom: "label"
  top: "loss"
}
I0525 20:57:53.083811 29460 layer_factory.hpp:77] Creating layer data_hdf5
I0525 20:57:53.083840 29460 net.cpp:106] Creating Layer data_hdf5
I0525 20:57:53.083865 29460 net.cpp:411] data_hdf5 -> data
I0525 20:57:53.083899 29460 net.cpp:411] data_hdf5 -> label
I0525 20:57:53.083941 29460 hdf5_data_layer.cpp:79] Loading list of HDF5 filenames from: /lustre/atlas/proj-shared/hep105/caffe_titan/minosmatch_nukecczdefs_127x50_x_unshifted_me1Bmc.trainlist
I0525 20:57:53.085324 29460 hdf5_data_layer.cpp:93] Number of HDF5 files: 15
I0525 20:57:53.087684 29460 hdf5.cpp:32] Datatype class: H5T_FLOAT
I0525 20:58:14.656121 29460 hdf5.cpp:35] Datatype class: H5T_INTEGER
I0525 20:58:14.661309 29460 net.cpp:150] Setting up data_hdf5
I0525 20:58:14.661350 29460 net.cpp:157] Top shape: 100 1 127 50 (635000)
I0525 20:58:14.661367 29460 net.cpp:157] Top shape: 100 (100)
I0525 20:58:14.661384 29460 net.cpp:165] Memory required for data: 2540400
I0525 20:58:14.661414 29460 layer_factory.hpp:77] Creating layer conv1
I0525 20:58:14.661448 29460 net.cpp:106] Creating Layer conv1
I0525 20:58:14.661470 29460 net.cpp:454] conv1 <- data
I0525 20:58:14.661495 29460 net.cpp:411] conv1 -> conv1
I0525 20:58:15.029907 29460 net.cpp:150] Setting up conv1
I0525 20:58:15.029961 29460 net.cpp:157] Top shape: 100 12 120 48 (6912000)
I0525 20:58:15.029989 29460 net.cpp:165] Memory required for data: 30188400
I0525 20:58:15.030020 29460 layer_factory.hpp:77] Creating layer relu1
I0525 20:58:15.030042 29460 net.cpp:106] Creating Layer relu1
I0525 20:58:15.030062 29460 net.cpp:454] relu1 <- conv1
I0525 20:58:15.030098 29460 net.cpp:397] relu1 -> conv1 (in-place)
I0525 20:58:15.030629 29460 net.cpp:150] Setting up relu1
I0525 20:58:15.030653 29460 net.cpp:157] Top shape: 100 12 120 48 (6912000)
I0525 20:58:15.030666 29460 net.cpp:165] Memory required for data: 57836400
I0525 20:58:15.030683 29460 layer_factory.hpp:77] Creating layer pool1
I0525 20:58:15.030709 29460 net.cpp:106] Creating Layer pool1
I0525 20:58:15.030724 29460 net.cpp:454] pool1 <- conv1
I0525 20:58:15.030740 29460 net.cpp:411] pool1 -> pool1
I0525 20:58:15.030833 29460 net.cpp:150] Setting up pool1
I0525 20:58:15.030850 29460 net.cpp:157] Top shape: 100 12 60 48 (3456000)
I0525 20:58:15.030865 29460 net.cpp:165] Memory required for data: 71660400
I0525 20:58:15.030886 29460 layer_factory.hpp:77] Creating layer conv2
I0525 20:58:15.030910 29460 net.cpp:106] Creating Layer conv2
I0525 20:58:15.030925 29460 net.cpp:454] conv2 <- pool1
I0525 20:58:15.030939 29460 net.cpp:411] conv2 -> conv2
I0525 20:58:15.033680 29460 net.cpp:150] Setting up conv2
I0525 20:58:15.033715 29460 net.cpp:157] Top shape: 100 20 54 46 (4968000)
I0525 20:58:15.033728 29460 net.cpp:165] Memory required for data: 91532400
I0525 20:58:15.033756 29460 layer_factory.hpp:77] Creating layer relu2
I0525 20:58:15.033783 29460 net.cpp:106] Creating Layer relu2
I0525 20:58:15.033797 29460 net.cpp:454] relu2 <- conv2
I0525 20:58:15.033813 29460 net.cpp:397] relu2 -> conv2 (in-place)
I0525 20:58:15.034173 29460 net.cpp:150] Setting up relu2
I0525 20:58:15.034193 29460 net.cpp:157] Top shape: 100 20 54 46 (4968000)
I0525 20:58:15.034206 29460 net.cpp:165] Memory required for data: 111404400
I0525 20:58:15.034219 29460 layer_factory.hpp:77] Creating layer pool2
I0525 20:58:15.034245 29460 net.cpp:106] Creating Layer pool2
I0525 20:58:15.034258 29460 net.cpp:454] pool2 <- conv2
I0525 20:58:15.034274 29460 net.cpp:411] pool2 -> pool2
I0525 20:58:15.034369 29460 net.cpp:150] Setting up pool2
I0525 20:58:15.034387 29460 net.cpp:157] Top shape: 100 20 27 46 (2484000)
I0525 20:58:15.034402 29460 net.cpp:165] Memory required for data: 121340400
I0525 20:58:15.034422 29460 layer_factory.hpp:77] Creating layer conv3
I0525 20:58:15.034443 29460 net.cpp:106] Creating Layer conv3
I0525 20:58:15.034463 29460 net.cpp:454] conv3 <- pool2
I0525 20:58:15.034481 29460 net.cpp:411] conv3 -> conv3
I0525 20:58:15.036424 29460 net.cpp:150] Setting up conv3
I0525 20:58:15.036449 29460 net.cpp:157] Top shape: 100 28 22 44 (2710400)
I0525 20:58:15.036469 29460 net.cpp:165] Memory required for data: 132182000
I0525 20:58:15.036492 29460 layer_factory.hpp:77] Creating layer relu3
I0525 20:58:15.036514 29460 net.cpp:106] Creating Layer relu3
I0525 20:58:15.036536 29460 net.cpp:454] relu3 <- conv3
I0525 20:58:15.036553 29460 net.cpp:397] relu3 -> conv3 (in-place)
I0525 20:58:15.037046 29460 net.cpp:150] Setting up relu3
I0525 20:58:15.037071 29460 net.cpp:157] Top shape: 100 28 22 44 (2710400)
I0525 20:58:15.037084 29460 net.cpp:165] Memory required for data: 143023600
I0525 20:58:15.037101 29460 layer_factory.hpp:77] Creating layer pool3
I0525 20:58:15.037117 29460 net.cpp:106] Creating Layer pool3
I0525 20:58:15.037138 29460 net.cpp:454] pool3 <- conv3
I0525 20:58:15.037153 29460 net.cpp:411] pool3 -> pool3
I0525 20:58:15.037235 29460 net.cpp:150] Setting up pool3
I0525 20:58:15.037258 29460 net.cpp:157] Top shape: 100 28 11 44 (1355200)
I0525 20:58:15.037271 29460 net.cpp:165] Memory required for data: 148444400
I0525 20:58:15.037286 29460 layer_factory.hpp:77] Creating layer conv4
I0525 20:58:15.037312 29460 net.cpp:106] Creating Layer conv4
I0525 20:58:15.037327 29460 net.cpp:454] conv4 <- pool3
I0525 20:58:15.037343 29460 net.cpp:411] conv4 -> conv4
I0525 20:58:15.040295 29460 net.cpp:150] Setting up conv4
I0525 20:58:15.040331 29460 net.cpp:157] Top shape: 100 36 6 42 (907200)
I0525 20:58:15.040345 29460 net.cpp:165] Memory required for data: 152073200
I0525 20:58:15.040369 29460 layer_factory.hpp:77] Creating layer relu4
I0525 20:58:15.040398 29460 net.cpp:106] Creating Layer relu4
I0525 20:58:15.040412 29460 net.cpp:454] relu4 <- conv4
I0525 20:58:15.040428 29460 net.cpp:397] relu4 -> conv4 (in-place)
I0525 20:58:15.040930 29460 net.cpp:150] Setting up relu4
I0525 20:58:15.040952 29460 net.cpp:157] Top shape: 100 36 6 42 (907200)
I0525 20:58:15.040966 29460 net.cpp:165] Memory required for data: 155702000
I0525 20:58:15.040982 29460 layer_factory.hpp:77] Creating layer pool4
I0525 20:58:15.041007 29460 net.cpp:106] Creating Layer pool4
I0525 20:58:15.041020 29460 net.cpp:454] pool4 <- conv4
I0525 20:58:15.041036 29460 net.cpp:411] pool4 -> pool4
I0525 20:58:15.041121 29460 net.cpp:150] Setting up pool4
I0525 20:58:15.041144 29460 net.cpp:157] Top shape: 100 36 3 42 (453600)
I0525 20:58:15.041157 29460 net.cpp:165] Memory required for data: 157516400
I0525 20:58:15.041172 29460 layer_factory.hpp:77] Creating layer ip1
I0525 20:58:15.041200 29460 net.cpp:106] Creating Layer ip1
I0525 20:58:15.041214 29460 net.cpp:454] ip1 <- pool4
I0525 20:58:15.041230 29460 net.cpp:411] ip1 -> ip1
I0525 20:58:15.056658 29460 net.cpp:150] Setting up ip1
I0525 20:58:15.056686 29460 net.cpp:157] Top shape: 100 196 (19600)
I0525 20:58:15.056709 29460 net.cpp:165] Memory required for data: 157594800
I0525 20:58:15.056735 29460 layer_factory.hpp:77] Creating layer relu5
I0525 20:58:15.056756 29460 net.cpp:106] Creating Layer relu5
I0525 20:58:15.056768 29460 net.cpp:454] relu5 <- ip1
I0525 20:58:15.056807 29460 net.cpp:397] relu5 -> ip1 (in-place)
I0525 20:58:15.057166 29460 net.cpp:150] Setting up relu5
I0525 20:58:15.057186 29460 net.cpp:157] Top shape: 100 196 (19600)
I0525 20:58:15.057199 29460 net.cpp:165] Memory required for data: 157673200
I0525 20:58:15.057214 29460 layer_factory.hpp:77] Creating layer drop1
I0525 20:58:15.057245 29460 net.cpp:106] Creating Layer drop1
I0525 20:58:15.057260 29460 net.cpp:454] drop1 <- ip1
I0525 20:58:15.057276 29460 net.cpp:397] drop1 -> ip1 (in-place)
I0525 20:58:15.057346 29460 net.cpp:150] Setting up drop1
I0525 20:58:15.057373 29460 net.cpp:157] Top shape: 100 196 (19600)
I0525 20:58:15.057385 29460 net.cpp:165] Memory required for data: 157751600
I0525 20:58:15.057400 29460 layer_factory.hpp:77] Creating layer ip2
I0525 20:58:15.057422 29460 net.cpp:106] Creating Layer ip2
I0525 20:58:15.057441 29460 net.cpp:454] ip2 <- ip1
I0525 20:58:15.057457 29460 net.cpp:411] ip2 -> ip2
I0525 20:58:15.057946 29460 net.cpp:150] Setting up ip2
I0525 20:58:15.057966 29460 net.cpp:157] Top shape: 100 98 (9800)
I0525 20:58:15.057979 29460 net.cpp:165] Memory required for data: 157790800
I0525 20:58:15.057999 29460 layer_factory.hpp:77] Creating layer relu6
I0525 20:58:15.058022 29460 net.cpp:106] Creating Layer relu6
I0525 20:58:15.058034 29460 net.cpp:454] relu6 <- ip2
I0525 20:58:15.058049 29460 net.cpp:397] relu6 -> ip2 (in-place)
I0525 20:58:15.058604 29460 net.cpp:150] Setting up relu6
I0525 20:58:15.058627 29460 net.cpp:157] Top shape: 100 98 (9800)
I0525 20:58:15.058640 29460 net.cpp:165] Memory required for data: 157830000
I0525 20:58:15.058656 29460 layer_factory.hpp:77] Creating layer drop2
I0525 20:58:15.058671 29460 net.cpp:106] Creating Layer drop2
I0525 20:58:15.058693 29460 net.cpp:454] drop2 <- ip2
I0525 20:58:15.058709 29460 net.cpp:397] drop2 -> ip2 (in-place)
I0525 20:58:15.058758 29460 net.cpp:150] Setting up drop2
I0525 20:58:15.058781 29460 net.cpp:157] Top shape: 100 98 (9800)
I0525 20:58:15.058794 29460 net.cpp:165] Memory required for data: 157869200
I0525 20:58:15.058807 29460 layer_factory.hpp:77] Creating layer ip3
I0525 20:58:15.058826 29460 net.cpp:106] Creating Layer ip3
I0525 20:58:15.058840 29460 net.cpp:454] ip3 <- ip2
I0525 20:58:15.058861 29460 net.cpp:411] ip3 -> ip3
I0525 20:58:15.059082 29460 net.cpp:150] Setting up ip3
I0525 20:58:15.059103 29460 net.cpp:157] Top shape: 100 11 (1100)
I0525 20:58:15.059114 29460 net.cpp:165] Memory required for data: 157873600
I0525 20:58:15.059135 29460 layer_factory.hpp:77] Creating layer drop3
I0525 20:58:15.059150 29460 net.cpp:106] Creating Layer drop3
I0525 20:58:15.059164 29460 net.cpp:454] drop3 <- ip3
I0525 20:58:15.059185 29460 net.cpp:397] drop3 -> ip3 (in-place)
I0525 20:58:15.059231 29460 net.cpp:150] Setting up drop3
I0525 20:58:15.059247 29460 net.cpp:157] Top shape: 100 11 (1100)
I0525 20:58:15.059262 29460 net.cpp:165] Memory required for data: 157878000
I0525 20:58:15.059286 29460 layer_factory.hpp:77] Creating layer loss
I0525 20:58:15.059308 29460 net.cpp:106] Creating Layer loss
I0525 20:58:15.059324 29460 net.cpp:454] loss <- ip3
I0525 20:58:15.059336 29460 net.cpp:454] loss <- label
I0525 20:58:15.059358 29460 net.cpp:411] loss -> loss
I0525 20:58:15.059376 29460 layer_factory.hpp:77] Creating layer loss
…
I0525 20:58:15.062222 29460 solver.cpp:181] Creating test net (#0) specified by net file: /lustre/atlas/proj-shared/hep105/caffe_titan/caffe_workflow/logs_bslr/bs_100_lr_0.0045_2016-05-20T15.49.26.966043.prototxt
I0525 20:58:15.062301 29460 net.cpp:322] The NetState phase (1) differed from the phase (0) specified by a rule in layer data_hdf5
I0525 20:58:15.062681 29460 net.cpp:49] Initializing net from parameters: 
name: "caffe_test_127x50_x_unshifted"
state {
  phase: TEST
}
layer {
  name: "data_hdf5"
  type: "HDF5Data"
  top: "data"
  top: "label"
  include {
    phase: TEST
  }
  hdf5_data_param {
    source: "/lustre/atlas/proj-shared/hep105/caffe_titan/minosmatch_nukecczdefs_127x50_x_unshifted_me1Bmc.testlist"
    batch_size: 100
  }
}
layer {
  name: "conv1"
  type: "Convolution"
  bottom: "data"
  top: "conv1"
  convolution_param {
    num_output: 12
    pad: 0
    stride: 1
    weight_filler {
      type: "xavier"
    }
    bias_filler {
      type: "constant"
    }
    kernel_h: 8
    kernel_w: 3
  }
}
layer {
  name: "relu1"
  type: "ReLU"
  bottom: "conv1"
  top: "conv1"
}
layer {
  name: "pool1"
  type: "Pooling"
  bottom: "conv1"
  top: "pool1"
  pooling_param {
    pool: MAX
    kernel_h: 2
    kernel_w: 1
    stride_h: 2
    stride_w: 1
  }
}
layer {
  name: "conv2"
  type: "Convolution"
  bottom: "pool1"
  top: "conv2"
  convolution_param {
    num_output: 20
    pad: 0
    stride: 1
    weight_filler {
      type: "xavier"
    }
    bias_filler {
      type: "constant"
    }
    kernel_h: 7
    kernel_w: 3
  }
}
layer {
  name: "relu2"
  type: "ReLU"
  bottom: "conv2"
  top: "conv2"
}
layer {
  name: "pool2"
  type: "Pooling"
  bottom: "conv2"
  top: "pool2"
  pooling_param {
    pool: MAX
    kernel_h: 2
    kernel_w: 1
    stride_h: 2
    stride_w: 1
  }
}
layer {
  name: "conv3"
  type: "Convolution"
  bottom: "pool2"
  top: "conv3"
  convolution_param {
    num_output: 28
    pad: 0
    stride: 1
    weight_filler {
      type: "xavier"
    }
    bias_filler {
      type: "constant"
    }
    kernel_h: 6
    kernel_w: 3
  }
}
layer {
  name: "relu3"
  type: "ReLU"
  bottom: "conv3"
  top: "conv3"
}
layer {
  name: "pool3"
  type: "Pooling"
  bottom: "conv3"
  top: "pool3"
  pooling_param {
    pool: MAX
    kernel_h: 2
    kernel_w: 1
    stride_h: 2
    stride_w: 1
  }
}
layer {
  name: "conv4"
  type: "Convolution"
  bottom: "pool3"
  top: "conv4"
  convolution_param {
    num_output: 36
    pad: 0
    stride: 1
    weight_filler {
      type: "xavier"
    }
    bias_filler {
      type: "constant"
    }
    kernel_h: 6
    kernel_w: 3
  }
}
layer {
  name: "relu4"
  type: "ReLU"
  bottom: "conv4"
  top: "conv4"
}
layer {
  name: "pool4"
  type: "Pooling"
  bottom: "conv4"
  top: "pool4"
  pooling_param {
    pool: MAX
    kernel_h: 2
    kernel_w: 1
    stride_h: 2
    stride_w: 1
  }
}
layer {
  name: "ip1"
  type: "InnerProduct"
  bottom: "pool4"
  top: "ip1"
  inner_product_param {
    num_output: 196
    weight_filler {
      type: "xavier"
    }
    bias_filler {
      type: "constant"
    }
  }
}
layer {
  name: "relu5"
  type: "ReLU"
  bottom: "ip1"
  top: "ip1"
}
layer {
  name: "drop1"
  type: "Dropout"
  bottom: "ip1"
  top: "ip1"
  dropout_param {
    dropout_ratio: 0.5
  }
}
layer {
  name: "ip2"
  type: "InnerProduct"
  bottom: "ip1"
  top: "ip2"
  inner_product_param {
    num_output: 98
    weight_filler {
      type: "xavier"
    }
    bias_filler {
      type: "constant"
    }
  }
}
layer {
  name: "relu6"
  type: "ReLU"
  bottom: "ip2"
  top: "ip2"
}
layer {
  name: "drop2"
  type: "Dropout"
  bottom: "ip2"
  top: "ip2"
  dropout_param {
    dropout_ratio: 0.5
  }
}
layer {
  name: "ip3"
  type: "InnerProduct"
  bottom: "ip2"
  top: "ip3"
  inner_product_param {
    num_output: 11
    weight_filler {
      type: "xavier"
    }
    bias_filler {
      type: "constant"
    }
  }
}
layer {
  name: "drop3"
  type: "Dropout"
  bottom: "ip3"
  top: "ip3"
  dropout_param {
    dropout_ratio: 0.5
  }
}
layer {
  name: "accuracy"
  type: "Accuracy"
  bottom: "ip3"
  bottom: "label"
  top: "accuracy"
  include {
    phase: TEST
  }
}
layer {
  name: "loss"
  type: "SoftmaxWithLoss"
  bottom: "ip3"
  bottom: "label"
  top: "loss"
}
I0525 20:58:15.062903 29460 layer_factory.hpp:77] Creating layer data_hdf5
I0525 20:58:15.062924 29460 net.cpp:106] Creating Layer data_hdf5
I0525 20:58:15.062942 29460 net.cpp:411] data_hdf5 -> data
I0525 20:58:15.062963 29460 net.cpp:411] data_hdf5 -> label
I0525 20:58:15.062983 29460 hdf5_data_layer.cpp:79] Loading list of HDF5 filenames from: /lustre/atlas/proj-shared/hep105/caffe_titan/minosmatch_nukecczdefs_127x50_x_unshifted_me1Bmc.testlist
I0525 20:58:15.064292 29460 hdf5_data_layer.cpp:93] Number of HDF5 files: 3
I0525 20:58:36.393110 29460 net.cpp:150] Setting up data_hdf5
I0525 20:58:36.393276 29460 net.cpp:157] Top shape: 100 1 127 50 (635000)
I0525 20:58:36.393296 29460 net.cpp:157] Top shape: 100 (100)
I0525 20:58:36.393309 29460 net.cpp:165] Memory required for data: 2540400
I0525 20:58:36.393323 29460 layer_factory.hpp:77] Creating layer label_data_hdf5_1_split
I0525 20:58:36.393352 29460 net.cpp:106] Creating Layer label_data_hdf5_1_split
I0525 20:58:36.393371 29460 net.cpp:454] label_data_hdf5_1_split <- label
I0525 20:58:36.393409 29460 net.cpp:411] label_data_hdf5_1_split -> label_data_hdf5_1_split_0
I0525 20:58:36.393431 29460 net.cpp:411] label_data_hdf5_1_split -> label_data_hdf5_1_split_1
I0525 20:58:36.393512 29460 net.cpp:150] Setting up label_data_hdf5_1_split
I0525 20:58:36.393534 29460 net.cpp:157] Top shape: 100 (100)
I0525 20:58:36.393549 29460 net.cpp:157] Top shape: 100 (100)
I0525 20:58:36.393573 29460 net.cpp:165] Memory required for data: 2541200
I0525 20:58:36.393585 29460 layer_factory.hpp:77] Creating layer conv1
I0525 20:58:36.393611 29460 net.cpp:106] Creating Layer conv1
I0525 20:58:36.393630 29460 net.cpp:454] conv1 <- data
I0525 20:58:36.393649 29460 net.cpp:411] conv1 -> conv1
I0525 20:58:36.395628 29460 net.cpp:150] Setting up conv1
I0525 20:58:36.395654 29460 net.cpp:157] Top shape: 100 12 120 48 (6912000)
I0525 20:58:36.395675 29460 net.cpp:165] Memory required for data: 30189200
I0525 20:58:36.395699 29460 layer_factory.hpp:77] Creating layer relu1
I0525 20:58:36.395720 29460 net.cpp:106] Creating Layer relu1
I0525 20:58:36.395743 29460 net.cpp:454] relu1 <- conv1
I0525 20:58:36.395758 29460 net.cpp:397] relu1 -> conv1 (in-place)
I0525 20:58:36.396281 29460 net.cpp:150] Setting up relu1
I0525 20:58:36.396303 29460 net.cpp:157] Top shape: 100 12 120 48 (6912000)
I0525 20:58:36.396317 29460 net.cpp:165] Memory required for data: 57837200
I0525 20:58:36.396328 29460 layer_factory.hpp:77] Creating layer pool1
I0525 20:58:36.396359 29460 net.cpp:106] Creating Layer pool1
I0525 20:58:36.396373 29460 net.cpp:454] pool1 <- conv1
I0525 20:58:36.396389 29460 net.cpp:411] pool1 -> pool1
I0525 20:58:36.396477 29460 net.cpp:150] Setting up pool1
I0525 20:58:36.396494 29460 net.cpp:157] Top shape: 100 12 60 48 (3456000)
I0525 20:58:36.396509 29460 net.cpp:165] Memory required for data: 71661200
I0525 20:58:36.396528 29460 layer_factory.hpp:77] Creating layer conv2
I0525 20:58:36.396549 29460 net.cpp:106] Creating Layer conv2
I0525 20:58:36.396561 29460 net.cpp:454] conv2 <- pool1
I0525 20:58:36.396579 29460 net.cpp:411] conv2 -> conv2
I0525 20:58:36.398546 29460 net.cpp:150] Setting up conv2
I0525 20:58:36.398571 29460 net.cpp:157] Top shape: 100 20 54 46 (4968000)
I0525 20:58:36.398591 29460 net.cpp:165] Memory required for data: 91533200
I0525 20:58:36.398613 29460 layer_factory.hpp:77] Creating layer relu2
I0525 20:58:36.398633 29460 net.cpp:106] Creating Layer relu2
I0525 20:58:36.398655 29460 net.cpp:454] relu2 <- conv2
I0525 20:58:36.398671 29460 net.cpp:397] relu2 -> conv2 (in-place)
I0525 20:58:36.399024 29460 net.cpp:150] Setting up relu2
I0525 20:58:36.399042 29460 net.cpp:157] Top shape: 100 20 54 46 (4968000)
I0525 20:58:36.399055 29460 net.cpp:165] Memory required for data: 111405200
I0525 20:58:36.399067 29460 layer_factory.hpp:77] Creating layer pool2
I0525 20:58:36.399093 29460 net.cpp:106] Creating Layer pool2
I0525 20:58:36.399106 29460 net.cpp:454] pool2 <- conv2
I0525 20:58:36.399122 29460 net.cpp:411] pool2 -> pool2
I0525 20:58:36.399214 29460 net.cpp:150] Setting up pool2
I0525 20:58:36.399231 29460 net.cpp:157] Top shape: 100 20 27 46 (2484000)
I0525 20:58:36.399250 29460 net.cpp:165] Memory required for data: 121341200
I0525 20:58:36.399262 29460 layer_factory.hpp:77] Creating layer conv3
I0525 20:58:36.399288 29460 net.cpp:106] Creating Layer conv3
I0525 20:58:36.399307 29460 net.cpp:454] conv3 <- pool2
I0525 20:58:36.399324 29460 net.cpp:411] conv3 -> conv3
I0525 20:58:36.401342 29460 net.cpp:150] Setting up conv3
I0525 20:58:36.401367 29460 net.cpp:157] Top shape: 100 28 22 44 (2710400)
I0525 20:58:36.401381 29460 net.cpp:165] Memory required for data: 132182800
I0525 20:58:36.401418 29460 layer_factory.hpp:77] Creating layer relu3
I0525 20:58:36.401445 29460 net.cpp:106] Creating Layer relu3
I0525 20:58:36.401458 29460 net.cpp:454] relu3 <- conv3
I0525 20:58:36.401481 29460 net.cpp:397] relu3 -> conv3 (in-place)
I0525 20:58:36.401980 29460 net.cpp:150] Setting up relu3
I0525 20:58:36.402004 29460 net.cpp:157] Top shape: 100 28 22 44 (2710400)
I0525 20:58:36.402016 29460 net.cpp:165] Memory required for data: 143024400
I0525 20:58:36.402032 29460 layer_factory.hpp:77] Creating layer pool3
I0525 20:58:36.402048 29460 net.cpp:106] Creating Layer pool3
I0525 20:58:36.402070 29460 net.cpp:454] pool3 <- conv3
I0525 20:58:36.402086 29460 net.cpp:411] pool3 -> pool3
I0525 20:58:36.402173 29460 net.cpp:150] Setting up pool3
I0525 20:58:36.402190 29460 net.cpp:157] Top shape: 100 28 11 44 (1355200)
I0525 20:58:36.402205 29460 net.cpp:165] Memory required for data: 148445200
I0525 20:58:36.402217 29460 layer_factory.hpp:77] Creating layer conv4
I0525 20:58:36.402246 29460 net.cpp:106] Creating Layer conv4
I0525 20:58:36.402266 29460 net.cpp:454] conv4 <- pool3
I0525 20:58:36.402283 29460 net.cpp:411] conv4 -> conv4
I0525 20:58:36.404398 29460 net.cpp:150] Setting up conv4
I0525 20:58:36.404423 29460 net.cpp:157] Top shape: 100 36 6 42 (907200)
I0525 20:58:36.404443 29460 net.cpp:165] Memory required for data: 152074000
I0525 20:58:36.404463 29460 layer_factory.hpp:77] Creating layer relu4
I0525 20:58:36.404482 29460 net.cpp:106] Creating Layer relu4
I0525 20:58:36.404495 29460 net.cpp:454] relu4 <- conv4
I0525 20:58:36.404520 29460 net.cpp:397] relu4 -> conv4 (in-place)
I0525 20:58:36.405019 29460 net.cpp:150] Setting up relu4
I0525 20:58:36.405041 29460 net.cpp:157] Top shape: 100 36 6 42 (907200)
I0525 20:58:36.405055 29460 net.cpp:165] Memory required for data: 155702800
I0525 20:58:36.405071 29460 layer_factory.hpp:77] Creating layer pool4
I0525 20:58:36.405087 29460 net.cpp:106] Creating Layer pool4
I0525 20:58:36.405109 29460 net.cpp:454] pool4 <- conv4
I0525 20:58:36.405125 29460 net.cpp:411] pool4 -> pool4
I0525 20:58:36.405212 29460 net.cpp:150] Setting up pool4
I0525 20:58:36.405230 29460 net.cpp:157] Top shape: 100 36 3 42 (453600)
I0525 20:58:36.405244 29460 net.cpp:165] Memory required for data: 157517200
I0525 20:58:36.405256 29460 layer_factory.hpp:77] Creating layer ip1
I0525 20:58:36.405282 29460 net.cpp:106] Creating Layer ip1
I0525 20:58:36.405294 29460 net.cpp:454] ip1 <- pool4
I0525 20:58:36.405316 29460 net.cpp:411] ip1 -> ip1
I0525 20:58:36.420814 29460 net.cpp:150] Setting up ip1
I0525 20:58:36.420847 29460 net.cpp:157] Top shape: 100 196 (19600)
I0525 20:58:36.420869 29460 net.cpp:165] Memory required for data: 157595600
I0525 20:58:36.420897 29460 layer_factory.hpp:77] Creating layer relu5
I0525 20:58:36.420919 29460 net.cpp:106] Creating Layer relu5
I0525 20:58:36.420944 29460 net.cpp:454] relu5 <- ip1
I0525 20:58:36.420961 29460 net.cpp:397] relu5 -> ip1 (in-place)
I0525 20:58:36.421329 29460 net.cpp:150] Setting up relu5
I0525 20:58:36.421350 29460 net.cpp:157] Top shape: 100 196 (19600)
I0525 20:58:36.421361 29460 net.cpp:165] Memory required for data: 157674000
I0525 20:58:36.421377 29460 layer_factory.hpp:77] Creating layer drop1
I0525 20:58:36.421406 29460 net.cpp:106] Creating Layer drop1
I0525 20:58:36.421419 29460 net.cpp:454] drop1 <- ip1
I0525 20:58:36.421435 29460 net.cpp:397] drop1 -> ip1 (in-place)
I0525 20:58:36.421488 29460 net.cpp:150] Setting up drop1
I0525 20:58:36.421511 29460 net.cpp:157] Top shape: 100 196 (19600)
I0525 20:58:36.421524 29460 net.cpp:165] Memory required for data: 157752400
I0525 20:58:36.421536 29460 layer_factory.hpp:77] Creating layer ip2
I0525 20:58:36.421553 29460 net.cpp:106] Creating Layer ip2
I0525 20:58:36.421568 29460 net.cpp:454] ip2 <- ip1
I0525 20:58:36.421592 29460 net.cpp:411] ip2 -> ip2
I0525 20:58:36.422087 29460 net.cpp:150] Setting up ip2
I0525 20:58:36.422106 29460 net.cpp:157] Top shape: 100 98 (9800)
I0525 20:58:36.422119 29460 net.cpp:165] Memory required for data: 157791600
I0525 20:58:36.422140 29460 layer_factory.hpp:77] Creating layer relu6
I0525 20:58:36.422176 29460 net.cpp:106] Creating Layer relu6
I0525 20:58:36.422189 29460 net.cpp:454] relu6 <- ip2
I0525 20:58:36.422205 29460 net.cpp:397] relu6 -> ip2 (in-place)
I0525 20:58:36.422780 29460 net.cpp:150] Setting up relu6
I0525 20:58:36.422802 29460 net.cpp:157] Top shape: 100 98 (9800)
I0525 20:58:36.422816 29460 net.cpp:165] Memory required for data: 157830800
I0525 20:58:36.422828 29460 layer_factory.hpp:77] Creating layer drop2
I0525 20:58:36.422848 29460 net.cpp:106] Creating Layer drop2
I0525 20:58:36.422870 29460 net.cpp:454] drop2 <- ip2
I0525 20:58:36.422888 29460 net.cpp:397] drop2 -> ip2 (in-place)
I0525 20:58:36.422941 29460 net.cpp:150] Setting up drop2
I0525 20:58:36.422960 29460 net.cpp:157] Top shape: 100 98 (9800)
I0525 20:58:36.422981 29460 net.cpp:165] Memory required for data: 157870000
I0525 20:58:36.422993 29460 layer_factory.hpp:77] Creating layer ip3
I0525 20:58:36.423017 29460 net.cpp:106] Creating Layer ip3
I0525 20:58:36.423029 29460 net.cpp:454] ip3 <- ip2
I0525 20:58:36.423048 29460 net.cpp:411] ip3 -> ip3
I0525 20:58:36.423295 29460 net.cpp:150] Setting up ip3
I0525 20:58:36.423315 29460 net.cpp:157] Top shape: 100 11 (1100)
I0525 20:58:36.423326 29460 net.cpp:165] Memory required for data: 157874400
I0525 20:58:36.423347 29460 layer_factory.hpp:77] Creating layer drop3
I0525 20:58:36.423369 29460 net.cpp:106] Creating Layer drop3
I0525 20:58:36.423382 29460 net.cpp:454] drop3 <- ip3
I0525 20:58:36.423398 29460 net.cpp:397] drop3 -> ip3 (in-place)
I0525 20:58:36.423446 29460 net.cpp:150] Setting up drop3
I0525 20:58:36.423468 29460 net.cpp:157] Top shape: 100 11 (1100)
I0525 20:58:36.423481 29460 net.cpp:165] Memory required for data: 157878800
I0525 20:58:36.423493 29460 layer_factory.hpp:77] Creating layer ip3_drop3_0_split
I0525 20:58:36.423508 29460 net.cpp:106] Creating Layer ip3_drop3_0_split
I0525 20:58:36.423524 29460 net.cpp:454] ip3_drop3_0_split <- ip3
I0525 20:58:36.423547 29460 net.cpp:411] ip3_drop3_0_split -> ip3_drop3_0_split_0
I0525 20:58:36.423565 29460 net.cpp:411] ip3_drop3_0_split -> ip3_drop3_0_split_1
I0525 20:58:36.423655 29460 net.cpp:150] Setting up ip3_drop3_0_split
I0525 20:58:36.423674 29460 net.cpp:157] Top shape: 100 11 (1100)
I0525 20:58:36.423691 29460 net.cpp:157] Top shape: 100 11 (1100)
I0525 20:58:36.423705 29460 net.cpp:165] Memory required for data: 157887600
I0525 20:58:36.423717 29460 layer_factory.hpp:77] Creating layer accuracy
I0525 20:58:36.423746 29460 net.cpp:106] Creating Layer accuracy
I0525 20:58:36.423760 29460 net.cpp:454] accuracy <- ip3_drop3_0_split_0
I0525 20:58:36.423774 29460 net.cpp:454] accuracy <- label_data_hdf5_1_split_0
I0525 20:58:36.423790 29460 net.cpp:411] accuracy -> accuracy
…
