…
I0526 09:05:04.920742 26882 net.cpp:322] The NetState phase (0) differed from the phase (1) specified by a rule in layer data_hdf5
I0526 09:05:04.920814 26882 net.cpp:322] The NetState phase (0) differed from the phase (1) specified by a rule in layer accuracy
I0526 09:05:04.921203 26882 net.cpp:49] Initializing net from parameters: 
name: "caffe_test_127x50_x_unshifted"
state {
  phase: TRAIN
}
layer {
  name: "data_hdf5"
  type: "HDF5Data"
  top: "data"
  top: "label"
  include {
    phase: TRAIN
  }
  hdf5_data_param {
    source: "/lustre/atlas/proj-shared/hep105/caffe_titan/minosmatch_nukecczdefs_127x50_x_unshifted_me1Bmc.trainlist"
    batch_size: 10
  }
}
layer {
  name: "conv1"
  type: "Convolution"
  bottom: "data"
  top: "conv1"
  convolution_param {
    num_output: 12
    pad: 0
    stride: 1
    weight_filler {
      type: "xavier"
    }
    bias_filler {
      type: "constant"
    }
    kernel_h: 8
    kernel_w: 3
  }
}
layer {
  name: "relu1"
  type: "ReLU"
  bottom: "conv1"
  top: "conv1"
}
layer {
  name: "pool1"
  type: "Pooling"
  bottom: "conv1"
  top: "pool1"
  pooling_param {
    pool: MAX
    kernel_h: 2
    kernel_w: 1
    stride_h: 2
    stride_w: 1
  }
}
layer {
  name: "conv2"
  type: "Convolution"
  bottom: "pool1"
  top: "conv2"
  convolution_param {
    num_output: 20
    pad: 0
    stride: 1
    weight_filler {
      type: "xavier"
    }
    bias_filler {
      type: "constant"
    }
    kernel_h: 7
    kernel_w: 3
  }
}
layer {
  name: "relu2"
  type: "ReLU"
  bottom: "conv2"
  top: "conv2"
}
layer {
  name: "pool2"
  type: "Pooling"
  bottom: "conv2"
  top: "pool2"
  pooling_param {
    pool: MAX
    kernel_h: 2
    kernel_w: 1
    stride_h: 2
    stride_w: 1
  }
}
layer {
  name: "conv3"
  type: "Convolution"
  bottom: "pool2"
  top: "conv3"
  convolution_param {
    num_output: 28
    pad: 0
    stride: 1
    weight_filler {
      type: "xavier"
    }
    bias_filler {
      type: "constant"
    }
    kernel_h: 6
    kernel_w: 3
  }
}
layer {
  name: "relu3"
  type: "ReLU"
  bottom: "conv3"
  top: "conv3"
}
layer {
  name: "pool3"
  type: "Pooling"
  bottom: "conv3"
  top: "pool3"
  pooling_param {
    pool: MAX
    kernel_h: 2
    kernel_w: 1
    stride_h: 2
    stride_w: 1
  }
}
layer {
  name: "conv4"
  type: "Convolution"
  bottom: "pool3"
  top: "conv4"
  convolution_param {
    num_output: 36
    pad: 0
    stride: 1
    weight_filler {
      type: "xavier"
    }
    bias_filler {
      type: "constant"
    }
    kernel_h: 6
    kernel_w: 3
  }
}
layer {
  name: "relu4"
  type: "ReLU"
  bottom: "conv4"
  top: "conv4"
}
layer {
  name: "pool4"
  type: "Pooling"
  bottom: "conv4"
  top: "pool4"
  pooling_param {
    pool: MAX
    kernel_h: 2
    kernel_w: 1
    stride_h: 2
    stride_w: 1
  }
}
layer {
  name: "ip1"
  type: "InnerProduct"
  bottom: "pool4"
  top: "ip1"
  inner_product_param {
    num_output: 196
    weight_filler {
      type: "xavier"
    }
    bias_filler {
      type: "constant"
    }
  }
}
layer {
  name: "relu5"
  type: "ReLU"
  bottom: "ip1"
  top: "ip1"
}
layer {
  name: "drop1"
  type: "Dropout"
  bottom: "ip1"
  top: "ip1"
  dropout_param {
    dropout_ratio: 0.5
  }
}
layer {
  name: "ip2"
  type: "InnerProduct"
  bottom: "ip1"
  top: "ip2"
  inner_product_param {
    num_output: 98
    weight_filler {
      type: "xavier"
    }
    bias_filler {
      type: "constant"
    }
  }
}
layer {
  name: "relu6"
  type: "ReLU"
  bottom: "ip2"
  top: "ip2"
}
layer {
  name: "drop2"
  type: "Dropout"
  bottom: "ip2"
  top: "ip2"
  dropout_param {
    dropout_ratio: 0.5
  }
}
layer {
  name: "ip3"
  type: "InnerProduct"
  bottom: "ip2"
  top: "ip3"
  inner_product_param {
    num_output: 11
    weight_filler {
      type: "xavier"
    }
    bias_filler {
      type: "constant"
    }
  }
}
layer {
  name: "drop3"
  type: "Dropout"
  bottom: "ip3"
  top: "ip3"
  dropout_param {
    dropout_ratio: 0.5
  }
}
layer {
  name: "loss"
  type: "SoftmaxWithLoss"
  bottom: "ip3"
  bottom: "label"
  top: "loss"
}
I0526 09:05:04.921413 26882 layer_factory.hpp:77] Creating layer data_hdf5
I0526 09:05:04.921450 26882 net.cpp:106] Creating Layer data_hdf5
I0526 09:05:04.921469 26882 net.cpp:411] data_hdf5 -> data
I0526 09:05:04.921504 26882 net.cpp:411] data_hdf5 -> label
I0526 09:05:04.921546 26882 hdf5_data_layer.cpp:79] Loading list of HDF5 filenames from: /lustre/atlas/proj-shared/hep105/caffe_titan/minosmatch_nukecczdefs_127x50_x_unshifted_me1Bmc.trainlist
I0526 09:05:04.961423 26882 hdf5_data_layer.cpp:93] Number of HDF5 files: 15
I0526 09:05:04.994482 26882 hdf5.cpp:32] Datatype class: H5T_FLOAT
I0526 09:05:26.596474 26882 hdf5.cpp:35] Datatype class: H5T_INTEGER
I0526 09:05:26.603510 26882 net.cpp:150] Setting up data_hdf5
I0526 09:05:26.603560 26882 net.cpp:157] Top shape: 10 1 127 50 (63500)
I0526 09:05:26.603577 26882 net.cpp:157] Top shape: 10 (10)
I0526 09:05:26.603590 26882 net.cpp:165] Memory required for data: 254040
I0526 09:05:26.603610 26882 layer_factory.hpp:77] Creating layer conv1
I0526 09:05:26.603657 26882 net.cpp:106] Creating Layer conv1
I0526 09:05:26.603672 26882 net.cpp:454] conv1 <- data
I0526 09:05:26.603708 26882 net.cpp:411] conv1 -> conv1
I0526 09:05:29.568410 26882 net.cpp:150] Setting up conv1
I0526 09:05:29.568462 26882 net.cpp:157] Top shape: 10 12 120 48 (691200)
I0526 09:05:29.568477 26882 net.cpp:165] Memory required for data: 3018840
I0526 09:05:29.568508 26882 layer_factory.hpp:77] Creating layer relu1
I0526 09:05:29.568531 26882 net.cpp:106] Creating Layer relu1
I0526 09:05:29.568552 26882 net.cpp:454] relu1 <- conv1
I0526 09:05:29.568588 26882 net.cpp:397] relu1 -> conv1 (in-place)
I0526 09:05:29.569123 26882 net.cpp:150] Setting up relu1
I0526 09:05:29.569147 26882 net.cpp:157] Top shape: 10 12 120 48 (691200)
I0526 09:05:29.569161 26882 net.cpp:165] Memory required for data: 5783640
I0526 09:05:29.569177 26882 layer_factory.hpp:77] Creating layer pool1
I0526 09:05:29.569205 26882 net.cpp:106] Creating Layer pool1
I0526 09:05:29.569219 26882 net.cpp:454] pool1 <- conv1
I0526 09:05:29.569236 26882 net.cpp:411] pool1 -> pool1
I0526 09:05:29.569329 26882 net.cpp:150] Setting up pool1
I0526 09:05:29.569346 26882 net.cpp:157] Top shape: 10 12 60 48 (345600)
I0526 09:05:29.569361 26882 net.cpp:165] Memory required for data: 7166040
I0526 09:05:29.569381 26882 layer_factory.hpp:77] Creating layer conv2
I0526 09:05:29.569404 26882 net.cpp:106] Creating Layer conv2
I0526 09:05:29.569425 26882 net.cpp:454] conv2 <- pool1
I0526 09:05:29.569442 26882 net.cpp:411] conv2 -> conv2
I0526 09:05:29.572163 26882 net.cpp:150] Setting up conv2
I0526 09:05:29.572194 26882 net.cpp:157] Top shape: 10 20 54 46 (496800)
I0526 09:05:29.572211 26882 net.cpp:165] Memory required for data: 9153240
I0526 09:05:29.572232 26882 layer_factory.hpp:77] Creating layer relu2
I0526 09:05:29.572265 26882 net.cpp:106] Creating Layer relu2
I0526 09:05:29.572279 26882 net.cpp:454] relu2 <- conv2
I0526 09:05:29.572295 26882 net.cpp:397] relu2 -> conv2 (in-place)
I0526 09:05:29.572654 26882 net.cpp:150] Setting up relu2
I0526 09:05:29.572674 26882 net.cpp:157] Top shape: 10 20 54 46 (496800)
I0526 09:05:29.572686 26882 net.cpp:165] Memory required for data: 11140440
I0526 09:05:29.572701 26882 layer_factory.hpp:77] Creating layer pool2
I0526 09:05:29.572723 26882 net.cpp:106] Creating Layer pool2
I0526 09:05:29.572737 26882 net.cpp:454] pool2 <- conv2
I0526 09:05:29.572753 26882 net.cpp:411] pool2 -> pool2
I0526 09:05:29.572849 26882 net.cpp:150] Setting up pool2
I0526 09:05:29.572867 26882 net.cpp:157] Top shape: 10 20 27 46 (248400)
I0526 09:05:29.572881 26882 net.cpp:165] Memory required for data: 12134040
I0526 09:05:29.572902 26882 layer_factory.hpp:77] Creating layer conv3
I0526 09:05:29.572922 26882 net.cpp:106] Creating Layer conv3
I0526 09:05:29.572942 26882 net.cpp:454] conv3 <- pool2
I0526 09:05:29.572958 26882 net.cpp:411] conv3 -> conv3
I0526 09:05:29.575091 26882 net.cpp:150] Setting up conv3
I0526 09:05:29.575120 26882 net.cpp:157] Top shape: 10 28 22 44 (271040)
I0526 09:05:29.575134 26882 net.cpp:165] Memory required for data: 13218200
I0526 09:05:29.575160 26882 layer_factory.hpp:77] Creating layer relu3
I0526 09:05:29.575188 26882 net.cpp:106] Creating Layer relu3
I0526 09:05:29.575201 26882 net.cpp:454] relu3 <- conv3
I0526 09:05:29.575217 26882 net.cpp:397] relu3 -> conv3 (in-place)
I0526 09:05:29.575712 26882 net.cpp:150] Setting up relu3
I0526 09:05:29.575738 26882 net.cpp:157] Top shape: 10 28 22 44 (271040)
I0526 09:05:29.575752 26882 net.cpp:165] Memory required for data: 14302360
I0526 09:05:29.575768 26882 layer_factory.hpp:77] Creating layer pool3
I0526 09:05:29.575791 26882 net.cpp:106] Creating Layer pool3
I0526 09:05:29.575805 26882 net.cpp:454] pool3 <- conv3
I0526 09:05:29.575820 26882 net.cpp:411] pool3 -> pool3
I0526 09:05:29.575902 26882 net.cpp:150] Setting up pool3
I0526 09:05:29.575919 26882 net.cpp:157] Top shape: 10 28 11 44 (135520)
I0526 09:05:29.575933 26882 net.cpp:165] Memory required for data: 14844440
I0526 09:05:29.575947 26882 layer_factory.hpp:77] Creating layer conv4
I0526 09:05:29.575973 26882 net.cpp:106] Creating Layer conv4
I0526 09:05:29.575985 26882 net.cpp:454] conv4 <- pool3
I0526 09:05:29.576002 26882 net.cpp:411] conv4 -> conv4
I0526 09:05:29.578747 26882 net.cpp:150] Setting up conv4
I0526 09:05:29.578778 26882 net.cpp:157] Top shape: 10 36 6 42 (90720)
I0526 09:05:29.578793 26882 net.cpp:165] Memory required for data: 15207320
I0526 09:05:29.578812 26882 layer_factory.hpp:77] Creating layer relu4
I0526 09:05:29.578833 26882 net.cpp:106] Creating Layer relu4
I0526 09:05:29.578860 26882 net.cpp:454] relu4 <- conv4
I0526 09:05:29.578876 26882 net.cpp:397] relu4 -> conv4 (in-place)
I0526 09:05:29.579371 26882 net.cpp:150] Setting up relu4
I0526 09:05:29.579394 26882 net.cpp:157] Top shape: 10 36 6 42 (90720)
I0526 09:05:29.579408 26882 net.cpp:165] Memory required for data: 15570200
I0526 09:05:29.579423 26882 layer_factory.hpp:77] Creating layer pool4
I0526 09:05:29.579447 26882 net.cpp:106] Creating Layer pool4
I0526 09:05:29.579462 26882 net.cpp:454] pool4 <- conv4
I0526 09:05:29.579478 26882 net.cpp:411] pool4 -> pool4
I0526 09:05:29.579561 26882 net.cpp:150] Setting up pool4
I0526 09:05:29.579583 26882 net.cpp:157] Top shape: 10 36 3 42 (45360)
I0526 09:05:29.579596 26882 net.cpp:165] Memory required for data: 15751640
I0526 09:05:29.579612 26882 layer_factory.hpp:77] Creating layer ip1
I0526 09:05:29.579632 26882 net.cpp:106] Creating Layer ip1
I0526 09:05:29.579653 26882 net.cpp:454] ip1 <- pool4
I0526 09:05:29.579668 26882 net.cpp:411] ip1 -> ip1
I0526 09:05:29.595057 26882 net.cpp:150] Setting up ip1
I0526 09:05:29.595089 26882 net.cpp:157] Top shape: 10 196 (1960)
I0526 09:05:29.595110 26882 net.cpp:165] Memory required for data: 15759480
I0526 09:05:29.595136 26882 layer_factory.hpp:77] Creating layer relu5
I0526 09:05:29.595157 26882 net.cpp:106] Creating Layer relu5
I0526 09:05:29.595170 26882 net.cpp:454] relu5 <- ip1
I0526 09:05:29.595197 26882 net.cpp:397] relu5 -> ip1 (in-place)
I0526 09:05:29.595558 26882 net.cpp:150] Setting up relu5
I0526 09:05:29.595578 26882 net.cpp:157] Top shape: 10 196 (1960)
I0526 09:05:29.595592 26882 net.cpp:165] Memory required for data: 15767320
I0526 09:05:29.595607 26882 layer_factory.hpp:77] Creating layer drop1
I0526 09:05:29.595636 26882 net.cpp:106] Creating Layer drop1
I0526 09:05:29.595649 26882 net.cpp:454] drop1 <- ip1
I0526 09:05:29.595665 26882 net.cpp:397] drop1 -> ip1 (in-place)
I0526 09:05:29.595738 26882 net.cpp:150] Setting up drop1
I0526 09:05:29.595755 26882 net.cpp:157] Top shape: 10 196 (1960)
I0526 09:05:29.595767 26882 net.cpp:165] Memory required for data: 15775160
I0526 09:05:29.595782 26882 layer_factory.hpp:77] Creating layer ip2
I0526 09:05:29.595803 26882 net.cpp:106] Creating Layer ip2
I0526 09:05:29.595815 26882 net.cpp:454] ip2 <- ip1
I0526 09:05:29.595839 26882 net.cpp:411] ip2 -> ip2
I0526 09:05:29.596328 26882 net.cpp:150] Setting up ip2
I0526 09:05:29.596348 26882 net.cpp:157] Top shape: 10 98 (980)
I0526 09:05:29.596360 26882 net.cpp:165] Memory required for data: 15779080
I0526 09:05:29.596381 26882 layer_factory.hpp:77] Creating layer relu6
I0526 09:05:29.596403 26882 net.cpp:106] Creating Layer relu6
I0526 09:05:29.596416 26882 net.cpp:454] relu6 <- ip2
I0526 09:05:29.596432 26882 net.cpp:397] relu6 -> ip2 (in-place)
I0526 09:05:29.596984 26882 net.cpp:150] Setting up relu6
I0526 09:05:29.597008 26882 net.cpp:157] Top shape: 10 98 (980)
I0526 09:05:29.597021 26882 net.cpp:165] Memory required for data: 15783000
I0526 09:05:29.597038 26882 layer_factory.hpp:77] Creating layer drop2
I0526 09:05:29.597059 26882 net.cpp:106] Creating Layer drop2
I0526 09:05:29.597074 26882 net.cpp:454] drop2 <- ip2
I0526 09:05:29.597090 26882 net.cpp:397] drop2 -> ip2 (in-place)
I0526 09:05:29.597138 26882 net.cpp:150] Setting up drop2
I0526 09:05:29.597162 26882 net.cpp:157] Top shape: 10 98 (980)
I0526 09:05:29.597174 26882 net.cpp:165] Memory required for data: 15786920
I0526 09:05:29.597187 26882 layer_factory.hpp:77] Creating layer ip3
I0526 09:05:29.597203 26882 net.cpp:106] Creating Layer ip3
I0526 09:05:29.597218 26882 net.cpp:454] ip3 <- ip2
I0526 09:05:29.597240 26882 net.cpp:411] ip3 -> ip3
I0526 09:05:29.597463 26882 net.cpp:150] Setting up ip3
I0526 09:05:29.597482 26882 net.cpp:157] Top shape: 10 11 (110)
I0526 09:05:29.597496 26882 net.cpp:165] Memory required for data: 15787360
I0526 09:05:29.597515 26882 layer_factory.hpp:77] Creating layer drop3
I0526 09:05:29.597538 26882 net.cpp:106] Creating Layer drop3
I0526 09:05:29.597551 26882 net.cpp:454] drop3 <- ip3
I0526 09:05:29.597566 26882 net.cpp:397] drop3 -> ip3 (in-place)
I0526 09:05:29.597636 26882 net.cpp:150] Setting up drop3
I0526 09:05:29.597651 26882 net.cpp:157] Top shape: 10 11 (110)
I0526 09:05:29.597671 26882 net.cpp:165] Memory required for data: 15787800
I0526 09:05:29.597683 26882 layer_factory.hpp:77] Creating layer loss
I0526 09:05:29.597707 26882 net.cpp:106] Creating Layer loss
I0526 09:05:29.597725 26882 net.cpp:454] loss <- ip3
I0526 09:05:29.597740 26882 net.cpp:454] loss <- label
I0526 09:05:29.597755 26882 net.cpp:411] loss -> loss
I0526 09:05:29.597775 26882 layer_factory.hpp:77] Creating layer loss
…
I0526 09:05:29.617792 26882 solver.cpp:181] Creating test net (#0) specified by net file: /lustre/atlas/proj-shared/hep105/caffe_titan/caffe_workflow/logs_bslr/bs_10_lr_0.0040_2016-05-20T15.48.52.047393.prototxt
I0526 09:05:29.617879 26882 net.cpp:322] The NetState phase (1) differed from the phase (0) specified by a rule in layer data_hdf5
I0526 09:05:29.618264 26882 net.cpp:49] Initializing net from parameters: 
name: "caffe_test_127x50_x_unshifted"
state {
  phase: TEST
}
layer {
  name: "data_hdf5"
  type: "HDF5Data"
  top: "data"
  top: "label"
  include {
    phase: TEST
  }
  hdf5_data_param {
    source: "/lustre/atlas/proj-shared/hep105/caffe_titan/minosmatch_nukecczdefs_127x50_x_unshifted_me1Bmc.testlist"
    batch_size: 10
  }
}
layer {
  name: "conv1"
  type: "Convolution"
  bottom: "data"
  top: "conv1"
  convolution_param {
    num_output: 12
    pad: 0
    stride: 1
    weight_filler {
      type: "xavier"
    }
    bias_filler {
      type: "constant"
    }
    kernel_h: 8
    kernel_w: 3
  }
}
layer {
  name: "relu1"
  type: "ReLU"
  bottom: "conv1"
  top: "conv1"
}
layer {
  name: "pool1"
  type: "Pooling"
  bottom: "conv1"
  top: "pool1"
  pooling_param {
    pool: MAX
    kernel_h: 2
    kernel_w: 1
    stride_h: 2
    stride_w: 1
  }
}
layer {
  name: "conv2"
  type: "Convolution"
  bottom: "pool1"
  top: "conv2"
  convolution_param {
    num_output: 20
    pad: 0
    stride: 1
    weight_filler {
      type: "xavier"
    }
    bias_filler {
      type: "constant"
    }
    kernel_h: 7
    kernel_w: 3
  }
}
layer {
  name: "relu2"
  type: "ReLU"
  bottom: "conv2"
  top: "conv2"
}
layer {
  name: "pool2"
  type: "Pooling"
  bottom: "conv2"
  top: "pool2"
  pooling_param {
    pool: MAX
    kernel_h: 2
    kernel_w: 1
    stride_h: 2
    stride_w: 1
  }
}
layer {
  name: "conv3"
  type: "Convolution"
  bottom: "pool2"
  top: "conv3"
  convolution_param {
    num_output: 28
    pad: 0
    stride: 1
    weight_filler {
      type: "xavier"
    }
    bias_filler {
      type: "constant"
    }
    kernel_h: 6
    kernel_w: 3
  }
}
layer {
  name: "relu3"
  type: "ReLU"
  bottom: "conv3"
  top: "conv3"
}
layer {
  name: "pool3"
  type: "Pooling"
  bottom: "conv3"
  top: "pool3"
  pooling_param {
    pool: MAX
    kernel_h: 2
    kernel_w: 1
    stride_h: 2
    stride_w: 1
  }
}
layer {
  name: "conv4"
  type: "Convolution"
  bottom: "pool3"
  top: "conv4"
  convolution_param {
    num_output: 36
    pad: 0
    stride: 1
    weight_filler {
      type: "xavier"
    }
    bias_filler {
      type: "constant"
    }
    kernel_h: 6
    kernel_w: 3
  }
}
layer {
  name: "relu4"
  type: "ReLU"
  bottom: "conv4"
  top: "conv4"
}
layer {
  name: "pool4"
  type: "Pooling"
  bottom: "conv4"
  top: "pool4"
  pooling_param {
    pool: MAX
    kernel_h: 2
    kernel_w: 1
    stride_h: 2
    stride_w: 1
  }
}
layer {
  name: "ip1"
  type: "InnerProduct"
  bottom: "pool4"
  top: "ip1"
  inner_product_param {
    num_output: 196
    weight_filler {
      type: "xavier"
    }
    bias_filler {
      type: "constant"
    }
  }
}
layer {
  name: "relu5"
  type: "ReLU"
  bottom: "ip1"
  top: "ip1"
}
layer {
  name: "drop1"
  type: "Dropout"
  bottom: "ip1"
  top: "ip1"
  dropout_param {
    dropout_ratio: 0.5
  }
}
layer {
  name: "ip2"
  type: "InnerProduct"
  bottom: "ip1"
  top: "ip2"
  inner_product_param {
    num_output: 98
    weight_filler {
      type: "xavier"
    }
    bias_filler {
      type: "constant"
    }
  }
}
layer {
  name: "relu6"
  type: "ReLU"
  bottom: "ip2"
  top: "ip2"
}
layer {
  name: "drop2"
  type: "Dropout"
  bottom: "ip2"
  top: "ip2"
  dropout_param {
    dropout_ratio: 0.5
  }
}
layer {
  name: "ip3"
  type: "InnerProduct"
  bottom: "ip2"
  top: "ip3"
  inner_product_param {
    num_output: 11
    weight_filler {
      type: "xavier"
    }
    bias_filler {
      type: "constant"
    }
  }
}
layer {
  name: "drop3"
  type: "Dropout"
  bottom: "ip3"
  top: "ip3"
  dropout_param {
    dropout_ratio: 0.5
  }
}
layer {
  name: "accuracy"
  type: "Accuracy"
  bottom: "ip3"
  bottom: "label"
  top: "accuracy"
  include {
    phase: TEST
  }
}
layer {
  name: "loss"
  type: "SoftmaxWithLoss"
  bottom: "ip3"
  bottom: "label"
  top: "loss"
}
I0526 09:05:29.618494 26882 layer_factory.hpp:77] Creating layer data_hdf5
I0526 09:05:29.618515 26882 net.cpp:106] Creating Layer data_hdf5
I0526 09:05:29.618532 26882 net.cpp:411] data_hdf5 -> data
I0526 09:05:29.618556 26882 net.cpp:411] data_hdf5 -> label
I0526 09:05:29.618573 26882 hdf5_data_layer.cpp:79] Loading list of HDF5 filenames from: /lustre/atlas/proj-shared/hep105/caffe_titan/minosmatch_nukecczdefs_127x50_x_unshifted_me1Bmc.testlist
I0526 09:05:29.638780 26882 hdf5_data_layer.cpp:93] Number of HDF5 files: 3
I0526 09:05:51.089112 26882 net.cpp:150] Setting up data_hdf5
I0526 09:05:51.089285 26882 net.cpp:157] Top shape: 10 1 127 50 (63500)
I0526 09:05:51.089311 26882 net.cpp:157] Top shape: 10 (10)
I0526 09:05:51.089324 26882 net.cpp:165] Memory required for data: 254040
I0526 09:05:51.089340 26882 layer_factory.hpp:77] Creating layer label_data_hdf5_1_split
I0526 09:05:51.089368 26882 net.cpp:106] Creating Layer label_data_hdf5_1_split
I0526 09:05:51.089387 26882 net.cpp:454] label_data_hdf5_1_split <- label
I0526 09:05:51.089423 26882 net.cpp:411] label_data_hdf5_1_split -> label_data_hdf5_1_split_0
I0526 09:05:51.089447 26882 net.cpp:411] label_data_hdf5_1_split -> label_data_hdf5_1_split_1
I0526 09:05:51.089526 26882 net.cpp:150] Setting up label_data_hdf5_1_split
I0526 09:05:51.089550 26882 net.cpp:157] Top shape: 10 (10)
I0526 09:05:51.089565 26882 net.cpp:157] Top shape: 10 (10)
I0526 09:05:51.089578 26882 net.cpp:165] Memory required for data: 254120
I0526 09:05:51.089597 26882 layer_factory.hpp:77] Creating layer conv1
I0526 09:05:51.089632 26882 net.cpp:106] Creating Layer conv1
I0526 09:05:51.089651 26882 net.cpp:454] conv1 <- data
I0526 09:05:51.089671 26882 net.cpp:411] conv1 -> conv1
I0526 09:05:51.091631 26882 net.cpp:150] Setting up conv1
I0526 09:05:51.091657 26882 net.cpp:157] Top shape: 10 12 120 48 (691200)
I0526 09:05:51.091677 26882 net.cpp:165] Memory required for data: 3018920
I0526 09:05:51.091701 26882 layer_factory.hpp:77] Creating layer relu1
I0526 09:05:51.091722 26882 net.cpp:106] Creating Layer relu1
I0526 09:05:51.091735 26882 net.cpp:454] relu1 <- conv1
I0526 09:05:51.091763 26882 net.cpp:397] relu1 -> conv1 (in-place)
I0526 09:05:51.092288 26882 net.cpp:150] Setting up relu1
I0526 09:05:51.092311 26882 net.cpp:157] Top shape: 10 12 120 48 (691200)
I0526 09:05:51.092324 26882 net.cpp:165] Memory required for data: 5783720
I0526 09:05:51.092337 26882 layer_factory.hpp:77] Creating layer pool1
I0526 09:05:51.092360 26882 net.cpp:106] Creating Layer pool1
I0526 09:05:51.092381 26882 net.cpp:454] pool1 <- conv1
I0526 09:05:51.092397 26882 net.cpp:411] pool1 -> pool1
I0526 09:05:51.092494 26882 net.cpp:150] Setting up pool1
I0526 09:05:51.092510 26882 net.cpp:157] Top shape: 10 12 60 48 (345600)
I0526 09:05:51.092524 26882 net.cpp:165] Memory required for data: 7166120
I0526 09:05:51.092538 26882 layer_factory.hpp:77] Creating layer conv2
I0526 09:05:51.092566 26882 net.cpp:106] Creating Layer conv2
I0526 09:05:51.092578 26882 net.cpp:454] conv2 <- pool1
I0526 09:05:51.092595 26882 net.cpp:411] conv2 -> conv2
I0526 09:05:51.094552 26882 net.cpp:150] Setting up conv2
I0526 09:05:51.094576 26882 net.cpp:157] Top shape: 10 20 54 46 (496800)
I0526 09:05:51.094596 26882 net.cpp:165] Memory required for data: 9153320
I0526 09:05:51.094619 26882 layer_factory.hpp:77] Creating layer relu2
I0526 09:05:51.094638 26882 net.cpp:106] Creating Layer relu2
I0526 09:05:51.094660 26882 net.cpp:454] relu2 <- conv2
I0526 09:05:51.094676 26882 net.cpp:397] relu2 -> conv2 (in-place)
I0526 09:05:51.095027 26882 net.cpp:150] Setting up relu2
I0526 09:05:51.095047 26882 net.cpp:157] Top shape: 10 20 54 46 (496800)
I0526 09:05:51.095060 26882 net.cpp:165] Memory required for data: 11140520
I0526 09:05:51.095075 26882 layer_factory.hpp:77] Creating layer pool2
I0526 09:05:51.095093 26882 net.cpp:106] Creating Layer pool2
I0526 09:05:51.095106 26882 net.cpp:454] pool2 <- conv2
I0526 09:05:51.095130 26882 net.cpp:411] pool2 -> pool2
I0526 09:05:51.095218 26882 net.cpp:150] Setting up pool2
I0526 09:05:51.095235 26882 net.cpp:157] Top shape: 10 20 27 46 (248400)
I0526 09:05:51.095249 26882 net.cpp:165] Memory required for data: 12134120
I0526 09:05:51.095268 26882 layer_factory.hpp:77] Creating layer conv3
I0526 09:05:51.095291 26882 net.cpp:106] Creating Layer conv3
I0526 09:05:51.095311 26882 net.cpp:454] conv3 <- pool2
I0526 09:05:51.095329 26882 net.cpp:411] conv3 -> conv3
I0526 09:05:51.097360 26882 net.cpp:150] Setting up conv3
I0526 09:05:51.097386 26882 net.cpp:157] Top shape: 10 28 22 44 (271040)
I0526 09:05:51.097405 26882 net.cpp:165] Memory required for data: 13218280
I0526 09:05:51.097429 26882 layer_factory.hpp:77] Creating layer relu3
I0526 09:05:51.097460 26882 net.cpp:106] Creating Layer relu3
I0526 09:05:51.097476 26882 net.cpp:454] relu3 <- conv3
I0526 09:05:51.097501 26882 net.cpp:397] relu3 -> conv3 (in-place)
I0526 09:05:51.098009 26882 net.cpp:150] Setting up relu3
I0526 09:05:51.098033 26882 net.cpp:157] Top shape: 10 28 22 44 (271040)
I0526 09:05:51.098047 26882 net.cpp:165] Memory required for data: 14302440
I0526 09:05:51.098062 26882 layer_factory.hpp:77] Creating layer pool3
I0526 09:05:51.098088 26882 net.cpp:106] Creating Layer pool3
I0526 09:05:51.098100 26882 net.cpp:454] pool3 <- conv3
I0526 09:05:51.098117 26882 net.cpp:411] pool3 -> pool3
I0526 09:05:51.098201 26882 net.cpp:150] Setting up pool3
I0526 09:05:51.098218 26882 net.cpp:157] Top shape: 10 28 11 44 (135520)
I0526 09:05:51.098233 26882 net.cpp:165] Memory required for data: 14844520
I0526 09:05:51.098245 26882 layer_factory.hpp:77] Creating layer conv4
I0526 09:05:51.098266 26882 net.cpp:106] Creating Layer conv4
I0526 09:05:51.098279 26882 net.cpp:454] conv4 <- pool3
I0526 09:05:51.098306 26882 net.cpp:411] conv4 -> conv4
I0526 09:05:51.100395 26882 net.cpp:150] Setting up conv4
I0526 09:05:51.100419 26882 net.cpp:157] Top shape: 10 36 6 42 (90720)
I0526 09:05:51.100440 26882 net.cpp:165] Memory required for data: 15207400
I0526 09:05:51.100460 26882 layer_factory.hpp:77] Creating layer relu4
I0526 09:05:51.100479 26882 net.cpp:106] Creating Layer relu4
I0526 09:05:51.100502 26882 net.cpp:454] relu4 <- conv4
I0526 09:05:51.100518 26882 net.cpp:397] relu4 -> conv4 (in-place)
I0526 09:05:51.101006 26882 net.cpp:150] Setting up relu4
I0526 09:05:51.101027 26882 net.cpp:157] Top shape: 10 36 6 42 (90720)
I0526 09:05:51.101040 26882 net.cpp:165] Memory required for data: 15570280
I0526 09:05:51.101053 26882 layer_factory.hpp:77] Creating layer pool4
I0526 09:05:51.101073 26882 net.cpp:106] Creating Layer pool4
I0526 09:05:51.101095 26882 net.cpp:454] pool4 <- conv4
I0526 09:05:51.101111 26882 net.cpp:411] pool4 -> pool4
I0526 09:05:51.101198 26882 net.cpp:150] Setting up pool4
I0526 09:05:51.101217 26882 net.cpp:157] Top shape: 10 36 3 42 (45360)
I0526 09:05:51.101233 26882 net.cpp:165] Memory required for data: 15751720
I0526 09:05:51.101245 26882 layer_factory.hpp:77] Creating layer ip1
I0526 09:05:51.101269 26882 net.cpp:106] Creating Layer ip1
I0526 09:05:51.101282 26882 net.cpp:454] ip1 <- pool4
I0526 09:05:51.101300 26882 net.cpp:411] ip1 -> ip1
I0526 09:05:51.116641 26882 net.cpp:150] Setting up ip1
I0526 09:05:51.116674 26882 net.cpp:157] Top shape: 10 196 (1960)
I0526 09:05:51.116695 26882 net.cpp:165] Memory required for data: 15759560
I0526 09:05:51.116722 26882 layer_factory.hpp:77] Creating layer relu5
I0526 09:05:51.116744 26882 net.cpp:106] Creating Layer relu5
I0526 09:05:51.116770 26882 net.cpp:454] relu5 <- ip1
I0526 09:05:51.116786 26882 net.cpp:397] relu5 -> ip1 (in-place)
I0526 09:05:51.117151 26882 net.cpp:150] Setting up relu5
I0526 09:05:51.117172 26882 net.cpp:157] Top shape: 10 196 (1960)
I0526 09:05:51.117184 26882 net.cpp:165] Memory required for data: 15767400
I0526 09:05:51.117199 26882 layer_factory.hpp:77] Creating layer drop1
I0526 09:05:51.117228 26882 net.cpp:106] Creating Layer drop1
I0526 09:05:51.117241 26882 net.cpp:454] drop1 <- ip1
I0526 09:05:51.117257 26882 net.cpp:397] drop1 -> ip1 (in-place)
I0526 09:05:51.117317 26882 net.cpp:150] Setting up drop1
I0526 09:05:51.117333 26882 net.cpp:157] Top shape: 10 196 (1960)
I0526 09:05:51.117347 26882 net.cpp:165] Memory required for data: 15775240
I0526 09:05:51.117358 26882 layer_factory.hpp:77] Creating layer ip2
I0526 09:05:51.117378 26882 net.cpp:106] Creating Layer ip2
I0526 09:05:51.117390 26882 net.cpp:454] ip2 <- ip1
I0526 09:05:51.117414 26882 net.cpp:411] ip2 -> ip2
I0526 09:05:51.117914 26882 net.cpp:150] Setting up ip2
I0526 09:05:51.117933 26882 net.cpp:157] Top shape: 10 98 (980)
I0526 09:05:51.117946 26882 net.cpp:165] Memory required for data: 15779160
I0526 09:05:51.117967 26882 layer_factory.hpp:77] Creating layer relu6
I0526 09:05:51.118002 26882 net.cpp:106] Creating Layer relu6
I0526 09:05:51.118016 26882 net.cpp:454] relu6 <- ip2
I0526 09:05:51.118031 26882 net.cpp:397] relu6 -> ip2 (in-place)
I0526 09:05:51.118602 26882 net.cpp:150] Setting up relu6
I0526 09:05:51.118624 26882 net.cpp:157] Top shape: 10 98 (980)
I0526 09:05:51.118638 26882 net.cpp:165] Memory required for data: 15783080
I0526 09:05:51.118650 26882 layer_factory.hpp:77] Creating layer drop2
I0526 09:05:51.118670 26882 net.cpp:106] Creating Layer drop2
I0526 09:05:51.118691 26882 net.cpp:454] drop2 <- ip2
I0526 09:05:51.118708 26882 net.cpp:397] drop2 -> ip2 (in-place)
I0526 09:05:51.118767 26882 net.cpp:150] Setting up drop2
I0526 09:05:51.118783 26882 net.cpp:157] Top shape: 10 98 (980)
I0526 09:05:51.118796 26882 net.cpp:165] Memory required for data: 15787000
I0526 09:05:51.118808 26882 layer_factory.hpp:77] Creating layer ip3
I0526 09:05:51.118825 26882 net.cpp:106] Creating Layer ip3
I0526 09:05:51.118840 26882 net.cpp:454] ip3 <- ip2
I0526 09:05:51.118863 26882 net.cpp:411] ip3 -> ip3
I0526 09:05:51.119101 26882 net.cpp:150] Setting up ip3
I0526 09:05:51.119119 26882 net.cpp:157] Top shape: 10 11 (110)
I0526 09:05:51.119132 26882 net.cpp:165] Memory required for data: 15787440
I0526 09:05:51.119153 26882 layer_factory.hpp:77] Creating layer drop3
I0526 09:05:51.119175 26882 net.cpp:106] Creating Layer drop3
I0526 09:05:51.119189 26882 net.cpp:454] drop3 <- ip3
I0526 09:05:51.119204 26882 net.cpp:397] drop3 -> ip3 (in-place)
I0526 09:05:51.119253 26882 net.cpp:150] Setting up drop3
I0526 09:05:51.119271 26882 net.cpp:157] Top shape: 10 11 (110)
I0526 09:05:51.119289 26882 net.cpp:165] Memory required for data: 15787880
I0526 09:05:51.119303 26882 layer_factory.hpp:77] Creating layer ip3_drop3_0_split
I0526 09:05:51.119318 26882 net.cpp:106] Creating Layer ip3_drop3_0_split
I0526 09:05:51.119333 26882 net.cpp:454] ip3_drop3_0_split <- ip3
I0526 09:05:51.119349 26882 net.cpp:411] ip3_drop3_0_split -> ip3_drop3_0_split_0
I0526 09:05:51.119374 26882 net.cpp:411] ip3_drop3_0_split -> ip3_drop3_0_split_1
I0526 09:05:51.119467 26882 net.cpp:150] Setting up ip3_drop3_0_split
I0526 09:05:51.119484 26882 net.cpp:157] Top shape: 10 11 (110)
I0526 09:05:51.119508 26882 net.cpp:157] Top shape: 10 11 (110)
I0526 09:05:51.119519 26882 net.cpp:165] Memory required for data: 15788760
I0526 09:05:51.119531 26882 layer_factory.hpp:77] Creating layer accuracy
I0526 09:05:51.119562 26882 net.cpp:106] Creating Layer accuracy
I0526 09:05:51.119575 26882 net.cpp:454] accuracy <- ip3_drop3_0_split_0
I0526 09:05:51.119590 26882 net.cpp:454] accuracy <- label_data_hdf5_1_split_0
I0526 09:05:51.119609 26882 net.cpp:411] accuracy -> accuracy
…
