…
I0526 05:00:58.473477 27645 net.cpp:322] The NetState phase (0) differed from the phase (1) specified by a rule in layer data_hdf5
I0526 05:00:58.473539 27645 net.cpp:322] The NetState phase (0) differed from the phase (1) specified by a rule in layer accuracy
I0526 05:00:58.473918 27645 net.cpp:49] Initializing net from parameters: 
name: "caffe_test_127x50_x_unshifted"
state {
  phase: TRAIN
}
layer {
  name: "data_hdf5"
  type: "HDF5Data"
  top: "data"
  top: "label"
  include {
    phase: TRAIN
  }
  hdf5_data_param {
    source: "/lustre/atlas/proj-shared/hep105/caffe_titan/minosmatch_nukecczdefs_127x50_x_unshifted_me1Bmc.trainlist"
    batch_size: 10
  }
}
layer {
  name: "conv1"
  type: "Convolution"
  bottom: "data"
  top: "conv1"
  convolution_param {
    num_output: 12
    pad: 0
    stride: 1
    weight_filler {
      type: "xavier"
    }
    bias_filler {
      type: "constant"
    }
    kernel_h: 8
    kernel_w: 3
  }
}
layer {
  name: "relu1"
  type: "ReLU"
  bottom: "conv1"
  top: "conv1"
}
layer {
  name: "pool1"
  type: "Pooling"
  bottom: "conv1"
  top: "pool1"
  pooling_param {
    pool: MAX
    kernel_h: 2
    kernel_w: 1
    stride_h: 2
    stride_w: 1
  }
}
layer {
  name: "conv2"
  type: "Convolution"
  bottom: "pool1"
  top: "conv2"
  convolution_param {
    num_output: 20
    pad: 0
    stride: 1
    weight_filler {
      type: "xavier"
    }
    bias_filler {
      type: "constant"
    }
    kernel_h: 7
    kernel_w: 3
  }
}
layer {
  name: "relu2"
  type: "ReLU"
  bottom: "conv2"
  top: "conv2"
}
layer {
  name: "pool2"
  type: "Pooling"
  bottom: "conv2"
  top: "pool2"
  pooling_param {
    pool: MAX
    kernel_h: 2
    kernel_w: 1
    stride_h: 2
    stride_w: 1
  }
}
layer {
  name: "conv3"
  type: "Convolution"
  bottom: "pool2"
  top: "conv3"
  convolution_param {
    num_output: 28
    pad: 0
    stride: 1
    weight_filler {
      type: "xavier"
    }
    bias_filler {
      type: "constant"
    }
    kernel_h: 6
    kernel_w: 3
  }
}
layer {
  name: "relu3"
  type: "ReLU"
  bottom: "conv3"
  top: "conv3"
}
layer {
  name: "pool3"
  type: "Pooling"
  bottom: "conv3"
  top: "pool3"
  pooling_param {
    pool: MAX
    kernel_h: 2
    kernel_w: 1
    stride_h: 2
    stride_w: 1
  }
}
layer {
  name: "conv4"
  type: "Convolution"
  bottom: "pool3"
  top: "conv4"
  convolution_param {
    num_output: 36
    pad: 0
    stride: 1
    weight_filler {
      type: "xavier"
    }
    bias_filler {
      type: "constant"
    }
    kernel_h: 6
    kernel_w: 3
  }
}
layer {
  name: "relu4"
  type: "ReLU"
  bottom: "conv4"
  top: "conv4"
}
layer {
  name: "pool4"
  type: "Pooling"
  bottom: "conv4"
  top: "pool4"
  pooling_param {
    pool: MAX
    kernel_h: 2
    kernel_w: 1
    stride_h: 2
    stride_w: 1
  }
}
layer {
  name: "ip1"
  type: "InnerProduct"
  bottom: "pool4"
  top: "ip1"
  inner_product_param {
    num_output: 196
    weight_filler {
      type: "xavier"
    }
    bias_filler {
      type: "constant"
    }
  }
}
layer {
  name: "relu5"
  type: "ReLU"
  bottom: "ip1"
  top: "ip1"
}
layer {
  name: "drop1"
  type: "Dropout"
  bottom: "ip1"
  top: "ip1"
  dropout_param {
    dropout_ratio: 0.5
  }
}
layer {
  name: "ip2"
  type: "InnerProduct"
  bottom: "ip1"
  top: "ip2"
  inner_product_param {
    num_output: 98
    weight_filler {
      type: "xavier"
    }
    bias_filler {
      type: "constant"
    }
  }
}
layer {
  name: "relu6"
  type: "ReLU"
  bottom: "ip2"
  top: "ip2"
}
layer {
  name: "drop2"
  type: "Dropout"
  bottom: "ip2"
  top: "ip2"
  dropout_param {
    dropout_ratio: 0.5
  }
}
layer {
  name: "ip3"
  type: "InnerProduct"
  bottom: "ip2"
  top: "ip3"
  inner_product_param {
    num_output: 11
    weight_filler {
      type: "xavier"
    }
    bias_filler {
      type: "constant"
    }
  }
}
layer {
  name: "drop3"
  type: "Dropout"
  bottom: "ip3"
  top: "ip3"
  dropout_param {
    dropout_ratio: 0.5
  }
}
layer {
  name: "loss"
  type: "SoftmaxWithLoss"
  bottom: "ip3"
  bottom: "label"
  top: "loss"
}
I0526 05:00:58.474123 27645 layer_factory.hpp:77] Creating layer data_hdf5
I0526 05:00:58.474153 27645 net.cpp:106] Creating Layer data_hdf5
I0526 05:00:58.474177 27645 net.cpp:411] data_hdf5 -> data
I0526 05:00:58.474211 27645 net.cpp:411] data_hdf5 -> label
I0526 05:00:58.474248 27645 hdf5_data_layer.cpp:79] Loading list of HDF5 filenames from: /lustre/atlas/proj-shared/hep105/caffe_titan/minosmatch_nukecczdefs_127x50_x_unshifted_me1Bmc.trainlist
I0526 05:00:58.488092 27645 hdf5_data_layer.cpp:93] Number of HDF5 files: 15
I0526 05:00:58.497967 27645 hdf5.cpp:32] Datatype class: H5T_FLOAT
I0526 05:01:20.151940 27645 hdf5.cpp:35] Datatype class: H5T_INTEGER
I0526 05:01:20.157198 27645 net.cpp:150] Setting up data_hdf5
I0526 05:01:20.157245 27645 net.cpp:157] Top shape: 10 1 127 50 (63500)
I0526 05:01:20.157263 27645 net.cpp:157] Top shape: 10 (10)
I0526 05:01:20.157274 27645 net.cpp:165] Memory required for data: 254040
I0526 05:01:20.157294 27645 layer_factory.hpp:77] Creating layer conv1
I0526 05:01:20.157340 27645 net.cpp:106] Creating Layer conv1
I0526 05:01:20.157363 27645 net.cpp:454] conv1 <- data
I0526 05:01:20.157388 27645 net.cpp:411] conv1 -> conv1
I0526 05:01:21.085604 27645 net.cpp:150] Setting up conv1
I0526 05:01:21.085662 27645 net.cpp:157] Top shape: 10 12 120 48 (691200)
I0526 05:01:21.085685 27645 net.cpp:165] Memory required for data: 3018840
I0526 05:01:21.085716 27645 layer_factory.hpp:77] Creating layer relu1
I0526 05:01:21.085737 27645 net.cpp:106] Creating Layer relu1
I0526 05:01:21.085757 27645 net.cpp:454] relu1 <- conv1
I0526 05:01:21.085793 27645 net.cpp:397] relu1 -> conv1 (in-place)
I0526 05:01:21.086328 27645 net.cpp:150] Setting up relu1
I0526 05:01:21.086350 27645 net.cpp:157] Top shape: 10 12 120 48 (691200)
I0526 05:01:21.086364 27645 net.cpp:165] Memory required for data: 5783640
I0526 05:01:21.086380 27645 layer_factory.hpp:77] Creating layer pool1
I0526 05:01:21.086408 27645 net.cpp:106] Creating Layer pool1
I0526 05:01:21.086422 27645 net.cpp:454] pool1 <- conv1
I0526 05:01:21.086439 27645 net.cpp:411] pool1 -> pool1
I0526 05:01:21.086532 27645 net.cpp:150] Setting up pool1
I0526 05:01:21.086552 27645 net.cpp:157] Top shape: 10 12 60 48 (345600)
I0526 05:01:21.086565 27645 net.cpp:165] Memory required for data: 7166040
I0526 05:01:21.086585 27645 layer_factory.hpp:77] Creating layer conv2
I0526 05:01:21.086608 27645 net.cpp:106] Creating Layer conv2
I0526 05:01:21.086622 27645 net.cpp:454] conv2 <- pool1
I0526 05:01:21.086642 27645 net.cpp:411] conv2 -> conv2
I0526 05:01:21.089359 27645 net.cpp:150] Setting up conv2
I0526 05:01:21.089390 27645 net.cpp:157] Top shape: 10 20 54 46 (496800)
I0526 05:01:21.089406 27645 net.cpp:165] Memory required for data: 9153240
I0526 05:01:21.089429 27645 layer_factory.hpp:77] Creating layer relu2
I0526 05:01:21.089462 27645 net.cpp:106] Creating Layer relu2
I0526 05:01:21.089475 27645 net.cpp:454] relu2 <- conv2
I0526 05:01:21.089493 27645 net.cpp:397] relu2 -> conv2 (in-place)
I0526 05:01:21.089849 27645 net.cpp:150] Setting up relu2
I0526 05:01:21.089869 27645 net.cpp:157] Top shape: 10 20 54 46 (496800)
I0526 05:01:21.089882 27645 net.cpp:165] Memory required for data: 11140440
I0526 05:01:21.089895 27645 layer_factory.hpp:77] Creating layer pool2
I0526 05:01:21.089915 27645 net.cpp:106] Creating Layer pool2
I0526 05:01:21.089927 27645 net.cpp:454] pool2 <- conv2
I0526 05:01:21.089942 27645 net.cpp:411] pool2 -> pool2
I0526 05:01:21.090046 27645 net.cpp:150] Setting up pool2
I0526 05:01:21.090064 27645 net.cpp:157] Top shape: 10 20 27 46 (248400)
I0526 05:01:21.090078 27645 net.cpp:165] Memory required for data: 12134040
I0526 05:01:21.090097 27645 layer_factory.hpp:77] Creating layer conv3
I0526 05:01:21.090118 27645 net.cpp:106] Creating Layer conv3
I0526 05:01:21.090138 27645 net.cpp:454] conv3 <- pool2
I0526 05:01:21.090154 27645 net.cpp:411] conv3 -> conv3
I0526 05:01:21.092286 27645 net.cpp:150] Setting up conv3
I0526 05:01:21.092313 27645 net.cpp:157] Top shape: 10 28 22 44 (271040)
I0526 05:01:21.092334 27645 net.cpp:165] Memory required for data: 13218200
I0526 05:01:21.092355 27645 layer_factory.hpp:77] Creating layer relu3
I0526 05:01:21.092378 27645 net.cpp:106] Creating Layer relu3
I0526 05:01:21.092401 27645 net.cpp:454] relu3 <- conv3
I0526 05:01:21.092417 27645 net.cpp:397] relu3 -> conv3 (in-place)
I0526 05:01:21.092898 27645 net.cpp:150] Setting up relu3
I0526 05:01:21.092923 27645 net.cpp:157] Top shape: 10 28 22 44 (271040)
I0526 05:01:21.092936 27645 net.cpp:165] Memory required for data: 14302360
I0526 05:01:21.092952 27645 layer_factory.hpp:77] Creating layer pool3
I0526 05:01:21.092967 27645 net.cpp:106] Creating Layer pool3
I0526 05:01:21.092990 27645 net.cpp:454] pool3 <- conv3
I0526 05:01:21.093006 27645 net.cpp:411] pool3 -> pool3
I0526 05:01:21.093091 27645 net.cpp:150] Setting up pool3
I0526 05:01:21.093112 27645 net.cpp:157] Top shape: 10 28 11 44 (135520)
I0526 05:01:21.093125 27645 net.cpp:165] Memory required for data: 14844440
I0526 05:01:21.093139 27645 layer_factory.hpp:77] Creating layer conv4
I0526 05:01:21.093165 27645 net.cpp:106] Creating Layer conv4
I0526 05:01:21.093179 27645 net.cpp:454] conv4 <- pool3
I0526 05:01:21.093195 27645 net.cpp:411] conv4 -> conv4
I0526 05:01:21.095934 27645 net.cpp:150] Setting up conv4
I0526 05:01:21.095965 27645 net.cpp:157] Top shape: 10 36 6 42 (90720)
I0526 05:01:21.095985 27645 net.cpp:165] Memory required for data: 15207320
I0526 05:01:21.096005 27645 layer_factory.hpp:77] Creating layer relu4
I0526 05:01:21.096026 27645 net.cpp:106] Creating Layer relu4
I0526 05:01:21.096050 27645 net.cpp:454] relu4 <- conv4
I0526 05:01:21.096067 27645 net.cpp:397] relu4 -> conv4 (in-place)
I0526 05:01:21.096561 27645 net.cpp:150] Setting up relu4
I0526 05:01:21.096585 27645 net.cpp:157] Top shape: 10 36 6 42 (90720)
I0526 05:01:21.096598 27645 net.cpp:165] Memory required for data: 15570200
I0526 05:01:21.096614 27645 layer_factory.hpp:77] Creating layer pool4
I0526 05:01:21.096631 27645 net.cpp:106] Creating Layer pool4
I0526 05:01:21.096652 27645 net.cpp:454] pool4 <- conv4
I0526 05:01:21.096669 27645 net.cpp:411] pool4 -> pool4
I0526 05:01:21.096752 27645 net.cpp:150] Setting up pool4
I0526 05:01:21.096774 27645 net.cpp:157] Top shape: 10 36 3 42 (45360)
I0526 05:01:21.096787 27645 net.cpp:165] Memory required for data: 15751640
I0526 05:01:21.096801 27645 layer_factory.hpp:77] Creating layer ip1
I0526 05:01:21.096828 27645 net.cpp:106] Creating Layer ip1
I0526 05:01:21.096843 27645 net.cpp:454] ip1 <- pool4
I0526 05:01:21.096858 27645 net.cpp:411] ip1 -> ip1
I0526 05:01:21.112293 27645 net.cpp:150] Setting up ip1
I0526 05:01:21.112324 27645 net.cpp:157] Top shape: 10 196 (1960)
I0526 05:01:21.112345 27645 net.cpp:165] Memory required for data: 15759480
I0526 05:01:21.112371 27645 layer_factory.hpp:77] Creating layer relu5
I0526 05:01:21.112393 27645 net.cpp:106] Creating Layer relu5
I0526 05:01:21.112417 27645 net.cpp:454] relu5 <- ip1
I0526 05:01:21.112437 27645 net.cpp:397] relu5 -> ip1 (in-place)
I0526 05:01:21.112797 27645 net.cpp:150] Setting up relu5
I0526 05:01:21.112818 27645 net.cpp:157] Top shape: 10 196 (1960)
I0526 05:01:21.112830 27645 net.cpp:165] Memory required for data: 15767320
I0526 05:01:21.112846 27645 layer_factory.hpp:77] Creating layer drop1
I0526 05:01:21.112877 27645 net.cpp:106] Creating Layer drop1
I0526 05:01:21.112891 27645 net.cpp:454] drop1 <- ip1
I0526 05:01:21.112913 27645 net.cpp:397] drop1 -> ip1 (in-place)
I0526 05:01:21.112987 27645 net.cpp:150] Setting up drop1
I0526 05:01:21.113003 27645 net.cpp:157] Top shape: 10 196 (1960)
I0526 05:01:21.113016 27645 net.cpp:165] Memory required for data: 15775160
I0526 05:01:21.113030 27645 layer_factory.hpp:77] Creating layer ip2
I0526 05:01:21.113051 27645 net.cpp:106] Creating Layer ip2
I0526 05:01:21.113065 27645 net.cpp:454] ip2 <- ip1
I0526 05:01:21.113081 27645 net.cpp:411] ip2 -> ip2
I0526 05:01:21.113571 27645 net.cpp:150] Setting up ip2
I0526 05:01:21.113590 27645 net.cpp:157] Top shape: 10 98 (980)
I0526 05:01:21.113602 27645 net.cpp:165] Memory required for data: 15779080
I0526 05:01:21.113623 27645 layer_factory.hpp:77] Creating layer relu6
I0526 05:01:21.113646 27645 net.cpp:106] Creating Layer relu6
I0526 05:01:21.113658 27645 net.cpp:454] relu6 <- ip2
I0526 05:01:21.113673 27645 net.cpp:397] relu6 -> ip2 (in-place)
I0526 05:01:21.114223 27645 net.cpp:150] Setting up relu6
I0526 05:01:21.114245 27645 net.cpp:157] Top shape: 10 98 (980)
I0526 05:01:21.114259 27645 net.cpp:165] Memory required for data: 15783000
I0526 05:01:21.114274 27645 layer_factory.hpp:77] Creating layer drop2
I0526 05:01:21.114298 27645 net.cpp:106] Creating Layer drop2
I0526 05:01:21.114311 27645 net.cpp:454] drop2 <- ip2
I0526 05:01:21.114327 27645 net.cpp:397] drop2 -> ip2 (in-place)
I0526 05:01:21.114384 27645 net.cpp:150] Setting up drop2
I0526 05:01:21.114400 27645 net.cpp:157] Top shape: 10 98 (980)
I0526 05:01:21.114413 27645 net.cpp:165] Memory required for data: 15786920
I0526 05:01:21.114426 27645 layer_factory.hpp:77] Creating layer ip3
I0526 05:01:21.114444 27645 net.cpp:106] Creating Layer ip3
I0526 05:01:21.114456 27645 net.cpp:454] ip3 <- ip2
I0526 05:01:21.114480 27645 net.cpp:411] ip3 -> ip3
I0526 05:01:21.114702 27645 net.cpp:150] Setting up ip3
I0526 05:01:21.114720 27645 net.cpp:157] Top shape: 10 11 (110)
I0526 05:01:21.114733 27645 net.cpp:165] Memory required for data: 15787360
I0526 05:01:21.114753 27645 layer_factory.hpp:77] Creating layer drop3
I0526 05:01:21.114775 27645 net.cpp:106] Creating Layer drop3
I0526 05:01:21.114789 27645 net.cpp:454] drop3 <- ip3
I0526 05:01:21.114804 27645 net.cpp:397] drop3 -> ip3 (in-place)
I0526 05:01:21.114850 27645 net.cpp:150] Setting up drop3
I0526 05:01:21.114872 27645 net.cpp:157] Top shape: 10 11 (110)
I0526 05:01:21.114886 27645 net.cpp:165] Memory required for data: 15787800
I0526 05:01:21.114905 27645 layer_factory.hpp:77] Creating layer loss
I0526 05:01:21.114928 27645 net.cpp:106] Creating Layer loss
I0526 05:01:21.114943 27645 net.cpp:454] loss <- ip3
I0526 05:01:21.114956 27645 net.cpp:454] loss <- label
I0526 05:01:21.114979 27645 net.cpp:411] loss -> loss
I0526 05:01:21.114998 27645 layer_factory.hpp:77] Creating layer loss
…
I0526 05:01:21.117835 27645 solver.cpp:181] Creating test net (#0) specified by net file: /lustre/atlas/proj-shared/hep105/caffe_titan/caffe_workflow/logs_bslr/bs_10_lr_0.0015_2016-05-20T15.48.50.039036.prototxt
I0526 05:01:21.117914 27645 net.cpp:322] The NetState phase (1) differed from the phase (0) specified by a rule in layer data_hdf5
I0526 05:01:21.118290 27645 net.cpp:49] Initializing net from parameters: 
name: "caffe_test_127x50_x_unshifted"
state {
  phase: TEST
}
layer {
  name: "data_hdf5"
  type: "HDF5Data"
  top: "data"
  top: "label"
  include {
    phase: TEST
  }
  hdf5_data_param {
    source: "/lustre/atlas/proj-shared/hep105/caffe_titan/minosmatch_nukecczdefs_127x50_x_unshifted_me1Bmc.testlist"
    batch_size: 10
  }
}
layer {
  name: "conv1"
  type: "Convolution"
  bottom: "data"
  top: "conv1"
  convolution_param {
    num_output: 12
    pad: 0
    stride: 1
    weight_filler {
      type: "xavier"
    }
    bias_filler {
      type: "constant"
    }
    kernel_h: 8
    kernel_w: 3
  }
}
layer {
  name: "relu1"
  type: "ReLU"
  bottom: "conv1"
  top: "conv1"
}
layer {
  name: "pool1"
  type: "Pooling"
  bottom: "conv1"
  top: "pool1"
  pooling_param {
    pool: MAX
    kernel_h: 2
    kernel_w: 1
    stride_h: 2
    stride_w: 1
  }
}
layer {
  name: "conv2"
  type: "Convolution"
  bottom: "pool1"
  top: "conv2"
  convolution_param {
    num_output: 20
    pad: 0
    stride: 1
    weight_filler {
      type: "xavier"
    }
    bias_filler {
      type: "constant"
    }
    kernel_h: 7
    kernel_w: 3
  }
}
layer {
  name: "relu2"
  type: "ReLU"
  bottom: "conv2"
  top: "conv2"
}
layer {
  name: "pool2"
  type: "Pooling"
  bottom: "conv2"
  top: "pool2"
  pooling_param {
    pool: MAX
    kernel_h: 2
    kernel_w: 1
    stride_h: 2
    stride_w: 1
  }
}
layer {
  name: "conv3"
  type: "Convolution"
  bottom: "pool2"
  top: "conv3"
  convolution_param {
    num_output: 28
    pad: 0
    stride: 1
    weight_filler {
      type: "xavier"
    }
    bias_filler {
      type: "constant"
    }
    kernel_h: 6
    kernel_w: 3
  }
}
layer {
  name: "relu3"
  type: "ReLU"
  bottom: "conv3"
  top: "conv3"
}
layer {
  name: "pool3"
  type: "Pooling"
  bottom: "conv3"
  top: "pool3"
  pooling_param {
    pool: MAX
    kernel_h: 2
    kernel_w: 1
    stride_h: 2
    stride_w: 1
  }
}
layer {
  name: "conv4"
  type: "Convolution"
  bottom: "pool3"
  top: "conv4"
  convolution_param {
    num_output: 36
    pad: 0
    stride: 1
    weight_filler {
      type: "xavier"
    }
    bias_filler {
      type: "constant"
    }
    kernel_h: 6
    kernel_w: 3
  }
}
layer {
  name: "relu4"
  type: "ReLU"
  bottom: "conv4"
  top: "conv4"
}
layer {
  name: "pool4"
  type: "Pooling"
  bottom: "conv4"
  top: "pool4"
  pooling_param {
    pool: MAX
    kernel_h: 2
    kernel_w: 1
    stride_h: 2
    stride_w: 1
  }
}
layer {
  name: "ip1"
  type: "InnerProduct"
  bottom: "pool4"
  top: "ip1"
  inner_product_param {
    num_output: 196
    weight_filler {
      type: "xavier"
    }
    bias_filler {
      type: "constant"
    }
  }
}
layer {
  name: "relu5"
  type: "ReLU"
  bottom: "ip1"
  top: "ip1"
}
layer {
  name: "drop1"
  type: "Dropout"
  bottom: "ip1"
  top: "ip1"
  dropout_param {
    dropout_ratio: 0.5
  }
}
layer {
  name: "ip2"
  type: "InnerProduct"
  bottom: "ip1"
  top: "ip2"
  inner_product_param {
    num_output: 98
    weight_filler {
      type: "xavier"
    }
    bias_filler {
      type: "constant"
    }
  }
}
layer {
  name: "relu6"
  type: "ReLU"
  bottom: "ip2"
  top: "ip2"
}
layer {
  name: "drop2"
  type: "Dropout"
  bottom: "ip2"
  top: "ip2"
  dropout_param {
    dropout_ratio: 0.5
  }
}
layer {
  name: "ip3"
  type: "InnerProduct"
  bottom: "ip2"
  top: "ip3"
  inner_product_param {
    num_output: 11
    weight_filler {
      type: "xavier"
    }
    bias_filler {
      type: "constant"
    }
  }
}
layer {
  name: "drop3"
  type: "Dropout"
  bottom: "ip3"
  top: "ip3"
  dropout_param {
    dropout_ratio: 0.5
  }
}
layer {
  name: "accuracy"
  type: "Accuracy"
  bottom: "ip3"
  bottom: "label"
  top: "accuracy"
  include {
    phase: TEST
  }
}
layer {
  name: "loss"
  type: "SoftmaxWithLoss"
  bottom: "ip3"
  bottom: "label"
  top: "loss"
}
I0526 05:01:21.118515 27645 layer_factory.hpp:77] Creating layer data_hdf5
I0526 05:01:21.118535 27645 net.cpp:106] Creating Layer data_hdf5
I0526 05:01:21.118553 27645 net.cpp:411] data_hdf5 -> data
I0526 05:01:21.118576 27645 net.cpp:411] data_hdf5 -> label
I0526 05:01:21.118593 27645 hdf5_data_layer.cpp:79] Loading list of HDF5 filenames from: /lustre/atlas/proj-shared/hep105/caffe_titan/minosmatch_nukecczdefs_127x50_x_unshifted_me1Bmc.testlist
I0526 05:01:21.119894 27645 hdf5_data_layer.cpp:93] Number of HDF5 files: 3
I0526 05:01:42.472558 27645 net.cpp:150] Setting up data_hdf5
I0526 05:01:42.472730 27645 net.cpp:157] Top shape: 10 1 127 50 (63500)
I0526 05:01:42.472748 27645 net.cpp:157] Top shape: 10 (10)
I0526 05:01:42.472761 27645 net.cpp:165] Memory required for data: 254040
I0526 05:01:42.472776 27645 layer_factory.hpp:77] Creating layer label_data_hdf5_1_split
I0526 05:01:42.472810 27645 net.cpp:106] Creating Layer label_data_hdf5_1_split
I0526 05:01:42.472823 27645 net.cpp:454] label_data_hdf5_1_split <- label
I0526 05:01:42.472859 27645 net.cpp:411] label_data_hdf5_1_split -> label_data_hdf5_1_split_0
I0526 05:01:42.472882 27645 net.cpp:411] label_data_hdf5_1_split -> label_data_hdf5_1_split_1
I0526 05:01:42.472970 27645 net.cpp:150] Setting up label_data_hdf5_1_split
I0526 05:01:42.472987 27645 net.cpp:157] Top shape: 10 (10)
I0526 05:01:42.473001 27645 net.cpp:157] Top shape: 10 (10)
I0526 05:01:42.473014 27645 net.cpp:165] Memory required for data: 254120
I0526 05:01:42.473026 27645 layer_factory.hpp:77] Creating layer conv1
I0526 05:01:42.473058 27645 net.cpp:106] Creating Layer conv1
I0526 05:01:42.473073 27645 net.cpp:454] conv1 <- data
I0526 05:01:42.473091 27645 net.cpp:411] conv1 -> conv1
I0526 05:01:42.475054 27645 net.cpp:150] Setting up conv1
I0526 05:01:42.475085 27645 net.cpp:157] Top shape: 10 12 120 48 (691200)
I0526 05:01:42.475097 27645 net.cpp:165] Memory required for data: 3018920
I0526 05:01:42.475121 27645 layer_factory.hpp:77] Creating layer relu1
I0526 05:01:42.475152 27645 net.cpp:106] Creating Layer relu1
I0526 05:01:42.475165 27645 net.cpp:454] relu1 <- conv1
I0526 05:01:42.475181 27645 net.cpp:397] relu1 -> conv1 (in-place)
I0526 05:01:42.475718 27645 net.cpp:150] Setting up relu1
I0526 05:01:42.475741 27645 net.cpp:157] Top shape: 10 12 120 48 (691200)
I0526 05:01:42.475755 27645 net.cpp:165] Memory required for data: 5783720
I0526 05:01:42.475767 27645 layer_factory.hpp:77] Creating layer pool1
I0526 05:01:42.475790 27645 net.cpp:106] Creating Layer pool1
I0526 05:01:42.475811 27645 net.cpp:454] pool1 <- conv1
I0526 05:01:42.475828 27645 net.cpp:411] pool1 -> pool1
I0526 05:01:42.475919 27645 net.cpp:150] Setting up pool1
I0526 05:01:42.475935 27645 net.cpp:157] Top shape: 10 12 60 48 (345600)
I0526 05:01:42.475950 27645 net.cpp:165] Memory required for data: 7166120
I0526 05:01:42.475970 27645 layer_factory.hpp:77] Creating layer conv2
I0526 05:01:42.475991 27645 net.cpp:106] Creating Layer conv2
I0526 05:01:42.476011 27645 net.cpp:454] conv2 <- pool1
I0526 05:01:42.476029 27645 net.cpp:411] conv2 -> conv2
I0526 05:01:42.477978 27645 net.cpp:150] Setting up conv2
I0526 05:01:42.478003 27645 net.cpp:157] Top shape: 10 20 54 46 (496800)
I0526 05:01:42.478024 27645 net.cpp:165] Memory required for data: 9153320
I0526 05:01:42.478046 27645 layer_factory.hpp:77] Creating layer relu2
I0526 05:01:42.478067 27645 net.cpp:106] Creating Layer relu2
I0526 05:01:42.478088 27645 net.cpp:454] relu2 <- conv2
I0526 05:01:42.478106 27645 net.cpp:397] relu2 -> conv2 (in-place)
I0526 05:01:42.478456 27645 net.cpp:150] Setting up relu2
I0526 05:01:42.478476 27645 net.cpp:157] Top shape: 10 20 54 46 (496800)
I0526 05:01:42.478488 27645 net.cpp:165] Memory required for data: 11140520
I0526 05:01:42.478503 27645 layer_factory.hpp:77] Creating layer pool2
I0526 05:01:42.478525 27645 net.cpp:106] Creating Layer pool2
I0526 05:01:42.478538 27645 net.cpp:454] pool2 <- conv2
I0526 05:01:42.478554 27645 net.cpp:411] pool2 -> pool2
I0526 05:01:42.478644 27645 net.cpp:150] Setting up pool2
I0526 05:01:42.478662 27645 net.cpp:157] Top shape: 10 20 27 46 (248400)
I0526 05:01:42.478677 27645 net.cpp:165] Memory required for data: 12134120
I0526 05:01:42.478689 27645 layer_factory.hpp:77] Creating layer conv3
I0526 05:01:42.478718 27645 net.cpp:106] Creating Layer conv3
I0526 05:01:42.478732 27645 net.cpp:454] conv3 <- pool2
I0526 05:01:42.478749 27645 net.cpp:411] conv3 -> conv3
I0526 05:01:42.480785 27645 net.cpp:150] Setting up conv3
I0526 05:01:42.480811 27645 net.cpp:157] Top shape: 10 28 22 44 (271040)
I0526 05:01:42.480825 27645 net.cpp:165] Memory required for data: 13218280
I0526 05:01:42.480851 27645 layer_factory.hpp:77] Creating layer relu3
I0526 05:01:42.480890 27645 net.cpp:106] Creating Layer relu3
I0526 05:01:42.480903 27645 net.cpp:454] relu3 <- conv3
I0526 05:01:42.480926 27645 net.cpp:397] relu3 -> conv3 (in-place)
I0526 05:01:42.481422 27645 net.cpp:150] Setting up relu3
I0526 05:01:42.481446 27645 net.cpp:157] Top shape: 10 28 22 44 (271040)
I0526 05:01:42.481459 27645 net.cpp:165] Memory required for data: 14302440
I0526 05:01:42.481475 27645 layer_factory.hpp:77] Creating layer pool3
I0526 05:01:42.481499 27645 net.cpp:106] Creating Layer pool3
I0526 05:01:42.481513 27645 net.cpp:454] pool3 <- conv3
I0526 05:01:42.481528 27645 net.cpp:411] pool3 -> pool3
I0526 05:01:42.481614 27645 net.cpp:150] Setting up pool3
I0526 05:01:42.481631 27645 net.cpp:157] Top shape: 10 28 11 44 (135520)
I0526 05:01:42.481647 27645 net.cpp:165] Memory required for data: 14844520
I0526 05:01:42.481658 27645 layer_factory.hpp:77] Creating layer conv4
I0526 05:01:42.481685 27645 net.cpp:106] Creating Layer conv4
I0526 05:01:42.481698 27645 net.cpp:454] conv4 <- pool3
I0526 05:01:42.481715 27645 net.cpp:411] conv4 -> conv4
I0526 05:01:42.483798 27645 net.cpp:150] Setting up conv4
I0526 05:01:42.483826 27645 net.cpp:157] Top shape: 10 36 6 42 (90720)
I0526 05:01:42.483840 27645 net.cpp:165] Memory required for data: 15207400
I0526 05:01:42.483858 27645 layer_factory.hpp:77] Creating layer relu4
I0526 05:01:42.483878 27645 net.cpp:106] Creating Layer relu4
I0526 05:01:42.483901 27645 net.cpp:454] relu4 <- conv4
I0526 05:01:42.483917 27645 net.cpp:397] relu4 -> conv4 (in-place)
I0526 05:01:42.484412 27645 net.cpp:150] Setting up relu4
I0526 05:01:42.484436 27645 net.cpp:157] Top shape: 10 36 6 42 (90720)
I0526 05:01:42.484448 27645 net.cpp:165] Memory required for data: 15570280
I0526 05:01:42.484464 27645 layer_factory.hpp:77] Creating layer pool4
I0526 05:01:42.484489 27645 net.cpp:106] Creating Layer pool4
I0526 05:01:42.484503 27645 net.cpp:454] pool4 <- conv4
I0526 05:01:42.484519 27645 net.cpp:411] pool4 -> pool4
I0526 05:01:42.484606 27645 net.cpp:150] Setting up pool4
I0526 05:01:42.484622 27645 net.cpp:157] Top shape: 10 36 3 42 (45360)
I0526 05:01:42.484637 27645 net.cpp:165] Memory required for data: 15751720
I0526 05:01:42.484649 27645 layer_factory.hpp:77] Creating layer ip1
I0526 05:01:42.484674 27645 net.cpp:106] Creating Layer ip1
I0526 05:01:42.484688 27645 net.cpp:454] ip1 <- pool4
I0526 05:01:42.484705 27645 net.cpp:411] ip1 -> ip1
I0526 05:01:42.499980 27645 net.cpp:150] Setting up ip1
I0526 05:01:42.500018 27645 net.cpp:157] Top shape: 10 196 (1960)
I0526 05:01:42.500032 27645 net.cpp:165] Memory required for data: 15759560
I0526 05:01:42.500062 27645 layer_factory.hpp:77] Creating layer relu5
I0526 05:01:42.500092 27645 net.cpp:106] Creating Layer relu5
I0526 05:01:42.500105 27645 net.cpp:454] relu5 <- ip1
I0526 05:01:42.500123 27645 net.cpp:397] relu5 -> ip1 (in-place)
I0526 05:01:42.500499 27645 net.cpp:150] Setting up relu5
I0526 05:01:42.500519 27645 net.cpp:157] Top shape: 10 196 (1960)
I0526 05:01:42.500532 27645 net.cpp:165] Memory required for data: 15767400
I0526 05:01:42.500548 27645 layer_factory.hpp:77] Creating layer drop1
I0526 05:01:42.500577 27645 net.cpp:106] Creating Layer drop1
I0526 05:01:42.500591 27645 net.cpp:454] drop1 <- ip1
I0526 05:01:42.500607 27645 net.cpp:397] drop1 -> ip1 (in-place)
I0526 05:01:42.500666 27645 net.cpp:150] Setting up drop1
I0526 05:01:42.500684 27645 net.cpp:157] Top shape: 10 196 (1960)
I0526 05:01:42.500704 27645 net.cpp:165] Memory required for data: 15775240
I0526 05:01:42.500716 27645 layer_factory.hpp:77] Creating layer ip2
I0526 05:01:42.500737 27645 net.cpp:106] Creating Layer ip2
I0526 05:01:42.500749 27645 net.cpp:454] ip2 <- ip1
I0526 05:01:42.500773 27645 net.cpp:411] ip2 -> ip2
I0526 05:01:42.501263 27645 net.cpp:150] Setting up ip2
I0526 05:01:42.501282 27645 net.cpp:157] Top shape: 10 98 (980)
I0526 05:01:42.501296 27645 net.cpp:165] Memory required for data: 15779160
I0526 05:01:42.501317 27645 layer_factory.hpp:77] Creating layer relu6
I0526 05:01:42.501350 27645 net.cpp:106] Creating Layer relu6
I0526 05:01:42.501364 27645 net.cpp:454] relu6 <- ip2
I0526 05:01:42.501379 27645 net.cpp:397] relu6 -> ip2 (in-place)
I0526 05:01:42.501940 27645 net.cpp:150] Setting up relu6
I0526 05:01:42.501963 27645 net.cpp:157] Top shape: 10 98 (980)
I0526 05:01:42.501976 27645 net.cpp:165] Memory required for data: 15783080
I0526 05:01:42.501988 27645 layer_factory.hpp:77] Creating layer drop2
I0526 05:01:42.502008 27645 net.cpp:106] Creating Layer drop2
I0526 05:01:42.502029 27645 net.cpp:454] drop2 <- ip2
I0526 05:01:42.502046 27645 net.cpp:397] drop2 -> ip2 (in-place)
I0526 05:01:42.502097 27645 net.cpp:150] Setting up drop2
I0526 05:01:42.502120 27645 net.cpp:157] Top shape: 10 98 (980)
I0526 05:01:42.502133 27645 net.cpp:165] Memory required for data: 15787000
I0526 05:01:42.502152 27645 layer_factory.hpp:77] Creating layer ip3
I0526 05:01:42.502169 27645 net.cpp:106] Creating Layer ip3
I0526 05:01:42.502182 27645 net.cpp:454] ip3 <- ip2
I0526 05:01:42.502200 27645 net.cpp:411] ip3 -> ip3
I0526 05:01:42.502441 27645 net.cpp:150] Setting up ip3
I0526 05:01:42.502460 27645 net.cpp:157] Top shape: 10 11 (110)
I0526 05:01:42.502473 27645 net.cpp:165] Memory required for data: 15787440
I0526 05:01:42.502495 27645 layer_factory.hpp:77] Creating layer drop3
I0526 05:01:42.502517 27645 net.cpp:106] Creating Layer drop3
I0526 05:01:42.502532 27645 net.cpp:454] drop3 <- ip3
I0526 05:01:42.502547 27645 net.cpp:397] drop3 -> ip3 (in-place)
I0526 05:01:42.502594 27645 net.cpp:150] Setting up drop3
I0526 05:01:42.502610 27645 net.cpp:157] Top shape: 10 11 (110)
I0526 05:01:42.502629 27645 net.cpp:165] Memory required for data: 15787880
I0526 05:01:42.502641 27645 layer_factory.hpp:77] Creating layer ip3_drop3_0_split
I0526 05:01:42.502660 27645 net.cpp:106] Creating Layer ip3_drop3_0_split
I0526 05:01:42.502672 27645 net.cpp:454] ip3_drop3_0_split <- ip3
I0526 05:01:42.502688 27645 net.cpp:411] ip3_drop3_0_split -> ip3_drop3_0_split_0
I0526 05:01:42.502713 27645 net.cpp:411] ip3_drop3_0_split -> ip3_drop3_0_split_1
I0526 05:01:42.502804 27645 net.cpp:150] Setting up ip3_drop3_0_split
I0526 05:01:42.502820 27645 net.cpp:157] Top shape: 10 11 (110)
I0526 05:01:42.502837 27645 net.cpp:157] Top shape: 10 11 (110)
I0526 05:01:42.502849 27645 net.cpp:165] Memory required for data: 15788760
I0526 05:01:42.502862 27645 layer_factory.hpp:77] Creating layer accuracy
I0526 05:01:42.502890 27645 net.cpp:106] Creating Layer accuracy
I0526 05:01:42.502904 27645 net.cpp:454] accuracy <- ip3_drop3_0_split_0
I0526 05:01:42.502918 27645 net.cpp:454] accuracy <- label_data_hdf5_1_split_0
I0526 05:01:42.502938 27645 net.cpp:411] accuracy -> accuracy
…
