…
I0525 14:52:35.300251 23215 net.cpp:322] The NetState phase (0) differed from the phase (1) specified by a rule in layer data_hdf5
I0525 14:52:35.300309 23215 net.cpp:322] The NetState phase (0) differed from the phase (1) specified by a rule in layer accuracy
I0525 14:52:35.300653 23215 net.cpp:49] Initializing net from parameters: 
name: "caffe_test_127x50_x_unshifted"
state {
  phase: TRAIN
}
layer {
  name: "data_hdf5"
  type: "HDF5Data"
  top: "data"
  top: "label"
  include {
    phase: TRAIN
  }
  hdf5_data_param {
    source: "/lustre/atlas/proj-shared/hep105/caffe_titan/minosmatch_nukecczdefs_127x50_x_unshifted_me1Bmc.trainlist"
    batch_size: 100
  }
}
layer {
  name: "conv1"
  type: "Convolution"
  bottom: "data"
  top: "conv1"
  convolution_param {
    num_output: 12
    pad: 0
    stride: 1
    weight_filler {
      type: "xavier"
    }
    bias_filler {
      type: "constant"
    }
    kernel_h: 8
    kernel_w: 3
  }
}
layer {
  name: "relu1"
  type: "ReLU"
  bottom: "conv1"
  top: "conv1"
}
layer {
  name: "pool1"
  type: "Pooling"
  bottom: "conv1"
  top: "pool1"
  pooling_param {
    pool: MAX
    kernel_h: 2
    kernel_w: 1
    stride_h: 2
    stride_w: 1
  }
}
layer {
  name: "conv2"
  type: "Convolution"
  bottom: "pool1"
  top: "conv2"
  convolution_param {
    num_output: 20
    pad: 0
    stride: 1
    weight_filler {
      type: "xavier"
    }
    bias_filler {
      type: "constant"
    }
    kernel_h: 7
    kernel_w: 3
  }
}
layer {
  name: "relu2"
  type: "ReLU"
  bottom: "conv2"
  top: "conv2"
}
layer {
  name: "pool2"
  type: "Pooling"
  bottom: "conv2"
  top: "pool2"
  pooling_param {
    pool: MAX
    kernel_h: 2
    kernel_w: 1
    stride_h: 2
    stride_w: 1
  }
}
layer {
  name: "conv3"
  type: "Convolution"
  bottom: "pool2"
  top: "conv3"
  convolution_param {
    num_output: 28
    pad: 0
    stride: 1
    weight_filler {
      type: "xavier"
    }
    bias_filler {
      type: "constant"
    }
    kernel_h: 6
    kernel_w: 3
  }
}
layer {
  name: "relu3"
  type: "ReLU"
  bottom: "conv3"
  top: "conv3"
}
layer {
  name: "pool3"
  type: "Pooling"
  bottom: "conv3"
  top: "pool3"
  pooling_param {
    pool: MAX
    kernel_h: 2
    kernel_w: 1
    stride_h: 2
    stride_w: 1
  }
}
layer {
  name: "conv4"
  type: "Convolution"
  bottom: "pool3"
  top: "conv4"
  convolution_param {
    num_output: 36
    pad: 0
    stride: 1
    weight_filler {
      type: "xavier"
    }
    bias_filler {
      type: "constant"
    }
    kernel_h: 6
    kernel_w: 3
  }
}
layer {
  name: "relu4"
  type: "ReLU"
  bottom: "conv4"
  top: "conv4"
}
layer {
  name: "pool4"
  type: "Pooling"
  bottom: "conv4"
  top: "pool4"
  pooling_param {
    pool: MAX
    kernel_h: 2
    kernel_w: 1
    stride_h: 2
    stride_w: 1
  }
}
layer {
  name: "ip1"
  type: "InnerProduct"
  bottom: "pool4"
  top: "ip1"
  inner_product_param {
    num_output: 196
    weight_filler {
      type: "xavier"
    }
    bias_filler {
      type: "constant"
    }
  }
}
layer {
  name: "relu5"
  type: "ReLU"
  bottom: "ip1"
  top: "ip1"
}
layer {
  name: "drop1"
  type: "Dropout"
  bottom: "ip1"
  top: "ip1"
  dropout_param {
    dropout_ratio: 0.5
  }
}
layer {
  name: "ip2"
  type: "InnerProduct"
  bottom: "ip1"
  top: "ip2"
  inner_product_param {
    num_output: 98
    weight_filler {
      type: "xavier"
    }
    bias_filler {
      type: "constant"
    }
  }
}
layer {
  name: "relu6"
  type: "ReLU"
  bottom: "ip2"
  top: "ip2"
}
layer {
  name: "drop2"
  type: "Dropout"
  bottom: "ip2"
  top: "ip2"
  dropout_param {
    dropout_ratio: 0.5
  }
}
layer {
  name: "ip3"
  type: "InnerProduct"
  bottom: "ip2"
  top: "ip3"
  inner_product_param {
    num_output: 11
    weight_filler {
      type: "xavier"
    }
    bias_filler {
      type: "constant"
    }
  }
}
layer {
  name: "drop3"
  type: "Dropout"
  bottom: "ip3"
  top: "ip3"
  dropout_param {
    dropout_ratio: 0.5
  }
}
layer {
  name: "loss"
  type: "SoftmaxWithLoss"
  bottom: "ip3"
  bottom: "label"
  top: "loss"
}
I0525 14:52:35.300832 23215 layer_factory.hpp:77] Creating layer data_hdf5
I0525 14:52:35.300855 23215 net.cpp:106] Creating Layer data_hdf5
I0525 14:52:35.300870 23215 net.cpp:411] data_hdf5 -> data
I0525 14:52:35.300905 23215 net.cpp:411] data_hdf5 -> label
I0525 14:52:35.300937 23215 hdf5_data_layer.cpp:79] Loading list of HDF5 filenames from: /lustre/atlas/proj-shared/hep105/caffe_titan/minosmatch_nukecczdefs_127x50_x_unshifted_me1Bmc.trainlist
I0525 14:52:35.315929 23215 hdf5_data_layer.cpp:93] Number of HDF5 files: 15
I0525 14:52:35.328811 23215 hdf5.cpp:32] Datatype class: H5T_FLOAT
I0525 14:52:56.899451 23215 hdf5.cpp:35] Datatype class: H5T_INTEGER
I0525 14:52:56.904564 23215 net.cpp:150] Setting up data_hdf5
I0525 14:52:56.904604 23215 net.cpp:157] Top shape: 100 1 127 50 (635000)
I0525 14:52:56.904618 23215 net.cpp:157] Top shape: 100 (100)
I0525 14:52:56.904630 23215 net.cpp:165] Memory required for data: 2540400
I0525 14:52:56.904644 23215 layer_factory.hpp:77] Creating layer conv1
I0525 14:52:56.904677 23215 net.cpp:106] Creating Layer conv1
I0525 14:52:56.904688 23215 net.cpp:454] conv1 <- data
I0525 14:52:56.904711 23215 net.cpp:411] conv1 -> conv1
I0525 14:52:58.536842 23215 net.cpp:150] Setting up conv1
I0525 14:52:58.536886 23215 net.cpp:157] Top shape: 100 12 120 48 (6912000)
I0525 14:52:58.536897 23215 net.cpp:165] Memory required for data: 30188400
I0525 14:52:58.536928 23215 layer_factory.hpp:77] Creating layer relu1
I0525 14:52:58.536949 23215 net.cpp:106] Creating Layer relu1
I0525 14:52:58.536960 23215 net.cpp:454] relu1 <- conv1
I0525 14:52:58.536973 23215 net.cpp:397] relu1 -> conv1 (in-place)
I0525 14:52:58.537504 23215 net.cpp:150] Setting up relu1
I0525 14:52:58.537521 23215 net.cpp:157] Top shape: 100 12 120 48 (6912000)
I0525 14:52:58.537531 23215 net.cpp:165] Memory required for data: 57836400
I0525 14:52:58.537541 23215 layer_factory.hpp:77] Creating layer pool1
I0525 14:52:58.537559 23215 net.cpp:106] Creating Layer pool1
I0525 14:52:58.537569 23215 net.cpp:454] pool1 <- conv1
I0525 14:52:58.537582 23215 net.cpp:411] pool1 -> pool1
I0525 14:52:58.537662 23215 net.cpp:150] Setting up pool1
I0525 14:52:58.537677 23215 net.cpp:157] Top shape: 100 12 60 48 (3456000)
I0525 14:52:58.537686 23215 net.cpp:165] Memory required for data: 71660400
I0525 14:52:58.537698 23215 layer_factory.hpp:77] Creating layer conv2
I0525 14:52:58.537719 23215 net.cpp:106] Creating Layer conv2
I0525 14:52:58.537730 23215 net.cpp:454] conv2 <- pool1
I0525 14:52:58.537744 23215 net.cpp:411] conv2 -> conv2
I0525 14:52:58.540472 23215 net.cpp:150] Setting up conv2
I0525 14:52:58.540500 23215 net.cpp:157] Top shape: 100 20 54 46 (4968000)
I0525 14:52:58.540511 23215 net.cpp:165] Memory required for data: 91532400
I0525 14:52:58.540529 23215 layer_factory.hpp:77] Creating layer relu2
I0525 14:52:58.540544 23215 net.cpp:106] Creating Layer relu2
I0525 14:52:58.540555 23215 net.cpp:454] relu2 <- conv2
I0525 14:52:58.540567 23215 net.cpp:397] relu2 -> conv2 (in-place)
I0525 14:52:58.540896 23215 net.cpp:150] Setting up relu2
I0525 14:52:58.540911 23215 net.cpp:157] Top shape: 100 20 54 46 (4968000)
I0525 14:52:58.540921 23215 net.cpp:165] Memory required for data: 111404400
I0525 14:52:58.540932 23215 layer_factory.hpp:77] Creating layer pool2
I0525 14:52:58.540944 23215 net.cpp:106] Creating Layer pool2
I0525 14:52:58.540954 23215 net.cpp:454] pool2 <- conv2
I0525 14:52:58.540966 23215 net.cpp:411] pool2 -> pool2
I0525 14:52:58.541059 23215 net.cpp:150] Setting up pool2
I0525 14:52:58.541071 23215 net.cpp:157] Top shape: 100 20 27 46 (2484000)
I0525 14:52:58.541085 23215 net.cpp:165] Memory required for data: 121340400
I0525 14:52:58.541095 23215 layer_factory.hpp:77] Creating layer conv3
I0525 14:52:58.541112 23215 net.cpp:106] Creating Layer conv3
I0525 14:52:58.541122 23215 net.cpp:454] conv3 <- pool2
I0525 14:52:58.541136 23215 net.cpp:411] conv3 -> conv3
I0525 14:52:58.543056 23215 net.cpp:150] Setting up conv3
I0525 14:52:58.543073 23215 net.cpp:157] Top shape: 100 28 22 44 (2710400)
I0525 14:52:58.543086 23215 net.cpp:165] Memory required for data: 132182000
I0525 14:52:58.543103 23215 layer_factory.hpp:77] Creating layer relu3
I0525 14:52:58.543119 23215 net.cpp:106] Creating Layer relu3
I0525 14:52:58.543129 23215 net.cpp:454] relu3 <- conv3
I0525 14:52:58.543143 23215 net.cpp:397] relu3 -> conv3 (in-place)
I0525 14:52:58.543613 23215 net.cpp:150] Setting up relu3
I0525 14:52:58.543630 23215 net.cpp:157] Top shape: 100 28 22 44 (2710400)
I0525 14:52:58.543640 23215 net.cpp:165] Memory required for data: 143023600
I0525 14:52:58.543650 23215 layer_factory.hpp:77] Creating layer pool3
I0525 14:52:58.543663 23215 net.cpp:106] Creating Layer pool3
I0525 14:52:58.543673 23215 net.cpp:454] pool3 <- conv3
I0525 14:52:58.543686 23215 net.cpp:411] pool3 -> pool3
I0525 14:52:58.543753 23215 net.cpp:150] Setting up pool3
I0525 14:52:58.543766 23215 net.cpp:157] Top shape: 100 28 11 44 (1355200)
I0525 14:52:58.543776 23215 net.cpp:165] Memory required for data: 148444400
I0525 14:52:58.543784 23215 layer_factory.hpp:77] Creating layer conv4
I0525 14:52:58.543802 23215 net.cpp:106] Creating Layer conv4
I0525 14:52:58.543812 23215 net.cpp:454] conv4 <- pool3
I0525 14:52:58.543823 23215 net.cpp:411] conv4 -> conv4
I0525 14:52:58.546782 23215 net.cpp:150] Setting up conv4
I0525 14:52:58.546809 23215 net.cpp:157] Top shape: 100 36 6 42 (907200)
I0525 14:52:58.546820 23215 net.cpp:165] Memory required for data: 152073200
I0525 14:52:58.546838 23215 layer_factory.hpp:77] Creating layer relu4
I0525 14:52:58.546851 23215 net.cpp:106] Creating Layer relu4
I0525 14:52:58.546862 23215 net.cpp:454] relu4 <- conv4
I0525 14:52:58.546875 23215 net.cpp:397] relu4 -> conv4 (in-place)
I0525 14:52:58.547338 23215 net.cpp:150] Setting up relu4
I0525 14:52:58.547354 23215 net.cpp:157] Top shape: 100 36 6 42 (907200)
I0525 14:52:58.547364 23215 net.cpp:165] Memory required for data: 155702000
I0525 14:52:58.547374 23215 layer_factory.hpp:77] Creating layer pool4
I0525 14:52:58.547387 23215 net.cpp:106] Creating Layer pool4
I0525 14:52:58.547397 23215 net.cpp:454] pool4 <- conv4
I0525 14:52:58.547410 23215 net.cpp:411] pool4 -> pool4
I0525 14:52:58.547479 23215 net.cpp:150] Setting up pool4
I0525 14:52:58.547492 23215 net.cpp:157] Top shape: 100 36 3 42 (453600)
I0525 14:52:58.547502 23215 net.cpp:165] Memory required for data: 157516400
I0525 14:52:58.547513 23215 layer_factory.hpp:77] Creating layer ip1
I0525 14:52:58.547533 23215 net.cpp:106] Creating Layer ip1
I0525 14:52:58.547543 23215 net.cpp:454] ip1 <- pool4
I0525 14:52:58.547554 23215 net.cpp:411] ip1 -> ip1
I0525 14:52:58.563115 23215 net.cpp:150] Setting up ip1
I0525 14:52:58.563138 23215 net.cpp:157] Top shape: 100 196 (19600)
I0525 14:52:58.563153 23215 net.cpp:165] Memory required for data: 157594800
I0525 14:52:58.563179 23215 layer_factory.hpp:77] Creating layer relu5
I0525 14:52:58.563194 23215 net.cpp:106] Creating Layer relu5
I0525 14:52:58.563205 23215 net.cpp:454] relu5 <- ip1
I0525 14:52:58.563218 23215 net.cpp:397] relu5 -> ip1 (in-place)
I0525 14:52:58.563562 23215 net.cpp:150] Setting up relu5
I0525 14:52:58.563576 23215 net.cpp:157] Top shape: 100 196 (19600)
I0525 14:52:58.563586 23215 net.cpp:165] Memory required for data: 157673200
I0525 14:52:58.563596 23215 layer_factory.hpp:77] Creating layer drop1
I0525 14:52:58.563616 23215 net.cpp:106] Creating Layer drop1
I0525 14:52:58.563627 23215 net.cpp:454] drop1 <- ip1
I0525 14:52:58.563639 23215 net.cpp:397] drop1 -> ip1 (in-place)
I0525 14:52:58.563699 23215 net.cpp:150] Setting up drop1
I0525 14:52:58.563711 23215 net.cpp:157] Top shape: 100 196 (19600)
I0525 14:52:58.563721 23215 net.cpp:165] Memory required for data: 157751600
I0525 14:52:58.563731 23215 layer_factory.hpp:77] Creating layer ip2
I0525 14:52:58.563750 23215 net.cpp:106] Creating Layer ip2
I0525 14:52:58.563760 23215 net.cpp:454] ip2 <- ip1
I0525 14:52:58.563773 23215 net.cpp:411] ip2 -> ip2
I0525 14:52:58.564240 23215 net.cpp:150] Setting up ip2
I0525 14:52:58.564254 23215 net.cpp:157] Top shape: 100 98 (9800)
I0525 14:52:58.564263 23215 net.cpp:165] Memory required for data: 157790800
I0525 14:52:58.564278 23215 layer_factory.hpp:77] Creating layer relu6
I0525 14:52:58.564291 23215 net.cpp:106] Creating Layer relu6
I0525 14:52:58.564301 23215 net.cpp:454] relu6 <- ip2
I0525 14:52:58.564311 23215 net.cpp:397] relu6 -> ip2 (in-place)
I0525 14:52:58.564829 23215 net.cpp:150] Setting up relu6
I0525 14:52:58.564846 23215 net.cpp:157] Top shape: 100 98 (9800)
I0525 14:52:58.564856 23215 net.cpp:165] Memory required for data: 157830000
I0525 14:52:58.564865 23215 layer_factory.hpp:77] Creating layer drop2
I0525 14:52:58.564878 23215 net.cpp:106] Creating Layer drop2
I0525 14:52:58.564888 23215 net.cpp:454] drop2 <- ip2
I0525 14:52:58.564900 23215 net.cpp:397] drop2 -> ip2 (in-place)
I0525 14:52:58.564944 23215 net.cpp:150] Setting up drop2
I0525 14:52:58.564955 23215 net.cpp:157] Top shape: 100 98 (9800)
I0525 14:52:58.564965 23215 net.cpp:165] Memory required for data: 157869200
I0525 14:52:58.564975 23215 layer_factory.hpp:77] Creating layer ip3
I0525 14:52:58.564988 23215 net.cpp:106] Creating Layer ip3
I0525 14:52:58.564998 23215 net.cpp:454] ip3 <- ip2
I0525 14:52:58.565011 23215 net.cpp:411] ip3 -> ip3
I0525 14:52:58.565227 23215 net.cpp:150] Setting up ip3
I0525 14:52:58.565240 23215 net.cpp:157] Top shape: 100 11 (1100)
I0525 14:52:58.565250 23215 net.cpp:165] Memory required for data: 157873600
I0525 14:52:58.565265 23215 layer_factory.hpp:77] Creating layer drop3
I0525 14:52:58.565279 23215 net.cpp:106] Creating Layer drop3
I0525 14:52:58.565287 23215 net.cpp:454] drop3 <- ip3
I0525 14:52:58.565300 23215 net.cpp:397] drop3 -> ip3 (in-place)
I0525 14:52:58.565340 23215 net.cpp:150] Setting up drop3
I0525 14:52:58.565352 23215 net.cpp:157] Top shape: 100 11 (1100)
I0525 14:52:58.565361 23215 net.cpp:165] Memory required for data: 157878000
I0525 14:52:58.565372 23215 layer_factory.hpp:77] Creating layer loss
I0525 14:52:58.565392 23215 net.cpp:106] Creating Layer loss
I0525 14:52:58.565402 23215 net.cpp:454] loss <- ip3
I0525 14:52:58.565412 23215 net.cpp:454] loss <- label
I0525 14:52:58.565424 23215 net.cpp:411] loss -> loss
I0525 14:52:58.565441 23215 layer_factory.hpp:77] Creating layer loss
…
I0525 14:52:58.568025 23215 solver.cpp:181] Creating test net (#0) specified by net file: /lustre/atlas/proj-shared/hep105/caffe_titan/caffe_workflow/logs_bslr/bs_100_lr_0.0010_2016-05-20T15.49.24.388997.prototxt
I0525 14:52:58.568096 23215 net.cpp:322] The NetState phase (1) differed from the phase (0) specified by a rule in layer data_hdf5
I0525 14:52:58.568450 23215 net.cpp:49] Initializing net from parameters: 
name: "caffe_test_127x50_x_unshifted"
state {
  phase: TEST
}
layer {
  name: "data_hdf5"
  type: "HDF5Data"
  top: "data"
  top: "label"
  include {
    phase: TEST
  }
  hdf5_data_param {
    source: "/lustre/atlas/proj-shared/hep105/caffe_titan/minosmatch_nukecczdefs_127x50_x_unshifted_me1Bmc.testlist"
    batch_size: 100
  }
}
layer {
  name: "conv1"
  type: "Convolution"
  bottom: "data"
  top: "conv1"
  convolution_param {
    num_output: 12
    pad: 0
    stride: 1
    weight_filler {
      type: "xavier"
    }
    bias_filler {
      type: "constant"
    }
    kernel_h: 8
    kernel_w: 3
  }
}
layer {
  name: "relu1"
  type: "ReLU"
  bottom: "conv1"
  top: "conv1"
}
layer {
  name: "pool1"
  type: "Pooling"
  bottom: "conv1"
  top: "pool1"
  pooling_param {
    pool: MAX
    kernel_h: 2
    kernel_w: 1
    stride_h: 2
    stride_w: 1
  }
}
layer {
  name: "conv2"
  type: "Convolution"
  bottom: "pool1"
  top: "conv2"
  convolution_param {
    num_output: 20
    pad: 0
    stride: 1
    weight_filler {
      type: "xavier"
    }
    bias_filler {
      type: "constant"
    }
    kernel_h: 7
    kernel_w: 3
  }
}
layer {
  name: "relu2"
  type: "ReLU"
  bottom: "conv2"
  top: "conv2"
}
layer {
  name: "pool2"
  type: "Pooling"
  bottom: "conv2"
  top: "pool2"
  pooling_param {
    pool: MAX
    kernel_h: 2
    kernel_w: 1
    stride_h: 2
    stride_w: 1
  }
}
layer {
  name: "conv3"
  type: "Convolution"
  bottom: "pool2"
  top: "conv3"
  convolution_param {
    num_output: 28
    pad: 0
    stride: 1
    weight_filler {
      type: "xavier"
    }
    bias_filler {
      type: "constant"
    }
    kernel_h: 6
    kernel_w: 3
  }
}
layer {
  name: "relu3"
  type: "ReLU"
  bottom: "conv3"
  top: "conv3"
}
layer {
  name: "pool3"
  type: "Pooling"
  bottom: "conv3"
  top: "pool3"
  pooling_param {
    pool: MAX
    kernel_h: 2
    kernel_w: 1
    stride_h: 2
    stride_w: 1
  }
}
layer {
  name: "conv4"
  type: "Convolution"
  bottom: "pool3"
  top: "conv4"
  convolution_param {
    num_output: 36
    pad: 0
    stride: 1
    weight_filler {
      type: "xavier"
    }
    bias_filler {
      type: "constant"
    }
    kernel_h: 6
    kernel_w: 3
  }
}
layer {
  name: "relu4"
  type: "ReLU"
  bottom: "conv4"
  top: "conv4"
}
layer {
  name: "pool4"
  type: "Pooling"
  bottom: "conv4"
  top: "pool4"
  pooling_param {
    pool: MAX
    kernel_h: 2
    kernel_w: 1
    stride_h: 2
    stride_w: 1
  }
}
layer {
  name: "ip1"
  type: "InnerProduct"
  bottom: "pool4"
  top: "ip1"
  inner_product_param {
    num_output: 196
    weight_filler {
      type: "xavier"
    }
    bias_filler {
      type: "constant"
    }
  }
}
layer {
  name: "relu5"
  type: "ReLU"
  bottom: "ip1"
  top: "ip1"
}
layer {
  name: "drop1"
  type: "Dropout"
  bottom: "ip1"
  top: "ip1"
  dropout_param {
    dropout_ratio: 0.5
  }
}
layer {
  name: "ip2"
  type: "InnerProduct"
  bottom: "ip1"
  top: "ip2"
  inner_product_param {
    num_output: 98
    weight_filler {
      type: "xavier"
    }
    bias_filler {
      type: "constant"
    }
  }
}
layer {
  name: "relu6"
  type: "ReLU"
  bottom: "ip2"
  top: "ip2"
}
layer {
  name: "drop2"
  type: "Dropout"
  bottom: "ip2"
  top: "ip2"
  dropout_param {
    dropout_ratio: 0.5
  }
}
layer {
  name: "ip3"
  type: "InnerProduct"
  bottom: "ip2"
  top: "ip3"
  inner_product_param {
    num_output: 11
    weight_filler {
      type: "xavier"
    }
    bias_filler {
      type: "constant"
    }
  }
}
layer {
  name: "drop3"
  type: "Dropout"
  bottom: "ip3"
  top: "ip3"
  dropout_param {
    dropout_ratio: 0.5
  }
}
layer {
  name: "accuracy"
  type: "Accuracy"
  bottom: "ip3"
  bottom: "label"
  top: "accuracy"
  include {
    phase: TEST
  }
}
layer {
  name: "loss"
  type: "SoftmaxWithLoss"
  bottom: "ip3"
  bottom: "label"
  top: "loss"
}
I0525 14:52:58.568637 23215 layer_factory.hpp:77] Creating layer data_hdf5
I0525 14:52:58.568652 23215 net.cpp:106] Creating Layer data_hdf5
I0525 14:52:58.568665 23215 net.cpp:411] data_hdf5 -> data
I0525 14:52:58.568681 23215 net.cpp:411] data_hdf5 -> label
I0525 14:52:58.568697 23215 hdf5_data_layer.cpp:79] Loading list of HDF5 filenames from: /lustre/atlas/proj-shared/hep105/caffe_titan/minosmatch_nukecczdefs_127x50_x_unshifted_me1Bmc.testlist
I0525 14:52:58.585480 23215 hdf5_data_layer.cpp:93] Number of HDF5 files: 3
I0525 14:53:19.945935 23215 net.cpp:150] Setting up data_hdf5
I0525 14:53:19.946101 23215 net.cpp:157] Top shape: 100 1 127 50 (635000)
I0525 14:53:19.946116 23215 net.cpp:157] Top shape: 100 (100)
I0525 14:53:19.946128 23215 net.cpp:165] Memory required for data: 2540400
I0525 14:53:19.946142 23215 layer_factory.hpp:77] Creating layer label_data_hdf5_1_split
I0525 14:53:19.946171 23215 net.cpp:106] Creating Layer label_data_hdf5_1_split
I0525 14:53:19.946182 23215 net.cpp:454] label_data_hdf5_1_split <- label
I0525 14:53:19.946197 23215 net.cpp:411] label_data_hdf5_1_split -> label_data_hdf5_1_split_0
I0525 14:53:19.946218 23215 net.cpp:411] label_data_hdf5_1_split -> label_data_hdf5_1_split_1
I0525 14:53:19.946290 23215 net.cpp:150] Setting up label_data_hdf5_1_split
I0525 14:53:19.946303 23215 net.cpp:157] Top shape: 100 (100)
I0525 14:53:19.946315 23215 net.cpp:157] Top shape: 100 (100)
I0525 14:53:19.946324 23215 net.cpp:165] Memory required for data: 2541200
I0525 14:53:19.946334 23215 layer_factory.hpp:77] Creating layer conv1
I0525 14:53:19.946354 23215 net.cpp:106] Creating Layer conv1
I0525 14:53:19.946364 23215 net.cpp:454] conv1 <- data
I0525 14:53:19.946379 23215 net.cpp:411] conv1 -> conv1
I0525 14:53:19.948340 23215 net.cpp:150] Setting up conv1
I0525 14:53:19.948365 23215 net.cpp:157] Top shape: 100 12 120 48 (6912000)
I0525 14:53:19.948376 23215 net.cpp:165] Memory required for data: 30189200
I0525 14:53:19.948397 23215 layer_factory.hpp:77] Creating layer relu1
I0525 14:53:19.948411 23215 net.cpp:106] Creating Layer relu1
I0525 14:53:19.948421 23215 net.cpp:454] relu1 <- conv1
I0525 14:53:19.948433 23215 net.cpp:397] relu1 -> conv1 (in-place)
I0525 14:53:19.948930 23215 net.cpp:150] Setting up relu1
I0525 14:53:19.948947 23215 net.cpp:157] Top shape: 100 12 120 48 (6912000)
I0525 14:53:19.948957 23215 net.cpp:165] Memory required for data: 57837200
I0525 14:53:19.948967 23215 layer_factory.hpp:77] Creating layer pool1
I0525 14:53:19.948983 23215 net.cpp:106] Creating Layer pool1
I0525 14:53:19.948993 23215 net.cpp:454] pool1 <- conv1
I0525 14:53:19.949007 23215 net.cpp:411] pool1 -> pool1
I0525 14:53:19.949092 23215 net.cpp:150] Setting up pool1
I0525 14:53:19.949105 23215 net.cpp:157] Top shape: 100 12 60 48 (3456000)
I0525 14:53:19.949116 23215 net.cpp:165] Memory required for data: 71661200
I0525 14:53:19.949126 23215 layer_factory.hpp:77] Creating layer conv2
I0525 14:53:19.949143 23215 net.cpp:106] Creating Layer conv2
I0525 14:53:19.949153 23215 net.cpp:454] conv2 <- pool1
I0525 14:53:19.949167 23215 net.cpp:411] conv2 -> conv2
I0525 14:53:19.951086 23215 net.cpp:150] Setting up conv2
I0525 14:53:19.951103 23215 net.cpp:157] Top shape: 100 20 54 46 (4968000)
I0525 14:53:19.951117 23215 net.cpp:165] Memory required for data: 91533200
I0525 14:53:19.951134 23215 layer_factory.hpp:77] Creating layer relu2
I0525 14:53:19.951148 23215 net.cpp:106] Creating Layer relu2
I0525 14:53:19.951158 23215 net.cpp:454] relu2 <- conv2
I0525 14:53:19.951169 23215 net.cpp:397] relu2 -> conv2 (in-place)
I0525 14:53:19.951503 23215 net.cpp:150] Setting up relu2
I0525 14:53:19.951516 23215 net.cpp:157] Top shape: 100 20 54 46 (4968000)
I0525 14:53:19.951527 23215 net.cpp:165] Memory required for data: 111405200
I0525 14:53:19.951537 23215 layer_factory.hpp:77] Creating layer pool2
I0525 14:53:19.951550 23215 net.cpp:106] Creating Layer pool2
I0525 14:53:19.951560 23215 net.cpp:454] pool2 <- conv2
I0525 14:53:19.951572 23215 net.cpp:411] pool2 -> pool2
I0525 14:53:19.951643 23215 net.cpp:150] Setting up pool2
I0525 14:53:19.951658 23215 net.cpp:157] Top shape: 100 20 27 46 (2484000)
I0525 14:53:19.951666 23215 net.cpp:165] Memory required for data: 121341200
I0525 14:53:19.951676 23215 layer_factory.hpp:77] Creating layer conv3
I0525 14:53:19.951696 23215 net.cpp:106] Creating Layer conv3
I0525 14:53:19.951706 23215 net.cpp:454] conv3 <- pool2
I0525 14:53:19.951720 23215 net.cpp:411] conv3 -> conv3
I0525 14:53:19.953716 23215 net.cpp:150] Setting up conv3
I0525 14:53:19.953739 23215 net.cpp:157] Top shape: 100 28 22 44 (2710400)
I0525 14:53:19.953752 23215 net.cpp:165] Memory required for data: 132182800
I0525 14:53:19.953784 23215 layer_factory.hpp:77] Creating layer relu3
I0525 14:53:19.953799 23215 net.cpp:106] Creating Layer relu3
I0525 14:53:19.953809 23215 net.cpp:454] relu3 <- conv3
I0525 14:53:19.953821 23215 net.cpp:397] relu3 -> conv3 (in-place)
I0525 14:53:19.954289 23215 net.cpp:150] Setting up relu3
I0525 14:53:19.954305 23215 net.cpp:157] Top shape: 100 28 22 44 (2710400)
I0525 14:53:19.954315 23215 net.cpp:165] Memory required for data: 143024400
I0525 14:53:19.954326 23215 layer_factory.hpp:77] Creating layer pool3
I0525 14:53:19.954339 23215 net.cpp:106] Creating Layer pool3
I0525 14:53:19.954349 23215 net.cpp:454] pool3 <- conv3
I0525 14:53:19.954361 23215 net.cpp:411] pool3 -> pool3
I0525 14:53:19.954432 23215 net.cpp:150] Setting up pool3
I0525 14:53:19.954445 23215 net.cpp:157] Top shape: 100 28 11 44 (1355200)
I0525 14:53:19.954454 23215 net.cpp:165] Memory required for data: 148445200
I0525 14:53:19.954465 23215 layer_factory.hpp:77] Creating layer conv4
I0525 14:53:19.954483 23215 net.cpp:106] Creating Layer conv4
I0525 14:53:19.954493 23215 net.cpp:454] conv4 <- pool3
I0525 14:53:19.954507 23215 net.cpp:411] conv4 -> conv4
I0525 14:53:19.956586 23215 net.cpp:150] Setting up conv4
I0525 14:53:19.956609 23215 net.cpp:157] Top shape: 100 36 6 42 (907200)
I0525 14:53:19.956621 23215 net.cpp:165] Memory required for data: 152074000
I0525 14:53:19.956636 23215 layer_factory.hpp:77] Creating layer relu4
I0525 14:53:19.956650 23215 net.cpp:106] Creating Layer relu4
I0525 14:53:19.956660 23215 net.cpp:454] relu4 <- conv4
I0525 14:53:19.956672 23215 net.cpp:397] relu4 -> conv4 (in-place)
I0525 14:53:19.957155 23215 net.cpp:150] Setting up relu4
I0525 14:53:19.957171 23215 net.cpp:157] Top shape: 100 36 6 42 (907200)
I0525 14:53:19.957181 23215 net.cpp:165] Memory required for data: 155702800
I0525 14:53:19.957192 23215 layer_factory.hpp:77] Creating layer pool4
I0525 14:53:19.957206 23215 net.cpp:106] Creating Layer pool4
I0525 14:53:19.957216 23215 net.cpp:454] pool4 <- conv4
I0525 14:53:19.957228 23215 net.cpp:411] pool4 -> pool4
I0525 14:53:19.957300 23215 net.cpp:150] Setting up pool4
I0525 14:53:19.957314 23215 net.cpp:157] Top shape: 100 36 3 42 (453600)
I0525 14:53:19.957324 23215 net.cpp:165] Memory required for data: 157517200
I0525 14:53:19.957334 23215 layer_factory.hpp:77] Creating layer ip1
I0525 14:53:19.957350 23215 net.cpp:106] Creating Layer ip1
I0525 14:53:19.957360 23215 net.cpp:454] ip1 <- pool4
I0525 14:53:19.957372 23215 net.cpp:411] ip1 -> ip1
I0525 14:53:19.972826 23215 net.cpp:150] Setting up ip1
I0525 14:53:19.972854 23215 net.cpp:157] Top shape: 100 196 (19600)
I0525 14:53:19.972865 23215 net.cpp:165] Memory required for data: 157595600
I0525 14:53:19.972888 23215 layer_factory.hpp:77] Creating layer relu5
I0525 14:53:19.972903 23215 net.cpp:106] Creating Layer relu5
I0525 14:53:19.972913 23215 net.cpp:454] relu5 <- ip1
I0525 14:53:19.972926 23215 net.cpp:397] relu5 -> ip1 (in-place)
I0525 14:53:19.973283 23215 net.cpp:150] Setting up relu5
I0525 14:53:19.973296 23215 net.cpp:157] Top shape: 100 196 (19600)
I0525 14:53:19.973306 23215 net.cpp:165] Memory required for data: 157674000
I0525 14:53:19.973316 23215 layer_factory.hpp:77] Creating layer drop1
I0525 14:53:19.973335 23215 net.cpp:106] Creating Layer drop1
I0525 14:53:19.973345 23215 net.cpp:454] drop1 <- ip1
I0525 14:53:19.973357 23215 net.cpp:397] drop1 -> ip1 (in-place)
I0525 14:53:19.973402 23215 net.cpp:150] Setting up drop1
I0525 14:53:19.973415 23215 net.cpp:157] Top shape: 100 196 (19600)
I0525 14:53:19.973424 23215 net.cpp:165] Memory required for data: 157752400
I0525 14:53:19.973434 23215 layer_factory.hpp:77] Creating layer ip2
I0525 14:53:19.973448 23215 net.cpp:106] Creating Layer ip2
I0525 14:53:19.973459 23215 net.cpp:454] ip2 <- ip1
I0525 14:53:19.973471 23215 net.cpp:411] ip2 -> ip2
I0525 14:53:19.973953 23215 net.cpp:150] Setting up ip2
I0525 14:53:19.973965 23215 net.cpp:157] Top shape: 100 98 (9800)
I0525 14:53:19.973975 23215 net.cpp:165] Memory required for data: 157791600
I0525 14:53:19.973991 23215 layer_factory.hpp:77] Creating layer relu6
I0525 14:53:19.974016 23215 net.cpp:106] Creating Layer relu6
I0525 14:53:19.974026 23215 net.cpp:454] relu6 <- ip2
I0525 14:53:19.974040 23215 net.cpp:397] relu6 -> ip2 (in-place)
I0525 14:53:19.974576 23215 net.cpp:150] Setting up relu6
I0525 14:53:19.974592 23215 net.cpp:157] Top shape: 100 98 (9800)
I0525 14:53:19.974602 23215 net.cpp:165] Memory required for data: 157830800
I0525 14:53:19.974612 23215 layer_factory.hpp:77] Creating layer drop2
I0525 14:53:19.974625 23215 net.cpp:106] Creating Layer drop2
I0525 14:53:19.974635 23215 net.cpp:454] drop2 <- ip2
I0525 14:53:19.974648 23215 net.cpp:397] drop2 -> ip2 (in-place)
I0525 14:53:19.974692 23215 net.cpp:150] Setting up drop2
I0525 14:53:19.974705 23215 net.cpp:157] Top shape: 100 98 (9800)
I0525 14:53:19.974714 23215 net.cpp:165] Memory required for data: 157870000
I0525 14:53:19.974725 23215 layer_factory.hpp:77] Creating layer ip3
I0525 14:53:19.974738 23215 net.cpp:106] Creating Layer ip3
I0525 14:53:19.974748 23215 net.cpp:454] ip3 <- ip2
I0525 14:53:19.974762 23215 net.cpp:411] ip3 -> ip3
I0525 14:53:19.974985 23215 net.cpp:150] Setting up ip3
I0525 14:53:19.974998 23215 net.cpp:157] Top shape: 100 11 (1100)
I0525 14:53:19.975008 23215 net.cpp:165] Memory required for data: 157874400
I0525 14:53:19.975024 23215 layer_factory.hpp:77] Creating layer drop3
I0525 14:53:19.975036 23215 net.cpp:106] Creating Layer drop3
I0525 14:53:19.975046 23215 net.cpp:454] drop3 <- ip3
I0525 14:53:19.975059 23215 net.cpp:397] drop3 -> ip3 (in-place)
I0525 14:53:19.975100 23215 net.cpp:150] Setting up drop3
I0525 14:53:19.975113 23215 net.cpp:157] Top shape: 100 11 (1100)
I0525 14:53:19.975123 23215 net.cpp:165] Memory required for data: 157878800
I0525 14:53:19.975133 23215 layer_factory.hpp:77] Creating layer ip3_drop3_0_split
I0525 14:53:19.975147 23215 net.cpp:106] Creating Layer ip3_drop3_0_split
I0525 14:53:19.975155 23215 net.cpp:454] ip3_drop3_0_split <- ip3
I0525 14:53:19.975168 23215 net.cpp:411] ip3_drop3_0_split -> ip3_drop3_0_split_0
I0525 14:53:19.975183 23215 net.cpp:411] ip3_drop3_0_split -> ip3_drop3_0_split_1
I0525 14:53:19.975256 23215 net.cpp:150] Setting up ip3_drop3_0_split
I0525 14:53:19.975270 23215 net.cpp:157] Top shape: 100 11 (1100)
I0525 14:53:19.975282 23215 net.cpp:157] Top shape: 100 11 (1100)
I0525 14:53:19.975292 23215 net.cpp:165] Memory required for data: 157887600
I0525 14:53:19.975302 23215 layer_factory.hpp:77] Creating layer accuracy
I0525 14:53:19.975324 23215 net.cpp:106] Creating Layer accuracy
I0525 14:53:19.975334 23215 net.cpp:454] accuracy <- ip3_drop3_0_split_0
I0525 14:53:19.975345 23215 net.cpp:454] accuracy <- label_data_hdf5_1_split_0
I0525 14:53:19.975358 23215 net.cpp:411] accuracy -> accuracy
…
