…
I0526 05:30:59.853822 30759 net.cpp:322] The NetState phase (0) differed from the phase (1) specified by a rule in layer data_hdf5
I0526 05:30:59.853885 30759 net.cpp:322] The NetState phase (0) differed from the phase (1) specified by a rule in layer accuracy
I0526 05:30:59.854264 30759 net.cpp:49] Initializing net from parameters: 
name: "caffe_test_127x50_x_unshifted"
state {
  phase: TRAIN
}
layer {
  name: "data_hdf5"
  type: "HDF5Data"
  top: "data"
  top: "label"
  include {
    phase: TRAIN
  }
  hdf5_data_param {
    source: "/lustre/atlas/proj-shared/hep105/caffe_titan/minosmatch_nukecczdefs_127x50_x_unshifted_me1Bmc.trainlist"
    batch_size: 10
  }
}
layer {
  name: "conv1"
  type: "Convolution"
  bottom: "data"
  top: "conv1"
  convolution_param {
    num_output: 12
    pad: 0
    stride: 1
    weight_filler {
      type: "xavier"
    }
    bias_filler {
      type: "constant"
    }
    kernel_h: 8
    kernel_w: 3
  }
}
layer {
  name: "relu1"
  type: "ReLU"
  bottom: "conv1"
  top: "conv1"
}
layer {
  name: "pool1"
  type: "Pooling"
  bottom: "conv1"
  top: "pool1"
  pooling_param {
    pool: MAX
    kernel_h: 2
    kernel_w: 1
    stride_h: 2
    stride_w: 1
  }
}
layer {
  name: "conv2"
  type: "Convolution"
  bottom: "pool1"
  top: "conv2"
  convolution_param {
    num_output: 20
    pad: 0
    stride: 1
    weight_filler {
      type: "xavier"
    }
    bias_filler {
      type: "constant"
    }
    kernel_h: 7
    kernel_w: 3
  }
}
layer {
  name: "relu2"
  type: "ReLU"
  bottom: "conv2"
  top: "conv2"
}
layer {
  name: "pool2"
  type: "Pooling"
  bottom: "conv2"
  top: "pool2"
  pooling_param {
    pool: MAX
    kernel_h: 2
    kernel_w: 1
    stride_h: 2
    stride_w: 1
  }
}
layer {
  name: "conv3"
  type: "Convolution"
  bottom: "pool2"
  top: "conv3"
  convolution_param {
    num_output: 28
    pad: 0
    stride: 1
    weight_filler {
      type: "xavier"
    }
    bias_filler {
      type: "constant"
    }
    kernel_h: 6
    kernel_w: 3
  }
}
layer {
  name: "relu3"
  type: "ReLU"
  bottom: "conv3"
  top: "conv3"
}
layer {
  name: "pool3"
  type: "Pooling"
  bottom: "conv3"
  top: "pool3"
  pooling_param {
    pool: MAX
    kernel_h: 2
    kernel_w: 1
    stride_h: 2
    stride_w: 1
  }
}
layer {
  name: "conv4"
  type: "Convolution"
  bottom: "pool3"
  top: "conv4"
  convolution_param {
    num_output: 36
    pad: 0
    stride: 1
    weight_filler {
      type: "xavier"
    }
    bias_filler {
      type: "constant"
    }
    kernel_h: 6
    kernel_w: 3
  }
}
layer {
  name: "relu4"
  type: "ReLU"
  bottom: "conv4"
  top: "conv4"
}
layer {
  name: "pool4"
  type: "Pooling"
  bottom: "conv4"
  top: "pool4"
  pooling_param {
    pool: MAX
    kernel_h: 2
    kernel_w: 1
    stride_h: 2
    stride_w: 1
  }
}
layer {
  name: "ip1"
  type: "InnerProduct"
  bottom: "pool4"
  top: "ip1"
  inner_product_param {
    num_output: 196
    weight_filler {
      type: "xavier"
    }
    bias_filler {
      type: "constant"
    }
  }
}
layer {
  name: "relu5"
  type: "ReLU"
  bottom: "ip1"
  top: "ip1"
}
layer {
  name: "drop1"
  type: "Dropout"
  bottom: "ip1"
  top: "ip1"
  dropout_param {
    dropout_ratio: 0.5
  }
}
layer {
  name: "ip2"
  type: "InnerProduct"
  bottom: "ip1"
  top: "ip2"
  inner_product_param {
    num_output: 98
    weight_filler {
      type: "xavier"
    }
    bias_filler {
      type: "constant"
    }
  }
}
layer {
  name: "relu6"
  type: "ReLU"
  bottom: "ip2"
  top: "ip2"
}
layer {
  name: "drop2"
  type: "Dropout"
  bottom: "ip2"
  top: "ip2"
  dropout_param {
    dropout_ratio: 0.5
  }
}
layer {
  name: "ip3"
  type: "InnerProduct"
  bottom: "ip2"
  top: "ip3"
  inner_product_param {
    num_output: 11
    weight_filler {
      type: "xavier"
    }
    bias_filler {
      type: "constant"
    }
  }
}
layer {
  name: "drop3"
  type: "Dropout"
  bottom: "ip3"
  top: "ip3"
  dropout_param {
    dropout_ratio: 0.5
  }
}
layer {
  name: "loss"
  type: "SoftmaxWithLoss"
  bottom: "ip3"
  bottom: "label"
  top: "loss"
}
I0526 05:30:59.854467 30759 layer_factory.hpp:77] Creating layer data_hdf5
I0526 05:30:59.854497 30759 net.cpp:106] Creating Layer data_hdf5
I0526 05:30:59.854521 30759 net.cpp:411] data_hdf5 -> data
I0526 05:30:59.854555 30759 net.cpp:411] data_hdf5 -> label
I0526 05:30:59.854593 30759 hdf5_data_layer.cpp:79] Loading list of HDF5 filenames from: /lustre/atlas/proj-shared/hep105/caffe_titan/minosmatch_nukecczdefs_127x50_x_unshifted_me1Bmc.trainlist
I0526 05:30:59.855978 30759 hdf5_data_layer.cpp:93] Number of HDF5 files: 15
I0526 05:30:59.858233 30759 hdf5.cpp:32] Datatype class: H5T_FLOAT
I0526 05:31:21.365656 30759 hdf5.cpp:35] Datatype class: H5T_INTEGER
I0526 05:31:21.370860 30759 net.cpp:150] Setting up data_hdf5
I0526 05:31:21.370901 30759 net.cpp:157] Top shape: 10 1 127 50 (63500)
I0526 05:31:21.370918 30759 net.cpp:157] Top shape: 10 (10)
I0526 05:31:21.370931 30759 net.cpp:165] Memory required for data: 254040
I0526 05:31:21.370949 30759 layer_factory.hpp:77] Creating layer conv1
I0526 05:31:21.370995 30759 net.cpp:106] Creating Layer conv1
I0526 05:31:21.371009 30759 net.cpp:454] conv1 <- data
I0526 05:31:21.371037 30759 net.cpp:411] conv1 -> conv1
I0526 05:31:22.978472 30759 net.cpp:150] Setting up conv1
I0526 05:31:22.978524 30759 net.cpp:157] Top shape: 10 12 120 48 (691200)
I0526 05:31:22.978538 30759 net.cpp:165] Memory required for data: 3018840
I0526 05:31:22.978569 30759 layer_factory.hpp:77] Creating layer relu1
I0526 05:31:22.978592 30759 net.cpp:106] Creating Layer relu1
I0526 05:31:22.978611 30759 net.cpp:454] relu1 <- conv1
I0526 05:31:22.978646 30759 net.cpp:397] relu1 -> conv1 (in-place)
I0526 05:31:22.979179 30759 net.cpp:150] Setting up relu1
I0526 05:31:22.979202 30759 net.cpp:157] Top shape: 10 12 120 48 (691200)
I0526 05:31:22.979217 30759 net.cpp:165] Memory required for data: 5783640
I0526 05:31:22.979229 30759 layer_factory.hpp:77] Creating layer pool1
I0526 05:31:22.979259 30759 net.cpp:106] Creating Layer pool1
I0526 05:31:22.979274 30759 net.cpp:454] pool1 <- conv1
I0526 05:31:22.979290 30759 net.cpp:411] pool1 -> pool1
I0526 05:31:22.979382 30759 net.cpp:150] Setting up pool1
I0526 05:31:22.979400 30759 net.cpp:157] Top shape: 10 12 60 48 (345600)
I0526 05:31:22.979415 30759 net.cpp:165] Memory required for data: 7166040
I0526 05:31:22.979435 30759 layer_factory.hpp:77] Creating layer conv2
I0526 05:31:22.979459 30759 net.cpp:106] Creating Layer conv2
I0526 05:31:22.979475 30759 net.cpp:454] conv2 <- pool1
I0526 05:31:22.979490 30759 net.cpp:411] conv2 -> conv2
I0526 05:31:22.982210 30759 net.cpp:150] Setting up conv2
I0526 05:31:22.982241 30759 net.cpp:157] Top shape: 10 20 54 46 (496800)
I0526 05:31:22.982257 30759 net.cpp:165] Memory required for data: 9153240
I0526 05:31:22.982285 30759 layer_factory.hpp:77] Creating layer relu2
I0526 05:31:22.982312 30759 net.cpp:106] Creating Layer relu2
I0526 05:31:22.982326 30759 net.cpp:454] relu2 <- conv2
I0526 05:31:22.982342 30759 net.cpp:397] relu2 -> conv2 (in-place)
I0526 05:31:22.982700 30759 net.cpp:150] Setting up relu2
I0526 05:31:22.982720 30759 net.cpp:157] Top shape: 10 20 54 46 (496800)
I0526 05:31:22.982734 30759 net.cpp:165] Memory required for data: 11140440
I0526 05:31:22.982749 30759 layer_factory.hpp:77] Creating layer pool2
I0526 05:31:22.982772 30759 net.cpp:106] Creating Layer pool2
I0526 05:31:22.982785 30759 net.cpp:454] pool2 <- conv2
I0526 05:31:22.982801 30759 net.cpp:411] pool2 -> pool2
I0526 05:31:22.982897 30759 net.cpp:150] Setting up pool2
I0526 05:31:22.982915 30759 net.cpp:157] Top shape: 10 20 27 46 (248400)
I0526 05:31:22.982930 30759 net.cpp:165] Memory required for data: 12134040
I0526 05:31:22.982949 30759 layer_factory.hpp:77] Creating layer conv3
I0526 05:31:22.982970 30759 net.cpp:106] Creating Layer conv3
I0526 05:31:22.982990 30759 net.cpp:454] conv3 <- pool2
I0526 05:31:22.983006 30759 net.cpp:411] conv3 -> conv3
I0526 05:31:22.985137 30759 net.cpp:150] Setting up conv3
I0526 05:31:22.985163 30759 net.cpp:157] Top shape: 10 28 22 44 (271040)
I0526 05:31:22.985183 30759 net.cpp:165] Memory required for data: 13218200
I0526 05:31:22.985206 30759 layer_factory.hpp:77] Creating layer relu3
I0526 05:31:22.985229 30759 net.cpp:106] Creating Layer relu3
I0526 05:31:22.985252 30759 net.cpp:454] relu3 <- conv3
I0526 05:31:22.985268 30759 net.cpp:397] relu3 -> conv3 (in-place)
I0526 05:31:22.985759 30759 net.cpp:150] Setting up relu3
I0526 05:31:22.985785 30759 net.cpp:157] Top shape: 10 28 22 44 (271040)
I0526 05:31:22.985797 30759 net.cpp:165] Memory required for data: 14302360
I0526 05:31:22.985813 30759 layer_factory.hpp:77] Creating layer pool3
I0526 05:31:22.985838 30759 net.cpp:106] Creating Layer pool3
I0526 05:31:22.985852 30759 net.cpp:454] pool3 <- conv3
I0526 05:31:22.985868 30759 net.cpp:411] pool3 -> pool3
I0526 05:31:22.985950 30759 net.cpp:150] Setting up pool3
I0526 05:31:22.985970 30759 net.cpp:157] Top shape: 10 28 11 44 (135520)
I0526 05:31:22.985981 30759 net.cpp:165] Memory required for data: 14844440
I0526 05:31:22.985996 30759 layer_factory.hpp:77] Creating layer conv4
I0526 05:31:22.986022 30759 net.cpp:106] Creating Layer conv4
I0526 05:31:22.986035 30759 net.cpp:454] conv4 <- pool3
I0526 05:31:22.986058 30759 net.cpp:411] conv4 -> conv4
I0526 05:31:22.988807 30759 net.cpp:150] Setting up conv4
I0526 05:31:22.988839 30759 net.cpp:157] Top shape: 10 36 6 42 (90720)
I0526 05:31:22.988858 30759 net.cpp:165] Memory required for data: 15207320
I0526 05:31:22.988878 30759 layer_factory.hpp:77] Creating layer relu4
I0526 05:31:22.988899 30759 net.cpp:106] Creating Layer relu4
I0526 05:31:22.988924 30759 net.cpp:454] relu4 <- conv4
I0526 05:31:22.988940 30759 net.cpp:397] relu4 -> conv4 (in-place)
I0526 05:31:22.989428 30759 net.cpp:150] Setting up relu4
I0526 05:31:22.989459 30759 net.cpp:157] Top shape: 10 36 6 42 (90720)
I0526 05:31:22.989473 30759 net.cpp:165] Memory required for data: 15570200
I0526 05:31:22.989490 30759 layer_factory.hpp:77] Creating layer pool4
I0526 05:31:22.989514 30759 net.cpp:106] Creating Layer pool4
I0526 05:31:22.989528 30759 net.cpp:454] pool4 <- conv4
I0526 05:31:22.989550 30759 net.cpp:411] pool4 -> pool4
I0526 05:31:22.989634 30759 net.cpp:150] Setting up pool4
I0526 05:31:22.989650 30759 net.cpp:157] Top shape: 10 36 3 42 (45360)
I0526 05:31:22.989665 30759 net.cpp:165] Memory required for data: 15751640
I0526 05:31:22.989677 30759 layer_factory.hpp:77] Creating layer ip1
I0526 05:31:22.989707 30759 net.cpp:106] Creating Layer ip1
I0526 05:31:22.989720 30759 net.cpp:454] ip1 <- pool4
I0526 05:31:22.989738 30759 net.cpp:411] ip1 -> ip1
I0526 05:31:23.005269 30759 net.cpp:150] Setting up ip1
I0526 05:31:23.005300 30759 net.cpp:157] Top shape: 10 196 (1960)
I0526 05:31:23.005321 30759 net.cpp:165] Memory required for data: 15759480
I0526 05:31:23.005347 30759 layer_factory.hpp:77] Creating layer relu5
I0526 05:31:23.005368 30759 net.cpp:106] Creating Layer relu5
I0526 05:31:23.005393 30759 net.cpp:454] relu5 <- ip1
I0526 05:31:23.005410 30759 net.cpp:397] relu5 -> ip1 (in-place)
I0526 05:31:23.005775 30759 net.cpp:150] Setting up relu5
I0526 05:31:23.005795 30759 net.cpp:157] Top shape: 10 196 (1960)
I0526 05:31:23.005808 30759 net.cpp:165] Memory required for data: 15767320
I0526 05:31:23.005821 30759 layer_factory.hpp:77] Creating layer drop1
I0526 05:31:23.005854 30759 net.cpp:106] Creating Layer drop1
I0526 05:31:23.005868 30759 net.cpp:454] drop1 <- ip1
I0526 05:31:23.005883 30759 net.cpp:397] drop1 -> ip1 (in-place)
I0526 05:31:23.005957 30759 net.cpp:150] Setting up drop1
I0526 05:31:23.005973 30759 net.cpp:157] Top shape: 10 196 (1960)
I0526 05:31:23.005985 30759 net.cpp:165] Memory required for data: 15775160
I0526 05:31:23.006000 30759 layer_factory.hpp:77] Creating layer ip2
I0526 05:31:23.006021 30759 net.cpp:106] Creating Layer ip2
I0526 05:31:23.006041 30759 net.cpp:454] ip2 <- ip1
I0526 05:31:23.006057 30759 net.cpp:411] ip2 -> ip2
I0526 05:31:23.006547 30759 net.cpp:150] Setting up ip2
I0526 05:31:23.006567 30759 net.cpp:157] Top shape: 10 98 (980)
I0526 05:31:23.006579 30759 net.cpp:165] Memory required for data: 15779080
I0526 05:31:23.006599 30759 layer_factory.hpp:77] Creating layer relu6
I0526 05:31:23.006621 30759 net.cpp:106] Creating Layer relu6
I0526 05:31:23.006634 30759 net.cpp:454] relu6 <- ip2
I0526 05:31:23.006649 30759 net.cpp:397] relu6 -> ip2 (in-place)
I0526 05:31:23.007200 30759 net.cpp:150] Setting up relu6
I0526 05:31:23.007223 30759 net.cpp:157] Top shape: 10 98 (980)
I0526 05:31:23.007236 30759 net.cpp:165] Memory required for data: 15783000
I0526 05:31:23.007251 30759 layer_factory.hpp:77] Creating layer drop2
I0526 05:31:23.007267 30759 net.cpp:106] Creating Layer drop2
I0526 05:31:23.007287 30759 net.cpp:454] drop2 <- ip2
I0526 05:31:23.007303 30759 net.cpp:397] drop2 -> ip2 (in-place)
I0526 05:31:23.007354 30759 net.cpp:150] Setting up drop2
I0526 05:31:23.007376 30759 net.cpp:157] Top shape: 10 98 (980)
I0526 05:31:23.007390 30759 net.cpp:165] Memory required for data: 15786920
I0526 05:31:23.007407 30759 layer_factory.hpp:77] Creating layer ip3
I0526 05:31:23.007423 30759 net.cpp:106] Creating Layer ip3
I0526 05:31:23.007436 30759 net.cpp:454] ip3 <- ip2
I0526 05:31:23.007453 30759 net.cpp:411] ip3 -> ip3
I0526 05:31:23.007683 30759 net.cpp:150] Setting up ip3
I0526 05:31:23.007701 30759 net.cpp:157] Top shape: 10 11 (110)
I0526 05:31:23.007714 30759 net.cpp:165] Memory required for data: 15787360
I0526 05:31:23.007735 30759 layer_factory.hpp:77] Creating layer drop3
I0526 05:31:23.007757 30759 net.cpp:106] Creating Layer drop3
I0526 05:31:23.007771 30759 net.cpp:454] drop3 <- ip3
I0526 05:31:23.007786 30759 net.cpp:397] drop3 -> ip3 (in-place)
I0526 05:31:23.007833 30759 net.cpp:150] Setting up drop3
I0526 05:31:23.007855 30759 net.cpp:157] Top shape: 10 11 (110)
I0526 05:31:23.007868 30759 net.cpp:165] Memory required for data: 15787800
I0526 05:31:23.007886 30759 layer_factory.hpp:77] Creating layer loss
I0526 05:31:23.007907 30759 net.cpp:106] Creating Layer loss
I0526 05:31:23.007922 30759 net.cpp:454] loss <- ip3
I0526 05:31:23.007936 30759 net.cpp:454] loss <- label
I0526 05:31:23.007958 30759 net.cpp:411] loss -> loss
I0526 05:31:23.007978 30759 layer_factory.hpp:77] Creating layer loss
…
I0526 05:31:23.010869 30759 solver.cpp:181] Creating test net (#0) specified by net file: /lustre/atlas/proj-shared/hep105/caffe_titan/caffe_workflow/logs_bslr/bs_10_lr_0.0020_2016-05-20T15.48.50.413054.prototxt
I0526 05:31:23.010948 30759 net.cpp:322] The NetState phase (1) differed from the phase (0) specified by a rule in layer data_hdf5
I0526 05:31:23.011329 30759 net.cpp:49] Initializing net from parameters: 
name: "caffe_test_127x50_x_unshifted"
state {
  phase: TEST
}
layer {
  name: "data_hdf5"
  type: "HDF5Data"
  top: "data"
  top: "label"
  include {
    phase: TEST
  }
  hdf5_data_param {
    source: "/lustre/atlas/proj-shared/hep105/caffe_titan/minosmatch_nukecczdefs_127x50_x_unshifted_me1Bmc.testlist"
    batch_size: 10
  }
}
layer {
  name: "conv1"
  type: "Convolution"
  bottom: "data"
  top: "conv1"
  convolution_param {
    num_output: 12
    pad: 0
    stride: 1
    weight_filler {
      type: "xavier"
    }
    bias_filler {
      type: "constant"
    }
    kernel_h: 8
    kernel_w: 3
  }
}
layer {
  name: "relu1"
  type: "ReLU"
  bottom: "conv1"
  top: "conv1"
}
layer {
  name: "pool1"
  type: "Pooling"
  bottom: "conv1"
  top: "pool1"
  pooling_param {
    pool: MAX
    kernel_h: 2
    kernel_w: 1
    stride_h: 2
    stride_w: 1
  }
}
layer {
  name: "conv2"
  type: "Convolution"
  bottom: "pool1"
  top: "conv2"
  convolution_param {
    num_output: 20
    pad: 0
    stride: 1
    weight_filler {
      type: "xavier"
    }
    bias_filler {
      type: "constant"
    }
    kernel_h: 7
    kernel_w: 3
  }
}
layer {
  name: "relu2"
  type: "ReLU"
  bottom: "conv2"
  top: "conv2"
}
layer {
  name: "pool2"
  type: "Pooling"
  bottom: "conv2"
  top: "pool2"
  pooling_param {
    pool: MAX
    kernel_h: 2
    kernel_w: 1
    stride_h: 2
    stride_w: 1
  }
}
layer {
  name: "conv3"
  type: "Convolution"
  bottom: "pool2"
  top: "conv3"
  convolution_param {
    num_output: 28
    pad: 0
    stride: 1
    weight_filler {
      type: "xavier"
    }
    bias_filler {
      type: "constant"
    }
    kernel_h: 6
    kernel_w: 3
  }
}
layer {
  name: "relu3"
  type: "ReLU"
  bottom: "conv3"
  top: "conv3"
}
layer {
  name: "pool3"
  type: "Pooling"
  bottom: "conv3"
  top: "pool3"
  pooling_param {
    pool: MAX
    kernel_h: 2
    kernel_w: 1
    stride_h: 2
    stride_w: 1
  }
}
layer {
  name: "conv4"
  type: "Convolution"
  bottom: "pool3"
  top: "conv4"
  convolution_param {
    num_output: 36
    pad: 0
    stride: 1
    weight_filler {
      type: "xavier"
    }
    bias_filler {
      type: "constant"
    }
    kernel_h: 6
    kernel_w: 3
  }
}
layer {
  name: "relu4"
  type: "ReLU"
  bottom: "conv4"
  top: "conv4"
}
layer {
  name: "pool4"
  type: "Pooling"
  bottom: "conv4"
  top: "pool4"
  pooling_param {
    pool: MAX
    kernel_h: 2
    kernel_w: 1
    stride_h: 2
    stride_w: 1
  }
}
layer {
  name: "ip1"
  type: "InnerProduct"
  bottom: "pool4"
  top: "ip1"
  inner_product_param {
    num_output: 196
    weight_filler {
      type: "xavier"
    }
    bias_filler {
      type: "constant"
    }
  }
}
layer {
  name: "relu5"
  type: "ReLU"
  bottom: "ip1"
  top: "ip1"
}
layer {
  name: "drop1"
  type: "Dropout"
  bottom: "ip1"
  top: "ip1"
  dropout_param {
    dropout_ratio: 0.5
  }
}
layer {
  name: "ip2"
  type: "InnerProduct"
  bottom: "ip1"
  top: "ip2"
  inner_product_param {
    num_output: 98
    weight_filler {
      type: "xavier"
    }
    bias_filler {
      type: "constant"
    }
  }
}
layer {
  name: "relu6"
  type: "ReLU"
  bottom: "ip2"
  top: "ip2"
}
layer {
  name: "drop2"
  type: "Dropout"
  bottom: "ip2"
  top: "ip2"
  dropout_param {
    dropout_ratio: 0.5
  }
}
layer {
  name: "ip3"
  type: "InnerProduct"
  bottom: "ip2"
  top: "ip3"
  inner_product_param {
    num_output: 11
    weight_filler {
      type: "xavier"
    }
    bias_filler {
      type: "constant"
    }
  }
}
layer {
  name: "drop3"
  type: "Dropout"
  bottom: "ip3"
  top: "ip3"
  dropout_param {
    dropout_ratio: 0.5
  }
}
layer {
  name: "accuracy"
  type: "Accuracy"
  bottom: "ip3"
  bottom: "label"
  top: "accuracy"
  include {
    phase: TEST
  }
}
layer {
  name: "loss"
  type: "SoftmaxWithLoss"
  bottom: "ip3"
  bottom: "label"
  top: "loss"
}
I0526 05:31:23.011554 30759 layer_factory.hpp:77] Creating layer data_hdf5
I0526 05:31:23.011574 30759 net.cpp:106] Creating Layer data_hdf5
I0526 05:31:23.011590 30759 net.cpp:411] data_hdf5 -> data
I0526 05:31:23.011612 30759 net.cpp:411] data_hdf5 -> label
I0526 05:31:23.011631 30759 hdf5_data_layer.cpp:79] Loading list of HDF5 filenames from: /lustre/atlas/proj-shared/hep105/caffe_titan/minosmatch_nukecczdefs_127x50_x_unshifted_me1Bmc.testlist
I0526 05:31:23.031599 30759 hdf5_data_layer.cpp:93] Number of HDF5 files: 3
I0526 05:31:44.419921 30759 net.cpp:150] Setting up data_hdf5
I0526 05:31:44.420106 30759 net.cpp:157] Top shape: 10 1 127 50 (63500)
I0526 05:31:44.420125 30759 net.cpp:157] Top shape: 10 (10)
I0526 05:31:44.420138 30759 net.cpp:165] Memory required for data: 254040
I0526 05:31:44.420153 30759 layer_factory.hpp:77] Creating layer label_data_hdf5_1_split
I0526 05:31:44.420186 30759 net.cpp:106] Creating Layer label_data_hdf5_1_split
I0526 05:31:44.420199 30759 net.cpp:454] label_data_hdf5_1_split <- label
I0526 05:31:44.420235 30759 net.cpp:411] label_data_hdf5_1_split -> label_data_hdf5_1_split_0
I0526 05:31:44.420259 30759 net.cpp:411] label_data_hdf5_1_split -> label_data_hdf5_1_split_1
I0526 05:31:44.420346 30759 net.cpp:150] Setting up label_data_hdf5_1_split
I0526 05:31:44.420364 30759 net.cpp:157] Top shape: 10 (10)
I0526 05:31:44.420379 30759 net.cpp:157] Top shape: 10 (10)
I0526 05:31:44.420392 30759 net.cpp:165] Memory required for data: 254120
I0526 05:31:44.420403 30759 layer_factory.hpp:77] Creating layer conv1
I0526 05:31:44.420436 30759 net.cpp:106] Creating Layer conv1
I0526 05:31:44.420450 30759 net.cpp:454] conv1 <- data
I0526 05:31:44.420467 30759 net.cpp:411] conv1 -> conv1
I0526 05:31:44.422444 30759 net.cpp:150] Setting up conv1
I0526 05:31:44.422471 30759 net.cpp:157] Top shape: 10 12 120 48 (691200)
I0526 05:31:44.422492 30759 net.cpp:165] Memory required for data: 3018920
I0526 05:31:44.422515 30759 layer_factory.hpp:77] Creating layer relu1
I0526 05:31:44.422546 30759 net.cpp:106] Creating Layer relu1
I0526 05:31:44.422559 30759 net.cpp:454] relu1 <- conv1
I0526 05:31:44.422576 30759 net.cpp:397] relu1 -> conv1 (in-place)
I0526 05:31:44.423101 30759 net.cpp:150] Setting up relu1
I0526 05:31:44.423125 30759 net.cpp:157] Top shape: 10 12 120 48 (691200)
I0526 05:31:44.423138 30759 net.cpp:165] Memory required for data: 5783720
I0526 05:31:44.423151 30759 layer_factory.hpp:77] Creating layer pool1
I0526 05:31:44.423180 30759 net.cpp:106] Creating Layer pool1
I0526 05:31:44.423194 30759 net.cpp:454] pool1 <- conv1
I0526 05:31:44.423212 30759 net.cpp:411] pool1 -> pool1
I0526 05:31:44.423301 30759 net.cpp:150] Setting up pool1
I0526 05:31:44.423318 30759 net.cpp:157] Top shape: 10 12 60 48 (345600)
I0526 05:31:44.423333 30759 net.cpp:165] Memory required for data: 7166120
I0526 05:31:44.423352 30759 layer_factory.hpp:77] Creating layer conv2
I0526 05:31:44.423372 30759 net.cpp:106] Creating Layer conv2
I0526 05:31:44.423395 30759 net.cpp:454] conv2 <- pool1
I0526 05:31:44.423413 30759 net.cpp:411] conv2 -> conv2
I0526 05:31:44.425354 30759 net.cpp:150] Setting up conv2
I0526 05:31:44.425379 30759 net.cpp:157] Top shape: 10 20 54 46 (496800)
I0526 05:31:44.425398 30759 net.cpp:165] Memory required for data: 9153320
I0526 05:31:44.425421 30759 layer_factory.hpp:77] Creating layer relu2
I0526 05:31:44.425441 30759 net.cpp:106] Creating Layer relu2
I0526 05:31:44.425477 30759 net.cpp:454] relu2 <- conv2
I0526 05:31:44.425498 30759 net.cpp:397] relu2 -> conv2 (in-place)
I0526 05:31:44.425859 30759 net.cpp:150] Setting up relu2
I0526 05:31:44.425879 30759 net.cpp:157] Top shape: 10 20 54 46 (496800)
I0526 05:31:44.425892 30759 net.cpp:165] Memory required for data: 11140520
I0526 05:31:44.425909 30759 layer_factory.hpp:77] Creating layer pool2
I0526 05:31:44.425931 30759 net.cpp:106] Creating Layer pool2
I0526 05:31:44.425945 30759 net.cpp:454] pool2 <- conv2
I0526 05:31:44.425961 30759 net.cpp:411] pool2 -> pool2
I0526 05:31:44.426049 30759 net.cpp:150] Setting up pool2
I0526 05:31:44.426066 30759 net.cpp:157] Top shape: 10 20 27 46 (248400)
I0526 05:31:44.426079 30759 net.cpp:165] Memory required for data: 12134120
I0526 05:31:44.426093 30759 layer_factory.hpp:77] Creating layer conv3
I0526 05:31:44.426121 30759 net.cpp:106] Creating Layer conv3
I0526 05:31:44.426136 30759 net.cpp:454] conv3 <- pool2
I0526 05:31:44.426152 30759 net.cpp:411] conv3 -> conv3
I0526 05:31:44.428186 30759 net.cpp:150] Setting up conv3
I0526 05:31:44.428212 30759 net.cpp:157] Top shape: 10 28 22 44 (271040)
I0526 05:31:44.428231 30759 net.cpp:165] Memory required for data: 13218280
I0526 05:31:44.428254 30759 layer_factory.hpp:77] Creating layer relu3
I0526 05:31:44.428297 30759 net.cpp:106] Creating Layer relu3
I0526 05:31:44.428310 30759 net.cpp:454] relu3 <- conv3
I0526 05:31:44.428326 30759 net.cpp:397] relu3 -> conv3 (in-place)
I0526 05:31:44.428831 30759 net.cpp:150] Setting up relu3
I0526 05:31:44.428854 30759 net.cpp:157] Top shape: 10 28 22 44 (271040)
I0526 05:31:44.428869 30759 net.cpp:165] Memory required for data: 14302440
I0526 05:31:44.428884 30759 layer_factory.hpp:77] Creating layer pool3
I0526 05:31:44.428900 30759 net.cpp:106] Creating Layer pool3
I0526 05:31:44.428921 30759 net.cpp:454] pool3 <- conv3
I0526 05:31:44.428938 30759 net.cpp:411] pool3 -> pool3
I0526 05:31:44.429023 30759 net.cpp:150] Setting up pool3
I0526 05:31:44.429041 30759 net.cpp:157] Top shape: 10 28 11 44 (135520)
I0526 05:31:44.429056 30759 net.cpp:165] Memory required for data: 14844520
I0526 05:31:44.429067 30759 layer_factory.hpp:77] Creating layer conv4
I0526 05:31:44.429090 30759 net.cpp:106] Creating Layer conv4
I0526 05:31:44.429110 30759 net.cpp:454] conv4 <- pool3
I0526 05:31:44.429126 30759 net.cpp:411] conv4 -> conv4
I0526 05:31:44.431224 30759 net.cpp:150] Setting up conv4
I0526 05:31:44.431249 30759 net.cpp:157] Top shape: 10 36 6 42 (90720)
I0526 05:31:44.431269 30759 net.cpp:165] Memory required for data: 15207400
I0526 05:31:44.431288 30759 layer_factory.hpp:77] Creating layer relu4
I0526 05:31:44.431309 30759 net.cpp:106] Creating Layer relu4
I0526 05:31:44.431323 30759 net.cpp:454] relu4 <- conv4
I0526 05:31:44.431347 30759 net.cpp:397] relu4 -> conv4 (in-place)
I0526 05:31:44.431843 30759 net.cpp:150] Setting up relu4
I0526 05:31:44.431866 30759 net.cpp:157] Top shape: 10 36 6 42 (90720)
I0526 05:31:44.431879 30759 net.cpp:165] Memory required for data: 15570280
I0526 05:31:44.431895 30759 layer_factory.hpp:77] Creating layer pool4
I0526 05:31:44.431918 30759 net.cpp:106] Creating Layer pool4
I0526 05:31:44.431931 30759 net.cpp:454] pool4 <- conv4
I0526 05:31:44.431948 30759 net.cpp:411] pool4 -> pool4
I0526 05:31:44.432035 30759 net.cpp:150] Setting up pool4
I0526 05:31:44.432054 30759 net.cpp:157] Top shape: 10 36 3 42 (45360)
I0526 05:31:44.432067 30759 net.cpp:165] Memory required for data: 15751720
I0526 05:31:44.432080 30759 layer_factory.hpp:77] Creating layer ip1
I0526 05:31:44.432106 30759 net.cpp:106] Creating Layer ip1
I0526 05:31:44.432118 30759 net.cpp:454] ip1 <- pool4
I0526 05:31:44.432135 30759 net.cpp:411] ip1 -> ip1
I0526 05:31:44.447598 30759 net.cpp:150] Setting up ip1
I0526 05:31:44.447629 30759 net.cpp:157] Top shape: 10 196 (1960)
I0526 05:31:44.447651 30759 net.cpp:165] Memory required for data: 15759560
I0526 05:31:44.447679 30759 layer_factory.hpp:77] Creating layer relu5
I0526 05:31:44.447700 30759 net.cpp:106] Creating Layer relu5
I0526 05:31:44.447723 30759 net.cpp:454] relu5 <- ip1
I0526 05:31:44.447741 30759 net.cpp:397] relu5 -> ip1 (in-place)
I0526 05:31:44.448107 30759 net.cpp:150] Setting up relu5
I0526 05:31:44.448125 30759 net.cpp:157] Top shape: 10 196 (1960)
I0526 05:31:44.448138 30759 net.cpp:165] Memory required for data: 15767400
I0526 05:31:44.448151 30759 layer_factory.hpp:77] Creating layer drop1
I0526 05:31:44.448182 30759 net.cpp:106] Creating Layer drop1
I0526 05:31:44.448196 30759 net.cpp:454] drop1 <- ip1
I0526 05:31:44.448212 30759 net.cpp:397] drop1 -> ip1 (in-place)
I0526 05:31:44.448271 30759 net.cpp:150] Setting up drop1
I0526 05:31:44.448287 30759 net.cpp:157] Top shape: 10 196 (1960)
I0526 05:31:44.448299 30759 net.cpp:165] Memory required for data: 15775240
I0526 05:31:44.448313 30759 layer_factory.hpp:77] Creating layer ip2
I0526 05:31:44.448333 30759 net.cpp:106] Creating Layer ip2
I0526 05:31:44.448346 30759 net.cpp:454] ip2 <- ip1
I0526 05:31:44.448371 30759 net.cpp:411] ip2 -> ip2
I0526 05:31:44.448870 30759 net.cpp:150] Setting up ip2
I0526 05:31:44.448889 30759 net.cpp:157] Top shape: 10 98 (980)
I0526 05:31:44.448902 30759 net.cpp:165] Memory required for data: 15779160
I0526 05:31:44.448923 30759 layer_factory.hpp:77] Creating layer relu6
I0526 05:31:44.448958 30759 net.cpp:106] Creating Layer relu6
I0526 05:31:44.448971 30759 net.cpp:454] relu6 <- ip2
I0526 05:31:44.448987 30759 net.cpp:397] relu6 -> ip2 (in-place)
I0526 05:31:44.449555 30759 net.cpp:150] Setting up relu6
I0526 05:31:44.449579 30759 net.cpp:157] Top shape: 10 98 (980)
I0526 05:31:44.449591 30759 net.cpp:165] Memory required for data: 15783080
I0526 05:31:44.449604 30759 layer_factory.hpp:77] Creating layer drop2
I0526 05:31:44.449623 30759 net.cpp:106] Creating Layer drop2
I0526 05:31:44.449645 30759 net.cpp:454] drop2 <- ip2
I0526 05:31:44.449662 30759 net.cpp:397] drop2 -> ip2 (in-place)
I0526 05:31:44.449714 30759 net.cpp:150] Setting up drop2
I0526 05:31:44.449738 30759 net.cpp:157] Top shape: 10 98 (980)
I0526 05:31:44.449749 30759 net.cpp:165] Memory required for data: 15787000
I0526 05:31:44.449769 30759 layer_factory.hpp:77] Creating layer ip3
I0526 05:31:44.449785 30759 net.cpp:106] Creating Layer ip3
I0526 05:31:44.449797 30759 net.cpp:454] ip3 <- ip2
I0526 05:31:44.449816 30759 net.cpp:411] ip3 -> ip3
I0526 05:31:44.450059 30759 net.cpp:150] Setting up ip3
I0526 05:31:44.450079 30759 net.cpp:157] Top shape: 10 11 (110)
I0526 05:31:44.450091 30759 net.cpp:165] Memory required for data: 15787440
I0526 05:31:44.450112 30759 layer_factory.hpp:77] Creating layer drop3
I0526 05:31:44.450135 30759 net.cpp:106] Creating Layer drop3
I0526 05:31:44.450148 30759 net.cpp:454] drop3 <- ip3
I0526 05:31:44.450165 30759 net.cpp:397] drop3 -> ip3 (in-place)
I0526 05:31:44.450212 30759 net.cpp:150] Setting up drop3
I0526 05:31:44.450235 30759 net.cpp:157] Top shape: 10 11 (110)
I0526 05:31:44.450248 30759 net.cpp:165] Memory required for data: 15787880
I0526 05:31:44.450263 30759 layer_factory.hpp:77] Creating layer ip3_drop3_0_split
I0526 05:31:44.450278 30759 net.cpp:106] Creating Layer ip3_drop3_0_split
I0526 05:31:44.450294 30759 net.cpp:454] ip3_drop3_0_split <- ip3
I0526 05:31:44.450316 30759 net.cpp:411] ip3_drop3_0_split -> ip3_drop3_0_split_0
I0526 05:31:44.450335 30759 net.cpp:411] ip3_drop3_0_split -> ip3_drop3_0_split_1
I0526 05:31:44.450424 30759 net.cpp:150] Setting up ip3_drop3_0_split
I0526 05:31:44.450443 30759 net.cpp:157] Top shape: 10 11 (110)
I0526 05:31:44.450461 30759 net.cpp:157] Top shape: 10 11 (110)
I0526 05:31:44.450474 30759 net.cpp:165] Memory required for data: 15788760
I0526 05:31:44.450492 30759 layer_factory.hpp:77] Creating layer accuracy
I0526 05:31:44.450515 30759 net.cpp:106] Creating Layer accuracy
I0526 05:31:44.450528 30759 net.cpp:454] accuracy <- ip3_drop3_0_split_0
I0526 05:31:44.450542 30759 net.cpp:454] accuracy <- label_data_hdf5_1_split_0
I0526 05:31:44.450562 30759 net.cpp:411] accuracy -> accuracy
…
