…
I0526 11:05:50.616538 26867 net.cpp:322] The NetState phase (0) differed from the phase (1) specified by a rule in layer data_hdf5
I0526 11:05:50.616601 26867 net.cpp:322] The NetState phase (0) differed from the phase (1) specified by a rule in layer accuracy
I0526 11:05:50.616979 26867 net.cpp:49] Initializing net from parameters: 
name: "caffe_test_127x50_x_unshifted"
state {
  phase: TRAIN
}
layer {
  name: "data_hdf5"
  type: "HDF5Data"
  top: "data"
  top: "label"
  include {
    phase: TRAIN
  }
  hdf5_data_param {
    source: "/lustre/atlas/proj-shared/hep105/caffe_titan/minosmatch_nukecczdefs_127x50_x_unshifted_me1Bmc.trainlist"
    batch_size: 10
  }
}
layer {
  name: "conv1"
  type: "Convolution"
  bottom: "data"
  top: "conv1"
  convolution_param {
    num_output: 12
    pad: 0
    stride: 1
    weight_filler {
      type: "xavier"
    }
    bias_filler {
      type: "constant"
    }
    kernel_h: 8
    kernel_w: 3
  }
}
layer {
  name: "relu1"
  type: "ReLU"
  bottom: "conv1"
  top: "conv1"
}
layer {
  name: "pool1"
  type: "Pooling"
  bottom: "conv1"
  top: "pool1"
  pooling_param {
    pool: MAX
    kernel_h: 2
    kernel_w: 1
    stride_h: 2
    stride_w: 1
  }
}
layer {
  name: "conv2"
  type: "Convolution"
  bottom: "pool1"
  top: "conv2"
  convolution_param {
    num_output: 20
    pad: 0
    stride: 1
    weight_filler {
      type: "xavier"
    }
    bias_filler {
      type: "constant"
    }
    kernel_h: 7
    kernel_w: 3
  }
}
layer {
  name: "relu2"
  type: "ReLU"
  bottom: "conv2"
  top: "conv2"
}
layer {
  name: "pool2"
  type: "Pooling"
  bottom: "conv2"
  top: "pool2"
  pooling_param {
    pool: MAX
    kernel_h: 2
    kernel_w: 1
    stride_h: 2
    stride_w: 1
  }
}
layer {
  name: "conv3"
  type: "Convolution"
  bottom: "pool2"
  top: "conv3"
  convolution_param {
    num_output: 28
    pad: 0
    stride: 1
    weight_filler {
      type: "xavier"
    }
    bias_filler {
      type: "constant"
    }
    kernel_h: 6
    kernel_w: 3
  }
}
layer {
  name: "relu3"
  type: "ReLU"
  bottom: "conv3"
  top: "conv3"
}
layer {
  name: "pool3"
  type: "Pooling"
  bottom: "conv3"
  top: "pool3"
  pooling_param {
    pool: MAX
    kernel_h: 2
    kernel_w: 1
    stride_h: 2
    stride_w: 1
  }
}
layer {
  name: "conv4"
  type: "Convolution"
  bottom: "pool3"
  top: "conv4"
  convolution_param {
    num_output: 36
    pad: 0
    stride: 1
    weight_filler {
      type: "xavier"
    }
    bias_filler {
      type: "constant"
    }
    kernel_h: 6
    kernel_w: 3
  }
}
layer {
  name: "relu4"
  type: "ReLU"
  bottom: "conv4"
  top: "conv4"
}
layer {
  name: "pool4"
  type: "Pooling"
  bottom: "conv4"
  top: "pool4"
  pooling_param {
    pool: MAX
    kernel_h: 2
    kernel_w: 1
    stride_h: 2
    stride_w: 1
  }
}
layer {
  name: "ip1"
  type: "InnerProduct"
  bottom: "pool4"
  top: "ip1"
  inner_product_param {
    num_output: 196
    weight_filler {
      type: "xavier"
    }
    bias_filler {
      type: "constant"
    }
  }
}
layer {
  name: "relu5"
  type: "ReLU"
  bottom: "ip1"
  top: "ip1"
}
layer {
  name: "drop1"
  type: "Dropout"
  bottom: "ip1"
  top: "ip1"
  dropout_param {
    dropout_ratio: 0.5
  }
}
layer {
  name: "ip2"
  type: "InnerProduct"
  bottom: "ip1"
  top: "ip2"
  inner_product_param {
    num_output: 98
    weight_filler {
      type: "xavier"
    }
    bias_filler {
      type: "constant"
    }
  }
}
layer {
  name: "relu6"
  type: "ReLU"
  bottom: "ip2"
  top: "ip2"
}
layer {
  name: "drop2"
  type: "Dropout"
  bottom: "ip2"
  top: "ip2"
  dropout_param {
    dropout_ratio: 0.5
  }
}
layer {
  name: "ip3"
  type: "InnerProduct"
  bottom: "ip2"
  top: "ip3"
  inner_product_param {
    num_output: 11
    weight_filler {
      type: "xavier"
    }
    bias_filler {
      type: "constant"
    }
  }
}
layer {
  name: "drop3"
  type: "Dropout"
  bottom: "ip3"
  top: "ip3"
  dropout_param {
    dropout_ratio: 0.5
  }
}
layer {
  name: "loss"
  type: "SoftmaxWithLoss"
  bottom: "ip3"
  bottom: "label"
  top: "loss"
}
I0526 11:05:50.617190 26867 layer_factory.hpp:77] Creating layer data_hdf5
I0526 11:05:50.617228 26867 net.cpp:106] Creating Layer data_hdf5
I0526 11:05:50.617245 26867 net.cpp:411] data_hdf5 -> data
I0526 11:05:50.617279 26867 net.cpp:411] data_hdf5 -> label
I0526 11:05:50.617322 26867 hdf5_data_layer.cpp:79] Loading list of HDF5 filenames from: /lustre/atlas/proj-shared/hep105/caffe_titan/minosmatch_nukecczdefs_127x50_x_unshifted_me1Bmc.trainlist
I0526 11:05:50.634737 26867 hdf5_data_layer.cpp:93] Number of HDF5 files: 15
I0526 11:05:50.648187 26867 hdf5.cpp:32] Datatype class: H5T_FLOAT
I0526 11:06:12.247086 26867 hdf5.cpp:35] Datatype class: H5T_INTEGER
I0526 11:06:12.252251 26867 net.cpp:150] Setting up data_hdf5
I0526 11:06:12.252293 26867 net.cpp:157] Top shape: 10 1 127 50 (63500)
I0526 11:06:12.252310 26867 net.cpp:157] Top shape: 10 (10)
I0526 11:06:12.252323 26867 net.cpp:165] Memory required for data: 254040
I0526 11:06:12.252342 26867 layer_factory.hpp:77] Creating layer conv1
I0526 11:06:12.252389 26867 net.cpp:106] Creating Layer conv1
I0526 11:06:12.252403 26867 net.cpp:454] conv1 <- data
I0526 11:06:12.252429 26867 net.cpp:411] conv1 -> conv1
I0526 11:06:14.932085 26867 net.cpp:150] Setting up conv1
I0526 11:06:14.932134 26867 net.cpp:157] Top shape: 10 12 120 48 (691200)
I0526 11:06:14.932149 26867 net.cpp:165] Memory required for data: 3018840
I0526 11:06:14.932179 26867 layer_factory.hpp:77] Creating layer relu1
I0526 11:06:14.932202 26867 net.cpp:106] Creating Layer relu1
I0526 11:06:14.932222 26867 net.cpp:454] relu1 <- conv1
I0526 11:06:14.932260 26867 net.cpp:397] relu1 -> conv1 (in-place)
I0526 11:06:14.932796 26867 net.cpp:150] Setting up relu1
I0526 11:06:14.932821 26867 net.cpp:157] Top shape: 10 12 120 48 (691200)
I0526 11:06:14.932834 26867 net.cpp:165] Memory required for data: 5783640
I0526 11:06:14.932850 26867 layer_factory.hpp:77] Creating layer pool1
I0526 11:06:14.932878 26867 net.cpp:106] Creating Layer pool1
I0526 11:06:14.932891 26867 net.cpp:454] pool1 <- conv1
I0526 11:06:14.932907 26867 net.cpp:411] pool1 -> pool1
I0526 11:06:14.933001 26867 net.cpp:150] Setting up pool1
I0526 11:06:14.933018 26867 net.cpp:157] Top shape: 10 12 60 48 (345600)
I0526 11:06:14.933039 26867 net.cpp:165] Memory required for data: 7166040
I0526 11:06:14.933053 26867 layer_factory.hpp:77] Creating layer conv2
I0526 11:06:14.933076 26867 net.cpp:106] Creating Layer conv2
I0526 11:06:14.933091 26867 net.cpp:454] conv2 <- pool1
I0526 11:06:14.933107 26867 net.cpp:411] conv2 -> conv2
I0526 11:06:14.935817 26867 net.cpp:150] Setting up conv2
I0526 11:06:14.935850 26867 net.cpp:157] Top shape: 10 20 54 46 (496800)
I0526 11:06:14.935864 26867 net.cpp:165] Memory required for data: 9153240
I0526 11:06:14.935892 26867 layer_factory.hpp:77] Creating layer relu2
I0526 11:06:14.935920 26867 net.cpp:106] Creating Layer relu2
I0526 11:06:14.935933 26867 net.cpp:454] relu2 <- conv2
I0526 11:06:14.935950 26867 net.cpp:397] relu2 -> conv2 (in-place)
I0526 11:06:14.936310 26867 net.cpp:150] Setting up relu2
I0526 11:06:14.936331 26867 net.cpp:157] Top shape: 10 20 54 46 (496800)
I0526 11:06:14.936343 26867 net.cpp:165] Memory required for data: 11140440
I0526 11:06:14.936355 26867 layer_factory.hpp:77] Creating layer pool2
I0526 11:06:14.936381 26867 net.cpp:106] Creating Layer pool2
I0526 11:06:14.936395 26867 net.cpp:454] pool2 <- conv2
I0526 11:06:14.936411 26867 net.cpp:411] pool2 -> pool2
I0526 11:06:14.936506 26867 net.cpp:150] Setting up pool2
I0526 11:06:14.936523 26867 net.cpp:157] Top shape: 10 20 27 46 (248400)
I0526 11:06:14.936538 26867 net.cpp:165] Memory required for data: 12134040
I0526 11:06:14.936558 26867 layer_factory.hpp:77] Creating layer conv3
I0526 11:06:14.936579 26867 net.cpp:106] Creating Layer conv3
I0526 11:06:14.936601 26867 net.cpp:454] conv3 <- pool2
I0526 11:06:14.936617 26867 net.cpp:411] conv3 -> conv3
I0526 11:06:14.938755 26867 net.cpp:150] Setting up conv3
I0526 11:06:14.938781 26867 net.cpp:157] Top shape: 10 28 22 44 (271040)
I0526 11:06:14.938802 26867 net.cpp:165] Memory required for data: 13218200
I0526 11:06:14.938824 26867 layer_factory.hpp:77] Creating layer relu3
I0526 11:06:14.938856 26867 net.cpp:106] Creating Layer relu3
I0526 11:06:14.938870 26867 net.cpp:454] relu3 <- conv3
I0526 11:06:14.938886 26867 net.cpp:397] relu3 -> conv3 (in-place)
I0526 11:06:14.939369 26867 net.cpp:150] Setting up relu3
I0526 11:06:14.939394 26867 net.cpp:157] Top shape: 10 28 22 44 (271040)
I0526 11:06:14.939407 26867 net.cpp:165] Memory required for data: 14302360
I0526 11:06:14.939424 26867 layer_factory.hpp:77] Creating layer pool3
I0526 11:06:14.939447 26867 net.cpp:106] Creating Layer pool3
I0526 11:06:14.939461 26867 net.cpp:454] pool3 <- conv3
I0526 11:06:14.939477 26867 net.cpp:411] pool3 -> pool3
I0526 11:06:14.939559 26867 net.cpp:150] Setting up pool3
I0526 11:06:14.939577 26867 net.cpp:157] Top shape: 10 28 11 44 (135520)
I0526 11:06:14.939592 26867 net.cpp:165] Memory required for data: 14844440
I0526 11:06:14.939604 26867 layer_factory.hpp:77] Creating layer conv4
I0526 11:06:14.939630 26867 net.cpp:106] Creating Layer conv4
I0526 11:06:14.939643 26867 net.cpp:454] conv4 <- pool3
I0526 11:06:14.939661 26867 net.cpp:411] conv4 -> conv4
I0526 11:06:14.942412 26867 net.cpp:150] Setting up conv4
I0526 11:06:14.942443 26867 net.cpp:157] Top shape: 10 36 6 42 (90720)
I0526 11:06:14.942457 26867 net.cpp:165] Memory required for data: 15207320
I0526 11:06:14.942481 26867 layer_factory.hpp:77] Creating layer relu4
I0526 11:06:14.942508 26867 net.cpp:106] Creating Layer relu4
I0526 11:06:14.942523 26867 net.cpp:454] relu4 <- conv4
I0526 11:06:14.942538 26867 net.cpp:397] relu4 -> conv4 (in-place)
I0526 11:06:14.943032 26867 net.cpp:150] Setting up relu4
I0526 11:06:14.943056 26867 net.cpp:157] Top shape: 10 36 6 42 (90720)
I0526 11:06:14.943069 26867 net.cpp:165] Memory required for data: 15570200
I0526 11:06:14.943085 26867 layer_factory.hpp:77] Creating layer pool4
I0526 11:06:14.943110 26867 net.cpp:106] Creating Layer pool4
I0526 11:06:14.943123 26867 net.cpp:454] pool4 <- conv4
I0526 11:06:14.943140 26867 net.cpp:411] pool4 -> pool4
I0526 11:06:14.943223 26867 net.cpp:150] Setting up pool4
I0526 11:06:14.943240 26867 net.cpp:157] Top shape: 10 36 3 42 (45360)
I0526 11:06:14.943255 26867 net.cpp:165] Memory required for data: 15751640
I0526 11:06:14.943267 26867 layer_factory.hpp:77] Creating layer ip1
I0526 11:06:14.943295 26867 net.cpp:106] Creating Layer ip1
I0526 11:06:14.943308 26867 net.cpp:454] ip1 <- pool4
I0526 11:06:14.943325 26867 net.cpp:411] ip1 -> ip1
I0526 11:06:14.958770 26867 net.cpp:150] Setting up ip1
I0526 11:06:14.958808 26867 net.cpp:157] Top shape: 10 196 (1960)
I0526 11:06:14.958822 26867 net.cpp:165] Memory required for data: 15759480
I0526 11:06:14.958852 26867 layer_factory.hpp:77] Creating layer relu5
I0526 11:06:14.958868 26867 net.cpp:106] Creating Layer relu5
I0526 11:06:14.958894 26867 net.cpp:454] relu5 <- ip1
I0526 11:06:14.958911 26867 net.cpp:397] relu5 -> ip1 (in-place)
I0526 11:06:14.959282 26867 net.cpp:150] Setting up relu5
I0526 11:06:14.959302 26867 net.cpp:157] Top shape: 10 196 (1960)
I0526 11:06:14.959316 26867 net.cpp:165] Memory required for data: 15767320
I0526 11:06:14.959331 26867 layer_factory.hpp:77] Creating layer drop1
I0526 11:06:14.959362 26867 net.cpp:106] Creating Layer drop1
I0526 11:06:14.959375 26867 net.cpp:454] drop1 <- ip1
I0526 11:06:14.959390 26867 net.cpp:397] drop1 -> ip1 (in-place)
I0526 11:06:14.959463 26867 net.cpp:150] Setting up drop1
I0526 11:06:14.959480 26867 net.cpp:157] Top shape: 10 196 (1960)
I0526 11:06:14.959492 26867 net.cpp:165] Memory required for data: 15775160
I0526 11:06:14.959507 26867 layer_factory.hpp:77] Creating layer ip2
I0526 11:06:14.959528 26867 net.cpp:106] Creating Layer ip2
I0526 11:06:14.959542 26867 net.cpp:454] ip2 <- ip1
I0526 11:06:14.959563 26867 net.cpp:411] ip2 -> ip2
I0526 11:06:14.960052 26867 net.cpp:150] Setting up ip2
I0526 11:06:14.960072 26867 net.cpp:157] Top shape: 10 98 (980)
I0526 11:06:14.960084 26867 net.cpp:165] Memory required for data: 15779080
I0526 11:06:14.960105 26867 layer_factory.hpp:77] Creating layer relu6
I0526 11:06:14.960127 26867 net.cpp:106] Creating Layer relu6
I0526 11:06:14.960140 26867 net.cpp:454] relu6 <- ip2
I0526 11:06:14.960155 26867 net.cpp:397] relu6 -> ip2 (in-place)
I0526 11:06:14.960705 26867 net.cpp:150] Setting up relu6
I0526 11:06:14.960727 26867 net.cpp:157] Top shape: 10 98 (980)
I0526 11:06:14.960741 26867 net.cpp:165] Memory required for data: 15783000
I0526 11:06:14.960757 26867 layer_factory.hpp:77] Creating layer drop2
I0526 11:06:14.960779 26867 net.cpp:106] Creating Layer drop2
I0526 11:06:14.960793 26867 net.cpp:454] drop2 <- ip2
I0526 11:06:14.960808 26867 net.cpp:397] drop2 -> ip2 (in-place)
I0526 11:06:14.960858 26867 net.cpp:150] Setting up drop2
I0526 11:06:14.960881 26867 net.cpp:157] Top shape: 10 98 (980)
I0526 11:06:14.960894 26867 net.cpp:165] Memory required for data: 15786920
I0526 11:06:14.960913 26867 layer_factory.hpp:77] Creating layer ip3
I0526 11:06:14.960929 26867 net.cpp:106] Creating Layer ip3
I0526 11:06:14.960947 26867 net.cpp:454] ip3 <- ip2
I0526 11:06:14.960968 26867 net.cpp:411] ip3 -> ip3
I0526 11:06:14.961191 26867 net.cpp:150] Setting up ip3
I0526 11:06:14.961210 26867 net.cpp:157] Top shape: 10 11 (110)
I0526 11:06:14.961222 26867 net.cpp:165] Memory required for data: 15787360
I0526 11:06:14.961243 26867 layer_factory.hpp:77] Creating layer drop3
I0526 11:06:14.961264 26867 net.cpp:106] Creating Layer drop3
I0526 11:06:14.961277 26867 net.cpp:454] drop3 <- ip3
I0526 11:06:14.961293 26867 net.cpp:397] drop3 -> ip3 (in-place)
I0526 11:06:14.961340 26867 net.cpp:150] Setting up drop3
I0526 11:06:14.961362 26867 net.cpp:157] Top shape: 10 11 (110)
I0526 11:06:14.961374 26867 net.cpp:165] Memory required for data: 15787800
I0526 11:06:14.961392 26867 layer_factory.hpp:77] Creating layer loss
I0526 11:06:14.961413 26867 net.cpp:106] Creating Layer loss
I0526 11:06:14.961428 26867 net.cpp:454] loss <- ip3
I0526 11:06:14.961442 26867 net.cpp:454] loss <- label
I0526 11:06:14.961464 26867 net.cpp:411] loss -> loss
I0526 11:06:14.961484 26867 layer_factory.hpp:77] Creating layer loss
…
I0526 11:06:14.964514 26867 solver.cpp:181] Creating test net (#0) specified by net file: /lustre/atlas/proj-shared/hep105/caffe_titan/caffe_workflow/logs_bslr/bs_10_lr_0.0050_2016-05-20T15.48.52.831864.prototxt
I0526 11:06:14.964593 26867 net.cpp:322] The NetState phase (1) differed from the phase (0) specified by a rule in layer data_hdf5
I0526 11:06:14.964972 26867 net.cpp:49] Initializing net from parameters: 
name: "caffe_test_127x50_x_unshifted"
state {
  phase: TEST
}
layer {
  name: "data_hdf5"
  type: "HDF5Data"
  top: "data"
  top: "label"
  include {
    phase: TEST
  }
  hdf5_data_param {
    source: "/lustre/atlas/proj-shared/hep105/caffe_titan/minosmatch_nukecczdefs_127x50_x_unshifted_me1Bmc.testlist"
    batch_size: 10
  }
}
layer {
  name: "conv1"
  type: "Convolution"
  bottom: "data"
  top: "conv1"
  convolution_param {
    num_output: 12
    pad: 0
    stride: 1
    weight_filler {
      type: "xavier"
    }
    bias_filler {
      type: "constant"
    }
    kernel_h: 8
    kernel_w: 3
  }
}
layer {
  name: "relu1"
  type: "ReLU"
  bottom: "conv1"
  top: "conv1"
}
layer {
  name: "pool1"
  type: "Pooling"
  bottom: "conv1"
  top: "pool1"
  pooling_param {
    pool: MAX
    kernel_h: 2
    kernel_w: 1
    stride_h: 2
    stride_w: 1
  }
}
layer {
  name: "conv2"
  type: "Convolution"
  bottom: "pool1"
  top: "conv2"
  convolution_param {
    num_output: 20
    pad: 0
    stride: 1
    weight_filler {
      type: "xavier"
    }
    bias_filler {
      type: "constant"
    }
    kernel_h: 7
    kernel_w: 3
  }
}
layer {
  name: "relu2"
  type: "ReLU"
  bottom: "conv2"
  top: "conv2"
}
layer {
  name: "pool2"
  type: "Pooling"
  bottom: "conv2"
  top: "pool2"
  pooling_param {
    pool: MAX
    kernel_h: 2
    kernel_w: 1
    stride_h: 2
    stride_w: 1
  }
}
layer {
  name: "conv3"
  type: "Convolution"
  bottom: "pool2"
  top: "conv3"
  convolution_param {
    num_output: 28
    pad: 0
    stride: 1
    weight_filler {
      type: "xavier"
    }
    bias_filler {
      type: "constant"
    }
    kernel_h: 6
    kernel_w: 3
  }
}
layer {
  name: "relu3"
  type: "ReLU"
  bottom: "conv3"
  top: "conv3"
}
layer {
  name: "pool3"
  type: "Pooling"
  bottom: "conv3"
  top: "pool3"
  pooling_param {
    pool: MAX
    kernel_h: 2
    kernel_w: 1
    stride_h: 2
    stride_w: 1
  }
}
layer {
  name: "conv4"
  type: "Convolution"
  bottom: "pool3"
  top: "conv4"
  convolution_param {
    num_output: 36
    pad: 0
    stride: 1
    weight_filler {
      type: "xavier"
    }
    bias_filler {
      type: "constant"
    }
    kernel_h: 6
    kernel_w: 3
  }
}
layer {
  name: "relu4"
  type: "ReLU"
  bottom: "conv4"
  top: "conv4"
}
layer {
  name: "pool4"
  type: "Pooling"
  bottom: "conv4"
  top: "pool4"
  pooling_param {
    pool: MAX
    kernel_h: 2
    kernel_w: 1
    stride_h: 2
    stride_w: 1
  }
}
layer {
  name: "ip1"
  type: "InnerProduct"
  bottom: "pool4"
  top: "ip1"
  inner_product_param {
    num_output: 196
    weight_filler {
      type: "xavier"
    }
    bias_filler {
      type: "constant"
    }
  }
}
layer {
  name: "relu5"
  type: "ReLU"
  bottom: "ip1"
  top: "ip1"
}
layer {
  name: "drop1"
  type: "Dropout"
  bottom: "ip1"
  top: "ip1"
  dropout_param {
    dropout_ratio: 0.5
  }
}
layer {
  name: "ip2"
  type: "InnerProduct"
  bottom: "ip1"
  top: "ip2"
  inner_product_param {
    num_output: 98
    weight_filler {
      type: "xavier"
    }
    bias_filler {
      type: "constant"
    }
  }
}
layer {
  name: "relu6"
  type: "ReLU"
  bottom: "ip2"
  top: "ip2"
}
layer {
  name: "drop2"
  type: "Dropout"
  bottom: "ip2"
  top: "ip2"
  dropout_param {
    dropout_ratio: 0.5
  }
}
layer {
  name: "ip3"
  type: "InnerProduct"
  bottom: "ip2"
  top: "ip3"
  inner_product_param {
    num_output: 11
    weight_filler {
      type: "xavier"
    }
    bias_filler {
      type: "constant"
    }
  }
}
layer {
  name: "drop3"
  type: "Dropout"
  bottom: "ip3"
  top: "ip3"
  dropout_param {
    dropout_ratio: 0.5
  }
}
layer {
  name: "accuracy"
  type: "Accuracy"
  bottom: "ip3"
  bottom: "label"
  top: "accuracy"
  include {
    phase: TEST
  }
}
layer {
  name: "loss"
  type: "SoftmaxWithLoss"
  bottom: "ip3"
  bottom: "label"
  top: "loss"
}
I0526 11:06:14.965198 26867 layer_factory.hpp:77] Creating layer data_hdf5
I0526 11:06:14.965217 26867 net.cpp:106] Creating Layer data_hdf5
I0526 11:06:14.965234 26867 net.cpp:411] data_hdf5 -> data
I0526 11:06:14.965253 26867 net.cpp:411] data_hdf5 -> label
I0526 11:06:14.965275 26867 hdf5_data_layer.cpp:79] Loading list of HDF5 filenames from: /lustre/atlas/proj-shared/hep105/caffe_titan/minosmatch_nukecczdefs_127x50_x_unshifted_me1Bmc.testlist
I0526 11:06:14.977661 26867 hdf5_data_layer.cpp:93] Number of HDF5 files: 3
I0526 11:06:36.425410 26867 net.cpp:150] Setting up data_hdf5
I0526 11:06:36.425578 26867 net.cpp:157] Top shape: 10 1 127 50 (63500)
I0526 11:06:36.425606 26867 net.cpp:157] Top shape: 10 (10)
I0526 11:06:36.425618 26867 net.cpp:165] Memory required for data: 254040
I0526 11:06:36.425633 26867 layer_factory.hpp:77] Creating layer label_data_hdf5_1_split
I0526 11:06:36.425662 26867 net.cpp:106] Creating Layer label_data_hdf5_1_split
I0526 11:06:36.425675 26867 net.cpp:454] label_data_hdf5_1_split <- label
I0526 11:06:36.425717 26867 net.cpp:411] label_data_hdf5_1_split -> label_data_hdf5_1_split_0
I0526 11:06:36.425740 26867 net.cpp:411] label_data_hdf5_1_split -> label_data_hdf5_1_split_1
I0526 11:06:36.425817 26867 net.cpp:150] Setting up label_data_hdf5_1_split
I0526 11:06:36.425838 26867 net.cpp:157] Top shape: 10 (10)
I0526 11:06:36.425859 26867 net.cpp:157] Top shape: 10 (10)
I0526 11:06:36.425873 26867 net.cpp:165] Memory required for data: 254120
I0526 11:06:36.425885 26867 layer_factory.hpp:77] Creating layer conv1
I0526 11:06:36.425916 26867 net.cpp:106] Creating Layer conv1
I0526 11:06:36.425930 26867 net.cpp:454] conv1 <- data
I0526 11:06:36.425948 26867 net.cpp:411] conv1 -> conv1
I0526 11:06:36.427948 26867 net.cpp:150] Setting up conv1
I0526 11:06:36.427975 26867 net.cpp:157] Top shape: 10 12 120 48 (691200)
I0526 11:06:36.427995 26867 net.cpp:165] Memory required for data: 3018920
I0526 11:06:36.428020 26867 layer_factory.hpp:77] Creating layer relu1
I0526 11:06:36.428040 26867 net.cpp:106] Creating Layer relu1
I0526 11:06:36.428063 26867 net.cpp:454] relu1 <- conv1
I0526 11:06:36.428079 26867 net.cpp:397] relu1 -> conv1 (in-place)
I0526 11:06:36.428604 26867 net.cpp:150] Setting up relu1
I0526 11:06:36.428627 26867 net.cpp:157] Top shape: 10 12 120 48 (691200)
I0526 11:06:36.428640 26867 net.cpp:165] Memory required for data: 5783720
I0526 11:06:36.428653 26867 layer_factory.hpp:77] Creating layer pool1
I0526 11:06:36.428683 26867 net.cpp:106] Creating Layer pool1
I0526 11:06:36.428696 26867 net.cpp:454] pool1 <- conv1
I0526 11:06:36.428712 26867 net.cpp:411] pool1 -> pool1
I0526 11:06:36.428802 26867 net.cpp:150] Setting up pool1
I0526 11:06:36.428820 26867 net.cpp:157] Top shape: 10 12 60 48 (345600)
I0526 11:06:36.428835 26867 net.cpp:165] Memory required for data: 7166120
I0526 11:06:36.428853 26867 layer_factory.hpp:77] Creating layer conv2
I0526 11:06:36.428874 26867 net.cpp:106] Creating Layer conv2
I0526 11:06:36.428887 26867 net.cpp:454] conv2 <- pool1
I0526 11:06:36.428903 26867 net.cpp:411] conv2 -> conv2
I0526 11:06:36.430846 26867 net.cpp:150] Setting up conv2
I0526 11:06:36.430871 26867 net.cpp:157] Top shape: 10 20 54 46 (496800)
I0526 11:06:36.430891 26867 net.cpp:165] Memory required for data: 9153320
I0526 11:06:36.430913 26867 layer_factory.hpp:77] Creating layer relu2
I0526 11:06:36.430933 26867 net.cpp:106] Creating Layer relu2
I0526 11:06:36.430955 26867 net.cpp:454] relu2 <- conv2
I0526 11:06:36.430972 26867 net.cpp:397] relu2 -> conv2 (in-place)
I0526 11:06:36.431321 26867 net.cpp:150] Setting up relu2
I0526 11:06:36.431341 26867 net.cpp:157] Top shape: 10 20 54 46 (496800)
I0526 11:06:36.431354 26867 net.cpp:165] Memory required for data: 11140520
I0526 11:06:36.431370 26867 layer_factory.hpp:77] Creating layer pool2
I0526 11:06:36.431392 26867 net.cpp:106] Creating Layer pool2
I0526 11:06:36.431406 26867 net.cpp:454] pool2 <- conv2
I0526 11:06:36.431422 26867 net.cpp:411] pool2 -> pool2
I0526 11:06:36.431509 26867 net.cpp:150] Setting up pool2
I0526 11:06:36.431526 26867 net.cpp:157] Top shape: 10 20 27 46 (248400)
I0526 11:06:36.431541 26867 net.cpp:165] Memory required for data: 12134120
I0526 11:06:36.431560 26867 layer_factory.hpp:77] Creating layer conv3
I0526 11:06:36.431583 26867 net.cpp:106] Creating Layer conv3
I0526 11:06:36.431596 26867 net.cpp:454] conv3 <- pool2
I0526 11:06:36.431613 26867 net.cpp:411] conv3 -> conv3
I0526 11:06:36.433646 26867 net.cpp:150] Setting up conv3
I0526 11:06:36.433672 26867 net.cpp:157] Top shape: 10 28 22 44 (271040)
I0526 11:06:36.433691 26867 net.cpp:165] Memory required for data: 13218280
I0526 11:06:36.433714 26867 layer_factory.hpp:77] Creating layer relu3
I0526 11:06:36.433756 26867 net.cpp:106] Creating Layer relu3
I0526 11:06:36.433770 26867 net.cpp:454] relu3 <- conv3
I0526 11:06:36.433786 26867 net.cpp:397] relu3 -> conv3 (in-place)
I0526 11:06:36.434299 26867 net.cpp:150] Setting up relu3
I0526 11:06:36.434322 26867 net.cpp:157] Top shape: 10 28 22 44 (271040)
I0526 11:06:36.434336 26867 net.cpp:165] Memory required for data: 14302440
I0526 11:06:36.434352 26867 layer_factory.hpp:77] Creating layer pool3
I0526 11:06:36.434376 26867 net.cpp:106] Creating Layer pool3
I0526 11:06:36.434391 26867 net.cpp:454] pool3 <- conv3
I0526 11:06:36.434406 26867 net.cpp:411] pool3 -> pool3
I0526 11:06:36.434494 26867 net.cpp:150] Setting up pool3
I0526 11:06:36.434517 26867 net.cpp:157] Top shape: 10 28 11 44 (135520)
I0526 11:06:36.434530 26867 net.cpp:165] Memory required for data: 14844520
I0526 11:06:36.434542 26867 layer_factory.hpp:77] Creating layer conv4
I0526 11:06:36.434572 26867 net.cpp:106] Creating Layer conv4
I0526 11:06:36.434586 26867 net.cpp:454] conv4 <- pool3
I0526 11:06:36.434602 26867 net.cpp:411] conv4 -> conv4
I0526 11:06:36.436684 26867 net.cpp:150] Setting up conv4
I0526 11:06:36.436708 26867 net.cpp:157] Top shape: 10 36 6 42 (90720)
I0526 11:06:36.436728 26867 net.cpp:165] Memory required for data: 15207400
I0526 11:06:36.436748 26867 layer_factory.hpp:77] Creating layer relu4
I0526 11:06:36.436767 26867 net.cpp:106] Creating Layer relu4
I0526 11:06:36.436789 26867 net.cpp:454] relu4 <- conv4
I0526 11:06:36.436806 26867 net.cpp:397] relu4 -> conv4 (in-place)
I0526 11:06:36.437293 26867 net.cpp:150] Setting up relu4
I0526 11:06:36.437316 26867 net.cpp:157] Top shape: 10 36 6 42 (90720)
I0526 11:06:36.437330 26867 net.cpp:165] Memory required for data: 15570280
I0526 11:06:36.437345 26867 layer_factory.hpp:77] Creating layer pool4
I0526 11:06:36.437369 26867 net.cpp:106] Creating Layer pool4
I0526 11:06:36.437383 26867 net.cpp:454] pool4 <- conv4
I0526 11:06:36.437399 26867 net.cpp:411] pool4 -> pool4
I0526 11:06:36.437486 26867 net.cpp:150] Setting up pool4
I0526 11:06:36.437503 26867 net.cpp:157] Top shape: 10 36 3 42 (45360)
I0526 11:06:36.437518 26867 net.cpp:165] Memory required for data: 15751720
I0526 11:06:36.437530 26867 layer_factory.hpp:77] Creating layer ip1
I0526 11:06:36.437554 26867 net.cpp:106] Creating Layer ip1
I0526 11:06:36.437568 26867 net.cpp:454] ip1 <- pool4
I0526 11:06:36.437585 26867 net.cpp:411] ip1 -> ip1
I0526 11:06:36.452975 26867 net.cpp:150] Setting up ip1
I0526 11:06:36.453004 26867 net.cpp:157] Top shape: 10 196 (1960)
I0526 11:06:36.453025 26867 net.cpp:165] Memory required for data: 15759560
I0526 11:06:36.453052 26867 layer_factory.hpp:77] Creating layer relu5
I0526 11:06:36.453073 26867 net.cpp:106] Creating Layer relu5
I0526 11:06:36.453099 26867 net.cpp:454] relu5 <- ip1
I0526 11:06:36.453116 26867 net.cpp:397] relu5 -> ip1 (in-place)
I0526 11:06:36.453480 26867 net.cpp:150] Setting up relu5
I0526 11:06:36.453501 26867 net.cpp:157] Top shape: 10 196 (1960)
I0526 11:06:36.453515 26867 net.cpp:165] Memory required for data: 15767400
I0526 11:06:36.453529 26867 layer_factory.hpp:77] Creating layer drop1
I0526 11:06:36.453558 26867 net.cpp:106] Creating Layer drop1
I0526 11:06:36.453572 26867 net.cpp:454] drop1 <- ip1
I0526 11:06:36.453588 26867 net.cpp:397] drop1 -> ip1 (in-place)
I0526 11:06:36.453647 26867 net.cpp:150] Setting up drop1
I0526 11:06:36.453663 26867 net.cpp:157] Top shape: 10 196 (1960)
I0526 11:06:36.453675 26867 net.cpp:165] Memory required for data: 15775240
I0526 11:06:36.453688 26867 layer_factory.hpp:77] Creating layer ip2
I0526 11:06:36.453708 26867 net.cpp:106] Creating Layer ip2
I0526 11:06:36.453721 26867 net.cpp:454] ip2 <- ip1
I0526 11:06:36.453743 26867 net.cpp:411] ip2 -> ip2
I0526 11:06:36.454244 26867 net.cpp:150] Setting up ip2
I0526 11:06:36.454263 26867 net.cpp:157] Top shape: 10 98 (980)
I0526 11:06:36.454277 26867 net.cpp:165] Memory required for data: 15779160
I0526 11:06:36.454298 26867 layer_factory.hpp:77] Creating layer relu6
I0526 11:06:36.454334 26867 net.cpp:106] Creating Layer relu6
I0526 11:06:36.454346 26867 net.cpp:454] relu6 <- ip2
I0526 11:06:36.454362 26867 net.cpp:397] relu6 -> ip2 (in-place)
I0526 11:06:36.454941 26867 net.cpp:150] Setting up relu6
I0526 11:06:36.454964 26867 net.cpp:157] Top shape: 10 98 (980)
I0526 11:06:36.454977 26867 net.cpp:165] Memory required for data: 15783080
I0526 11:06:36.454989 26867 layer_factory.hpp:77] Creating layer drop2
I0526 11:06:36.455009 26867 net.cpp:106] Creating Layer drop2
I0526 11:06:36.455031 26867 net.cpp:454] drop2 <- ip2
I0526 11:06:36.455047 26867 net.cpp:397] drop2 -> ip2 (in-place)
I0526 11:06:36.455099 26867 net.cpp:150] Setting up drop2
I0526 11:06:36.455122 26867 net.cpp:157] Top shape: 10 98 (980)
I0526 11:06:36.455135 26867 net.cpp:165] Memory required for data: 15787000
I0526 11:06:36.455153 26867 layer_factory.hpp:77] Creating layer ip3
I0526 11:06:36.455170 26867 net.cpp:106] Creating Layer ip3
I0526 11:06:36.455185 26867 net.cpp:454] ip3 <- ip2
I0526 11:06:36.455209 26867 net.cpp:411] ip3 -> ip3
I0526 11:06:36.455445 26867 net.cpp:150] Setting up ip3
I0526 11:06:36.455463 26867 net.cpp:157] Top shape: 10 11 (110)
I0526 11:06:36.455476 26867 net.cpp:165] Memory required for data: 15787440
I0526 11:06:36.455497 26867 layer_factory.hpp:77] Creating layer drop3
I0526 11:06:36.455520 26867 net.cpp:106] Creating Layer drop3
I0526 11:06:36.455534 26867 net.cpp:454] drop3 <- ip3
I0526 11:06:36.455549 26867 net.cpp:397] drop3 -> ip3 (in-place)
I0526 11:06:36.455605 26867 net.cpp:150] Setting up drop3
I0526 11:06:36.455621 26867 net.cpp:157] Top shape: 10 11 (110)
I0526 11:06:36.455632 26867 net.cpp:165] Memory required for data: 15787880
I0526 11:06:36.455646 26867 layer_factory.hpp:77] Creating layer ip3_drop3_0_split
I0526 11:06:36.455662 26867 net.cpp:106] Creating Layer ip3_drop3_0_split
I0526 11:06:36.455677 26867 net.cpp:454] ip3_drop3_0_split <- ip3
I0526 11:06:36.455698 26867 net.cpp:411] ip3_drop3_0_split -> ip3_drop3_0_split_0
I0526 11:06:36.455718 26867 net.cpp:411] ip3_drop3_0_split -> ip3_drop3_0_split_1
I0526 11:06:36.455811 26867 net.cpp:150] Setting up ip3_drop3_0_split
I0526 11:06:36.455827 26867 net.cpp:157] Top shape: 10 11 (110)
I0526 11:06:36.455842 26867 net.cpp:157] Top shape: 10 11 (110)
I0526 11:06:36.455857 26867 net.cpp:165] Memory required for data: 15788760
I0526 11:06:36.455869 26867 layer_factory.hpp:77] Creating layer accuracy
I0526 11:06:36.455899 26867 net.cpp:106] Creating Layer accuracy
I0526 11:06:36.455916 26867 net.cpp:454] accuracy <- ip3_drop3_0_split_0
I0526 11:06:36.455931 26867 net.cpp:454] accuracy <- label_data_hdf5_1_split_0
I0526 11:06:36.455947 26867 net.cpp:411] accuracy -> accuracy
…
