…
I0526 02:58:57.218433 27450 net.cpp:322] The NetState phase (0) differed from the phase (1) specified by a rule in layer data_hdf5
I0526 02:58:57.218497 27450 net.cpp:322] The NetState phase (0) differed from the phase (1) specified by a rule in layer accuracy
I0526 02:58:57.218874 27450 net.cpp:49] Initializing net from parameters: 
name: "caffe_test_127x50_x_unshifted"
state {
  phase: TRAIN
}
layer {
  name: "data_hdf5"
  type: "HDF5Data"
  top: "data"
  top: "label"
  include {
    phase: TRAIN
  }
  hdf5_data_param {
    source: "/lustre/atlas/proj-shared/hep105/caffe_titan/minosmatch_nukecczdefs_127x50_x_unshifted_me1Bmc.trainlist"
    batch_size: 10
  }
}
layer {
  name: "conv1"
  type: "Convolution"
  bottom: "data"
  top: "conv1"
  convolution_param {
    num_output: 12
    pad: 0
    stride: 1
    weight_filler {
      type: "xavier"
    }
    bias_filler {
      type: "constant"
    }
    kernel_h: 8
    kernel_w: 3
  }
}
layer {
  name: "relu1"
  type: "ReLU"
  bottom: "conv1"
  top: "conv1"
}
layer {
  name: "pool1"
  type: "Pooling"
  bottom: "conv1"
  top: "pool1"
  pooling_param {
    pool: MAX
    kernel_h: 2
    kernel_w: 1
    stride_h: 2
    stride_w: 1
  }
}
layer {
  name: "conv2"
  type: "Convolution"
  bottom: "pool1"
  top: "conv2"
  convolution_param {
    num_output: 20
    pad: 0
    stride: 1
    weight_filler {
      type: "xavier"
    }
    bias_filler {
      type: "constant"
    }
    kernel_h: 7
    kernel_w: 3
  }
}
layer {
  name: "relu2"
  type: "ReLU"
  bottom: "conv2"
  top: "conv2"
}
layer {
  name: "pool2"
  type: "Pooling"
  bottom: "conv2"
  top: "pool2"
  pooling_param {
    pool: MAX
    kernel_h: 2
    kernel_w: 1
    stride_h: 2
    stride_w: 1
  }
}
layer {
  name: "conv3"
  type: "Convolution"
  bottom: "pool2"
  top: "conv3"
  convolution_param {
    num_output: 28
    pad: 0
    stride: 1
    weight_filler {
      type: "xavier"
    }
    bias_filler {
      type: "constant"
    }
    kernel_h: 6
    kernel_w: 3
  }
}
layer {
  name: "relu3"
  type: "ReLU"
  bottom: "conv3"
  top: "conv3"
}
layer {
  name: "pool3"
  type: "Pooling"
  bottom: "conv3"
  top: "pool3"
  pooling_param {
    pool: MAX
    kernel_h: 2
    kernel_w: 1
    stride_h: 2
    stride_w: 1
  }
}
layer {
  name: "conv4"
  type: "Convolution"
  bottom: "pool3"
  top: "conv4"
  convolution_param {
    num_output: 36
    pad: 0
    stride: 1
    weight_filler {
      type: "xavier"
    }
    bias_filler {
      type: "constant"
    }
    kernel_h: 6
    kernel_w: 3
  }
}
layer {
  name: "relu4"
  type: "ReLU"
  bottom: "conv4"
  top: "conv4"
}
layer {
  name: "pool4"
  type: "Pooling"
  bottom: "conv4"
  top: "pool4"
  pooling_param {
    pool: MAX
    kernel_h: 2
    kernel_w: 1
    stride_h: 2
    stride_w: 1
  }
}
layer {
  name: "ip1"
  type: "InnerProduct"
  bottom: "pool4"
  top: "ip1"
  inner_product_param {
    num_output: 196
    weight_filler {
      type: "xavier"
    }
    bias_filler {
      type: "constant"
    }
  }
}
layer {
  name: "relu5"
  type: "ReLU"
  bottom: "ip1"
  top: "ip1"
}
layer {
  name: "drop1"
  type: "Dropout"
  bottom: "ip1"
  top: "ip1"
  dropout_param {
    dropout_ratio: 0.5
  }
}
layer {
  name: "ip2"
  type: "InnerProduct"
  bottom: "ip1"
  top: "ip2"
  inner_product_param {
    num_output: 98
    weight_filler {
      type: "xavier"
    }
    bias_filler {
      type: "constant"
    }
  }
}
layer {
  name: "relu6"
  type: "ReLU"
  bottom: "ip2"
  top: "ip2"
}
layer {
  name: "drop2"
  type: "Dropout"
  bottom: "ip2"
  top: "ip2"
  dropout_param {
    dropout_ratio: 0.5
  }
}
layer {
  name: "ip3"
  type: "InnerProduct"
  bottom: "ip2"
  top: "ip3"
  inner_product_param {
    num_output: 11
    weight_filler {
      type: "xavier"
    }
    bias_filler {
      type: "constant"
    }
  }
}
layer {
  name: "drop3"
  type: "Dropout"
  bottom: "ip3"
  top: "ip3"
  dropout_param {
    dropout_ratio: 0.5
  }
}
layer {
  name: "loss"
  type: "SoftmaxWithLoss"
  bottom: "ip3"
  bottom: "label"
  top: "loss"
}
I0526 02:58:57.219079 27450 layer_factory.hpp:77] Creating layer data_hdf5
I0526 02:58:57.219107 27450 net.cpp:106] Creating Layer data_hdf5
I0526 02:58:57.219130 27450 net.cpp:411] data_hdf5 -> data
I0526 02:58:57.219164 27450 net.cpp:411] data_hdf5 -> label
I0526 02:58:57.219202 27450 hdf5_data_layer.cpp:79] Loading list of HDF5 filenames from: /lustre/atlas/proj-shared/hep105/caffe_titan/minosmatch_nukecczdefs_127x50_x_unshifted_me1Bmc.trainlist
I0526 02:58:57.231899 27450 hdf5_data_layer.cpp:93] Number of HDF5 files: 15
I0526 02:58:57.249451 27450 hdf5.cpp:32] Datatype class: H5T_FLOAT
I0526 02:59:18.852133 27450 hdf5.cpp:35] Datatype class: H5T_INTEGER
I0526 02:59:18.857372 27450 net.cpp:150] Setting up data_hdf5
I0526 02:59:18.857414 27450 net.cpp:157] Top shape: 10 1 127 50 (63500)
I0526 02:59:18.857430 27450 net.cpp:157] Top shape: 10 (10)
I0526 02:59:18.857444 27450 net.cpp:165] Memory required for data: 254040
I0526 02:59:18.857462 27450 layer_factory.hpp:77] Creating layer conv1
I0526 02:59:18.857508 27450 net.cpp:106] Creating Layer conv1
I0526 02:59:18.857522 27450 net.cpp:454] conv1 <- data
I0526 02:59:18.857547 27450 net.cpp:411] conv1 -> conv1
I0526 02:59:19.913246 27450 net.cpp:150] Setting up conv1
I0526 02:59:19.913296 27450 net.cpp:157] Top shape: 10 12 120 48 (691200)
I0526 02:59:19.913322 27450 net.cpp:165] Memory required for data: 3018840
I0526 02:59:19.913353 27450 layer_factory.hpp:77] Creating layer relu1
I0526 02:59:19.913375 27450 net.cpp:106] Creating Layer relu1
I0526 02:59:19.913395 27450 net.cpp:454] relu1 <- conv1
I0526 02:59:19.913431 27450 net.cpp:397] relu1 -> conv1 (in-place)
I0526 02:59:19.913967 27450 net.cpp:150] Setting up relu1
I0526 02:59:19.913990 27450 net.cpp:157] Top shape: 10 12 120 48 (691200)
I0526 02:59:19.914003 27450 net.cpp:165] Memory required for data: 5783640
I0526 02:59:19.914021 27450 layer_factory.hpp:77] Creating layer pool1
I0526 02:59:19.914048 27450 net.cpp:106] Creating Layer pool1
I0526 02:59:19.914062 27450 net.cpp:454] pool1 <- conv1
I0526 02:59:19.914077 27450 net.cpp:411] pool1 -> pool1
I0526 02:59:19.914171 27450 net.cpp:150] Setting up pool1
I0526 02:59:19.914189 27450 net.cpp:157] Top shape: 10 12 60 48 (345600)
I0526 02:59:19.914211 27450 net.cpp:165] Memory required for data: 7166040
I0526 02:59:19.914223 27450 layer_factory.hpp:77] Creating layer conv2
I0526 02:59:19.914247 27450 net.cpp:106] Creating Layer conv2
I0526 02:59:19.914260 27450 net.cpp:454] conv2 <- pool1
I0526 02:59:19.914280 27450 net.cpp:411] conv2 -> conv2
I0526 02:59:19.916997 27450 net.cpp:150] Setting up conv2
I0526 02:59:19.917028 27450 net.cpp:157] Top shape: 10 20 54 46 (496800)
I0526 02:59:19.917043 27450 net.cpp:165] Memory required for data: 9153240
I0526 02:59:19.917070 27450 layer_factory.hpp:77] Creating layer relu2
I0526 02:59:19.917098 27450 net.cpp:106] Creating Layer relu2
I0526 02:59:19.917112 27450 net.cpp:454] relu2 <- conv2
I0526 02:59:19.917129 27450 net.cpp:397] relu2 -> conv2 (in-place)
I0526 02:59:19.917484 27450 net.cpp:150] Setting up relu2
I0526 02:59:19.917505 27450 net.cpp:157] Top shape: 10 20 54 46 (496800)
I0526 02:59:19.917517 27450 net.cpp:165] Memory required for data: 11140440
I0526 02:59:19.917529 27450 layer_factory.hpp:77] Creating layer pool2
I0526 02:59:19.917556 27450 net.cpp:106] Creating Layer pool2
I0526 02:59:19.917568 27450 net.cpp:454] pool2 <- conv2
I0526 02:59:19.917584 27450 net.cpp:411] pool2 -> pool2
I0526 02:59:19.917680 27450 net.cpp:150] Setting up pool2
I0526 02:59:19.917697 27450 net.cpp:157] Top shape: 10 20 27 46 (248400)
I0526 02:59:19.917711 27450 net.cpp:165] Memory required for data: 12134040
I0526 02:59:19.917731 27450 layer_factory.hpp:77] Creating layer conv3
I0526 02:59:19.917752 27450 net.cpp:106] Creating Layer conv3
I0526 02:59:19.917773 27450 net.cpp:454] conv3 <- pool2
I0526 02:59:19.917789 27450 net.cpp:411] conv3 -> conv3
I0526 02:59:19.919912 27450 net.cpp:150] Setting up conv3
I0526 02:59:19.919939 27450 net.cpp:157] Top shape: 10 28 22 44 (271040)
I0526 02:59:19.919958 27450 net.cpp:165] Memory required for data: 13218200
I0526 02:59:19.919981 27450 layer_factory.hpp:77] Creating layer relu3
I0526 02:59:19.920003 27450 net.cpp:106] Creating Layer relu3
I0526 02:59:19.920025 27450 net.cpp:454] relu3 <- conv3
I0526 02:59:19.920042 27450 net.cpp:397] relu3 -> conv3 (in-place)
I0526 02:59:19.920536 27450 net.cpp:150] Setting up relu3
I0526 02:59:19.920562 27450 net.cpp:157] Top shape: 10 28 22 44 (271040)
I0526 02:59:19.920574 27450 net.cpp:165] Memory required for data: 14302360
I0526 02:59:19.920590 27450 layer_factory.hpp:77] Creating layer pool3
I0526 02:59:19.920614 27450 net.cpp:106] Creating Layer pool3
I0526 02:59:19.920629 27450 net.cpp:454] pool3 <- conv3
I0526 02:59:19.920644 27450 net.cpp:411] pool3 -> pool3
I0526 02:59:19.920725 27450 net.cpp:150] Setting up pool3
I0526 02:59:19.920749 27450 net.cpp:157] Top shape: 10 28 11 44 (135520)
I0526 02:59:19.920763 27450 net.cpp:165] Memory required for data: 14844440
I0526 02:59:19.920773 27450 layer_factory.hpp:77] Creating layer conv4
I0526 02:59:19.920801 27450 net.cpp:106] Creating Layer conv4
I0526 02:59:19.920815 27450 net.cpp:454] conv4 <- pool3
I0526 02:59:19.920831 27450 net.cpp:411] conv4 -> conv4
I0526 02:59:19.923570 27450 net.cpp:150] Setting up conv4
I0526 02:59:19.923602 27450 net.cpp:157] Top shape: 10 36 6 42 (90720)
I0526 02:59:19.923617 27450 net.cpp:165] Memory required for data: 15207320
I0526 02:59:19.923636 27450 layer_factory.hpp:77] Creating layer relu4
I0526 02:59:19.923657 27450 net.cpp:106] Creating Layer relu4
I0526 02:59:19.923682 27450 net.cpp:454] relu4 <- conv4
I0526 02:59:19.923699 27450 net.cpp:397] relu4 -> conv4 (in-place)
I0526 02:59:19.924198 27450 net.cpp:150] Setting up relu4
I0526 02:59:19.924221 27450 net.cpp:157] Top shape: 10 36 6 42 (90720)
I0526 02:59:19.924234 27450 net.cpp:165] Memory required for data: 15570200
I0526 02:59:19.924250 27450 layer_factory.hpp:77] Creating layer pool4
I0526 02:59:19.924274 27450 net.cpp:106] Creating Layer pool4
I0526 02:59:19.924288 27450 net.cpp:454] pool4 <- conv4
I0526 02:59:19.924304 27450 net.cpp:411] pool4 -> pool4
I0526 02:59:19.924386 27450 net.cpp:150] Setting up pool4
I0526 02:59:19.924409 27450 net.cpp:157] Top shape: 10 36 3 42 (45360)
I0526 02:59:19.924424 27450 net.cpp:165] Memory required for data: 15751640
I0526 02:59:19.924437 27450 layer_factory.hpp:77] Creating layer ip1
I0526 02:59:19.924468 27450 net.cpp:106] Creating Layer ip1
I0526 02:59:19.924481 27450 net.cpp:454] ip1 <- pool4
I0526 02:59:19.924497 27450 net.cpp:411] ip1 -> ip1
I0526 02:59:19.939926 27450 net.cpp:150] Setting up ip1
I0526 02:59:19.939963 27450 net.cpp:157] Top shape: 10 196 (1960)
I0526 02:59:19.939977 27450 net.cpp:165] Memory required for data: 15759480
I0526 02:59:19.940007 27450 layer_factory.hpp:77] Creating layer relu5
I0526 02:59:19.940037 27450 net.cpp:106] Creating Layer relu5
I0526 02:59:19.940050 27450 net.cpp:454] relu5 <- ip1
I0526 02:59:19.940068 27450 net.cpp:397] relu5 -> ip1 (in-place)
I0526 02:59:19.940448 27450 net.cpp:150] Setting up relu5
I0526 02:59:19.940467 27450 net.cpp:157] Top shape: 10 196 (1960)
I0526 02:59:19.940479 27450 net.cpp:165] Memory required for data: 15767320
I0526 02:59:19.940492 27450 layer_factory.hpp:77] Creating layer drop1
I0526 02:59:19.940526 27450 net.cpp:106] Creating Layer drop1
I0526 02:59:19.940538 27450 net.cpp:454] drop1 <- ip1
I0526 02:59:19.940554 27450 net.cpp:397] drop1 -> ip1 (in-place)
I0526 02:59:19.940629 27450 net.cpp:150] Setting up drop1
I0526 02:59:19.940644 27450 net.cpp:157] Top shape: 10 196 (1960)
I0526 02:59:19.940657 27450 net.cpp:165] Memory required for data: 15775160
I0526 02:59:19.940672 27450 layer_factory.hpp:77] Creating layer ip2
I0526 02:59:19.940693 27450 net.cpp:106] Creating Layer ip2
I0526 02:59:19.940706 27450 net.cpp:454] ip2 <- ip1
I0526 02:59:19.940728 27450 net.cpp:411] ip2 -> ip2
I0526 02:59:19.941220 27450 net.cpp:150] Setting up ip2
I0526 02:59:19.941238 27450 net.cpp:157] Top shape: 10 98 (980)
I0526 02:59:19.941251 27450 net.cpp:165] Memory required for data: 15779080
I0526 02:59:19.941272 27450 layer_factory.hpp:77] Creating layer relu6
I0526 02:59:19.941293 27450 net.cpp:106] Creating Layer relu6
I0526 02:59:19.941306 27450 net.cpp:454] relu6 <- ip2
I0526 02:59:19.941321 27450 net.cpp:397] relu6 -> ip2 (in-place)
I0526 02:59:19.941867 27450 net.cpp:150] Setting up relu6
I0526 02:59:19.941890 27450 net.cpp:157] Top shape: 10 98 (980)
I0526 02:59:19.941903 27450 net.cpp:165] Memory required for data: 15783000
I0526 02:59:19.941920 27450 layer_factory.hpp:77] Creating layer drop2
I0526 02:59:19.941934 27450 net.cpp:106] Creating Layer drop2
I0526 02:59:19.941956 27450 net.cpp:454] drop2 <- ip2
I0526 02:59:19.941972 27450 net.cpp:397] drop2 -> ip2 (in-place)
I0526 02:59:19.942021 27450 net.cpp:150] Setting up drop2
I0526 02:59:19.942044 27450 net.cpp:157] Top shape: 10 98 (980)
I0526 02:59:19.942056 27450 net.cpp:165] Memory required for data: 15786920
I0526 02:59:19.942075 27450 layer_factory.hpp:77] Creating layer ip3
I0526 02:59:19.942092 27450 net.cpp:106] Creating Layer ip3
I0526 02:59:19.942104 27450 net.cpp:454] ip3 <- ip2
I0526 02:59:19.942122 27450 net.cpp:411] ip3 -> ip3
I0526 02:59:19.942350 27450 net.cpp:150] Setting up ip3
I0526 02:59:19.942369 27450 net.cpp:157] Top shape: 10 11 (110)
I0526 02:59:19.942383 27450 net.cpp:165] Memory required for data: 15787360
I0526 02:59:19.942402 27450 layer_factory.hpp:77] Creating layer drop3
I0526 02:59:19.942425 27450 net.cpp:106] Creating Layer drop3
I0526 02:59:19.942438 27450 net.cpp:454] drop3 <- ip3
I0526 02:59:19.942454 27450 net.cpp:397] drop3 -> ip3 (in-place)
I0526 02:59:19.942500 27450 net.cpp:150] Setting up drop3
I0526 02:59:19.942523 27450 net.cpp:157] Top shape: 10 11 (110)
I0526 02:59:19.942535 27450 net.cpp:165] Memory required for data: 15787800
I0526 02:59:19.942554 27450 layer_factory.hpp:77] Creating layer loss
I0526 02:59:19.942575 27450 net.cpp:106] Creating Layer loss
I0526 02:59:19.942590 27450 net.cpp:454] loss <- ip3
I0526 02:59:19.942611 27450 net.cpp:454] loss <- label
I0526 02:59:19.942627 27450 net.cpp:411] loss -> loss
I0526 02:59:19.942646 27450 layer_factory.hpp:77] Creating layer loss
…
I0526 02:59:19.945581 27450 solver.cpp:181] Creating test net (#0) specified by net file: /lustre/atlas/proj-shared/hep105/caffe_titan/caffe_workflow/logs_bslr/bs_10_lr_0.0005_2016-05-20T15.48.49.278163.prototxt
I0526 02:59:19.945660 27450 net.cpp:322] The NetState phase (1) differed from the phase (0) specified by a rule in layer data_hdf5
I0526 02:59:19.946039 27450 net.cpp:49] Initializing net from parameters: 
name: "caffe_test_127x50_x_unshifted"
state {
  phase: TEST
}
layer {
  name: "data_hdf5"
  type: "HDF5Data"
  top: "data"
  top: "label"
  include {
    phase: TEST
  }
  hdf5_data_param {
    source: "/lustre/atlas/proj-shared/hep105/caffe_titan/minosmatch_nukecczdefs_127x50_x_unshifted_me1Bmc.testlist"
    batch_size: 10
  }
}
layer {
  name: "conv1"
  type: "Convolution"
  bottom: "data"
  top: "conv1"
  convolution_param {
    num_output: 12
    pad: 0
    stride: 1
    weight_filler {
      type: "xavier"
    }
    bias_filler {
      type: "constant"
    }
    kernel_h: 8
    kernel_w: 3
  }
}
layer {
  name: "relu1"
  type: "ReLU"
  bottom: "conv1"
  top: "conv1"
}
layer {
  name: "pool1"
  type: "Pooling"
  bottom: "conv1"
  top: "pool1"
  pooling_param {
    pool: MAX
    kernel_h: 2
    kernel_w: 1
    stride_h: 2
    stride_w: 1
  }
}
layer {
  name: "conv2"
  type: "Convolution"
  bottom: "pool1"
  top: "conv2"
  convolution_param {
    num_output: 20
    pad: 0
    stride: 1
    weight_filler {
      type: "xavier"
    }
    bias_filler {
      type: "constant"
    }
    kernel_h: 7
    kernel_w: 3
  }
}
layer {
  name: "relu2"
  type: "ReLU"
  bottom: "conv2"
  top: "conv2"
}
layer {
  name: "pool2"
  type: "Pooling"
  bottom: "conv2"
  top: "pool2"
  pooling_param {
    pool: MAX
    kernel_h: 2
    kernel_w: 1
    stride_h: 2
    stride_w: 1
  }
}
layer {
  name: "conv3"
  type: "Convolution"
  bottom: "pool2"
  top: "conv3"
  convolution_param {
    num_output: 28
    pad: 0
    stride: 1
    weight_filler {
      type: "xavier"
    }
    bias_filler {
      type: "constant"
    }
    kernel_h: 6
    kernel_w: 3
  }
}
layer {
  name: "relu3"
  type: "ReLU"
  bottom: "conv3"
  top: "conv3"
}
layer {
  name: "pool3"
  type: "Pooling"
  bottom: "conv3"
  top: "pool3"
  pooling_param {
    pool: MAX
    kernel_h: 2
    kernel_w: 1
    stride_h: 2
    stride_w: 1
  }
}
layer {
  name: "conv4"
  type: "Convolution"
  bottom: "pool3"
  top: "conv4"
  convolution_param {
    num_output: 36
    pad: 0
    stride: 1
    weight_filler {
      type: "xavier"
    }
    bias_filler {
      type: "constant"
    }
    kernel_h: 6
    kernel_w: 3
  }
}
layer {
  name: "relu4"
  type: "ReLU"
  bottom: "conv4"
  top: "conv4"
}
layer {
  name: "pool4"
  type: "Pooling"
  bottom: "conv4"
  top: "pool4"
  pooling_param {
    pool: MAX
    kernel_h: 2
    kernel_w: 1
    stride_h: 2
    stride_w: 1
  }
}
layer {
  name: "ip1"
  type: "InnerProduct"
  bottom: "pool4"
  top: "ip1"
  inner_product_param {
    num_output: 196
    weight_filler {
      type: "xavier"
    }
    bias_filler {
      type: "constant"
    }
  }
}
layer {
  name: "relu5"
  type: "ReLU"
  bottom: "ip1"
  top: "ip1"
}
layer {
  name: "drop1"
  type: "Dropout"
  bottom: "ip1"
  top: "ip1"
  dropout_param {
    dropout_ratio: 0.5
  }
}
layer {
  name: "ip2"
  type: "InnerProduct"
  bottom: "ip1"
  top: "ip2"
  inner_product_param {
    num_output: 98
    weight_filler {
      type: "xavier"
    }
    bias_filler {
      type: "constant"
    }
  }
}
layer {
  name: "relu6"
  type: "ReLU"
  bottom: "ip2"
  top: "ip2"
}
layer {
  name: "drop2"
  type: "Dropout"
  bottom: "ip2"
  top: "ip2"
  dropout_param {
    dropout_ratio: 0.5
  }
}
layer {
  name: "ip3"
  type: "InnerProduct"
  bottom: "ip2"
  top: "ip3"
  inner_product_param {
    num_output: 11
    weight_filler {
      type: "xavier"
    }
    bias_filler {
      type: "constant"
    }
  }
}
layer {
  name: "drop3"
  type: "Dropout"
  bottom: "ip3"
  top: "ip3"
  dropout_param {
    dropout_ratio: 0.5
  }
}
layer {
  name: "accuracy"
  type: "Accuracy"
  bottom: "ip3"
  bottom: "label"
  top: "accuracy"
  include {
    phase: TEST
  }
}
layer {
  name: "loss"
  type: "SoftmaxWithLoss"
  bottom: "ip3"
  bottom: "label"
  top: "loss"
}
I0526 02:59:19.946264 27450 layer_factory.hpp:77] Creating layer data_hdf5
I0526 02:59:19.946282 27450 net.cpp:106] Creating Layer data_hdf5
I0526 02:59:19.946302 27450 net.cpp:411] data_hdf5 -> data
I0526 02:59:19.946321 27450 net.cpp:411] data_hdf5 -> label
I0526 02:59:19.946343 27450 hdf5_data_layer.cpp:79] Loading list of HDF5 filenames from: /lustre/atlas/proj-shared/hep105/caffe_titan/minosmatch_nukecczdefs_127x50_x_unshifted_me1Bmc.testlist
I0526 02:59:19.962754 27450 hdf5_data_layer.cpp:93] Number of HDF5 files: 3
I0526 02:59:41.389559 27450 net.cpp:150] Setting up data_hdf5
I0526 02:59:41.389727 27450 net.cpp:157] Top shape: 10 1 127 50 (63500)
I0526 02:59:41.389745 27450 net.cpp:157] Top shape: 10 (10)
I0526 02:59:41.389758 27450 net.cpp:165] Memory required for data: 254040
I0526 02:59:41.389773 27450 layer_factory.hpp:77] Creating layer label_data_hdf5_1_split
I0526 02:59:41.389806 27450 net.cpp:106] Creating Layer label_data_hdf5_1_split
I0526 02:59:41.389821 27450 net.cpp:454] label_data_hdf5_1_split <- label
I0526 02:59:41.389837 27450 net.cpp:411] label_data_hdf5_1_split -> label_data_hdf5_1_split_0
I0526 02:59:41.389878 27450 net.cpp:411] label_data_hdf5_1_split -> label_data_hdf5_1_split_1
I0526 02:59:41.389966 27450 net.cpp:150] Setting up label_data_hdf5_1_split
I0526 02:59:41.389983 27450 net.cpp:157] Top shape: 10 (10)
I0526 02:59:41.389998 27450 net.cpp:157] Top shape: 10 (10)
I0526 02:59:41.390012 27450 net.cpp:165] Memory required for data: 254120
I0526 02:59:41.390022 27450 layer_factory.hpp:77] Creating layer conv1
I0526 02:59:41.390055 27450 net.cpp:106] Creating Layer conv1
I0526 02:59:41.390069 27450 net.cpp:454] conv1 <- data
I0526 02:59:41.390085 27450 net.cpp:411] conv1 -> conv1
I0526 02:59:41.392036 27450 net.cpp:150] Setting up conv1
I0526 02:59:41.392062 27450 net.cpp:157] Top shape: 10 12 120 48 (691200)
I0526 02:59:41.392083 27450 net.cpp:165] Memory required for data: 3018920
I0526 02:59:41.392107 27450 layer_factory.hpp:77] Creating layer relu1
I0526 02:59:41.392137 27450 net.cpp:106] Creating Layer relu1
I0526 02:59:41.392163 27450 net.cpp:454] relu1 <- conv1
I0526 02:59:41.392181 27450 net.cpp:397] relu1 -> conv1 (in-place)
I0526 02:59:41.392712 27450 net.cpp:150] Setting up relu1
I0526 02:59:41.392735 27450 net.cpp:157] Top shape: 10 12 120 48 (691200)
I0526 02:59:41.392748 27450 net.cpp:165] Memory required for data: 5783720
I0526 02:59:41.392765 27450 layer_factory.hpp:77] Creating layer pool1
I0526 02:59:41.392791 27450 net.cpp:106] Creating Layer pool1
I0526 02:59:41.392803 27450 net.cpp:454] pool1 <- conv1
I0526 02:59:41.392819 27450 net.cpp:411] pool1 -> pool1
I0526 02:59:41.392909 27450 net.cpp:150] Setting up pool1
I0526 02:59:41.392925 27450 net.cpp:157] Top shape: 10 12 60 48 (345600)
I0526 02:59:41.392940 27450 net.cpp:165] Memory required for data: 7166120
I0526 02:59:41.392958 27450 layer_factory.hpp:77] Creating layer conv2
I0526 02:59:41.392979 27450 net.cpp:106] Creating Layer conv2
I0526 02:59:41.393002 27450 net.cpp:454] conv2 <- pool1
I0526 02:59:41.393018 27450 net.cpp:411] conv2 -> conv2
I0526 02:59:41.394958 27450 net.cpp:150] Setting up conv2
I0526 02:59:41.394981 27450 net.cpp:157] Top shape: 10 20 54 46 (496800)
I0526 02:59:41.395002 27450 net.cpp:165] Memory required for data: 9153320
I0526 02:59:41.395025 27450 layer_factory.hpp:77] Creating layer relu2
I0526 02:59:41.395045 27450 net.cpp:106] Creating Layer relu2
I0526 02:59:41.395066 27450 net.cpp:454] relu2 <- conv2
I0526 02:59:41.395082 27450 net.cpp:397] relu2 -> conv2 (in-place)
I0526 02:59:41.395434 27450 net.cpp:150] Setting up relu2
I0526 02:59:41.395454 27450 net.cpp:157] Top shape: 10 20 54 46 (496800)
I0526 02:59:41.395467 27450 net.cpp:165] Memory required for data: 11140520
I0526 02:59:41.395481 27450 layer_factory.hpp:77] Creating layer pool2
I0526 02:59:41.395504 27450 net.cpp:106] Creating Layer pool2
I0526 02:59:41.395517 27450 net.cpp:454] pool2 <- conv2
I0526 02:59:41.395534 27450 net.cpp:411] pool2 -> pool2
I0526 02:59:41.395622 27450 net.cpp:150] Setting up pool2
I0526 02:59:41.395639 27450 net.cpp:157] Top shape: 10 20 27 46 (248400)
I0526 02:59:41.395654 27450 net.cpp:165] Memory required for data: 12134120
I0526 02:59:41.395666 27450 layer_factory.hpp:77] Creating layer conv3
I0526 02:59:41.395696 27450 net.cpp:106] Creating Layer conv3
I0526 02:59:41.395709 27450 net.cpp:454] conv3 <- pool2
I0526 02:59:41.395725 27450 net.cpp:411] conv3 -> conv3
I0526 02:59:41.397771 27450 net.cpp:150] Setting up conv3
I0526 02:59:41.397796 27450 net.cpp:157] Top shape: 10 28 22 44 (271040)
I0526 02:59:41.397817 27450 net.cpp:165] Memory required for data: 13218280
I0526 02:59:41.397840 27450 layer_factory.hpp:77] Creating layer relu3
I0526 02:59:41.397881 27450 net.cpp:106] Creating Layer relu3
I0526 02:59:41.397896 27450 net.cpp:454] relu3 <- conv3
I0526 02:59:41.397912 27450 net.cpp:397] relu3 -> conv3 (in-place)
I0526 02:59:41.398406 27450 net.cpp:150] Setting up relu3
I0526 02:59:41.398428 27450 net.cpp:157] Top shape: 10 28 22 44 (271040)
I0526 02:59:41.398442 27450 net.cpp:165] Memory required for data: 14302440
I0526 02:59:41.398458 27450 layer_factory.hpp:77] Creating layer pool3
I0526 02:59:41.398473 27450 net.cpp:106] Creating Layer pool3
I0526 02:59:41.398494 27450 net.cpp:454] pool3 <- conv3
I0526 02:59:41.398510 27450 net.cpp:411] pool3 -> pool3
I0526 02:59:41.398597 27450 net.cpp:150] Setting up pool3
I0526 02:59:41.398614 27450 net.cpp:157] Top shape: 10 28 11 44 (135520)
I0526 02:59:41.398628 27450 net.cpp:165] Memory required for data: 14844520
I0526 02:59:41.398640 27450 layer_factory.hpp:77] Creating layer conv4
I0526 02:59:41.398668 27450 net.cpp:106] Creating Layer conv4
I0526 02:59:41.398680 27450 net.cpp:454] conv4 <- pool3
I0526 02:59:41.398697 27450 net.cpp:411] conv4 -> conv4
I0526 02:59:41.400791 27450 net.cpp:150] Setting up conv4
I0526 02:59:41.400815 27450 net.cpp:157] Top shape: 10 36 6 42 (90720)
I0526 02:59:41.400830 27450 net.cpp:165] Memory required for data: 15207400
I0526 02:59:41.400851 27450 layer_factory.hpp:77] Creating layer relu4
I0526 02:59:41.400876 27450 net.cpp:106] Creating Layer relu4
I0526 02:59:41.400890 27450 net.cpp:454] relu4 <- conv4
I0526 02:59:41.400907 27450 net.cpp:397] relu4 -> conv4 (in-place)
I0526 02:59:41.401399 27450 net.cpp:150] Setting up relu4
I0526 02:59:41.401422 27450 net.cpp:157] Top shape: 10 36 6 42 (90720)
I0526 02:59:41.401435 27450 net.cpp:165] Memory required for data: 15570280
I0526 02:59:41.401451 27450 layer_factory.hpp:77] Creating layer pool4
I0526 02:59:41.401475 27450 net.cpp:106] Creating Layer pool4
I0526 02:59:41.401489 27450 net.cpp:454] pool4 <- conv4
I0526 02:59:41.401505 27450 net.cpp:411] pool4 -> pool4
I0526 02:59:41.401592 27450 net.cpp:150] Setting up pool4
I0526 02:59:41.401608 27450 net.cpp:157] Top shape: 10 36 3 42 (45360)
I0526 02:59:41.401620 27450 net.cpp:165] Memory required for data: 15751720
I0526 02:59:41.401635 27450 layer_factory.hpp:77] Creating layer ip1
I0526 02:59:41.401659 27450 net.cpp:106] Creating Layer ip1
I0526 02:59:41.401672 27450 net.cpp:454] ip1 <- pool4
I0526 02:59:41.401695 27450 net.cpp:411] ip1 -> ip1
I0526 02:59:41.417129 27450 net.cpp:150] Setting up ip1
I0526 02:59:41.417161 27450 net.cpp:157] Top shape: 10 196 (1960)
I0526 02:59:41.417182 27450 net.cpp:165] Memory required for data: 15759560
I0526 02:59:41.417208 27450 layer_factory.hpp:77] Creating layer relu5
I0526 02:59:41.417230 27450 net.cpp:106] Creating Layer relu5
I0526 02:59:41.417255 27450 net.cpp:454] relu5 <- ip1
I0526 02:59:41.417273 27450 net.cpp:397] relu5 -> ip1 (in-place)
I0526 02:59:41.417639 27450 net.cpp:150] Setting up relu5
I0526 02:59:41.417659 27450 net.cpp:157] Top shape: 10 196 (1960)
I0526 02:59:41.417671 27450 net.cpp:165] Memory required for data: 15767400
I0526 02:59:41.417687 27450 layer_factory.hpp:77] Creating layer drop1
I0526 02:59:41.417716 27450 net.cpp:106] Creating Layer drop1
I0526 02:59:41.417731 27450 net.cpp:454] drop1 <- ip1
I0526 02:59:41.417745 27450 net.cpp:397] drop1 -> ip1 (in-place)
I0526 02:59:41.417804 27450 net.cpp:150] Setting up drop1
I0526 02:59:41.417820 27450 net.cpp:157] Top shape: 10 196 (1960)
I0526 02:59:41.417834 27450 net.cpp:165] Memory required for data: 15775240
I0526 02:59:41.417845 27450 layer_factory.hpp:77] Creating layer ip2
I0526 02:59:41.417865 27450 net.cpp:106] Creating Layer ip2
I0526 02:59:41.417877 27450 net.cpp:454] ip2 <- ip1
I0526 02:59:41.417901 27450 net.cpp:411] ip2 -> ip2
I0526 02:59:41.418396 27450 net.cpp:150] Setting up ip2
I0526 02:59:41.418416 27450 net.cpp:157] Top shape: 10 98 (980)
I0526 02:59:41.418428 27450 net.cpp:165] Memory required for data: 15779160
I0526 02:59:41.418449 27450 layer_factory.hpp:77] Creating layer relu6
I0526 02:59:41.418483 27450 net.cpp:106] Creating Layer relu6
I0526 02:59:41.418496 27450 net.cpp:454] relu6 <- ip2
I0526 02:59:41.418512 27450 net.cpp:397] relu6 -> ip2 (in-place)
I0526 02:59:41.419071 27450 net.cpp:150] Setting up relu6
I0526 02:59:41.419095 27450 net.cpp:157] Top shape: 10 98 (980)
I0526 02:59:41.419107 27450 net.cpp:165] Memory required for data: 15783080
I0526 02:59:41.419119 27450 layer_factory.hpp:77] Creating layer drop2
I0526 02:59:41.419138 27450 net.cpp:106] Creating Layer drop2
I0526 02:59:41.419160 27450 net.cpp:454] drop2 <- ip2
I0526 02:59:41.419176 27450 net.cpp:397] drop2 -> ip2 (in-place)
I0526 02:59:41.419234 27450 net.cpp:150] Setting up drop2
I0526 02:59:41.419257 27450 net.cpp:157] Top shape: 10 98 (980)
I0526 02:59:41.419270 27450 net.cpp:165] Memory required for data: 15787000
I0526 02:59:41.419282 27450 layer_factory.hpp:77] Creating layer ip3
I0526 02:59:41.419301 27450 net.cpp:106] Creating Layer ip3
I0526 02:59:41.419312 27450 net.cpp:454] ip3 <- ip2
I0526 02:59:41.419332 27450 net.cpp:411] ip3 -> ip3
I0526 02:59:41.419572 27450 net.cpp:150] Setting up ip3
I0526 02:59:41.419591 27450 net.cpp:157] Top shape: 10 11 (110)
I0526 02:59:41.419605 27450 net.cpp:165] Memory required for data: 15787440
I0526 02:59:41.419625 27450 layer_factory.hpp:77] Creating layer drop3
I0526 02:59:41.419647 27450 net.cpp:106] Creating Layer drop3
I0526 02:59:41.419661 27450 net.cpp:454] drop3 <- ip3
I0526 02:59:41.419677 27450 net.cpp:397] drop3 -> ip3 (in-place)
I0526 02:59:41.419724 27450 net.cpp:150] Setting up drop3
I0526 02:59:41.419746 27450 net.cpp:157] Top shape: 10 11 (110)
I0526 02:59:41.419759 27450 net.cpp:165] Memory required for data: 15787880
I0526 02:59:41.419777 27450 layer_factory.hpp:77] Creating layer ip3_drop3_0_split
I0526 02:59:41.419793 27450 net.cpp:106] Creating Layer ip3_drop3_0_split
I0526 02:59:41.419808 27450 net.cpp:454] ip3_drop3_0_split <- ip3
I0526 02:59:41.419823 27450 net.cpp:411] ip3_drop3_0_split -> ip3_drop3_0_split_0
I0526 02:59:41.419842 27450 net.cpp:411] ip3_drop3_0_split -> ip3_drop3_0_split_1
I0526 02:59:41.419929 27450 net.cpp:150] Setting up ip3_drop3_0_split
I0526 02:59:41.419945 27450 net.cpp:157] Top shape: 10 11 (110)
I0526 02:59:41.419968 27450 net.cpp:157] Top shape: 10 11 (110)
I0526 02:59:41.419983 27450 net.cpp:165] Memory required for data: 15788760
I0526 02:59:41.419996 27450 layer_factory.hpp:77] Creating layer accuracy
I0526 02:59:41.420018 27450 net.cpp:106] Creating Layer accuracy
I0526 02:59:41.420037 27450 net.cpp:454] accuracy <- ip3_drop3_0_split_0
I0526 02:59:41.420053 27450 net.cpp:454] accuracy <- label_data_hdf5_1_split_0
I0526 02:59:41.420071 27450 net.cpp:411] accuracy -> accuracy
…
