…
I0526 07:01:59.324368  6929 net.cpp:322] The NetState phase (0) differed from the phase (1) specified by a rule in layer data_hdf5
I0526 07:01:59.324425  6929 net.cpp:322] The NetState phase (0) differed from the phase (1) specified by a rule in layer accuracy
I0526 07:01:59.324784  6929 net.cpp:49] Initializing net from parameters: 
name: "caffe_test_127x50_x_unshifted"
state {
  phase: TRAIN
}
layer {
  name: "data_hdf5"
  type: "HDF5Data"
  top: "data"
  top: "label"
  include {
    phase: TRAIN
  }
  hdf5_data_param {
    source: "/lustre/atlas/proj-shared/hep105/caffe_titan/minosmatch_nukecczdefs_127x50_x_unshifted_me1Bmc.trainlist"
    batch_size: 10
  }
}
layer {
  name: "conv1"
  type: "Convolution"
  bottom: "data"
  top: "conv1"
  convolution_param {
    num_output: 12
    pad: 0
    stride: 1
    weight_filler {
      type: "xavier"
    }
    bias_filler {
      type: "constant"
    }
    kernel_h: 8
    kernel_w: 3
  }
}
layer {
  name: "relu1"
  type: "ReLU"
  bottom: "conv1"
  top: "conv1"
}
layer {
  name: "pool1"
  type: "Pooling"
  bottom: "conv1"
  top: "pool1"
  pooling_param {
    pool: MAX
    kernel_h: 2
    kernel_w: 1
    stride_h: 2
    stride_w: 1
  }
}
layer {
  name: "conv2"
  type: "Convolution"
  bottom: "pool1"
  top: "conv2"
  convolution_param {
    num_output: 20
    pad: 0
    stride: 1
    weight_filler {
      type: "xavier"
    }
    bias_filler {
      type: "constant"
    }
    kernel_h: 7
    kernel_w: 3
  }
}
layer {
  name: "relu2"
  type: "ReLU"
  bottom: "conv2"
  top: "conv2"
}
layer {
  name: "pool2"
  type: "Pooling"
  bottom: "conv2"
  top: "pool2"
  pooling_param {
    pool: MAX
    kernel_h: 2
    kernel_w: 1
    stride_h: 2
    stride_w: 1
  }
}
layer {
  name: "conv3"
  type: "Convolution"
  bottom: "pool2"
  top: "conv3"
  convolution_param {
    num_output: 28
    pad: 0
    stride: 1
    weight_filler {
      type: "xavier"
    }
    bias_filler {
      type: "constant"
    }
    kernel_h: 6
    kernel_w: 3
  }
}
layer {
  name: "relu3"
  type: "ReLU"
  bottom: "conv3"
  top: "conv3"
}
layer {
  name: "pool3"
  type: "Pooling"
  bottom: "conv3"
  top: "pool3"
  pooling_param {
    pool: MAX
    kernel_h: 2
    kernel_w: 1
    stride_h: 2
    stride_w: 1
  }
}
layer {
  name: "conv4"
  type: "Convolution"
  bottom: "pool3"
  top: "conv4"
  convolution_param {
    num_output: 36
    pad: 0
    stride: 1
    weight_filler {
      type: "xavier"
    }
    bias_filler {
      type: "constant"
    }
    kernel_h: 6
    kernel_w: 3
  }
}
layer {
  name: "relu4"
  type: "ReLU"
  bottom: "conv4"
  top: "conv4"
}
layer {
  name: "pool4"
  type: "Pooling"
  bottom: "conv4"
  top: "pool4"
  pooling_param {
    pool: MAX
    kernel_h: 2
    kernel_w: 1
    stride_h: 2
    stride_w: 1
  }
}
layer {
  name: "ip1"
  type: "InnerProduct"
  bottom: "pool4"
  top: "ip1"
  inner_product_param {
    num_output: 196
    weight_filler {
      type: "xavier"
    }
    bias_filler {
      type: "constant"
    }
  }
}
layer {
  name: "relu5"
  type: "ReLU"
  bottom: "ip1"
  top: "ip1"
}
layer {
  name: "drop1"
  type: "Dropout"
  bottom: "ip1"
  top: "ip1"
  dropout_param {
    dropout_ratio: 0.5
  }
}
layer {
  name: "ip2"
  type: "InnerProduct"
  bottom: "ip1"
  top: "ip2"
  inner_product_param {
    num_output: 98
    weight_filler {
      type: "xavier"
    }
    bias_filler {
      type: "constant"
    }
  }
}
layer {
  name: "relu6"
  type: "ReLU"
  bottom: "ip2"
  top: "ip2"
}
layer {
  name: "drop2"
  type: "Dropout"
  bottom: "ip2"
  top: "ip2"
  dropout_param {
    dropout_ratio: 0.5
  }
}
layer {
  name: "ip3"
  type: "InnerProduct"
  bottom: "ip2"
  top: "ip3"
  inner_product_param {
    num_output: 11
    weight_filler {
      type: "xavier"
    }
    bias_filler {
      type: "constant"
    }
  }
}
layer {
  name: "drop3"
  type: "Dropout"
  bottom: "ip3"
  top: "ip3"
  dropout_param {
    dropout_ratio: 0.5
  }
}
layer {
  name: "loss"
  type: "SoftmaxWithLoss"
  bottom: "ip3"
  bottom: "label"
  top: "loss"
}
I0526 07:01:59.324965  6929 layer_factory.hpp:77] Creating layer data_hdf5
I0526 07:01:59.324990  6929 net.cpp:106] Creating Layer data_hdf5
I0526 07:01:59.325004  6929 net.cpp:411] data_hdf5 -> data
I0526 07:01:59.325037  6929 net.cpp:411] data_hdf5 -> label
I0526 07:01:59.325070  6929 hdf5_data_layer.cpp:79] Loading list of HDF5 filenames from: /lustre/atlas/proj-shared/hep105/caffe_titan/minosmatch_nukecczdefs_127x50_x_unshifted_me1Bmc.trainlist
I0526 07:01:59.341233  6929 hdf5_data_layer.cpp:93] Number of HDF5 files: 15
I0526 07:01:59.355104  6929 hdf5.cpp:32] Datatype class: H5T_FLOAT
I0526 07:02:20.951289  6929 hdf5.cpp:35] Datatype class: H5T_INTEGER
I0526 07:02:20.963094  6929 net.cpp:150] Setting up data_hdf5
I0526 07:02:20.963136  6929 net.cpp:157] Top shape: 10 1 127 50 (63500)
I0526 07:02:20.963151  6929 net.cpp:157] Top shape: 10 (10)
I0526 07:02:20.963165  6929 net.cpp:165] Memory required for data: 254040
I0526 07:02:20.963178  6929 layer_factory.hpp:77] Creating layer conv1
I0526 07:02:20.963212  6929 net.cpp:106] Creating Layer conv1
I0526 07:02:20.963222  6929 net.cpp:454] conv1 <- data
I0526 07:02:20.963245  6929 net.cpp:411] conv1 -> conv1
I0526 07:02:23.800268  6929 net.cpp:150] Setting up conv1
I0526 07:02:23.800313  6929 net.cpp:157] Top shape: 10 12 120 48 (691200)
I0526 07:02:23.800325  6929 net.cpp:165] Memory required for data: 3018840
I0526 07:02:23.800354  6929 layer_factory.hpp:77] Creating layer relu1
I0526 07:02:23.800375  6929 net.cpp:106] Creating Layer relu1
I0526 07:02:23.800387  6929 net.cpp:454] relu1 <- conv1
I0526 07:02:23.800401  6929 net.cpp:397] relu1 -> conv1 (in-place)
I0526 07:02:23.800921  6929 net.cpp:150] Setting up relu1
I0526 07:02:23.800938  6929 net.cpp:157] Top shape: 10 12 120 48 (691200)
I0526 07:02:23.800948  6929 net.cpp:165] Memory required for data: 5783640
I0526 07:02:23.800958  6929 layer_factory.hpp:77] Creating layer pool1
I0526 07:02:23.800977  6929 net.cpp:106] Creating Layer pool1
I0526 07:02:23.800987  6929 net.cpp:454] pool1 <- conv1
I0526 07:02:23.801002  6929 net.cpp:411] pool1 -> pool1
I0526 07:02:23.801080  6929 net.cpp:150] Setting up pool1
I0526 07:02:23.801095  6929 net.cpp:157] Top shape: 10 12 60 48 (345600)
I0526 07:02:23.801105  6929 net.cpp:165] Memory required for data: 7166040
I0526 07:02:23.801115  6929 layer_factory.hpp:77] Creating layer conv2
I0526 07:02:23.801137  6929 net.cpp:106] Creating Layer conv2
I0526 07:02:23.801149  6929 net.cpp:454] conv2 <- pool1
I0526 07:02:23.801163  6929 net.cpp:411] conv2 -> conv2
I0526 07:02:23.803838  6929 net.cpp:150] Setting up conv2
I0526 07:02:23.803866  6929 net.cpp:157] Top shape: 10 20 54 46 (496800)
I0526 07:02:23.803877  6929 net.cpp:165] Memory required for data: 9153240
I0526 07:02:23.803895  6929 layer_factory.hpp:77] Creating layer relu2
I0526 07:02:23.803910  6929 net.cpp:106] Creating Layer relu2
I0526 07:02:23.803920  6929 net.cpp:454] relu2 <- conv2
I0526 07:02:23.803932  6929 net.cpp:397] relu2 -> conv2 (in-place)
I0526 07:02:23.804277  6929 net.cpp:150] Setting up relu2
I0526 07:02:23.804291  6929 net.cpp:157] Top shape: 10 20 54 46 (496800)
I0526 07:02:23.804301  6929 net.cpp:165] Memory required for data: 11140440
I0526 07:02:23.804311  6929 layer_factory.hpp:77] Creating layer pool2
I0526 07:02:23.804323  6929 net.cpp:106] Creating Layer pool2
I0526 07:02:23.804333  6929 net.cpp:454] pool2 <- conv2
I0526 07:02:23.804347  6929 net.cpp:411] pool2 -> pool2
I0526 07:02:23.804430  6929 net.cpp:150] Setting up pool2
I0526 07:02:23.804443  6929 net.cpp:157] Top shape: 10 20 27 46 (248400)
I0526 07:02:23.804453  6929 net.cpp:165] Memory required for data: 12134040
I0526 07:02:23.804461  6929 layer_factory.hpp:77] Creating layer conv3
I0526 07:02:23.804478  6929 net.cpp:106] Creating Layer conv3
I0526 07:02:23.804489  6929 net.cpp:454] conv3 <- pool2
I0526 07:02:23.804502  6929 net.cpp:411] conv3 -> conv3
I0526 07:02:23.806589  6929 net.cpp:150] Setting up conv3
I0526 07:02:23.806613  6929 net.cpp:157] Top shape: 10 28 22 44 (271040)
I0526 07:02:23.806625  6929 net.cpp:165] Memory required for data: 13218200
I0526 07:02:23.806643  6929 layer_factory.hpp:77] Creating layer relu3
I0526 07:02:23.806660  6929 net.cpp:106] Creating Layer relu3
I0526 07:02:23.806670  6929 net.cpp:454] relu3 <- conv3
I0526 07:02:23.806684  6929 net.cpp:397] relu3 -> conv3 (in-place)
I0526 07:02:23.807152  6929 net.cpp:150] Setting up relu3
I0526 07:02:23.807168  6929 net.cpp:157] Top shape: 10 28 22 44 (271040)
I0526 07:02:23.807178  6929 net.cpp:165] Memory required for data: 14302360
I0526 07:02:23.807189  6929 layer_factory.hpp:77] Creating layer pool3
I0526 07:02:23.807202  6929 net.cpp:106] Creating Layer pool3
I0526 07:02:23.807212  6929 net.cpp:454] pool3 <- conv3
I0526 07:02:23.807225  6929 net.cpp:411] pool3 -> pool3
I0526 07:02:23.807292  6929 net.cpp:150] Setting up pool3
I0526 07:02:23.807306  6929 net.cpp:157] Top shape: 10 28 11 44 (135520)
I0526 07:02:23.807315  6929 net.cpp:165] Memory required for data: 14844440
I0526 07:02:23.807324  6929 layer_factory.hpp:77] Creating layer conv4
I0526 07:02:23.807342  6929 net.cpp:106] Creating Layer conv4
I0526 07:02:23.807353  6929 net.cpp:454] conv4 <- pool3
I0526 07:02:23.807365  6929 net.cpp:411] conv4 -> conv4
I0526 07:02:23.810096  6929 net.cpp:150] Setting up conv4
I0526 07:02:23.810119  6929 net.cpp:157] Top shape: 10 36 6 42 (90720)
I0526 07:02:23.810129  6929 net.cpp:165] Memory required for data: 15207320
I0526 07:02:23.810145  6929 layer_factory.hpp:77] Creating layer relu4
I0526 07:02:23.810159  6929 net.cpp:106] Creating Layer relu4
I0526 07:02:23.810168  6929 net.cpp:454] relu4 <- conv4
I0526 07:02:23.810183  6929 net.cpp:397] relu4 -> conv4 (in-place)
I0526 07:02:23.810647  6929 net.cpp:150] Setting up relu4
I0526 07:02:23.810662  6929 net.cpp:157] Top shape: 10 36 6 42 (90720)
I0526 07:02:23.810673  6929 net.cpp:165] Memory required for data: 15570200
I0526 07:02:23.810683  6929 layer_factory.hpp:77] Creating layer pool4
I0526 07:02:23.810695  6929 net.cpp:106] Creating Layer pool4
I0526 07:02:23.810705  6929 net.cpp:454] pool4 <- conv4
I0526 07:02:23.810719  6929 net.cpp:411] pool4 -> pool4
I0526 07:02:23.810787  6929 net.cpp:150] Setting up pool4
I0526 07:02:23.810801  6929 net.cpp:157] Top shape: 10 36 3 42 (45360)
I0526 07:02:23.810811  6929 net.cpp:165] Memory required for data: 15751640
I0526 07:02:23.810820  6929 layer_factory.hpp:77] Creating layer ip1
I0526 07:02:23.810842  6929 net.cpp:106] Creating Layer ip1
I0526 07:02:23.810852  6929 net.cpp:454] ip1 <- pool4
I0526 07:02:23.810864  6929 net.cpp:411] ip1 -> ip1
I0526 07:02:23.826326  6929 net.cpp:150] Setting up ip1
I0526 07:02:23.826349  6929 net.cpp:157] Top shape: 10 196 (1960)
I0526 07:02:23.826360  6929 net.cpp:165] Memory required for data: 15759480
I0526 07:02:23.826382  6929 layer_factory.hpp:77] Creating layer relu5
I0526 07:02:23.826397  6929 net.cpp:106] Creating Layer relu5
I0526 07:02:23.826407  6929 net.cpp:454] relu5 <- ip1
I0526 07:02:23.826421  6929 net.cpp:397] relu5 -> ip1 (in-place)
I0526 07:02:23.826766  6929 net.cpp:150] Setting up relu5
I0526 07:02:23.826778  6929 net.cpp:157] Top shape: 10 196 (1960)
I0526 07:02:23.826788  6929 net.cpp:165] Memory required for data: 15767320
I0526 07:02:23.826798  6929 layer_factory.hpp:77] Creating layer drop1
I0526 07:02:23.826820  6929 net.cpp:106] Creating Layer drop1
I0526 07:02:23.826830  6929 net.cpp:454] drop1 <- ip1
I0526 07:02:23.826843  6929 net.cpp:397] drop1 -> ip1 (in-place)
I0526 07:02:23.826901  6929 net.cpp:150] Setting up drop1
I0526 07:02:23.826915  6929 net.cpp:157] Top shape: 10 196 (1960)
I0526 07:02:23.826925  6929 net.cpp:165] Memory required for data: 15775160
I0526 07:02:23.826935  6929 layer_factory.hpp:77] Creating layer ip2
I0526 07:02:23.826952  6929 net.cpp:106] Creating Layer ip2
I0526 07:02:23.826963  6929 net.cpp:454] ip2 <- ip1
I0526 07:02:23.826977  6929 net.cpp:411] ip2 -> ip2
I0526 07:02:23.827442  6929 net.cpp:150] Setting up ip2
I0526 07:02:23.827455  6929 net.cpp:157] Top shape: 10 98 (980)
I0526 07:02:23.827466  6929 net.cpp:165] Memory required for data: 15779080
I0526 07:02:23.827481  6929 layer_factory.hpp:77] Creating layer relu6
I0526 07:02:23.827493  6929 net.cpp:106] Creating Layer relu6
I0526 07:02:23.827503  6929 net.cpp:454] relu6 <- ip2
I0526 07:02:23.827515  6929 net.cpp:397] relu6 -> ip2 (in-place)
I0526 07:02:23.828029  6929 net.cpp:150] Setting up relu6
I0526 07:02:23.828045  6929 net.cpp:157] Top shape: 10 98 (980)
I0526 07:02:23.828055  6929 net.cpp:165] Memory required for data: 15783000
I0526 07:02:23.828065  6929 layer_factory.hpp:77] Creating layer drop2
I0526 07:02:23.828078  6929 net.cpp:106] Creating Layer drop2
I0526 07:02:23.828095  6929 net.cpp:454] drop2 <- ip2
I0526 07:02:23.828109  6929 net.cpp:397] drop2 -> ip2 (in-place)
I0526 07:02:23.828152  6929 net.cpp:150] Setting up drop2
I0526 07:02:23.828166  6929 net.cpp:157] Top shape: 10 98 (980)
I0526 07:02:23.828176  6929 net.cpp:165] Memory required for data: 15786920
I0526 07:02:23.828186  6929 layer_factory.hpp:77] Creating layer ip3
I0526 07:02:23.828198  6929 net.cpp:106] Creating Layer ip3
I0526 07:02:23.828208  6929 net.cpp:454] ip3 <- ip2
I0526 07:02:23.828222  6929 net.cpp:411] ip3 -> ip3
I0526 07:02:23.828430  6929 net.cpp:150] Setting up ip3
I0526 07:02:23.828444  6929 net.cpp:157] Top shape: 10 11 (110)
I0526 07:02:23.828454  6929 net.cpp:165] Memory required for data: 15787360
I0526 07:02:23.828469  6929 layer_factory.hpp:77] Creating layer drop3
I0526 07:02:23.828481  6929 net.cpp:106] Creating Layer drop3
I0526 07:02:23.828491  6929 net.cpp:454] drop3 <- ip3
I0526 07:02:23.828503  6929 net.cpp:397] drop3 -> ip3 (in-place)
I0526 07:02:23.828542  6929 net.cpp:150] Setting up drop3
I0526 07:02:23.828555  6929 net.cpp:157] Top shape: 10 11 (110)
I0526 07:02:23.828564  6929 net.cpp:165] Memory required for data: 15787800
I0526 07:02:23.828574  6929 layer_factory.hpp:77] Creating layer loss
I0526 07:02:23.828594  6929 net.cpp:106] Creating Layer loss
I0526 07:02:23.828604  6929 net.cpp:454] loss <- ip3
I0526 07:02:23.828615  6929 net.cpp:454] loss <- label
I0526 07:02:23.828629  6929 net.cpp:411] loss -> loss
I0526 07:02:23.828645  6929 layer_factory.hpp:77] Creating layer loss
…
I0526 07:02:23.837723  6929 solver.cpp:181] Creating test net (#0) specified by net file: /lustre/atlas/proj-shared/hep105/caffe_titan/caffe_workflow/logs_bslr/bs_10_lr_0.0030_2016-05-20T15.48.51.258925.prototxt
I0526 07:02:23.837801  6929 net.cpp:322] The NetState phase (1) differed from the phase (0) specified by a rule in layer data_hdf5
I0526 07:02:23.838160  6929 net.cpp:49] Initializing net from parameters: 
name: "caffe_test_127x50_x_unshifted"
state {
  phase: TEST
}
layer {
  name: "data_hdf5"
  type: "HDF5Data"
  top: "data"
  top: "label"
  include {
    phase: TEST
  }
  hdf5_data_param {
    source: "/lustre/atlas/proj-shared/hep105/caffe_titan/minosmatch_nukecczdefs_127x50_x_unshifted_me1Bmc.testlist"
    batch_size: 10
  }
}
layer {
  name: "conv1"
  type: "Convolution"
  bottom: "data"
  top: "conv1"
  convolution_param {
    num_output: 12
    pad: 0
    stride: 1
    weight_filler {
      type: "xavier"
    }
    bias_filler {
      type: "constant"
    }
    kernel_h: 8
    kernel_w: 3
  }
}
layer {
  name: "relu1"
  type: "ReLU"
  bottom: "conv1"
  top: "conv1"
}
layer {
  name: "pool1"
  type: "Pooling"
  bottom: "conv1"
  top: "pool1"
  pooling_param {
    pool: MAX
    kernel_h: 2
    kernel_w: 1
    stride_h: 2
    stride_w: 1
  }
}
layer {
  name: "conv2"
  type: "Convolution"
  bottom: "pool1"
  top: "conv2"
  convolution_param {
    num_output: 20
    pad: 0
    stride: 1
    weight_filler {
      type: "xavier"
    }
    bias_filler {
      type: "constant"
    }
    kernel_h: 7
    kernel_w: 3
  }
}
layer {
  name: "relu2"
  type: "ReLU"
  bottom: "conv2"
  top: "conv2"
}
layer {
  name: "pool2"
  type: "Pooling"
  bottom: "conv2"
  top: "pool2"
  pooling_param {
    pool: MAX
    kernel_h: 2
    kernel_w: 1
    stride_h: 2
    stride_w: 1
  }
}
layer {
  name: "conv3"
  type: "Convolution"
  bottom: "pool2"
  top: "conv3"
  convolution_param {
    num_output: 28
    pad: 0
    stride: 1
    weight_filler {
      type: "xavier"
    }
    bias_filler {
      type: "constant"
    }
    kernel_h: 6
    kernel_w: 3
  }
}
layer {
  name: "relu3"
  type: "ReLU"
  bottom: "conv3"
  top: "conv3"
}
layer {
  name: "pool3"
  type: "Pooling"
  bottom: "conv3"
  top: "pool3"
  pooling_param {
    pool: MAX
    kernel_h: 2
    kernel_w: 1
    stride_h: 2
    stride_w: 1
  }
}
layer {
  name: "conv4"
  type: "Convolution"
  bottom: "pool3"
  top: "conv4"
  convolution_param {
    num_output: 36
    pad: 0
    stride: 1
    weight_filler {
      type: "xavier"
    }
    bias_filler {
      type: "constant"
    }
    kernel_h: 6
    kernel_w: 3
  }
}
layer {
  name: "relu4"
  type: "ReLU"
  bottom: "conv4"
  top: "conv4"
}
layer {
  name: "pool4"
  type: "Pooling"
  bottom: "conv4"
  top: "pool4"
  pooling_param {
    pool: MAX
    kernel_h: 2
    kernel_w: 1
    stride_h: 2
    stride_w: 1
  }
}
layer {
  name: "ip1"
  type: "InnerProduct"
  bottom: "pool4"
  top: "ip1"
  inner_product_param {
    num_output: 196
    weight_filler {
      type: "xavier"
    }
    bias_filler {
      type: "constant"
    }
  }
}
layer {
  name: "relu5"
  type: "ReLU"
  bottom: "ip1"
  top: "ip1"
}
layer {
  name: "drop1"
  type: "Dropout"
  bottom: "ip1"
  top: "ip1"
  dropout_param {
    dropout_ratio: 0.5
  }
}
layer {
  name: "ip2"
  type: "InnerProduct"
  bottom: "ip1"
  top: "ip2"
  inner_product_param {
    num_output: 98
    weight_filler {
      type: "xavier"
    }
    bias_filler {
      type: "constant"
    }
  }
}
layer {
  name: "relu6"
  type: "ReLU"
  bottom: "ip2"
  top: "ip2"
}
layer {
  name: "drop2"
  type: "Dropout"
  bottom: "ip2"
  top: "ip2"
  dropout_param {
    dropout_ratio: 0.5
  }
}
layer {
  name: "ip3"
  type: "InnerProduct"
  bottom: "ip2"
  top: "ip3"
  inner_product_param {
    num_output: 11
    weight_filler {
      type: "xavier"
    }
    bias_filler {
      type: "constant"
    }
  }
}
layer {
  name: "drop3"
  type: "Dropout"
  bottom: "ip3"
  top: "ip3"
  dropout_param {
    dropout_ratio: 0.5
  }
}
layer {
  name: "accuracy"
  type: "Accuracy"
  bottom: "ip3"
  bottom: "label"
  top: "accuracy"
  include {
    phase: TEST
  }
}
layer {
  name: "loss"
  type: "SoftmaxWithLoss"
  bottom: "ip3"
  bottom: "label"
  top: "loss"
}
I0526 07:02:23.838353  6929 layer_factory.hpp:77] Creating layer data_hdf5
I0526 07:02:23.838369  6929 net.cpp:106] Creating Layer data_hdf5
I0526 07:02:23.838381  6929 net.cpp:411] data_hdf5 -> data
I0526 07:02:23.838398  6929 net.cpp:411] data_hdf5 -> label
I0526 07:02:23.838414  6929 hdf5_data_layer.cpp:79] Loading list of HDF5 filenames from: /lustre/atlas/proj-shared/hep105/caffe_titan/minosmatch_nukecczdefs_127x50_x_unshifted_me1Bmc.testlist
I0526 07:02:23.849486  6929 hdf5_data_layer.cpp:93] Number of HDF5 files: 3
I0526 07:02:45.263113  6929 net.cpp:150] Setting up data_hdf5
I0526 07:02:45.263278  6929 net.cpp:157] Top shape: 10 1 127 50 (63500)
I0526 07:02:45.263293  6929 net.cpp:157] Top shape: 10 (10)
I0526 07:02:45.263303  6929 net.cpp:165] Memory required for data: 254040
I0526 07:02:45.263316  6929 layer_factory.hpp:77] Creating layer label_data_hdf5_1_split
I0526 07:02:45.263345  6929 net.cpp:106] Creating Layer label_data_hdf5_1_split
I0526 07:02:45.263356  6929 net.cpp:454] label_data_hdf5_1_split <- label
I0526 07:02:45.263370  6929 net.cpp:411] label_data_hdf5_1_split -> label_data_hdf5_1_split_0
I0526 07:02:45.263392  6929 net.cpp:411] label_data_hdf5_1_split -> label_data_hdf5_1_split_1
I0526 07:02:45.263464  6929 net.cpp:150] Setting up label_data_hdf5_1_split
I0526 07:02:45.263478  6929 net.cpp:157] Top shape: 10 (10)
I0526 07:02:45.263490  6929 net.cpp:157] Top shape: 10 (10)
I0526 07:02:45.263500  6929 net.cpp:165] Memory required for data: 254120
I0526 07:02:45.263510  6929 layer_factory.hpp:77] Creating layer conv1
I0526 07:02:45.263530  6929 net.cpp:106] Creating Layer conv1
I0526 07:02:45.263541  6929 net.cpp:454] conv1 <- data
I0526 07:02:45.263556  6929 net.cpp:411] conv1 -> conv1
I0526 07:02:45.265488  6929 net.cpp:150] Setting up conv1
I0526 07:02:45.265512  6929 net.cpp:157] Top shape: 10 12 120 48 (691200)
I0526 07:02:45.265524  6929 net.cpp:165] Memory required for data: 3018920
I0526 07:02:45.265545  6929 layer_factory.hpp:77] Creating layer relu1
I0526 07:02:45.265559  6929 net.cpp:106] Creating Layer relu1
I0526 07:02:45.265569  6929 net.cpp:454] relu1 <- conv1
I0526 07:02:45.265583  6929 net.cpp:397] relu1 -> conv1 (in-place)
I0526 07:02:45.266093  6929 net.cpp:150] Setting up relu1
I0526 07:02:45.266109  6929 net.cpp:157] Top shape: 10 12 120 48 (691200)
I0526 07:02:45.266119  6929 net.cpp:165] Memory required for data: 5783720
I0526 07:02:45.266130  6929 layer_factory.hpp:77] Creating layer pool1
I0526 07:02:45.266145  6929 net.cpp:106] Creating Layer pool1
I0526 07:02:45.266155  6929 net.cpp:454] pool1 <- conv1
I0526 07:02:45.266170  6929 net.cpp:411] pool1 -> pool1
I0526 07:02:45.266243  6929 net.cpp:150] Setting up pool1
I0526 07:02:45.266257  6929 net.cpp:157] Top shape: 10 12 60 48 (345600)
I0526 07:02:45.266266  6929 net.cpp:165] Memory required for data: 7166120
I0526 07:02:45.266278  6929 layer_factory.hpp:77] Creating layer conv2
I0526 07:02:45.266297  6929 net.cpp:106] Creating Layer conv2
I0526 07:02:45.266307  6929 net.cpp:454] conv2 <- pool1
I0526 07:02:45.266320  6929 net.cpp:411] conv2 -> conv2
I0526 07:02:45.268231  6929 net.cpp:150] Setting up conv2
I0526 07:02:45.268254  6929 net.cpp:157] Top shape: 10 20 54 46 (496800)
I0526 07:02:45.268267  6929 net.cpp:165] Memory required for data: 9153320
I0526 07:02:45.268285  6929 layer_factory.hpp:77] Creating layer relu2
I0526 07:02:45.268298  6929 net.cpp:106] Creating Layer relu2
I0526 07:02:45.268308  6929 net.cpp:454] relu2 <- conv2
I0526 07:02:45.268321  6929 net.cpp:397] relu2 -> conv2 (in-place)
I0526 07:02:45.268656  6929 net.cpp:150] Setting up relu2
I0526 07:02:45.268669  6929 net.cpp:157] Top shape: 10 20 54 46 (496800)
I0526 07:02:45.268679  6929 net.cpp:165] Memory required for data: 11140520
I0526 07:02:45.268689  6929 layer_factory.hpp:77] Creating layer pool2
I0526 07:02:45.268703  6929 net.cpp:106] Creating Layer pool2
I0526 07:02:45.268713  6929 net.cpp:454] pool2 <- conv2
I0526 07:02:45.268725  6929 net.cpp:411] pool2 -> pool2
I0526 07:02:45.268800  6929 net.cpp:150] Setting up pool2
I0526 07:02:45.268813  6929 net.cpp:157] Top shape: 10 20 27 46 (248400)
I0526 07:02:45.268823  6929 net.cpp:165] Memory required for data: 12134120
I0526 07:02:45.268833  6929 layer_factory.hpp:77] Creating layer conv3
I0526 07:02:45.268853  6929 net.cpp:106] Creating Layer conv3
I0526 07:02:45.268863  6929 net.cpp:454] conv3 <- pool2
I0526 07:02:45.268878  6929 net.cpp:411] conv3 -> conv3
I0526 07:02:45.270872  6929 net.cpp:150] Setting up conv3
I0526 07:02:45.270896  6929 net.cpp:157] Top shape: 10 28 22 44 (271040)
I0526 07:02:45.270908  6929 net.cpp:165] Memory required for data: 13218280
I0526 07:02:45.270926  6929 layer_factory.hpp:77] Creating layer relu3
I0526 07:02:45.270953  6929 net.cpp:106] Creating Layer relu3
I0526 07:02:45.270963  6929 net.cpp:454] relu3 <- conv3
I0526 07:02:45.270977  6929 net.cpp:397] relu3 -> conv3 (in-place)
I0526 07:02:45.271446  6929 net.cpp:150] Setting up relu3
I0526 07:02:45.271462  6929 net.cpp:157] Top shape: 10 28 22 44 (271040)
I0526 07:02:45.271472  6929 net.cpp:165] Memory required for data: 14302440
I0526 07:02:45.271483  6929 layer_factory.hpp:77] Creating layer pool3
I0526 07:02:45.271497  6929 net.cpp:106] Creating Layer pool3
I0526 07:02:45.271507  6929 net.cpp:454] pool3 <- conv3
I0526 07:02:45.271522  6929 net.cpp:411] pool3 -> pool3
I0526 07:02:45.271594  6929 net.cpp:150] Setting up pool3
I0526 07:02:45.271607  6929 net.cpp:157] Top shape: 10 28 11 44 (135520)
I0526 07:02:45.271616  6929 net.cpp:165] Memory required for data: 14844520
I0526 07:02:45.271625  6929 layer_factory.hpp:77] Creating layer conv4
I0526 07:02:45.271642  6929 net.cpp:106] Creating Layer conv4
I0526 07:02:45.271653  6929 net.cpp:454] conv4 <- pool3
I0526 07:02:45.271668  6929 net.cpp:411] conv4 -> conv4
I0526 07:02:45.273725  6929 net.cpp:150] Setting up conv4
I0526 07:02:45.273748  6929 net.cpp:157] Top shape: 10 36 6 42 (90720)
I0526 07:02:45.273758  6929 net.cpp:165] Memory required for data: 15207400
I0526 07:02:45.273777  6929 layer_factory.hpp:77] Creating layer relu4
I0526 07:02:45.273790  6929 net.cpp:106] Creating Layer relu4
I0526 07:02:45.273800  6929 net.cpp:454] relu4 <- conv4
I0526 07:02:45.273813  6929 net.cpp:397] relu4 -> conv4 (in-place)
I0526 07:02:45.274278  6929 net.cpp:150] Setting up relu4
I0526 07:02:45.274294  6929 net.cpp:157] Top shape: 10 36 6 42 (90720)
I0526 07:02:45.274304  6929 net.cpp:165] Memory required for data: 15570280
I0526 07:02:45.274314  6929 layer_factory.hpp:77] Creating layer pool4
I0526 07:02:45.274328  6929 net.cpp:106] Creating Layer pool4
I0526 07:02:45.274338  6929 net.cpp:454] pool4 <- conv4
I0526 07:02:45.274350  6929 net.cpp:411] pool4 -> pool4
I0526 07:02:45.274422  6929 net.cpp:150] Setting up pool4
I0526 07:02:45.274435  6929 net.cpp:157] Top shape: 10 36 3 42 (45360)
I0526 07:02:45.274446  6929 net.cpp:165] Memory required for data: 15751720
I0526 07:02:45.274452  6929 layer_factory.hpp:77] Creating layer ip1
I0526 07:02:45.274468  6929 net.cpp:106] Creating Layer ip1
I0526 07:02:45.274478  6929 net.cpp:454] ip1 <- pool4
I0526 07:02:45.274492  6929 net.cpp:411] ip1 -> ip1
I0526 07:02:45.289883  6929 net.cpp:150] Setting up ip1
I0526 07:02:45.289912  6929 net.cpp:157] Top shape: 10 196 (1960)
I0526 07:02:45.289924  6929 net.cpp:165] Memory required for data: 15759560
I0526 07:02:45.289950  6929 layer_factory.hpp:77] Creating layer relu5
I0526 07:02:45.289966  6929 net.cpp:106] Creating Layer relu5
I0526 07:02:45.289976  6929 net.cpp:454] relu5 <- ip1
I0526 07:02:45.289990  6929 net.cpp:397] relu5 -> ip1 (in-place)
I0526 07:02:45.290338  6929 net.cpp:150] Setting up relu5
I0526 07:02:45.290352  6929 net.cpp:157] Top shape: 10 196 (1960)
I0526 07:02:45.290362  6929 net.cpp:165] Memory required for data: 15767400
I0526 07:02:45.290372  6929 layer_factory.hpp:77] Creating layer drop1
I0526 07:02:45.290390  6929 net.cpp:106] Creating Layer drop1
I0526 07:02:45.290401  6929 net.cpp:454] drop1 <- ip1
I0526 07:02:45.290415  6929 net.cpp:397] drop1 -> ip1 (in-place)
I0526 07:02:45.290458  6929 net.cpp:150] Setting up drop1
I0526 07:02:45.290472  6929 net.cpp:157] Top shape: 10 196 (1960)
I0526 07:02:45.290480  6929 net.cpp:165] Memory required for data: 15775240
I0526 07:02:45.290490  6929 layer_factory.hpp:77] Creating layer ip2
I0526 07:02:45.290505  6929 net.cpp:106] Creating Layer ip2
I0526 07:02:45.290516  6929 net.cpp:454] ip2 <- ip1
I0526 07:02:45.290529  6929 net.cpp:411] ip2 -> ip2
I0526 07:02:45.291010  6929 net.cpp:150] Setting up ip2
I0526 07:02:45.291023  6929 net.cpp:157] Top shape: 10 98 (980)
I0526 07:02:45.291033  6929 net.cpp:165] Memory required for data: 15779160
I0526 07:02:45.291049  6929 layer_factory.hpp:77] Creating layer relu6
I0526 07:02:45.291074  6929 net.cpp:106] Creating Layer relu6
I0526 07:02:45.291084  6929 net.cpp:454] relu6 <- ip2
I0526 07:02:45.291097  6929 net.cpp:397] relu6 -> ip2 (in-place)
I0526 07:02:45.291627  6929 net.cpp:150] Setting up relu6
I0526 07:02:45.291643  6929 net.cpp:157] Top shape: 10 98 (980)
I0526 07:02:45.291652  6929 net.cpp:165] Memory required for data: 15783080
I0526 07:02:45.291663  6929 layer_factory.hpp:77] Creating layer drop2
I0526 07:02:45.291676  6929 net.cpp:106] Creating Layer drop2
I0526 07:02:45.291687  6929 net.cpp:454] drop2 <- ip2
I0526 07:02:45.291699  6929 net.cpp:397] drop2 -> ip2 (in-place)
I0526 07:02:45.291743  6929 net.cpp:150] Setting up drop2
I0526 07:02:45.291756  6929 net.cpp:157] Top shape: 10 98 (980)
I0526 07:02:45.291765  6929 net.cpp:165] Memory required for data: 15787000
I0526 07:02:45.291775  6929 layer_factory.hpp:77] Creating layer ip3
I0526 07:02:45.291790  6929 net.cpp:106] Creating Layer ip3
I0526 07:02:45.291800  6929 net.cpp:454] ip3 <- ip2
I0526 07:02:45.291813  6929 net.cpp:411] ip3 -> ip3
I0526 07:02:45.292034  6929 net.cpp:150] Setting up ip3
I0526 07:02:45.292047  6929 net.cpp:157] Top shape: 10 11 (110)
I0526 07:02:45.292057  6929 net.cpp:165] Memory required for data: 15787440
I0526 07:02:45.292073  6929 layer_factory.hpp:77] Creating layer drop3
I0526 07:02:45.292100  6929 net.cpp:106] Creating Layer drop3
I0526 07:02:45.292110  6929 net.cpp:454] drop3 <- ip3
I0526 07:02:45.292124  6929 net.cpp:397] drop3 -> ip3 (in-place)
I0526 07:02:45.292165  6929 net.cpp:150] Setting up drop3
I0526 07:02:45.292177  6929 net.cpp:157] Top shape: 10 11 (110)
I0526 07:02:45.292187  6929 net.cpp:165] Memory required for data: 15787880
I0526 07:02:45.292197  6929 layer_factory.hpp:77] Creating layer ip3_drop3_0_split
I0526 07:02:45.292210  6929 net.cpp:106] Creating Layer ip3_drop3_0_split
I0526 07:02:45.292220  6929 net.cpp:454] ip3_drop3_0_split <- ip3
I0526 07:02:45.292234  6929 net.cpp:411] ip3_drop3_0_split -> ip3_drop3_0_split_0
I0526 07:02:45.292249  6929 net.cpp:411] ip3_drop3_0_split -> ip3_drop3_0_split_1
I0526 07:02:45.292322  6929 net.cpp:150] Setting up ip3_drop3_0_split
I0526 07:02:45.292335  6929 net.cpp:157] Top shape: 10 11 (110)
I0526 07:02:45.292348  6929 net.cpp:157] Top shape: 10 11 (110)
I0526 07:02:45.292358  6929 net.cpp:165] Memory required for data: 15788760
I0526 07:02:45.292368  6929 layer_factory.hpp:77] Creating layer accuracy
I0526 07:02:45.292389  6929 net.cpp:106] Creating Layer accuracy
I0526 07:02:45.292399  6929 net.cpp:454] accuracy <- ip3_drop3_0_split_0
I0526 07:02:45.292412  6929 net.cpp:454] accuracy <- label_data_hdf5_1_split_0
I0526 07:02:45.292425  6929 net.cpp:411] accuracy -> accuracy
…
