…
I0521 19:40:44.748586  7510 net.cpp:322] The NetState phase (0) differed from the phase (1) specified by a rule in layer data_hdf5
I0521 19:40:44.748646  7510 net.cpp:322] The NetState phase (0) differed from the phase (1) specified by a rule in layer accuracy
I0521 19:40:44.749002  7510 net.cpp:49] Initializing net from parameters: 
name: "caffe_test_127x50_x_unshifted"
state {
  phase: TRAIN
}
layer {
  name: "data_hdf5"
  type: "HDF5Data"
  top: "data"
  top: "label"
  include {
    phase: TRAIN
  }
  hdf5_data_param {
    source: "/lustre/atlas/proj-shared/hep105/caffe_titan/minosmatch_nukecczdefs_127x50_x_unshifted_me1Bmc.trainlist"
    batch_size: 10
  }
}
layer {
  name: "conv1"
  type: "Convolution"
  bottom: "data"
  top: "conv1"
  convolution_param {
    num_output: 12
    pad: 0
    stride: 1
    weight_filler {
      type: "xavier"
    }
    bias_filler {
      type: "constant"
    }
    kernel_h: 8
    kernel_w: 3
  }
}
layer {
  name: "relu1"
  type: "ReLU"
  bottom: "conv1"
  top: "conv1"
}
layer {
  name: "pool1"
  type: "Pooling"
  bottom: "conv1"
  top: "pool1"
  pooling_param {
    pool: MAX
    kernel_h: 2
    kernel_w: 1
    stride_h: 2
    stride_w: 1
  }
}
layer {
  name: "conv2"
  type: "Convolution"
  bottom: "pool1"
  top: "conv2"
  convolution_param {
    num_output: 20
    pad: 0
    stride: 1
    weight_filler {
      type: "xavier"
    }
    bias_filler {
      type: "constant"
    }
    kernel_h: 7
    kernel_w: 3
  }
}
layer {
  name: "relu2"
  type: "ReLU"
  bottom: "conv2"
  top: "conv2"
}
layer {
  name: "pool2"
  type: "Pooling"
  bottom: "conv2"
  top: "pool2"
  pooling_param {
    pool: MAX
    kernel_h: 2
    kernel_w: 1
    stride_h: 2
    stride_w: 1
  }
}
layer {
  name: "conv3"
  type: "Convolution"
  bottom: "pool2"
  top: "conv3"
  convolution_param {
    num_output: 28
    pad: 0
    stride: 1
    weight_filler {
      type: "xavier"
    }
    bias_filler {
      type: "constant"
    }
    kernel_h: 6
    kernel_w: 3
  }
}
layer {
  name: "relu3"
  type: "ReLU"
  bottom: "conv3"
  top: "conv3"
}
layer {
  name: "pool3"
  type: "Pooling"
  bottom: "conv3"
  top: "pool3"
  pooling_param {
    pool: MAX
    kernel_h: 2
    kernel_w: 1
    stride_h: 2
    stride_w: 1
  }
}
layer {
  name: "conv4"
  type: "Convolution"
  bottom: "pool3"
  top: "conv4"
  convolution_param {
    num_output: 36
    pad: 0
    stride: 1
    weight_filler {
      type: "xavier"
    }
    bias_filler {
      type: "constant"
    }
    kernel_h: 6
    kernel_w: 3
  }
}
layer {
  name: "relu4"
  type: "ReLU"
  bottom: "conv4"
  top: "conv4"
}
layer {
  name: "pool4"
  type: "Pooling"
  bottom: "conv4"
  top: "pool4"
  pooling_param {
    pool: MAX
    kernel_h: 2
    kernel_w: 1
    stride_h: 2
    stride_w: 1
  }
}
layer {
  name: "ip1"
  type: "InnerProduct"
  bottom: "pool4"
  top: "ip1"
  inner_product_param {
    num_output: 196
    weight_filler {
      type: "xavier"
    }
    bias_filler {
      type: "constant"
    }
  }
}
layer {
  name: "relu5"
  type: "ReLU"
  bottom: "ip1"
  top: "ip1"
}
layer {
  name: "drop1"
  type: "Dropout"
  bottom: "ip1"
  top: "ip1"
  dropout_param {
    dropout_ratio: 0.5
  }
}
layer {
  name: "ip2"
  type: "InnerProduct"
  bottom: "ip1"
  top: "ip2"
  inner_product_param {
    num_output: 98
    weight_filler {
      type: "xavier"
    }
    bias_filler {
      type: "constant"
    }
  }
}
layer {
  name: "relu6"
  type: "ReLU"
  bottom: "ip2"
  top: "ip2"
}
layer {
  name: "drop2"
  type: "Dropout"
  bottom: "ip2"
  top: "ip2"
  dropout_param {
    dropout_ratio: 0.5
  }
}
layer {
  name: "ip3"
  type: "InnerProduct"
  bottom: "ip2"
  top: "ip3"
  inner_product_param {
    num_output: 11
    weight_filler {
      type: "xavier"
    }
    bias_filler {
      type: "constant"
    }
  }
}
layer {
  name: "drop3"
  type: "Dropout"
  bottom: "ip3"
  top: "ip3"
  dropout_param {
    dropout_ratio: 0.5
  }
}
layer {
  name: "loss"
  type: "SoftmaxWithLoss"
  bottom: "ip3"
  bottom: "label"
  top: "loss"
}
I0521 19:40:44.749181  7510 layer_factory.hpp:77] Creating layer data_hdf5
I0521 19:40:44.749203  7510 net.cpp:106] Creating Layer data_hdf5
I0521 19:40:44.749217  7510 net.cpp:411] data_hdf5 -> data
I0521 19:40:44.749250  7510 net.cpp:411] data_hdf5 -> label
I0521 19:40:44.749282  7510 hdf5_data_layer.cpp:79] Loading list of HDF5 filenames from: /lustre/atlas/proj-shared/hep105/caffe_titan/minosmatch_nukecczdefs_127x50_x_unshifted_me1Bmc.trainlist
I0521 19:40:44.750519  7510 hdf5_data_layer.cpp:93] Number of HDF5 files: 15
I0521 19:40:44.780124  7510 hdf5.cpp:32] Datatype class: H5T_FLOAT
I0521 19:41:06.316781  7510 hdf5.cpp:35] Datatype class: H5T_INTEGER
I0521 19:41:06.321955  7510 net.cpp:150] Setting up data_hdf5
I0521 19:41:06.321995  7510 net.cpp:157] Top shape: 10 1 127 50 (63500)
I0521 19:41:06.322010  7510 net.cpp:157] Top shape: 10 (10)
I0521 19:41:06.322022  7510 net.cpp:165] Memory required for data: 254040
I0521 19:41:06.322036  7510 layer_factory.hpp:77] Creating layer conv1
I0521 19:41:06.322070  7510 net.cpp:106] Creating Layer conv1
I0521 19:41:06.322082  7510 net.cpp:454] conv1 <- data
I0521 19:41:06.322103  7510 net.cpp:411] conv1 -> conv1
I0521 19:41:06.685190  7510 net.cpp:150] Setting up conv1
I0521 19:41:06.685237  7510 net.cpp:157] Top shape: 10 12 120 48 (691200)
I0521 19:41:06.685250  7510 net.cpp:165] Memory required for data: 3018840
I0521 19:41:06.685278  7510 layer_factory.hpp:77] Creating layer relu1
I0521 19:41:06.685299  7510 net.cpp:106] Creating Layer relu1
I0521 19:41:06.685310  7510 net.cpp:454] relu1 <- conv1
I0521 19:41:06.685324  7510 net.cpp:397] relu1 -> conv1 (in-place)
I0521 19:41:06.685852  7510 net.cpp:150] Setting up relu1
I0521 19:41:06.685868  7510 net.cpp:157] Top shape: 10 12 120 48 (691200)
I0521 19:41:06.685879  7510 net.cpp:165] Memory required for data: 5783640
I0521 19:41:06.685890  7510 layer_factory.hpp:77] Creating layer pool1
I0521 19:41:06.685906  7510 net.cpp:106] Creating Layer pool1
I0521 19:41:06.685916  7510 net.cpp:454] pool1 <- conv1
I0521 19:41:06.685930  7510 net.cpp:411] pool1 -> pool1
I0521 19:41:06.686010  7510 net.cpp:150] Setting up pool1
I0521 19:41:06.686024  7510 net.cpp:157] Top shape: 10 12 60 48 (345600)
I0521 19:41:06.686034  7510 net.cpp:165] Memory required for data: 7166040
I0521 19:41:06.686043  7510 layer_factory.hpp:77] Creating layer conv2
I0521 19:41:06.686065  7510 net.cpp:106] Creating Layer conv2
I0521 19:41:06.686075  7510 net.cpp:454] conv2 <- pool1
I0521 19:41:06.686089  7510 net.cpp:411] conv2 -> conv2
I0521 19:41:06.688778  7510 net.cpp:150] Setting up conv2
I0521 19:41:06.688807  7510 net.cpp:157] Top shape: 10 20 54 46 (496800)
I0521 19:41:06.688817  7510 net.cpp:165] Memory required for data: 9153240
I0521 19:41:06.688835  7510 layer_factory.hpp:77] Creating layer relu2
I0521 19:41:06.688849  7510 net.cpp:106] Creating Layer relu2
I0521 19:41:06.688859  7510 net.cpp:454] relu2 <- conv2
I0521 19:41:06.688882  7510 net.cpp:397] relu2 -> conv2 (in-place)
I0521 19:41:06.689214  7510 net.cpp:150] Setting up relu2
I0521 19:41:06.689229  7510 net.cpp:157] Top shape: 10 20 54 46 (496800)
I0521 19:41:06.689239  7510 net.cpp:165] Memory required for data: 11140440
I0521 19:41:06.689249  7510 layer_factory.hpp:77] Creating layer pool2
I0521 19:41:06.689261  7510 net.cpp:106] Creating Layer pool2
I0521 19:41:06.689271  7510 net.cpp:454] pool2 <- conv2
I0521 19:41:06.689285  7510 net.cpp:411] pool2 -> pool2
I0521 19:41:06.689364  7510 net.cpp:150] Setting up pool2
I0521 19:41:06.689378  7510 net.cpp:157] Top shape: 10 20 27 46 (248400)
I0521 19:41:06.689388  7510 net.cpp:165] Memory required for data: 12134040
I0521 19:41:06.689395  7510 layer_factory.hpp:77] Creating layer conv3
I0521 19:41:06.689414  7510 net.cpp:106] Creating Layer conv3
I0521 19:41:06.689424  7510 net.cpp:454] conv3 <- pool2
I0521 19:41:06.689436  7510 net.cpp:411] conv3 -> conv3
I0521 19:41:06.691522  7510 net.cpp:150] Setting up conv3
I0521 19:41:06.691546  7510 net.cpp:157] Top shape: 10 28 22 44 (271040)
I0521 19:41:06.691558  7510 net.cpp:165] Memory required for data: 13218200
I0521 19:41:06.691577  7510 layer_factory.hpp:77] Creating layer relu3
I0521 19:41:06.691593  7510 net.cpp:106] Creating Layer relu3
I0521 19:41:06.691603  7510 net.cpp:454] relu3 <- conv3
I0521 19:41:06.691615  7510 net.cpp:397] relu3 -> conv3 (in-place)
I0521 19:41:06.692080  7510 net.cpp:150] Setting up relu3
I0521 19:41:06.692098  7510 net.cpp:157] Top shape: 10 28 22 44 (271040)
I0521 19:41:06.692109  7510 net.cpp:165] Memory required for data: 14302360
I0521 19:41:06.692119  7510 layer_factory.hpp:77] Creating layer pool3
I0521 19:41:06.692132  7510 net.cpp:106] Creating Layer pool3
I0521 19:41:06.692142  7510 net.cpp:454] pool3 <- conv3
I0521 19:41:06.692155  7510 net.cpp:411] pool3 -> pool3
I0521 19:41:06.692222  7510 net.cpp:150] Setting up pool3
I0521 19:41:06.692235  7510 net.cpp:157] Top shape: 10 28 11 44 (135520)
I0521 19:41:06.692245  7510 net.cpp:165] Memory required for data: 14844440
I0521 19:41:06.692252  7510 layer_factory.hpp:77] Creating layer conv4
I0521 19:41:06.692270  7510 net.cpp:106] Creating Layer conv4
I0521 19:41:06.692281  7510 net.cpp:454] conv4 <- pool3
I0521 19:41:06.692293  7510 net.cpp:411] conv4 -> conv4
I0521 19:41:06.695019  7510 net.cpp:150] Setting up conv4
I0521 19:41:06.695041  7510 net.cpp:157] Top shape: 10 36 6 42 (90720)
I0521 19:41:06.695052  7510 net.cpp:165] Memory required for data: 15207320
I0521 19:41:06.695067  7510 layer_factory.hpp:77] Creating layer relu4
I0521 19:41:06.695082  7510 net.cpp:106] Creating Layer relu4
I0521 19:41:06.695092  7510 net.cpp:454] relu4 <- conv4
I0521 19:41:06.695104  7510 net.cpp:397] relu4 -> conv4 (in-place)
I0521 19:41:06.695600  7510 net.cpp:150] Setting up relu4
I0521 19:41:06.695616  7510 net.cpp:157] Top shape: 10 36 6 42 (90720)
I0521 19:41:06.695626  7510 net.cpp:165] Memory required for data: 15570200
I0521 19:41:06.695637  7510 layer_factory.hpp:77] Creating layer pool4
I0521 19:41:06.695650  7510 net.cpp:106] Creating Layer pool4
I0521 19:41:06.695660  7510 net.cpp:454] pool4 <- conv4
I0521 19:41:06.695673  7510 net.cpp:411] pool4 -> pool4
I0521 19:41:06.695741  7510 net.cpp:150] Setting up pool4
I0521 19:41:06.695755  7510 net.cpp:157] Top shape: 10 36 3 42 (45360)
I0521 19:41:06.695765  7510 net.cpp:165] Memory required for data: 15751640
I0521 19:41:06.695773  7510 layer_factory.hpp:77] Creating layer ip1
I0521 19:41:06.695794  7510 net.cpp:106] Creating Layer ip1
I0521 19:41:06.695804  7510 net.cpp:454] ip1 <- pool4
I0521 19:41:06.695817  7510 net.cpp:411] ip1 -> ip1
I0521 19:41:06.711256  7510 net.cpp:150] Setting up ip1
I0521 19:41:06.711283  7510 net.cpp:157] Top shape: 10 196 (1960)
I0521 19:41:06.711295  7510 net.cpp:165] Memory required for data: 15759480
I0521 19:41:06.711318  7510 layer_factory.hpp:77] Creating layer relu5
I0521 19:41:06.711333  7510 net.cpp:106] Creating Layer relu5
I0521 19:41:06.711343  7510 net.cpp:454] relu5 <- ip1
I0521 19:41:06.711355  7510 net.cpp:397] relu5 -> ip1 (in-place)
I0521 19:41:06.711699  7510 net.cpp:150] Setting up relu5
I0521 19:41:06.711714  7510 net.cpp:157] Top shape: 10 196 (1960)
I0521 19:41:06.711724  7510 net.cpp:165] Memory required for data: 15767320
I0521 19:41:06.711733  7510 layer_factory.hpp:77] Creating layer drop1
I0521 19:41:06.711755  7510 net.cpp:106] Creating Layer drop1
I0521 19:41:06.711765  7510 net.cpp:454] drop1 <- ip1
I0521 19:41:06.711777  7510 net.cpp:397] drop1 -> ip1 (in-place)
I0521 19:41:06.711838  7510 net.cpp:150] Setting up drop1
I0521 19:41:06.711850  7510 net.cpp:157] Top shape: 10 196 (1960)
I0521 19:41:06.711859  7510 net.cpp:165] Memory required for data: 15775160
I0521 19:41:06.711869  7510 layer_factory.hpp:77] Creating layer ip2
I0521 19:41:06.711889  7510 net.cpp:106] Creating Layer ip2
I0521 19:41:06.711899  7510 net.cpp:454] ip2 <- ip1
I0521 19:41:06.711911  7510 net.cpp:411] ip2 -> ip2
I0521 19:41:06.712376  7510 net.cpp:150] Setting up ip2
I0521 19:41:06.712389  7510 net.cpp:157] Top shape: 10 98 (980)
I0521 19:41:06.712399  7510 net.cpp:165] Memory required for data: 15779080
I0521 19:41:06.712414  7510 layer_factory.hpp:77] Creating layer relu6
I0521 19:41:06.712426  7510 net.cpp:106] Creating Layer relu6
I0521 19:41:06.712436  7510 net.cpp:454] relu6 <- ip2
I0521 19:41:06.712448  7510 net.cpp:397] relu6 -> ip2 (in-place)
I0521 19:41:06.712975  7510 net.cpp:150] Setting up relu6
I0521 19:41:06.712991  7510 net.cpp:157] Top shape: 10 98 (980)
I0521 19:41:06.713001  7510 net.cpp:165] Memory required for data: 15783000
I0521 19:41:06.713011  7510 layer_factory.hpp:77] Creating layer drop2
I0521 19:41:06.713024  7510 net.cpp:106] Creating Layer drop2
I0521 19:41:06.713033  7510 net.cpp:454] drop2 <- ip2
I0521 19:41:06.713045  7510 net.cpp:397] drop2 -> ip2 (in-place)
I0521 19:41:06.713089  7510 net.cpp:150] Setting up drop2
I0521 19:41:06.713102  7510 net.cpp:157] Top shape: 10 98 (980)
I0521 19:41:06.713112  7510 net.cpp:165] Memory required for data: 15786920
I0521 19:41:06.713122  7510 layer_factory.hpp:77] Creating layer ip3
I0521 19:41:06.713135  7510 net.cpp:106] Creating Layer ip3
I0521 19:41:06.713145  7510 net.cpp:454] ip3 <- ip2
I0521 19:41:06.713157  7510 net.cpp:411] ip3 -> ip3
I0521 19:41:06.713366  7510 net.cpp:150] Setting up ip3
I0521 19:41:06.713377  7510 net.cpp:157] Top shape: 10 11 (110)
I0521 19:41:06.713387  7510 net.cpp:165] Memory required for data: 15787360
I0521 19:41:06.713402  7510 layer_factory.hpp:77] Creating layer drop3
I0521 19:41:06.713415  7510 net.cpp:106] Creating Layer drop3
I0521 19:41:06.713425  7510 net.cpp:454] drop3 <- ip3
I0521 19:41:06.713438  7510 net.cpp:397] drop3 -> ip3 (in-place)
I0521 19:41:06.713475  7510 net.cpp:150] Setting up drop3
I0521 19:41:06.713488  7510 net.cpp:157] Top shape: 10 11 (110)
I0521 19:41:06.713498  7510 net.cpp:165] Memory required for data: 15787800
I0521 19:41:06.713507  7510 layer_factory.hpp:77] Creating layer loss
I0521 19:41:06.713526  7510 net.cpp:106] Creating Layer loss
I0521 19:41:06.713536  7510 net.cpp:454] loss <- ip3
I0521 19:41:06.713547  7510 net.cpp:454] loss <- label
I0521 19:41:06.713559  7510 net.cpp:411] loss -> loss
I0521 19:41:06.713577  7510 layer_factory.hpp:77] Creating layer loss
…
I0521 19:41:06.716223  7510 solver.cpp:181] Creating test net (#0) specified by net file: /lustre/atlas/proj-shared/hep105/caffe_titan/caffe_workflow/logs_bslr/bs_10_lr_0.0050_2016-05-20T15.48.52.831864.prototxt
I0521 19:41:06.716295  7510 net.cpp:322] The NetState phase (1) differed from the phase (0) specified by a rule in layer data_hdf5
I0521 19:41:06.716645  7510 net.cpp:49] Initializing net from parameters: 
name: "caffe_test_127x50_x_unshifted"
state {
  phase: TEST
}
layer {
  name: "data_hdf5"
  type: "HDF5Data"
  top: "data"
  top: "label"
  include {
    phase: TEST
  }
  hdf5_data_param {
    source: "/lustre/atlas/proj-shared/hep105/caffe_titan/minosmatch_nukecczdefs_127x50_x_unshifted_me1Bmc.testlist"
    batch_size: 10
  }
}
layer {
  name: "conv1"
  type: "Convolution"
  bottom: "data"
  top: "conv1"
  convolution_param {
    num_output: 12
    pad: 0
    stride: 1
    weight_filler {
      type: "xavier"
    }
    bias_filler {
      type: "constant"
    }
    kernel_h: 8
    kernel_w: 3
  }
}
layer {
  name: "relu1"
  type: "ReLU"
  bottom: "conv1"
  top: "conv1"
}
layer {
  name: "pool1"
  type: "Pooling"
  bottom: "conv1"
  top: "pool1"
  pooling_param {
    pool: MAX
    kernel_h: 2
    kernel_w: 1
    stride_h: 2
    stride_w: 1
  }
}
layer {
  name: "conv2"
  type: "Convolution"
  bottom: "pool1"
  top: "conv2"
  convolution_param {
    num_output: 20
    pad: 0
    stride: 1
    weight_filler {
      type: "xavier"
    }
    bias_filler {
      type: "constant"
    }
    kernel_h: 7
    kernel_w: 3
  }
}
layer {
  name: "relu2"
  type: "ReLU"
  bottom: "conv2"
  top: "conv2"
}
layer {
  name: "pool2"
  type: "Pooling"
  bottom: "conv2"
  top: "pool2"
  pooling_param {
    pool: MAX
    kernel_h: 2
    kernel_w: 1
    stride_h: 2
    stride_w: 1
  }
}
layer {
  name: "conv3"
  type: "Convolution"
  bottom: "pool2"
  top: "conv3"
  convolution_param {
    num_output: 28
    pad: 0
    stride: 1
    weight_filler {
      type: "xavier"
    }
    bias_filler {
      type: "constant"
    }
    kernel_h: 6
    kernel_w: 3
  }
}
layer {
  name: "relu3"
  type: "ReLU"
  bottom: "conv3"
  top: "conv3"
}
layer {
  name: "pool3"
  type: "Pooling"
  bottom: "conv3"
  top: "pool3"
  pooling_param {
    pool: MAX
    kernel_h: 2
    kernel_w: 1
    stride_h: 2
    stride_w: 1
  }
}
layer {
  name: "conv4"
  type: "Convolution"
  bottom: "pool3"
  top: "conv4"
  convolution_param {
    num_output: 36
    pad: 0
    stride: 1
    weight_filler {
      type: "xavier"
    }
    bias_filler {
      type: "constant"
    }
    kernel_h: 6
    kernel_w: 3
  }
}
layer {
  name: "relu4"
  type: "ReLU"
  bottom: "conv4"
  top: "conv4"
}
layer {
  name: "pool4"
  type: "Pooling"
  bottom: "conv4"
  top: "pool4"
  pooling_param {
    pool: MAX
    kernel_h: 2
    kernel_w: 1
    stride_h: 2
    stride_w: 1
  }
}
layer {
  name: "ip1"
  type: "InnerProduct"
  bottom: "pool4"
  top: "ip1"
  inner_product_param {
    num_output: 196
    weight_filler {
      type: "xavier"
    }
    bias_filler {
      type: "constant"
    }
  }
}
layer {
  name: "relu5"
  type: "ReLU"
  bottom: "ip1"
  top: "ip1"
}
layer {
  name: "drop1"
  type: "Dropout"
  bottom: "ip1"
  top: "ip1"
  dropout_param {
    dropout_ratio: 0.5
  }
}
layer {
  name: "ip2"
  type: "InnerProduct"
  bottom: "ip1"
  top: "ip2"
  inner_product_param {
    num_output: 98
    weight_filler {
      type: "xavier"
    }
    bias_filler {
      type: "constant"
    }
  }
}
layer {
  name: "relu6"
  type: "ReLU"
  bottom: "ip2"
  top: "ip2"
}
layer {
  name: "drop2"
  type: "Dropout"
  bottom: "ip2"
  top: "ip2"
  dropout_param {
    dropout_ratio: 0.5
  }
}
layer {
  name: "ip3"
  type: "InnerProduct"
  bottom: "ip2"
  top: "ip3"
  inner_product_param {
    num_output: 11
    weight_filler {
      type: "xavier"
    }
    bias_filler {
      type: "constant"
    }
  }
}
layer {
  name: "drop3"
  type: "Dropout"
  bottom: "ip3"
  top: "ip3"
  dropout_param {
    dropout_ratio: 0.5
  }
}
layer {
  name: "accuracy"
  type: "Accuracy"
  bottom: "ip3"
  bottom: "label"
  top: "accuracy"
  include {
    phase: TEST
  }
}
layer {
  name: "loss"
  type: "SoftmaxWithLoss"
  bottom: "ip3"
  bottom: "label"
  top: "loss"
}
I0521 19:41:06.716835  7510 layer_factory.hpp:77] Creating layer data_hdf5
I0521 19:41:06.716850  7510 net.cpp:106] Creating Layer data_hdf5
I0521 19:41:06.716862  7510 net.cpp:411] data_hdf5 -> data
I0521 19:41:06.716894  7510 net.cpp:411] data_hdf5 -> label
I0521 19:41:06.716910  7510 hdf5_data_layer.cpp:79] Loading list of HDF5 filenames from: /lustre/atlas/proj-shared/hep105/caffe_titan/minosmatch_nukecczdefs_127x50_x_unshifted_me1Bmc.testlist
I0521 19:41:06.718189  7510 hdf5_data_layer.cpp:93] Number of HDF5 files: 3
I0521 19:41:28.019793  7510 net.cpp:150] Setting up data_hdf5
I0521 19:41:28.019959  7510 net.cpp:157] Top shape: 10 1 127 50 (63500)
I0521 19:41:28.019973  7510 net.cpp:157] Top shape: 10 (10)
I0521 19:41:28.019986  7510 net.cpp:165] Memory required for data: 254040
I0521 19:41:28.019999  7510 layer_factory.hpp:77] Creating layer label_data_hdf5_1_split
I0521 19:41:28.020027  7510 net.cpp:106] Creating Layer label_data_hdf5_1_split
I0521 19:41:28.020038  7510 net.cpp:454] label_data_hdf5_1_split <- label
I0521 19:41:28.020052  7510 net.cpp:411] label_data_hdf5_1_split -> label_data_hdf5_1_split_0
I0521 19:41:28.020074  7510 net.cpp:411] label_data_hdf5_1_split -> label_data_hdf5_1_split_1
I0521 19:41:28.020146  7510 net.cpp:150] Setting up label_data_hdf5_1_split
I0521 19:41:28.020160  7510 net.cpp:157] Top shape: 10 (10)
I0521 19:41:28.020172  7510 net.cpp:157] Top shape: 10 (10)
I0521 19:41:28.020181  7510 net.cpp:165] Memory required for data: 254120
I0521 19:41:28.020191  7510 layer_factory.hpp:77] Creating layer conv1
I0521 19:41:28.020213  7510 net.cpp:106] Creating Layer conv1
I0521 19:41:28.020225  7510 net.cpp:454] conv1 <- data
I0521 19:41:28.020239  7510 net.cpp:411] conv1 -> conv1
I0521 19:41:28.022177  7510 net.cpp:150] Setting up conv1
I0521 19:41:28.022200  7510 net.cpp:157] Top shape: 10 12 120 48 (691200)
I0521 19:41:28.022213  7510 net.cpp:165] Memory required for data: 3018920
I0521 19:41:28.022233  7510 layer_factory.hpp:77] Creating layer relu1
I0521 19:41:28.022248  7510 net.cpp:106] Creating Layer relu1
I0521 19:41:28.022258  7510 net.cpp:454] relu1 <- conv1
I0521 19:41:28.022270  7510 net.cpp:397] relu1 -> conv1 (in-place)
I0521 19:41:28.022775  7510 net.cpp:150] Setting up relu1
I0521 19:41:28.022792  7510 net.cpp:157] Top shape: 10 12 120 48 (691200)
I0521 19:41:28.022802  7510 net.cpp:165] Memory required for data: 5783720
I0521 19:41:28.022812  7510 layer_factory.hpp:77] Creating layer pool1
I0521 19:41:28.022828  7510 net.cpp:106] Creating Layer pool1
I0521 19:41:28.022838  7510 net.cpp:454] pool1 <- conv1
I0521 19:41:28.022851  7510 net.cpp:411] pool1 -> pool1
I0521 19:41:28.022925  7510 net.cpp:150] Setting up pool1
I0521 19:41:28.022938  7510 net.cpp:157] Top shape: 10 12 60 48 (345600)
I0521 19:41:28.022948  7510 net.cpp:165] Memory required for data: 7166120
I0521 19:41:28.022959  7510 layer_factory.hpp:77] Creating layer conv2
I0521 19:41:28.022976  7510 net.cpp:106] Creating Layer conv2
I0521 19:41:28.022986  7510 net.cpp:454] conv2 <- pool1
I0521 19:41:28.023000  7510 net.cpp:411] conv2 -> conv2
I0521 19:41:28.024907  7510 net.cpp:150] Setting up conv2
I0521 19:41:28.024924  7510 net.cpp:157] Top shape: 10 20 54 46 (496800)
I0521 19:41:28.024940  7510 net.cpp:165] Memory required for data: 9153320
I0521 19:41:28.024960  7510 layer_factory.hpp:77] Creating layer relu2
I0521 19:41:28.024973  7510 net.cpp:106] Creating Layer relu2
I0521 19:41:28.024983  7510 net.cpp:454] relu2 <- conv2
I0521 19:41:28.024996  7510 net.cpp:397] relu2 -> conv2 (in-place)
I0521 19:41:28.025331  7510 net.cpp:150] Setting up relu2
I0521 19:41:28.025344  7510 net.cpp:157] Top shape: 10 20 54 46 (496800)
I0521 19:41:28.025354  7510 net.cpp:165] Memory required for data: 11140520
I0521 19:41:28.025364  7510 layer_factory.hpp:77] Creating layer pool2
I0521 19:41:28.025377  7510 net.cpp:106] Creating Layer pool2
I0521 19:41:28.025388  7510 net.cpp:454] pool2 <- conv2
I0521 19:41:28.025399  7510 net.cpp:411] pool2 -> pool2
I0521 19:41:28.025472  7510 net.cpp:150] Setting up pool2
I0521 19:41:28.025485  7510 net.cpp:157] Top shape: 10 20 27 46 (248400)
I0521 19:41:28.025495  7510 net.cpp:165] Memory required for data: 12134120
I0521 19:41:28.025506  7510 layer_factory.hpp:77] Creating layer conv3
I0521 19:41:28.025523  7510 net.cpp:106] Creating Layer conv3
I0521 19:41:28.025534  7510 net.cpp:454] conv3 <- pool2
I0521 19:41:28.025548  7510 net.cpp:411] conv3 -> conv3
I0521 19:41:28.027546  7510 net.cpp:150] Setting up conv3
I0521 19:41:28.027570  7510 net.cpp:157] Top shape: 10 28 22 44 (271040)
I0521 19:41:28.027581  7510 net.cpp:165] Memory required for data: 13218280
I0521 19:41:28.027600  7510 layer_factory.hpp:77] Creating layer relu3
I0521 19:41:28.027626  7510 net.cpp:106] Creating Layer relu3
I0521 19:41:28.027637  7510 net.cpp:454] relu3 <- conv3
I0521 19:41:28.027650  7510 net.cpp:397] relu3 -> conv3 (in-place)
I0521 19:41:28.028122  7510 net.cpp:150] Setting up relu3
I0521 19:41:28.028138  7510 net.cpp:157] Top shape: 10 28 22 44 (271040)
I0521 19:41:28.028149  7510 net.cpp:165] Memory required for data: 14302440
I0521 19:41:28.028158  7510 layer_factory.hpp:77] Creating layer pool3
I0521 19:41:28.028172  7510 net.cpp:106] Creating Layer pool3
I0521 19:41:28.028182  7510 net.cpp:454] pool3 <- conv3
I0521 19:41:28.028194  7510 net.cpp:411] pool3 -> pool3
I0521 19:41:28.028265  7510 net.cpp:150] Setting up pool3
I0521 19:41:28.028278  7510 net.cpp:157] Top shape: 10 28 11 44 (135520)
I0521 19:41:28.028288  7510 net.cpp:165] Memory required for data: 14844520
I0521 19:41:28.028298  7510 layer_factory.hpp:77] Creating layer conv4
I0521 19:41:28.028316  7510 net.cpp:106] Creating Layer conv4
I0521 19:41:28.028326  7510 net.cpp:454] conv4 <- pool3
I0521 19:41:28.028339  7510 net.cpp:411] conv4 -> conv4
I0521 19:41:28.030416  7510 net.cpp:150] Setting up conv4
I0521 19:41:28.030437  7510 net.cpp:157] Top shape: 10 36 6 42 (90720)
I0521 19:41:28.030447  7510 net.cpp:165] Memory required for data: 15207400
I0521 19:41:28.030462  7510 layer_factory.hpp:77] Creating layer relu4
I0521 19:41:28.030475  7510 net.cpp:106] Creating Layer relu4
I0521 19:41:28.030485  7510 net.cpp:454] relu4 <- conv4
I0521 19:41:28.030498  7510 net.cpp:397] relu4 -> conv4 (in-place)
I0521 19:41:28.030964  7510 net.cpp:150] Setting up relu4
I0521 19:41:28.030980  7510 net.cpp:157] Top shape: 10 36 6 42 (90720)
I0521 19:41:28.030990  7510 net.cpp:165] Memory required for data: 15570280
I0521 19:41:28.031000  7510 layer_factory.hpp:77] Creating layer pool4
I0521 19:41:28.031013  7510 net.cpp:106] Creating Layer pool4
I0521 19:41:28.031023  7510 net.cpp:454] pool4 <- conv4
I0521 19:41:28.031036  7510 net.cpp:411] pool4 -> pool4
I0521 19:41:28.031108  7510 net.cpp:150] Setting up pool4
I0521 19:41:28.031121  7510 net.cpp:157] Top shape: 10 36 3 42 (45360)
I0521 19:41:28.031131  7510 net.cpp:165] Memory required for data: 15751720
I0521 19:41:28.031139  7510 layer_factory.hpp:77] Creating layer ip1
I0521 19:41:28.031155  7510 net.cpp:106] Creating Layer ip1
I0521 19:41:28.031165  7510 net.cpp:454] ip1 <- pool4
I0521 19:41:28.031179  7510 net.cpp:411] ip1 -> ip1
I0521 19:41:28.046608  7510 net.cpp:150] Setting up ip1
I0521 19:41:28.046636  7510 net.cpp:157] Top shape: 10 196 (1960)
I0521 19:41:28.046648  7510 net.cpp:165] Memory required for data: 15759560
I0521 19:41:28.046670  7510 layer_factory.hpp:77] Creating layer relu5
I0521 19:41:28.046685  7510 net.cpp:106] Creating Layer relu5
I0521 19:41:28.046695  7510 net.cpp:454] relu5 <- ip1
I0521 19:41:28.046708  7510 net.cpp:397] relu5 -> ip1 (in-place)
I0521 19:41:28.047056  7510 net.cpp:150] Setting up relu5
I0521 19:41:28.047070  7510 net.cpp:157] Top shape: 10 196 (1960)
I0521 19:41:28.047081  7510 net.cpp:165] Memory required for data: 15767400
I0521 19:41:28.047091  7510 layer_factory.hpp:77] Creating layer drop1
I0521 19:41:28.047109  7510 net.cpp:106] Creating Layer drop1
I0521 19:41:28.047119  7510 net.cpp:454] drop1 <- ip1
I0521 19:41:28.047132  7510 net.cpp:397] drop1 -> ip1 (in-place)
I0521 19:41:28.047178  7510 net.cpp:150] Setting up drop1
I0521 19:41:28.047190  7510 net.cpp:157] Top shape: 10 196 (1960)
I0521 19:41:28.047199  7510 net.cpp:165] Memory required for data: 15775240
I0521 19:41:28.047209  7510 layer_factory.hpp:77] Creating layer ip2
I0521 19:41:28.047224  7510 net.cpp:106] Creating Layer ip2
I0521 19:41:28.047232  7510 net.cpp:454] ip2 <- ip1
I0521 19:41:28.047246  7510 net.cpp:411] ip2 -> ip2
I0521 19:41:28.047724  7510 net.cpp:150] Setting up ip2
I0521 19:41:28.047736  7510 net.cpp:157] Top shape: 10 98 (980)
I0521 19:41:28.047746  7510 net.cpp:165] Memory required for data: 15779160
I0521 19:41:28.047761  7510 layer_factory.hpp:77] Creating layer relu6
I0521 19:41:28.047786  7510 net.cpp:106] Creating Layer relu6
I0521 19:41:28.047796  7510 net.cpp:454] relu6 <- ip2
I0521 19:41:28.047809  7510 net.cpp:397] relu6 -> ip2 (in-place)
I0521 19:41:28.048337  7510 net.cpp:150] Setting up relu6
I0521 19:41:28.048353  7510 net.cpp:157] Top shape: 10 98 (980)
I0521 19:41:28.048363  7510 net.cpp:165] Memory required for data: 15783080
I0521 19:41:28.048374  7510 layer_factory.hpp:77] Creating layer drop2
I0521 19:41:28.048388  7510 net.cpp:106] Creating Layer drop2
I0521 19:41:28.048398  7510 net.cpp:454] drop2 <- ip2
I0521 19:41:28.048410  7510 net.cpp:397] drop2 -> ip2 (in-place)
I0521 19:41:28.048454  7510 net.cpp:150] Setting up drop2
I0521 19:41:28.048467  7510 net.cpp:157] Top shape: 10 98 (980)
I0521 19:41:28.048477  7510 net.cpp:165] Memory required for data: 15787000
I0521 19:41:28.048486  7510 layer_factory.hpp:77] Creating layer ip3
I0521 19:41:28.048501  7510 net.cpp:106] Creating Layer ip3
I0521 19:41:28.048511  7510 net.cpp:454] ip3 <- ip2
I0521 19:41:28.048524  7510 net.cpp:411] ip3 -> ip3
I0521 19:41:28.048746  7510 net.cpp:150] Setting up ip3
I0521 19:41:28.048759  7510 net.cpp:157] Top shape: 10 11 (110)
I0521 19:41:28.048769  7510 net.cpp:165] Memory required for data: 15787440
I0521 19:41:28.048784  7510 layer_factory.hpp:77] Creating layer drop3
I0521 19:41:28.048797  7510 net.cpp:106] Creating Layer drop3
I0521 19:41:28.048806  7510 net.cpp:454] drop3 <- ip3
I0521 19:41:28.048820  7510 net.cpp:397] drop3 -> ip3 (in-place)
I0521 19:41:28.048861  7510 net.cpp:150] Setting up drop3
I0521 19:41:28.048882  7510 net.cpp:157] Top shape: 10 11 (110)
I0521 19:41:28.048892  7510 net.cpp:165] Memory required for data: 15787880
I0521 19:41:28.048902  7510 layer_factory.hpp:77] Creating layer ip3_drop3_0_split
I0521 19:41:28.048915  7510 net.cpp:106] Creating Layer ip3_drop3_0_split
I0521 19:41:28.048925  7510 net.cpp:454] ip3_drop3_0_split <- ip3
I0521 19:41:28.048936  7510 net.cpp:411] ip3_drop3_0_split -> ip3_drop3_0_split_0
I0521 19:41:28.048951  7510 net.cpp:411] ip3_drop3_0_split -> ip3_drop3_0_split_1
I0521 19:41:28.049024  7510 net.cpp:150] Setting up ip3_drop3_0_split
I0521 19:41:28.049037  7510 net.cpp:157] Top shape: 10 11 (110)
I0521 19:41:28.049051  7510 net.cpp:157] Top shape: 10 11 (110)
I0521 19:41:28.049060  7510 net.cpp:165] Memory required for data: 15788760
I0521 19:41:28.049070  7510 layer_factory.hpp:77] Creating layer accuracy
I0521 19:41:28.049093  7510 net.cpp:106] Creating Layer accuracy
I0521 19:41:28.049103  7510 net.cpp:454] accuracy <- ip3_drop3_0_split_0
I0521 19:41:28.049113  7510 net.cpp:454] accuracy <- label_data_hdf5_1_split_0
I0521 19:41:28.049127  7510 net.cpp:411] accuracy -> accuracy
…
