…
I0525 12:54:49.959203 21107 net.cpp:322] The NetState phase (0) differed from the phase (1) specified by a rule in layer data_hdf5
I0525 12:54:49.959260 21107 net.cpp:322] The NetState phase (0) differed from the phase (1) specified by a rule in layer accuracy
I0525 12:54:49.959607 21107 net.cpp:49] Initializing net from parameters: 
name: "caffe_test_127x50_x_unshifted"
state {
  phase: TRAIN
}
layer {
  name: "data_hdf5"
  type: "HDF5Data"
  top: "data"
  top: "label"
  include {
    phase: TRAIN
  }
  hdf5_data_param {
    source: "/lustre/atlas/proj-shared/hep105/caffe_titan/minosmatch_nukecczdefs_127x50_x_unshifted_me1Bmc.trainlist"
    batch_size: 100
  }
}
layer {
  name: "conv1"
  type: "Convolution"
  bottom: "data"
  top: "conv1"
  convolution_param {
    num_output: 12
    pad: 0
    stride: 1
    weight_filler {
      type: "xavier"
    }
    bias_filler {
      type: "constant"
    }
    kernel_h: 8
    kernel_w: 3
  }
}
layer {
  name: "relu1"
  type: "ReLU"
  bottom: "conv1"
  top: "conv1"
}
layer {
  name: "pool1"
  type: "Pooling"
  bottom: "conv1"
  top: "pool1"
  pooling_param {
    pool: MAX
    kernel_h: 2
    kernel_w: 1
    stride_h: 2
    stride_w: 1
  }
}
layer {
  name: "conv2"
  type: "Convolution"
  bottom: "pool1"
  top: "conv2"
  convolution_param {
    num_output: 20
    pad: 0
    stride: 1
    weight_filler {
      type: "xavier"
    }
    bias_filler {
      type: "constant"
    }
    kernel_h: 7
    kernel_w: 3
  }
}
layer {
  name: "relu2"
  type: "ReLU"
  bottom: "conv2"
  top: "conv2"
}
layer {
  name: "pool2"
  type: "Pooling"
  bottom: "conv2"
  top: "pool2"
  pooling_param {
    pool: MAX
    kernel_h: 2
    kernel_w: 1
    stride_h: 2
    stride_w: 1
  }
}
layer {
  name: "conv3"
  type: "Convolution"
  bottom: "pool2"
  top: "conv3"
  convolution_param {
    num_output: 28
    pad: 0
    stride: 1
    weight_filler {
      type: "xavier"
    }
    bias_filler {
      type: "constant"
    }
    kernel_h: 6
    kernel_w: 3
  }
}
layer {
  name: "relu3"
  type: "ReLU"
  bottom: "conv3"
  top: "conv3"
}
layer {
  name: "pool3"
  type: "Pooling"
  bottom: "conv3"
  top: "pool3"
  pooling_param {
    pool: MAX
    kernel_h: 2
    kernel_w: 1
    stride_h: 2
    stride_w: 1
  }
}
layer {
  name: "conv4"
  type: "Convolution"
  bottom: "pool3"
  top: "conv4"
  convolution_param {
    num_output: 36
    pad: 0
    stride: 1
    weight_filler {
      type: "xavier"
    }
    bias_filler {
      type: "constant"
    }
    kernel_h: 6
    kernel_w: 3
  }
}
layer {
  name: "relu4"
  type: "ReLU"
  bottom: "conv4"
  top: "conv4"
}
layer {
  name: "pool4"
  type: "Pooling"
  bottom: "conv4"
  top: "pool4"
  pooling_param {
    pool: MAX
    kernel_h: 2
    kernel_w: 1
    stride_h: 2
    stride_w: 1
  }
}
layer {
  name: "ip1"
  type: "InnerProduct"
  bottom: "pool4"
  top: "ip1"
  inner_product_param {
    num_output: 196
    weight_filler {
      type: "xavier"
    }
    bias_filler {
      type: "constant"
    }
  }
}
layer {
  name: "relu5"
  type: "ReLU"
  bottom: "ip1"
  top: "ip1"
}
layer {
  name: "drop1"
  type: "Dropout"
  bottom: "ip1"
  top: "ip1"
  dropout_param {
    dropout_ratio: 0.5
  }
}
layer {
  name: "ip2"
  type: "InnerProduct"
  bottom: "ip1"
  top: "ip2"
  inner_product_param {
    num_output: 98
    weight_filler {
      type: "xavier"
    }
    bias_filler {
      type: "constant"
    }
  }
}
layer {
  name: "relu6"
  type: "ReLU"
  bottom: "ip2"
  top: "ip2"
}
layer {
  name: "drop2"
  type: "Dropout"
  bottom: "ip2"
  top: "ip2"
  dropout_param {
    dropout_ratio: 0.5
  }
}
layer {
  name: "ip3"
  type: "InnerProduct"
  bottom: "ip2"
  top: "ip3"
  inner_product_param {
    num_output: 11
    weight_filler {
      type: "xavier"
    }
    bias_filler {
      type: "constant"
    }
  }
}
layer {
  name: "drop3"
  type: "Dropout"
  bottom: "ip3"
  top: "ip3"
  dropout_param {
    dropout_ratio: 0.5
  }
}
layer {
  name: "loss"
  type: "SoftmaxWithLoss"
  bottom: "ip3"
  bottom: "label"
  top: "loss"
}
I0525 12:54:49.959785 21107 layer_factory.hpp:77] Creating layer data_hdf5
I0525 12:54:49.959808 21107 net.cpp:106] Creating Layer data_hdf5
I0525 12:54:49.959823 21107 net.cpp:411] data_hdf5 -> data
I0525 12:54:49.959856 21107 net.cpp:411] data_hdf5 -> label
I0525 12:54:49.959888 21107 hdf5_data_layer.cpp:79] Loading list of HDF5 filenames from: /lustre/atlas/proj-shared/hep105/caffe_titan/minosmatch_nukecczdefs_127x50_x_unshifted_me1Bmc.trainlist
I0525 12:54:49.961612 21107 hdf5_data_layer.cpp:93] Number of HDF5 files: 15
I0525 12:54:49.963799 21107 hdf5.cpp:32] Datatype class: H5T_FLOAT
I0525 12:55:11.556095 21107 hdf5.cpp:35] Datatype class: H5T_INTEGER
I0525 12:55:11.561305 21107 net.cpp:150] Setting up data_hdf5
I0525 12:55:11.561343 21107 net.cpp:157] Top shape: 100 1 127 50 (635000)
I0525 12:55:11.561358 21107 net.cpp:157] Top shape: 100 (100)
I0525 12:55:11.561370 21107 net.cpp:165] Memory required for data: 2540400
I0525 12:55:11.561383 21107 layer_factory.hpp:77] Creating layer conv1
I0525 12:55:11.561417 21107 net.cpp:106] Creating Layer conv1
I0525 12:55:11.561429 21107 net.cpp:454] conv1 <- data
I0525 12:55:11.561451 21107 net.cpp:411] conv1 -> conv1
I0525 12:55:11.938366 21107 net.cpp:150] Setting up conv1
I0525 12:55:11.938413 21107 net.cpp:157] Top shape: 100 12 120 48 (6912000)
I0525 12:55:11.938424 21107 net.cpp:165] Memory required for data: 30188400
I0525 12:55:11.938452 21107 layer_factory.hpp:77] Creating layer relu1
I0525 12:55:11.938474 21107 net.cpp:106] Creating Layer relu1
I0525 12:55:11.938485 21107 net.cpp:454] relu1 <- conv1
I0525 12:55:11.938498 21107 net.cpp:397] relu1 -> conv1 (in-place)
I0525 12:55:11.939009 21107 net.cpp:150] Setting up relu1
I0525 12:55:11.939026 21107 net.cpp:157] Top shape: 100 12 120 48 (6912000)
I0525 12:55:11.939038 21107 net.cpp:165] Memory required for data: 57836400
I0525 12:55:11.939048 21107 layer_factory.hpp:77] Creating layer pool1
I0525 12:55:11.939064 21107 net.cpp:106] Creating Layer pool1
I0525 12:55:11.939074 21107 net.cpp:454] pool1 <- conv1
I0525 12:55:11.939087 21107 net.cpp:411] pool1 -> pool1
I0525 12:55:11.939177 21107 net.cpp:150] Setting up pool1
I0525 12:55:11.939191 21107 net.cpp:157] Top shape: 100 12 60 48 (3456000)
I0525 12:55:11.939201 21107 net.cpp:165] Memory required for data: 71660400
I0525 12:55:11.939213 21107 layer_factory.hpp:77] Creating layer conv2
I0525 12:55:11.939234 21107 net.cpp:106] Creating Layer conv2
I0525 12:55:11.939245 21107 net.cpp:454] conv2 <- pool1
I0525 12:55:11.939259 21107 net.cpp:411] conv2 -> conv2
I0525 12:55:11.941973 21107 net.cpp:150] Setting up conv2
I0525 12:55:11.942001 21107 net.cpp:157] Top shape: 100 20 54 46 (4968000)
I0525 12:55:11.942011 21107 net.cpp:165] Memory required for data: 91532400
I0525 12:55:11.942030 21107 layer_factory.hpp:77] Creating layer relu2
I0525 12:55:11.942044 21107 net.cpp:106] Creating Layer relu2
I0525 12:55:11.942054 21107 net.cpp:454] relu2 <- conv2
I0525 12:55:11.942067 21107 net.cpp:397] relu2 -> conv2 (in-place)
I0525 12:55:11.942396 21107 net.cpp:150] Setting up relu2
I0525 12:55:11.942410 21107 net.cpp:157] Top shape: 100 20 54 46 (4968000)
I0525 12:55:11.942421 21107 net.cpp:165] Memory required for data: 111404400
I0525 12:55:11.942431 21107 layer_factory.hpp:77] Creating layer pool2
I0525 12:55:11.942443 21107 net.cpp:106] Creating Layer pool2
I0525 12:55:11.942453 21107 net.cpp:454] pool2 <- conv2
I0525 12:55:11.942466 21107 net.cpp:411] pool2 -> pool2
I0525 12:55:11.942546 21107 net.cpp:150] Setting up pool2
I0525 12:55:11.942560 21107 net.cpp:157] Top shape: 100 20 27 46 (2484000)
I0525 12:55:11.942570 21107 net.cpp:165] Memory required for data: 121340400
I0525 12:55:11.942577 21107 layer_factory.hpp:77] Creating layer conv3
I0525 12:55:11.942596 21107 net.cpp:106] Creating Layer conv3
I0525 12:55:11.942607 21107 net.cpp:454] conv3 <- pool2
I0525 12:55:11.942620 21107 net.cpp:411] conv3 -> conv3
I0525 12:55:11.944535 21107 net.cpp:150] Setting up conv3
I0525 12:55:11.944560 21107 net.cpp:157] Top shape: 100 28 22 44 (2710400)
I0525 12:55:11.944571 21107 net.cpp:165] Memory required for data: 132182000
I0525 12:55:11.944589 21107 layer_factory.hpp:77] Creating layer relu3
I0525 12:55:11.944605 21107 net.cpp:106] Creating Layer relu3
I0525 12:55:11.944615 21107 net.cpp:454] relu3 <- conv3
I0525 12:55:11.944628 21107 net.cpp:397] relu3 -> conv3 (in-place)
I0525 12:55:11.945091 21107 net.cpp:150] Setting up relu3
I0525 12:55:11.945108 21107 net.cpp:157] Top shape: 100 28 22 44 (2710400)
I0525 12:55:11.945118 21107 net.cpp:165] Memory required for data: 143023600
I0525 12:55:11.945128 21107 layer_factory.hpp:77] Creating layer pool3
I0525 12:55:11.945142 21107 net.cpp:106] Creating Layer pool3
I0525 12:55:11.945152 21107 net.cpp:454] pool3 <- conv3
I0525 12:55:11.945163 21107 net.cpp:411] pool3 -> pool3
I0525 12:55:11.945231 21107 net.cpp:150] Setting up pool3
I0525 12:55:11.945245 21107 net.cpp:157] Top shape: 100 28 11 44 (1355200)
I0525 12:55:11.945255 21107 net.cpp:165] Memory required for data: 148444400
I0525 12:55:11.945264 21107 layer_factory.hpp:77] Creating layer conv4
I0525 12:55:11.945281 21107 net.cpp:106] Creating Layer conv4
I0525 12:55:11.945291 21107 net.cpp:454] conv4 <- pool3
I0525 12:55:11.945304 21107 net.cpp:411] conv4 -> conv4
I0525 12:55:11.948242 21107 net.cpp:150] Setting up conv4
I0525 12:55:11.948271 21107 net.cpp:157] Top shape: 100 36 6 42 (907200)
I0525 12:55:11.948282 21107 net.cpp:165] Memory required for data: 152073200
I0525 12:55:11.948297 21107 layer_factory.hpp:77] Creating layer relu4
I0525 12:55:11.948312 21107 net.cpp:106] Creating Layer relu4
I0525 12:55:11.948323 21107 net.cpp:454] relu4 <- conv4
I0525 12:55:11.948336 21107 net.cpp:397] relu4 -> conv4 (in-place)
I0525 12:55:11.948803 21107 net.cpp:150] Setting up relu4
I0525 12:55:11.948819 21107 net.cpp:157] Top shape: 100 36 6 42 (907200)
I0525 12:55:11.948830 21107 net.cpp:165] Memory required for data: 155702000
I0525 12:55:11.948840 21107 layer_factory.hpp:77] Creating layer pool4
I0525 12:55:11.948853 21107 net.cpp:106] Creating Layer pool4
I0525 12:55:11.948863 21107 net.cpp:454] pool4 <- conv4
I0525 12:55:11.948876 21107 net.cpp:411] pool4 -> pool4
I0525 12:55:11.948945 21107 net.cpp:150] Setting up pool4
I0525 12:55:11.948958 21107 net.cpp:157] Top shape: 100 36 3 42 (453600)
I0525 12:55:11.948968 21107 net.cpp:165] Memory required for data: 157516400
I0525 12:55:11.948976 21107 layer_factory.hpp:77] Creating layer ip1
I0525 12:55:11.948997 21107 net.cpp:106] Creating Layer ip1
I0525 12:55:11.949007 21107 net.cpp:454] ip1 <- pool4
I0525 12:55:11.949020 21107 net.cpp:411] ip1 -> ip1
I0525 12:55:11.964406 21107 net.cpp:150] Setting up ip1
I0525 12:55:11.964433 21107 net.cpp:157] Top shape: 100 196 (19600)
I0525 12:55:11.964445 21107 net.cpp:165] Memory required for data: 157594800
I0525 12:55:11.964467 21107 layer_factory.hpp:77] Creating layer relu5
I0525 12:55:11.964481 21107 net.cpp:106] Creating Layer relu5
I0525 12:55:11.964491 21107 net.cpp:454] relu5 <- ip1
I0525 12:55:11.964504 21107 net.cpp:397] relu5 -> ip1 (in-place)
I0525 12:55:11.964846 21107 net.cpp:150] Setting up relu5
I0525 12:55:11.964860 21107 net.cpp:157] Top shape: 100 196 (19600)
I0525 12:55:11.964870 21107 net.cpp:165] Memory required for data: 157673200
I0525 12:55:11.964880 21107 layer_factory.hpp:77] Creating layer drop1
I0525 12:55:11.964901 21107 net.cpp:106] Creating Layer drop1
I0525 12:55:11.964911 21107 net.cpp:454] drop1 <- ip1
I0525 12:55:11.964923 21107 net.cpp:397] drop1 -> ip1 (in-place)
I0525 12:55:11.964982 21107 net.cpp:150] Setting up drop1
I0525 12:55:11.964995 21107 net.cpp:157] Top shape: 100 196 (19600)
I0525 12:55:11.965005 21107 net.cpp:165] Memory required for data: 157751600
I0525 12:55:11.965014 21107 layer_factory.hpp:77] Creating layer ip2
I0525 12:55:11.965034 21107 net.cpp:106] Creating Layer ip2
I0525 12:55:11.965044 21107 net.cpp:454] ip2 <- ip1
I0525 12:55:11.965055 21107 net.cpp:411] ip2 -> ip2
I0525 12:55:11.965522 21107 net.cpp:150] Setting up ip2
I0525 12:55:11.965534 21107 net.cpp:157] Top shape: 100 98 (9800)
I0525 12:55:11.965544 21107 net.cpp:165] Memory required for data: 157790800
I0525 12:55:11.965559 21107 layer_factory.hpp:77] Creating layer relu6
I0525 12:55:11.965572 21107 net.cpp:106] Creating Layer relu6
I0525 12:55:11.965581 21107 net.cpp:454] relu6 <- ip2
I0525 12:55:11.965593 21107 net.cpp:397] relu6 -> ip2 (in-place)
I0525 12:55:11.966114 21107 net.cpp:150] Setting up relu6
I0525 12:55:11.966130 21107 net.cpp:157] Top shape: 100 98 (9800)
I0525 12:55:11.966140 21107 net.cpp:165] Memory required for data: 157830000
I0525 12:55:11.966150 21107 layer_factory.hpp:77] Creating layer drop2
I0525 12:55:11.966162 21107 net.cpp:106] Creating Layer drop2
I0525 12:55:11.966172 21107 net.cpp:454] drop2 <- ip2
I0525 12:55:11.966184 21107 net.cpp:397] drop2 -> ip2 (in-place)
I0525 12:55:11.966226 21107 net.cpp:150] Setting up drop2
I0525 12:55:11.966239 21107 net.cpp:157] Top shape: 100 98 (9800)
I0525 12:55:11.966249 21107 net.cpp:165] Memory required for data: 157869200
I0525 12:55:11.966259 21107 layer_factory.hpp:77] Creating layer ip3
I0525 12:55:11.966272 21107 net.cpp:106] Creating Layer ip3
I0525 12:55:11.966282 21107 net.cpp:454] ip3 <- ip2
I0525 12:55:11.966295 21107 net.cpp:411] ip3 -> ip3
I0525 12:55:11.966505 21107 net.cpp:150] Setting up ip3
I0525 12:55:11.966517 21107 net.cpp:157] Top shape: 100 11 (1100)
I0525 12:55:11.966528 21107 net.cpp:165] Memory required for data: 157873600
I0525 12:55:11.966543 21107 layer_factory.hpp:77] Creating layer drop3
I0525 12:55:11.966555 21107 net.cpp:106] Creating Layer drop3
I0525 12:55:11.966565 21107 net.cpp:454] drop3 <- ip3
I0525 12:55:11.966578 21107 net.cpp:397] drop3 -> ip3 (in-place)
I0525 12:55:11.966616 21107 net.cpp:150] Setting up drop3
I0525 12:55:11.966629 21107 net.cpp:157] Top shape: 100 11 (1100)
I0525 12:55:11.966639 21107 net.cpp:165] Memory required for data: 157878000
I0525 12:55:11.966650 21107 layer_factory.hpp:77] Creating layer loss
I0525 12:55:11.966670 21107 net.cpp:106] Creating Layer loss
I0525 12:55:11.966680 21107 net.cpp:454] loss <- ip3
I0525 12:55:11.966689 21107 net.cpp:454] loss <- label
I0525 12:55:11.966702 21107 net.cpp:411] loss -> loss
I0525 12:55:11.966719 21107 layer_factory.hpp:77] Creating layer loss
…
I0525 12:55:11.969434 21107 solver.cpp:181] Creating test net (#0) specified by net file: /lustre/atlas/proj-shared/hep105/caffe_titan/caffe_workflow/logs_bslr/bs_100_lr_0.0005_2016-05-20T15.49.23.973990.prototxt
I0525 12:55:11.969504 21107 net.cpp:322] The NetState phase (1) differed from the phase (0) specified by a rule in layer data_hdf5
I0525 12:55:11.969859 21107 net.cpp:49] Initializing net from parameters: 
name: "caffe_test_127x50_x_unshifted"
state {
  phase: TEST
}
layer {
  name: "data_hdf5"
  type: "HDF5Data"
  top: "data"
  top: "label"
  include {
    phase: TEST
  }
  hdf5_data_param {
    source: "/lustre/atlas/proj-shared/hep105/caffe_titan/minosmatch_nukecczdefs_127x50_x_unshifted_me1Bmc.testlist"
    batch_size: 100
  }
}
layer {
  name: "conv1"
  type: "Convolution"
  bottom: "data"
  top: "conv1"
  convolution_param {
    num_output: 12
    pad: 0
    stride: 1
    weight_filler {
      type: "xavier"
    }
    bias_filler {
      type: "constant"
    }
    kernel_h: 8
    kernel_w: 3
  }
}
layer {
  name: "relu1"
  type: "ReLU"
  bottom: "conv1"
  top: "conv1"
}
layer {
  name: "pool1"
  type: "Pooling"
  bottom: "conv1"
  top: "pool1"
  pooling_param {
    pool: MAX
    kernel_h: 2
    kernel_w: 1
    stride_h: 2
    stride_w: 1
  }
}
layer {
  name: "conv2"
  type: "Convolution"
  bottom: "pool1"
  top: "conv2"
  convolution_param {
    num_output: 20
    pad: 0
    stride: 1
    weight_filler {
      type: "xavier"
    }
    bias_filler {
      type: "constant"
    }
    kernel_h: 7
    kernel_w: 3
  }
}
layer {
  name: "relu2"
  type: "ReLU"
  bottom: "conv2"
  top: "conv2"
}
layer {
  name: "pool2"
  type: "Pooling"
  bottom: "conv2"
  top: "pool2"
  pooling_param {
    pool: MAX
    kernel_h: 2
    kernel_w: 1
    stride_h: 2
    stride_w: 1
  }
}
layer {
  name: "conv3"
  type: "Convolution"
  bottom: "pool2"
  top: "conv3"
  convolution_param {
    num_output: 28
    pad: 0
    stride: 1
    weight_filler {
      type: "xavier"
    }
    bias_filler {
      type: "constant"
    }
    kernel_h: 6
    kernel_w: 3
  }
}
layer {
  name: "relu3"
  type: "ReLU"
  bottom: "conv3"
  top: "conv3"
}
layer {
  name: "pool3"
  type: "Pooling"
  bottom: "conv3"
  top: "pool3"
  pooling_param {
    pool: MAX
    kernel_h: 2
    kernel_w: 1
    stride_h: 2
    stride_w: 1
  }
}
layer {
  name: "conv4"
  type: "Convolution"
  bottom: "pool3"
  top: "conv4"
  convolution_param {
    num_output: 36
    pad: 0
    stride: 1
    weight_filler {
      type: "xavier"
    }
    bias_filler {
      type: "constant"
    }
    kernel_h: 6
    kernel_w: 3
  }
}
layer {
  name: "relu4"
  type: "ReLU"
  bottom: "conv4"
  top: "conv4"
}
layer {
  name: "pool4"
  type: "Pooling"
  bottom: "conv4"
  top: "pool4"
  pooling_param {
    pool: MAX
    kernel_h: 2
    kernel_w: 1
    stride_h: 2
    stride_w: 1
  }
}
layer {
  name: "ip1"
  type: "InnerProduct"
  bottom: "pool4"
  top: "ip1"
  inner_product_param {
    num_output: 196
    weight_filler {
      type: "xavier"
    }
    bias_filler {
      type: "constant"
    }
  }
}
layer {
  name: "relu5"
  type: "ReLU"
  bottom: "ip1"
  top: "ip1"
}
layer {
  name: "drop1"
  type: "Dropout"
  bottom: "ip1"
  top: "ip1"
  dropout_param {
    dropout_ratio: 0.5
  }
}
layer {
  name: "ip2"
  type: "InnerProduct"
  bottom: "ip1"
  top: "ip2"
  inner_product_param {
    num_output: 98
    weight_filler {
      type: "xavier"
    }
    bias_filler {
      type: "constant"
    }
  }
}
layer {
  name: "relu6"
  type: "ReLU"
  bottom: "ip2"
  top: "ip2"
}
layer {
  name: "drop2"
  type: "Dropout"
  bottom: "ip2"
  top: "ip2"
  dropout_param {
    dropout_ratio: 0.5
  }
}
layer {
  name: "ip3"
  type: "InnerProduct"
  bottom: "ip2"
  top: "ip3"
  inner_product_param {
    num_output: 11
    weight_filler {
      type: "xavier"
    }
    bias_filler {
      type: "constant"
    }
  }
}
layer {
  name: "drop3"
  type: "Dropout"
  bottom: "ip3"
  top: "ip3"
  dropout_param {
    dropout_ratio: 0.5
  }
}
layer {
  name: "accuracy"
  type: "Accuracy"
  bottom: "ip3"
  bottom: "label"
  top: "accuracy"
  include {
    phase: TEST
  }
}
layer {
  name: "loss"
  type: "SoftmaxWithLoss"
  bottom: "ip3"
  bottom: "label"
  top: "loss"
}
I0525 12:55:11.970049 21107 layer_factory.hpp:77] Creating layer data_hdf5
I0525 12:55:11.970064 21107 net.cpp:106] Creating Layer data_hdf5
I0525 12:55:11.970077 21107 net.cpp:411] data_hdf5 -> data
I0525 12:55:11.970093 21107 net.cpp:411] data_hdf5 -> label
I0525 12:55:11.970109 21107 hdf5_data_layer.cpp:79] Loading list of HDF5 filenames from: /lustre/atlas/proj-shared/hep105/caffe_titan/minosmatch_nukecczdefs_127x50_x_unshifted_me1Bmc.testlist
I0525 12:55:11.971505 21107 hdf5_data_layer.cpp:93] Number of HDF5 files: 3
I0525 12:55:33.287902 21107 net.cpp:150] Setting up data_hdf5
I0525 12:55:33.288064 21107 net.cpp:157] Top shape: 100 1 127 50 (635000)
I0525 12:55:33.288079 21107 net.cpp:157] Top shape: 100 (100)
I0525 12:55:33.288091 21107 net.cpp:165] Memory required for data: 2540400
I0525 12:55:33.288105 21107 layer_factory.hpp:77] Creating layer label_data_hdf5_1_split
I0525 12:55:33.288133 21107 net.cpp:106] Creating Layer label_data_hdf5_1_split
I0525 12:55:33.288143 21107 net.cpp:454] label_data_hdf5_1_split <- label
I0525 12:55:33.288158 21107 net.cpp:411] label_data_hdf5_1_split -> label_data_hdf5_1_split_0
I0525 12:55:33.288180 21107 net.cpp:411] label_data_hdf5_1_split -> label_data_hdf5_1_split_1
I0525 12:55:33.288254 21107 net.cpp:150] Setting up label_data_hdf5_1_split
I0525 12:55:33.288267 21107 net.cpp:157] Top shape: 100 (100)
I0525 12:55:33.288280 21107 net.cpp:157] Top shape: 100 (100)
I0525 12:55:33.288290 21107 net.cpp:165] Memory required for data: 2541200
I0525 12:55:33.288298 21107 layer_factory.hpp:77] Creating layer conv1
I0525 12:55:33.288318 21107 net.cpp:106] Creating Layer conv1
I0525 12:55:33.288329 21107 net.cpp:454] conv1 <- data
I0525 12:55:33.288343 21107 net.cpp:411] conv1 -> conv1
I0525 12:55:33.290362 21107 net.cpp:150] Setting up conv1
I0525 12:55:33.290381 21107 net.cpp:157] Top shape: 100 12 120 48 (6912000)
I0525 12:55:33.290396 21107 net.cpp:165] Memory required for data: 30189200
I0525 12:55:33.290417 21107 layer_factory.hpp:77] Creating layer relu1
I0525 12:55:33.290431 21107 net.cpp:106] Creating Layer relu1
I0525 12:55:33.290441 21107 net.cpp:454] relu1 <- conv1
I0525 12:55:33.290454 21107 net.cpp:397] relu1 -> conv1 (in-place)
I0525 12:55:33.290951 21107 net.cpp:150] Setting up relu1
I0525 12:55:33.290966 21107 net.cpp:157] Top shape: 100 12 120 48 (6912000)
I0525 12:55:33.290977 21107 net.cpp:165] Memory required for data: 57837200
I0525 12:55:33.290987 21107 layer_factory.hpp:77] Creating layer pool1
I0525 12:55:33.291002 21107 net.cpp:106] Creating Layer pool1
I0525 12:55:33.291013 21107 net.cpp:454] pool1 <- conv1
I0525 12:55:33.291025 21107 net.cpp:411] pool1 -> pool1
I0525 12:55:33.291101 21107 net.cpp:150] Setting up pool1
I0525 12:55:33.291115 21107 net.cpp:157] Top shape: 100 12 60 48 (3456000)
I0525 12:55:33.291133 21107 net.cpp:165] Memory required for data: 71661200
I0525 12:55:33.291144 21107 layer_factory.hpp:77] Creating layer conv2
I0525 12:55:33.291162 21107 net.cpp:106] Creating Layer conv2
I0525 12:55:33.291172 21107 net.cpp:454] conv2 <- pool1
I0525 12:55:33.291187 21107 net.cpp:411] conv2 -> conv2
I0525 12:55:33.293090 21107 net.cpp:150] Setting up conv2
I0525 12:55:33.293107 21107 net.cpp:157] Top shape: 100 20 54 46 (4968000)
I0525 12:55:33.293118 21107 net.cpp:165] Memory required for data: 91533200
I0525 12:55:33.293135 21107 layer_factory.hpp:77] Creating layer relu2
I0525 12:55:33.293149 21107 net.cpp:106] Creating Layer relu2
I0525 12:55:33.293159 21107 net.cpp:454] relu2 <- conv2
I0525 12:55:33.293171 21107 net.cpp:397] relu2 -> conv2 (in-place)
I0525 12:55:33.293506 21107 net.cpp:150] Setting up relu2
I0525 12:55:33.293520 21107 net.cpp:157] Top shape: 100 20 54 46 (4968000)
I0525 12:55:33.293530 21107 net.cpp:165] Memory required for data: 111405200
I0525 12:55:33.293540 21107 layer_factory.hpp:77] Creating layer pool2
I0525 12:55:33.293555 21107 net.cpp:106] Creating Layer pool2
I0525 12:55:33.293563 21107 net.cpp:454] pool2 <- conv2
I0525 12:55:33.293576 21107 net.cpp:411] pool2 -> pool2
I0525 12:55:33.293648 21107 net.cpp:150] Setting up pool2
I0525 12:55:33.293661 21107 net.cpp:157] Top shape: 100 20 27 46 (2484000)
I0525 12:55:33.293671 21107 net.cpp:165] Memory required for data: 121341200
I0525 12:55:33.293679 21107 layer_factory.hpp:77] Creating layer conv3
I0525 12:55:33.293699 21107 net.cpp:106] Creating Layer conv3
I0525 12:55:33.293709 21107 net.cpp:454] conv3 <- pool2
I0525 12:55:33.293723 21107 net.cpp:411] conv3 -> conv3
I0525 12:55:33.295707 21107 net.cpp:150] Setting up conv3
I0525 12:55:33.295730 21107 net.cpp:157] Top shape: 100 28 22 44 (2710400)
I0525 12:55:33.295742 21107 net.cpp:165] Memory required for data: 132182800
I0525 12:55:33.295775 21107 layer_factory.hpp:77] Creating layer relu3
I0525 12:55:33.295789 21107 net.cpp:106] Creating Layer relu3
I0525 12:55:33.295799 21107 net.cpp:454] relu3 <- conv3
I0525 12:55:33.295812 21107 net.cpp:397] relu3 -> conv3 (in-place)
I0525 12:55:33.296283 21107 net.cpp:150] Setting up relu3
I0525 12:55:33.296298 21107 net.cpp:157] Top shape: 100 28 22 44 (2710400)
I0525 12:55:33.296309 21107 net.cpp:165] Memory required for data: 143024400
I0525 12:55:33.296319 21107 layer_factory.hpp:77] Creating layer pool3
I0525 12:55:33.296332 21107 net.cpp:106] Creating Layer pool3
I0525 12:55:33.296342 21107 net.cpp:454] pool3 <- conv3
I0525 12:55:33.296355 21107 net.cpp:411] pool3 -> pool3
I0525 12:55:33.296427 21107 net.cpp:150] Setting up pool3
I0525 12:55:33.296439 21107 net.cpp:157] Top shape: 100 28 11 44 (1355200)
I0525 12:55:33.296449 21107 net.cpp:165] Memory required for data: 148445200
I0525 12:55:33.296459 21107 layer_factory.hpp:77] Creating layer conv4
I0525 12:55:33.296475 21107 net.cpp:106] Creating Layer conv4
I0525 12:55:33.296485 21107 net.cpp:454] conv4 <- pool3
I0525 12:55:33.296499 21107 net.cpp:411] conv4 -> conv4
I0525 12:55:33.298578 21107 net.cpp:150] Setting up conv4
I0525 12:55:33.298599 21107 net.cpp:157] Top shape: 100 36 6 42 (907200)
I0525 12:55:33.298612 21107 net.cpp:165] Memory required for data: 152074000
I0525 12:55:33.298627 21107 layer_factory.hpp:77] Creating layer relu4
I0525 12:55:33.298640 21107 net.cpp:106] Creating Layer relu4
I0525 12:55:33.298650 21107 net.cpp:454] relu4 <- conv4
I0525 12:55:33.298663 21107 net.cpp:397] relu4 -> conv4 (in-place)
I0525 12:55:33.299140 21107 net.cpp:150] Setting up relu4
I0525 12:55:33.299155 21107 net.cpp:157] Top shape: 100 36 6 42 (907200)
I0525 12:55:33.299166 21107 net.cpp:165] Memory required for data: 155702800
I0525 12:55:33.299176 21107 layer_factory.hpp:77] Creating layer pool4
I0525 12:55:33.299190 21107 net.cpp:106] Creating Layer pool4
I0525 12:55:33.299199 21107 net.cpp:454] pool4 <- conv4
I0525 12:55:33.299212 21107 net.cpp:411] pool4 -> pool4
I0525 12:55:33.299283 21107 net.cpp:150] Setting up pool4
I0525 12:55:33.299296 21107 net.cpp:157] Top shape: 100 36 3 42 (453600)
I0525 12:55:33.299306 21107 net.cpp:165] Memory required for data: 157517200
I0525 12:55:33.299316 21107 layer_factory.hpp:77] Creating layer ip1
I0525 12:55:33.299332 21107 net.cpp:106] Creating Layer ip1
I0525 12:55:33.299343 21107 net.cpp:454] ip1 <- pool4
I0525 12:55:33.299357 21107 net.cpp:411] ip1 -> ip1
I0525 12:55:33.314788 21107 net.cpp:150] Setting up ip1
I0525 12:55:33.314815 21107 net.cpp:157] Top shape: 100 196 (19600)
I0525 12:55:33.314826 21107 net.cpp:165] Memory required for data: 157595600
I0525 12:55:33.314849 21107 layer_factory.hpp:77] Creating layer relu5
I0525 12:55:33.314864 21107 net.cpp:106] Creating Layer relu5
I0525 12:55:33.314875 21107 net.cpp:454] relu5 <- ip1
I0525 12:55:33.314888 21107 net.cpp:397] relu5 -> ip1 (in-place)
I0525 12:55:33.315243 21107 net.cpp:150] Setting up relu5
I0525 12:55:33.315258 21107 net.cpp:157] Top shape: 100 196 (19600)
I0525 12:55:33.315268 21107 net.cpp:165] Memory required for data: 157674000
I0525 12:55:33.315277 21107 layer_factory.hpp:77] Creating layer drop1
I0525 12:55:33.315295 21107 net.cpp:106] Creating Layer drop1
I0525 12:55:33.315305 21107 net.cpp:454] drop1 <- ip1
I0525 12:55:33.315318 21107 net.cpp:397] drop1 -> ip1 (in-place)
I0525 12:55:33.315362 21107 net.cpp:150] Setting up drop1
I0525 12:55:33.315376 21107 net.cpp:157] Top shape: 100 196 (19600)
I0525 12:55:33.315385 21107 net.cpp:165] Memory required for data: 157752400
I0525 12:55:33.315397 21107 layer_factory.hpp:77] Creating layer ip2
I0525 12:55:33.315410 21107 net.cpp:106] Creating Layer ip2
I0525 12:55:33.315420 21107 net.cpp:454] ip2 <- ip1
I0525 12:55:33.315434 21107 net.cpp:411] ip2 -> ip2
I0525 12:55:33.315912 21107 net.cpp:150] Setting up ip2
I0525 12:55:33.315927 21107 net.cpp:157] Top shape: 100 98 (9800)
I0525 12:55:33.315937 21107 net.cpp:165] Memory required for data: 157791600
I0525 12:55:33.315953 21107 layer_factory.hpp:77] Creating layer relu6
I0525 12:55:33.315979 21107 net.cpp:106] Creating Layer relu6
I0525 12:55:33.315989 21107 net.cpp:454] relu6 <- ip2
I0525 12:55:33.316001 21107 net.cpp:397] relu6 -> ip2 (in-place)
I0525 12:55:33.316532 21107 net.cpp:150] Setting up relu6
I0525 12:55:33.316548 21107 net.cpp:157] Top shape: 100 98 (9800)
I0525 12:55:33.316556 21107 net.cpp:165] Memory required for data: 157830800
I0525 12:55:33.316566 21107 layer_factory.hpp:77] Creating layer drop2
I0525 12:55:33.316581 21107 net.cpp:106] Creating Layer drop2
I0525 12:55:33.316591 21107 net.cpp:454] drop2 <- ip2
I0525 12:55:33.316603 21107 net.cpp:397] drop2 -> ip2 (in-place)
I0525 12:55:33.316647 21107 net.cpp:150] Setting up drop2
I0525 12:55:33.316659 21107 net.cpp:157] Top shape: 100 98 (9800)
I0525 12:55:33.316669 21107 net.cpp:165] Memory required for data: 157870000
I0525 12:55:33.316679 21107 layer_factory.hpp:77] Creating layer ip3
I0525 12:55:33.316694 21107 net.cpp:106] Creating Layer ip3
I0525 12:55:33.316704 21107 net.cpp:454] ip3 <- ip2
I0525 12:55:33.316717 21107 net.cpp:411] ip3 -> ip3
I0525 12:55:33.316939 21107 net.cpp:150] Setting up ip3
I0525 12:55:33.316952 21107 net.cpp:157] Top shape: 100 11 (1100)
I0525 12:55:33.316962 21107 net.cpp:165] Memory required for data: 157874400
I0525 12:55:33.316977 21107 layer_factory.hpp:77] Creating layer drop3
I0525 12:55:33.316990 21107 net.cpp:106] Creating Layer drop3
I0525 12:55:33.317000 21107 net.cpp:454] drop3 <- ip3
I0525 12:55:33.317013 21107 net.cpp:397] drop3 -> ip3 (in-place)
I0525 12:55:33.317054 21107 net.cpp:150] Setting up drop3
I0525 12:55:33.317067 21107 net.cpp:157] Top shape: 100 11 (1100)
I0525 12:55:33.317077 21107 net.cpp:165] Memory required for data: 157878800
I0525 12:55:33.317087 21107 layer_factory.hpp:77] Creating layer ip3_drop3_0_split
I0525 12:55:33.317101 21107 net.cpp:106] Creating Layer ip3_drop3_0_split
I0525 12:55:33.317111 21107 net.cpp:454] ip3_drop3_0_split <- ip3
I0525 12:55:33.317122 21107 net.cpp:411] ip3_drop3_0_split -> ip3_drop3_0_split_0
I0525 12:55:33.317138 21107 net.cpp:411] ip3_drop3_0_split -> ip3_drop3_0_split_1
I0525 12:55:33.317211 21107 net.cpp:150] Setting up ip3_drop3_0_split
I0525 12:55:33.317224 21107 net.cpp:157] Top shape: 100 11 (1100)
I0525 12:55:33.317237 21107 net.cpp:157] Top shape: 100 11 (1100)
I0525 12:55:33.317247 21107 net.cpp:165] Memory required for data: 157887600
I0525 12:55:33.317257 21107 layer_factory.hpp:77] Creating layer accuracy
I0525 12:55:33.317278 21107 net.cpp:106] Creating Layer accuracy
I0525 12:55:33.317288 21107 net.cpp:454] accuracy <- ip3_drop3_0_split_0
I0525 12:55:33.317299 21107 net.cpp:454] accuracy <- label_data_hdf5_1_split_0
I0525 12:55:33.317313 21107 net.cpp:411] accuracy -> accuracy
…
