…
I0525 18:57:16.603373 25020 net.cpp:322] The NetState phase (0) differed from the phase (1) specified by a rule in layer data_hdf5
I0525 18:57:16.603433 25020 net.cpp:322] The NetState phase (0) differed from the phase (1) specified by a rule in layer accuracy
I0525 18:57:16.603777 25020 net.cpp:49] Initializing net from parameters: 
name: "caffe_test_127x50_x_unshifted"
state {
  phase: TRAIN
}
layer {
  name: "data_hdf5"
  type: "HDF5Data"
  top: "data"
  top: "label"
  include {
    phase: TRAIN
  }
  hdf5_data_param {
    source: "/lustre/atlas/proj-shared/hep105/caffe_titan/minosmatch_nukecczdefs_127x50_x_unshifted_me1Bmc.trainlist"
    batch_size: 100
  }
}
layer {
  name: "conv1"
  type: "Convolution"
  bottom: "data"
  top: "conv1"
  convolution_param {
    num_output: 12
    pad: 0
    stride: 1
    weight_filler {
      type: "xavier"
    }
    bias_filler {
      type: "constant"
    }
    kernel_h: 8
    kernel_w: 3
  }
}
layer {
  name: "relu1"
  type: "ReLU"
  bottom: "conv1"
  top: "conv1"
}
layer {
  name: "pool1"
  type: "Pooling"
  bottom: "conv1"
  top: "pool1"
  pooling_param {
    pool: MAX
    kernel_h: 2
    kernel_w: 1
    stride_h: 2
    stride_w: 1
  }
}
layer {
  name: "conv2"
  type: "Convolution"
  bottom: "pool1"
  top: "conv2"
  convolution_param {
    num_output: 20
    pad: 0
    stride: 1
    weight_filler {
      type: "xavier"
    }
    bias_filler {
      type: "constant"
    }
    kernel_h: 7
    kernel_w: 3
  }
}
layer {
  name: "relu2"
  type: "ReLU"
  bottom: "conv2"
  top: "conv2"
}
layer {
  name: "pool2"
  type: "Pooling"
  bottom: "conv2"
  top: "pool2"
  pooling_param {
    pool: MAX
    kernel_h: 2
    kernel_w: 1
    stride_h: 2
    stride_w: 1
  }
}
layer {
  name: "conv3"
  type: "Convolution"
  bottom: "pool2"
  top: "conv3"
  convolution_param {
    num_output: 28
    pad: 0
    stride: 1
    weight_filler {
      type: "xavier"
    }
    bias_filler {
      type: "constant"
    }
    kernel_h: 6
    kernel_w: 3
  }
}
layer {
  name: "relu3"
  type: "ReLU"
  bottom: "conv3"
  top: "conv3"
}
layer {
  name: "pool3"
  type: "Pooling"
  bottom: "conv3"
  top: "pool3"
  pooling_param {
    pool: MAX
    kernel_h: 2
    kernel_w: 1
    stride_h: 2
    stride_w: 1
  }
}
layer {
  name: "conv4"
  type: "Convolution"
  bottom: "pool3"
  top: "conv4"
  convolution_param {
    num_output: 36
    pad: 0
    stride: 1
    weight_filler {
      type: "xavier"
    }
    bias_filler {
      type: "constant"
    }
    kernel_h: 6
    kernel_w: 3
  }
}
layer {
  name: "relu4"
  type: "ReLU"
  bottom: "conv4"
  top: "conv4"
}
layer {
  name: "pool4"
  type: "Pooling"
  bottom: "conv4"
  top: "pool4"
  pooling_param {
    pool: MAX
    kernel_h: 2
    kernel_w: 1
    stride_h: 2
    stride_w: 1
  }
}
layer {
  name: "ip1"
  type: "InnerProduct"
  bottom: "pool4"
  top: "ip1"
  inner_product_param {
    num_output: 196
    weight_filler {
      type: "xavier"
    }
    bias_filler {
      type: "constant"
    }
  }
}
layer {
  name: "relu5"
  type: "ReLU"
  bottom: "ip1"
  top: "ip1"
}
layer {
  name: "drop1"
  type: "Dropout"
  bottom: "ip1"
  top: "ip1"
  dropout_param {
    dropout_ratio: 0.5
  }
}
layer {
  name: "ip2"
  type: "InnerProduct"
  bottom: "ip1"
  top: "ip2"
  inner_product_param {
    num_output: 98
    weight_filler {
      type: "xavier"
    }
    bias_filler {
      type: "constant"
    }
  }
}
layer {
  name: "relu6"
  type: "ReLU"
  bottom: "ip2"
  top: "ip2"
}
layer {
  name: "drop2"
  type: "Dropout"
  bottom: "ip2"
  top: "ip2"
  dropout_param {
    dropout_ratio: 0.5
  }
}
layer {
  name: "ip3"
  type: "InnerProduct"
  bottom: "ip2"
  top: "ip3"
  inner_product_param {
    num_output: 11
    weight_filler {
      type: "xavier"
    }
    bias_filler {
      type: "constant"
    }
  }
}
layer {
  name: "drop3"
  type: "Dropout"
  bottom: "ip3"
  top: "ip3"
  dropout_param {
    dropout_ratio: 0.5
  }
}
layer {
  name: "loss"
  type: "SoftmaxWithLoss"
  bottom: "ip3"
  bottom: "label"
  top: "loss"
}
I0525 18:57:16.603960 25020 layer_factory.hpp:77] Creating layer data_hdf5
I0525 18:57:16.603983 25020 net.cpp:106] Creating Layer data_hdf5
I0525 18:57:16.603998 25020 net.cpp:411] data_hdf5 -> data
I0525 18:57:16.604032 25020 net.cpp:411] data_hdf5 -> label
I0525 18:57:16.604063 25020 hdf5_data_layer.cpp:79] Loading list of HDF5 filenames from: /lustre/atlas/proj-shared/hep105/caffe_titan/minosmatch_nukecczdefs_127x50_x_unshifted_me1Bmc.trainlist
I0525 18:57:16.605331 25020 hdf5_data_layer.cpp:93] Number of HDF5 files: 15
I0525 18:57:16.607527 25020 hdf5.cpp:32] Datatype class: H5T_FLOAT
I0525 18:57:38.154677 25020 hdf5.cpp:35] Datatype class: H5T_INTEGER
I0525 18:57:38.159852 25020 net.cpp:150] Setting up data_hdf5
I0525 18:57:38.159895 25020 net.cpp:157] Top shape: 100 1 127 50 (635000)
I0525 18:57:38.159910 25020 net.cpp:157] Top shape: 100 (100)
I0525 18:57:38.159920 25020 net.cpp:165] Memory required for data: 2540400
I0525 18:57:38.159934 25020 layer_factory.hpp:77] Creating layer conv1
I0525 18:57:38.159968 25020 net.cpp:106] Creating Layer conv1
I0525 18:57:38.159979 25020 net.cpp:454] conv1 <- data
I0525 18:57:38.160002 25020 net.cpp:411] conv1 -> conv1
I0525 18:57:38.520867 25020 net.cpp:150] Setting up conv1
I0525 18:57:38.520915 25020 net.cpp:157] Top shape: 100 12 120 48 (6912000)
I0525 18:57:38.520925 25020 net.cpp:165] Memory required for data: 30188400
I0525 18:57:38.520953 25020 layer_factory.hpp:77] Creating layer relu1
I0525 18:57:38.520974 25020 net.cpp:106] Creating Layer relu1
I0525 18:57:38.520985 25020 net.cpp:454] relu1 <- conv1
I0525 18:57:38.520998 25020 net.cpp:397] relu1 -> conv1 (in-place)
I0525 18:57:38.521527 25020 net.cpp:150] Setting up relu1
I0525 18:57:38.521543 25020 net.cpp:157] Top shape: 100 12 120 48 (6912000)
I0525 18:57:38.521553 25020 net.cpp:165] Memory required for data: 57836400
I0525 18:57:38.521564 25020 layer_factory.hpp:77] Creating layer pool1
I0525 18:57:38.521581 25020 net.cpp:106] Creating Layer pool1
I0525 18:57:38.521591 25020 net.cpp:454] pool1 <- conv1
I0525 18:57:38.521605 25020 net.cpp:411] pool1 -> pool1
I0525 18:57:38.521687 25020 net.cpp:150] Setting up pool1
I0525 18:57:38.521700 25020 net.cpp:157] Top shape: 100 12 60 48 (3456000)
I0525 18:57:38.521709 25020 net.cpp:165] Memory required for data: 71660400
I0525 18:57:38.521720 25020 layer_factory.hpp:77] Creating layer conv2
I0525 18:57:38.521744 25020 net.cpp:106] Creating Layer conv2
I0525 18:57:38.521754 25020 net.cpp:454] conv2 <- pool1
I0525 18:57:38.521766 25020 net.cpp:411] conv2 -> conv2
I0525 18:57:38.524492 25020 net.cpp:150] Setting up conv2
I0525 18:57:38.524519 25020 net.cpp:157] Top shape: 100 20 54 46 (4968000)
I0525 18:57:38.524529 25020 net.cpp:165] Memory required for data: 91532400
I0525 18:57:38.524549 25020 layer_factory.hpp:77] Creating layer relu2
I0525 18:57:38.524564 25020 net.cpp:106] Creating Layer relu2
I0525 18:57:38.524574 25020 net.cpp:454] relu2 <- conv2
I0525 18:57:38.524586 25020 net.cpp:397] relu2 -> conv2 (in-place)
I0525 18:57:38.524917 25020 net.cpp:150] Setting up relu2
I0525 18:57:38.524931 25020 net.cpp:157] Top shape: 100 20 54 46 (4968000)
I0525 18:57:38.524941 25020 net.cpp:165] Memory required for data: 111404400
I0525 18:57:38.524951 25020 layer_factory.hpp:77] Creating layer pool2
I0525 18:57:38.524963 25020 net.cpp:106] Creating Layer pool2
I0525 18:57:38.524974 25020 net.cpp:454] pool2 <- conv2
I0525 18:57:38.524986 25020 net.cpp:411] pool2 -> pool2
I0525 18:57:38.525077 25020 net.cpp:150] Setting up pool2
I0525 18:57:38.525091 25020 net.cpp:157] Top shape: 100 20 27 46 (2484000)
I0525 18:57:38.525101 25020 net.cpp:165] Memory required for data: 121340400
I0525 18:57:38.525111 25020 layer_factory.hpp:77] Creating layer conv3
I0525 18:57:38.525130 25020 net.cpp:106] Creating Layer conv3
I0525 18:57:38.525141 25020 net.cpp:454] conv3 <- pool2
I0525 18:57:38.525154 25020 net.cpp:411] conv3 -> conv3
I0525 18:57:38.527073 25020 net.cpp:150] Setting up conv3
I0525 18:57:38.527091 25020 net.cpp:157] Top shape: 100 28 22 44 (2710400)
I0525 18:57:38.527102 25020 net.cpp:165] Memory required for data: 132182000
I0525 18:57:38.527120 25020 layer_factory.hpp:77] Creating layer relu3
I0525 18:57:38.527137 25020 net.cpp:106] Creating Layer relu3
I0525 18:57:38.527146 25020 net.cpp:454] relu3 <- conv3
I0525 18:57:38.527158 25020 net.cpp:397] relu3 -> conv3 (in-place)
I0525 18:57:38.527631 25020 net.cpp:150] Setting up relu3
I0525 18:57:38.527647 25020 net.cpp:157] Top shape: 100 28 22 44 (2710400)
I0525 18:57:38.527657 25020 net.cpp:165] Memory required for data: 143023600
I0525 18:57:38.527667 25020 layer_factory.hpp:77] Creating layer pool3
I0525 18:57:38.527680 25020 net.cpp:106] Creating Layer pool3
I0525 18:57:38.527690 25020 net.cpp:454] pool3 <- conv3
I0525 18:57:38.527704 25020 net.cpp:411] pool3 -> pool3
I0525 18:57:38.527770 25020 net.cpp:150] Setting up pool3
I0525 18:57:38.527783 25020 net.cpp:157] Top shape: 100 28 11 44 (1355200)
I0525 18:57:38.527793 25020 net.cpp:165] Memory required for data: 148444400
I0525 18:57:38.527803 25020 layer_factory.hpp:77] Creating layer conv4
I0525 18:57:38.527822 25020 net.cpp:106] Creating Layer conv4
I0525 18:57:38.527832 25020 net.cpp:454] conv4 <- pool3
I0525 18:57:38.527844 25020 net.cpp:411] conv4 -> conv4
I0525 18:57:38.530789 25020 net.cpp:150] Setting up conv4
I0525 18:57:38.530812 25020 net.cpp:157] Top shape: 100 36 6 42 (907200)
I0525 18:57:38.530823 25020 net.cpp:165] Memory required for data: 152073200
I0525 18:57:38.530839 25020 layer_factory.hpp:77] Creating layer relu4
I0525 18:57:38.530853 25020 net.cpp:106] Creating Layer relu4
I0525 18:57:38.530864 25020 net.cpp:454] relu4 <- conv4
I0525 18:57:38.530877 25020 net.cpp:397] relu4 -> conv4 (in-place)
I0525 18:57:38.531340 25020 net.cpp:150] Setting up relu4
I0525 18:57:38.531357 25020 net.cpp:157] Top shape: 100 36 6 42 (907200)
I0525 18:57:38.531366 25020 net.cpp:165] Memory required for data: 155702000
I0525 18:57:38.531378 25020 layer_factory.hpp:77] Creating layer pool4
I0525 18:57:38.531390 25020 net.cpp:106] Creating Layer pool4
I0525 18:57:38.531401 25020 net.cpp:454] pool4 <- conv4
I0525 18:57:38.531414 25020 net.cpp:411] pool4 -> pool4
I0525 18:57:38.531481 25020 net.cpp:150] Setting up pool4
I0525 18:57:38.531496 25020 net.cpp:157] Top shape: 100 36 3 42 (453600)
I0525 18:57:38.531504 25020 net.cpp:165] Memory required for data: 157516400
I0525 18:57:38.531515 25020 layer_factory.hpp:77] Creating layer ip1
I0525 18:57:38.531535 25020 net.cpp:106] Creating Layer ip1
I0525 18:57:38.531545 25020 net.cpp:454] ip1 <- pool4
I0525 18:57:38.531558 25020 net.cpp:411] ip1 -> ip1
I0525 18:57:38.546990 25020 net.cpp:150] Setting up ip1
I0525 18:57:38.547013 25020 net.cpp:157] Top shape: 100 196 (19600)
I0525 18:57:38.547024 25020 net.cpp:165] Memory required for data: 157594800
I0525 18:57:38.547045 25020 layer_factory.hpp:77] Creating layer relu5
I0525 18:57:38.547060 25020 net.cpp:106] Creating Layer relu5
I0525 18:57:38.547070 25020 net.cpp:454] relu5 <- ip1
I0525 18:57:38.547083 25020 net.cpp:397] relu5 -> ip1 (in-place)
I0525 18:57:38.547425 25020 net.cpp:150] Setting up relu5
I0525 18:57:38.547438 25020 net.cpp:157] Top shape: 100 196 (19600)
I0525 18:57:38.547448 25020 net.cpp:165] Memory required for data: 157673200
I0525 18:57:38.547458 25020 layer_factory.hpp:77] Creating layer drop1
I0525 18:57:38.547480 25020 net.cpp:106] Creating Layer drop1
I0525 18:57:38.547490 25020 net.cpp:454] drop1 <- ip1
I0525 18:57:38.547502 25020 net.cpp:397] drop1 -> ip1 (in-place)
I0525 18:57:38.547562 25020 net.cpp:150] Setting up drop1
I0525 18:57:38.547575 25020 net.cpp:157] Top shape: 100 196 (19600)
I0525 18:57:38.547585 25020 net.cpp:165] Memory required for data: 157751600
I0525 18:57:38.547595 25020 layer_factory.hpp:77] Creating layer ip2
I0525 18:57:38.547615 25020 net.cpp:106] Creating Layer ip2
I0525 18:57:38.547624 25020 net.cpp:454] ip2 <- ip1
I0525 18:57:38.547637 25020 net.cpp:411] ip2 -> ip2
I0525 18:57:38.548102 25020 net.cpp:150] Setting up ip2
I0525 18:57:38.548116 25020 net.cpp:157] Top shape: 100 98 (9800)
I0525 18:57:38.548126 25020 net.cpp:165] Memory required for data: 157790800
I0525 18:57:38.548141 25020 layer_factory.hpp:77] Creating layer relu6
I0525 18:57:38.548153 25020 net.cpp:106] Creating Layer relu6
I0525 18:57:38.548163 25020 net.cpp:454] relu6 <- ip2
I0525 18:57:38.548176 25020 net.cpp:397] relu6 -> ip2 (in-place)
I0525 18:57:38.548697 25020 net.cpp:150] Setting up relu6
I0525 18:57:38.548712 25020 net.cpp:157] Top shape: 100 98 (9800)
I0525 18:57:38.548722 25020 net.cpp:165] Memory required for data: 157830000
I0525 18:57:38.548732 25020 layer_factory.hpp:77] Creating layer drop2
I0525 18:57:38.548745 25020 net.cpp:106] Creating Layer drop2
I0525 18:57:38.548755 25020 net.cpp:454] drop2 <- ip2
I0525 18:57:38.548768 25020 net.cpp:397] drop2 -> ip2 (in-place)
I0525 18:57:38.548810 25020 net.cpp:150] Setting up drop2
I0525 18:57:38.548822 25020 net.cpp:157] Top shape: 100 98 (9800)
I0525 18:57:38.548832 25020 net.cpp:165] Memory required for data: 157869200
I0525 18:57:38.548842 25020 layer_factory.hpp:77] Creating layer ip3
I0525 18:57:38.548856 25020 net.cpp:106] Creating Layer ip3
I0525 18:57:38.548866 25020 net.cpp:454] ip3 <- ip2
I0525 18:57:38.548878 25020 net.cpp:411] ip3 -> ip3
I0525 18:57:38.549094 25020 net.cpp:150] Setting up ip3
I0525 18:57:38.549108 25020 net.cpp:157] Top shape: 100 11 (1100)
I0525 18:57:38.549118 25020 net.cpp:165] Memory required for data: 157873600
I0525 18:57:38.549132 25020 layer_factory.hpp:77] Creating layer drop3
I0525 18:57:38.549145 25020 net.cpp:106] Creating Layer drop3
I0525 18:57:38.549155 25020 net.cpp:454] drop3 <- ip3
I0525 18:57:38.549167 25020 net.cpp:397] drop3 -> ip3 (in-place)
I0525 18:57:38.549206 25020 net.cpp:150] Setting up drop3
I0525 18:57:38.549219 25020 net.cpp:157] Top shape: 100 11 (1100)
I0525 18:57:38.549229 25020 net.cpp:165] Memory required for data: 157878000
I0525 18:57:38.549239 25020 layer_factory.hpp:77] Creating layer loss
I0525 18:57:38.549259 25020 net.cpp:106] Creating Layer loss
I0525 18:57:38.549269 25020 net.cpp:454] loss <- ip3
I0525 18:57:38.549280 25020 net.cpp:454] loss <- label
I0525 18:57:38.549293 25020 net.cpp:411] loss -> loss
I0525 18:57:38.549309 25020 layer_factory.hpp:77] Creating layer loss
…
I0525 18:57:38.552019 25020 solver.cpp:181] Creating test net (#0) specified by net file: /lustre/atlas/proj-shared/hep105/caffe_titan/caffe_workflow/logs_bslr/bs_100_lr_0.0035_2016-05-20T15.49.26.227827.prototxt
I0525 18:57:38.552091 25020 net.cpp:322] The NetState phase (1) differed from the phase (0) specified by a rule in layer data_hdf5
I0525 18:57:38.552445 25020 net.cpp:49] Initializing net from parameters: 
name: "caffe_test_127x50_x_unshifted"
state {
  phase: TEST
}
layer {
  name: "data_hdf5"
  type: "HDF5Data"
  top: "data"
  top: "label"
  include {
    phase: TEST
  }
  hdf5_data_param {
    source: "/lustre/atlas/proj-shared/hep105/caffe_titan/minosmatch_nukecczdefs_127x50_x_unshifted_me1Bmc.testlist"
    batch_size: 100
  }
}
layer {
  name: "conv1"
  type: "Convolution"
  bottom: "data"
  top: "conv1"
  convolution_param {
    num_output: 12
    pad: 0
    stride: 1
    weight_filler {
      type: "xavier"
    }
    bias_filler {
      type: "constant"
    }
    kernel_h: 8
    kernel_w: 3
  }
}
layer {
  name: "relu1"
  type: "ReLU"
  bottom: "conv1"
  top: "conv1"
}
layer {
  name: "pool1"
  type: "Pooling"
  bottom: "conv1"
  top: "pool1"
  pooling_param {
    pool: MAX
    kernel_h: 2
    kernel_w: 1
    stride_h: 2
    stride_w: 1
  }
}
layer {
  name: "conv2"
  type: "Convolution"
  bottom: "pool1"
  top: "conv2"
  convolution_param {
    num_output: 20
    pad: 0
    stride: 1
    weight_filler {
      type: "xavier"
    }
    bias_filler {
      type: "constant"
    }
    kernel_h: 7
    kernel_w: 3
  }
}
layer {
  name: "relu2"
  type: "ReLU"
  bottom: "conv2"
  top: "conv2"
}
layer {
  name: "pool2"
  type: "Pooling"
  bottom: "conv2"
  top: "pool2"
  pooling_param {
    pool: MAX
    kernel_h: 2
    kernel_w: 1
    stride_h: 2
    stride_w: 1
  }
}
layer {
  name: "conv3"
  type: "Convolution"
  bottom: "pool2"
  top: "conv3"
  convolution_param {
    num_output: 28
    pad: 0
    stride: 1
    weight_filler {
      type: "xavier"
    }
    bias_filler {
      type: "constant"
    }
    kernel_h: 6
    kernel_w: 3
  }
}
layer {
  name: "relu3"
  type: "ReLU"
  bottom: "conv3"
  top: "conv3"
}
layer {
  name: "pool3"
  type: "Pooling"
  bottom: "conv3"
  top: "pool3"
  pooling_param {
    pool: MAX
    kernel_h: 2
    kernel_w: 1
    stride_h: 2
    stride_w: 1
  }
}
layer {
  name: "conv4"
  type: "Convolution"
  bottom: "pool3"
  top: "conv4"
  convolution_param {
    num_output: 36
    pad: 0
    stride: 1
    weight_filler {
      type: "xavier"
    }
    bias_filler {
      type: "constant"
    }
    kernel_h: 6
    kernel_w: 3
  }
}
layer {
  name: "relu4"
  type: "ReLU"
  bottom: "conv4"
  top: "conv4"
}
layer {
  name: "pool4"
  type: "Pooling"
  bottom: "conv4"
  top: "pool4"
  pooling_param {
    pool: MAX
    kernel_h: 2
    kernel_w: 1
    stride_h: 2
    stride_w: 1
  }
}
layer {
  name: "ip1"
  type: "InnerProduct"
  bottom: "pool4"
  top: "ip1"
  inner_product_param {
    num_output: 196
    weight_filler {
      type: "xavier"
    }
    bias_filler {
      type: "constant"
    }
  }
}
layer {
  name: "relu5"
  type: "ReLU"
  bottom: "ip1"
  top: "ip1"
}
layer {
  name: "drop1"
  type: "Dropout"
  bottom: "ip1"
  top: "ip1"
  dropout_param {
    dropout_ratio: 0.5
  }
}
layer {
  name: "ip2"
  type: "InnerProduct"
  bottom: "ip1"
  top: "ip2"
  inner_product_param {
    num_output: 98
    weight_filler {
      type: "xavier"
    }
    bias_filler {
      type: "constant"
    }
  }
}
layer {
  name: "relu6"
  type: "ReLU"
  bottom: "ip2"
  top: "ip2"
}
layer {
  name: "drop2"
  type: "Dropout"
  bottom: "ip2"
  top: "ip2"
  dropout_param {
    dropout_ratio: 0.5
  }
}
layer {
  name: "ip3"
  type: "InnerProduct"
  bottom: "ip2"
  top: "ip3"
  inner_product_param {
    num_output: 11
    weight_filler {
      type: "xavier"
    }
    bias_filler {
      type: "constant"
    }
  }
}
layer {
  name: "drop3"
  type: "Dropout"
  bottom: "ip3"
  top: "ip3"
  dropout_param {
    dropout_ratio: 0.5
  }
}
layer {
  name: "accuracy"
  type: "Accuracy"
  bottom: "ip3"
  bottom: "label"
  top: "accuracy"
  include {
    phase: TEST
  }
}
layer {
  name: "loss"
  type: "SoftmaxWithLoss"
  bottom: "ip3"
  bottom: "label"
  top: "loss"
}
I0525 18:57:38.552634 25020 layer_factory.hpp:77] Creating layer data_hdf5
I0525 18:57:38.552649 25020 net.cpp:106] Creating Layer data_hdf5
I0525 18:57:38.552661 25020 net.cpp:411] data_hdf5 -> data
I0525 18:57:38.552678 25020 net.cpp:411] data_hdf5 -> label
I0525 18:57:38.552695 25020 hdf5_data_layer.cpp:79] Loading list of HDF5 filenames from: /lustre/atlas/proj-shared/hep105/caffe_titan/minosmatch_nukecczdefs_127x50_x_unshifted_me1Bmc.testlist
I0525 18:57:38.554065 25020 hdf5_data_layer.cpp:93] Number of HDF5 files: 3
I0525 18:57:59.919479 25020 net.cpp:150] Setting up data_hdf5
I0525 18:57:59.919646 25020 net.cpp:157] Top shape: 100 1 127 50 (635000)
I0525 18:57:59.919659 25020 net.cpp:157] Top shape: 100 (100)
I0525 18:57:59.919673 25020 net.cpp:165] Memory required for data: 2540400
I0525 18:57:59.919687 25020 layer_factory.hpp:77] Creating layer label_data_hdf5_1_split
I0525 18:57:59.919715 25020 net.cpp:106] Creating Layer label_data_hdf5_1_split
I0525 18:57:59.919726 25020 net.cpp:454] label_data_hdf5_1_split <- label
I0525 18:57:59.919740 25020 net.cpp:411] label_data_hdf5_1_split -> label_data_hdf5_1_split_0
I0525 18:57:59.919761 25020 net.cpp:411] label_data_hdf5_1_split -> label_data_hdf5_1_split_1
I0525 18:57:59.919834 25020 net.cpp:150] Setting up label_data_hdf5_1_split
I0525 18:57:59.919848 25020 net.cpp:157] Top shape: 100 (100)
I0525 18:57:59.919860 25020 net.cpp:157] Top shape: 100 (100)
I0525 18:57:59.919869 25020 net.cpp:165] Memory required for data: 2541200
I0525 18:57:59.919881 25020 layer_factory.hpp:77] Creating layer conv1
I0525 18:57:59.919901 25020 net.cpp:106] Creating Layer conv1
I0525 18:57:59.919912 25020 net.cpp:454] conv1 <- data
I0525 18:57:59.919926 25020 net.cpp:411] conv1 -> conv1
I0525 18:57:59.921890 25020 net.cpp:150] Setting up conv1
I0525 18:57:59.921914 25020 net.cpp:157] Top shape: 100 12 120 48 (6912000)
I0525 18:57:59.921926 25020 net.cpp:165] Memory required for data: 30189200
I0525 18:57:59.921947 25020 layer_factory.hpp:77] Creating layer relu1
I0525 18:57:59.921962 25020 net.cpp:106] Creating Layer relu1
I0525 18:57:59.921972 25020 net.cpp:454] relu1 <- conv1
I0525 18:57:59.921984 25020 net.cpp:397] relu1 -> conv1 (in-place)
I0525 18:57:59.922480 25020 net.cpp:150] Setting up relu1
I0525 18:57:59.922497 25020 net.cpp:157] Top shape: 100 12 120 48 (6912000)
I0525 18:57:59.922507 25020 net.cpp:165] Memory required for data: 57837200
I0525 18:57:59.922516 25020 layer_factory.hpp:77] Creating layer pool1
I0525 18:57:59.922533 25020 net.cpp:106] Creating Layer pool1
I0525 18:57:59.922543 25020 net.cpp:454] pool1 <- conv1
I0525 18:57:59.922554 25020 net.cpp:411] pool1 -> pool1
I0525 18:57:59.922629 25020 net.cpp:150] Setting up pool1
I0525 18:57:59.922642 25020 net.cpp:157] Top shape: 100 12 60 48 (3456000)
I0525 18:57:59.922652 25020 net.cpp:165] Memory required for data: 71661200
I0525 18:57:59.922662 25020 layer_factory.hpp:77] Creating layer conv2
I0525 18:57:59.922680 25020 net.cpp:106] Creating Layer conv2
I0525 18:57:59.922691 25020 net.cpp:454] conv2 <- pool1
I0525 18:57:59.922705 25020 net.cpp:411] conv2 -> conv2
I0525 18:57:59.924623 25020 net.cpp:150] Setting up conv2
I0525 18:57:59.924644 25020 net.cpp:157] Top shape: 100 20 54 46 (4968000)
I0525 18:57:59.924657 25020 net.cpp:165] Memory required for data: 91533200
I0525 18:57:59.924674 25020 layer_factory.hpp:77] Creating layer relu2
I0525 18:57:59.924688 25020 net.cpp:106] Creating Layer relu2
I0525 18:57:59.924698 25020 net.cpp:454] relu2 <- conv2
I0525 18:57:59.924710 25020 net.cpp:397] relu2 -> conv2 (in-place)
I0525 18:57:59.925053 25020 net.cpp:150] Setting up relu2
I0525 18:57:59.925067 25020 net.cpp:157] Top shape: 100 20 54 46 (4968000)
I0525 18:57:59.925077 25020 net.cpp:165] Memory required for data: 111405200
I0525 18:57:59.925087 25020 layer_factory.hpp:77] Creating layer pool2
I0525 18:57:59.925101 25020 net.cpp:106] Creating Layer pool2
I0525 18:57:59.925110 25020 net.cpp:454] pool2 <- conv2
I0525 18:57:59.925123 25020 net.cpp:411] pool2 -> pool2
I0525 18:57:59.925195 25020 net.cpp:150] Setting up pool2
I0525 18:57:59.925209 25020 net.cpp:157] Top shape: 100 20 27 46 (2484000)
I0525 18:57:59.925218 25020 net.cpp:165] Memory required for data: 121341200
I0525 18:57:59.925228 25020 layer_factory.hpp:77] Creating layer conv3
I0525 18:57:59.925246 25020 net.cpp:106] Creating Layer conv3
I0525 18:57:59.925256 25020 net.cpp:454] conv3 <- pool2
I0525 18:57:59.925269 25020 net.cpp:411] conv3 -> conv3
I0525 18:57:59.927268 25020 net.cpp:150] Setting up conv3
I0525 18:57:59.927285 25020 net.cpp:157] Top shape: 100 28 22 44 (2710400)
I0525 18:57:59.927296 25020 net.cpp:165] Memory required for data: 132182800
I0525 18:57:59.927328 25020 layer_factory.hpp:77] Creating layer relu3
I0525 18:57:59.927342 25020 net.cpp:106] Creating Layer relu3
I0525 18:57:59.927352 25020 net.cpp:454] relu3 <- conv3
I0525 18:57:59.927366 25020 net.cpp:397] relu3 -> conv3 (in-place)
I0525 18:57:59.927836 25020 net.cpp:150] Setting up relu3
I0525 18:57:59.927852 25020 net.cpp:157] Top shape: 100 28 22 44 (2710400)
I0525 18:57:59.927862 25020 net.cpp:165] Memory required for data: 143024400
I0525 18:57:59.927873 25020 layer_factory.hpp:77] Creating layer pool3
I0525 18:57:59.927886 25020 net.cpp:106] Creating Layer pool3
I0525 18:57:59.927896 25020 net.cpp:454] pool3 <- conv3
I0525 18:57:59.927909 25020 net.cpp:411] pool3 -> pool3
I0525 18:57:59.927979 25020 net.cpp:150] Setting up pool3
I0525 18:57:59.927992 25020 net.cpp:157] Top shape: 100 28 11 44 (1355200)
I0525 18:57:59.928002 25020 net.cpp:165] Memory required for data: 148445200
I0525 18:57:59.928012 25020 layer_factory.hpp:77] Creating layer conv4
I0525 18:57:59.928030 25020 net.cpp:106] Creating Layer conv4
I0525 18:57:59.928040 25020 net.cpp:454] conv4 <- pool3
I0525 18:57:59.928055 25020 net.cpp:411] conv4 -> conv4
I0525 18:57:59.930141 25020 net.cpp:150] Setting up conv4
I0525 18:57:59.930165 25020 net.cpp:157] Top shape: 100 36 6 42 (907200)
I0525 18:57:59.930176 25020 net.cpp:165] Memory required for data: 152074000
I0525 18:57:59.930192 25020 layer_factory.hpp:77] Creating layer relu4
I0525 18:57:59.930207 25020 net.cpp:106] Creating Layer relu4
I0525 18:57:59.930217 25020 net.cpp:454] relu4 <- conv4
I0525 18:57:59.930229 25020 net.cpp:397] relu4 -> conv4 (in-place)
I0525 18:57:59.930702 25020 net.cpp:150] Setting up relu4
I0525 18:57:59.930718 25020 net.cpp:157] Top shape: 100 36 6 42 (907200)
I0525 18:57:59.930728 25020 net.cpp:165] Memory required for data: 155702800
I0525 18:57:59.930739 25020 layer_factory.hpp:77] Creating layer pool4
I0525 18:57:59.930752 25020 net.cpp:106] Creating Layer pool4
I0525 18:57:59.930763 25020 net.cpp:454] pool4 <- conv4
I0525 18:57:59.930775 25020 net.cpp:411] pool4 -> pool4
I0525 18:57:59.930846 25020 net.cpp:150] Setting up pool4
I0525 18:57:59.930860 25020 net.cpp:157] Top shape: 100 36 3 42 (453600)
I0525 18:57:59.930869 25020 net.cpp:165] Memory required for data: 157517200
I0525 18:57:59.930881 25020 layer_factory.hpp:77] Creating layer ip1
I0525 18:57:59.930896 25020 net.cpp:106] Creating Layer ip1
I0525 18:57:59.930907 25020 net.cpp:454] ip1 <- pool4
I0525 18:57:59.930920 25020 net.cpp:411] ip1 -> ip1
I0525 18:57:59.946427 25020 net.cpp:150] Setting up ip1
I0525 18:57:59.946456 25020 net.cpp:157] Top shape: 100 196 (19600)
I0525 18:57:59.946467 25020 net.cpp:165] Memory required for data: 157595600
I0525 18:57:59.946488 25020 layer_factory.hpp:77] Creating layer relu5
I0525 18:57:59.946504 25020 net.cpp:106] Creating Layer relu5
I0525 18:57:59.946514 25020 net.cpp:454] relu5 <- ip1
I0525 18:57:59.946527 25020 net.cpp:397] relu5 -> ip1 (in-place)
I0525 18:57:59.946877 25020 net.cpp:150] Setting up relu5
I0525 18:57:59.946892 25020 net.cpp:157] Top shape: 100 196 (19600)
I0525 18:57:59.946902 25020 net.cpp:165] Memory required for data: 157674000
I0525 18:57:59.946912 25020 layer_factory.hpp:77] Creating layer drop1
I0525 18:57:59.946930 25020 net.cpp:106] Creating Layer drop1
I0525 18:57:59.946940 25020 net.cpp:454] drop1 <- ip1
I0525 18:57:59.946954 25020 net.cpp:397] drop1 -> ip1 (in-place)
I0525 18:57:59.946998 25020 net.cpp:150] Setting up drop1
I0525 18:57:59.947011 25020 net.cpp:157] Top shape: 100 196 (19600)
I0525 18:57:59.947022 25020 net.cpp:165] Memory required for data: 157752400
I0525 18:57:59.947032 25020 layer_factory.hpp:77] Creating layer ip2
I0525 18:57:59.947046 25020 net.cpp:106] Creating Layer ip2
I0525 18:57:59.947057 25020 net.cpp:454] ip2 <- ip1
I0525 18:57:59.947070 25020 net.cpp:411] ip2 -> ip2
I0525 18:57:59.947551 25020 net.cpp:150] Setting up ip2
I0525 18:57:59.947563 25020 net.cpp:157] Top shape: 100 98 (9800)
I0525 18:57:59.947573 25020 net.cpp:165] Memory required for data: 157791600
I0525 18:57:59.947589 25020 layer_factory.hpp:77] Creating layer relu6
I0525 18:57:59.947614 25020 net.cpp:106] Creating Layer relu6
I0525 18:57:59.947624 25020 net.cpp:454] relu6 <- ip2
I0525 18:57:59.947638 25020 net.cpp:397] relu6 -> ip2 (in-place)
I0525 18:57:59.948179 25020 net.cpp:150] Setting up relu6
I0525 18:57:59.948200 25020 net.cpp:157] Top shape: 100 98 (9800)
I0525 18:57:59.948210 25020 net.cpp:165] Memory required for data: 157830800
I0525 18:57:59.948220 25020 layer_factory.hpp:77] Creating layer drop2
I0525 18:57:59.948235 25020 net.cpp:106] Creating Layer drop2
I0525 18:57:59.948245 25020 net.cpp:454] drop2 <- ip2
I0525 18:57:59.948257 25020 net.cpp:397] drop2 -> ip2 (in-place)
I0525 18:57:59.948300 25020 net.cpp:150] Setting up drop2
I0525 18:57:59.948314 25020 net.cpp:157] Top shape: 100 98 (9800)
I0525 18:57:59.948323 25020 net.cpp:165] Memory required for data: 157870000
I0525 18:57:59.948333 25020 layer_factory.hpp:77] Creating layer ip3
I0525 18:57:59.948348 25020 net.cpp:106] Creating Layer ip3
I0525 18:57:59.948357 25020 net.cpp:454] ip3 <- ip2
I0525 18:57:59.948371 25020 net.cpp:411] ip3 -> ip3
I0525 18:57:59.948595 25020 net.cpp:150] Setting up ip3
I0525 18:57:59.948608 25020 net.cpp:157] Top shape: 100 11 (1100)
I0525 18:57:59.948617 25020 net.cpp:165] Memory required for data: 157874400
I0525 18:57:59.948633 25020 layer_factory.hpp:77] Creating layer drop3
I0525 18:57:59.948647 25020 net.cpp:106] Creating Layer drop3
I0525 18:57:59.948657 25020 net.cpp:454] drop3 <- ip3
I0525 18:57:59.948669 25020 net.cpp:397] drop3 -> ip3 (in-place)
I0525 18:57:59.948710 25020 net.cpp:150] Setting up drop3
I0525 18:57:59.948724 25020 net.cpp:157] Top shape: 100 11 (1100)
I0525 18:57:59.948734 25020 net.cpp:165] Memory required for data: 157878800
I0525 18:57:59.948742 25020 layer_factory.hpp:77] Creating layer ip3_drop3_0_split
I0525 18:57:59.948756 25020 net.cpp:106] Creating Layer ip3_drop3_0_split
I0525 18:57:59.948765 25020 net.cpp:454] ip3_drop3_0_split <- ip3
I0525 18:57:59.948778 25020 net.cpp:411] ip3_drop3_0_split -> ip3_drop3_0_split_0
I0525 18:57:59.948793 25020 net.cpp:411] ip3_drop3_0_split -> ip3_drop3_0_split_1
I0525 18:57:59.948868 25020 net.cpp:150] Setting up ip3_drop3_0_split
I0525 18:57:59.948880 25020 net.cpp:157] Top shape: 100 11 (1100)
I0525 18:57:59.948892 25020 net.cpp:157] Top shape: 100 11 (1100)
I0525 18:57:59.948904 25020 net.cpp:165] Memory required for data: 157887600
I0525 18:57:59.948915 25020 layer_factory.hpp:77] Creating layer accuracy
I0525 18:57:59.948935 25020 net.cpp:106] Creating Layer accuracy
I0525 18:57:59.948945 25020 net.cpp:454] accuracy <- ip3_drop3_0_split_0
I0525 18:57:59.948956 25020 net.cpp:454] accuracy <- label_data_hdf5_1_split_0
I0525 18:57:59.948971 25020 net.cpp:411] accuracy -> accuracy
…
