…
I0526 07:31:59.454155 23331 net.cpp:322] The NetState phase (0) differed from the phase (1) specified by a rule in layer data_hdf5
I0526 07:31:59.454218 23331 net.cpp:322] The NetState phase (0) differed from the phase (1) specified by a rule in layer accuracy
I0526 07:31:59.454598 23331 net.cpp:49] Initializing net from parameters: 
name: "caffe_test_127x50_x_unshifted"
state {
  phase: TRAIN
}
layer {
  name: "data_hdf5"
  type: "HDF5Data"
  top: "data"
  top: "label"
  include {
    phase: TRAIN
  }
  hdf5_data_param {
    source: "/lustre/atlas/proj-shared/hep105/caffe_titan/minosmatch_nukecczdefs_127x50_x_unshifted_me1Bmc.trainlist"
    batch_size: 10
  }
}
layer {
  name: "conv1"
  type: "Convolution"
  bottom: "data"
  top: "conv1"
  convolution_param {
    num_output: 12
    pad: 0
    stride: 1
    weight_filler {
      type: "xavier"
    }
    bias_filler {
      type: "constant"
    }
    kernel_h: 8
    kernel_w: 3
  }
}
layer {
  name: "relu1"
  type: "ReLU"
  bottom: "conv1"
  top: "conv1"
}
layer {
  name: "pool1"
  type: "Pooling"
  bottom: "conv1"
  top: "pool1"
  pooling_param {
    pool: MAX
    kernel_h: 2
    kernel_w: 1
    stride_h: 2
    stride_w: 1
  }
}
layer {
  name: "conv2"
  type: "Convolution"
  bottom: "pool1"
  top: "conv2"
  convolution_param {
    num_output: 20
    pad: 0
    stride: 1
    weight_filler {
      type: "xavier"
    }
    bias_filler {
      type: "constant"
    }
    kernel_h: 7
    kernel_w: 3
  }
}
layer {
  name: "relu2"
  type: "ReLU"
  bottom: "conv2"
  top: "conv2"
}
layer {
  name: "pool2"
  type: "Pooling"
  bottom: "conv2"
  top: "pool2"
  pooling_param {
    pool: MAX
    kernel_h: 2
    kernel_w: 1
    stride_h: 2
    stride_w: 1
  }
}
layer {
  name: "conv3"
  type: "Convolution"
  bottom: "pool2"
  top: "conv3"
  convolution_param {
    num_output: 28
    pad: 0
    stride: 1
    weight_filler {
      type: "xavier"
    }
    bias_filler {
      type: "constant"
    }
    kernel_h: 6
    kernel_w: 3
  }
}
layer {
  name: "relu3"
  type: "ReLU"
  bottom: "conv3"
  top: "conv3"
}
layer {
  name: "pool3"
  type: "Pooling"
  bottom: "conv3"
  top: "pool3"
  pooling_param {
    pool: MAX
    kernel_h: 2
    kernel_w: 1
    stride_h: 2
    stride_w: 1
  }
}
layer {
  name: "conv4"
  type: "Convolution"
  bottom: "pool3"
  top: "conv4"
  convolution_param {
    num_output: 36
    pad: 0
    stride: 1
    weight_filler {
      type: "xavier"
    }
    bias_filler {
      type: "constant"
    }
    kernel_h: 6
    kernel_w: 3
  }
}
layer {
  name: "relu4"
  type: "ReLU"
  bottom: "conv4"
  top: "conv4"
}
layer {
  name: "pool4"
  type: "Pooling"
  bottom: "conv4"
  top: "pool4"
  pooling_param {
    pool: MAX
    kernel_h: 2
    kernel_w: 1
    stride_h: 2
    stride_w: 1
  }
}
layer {
  name: "ip1"
  type: "InnerProduct"
  bottom: "pool4"
  top: "ip1"
  inner_product_param {
    num_output: 196
    weight_filler {
      type: "xavier"
    }
    bias_filler {
      type: "constant"
    }
  }
}
layer {
  name: "relu5"
  type: "ReLU"
  bottom: "ip1"
  top: "ip1"
}
layer {
  name: "drop1"
  type: "Dropout"
  bottom: "ip1"
  top: "ip1"
  dropout_param {
    dropout_ratio: 0.5
  }
}
layer {
  name: "ip2"
  type: "InnerProduct"
  bottom: "ip1"
  top: "ip2"
  inner_product_param {
    num_output: 98
    weight_filler {
      type: "xavier"
    }
    bias_filler {
      type: "constant"
    }
  }
}
layer {
  name: "relu6"
  type: "ReLU"
  bottom: "ip2"
  top: "ip2"
}
layer {
  name: "drop2"
  type: "Dropout"
  bottom: "ip2"
  top: "ip2"
  dropout_param {
    dropout_ratio: 0.5
  }
}
layer {
  name: "ip3"
  type: "InnerProduct"
  bottom: "ip2"
  top: "ip3"
  inner_product_param {
    num_output: 11
    weight_filler {
      type: "xavier"
    }
    bias_filler {
      type: "constant"
    }
  }
}
layer {
  name: "drop3"
  type: "Dropout"
  bottom: "ip3"
  top: "ip3"
  dropout_param {
    dropout_ratio: 0.5
  }
}
layer {
  name: "loss"
  type: "SoftmaxWithLoss"
  bottom: "ip3"
  bottom: "label"
  top: "loss"
}
I0526 07:31:59.454810 23331 layer_factory.hpp:77] Creating layer data_hdf5
I0526 07:31:59.454848 23331 net.cpp:106] Creating Layer data_hdf5
I0526 07:31:59.454864 23331 net.cpp:411] data_hdf5 -> data
I0526 07:31:59.454898 23331 net.cpp:411] data_hdf5 -> label
I0526 07:31:59.454941 23331 hdf5_data_layer.cpp:79] Loading list of HDF5 filenames from: /lustre/atlas/proj-shared/hep105/caffe_titan/minosmatch_nukecczdefs_127x50_x_unshifted_me1Bmc.trainlist
I0526 07:31:59.456220 23331 hdf5_data_layer.cpp:93] Number of HDF5 files: 15
I0526 07:31:59.458452 23331 hdf5.cpp:32] Datatype class: H5T_FLOAT
I0526 07:32:21.055950 23331 hdf5.cpp:35] Datatype class: H5T_INTEGER
I0526 07:32:21.061158 23331 net.cpp:150] Setting up data_hdf5
I0526 07:32:21.061200 23331 net.cpp:157] Top shape: 10 1 127 50 (63500)
I0526 07:32:21.061218 23331 net.cpp:157] Top shape: 10 (10)
I0526 07:32:21.061229 23331 net.cpp:165] Memory required for data: 254040
I0526 07:32:21.061249 23331 layer_factory.hpp:77] Creating layer conv1
I0526 07:32:21.061295 23331 net.cpp:106] Creating Layer conv1
I0526 07:32:21.061311 23331 net.cpp:454] conv1 <- data
I0526 07:32:21.061336 23331 net.cpp:411] conv1 -> conv1
I0526 07:32:21.421557 23331 net.cpp:150] Setting up conv1
I0526 07:32:21.421609 23331 net.cpp:157] Top shape: 10 12 120 48 (691200)
I0526 07:32:21.421632 23331 net.cpp:165] Memory required for data: 3018840
I0526 07:32:21.421663 23331 layer_factory.hpp:77] Creating layer relu1
I0526 07:32:21.421685 23331 net.cpp:106] Creating Layer relu1
I0526 07:32:21.421725 23331 net.cpp:454] relu1 <- conv1
I0526 07:32:21.421741 23331 net.cpp:397] relu1 -> conv1 (in-place)
I0526 07:32:21.422284 23331 net.cpp:150] Setting up relu1
I0526 07:32:21.422308 23331 net.cpp:157] Top shape: 10 12 120 48 (691200)
I0526 07:32:21.422322 23331 net.cpp:165] Memory required for data: 5783640
I0526 07:32:21.422334 23331 layer_factory.hpp:77] Creating layer pool1
I0526 07:32:21.422366 23331 net.cpp:106] Creating Layer pool1
I0526 07:32:21.422379 23331 net.cpp:454] pool1 <- conv1
I0526 07:32:21.422396 23331 net.cpp:411] pool1 -> pool1
I0526 07:32:21.422489 23331 net.cpp:150] Setting up pool1
I0526 07:32:21.422507 23331 net.cpp:157] Top shape: 10 12 60 48 (345600)
I0526 07:32:21.422521 23331 net.cpp:165] Memory required for data: 7166040
I0526 07:32:21.422543 23331 layer_factory.hpp:77] Creating layer conv2
I0526 07:32:21.422565 23331 net.cpp:106] Creating Layer conv2
I0526 07:32:21.422580 23331 net.cpp:454] conv2 <- pool1
I0526 07:32:21.422595 23331 net.cpp:411] conv2 -> conv2
I0526 07:32:21.425345 23331 net.cpp:150] Setting up conv2
I0526 07:32:21.425380 23331 net.cpp:157] Top shape: 10 20 54 46 (496800)
I0526 07:32:21.425395 23331 net.cpp:165] Memory required for data: 9153240
I0526 07:32:21.425421 23331 layer_factory.hpp:77] Creating layer relu2
I0526 07:32:21.425449 23331 net.cpp:106] Creating Layer relu2
I0526 07:32:21.425462 23331 net.cpp:454] relu2 <- conv2
I0526 07:32:21.425479 23331 net.cpp:397] relu2 -> conv2 (in-place)
I0526 07:32:21.425838 23331 net.cpp:150] Setting up relu2
I0526 07:32:21.425858 23331 net.cpp:157] Top shape: 10 20 54 46 (496800)
I0526 07:32:21.425873 23331 net.cpp:165] Memory required for data: 11140440
I0526 07:32:21.425887 23331 layer_factory.hpp:77] Creating layer pool2
I0526 07:32:21.425910 23331 net.cpp:106] Creating Layer pool2
I0526 07:32:21.425923 23331 net.cpp:454] pool2 <- conv2
I0526 07:32:21.425940 23331 net.cpp:411] pool2 -> pool2
I0526 07:32:21.426034 23331 net.cpp:150] Setting up pool2
I0526 07:32:21.426053 23331 net.cpp:157] Top shape: 10 20 27 46 (248400)
I0526 07:32:21.426067 23331 net.cpp:165] Memory required for data: 12134040
I0526 07:32:21.426087 23331 layer_factory.hpp:77] Creating layer conv3
I0526 07:32:21.426107 23331 net.cpp:106] Creating Layer conv3
I0526 07:32:21.426122 23331 net.cpp:454] conv3 <- pool2
I0526 07:32:21.426137 23331 net.cpp:411] conv3 -> conv3
I0526 07:32:21.428282 23331 net.cpp:150] Setting up conv3
I0526 07:32:21.428306 23331 net.cpp:157] Top shape: 10 28 22 44 (271040)
I0526 07:32:21.428326 23331 net.cpp:165] Memory required for data: 13218200
I0526 07:32:21.428349 23331 layer_factory.hpp:77] Creating layer relu3
I0526 07:32:21.428372 23331 net.cpp:106] Creating Layer relu3
I0526 07:32:21.428395 23331 net.cpp:454] relu3 <- conv3
I0526 07:32:21.428411 23331 net.cpp:397] relu3 -> conv3 (in-place)
I0526 07:32:21.428895 23331 net.cpp:150] Setting up relu3
I0526 07:32:21.428920 23331 net.cpp:157] Top shape: 10 28 22 44 (271040)
I0526 07:32:21.428933 23331 net.cpp:165] Memory required for data: 14302360
I0526 07:32:21.428949 23331 layer_factory.hpp:77] Creating layer pool3
I0526 07:32:21.428966 23331 net.cpp:106] Creating Layer pool3
I0526 07:32:21.428987 23331 net.cpp:454] pool3 <- conv3
I0526 07:32:21.429003 23331 net.cpp:411] pool3 -> pool3
I0526 07:32:21.429085 23331 net.cpp:150] Setting up pool3
I0526 07:32:21.429106 23331 net.cpp:157] Top shape: 10 28 11 44 (135520)
I0526 07:32:21.429118 23331 net.cpp:165] Memory required for data: 14844440
I0526 07:32:21.429133 23331 layer_factory.hpp:77] Creating layer conv4
I0526 07:32:21.429159 23331 net.cpp:106] Creating Layer conv4
I0526 07:32:21.429172 23331 net.cpp:454] conv4 <- pool3
I0526 07:32:21.429188 23331 net.cpp:411] conv4 -> conv4
I0526 07:32:21.431947 23331 net.cpp:150] Setting up conv4
I0526 07:32:21.431979 23331 net.cpp:157] Top shape: 10 36 6 42 (90720)
I0526 07:32:21.431993 23331 net.cpp:165] Memory required for data: 15207320
I0526 07:32:21.432016 23331 layer_factory.hpp:77] Creating layer relu4
I0526 07:32:21.432044 23331 net.cpp:106] Creating Layer relu4
I0526 07:32:21.432057 23331 net.cpp:454] relu4 <- conv4
I0526 07:32:21.432073 23331 net.cpp:397] relu4 -> conv4 (in-place)
I0526 07:32:21.432574 23331 net.cpp:150] Setting up relu4
I0526 07:32:21.432597 23331 net.cpp:157] Top shape: 10 36 6 42 (90720)
I0526 07:32:21.432610 23331 net.cpp:165] Memory required for data: 15570200
I0526 07:32:21.432626 23331 layer_factory.hpp:77] Creating layer pool4
I0526 07:32:21.432642 23331 net.cpp:106] Creating Layer pool4
I0526 07:32:21.432662 23331 net.cpp:454] pool4 <- conv4
I0526 07:32:21.432679 23331 net.cpp:411] pool4 -> pool4
I0526 07:32:21.432762 23331 net.cpp:150] Setting up pool4
I0526 07:32:21.432781 23331 net.cpp:157] Top shape: 10 36 3 42 (45360)
I0526 07:32:21.432796 23331 net.cpp:165] Memory required for data: 15751640
I0526 07:32:21.432808 23331 layer_factory.hpp:77] Creating layer ip1
I0526 07:32:21.432835 23331 net.cpp:106] Creating Layer ip1
I0526 07:32:21.432848 23331 net.cpp:454] ip1 <- pool4
I0526 07:32:21.432865 23331 net.cpp:411] ip1 -> ip1
I0526 07:32:21.448307 23331 net.cpp:150] Setting up ip1
I0526 07:32:21.448338 23331 net.cpp:157] Top shape: 10 196 (1960)
I0526 07:32:21.448359 23331 net.cpp:165] Memory required for data: 15759480
I0526 07:32:21.448385 23331 layer_factory.hpp:77] Creating layer relu5
I0526 07:32:21.448407 23331 net.cpp:106] Creating Layer relu5
I0526 07:32:21.448431 23331 net.cpp:454] relu5 <- ip1
I0526 07:32:21.448448 23331 net.cpp:397] relu5 -> ip1 (in-place)
I0526 07:32:21.448810 23331 net.cpp:150] Setting up relu5
I0526 07:32:21.448830 23331 net.cpp:157] Top shape: 10 196 (1960)
I0526 07:32:21.448843 23331 net.cpp:165] Memory required for data: 15767320
I0526 07:32:21.448858 23331 layer_factory.hpp:77] Creating layer drop1
I0526 07:32:21.448889 23331 net.cpp:106] Creating Layer drop1
I0526 07:32:21.448904 23331 net.cpp:454] drop1 <- ip1
I0526 07:32:21.448926 23331 net.cpp:397] drop1 -> ip1 (in-place)
I0526 07:32:21.449000 23331 net.cpp:150] Setting up drop1
I0526 07:32:21.449017 23331 net.cpp:157] Top shape: 10 196 (1960)
I0526 07:32:21.449029 23331 net.cpp:165] Memory required for data: 15775160
I0526 07:32:21.449043 23331 layer_factory.hpp:77] Creating layer ip2
I0526 07:32:21.449064 23331 net.cpp:106] Creating Layer ip2
I0526 07:32:21.449084 23331 net.cpp:454] ip2 <- ip1
I0526 07:32:21.449100 23331 net.cpp:411] ip2 -> ip2
I0526 07:32:21.449590 23331 net.cpp:150] Setting up ip2
I0526 07:32:21.449609 23331 net.cpp:157] Top shape: 10 98 (980)
I0526 07:32:21.449622 23331 net.cpp:165] Memory required for data: 15779080
I0526 07:32:21.449643 23331 layer_factory.hpp:77] Creating layer relu6
I0526 07:32:21.449666 23331 net.cpp:106] Creating Layer relu6
I0526 07:32:21.449678 23331 net.cpp:454] relu6 <- ip2
I0526 07:32:21.449693 23331 net.cpp:397] relu6 -> ip2 (in-place)
I0526 07:32:21.450248 23331 net.cpp:150] Setting up relu6
I0526 07:32:21.450271 23331 net.cpp:157] Top shape: 10 98 (980)
I0526 07:32:21.450284 23331 net.cpp:165] Memory required for data: 15783000
I0526 07:32:21.450300 23331 layer_factory.hpp:77] Creating layer drop2
I0526 07:32:21.450315 23331 net.cpp:106] Creating Layer drop2
I0526 07:32:21.450336 23331 net.cpp:454] drop2 <- ip2
I0526 07:32:21.450352 23331 net.cpp:397] drop2 -> ip2 (in-place)
I0526 07:32:21.450403 23331 net.cpp:150] Setting up drop2
I0526 07:32:21.450425 23331 net.cpp:157] Top shape: 10 98 (980)
I0526 07:32:21.450438 23331 net.cpp:165] Memory required for data: 15786920
I0526 07:32:21.450451 23331 layer_factory.hpp:77] Creating layer ip3
I0526 07:32:21.450470 23331 net.cpp:106] Creating Layer ip3
I0526 07:32:21.450482 23331 net.cpp:454] ip3 <- ip2
I0526 07:32:21.450505 23331 net.cpp:411] ip3 -> ip3
I0526 07:32:21.450726 23331 net.cpp:150] Setting up ip3
I0526 07:32:21.450745 23331 net.cpp:157] Top shape: 10 11 (110)
I0526 07:32:21.450758 23331 net.cpp:165] Memory required for data: 15787360
I0526 07:32:21.450778 23331 layer_factory.hpp:77] Creating layer drop3
I0526 07:32:21.450800 23331 net.cpp:106] Creating Layer drop3
I0526 07:32:21.450814 23331 net.cpp:454] drop3 <- ip3
I0526 07:32:21.450829 23331 net.cpp:397] drop3 -> ip3 (in-place)
I0526 07:32:21.450875 23331 net.cpp:150] Setting up drop3
I0526 07:32:21.450896 23331 net.cpp:157] Top shape: 10 11 (110)
I0526 07:32:21.450909 23331 net.cpp:165] Memory required for data: 15787800
I0526 07:32:21.450928 23331 layer_factory.hpp:77] Creating layer loss
I0526 07:32:21.450949 23331 net.cpp:106] Creating Layer loss
I0526 07:32:21.450964 23331 net.cpp:454] loss <- ip3
I0526 07:32:21.450978 23331 net.cpp:454] loss <- label
I0526 07:32:21.451000 23331 net.cpp:411] loss -> loss
I0526 07:32:21.451020 23331 layer_factory.hpp:77] Creating layer loss
…
I0526 07:32:21.453759 23331 solver.cpp:181] Creating test net (#0) specified by net file: /lustre/atlas/proj-shared/hep105/caffe_titan/caffe_workflow/logs_bslr/bs_10_lr_0.0035_2016-05-20T15.48.51.674992.prototxt
I0526 07:32:21.453838 23331 net.cpp:322] The NetState phase (1) differed from the phase (0) specified by a rule in layer data_hdf5
I0526 07:32:21.454217 23331 net.cpp:49] Initializing net from parameters: 
name: "caffe_test_127x50_x_unshifted"
state {
  phase: TEST
}
layer {
  name: "data_hdf5"
  type: "HDF5Data"
  top: "data"
  top: "label"
  include {
    phase: TEST
  }
  hdf5_data_param {
    source: "/lustre/atlas/proj-shared/hep105/caffe_titan/minosmatch_nukecczdefs_127x50_x_unshifted_me1Bmc.testlist"
    batch_size: 10
  }
}
layer {
  name: "conv1"
  type: "Convolution"
  bottom: "data"
  top: "conv1"
  convolution_param {
    num_output: 12
    pad: 0
    stride: 1
    weight_filler {
      type: "xavier"
    }
    bias_filler {
      type: "constant"
    }
    kernel_h: 8
    kernel_w: 3
  }
}
layer {
  name: "relu1"
  type: "ReLU"
  bottom: "conv1"
  top: "conv1"
}
layer {
  name: "pool1"
  type: "Pooling"
  bottom: "conv1"
  top: "pool1"
  pooling_param {
    pool: MAX
    kernel_h: 2
    kernel_w: 1
    stride_h: 2
    stride_w: 1
  }
}
layer {
  name: "conv2"
  type: "Convolution"
  bottom: "pool1"
  top: "conv2"
  convolution_param {
    num_output: 20
    pad: 0
    stride: 1
    weight_filler {
      type: "xavier"
    }
    bias_filler {
      type: "constant"
    }
    kernel_h: 7
    kernel_w: 3
  }
}
layer {
  name: "relu2"
  type: "ReLU"
  bottom: "conv2"
  top: "conv2"
}
layer {
  name: "pool2"
  type: "Pooling"
  bottom: "conv2"
  top: "pool2"
  pooling_param {
    pool: MAX
    kernel_h: 2
    kernel_w: 1
    stride_h: 2
    stride_w: 1
  }
}
layer {
  name: "conv3"
  type: "Convolution"
  bottom: "pool2"
  top: "conv3"
  convolution_param {
    num_output: 28
    pad: 0
    stride: 1
    weight_filler {
      type: "xavier"
    }
    bias_filler {
      type: "constant"
    }
    kernel_h: 6
    kernel_w: 3
  }
}
layer {
  name: "relu3"
  type: "ReLU"
  bottom: "conv3"
  top: "conv3"
}
layer {
  name: "pool3"
  type: "Pooling"
  bottom: "conv3"
  top: "pool3"
  pooling_param {
    pool: MAX
    kernel_h: 2
    kernel_w: 1
    stride_h: 2
    stride_w: 1
  }
}
layer {
  name: "conv4"
  type: "Convolution"
  bottom: "pool3"
  top: "conv4"
  convolution_param {
    num_output: 36
    pad: 0
    stride: 1
    weight_filler {
      type: "xavier"
    }
    bias_filler {
      type: "constant"
    }
    kernel_h: 6
    kernel_w: 3
  }
}
layer {
  name: "relu4"
  type: "ReLU"
  bottom: "conv4"
  top: "conv4"
}
layer {
  name: "pool4"
  type: "Pooling"
  bottom: "conv4"
  top: "pool4"
  pooling_param {
    pool: MAX
    kernel_h: 2
    kernel_w: 1
    stride_h: 2
    stride_w: 1
  }
}
layer {
  name: "ip1"
  type: "InnerProduct"
  bottom: "pool4"
  top: "ip1"
  inner_product_param {
    num_output: 196
    weight_filler {
      type: "xavier"
    }
    bias_filler {
      type: "constant"
    }
  }
}
layer {
  name: "relu5"
  type: "ReLU"
  bottom: "ip1"
  top: "ip1"
}
layer {
  name: "drop1"
  type: "Dropout"
  bottom: "ip1"
  top: "ip1"
  dropout_param {
    dropout_ratio: 0.5
  }
}
layer {
  name: "ip2"
  type: "InnerProduct"
  bottom: "ip1"
  top: "ip2"
  inner_product_param {
    num_output: 98
    weight_filler {
      type: "xavier"
    }
    bias_filler {
      type: "constant"
    }
  }
}
layer {
  name: "relu6"
  type: "ReLU"
  bottom: "ip2"
  top: "ip2"
}
layer {
  name: "drop2"
  type: "Dropout"
  bottom: "ip2"
  top: "ip2"
  dropout_param {
    dropout_ratio: 0.5
  }
}
layer {
  name: "ip3"
  type: "InnerProduct"
  bottom: "ip2"
  top: "ip3"
  inner_product_param {
    num_output: 11
    weight_filler {
      type: "xavier"
    }
    bias_filler {
      type: "constant"
    }
  }
}
layer {
  name: "drop3"
  type: "Dropout"
  bottom: "ip3"
  top: "ip3"
  dropout_param {
    dropout_ratio: 0.5
  }
}
layer {
  name: "accuracy"
  type: "Accuracy"
  bottom: "ip3"
  bottom: "label"
  top: "accuracy"
  include {
    phase: TEST
  }
}
layer {
  name: "loss"
  type: "SoftmaxWithLoss"
  bottom: "ip3"
  bottom: "label"
  top: "loss"
}
I0526 07:32:21.454439 23331 layer_factory.hpp:77] Creating layer data_hdf5
I0526 07:32:21.454459 23331 net.cpp:106] Creating Layer data_hdf5
I0526 07:32:21.454474 23331 net.cpp:411] data_hdf5 -> data
I0526 07:32:21.454494 23331 net.cpp:411] data_hdf5 -> label
I0526 07:32:21.454515 23331 hdf5_data_layer.cpp:79] Loading list of HDF5 filenames from: /lustre/atlas/proj-shared/hep105/caffe_titan/minosmatch_nukecczdefs_127x50_x_unshifted_me1Bmc.testlist
I0526 07:32:21.455687 23331 hdf5_data_layer.cpp:93] Number of HDF5 files: 3
I0526 07:32:42.825094 23331 net.cpp:150] Setting up data_hdf5
I0526 07:32:42.825266 23331 net.cpp:157] Top shape: 10 1 127 50 (63500)
I0526 07:32:42.825286 23331 net.cpp:157] Top shape: 10 (10)
I0526 07:32:42.825299 23331 net.cpp:165] Memory required for data: 254040
I0526 07:32:42.825314 23331 layer_factory.hpp:77] Creating layer label_data_hdf5_1_split
I0526 07:32:42.825350 23331 net.cpp:106] Creating Layer label_data_hdf5_1_split
I0526 07:32:42.825363 23331 net.cpp:454] label_data_hdf5_1_split <- label
I0526 07:32:42.825399 23331 net.cpp:411] label_data_hdf5_1_split -> label_data_hdf5_1_split_0
I0526 07:32:42.825423 23331 net.cpp:411] label_data_hdf5_1_split -> label_data_hdf5_1_split_1
I0526 07:32:42.825510 23331 net.cpp:150] Setting up label_data_hdf5_1_split
I0526 07:32:42.825526 23331 net.cpp:157] Top shape: 10 (10)
I0526 07:32:42.825542 23331 net.cpp:157] Top shape: 10 (10)
I0526 07:32:42.825554 23331 net.cpp:165] Memory required for data: 254120
I0526 07:32:42.825567 23331 layer_factory.hpp:77] Creating layer conv1
I0526 07:32:42.825600 23331 net.cpp:106] Creating Layer conv1
I0526 07:32:42.825614 23331 net.cpp:454] conv1 <- data
I0526 07:32:42.825631 23331 net.cpp:411] conv1 -> conv1
I0526 07:32:42.827638 23331 net.cpp:150] Setting up conv1
I0526 07:32:42.827663 23331 net.cpp:157] Top shape: 10 12 120 48 (691200)
I0526 07:32:42.827677 23331 net.cpp:165] Memory required for data: 3018920
I0526 07:32:42.827702 23331 layer_factory.hpp:77] Creating layer relu1
I0526 07:32:42.827723 23331 net.cpp:106] Creating Layer relu1
I0526 07:32:42.827745 23331 net.cpp:454] relu1 <- conv1
I0526 07:32:42.827762 23331 net.cpp:397] relu1 -> conv1 (in-place)
I0526 07:32:42.828291 23331 net.cpp:150] Setting up relu1
I0526 07:32:42.828315 23331 net.cpp:157] Top shape: 10 12 120 48 (691200)
I0526 07:32:42.828327 23331 net.cpp:165] Memory required for data: 5783720
I0526 07:32:42.828341 23331 layer_factory.hpp:77] Creating layer pool1
I0526 07:32:42.828371 23331 net.cpp:106] Creating Layer pool1
I0526 07:32:42.828383 23331 net.cpp:454] pool1 <- conv1
I0526 07:32:42.828400 23331 net.cpp:411] pool1 -> pool1
I0526 07:32:42.828497 23331 net.cpp:150] Setting up pool1
I0526 07:32:42.828515 23331 net.cpp:157] Top shape: 10 12 60 48 (345600)
I0526 07:32:42.828527 23331 net.cpp:165] Memory required for data: 7166120
I0526 07:32:42.828539 23331 layer_factory.hpp:77] Creating layer conv2
I0526 07:32:42.828568 23331 net.cpp:106] Creating Layer conv2
I0526 07:32:42.828583 23331 net.cpp:454] conv2 <- pool1
I0526 07:32:42.828599 23331 net.cpp:411] conv2 -> conv2
I0526 07:32:42.830545 23331 net.cpp:150] Setting up conv2
I0526 07:32:42.830570 23331 net.cpp:157] Top shape: 10 20 54 46 (496800)
I0526 07:32:42.830590 23331 net.cpp:165] Memory required for data: 9153320
I0526 07:32:42.830612 23331 layer_factory.hpp:77] Creating layer relu2
I0526 07:32:42.830631 23331 net.cpp:106] Creating Layer relu2
I0526 07:32:42.830653 23331 net.cpp:454] relu2 <- conv2
I0526 07:32:42.830670 23331 net.cpp:397] relu2 -> conv2 (in-place)
I0526 07:32:42.831019 23331 net.cpp:150] Setting up relu2
I0526 07:32:42.831040 23331 net.cpp:157] Top shape: 10 20 54 46 (496800)
I0526 07:32:42.831053 23331 net.cpp:165] Memory required for data: 11140520
I0526 07:32:42.831068 23331 layer_factory.hpp:77] Creating layer pool2
I0526 07:32:42.831090 23331 net.cpp:106] Creating Layer pool2
I0526 07:32:42.831104 23331 net.cpp:454] pool2 <- conv2
I0526 07:32:42.831120 23331 net.cpp:411] pool2 -> pool2
I0526 07:32:42.831207 23331 net.cpp:150] Setting up pool2
I0526 07:32:42.831225 23331 net.cpp:157] Top shape: 10 20 27 46 (248400)
I0526 07:32:42.831236 23331 net.cpp:165] Memory required for data: 12134120
I0526 07:32:42.831251 23331 layer_factory.hpp:77] Creating layer conv3
I0526 07:32:42.831281 23331 net.cpp:106] Creating Layer conv3
I0526 07:32:42.831295 23331 net.cpp:454] conv3 <- pool2
I0526 07:32:42.831311 23331 net.cpp:411] conv3 -> conv3
I0526 07:32:42.833353 23331 net.cpp:150] Setting up conv3
I0526 07:32:42.833380 23331 net.cpp:157] Top shape: 10 28 22 44 (271040)
I0526 07:32:42.833400 23331 net.cpp:165] Memory required for data: 13218280
I0526 07:32:42.833422 23331 layer_factory.hpp:77] Creating layer relu3
I0526 07:32:42.833464 23331 net.cpp:106] Creating Layer relu3
I0526 07:32:42.833478 23331 net.cpp:454] relu3 <- conv3
I0526 07:32:42.833494 23331 net.cpp:397] relu3 -> conv3 (in-place)
I0526 07:32:42.833991 23331 net.cpp:150] Setting up relu3
I0526 07:32:42.834013 23331 net.cpp:157] Top shape: 10 28 22 44 (271040)
I0526 07:32:42.834027 23331 net.cpp:165] Memory required for data: 14302440
I0526 07:32:42.834043 23331 layer_factory.hpp:77] Creating layer pool3
I0526 07:32:42.834059 23331 net.cpp:106] Creating Layer pool3
I0526 07:32:42.834080 23331 net.cpp:454] pool3 <- conv3
I0526 07:32:42.834096 23331 net.cpp:411] pool3 -> pool3
I0526 07:32:42.834183 23331 net.cpp:150] Setting up pool3
I0526 07:32:42.834203 23331 net.cpp:157] Top shape: 10 28 11 44 (135520)
I0526 07:32:42.834214 23331 net.cpp:165] Memory required for data: 14844520
I0526 07:32:42.834229 23331 layer_factory.hpp:77] Creating layer conv4
I0526 07:32:42.834255 23331 net.cpp:106] Creating Layer conv4
I0526 07:32:42.834270 23331 net.cpp:454] conv4 <- pool3
I0526 07:32:42.834287 23331 net.cpp:411] conv4 -> conv4
I0526 07:32:42.836386 23331 net.cpp:150] Setting up conv4
I0526 07:32:42.836410 23331 net.cpp:157] Top shape: 10 36 6 42 (90720)
I0526 07:32:42.836431 23331 net.cpp:165] Memory required for data: 15207400
I0526 07:32:42.836449 23331 layer_factory.hpp:77] Creating layer relu4
I0526 07:32:42.836469 23331 net.cpp:106] Creating Layer relu4
I0526 07:32:42.836483 23331 net.cpp:454] relu4 <- conv4
I0526 07:32:42.836508 23331 net.cpp:397] relu4 -> conv4 (in-place)
I0526 07:32:42.836997 23331 net.cpp:150] Setting up relu4
I0526 07:32:42.837020 23331 net.cpp:157] Top shape: 10 36 6 42 (90720)
I0526 07:32:42.837033 23331 net.cpp:165] Memory required for data: 15570280
I0526 07:32:42.837049 23331 layer_factory.hpp:77] Creating layer pool4
I0526 07:32:42.837074 23331 net.cpp:106] Creating Layer pool4
I0526 07:32:42.837086 23331 net.cpp:454] pool4 <- conv4
I0526 07:32:42.837102 23331 net.cpp:411] pool4 -> pool4
I0526 07:32:42.837190 23331 net.cpp:150] Setting up pool4
I0526 07:32:42.837208 23331 net.cpp:157] Top shape: 10 36 3 42 (45360)
I0526 07:32:42.837222 23331 net.cpp:165] Memory required for data: 15751720
I0526 07:32:42.837235 23331 layer_factory.hpp:77] Creating layer ip1
I0526 07:32:42.837261 23331 net.cpp:106] Creating Layer ip1
I0526 07:32:42.837275 23331 net.cpp:454] ip1 <- pool4
I0526 07:32:42.837291 23331 net.cpp:411] ip1 -> ip1
I0526 07:32:42.852768 23331 net.cpp:150] Setting up ip1
I0526 07:32:42.852808 23331 net.cpp:157] Top shape: 10 196 (1960)
I0526 07:32:42.852823 23331 net.cpp:165] Memory required for data: 15759560
I0526 07:32:42.852851 23331 layer_factory.hpp:77] Creating layer relu5
I0526 07:32:42.852881 23331 net.cpp:106] Creating Layer relu5
I0526 07:32:42.852895 23331 net.cpp:454] relu5 <- ip1
I0526 07:32:42.852911 23331 net.cpp:397] relu5 -> ip1 (in-place)
I0526 07:32:42.853289 23331 net.cpp:150] Setting up relu5
I0526 07:32:42.853309 23331 net.cpp:157] Top shape: 10 196 (1960)
I0526 07:32:42.853322 23331 net.cpp:165] Memory required for data: 15767400
I0526 07:32:42.853337 23331 layer_factory.hpp:77] Creating layer drop1
I0526 07:32:42.853366 23331 net.cpp:106] Creating Layer drop1
I0526 07:32:42.853380 23331 net.cpp:454] drop1 <- ip1
I0526 07:32:42.853396 23331 net.cpp:397] drop1 -> ip1 (in-place)
I0526 07:32:42.853454 23331 net.cpp:150] Setting up drop1
I0526 07:32:42.853471 23331 net.cpp:157] Top shape: 10 196 (1960)
I0526 07:32:42.853483 23331 net.cpp:165] Memory required for data: 15775240
I0526 07:32:42.853497 23331 layer_factory.hpp:77] Creating layer ip2
I0526 07:32:42.853515 23331 net.cpp:106] Creating Layer ip2
I0526 07:32:42.853528 23331 net.cpp:454] ip2 <- ip1
I0526 07:32:42.853551 23331 net.cpp:411] ip2 -> ip2
I0526 07:32:42.854048 23331 net.cpp:150] Setting up ip2
I0526 07:32:42.854068 23331 net.cpp:157] Top shape: 10 98 (980)
I0526 07:32:42.854080 23331 net.cpp:165] Memory required for data: 15779160
I0526 07:32:42.854101 23331 layer_factory.hpp:77] Creating layer relu6
I0526 07:32:42.854136 23331 net.cpp:106] Creating Layer relu6
I0526 07:32:42.854151 23331 net.cpp:454] relu6 <- ip2
I0526 07:32:42.854166 23331 net.cpp:397] relu6 -> ip2 (in-place)
I0526 07:32:42.854739 23331 net.cpp:150] Setting up relu6
I0526 07:32:42.854763 23331 net.cpp:157] Top shape: 10 98 (980)
I0526 07:32:42.854776 23331 net.cpp:165] Memory required for data: 15783080
I0526 07:32:42.854789 23331 layer_factory.hpp:77] Creating layer drop2
I0526 07:32:42.854809 23331 net.cpp:106] Creating Layer drop2
I0526 07:32:42.854830 23331 net.cpp:454] drop2 <- ip2
I0526 07:32:42.854846 23331 net.cpp:397] drop2 -> ip2 (in-place)
I0526 07:32:42.854897 23331 net.cpp:150] Setting up drop2
I0526 07:32:42.854920 23331 net.cpp:157] Top shape: 10 98 (980)
I0526 07:32:42.854933 23331 net.cpp:165] Memory required for data: 15787000
I0526 07:32:42.854946 23331 layer_factory.hpp:77] Creating layer ip3
I0526 07:32:42.854964 23331 net.cpp:106] Creating Layer ip3
I0526 07:32:42.854979 23331 net.cpp:454] ip3 <- ip2
I0526 07:32:42.855000 23331 net.cpp:411] ip3 -> ip3
I0526 07:32:42.855234 23331 net.cpp:150] Setting up ip3
I0526 07:32:42.855253 23331 net.cpp:157] Top shape: 10 11 (110)
I0526 07:32:42.855267 23331 net.cpp:165] Memory required for data: 15787440
I0526 07:32:42.855288 23331 layer_factory.hpp:77] Creating layer drop3
I0526 07:32:42.855310 23331 net.cpp:106] Creating Layer drop3
I0526 07:32:42.855324 23331 net.cpp:454] drop3 <- ip3
I0526 07:32:42.855340 23331 net.cpp:397] drop3 -> ip3 (in-place)
I0526 07:32:42.855387 23331 net.cpp:150] Setting up drop3
I0526 07:32:42.855411 23331 net.cpp:157] Top shape: 10 11 (110)
I0526 07:32:42.855428 23331 net.cpp:165] Memory required for data: 15787880
I0526 07:32:42.855440 23331 layer_factory.hpp:77] Creating layer ip3_drop3_0_split
I0526 07:32:42.855459 23331 net.cpp:106] Creating Layer ip3_drop3_0_split
I0526 07:32:42.855471 23331 net.cpp:454] ip3_drop3_0_split <- ip3
I0526 07:32:42.855494 23331 net.cpp:411] ip3_drop3_0_split -> ip3_drop3_0_split_0
I0526 07:32:42.855512 23331 net.cpp:411] ip3_drop3_0_split -> ip3_drop3_0_split_1
I0526 07:32:42.855600 23331 net.cpp:150] Setting up ip3_drop3_0_split
I0526 07:32:42.855623 23331 net.cpp:157] Top shape: 10 11 (110)
I0526 07:32:42.855639 23331 net.cpp:157] Top shape: 10 11 (110)
I0526 07:32:42.855654 23331 net.cpp:165] Memory required for data: 15788760
I0526 07:32:42.855665 23331 layer_factory.hpp:77] Creating layer accuracy
I0526 07:32:42.855700 23331 net.cpp:106] Creating Layer accuracy
I0526 07:32:42.855713 23331 net.cpp:454] accuracy <- ip3_drop3_0_split_0
I0526 07:32:42.855736 23331 net.cpp:454] accuracy <- label_data_hdf5_1_split_0
I0526 07:32:42.855753 23331 net.cpp:411] accuracy -> accuracy
…
