…
I0521 23:42:28.781539 13093 net.cpp:322] The NetState phase (0) differed from the phase (1) specified by a rule in layer data_hdf5
I0521 23:42:28.781599 13093 net.cpp:322] The NetState phase (0) differed from the phase (1) specified by a rule in layer accuracy
I0521 23:42:28.781946 13093 net.cpp:49] Initializing net from parameters: 
name: "caffe_test_127x50_x_unshifted"
state {
  phase: TRAIN
}
layer {
  name: "data_hdf5"
  type: "HDF5Data"
  top: "data"
  top: "label"
  include {
    phase: TRAIN
  }
  hdf5_data_param {
    source: "/lustre/atlas/proj-shared/hep105/caffe_titan/minosmatch_nukecczdefs_127x50_x_unshifted_me1Bmc.trainlist"
    batch_size: 20
  }
}
layer {
  name: "conv1"
  type: "Convolution"
  bottom: "data"
  top: "conv1"
  convolution_param {
    num_output: 12
    pad: 0
    stride: 1
    weight_filler {
      type: "xavier"
    }
    bias_filler {
      type: "constant"
    }
    kernel_h: 8
    kernel_w: 3
  }
}
layer {
  name: "relu1"
  type: "ReLU"
  bottom: "conv1"
  top: "conv1"
}
layer {
  name: "pool1"
  type: "Pooling"
  bottom: "conv1"
  top: "pool1"
  pooling_param {
    pool: MAX
    kernel_h: 2
    kernel_w: 1
    stride_h: 2
    stride_w: 1
  }
}
layer {
  name: "conv2"
  type: "Convolution"
  bottom: "pool1"
  top: "conv2"
  convolution_param {
    num_output: 20
    pad: 0
    stride: 1
    weight_filler {
      type: "xavier"
    }
    bias_filler {
      type: "constant"
    }
    kernel_h: 7
    kernel_w: 3
  }
}
layer {
  name: "relu2"
  type: "ReLU"
  bottom: "conv2"
  top: "conv2"
}
layer {
  name: "pool2"
  type: "Pooling"
  bottom: "conv2"
  top: "pool2"
  pooling_param {
    pool: MAX
    kernel_h: 2
    kernel_w: 1
    stride_h: 2
    stride_w: 1
  }
}
layer {
  name: "conv3"
  type: "Convolution"
  bottom: "pool2"
  top: "conv3"
  convolution_param {
    num_output: 28
    pad: 0
    stride: 1
    weight_filler {
      type: "xavier"
    }
    bias_filler {
      type: "constant"
    }
    kernel_h: 6
    kernel_w: 3
  }
}
layer {
  name: "relu3"
  type: "ReLU"
  bottom: "conv3"
  top: "conv3"
}
layer {
  name: "pool3"
  type: "Pooling"
  bottom: "conv3"
  top: "pool3"
  pooling_param {
    pool: MAX
    kernel_h: 2
    kernel_w: 1
    stride_h: 2
    stride_w: 1
  }
}
layer {
  name: "conv4"
  type: "Convolution"
  bottom: "pool3"
  top: "conv4"
  convolution_param {
    num_output: 36
    pad: 0
    stride: 1
    weight_filler {
      type: "xavier"
    }
    bias_filler {
      type: "constant"
    }
    kernel_h: 6
    kernel_w: 3
  }
}
layer {
  name: "relu4"
  type: "ReLU"
  bottom: "conv4"
  top: "conv4"
}
layer {
  name: "pool4"
  type: "Pooling"
  bottom: "conv4"
  top: "pool4"
  pooling_param {
    pool: MAX
    kernel_h: 2
    kernel_w: 1
    stride_h: 2
    stride_w: 1
  }
}
layer {
  name: "ip1"
  type: "InnerProduct"
  bottom: "pool4"
  top: "ip1"
  inner_product_param {
    num_output: 196
    weight_filler {
      type: "xavier"
    }
    bias_filler {
      type: "constant"
    }
  }
}
layer {
  name: "relu5"
  type: "ReLU"
  bottom: "ip1"
  top: "ip1"
}
layer {
  name: "drop1"
  type: "Dropout"
  bottom: "ip1"
  top: "ip1"
  dropout_param {
    dropout_ratio: 0.5
  }
}
layer {
  name: "ip2"
  type: "InnerProduct"
  bottom: "ip1"
  top: "ip2"
  inner_product_param {
    num_output: 98
    weight_filler {
      type: "xavier"
    }
    bias_filler {
      type: "constant"
    }
  }
}
layer {
  name: "relu6"
  type: "ReLU"
  bottom: "ip2"
  top: "ip2"
}
layer {
  name: "drop2"
  type: "Dropout"
  bottom: "ip2"
  top: "ip2"
  dropout_param {
    dropout_ratio: 0.5
  }
}
layer {
  name: "ip3"
  type: "InnerProduct"
  bottom: "ip2"
  top: "ip3"
  inner_product_param {
    num_output: 11
    weight_filler {
      type: "xavier"
    }
    bias_filler {
      type: "constant"
    }
  }
}
layer {
  name: "drop3"
  type: "Dropout"
  bottom: "ip3"
  top: "ip3"
  dropout_param {
    dropout_ratio: 0.5
  }
}
layer {
  name: "loss"
  type: "SoftmaxWithLoss"
  bottom: "ip3"
  bottom: "label"
  top: "loss"
}
I0521 23:42:28.782124 13093 layer_factory.hpp:77] Creating layer data_hdf5
I0521 23:42:28.782147 13093 net.cpp:106] Creating Layer data_hdf5
I0521 23:42:28.782162 13093 net.cpp:411] data_hdf5 -> data
I0521 23:42:28.782196 13093 net.cpp:411] data_hdf5 -> label
I0521 23:42:28.782228 13093 hdf5_data_layer.cpp:79] Loading list of HDF5 filenames from: /lustre/atlas/proj-shared/hep105/caffe_titan/minosmatch_nukecczdefs_127x50_x_unshifted_me1Bmc.trainlist
I0521 23:42:28.792814 13093 hdf5_data_layer.cpp:93] Number of HDF5 files: 15
I0521 23:42:28.795114 13093 hdf5.cpp:32] Datatype class: H5T_FLOAT
I0521 23:42:50.322046 13093 hdf5.cpp:35] Datatype class: H5T_INTEGER
I0521 23:42:50.327301 13093 net.cpp:150] Setting up data_hdf5
I0521 23:42:50.327340 13093 net.cpp:157] Top shape: 20 1 127 50 (127000)
I0521 23:42:50.327355 13093 net.cpp:157] Top shape: 20 (20)
I0521 23:42:50.327368 13093 net.cpp:165] Memory required for data: 508080
I0521 23:42:50.327381 13093 layer_factory.hpp:77] Creating layer conv1
I0521 23:42:50.327415 13093 net.cpp:106] Creating Layer conv1
I0521 23:42:50.327426 13093 net.cpp:454] conv1 <- data
I0521 23:42:50.327448 13093 net.cpp:411] conv1 -> conv1
I0521 23:42:51.785075 13093 net.cpp:150] Setting up conv1
I0521 23:42:51.785117 13093 net.cpp:157] Top shape: 20 12 120 48 (1382400)
I0521 23:42:51.785128 13093 net.cpp:165] Memory required for data: 6037680
I0521 23:42:51.785157 13093 layer_factory.hpp:77] Creating layer relu1
I0521 23:42:51.785178 13093 net.cpp:106] Creating Layer relu1
I0521 23:42:51.785189 13093 net.cpp:454] relu1 <- conv1
I0521 23:42:51.785202 13093 net.cpp:397] relu1 -> conv1 (in-place)
I0521 23:42:51.785718 13093 net.cpp:150] Setting up relu1
I0521 23:42:51.785735 13093 net.cpp:157] Top shape: 20 12 120 48 (1382400)
I0521 23:42:51.785747 13093 net.cpp:165] Memory required for data: 11567280
I0521 23:42:51.785756 13093 layer_factory.hpp:77] Creating layer pool1
I0521 23:42:51.785773 13093 net.cpp:106] Creating Layer pool1
I0521 23:42:51.785783 13093 net.cpp:454] pool1 <- conv1
I0521 23:42:51.785796 13093 net.cpp:411] pool1 -> pool1
I0521 23:42:51.785876 13093 net.cpp:150] Setting up pool1
I0521 23:42:51.785889 13093 net.cpp:157] Top shape: 20 12 60 48 (691200)
I0521 23:42:51.785899 13093 net.cpp:165] Memory required for data: 14332080
I0521 23:42:51.785907 13093 layer_factory.hpp:77] Creating layer conv2
I0521 23:42:51.785931 13093 net.cpp:106] Creating Layer conv2
I0521 23:42:51.785941 13093 net.cpp:454] conv2 <- pool1
I0521 23:42:51.785955 13093 net.cpp:411] conv2 -> conv2
I0521 23:42:51.788636 13093 net.cpp:150] Setting up conv2
I0521 23:42:51.788664 13093 net.cpp:157] Top shape: 20 20 54 46 (993600)
I0521 23:42:51.788676 13093 net.cpp:165] Memory required for data: 18306480
I0521 23:42:51.788694 13093 layer_factory.hpp:77] Creating layer relu2
I0521 23:42:51.788708 13093 net.cpp:106] Creating Layer relu2
I0521 23:42:51.788719 13093 net.cpp:454] relu2 <- conv2
I0521 23:42:51.788733 13093 net.cpp:397] relu2 -> conv2 (in-place)
I0521 23:42:51.789062 13093 net.cpp:150] Setting up relu2
I0521 23:42:51.789077 13093 net.cpp:157] Top shape: 20 20 54 46 (993600)
I0521 23:42:51.789086 13093 net.cpp:165] Memory required for data: 22280880
I0521 23:42:51.789098 13093 layer_factory.hpp:77] Creating layer pool2
I0521 23:42:51.789110 13093 net.cpp:106] Creating Layer pool2
I0521 23:42:51.789120 13093 net.cpp:454] pool2 <- conv2
I0521 23:42:51.789132 13093 net.cpp:411] pool2 -> pool2
I0521 23:42:51.789212 13093 net.cpp:150] Setting up pool2
I0521 23:42:51.789225 13093 net.cpp:157] Top shape: 20 20 27 46 (496800)
I0521 23:42:51.789235 13093 net.cpp:165] Memory required for data: 24268080
I0521 23:42:51.789243 13093 layer_factory.hpp:77] Creating layer conv3
I0521 23:42:51.789261 13093 net.cpp:106] Creating Layer conv3
I0521 23:42:51.789273 13093 net.cpp:454] conv3 <- pool2
I0521 23:42:51.789285 13093 net.cpp:411] conv3 -> conv3
I0521 23:42:51.791218 13093 net.cpp:150] Setting up conv3
I0521 23:42:51.791242 13093 net.cpp:157] Top shape: 20 28 22 44 (542080)
I0521 23:42:51.791257 13093 net.cpp:165] Memory required for data: 26436400
I0521 23:42:51.791275 13093 layer_factory.hpp:77] Creating layer relu3
I0521 23:42:51.791291 13093 net.cpp:106] Creating Layer relu3
I0521 23:42:51.791302 13093 net.cpp:454] relu3 <- conv3
I0521 23:42:51.791314 13093 net.cpp:397] relu3 -> conv3 (in-place)
I0521 23:42:51.791787 13093 net.cpp:150] Setting up relu3
I0521 23:42:51.791805 13093 net.cpp:157] Top shape: 20 28 22 44 (542080)
I0521 23:42:51.791815 13093 net.cpp:165] Memory required for data: 28604720
I0521 23:42:51.791826 13093 layer_factory.hpp:77] Creating layer pool3
I0521 23:42:51.791838 13093 net.cpp:106] Creating Layer pool3
I0521 23:42:51.791847 13093 net.cpp:454] pool3 <- conv3
I0521 23:42:51.791860 13093 net.cpp:411] pool3 -> pool3
I0521 23:42:51.791928 13093 net.cpp:150] Setting up pool3
I0521 23:42:51.791940 13093 net.cpp:157] Top shape: 20 28 11 44 (271040)
I0521 23:42:51.791950 13093 net.cpp:165] Memory required for data: 29688880
I0521 23:42:51.791959 13093 layer_factory.hpp:77] Creating layer conv4
I0521 23:42:51.791976 13093 net.cpp:106] Creating Layer conv4
I0521 23:42:51.791986 13093 net.cpp:454] conv4 <- pool3
I0521 23:42:51.791999 13093 net.cpp:411] conv4 -> conv4
I0521 23:42:51.794692 13093 net.cpp:150] Setting up conv4
I0521 23:42:51.794718 13093 net.cpp:157] Top shape: 20 36 6 42 (181440)
I0521 23:42:51.794729 13093 net.cpp:165] Memory required for data: 30414640
I0521 23:42:51.794744 13093 layer_factory.hpp:77] Creating layer relu4
I0521 23:42:51.794759 13093 net.cpp:106] Creating Layer relu4
I0521 23:42:51.794769 13093 net.cpp:454] relu4 <- conv4
I0521 23:42:51.794781 13093 net.cpp:397] relu4 -> conv4 (in-place)
I0521 23:42:51.795258 13093 net.cpp:150] Setting up relu4
I0521 23:42:51.795274 13093 net.cpp:157] Top shape: 20 36 6 42 (181440)
I0521 23:42:51.795285 13093 net.cpp:165] Memory required for data: 31140400
I0521 23:42:51.795295 13093 layer_factory.hpp:77] Creating layer pool4
I0521 23:42:51.795308 13093 net.cpp:106] Creating Layer pool4
I0521 23:42:51.795318 13093 net.cpp:454] pool4 <- conv4
I0521 23:42:51.795331 13093 net.cpp:411] pool4 -> pool4
I0521 23:42:51.795399 13093 net.cpp:150] Setting up pool4
I0521 23:42:51.795413 13093 net.cpp:157] Top shape: 20 36 3 42 (90720)
I0521 23:42:51.795423 13093 net.cpp:165] Memory required for data: 31503280
I0521 23:42:51.795433 13093 layer_factory.hpp:77] Creating layer ip1
I0521 23:42:51.795454 13093 net.cpp:106] Creating Layer ip1
I0521 23:42:51.795464 13093 net.cpp:454] ip1 <- pool4
I0521 23:42:51.795476 13093 net.cpp:411] ip1 -> ip1
I0521 23:42:51.810847 13093 net.cpp:150] Setting up ip1
I0521 23:42:51.810875 13093 net.cpp:157] Top shape: 20 196 (3920)
I0521 23:42:51.810889 13093 net.cpp:165] Memory required for data: 31518960
I0521 23:42:51.810911 13093 layer_factory.hpp:77] Creating layer relu5
I0521 23:42:51.810926 13093 net.cpp:106] Creating Layer relu5
I0521 23:42:51.810936 13093 net.cpp:454] relu5 <- ip1
I0521 23:42:51.810950 13093 net.cpp:397] relu5 -> ip1 (in-place)
I0521 23:42:51.811296 13093 net.cpp:150] Setting up relu5
I0521 23:42:51.811310 13093 net.cpp:157] Top shape: 20 196 (3920)
I0521 23:42:51.811321 13093 net.cpp:165] Memory required for data: 31534640
I0521 23:42:51.811331 13093 layer_factory.hpp:77] Creating layer drop1
I0521 23:42:51.811352 13093 net.cpp:106] Creating Layer drop1
I0521 23:42:51.811362 13093 net.cpp:454] drop1 <- ip1
I0521 23:42:51.811374 13093 net.cpp:397] drop1 -> ip1 (in-place)
I0521 23:42:51.811434 13093 net.cpp:150] Setting up drop1
I0521 23:42:51.811446 13093 net.cpp:157] Top shape: 20 196 (3920)
I0521 23:42:51.811456 13093 net.cpp:165] Memory required for data: 31550320
I0521 23:42:51.811466 13093 layer_factory.hpp:77] Creating layer ip2
I0521 23:42:51.811485 13093 net.cpp:106] Creating Layer ip2
I0521 23:42:51.811494 13093 net.cpp:454] ip2 <- ip1
I0521 23:42:51.811508 13093 net.cpp:411] ip2 -> ip2
I0521 23:42:51.811970 13093 net.cpp:150] Setting up ip2
I0521 23:42:51.811983 13093 net.cpp:157] Top shape: 20 98 (1960)
I0521 23:42:51.811995 13093 net.cpp:165] Memory required for data: 31558160
I0521 23:42:51.812010 13093 layer_factory.hpp:77] Creating layer relu6
I0521 23:42:51.812022 13093 net.cpp:106] Creating Layer relu6
I0521 23:42:51.812031 13093 net.cpp:454] relu6 <- ip2
I0521 23:42:51.812044 13093 net.cpp:397] relu6 -> ip2 (in-place)
I0521 23:42:51.812564 13093 net.cpp:150] Setting up relu6
I0521 23:42:51.812582 13093 net.cpp:157] Top shape: 20 98 (1960)
I0521 23:42:51.812592 13093 net.cpp:165] Memory required for data: 31566000
I0521 23:42:51.812603 13093 layer_factory.hpp:77] Creating layer drop2
I0521 23:42:51.812616 13093 net.cpp:106] Creating Layer drop2
I0521 23:42:51.812626 13093 net.cpp:454] drop2 <- ip2
I0521 23:42:51.812638 13093 net.cpp:397] drop2 -> ip2 (in-place)
I0521 23:42:51.812681 13093 net.cpp:150] Setting up drop2
I0521 23:42:51.812700 13093 net.cpp:157] Top shape: 20 98 (1960)
I0521 23:42:51.812711 13093 net.cpp:165] Memory required for data: 31573840
I0521 23:42:51.812721 13093 layer_factory.hpp:77] Creating layer ip3
I0521 23:42:51.812734 13093 net.cpp:106] Creating Layer ip3
I0521 23:42:51.812744 13093 net.cpp:454] ip3 <- ip2
I0521 23:42:51.812757 13093 net.cpp:411] ip3 -> ip3
I0521 23:42:51.812966 13093 net.cpp:150] Setting up ip3
I0521 23:42:51.812979 13093 net.cpp:157] Top shape: 20 11 (220)
I0521 23:42:51.812989 13093 net.cpp:165] Memory required for data: 31574720
I0521 23:42:51.813004 13093 layer_factory.hpp:77] Creating layer drop3
I0521 23:42:51.813016 13093 net.cpp:106] Creating Layer drop3
I0521 23:42:51.813025 13093 net.cpp:454] drop3 <- ip3
I0521 23:42:51.813038 13093 net.cpp:397] drop3 -> ip3 (in-place)
I0521 23:42:51.813077 13093 net.cpp:150] Setting up drop3
I0521 23:42:51.813091 13093 net.cpp:157] Top shape: 20 11 (220)
I0521 23:42:51.813100 13093 net.cpp:165] Memory required for data: 31575600
I0521 23:42:51.813110 13093 layer_factory.hpp:77] Creating layer loss
I0521 23:42:51.813129 13093 net.cpp:106] Creating Layer loss
I0521 23:42:51.813139 13093 net.cpp:454] loss <- ip3
I0521 23:42:51.813150 13093 net.cpp:454] loss <- label
I0521 23:42:51.813164 13093 net.cpp:411] loss -> loss
I0521 23:42:51.813181 13093 layer_factory.hpp:77] Creating layer loss
…
I0521 23:42:51.815901 13093 solver.cpp:181] Creating test net (#0) specified by net file: /lustre/atlas/proj-shared/hep105/caffe_titan/caffe_workflow/logs_bslr/bs_20_lr_0.0020_2016-05-20T15.48.54.568961.prototxt
I0521 23:42:51.815971 13093 net.cpp:322] The NetState phase (1) differed from the phase (0) specified by a rule in layer data_hdf5
I0521 23:42:51.816328 13093 net.cpp:49] Initializing net from parameters: 
name: "caffe_test_127x50_x_unshifted"
state {
  phase: TEST
}
layer {
  name: "data_hdf5"
  type: "HDF5Data"
  top: "data"
  top: "label"
  include {
    phase: TEST
  }
  hdf5_data_param {
    source: "/lustre/atlas/proj-shared/hep105/caffe_titan/minosmatch_nukecczdefs_127x50_x_unshifted_me1Bmc.testlist"
    batch_size: 20
  }
}
layer {
  name: "conv1"
  type: "Convolution"
  bottom: "data"
  top: "conv1"
  convolution_param {
    num_output: 12
    pad: 0
    stride: 1
    weight_filler {
      type: "xavier"
    }
    bias_filler {
      type: "constant"
    }
    kernel_h: 8
    kernel_w: 3
  }
}
layer {
  name: "relu1"
  type: "ReLU"
  bottom: "conv1"
  top: "conv1"
}
layer {
  name: "pool1"
  type: "Pooling"
  bottom: "conv1"
  top: "pool1"
  pooling_param {
    pool: MAX
    kernel_h: 2
    kernel_w: 1
    stride_h: 2
    stride_w: 1
  }
}
layer {
  name: "conv2"
  type: "Convolution"
  bottom: "pool1"
  top: "conv2"
  convolution_param {
    num_output: 20
    pad: 0
    stride: 1
    weight_filler {
      type: "xavier"
    }
    bias_filler {
      type: "constant"
    }
    kernel_h: 7
    kernel_w: 3
  }
}
layer {
  name: "relu2"
  type: "ReLU"
  bottom: "conv2"
  top: "conv2"
}
layer {
  name: "pool2"
  type: "Pooling"
  bottom: "conv2"
  top: "pool2"
  pooling_param {
    pool: MAX
    kernel_h: 2
    kernel_w: 1
    stride_h: 2
    stride_w: 1
  }
}
layer {
  name: "conv3"
  type: "Convolution"
  bottom: "pool2"
  top: "conv3"
  convolution_param {
    num_output: 28
    pad: 0
    stride: 1
    weight_filler {
      type: "xavier"
    }
    bias_filler {
      type: "constant"
    }
    kernel_h: 6
    kernel_w: 3
  }
}
layer {
  name: "relu3"
  type: "ReLU"
  bottom: "conv3"
  top: "conv3"
}
layer {
  name: "pool3"
  type: "Pooling"
  bottom: "conv3"
  top: "pool3"
  pooling_param {
    pool: MAX
    kernel_h: 2
    kernel_w: 1
    stride_h: 2
    stride_w: 1
  }
}
layer {
  name: "conv4"
  type: "Convolution"
  bottom: "pool3"
  top: "conv4"
  convolution_param {
    num_output: 36
    pad: 0
    stride: 1
    weight_filler {
      type: "xavier"
    }
    bias_filler {
      type: "constant"
    }
    kernel_h: 6
    kernel_w: 3
  }
}
layer {
  name: "relu4"
  type: "ReLU"
  bottom: "conv4"
  top: "conv4"
}
layer {
  name: "pool4"
  type: "Pooling"
  bottom: "conv4"
  top: "pool4"
  pooling_param {
    pool: MAX
    kernel_h: 2
    kernel_w: 1
    stride_h: 2
    stride_w: 1
  }
}
layer {
  name: "ip1"
  type: "InnerProduct"
  bottom: "pool4"
  top: "ip1"
  inner_product_param {
    num_output: 196
    weight_filler {
      type: "xavier"
    }
    bias_filler {
      type: "constant"
    }
  }
}
layer {
  name: "relu5"
  type: "ReLU"
  bottom: "ip1"
  top: "ip1"
}
layer {
  name: "drop1"
  type: "Dropout"
  bottom: "ip1"
  top: "ip1"
  dropout_param {
    dropout_ratio: 0.5
  }
}
layer {
  name: "ip2"
  type: "InnerProduct"
  bottom: "ip1"
  top: "ip2"
  inner_product_param {
    num_output: 98
    weight_filler {
      type: "xavier"
    }
    bias_filler {
      type: "constant"
    }
  }
}
layer {
  name: "relu6"
  type: "ReLU"
  bottom: "ip2"
  top: "ip2"
}
layer {
  name: "drop2"
  type: "Dropout"
  bottom: "ip2"
  top: "ip2"
  dropout_param {
    dropout_ratio: 0.5
  }
}
layer {
  name: "ip3"
  type: "InnerProduct"
  bottom: "ip2"
  top: "ip3"
  inner_product_param {
    num_output: 11
    weight_filler {
      type: "xavier"
    }
    bias_filler {
      type: "constant"
    }
  }
}
layer {
  name: "drop3"
  type: "Dropout"
  bottom: "ip3"
  top: "ip3"
  dropout_param {
    dropout_ratio: 0.5
  }
}
layer {
  name: "accuracy"
  type: "Accuracy"
  bottom: "ip3"
  bottom: "label"
  top: "accuracy"
  include {
    phase: TEST
  }
}
layer {
  name: "loss"
  type: "SoftmaxWithLoss"
  bottom: "ip3"
  bottom: "label"
  top: "loss"
}
I0521 23:42:51.816517 13093 layer_factory.hpp:77] Creating layer data_hdf5
I0521 23:42:51.816534 13093 net.cpp:106] Creating Layer data_hdf5
I0521 23:42:51.816545 13093 net.cpp:411] data_hdf5 -> data
I0521 23:42:51.816562 13093 net.cpp:411] data_hdf5 -> label
I0521 23:42:51.816578 13093 hdf5_data_layer.cpp:79] Loading list of HDF5 filenames from: /lustre/atlas/proj-shared/hep105/caffe_titan/minosmatch_nukecczdefs_127x50_x_unshifted_me1Bmc.testlist
I0521 23:42:51.817909 13093 hdf5_data_layer.cpp:93] Number of HDF5 files: 3
I0521 23:43:13.089332 13093 net.cpp:150] Setting up data_hdf5
I0521 23:43:13.089486 13093 net.cpp:157] Top shape: 20 1 127 50 (127000)
I0521 23:43:13.089501 13093 net.cpp:157] Top shape: 20 (20)
I0521 23:43:13.089514 13093 net.cpp:165] Memory required for data: 508080
I0521 23:43:13.089526 13093 layer_factory.hpp:77] Creating layer label_data_hdf5_1_split
I0521 23:43:13.089555 13093 net.cpp:106] Creating Layer label_data_hdf5_1_split
I0521 23:43:13.089565 13093 net.cpp:454] label_data_hdf5_1_split <- label
I0521 23:43:13.089581 13093 net.cpp:411] label_data_hdf5_1_split -> label_data_hdf5_1_split_0
I0521 23:43:13.089601 13093 net.cpp:411] label_data_hdf5_1_split -> label_data_hdf5_1_split_1
I0521 23:43:13.089674 13093 net.cpp:150] Setting up label_data_hdf5_1_split
I0521 23:43:13.089689 13093 net.cpp:157] Top shape: 20 (20)
I0521 23:43:13.089700 13093 net.cpp:157] Top shape: 20 (20)
I0521 23:43:13.089709 13093 net.cpp:165] Memory required for data: 508240
I0521 23:43:13.089720 13093 layer_factory.hpp:77] Creating layer conv1
I0521 23:43:13.089740 13093 net.cpp:106] Creating Layer conv1
I0521 23:43:13.089751 13093 net.cpp:454] conv1 <- data
I0521 23:43:13.089766 13093 net.cpp:411] conv1 -> conv1
I0521 23:43:13.091702 13093 net.cpp:150] Setting up conv1
I0521 23:43:13.091724 13093 net.cpp:157] Top shape: 20 12 120 48 (1382400)
I0521 23:43:13.091737 13093 net.cpp:165] Memory required for data: 6037840
I0521 23:43:13.091758 13093 layer_factory.hpp:77] Creating layer relu1
I0521 23:43:13.091773 13093 net.cpp:106] Creating Layer relu1
I0521 23:43:13.091783 13093 net.cpp:454] relu1 <- conv1
I0521 23:43:13.091795 13093 net.cpp:397] relu1 -> conv1 (in-place)
I0521 23:43:13.092290 13093 net.cpp:150] Setting up relu1
I0521 23:43:13.092306 13093 net.cpp:157] Top shape: 20 12 120 48 (1382400)
I0521 23:43:13.092319 13093 net.cpp:165] Memory required for data: 11567440
I0521 23:43:13.092329 13093 layer_factory.hpp:77] Creating layer pool1
I0521 23:43:13.092344 13093 net.cpp:106] Creating Layer pool1
I0521 23:43:13.092355 13093 net.cpp:454] pool1 <- conv1
I0521 23:43:13.092367 13093 net.cpp:411] pool1 -> pool1
I0521 23:43:13.092442 13093 net.cpp:150] Setting up pool1
I0521 23:43:13.092455 13093 net.cpp:157] Top shape: 20 12 60 48 (691200)
I0521 23:43:13.092468 13093 net.cpp:165] Memory required for data: 14332240
I0521 23:43:13.092478 13093 layer_factory.hpp:77] Creating layer conv2
I0521 23:43:13.092496 13093 net.cpp:106] Creating Layer conv2
I0521 23:43:13.092506 13093 net.cpp:454] conv2 <- pool1
I0521 23:43:13.092520 13093 net.cpp:411] conv2 -> conv2
I0521 23:43:13.094426 13093 net.cpp:150] Setting up conv2
I0521 23:43:13.094449 13093 net.cpp:157] Top shape: 20 20 54 46 (993600)
I0521 23:43:13.094462 13093 net.cpp:165] Memory required for data: 18306640
I0521 23:43:13.094480 13093 layer_factory.hpp:77] Creating layer relu2
I0521 23:43:13.094493 13093 net.cpp:106] Creating Layer relu2
I0521 23:43:13.094503 13093 net.cpp:454] relu2 <- conv2
I0521 23:43:13.094516 13093 net.cpp:397] relu2 -> conv2 (in-place)
I0521 23:43:13.094848 13093 net.cpp:150] Setting up relu2
I0521 23:43:13.094862 13093 net.cpp:157] Top shape: 20 20 54 46 (993600)
I0521 23:43:13.094872 13093 net.cpp:165] Memory required for data: 22281040
I0521 23:43:13.094882 13093 layer_factory.hpp:77] Creating layer pool2
I0521 23:43:13.094894 13093 net.cpp:106] Creating Layer pool2
I0521 23:43:13.094904 13093 net.cpp:454] pool2 <- conv2
I0521 23:43:13.094918 13093 net.cpp:411] pool2 -> pool2
I0521 23:43:13.094990 13093 net.cpp:150] Setting up pool2
I0521 23:43:13.095003 13093 net.cpp:157] Top shape: 20 20 27 46 (496800)
I0521 23:43:13.095012 13093 net.cpp:165] Memory required for data: 24268240
I0521 23:43:13.095022 13093 layer_factory.hpp:77] Creating layer conv3
I0521 23:43:13.095039 13093 net.cpp:106] Creating Layer conv3
I0521 23:43:13.095051 13093 net.cpp:454] conv3 <- pool2
I0521 23:43:13.095064 13093 net.cpp:411] conv3 -> conv3
I0521 23:43:13.097048 13093 net.cpp:150] Setting up conv3
I0521 23:43:13.097070 13093 net.cpp:157] Top shape: 20 28 22 44 (542080)
I0521 23:43:13.097095 13093 net.cpp:165] Memory required for data: 26436560
I0521 23:43:13.097115 13093 layer_factory.hpp:77] Creating layer relu3
I0521 23:43:13.097141 13093 net.cpp:106] Creating Layer relu3
I0521 23:43:13.097151 13093 net.cpp:454] relu3 <- conv3
I0521 23:43:13.097164 13093 net.cpp:397] relu3 -> conv3 (in-place)
I0521 23:43:13.097640 13093 net.cpp:150] Setting up relu3
I0521 23:43:13.097656 13093 net.cpp:157] Top shape: 20 28 22 44 (542080)
I0521 23:43:13.097666 13093 net.cpp:165] Memory required for data: 28604880
I0521 23:43:13.097676 13093 layer_factory.hpp:77] Creating layer pool3
I0521 23:43:13.097690 13093 net.cpp:106] Creating Layer pool3
I0521 23:43:13.097700 13093 net.cpp:454] pool3 <- conv3
I0521 23:43:13.097712 13093 net.cpp:411] pool3 -> pool3
I0521 23:43:13.097784 13093 net.cpp:150] Setting up pool3
I0521 23:43:13.097797 13093 net.cpp:157] Top shape: 20 28 11 44 (271040)
I0521 23:43:13.097806 13093 net.cpp:165] Memory required for data: 29689040
I0521 23:43:13.097816 13093 layer_factory.hpp:77] Creating layer conv4
I0521 23:43:13.097834 13093 net.cpp:106] Creating Layer conv4
I0521 23:43:13.097844 13093 net.cpp:454] conv4 <- pool3
I0521 23:43:13.097859 13093 net.cpp:411] conv4 -> conv4
I0521 23:43:13.099921 13093 net.cpp:150] Setting up conv4
I0521 23:43:13.099943 13093 net.cpp:157] Top shape: 20 36 6 42 (181440)
I0521 23:43:13.099956 13093 net.cpp:165] Memory required for data: 30414800
I0521 23:43:13.099972 13093 layer_factory.hpp:77] Creating layer relu4
I0521 23:43:13.099984 13093 net.cpp:106] Creating Layer relu4
I0521 23:43:13.099994 13093 net.cpp:454] relu4 <- conv4
I0521 23:43:13.100008 13093 net.cpp:397] relu4 -> conv4 (in-place)
I0521 23:43:13.100476 13093 net.cpp:150] Setting up relu4
I0521 23:43:13.100492 13093 net.cpp:157] Top shape: 20 36 6 42 (181440)
I0521 23:43:13.100503 13093 net.cpp:165] Memory required for data: 31140560
I0521 23:43:13.100513 13093 layer_factory.hpp:77] Creating layer pool4
I0521 23:43:13.100527 13093 net.cpp:106] Creating Layer pool4
I0521 23:43:13.100536 13093 net.cpp:454] pool4 <- conv4
I0521 23:43:13.100549 13093 net.cpp:411] pool4 -> pool4
I0521 23:43:13.100621 13093 net.cpp:150] Setting up pool4
I0521 23:43:13.100635 13093 net.cpp:157] Top shape: 20 36 3 42 (90720)
I0521 23:43:13.100644 13093 net.cpp:165] Memory required for data: 31503440
I0521 23:43:13.100656 13093 layer_factory.hpp:77] Creating layer ip1
I0521 23:43:13.100667 13093 net.cpp:106] Creating Layer ip1
I0521 23:43:13.100678 13093 net.cpp:454] ip1 <- pool4
I0521 23:43:13.100692 13093 net.cpp:411] ip1 -> ip1
I0521 23:43:13.116140 13093 net.cpp:150] Setting up ip1
I0521 23:43:13.116169 13093 net.cpp:157] Top shape: 20 196 (3920)
I0521 23:43:13.116185 13093 net.cpp:165] Memory required for data: 31519120
I0521 23:43:13.116212 13093 layer_factory.hpp:77] Creating layer relu5
I0521 23:43:13.116227 13093 net.cpp:106] Creating Layer relu5
I0521 23:43:13.116237 13093 net.cpp:454] relu5 <- ip1
I0521 23:43:13.116251 13093 net.cpp:397] relu5 -> ip1 (in-place)
I0521 23:43:13.116597 13093 net.cpp:150] Setting up relu5
I0521 23:43:13.116611 13093 net.cpp:157] Top shape: 20 196 (3920)
I0521 23:43:13.116621 13093 net.cpp:165] Memory required for data: 31534800
I0521 23:43:13.116631 13093 layer_factory.hpp:77] Creating layer drop1
I0521 23:43:13.116650 13093 net.cpp:106] Creating Layer drop1
I0521 23:43:13.116660 13093 net.cpp:454] drop1 <- ip1
I0521 23:43:13.116673 13093 net.cpp:397] drop1 -> ip1 (in-place)
I0521 23:43:13.116724 13093 net.cpp:150] Setting up drop1
I0521 23:43:13.116739 13093 net.cpp:157] Top shape: 20 196 (3920)
I0521 23:43:13.116750 13093 net.cpp:165] Memory required for data: 31550480
I0521 23:43:13.116760 13093 layer_factory.hpp:77] Creating layer ip2
I0521 23:43:13.116775 13093 net.cpp:106] Creating Layer ip2
I0521 23:43:13.116785 13093 net.cpp:454] ip2 <- ip1
I0521 23:43:13.116797 13093 net.cpp:411] ip2 -> ip2
I0521 23:43:13.117276 13093 net.cpp:150] Setting up ip2
I0521 23:43:13.117290 13093 net.cpp:157] Top shape: 20 98 (1960)
I0521 23:43:13.117300 13093 net.cpp:165] Memory required for data: 31558320
I0521 23:43:13.117316 13093 layer_factory.hpp:77] Creating layer relu6
I0521 23:43:13.117341 13093 net.cpp:106] Creating Layer relu6
I0521 23:43:13.117350 13093 net.cpp:454] relu6 <- ip2
I0521 23:43:13.117363 13093 net.cpp:397] relu6 -> ip2 (in-place)
I0521 23:43:13.117897 13093 net.cpp:150] Setting up relu6
I0521 23:43:13.117919 13093 net.cpp:157] Top shape: 20 98 (1960)
I0521 23:43:13.117928 13093 net.cpp:165] Memory required for data: 31566160
I0521 23:43:13.117938 13093 layer_factory.hpp:77] Creating layer drop2
I0521 23:43:13.117952 13093 net.cpp:106] Creating Layer drop2
I0521 23:43:13.117964 13093 net.cpp:454] drop2 <- ip2
I0521 23:43:13.117976 13093 net.cpp:397] drop2 -> ip2 (in-place)
I0521 23:43:13.118021 13093 net.cpp:150] Setting up drop2
I0521 23:43:13.118033 13093 net.cpp:157] Top shape: 20 98 (1960)
I0521 23:43:13.118043 13093 net.cpp:165] Memory required for data: 31574000
I0521 23:43:13.118053 13093 layer_factory.hpp:77] Creating layer ip3
I0521 23:43:13.118067 13093 net.cpp:106] Creating Layer ip3
I0521 23:43:13.118077 13093 net.cpp:454] ip3 <- ip2
I0521 23:43:13.118090 13093 net.cpp:411] ip3 -> ip3
I0521 23:43:13.118311 13093 net.cpp:150] Setting up ip3
I0521 23:43:13.118324 13093 net.cpp:157] Top shape: 20 11 (220)
I0521 23:43:13.118335 13093 net.cpp:165] Memory required for data: 31574880
I0521 23:43:13.118350 13093 layer_factory.hpp:77] Creating layer drop3
I0521 23:43:13.118362 13093 net.cpp:106] Creating Layer drop3
I0521 23:43:13.118372 13093 net.cpp:454] drop3 <- ip3
I0521 23:43:13.118386 13093 net.cpp:397] drop3 -> ip3 (in-place)
I0521 23:43:13.118425 13093 net.cpp:150] Setting up drop3
I0521 23:43:13.118438 13093 net.cpp:157] Top shape: 20 11 (220)
I0521 23:43:13.118448 13093 net.cpp:165] Memory required for data: 31575760
I0521 23:43:13.118458 13093 layer_factory.hpp:77] Creating layer ip3_drop3_0_split
I0521 23:43:13.118471 13093 net.cpp:106] Creating Layer ip3_drop3_0_split
I0521 23:43:13.118480 13093 net.cpp:454] ip3_drop3_0_split <- ip3
I0521 23:43:13.118494 13093 net.cpp:411] ip3_drop3_0_split -> ip3_drop3_0_split_0
I0521 23:43:13.118508 13093 net.cpp:411] ip3_drop3_0_split -> ip3_drop3_0_split_1
I0521 23:43:13.118582 13093 net.cpp:150] Setting up ip3_drop3_0_split
I0521 23:43:13.118594 13093 net.cpp:157] Top shape: 20 11 (220)
I0521 23:43:13.118607 13093 net.cpp:157] Top shape: 20 11 (220)
I0521 23:43:13.118618 13093 net.cpp:165] Memory required for data: 31577520
I0521 23:43:13.118628 13093 layer_factory.hpp:77] Creating layer accuracy
I0521 23:43:13.118649 13093 net.cpp:106] Creating Layer accuracy
I0521 23:43:13.118659 13093 net.cpp:454] accuracy <- ip3_drop3_0_split_0
I0521 23:43:13.118669 13093 net.cpp:454] accuracy <- label_data_hdf5_1_split_0
I0521 23:43:13.118683 13093 net.cpp:411] accuracy -> accuracy
…
