…
I0522 00:04:19.254595 18599 net.cpp:322] The NetState phase (0) differed from the phase (1) specified by a rule in layer data_hdf5
I0522 00:04:19.254653 18599 net.cpp:322] The NetState phase (0) differed from the phase (1) specified by a rule in layer accuracy
I0522 00:04:19.255002 18599 net.cpp:49] Initializing net from parameters: 
name: "caffe_test_127x50_x_unshifted"
state {
  phase: TRAIN
}
layer {
  name: "data_hdf5"
  type: "HDF5Data"
  top: "data"
  top: "label"
  include {
    phase: TRAIN
  }
  hdf5_data_param {
    source: "/lustre/atlas/proj-shared/hep105/caffe_titan/minosmatch_nukecczdefs_127x50_x_unshifted_me1Bmc.trainlist"
    batch_size: 20
  }
}
layer {
  name: "conv1"
  type: "Convolution"
  bottom: "data"
  top: "conv1"
  convolution_param {
    num_output: 12
    pad: 0
    stride: 1
    weight_filler {
      type: "xavier"
    }
    bias_filler {
      type: "constant"
    }
    kernel_h: 8
    kernel_w: 3
  }
}
layer {
  name: "relu1"
  type: "ReLU"
  bottom: "conv1"
  top: "conv1"
}
layer {
  name: "pool1"
  type: "Pooling"
  bottom: "conv1"
  top: "pool1"
  pooling_param {
    pool: MAX
    kernel_h: 2
    kernel_w: 1
    stride_h: 2
    stride_w: 1
  }
}
layer {
  name: "conv2"
  type: "Convolution"
  bottom: "pool1"
  top: "conv2"
  convolution_param {
    num_output: 20
    pad: 0
    stride: 1
    weight_filler {
      type: "xavier"
    }
    bias_filler {
      type: "constant"
    }
    kernel_h: 7
    kernel_w: 3
  }
}
layer {
  name: "relu2"
  type: "ReLU"
  bottom: "conv2"
  top: "conv2"
}
layer {
  name: "pool2"
  type: "Pooling"
  bottom: "conv2"
  top: "pool2"
  pooling_param {
    pool: MAX
    kernel_h: 2
    kernel_w: 1
    stride_h: 2
    stride_w: 1
  }
}
layer {
  name: "conv3"
  type: "Convolution"
  bottom: "pool2"
  top: "conv3"
  convolution_param {
    num_output: 28
    pad: 0
    stride: 1
    weight_filler {
      type: "xavier"
    }
    bias_filler {
      type: "constant"
    }
    kernel_h: 6
    kernel_w: 3
  }
}
layer {
  name: "relu3"
  type: "ReLU"
  bottom: "conv3"
  top: "conv3"
}
layer {
  name: "pool3"
  type: "Pooling"
  bottom: "conv3"
  top: "pool3"
  pooling_param {
    pool: MAX
    kernel_h: 2
    kernel_w: 1
    stride_h: 2
    stride_w: 1
  }
}
layer {
  name: "conv4"
  type: "Convolution"
  bottom: "pool3"
  top: "conv4"
  convolution_param {
    num_output: 36
    pad: 0
    stride: 1
    weight_filler {
      type: "xavier"
    }
    bias_filler {
      type: "constant"
    }
    kernel_h: 6
    kernel_w: 3
  }
}
layer {
  name: "relu4"
  type: "ReLU"
  bottom: "conv4"
  top: "conv4"
}
layer {
  name: "pool4"
  type: "Pooling"
  bottom: "conv4"
  top: "pool4"
  pooling_param {
    pool: MAX
    kernel_h: 2
    kernel_w: 1
    stride_h: 2
    stride_w: 1
  }
}
layer {
  name: "ip1"
  type: "InnerProduct"
  bottom: "pool4"
  top: "ip1"
  inner_product_param {
    num_output: 196
    weight_filler {
      type: "xavier"
    }
    bias_filler {
      type: "constant"
    }
  }
}
layer {
  name: "relu5"
  type: "ReLU"
  bottom: "ip1"
  top: "ip1"
}
layer {
  name: "drop1"
  type: "Dropout"
  bottom: "ip1"
  top: "ip1"
  dropout_param {
    dropout_ratio: 0.5
  }
}
layer {
  name: "ip2"
  type: "InnerProduct"
  bottom: "ip1"
  top: "ip2"
  inner_product_param {
    num_output: 98
    weight_filler {
      type: "xavier"
    }
    bias_filler {
      type: "constant"
    }
  }
}
layer {
  name: "relu6"
  type: "ReLU"
  bottom: "ip2"
  top: "ip2"
}
layer {
  name: "drop2"
  type: "Dropout"
  bottom: "ip2"
  top: "ip2"
  dropout_param {
    dropout_ratio: 0.5
  }
}
layer {
  name: "ip3"
  type: "InnerProduct"
  bottom: "ip2"
  top: "ip3"
  inner_product_param {
    num_output: 11
    weight_filler {
      type: "xavier"
    }
    bias_filler {
      type: "constant"
    }
  }
}
layer {
  name: "drop3"
  type: "Dropout"
  bottom: "ip3"
  top: "ip3"
  dropout_param {
    dropout_ratio: 0.5
  }
}
layer {
  name: "loss"
  type: "SoftmaxWithLoss"
  bottom: "ip3"
  bottom: "label"
  top: "loss"
}
I0522 00:04:19.255184 18599 layer_factory.hpp:77] Creating layer data_hdf5
I0522 00:04:19.255208 18599 net.cpp:106] Creating Layer data_hdf5
I0522 00:04:19.255223 18599 net.cpp:411] data_hdf5 -> data
I0522 00:04:19.255257 18599 net.cpp:411] data_hdf5 -> label
I0522 00:04:19.255291 18599 hdf5_data_layer.cpp:79] Loading list of HDF5 filenames from: /lustre/atlas/proj-shared/hep105/caffe_titan/minosmatch_nukecczdefs_127x50_x_unshifted_me1Bmc.trainlist
I0522 00:04:19.256687 18599 hdf5_data_layer.cpp:93] Number of HDF5 files: 15
I0522 00:04:19.259104 18599 hdf5.cpp:32] Datatype class: H5T_FLOAT
I0522 00:04:40.824167 18599 hdf5.cpp:35] Datatype class: H5T_INTEGER
I0522 00:04:40.829306 18599 net.cpp:150] Setting up data_hdf5
I0522 00:04:40.829346 18599 net.cpp:157] Top shape: 20 1 127 50 (127000)
I0522 00:04:40.829361 18599 net.cpp:157] Top shape: 20 (20)
I0522 00:04:40.829373 18599 net.cpp:165] Memory required for data: 508080
I0522 00:04:40.829386 18599 layer_factory.hpp:77] Creating layer conv1
I0522 00:04:40.829421 18599 net.cpp:106] Creating Layer conv1
I0522 00:04:40.829432 18599 net.cpp:454] conv1 <- data
I0522 00:04:40.829452 18599 net.cpp:411] conv1 -> conv1
I0522 00:04:41.192054 18599 net.cpp:150] Setting up conv1
I0522 00:04:41.192102 18599 net.cpp:157] Top shape: 20 12 120 48 (1382400)
I0522 00:04:41.192113 18599 net.cpp:165] Memory required for data: 6037680
I0522 00:04:41.192143 18599 layer_factory.hpp:77] Creating layer relu1
I0522 00:04:41.192164 18599 net.cpp:106] Creating Layer relu1
I0522 00:04:41.192175 18599 net.cpp:454] relu1 <- conv1
I0522 00:04:41.192188 18599 net.cpp:397] relu1 -> conv1 (in-place)
I0522 00:04:41.192708 18599 net.cpp:150] Setting up relu1
I0522 00:04:41.192725 18599 net.cpp:157] Top shape: 20 12 120 48 (1382400)
I0522 00:04:41.192736 18599 net.cpp:165] Memory required for data: 11567280
I0522 00:04:41.192747 18599 layer_factory.hpp:77] Creating layer pool1
I0522 00:04:41.192764 18599 net.cpp:106] Creating Layer pool1
I0522 00:04:41.192773 18599 net.cpp:454] pool1 <- conv1
I0522 00:04:41.192786 18599 net.cpp:411] pool1 -> pool1
I0522 00:04:41.192878 18599 net.cpp:150] Setting up pool1
I0522 00:04:41.192891 18599 net.cpp:157] Top shape: 20 12 60 48 (691200)
I0522 00:04:41.192901 18599 net.cpp:165] Memory required for data: 14332080
I0522 00:04:41.192912 18599 layer_factory.hpp:77] Creating layer conv2
I0522 00:04:41.192935 18599 net.cpp:106] Creating Layer conv2
I0522 00:04:41.192945 18599 net.cpp:454] conv2 <- pool1
I0522 00:04:41.192958 18599 net.cpp:411] conv2 -> conv2
I0522 00:04:41.195644 18599 net.cpp:150] Setting up conv2
I0522 00:04:41.195672 18599 net.cpp:157] Top shape: 20 20 54 46 (993600)
I0522 00:04:41.195683 18599 net.cpp:165] Memory required for data: 18306480
I0522 00:04:41.195703 18599 layer_factory.hpp:77] Creating layer relu2
I0522 00:04:41.195718 18599 net.cpp:106] Creating Layer relu2
I0522 00:04:41.195727 18599 net.cpp:454] relu2 <- conv2
I0522 00:04:41.195740 18599 net.cpp:397] relu2 -> conv2 (in-place)
I0522 00:04:41.196068 18599 net.cpp:150] Setting up relu2
I0522 00:04:41.196081 18599 net.cpp:157] Top shape: 20 20 54 46 (993600)
I0522 00:04:41.196092 18599 net.cpp:165] Memory required for data: 22280880
I0522 00:04:41.196104 18599 layer_factory.hpp:77] Creating layer pool2
I0522 00:04:41.196115 18599 net.cpp:106] Creating Layer pool2
I0522 00:04:41.196125 18599 net.cpp:454] pool2 <- conv2
I0522 00:04:41.196137 18599 net.cpp:411] pool2 -> pool2
I0522 00:04:41.196220 18599 net.cpp:150] Setting up pool2
I0522 00:04:41.196233 18599 net.cpp:157] Top shape: 20 20 27 46 (496800)
I0522 00:04:41.196244 18599 net.cpp:165] Memory required for data: 24268080
I0522 00:04:41.196254 18599 layer_factory.hpp:77] Creating layer conv3
I0522 00:04:41.196270 18599 net.cpp:106] Creating Layer conv3
I0522 00:04:41.196281 18599 net.cpp:454] conv3 <- pool2
I0522 00:04:41.196295 18599 net.cpp:411] conv3 -> conv3
I0522 00:04:41.198248 18599 net.cpp:150] Setting up conv3
I0522 00:04:41.198271 18599 net.cpp:157] Top shape: 20 28 22 44 (542080)
I0522 00:04:41.198283 18599 net.cpp:165] Memory required for data: 26436400
I0522 00:04:41.198302 18599 layer_factory.hpp:77] Creating layer relu3
I0522 00:04:41.198318 18599 net.cpp:106] Creating Layer relu3
I0522 00:04:41.198328 18599 net.cpp:454] relu3 <- conv3
I0522 00:04:41.198340 18599 net.cpp:397] relu3 -> conv3 (in-place)
I0522 00:04:41.198808 18599 net.cpp:150] Setting up relu3
I0522 00:04:41.198825 18599 net.cpp:157] Top shape: 20 28 22 44 (542080)
I0522 00:04:41.198835 18599 net.cpp:165] Memory required for data: 28604720
I0522 00:04:41.198845 18599 layer_factory.hpp:77] Creating layer pool3
I0522 00:04:41.198858 18599 net.cpp:106] Creating Layer pool3
I0522 00:04:41.198868 18599 net.cpp:454] pool3 <- conv3
I0522 00:04:41.198881 18599 net.cpp:411] pool3 -> pool3
I0522 00:04:41.198950 18599 net.cpp:150] Setting up pool3
I0522 00:04:41.198962 18599 net.cpp:157] Top shape: 20 28 11 44 (271040)
I0522 00:04:41.198972 18599 net.cpp:165] Memory required for data: 29688880
I0522 00:04:41.198982 18599 layer_factory.hpp:77] Creating layer conv4
I0522 00:04:41.198997 18599 net.cpp:106] Creating Layer conv4
I0522 00:04:41.199007 18599 net.cpp:454] conv4 <- pool3
I0522 00:04:41.199021 18599 net.cpp:411] conv4 -> conv4
I0522 00:04:41.201764 18599 net.cpp:150] Setting up conv4
I0522 00:04:41.201792 18599 net.cpp:157] Top shape: 20 36 6 42 (181440)
I0522 00:04:41.201802 18599 net.cpp:165] Memory required for data: 30414640
I0522 00:04:41.201818 18599 layer_factory.hpp:77] Creating layer relu4
I0522 00:04:41.201833 18599 net.cpp:106] Creating Layer relu4
I0522 00:04:41.201843 18599 net.cpp:454] relu4 <- conv4
I0522 00:04:41.201855 18599 net.cpp:397] relu4 -> conv4 (in-place)
I0522 00:04:41.202322 18599 net.cpp:150] Setting up relu4
I0522 00:04:41.202338 18599 net.cpp:157] Top shape: 20 36 6 42 (181440)
I0522 00:04:41.202349 18599 net.cpp:165] Memory required for data: 31140400
I0522 00:04:41.202359 18599 layer_factory.hpp:77] Creating layer pool4
I0522 00:04:41.202373 18599 net.cpp:106] Creating Layer pool4
I0522 00:04:41.202383 18599 net.cpp:454] pool4 <- conv4
I0522 00:04:41.202395 18599 net.cpp:411] pool4 -> pool4
I0522 00:04:41.202464 18599 net.cpp:150] Setting up pool4
I0522 00:04:41.202478 18599 net.cpp:157] Top shape: 20 36 3 42 (90720)
I0522 00:04:41.202489 18599 net.cpp:165] Memory required for data: 31503280
I0522 00:04:41.202499 18599 layer_factory.hpp:77] Creating layer ip1
I0522 00:04:41.202519 18599 net.cpp:106] Creating Layer ip1
I0522 00:04:41.202529 18599 net.cpp:454] ip1 <- pool4
I0522 00:04:41.202543 18599 net.cpp:411] ip1 -> ip1
I0522 00:04:41.218029 18599 net.cpp:150] Setting up ip1
I0522 00:04:41.218058 18599 net.cpp:157] Top shape: 20 196 (3920)
I0522 00:04:41.218075 18599 net.cpp:165] Memory required for data: 31518960
I0522 00:04:41.218101 18599 layer_factory.hpp:77] Creating layer relu5
I0522 00:04:41.218116 18599 net.cpp:106] Creating Layer relu5
I0522 00:04:41.218127 18599 net.cpp:454] relu5 <- ip1
I0522 00:04:41.218140 18599 net.cpp:397] relu5 -> ip1 (in-place)
I0522 00:04:41.218482 18599 net.cpp:150] Setting up relu5
I0522 00:04:41.218497 18599 net.cpp:157] Top shape: 20 196 (3920)
I0522 00:04:41.218507 18599 net.cpp:165] Memory required for data: 31534640
I0522 00:04:41.218516 18599 layer_factory.hpp:77] Creating layer drop1
I0522 00:04:41.218538 18599 net.cpp:106] Creating Layer drop1
I0522 00:04:41.218547 18599 net.cpp:454] drop1 <- ip1
I0522 00:04:41.218560 18599 net.cpp:397] drop1 -> ip1 (in-place)
I0522 00:04:41.218621 18599 net.cpp:150] Setting up drop1
I0522 00:04:41.218633 18599 net.cpp:157] Top shape: 20 196 (3920)
I0522 00:04:41.218643 18599 net.cpp:165] Memory required for data: 31550320
I0522 00:04:41.218653 18599 layer_factory.hpp:77] Creating layer ip2
I0522 00:04:41.218672 18599 net.cpp:106] Creating Layer ip2
I0522 00:04:41.218683 18599 net.cpp:454] ip2 <- ip1
I0522 00:04:41.218695 18599 net.cpp:411] ip2 -> ip2
I0522 00:04:41.219157 18599 net.cpp:150] Setting up ip2
I0522 00:04:41.219171 18599 net.cpp:157] Top shape: 20 98 (1960)
I0522 00:04:41.219180 18599 net.cpp:165] Memory required for data: 31558160
I0522 00:04:41.219197 18599 layer_factory.hpp:77] Creating layer relu6
I0522 00:04:41.219208 18599 net.cpp:106] Creating Layer relu6
I0522 00:04:41.219218 18599 net.cpp:454] relu6 <- ip2
I0522 00:04:41.219229 18599 net.cpp:397] relu6 -> ip2 (in-place)
I0522 00:04:41.219750 18599 net.cpp:150] Setting up relu6
I0522 00:04:41.219766 18599 net.cpp:157] Top shape: 20 98 (1960)
I0522 00:04:41.219776 18599 net.cpp:165] Memory required for data: 31566000
I0522 00:04:41.219787 18599 layer_factory.hpp:77] Creating layer drop2
I0522 00:04:41.219800 18599 net.cpp:106] Creating Layer drop2
I0522 00:04:41.219810 18599 net.cpp:454] drop2 <- ip2
I0522 00:04:41.219822 18599 net.cpp:397] drop2 -> ip2 (in-place)
I0522 00:04:41.219864 18599 net.cpp:150] Setting up drop2
I0522 00:04:41.219877 18599 net.cpp:157] Top shape: 20 98 (1960)
I0522 00:04:41.219888 18599 net.cpp:165] Memory required for data: 31573840
I0522 00:04:41.219898 18599 layer_factory.hpp:77] Creating layer ip3
I0522 00:04:41.219913 18599 net.cpp:106] Creating Layer ip3
I0522 00:04:41.219921 18599 net.cpp:454] ip3 <- ip2
I0522 00:04:41.219934 18599 net.cpp:411] ip3 -> ip3
I0522 00:04:41.220142 18599 net.cpp:150] Setting up ip3
I0522 00:04:41.220155 18599 net.cpp:157] Top shape: 20 11 (220)
I0522 00:04:41.220165 18599 net.cpp:165] Memory required for data: 31574720
I0522 00:04:41.220180 18599 layer_factory.hpp:77] Creating layer drop3
I0522 00:04:41.220192 18599 net.cpp:106] Creating Layer drop3
I0522 00:04:41.220202 18599 net.cpp:454] drop3 <- ip3
I0522 00:04:41.220214 18599 net.cpp:397] drop3 -> ip3 (in-place)
I0522 00:04:41.220253 18599 net.cpp:150] Setting up drop3
I0522 00:04:41.220266 18599 net.cpp:157] Top shape: 20 11 (220)
I0522 00:04:41.220276 18599 net.cpp:165] Memory required for data: 31575600
I0522 00:04:41.220286 18599 layer_factory.hpp:77] Creating layer loss
I0522 00:04:41.220305 18599 net.cpp:106] Creating Layer loss
I0522 00:04:41.220315 18599 net.cpp:454] loss <- ip3
I0522 00:04:41.220326 18599 net.cpp:454] loss <- label
I0522 00:04:41.220338 18599 net.cpp:411] loss -> loss
I0522 00:04:41.220355 18599 layer_factory.hpp:77] Creating layer loss
…
I0522 00:04:41.223016 18599 solver.cpp:181] Creating test net (#0) specified by net file: /lustre/atlas/proj-shared/hep105/caffe_titan/caffe_workflow/logs_bslr/bs_20_lr_0.0025_2016-05-20T15.48.54.995804.prototxt
I0522 00:04:41.223086 18599 net.cpp:322] The NetState phase (1) differed from the phase (0) specified by a rule in layer data_hdf5
I0522 00:04:41.223444 18599 net.cpp:49] Initializing net from parameters: 
name: "caffe_test_127x50_x_unshifted"
state {
  phase: TEST
}
layer {
  name: "data_hdf5"
  type: "HDF5Data"
  top: "data"
  top: "label"
  include {
    phase: TEST
  }
  hdf5_data_param {
    source: "/lustre/atlas/proj-shared/hep105/caffe_titan/minosmatch_nukecczdefs_127x50_x_unshifted_me1Bmc.testlist"
    batch_size: 20
  }
}
layer {
  name: "conv1"
  type: "Convolution"
  bottom: "data"
  top: "conv1"
  convolution_param {
    num_output: 12
    pad: 0
    stride: 1
    weight_filler {
      type: "xavier"
    }
    bias_filler {
      type: "constant"
    }
    kernel_h: 8
    kernel_w: 3
  }
}
layer {
  name: "relu1"
  type: "ReLU"
  bottom: "conv1"
  top: "conv1"
}
layer {
  name: "pool1"
  type: "Pooling"
  bottom: "conv1"
  top: "pool1"
  pooling_param {
    pool: MAX
    kernel_h: 2
    kernel_w: 1
    stride_h: 2
    stride_w: 1
  }
}
layer {
  name: "conv2"
  type: "Convolution"
  bottom: "pool1"
  top: "conv2"
  convolution_param {
    num_output: 20
    pad: 0
    stride: 1
    weight_filler {
      type: "xavier"
    }
    bias_filler {
      type: "constant"
    }
    kernel_h: 7
    kernel_w: 3
  }
}
layer {
  name: "relu2"
  type: "ReLU"
  bottom: "conv2"
  top: "conv2"
}
layer {
  name: "pool2"
  type: "Pooling"
  bottom: "conv2"
  top: "pool2"
  pooling_param {
    pool: MAX
    kernel_h: 2
    kernel_w: 1
    stride_h: 2
    stride_w: 1
  }
}
layer {
  name: "conv3"
  type: "Convolution"
  bottom: "pool2"
  top: "conv3"
  convolution_param {
    num_output: 28
    pad: 0
    stride: 1
    weight_filler {
      type: "xavier"
    }
    bias_filler {
      type: "constant"
    }
    kernel_h: 6
    kernel_w: 3
  }
}
layer {
  name: "relu3"
  type: "ReLU"
  bottom: "conv3"
  top: "conv3"
}
layer {
  name: "pool3"
  type: "Pooling"
  bottom: "conv3"
  top: "pool3"
  pooling_param {
    pool: MAX
    kernel_h: 2
    kernel_w: 1
    stride_h: 2
    stride_w: 1
  }
}
layer {
  name: "conv4"
  type: "Convolution"
  bottom: "pool3"
  top: "conv4"
  convolution_param {
    num_output: 36
    pad: 0
    stride: 1
    weight_filler {
      type: "xavier"
    }
    bias_filler {
      type: "constant"
    }
    kernel_h: 6
    kernel_w: 3
  }
}
layer {
  name: "relu4"
  type: "ReLU"
  bottom: "conv4"
  top: "conv4"
}
layer {
  name: "pool4"
  type: "Pooling"
  bottom: "conv4"
  top: "pool4"
  pooling_param {
    pool: MAX
    kernel_h: 2
    kernel_w: 1
    stride_h: 2
    stride_w: 1
  }
}
layer {
  name: "ip1"
  type: "InnerProduct"
  bottom: "pool4"
  top: "ip1"
  inner_product_param {
    num_output: 196
    weight_filler {
      type: "xavier"
    }
    bias_filler {
      type: "constant"
    }
  }
}
layer {
  name: "relu5"
  type: "ReLU"
  bottom: "ip1"
  top: "ip1"
}
layer {
  name: "drop1"
  type: "Dropout"
  bottom: "ip1"
  top: "ip1"
  dropout_param {
    dropout_ratio: 0.5
  }
}
layer {
  name: "ip2"
  type: "InnerProduct"
  bottom: "ip1"
  top: "ip2"
  inner_product_param {
    num_output: 98
    weight_filler {
      type: "xavier"
    }
    bias_filler {
      type: "constant"
    }
  }
}
layer {
  name: "relu6"
  type: "ReLU"
  bottom: "ip2"
  top: "ip2"
}
layer {
  name: "drop2"
  type: "Dropout"
  bottom: "ip2"
  top: "ip2"
  dropout_param {
    dropout_ratio: 0.5
  }
}
layer {
  name: "ip3"
  type: "InnerProduct"
  bottom: "ip2"
  top: "ip3"
  inner_product_param {
    num_output: 11
    weight_filler {
      type: "xavier"
    }
    bias_filler {
      type: "constant"
    }
  }
}
layer {
  name: "drop3"
  type: "Dropout"
  bottom: "ip3"
  top: "ip3"
  dropout_param {
    dropout_ratio: 0.5
  }
}
layer {
  name: "accuracy"
  type: "Accuracy"
  bottom: "ip3"
  bottom: "label"
  top: "accuracy"
  include {
    phase: TEST
  }
}
layer {
  name: "loss"
  type: "SoftmaxWithLoss"
  bottom: "ip3"
  bottom: "label"
  top: "loss"
}
I0522 00:04:41.223633 18599 layer_factory.hpp:77] Creating layer data_hdf5
I0522 00:04:41.223649 18599 net.cpp:106] Creating Layer data_hdf5
I0522 00:04:41.223660 18599 net.cpp:411] data_hdf5 -> data
I0522 00:04:41.223678 18599 net.cpp:411] data_hdf5 -> label
I0522 00:04:41.223695 18599 hdf5_data_layer.cpp:79] Loading list of HDF5 filenames from: /lustre/atlas/proj-shared/hep105/caffe_titan/minosmatch_nukecczdefs_127x50_x_unshifted_me1Bmc.testlist
I0522 00:04:41.224930 18599 hdf5_data_layer.cpp:93] Number of HDF5 files: 3
I0522 00:05:02.525182 18599 net.cpp:150] Setting up data_hdf5
I0522 00:05:02.525352 18599 net.cpp:157] Top shape: 20 1 127 50 (127000)
I0522 00:05:02.525367 18599 net.cpp:157] Top shape: 20 (20)
I0522 00:05:02.525377 18599 net.cpp:165] Memory required for data: 508080
I0522 00:05:02.525390 18599 layer_factory.hpp:77] Creating layer label_data_hdf5_1_split
I0522 00:05:02.525418 18599 net.cpp:106] Creating Layer label_data_hdf5_1_split
I0522 00:05:02.525429 18599 net.cpp:454] label_data_hdf5_1_split <- label
I0522 00:05:02.525444 18599 net.cpp:411] label_data_hdf5_1_split -> label_data_hdf5_1_split_0
I0522 00:05:02.525465 18599 net.cpp:411] label_data_hdf5_1_split -> label_data_hdf5_1_split_1
I0522 00:05:02.525538 18599 net.cpp:150] Setting up label_data_hdf5_1_split
I0522 00:05:02.525552 18599 net.cpp:157] Top shape: 20 (20)
I0522 00:05:02.525563 18599 net.cpp:157] Top shape: 20 (20)
I0522 00:05:02.525573 18599 net.cpp:165] Memory required for data: 508240
I0522 00:05:02.525583 18599 layer_factory.hpp:77] Creating layer conv1
I0522 00:05:02.525604 18599 net.cpp:106] Creating Layer conv1
I0522 00:05:02.525614 18599 net.cpp:454] conv1 <- data
I0522 00:05:02.525626 18599 net.cpp:411] conv1 -> conv1
I0522 00:05:02.527552 18599 net.cpp:150] Setting up conv1
I0522 00:05:02.527576 18599 net.cpp:157] Top shape: 20 12 120 48 (1382400)
I0522 00:05:02.527588 18599 net.cpp:165] Memory required for data: 6037840
I0522 00:05:02.527609 18599 layer_factory.hpp:77] Creating layer relu1
I0522 00:05:02.527623 18599 net.cpp:106] Creating Layer relu1
I0522 00:05:02.527633 18599 net.cpp:454] relu1 <- conv1
I0522 00:05:02.527647 18599 net.cpp:397] relu1 -> conv1 (in-place)
I0522 00:05:02.528144 18599 net.cpp:150] Setting up relu1
I0522 00:05:02.528161 18599 net.cpp:157] Top shape: 20 12 120 48 (1382400)
I0522 00:05:02.528172 18599 net.cpp:165] Memory required for data: 11567440
I0522 00:05:02.528182 18599 layer_factory.hpp:77] Creating layer pool1
I0522 00:05:02.528198 18599 net.cpp:106] Creating Layer pool1
I0522 00:05:02.528208 18599 net.cpp:454] pool1 <- conv1
I0522 00:05:02.528221 18599 net.cpp:411] pool1 -> pool1
I0522 00:05:02.528296 18599 net.cpp:150] Setting up pool1
I0522 00:05:02.528309 18599 net.cpp:157] Top shape: 20 12 60 48 (691200)
I0522 00:05:02.528319 18599 net.cpp:165] Memory required for data: 14332240
I0522 00:05:02.528329 18599 layer_factory.hpp:77] Creating layer conv2
I0522 00:05:02.528347 18599 net.cpp:106] Creating Layer conv2
I0522 00:05:02.528357 18599 net.cpp:454] conv2 <- pool1
I0522 00:05:02.528370 18599 net.cpp:411] conv2 -> conv2
I0522 00:05:02.530297 18599 net.cpp:150] Setting up conv2
I0522 00:05:02.530318 18599 net.cpp:157] Top shape: 20 20 54 46 (993600)
I0522 00:05:02.530331 18599 net.cpp:165] Memory required for data: 18306640
I0522 00:05:02.530349 18599 layer_factory.hpp:77] Creating layer relu2
I0522 00:05:02.530362 18599 net.cpp:106] Creating Layer relu2
I0522 00:05:02.530372 18599 net.cpp:454] relu2 <- conv2
I0522 00:05:02.530385 18599 net.cpp:397] relu2 -> conv2 (in-place)
I0522 00:05:02.530716 18599 net.cpp:150] Setting up relu2
I0522 00:05:02.530730 18599 net.cpp:157] Top shape: 20 20 54 46 (993600)
I0522 00:05:02.530740 18599 net.cpp:165] Memory required for data: 22281040
I0522 00:05:02.530750 18599 layer_factory.hpp:77] Creating layer pool2
I0522 00:05:02.530763 18599 net.cpp:106] Creating Layer pool2
I0522 00:05:02.530773 18599 net.cpp:454] pool2 <- conv2
I0522 00:05:02.530786 18599 net.cpp:411] pool2 -> pool2
I0522 00:05:02.530858 18599 net.cpp:150] Setting up pool2
I0522 00:05:02.530870 18599 net.cpp:157] Top shape: 20 20 27 46 (496800)
I0522 00:05:02.530880 18599 net.cpp:165] Memory required for data: 24268240
I0522 00:05:02.530890 18599 layer_factory.hpp:77] Creating layer conv3
I0522 00:05:02.530908 18599 net.cpp:106] Creating Layer conv3
I0522 00:05:02.530918 18599 net.cpp:454] conv3 <- pool2
I0522 00:05:02.530932 18599 net.cpp:411] conv3 -> conv3
I0522 00:05:02.532915 18599 net.cpp:150] Setting up conv3
I0522 00:05:02.532938 18599 net.cpp:157] Top shape: 20 28 22 44 (542080)
I0522 00:05:02.532950 18599 net.cpp:165] Memory required for data: 26436560
I0522 00:05:02.532969 18599 layer_factory.hpp:77] Creating layer relu3
I0522 00:05:02.532995 18599 net.cpp:106] Creating Layer relu3
I0522 00:05:02.533005 18599 net.cpp:454] relu3 <- conv3
I0522 00:05:02.533018 18599 net.cpp:397] relu3 -> conv3 (in-place)
I0522 00:05:02.533490 18599 net.cpp:150] Setting up relu3
I0522 00:05:02.533506 18599 net.cpp:157] Top shape: 20 28 22 44 (542080)
I0522 00:05:02.533516 18599 net.cpp:165] Memory required for data: 28604880
I0522 00:05:02.533526 18599 layer_factory.hpp:77] Creating layer pool3
I0522 00:05:02.533540 18599 net.cpp:106] Creating Layer pool3
I0522 00:05:02.533550 18599 net.cpp:454] pool3 <- conv3
I0522 00:05:02.533562 18599 net.cpp:411] pool3 -> pool3
I0522 00:05:02.533634 18599 net.cpp:150] Setting up pool3
I0522 00:05:02.533648 18599 net.cpp:157] Top shape: 20 28 11 44 (271040)
I0522 00:05:02.533658 18599 net.cpp:165] Memory required for data: 29689040
I0522 00:05:02.533668 18599 layer_factory.hpp:77] Creating layer conv4
I0522 00:05:02.533682 18599 net.cpp:106] Creating Layer conv4
I0522 00:05:02.533694 18599 net.cpp:454] conv4 <- pool3
I0522 00:05:02.533707 18599 net.cpp:411] conv4 -> conv4
I0522 00:05:02.535755 18599 net.cpp:150] Setting up conv4
I0522 00:05:02.535778 18599 net.cpp:157] Top shape: 20 36 6 42 (181440)
I0522 00:05:02.535789 18599 net.cpp:165] Memory required for data: 30414800
I0522 00:05:02.535804 18599 layer_factory.hpp:77] Creating layer relu4
I0522 00:05:02.535817 18599 net.cpp:106] Creating Layer relu4
I0522 00:05:02.535827 18599 net.cpp:454] relu4 <- conv4
I0522 00:05:02.535840 18599 net.cpp:397] relu4 -> conv4 (in-place)
I0522 00:05:02.536310 18599 net.cpp:150] Setting up relu4
I0522 00:05:02.536326 18599 net.cpp:157] Top shape: 20 36 6 42 (181440)
I0522 00:05:02.536337 18599 net.cpp:165] Memory required for data: 31140560
I0522 00:05:02.536347 18599 layer_factory.hpp:77] Creating layer pool4
I0522 00:05:02.536360 18599 net.cpp:106] Creating Layer pool4
I0522 00:05:02.536370 18599 net.cpp:454] pool4 <- conv4
I0522 00:05:02.536383 18599 net.cpp:411] pool4 -> pool4
I0522 00:05:02.536454 18599 net.cpp:150] Setting up pool4
I0522 00:05:02.536468 18599 net.cpp:157] Top shape: 20 36 3 42 (90720)
I0522 00:05:02.536478 18599 net.cpp:165] Memory required for data: 31503440
I0522 00:05:02.536487 18599 layer_factory.hpp:77] Creating layer ip1
I0522 00:05:02.536501 18599 net.cpp:106] Creating Layer ip1
I0522 00:05:02.536512 18599 net.cpp:454] ip1 <- pool4
I0522 00:05:02.536525 18599 net.cpp:411] ip1 -> ip1
I0522 00:05:02.551995 18599 net.cpp:150] Setting up ip1
I0522 00:05:02.552022 18599 net.cpp:157] Top shape: 20 196 (3920)
I0522 00:05:02.552033 18599 net.cpp:165] Memory required for data: 31519120
I0522 00:05:02.552055 18599 layer_factory.hpp:77] Creating layer relu5
I0522 00:05:02.552070 18599 net.cpp:106] Creating Layer relu5
I0522 00:05:02.552081 18599 net.cpp:454] relu5 <- ip1
I0522 00:05:02.552094 18599 net.cpp:397] relu5 -> ip1 (in-place)
I0522 00:05:02.552440 18599 net.cpp:150] Setting up relu5
I0522 00:05:02.552454 18599 net.cpp:157] Top shape: 20 196 (3920)
I0522 00:05:02.552464 18599 net.cpp:165] Memory required for data: 31534800
I0522 00:05:02.552474 18599 layer_factory.hpp:77] Creating layer drop1
I0522 00:05:02.552494 18599 net.cpp:106] Creating Layer drop1
I0522 00:05:02.552503 18599 net.cpp:454] drop1 <- ip1
I0522 00:05:02.552517 18599 net.cpp:397] drop1 -> ip1 (in-place)
I0522 00:05:02.552563 18599 net.cpp:150] Setting up drop1
I0522 00:05:02.552577 18599 net.cpp:157] Top shape: 20 196 (3920)
I0522 00:05:02.552587 18599 net.cpp:165] Memory required for data: 31550480
I0522 00:05:02.552595 18599 layer_factory.hpp:77] Creating layer ip2
I0522 00:05:02.552610 18599 net.cpp:106] Creating Layer ip2
I0522 00:05:02.552620 18599 net.cpp:454] ip2 <- ip1
I0522 00:05:02.552634 18599 net.cpp:411] ip2 -> ip2
I0522 00:05:02.553117 18599 net.cpp:150] Setting up ip2
I0522 00:05:02.553130 18599 net.cpp:157] Top shape: 20 98 (1960)
I0522 00:05:02.553140 18599 net.cpp:165] Memory required for data: 31558320
I0522 00:05:02.553155 18599 layer_factory.hpp:77] Creating layer relu6
I0522 00:05:02.553181 18599 net.cpp:106] Creating Layer relu6
I0522 00:05:02.553191 18599 net.cpp:454] relu6 <- ip2
I0522 00:05:02.553205 18599 net.cpp:397] relu6 -> ip2 (in-place)
I0522 00:05:02.553740 18599 net.cpp:150] Setting up relu6
I0522 00:05:02.553755 18599 net.cpp:157] Top shape: 20 98 (1960)
I0522 00:05:02.553766 18599 net.cpp:165] Memory required for data: 31566160
I0522 00:05:02.553776 18599 layer_factory.hpp:77] Creating layer drop2
I0522 00:05:02.553789 18599 net.cpp:106] Creating Layer drop2
I0522 00:05:02.553799 18599 net.cpp:454] drop2 <- ip2
I0522 00:05:02.553812 18599 net.cpp:397] drop2 -> ip2 (in-place)
I0522 00:05:02.553856 18599 net.cpp:150] Setting up drop2
I0522 00:05:02.553869 18599 net.cpp:157] Top shape: 20 98 (1960)
I0522 00:05:02.553879 18599 net.cpp:165] Memory required for data: 31574000
I0522 00:05:02.553889 18599 layer_factory.hpp:77] Creating layer ip3
I0522 00:05:02.553902 18599 net.cpp:106] Creating Layer ip3
I0522 00:05:02.553912 18599 net.cpp:454] ip3 <- ip2
I0522 00:05:02.553926 18599 net.cpp:411] ip3 -> ip3
I0522 00:05:02.554150 18599 net.cpp:150] Setting up ip3
I0522 00:05:02.554163 18599 net.cpp:157] Top shape: 20 11 (220)
I0522 00:05:02.554172 18599 net.cpp:165] Memory required for data: 31574880
I0522 00:05:02.554188 18599 layer_factory.hpp:77] Creating layer drop3
I0522 00:05:02.554200 18599 net.cpp:106] Creating Layer drop3
I0522 00:05:02.554210 18599 net.cpp:454] drop3 <- ip3
I0522 00:05:02.554224 18599 net.cpp:397] drop3 -> ip3 (in-place)
I0522 00:05:02.554265 18599 net.cpp:150] Setting up drop3
I0522 00:05:02.554276 18599 net.cpp:157] Top shape: 20 11 (220)
I0522 00:05:02.554286 18599 net.cpp:165] Memory required for data: 31575760
I0522 00:05:02.554296 18599 layer_factory.hpp:77] Creating layer ip3_drop3_0_split
I0522 00:05:02.554308 18599 net.cpp:106] Creating Layer ip3_drop3_0_split
I0522 00:05:02.554318 18599 net.cpp:454] ip3_drop3_0_split <- ip3
I0522 00:05:02.554332 18599 net.cpp:411] ip3_drop3_0_split -> ip3_drop3_0_split_0
I0522 00:05:02.554347 18599 net.cpp:411] ip3_drop3_0_split -> ip3_drop3_0_split_1
I0522 00:05:02.554420 18599 net.cpp:150] Setting up ip3_drop3_0_split
I0522 00:05:02.554433 18599 net.cpp:157] Top shape: 20 11 (220)
I0522 00:05:02.554445 18599 net.cpp:157] Top shape: 20 11 (220)
I0522 00:05:02.554455 18599 net.cpp:165] Memory required for data: 31577520
I0522 00:05:02.554466 18599 layer_factory.hpp:77] Creating layer accuracy
I0522 00:05:02.554486 18599 net.cpp:106] Creating Layer accuracy
I0522 00:05:02.554496 18599 net.cpp:454] accuracy <- ip3_drop3_0_split_0
I0522 00:05:02.554507 18599 net.cpp:454] accuracy <- label_data_hdf5_1_split_0
I0522 00:05:02.554520 18599 net.cpp:411] accuracy -> accuracy
…
