…
I0521 21:41:36.083223  9447 net.cpp:322] The NetState phase (0) differed from the phase (1) specified by a rule in layer data_hdf5
I0521 21:41:36.083284  9447 net.cpp:322] The NetState phase (0) differed from the phase (1) specified by a rule in layer accuracy
I0521 21:41:36.083631  9447 net.cpp:49] Initializing net from parameters: 
name: "caffe_test_127x50_x_unshifted"
state {
  phase: TRAIN
}
layer {
  name: "data_hdf5"
  type: "HDF5Data"
  top: "data"
  top: "label"
  include {
    phase: TRAIN
  }
  hdf5_data_param {
    source: "/lustre/atlas/proj-shared/hep105/caffe_titan/minosmatch_nukecczdefs_127x50_x_unshifted_me1Bmc.trainlist"
    batch_size: 20
  }
}
layer {
  name: "conv1"
  type: "Convolution"
  bottom: "data"
  top: "conv1"
  convolution_param {
    num_output: 12
    pad: 0
    stride: 1
    weight_filler {
      type: "xavier"
    }
    bias_filler {
      type: "constant"
    }
    kernel_h: 8
    kernel_w: 3
  }
}
layer {
  name: "relu1"
  type: "ReLU"
  bottom: "conv1"
  top: "conv1"
}
layer {
  name: "pool1"
  type: "Pooling"
  bottom: "conv1"
  top: "pool1"
  pooling_param {
    pool: MAX
    kernel_h: 2
    kernel_w: 1
    stride_h: 2
    stride_w: 1
  }
}
layer {
  name: "conv2"
  type: "Convolution"
  bottom: "pool1"
  top: "conv2"
  convolution_param {
    num_output: 20
    pad: 0
    stride: 1
    weight_filler {
      type: "xavier"
    }
    bias_filler {
      type: "constant"
    }
    kernel_h: 7
    kernel_w: 3
  }
}
layer {
  name: "relu2"
  type: "ReLU"
  bottom: "conv2"
  top: "conv2"
}
layer {
  name: "pool2"
  type: "Pooling"
  bottom: "conv2"
  top: "pool2"
  pooling_param {
    pool: MAX
    kernel_h: 2
    kernel_w: 1
    stride_h: 2
    stride_w: 1
  }
}
layer {
  name: "conv3"
  type: "Convolution"
  bottom: "pool2"
  top: "conv3"
  convolution_param {
    num_output: 28
    pad: 0
    stride: 1
    weight_filler {
      type: "xavier"
    }
    bias_filler {
      type: "constant"
    }
    kernel_h: 6
    kernel_w: 3
  }
}
layer {
  name: "relu3"
  type: "ReLU"
  bottom: "conv3"
  top: "conv3"
}
layer {
  name: "pool3"
  type: "Pooling"
  bottom: "conv3"
  top: "pool3"
  pooling_param {
    pool: MAX
    kernel_h: 2
    kernel_w: 1
    stride_h: 2
    stride_w: 1
  }
}
layer {
  name: "conv4"
  type: "Convolution"
  bottom: "pool3"
  top: "conv4"
  convolution_param {
    num_output: 36
    pad: 0
    stride: 1
    weight_filler {
      type: "xavier"
    }
    bias_filler {
      type: "constant"
    }
    kernel_h: 6
    kernel_w: 3
  }
}
layer {
  name: "relu4"
  type: "ReLU"
  bottom: "conv4"
  top: "conv4"
}
layer {
  name: "pool4"
  type: "Pooling"
  bottom: "conv4"
  top: "pool4"
  pooling_param {
    pool: MAX
    kernel_h: 2
    kernel_w: 1
    stride_h: 2
    stride_w: 1
  }
}
layer {
  name: "ip1"
  type: "InnerProduct"
  bottom: "pool4"
  top: "ip1"
  inner_product_param {
    num_output: 196
    weight_filler {
      type: "xavier"
    }
    bias_filler {
      type: "constant"
    }
  }
}
layer {
  name: "relu5"
  type: "ReLU"
  bottom: "ip1"
  top: "ip1"
}
layer {
  name: "drop1"
  type: "Dropout"
  bottom: "ip1"
  top: "ip1"
  dropout_param {
    dropout_ratio: 0.5
  }
}
layer {
  name: "ip2"
  type: "InnerProduct"
  bottom: "ip1"
  top: "ip2"
  inner_product_param {
    num_output: 98
    weight_filler {
      type: "xavier"
    }
    bias_filler {
      type: "constant"
    }
  }
}
layer {
  name: "relu6"
  type: "ReLU"
  bottom: "ip2"
  top: "ip2"
}
layer {
  name: "drop2"
  type: "Dropout"
  bottom: "ip2"
  top: "ip2"
  dropout_param {
    dropout_ratio: 0.5
  }
}
layer {
  name: "ip3"
  type: "InnerProduct"
  bottom: "ip2"
  top: "ip3"
  inner_product_param {
    num_output: 11
    weight_filler {
      type: "xavier"
    }
    bias_filler {
      type: "constant"
    }
  }
}
layer {
  name: "drop3"
  type: "Dropout"
  bottom: "ip3"
  top: "ip3"
  dropout_param {
    dropout_ratio: 0.5
  }
}
layer {
  name: "loss"
  type: "SoftmaxWithLoss"
  bottom: "ip3"
  bottom: "label"
  top: "loss"
}
I0521 21:41:36.083823  9447 layer_factory.hpp:77] Creating layer data_hdf5
I0521 21:41:36.083847  9447 net.cpp:106] Creating Layer data_hdf5
I0521 21:41:36.083863  9447 net.cpp:411] data_hdf5 -> data
I0521 21:41:36.083895  9447 net.cpp:411] data_hdf5 -> label
I0521 21:41:36.083927  9447 hdf5_data_layer.cpp:79] Loading list of HDF5 filenames from: /lustre/atlas/proj-shared/hep105/caffe_titan/minosmatch_nukecczdefs_127x50_x_unshifted_me1Bmc.trainlist
I0521 21:41:36.085235  9447 hdf5_data_layer.cpp:93] Number of HDF5 files: 15
I0521 21:41:36.087519  9447 hdf5.cpp:32] Datatype class: H5T_FLOAT
I0521 21:41:57.629477  9447 hdf5.cpp:35] Datatype class: H5T_INTEGER
I0521 21:41:57.634647  9447 net.cpp:150] Setting up data_hdf5
I0521 21:41:57.634688  9447 net.cpp:157] Top shape: 20 1 127 50 (127000)
I0521 21:41:57.634704  9447 net.cpp:157] Top shape: 20 (20)
I0521 21:41:57.634714  9447 net.cpp:165] Memory required for data: 508080
I0521 21:41:57.634728  9447 layer_factory.hpp:77] Creating layer conv1
I0521 21:41:57.634763  9447 net.cpp:106] Creating Layer conv1
I0521 21:41:57.634774  9447 net.cpp:454] conv1 <- data
I0521 21:41:57.634798  9447 net.cpp:411] conv1 -> conv1
I0521 21:41:59.352615  9447 net.cpp:150] Setting up conv1
I0521 21:41:59.352663  9447 net.cpp:157] Top shape: 20 12 120 48 (1382400)
I0521 21:41:59.352674  9447 net.cpp:165] Memory required for data: 6037680
I0521 21:41:59.352705  9447 layer_factory.hpp:77] Creating layer relu1
I0521 21:41:59.352725  9447 net.cpp:106] Creating Layer relu1
I0521 21:41:59.352736  9447 net.cpp:454] relu1 <- conv1
I0521 21:41:59.352749  9447 net.cpp:397] relu1 -> conv1 (in-place)
I0521 21:41:59.353266  9447 net.cpp:150] Setting up relu1
I0521 21:41:59.353283  9447 net.cpp:157] Top shape: 20 12 120 48 (1382400)
I0521 21:41:59.353294  9447 net.cpp:165] Memory required for data: 11567280
I0521 21:41:59.353303  9447 layer_factory.hpp:77] Creating layer pool1
I0521 21:41:59.353320  9447 net.cpp:106] Creating Layer pool1
I0521 21:41:59.353330  9447 net.cpp:454] pool1 <- conv1
I0521 21:41:59.353343  9447 net.cpp:411] pool1 -> pool1
I0521 21:41:59.353425  9447 net.cpp:150] Setting up pool1
I0521 21:41:59.353438  9447 net.cpp:157] Top shape: 20 12 60 48 (691200)
I0521 21:41:59.353448  9447 net.cpp:165] Memory required for data: 14332080
I0521 21:41:59.353456  9447 layer_factory.hpp:77] Creating layer conv2
I0521 21:41:59.353478  9447 net.cpp:106] Creating Layer conv2
I0521 21:41:59.353489  9447 net.cpp:454] conv2 <- pool1
I0521 21:41:59.353502  9447 net.cpp:411] conv2 -> conv2
I0521 21:41:59.356199  9447 net.cpp:150] Setting up conv2
I0521 21:41:59.356222  9447 net.cpp:157] Top shape: 20 20 54 46 (993600)
I0521 21:41:59.356237  9447 net.cpp:165] Memory required for data: 18306480
I0521 21:41:59.356257  9447 layer_factory.hpp:77] Creating layer relu2
I0521 21:41:59.356271  9447 net.cpp:106] Creating Layer relu2
I0521 21:41:59.356281  9447 net.cpp:454] relu2 <- conv2
I0521 21:41:59.356294  9447 net.cpp:397] relu2 -> conv2 (in-place)
I0521 21:41:59.356627  9447 net.cpp:150] Setting up relu2
I0521 21:41:59.356642  9447 net.cpp:157] Top shape: 20 20 54 46 (993600)
I0521 21:41:59.356652  9447 net.cpp:165] Memory required for data: 22280880
I0521 21:41:59.356662  9447 layer_factory.hpp:77] Creating layer pool2
I0521 21:41:59.356674  9447 net.cpp:106] Creating Layer pool2
I0521 21:41:59.356684  9447 net.cpp:454] pool2 <- conv2
I0521 21:41:59.356696  9447 net.cpp:411] pool2 -> pool2
I0521 21:41:59.356780  9447 net.cpp:150] Setting up pool2
I0521 21:41:59.356792  9447 net.cpp:157] Top shape: 20 20 27 46 (496800)
I0521 21:41:59.356802  9447 net.cpp:165] Memory required for data: 24268080
I0521 21:41:59.356812  9447 layer_factory.hpp:77] Creating layer conv3
I0521 21:41:59.356828  9447 net.cpp:106] Creating Layer conv3
I0521 21:41:59.356839  9447 net.cpp:454] conv3 <- pool2
I0521 21:41:59.356853  9447 net.cpp:411] conv3 -> conv3
I0521 21:41:59.358796  9447 net.cpp:150] Setting up conv3
I0521 21:41:59.358819  9447 net.cpp:157] Top shape: 20 28 22 44 (542080)
I0521 21:41:59.358832  9447 net.cpp:165] Memory required for data: 26436400
I0521 21:41:59.358850  9447 layer_factory.hpp:77] Creating layer relu3
I0521 21:41:59.358866  9447 net.cpp:106] Creating Layer relu3
I0521 21:41:59.358876  9447 net.cpp:454] relu3 <- conv3
I0521 21:41:59.358888  9447 net.cpp:397] relu3 -> conv3 (in-place)
I0521 21:41:59.359359  9447 net.cpp:150] Setting up relu3
I0521 21:41:59.359376  9447 net.cpp:157] Top shape: 20 28 22 44 (542080)
I0521 21:41:59.359386  9447 net.cpp:165] Memory required for data: 28604720
I0521 21:41:59.359396  9447 layer_factory.hpp:77] Creating layer pool3
I0521 21:41:59.359410  9447 net.cpp:106] Creating Layer pool3
I0521 21:41:59.359419  9447 net.cpp:454] pool3 <- conv3
I0521 21:41:59.359431  9447 net.cpp:411] pool3 -> pool3
I0521 21:41:59.359498  9447 net.cpp:150] Setting up pool3
I0521 21:41:59.359513  9447 net.cpp:157] Top shape: 20 28 11 44 (271040)
I0521 21:41:59.359522  9447 net.cpp:165] Memory required for data: 29688880
I0521 21:41:59.359531  9447 layer_factory.hpp:77] Creating layer conv4
I0521 21:41:59.359546  9447 net.cpp:106] Creating Layer conv4
I0521 21:41:59.359557  9447 net.cpp:454] conv4 <- pool3
I0521 21:41:59.359571  9447 net.cpp:411] conv4 -> conv4
I0521 21:41:59.362292  9447 net.cpp:150] Setting up conv4
I0521 21:41:59.362319  9447 net.cpp:157] Top shape: 20 36 6 42 (181440)
I0521 21:41:59.362329  9447 net.cpp:165] Memory required for data: 30414640
I0521 21:41:59.362345  9447 layer_factory.hpp:77] Creating layer relu4
I0521 21:41:59.362360  9447 net.cpp:106] Creating Layer relu4
I0521 21:41:59.362370  9447 net.cpp:454] relu4 <- conv4
I0521 21:41:59.362382  9447 net.cpp:397] relu4 -> conv4 (in-place)
I0521 21:41:59.362854  9447 net.cpp:150] Setting up relu4
I0521 21:41:59.362870  9447 net.cpp:157] Top shape: 20 36 6 42 (181440)
I0521 21:41:59.362881  9447 net.cpp:165] Memory required for data: 31140400
I0521 21:41:59.362891  9447 layer_factory.hpp:77] Creating layer pool4
I0521 21:41:59.362905  9447 net.cpp:106] Creating Layer pool4
I0521 21:41:59.362915  9447 net.cpp:454] pool4 <- conv4
I0521 21:41:59.362927  9447 net.cpp:411] pool4 -> pool4
I0521 21:41:59.362995  9447 net.cpp:150] Setting up pool4
I0521 21:41:59.363008  9447 net.cpp:157] Top shape: 20 36 3 42 (90720)
I0521 21:41:59.363019  9447 net.cpp:165] Memory required for data: 31503280
I0521 21:41:59.363029  9447 layer_factory.hpp:77] Creating layer ip1
I0521 21:41:59.363049  9447 net.cpp:106] Creating Layer ip1
I0521 21:41:59.363059  9447 net.cpp:454] ip1 <- pool4
I0521 21:41:59.363072  9447 net.cpp:411] ip1 -> ip1
I0521 21:41:59.378506  9447 net.cpp:150] Setting up ip1
I0521 21:41:59.378535  9447 net.cpp:157] Top shape: 20 196 (3920)
I0521 21:41:59.378550  9447 net.cpp:165] Memory required for data: 31518960
I0521 21:41:59.378571  9447 layer_factory.hpp:77] Creating layer relu5
I0521 21:41:59.378587  9447 net.cpp:106] Creating Layer relu5
I0521 21:41:59.378597  9447 net.cpp:454] relu5 <- ip1
I0521 21:41:59.378609  9447 net.cpp:397] relu5 -> ip1 (in-place)
I0521 21:41:59.378953  9447 net.cpp:150] Setting up relu5
I0521 21:41:59.378968  9447 net.cpp:157] Top shape: 20 196 (3920)
I0521 21:41:59.378978  9447 net.cpp:165] Memory required for data: 31534640
I0521 21:41:59.378988  9447 layer_factory.hpp:77] Creating layer drop1
I0521 21:41:59.379009  9447 net.cpp:106] Creating Layer drop1
I0521 21:41:59.379019  9447 net.cpp:454] drop1 <- ip1
I0521 21:41:59.379032  9447 net.cpp:397] drop1 -> ip1 (in-place)
I0521 21:41:59.379091  9447 net.cpp:150] Setting up drop1
I0521 21:41:59.379106  9447 net.cpp:157] Top shape: 20 196 (3920)
I0521 21:41:59.379115  9447 net.cpp:165] Memory required for data: 31550320
I0521 21:41:59.379125  9447 layer_factory.hpp:77] Creating layer ip2
I0521 21:41:59.379144  9447 net.cpp:106] Creating Layer ip2
I0521 21:41:59.379154  9447 net.cpp:454] ip2 <- ip1
I0521 21:41:59.379168  9447 net.cpp:411] ip2 -> ip2
I0521 21:41:59.379631  9447 net.cpp:150] Setting up ip2
I0521 21:41:59.379650  9447 net.cpp:157] Top shape: 20 98 (1960)
I0521 21:41:59.379660  9447 net.cpp:165] Memory required for data: 31558160
I0521 21:41:59.379675  9447 layer_factory.hpp:77] Creating layer relu6
I0521 21:41:59.379688  9447 net.cpp:106] Creating Layer relu6
I0521 21:41:59.379698  9447 net.cpp:454] relu6 <- ip2
I0521 21:41:59.379709  9447 net.cpp:397] relu6 -> ip2 (in-place)
I0521 21:41:59.380233  9447 net.cpp:150] Setting up relu6
I0521 21:41:59.380249  9447 net.cpp:157] Top shape: 20 98 (1960)
I0521 21:41:59.380259  9447 net.cpp:165] Memory required for data: 31566000
I0521 21:41:59.380269  9447 layer_factory.hpp:77] Creating layer drop2
I0521 21:41:59.380282  9447 net.cpp:106] Creating Layer drop2
I0521 21:41:59.380292  9447 net.cpp:454] drop2 <- ip2
I0521 21:41:59.380306  9447 net.cpp:397] drop2 -> ip2 (in-place)
I0521 21:41:59.380347  9447 net.cpp:150] Setting up drop2
I0521 21:41:59.380360  9447 net.cpp:157] Top shape: 20 98 (1960)
I0521 21:41:59.380372  9447 net.cpp:165] Memory required for data: 31573840
I0521 21:41:59.380381  9447 layer_factory.hpp:77] Creating layer ip3
I0521 21:41:59.380394  9447 net.cpp:106] Creating Layer ip3
I0521 21:41:59.380403  9447 net.cpp:454] ip3 <- ip2
I0521 21:41:59.380416  9447 net.cpp:411] ip3 -> ip3
I0521 21:41:59.380627  9447 net.cpp:150] Setting up ip3
I0521 21:41:59.380640  9447 net.cpp:157] Top shape: 20 11 (220)
I0521 21:41:59.380650  9447 net.cpp:165] Memory required for data: 31574720
I0521 21:41:59.380666  9447 layer_factory.hpp:77] Creating layer drop3
I0521 21:41:59.380678  9447 net.cpp:106] Creating Layer drop3
I0521 21:41:59.380687  9447 net.cpp:454] drop3 <- ip3
I0521 21:41:59.380699  9447 net.cpp:397] drop3 -> ip3 (in-place)
I0521 21:41:59.380738  9447 net.cpp:150] Setting up drop3
I0521 21:41:59.380751  9447 net.cpp:157] Top shape: 20 11 (220)
I0521 21:41:59.380761  9447 net.cpp:165] Memory required for data: 31575600
I0521 21:41:59.380770  9447 layer_factory.hpp:77] Creating layer loss
I0521 21:41:59.380790  9447 net.cpp:106] Creating Layer loss
I0521 21:41:59.380800  9447 net.cpp:454] loss <- ip3
I0521 21:41:59.380810  9447 net.cpp:454] loss <- label
I0521 21:41:59.380822  9447 net.cpp:411] loss -> loss
I0521 21:41:59.380839  9447 layer_factory.hpp:77] Creating layer loss
…
I0521 21:41:59.383438  9447 solver.cpp:181] Creating test net (#0) specified by net file: /lustre/atlas/proj-shared/hep105/caffe_titan/caffe_workflow/logs_bslr/bs_20_lr_0.0010_2016-05-20T15.48.53.588768.prototxt
I0521 21:41:59.383510  9447 net.cpp:322] The NetState phase (1) differed from the phase (0) specified by a rule in layer data_hdf5
I0521 21:41:59.383879  9447 net.cpp:49] Initializing net from parameters: 
name: "caffe_test_127x50_x_unshifted"
state {
  phase: TEST
}
layer {
  name: "data_hdf5"
  type: "HDF5Data"
  top: "data"
  top: "label"
  include {
    phase: TEST
  }
  hdf5_data_param {
    source: "/lustre/atlas/proj-shared/hep105/caffe_titan/minosmatch_nukecczdefs_127x50_x_unshifted_me1Bmc.testlist"
    batch_size: 20
  }
}
layer {
  name: "conv1"
  type: "Convolution"
  bottom: "data"
  top: "conv1"
  convolution_param {
    num_output: 12
    pad: 0
    stride: 1
    weight_filler {
      type: "xavier"
    }
    bias_filler {
      type: "constant"
    }
    kernel_h: 8
    kernel_w: 3
  }
}
layer {
  name: "relu1"
  type: "ReLU"
  bottom: "conv1"
  top: "conv1"
}
layer {
  name: "pool1"
  type: "Pooling"
  bottom: "conv1"
  top: "pool1"
  pooling_param {
    pool: MAX
    kernel_h: 2
    kernel_w: 1
    stride_h: 2
    stride_w: 1
  }
}
layer {
  name: "conv2"
  type: "Convolution"
  bottom: "pool1"
  top: "conv2"
  convolution_param {
    num_output: 20
    pad: 0
    stride: 1
    weight_filler {
      type: "xavier"
    }
    bias_filler {
      type: "constant"
    }
    kernel_h: 7
    kernel_w: 3
  }
}
layer {
  name: "relu2"
  type: "ReLU"
  bottom: "conv2"
  top: "conv2"
}
layer {
  name: "pool2"
  type: "Pooling"
  bottom: "conv2"
  top: "pool2"
  pooling_param {
    pool: MAX
    kernel_h: 2
    kernel_w: 1
    stride_h: 2
    stride_w: 1
  }
}
layer {
  name: "conv3"
  type: "Convolution"
  bottom: "pool2"
  top: "conv3"
  convolution_param {
    num_output: 28
    pad: 0
    stride: 1
    weight_filler {
      type: "xavier"
    }
    bias_filler {
      type: "constant"
    }
    kernel_h: 6
    kernel_w: 3
  }
}
layer {
  name: "relu3"
  type: "ReLU"
  bottom: "conv3"
  top: "conv3"
}
layer {
  name: "pool3"
  type: "Pooling"
  bottom: "conv3"
  top: "pool3"
  pooling_param {
    pool: MAX
    kernel_h: 2
    kernel_w: 1
    stride_h: 2
    stride_w: 1
  }
}
layer {
  name: "conv4"
  type: "Convolution"
  bottom: "pool3"
  top: "conv4"
  convolution_param {
    num_output: 36
    pad: 0
    stride: 1
    weight_filler {
      type: "xavier"
    }
    bias_filler {
      type: "constant"
    }
    kernel_h: 6
    kernel_w: 3
  }
}
layer {
  name: "relu4"
  type: "ReLU"
  bottom: "conv4"
  top: "conv4"
}
layer {
  name: "pool4"
  type: "Pooling"
  bottom: "conv4"
  top: "pool4"
  pooling_param {
    pool: MAX
    kernel_h: 2
    kernel_w: 1
    stride_h: 2
    stride_w: 1
  }
}
layer {
  name: "ip1"
  type: "InnerProduct"
  bottom: "pool4"
  top: "ip1"
  inner_product_param {
    num_output: 196
    weight_filler {
      type: "xavier"
    }
    bias_filler {
      type: "constant"
    }
  }
}
layer {
  name: "relu5"
  type: "ReLU"
  bottom: "ip1"
  top: "ip1"
}
layer {
  name: "drop1"
  type: "Dropout"
  bottom: "ip1"
  top: "ip1"
  dropout_param {
    dropout_ratio: 0.5
  }
}
layer {
  name: "ip2"
  type: "InnerProduct"
  bottom: "ip1"
  top: "ip2"
  inner_product_param {
    num_output: 98
    weight_filler {
      type: "xavier"
    }
    bias_filler {
      type: "constant"
    }
  }
}
layer {
  name: "relu6"
  type: "ReLU"
  bottom: "ip2"
  top: "ip2"
}
layer {
  name: "drop2"
  type: "Dropout"
  bottom: "ip2"
  top: "ip2"
  dropout_param {
    dropout_ratio: 0.5
  }
}
layer {
  name: "ip3"
  type: "InnerProduct"
  bottom: "ip2"
  top: "ip3"
  inner_product_param {
    num_output: 11
    weight_filler {
      type: "xavier"
    }
    bias_filler {
      type: "constant"
    }
  }
}
layer {
  name: "drop3"
  type: "Dropout"
  bottom: "ip3"
  top: "ip3"
  dropout_param {
    dropout_ratio: 0.5
  }
}
layer {
  name: "accuracy"
  type: "Accuracy"
  bottom: "ip3"
  bottom: "label"
  top: "accuracy"
  include {
    phase: TEST
  }
}
layer {
  name: "loss"
  type: "SoftmaxWithLoss"
  bottom: "ip3"
  bottom: "label"
  top: "loss"
}
I0521 21:41:59.384068  9447 layer_factory.hpp:77] Creating layer data_hdf5
I0521 21:41:59.384084  9447 net.cpp:106] Creating Layer data_hdf5
I0521 21:41:59.384096  9447 net.cpp:411] data_hdf5 -> data
I0521 21:41:59.384112  9447 net.cpp:411] data_hdf5 -> label
I0521 21:41:59.384129  9447 hdf5_data_layer.cpp:79] Loading list of HDF5 filenames from: /lustre/atlas/proj-shared/hep105/caffe_titan/minosmatch_nukecczdefs_127x50_x_unshifted_me1Bmc.testlist
I0521 21:41:59.392097  9447 hdf5_data_layer.cpp:93] Number of HDF5 files: 3
I0521 21:42:20.716778  9447 net.cpp:150] Setting up data_hdf5
I0521 21:42:20.716944  9447 net.cpp:157] Top shape: 20 1 127 50 (127000)
I0521 21:42:20.716959  9447 net.cpp:157] Top shape: 20 (20)
I0521 21:42:20.716969  9447 net.cpp:165] Memory required for data: 508080
I0521 21:42:20.716984  9447 layer_factory.hpp:77] Creating layer label_data_hdf5_1_split
I0521 21:42:20.717012  9447 net.cpp:106] Creating Layer label_data_hdf5_1_split
I0521 21:42:20.717023  9447 net.cpp:454] label_data_hdf5_1_split <- label
I0521 21:42:20.717038  9447 net.cpp:411] label_data_hdf5_1_split -> label_data_hdf5_1_split_0
I0521 21:42:20.717059  9447 net.cpp:411] label_data_hdf5_1_split -> label_data_hdf5_1_split_1
I0521 21:42:20.717133  9447 net.cpp:150] Setting up label_data_hdf5_1_split
I0521 21:42:20.717146  9447 net.cpp:157] Top shape: 20 (20)
I0521 21:42:20.717159  9447 net.cpp:157] Top shape: 20 (20)
I0521 21:42:20.717167  9447 net.cpp:165] Memory required for data: 508240
I0521 21:42:20.717177  9447 layer_factory.hpp:77] Creating layer conv1
I0521 21:42:20.717200  9447 net.cpp:106] Creating Layer conv1
I0521 21:42:20.717209  9447 net.cpp:454] conv1 <- data
I0521 21:42:20.717224  9447 net.cpp:411] conv1 -> conv1
I0521 21:42:20.719169  9447 net.cpp:150] Setting up conv1
I0521 21:42:20.719193  9447 net.cpp:157] Top shape: 20 12 120 48 (1382400)
I0521 21:42:20.719205  9447 net.cpp:165] Memory required for data: 6037840
I0521 21:42:20.719226  9447 layer_factory.hpp:77] Creating layer relu1
I0521 21:42:20.719241  9447 net.cpp:106] Creating Layer relu1
I0521 21:42:20.719251  9447 net.cpp:454] relu1 <- conv1
I0521 21:42:20.719264  9447 net.cpp:397] relu1 -> conv1 (in-place)
I0521 21:42:20.719768  9447 net.cpp:150] Setting up relu1
I0521 21:42:20.719784  9447 net.cpp:157] Top shape: 20 12 120 48 (1382400)
I0521 21:42:20.719794  9447 net.cpp:165] Memory required for data: 11567440
I0521 21:42:20.719805  9447 layer_factory.hpp:77] Creating layer pool1
I0521 21:42:20.719821  9447 net.cpp:106] Creating Layer pool1
I0521 21:42:20.719831  9447 net.cpp:454] pool1 <- conv1
I0521 21:42:20.719844  9447 net.cpp:411] pool1 -> pool1
I0521 21:42:20.719919  9447 net.cpp:150] Setting up pool1
I0521 21:42:20.719933  9447 net.cpp:157] Top shape: 20 12 60 48 (691200)
I0521 21:42:20.719943  9447 net.cpp:165] Memory required for data: 14332240
I0521 21:42:20.719950  9447 layer_factory.hpp:77] Creating layer conv2
I0521 21:42:20.719969  9447 net.cpp:106] Creating Layer conv2
I0521 21:42:20.719979  9447 net.cpp:454] conv2 <- pool1
I0521 21:42:20.719992  9447 net.cpp:411] conv2 -> conv2
I0521 21:42:20.721909  9447 net.cpp:150] Setting up conv2
I0521 21:42:20.721925  9447 net.cpp:157] Top shape: 20 20 54 46 (993600)
I0521 21:42:20.721936  9447 net.cpp:165] Memory required for data: 18306640
I0521 21:42:20.721954  9447 layer_factory.hpp:77] Creating layer relu2
I0521 21:42:20.721968  9447 net.cpp:106] Creating Layer relu2
I0521 21:42:20.721977  9447 net.cpp:454] relu2 <- conv2
I0521 21:42:20.721990  9447 net.cpp:397] relu2 -> conv2 (in-place)
I0521 21:42:20.722321  9447 net.cpp:150] Setting up relu2
I0521 21:42:20.722335  9447 net.cpp:157] Top shape: 20 20 54 46 (993600)
I0521 21:42:20.722345  9447 net.cpp:165] Memory required for data: 22281040
I0521 21:42:20.722357  9447 layer_factory.hpp:77] Creating layer pool2
I0521 21:42:20.722368  9447 net.cpp:106] Creating Layer pool2
I0521 21:42:20.722378  9447 net.cpp:454] pool2 <- conv2
I0521 21:42:20.722391  9447 net.cpp:411] pool2 -> pool2
I0521 21:42:20.722462  9447 net.cpp:150] Setting up pool2
I0521 21:42:20.722476  9447 net.cpp:157] Top shape: 20 20 27 46 (496800)
I0521 21:42:20.722486  9447 net.cpp:165] Memory required for data: 24268240
I0521 21:42:20.722496  9447 layer_factory.hpp:77] Creating layer conv3
I0521 21:42:20.722514  9447 net.cpp:106] Creating Layer conv3
I0521 21:42:20.722525  9447 net.cpp:454] conv3 <- pool2
I0521 21:42:20.722539  9447 net.cpp:411] conv3 -> conv3
I0521 21:42:20.724517  9447 net.cpp:150] Setting up conv3
I0521 21:42:20.724540  9447 net.cpp:157] Top shape: 20 28 22 44 (542080)
I0521 21:42:20.724551  9447 net.cpp:165] Memory required for data: 26436560
I0521 21:42:20.724570  9447 layer_factory.hpp:77] Creating layer relu3
I0521 21:42:20.724596  9447 net.cpp:106] Creating Layer relu3
I0521 21:42:20.724606  9447 net.cpp:454] relu3 <- conv3
I0521 21:42:20.724619  9447 net.cpp:397] relu3 -> conv3 (in-place)
I0521 21:42:20.725090  9447 net.cpp:150] Setting up relu3
I0521 21:42:20.725106  9447 net.cpp:157] Top shape: 20 28 22 44 (542080)
I0521 21:42:20.725116  9447 net.cpp:165] Memory required for data: 28604880
I0521 21:42:20.725126  9447 layer_factory.hpp:77] Creating layer pool3
I0521 21:42:20.725138  9447 net.cpp:106] Creating Layer pool3
I0521 21:42:20.725154  9447 net.cpp:454] pool3 <- conv3
I0521 21:42:20.725167  9447 net.cpp:411] pool3 -> pool3
I0521 21:42:20.725239  9447 net.cpp:150] Setting up pool3
I0521 21:42:20.725253  9447 net.cpp:157] Top shape: 20 28 11 44 (271040)
I0521 21:42:20.725262  9447 net.cpp:165] Memory required for data: 29689040
I0521 21:42:20.725272  9447 layer_factory.hpp:77] Creating layer conv4
I0521 21:42:20.725291  9447 net.cpp:106] Creating Layer conv4
I0521 21:42:20.725301  9447 net.cpp:454] conv4 <- pool3
I0521 21:42:20.725314  9447 net.cpp:411] conv4 -> conv4
I0521 21:42:20.727375  9447 net.cpp:150] Setting up conv4
I0521 21:42:20.727397  9447 net.cpp:157] Top shape: 20 36 6 42 (181440)
I0521 21:42:20.727409  9447 net.cpp:165] Memory required for data: 30414800
I0521 21:42:20.727426  9447 layer_factory.hpp:77] Creating layer relu4
I0521 21:42:20.727438  9447 net.cpp:106] Creating Layer relu4
I0521 21:42:20.727448  9447 net.cpp:454] relu4 <- conv4
I0521 21:42:20.727461  9447 net.cpp:397] relu4 -> conv4 (in-place)
I0521 21:42:20.727939  9447 net.cpp:150] Setting up relu4
I0521 21:42:20.727955  9447 net.cpp:157] Top shape: 20 36 6 42 (181440)
I0521 21:42:20.727965  9447 net.cpp:165] Memory required for data: 31140560
I0521 21:42:20.727975  9447 layer_factory.hpp:77] Creating layer pool4
I0521 21:42:20.727988  9447 net.cpp:106] Creating Layer pool4
I0521 21:42:20.727998  9447 net.cpp:454] pool4 <- conv4
I0521 21:42:20.728011  9447 net.cpp:411] pool4 -> pool4
I0521 21:42:20.728082  9447 net.cpp:150] Setting up pool4
I0521 21:42:20.728096  9447 net.cpp:157] Top shape: 20 36 3 42 (90720)
I0521 21:42:20.728106  9447 net.cpp:165] Memory required for data: 31503440
I0521 21:42:20.728116  9447 layer_factory.hpp:77] Creating layer ip1
I0521 21:42:20.728129  9447 net.cpp:106] Creating Layer ip1
I0521 21:42:20.728139  9447 net.cpp:454] ip1 <- pool4
I0521 21:42:20.728153  9447 net.cpp:411] ip1 -> ip1
I0521 21:42:20.743574  9447 net.cpp:150] Setting up ip1
I0521 21:42:20.743603  9447 net.cpp:157] Top shape: 20 196 (3920)
I0521 21:42:20.743615  9447 net.cpp:165] Memory required for data: 31519120
I0521 21:42:20.743638  9447 layer_factory.hpp:77] Creating layer relu5
I0521 21:42:20.743657  9447 net.cpp:106] Creating Layer relu5
I0521 21:42:20.743669  9447 net.cpp:454] relu5 <- ip1
I0521 21:42:20.743681  9447 net.cpp:397] relu5 -> ip1 (in-place)
I0521 21:42:20.744029  9447 net.cpp:150] Setting up relu5
I0521 21:42:20.744042  9447 net.cpp:157] Top shape: 20 196 (3920)
I0521 21:42:20.744052  9447 net.cpp:165] Memory required for data: 31534800
I0521 21:42:20.744062  9447 layer_factory.hpp:77] Creating layer drop1
I0521 21:42:20.744081  9447 net.cpp:106] Creating Layer drop1
I0521 21:42:20.744091  9447 net.cpp:454] drop1 <- ip1
I0521 21:42:20.744104  9447 net.cpp:397] drop1 -> ip1 (in-place)
I0521 21:42:20.744149  9447 net.cpp:150] Setting up drop1
I0521 21:42:20.744163  9447 net.cpp:157] Top shape: 20 196 (3920)
I0521 21:42:20.744171  9447 net.cpp:165] Memory required for data: 31550480
I0521 21:42:20.744182  9447 layer_factory.hpp:77] Creating layer ip2
I0521 21:42:20.744197  9447 net.cpp:106] Creating Layer ip2
I0521 21:42:20.744207  9447 net.cpp:454] ip2 <- ip1
I0521 21:42:20.744220  9447 net.cpp:411] ip2 -> ip2
I0521 21:42:20.744700  9447 net.cpp:150] Setting up ip2
I0521 21:42:20.744714  9447 net.cpp:157] Top shape: 20 98 (1960)
I0521 21:42:20.744724  9447 net.cpp:165] Memory required for data: 31558320
I0521 21:42:20.744738  9447 layer_factory.hpp:77] Creating layer relu6
I0521 21:42:20.744765  9447 net.cpp:106] Creating Layer relu6
I0521 21:42:20.744773  9447 net.cpp:454] relu6 <- ip2
I0521 21:42:20.744787  9447 net.cpp:397] relu6 -> ip2 (in-place)
I0521 21:42:20.745316  9447 net.cpp:150] Setting up relu6
I0521 21:42:20.745332  9447 net.cpp:157] Top shape: 20 98 (1960)
I0521 21:42:20.745342  9447 net.cpp:165] Memory required for data: 31566160
I0521 21:42:20.745352  9447 layer_factory.hpp:77] Creating layer drop2
I0521 21:42:20.745365  9447 net.cpp:106] Creating Layer drop2
I0521 21:42:20.745375  9447 net.cpp:454] drop2 <- ip2
I0521 21:42:20.745388  9447 net.cpp:397] drop2 -> ip2 (in-place)
I0521 21:42:20.745432  9447 net.cpp:150] Setting up drop2
I0521 21:42:20.745445  9447 net.cpp:157] Top shape: 20 98 (1960)
I0521 21:42:20.745455  9447 net.cpp:165] Memory required for data: 31574000
I0521 21:42:20.745465  9447 layer_factory.hpp:77] Creating layer ip3
I0521 21:42:20.745478  9447 net.cpp:106] Creating Layer ip3
I0521 21:42:20.745488  9447 net.cpp:454] ip3 <- ip2
I0521 21:42:20.745502  9447 net.cpp:411] ip3 -> ip3
I0521 21:42:20.745725  9447 net.cpp:150] Setting up ip3
I0521 21:42:20.745738  9447 net.cpp:157] Top shape: 20 11 (220)
I0521 21:42:20.745748  9447 net.cpp:165] Memory required for data: 31574880
I0521 21:42:20.745764  9447 layer_factory.hpp:77] Creating layer drop3
I0521 21:42:20.745776  9447 net.cpp:106] Creating Layer drop3
I0521 21:42:20.745786  9447 net.cpp:454] drop3 <- ip3
I0521 21:42:20.745800  9447 net.cpp:397] drop3 -> ip3 (in-place)
I0521 21:42:20.745841  9447 net.cpp:150] Setting up drop3
I0521 21:42:20.745852  9447 net.cpp:157] Top shape: 20 11 (220)
I0521 21:42:20.745862  9447 net.cpp:165] Memory required for data: 31575760
I0521 21:42:20.745872  9447 layer_factory.hpp:77] Creating layer ip3_drop3_0_split
I0521 21:42:20.745885  9447 net.cpp:106] Creating Layer ip3_drop3_0_split
I0521 21:42:20.745894  9447 net.cpp:454] ip3_drop3_0_split <- ip3
I0521 21:42:20.745908  9447 net.cpp:411] ip3_drop3_0_split -> ip3_drop3_0_split_0
I0521 21:42:20.745923  9447 net.cpp:411] ip3_drop3_0_split -> ip3_drop3_0_split_1
I0521 21:42:20.745996  9447 net.cpp:150] Setting up ip3_drop3_0_split
I0521 21:42:20.746009  9447 net.cpp:157] Top shape: 20 11 (220)
I0521 21:42:20.746022  9447 net.cpp:157] Top shape: 20 11 (220)
I0521 21:42:20.746032  9447 net.cpp:165] Memory required for data: 31577520
I0521 21:42:20.746042  9447 layer_factory.hpp:77] Creating layer accuracy
I0521 21:42:20.746064  9447 net.cpp:106] Creating Layer accuracy
I0521 21:42:20.746075  9447 net.cpp:454] accuracy <- ip3_drop3_0_split_0
I0521 21:42:20.746086  9447 net.cpp:454] accuracy <- label_data_hdf5_1_split_0
I0521 21:42:20.746099  9447 net.cpp:411] accuracy -> accuracy
…
