…
I0526 13:06:23.737282 15070 net.cpp:322] The NetState phase (0) differed from the phase (1) specified by a rule in layer data_hdf5
I0526 13:06:23.737339 15070 net.cpp:322] The NetState phase (0) differed from the phase (1) specified by a rule in layer accuracy
I0526 13:06:23.737685 15070 net.cpp:49] Initializing net from parameters: 
name: "caffe_test_127x50_x_unshifted"
state {
  phase: TRAIN
}
layer {
  name: "data_hdf5"
  type: "HDF5Data"
  top: "data"
  top: "label"
  include {
    phase: TRAIN
  }
  hdf5_data_param {
    source: "/lustre/atlas/proj-shared/hep105/caffe_titan/minosmatch_nukecczdefs_127x50_x_unshifted_me1Bmc.trainlist"
    batch_size: 20
  }
}
layer {
  name: "conv1"
  type: "Convolution"
  bottom: "data"
  top: "conv1"
  convolution_param {
    num_output: 12
    pad: 0
    stride: 1
    weight_filler {
      type: "xavier"
    }
    bias_filler {
      type: "constant"
    }
    kernel_h: 8
    kernel_w: 3
  }
}
layer {
  name: "relu1"
  type: "ReLU"
  bottom: "conv1"
  top: "conv1"
}
layer {
  name: "pool1"
  type: "Pooling"
  bottom: "conv1"
  top: "pool1"
  pooling_param {
    pool: MAX
    kernel_h: 2
    kernel_w: 1
    stride_h: 2
    stride_w: 1
  }
}
layer {
  name: "conv2"
  type: "Convolution"
  bottom: "pool1"
  top: "conv2"
  convolution_param {
    num_output: 20
    pad: 0
    stride: 1
    weight_filler {
      type: "xavier"
    }
    bias_filler {
      type: "constant"
    }
    kernel_h: 7
    kernel_w: 3
  }
}
layer {
  name: "relu2"
  type: "ReLU"
  bottom: "conv2"
  top: "conv2"
}
layer {
  name: "pool2"
  type: "Pooling"
  bottom: "conv2"
  top: "pool2"
  pooling_param {
    pool: MAX
    kernel_h: 2
    kernel_w: 1
    stride_h: 2
    stride_w: 1
  }
}
layer {
  name: "conv3"
  type: "Convolution"
  bottom: "pool2"
  top: "conv3"
  convolution_param {
    num_output: 28
    pad: 0
    stride: 1
    weight_filler {
      type: "xavier"
    }
    bias_filler {
      type: "constant"
    }
    kernel_h: 6
    kernel_w: 3
  }
}
layer {
  name: "relu3"
  type: "ReLU"
  bottom: "conv3"
  top: "conv3"
}
layer {
  name: "pool3"
  type: "Pooling"
  bottom: "conv3"
  top: "pool3"
  pooling_param {
    pool: MAX
    kernel_h: 2
    kernel_w: 1
    stride_h: 2
    stride_w: 1
  }
}
layer {
  name: "conv4"
  type: "Convolution"
  bottom: "pool3"
  top: "conv4"
  convolution_param {
    num_output: 36
    pad: 0
    stride: 1
    weight_filler {
      type: "xavier"
    }
    bias_filler {
      type: "constant"
    }
    kernel_h: 6
    kernel_w: 3
  }
}
layer {
  name: "relu4"
  type: "ReLU"
  bottom: "conv4"
  top: "conv4"
}
layer {
  name: "pool4"
  type: "Pooling"
  bottom: "conv4"
  top: "pool4"
  pooling_param {
    pool: MAX
    kernel_h: 2
    kernel_w: 1
    stride_h: 2
    stride_w: 1
  }
}
layer {
  name: "ip1"
  type: "InnerProduct"
  bottom: "pool4"
  top: "ip1"
  inner_product_param {
    num_output: 196
    weight_filler {
      type: "xavier"
    }
    bias_filler {
      type: "constant"
    }
  }
}
layer {
  name: "relu5"
  type: "ReLU"
  bottom: "ip1"
  top: "ip1"
}
layer {
  name: "drop1"
  type: "Dropout"
  bottom: "ip1"
  top: "ip1"
  dropout_param {
    dropout_ratio: 0.5
  }
}
layer {
  name: "ip2"
  type: "InnerProduct"
  bottom: "ip1"
  top: "ip2"
  inner_product_param {
    num_output: 98
    weight_filler {
      type: "xavier"
    }
    bias_filler {
      type: "constant"
    }
  }
}
layer {
  name: "relu6"
  type: "ReLU"
  bottom: "ip2"
  top: "ip2"
}
layer {
  name: "drop2"
  type: "Dropout"
  bottom: "ip2"
  top: "ip2"
  dropout_param {
    dropout_ratio: 0.5
  }
}
layer {
  name: "ip3"
  type: "InnerProduct"
  bottom: "ip2"
  top: "ip3"
  inner_product_param {
    num_output: 11
    weight_filler {
      type: "xavier"
    }
    bias_filler {
      type: "constant"
    }
  }
}
layer {
  name: "drop3"
  type: "Dropout"
  bottom: "ip3"
  top: "ip3"
  dropout_param {
    dropout_ratio: 0.5
  }
}
layer {
  name: "loss"
  type: "SoftmaxWithLoss"
  bottom: "ip3"
  bottom: "label"
  top: "loss"
}
I0526 13:06:23.737864 15070 layer_factory.hpp:77] Creating layer data_hdf5
I0526 13:06:23.737889 15070 net.cpp:106] Creating Layer data_hdf5
I0526 13:06:23.737902 15070 net.cpp:411] data_hdf5 -> data
I0526 13:06:23.737937 15070 net.cpp:411] data_hdf5 -> label
I0526 13:06:23.737969 15070 hdf5_data_layer.cpp:79] Loading list of HDF5 filenames from: /lustre/atlas/proj-shared/hep105/caffe_titan/minosmatch_nukecczdefs_127x50_x_unshifted_me1Bmc.trainlist
I0526 13:06:23.748072 15070 hdf5_data_layer.cpp:93] Number of HDF5 files: 15
I0526 13:06:23.763068 15070 hdf5.cpp:32] Datatype class: H5T_FLOAT
I0526 13:06:45.352092 15070 hdf5.cpp:35] Datatype class: H5T_INTEGER
I0526 13:06:45.357244 15070 net.cpp:150] Setting up data_hdf5
I0526 13:06:45.357285 15070 net.cpp:157] Top shape: 20 1 127 50 (127000)
I0526 13:06:45.357300 15070 net.cpp:157] Top shape: 20 (20)
I0526 13:06:45.357312 15070 net.cpp:165] Memory required for data: 508080
I0526 13:06:45.357326 15070 layer_factory.hpp:77] Creating layer conv1
I0526 13:06:45.357359 15070 net.cpp:106] Creating Layer conv1
I0526 13:06:45.357370 15070 net.cpp:454] conv1 <- data
I0526 13:06:45.357391 15070 net.cpp:411] conv1 -> conv1
I0526 13:06:48.818717 15070 net.cpp:150] Setting up conv1
I0526 13:06:48.818764 15070 net.cpp:157] Top shape: 20 12 120 48 (1382400)
I0526 13:06:48.818775 15070 net.cpp:165] Memory required for data: 6037680
I0526 13:06:48.818804 15070 layer_factory.hpp:77] Creating layer relu1
I0526 13:06:48.818826 15070 net.cpp:106] Creating Layer relu1
I0526 13:06:48.818836 15070 net.cpp:454] relu1 <- conv1
I0526 13:06:48.818851 15070 net.cpp:397] relu1 -> conv1 (in-place)
I0526 13:06:48.819375 15070 net.cpp:150] Setting up relu1
I0526 13:06:48.819391 15070 net.cpp:157] Top shape: 20 12 120 48 (1382400)
I0526 13:06:48.819401 15070 net.cpp:165] Memory required for data: 11567280
I0526 13:06:48.819411 15070 layer_factory.hpp:77] Creating layer pool1
I0526 13:06:48.819429 15070 net.cpp:106] Creating Layer pool1
I0526 13:06:48.819439 15070 net.cpp:454] pool1 <- conv1
I0526 13:06:48.819453 15070 net.cpp:411] pool1 -> pool1
I0526 13:06:48.819533 15070 net.cpp:150] Setting up pool1
I0526 13:06:48.819547 15070 net.cpp:157] Top shape: 20 12 60 48 (691200)
I0526 13:06:48.819557 15070 net.cpp:165] Memory required for data: 14332080
I0526 13:06:48.819568 15070 layer_factory.hpp:77] Creating layer conv2
I0526 13:06:48.819591 15070 net.cpp:106] Creating Layer conv2
I0526 13:06:48.819602 15070 net.cpp:454] conv2 <- pool1
I0526 13:06:48.819614 15070 net.cpp:411] conv2 -> conv2
I0526 13:06:48.822322 15070 net.cpp:150] Setting up conv2
I0526 13:06:48.822350 15070 net.cpp:157] Top shape: 20 20 54 46 (993600)
I0526 13:06:48.822363 15070 net.cpp:165] Memory required for data: 18306480
I0526 13:06:48.822382 15070 layer_factory.hpp:77] Creating layer relu2
I0526 13:06:48.822397 15070 net.cpp:106] Creating Layer relu2
I0526 13:06:48.822407 15070 net.cpp:454] relu2 <- conv2
I0526 13:06:48.822420 15070 net.cpp:397] relu2 -> conv2 (in-place)
I0526 13:06:48.822762 15070 net.cpp:150] Setting up relu2
I0526 13:06:48.822777 15070 net.cpp:157] Top shape: 20 20 54 46 (993600)
I0526 13:06:48.822787 15070 net.cpp:165] Memory required for data: 22280880
I0526 13:06:48.822798 15070 layer_factory.hpp:77] Creating layer pool2
I0526 13:06:48.822809 15070 net.cpp:106] Creating Layer pool2
I0526 13:06:48.822819 15070 net.cpp:454] pool2 <- conv2
I0526 13:06:48.822832 15070 net.cpp:411] pool2 -> pool2
I0526 13:06:48.822913 15070 net.cpp:150] Setting up pool2
I0526 13:06:48.822927 15070 net.cpp:157] Top shape: 20 20 27 46 (496800)
I0526 13:06:48.822937 15070 net.cpp:165] Memory required for data: 24268080
I0526 13:06:48.822945 15070 layer_factory.hpp:77] Creating layer conv3
I0526 13:06:48.822964 15070 net.cpp:106] Creating Layer conv3
I0526 13:06:48.822974 15070 net.cpp:454] conv3 <- pool2
I0526 13:06:48.822988 15070 net.cpp:411] conv3 -> conv3
I0526 13:06:48.824929 15070 net.cpp:150] Setting up conv3
I0526 13:06:48.824949 15070 net.cpp:157] Top shape: 20 28 22 44 (542080)
I0526 13:06:48.824959 15070 net.cpp:165] Memory required for data: 26436400
I0526 13:06:48.824978 15070 layer_factory.hpp:77] Creating layer relu3
I0526 13:06:48.824995 15070 net.cpp:106] Creating Layer relu3
I0526 13:06:48.825004 15070 net.cpp:454] relu3 <- conv3
I0526 13:06:48.825018 15070 net.cpp:397] relu3 -> conv3 (in-place)
I0526 13:06:48.825489 15070 net.cpp:150] Setting up relu3
I0526 13:06:48.825505 15070 net.cpp:157] Top shape: 20 28 22 44 (542080)
I0526 13:06:48.825515 15070 net.cpp:165] Memory required for data: 28604720
I0526 13:06:48.825526 15070 layer_factory.hpp:77] Creating layer pool3
I0526 13:06:48.825539 15070 net.cpp:106] Creating Layer pool3
I0526 13:06:48.825549 15070 net.cpp:454] pool3 <- conv3
I0526 13:06:48.825562 15070 net.cpp:411] pool3 -> pool3
I0526 13:06:48.825630 15070 net.cpp:150] Setting up pool3
I0526 13:06:48.825644 15070 net.cpp:157] Top shape: 20 28 11 44 (271040)
I0526 13:06:48.825654 15070 net.cpp:165] Memory required for data: 29688880
I0526 13:06:48.825664 15070 layer_factory.hpp:77] Creating layer conv4
I0526 13:06:48.825680 15070 net.cpp:106] Creating Layer conv4
I0526 13:06:48.825690 15070 net.cpp:454] conv4 <- pool3
I0526 13:06:48.825705 15070 net.cpp:411] conv4 -> conv4
I0526 13:06:48.828425 15070 net.cpp:150] Setting up conv4
I0526 13:06:48.828454 15070 net.cpp:157] Top shape: 20 36 6 42 (181440)
I0526 13:06:48.828464 15070 net.cpp:165] Memory required for data: 30414640
I0526 13:06:48.828481 15070 layer_factory.hpp:77] Creating layer relu4
I0526 13:06:48.828495 15070 net.cpp:106] Creating Layer relu4
I0526 13:06:48.828506 15070 net.cpp:454] relu4 <- conv4
I0526 13:06:48.828521 15070 net.cpp:397] relu4 -> conv4 (in-place)
I0526 13:06:48.828984 15070 net.cpp:150] Setting up relu4
I0526 13:06:48.829000 15070 net.cpp:157] Top shape: 20 36 6 42 (181440)
I0526 13:06:48.829011 15070 net.cpp:165] Memory required for data: 31140400
I0526 13:06:48.829021 15070 layer_factory.hpp:77] Creating layer pool4
I0526 13:06:48.829035 15070 net.cpp:106] Creating Layer pool4
I0526 13:06:48.829044 15070 net.cpp:454] pool4 <- conv4
I0526 13:06:48.829058 15070 net.cpp:411] pool4 -> pool4
I0526 13:06:48.829126 15070 net.cpp:150] Setting up pool4
I0526 13:06:48.829139 15070 net.cpp:157] Top shape: 20 36 3 42 (90720)
I0526 13:06:48.829150 15070 net.cpp:165] Memory required for data: 31503280
I0526 13:06:48.829160 15070 layer_factory.hpp:77] Creating layer ip1
I0526 13:06:48.829182 15070 net.cpp:106] Creating Layer ip1
I0526 13:06:48.829193 15070 net.cpp:454] ip1 <- pool4
I0526 13:06:48.829206 15070 net.cpp:411] ip1 -> ip1
I0526 13:06:48.844631 15070 net.cpp:150] Setting up ip1
I0526 13:06:48.844656 15070 net.cpp:157] Top shape: 20 196 (3920)
I0526 13:06:48.844668 15070 net.cpp:165] Memory required for data: 31518960
I0526 13:06:48.844692 15070 layer_factory.hpp:77] Creating layer relu5
I0526 13:06:48.844707 15070 net.cpp:106] Creating Layer relu5
I0526 13:06:48.844717 15070 net.cpp:454] relu5 <- ip1
I0526 13:06:48.844732 15070 net.cpp:397] relu5 -> ip1 (in-place)
I0526 13:06:48.845072 15070 net.cpp:150] Setting up relu5
I0526 13:06:48.845087 15070 net.cpp:157] Top shape: 20 196 (3920)
I0526 13:06:48.845098 15070 net.cpp:165] Memory required for data: 31534640
I0526 13:06:48.845108 15070 layer_factory.hpp:77] Creating layer drop1
I0526 13:06:48.845130 15070 net.cpp:106] Creating Layer drop1
I0526 13:06:48.845140 15070 net.cpp:454] drop1 <- ip1
I0526 13:06:48.845152 15070 net.cpp:397] drop1 -> ip1 (in-place)
I0526 13:06:48.845212 15070 net.cpp:150] Setting up drop1
I0526 13:06:48.845226 15070 net.cpp:157] Top shape: 20 196 (3920)
I0526 13:06:48.845235 15070 net.cpp:165] Memory required for data: 31550320
I0526 13:06:48.845245 15070 layer_factory.hpp:77] Creating layer ip2
I0526 13:06:48.845263 15070 net.cpp:106] Creating Layer ip2
I0526 13:06:48.845273 15070 net.cpp:454] ip2 <- ip1
I0526 13:06:48.845288 15070 net.cpp:411] ip2 -> ip2
I0526 13:06:48.845749 15070 net.cpp:150] Setting up ip2
I0526 13:06:48.845762 15070 net.cpp:157] Top shape: 20 98 (1960)
I0526 13:06:48.845772 15070 net.cpp:165] Memory required for data: 31558160
I0526 13:06:48.845788 15070 layer_factory.hpp:77] Creating layer relu6
I0526 13:06:48.845800 15070 net.cpp:106] Creating Layer relu6
I0526 13:06:48.845809 15070 net.cpp:454] relu6 <- ip2
I0526 13:06:48.845821 15070 net.cpp:397] relu6 -> ip2 (in-place)
I0526 13:06:48.846338 15070 net.cpp:150] Setting up relu6
I0526 13:06:48.846354 15070 net.cpp:157] Top shape: 20 98 (1960)
I0526 13:06:48.846364 15070 net.cpp:165] Memory required for data: 31566000
I0526 13:06:48.846374 15070 layer_factory.hpp:77] Creating layer drop2
I0526 13:06:48.846387 15070 net.cpp:106] Creating Layer drop2
I0526 13:06:48.846397 15070 net.cpp:454] drop2 <- ip2
I0526 13:06:48.846410 15070 net.cpp:397] drop2 -> ip2 (in-place)
I0526 13:06:48.846452 15070 net.cpp:150] Setting up drop2
I0526 13:06:48.846465 15070 net.cpp:157] Top shape: 20 98 (1960)
I0526 13:06:48.846477 15070 net.cpp:165] Memory required for data: 31573840
I0526 13:06:48.846487 15070 layer_factory.hpp:77] Creating layer ip3
I0526 13:06:48.846500 15070 net.cpp:106] Creating Layer ip3
I0526 13:06:48.846509 15070 net.cpp:454] ip3 <- ip2
I0526 13:06:48.846523 15070 net.cpp:411] ip3 -> ip3
I0526 13:06:48.846742 15070 net.cpp:150] Setting up ip3
I0526 13:06:48.846755 15070 net.cpp:157] Top shape: 20 11 (220)
I0526 13:06:48.846765 15070 net.cpp:165] Memory required for data: 31574720
I0526 13:06:48.846781 15070 layer_factory.hpp:77] Creating layer drop3
I0526 13:06:48.846792 15070 net.cpp:106] Creating Layer drop3
I0526 13:06:48.846802 15070 net.cpp:454] drop3 <- ip3
I0526 13:06:48.846815 15070 net.cpp:397] drop3 -> ip3 (in-place)
I0526 13:06:48.846855 15070 net.cpp:150] Setting up drop3
I0526 13:06:48.846868 15070 net.cpp:157] Top shape: 20 11 (220)
I0526 13:06:48.846878 15070 net.cpp:165] Memory required for data: 31575600
I0526 13:06:48.846887 15070 layer_factory.hpp:77] Creating layer loss
I0526 13:06:48.846906 15070 net.cpp:106] Creating Layer loss
I0526 13:06:48.846916 15070 net.cpp:454] loss <- ip3
I0526 13:06:48.846927 15070 net.cpp:454] loss <- label
I0526 13:06:48.846940 15070 net.cpp:411] loss -> loss
I0526 13:06:48.846957 15070 layer_factory.hpp:77] Creating layer loss
…
I0526 13:06:48.849537 15070 solver.cpp:181] Creating test net (#0) specified by net file: /lustre/atlas/proj-shared/hep105/caffe_titan/caffe_workflow/logs_bslr/bs_20_lr_0.0010_2016-05-20T15.48.53.588768.prototxt
I0526 13:06:48.849608 15070 net.cpp:322] The NetState phase (1) differed from the phase (0) specified by a rule in layer data_hdf5
I0526 13:06:48.849966 15070 net.cpp:49] Initializing net from parameters: 
name: "caffe_test_127x50_x_unshifted"
state {
  phase: TEST
}
layer {
  name: "data_hdf5"
  type: "HDF5Data"
  top: "data"
  top: "label"
  include {
    phase: TEST
  }
  hdf5_data_param {
    source: "/lustre/atlas/proj-shared/hep105/caffe_titan/minosmatch_nukecczdefs_127x50_x_unshifted_me1Bmc.testlist"
    batch_size: 20
  }
}
layer {
  name: "conv1"
  type: "Convolution"
  bottom: "data"
  top: "conv1"
  convolution_param {
    num_output: 12
    pad: 0
    stride: 1
    weight_filler {
      type: "xavier"
    }
    bias_filler {
      type: "constant"
    }
    kernel_h: 8
    kernel_w: 3
  }
}
layer {
  name: "relu1"
  type: "ReLU"
  bottom: "conv1"
  top: "conv1"
}
layer {
  name: "pool1"
  type: "Pooling"
  bottom: "conv1"
  top: "pool1"
  pooling_param {
    pool: MAX
    kernel_h: 2
    kernel_w: 1
    stride_h: 2
    stride_w: 1
  }
}
layer {
  name: "conv2"
  type: "Convolution"
  bottom: "pool1"
  top: "conv2"
  convolution_param {
    num_output: 20
    pad: 0
    stride: 1
    weight_filler {
      type: "xavier"
    }
    bias_filler {
      type: "constant"
    }
    kernel_h: 7
    kernel_w: 3
  }
}
layer {
  name: "relu2"
  type: "ReLU"
  bottom: "conv2"
  top: "conv2"
}
layer {
  name: "pool2"
  type: "Pooling"
  bottom: "conv2"
  top: "pool2"
  pooling_param {
    pool: MAX
    kernel_h: 2
    kernel_w: 1
    stride_h: 2
    stride_w: 1
  }
}
layer {
  name: "conv3"
  type: "Convolution"
  bottom: "pool2"
  top: "conv3"
  convolution_param {
    num_output: 28
    pad: 0
    stride: 1
    weight_filler {
      type: "xavier"
    }
    bias_filler {
      type: "constant"
    }
    kernel_h: 6
    kernel_w: 3
  }
}
layer {
  name: "relu3"
  type: "ReLU"
  bottom: "conv3"
  top: "conv3"
}
layer {
  name: "pool3"
  type: "Pooling"
  bottom: "conv3"
  top: "pool3"
  pooling_param {
    pool: MAX
    kernel_h: 2
    kernel_w: 1
    stride_h: 2
    stride_w: 1
  }
}
layer {
  name: "conv4"
  type: "Convolution"
  bottom: "pool3"
  top: "conv4"
  convolution_param {
    num_output: 36
    pad: 0
    stride: 1
    weight_filler {
      type: "xavier"
    }
    bias_filler {
      type: "constant"
    }
    kernel_h: 6
    kernel_w: 3
  }
}
layer {
  name: "relu4"
  type: "ReLU"
  bottom: "conv4"
  top: "conv4"
}
layer {
  name: "pool4"
  type: "Pooling"
  bottom: "conv4"
  top: "pool4"
  pooling_param {
    pool: MAX
    kernel_h: 2
    kernel_w: 1
    stride_h: 2
    stride_w: 1
  }
}
layer {
  name: "ip1"
  type: "InnerProduct"
  bottom: "pool4"
  top: "ip1"
  inner_product_param {
    num_output: 196
    weight_filler {
      type: "xavier"
    }
    bias_filler {
      type: "constant"
    }
  }
}
layer {
  name: "relu5"
  type: "ReLU"
  bottom: "ip1"
  top: "ip1"
}
layer {
  name: "drop1"
  type: "Dropout"
  bottom: "ip1"
  top: "ip1"
  dropout_param {
    dropout_ratio: 0.5
  }
}
layer {
  name: "ip2"
  type: "InnerProduct"
  bottom: "ip1"
  top: "ip2"
  inner_product_param {
    num_output: 98
    weight_filler {
      type: "xavier"
    }
    bias_filler {
      type: "constant"
    }
  }
}
layer {
  name: "relu6"
  type: "ReLU"
  bottom: "ip2"
  top: "ip2"
}
layer {
  name: "drop2"
  type: "Dropout"
  bottom: "ip2"
  top: "ip2"
  dropout_param {
    dropout_ratio: 0.5
  }
}
layer {
  name: "ip3"
  type: "InnerProduct"
  bottom: "ip2"
  top: "ip3"
  inner_product_param {
    num_output: 11
    weight_filler {
      type: "xavier"
    }
    bias_filler {
      type: "constant"
    }
  }
}
layer {
  name: "drop3"
  type: "Dropout"
  bottom: "ip3"
  top: "ip3"
  dropout_param {
    dropout_ratio: 0.5
  }
}
layer {
  name: "accuracy"
  type: "Accuracy"
  bottom: "ip3"
  bottom: "label"
  top: "accuracy"
  include {
    phase: TEST
  }
}
layer {
  name: "loss"
  type: "SoftmaxWithLoss"
  bottom: "ip3"
  bottom: "label"
  top: "loss"
}
I0526 13:06:48.850152 15070 layer_factory.hpp:77] Creating layer data_hdf5
I0526 13:06:48.850167 15070 net.cpp:106] Creating Layer data_hdf5
I0526 13:06:48.850179 15070 net.cpp:411] data_hdf5 -> data
I0526 13:06:48.850196 15070 net.cpp:411] data_hdf5 -> label
I0526 13:06:48.850213 15070 hdf5_data_layer.cpp:79] Loading list of HDF5 filenames from: /lustre/atlas/proj-shared/hep105/caffe_titan/minosmatch_nukecczdefs_127x50_x_unshifted_me1Bmc.testlist
I0526 13:06:48.861027 15070 hdf5_data_layer.cpp:93] Number of HDF5 files: 3
I0526 13:07:10.275212 15070 net.cpp:150] Setting up data_hdf5
I0526 13:07:10.275374 15070 net.cpp:157] Top shape: 20 1 127 50 (127000)
I0526 13:07:10.275388 15070 net.cpp:157] Top shape: 20 (20)
I0526 13:07:10.275400 15070 net.cpp:165] Memory required for data: 508080
I0526 13:07:10.275415 15070 layer_factory.hpp:77] Creating layer label_data_hdf5_1_split
I0526 13:07:10.275444 15070 net.cpp:106] Creating Layer label_data_hdf5_1_split
I0526 13:07:10.275454 15070 net.cpp:454] label_data_hdf5_1_split <- label
I0526 13:07:10.275470 15070 net.cpp:411] label_data_hdf5_1_split -> label_data_hdf5_1_split_0
I0526 13:07:10.275490 15070 net.cpp:411] label_data_hdf5_1_split -> label_data_hdf5_1_split_1
I0526 13:07:10.275564 15070 net.cpp:150] Setting up label_data_hdf5_1_split
I0526 13:07:10.275578 15070 net.cpp:157] Top shape: 20 (20)
I0526 13:07:10.275590 15070 net.cpp:157] Top shape: 20 (20)
I0526 13:07:10.275600 15070 net.cpp:165] Memory required for data: 508240
I0526 13:07:10.275610 15070 layer_factory.hpp:77] Creating layer conv1
I0526 13:07:10.275629 15070 net.cpp:106] Creating Layer conv1
I0526 13:07:10.275640 15070 net.cpp:454] conv1 <- data
I0526 13:07:10.275655 15070 net.cpp:411] conv1 -> conv1
I0526 13:07:10.277607 15070 net.cpp:150] Setting up conv1
I0526 13:07:10.277631 15070 net.cpp:157] Top shape: 20 12 120 48 (1382400)
I0526 13:07:10.277643 15070 net.cpp:165] Memory required for data: 6037840
I0526 13:07:10.277664 15070 layer_factory.hpp:77] Creating layer relu1
I0526 13:07:10.277679 15070 net.cpp:106] Creating Layer relu1
I0526 13:07:10.277689 15070 net.cpp:454] relu1 <- conv1
I0526 13:07:10.277701 15070 net.cpp:397] relu1 -> conv1 (in-place)
I0526 13:07:10.278198 15070 net.cpp:150] Setting up relu1
I0526 13:07:10.278213 15070 net.cpp:157] Top shape: 20 12 120 48 (1382400)
I0526 13:07:10.278223 15070 net.cpp:165] Memory required for data: 11567440
I0526 13:07:10.278234 15070 layer_factory.hpp:77] Creating layer pool1
I0526 13:07:10.278249 15070 net.cpp:106] Creating Layer pool1
I0526 13:07:10.278259 15070 net.cpp:454] pool1 <- conv1
I0526 13:07:10.278273 15070 net.cpp:411] pool1 -> pool1
I0526 13:07:10.278347 15070 net.cpp:150] Setting up pool1
I0526 13:07:10.278360 15070 net.cpp:157] Top shape: 20 12 60 48 (691200)
I0526 13:07:10.278370 15070 net.cpp:165] Memory required for data: 14332240
I0526 13:07:10.278381 15070 layer_factory.hpp:77] Creating layer conv2
I0526 13:07:10.278399 15070 net.cpp:106] Creating Layer conv2
I0526 13:07:10.278409 15070 net.cpp:454] conv2 <- pool1
I0526 13:07:10.278424 15070 net.cpp:411] conv2 -> conv2
I0526 13:07:10.280350 15070 net.cpp:150] Setting up conv2
I0526 13:07:10.280374 15070 net.cpp:157] Top shape: 20 20 54 46 (993600)
I0526 13:07:10.280383 15070 net.cpp:165] Memory required for data: 18306640
I0526 13:07:10.280402 15070 layer_factory.hpp:77] Creating layer relu2
I0526 13:07:10.280416 15070 net.cpp:106] Creating Layer relu2
I0526 13:07:10.280426 15070 net.cpp:454] relu2 <- conv2
I0526 13:07:10.280438 15070 net.cpp:397] relu2 -> conv2 (in-place)
I0526 13:07:10.280771 15070 net.cpp:150] Setting up relu2
I0526 13:07:10.280786 15070 net.cpp:157] Top shape: 20 20 54 46 (993600)
I0526 13:07:10.280797 15070 net.cpp:165] Memory required for data: 22281040
I0526 13:07:10.280807 15070 layer_factory.hpp:77] Creating layer pool2
I0526 13:07:10.280820 15070 net.cpp:106] Creating Layer pool2
I0526 13:07:10.280830 15070 net.cpp:454] pool2 <- conv2
I0526 13:07:10.280843 15070 net.cpp:411] pool2 -> pool2
I0526 13:07:10.280915 15070 net.cpp:150] Setting up pool2
I0526 13:07:10.280928 15070 net.cpp:157] Top shape: 20 20 27 46 (496800)
I0526 13:07:10.280938 15070 net.cpp:165] Memory required for data: 24268240
I0526 13:07:10.280946 15070 layer_factory.hpp:77] Creating layer conv3
I0526 13:07:10.280966 15070 net.cpp:106] Creating Layer conv3
I0526 13:07:10.280977 15070 net.cpp:454] conv3 <- pool2
I0526 13:07:10.280989 15070 net.cpp:411] conv3 -> conv3
I0526 13:07:10.282965 15070 net.cpp:150] Setting up conv3
I0526 13:07:10.282989 15070 net.cpp:157] Top shape: 20 28 22 44 (542080)
I0526 13:07:10.283000 15070 net.cpp:165] Memory required for data: 26436560
I0526 13:07:10.283020 15070 layer_factory.hpp:77] Creating layer relu3
I0526 13:07:10.283046 15070 net.cpp:106] Creating Layer relu3
I0526 13:07:10.283056 15070 net.cpp:454] relu3 <- conv3
I0526 13:07:10.283071 15070 net.cpp:397] relu3 -> conv3 (in-place)
I0526 13:07:10.283546 15070 net.cpp:150] Setting up relu3
I0526 13:07:10.283562 15070 net.cpp:157] Top shape: 20 28 22 44 (542080)
I0526 13:07:10.283572 15070 net.cpp:165] Memory required for data: 28604880
I0526 13:07:10.283582 15070 layer_factory.hpp:77] Creating layer pool3
I0526 13:07:10.283596 15070 net.cpp:106] Creating Layer pool3
I0526 13:07:10.283606 15070 net.cpp:454] pool3 <- conv3
I0526 13:07:10.283618 15070 net.cpp:411] pool3 -> pool3
I0526 13:07:10.283690 15070 net.cpp:150] Setting up pool3
I0526 13:07:10.283704 15070 net.cpp:157] Top shape: 20 28 11 44 (271040)
I0526 13:07:10.283713 15070 net.cpp:165] Memory required for data: 29689040
I0526 13:07:10.283723 15070 layer_factory.hpp:77] Creating layer conv4
I0526 13:07:10.283740 15070 net.cpp:106] Creating Layer conv4
I0526 13:07:10.283751 15070 net.cpp:454] conv4 <- pool3
I0526 13:07:10.283766 15070 net.cpp:411] conv4 -> conv4
I0526 13:07:10.285820 15070 net.cpp:150] Setting up conv4
I0526 13:07:10.285841 15070 net.cpp:157] Top shape: 20 36 6 42 (181440)
I0526 13:07:10.285853 15070 net.cpp:165] Memory required for data: 30414800
I0526 13:07:10.285869 15070 layer_factory.hpp:77] Creating layer relu4
I0526 13:07:10.285882 15070 net.cpp:106] Creating Layer relu4
I0526 13:07:10.285893 15070 net.cpp:454] relu4 <- conv4
I0526 13:07:10.285907 15070 net.cpp:397] relu4 -> conv4 (in-place)
I0526 13:07:10.286376 15070 net.cpp:150] Setting up relu4
I0526 13:07:10.286392 15070 net.cpp:157] Top shape: 20 36 6 42 (181440)
I0526 13:07:10.286402 15070 net.cpp:165] Memory required for data: 31140560
I0526 13:07:10.286412 15070 layer_factory.hpp:77] Creating layer pool4
I0526 13:07:10.286427 15070 net.cpp:106] Creating Layer pool4
I0526 13:07:10.286437 15070 net.cpp:454] pool4 <- conv4
I0526 13:07:10.286449 15070 net.cpp:411] pool4 -> pool4
I0526 13:07:10.286521 15070 net.cpp:150] Setting up pool4
I0526 13:07:10.286535 15070 net.cpp:157] Top shape: 20 36 3 42 (90720)
I0526 13:07:10.286545 15070 net.cpp:165] Memory required for data: 31503440
I0526 13:07:10.286553 15070 layer_factory.hpp:77] Creating layer ip1
I0526 13:07:10.286569 15070 net.cpp:106] Creating Layer ip1
I0526 13:07:10.286579 15070 net.cpp:454] ip1 <- pool4
I0526 13:07:10.286594 15070 net.cpp:411] ip1 -> ip1
I0526 13:07:10.302116 15070 net.cpp:150] Setting up ip1
I0526 13:07:10.302145 15070 net.cpp:157] Top shape: 20 196 (3920)
I0526 13:07:10.302161 15070 net.cpp:165] Memory required for data: 31519120
I0526 13:07:10.302189 15070 layer_factory.hpp:77] Creating layer relu5
I0526 13:07:10.302204 15070 net.cpp:106] Creating Layer relu5
I0526 13:07:10.302215 15070 net.cpp:454] relu5 <- ip1
I0526 13:07:10.302229 15070 net.cpp:397] relu5 -> ip1 (in-place)
I0526 13:07:10.302577 15070 net.cpp:150] Setting up relu5
I0526 13:07:10.302592 15070 net.cpp:157] Top shape: 20 196 (3920)
I0526 13:07:10.302602 15070 net.cpp:165] Memory required for data: 31534800
I0526 13:07:10.302611 15070 layer_factory.hpp:77] Creating layer drop1
I0526 13:07:10.302631 15070 net.cpp:106] Creating Layer drop1
I0526 13:07:10.302641 15070 net.cpp:454] drop1 <- ip1
I0526 13:07:10.302654 15070 net.cpp:397] drop1 -> ip1 (in-place)
I0526 13:07:10.302700 15070 net.cpp:150] Setting up drop1
I0526 13:07:10.302719 15070 net.cpp:157] Top shape: 20 196 (3920)
I0526 13:07:10.302731 15070 net.cpp:165] Memory required for data: 31550480
I0526 13:07:10.302741 15070 layer_factory.hpp:77] Creating layer ip2
I0526 13:07:10.302754 15070 net.cpp:106] Creating Layer ip2
I0526 13:07:10.302764 15070 net.cpp:454] ip2 <- ip1
I0526 13:07:10.302778 15070 net.cpp:411] ip2 -> ip2
I0526 13:07:10.303261 15070 net.cpp:150] Setting up ip2
I0526 13:07:10.303274 15070 net.cpp:157] Top shape: 20 98 (1960)
I0526 13:07:10.303284 15070 net.cpp:165] Memory required for data: 31558320
I0526 13:07:10.303300 15070 layer_factory.hpp:77] Creating layer relu6
I0526 13:07:10.303325 15070 net.cpp:106] Creating Layer relu6
I0526 13:07:10.303336 15070 net.cpp:454] relu6 <- ip2
I0526 13:07:10.303349 15070 net.cpp:397] relu6 -> ip2 (in-place)
I0526 13:07:10.303887 15070 net.cpp:150] Setting up relu6
I0526 13:07:10.303910 15070 net.cpp:157] Top shape: 20 98 (1960)
I0526 13:07:10.303920 15070 net.cpp:165] Memory required for data: 31566160
I0526 13:07:10.303930 15070 layer_factory.hpp:77] Creating layer drop2
I0526 13:07:10.303943 15070 net.cpp:106] Creating Layer drop2
I0526 13:07:10.303953 15070 net.cpp:454] drop2 <- ip2
I0526 13:07:10.303966 15070 net.cpp:397] drop2 -> ip2 (in-place)
I0526 13:07:10.304010 15070 net.cpp:150] Setting up drop2
I0526 13:07:10.304023 15070 net.cpp:157] Top shape: 20 98 (1960)
I0526 13:07:10.304034 15070 net.cpp:165] Memory required for data: 31574000
I0526 13:07:10.304044 15070 layer_factory.hpp:77] Creating layer ip3
I0526 13:07:10.304057 15070 net.cpp:106] Creating Layer ip3
I0526 13:07:10.304067 15070 net.cpp:454] ip3 <- ip2
I0526 13:07:10.304081 15070 net.cpp:411] ip3 -> ip3
I0526 13:07:10.304306 15070 net.cpp:150] Setting up ip3
I0526 13:07:10.304321 15070 net.cpp:157] Top shape: 20 11 (220)
I0526 13:07:10.304329 15070 net.cpp:165] Memory required for data: 31574880
I0526 13:07:10.304345 15070 layer_factory.hpp:77] Creating layer drop3
I0526 13:07:10.304358 15070 net.cpp:106] Creating Layer drop3
I0526 13:07:10.304368 15070 net.cpp:454] drop3 <- ip3
I0526 13:07:10.304380 15070 net.cpp:397] drop3 -> ip3 (in-place)
I0526 13:07:10.304421 15070 net.cpp:150] Setting up drop3
I0526 13:07:10.304435 15070 net.cpp:157] Top shape: 20 11 (220)
I0526 13:07:10.304445 15070 net.cpp:165] Memory required for data: 31575760
I0526 13:07:10.304453 15070 layer_factory.hpp:77] Creating layer ip3_drop3_0_split
I0526 13:07:10.304467 15070 net.cpp:106] Creating Layer ip3_drop3_0_split
I0526 13:07:10.304476 15070 net.cpp:454] ip3_drop3_0_split <- ip3
I0526 13:07:10.304491 15070 net.cpp:411] ip3_drop3_0_split -> ip3_drop3_0_split_0
I0526 13:07:10.304505 15070 net.cpp:411] ip3_drop3_0_split -> ip3_drop3_0_split_1
I0526 13:07:10.304579 15070 net.cpp:150] Setting up ip3_drop3_0_split
I0526 13:07:10.304592 15070 net.cpp:157] Top shape: 20 11 (220)
I0526 13:07:10.304605 15070 net.cpp:157] Top shape: 20 11 (220)
I0526 13:07:10.304615 15070 net.cpp:165] Memory required for data: 31577520
I0526 13:07:10.304625 15070 layer_factory.hpp:77] Creating layer accuracy
I0526 13:07:10.304646 15070 net.cpp:106] Creating Layer accuracy
I0526 13:07:10.304656 15070 net.cpp:454] accuracy <- ip3_drop3_0_split_0
I0526 13:07:10.304667 15070 net.cpp:454] accuracy <- label_data_hdf5_1_split_0
I0526 13:07:10.304682 15070 net.cpp:411] accuracy -> accuracy
…
