…
I0522 04:05:31.078717 12754 net.cpp:322] The NetState phase (0) differed from the phase (1) specified by a rule in layer data_hdf5
I0522 04:05:31.078778 12754 net.cpp:322] The NetState phase (0) differed from the phase (1) specified by a rule in layer accuracy
I0522 04:05:31.079124 12754 net.cpp:49] Initializing net from parameters: 
name: "caffe_test_127x50_x_unshifted"
state {
  phase: TRAIN
}
layer {
  name: "data_hdf5"
  type: "HDF5Data"
  top: "data"
  top: "label"
  include {
    phase: TRAIN
  }
  hdf5_data_param {
    source: "/lustre/atlas/proj-shared/hep105/caffe_titan/minosmatch_nukecczdefs_127x50_x_unshifted_me1Bmc.trainlist"
    batch_size: 20
  }
}
layer {
  name: "conv1"
  type: "Convolution"
  bottom: "data"
  top: "conv1"
  convolution_param {
    num_output: 12
    pad: 0
    stride: 1
    weight_filler {
      type: "xavier"
    }
    bias_filler {
      type: "constant"
    }
    kernel_h: 8
    kernel_w: 3
  }
}
layer {
  name: "relu1"
  type: "ReLU"
  bottom: "conv1"
  top: "conv1"
}
layer {
  name: "pool1"
  type: "Pooling"
  bottom: "conv1"
  top: "pool1"
  pooling_param {
    pool: MAX
    kernel_h: 2
    kernel_w: 1
    stride_h: 2
    stride_w: 1
  }
}
layer {
  name: "conv2"
  type: "Convolution"
  bottom: "pool1"
  top: "conv2"
  convolution_param {
    num_output: 20
    pad: 0
    stride: 1
    weight_filler {
      type: "xavier"
    }
    bias_filler {
      type: "constant"
    }
    kernel_h: 7
    kernel_w: 3
  }
}
layer {
  name: "relu2"
  type: "ReLU"
  bottom: "conv2"
  top: "conv2"
}
layer {
  name: "pool2"
  type: "Pooling"
  bottom: "conv2"
  top: "pool2"
  pooling_param {
    pool: MAX
    kernel_h: 2
    kernel_w: 1
    stride_h: 2
    stride_w: 1
  }
}
layer {
  name: "conv3"
  type: "Convolution"
  bottom: "pool2"
  top: "conv3"
  convolution_param {
    num_output: 28
    pad: 0
    stride: 1
    weight_filler {
      type: "xavier"
    }
    bias_filler {
      type: "constant"
    }
    kernel_h: 6
    kernel_w: 3
  }
}
layer {
  name: "relu3"
  type: "ReLU"
  bottom: "conv3"
  top: "conv3"
}
layer {
  name: "pool3"
  type: "Pooling"
  bottom: "conv3"
  top: "pool3"
  pooling_param {
    pool: MAX
    kernel_h: 2
    kernel_w: 1
    stride_h: 2
    stride_w: 1
  }
}
layer {
  name: "conv4"
  type: "Convolution"
  bottom: "pool3"
  top: "conv4"
  convolution_param {
    num_output: 36
    pad: 0
    stride: 1
    weight_filler {
      type: "xavier"
    }
    bias_filler {
      type: "constant"
    }
    kernel_h: 6
    kernel_w: 3
  }
}
layer {
  name: "relu4"
  type: "ReLU"
  bottom: "conv4"
  top: "conv4"
}
layer {
  name: "pool4"
  type: "Pooling"
  bottom: "conv4"
  top: "pool4"
  pooling_param {
    pool: MAX
    kernel_h: 2
    kernel_w: 1
    stride_h: 2
    stride_w: 1
  }
}
layer {
  name: "ip1"
  type: "InnerProduct"
  bottom: "pool4"
  top: "ip1"
  inner_product_param {
    num_output: 196
    weight_filler {
      type: "xavier"
    }
    bias_filler {
      type: "constant"
    }
  }
}
layer {
  name: "relu5"
  type: "ReLU"
  bottom: "ip1"
  top: "ip1"
}
layer {
  name: "drop1"
  type: "Dropout"
  bottom: "ip1"
  top: "ip1"
  dropout_param {
    dropout_ratio: 0.5
  }
}
layer {
  name: "ip2"
  type: "InnerProduct"
  bottom: "ip1"
  top: "ip2"
  inner_product_param {
    num_output: 98
    weight_filler {
      type: "xavier"
    }
    bias_filler {
      type: "constant"
    }
  }
}
layer {
  name: "relu6"
  type: "ReLU"
  bottom: "ip2"
  top: "ip2"
}
layer {
  name: "drop2"
  type: "Dropout"
  bottom: "ip2"
  top: "ip2"
  dropout_param {
    dropout_ratio: 0.5
  }
}
layer {
  name: "ip3"
  type: "InnerProduct"
  bottom: "ip2"
  top: "ip3"
  inner_product_param {
    num_output: 11
    weight_filler {
      type: "xavier"
    }
    bias_filler {
      type: "constant"
    }
  }
}
layer {
  name: "drop3"
  type: "Dropout"
  bottom: "ip3"
  top: "ip3"
  dropout_param {
    dropout_ratio: 0.5
  }
}
layer {
  name: "loss"
  type: "SoftmaxWithLoss"
  bottom: "ip3"
  bottom: "label"
  top: "loss"
}
I0522 04:05:31.079303 12754 layer_factory.hpp:77] Creating layer data_hdf5
I0522 04:05:31.079327 12754 net.cpp:106] Creating Layer data_hdf5
I0522 04:05:31.079341 12754 net.cpp:411] data_hdf5 -> data
I0522 04:05:31.079375 12754 net.cpp:411] data_hdf5 -> label
I0522 04:05:31.079407 12754 hdf5_data_layer.cpp:79] Loading list of HDF5 filenames from: /lustre/atlas/proj-shared/hep105/caffe_titan/minosmatch_nukecczdefs_127x50_x_unshifted_me1Bmc.trainlist
I0522 04:05:31.080780 12754 hdf5_data_layer.cpp:93] Number of HDF5 files: 15
I0522 04:05:31.083047 12754 hdf5.cpp:32] Datatype class: H5T_FLOAT
I0522 04:05:52.619740 12754 hdf5.cpp:35] Datatype class: H5T_INTEGER
I0522 04:05:52.625007 12754 net.cpp:150] Setting up data_hdf5
I0522 04:05:52.625047 12754 net.cpp:157] Top shape: 20 1 127 50 (127000)
I0522 04:05:52.625062 12754 net.cpp:157] Top shape: 20 (20)
I0522 04:05:52.625075 12754 net.cpp:165] Memory required for data: 508080
I0522 04:05:52.625089 12754 layer_factory.hpp:77] Creating layer conv1
I0522 04:05:52.625124 12754 net.cpp:106] Creating Layer conv1
I0522 04:05:52.625135 12754 net.cpp:454] conv1 <- data
I0522 04:05:52.625159 12754 net.cpp:411] conv1 -> conv1
I0522 04:05:52.991439 12754 net.cpp:150] Setting up conv1
I0522 04:05:52.991487 12754 net.cpp:157] Top shape: 20 12 120 48 (1382400)
I0522 04:05:52.991497 12754 net.cpp:165] Memory required for data: 6037680
I0522 04:05:52.991526 12754 layer_factory.hpp:77] Creating layer relu1
I0522 04:05:52.991549 12754 net.cpp:106] Creating Layer relu1
I0522 04:05:52.991559 12754 net.cpp:454] relu1 <- conv1
I0522 04:05:52.991572 12754 net.cpp:397] relu1 -> conv1 (in-place)
I0522 04:05:52.992089 12754 net.cpp:150] Setting up relu1
I0522 04:05:52.992106 12754 net.cpp:157] Top shape: 20 12 120 48 (1382400)
I0522 04:05:52.992116 12754 net.cpp:165] Memory required for data: 11567280
I0522 04:05:52.992127 12754 layer_factory.hpp:77] Creating layer pool1
I0522 04:05:52.992143 12754 net.cpp:106] Creating Layer pool1
I0522 04:05:52.992153 12754 net.cpp:454] pool1 <- conv1
I0522 04:05:52.992166 12754 net.cpp:411] pool1 -> pool1
I0522 04:05:52.992246 12754 net.cpp:150] Setting up pool1
I0522 04:05:52.992260 12754 net.cpp:157] Top shape: 20 12 60 48 (691200)
I0522 04:05:52.992270 12754 net.cpp:165] Memory required for data: 14332080
I0522 04:05:52.992280 12754 layer_factory.hpp:77] Creating layer conv2
I0522 04:05:52.992302 12754 net.cpp:106] Creating Layer conv2
I0522 04:05:52.992313 12754 net.cpp:454] conv2 <- pool1
I0522 04:05:52.992326 12754 net.cpp:411] conv2 -> conv2
I0522 04:05:52.995041 12754 net.cpp:150] Setting up conv2
I0522 04:05:52.995065 12754 net.cpp:157] Top shape: 20 20 54 46 (993600)
I0522 04:05:52.995076 12754 net.cpp:165] Memory required for data: 18306480
I0522 04:05:52.995095 12754 layer_factory.hpp:77] Creating layer relu2
I0522 04:05:52.995110 12754 net.cpp:106] Creating Layer relu2
I0522 04:05:52.995121 12754 net.cpp:454] relu2 <- conv2
I0522 04:05:52.995133 12754 net.cpp:397] relu2 -> conv2 (in-place)
I0522 04:05:52.995465 12754 net.cpp:150] Setting up relu2
I0522 04:05:52.995479 12754 net.cpp:157] Top shape: 20 20 54 46 (993600)
I0522 04:05:52.995489 12754 net.cpp:165] Memory required for data: 22280880
I0522 04:05:52.995499 12754 layer_factory.hpp:77] Creating layer pool2
I0522 04:05:52.995512 12754 net.cpp:106] Creating Layer pool2
I0522 04:05:52.995522 12754 net.cpp:454] pool2 <- conv2
I0522 04:05:52.995534 12754 net.cpp:411] pool2 -> pool2
I0522 04:05:52.995616 12754 net.cpp:150] Setting up pool2
I0522 04:05:52.995630 12754 net.cpp:157] Top shape: 20 20 27 46 (496800)
I0522 04:05:52.995640 12754 net.cpp:165] Memory required for data: 24268080
I0522 04:05:52.995649 12754 layer_factory.hpp:77] Creating layer conv3
I0522 04:05:52.995669 12754 net.cpp:106] Creating Layer conv3
I0522 04:05:52.995681 12754 net.cpp:454] conv3 <- pool2
I0522 04:05:52.995694 12754 net.cpp:411] conv3 -> conv3
I0522 04:05:52.997651 12754 net.cpp:150] Setting up conv3
I0522 04:05:52.997674 12754 net.cpp:157] Top shape: 20 28 22 44 (542080)
I0522 04:05:52.997687 12754 net.cpp:165] Memory required for data: 26436400
I0522 04:05:52.997706 12754 layer_factory.hpp:77] Creating layer relu3
I0522 04:05:52.997722 12754 net.cpp:106] Creating Layer relu3
I0522 04:05:52.997732 12754 net.cpp:454] relu3 <- conv3
I0522 04:05:52.997745 12754 net.cpp:397] relu3 -> conv3 (in-place)
I0522 04:05:52.998217 12754 net.cpp:150] Setting up relu3
I0522 04:05:52.998234 12754 net.cpp:157] Top shape: 20 28 22 44 (542080)
I0522 04:05:52.998245 12754 net.cpp:165] Memory required for data: 28604720
I0522 04:05:52.998256 12754 layer_factory.hpp:77] Creating layer pool3
I0522 04:05:52.998270 12754 net.cpp:106] Creating Layer pool3
I0522 04:05:52.998280 12754 net.cpp:454] pool3 <- conv3
I0522 04:05:52.998292 12754 net.cpp:411] pool3 -> pool3
I0522 04:05:52.998359 12754 net.cpp:150] Setting up pool3
I0522 04:05:52.998373 12754 net.cpp:157] Top shape: 20 28 11 44 (271040)
I0522 04:05:52.998383 12754 net.cpp:165] Memory required for data: 29688880
I0522 04:05:52.998392 12754 layer_factory.hpp:77] Creating layer conv4
I0522 04:05:52.998412 12754 net.cpp:106] Creating Layer conv4
I0522 04:05:52.998423 12754 net.cpp:454] conv4 <- pool3
I0522 04:05:52.998437 12754 net.cpp:411] conv4 -> conv4
I0522 04:05:53.001157 12754 net.cpp:150] Setting up conv4
I0522 04:05:53.001184 12754 net.cpp:157] Top shape: 20 36 6 42 (181440)
I0522 04:05:53.001196 12754 net.cpp:165] Memory required for data: 30414640
I0522 04:05:53.001212 12754 layer_factory.hpp:77] Creating layer relu4
I0522 04:05:53.001226 12754 net.cpp:106] Creating Layer relu4
I0522 04:05:53.001236 12754 net.cpp:454] relu4 <- conv4
I0522 04:05:53.001250 12754 net.cpp:397] relu4 -> conv4 (in-place)
I0522 04:05:53.001714 12754 net.cpp:150] Setting up relu4
I0522 04:05:53.001730 12754 net.cpp:157] Top shape: 20 36 6 42 (181440)
I0522 04:05:53.001741 12754 net.cpp:165] Memory required for data: 31140400
I0522 04:05:53.001751 12754 layer_factory.hpp:77] Creating layer pool4
I0522 04:05:53.001765 12754 net.cpp:106] Creating Layer pool4
I0522 04:05:53.001775 12754 net.cpp:454] pool4 <- conv4
I0522 04:05:53.001788 12754 net.cpp:411] pool4 -> pool4
I0522 04:05:53.001857 12754 net.cpp:150] Setting up pool4
I0522 04:05:53.001870 12754 net.cpp:157] Top shape: 20 36 3 42 (90720)
I0522 04:05:53.001880 12754 net.cpp:165] Memory required for data: 31503280
I0522 04:05:53.001890 12754 layer_factory.hpp:77] Creating layer ip1
I0522 04:05:53.001909 12754 net.cpp:106] Creating Layer ip1
I0522 04:05:53.001919 12754 net.cpp:454] ip1 <- pool4
I0522 04:05:53.001934 12754 net.cpp:411] ip1 -> ip1
I0522 04:05:53.017331 12754 net.cpp:150] Setting up ip1
I0522 04:05:53.017359 12754 net.cpp:157] Top shape: 20 196 (3920)
I0522 04:05:53.017372 12754 net.cpp:165] Memory required for data: 31518960
I0522 04:05:53.017395 12754 layer_factory.hpp:77] Creating layer relu5
I0522 04:05:53.017410 12754 net.cpp:106] Creating Layer relu5
I0522 04:05:53.017421 12754 net.cpp:454] relu5 <- ip1
I0522 04:05:53.017433 12754 net.cpp:397] relu5 -> ip1 (in-place)
I0522 04:05:53.017774 12754 net.cpp:150] Setting up relu5
I0522 04:05:53.017788 12754 net.cpp:157] Top shape: 20 196 (3920)
I0522 04:05:53.017798 12754 net.cpp:165] Memory required for data: 31534640
I0522 04:05:53.017809 12754 layer_factory.hpp:77] Creating layer drop1
I0522 04:05:53.017830 12754 net.cpp:106] Creating Layer drop1
I0522 04:05:53.017840 12754 net.cpp:454] drop1 <- ip1
I0522 04:05:53.017853 12754 net.cpp:397] drop1 -> ip1 (in-place)
I0522 04:05:53.017911 12754 net.cpp:150] Setting up drop1
I0522 04:05:53.017925 12754 net.cpp:157] Top shape: 20 196 (3920)
I0522 04:05:53.017935 12754 net.cpp:165] Memory required for data: 31550320
I0522 04:05:53.017945 12754 layer_factory.hpp:77] Creating layer ip2
I0522 04:05:53.017963 12754 net.cpp:106] Creating Layer ip2
I0522 04:05:53.017973 12754 net.cpp:454] ip2 <- ip1
I0522 04:05:53.017987 12754 net.cpp:411] ip2 -> ip2
I0522 04:05:53.018447 12754 net.cpp:150] Setting up ip2
I0522 04:05:53.018461 12754 net.cpp:157] Top shape: 20 98 (1960)
I0522 04:05:53.018471 12754 net.cpp:165] Memory required for data: 31558160
I0522 04:05:53.018486 12754 layer_factory.hpp:77] Creating layer relu6
I0522 04:05:53.018498 12754 net.cpp:106] Creating Layer relu6
I0522 04:05:53.018507 12754 net.cpp:454] relu6 <- ip2
I0522 04:05:53.018519 12754 net.cpp:397] relu6 -> ip2 (in-place)
I0522 04:05:53.019040 12754 net.cpp:150] Setting up relu6
I0522 04:05:53.019057 12754 net.cpp:157] Top shape: 20 98 (1960)
I0522 04:05:53.019068 12754 net.cpp:165] Memory required for data: 31566000
I0522 04:05:53.019079 12754 layer_factory.hpp:77] Creating layer drop2
I0522 04:05:53.019093 12754 net.cpp:106] Creating Layer drop2
I0522 04:05:53.019103 12754 net.cpp:454] drop2 <- ip2
I0522 04:05:53.019115 12754 net.cpp:397] drop2 -> ip2 (in-place)
I0522 04:05:53.019157 12754 net.cpp:150] Setting up drop2
I0522 04:05:53.019170 12754 net.cpp:157] Top shape: 20 98 (1960)
I0522 04:05:53.019181 12754 net.cpp:165] Memory required for data: 31573840
I0522 04:05:53.019191 12754 layer_factory.hpp:77] Creating layer ip3
I0522 04:05:53.019204 12754 net.cpp:106] Creating Layer ip3
I0522 04:05:53.019214 12754 net.cpp:454] ip3 <- ip2
I0522 04:05:53.019227 12754 net.cpp:411] ip3 -> ip3
I0522 04:05:53.019438 12754 net.cpp:150] Setting up ip3
I0522 04:05:53.019453 12754 net.cpp:157] Top shape: 20 11 (220)
I0522 04:05:53.019462 12754 net.cpp:165] Memory required for data: 31574720
I0522 04:05:53.019477 12754 layer_factory.hpp:77] Creating layer drop3
I0522 04:05:53.019490 12754 net.cpp:106] Creating Layer drop3
I0522 04:05:53.019500 12754 net.cpp:454] drop3 <- ip3
I0522 04:05:53.019512 12754 net.cpp:397] drop3 -> ip3 (in-place)
I0522 04:05:53.019552 12754 net.cpp:150] Setting up drop3
I0522 04:05:53.019565 12754 net.cpp:157] Top shape: 20 11 (220)
I0522 04:05:53.019575 12754 net.cpp:165] Memory required for data: 31575600
I0522 04:05:53.019585 12754 layer_factory.hpp:77] Creating layer loss
I0522 04:05:53.019605 12754 net.cpp:106] Creating Layer loss
I0522 04:05:53.019615 12754 net.cpp:454] loss <- ip3
I0522 04:05:53.019626 12754 net.cpp:454] loss <- label
I0522 04:05:53.019637 12754 net.cpp:411] loss -> loss
I0522 04:05:53.019654 12754 layer_factory.hpp:77] Creating layer loss
…
I0522 04:05:53.022358 12754 solver.cpp:181] Creating test net (#0) specified by net file: /lustre/atlas/proj-shared/hep105/caffe_titan/caffe_workflow/logs_bslr/bs_20_lr_0.0045_2016-05-20T15.48.56.541375.prototxt
I0522 04:05:53.022430 12754 net.cpp:322] The NetState phase (1) differed from the phase (0) specified by a rule in layer data_hdf5
I0522 04:05:53.022788 12754 net.cpp:49] Initializing net from parameters: 
name: "caffe_test_127x50_x_unshifted"
state {
  phase: TEST
}
layer {
  name: "data_hdf5"
  type: "HDF5Data"
  top: "data"
  top: "label"
  include {
    phase: TEST
  }
  hdf5_data_param {
    source: "/lustre/atlas/proj-shared/hep105/caffe_titan/minosmatch_nukecczdefs_127x50_x_unshifted_me1Bmc.testlist"
    batch_size: 20
  }
}
layer {
  name: "conv1"
  type: "Convolution"
  bottom: "data"
  top: "conv1"
  convolution_param {
    num_output: 12
    pad: 0
    stride: 1
    weight_filler {
      type: "xavier"
    }
    bias_filler {
      type: "constant"
    }
    kernel_h: 8
    kernel_w: 3
  }
}
layer {
  name: "relu1"
  type: "ReLU"
  bottom: "conv1"
  top: "conv1"
}
layer {
  name: "pool1"
  type: "Pooling"
  bottom: "conv1"
  top: "pool1"
  pooling_param {
    pool: MAX
    kernel_h: 2
    kernel_w: 1
    stride_h: 2
    stride_w: 1
  }
}
layer {
  name: "conv2"
  type: "Convolution"
  bottom: "pool1"
  top: "conv2"
  convolution_param {
    num_output: 20
    pad: 0
    stride: 1
    weight_filler {
      type: "xavier"
    }
    bias_filler {
      type: "constant"
    }
    kernel_h: 7
    kernel_w: 3
  }
}
layer {
  name: "relu2"
  type: "ReLU"
  bottom: "conv2"
  top: "conv2"
}
layer {
  name: "pool2"
  type: "Pooling"
  bottom: "conv2"
  top: "pool2"
  pooling_param {
    pool: MAX
    kernel_h: 2
    kernel_w: 1
    stride_h: 2
    stride_w: 1
  }
}
layer {
  name: "conv3"
  type: "Convolution"
  bottom: "pool2"
  top: "conv3"
  convolution_param {
    num_output: 28
    pad: 0
    stride: 1
    weight_filler {
      type: "xavier"
    }
    bias_filler {
      type: "constant"
    }
    kernel_h: 6
    kernel_w: 3
  }
}
layer {
  name: "relu3"
  type: "ReLU"
  bottom: "conv3"
  top: "conv3"
}
layer {
  name: "pool3"
  type: "Pooling"
  bottom: "conv3"
  top: "pool3"
  pooling_param {
    pool: MAX
    kernel_h: 2
    kernel_w: 1
    stride_h: 2
    stride_w: 1
  }
}
layer {
  name: "conv4"
  type: "Convolution"
  bottom: "pool3"
  top: "conv4"
  convolution_param {
    num_output: 36
    pad: 0
    stride: 1
    weight_filler {
      type: "xavier"
    }
    bias_filler {
      type: "constant"
    }
    kernel_h: 6
    kernel_w: 3
  }
}
layer {
  name: "relu4"
  type: "ReLU"
  bottom: "conv4"
  top: "conv4"
}
layer {
  name: "pool4"
  type: "Pooling"
  bottom: "conv4"
  top: "pool4"
  pooling_param {
    pool: MAX
    kernel_h: 2
    kernel_w: 1
    stride_h: 2
    stride_w: 1
  }
}
layer {
  name: "ip1"
  type: "InnerProduct"
  bottom: "pool4"
  top: "ip1"
  inner_product_param {
    num_output: 196
    weight_filler {
      type: "xavier"
    }
    bias_filler {
      type: "constant"
    }
  }
}
layer {
  name: "relu5"
  type: "ReLU"
  bottom: "ip1"
  top: "ip1"
}
layer {
  name: "drop1"
  type: "Dropout"
  bottom: "ip1"
  top: "ip1"
  dropout_param {
    dropout_ratio: 0.5
  }
}
layer {
  name: "ip2"
  type: "InnerProduct"
  bottom: "ip1"
  top: "ip2"
  inner_product_param {
    num_output: 98
    weight_filler {
      type: "xavier"
    }
    bias_filler {
      type: "constant"
    }
  }
}
layer {
  name: "relu6"
  type: "ReLU"
  bottom: "ip2"
  top: "ip2"
}
layer {
  name: "drop2"
  type: "Dropout"
  bottom: "ip2"
  top: "ip2"
  dropout_param {
    dropout_ratio: 0.5
  }
}
layer {
  name: "ip3"
  type: "InnerProduct"
  bottom: "ip2"
  top: "ip3"
  inner_product_param {
    num_output: 11
    weight_filler {
      type: "xavier"
    }
    bias_filler {
      type: "constant"
    }
  }
}
layer {
  name: "drop3"
  type: "Dropout"
  bottom: "ip3"
  top: "ip3"
  dropout_param {
    dropout_ratio: 0.5
  }
}
layer {
  name: "accuracy"
  type: "Accuracy"
  bottom: "ip3"
  bottom: "label"
  top: "accuracy"
  include {
    phase: TEST
  }
}
layer {
  name: "loss"
  type: "SoftmaxWithLoss"
  bottom: "ip3"
  bottom: "label"
  top: "loss"
}
I0522 04:05:53.022977 12754 layer_factory.hpp:77] Creating layer data_hdf5
I0522 04:05:53.022992 12754 net.cpp:106] Creating Layer data_hdf5
I0522 04:05:53.023005 12754 net.cpp:411] data_hdf5 -> data
I0522 04:05:53.023021 12754 net.cpp:411] data_hdf5 -> label
I0522 04:05:53.023037 12754 hdf5_data_layer.cpp:79] Loading list of HDF5 filenames from: /lustre/atlas/proj-shared/hep105/caffe_titan/minosmatch_nukecczdefs_127x50_x_unshifted_me1Bmc.testlist
I0522 04:05:53.024477 12754 hdf5_data_layer.cpp:93] Number of HDF5 files: 3
I0522 04:06:14.357235 12754 net.cpp:150] Setting up data_hdf5
I0522 04:06:14.357414 12754 net.cpp:157] Top shape: 20 1 127 50 (127000)
I0522 04:06:14.357429 12754 net.cpp:157] Top shape: 20 (20)
I0522 04:06:14.357439 12754 net.cpp:165] Memory required for data: 508080
I0522 04:06:14.357452 12754 layer_factory.hpp:77] Creating layer label_data_hdf5_1_split
I0522 04:06:14.357481 12754 net.cpp:106] Creating Layer label_data_hdf5_1_split
I0522 04:06:14.357492 12754 net.cpp:454] label_data_hdf5_1_split <- label
I0522 04:06:14.357507 12754 net.cpp:411] label_data_hdf5_1_split -> label_data_hdf5_1_split_0
I0522 04:06:14.357529 12754 net.cpp:411] label_data_hdf5_1_split -> label_data_hdf5_1_split_1
I0522 04:06:14.357604 12754 net.cpp:150] Setting up label_data_hdf5_1_split
I0522 04:06:14.357617 12754 net.cpp:157] Top shape: 20 (20)
I0522 04:06:14.357630 12754 net.cpp:157] Top shape: 20 (20)
I0522 04:06:14.357638 12754 net.cpp:165] Memory required for data: 508240
I0522 04:06:14.357648 12754 layer_factory.hpp:77] Creating layer conv1
I0522 04:06:14.357671 12754 net.cpp:106] Creating Layer conv1
I0522 04:06:14.357681 12754 net.cpp:454] conv1 <- data
I0522 04:06:14.357697 12754 net.cpp:411] conv1 -> conv1
I0522 04:06:14.359645 12754 net.cpp:150] Setting up conv1
I0522 04:06:14.359665 12754 net.cpp:157] Top shape: 20 12 120 48 (1382400)
I0522 04:06:14.359679 12754 net.cpp:165] Memory required for data: 6037840
I0522 04:06:14.359701 12754 layer_factory.hpp:77] Creating layer relu1
I0522 04:06:14.359716 12754 net.cpp:106] Creating Layer relu1
I0522 04:06:14.359726 12754 net.cpp:454] relu1 <- conv1
I0522 04:06:14.359740 12754 net.cpp:397] relu1 -> conv1 (in-place)
I0522 04:06:14.360242 12754 net.cpp:150] Setting up relu1
I0522 04:06:14.360258 12754 net.cpp:157] Top shape: 20 12 120 48 (1382400)
I0522 04:06:14.360270 12754 net.cpp:165] Memory required for data: 11567440
I0522 04:06:14.360280 12754 layer_factory.hpp:77] Creating layer pool1
I0522 04:06:14.360296 12754 net.cpp:106] Creating Layer pool1
I0522 04:06:14.360306 12754 net.cpp:454] pool1 <- conv1
I0522 04:06:14.360319 12754 net.cpp:411] pool1 -> pool1
I0522 04:06:14.360394 12754 net.cpp:150] Setting up pool1
I0522 04:06:14.360409 12754 net.cpp:157] Top shape: 20 12 60 48 (691200)
I0522 04:06:14.360419 12754 net.cpp:165] Memory required for data: 14332240
I0522 04:06:14.360425 12754 layer_factory.hpp:77] Creating layer conv2
I0522 04:06:14.360443 12754 net.cpp:106] Creating Layer conv2
I0522 04:06:14.360453 12754 net.cpp:454] conv2 <- pool1
I0522 04:06:14.360468 12754 net.cpp:411] conv2 -> conv2
I0522 04:06:14.362421 12754 net.cpp:150] Setting up conv2
I0522 04:06:14.362444 12754 net.cpp:157] Top shape: 20 20 54 46 (993600)
I0522 04:06:14.362454 12754 net.cpp:165] Memory required for data: 18306640
I0522 04:06:14.362474 12754 layer_factory.hpp:77] Creating layer relu2
I0522 04:06:14.362488 12754 net.cpp:106] Creating Layer relu2
I0522 04:06:14.362498 12754 net.cpp:454] relu2 <- conv2
I0522 04:06:14.362510 12754 net.cpp:397] relu2 -> conv2 (in-place)
I0522 04:06:14.362844 12754 net.cpp:150] Setting up relu2
I0522 04:06:14.362859 12754 net.cpp:157] Top shape: 20 20 54 46 (993600)
I0522 04:06:14.362869 12754 net.cpp:165] Memory required for data: 22281040
I0522 04:06:14.362879 12754 layer_factory.hpp:77] Creating layer pool2
I0522 04:06:14.362892 12754 net.cpp:106] Creating Layer pool2
I0522 04:06:14.362902 12754 net.cpp:454] pool2 <- conv2
I0522 04:06:14.362915 12754 net.cpp:411] pool2 -> pool2
I0522 04:06:14.362987 12754 net.cpp:150] Setting up pool2
I0522 04:06:14.363000 12754 net.cpp:157] Top shape: 20 20 27 46 (496800)
I0522 04:06:14.363010 12754 net.cpp:165] Memory required for data: 24268240
I0522 04:06:14.363020 12754 layer_factory.hpp:77] Creating layer conv3
I0522 04:06:14.363039 12754 net.cpp:106] Creating Layer conv3
I0522 04:06:14.363049 12754 net.cpp:454] conv3 <- pool2
I0522 04:06:14.363062 12754 net.cpp:411] conv3 -> conv3
I0522 04:06:14.365034 12754 net.cpp:150] Setting up conv3
I0522 04:06:14.365056 12754 net.cpp:157] Top shape: 20 28 22 44 (542080)
I0522 04:06:14.365069 12754 net.cpp:165] Memory required for data: 26436560
I0522 04:06:14.365088 12754 layer_factory.hpp:77] Creating layer relu3
I0522 04:06:14.365114 12754 net.cpp:106] Creating Layer relu3
I0522 04:06:14.365124 12754 net.cpp:454] relu3 <- conv3
I0522 04:06:14.365139 12754 net.cpp:397] relu3 -> conv3 (in-place)
I0522 04:06:14.365612 12754 net.cpp:150] Setting up relu3
I0522 04:06:14.365628 12754 net.cpp:157] Top shape: 20 28 22 44 (542080)
I0522 04:06:14.365638 12754 net.cpp:165] Memory required for data: 28604880
I0522 04:06:14.365648 12754 layer_factory.hpp:77] Creating layer pool3
I0522 04:06:14.365661 12754 net.cpp:106] Creating Layer pool3
I0522 04:06:14.365671 12754 net.cpp:454] pool3 <- conv3
I0522 04:06:14.365684 12754 net.cpp:411] pool3 -> pool3
I0522 04:06:14.365756 12754 net.cpp:150] Setting up pool3
I0522 04:06:14.365769 12754 net.cpp:157] Top shape: 20 28 11 44 (271040)
I0522 04:06:14.365779 12754 net.cpp:165] Memory required for data: 29689040
I0522 04:06:14.365789 12754 layer_factory.hpp:77] Creating layer conv4
I0522 04:06:14.365806 12754 net.cpp:106] Creating Layer conv4
I0522 04:06:14.365818 12754 net.cpp:454] conv4 <- pool3
I0522 04:06:14.365831 12754 net.cpp:411] conv4 -> conv4
I0522 04:06:14.367887 12754 net.cpp:150] Setting up conv4
I0522 04:06:14.367910 12754 net.cpp:157] Top shape: 20 36 6 42 (181440)
I0522 04:06:14.367923 12754 net.cpp:165] Memory required for data: 30414800
I0522 04:06:14.367938 12754 layer_factory.hpp:77] Creating layer relu4
I0522 04:06:14.367952 12754 net.cpp:106] Creating Layer relu4
I0522 04:06:14.367962 12754 net.cpp:454] relu4 <- conv4
I0522 04:06:14.367975 12754 net.cpp:397] relu4 -> conv4 (in-place)
I0522 04:06:14.368446 12754 net.cpp:150] Setting up relu4
I0522 04:06:14.368463 12754 net.cpp:157] Top shape: 20 36 6 42 (181440)
I0522 04:06:14.368472 12754 net.cpp:165] Memory required for data: 31140560
I0522 04:06:14.368482 12754 layer_factory.hpp:77] Creating layer pool4
I0522 04:06:14.368495 12754 net.cpp:106] Creating Layer pool4
I0522 04:06:14.368505 12754 net.cpp:454] pool4 <- conv4
I0522 04:06:14.368518 12754 net.cpp:411] pool4 -> pool4
I0522 04:06:14.368590 12754 net.cpp:150] Setting up pool4
I0522 04:06:14.368603 12754 net.cpp:157] Top shape: 20 36 3 42 (90720)
I0522 04:06:14.368613 12754 net.cpp:165] Memory required for data: 31503440
I0522 04:06:14.368623 12754 layer_factory.hpp:77] Creating layer ip1
I0522 04:06:14.368636 12754 net.cpp:106] Creating Layer ip1
I0522 04:06:14.368648 12754 net.cpp:454] ip1 <- pool4
I0522 04:06:14.368660 12754 net.cpp:411] ip1 -> ip1
I0522 04:06:14.384151 12754 net.cpp:150] Setting up ip1
I0522 04:06:14.384181 12754 net.cpp:157] Top shape: 20 196 (3920)
I0522 04:06:14.384191 12754 net.cpp:165] Memory required for data: 31519120
I0522 04:06:14.384213 12754 layer_factory.hpp:77] Creating layer relu5
I0522 04:06:14.384228 12754 net.cpp:106] Creating Layer relu5
I0522 04:06:14.384238 12754 net.cpp:454] relu5 <- ip1
I0522 04:06:14.384253 12754 net.cpp:397] relu5 -> ip1 (in-place)
I0522 04:06:14.384598 12754 net.cpp:150] Setting up relu5
I0522 04:06:14.384613 12754 net.cpp:157] Top shape: 20 196 (3920)
I0522 04:06:14.384623 12754 net.cpp:165] Memory required for data: 31534800
I0522 04:06:14.384632 12754 layer_factory.hpp:77] Creating layer drop1
I0522 04:06:14.384650 12754 net.cpp:106] Creating Layer drop1
I0522 04:06:14.384660 12754 net.cpp:454] drop1 <- ip1
I0522 04:06:14.384673 12754 net.cpp:397] drop1 -> ip1 (in-place)
I0522 04:06:14.384719 12754 net.cpp:150] Setting up drop1
I0522 04:06:14.384732 12754 net.cpp:157] Top shape: 20 196 (3920)
I0522 04:06:14.384743 12754 net.cpp:165] Memory required for data: 31550480
I0522 04:06:14.384752 12754 layer_factory.hpp:77] Creating layer ip2
I0522 04:06:14.384768 12754 net.cpp:106] Creating Layer ip2
I0522 04:06:14.384778 12754 net.cpp:454] ip2 <- ip1
I0522 04:06:14.384791 12754 net.cpp:411] ip2 -> ip2
I0522 04:06:14.385277 12754 net.cpp:150] Setting up ip2
I0522 04:06:14.385289 12754 net.cpp:157] Top shape: 20 98 (1960)
I0522 04:06:14.385299 12754 net.cpp:165] Memory required for data: 31558320
I0522 04:06:14.385314 12754 layer_factory.hpp:77] Creating layer relu6
I0522 04:06:14.385340 12754 net.cpp:106] Creating Layer relu6
I0522 04:06:14.385350 12754 net.cpp:454] relu6 <- ip2
I0522 04:06:14.385363 12754 net.cpp:397] relu6 -> ip2 (in-place)
I0522 04:06:14.385896 12754 net.cpp:150] Setting up relu6
I0522 04:06:14.385912 12754 net.cpp:157] Top shape: 20 98 (1960)
I0522 04:06:14.385922 12754 net.cpp:165] Memory required for data: 31566160
I0522 04:06:14.385932 12754 layer_factory.hpp:77] Creating layer drop2
I0522 04:06:14.385946 12754 net.cpp:106] Creating Layer drop2
I0522 04:06:14.385957 12754 net.cpp:454] drop2 <- ip2
I0522 04:06:14.385970 12754 net.cpp:397] drop2 -> ip2 (in-place)
I0522 04:06:14.386014 12754 net.cpp:150] Setting up drop2
I0522 04:06:14.386028 12754 net.cpp:157] Top shape: 20 98 (1960)
I0522 04:06:14.386036 12754 net.cpp:165] Memory required for data: 31574000
I0522 04:06:14.386046 12754 layer_factory.hpp:77] Creating layer ip3
I0522 04:06:14.386060 12754 net.cpp:106] Creating Layer ip3
I0522 04:06:14.386070 12754 net.cpp:454] ip3 <- ip2
I0522 04:06:14.386085 12754 net.cpp:411] ip3 -> ip3
I0522 04:06:14.386307 12754 net.cpp:150] Setting up ip3
I0522 04:06:14.386319 12754 net.cpp:157] Top shape: 20 11 (220)
I0522 04:06:14.386330 12754 net.cpp:165] Memory required for data: 31574880
I0522 04:06:14.386345 12754 layer_factory.hpp:77] Creating layer drop3
I0522 04:06:14.386358 12754 net.cpp:106] Creating Layer drop3
I0522 04:06:14.386368 12754 net.cpp:454] drop3 <- ip3
I0522 04:06:14.386381 12754 net.cpp:397] drop3 -> ip3 (in-place)
I0522 04:06:14.386422 12754 net.cpp:150] Setting up drop3
I0522 04:06:14.386435 12754 net.cpp:157] Top shape: 20 11 (220)
I0522 04:06:14.386445 12754 net.cpp:165] Memory required for data: 31575760
I0522 04:06:14.386456 12754 layer_factory.hpp:77] Creating layer ip3_drop3_0_split
I0522 04:06:14.386468 12754 net.cpp:106] Creating Layer ip3_drop3_0_split
I0522 04:06:14.386478 12754 net.cpp:454] ip3_drop3_0_split <- ip3
I0522 04:06:14.386492 12754 net.cpp:411] ip3_drop3_0_split -> ip3_drop3_0_split_0
I0522 04:06:14.386507 12754 net.cpp:411] ip3_drop3_0_split -> ip3_drop3_0_split_1
I0522 04:06:14.386581 12754 net.cpp:150] Setting up ip3_drop3_0_split
I0522 04:06:14.386595 12754 net.cpp:157] Top shape: 20 11 (220)
I0522 04:06:14.386606 12754 net.cpp:157] Top shape: 20 11 (220)
I0522 04:06:14.386616 12754 net.cpp:165] Memory required for data: 31577520
I0522 04:06:14.386626 12754 layer_factory.hpp:77] Creating layer accuracy
I0522 04:06:14.386647 12754 net.cpp:106] Creating Layer accuracy
I0522 04:06:14.386657 12754 net.cpp:454] accuracy <- ip3_drop3_0_split_0
I0522 04:06:14.386668 12754 net.cpp:454] accuracy <- label_data_hdf5_1_split_0
I0522 04:06:14.386682 12754 net.cpp:411] accuracy -> accuracy
…
