…
I0526 19:09:39.524111 14297 net.cpp:322] The NetState phase (0) differed from the phase (1) specified by a rule in layer data_hdf5
I0526 19:09:39.524168 14297 net.cpp:322] The NetState phase (0) differed from the phase (1) specified by a rule in layer accuracy
I0526 19:09:39.524516 14297 net.cpp:49] Initializing net from parameters: 
name: "caffe_test_127x50_x_unshifted"
state {
  phase: TRAIN
}
layer {
  name: "data_hdf5"
  type: "HDF5Data"
  top: "data"
  top: "label"
  include {
    phase: TRAIN
  }
  hdf5_data_param {
    source: "/lustre/atlas/proj-shared/hep105/caffe_titan/minosmatch_nukecczdefs_127x50_x_unshifted_me1Bmc.trainlist"
    batch_size: 20
  }
}
layer {
  name: "conv1"
  type: "Convolution"
  bottom: "data"
  top: "conv1"
  convolution_param {
    num_output: 12
    pad: 0
    stride: 1
    weight_filler {
      type: "xavier"
    }
    bias_filler {
      type: "constant"
    }
    kernel_h: 8
    kernel_w: 3
  }
}
layer {
  name: "relu1"
  type: "ReLU"
  bottom: "conv1"
  top: "conv1"
}
layer {
  name: "pool1"
  type: "Pooling"
  bottom: "conv1"
  top: "pool1"
  pooling_param {
    pool: MAX
    kernel_h: 2
    kernel_w: 1
    stride_h: 2
    stride_w: 1
  }
}
layer {
  name: "conv2"
  type: "Convolution"
  bottom: "pool1"
  top: "conv2"
  convolution_param {
    num_output: 20
    pad: 0
    stride: 1
    weight_filler {
      type: "xavier"
    }
    bias_filler {
      type: "constant"
    }
    kernel_h: 7
    kernel_w: 3
  }
}
layer {
  name: "relu2"
  type: "ReLU"
  bottom: "conv2"
  top: "conv2"
}
layer {
  name: "pool2"
  type: "Pooling"
  bottom: "conv2"
  top: "pool2"
  pooling_param {
    pool: MAX
    kernel_h: 2
    kernel_w: 1
    stride_h: 2
    stride_w: 1
  }
}
layer {
  name: "conv3"
  type: "Convolution"
  bottom: "pool2"
  top: "conv3"
  convolution_param {
    num_output: 28
    pad: 0
    stride: 1
    weight_filler {
      type: "xavier"
    }
    bias_filler {
      type: "constant"
    }
    kernel_h: 6
    kernel_w: 3
  }
}
layer {
  name: "relu3"
  type: "ReLU"
  bottom: "conv3"
  top: "conv3"
}
layer {
  name: "pool3"
  type: "Pooling"
  bottom: "conv3"
  top: "pool3"
  pooling_param {
    pool: MAX
    kernel_h: 2
    kernel_w: 1
    stride_h: 2
    stride_w: 1
  }
}
layer {
  name: "conv4"
  type: "Convolution"
  bottom: "pool3"
  top: "conv4"
  convolution_param {
    num_output: 36
    pad: 0
    stride: 1
    weight_filler {
      type: "xavier"
    }
    bias_filler {
      type: "constant"
    }
    kernel_h: 6
    kernel_w: 3
  }
}
layer {
  name: "relu4"
  type: "ReLU"
  bottom: "conv4"
  top: "conv4"
}
layer {
  name: "pool4"
  type: "Pooling"
  bottom: "conv4"
  top: "pool4"
  pooling_param {
    pool: MAX
    kernel_h: 2
    kernel_w: 1
    stride_h: 2
    stride_w: 1
  }
}
layer {
  name: "ip1"
  type: "InnerProduct"
  bottom: "pool4"
  top: "ip1"
  inner_product_param {
    num_output: 196
    weight_filler {
      type: "xavier"
    }
    bias_filler {
      type: "constant"
    }
  }
}
layer {
  name: "relu5"
  type: "ReLU"
  bottom: "ip1"
  top: "ip1"
}
layer {
  name: "drop1"
  type: "Dropout"
  bottom: "ip1"
  top: "ip1"
  dropout_param {
    dropout_ratio: 0.5
  }
}
layer {
  name: "ip2"
  type: "InnerProduct"
  bottom: "ip1"
  top: "ip2"
  inner_product_param {
    num_output: 98
    weight_filler {
      type: "xavier"
    }
    bias_filler {
      type: "constant"
    }
  }
}
layer {
  name: "relu6"
  type: "ReLU"
  bottom: "ip2"
  top: "ip2"
}
layer {
  name: "drop2"
  type: "Dropout"
  bottom: "ip2"
  top: "ip2"
  dropout_param {
    dropout_ratio: 0.5
  }
}
layer {
  name: "ip3"
  type: "InnerProduct"
  bottom: "ip2"
  top: "ip3"
  inner_product_param {
    num_output: 11
    weight_filler {
      type: "xavier"
    }
    bias_filler {
      type: "constant"
    }
  }
}
layer {
  name: "drop3"
  type: "Dropout"
  bottom: "ip3"
  top: "ip3"
  dropout_param {
    dropout_ratio: 0.5
  }
}
layer {
  name: "loss"
  type: "SoftmaxWithLoss"
  bottom: "ip3"
  bottom: "label"
  top: "loss"
}
I0526 19:09:39.524698 14297 layer_factory.hpp:77] Creating layer data_hdf5
I0526 19:09:39.524720 14297 net.cpp:106] Creating Layer data_hdf5
I0526 19:09:39.524735 14297 net.cpp:411] data_hdf5 -> data
I0526 19:09:39.524770 14297 net.cpp:411] data_hdf5 -> label
I0526 19:09:39.524801 14297 hdf5_data_layer.cpp:79] Loading list of HDF5 filenames from: /lustre/atlas/proj-shared/hep105/caffe_titan/minosmatch_nukecczdefs_127x50_x_unshifted_me1Bmc.trainlist
I0526 19:09:39.526367 14297 hdf5_data_layer.cpp:93] Number of HDF5 files: 15
I0526 19:09:39.539144 14297 hdf5.cpp:32] Datatype class: H5T_FLOAT
I0526 19:10:01.143173 14297 hdf5.cpp:35] Datatype class: H5T_INTEGER
I0526 19:10:01.148352 14297 net.cpp:150] Setting up data_hdf5
I0526 19:10:01.148394 14297 net.cpp:157] Top shape: 20 1 127 50 (127000)
I0526 19:10:01.148408 14297 net.cpp:157] Top shape: 20 (20)
I0526 19:10:01.148421 14297 net.cpp:165] Memory required for data: 508080
I0526 19:10:01.148433 14297 layer_factory.hpp:77] Creating layer conv1
I0526 19:10:01.148468 14297 net.cpp:106] Creating Layer conv1
I0526 19:10:01.148478 14297 net.cpp:454] conv1 <- data
I0526 19:10:01.148499 14297 net.cpp:411] conv1 -> conv1
I0526 19:10:02.308956 14297 net.cpp:150] Setting up conv1
I0526 19:10:02.309006 14297 net.cpp:157] Top shape: 20 12 120 48 (1382400)
I0526 19:10:02.309017 14297 net.cpp:165] Memory required for data: 6037680
I0526 19:10:02.309046 14297 layer_factory.hpp:77] Creating layer relu1
I0526 19:10:02.309068 14297 net.cpp:106] Creating Layer relu1
I0526 19:10:02.309079 14297 net.cpp:454] relu1 <- conv1
I0526 19:10:02.309093 14297 net.cpp:397] relu1 -> conv1 (in-place)
I0526 19:10:02.309610 14297 net.cpp:150] Setting up relu1
I0526 19:10:02.309628 14297 net.cpp:157] Top shape: 20 12 120 48 (1382400)
I0526 19:10:02.309638 14297 net.cpp:165] Memory required for data: 11567280
I0526 19:10:02.309648 14297 layer_factory.hpp:77] Creating layer pool1
I0526 19:10:02.309664 14297 net.cpp:106] Creating Layer pool1
I0526 19:10:02.309674 14297 net.cpp:454] pool1 <- conv1
I0526 19:10:02.309687 14297 net.cpp:411] pool1 -> pool1
I0526 19:10:02.309767 14297 net.cpp:150] Setting up pool1
I0526 19:10:02.309782 14297 net.cpp:157] Top shape: 20 12 60 48 (691200)
I0526 19:10:02.309792 14297 net.cpp:165] Memory required for data: 14332080
I0526 19:10:02.309800 14297 layer_factory.hpp:77] Creating layer conv2
I0526 19:10:02.309823 14297 net.cpp:106] Creating Layer conv2
I0526 19:10:02.309834 14297 net.cpp:454] conv2 <- pool1
I0526 19:10:02.309845 14297 net.cpp:411] conv2 -> conv2
I0526 19:10:02.312543 14297 net.cpp:150] Setting up conv2
I0526 19:10:02.312569 14297 net.cpp:157] Top shape: 20 20 54 46 (993600)
I0526 19:10:02.312582 14297 net.cpp:165] Memory required for data: 18306480
I0526 19:10:02.312600 14297 layer_factory.hpp:77] Creating layer relu2
I0526 19:10:02.312615 14297 net.cpp:106] Creating Layer relu2
I0526 19:10:02.312625 14297 net.cpp:454] relu2 <- conv2
I0526 19:10:02.312638 14297 net.cpp:397] relu2 -> conv2 (in-place)
I0526 19:10:02.312968 14297 net.cpp:150] Setting up relu2
I0526 19:10:02.312983 14297 net.cpp:157] Top shape: 20 20 54 46 (993600)
I0526 19:10:02.312994 14297 net.cpp:165] Memory required for data: 22280880
I0526 19:10:02.313004 14297 layer_factory.hpp:77] Creating layer pool2
I0526 19:10:02.313015 14297 net.cpp:106] Creating Layer pool2
I0526 19:10:02.313025 14297 net.cpp:454] pool2 <- conv2
I0526 19:10:02.313038 14297 net.cpp:411] pool2 -> pool2
I0526 19:10:02.313119 14297 net.cpp:150] Setting up pool2
I0526 19:10:02.313133 14297 net.cpp:157] Top shape: 20 20 27 46 (496800)
I0526 19:10:02.313143 14297 net.cpp:165] Memory required for data: 24268080
I0526 19:10:02.313151 14297 layer_factory.hpp:77] Creating layer conv3
I0526 19:10:02.313169 14297 net.cpp:106] Creating Layer conv3
I0526 19:10:02.313179 14297 net.cpp:454] conv3 <- pool2
I0526 19:10:02.313194 14297 net.cpp:411] conv3 -> conv3
I0526 19:10:02.315129 14297 net.cpp:150] Setting up conv3
I0526 19:10:02.315151 14297 net.cpp:157] Top shape: 20 28 22 44 (542080)
I0526 19:10:02.315165 14297 net.cpp:165] Memory required for data: 26436400
I0526 19:10:02.315182 14297 layer_factory.hpp:77] Creating layer relu3
I0526 19:10:02.315199 14297 net.cpp:106] Creating Layer relu3
I0526 19:10:02.315209 14297 net.cpp:454] relu3 <- conv3
I0526 19:10:02.315222 14297 net.cpp:397] relu3 -> conv3 (in-place)
I0526 19:10:02.315690 14297 net.cpp:150] Setting up relu3
I0526 19:10:02.315706 14297 net.cpp:157] Top shape: 20 28 22 44 (542080)
I0526 19:10:02.315716 14297 net.cpp:165] Memory required for data: 28604720
I0526 19:10:02.315726 14297 layer_factory.hpp:77] Creating layer pool3
I0526 19:10:02.315739 14297 net.cpp:106] Creating Layer pool3
I0526 19:10:02.315749 14297 net.cpp:454] pool3 <- conv3
I0526 19:10:02.315762 14297 net.cpp:411] pool3 -> pool3
I0526 19:10:02.315829 14297 net.cpp:150] Setting up pool3
I0526 19:10:02.315842 14297 net.cpp:157] Top shape: 20 28 11 44 (271040)
I0526 19:10:02.315852 14297 net.cpp:165] Memory required for data: 29688880
I0526 19:10:02.315861 14297 layer_factory.hpp:77] Creating layer conv4
I0526 19:10:02.315878 14297 net.cpp:106] Creating Layer conv4
I0526 19:10:02.315889 14297 net.cpp:454] conv4 <- pool3
I0526 19:10:02.315903 14297 net.cpp:411] conv4 -> conv4
I0526 19:10:02.318624 14297 net.cpp:150] Setting up conv4
I0526 19:10:02.318652 14297 net.cpp:157] Top shape: 20 36 6 42 (181440)
I0526 19:10:02.318663 14297 net.cpp:165] Memory required for data: 30414640
I0526 19:10:02.318678 14297 layer_factory.hpp:77] Creating layer relu4
I0526 19:10:02.318692 14297 net.cpp:106] Creating Layer relu4
I0526 19:10:02.318702 14297 net.cpp:454] relu4 <- conv4
I0526 19:10:02.318716 14297 net.cpp:397] relu4 -> conv4 (in-place)
I0526 19:10:02.319178 14297 net.cpp:150] Setting up relu4
I0526 19:10:02.319195 14297 net.cpp:157] Top shape: 20 36 6 42 (181440)
I0526 19:10:02.319205 14297 net.cpp:165] Memory required for data: 31140400
I0526 19:10:02.319214 14297 layer_factory.hpp:77] Creating layer pool4
I0526 19:10:02.319227 14297 net.cpp:106] Creating Layer pool4
I0526 19:10:02.319237 14297 net.cpp:454] pool4 <- conv4
I0526 19:10:02.319250 14297 net.cpp:411] pool4 -> pool4
I0526 19:10:02.319319 14297 net.cpp:150] Setting up pool4
I0526 19:10:02.319332 14297 net.cpp:157] Top shape: 20 36 3 42 (90720)
I0526 19:10:02.319342 14297 net.cpp:165] Memory required for data: 31503280
I0526 19:10:02.319352 14297 layer_factory.hpp:77] Creating layer ip1
I0526 19:10:02.319373 14297 net.cpp:106] Creating Layer ip1
I0526 19:10:02.319385 14297 net.cpp:454] ip1 <- pool4
I0526 19:10:02.319397 14297 net.cpp:411] ip1 -> ip1
I0526 19:10:02.334830 14297 net.cpp:150] Setting up ip1
I0526 19:10:02.334858 14297 net.cpp:157] Top shape: 20 196 (3920)
I0526 19:10:02.334870 14297 net.cpp:165] Memory required for data: 31518960
I0526 19:10:02.334892 14297 layer_factory.hpp:77] Creating layer relu5
I0526 19:10:02.334908 14297 net.cpp:106] Creating Layer relu5
I0526 19:10:02.334918 14297 net.cpp:454] relu5 <- ip1
I0526 19:10:02.334931 14297 net.cpp:397] relu5 -> ip1 (in-place)
I0526 19:10:02.335273 14297 net.cpp:150] Setting up relu5
I0526 19:10:02.335286 14297 net.cpp:157] Top shape: 20 196 (3920)
I0526 19:10:02.335296 14297 net.cpp:165] Memory required for data: 31534640
I0526 19:10:02.335306 14297 layer_factory.hpp:77] Creating layer drop1
I0526 19:10:02.335328 14297 net.cpp:106] Creating Layer drop1
I0526 19:10:02.335338 14297 net.cpp:454] drop1 <- ip1
I0526 19:10:02.335350 14297 net.cpp:397] drop1 -> ip1 (in-place)
I0526 19:10:02.335410 14297 net.cpp:150] Setting up drop1
I0526 19:10:02.335423 14297 net.cpp:157] Top shape: 20 196 (3920)
I0526 19:10:02.335433 14297 net.cpp:165] Memory required for data: 31550320
I0526 19:10:02.335443 14297 layer_factory.hpp:77] Creating layer ip2
I0526 19:10:02.335463 14297 net.cpp:106] Creating Layer ip2
I0526 19:10:02.335472 14297 net.cpp:454] ip2 <- ip1
I0526 19:10:02.335486 14297 net.cpp:411] ip2 -> ip2
I0526 19:10:02.335948 14297 net.cpp:150] Setting up ip2
I0526 19:10:02.335961 14297 net.cpp:157] Top shape: 20 98 (1960)
I0526 19:10:02.335971 14297 net.cpp:165] Memory required for data: 31558160
I0526 19:10:02.335986 14297 layer_factory.hpp:77] Creating layer relu6
I0526 19:10:02.335999 14297 net.cpp:106] Creating Layer relu6
I0526 19:10:02.336009 14297 net.cpp:454] relu6 <- ip2
I0526 19:10:02.336020 14297 net.cpp:397] relu6 -> ip2 (in-place)
I0526 19:10:02.336601 14297 net.cpp:150] Setting up relu6
I0526 19:10:02.336623 14297 net.cpp:157] Top shape: 20 98 (1960)
I0526 19:10:02.336633 14297 net.cpp:165] Memory required for data: 31566000
I0526 19:10:02.336643 14297 layer_factory.hpp:77] Creating layer drop2
I0526 19:10:02.336658 14297 net.cpp:106] Creating Layer drop2
I0526 19:10:02.336668 14297 net.cpp:454] drop2 <- ip2
I0526 19:10:02.336681 14297 net.cpp:397] drop2 -> ip2 (in-place)
I0526 19:10:02.336724 14297 net.cpp:150] Setting up drop2
I0526 19:10:02.336737 14297 net.cpp:157] Top shape: 20 98 (1960)
I0526 19:10:02.336747 14297 net.cpp:165] Memory required for data: 31573840
I0526 19:10:02.336757 14297 layer_factory.hpp:77] Creating layer ip3
I0526 19:10:02.336771 14297 net.cpp:106] Creating Layer ip3
I0526 19:10:02.336781 14297 net.cpp:454] ip3 <- ip2
I0526 19:10:02.336792 14297 net.cpp:411] ip3 -> ip3
I0526 19:10:02.337005 14297 net.cpp:150] Setting up ip3
I0526 19:10:02.337018 14297 net.cpp:157] Top shape: 20 11 (220)
I0526 19:10:02.337028 14297 net.cpp:165] Memory required for data: 31574720
I0526 19:10:02.337044 14297 layer_factory.hpp:77] Creating layer drop3
I0526 19:10:02.337056 14297 net.cpp:106] Creating Layer drop3
I0526 19:10:02.337065 14297 net.cpp:454] drop3 <- ip3
I0526 19:10:02.337077 14297 net.cpp:397] drop3 -> ip3 (in-place)
I0526 19:10:02.337117 14297 net.cpp:150] Setting up drop3
I0526 19:10:02.337131 14297 net.cpp:157] Top shape: 20 11 (220)
I0526 19:10:02.337139 14297 net.cpp:165] Memory required for data: 31575600
I0526 19:10:02.337149 14297 layer_factory.hpp:77] Creating layer loss
I0526 19:10:02.337169 14297 net.cpp:106] Creating Layer loss
I0526 19:10:02.337178 14297 net.cpp:454] loss <- ip3
I0526 19:10:02.337190 14297 net.cpp:454] loss <- label
I0526 19:10:02.337203 14297 net.cpp:411] loss -> loss
I0526 19:10:02.337220 14297 layer_factory.hpp:77] Creating layer loss
…
I0526 19:10:02.340046 14297 solver.cpp:181] Creating test net (#0) specified by net file: /lustre/atlas/proj-shared/hep105/caffe_titan/caffe_workflow/logs_bslr/bs_20_lr_0.0040_2016-05-20T15.48.56.158271.prototxt
I0526 19:10:02.340124 14297 net.cpp:322] The NetState phase (1) differed from the phase (0) specified by a rule in layer data_hdf5
I0526 19:10:02.340479 14297 net.cpp:49] Initializing net from parameters: 
name: "caffe_test_127x50_x_unshifted"
state {
  phase: TEST
}
layer {
  name: "data_hdf5"
  type: "HDF5Data"
  top: "data"
  top: "label"
  include {
    phase: TEST
  }
  hdf5_data_param {
    source: "/lustre/atlas/proj-shared/hep105/caffe_titan/minosmatch_nukecczdefs_127x50_x_unshifted_me1Bmc.testlist"
    batch_size: 20
  }
}
layer {
  name: "conv1"
  type: "Convolution"
  bottom: "data"
  top: "conv1"
  convolution_param {
    num_output: 12
    pad: 0
    stride: 1
    weight_filler {
      type: "xavier"
    }
    bias_filler {
      type: "constant"
    }
    kernel_h: 8
    kernel_w: 3
  }
}
layer {
  name: "relu1"
  type: "ReLU"
  bottom: "conv1"
  top: "conv1"
}
layer {
  name: "pool1"
  type: "Pooling"
  bottom: "conv1"
  top: "pool1"
  pooling_param {
    pool: MAX
    kernel_h: 2
    kernel_w: 1
    stride_h: 2
    stride_w: 1
  }
}
layer {
  name: "conv2"
  type: "Convolution"
  bottom: "pool1"
  top: "conv2"
  convolution_param {
    num_output: 20
    pad: 0
    stride: 1
    weight_filler {
      type: "xavier"
    }
    bias_filler {
      type: "constant"
    }
    kernel_h: 7
    kernel_w: 3
  }
}
layer {
  name: "relu2"
  type: "ReLU"
  bottom: "conv2"
  top: "conv2"
}
layer {
  name: "pool2"
  type: "Pooling"
  bottom: "conv2"
  top: "pool2"
  pooling_param {
    pool: MAX
    kernel_h: 2
    kernel_w: 1
    stride_h: 2
    stride_w: 1
  }
}
layer {
  name: "conv3"
  type: "Convolution"
  bottom: "pool2"
  top: "conv3"
  convolution_param {
    num_output: 28
    pad: 0
    stride: 1
    weight_filler {
      type: "xavier"
    }
    bias_filler {
      type: "constant"
    }
    kernel_h: 6
    kernel_w: 3
  }
}
layer {
  name: "relu3"
  type: "ReLU"
  bottom: "conv3"
  top: "conv3"
}
layer {
  name: "pool3"
  type: "Pooling"
  bottom: "conv3"
  top: "pool3"
  pooling_param {
    pool: MAX
    kernel_h: 2
    kernel_w: 1
    stride_h: 2
    stride_w: 1
  }
}
layer {
  name: "conv4"
  type: "Convolution"
  bottom: "pool3"
  top: "conv4"
  convolution_param {
    num_output: 36
    pad: 0
    stride: 1
    weight_filler {
      type: "xavier"
    }
    bias_filler {
      type: "constant"
    }
    kernel_h: 6
    kernel_w: 3
  }
}
layer {
  name: "relu4"
  type: "ReLU"
  bottom: "conv4"
  top: "conv4"
}
layer {
  name: "pool4"
  type: "Pooling"
  bottom: "conv4"
  top: "pool4"
  pooling_param {
    pool: MAX
    kernel_h: 2
    kernel_w: 1
    stride_h: 2
    stride_w: 1
  }
}
layer {
  name: "ip1"
  type: "InnerProduct"
  bottom: "pool4"
  top: "ip1"
  inner_product_param {
    num_output: 196
    weight_filler {
      type: "xavier"
    }
    bias_filler {
      type: "constant"
    }
  }
}
layer {
  name: "relu5"
  type: "ReLU"
  bottom: "ip1"
  top: "ip1"
}
layer {
  name: "drop1"
  type: "Dropout"
  bottom: "ip1"
  top: "ip1"
  dropout_param {
    dropout_ratio: 0.5
  }
}
layer {
  name: "ip2"
  type: "InnerProduct"
  bottom: "ip1"
  top: "ip2"
  inner_product_param {
    num_output: 98
    weight_filler {
      type: "xavier"
    }
    bias_filler {
      type: "constant"
    }
  }
}
layer {
  name: "relu6"
  type: "ReLU"
  bottom: "ip2"
  top: "ip2"
}
layer {
  name: "drop2"
  type: "Dropout"
  bottom: "ip2"
  top: "ip2"
  dropout_param {
    dropout_ratio: 0.5
  }
}
layer {
  name: "ip3"
  type: "InnerProduct"
  bottom: "ip2"
  top: "ip3"
  inner_product_param {
    num_output: 11
    weight_filler {
      type: "xavier"
    }
    bias_filler {
      type: "constant"
    }
  }
}
layer {
  name: "drop3"
  type: "Dropout"
  bottom: "ip3"
  top: "ip3"
  dropout_param {
    dropout_ratio: 0.5
  }
}
layer {
  name: "accuracy"
  type: "Accuracy"
  bottom: "ip3"
  bottom: "label"
  top: "accuracy"
  include {
    phase: TEST
  }
}
layer {
  name: "loss"
  type: "SoftmaxWithLoss"
  bottom: "ip3"
  bottom: "label"
  top: "loss"
}
I0526 19:10:02.340669 14297 layer_factory.hpp:77] Creating layer data_hdf5
I0526 19:10:02.340685 14297 net.cpp:106] Creating Layer data_hdf5
I0526 19:10:02.340698 14297 net.cpp:411] data_hdf5 -> data
I0526 19:10:02.340715 14297 net.cpp:411] data_hdf5 -> label
I0526 19:10:02.340730 14297 hdf5_data_layer.cpp:79] Loading list of HDF5 filenames from: /lustre/atlas/proj-shared/hep105/caffe_titan/minosmatch_nukecczdefs_127x50_x_unshifted_me1Bmc.testlist
I0526 19:10:02.342294 14297 hdf5_data_layer.cpp:93] Number of HDF5 files: 3
I0526 19:10:23.797137 14297 net.cpp:150] Setting up data_hdf5
I0526 19:10:23.797304 14297 net.cpp:157] Top shape: 20 1 127 50 (127000)
I0526 19:10:23.797319 14297 net.cpp:157] Top shape: 20 (20)
I0526 19:10:23.797330 14297 net.cpp:165] Memory required for data: 508080
I0526 19:10:23.797343 14297 layer_factory.hpp:77] Creating layer label_data_hdf5_1_split
I0526 19:10:23.797374 14297 net.cpp:106] Creating Layer label_data_hdf5_1_split
I0526 19:10:23.797384 14297 net.cpp:454] label_data_hdf5_1_split <- label
I0526 19:10:23.797399 14297 net.cpp:411] label_data_hdf5_1_split -> label_data_hdf5_1_split_0
I0526 19:10:23.797420 14297 net.cpp:411] label_data_hdf5_1_split -> label_data_hdf5_1_split_1
I0526 19:10:23.797494 14297 net.cpp:150] Setting up label_data_hdf5_1_split
I0526 19:10:23.797508 14297 net.cpp:157] Top shape: 20 (20)
I0526 19:10:23.797519 14297 net.cpp:157] Top shape: 20 (20)
I0526 19:10:23.797529 14297 net.cpp:165] Memory required for data: 508240
I0526 19:10:23.797539 14297 layer_factory.hpp:77] Creating layer conv1
I0526 19:10:23.797561 14297 net.cpp:106] Creating Layer conv1
I0526 19:10:23.797572 14297 net.cpp:454] conv1 <- data
I0526 19:10:23.797586 14297 net.cpp:411] conv1 -> conv1
I0526 19:10:23.799510 14297 net.cpp:150] Setting up conv1
I0526 19:10:23.799535 14297 net.cpp:157] Top shape: 20 12 120 48 (1382400)
I0526 19:10:23.799546 14297 net.cpp:165] Memory required for data: 6037840
I0526 19:10:23.799567 14297 layer_factory.hpp:77] Creating layer relu1
I0526 19:10:23.799582 14297 net.cpp:106] Creating Layer relu1
I0526 19:10:23.799592 14297 net.cpp:454] relu1 <- conv1
I0526 19:10:23.799604 14297 net.cpp:397] relu1 -> conv1 (in-place)
I0526 19:10:23.800108 14297 net.cpp:150] Setting up relu1
I0526 19:10:23.800124 14297 net.cpp:157] Top shape: 20 12 120 48 (1382400)
I0526 19:10:23.800134 14297 net.cpp:165] Memory required for data: 11567440
I0526 19:10:23.800145 14297 layer_factory.hpp:77] Creating layer pool1
I0526 19:10:23.800161 14297 net.cpp:106] Creating Layer pool1
I0526 19:10:23.800171 14297 net.cpp:454] pool1 <- conv1
I0526 19:10:23.800184 14297 net.cpp:411] pool1 -> pool1
I0526 19:10:23.800259 14297 net.cpp:150] Setting up pool1
I0526 19:10:23.800273 14297 net.cpp:157] Top shape: 20 12 60 48 (691200)
I0526 19:10:23.800282 14297 net.cpp:165] Memory required for data: 14332240
I0526 19:10:23.800293 14297 layer_factory.hpp:77] Creating layer conv2
I0526 19:10:23.800310 14297 net.cpp:106] Creating Layer conv2
I0526 19:10:23.800321 14297 net.cpp:454] conv2 <- pool1
I0526 19:10:23.800336 14297 net.cpp:411] conv2 -> conv2
I0526 19:10:23.802242 14297 net.cpp:150] Setting up conv2
I0526 19:10:23.802258 14297 net.cpp:157] Top shape: 20 20 54 46 (993600)
I0526 19:10:23.802270 14297 net.cpp:165] Memory required for data: 18306640
I0526 19:10:23.802289 14297 layer_factory.hpp:77] Creating layer relu2
I0526 19:10:23.802302 14297 net.cpp:106] Creating Layer relu2
I0526 19:10:23.802311 14297 net.cpp:454] relu2 <- conv2
I0526 19:10:23.802325 14297 net.cpp:397] relu2 -> conv2 (in-place)
I0526 19:10:23.802659 14297 net.cpp:150] Setting up relu2
I0526 19:10:23.802672 14297 net.cpp:157] Top shape: 20 20 54 46 (993600)
I0526 19:10:23.802682 14297 net.cpp:165] Memory required for data: 22281040
I0526 19:10:23.802692 14297 layer_factory.hpp:77] Creating layer pool2
I0526 19:10:23.802706 14297 net.cpp:106] Creating Layer pool2
I0526 19:10:23.802716 14297 net.cpp:454] pool2 <- conv2
I0526 19:10:23.802727 14297 net.cpp:411] pool2 -> pool2
I0526 19:10:23.802799 14297 net.cpp:150] Setting up pool2
I0526 19:10:23.802814 14297 net.cpp:157] Top shape: 20 20 27 46 (496800)
I0526 19:10:23.802822 14297 net.cpp:165] Memory required for data: 24268240
I0526 19:10:23.802832 14297 layer_factory.hpp:77] Creating layer conv3
I0526 19:10:23.802850 14297 net.cpp:106] Creating Layer conv3
I0526 19:10:23.802860 14297 net.cpp:454] conv3 <- pool2
I0526 19:10:23.802875 14297 net.cpp:411] conv3 -> conv3
I0526 19:10:23.804844 14297 net.cpp:150] Setting up conv3
I0526 19:10:23.804867 14297 net.cpp:157] Top shape: 20 28 22 44 (542080)
I0526 19:10:23.804879 14297 net.cpp:165] Memory required for data: 26436560
I0526 19:10:23.804898 14297 layer_factory.hpp:77] Creating layer relu3
I0526 19:10:23.804924 14297 net.cpp:106] Creating Layer relu3
I0526 19:10:23.804934 14297 net.cpp:454] relu3 <- conv3
I0526 19:10:23.804949 14297 net.cpp:397] relu3 -> conv3 (in-place)
I0526 19:10:23.805423 14297 net.cpp:150] Setting up relu3
I0526 19:10:23.805438 14297 net.cpp:157] Top shape: 20 28 22 44 (542080)
I0526 19:10:23.805449 14297 net.cpp:165] Memory required for data: 28604880
I0526 19:10:23.805459 14297 layer_factory.hpp:77] Creating layer pool3
I0526 19:10:23.805472 14297 net.cpp:106] Creating Layer pool3
I0526 19:10:23.805482 14297 net.cpp:454] pool3 <- conv3
I0526 19:10:23.805495 14297 net.cpp:411] pool3 -> pool3
I0526 19:10:23.805567 14297 net.cpp:150] Setting up pool3
I0526 19:10:23.805580 14297 net.cpp:157] Top shape: 20 28 11 44 (271040)
I0526 19:10:23.805590 14297 net.cpp:165] Memory required for data: 29689040
I0526 19:10:23.805598 14297 layer_factory.hpp:77] Creating layer conv4
I0526 19:10:23.805613 14297 net.cpp:106] Creating Layer conv4
I0526 19:10:23.805624 14297 net.cpp:454] conv4 <- pool3
I0526 19:10:23.805639 14297 net.cpp:411] conv4 -> conv4
I0526 19:10:23.807687 14297 net.cpp:150] Setting up conv4
I0526 19:10:23.807709 14297 net.cpp:157] Top shape: 20 36 6 42 (181440)
I0526 19:10:23.807721 14297 net.cpp:165] Memory required for data: 30414800
I0526 19:10:23.807737 14297 layer_factory.hpp:77] Creating layer relu4
I0526 19:10:23.807750 14297 net.cpp:106] Creating Layer relu4
I0526 19:10:23.807760 14297 net.cpp:454] relu4 <- conv4
I0526 19:10:23.807775 14297 net.cpp:397] relu4 -> conv4 (in-place)
I0526 19:10:23.808251 14297 net.cpp:150] Setting up relu4
I0526 19:10:23.808267 14297 net.cpp:157] Top shape: 20 36 6 42 (181440)
I0526 19:10:23.808277 14297 net.cpp:165] Memory required for data: 31140560
I0526 19:10:23.808289 14297 layer_factory.hpp:77] Creating layer pool4
I0526 19:10:23.808301 14297 net.cpp:106] Creating Layer pool4
I0526 19:10:23.808311 14297 net.cpp:454] pool4 <- conv4
I0526 19:10:23.808326 14297 net.cpp:411] pool4 -> pool4
I0526 19:10:23.808398 14297 net.cpp:150] Setting up pool4
I0526 19:10:23.808411 14297 net.cpp:157] Top shape: 20 36 3 42 (90720)
I0526 19:10:23.808421 14297 net.cpp:165] Memory required for data: 31503440
I0526 19:10:23.808429 14297 layer_factory.hpp:77] Creating layer ip1
I0526 19:10:23.808444 14297 net.cpp:106] Creating Layer ip1
I0526 19:10:23.808455 14297 net.cpp:454] ip1 <- pool4
I0526 19:10:23.808470 14297 net.cpp:411] ip1 -> ip1
I0526 19:10:23.823801 14297 net.cpp:150] Setting up ip1
I0526 19:10:23.823830 14297 net.cpp:157] Top shape: 20 196 (3920)
I0526 19:10:23.823842 14297 net.cpp:165] Memory required for data: 31519120
I0526 19:10:23.823863 14297 layer_factory.hpp:77] Creating layer relu5
I0526 19:10:23.823879 14297 net.cpp:106] Creating Layer relu5
I0526 19:10:23.823889 14297 net.cpp:454] relu5 <- ip1
I0526 19:10:23.823904 14297 net.cpp:397] relu5 -> ip1 (in-place)
I0526 19:10:23.824252 14297 net.cpp:150] Setting up relu5
I0526 19:10:23.824266 14297 net.cpp:157] Top shape: 20 196 (3920)
I0526 19:10:23.824276 14297 net.cpp:165] Memory required for data: 31534800
I0526 19:10:23.824286 14297 layer_factory.hpp:77] Creating layer drop1
I0526 19:10:23.824306 14297 net.cpp:106] Creating Layer drop1
I0526 19:10:23.824316 14297 net.cpp:454] drop1 <- ip1
I0526 19:10:23.824328 14297 net.cpp:397] drop1 -> ip1 (in-place)
I0526 19:10:23.824374 14297 net.cpp:150] Setting up drop1
I0526 19:10:23.824388 14297 net.cpp:157] Top shape: 20 196 (3920)
I0526 19:10:23.824398 14297 net.cpp:165] Memory required for data: 31550480
I0526 19:10:23.824406 14297 layer_factory.hpp:77] Creating layer ip2
I0526 19:10:23.824420 14297 net.cpp:106] Creating Layer ip2
I0526 19:10:23.824430 14297 net.cpp:454] ip2 <- ip1
I0526 19:10:23.824443 14297 net.cpp:411] ip2 -> ip2
I0526 19:10:23.824924 14297 net.cpp:150] Setting up ip2
I0526 19:10:23.824939 14297 net.cpp:157] Top shape: 20 98 (1960)
I0526 19:10:23.824949 14297 net.cpp:165] Memory required for data: 31558320
I0526 19:10:23.824965 14297 layer_factory.hpp:77] Creating layer relu6
I0526 19:10:23.824990 14297 net.cpp:106] Creating Layer relu6
I0526 19:10:23.825000 14297 net.cpp:454] relu6 <- ip2
I0526 19:10:23.825012 14297 net.cpp:397] relu6 -> ip2 (in-place)
I0526 19:10:23.825541 14297 net.cpp:150] Setting up relu6
I0526 19:10:23.825556 14297 net.cpp:157] Top shape: 20 98 (1960)
I0526 19:10:23.825567 14297 net.cpp:165] Memory required for data: 31566160
I0526 19:10:23.825577 14297 layer_factory.hpp:77] Creating layer drop2
I0526 19:10:23.825590 14297 net.cpp:106] Creating Layer drop2
I0526 19:10:23.825601 14297 net.cpp:454] drop2 <- ip2
I0526 19:10:23.825614 14297 net.cpp:397] drop2 -> ip2 (in-place)
I0526 19:10:23.825659 14297 net.cpp:150] Setting up drop2
I0526 19:10:23.825671 14297 net.cpp:157] Top shape: 20 98 (1960)
I0526 19:10:23.825681 14297 net.cpp:165] Memory required for data: 31574000
I0526 19:10:23.825691 14297 layer_factory.hpp:77] Creating layer ip3
I0526 19:10:23.825706 14297 net.cpp:106] Creating Layer ip3
I0526 19:10:23.825716 14297 net.cpp:454] ip3 <- ip2
I0526 19:10:23.825731 14297 net.cpp:411] ip3 -> ip3
I0526 19:10:23.825951 14297 net.cpp:150] Setting up ip3
I0526 19:10:23.825965 14297 net.cpp:157] Top shape: 20 11 (220)
I0526 19:10:23.825974 14297 net.cpp:165] Memory required for data: 31574880
I0526 19:10:23.825990 14297 layer_factory.hpp:77] Creating layer drop3
I0526 19:10:23.826004 14297 net.cpp:106] Creating Layer drop3
I0526 19:10:23.826014 14297 net.cpp:454] drop3 <- ip3
I0526 19:10:23.826026 14297 net.cpp:397] drop3 -> ip3 (in-place)
I0526 19:10:23.826067 14297 net.cpp:150] Setting up drop3
I0526 19:10:23.826081 14297 net.cpp:157] Top shape: 20 11 (220)
I0526 19:10:23.826089 14297 net.cpp:165] Memory required for data: 31575760
I0526 19:10:23.826099 14297 layer_factory.hpp:77] Creating layer ip3_drop3_0_split
I0526 19:10:23.826112 14297 net.cpp:106] Creating Layer ip3_drop3_0_split
I0526 19:10:23.826122 14297 net.cpp:454] ip3_drop3_0_split <- ip3
I0526 19:10:23.826135 14297 net.cpp:411] ip3_drop3_0_split -> ip3_drop3_0_split_0
I0526 19:10:23.826150 14297 net.cpp:411] ip3_drop3_0_split -> ip3_drop3_0_split_1
I0526 19:10:23.826225 14297 net.cpp:150] Setting up ip3_drop3_0_split
I0526 19:10:23.826237 14297 net.cpp:157] Top shape: 20 11 (220)
I0526 19:10:23.826249 14297 net.cpp:157] Top shape: 20 11 (220)
I0526 19:10:23.826259 14297 net.cpp:165] Memory required for data: 31577520
I0526 19:10:23.826269 14297 layer_factory.hpp:77] Creating layer accuracy
I0526 19:10:23.826292 14297 net.cpp:106] Creating Layer accuracy
I0526 19:10:23.826302 14297 net.cpp:454] accuracy <- ip3_drop3_0_split_0
I0526 19:10:23.826311 14297 net.cpp:454] accuracy <- label_data_hdf5_1_split_0
I0526 19:10:23.826325 14297 net.cpp:411] accuracy -> accuracy
…
