…
I0526 17:36:22.643769   539 net.cpp:322] The NetState phase (0) differed from the phase (1) specified by a rule in layer data_hdf5
I0526 17:36:22.643831   539 net.cpp:322] The NetState phase (0) differed from the phase (1) specified by a rule in layer accuracy
I0526 17:36:22.644212   539 net.cpp:49] Initializing net from parameters: 
name: "caffe_test_127x50_x_unshifted"
state {
  phase: TRAIN
}
layer {
  name: "data_hdf5"
  type: "HDF5Data"
  top: "data"
  top: "label"
  include {
    phase: TRAIN
  }
  hdf5_data_param {
    source: "/lustre/atlas/proj-shared/hep105/caffe_titan/minosmatch_nukecczdefs_127x50_x_unshifted_me1Bmc.trainlist"
    batch_size: 20
  }
}
layer {
  name: "conv1"
  type: "Convolution"
  bottom: "data"
  top: "conv1"
  convolution_param {
    num_output: 12
    pad: 0
    stride: 1
    weight_filler {
      type: "xavier"
    }
    bias_filler {
      type: "constant"
    }
    kernel_h: 8
    kernel_w: 3
  }
}
layer {
  name: "relu1"
  type: "ReLU"
  bottom: "conv1"
  top: "conv1"
}
layer {
  name: "pool1"
  type: "Pooling"
  bottom: "conv1"
  top: "pool1"
  pooling_param {
    pool: MAX
    kernel_h: 2
    kernel_w: 1
    stride_h: 2
    stride_w: 1
  }
}
layer {
  name: "conv2"
  type: "Convolution"
  bottom: "pool1"
  top: "conv2"
  convolution_param {
    num_output: 20
    pad: 0
    stride: 1
    weight_filler {
      type: "xavier"
    }
    bias_filler {
      type: "constant"
    }
    kernel_h: 7
    kernel_w: 3
  }
}
layer {
  name: "relu2"
  type: "ReLU"
  bottom: "conv2"
  top: "conv2"
}
layer {
  name: "pool2"
  type: "Pooling"
  bottom: "conv2"
  top: "pool2"
  pooling_param {
    pool: MAX
    kernel_h: 2
    kernel_w: 1
    stride_h: 2
    stride_w: 1
  }
}
layer {
  name: "conv3"
  type: "Convolution"
  bottom: "pool2"
  top: "conv3"
  convolution_param {
    num_output: 28
    pad: 0
    stride: 1
    weight_filler {
      type: "xavier"
    }
    bias_filler {
      type: "constant"
    }
    kernel_h: 6
    kernel_w: 3
  }
}
layer {
  name: "relu3"
  type: "ReLU"
  bottom: "conv3"
  top: "conv3"
}
layer {
  name: "pool3"
  type: "Pooling"
  bottom: "conv3"
  top: "pool3"
  pooling_param {
    pool: MAX
    kernel_h: 2
    kernel_w: 1
    stride_h: 2
    stride_w: 1
  }
}
layer {
  name: "conv4"
  type: "Convolution"
  bottom: "pool3"
  top: "conv4"
  convolution_param {
    num_output: 36
    pad: 0
    stride: 1
    weight_filler {
      type: "xavier"
    }
    bias_filler {
      type: "constant"
    }
    kernel_h: 6
    kernel_w: 3
  }
}
layer {
  name: "relu4"
  type: "ReLU"
  bottom: "conv4"
  top: "conv4"
}
layer {
  name: "pool4"
  type: "Pooling"
  bottom: "conv4"
  top: "pool4"
  pooling_param {
    pool: MAX
    kernel_h: 2
    kernel_w: 1
    stride_h: 2
    stride_w: 1
  }
}
layer {
  name: "ip1"
  type: "InnerProduct"
  bottom: "pool4"
  top: "ip1"
  inner_product_param {
    num_output: 196
    weight_filler {
      type: "xavier"
    }
    bias_filler {
      type: "constant"
    }
  }
}
layer {
  name: "relu5"
  type: "ReLU"
  bottom: "ip1"
  top: "ip1"
}
layer {
  name: "drop1"
  type: "Dropout"
  bottom: "ip1"
  top: "ip1"
  dropout_param {
    dropout_ratio: 0.5
  }
}
layer {
  name: "ip2"
  type: "InnerProduct"
  bottom: "ip1"
  top: "ip2"
  inner_product_param {
    num_output: 98
    weight_filler {
      type: "xavier"
    }
    bias_filler {
      type: "constant"
    }
  }
}
layer {
  name: "relu6"
  type: "ReLU"
  bottom: "ip2"
  top: "ip2"
}
layer {
  name: "drop2"
  type: "Dropout"
  bottom: "ip2"
  top: "ip2"
  dropout_param {
    dropout_ratio: 0.5
  }
}
layer {
  name: "ip3"
  type: "InnerProduct"
  bottom: "ip2"
  top: "ip3"
  inner_product_param {
    num_output: 11
    weight_filler {
      type: "xavier"
    }
    bias_filler {
      type: "constant"
    }
  }
}
layer {
  name: "drop3"
  type: "Dropout"
  bottom: "ip3"
  top: "ip3"
  dropout_param {
    dropout_ratio: 0.5
  }
}
layer {
  name: "loss"
  type: "SoftmaxWithLoss"
  bottom: "ip3"
  bottom: "label"
  top: "loss"
}
I0526 17:36:22.644420   539 layer_factory.hpp:77] Creating layer data_hdf5
I0526 17:36:22.644449   539 net.cpp:106] Creating Layer data_hdf5
I0526 17:36:22.644474   539 net.cpp:411] data_hdf5 -> data
I0526 17:36:22.644507   539 net.cpp:411] data_hdf5 -> label
I0526 17:36:22.644544   539 hdf5_data_layer.cpp:79] Loading list of HDF5 filenames from: /lustre/atlas/proj-shared/hep105/caffe_titan/minosmatch_nukecczdefs_127x50_x_unshifted_me1Bmc.trainlist
I0526 17:36:22.645792   539 hdf5_data_layer.cpp:93] Number of HDF5 files: 15
I0526 17:36:22.648032   539 hdf5.cpp:32] Datatype class: H5T_FLOAT
I0526 17:36:44.148207   539 hdf5.cpp:35] Datatype class: H5T_INTEGER
I0526 17:36:44.153317   539 net.cpp:150] Setting up data_hdf5
I0526 17:36:44.153358   539 net.cpp:157] Top shape: 20 1 127 50 (127000)
I0526 17:36:44.153376   539 net.cpp:157] Top shape: 20 (20)
I0526 17:36:44.153388   539 net.cpp:165] Memory required for data: 508080
I0526 17:36:44.153408   539 layer_factory.hpp:77] Creating layer conv1
I0526 17:36:44.153453   539 net.cpp:106] Creating Layer conv1
I0526 17:36:44.153467   539 net.cpp:454] conv1 <- data
I0526 17:36:44.153492   539 net.cpp:411] conv1 -> conv1
I0526 17:36:44.516296   539 net.cpp:150] Setting up conv1
I0526 17:36:44.516351   539 net.cpp:157] Top shape: 20 12 120 48 (1382400)
I0526 17:36:44.516367   539 net.cpp:165] Memory required for data: 6037680
I0526 17:36:44.516397   539 layer_factory.hpp:77] Creating layer relu1
I0526 17:36:44.516427   539 net.cpp:106] Creating Layer relu1
I0526 17:36:44.516460   539 net.cpp:454] relu1 <- conv1
I0526 17:36:44.516476   539 net.cpp:397] relu1 -> conv1 (in-place)
I0526 17:36:44.517006   539 net.cpp:150] Setting up relu1
I0526 17:36:44.517030   539 net.cpp:157] Top shape: 20 12 120 48 (1382400)
I0526 17:36:44.517045   539 net.cpp:165] Memory required for data: 11567280
I0526 17:36:44.517056   539 layer_factory.hpp:77] Creating layer pool1
I0526 17:36:44.517087   539 net.cpp:106] Creating Layer pool1
I0526 17:36:44.517101   539 net.cpp:454] pool1 <- conv1
I0526 17:36:44.517117   539 net.cpp:411] pool1 -> pool1
I0526 17:36:44.517211   539 net.cpp:150] Setting up pool1
I0526 17:36:44.517230   539 net.cpp:157] Top shape: 20 12 60 48 (691200)
I0526 17:36:44.517244   539 net.cpp:165] Memory required for data: 14332080
I0526 17:36:44.517264   539 layer_factory.hpp:77] Creating layer conv2
I0526 17:36:44.517289   539 net.cpp:106] Creating Layer conv2
I0526 17:36:44.517303   539 net.cpp:454] conv2 <- pool1
I0526 17:36:44.517321   539 net.cpp:411] conv2 -> conv2
I0526 17:36:44.520028   539 net.cpp:150] Setting up conv2
I0526 17:36:44.520059   539 net.cpp:157] Top shape: 20 20 54 46 (993600)
I0526 17:36:44.520076   539 net.cpp:165] Memory required for data: 18306480
I0526 17:36:44.520103   539 layer_factory.hpp:77] Creating layer relu2
I0526 17:36:44.520130   539 net.cpp:106] Creating Layer relu2
I0526 17:36:44.520145   539 net.cpp:454] relu2 <- conv2
I0526 17:36:44.520161   539 net.cpp:397] relu2 -> conv2 (in-place)
I0526 17:36:44.520520   539 net.cpp:150] Setting up relu2
I0526 17:36:44.520540   539 net.cpp:157] Top shape: 20 20 54 46 (993600)
I0526 17:36:44.520555   539 net.cpp:165] Memory required for data: 22280880
I0526 17:36:44.520570   539 layer_factory.hpp:77] Creating layer pool2
I0526 17:36:44.520593   539 net.cpp:106] Creating Layer pool2
I0526 17:36:44.520606   539 net.cpp:454] pool2 <- conv2
I0526 17:36:44.520622   539 net.cpp:411] pool2 -> pool2
I0526 17:36:44.520719   539 net.cpp:150] Setting up pool2
I0526 17:36:44.520736   539 net.cpp:157] Top shape: 20 20 27 46 (496800)
I0526 17:36:44.520750   539 net.cpp:165] Memory required for data: 24268080
I0526 17:36:44.520771   539 layer_factory.hpp:77] Creating layer conv3
I0526 17:36:44.520792   539 net.cpp:106] Creating Layer conv3
I0526 17:36:44.520805   539 net.cpp:454] conv3 <- pool2
I0526 17:36:44.520822   539 net.cpp:411] conv3 -> conv3
I0526 17:36:44.522800   539 net.cpp:150] Setting up conv3
I0526 17:36:44.522825   539 net.cpp:157] Top shape: 20 28 22 44 (542080)
I0526 17:36:44.522846   539 net.cpp:165] Memory required for data: 26436400
I0526 17:36:44.522869   539 layer_factory.hpp:77] Creating layer relu3
I0526 17:36:44.522891   539 net.cpp:106] Creating Layer relu3
I0526 17:36:44.522913   539 net.cpp:454] relu3 <- conv3
I0526 17:36:44.522930   539 net.cpp:397] relu3 -> conv3 (in-place)
I0526 17:36:44.523422   539 net.cpp:150] Setting up relu3
I0526 17:36:44.523445   539 net.cpp:157] Top shape: 20 28 22 44 (542080)
I0526 17:36:44.523458   539 net.cpp:165] Memory required for data: 28604720
I0526 17:36:44.523475   539 layer_factory.hpp:77] Creating layer pool3
I0526 17:36:44.523491   539 net.cpp:106] Creating Layer pool3
I0526 17:36:44.523504   539 net.cpp:454] pool3 <- conv3
I0526 17:36:44.523529   539 net.cpp:411] pool3 -> pool3
I0526 17:36:44.523603   539 net.cpp:150] Setting up pool3
I0526 17:36:44.523628   539 net.cpp:157] Top shape: 20 28 11 44 (271040)
I0526 17:36:44.523641   539 net.cpp:165] Memory required for data: 29688880
I0526 17:36:44.523653   539 layer_factory.hpp:77] Creating layer conv4
I0526 17:36:44.523672   539 net.cpp:106] Creating Layer conv4
I0526 17:36:44.523701   539 net.cpp:454] conv4 <- pool3
I0526 17:36:44.523723   539 net.cpp:411] conv4 -> conv4
I0526 17:36:44.526460   539 net.cpp:150] Setting up conv4
I0526 17:36:44.526491   539 net.cpp:157] Top shape: 20 36 6 42 (181440)
I0526 17:36:44.526505   539 net.cpp:165] Memory required for data: 30414640
I0526 17:36:44.526530   539 layer_factory.hpp:77] Creating layer relu4
I0526 17:36:44.526556   539 net.cpp:106] Creating Layer relu4
I0526 17:36:44.526571   539 net.cpp:454] relu4 <- conv4
I0526 17:36:44.526587   539 net.cpp:397] relu4 -> conv4 (in-place)
I0526 17:36:44.527081   539 net.cpp:150] Setting up relu4
I0526 17:36:44.527103   539 net.cpp:157] Top shape: 20 36 6 42 (181440)
I0526 17:36:44.527117   539 net.cpp:165] Memory required for data: 31140400
I0526 17:36:44.527133   539 layer_factory.hpp:77] Creating layer pool4
I0526 17:36:44.527148   539 net.cpp:106] Creating Layer pool4
I0526 17:36:44.527169   539 net.cpp:454] pool4 <- conv4
I0526 17:36:44.527185   539 net.cpp:411] pool4 -> pool4
I0526 17:36:44.527268   539 net.cpp:150] Setting up pool4
I0526 17:36:44.527286   539 net.cpp:157] Top shape: 20 36 3 42 (90720)
I0526 17:36:44.527302   539 net.cpp:165] Memory required for data: 31503280
I0526 17:36:44.527313   539 layer_factory.hpp:77] Creating layer ip1
I0526 17:36:44.527343   539 net.cpp:106] Creating Layer ip1
I0526 17:36:44.527355   539 net.cpp:454] ip1 <- pool4
I0526 17:36:44.527371   539 net.cpp:411] ip1 -> ip1
I0526 17:36:44.542757   539 net.cpp:150] Setting up ip1
I0526 17:36:44.542789   539 net.cpp:157] Top shape: 20 196 (3920)
I0526 17:36:44.542804   539 net.cpp:165] Memory required for data: 31518960
I0526 17:36:44.542834   539 layer_factory.hpp:77] Creating layer relu5
I0526 17:36:44.542865   539 net.cpp:106] Creating Layer relu5
I0526 17:36:44.542878   539 net.cpp:454] relu5 <- ip1
I0526 17:36:44.542896   539 net.cpp:397] relu5 -> ip1 (in-place)
I0526 17:36:44.543257   539 net.cpp:150] Setting up relu5
I0526 17:36:44.543277   539 net.cpp:157] Top shape: 20 196 (3920)
I0526 17:36:44.543292   539 net.cpp:165] Memory required for data: 31534640
I0526 17:36:44.543306   539 layer_factory.hpp:77] Creating layer drop1
I0526 17:36:44.543337   539 net.cpp:106] Creating Layer drop1
I0526 17:36:44.543351   539 net.cpp:454] drop1 <- ip1
I0526 17:36:44.543372   539 net.cpp:397] drop1 -> ip1 (in-place)
I0526 17:36:44.543444   539 net.cpp:150] Setting up drop1
I0526 17:36:44.543462   539 net.cpp:157] Top shape: 20 196 (3920)
I0526 17:36:44.543473   539 net.cpp:165] Memory required for data: 31550320
I0526 17:36:44.543486   539 layer_factory.hpp:77] Creating layer ip2
I0526 17:36:44.543510   539 net.cpp:106] Creating Layer ip2
I0526 17:36:44.543524   539 net.cpp:454] ip2 <- ip1
I0526 17:36:44.543545   539 net.cpp:411] ip2 -> ip2
I0526 17:36:44.544034   539 net.cpp:150] Setting up ip2
I0526 17:36:44.544052   539 net.cpp:157] Top shape: 20 98 (1960)
I0526 17:36:44.544065   539 net.cpp:165] Memory required for data: 31558160
I0526 17:36:44.544085   539 layer_factory.hpp:77] Creating layer relu6
I0526 17:36:44.544107   539 net.cpp:106] Creating Layer relu6
I0526 17:36:44.544121   539 net.cpp:454] relu6 <- ip2
I0526 17:36:44.544137   539 net.cpp:397] relu6 -> ip2 (in-place)
I0526 17:36:44.544688   539 net.cpp:150] Setting up relu6
I0526 17:36:44.544711   539 net.cpp:157] Top shape: 20 98 (1960)
I0526 17:36:44.544725   539 net.cpp:165] Memory required for data: 31566000
I0526 17:36:44.544741   539 layer_factory.hpp:77] Creating layer drop2
I0526 17:36:44.544764   539 net.cpp:106] Creating Layer drop2
I0526 17:36:44.544778   539 net.cpp:454] drop2 <- ip2
I0526 17:36:44.544795   539 net.cpp:397] drop2 -> ip2 (in-place)
I0526 17:36:44.544852   539 net.cpp:150] Setting up drop2
I0526 17:36:44.544867   539 net.cpp:157] Top shape: 20 98 (1960)
I0526 17:36:44.544881   539 net.cpp:165] Memory required for data: 31573840
I0526 17:36:44.544893   539 layer_factory.hpp:77] Creating layer ip3
I0526 17:36:44.544914   539 net.cpp:106] Creating Layer ip3
I0526 17:36:44.544925   539 net.cpp:454] ip3 <- ip2
I0526 17:36:44.544948   539 net.cpp:411] ip3 -> ip3
I0526 17:36:44.545176   539 net.cpp:150] Setting up ip3
I0526 17:36:44.545193   539 net.cpp:157] Top shape: 20 11 (220)
I0526 17:36:44.545207   539 net.cpp:165] Memory required for data: 31574720
I0526 17:36:44.545227   539 layer_factory.hpp:77] Creating layer drop3
I0526 17:36:44.545248   539 net.cpp:106] Creating Layer drop3
I0526 17:36:44.545263   539 net.cpp:454] drop3 <- ip3
I0526 17:36:44.545277   539 net.cpp:397] drop3 -> ip3 (in-place)
I0526 17:36:44.545325   539 net.cpp:150] Setting up drop3
I0526 17:36:44.545346   539 net.cpp:157] Top shape: 20 11 (220)
I0526 17:36:44.545359   539 net.cpp:165] Memory required for data: 31575600
I0526 17:36:44.545377   539 layer_factory.hpp:77] Creating layer loss
I0526 17:36:44.545397   539 net.cpp:106] Creating Layer loss
I0526 17:36:44.545413   539 net.cpp:454] loss <- ip3
I0526 17:36:44.545433   539 net.cpp:454] loss <- label
I0526 17:36:44.545449   539 net.cpp:411] loss -> loss
I0526 17:36:44.545469   539 layer_factory.hpp:77] Creating layer loss
…
I0526 17:36:44.548287   539 solver.cpp:181] Creating test net (#0) specified by net file: /lustre/atlas/proj-shared/hep105/caffe_titan/caffe_workflow/logs_bslr/bs_20_lr_0.0035_2016-05-20T15.48.55.766925.prototxt
I0526 17:36:44.548367   539 net.cpp:322] The NetState phase (1) differed from the phase (0) specified by a rule in layer data_hdf5
I0526 17:36:44.548745   539 net.cpp:49] Initializing net from parameters: 
name: "caffe_test_127x50_x_unshifted"
state {
  phase: TEST
}
layer {
  name: "data_hdf5"
  type: "HDF5Data"
  top: "data"
  top: "label"
  include {
    phase: TEST
  }
  hdf5_data_param {
    source: "/lustre/atlas/proj-shared/hep105/caffe_titan/minosmatch_nukecczdefs_127x50_x_unshifted_me1Bmc.testlist"
    batch_size: 20
  }
}
layer {
  name: "conv1"
  type: "Convolution"
  bottom: "data"
  top: "conv1"
  convolution_param {
    num_output: 12
    pad: 0
    stride: 1
    weight_filler {
      type: "xavier"
    }
    bias_filler {
      type: "constant"
    }
    kernel_h: 8
    kernel_w: 3
  }
}
layer {
  name: "relu1"
  type: "ReLU"
  bottom: "conv1"
  top: "conv1"
}
layer {
  name: "pool1"
  type: "Pooling"
  bottom: "conv1"
  top: "pool1"
  pooling_param {
    pool: MAX
    kernel_h: 2
    kernel_w: 1
    stride_h: 2
    stride_w: 1
  }
}
layer {
  name: "conv2"
  type: "Convolution"
  bottom: "pool1"
  top: "conv2"
  convolution_param {
    num_output: 20
    pad: 0
    stride: 1
    weight_filler {
      type: "xavier"
    }
    bias_filler {
      type: "constant"
    }
    kernel_h: 7
    kernel_w: 3
  }
}
layer {
  name: "relu2"
  type: "ReLU"
  bottom: "conv2"
  top: "conv2"
}
layer {
  name: "pool2"
  type: "Pooling"
  bottom: "conv2"
  top: "pool2"
  pooling_param {
    pool: MAX
    kernel_h: 2
    kernel_w: 1
    stride_h: 2
    stride_w: 1
  }
}
layer {
  name: "conv3"
  type: "Convolution"
  bottom: "pool2"
  top: "conv3"
  convolution_param {
    num_output: 28
    pad: 0
    stride: 1
    weight_filler {
      type: "xavier"
    }
    bias_filler {
      type: "constant"
    }
    kernel_h: 6
    kernel_w: 3
  }
}
layer {
  name: "relu3"
  type: "ReLU"
  bottom: "conv3"
  top: "conv3"
}
layer {
  name: "pool3"
  type: "Pooling"
  bottom: "conv3"
  top: "pool3"
  pooling_param {
    pool: MAX
    kernel_h: 2
    kernel_w: 1
    stride_h: 2
    stride_w: 1
  }
}
layer {
  name: "conv4"
  type: "Convolution"
  bottom: "pool3"
  top: "conv4"
  convolution_param {
    num_output: 36
    pad: 0
    stride: 1
    weight_filler {
      type: "xavier"
    }
    bias_filler {
      type: "constant"
    }
    kernel_h: 6
    kernel_w: 3
  }
}
layer {
  name: "relu4"
  type: "ReLU"
  bottom: "conv4"
  top: "conv4"
}
layer {
  name: "pool4"
  type: "Pooling"
  bottom: "conv4"
  top: "pool4"
  pooling_param {
    pool: MAX
    kernel_h: 2
    kernel_w: 1
    stride_h: 2
    stride_w: 1
  }
}
layer {
  name: "ip1"
  type: "InnerProduct"
  bottom: "pool4"
  top: "ip1"
  inner_product_param {
    num_output: 196
    weight_filler {
      type: "xavier"
    }
    bias_filler {
      type: "constant"
    }
  }
}
layer {
  name: "relu5"
  type: "ReLU"
  bottom: "ip1"
  top: "ip1"
}
layer {
  name: "drop1"
  type: "Dropout"
  bottom: "ip1"
  top: "ip1"
  dropout_param {
    dropout_ratio: 0.5
  }
}
layer {
  name: "ip2"
  type: "InnerProduct"
  bottom: "ip1"
  top: "ip2"
  inner_product_param {
    num_output: 98
    weight_filler {
      type: "xavier"
    }
    bias_filler {
      type: "constant"
    }
  }
}
layer {
  name: "relu6"
  type: "ReLU"
  bottom: "ip2"
  top: "ip2"
}
layer {
  name: "drop2"
  type: "Dropout"
  bottom: "ip2"
  top: "ip2"
  dropout_param {
    dropout_ratio: 0.5
  }
}
layer {
  name: "ip3"
  type: "InnerProduct"
  bottom: "ip2"
  top: "ip3"
  inner_product_param {
    num_output: 11
    weight_filler {
      type: "xavier"
    }
    bias_filler {
      type: "constant"
    }
  }
}
layer {
  name: "drop3"
  type: "Dropout"
  bottom: "ip3"
  top: "ip3"
  dropout_param {
    dropout_ratio: 0.5
  }
}
layer {
  name: "accuracy"
  type: "Accuracy"
  bottom: "ip3"
  bottom: "label"
  top: "accuracy"
  include {
    phase: TEST
  }
}
layer {
  name: "loss"
  type: "SoftmaxWithLoss"
  bottom: "ip3"
  bottom: "label"
  top: "loss"
}
I0526 17:36:44.548966   539 layer_factory.hpp:77] Creating layer data_hdf5
I0526 17:36:44.548986   539 net.cpp:106] Creating Layer data_hdf5
I0526 17:36:44.549001   539 net.cpp:411] data_hdf5 -> data
I0526 17:36:44.549021   539 net.cpp:411] data_hdf5 -> label
I0526 17:36:44.549042   539 hdf5_data_layer.cpp:79] Loading list of HDF5 filenames from: /lustre/atlas/proj-shared/hep105/caffe_titan/minosmatch_nukecczdefs_127x50_x_unshifted_me1Bmc.testlist
I0526 17:36:44.550276   539 hdf5_data_layer.cpp:93] Number of HDF5 files: 3
I0526 17:37:05.880787   539 net.cpp:150] Setting up data_hdf5
I0526 17:37:05.880960   539 net.cpp:157] Top shape: 20 1 127 50 (127000)
I0526 17:37:05.880978   539 net.cpp:157] Top shape: 20 (20)
I0526 17:37:05.880990   539 net.cpp:165] Memory required for data: 508080
I0526 17:37:05.881006   539 layer_factory.hpp:77] Creating layer label_data_hdf5_1_split
I0526 17:37:05.881039   539 net.cpp:106] Creating Layer label_data_hdf5_1_split
I0526 17:37:05.881072   539 net.cpp:454] label_data_hdf5_1_split <- label
I0526 17:37:05.881089   539 net.cpp:411] label_data_hdf5_1_split -> label_data_hdf5_1_split_0
I0526 17:37:05.881113   539 net.cpp:411] label_data_hdf5_1_split -> label_data_hdf5_1_split_1
I0526 17:37:05.881199   539 net.cpp:150] Setting up label_data_hdf5_1_split
I0526 17:37:05.881217   539 net.cpp:157] Top shape: 20 (20)
I0526 17:37:05.881232   539 net.cpp:157] Top shape: 20 (20)
I0526 17:37:05.881243   539 net.cpp:165] Memory required for data: 508240
I0526 17:37:05.881256   539 layer_factory.hpp:77] Creating layer conv1
I0526 17:37:05.881290   539 net.cpp:106] Creating Layer conv1
I0526 17:37:05.881304   539 net.cpp:454] conv1 <- data
I0526 17:37:05.881320   539 net.cpp:411] conv1 -> conv1
I0526 17:37:05.883316   539 net.cpp:150] Setting up conv1
I0526 17:37:05.883342   539 net.cpp:157] Top shape: 20 12 120 48 (1382400)
I0526 17:37:05.883363   539 net.cpp:165] Memory required for data: 6037840
I0526 17:37:05.883388   539 layer_factory.hpp:77] Creating layer relu1
I0526 17:37:05.883409   539 net.cpp:106] Creating Layer relu1
I0526 17:37:05.883431   539 net.cpp:454] relu1 <- conv1
I0526 17:37:05.883448   539 net.cpp:397] relu1 -> conv1 (in-place)
I0526 17:37:05.883966   539 net.cpp:150] Setting up relu1
I0526 17:37:05.883990   539 net.cpp:157] Top shape: 20 12 120 48 (1382400)
I0526 17:37:05.884002   539 net.cpp:165] Memory required for data: 11567440
I0526 17:37:05.884016   539 layer_factory.hpp:77] Creating layer pool1
I0526 17:37:05.884045   539 net.cpp:106] Creating Layer pool1
I0526 17:37:05.884058   539 net.cpp:454] pool1 <- conv1
I0526 17:37:05.884074   539 net.cpp:411] pool1 -> pool1
I0526 17:37:05.884163   539 net.cpp:150] Setting up pool1
I0526 17:37:05.884181   539 net.cpp:157] Top shape: 20 12 60 48 (691200)
I0526 17:37:05.884196   539 net.cpp:165] Memory required for data: 14332240
I0526 17:37:05.884215   539 layer_factory.hpp:77] Creating layer conv2
I0526 17:37:05.884237   539 net.cpp:106] Creating Layer conv2
I0526 17:37:05.884256   539 net.cpp:454] conv2 <- pool1
I0526 17:37:05.884274   539 net.cpp:411] conv2 -> conv2
I0526 17:37:05.886236   539 net.cpp:150] Setting up conv2
I0526 17:37:05.886261   539 net.cpp:157] Top shape: 20 20 54 46 (993600)
I0526 17:37:05.886281   539 net.cpp:165] Memory required for data: 18306640
I0526 17:37:05.886304   539 layer_factory.hpp:77] Creating layer relu2
I0526 17:37:05.886323   539 net.cpp:106] Creating Layer relu2
I0526 17:37:05.886345   539 net.cpp:454] relu2 <- conv2
I0526 17:37:05.886363   539 net.cpp:397] relu2 -> conv2 (in-place)
I0526 17:37:05.886714   539 net.cpp:150] Setting up relu2
I0526 17:37:05.886735   539 net.cpp:157] Top shape: 20 20 54 46 (993600)
I0526 17:37:05.886749   539 net.cpp:165] Memory required for data: 22281040
I0526 17:37:05.886764   539 layer_factory.hpp:77] Creating layer pool2
I0526 17:37:05.886786   539 net.cpp:106] Creating Layer pool2
I0526 17:37:05.886801   539 net.cpp:454] pool2 <- conv2
I0526 17:37:05.886816   539 net.cpp:411] pool2 -> pool2
I0526 17:37:05.886904   539 net.cpp:150] Setting up pool2
I0526 17:37:05.886921   539 net.cpp:157] Top shape: 20 20 27 46 (496800)
I0526 17:37:05.886936   539 net.cpp:165] Memory required for data: 24268240
I0526 17:37:05.886948   539 layer_factory.hpp:77] Creating layer conv3
I0526 17:37:05.886977   539 net.cpp:106] Creating Layer conv3
I0526 17:37:05.886997   539 net.cpp:454] conv3 <- pool2
I0526 17:37:05.887014   539 net.cpp:411] conv3 -> conv3
I0526 17:37:05.889021   539 net.cpp:150] Setting up conv3
I0526 17:37:05.889046   539 net.cpp:157] Top shape: 20 28 22 44 (542080)
I0526 17:37:05.889065   539 net.cpp:165] Memory required for data: 26436560
I0526 17:37:05.889087   539 layer_factory.hpp:77] Creating layer relu3
I0526 17:37:05.889129   539 net.cpp:106] Creating Layer relu3
I0526 17:37:05.889143   539 net.cpp:454] relu3 <- conv3
I0526 17:37:05.889160   539 net.cpp:397] relu3 -> conv3 (in-place)
I0526 17:37:05.889664   539 net.cpp:150] Setting up relu3
I0526 17:37:05.889688   539 net.cpp:157] Top shape: 20 28 22 44 (542080)
I0526 17:37:05.889703   539 net.cpp:165] Memory required for data: 28604880
I0526 17:37:05.889717   539 layer_factory.hpp:77] Creating layer pool3
I0526 17:37:05.889741   539 net.cpp:106] Creating Layer pool3
I0526 17:37:05.889755   539 net.cpp:454] pool3 <- conv3
I0526 17:37:05.889771   539 net.cpp:411] pool3 -> pool3
I0526 17:37:05.889858   539 net.cpp:150] Setting up pool3
I0526 17:37:05.889875   539 net.cpp:157] Top shape: 20 28 11 44 (271040)
I0526 17:37:05.889890   539 net.cpp:165] Memory required for data: 29689040
I0526 17:37:05.889902   539 layer_factory.hpp:77] Creating layer conv4
I0526 17:37:05.889930   539 net.cpp:106] Creating Layer conv4
I0526 17:37:05.889951   539 net.cpp:454] conv4 <- pool3
I0526 17:37:05.889968   539 net.cpp:411] conv4 -> conv4
I0526 17:37:05.892061   539 net.cpp:150] Setting up conv4
I0526 17:37:05.892086   539 net.cpp:157] Top shape: 20 36 6 42 (181440)
I0526 17:37:05.892104   539 net.cpp:165] Memory required for data: 30414800
I0526 17:37:05.892123   539 layer_factory.hpp:77] Creating layer relu4
I0526 17:37:05.892143   539 net.cpp:106] Creating Layer relu4
I0526 17:37:05.892155   539 net.cpp:454] relu4 <- conv4
I0526 17:37:05.892181   539 net.cpp:397] relu4 -> conv4 (in-place)
I0526 17:37:05.892670   539 net.cpp:150] Setting up relu4
I0526 17:37:05.892693   539 net.cpp:157] Top shape: 20 36 6 42 (181440)
I0526 17:37:05.892706   539 net.cpp:165] Memory required for data: 31140560
I0526 17:37:05.892719   539 layer_factory.hpp:77] Creating layer pool4
I0526 17:37:05.892738   539 net.cpp:106] Creating Layer pool4
I0526 17:37:05.892760   539 net.cpp:454] pool4 <- conv4
I0526 17:37:05.892777   539 net.cpp:411] pool4 -> pool4
I0526 17:37:05.892863   539 net.cpp:150] Setting up pool4
I0526 17:37:05.892880   539 net.cpp:157] Top shape: 20 36 3 42 (90720)
I0526 17:37:05.892894   539 net.cpp:165] Memory required for data: 31503440
I0526 17:37:05.892906   539 layer_factory.hpp:77] Creating layer ip1
I0526 17:37:05.892930   539 net.cpp:106] Creating Layer ip1
I0526 17:37:05.892945   539 net.cpp:454] ip1 <- pool4
I0526 17:37:05.892961   539 net.cpp:411] ip1 -> ip1
I0526 17:37:05.908323   539 net.cpp:150] Setting up ip1
I0526 17:37:05.908355   539 net.cpp:157] Top shape: 20 196 (3920)
I0526 17:37:05.908376   539 net.cpp:165] Memory required for data: 31519120
I0526 17:37:05.908403   539 layer_factory.hpp:77] Creating layer relu5
I0526 17:37:05.908427   539 net.cpp:106] Creating Layer relu5
I0526 17:37:05.908452   539 net.cpp:454] relu5 <- ip1
I0526 17:37:05.908468   539 net.cpp:397] relu5 -> ip1 (in-place)
I0526 17:37:05.908833   539 net.cpp:150] Setting up relu5
I0526 17:37:05.908852   539 net.cpp:157] Top shape: 20 196 (3920)
I0526 17:37:05.908865   539 net.cpp:165] Memory required for data: 31534800
I0526 17:37:05.908877   539 layer_factory.hpp:77] Creating layer drop1
I0526 17:37:05.908911   539 net.cpp:106] Creating Layer drop1
I0526 17:37:05.908926   539 net.cpp:454] drop1 <- ip1
I0526 17:37:05.908941   539 net.cpp:397] drop1 -> ip1 (in-place)
I0526 17:37:05.909000   539 net.cpp:150] Setting up drop1
I0526 17:37:05.909018   539 net.cpp:157] Top shape: 20 196 (3920)
I0526 17:37:05.909030   539 net.cpp:165] Memory required for data: 31550480
I0526 17:37:05.909042   539 layer_factory.hpp:77] Creating layer ip2
I0526 17:37:05.909062   539 net.cpp:106] Creating Layer ip2
I0526 17:37:05.909075   539 net.cpp:454] ip2 <- ip1
I0526 17:37:05.909098   539 net.cpp:411] ip2 -> ip2
I0526 17:37:05.909596   539 net.cpp:150] Setting up ip2
I0526 17:37:05.909615   539 net.cpp:157] Top shape: 20 98 (1960)
I0526 17:37:05.909628   539 net.cpp:165] Memory required for data: 31558320
I0526 17:37:05.909649   539 layer_factory.hpp:77] Creating layer relu6
I0526 17:37:05.909684   539 net.cpp:106] Creating Layer relu6
I0526 17:37:05.909698   539 net.cpp:454] relu6 <- ip2
I0526 17:37:05.909714   539 net.cpp:397] relu6 -> ip2 (in-place)
I0526 17:37:05.910287   539 net.cpp:150] Setting up relu6
I0526 17:37:05.910310   539 net.cpp:157] Top shape: 20 98 (1960)
I0526 17:37:05.910323   539 net.cpp:165] Memory required for data: 31566160
I0526 17:37:05.910336   539 layer_factory.hpp:77] Creating layer drop2
I0526 17:37:05.910367   539 net.cpp:106] Creating Layer drop2
I0526 17:37:05.910383   539 net.cpp:454] drop2 <- ip2
I0526 17:37:05.910403   539 net.cpp:397] drop2 -> ip2 (in-place)
I0526 17:37:05.910454   539 net.cpp:150] Setting up drop2
I0526 17:37:05.910476   539 net.cpp:157] Top shape: 20 98 (1960)
I0526 17:37:05.910490   539 net.cpp:165] Memory required for data: 31574000
I0526 17:37:05.910501   539 layer_factory.hpp:77] Creating layer ip3
I0526 17:37:05.910518   539 net.cpp:106] Creating Layer ip3
I0526 17:37:05.910533   539 net.cpp:454] ip3 <- ip2
I0526 17:37:05.910557   539 net.cpp:411] ip3 -> ip3
I0526 17:37:05.910796   539 net.cpp:150] Setting up ip3
I0526 17:37:05.910815   539 net.cpp:157] Top shape: 20 11 (220)
I0526 17:37:05.910828   539 net.cpp:165] Memory required for data: 31574880
I0526 17:37:05.910850   539 layer_factory.hpp:77] Creating layer drop3
I0526 17:37:05.910871   539 net.cpp:106] Creating Layer drop3
I0526 17:37:05.910884   539 net.cpp:454] drop3 <- ip3
I0526 17:37:05.910900   539 net.cpp:397] drop3 -> ip3 (in-place)
I0526 17:37:05.910948   539 net.cpp:150] Setting up drop3
I0526 17:37:05.910970   539 net.cpp:157] Top shape: 20 11 (220)
I0526 17:37:05.910984   539 net.cpp:165] Memory required for data: 31575760
I0526 17:37:05.911000   539 layer_factory.hpp:77] Creating layer ip3_drop3_0_split
I0526 17:37:05.911016   539 net.cpp:106] Creating Layer ip3_drop3_0_split
I0526 17:37:05.911028   539 net.cpp:454] ip3_drop3_0_split <- ip3
I0526 17:37:05.911046   539 net.cpp:411] ip3_drop3_0_split -> ip3_drop3_0_split_0
I0526 17:37:05.911072   539 net.cpp:411] ip3_drop3_0_split -> ip3_drop3_0_split_1
I0526 17:37:05.911181   539 net.cpp:150] Setting up ip3_drop3_0_split
I0526 17:37:05.911200   539 net.cpp:157] Top shape: 20 11 (220)
I0526 17:37:05.911216   539 net.cpp:157] Top shape: 20 11 (220)
I0526 17:37:05.911231   539 net.cpp:165] Memory required for data: 31577520
I0526 17:37:05.911242   539 layer_factory.hpp:77] Creating layer accuracy
I0526 17:37:05.911272   539 net.cpp:106] Creating Layer accuracy
I0526 17:37:05.911284   539 net.cpp:454] accuracy <- ip3_drop3_0_split_0
I0526 17:37:05.911298   539 net.cpp:454] accuracy <- label_data_hdf5_1_split_0
I0526 17:37:05.911319   539 net.cpp:411] accuracy -> accuracy
…
