…
I0526 13:34:19.975054 32260 net.cpp:322] The NetState phase (0) differed from the phase (1) specified by a rule in layer data_hdf5
I0526 13:34:19.975111 32260 net.cpp:322] The NetState phase (0) differed from the phase (1) specified by a rule in layer accuracy
I0526 13:34:19.975458 32260 net.cpp:49] Initializing net from parameters: 
name: "caffe_test_127x50_x_unshifted"
state {
  phase: TRAIN
}
layer {
  name: "data_hdf5"
  type: "HDF5Data"
  top: "data"
  top: "label"
  include {
    phase: TRAIN
  }
  hdf5_data_param {
    source: "/lustre/atlas/proj-shared/hep105/caffe_titan/minosmatch_nukecczdefs_127x50_x_unshifted_me1Bmc.trainlist"
    batch_size: 20
  }
}
layer {
  name: "conv1"
  type: "Convolution"
  bottom: "data"
  top: "conv1"
  convolution_param {
    num_output: 12
    pad: 0
    stride: 1
    weight_filler {
      type: "xavier"
    }
    bias_filler {
      type: "constant"
    }
    kernel_h: 8
    kernel_w: 3
  }
}
layer {
  name: "relu1"
  type: "ReLU"
  bottom: "conv1"
  top: "conv1"
}
layer {
  name: "pool1"
  type: "Pooling"
  bottom: "conv1"
  top: "pool1"
  pooling_param {
    pool: MAX
    kernel_h: 2
    kernel_w: 1
    stride_h: 2
    stride_w: 1
  }
}
layer {
  name: "conv2"
  type: "Convolution"
  bottom: "pool1"
  top: "conv2"
  convolution_param {
    num_output: 20
    pad: 0
    stride: 1
    weight_filler {
      type: "xavier"
    }
    bias_filler {
      type: "constant"
    }
    kernel_h: 7
    kernel_w: 3
  }
}
layer {
  name: "relu2"
  type: "ReLU"
  bottom: "conv2"
  top: "conv2"
}
layer {
  name: "pool2"
  type: "Pooling"
  bottom: "conv2"
  top: "pool2"
  pooling_param {
    pool: MAX
    kernel_h: 2
    kernel_w: 1
    stride_h: 2
    stride_w: 1
  }
}
layer {
  name: "conv3"
  type: "Convolution"
  bottom: "pool2"
  top: "conv3"
  convolution_param {
    num_output: 28
    pad: 0
    stride: 1
    weight_filler {
      type: "xavier"
    }
    bias_filler {
      type: "constant"
    }
    kernel_h: 6
    kernel_w: 3
  }
}
layer {
  name: "relu3"
  type: "ReLU"
  bottom: "conv3"
  top: "conv3"
}
layer {
  name: "pool3"
  type: "Pooling"
  bottom: "conv3"
  top: "pool3"
  pooling_param {
    pool: MAX
    kernel_h: 2
    kernel_w: 1
    stride_h: 2
    stride_w: 1
  }
}
layer {
  name: "conv4"
  type: "Convolution"
  bottom: "pool3"
  top: "conv4"
  convolution_param {
    num_output: 36
    pad: 0
    stride: 1
    weight_filler {
      type: "xavier"
    }
    bias_filler {
      type: "constant"
    }
    kernel_h: 6
    kernel_w: 3
  }
}
layer {
  name: "relu4"
  type: "ReLU"
  bottom: "conv4"
  top: "conv4"
}
layer {
  name: "pool4"
  type: "Pooling"
  bottom: "conv4"
  top: "pool4"
  pooling_param {
    pool: MAX
    kernel_h: 2
    kernel_w: 1
    stride_h: 2
    stride_w: 1
  }
}
layer {
  name: "ip1"
  type: "InnerProduct"
  bottom: "pool4"
  top: "ip1"
  inner_product_param {
    num_output: 196
    weight_filler {
      type: "xavier"
    }
    bias_filler {
      type: "constant"
    }
  }
}
layer {
  name: "relu5"
  type: "ReLU"
  bottom: "ip1"
  top: "ip1"
}
layer {
  name: "drop1"
  type: "Dropout"
  bottom: "ip1"
  top: "ip1"
  dropout_param {
    dropout_ratio: 0.5
  }
}
layer {
  name: "ip2"
  type: "InnerProduct"
  bottom: "ip1"
  top: "ip2"
  inner_product_param {
    num_output: 98
    weight_filler {
      type: "xavier"
    }
    bias_filler {
      type: "constant"
    }
  }
}
layer {
  name: "relu6"
  type: "ReLU"
  bottom: "ip2"
  top: "ip2"
}
layer {
  name: "drop2"
  type: "Dropout"
  bottom: "ip2"
  top: "ip2"
  dropout_param {
    dropout_ratio: 0.5
  }
}
layer {
  name: "ip3"
  type: "InnerProduct"
  bottom: "ip2"
  top: "ip3"
  inner_product_param {
    num_output: 11
    weight_filler {
      type: "xavier"
    }
    bias_filler {
      type: "constant"
    }
  }
}
layer {
  name: "drop3"
  type: "Dropout"
  bottom: "ip3"
  top: "ip3"
  dropout_param {
    dropout_ratio: 0.5
  }
}
layer {
  name: "loss"
  type: "SoftmaxWithLoss"
  bottom: "ip3"
  bottom: "label"
  top: "loss"
}
I0526 13:34:19.975641 32260 layer_factory.hpp:77] Creating layer data_hdf5
I0526 13:34:19.975666 32260 net.cpp:106] Creating Layer data_hdf5
I0526 13:34:19.975679 32260 net.cpp:411] data_hdf5 -> data
I0526 13:34:19.975714 32260 net.cpp:411] data_hdf5 -> label
I0526 13:34:19.975746 32260 hdf5_data_layer.cpp:79] Loading list of HDF5 filenames from: /lustre/atlas/proj-shared/hep105/caffe_titan/minosmatch_nukecczdefs_127x50_x_unshifted_me1Bmc.trainlist
I0526 13:34:19.991614 32260 hdf5_data_layer.cpp:93] Number of HDF5 files: 15
I0526 13:34:20.007470 32260 hdf5.cpp:32] Datatype class: H5T_FLOAT
I0526 13:34:41.598690 32260 hdf5.cpp:35] Datatype class: H5T_INTEGER
I0526 13:34:41.603808 32260 net.cpp:150] Setting up data_hdf5
I0526 13:34:41.603849 32260 net.cpp:157] Top shape: 20 1 127 50 (127000)
I0526 13:34:41.603863 32260 net.cpp:157] Top shape: 20 (20)
I0526 13:34:41.603873 32260 net.cpp:165] Memory required for data: 508080
I0526 13:34:41.603886 32260 layer_factory.hpp:77] Creating layer conv1
I0526 13:34:41.603921 32260 net.cpp:106] Creating Layer conv1
I0526 13:34:41.603932 32260 net.cpp:454] conv1 <- data
I0526 13:34:41.603955 32260 net.cpp:411] conv1 -> conv1
I0526 13:34:44.365991 32260 net.cpp:150] Setting up conv1
I0526 13:34:44.366039 32260 net.cpp:157] Top shape: 20 12 120 48 (1382400)
I0526 13:34:44.366050 32260 net.cpp:165] Memory required for data: 6037680
I0526 13:34:44.366080 32260 layer_factory.hpp:77] Creating layer relu1
I0526 13:34:44.366101 32260 net.cpp:106] Creating Layer relu1
I0526 13:34:44.366112 32260 net.cpp:454] relu1 <- conv1
I0526 13:34:44.366127 32260 net.cpp:397] relu1 -> conv1 (in-place)
I0526 13:34:44.366643 32260 net.cpp:150] Setting up relu1
I0526 13:34:44.366659 32260 net.cpp:157] Top shape: 20 12 120 48 (1382400)
I0526 13:34:44.366669 32260 net.cpp:165] Memory required for data: 11567280
I0526 13:34:44.366680 32260 layer_factory.hpp:77] Creating layer pool1
I0526 13:34:44.366698 32260 net.cpp:106] Creating Layer pool1
I0526 13:34:44.366708 32260 net.cpp:454] pool1 <- conv1
I0526 13:34:44.366721 32260 net.cpp:411] pool1 -> pool1
I0526 13:34:44.366801 32260 net.cpp:150] Setting up pool1
I0526 13:34:44.366816 32260 net.cpp:157] Top shape: 20 12 60 48 (691200)
I0526 13:34:44.366825 32260 net.cpp:165] Memory required for data: 14332080
I0526 13:34:44.366837 32260 layer_factory.hpp:77] Creating layer conv2
I0526 13:34:44.366858 32260 net.cpp:106] Creating Layer conv2
I0526 13:34:44.366869 32260 net.cpp:454] conv2 <- pool1
I0526 13:34:44.366883 32260 net.cpp:411] conv2 -> conv2
I0526 13:34:44.369604 32260 net.cpp:150] Setting up conv2
I0526 13:34:44.369632 32260 net.cpp:157] Top shape: 20 20 54 46 (993600)
I0526 13:34:44.369642 32260 net.cpp:165] Memory required for data: 18306480
I0526 13:34:44.369662 32260 layer_factory.hpp:77] Creating layer relu2
I0526 13:34:44.369676 32260 net.cpp:106] Creating Layer relu2
I0526 13:34:44.369685 32260 net.cpp:454] relu2 <- conv2
I0526 13:34:44.369699 32260 net.cpp:397] relu2 -> conv2 (in-place)
I0526 13:34:44.370041 32260 net.cpp:150] Setting up relu2
I0526 13:34:44.370055 32260 net.cpp:157] Top shape: 20 20 54 46 (993600)
I0526 13:34:44.370065 32260 net.cpp:165] Memory required for data: 22280880
I0526 13:34:44.370075 32260 layer_factory.hpp:77] Creating layer pool2
I0526 13:34:44.370088 32260 net.cpp:106] Creating Layer pool2
I0526 13:34:44.370098 32260 net.cpp:454] pool2 <- conv2
I0526 13:34:44.370111 32260 net.cpp:411] pool2 -> pool2
I0526 13:34:44.370193 32260 net.cpp:150] Setting up pool2
I0526 13:34:44.370206 32260 net.cpp:157] Top shape: 20 20 27 46 (496800)
I0526 13:34:44.370216 32260 net.cpp:165] Memory required for data: 24268080
I0526 13:34:44.370224 32260 layer_factory.hpp:77] Creating layer conv3
I0526 13:34:44.370244 32260 net.cpp:106] Creating Layer conv3
I0526 13:34:44.370254 32260 net.cpp:454] conv3 <- pool2
I0526 13:34:44.370267 32260 net.cpp:411] conv3 -> conv3
I0526 13:34:44.372210 32260 net.cpp:150] Setting up conv3
I0526 13:34:44.372227 32260 net.cpp:157] Top shape: 20 28 22 44 (542080)
I0526 13:34:44.372241 32260 net.cpp:165] Memory required for data: 26436400
I0526 13:34:44.372258 32260 layer_factory.hpp:77] Creating layer relu3
I0526 13:34:44.372275 32260 net.cpp:106] Creating Layer relu3
I0526 13:34:44.372285 32260 net.cpp:454] relu3 <- conv3
I0526 13:34:44.372298 32260 net.cpp:397] relu3 -> conv3 (in-place)
I0526 13:34:44.372766 32260 net.cpp:150] Setting up relu3
I0526 13:34:44.372782 32260 net.cpp:157] Top shape: 20 28 22 44 (542080)
I0526 13:34:44.372792 32260 net.cpp:165] Memory required for data: 28604720
I0526 13:34:44.372803 32260 layer_factory.hpp:77] Creating layer pool3
I0526 13:34:44.372817 32260 net.cpp:106] Creating Layer pool3
I0526 13:34:44.372825 32260 net.cpp:454] pool3 <- conv3
I0526 13:34:44.372838 32260 net.cpp:411] pool3 -> pool3
I0526 13:34:44.372906 32260 net.cpp:150] Setting up pool3
I0526 13:34:44.372920 32260 net.cpp:157] Top shape: 20 28 11 44 (271040)
I0526 13:34:44.372930 32260 net.cpp:165] Memory required for data: 29688880
I0526 13:34:44.372936 32260 layer_factory.hpp:77] Creating layer conv4
I0526 13:34:44.372954 32260 net.cpp:106] Creating Layer conv4
I0526 13:34:44.372966 32260 net.cpp:454] conv4 <- pool3
I0526 13:34:44.372979 32260 net.cpp:411] conv4 -> conv4
I0526 13:34:44.375716 32260 net.cpp:150] Setting up conv4
I0526 13:34:44.375744 32260 net.cpp:157] Top shape: 20 36 6 42 (181440)
I0526 13:34:44.375756 32260 net.cpp:165] Memory required for data: 30414640
I0526 13:34:44.375771 32260 layer_factory.hpp:77] Creating layer relu4
I0526 13:34:44.375784 32260 net.cpp:106] Creating Layer relu4
I0526 13:34:44.375795 32260 net.cpp:454] relu4 <- conv4
I0526 13:34:44.375808 32260 net.cpp:397] relu4 -> conv4 (in-place)
I0526 13:34:44.376271 32260 net.cpp:150] Setting up relu4
I0526 13:34:44.376286 32260 net.cpp:157] Top shape: 20 36 6 42 (181440)
I0526 13:34:44.376296 32260 net.cpp:165] Memory required for data: 31140400
I0526 13:34:44.376307 32260 layer_factory.hpp:77] Creating layer pool4
I0526 13:34:44.376320 32260 net.cpp:106] Creating Layer pool4
I0526 13:34:44.376330 32260 net.cpp:454] pool4 <- conv4
I0526 13:34:44.376343 32260 net.cpp:411] pool4 -> pool4
I0526 13:34:44.376411 32260 net.cpp:150] Setting up pool4
I0526 13:34:44.376425 32260 net.cpp:157] Top shape: 20 36 3 42 (90720)
I0526 13:34:44.376435 32260 net.cpp:165] Memory required for data: 31503280
I0526 13:34:44.376446 32260 layer_factory.hpp:77] Creating layer ip1
I0526 13:34:44.376463 32260 net.cpp:106] Creating Layer ip1
I0526 13:34:44.376473 32260 net.cpp:454] ip1 <- pool4
I0526 13:34:44.376488 32260 net.cpp:411] ip1 -> ip1
I0526 13:34:44.391978 32260 net.cpp:150] Setting up ip1
I0526 13:34:44.392002 32260 net.cpp:157] Top shape: 20 196 (3920)
I0526 13:34:44.392015 32260 net.cpp:165] Memory required for data: 31518960
I0526 13:34:44.392041 32260 layer_factory.hpp:77] Creating layer relu5
I0526 13:34:44.392056 32260 net.cpp:106] Creating Layer relu5
I0526 13:34:44.392066 32260 net.cpp:454] relu5 <- ip1
I0526 13:34:44.392081 32260 net.cpp:397] relu5 -> ip1 (in-place)
I0526 13:34:44.392421 32260 net.cpp:150] Setting up relu5
I0526 13:34:44.392436 32260 net.cpp:157] Top shape: 20 196 (3920)
I0526 13:34:44.392446 32260 net.cpp:165] Memory required for data: 31534640
I0526 13:34:44.392457 32260 layer_factory.hpp:77] Creating layer drop1
I0526 13:34:44.392479 32260 net.cpp:106] Creating Layer drop1
I0526 13:34:44.392489 32260 net.cpp:454] drop1 <- ip1
I0526 13:34:44.392503 32260 net.cpp:397] drop1 -> ip1 (in-place)
I0526 13:34:44.392561 32260 net.cpp:150] Setting up drop1
I0526 13:34:44.392575 32260 net.cpp:157] Top shape: 20 196 (3920)
I0526 13:34:44.392585 32260 net.cpp:165] Memory required for data: 31550320
I0526 13:34:44.392596 32260 layer_factory.hpp:77] Creating layer ip2
I0526 13:34:44.392613 32260 net.cpp:106] Creating Layer ip2
I0526 13:34:44.392624 32260 net.cpp:454] ip2 <- ip1
I0526 13:34:44.392637 32260 net.cpp:411] ip2 -> ip2
I0526 13:34:44.393100 32260 net.cpp:150] Setting up ip2
I0526 13:34:44.393113 32260 net.cpp:157] Top shape: 20 98 (1960)
I0526 13:34:44.393123 32260 net.cpp:165] Memory required for data: 31558160
I0526 13:34:44.393138 32260 layer_factory.hpp:77] Creating layer relu6
I0526 13:34:44.393151 32260 net.cpp:106] Creating Layer relu6
I0526 13:34:44.393160 32260 net.cpp:454] relu6 <- ip2
I0526 13:34:44.393173 32260 net.cpp:397] relu6 -> ip2 (in-place)
I0526 13:34:44.393689 32260 net.cpp:150] Setting up relu6
I0526 13:34:44.393705 32260 net.cpp:157] Top shape: 20 98 (1960)
I0526 13:34:44.393717 32260 net.cpp:165] Memory required for data: 31566000
I0526 13:34:44.393726 32260 layer_factory.hpp:77] Creating layer drop2
I0526 13:34:44.393739 32260 net.cpp:106] Creating Layer drop2
I0526 13:34:44.393749 32260 net.cpp:454] drop2 <- ip2
I0526 13:34:44.393761 32260 net.cpp:397] drop2 -> ip2 (in-place)
I0526 13:34:44.393803 32260 net.cpp:150] Setting up drop2
I0526 13:34:44.393817 32260 net.cpp:157] Top shape: 20 98 (1960)
I0526 13:34:44.393827 32260 net.cpp:165] Memory required for data: 31573840
I0526 13:34:44.393837 32260 layer_factory.hpp:77] Creating layer ip3
I0526 13:34:44.393851 32260 net.cpp:106] Creating Layer ip3
I0526 13:34:44.393859 32260 net.cpp:454] ip3 <- ip2
I0526 13:34:44.393872 32260 net.cpp:411] ip3 -> ip3
I0526 13:34:44.394093 32260 net.cpp:150] Setting up ip3
I0526 13:34:44.394105 32260 net.cpp:157] Top shape: 20 11 (220)
I0526 13:34:44.394115 32260 net.cpp:165] Memory required for data: 31574720
I0526 13:34:44.394130 32260 layer_factory.hpp:77] Creating layer drop3
I0526 13:34:44.394143 32260 net.cpp:106] Creating Layer drop3
I0526 13:34:44.394153 32260 net.cpp:454] drop3 <- ip3
I0526 13:34:44.394165 32260 net.cpp:397] drop3 -> ip3 (in-place)
I0526 13:34:44.394206 32260 net.cpp:150] Setting up drop3
I0526 13:34:44.394218 32260 net.cpp:157] Top shape: 20 11 (220)
I0526 13:34:44.394228 32260 net.cpp:165] Memory required for data: 31575600
I0526 13:34:44.394237 32260 layer_factory.hpp:77] Creating layer loss
I0526 13:34:44.394258 32260 net.cpp:106] Creating Layer loss
I0526 13:34:44.394268 32260 net.cpp:454] loss <- ip3
I0526 13:34:44.394279 32260 net.cpp:454] loss <- label
I0526 13:34:44.394290 32260 net.cpp:411] loss -> loss
I0526 13:34:44.394309 32260 layer_factory.hpp:77] Creating layer loss
…
I0526 13:34:44.397070 32260 solver.cpp:181] Creating test net (#0) specified by net file: /lustre/atlas/proj-shared/hep105/caffe_titan/caffe_workflow/logs_bslr/bs_20_lr_0.0015_2016-05-20T15.48.54.123639.prototxt
I0526 13:34:44.397141 32260 net.cpp:322] The NetState phase (1) differed from the phase (0) specified by a rule in layer data_hdf5
I0526 13:34:44.397496 32260 net.cpp:49] Initializing net from parameters: 
name: "caffe_test_127x50_x_unshifted"
state {
  phase: TEST
}
layer {
  name: "data_hdf5"
  type: "HDF5Data"
  top: "data"
  top: "label"
  include {
    phase: TEST
  }
  hdf5_data_param {
    source: "/lustre/atlas/proj-shared/hep105/caffe_titan/minosmatch_nukecczdefs_127x50_x_unshifted_me1Bmc.testlist"
    batch_size: 20
  }
}
layer {
  name: "conv1"
  type: "Convolution"
  bottom: "data"
  top: "conv1"
  convolution_param {
    num_output: 12
    pad: 0
    stride: 1
    weight_filler {
      type: "xavier"
    }
    bias_filler {
      type: "constant"
    }
    kernel_h: 8
    kernel_w: 3
  }
}
layer {
  name: "relu1"
  type: "ReLU"
  bottom: "conv1"
  top: "conv1"
}
layer {
  name: "pool1"
  type: "Pooling"
  bottom: "conv1"
  top: "pool1"
  pooling_param {
    pool: MAX
    kernel_h: 2
    kernel_w: 1
    stride_h: 2
    stride_w: 1
  }
}
layer {
  name: "conv2"
  type: "Convolution"
  bottom: "pool1"
  top: "conv2"
  convolution_param {
    num_output: 20
    pad: 0
    stride: 1
    weight_filler {
      type: "xavier"
    }
    bias_filler {
      type: "constant"
    }
    kernel_h: 7
    kernel_w: 3
  }
}
layer {
  name: "relu2"
  type: "ReLU"
  bottom: "conv2"
  top: "conv2"
}
layer {
  name: "pool2"
  type: "Pooling"
  bottom: "conv2"
  top: "pool2"
  pooling_param {
    pool: MAX
    kernel_h: 2
    kernel_w: 1
    stride_h: 2
    stride_w: 1
  }
}
layer {
  name: "conv3"
  type: "Convolution"
  bottom: "pool2"
  top: "conv3"
  convolution_param {
    num_output: 28
    pad: 0
    stride: 1
    weight_filler {
      type: "xavier"
    }
    bias_filler {
      type: "constant"
    }
    kernel_h: 6
    kernel_w: 3
  }
}
layer {
  name: "relu3"
  type: "ReLU"
  bottom: "conv3"
  top: "conv3"
}
layer {
  name: "pool3"
  type: "Pooling"
  bottom: "conv3"
  top: "pool3"
  pooling_param {
    pool: MAX
    kernel_h: 2
    kernel_w: 1
    stride_h: 2
    stride_w: 1
  }
}
layer {
  name: "conv4"
  type: "Convolution"
  bottom: "pool3"
  top: "conv4"
  convolution_param {
    num_output: 36
    pad: 0
    stride: 1
    weight_filler {
      type: "xavier"
    }
    bias_filler {
      type: "constant"
    }
    kernel_h: 6
    kernel_w: 3
  }
}
layer {
  name: "relu4"
  type: "ReLU"
  bottom: "conv4"
  top: "conv4"
}
layer {
  name: "pool4"
  type: "Pooling"
  bottom: "conv4"
  top: "pool4"
  pooling_param {
    pool: MAX
    kernel_h: 2
    kernel_w: 1
    stride_h: 2
    stride_w: 1
  }
}
layer {
  name: "ip1"
  type: "InnerProduct"
  bottom: "pool4"
  top: "ip1"
  inner_product_param {
    num_output: 196
    weight_filler {
      type: "xavier"
    }
    bias_filler {
      type: "constant"
    }
  }
}
layer {
  name: "relu5"
  type: "ReLU"
  bottom: "ip1"
  top: "ip1"
}
layer {
  name: "drop1"
  type: "Dropout"
  bottom: "ip1"
  top: "ip1"
  dropout_param {
    dropout_ratio: 0.5
  }
}
layer {
  name: "ip2"
  type: "InnerProduct"
  bottom: "ip1"
  top: "ip2"
  inner_product_param {
    num_output: 98
    weight_filler {
      type: "xavier"
    }
    bias_filler {
      type: "constant"
    }
  }
}
layer {
  name: "relu6"
  type: "ReLU"
  bottom: "ip2"
  top: "ip2"
}
layer {
  name: "drop2"
  type: "Dropout"
  bottom: "ip2"
  top: "ip2"
  dropout_param {
    dropout_ratio: 0.5
  }
}
layer {
  name: "ip3"
  type: "InnerProduct"
  bottom: "ip2"
  top: "ip3"
  inner_product_param {
    num_output: 11
    weight_filler {
      type: "xavier"
    }
    bias_filler {
      type: "constant"
    }
  }
}
layer {
  name: "drop3"
  type: "Dropout"
  bottom: "ip3"
  top: "ip3"
  dropout_param {
    dropout_ratio: 0.5
  }
}
layer {
  name: "accuracy"
  type: "Accuracy"
  bottom: "ip3"
  bottom: "label"
  top: "accuracy"
  include {
    phase: TEST
  }
}
layer {
  name: "loss"
  type: "SoftmaxWithLoss"
  bottom: "ip3"
  bottom: "label"
  top: "loss"
}
I0526 13:34:44.397686 32260 layer_factory.hpp:77] Creating layer data_hdf5
I0526 13:34:44.397701 32260 net.cpp:106] Creating Layer data_hdf5
I0526 13:34:44.397712 32260 net.cpp:411] data_hdf5 -> data
I0526 13:34:44.397729 32260 net.cpp:411] data_hdf5 -> label
I0526 13:34:44.397745 32260 hdf5_data_layer.cpp:79] Loading list of HDF5 filenames from: /lustre/atlas/proj-shared/hep105/caffe_titan/minosmatch_nukecczdefs_127x50_x_unshifted_me1Bmc.testlist
I0526 13:34:44.414448 32260 hdf5_data_layer.cpp:93] Number of HDF5 files: 3
I0526 13:35:05.870445 32260 net.cpp:150] Setting up data_hdf5
I0526 13:35:05.870610 32260 net.cpp:157] Top shape: 20 1 127 50 (127000)
I0526 13:35:05.870625 32260 net.cpp:157] Top shape: 20 (20)
I0526 13:35:05.870635 32260 net.cpp:165] Memory required for data: 508080
I0526 13:35:05.870649 32260 layer_factory.hpp:77] Creating layer label_data_hdf5_1_split
I0526 13:35:05.870676 32260 net.cpp:106] Creating Layer label_data_hdf5_1_split
I0526 13:35:05.870687 32260 net.cpp:454] label_data_hdf5_1_split <- label
I0526 13:35:05.870702 32260 net.cpp:411] label_data_hdf5_1_split -> label_data_hdf5_1_split_0
I0526 13:35:05.870723 32260 net.cpp:411] label_data_hdf5_1_split -> label_data_hdf5_1_split_1
I0526 13:35:05.870798 32260 net.cpp:150] Setting up label_data_hdf5_1_split
I0526 13:35:05.870812 32260 net.cpp:157] Top shape: 20 (20)
I0526 13:35:05.870825 32260 net.cpp:157] Top shape: 20 (20)
I0526 13:35:05.870834 32260 net.cpp:165] Memory required for data: 508240
I0526 13:35:05.870844 32260 layer_factory.hpp:77] Creating layer conv1
I0526 13:35:05.870867 32260 net.cpp:106] Creating Layer conv1
I0526 13:35:05.870877 32260 net.cpp:454] conv1 <- data
I0526 13:35:05.870892 32260 net.cpp:411] conv1 -> conv1
I0526 13:35:05.872817 32260 net.cpp:150] Setting up conv1
I0526 13:35:05.872841 32260 net.cpp:157] Top shape: 20 12 120 48 (1382400)
I0526 13:35:05.872853 32260 net.cpp:165] Memory required for data: 6037840
I0526 13:35:05.872874 32260 layer_factory.hpp:77] Creating layer relu1
I0526 13:35:05.872889 32260 net.cpp:106] Creating Layer relu1
I0526 13:35:05.872898 32260 net.cpp:454] relu1 <- conv1
I0526 13:35:05.872911 32260 net.cpp:397] relu1 -> conv1 (in-place)
I0526 13:35:05.873407 32260 net.cpp:150] Setting up relu1
I0526 13:35:05.873425 32260 net.cpp:157] Top shape: 20 12 120 48 (1382400)
I0526 13:35:05.873435 32260 net.cpp:165] Memory required for data: 11567440
I0526 13:35:05.873445 32260 layer_factory.hpp:77] Creating layer pool1
I0526 13:35:05.873461 32260 net.cpp:106] Creating Layer pool1
I0526 13:35:05.873471 32260 net.cpp:454] pool1 <- conv1
I0526 13:35:05.873484 32260 net.cpp:411] pool1 -> pool1
I0526 13:35:05.873559 32260 net.cpp:150] Setting up pool1
I0526 13:35:05.873572 32260 net.cpp:157] Top shape: 20 12 60 48 (691200)
I0526 13:35:05.873581 32260 net.cpp:165] Memory required for data: 14332240
I0526 13:35:05.873592 32260 layer_factory.hpp:77] Creating layer conv2
I0526 13:35:05.873610 32260 net.cpp:106] Creating Layer conv2
I0526 13:35:05.873620 32260 net.cpp:454] conv2 <- pool1
I0526 13:35:05.873636 32260 net.cpp:411] conv2 -> conv2
I0526 13:35:05.875562 32260 net.cpp:150] Setting up conv2
I0526 13:35:05.875586 32260 net.cpp:157] Top shape: 20 20 54 46 (993600)
I0526 13:35:05.875596 32260 net.cpp:165] Memory required for data: 18306640
I0526 13:35:05.875614 32260 layer_factory.hpp:77] Creating layer relu2
I0526 13:35:05.875627 32260 net.cpp:106] Creating Layer relu2
I0526 13:35:05.875638 32260 net.cpp:454] relu2 <- conv2
I0526 13:35:05.875649 32260 net.cpp:397] relu2 -> conv2 (in-place)
I0526 13:35:05.875983 32260 net.cpp:150] Setting up relu2
I0526 13:35:05.875998 32260 net.cpp:157] Top shape: 20 20 54 46 (993600)
I0526 13:35:05.876008 32260 net.cpp:165] Memory required for data: 22281040
I0526 13:35:05.876018 32260 layer_factory.hpp:77] Creating layer pool2
I0526 13:35:05.876030 32260 net.cpp:106] Creating Layer pool2
I0526 13:35:05.876039 32260 net.cpp:454] pool2 <- conv2
I0526 13:35:05.876051 32260 net.cpp:411] pool2 -> pool2
I0526 13:35:05.876123 32260 net.cpp:150] Setting up pool2
I0526 13:35:05.876137 32260 net.cpp:157] Top shape: 20 20 27 46 (496800)
I0526 13:35:05.876147 32260 net.cpp:165] Memory required for data: 24268240
I0526 13:35:05.876157 32260 layer_factory.hpp:77] Creating layer conv3
I0526 13:35:05.876173 32260 net.cpp:106] Creating Layer conv3
I0526 13:35:05.876184 32260 net.cpp:454] conv3 <- pool2
I0526 13:35:05.876199 32260 net.cpp:411] conv3 -> conv3
I0526 13:35:05.878177 32260 net.cpp:150] Setting up conv3
I0526 13:35:05.878201 32260 net.cpp:157] Top shape: 20 28 22 44 (542080)
I0526 13:35:05.878212 32260 net.cpp:165] Memory required for data: 26436560
I0526 13:35:05.878231 32260 layer_factory.hpp:77] Creating layer relu3
I0526 13:35:05.878257 32260 net.cpp:106] Creating Layer relu3
I0526 13:35:05.878267 32260 net.cpp:454] relu3 <- conv3
I0526 13:35:05.878279 32260 net.cpp:397] relu3 -> conv3 (in-place)
I0526 13:35:05.878751 32260 net.cpp:150] Setting up relu3
I0526 13:35:05.878767 32260 net.cpp:157] Top shape: 20 28 22 44 (542080)
I0526 13:35:05.878777 32260 net.cpp:165] Memory required for data: 28604880
I0526 13:35:05.878787 32260 layer_factory.hpp:77] Creating layer pool3
I0526 13:35:05.878799 32260 net.cpp:106] Creating Layer pool3
I0526 13:35:05.878809 32260 net.cpp:454] pool3 <- conv3
I0526 13:35:05.878823 32260 net.cpp:411] pool3 -> pool3
I0526 13:35:05.878895 32260 net.cpp:150] Setting up pool3
I0526 13:35:05.878907 32260 net.cpp:157] Top shape: 20 28 11 44 (271040)
I0526 13:35:05.878917 32260 net.cpp:165] Memory required for data: 29689040
I0526 13:35:05.878927 32260 layer_factory.hpp:77] Creating layer conv4
I0526 13:35:05.878947 32260 net.cpp:106] Creating Layer conv4
I0526 13:35:05.878957 32260 net.cpp:454] conv4 <- pool3
I0526 13:35:05.878971 32260 net.cpp:411] conv4 -> conv4
I0526 13:35:05.881019 32260 net.cpp:150] Setting up conv4
I0526 13:35:05.881042 32260 net.cpp:157] Top shape: 20 36 6 42 (181440)
I0526 13:35:05.881054 32260 net.cpp:165] Memory required for data: 30414800
I0526 13:35:05.881069 32260 layer_factory.hpp:77] Creating layer relu4
I0526 13:35:05.881083 32260 net.cpp:106] Creating Layer relu4
I0526 13:35:05.881093 32260 net.cpp:454] relu4 <- conv4
I0526 13:35:05.881106 32260 net.cpp:397] relu4 -> conv4 (in-place)
I0526 13:35:05.881575 32260 net.cpp:150] Setting up relu4
I0526 13:35:05.881592 32260 net.cpp:157] Top shape: 20 36 6 42 (181440)
I0526 13:35:05.881603 32260 net.cpp:165] Memory required for data: 31140560
I0526 13:35:05.881613 32260 layer_factory.hpp:77] Creating layer pool4
I0526 13:35:05.881625 32260 net.cpp:106] Creating Layer pool4
I0526 13:35:05.881635 32260 net.cpp:454] pool4 <- conv4
I0526 13:35:05.881649 32260 net.cpp:411] pool4 -> pool4
I0526 13:35:05.881721 32260 net.cpp:150] Setting up pool4
I0526 13:35:05.881734 32260 net.cpp:157] Top shape: 20 36 3 42 (90720)
I0526 13:35:05.881744 32260 net.cpp:165] Memory required for data: 31503440
I0526 13:35:05.881757 32260 layer_factory.hpp:77] Creating layer ip1
I0526 13:35:05.881770 32260 net.cpp:106] Creating Layer ip1
I0526 13:35:05.881780 32260 net.cpp:454] ip1 <- pool4
I0526 13:35:05.881795 32260 net.cpp:411] ip1 -> ip1
I0526 13:35:05.897189 32260 net.cpp:150] Setting up ip1
I0526 13:35:05.897217 32260 net.cpp:157] Top shape: 20 196 (3920)
I0526 13:35:05.897228 32260 net.cpp:165] Memory required for data: 31519120
I0526 13:35:05.897251 32260 layer_factory.hpp:77] Creating layer relu5
I0526 13:35:05.897266 32260 net.cpp:106] Creating Layer relu5
I0526 13:35:05.897276 32260 net.cpp:454] relu5 <- ip1
I0526 13:35:05.897290 32260 net.cpp:397] relu5 -> ip1 (in-place)
I0526 13:35:05.897639 32260 net.cpp:150] Setting up relu5
I0526 13:35:05.897653 32260 net.cpp:157] Top shape: 20 196 (3920)
I0526 13:35:05.897663 32260 net.cpp:165] Memory required for data: 31534800
I0526 13:35:05.897675 32260 layer_factory.hpp:77] Creating layer drop1
I0526 13:35:05.897692 32260 net.cpp:106] Creating Layer drop1
I0526 13:35:05.897702 32260 net.cpp:454] drop1 <- ip1
I0526 13:35:05.897716 32260 net.cpp:397] drop1 -> ip1 (in-place)
I0526 13:35:05.897761 32260 net.cpp:150] Setting up drop1
I0526 13:35:05.897774 32260 net.cpp:157] Top shape: 20 196 (3920)
I0526 13:35:05.897784 32260 net.cpp:165] Memory required for data: 31550480
I0526 13:35:05.897795 32260 layer_factory.hpp:77] Creating layer ip2
I0526 13:35:05.897809 32260 net.cpp:106] Creating Layer ip2
I0526 13:35:05.897819 32260 net.cpp:454] ip2 <- ip1
I0526 13:35:05.897832 32260 net.cpp:411] ip2 -> ip2
I0526 13:35:05.898316 32260 net.cpp:150] Setting up ip2
I0526 13:35:05.898329 32260 net.cpp:157] Top shape: 20 98 (1960)
I0526 13:35:05.898340 32260 net.cpp:165] Memory required for data: 31558320
I0526 13:35:05.898355 32260 layer_factory.hpp:77] Creating layer relu6
I0526 13:35:05.898380 32260 net.cpp:106] Creating Layer relu6
I0526 13:35:05.898391 32260 net.cpp:454] relu6 <- ip2
I0526 13:35:05.898403 32260 net.cpp:397] relu6 -> ip2 (in-place)
I0526 13:35:05.898933 32260 net.cpp:150] Setting up relu6
I0526 13:35:05.898954 32260 net.cpp:157] Top shape: 20 98 (1960)
I0526 13:35:05.898964 32260 net.cpp:165] Memory required for data: 31566160
I0526 13:35:05.898974 32260 layer_factory.hpp:77] Creating layer drop2
I0526 13:35:05.898988 32260 net.cpp:106] Creating Layer drop2
I0526 13:35:05.898998 32260 net.cpp:454] drop2 <- ip2
I0526 13:35:05.899011 32260 net.cpp:397] drop2 -> ip2 (in-place)
I0526 13:35:05.899055 32260 net.cpp:150] Setting up drop2
I0526 13:35:05.899068 32260 net.cpp:157] Top shape: 20 98 (1960)
I0526 13:35:05.899078 32260 net.cpp:165] Memory required for data: 31574000
I0526 13:35:05.899088 32260 layer_factory.hpp:77] Creating layer ip3
I0526 13:35:05.899102 32260 net.cpp:106] Creating Layer ip3
I0526 13:35:05.899112 32260 net.cpp:454] ip3 <- ip2
I0526 13:35:05.899127 32260 net.cpp:411] ip3 -> ip3
I0526 13:35:05.899350 32260 net.cpp:150] Setting up ip3
I0526 13:35:05.899363 32260 net.cpp:157] Top shape: 20 11 (220)
I0526 13:35:05.899374 32260 net.cpp:165] Memory required for data: 31574880
I0526 13:35:05.899389 32260 layer_factory.hpp:77] Creating layer drop3
I0526 13:35:05.899401 32260 net.cpp:106] Creating Layer drop3
I0526 13:35:05.899411 32260 net.cpp:454] drop3 <- ip3
I0526 13:35:05.899425 32260 net.cpp:397] drop3 -> ip3 (in-place)
I0526 13:35:05.899466 32260 net.cpp:150] Setting up drop3
I0526 13:35:05.899478 32260 net.cpp:157] Top shape: 20 11 (220)
I0526 13:35:05.899488 32260 net.cpp:165] Memory required for data: 31575760
I0526 13:35:05.899497 32260 layer_factory.hpp:77] Creating layer ip3_drop3_0_split
I0526 13:35:05.899512 32260 net.cpp:106] Creating Layer ip3_drop3_0_split
I0526 13:35:05.899520 32260 net.cpp:454] ip3_drop3_0_split <- ip3
I0526 13:35:05.899533 32260 net.cpp:411] ip3_drop3_0_split -> ip3_drop3_0_split_0
I0526 13:35:05.899549 32260 net.cpp:411] ip3_drop3_0_split -> ip3_drop3_0_split_1
I0526 13:35:05.899622 32260 net.cpp:150] Setting up ip3_drop3_0_split
I0526 13:35:05.899636 32260 net.cpp:157] Top shape: 20 11 (220)
I0526 13:35:05.899647 32260 net.cpp:157] Top shape: 20 11 (220)
I0526 13:35:05.899657 32260 net.cpp:165] Memory required for data: 31577520
I0526 13:35:05.899668 32260 layer_factory.hpp:77] Creating layer accuracy
I0526 13:35:05.899689 32260 net.cpp:106] Creating Layer accuracy
I0526 13:35:05.899698 32260 net.cpp:454] accuracy <- ip3_drop3_0_split_0
I0526 13:35:05.899709 32260 net.cpp:454] accuracy <- label_data_hdf5_1_split_0
I0526 13:35:05.899724 32260 net.cpp:411] accuracy -> accuracy
…
