…
I0526 15:35:08.399855 19470 net.cpp:322] The NetState phase (0) differed from the phase (1) specified by a rule in layer data_hdf5
I0526 15:35:08.399911 19470 net.cpp:322] The NetState phase (0) differed from the phase (1) specified by a rule in layer accuracy
I0526 15:35:08.400260 19470 net.cpp:49] Initializing net from parameters: 
name: "caffe_test_127x50_x_unshifted"
state {
  phase: TRAIN
}
layer {
  name: "data_hdf5"
  type: "HDF5Data"
  top: "data"
  top: "label"
  include {
    phase: TRAIN
  }
  hdf5_data_param {
    source: "/lustre/atlas/proj-shared/hep105/caffe_titan/minosmatch_nukecczdefs_127x50_x_unshifted_me1Bmc.trainlist"
    batch_size: 20
  }
}
layer {
  name: "conv1"
  type: "Convolution"
  bottom: "data"
  top: "conv1"
  convolution_param {
    num_output: 12
    pad: 0
    stride: 1
    weight_filler {
      type: "xavier"
    }
    bias_filler {
      type: "constant"
    }
    kernel_h: 8
    kernel_w: 3
  }
}
layer {
  name: "relu1"
  type: "ReLU"
  bottom: "conv1"
  top: "conv1"
}
layer {
  name: "pool1"
  type: "Pooling"
  bottom: "conv1"
  top: "pool1"
  pooling_param {
    pool: MAX
    kernel_h: 2
    kernel_w: 1
    stride_h: 2
    stride_w: 1
  }
}
layer {
  name: "conv2"
  type: "Convolution"
  bottom: "pool1"
  top: "conv2"
  convolution_param {
    num_output: 20
    pad: 0
    stride: 1
    weight_filler {
      type: "xavier"
    }
    bias_filler {
      type: "constant"
    }
    kernel_h: 7
    kernel_w: 3
  }
}
layer {
  name: "relu2"
  type: "ReLU"
  bottom: "conv2"
  top: "conv2"
}
layer {
  name: "pool2"
  type: "Pooling"
  bottom: "conv2"
  top: "pool2"
  pooling_param {
    pool: MAX
    kernel_h: 2
    kernel_w: 1
    stride_h: 2
    stride_w: 1
  }
}
layer {
  name: "conv3"
  type: "Convolution"
  bottom: "pool2"
  top: "conv3"
  convolution_param {
    num_output: 28
    pad: 0
    stride: 1
    weight_filler {
      type: "xavier"
    }
    bias_filler {
      type: "constant"
    }
    kernel_h: 6
    kernel_w: 3
  }
}
layer {
  name: "relu3"
  type: "ReLU"
  bottom: "conv3"
  top: "conv3"
}
layer {
  name: "pool3"
  type: "Pooling"
  bottom: "conv3"
  top: "pool3"
  pooling_param {
    pool: MAX
    kernel_h: 2
    kernel_w: 1
    stride_h: 2
    stride_w: 1
  }
}
layer {
  name: "conv4"
  type: "Convolution"
  bottom: "pool3"
  top: "conv4"
  convolution_param {
    num_output: 36
    pad: 0
    stride: 1
    weight_filler {
      type: "xavier"
    }
    bias_filler {
      type: "constant"
    }
    kernel_h: 6
    kernel_w: 3
  }
}
layer {
  name: "relu4"
  type: "ReLU"
  bottom: "conv4"
  top: "conv4"
}
layer {
  name: "pool4"
  type: "Pooling"
  bottom: "conv4"
  top: "pool4"
  pooling_param {
    pool: MAX
    kernel_h: 2
    kernel_w: 1
    stride_h: 2
    stride_w: 1
  }
}
layer {
  name: "ip1"
  type: "InnerProduct"
  bottom: "pool4"
  top: "ip1"
  inner_product_param {
    num_output: 196
    weight_filler {
      type: "xavier"
    }
    bias_filler {
      type: "constant"
    }
  }
}
layer {
  name: "relu5"
  type: "ReLU"
  bottom: "ip1"
  top: "ip1"
}
layer {
  name: "drop1"
  type: "Dropout"
  bottom: "ip1"
  top: "ip1"
  dropout_param {
    dropout_ratio: 0.5
  }
}
layer {
  name: "ip2"
  type: "InnerProduct"
  bottom: "ip1"
  top: "ip2"
  inner_product_param {
    num_output: 98
    weight_filler {
      type: "xavier"
    }
    bias_filler {
      type: "constant"
    }
  }
}
layer {
  name: "relu6"
  type: "ReLU"
  bottom: "ip2"
  top: "ip2"
}
layer {
  name: "drop2"
  type: "Dropout"
  bottom: "ip2"
  top: "ip2"
  dropout_param {
    dropout_ratio: 0.5
  }
}
layer {
  name: "ip3"
  type: "InnerProduct"
  bottom: "ip2"
  top: "ip3"
  inner_product_param {
    num_output: 11
    weight_filler {
      type: "xavier"
    }
    bias_filler {
      type: "constant"
    }
  }
}
layer {
  name: "drop3"
  type: "Dropout"
  bottom: "ip3"
  top: "ip3"
  dropout_param {
    dropout_ratio: 0.5
  }
}
layer {
  name: "loss"
  type: "SoftmaxWithLoss"
  bottom: "ip3"
  bottom: "label"
  top: "loss"
}
I0526 15:35:08.400440 19470 layer_factory.hpp:77] Creating layer data_hdf5
I0526 15:35:08.400465 19470 net.cpp:106] Creating Layer data_hdf5
I0526 15:35:08.400480 19470 net.cpp:411] data_hdf5 -> data
I0526 15:35:08.400512 19470 net.cpp:411] data_hdf5 -> label
I0526 15:35:08.400544 19470 hdf5_data_layer.cpp:79] Loading list of HDF5 filenames from: /lustre/atlas/proj-shared/hep105/caffe_titan/minosmatch_nukecczdefs_127x50_x_unshifted_me1Bmc.trainlist
I0526 15:35:08.417768 19470 hdf5_data_layer.cpp:93] Number of HDF5 files: 15
I0526 15:35:08.426853 19470 hdf5.cpp:32] Datatype class: H5T_FLOAT
I0526 15:35:29.987537 19470 hdf5.cpp:35] Datatype class: H5T_INTEGER
I0526 15:35:29.992614 19470 net.cpp:150] Setting up data_hdf5
I0526 15:35:29.992655 19470 net.cpp:157] Top shape: 20 1 127 50 (127000)
I0526 15:35:29.992668 19470 net.cpp:157] Top shape: 20 (20)
I0526 15:35:29.992681 19470 net.cpp:165] Memory required for data: 508080
I0526 15:35:29.992694 19470 layer_factory.hpp:77] Creating layer conv1
I0526 15:35:29.992728 19470 net.cpp:106] Creating Layer conv1
I0526 15:35:29.992738 19470 net.cpp:454] conv1 <- data
I0526 15:35:29.992759 19470 net.cpp:411] conv1 -> conv1
I0526 15:35:33.009121 19470 net.cpp:150] Setting up conv1
I0526 15:35:33.009166 19470 net.cpp:157] Top shape: 20 12 120 48 (1382400)
I0526 15:35:33.009181 19470 net.cpp:165] Memory required for data: 6037680
I0526 15:35:33.009209 19470 layer_factory.hpp:77] Creating layer relu1
I0526 15:35:33.009232 19470 net.cpp:106] Creating Layer relu1
I0526 15:35:33.009243 19470 net.cpp:454] relu1 <- conv1
I0526 15:35:33.009256 19470 net.cpp:397] relu1 -> conv1 (in-place)
I0526 15:35:33.009773 19470 net.cpp:150] Setting up relu1
I0526 15:35:33.009790 19470 net.cpp:157] Top shape: 20 12 120 48 (1382400)
I0526 15:35:33.009800 19470 net.cpp:165] Memory required for data: 11567280
I0526 15:35:33.009811 19470 layer_factory.hpp:77] Creating layer pool1
I0526 15:35:33.009827 19470 net.cpp:106] Creating Layer pool1
I0526 15:35:33.009837 19470 net.cpp:454] pool1 <- conv1
I0526 15:35:33.009850 19470 net.cpp:411] pool1 -> pool1
I0526 15:35:33.009930 19470 net.cpp:150] Setting up pool1
I0526 15:35:33.009944 19470 net.cpp:157] Top shape: 20 12 60 48 (691200)
I0526 15:35:33.009954 19470 net.cpp:165] Memory required for data: 14332080
I0526 15:35:33.009963 19470 layer_factory.hpp:77] Creating layer conv2
I0526 15:35:33.009985 19470 net.cpp:106] Creating Layer conv2
I0526 15:35:33.009996 19470 net.cpp:454] conv2 <- pool1
I0526 15:35:33.010010 19470 net.cpp:411] conv2 -> conv2
I0526 15:35:33.012698 19470 net.cpp:150] Setting up conv2
I0526 15:35:33.012727 19470 net.cpp:157] Top shape: 20 20 54 46 (993600)
I0526 15:35:33.012737 19470 net.cpp:165] Memory required for data: 18306480
I0526 15:35:33.012756 19470 layer_factory.hpp:77] Creating layer relu2
I0526 15:35:33.012770 19470 net.cpp:106] Creating Layer relu2
I0526 15:35:33.012780 19470 net.cpp:454] relu2 <- conv2
I0526 15:35:33.012794 19470 net.cpp:397] relu2 -> conv2 (in-place)
I0526 15:35:33.013135 19470 net.cpp:150] Setting up relu2
I0526 15:35:33.013149 19470 net.cpp:157] Top shape: 20 20 54 46 (993600)
I0526 15:35:33.013159 19470 net.cpp:165] Memory required for data: 22280880
I0526 15:35:33.013170 19470 layer_factory.hpp:77] Creating layer pool2
I0526 15:35:33.013183 19470 net.cpp:106] Creating Layer pool2
I0526 15:35:33.013193 19470 net.cpp:454] pool2 <- conv2
I0526 15:35:33.013206 19470 net.cpp:411] pool2 -> pool2
I0526 15:35:33.013288 19470 net.cpp:150] Setting up pool2
I0526 15:35:33.013301 19470 net.cpp:157] Top shape: 20 20 27 46 (496800)
I0526 15:35:33.013311 19470 net.cpp:165] Memory required for data: 24268080
I0526 15:35:33.013321 19470 layer_factory.hpp:77] Creating layer conv3
I0526 15:35:33.013339 19470 net.cpp:106] Creating Layer conv3
I0526 15:35:33.013350 19470 net.cpp:454] conv3 <- pool2
I0526 15:35:33.013363 19470 net.cpp:411] conv3 -> conv3
I0526 15:35:33.015305 19470 net.cpp:150] Setting up conv3
I0526 15:35:33.015328 19470 net.cpp:157] Top shape: 20 28 22 44 (542080)
I0526 15:35:33.015341 19470 net.cpp:165] Memory required for data: 26436400
I0526 15:35:33.015359 19470 layer_factory.hpp:77] Creating layer relu3
I0526 15:35:33.015377 19470 net.cpp:106] Creating Layer relu3
I0526 15:35:33.015385 19470 net.cpp:454] relu3 <- conv3
I0526 15:35:33.015398 19470 net.cpp:397] relu3 -> conv3 (in-place)
I0526 15:35:33.015866 19470 net.cpp:150] Setting up relu3
I0526 15:35:33.015883 19470 net.cpp:157] Top shape: 20 28 22 44 (542080)
I0526 15:35:33.015894 19470 net.cpp:165] Memory required for data: 28604720
I0526 15:35:33.015904 19470 layer_factory.hpp:77] Creating layer pool3
I0526 15:35:33.015918 19470 net.cpp:106] Creating Layer pool3
I0526 15:35:33.015926 19470 net.cpp:454] pool3 <- conv3
I0526 15:35:33.015939 19470 net.cpp:411] pool3 -> pool3
I0526 15:35:33.016007 19470 net.cpp:150] Setting up pool3
I0526 15:35:33.016021 19470 net.cpp:157] Top shape: 20 28 11 44 (271040)
I0526 15:35:33.016031 19470 net.cpp:165] Memory required for data: 29688880
I0526 15:35:33.016038 19470 layer_factory.hpp:77] Creating layer conv4
I0526 15:35:33.016055 19470 net.cpp:106] Creating Layer conv4
I0526 15:35:33.016067 19470 net.cpp:454] conv4 <- pool3
I0526 15:35:33.016080 19470 net.cpp:411] conv4 -> conv4
I0526 15:35:33.018811 19470 net.cpp:150] Setting up conv4
I0526 15:35:33.018834 19470 net.cpp:157] Top shape: 20 36 6 42 (181440)
I0526 15:35:33.018844 19470 net.cpp:165] Memory required for data: 30414640
I0526 15:35:33.018860 19470 layer_factory.hpp:77] Creating layer relu4
I0526 15:35:33.018874 19470 net.cpp:106] Creating Layer relu4
I0526 15:35:33.018884 19470 net.cpp:454] relu4 <- conv4
I0526 15:35:33.018898 19470 net.cpp:397] relu4 -> conv4 (in-place)
I0526 15:35:33.019366 19470 net.cpp:150] Setting up relu4
I0526 15:35:33.019383 19470 net.cpp:157] Top shape: 20 36 6 42 (181440)
I0526 15:35:33.019394 19470 net.cpp:165] Memory required for data: 31140400
I0526 15:35:33.019404 19470 layer_factory.hpp:77] Creating layer pool4
I0526 15:35:33.019418 19470 net.cpp:106] Creating Layer pool4
I0526 15:35:33.019428 19470 net.cpp:454] pool4 <- conv4
I0526 15:35:33.019439 19470 net.cpp:411] pool4 -> pool4
I0526 15:35:33.019507 19470 net.cpp:150] Setting up pool4
I0526 15:35:33.019520 19470 net.cpp:157] Top shape: 20 36 3 42 (90720)
I0526 15:35:33.019531 19470 net.cpp:165] Memory required for data: 31503280
I0526 15:35:33.019541 19470 layer_factory.hpp:77] Creating layer ip1
I0526 15:35:33.019562 19470 net.cpp:106] Creating Layer ip1
I0526 15:35:33.019572 19470 net.cpp:454] ip1 <- pool4
I0526 15:35:33.019587 19470 net.cpp:411] ip1 -> ip1
I0526 15:35:33.035034 19470 net.cpp:150] Setting up ip1
I0526 15:35:33.035063 19470 net.cpp:157] Top shape: 20 196 (3920)
I0526 15:35:33.035079 19470 net.cpp:165] Memory required for data: 31518960
I0526 15:35:33.035100 19470 layer_factory.hpp:77] Creating layer relu5
I0526 15:35:33.035115 19470 net.cpp:106] Creating Layer relu5
I0526 15:35:33.035125 19470 net.cpp:454] relu5 <- ip1
I0526 15:35:33.035138 19470 net.cpp:397] relu5 -> ip1 (in-place)
I0526 15:35:33.035480 19470 net.cpp:150] Setting up relu5
I0526 15:35:33.035495 19470 net.cpp:157] Top shape: 20 196 (3920)
I0526 15:35:33.035504 19470 net.cpp:165] Memory required for data: 31534640
I0526 15:35:33.035516 19470 layer_factory.hpp:77] Creating layer drop1
I0526 15:35:33.035537 19470 net.cpp:106] Creating Layer drop1
I0526 15:35:33.035547 19470 net.cpp:454] drop1 <- ip1
I0526 15:35:33.035559 19470 net.cpp:397] drop1 -> ip1 (in-place)
I0526 15:35:33.035617 19470 net.cpp:150] Setting up drop1
I0526 15:35:33.035631 19470 net.cpp:157] Top shape: 20 196 (3920)
I0526 15:35:33.035641 19470 net.cpp:165] Memory required for data: 31550320
I0526 15:35:33.035651 19470 layer_factory.hpp:77] Creating layer ip2
I0526 15:35:33.035670 19470 net.cpp:106] Creating Layer ip2
I0526 15:35:33.035681 19470 net.cpp:454] ip2 <- ip1
I0526 15:35:33.035693 19470 net.cpp:411] ip2 -> ip2
I0526 15:35:33.036156 19470 net.cpp:150] Setting up ip2
I0526 15:35:33.036170 19470 net.cpp:157] Top shape: 20 98 (1960)
I0526 15:35:33.036180 19470 net.cpp:165] Memory required for data: 31558160
I0526 15:35:33.036195 19470 layer_factory.hpp:77] Creating layer relu6
I0526 15:35:33.036207 19470 net.cpp:106] Creating Layer relu6
I0526 15:35:33.036216 19470 net.cpp:454] relu6 <- ip2
I0526 15:35:33.036228 19470 net.cpp:397] relu6 -> ip2 (in-place)
I0526 15:35:33.036744 19470 net.cpp:150] Setting up relu6
I0526 15:35:33.036761 19470 net.cpp:157] Top shape: 20 98 (1960)
I0526 15:35:33.036772 19470 net.cpp:165] Memory required for data: 31566000
I0526 15:35:33.036782 19470 layer_factory.hpp:77] Creating layer drop2
I0526 15:35:33.036795 19470 net.cpp:106] Creating Layer drop2
I0526 15:35:33.036804 19470 net.cpp:454] drop2 <- ip2
I0526 15:35:33.036818 19470 net.cpp:397] drop2 -> ip2 (in-place)
I0526 15:35:33.036867 19470 net.cpp:150] Setting up drop2
I0526 15:35:33.036880 19470 net.cpp:157] Top shape: 20 98 (1960)
I0526 15:35:33.036890 19470 net.cpp:165] Memory required for data: 31573840
I0526 15:35:33.036901 19470 layer_factory.hpp:77] Creating layer ip3
I0526 15:35:33.036914 19470 net.cpp:106] Creating Layer ip3
I0526 15:35:33.036924 19470 net.cpp:454] ip3 <- ip2
I0526 15:35:33.036936 19470 net.cpp:411] ip3 -> ip3
I0526 15:35:33.037149 19470 net.cpp:150] Setting up ip3
I0526 15:35:33.037163 19470 net.cpp:157] Top shape: 20 11 (220)
I0526 15:35:33.037173 19470 net.cpp:165] Memory required for data: 31574720
I0526 15:35:33.037189 19470 layer_factory.hpp:77] Creating layer drop3
I0526 15:35:33.037200 19470 net.cpp:106] Creating Layer drop3
I0526 15:35:33.037210 19470 net.cpp:454] drop3 <- ip3
I0526 15:35:33.037222 19470 net.cpp:397] drop3 -> ip3 (in-place)
I0526 15:35:33.037262 19470 net.cpp:150] Setting up drop3
I0526 15:35:33.037276 19470 net.cpp:157] Top shape: 20 11 (220)
I0526 15:35:33.037286 19470 net.cpp:165] Memory required for data: 31575600
I0526 15:35:33.037297 19470 layer_factory.hpp:77] Creating layer loss
I0526 15:35:33.037315 19470 net.cpp:106] Creating Layer loss
I0526 15:35:33.037325 19470 net.cpp:454] loss <- ip3
I0526 15:35:33.037334 19470 net.cpp:454] loss <- label
I0526 15:35:33.037348 19470 net.cpp:411] loss -> loss
I0526 15:35:33.037364 19470 layer_factory.hpp:77] Creating layer loss
…
I0526 15:35:33.039916 19470 solver.cpp:181] Creating test net (#0) specified by net file: /lustre/atlas/proj-shared/hep105/caffe_titan/caffe_workflow/logs_bslr/bs_20_lr_0.0025_2016-05-20T15.48.54.995804.prototxt
I0526 15:35:33.039988 19470 net.cpp:322] The NetState phase (1) differed from the phase (0) specified by a rule in layer data_hdf5
I0526 15:35:33.040343 19470 net.cpp:49] Initializing net from parameters: 
name: "caffe_test_127x50_x_unshifted"
state {
  phase: TEST
}
layer {
  name: "data_hdf5"
  type: "HDF5Data"
  top: "data"
  top: "label"
  include {
    phase: TEST
  }
  hdf5_data_param {
    source: "/lustre/atlas/proj-shared/hep105/caffe_titan/minosmatch_nukecczdefs_127x50_x_unshifted_me1Bmc.testlist"
    batch_size: 20
  }
}
layer {
  name: "conv1"
  type: "Convolution"
  bottom: "data"
  top: "conv1"
  convolution_param {
    num_output: 12
    pad: 0
    stride: 1
    weight_filler {
      type: "xavier"
    }
    bias_filler {
      type: "constant"
    }
    kernel_h: 8
    kernel_w: 3
  }
}
layer {
  name: "relu1"
  type: "ReLU"
  bottom: "conv1"
  top: "conv1"
}
layer {
  name: "pool1"
  type: "Pooling"
  bottom: "conv1"
  top: "pool1"
  pooling_param {
    pool: MAX
    kernel_h: 2
    kernel_w: 1
    stride_h: 2
    stride_w: 1
  }
}
layer {
  name: "conv2"
  type: "Convolution"
  bottom: "pool1"
  top: "conv2"
  convolution_param {
    num_output: 20
    pad: 0
    stride: 1
    weight_filler {
      type: "xavier"
    }
    bias_filler {
      type: "constant"
    }
    kernel_h: 7
    kernel_w: 3
  }
}
layer {
  name: "relu2"
  type: "ReLU"
  bottom: "conv2"
  top: "conv2"
}
layer {
  name: "pool2"
  type: "Pooling"
  bottom: "conv2"
  top: "pool2"
  pooling_param {
    pool: MAX
    kernel_h: 2
    kernel_w: 1
    stride_h: 2
    stride_w: 1
  }
}
layer {
  name: "conv3"
  type: "Convolution"
  bottom: "pool2"
  top: "conv3"
  convolution_param {
    num_output: 28
    pad: 0
    stride: 1
    weight_filler {
      type: "xavier"
    }
    bias_filler {
      type: "constant"
    }
    kernel_h: 6
    kernel_w: 3
  }
}
layer {
  name: "relu3"
  type: "ReLU"
  bottom: "conv3"
  top: "conv3"
}
layer {
  name: "pool3"
  type: "Pooling"
  bottom: "conv3"
  top: "pool3"
  pooling_param {
    pool: MAX
    kernel_h: 2
    kernel_w: 1
    stride_h: 2
    stride_w: 1
  }
}
layer {
  name: "conv4"
  type: "Convolution"
  bottom: "pool3"
  top: "conv4"
  convolution_param {
    num_output: 36
    pad: 0
    stride: 1
    weight_filler {
      type: "xavier"
    }
    bias_filler {
      type: "constant"
    }
    kernel_h: 6
    kernel_w: 3
  }
}
layer {
  name: "relu4"
  type: "ReLU"
  bottom: "conv4"
  top: "conv4"
}
layer {
  name: "pool4"
  type: "Pooling"
  bottom: "conv4"
  top: "pool4"
  pooling_param {
    pool: MAX
    kernel_h: 2
    kernel_w: 1
    stride_h: 2
    stride_w: 1
  }
}
layer {
  name: "ip1"
  type: "InnerProduct"
  bottom: "pool4"
  top: "ip1"
  inner_product_param {
    num_output: 196
    weight_filler {
      type: "xavier"
    }
    bias_filler {
      type: "constant"
    }
  }
}
layer {
  name: "relu5"
  type: "ReLU"
  bottom: "ip1"
  top: "ip1"
}
layer {
  name: "drop1"
  type: "Dropout"
  bottom: "ip1"
  top: "ip1"
  dropout_param {
    dropout_ratio: 0.5
  }
}
layer {
  name: "ip2"
  type: "InnerProduct"
  bottom: "ip1"
  top: "ip2"
  inner_product_param {
    num_output: 98
    weight_filler {
      type: "xavier"
    }
    bias_filler {
      type: "constant"
    }
  }
}
layer {
  name: "relu6"
  type: "ReLU"
  bottom: "ip2"
  top: "ip2"
}
layer {
  name: "drop2"
  type: "Dropout"
  bottom: "ip2"
  top: "ip2"
  dropout_param {
    dropout_ratio: 0.5
  }
}
layer {
  name: "ip3"
  type: "InnerProduct"
  bottom: "ip2"
  top: "ip3"
  inner_product_param {
    num_output: 11
    weight_filler {
      type: "xavier"
    }
    bias_filler {
      type: "constant"
    }
  }
}
layer {
  name: "drop3"
  type: "Dropout"
  bottom: "ip3"
  top: "ip3"
  dropout_param {
    dropout_ratio: 0.5
  }
}
layer {
  name: "accuracy"
  type: "Accuracy"
  bottom: "ip3"
  bottom: "label"
  top: "accuracy"
  include {
    phase: TEST
  }
}
layer {
  name: "loss"
  type: "SoftmaxWithLoss"
  bottom: "ip3"
  bottom: "label"
  top: "loss"
}
I0526 15:35:33.040532 19470 layer_factory.hpp:77] Creating layer data_hdf5
I0526 15:35:33.040549 19470 net.cpp:106] Creating Layer data_hdf5
I0526 15:35:33.040560 19470 net.cpp:411] data_hdf5 -> data
I0526 15:35:33.040577 19470 net.cpp:411] data_hdf5 -> label
I0526 15:35:33.040593 19470 hdf5_data_layer.cpp:79] Loading list of HDF5 filenames from: /lustre/atlas/proj-shared/hep105/caffe_titan/minosmatch_nukecczdefs_127x50_x_unshifted_me1Bmc.testlist
I0526 15:35:33.052307 19470 hdf5_data_layer.cpp:93] Number of HDF5 files: 3
I0526 15:35:54.436115 19470 net.cpp:150] Setting up data_hdf5
I0526 15:35:54.436278 19470 net.cpp:157] Top shape: 20 1 127 50 (127000)
I0526 15:35:54.436292 19470 net.cpp:157] Top shape: 20 (20)
I0526 15:35:54.436305 19470 net.cpp:165] Memory required for data: 508080
I0526 15:35:54.436318 19470 layer_factory.hpp:77] Creating layer label_data_hdf5_1_split
I0526 15:35:54.436347 19470 net.cpp:106] Creating Layer label_data_hdf5_1_split
I0526 15:35:54.436357 19470 net.cpp:454] label_data_hdf5_1_split <- label
I0526 15:35:54.436372 19470 net.cpp:411] label_data_hdf5_1_split -> label_data_hdf5_1_split_0
I0526 15:35:54.436393 19470 net.cpp:411] label_data_hdf5_1_split -> label_data_hdf5_1_split_1
I0526 15:35:54.436466 19470 net.cpp:150] Setting up label_data_hdf5_1_split
I0526 15:35:54.436480 19470 net.cpp:157] Top shape: 20 (20)
I0526 15:35:54.436491 19470 net.cpp:157] Top shape: 20 (20)
I0526 15:35:54.436501 19470 net.cpp:165] Memory required for data: 508240
I0526 15:35:54.436511 19470 layer_factory.hpp:77] Creating layer conv1
I0526 15:35:54.436533 19470 net.cpp:106] Creating Layer conv1
I0526 15:35:54.436544 19470 net.cpp:454] conv1 <- data
I0526 15:35:54.436558 19470 net.cpp:411] conv1 -> conv1
I0526 15:35:54.438485 19470 net.cpp:150] Setting up conv1
I0526 15:35:54.438510 19470 net.cpp:157] Top shape: 20 12 120 48 (1382400)
I0526 15:35:54.438520 19470 net.cpp:165] Memory required for data: 6037840
I0526 15:35:54.438544 19470 layer_factory.hpp:77] Creating layer relu1
I0526 15:35:54.438558 19470 net.cpp:106] Creating Layer relu1
I0526 15:35:54.438567 19470 net.cpp:454] relu1 <- conv1
I0526 15:35:54.438580 19470 net.cpp:397] relu1 -> conv1 (in-place)
I0526 15:35:54.439075 19470 net.cpp:150] Setting up relu1
I0526 15:35:54.439091 19470 net.cpp:157] Top shape: 20 12 120 48 (1382400)
I0526 15:35:54.439102 19470 net.cpp:165] Memory required for data: 11567440
I0526 15:35:54.439112 19470 layer_factory.hpp:77] Creating layer pool1
I0526 15:35:54.439128 19470 net.cpp:106] Creating Layer pool1
I0526 15:35:54.439138 19470 net.cpp:454] pool1 <- conv1
I0526 15:35:54.439152 19470 net.cpp:411] pool1 -> pool1
I0526 15:35:54.439227 19470 net.cpp:150] Setting up pool1
I0526 15:35:54.439241 19470 net.cpp:157] Top shape: 20 12 60 48 (691200)
I0526 15:35:54.439252 19470 net.cpp:165] Memory required for data: 14332240
I0526 15:35:54.439262 19470 layer_factory.hpp:77] Creating layer conv2
I0526 15:35:54.439280 19470 net.cpp:106] Creating Layer conv2
I0526 15:35:54.439291 19470 net.cpp:454] conv2 <- pool1
I0526 15:35:54.439306 19470 net.cpp:411] conv2 -> conv2
I0526 15:35:54.441220 19470 net.cpp:150] Setting up conv2
I0526 15:35:54.441242 19470 net.cpp:157] Top shape: 20 20 54 46 (993600)
I0526 15:35:54.441256 19470 net.cpp:165] Memory required for data: 18306640
I0526 15:35:54.441272 19470 layer_factory.hpp:77] Creating layer relu2
I0526 15:35:54.441287 19470 net.cpp:106] Creating Layer relu2
I0526 15:35:54.441296 19470 net.cpp:454] relu2 <- conv2
I0526 15:35:54.441308 19470 net.cpp:397] relu2 -> conv2 (in-place)
I0526 15:35:54.441639 19470 net.cpp:150] Setting up relu2
I0526 15:35:54.441653 19470 net.cpp:157] Top shape: 20 20 54 46 (993600)
I0526 15:35:54.441663 19470 net.cpp:165] Memory required for data: 22281040
I0526 15:35:54.441673 19470 layer_factory.hpp:77] Creating layer pool2
I0526 15:35:54.441686 19470 net.cpp:106] Creating Layer pool2
I0526 15:35:54.441696 19470 net.cpp:454] pool2 <- conv2
I0526 15:35:54.441709 19470 net.cpp:411] pool2 -> pool2
I0526 15:35:54.441779 19470 net.cpp:150] Setting up pool2
I0526 15:35:54.441793 19470 net.cpp:157] Top shape: 20 20 27 46 (496800)
I0526 15:35:54.441802 19470 net.cpp:165] Memory required for data: 24268240
I0526 15:35:54.441812 19470 layer_factory.hpp:77] Creating layer conv3
I0526 15:35:54.441829 19470 net.cpp:106] Creating Layer conv3
I0526 15:35:54.441840 19470 net.cpp:454] conv3 <- pool2
I0526 15:35:54.441854 19470 net.cpp:411] conv3 -> conv3
I0526 15:35:54.443819 19470 net.cpp:150] Setting up conv3
I0526 15:35:54.443843 19470 net.cpp:157] Top shape: 20 28 22 44 (542080)
I0526 15:35:54.443855 19470 net.cpp:165] Memory required for data: 26436560
I0526 15:35:54.443872 19470 layer_factory.hpp:77] Creating layer relu3
I0526 15:35:54.443898 19470 net.cpp:106] Creating Layer relu3
I0526 15:35:54.443908 19470 net.cpp:454] relu3 <- conv3
I0526 15:35:54.443923 19470 net.cpp:397] relu3 -> conv3 (in-place)
I0526 15:35:54.444398 19470 net.cpp:150] Setting up relu3
I0526 15:35:54.444414 19470 net.cpp:157] Top shape: 20 28 22 44 (542080)
I0526 15:35:54.444424 19470 net.cpp:165] Memory required for data: 28604880
I0526 15:35:54.444434 19470 layer_factory.hpp:77] Creating layer pool3
I0526 15:35:54.444447 19470 net.cpp:106] Creating Layer pool3
I0526 15:35:54.444458 19470 net.cpp:454] pool3 <- conv3
I0526 15:35:54.444470 19470 net.cpp:411] pool3 -> pool3
I0526 15:35:54.444541 19470 net.cpp:150] Setting up pool3
I0526 15:35:54.444555 19470 net.cpp:157] Top shape: 20 28 11 44 (271040)
I0526 15:35:54.444566 19470 net.cpp:165] Memory required for data: 29689040
I0526 15:35:54.444574 19470 layer_factory.hpp:77] Creating layer conv4
I0526 15:35:54.444593 19470 net.cpp:106] Creating Layer conv4
I0526 15:35:54.444603 19470 net.cpp:454] conv4 <- pool3
I0526 15:35:54.444618 19470 net.cpp:411] conv4 -> conv4
I0526 15:35:54.446681 19470 net.cpp:150] Setting up conv4
I0526 15:35:54.446703 19470 net.cpp:157] Top shape: 20 36 6 42 (181440)
I0526 15:35:54.446713 19470 net.cpp:165] Memory required for data: 30414800
I0526 15:35:54.446729 19470 layer_factory.hpp:77] Creating layer relu4
I0526 15:35:54.446743 19470 net.cpp:106] Creating Layer relu4
I0526 15:35:54.446753 19470 net.cpp:454] relu4 <- conv4
I0526 15:35:54.446766 19470 net.cpp:397] relu4 -> conv4 (in-place)
I0526 15:35:54.447234 19470 net.cpp:150] Setting up relu4
I0526 15:35:54.447249 19470 net.cpp:157] Top shape: 20 36 6 42 (181440)
I0526 15:35:54.447259 19470 net.cpp:165] Memory required for data: 31140560
I0526 15:35:54.447269 19470 layer_factory.hpp:77] Creating layer pool4
I0526 15:35:54.447283 19470 net.cpp:106] Creating Layer pool4
I0526 15:35:54.447293 19470 net.cpp:454] pool4 <- conv4
I0526 15:35:54.447307 19470 net.cpp:411] pool4 -> pool4
I0526 15:35:54.447381 19470 net.cpp:150] Setting up pool4
I0526 15:35:54.447393 19470 net.cpp:157] Top shape: 20 36 3 42 (90720)
I0526 15:35:54.447403 19470 net.cpp:165] Memory required for data: 31503440
I0526 15:35:54.447412 19470 layer_factory.hpp:77] Creating layer ip1
I0526 15:35:54.447427 19470 net.cpp:106] Creating Layer ip1
I0526 15:35:54.447438 19470 net.cpp:454] ip1 <- pool4
I0526 15:35:54.447451 19470 net.cpp:411] ip1 -> ip1
I0526 15:35:54.462847 19470 net.cpp:150] Setting up ip1
I0526 15:35:54.462872 19470 net.cpp:157] Top shape: 20 196 (3920)
I0526 15:35:54.462882 19470 net.cpp:165] Memory required for data: 31519120
I0526 15:35:54.462905 19470 layer_factory.hpp:77] Creating layer relu5
I0526 15:35:54.462920 19470 net.cpp:106] Creating Layer relu5
I0526 15:35:54.462930 19470 net.cpp:454] relu5 <- ip1
I0526 15:35:54.462944 19470 net.cpp:397] relu5 -> ip1 (in-place)
I0526 15:35:54.463292 19470 net.cpp:150] Setting up relu5
I0526 15:35:54.463306 19470 net.cpp:157] Top shape: 20 196 (3920)
I0526 15:35:54.463315 19470 net.cpp:165] Memory required for data: 31534800
I0526 15:35:54.463326 19470 layer_factory.hpp:77] Creating layer drop1
I0526 15:35:54.463346 19470 net.cpp:106] Creating Layer drop1
I0526 15:35:54.463356 19470 net.cpp:454] drop1 <- ip1
I0526 15:35:54.463368 19470 net.cpp:397] drop1 -> ip1 (in-place)
I0526 15:35:54.463415 19470 net.cpp:150] Setting up drop1
I0526 15:35:54.463428 19470 net.cpp:157] Top shape: 20 196 (3920)
I0526 15:35:54.463438 19470 net.cpp:165] Memory required for data: 31550480
I0526 15:35:54.463449 19470 layer_factory.hpp:77] Creating layer ip2
I0526 15:35:54.463464 19470 net.cpp:106] Creating Layer ip2
I0526 15:35:54.463472 19470 net.cpp:454] ip2 <- ip1
I0526 15:35:54.463485 19470 net.cpp:411] ip2 -> ip2
I0526 15:35:54.463968 19470 net.cpp:150] Setting up ip2
I0526 15:35:54.463980 19470 net.cpp:157] Top shape: 20 98 (1960)
I0526 15:35:54.463990 19470 net.cpp:165] Memory required for data: 31558320
I0526 15:35:54.464005 19470 layer_factory.hpp:77] Creating layer relu6
I0526 15:35:54.464030 19470 net.cpp:106] Creating Layer relu6
I0526 15:35:54.464040 19470 net.cpp:454] relu6 <- ip2
I0526 15:35:54.464053 19470 net.cpp:397] relu6 -> ip2 (in-place)
I0526 15:35:54.464584 19470 net.cpp:150] Setting up relu6
I0526 15:35:54.464607 19470 net.cpp:157] Top shape: 20 98 (1960)
I0526 15:35:54.464617 19470 net.cpp:165] Memory required for data: 31566160
I0526 15:35:54.464627 19470 layer_factory.hpp:77] Creating layer drop2
I0526 15:35:54.464642 19470 net.cpp:106] Creating Layer drop2
I0526 15:35:54.464651 19470 net.cpp:454] drop2 <- ip2
I0526 15:35:54.464664 19470 net.cpp:397] drop2 -> ip2 (in-place)
I0526 15:35:54.464709 19470 net.cpp:150] Setting up drop2
I0526 15:35:54.464721 19470 net.cpp:157] Top shape: 20 98 (1960)
I0526 15:35:54.464731 19470 net.cpp:165] Memory required for data: 31574000
I0526 15:35:54.464740 19470 layer_factory.hpp:77] Creating layer ip3
I0526 15:35:54.464754 19470 net.cpp:106] Creating Layer ip3
I0526 15:35:54.464766 19470 net.cpp:454] ip3 <- ip2
I0526 15:35:54.464778 19470 net.cpp:411] ip3 -> ip3
I0526 15:35:54.465010 19470 net.cpp:150] Setting up ip3
I0526 15:35:54.465023 19470 net.cpp:157] Top shape: 20 11 (220)
I0526 15:35:54.465034 19470 net.cpp:165] Memory required for data: 31574880
I0526 15:35:54.465049 19470 layer_factory.hpp:77] Creating layer drop3
I0526 15:35:54.465062 19470 net.cpp:106] Creating Layer drop3
I0526 15:35:54.465072 19470 net.cpp:454] drop3 <- ip3
I0526 15:35:54.465085 19470 net.cpp:397] drop3 -> ip3 (in-place)
I0526 15:35:54.465126 19470 net.cpp:150] Setting up drop3
I0526 15:35:54.465138 19470 net.cpp:157] Top shape: 20 11 (220)
I0526 15:35:54.465148 19470 net.cpp:165] Memory required for data: 31575760
I0526 15:35:54.465158 19470 layer_factory.hpp:77] Creating layer ip3_drop3_0_split
I0526 15:35:54.465172 19470 net.cpp:106] Creating Layer ip3_drop3_0_split
I0526 15:35:54.465181 19470 net.cpp:454] ip3_drop3_0_split <- ip3
I0526 15:35:54.465195 19470 net.cpp:411] ip3_drop3_0_split -> ip3_drop3_0_split_0
I0526 15:35:54.465210 19470 net.cpp:411] ip3_drop3_0_split -> ip3_drop3_0_split_1
I0526 15:35:54.465283 19470 net.cpp:150] Setting up ip3_drop3_0_split
I0526 15:35:54.465296 19470 net.cpp:157] Top shape: 20 11 (220)
I0526 15:35:54.465308 19470 net.cpp:157] Top shape: 20 11 (220)
I0526 15:35:54.465319 19470 net.cpp:165] Memory required for data: 31577520
I0526 15:35:54.465328 19470 layer_factory.hpp:77] Creating layer accuracy
I0526 15:35:54.465350 19470 net.cpp:106] Creating Layer accuracy
I0526 15:35:54.465360 19470 net.cpp:454] accuracy <- ip3_drop3_0_split_0
I0526 15:35:54.465371 19470 net.cpp:454] accuracy <- label_data_hdf5_1_split_0
I0526 15:35:54.465385 19470 net.cpp:411] accuracy -> accuracy
…
