…
I0522 03:44:10.167435 19252 net.cpp:322] The NetState phase (0) differed from the phase (1) specified by a rule in layer data_hdf5
I0522 03:44:10.167495 19252 net.cpp:322] The NetState phase (0) differed from the phase (1) specified by a rule in layer accuracy
I0522 03:44:10.167842 19252 net.cpp:49] Initializing net from parameters: 
name: "caffe_test_127x50_x_unshifted"
state {
  phase: TRAIN
}
layer {
  name: "data_hdf5"
  type: "HDF5Data"
  top: "data"
  top: "label"
  include {
    phase: TRAIN
  }
  hdf5_data_param {
    source: "/lustre/atlas/proj-shared/hep105/caffe_titan/minosmatch_nukecczdefs_127x50_x_unshifted_me1Bmc.trainlist"
    batch_size: 20
  }
}
layer {
  name: "conv1"
  type: "Convolution"
  bottom: "data"
  top: "conv1"
  convolution_param {
    num_output: 12
    pad: 0
    stride: 1
    weight_filler {
      type: "xavier"
    }
    bias_filler {
      type: "constant"
    }
    kernel_h: 8
    kernel_w: 3
  }
}
layer {
  name: "relu1"
  type: "ReLU"
  bottom: "conv1"
  top: "conv1"
}
layer {
  name: "pool1"
  type: "Pooling"
  bottom: "conv1"
  top: "pool1"
  pooling_param {
    pool: MAX
    kernel_h: 2
    kernel_w: 1
    stride_h: 2
    stride_w: 1
  }
}
layer {
  name: "conv2"
  type: "Convolution"
  bottom: "pool1"
  top: "conv2"
  convolution_param {
    num_output: 20
    pad: 0
    stride: 1
    weight_filler {
      type: "xavier"
    }
    bias_filler {
      type: "constant"
    }
    kernel_h: 7
    kernel_w: 3
  }
}
layer {
  name: "relu2"
  type: "ReLU"
  bottom: "conv2"
  top: "conv2"
}
layer {
  name: "pool2"
  type: "Pooling"
  bottom: "conv2"
  top: "pool2"
  pooling_param {
    pool: MAX
    kernel_h: 2
    kernel_w: 1
    stride_h: 2
    stride_w: 1
  }
}
layer {
  name: "conv3"
  type: "Convolution"
  bottom: "pool2"
  top: "conv3"
  convolution_param {
    num_output: 28
    pad: 0
    stride: 1
    weight_filler {
      type: "xavier"
    }
    bias_filler {
      type: "constant"
    }
    kernel_h: 6
    kernel_w: 3
  }
}
layer {
  name: "relu3"
  type: "ReLU"
  bottom: "conv3"
  top: "conv3"
}
layer {
  name: "pool3"
  type: "Pooling"
  bottom: "conv3"
  top: "pool3"
  pooling_param {
    pool: MAX
    kernel_h: 2
    kernel_w: 1
    stride_h: 2
    stride_w: 1
  }
}
layer {
  name: "conv4"
  type: "Convolution"
  bottom: "pool3"
  top: "conv4"
  convolution_param {
    num_output: 36
    pad: 0
    stride: 1
    weight_filler {
      type: "xavier"
    }
    bias_filler {
      type: "constant"
    }
    kernel_h: 6
    kernel_w: 3
  }
}
layer {
  name: "relu4"
  type: "ReLU"
  bottom: "conv4"
  top: "conv4"
}
layer {
  name: "pool4"
  type: "Pooling"
  bottom: "conv4"
  top: "pool4"
  pooling_param {
    pool: MAX
    kernel_h: 2
    kernel_w: 1
    stride_h: 2
    stride_w: 1
  }
}
layer {
  name: "ip1"
  type: "InnerProduct"
  bottom: "pool4"
  top: "ip1"
  inner_product_param {
    num_output: 196
    weight_filler {
      type: "xavier"
    }
    bias_filler {
      type: "constant"
    }
  }
}
layer {
  name: "relu5"
  type: "ReLU"
  bottom: "ip1"
  top: "ip1"
}
layer {
  name: "drop1"
  type: "Dropout"
  bottom: "ip1"
  top: "ip1"
  dropout_param {
    dropout_ratio: 0.5
  }
}
layer {
  name: "ip2"
  type: "InnerProduct"
  bottom: "ip1"
  top: "ip2"
  inner_product_param {
    num_output: 98
    weight_filler {
      type: "xavier"
    }
    bias_filler {
      type: "constant"
    }
  }
}
layer {
  name: "relu6"
  type: "ReLU"
  bottom: "ip2"
  top: "ip2"
}
layer {
  name: "drop2"
  type: "Dropout"
  bottom: "ip2"
  top: "ip2"
  dropout_param {
    dropout_ratio: 0.5
  }
}
layer {
  name: "ip3"
  type: "InnerProduct"
  bottom: "ip2"
  top: "ip3"
  inner_product_param {
    num_output: 11
    weight_filler {
      type: "xavier"
    }
    bias_filler {
      type: "constant"
    }
  }
}
layer {
  name: "drop3"
  type: "Dropout"
  bottom: "ip3"
  top: "ip3"
  dropout_param {
    dropout_ratio: 0.5
  }
}
layer {
  name: "loss"
  type: "SoftmaxWithLoss"
  bottom: "ip3"
  bottom: "label"
  top: "loss"
}
I0522 03:44:10.168020 19252 layer_factory.hpp:77] Creating layer data_hdf5
I0522 03:44:10.168045 19252 net.cpp:106] Creating Layer data_hdf5
I0522 03:44:10.168058 19252 net.cpp:411] data_hdf5 -> data
I0522 03:44:10.168092 19252 net.cpp:411] data_hdf5 -> label
I0522 03:44:10.168125 19252 hdf5_data_layer.cpp:79] Loading list of HDF5 filenames from: /lustre/atlas/proj-shared/hep105/caffe_titan/minosmatch_nukecczdefs_127x50_x_unshifted_me1Bmc.trainlist
I0522 03:44:10.176183 19252 hdf5_data_layer.cpp:93] Number of HDF5 files: 15
I0522 03:44:10.192803 19252 hdf5.cpp:32] Datatype class: H5T_FLOAT
I0522 03:44:31.869366 19252 hdf5.cpp:35] Datatype class: H5T_INTEGER
I0522 03:44:31.874619 19252 net.cpp:150] Setting up data_hdf5
I0522 03:44:31.874660 19252 net.cpp:157] Top shape: 20 1 127 50 (127000)
I0522 03:44:31.874673 19252 net.cpp:157] Top shape: 20 (20)
I0522 03:44:31.874685 19252 net.cpp:165] Memory required for data: 508080
I0522 03:44:31.874697 19252 layer_factory.hpp:77] Creating layer conv1
I0522 03:44:31.874732 19252 net.cpp:106] Creating Layer conv1
I0522 03:44:31.874743 19252 net.cpp:454] conv1 <- data
I0522 03:44:31.874764 19252 net.cpp:411] conv1 -> conv1
I0522 03:44:34.881011 19252 net.cpp:150] Setting up conv1
I0522 03:44:34.881057 19252 net.cpp:157] Top shape: 20 12 120 48 (1382400)
I0522 03:44:34.881068 19252 net.cpp:165] Memory required for data: 6037680
I0522 03:44:34.881098 19252 layer_factory.hpp:77] Creating layer relu1
I0522 03:44:34.881121 19252 net.cpp:106] Creating Layer relu1
I0522 03:44:34.881132 19252 net.cpp:454] relu1 <- conv1
I0522 03:44:34.881146 19252 net.cpp:397] relu1 -> conv1 (in-place)
I0522 03:44:34.881669 19252 net.cpp:150] Setting up relu1
I0522 03:44:34.881685 19252 net.cpp:157] Top shape: 20 12 120 48 (1382400)
I0522 03:44:34.881696 19252 net.cpp:165] Memory required for data: 11567280
I0522 03:44:34.881706 19252 layer_factory.hpp:77] Creating layer pool1
I0522 03:44:34.881723 19252 net.cpp:106] Creating Layer pool1
I0522 03:44:34.881732 19252 net.cpp:454] pool1 <- conv1
I0522 03:44:34.881747 19252 net.cpp:411] pool1 -> pool1
I0522 03:44:34.881827 19252 net.cpp:150] Setting up pool1
I0522 03:44:34.881840 19252 net.cpp:157] Top shape: 20 12 60 48 (691200)
I0522 03:44:34.881850 19252 net.cpp:165] Memory required for data: 14332080
I0522 03:44:34.881860 19252 layer_factory.hpp:77] Creating layer conv2
I0522 03:44:34.881882 19252 net.cpp:106] Creating Layer conv2
I0522 03:44:34.881893 19252 net.cpp:454] conv2 <- pool1
I0522 03:44:34.881906 19252 net.cpp:411] conv2 -> conv2
I0522 03:44:34.884611 19252 net.cpp:150] Setting up conv2
I0522 03:44:34.884639 19252 net.cpp:157] Top shape: 20 20 54 46 (993600)
I0522 03:44:34.884649 19252 net.cpp:165] Memory required for data: 18306480
I0522 03:44:34.884668 19252 layer_factory.hpp:77] Creating layer relu2
I0522 03:44:34.884682 19252 net.cpp:106] Creating Layer relu2
I0522 03:44:34.884692 19252 net.cpp:454] relu2 <- conv2
I0522 03:44:34.884706 19252 net.cpp:397] relu2 -> conv2 (in-place)
I0522 03:44:34.885046 19252 net.cpp:150] Setting up relu2
I0522 03:44:34.885059 19252 net.cpp:157] Top shape: 20 20 54 46 (993600)
I0522 03:44:34.885071 19252 net.cpp:165] Memory required for data: 22280880
I0522 03:44:34.885081 19252 layer_factory.hpp:77] Creating layer pool2
I0522 03:44:34.885092 19252 net.cpp:106] Creating Layer pool2
I0522 03:44:34.885102 19252 net.cpp:454] pool2 <- conv2
I0522 03:44:34.885115 19252 net.cpp:411] pool2 -> pool2
I0522 03:44:34.885196 19252 net.cpp:150] Setting up pool2
I0522 03:44:34.885210 19252 net.cpp:157] Top shape: 20 20 27 46 (496800)
I0522 03:44:34.885220 19252 net.cpp:165] Memory required for data: 24268080
I0522 03:44:34.885229 19252 layer_factory.hpp:77] Creating layer conv3
I0522 03:44:34.885247 19252 net.cpp:106] Creating Layer conv3
I0522 03:44:34.885258 19252 net.cpp:454] conv3 <- pool2
I0522 03:44:34.885272 19252 net.cpp:411] conv3 -> conv3
I0522 03:44:34.887208 19252 net.cpp:150] Setting up conv3
I0522 03:44:34.887233 19252 net.cpp:157] Top shape: 20 28 22 44 (542080)
I0522 03:44:34.887244 19252 net.cpp:165] Memory required for data: 26436400
I0522 03:44:34.887262 19252 layer_factory.hpp:77] Creating layer relu3
I0522 03:44:34.887279 19252 net.cpp:106] Creating Layer relu3
I0522 03:44:34.887289 19252 net.cpp:454] relu3 <- conv3
I0522 03:44:34.887300 19252 net.cpp:397] relu3 -> conv3 (in-place)
I0522 03:44:34.887773 19252 net.cpp:150] Setting up relu3
I0522 03:44:34.887789 19252 net.cpp:157] Top shape: 20 28 22 44 (542080)
I0522 03:44:34.887799 19252 net.cpp:165] Memory required for data: 28604720
I0522 03:44:34.887809 19252 layer_factory.hpp:77] Creating layer pool3
I0522 03:44:34.887822 19252 net.cpp:106] Creating Layer pool3
I0522 03:44:34.887832 19252 net.cpp:454] pool3 <- conv3
I0522 03:44:34.887845 19252 net.cpp:411] pool3 -> pool3
I0522 03:44:34.887912 19252 net.cpp:150] Setting up pool3
I0522 03:44:34.887925 19252 net.cpp:157] Top shape: 20 28 11 44 (271040)
I0522 03:44:34.887935 19252 net.cpp:165] Memory required for data: 29688880
I0522 03:44:34.887944 19252 layer_factory.hpp:77] Creating layer conv4
I0522 03:44:34.887961 19252 net.cpp:106] Creating Layer conv4
I0522 03:44:34.887972 19252 net.cpp:454] conv4 <- pool3
I0522 03:44:34.887986 19252 net.cpp:411] conv4 -> conv4
I0522 03:44:34.890719 19252 net.cpp:150] Setting up conv4
I0522 03:44:34.890748 19252 net.cpp:157] Top shape: 20 36 6 42 (181440)
I0522 03:44:34.890758 19252 net.cpp:165] Memory required for data: 30414640
I0522 03:44:34.890774 19252 layer_factory.hpp:77] Creating layer relu4
I0522 03:44:34.890789 19252 net.cpp:106] Creating Layer relu4
I0522 03:44:34.890799 19252 net.cpp:454] relu4 <- conv4
I0522 03:44:34.890811 19252 net.cpp:397] relu4 -> conv4 (in-place)
I0522 03:44:34.891278 19252 net.cpp:150] Setting up relu4
I0522 03:44:34.891294 19252 net.cpp:157] Top shape: 20 36 6 42 (181440)
I0522 03:44:34.891304 19252 net.cpp:165] Memory required for data: 31140400
I0522 03:44:34.891314 19252 layer_factory.hpp:77] Creating layer pool4
I0522 03:44:34.891327 19252 net.cpp:106] Creating Layer pool4
I0522 03:44:34.891336 19252 net.cpp:454] pool4 <- conv4
I0522 03:44:34.891350 19252 net.cpp:411] pool4 -> pool4
I0522 03:44:34.891417 19252 net.cpp:150] Setting up pool4
I0522 03:44:34.891430 19252 net.cpp:157] Top shape: 20 36 3 42 (90720)
I0522 03:44:34.891441 19252 net.cpp:165] Memory required for data: 31503280
I0522 03:44:34.891451 19252 layer_factory.hpp:77] Creating layer ip1
I0522 03:44:34.891471 19252 net.cpp:106] Creating Layer ip1
I0522 03:44:34.891482 19252 net.cpp:454] ip1 <- pool4
I0522 03:44:34.891495 19252 net.cpp:411] ip1 -> ip1
I0522 03:44:34.906955 19252 net.cpp:150] Setting up ip1
I0522 03:44:34.906980 19252 net.cpp:157] Top shape: 20 196 (3920)
I0522 03:44:34.906991 19252 net.cpp:165] Memory required for data: 31518960
I0522 03:44:34.907018 19252 layer_factory.hpp:77] Creating layer relu5
I0522 03:44:34.907033 19252 net.cpp:106] Creating Layer relu5
I0522 03:44:34.907043 19252 net.cpp:454] relu5 <- ip1
I0522 03:44:34.907058 19252 net.cpp:397] relu5 -> ip1 (in-place)
I0522 03:44:34.907398 19252 net.cpp:150] Setting up relu5
I0522 03:44:34.907413 19252 net.cpp:157] Top shape: 20 196 (3920)
I0522 03:44:34.907423 19252 net.cpp:165] Memory required for data: 31534640
I0522 03:44:34.907433 19252 layer_factory.hpp:77] Creating layer drop1
I0522 03:44:34.907456 19252 net.cpp:106] Creating Layer drop1
I0522 03:44:34.907466 19252 net.cpp:454] drop1 <- ip1
I0522 03:44:34.907479 19252 net.cpp:397] drop1 -> ip1 (in-place)
I0522 03:44:34.907538 19252 net.cpp:150] Setting up drop1
I0522 03:44:34.907552 19252 net.cpp:157] Top shape: 20 196 (3920)
I0522 03:44:34.907562 19252 net.cpp:165] Memory required for data: 31550320
I0522 03:44:34.907572 19252 layer_factory.hpp:77] Creating layer ip2
I0522 03:44:34.907591 19252 net.cpp:106] Creating Layer ip2
I0522 03:44:34.907601 19252 net.cpp:454] ip2 <- ip1
I0522 03:44:34.907614 19252 net.cpp:411] ip2 -> ip2
I0522 03:44:34.908078 19252 net.cpp:150] Setting up ip2
I0522 03:44:34.908092 19252 net.cpp:157] Top shape: 20 98 (1960)
I0522 03:44:34.908100 19252 net.cpp:165] Memory required for data: 31558160
I0522 03:44:34.908115 19252 layer_factory.hpp:77] Creating layer relu6
I0522 03:44:34.908128 19252 net.cpp:106] Creating Layer relu6
I0522 03:44:34.908138 19252 net.cpp:454] relu6 <- ip2
I0522 03:44:34.908150 19252 net.cpp:397] relu6 -> ip2 (in-place)
I0522 03:44:34.908671 19252 net.cpp:150] Setting up relu6
I0522 03:44:34.908689 19252 net.cpp:157] Top shape: 20 98 (1960)
I0522 03:44:34.908699 19252 net.cpp:165] Memory required for data: 31566000
I0522 03:44:34.908710 19252 layer_factory.hpp:77] Creating layer drop2
I0522 03:44:34.908722 19252 net.cpp:106] Creating Layer drop2
I0522 03:44:34.908732 19252 net.cpp:454] drop2 <- ip2
I0522 03:44:34.908746 19252 net.cpp:397] drop2 -> ip2 (in-place)
I0522 03:44:34.908787 19252 net.cpp:150] Setting up drop2
I0522 03:44:34.908800 19252 net.cpp:157] Top shape: 20 98 (1960)
I0522 03:44:34.908812 19252 net.cpp:165] Memory required for data: 31573840
I0522 03:44:34.908821 19252 layer_factory.hpp:77] Creating layer ip3
I0522 03:44:34.908835 19252 net.cpp:106] Creating Layer ip3
I0522 03:44:34.908845 19252 net.cpp:454] ip3 <- ip2
I0522 03:44:34.908859 19252 net.cpp:411] ip3 -> ip3
I0522 03:44:34.909076 19252 net.cpp:150] Setting up ip3
I0522 03:44:34.909090 19252 net.cpp:157] Top shape: 20 11 (220)
I0522 03:44:34.909099 19252 net.cpp:165] Memory required for data: 31574720
I0522 03:44:34.909114 19252 layer_factory.hpp:77] Creating layer drop3
I0522 03:44:34.909127 19252 net.cpp:106] Creating Layer drop3
I0522 03:44:34.909137 19252 net.cpp:454] drop3 <- ip3
I0522 03:44:34.909148 19252 net.cpp:397] drop3 -> ip3 (in-place)
I0522 03:44:34.909188 19252 net.cpp:150] Setting up drop3
I0522 03:44:34.909201 19252 net.cpp:157] Top shape: 20 11 (220)
I0522 03:44:34.909211 19252 net.cpp:165] Memory required for data: 31575600
I0522 03:44:34.909221 19252 layer_factory.hpp:77] Creating layer loss
I0522 03:44:34.909240 19252 net.cpp:106] Creating Layer loss
I0522 03:44:34.909250 19252 net.cpp:454] loss <- ip3
I0522 03:44:34.909261 19252 net.cpp:454] loss <- label
I0522 03:44:34.909272 19252 net.cpp:411] loss -> loss
I0522 03:44:34.909289 19252 layer_factory.hpp:77] Creating layer loss
…
I0522 03:44:34.911988 19252 solver.cpp:181] Creating test net (#0) specified by net file: /lustre/atlas/proj-shared/hep105/caffe_titan/caffe_workflow/logs_bslr/bs_20_lr_0.0040_2016-05-20T15.48.56.158271.prototxt
I0522 03:44:34.912060 19252 net.cpp:322] The NetState phase (1) differed from the phase (0) specified by a rule in layer data_hdf5
I0522 03:44:34.912415 19252 net.cpp:49] Initializing net from parameters: 
name: "caffe_test_127x50_x_unshifted"
state {
  phase: TEST
}
layer {
  name: "data_hdf5"
  type: "HDF5Data"
  top: "data"
  top: "label"
  include {
    phase: TEST
  }
  hdf5_data_param {
    source: "/lustre/atlas/proj-shared/hep105/caffe_titan/minosmatch_nukecczdefs_127x50_x_unshifted_me1Bmc.testlist"
    batch_size: 20
  }
}
layer {
  name: "conv1"
  type: "Convolution"
  bottom: "data"
  top: "conv1"
  convolution_param {
    num_output: 12
    pad: 0
    stride: 1
    weight_filler {
      type: "xavier"
    }
    bias_filler {
      type: "constant"
    }
    kernel_h: 8
    kernel_w: 3
  }
}
layer {
  name: "relu1"
  type: "ReLU"
  bottom: "conv1"
  top: "conv1"
}
layer {
  name: "pool1"
  type: "Pooling"
  bottom: "conv1"
  top: "pool1"
  pooling_param {
    pool: MAX
    kernel_h: 2
    kernel_w: 1
    stride_h: 2
    stride_w: 1
  }
}
layer {
  name: "conv2"
  type: "Convolution"
  bottom: "pool1"
  top: "conv2"
  convolution_param {
    num_output: 20
    pad: 0
    stride: 1
    weight_filler {
      type: "xavier"
    }
    bias_filler {
      type: "constant"
    }
    kernel_h: 7
    kernel_w: 3
  }
}
layer {
  name: "relu2"
  type: "ReLU"
  bottom: "conv2"
  top: "conv2"
}
layer {
  name: "pool2"
  type: "Pooling"
  bottom: "conv2"
  top: "pool2"
  pooling_param {
    pool: MAX
    kernel_h: 2
    kernel_w: 1
    stride_h: 2
    stride_w: 1
  }
}
layer {
  name: "conv3"
  type: "Convolution"
  bottom: "pool2"
  top: "conv3"
  convolution_param {
    num_output: 28
    pad: 0
    stride: 1
    weight_filler {
      type: "xavier"
    }
    bias_filler {
      type: "constant"
    }
    kernel_h: 6
    kernel_w: 3
  }
}
layer {
  name: "relu3"
  type: "ReLU"
  bottom: "conv3"
  top: "conv3"
}
layer {
  name: "pool3"
  type: "Pooling"
  bottom: "conv3"
  top: "pool3"
  pooling_param {
    pool: MAX
    kernel_h: 2
    kernel_w: 1
    stride_h: 2
    stride_w: 1
  }
}
layer {
  name: "conv4"
  type: "Convolution"
  bottom: "pool3"
  top: "conv4"
  convolution_param {
    num_output: 36
    pad: 0
    stride: 1
    weight_filler {
      type: "xavier"
    }
    bias_filler {
      type: "constant"
    }
    kernel_h: 6
    kernel_w: 3
  }
}
layer {
  name: "relu4"
  type: "ReLU"
  bottom: "conv4"
  top: "conv4"
}
layer {
  name: "pool4"
  type: "Pooling"
  bottom: "conv4"
  top: "pool4"
  pooling_param {
    pool: MAX
    kernel_h: 2
    kernel_w: 1
    stride_h: 2
    stride_w: 1
  }
}
layer {
  name: "ip1"
  type: "InnerProduct"
  bottom: "pool4"
  top: "ip1"
  inner_product_param {
    num_output: 196
    weight_filler {
      type: "xavier"
    }
    bias_filler {
      type: "constant"
    }
  }
}
layer {
  name: "relu5"
  type: "ReLU"
  bottom: "ip1"
  top: "ip1"
}
layer {
  name: "drop1"
  type: "Dropout"
  bottom: "ip1"
  top: "ip1"
  dropout_param {
    dropout_ratio: 0.5
  }
}
layer {
  name: "ip2"
  type: "InnerProduct"
  bottom: "ip1"
  top: "ip2"
  inner_product_param {
    num_output: 98
    weight_filler {
      type: "xavier"
    }
    bias_filler {
      type: "constant"
    }
  }
}
layer {
  name: "relu6"
  type: "ReLU"
  bottom: "ip2"
  top: "ip2"
}
layer {
  name: "drop2"
  type: "Dropout"
  bottom: "ip2"
  top: "ip2"
  dropout_param {
    dropout_ratio: 0.5
  }
}
layer {
  name: "ip3"
  type: "InnerProduct"
  bottom: "ip2"
  top: "ip3"
  inner_product_param {
    num_output: 11
    weight_filler {
      type: "xavier"
    }
    bias_filler {
      type: "constant"
    }
  }
}
layer {
  name: "drop3"
  type: "Dropout"
  bottom: "ip3"
  top: "ip3"
  dropout_param {
    dropout_ratio: 0.5
  }
}
layer {
  name: "accuracy"
  type: "Accuracy"
  bottom: "ip3"
  bottom: "label"
  top: "accuracy"
  include {
    phase: TEST
  }
}
layer {
  name: "loss"
  type: "SoftmaxWithLoss"
  bottom: "ip3"
  bottom: "label"
  top: "loss"
}
I0522 03:44:34.912605 19252 layer_factory.hpp:77] Creating layer data_hdf5
I0522 03:44:34.912619 19252 net.cpp:106] Creating Layer data_hdf5
I0522 03:44:34.912631 19252 net.cpp:411] data_hdf5 -> data
I0522 03:44:34.912648 19252 net.cpp:411] data_hdf5 -> label
I0522 03:44:34.912664 19252 hdf5_data_layer.cpp:79] Loading list of HDF5 filenames from: /lustre/atlas/proj-shared/hep105/caffe_titan/minosmatch_nukecczdefs_127x50_x_unshifted_me1Bmc.testlist
I0522 03:44:34.927651 19252 hdf5_data_layer.cpp:93] Number of HDF5 files: 3
I0522 03:44:56.314661 19252 net.cpp:150] Setting up data_hdf5
I0522 03:44:56.314826 19252 net.cpp:157] Top shape: 20 1 127 50 (127000)
I0522 03:44:56.314841 19252 net.cpp:157] Top shape: 20 (20)
I0522 03:44:56.314851 19252 net.cpp:165] Memory required for data: 508080
I0522 03:44:56.314864 19252 layer_factory.hpp:77] Creating layer label_data_hdf5_1_split
I0522 03:44:56.314893 19252 net.cpp:106] Creating Layer label_data_hdf5_1_split
I0522 03:44:56.314904 19252 net.cpp:454] label_data_hdf5_1_split <- label
I0522 03:44:56.314918 19252 net.cpp:411] label_data_hdf5_1_split -> label_data_hdf5_1_split_0
I0522 03:44:56.314940 19252 net.cpp:411] label_data_hdf5_1_split -> label_data_hdf5_1_split_1
I0522 03:44:56.315012 19252 net.cpp:150] Setting up label_data_hdf5_1_split
I0522 03:44:56.315026 19252 net.cpp:157] Top shape: 20 (20)
I0522 03:44:56.315038 19252 net.cpp:157] Top shape: 20 (20)
I0522 03:44:56.315048 19252 net.cpp:165] Memory required for data: 508240
I0522 03:44:56.315058 19252 layer_factory.hpp:77] Creating layer conv1
I0522 03:44:56.315081 19252 net.cpp:106] Creating Layer conv1
I0522 03:44:56.315091 19252 net.cpp:454] conv1 <- data
I0522 03:44:56.315104 19252 net.cpp:411] conv1 -> conv1
I0522 03:44:56.317042 19252 net.cpp:150] Setting up conv1
I0522 03:44:56.317067 19252 net.cpp:157] Top shape: 20 12 120 48 (1382400)
I0522 03:44:56.317078 19252 net.cpp:165] Memory required for data: 6037840
I0522 03:44:56.317100 19252 layer_factory.hpp:77] Creating layer relu1
I0522 03:44:56.317114 19252 net.cpp:106] Creating Layer relu1
I0522 03:44:56.317124 19252 net.cpp:454] relu1 <- conv1
I0522 03:44:56.317137 19252 net.cpp:397] relu1 -> conv1 (in-place)
I0522 03:44:56.317641 19252 net.cpp:150] Setting up relu1
I0522 03:44:56.317657 19252 net.cpp:157] Top shape: 20 12 120 48 (1382400)
I0522 03:44:56.317667 19252 net.cpp:165] Memory required for data: 11567440
I0522 03:44:56.317677 19252 layer_factory.hpp:77] Creating layer pool1
I0522 03:44:56.317694 19252 net.cpp:106] Creating Layer pool1
I0522 03:44:56.317704 19252 net.cpp:454] pool1 <- conv1
I0522 03:44:56.317718 19252 net.cpp:411] pool1 -> pool1
I0522 03:44:56.317791 19252 net.cpp:150] Setting up pool1
I0522 03:44:56.317805 19252 net.cpp:157] Top shape: 20 12 60 48 (691200)
I0522 03:44:56.317814 19252 net.cpp:165] Memory required for data: 14332240
I0522 03:44:56.317824 19252 layer_factory.hpp:77] Creating layer conv2
I0522 03:44:56.317844 19252 net.cpp:106] Creating Layer conv2
I0522 03:44:56.317855 19252 net.cpp:454] conv2 <- pool1
I0522 03:44:56.317869 19252 net.cpp:411] conv2 -> conv2
I0522 03:44:56.319782 19252 net.cpp:150] Setting up conv2
I0522 03:44:56.319804 19252 net.cpp:157] Top shape: 20 20 54 46 (993600)
I0522 03:44:56.319818 19252 net.cpp:165] Memory required for data: 18306640
I0522 03:44:56.319834 19252 layer_factory.hpp:77] Creating layer relu2
I0522 03:44:56.319849 19252 net.cpp:106] Creating Layer relu2
I0522 03:44:56.319859 19252 net.cpp:454] relu2 <- conv2
I0522 03:44:56.319871 19252 net.cpp:397] relu2 -> conv2 (in-place)
I0522 03:44:56.320204 19252 net.cpp:150] Setting up relu2
I0522 03:44:56.320217 19252 net.cpp:157] Top shape: 20 20 54 46 (993600)
I0522 03:44:56.320227 19252 net.cpp:165] Memory required for data: 22281040
I0522 03:44:56.320237 19252 layer_factory.hpp:77] Creating layer pool2
I0522 03:44:56.320250 19252 net.cpp:106] Creating Layer pool2
I0522 03:44:56.320261 19252 net.cpp:454] pool2 <- conv2
I0522 03:44:56.320273 19252 net.cpp:411] pool2 -> pool2
I0522 03:44:56.320344 19252 net.cpp:150] Setting up pool2
I0522 03:44:56.320358 19252 net.cpp:157] Top shape: 20 20 27 46 (496800)
I0522 03:44:56.320369 19252 net.cpp:165] Memory required for data: 24268240
I0522 03:44:56.320379 19252 layer_factory.hpp:77] Creating layer conv3
I0522 03:44:56.320397 19252 net.cpp:106] Creating Layer conv3
I0522 03:44:56.320408 19252 net.cpp:454] conv3 <- pool2
I0522 03:44:56.320422 19252 net.cpp:411] conv3 -> conv3
I0522 03:44:56.322417 19252 net.cpp:150] Setting up conv3
I0522 03:44:56.322440 19252 net.cpp:157] Top shape: 20 28 22 44 (542080)
I0522 03:44:56.322450 19252 net.cpp:165] Memory required for data: 26436560
I0522 03:44:56.322470 19252 layer_factory.hpp:77] Creating layer relu3
I0522 03:44:56.322495 19252 net.cpp:106] Creating Layer relu3
I0522 03:44:56.322505 19252 net.cpp:454] relu3 <- conv3
I0522 03:44:56.322518 19252 net.cpp:397] relu3 -> conv3 (in-place)
I0522 03:44:56.322993 19252 net.cpp:150] Setting up relu3
I0522 03:44:56.323009 19252 net.cpp:157] Top shape: 20 28 22 44 (542080)
I0522 03:44:56.323020 19252 net.cpp:165] Memory required for data: 28604880
I0522 03:44:56.323030 19252 layer_factory.hpp:77] Creating layer pool3
I0522 03:44:56.323042 19252 net.cpp:106] Creating Layer pool3
I0522 03:44:56.323052 19252 net.cpp:454] pool3 <- conv3
I0522 03:44:56.323065 19252 net.cpp:411] pool3 -> pool3
I0522 03:44:56.323137 19252 net.cpp:150] Setting up pool3
I0522 03:44:56.323150 19252 net.cpp:157] Top shape: 20 28 11 44 (271040)
I0522 03:44:56.323160 19252 net.cpp:165] Memory required for data: 29689040
I0522 03:44:56.323170 19252 layer_factory.hpp:77] Creating layer conv4
I0522 03:44:56.323186 19252 net.cpp:106] Creating Layer conv4
I0522 03:44:56.323197 19252 net.cpp:454] conv4 <- pool3
I0522 03:44:56.323211 19252 net.cpp:411] conv4 -> conv4
I0522 03:44:56.325273 19252 net.cpp:150] Setting up conv4
I0522 03:44:56.325295 19252 net.cpp:157] Top shape: 20 36 6 42 (181440)
I0522 03:44:56.325309 19252 net.cpp:165] Memory required for data: 30414800
I0522 03:44:56.325323 19252 layer_factory.hpp:77] Creating layer relu4
I0522 03:44:56.325337 19252 net.cpp:106] Creating Layer relu4
I0522 03:44:56.325347 19252 net.cpp:454] relu4 <- conv4
I0522 03:44:56.325361 19252 net.cpp:397] relu4 -> conv4 (in-place)
I0522 03:44:56.325836 19252 net.cpp:150] Setting up relu4
I0522 03:44:56.325853 19252 net.cpp:157] Top shape: 20 36 6 42 (181440)
I0522 03:44:56.325863 19252 net.cpp:165] Memory required for data: 31140560
I0522 03:44:56.325873 19252 layer_factory.hpp:77] Creating layer pool4
I0522 03:44:56.325886 19252 net.cpp:106] Creating Layer pool4
I0522 03:44:56.325896 19252 net.cpp:454] pool4 <- conv4
I0522 03:44:56.325909 19252 net.cpp:411] pool4 -> pool4
I0522 03:44:56.325981 19252 net.cpp:150] Setting up pool4
I0522 03:44:56.325994 19252 net.cpp:157] Top shape: 20 36 3 42 (90720)
I0522 03:44:56.326004 19252 net.cpp:165] Memory required for data: 31503440
I0522 03:44:56.326014 19252 layer_factory.hpp:77] Creating layer ip1
I0522 03:44:56.326027 19252 net.cpp:106] Creating Layer ip1
I0522 03:44:56.326038 19252 net.cpp:454] ip1 <- pool4
I0522 03:44:56.326051 19252 net.cpp:411] ip1 -> ip1
I0522 03:44:56.341490 19252 net.cpp:150] Setting up ip1
I0522 03:44:56.341519 19252 net.cpp:157] Top shape: 20 196 (3920)
I0522 03:44:56.341532 19252 net.cpp:165] Memory required for data: 31519120
I0522 03:44:56.341554 19252 layer_factory.hpp:77] Creating layer relu5
I0522 03:44:56.341569 19252 net.cpp:106] Creating Layer relu5
I0522 03:44:56.341579 19252 net.cpp:454] relu5 <- ip1
I0522 03:44:56.341593 19252 net.cpp:397] relu5 -> ip1 (in-place)
I0522 03:44:56.341938 19252 net.cpp:150] Setting up relu5
I0522 03:44:56.341953 19252 net.cpp:157] Top shape: 20 196 (3920)
I0522 03:44:56.341963 19252 net.cpp:165] Memory required for data: 31534800
I0522 03:44:56.341972 19252 layer_factory.hpp:77] Creating layer drop1
I0522 03:44:56.341992 19252 net.cpp:106] Creating Layer drop1
I0522 03:44:56.342002 19252 net.cpp:454] drop1 <- ip1
I0522 03:44:56.342015 19252 net.cpp:397] drop1 -> ip1 (in-place)
I0522 03:44:56.342061 19252 net.cpp:150] Setting up drop1
I0522 03:44:56.342077 19252 net.cpp:157] Top shape: 20 196 (3920)
I0522 03:44:56.342085 19252 net.cpp:165] Memory required for data: 31550480
I0522 03:44:56.342095 19252 layer_factory.hpp:77] Creating layer ip2
I0522 03:44:56.342110 19252 net.cpp:106] Creating Layer ip2
I0522 03:44:56.342120 19252 net.cpp:454] ip2 <- ip1
I0522 03:44:56.342133 19252 net.cpp:411] ip2 -> ip2
I0522 03:44:56.342612 19252 net.cpp:150] Setting up ip2
I0522 03:44:56.342625 19252 net.cpp:157] Top shape: 20 98 (1960)
I0522 03:44:56.342635 19252 net.cpp:165] Memory required for data: 31558320
I0522 03:44:56.342650 19252 layer_factory.hpp:77] Creating layer relu6
I0522 03:44:56.342676 19252 net.cpp:106] Creating Layer relu6
I0522 03:44:56.342686 19252 net.cpp:454] relu6 <- ip2
I0522 03:44:56.342699 19252 net.cpp:397] relu6 -> ip2 (in-place)
I0522 03:44:56.343235 19252 net.cpp:150] Setting up relu6
I0522 03:44:56.343250 19252 net.cpp:157] Top shape: 20 98 (1960)
I0522 03:44:56.343261 19252 net.cpp:165] Memory required for data: 31566160
I0522 03:44:56.343271 19252 layer_factory.hpp:77] Creating layer drop2
I0522 03:44:56.343284 19252 net.cpp:106] Creating Layer drop2
I0522 03:44:56.343294 19252 net.cpp:454] drop2 <- ip2
I0522 03:44:56.343307 19252 net.cpp:397] drop2 -> ip2 (in-place)
I0522 03:44:56.343353 19252 net.cpp:150] Setting up drop2
I0522 03:44:56.343365 19252 net.cpp:157] Top shape: 20 98 (1960)
I0522 03:44:56.343375 19252 net.cpp:165] Memory required for data: 31574000
I0522 03:44:56.343385 19252 layer_factory.hpp:77] Creating layer ip3
I0522 03:44:56.343400 19252 net.cpp:106] Creating Layer ip3
I0522 03:44:56.343410 19252 net.cpp:454] ip3 <- ip2
I0522 03:44:56.343423 19252 net.cpp:411] ip3 -> ip3
I0522 03:44:56.343647 19252 net.cpp:150] Setting up ip3
I0522 03:44:56.343660 19252 net.cpp:157] Top shape: 20 11 (220)
I0522 03:44:56.343669 19252 net.cpp:165] Memory required for data: 31574880
I0522 03:44:56.343684 19252 layer_factory.hpp:77] Creating layer drop3
I0522 03:44:56.343698 19252 net.cpp:106] Creating Layer drop3
I0522 03:44:56.343708 19252 net.cpp:454] drop3 <- ip3
I0522 03:44:56.343720 19252 net.cpp:397] drop3 -> ip3 (in-place)
I0522 03:44:56.343761 19252 net.cpp:150] Setting up drop3
I0522 03:44:56.343775 19252 net.cpp:157] Top shape: 20 11 (220)
I0522 03:44:56.343785 19252 net.cpp:165] Memory required for data: 31575760
I0522 03:44:56.343793 19252 layer_factory.hpp:77] Creating layer ip3_drop3_0_split
I0522 03:44:56.343807 19252 net.cpp:106] Creating Layer ip3_drop3_0_split
I0522 03:44:56.343816 19252 net.cpp:454] ip3_drop3_0_split <- ip3
I0522 03:44:56.343829 19252 net.cpp:411] ip3_drop3_0_split -> ip3_drop3_0_split_0
I0522 03:44:56.343844 19252 net.cpp:411] ip3_drop3_0_split -> ip3_drop3_0_split_1
I0522 03:44:56.343917 19252 net.cpp:150] Setting up ip3_drop3_0_split
I0522 03:44:56.343930 19252 net.cpp:157] Top shape: 20 11 (220)
I0522 03:44:56.343942 19252 net.cpp:157] Top shape: 20 11 (220)
I0522 03:44:56.343953 19252 net.cpp:165] Memory required for data: 31577520
I0522 03:44:56.343964 19252 layer_factory.hpp:77] Creating layer accuracy
I0522 03:44:56.343986 19252 net.cpp:106] Creating Layer accuracy
I0522 03:44:56.343996 19252 net.cpp:454] accuracy <- ip3_drop3_0_split_0
I0522 03:44:56.344007 19252 net.cpp:454] accuracy <- label_data_hdf5_1_split_0
I0522 03:44:56.344020 19252 net.cpp:411] accuracy -> accuracy
…
