…
I0526 17:08:49.432154 13044 net.cpp:322] The NetState phase (0) differed from the phase (1) specified by a rule in layer data_hdf5
I0526 17:08:49.432214 13044 net.cpp:322] The NetState phase (0) differed from the phase (1) specified by a rule in layer accuracy
I0526 17:08:49.432562 13044 net.cpp:49] Initializing net from parameters: 
name: "caffe_test_127x50_x_unshifted"
state {
  phase: TRAIN
}
layer {
  name: "data_hdf5"
  type: "HDF5Data"
  top: "data"
  top: "label"
  include {
    phase: TRAIN
  }
  hdf5_data_param {
    source: "/lustre/atlas/proj-shared/hep105/caffe_titan/minosmatch_nukecczdefs_127x50_x_unshifted_me1Bmc.trainlist"
    batch_size: 20
  }
}
layer {
  name: "conv1"
  type: "Convolution"
  bottom: "data"
  top: "conv1"
  convolution_param {
    num_output: 12
    pad: 0
    stride: 1
    weight_filler {
      type: "xavier"
    }
    bias_filler {
      type: "constant"
    }
    kernel_h: 8
    kernel_w: 3
  }
}
layer {
  name: "relu1"
  type: "ReLU"
  bottom: "conv1"
  top: "conv1"
}
layer {
  name: "pool1"
  type: "Pooling"
  bottom: "conv1"
  top: "pool1"
  pooling_param {
    pool: MAX
    kernel_h: 2
    kernel_w: 1
    stride_h: 2
    stride_w: 1
  }
}
layer {
  name: "conv2"
  type: "Convolution"
  bottom: "pool1"
  top: "conv2"
  convolution_param {
    num_output: 20
    pad: 0
    stride: 1
    weight_filler {
      type: "xavier"
    }
    bias_filler {
      type: "constant"
    }
    kernel_h: 7
    kernel_w: 3
  }
}
layer {
  name: "relu2"
  type: "ReLU"
  bottom: "conv2"
  top: "conv2"
}
layer {
  name: "pool2"
  type: "Pooling"
  bottom: "conv2"
  top: "pool2"
  pooling_param {
    pool: MAX
    kernel_h: 2
    kernel_w: 1
    stride_h: 2
    stride_w: 1
  }
}
layer {
  name: "conv3"
  type: "Convolution"
  bottom: "pool2"
  top: "conv3"
  convolution_param {
    num_output: 28
    pad: 0
    stride: 1
    weight_filler {
      type: "xavier"
    }
    bias_filler {
      type: "constant"
    }
    kernel_h: 6
    kernel_w: 3
  }
}
layer {
  name: "relu3"
  type: "ReLU"
  bottom: "conv3"
  top: "conv3"
}
layer {
  name: "pool3"
  type: "Pooling"
  bottom: "conv3"
  top: "pool3"
  pooling_param {
    pool: MAX
    kernel_h: 2
    kernel_w: 1
    stride_h: 2
    stride_w: 1
  }
}
layer {
  name: "conv4"
  type: "Convolution"
  bottom: "pool3"
  top: "conv4"
  convolution_param {
    num_output: 36
    pad: 0
    stride: 1
    weight_filler {
      type: "xavier"
    }
    bias_filler {
      type: "constant"
    }
    kernel_h: 6
    kernel_w: 3
  }
}
layer {
  name: "relu4"
  type: "ReLU"
  bottom: "conv4"
  top: "conv4"
}
layer {
  name: "pool4"
  type: "Pooling"
  bottom: "conv4"
  top: "pool4"
  pooling_param {
    pool: MAX
    kernel_h: 2
    kernel_w: 1
    stride_h: 2
    stride_w: 1
  }
}
layer {
  name: "ip1"
  type: "InnerProduct"
  bottom: "pool4"
  top: "ip1"
  inner_product_param {
    num_output: 196
    weight_filler {
      type: "xavier"
    }
    bias_filler {
      type: "constant"
    }
  }
}
layer {
  name: "relu5"
  type: "ReLU"
  bottom: "ip1"
  top: "ip1"
}
layer {
  name: "drop1"
  type: "Dropout"
  bottom: "ip1"
  top: "ip1"
  dropout_param {
    dropout_ratio: 0.5
  }
}
layer {
  name: "ip2"
  type: "InnerProduct"
  bottom: "ip1"
  top: "ip2"
  inner_product_param {
    num_output: 98
    weight_filler {
      type: "xavier"
    }
    bias_filler {
      type: "constant"
    }
  }
}
layer {
  name: "relu6"
  type: "ReLU"
  bottom: "ip2"
  top: "ip2"
}
layer {
  name: "drop2"
  type: "Dropout"
  bottom: "ip2"
  top: "ip2"
  dropout_param {
    dropout_ratio: 0.5
  }
}
layer {
  name: "ip3"
  type: "InnerProduct"
  bottom: "ip2"
  top: "ip3"
  inner_product_param {
    num_output: 11
    weight_filler {
      type: "xavier"
    }
    bias_filler {
      type: "constant"
    }
  }
}
layer {
  name: "drop3"
  type: "Dropout"
  bottom: "ip3"
  top: "ip3"
  dropout_param {
    dropout_ratio: 0.5
  }
}
layer {
  name: "loss"
  type: "SoftmaxWithLoss"
  bottom: "ip3"
  bottom: "label"
  top: "loss"
}
I0526 17:08:49.432742 13044 layer_factory.hpp:77] Creating layer data_hdf5
I0526 17:08:49.432766 13044 net.cpp:106] Creating Layer data_hdf5
I0526 17:08:49.432781 13044 net.cpp:411] data_hdf5 -> data
I0526 17:08:49.432816 13044 net.cpp:411] data_hdf5 -> label
I0526 17:08:49.432848 13044 hdf5_data_layer.cpp:79] Loading list of HDF5 filenames from: /lustre/atlas/proj-shared/hep105/caffe_titan/minosmatch_nukecczdefs_127x50_x_unshifted_me1Bmc.trainlist
I0526 17:08:49.448279 13044 hdf5_data_layer.cpp:93] Number of HDF5 files: 15
I0526 17:08:49.465545 13044 hdf5.cpp:32] Datatype class: H5T_FLOAT
I0526 17:09:11.065168 13044 hdf5.cpp:35] Datatype class: H5T_INTEGER
I0526 17:09:11.070356 13044 net.cpp:150] Setting up data_hdf5
I0526 17:09:11.070397 13044 net.cpp:157] Top shape: 20 1 127 50 (127000)
I0526 17:09:11.070411 13044 net.cpp:157] Top shape: 20 (20)
I0526 17:09:11.070423 13044 net.cpp:165] Memory required for data: 508080
I0526 17:09:11.070437 13044 layer_factory.hpp:77] Creating layer conv1
I0526 17:09:11.070471 13044 net.cpp:106] Creating Layer conv1
I0526 17:09:11.070482 13044 net.cpp:454] conv1 <- data
I0526 17:09:11.070502 13044 net.cpp:411] conv1 -> conv1
I0526 17:09:13.828749 13044 net.cpp:150] Setting up conv1
I0526 17:09:13.828791 13044 net.cpp:157] Top shape: 20 12 120 48 (1382400)
I0526 17:09:13.828805 13044 net.cpp:165] Memory required for data: 6037680
I0526 17:09:13.828835 13044 layer_factory.hpp:77] Creating layer relu1
I0526 17:09:13.828856 13044 net.cpp:106] Creating Layer relu1
I0526 17:09:13.828867 13044 net.cpp:454] relu1 <- conv1
I0526 17:09:13.828881 13044 net.cpp:397] relu1 -> conv1 (in-place)
I0526 17:09:13.829402 13044 net.cpp:150] Setting up relu1
I0526 17:09:13.829418 13044 net.cpp:157] Top shape: 20 12 120 48 (1382400)
I0526 17:09:13.829429 13044 net.cpp:165] Memory required for data: 11567280
I0526 17:09:13.829440 13044 layer_factory.hpp:77] Creating layer pool1
I0526 17:09:13.829457 13044 net.cpp:106] Creating Layer pool1
I0526 17:09:13.829468 13044 net.cpp:454] pool1 <- conv1
I0526 17:09:13.829483 13044 net.cpp:411] pool1 -> pool1
I0526 17:09:13.829563 13044 net.cpp:150] Setting up pool1
I0526 17:09:13.829577 13044 net.cpp:157] Top shape: 20 12 60 48 (691200)
I0526 17:09:13.829587 13044 net.cpp:165] Memory required for data: 14332080
I0526 17:09:13.829598 13044 layer_factory.hpp:77] Creating layer conv2
I0526 17:09:13.829620 13044 net.cpp:106] Creating Layer conv2
I0526 17:09:13.829630 13044 net.cpp:454] conv2 <- pool1
I0526 17:09:13.829643 13044 net.cpp:411] conv2 -> conv2
I0526 17:09:13.832427 13044 net.cpp:150] Setting up conv2
I0526 17:09:13.832455 13044 net.cpp:157] Top shape: 20 20 54 46 (993600)
I0526 17:09:13.832466 13044 net.cpp:165] Memory required for data: 18306480
I0526 17:09:13.832485 13044 layer_factory.hpp:77] Creating layer relu2
I0526 17:09:13.832500 13044 net.cpp:106] Creating Layer relu2
I0526 17:09:13.832510 13044 net.cpp:454] relu2 <- conv2
I0526 17:09:13.832523 13044 net.cpp:397] relu2 -> conv2 (in-place)
I0526 17:09:13.832855 13044 net.cpp:150] Setting up relu2
I0526 17:09:13.832870 13044 net.cpp:157] Top shape: 20 20 54 46 (993600)
I0526 17:09:13.832880 13044 net.cpp:165] Memory required for data: 22280880
I0526 17:09:13.832890 13044 layer_factory.hpp:77] Creating layer pool2
I0526 17:09:13.832902 13044 net.cpp:106] Creating Layer pool2
I0526 17:09:13.832912 13044 net.cpp:454] pool2 <- conv2
I0526 17:09:13.832924 13044 net.cpp:411] pool2 -> pool2
I0526 17:09:13.833005 13044 net.cpp:150] Setting up pool2
I0526 17:09:13.833024 13044 net.cpp:157] Top shape: 20 20 27 46 (496800)
I0526 17:09:13.833034 13044 net.cpp:165] Memory required for data: 24268080
I0526 17:09:13.833045 13044 layer_factory.hpp:77] Creating layer conv3
I0526 17:09:13.833060 13044 net.cpp:106] Creating Layer conv3
I0526 17:09:13.833070 13044 net.cpp:454] conv3 <- pool2
I0526 17:09:13.833084 13044 net.cpp:411] conv3 -> conv3
I0526 17:09:13.835031 13044 net.cpp:150] Setting up conv3
I0526 17:09:13.835054 13044 net.cpp:157] Top shape: 20 28 22 44 (542080)
I0526 17:09:13.835069 13044 net.cpp:165] Memory required for data: 26436400
I0526 17:09:13.835088 13044 layer_factory.hpp:77] Creating layer relu3
I0526 17:09:13.835103 13044 net.cpp:106] Creating Layer relu3
I0526 17:09:13.835114 13044 net.cpp:454] relu3 <- conv3
I0526 17:09:13.835126 13044 net.cpp:397] relu3 -> conv3 (in-place)
I0526 17:09:13.835607 13044 net.cpp:150] Setting up relu3
I0526 17:09:13.835623 13044 net.cpp:157] Top shape: 20 28 22 44 (542080)
I0526 17:09:13.835634 13044 net.cpp:165] Memory required for data: 28604720
I0526 17:09:13.835644 13044 layer_factory.hpp:77] Creating layer pool3
I0526 17:09:13.835657 13044 net.cpp:106] Creating Layer pool3
I0526 17:09:13.835667 13044 net.cpp:454] pool3 <- conv3
I0526 17:09:13.835680 13044 net.cpp:411] pool3 -> pool3
I0526 17:09:13.835748 13044 net.cpp:150] Setting up pool3
I0526 17:09:13.835762 13044 net.cpp:157] Top shape: 20 28 11 44 (271040)
I0526 17:09:13.835772 13044 net.cpp:165] Memory required for data: 29688880
I0526 17:09:13.835780 13044 layer_factory.hpp:77] Creating layer conv4
I0526 17:09:13.835798 13044 net.cpp:106] Creating Layer conv4
I0526 17:09:13.835808 13044 net.cpp:454] conv4 <- pool3
I0526 17:09:13.835822 13044 net.cpp:411] conv4 -> conv4
I0526 17:09:13.838542 13044 net.cpp:150] Setting up conv4
I0526 17:09:13.838570 13044 net.cpp:157] Top shape: 20 36 6 42 (181440)
I0526 17:09:13.838580 13044 net.cpp:165] Memory required for data: 30414640
I0526 17:09:13.838595 13044 layer_factory.hpp:77] Creating layer relu4
I0526 17:09:13.838609 13044 net.cpp:106] Creating Layer relu4
I0526 17:09:13.838619 13044 net.cpp:454] relu4 <- conv4
I0526 17:09:13.838632 13044 net.cpp:397] relu4 -> conv4 (in-place)
I0526 17:09:13.839098 13044 net.cpp:150] Setting up relu4
I0526 17:09:13.839114 13044 net.cpp:157] Top shape: 20 36 6 42 (181440)
I0526 17:09:13.839125 13044 net.cpp:165] Memory required for data: 31140400
I0526 17:09:13.839135 13044 layer_factory.hpp:77] Creating layer pool4
I0526 17:09:13.839148 13044 net.cpp:106] Creating Layer pool4
I0526 17:09:13.839159 13044 net.cpp:454] pool4 <- conv4
I0526 17:09:13.839171 13044 net.cpp:411] pool4 -> pool4
I0526 17:09:13.839239 13044 net.cpp:150] Setting up pool4
I0526 17:09:13.839253 13044 net.cpp:157] Top shape: 20 36 3 42 (90720)
I0526 17:09:13.839263 13044 net.cpp:165] Memory required for data: 31503280
I0526 17:09:13.839273 13044 layer_factory.hpp:77] Creating layer ip1
I0526 17:09:13.839293 13044 net.cpp:106] Creating Layer ip1
I0526 17:09:13.839303 13044 net.cpp:454] ip1 <- pool4
I0526 17:09:13.839318 13044 net.cpp:411] ip1 -> ip1
I0526 17:09:13.854794 13044 net.cpp:150] Setting up ip1
I0526 17:09:13.854822 13044 net.cpp:157] Top shape: 20 196 (3920)
I0526 17:09:13.854835 13044 net.cpp:165] Memory required for data: 31518960
I0526 17:09:13.854856 13044 layer_factory.hpp:77] Creating layer relu5
I0526 17:09:13.854871 13044 net.cpp:106] Creating Layer relu5
I0526 17:09:13.854882 13044 net.cpp:454] relu5 <- ip1
I0526 17:09:13.854895 13044 net.cpp:397] relu5 -> ip1 (in-place)
I0526 17:09:13.855235 13044 net.cpp:150] Setting up relu5
I0526 17:09:13.855249 13044 net.cpp:157] Top shape: 20 196 (3920)
I0526 17:09:13.855260 13044 net.cpp:165] Memory required for data: 31534640
I0526 17:09:13.855270 13044 layer_factory.hpp:77] Creating layer drop1
I0526 17:09:13.855293 13044 net.cpp:106] Creating Layer drop1
I0526 17:09:13.855303 13044 net.cpp:454] drop1 <- ip1
I0526 17:09:13.855315 13044 net.cpp:397] drop1 -> ip1 (in-place)
I0526 17:09:13.855376 13044 net.cpp:150] Setting up drop1
I0526 17:09:13.855388 13044 net.cpp:157] Top shape: 20 196 (3920)
I0526 17:09:13.855398 13044 net.cpp:165] Memory required for data: 31550320
I0526 17:09:13.855408 13044 layer_factory.hpp:77] Creating layer ip2
I0526 17:09:13.855427 13044 net.cpp:106] Creating Layer ip2
I0526 17:09:13.855437 13044 net.cpp:454] ip2 <- ip1
I0526 17:09:13.855451 13044 net.cpp:411] ip2 -> ip2
I0526 17:09:13.855921 13044 net.cpp:150] Setting up ip2
I0526 17:09:13.855934 13044 net.cpp:157] Top shape: 20 98 (1960)
I0526 17:09:13.855944 13044 net.cpp:165] Memory required for data: 31558160
I0526 17:09:13.855960 13044 layer_factory.hpp:77] Creating layer relu6
I0526 17:09:13.855973 13044 net.cpp:106] Creating Layer relu6
I0526 17:09:13.855983 13044 net.cpp:454] relu6 <- ip2
I0526 17:09:13.855994 13044 net.cpp:397] relu6 -> ip2 (in-place)
I0526 17:09:13.856514 13044 net.cpp:150] Setting up relu6
I0526 17:09:13.856531 13044 net.cpp:157] Top shape: 20 98 (1960)
I0526 17:09:13.856541 13044 net.cpp:165] Memory required for data: 31566000
I0526 17:09:13.856551 13044 layer_factory.hpp:77] Creating layer drop2
I0526 17:09:13.856565 13044 net.cpp:106] Creating Layer drop2
I0526 17:09:13.856575 13044 net.cpp:454] drop2 <- ip2
I0526 17:09:13.856587 13044 net.cpp:397] drop2 -> ip2 (in-place)
I0526 17:09:13.856631 13044 net.cpp:150] Setting up drop2
I0526 17:09:13.856642 13044 net.cpp:157] Top shape: 20 98 (1960)
I0526 17:09:13.856653 13044 net.cpp:165] Memory required for data: 31573840
I0526 17:09:13.856662 13044 layer_factory.hpp:77] Creating layer ip3
I0526 17:09:13.856675 13044 net.cpp:106] Creating Layer ip3
I0526 17:09:13.856685 13044 net.cpp:454] ip3 <- ip2
I0526 17:09:13.856698 13044 net.cpp:411] ip3 -> ip3
I0526 17:09:13.856909 13044 net.cpp:150] Setting up ip3
I0526 17:09:13.856922 13044 net.cpp:157] Top shape: 20 11 (220)
I0526 17:09:13.856932 13044 net.cpp:165] Memory required for data: 31574720
I0526 17:09:13.856947 13044 layer_factory.hpp:77] Creating layer drop3
I0526 17:09:13.856961 13044 net.cpp:106] Creating Layer drop3
I0526 17:09:13.856969 13044 net.cpp:454] drop3 <- ip3
I0526 17:09:13.856982 13044 net.cpp:397] drop3 -> ip3 (in-place)
I0526 17:09:13.857022 13044 net.cpp:150] Setting up drop3
I0526 17:09:13.857034 13044 net.cpp:157] Top shape: 20 11 (220)
I0526 17:09:13.857044 13044 net.cpp:165] Memory required for data: 31575600
I0526 17:09:13.857054 13044 layer_factory.hpp:77] Creating layer loss
I0526 17:09:13.857074 13044 net.cpp:106] Creating Layer loss
I0526 17:09:13.857084 13044 net.cpp:454] loss <- ip3
I0526 17:09:13.857095 13044 net.cpp:454] loss <- label
I0526 17:09:13.857107 13044 net.cpp:411] loss -> loss
I0526 17:09:13.857125 13044 layer_factory.hpp:77] Creating layer loss
…
I0526 17:09:13.859705 13044 solver.cpp:181] Creating test net (#0) specified by net file: /lustre/atlas/proj-shared/hep105/caffe_titan/caffe_workflow/logs_bslr/bs_20_lr_0.0030_2016-05-20T15.48.55.379925.prototxt
I0526 17:09:13.859777 13044 net.cpp:322] The NetState phase (1) differed from the phase (0) specified by a rule in layer data_hdf5
I0526 17:09:13.860131 13044 net.cpp:49] Initializing net from parameters: 
name: "caffe_test_127x50_x_unshifted"
state {
  phase: TEST
}
layer {
  name: "data_hdf5"
  type: "HDF5Data"
  top: "data"
  top: "label"
  include {
    phase: TEST
  }
  hdf5_data_param {
    source: "/lustre/atlas/proj-shared/hep105/caffe_titan/minosmatch_nukecczdefs_127x50_x_unshifted_me1Bmc.testlist"
    batch_size: 20
  }
}
layer {
  name: "conv1"
  type: "Convolution"
  bottom: "data"
  top: "conv1"
  convolution_param {
    num_output: 12
    pad: 0
    stride: 1
    weight_filler {
      type: "xavier"
    }
    bias_filler {
      type: "constant"
    }
    kernel_h: 8
    kernel_w: 3
  }
}
layer {
  name: "relu1"
  type: "ReLU"
  bottom: "conv1"
  top: "conv1"
}
layer {
  name: "pool1"
  type: "Pooling"
  bottom: "conv1"
  top: "pool1"
  pooling_param {
    pool: MAX
    kernel_h: 2
    kernel_w: 1
    stride_h: 2
    stride_w: 1
  }
}
layer {
  name: "conv2"
  type: "Convolution"
  bottom: "pool1"
  top: "conv2"
  convolution_param {
    num_output: 20
    pad: 0
    stride: 1
    weight_filler {
      type: "xavier"
    }
    bias_filler {
      type: "constant"
    }
    kernel_h: 7
    kernel_w: 3
  }
}
layer {
  name: "relu2"
  type: "ReLU"
  bottom: "conv2"
  top: "conv2"
}
layer {
  name: "pool2"
  type: "Pooling"
  bottom: "conv2"
  top: "pool2"
  pooling_param {
    pool: MAX
    kernel_h: 2
    kernel_w: 1
    stride_h: 2
    stride_w: 1
  }
}
layer {
  name: "conv3"
  type: "Convolution"
  bottom: "pool2"
  top: "conv3"
  convolution_param {
    num_output: 28
    pad: 0
    stride: 1
    weight_filler {
      type: "xavier"
    }
    bias_filler {
      type: "constant"
    }
    kernel_h: 6
    kernel_w: 3
  }
}
layer {
  name: "relu3"
  type: "ReLU"
  bottom: "conv3"
  top: "conv3"
}
layer {
  name: "pool3"
  type: "Pooling"
  bottom: "conv3"
  top: "pool3"
  pooling_param {
    pool: MAX
    kernel_h: 2
    kernel_w: 1
    stride_h: 2
    stride_w: 1
  }
}
layer {
  name: "conv4"
  type: "Convolution"
  bottom: "pool3"
  top: "conv4"
  convolution_param {
    num_output: 36
    pad: 0
    stride: 1
    weight_filler {
      type: "xavier"
    }
    bias_filler {
      type: "constant"
    }
    kernel_h: 6
    kernel_w: 3
  }
}
layer {
  name: "relu4"
  type: "ReLU"
  bottom: "conv4"
  top: "conv4"
}
layer {
  name: "pool4"
  type: "Pooling"
  bottom: "conv4"
  top: "pool4"
  pooling_param {
    pool: MAX
    kernel_h: 2
    kernel_w: 1
    stride_h: 2
    stride_w: 1
  }
}
layer {
  name: "ip1"
  type: "InnerProduct"
  bottom: "pool4"
  top: "ip1"
  inner_product_param {
    num_output: 196
    weight_filler {
      type: "xavier"
    }
    bias_filler {
      type: "constant"
    }
  }
}
layer {
  name: "relu5"
  type: "ReLU"
  bottom: "ip1"
  top: "ip1"
}
layer {
  name: "drop1"
  type: "Dropout"
  bottom: "ip1"
  top: "ip1"
  dropout_param {
    dropout_ratio: 0.5
  }
}
layer {
  name: "ip2"
  type: "InnerProduct"
  bottom: "ip1"
  top: "ip2"
  inner_product_param {
    num_output: 98
    weight_filler {
      type: "xavier"
    }
    bias_filler {
      type: "constant"
    }
  }
}
layer {
  name: "relu6"
  type: "ReLU"
  bottom: "ip2"
  top: "ip2"
}
layer {
  name: "drop2"
  type: "Dropout"
  bottom: "ip2"
  top: "ip2"
  dropout_param {
    dropout_ratio: 0.5
  }
}
layer {
  name: "ip3"
  type: "InnerProduct"
  bottom: "ip2"
  top: "ip3"
  inner_product_param {
    num_output: 11
    weight_filler {
      type: "xavier"
    }
    bias_filler {
      type: "constant"
    }
  }
}
layer {
  name: "drop3"
  type: "Dropout"
  bottom: "ip3"
  top: "ip3"
  dropout_param {
    dropout_ratio: 0.5
  }
}
layer {
  name: "accuracy"
  type: "Accuracy"
  bottom: "ip3"
  bottom: "label"
  top: "accuracy"
  include {
    phase: TEST
  }
}
layer {
  name: "loss"
  type: "SoftmaxWithLoss"
  bottom: "ip3"
  bottom: "label"
  top: "loss"
}
I0526 17:09:13.860319 13044 layer_factory.hpp:77] Creating layer data_hdf5
I0526 17:09:13.860334 13044 net.cpp:106] Creating Layer data_hdf5
I0526 17:09:13.860347 13044 net.cpp:411] data_hdf5 -> data
I0526 17:09:13.860364 13044 net.cpp:411] data_hdf5 -> label
I0526 17:09:13.860380 13044 hdf5_data_layer.cpp:79] Loading list of HDF5 filenames from: /lustre/atlas/proj-shared/hep105/caffe_titan/minosmatch_nukecczdefs_127x50_x_unshifted_me1Bmc.testlist
I0526 17:09:13.877400 13044 hdf5_data_layer.cpp:93] Number of HDF5 files: 3
I0526 17:09:35.251886 13044 net.cpp:150] Setting up data_hdf5
I0526 17:09:35.252049 13044 net.cpp:157] Top shape: 20 1 127 50 (127000)
I0526 17:09:35.252064 13044 net.cpp:157] Top shape: 20 (20)
I0526 17:09:35.252076 13044 net.cpp:165] Memory required for data: 508080
I0526 17:09:35.252090 13044 layer_factory.hpp:77] Creating layer label_data_hdf5_1_split
I0526 17:09:35.252118 13044 net.cpp:106] Creating Layer label_data_hdf5_1_split
I0526 17:09:35.252130 13044 net.cpp:454] label_data_hdf5_1_split <- label
I0526 17:09:35.252145 13044 net.cpp:411] label_data_hdf5_1_split -> label_data_hdf5_1_split_0
I0526 17:09:35.252166 13044 net.cpp:411] label_data_hdf5_1_split -> label_data_hdf5_1_split_1
I0526 17:09:35.252239 13044 net.cpp:150] Setting up label_data_hdf5_1_split
I0526 17:09:35.252254 13044 net.cpp:157] Top shape: 20 (20)
I0526 17:09:35.252265 13044 net.cpp:157] Top shape: 20 (20)
I0526 17:09:35.252274 13044 net.cpp:165] Memory required for data: 508240
I0526 17:09:35.252282 13044 layer_factory.hpp:77] Creating layer conv1
I0526 17:09:35.252305 13044 net.cpp:106] Creating Layer conv1
I0526 17:09:35.252315 13044 net.cpp:454] conv1 <- data
I0526 17:09:35.252331 13044 net.cpp:411] conv1 -> conv1
I0526 17:09:35.254272 13044 net.cpp:150] Setting up conv1
I0526 17:09:35.254297 13044 net.cpp:157] Top shape: 20 12 120 48 (1382400)
I0526 17:09:35.254307 13044 net.cpp:165] Memory required for data: 6037840
I0526 17:09:35.254328 13044 layer_factory.hpp:77] Creating layer relu1
I0526 17:09:35.254343 13044 net.cpp:106] Creating Layer relu1
I0526 17:09:35.254354 13044 net.cpp:454] relu1 <- conv1
I0526 17:09:35.254365 13044 net.cpp:397] relu1 -> conv1 (in-place)
I0526 17:09:35.254863 13044 net.cpp:150] Setting up relu1
I0526 17:09:35.254879 13044 net.cpp:157] Top shape: 20 12 120 48 (1382400)
I0526 17:09:35.254890 13044 net.cpp:165] Memory required for data: 11567440
I0526 17:09:35.254900 13044 layer_factory.hpp:77] Creating layer pool1
I0526 17:09:35.254916 13044 net.cpp:106] Creating Layer pool1
I0526 17:09:35.254926 13044 net.cpp:454] pool1 <- conv1
I0526 17:09:35.254940 13044 net.cpp:411] pool1 -> pool1
I0526 17:09:35.255014 13044 net.cpp:150] Setting up pool1
I0526 17:09:35.255028 13044 net.cpp:157] Top shape: 20 12 60 48 (691200)
I0526 17:09:35.255038 13044 net.cpp:165] Memory required for data: 14332240
I0526 17:09:35.255049 13044 layer_factory.hpp:77] Creating layer conv2
I0526 17:09:35.255067 13044 net.cpp:106] Creating Layer conv2
I0526 17:09:35.255079 13044 net.cpp:454] conv2 <- pool1
I0526 17:09:35.255092 13044 net.cpp:411] conv2 -> conv2
I0526 17:09:35.257010 13044 net.cpp:150] Setting up conv2
I0526 17:09:35.257035 13044 net.cpp:157] Top shape: 20 20 54 46 (993600)
I0526 17:09:35.257045 13044 net.cpp:165] Memory required for data: 18306640
I0526 17:09:35.257063 13044 layer_factory.hpp:77] Creating layer relu2
I0526 17:09:35.257076 13044 net.cpp:106] Creating Layer relu2
I0526 17:09:35.257086 13044 net.cpp:454] relu2 <- conv2
I0526 17:09:35.257099 13044 net.cpp:397] relu2 -> conv2 (in-place)
I0526 17:09:35.257429 13044 net.cpp:150] Setting up relu2
I0526 17:09:35.257443 13044 net.cpp:157] Top shape: 20 20 54 46 (993600)
I0526 17:09:35.257454 13044 net.cpp:165] Memory required for data: 22281040
I0526 17:09:35.257465 13044 layer_factory.hpp:77] Creating layer pool2
I0526 17:09:35.257478 13044 net.cpp:106] Creating Layer pool2
I0526 17:09:35.257488 13044 net.cpp:454] pool2 <- conv2
I0526 17:09:35.257500 13044 net.cpp:411] pool2 -> pool2
I0526 17:09:35.257572 13044 net.cpp:150] Setting up pool2
I0526 17:09:35.257586 13044 net.cpp:157] Top shape: 20 20 27 46 (496800)
I0526 17:09:35.257596 13044 net.cpp:165] Memory required for data: 24268240
I0526 17:09:35.257603 13044 layer_factory.hpp:77] Creating layer conv3
I0526 17:09:35.257623 13044 net.cpp:106] Creating Layer conv3
I0526 17:09:35.257634 13044 net.cpp:454] conv3 <- pool2
I0526 17:09:35.257648 13044 net.cpp:411] conv3 -> conv3
I0526 17:09:35.259620 13044 net.cpp:150] Setting up conv3
I0526 17:09:35.259644 13044 net.cpp:157] Top shape: 20 28 22 44 (542080)
I0526 17:09:35.259655 13044 net.cpp:165] Memory required for data: 26436560
I0526 17:09:35.259673 13044 layer_factory.hpp:77] Creating layer relu3
I0526 17:09:35.259701 13044 net.cpp:106] Creating Layer relu3
I0526 17:09:35.259711 13044 net.cpp:454] relu3 <- conv3
I0526 17:09:35.259726 13044 net.cpp:397] relu3 -> conv3 (in-place)
I0526 17:09:35.260200 13044 net.cpp:150] Setting up relu3
I0526 17:09:35.260215 13044 net.cpp:157] Top shape: 20 28 22 44 (542080)
I0526 17:09:35.260226 13044 net.cpp:165] Memory required for data: 28604880
I0526 17:09:35.260236 13044 layer_factory.hpp:77] Creating layer pool3
I0526 17:09:35.260248 13044 net.cpp:106] Creating Layer pool3
I0526 17:09:35.260258 13044 net.cpp:454] pool3 <- conv3
I0526 17:09:35.260272 13044 net.cpp:411] pool3 -> pool3
I0526 17:09:35.260344 13044 net.cpp:150] Setting up pool3
I0526 17:09:35.260356 13044 net.cpp:157] Top shape: 20 28 11 44 (271040)
I0526 17:09:35.260366 13044 net.cpp:165] Memory required for data: 29689040
I0526 17:09:35.260375 13044 layer_factory.hpp:77] Creating layer conv4
I0526 17:09:35.260392 13044 net.cpp:106] Creating Layer conv4
I0526 17:09:35.260403 13044 net.cpp:454] conv4 <- pool3
I0526 17:09:35.260417 13044 net.cpp:411] conv4 -> conv4
I0526 17:09:35.262472 13044 net.cpp:150] Setting up conv4
I0526 17:09:35.262495 13044 net.cpp:157] Top shape: 20 36 6 42 (181440)
I0526 17:09:35.262507 13044 net.cpp:165] Memory required for data: 30414800
I0526 17:09:35.262522 13044 layer_factory.hpp:77] Creating layer relu4
I0526 17:09:35.262537 13044 net.cpp:106] Creating Layer relu4
I0526 17:09:35.262547 13044 net.cpp:454] relu4 <- conv4
I0526 17:09:35.262559 13044 net.cpp:397] relu4 -> conv4 (in-place)
I0526 17:09:35.263031 13044 net.cpp:150] Setting up relu4
I0526 17:09:35.263046 13044 net.cpp:157] Top shape: 20 36 6 42 (181440)
I0526 17:09:35.263057 13044 net.cpp:165] Memory required for data: 31140560
I0526 17:09:35.263067 13044 layer_factory.hpp:77] Creating layer pool4
I0526 17:09:35.263080 13044 net.cpp:106] Creating Layer pool4
I0526 17:09:35.263089 13044 net.cpp:454] pool4 <- conv4
I0526 17:09:35.263103 13044 net.cpp:411] pool4 -> pool4
I0526 17:09:35.263175 13044 net.cpp:150] Setting up pool4
I0526 17:09:35.263190 13044 net.cpp:157] Top shape: 20 36 3 42 (90720)
I0526 17:09:35.263198 13044 net.cpp:165] Memory required for data: 31503440
I0526 17:09:35.263207 13044 layer_factory.hpp:77] Creating layer ip1
I0526 17:09:35.263222 13044 net.cpp:106] Creating Layer ip1
I0526 17:09:35.263233 13044 net.cpp:454] ip1 <- pool4
I0526 17:09:35.263247 13044 net.cpp:411] ip1 -> ip1
I0526 17:09:35.278626 13044 net.cpp:150] Setting up ip1
I0526 17:09:35.278655 13044 net.cpp:157] Top shape: 20 196 (3920)
I0526 17:09:35.278666 13044 net.cpp:165] Memory required for data: 31519120
I0526 17:09:35.278687 13044 layer_factory.hpp:77] Creating layer relu5
I0526 17:09:35.278702 13044 net.cpp:106] Creating Layer relu5
I0526 17:09:35.278712 13044 net.cpp:454] relu5 <- ip1
I0526 17:09:35.278725 13044 net.cpp:397] relu5 -> ip1 (in-place)
I0526 17:09:35.279072 13044 net.cpp:150] Setting up relu5
I0526 17:09:35.279086 13044 net.cpp:157] Top shape: 20 196 (3920)
I0526 17:09:35.279095 13044 net.cpp:165] Memory required for data: 31534800
I0526 17:09:35.279106 13044 layer_factory.hpp:77] Creating layer drop1
I0526 17:09:35.279124 13044 net.cpp:106] Creating Layer drop1
I0526 17:09:35.279134 13044 net.cpp:454] drop1 <- ip1
I0526 17:09:35.279147 13044 net.cpp:397] drop1 -> ip1 (in-place)
I0526 17:09:35.279193 13044 net.cpp:150] Setting up drop1
I0526 17:09:35.279206 13044 net.cpp:157] Top shape: 20 196 (3920)
I0526 17:09:35.279217 13044 net.cpp:165] Memory required for data: 31550480
I0526 17:09:35.279227 13044 layer_factory.hpp:77] Creating layer ip2
I0526 17:09:35.279240 13044 net.cpp:106] Creating Layer ip2
I0526 17:09:35.279250 13044 net.cpp:454] ip2 <- ip1
I0526 17:09:35.279264 13044 net.cpp:411] ip2 -> ip2
I0526 17:09:35.279750 13044 net.cpp:150] Setting up ip2
I0526 17:09:35.279763 13044 net.cpp:157] Top shape: 20 98 (1960)
I0526 17:09:35.279773 13044 net.cpp:165] Memory required for data: 31558320
I0526 17:09:35.279788 13044 layer_factory.hpp:77] Creating layer relu6
I0526 17:09:35.279813 13044 net.cpp:106] Creating Layer relu6
I0526 17:09:35.279822 13044 net.cpp:454] relu6 <- ip2
I0526 17:09:35.279835 13044 net.cpp:397] relu6 -> ip2 (in-place)
I0526 17:09:35.280371 13044 net.cpp:150] Setting up relu6
I0526 17:09:35.280387 13044 net.cpp:157] Top shape: 20 98 (1960)
I0526 17:09:35.280395 13044 net.cpp:165] Memory required for data: 31566160
I0526 17:09:35.280405 13044 layer_factory.hpp:77] Creating layer drop2
I0526 17:09:35.280419 13044 net.cpp:106] Creating Layer drop2
I0526 17:09:35.280428 13044 net.cpp:454] drop2 <- ip2
I0526 17:09:35.280442 13044 net.cpp:397] drop2 -> ip2 (in-place)
I0526 17:09:35.280485 13044 net.cpp:150] Setting up drop2
I0526 17:09:35.280498 13044 net.cpp:157] Top shape: 20 98 (1960)
I0526 17:09:35.280508 13044 net.cpp:165] Memory required for data: 31574000
I0526 17:09:35.280519 13044 layer_factory.hpp:77] Creating layer ip3
I0526 17:09:35.280534 13044 net.cpp:106] Creating Layer ip3
I0526 17:09:35.280544 13044 net.cpp:454] ip3 <- ip2
I0526 17:09:35.280557 13044 net.cpp:411] ip3 -> ip3
I0526 17:09:35.280782 13044 net.cpp:150] Setting up ip3
I0526 17:09:35.280796 13044 net.cpp:157] Top shape: 20 11 (220)
I0526 17:09:35.280805 13044 net.cpp:165] Memory required for data: 31574880
I0526 17:09:35.280820 13044 layer_factory.hpp:77] Creating layer drop3
I0526 17:09:35.280833 13044 net.cpp:106] Creating Layer drop3
I0526 17:09:35.280843 13044 net.cpp:454] drop3 <- ip3
I0526 17:09:35.280855 13044 net.cpp:397] drop3 -> ip3 (in-place)
I0526 17:09:35.280896 13044 net.cpp:150] Setting up drop3
I0526 17:09:35.280908 13044 net.cpp:157] Top shape: 20 11 (220)
I0526 17:09:35.280917 13044 net.cpp:165] Memory required for data: 31575760
I0526 17:09:35.280927 13044 layer_factory.hpp:77] Creating layer ip3_drop3_0_split
I0526 17:09:35.280941 13044 net.cpp:106] Creating Layer ip3_drop3_0_split
I0526 17:09:35.280951 13044 net.cpp:454] ip3_drop3_0_split <- ip3
I0526 17:09:35.280963 13044 net.cpp:411] ip3_drop3_0_split -> ip3_drop3_0_split_0
I0526 17:09:35.280978 13044 net.cpp:411] ip3_drop3_0_split -> ip3_drop3_0_split_1
I0526 17:09:35.281052 13044 net.cpp:150] Setting up ip3_drop3_0_split
I0526 17:09:35.281065 13044 net.cpp:157] Top shape: 20 11 (220)
I0526 17:09:35.281077 13044 net.cpp:157] Top shape: 20 11 (220)
I0526 17:09:35.281086 13044 net.cpp:165] Memory required for data: 31577520
I0526 17:09:35.281095 13044 layer_factory.hpp:77] Creating layer accuracy
I0526 17:09:35.281116 13044 net.cpp:106] Creating Layer accuracy
I0526 17:09:35.281127 13044 net.cpp:454] accuracy <- ip3_drop3_0_split_0
I0526 17:09:35.281138 13044 net.cpp:454] accuracy <- label_data_hdf5_1_split_0
I0526 17:09:35.281152 13044 net.cpp:411] accuracy -> accuracy
…
