…
I0526 21:11:04.841740 14495 net.cpp:322] The NetState phase (0) differed from the phase (1) specified by a rule in layer data_hdf5
I0526 21:11:04.841797 14495 net.cpp:322] The NetState phase (0) differed from the phase (1) specified by a rule in layer accuracy
I0526 21:11:04.842144 14495 net.cpp:49] Initializing net from parameters: 
name: "caffe_test_127x50_x_unshifted"
state {
  phase: TRAIN
}
layer {
  name: "data_hdf5"
  type: "HDF5Data"
  top: "data"
  top: "label"
  include {
    phase: TRAIN
  }
  hdf5_data_param {
    source: "/lustre/atlas/proj-shared/hep105/caffe_titan/minosmatch_nukecczdefs_127x50_x_unshifted_me1Bmc.trainlist"
    batch_size: 20
  }
}
layer {
  name: "conv1"
  type: "Convolution"
  bottom: "data"
  top: "conv1"
  convolution_param {
    num_output: 12
    pad: 0
    stride: 1
    weight_filler {
      type: "xavier"
    }
    bias_filler {
      type: "constant"
    }
    kernel_h: 8
    kernel_w: 3
  }
}
layer {
  name: "relu1"
  type: "ReLU"
  bottom: "conv1"
  top: "conv1"
}
layer {
  name: "pool1"
  type: "Pooling"
  bottom: "conv1"
  top: "pool1"
  pooling_param {
    pool: MAX
    kernel_h: 2
    kernel_w: 1
    stride_h: 2
    stride_w: 1
  }
}
layer {
  name: "conv2"
  type: "Convolution"
  bottom: "pool1"
  top: "conv2"
  convolution_param {
    num_output: 20
    pad: 0
    stride: 1
    weight_filler {
      type: "xavier"
    }
    bias_filler {
      type: "constant"
    }
    kernel_h: 7
    kernel_w: 3
  }
}
layer {
  name: "relu2"
  type: "ReLU"
  bottom: "conv2"
  top: "conv2"
}
layer {
  name: "pool2"
  type: "Pooling"
  bottom: "conv2"
  top: "pool2"
  pooling_param {
    pool: MAX
    kernel_h: 2
    kernel_w: 1
    stride_h: 2
    stride_w: 1
  }
}
layer {
  name: "conv3"
  type: "Convolution"
  bottom: "pool2"
  top: "conv3"
  convolution_param {
    num_output: 28
    pad: 0
    stride: 1
    weight_filler {
      type: "xavier"
    }
    bias_filler {
      type: "constant"
    }
    kernel_h: 6
    kernel_w: 3
  }
}
layer {
  name: "relu3"
  type: "ReLU"
  bottom: "conv3"
  top: "conv3"
}
layer {
  name: "pool3"
  type: "Pooling"
  bottom: "conv3"
  top: "pool3"
  pooling_param {
    pool: MAX
    kernel_h: 2
    kernel_w: 1
    stride_h: 2
    stride_w: 1
  }
}
layer {
  name: "conv4"
  type: "Convolution"
  bottom: "pool3"
  top: "conv4"
  convolution_param {
    num_output: 36
    pad: 0
    stride: 1
    weight_filler {
      type: "xavier"
    }
    bias_filler {
      type: "constant"
    }
    kernel_h: 6
    kernel_w: 3
  }
}
layer {
  name: "relu4"
  type: "ReLU"
  bottom: "conv4"
  top: "conv4"
}
layer {
  name: "pool4"
  type: "Pooling"
  bottom: "conv4"
  top: "pool4"
  pooling_param {
    pool: MAX
    kernel_h: 2
    kernel_w: 1
    stride_h: 2
    stride_w: 1
  }
}
layer {
  name: "ip1"
  type: "InnerProduct"
  bottom: "pool4"
  top: "ip1"
  inner_product_param {
    num_output: 196
    weight_filler {
      type: "xavier"
    }
    bias_filler {
      type: "constant"
    }
  }
}
layer {
  name: "relu5"
  type: "ReLU"
  bottom: "ip1"
  top: "ip1"
}
layer {
  name: "drop1"
  type: "Dropout"
  bottom: "ip1"
  top: "ip1"
  dropout_param {
    dropout_ratio: 0.5
  }
}
layer {
  name: "ip2"
  type: "InnerProduct"
  bottom: "ip1"
  top: "ip2"
  inner_product_param {
    num_output: 98
    weight_filler {
      type: "xavier"
    }
    bias_filler {
      type: "constant"
    }
  }
}
layer {
  name: "relu6"
  type: "ReLU"
  bottom: "ip2"
  top: "ip2"
}
layer {
  name: "drop2"
  type: "Dropout"
  bottom: "ip2"
  top: "ip2"
  dropout_param {
    dropout_ratio: 0.5
  }
}
layer {
  name: "ip3"
  type: "InnerProduct"
  bottom: "ip2"
  top: "ip3"
  inner_product_param {
    num_output: 11
    weight_filler {
      type: "xavier"
    }
    bias_filler {
      type: "constant"
    }
  }
}
layer {
  name: "drop3"
  type: "Dropout"
  bottom: "ip3"
  top: "ip3"
  dropout_param {
    dropout_ratio: 0.5
  }
}
layer {
  name: "loss"
  type: "SoftmaxWithLoss"
  bottom: "ip3"
  bottom: "label"
  top: "loss"
}
I0526 21:11:04.842321 14495 layer_factory.hpp:77] Creating layer data_hdf5
I0526 21:11:04.842345 14495 net.cpp:106] Creating Layer data_hdf5
I0526 21:11:04.842360 14495 net.cpp:411] data_hdf5 -> data
I0526 21:11:04.842394 14495 net.cpp:411] data_hdf5 -> label
I0526 21:11:04.842427 14495 hdf5_data_layer.cpp:79] Loading list of HDF5 filenames from: /lustre/atlas/proj-shared/hep105/caffe_titan/minosmatch_nukecczdefs_127x50_x_unshifted_me1Bmc.trainlist
I0526 21:11:04.843789 14495 hdf5_data_layer.cpp:93] Number of HDF5 files: 15
I0526 21:11:04.855798 14495 hdf5.cpp:32] Datatype class: H5T_FLOAT
I0526 21:11:26.404763 14495 hdf5.cpp:35] Datatype class: H5T_INTEGER
I0526 21:11:26.409948 14495 net.cpp:150] Setting up data_hdf5
I0526 21:11:26.409988 14495 net.cpp:157] Top shape: 20 1 127 50 (127000)
I0526 21:11:26.410003 14495 net.cpp:157] Top shape: 20 (20)
I0526 21:11:26.410013 14495 net.cpp:165] Memory required for data: 508080
I0526 21:11:26.410027 14495 layer_factory.hpp:77] Creating layer conv1
I0526 21:11:26.410060 14495 net.cpp:106] Creating Layer conv1
I0526 21:11:26.410071 14495 net.cpp:454] conv1 <- data
I0526 21:11:26.410094 14495 net.cpp:411] conv1 -> conv1
I0526 21:11:27.243103 14495 net.cpp:150] Setting up conv1
I0526 21:11:27.243149 14495 net.cpp:157] Top shape: 20 12 120 48 (1382400)
I0526 21:11:27.243163 14495 net.cpp:165] Memory required for data: 6037680
I0526 21:11:27.243191 14495 layer_factory.hpp:77] Creating layer relu1
I0526 21:11:27.243213 14495 net.cpp:106] Creating Layer relu1
I0526 21:11:27.243224 14495 net.cpp:454] relu1 <- conv1
I0526 21:11:27.243238 14495 net.cpp:397] relu1 -> conv1 (in-place)
I0526 21:11:27.243755 14495 net.cpp:150] Setting up relu1
I0526 21:11:27.243772 14495 net.cpp:157] Top shape: 20 12 120 48 (1382400)
I0526 21:11:27.243782 14495 net.cpp:165] Memory required for data: 11567280
I0526 21:11:27.243793 14495 layer_factory.hpp:77] Creating layer pool1
I0526 21:11:27.243809 14495 net.cpp:106] Creating Layer pool1
I0526 21:11:27.243819 14495 net.cpp:454] pool1 <- conv1
I0526 21:11:27.243834 14495 net.cpp:411] pool1 -> pool1
I0526 21:11:27.243913 14495 net.cpp:150] Setting up pool1
I0526 21:11:27.243927 14495 net.cpp:157] Top shape: 20 12 60 48 (691200)
I0526 21:11:27.243937 14495 net.cpp:165] Memory required for data: 14332080
I0526 21:11:27.243947 14495 layer_factory.hpp:77] Creating layer conv2
I0526 21:11:27.243968 14495 net.cpp:106] Creating Layer conv2
I0526 21:11:27.243978 14495 net.cpp:454] conv2 <- pool1
I0526 21:11:27.243991 14495 net.cpp:411] conv2 -> conv2
I0526 21:11:27.246691 14495 net.cpp:150] Setting up conv2
I0526 21:11:27.246719 14495 net.cpp:157] Top shape: 20 20 54 46 (993600)
I0526 21:11:27.246729 14495 net.cpp:165] Memory required for data: 18306480
I0526 21:11:27.246748 14495 layer_factory.hpp:77] Creating layer relu2
I0526 21:11:27.246763 14495 net.cpp:106] Creating Layer relu2
I0526 21:11:27.246773 14495 net.cpp:454] relu2 <- conv2
I0526 21:11:27.246786 14495 net.cpp:397] relu2 -> conv2 (in-place)
I0526 21:11:27.247117 14495 net.cpp:150] Setting up relu2
I0526 21:11:27.247131 14495 net.cpp:157] Top shape: 20 20 54 46 (993600)
I0526 21:11:27.247141 14495 net.cpp:165] Memory required for data: 22280880
I0526 21:11:27.247153 14495 layer_factory.hpp:77] Creating layer pool2
I0526 21:11:27.247164 14495 net.cpp:106] Creating Layer pool2
I0526 21:11:27.247174 14495 net.cpp:454] pool2 <- conv2
I0526 21:11:27.247187 14495 net.cpp:411] pool2 -> pool2
I0526 21:11:27.247269 14495 net.cpp:150] Setting up pool2
I0526 21:11:27.247282 14495 net.cpp:157] Top shape: 20 20 27 46 (496800)
I0526 21:11:27.247292 14495 net.cpp:165] Memory required for data: 24268080
I0526 21:11:27.247303 14495 layer_factory.hpp:77] Creating layer conv3
I0526 21:11:27.247321 14495 net.cpp:106] Creating Layer conv3
I0526 21:11:27.247331 14495 net.cpp:454] conv3 <- pool2
I0526 21:11:27.247345 14495 net.cpp:411] conv3 -> conv3
I0526 21:11:27.249294 14495 net.cpp:150] Setting up conv3
I0526 21:11:27.249318 14495 net.cpp:157] Top shape: 20 28 22 44 (542080)
I0526 21:11:27.249331 14495 net.cpp:165] Memory required for data: 26436400
I0526 21:11:27.249349 14495 layer_factory.hpp:77] Creating layer relu3
I0526 21:11:27.249366 14495 net.cpp:106] Creating Layer relu3
I0526 21:11:27.249377 14495 net.cpp:454] relu3 <- conv3
I0526 21:11:27.249388 14495 net.cpp:397] relu3 -> conv3 (in-place)
I0526 21:11:27.249856 14495 net.cpp:150] Setting up relu3
I0526 21:11:27.249874 14495 net.cpp:157] Top shape: 20 28 22 44 (542080)
I0526 21:11:27.249884 14495 net.cpp:165] Memory required for data: 28604720
I0526 21:11:27.249894 14495 layer_factory.hpp:77] Creating layer pool3
I0526 21:11:27.249907 14495 net.cpp:106] Creating Layer pool3
I0526 21:11:27.249917 14495 net.cpp:454] pool3 <- conv3
I0526 21:11:27.249930 14495 net.cpp:411] pool3 -> pool3
I0526 21:11:27.249997 14495 net.cpp:150] Setting up pool3
I0526 21:11:27.250011 14495 net.cpp:157] Top shape: 20 28 11 44 (271040)
I0526 21:11:27.250020 14495 net.cpp:165] Memory required for data: 29688880
I0526 21:11:27.250030 14495 layer_factory.hpp:77] Creating layer conv4
I0526 21:11:27.250048 14495 net.cpp:106] Creating Layer conv4
I0526 21:11:27.250059 14495 net.cpp:454] conv4 <- pool3
I0526 21:11:27.250073 14495 net.cpp:411] conv4 -> conv4
I0526 21:11:27.252806 14495 net.cpp:150] Setting up conv4
I0526 21:11:27.252835 14495 net.cpp:157] Top shape: 20 36 6 42 (181440)
I0526 21:11:27.252846 14495 net.cpp:165] Memory required for data: 30414640
I0526 21:11:27.252861 14495 layer_factory.hpp:77] Creating layer relu4
I0526 21:11:27.252876 14495 net.cpp:106] Creating Layer relu4
I0526 21:11:27.252885 14495 net.cpp:454] relu4 <- conv4
I0526 21:11:27.252898 14495 net.cpp:397] relu4 -> conv4 (in-place)
I0526 21:11:27.253367 14495 net.cpp:150] Setting up relu4
I0526 21:11:27.253383 14495 net.cpp:157] Top shape: 20 36 6 42 (181440)
I0526 21:11:27.253393 14495 net.cpp:165] Memory required for data: 31140400
I0526 21:11:27.253404 14495 layer_factory.hpp:77] Creating layer pool4
I0526 21:11:27.253417 14495 net.cpp:106] Creating Layer pool4
I0526 21:11:27.253427 14495 net.cpp:454] pool4 <- conv4
I0526 21:11:27.253440 14495 net.cpp:411] pool4 -> pool4
I0526 21:11:27.253509 14495 net.cpp:150] Setting up pool4
I0526 21:11:27.253522 14495 net.cpp:157] Top shape: 20 36 3 42 (90720)
I0526 21:11:27.253533 14495 net.cpp:165] Memory required for data: 31503280
I0526 21:11:27.253541 14495 layer_factory.hpp:77] Creating layer ip1
I0526 21:11:27.253562 14495 net.cpp:106] Creating Layer ip1
I0526 21:11:27.253572 14495 net.cpp:454] ip1 <- pool4
I0526 21:11:27.253587 14495 net.cpp:411] ip1 -> ip1
I0526 21:11:27.269012 14495 net.cpp:150] Setting up ip1
I0526 21:11:27.269039 14495 net.cpp:157] Top shape: 20 196 (3920)
I0526 21:11:27.269053 14495 net.cpp:165] Memory required for data: 31518960
I0526 21:11:27.269075 14495 layer_factory.hpp:77] Creating layer relu5
I0526 21:11:27.269090 14495 net.cpp:106] Creating Layer relu5
I0526 21:11:27.269100 14495 net.cpp:454] relu5 <- ip1
I0526 21:11:27.269114 14495 net.cpp:397] relu5 -> ip1 (in-place)
I0526 21:11:27.269454 14495 net.cpp:150] Setting up relu5
I0526 21:11:27.269467 14495 net.cpp:157] Top shape: 20 196 (3920)
I0526 21:11:27.269477 14495 net.cpp:165] Memory required for data: 31534640
I0526 21:11:27.269489 14495 layer_factory.hpp:77] Creating layer drop1
I0526 21:11:27.269510 14495 net.cpp:106] Creating Layer drop1
I0526 21:11:27.269520 14495 net.cpp:454] drop1 <- ip1
I0526 21:11:27.269532 14495 net.cpp:397] drop1 -> ip1 (in-place)
I0526 21:11:27.269593 14495 net.cpp:150] Setting up drop1
I0526 21:11:27.269609 14495 net.cpp:157] Top shape: 20 196 (3920)
I0526 21:11:27.269621 14495 net.cpp:165] Memory required for data: 31550320
I0526 21:11:27.269634 14495 layer_factory.hpp:77] Creating layer ip2
I0526 21:11:27.269654 14495 net.cpp:106] Creating Layer ip2
I0526 21:11:27.269664 14495 net.cpp:454] ip2 <- ip1
I0526 21:11:27.269675 14495 net.cpp:411] ip2 -> ip2
I0526 21:11:27.270139 14495 net.cpp:150] Setting up ip2
I0526 21:11:27.270153 14495 net.cpp:157] Top shape: 20 98 (1960)
I0526 21:11:27.270161 14495 net.cpp:165] Memory required for data: 31558160
I0526 21:11:27.270177 14495 layer_factory.hpp:77] Creating layer relu6
I0526 21:11:27.270190 14495 net.cpp:106] Creating Layer relu6
I0526 21:11:27.270200 14495 net.cpp:454] relu6 <- ip2
I0526 21:11:27.270211 14495 net.cpp:397] relu6 -> ip2 (in-place)
I0526 21:11:27.270727 14495 net.cpp:150] Setting up relu6
I0526 21:11:27.270743 14495 net.cpp:157] Top shape: 20 98 (1960)
I0526 21:11:27.270755 14495 net.cpp:165] Memory required for data: 31566000
I0526 21:11:27.270766 14495 layer_factory.hpp:77] Creating layer drop2
I0526 21:11:27.270779 14495 net.cpp:106] Creating Layer drop2
I0526 21:11:27.270788 14495 net.cpp:454] drop2 <- ip2
I0526 21:11:27.270802 14495 net.cpp:397] drop2 -> ip2 (in-place)
I0526 21:11:27.270843 14495 net.cpp:150] Setting up drop2
I0526 21:11:27.270858 14495 net.cpp:157] Top shape: 20 98 (1960)
I0526 21:11:27.270867 14495 net.cpp:165] Memory required for data: 31573840
I0526 21:11:27.270877 14495 layer_factory.hpp:77] Creating layer ip3
I0526 21:11:27.270890 14495 net.cpp:106] Creating Layer ip3
I0526 21:11:27.270900 14495 net.cpp:454] ip3 <- ip2
I0526 21:11:27.270915 14495 net.cpp:411] ip3 -> ip3
I0526 21:11:27.271126 14495 net.cpp:150] Setting up ip3
I0526 21:11:27.271138 14495 net.cpp:157] Top shape: 20 11 (220)
I0526 21:11:27.271148 14495 net.cpp:165] Memory required for data: 31574720
I0526 21:11:27.271163 14495 layer_factory.hpp:77] Creating layer drop3
I0526 21:11:27.271176 14495 net.cpp:106] Creating Layer drop3
I0526 21:11:27.271185 14495 net.cpp:454] drop3 <- ip3
I0526 21:11:27.271198 14495 net.cpp:397] drop3 -> ip3 (in-place)
I0526 21:11:27.271237 14495 net.cpp:150] Setting up drop3
I0526 21:11:27.271250 14495 net.cpp:157] Top shape: 20 11 (220)
I0526 21:11:27.271260 14495 net.cpp:165] Memory required for data: 31575600
I0526 21:11:27.271270 14495 layer_factory.hpp:77] Creating layer loss
I0526 21:11:27.271289 14495 net.cpp:106] Creating Layer loss
I0526 21:11:27.271299 14495 net.cpp:454] loss <- ip3
I0526 21:11:27.271311 14495 net.cpp:454] loss <- label
I0526 21:11:27.271324 14495 net.cpp:411] loss -> loss
I0526 21:11:27.271342 14495 layer_factory.hpp:77] Creating layer loss
…
I0526 21:11:27.273996 14495 solver.cpp:181] Creating test net (#0) specified by net file: /lustre/atlas/proj-shared/hep105/caffe_titan/caffe_workflow/logs_bslr/bs_20_lr_0.0050_2016-05-20T15.48.56.922305.prototxt
I0526 21:11:27.274068 14495 net.cpp:322] The NetState phase (1) differed from the phase (0) specified by a rule in layer data_hdf5
I0526 21:11:27.274421 14495 net.cpp:49] Initializing net from parameters: 
name: "caffe_test_127x50_x_unshifted"
state {
  phase: TEST
}
layer {
  name: "data_hdf5"
  type: "HDF5Data"
  top: "data"
  top: "label"
  include {
    phase: TEST
  }
  hdf5_data_param {
    source: "/lustre/atlas/proj-shared/hep105/caffe_titan/minosmatch_nukecczdefs_127x50_x_unshifted_me1Bmc.testlist"
    batch_size: 20
  }
}
layer {
  name: "conv1"
  type: "Convolution"
  bottom: "data"
  top: "conv1"
  convolution_param {
    num_output: 12
    pad: 0
    stride: 1
    weight_filler {
      type: "xavier"
    }
    bias_filler {
      type: "constant"
    }
    kernel_h: 8
    kernel_w: 3
  }
}
layer {
  name: "relu1"
  type: "ReLU"
  bottom: "conv1"
  top: "conv1"
}
layer {
  name: "pool1"
  type: "Pooling"
  bottom: "conv1"
  top: "pool1"
  pooling_param {
    pool: MAX
    kernel_h: 2
    kernel_w: 1
    stride_h: 2
    stride_w: 1
  }
}
layer {
  name: "conv2"
  type: "Convolution"
  bottom: "pool1"
  top: "conv2"
  convolution_param {
    num_output: 20
    pad: 0
    stride: 1
    weight_filler {
      type: "xavier"
    }
    bias_filler {
      type: "constant"
    }
    kernel_h: 7
    kernel_w: 3
  }
}
layer {
  name: "relu2"
  type: "ReLU"
  bottom: "conv2"
  top: "conv2"
}
layer {
  name: "pool2"
  type: "Pooling"
  bottom: "conv2"
  top: "pool2"
  pooling_param {
    pool: MAX
    kernel_h: 2
    kernel_w: 1
    stride_h: 2
    stride_w: 1
  }
}
layer {
  name: "conv3"
  type: "Convolution"
  bottom: "pool2"
  top: "conv3"
  convolution_param {
    num_output: 28
    pad: 0
    stride: 1
    weight_filler {
      type: "xavier"
    }
    bias_filler {
      type: "constant"
    }
    kernel_h: 6
    kernel_w: 3
  }
}
layer {
  name: "relu3"
  type: "ReLU"
  bottom: "conv3"
  top: "conv3"
}
layer {
  name: "pool3"
  type: "Pooling"
  bottom: "conv3"
  top: "pool3"
  pooling_param {
    pool: MAX
    kernel_h: 2
    kernel_w: 1
    stride_h: 2
    stride_w: 1
  }
}
layer {
  name: "conv4"
  type: "Convolution"
  bottom: "pool3"
  top: "conv4"
  convolution_param {
    num_output: 36
    pad: 0
    stride: 1
    weight_filler {
      type: "xavier"
    }
    bias_filler {
      type: "constant"
    }
    kernel_h: 6
    kernel_w: 3
  }
}
layer {
  name: "relu4"
  type: "ReLU"
  bottom: "conv4"
  top: "conv4"
}
layer {
  name: "pool4"
  type: "Pooling"
  bottom: "conv4"
  top: "pool4"
  pooling_param {
    pool: MAX
    kernel_h: 2
    kernel_w: 1
    stride_h: 2
    stride_w: 1
  }
}
layer {
  name: "ip1"
  type: "InnerProduct"
  bottom: "pool4"
  top: "ip1"
  inner_product_param {
    num_output: 196
    weight_filler {
      type: "xavier"
    }
    bias_filler {
      type: "constant"
    }
  }
}
layer {
  name: "relu5"
  type: "ReLU"
  bottom: "ip1"
  top: "ip1"
}
layer {
  name: "drop1"
  type: "Dropout"
  bottom: "ip1"
  top: "ip1"
  dropout_param {
    dropout_ratio: 0.5
  }
}
layer {
  name: "ip2"
  type: "InnerProduct"
  bottom: "ip1"
  top: "ip2"
  inner_product_param {
    num_output: 98
    weight_filler {
      type: "xavier"
    }
    bias_filler {
      type: "constant"
    }
  }
}
layer {
  name: "relu6"
  type: "ReLU"
  bottom: "ip2"
  top: "ip2"
}
layer {
  name: "drop2"
  type: "Dropout"
  bottom: "ip2"
  top: "ip2"
  dropout_param {
    dropout_ratio: 0.5
  }
}
layer {
  name: "ip3"
  type: "InnerProduct"
  bottom: "ip2"
  top: "ip3"
  inner_product_param {
    num_output: 11
    weight_filler {
      type: "xavier"
    }
    bias_filler {
      type: "constant"
    }
  }
}
layer {
  name: "drop3"
  type: "Dropout"
  bottom: "ip3"
  top: "ip3"
  dropout_param {
    dropout_ratio: 0.5
  }
}
layer {
  name: "accuracy"
  type: "Accuracy"
  bottom: "ip3"
  bottom: "label"
  top: "accuracy"
  include {
    phase: TEST
  }
}
layer {
  name: "loss"
  type: "SoftmaxWithLoss"
  bottom: "ip3"
  bottom: "label"
  top: "loss"
}
I0526 21:11:27.274611 14495 layer_factory.hpp:77] Creating layer data_hdf5
I0526 21:11:27.274626 14495 net.cpp:106] Creating Layer data_hdf5
I0526 21:11:27.274639 14495 net.cpp:411] data_hdf5 -> data
I0526 21:11:27.274655 14495 net.cpp:411] data_hdf5 -> label
I0526 21:11:27.274672 14495 hdf5_data_layer.cpp:79] Loading list of HDF5 filenames from: /lustre/atlas/proj-shared/hep105/caffe_titan/minosmatch_nukecczdefs_127x50_x_unshifted_me1Bmc.testlist
I0526 21:11:27.275940 14495 hdf5_data_layer.cpp:93] Number of HDF5 files: 3
I0526 21:11:48.679352 14495 net.cpp:150] Setting up data_hdf5
I0526 21:11:48.679522 14495 net.cpp:157] Top shape: 20 1 127 50 (127000)
I0526 21:11:48.679536 14495 net.cpp:157] Top shape: 20 (20)
I0526 21:11:48.679545 14495 net.cpp:165] Memory required for data: 508080
I0526 21:11:48.679559 14495 layer_factory.hpp:77] Creating layer label_data_hdf5_1_split
I0526 21:11:48.679587 14495 net.cpp:106] Creating Layer label_data_hdf5_1_split
I0526 21:11:48.679599 14495 net.cpp:454] label_data_hdf5_1_split <- label
I0526 21:11:48.679613 14495 net.cpp:411] label_data_hdf5_1_split -> label_data_hdf5_1_split_0
I0526 21:11:48.679636 14495 net.cpp:411] label_data_hdf5_1_split -> label_data_hdf5_1_split_1
I0526 21:11:48.679710 14495 net.cpp:150] Setting up label_data_hdf5_1_split
I0526 21:11:48.679724 14495 net.cpp:157] Top shape: 20 (20)
I0526 21:11:48.679736 14495 net.cpp:157] Top shape: 20 (20)
I0526 21:11:48.679745 14495 net.cpp:165] Memory required for data: 508240
I0526 21:11:48.679755 14495 layer_factory.hpp:77] Creating layer conv1
I0526 21:11:48.679777 14495 net.cpp:106] Creating Layer conv1
I0526 21:11:48.679787 14495 net.cpp:454] conv1 <- data
I0526 21:11:48.679802 14495 net.cpp:411] conv1 -> conv1
I0526 21:11:48.681761 14495 net.cpp:150] Setting up conv1
I0526 21:11:48.681785 14495 net.cpp:157] Top shape: 20 12 120 48 (1382400)
I0526 21:11:48.681795 14495 net.cpp:165] Memory required for data: 6037840
I0526 21:11:48.681818 14495 layer_factory.hpp:77] Creating layer relu1
I0526 21:11:48.681833 14495 net.cpp:106] Creating Layer relu1
I0526 21:11:48.681843 14495 net.cpp:454] relu1 <- conv1
I0526 21:11:48.681855 14495 net.cpp:397] relu1 -> conv1 (in-place)
I0526 21:11:48.682355 14495 net.cpp:150] Setting up relu1
I0526 21:11:48.682371 14495 net.cpp:157] Top shape: 20 12 120 48 (1382400)
I0526 21:11:48.682381 14495 net.cpp:165] Memory required for data: 11567440
I0526 21:11:48.682391 14495 layer_factory.hpp:77] Creating layer pool1
I0526 21:11:48.682407 14495 net.cpp:106] Creating Layer pool1
I0526 21:11:48.682417 14495 net.cpp:454] pool1 <- conv1
I0526 21:11:48.682432 14495 net.cpp:411] pool1 -> pool1
I0526 21:11:48.682507 14495 net.cpp:150] Setting up pool1
I0526 21:11:48.682519 14495 net.cpp:157] Top shape: 20 12 60 48 (691200)
I0526 21:11:48.682529 14495 net.cpp:165] Memory required for data: 14332240
I0526 21:11:48.682539 14495 layer_factory.hpp:77] Creating layer conv2
I0526 21:11:48.682557 14495 net.cpp:106] Creating Layer conv2
I0526 21:11:48.682567 14495 net.cpp:454] conv2 <- pool1
I0526 21:11:48.682582 14495 net.cpp:411] conv2 -> conv2
I0526 21:11:48.684497 14495 net.cpp:150] Setting up conv2
I0526 21:11:48.684520 14495 net.cpp:157] Top shape: 20 20 54 46 (993600)
I0526 21:11:48.684532 14495 net.cpp:165] Memory required for data: 18306640
I0526 21:11:48.684551 14495 layer_factory.hpp:77] Creating layer relu2
I0526 21:11:48.684563 14495 net.cpp:106] Creating Layer relu2
I0526 21:11:48.684573 14495 net.cpp:454] relu2 <- conv2
I0526 21:11:48.684587 14495 net.cpp:397] relu2 -> conv2 (in-place)
I0526 21:11:48.684919 14495 net.cpp:150] Setting up relu2
I0526 21:11:48.684933 14495 net.cpp:157] Top shape: 20 20 54 46 (993600)
I0526 21:11:48.684942 14495 net.cpp:165] Memory required for data: 22281040
I0526 21:11:48.684952 14495 layer_factory.hpp:77] Creating layer pool2
I0526 21:11:48.684967 14495 net.cpp:106] Creating Layer pool2
I0526 21:11:48.684976 14495 net.cpp:454] pool2 <- conv2
I0526 21:11:48.684989 14495 net.cpp:411] pool2 -> pool2
I0526 21:11:48.685061 14495 net.cpp:150] Setting up pool2
I0526 21:11:48.685075 14495 net.cpp:157] Top shape: 20 20 27 46 (496800)
I0526 21:11:48.685084 14495 net.cpp:165] Memory required for data: 24268240
I0526 21:11:48.685094 14495 layer_factory.hpp:77] Creating layer conv3
I0526 21:11:48.685111 14495 net.cpp:106] Creating Layer conv3
I0526 21:11:48.685122 14495 net.cpp:454] conv3 <- pool2
I0526 21:11:48.685137 14495 net.cpp:411] conv3 -> conv3
I0526 21:11:48.687098 14495 net.cpp:150] Setting up conv3
I0526 21:11:48.687121 14495 net.cpp:157] Top shape: 20 28 22 44 (542080)
I0526 21:11:48.687134 14495 net.cpp:165] Memory required for data: 26436560
I0526 21:11:48.687151 14495 layer_factory.hpp:77] Creating layer relu3
I0526 21:11:48.687178 14495 net.cpp:106] Creating Layer relu3
I0526 21:11:48.687188 14495 net.cpp:454] relu3 <- conv3
I0526 21:11:48.687203 14495 net.cpp:397] relu3 -> conv3 (in-place)
I0526 21:11:48.687677 14495 net.cpp:150] Setting up relu3
I0526 21:11:48.687693 14495 net.cpp:157] Top shape: 20 28 22 44 (542080)
I0526 21:11:48.687705 14495 net.cpp:165] Memory required for data: 28604880
I0526 21:11:48.687714 14495 layer_factory.hpp:77] Creating layer pool3
I0526 21:11:48.687728 14495 net.cpp:106] Creating Layer pool3
I0526 21:11:48.687737 14495 net.cpp:454] pool3 <- conv3
I0526 21:11:48.687750 14495 net.cpp:411] pool3 -> pool3
I0526 21:11:48.687822 14495 net.cpp:150] Setting up pool3
I0526 21:11:48.687836 14495 net.cpp:157] Top shape: 20 28 11 44 (271040)
I0526 21:11:48.687846 14495 net.cpp:165] Memory required for data: 29689040
I0526 21:11:48.687855 14495 layer_factory.hpp:77] Creating layer conv4
I0526 21:11:48.687871 14495 net.cpp:106] Creating Layer conv4
I0526 21:11:48.687881 14495 net.cpp:454] conv4 <- pool3
I0526 21:11:48.687896 14495 net.cpp:411] conv4 -> conv4
I0526 21:11:48.689952 14495 net.cpp:150] Setting up conv4
I0526 21:11:48.689975 14495 net.cpp:157] Top shape: 20 36 6 42 (181440)
I0526 21:11:48.689985 14495 net.cpp:165] Memory required for data: 30414800
I0526 21:11:48.690002 14495 layer_factory.hpp:77] Creating layer relu4
I0526 21:11:48.690016 14495 net.cpp:106] Creating Layer relu4
I0526 21:11:48.690026 14495 net.cpp:454] relu4 <- conv4
I0526 21:11:48.690038 14495 net.cpp:397] relu4 -> conv4 (in-place)
I0526 21:11:48.690505 14495 net.cpp:150] Setting up relu4
I0526 21:11:48.690521 14495 net.cpp:157] Top shape: 20 36 6 42 (181440)
I0526 21:11:48.690531 14495 net.cpp:165] Memory required for data: 31140560
I0526 21:11:48.690541 14495 layer_factory.hpp:77] Creating layer pool4
I0526 21:11:48.690556 14495 net.cpp:106] Creating Layer pool4
I0526 21:11:48.690565 14495 net.cpp:454] pool4 <- conv4
I0526 21:11:48.690578 14495 net.cpp:411] pool4 -> pool4
I0526 21:11:48.690650 14495 net.cpp:150] Setting up pool4
I0526 21:11:48.690665 14495 net.cpp:157] Top shape: 20 36 3 42 (90720)
I0526 21:11:48.690673 14495 net.cpp:165] Memory required for data: 31503440
I0526 21:11:48.690681 14495 layer_factory.hpp:77] Creating layer ip1
I0526 21:11:48.690696 14495 net.cpp:106] Creating Layer ip1
I0526 21:11:48.690707 14495 net.cpp:454] ip1 <- pool4
I0526 21:11:48.690721 14495 net.cpp:411] ip1 -> ip1
I0526 21:11:48.706121 14495 net.cpp:150] Setting up ip1
I0526 21:11:48.706145 14495 net.cpp:157] Top shape: 20 196 (3920)
I0526 21:11:48.706156 14495 net.cpp:165] Memory required for data: 31519120
I0526 21:11:48.706177 14495 layer_factory.hpp:77] Creating layer relu5
I0526 21:11:48.706193 14495 net.cpp:106] Creating Layer relu5
I0526 21:11:48.706203 14495 net.cpp:454] relu5 <- ip1
I0526 21:11:48.706218 14495 net.cpp:397] relu5 -> ip1 (in-place)
I0526 21:11:48.706568 14495 net.cpp:150] Setting up relu5
I0526 21:11:48.706581 14495 net.cpp:157] Top shape: 20 196 (3920)
I0526 21:11:48.706591 14495 net.cpp:165] Memory required for data: 31534800
I0526 21:11:48.706601 14495 layer_factory.hpp:77] Creating layer drop1
I0526 21:11:48.706620 14495 net.cpp:106] Creating Layer drop1
I0526 21:11:48.706630 14495 net.cpp:454] drop1 <- ip1
I0526 21:11:48.706645 14495 net.cpp:397] drop1 -> ip1 (in-place)
I0526 21:11:48.706689 14495 net.cpp:150] Setting up drop1
I0526 21:11:48.706702 14495 net.cpp:157] Top shape: 20 196 (3920)
I0526 21:11:48.706712 14495 net.cpp:165] Memory required for data: 31550480
I0526 21:11:48.706722 14495 layer_factory.hpp:77] Creating layer ip2
I0526 21:11:48.706737 14495 net.cpp:106] Creating Layer ip2
I0526 21:11:48.706746 14495 net.cpp:454] ip2 <- ip1
I0526 21:11:48.706760 14495 net.cpp:411] ip2 -> ip2
I0526 21:11:48.707247 14495 net.cpp:150] Setting up ip2
I0526 21:11:48.707260 14495 net.cpp:157] Top shape: 20 98 (1960)
I0526 21:11:48.707270 14495 net.cpp:165] Memory required for data: 31558320
I0526 21:11:48.707285 14495 layer_factory.hpp:77] Creating layer relu6
I0526 21:11:48.707311 14495 net.cpp:106] Creating Layer relu6
I0526 21:11:48.707321 14495 net.cpp:454] relu6 <- ip2
I0526 21:11:48.707334 14495 net.cpp:397] relu6 -> ip2 (in-place)
I0526 21:11:48.707862 14495 net.cpp:150] Setting up relu6
I0526 21:11:48.707878 14495 net.cpp:157] Top shape: 20 98 (1960)
I0526 21:11:48.707886 14495 net.cpp:165] Memory required for data: 31566160
I0526 21:11:48.707895 14495 layer_factory.hpp:77] Creating layer drop2
I0526 21:11:48.707909 14495 net.cpp:106] Creating Layer drop2
I0526 21:11:48.707921 14495 net.cpp:454] drop2 <- ip2
I0526 21:11:48.707933 14495 net.cpp:397] drop2 -> ip2 (in-place)
I0526 21:11:48.707978 14495 net.cpp:150] Setting up drop2
I0526 21:11:48.707990 14495 net.cpp:157] Top shape: 20 98 (1960)
I0526 21:11:48.708000 14495 net.cpp:165] Memory required for data: 31574000
I0526 21:11:48.708009 14495 layer_factory.hpp:77] Creating layer ip3
I0526 21:11:48.708024 14495 net.cpp:106] Creating Layer ip3
I0526 21:11:48.708034 14495 net.cpp:454] ip3 <- ip2
I0526 21:11:48.708048 14495 net.cpp:411] ip3 -> ip3
I0526 21:11:48.708281 14495 net.cpp:150] Setting up ip3
I0526 21:11:48.708295 14495 net.cpp:157] Top shape: 20 11 (220)
I0526 21:11:48.708304 14495 net.cpp:165] Memory required for data: 31574880
I0526 21:11:48.708320 14495 layer_factory.hpp:77] Creating layer drop3
I0526 21:11:48.708333 14495 net.cpp:106] Creating Layer drop3
I0526 21:11:48.708343 14495 net.cpp:454] drop3 <- ip3
I0526 21:11:48.708356 14495 net.cpp:397] drop3 -> ip3 (in-place)
I0526 21:11:48.708397 14495 net.cpp:150] Setting up drop3
I0526 21:11:48.708410 14495 net.cpp:157] Top shape: 20 11 (220)
I0526 21:11:48.708420 14495 net.cpp:165] Memory required for data: 31575760
I0526 21:11:48.708431 14495 layer_factory.hpp:77] Creating layer ip3_drop3_0_split
I0526 21:11:48.708443 14495 net.cpp:106] Creating Layer ip3_drop3_0_split
I0526 21:11:48.708453 14495 net.cpp:454] ip3_drop3_0_split <- ip3
I0526 21:11:48.708467 14495 net.cpp:411] ip3_drop3_0_split -> ip3_drop3_0_split_0
I0526 21:11:48.708482 14495 net.cpp:411] ip3_drop3_0_split -> ip3_drop3_0_split_1
I0526 21:11:48.708554 14495 net.cpp:150] Setting up ip3_drop3_0_split
I0526 21:11:48.708569 14495 net.cpp:157] Top shape: 20 11 (220)
I0526 21:11:48.708580 14495 net.cpp:157] Top shape: 20 11 (220)
I0526 21:11:48.708590 14495 net.cpp:165] Memory required for data: 31577520
I0526 21:11:48.708600 14495 layer_factory.hpp:77] Creating layer accuracy
I0526 21:11:48.708622 14495 net.cpp:106] Creating Layer accuracy
I0526 21:11:48.708632 14495 net.cpp:454] accuracy <- ip3_drop3_0_split_0
I0526 21:11:48.708643 14495 net.cpp:454] accuracy <- label_data_hdf5_1_split_0
I0526 21:11:48.708657 14495 net.cpp:411] accuracy -> accuracy
…
