…
I0522 05:46:02.810902 19460 net.cpp:322] The NetState phase (0) differed from the phase (1) specified by a rule in layer data_hdf5
I0522 05:46:02.810962 19460 net.cpp:322] The NetState phase (0) differed from the phase (1) specified by a rule in layer accuracy
I0522 05:46:02.811311 19460 net.cpp:49] Initializing net from parameters: 
name: "caffe_test_127x50_x_unshifted"
state {
  phase: TRAIN
}
layer {
  name: "data_hdf5"
  type: "HDF5Data"
  top: "data"
  top: "label"
  include {
    phase: TRAIN
  }
  hdf5_data_param {
    source: "/lustre/atlas/proj-shared/hep105/caffe_titan/minosmatch_nukecczdefs_127x50_x_unshifted_me1Bmc.trainlist"
    batch_size: 20
  }
}
layer {
  name: "conv1"
  type: "Convolution"
  bottom: "data"
  top: "conv1"
  convolution_param {
    num_output: 12
    pad: 0
    stride: 1
    weight_filler {
      type: "xavier"
    }
    bias_filler {
      type: "constant"
    }
    kernel_h: 8
    kernel_w: 3
  }
}
layer {
  name: "relu1"
  type: "ReLU"
  bottom: "conv1"
  top: "conv1"
}
layer {
  name: "pool1"
  type: "Pooling"
  bottom: "conv1"
  top: "pool1"
  pooling_param {
    pool: MAX
    kernel_h: 2
    kernel_w: 1
    stride_h: 2
    stride_w: 1
  }
}
layer {
  name: "conv2"
  type: "Convolution"
  bottom: "pool1"
  top: "conv2"
  convolution_param {
    num_output: 20
    pad: 0
    stride: 1
    weight_filler {
      type: "xavier"
    }
    bias_filler {
      type: "constant"
    }
    kernel_h: 7
    kernel_w: 3
  }
}
layer {
  name: "relu2"
  type: "ReLU"
  bottom: "conv2"
  top: "conv2"
}
layer {
  name: "pool2"
  type: "Pooling"
  bottom: "conv2"
  top: "pool2"
  pooling_param {
    pool: MAX
    kernel_h: 2
    kernel_w: 1
    stride_h: 2
    stride_w: 1
  }
}
layer {
  name: "conv3"
  type: "Convolution"
  bottom: "pool2"
  top: "conv3"
  convolution_param {
    num_output: 28
    pad: 0
    stride: 1
    weight_filler {
      type: "xavier"
    }
    bias_filler {
      type: "constant"
    }
    kernel_h: 6
    kernel_w: 3
  }
}
layer {
  name: "relu3"
  type: "ReLU"
  bottom: "conv3"
  top: "conv3"
}
layer {
  name: "pool3"
  type: "Pooling"
  bottom: "conv3"
  top: "pool3"
  pooling_param {
    pool: MAX
    kernel_h: 2
    kernel_w: 1
    stride_h: 2
    stride_w: 1
  }
}
layer {
  name: "conv4"
  type: "Convolution"
  bottom: "pool3"
  top: "conv4"
  convolution_param {
    num_output: 36
    pad: 0
    stride: 1
    weight_filler {
      type: "xavier"
    }
    bias_filler {
      type: "constant"
    }
    kernel_h: 6
    kernel_w: 3
  }
}
layer {
  name: "relu4"
  type: "ReLU"
  bottom: "conv4"
  top: "conv4"
}
layer {
  name: "pool4"
  type: "Pooling"
  bottom: "conv4"
  top: "pool4"
  pooling_param {
    pool: MAX
    kernel_h: 2
    kernel_w: 1
    stride_h: 2
    stride_w: 1
  }
}
layer {
  name: "ip1"
  type: "InnerProduct"
  bottom: "pool4"
  top: "ip1"
  inner_product_param {
    num_output: 196
    weight_filler {
      type: "xavier"
    }
    bias_filler {
      type: "constant"
    }
  }
}
layer {
  name: "relu5"
  type: "ReLU"
  bottom: "ip1"
  top: "ip1"
}
layer {
  name: "drop1"
  type: "Dropout"
  bottom: "ip1"
  top: "ip1"
  dropout_param {
    dropout_ratio: 0.5
  }
}
layer {
  name: "ip2"
  type: "InnerProduct"
  bottom: "ip1"
  top: "ip2"
  inner_product_param {
    num_output: 98
    weight_filler {
      type: "xavier"
    }
    bias_filler {
      type: "constant"
    }
  }
}
layer {
  name: "relu6"
  type: "ReLU"
  bottom: "ip2"
  top: "ip2"
}
layer {
  name: "drop2"
  type: "Dropout"
  bottom: "ip2"
  top: "ip2"
  dropout_param {
    dropout_ratio: 0.5
  }
}
layer {
  name: "ip3"
  type: "InnerProduct"
  bottom: "ip2"
  top: "ip3"
  inner_product_param {
    num_output: 11
    weight_filler {
      type: "xavier"
    }
    bias_filler {
      type: "constant"
    }
  }
}
layer {
  name: "drop3"
  type: "Dropout"
  bottom: "ip3"
  top: "ip3"
  dropout_param {
    dropout_ratio: 0.5
  }
}
layer {
  name: "loss"
  type: "SoftmaxWithLoss"
  bottom: "ip3"
  bottom: "label"
  top: "loss"
}
I0522 05:46:02.811489 19460 layer_factory.hpp:77] Creating layer data_hdf5
I0522 05:46:02.811513 19460 net.cpp:106] Creating Layer data_hdf5
I0522 05:46:02.811528 19460 net.cpp:411] data_hdf5 -> data
I0522 05:46:02.811561 19460 net.cpp:411] data_hdf5 -> label
I0522 05:46:02.811594 19460 hdf5_data_layer.cpp:79] Loading list of HDF5 filenames from: /lustre/atlas/proj-shared/hep105/caffe_titan/minosmatch_nukecczdefs_127x50_x_unshifted_me1Bmc.trainlist
I0522 05:46:02.826170 19460 hdf5_data_layer.cpp:93] Number of HDF5 files: 15
I0522 05:46:02.843523 19460 hdf5.cpp:32] Datatype class: H5T_FLOAT
I0522 05:46:24.406764 19460 hdf5.cpp:35] Datatype class: H5T_INTEGER
I0522 05:46:24.411957 19460 net.cpp:150] Setting up data_hdf5
I0522 05:46:24.411995 19460 net.cpp:157] Top shape: 20 1 127 50 (127000)
I0522 05:46:24.412010 19460 net.cpp:157] Top shape: 20 (20)
I0522 05:46:24.412024 19460 net.cpp:165] Memory required for data: 508080
I0522 05:46:24.412036 19460 layer_factory.hpp:77] Creating layer conv1
I0522 05:46:24.412070 19460 net.cpp:106] Creating Layer conv1
I0522 05:46:24.412081 19460 net.cpp:454] conv1 <- data
I0522 05:46:24.412102 19460 net.cpp:411] conv1 -> conv1
I0522 05:46:27.832072 19460 net.cpp:150] Setting up conv1
I0522 05:46:27.832119 19460 net.cpp:157] Top shape: 20 12 120 48 (1382400)
I0522 05:46:27.832130 19460 net.cpp:165] Memory required for data: 6037680
I0522 05:46:27.832160 19460 layer_factory.hpp:77] Creating layer relu1
I0522 05:46:27.832182 19460 net.cpp:106] Creating Layer relu1
I0522 05:46:27.832193 19460 net.cpp:454] relu1 <- conv1
I0522 05:46:27.832206 19460 net.cpp:397] relu1 -> conv1 (in-place)
I0522 05:46:27.832725 19460 net.cpp:150] Setting up relu1
I0522 05:46:27.832741 19460 net.cpp:157] Top shape: 20 12 120 48 (1382400)
I0522 05:46:27.832752 19460 net.cpp:165] Memory required for data: 11567280
I0522 05:46:27.832763 19460 layer_factory.hpp:77] Creating layer pool1
I0522 05:46:27.832780 19460 net.cpp:106] Creating Layer pool1
I0522 05:46:27.832790 19460 net.cpp:454] pool1 <- conv1
I0522 05:46:27.832803 19460 net.cpp:411] pool1 -> pool1
I0522 05:46:27.832893 19460 net.cpp:150] Setting up pool1
I0522 05:46:27.832907 19460 net.cpp:157] Top shape: 20 12 60 48 (691200)
I0522 05:46:27.832919 19460 net.cpp:165] Memory required for data: 14332080
I0522 05:46:27.832929 19460 layer_factory.hpp:77] Creating layer conv2
I0522 05:46:27.832952 19460 net.cpp:106] Creating Layer conv2
I0522 05:46:27.832962 19460 net.cpp:454] conv2 <- pool1
I0522 05:46:27.832975 19460 net.cpp:411] conv2 -> conv2
I0522 05:46:27.835661 19460 net.cpp:150] Setting up conv2
I0522 05:46:27.835690 19460 net.cpp:157] Top shape: 20 20 54 46 (993600)
I0522 05:46:27.835700 19460 net.cpp:165] Memory required for data: 18306480
I0522 05:46:27.835719 19460 layer_factory.hpp:77] Creating layer relu2
I0522 05:46:27.835733 19460 net.cpp:106] Creating Layer relu2
I0522 05:46:27.835743 19460 net.cpp:454] relu2 <- conv2
I0522 05:46:27.835757 19460 net.cpp:397] relu2 -> conv2 (in-place)
I0522 05:46:27.836086 19460 net.cpp:150] Setting up relu2
I0522 05:46:27.836099 19460 net.cpp:157] Top shape: 20 20 54 46 (993600)
I0522 05:46:27.836109 19460 net.cpp:165] Memory required for data: 22280880
I0522 05:46:27.836120 19460 layer_factory.hpp:77] Creating layer pool2
I0522 05:46:27.836133 19460 net.cpp:106] Creating Layer pool2
I0522 05:46:27.836143 19460 net.cpp:454] pool2 <- conv2
I0522 05:46:27.836154 19460 net.cpp:411] pool2 -> pool2
I0522 05:46:27.836236 19460 net.cpp:150] Setting up pool2
I0522 05:46:27.836249 19460 net.cpp:157] Top shape: 20 20 27 46 (496800)
I0522 05:46:27.836259 19460 net.cpp:165] Memory required for data: 24268080
I0522 05:46:27.836269 19460 layer_factory.hpp:77] Creating layer conv3
I0522 05:46:27.836285 19460 net.cpp:106] Creating Layer conv3
I0522 05:46:27.836295 19460 net.cpp:454] conv3 <- pool2
I0522 05:46:27.836309 19460 net.cpp:411] conv3 -> conv3
I0522 05:46:27.838255 19460 net.cpp:150] Setting up conv3
I0522 05:46:27.838279 19460 net.cpp:157] Top shape: 20 28 22 44 (542080)
I0522 05:46:27.838291 19460 net.cpp:165] Memory required for data: 26436400
I0522 05:46:27.838310 19460 layer_factory.hpp:77] Creating layer relu3
I0522 05:46:27.838326 19460 net.cpp:106] Creating Layer relu3
I0522 05:46:27.838336 19460 net.cpp:454] relu3 <- conv3
I0522 05:46:27.838349 19460 net.cpp:397] relu3 -> conv3 (in-place)
I0522 05:46:27.838819 19460 net.cpp:150] Setting up relu3
I0522 05:46:27.838836 19460 net.cpp:157] Top shape: 20 28 22 44 (542080)
I0522 05:46:27.838846 19460 net.cpp:165] Memory required for data: 28604720
I0522 05:46:27.838856 19460 layer_factory.hpp:77] Creating layer pool3
I0522 05:46:27.838870 19460 net.cpp:106] Creating Layer pool3
I0522 05:46:27.838879 19460 net.cpp:454] pool3 <- conv3
I0522 05:46:27.838892 19460 net.cpp:411] pool3 -> pool3
I0522 05:46:27.838960 19460 net.cpp:150] Setting up pool3
I0522 05:46:27.838973 19460 net.cpp:157] Top shape: 20 28 11 44 (271040)
I0522 05:46:27.838984 19460 net.cpp:165] Memory required for data: 29688880
I0522 05:46:27.838992 19460 layer_factory.hpp:77] Creating layer conv4
I0522 05:46:27.839009 19460 net.cpp:106] Creating Layer conv4
I0522 05:46:27.839018 19460 net.cpp:454] conv4 <- pool3
I0522 05:46:27.839032 19460 net.cpp:411] conv4 -> conv4
I0522 05:46:27.841743 19460 net.cpp:150] Setting up conv4
I0522 05:46:27.841771 19460 net.cpp:157] Top shape: 20 36 6 42 (181440)
I0522 05:46:27.841784 19460 net.cpp:165] Memory required for data: 30414640
I0522 05:46:27.841800 19460 layer_factory.hpp:77] Creating layer relu4
I0522 05:46:27.841814 19460 net.cpp:106] Creating Layer relu4
I0522 05:46:27.841825 19460 net.cpp:454] relu4 <- conv4
I0522 05:46:27.841838 19460 net.cpp:397] relu4 -> conv4 (in-place)
I0522 05:46:27.842301 19460 net.cpp:150] Setting up relu4
I0522 05:46:27.842317 19460 net.cpp:157] Top shape: 20 36 6 42 (181440)
I0522 05:46:27.842329 19460 net.cpp:165] Memory required for data: 31140400
I0522 05:46:27.842339 19460 layer_factory.hpp:77] Creating layer pool4
I0522 05:46:27.842351 19460 net.cpp:106] Creating Layer pool4
I0522 05:46:27.842361 19460 net.cpp:454] pool4 <- conv4
I0522 05:46:27.842373 19460 net.cpp:411] pool4 -> pool4
I0522 05:46:27.842442 19460 net.cpp:150] Setting up pool4
I0522 05:46:27.842455 19460 net.cpp:157] Top shape: 20 36 3 42 (90720)
I0522 05:46:27.842466 19460 net.cpp:165] Memory required for data: 31503280
I0522 05:46:27.842476 19460 layer_factory.hpp:77] Creating layer ip1
I0522 05:46:27.842496 19460 net.cpp:106] Creating Layer ip1
I0522 05:46:27.842506 19460 net.cpp:454] ip1 <- pool4
I0522 05:46:27.842520 19460 net.cpp:411] ip1 -> ip1
I0522 05:46:27.857996 19460 net.cpp:150] Setting up ip1
I0522 05:46:27.858026 19460 net.cpp:157] Top shape: 20 196 (3920)
I0522 05:46:27.858039 19460 net.cpp:165] Memory required for data: 31518960
I0522 05:46:27.858062 19460 layer_factory.hpp:77] Creating layer relu5
I0522 05:46:27.858077 19460 net.cpp:106] Creating Layer relu5
I0522 05:46:27.858086 19460 net.cpp:454] relu5 <- ip1
I0522 05:46:27.858100 19460 net.cpp:397] relu5 -> ip1 (in-place)
I0522 05:46:27.858441 19460 net.cpp:150] Setting up relu5
I0522 05:46:27.858455 19460 net.cpp:157] Top shape: 20 196 (3920)
I0522 05:46:27.858465 19460 net.cpp:165] Memory required for data: 31534640
I0522 05:46:27.858476 19460 layer_factory.hpp:77] Creating layer drop1
I0522 05:46:27.858499 19460 net.cpp:106] Creating Layer drop1
I0522 05:46:27.858508 19460 net.cpp:454] drop1 <- ip1
I0522 05:46:27.858520 19460 net.cpp:397] drop1 -> ip1 (in-place)
I0522 05:46:27.858580 19460 net.cpp:150] Setting up drop1
I0522 05:46:27.858593 19460 net.cpp:157] Top shape: 20 196 (3920)
I0522 05:46:27.858603 19460 net.cpp:165] Memory required for data: 31550320
I0522 05:46:27.858613 19460 layer_factory.hpp:77] Creating layer ip2
I0522 05:46:27.858633 19460 net.cpp:106] Creating Layer ip2
I0522 05:46:27.858642 19460 net.cpp:454] ip2 <- ip1
I0522 05:46:27.858655 19460 net.cpp:411] ip2 -> ip2
I0522 05:46:27.859118 19460 net.cpp:150] Setting up ip2
I0522 05:46:27.859132 19460 net.cpp:157] Top shape: 20 98 (1960)
I0522 05:46:27.859141 19460 net.cpp:165] Memory required for data: 31558160
I0522 05:46:27.859156 19460 layer_factory.hpp:77] Creating layer relu6
I0522 05:46:27.859169 19460 net.cpp:106] Creating Layer relu6
I0522 05:46:27.859179 19460 net.cpp:454] relu6 <- ip2
I0522 05:46:27.859190 19460 net.cpp:397] relu6 -> ip2 (in-place)
I0522 05:46:27.859705 19460 net.cpp:150] Setting up relu6
I0522 05:46:27.859721 19460 net.cpp:157] Top shape: 20 98 (1960)
I0522 05:46:27.859732 19460 net.cpp:165] Memory required for data: 31566000
I0522 05:46:27.859743 19460 layer_factory.hpp:77] Creating layer drop2
I0522 05:46:27.859756 19460 net.cpp:106] Creating Layer drop2
I0522 05:46:27.859766 19460 net.cpp:454] drop2 <- ip2
I0522 05:46:27.859779 19460 net.cpp:397] drop2 -> ip2 (in-place)
I0522 05:46:27.859822 19460 net.cpp:150] Setting up drop2
I0522 05:46:27.859835 19460 net.cpp:157] Top shape: 20 98 (1960)
I0522 05:46:27.859845 19460 net.cpp:165] Memory required for data: 31573840
I0522 05:46:27.859855 19460 layer_factory.hpp:77] Creating layer ip3
I0522 05:46:27.859869 19460 net.cpp:106] Creating Layer ip3
I0522 05:46:27.859879 19460 net.cpp:454] ip3 <- ip2
I0522 05:46:27.859891 19460 net.cpp:411] ip3 -> ip3
I0522 05:46:27.860102 19460 net.cpp:150] Setting up ip3
I0522 05:46:27.860116 19460 net.cpp:157] Top shape: 20 11 (220)
I0522 05:46:27.860126 19460 net.cpp:165] Memory required for data: 31574720
I0522 05:46:27.860141 19460 layer_factory.hpp:77] Creating layer drop3
I0522 05:46:27.860153 19460 net.cpp:106] Creating Layer drop3
I0522 05:46:27.860163 19460 net.cpp:454] drop3 <- ip3
I0522 05:46:27.860175 19460 net.cpp:397] drop3 -> ip3 (in-place)
I0522 05:46:27.860215 19460 net.cpp:150] Setting up drop3
I0522 05:46:27.860229 19460 net.cpp:157] Top shape: 20 11 (220)
I0522 05:46:27.860237 19460 net.cpp:165] Memory required for data: 31575600
I0522 05:46:27.860247 19460 layer_factory.hpp:77] Creating layer loss
I0522 05:46:27.860267 19460 net.cpp:106] Creating Layer loss
I0522 05:46:27.860276 19460 net.cpp:454] loss <- ip3
I0522 05:46:27.860287 19460 net.cpp:454] loss <- label
I0522 05:46:27.860301 19460 net.cpp:411] loss -> loss
I0522 05:46:27.860318 19460 layer_factory.hpp:77] Creating layer loss
…
I0522 05:46:27.863140 19460 solver.cpp:181] Creating test net (#0) specified by net file: /lustre/atlas/proj-shared/hep105/caffe_titan/caffe_workflow/logs_bslr/bs_20_lr_0.0050_2016-05-20T15.48.56.922305.prototxt
I0522 05:46:27.863211 19460 net.cpp:322] The NetState phase (1) differed from the phase (0) specified by a rule in layer data_hdf5
I0522 05:46:27.863567 19460 net.cpp:49] Initializing net from parameters: 
name: "caffe_test_127x50_x_unshifted"
state {
  phase: TEST
}
layer {
  name: "data_hdf5"
  type: "HDF5Data"
  top: "data"
  top: "label"
  include {
    phase: TEST
  }
  hdf5_data_param {
    source: "/lustre/atlas/proj-shared/hep105/caffe_titan/minosmatch_nukecczdefs_127x50_x_unshifted_me1Bmc.testlist"
    batch_size: 20
  }
}
layer {
  name: "conv1"
  type: "Convolution"
  bottom: "data"
  top: "conv1"
  convolution_param {
    num_output: 12
    pad: 0
    stride: 1
    weight_filler {
      type: "xavier"
    }
    bias_filler {
      type: "constant"
    }
    kernel_h: 8
    kernel_w: 3
  }
}
layer {
  name: "relu1"
  type: "ReLU"
  bottom: "conv1"
  top: "conv1"
}
layer {
  name: "pool1"
  type: "Pooling"
  bottom: "conv1"
  top: "pool1"
  pooling_param {
    pool: MAX
    kernel_h: 2
    kernel_w: 1
    stride_h: 2
    stride_w: 1
  }
}
layer {
  name: "conv2"
  type: "Convolution"
  bottom: "pool1"
  top: "conv2"
  convolution_param {
    num_output: 20
    pad: 0
    stride: 1
    weight_filler {
      type: "xavier"
    }
    bias_filler {
      type: "constant"
    }
    kernel_h: 7
    kernel_w: 3
  }
}
layer {
  name: "relu2"
  type: "ReLU"
  bottom: "conv2"
  top: "conv2"
}
layer {
  name: "pool2"
  type: "Pooling"
  bottom: "conv2"
  top: "pool2"
  pooling_param {
    pool: MAX
    kernel_h: 2
    kernel_w: 1
    stride_h: 2
    stride_w: 1
  }
}
layer {
  name: "conv3"
  type: "Convolution"
  bottom: "pool2"
  top: "conv3"
  convolution_param {
    num_output: 28
    pad: 0
    stride: 1
    weight_filler {
      type: "xavier"
    }
    bias_filler {
      type: "constant"
    }
    kernel_h: 6
    kernel_w: 3
  }
}
layer {
  name: "relu3"
  type: "ReLU"
  bottom: "conv3"
  top: "conv3"
}
layer {
  name: "pool3"
  type: "Pooling"
  bottom: "conv3"
  top: "pool3"
  pooling_param {
    pool: MAX
    kernel_h: 2
    kernel_w: 1
    stride_h: 2
    stride_w: 1
  }
}
layer {
  name: "conv4"
  type: "Convolution"
  bottom: "pool3"
  top: "conv4"
  convolution_param {
    num_output: 36
    pad: 0
    stride: 1
    weight_filler {
      type: "xavier"
    }
    bias_filler {
      type: "constant"
    }
    kernel_h: 6
    kernel_w: 3
  }
}
layer {
  name: "relu4"
  type: "ReLU"
  bottom: "conv4"
  top: "conv4"
}
layer {
  name: "pool4"
  type: "Pooling"
  bottom: "conv4"
  top: "pool4"
  pooling_param {
    pool: MAX
    kernel_h: 2
    kernel_w: 1
    stride_h: 2
    stride_w: 1
  }
}
layer {
  name: "ip1"
  type: "InnerProduct"
  bottom: "pool4"
  top: "ip1"
  inner_product_param {
    num_output: 196
    weight_filler {
      type: "xavier"
    }
    bias_filler {
      type: "constant"
    }
  }
}
layer {
  name: "relu5"
  type: "ReLU"
  bottom: "ip1"
  top: "ip1"
}
layer {
  name: "drop1"
  type: "Dropout"
  bottom: "ip1"
  top: "ip1"
  dropout_param {
    dropout_ratio: 0.5
  }
}
layer {
  name: "ip2"
  type: "InnerProduct"
  bottom: "ip1"
  top: "ip2"
  inner_product_param {
    num_output: 98
    weight_filler {
      type: "xavier"
    }
    bias_filler {
      type: "constant"
    }
  }
}
layer {
  name: "relu6"
  type: "ReLU"
  bottom: "ip2"
  top: "ip2"
}
layer {
  name: "drop2"
  type: "Dropout"
  bottom: "ip2"
  top: "ip2"
  dropout_param {
    dropout_ratio: 0.5
  }
}
layer {
  name: "ip3"
  type: "InnerProduct"
  bottom: "ip2"
  top: "ip3"
  inner_product_param {
    num_output: 11
    weight_filler {
      type: "xavier"
    }
    bias_filler {
      type: "constant"
    }
  }
}
layer {
  name: "drop3"
  type: "Dropout"
  bottom: "ip3"
  top: "ip3"
  dropout_param {
    dropout_ratio: 0.5
  }
}
layer {
  name: "accuracy"
  type: "Accuracy"
  bottom: "ip3"
  bottom: "label"
  top: "accuracy"
  include {
    phase: TEST
  }
}
layer {
  name: "loss"
  type: "SoftmaxWithLoss"
  bottom: "ip3"
  bottom: "label"
  top: "loss"
}
I0522 05:46:27.863757 19460 layer_factory.hpp:77] Creating layer data_hdf5
I0522 05:46:27.863773 19460 net.cpp:106] Creating Layer data_hdf5
I0522 05:46:27.863785 19460 net.cpp:411] data_hdf5 -> data
I0522 05:46:27.863801 19460 net.cpp:411] data_hdf5 -> label
I0522 05:46:27.863817 19460 hdf5_data_layer.cpp:79] Loading list of HDF5 filenames from: /lustre/atlas/proj-shared/hep105/caffe_titan/minosmatch_nukecczdefs_127x50_x_unshifted_me1Bmc.testlist
I0522 05:46:27.872771 19460 hdf5_data_layer.cpp:93] Number of HDF5 files: 3
I0522 05:46:49.232136 19460 net.cpp:150] Setting up data_hdf5
I0522 05:46:49.232303 19460 net.cpp:157] Top shape: 20 1 127 50 (127000)
I0522 05:46:49.232317 19460 net.cpp:157] Top shape: 20 (20)
I0522 05:46:49.232331 19460 net.cpp:165] Memory required for data: 508080
I0522 05:46:49.232343 19460 layer_factory.hpp:77] Creating layer label_data_hdf5_1_split
I0522 05:46:49.232372 19460 net.cpp:106] Creating Layer label_data_hdf5_1_split
I0522 05:46:49.232383 19460 net.cpp:454] label_data_hdf5_1_split <- label
I0522 05:46:49.232398 19460 net.cpp:411] label_data_hdf5_1_split -> label_data_hdf5_1_split_0
I0522 05:46:49.232419 19460 net.cpp:411] label_data_hdf5_1_split -> label_data_hdf5_1_split_1
I0522 05:46:49.232492 19460 net.cpp:150] Setting up label_data_hdf5_1_split
I0522 05:46:49.232506 19460 net.cpp:157] Top shape: 20 (20)
I0522 05:46:49.232518 19460 net.cpp:157] Top shape: 20 (20)
I0522 05:46:49.232527 19460 net.cpp:165] Memory required for data: 508240
I0522 05:46:49.232537 19460 layer_factory.hpp:77] Creating layer conv1
I0522 05:46:49.232559 19460 net.cpp:106] Creating Layer conv1
I0522 05:46:49.232569 19460 net.cpp:454] conv1 <- data
I0522 05:46:49.232581 19460 net.cpp:411] conv1 -> conv1
I0522 05:46:49.234511 19460 net.cpp:150] Setting up conv1
I0522 05:46:49.234535 19460 net.cpp:157] Top shape: 20 12 120 48 (1382400)
I0522 05:46:49.234546 19460 net.cpp:165] Memory required for data: 6037840
I0522 05:46:49.234567 19460 layer_factory.hpp:77] Creating layer relu1
I0522 05:46:49.234582 19460 net.cpp:106] Creating Layer relu1
I0522 05:46:49.234592 19460 net.cpp:454] relu1 <- conv1
I0522 05:46:49.234606 19460 net.cpp:397] relu1 -> conv1 (in-place)
I0522 05:46:49.235105 19460 net.cpp:150] Setting up relu1
I0522 05:46:49.235121 19460 net.cpp:157] Top shape: 20 12 120 48 (1382400)
I0522 05:46:49.235131 19460 net.cpp:165] Memory required for data: 11567440
I0522 05:46:49.235141 19460 layer_factory.hpp:77] Creating layer pool1
I0522 05:46:49.235157 19460 net.cpp:106] Creating Layer pool1
I0522 05:46:49.235167 19460 net.cpp:454] pool1 <- conv1
I0522 05:46:49.235180 19460 net.cpp:411] pool1 -> pool1
I0522 05:46:49.235255 19460 net.cpp:150] Setting up pool1
I0522 05:46:49.235268 19460 net.cpp:157] Top shape: 20 12 60 48 (691200)
I0522 05:46:49.235277 19460 net.cpp:165] Memory required for data: 14332240
I0522 05:46:49.235286 19460 layer_factory.hpp:77] Creating layer conv2
I0522 05:46:49.235304 19460 net.cpp:106] Creating Layer conv2
I0522 05:46:49.235314 19460 net.cpp:454] conv2 <- pool1
I0522 05:46:49.235328 19460 net.cpp:411] conv2 -> conv2
I0522 05:46:49.237248 19460 net.cpp:150] Setting up conv2
I0522 05:46:49.237270 19460 net.cpp:157] Top shape: 20 20 54 46 (993600)
I0522 05:46:49.237283 19460 net.cpp:165] Memory required for data: 18306640
I0522 05:46:49.237300 19460 layer_factory.hpp:77] Creating layer relu2
I0522 05:46:49.237314 19460 net.cpp:106] Creating Layer relu2
I0522 05:46:49.237324 19460 net.cpp:454] relu2 <- conv2
I0522 05:46:49.237336 19460 net.cpp:397] relu2 -> conv2 (in-place)
I0522 05:46:49.237669 19460 net.cpp:150] Setting up relu2
I0522 05:46:49.237684 19460 net.cpp:157] Top shape: 20 20 54 46 (993600)
I0522 05:46:49.237694 19460 net.cpp:165] Memory required for data: 22281040
I0522 05:46:49.237704 19460 layer_factory.hpp:77] Creating layer pool2
I0522 05:46:49.237716 19460 net.cpp:106] Creating Layer pool2
I0522 05:46:49.237726 19460 net.cpp:454] pool2 <- conv2
I0522 05:46:49.237738 19460 net.cpp:411] pool2 -> pool2
I0522 05:46:49.237810 19460 net.cpp:150] Setting up pool2
I0522 05:46:49.237823 19460 net.cpp:157] Top shape: 20 20 27 46 (496800)
I0522 05:46:49.237833 19460 net.cpp:165] Memory required for data: 24268240
I0522 05:46:49.237843 19460 layer_factory.hpp:77] Creating layer conv3
I0522 05:46:49.237862 19460 net.cpp:106] Creating Layer conv3
I0522 05:46:49.237874 19460 net.cpp:454] conv3 <- pool2
I0522 05:46:49.237887 19460 net.cpp:411] conv3 -> conv3
I0522 05:46:49.239862 19460 net.cpp:150] Setting up conv3
I0522 05:46:49.239886 19460 net.cpp:157] Top shape: 20 28 22 44 (542080)
I0522 05:46:49.239897 19460 net.cpp:165] Memory required for data: 26436560
I0522 05:46:49.239915 19460 layer_factory.hpp:77] Creating layer relu3
I0522 05:46:49.239940 19460 net.cpp:106] Creating Layer relu3
I0522 05:46:49.239950 19460 net.cpp:454] relu3 <- conv3
I0522 05:46:49.239964 19460 net.cpp:397] relu3 -> conv3 (in-place)
I0522 05:46:49.240437 19460 net.cpp:150] Setting up relu3
I0522 05:46:49.240453 19460 net.cpp:157] Top shape: 20 28 22 44 (542080)
I0522 05:46:49.240464 19460 net.cpp:165] Memory required for data: 28604880
I0522 05:46:49.240474 19460 layer_factory.hpp:77] Creating layer pool3
I0522 05:46:49.240488 19460 net.cpp:106] Creating Layer pool3
I0522 05:46:49.240496 19460 net.cpp:454] pool3 <- conv3
I0522 05:46:49.240509 19460 net.cpp:411] pool3 -> pool3
I0522 05:46:49.240581 19460 net.cpp:150] Setting up pool3
I0522 05:46:49.240594 19460 net.cpp:157] Top shape: 20 28 11 44 (271040)
I0522 05:46:49.240604 19460 net.cpp:165] Memory required for data: 29689040
I0522 05:46:49.240614 19460 layer_factory.hpp:77] Creating layer conv4
I0522 05:46:49.240630 19460 net.cpp:106] Creating Layer conv4
I0522 05:46:49.240640 19460 net.cpp:454] conv4 <- pool3
I0522 05:46:49.240655 19460 net.cpp:411] conv4 -> conv4
I0522 05:46:49.242720 19460 net.cpp:150] Setting up conv4
I0522 05:46:49.242743 19460 net.cpp:157] Top shape: 20 36 6 42 (181440)
I0522 05:46:49.242751 19460 net.cpp:165] Memory required for data: 30414800
I0522 05:46:49.242766 19460 layer_factory.hpp:77] Creating layer relu4
I0522 05:46:49.242780 19460 net.cpp:106] Creating Layer relu4
I0522 05:46:49.242790 19460 net.cpp:454] relu4 <- conv4
I0522 05:46:49.242804 19460 net.cpp:397] relu4 -> conv4 (in-place)
I0522 05:46:49.243271 19460 net.cpp:150] Setting up relu4
I0522 05:46:49.243288 19460 net.cpp:157] Top shape: 20 36 6 42 (181440)
I0522 05:46:49.243297 19460 net.cpp:165] Memory required for data: 31140560
I0522 05:46:49.243307 19460 layer_factory.hpp:77] Creating layer pool4
I0522 05:46:49.243320 19460 net.cpp:106] Creating Layer pool4
I0522 05:46:49.243330 19460 net.cpp:454] pool4 <- conv4
I0522 05:46:49.243345 19460 net.cpp:411] pool4 -> pool4
I0522 05:46:49.243417 19460 net.cpp:150] Setting up pool4
I0522 05:46:49.243430 19460 net.cpp:157] Top shape: 20 36 3 42 (90720)
I0522 05:46:49.243440 19460 net.cpp:165] Memory required for data: 31503440
I0522 05:46:49.243450 19460 layer_factory.hpp:77] Creating layer ip1
I0522 05:46:49.243463 19460 net.cpp:106] Creating Layer ip1
I0522 05:46:49.243474 19460 net.cpp:454] ip1 <- pool4
I0522 05:46:49.243487 19460 net.cpp:411] ip1 -> ip1
I0522 05:46:49.258945 19460 net.cpp:150] Setting up ip1
I0522 05:46:49.258970 19460 net.cpp:157] Top shape: 20 196 (3920)
I0522 05:46:49.258980 19460 net.cpp:165] Memory required for data: 31519120
I0522 05:46:49.259002 19460 layer_factory.hpp:77] Creating layer relu5
I0522 05:46:49.259017 19460 net.cpp:106] Creating Layer relu5
I0522 05:46:49.259027 19460 net.cpp:454] relu5 <- ip1
I0522 05:46:49.259042 19460 net.cpp:397] relu5 -> ip1 (in-place)
I0522 05:46:49.259387 19460 net.cpp:150] Setting up relu5
I0522 05:46:49.259402 19460 net.cpp:157] Top shape: 20 196 (3920)
I0522 05:46:49.259412 19460 net.cpp:165] Memory required for data: 31534800
I0522 05:46:49.259421 19460 layer_factory.hpp:77] Creating layer drop1
I0522 05:46:49.259440 19460 net.cpp:106] Creating Layer drop1
I0522 05:46:49.259450 19460 net.cpp:454] drop1 <- ip1
I0522 05:46:49.259464 19460 net.cpp:397] drop1 -> ip1 (in-place)
I0522 05:46:49.259510 19460 net.cpp:150] Setting up drop1
I0522 05:46:49.259521 19460 net.cpp:157] Top shape: 20 196 (3920)
I0522 05:46:49.259533 19460 net.cpp:165] Memory required for data: 31550480
I0522 05:46:49.259542 19460 layer_factory.hpp:77] Creating layer ip2
I0522 05:46:49.259557 19460 net.cpp:106] Creating Layer ip2
I0522 05:46:49.259567 19460 net.cpp:454] ip2 <- ip1
I0522 05:46:49.259580 19460 net.cpp:411] ip2 -> ip2
I0522 05:46:49.260059 19460 net.cpp:150] Setting up ip2
I0522 05:46:49.260072 19460 net.cpp:157] Top shape: 20 98 (1960)
I0522 05:46:49.260083 19460 net.cpp:165] Memory required for data: 31558320
I0522 05:46:49.260098 19460 layer_factory.hpp:77] Creating layer relu6
I0522 05:46:49.260124 19460 net.cpp:106] Creating Layer relu6
I0522 05:46:49.260134 19460 net.cpp:454] relu6 <- ip2
I0522 05:46:49.260149 19460 net.cpp:397] relu6 -> ip2 (in-place)
I0522 05:46:49.260678 19460 net.cpp:150] Setting up relu6
I0522 05:46:49.260694 19460 net.cpp:157] Top shape: 20 98 (1960)
I0522 05:46:49.260704 19460 net.cpp:165] Memory required for data: 31566160
I0522 05:46:49.260715 19460 layer_factory.hpp:77] Creating layer drop2
I0522 05:46:49.260728 19460 net.cpp:106] Creating Layer drop2
I0522 05:46:49.260738 19460 net.cpp:454] drop2 <- ip2
I0522 05:46:49.260751 19460 net.cpp:397] drop2 -> ip2 (in-place)
I0522 05:46:49.260795 19460 net.cpp:150] Setting up drop2
I0522 05:46:49.260808 19460 net.cpp:157] Top shape: 20 98 (1960)
I0522 05:46:49.260818 19460 net.cpp:165] Memory required for data: 31574000
I0522 05:46:49.260828 19460 layer_factory.hpp:77] Creating layer ip3
I0522 05:46:49.260843 19460 net.cpp:106] Creating Layer ip3
I0522 05:46:49.260853 19460 net.cpp:454] ip3 <- ip2
I0522 05:46:49.260866 19460 net.cpp:411] ip3 -> ip3
I0522 05:46:49.261097 19460 net.cpp:150] Setting up ip3
I0522 05:46:49.261111 19460 net.cpp:157] Top shape: 20 11 (220)
I0522 05:46:49.261121 19460 net.cpp:165] Memory required for data: 31574880
I0522 05:46:49.261137 19460 layer_factory.hpp:77] Creating layer drop3
I0522 05:46:49.261149 19460 net.cpp:106] Creating Layer drop3
I0522 05:46:49.261158 19460 net.cpp:454] drop3 <- ip3
I0522 05:46:49.261171 19460 net.cpp:397] drop3 -> ip3 (in-place)
I0522 05:46:49.261212 19460 net.cpp:150] Setting up drop3
I0522 05:46:49.261225 19460 net.cpp:157] Top shape: 20 11 (220)
I0522 05:46:49.261235 19460 net.cpp:165] Memory required for data: 31575760
I0522 05:46:49.261245 19460 layer_factory.hpp:77] Creating layer ip3_drop3_0_split
I0522 05:46:49.261257 19460 net.cpp:106] Creating Layer ip3_drop3_0_split
I0522 05:46:49.261267 19460 net.cpp:454] ip3_drop3_0_split <- ip3
I0522 05:46:49.261281 19460 net.cpp:411] ip3_drop3_0_split -> ip3_drop3_0_split_0
I0522 05:46:49.261296 19460 net.cpp:411] ip3_drop3_0_split -> ip3_drop3_0_split_1
I0522 05:46:49.261369 19460 net.cpp:150] Setting up ip3_drop3_0_split
I0522 05:46:49.261381 19460 net.cpp:157] Top shape: 20 11 (220)
I0522 05:46:49.261394 19460 net.cpp:157] Top shape: 20 11 (220)
I0522 05:46:49.261404 19460 net.cpp:165] Memory required for data: 31577520
I0522 05:46:49.261415 19460 layer_factory.hpp:77] Creating layer accuracy
I0522 05:46:49.261437 19460 net.cpp:106] Creating Layer accuracy
I0522 05:46:49.261448 19460 net.cpp:454] accuracy <- ip3_drop3_0_split_0
I0522 05:46:49.261459 19460 net.cpp:454] accuracy <- label_data_hdf5_1_split_0
I0522 05:46:49.261473 19460 net.cpp:411] accuracy -> accuracy
…
