…
I0521 20:02:38.242164 12468 net.cpp:322] The NetState phase (0) differed from the phase (1) specified by a rule in layer data_hdf5
I0521 20:02:38.242223 12468 net.cpp:322] The NetState phase (0) differed from the phase (1) specified by a rule in layer accuracy
I0521 20:02:38.242569 12468 net.cpp:49] Initializing net from parameters: 
name: "caffe_test_127x50_x_unshifted"
state {
  phase: TRAIN
}
layer {
  name: "data_hdf5"
  type: "HDF5Data"
  top: "data"
  top: "label"
  include {
    phase: TRAIN
  }
  hdf5_data_param {
    source: "/lustre/atlas/proj-shared/hep105/caffe_titan/minosmatch_nukecczdefs_127x50_x_unshifted_me1Bmc.trainlist"
    batch_size: 20
  }
}
layer {
  name: "conv1"
  type: "Convolution"
  bottom: "data"
  top: "conv1"
  convolution_param {
    num_output: 12
    pad: 0
    stride: 1
    weight_filler {
      type: "xavier"
    }
    bias_filler {
      type: "constant"
    }
    kernel_h: 8
    kernel_w: 3
  }
}
layer {
  name: "relu1"
  type: "ReLU"
  bottom: "conv1"
  top: "conv1"
}
layer {
  name: "pool1"
  type: "Pooling"
  bottom: "conv1"
  top: "pool1"
  pooling_param {
    pool: MAX
    kernel_h: 2
    kernel_w: 1
    stride_h: 2
    stride_w: 1
  }
}
layer {
  name: "conv2"
  type: "Convolution"
  bottom: "pool1"
  top: "conv2"
  convolution_param {
    num_output: 20
    pad: 0
    stride: 1
    weight_filler {
      type: "xavier"
    }
    bias_filler {
      type: "constant"
    }
    kernel_h: 7
    kernel_w: 3
  }
}
layer {
  name: "relu2"
  type: "ReLU"
  bottom: "conv2"
  top: "conv2"
}
layer {
  name: "pool2"
  type: "Pooling"
  bottom: "conv2"
  top: "pool2"
  pooling_param {
    pool: MAX
    kernel_h: 2
    kernel_w: 1
    stride_h: 2
    stride_w: 1
  }
}
layer {
  name: "conv3"
  type: "Convolution"
  bottom: "pool2"
  top: "conv3"
  convolution_param {
    num_output: 28
    pad: 0
    stride: 1
    weight_filler {
      type: "xavier"
    }
    bias_filler {
      type: "constant"
    }
    kernel_h: 6
    kernel_w: 3
  }
}
layer {
  name: "relu3"
  type: "ReLU"
  bottom: "conv3"
  top: "conv3"
}
layer {
  name: "pool3"
  type: "Pooling"
  bottom: "conv3"
  top: "pool3"
  pooling_param {
    pool: MAX
    kernel_h: 2
    kernel_w: 1
    stride_h: 2
    stride_w: 1
  }
}
layer {
  name: "conv4"
  type: "Convolution"
  bottom: "pool3"
  top: "conv4"
  convolution_param {
    num_output: 36
    pad: 0
    stride: 1
    weight_filler {
      type: "xavier"
    }
    bias_filler {
      type: "constant"
    }
    kernel_h: 6
    kernel_w: 3
  }
}
layer {
  name: "relu4"
  type: "ReLU"
  bottom: "conv4"
  top: "conv4"
}
layer {
  name: "pool4"
  type: "Pooling"
  bottom: "conv4"
  top: "pool4"
  pooling_param {
    pool: MAX
    kernel_h: 2
    kernel_w: 1
    stride_h: 2
    stride_w: 1
  }
}
layer {
  name: "ip1"
  type: "InnerProduct"
  bottom: "pool4"
  top: "ip1"
  inner_product_param {
    num_output: 196
    weight_filler {
      type: "xavier"
    }
    bias_filler {
      type: "constant"
    }
  }
}
layer {
  name: "relu5"
  type: "ReLU"
  bottom: "ip1"
  top: "ip1"
}
layer {
  name: "drop1"
  type: "Dropout"
  bottom: "ip1"
  top: "ip1"
  dropout_param {
    dropout_ratio: 0.5
  }
}
layer {
  name: "ip2"
  type: "InnerProduct"
  bottom: "ip1"
  top: "ip2"
  inner_product_param {
    num_output: 98
    weight_filler {
      type: "xavier"
    }
    bias_filler {
      type: "constant"
    }
  }
}
layer {
  name: "relu6"
  type: "ReLU"
  bottom: "ip2"
  top: "ip2"
}
layer {
  name: "drop2"
  type: "Dropout"
  bottom: "ip2"
  top: "ip2"
  dropout_param {
    dropout_ratio: 0.5
  }
}
layer {
  name: "ip3"
  type: "InnerProduct"
  bottom: "ip2"
  top: "ip3"
  inner_product_param {
    num_output: 11
    weight_filler {
      type: "xavier"
    }
    bias_filler {
      type: "constant"
    }
  }
}
layer {
  name: "drop3"
  type: "Dropout"
  bottom: "ip3"
  top: "ip3"
  dropout_param {
    dropout_ratio: 0.5
  }
}
layer {
  name: "loss"
  type: "SoftmaxWithLoss"
  bottom: "ip3"
  bottom: "label"
  top: "loss"
}
I0521 20:02:38.242749 12468 layer_factory.hpp:77] Creating layer data_hdf5
I0521 20:02:38.242774 12468 net.cpp:106] Creating Layer data_hdf5
I0521 20:02:38.242789 12468 net.cpp:411] data_hdf5 -> data
I0521 20:02:38.242822 12468 net.cpp:411] data_hdf5 -> label
I0521 20:02:38.242854 12468 hdf5_data_layer.cpp:79] Loading list of HDF5 filenames from: /lustre/atlas/proj-shared/hep105/caffe_titan/minosmatch_nukecczdefs_127x50_x_unshifted_me1Bmc.trainlist
I0521 20:02:38.244093 12468 hdf5_data_layer.cpp:93] Number of HDF5 files: 15
I0521 20:02:38.246322 12468 hdf5.cpp:32] Datatype class: H5T_FLOAT
I0521 20:02:59.793407 12468 hdf5.cpp:35] Datatype class: H5T_INTEGER
I0521 20:02:59.798547 12468 net.cpp:150] Setting up data_hdf5
I0521 20:02:59.798588 12468 net.cpp:157] Top shape: 20 1 127 50 (127000)
I0521 20:02:59.798604 12468 net.cpp:157] Top shape: 20 (20)
I0521 20:02:59.798614 12468 net.cpp:165] Memory required for data: 508080
I0521 20:02:59.798627 12468 layer_factory.hpp:77] Creating layer conv1
I0521 20:02:59.798661 12468 net.cpp:106] Creating Layer conv1
I0521 20:02:59.798673 12468 net.cpp:454] conv1 <- data
I0521 20:02:59.798696 12468 net.cpp:411] conv1 -> conv1
I0521 20:03:00.163986 12468 net.cpp:150] Setting up conv1
I0521 20:03:00.164028 12468 net.cpp:157] Top shape: 20 12 120 48 (1382400)
I0521 20:03:00.164041 12468 net.cpp:165] Memory required for data: 6037680
I0521 20:03:00.164072 12468 layer_factory.hpp:77] Creating layer relu1
I0521 20:03:00.164093 12468 net.cpp:106] Creating Layer relu1
I0521 20:03:00.164104 12468 net.cpp:454] relu1 <- conv1
I0521 20:03:00.164118 12468 net.cpp:397] relu1 -> conv1 (in-place)
I0521 20:03:00.164630 12468 net.cpp:150] Setting up relu1
I0521 20:03:00.164646 12468 net.cpp:157] Top shape: 20 12 120 48 (1382400)
I0521 20:03:00.164657 12468 net.cpp:165] Memory required for data: 11567280
I0521 20:03:00.164669 12468 layer_factory.hpp:77] Creating layer pool1
I0521 20:03:00.164685 12468 net.cpp:106] Creating Layer pool1
I0521 20:03:00.164695 12468 net.cpp:454] pool1 <- conv1
I0521 20:03:00.164707 12468 net.cpp:411] pool1 -> pool1
I0521 20:03:00.164788 12468 net.cpp:150] Setting up pool1
I0521 20:03:00.164801 12468 net.cpp:157] Top shape: 20 12 60 48 (691200)
I0521 20:03:00.164811 12468 net.cpp:165] Memory required for data: 14332080
I0521 20:03:00.164821 12468 layer_factory.hpp:77] Creating layer conv2
I0521 20:03:00.164842 12468 net.cpp:106] Creating Layer conv2
I0521 20:03:00.164852 12468 net.cpp:454] conv2 <- pool1
I0521 20:03:00.164866 12468 net.cpp:411] conv2 -> conv2
I0521 20:03:00.167554 12468 net.cpp:150] Setting up conv2
I0521 20:03:00.167582 12468 net.cpp:157] Top shape: 20 20 54 46 (993600)
I0521 20:03:00.167593 12468 net.cpp:165] Memory required for data: 18306480
I0521 20:03:00.167613 12468 layer_factory.hpp:77] Creating layer relu2
I0521 20:03:00.167626 12468 net.cpp:106] Creating Layer relu2
I0521 20:03:00.167636 12468 net.cpp:454] relu2 <- conv2
I0521 20:03:00.167649 12468 net.cpp:397] relu2 -> conv2 (in-place)
I0521 20:03:00.167981 12468 net.cpp:150] Setting up relu2
I0521 20:03:00.167996 12468 net.cpp:157] Top shape: 20 20 54 46 (993600)
I0521 20:03:00.168006 12468 net.cpp:165] Memory required for data: 22280880
I0521 20:03:00.168016 12468 layer_factory.hpp:77] Creating layer pool2
I0521 20:03:00.168030 12468 net.cpp:106] Creating Layer pool2
I0521 20:03:00.168040 12468 net.cpp:454] pool2 <- conv2
I0521 20:03:00.168052 12468 net.cpp:411] pool2 -> pool2
I0521 20:03:00.168133 12468 net.cpp:150] Setting up pool2
I0521 20:03:00.168145 12468 net.cpp:157] Top shape: 20 20 27 46 (496800)
I0521 20:03:00.168155 12468 net.cpp:165] Memory required for data: 24268080
I0521 20:03:00.168166 12468 layer_factory.hpp:77] Creating layer conv3
I0521 20:03:00.168185 12468 net.cpp:106] Creating Layer conv3
I0521 20:03:00.168196 12468 net.cpp:454] conv3 <- pool2
I0521 20:03:00.168210 12468 net.cpp:411] conv3 -> conv3
I0521 20:03:00.170145 12468 net.cpp:150] Setting up conv3
I0521 20:03:00.170168 12468 net.cpp:157] Top shape: 20 28 22 44 (542080)
I0521 20:03:00.170181 12468 net.cpp:165] Memory required for data: 26436400
I0521 20:03:00.170198 12468 layer_factory.hpp:77] Creating layer relu3
I0521 20:03:00.170215 12468 net.cpp:106] Creating Layer relu3
I0521 20:03:00.170225 12468 net.cpp:454] relu3 <- conv3
I0521 20:03:00.170238 12468 net.cpp:397] relu3 -> conv3 (in-place)
I0521 20:03:00.170704 12468 net.cpp:150] Setting up relu3
I0521 20:03:00.170722 12468 net.cpp:157] Top shape: 20 28 22 44 (542080)
I0521 20:03:00.170732 12468 net.cpp:165] Memory required for data: 28604720
I0521 20:03:00.170742 12468 layer_factory.hpp:77] Creating layer pool3
I0521 20:03:00.170755 12468 net.cpp:106] Creating Layer pool3
I0521 20:03:00.170765 12468 net.cpp:454] pool3 <- conv3
I0521 20:03:00.170778 12468 net.cpp:411] pool3 -> pool3
I0521 20:03:00.170845 12468 net.cpp:150] Setting up pool3
I0521 20:03:00.170858 12468 net.cpp:157] Top shape: 20 28 11 44 (271040)
I0521 20:03:00.170868 12468 net.cpp:165] Memory required for data: 29688880
I0521 20:03:00.170877 12468 layer_factory.hpp:77] Creating layer conv4
I0521 20:03:00.170895 12468 net.cpp:106] Creating Layer conv4
I0521 20:03:00.170905 12468 net.cpp:454] conv4 <- pool3
I0521 20:03:00.170919 12468 net.cpp:411] conv4 -> conv4
I0521 20:03:00.173617 12468 net.cpp:150] Setting up conv4
I0521 20:03:00.173645 12468 net.cpp:157] Top shape: 20 36 6 42 (181440)
I0521 20:03:00.173656 12468 net.cpp:165] Memory required for data: 30414640
I0521 20:03:00.173671 12468 layer_factory.hpp:77] Creating layer relu4
I0521 20:03:00.173686 12468 net.cpp:106] Creating Layer relu4
I0521 20:03:00.173696 12468 net.cpp:454] relu4 <- conv4
I0521 20:03:00.173708 12468 net.cpp:397] relu4 -> conv4 (in-place)
I0521 20:03:00.174170 12468 net.cpp:150] Setting up relu4
I0521 20:03:00.174186 12468 net.cpp:157] Top shape: 20 36 6 42 (181440)
I0521 20:03:00.174197 12468 net.cpp:165] Memory required for data: 31140400
I0521 20:03:00.174207 12468 layer_factory.hpp:77] Creating layer pool4
I0521 20:03:00.174221 12468 net.cpp:106] Creating Layer pool4
I0521 20:03:00.174231 12468 net.cpp:454] pool4 <- conv4
I0521 20:03:00.174243 12468 net.cpp:411] pool4 -> pool4
I0521 20:03:00.174311 12468 net.cpp:150] Setting up pool4
I0521 20:03:00.174325 12468 net.cpp:157] Top shape: 20 36 3 42 (90720)
I0521 20:03:00.174336 12468 net.cpp:165] Memory required for data: 31503280
I0521 20:03:00.174346 12468 layer_factory.hpp:77] Creating layer ip1
I0521 20:03:00.174367 12468 net.cpp:106] Creating Layer ip1
I0521 20:03:00.174377 12468 net.cpp:454] ip1 <- pool4
I0521 20:03:00.174391 12468 net.cpp:411] ip1 -> ip1
I0521 20:03:00.189776 12468 net.cpp:150] Setting up ip1
I0521 20:03:00.189805 12468 net.cpp:157] Top shape: 20 196 (3920)
I0521 20:03:00.189820 12468 net.cpp:165] Memory required for data: 31518960
I0521 20:03:00.189841 12468 layer_factory.hpp:77] Creating layer relu5
I0521 20:03:00.189857 12468 net.cpp:106] Creating Layer relu5
I0521 20:03:00.189867 12468 net.cpp:454] relu5 <- ip1
I0521 20:03:00.189882 12468 net.cpp:397] relu5 -> ip1 (in-place)
I0521 20:03:00.190222 12468 net.cpp:150] Setting up relu5
I0521 20:03:00.190235 12468 net.cpp:157] Top shape: 20 196 (3920)
I0521 20:03:00.190245 12468 net.cpp:165] Memory required for data: 31534640
I0521 20:03:00.190256 12468 layer_factory.hpp:77] Creating layer drop1
I0521 20:03:00.190277 12468 net.cpp:106] Creating Layer drop1
I0521 20:03:00.190289 12468 net.cpp:454] drop1 <- ip1
I0521 20:03:00.190300 12468 net.cpp:397] drop1 -> ip1 (in-place)
I0521 20:03:00.190359 12468 net.cpp:150] Setting up drop1
I0521 20:03:00.190372 12468 net.cpp:157] Top shape: 20 196 (3920)
I0521 20:03:00.190382 12468 net.cpp:165] Memory required for data: 31550320
I0521 20:03:00.190392 12468 layer_factory.hpp:77] Creating layer ip2
I0521 20:03:00.190412 12468 net.cpp:106] Creating Layer ip2
I0521 20:03:00.190423 12468 net.cpp:454] ip2 <- ip1
I0521 20:03:00.190435 12468 net.cpp:411] ip2 -> ip2
I0521 20:03:00.190897 12468 net.cpp:150] Setting up ip2
I0521 20:03:00.190910 12468 net.cpp:157] Top shape: 20 98 (1960)
I0521 20:03:00.190920 12468 net.cpp:165] Memory required for data: 31558160
I0521 20:03:00.190935 12468 layer_factory.hpp:77] Creating layer relu6
I0521 20:03:00.190948 12468 net.cpp:106] Creating Layer relu6
I0521 20:03:00.190958 12468 net.cpp:454] relu6 <- ip2
I0521 20:03:00.190970 12468 net.cpp:397] relu6 -> ip2 (in-place)
I0521 20:03:00.191499 12468 net.cpp:150] Setting up relu6
I0521 20:03:00.191515 12468 net.cpp:157] Top shape: 20 98 (1960)
I0521 20:03:00.191526 12468 net.cpp:165] Memory required for data: 31566000
I0521 20:03:00.191536 12468 layer_factory.hpp:77] Creating layer drop2
I0521 20:03:00.191550 12468 net.cpp:106] Creating Layer drop2
I0521 20:03:00.191560 12468 net.cpp:454] drop2 <- ip2
I0521 20:03:00.191571 12468 net.cpp:397] drop2 -> ip2 (in-place)
I0521 20:03:00.191613 12468 net.cpp:150] Setting up drop2
I0521 20:03:00.191627 12468 net.cpp:157] Top shape: 20 98 (1960)
I0521 20:03:00.191638 12468 net.cpp:165] Memory required for data: 31573840
I0521 20:03:00.191648 12468 layer_factory.hpp:77] Creating layer ip3
I0521 20:03:00.191663 12468 net.cpp:106] Creating Layer ip3
I0521 20:03:00.191673 12468 net.cpp:454] ip3 <- ip2
I0521 20:03:00.191685 12468 net.cpp:411] ip3 -> ip3
I0521 20:03:00.191893 12468 net.cpp:150] Setting up ip3
I0521 20:03:00.191906 12468 net.cpp:157] Top shape: 20 11 (220)
I0521 20:03:00.191916 12468 net.cpp:165] Memory required for data: 31574720
I0521 20:03:00.191932 12468 layer_factory.hpp:77] Creating layer drop3
I0521 20:03:00.191944 12468 net.cpp:106] Creating Layer drop3
I0521 20:03:00.191954 12468 net.cpp:454] drop3 <- ip3
I0521 20:03:00.191967 12468 net.cpp:397] drop3 -> ip3 (in-place)
I0521 20:03:00.192006 12468 net.cpp:150] Setting up drop3
I0521 20:03:00.192018 12468 net.cpp:157] Top shape: 20 11 (220)
I0521 20:03:00.192028 12468 net.cpp:165] Memory required for data: 31575600
I0521 20:03:00.192039 12468 layer_factory.hpp:77] Creating layer loss
I0521 20:03:00.192057 12468 net.cpp:106] Creating Layer loss
I0521 20:03:00.192067 12468 net.cpp:454] loss <- ip3
I0521 20:03:00.192078 12468 net.cpp:454] loss <- label
I0521 20:03:00.192091 12468 net.cpp:411] loss -> loss
I0521 20:03:00.192107 12468 layer_factory.hpp:77] Creating layer loss
…
I0521 20:03:00.194766 12468 solver.cpp:181] Creating test net (#0) specified by net file: /lustre/atlas/proj-shared/hep105/caffe_titan/caffe_workflow/logs_bslr/bs_20_lr_0.0005_2016-05-20T15.48.53.207147.prototxt
I0521 20:03:00.194836 12468 net.cpp:322] The NetState phase (1) differed from the phase (0) specified by a rule in layer data_hdf5
I0521 20:03:00.195199 12468 net.cpp:49] Initializing net from parameters: 
name: "caffe_test_127x50_x_unshifted"
state {
  phase: TEST
}
layer {
  name: "data_hdf5"
  type: "HDF5Data"
  top: "data"
  top: "label"
  include {
    phase: TEST
  }
  hdf5_data_param {
    source: "/lustre/atlas/proj-shared/hep105/caffe_titan/minosmatch_nukecczdefs_127x50_x_unshifted_me1Bmc.testlist"
    batch_size: 20
  }
}
layer {
  name: "conv1"
  type: "Convolution"
  bottom: "data"
  top: "conv1"
  convolution_param {
    num_output: 12
    pad: 0
    stride: 1
    weight_filler {
      type: "xavier"
    }
    bias_filler {
      type: "constant"
    }
    kernel_h: 8
    kernel_w: 3
  }
}
layer {
  name: "relu1"
  type: "ReLU"
  bottom: "conv1"
  top: "conv1"
}
layer {
  name: "pool1"
  type: "Pooling"
  bottom: "conv1"
  top: "pool1"
  pooling_param {
    pool: MAX
    kernel_h: 2
    kernel_w: 1
    stride_h: 2
    stride_w: 1
  }
}
layer {
  name: "conv2"
  type: "Convolution"
  bottom: "pool1"
  top: "conv2"
  convolution_param {
    num_output: 20
    pad: 0
    stride: 1
    weight_filler {
      type: "xavier"
    }
    bias_filler {
      type: "constant"
    }
    kernel_h: 7
    kernel_w: 3
  }
}
layer {
  name: "relu2"
  type: "ReLU"
  bottom: "conv2"
  top: "conv2"
}
layer {
  name: "pool2"
  type: "Pooling"
  bottom: "conv2"
  top: "pool2"
  pooling_param {
    pool: MAX
    kernel_h: 2
    kernel_w: 1
    stride_h: 2
    stride_w: 1
  }
}
layer {
  name: "conv3"
  type: "Convolution"
  bottom: "pool2"
  top: "conv3"
  convolution_param {
    num_output: 28
    pad: 0
    stride: 1
    weight_filler {
      type: "xavier"
    }
    bias_filler {
      type: "constant"
    }
    kernel_h: 6
    kernel_w: 3
  }
}
layer {
  name: "relu3"
  type: "ReLU"
  bottom: "conv3"
  top: "conv3"
}
layer {
  name: "pool3"
  type: "Pooling"
  bottom: "conv3"
  top: "pool3"
  pooling_param {
    pool: MAX
    kernel_h: 2
    kernel_w: 1
    stride_h: 2
    stride_w: 1
  }
}
layer {
  name: "conv4"
  type: "Convolution"
  bottom: "pool3"
  top: "conv4"
  convolution_param {
    num_output: 36
    pad: 0
    stride: 1
    weight_filler {
      type: "xavier"
    }
    bias_filler {
      type: "constant"
    }
    kernel_h: 6
    kernel_w: 3
  }
}
layer {
  name: "relu4"
  type: "ReLU"
  bottom: "conv4"
  top: "conv4"
}
layer {
  name: "pool4"
  type: "Pooling"
  bottom: "conv4"
  top: "pool4"
  pooling_param {
    pool: MAX
    kernel_h: 2
    kernel_w: 1
    stride_h: 2
    stride_w: 1
  }
}
layer {
  name: "ip1"
  type: "InnerProduct"
  bottom: "pool4"
  top: "ip1"
  inner_product_param {
    num_output: 196
    weight_filler {
      type: "xavier"
    }
    bias_filler {
      type: "constant"
    }
  }
}
layer {
  name: "relu5"
  type: "ReLU"
  bottom: "ip1"
  top: "ip1"
}
layer {
  name: "drop1"
  type: "Dropout"
  bottom: "ip1"
  top: "ip1"
  dropout_param {
    dropout_ratio: 0.5
  }
}
layer {
  name: "ip2"
  type: "InnerProduct"
  bottom: "ip1"
  top: "ip2"
  inner_product_param {
    num_output: 98
    weight_filler {
      type: "xavier"
    }
    bias_filler {
      type: "constant"
    }
  }
}
layer {
  name: "relu6"
  type: "ReLU"
  bottom: "ip2"
  top: "ip2"
}
layer {
  name: "drop2"
  type: "Dropout"
  bottom: "ip2"
  top: "ip2"
  dropout_param {
    dropout_ratio: 0.5
  }
}
layer {
  name: "ip3"
  type: "InnerProduct"
  bottom: "ip2"
  top: "ip3"
  inner_product_param {
    num_output: 11
    weight_filler {
      type: "xavier"
    }
    bias_filler {
      type: "constant"
    }
  }
}
layer {
  name: "drop3"
  type: "Dropout"
  bottom: "ip3"
  top: "ip3"
  dropout_param {
    dropout_ratio: 0.5
  }
}
layer {
  name: "accuracy"
  type: "Accuracy"
  bottom: "ip3"
  bottom: "label"
  top: "accuracy"
  include {
    phase: TEST
  }
}
layer {
  name: "loss"
  type: "SoftmaxWithLoss"
  bottom: "ip3"
  bottom: "label"
  top: "loss"
}
I0521 20:03:00.195389 12468 layer_factory.hpp:77] Creating layer data_hdf5
I0521 20:03:00.195405 12468 net.cpp:106] Creating Layer data_hdf5
I0521 20:03:00.195417 12468 net.cpp:411] data_hdf5 -> data
I0521 20:03:00.195435 12468 net.cpp:411] data_hdf5 -> label
I0521 20:03:00.195449 12468 hdf5_data_layer.cpp:79] Loading list of HDF5 filenames from: /lustre/atlas/proj-shared/hep105/caffe_titan/minosmatch_nukecczdefs_127x50_x_unshifted_me1Bmc.testlist
I0521 20:03:00.196748 12468 hdf5_data_layer.cpp:93] Number of HDF5 files: 3
I0521 20:03:21.469667 12468 net.cpp:150] Setting up data_hdf5
I0521 20:03:21.469831 12468 net.cpp:157] Top shape: 20 1 127 50 (127000)
I0521 20:03:21.469846 12468 net.cpp:157] Top shape: 20 (20)
I0521 20:03:21.469856 12468 net.cpp:165] Memory required for data: 508080
I0521 20:03:21.469871 12468 layer_factory.hpp:77] Creating layer label_data_hdf5_1_split
I0521 20:03:21.469898 12468 net.cpp:106] Creating Layer label_data_hdf5_1_split
I0521 20:03:21.469909 12468 net.cpp:454] label_data_hdf5_1_split <- label
I0521 20:03:21.469924 12468 net.cpp:411] label_data_hdf5_1_split -> label_data_hdf5_1_split_0
I0521 20:03:21.469945 12468 net.cpp:411] label_data_hdf5_1_split -> label_data_hdf5_1_split_1
I0521 20:03:21.470018 12468 net.cpp:150] Setting up label_data_hdf5_1_split
I0521 20:03:21.470032 12468 net.cpp:157] Top shape: 20 (20)
I0521 20:03:21.470046 12468 net.cpp:157] Top shape: 20 (20)
I0521 20:03:21.470054 12468 net.cpp:165] Memory required for data: 508240
I0521 20:03:21.470064 12468 layer_factory.hpp:77] Creating layer conv1
I0521 20:03:21.470087 12468 net.cpp:106] Creating Layer conv1
I0521 20:03:21.470096 12468 net.cpp:454] conv1 <- data
I0521 20:03:21.470110 12468 net.cpp:411] conv1 -> conv1
I0521 20:03:21.472064 12468 net.cpp:150] Setting up conv1
I0521 20:03:21.472089 12468 net.cpp:157] Top shape: 20 12 120 48 (1382400)
I0521 20:03:21.472100 12468 net.cpp:165] Memory required for data: 6037840
I0521 20:03:21.472121 12468 layer_factory.hpp:77] Creating layer relu1
I0521 20:03:21.472136 12468 net.cpp:106] Creating Layer relu1
I0521 20:03:21.472146 12468 net.cpp:454] relu1 <- conv1
I0521 20:03:21.472158 12468 net.cpp:397] relu1 -> conv1 (in-place)
I0521 20:03:21.472651 12468 net.cpp:150] Setting up relu1
I0521 20:03:21.472666 12468 net.cpp:157] Top shape: 20 12 120 48 (1382400)
I0521 20:03:21.472676 12468 net.cpp:165] Memory required for data: 11567440
I0521 20:03:21.472687 12468 layer_factory.hpp:77] Creating layer pool1
I0521 20:03:21.472703 12468 net.cpp:106] Creating Layer pool1
I0521 20:03:21.472713 12468 net.cpp:454] pool1 <- conv1
I0521 20:03:21.472726 12468 net.cpp:411] pool1 -> pool1
I0521 20:03:21.472801 12468 net.cpp:150] Setting up pool1
I0521 20:03:21.472815 12468 net.cpp:157] Top shape: 20 12 60 48 (691200)
I0521 20:03:21.472826 12468 net.cpp:165] Memory required for data: 14332240
I0521 20:03:21.472833 12468 layer_factory.hpp:77] Creating layer conv2
I0521 20:03:21.472851 12468 net.cpp:106] Creating Layer conv2
I0521 20:03:21.472862 12468 net.cpp:454] conv2 <- pool1
I0521 20:03:21.472875 12468 net.cpp:411] conv2 -> conv2
I0521 20:03:21.474791 12468 net.cpp:150] Setting up conv2
I0521 20:03:21.474812 12468 net.cpp:157] Top shape: 20 20 54 46 (993600)
I0521 20:03:21.474825 12468 net.cpp:165] Memory required for data: 18306640
I0521 20:03:21.474843 12468 layer_factory.hpp:77] Creating layer relu2
I0521 20:03:21.474856 12468 net.cpp:106] Creating Layer relu2
I0521 20:03:21.474866 12468 net.cpp:454] relu2 <- conv2
I0521 20:03:21.474879 12468 net.cpp:397] relu2 -> conv2 (in-place)
I0521 20:03:21.475219 12468 net.cpp:150] Setting up relu2
I0521 20:03:21.475231 12468 net.cpp:157] Top shape: 20 20 54 46 (993600)
I0521 20:03:21.475242 12468 net.cpp:165] Memory required for data: 22281040
I0521 20:03:21.475252 12468 layer_factory.hpp:77] Creating layer pool2
I0521 20:03:21.475266 12468 net.cpp:106] Creating Layer pool2
I0521 20:03:21.475275 12468 net.cpp:454] pool2 <- conv2
I0521 20:03:21.475288 12468 net.cpp:411] pool2 -> pool2
I0521 20:03:21.475360 12468 net.cpp:150] Setting up pool2
I0521 20:03:21.475374 12468 net.cpp:157] Top shape: 20 20 27 46 (496800)
I0521 20:03:21.475384 12468 net.cpp:165] Memory required for data: 24268240
I0521 20:03:21.475394 12468 layer_factory.hpp:77] Creating layer conv3
I0521 20:03:21.475411 12468 net.cpp:106] Creating Layer conv3
I0521 20:03:21.475422 12468 net.cpp:454] conv3 <- pool2
I0521 20:03:21.475436 12468 net.cpp:411] conv3 -> conv3
I0521 20:03:21.477401 12468 net.cpp:150] Setting up conv3
I0521 20:03:21.477419 12468 net.cpp:157] Top shape: 20 28 22 44 (542080)
I0521 20:03:21.477430 12468 net.cpp:165] Memory required for data: 26436560
I0521 20:03:21.477448 12468 layer_factory.hpp:77] Creating layer relu3
I0521 20:03:21.477473 12468 net.cpp:106] Creating Layer relu3
I0521 20:03:21.477483 12468 net.cpp:454] relu3 <- conv3
I0521 20:03:21.477497 12468 net.cpp:397] relu3 -> conv3 (in-place)
I0521 20:03:21.477969 12468 net.cpp:150] Setting up relu3
I0521 20:03:21.477985 12468 net.cpp:157] Top shape: 20 28 22 44 (542080)
I0521 20:03:21.477996 12468 net.cpp:165] Memory required for data: 28604880
I0521 20:03:21.478006 12468 layer_factory.hpp:77] Creating layer pool3
I0521 20:03:21.478019 12468 net.cpp:106] Creating Layer pool3
I0521 20:03:21.478029 12468 net.cpp:454] pool3 <- conv3
I0521 20:03:21.478042 12468 net.cpp:411] pool3 -> pool3
I0521 20:03:21.478114 12468 net.cpp:150] Setting up pool3
I0521 20:03:21.478128 12468 net.cpp:157] Top shape: 20 28 11 44 (271040)
I0521 20:03:21.478138 12468 net.cpp:165] Memory required for data: 29689040
I0521 20:03:21.478147 12468 layer_factory.hpp:77] Creating layer conv4
I0521 20:03:21.478164 12468 net.cpp:106] Creating Layer conv4
I0521 20:03:21.478174 12468 net.cpp:454] conv4 <- pool3
I0521 20:03:21.478188 12468 net.cpp:411] conv4 -> conv4
I0521 20:03:21.480240 12468 net.cpp:150] Setting up conv4
I0521 20:03:21.480262 12468 net.cpp:157] Top shape: 20 36 6 42 (181440)
I0521 20:03:21.480275 12468 net.cpp:165] Memory required for data: 30414800
I0521 20:03:21.480290 12468 layer_factory.hpp:77] Creating layer relu4
I0521 20:03:21.480304 12468 net.cpp:106] Creating Layer relu4
I0521 20:03:21.480314 12468 net.cpp:454] relu4 <- conv4
I0521 20:03:21.480327 12468 net.cpp:397] relu4 -> conv4 (in-place)
I0521 20:03:21.480800 12468 net.cpp:150] Setting up relu4
I0521 20:03:21.480816 12468 net.cpp:157] Top shape: 20 36 6 42 (181440)
I0521 20:03:21.480828 12468 net.cpp:165] Memory required for data: 31140560
I0521 20:03:21.480837 12468 layer_factory.hpp:77] Creating layer pool4
I0521 20:03:21.480850 12468 net.cpp:106] Creating Layer pool4
I0521 20:03:21.480860 12468 net.cpp:454] pool4 <- conv4
I0521 20:03:21.480875 12468 net.cpp:411] pool4 -> pool4
I0521 20:03:21.480947 12468 net.cpp:150] Setting up pool4
I0521 20:03:21.480959 12468 net.cpp:157] Top shape: 20 36 3 42 (90720)
I0521 20:03:21.480969 12468 net.cpp:165] Memory required for data: 31503440
I0521 20:03:21.480978 12468 layer_factory.hpp:77] Creating layer ip1
I0521 20:03:21.480993 12468 net.cpp:106] Creating Layer ip1
I0521 20:03:21.481003 12468 net.cpp:454] ip1 <- pool4
I0521 20:03:21.481017 12468 net.cpp:411] ip1 -> ip1
I0521 20:03:21.496453 12468 net.cpp:150] Setting up ip1
I0521 20:03:21.496481 12468 net.cpp:157] Top shape: 20 196 (3920)
I0521 20:03:21.496496 12468 net.cpp:165] Memory required for data: 31519120
I0521 20:03:21.496518 12468 layer_factory.hpp:77] Creating layer relu5
I0521 20:03:21.496533 12468 net.cpp:106] Creating Layer relu5
I0521 20:03:21.496544 12468 net.cpp:454] relu5 <- ip1
I0521 20:03:21.496556 12468 net.cpp:397] relu5 -> ip1 (in-place)
I0521 20:03:21.496904 12468 net.cpp:150] Setting up relu5
I0521 20:03:21.496918 12468 net.cpp:157] Top shape: 20 196 (3920)
I0521 20:03:21.496932 12468 net.cpp:165] Memory required for data: 31534800
I0521 20:03:21.496942 12468 layer_factory.hpp:77] Creating layer drop1
I0521 20:03:21.496960 12468 net.cpp:106] Creating Layer drop1
I0521 20:03:21.496970 12468 net.cpp:454] drop1 <- ip1
I0521 20:03:21.496984 12468 net.cpp:397] drop1 -> ip1 (in-place)
I0521 20:03:21.497030 12468 net.cpp:150] Setting up drop1
I0521 20:03:21.497042 12468 net.cpp:157] Top shape: 20 196 (3920)
I0521 20:03:21.497051 12468 net.cpp:165] Memory required for data: 31550480
I0521 20:03:21.497061 12468 layer_factory.hpp:77] Creating layer ip2
I0521 20:03:21.497076 12468 net.cpp:106] Creating Layer ip2
I0521 20:03:21.497086 12468 net.cpp:454] ip2 <- ip1
I0521 20:03:21.497099 12468 net.cpp:411] ip2 -> ip2
I0521 20:03:21.497577 12468 net.cpp:150] Setting up ip2
I0521 20:03:21.497591 12468 net.cpp:157] Top shape: 20 98 (1960)
I0521 20:03:21.497601 12468 net.cpp:165] Memory required for data: 31558320
I0521 20:03:21.497617 12468 layer_factory.hpp:77] Creating layer relu6
I0521 20:03:21.497642 12468 net.cpp:106] Creating Layer relu6
I0521 20:03:21.497653 12468 net.cpp:454] relu6 <- ip2
I0521 20:03:21.497665 12468 net.cpp:397] relu6 -> ip2 (in-place)
I0521 20:03:21.498198 12468 net.cpp:150] Setting up relu6
I0521 20:03:21.498220 12468 net.cpp:157] Top shape: 20 98 (1960)
I0521 20:03:21.498230 12468 net.cpp:165] Memory required for data: 31566160
I0521 20:03:21.498240 12468 layer_factory.hpp:77] Creating layer drop2
I0521 20:03:21.498255 12468 net.cpp:106] Creating Layer drop2
I0521 20:03:21.498265 12468 net.cpp:454] drop2 <- ip2
I0521 20:03:21.498277 12468 net.cpp:397] drop2 -> ip2 (in-place)
I0521 20:03:21.498322 12468 net.cpp:150] Setting up drop2
I0521 20:03:21.498334 12468 net.cpp:157] Top shape: 20 98 (1960)
I0521 20:03:21.498344 12468 net.cpp:165] Memory required for data: 31574000
I0521 20:03:21.498354 12468 layer_factory.hpp:77] Creating layer ip3
I0521 20:03:21.498368 12468 net.cpp:106] Creating Layer ip3
I0521 20:03:21.498378 12468 net.cpp:454] ip3 <- ip2
I0521 20:03:21.498390 12468 net.cpp:411] ip3 -> ip3
I0521 20:03:21.498611 12468 net.cpp:150] Setting up ip3
I0521 20:03:21.498625 12468 net.cpp:157] Top shape: 20 11 (220)
I0521 20:03:21.498634 12468 net.cpp:165] Memory required for data: 31574880
I0521 20:03:21.498651 12468 layer_factory.hpp:77] Creating layer drop3
I0521 20:03:21.498663 12468 net.cpp:106] Creating Layer drop3
I0521 20:03:21.498673 12468 net.cpp:454] drop3 <- ip3
I0521 20:03:21.498687 12468 net.cpp:397] drop3 -> ip3 (in-place)
I0521 20:03:21.498728 12468 net.cpp:150] Setting up drop3
I0521 20:03:21.498740 12468 net.cpp:157] Top shape: 20 11 (220)
I0521 20:03:21.498750 12468 net.cpp:165] Memory required for data: 31575760
I0521 20:03:21.498759 12468 layer_factory.hpp:77] Creating layer ip3_drop3_0_split
I0521 20:03:21.498774 12468 net.cpp:106] Creating Layer ip3_drop3_0_split
I0521 20:03:21.498782 12468 net.cpp:454] ip3_drop3_0_split <- ip3
I0521 20:03:21.498795 12468 net.cpp:411] ip3_drop3_0_split -> ip3_drop3_0_split_0
I0521 20:03:21.498810 12468 net.cpp:411] ip3_drop3_0_split -> ip3_drop3_0_split_1
I0521 20:03:21.498883 12468 net.cpp:150] Setting up ip3_drop3_0_split
I0521 20:03:21.498896 12468 net.cpp:157] Top shape: 20 11 (220)
I0521 20:03:21.498909 12468 net.cpp:157] Top shape: 20 11 (220)
I0521 20:03:21.498919 12468 net.cpp:165] Memory required for data: 31577520
I0521 20:03:21.498929 12468 layer_factory.hpp:77] Creating layer accuracy
I0521 20:03:21.498950 12468 net.cpp:106] Creating Layer accuracy
I0521 20:03:21.498960 12468 net.cpp:454] accuracy <- ip3_drop3_0_split_0
I0521 20:03:21.498971 12468 net.cpp:454] accuracy <- label_data_hdf5_1_split_0
I0521 20:03:21.498986 12468 net.cpp:411] accuracy -> accuracy
…
