…
I0526 15:07:43.263926 12837 net.cpp:322] The NetState phase (0) differed from the phase (1) specified by a rule in layer data_hdf5
I0526 15:07:43.263983 12837 net.cpp:322] The NetState phase (0) differed from the phase (1) specified by a rule in layer accuracy
I0526 15:07:43.264343 12837 net.cpp:49] Initializing net from parameters: 
name: "caffe_test_127x50_x_unshifted"
state {
  phase: TRAIN
}
layer {
  name: "data_hdf5"
  type: "HDF5Data"
  top: "data"
  top: "label"
  include {
    phase: TRAIN
  }
  hdf5_data_param {
    source: "/lustre/atlas/proj-shared/hep105/caffe_titan/minosmatch_nukecczdefs_127x50_x_unshifted_me1Bmc.trainlist"
    batch_size: 20
  }
}
layer {
  name: "conv1"
  type: "Convolution"
  bottom: "data"
  top: "conv1"
  convolution_param {
    num_output: 12
    pad: 0
    stride: 1
    weight_filler {
      type: "xavier"
    }
    bias_filler {
      type: "constant"
    }
    kernel_h: 8
    kernel_w: 3
  }
}
layer {
  name: "relu1"
  type: "ReLU"
  bottom: "conv1"
  top: "conv1"
}
layer {
  name: "pool1"
  type: "Pooling"
  bottom: "conv1"
  top: "pool1"
  pooling_param {
    pool: MAX
    kernel_h: 2
    kernel_w: 1
    stride_h: 2
    stride_w: 1
  }
}
layer {
  name: "conv2"
  type: "Convolution"
  bottom: "pool1"
  top: "conv2"
  convolution_param {
    num_output: 20
    pad: 0
    stride: 1
    weight_filler {
      type: "xavier"
    }
    bias_filler {
      type: "constant"
    }
    kernel_h: 7
    kernel_w: 3
  }
}
layer {
  name: "relu2"
  type: "ReLU"
  bottom: "conv2"
  top: "conv2"
}
layer {
  name: "pool2"
  type: "Pooling"
  bottom: "conv2"
  top: "pool2"
  pooling_param {
    pool: MAX
    kernel_h: 2
    kernel_w: 1
    stride_h: 2
    stride_w: 1
  }
}
layer {
  name: "conv3"
  type: "Convolution"
  bottom: "pool2"
  top: "conv3"
  convolution_param {
    num_output: 28
    pad: 0
    stride: 1
    weight_filler {
      type: "xavier"
    }
    bias_filler {
      type: "constant"
    }
    kernel_h: 6
    kernel_w: 3
  }
}
layer {
  name: "relu3"
  type: "ReLU"
  bottom: "conv3"
  top: "conv3"
}
layer {
  name: "pool3"
  type: "Pooling"
  bottom: "conv3"
  top: "pool3"
  pooling_param {
    pool: MAX
    kernel_h: 2
    kernel_w: 1
    stride_h: 2
    stride_w: 1
  }
}
layer {
  name: "conv4"
  type: "Convolution"
  bottom: "pool3"
  top: "conv4"
  convolution_param {
    num_output: 36
    pad: 0
    stride: 1
    weight_filler {
      type: "xavier"
    }
    bias_filler {
      type: "constant"
    }
    kernel_h: 6
    kernel_w: 3
  }
}
layer {
  name: "relu4"
  type: "ReLU"
  bottom: "conv4"
  top: "conv4"
}
layer {
  name: "pool4"
  type: "Pooling"
  bottom: "conv4"
  top: "pool4"
  pooling_param {
    pool: MAX
    kernel_h: 2
    kernel_w: 1
    stride_h: 2
    stride_w: 1
  }
}
layer {
  name: "ip1"
  type: "InnerProduct"
  bottom: "pool4"
  top: "ip1"
  inner_product_param {
    num_output: 196
    weight_filler {
      type: "xavier"
    }
    bias_filler {
      type: "constant"
    }
  }
}
layer {
  name: "relu5"
  type: "ReLU"
  bottom: "ip1"
  top: "ip1"
}
layer {
  name: "drop1"
  type: "Dropout"
  bottom: "ip1"
  top: "ip1"
  dropout_param {
    dropout_ratio: 0.5
  }
}
layer {
  name: "ip2"
  type: "InnerProduct"
  bottom: "ip1"
  top: "ip2"
  inner_product_param {
    num_output: 98
    weight_filler {
      type: "xavier"
    }
    bias_filler {
      type: "constant"
    }
  }
}
layer {
  name: "relu6"
  type: "ReLU"
  bottom: "ip2"
  top: "ip2"
}
layer {
  name: "drop2"
  type: "Dropout"
  bottom: "ip2"
  top: "ip2"
  dropout_param {
    dropout_ratio: 0.5
  }
}
layer {
  name: "ip3"
  type: "InnerProduct"
  bottom: "ip2"
  top: "ip3"
  inner_product_param {
    num_output: 11
    weight_filler {
      type: "xavier"
    }
    bias_filler {
      type: "constant"
    }
  }
}
layer {
  name: "drop3"
  type: "Dropout"
  bottom: "ip3"
  top: "ip3"
  dropout_param {
    dropout_ratio: 0.5
  }
}
layer {
  name: "loss"
  type: "SoftmaxWithLoss"
  bottom: "ip3"
  bottom: "label"
  top: "loss"
}
I0526 15:07:43.264523 12837 layer_factory.hpp:77] Creating layer data_hdf5
I0526 15:07:43.264547 12837 net.cpp:106] Creating Layer data_hdf5
I0526 15:07:43.264562 12837 net.cpp:411] data_hdf5 -> data
I0526 15:07:43.264595 12837 net.cpp:411] data_hdf5 -> label
I0526 15:07:43.264628 12837 hdf5_data_layer.cpp:79] Loading list of HDF5 filenames from: /lustre/atlas/proj-shared/hep105/caffe_titan/minosmatch_nukecczdefs_127x50_x_unshifted_me1Bmc.trainlist
I0526 15:07:43.288028 12837 hdf5_data_layer.cpp:93] Number of HDF5 files: 15
I0526 15:07:43.307075 12837 hdf5.cpp:32] Datatype class: H5T_FLOAT
I0526 15:08:05.055318 12837 hdf5.cpp:35] Datatype class: H5T_INTEGER
I0526 15:08:05.068410 12837 net.cpp:150] Setting up data_hdf5
I0526 15:08:05.068454 12837 net.cpp:157] Top shape: 20 1 127 50 (127000)
I0526 15:08:05.068467 12837 net.cpp:157] Top shape: 20 (20)
I0526 15:08:05.068481 12837 net.cpp:165] Memory required for data: 508080
I0526 15:08:05.068495 12837 layer_factory.hpp:77] Creating layer conv1
I0526 15:08:05.068528 12837 net.cpp:106] Creating Layer conv1
I0526 15:08:05.068539 12837 net.cpp:454] conv1 <- data
I0526 15:08:05.068562 12837 net.cpp:411] conv1 -> conv1
I0526 15:08:07.977326 12837 net.cpp:150] Setting up conv1
I0526 15:08:07.977375 12837 net.cpp:157] Top shape: 20 12 120 48 (1382400)
I0526 15:08:07.977385 12837 net.cpp:165] Memory required for data: 6037680
I0526 15:08:07.977413 12837 layer_factory.hpp:77] Creating layer relu1
I0526 15:08:07.977435 12837 net.cpp:106] Creating Layer relu1
I0526 15:08:07.977447 12837 net.cpp:454] relu1 <- conv1
I0526 15:08:07.977460 12837 net.cpp:397] relu1 -> conv1 (in-place)
I0526 15:08:07.977979 12837 net.cpp:150] Setting up relu1
I0526 15:08:07.977996 12837 net.cpp:157] Top shape: 20 12 120 48 (1382400)
I0526 15:08:07.978006 12837 net.cpp:165] Memory required for data: 11567280
I0526 15:08:07.978016 12837 layer_factory.hpp:77] Creating layer pool1
I0526 15:08:07.978032 12837 net.cpp:106] Creating Layer pool1
I0526 15:08:07.978044 12837 net.cpp:454] pool1 <- conv1
I0526 15:08:07.978056 12837 net.cpp:411] pool1 -> pool1
I0526 15:08:07.978137 12837 net.cpp:150] Setting up pool1
I0526 15:08:07.978150 12837 net.cpp:157] Top shape: 20 12 60 48 (691200)
I0526 15:08:07.978160 12837 net.cpp:165] Memory required for data: 14332080
I0526 15:08:07.978168 12837 layer_factory.hpp:77] Creating layer conv2
I0526 15:08:07.978191 12837 net.cpp:106] Creating Layer conv2
I0526 15:08:07.978201 12837 net.cpp:454] conv2 <- pool1
I0526 15:08:07.978214 12837 net.cpp:411] conv2 -> conv2
I0526 15:08:07.980911 12837 net.cpp:150] Setting up conv2
I0526 15:08:07.980938 12837 net.cpp:157] Top shape: 20 20 54 46 (993600)
I0526 15:08:07.980949 12837 net.cpp:165] Memory required for data: 18306480
I0526 15:08:07.980969 12837 layer_factory.hpp:77] Creating layer relu2
I0526 15:08:07.980983 12837 net.cpp:106] Creating Layer relu2
I0526 15:08:07.980994 12837 net.cpp:454] relu2 <- conv2
I0526 15:08:07.981006 12837 net.cpp:397] relu2 -> conv2 (in-place)
I0526 15:08:07.981338 12837 net.cpp:150] Setting up relu2
I0526 15:08:07.981351 12837 net.cpp:157] Top shape: 20 20 54 46 (993600)
I0526 15:08:07.981361 12837 net.cpp:165] Memory required for data: 22280880
I0526 15:08:07.981371 12837 layer_factory.hpp:77] Creating layer pool2
I0526 15:08:07.981416 12837 net.cpp:106] Creating Layer pool2
I0526 15:08:07.981427 12837 net.cpp:454] pool2 <- conv2
I0526 15:08:07.981439 12837 net.cpp:411] pool2 -> pool2
I0526 15:08:07.981523 12837 net.cpp:150] Setting up pool2
I0526 15:08:07.981537 12837 net.cpp:157] Top shape: 20 20 27 46 (496800)
I0526 15:08:07.981547 12837 net.cpp:165] Memory required for data: 24268080
I0526 15:08:07.981559 12837 layer_factory.hpp:77] Creating layer conv3
I0526 15:08:07.981575 12837 net.cpp:106] Creating Layer conv3
I0526 15:08:07.981585 12837 net.cpp:454] conv3 <- pool2
I0526 15:08:07.981600 12837 net.cpp:411] conv3 -> conv3
I0526 15:08:07.983546 12837 net.cpp:150] Setting up conv3
I0526 15:08:07.983569 12837 net.cpp:157] Top shape: 20 28 22 44 (542080)
I0526 15:08:07.983582 12837 net.cpp:165] Memory required for data: 26436400
I0526 15:08:07.983599 12837 layer_factory.hpp:77] Creating layer relu3
I0526 15:08:07.983615 12837 net.cpp:106] Creating Layer relu3
I0526 15:08:07.983625 12837 net.cpp:454] relu3 <- conv3
I0526 15:08:07.983639 12837 net.cpp:397] relu3 -> conv3 (in-place)
I0526 15:08:07.984112 12837 net.cpp:150] Setting up relu3
I0526 15:08:07.984128 12837 net.cpp:157] Top shape: 20 28 22 44 (542080)
I0526 15:08:07.984138 12837 net.cpp:165] Memory required for data: 28604720
I0526 15:08:07.984148 12837 layer_factory.hpp:77] Creating layer pool3
I0526 15:08:07.984161 12837 net.cpp:106] Creating Layer pool3
I0526 15:08:07.984170 12837 net.cpp:454] pool3 <- conv3
I0526 15:08:07.984184 12837 net.cpp:411] pool3 -> pool3
I0526 15:08:07.984251 12837 net.cpp:150] Setting up pool3
I0526 15:08:07.984264 12837 net.cpp:157] Top shape: 20 28 11 44 (271040)
I0526 15:08:07.984273 12837 net.cpp:165] Memory required for data: 29688880
I0526 15:08:07.984283 12837 layer_factory.hpp:77] Creating layer conv4
I0526 15:08:07.984300 12837 net.cpp:106] Creating Layer conv4
I0526 15:08:07.984310 12837 net.cpp:454] conv4 <- pool3
I0526 15:08:07.984323 12837 net.cpp:411] conv4 -> conv4
I0526 15:08:07.987046 12837 net.cpp:150] Setting up conv4
I0526 15:08:07.987072 12837 net.cpp:157] Top shape: 20 36 6 42 (181440)
I0526 15:08:07.987083 12837 net.cpp:165] Memory required for data: 30414640
I0526 15:08:07.987098 12837 layer_factory.hpp:77] Creating layer relu4
I0526 15:08:07.987112 12837 net.cpp:106] Creating Layer relu4
I0526 15:08:07.987123 12837 net.cpp:454] relu4 <- conv4
I0526 15:08:07.987135 12837 net.cpp:397] relu4 -> conv4 (in-place)
I0526 15:08:07.987612 12837 net.cpp:150] Setting up relu4
I0526 15:08:07.987627 12837 net.cpp:157] Top shape: 20 36 6 42 (181440)
I0526 15:08:07.987638 12837 net.cpp:165] Memory required for data: 31140400
I0526 15:08:07.987648 12837 layer_factory.hpp:77] Creating layer pool4
I0526 15:08:07.987661 12837 net.cpp:106] Creating Layer pool4
I0526 15:08:07.987670 12837 net.cpp:454] pool4 <- conv4
I0526 15:08:07.987684 12837 net.cpp:411] pool4 -> pool4
I0526 15:08:07.987751 12837 net.cpp:150] Setting up pool4
I0526 15:08:07.987766 12837 net.cpp:157] Top shape: 20 36 3 42 (90720)
I0526 15:08:07.987776 12837 net.cpp:165] Memory required for data: 31503280
I0526 15:08:07.987785 12837 layer_factory.hpp:77] Creating layer ip1
I0526 15:08:07.987805 12837 net.cpp:106] Creating Layer ip1
I0526 15:08:07.987815 12837 net.cpp:454] ip1 <- pool4
I0526 15:08:07.987826 12837 net.cpp:411] ip1 -> ip1
I0526 15:08:08.003259 12837 net.cpp:150] Setting up ip1
I0526 15:08:08.003288 12837 net.cpp:157] Top shape: 20 196 (3920)
I0526 15:08:08.003299 12837 net.cpp:165] Memory required for data: 31518960
I0526 15:08:08.003321 12837 layer_factory.hpp:77] Creating layer relu5
I0526 15:08:08.003336 12837 net.cpp:106] Creating Layer relu5
I0526 15:08:08.003346 12837 net.cpp:454] relu5 <- ip1
I0526 15:08:08.003360 12837 net.cpp:397] relu5 -> ip1 (in-place)
I0526 15:08:08.003706 12837 net.cpp:150] Setting up relu5
I0526 15:08:08.003720 12837 net.cpp:157] Top shape: 20 196 (3920)
I0526 15:08:08.003731 12837 net.cpp:165] Memory required for data: 31534640
I0526 15:08:08.003741 12837 layer_factory.hpp:77] Creating layer drop1
I0526 15:08:08.003762 12837 net.cpp:106] Creating Layer drop1
I0526 15:08:08.003772 12837 net.cpp:454] drop1 <- ip1
I0526 15:08:08.003784 12837 net.cpp:397] drop1 -> ip1 (in-place)
I0526 15:08:08.003844 12837 net.cpp:150] Setting up drop1
I0526 15:08:08.003856 12837 net.cpp:157] Top shape: 20 196 (3920)
I0526 15:08:08.003866 12837 net.cpp:165] Memory required for data: 31550320
I0526 15:08:08.003876 12837 layer_factory.hpp:77] Creating layer ip2
I0526 15:08:08.003895 12837 net.cpp:106] Creating Layer ip2
I0526 15:08:08.003906 12837 net.cpp:454] ip2 <- ip1
I0526 15:08:08.003916 12837 net.cpp:411] ip2 -> ip2
I0526 15:08:08.004380 12837 net.cpp:150] Setting up ip2
I0526 15:08:08.004393 12837 net.cpp:157] Top shape: 20 98 (1960)
I0526 15:08:08.004402 12837 net.cpp:165] Memory required for data: 31558160
I0526 15:08:08.004417 12837 layer_factory.hpp:77] Creating layer relu6
I0526 15:08:08.004429 12837 net.cpp:106] Creating Layer relu6
I0526 15:08:08.004438 12837 net.cpp:454] relu6 <- ip2
I0526 15:08:08.004451 12837 net.cpp:397] relu6 -> ip2 (in-place)
I0526 15:08:08.004969 12837 net.cpp:150] Setting up relu6
I0526 15:08:08.004986 12837 net.cpp:157] Top shape: 20 98 (1960)
I0526 15:08:08.004997 12837 net.cpp:165] Memory required for data: 31566000
I0526 15:08:08.005005 12837 layer_factory.hpp:77] Creating layer drop2
I0526 15:08:08.005023 12837 net.cpp:106] Creating Layer drop2
I0526 15:08:08.005033 12837 net.cpp:454] drop2 <- ip2
I0526 15:08:08.005046 12837 net.cpp:397] drop2 -> ip2 (in-place)
I0526 15:08:08.005089 12837 net.cpp:150] Setting up drop2
I0526 15:08:08.005102 12837 net.cpp:157] Top shape: 20 98 (1960)
I0526 15:08:08.005112 12837 net.cpp:165] Memory required for data: 31573840
I0526 15:08:08.005122 12837 layer_factory.hpp:77] Creating layer ip3
I0526 15:08:08.005136 12837 net.cpp:106] Creating Layer ip3
I0526 15:08:08.005146 12837 net.cpp:454] ip3 <- ip2
I0526 15:08:08.005159 12837 net.cpp:411] ip3 -> ip3
I0526 15:08:08.005372 12837 net.cpp:150] Setting up ip3
I0526 15:08:08.005384 12837 net.cpp:157] Top shape: 20 11 (220)
I0526 15:08:08.005393 12837 net.cpp:165] Memory required for data: 31574720
I0526 15:08:08.005409 12837 layer_factory.hpp:77] Creating layer drop3
I0526 15:08:08.005422 12837 net.cpp:106] Creating Layer drop3
I0526 15:08:08.005432 12837 net.cpp:454] drop3 <- ip3
I0526 15:08:08.005445 12837 net.cpp:397] drop3 -> ip3 (in-place)
I0526 15:08:08.005484 12837 net.cpp:150] Setting up drop3
I0526 15:08:08.005496 12837 net.cpp:157] Top shape: 20 11 (220)
I0526 15:08:08.005506 12837 net.cpp:165] Memory required for data: 31575600
I0526 15:08:08.005517 12837 layer_factory.hpp:77] Creating layer loss
I0526 15:08:08.005535 12837 net.cpp:106] Creating Layer loss
I0526 15:08:08.005545 12837 net.cpp:454] loss <- ip3
I0526 15:08:08.005556 12837 net.cpp:454] loss <- label
I0526 15:08:08.005569 12837 net.cpp:411] loss -> loss
I0526 15:08:08.005586 12837 layer_factory.hpp:77] Creating layer loss
…
I0526 15:08:08.016266 12837 solver.cpp:181] Creating test net (#0) specified by net file: /lustre/atlas/proj-shared/hep105/caffe_titan/caffe_workflow/logs_bslr/bs_20_lr_0.0020_2016-05-20T15.48.54.568961.prototxt
I0526 15:08:08.016345 12837 net.cpp:322] The NetState phase (1) differed from the phase (0) specified by a rule in layer data_hdf5
I0526 15:08:08.016705 12837 net.cpp:49] Initializing net from parameters: 
name: "caffe_test_127x50_x_unshifted"
state {
  phase: TEST
}
layer {
  name: "data_hdf5"
  type: "HDF5Data"
  top: "data"
  top: "label"
  include {
    phase: TEST
  }
  hdf5_data_param {
    source: "/lustre/atlas/proj-shared/hep105/caffe_titan/minosmatch_nukecczdefs_127x50_x_unshifted_me1Bmc.testlist"
    batch_size: 20
  }
}
layer {
  name: "conv1"
  type: "Convolution"
  bottom: "data"
  top: "conv1"
  convolution_param {
    num_output: 12
    pad: 0
    stride: 1
    weight_filler {
      type: "xavier"
    }
    bias_filler {
      type: "constant"
    }
    kernel_h: 8
    kernel_w: 3
  }
}
layer {
  name: "relu1"
  type: "ReLU"
  bottom: "conv1"
  top: "conv1"
}
layer {
  name: "pool1"
  type: "Pooling"
  bottom: "conv1"
  top: "pool1"
  pooling_param {
    pool: MAX
    kernel_h: 2
    kernel_w: 1
    stride_h: 2
    stride_w: 1
  }
}
layer {
  name: "conv2"
  type: "Convolution"
  bottom: "pool1"
  top: "conv2"
  convolution_param {
    num_output: 20
    pad: 0
    stride: 1
    weight_filler {
      type: "xavier"
    }
    bias_filler {
      type: "constant"
    }
    kernel_h: 7
    kernel_w: 3
  }
}
layer {
  name: "relu2"
  type: "ReLU"
  bottom: "conv2"
  top: "conv2"
}
layer {
  name: "pool2"
  type: "Pooling"
  bottom: "conv2"
  top: "pool2"
  pooling_param {
    pool: MAX
    kernel_h: 2
    kernel_w: 1
    stride_h: 2
    stride_w: 1
  }
}
layer {
  name: "conv3"
  type: "Convolution"
  bottom: "pool2"
  top: "conv3"
  convolution_param {
    num_output: 28
    pad: 0
    stride: 1
    weight_filler {
      type: "xavier"
    }
    bias_filler {
      type: "constant"
    }
    kernel_h: 6
    kernel_w: 3
  }
}
layer {
  name: "relu3"
  type: "ReLU"
  bottom: "conv3"
  top: "conv3"
}
layer {
  name: "pool3"
  type: "Pooling"
  bottom: "conv3"
  top: "pool3"
  pooling_param {
    pool: MAX
    kernel_h: 2
    kernel_w: 1
    stride_h: 2
    stride_w: 1
  }
}
layer {
  name: "conv4"
  type: "Convolution"
  bottom: "pool3"
  top: "conv4"
  convolution_param {
    num_output: 36
    pad: 0
    stride: 1
    weight_filler {
      type: "xavier"
    }
    bias_filler {
      type: "constant"
    }
    kernel_h: 6
    kernel_w: 3
  }
}
layer {
  name: "relu4"
  type: "ReLU"
  bottom: "conv4"
  top: "conv4"
}
layer {
  name: "pool4"
  type: "Pooling"
  bottom: "conv4"
  top: "pool4"
  pooling_param {
    pool: MAX
    kernel_h: 2
    kernel_w: 1
    stride_h: 2
    stride_w: 1
  }
}
layer {
  name: "ip1"
  type: "InnerProduct"
  bottom: "pool4"
  top: "ip1"
  inner_product_param {
    num_output: 196
    weight_filler {
      type: "xavier"
    }
    bias_filler {
      type: "constant"
    }
  }
}
layer {
  name: "relu5"
  type: "ReLU"
  bottom: "ip1"
  top: "ip1"
}
layer {
  name: "drop1"
  type: "Dropout"
  bottom: "ip1"
  top: "ip1"
  dropout_param {
    dropout_ratio: 0.5
  }
}
layer {
  name: "ip2"
  type: "InnerProduct"
  bottom: "ip1"
  top: "ip2"
  inner_product_param {
    num_output: 98
    weight_filler {
      type: "xavier"
    }
    bias_filler {
      type: "constant"
    }
  }
}
layer {
  name: "relu6"
  type: "ReLU"
  bottom: "ip2"
  top: "ip2"
}
layer {
  name: "drop2"
  type: "Dropout"
  bottom: "ip2"
  top: "ip2"
  dropout_param {
    dropout_ratio: 0.5
  }
}
layer {
  name: "ip3"
  type: "InnerProduct"
  bottom: "ip2"
  top: "ip3"
  inner_product_param {
    num_output: 11
    weight_filler {
      type: "xavier"
    }
    bias_filler {
      type: "constant"
    }
  }
}
layer {
  name: "drop3"
  type: "Dropout"
  bottom: "ip3"
  top: "ip3"
  dropout_param {
    dropout_ratio: 0.5
  }
}
layer {
  name: "accuracy"
  type: "Accuracy"
  bottom: "ip3"
  bottom: "label"
  top: "accuracy"
  include {
    phase: TEST
  }
}
layer {
  name: "loss"
  type: "SoftmaxWithLoss"
  bottom: "ip3"
  bottom: "label"
  top: "loss"
}
I0526 15:08:08.016898 12837 layer_factory.hpp:77] Creating layer data_hdf5
I0526 15:08:08.016913 12837 net.cpp:106] Creating Layer data_hdf5
I0526 15:08:08.016926 12837 net.cpp:411] data_hdf5 -> data
I0526 15:08:08.016942 12837 net.cpp:411] data_hdf5 -> label
I0526 15:08:08.016958 12837 hdf5_data_layer.cpp:79] Loading list of HDF5 filenames from: /lustre/atlas/proj-shared/hep105/caffe_titan/minosmatch_nukecczdefs_127x50_x_unshifted_me1Bmc.testlist
I0526 15:08:08.039788 12837 hdf5_data_layer.cpp:93] Number of HDF5 files: 3
I0526 15:08:29.482591 12837 net.cpp:150] Setting up data_hdf5
I0526 15:08:29.482756 12837 net.cpp:157] Top shape: 20 1 127 50 (127000)
I0526 15:08:29.482771 12837 net.cpp:157] Top shape: 20 (20)
I0526 15:08:29.482784 12837 net.cpp:165] Memory required for data: 508080
I0526 15:08:29.482800 12837 layer_factory.hpp:77] Creating layer label_data_hdf5_1_split
I0526 15:08:29.482827 12837 net.cpp:106] Creating Layer label_data_hdf5_1_split
I0526 15:08:29.482838 12837 net.cpp:454] label_data_hdf5_1_split <- label
I0526 15:08:29.482853 12837 net.cpp:411] label_data_hdf5_1_split -> label_data_hdf5_1_split_0
I0526 15:08:29.482874 12837 net.cpp:411] label_data_hdf5_1_split -> label_data_hdf5_1_split_1
I0526 15:08:29.482949 12837 net.cpp:150] Setting up label_data_hdf5_1_split
I0526 15:08:29.482962 12837 net.cpp:157] Top shape: 20 (20)
I0526 15:08:29.482975 12837 net.cpp:157] Top shape: 20 (20)
I0526 15:08:29.482985 12837 net.cpp:165] Memory required for data: 508240
I0526 15:08:29.482995 12837 layer_factory.hpp:77] Creating layer conv1
I0526 15:08:29.483016 12837 net.cpp:106] Creating Layer conv1
I0526 15:08:29.483026 12837 net.cpp:454] conv1 <- data
I0526 15:08:29.483039 12837 net.cpp:411] conv1 -> conv1
I0526 15:08:29.484987 12837 net.cpp:150] Setting up conv1
I0526 15:08:29.485009 12837 net.cpp:157] Top shape: 20 12 120 48 (1382400)
I0526 15:08:29.485020 12837 net.cpp:165] Memory required for data: 6037840
I0526 15:08:29.485041 12837 layer_factory.hpp:77] Creating layer relu1
I0526 15:08:29.485056 12837 net.cpp:106] Creating Layer relu1
I0526 15:08:29.485066 12837 net.cpp:454] relu1 <- conv1
I0526 15:08:29.485080 12837 net.cpp:397] relu1 -> conv1 (in-place)
I0526 15:08:29.485589 12837 net.cpp:150] Setting up relu1
I0526 15:08:29.485605 12837 net.cpp:157] Top shape: 20 12 120 48 (1382400)
I0526 15:08:29.485615 12837 net.cpp:165] Memory required for data: 11567440
I0526 15:08:29.485625 12837 layer_factory.hpp:77] Creating layer pool1
I0526 15:08:29.485641 12837 net.cpp:106] Creating Layer pool1
I0526 15:08:29.485651 12837 net.cpp:454] pool1 <- conv1
I0526 15:08:29.485662 12837 net.cpp:411] pool1 -> pool1
I0526 15:08:29.485738 12837 net.cpp:150] Setting up pool1
I0526 15:08:29.485750 12837 net.cpp:157] Top shape: 20 12 60 48 (691200)
I0526 15:08:29.485759 12837 net.cpp:165] Memory required for data: 14332240
I0526 15:08:29.485769 12837 layer_factory.hpp:77] Creating layer conv2
I0526 15:08:29.485786 12837 net.cpp:106] Creating Layer conv2
I0526 15:08:29.485797 12837 net.cpp:454] conv2 <- pool1
I0526 15:08:29.485811 12837 net.cpp:411] conv2 -> conv2
I0526 15:08:29.487735 12837 net.cpp:150] Setting up conv2
I0526 15:08:29.487757 12837 net.cpp:157] Top shape: 20 20 54 46 (993600)
I0526 15:08:29.487769 12837 net.cpp:165] Memory required for data: 18306640
I0526 15:08:29.487787 12837 layer_factory.hpp:77] Creating layer relu2
I0526 15:08:29.487800 12837 net.cpp:106] Creating Layer relu2
I0526 15:08:29.487809 12837 net.cpp:454] relu2 <- conv2
I0526 15:08:29.487823 12837 net.cpp:397] relu2 -> conv2 (in-place)
I0526 15:08:29.488155 12837 net.cpp:150] Setting up relu2
I0526 15:08:29.488169 12837 net.cpp:157] Top shape: 20 20 54 46 (993600)
I0526 15:08:29.488179 12837 net.cpp:165] Memory required for data: 22281040
I0526 15:08:29.488188 12837 layer_factory.hpp:77] Creating layer pool2
I0526 15:08:29.488203 12837 net.cpp:106] Creating Layer pool2
I0526 15:08:29.488212 12837 net.cpp:454] pool2 <- conv2
I0526 15:08:29.488224 12837 net.cpp:411] pool2 -> pool2
I0526 15:08:29.488296 12837 net.cpp:150] Setting up pool2
I0526 15:08:29.488309 12837 net.cpp:157] Top shape: 20 20 27 46 (496800)
I0526 15:08:29.488319 12837 net.cpp:165] Memory required for data: 24268240
I0526 15:08:29.488328 12837 layer_factory.hpp:77] Creating layer conv3
I0526 15:08:29.488348 12837 net.cpp:106] Creating Layer conv3
I0526 15:08:29.488358 12837 net.cpp:454] conv3 <- pool2
I0526 15:08:29.488371 12837 net.cpp:411] conv3 -> conv3
I0526 15:08:29.490335 12837 net.cpp:150] Setting up conv3
I0526 15:08:29.490358 12837 net.cpp:157] Top shape: 20 28 22 44 (542080)
I0526 15:08:29.490368 12837 net.cpp:165] Memory required for data: 26436560
I0526 15:08:29.490386 12837 layer_factory.hpp:77] Creating layer relu3
I0526 15:08:29.490412 12837 net.cpp:106] Creating Layer relu3
I0526 15:08:29.490423 12837 net.cpp:454] relu3 <- conv3
I0526 15:08:29.490437 12837 net.cpp:397] relu3 -> conv3 (in-place)
I0526 15:08:29.490906 12837 net.cpp:150] Setting up relu3
I0526 15:08:29.490923 12837 net.cpp:157] Top shape: 20 28 22 44 (542080)
I0526 15:08:29.490933 12837 net.cpp:165] Memory required for data: 28604880
I0526 15:08:29.490942 12837 layer_factory.hpp:77] Creating layer pool3
I0526 15:08:29.490955 12837 net.cpp:106] Creating Layer pool3
I0526 15:08:29.490965 12837 net.cpp:454] pool3 <- conv3
I0526 15:08:29.490978 12837 net.cpp:411] pool3 -> pool3
I0526 15:08:29.491050 12837 net.cpp:150] Setting up pool3
I0526 15:08:29.491062 12837 net.cpp:157] Top shape: 20 28 11 44 (271040)
I0526 15:08:29.491072 12837 net.cpp:165] Memory required for data: 29689040
I0526 15:08:29.491082 12837 layer_factory.hpp:77] Creating layer conv4
I0526 15:08:29.491099 12837 net.cpp:106] Creating Layer conv4
I0526 15:08:29.491109 12837 net.cpp:454] conv4 <- pool3
I0526 15:08:29.491122 12837 net.cpp:411] conv4 -> conv4
I0526 15:08:29.493183 12837 net.cpp:150] Setting up conv4
I0526 15:08:29.493206 12837 net.cpp:157] Top shape: 20 36 6 42 (181440)
I0526 15:08:29.493216 12837 net.cpp:165] Memory required for data: 30414800
I0526 15:08:29.493232 12837 layer_factory.hpp:77] Creating layer relu4
I0526 15:08:29.493245 12837 net.cpp:106] Creating Layer relu4
I0526 15:08:29.493255 12837 net.cpp:454] relu4 <- conv4
I0526 15:08:29.493268 12837 net.cpp:397] relu4 -> conv4 (in-place)
I0526 15:08:29.493741 12837 net.cpp:150] Setting up relu4
I0526 15:08:29.493757 12837 net.cpp:157] Top shape: 20 36 6 42 (181440)
I0526 15:08:29.493767 12837 net.cpp:165] Memory required for data: 31140560
I0526 15:08:29.493777 12837 layer_factory.hpp:77] Creating layer pool4
I0526 15:08:29.493790 12837 net.cpp:106] Creating Layer pool4
I0526 15:08:29.493800 12837 net.cpp:454] pool4 <- conv4
I0526 15:08:29.493813 12837 net.cpp:411] pool4 -> pool4
I0526 15:08:29.493885 12837 net.cpp:150] Setting up pool4
I0526 15:08:29.493898 12837 net.cpp:157] Top shape: 20 36 3 42 (90720)
I0526 15:08:29.493908 12837 net.cpp:165] Memory required for data: 31503440
I0526 15:08:29.493918 12837 layer_factory.hpp:77] Creating layer ip1
I0526 15:08:29.493935 12837 net.cpp:106] Creating Layer ip1
I0526 15:08:29.493945 12837 net.cpp:454] ip1 <- pool4
I0526 15:08:29.493959 12837 net.cpp:411] ip1 -> ip1
I0526 15:08:29.509361 12837 net.cpp:150] Setting up ip1
I0526 15:08:29.509383 12837 net.cpp:157] Top shape: 20 196 (3920)
I0526 15:08:29.509402 12837 net.cpp:165] Memory required for data: 31519120
I0526 15:08:29.509423 12837 layer_factory.hpp:77] Creating layer relu5
I0526 15:08:29.509438 12837 net.cpp:106] Creating Layer relu5
I0526 15:08:29.509449 12837 net.cpp:454] relu5 <- ip1
I0526 15:08:29.509464 12837 net.cpp:397] relu5 -> ip1 (in-place)
I0526 15:08:29.509812 12837 net.cpp:150] Setting up relu5
I0526 15:08:29.509826 12837 net.cpp:157] Top shape: 20 196 (3920)
I0526 15:08:29.509836 12837 net.cpp:165] Memory required for data: 31534800
I0526 15:08:29.509845 12837 layer_factory.hpp:77] Creating layer drop1
I0526 15:08:29.509866 12837 net.cpp:106] Creating Layer drop1
I0526 15:08:29.509876 12837 net.cpp:454] drop1 <- ip1
I0526 15:08:29.509888 12837 net.cpp:397] drop1 -> ip1 (in-place)
I0526 15:08:29.509935 12837 net.cpp:150] Setting up drop1
I0526 15:08:29.509948 12837 net.cpp:157] Top shape: 20 196 (3920)
I0526 15:08:29.509958 12837 net.cpp:165] Memory required for data: 31550480
I0526 15:08:29.509966 12837 layer_factory.hpp:77] Creating layer ip2
I0526 15:08:29.509981 12837 net.cpp:106] Creating Layer ip2
I0526 15:08:29.509991 12837 net.cpp:454] ip2 <- ip1
I0526 15:08:29.510005 12837 net.cpp:411] ip2 -> ip2
I0526 15:08:29.510488 12837 net.cpp:150] Setting up ip2
I0526 15:08:29.510500 12837 net.cpp:157] Top shape: 20 98 (1960)
I0526 15:08:29.510510 12837 net.cpp:165] Memory required for data: 31558320
I0526 15:08:29.510525 12837 layer_factory.hpp:77] Creating layer relu6
I0526 15:08:29.510550 12837 net.cpp:106] Creating Layer relu6
I0526 15:08:29.510560 12837 net.cpp:454] relu6 <- ip2
I0526 15:08:29.510572 12837 net.cpp:397] relu6 -> ip2 (in-place)
I0526 15:08:29.511104 12837 net.cpp:150] Setting up relu6
I0526 15:08:29.511121 12837 net.cpp:157] Top shape: 20 98 (1960)
I0526 15:08:29.511131 12837 net.cpp:165] Memory required for data: 31566160
I0526 15:08:29.511139 12837 layer_factory.hpp:77] Creating layer drop2
I0526 15:08:29.511152 12837 net.cpp:106] Creating Layer drop2
I0526 15:08:29.511162 12837 net.cpp:454] drop2 <- ip2
I0526 15:08:29.511175 12837 net.cpp:397] drop2 -> ip2 (in-place)
I0526 15:08:29.511219 12837 net.cpp:150] Setting up drop2
I0526 15:08:29.511232 12837 net.cpp:157] Top shape: 20 98 (1960)
I0526 15:08:29.511242 12837 net.cpp:165] Memory required for data: 31574000
I0526 15:08:29.511252 12837 layer_factory.hpp:77] Creating layer ip3
I0526 15:08:29.511266 12837 net.cpp:106] Creating Layer ip3
I0526 15:08:29.511276 12837 net.cpp:454] ip3 <- ip2
I0526 15:08:29.511291 12837 net.cpp:411] ip3 -> ip3
I0526 15:08:29.511523 12837 net.cpp:150] Setting up ip3
I0526 15:08:29.511535 12837 net.cpp:157] Top shape: 20 11 (220)
I0526 15:08:29.511545 12837 net.cpp:165] Memory required for data: 31574880
I0526 15:08:29.511562 12837 layer_factory.hpp:77] Creating layer drop3
I0526 15:08:29.511575 12837 net.cpp:106] Creating Layer drop3
I0526 15:08:29.511585 12837 net.cpp:454] drop3 <- ip3
I0526 15:08:29.511598 12837 net.cpp:397] drop3 -> ip3 (in-place)
I0526 15:08:29.511639 12837 net.cpp:150] Setting up drop3
I0526 15:08:29.511652 12837 net.cpp:157] Top shape: 20 11 (220)
I0526 15:08:29.511663 12837 net.cpp:165] Memory required for data: 31575760
I0526 15:08:29.511672 12837 layer_factory.hpp:77] Creating layer ip3_drop3_0_split
I0526 15:08:29.511685 12837 net.cpp:106] Creating Layer ip3_drop3_0_split
I0526 15:08:29.511695 12837 net.cpp:454] ip3_drop3_0_split <- ip3
I0526 15:08:29.511708 12837 net.cpp:411] ip3_drop3_0_split -> ip3_drop3_0_split_0
I0526 15:08:29.511723 12837 net.cpp:411] ip3_drop3_0_split -> ip3_drop3_0_split_1
I0526 15:08:29.511795 12837 net.cpp:150] Setting up ip3_drop3_0_split
I0526 15:08:29.511809 12837 net.cpp:157] Top shape: 20 11 (220)
I0526 15:08:29.511822 12837 net.cpp:157] Top shape: 20 11 (220)
I0526 15:08:29.511831 12837 net.cpp:165] Memory required for data: 31577520
I0526 15:08:29.511842 12837 layer_factory.hpp:77] Creating layer accuracy
I0526 15:08:29.511862 12837 net.cpp:106] Creating Layer accuracy
I0526 15:08:29.511873 12837 net.cpp:454] accuracy <- ip3_drop3_0_split_0
I0526 15:08:29.511883 12837 net.cpp:454] accuracy <- label_data_hdf5_1_split_0
I0526 15:08:29.511895 12837 net.cpp:411] accuracy -> accuracy
…
