…
I0521 22:03:07.071631 10174 net.cpp:322] The NetState phase (0) differed from the phase (1) specified by a rule in layer data_hdf5
I0521 22:03:07.071691 10174 net.cpp:322] The NetState phase (0) differed from the phase (1) specified by a rule in layer accuracy
I0521 22:03:07.072039 10174 net.cpp:49] Initializing net from parameters: 
name: "caffe_test_127x50_x_unshifted"
state {
  phase: TRAIN
}
layer {
  name: "data_hdf5"
  type: "HDF5Data"
  top: "data"
  top: "label"
  include {
    phase: TRAIN
  }
  hdf5_data_param {
    source: "/lustre/atlas/proj-shared/hep105/caffe_titan/minosmatch_nukecczdefs_127x50_x_unshifted_me1Bmc.trainlist"
    batch_size: 20
  }
}
layer {
  name: "conv1"
  type: "Convolution"
  bottom: "data"
  top: "conv1"
  convolution_param {
    num_output: 12
    pad: 0
    stride: 1
    weight_filler {
      type: "xavier"
    }
    bias_filler {
      type: "constant"
    }
    kernel_h: 8
    kernel_w: 3
  }
}
layer {
  name: "relu1"
  type: "ReLU"
  bottom: "conv1"
  top: "conv1"
}
layer {
  name: "pool1"
  type: "Pooling"
  bottom: "conv1"
  top: "pool1"
  pooling_param {
    pool: MAX
    kernel_h: 2
    kernel_w: 1
    stride_h: 2
    stride_w: 1
  }
}
layer {
  name: "conv2"
  type: "Convolution"
  bottom: "pool1"
  top: "conv2"
  convolution_param {
    num_output: 20
    pad: 0
    stride: 1
    weight_filler {
      type: "xavier"
    }
    bias_filler {
      type: "constant"
    }
    kernel_h: 7
    kernel_w: 3
  }
}
layer {
  name: "relu2"
  type: "ReLU"
  bottom: "conv2"
  top: "conv2"
}
layer {
  name: "pool2"
  type: "Pooling"
  bottom: "conv2"
  top: "pool2"
  pooling_param {
    pool: MAX
    kernel_h: 2
    kernel_w: 1
    stride_h: 2
    stride_w: 1
  }
}
layer {
  name: "conv3"
  type: "Convolution"
  bottom: "pool2"
  top: "conv3"
  convolution_param {
    num_output: 28
    pad: 0
    stride: 1
    weight_filler {
      type: "xavier"
    }
    bias_filler {
      type: "constant"
    }
    kernel_h: 6
    kernel_w: 3
  }
}
layer {
  name: "relu3"
  type: "ReLU"
  bottom: "conv3"
  top: "conv3"
}
layer {
  name: "pool3"
  type: "Pooling"
  bottom: "conv3"
  top: "pool3"
  pooling_param {
    pool: MAX
    kernel_h: 2
    kernel_w: 1
    stride_h: 2
    stride_w: 1
  }
}
layer {
  name: "conv4"
  type: "Convolution"
  bottom: "pool3"
  top: "conv4"
  convolution_param {
    num_output: 36
    pad: 0
    stride: 1
    weight_filler {
      type: "xavier"
    }
    bias_filler {
      type: "constant"
    }
    kernel_h: 6
    kernel_w: 3
  }
}
layer {
  name: "relu4"
  type: "ReLU"
  bottom: "conv4"
  top: "conv4"
}
layer {
  name: "pool4"
  type: "Pooling"
  bottom: "conv4"
  top: "pool4"
  pooling_param {
    pool: MAX
    kernel_h: 2
    kernel_w: 1
    stride_h: 2
    stride_w: 1
  }
}
layer {
  name: "ip1"
  type: "InnerProduct"
  bottom: "pool4"
  top: "ip1"
  inner_product_param {
    num_output: 196
    weight_filler {
      type: "xavier"
    }
    bias_filler {
      type: "constant"
    }
  }
}
layer {
  name: "relu5"
  type: "ReLU"
  bottom: "ip1"
  top: "ip1"
}
layer {
  name: "drop1"
  type: "Dropout"
  bottom: "ip1"
  top: "ip1"
  dropout_param {
    dropout_ratio: 0.5
  }
}
layer {
  name: "ip2"
  type: "InnerProduct"
  bottom: "ip1"
  top: "ip2"
  inner_product_param {
    num_output: 98
    weight_filler {
      type: "xavier"
    }
    bias_filler {
      type: "constant"
    }
  }
}
layer {
  name: "relu6"
  type: "ReLU"
  bottom: "ip2"
  top: "ip2"
}
layer {
  name: "drop2"
  type: "Dropout"
  bottom: "ip2"
  top: "ip2"
  dropout_param {
    dropout_ratio: 0.5
  }
}
layer {
  name: "ip3"
  type: "InnerProduct"
  bottom: "ip2"
  top: "ip3"
  inner_product_param {
    num_output: 11
    weight_filler {
      type: "xavier"
    }
    bias_filler {
      type: "constant"
    }
  }
}
layer {
  name: "drop3"
  type: "Dropout"
  bottom: "ip3"
  top: "ip3"
  dropout_param {
    dropout_ratio: 0.5
  }
}
layer {
  name: "loss"
  type: "SoftmaxWithLoss"
  bottom: "ip3"
  bottom: "label"
  top: "loss"
}
I0521 22:03:07.072218 10174 layer_factory.hpp:77] Creating layer data_hdf5
I0521 22:03:07.072242 10174 net.cpp:106] Creating Layer data_hdf5
I0521 22:03:07.072257 10174 net.cpp:411] data_hdf5 -> data
I0521 22:03:07.072291 10174 net.cpp:411] data_hdf5 -> label
I0521 22:03:07.072324 10174 hdf5_data_layer.cpp:79] Loading list of HDF5 filenames from: /lustre/atlas/proj-shared/hep105/caffe_titan/minosmatch_nukecczdefs_127x50_x_unshifted_me1Bmc.trainlist
I0521 22:03:07.073686 10174 hdf5_data_layer.cpp:93] Number of HDF5 files: 15
I0521 22:03:07.075908 10174 hdf5.cpp:32] Datatype class: H5T_FLOAT
I0521 22:03:28.585919 10174 hdf5.cpp:35] Datatype class: H5T_INTEGER
I0521 22:03:28.591012 10174 net.cpp:150] Setting up data_hdf5
I0521 22:03:28.591053 10174 net.cpp:157] Top shape: 20 1 127 50 (127000)
I0521 22:03:28.591068 10174 net.cpp:157] Top shape: 20 (20)
I0521 22:03:28.591079 10174 net.cpp:165] Memory required for data: 508080
I0521 22:03:28.591092 10174 layer_factory.hpp:77] Creating layer conv1
I0521 22:03:28.591126 10174 net.cpp:106] Creating Layer conv1
I0521 22:03:28.591137 10174 net.cpp:454] conv1 <- data
I0521 22:03:28.591159 10174 net.cpp:411] conv1 -> conv1
I0521 22:03:28.955946 10174 net.cpp:150] Setting up conv1
I0521 22:03:28.955988 10174 net.cpp:157] Top shape: 20 12 120 48 (1382400)
I0521 22:03:28.955999 10174 net.cpp:165] Memory required for data: 6037680
I0521 22:03:28.956027 10174 layer_factory.hpp:77] Creating layer relu1
I0521 22:03:28.956049 10174 net.cpp:106] Creating Layer relu1
I0521 22:03:28.956061 10174 net.cpp:454] relu1 <- conv1
I0521 22:03:28.956074 10174 net.cpp:397] relu1 -> conv1 (in-place)
I0521 22:03:28.956591 10174 net.cpp:150] Setting up relu1
I0521 22:03:28.956609 10174 net.cpp:157] Top shape: 20 12 120 48 (1382400)
I0521 22:03:28.956619 10174 net.cpp:165] Memory required for data: 11567280
I0521 22:03:28.956629 10174 layer_factory.hpp:77] Creating layer pool1
I0521 22:03:28.956645 10174 net.cpp:106] Creating Layer pool1
I0521 22:03:28.956655 10174 net.cpp:454] pool1 <- conv1
I0521 22:03:28.956667 10174 net.cpp:411] pool1 -> pool1
I0521 22:03:28.956746 10174 net.cpp:150] Setting up pool1
I0521 22:03:28.956760 10174 net.cpp:157] Top shape: 20 12 60 48 (691200)
I0521 22:03:28.956770 10174 net.cpp:165] Memory required for data: 14332080
I0521 22:03:28.956780 10174 layer_factory.hpp:77] Creating layer conv2
I0521 22:03:28.956801 10174 net.cpp:106] Creating Layer conv2
I0521 22:03:28.956812 10174 net.cpp:454] conv2 <- pool1
I0521 22:03:28.956825 10174 net.cpp:411] conv2 -> conv2
I0521 22:03:28.959529 10174 net.cpp:150] Setting up conv2
I0521 22:03:28.959552 10174 net.cpp:157] Top shape: 20 20 54 46 (993600)
I0521 22:03:28.959563 10174 net.cpp:165] Memory required for data: 18306480
I0521 22:03:28.959581 10174 layer_factory.hpp:77] Creating layer relu2
I0521 22:03:28.959595 10174 net.cpp:106] Creating Layer relu2
I0521 22:03:28.959605 10174 net.cpp:454] relu2 <- conv2
I0521 22:03:28.959619 10174 net.cpp:397] relu2 -> conv2 (in-place)
I0521 22:03:28.959949 10174 net.cpp:150] Setting up relu2
I0521 22:03:28.959964 10174 net.cpp:157] Top shape: 20 20 54 46 (993600)
I0521 22:03:28.959974 10174 net.cpp:165] Memory required for data: 22280880
I0521 22:03:28.959985 10174 layer_factory.hpp:77] Creating layer pool2
I0521 22:03:28.959996 10174 net.cpp:106] Creating Layer pool2
I0521 22:03:28.960006 10174 net.cpp:454] pool2 <- conv2
I0521 22:03:28.960018 10174 net.cpp:411] pool2 -> pool2
I0521 22:03:28.960099 10174 net.cpp:150] Setting up pool2
I0521 22:03:28.960114 10174 net.cpp:157] Top shape: 20 20 27 46 (496800)
I0521 22:03:28.960122 10174 net.cpp:165] Memory required for data: 24268080
I0521 22:03:28.960132 10174 layer_factory.hpp:77] Creating layer conv3
I0521 22:03:28.960150 10174 net.cpp:106] Creating Layer conv3
I0521 22:03:28.960161 10174 net.cpp:454] conv3 <- pool2
I0521 22:03:28.960175 10174 net.cpp:411] conv3 -> conv3
I0521 22:03:28.962123 10174 net.cpp:150] Setting up conv3
I0521 22:03:28.962146 10174 net.cpp:157] Top shape: 20 28 22 44 (542080)
I0521 22:03:28.962159 10174 net.cpp:165] Memory required for data: 26436400
I0521 22:03:28.962177 10174 layer_factory.hpp:77] Creating layer relu3
I0521 22:03:28.962193 10174 net.cpp:106] Creating Layer relu3
I0521 22:03:28.962203 10174 net.cpp:454] relu3 <- conv3
I0521 22:03:28.962216 10174 net.cpp:397] relu3 -> conv3 (in-place)
I0521 22:03:28.962685 10174 net.cpp:150] Setting up relu3
I0521 22:03:28.962702 10174 net.cpp:157] Top shape: 20 28 22 44 (542080)
I0521 22:03:28.962713 10174 net.cpp:165] Memory required for data: 28604720
I0521 22:03:28.962723 10174 layer_factory.hpp:77] Creating layer pool3
I0521 22:03:28.962735 10174 net.cpp:106] Creating Layer pool3
I0521 22:03:28.962744 10174 net.cpp:454] pool3 <- conv3
I0521 22:03:28.962757 10174 net.cpp:411] pool3 -> pool3
I0521 22:03:28.962826 10174 net.cpp:150] Setting up pool3
I0521 22:03:28.962838 10174 net.cpp:157] Top shape: 20 28 11 44 (271040)
I0521 22:03:28.962847 10174 net.cpp:165] Memory required for data: 29688880
I0521 22:03:28.962857 10174 layer_factory.hpp:77] Creating layer conv4
I0521 22:03:28.962874 10174 net.cpp:106] Creating Layer conv4
I0521 22:03:28.962885 10174 net.cpp:454] conv4 <- pool3
I0521 22:03:28.962898 10174 net.cpp:411] conv4 -> conv4
I0521 22:03:28.965636 10174 net.cpp:150] Setting up conv4
I0521 22:03:28.965662 10174 net.cpp:157] Top shape: 20 36 6 42 (181440)
I0521 22:03:28.965673 10174 net.cpp:165] Memory required for data: 30414640
I0521 22:03:28.965689 10174 layer_factory.hpp:77] Creating layer relu4
I0521 22:03:28.965703 10174 net.cpp:106] Creating Layer relu4
I0521 22:03:28.965713 10174 net.cpp:454] relu4 <- conv4
I0521 22:03:28.965726 10174 net.cpp:397] relu4 -> conv4 (in-place)
I0521 22:03:28.966199 10174 net.cpp:150] Setting up relu4
I0521 22:03:28.966217 10174 net.cpp:157] Top shape: 20 36 6 42 (181440)
I0521 22:03:28.966226 10174 net.cpp:165] Memory required for data: 31140400
I0521 22:03:28.966238 10174 layer_factory.hpp:77] Creating layer pool4
I0521 22:03:28.966250 10174 net.cpp:106] Creating Layer pool4
I0521 22:03:28.966260 10174 net.cpp:454] pool4 <- conv4
I0521 22:03:28.966274 10174 net.cpp:411] pool4 -> pool4
I0521 22:03:28.966341 10174 net.cpp:150] Setting up pool4
I0521 22:03:28.966354 10174 net.cpp:157] Top shape: 20 36 3 42 (90720)
I0521 22:03:28.966366 10174 net.cpp:165] Memory required for data: 31503280
I0521 22:03:28.966375 10174 layer_factory.hpp:77] Creating layer ip1
I0521 22:03:28.966397 10174 net.cpp:106] Creating Layer ip1
I0521 22:03:28.966406 10174 net.cpp:454] ip1 <- pool4
I0521 22:03:28.966418 10174 net.cpp:411] ip1 -> ip1
I0521 22:03:28.981874 10174 net.cpp:150] Setting up ip1
I0521 22:03:28.981904 10174 net.cpp:157] Top shape: 20 196 (3920)
I0521 22:03:28.981915 10174 net.cpp:165] Memory required for data: 31518960
I0521 22:03:28.981938 10174 layer_factory.hpp:77] Creating layer relu5
I0521 22:03:28.981953 10174 net.cpp:106] Creating Layer relu5
I0521 22:03:28.981963 10174 net.cpp:454] relu5 <- ip1
I0521 22:03:28.981977 10174 net.cpp:397] relu5 -> ip1 (in-place)
I0521 22:03:28.982321 10174 net.cpp:150] Setting up relu5
I0521 22:03:28.982333 10174 net.cpp:157] Top shape: 20 196 (3920)
I0521 22:03:28.982344 10174 net.cpp:165] Memory required for data: 31534640
I0521 22:03:28.982354 10174 layer_factory.hpp:77] Creating layer drop1
I0521 22:03:28.982377 10174 net.cpp:106] Creating Layer drop1
I0521 22:03:28.982386 10174 net.cpp:454] drop1 <- ip1
I0521 22:03:28.982399 10174 net.cpp:397] drop1 -> ip1 (in-place)
I0521 22:03:28.982457 10174 net.cpp:150] Setting up drop1
I0521 22:03:28.982470 10174 net.cpp:157] Top shape: 20 196 (3920)
I0521 22:03:28.982481 10174 net.cpp:165] Memory required for data: 31550320
I0521 22:03:28.982491 10174 layer_factory.hpp:77] Creating layer ip2
I0521 22:03:28.982508 10174 net.cpp:106] Creating Layer ip2
I0521 22:03:28.982518 10174 net.cpp:454] ip2 <- ip1
I0521 22:03:28.982532 10174 net.cpp:411] ip2 -> ip2
I0521 22:03:28.982992 10174 net.cpp:150] Setting up ip2
I0521 22:03:28.983006 10174 net.cpp:157] Top shape: 20 98 (1960)
I0521 22:03:28.983016 10174 net.cpp:165] Memory required for data: 31558160
I0521 22:03:28.983031 10174 layer_factory.hpp:77] Creating layer relu6
I0521 22:03:28.983043 10174 net.cpp:106] Creating Layer relu6
I0521 22:03:28.983052 10174 net.cpp:454] relu6 <- ip2
I0521 22:03:28.983064 10174 net.cpp:397] relu6 -> ip2 (in-place)
I0521 22:03:28.983580 10174 net.cpp:150] Setting up relu6
I0521 22:03:28.983597 10174 net.cpp:157] Top shape: 20 98 (1960)
I0521 22:03:28.983608 10174 net.cpp:165] Memory required for data: 31566000
I0521 22:03:28.983619 10174 layer_factory.hpp:77] Creating layer drop2
I0521 22:03:28.983633 10174 net.cpp:106] Creating Layer drop2
I0521 22:03:28.983644 10174 net.cpp:454] drop2 <- ip2
I0521 22:03:28.983659 10174 net.cpp:397] drop2 -> ip2 (in-place)
I0521 22:03:28.983701 10174 net.cpp:150] Setting up drop2
I0521 22:03:28.983716 10174 net.cpp:157] Top shape: 20 98 (1960)
I0521 22:03:28.983726 10174 net.cpp:165] Memory required for data: 31573840
I0521 22:03:28.983736 10174 layer_factory.hpp:77] Creating layer ip3
I0521 22:03:28.983749 10174 net.cpp:106] Creating Layer ip3
I0521 22:03:28.983759 10174 net.cpp:454] ip3 <- ip2
I0521 22:03:28.983773 10174 net.cpp:411] ip3 -> ip3
I0521 22:03:28.983983 10174 net.cpp:150] Setting up ip3
I0521 22:03:28.983996 10174 net.cpp:157] Top shape: 20 11 (220)
I0521 22:03:28.984005 10174 net.cpp:165] Memory required for data: 31574720
I0521 22:03:28.984021 10174 layer_factory.hpp:77] Creating layer drop3
I0521 22:03:28.984033 10174 net.cpp:106] Creating Layer drop3
I0521 22:03:28.984043 10174 net.cpp:454] drop3 <- ip3
I0521 22:03:28.984055 10174 net.cpp:397] drop3 -> ip3 (in-place)
I0521 22:03:28.984094 10174 net.cpp:150] Setting up drop3
I0521 22:03:28.984107 10174 net.cpp:157] Top shape: 20 11 (220)
I0521 22:03:28.984118 10174 net.cpp:165] Memory required for data: 31575600
I0521 22:03:28.984128 10174 layer_factory.hpp:77] Creating layer loss
I0521 22:03:28.984146 10174 net.cpp:106] Creating Layer loss
I0521 22:03:28.984156 10174 net.cpp:454] loss <- ip3
I0521 22:03:28.984169 10174 net.cpp:454] loss <- label
I0521 22:03:28.984180 10174 net.cpp:411] loss -> loss
I0521 22:03:28.984197 10174 layer_factory.hpp:77] Creating layer loss
…
I0521 22:03:28.986831 10174 solver.cpp:181] Creating test net (#0) specified by net file: /lustre/atlas/proj-shared/hep105/caffe_titan/caffe_workflow/logs_bslr/bs_20_lr_0.0015_2016-05-20T15.48.54.123639.prototxt
I0521 22:03:28.986902 10174 net.cpp:322] The NetState phase (1) differed from the phase (0) specified by a rule in layer data_hdf5
I0521 22:03:28.987257 10174 net.cpp:49] Initializing net from parameters: 
name: "caffe_test_127x50_x_unshifted"
state {
  phase: TEST
}
layer {
  name: "data_hdf5"
  type: "HDF5Data"
  top: "data"
  top: "label"
  include {
    phase: TEST
  }
  hdf5_data_param {
    source: "/lustre/atlas/proj-shared/hep105/caffe_titan/minosmatch_nukecczdefs_127x50_x_unshifted_me1Bmc.testlist"
    batch_size: 20
  }
}
layer {
  name: "conv1"
  type: "Convolution"
  bottom: "data"
  top: "conv1"
  convolution_param {
    num_output: 12
    pad: 0
    stride: 1
    weight_filler {
      type: "xavier"
    }
    bias_filler {
      type: "constant"
    }
    kernel_h: 8
    kernel_w: 3
  }
}
layer {
  name: "relu1"
  type: "ReLU"
  bottom: "conv1"
  top: "conv1"
}
layer {
  name: "pool1"
  type: "Pooling"
  bottom: "conv1"
  top: "pool1"
  pooling_param {
    pool: MAX
    kernel_h: 2
    kernel_w: 1
    stride_h: 2
    stride_w: 1
  }
}
layer {
  name: "conv2"
  type: "Convolution"
  bottom: "pool1"
  top: "conv2"
  convolution_param {
    num_output: 20
    pad: 0
    stride: 1
    weight_filler {
      type: "xavier"
    }
    bias_filler {
      type: "constant"
    }
    kernel_h: 7
    kernel_w: 3
  }
}
layer {
  name: "relu2"
  type: "ReLU"
  bottom: "conv2"
  top: "conv2"
}
layer {
  name: "pool2"
  type: "Pooling"
  bottom: "conv2"
  top: "pool2"
  pooling_param {
    pool: MAX
    kernel_h: 2
    kernel_w: 1
    stride_h: 2
    stride_w: 1
  }
}
layer {
  name: "conv3"
  type: "Convolution"
  bottom: "pool2"
  top: "conv3"
  convolution_param {
    num_output: 28
    pad: 0
    stride: 1
    weight_filler {
      type: "xavier"
    }
    bias_filler {
      type: "constant"
    }
    kernel_h: 6
    kernel_w: 3
  }
}
layer {
  name: "relu3"
  type: "ReLU"
  bottom: "conv3"
  top: "conv3"
}
layer {
  name: "pool3"
  type: "Pooling"
  bottom: "conv3"
  top: "pool3"
  pooling_param {
    pool: MAX
    kernel_h: 2
    kernel_w: 1
    stride_h: 2
    stride_w: 1
  }
}
layer {
  name: "conv4"
  type: "Convolution"
  bottom: "pool3"
  top: "conv4"
  convolution_param {
    num_output: 36
    pad: 0
    stride: 1
    weight_filler {
      type: "xavier"
    }
    bias_filler {
      type: "constant"
    }
    kernel_h: 6
    kernel_w: 3
  }
}
layer {
  name: "relu4"
  type: "ReLU"
  bottom: "conv4"
  top: "conv4"
}
layer {
  name: "pool4"
  type: "Pooling"
  bottom: "conv4"
  top: "pool4"
  pooling_param {
    pool: MAX
    kernel_h: 2
    kernel_w: 1
    stride_h: 2
    stride_w: 1
  }
}
layer {
  name: "ip1"
  type: "InnerProduct"
  bottom: "pool4"
  top: "ip1"
  inner_product_param {
    num_output: 196
    weight_filler {
      type: "xavier"
    }
    bias_filler {
      type: "constant"
    }
  }
}
layer {
  name: "relu5"
  type: "ReLU"
  bottom: "ip1"
  top: "ip1"
}
layer {
  name: "drop1"
  type: "Dropout"
  bottom: "ip1"
  top: "ip1"
  dropout_param {
    dropout_ratio: 0.5
  }
}
layer {
  name: "ip2"
  type: "InnerProduct"
  bottom: "ip1"
  top: "ip2"
  inner_product_param {
    num_output: 98
    weight_filler {
      type: "xavier"
    }
    bias_filler {
      type: "constant"
    }
  }
}
layer {
  name: "relu6"
  type: "ReLU"
  bottom: "ip2"
  top: "ip2"
}
layer {
  name: "drop2"
  type: "Dropout"
  bottom: "ip2"
  top: "ip2"
  dropout_param {
    dropout_ratio: 0.5
  }
}
layer {
  name: "ip3"
  type: "InnerProduct"
  bottom: "ip2"
  top: "ip3"
  inner_product_param {
    num_output: 11
    weight_filler {
      type: "xavier"
    }
    bias_filler {
      type: "constant"
    }
  }
}
layer {
  name: "drop3"
  type: "Dropout"
  bottom: "ip3"
  top: "ip3"
  dropout_param {
    dropout_ratio: 0.5
  }
}
layer {
  name: "accuracy"
  type: "Accuracy"
  bottom: "ip3"
  bottom: "label"
  top: "accuracy"
  include {
    phase: TEST
  }
}
layer {
  name: "loss"
  type: "SoftmaxWithLoss"
  bottom: "ip3"
  bottom: "label"
  top: "loss"
}
I0521 22:03:28.987447 10174 layer_factory.hpp:77] Creating layer data_hdf5
I0521 22:03:28.987462 10174 net.cpp:106] Creating Layer data_hdf5
I0521 22:03:28.987474 10174 net.cpp:411] data_hdf5 -> data
I0521 22:03:28.987490 10174 net.cpp:411] data_hdf5 -> label
I0521 22:03:28.987506 10174 hdf5_data_layer.cpp:79] Loading list of HDF5 filenames from: /lustre/atlas/proj-shared/hep105/caffe_titan/minosmatch_nukecczdefs_127x50_x_unshifted_me1Bmc.testlist
I0521 22:03:28.988620 10174 hdf5_data_layer.cpp:93] Number of HDF5 files: 3
I0521 22:03:50.254094 10174 net.cpp:150] Setting up data_hdf5
I0521 22:03:50.254259 10174 net.cpp:157] Top shape: 20 1 127 50 (127000)
I0521 22:03:50.254273 10174 net.cpp:157] Top shape: 20 (20)
I0521 22:03:50.254286 10174 net.cpp:165] Memory required for data: 508080
I0521 22:03:50.254298 10174 layer_factory.hpp:77] Creating layer label_data_hdf5_1_split
I0521 22:03:50.254326 10174 net.cpp:106] Creating Layer label_data_hdf5_1_split
I0521 22:03:50.254338 10174 net.cpp:454] label_data_hdf5_1_split <- label
I0521 22:03:50.254353 10174 net.cpp:411] label_data_hdf5_1_split -> label_data_hdf5_1_split_0
I0521 22:03:50.254374 10174 net.cpp:411] label_data_hdf5_1_split -> label_data_hdf5_1_split_1
I0521 22:03:50.254447 10174 net.cpp:150] Setting up label_data_hdf5_1_split
I0521 22:03:50.254462 10174 net.cpp:157] Top shape: 20 (20)
I0521 22:03:50.254473 10174 net.cpp:157] Top shape: 20 (20)
I0521 22:03:50.254482 10174 net.cpp:165] Memory required for data: 508240
I0521 22:03:50.254493 10174 layer_factory.hpp:77] Creating layer conv1
I0521 22:03:50.254513 10174 net.cpp:106] Creating Layer conv1
I0521 22:03:50.254524 10174 net.cpp:454] conv1 <- data
I0521 22:03:50.254539 10174 net.cpp:411] conv1 -> conv1
I0521 22:03:50.256463 10174 net.cpp:150] Setting up conv1
I0521 22:03:50.256487 10174 net.cpp:157] Top shape: 20 12 120 48 (1382400)
I0521 22:03:50.256499 10174 net.cpp:165] Memory required for data: 6037840
I0521 22:03:50.256520 10174 layer_factory.hpp:77] Creating layer relu1
I0521 22:03:50.256534 10174 net.cpp:106] Creating Layer relu1
I0521 22:03:50.256544 10174 net.cpp:454] relu1 <- conv1
I0521 22:03:50.256556 10174 net.cpp:397] relu1 -> conv1 (in-place)
I0521 22:03:50.257050 10174 net.cpp:150] Setting up relu1
I0521 22:03:50.257066 10174 net.cpp:157] Top shape: 20 12 120 48 (1382400)
I0521 22:03:50.257076 10174 net.cpp:165] Memory required for data: 11567440
I0521 22:03:50.257086 10174 layer_factory.hpp:77] Creating layer pool1
I0521 22:03:50.257103 10174 net.cpp:106] Creating Layer pool1
I0521 22:03:50.257112 10174 net.cpp:454] pool1 <- conv1
I0521 22:03:50.257127 10174 net.cpp:411] pool1 -> pool1
I0521 22:03:50.257200 10174 net.cpp:150] Setting up pool1
I0521 22:03:50.257213 10174 net.cpp:157] Top shape: 20 12 60 48 (691200)
I0521 22:03:50.257223 10174 net.cpp:165] Memory required for data: 14332240
I0521 22:03:50.257233 10174 layer_factory.hpp:77] Creating layer conv2
I0521 22:03:50.257251 10174 net.cpp:106] Creating Layer conv2
I0521 22:03:50.257261 10174 net.cpp:454] conv2 <- pool1
I0521 22:03:50.257275 10174 net.cpp:411] conv2 -> conv2
I0521 22:03:50.259194 10174 net.cpp:150] Setting up conv2
I0521 22:03:50.259217 10174 net.cpp:157] Top shape: 20 20 54 46 (993600)
I0521 22:03:50.259229 10174 net.cpp:165] Memory required for data: 18306640
I0521 22:03:50.259248 10174 layer_factory.hpp:77] Creating layer relu2
I0521 22:03:50.259261 10174 net.cpp:106] Creating Layer relu2
I0521 22:03:50.259271 10174 net.cpp:454] relu2 <- conv2
I0521 22:03:50.259284 10174 net.cpp:397] relu2 -> conv2 (in-place)
I0521 22:03:50.259618 10174 net.cpp:150] Setting up relu2
I0521 22:03:50.259631 10174 net.cpp:157] Top shape: 20 20 54 46 (993600)
I0521 22:03:50.259642 10174 net.cpp:165] Memory required for data: 22281040
I0521 22:03:50.259651 10174 layer_factory.hpp:77] Creating layer pool2
I0521 22:03:50.259662 10174 net.cpp:106] Creating Layer pool2
I0521 22:03:50.259675 10174 net.cpp:454] pool2 <- conv2
I0521 22:03:50.259686 10174 net.cpp:411] pool2 -> pool2
I0521 22:03:50.259758 10174 net.cpp:150] Setting up pool2
I0521 22:03:50.259771 10174 net.cpp:157] Top shape: 20 20 27 46 (496800)
I0521 22:03:50.259781 10174 net.cpp:165] Memory required for data: 24268240
I0521 22:03:50.259791 10174 layer_factory.hpp:77] Creating layer conv3
I0521 22:03:50.259811 10174 net.cpp:106] Creating Layer conv3
I0521 22:03:50.259821 10174 net.cpp:454] conv3 <- pool2
I0521 22:03:50.259836 10174 net.cpp:411] conv3 -> conv3
I0521 22:03:50.261814 10174 net.cpp:150] Setting up conv3
I0521 22:03:50.261837 10174 net.cpp:157] Top shape: 20 28 22 44 (542080)
I0521 22:03:50.261849 10174 net.cpp:165] Memory required for data: 26436560
I0521 22:03:50.261868 10174 layer_factory.hpp:77] Creating layer relu3
I0521 22:03:50.261894 10174 net.cpp:106] Creating Layer relu3
I0521 22:03:50.261904 10174 net.cpp:454] relu3 <- conv3
I0521 22:03:50.261919 10174 net.cpp:397] relu3 -> conv3 (in-place)
I0521 22:03:50.262390 10174 net.cpp:150] Setting up relu3
I0521 22:03:50.262406 10174 net.cpp:157] Top shape: 20 28 22 44 (542080)
I0521 22:03:50.262416 10174 net.cpp:165] Memory required for data: 28604880
I0521 22:03:50.262428 10174 layer_factory.hpp:77] Creating layer pool3
I0521 22:03:50.262440 10174 net.cpp:106] Creating Layer pool3
I0521 22:03:50.262450 10174 net.cpp:454] pool3 <- conv3
I0521 22:03:50.262464 10174 net.cpp:411] pool3 -> pool3
I0521 22:03:50.262534 10174 net.cpp:150] Setting up pool3
I0521 22:03:50.262548 10174 net.cpp:157] Top shape: 20 28 11 44 (271040)
I0521 22:03:50.262557 10174 net.cpp:165] Memory required for data: 29689040
I0521 22:03:50.262565 10174 layer_factory.hpp:77] Creating layer conv4
I0521 22:03:50.262583 10174 net.cpp:106] Creating Layer conv4
I0521 22:03:50.262593 10174 net.cpp:454] conv4 <- pool3
I0521 22:03:50.262606 10174 net.cpp:411] conv4 -> conv4
I0521 22:03:50.264649 10174 net.cpp:150] Setting up conv4
I0521 22:03:50.264672 10174 net.cpp:157] Top shape: 20 36 6 42 (181440)
I0521 22:03:50.264685 10174 net.cpp:165] Memory required for data: 30414800
I0521 22:03:50.264699 10174 layer_factory.hpp:77] Creating layer relu4
I0521 22:03:50.264714 10174 net.cpp:106] Creating Layer relu4
I0521 22:03:50.264724 10174 net.cpp:454] relu4 <- conv4
I0521 22:03:50.264736 10174 net.cpp:397] relu4 -> conv4 (in-place)
I0521 22:03:50.265208 10174 net.cpp:150] Setting up relu4
I0521 22:03:50.265223 10174 net.cpp:157] Top shape: 20 36 6 42 (181440)
I0521 22:03:50.265234 10174 net.cpp:165] Memory required for data: 31140560
I0521 22:03:50.265244 10174 layer_factory.hpp:77] Creating layer pool4
I0521 22:03:50.265257 10174 net.cpp:106] Creating Layer pool4
I0521 22:03:50.265267 10174 net.cpp:454] pool4 <- conv4
I0521 22:03:50.265280 10174 net.cpp:411] pool4 -> pool4
I0521 22:03:50.265352 10174 net.cpp:150] Setting up pool4
I0521 22:03:50.265367 10174 net.cpp:157] Top shape: 20 36 3 42 (90720)
I0521 22:03:50.265375 10174 net.cpp:165] Memory required for data: 31503440
I0521 22:03:50.265383 10174 layer_factory.hpp:77] Creating layer ip1
I0521 22:03:50.265399 10174 net.cpp:106] Creating Layer ip1
I0521 22:03:50.265410 10174 net.cpp:454] ip1 <- pool4
I0521 22:03:50.265424 10174 net.cpp:411] ip1 -> ip1
I0521 22:03:50.280947 10174 net.cpp:150] Setting up ip1
I0521 22:03:50.280977 10174 net.cpp:157] Top shape: 20 196 (3920)
I0521 22:03:50.280992 10174 net.cpp:165] Memory required for data: 31519120
I0521 22:03:50.281015 10174 layer_factory.hpp:77] Creating layer relu5
I0521 22:03:50.281030 10174 net.cpp:106] Creating Layer relu5
I0521 22:03:50.281040 10174 net.cpp:454] relu5 <- ip1
I0521 22:03:50.281054 10174 net.cpp:397] relu5 -> ip1 (in-place)
I0521 22:03:50.281399 10174 net.cpp:150] Setting up relu5
I0521 22:03:50.281414 10174 net.cpp:157] Top shape: 20 196 (3920)
I0521 22:03:50.281424 10174 net.cpp:165] Memory required for data: 31534800
I0521 22:03:50.281435 10174 layer_factory.hpp:77] Creating layer drop1
I0521 22:03:50.281455 10174 net.cpp:106] Creating Layer drop1
I0521 22:03:50.281464 10174 net.cpp:454] drop1 <- ip1
I0521 22:03:50.281477 10174 net.cpp:397] drop1 -> ip1 (in-place)
I0521 22:03:50.281522 10174 net.cpp:150] Setting up drop1
I0521 22:03:50.281535 10174 net.cpp:157] Top shape: 20 196 (3920)
I0521 22:03:50.281545 10174 net.cpp:165] Memory required for data: 31550480
I0521 22:03:50.281554 10174 layer_factory.hpp:77] Creating layer ip2
I0521 22:03:50.281569 10174 net.cpp:106] Creating Layer ip2
I0521 22:03:50.281579 10174 net.cpp:454] ip2 <- ip1
I0521 22:03:50.281592 10174 net.cpp:411] ip2 -> ip2
I0521 22:03:50.282076 10174 net.cpp:150] Setting up ip2
I0521 22:03:50.282090 10174 net.cpp:157] Top shape: 20 98 (1960)
I0521 22:03:50.282100 10174 net.cpp:165] Memory required for data: 31558320
I0521 22:03:50.282115 10174 layer_factory.hpp:77] Creating layer relu6
I0521 22:03:50.282140 10174 net.cpp:106] Creating Layer relu6
I0521 22:03:50.282150 10174 net.cpp:454] relu6 <- ip2
I0521 22:03:50.282163 10174 net.cpp:397] relu6 -> ip2 (in-place)
I0521 22:03:50.282691 10174 net.cpp:150] Setting up relu6
I0521 22:03:50.282706 10174 net.cpp:157] Top shape: 20 98 (1960)
I0521 22:03:50.282717 10174 net.cpp:165] Memory required for data: 31566160
I0521 22:03:50.282727 10174 layer_factory.hpp:77] Creating layer drop2
I0521 22:03:50.282739 10174 net.cpp:106] Creating Layer drop2
I0521 22:03:50.282750 10174 net.cpp:454] drop2 <- ip2
I0521 22:03:50.282763 10174 net.cpp:397] drop2 -> ip2 (in-place)
I0521 22:03:50.282807 10174 net.cpp:150] Setting up drop2
I0521 22:03:50.282820 10174 net.cpp:157] Top shape: 20 98 (1960)
I0521 22:03:50.282831 10174 net.cpp:165] Memory required for data: 31574000
I0521 22:03:50.282841 10174 layer_factory.hpp:77] Creating layer ip3
I0521 22:03:50.282855 10174 net.cpp:106] Creating Layer ip3
I0521 22:03:50.282866 10174 net.cpp:454] ip3 <- ip2
I0521 22:03:50.282879 10174 net.cpp:411] ip3 -> ip3
I0521 22:03:50.283104 10174 net.cpp:150] Setting up ip3
I0521 22:03:50.283118 10174 net.cpp:157] Top shape: 20 11 (220)
I0521 22:03:50.283128 10174 net.cpp:165] Memory required for data: 31574880
I0521 22:03:50.283143 10174 layer_factory.hpp:77] Creating layer drop3
I0521 22:03:50.283156 10174 net.cpp:106] Creating Layer drop3
I0521 22:03:50.283166 10174 net.cpp:454] drop3 <- ip3
I0521 22:03:50.283179 10174 net.cpp:397] drop3 -> ip3 (in-place)
I0521 22:03:50.283220 10174 net.cpp:150] Setting up drop3
I0521 22:03:50.283232 10174 net.cpp:157] Top shape: 20 11 (220)
I0521 22:03:50.283242 10174 net.cpp:165] Memory required for data: 31575760
I0521 22:03:50.283252 10174 layer_factory.hpp:77] Creating layer ip3_drop3_0_split
I0521 22:03:50.283265 10174 net.cpp:106] Creating Layer ip3_drop3_0_split
I0521 22:03:50.283275 10174 net.cpp:454] ip3_drop3_0_split <- ip3
I0521 22:03:50.283285 10174 net.cpp:411] ip3_drop3_0_split -> ip3_drop3_0_split_0
I0521 22:03:50.283300 10174 net.cpp:411] ip3_drop3_0_split -> ip3_drop3_0_split_1
I0521 22:03:50.283373 10174 net.cpp:150] Setting up ip3_drop3_0_split
I0521 22:03:50.283386 10174 net.cpp:157] Top shape: 20 11 (220)
I0521 22:03:50.283398 10174 net.cpp:157] Top shape: 20 11 (220)
I0521 22:03:50.283408 10174 net.cpp:165] Memory required for data: 31577520
I0521 22:03:50.283417 10174 layer_factory.hpp:77] Creating layer accuracy
I0521 22:03:50.283439 10174 net.cpp:106] Creating Layer accuracy
I0521 22:03:50.283449 10174 net.cpp:454] accuracy <- ip3_drop3_0_split_0
I0521 22:03:50.283462 10174 net.cpp:454] accuracy <- label_data_hdf5_1_split_0
I0521 22:03:50.283475 10174 net.cpp:411] accuracy -> accuracy
…
