…
I0526 19:37:44.651520   912 net.cpp:322] The NetState phase (0) differed from the phase (1) specified by a rule in layer data_hdf5
I0526 19:37:44.651582   912 net.cpp:322] The NetState phase (0) differed from the phase (1) specified by a rule in layer accuracy
I0526 19:37:44.651969   912 net.cpp:49] Initializing net from parameters: 
name: "caffe_test_127x50_x_unshifted"
state {
  phase: TRAIN
}
layer {
  name: "data_hdf5"
  type: "HDF5Data"
  top: "data"
  top: "label"
  include {
    phase: TRAIN
  }
  hdf5_data_param {
    source: "/lustre/atlas/proj-shared/hep105/caffe_titan/minosmatch_nukecczdefs_127x50_x_unshifted_me1Bmc.trainlist"
    batch_size: 20
  }
}
layer {
  name: "conv1"
  type: "Convolution"
  bottom: "data"
  top: "conv1"
  convolution_param {
    num_output: 12
    pad: 0
    stride: 1
    weight_filler {
      type: "xavier"
    }
    bias_filler {
      type: "constant"
    }
    kernel_h: 8
    kernel_w: 3
  }
}
layer {
  name: "relu1"
  type: "ReLU"
  bottom: "conv1"
  top: "conv1"
}
layer {
  name: "pool1"
  type: "Pooling"
  bottom: "conv1"
  top: "pool1"
  pooling_param {
    pool: MAX
    kernel_h: 2
    kernel_w: 1
    stride_h: 2
    stride_w: 1
  }
}
layer {
  name: "conv2"
  type: "Convolution"
  bottom: "pool1"
  top: "conv2"
  convolution_param {
    num_output: 20
    pad: 0
    stride: 1
    weight_filler {
      type: "xavier"
    }
    bias_filler {
      type: "constant"
    }
    kernel_h: 7
    kernel_w: 3
  }
}
layer {
  name: "relu2"
  type: "ReLU"
  bottom: "conv2"
  top: "conv2"
}
layer {
  name: "pool2"
  type: "Pooling"
  bottom: "conv2"
  top: "pool2"
  pooling_param {
    pool: MAX
    kernel_h: 2
    kernel_w: 1
    stride_h: 2
    stride_w: 1
  }
}
layer {
  name: "conv3"
  type: "Convolution"
  bottom: "pool2"
  top: "conv3"
  convolution_param {
    num_output: 28
    pad: 0
    stride: 1
    weight_filler {
      type: "xavier"
    }
    bias_filler {
      type: "constant"
    }
    kernel_h: 6
    kernel_w: 3
  }
}
layer {
  name: "relu3"
  type: "ReLU"
  bottom: "conv3"
  top: "conv3"
}
layer {
  name: "pool3"
  type: "Pooling"
  bottom: "conv3"
  top: "pool3"
  pooling_param {
    pool: MAX
    kernel_h: 2
    kernel_w: 1
    stride_h: 2
    stride_w: 1
  }
}
layer {
  name: "conv4"
  type: "Convolution"
  bottom: "pool3"
  top: "conv4"
  convolution_param {
    num_output: 36
    pad: 0
    stride: 1
    weight_filler {
      type: "xavier"
    }
    bias_filler {
      type: "constant"
    }
    kernel_h: 6
    kernel_w: 3
  }
}
layer {
  name: "relu4"
  type: "ReLU"
  bottom: "conv4"
  top: "conv4"
}
layer {
  name: "pool4"
  type: "Pooling"
  bottom: "conv4"
  top: "pool4"
  pooling_param {
    pool: MAX
    kernel_h: 2
    kernel_w: 1
    stride_h: 2
    stride_w: 1
  }
}
layer {
  name: "ip1"
  type: "InnerProduct"
  bottom: "pool4"
  top: "ip1"
  inner_product_param {
    num_output: 196
    weight_filler {
      type: "xavier"
    }
    bias_filler {
      type: "constant"
    }
  }
}
layer {
  name: "relu5"
  type: "ReLU"
  bottom: "ip1"
  top: "ip1"
}
layer {
  name: "drop1"
  type: "Dropout"
  bottom: "ip1"
  top: "ip1"
  dropout_param {
    dropout_ratio: 0.5
  }
}
layer {
  name: "ip2"
  type: "InnerProduct"
  bottom: "ip1"
  top: "ip2"
  inner_product_param {
    num_output: 98
    weight_filler {
      type: "xavier"
    }
    bias_filler {
      type: "constant"
    }
  }
}
layer {
  name: "relu6"
  type: "ReLU"
  bottom: "ip2"
  top: "ip2"
}
layer {
  name: "drop2"
  type: "Dropout"
  bottom: "ip2"
  top: "ip2"
  dropout_param {
    dropout_ratio: 0.5
  }
}
layer {
  name: "ip3"
  type: "InnerProduct"
  bottom: "ip2"
  top: "ip3"
  inner_product_param {
    num_output: 11
    weight_filler {
      type: "xavier"
    }
    bias_filler {
      type: "constant"
    }
  }
}
layer {
  name: "drop3"
  type: "Dropout"
  bottom: "ip3"
  top: "ip3"
  dropout_param {
    dropout_ratio: 0.5
  }
}
layer {
  name: "loss"
  type: "SoftmaxWithLoss"
  bottom: "ip3"
  bottom: "label"
  top: "loss"
}
I0526 19:37:44.652175   912 layer_factory.hpp:77] Creating layer data_hdf5
I0526 19:37:44.652202   912 net.cpp:106] Creating Layer data_hdf5
I0526 19:37:44.652228   912 net.cpp:411] data_hdf5 -> data
I0526 19:37:44.652262   912 net.cpp:411] data_hdf5 -> label
I0526 19:37:44.652299   912 hdf5_data_layer.cpp:79] Loading list of HDF5 filenames from: /lustre/atlas/proj-shared/hep105/caffe_titan/minosmatch_nukecczdefs_127x50_x_unshifted_me1Bmc.trainlist
I0526 19:37:44.661784   912 hdf5_data_layer.cpp:93] Number of HDF5 files: 15
I0526 19:37:44.664090   912 hdf5.cpp:32] Datatype class: H5T_FLOAT
I0526 19:38:06.228543   912 hdf5.cpp:35] Datatype class: H5T_INTEGER
I0526 19:38:06.233723   912 net.cpp:150] Setting up data_hdf5
I0526 19:38:06.233764   912 net.cpp:157] Top shape: 20 1 127 50 (127000)
I0526 19:38:06.233783   912 net.cpp:157] Top shape: 20 (20)
I0526 19:38:06.233794   912 net.cpp:165] Memory required for data: 508080
I0526 19:38:06.233814   912 layer_factory.hpp:77] Creating layer conv1
I0526 19:38:06.233860   912 net.cpp:106] Creating Layer conv1
I0526 19:38:06.233875   912 net.cpp:454] conv1 <- data
I0526 19:38:06.233899   912 net.cpp:411] conv1 -> conv1
I0526 19:38:07.233710   912 net.cpp:150] Setting up conv1
I0526 19:38:07.233764   912 net.cpp:157] Top shape: 20 12 120 48 (1382400)
I0526 19:38:07.233789   912 net.cpp:165] Memory required for data: 6037680
I0526 19:38:07.233820   912 layer_factory.hpp:77] Creating layer relu1
I0526 19:38:07.233844   912 net.cpp:106] Creating Layer relu1
I0526 19:38:07.233863   912 net.cpp:454] relu1 <- conv1
I0526 19:38:07.233901   912 net.cpp:397] relu1 -> conv1 (in-place)
I0526 19:38:07.234431   912 net.cpp:150] Setting up relu1
I0526 19:38:07.234455   912 net.cpp:157] Top shape: 20 12 120 48 (1382400)
I0526 19:38:07.234468   912 net.cpp:165] Memory required for data: 11567280
I0526 19:38:07.234485   912 layer_factory.hpp:77] Creating layer pool1
I0526 19:38:07.234513   912 net.cpp:106] Creating Layer pool1
I0526 19:38:07.234525   912 net.cpp:454] pool1 <- conv1
I0526 19:38:07.234542   912 net.cpp:411] pool1 -> pool1
I0526 19:38:07.234635   912 net.cpp:150] Setting up pool1
I0526 19:38:07.234653   912 net.cpp:157] Top shape: 20 12 60 48 (691200)
I0526 19:38:07.234674   912 net.cpp:165] Memory required for data: 14332080
I0526 19:38:07.234689   912 layer_factory.hpp:77] Creating layer conv2
I0526 19:38:07.234714   912 net.cpp:106] Creating Layer conv2
I0526 19:38:07.234727   912 net.cpp:454] conv2 <- pool1
I0526 19:38:07.234746   912 net.cpp:411] conv2 -> conv2
I0526 19:38:07.237463   912 net.cpp:150] Setting up conv2
I0526 19:38:07.237498   912 net.cpp:157] Top shape: 20 20 54 46 (993600)
I0526 19:38:07.237511   912 net.cpp:165] Memory required for data: 18306480
I0526 19:38:07.237540   912 layer_factory.hpp:77] Creating layer relu2
I0526 19:38:07.237567   912 net.cpp:106] Creating Layer relu2
I0526 19:38:07.237581   912 net.cpp:454] relu2 <- conv2
I0526 19:38:07.237597   912 net.cpp:397] relu2 -> conv2 (in-place)
I0526 19:38:07.237954   912 net.cpp:150] Setting up relu2
I0526 19:38:07.237974   912 net.cpp:157] Top shape: 20 20 54 46 (993600)
I0526 19:38:07.237987   912 net.cpp:165] Memory required for data: 22280880
I0526 19:38:07.237999   912 layer_factory.hpp:77] Creating layer pool2
I0526 19:38:07.238026   912 net.cpp:106] Creating Layer pool2
I0526 19:38:07.238039   912 net.cpp:454] pool2 <- conv2
I0526 19:38:07.238055   912 net.cpp:411] pool2 -> pool2
I0526 19:38:07.238152   912 net.cpp:150] Setting up pool2
I0526 19:38:07.238168   912 net.cpp:157] Top shape: 20 20 27 46 (496800)
I0526 19:38:07.238183   912 net.cpp:165] Memory required for data: 24268080
I0526 19:38:07.238204   912 layer_factory.hpp:77] Creating layer conv3
I0526 19:38:07.238224   912 net.cpp:106] Creating Layer conv3
I0526 19:38:07.238245   912 net.cpp:454] conv3 <- pool2
I0526 19:38:07.238262   912 net.cpp:411] conv3 -> conv3
I0526 19:38:07.240239   912 net.cpp:150] Setting up conv3
I0526 19:38:07.240265   912 net.cpp:157] Top shape: 20 28 22 44 (542080)
I0526 19:38:07.240278   912 net.cpp:165] Memory required for data: 26436400
I0526 19:38:07.240305   912 layer_factory.hpp:77] Creating layer relu3
I0526 19:38:07.240334   912 net.cpp:106] Creating Layer relu3
I0526 19:38:07.240347   912 net.cpp:454] relu3 <- conv3
I0526 19:38:07.240363   912 net.cpp:397] relu3 -> conv3 (in-place)
I0526 19:38:07.240861   912 net.cpp:150] Setting up relu3
I0526 19:38:07.240885   912 net.cpp:157] Top shape: 20 28 22 44 (542080)
I0526 19:38:07.240898   912 net.cpp:165] Memory required for data: 28604720
I0526 19:38:07.240914   912 layer_factory.hpp:77] Creating layer pool3
I0526 19:38:07.240931   912 net.cpp:106] Creating Layer pool3
I0526 19:38:07.240952   912 net.cpp:454] pool3 <- conv3
I0526 19:38:07.240967   912 net.cpp:411] pool3 -> pool3
I0526 19:38:07.241050   912 net.cpp:150] Setting up pool3
I0526 19:38:07.241073   912 net.cpp:157] Top shape: 20 28 11 44 (271040)
I0526 19:38:07.241086   912 net.cpp:165] Memory required for data: 29688880
I0526 19:38:07.241101   912 layer_factory.hpp:77] Creating layer conv4
I0526 19:38:07.241127   912 net.cpp:106] Creating Layer conv4
I0526 19:38:07.241142   912 net.cpp:454] conv4 <- pool3
I0526 19:38:07.241158   912 net.cpp:411] conv4 -> conv4
I0526 19:38:07.243911   912 net.cpp:150] Setting up conv4
I0526 19:38:07.243942   912 net.cpp:157] Top shape: 20 36 6 42 (181440)
I0526 19:38:07.243957   912 net.cpp:165] Memory required for data: 30414640
I0526 19:38:07.243976   912 layer_factory.hpp:77] Creating layer relu4
I0526 19:38:07.243998   912 net.cpp:106] Creating Layer relu4
I0526 19:38:07.244022   912 net.cpp:454] relu4 <- conv4
I0526 19:38:07.244040   912 net.cpp:397] relu4 -> conv4 (in-place)
I0526 19:38:07.244532   912 net.cpp:150] Setting up relu4
I0526 19:38:07.244555   912 net.cpp:157] Top shape: 20 36 6 42 (181440)
I0526 19:38:07.244568   912 net.cpp:165] Memory required for data: 31140400
I0526 19:38:07.244585   912 layer_factory.hpp:77] Creating layer pool4
I0526 19:38:07.244601   912 net.cpp:106] Creating Layer pool4
I0526 19:38:07.244622   912 net.cpp:454] pool4 <- conv4
I0526 19:38:07.244638   912 net.cpp:411] pool4 -> pool4
I0526 19:38:07.244721   912 net.cpp:150] Setting up pool4
I0526 19:38:07.244746   912 net.cpp:157] Top shape: 20 36 3 42 (90720)
I0526 19:38:07.244760   912 net.cpp:165] Memory required for data: 31503280
I0526 19:38:07.244774   912 layer_factory.hpp:77] Creating layer ip1
I0526 19:38:07.244802   912 net.cpp:106] Creating Layer ip1
I0526 19:38:07.244817   912 net.cpp:454] ip1 <- pool4
I0526 19:38:07.244832   912 net.cpp:411] ip1 -> ip1
I0526 19:38:07.260316   912 net.cpp:150] Setting up ip1
I0526 19:38:07.260349   912 net.cpp:157] Top shape: 20 196 (3920)
I0526 19:38:07.260365   912 net.cpp:165] Memory required for data: 31518960
I0526 19:38:07.260396   912 layer_factory.hpp:77] Creating layer relu5
I0526 19:38:07.260424   912 net.cpp:106] Creating Layer relu5
I0526 19:38:07.260438   912 net.cpp:454] relu5 <- ip1
I0526 19:38:07.260454   912 net.cpp:397] relu5 -> ip1 (in-place)
I0526 19:38:07.260823   912 net.cpp:150] Setting up relu5
I0526 19:38:07.260844   912 net.cpp:157] Top shape: 20 196 (3920)
I0526 19:38:07.260857   912 net.cpp:165] Memory required for data: 31534640
I0526 19:38:07.260872   912 layer_factory.hpp:77] Creating layer drop1
I0526 19:38:07.260903   912 net.cpp:106] Creating Layer drop1
I0526 19:38:07.260917   912 net.cpp:454] drop1 <- ip1
I0526 19:38:07.260941   912 net.cpp:397] drop1 -> ip1 (in-place)
I0526 19:38:07.261014   912 net.cpp:150] Setting up drop1
I0526 19:38:07.261031   912 net.cpp:157] Top shape: 20 196 (3920)
I0526 19:38:07.261044   912 net.cpp:165] Memory required for data: 31550320
I0526 19:38:07.261059   912 layer_factory.hpp:77] Creating layer ip2
I0526 19:38:07.261080   912 net.cpp:106] Creating Layer ip2
I0526 19:38:07.261093   912 net.cpp:454] ip2 <- ip1
I0526 19:38:07.261116   912 net.cpp:411] ip2 -> ip2
I0526 19:38:07.261605   912 net.cpp:150] Setting up ip2
I0526 19:38:07.261625   912 net.cpp:157] Top shape: 20 98 (1960)
I0526 19:38:07.261637   912 net.cpp:165] Memory required for data: 31558160
I0526 19:38:07.261657   912 layer_factory.hpp:77] Creating layer relu6
I0526 19:38:07.261680   912 net.cpp:106] Creating Layer relu6
I0526 19:38:07.261693   912 net.cpp:454] relu6 <- ip2
I0526 19:38:07.261709   912 net.cpp:397] relu6 -> ip2 (in-place)
I0526 19:38:07.262256   912 net.cpp:150] Setting up relu6
I0526 19:38:07.262279   912 net.cpp:157] Top shape: 20 98 (1960)
I0526 19:38:07.262293   912 net.cpp:165] Memory required for data: 31566000
I0526 19:38:07.262310   912 layer_factory.hpp:77] Creating layer drop2
I0526 19:38:07.262333   912 net.cpp:106] Creating Layer drop2
I0526 19:38:07.262347   912 net.cpp:454] drop2 <- ip2
I0526 19:38:07.262362   912 net.cpp:397] drop2 -> ip2 (in-place)
I0526 19:38:07.262419   912 net.cpp:150] Setting up drop2
I0526 19:38:07.262435   912 net.cpp:157] Top shape: 20 98 (1960)
I0526 19:38:07.262449   912 net.cpp:165] Memory required for data: 31573840
I0526 19:38:07.262461   912 layer_factory.hpp:77] Creating layer ip3
I0526 19:38:07.262477   912 net.cpp:106] Creating Layer ip3
I0526 19:38:07.262492   912 net.cpp:454] ip3 <- ip2
I0526 19:38:07.262516   912 net.cpp:411] ip3 -> ip3
I0526 19:38:07.262742   912 net.cpp:150] Setting up ip3
I0526 19:38:07.262761   912 net.cpp:157] Top shape: 20 11 (220)
I0526 19:38:07.262773   912 net.cpp:165] Memory required for data: 31574720
I0526 19:38:07.262794   912 layer_factory.hpp:77] Creating layer drop3
I0526 19:38:07.262815   912 net.cpp:106] Creating Layer drop3
I0526 19:38:07.262828   912 net.cpp:454] drop3 <- ip3
I0526 19:38:07.262845   912 net.cpp:397] drop3 -> ip3 (in-place)
I0526 19:38:07.262890   912 net.cpp:150] Setting up drop3
I0526 19:38:07.262913   912 net.cpp:157] Top shape: 20 11 (220)
I0526 19:38:07.262926   912 net.cpp:165] Memory required for data: 31575600
I0526 19:38:07.262944   912 layer_factory.hpp:77] Creating layer loss
I0526 19:38:07.262966   912 net.cpp:106] Creating Layer loss
I0526 19:38:07.262981   912 net.cpp:454] loss <- ip3
I0526 19:38:07.263001   912 net.cpp:454] loss <- label
I0526 19:38:07.263016   912 net.cpp:411] loss -> loss
I0526 19:38:07.263036   912 layer_factory.hpp:77] Creating layer loss
…
I0526 19:38:07.265882   912 solver.cpp:181] Creating test net (#0) specified by net file: /lustre/atlas/proj-shared/hep105/caffe_titan/caffe_workflow/logs_bslr/bs_20_lr_0.0045_2016-05-20T15.48.56.541375.prototxt
I0526 19:38:07.265962   912 net.cpp:322] The NetState phase (1) differed from the phase (0) specified by a rule in layer data_hdf5
I0526 19:38:07.266342   912 net.cpp:49] Initializing net from parameters: 
name: "caffe_test_127x50_x_unshifted"
state {
  phase: TEST
}
layer {
  name: "data_hdf5"
  type: "HDF5Data"
  top: "data"
  top: "label"
  include {
    phase: TEST
  }
  hdf5_data_param {
    source: "/lustre/atlas/proj-shared/hep105/caffe_titan/minosmatch_nukecczdefs_127x50_x_unshifted_me1Bmc.testlist"
    batch_size: 20
  }
}
layer {
  name: "conv1"
  type: "Convolution"
  bottom: "data"
  top: "conv1"
  convolution_param {
    num_output: 12
    pad: 0
    stride: 1
    weight_filler {
      type: "xavier"
    }
    bias_filler {
      type: "constant"
    }
    kernel_h: 8
    kernel_w: 3
  }
}
layer {
  name: "relu1"
  type: "ReLU"
  bottom: "conv1"
  top: "conv1"
}
layer {
  name: "pool1"
  type: "Pooling"
  bottom: "conv1"
  top: "pool1"
  pooling_param {
    pool: MAX
    kernel_h: 2
    kernel_w: 1
    stride_h: 2
    stride_w: 1
  }
}
layer {
  name: "conv2"
  type: "Convolution"
  bottom: "pool1"
  top: "conv2"
  convolution_param {
    num_output: 20
    pad: 0
    stride: 1
    weight_filler {
      type: "xavier"
    }
    bias_filler {
      type: "constant"
    }
    kernel_h: 7
    kernel_w: 3
  }
}
layer {
  name: "relu2"
  type: "ReLU"
  bottom: "conv2"
  top: "conv2"
}
layer {
  name: "pool2"
  type: "Pooling"
  bottom: "conv2"
  top: "pool2"
  pooling_param {
    pool: MAX
    kernel_h: 2
    kernel_w: 1
    stride_h: 2
    stride_w: 1
  }
}
layer {
  name: "conv3"
  type: "Convolution"
  bottom: "pool2"
  top: "conv3"
  convolution_param {
    num_output: 28
    pad: 0
    stride: 1
    weight_filler {
      type: "xavier"
    }
    bias_filler {
      type: "constant"
    }
    kernel_h: 6
    kernel_w: 3
  }
}
layer {
  name: "relu3"
  type: "ReLU"
  bottom: "conv3"
  top: "conv3"
}
layer {
  name: "pool3"
  type: "Pooling"
  bottom: "conv3"
  top: "pool3"
  pooling_param {
    pool: MAX
    kernel_h: 2
    kernel_w: 1
    stride_h: 2
    stride_w: 1
  }
}
layer {
  name: "conv4"
  type: "Convolution"
  bottom: "pool3"
  top: "conv4"
  convolution_param {
    num_output: 36
    pad: 0
    stride: 1
    weight_filler {
      type: "xavier"
    }
    bias_filler {
      type: "constant"
    }
    kernel_h: 6
    kernel_w: 3
  }
}
layer {
  name: "relu4"
  type: "ReLU"
  bottom: "conv4"
  top: "conv4"
}
layer {
  name: "pool4"
  type: "Pooling"
  bottom: "conv4"
  top: "pool4"
  pooling_param {
    pool: MAX
    kernel_h: 2
    kernel_w: 1
    stride_h: 2
    stride_w: 1
  }
}
layer {
  name: "ip1"
  type: "InnerProduct"
  bottom: "pool4"
  top: "ip1"
  inner_product_param {
    num_output: 196
    weight_filler {
      type: "xavier"
    }
    bias_filler {
      type: "constant"
    }
  }
}
layer {
  name: "relu5"
  type: "ReLU"
  bottom: "ip1"
  top: "ip1"
}
layer {
  name: "drop1"
  type: "Dropout"
  bottom: "ip1"
  top: "ip1"
  dropout_param {
    dropout_ratio: 0.5
  }
}
layer {
  name: "ip2"
  type: "InnerProduct"
  bottom: "ip1"
  top: "ip2"
  inner_product_param {
    num_output: 98
    weight_filler {
      type: "xavier"
    }
    bias_filler {
      type: "constant"
    }
  }
}
layer {
  name: "relu6"
  type: "ReLU"
  bottom: "ip2"
  top: "ip2"
}
layer {
  name: "drop2"
  type: "Dropout"
  bottom: "ip2"
  top: "ip2"
  dropout_param {
    dropout_ratio: 0.5
  }
}
layer {
  name: "ip3"
  type: "InnerProduct"
  bottom: "ip2"
  top: "ip3"
  inner_product_param {
    num_output: 11
    weight_filler {
      type: "xavier"
    }
    bias_filler {
      type: "constant"
    }
  }
}
layer {
  name: "drop3"
  type: "Dropout"
  bottom: "ip3"
  top: "ip3"
  dropout_param {
    dropout_ratio: 0.5
  }
}
layer {
  name: "accuracy"
  type: "Accuracy"
  bottom: "ip3"
  bottom: "label"
  top: "accuracy"
  include {
    phase: TEST
  }
}
layer {
  name: "loss"
  type: "SoftmaxWithLoss"
  bottom: "ip3"
  bottom: "label"
  top: "loss"
}
I0526 19:38:07.266564   912 layer_factory.hpp:77] Creating layer data_hdf5
I0526 19:38:07.266584   912 net.cpp:106] Creating Layer data_hdf5
I0526 19:38:07.266600   912 net.cpp:411] data_hdf5 -> data
I0526 19:38:07.266620   912 net.cpp:411] data_hdf5 -> label
I0526 19:38:07.266641   912 hdf5_data_layer.cpp:79] Loading list of HDF5 filenames from: /lustre/atlas/proj-shared/hep105/caffe_titan/minosmatch_nukecczdefs_127x50_x_unshifted_me1Bmc.testlist
I0526 19:38:07.268008   912 hdf5_data_layer.cpp:93] Number of HDF5 files: 3
I0526 19:38:28.687718   912 net.cpp:150] Setting up data_hdf5
I0526 19:38:28.687901   912 net.cpp:157] Top shape: 20 1 127 50 (127000)
I0526 19:38:28.687918   912 net.cpp:157] Top shape: 20 (20)
I0526 19:38:28.687932   912 net.cpp:165] Memory required for data: 508080
I0526 19:38:28.687947   912 layer_factory.hpp:77] Creating layer label_data_hdf5_1_split
I0526 19:38:28.687980   912 net.cpp:106] Creating Layer label_data_hdf5_1_split
I0526 19:38:28.687994   912 net.cpp:454] label_data_hdf5_1_split <- label
I0526 19:38:28.688011   912 net.cpp:411] label_data_hdf5_1_split -> label_data_hdf5_1_split_0
I0526 19:38:28.688053   912 net.cpp:411] label_data_hdf5_1_split -> label_data_hdf5_1_split_1
I0526 19:38:28.688151   912 net.cpp:150] Setting up label_data_hdf5_1_split
I0526 19:38:28.688169   912 net.cpp:157] Top shape: 20 (20)
I0526 19:38:28.688184   912 net.cpp:157] Top shape: 20 (20)
I0526 19:38:28.688197   912 net.cpp:165] Memory required for data: 508240
I0526 19:38:28.688210   912 layer_factory.hpp:77] Creating layer conv1
I0526 19:38:28.688242   912 net.cpp:106] Creating Layer conv1
I0526 19:38:28.688256   912 net.cpp:454] conv1 <- data
I0526 19:38:28.688273   912 net.cpp:411] conv1 -> conv1
I0526 19:38:28.690235   912 net.cpp:150] Setting up conv1
I0526 19:38:28.690261   912 net.cpp:157] Top shape: 20 12 120 48 (1382400)
I0526 19:38:28.690281   912 net.cpp:165] Memory required for data: 6037840
I0526 19:38:28.690305   912 layer_factory.hpp:77] Creating layer relu1
I0526 19:38:28.690327   912 net.cpp:106] Creating Layer relu1
I0526 19:38:28.690351   912 net.cpp:454] relu1 <- conv1
I0526 19:38:28.690366   912 net.cpp:397] relu1 -> conv1 (in-place)
I0526 19:38:28.690886   912 net.cpp:150] Setting up relu1
I0526 19:38:28.690910   912 net.cpp:157] Top shape: 20 12 120 48 (1382400)
I0526 19:38:28.690923   912 net.cpp:165] Memory required for data: 11567440
I0526 19:38:28.690935   912 layer_factory.hpp:77] Creating layer pool1
I0526 19:38:28.690966   912 net.cpp:106] Creating Layer pool1
I0526 19:38:28.690980   912 net.cpp:454] pool1 <- conv1
I0526 19:38:28.690996   912 net.cpp:411] pool1 -> pool1
I0526 19:38:28.691084   912 net.cpp:150] Setting up pool1
I0526 19:38:28.691102   912 net.cpp:157] Top shape: 20 12 60 48 (691200)
I0526 19:38:28.691117   912 net.cpp:165] Memory required for data: 14332240
I0526 19:38:28.691136   912 layer_factory.hpp:77] Creating layer conv2
I0526 19:38:28.691157   912 net.cpp:106] Creating Layer conv2
I0526 19:38:28.691179   912 net.cpp:454] conv2 <- pool1
I0526 19:38:28.691195   912 net.cpp:411] conv2 -> conv2
I0526 19:38:28.693152   912 net.cpp:150] Setting up conv2
I0526 19:38:28.693176   912 net.cpp:157] Top shape: 20 20 54 46 (993600)
I0526 19:38:28.693197   912 net.cpp:165] Memory required for data: 18306640
I0526 19:38:28.693219   912 layer_factory.hpp:77] Creating layer relu2
I0526 19:38:28.693239   912 net.cpp:106] Creating Layer relu2
I0526 19:38:28.693261   912 net.cpp:454] relu2 <- conv2
I0526 19:38:28.693279   912 net.cpp:397] relu2 -> conv2 (in-place)
I0526 19:38:28.693629   912 net.cpp:150] Setting up relu2
I0526 19:38:28.693650   912 net.cpp:157] Top shape: 20 20 54 46 (993600)
I0526 19:38:28.693662   912 net.cpp:165] Memory required for data: 22281040
I0526 19:38:28.693677   912 layer_factory.hpp:77] Creating layer pool2
I0526 19:38:28.693699   912 net.cpp:106] Creating Layer pool2
I0526 19:38:28.693713   912 net.cpp:454] pool2 <- conv2
I0526 19:38:28.693728   912 net.cpp:411] pool2 -> pool2
I0526 19:38:28.693816   912 net.cpp:150] Setting up pool2
I0526 19:38:28.693838   912 net.cpp:157] Top shape: 20 20 27 46 (496800)
I0526 19:38:28.693851   912 net.cpp:165] Memory required for data: 24268240
I0526 19:38:28.693866   912 layer_factory.hpp:77] Creating layer conv3
I0526 19:38:28.693894   912 net.cpp:106] Creating Layer conv3
I0526 19:38:28.693908   912 net.cpp:454] conv3 <- pool2
I0526 19:38:28.693925   912 net.cpp:411] conv3 -> conv3
I0526 19:38:28.695935   912 net.cpp:150] Setting up conv3
I0526 19:38:28.695960   912 net.cpp:157] Top shape: 20 28 22 44 (542080)
I0526 19:38:28.695979   912 net.cpp:165] Memory required for data: 26436560
I0526 19:38:28.696002   912 layer_factory.hpp:77] Creating layer relu3
I0526 19:38:28.696044   912 net.cpp:106] Creating Layer relu3
I0526 19:38:28.696058   912 net.cpp:454] relu3 <- conv3
I0526 19:38:28.696076   912 net.cpp:397] relu3 -> conv3 (in-place)
I0526 19:38:28.696583   912 net.cpp:150] Setting up relu3
I0526 19:38:28.696605   912 net.cpp:157] Top shape: 20 28 22 44 (542080)
I0526 19:38:28.696619   912 net.cpp:165] Memory required for data: 28604880
I0526 19:38:28.696635   912 layer_factory.hpp:77] Creating layer pool3
I0526 19:38:28.696660   912 net.cpp:106] Creating Layer pool3
I0526 19:38:28.696672   912 net.cpp:454] pool3 <- conv3
I0526 19:38:28.696688   912 net.cpp:411] pool3 -> pool3
I0526 19:38:28.696776   912 net.cpp:150] Setting up pool3
I0526 19:38:28.696794   912 net.cpp:157] Top shape: 20 28 11 44 (271040)
I0526 19:38:28.696810   912 net.cpp:165] Memory required for data: 29689040
I0526 19:38:28.696821   912 layer_factory.hpp:77] Creating layer conv4
I0526 19:38:28.696848   912 net.cpp:106] Creating Layer conv4
I0526 19:38:28.696861   912 net.cpp:454] conv4 <- pool3
I0526 19:38:28.696878   912 net.cpp:411] conv4 -> conv4
I0526 19:38:28.698969   912 net.cpp:150] Setting up conv4
I0526 19:38:28.698997   912 net.cpp:157] Top shape: 20 36 6 42 (181440)
I0526 19:38:28.699012   912 net.cpp:165] Memory required for data: 30414800
I0526 19:38:28.699030   912 layer_factory.hpp:77] Creating layer relu4
I0526 19:38:28.699050   912 net.cpp:106] Creating Layer relu4
I0526 19:38:28.699074   912 net.cpp:454] relu4 <- conv4
I0526 19:38:28.699090   912 net.cpp:397] relu4 -> conv4 (in-place)
I0526 19:38:28.699586   912 net.cpp:150] Setting up relu4
I0526 19:38:28.699609   912 net.cpp:157] Top shape: 20 36 6 42 (181440)
I0526 19:38:28.699622   912 net.cpp:165] Memory required for data: 31140560
I0526 19:38:28.699638   912 layer_factory.hpp:77] Creating layer pool4
I0526 19:38:28.699656   912 net.cpp:106] Creating Layer pool4
I0526 19:38:28.699676   912 net.cpp:454] pool4 <- conv4
I0526 19:38:28.699693   912 net.cpp:411] pool4 -> pool4
I0526 19:38:28.699780   912 net.cpp:150] Setting up pool4
I0526 19:38:28.699797   912 net.cpp:157] Top shape: 20 36 3 42 (90720)
I0526 19:38:28.699812   912 net.cpp:165] Memory required for data: 31503440
I0526 19:38:28.699831   912 layer_factory.hpp:77] Creating layer ip1
I0526 19:38:28.699856   912 net.cpp:106] Creating Layer ip1
I0526 19:38:28.699875   912 net.cpp:454] ip1 <- pool4
I0526 19:38:28.699892   912 net.cpp:411] ip1 -> ip1
I0526 19:38:28.715284   912 net.cpp:150] Setting up ip1
I0526 19:38:28.715315   912 net.cpp:157] Top shape: 20 196 (3920)
I0526 19:38:28.715335   912 net.cpp:165] Memory required for data: 31519120
I0526 19:38:28.715363   912 layer_factory.hpp:77] Creating layer relu5
I0526 19:38:28.715384   912 net.cpp:106] Creating Layer relu5
I0526 19:38:28.715409   912 net.cpp:454] relu5 <- ip1
I0526 19:38:28.715426   912 net.cpp:397] relu5 -> ip1 (in-place)
I0526 19:38:28.715791   912 net.cpp:150] Setting up relu5
I0526 19:38:28.715811   912 net.cpp:157] Top shape: 20 196 (3920)
I0526 19:38:28.715831   912 net.cpp:165] Memory required for data: 31534800
I0526 19:38:28.715845   912 layer_factory.hpp:77] Creating layer drop1
I0526 19:38:28.715875   912 net.cpp:106] Creating Layer drop1
I0526 19:38:28.715889   912 net.cpp:454] drop1 <- ip1
I0526 19:38:28.715914   912 net.cpp:397] drop1 -> ip1 (in-place)
I0526 19:38:28.715975   912 net.cpp:150] Setting up drop1
I0526 19:38:28.715991   912 net.cpp:157] Top shape: 20 196 (3920)
I0526 19:38:28.716003   912 net.cpp:165] Memory required for data: 31550480
I0526 19:38:28.716017   912 layer_factory.hpp:77] Creating layer ip2
I0526 19:38:28.716037   912 net.cpp:106] Creating Layer ip2
I0526 19:38:28.716049   912 net.cpp:454] ip2 <- ip1
I0526 19:38:28.716075   912 net.cpp:411] ip2 -> ip2
I0526 19:38:28.716578   912 net.cpp:150] Setting up ip2
I0526 19:38:28.716596   912 net.cpp:157] Top shape: 20 98 (1960)
I0526 19:38:28.716609   912 net.cpp:165] Memory required for data: 31558320
I0526 19:38:28.716630   912 layer_factory.hpp:77] Creating layer relu6
I0526 19:38:28.716665   912 net.cpp:106] Creating Layer relu6
I0526 19:38:28.716678   912 net.cpp:454] relu6 <- ip2
I0526 19:38:28.716694   912 net.cpp:397] relu6 -> ip2 (in-place)
I0526 19:38:28.717255   912 net.cpp:150] Setting up relu6
I0526 19:38:28.717279   912 net.cpp:157] Top shape: 20 98 (1960)
I0526 19:38:28.717293   912 net.cpp:165] Memory required for data: 31566160
I0526 19:38:28.717304   912 layer_factory.hpp:77] Creating layer drop2
I0526 19:38:28.717324   912 net.cpp:106] Creating Layer drop2
I0526 19:38:28.717346   912 net.cpp:454] drop2 <- ip2
I0526 19:38:28.717363   912 net.cpp:397] drop2 -> ip2 (in-place)
I0526 19:38:28.717414   912 net.cpp:150] Setting up drop2
I0526 19:38:28.717437   912 net.cpp:157] Top shape: 20 98 (1960)
I0526 19:38:28.717449   912 net.cpp:165] Memory required for data: 31574000
I0526 19:38:28.717468   912 layer_factory.hpp:77] Creating layer ip3
I0526 19:38:28.717485   912 net.cpp:106] Creating Layer ip3
I0526 19:38:28.717500   912 net.cpp:454] ip3 <- ip2
I0526 19:38:28.717524   912 net.cpp:411] ip3 -> ip3
I0526 19:38:28.717762   912 net.cpp:150] Setting up ip3
I0526 19:38:28.717782   912 net.cpp:157] Top shape: 20 11 (220)
I0526 19:38:28.717794   912 net.cpp:165] Memory required for data: 31574880
I0526 19:38:28.717815   912 layer_factory.hpp:77] Creating layer drop3
I0526 19:38:28.717839   912 net.cpp:106] Creating Layer drop3
I0526 19:38:28.717851   912 net.cpp:454] drop3 <- ip3
I0526 19:38:28.717867   912 net.cpp:397] drop3 -> ip3 (in-place)
I0526 19:38:28.717916   912 net.cpp:150] Setting up drop3
I0526 19:38:28.717938   912 net.cpp:157] Top shape: 20 11 (220)
I0526 19:38:28.717950   912 net.cpp:165] Memory required for data: 31575760
I0526 19:38:28.717968   912 layer_factory.hpp:77] Creating layer ip3_drop3_0_split
I0526 19:38:28.717985   912 net.cpp:106] Creating Layer ip3_drop3_0_split
I0526 19:38:28.718000   912 net.cpp:454] ip3_drop3_0_split <- ip3
I0526 19:38:28.718015   912 net.cpp:411] ip3_drop3_0_split -> ip3_drop3_0_split_0
I0526 19:38:28.718040   912 net.cpp:411] ip3_drop3_0_split -> ip3_drop3_0_split_1
I0526 19:38:28.718127   912 net.cpp:150] Setting up ip3_drop3_0_split
I0526 19:38:28.718145   912 net.cpp:157] Top shape: 20 11 (220)
I0526 19:38:28.718164   912 net.cpp:157] Top shape: 20 11 (220)
I0526 19:38:28.718176   912 net.cpp:165] Memory required for data: 31577520
I0526 19:38:28.718191   912 layer_factory.hpp:77] Creating layer accuracy
I0526 19:38:28.718220   912 net.cpp:106] Creating Layer accuracy
I0526 19:38:28.718233   912 net.cpp:454] accuracy <- ip3_drop3_0_split_0
I0526 19:38:28.718247   912 net.cpp:454] accuracy <- label_data_hdf5_1_split_0
I0526 19:38:28.718264   912 net.cpp:411] accuracy -> accuracy
…
