…
I0522 01:43:16.342450 25646 net.cpp:322] The NetState phase (0) differed from the phase (1) specified by a rule in layer data_hdf5
I0522 01:43:16.342520 25646 net.cpp:322] The NetState phase (0) differed from the phase (1) specified by a rule in layer accuracy
I0522 01:43:16.342897 25646 net.cpp:49] Initializing net from parameters: 
name: "caffe_test_127x50_x_unshifted"
state {
  phase: TRAIN
}
layer {
  name: "data_hdf5"
  type: "HDF5Data"
  top: "data"
  top: "label"
  include {
    phase: TRAIN
  }
  hdf5_data_param {
    source: "/lustre/atlas/proj-shared/hep105/caffe_titan/minosmatch_nukecczdefs_127x50_x_unshifted_me1Bmc.trainlist"
    batch_size: 20
  }
}
layer {
  name: "conv1"
  type: "Convolution"
  bottom: "data"
  top: "conv1"
  convolution_param {
    num_output: 12
    pad: 0
    stride: 1
    weight_filler {
      type: "xavier"
    }
    bias_filler {
      type: "constant"
    }
    kernel_h: 8
    kernel_w: 3
  }
}
layer {
  name: "relu1"
  type: "ReLU"
  bottom: "conv1"
  top: "conv1"
}
layer {
  name: "pool1"
  type: "Pooling"
  bottom: "conv1"
  top: "pool1"
  pooling_param {
    pool: MAX
    kernel_h: 2
    kernel_w: 1
    stride_h: 2
    stride_w: 1
  }
}
layer {
  name: "conv2"
  type: "Convolution"
  bottom: "pool1"
  top: "conv2"
  convolution_param {
    num_output: 20
    pad: 0
    stride: 1
    weight_filler {
      type: "xavier"
    }
    bias_filler {
      type: "constant"
    }
    kernel_h: 7
    kernel_w: 3
  }
}
layer {
  name: "relu2"
  type: "ReLU"
  bottom: "conv2"
  top: "conv2"
}
layer {
  name: "pool2"
  type: "Pooling"
  bottom: "conv2"
  top: "pool2"
  pooling_param {
    pool: MAX
    kernel_h: 2
    kernel_w: 1
    stride_h: 2
    stride_w: 1
  }
}
layer {
  name: "conv3"
  type: "Convolution"
  bottom: "pool2"
  top: "conv3"
  convolution_param {
    num_output: 28
    pad: 0
    stride: 1
    weight_filler {
      type: "xavier"
    }
    bias_filler {
      type: "constant"
    }
    kernel_h: 6
    kernel_w: 3
  }
}
layer {
  name: "relu3"
  type: "ReLU"
  bottom: "conv3"
  top: "conv3"
}
layer {
  name: "pool3"
  type: "Pooling"
  bottom: "conv3"
  top: "pool3"
  pooling_param {
    pool: MAX
    kernel_h: 2
    kernel_w: 1
    stride_h: 2
    stride_w: 1
  }
}
layer {
  name: "conv4"
  type: "Convolution"
  bottom: "pool3"
  top: "conv4"
  convolution_param {
    num_output: 36
    pad: 0
    stride: 1
    weight_filler {
      type: "xavier"
    }
    bias_filler {
      type: "constant"
    }
    kernel_h: 6
    kernel_w: 3
  }
}
layer {
  name: "relu4"
  type: "ReLU"
  bottom: "conv4"
  top: "conv4"
}
layer {
  name: "pool4"
  type: "Pooling"
  bottom: "conv4"
  top: "pool4"
  pooling_param {
    pool: MAX
    kernel_h: 2
    kernel_w: 1
    stride_h: 2
    stride_w: 1
  }
}
layer {
  name: "ip1"
  type: "InnerProduct"
  bottom: "pool4"
  top: "ip1"
  inner_product_param {
    num_output: 196
    weight_filler {
      type: "xavier"
    }
    bias_filler {
      type: "constant"
    }
  }
}
layer {
  name: "relu5"
  type: "ReLU"
  bottom: "ip1"
  top: "ip1"
}
layer {
  name: "drop1"
  type: "Dropout"
  bottom: "ip1"
  top: "ip1"
  dropout_param {
    dropout_ratio: 0.5
  }
}
layer {
  name: "ip2"
  type: "InnerProduct"
  bottom: "ip1"
  top: "ip2"
  inner_product_param {
    num_output: 98
    weight_filler {
      type: "xavier"
    }
    bias_filler {
      type: "constant"
    }
  }
}
layer {
  name: "relu6"
  type: "ReLU"
  bottom: "ip2"
  top: "ip2"
}
layer {
  name: "drop2"
  type: "Dropout"
  bottom: "ip2"
  top: "ip2"
  dropout_param {
    dropout_ratio: 0.5
  }
}
layer {
  name: "ip3"
  type: "InnerProduct"
  bottom: "ip2"
  top: "ip3"
  inner_product_param {
    num_output: 11
    weight_filler {
      type: "xavier"
    }
    bias_filler {
      type: "constant"
    }
  }
}
layer {
  name: "drop3"
  type: "Dropout"
  bottom: "ip3"
  top: "ip3"
  dropout_param {
    dropout_ratio: 0.5
  }
}
layer {
  name: "loss"
  type: "SoftmaxWithLoss"
  bottom: "ip3"
  bottom: "label"
  top: "loss"
}
I0522 01:43:16.343101 25646 layer_factory.hpp:77] Creating layer data_hdf5
I0522 01:43:16.343127 25646 net.cpp:106] Creating Layer data_hdf5
I0522 01:43:16.343155 25646 net.cpp:411] data_hdf5 -> data
I0522 01:43:16.343190 25646 net.cpp:411] data_hdf5 -> label
I0522 01:43:16.343225 25646 hdf5_data_layer.cpp:79] Loading list of HDF5 filenames from: /lustre/atlas/proj-shared/hep105/caffe_titan/minosmatch_nukecczdefs_127x50_x_unshifted_me1Bmc.trainlist
I0522 01:43:16.352568 25646 hdf5_data_layer.cpp:93] Number of HDF5 files: 15
I0522 01:43:16.367849 25646 hdf5.cpp:32] Datatype class: H5T_FLOAT
I0522 01:43:37.891615 25646 hdf5.cpp:35] Datatype class: H5T_INTEGER
I0522 01:43:37.896898 25646 net.cpp:150] Setting up data_hdf5
I0522 01:43:37.896939 25646 net.cpp:157] Top shape: 20 1 127 50 (127000)
I0522 01:43:37.896956 25646 net.cpp:157] Top shape: 20 (20)
I0522 01:43:37.896970 25646 net.cpp:165] Memory required for data: 508080
I0522 01:43:37.896988 25646 layer_factory.hpp:77] Creating layer conv1
I0522 01:43:37.897034 25646 net.cpp:106] Creating Layer conv1
I0522 01:43:37.897048 25646 net.cpp:454] conv1 <- data
I0522 01:43:37.897074 25646 net.cpp:411] conv1 -> conv1
I0522 01:43:41.121686 25646 net.cpp:150] Setting up conv1
I0522 01:43:41.121740 25646 net.cpp:157] Top shape: 20 12 120 48 (1382400)
I0522 01:43:41.121764 25646 net.cpp:165] Memory required for data: 6037680
I0522 01:43:41.121794 25646 layer_factory.hpp:77] Creating layer relu1
I0522 01:43:41.121816 25646 net.cpp:106] Creating Layer relu1
I0522 01:43:41.121829 25646 net.cpp:454] relu1 <- conv1
I0522 01:43:41.121851 25646 net.cpp:397] relu1 -> conv1 (in-place)
I0522 01:43:41.122401 25646 net.cpp:150] Setting up relu1
I0522 01:43:41.122426 25646 net.cpp:157] Top shape: 20 12 120 48 (1382400)
I0522 01:43:41.122438 25646 net.cpp:165] Memory required for data: 11567280
I0522 01:43:41.122454 25646 layer_factory.hpp:77] Creating layer pool1
I0522 01:43:41.122481 25646 net.cpp:106] Creating Layer pool1
I0522 01:43:41.122494 25646 net.cpp:454] pool1 <- conv1
I0522 01:43:41.122511 25646 net.cpp:411] pool1 -> pool1
I0522 01:43:41.122604 25646 net.cpp:150] Setting up pool1
I0522 01:43:41.122623 25646 net.cpp:157] Top shape: 20 12 60 48 (691200)
I0522 01:43:41.122644 25646 net.cpp:165] Memory required for data: 14332080
I0522 01:43:41.122659 25646 layer_factory.hpp:77] Creating layer conv2
I0522 01:43:41.122684 25646 net.cpp:106] Creating Layer conv2
I0522 01:43:41.122697 25646 net.cpp:454] conv2 <- pool1
I0522 01:43:41.122716 25646 net.cpp:411] conv2 -> conv2
I0522 01:43:41.125428 25646 net.cpp:150] Setting up conv2
I0522 01:43:41.125459 25646 net.cpp:157] Top shape: 20 20 54 46 (993600)
I0522 01:43:41.125475 25646 net.cpp:165] Memory required for data: 18306480
I0522 01:43:41.125504 25646 layer_factory.hpp:77] Creating layer relu2
I0522 01:43:41.125530 25646 net.cpp:106] Creating Layer relu2
I0522 01:43:41.125545 25646 net.cpp:454] relu2 <- conv2
I0522 01:43:41.125561 25646 net.cpp:397] relu2 -> conv2 (in-place)
I0522 01:43:41.125929 25646 net.cpp:150] Setting up relu2
I0522 01:43:41.125949 25646 net.cpp:157] Top shape: 20 20 54 46 (993600)
I0522 01:43:41.125962 25646 net.cpp:165] Memory required for data: 22280880
I0522 01:43:41.125974 25646 layer_factory.hpp:77] Creating layer pool2
I0522 01:43:41.125993 25646 net.cpp:106] Creating Layer pool2
I0522 01:43:41.126008 25646 net.cpp:454] pool2 <- conv2
I0522 01:43:41.126030 25646 net.cpp:411] pool2 -> pool2
I0522 01:43:41.126123 25646 net.cpp:150] Setting up pool2
I0522 01:43:41.126142 25646 net.cpp:157] Top shape: 20 20 27 46 (496800)
I0522 01:43:41.126157 25646 net.cpp:165] Memory required for data: 24268080
I0522 01:43:41.126176 25646 layer_factory.hpp:77] Creating layer conv3
I0522 01:43:41.126197 25646 net.cpp:106] Creating Layer conv3
I0522 01:43:41.126217 25646 net.cpp:454] conv3 <- pool2
I0522 01:43:41.126235 25646 net.cpp:411] conv3 -> conv3
I0522 01:43:41.128199 25646 net.cpp:150] Setting up conv3
I0522 01:43:41.128226 25646 net.cpp:157] Top shape: 20 28 22 44 (542080)
I0522 01:43:41.128245 25646 net.cpp:165] Memory required for data: 26436400
I0522 01:43:41.128268 25646 layer_factory.hpp:77] Creating layer relu3
I0522 01:43:41.128290 25646 net.cpp:106] Creating Layer relu3
I0522 01:43:41.128314 25646 net.cpp:454] relu3 <- conv3
I0522 01:43:41.128329 25646 net.cpp:397] relu3 -> conv3 (in-place)
I0522 01:43:41.128816 25646 net.cpp:150] Setting up relu3
I0522 01:43:41.128840 25646 net.cpp:157] Top shape: 20 28 22 44 (542080)
I0522 01:43:41.128854 25646 net.cpp:165] Memory required for data: 28604720
I0522 01:43:41.128870 25646 layer_factory.hpp:77] Creating layer pool3
I0522 01:43:41.128893 25646 net.cpp:106] Creating Layer pool3
I0522 01:43:41.128907 25646 net.cpp:454] pool3 <- conv3
I0522 01:43:41.128923 25646 net.cpp:411] pool3 -> pool3
I0522 01:43:41.129004 25646 net.cpp:150] Setting up pool3
I0522 01:43:41.129027 25646 net.cpp:157] Top shape: 20 28 11 44 (271040)
I0522 01:43:41.129040 25646 net.cpp:165] Memory required for data: 29688880
I0522 01:43:41.129055 25646 layer_factory.hpp:77] Creating layer conv4
I0522 01:43:41.129081 25646 net.cpp:106] Creating Layer conv4
I0522 01:43:41.129096 25646 net.cpp:454] conv4 <- pool3
I0522 01:43:41.129112 25646 net.cpp:411] conv4 -> conv4
I0522 01:43:41.131870 25646 net.cpp:150] Setting up conv4
I0522 01:43:41.131901 25646 net.cpp:157] Top shape: 20 36 6 42 (181440)
I0522 01:43:41.131917 25646 net.cpp:165] Memory required for data: 30414640
I0522 01:43:41.131937 25646 layer_factory.hpp:77] Creating layer relu4
I0522 01:43:41.131958 25646 net.cpp:106] Creating Layer relu4
I0522 01:43:41.131983 25646 net.cpp:454] relu4 <- conv4
I0522 01:43:41.131999 25646 net.cpp:397] relu4 -> conv4 (in-place)
I0522 01:43:41.132488 25646 net.cpp:150] Setting up relu4
I0522 01:43:41.132511 25646 net.cpp:157] Top shape: 20 36 6 42 (181440)
I0522 01:43:41.132524 25646 net.cpp:165] Memory required for data: 31140400
I0522 01:43:41.132540 25646 layer_factory.hpp:77] Creating layer pool4
I0522 01:43:41.132565 25646 net.cpp:106] Creating Layer pool4
I0522 01:43:41.132578 25646 net.cpp:454] pool4 <- conv4
I0522 01:43:41.132594 25646 net.cpp:411] pool4 -> pool4
I0522 01:43:41.132676 25646 net.cpp:150] Setting up pool4
I0522 01:43:41.132699 25646 net.cpp:157] Top shape: 20 36 3 42 (90720)
I0522 01:43:41.132711 25646 net.cpp:165] Memory required for data: 31503280
I0522 01:43:41.132726 25646 layer_factory.hpp:77] Creating layer ip1
I0522 01:43:41.132755 25646 net.cpp:106] Creating Layer ip1
I0522 01:43:41.132768 25646 net.cpp:454] ip1 <- pool4
I0522 01:43:41.132784 25646 net.cpp:411] ip1 -> ip1
I0522 01:43:41.148183 25646 net.cpp:150] Setting up ip1
I0522 01:43:41.148216 25646 net.cpp:157] Top shape: 20 196 (3920)
I0522 01:43:41.148237 25646 net.cpp:165] Memory required for data: 31518960
I0522 01:43:41.148263 25646 layer_factory.hpp:77] Creating layer relu5
I0522 01:43:41.148285 25646 net.cpp:106] Creating Layer relu5
I0522 01:43:41.148309 25646 net.cpp:454] relu5 <- ip1
I0522 01:43:41.148327 25646 net.cpp:397] relu5 -> ip1 (in-place)
I0522 01:43:41.148684 25646 net.cpp:150] Setting up relu5
I0522 01:43:41.148705 25646 net.cpp:157] Top shape: 20 196 (3920)
I0522 01:43:41.148717 25646 net.cpp:165] Memory required for data: 31534640
I0522 01:43:41.148732 25646 layer_factory.hpp:77] Creating layer drop1
I0522 01:43:41.148762 25646 net.cpp:106] Creating Layer drop1
I0522 01:43:41.148777 25646 net.cpp:454] drop1 <- ip1
I0522 01:43:41.148792 25646 net.cpp:397] drop1 -> ip1 (in-place)
I0522 01:43:41.148864 25646 net.cpp:150] Setting up drop1
I0522 01:43:41.148881 25646 net.cpp:157] Top shape: 20 196 (3920)
I0522 01:43:41.148895 25646 net.cpp:165] Memory required for data: 31550320
I0522 01:43:41.148910 25646 layer_factory.hpp:77] Creating layer ip2
I0522 01:43:41.148931 25646 net.cpp:106] Creating Layer ip2
I0522 01:43:41.148950 25646 net.cpp:454] ip2 <- ip1
I0522 01:43:41.148965 25646 net.cpp:411] ip2 -> ip2
I0522 01:43:41.149453 25646 net.cpp:150] Setting up ip2
I0522 01:43:41.149472 25646 net.cpp:157] Top shape: 20 98 (1960)
I0522 01:43:41.149485 25646 net.cpp:165] Memory required for data: 31558160
I0522 01:43:41.149507 25646 layer_factory.hpp:77] Creating layer relu6
I0522 01:43:41.149521 25646 net.cpp:106] Creating Layer relu6
I0522 01:43:41.149535 25646 net.cpp:454] relu6 <- ip2
I0522 01:43:41.149550 25646 net.cpp:397] relu6 -> ip2 (in-place)
I0522 01:43:41.150116 25646 net.cpp:150] Setting up relu6
I0522 01:43:41.150140 25646 net.cpp:157] Top shape: 20 98 (1960)
I0522 01:43:41.150153 25646 net.cpp:165] Memory required for data: 31566000
I0522 01:43:41.150169 25646 layer_factory.hpp:77] Creating layer drop2
I0522 01:43:41.150184 25646 net.cpp:106] Creating Layer drop2
I0522 01:43:41.150204 25646 net.cpp:454] drop2 <- ip2
I0522 01:43:41.150221 25646 net.cpp:397] drop2 -> ip2 (in-place)
I0522 01:43:41.150271 25646 net.cpp:150] Setting up drop2
I0522 01:43:41.150290 25646 net.cpp:157] Top shape: 20 98 (1960)
I0522 01:43:41.150308 25646 net.cpp:165] Memory required for data: 31573840
I0522 01:43:41.150326 25646 layer_factory.hpp:77] Creating layer ip3
I0522 01:43:41.150343 25646 net.cpp:106] Creating Layer ip3
I0522 01:43:41.150355 25646 net.cpp:454] ip3 <- ip2
I0522 01:43:41.150373 25646 net.cpp:411] ip3 -> ip3
I0522 01:43:41.150605 25646 net.cpp:150] Setting up ip3
I0522 01:43:41.150624 25646 net.cpp:157] Top shape: 20 11 (220)
I0522 01:43:41.150636 25646 net.cpp:165] Memory required for data: 31574720
I0522 01:43:41.150657 25646 layer_factory.hpp:77] Creating layer drop3
I0522 01:43:41.150672 25646 net.cpp:106] Creating Layer drop3
I0522 01:43:41.150692 25646 net.cpp:454] drop3 <- ip3
I0522 01:43:41.150708 25646 net.cpp:397] drop3 -> ip3 (in-place)
I0522 01:43:41.150754 25646 net.cpp:150] Setting up drop3
I0522 01:43:41.150777 25646 net.cpp:157] Top shape: 20 11 (220)
I0522 01:43:41.150790 25646 net.cpp:165] Memory required for data: 31575600
I0522 01:43:41.150802 25646 layer_factory.hpp:77] Creating layer loss
I0522 01:43:41.150823 25646 net.cpp:106] Creating Layer loss
I0522 01:43:41.150838 25646 net.cpp:454] loss <- ip3
I0522 01:43:41.150858 25646 net.cpp:454] loss <- label
I0522 01:43:41.150874 25646 net.cpp:411] loss -> loss
I0522 01:43:41.150894 25646 layer_factory.hpp:77] Creating layer loss
…
I0522 01:43:41.153797 25646 solver.cpp:181] Creating test net (#0) specified by net file: /lustre/atlas/proj-shared/hep105/caffe_titan/caffe_workflow/logs_bslr/bs_20_lr_0.0030_2016-05-20T15.48.55.379925.prototxt
I0522 01:43:41.153875 25646 net.cpp:322] The NetState phase (1) differed from the phase (0) specified by a rule in layer data_hdf5
I0522 01:43:41.154256 25646 net.cpp:49] Initializing net from parameters: 
name: "caffe_test_127x50_x_unshifted"
state {
  phase: TEST
}
layer {
  name: "data_hdf5"
  type: "HDF5Data"
  top: "data"
  top: "label"
  include {
    phase: TEST
  }
  hdf5_data_param {
    source: "/lustre/atlas/proj-shared/hep105/caffe_titan/minosmatch_nukecczdefs_127x50_x_unshifted_me1Bmc.testlist"
    batch_size: 20
  }
}
layer {
  name: "conv1"
  type: "Convolution"
  bottom: "data"
  top: "conv1"
  convolution_param {
    num_output: 12
    pad: 0
    stride: 1
    weight_filler {
      type: "xavier"
    }
    bias_filler {
      type: "constant"
    }
    kernel_h: 8
    kernel_w: 3
  }
}
layer {
  name: "relu1"
  type: "ReLU"
  bottom: "conv1"
  top: "conv1"
}
layer {
  name: "pool1"
  type: "Pooling"
  bottom: "conv1"
  top: "pool1"
  pooling_param {
    pool: MAX
    kernel_h: 2
    kernel_w: 1
    stride_h: 2
    stride_w: 1
  }
}
layer {
  name: "conv2"
  type: "Convolution"
  bottom: "pool1"
  top: "conv2"
  convolution_param {
    num_output: 20
    pad: 0
    stride: 1
    weight_filler {
      type: "xavier"
    }
    bias_filler {
      type: "constant"
    }
    kernel_h: 7
    kernel_w: 3
  }
}
layer {
  name: "relu2"
  type: "ReLU"
  bottom: "conv2"
  top: "conv2"
}
layer {
  name: "pool2"
  type: "Pooling"
  bottom: "conv2"
  top: "pool2"
  pooling_param {
    pool: MAX
    kernel_h: 2
    kernel_w: 1
    stride_h: 2
    stride_w: 1
  }
}
layer {
  name: "conv3"
  type: "Convolution"
  bottom: "pool2"
  top: "conv3"
  convolution_param {
    num_output: 28
    pad: 0
    stride: 1
    weight_filler {
      type: "xavier"
    }
    bias_filler {
      type: "constant"
    }
    kernel_h: 6
    kernel_w: 3
  }
}
layer {
  name: "relu3"
  type: "ReLU"
  bottom: "conv3"
  top: "conv3"
}
layer {
  name: "pool3"
  type: "Pooling"
  bottom: "conv3"
  top: "pool3"
  pooling_param {
    pool: MAX
    kernel_h: 2
    kernel_w: 1
    stride_h: 2
    stride_w: 1
  }
}
layer {
  name: "conv4"
  type: "Convolution"
  bottom: "pool3"
  top: "conv4"
  convolution_param {
    num_output: 36
    pad: 0
    stride: 1
    weight_filler {
      type: "xavier"
    }
    bias_filler {
      type: "constant"
    }
    kernel_h: 6
    kernel_w: 3
  }
}
layer {
  name: "relu4"
  type: "ReLU"
  bottom: "conv4"
  top: "conv4"
}
layer {
  name: "pool4"
  type: "Pooling"
  bottom: "conv4"
  top: "pool4"
  pooling_param {
    pool: MAX
    kernel_h: 2
    kernel_w: 1
    stride_h: 2
    stride_w: 1
  }
}
layer {
  name: "ip1"
  type: "InnerProduct"
  bottom: "pool4"
  top: "ip1"
  inner_product_param {
    num_output: 196
    weight_filler {
      type: "xavier"
    }
    bias_filler {
      type: "constant"
    }
  }
}
layer {
  name: "relu5"
  type: "ReLU"
  bottom: "ip1"
  top: "ip1"
}
layer {
  name: "drop1"
  type: "Dropout"
  bottom: "ip1"
  top: "ip1"
  dropout_param {
    dropout_ratio: 0.5
  }
}
layer {
  name: "ip2"
  type: "InnerProduct"
  bottom: "ip1"
  top: "ip2"
  inner_product_param {
    num_output: 98
    weight_filler {
      type: "xavier"
    }
    bias_filler {
      type: "constant"
    }
  }
}
layer {
  name: "relu6"
  type: "ReLU"
  bottom: "ip2"
  top: "ip2"
}
layer {
  name: "drop2"
  type: "Dropout"
  bottom: "ip2"
  top: "ip2"
  dropout_param {
    dropout_ratio: 0.5
  }
}
layer {
  name: "ip3"
  type: "InnerProduct"
  bottom: "ip2"
  top: "ip3"
  inner_product_param {
    num_output: 11
    weight_filler {
      type: "xavier"
    }
    bias_filler {
      type: "constant"
    }
  }
}
layer {
  name: "drop3"
  type: "Dropout"
  bottom: "ip3"
  top: "ip3"
  dropout_param {
    dropout_ratio: 0.5
  }
}
layer {
  name: "accuracy"
  type: "Accuracy"
  bottom: "ip3"
  bottom: "label"
  top: "accuracy"
  include {
    phase: TEST
  }
}
layer {
  name: "loss"
  type: "SoftmaxWithLoss"
  bottom: "ip3"
  bottom: "label"
  top: "loss"
}
I0522 01:43:41.154479 25646 layer_factory.hpp:77] Creating layer data_hdf5
I0522 01:43:41.154498 25646 net.cpp:106] Creating Layer data_hdf5
I0522 01:43:41.154515 25646 net.cpp:411] data_hdf5 -> data
I0522 01:43:41.154534 25646 net.cpp:411] data_hdf5 -> label
I0522 01:43:41.154556 25646 hdf5_data_layer.cpp:79] Loading list of HDF5 filenames from: /lustre/atlas/proj-shared/hep105/caffe_titan/minosmatch_nukecczdefs_127x50_x_unshifted_me1Bmc.testlist
I0522 01:43:41.166818 25646 hdf5_data_layer.cpp:93] Number of HDF5 files: 3
I0522 01:44:02.511692 25646 net.cpp:150] Setting up data_hdf5
I0522 01:44:02.511858 25646 net.cpp:157] Top shape: 20 1 127 50 (127000)
I0522 01:44:02.511884 25646 net.cpp:157] Top shape: 20 (20)
I0522 01:44:02.511898 25646 net.cpp:165] Memory required for data: 508080
I0522 01:44:02.511912 25646 layer_factory.hpp:77] Creating layer label_data_hdf5_1_split
I0522 01:44:02.511940 25646 net.cpp:106] Creating Layer label_data_hdf5_1_split
I0522 01:44:02.511960 25646 net.cpp:454] label_data_hdf5_1_split <- label
I0522 01:44:02.511996 25646 net.cpp:411] label_data_hdf5_1_split -> label_data_hdf5_1_split_0
I0522 01:44:02.512017 25646 net.cpp:411] label_data_hdf5_1_split -> label_data_hdf5_1_split_1
I0522 01:44:02.512096 25646 net.cpp:150] Setting up label_data_hdf5_1_split
I0522 01:44:02.512120 25646 net.cpp:157] Top shape: 20 (20)
I0522 01:44:02.512136 25646 net.cpp:157] Top shape: 20 (20)
I0522 01:44:02.512148 25646 net.cpp:165] Memory required for data: 508240
I0522 01:44:02.512167 25646 layer_factory.hpp:77] Creating layer conv1
I0522 01:44:02.512192 25646 net.cpp:106] Creating Layer conv1
I0522 01:44:02.512207 25646 net.cpp:454] conv1 <- data
I0522 01:44:02.512229 25646 net.cpp:411] conv1 -> conv1
I0522 01:44:02.514176 25646 net.cpp:150] Setting up conv1
I0522 01:44:02.514202 25646 net.cpp:157] Top shape: 20 12 120 48 (1382400)
I0522 01:44:02.514215 25646 net.cpp:165] Memory required for data: 6037840
I0522 01:44:02.514242 25646 layer_factory.hpp:77] Creating layer relu1
I0522 01:44:02.514269 25646 net.cpp:106] Creating Layer relu1
I0522 01:44:02.514283 25646 net.cpp:454] relu1 <- conv1
I0522 01:44:02.514300 25646 net.cpp:397] relu1 -> conv1 (in-place)
I0522 01:44:02.514821 25646 net.cpp:150] Setting up relu1
I0522 01:44:02.514844 25646 net.cpp:157] Top shape: 20 12 120 48 (1382400)
I0522 01:44:02.514858 25646 net.cpp:165] Memory required for data: 11567440
I0522 01:44:02.514869 25646 layer_factory.hpp:77] Creating layer pool1
I0522 01:44:02.514900 25646 net.cpp:106] Creating Layer pool1
I0522 01:44:02.514914 25646 net.cpp:454] pool1 <- conv1
I0522 01:44:02.514930 25646 net.cpp:411] pool1 -> pool1
I0522 01:44:02.515019 25646 net.cpp:150] Setting up pool1
I0522 01:44:02.515036 25646 net.cpp:157] Top shape: 20 12 60 48 (691200)
I0522 01:44:02.515051 25646 net.cpp:165] Memory required for data: 14332240
I0522 01:44:02.515070 25646 layer_factory.hpp:77] Creating layer conv2
I0522 01:44:02.515092 25646 net.cpp:106] Creating Layer conv2
I0522 01:44:02.515105 25646 net.cpp:454] conv2 <- pool1
I0522 01:44:02.515121 25646 net.cpp:411] conv2 -> conv2
I0522 01:44:02.517067 25646 net.cpp:150] Setting up conv2
I0522 01:44:02.517091 25646 net.cpp:157] Top shape: 20 20 54 46 (993600)
I0522 01:44:02.517112 25646 net.cpp:165] Memory required for data: 18306640
I0522 01:44:02.517134 25646 layer_factory.hpp:77] Creating layer relu2
I0522 01:44:02.517153 25646 net.cpp:106] Creating Layer relu2
I0522 01:44:02.517175 25646 net.cpp:454] relu2 <- conv2
I0522 01:44:02.517191 25646 net.cpp:397] relu2 -> conv2 (in-place)
I0522 01:44:02.517540 25646 net.cpp:150] Setting up relu2
I0522 01:44:02.517560 25646 net.cpp:157] Top shape: 20 20 54 46 (993600)
I0522 01:44:02.517573 25646 net.cpp:165] Memory required for data: 22281040
I0522 01:44:02.517588 25646 layer_factory.hpp:77] Creating layer pool2
I0522 01:44:02.517611 25646 net.cpp:106] Creating Layer pool2
I0522 01:44:02.517626 25646 net.cpp:454] pool2 <- conv2
I0522 01:44:02.517642 25646 net.cpp:411] pool2 -> pool2
I0522 01:44:02.517737 25646 net.cpp:150] Setting up pool2
I0522 01:44:02.517755 25646 net.cpp:157] Top shape: 20 20 27 46 (496800)
I0522 01:44:02.517776 25646 net.cpp:165] Memory required for data: 24268240
I0522 01:44:02.517791 25646 layer_factory.hpp:77] Creating layer conv3
I0522 01:44:02.517812 25646 net.cpp:106] Creating Layer conv3
I0522 01:44:02.517827 25646 net.cpp:454] conv3 <- pool2
I0522 01:44:02.517843 25646 net.cpp:411] conv3 -> conv3
I0522 01:44:02.519843 25646 net.cpp:150] Setting up conv3
I0522 01:44:02.519872 25646 net.cpp:157] Top shape: 20 28 22 44 (542080)
I0522 01:44:02.519886 25646 net.cpp:165] Memory required for data: 26436560
I0522 01:44:02.519912 25646 layer_factory.hpp:77] Creating layer relu3
I0522 01:44:02.519950 25646 net.cpp:106] Creating Layer relu3
I0522 01:44:02.519964 25646 net.cpp:454] relu3 <- conv3
I0522 01:44:02.519989 25646 net.cpp:397] relu3 -> conv3 (in-place)
I0522 01:44:02.520488 25646 net.cpp:150] Setting up relu3
I0522 01:44:02.520511 25646 net.cpp:157] Top shape: 20 28 22 44 (542080)
I0522 01:44:02.520524 25646 net.cpp:165] Memory required for data: 28604880
I0522 01:44:02.520540 25646 layer_factory.hpp:77] Creating layer pool3
I0522 01:44:02.520565 25646 net.cpp:106] Creating Layer pool3
I0522 01:44:02.520578 25646 net.cpp:454] pool3 <- conv3
I0522 01:44:02.520594 25646 net.cpp:411] pool3 -> pool3
I0522 01:44:02.520679 25646 net.cpp:150] Setting up pool3
I0522 01:44:02.520697 25646 net.cpp:157] Top shape: 20 28 11 44 (271040)
I0522 01:44:02.520711 25646 net.cpp:165] Memory required for data: 29689040
I0522 01:44:02.520725 25646 layer_factory.hpp:77] Creating layer conv4
I0522 01:44:02.520751 25646 net.cpp:106] Creating Layer conv4
I0522 01:44:02.520764 25646 net.cpp:454] conv4 <- pool3
I0522 01:44:02.520781 25646 net.cpp:411] conv4 -> conv4
I0522 01:44:02.522871 25646 net.cpp:150] Setting up conv4
I0522 01:44:02.522896 25646 net.cpp:157] Top shape: 20 36 6 42 (181440)
I0522 01:44:02.522915 25646 net.cpp:165] Memory required for data: 30414800
I0522 01:44:02.522934 25646 layer_factory.hpp:77] Creating layer relu4
I0522 01:44:02.522954 25646 net.cpp:106] Creating Layer relu4
I0522 01:44:02.522966 25646 net.cpp:454] relu4 <- conv4
I0522 01:44:02.522992 25646 net.cpp:397] relu4 -> conv4 (in-place)
I0522 01:44:02.523483 25646 net.cpp:150] Setting up relu4
I0522 01:44:02.523505 25646 net.cpp:157] Top shape: 20 36 6 42 (181440)
I0522 01:44:02.523519 25646 net.cpp:165] Memory required for data: 31140560
I0522 01:44:02.523535 25646 layer_factory.hpp:77] Creating layer pool4
I0522 01:44:02.523558 25646 net.cpp:106] Creating Layer pool4
I0522 01:44:02.523572 25646 net.cpp:454] pool4 <- conv4
I0522 01:44:02.523588 25646 net.cpp:411] pool4 -> pool4
I0522 01:44:02.523674 25646 net.cpp:150] Setting up pool4
I0522 01:44:02.523692 25646 net.cpp:157] Top shape: 20 36 3 42 (90720)
I0522 01:44:02.523707 25646 net.cpp:165] Memory required for data: 31503440
I0522 01:44:02.523720 25646 layer_factory.hpp:77] Creating layer ip1
I0522 01:44:02.523743 25646 net.cpp:106] Creating Layer ip1
I0522 01:44:02.523757 25646 net.cpp:454] ip1 <- pool4
I0522 01:44:02.523777 25646 net.cpp:411] ip1 -> ip1
I0522 01:44:02.539275 25646 net.cpp:150] Setting up ip1
I0522 01:44:02.539314 25646 net.cpp:157] Top shape: 20 196 (3920)
I0522 01:44:02.539327 25646 net.cpp:165] Memory required for data: 31519120
I0522 01:44:02.539352 25646 layer_factory.hpp:77] Creating layer relu5
I0522 01:44:02.539374 25646 net.cpp:106] Creating Layer relu5
I0522 01:44:02.539400 25646 net.cpp:454] relu5 <- ip1
I0522 01:44:02.539417 25646 net.cpp:397] relu5 -> ip1 (in-place)
I0522 01:44:02.539778 25646 net.cpp:150] Setting up relu5
I0522 01:44:02.539798 25646 net.cpp:157] Top shape: 20 196 (3920)
I0522 01:44:02.539811 25646 net.cpp:165] Memory required for data: 31534800
I0522 01:44:02.539826 25646 layer_factory.hpp:77] Creating layer drop1
I0522 01:44:02.539855 25646 net.cpp:106] Creating Layer drop1
I0522 01:44:02.539870 25646 net.cpp:454] drop1 <- ip1
I0522 01:44:02.539886 25646 net.cpp:397] drop1 -> ip1 (in-place)
I0522 01:44:02.539947 25646 net.cpp:150] Setting up drop1
I0522 01:44:02.539963 25646 net.cpp:157] Top shape: 20 196 (3920)
I0522 01:44:02.539976 25646 net.cpp:165] Memory required for data: 31550480
I0522 01:44:02.539988 25646 layer_factory.hpp:77] Creating layer ip2
I0522 01:44:02.540009 25646 net.cpp:106] Creating Layer ip2
I0522 01:44:02.540021 25646 net.cpp:454] ip2 <- ip1
I0522 01:44:02.540045 25646 net.cpp:411] ip2 -> ip2
I0522 01:44:02.540539 25646 net.cpp:150] Setting up ip2
I0522 01:44:02.540560 25646 net.cpp:157] Top shape: 20 98 (1960)
I0522 01:44:02.540572 25646 net.cpp:165] Memory required for data: 31558320
I0522 01:44:02.540593 25646 layer_factory.hpp:77] Creating layer relu6
I0522 01:44:02.540627 25646 net.cpp:106] Creating Layer relu6
I0522 01:44:02.540640 25646 net.cpp:454] relu6 <- ip2
I0522 01:44:02.540657 25646 net.cpp:397] relu6 -> ip2 (in-place)
I0522 01:44:02.541216 25646 net.cpp:150] Setting up relu6
I0522 01:44:02.541239 25646 net.cpp:157] Top shape: 20 98 (1960)
I0522 01:44:02.541254 25646 net.cpp:165] Memory required for data: 31566160
I0522 01:44:02.541265 25646 layer_factory.hpp:77] Creating layer drop2
I0522 01:44:02.541285 25646 net.cpp:106] Creating Layer drop2
I0522 01:44:02.541306 25646 net.cpp:454] drop2 <- ip2
I0522 01:44:02.541322 25646 net.cpp:397] drop2 -> ip2 (in-place)
I0522 01:44:02.541374 25646 net.cpp:150] Setting up drop2
I0522 01:44:02.541399 25646 net.cpp:157] Top shape: 20 98 (1960)
I0522 01:44:02.541411 25646 net.cpp:165] Memory required for data: 31574000
I0522 01:44:02.541426 25646 layer_factory.hpp:77] Creating layer ip3
I0522 01:44:02.541443 25646 net.cpp:106] Creating Layer ip3
I0522 01:44:02.541460 25646 net.cpp:454] ip3 <- ip2
I0522 01:44:02.541482 25646 net.cpp:411] ip3 -> ip3
I0522 01:44:02.541728 25646 net.cpp:150] Setting up ip3
I0522 01:44:02.541746 25646 net.cpp:157] Top shape: 20 11 (220)
I0522 01:44:02.541759 25646 net.cpp:165] Memory required for data: 31574880
I0522 01:44:02.541780 25646 layer_factory.hpp:77] Creating layer drop3
I0522 01:44:02.541802 25646 net.cpp:106] Creating Layer drop3
I0522 01:44:02.541816 25646 net.cpp:454] drop3 <- ip3
I0522 01:44:02.541831 25646 net.cpp:397] drop3 -> ip3 (in-place)
I0522 01:44:02.541887 25646 net.cpp:150] Setting up drop3
I0522 01:44:02.541903 25646 net.cpp:157] Top shape: 20 11 (220)
I0522 01:44:02.541914 25646 net.cpp:165] Memory required for data: 31575760
I0522 01:44:02.541929 25646 layer_factory.hpp:77] Creating layer ip3_drop3_0_split
I0522 01:44:02.541945 25646 net.cpp:106] Creating Layer ip3_drop3_0_split
I0522 01:44:02.541961 25646 net.cpp:454] ip3_drop3_0_split <- ip3
I0522 01:44:02.541983 25646 net.cpp:411] ip3_drop3_0_split -> ip3_drop3_0_split_0
I0522 01:44:02.542002 25646 net.cpp:411] ip3_drop3_0_split -> ip3_drop3_0_split_1
I0522 01:44:02.542089 25646 net.cpp:150] Setting up ip3_drop3_0_split
I0522 01:44:02.542106 25646 net.cpp:157] Top shape: 20 11 (220)
I0522 01:44:02.542122 25646 net.cpp:157] Top shape: 20 11 (220)
I0522 01:44:02.542135 25646 net.cpp:165] Memory required for data: 31577520
I0522 01:44:02.542150 25646 layer_factory.hpp:77] Creating layer accuracy
I0522 01:44:02.542177 25646 net.cpp:106] Creating Layer accuracy
I0522 01:44:02.542191 25646 net.cpp:454] accuracy <- ip3_drop3_0_split_0
I0522 01:44:02.542215 25646 net.cpp:454] accuracy <- label_data_hdf5_1_split_0
I0522 01:44:02.542232 25646 net.cpp:411] accuracy -> accuracy
…
