…
I0526 11:33:25.314393 26141 net.cpp:322] The NetState phase (0) differed from the phase (1) specified by a rule in layer data_hdf5
I0526 11:33:25.314448 26141 net.cpp:322] The NetState phase (0) differed from the phase (1) specified by a rule in layer accuracy
I0526 11:33:25.314796 26141 net.cpp:49] Initializing net from parameters: 
name: "caffe_test_127x50_x_unshifted"
state {
  phase: TRAIN
}
layer {
  name: "data_hdf5"
  type: "HDF5Data"
  top: "data"
  top: "label"
  include {
    phase: TRAIN
  }
  hdf5_data_param {
    source: "/lustre/atlas/proj-shared/hep105/caffe_titan/minosmatch_nukecczdefs_127x50_x_unshifted_me1Bmc.trainlist"
    batch_size: 20
  }
}
layer {
  name: "conv1"
  type: "Convolution"
  bottom: "data"
  top: "conv1"
  convolution_param {
    num_output: 12
    pad: 0
    stride: 1
    weight_filler {
      type: "xavier"
    }
    bias_filler {
      type: "constant"
    }
    kernel_h: 8
    kernel_w: 3
  }
}
layer {
  name: "relu1"
  type: "ReLU"
  bottom: "conv1"
  top: "conv1"
}
layer {
  name: "pool1"
  type: "Pooling"
  bottom: "conv1"
  top: "pool1"
  pooling_param {
    pool: MAX
    kernel_h: 2
    kernel_w: 1
    stride_h: 2
    stride_w: 1
  }
}
layer {
  name: "conv2"
  type: "Convolution"
  bottom: "pool1"
  top: "conv2"
  convolution_param {
    num_output: 20
    pad: 0
    stride: 1
    weight_filler {
      type: "xavier"
    }
    bias_filler {
      type: "constant"
    }
    kernel_h: 7
    kernel_w: 3
  }
}
layer {
  name: "relu2"
  type: "ReLU"
  bottom: "conv2"
  top: "conv2"
}
layer {
  name: "pool2"
  type: "Pooling"
  bottom: "conv2"
  top: "pool2"
  pooling_param {
    pool: MAX
    kernel_h: 2
    kernel_w: 1
    stride_h: 2
    stride_w: 1
  }
}
layer {
  name: "conv3"
  type: "Convolution"
  bottom: "pool2"
  top: "conv3"
  convolution_param {
    num_output: 28
    pad: 0
    stride: 1
    weight_filler {
      type: "xavier"
    }
    bias_filler {
      type: "constant"
    }
    kernel_h: 6
    kernel_w: 3
  }
}
layer {
  name: "relu3"
  type: "ReLU"
  bottom: "conv3"
  top: "conv3"
}
layer {
  name: "pool3"
  type: "Pooling"
  bottom: "conv3"
  top: "pool3"
  pooling_param {
    pool: MAX
    kernel_h: 2
    kernel_w: 1
    stride_h: 2
    stride_w: 1
  }
}
layer {
  name: "conv4"
  type: "Convolution"
  bottom: "pool3"
  top: "conv4"
  convolution_param {
    num_output: 36
    pad: 0
    stride: 1
    weight_filler {
      type: "xavier"
    }
    bias_filler {
      type: "constant"
    }
    kernel_h: 6
    kernel_w: 3
  }
}
layer {
  name: "relu4"
  type: "ReLU"
  bottom: "conv4"
  top: "conv4"
}
layer {
  name: "pool4"
  type: "Pooling"
  bottom: "conv4"
  top: "pool4"
  pooling_param {
    pool: MAX
    kernel_h: 2
    kernel_w: 1
    stride_h: 2
    stride_w: 1
  }
}
layer {
  name: "ip1"
  type: "InnerProduct"
  bottom: "pool4"
  top: "ip1"
  inner_product_param {
    num_output: 196
    weight_filler {
      type: "xavier"
    }
    bias_filler {
      type: "constant"
    }
  }
}
layer {
  name: "relu5"
  type: "ReLU"
  bottom: "ip1"
  top: "ip1"
}
layer {
  name: "drop1"
  type: "Dropout"
  bottom: "ip1"
  top: "ip1"
  dropout_param {
    dropout_ratio: 0.5
  }
}
layer {
  name: "ip2"
  type: "InnerProduct"
  bottom: "ip1"
  top: "ip2"
  inner_product_param {
    num_output: 98
    weight_filler {
      type: "xavier"
    }
    bias_filler {
      type: "constant"
    }
  }
}
layer {
  name: "relu6"
  type: "ReLU"
  bottom: "ip2"
  top: "ip2"
}
layer {
  name: "drop2"
  type: "Dropout"
  bottom: "ip2"
  top: "ip2"
  dropout_param {
    dropout_ratio: 0.5
  }
}
layer {
  name: "ip3"
  type: "InnerProduct"
  bottom: "ip2"
  top: "ip3"
  inner_product_param {
    num_output: 11
    weight_filler {
      type: "xavier"
    }
    bias_filler {
      type: "constant"
    }
  }
}
layer {
  name: "drop3"
  type: "Dropout"
  bottom: "ip3"
  top: "ip3"
  dropout_param {
    dropout_ratio: 0.5
  }
}
layer {
  name: "loss"
  type: "SoftmaxWithLoss"
  bottom: "ip3"
  bottom: "label"
  top: "loss"
}
I0526 11:33:25.314980 26141 layer_factory.hpp:77] Creating layer data_hdf5
I0526 11:33:25.315003 26141 net.cpp:106] Creating Layer data_hdf5
I0526 11:33:25.315017 26141 net.cpp:411] data_hdf5 -> data
I0526 11:33:25.315050 26141 net.cpp:411] data_hdf5 -> label
I0526 11:33:25.315083 26141 hdf5_data_layer.cpp:79] Loading list of HDF5 filenames from: /lustre/atlas/proj-shared/hep105/caffe_titan/minosmatch_nukecczdefs_127x50_x_unshifted_me1Bmc.trainlist
I0526 11:33:25.316259 26141 hdf5_data_layer.cpp:93] Number of HDF5 files: 15
I0526 11:33:25.318418 26141 hdf5.cpp:32] Datatype class: H5T_FLOAT
I0526 11:33:46.875738 26141 hdf5.cpp:35] Datatype class: H5T_INTEGER
I0526 11:33:46.880910 26141 net.cpp:150] Setting up data_hdf5
I0526 11:33:46.880952 26141 net.cpp:157] Top shape: 20 1 127 50 (127000)
I0526 11:33:46.880966 26141 net.cpp:157] Top shape: 20 (20)
I0526 11:33:46.880976 26141 net.cpp:165] Memory required for data: 508080
I0526 11:33:46.880990 26141 layer_factory.hpp:77] Creating layer conv1
I0526 11:33:46.881023 26141 net.cpp:106] Creating Layer conv1
I0526 11:33:46.881036 26141 net.cpp:454] conv1 <- data
I0526 11:33:46.881057 26141 net.cpp:411] conv1 -> conv1
I0526 11:33:47.880710 26141 net.cpp:150] Setting up conv1
I0526 11:33:47.880759 26141 net.cpp:157] Top shape: 20 12 120 48 (1382400)
I0526 11:33:47.880769 26141 net.cpp:165] Memory required for data: 6037680
I0526 11:33:47.880797 26141 layer_factory.hpp:77] Creating layer relu1
I0526 11:33:47.880820 26141 net.cpp:106] Creating Layer relu1
I0526 11:33:47.880830 26141 net.cpp:454] relu1 <- conv1
I0526 11:33:47.880843 26141 net.cpp:397] relu1 -> conv1 (in-place)
I0526 11:33:47.881362 26141 net.cpp:150] Setting up relu1
I0526 11:33:47.881379 26141 net.cpp:157] Top shape: 20 12 120 48 (1382400)
I0526 11:33:47.881391 26141 net.cpp:165] Memory required for data: 11567280
I0526 11:33:47.881400 26141 layer_factory.hpp:77] Creating layer pool1
I0526 11:33:47.881417 26141 net.cpp:106] Creating Layer pool1
I0526 11:33:47.881427 26141 net.cpp:454] pool1 <- conv1
I0526 11:33:47.881441 26141 net.cpp:411] pool1 -> pool1
I0526 11:33:47.881522 26141 net.cpp:150] Setting up pool1
I0526 11:33:47.881536 26141 net.cpp:157] Top shape: 20 12 60 48 (691200)
I0526 11:33:47.881547 26141 net.cpp:165] Memory required for data: 14332080
I0526 11:33:47.881557 26141 layer_factory.hpp:77] Creating layer conv2
I0526 11:33:47.881579 26141 net.cpp:106] Creating Layer conv2
I0526 11:33:47.881589 26141 net.cpp:454] conv2 <- pool1
I0526 11:33:47.881603 26141 net.cpp:411] conv2 -> conv2
I0526 11:33:47.884312 26141 net.cpp:150] Setting up conv2
I0526 11:33:47.884335 26141 net.cpp:157] Top shape: 20 20 54 46 (993600)
I0526 11:33:47.884346 26141 net.cpp:165] Memory required for data: 18306480
I0526 11:33:47.884364 26141 layer_factory.hpp:77] Creating layer relu2
I0526 11:33:47.884379 26141 net.cpp:106] Creating Layer relu2
I0526 11:33:47.884389 26141 net.cpp:454] relu2 <- conv2
I0526 11:33:47.884402 26141 net.cpp:397] relu2 -> conv2 (in-place)
I0526 11:33:47.884733 26141 net.cpp:150] Setting up relu2
I0526 11:33:47.884747 26141 net.cpp:157] Top shape: 20 20 54 46 (993600)
I0526 11:33:47.884757 26141 net.cpp:165] Memory required for data: 22280880
I0526 11:33:47.884768 26141 layer_factory.hpp:77] Creating layer pool2
I0526 11:33:47.884780 26141 net.cpp:106] Creating Layer pool2
I0526 11:33:47.884790 26141 net.cpp:454] pool2 <- conv2
I0526 11:33:47.884802 26141 net.cpp:411] pool2 -> pool2
I0526 11:33:47.884884 26141 net.cpp:150] Setting up pool2
I0526 11:33:47.884897 26141 net.cpp:157] Top shape: 20 20 27 46 (496800)
I0526 11:33:47.884907 26141 net.cpp:165] Memory required for data: 24268080
I0526 11:33:47.884915 26141 layer_factory.hpp:77] Creating layer conv3
I0526 11:33:47.884933 26141 net.cpp:106] Creating Layer conv3
I0526 11:33:47.884943 26141 net.cpp:454] conv3 <- pool2
I0526 11:33:47.884956 26141 net.cpp:411] conv3 -> conv3
I0526 11:33:47.886906 26141 net.cpp:150] Setting up conv3
I0526 11:33:47.886924 26141 net.cpp:157] Top shape: 20 28 22 44 (542080)
I0526 11:33:47.886939 26141 net.cpp:165] Memory required for data: 26436400
I0526 11:33:47.886958 26141 layer_factory.hpp:77] Creating layer relu3
I0526 11:33:47.886975 26141 net.cpp:106] Creating Layer relu3
I0526 11:33:47.886984 26141 net.cpp:454] relu3 <- conv3
I0526 11:33:47.886997 26141 net.cpp:397] relu3 -> conv3 (in-place)
I0526 11:33:47.887468 26141 net.cpp:150] Setting up relu3
I0526 11:33:47.887486 26141 net.cpp:157] Top shape: 20 28 22 44 (542080)
I0526 11:33:47.887496 26141 net.cpp:165] Memory required for data: 28604720
I0526 11:33:47.887506 26141 layer_factory.hpp:77] Creating layer pool3
I0526 11:33:47.887519 26141 net.cpp:106] Creating Layer pool3
I0526 11:33:47.887529 26141 net.cpp:454] pool3 <- conv3
I0526 11:33:47.887542 26141 net.cpp:411] pool3 -> pool3
I0526 11:33:47.887610 26141 net.cpp:150] Setting up pool3
I0526 11:33:47.887624 26141 net.cpp:157] Top shape: 20 28 11 44 (271040)
I0526 11:33:47.887634 26141 net.cpp:165] Memory required for data: 29688880
I0526 11:33:47.887644 26141 layer_factory.hpp:77] Creating layer conv4
I0526 11:33:47.887660 26141 net.cpp:106] Creating Layer conv4
I0526 11:33:47.887670 26141 net.cpp:454] conv4 <- pool3
I0526 11:33:47.887683 26141 net.cpp:411] conv4 -> conv4
I0526 11:33:47.890403 26141 net.cpp:150] Setting up conv4
I0526 11:33:47.890429 26141 net.cpp:157] Top shape: 20 36 6 42 (181440)
I0526 11:33:47.890440 26141 net.cpp:165] Memory required for data: 30414640
I0526 11:33:47.890455 26141 layer_factory.hpp:77] Creating layer relu4
I0526 11:33:47.890470 26141 net.cpp:106] Creating Layer relu4
I0526 11:33:47.890480 26141 net.cpp:454] relu4 <- conv4
I0526 11:33:47.890492 26141 net.cpp:397] relu4 -> conv4 (in-place)
I0526 11:33:47.890956 26141 net.cpp:150] Setting up relu4
I0526 11:33:47.890972 26141 net.cpp:157] Top shape: 20 36 6 42 (181440)
I0526 11:33:47.890982 26141 net.cpp:165] Memory required for data: 31140400
I0526 11:33:47.890992 26141 layer_factory.hpp:77] Creating layer pool4
I0526 11:33:47.891005 26141 net.cpp:106] Creating Layer pool4
I0526 11:33:47.891016 26141 net.cpp:454] pool4 <- conv4
I0526 11:33:47.891027 26141 net.cpp:411] pool4 -> pool4
I0526 11:33:47.891095 26141 net.cpp:150] Setting up pool4
I0526 11:33:47.891109 26141 net.cpp:157] Top shape: 20 36 3 42 (90720)
I0526 11:33:47.891119 26141 net.cpp:165] Memory required for data: 31503280
I0526 11:33:47.891129 26141 layer_factory.hpp:77] Creating layer ip1
I0526 11:33:47.891149 26141 net.cpp:106] Creating Layer ip1
I0526 11:33:47.891160 26141 net.cpp:454] ip1 <- pool4
I0526 11:33:47.891175 26141 net.cpp:411] ip1 -> ip1
I0526 11:33:47.906630 26141 net.cpp:150] Setting up ip1
I0526 11:33:47.906657 26141 net.cpp:157] Top shape: 20 196 (3920)
I0526 11:33:47.906669 26141 net.cpp:165] Memory required for data: 31518960
I0526 11:33:47.906692 26141 layer_factory.hpp:77] Creating layer relu5
I0526 11:33:47.906707 26141 net.cpp:106] Creating Layer relu5
I0526 11:33:47.906716 26141 net.cpp:454] relu5 <- ip1
I0526 11:33:47.906729 26141 net.cpp:397] relu5 -> ip1 (in-place)
I0526 11:33:47.907073 26141 net.cpp:150] Setting up relu5
I0526 11:33:47.907086 26141 net.cpp:157] Top shape: 20 196 (3920)
I0526 11:33:47.907096 26141 net.cpp:165] Memory required for data: 31534640
I0526 11:33:47.907106 26141 layer_factory.hpp:77] Creating layer drop1
I0526 11:33:47.907130 26141 net.cpp:106] Creating Layer drop1
I0526 11:33:47.907140 26141 net.cpp:454] drop1 <- ip1
I0526 11:33:47.907152 26141 net.cpp:397] drop1 -> ip1 (in-place)
I0526 11:33:47.907212 26141 net.cpp:150] Setting up drop1
I0526 11:33:47.907227 26141 net.cpp:157] Top shape: 20 196 (3920)
I0526 11:33:47.907237 26141 net.cpp:165] Memory required for data: 31550320
I0526 11:33:47.907246 26141 layer_factory.hpp:77] Creating layer ip2
I0526 11:33:47.907264 26141 net.cpp:106] Creating Layer ip2
I0526 11:33:47.907274 26141 net.cpp:454] ip2 <- ip1
I0526 11:33:47.907289 26141 net.cpp:411] ip2 -> ip2
I0526 11:33:47.907752 26141 net.cpp:150] Setting up ip2
I0526 11:33:47.907764 26141 net.cpp:157] Top shape: 20 98 (1960)
I0526 11:33:47.907774 26141 net.cpp:165] Memory required for data: 31558160
I0526 11:33:47.907789 26141 layer_factory.hpp:77] Creating layer relu6
I0526 11:33:47.907802 26141 net.cpp:106] Creating Layer relu6
I0526 11:33:47.907811 26141 net.cpp:454] relu6 <- ip2
I0526 11:33:47.907824 26141 net.cpp:397] relu6 -> ip2 (in-place)
I0526 11:33:47.908342 26141 net.cpp:150] Setting up relu6
I0526 11:33:47.908359 26141 net.cpp:157] Top shape: 20 98 (1960)
I0526 11:33:47.908370 26141 net.cpp:165] Memory required for data: 31566000
I0526 11:33:47.908380 26141 layer_factory.hpp:77] Creating layer drop2
I0526 11:33:47.908395 26141 net.cpp:106] Creating Layer drop2
I0526 11:33:47.908403 26141 net.cpp:454] drop2 <- ip2
I0526 11:33:47.908416 26141 net.cpp:397] drop2 -> ip2 (in-place)
I0526 11:33:47.908459 26141 net.cpp:150] Setting up drop2
I0526 11:33:47.908473 26141 net.cpp:157] Top shape: 20 98 (1960)
I0526 11:33:47.908483 26141 net.cpp:165] Memory required for data: 31573840
I0526 11:33:47.908493 26141 layer_factory.hpp:77] Creating layer ip3
I0526 11:33:47.908506 26141 net.cpp:106] Creating Layer ip3
I0526 11:33:47.908516 26141 net.cpp:454] ip3 <- ip2
I0526 11:33:47.908529 26141 net.cpp:411] ip3 -> ip3
I0526 11:33:47.908740 26141 net.cpp:150] Setting up ip3
I0526 11:33:47.908752 26141 net.cpp:157] Top shape: 20 11 (220)
I0526 11:33:47.908762 26141 net.cpp:165] Memory required for data: 31574720
I0526 11:33:47.908777 26141 layer_factory.hpp:77] Creating layer drop3
I0526 11:33:47.908790 26141 net.cpp:106] Creating Layer drop3
I0526 11:33:47.908799 26141 net.cpp:454] drop3 <- ip3
I0526 11:33:47.908812 26141 net.cpp:397] drop3 -> ip3 (in-place)
I0526 11:33:47.908851 26141 net.cpp:150] Setting up drop3
I0526 11:33:47.908864 26141 net.cpp:157] Top shape: 20 11 (220)
I0526 11:33:47.908874 26141 net.cpp:165] Memory required for data: 31575600
I0526 11:33:47.908885 26141 layer_factory.hpp:77] Creating layer loss
I0526 11:33:47.908903 26141 net.cpp:106] Creating Layer loss
I0526 11:33:47.908913 26141 net.cpp:454] loss <- ip3
I0526 11:33:47.908924 26141 net.cpp:454] loss <- label
I0526 11:33:47.908937 26141 net.cpp:411] loss -> loss
I0526 11:33:47.908954 26141 layer_factory.hpp:77] Creating layer loss
…
I0526 11:33:47.911540 26141 solver.cpp:181] Creating test net (#0) specified by net file: /lustre/atlas/proj-shared/hep105/caffe_titan/caffe_workflow/logs_bslr/bs_20_lr_0.0005_2016-05-20T15.48.53.207147.prototxt
I0526 11:33:47.911612 26141 net.cpp:322] The NetState phase (1) differed from the phase (0) specified by a rule in layer data_hdf5
I0526 11:33:47.911968 26141 net.cpp:49] Initializing net from parameters: 
name: "caffe_test_127x50_x_unshifted"
state {
  phase: TEST
}
layer {
  name: "data_hdf5"
  type: "HDF5Data"
  top: "data"
  top: "label"
  include {
    phase: TEST
  }
  hdf5_data_param {
    source: "/lustre/atlas/proj-shared/hep105/caffe_titan/minosmatch_nukecczdefs_127x50_x_unshifted_me1Bmc.testlist"
    batch_size: 20
  }
}
layer {
  name: "conv1"
  type: "Convolution"
  bottom: "data"
  top: "conv1"
  convolution_param {
    num_output: 12
    pad: 0
    stride: 1
    weight_filler {
      type: "xavier"
    }
    bias_filler {
      type: "constant"
    }
    kernel_h: 8
    kernel_w: 3
  }
}
layer {
  name: "relu1"
  type: "ReLU"
  bottom: "conv1"
  top: "conv1"
}
layer {
  name: "pool1"
  type: "Pooling"
  bottom: "conv1"
  top: "pool1"
  pooling_param {
    pool: MAX
    kernel_h: 2
    kernel_w: 1
    stride_h: 2
    stride_w: 1
  }
}
layer {
  name: "conv2"
  type: "Convolution"
  bottom: "pool1"
  top: "conv2"
  convolution_param {
    num_output: 20
    pad: 0
    stride: 1
    weight_filler {
      type: "xavier"
    }
    bias_filler {
      type: "constant"
    }
    kernel_h: 7
    kernel_w: 3
  }
}
layer {
  name: "relu2"
  type: "ReLU"
  bottom: "conv2"
  top: "conv2"
}
layer {
  name: "pool2"
  type: "Pooling"
  bottom: "conv2"
  top: "pool2"
  pooling_param {
    pool: MAX
    kernel_h: 2
    kernel_w: 1
    stride_h: 2
    stride_w: 1
  }
}
layer {
  name: "conv3"
  type: "Convolution"
  bottom: "pool2"
  top: "conv3"
  convolution_param {
    num_output: 28
    pad: 0
    stride: 1
    weight_filler {
      type: "xavier"
    }
    bias_filler {
      type: "constant"
    }
    kernel_h: 6
    kernel_w: 3
  }
}
layer {
  name: "relu3"
  type: "ReLU"
  bottom: "conv3"
  top: "conv3"
}
layer {
  name: "pool3"
  type: "Pooling"
  bottom: "conv3"
  top: "pool3"
  pooling_param {
    pool: MAX
    kernel_h: 2
    kernel_w: 1
    stride_h: 2
    stride_w: 1
  }
}
layer {
  name: "conv4"
  type: "Convolution"
  bottom: "pool3"
  top: "conv4"
  convolution_param {
    num_output: 36
    pad: 0
    stride: 1
    weight_filler {
      type: "xavier"
    }
    bias_filler {
      type: "constant"
    }
    kernel_h: 6
    kernel_w: 3
  }
}
layer {
  name: "relu4"
  type: "ReLU"
  bottom: "conv4"
  top: "conv4"
}
layer {
  name: "pool4"
  type: "Pooling"
  bottom: "conv4"
  top: "pool4"
  pooling_param {
    pool: MAX
    kernel_h: 2
    kernel_w: 1
    stride_h: 2
    stride_w: 1
  }
}
layer {
  name: "ip1"
  type: "InnerProduct"
  bottom: "pool4"
  top: "ip1"
  inner_product_param {
    num_output: 196
    weight_filler {
      type: "xavier"
    }
    bias_filler {
      type: "constant"
    }
  }
}
layer {
  name: "relu5"
  type: "ReLU"
  bottom: "ip1"
  top: "ip1"
}
layer {
  name: "drop1"
  type: "Dropout"
  bottom: "ip1"
  top: "ip1"
  dropout_param {
    dropout_ratio: 0.5
  }
}
layer {
  name: "ip2"
  type: "InnerProduct"
  bottom: "ip1"
  top: "ip2"
  inner_product_param {
    num_output: 98
    weight_filler {
      type: "xavier"
    }
    bias_filler {
      type: "constant"
    }
  }
}
layer {
  name: "relu6"
  type: "ReLU"
  bottom: "ip2"
  top: "ip2"
}
layer {
  name: "drop2"
  type: "Dropout"
  bottom: "ip2"
  top: "ip2"
  dropout_param {
    dropout_ratio: 0.5
  }
}
layer {
  name: "ip3"
  type: "InnerProduct"
  bottom: "ip2"
  top: "ip3"
  inner_product_param {
    num_output: 11
    weight_filler {
      type: "xavier"
    }
    bias_filler {
      type: "constant"
    }
  }
}
layer {
  name: "drop3"
  type: "Dropout"
  bottom: "ip3"
  top: "ip3"
  dropout_param {
    dropout_ratio: 0.5
  }
}
layer {
  name: "accuracy"
  type: "Accuracy"
  bottom: "ip3"
  bottom: "label"
  top: "accuracy"
  include {
    phase: TEST
  }
}
layer {
  name: "loss"
  type: "SoftmaxWithLoss"
  bottom: "ip3"
  bottom: "label"
  top: "loss"
}
I0526 11:33:47.912158 26141 layer_factory.hpp:77] Creating layer data_hdf5
I0526 11:33:47.912173 26141 net.cpp:106] Creating Layer data_hdf5
I0526 11:33:47.912184 26141 net.cpp:411] data_hdf5 -> data
I0526 11:33:47.912201 26141 net.cpp:411] data_hdf5 -> label
I0526 11:33:47.912217 26141 hdf5_data_layer.cpp:79] Loading list of HDF5 filenames from: /lustre/atlas/proj-shared/hep105/caffe_titan/minosmatch_nukecczdefs_127x50_x_unshifted_me1Bmc.testlist
I0526 11:33:47.913470 26141 hdf5_data_layer.cpp:93] Number of HDF5 files: 3
I0526 11:34:09.285790 26141 net.cpp:150] Setting up data_hdf5
I0526 11:34:09.285955 26141 net.cpp:157] Top shape: 20 1 127 50 (127000)
I0526 11:34:09.285970 26141 net.cpp:157] Top shape: 20 (20)
I0526 11:34:09.285984 26141 net.cpp:165] Memory required for data: 508080
I0526 11:34:09.285997 26141 layer_factory.hpp:77] Creating layer label_data_hdf5_1_split
I0526 11:34:09.286026 26141 net.cpp:106] Creating Layer label_data_hdf5_1_split
I0526 11:34:09.286036 26141 net.cpp:454] label_data_hdf5_1_split <- label
I0526 11:34:09.286051 26141 net.cpp:411] label_data_hdf5_1_split -> label_data_hdf5_1_split_0
I0526 11:34:09.286072 26141 net.cpp:411] label_data_hdf5_1_split -> label_data_hdf5_1_split_1
I0526 11:34:09.286145 26141 net.cpp:150] Setting up label_data_hdf5_1_split
I0526 11:34:09.286159 26141 net.cpp:157] Top shape: 20 (20)
I0526 11:34:09.286171 26141 net.cpp:157] Top shape: 20 (20)
I0526 11:34:09.286180 26141 net.cpp:165] Memory required for data: 508240
I0526 11:34:09.286191 26141 layer_factory.hpp:77] Creating layer conv1
I0526 11:34:09.286213 26141 net.cpp:106] Creating Layer conv1
I0526 11:34:09.286224 26141 net.cpp:454] conv1 <- data
I0526 11:34:09.286239 26141 net.cpp:411] conv1 -> conv1
I0526 11:34:09.288168 26141 net.cpp:150] Setting up conv1
I0526 11:34:09.288188 26141 net.cpp:157] Top shape: 20 12 120 48 (1382400)
I0526 11:34:09.288198 26141 net.cpp:165] Memory required for data: 6037840
I0526 11:34:09.288223 26141 layer_factory.hpp:77] Creating layer relu1
I0526 11:34:09.288238 26141 net.cpp:106] Creating Layer relu1
I0526 11:34:09.288247 26141 net.cpp:454] relu1 <- conv1
I0526 11:34:09.288260 26141 net.cpp:397] relu1 -> conv1 (in-place)
I0526 11:34:09.288755 26141 net.cpp:150] Setting up relu1
I0526 11:34:09.288771 26141 net.cpp:157] Top shape: 20 12 120 48 (1382400)
I0526 11:34:09.288781 26141 net.cpp:165] Memory required for data: 11567440
I0526 11:34:09.288791 26141 layer_factory.hpp:77] Creating layer pool1
I0526 11:34:09.288808 26141 net.cpp:106] Creating Layer pool1
I0526 11:34:09.288817 26141 net.cpp:454] pool1 <- conv1
I0526 11:34:09.288830 26141 net.cpp:411] pool1 -> pool1
I0526 11:34:09.288905 26141 net.cpp:150] Setting up pool1
I0526 11:34:09.288918 26141 net.cpp:157] Top shape: 20 12 60 48 (691200)
I0526 11:34:09.288928 26141 net.cpp:165] Memory required for data: 14332240
I0526 11:34:09.288938 26141 layer_factory.hpp:77] Creating layer conv2
I0526 11:34:09.288956 26141 net.cpp:106] Creating Layer conv2
I0526 11:34:09.288966 26141 net.cpp:454] conv2 <- pool1
I0526 11:34:09.288981 26141 net.cpp:411] conv2 -> conv2
I0526 11:34:09.290899 26141 net.cpp:150] Setting up conv2
I0526 11:34:09.290920 26141 net.cpp:157] Top shape: 20 20 54 46 (993600)
I0526 11:34:09.290933 26141 net.cpp:165] Memory required for data: 18306640
I0526 11:34:09.290951 26141 layer_factory.hpp:77] Creating layer relu2
I0526 11:34:09.290964 26141 net.cpp:106] Creating Layer relu2
I0526 11:34:09.290974 26141 net.cpp:454] relu2 <- conv2
I0526 11:34:09.290987 26141 net.cpp:397] relu2 -> conv2 (in-place)
I0526 11:34:09.291321 26141 net.cpp:150] Setting up relu2
I0526 11:34:09.291335 26141 net.cpp:157] Top shape: 20 20 54 46 (993600)
I0526 11:34:09.291345 26141 net.cpp:165] Memory required for data: 22281040
I0526 11:34:09.291355 26141 layer_factory.hpp:77] Creating layer pool2
I0526 11:34:09.291368 26141 net.cpp:106] Creating Layer pool2
I0526 11:34:09.291378 26141 net.cpp:454] pool2 <- conv2
I0526 11:34:09.291390 26141 net.cpp:411] pool2 -> pool2
I0526 11:34:09.291461 26141 net.cpp:150] Setting up pool2
I0526 11:34:09.291474 26141 net.cpp:157] Top shape: 20 20 27 46 (496800)
I0526 11:34:09.291484 26141 net.cpp:165] Memory required for data: 24268240
I0526 11:34:09.291494 26141 layer_factory.hpp:77] Creating layer conv3
I0526 11:34:09.291512 26141 net.cpp:106] Creating Layer conv3
I0526 11:34:09.291522 26141 net.cpp:454] conv3 <- pool2
I0526 11:34:09.291537 26141 net.cpp:411] conv3 -> conv3
I0526 11:34:09.293503 26141 net.cpp:150] Setting up conv3
I0526 11:34:09.293526 26141 net.cpp:157] Top shape: 20 28 22 44 (542080)
I0526 11:34:09.293539 26141 net.cpp:165] Memory required for data: 26436560
I0526 11:34:09.293556 26141 layer_factory.hpp:77] Creating layer relu3
I0526 11:34:09.293583 26141 net.cpp:106] Creating Layer relu3
I0526 11:34:09.293593 26141 net.cpp:454] relu3 <- conv3
I0526 11:34:09.293606 26141 net.cpp:397] relu3 -> conv3 (in-place)
I0526 11:34:09.294077 26141 net.cpp:150] Setting up relu3
I0526 11:34:09.294093 26141 net.cpp:157] Top shape: 20 28 22 44 (542080)
I0526 11:34:09.294103 26141 net.cpp:165] Memory required for data: 28604880
I0526 11:34:09.294114 26141 layer_factory.hpp:77] Creating layer pool3
I0526 11:34:09.294127 26141 net.cpp:106] Creating Layer pool3
I0526 11:34:09.294137 26141 net.cpp:454] pool3 <- conv3
I0526 11:34:09.294149 26141 net.cpp:411] pool3 -> pool3
I0526 11:34:09.294221 26141 net.cpp:150] Setting up pool3
I0526 11:34:09.294235 26141 net.cpp:157] Top shape: 20 28 11 44 (271040)
I0526 11:34:09.294245 26141 net.cpp:165] Memory required for data: 29689040
I0526 11:34:09.294262 26141 layer_factory.hpp:77] Creating layer conv4
I0526 11:34:09.294281 26141 net.cpp:106] Creating Layer conv4
I0526 11:34:09.294291 26141 net.cpp:454] conv4 <- pool3
I0526 11:34:09.294306 26141 net.cpp:411] conv4 -> conv4
I0526 11:34:09.296360 26141 net.cpp:150] Setting up conv4
I0526 11:34:09.296376 26141 net.cpp:157] Top shape: 20 36 6 42 (181440)
I0526 11:34:09.296388 26141 net.cpp:165] Memory required for data: 30414800
I0526 11:34:09.296403 26141 layer_factory.hpp:77] Creating layer relu4
I0526 11:34:09.296416 26141 net.cpp:106] Creating Layer relu4
I0526 11:34:09.296427 26141 net.cpp:454] relu4 <- conv4
I0526 11:34:09.296439 26141 net.cpp:397] relu4 -> conv4 (in-place)
I0526 11:34:09.296906 26141 net.cpp:150] Setting up relu4
I0526 11:34:09.296922 26141 net.cpp:157] Top shape: 20 36 6 42 (181440)
I0526 11:34:09.296932 26141 net.cpp:165] Memory required for data: 31140560
I0526 11:34:09.296942 26141 layer_factory.hpp:77] Creating layer pool4
I0526 11:34:09.296955 26141 net.cpp:106] Creating Layer pool4
I0526 11:34:09.296965 26141 net.cpp:454] pool4 <- conv4
I0526 11:34:09.296978 26141 net.cpp:411] pool4 -> pool4
I0526 11:34:09.297050 26141 net.cpp:150] Setting up pool4
I0526 11:34:09.297065 26141 net.cpp:157] Top shape: 20 36 3 42 (90720)
I0526 11:34:09.297073 26141 net.cpp:165] Memory required for data: 31503440
I0526 11:34:09.297081 26141 layer_factory.hpp:77] Creating layer ip1
I0526 11:34:09.297097 26141 net.cpp:106] Creating Layer ip1
I0526 11:34:09.297107 26141 net.cpp:454] ip1 <- pool4
I0526 11:34:09.297122 26141 net.cpp:411] ip1 -> ip1
I0526 11:34:09.312567 26141 net.cpp:150] Setting up ip1
I0526 11:34:09.312597 26141 net.cpp:157] Top shape: 20 196 (3920)
I0526 11:34:09.312608 26141 net.cpp:165] Memory required for data: 31519120
I0526 11:34:09.312631 26141 layer_factory.hpp:77] Creating layer relu5
I0526 11:34:09.312646 26141 net.cpp:106] Creating Layer relu5
I0526 11:34:09.312656 26141 net.cpp:454] relu5 <- ip1
I0526 11:34:09.312670 26141 net.cpp:397] relu5 -> ip1 (in-place)
I0526 11:34:09.313017 26141 net.cpp:150] Setting up relu5
I0526 11:34:09.313031 26141 net.cpp:157] Top shape: 20 196 (3920)
I0526 11:34:09.313041 26141 net.cpp:165] Memory required for data: 31534800
I0526 11:34:09.313051 26141 layer_factory.hpp:77] Creating layer drop1
I0526 11:34:09.313071 26141 net.cpp:106] Creating Layer drop1
I0526 11:34:09.313081 26141 net.cpp:454] drop1 <- ip1
I0526 11:34:09.313093 26141 net.cpp:397] drop1 -> ip1 (in-place)
I0526 11:34:09.313138 26141 net.cpp:150] Setting up drop1
I0526 11:34:09.313151 26141 net.cpp:157] Top shape: 20 196 (3920)
I0526 11:34:09.313161 26141 net.cpp:165] Memory required for data: 31550480
I0526 11:34:09.313170 26141 layer_factory.hpp:77] Creating layer ip2
I0526 11:34:09.313185 26141 net.cpp:106] Creating Layer ip2
I0526 11:34:09.313195 26141 net.cpp:454] ip2 <- ip1
I0526 11:34:09.313210 26141 net.cpp:411] ip2 -> ip2
I0526 11:34:09.313693 26141 net.cpp:150] Setting up ip2
I0526 11:34:09.313706 26141 net.cpp:157] Top shape: 20 98 (1960)
I0526 11:34:09.313716 26141 net.cpp:165] Memory required for data: 31558320
I0526 11:34:09.313731 26141 layer_factory.hpp:77] Creating layer relu6
I0526 11:34:09.313756 26141 net.cpp:106] Creating Layer relu6
I0526 11:34:09.313766 26141 net.cpp:454] relu6 <- ip2
I0526 11:34:09.313779 26141 net.cpp:397] relu6 -> ip2 (in-place)
I0526 11:34:09.314316 26141 net.cpp:150] Setting up relu6
I0526 11:34:09.314337 26141 net.cpp:157] Top shape: 20 98 (1960)
I0526 11:34:09.314347 26141 net.cpp:165] Memory required for data: 31566160
I0526 11:34:09.314357 26141 layer_factory.hpp:77] Creating layer drop2
I0526 11:34:09.314370 26141 net.cpp:106] Creating Layer drop2
I0526 11:34:09.314380 26141 net.cpp:454] drop2 <- ip2
I0526 11:34:09.314393 26141 net.cpp:397] drop2 -> ip2 (in-place)
I0526 11:34:09.314437 26141 net.cpp:150] Setting up drop2
I0526 11:34:09.314450 26141 net.cpp:157] Top shape: 20 98 (1960)
I0526 11:34:09.314460 26141 net.cpp:165] Memory required for data: 31574000
I0526 11:34:09.314471 26141 layer_factory.hpp:77] Creating layer ip3
I0526 11:34:09.314483 26141 net.cpp:106] Creating Layer ip3
I0526 11:34:09.314493 26141 net.cpp:454] ip3 <- ip2
I0526 11:34:09.314507 26141 net.cpp:411] ip3 -> ip3
I0526 11:34:09.314733 26141 net.cpp:150] Setting up ip3
I0526 11:34:09.314745 26141 net.cpp:157] Top shape: 20 11 (220)
I0526 11:34:09.314755 26141 net.cpp:165] Memory required for data: 31574880
I0526 11:34:09.314770 26141 layer_factory.hpp:77] Creating layer drop3
I0526 11:34:09.314784 26141 net.cpp:106] Creating Layer drop3
I0526 11:34:09.314792 26141 net.cpp:454] drop3 <- ip3
I0526 11:34:09.314805 26141 net.cpp:397] drop3 -> ip3 (in-place)
I0526 11:34:09.314846 26141 net.cpp:150] Setting up drop3
I0526 11:34:09.314859 26141 net.cpp:157] Top shape: 20 11 (220)
I0526 11:34:09.314868 26141 net.cpp:165] Memory required for data: 31575760
I0526 11:34:09.314878 26141 layer_factory.hpp:77] Creating layer ip3_drop3_0_split
I0526 11:34:09.314891 26141 net.cpp:106] Creating Layer ip3_drop3_0_split
I0526 11:34:09.314901 26141 net.cpp:454] ip3_drop3_0_split <- ip3
I0526 11:34:09.314914 26141 net.cpp:411] ip3_drop3_0_split -> ip3_drop3_0_split_0
I0526 11:34:09.314929 26141 net.cpp:411] ip3_drop3_0_split -> ip3_drop3_0_split_1
I0526 11:34:09.315002 26141 net.cpp:150] Setting up ip3_drop3_0_split
I0526 11:34:09.315016 26141 net.cpp:157] Top shape: 20 11 (220)
I0526 11:34:09.315028 26141 net.cpp:157] Top shape: 20 11 (220)
I0526 11:34:09.315040 26141 net.cpp:165] Memory required for data: 31577520
I0526 11:34:09.315050 26141 layer_factory.hpp:77] Creating layer accuracy
I0526 11:34:09.315071 26141 net.cpp:106] Creating Layer accuracy
I0526 11:34:09.315081 26141 net.cpp:454] accuracy <- ip3_drop3_0_split_0
I0526 11:34:09.315093 26141 net.cpp:454] accuracy <- label_data_hdf5_1_split_0
I0526 11:34:09.315106 26141 net.cpp:411] accuracy -> accuracy
…
