…
I0522 02:04:51.308753  6507 net.cpp:322] The NetState phase (0) differed from the phase (1) specified by a rule in layer data_hdf5
I0522 02:04:51.308812  6507 net.cpp:322] The NetState phase (0) differed from the phase (1) specified by a rule in layer accuracy
I0522 02:04:51.309161  6507 net.cpp:49] Initializing net from parameters: 
name: "caffe_test_127x50_x_unshifted"
state {
  phase: TRAIN
}
layer {
  name: "data_hdf5"
  type: "HDF5Data"
  top: "data"
  top: "label"
  include {
    phase: TRAIN
  }
  hdf5_data_param {
    source: "/lustre/atlas/proj-shared/hep105/caffe_titan/minosmatch_nukecczdefs_127x50_x_unshifted_me1Bmc.trainlist"
    batch_size: 20
  }
}
layer {
  name: "conv1"
  type: "Convolution"
  bottom: "data"
  top: "conv1"
  convolution_param {
    num_output: 12
    pad: 0
    stride: 1
    weight_filler {
      type: "xavier"
    }
    bias_filler {
      type: "constant"
    }
    kernel_h: 8
    kernel_w: 3
  }
}
layer {
  name: "relu1"
  type: "ReLU"
  bottom: "conv1"
  top: "conv1"
}
layer {
  name: "pool1"
  type: "Pooling"
  bottom: "conv1"
  top: "pool1"
  pooling_param {
    pool: MAX
    kernel_h: 2
    kernel_w: 1
    stride_h: 2
    stride_w: 1
  }
}
layer {
  name: "conv2"
  type: "Convolution"
  bottom: "pool1"
  top: "conv2"
  convolution_param {
    num_output: 20
    pad: 0
    stride: 1
    weight_filler {
      type: "xavier"
    }
    bias_filler {
      type: "constant"
    }
    kernel_h: 7
    kernel_w: 3
  }
}
layer {
  name: "relu2"
  type: "ReLU"
  bottom: "conv2"
  top: "conv2"
}
layer {
  name: "pool2"
  type: "Pooling"
  bottom: "conv2"
  top: "pool2"
  pooling_param {
    pool: MAX
    kernel_h: 2
    kernel_w: 1
    stride_h: 2
    stride_w: 1
  }
}
layer {
  name: "conv3"
  type: "Convolution"
  bottom: "pool2"
  top: "conv3"
  convolution_param {
    num_output: 28
    pad: 0
    stride: 1
    weight_filler {
      type: "xavier"
    }
    bias_filler {
      type: "constant"
    }
    kernel_h: 6
    kernel_w: 3
  }
}
layer {
  name: "relu3"
  type: "ReLU"
  bottom: "conv3"
  top: "conv3"
}
layer {
  name: "pool3"
  type: "Pooling"
  bottom: "conv3"
  top: "pool3"
  pooling_param {
    pool: MAX
    kernel_h: 2
    kernel_w: 1
    stride_h: 2
    stride_w: 1
  }
}
layer {
  name: "conv4"
  type: "Convolution"
  bottom: "pool3"
  top: "conv4"
  convolution_param {
    num_output: 36
    pad: 0
    stride: 1
    weight_filler {
      type: "xavier"
    }
    bias_filler {
      type: "constant"
    }
    kernel_h: 6
    kernel_w: 3
  }
}
layer {
  name: "relu4"
  type: "ReLU"
  bottom: "conv4"
  top: "conv4"
}
layer {
  name: "pool4"
  type: "Pooling"
  bottom: "conv4"
  top: "pool4"
  pooling_param {
    pool: MAX
    kernel_h: 2
    kernel_w: 1
    stride_h: 2
    stride_w: 1
  }
}
layer {
  name: "ip1"
  type: "InnerProduct"
  bottom: "pool4"
  top: "ip1"
  inner_product_param {
    num_output: 196
    weight_filler {
      type: "xavier"
    }
    bias_filler {
      type: "constant"
    }
  }
}
layer {
  name: "relu5"
  type: "ReLU"
  bottom: "ip1"
  top: "ip1"
}
layer {
  name: "drop1"
  type: "Dropout"
  bottom: "ip1"
  top: "ip1"
  dropout_param {
    dropout_ratio: 0.5
  }
}
layer {
  name: "ip2"
  type: "InnerProduct"
  bottom: "ip1"
  top: "ip2"
  inner_product_param {
    num_output: 98
    weight_filler {
      type: "xavier"
    }
    bias_filler {
      type: "constant"
    }
  }
}
layer {
  name: "relu6"
  type: "ReLU"
  bottom: "ip2"
  top: "ip2"
}
layer {
  name: "drop2"
  type: "Dropout"
  bottom: "ip2"
  top: "ip2"
  dropout_param {
    dropout_ratio: 0.5
  }
}
layer {
  name: "ip3"
  type: "InnerProduct"
  bottom: "ip2"
  top: "ip3"
  inner_product_param {
    num_output: 11
    weight_filler {
      type: "xavier"
    }
    bias_filler {
      type: "constant"
    }
  }
}
layer {
  name: "drop3"
  type: "Dropout"
  bottom: "ip3"
  top: "ip3"
  dropout_param {
    dropout_ratio: 0.5
  }
}
layer {
  name: "loss"
  type: "SoftmaxWithLoss"
  bottom: "ip3"
  bottom: "label"
  top: "loss"
}
I0522 02:04:51.309342  6507 layer_factory.hpp:77] Creating layer data_hdf5
I0522 02:04:51.309365  6507 net.cpp:106] Creating Layer data_hdf5
I0522 02:04:51.309381  6507 net.cpp:411] data_hdf5 -> data
I0522 02:04:51.309412  6507 net.cpp:411] data_hdf5 -> label
I0522 02:04:51.309444  6507 hdf5_data_layer.cpp:79] Loading list of HDF5 filenames from: /lustre/atlas/proj-shared/hep105/caffe_titan/minosmatch_nukecczdefs_127x50_x_unshifted_me1Bmc.trainlist
I0522 02:04:51.324364  6507 hdf5_data_layer.cpp:93] Number of HDF5 files: 15
I0522 02:04:51.326668  6507 hdf5.cpp:32] Datatype class: H5T_FLOAT
I0522 02:05:12.824453  6507 hdf5.cpp:35] Datatype class: H5T_INTEGER
I0522 02:05:12.829614  6507 net.cpp:150] Setting up data_hdf5
I0522 02:05:12.829651  6507 net.cpp:157] Top shape: 20 1 127 50 (127000)
I0522 02:05:12.829666  6507 net.cpp:157] Top shape: 20 (20)
I0522 02:05:12.829676  6507 net.cpp:165] Memory required for data: 508080
I0522 02:05:12.829690  6507 layer_factory.hpp:77] Creating layer conv1
I0522 02:05:12.829725  6507 net.cpp:106] Creating Layer conv1
I0522 02:05:12.829744  6507 net.cpp:454] conv1 <- data
I0522 02:05:12.829767  6507 net.cpp:411] conv1 -> conv1
I0522 02:05:15.588238  6507 net.cpp:150] Setting up conv1
I0522 02:05:15.588286  6507 net.cpp:157] Top shape: 20 12 120 48 (1382400)
I0522 02:05:15.588297  6507 net.cpp:165] Memory required for data: 6037680
I0522 02:05:15.588327  6507 layer_factory.hpp:77] Creating layer relu1
I0522 02:05:15.588347  6507 net.cpp:106] Creating Layer relu1
I0522 02:05:15.588358  6507 net.cpp:454] relu1 <- conv1
I0522 02:05:15.588372  6507 net.cpp:397] relu1 -> conv1 (in-place)
I0522 02:05:15.588889  6507 net.cpp:150] Setting up relu1
I0522 02:05:15.588906  6507 net.cpp:157] Top shape: 20 12 120 48 (1382400)
I0522 02:05:15.588917  6507 net.cpp:165] Memory required for data: 11567280
I0522 02:05:15.588927  6507 layer_factory.hpp:77] Creating layer pool1
I0522 02:05:15.588943  6507 net.cpp:106] Creating Layer pool1
I0522 02:05:15.588953  6507 net.cpp:454] pool1 <- conv1
I0522 02:05:15.588966  6507 net.cpp:411] pool1 -> pool1
I0522 02:05:15.589046  6507 net.cpp:150] Setting up pool1
I0522 02:05:15.589059  6507 net.cpp:157] Top shape: 20 12 60 48 (691200)
I0522 02:05:15.589069  6507 net.cpp:165] Memory required for data: 14332080
I0522 02:05:15.589079  6507 layer_factory.hpp:77] Creating layer conv2
I0522 02:05:15.589100  6507 net.cpp:106] Creating Layer conv2
I0522 02:05:15.589112  6507 net.cpp:454] conv2 <- pool1
I0522 02:05:15.589124  6507 net.cpp:411] conv2 -> conv2
I0522 02:05:15.591822  6507 net.cpp:150] Setting up conv2
I0522 02:05:15.591845  6507 net.cpp:157] Top shape: 20 20 54 46 (993600)
I0522 02:05:15.591856  6507 net.cpp:165] Memory required for data: 18306480
I0522 02:05:15.591876  6507 layer_factory.hpp:77] Creating layer relu2
I0522 02:05:15.591889  6507 net.cpp:106] Creating Layer relu2
I0522 02:05:15.591899  6507 net.cpp:454] relu2 <- conv2
I0522 02:05:15.591912  6507 net.cpp:397] relu2 -> conv2 (in-place)
I0522 02:05:15.592243  6507 net.cpp:150] Setting up relu2
I0522 02:05:15.592257  6507 net.cpp:157] Top shape: 20 20 54 46 (993600)
I0522 02:05:15.592267  6507 net.cpp:165] Memory required for data: 22280880
I0522 02:05:15.592278  6507 layer_factory.hpp:77] Creating layer pool2
I0522 02:05:15.592289  6507 net.cpp:106] Creating Layer pool2
I0522 02:05:15.592299  6507 net.cpp:454] pool2 <- conv2
I0522 02:05:15.592311  6507 net.cpp:411] pool2 -> pool2
I0522 02:05:15.592392  6507 net.cpp:150] Setting up pool2
I0522 02:05:15.592406  6507 net.cpp:157] Top shape: 20 20 27 46 (496800)
I0522 02:05:15.592417  6507 net.cpp:165] Memory required for data: 24268080
I0522 02:05:15.592425  6507 layer_factory.hpp:77] Creating layer conv3
I0522 02:05:15.592444  6507 net.cpp:106] Creating Layer conv3
I0522 02:05:15.592454  6507 net.cpp:454] conv3 <- pool2
I0522 02:05:15.592468  6507 net.cpp:411] conv3 -> conv3
I0522 02:05:15.594429  6507 net.cpp:150] Setting up conv3
I0522 02:05:15.594451  6507 net.cpp:157] Top shape: 20 28 22 44 (542080)
I0522 02:05:15.594466  6507 net.cpp:165] Memory required for data: 26436400
I0522 02:05:15.594485  6507 layer_factory.hpp:77] Creating layer relu3
I0522 02:05:15.594501  6507 net.cpp:106] Creating Layer relu3
I0522 02:05:15.594511  6507 net.cpp:454] relu3 <- conv3
I0522 02:05:15.594523  6507 net.cpp:397] relu3 -> conv3 (in-place)
I0522 02:05:15.594990  6507 net.cpp:150] Setting up relu3
I0522 02:05:15.595007  6507 net.cpp:157] Top shape: 20 28 22 44 (542080)
I0522 02:05:15.595017  6507 net.cpp:165] Memory required for data: 28604720
I0522 02:05:15.595027  6507 layer_factory.hpp:77] Creating layer pool3
I0522 02:05:15.595041  6507 net.cpp:106] Creating Layer pool3
I0522 02:05:15.595051  6507 net.cpp:454] pool3 <- conv3
I0522 02:05:15.595063  6507 net.cpp:411] pool3 -> pool3
I0522 02:05:15.595130  6507 net.cpp:150] Setting up pool3
I0522 02:05:15.595144  6507 net.cpp:157] Top shape: 20 28 11 44 (271040)
I0522 02:05:15.595154  6507 net.cpp:165] Memory required for data: 29688880
I0522 02:05:15.595163  6507 layer_factory.hpp:77] Creating layer conv4
I0522 02:05:15.595177  6507 net.cpp:106] Creating Layer conv4
I0522 02:05:15.595188  6507 net.cpp:454] conv4 <- pool3
I0522 02:05:15.595202  6507 net.cpp:411] conv4 -> conv4
I0522 02:05:15.597919  6507 net.cpp:150] Setting up conv4
I0522 02:05:15.597946  6507 net.cpp:157] Top shape: 20 36 6 42 (181440)
I0522 02:05:15.597957  6507 net.cpp:165] Memory required for data: 30414640
I0522 02:05:15.597973  6507 layer_factory.hpp:77] Creating layer relu4
I0522 02:05:15.597987  6507 net.cpp:106] Creating Layer relu4
I0522 02:05:15.597997  6507 net.cpp:454] relu4 <- conv4
I0522 02:05:15.598011  6507 net.cpp:397] relu4 -> conv4 (in-place)
I0522 02:05:15.598475  6507 net.cpp:150] Setting up relu4
I0522 02:05:15.598492  6507 net.cpp:157] Top shape: 20 36 6 42 (181440)
I0522 02:05:15.598502  6507 net.cpp:165] Memory required for data: 31140400
I0522 02:05:15.598512  6507 layer_factory.hpp:77] Creating layer pool4
I0522 02:05:15.598526  6507 net.cpp:106] Creating Layer pool4
I0522 02:05:15.598536  6507 net.cpp:454] pool4 <- conv4
I0522 02:05:15.598548  6507 net.cpp:411] pool4 -> pool4
I0522 02:05:15.598615  6507 net.cpp:150] Setting up pool4
I0522 02:05:15.598628  6507 net.cpp:157] Top shape: 20 36 3 42 (90720)
I0522 02:05:15.598639  6507 net.cpp:165] Memory required for data: 31503280
I0522 02:05:15.598649  6507 layer_factory.hpp:77] Creating layer ip1
I0522 02:05:15.598667  6507 net.cpp:106] Creating Layer ip1
I0522 02:05:15.598678  6507 net.cpp:454] ip1 <- pool4
I0522 02:05:15.598691  6507 net.cpp:411] ip1 -> ip1
I0522 02:05:15.614119  6507 net.cpp:150] Setting up ip1
I0522 02:05:15.614146  6507 net.cpp:157] Top shape: 20 196 (3920)
I0522 02:05:15.614158  6507 net.cpp:165] Memory required for data: 31518960
I0522 02:05:15.614181  6507 layer_factory.hpp:77] Creating layer relu5
I0522 02:05:15.614195  6507 net.cpp:106] Creating Layer relu5
I0522 02:05:15.614205  6507 net.cpp:454] relu5 <- ip1
I0522 02:05:15.614218  6507 net.cpp:397] relu5 -> ip1 (in-place)
I0522 02:05:15.614558  6507 net.cpp:150] Setting up relu5
I0522 02:05:15.614573  6507 net.cpp:157] Top shape: 20 196 (3920)
I0522 02:05:15.614583  6507 net.cpp:165] Memory required for data: 31534640
I0522 02:05:15.614593  6507 layer_factory.hpp:77] Creating layer drop1
I0522 02:05:15.614614  6507 net.cpp:106] Creating Layer drop1
I0522 02:05:15.614624  6507 net.cpp:454] drop1 <- ip1
I0522 02:05:15.614636  6507 net.cpp:397] drop1 -> ip1 (in-place)
I0522 02:05:15.614696  6507 net.cpp:150] Setting up drop1
I0522 02:05:15.614708  6507 net.cpp:157] Top shape: 20 196 (3920)
I0522 02:05:15.614719  6507 net.cpp:165] Memory required for data: 31550320
I0522 02:05:15.614728  6507 layer_factory.hpp:77] Creating layer ip2
I0522 02:05:15.614748  6507 net.cpp:106] Creating Layer ip2
I0522 02:05:15.614758  6507 net.cpp:454] ip2 <- ip1
I0522 02:05:15.614769  6507 net.cpp:411] ip2 -> ip2
I0522 02:05:15.615231  6507 net.cpp:150] Setting up ip2
I0522 02:05:15.615244  6507 net.cpp:157] Top shape: 20 98 (1960)
I0522 02:05:15.615253  6507 net.cpp:165] Memory required for data: 31558160
I0522 02:05:15.615268  6507 layer_factory.hpp:77] Creating layer relu6
I0522 02:05:15.615281  6507 net.cpp:106] Creating Layer relu6
I0522 02:05:15.615291  6507 net.cpp:454] relu6 <- ip2
I0522 02:05:15.615303  6507 net.cpp:397] relu6 -> ip2 (in-place)
I0522 02:05:15.615823  6507 net.cpp:150] Setting up relu6
I0522 02:05:15.615839  6507 net.cpp:157] Top shape: 20 98 (1960)
I0522 02:05:15.615849  6507 net.cpp:165] Memory required for data: 31566000
I0522 02:05:15.615860  6507 layer_factory.hpp:77] Creating layer drop2
I0522 02:05:15.615874  6507 net.cpp:106] Creating Layer drop2
I0522 02:05:15.615882  6507 net.cpp:454] drop2 <- ip2
I0522 02:05:15.615895  6507 net.cpp:397] drop2 -> ip2 (in-place)
I0522 02:05:15.615937  6507 net.cpp:150] Setting up drop2
I0522 02:05:15.615952  6507 net.cpp:157] Top shape: 20 98 (1960)
I0522 02:05:15.615962  6507 net.cpp:165] Memory required for data: 31573840
I0522 02:05:15.615972  6507 layer_factory.hpp:77] Creating layer ip3
I0522 02:05:15.615985  6507 net.cpp:106] Creating Layer ip3
I0522 02:05:15.615994  6507 net.cpp:454] ip3 <- ip2
I0522 02:05:15.616006  6507 net.cpp:411] ip3 -> ip3
I0522 02:05:15.616217  6507 net.cpp:150] Setting up ip3
I0522 02:05:15.616230  6507 net.cpp:157] Top shape: 20 11 (220)
I0522 02:05:15.616240  6507 net.cpp:165] Memory required for data: 31574720
I0522 02:05:15.616255  6507 layer_factory.hpp:77] Creating layer drop3
I0522 02:05:15.616268  6507 net.cpp:106] Creating Layer drop3
I0522 02:05:15.616277  6507 net.cpp:454] drop3 <- ip3
I0522 02:05:15.616289  6507 net.cpp:397] drop3 -> ip3 (in-place)
I0522 02:05:15.616329  6507 net.cpp:150] Setting up drop3
I0522 02:05:15.616343  6507 net.cpp:157] Top shape: 20 11 (220)
I0522 02:05:15.616353  6507 net.cpp:165] Memory required for data: 31575600
I0522 02:05:15.616363  6507 layer_factory.hpp:77] Creating layer loss
I0522 02:05:15.616380  6507 net.cpp:106] Creating Layer loss
I0522 02:05:15.616390  6507 net.cpp:454] loss <- ip3
I0522 02:05:15.616401  6507 net.cpp:454] loss <- label
I0522 02:05:15.616415  6507 net.cpp:411] loss -> loss
I0522 02:05:15.616431  6507 layer_factory.hpp:77] Creating layer loss
…
I0522 02:05:15.619175  6507 solver.cpp:181] Creating test net (#0) specified by net file: /lustre/atlas/proj-shared/hep105/caffe_titan/caffe_workflow/logs_bslr/bs_20_lr_0.0035_2016-05-20T15.48.55.766925.prototxt
I0522 02:05:15.619246  6507 net.cpp:322] The NetState phase (1) differed from the phase (0) specified by a rule in layer data_hdf5
I0522 02:05:15.619602  6507 net.cpp:49] Initializing net from parameters: 
name: "caffe_test_127x50_x_unshifted"
state {
  phase: TEST
}
layer {
  name: "data_hdf5"
  type: "HDF5Data"
  top: "data"
  top: "label"
  include {
    phase: TEST
  }
  hdf5_data_param {
    source: "/lustre/atlas/proj-shared/hep105/caffe_titan/minosmatch_nukecczdefs_127x50_x_unshifted_me1Bmc.testlist"
    batch_size: 20
  }
}
layer {
  name: "conv1"
  type: "Convolution"
  bottom: "data"
  top: "conv1"
  convolution_param {
    num_output: 12
    pad: 0
    stride: 1
    weight_filler {
      type: "xavier"
    }
    bias_filler {
      type: "constant"
    }
    kernel_h: 8
    kernel_w: 3
  }
}
layer {
  name: "relu1"
  type: "ReLU"
  bottom: "conv1"
  top: "conv1"
}
layer {
  name: "pool1"
  type: "Pooling"
  bottom: "conv1"
  top: "pool1"
  pooling_param {
    pool: MAX
    kernel_h: 2
    kernel_w: 1
    stride_h: 2
    stride_w: 1
  }
}
layer {
  name: "conv2"
  type: "Convolution"
  bottom: "pool1"
  top: "conv2"
  convolution_param {
    num_output: 20
    pad: 0
    stride: 1
    weight_filler {
      type: "xavier"
    }
    bias_filler {
      type: "constant"
    }
    kernel_h: 7
    kernel_w: 3
  }
}
layer {
  name: "relu2"
  type: "ReLU"
  bottom: "conv2"
  top: "conv2"
}
layer {
  name: "pool2"
  type: "Pooling"
  bottom: "conv2"
  top: "pool2"
  pooling_param {
    pool: MAX
    kernel_h: 2
    kernel_w: 1
    stride_h: 2
    stride_w: 1
  }
}
layer {
  name: "conv3"
  type: "Convolution"
  bottom: "pool2"
  top: "conv3"
  convolution_param {
    num_output: 28
    pad: 0
    stride: 1
    weight_filler {
      type: "xavier"
    }
    bias_filler {
      type: "constant"
    }
    kernel_h: 6
    kernel_w: 3
  }
}
layer {
  name: "relu3"
  type: "ReLU"
  bottom: "conv3"
  top: "conv3"
}
layer {
  name: "pool3"
  type: "Pooling"
  bottom: "conv3"
  top: "pool3"
  pooling_param {
    pool: MAX
    kernel_h: 2
    kernel_w: 1
    stride_h: 2
    stride_w: 1
  }
}
layer {
  name: "conv4"
  type: "Convolution"
  bottom: "pool3"
  top: "conv4"
  convolution_param {
    num_output: 36
    pad: 0
    stride: 1
    weight_filler {
      type: "xavier"
    }
    bias_filler {
      type: "constant"
    }
    kernel_h: 6
    kernel_w: 3
  }
}
layer {
  name: "relu4"
  type: "ReLU"
  bottom: "conv4"
  top: "conv4"
}
layer {
  name: "pool4"
  type: "Pooling"
  bottom: "conv4"
  top: "pool4"
  pooling_param {
    pool: MAX
    kernel_h: 2
    kernel_w: 1
    stride_h: 2
    stride_w: 1
  }
}
layer {
  name: "ip1"
  type: "InnerProduct"
  bottom: "pool4"
  top: "ip1"
  inner_product_param {
    num_output: 196
    weight_filler {
      type: "xavier"
    }
    bias_filler {
      type: "constant"
    }
  }
}
layer {
  name: "relu5"
  type: "ReLU"
  bottom: "ip1"
  top: "ip1"
}
layer {
  name: "drop1"
  type: "Dropout"
  bottom: "ip1"
  top: "ip1"
  dropout_param {
    dropout_ratio: 0.5
  }
}
layer {
  name: "ip2"
  type: "InnerProduct"
  bottom: "ip1"
  top: "ip2"
  inner_product_param {
    num_output: 98
    weight_filler {
      type: "xavier"
    }
    bias_filler {
      type: "constant"
    }
  }
}
layer {
  name: "relu6"
  type: "ReLU"
  bottom: "ip2"
  top: "ip2"
}
layer {
  name: "drop2"
  type: "Dropout"
  bottom: "ip2"
  top: "ip2"
  dropout_param {
    dropout_ratio: 0.5
  }
}
layer {
  name: "ip3"
  type: "InnerProduct"
  bottom: "ip2"
  top: "ip3"
  inner_product_param {
    num_output: 11
    weight_filler {
      type: "xavier"
    }
    bias_filler {
      type: "constant"
    }
  }
}
layer {
  name: "drop3"
  type: "Dropout"
  bottom: "ip3"
  top: "ip3"
  dropout_param {
    dropout_ratio: 0.5
  }
}
layer {
  name: "accuracy"
  type: "Accuracy"
  bottom: "ip3"
  bottom: "label"
  top: "accuracy"
  include {
    phase: TEST
  }
}
layer {
  name: "loss"
  type: "SoftmaxWithLoss"
  bottom: "ip3"
  bottom: "label"
  top: "loss"
}
I0522 02:05:15.619792  6507 layer_factory.hpp:77] Creating layer data_hdf5
I0522 02:05:15.619808  6507 net.cpp:106] Creating Layer data_hdf5
I0522 02:05:15.619820  6507 net.cpp:411] data_hdf5 -> data
I0522 02:05:15.619838  6507 net.cpp:411] data_hdf5 -> label
I0522 02:05:15.619854  6507 hdf5_data_layer.cpp:79] Loading list of HDF5 filenames from: /lustre/atlas/proj-shared/hep105/caffe_titan/minosmatch_nukecczdefs_127x50_x_unshifted_me1Bmc.testlist
I0522 02:05:15.633443  6507 hdf5_data_layer.cpp:93] Number of HDF5 files: 3
I0522 02:05:37.012912  6507 net.cpp:150] Setting up data_hdf5
I0522 02:05:37.013077  6507 net.cpp:157] Top shape: 20 1 127 50 (127000)
I0522 02:05:37.013092  6507 net.cpp:157] Top shape: 20 (20)
I0522 02:05:37.013101  6507 net.cpp:165] Memory required for data: 508080
I0522 02:05:37.013115  6507 layer_factory.hpp:77] Creating layer label_data_hdf5_1_split
I0522 02:05:37.013144  6507 net.cpp:106] Creating Layer label_data_hdf5_1_split
I0522 02:05:37.013155  6507 net.cpp:454] label_data_hdf5_1_split <- label
I0522 02:05:37.013170  6507 net.cpp:411] label_data_hdf5_1_split -> label_data_hdf5_1_split_0
I0522 02:05:37.013191  6507 net.cpp:411] label_data_hdf5_1_split -> label_data_hdf5_1_split_1
I0522 02:05:37.013264  6507 net.cpp:150] Setting up label_data_hdf5_1_split
I0522 02:05:37.013278  6507 net.cpp:157] Top shape: 20 (20)
I0522 02:05:37.013290  6507 net.cpp:157] Top shape: 20 (20)
I0522 02:05:37.013299  6507 net.cpp:165] Memory required for data: 508240
I0522 02:05:37.013309  6507 layer_factory.hpp:77] Creating layer conv1
I0522 02:05:37.013331  6507 net.cpp:106] Creating Layer conv1
I0522 02:05:37.013342  6507 net.cpp:454] conv1 <- data
I0522 02:05:37.013357  6507 net.cpp:411] conv1 -> conv1
I0522 02:05:37.015314  6507 net.cpp:150] Setting up conv1
I0522 02:05:37.015338  6507 net.cpp:157] Top shape: 20 12 120 48 (1382400)
I0522 02:05:37.015349  6507 net.cpp:165] Memory required for data: 6037840
I0522 02:05:37.015372  6507 layer_factory.hpp:77] Creating layer relu1
I0522 02:05:37.015386  6507 net.cpp:106] Creating Layer relu1
I0522 02:05:37.015396  6507 net.cpp:454] relu1 <- conv1
I0522 02:05:37.015409  6507 net.cpp:397] relu1 -> conv1 (in-place)
I0522 02:05:37.015905  6507 net.cpp:150] Setting up relu1
I0522 02:05:37.015921  6507 net.cpp:157] Top shape: 20 12 120 48 (1382400)
I0522 02:05:37.015933  6507 net.cpp:165] Memory required for data: 11567440
I0522 02:05:37.015943  6507 layer_factory.hpp:77] Creating layer pool1
I0522 02:05:37.015959  6507 net.cpp:106] Creating Layer pool1
I0522 02:05:37.015969  6507 net.cpp:454] pool1 <- conv1
I0522 02:05:37.015981  6507 net.cpp:411] pool1 -> pool1
I0522 02:05:37.016057  6507 net.cpp:150] Setting up pool1
I0522 02:05:37.016069  6507 net.cpp:157] Top shape: 20 12 60 48 (691200)
I0522 02:05:37.016078  6507 net.cpp:165] Memory required for data: 14332240
I0522 02:05:37.016090  6507 layer_factory.hpp:77] Creating layer conv2
I0522 02:05:37.016108  6507 net.cpp:106] Creating Layer conv2
I0522 02:05:37.016119  6507 net.cpp:454] conv2 <- pool1
I0522 02:05:37.016132  6507 net.cpp:411] conv2 -> conv2
I0522 02:05:37.018056  6507 net.cpp:150] Setting up conv2
I0522 02:05:37.018079  6507 net.cpp:157] Top shape: 20 20 54 46 (993600)
I0522 02:05:37.018092  6507 net.cpp:165] Memory required for data: 18306640
I0522 02:05:37.018110  6507 layer_factory.hpp:77] Creating layer relu2
I0522 02:05:37.018123  6507 net.cpp:106] Creating Layer relu2
I0522 02:05:37.018133  6507 net.cpp:454] relu2 <- conv2
I0522 02:05:37.018146  6507 net.cpp:397] relu2 -> conv2 (in-place)
I0522 02:05:37.018478  6507 net.cpp:150] Setting up relu2
I0522 02:05:37.018492  6507 net.cpp:157] Top shape: 20 20 54 46 (993600)
I0522 02:05:37.018502  6507 net.cpp:165] Memory required for data: 22281040
I0522 02:05:37.018512  6507 layer_factory.hpp:77] Creating layer pool2
I0522 02:05:37.018525  6507 net.cpp:106] Creating Layer pool2
I0522 02:05:37.018535  6507 net.cpp:454] pool2 <- conv2
I0522 02:05:37.018548  6507 net.cpp:411] pool2 -> pool2
I0522 02:05:37.018618  6507 net.cpp:150] Setting up pool2
I0522 02:05:37.018632  6507 net.cpp:157] Top shape: 20 20 27 46 (496800)
I0522 02:05:37.018641  6507 net.cpp:165] Memory required for data: 24268240
I0522 02:05:37.018652  6507 layer_factory.hpp:77] Creating layer conv3
I0522 02:05:37.018671  6507 net.cpp:106] Creating Layer conv3
I0522 02:05:37.018682  6507 net.cpp:454] conv3 <- pool2
I0522 02:05:37.018695  6507 net.cpp:411] conv3 -> conv3
I0522 02:05:37.020771  6507 net.cpp:150] Setting up conv3
I0522 02:05:37.020789  6507 net.cpp:157] Top shape: 20 28 22 44 (542080)
I0522 02:05:37.020804  6507 net.cpp:165] Memory required for data: 26436560
I0522 02:05:37.020823  6507 layer_factory.hpp:77] Creating layer relu3
I0522 02:05:37.020849  6507 net.cpp:106] Creating Layer relu3
I0522 02:05:37.020859  6507 net.cpp:454] relu3 <- conv3
I0522 02:05:37.020872  6507 net.cpp:397] relu3 -> conv3 (in-place)
I0522 02:05:37.021347  6507 net.cpp:150] Setting up relu3
I0522 02:05:37.021364  6507 net.cpp:157] Top shape: 20 28 22 44 (542080)
I0522 02:05:37.021375  6507 net.cpp:165] Memory required for data: 28604880
I0522 02:05:37.021385  6507 layer_factory.hpp:77] Creating layer pool3
I0522 02:05:37.021399  6507 net.cpp:106] Creating Layer pool3
I0522 02:05:37.021409  6507 net.cpp:454] pool3 <- conv3
I0522 02:05:37.021421  6507 net.cpp:411] pool3 -> pool3
I0522 02:05:37.021493  6507 net.cpp:150] Setting up pool3
I0522 02:05:37.021507  6507 net.cpp:157] Top shape: 20 28 11 44 (271040)
I0522 02:05:37.021515  6507 net.cpp:165] Memory required for data: 29689040
I0522 02:05:37.021525  6507 layer_factory.hpp:77] Creating layer conv4
I0522 02:05:37.021543  6507 net.cpp:106] Creating Layer conv4
I0522 02:05:37.021553  6507 net.cpp:454] conv4 <- pool3
I0522 02:05:37.021569  6507 net.cpp:411] conv4 -> conv4
I0522 02:05:37.023633  6507 net.cpp:150] Setting up conv4
I0522 02:05:37.023651  6507 net.cpp:157] Top shape: 20 36 6 42 (181440)
I0522 02:05:37.023661  6507 net.cpp:165] Memory required for data: 30414800
I0522 02:05:37.023676  6507 layer_factory.hpp:77] Creating layer relu4
I0522 02:05:37.023689  6507 net.cpp:106] Creating Layer relu4
I0522 02:05:37.023699  6507 net.cpp:454] relu4 <- conv4
I0522 02:05:37.023712  6507 net.cpp:397] relu4 -> conv4 (in-place)
I0522 02:05:37.024181  6507 net.cpp:150] Setting up relu4
I0522 02:05:37.024197  6507 net.cpp:157] Top shape: 20 36 6 42 (181440)
I0522 02:05:37.024207  6507 net.cpp:165] Memory required for data: 31140560
I0522 02:05:37.024217  6507 layer_factory.hpp:77] Creating layer pool4
I0522 02:05:37.024230  6507 net.cpp:106] Creating Layer pool4
I0522 02:05:37.024240  6507 net.cpp:454] pool4 <- conv4
I0522 02:05:37.024253  6507 net.cpp:411] pool4 -> pool4
I0522 02:05:37.024325  6507 net.cpp:150] Setting up pool4
I0522 02:05:37.024338  6507 net.cpp:157] Top shape: 20 36 3 42 (90720)
I0522 02:05:37.024348  6507 net.cpp:165] Memory required for data: 31503440
I0522 02:05:37.024358  6507 layer_factory.hpp:77] Creating layer ip1
I0522 02:05:37.024374  6507 net.cpp:106] Creating Layer ip1
I0522 02:05:37.024384  6507 net.cpp:454] ip1 <- pool4
I0522 02:05:37.024397  6507 net.cpp:411] ip1 -> ip1
I0522 02:05:37.039870  6507 net.cpp:150] Setting up ip1
I0522 02:05:37.039894  6507 net.cpp:157] Top shape: 20 196 (3920)
I0522 02:05:37.039904  6507 net.cpp:165] Memory required for data: 31519120
I0522 02:05:37.039927  6507 layer_factory.hpp:77] Creating layer relu5
I0522 02:05:37.039942  6507 net.cpp:106] Creating Layer relu5
I0522 02:05:37.039952  6507 net.cpp:454] relu5 <- ip1
I0522 02:05:37.039965  6507 net.cpp:397] relu5 -> ip1 (in-place)
I0522 02:05:37.040313  6507 net.cpp:150] Setting up relu5
I0522 02:05:37.040326  6507 net.cpp:157] Top shape: 20 196 (3920)
I0522 02:05:37.040336  6507 net.cpp:165] Memory required for data: 31534800
I0522 02:05:37.040347  6507 layer_factory.hpp:77] Creating layer drop1
I0522 02:05:37.040366  6507 net.cpp:106] Creating Layer drop1
I0522 02:05:37.040375  6507 net.cpp:454] drop1 <- ip1
I0522 02:05:37.040390  6507 net.cpp:397] drop1 -> ip1 (in-place)
I0522 02:05:37.040434  6507 net.cpp:150] Setting up drop1
I0522 02:05:37.040447  6507 net.cpp:157] Top shape: 20 196 (3920)
I0522 02:05:37.040457  6507 net.cpp:165] Memory required for data: 31550480
I0522 02:05:37.040467  6507 layer_factory.hpp:77] Creating layer ip2
I0522 02:05:37.040480  6507 net.cpp:106] Creating Layer ip2
I0522 02:05:37.040491  6507 net.cpp:454] ip2 <- ip1
I0522 02:05:37.040505  6507 net.cpp:411] ip2 -> ip2
I0522 02:05:37.040982  6507 net.cpp:150] Setting up ip2
I0522 02:05:37.040995  6507 net.cpp:157] Top shape: 20 98 (1960)
I0522 02:05:37.041005  6507 net.cpp:165] Memory required for data: 31558320
I0522 02:05:37.041021  6507 layer_factory.hpp:77] Creating layer relu6
I0522 02:05:37.041046  6507 net.cpp:106] Creating Layer relu6
I0522 02:05:37.041056  6507 net.cpp:454] relu6 <- ip2
I0522 02:05:37.041069  6507 net.cpp:397] relu6 -> ip2 (in-place)
I0522 02:05:37.041601  6507 net.cpp:150] Setting up relu6
I0522 02:05:37.041617  6507 net.cpp:157] Top shape: 20 98 (1960)
I0522 02:05:37.041626  6507 net.cpp:165] Memory required for data: 31566160
I0522 02:05:37.041637  6507 layer_factory.hpp:77] Creating layer drop2
I0522 02:05:37.041651  6507 net.cpp:106] Creating Layer drop2
I0522 02:05:37.041661  6507 net.cpp:454] drop2 <- ip2
I0522 02:05:37.041673  6507 net.cpp:397] drop2 -> ip2 (in-place)
I0522 02:05:37.041718  6507 net.cpp:150] Setting up drop2
I0522 02:05:37.041738  6507 net.cpp:157] Top shape: 20 98 (1960)
I0522 02:05:37.041749  6507 net.cpp:165] Memory required for data: 31574000
I0522 02:05:37.041759  6507 layer_factory.hpp:77] Creating layer ip3
I0522 02:05:37.041772  6507 net.cpp:106] Creating Layer ip3
I0522 02:05:37.041782  6507 net.cpp:454] ip3 <- ip2
I0522 02:05:37.041795  6507 net.cpp:411] ip3 -> ip3
I0522 02:05:37.042019  6507 net.cpp:150] Setting up ip3
I0522 02:05:37.042032  6507 net.cpp:157] Top shape: 20 11 (220)
I0522 02:05:37.042042  6507 net.cpp:165] Memory required for data: 31574880
I0522 02:05:37.042057  6507 layer_factory.hpp:77] Creating layer drop3
I0522 02:05:37.042070  6507 net.cpp:106] Creating Layer drop3
I0522 02:05:37.042080  6507 net.cpp:454] drop3 <- ip3
I0522 02:05:37.042093  6507 net.cpp:397] drop3 -> ip3 (in-place)
I0522 02:05:37.042134  6507 net.cpp:150] Setting up drop3
I0522 02:05:37.042146  6507 net.cpp:157] Top shape: 20 11 (220)
I0522 02:05:37.042156  6507 net.cpp:165] Memory required for data: 31575760
I0522 02:05:37.042166  6507 layer_factory.hpp:77] Creating layer ip3_drop3_0_split
I0522 02:05:37.042181  6507 net.cpp:106] Creating Layer ip3_drop3_0_split
I0522 02:05:37.042189  6507 net.cpp:454] ip3_drop3_0_split <- ip3
I0522 02:05:37.042202  6507 net.cpp:411] ip3_drop3_0_split -> ip3_drop3_0_split_0
I0522 02:05:37.042217  6507 net.cpp:411] ip3_drop3_0_split -> ip3_drop3_0_split_1
I0522 02:05:37.042291  6507 net.cpp:150] Setting up ip3_drop3_0_split
I0522 02:05:37.042304  6507 net.cpp:157] Top shape: 20 11 (220)
I0522 02:05:37.042316  6507 net.cpp:157] Top shape: 20 11 (220)
I0522 02:05:37.042326  6507 net.cpp:165] Memory required for data: 31577520
I0522 02:05:37.042336  6507 layer_factory.hpp:77] Creating layer accuracy
I0522 02:05:37.042358  6507 net.cpp:106] Creating Layer accuracy
I0522 02:05:37.042368  6507 net.cpp:454] accuracy <- ip3_drop3_0_split_0
I0522 02:05:37.042379  6507 net.cpp:454] accuracy <- label_data_hdf5_1_split_0
I0522 02:05:37.042393  6507 net.cpp:411] accuracy -> accuracy
…
