…
I0522 14:09:20.862865 27620 net.cpp:322] The NetState phase (0) differed from the phase (1) specified by a rule in layer data_hdf5
I0522 14:09:20.862925 27620 net.cpp:322] The NetState phase (0) differed from the phase (1) specified by a rule in layer accuracy
I0522 14:09:20.863271 27620 net.cpp:49] Initializing net from parameters: 
name: "caffe_test_127x50_x_unshifted"
state {
  phase: TRAIN
}
layer {
  name: "data_hdf5"
  type: "HDF5Data"
  top: "data"
  top: "label"
  include {
    phase: TRAIN
  }
  hdf5_data_param {
    source: "/lustre/atlas/proj-shared/hep105/caffe_titan/minosmatch_nukecczdefs_127x50_x_unshifted_me1Bmc.trainlist"
    batch_size: 30
  }
}
layer {
  name: "conv1"
  type: "Convolution"
  bottom: "data"
  top: "conv1"
  convolution_param {
    num_output: 12
    pad: 0
    stride: 1
    weight_filler {
      type: "xavier"
    }
    bias_filler {
      type: "constant"
    }
    kernel_h: 8
    kernel_w: 3
  }
}
layer {
  name: "relu1"
  type: "ReLU"
  bottom: "conv1"
  top: "conv1"
}
layer {
  name: "pool1"
  type: "Pooling"
  bottom: "conv1"
  top: "pool1"
  pooling_param {
    pool: MAX
    kernel_h: 2
    kernel_w: 1
    stride_h: 2
    stride_w: 1
  }
}
layer {
  name: "conv2"
  type: "Convolution"
  bottom: "pool1"
  top: "conv2"
  convolution_param {
    num_output: 20
    pad: 0
    stride: 1
    weight_filler {
      type: "xavier"
    }
    bias_filler {
      type: "constant"
    }
    kernel_h: 7
    kernel_w: 3
  }
}
layer {
  name: "relu2"
  type: "ReLU"
  bottom: "conv2"
  top: "conv2"
}
layer {
  name: "pool2"
  type: "Pooling"
  bottom: "conv2"
  top: "pool2"
  pooling_param {
    pool: MAX
    kernel_h: 2
    kernel_w: 1
    stride_h: 2
    stride_w: 1
  }
}
layer {
  name: "conv3"
  type: "Convolution"
  bottom: "pool2"
  top: "conv3"
  convolution_param {
    num_output: 28
    pad: 0
    stride: 1
    weight_filler {
      type: "xavier"
    }
    bias_filler {
      type: "constant"
    }
    kernel_h: 6
    kernel_w: 3
  }
}
layer {
  name: "relu3"
  type: "ReLU"
  bottom: "conv3"
  top: "conv3"
}
layer {
  name: "pool3"
  type: "Pooling"
  bottom: "conv3"
  top: "pool3"
  pooling_param {
    pool: MAX
    kernel_h: 2
    kernel_w: 1
    stride_h: 2
    stride_w: 1
  }
}
layer {
  name: "conv4"
  type: "Convolution"
  bottom: "pool3"
  top: "conv4"
  convolution_param {
    num_output: 36
    pad: 0
    stride: 1
    weight_filler {
      type: "xavier"
    }
    bias_filler {
      type: "constant"
    }
    kernel_h: 6
    kernel_w: 3
  }
}
layer {
  name: "relu4"
  type: "ReLU"
  bottom: "conv4"
  top: "conv4"
}
layer {
  name: "pool4"
  type: "Pooling"
  bottom: "conv4"
  top: "pool4"
  pooling_param {
    pool: MAX
    kernel_h: 2
    kernel_w: 1
    stride_h: 2
    stride_w: 1
  }
}
layer {
  name: "ip1"
  type: "InnerProduct"
  bottom: "pool4"
  top: "ip1"
  inner_product_param {
    num_output: 196
    weight_filler {
      type: "xavier"
    }
    bias_filler {
      type: "constant"
    }
  }
}
layer {
  name: "relu5"
  type: "ReLU"
  bottom: "ip1"
  top: "ip1"
}
layer {
  name: "drop1"
  type: "Dropout"
  bottom: "ip1"
  top: "ip1"
  dropout_param {
    dropout_ratio: 0.5
  }
}
layer {
  name: "ip2"
  type: "InnerProduct"
  bottom: "ip1"
  top: "ip2"
  inner_product_param {
    num_output: 98
    weight_filler {
      type: "xavier"
    }
    bias_filler {
      type: "constant"
    }
  }
}
layer {
  name: "relu6"
  type: "ReLU"
  bottom: "ip2"
  top: "ip2"
}
layer {
  name: "drop2"
  type: "Dropout"
  bottom: "ip2"
  top: "ip2"
  dropout_param {
    dropout_ratio: 0.5
  }
}
layer {
  name: "ip3"
  type: "InnerProduct"
  bottom: "ip2"
  top: "ip3"
  inner_product_param {
    num_output: 11
    weight_filler {
      type: "xavier"
    }
    bias_filler {
      type: "constant"
    }
  }
}
layer {
  name: "drop3"
  type: "Dropout"
  bottom: "ip3"
  top: "ip3"
  dropout_param {
    dropout_ratio: 0.5
  }
}
layer {
  name: "loss"
  type: "SoftmaxWithLoss"
  bottom: "ip3"
  bottom: "label"
  top: "loss"
}
I0522 14:09:20.863451 27620 layer_factory.hpp:77] Creating layer data_hdf5
I0522 14:09:20.863474 27620 net.cpp:106] Creating Layer data_hdf5
I0522 14:09:20.863489 27620 net.cpp:411] data_hdf5 -> data
I0522 14:09:20.863523 27620 net.cpp:411] data_hdf5 -> label
I0522 14:09:20.863556 27620 hdf5_data_layer.cpp:79] Loading list of HDF5 filenames from: /lustre/atlas/proj-shared/hep105/caffe_titan/minosmatch_nukecczdefs_127x50_x_unshifted_me1Bmc.trainlist
I0522 14:09:20.865494 27620 hdf5_data_layer.cpp:93] Number of HDF5 files: 15
I0522 14:09:20.867776 27620 hdf5.cpp:32] Datatype class: H5T_FLOAT
I0522 14:09:42.382673 27620 hdf5.cpp:35] Datatype class: H5T_INTEGER
I0522 14:09:42.387785 27620 net.cpp:150] Setting up data_hdf5
I0522 14:09:42.387825 27620 net.cpp:157] Top shape: 30 1 127 50 (190500)
I0522 14:09:42.387840 27620 net.cpp:157] Top shape: 30 (30)
I0522 14:09:42.387850 27620 net.cpp:165] Memory required for data: 762120
I0522 14:09:42.387863 27620 layer_factory.hpp:77] Creating layer conv1
I0522 14:09:42.387897 27620 net.cpp:106] Creating Layer conv1
I0522 14:09:42.387909 27620 net.cpp:454] conv1 <- data
I0522 14:09:42.387933 27620 net.cpp:411] conv1 -> conv1
I0522 14:09:42.751528 27620 net.cpp:150] Setting up conv1
I0522 14:09:42.751575 27620 net.cpp:157] Top shape: 30 12 120 48 (2073600)
I0522 14:09:42.751586 27620 net.cpp:165] Memory required for data: 9056520
I0522 14:09:42.751616 27620 layer_factory.hpp:77] Creating layer relu1
I0522 14:09:42.751637 27620 net.cpp:106] Creating Layer relu1
I0522 14:09:42.751648 27620 net.cpp:454] relu1 <- conv1
I0522 14:09:42.751662 27620 net.cpp:397] relu1 -> conv1 (in-place)
I0522 14:09:42.752177 27620 net.cpp:150] Setting up relu1
I0522 14:09:42.752193 27620 net.cpp:157] Top shape: 30 12 120 48 (2073600)
I0522 14:09:42.752203 27620 net.cpp:165] Memory required for data: 17350920
I0522 14:09:42.752215 27620 layer_factory.hpp:77] Creating layer pool1
I0522 14:09:42.752231 27620 net.cpp:106] Creating Layer pool1
I0522 14:09:42.752241 27620 net.cpp:454] pool1 <- conv1
I0522 14:09:42.752256 27620 net.cpp:411] pool1 -> pool1
I0522 14:09:42.752336 27620 net.cpp:150] Setting up pool1
I0522 14:09:42.752349 27620 net.cpp:157] Top shape: 30 12 60 48 (1036800)
I0522 14:09:42.752359 27620 net.cpp:165] Memory required for data: 21498120
I0522 14:09:42.752370 27620 layer_factory.hpp:77] Creating layer conv2
I0522 14:09:42.752393 27620 net.cpp:106] Creating Layer conv2
I0522 14:09:42.752403 27620 net.cpp:454] conv2 <- pool1
I0522 14:09:42.752414 27620 net.cpp:411] conv2 -> conv2
I0522 14:09:42.755096 27620 net.cpp:150] Setting up conv2
I0522 14:09:42.755125 27620 net.cpp:157] Top shape: 30 20 54 46 (1490400)
I0522 14:09:42.755136 27620 net.cpp:165] Memory required for data: 27459720
I0522 14:09:42.755154 27620 layer_factory.hpp:77] Creating layer relu2
I0522 14:09:42.755169 27620 net.cpp:106] Creating Layer relu2
I0522 14:09:42.755179 27620 net.cpp:454] relu2 <- conv2
I0522 14:09:42.755192 27620 net.cpp:397] relu2 -> conv2 (in-place)
I0522 14:09:42.755520 27620 net.cpp:150] Setting up relu2
I0522 14:09:42.755535 27620 net.cpp:157] Top shape: 30 20 54 46 (1490400)
I0522 14:09:42.755545 27620 net.cpp:165] Memory required for data: 33421320
I0522 14:09:42.755556 27620 layer_factory.hpp:77] Creating layer pool2
I0522 14:09:42.755568 27620 net.cpp:106] Creating Layer pool2
I0522 14:09:42.755579 27620 net.cpp:454] pool2 <- conv2
I0522 14:09:42.755592 27620 net.cpp:411] pool2 -> pool2
I0522 14:09:42.755672 27620 net.cpp:150] Setting up pool2
I0522 14:09:42.755686 27620 net.cpp:157] Top shape: 30 20 27 46 (745200)
I0522 14:09:42.755697 27620 net.cpp:165] Memory required for data: 36402120
I0522 14:09:42.755707 27620 layer_factory.hpp:77] Creating layer conv3
I0522 14:09:42.755724 27620 net.cpp:106] Creating Layer conv3
I0522 14:09:42.755734 27620 net.cpp:454] conv3 <- pool2
I0522 14:09:42.755748 27620 net.cpp:411] conv3 -> conv3
I0522 14:09:42.757690 27620 net.cpp:150] Setting up conv3
I0522 14:09:42.757714 27620 net.cpp:157] Top shape: 30 28 22 44 (813120)
I0522 14:09:42.757725 27620 net.cpp:165] Memory required for data: 39654600
I0522 14:09:42.757743 27620 layer_factory.hpp:77] Creating layer relu3
I0522 14:09:42.757761 27620 net.cpp:106] Creating Layer relu3
I0522 14:09:42.757771 27620 net.cpp:454] relu3 <- conv3
I0522 14:09:42.757782 27620 net.cpp:397] relu3 -> conv3 (in-place)
I0522 14:09:42.758257 27620 net.cpp:150] Setting up relu3
I0522 14:09:42.758275 27620 net.cpp:157] Top shape: 30 28 22 44 (813120)
I0522 14:09:42.758285 27620 net.cpp:165] Memory required for data: 42907080
I0522 14:09:42.758296 27620 layer_factory.hpp:77] Creating layer pool3
I0522 14:09:42.758308 27620 net.cpp:106] Creating Layer pool3
I0522 14:09:42.758318 27620 net.cpp:454] pool3 <- conv3
I0522 14:09:42.758332 27620 net.cpp:411] pool3 -> pool3
I0522 14:09:42.758399 27620 net.cpp:150] Setting up pool3
I0522 14:09:42.758412 27620 net.cpp:157] Top shape: 30 28 11 44 (406560)
I0522 14:09:42.758422 27620 net.cpp:165] Memory required for data: 44533320
I0522 14:09:42.758431 27620 layer_factory.hpp:77] Creating layer conv4
I0522 14:09:42.758450 27620 net.cpp:106] Creating Layer conv4
I0522 14:09:42.758460 27620 net.cpp:454] conv4 <- pool3
I0522 14:09:42.758473 27620 net.cpp:411] conv4 -> conv4
I0522 14:09:42.761185 27620 net.cpp:150] Setting up conv4
I0522 14:09:42.761214 27620 net.cpp:157] Top shape: 30 36 6 42 (272160)
I0522 14:09:42.761224 27620 net.cpp:165] Memory required for data: 45621960
I0522 14:09:42.761240 27620 layer_factory.hpp:77] Creating layer relu4
I0522 14:09:42.761253 27620 net.cpp:106] Creating Layer relu4
I0522 14:09:42.761263 27620 net.cpp:454] relu4 <- conv4
I0522 14:09:42.761276 27620 net.cpp:397] relu4 -> conv4 (in-place)
I0522 14:09:42.761739 27620 net.cpp:150] Setting up relu4
I0522 14:09:42.761755 27620 net.cpp:157] Top shape: 30 36 6 42 (272160)
I0522 14:09:42.761766 27620 net.cpp:165] Memory required for data: 46710600
I0522 14:09:42.761777 27620 layer_factory.hpp:77] Creating layer pool4
I0522 14:09:42.761790 27620 net.cpp:106] Creating Layer pool4
I0522 14:09:42.761800 27620 net.cpp:454] pool4 <- conv4
I0522 14:09:42.761812 27620 net.cpp:411] pool4 -> pool4
I0522 14:09:42.761880 27620 net.cpp:150] Setting up pool4
I0522 14:09:42.761893 27620 net.cpp:157] Top shape: 30 36 3 42 (136080)
I0522 14:09:42.761904 27620 net.cpp:165] Memory required for data: 47254920
I0522 14:09:42.761914 27620 layer_factory.hpp:77] Creating layer ip1
I0522 14:09:42.761932 27620 net.cpp:106] Creating Layer ip1
I0522 14:09:42.761942 27620 net.cpp:454] ip1 <- pool4
I0522 14:09:42.761955 27620 net.cpp:411] ip1 -> ip1
I0522 14:09:42.777371 27620 net.cpp:150] Setting up ip1
I0522 14:09:42.777400 27620 net.cpp:157] Top shape: 30 196 (5880)
I0522 14:09:42.777411 27620 net.cpp:165] Memory required for data: 47278440
I0522 14:09:42.777434 27620 layer_factory.hpp:77] Creating layer relu5
I0522 14:09:42.777449 27620 net.cpp:106] Creating Layer relu5
I0522 14:09:42.777459 27620 net.cpp:454] relu5 <- ip1
I0522 14:09:42.777472 27620 net.cpp:397] relu5 -> ip1 (in-place)
I0522 14:09:42.777812 27620 net.cpp:150] Setting up relu5
I0522 14:09:42.777827 27620 net.cpp:157] Top shape: 30 196 (5880)
I0522 14:09:42.777837 27620 net.cpp:165] Memory required for data: 47301960
I0522 14:09:42.777848 27620 layer_factory.hpp:77] Creating layer drop1
I0522 14:09:42.777868 27620 net.cpp:106] Creating Layer drop1
I0522 14:09:42.777878 27620 net.cpp:454] drop1 <- ip1
I0522 14:09:42.777890 27620 net.cpp:397] drop1 -> ip1 (in-place)
I0522 14:09:42.777951 27620 net.cpp:150] Setting up drop1
I0522 14:09:42.777964 27620 net.cpp:157] Top shape: 30 196 (5880)
I0522 14:09:42.777974 27620 net.cpp:165] Memory required for data: 47325480
I0522 14:09:42.777984 27620 layer_factory.hpp:77] Creating layer ip2
I0522 14:09:42.778002 27620 net.cpp:106] Creating Layer ip2
I0522 14:09:42.778013 27620 net.cpp:454] ip2 <- ip1
I0522 14:09:42.778026 27620 net.cpp:411] ip2 -> ip2
I0522 14:09:42.778493 27620 net.cpp:150] Setting up ip2
I0522 14:09:42.778506 27620 net.cpp:157] Top shape: 30 98 (2940)
I0522 14:09:42.778517 27620 net.cpp:165] Memory required for data: 47337240
I0522 14:09:42.778532 27620 layer_factory.hpp:77] Creating layer relu6
I0522 14:09:42.778544 27620 net.cpp:106] Creating Layer relu6
I0522 14:09:42.778554 27620 net.cpp:454] relu6 <- ip2
I0522 14:09:42.778566 27620 net.cpp:397] relu6 -> ip2 (in-place)
I0522 14:09:42.779079 27620 net.cpp:150] Setting up relu6
I0522 14:09:42.779095 27620 net.cpp:157] Top shape: 30 98 (2940)
I0522 14:09:42.779108 27620 net.cpp:165] Memory required for data: 47349000
I0522 14:09:42.779119 27620 layer_factory.hpp:77] Creating layer drop2
I0522 14:09:42.779131 27620 net.cpp:106] Creating Layer drop2
I0522 14:09:42.779141 27620 net.cpp:454] drop2 <- ip2
I0522 14:09:42.779153 27620 net.cpp:397] drop2 -> ip2 (in-place)
I0522 14:09:42.779196 27620 net.cpp:150] Setting up drop2
I0522 14:09:42.779209 27620 net.cpp:157] Top shape: 30 98 (2940)
I0522 14:09:42.779219 27620 net.cpp:165] Memory required for data: 47360760
I0522 14:09:42.779229 27620 layer_factory.hpp:77] Creating layer ip3
I0522 14:09:42.779242 27620 net.cpp:106] Creating Layer ip3
I0522 14:09:42.779253 27620 net.cpp:454] ip3 <- ip2
I0522 14:09:42.779265 27620 net.cpp:411] ip3 -> ip3
I0522 14:09:42.779475 27620 net.cpp:150] Setting up ip3
I0522 14:09:42.779489 27620 net.cpp:157] Top shape: 30 11 (330)
I0522 14:09:42.779498 27620 net.cpp:165] Memory required for data: 47362080
I0522 14:09:42.779513 27620 layer_factory.hpp:77] Creating layer drop3
I0522 14:09:42.779526 27620 net.cpp:106] Creating Layer drop3
I0522 14:09:42.779536 27620 net.cpp:454] drop3 <- ip3
I0522 14:09:42.779548 27620 net.cpp:397] drop3 -> ip3 (in-place)
I0522 14:09:42.779587 27620 net.cpp:150] Setting up drop3
I0522 14:09:42.779600 27620 net.cpp:157] Top shape: 30 11 (330)
I0522 14:09:42.779610 27620 net.cpp:165] Memory required for data: 47363400
I0522 14:09:42.779619 27620 layer_factory.hpp:77] Creating layer loss
I0522 14:09:42.779639 27620 net.cpp:106] Creating Layer loss
I0522 14:09:42.779649 27620 net.cpp:454] loss <- ip3
I0522 14:09:42.779662 27620 net.cpp:454] loss <- label
I0522 14:09:42.779675 27620 net.cpp:411] loss -> loss
I0522 14:09:42.779691 27620 layer_factory.hpp:77] Creating layer loss
…
I0522 14:09:42.782372 27620 solver.cpp:181] Creating test net (#0) specified by net file: /lustre/atlas/proj-shared/hep105/caffe_titan/caffe_workflow/logs_bslr/bs_30_lr_0.0045_2016-05-20T15.49.00.352182.prototxt
I0522 14:09:42.782443 27620 net.cpp:322] The NetState phase (1) differed from the phase (0) specified by a rule in layer data_hdf5
I0522 14:09:42.782799 27620 net.cpp:49] Initializing net from parameters: 
name: "caffe_test_127x50_x_unshifted"
state {
  phase: TEST
}
layer {
  name: "data_hdf5"
  type: "HDF5Data"
  top: "data"
  top: "label"
  include {
    phase: TEST
  }
  hdf5_data_param {
    source: "/lustre/atlas/proj-shared/hep105/caffe_titan/minosmatch_nukecczdefs_127x50_x_unshifted_me1Bmc.testlist"
    batch_size: 30
  }
}
layer {
  name: "conv1"
  type: "Convolution"
  bottom: "data"
  top: "conv1"
  convolution_param {
    num_output: 12
    pad: 0
    stride: 1
    weight_filler {
      type: "xavier"
    }
    bias_filler {
      type: "constant"
    }
    kernel_h: 8
    kernel_w: 3
  }
}
layer {
  name: "relu1"
  type: "ReLU"
  bottom: "conv1"
  top: "conv1"
}
layer {
  name: "pool1"
  type: "Pooling"
  bottom: "conv1"
  top: "pool1"
  pooling_param {
    pool: MAX
    kernel_h: 2
    kernel_w: 1
    stride_h: 2
    stride_w: 1
  }
}
layer {
  name: "conv2"
  type: "Convolution"
  bottom: "pool1"
  top: "conv2"
  convolution_param {
    num_output: 20
    pad: 0
    stride: 1
    weight_filler {
      type: "xavier"
    }
    bias_filler {
      type: "constant"
    }
    kernel_h: 7
    kernel_w: 3
  }
}
layer {
  name: "relu2"
  type: "ReLU"
  bottom: "conv2"
  top: "conv2"
}
layer {
  name: "pool2"
  type: "Pooling"
  bottom: "conv2"
  top: "pool2"
  pooling_param {
    pool: MAX
    kernel_h: 2
    kernel_w: 1
    stride_h: 2
    stride_w: 1
  }
}
layer {
  name: "conv3"
  type: "Convolution"
  bottom: "pool2"
  top: "conv3"
  convolution_param {
    num_output: 28
    pad: 0
    stride: 1
    weight_filler {
      type: "xavier"
    }
    bias_filler {
      type: "constant"
    }
    kernel_h: 6
    kernel_w: 3
  }
}
layer {
  name: "relu3"
  type: "ReLU"
  bottom: "conv3"
  top: "conv3"
}
layer {
  name: "pool3"
  type: "Pooling"
  bottom: "conv3"
  top: "pool3"
  pooling_param {
    pool: MAX
    kernel_h: 2
    kernel_w: 1
    stride_h: 2
    stride_w: 1
  }
}
layer {
  name: "conv4"
  type: "Convolution"
  bottom: "pool3"
  top: "conv4"
  convolution_param {
    num_output: 36
    pad: 0
    stride: 1
    weight_filler {
      type: "xavier"
    }
    bias_filler {
      type: "constant"
    }
    kernel_h: 6
    kernel_w: 3
  }
}
layer {
  name: "relu4"
  type: "ReLU"
  bottom: "conv4"
  top: "conv4"
}
layer {
  name: "pool4"
  type: "Pooling"
  bottom: "conv4"
  top: "pool4"
  pooling_param {
    pool: MAX
    kernel_h: 2
    kernel_w: 1
    stride_h: 2
    stride_w: 1
  }
}
layer {
  name: "ip1"
  type: "InnerProduct"
  bottom: "pool4"
  top: "ip1"
  inner_product_param {
    num_output: 196
    weight_filler {
      type: "xavier"
    }
    bias_filler {
      type: "constant"
    }
  }
}
layer {
  name: "relu5"
  type: "ReLU"
  bottom: "ip1"
  top: "ip1"
}
layer {
  name: "drop1"
  type: "Dropout"
  bottom: "ip1"
  top: "ip1"
  dropout_param {
    dropout_ratio: 0.5
  }
}
layer {
  name: "ip2"
  type: "InnerProduct"
  bottom: "ip1"
  top: "ip2"
  inner_product_param {
    num_output: 98
    weight_filler {
      type: "xavier"
    }
    bias_filler {
      type: "constant"
    }
  }
}
layer {
  name: "relu6"
  type: "ReLU"
  bottom: "ip2"
  top: "ip2"
}
layer {
  name: "drop2"
  type: "Dropout"
  bottom: "ip2"
  top: "ip2"
  dropout_param {
    dropout_ratio: 0.5
  }
}
layer {
  name: "ip3"
  type: "InnerProduct"
  bottom: "ip2"
  top: "ip3"
  inner_product_param {
    num_output: 11
    weight_filler {
      type: "xavier"
    }
    bias_filler {
      type: "constant"
    }
  }
}
layer {
  name: "drop3"
  type: "Dropout"
  bottom: "ip3"
  top: "ip3"
  dropout_param {
    dropout_ratio: 0.5
  }
}
layer {
  name: "accuracy"
  type: "Accuracy"
  bottom: "ip3"
  bottom: "label"
  top: "accuracy"
  include {
    phase: TEST
  }
}
layer {
  name: "loss"
  type: "SoftmaxWithLoss"
  bottom: "ip3"
  bottom: "label"
  top: "loss"
}
I0522 14:09:42.782989 27620 layer_factory.hpp:77] Creating layer data_hdf5
I0522 14:09:42.783004 27620 net.cpp:106] Creating Layer data_hdf5
I0522 14:09:42.783017 27620 net.cpp:411] data_hdf5 -> data
I0522 14:09:42.783033 27620 net.cpp:411] data_hdf5 -> label
I0522 14:09:42.783049 27620 hdf5_data_layer.cpp:79] Loading list of HDF5 filenames from: /lustre/atlas/proj-shared/hep105/caffe_titan/minosmatch_nukecczdefs_127x50_x_unshifted_me1Bmc.testlist
I0522 14:09:42.784312 27620 hdf5_data_layer.cpp:93] Number of HDF5 files: 3
I0522 14:10:04.134793 27620 net.cpp:150] Setting up data_hdf5
I0522 14:10:04.134961 27620 net.cpp:157] Top shape: 30 1 127 50 (190500)
I0522 14:10:04.134976 27620 net.cpp:157] Top shape: 30 (30)
I0522 14:10:04.134987 27620 net.cpp:165] Memory required for data: 762120
I0522 14:10:04.135001 27620 layer_factory.hpp:77] Creating layer label_data_hdf5_1_split
I0522 14:10:04.135030 27620 net.cpp:106] Creating Layer label_data_hdf5_1_split
I0522 14:10:04.135040 27620 net.cpp:454] label_data_hdf5_1_split <- label
I0522 14:10:04.135056 27620 net.cpp:411] label_data_hdf5_1_split -> label_data_hdf5_1_split_0
I0522 14:10:04.135077 27620 net.cpp:411] label_data_hdf5_1_split -> label_data_hdf5_1_split_1
I0522 14:10:04.135150 27620 net.cpp:150] Setting up label_data_hdf5_1_split
I0522 14:10:04.135164 27620 net.cpp:157] Top shape: 30 (30)
I0522 14:10:04.135175 27620 net.cpp:157] Top shape: 30 (30)
I0522 14:10:04.135185 27620 net.cpp:165] Memory required for data: 762360
I0522 14:10:04.135195 27620 layer_factory.hpp:77] Creating layer conv1
I0522 14:10:04.135217 27620 net.cpp:106] Creating Layer conv1
I0522 14:10:04.135227 27620 net.cpp:454] conv1 <- data
I0522 14:10:04.135242 27620 net.cpp:411] conv1 -> conv1
I0522 14:10:04.137173 27620 net.cpp:150] Setting up conv1
I0522 14:10:04.137197 27620 net.cpp:157] Top shape: 30 12 120 48 (2073600)
I0522 14:10:04.137209 27620 net.cpp:165] Memory required for data: 9056760
I0522 14:10:04.137229 27620 layer_factory.hpp:77] Creating layer relu1
I0522 14:10:04.137244 27620 net.cpp:106] Creating Layer relu1
I0522 14:10:04.137254 27620 net.cpp:454] relu1 <- conv1
I0522 14:10:04.137267 27620 net.cpp:397] relu1 -> conv1 (in-place)
I0522 14:10:04.137764 27620 net.cpp:150] Setting up relu1
I0522 14:10:04.137781 27620 net.cpp:157] Top shape: 30 12 120 48 (2073600)
I0522 14:10:04.137791 27620 net.cpp:165] Memory required for data: 17351160
I0522 14:10:04.137801 27620 layer_factory.hpp:77] Creating layer pool1
I0522 14:10:04.137819 27620 net.cpp:106] Creating Layer pool1
I0522 14:10:04.137827 27620 net.cpp:454] pool1 <- conv1
I0522 14:10:04.137842 27620 net.cpp:411] pool1 -> pool1
I0522 14:10:04.137917 27620 net.cpp:150] Setting up pool1
I0522 14:10:04.137929 27620 net.cpp:157] Top shape: 30 12 60 48 (1036800)
I0522 14:10:04.137939 27620 net.cpp:165] Memory required for data: 21498360
I0522 14:10:04.137951 27620 layer_factory.hpp:77] Creating layer conv2
I0522 14:10:04.137969 27620 net.cpp:106] Creating Layer conv2
I0522 14:10:04.137979 27620 net.cpp:454] conv2 <- pool1
I0522 14:10:04.137994 27620 net.cpp:411] conv2 -> conv2
I0522 14:10:04.139916 27620 net.cpp:150] Setting up conv2
I0522 14:10:04.139940 27620 net.cpp:157] Top shape: 30 20 54 46 (1490400)
I0522 14:10:04.139950 27620 net.cpp:165] Memory required for data: 27459960
I0522 14:10:04.139967 27620 layer_factory.hpp:77] Creating layer relu2
I0522 14:10:04.139981 27620 net.cpp:106] Creating Layer relu2
I0522 14:10:04.139991 27620 net.cpp:454] relu2 <- conv2
I0522 14:10:04.140003 27620 net.cpp:397] relu2 -> conv2 (in-place)
I0522 14:10:04.140333 27620 net.cpp:150] Setting up relu2
I0522 14:10:04.140347 27620 net.cpp:157] Top shape: 30 20 54 46 (1490400)
I0522 14:10:04.140357 27620 net.cpp:165] Memory required for data: 33421560
I0522 14:10:04.140367 27620 layer_factory.hpp:77] Creating layer pool2
I0522 14:10:04.140379 27620 net.cpp:106] Creating Layer pool2
I0522 14:10:04.140390 27620 net.cpp:454] pool2 <- conv2
I0522 14:10:04.140403 27620 net.cpp:411] pool2 -> pool2
I0522 14:10:04.140473 27620 net.cpp:150] Setting up pool2
I0522 14:10:04.140486 27620 net.cpp:157] Top shape: 30 20 27 46 (745200)
I0522 14:10:04.140496 27620 net.cpp:165] Memory required for data: 36402360
I0522 14:10:04.140507 27620 layer_factory.hpp:77] Creating layer conv3
I0522 14:10:04.140525 27620 net.cpp:106] Creating Layer conv3
I0522 14:10:04.140537 27620 net.cpp:454] conv3 <- pool2
I0522 14:10:04.140552 27620 net.cpp:411] conv3 -> conv3
I0522 14:10:04.142549 27620 net.cpp:150] Setting up conv3
I0522 14:10:04.142570 27620 net.cpp:157] Top shape: 30 28 22 44 (813120)
I0522 14:10:04.142583 27620 net.cpp:165] Memory required for data: 39654840
I0522 14:10:04.142617 27620 layer_factory.hpp:77] Creating layer relu3
I0522 14:10:04.142632 27620 net.cpp:106] Creating Layer relu3
I0522 14:10:04.142642 27620 net.cpp:454] relu3 <- conv3
I0522 14:10:04.142654 27620 net.cpp:397] relu3 -> conv3 (in-place)
I0522 14:10:04.143129 27620 net.cpp:150] Setting up relu3
I0522 14:10:04.143146 27620 net.cpp:157] Top shape: 30 28 22 44 (813120)
I0522 14:10:04.143156 27620 net.cpp:165] Memory required for data: 42907320
I0522 14:10:04.143167 27620 layer_factory.hpp:77] Creating layer pool3
I0522 14:10:04.143178 27620 net.cpp:106] Creating Layer pool3
I0522 14:10:04.143188 27620 net.cpp:454] pool3 <- conv3
I0522 14:10:04.143201 27620 net.cpp:411] pool3 -> pool3
I0522 14:10:04.143273 27620 net.cpp:150] Setting up pool3
I0522 14:10:04.143286 27620 net.cpp:157] Top shape: 30 28 11 44 (406560)
I0522 14:10:04.143296 27620 net.cpp:165] Memory required for data: 44533560
I0522 14:10:04.143306 27620 layer_factory.hpp:77] Creating layer conv4
I0522 14:10:04.143326 27620 net.cpp:106] Creating Layer conv4
I0522 14:10:04.143335 27620 net.cpp:454] conv4 <- pool3
I0522 14:10:04.143350 27620 net.cpp:411] conv4 -> conv4
I0522 14:10:04.145406 27620 net.cpp:150] Setting up conv4
I0522 14:10:04.145427 27620 net.cpp:157] Top shape: 30 36 6 42 (272160)
I0522 14:10:04.145439 27620 net.cpp:165] Memory required for data: 45622200
I0522 14:10:04.145455 27620 layer_factory.hpp:77] Creating layer relu4
I0522 14:10:04.145469 27620 net.cpp:106] Creating Layer relu4
I0522 14:10:04.145479 27620 net.cpp:454] relu4 <- conv4
I0522 14:10:04.145493 27620 net.cpp:397] relu4 -> conv4 (in-place)
I0522 14:10:04.145961 27620 net.cpp:150] Setting up relu4
I0522 14:10:04.145977 27620 net.cpp:157] Top shape: 30 36 6 42 (272160)
I0522 14:10:04.145987 27620 net.cpp:165] Memory required for data: 46710840
I0522 14:10:04.145998 27620 layer_factory.hpp:77] Creating layer pool4
I0522 14:10:04.146010 27620 net.cpp:106] Creating Layer pool4
I0522 14:10:04.146020 27620 net.cpp:454] pool4 <- conv4
I0522 14:10:04.146034 27620 net.cpp:411] pool4 -> pool4
I0522 14:10:04.146105 27620 net.cpp:150] Setting up pool4
I0522 14:10:04.146118 27620 net.cpp:157] Top shape: 30 36 3 42 (136080)
I0522 14:10:04.146127 27620 net.cpp:165] Memory required for data: 47255160
I0522 14:10:04.146137 27620 layer_factory.hpp:77] Creating layer ip1
I0522 14:10:04.146158 27620 net.cpp:106] Creating Layer ip1
I0522 14:10:04.146169 27620 net.cpp:454] ip1 <- pool4
I0522 14:10:04.146183 27620 net.cpp:411] ip1 -> ip1
I0522 14:10:04.161625 27620 net.cpp:150] Setting up ip1
I0522 14:10:04.161653 27620 net.cpp:157] Top shape: 30 196 (5880)
I0522 14:10:04.161664 27620 net.cpp:165] Memory required for data: 47278680
I0522 14:10:04.161686 27620 layer_factory.hpp:77] Creating layer relu5
I0522 14:10:04.161701 27620 net.cpp:106] Creating Layer relu5
I0522 14:10:04.161712 27620 net.cpp:454] relu5 <- ip1
I0522 14:10:04.161725 27620 net.cpp:397] relu5 -> ip1 (in-place)
I0522 14:10:04.162072 27620 net.cpp:150] Setting up relu5
I0522 14:10:04.162086 27620 net.cpp:157] Top shape: 30 196 (5880)
I0522 14:10:04.162096 27620 net.cpp:165] Memory required for data: 47302200
I0522 14:10:04.162106 27620 layer_factory.hpp:77] Creating layer drop1
I0522 14:10:04.162124 27620 net.cpp:106] Creating Layer drop1
I0522 14:10:04.162133 27620 net.cpp:454] drop1 <- ip1
I0522 14:10:04.162153 27620 net.cpp:397] drop1 -> ip1 (in-place)
I0522 14:10:04.162199 27620 net.cpp:150] Setting up drop1
I0522 14:10:04.162212 27620 net.cpp:157] Top shape: 30 196 (5880)
I0522 14:10:04.162222 27620 net.cpp:165] Memory required for data: 47325720
I0522 14:10:04.162232 27620 layer_factory.hpp:77] Creating layer ip2
I0522 14:10:04.162246 27620 net.cpp:106] Creating Layer ip2
I0522 14:10:04.162256 27620 net.cpp:454] ip2 <- ip1
I0522 14:10:04.162271 27620 net.cpp:411] ip2 -> ip2
I0522 14:10:04.162749 27620 net.cpp:150] Setting up ip2
I0522 14:10:04.162761 27620 net.cpp:157] Top shape: 30 98 (2940)
I0522 14:10:04.162771 27620 net.cpp:165] Memory required for data: 47337480
I0522 14:10:04.162786 27620 layer_factory.hpp:77] Creating layer relu6
I0522 14:10:04.162812 27620 net.cpp:106] Creating Layer relu6
I0522 14:10:04.162822 27620 net.cpp:454] relu6 <- ip2
I0522 14:10:04.162835 27620 net.cpp:397] relu6 -> ip2 (in-place)
I0522 14:10:04.163365 27620 net.cpp:150] Setting up relu6
I0522 14:10:04.163381 27620 net.cpp:157] Top shape: 30 98 (2940)
I0522 14:10:04.163390 27620 net.cpp:165] Memory required for data: 47349240
I0522 14:10:04.163401 27620 layer_factory.hpp:77] Creating layer drop2
I0522 14:10:04.163415 27620 net.cpp:106] Creating Layer drop2
I0522 14:10:04.163425 27620 net.cpp:454] drop2 <- ip2
I0522 14:10:04.163439 27620 net.cpp:397] drop2 -> ip2 (in-place)
I0522 14:10:04.163482 27620 net.cpp:150] Setting up drop2
I0522 14:10:04.163496 27620 net.cpp:157] Top shape: 30 98 (2940)
I0522 14:10:04.163504 27620 net.cpp:165] Memory required for data: 47361000
I0522 14:10:04.163514 27620 layer_factory.hpp:77] Creating layer ip3
I0522 14:10:04.163528 27620 net.cpp:106] Creating Layer ip3
I0522 14:10:04.163538 27620 net.cpp:454] ip3 <- ip2
I0522 14:10:04.163552 27620 net.cpp:411] ip3 -> ip3
I0522 14:10:04.163775 27620 net.cpp:150] Setting up ip3
I0522 14:10:04.163789 27620 net.cpp:157] Top shape: 30 11 (330)
I0522 14:10:04.163799 27620 net.cpp:165] Memory required for data: 47362320
I0522 14:10:04.163815 27620 layer_factory.hpp:77] Creating layer drop3
I0522 14:10:04.163827 27620 net.cpp:106] Creating Layer drop3
I0522 14:10:04.163837 27620 net.cpp:454] drop3 <- ip3
I0522 14:10:04.163849 27620 net.cpp:397] drop3 -> ip3 (in-place)
I0522 14:10:04.163892 27620 net.cpp:150] Setting up drop3
I0522 14:10:04.163904 27620 net.cpp:157] Top shape: 30 11 (330)
I0522 14:10:04.163913 27620 net.cpp:165] Memory required for data: 47363640
I0522 14:10:04.163923 27620 layer_factory.hpp:77] Creating layer ip3_drop3_0_split
I0522 14:10:04.163938 27620 net.cpp:106] Creating Layer ip3_drop3_0_split
I0522 14:10:04.163947 27620 net.cpp:454] ip3_drop3_0_split <- ip3
I0522 14:10:04.163959 27620 net.cpp:411] ip3_drop3_0_split -> ip3_drop3_0_split_0
I0522 14:10:04.163975 27620 net.cpp:411] ip3_drop3_0_split -> ip3_drop3_0_split_1
I0522 14:10:04.164049 27620 net.cpp:150] Setting up ip3_drop3_0_split
I0522 14:10:04.164062 27620 net.cpp:157] Top shape: 30 11 (330)
I0522 14:10:04.164074 27620 net.cpp:157] Top shape: 30 11 (330)
I0522 14:10:04.164084 27620 net.cpp:165] Memory required for data: 47366280
I0522 14:10:04.164094 27620 layer_factory.hpp:77] Creating layer accuracy
I0522 14:10:04.164116 27620 net.cpp:106] Creating Layer accuracy
I0522 14:10:04.164126 27620 net.cpp:454] accuracy <- ip3_drop3_0_split_0
I0522 14:10:04.164137 27620 net.cpp:454] accuracy <- label_data_hdf5_1_split_0
I0522 14:10:04.164151 27620 net.cpp:411] accuracy -> accuracy
…
