…
I0522 13:49:06.598644 31742 net.cpp:322] The NetState phase (0) differed from the phase (1) specified by a rule in layer data_hdf5
I0522 13:49:06.598704 31742 net.cpp:322] The NetState phase (0) differed from the phase (1) specified by a rule in layer accuracy
I0522 13:49:06.599050 31742 net.cpp:49] Initializing net from parameters: 
name: "caffe_test_127x50_x_unshifted"
state {
  phase: TRAIN
}
layer {
  name: "data_hdf5"
  type: "HDF5Data"
  top: "data"
  top: "label"
  include {
    phase: TRAIN
  }
  hdf5_data_param {
    source: "/lustre/atlas/proj-shared/hep105/caffe_titan/minosmatch_nukecczdefs_127x50_x_unshifted_me1Bmc.trainlist"
    batch_size: 30
  }
}
layer {
  name: "conv1"
  type: "Convolution"
  bottom: "data"
  top: "conv1"
  convolution_param {
    num_output: 12
    pad: 0
    stride: 1
    weight_filler {
      type: "xavier"
    }
    bias_filler {
      type: "constant"
    }
    kernel_h: 8
    kernel_w: 3
  }
}
layer {
  name: "relu1"
  type: "ReLU"
  bottom: "conv1"
  top: "conv1"
}
layer {
  name: "pool1"
  type: "Pooling"
  bottom: "conv1"
  top: "pool1"
  pooling_param {
    pool: MAX
    kernel_h: 2
    kernel_w: 1
    stride_h: 2
    stride_w: 1
  }
}
layer {
  name: "conv2"
  type: "Convolution"
  bottom: "pool1"
  top: "conv2"
  convolution_param {
    num_output: 20
    pad: 0
    stride: 1
    weight_filler {
      type: "xavier"
    }
    bias_filler {
      type: "constant"
    }
    kernel_h: 7
    kernel_w: 3
  }
}
layer {
  name: "relu2"
  type: "ReLU"
  bottom: "conv2"
  top: "conv2"
}
layer {
  name: "pool2"
  type: "Pooling"
  bottom: "conv2"
  top: "pool2"
  pooling_param {
    pool: MAX
    kernel_h: 2
    kernel_w: 1
    stride_h: 2
    stride_w: 1
  }
}
layer {
  name: "conv3"
  type: "Convolution"
  bottom: "pool2"
  top: "conv3"
  convolution_param {
    num_output: 28
    pad: 0
    stride: 1
    weight_filler {
      type: "xavier"
    }
    bias_filler {
      type: "constant"
    }
    kernel_h: 6
    kernel_w: 3
  }
}
layer {
  name: "relu3"
  type: "ReLU"
  bottom: "conv3"
  top: "conv3"
}
layer {
  name: "pool3"
  type: "Pooling"
  bottom: "conv3"
  top: "pool3"
  pooling_param {
    pool: MAX
    kernel_h: 2
    kernel_w: 1
    stride_h: 2
    stride_w: 1
  }
}
layer {
  name: "conv4"
  type: "Convolution"
  bottom: "pool3"
  top: "conv4"
  convolution_param {
    num_output: 36
    pad: 0
    stride: 1
    weight_filler {
      type: "xavier"
    }
    bias_filler {
      type: "constant"
    }
    kernel_h: 6
    kernel_w: 3
  }
}
layer {
  name: "relu4"
  type: "ReLU"
  bottom: "conv4"
  top: "conv4"
}
layer {
  name: "pool4"
  type: "Pooling"
  bottom: "conv4"
  top: "pool4"
  pooling_param {
    pool: MAX
    kernel_h: 2
    kernel_w: 1
    stride_h: 2
    stride_w: 1
  }
}
layer {
  name: "ip1"
  type: "InnerProduct"
  bottom: "pool4"
  top: "ip1"
  inner_product_param {
    num_output: 196
    weight_filler {
      type: "xavier"
    }
    bias_filler {
      type: "constant"
    }
  }
}
layer {
  name: "relu5"
  type: "ReLU"
  bottom: "ip1"
  top: "ip1"
}
layer {
  name: "drop1"
  type: "Dropout"
  bottom: "ip1"
  top: "ip1"
  dropout_param {
    dropout_ratio: 0.5
  }
}
layer {
  name: "ip2"
  type: "InnerProduct"
  bottom: "ip1"
  top: "ip2"
  inner_product_param {
    num_output: 98
    weight_filler {
      type: "xavier"
    }
    bias_filler {
      type: "constant"
    }
  }
}
layer {
  name: "relu6"
  type: "ReLU"
  bottom: "ip2"
  top: "ip2"
}
layer {
  name: "drop2"
  type: "Dropout"
  bottom: "ip2"
  top: "ip2"
  dropout_param {
    dropout_ratio: 0.5
  }
}
layer {
  name: "ip3"
  type: "InnerProduct"
  bottom: "ip2"
  top: "ip3"
  inner_product_param {
    num_output: 11
    weight_filler {
      type: "xavier"
    }
    bias_filler {
      type: "constant"
    }
  }
}
layer {
  name: "drop3"
  type: "Dropout"
  bottom: "ip3"
  top: "ip3"
  dropout_param {
    dropout_ratio: 0.5
  }
}
layer {
  name: "loss"
  type: "SoftmaxWithLoss"
  bottom: "ip3"
  bottom: "label"
  top: "loss"
}
I0522 13:49:06.599230 31742 layer_factory.hpp:77] Creating layer data_hdf5
I0522 13:49:06.599252 31742 net.cpp:106] Creating Layer data_hdf5
I0522 13:49:06.599267 31742 net.cpp:411] data_hdf5 -> data
I0522 13:49:06.599300 31742 net.cpp:411] data_hdf5 -> label
I0522 13:49:06.599333 31742 hdf5_data_layer.cpp:79] Loading list of HDF5 filenames from: /lustre/atlas/proj-shared/hep105/caffe_titan/minosmatch_nukecczdefs_127x50_x_unshifted_me1Bmc.trainlist
I0522 13:49:06.614796 31742 hdf5_data_layer.cpp:93] Number of HDF5 files: 15
I0522 13:49:06.628006 31742 hdf5.cpp:32] Datatype class: H5T_FLOAT
I0522 13:49:28.212400 31742 hdf5.cpp:35] Datatype class: H5T_INTEGER
I0522 13:49:28.217552 31742 net.cpp:150] Setting up data_hdf5
I0522 13:49:28.217593 31742 net.cpp:157] Top shape: 30 1 127 50 (190500)
I0522 13:49:28.217608 31742 net.cpp:157] Top shape: 30 (30)
I0522 13:49:28.217620 31742 net.cpp:165] Memory required for data: 762120
I0522 13:49:28.217633 31742 layer_factory.hpp:77] Creating layer conv1
I0522 13:49:28.217667 31742 net.cpp:106] Creating Layer conv1
I0522 13:49:28.217679 31742 net.cpp:454] conv1 <- data
I0522 13:49:28.217700 31742 net.cpp:411] conv1 -> conv1
I0522 13:49:31.111564 31742 net.cpp:150] Setting up conv1
I0522 13:49:31.111613 31742 net.cpp:157] Top shape: 30 12 120 48 (2073600)
I0522 13:49:31.111624 31742 net.cpp:165] Memory required for data: 9056520
I0522 13:49:31.111654 31742 layer_factory.hpp:77] Creating layer relu1
I0522 13:49:31.111675 31742 net.cpp:106] Creating Layer relu1
I0522 13:49:31.111685 31742 net.cpp:454] relu1 <- conv1
I0522 13:49:31.111699 31742 net.cpp:397] relu1 -> conv1 (in-place)
I0522 13:49:31.112216 31742 net.cpp:150] Setting up relu1
I0522 13:49:31.112233 31742 net.cpp:157] Top shape: 30 12 120 48 (2073600)
I0522 13:49:31.112243 31742 net.cpp:165] Memory required for data: 17350920
I0522 13:49:31.112253 31742 layer_factory.hpp:77] Creating layer pool1
I0522 13:49:31.112272 31742 net.cpp:106] Creating Layer pool1
I0522 13:49:31.112282 31742 net.cpp:454] pool1 <- conv1
I0522 13:49:31.112294 31742 net.cpp:411] pool1 -> pool1
I0522 13:49:31.112375 31742 net.cpp:150] Setting up pool1
I0522 13:49:31.112388 31742 net.cpp:157] Top shape: 30 12 60 48 (1036800)
I0522 13:49:31.112398 31742 net.cpp:165] Memory required for data: 21498120
I0522 13:49:31.112409 31742 layer_factory.hpp:77] Creating layer conv2
I0522 13:49:31.112432 31742 net.cpp:106] Creating Layer conv2
I0522 13:49:31.112442 31742 net.cpp:454] conv2 <- pool1
I0522 13:49:31.112457 31742 net.cpp:411] conv2 -> conv2
I0522 13:49:31.115119 31742 net.cpp:150] Setting up conv2
I0522 13:49:31.115147 31742 net.cpp:157] Top shape: 30 20 54 46 (1490400)
I0522 13:49:31.115157 31742 net.cpp:165] Memory required for data: 27459720
I0522 13:49:31.115176 31742 layer_factory.hpp:77] Creating layer relu2
I0522 13:49:31.115190 31742 net.cpp:106] Creating Layer relu2
I0522 13:49:31.115201 31742 net.cpp:454] relu2 <- conv2
I0522 13:49:31.115213 31742 net.cpp:397] relu2 -> conv2 (in-place)
I0522 13:49:31.115556 31742 net.cpp:150] Setting up relu2
I0522 13:49:31.115569 31742 net.cpp:157] Top shape: 30 20 54 46 (1490400)
I0522 13:49:31.115581 31742 net.cpp:165] Memory required for data: 33421320
I0522 13:49:31.115591 31742 layer_factory.hpp:77] Creating layer pool2
I0522 13:49:31.115602 31742 net.cpp:106] Creating Layer pool2
I0522 13:49:31.115612 31742 net.cpp:454] pool2 <- conv2
I0522 13:49:31.115624 31742 net.cpp:411] pool2 -> pool2
I0522 13:49:31.115707 31742 net.cpp:150] Setting up pool2
I0522 13:49:31.115720 31742 net.cpp:157] Top shape: 30 20 27 46 (745200)
I0522 13:49:31.115731 31742 net.cpp:165] Memory required for data: 36402120
I0522 13:49:31.115738 31742 layer_factory.hpp:77] Creating layer conv3
I0522 13:49:31.115757 31742 net.cpp:106] Creating Layer conv3
I0522 13:49:31.115767 31742 net.cpp:454] conv3 <- pool2
I0522 13:49:31.115780 31742 net.cpp:411] conv3 -> conv3
I0522 13:49:31.117735 31742 net.cpp:150] Setting up conv3
I0522 13:49:31.117754 31742 net.cpp:157] Top shape: 30 28 22 44 (813120)
I0522 13:49:31.117769 31742 net.cpp:165] Memory required for data: 39654600
I0522 13:49:31.117787 31742 layer_factory.hpp:77] Creating layer relu3
I0522 13:49:31.117804 31742 net.cpp:106] Creating Layer relu3
I0522 13:49:31.117813 31742 net.cpp:454] relu3 <- conv3
I0522 13:49:31.117825 31742 net.cpp:397] relu3 -> conv3 (in-place)
I0522 13:49:31.118291 31742 net.cpp:150] Setting up relu3
I0522 13:49:31.118309 31742 net.cpp:157] Top shape: 30 28 22 44 (813120)
I0522 13:49:31.118319 31742 net.cpp:165] Memory required for data: 42907080
I0522 13:49:31.118329 31742 layer_factory.hpp:77] Creating layer pool3
I0522 13:49:31.118341 31742 net.cpp:106] Creating Layer pool3
I0522 13:49:31.118351 31742 net.cpp:454] pool3 <- conv3
I0522 13:49:31.118363 31742 net.cpp:411] pool3 -> pool3
I0522 13:49:31.118432 31742 net.cpp:150] Setting up pool3
I0522 13:49:31.118443 31742 net.cpp:157] Top shape: 30 28 11 44 (406560)
I0522 13:49:31.118453 31742 net.cpp:165] Memory required for data: 44533320
I0522 13:49:31.118463 31742 layer_factory.hpp:77] Creating layer conv4
I0522 13:49:31.118481 31742 net.cpp:106] Creating Layer conv4
I0522 13:49:31.118491 31742 net.cpp:454] conv4 <- pool3
I0522 13:49:31.118505 31742 net.cpp:411] conv4 -> conv4
I0522 13:49:31.121235 31742 net.cpp:150] Setting up conv4
I0522 13:49:31.121263 31742 net.cpp:157] Top shape: 30 36 6 42 (272160)
I0522 13:49:31.121274 31742 net.cpp:165] Memory required for data: 45621960
I0522 13:49:31.121290 31742 layer_factory.hpp:77] Creating layer relu4
I0522 13:49:31.121304 31742 net.cpp:106] Creating Layer relu4
I0522 13:49:31.121318 31742 net.cpp:454] relu4 <- conv4
I0522 13:49:31.121331 31742 net.cpp:397] relu4 -> conv4 (in-place)
I0522 13:49:31.121793 31742 net.cpp:150] Setting up relu4
I0522 13:49:31.121809 31742 net.cpp:157] Top shape: 30 36 6 42 (272160)
I0522 13:49:31.121819 31742 net.cpp:165] Memory required for data: 46710600
I0522 13:49:31.121829 31742 layer_factory.hpp:77] Creating layer pool4
I0522 13:49:31.121842 31742 net.cpp:106] Creating Layer pool4
I0522 13:49:31.121852 31742 net.cpp:454] pool4 <- conv4
I0522 13:49:31.121865 31742 net.cpp:411] pool4 -> pool4
I0522 13:49:31.121933 31742 net.cpp:150] Setting up pool4
I0522 13:49:31.121948 31742 net.cpp:157] Top shape: 30 36 3 42 (136080)
I0522 13:49:31.121958 31742 net.cpp:165] Memory required for data: 47254920
I0522 13:49:31.121968 31742 layer_factory.hpp:77] Creating layer ip1
I0522 13:49:31.121987 31742 net.cpp:106] Creating Layer ip1
I0522 13:49:31.121999 31742 net.cpp:454] ip1 <- pool4
I0522 13:49:31.122010 31742 net.cpp:411] ip1 -> ip1
I0522 13:49:31.137477 31742 net.cpp:150] Setting up ip1
I0522 13:49:31.137506 31742 net.cpp:157] Top shape: 30 196 (5880)
I0522 13:49:31.137521 31742 net.cpp:165] Memory required for data: 47278440
I0522 13:49:31.137542 31742 layer_factory.hpp:77] Creating layer relu5
I0522 13:49:31.137557 31742 net.cpp:106] Creating Layer relu5
I0522 13:49:31.137567 31742 net.cpp:454] relu5 <- ip1
I0522 13:49:31.137580 31742 net.cpp:397] relu5 -> ip1 (in-place)
I0522 13:49:31.137923 31742 net.cpp:150] Setting up relu5
I0522 13:49:31.137935 31742 net.cpp:157] Top shape: 30 196 (5880)
I0522 13:49:31.137946 31742 net.cpp:165] Memory required for data: 47301960
I0522 13:49:31.137956 31742 layer_factory.hpp:77] Creating layer drop1
I0522 13:49:31.137979 31742 net.cpp:106] Creating Layer drop1
I0522 13:49:31.137989 31742 net.cpp:454] drop1 <- ip1
I0522 13:49:31.138000 31742 net.cpp:397] drop1 -> ip1 (in-place)
I0522 13:49:31.138061 31742 net.cpp:150] Setting up drop1
I0522 13:49:31.138074 31742 net.cpp:157] Top shape: 30 196 (5880)
I0522 13:49:31.138084 31742 net.cpp:165] Memory required for data: 47325480
I0522 13:49:31.138094 31742 layer_factory.hpp:77] Creating layer ip2
I0522 13:49:31.138113 31742 net.cpp:106] Creating Layer ip2
I0522 13:49:31.138123 31742 net.cpp:454] ip2 <- ip1
I0522 13:49:31.138136 31742 net.cpp:411] ip2 -> ip2
I0522 13:49:31.138597 31742 net.cpp:150] Setting up ip2
I0522 13:49:31.138609 31742 net.cpp:157] Top shape: 30 98 (2940)
I0522 13:49:31.138619 31742 net.cpp:165] Memory required for data: 47337240
I0522 13:49:31.138634 31742 layer_factory.hpp:77] Creating layer relu6
I0522 13:49:31.138648 31742 net.cpp:106] Creating Layer relu6
I0522 13:49:31.138656 31742 net.cpp:454] relu6 <- ip2
I0522 13:49:31.138669 31742 net.cpp:397] relu6 -> ip2 (in-place)
I0522 13:49:31.139184 31742 net.cpp:150] Setting up relu6
I0522 13:49:31.139200 31742 net.cpp:157] Top shape: 30 98 (2940)
I0522 13:49:31.139211 31742 net.cpp:165] Memory required for data: 47349000
I0522 13:49:31.139221 31742 layer_factory.hpp:77] Creating layer drop2
I0522 13:49:31.139235 31742 net.cpp:106] Creating Layer drop2
I0522 13:49:31.139245 31742 net.cpp:454] drop2 <- ip2
I0522 13:49:31.139256 31742 net.cpp:397] drop2 -> ip2 (in-place)
I0522 13:49:31.139298 31742 net.cpp:150] Setting up drop2
I0522 13:49:31.139312 31742 net.cpp:157] Top shape: 30 98 (2940)
I0522 13:49:31.139322 31742 net.cpp:165] Memory required for data: 47360760
I0522 13:49:31.139333 31742 layer_factory.hpp:77] Creating layer ip3
I0522 13:49:31.139345 31742 net.cpp:106] Creating Layer ip3
I0522 13:49:31.139355 31742 net.cpp:454] ip3 <- ip2
I0522 13:49:31.139369 31742 net.cpp:411] ip3 -> ip3
I0522 13:49:31.139585 31742 net.cpp:150] Setting up ip3
I0522 13:49:31.139598 31742 net.cpp:157] Top shape: 30 11 (330)
I0522 13:49:31.139608 31742 net.cpp:165] Memory required for data: 47362080
I0522 13:49:31.139624 31742 layer_factory.hpp:77] Creating layer drop3
I0522 13:49:31.139636 31742 net.cpp:106] Creating Layer drop3
I0522 13:49:31.139647 31742 net.cpp:454] drop3 <- ip3
I0522 13:49:31.139658 31742 net.cpp:397] drop3 -> ip3 (in-place)
I0522 13:49:31.139698 31742 net.cpp:150] Setting up drop3
I0522 13:49:31.139710 31742 net.cpp:157] Top shape: 30 11 (330)
I0522 13:49:31.139720 31742 net.cpp:165] Memory required for data: 47363400
I0522 13:49:31.139729 31742 layer_factory.hpp:77] Creating layer loss
I0522 13:49:31.139749 31742 net.cpp:106] Creating Layer loss
I0522 13:49:31.139758 31742 net.cpp:454] loss <- ip3
I0522 13:49:31.139770 31742 net.cpp:454] loss <- label
I0522 13:49:31.139780 31742 net.cpp:411] loss -> loss
I0522 13:49:31.139797 31742 layer_factory.hpp:77] Creating layer loss
…
I0522 13:49:31.142413 31742 solver.cpp:181] Creating test net (#0) specified by net file: /lustre/atlas/proj-shared/hep105/caffe_titan/caffe_workflow/logs_bslr/bs_30_lr_0.0040_2016-05-20T15.48.59.949399.prototxt
I0522 13:49:31.142485 31742 net.cpp:322] The NetState phase (1) differed from the phase (0) specified by a rule in layer data_hdf5
I0522 13:49:31.142841 31742 net.cpp:49] Initializing net from parameters: 
name: "caffe_test_127x50_x_unshifted"
state {
  phase: TEST
}
layer {
  name: "data_hdf5"
  type: "HDF5Data"
  top: "data"
  top: "label"
  include {
    phase: TEST
  }
  hdf5_data_param {
    source: "/lustre/atlas/proj-shared/hep105/caffe_titan/minosmatch_nukecczdefs_127x50_x_unshifted_me1Bmc.testlist"
    batch_size: 30
  }
}
layer {
  name: "conv1"
  type: "Convolution"
  bottom: "data"
  top: "conv1"
  convolution_param {
    num_output: 12
    pad: 0
    stride: 1
    weight_filler {
      type: "xavier"
    }
    bias_filler {
      type: "constant"
    }
    kernel_h: 8
    kernel_w: 3
  }
}
layer {
  name: "relu1"
  type: "ReLU"
  bottom: "conv1"
  top: "conv1"
}
layer {
  name: "pool1"
  type: "Pooling"
  bottom: "conv1"
  top: "pool1"
  pooling_param {
    pool: MAX
    kernel_h: 2
    kernel_w: 1
    stride_h: 2
    stride_w: 1
  }
}
layer {
  name: "conv2"
  type: "Convolution"
  bottom: "pool1"
  top: "conv2"
  convolution_param {
    num_output: 20
    pad: 0
    stride: 1
    weight_filler {
      type: "xavier"
    }
    bias_filler {
      type: "constant"
    }
    kernel_h: 7
    kernel_w: 3
  }
}
layer {
  name: "relu2"
  type: "ReLU"
  bottom: "conv2"
  top: "conv2"
}
layer {
  name: "pool2"
  type: "Pooling"
  bottom: "conv2"
  top: "pool2"
  pooling_param {
    pool: MAX
    kernel_h: 2
    kernel_w: 1
    stride_h: 2
    stride_w: 1
  }
}
layer {
  name: "conv3"
  type: "Convolution"
  bottom: "pool2"
  top: "conv3"
  convolution_param {
    num_output: 28
    pad: 0
    stride: 1
    weight_filler {
      type: "xavier"
    }
    bias_filler {
      type: "constant"
    }
    kernel_h: 6
    kernel_w: 3
  }
}
layer {
  name: "relu3"
  type: "ReLU"
  bottom: "conv3"
  top: "conv3"
}
layer {
  name: "pool3"
  type: "Pooling"
  bottom: "conv3"
  top: "pool3"
  pooling_param {
    pool: MAX
    kernel_h: 2
    kernel_w: 1
    stride_h: 2
    stride_w: 1
  }
}
layer {
  name: "conv4"
  type: "Convolution"
  bottom: "pool3"
  top: "conv4"
  convolution_param {
    num_output: 36
    pad: 0
    stride: 1
    weight_filler {
      type: "xavier"
    }
    bias_filler {
      type: "constant"
    }
    kernel_h: 6
    kernel_w: 3
  }
}
layer {
  name: "relu4"
  type: "ReLU"
  bottom: "conv4"
  top: "conv4"
}
layer {
  name: "pool4"
  type: "Pooling"
  bottom: "conv4"
  top: "pool4"
  pooling_param {
    pool: MAX
    kernel_h: 2
    kernel_w: 1
    stride_h: 2
    stride_w: 1
  }
}
layer {
  name: "ip1"
  type: "InnerProduct"
  bottom: "pool4"
  top: "ip1"
  inner_product_param {
    num_output: 196
    weight_filler {
      type: "xavier"
    }
    bias_filler {
      type: "constant"
    }
  }
}
layer {
  name: "relu5"
  type: "ReLU"
  bottom: "ip1"
  top: "ip1"
}
layer {
  name: "drop1"
  type: "Dropout"
  bottom: "ip1"
  top: "ip1"
  dropout_param {
    dropout_ratio: 0.5
  }
}
layer {
  name: "ip2"
  type: "InnerProduct"
  bottom: "ip1"
  top: "ip2"
  inner_product_param {
    num_output: 98
    weight_filler {
      type: "xavier"
    }
    bias_filler {
      type: "constant"
    }
  }
}
layer {
  name: "relu6"
  type: "ReLU"
  bottom: "ip2"
  top: "ip2"
}
layer {
  name: "drop2"
  type: "Dropout"
  bottom: "ip2"
  top: "ip2"
  dropout_param {
    dropout_ratio: 0.5
  }
}
layer {
  name: "ip3"
  type: "InnerProduct"
  bottom: "ip2"
  top: "ip3"
  inner_product_param {
    num_output: 11
    weight_filler {
      type: "xavier"
    }
    bias_filler {
      type: "constant"
    }
  }
}
layer {
  name: "drop3"
  type: "Dropout"
  bottom: "ip3"
  top: "ip3"
  dropout_param {
    dropout_ratio: 0.5
  }
}
layer {
  name: "accuracy"
  type: "Accuracy"
  bottom: "ip3"
  bottom: "label"
  top: "accuracy"
  include {
    phase: TEST
  }
}
layer {
  name: "loss"
  type: "SoftmaxWithLoss"
  bottom: "ip3"
  bottom: "label"
  top: "loss"
}
I0522 13:49:31.143030 31742 layer_factory.hpp:77] Creating layer data_hdf5
I0522 13:49:31.143045 31742 net.cpp:106] Creating Layer data_hdf5
I0522 13:49:31.143057 31742 net.cpp:411] data_hdf5 -> data
I0522 13:49:31.143074 31742 net.cpp:411] data_hdf5 -> label
I0522 13:49:31.143090 31742 hdf5_data_layer.cpp:79] Loading list of HDF5 filenames from: /lustre/atlas/proj-shared/hep105/caffe_titan/minosmatch_nukecczdefs_127x50_x_unshifted_me1Bmc.testlist
I0522 13:49:31.151823 31742 hdf5_data_layer.cpp:93] Number of HDF5 files: 3
I0522 13:49:52.539366 31742 net.cpp:150] Setting up data_hdf5
I0522 13:49:52.539541 31742 net.cpp:157] Top shape: 30 1 127 50 (190500)
I0522 13:49:52.539556 31742 net.cpp:157] Top shape: 30 (30)
I0522 13:49:52.539569 31742 net.cpp:165] Memory required for data: 762120
I0522 13:49:52.539582 31742 layer_factory.hpp:77] Creating layer label_data_hdf5_1_split
I0522 13:49:52.539610 31742 net.cpp:106] Creating Layer label_data_hdf5_1_split
I0522 13:49:52.539621 31742 net.cpp:454] label_data_hdf5_1_split <- label
I0522 13:49:52.539636 31742 net.cpp:411] label_data_hdf5_1_split -> label_data_hdf5_1_split_0
I0522 13:49:52.539657 31742 net.cpp:411] label_data_hdf5_1_split -> label_data_hdf5_1_split_1
I0522 13:49:52.539731 31742 net.cpp:150] Setting up label_data_hdf5_1_split
I0522 13:49:52.539744 31742 net.cpp:157] Top shape: 30 (30)
I0522 13:49:52.539757 31742 net.cpp:157] Top shape: 30 (30)
I0522 13:49:52.539765 31742 net.cpp:165] Memory required for data: 762360
I0522 13:49:52.539775 31742 layer_factory.hpp:77] Creating layer conv1
I0522 13:49:52.539798 31742 net.cpp:106] Creating Layer conv1
I0522 13:49:52.539808 31742 net.cpp:454] conv1 <- data
I0522 13:49:52.539822 31742 net.cpp:411] conv1 -> conv1
I0522 13:49:52.541796 31742 net.cpp:150] Setting up conv1
I0522 13:49:52.541815 31742 net.cpp:157] Top shape: 30 12 120 48 (2073600)
I0522 13:49:52.541831 31742 net.cpp:165] Memory required for data: 9056760
I0522 13:49:52.541851 31742 layer_factory.hpp:77] Creating layer relu1
I0522 13:49:52.541867 31742 net.cpp:106] Creating Layer relu1
I0522 13:49:52.541877 31742 net.cpp:454] relu1 <- conv1
I0522 13:49:52.541889 31742 net.cpp:397] relu1 -> conv1 (in-place)
I0522 13:49:52.542394 31742 net.cpp:150] Setting up relu1
I0522 13:49:52.542410 31742 net.cpp:157] Top shape: 30 12 120 48 (2073600)
I0522 13:49:52.542421 31742 net.cpp:165] Memory required for data: 17351160
I0522 13:49:52.542433 31742 layer_factory.hpp:77] Creating layer pool1
I0522 13:49:52.542448 31742 net.cpp:106] Creating Layer pool1
I0522 13:49:52.542459 31742 net.cpp:454] pool1 <- conv1
I0522 13:49:52.542474 31742 net.cpp:411] pool1 -> pool1
I0522 13:49:52.542547 31742 net.cpp:150] Setting up pool1
I0522 13:49:52.542560 31742 net.cpp:157] Top shape: 30 12 60 48 (1036800)
I0522 13:49:52.542570 31742 net.cpp:165] Memory required for data: 21498360
I0522 13:49:52.542580 31742 layer_factory.hpp:77] Creating layer conv2
I0522 13:49:52.542598 31742 net.cpp:106] Creating Layer conv2
I0522 13:49:52.542608 31742 net.cpp:454] conv2 <- pool1
I0522 13:49:52.542623 31742 net.cpp:411] conv2 -> conv2
I0522 13:49:52.544543 31742 net.cpp:150] Setting up conv2
I0522 13:49:52.544564 31742 net.cpp:157] Top shape: 30 20 54 46 (1490400)
I0522 13:49:52.544577 31742 net.cpp:165] Memory required for data: 27459960
I0522 13:49:52.544595 31742 layer_factory.hpp:77] Creating layer relu2
I0522 13:49:52.544608 31742 net.cpp:106] Creating Layer relu2
I0522 13:49:52.544620 31742 net.cpp:454] relu2 <- conv2
I0522 13:49:52.544631 31742 net.cpp:397] relu2 -> conv2 (in-place)
I0522 13:49:52.544963 31742 net.cpp:150] Setting up relu2
I0522 13:49:52.544977 31742 net.cpp:157] Top shape: 30 20 54 46 (1490400)
I0522 13:49:52.544987 31742 net.cpp:165] Memory required for data: 33421560
I0522 13:49:52.544997 31742 layer_factory.hpp:77] Creating layer pool2
I0522 13:49:52.545011 31742 net.cpp:106] Creating Layer pool2
I0522 13:49:52.545020 31742 net.cpp:454] pool2 <- conv2
I0522 13:49:52.545032 31742 net.cpp:411] pool2 -> pool2
I0522 13:49:52.545104 31742 net.cpp:150] Setting up pool2
I0522 13:49:52.545117 31742 net.cpp:157] Top shape: 30 20 27 46 (745200)
I0522 13:49:52.545126 31742 net.cpp:165] Memory required for data: 36402360
I0522 13:49:52.545136 31742 layer_factory.hpp:77] Creating layer conv3
I0522 13:49:52.545155 31742 net.cpp:106] Creating Layer conv3
I0522 13:49:52.545166 31742 net.cpp:454] conv3 <- pool2
I0522 13:49:52.545179 31742 net.cpp:411] conv3 -> conv3
I0522 13:49:52.547145 31742 net.cpp:150] Setting up conv3
I0522 13:49:52.547168 31742 net.cpp:157] Top shape: 30 28 22 44 (813120)
I0522 13:49:52.547180 31742 net.cpp:165] Memory required for data: 39654840
I0522 13:49:52.547212 31742 layer_factory.hpp:77] Creating layer relu3
I0522 13:49:52.547226 31742 net.cpp:106] Creating Layer relu3
I0522 13:49:52.547236 31742 net.cpp:454] relu3 <- conv3
I0522 13:49:52.547248 31742 net.cpp:397] relu3 -> conv3 (in-place)
I0522 13:49:52.547726 31742 net.cpp:150] Setting up relu3
I0522 13:49:52.547742 31742 net.cpp:157] Top shape: 30 28 22 44 (813120)
I0522 13:49:52.547752 31742 net.cpp:165] Memory required for data: 42907320
I0522 13:49:52.547762 31742 layer_factory.hpp:77] Creating layer pool3
I0522 13:49:52.547776 31742 net.cpp:106] Creating Layer pool3
I0522 13:49:52.547786 31742 net.cpp:454] pool3 <- conv3
I0522 13:49:52.547798 31742 net.cpp:411] pool3 -> pool3
I0522 13:49:52.547870 31742 net.cpp:150] Setting up pool3
I0522 13:49:52.547883 31742 net.cpp:157] Top shape: 30 28 11 44 (406560)
I0522 13:49:52.547894 31742 net.cpp:165] Memory required for data: 44533560
I0522 13:49:52.547904 31742 layer_factory.hpp:77] Creating layer conv4
I0522 13:49:52.547920 31742 net.cpp:106] Creating Layer conv4
I0522 13:49:52.547930 31742 net.cpp:454] conv4 <- pool3
I0522 13:49:52.547945 31742 net.cpp:411] conv4 -> conv4
I0522 13:49:52.549998 31742 net.cpp:150] Setting up conv4
I0522 13:49:52.550021 31742 net.cpp:157] Top shape: 30 36 6 42 (272160)
I0522 13:49:52.550034 31742 net.cpp:165] Memory required for data: 45622200
I0522 13:49:52.550048 31742 layer_factory.hpp:77] Creating layer relu4
I0522 13:49:52.550062 31742 net.cpp:106] Creating Layer relu4
I0522 13:49:52.550072 31742 net.cpp:454] relu4 <- conv4
I0522 13:49:52.550086 31742 net.cpp:397] relu4 -> conv4 (in-place)
I0522 13:49:52.550554 31742 net.cpp:150] Setting up relu4
I0522 13:49:52.550570 31742 net.cpp:157] Top shape: 30 36 6 42 (272160)
I0522 13:49:52.550580 31742 net.cpp:165] Memory required for data: 46710840
I0522 13:49:52.550590 31742 layer_factory.hpp:77] Creating layer pool4
I0522 13:49:52.550602 31742 net.cpp:106] Creating Layer pool4
I0522 13:49:52.550612 31742 net.cpp:454] pool4 <- conv4
I0522 13:49:52.550626 31742 net.cpp:411] pool4 -> pool4
I0522 13:49:52.550696 31742 net.cpp:150] Setting up pool4
I0522 13:49:52.550709 31742 net.cpp:157] Top shape: 30 36 3 42 (136080)
I0522 13:49:52.550719 31742 net.cpp:165] Memory required for data: 47255160
I0522 13:49:52.550729 31742 layer_factory.hpp:77] Creating layer ip1
I0522 13:49:52.550745 31742 net.cpp:106] Creating Layer ip1
I0522 13:49:52.550755 31742 net.cpp:454] ip1 <- pool4
I0522 13:49:52.550767 31742 net.cpp:411] ip1 -> ip1
I0522 13:49:52.566251 31742 net.cpp:150] Setting up ip1
I0522 13:49:52.566279 31742 net.cpp:157] Top shape: 30 196 (5880)
I0522 13:49:52.566292 31742 net.cpp:165] Memory required for data: 47278680
I0522 13:49:52.566313 31742 layer_factory.hpp:77] Creating layer relu5
I0522 13:49:52.566329 31742 net.cpp:106] Creating Layer relu5
I0522 13:49:52.566339 31742 net.cpp:454] relu5 <- ip1
I0522 13:49:52.566352 31742 net.cpp:397] relu5 -> ip1 (in-place)
I0522 13:49:52.566699 31742 net.cpp:150] Setting up relu5
I0522 13:49:52.566714 31742 net.cpp:157] Top shape: 30 196 (5880)
I0522 13:49:52.566723 31742 net.cpp:165] Memory required for data: 47302200
I0522 13:49:52.566733 31742 layer_factory.hpp:77] Creating layer drop1
I0522 13:49:52.566753 31742 net.cpp:106] Creating Layer drop1
I0522 13:49:52.566763 31742 net.cpp:454] drop1 <- ip1
I0522 13:49:52.566776 31742 net.cpp:397] drop1 -> ip1 (in-place)
I0522 13:49:52.566823 31742 net.cpp:150] Setting up drop1
I0522 13:49:52.566836 31742 net.cpp:157] Top shape: 30 196 (5880)
I0522 13:49:52.566845 31742 net.cpp:165] Memory required for data: 47325720
I0522 13:49:52.566855 31742 layer_factory.hpp:77] Creating layer ip2
I0522 13:49:52.566870 31742 net.cpp:106] Creating Layer ip2
I0522 13:49:52.566879 31742 net.cpp:454] ip2 <- ip1
I0522 13:49:52.566891 31742 net.cpp:411] ip2 -> ip2
I0522 13:49:52.567368 31742 net.cpp:150] Setting up ip2
I0522 13:49:52.567380 31742 net.cpp:157] Top shape: 30 98 (2940)
I0522 13:49:52.567390 31742 net.cpp:165] Memory required for data: 47337480
I0522 13:49:52.567405 31742 layer_factory.hpp:77] Creating layer relu6
I0522 13:49:52.567437 31742 net.cpp:106] Creating Layer relu6
I0522 13:49:52.567447 31742 net.cpp:454] relu6 <- ip2
I0522 13:49:52.567461 31742 net.cpp:397] relu6 -> ip2 (in-place)
I0522 13:49:52.567994 31742 net.cpp:150] Setting up relu6
I0522 13:49:52.568016 31742 net.cpp:157] Top shape: 30 98 (2940)
I0522 13:49:52.568025 31742 net.cpp:165] Memory required for data: 47349240
I0522 13:49:52.568037 31742 layer_factory.hpp:77] Creating layer drop2
I0522 13:49:52.568050 31742 net.cpp:106] Creating Layer drop2
I0522 13:49:52.568060 31742 net.cpp:454] drop2 <- ip2
I0522 13:49:52.568073 31742 net.cpp:397] drop2 -> ip2 (in-place)
I0522 13:49:52.568117 31742 net.cpp:150] Setting up drop2
I0522 13:49:52.568130 31742 net.cpp:157] Top shape: 30 98 (2940)
I0522 13:49:52.568140 31742 net.cpp:165] Memory required for data: 47361000
I0522 13:49:52.568150 31742 layer_factory.hpp:77] Creating layer ip3
I0522 13:49:52.568163 31742 net.cpp:106] Creating Layer ip3
I0522 13:49:52.568173 31742 net.cpp:454] ip3 <- ip2
I0522 13:49:52.568188 31742 net.cpp:411] ip3 -> ip3
I0522 13:49:52.568413 31742 net.cpp:150] Setting up ip3
I0522 13:49:52.568425 31742 net.cpp:157] Top shape: 30 11 (330)
I0522 13:49:52.568435 31742 net.cpp:165] Memory required for data: 47362320
I0522 13:49:52.568451 31742 layer_factory.hpp:77] Creating layer drop3
I0522 13:49:52.568464 31742 net.cpp:106] Creating Layer drop3
I0522 13:49:52.568473 31742 net.cpp:454] drop3 <- ip3
I0522 13:49:52.568485 31742 net.cpp:397] drop3 -> ip3 (in-place)
I0522 13:49:52.568527 31742 net.cpp:150] Setting up drop3
I0522 13:49:52.568541 31742 net.cpp:157] Top shape: 30 11 (330)
I0522 13:49:52.568550 31742 net.cpp:165] Memory required for data: 47363640
I0522 13:49:52.568559 31742 layer_factory.hpp:77] Creating layer ip3_drop3_0_split
I0522 13:49:52.568572 31742 net.cpp:106] Creating Layer ip3_drop3_0_split
I0522 13:49:52.568583 31742 net.cpp:454] ip3_drop3_0_split <- ip3
I0522 13:49:52.568595 31742 net.cpp:411] ip3_drop3_0_split -> ip3_drop3_0_split_0
I0522 13:49:52.568610 31742 net.cpp:411] ip3_drop3_0_split -> ip3_drop3_0_split_1
I0522 13:49:52.568684 31742 net.cpp:150] Setting up ip3_drop3_0_split
I0522 13:49:52.568696 31742 net.cpp:157] Top shape: 30 11 (330)
I0522 13:49:52.568709 31742 net.cpp:157] Top shape: 30 11 (330)
I0522 13:49:52.568719 31742 net.cpp:165] Memory required for data: 47366280
I0522 13:49:52.568729 31742 layer_factory.hpp:77] Creating layer accuracy
I0522 13:49:52.568752 31742 net.cpp:106] Creating Layer accuracy
I0522 13:49:52.568761 31742 net.cpp:454] accuracy <- ip3_drop3_0_split_0
I0522 13:49:52.568773 31742 net.cpp:454] accuracy <- label_data_hdf5_1_split_0
I0522 13:49:52.568786 31742 net.cpp:411] accuracy -> accuracy
…
