…
I0527 03:44:01.118139  5461 net.cpp:322] The NetState phase (0) differed from the phase (1) specified by a rule in layer data_hdf5
I0527 03:44:01.118201  5461 net.cpp:322] The NetState phase (0) differed from the phase (1) specified by a rule in layer accuracy
I0527 03:44:01.118580  5461 net.cpp:49] Initializing net from parameters: 
name: "caffe_test_127x50_x_unshifted"
state {
  phase: TRAIN
}
layer {
  name: "data_hdf5"
  type: "HDF5Data"
  top: "data"
  top: "label"
  include {
    phase: TRAIN
  }
  hdf5_data_param {
    source: "/lustre/atlas/proj-shared/hep105/caffe_titan/minosmatch_nukecczdefs_127x50_x_unshifted_me1Bmc.trainlist"
    batch_size: 30
  }
}
layer {
  name: "conv1"
  type: "Convolution"
  bottom: "data"
  top: "conv1"
  convolution_param {
    num_output: 12
    pad: 0
    stride: 1
    weight_filler {
      type: "xavier"
    }
    bias_filler {
      type: "constant"
    }
    kernel_h: 8
    kernel_w: 3
  }
}
layer {
  name: "relu1"
  type: "ReLU"
  bottom: "conv1"
  top: "conv1"
}
layer {
  name: "pool1"
  type: "Pooling"
  bottom: "conv1"
  top: "pool1"
  pooling_param {
    pool: MAX
    kernel_h: 2
    kernel_w: 1
    stride_h: 2
    stride_w: 1
  }
}
layer {
  name: "conv2"
  type: "Convolution"
  bottom: "pool1"
  top: "conv2"
  convolution_param {
    num_output: 20
    pad: 0
    stride: 1
    weight_filler {
      type: "xavier"
    }
    bias_filler {
      type: "constant"
    }
    kernel_h: 7
    kernel_w: 3
  }
}
layer {
  name: "relu2"
  type: "ReLU"
  bottom: "conv2"
  top: "conv2"
}
layer {
  name: "pool2"
  type: "Pooling"
  bottom: "conv2"
  top: "pool2"
  pooling_param {
    pool: MAX
    kernel_h: 2
    kernel_w: 1
    stride_h: 2
    stride_w: 1
  }
}
layer {
  name: "conv3"
  type: "Convolution"
  bottom: "pool2"
  top: "conv3"
  convolution_param {
    num_output: 28
    pad: 0
    stride: 1
    weight_filler {
      type: "xavier"
    }
    bias_filler {
      type: "constant"
    }
    kernel_h: 6
    kernel_w: 3
  }
}
layer {
  name: "relu3"
  type: "ReLU"
  bottom: "conv3"
  top: "conv3"
}
layer {
  name: "pool3"
  type: "Pooling"
  bottom: "conv3"
  top: "pool3"
  pooling_param {
    pool: MAX
    kernel_h: 2
    kernel_w: 1
    stride_h: 2
    stride_w: 1
  }
}
layer {
  name: "conv4"
  type: "Convolution"
  bottom: "pool3"
  top: "conv4"
  convolution_param {
    num_output: 36
    pad: 0
    stride: 1
    weight_filler {
      type: "xavier"
    }
    bias_filler {
      type: "constant"
    }
    kernel_h: 6
    kernel_w: 3
  }
}
layer {
  name: "relu4"
  type: "ReLU"
  bottom: "conv4"
  top: "conv4"
}
layer {
  name: "pool4"
  type: "Pooling"
  bottom: "conv4"
  top: "pool4"
  pooling_param {
    pool: MAX
    kernel_h: 2
    kernel_w: 1
    stride_h: 2
    stride_w: 1
  }
}
layer {
  name: "ip1"
  type: "InnerProduct"
  bottom: "pool4"
  top: "ip1"
  inner_product_param {
    num_output: 196
    weight_filler {
      type: "xavier"
    }
    bias_filler {
      type: "constant"
    }
  }
}
layer {
  name: "relu5"
  type: "ReLU"
  bottom: "ip1"
  top: "ip1"
}
layer {
  name: "drop1"
  type: "Dropout"
  bottom: "ip1"
  top: "ip1"
  dropout_param {
    dropout_ratio: 0.5
  }
}
layer {
  name: "ip2"
  type: "InnerProduct"
  bottom: "ip1"
  top: "ip2"
  inner_product_param {
    num_output: 98
    weight_filler {
      type: "xavier"
    }
    bias_filler {
      type: "constant"
    }
  }
}
layer {
  name: "relu6"
  type: "ReLU"
  bottom: "ip2"
  top: "ip2"
}
layer {
  name: "drop2"
  type: "Dropout"
  bottom: "ip2"
  top: "ip2"
  dropout_param {
    dropout_ratio: 0.5
  }
}
layer {
  name: "ip3"
  type: "InnerProduct"
  bottom: "ip2"
  top: "ip3"
  inner_product_param {
    num_output: 11
    weight_filler {
      type: "xavier"
    }
    bias_filler {
      type: "constant"
    }
  }
}
layer {
  name: "drop3"
  type: "Dropout"
  bottom: "ip3"
  top: "ip3"
  dropout_param {
    dropout_ratio: 0.5
  }
}
layer {
  name: "loss"
  type: "SoftmaxWithLoss"
  bottom: "ip3"
  bottom: "label"
  top: "loss"
}
I0527 03:44:01.118785  5461 layer_factory.hpp:77] Creating layer data_hdf5
I0527 03:44:01.118815  5461 net.cpp:106] Creating Layer data_hdf5
I0527 03:44:01.118840  5461 net.cpp:411] data_hdf5 -> data
I0527 03:44:01.118885  5461 net.cpp:411] data_hdf5 -> label
I0527 03:44:01.118929  5461 hdf5_data_layer.cpp:79] Loading list of HDF5 filenames from: /lustre/atlas/proj-shared/hep105/caffe_titan/minosmatch_nukecczdefs_127x50_x_unshifted_me1Bmc.trainlist
I0527 03:44:01.120201  5461 hdf5_data_layer.cpp:93] Number of HDF5 files: 15
I0527 03:44:01.122531  5461 hdf5.cpp:32] Datatype class: H5T_FLOAT
I0527 03:44:22.656018  5461 hdf5.cpp:35] Datatype class: H5T_INTEGER
I0527 03:44:22.661288  5461 net.cpp:150] Setting up data_hdf5
I0527 03:44:22.661329  5461 net.cpp:157] Top shape: 30 1 127 50 (190500)
I0527 03:44:22.661347  5461 net.cpp:157] Top shape: 30 (30)
I0527 03:44:22.661360  5461 net.cpp:165] Memory required for data: 762120
I0527 03:44:22.661380  5461 layer_factory.hpp:77] Creating layer conv1
I0527 03:44:22.661424  5461 net.cpp:106] Creating Layer conv1
I0527 03:44:22.661438  5461 net.cpp:454] conv1 <- data
I0527 03:44:22.661463  5461 net.cpp:411] conv1 -> conv1
I0527 03:44:23.025796  5461 net.cpp:150] Setting up conv1
I0527 03:44:23.025848  5461 net.cpp:157] Top shape: 30 12 120 48 (2073600)
I0527 03:44:23.025864  5461 net.cpp:165] Memory required for data: 9056520
I0527 03:44:23.025895  5461 layer_factory.hpp:77] Creating layer relu1
I0527 03:44:23.025924  5461 net.cpp:106] Creating Layer relu1
I0527 03:44:23.025956  5461 net.cpp:454] relu1 <- conv1
I0527 03:44:23.025974  5461 net.cpp:397] relu1 -> conv1 (in-place)
I0527 03:44:23.026504  5461 net.cpp:150] Setting up relu1
I0527 03:44:23.026528  5461 net.cpp:157] Top shape: 30 12 120 48 (2073600)
I0527 03:44:23.026542  5461 net.cpp:165] Memory required for data: 17350920
I0527 03:44:23.026554  5461 layer_factory.hpp:77] Creating layer pool1
I0527 03:44:23.026585  5461 net.cpp:106] Creating Layer pool1
I0527 03:44:23.026599  5461 net.cpp:454] pool1 <- conv1
I0527 03:44:23.026617  5461 net.cpp:411] pool1 -> pool1
I0527 03:44:23.026710  5461 net.cpp:150] Setting up pool1
I0527 03:44:23.026728  5461 net.cpp:157] Top shape: 30 12 60 48 (1036800)
I0527 03:44:23.026743  5461 net.cpp:165] Memory required for data: 21498120
I0527 03:44:23.026762  5461 layer_factory.hpp:77] Creating layer conv2
I0527 03:44:23.026787  5461 net.cpp:106] Creating Layer conv2
I0527 03:44:23.026808  5461 net.cpp:454] conv2 <- pool1
I0527 03:44:23.026824  5461 net.cpp:411] conv2 -> conv2
I0527 03:44:23.029523  5461 net.cpp:150] Setting up conv2
I0527 03:44:23.029557  5461 net.cpp:157] Top shape: 30 20 54 46 (1490400)
I0527 03:44:23.029572  5461 net.cpp:165] Memory required for data: 27459720
I0527 03:44:23.029600  5461 layer_factory.hpp:77] Creating layer relu2
I0527 03:44:23.029628  5461 net.cpp:106] Creating Layer relu2
I0527 03:44:23.029641  5461 net.cpp:454] relu2 <- conv2
I0527 03:44:23.029657  5461 net.cpp:397] relu2 -> conv2 (in-place)
I0527 03:44:23.030014  5461 net.cpp:150] Setting up relu2
I0527 03:44:23.030035  5461 net.cpp:157] Top shape: 30 20 54 46 (1490400)
I0527 03:44:23.030047  5461 net.cpp:165] Memory required for data: 33421320
I0527 03:44:23.030060  5461 layer_factory.hpp:77] Creating layer pool2
I0527 03:44:23.030086  5461 net.cpp:106] Creating Layer pool2
I0527 03:44:23.030099  5461 net.cpp:454] pool2 <- conv2
I0527 03:44:23.030115  5461 net.cpp:411] pool2 -> pool2
I0527 03:44:23.030211  5461 net.cpp:150] Setting up pool2
I0527 03:44:23.030228  5461 net.cpp:157] Top shape: 30 20 27 46 (745200)
I0527 03:44:23.030243  5461 net.cpp:165] Memory required for data: 36402120
I0527 03:44:23.030256  5461 layer_factory.hpp:77] Creating layer conv3
I0527 03:44:23.030283  5461 net.cpp:106] Creating Layer conv3
I0527 03:44:23.030303  5461 net.cpp:454] conv3 <- pool2
I0527 03:44:23.030320  5461 net.cpp:411] conv3 -> conv3
I0527 03:44:23.032315  5461 net.cpp:150] Setting up conv3
I0527 03:44:23.032341  5461 net.cpp:157] Top shape: 30 28 22 44 (813120)
I0527 03:44:23.032361  5461 net.cpp:165] Memory required for data: 39654600
I0527 03:44:23.032384  5461 layer_factory.hpp:77] Creating layer relu3
I0527 03:44:23.032407  5461 net.cpp:106] Creating Layer relu3
I0527 03:44:23.032430  5461 net.cpp:454] relu3 <- conv3
I0527 03:44:23.032446  5461 net.cpp:397] relu3 -> conv3 (in-place)
I0527 03:44:23.032935  5461 net.cpp:150] Setting up relu3
I0527 03:44:23.032959  5461 net.cpp:157] Top shape: 30 28 22 44 (813120)
I0527 03:44:23.032973  5461 net.cpp:165] Memory required for data: 42907080
I0527 03:44:23.032989  5461 layer_factory.hpp:77] Creating layer pool3
I0527 03:44:23.033004  5461 net.cpp:106] Creating Layer pool3
I0527 03:44:23.033025  5461 net.cpp:454] pool3 <- conv3
I0527 03:44:23.033041  5461 net.cpp:411] pool3 -> pool3
I0527 03:44:23.033124  5461 net.cpp:150] Setting up pool3
I0527 03:44:23.033146  5461 net.cpp:157] Top shape: 30 28 11 44 (406560)
I0527 03:44:23.033159  5461 net.cpp:165] Memory required for data: 44533320
I0527 03:44:23.033174  5461 layer_factory.hpp:77] Creating layer conv4
I0527 03:44:23.033198  5461 net.cpp:106] Creating Layer conv4
I0527 03:44:23.033212  5461 net.cpp:454] conv4 <- pool3
I0527 03:44:23.033229  5461 net.cpp:411] conv4 -> conv4
I0527 03:44:23.035972  5461 net.cpp:150] Setting up conv4
I0527 03:44:23.036005  5461 net.cpp:157] Top shape: 30 36 6 42 (272160)
I0527 03:44:23.036025  5461 net.cpp:165] Memory required for data: 45621960
I0527 03:44:23.036044  5461 layer_factory.hpp:77] Creating layer relu4
I0527 03:44:23.036065  5461 net.cpp:106] Creating Layer relu4
I0527 03:44:23.036078  5461 net.cpp:454] relu4 <- conv4
I0527 03:44:23.036106  5461 net.cpp:397] relu4 -> conv4 (in-place)
I0527 03:44:23.036589  5461 net.cpp:150] Setting up relu4
I0527 03:44:23.036612  5461 net.cpp:157] Top shape: 30 36 6 42 (272160)
I0527 03:44:23.036626  5461 net.cpp:165] Memory required for data: 46710600
I0527 03:44:23.036643  5461 layer_factory.hpp:77] Creating layer pool4
I0527 03:44:23.036658  5461 net.cpp:106] Creating Layer pool4
I0527 03:44:23.036679  5461 net.cpp:454] pool4 <- conv4
I0527 03:44:23.036695  5461 net.cpp:411] pool4 -> pool4
I0527 03:44:23.036778  5461 net.cpp:150] Setting up pool4
I0527 03:44:23.036801  5461 net.cpp:157] Top shape: 30 36 3 42 (136080)
I0527 03:44:23.036815  5461 net.cpp:165] Memory required for data: 47254920
I0527 03:44:23.036830  5461 layer_factory.hpp:77] Creating layer ip1
I0527 03:44:23.036857  5461 net.cpp:106] Creating Layer ip1
I0527 03:44:23.036872  5461 net.cpp:454] ip1 <- pool4
I0527 03:44:23.036888  5461 net.cpp:411] ip1 -> ip1
I0527 03:44:23.052321  5461 net.cpp:150] Setting up ip1
I0527 03:44:23.052355  5461 net.cpp:157] Top shape: 30 196 (5880)
I0527 03:44:23.052376  5461 net.cpp:165] Memory required for data: 47278440
I0527 03:44:23.052402  5461 layer_factory.hpp:77] Creating layer relu5
I0527 03:44:23.052423  5461 net.cpp:106] Creating Layer relu5
I0527 03:44:23.052436  5461 net.cpp:454] relu5 <- ip1
I0527 03:44:23.052451  5461 net.cpp:397] relu5 -> ip1 (in-place)
I0527 03:44:23.052820  5461 net.cpp:150] Setting up relu5
I0527 03:44:23.052840  5461 net.cpp:157] Top shape: 30 196 (5880)
I0527 03:44:23.052855  5461 net.cpp:165] Memory required for data: 47301960
I0527 03:44:23.052870  5461 layer_factory.hpp:77] Creating layer drop1
I0527 03:44:23.052893  5461 net.cpp:106] Creating Layer drop1
I0527 03:44:23.052906  5461 net.cpp:454] drop1 <- ip1
I0527 03:44:23.052938  5461 net.cpp:397] drop1 -> ip1 (in-place)
I0527 03:44:23.053012  5461 net.cpp:150] Setting up drop1
I0527 03:44:23.053030  5461 net.cpp:157] Top shape: 30 196 (5880)
I0527 03:44:23.053042  5461 net.cpp:165] Memory required for data: 47325480
I0527 03:44:23.053057  5461 layer_factory.hpp:77] Creating layer ip2
I0527 03:44:23.053079  5461 net.cpp:106] Creating Layer ip2
I0527 03:44:23.053092  5461 net.cpp:454] ip2 <- ip1
I0527 03:44:23.053114  5461 net.cpp:411] ip2 -> ip2
I0527 03:44:23.053597  5461 net.cpp:150] Setting up ip2
I0527 03:44:23.053617  5461 net.cpp:157] Top shape: 30 98 (2940)
I0527 03:44:23.053629  5461 net.cpp:165] Memory required for data: 47337240
I0527 03:44:23.053650  5461 layer_factory.hpp:77] Creating layer relu6
I0527 03:44:23.053665  5461 net.cpp:106] Creating Layer relu6
I0527 03:44:23.053678  5461 net.cpp:454] relu6 <- ip2
I0527 03:44:23.053694  5461 net.cpp:397] relu6 -> ip2 (in-place)
I0527 03:44:23.054242  5461 net.cpp:150] Setting up relu6
I0527 03:44:23.054265  5461 net.cpp:157] Top shape: 30 98 (2940)
I0527 03:44:23.054280  5461 net.cpp:165] Memory required for data: 47349000
I0527 03:44:23.054294  5461 layer_factory.hpp:77] Creating layer drop2
I0527 03:44:23.054311  5461 net.cpp:106] Creating Layer drop2
I0527 03:44:23.054323  5461 net.cpp:454] drop2 <- ip2
I0527 03:44:23.054347  5461 net.cpp:397] drop2 -> ip2 (in-place)
I0527 03:44:23.054396  5461 net.cpp:150] Setting up drop2
I0527 03:44:23.054414  5461 net.cpp:157] Top shape: 30 98 (2940)
I0527 03:44:23.054426  5461 net.cpp:165] Memory required for data: 47360760
I0527 03:44:23.054453  5461 layer_factory.hpp:77] Creating layer ip3
I0527 03:44:23.054471  5461 net.cpp:106] Creating Layer ip3
I0527 03:44:23.054486  5461 net.cpp:454] ip3 <- ip2
I0527 03:44:23.054500  5461 net.cpp:411] ip3 -> ip3
I0527 03:44:23.054738  5461 net.cpp:150] Setting up ip3
I0527 03:44:23.054755  5461 net.cpp:157] Top shape: 30 11 (330)
I0527 03:44:23.054769  5461 net.cpp:165] Memory required for data: 47362080
I0527 03:44:23.054790  5461 layer_factory.hpp:77] Creating layer drop3
I0527 03:44:23.054805  5461 net.cpp:106] Creating Layer drop3
I0527 03:44:23.054817  5461 net.cpp:454] drop3 <- ip3
I0527 03:44:23.054839  5461 net.cpp:397] drop3 -> ip3 (in-place)
I0527 03:44:23.054893  5461 net.cpp:150] Setting up drop3
I0527 03:44:23.054909  5461 net.cpp:157] Top shape: 30 11 (330)
I0527 03:44:23.054927  5461 net.cpp:165] Memory required for data: 47363400
I0527 03:44:23.054940  5461 layer_factory.hpp:77] Creating layer loss
I0527 03:44:23.054965  5461 net.cpp:106] Creating Layer loss
I0527 03:44:23.054976  5461 net.cpp:454] loss <- ip3
I0527 03:44:23.054992  5461 net.cpp:454] loss <- label
I0527 03:44:23.055008  5461 net.cpp:411] loss -> loss
I0527 03:44:23.055038  5461 layer_factory.hpp:77] Creating layer loss
…
I0527 03:44:23.057826  5461 solver.cpp:181] Creating test net (#0) specified by net file: /lustre/atlas/proj-shared/hep105/caffe_titan/caffe_workflow/logs_bslr/bs_30_lr_0.0040_2016-05-20T15.48.59.949399.prototxt
I0527 03:44:23.057905  5461 net.cpp:322] The NetState phase (1) differed from the phase (0) specified by a rule in layer data_hdf5
I0527 03:44:23.058284  5461 net.cpp:49] Initializing net from parameters: 
name: "caffe_test_127x50_x_unshifted"
state {
  phase: TEST
}
layer {
  name: "data_hdf5"
  type: "HDF5Data"
  top: "data"
  top: "label"
  include {
    phase: TEST
  }
  hdf5_data_param {
    source: "/lustre/atlas/proj-shared/hep105/caffe_titan/minosmatch_nukecczdefs_127x50_x_unshifted_me1Bmc.testlist"
    batch_size: 30
  }
}
layer {
  name: "conv1"
  type: "Convolution"
  bottom: "data"
  top: "conv1"
  convolution_param {
    num_output: 12
    pad: 0
    stride: 1
    weight_filler {
      type: "xavier"
    }
    bias_filler {
      type: "constant"
    }
    kernel_h: 8
    kernel_w: 3
  }
}
layer {
  name: "relu1"
  type: "ReLU"
  bottom: "conv1"
  top: "conv1"
}
layer {
  name: "pool1"
  type: "Pooling"
  bottom: "conv1"
  top: "pool1"
  pooling_param {
    pool: MAX
    kernel_h: 2
    kernel_w: 1
    stride_h: 2
    stride_w: 1
  }
}
layer {
  name: "conv2"
  type: "Convolution"
  bottom: "pool1"
  top: "conv2"
  convolution_param {
    num_output: 20
    pad: 0
    stride: 1
    weight_filler {
      type: "xavier"
    }
    bias_filler {
      type: "constant"
    }
    kernel_h: 7
    kernel_w: 3
  }
}
layer {
  name: "relu2"
  type: "ReLU"
  bottom: "conv2"
  top: "conv2"
}
layer {
  name: "pool2"
  type: "Pooling"
  bottom: "conv2"
  top: "pool2"
  pooling_param {
    pool: MAX
    kernel_h: 2
    kernel_w: 1
    stride_h: 2
    stride_w: 1
  }
}
layer {
  name: "conv3"
  type: "Convolution"
  bottom: "pool2"
  top: "conv3"
  convolution_param {
    num_output: 28
    pad: 0
    stride: 1
    weight_filler {
      type: "xavier"
    }
    bias_filler {
      type: "constant"
    }
    kernel_h: 6
    kernel_w: 3
  }
}
layer {
  name: "relu3"
  type: "ReLU"
  bottom: "conv3"
  top: "conv3"
}
layer {
  name: "pool3"
  type: "Pooling"
  bottom: "conv3"
  top: "pool3"
  pooling_param {
    pool: MAX
    kernel_h: 2
    kernel_w: 1
    stride_h: 2
    stride_w: 1
  }
}
layer {
  name: "conv4"
  type: "Convolution"
  bottom: "pool3"
  top: "conv4"
  convolution_param {
    num_output: 36
    pad: 0
    stride: 1
    weight_filler {
      type: "xavier"
    }
    bias_filler {
      type: "constant"
    }
    kernel_h: 6
    kernel_w: 3
  }
}
layer {
  name: "relu4"
  type: "ReLU"
  bottom: "conv4"
  top: "conv4"
}
layer {
  name: "pool4"
  type: "Pooling"
  bottom: "conv4"
  top: "pool4"
  pooling_param {
    pool: MAX
    kernel_h: 2
    kernel_w: 1
    stride_h: 2
    stride_w: 1
  }
}
layer {
  name: "ip1"
  type: "InnerProduct"
  bottom: "pool4"
  top: "ip1"
  inner_product_param {
    num_output: 196
    weight_filler {
      type: "xavier"
    }
    bias_filler {
      type: "constant"
    }
  }
}
layer {
  name: "relu5"
  type: "ReLU"
  bottom: "ip1"
  top: "ip1"
}
layer {
  name: "drop1"
  type: "Dropout"
  bottom: "ip1"
  top: "ip1"
  dropout_param {
    dropout_ratio: 0.5
  }
}
layer {
  name: "ip2"
  type: "InnerProduct"
  bottom: "ip1"
  top: "ip2"
  inner_product_param {
    num_output: 98
    weight_filler {
      type: "xavier"
    }
    bias_filler {
      type: "constant"
    }
  }
}
layer {
  name: "relu6"
  type: "ReLU"
  bottom: "ip2"
  top: "ip2"
}
layer {
  name: "drop2"
  type: "Dropout"
  bottom: "ip2"
  top: "ip2"
  dropout_param {
    dropout_ratio: 0.5
  }
}
layer {
  name: "ip3"
  type: "InnerProduct"
  bottom: "ip2"
  top: "ip3"
  inner_product_param {
    num_output: 11
    weight_filler {
      type: "xavier"
    }
    bias_filler {
      type: "constant"
    }
  }
}
layer {
  name: "drop3"
  type: "Dropout"
  bottom: "ip3"
  top: "ip3"
  dropout_param {
    dropout_ratio: 0.5
  }
}
layer {
  name: "accuracy"
  type: "Accuracy"
  bottom: "ip3"
  bottom: "label"
  top: "accuracy"
  include {
    phase: TEST
  }
}
layer {
  name: "loss"
  type: "SoftmaxWithLoss"
  bottom: "ip3"
  bottom: "label"
  top: "loss"
}
I0527 03:44:23.058503  5461 layer_factory.hpp:77] Creating layer data_hdf5
I0527 03:44:23.058524  5461 net.cpp:106] Creating Layer data_hdf5
I0527 03:44:23.058542  5461 net.cpp:411] data_hdf5 -> data
I0527 03:44:23.058562  5461 net.cpp:411] data_hdf5 -> label
I0527 03:44:23.058583  5461 hdf5_data_layer.cpp:79] Loading list of HDF5 filenames from: /lustre/atlas/proj-shared/hep105/caffe_titan/minosmatch_nukecczdefs_127x50_x_unshifted_me1Bmc.testlist
I0527 03:44:23.059808  5461 hdf5_data_layer.cpp:93] Number of HDF5 files: 3
I0527 03:44:44.437476  5461 net.cpp:150] Setting up data_hdf5
I0527 03:44:44.437650  5461 net.cpp:157] Top shape: 30 1 127 50 (190500)
I0527 03:44:44.437669  5461 net.cpp:157] Top shape: 30 (30)
I0527 03:44:44.437682  5461 net.cpp:165] Memory required for data: 762120
I0527 03:44:44.437697  5461 layer_factory.hpp:77] Creating layer label_data_hdf5_1_split
I0527 03:44:44.437732  5461 net.cpp:106] Creating Layer label_data_hdf5_1_split
I0527 03:44:44.437747  5461 net.cpp:454] label_data_hdf5_1_split <- label
I0527 03:44:44.437782  5461 net.cpp:411] label_data_hdf5_1_split -> label_data_hdf5_1_split_0
I0527 03:44:44.437804  5461 net.cpp:411] label_data_hdf5_1_split -> label_data_hdf5_1_split_1
I0527 03:44:44.437891  5461 net.cpp:150] Setting up label_data_hdf5_1_split
I0527 03:44:44.437909  5461 net.cpp:157] Top shape: 30 (30)
I0527 03:44:44.437924  5461 net.cpp:157] Top shape: 30 (30)
I0527 03:44:44.437937  5461 net.cpp:165] Memory required for data: 762360
I0527 03:44:44.437949  5461 layer_factory.hpp:77] Creating layer conv1
I0527 03:44:44.437981  5461 net.cpp:106] Creating Layer conv1
I0527 03:44:44.437994  5461 net.cpp:454] conv1 <- data
I0527 03:44:44.438012  5461 net.cpp:411] conv1 -> conv1
I0527 03:44:44.439977  5461 net.cpp:150] Setting up conv1
I0527 03:44:44.440003  5461 net.cpp:157] Top shape: 30 12 120 48 (2073600)
I0527 03:44:44.440024  5461 net.cpp:165] Memory required for data: 9056760
I0527 03:44:44.440049  5461 layer_factory.hpp:77] Creating layer relu1
I0527 03:44:44.440069  5461 net.cpp:106] Creating Layer relu1
I0527 03:44:44.440091  5461 net.cpp:454] relu1 <- conv1
I0527 03:44:44.440107  5461 net.cpp:397] relu1 -> conv1 (in-place)
I0527 03:44:44.440625  5461 net.cpp:150] Setting up relu1
I0527 03:44:44.440649  5461 net.cpp:157] Top shape: 30 12 120 48 (2073600)
I0527 03:44:44.440661  5461 net.cpp:165] Memory required for data: 17351160
I0527 03:44:44.440675  5461 layer_factory.hpp:77] Creating layer pool1
I0527 03:44:44.440704  5461 net.cpp:106] Creating Layer pool1
I0527 03:44:44.440717  5461 net.cpp:454] pool1 <- conv1
I0527 03:44:44.440734  5461 net.cpp:411] pool1 -> pool1
I0527 03:44:44.440824  5461 net.cpp:150] Setting up pool1
I0527 03:44:44.440840  5461 net.cpp:157] Top shape: 30 12 60 48 (1036800)
I0527 03:44:44.440855  5461 net.cpp:165] Memory required for data: 21498360
I0527 03:44:44.440873  5461 layer_factory.hpp:77] Creating layer conv2
I0527 03:44:44.440894  5461 net.cpp:106] Creating Layer conv2
I0527 03:44:44.440907  5461 net.cpp:454] conv2 <- pool1
I0527 03:44:44.440924  5461 net.cpp:411] conv2 -> conv2
I0527 03:44:44.442867  5461 net.cpp:150] Setting up conv2
I0527 03:44:44.442898  5461 net.cpp:157] Top shape: 30 20 54 46 (1490400)
I0527 03:44:44.442919  5461 net.cpp:165] Memory required for data: 27459960
I0527 03:44:44.442940  5461 layer_factory.hpp:77] Creating layer relu2
I0527 03:44:44.442960  5461 net.cpp:106] Creating Layer relu2
I0527 03:44:44.442981  5461 net.cpp:454] relu2 <- conv2
I0527 03:44:44.442998  5461 net.cpp:397] relu2 -> conv2 (in-place)
I0527 03:44:44.443348  5461 net.cpp:150] Setting up relu2
I0527 03:44:44.443368  5461 net.cpp:157] Top shape: 30 20 54 46 (1490400)
I0527 03:44:44.443382  5461 net.cpp:165] Memory required for data: 33421560
I0527 03:44:44.443397  5461 layer_factory.hpp:77] Creating layer pool2
I0527 03:44:44.443419  5461 net.cpp:106] Creating Layer pool2
I0527 03:44:44.443433  5461 net.cpp:454] pool2 <- conv2
I0527 03:44:44.443449  5461 net.cpp:411] pool2 -> pool2
I0527 03:44:44.443537  5461 net.cpp:150] Setting up pool2
I0527 03:44:44.443560  5461 net.cpp:157] Top shape: 30 20 27 46 (745200)
I0527 03:44:44.443572  5461 net.cpp:165] Memory required for data: 36402360
I0527 03:44:44.443588  5461 layer_factory.hpp:77] Creating layer conv3
I0527 03:44:44.443616  5461 net.cpp:106] Creating Layer conv3
I0527 03:44:44.443629  5461 net.cpp:454] conv3 <- pool2
I0527 03:44:44.443646  5461 net.cpp:411] conv3 -> conv3
I0527 03:44:44.445647  5461 net.cpp:150] Setting up conv3
I0527 03:44:44.445672  5461 net.cpp:157] Top shape: 30 28 22 44 (813120)
I0527 03:44:44.445691  5461 net.cpp:165] Memory required for data: 39654840
I0527 03:44:44.445731  5461 layer_factory.hpp:77] Creating layer relu3
I0527 03:44:44.445757  5461 net.cpp:106] Creating Layer relu3
I0527 03:44:44.445771  5461 net.cpp:454] relu3 <- conv3
I0527 03:44:44.445787  5461 net.cpp:397] relu3 -> conv3 (in-place)
I0527 03:44:44.446286  5461 net.cpp:150] Setting up relu3
I0527 03:44:44.446310  5461 net.cpp:157] Top shape: 30 28 22 44 (813120)
I0527 03:44:44.446323  5461 net.cpp:165] Memory required for data: 42907320
I0527 03:44:44.446339  5461 layer_factory.hpp:77] Creating layer pool3
I0527 03:44:44.446355  5461 net.cpp:106] Creating Layer pool3
I0527 03:44:44.446377  5461 net.cpp:454] pool3 <- conv3
I0527 03:44:44.446393  5461 net.cpp:411] pool3 -> pool3
I0527 03:44:44.446480  5461 net.cpp:150] Setting up pool3
I0527 03:44:44.446499  5461 net.cpp:157] Top shape: 30 28 11 44 (406560)
I0527 03:44:44.446514  5461 net.cpp:165] Memory required for data: 44533560
I0527 03:44:44.446527  5461 layer_factory.hpp:77] Creating layer conv4
I0527 03:44:44.446553  5461 net.cpp:106] Creating Layer conv4
I0527 03:44:44.446566  5461 net.cpp:454] conv4 <- pool3
I0527 03:44:44.446584  5461 net.cpp:411] conv4 -> conv4
I0527 03:44:44.448678  5461 net.cpp:150] Setting up conv4
I0527 03:44:44.448703  5461 net.cpp:157] Top shape: 30 36 6 42 (272160)
I0527 03:44:44.448722  5461 net.cpp:165] Memory required for data: 45622200
I0527 03:44:44.448741  5461 layer_factory.hpp:77] Creating layer relu4
I0527 03:44:44.448761  5461 net.cpp:106] Creating Layer relu4
I0527 03:44:44.448774  5461 net.cpp:454] relu4 <- conv4
I0527 03:44:44.448801  5461 net.cpp:397] relu4 -> conv4 (in-place)
I0527 03:44:44.449286  5461 net.cpp:150] Setting up relu4
I0527 03:44:44.449309  5461 net.cpp:157] Top shape: 30 36 6 42 (272160)
I0527 03:44:44.449322  5461 net.cpp:165] Memory required for data: 46710840
I0527 03:44:44.449338  5461 layer_factory.hpp:77] Creating layer pool4
I0527 03:44:44.449354  5461 net.cpp:106] Creating Layer pool4
I0527 03:44:44.449375  5461 net.cpp:454] pool4 <- conv4
I0527 03:44:44.449393  5461 net.cpp:411] pool4 -> pool4
I0527 03:44:44.449481  5461 net.cpp:150] Setting up pool4
I0527 03:44:44.449497  5461 net.cpp:157] Top shape: 30 36 3 42 (136080)
I0527 03:44:44.449512  5461 net.cpp:165] Memory required for data: 47255160
I0527 03:44:44.449524  5461 layer_factory.hpp:77] Creating layer ip1
I0527 03:44:44.449542  5461 net.cpp:106] Creating Layer ip1
I0527 03:44:44.449555  5461 net.cpp:454] ip1 <- pool4
I0527 03:44:44.449584  5461 net.cpp:411] ip1 -> ip1
I0527 03:44:44.464980  5461 net.cpp:150] Setting up ip1
I0527 03:44:44.465014  5461 net.cpp:157] Top shape: 30 196 (5880)
I0527 03:44:44.465035  5461 net.cpp:165] Memory required for data: 47278680
I0527 03:44:44.465061  5461 layer_factory.hpp:77] Creating layer relu5
I0527 03:44:44.465085  5461 net.cpp:106] Creating Layer relu5
I0527 03:44:44.465096  5461 net.cpp:454] relu5 <- ip1
I0527 03:44:44.465126  5461 net.cpp:397] relu5 -> ip1 (in-place)
I0527 03:44:44.465490  5461 net.cpp:150] Setting up relu5
I0527 03:44:44.465510  5461 net.cpp:157] Top shape: 30 196 (5880)
I0527 03:44:44.465523  5461 net.cpp:165] Memory required for data: 47302200
I0527 03:44:44.465538  5461 layer_factory.hpp:77] Creating layer drop1
I0527 03:44:44.465567  5461 net.cpp:106] Creating Layer drop1
I0527 03:44:44.465581  5461 net.cpp:454] drop1 <- ip1
I0527 03:44:44.465597  5461 net.cpp:397] drop1 -> ip1 (in-place)
I0527 03:44:44.465648  5461 net.cpp:150] Setting up drop1
I0527 03:44:44.465674  5461 net.cpp:157] Top shape: 30 196 (5880)
I0527 03:44:44.465697  5461 net.cpp:165] Memory required for data: 47325720
I0527 03:44:44.465709  5461 layer_factory.hpp:77] Creating layer ip2
I0527 03:44:44.465729  5461 net.cpp:106] Creating Layer ip2
I0527 03:44:44.465742  5461 net.cpp:454] ip2 <- ip1
I0527 03:44:44.465765  5461 net.cpp:411] ip2 -> ip2
I0527 03:44:44.466261  5461 net.cpp:150] Setting up ip2
I0527 03:44:44.466280  5461 net.cpp:157] Top shape: 30 98 (2940)
I0527 03:44:44.466294  5461 net.cpp:165] Memory required for data: 47337480
I0527 03:44:44.466315  5461 layer_factory.hpp:77] Creating layer relu6
I0527 03:44:44.466348  5461 net.cpp:106] Creating Layer relu6
I0527 03:44:44.466362  5461 net.cpp:454] relu6 <- ip2
I0527 03:44:44.466378  5461 net.cpp:397] relu6 -> ip2 (in-place)
I0527 03:44:44.466943  5461 net.cpp:150] Setting up relu6
I0527 03:44:44.466965  5461 net.cpp:157] Top shape: 30 98 (2940)
I0527 03:44:44.466979  5461 net.cpp:165] Memory required for data: 47349240
I0527 03:44:44.466991  5461 layer_factory.hpp:77] Creating layer drop2
I0527 03:44:44.467010  5461 net.cpp:106] Creating Layer drop2
I0527 03:44:44.467023  5461 net.cpp:454] drop2 <- ip2
I0527 03:44:44.467049  5461 net.cpp:397] drop2 -> ip2 (in-place)
I0527 03:44:44.467103  5461 net.cpp:150] Setting up drop2
I0527 03:44:44.467123  5461 net.cpp:157] Top shape: 30 98 (2940)
I0527 03:44:44.467134  5461 net.cpp:165] Memory required for data: 47361000
I0527 03:44:44.467154  5461 layer_factory.hpp:77] Creating layer ip3
I0527 03:44:44.467171  5461 net.cpp:106] Creating Layer ip3
I0527 03:44:44.467183  5461 net.cpp:454] ip3 <- ip2
I0527 03:44:44.467203  5461 net.cpp:411] ip3 -> ip3
I0527 03:44:44.467447  5461 net.cpp:150] Setting up ip3
I0527 03:44:44.467466  5461 net.cpp:157] Top shape: 30 11 (330)
I0527 03:44:44.467478  5461 net.cpp:165] Memory required for data: 47362320
I0527 03:44:44.467499  5461 layer_factory.hpp:77] Creating layer drop3
I0527 03:44:44.467521  5461 net.cpp:106] Creating Layer drop3
I0527 03:44:44.467535  5461 net.cpp:454] drop3 <- ip3
I0527 03:44:44.467550  5461 net.cpp:397] drop3 -> ip3 (in-place)
I0527 03:44:44.467597  5461 net.cpp:150] Setting up drop3
I0527 03:44:44.467619  5461 net.cpp:157] Top shape: 30 11 (330)
I0527 03:44:44.467633  5461 net.cpp:165] Memory required for data: 47363640
I0527 03:44:44.467648  5461 layer_factory.hpp:77] Creating layer ip3_drop3_0_split
I0527 03:44:44.467664  5461 net.cpp:106] Creating Layer ip3_drop3_0_split
I0527 03:44:44.467676  5461 net.cpp:454] ip3_drop3_0_split <- ip3
I0527 03:44:44.467694  5461 net.cpp:411] ip3_drop3_0_split -> ip3_drop3_0_split_0
I0527 03:44:44.467718  5461 net.cpp:411] ip3_drop3_0_split -> ip3_drop3_0_split_1
I0527 03:44:44.467805  5461 net.cpp:150] Setting up ip3_drop3_0_split
I0527 03:44:44.467823  5461 net.cpp:157] Top shape: 30 11 (330)
I0527 03:44:44.467841  5461 net.cpp:157] Top shape: 30 11 (330)
I0527 03:44:44.467854  5461 net.cpp:165] Memory required for data: 47366280
I0527 03:44:44.467869  5461 layer_factory.hpp:77] Creating layer accuracy
I0527 03:44:44.467897  5461 net.cpp:106] Creating Layer accuracy
I0527 03:44:44.467911  5461 net.cpp:454] accuracy <- ip3_drop3_0_split_0
I0527 03:44:44.467926  5461 net.cpp:454] accuracy <- label_data_hdf5_1_split_0
I0527 03:44:44.467942  5461 net.cpp:411] accuracy -> accuracy
…
