…
I0522 06:06:01.008471 20337 net.cpp:322] The NetState phase (0) differed from the phase (1) specified by a rule in layer data_hdf5
I0522 06:06:01.008530 20337 net.cpp:322] The NetState phase (0) differed from the phase (1) specified by a rule in layer accuracy
I0522 06:06:01.008877 20337 net.cpp:49] Initializing net from parameters: 
name: "caffe_test_127x50_x_unshifted"
state {
  phase: TRAIN
}
layer {
  name: "data_hdf5"
  type: "HDF5Data"
  top: "data"
  top: "label"
  include {
    phase: TRAIN
  }
  hdf5_data_param {
    source: "/lustre/atlas/proj-shared/hep105/caffe_titan/minosmatch_nukecczdefs_127x50_x_unshifted_me1Bmc.trainlist"
    batch_size: 30
  }
}
layer {
  name: "conv1"
  type: "Convolution"
  bottom: "data"
  top: "conv1"
  convolution_param {
    num_output: 12
    pad: 0
    stride: 1
    weight_filler {
      type: "xavier"
    }
    bias_filler {
      type: "constant"
    }
    kernel_h: 8
    kernel_w: 3
  }
}
layer {
  name: "relu1"
  type: "ReLU"
  bottom: "conv1"
  top: "conv1"
}
layer {
  name: "pool1"
  type: "Pooling"
  bottom: "conv1"
  top: "pool1"
  pooling_param {
    pool: MAX
    kernel_h: 2
    kernel_w: 1
    stride_h: 2
    stride_w: 1
  }
}
layer {
  name: "conv2"
  type: "Convolution"
  bottom: "pool1"
  top: "conv2"
  convolution_param {
    num_output: 20
    pad: 0
    stride: 1
    weight_filler {
      type: "xavier"
    }
    bias_filler {
      type: "constant"
    }
    kernel_h: 7
    kernel_w: 3
  }
}
layer {
  name: "relu2"
  type: "ReLU"
  bottom: "conv2"
  top: "conv2"
}
layer {
  name: "pool2"
  type: "Pooling"
  bottom: "conv2"
  top: "pool2"
  pooling_param {
    pool: MAX
    kernel_h: 2
    kernel_w: 1
    stride_h: 2
    stride_w: 1
  }
}
layer {
  name: "conv3"
  type: "Convolution"
  bottom: "pool2"
  top: "conv3"
  convolution_param {
    num_output: 28
    pad: 0
    stride: 1
    weight_filler {
      type: "xavier"
    }
    bias_filler {
      type: "constant"
    }
    kernel_h: 6
    kernel_w: 3
  }
}
layer {
  name: "relu3"
  type: "ReLU"
  bottom: "conv3"
  top: "conv3"
}
layer {
  name: "pool3"
  type: "Pooling"
  bottom: "conv3"
  top: "pool3"
  pooling_param {
    pool: MAX
    kernel_h: 2
    kernel_w: 1
    stride_h: 2
    stride_w: 1
  }
}
layer {
  name: "conv4"
  type: "Convolution"
  bottom: "pool3"
  top: "conv4"
  convolution_param {
    num_output: 36
    pad: 0
    stride: 1
    weight_filler {
      type: "xavier"
    }
    bias_filler {
      type: "constant"
    }
    kernel_h: 6
    kernel_w: 3
  }
}
layer {
  name: "relu4"
  type: "ReLU"
  bottom: "conv4"
  top: "conv4"
}
layer {
  name: "pool4"
  type: "Pooling"
  bottom: "conv4"
  top: "pool4"
  pooling_param {
    pool: MAX
    kernel_h: 2
    kernel_w: 1
    stride_h: 2
    stride_w: 1
  }
}
layer {
  name: "ip1"
  type: "InnerProduct"
  bottom: "pool4"
  top: "ip1"
  inner_product_param {
    num_output: 196
    weight_filler {
      type: "xavier"
    }
    bias_filler {
      type: "constant"
    }
  }
}
layer {
  name: "relu5"
  type: "ReLU"
  bottom: "ip1"
  top: "ip1"
}
layer {
  name: "drop1"
  type: "Dropout"
  bottom: "ip1"
  top: "ip1"
  dropout_param {
    dropout_ratio: 0.5
  }
}
layer {
  name: "ip2"
  type: "InnerProduct"
  bottom: "ip1"
  top: "ip2"
  inner_product_param {
    num_output: 98
    weight_filler {
      type: "xavier"
    }
    bias_filler {
      type: "constant"
    }
  }
}
layer {
  name: "relu6"
  type: "ReLU"
  bottom: "ip2"
  top: "ip2"
}
layer {
  name: "drop2"
  type: "Dropout"
  bottom: "ip2"
  top: "ip2"
  dropout_param {
    dropout_ratio: 0.5
  }
}
layer {
  name: "ip3"
  type: "InnerProduct"
  bottom: "ip2"
  top: "ip3"
  inner_product_param {
    num_output: 11
    weight_filler {
      type: "xavier"
    }
    bias_filler {
      type: "constant"
    }
  }
}
layer {
  name: "drop3"
  type: "Dropout"
  bottom: "ip3"
  top: "ip3"
  dropout_param {
    dropout_ratio: 0.5
  }
}
layer {
  name: "loss"
  type: "SoftmaxWithLoss"
  bottom: "ip3"
  bottom: "label"
  top: "loss"
}
I0522 06:06:01.009057 20337 layer_factory.hpp:77] Creating layer data_hdf5
I0522 06:06:01.009080 20337 net.cpp:106] Creating Layer data_hdf5
I0522 06:06:01.009095 20337 net.cpp:411] data_hdf5 -> data
I0522 06:06:01.009129 20337 net.cpp:411] data_hdf5 -> label
I0522 06:06:01.009160 20337 hdf5_data_layer.cpp:79] Loading list of HDF5 filenames from: /lustre/atlas/proj-shared/hep105/caffe_titan/minosmatch_nukecczdefs_127x50_x_unshifted_me1Bmc.trainlist
I0522 06:06:01.010862 20337 hdf5_data_layer.cpp:93] Number of HDF5 files: 15
I0522 06:06:01.013283 20337 hdf5.cpp:32] Datatype class: H5T_FLOAT
I0522 06:06:22.509030 20337 hdf5.cpp:35] Datatype class: H5T_INTEGER
I0522 06:06:22.514197 20337 net.cpp:150] Setting up data_hdf5
I0522 06:06:22.514237 20337 net.cpp:157] Top shape: 30 1 127 50 (190500)
I0522 06:06:22.514252 20337 net.cpp:157] Top shape: 30 (30)
I0522 06:06:22.514264 20337 net.cpp:165] Memory required for data: 762120
I0522 06:06:22.514278 20337 layer_factory.hpp:77] Creating layer conv1
I0522 06:06:22.514312 20337 net.cpp:106] Creating Layer conv1
I0522 06:06:22.514323 20337 net.cpp:454] conv1 <- data
I0522 06:06:22.514344 20337 net.cpp:411] conv1 -> conv1
I0522 06:06:22.881328 20337 net.cpp:150] Setting up conv1
I0522 06:06:22.881376 20337 net.cpp:157] Top shape: 30 12 120 48 (2073600)
I0522 06:06:22.881386 20337 net.cpp:165] Memory required for data: 9056520
I0522 06:06:22.881414 20337 layer_factory.hpp:77] Creating layer relu1
I0522 06:06:22.881436 20337 net.cpp:106] Creating Layer relu1
I0522 06:06:22.881448 20337 net.cpp:454] relu1 <- conv1
I0522 06:06:22.881460 20337 net.cpp:397] relu1 -> conv1 (in-place)
I0522 06:06:22.881983 20337 net.cpp:150] Setting up relu1
I0522 06:06:22.882000 20337 net.cpp:157] Top shape: 30 12 120 48 (2073600)
I0522 06:06:22.882011 20337 net.cpp:165] Memory required for data: 17350920
I0522 06:06:22.882021 20337 layer_factory.hpp:77] Creating layer pool1
I0522 06:06:22.882038 20337 net.cpp:106] Creating Layer pool1
I0522 06:06:22.882047 20337 net.cpp:454] pool1 <- conv1
I0522 06:06:22.882061 20337 net.cpp:411] pool1 -> pool1
I0522 06:06:22.882139 20337 net.cpp:150] Setting up pool1
I0522 06:06:22.882153 20337 net.cpp:157] Top shape: 30 12 60 48 (1036800)
I0522 06:06:22.882164 20337 net.cpp:165] Memory required for data: 21498120
I0522 06:06:22.882171 20337 layer_factory.hpp:77] Creating layer conv2
I0522 06:06:22.882194 20337 net.cpp:106] Creating Layer conv2
I0522 06:06:22.882205 20337 net.cpp:454] conv2 <- pool1
I0522 06:06:22.882218 20337 net.cpp:411] conv2 -> conv2
I0522 06:06:22.884903 20337 net.cpp:150] Setting up conv2
I0522 06:06:22.884932 20337 net.cpp:157] Top shape: 30 20 54 46 (1490400)
I0522 06:06:22.884941 20337 net.cpp:165] Memory required for data: 27459720
I0522 06:06:22.884960 20337 layer_factory.hpp:77] Creating layer relu2
I0522 06:06:22.884975 20337 net.cpp:106] Creating Layer relu2
I0522 06:06:22.884985 20337 net.cpp:454] relu2 <- conv2
I0522 06:06:22.884997 20337 net.cpp:397] relu2 -> conv2 (in-place)
I0522 06:06:22.885327 20337 net.cpp:150] Setting up relu2
I0522 06:06:22.885341 20337 net.cpp:157] Top shape: 30 20 54 46 (1490400)
I0522 06:06:22.885352 20337 net.cpp:165] Memory required for data: 33421320
I0522 06:06:22.885362 20337 layer_factory.hpp:77] Creating layer pool2
I0522 06:06:22.885375 20337 net.cpp:106] Creating Layer pool2
I0522 06:06:22.885385 20337 net.cpp:454] pool2 <- conv2
I0522 06:06:22.885397 20337 net.cpp:411] pool2 -> pool2
I0522 06:06:22.885478 20337 net.cpp:150] Setting up pool2
I0522 06:06:22.885491 20337 net.cpp:157] Top shape: 30 20 27 46 (745200)
I0522 06:06:22.885501 20337 net.cpp:165] Memory required for data: 36402120
I0522 06:06:22.885511 20337 layer_factory.hpp:77] Creating layer conv3
I0522 06:06:22.885527 20337 net.cpp:106] Creating Layer conv3
I0522 06:06:22.885537 20337 net.cpp:454] conv3 <- pool2
I0522 06:06:22.885551 20337 net.cpp:411] conv3 -> conv3
I0522 06:06:22.887504 20337 net.cpp:150] Setting up conv3
I0522 06:06:22.887527 20337 net.cpp:157] Top shape: 30 28 22 44 (813120)
I0522 06:06:22.887539 20337 net.cpp:165] Memory required for data: 39654600
I0522 06:06:22.887558 20337 layer_factory.hpp:77] Creating layer relu3
I0522 06:06:22.887574 20337 net.cpp:106] Creating Layer relu3
I0522 06:06:22.887584 20337 net.cpp:454] relu3 <- conv3
I0522 06:06:22.887598 20337 net.cpp:397] relu3 -> conv3 (in-place)
I0522 06:06:22.888069 20337 net.cpp:150] Setting up relu3
I0522 06:06:22.888087 20337 net.cpp:157] Top shape: 30 28 22 44 (813120)
I0522 06:06:22.888097 20337 net.cpp:165] Memory required for data: 42907080
I0522 06:06:22.888106 20337 layer_factory.hpp:77] Creating layer pool3
I0522 06:06:22.888128 20337 net.cpp:106] Creating Layer pool3
I0522 06:06:22.888139 20337 net.cpp:454] pool3 <- conv3
I0522 06:06:22.888151 20337 net.cpp:411] pool3 -> pool3
I0522 06:06:22.888219 20337 net.cpp:150] Setting up pool3
I0522 06:06:22.888233 20337 net.cpp:157] Top shape: 30 28 11 44 (406560)
I0522 06:06:22.888243 20337 net.cpp:165] Memory required for data: 44533320
I0522 06:06:22.888252 20337 layer_factory.hpp:77] Creating layer conv4
I0522 06:06:22.888270 20337 net.cpp:106] Creating Layer conv4
I0522 06:06:22.888280 20337 net.cpp:454] conv4 <- pool3
I0522 06:06:22.888293 20337 net.cpp:411] conv4 -> conv4
I0522 06:06:22.891008 20337 net.cpp:150] Setting up conv4
I0522 06:06:22.891036 20337 net.cpp:157] Top shape: 30 36 6 42 (272160)
I0522 06:06:22.891047 20337 net.cpp:165] Memory required for data: 45621960
I0522 06:06:22.891062 20337 layer_factory.hpp:77] Creating layer relu4
I0522 06:06:22.891077 20337 net.cpp:106] Creating Layer relu4
I0522 06:06:22.891086 20337 net.cpp:454] relu4 <- conv4
I0522 06:06:22.891177 20337 net.cpp:397] relu4 -> conv4 (in-place)
I0522 06:06:22.891646 20337 net.cpp:150] Setting up relu4
I0522 06:06:22.891662 20337 net.cpp:157] Top shape: 30 36 6 42 (272160)
I0522 06:06:22.891674 20337 net.cpp:165] Memory required for data: 46710600
I0522 06:06:22.891683 20337 layer_factory.hpp:77] Creating layer pool4
I0522 06:06:22.891696 20337 net.cpp:106] Creating Layer pool4
I0522 06:06:22.891705 20337 net.cpp:454] pool4 <- conv4
I0522 06:06:22.891718 20337 net.cpp:411] pool4 -> pool4
I0522 06:06:22.891787 20337 net.cpp:150] Setting up pool4
I0522 06:06:22.891800 20337 net.cpp:157] Top shape: 30 36 3 42 (136080)
I0522 06:06:22.891811 20337 net.cpp:165] Memory required for data: 47254920
I0522 06:06:22.891821 20337 layer_factory.hpp:77] Creating layer ip1
I0522 06:06:22.891839 20337 net.cpp:106] Creating Layer ip1
I0522 06:06:22.891849 20337 net.cpp:454] ip1 <- pool4
I0522 06:06:22.891862 20337 net.cpp:411] ip1 -> ip1
I0522 06:06:22.907317 20337 net.cpp:150] Setting up ip1
I0522 06:06:22.907346 20337 net.cpp:157] Top shape: 30 196 (5880)
I0522 06:06:22.907357 20337 net.cpp:165] Memory required for data: 47278440
I0522 06:06:22.907380 20337 layer_factory.hpp:77] Creating layer relu5
I0522 06:06:22.907395 20337 net.cpp:106] Creating Layer relu5
I0522 06:06:22.907405 20337 net.cpp:454] relu5 <- ip1
I0522 06:06:22.907418 20337 net.cpp:397] relu5 -> ip1 (in-place)
I0522 06:06:22.907759 20337 net.cpp:150] Setting up relu5
I0522 06:06:22.907774 20337 net.cpp:157] Top shape: 30 196 (5880)
I0522 06:06:22.907784 20337 net.cpp:165] Memory required for data: 47301960
I0522 06:06:22.907794 20337 layer_factory.hpp:77] Creating layer drop1
I0522 06:06:22.907816 20337 net.cpp:106] Creating Layer drop1
I0522 06:06:22.907826 20337 net.cpp:454] drop1 <- ip1
I0522 06:06:22.907840 20337 net.cpp:397] drop1 -> ip1 (in-place)
I0522 06:06:22.907898 20337 net.cpp:150] Setting up drop1
I0522 06:06:22.907912 20337 net.cpp:157] Top shape: 30 196 (5880)
I0522 06:06:22.907922 20337 net.cpp:165] Memory required for data: 47325480
I0522 06:06:22.907930 20337 layer_factory.hpp:77] Creating layer ip2
I0522 06:06:22.907948 20337 net.cpp:106] Creating Layer ip2
I0522 06:06:22.907959 20337 net.cpp:454] ip2 <- ip1
I0522 06:06:22.907971 20337 net.cpp:411] ip2 -> ip2
I0522 06:06:22.908439 20337 net.cpp:150] Setting up ip2
I0522 06:06:22.908452 20337 net.cpp:157] Top shape: 30 98 (2940)
I0522 06:06:22.908462 20337 net.cpp:165] Memory required for data: 47337240
I0522 06:06:22.908478 20337 layer_factory.hpp:77] Creating layer relu6
I0522 06:06:22.908489 20337 net.cpp:106] Creating Layer relu6
I0522 06:06:22.908499 20337 net.cpp:454] relu6 <- ip2
I0522 06:06:22.908511 20337 net.cpp:397] relu6 -> ip2 (in-place)
I0522 06:06:22.909029 20337 net.cpp:150] Setting up relu6
I0522 06:06:22.909044 20337 net.cpp:157] Top shape: 30 98 (2940)
I0522 06:06:22.909054 20337 net.cpp:165] Memory required for data: 47349000
I0522 06:06:22.909065 20337 layer_factory.hpp:77] Creating layer drop2
I0522 06:06:22.909077 20337 net.cpp:106] Creating Layer drop2
I0522 06:06:22.909087 20337 net.cpp:454] drop2 <- ip2
I0522 06:06:22.909099 20337 net.cpp:397] drop2 -> ip2 (in-place)
I0522 06:06:22.909140 20337 net.cpp:150] Setting up drop2
I0522 06:06:22.909153 20337 net.cpp:157] Top shape: 30 98 (2940)
I0522 06:06:22.909164 20337 net.cpp:165] Memory required for data: 47360760
I0522 06:06:22.909174 20337 layer_factory.hpp:77] Creating layer ip3
I0522 06:06:22.909188 20337 net.cpp:106] Creating Layer ip3
I0522 06:06:22.909198 20337 net.cpp:454] ip3 <- ip2
I0522 06:06:22.909210 20337 net.cpp:411] ip3 -> ip3
I0522 06:06:22.909420 20337 net.cpp:150] Setting up ip3
I0522 06:06:22.909433 20337 net.cpp:157] Top shape: 30 11 (330)
I0522 06:06:22.909442 20337 net.cpp:165] Memory required for data: 47362080
I0522 06:06:22.909457 20337 layer_factory.hpp:77] Creating layer drop3
I0522 06:06:22.909471 20337 net.cpp:106] Creating Layer drop3
I0522 06:06:22.909481 20337 net.cpp:454] drop3 <- ip3
I0522 06:06:22.909492 20337 net.cpp:397] drop3 -> ip3 (in-place)
I0522 06:06:22.909531 20337 net.cpp:150] Setting up drop3
I0522 06:06:22.909544 20337 net.cpp:157] Top shape: 30 11 (330)
I0522 06:06:22.909554 20337 net.cpp:165] Memory required for data: 47363400
I0522 06:06:22.909564 20337 layer_factory.hpp:77] Creating layer loss
I0522 06:06:22.909584 20337 net.cpp:106] Creating Layer loss
I0522 06:06:22.909592 20337 net.cpp:454] loss <- ip3
I0522 06:06:22.909605 20337 net.cpp:454] loss <- label
I0522 06:06:22.909618 20337 net.cpp:411] loss -> loss
I0522 06:06:22.909638 20337 layer_factory.hpp:77] Creating layer loss
…
I0522 06:06:22.912405 20337 solver.cpp:181] Creating test net (#0) specified by net file: /lustre/atlas/proj-shared/hep105/caffe_titan/caffe_workflow/logs_bslr/bs_30_lr_0.0005_2016-05-20T15.48.57.300508.prototxt
I0522 06:06:22.912477 20337 net.cpp:322] The NetState phase (1) differed from the phase (0) specified by a rule in layer data_hdf5
I0522 06:06:22.912830 20337 net.cpp:49] Initializing net from parameters: 
name: "caffe_test_127x50_x_unshifted"
state {
  phase: TEST
}
layer {
  name: "data_hdf5"
  type: "HDF5Data"
  top: "data"
  top: "label"
  include {
    phase: TEST
  }
  hdf5_data_param {
    source: "/lustre/atlas/proj-shared/hep105/caffe_titan/minosmatch_nukecczdefs_127x50_x_unshifted_me1Bmc.testlist"
    batch_size: 30
  }
}
layer {
  name: "conv1"
  type: "Convolution"
  bottom: "data"
  top: "conv1"
  convolution_param {
    num_output: 12
    pad: 0
    stride: 1
    weight_filler {
      type: "xavier"
    }
    bias_filler {
      type: "constant"
    }
    kernel_h: 8
    kernel_w: 3
  }
}
layer {
  name: "relu1"
  type: "ReLU"
  bottom: "conv1"
  top: "conv1"
}
layer {
  name: "pool1"
  type: "Pooling"
  bottom: "conv1"
  top: "pool1"
  pooling_param {
    pool: MAX
    kernel_h: 2
    kernel_w: 1
    stride_h: 2
    stride_w: 1
  }
}
layer {
  name: "conv2"
  type: "Convolution"
  bottom: "pool1"
  top: "conv2"
  convolution_param {
    num_output: 20
    pad: 0
    stride: 1
    weight_filler {
      type: "xavier"
    }
    bias_filler {
      type: "constant"
    }
    kernel_h: 7
    kernel_w: 3
  }
}
layer {
  name: "relu2"
  type: "ReLU"
  bottom: "conv2"
  top: "conv2"
}
layer {
  name: "pool2"
  type: "Pooling"
  bottom: "conv2"
  top: "pool2"
  pooling_param {
    pool: MAX
    kernel_h: 2
    kernel_w: 1
    stride_h: 2
    stride_w: 1
  }
}
layer {
  name: "conv3"
  type: "Convolution"
  bottom: "pool2"
  top: "conv3"
  convolution_param {
    num_output: 28
    pad: 0
    stride: 1
    weight_filler {
      type: "xavier"
    }
    bias_filler {
      type: "constant"
    }
    kernel_h: 6
    kernel_w: 3
  }
}
layer {
  name: "relu3"
  type: "ReLU"
  bottom: "conv3"
  top: "conv3"
}
layer {
  name: "pool3"
  type: "Pooling"
  bottom: "conv3"
  top: "pool3"
  pooling_param {
    pool: MAX
    kernel_h: 2
    kernel_w: 1
    stride_h: 2
    stride_w: 1
  }
}
layer {
  name: "conv4"
  type: "Convolution"
  bottom: "pool3"
  top: "conv4"
  convolution_param {
    num_output: 36
    pad: 0
    stride: 1
    weight_filler {
      type: "xavier"
    }
    bias_filler {
      type: "constant"
    }
    kernel_h: 6
    kernel_w: 3
  }
}
layer {
  name: "relu4"
  type: "ReLU"
  bottom: "conv4"
  top: "conv4"
}
layer {
  name: "pool4"
  type: "Pooling"
  bottom: "conv4"
  top: "pool4"
  pooling_param {
    pool: MAX
    kernel_h: 2
    kernel_w: 1
    stride_h: 2
    stride_w: 1
  }
}
layer {
  name: "ip1"
  type: "InnerProduct"
  bottom: "pool4"
  top: "ip1"
  inner_product_param {
    num_output: 196
    weight_filler {
      type: "xavier"
    }
    bias_filler {
      type: "constant"
    }
  }
}
layer {
  name: "relu5"
  type: "ReLU"
  bottom: "ip1"
  top: "ip1"
}
layer {
  name: "drop1"
  type: "Dropout"
  bottom: "ip1"
  top: "ip1"
  dropout_param {
    dropout_ratio: 0.5
  }
}
layer {
  name: "ip2"
  type: "InnerProduct"
  bottom: "ip1"
  top: "ip2"
  inner_product_param {
    num_output: 98
    weight_filler {
      type: "xavier"
    }
    bias_filler {
      type: "constant"
    }
  }
}
layer {
  name: "relu6"
  type: "ReLU"
  bottom: "ip2"
  top: "ip2"
}
layer {
  name: "drop2"
  type: "Dropout"
  bottom: "ip2"
  top: "ip2"
  dropout_param {
    dropout_ratio: 0.5
  }
}
layer {
  name: "ip3"
  type: "InnerProduct"
  bottom: "ip2"
  top: "ip3"
  inner_product_param {
    num_output: 11
    weight_filler {
      type: "xavier"
    }
    bias_filler {
      type: "constant"
    }
  }
}
layer {
  name: "drop3"
  type: "Dropout"
  bottom: "ip3"
  top: "ip3"
  dropout_param {
    dropout_ratio: 0.5
  }
}
layer {
  name: "accuracy"
  type: "Accuracy"
  bottom: "ip3"
  bottom: "label"
  top: "accuracy"
  include {
    phase: TEST
  }
}
layer {
  name: "loss"
  type: "SoftmaxWithLoss"
  bottom: "ip3"
  bottom: "label"
  top: "loss"
}
I0522 06:06:22.913022 20337 layer_factory.hpp:77] Creating layer data_hdf5
I0522 06:06:22.913038 20337 net.cpp:106] Creating Layer data_hdf5
I0522 06:06:22.913049 20337 net.cpp:411] data_hdf5 -> data
I0522 06:06:22.913064 20337 net.cpp:411] data_hdf5 -> label
I0522 06:06:22.913081 20337 hdf5_data_layer.cpp:79] Loading list of HDF5 filenames from: /lustre/atlas/proj-shared/hep105/caffe_titan/minosmatch_nukecczdefs_127x50_x_unshifted_me1Bmc.testlist
I0522 06:06:22.914391 20337 hdf5_data_layer.cpp:93] Number of HDF5 files: 3
I0522 06:06:44.262568 20337 net.cpp:150] Setting up data_hdf5
I0522 06:06:44.262733 20337 net.cpp:157] Top shape: 30 1 127 50 (190500)
I0522 06:06:44.262748 20337 net.cpp:157] Top shape: 30 (30)
I0522 06:06:44.262759 20337 net.cpp:165] Memory required for data: 762120
I0522 06:06:44.262774 20337 layer_factory.hpp:77] Creating layer label_data_hdf5_1_split
I0522 06:06:44.262802 20337 net.cpp:106] Creating Layer label_data_hdf5_1_split
I0522 06:06:44.262812 20337 net.cpp:454] label_data_hdf5_1_split <- label
I0522 06:06:44.262827 20337 net.cpp:411] label_data_hdf5_1_split -> label_data_hdf5_1_split_0
I0522 06:06:44.262848 20337 net.cpp:411] label_data_hdf5_1_split -> label_data_hdf5_1_split_1
I0522 06:06:44.262922 20337 net.cpp:150] Setting up label_data_hdf5_1_split
I0522 06:06:44.262935 20337 net.cpp:157] Top shape: 30 (30)
I0522 06:06:44.262946 20337 net.cpp:157] Top shape: 30 (30)
I0522 06:06:44.262956 20337 net.cpp:165] Memory required for data: 762360
I0522 06:06:44.262965 20337 layer_factory.hpp:77] Creating layer conv1
I0522 06:06:44.262987 20337 net.cpp:106] Creating Layer conv1
I0522 06:06:44.262997 20337 net.cpp:454] conv1 <- data
I0522 06:06:44.263010 20337 net.cpp:411] conv1 -> conv1
I0522 06:06:44.264968 20337 net.cpp:150] Setting up conv1
I0522 06:06:44.264992 20337 net.cpp:157] Top shape: 30 12 120 48 (2073600)
I0522 06:06:44.265004 20337 net.cpp:165] Memory required for data: 9056760
I0522 06:06:44.265024 20337 layer_factory.hpp:77] Creating layer relu1
I0522 06:06:44.265039 20337 net.cpp:106] Creating Layer relu1
I0522 06:06:44.265049 20337 net.cpp:454] relu1 <- conv1
I0522 06:06:44.265063 20337 net.cpp:397] relu1 -> conv1 (in-place)
I0522 06:06:44.265558 20337 net.cpp:150] Setting up relu1
I0522 06:06:44.265573 20337 net.cpp:157] Top shape: 30 12 120 48 (2073600)
I0522 06:06:44.265583 20337 net.cpp:165] Memory required for data: 17351160
I0522 06:06:44.265594 20337 layer_factory.hpp:77] Creating layer pool1
I0522 06:06:44.265609 20337 net.cpp:106] Creating Layer pool1
I0522 06:06:44.265619 20337 net.cpp:454] pool1 <- conv1
I0522 06:06:44.265632 20337 net.cpp:411] pool1 -> pool1
I0522 06:06:44.265707 20337 net.cpp:150] Setting up pool1
I0522 06:06:44.265720 20337 net.cpp:157] Top shape: 30 12 60 48 (1036800)
I0522 06:06:44.265730 20337 net.cpp:165] Memory required for data: 21498360
I0522 06:06:44.265740 20337 layer_factory.hpp:77] Creating layer conv2
I0522 06:06:44.265758 20337 net.cpp:106] Creating Layer conv2
I0522 06:06:44.265769 20337 net.cpp:454] conv2 <- pool1
I0522 06:06:44.265782 20337 net.cpp:411] conv2 -> conv2
I0522 06:06:44.267693 20337 net.cpp:150] Setting up conv2
I0522 06:06:44.267715 20337 net.cpp:157] Top shape: 30 20 54 46 (1490400)
I0522 06:06:44.267729 20337 net.cpp:165] Memory required for data: 27459960
I0522 06:06:44.267746 20337 layer_factory.hpp:77] Creating layer relu2
I0522 06:06:44.267760 20337 net.cpp:106] Creating Layer relu2
I0522 06:06:44.267770 20337 net.cpp:454] relu2 <- conv2
I0522 06:06:44.267781 20337 net.cpp:397] relu2 -> conv2 (in-place)
I0522 06:06:44.268113 20337 net.cpp:150] Setting up relu2
I0522 06:06:44.268136 20337 net.cpp:157] Top shape: 30 20 54 46 (1490400)
I0522 06:06:44.268146 20337 net.cpp:165] Memory required for data: 33421560
I0522 06:06:44.268157 20337 layer_factory.hpp:77] Creating layer pool2
I0522 06:06:44.268168 20337 net.cpp:106] Creating Layer pool2
I0522 06:06:44.268178 20337 net.cpp:454] pool2 <- conv2
I0522 06:06:44.268192 20337 net.cpp:411] pool2 -> pool2
I0522 06:06:44.268263 20337 net.cpp:150] Setting up pool2
I0522 06:06:44.268276 20337 net.cpp:157] Top shape: 30 20 27 46 (745200)
I0522 06:06:44.268286 20337 net.cpp:165] Memory required for data: 36402360
I0522 06:06:44.268296 20337 layer_factory.hpp:77] Creating layer conv3
I0522 06:06:44.268316 20337 net.cpp:106] Creating Layer conv3
I0522 06:06:44.268326 20337 net.cpp:454] conv3 <- pool2
I0522 06:06:44.268340 20337 net.cpp:411] conv3 -> conv3
I0522 06:06:44.270318 20337 net.cpp:150] Setting up conv3
I0522 06:06:44.270336 20337 net.cpp:157] Top shape: 30 28 22 44 (813120)
I0522 06:06:44.270346 20337 net.cpp:165] Memory required for data: 39654840
I0522 06:06:44.270380 20337 layer_factory.hpp:77] Creating layer relu3
I0522 06:06:44.270392 20337 net.cpp:106] Creating Layer relu3
I0522 06:06:44.270402 20337 net.cpp:454] relu3 <- conv3
I0522 06:06:44.270417 20337 net.cpp:397] relu3 -> conv3 (in-place)
I0522 06:06:44.270887 20337 net.cpp:150] Setting up relu3
I0522 06:06:44.270905 20337 net.cpp:157] Top shape: 30 28 22 44 (813120)
I0522 06:06:44.270915 20337 net.cpp:165] Memory required for data: 42907320
I0522 06:06:44.270925 20337 layer_factory.hpp:77] Creating layer pool3
I0522 06:06:44.270937 20337 net.cpp:106] Creating Layer pool3
I0522 06:06:44.270947 20337 net.cpp:454] pool3 <- conv3
I0522 06:06:44.270959 20337 net.cpp:411] pool3 -> pool3
I0522 06:06:44.271056 20337 net.cpp:150] Setting up pool3
I0522 06:06:44.271070 20337 net.cpp:157] Top shape: 30 28 11 44 (406560)
I0522 06:06:44.271081 20337 net.cpp:165] Memory required for data: 44533560
I0522 06:06:44.271091 20337 layer_factory.hpp:77] Creating layer conv4
I0522 06:06:44.271108 20337 net.cpp:106] Creating Layer conv4
I0522 06:06:44.271119 20337 net.cpp:454] conv4 <- pool3
I0522 06:06:44.271133 20337 net.cpp:411] conv4 -> conv4
I0522 06:06:44.273200 20337 net.cpp:150] Setting up conv4
I0522 06:06:44.273221 20337 net.cpp:157] Top shape: 30 36 6 42 (272160)
I0522 06:06:44.273234 20337 net.cpp:165] Memory required for data: 45622200
I0522 06:06:44.273249 20337 layer_factory.hpp:77] Creating layer relu4
I0522 06:06:44.273262 20337 net.cpp:106] Creating Layer relu4
I0522 06:06:44.273272 20337 net.cpp:454] relu4 <- conv4
I0522 06:06:44.273285 20337 net.cpp:397] relu4 -> conv4 (in-place)
I0522 06:06:44.273754 20337 net.cpp:150] Setting up relu4
I0522 06:06:44.273769 20337 net.cpp:157] Top shape: 30 36 6 42 (272160)
I0522 06:06:44.273779 20337 net.cpp:165] Memory required for data: 46710840
I0522 06:06:44.273789 20337 layer_factory.hpp:77] Creating layer pool4
I0522 06:06:44.273802 20337 net.cpp:106] Creating Layer pool4
I0522 06:06:44.273813 20337 net.cpp:454] pool4 <- conv4
I0522 06:06:44.273825 20337 net.cpp:411] pool4 -> pool4
I0522 06:06:44.273897 20337 net.cpp:150] Setting up pool4
I0522 06:06:44.273910 20337 net.cpp:157] Top shape: 30 36 3 42 (136080)
I0522 06:06:44.273919 20337 net.cpp:165] Memory required for data: 47255160
I0522 06:06:44.273929 20337 layer_factory.hpp:77] Creating layer ip1
I0522 06:06:44.273946 20337 net.cpp:106] Creating Layer ip1
I0522 06:06:44.273957 20337 net.cpp:454] ip1 <- pool4
I0522 06:06:44.273969 20337 net.cpp:411] ip1 -> ip1
I0522 06:06:44.289450 20337 net.cpp:150] Setting up ip1
I0522 06:06:44.289479 20337 net.cpp:157] Top shape: 30 196 (5880)
I0522 06:06:44.289490 20337 net.cpp:165] Memory required for data: 47278680
I0522 06:06:44.289513 20337 layer_factory.hpp:77] Creating layer relu5
I0522 06:06:44.289528 20337 net.cpp:106] Creating Layer relu5
I0522 06:06:44.289538 20337 net.cpp:454] relu5 <- ip1
I0522 06:06:44.289552 20337 net.cpp:397] relu5 -> ip1 (in-place)
I0522 06:06:44.289898 20337 net.cpp:150] Setting up relu5
I0522 06:06:44.289912 20337 net.cpp:157] Top shape: 30 196 (5880)
I0522 06:06:44.289921 20337 net.cpp:165] Memory required for data: 47302200
I0522 06:06:44.289932 20337 layer_factory.hpp:77] Creating layer drop1
I0522 06:06:44.289950 20337 net.cpp:106] Creating Layer drop1
I0522 06:06:44.289960 20337 net.cpp:454] drop1 <- ip1
I0522 06:06:44.289973 20337 net.cpp:397] drop1 -> ip1 (in-place)
I0522 06:06:44.290019 20337 net.cpp:150] Setting up drop1
I0522 06:06:44.290032 20337 net.cpp:157] Top shape: 30 196 (5880)
I0522 06:06:44.290040 20337 net.cpp:165] Memory required for data: 47325720
I0522 06:06:44.290051 20337 layer_factory.hpp:77] Creating layer ip2
I0522 06:06:44.290066 20337 net.cpp:106] Creating Layer ip2
I0522 06:06:44.290076 20337 net.cpp:454] ip2 <- ip1
I0522 06:06:44.290089 20337 net.cpp:411] ip2 -> ip2
I0522 06:06:44.290565 20337 net.cpp:150] Setting up ip2
I0522 06:06:44.290578 20337 net.cpp:157] Top shape: 30 98 (2940)
I0522 06:06:44.290588 20337 net.cpp:165] Memory required for data: 47337480
I0522 06:06:44.290604 20337 layer_factory.hpp:77] Creating layer relu6
I0522 06:06:44.290630 20337 net.cpp:106] Creating Layer relu6
I0522 06:06:44.290640 20337 net.cpp:454] relu6 <- ip2
I0522 06:06:44.290652 20337 net.cpp:397] relu6 -> ip2 (in-place)
I0522 06:06:44.291190 20337 net.cpp:150] Setting up relu6
I0522 06:06:44.291206 20337 net.cpp:157] Top shape: 30 98 (2940)
I0522 06:06:44.291216 20337 net.cpp:165] Memory required for data: 47349240
I0522 06:06:44.291229 20337 layer_factory.hpp:77] Creating layer drop2
I0522 06:06:44.291242 20337 net.cpp:106] Creating Layer drop2
I0522 06:06:44.291252 20337 net.cpp:454] drop2 <- ip2
I0522 06:06:44.291265 20337 net.cpp:397] drop2 -> ip2 (in-place)
I0522 06:06:44.291309 20337 net.cpp:150] Setting up drop2
I0522 06:06:44.291322 20337 net.cpp:157] Top shape: 30 98 (2940)
I0522 06:06:44.291332 20337 net.cpp:165] Memory required for data: 47361000
I0522 06:06:44.291342 20337 layer_factory.hpp:77] Creating layer ip3
I0522 06:06:44.291357 20337 net.cpp:106] Creating Layer ip3
I0522 06:06:44.291366 20337 net.cpp:454] ip3 <- ip2
I0522 06:06:44.291380 20337 net.cpp:411] ip3 -> ip3
I0522 06:06:44.291604 20337 net.cpp:150] Setting up ip3
I0522 06:06:44.291617 20337 net.cpp:157] Top shape: 30 11 (330)
I0522 06:06:44.291627 20337 net.cpp:165] Memory required for data: 47362320
I0522 06:06:44.291643 20337 layer_factory.hpp:77] Creating layer drop3
I0522 06:06:44.291656 20337 net.cpp:106] Creating Layer drop3
I0522 06:06:44.291666 20337 net.cpp:454] drop3 <- ip3
I0522 06:06:44.291678 20337 net.cpp:397] drop3 -> ip3 (in-place)
I0522 06:06:44.291719 20337 net.cpp:150] Setting up drop3
I0522 06:06:44.291733 20337 net.cpp:157] Top shape: 30 11 (330)
I0522 06:06:44.291743 20337 net.cpp:165] Memory required for data: 47363640
I0522 06:06:44.291752 20337 layer_factory.hpp:77] Creating layer ip3_drop3_0_split
I0522 06:06:44.291764 20337 net.cpp:106] Creating Layer ip3_drop3_0_split
I0522 06:06:44.291774 20337 net.cpp:454] ip3_drop3_0_split <- ip3
I0522 06:06:44.291787 20337 net.cpp:411] ip3_drop3_0_split -> ip3_drop3_0_split_0
I0522 06:06:44.291802 20337 net.cpp:411] ip3_drop3_0_split -> ip3_drop3_0_split_1
I0522 06:06:44.291877 20337 net.cpp:150] Setting up ip3_drop3_0_split
I0522 06:06:44.291889 20337 net.cpp:157] Top shape: 30 11 (330)
I0522 06:06:44.291903 20337 net.cpp:157] Top shape: 30 11 (330)
I0522 06:06:44.291913 20337 net.cpp:165] Memory required for data: 47366280
I0522 06:06:44.291923 20337 layer_factory.hpp:77] Creating layer accuracy
I0522 06:06:44.291944 20337 net.cpp:106] Creating Layer accuracy
I0522 06:06:44.291954 20337 net.cpp:454] accuracy <- ip3_drop3_0_split_0
I0522 06:06:44.291965 20337 net.cpp:454] accuracy <- label_data_hdf5_1_split_0
I0522 06:06:44.291980 20337 net.cpp:411] accuracy -> accuracy
…
