…
I0522 12:08:26.007376 19035 net.cpp:322] The NetState phase (0) differed from the phase (1) specified by a rule in layer data_hdf5
I0522 12:08:26.007436 19035 net.cpp:322] The NetState phase (0) differed from the phase (1) specified by a rule in layer accuracy
I0522 12:08:26.007781 19035 net.cpp:49] Initializing net from parameters: 
name: "caffe_test_127x50_x_unshifted"
state {
  phase: TRAIN
}
layer {
  name: "data_hdf5"
  type: "HDF5Data"
  top: "data"
  top: "label"
  include {
    phase: TRAIN
  }
  hdf5_data_param {
    source: "/lustre/atlas/proj-shared/hep105/caffe_titan/minosmatch_nukecczdefs_127x50_x_unshifted_me1Bmc.trainlist"
    batch_size: 30
  }
}
layer {
  name: "conv1"
  type: "Convolution"
  bottom: "data"
  top: "conv1"
  convolution_param {
    num_output: 12
    pad: 0
    stride: 1
    weight_filler {
      type: "xavier"
    }
    bias_filler {
      type: "constant"
    }
    kernel_h: 8
    kernel_w: 3
  }
}
layer {
  name: "relu1"
  type: "ReLU"
  bottom: "conv1"
  top: "conv1"
}
layer {
  name: "pool1"
  type: "Pooling"
  bottom: "conv1"
  top: "pool1"
  pooling_param {
    pool: MAX
    kernel_h: 2
    kernel_w: 1
    stride_h: 2
    stride_w: 1
  }
}
layer {
  name: "conv2"
  type: "Convolution"
  bottom: "pool1"
  top: "conv2"
  convolution_param {
    num_output: 20
    pad: 0
    stride: 1
    weight_filler {
      type: "xavier"
    }
    bias_filler {
      type: "constant"
    }
    kernel_h: 7
    kernel_w: 3
  }
}
layer {
  name: "relu2"
  type: "ReLU"
  bottom: "conv2"
  top: "conv2"
}
layer {
  name: "pool2"
  type: "Pooling"
  bottom: "conv2"
  top: "pool2"
  pooling_param {
    pool: MAX
    kernel_h: 2
    kernel_w: 1
    stride_h: 2
    stride_w: 1
  }
}
layer {
  name: "conv3"
  type: "Convolution"
  bottom: "pool2"
  top: "conv3"
  convolution_param {
    num_output: 28
    pad: 0
    stride: 1
    weight_filler {
      type: "xavier"
    }
    bias_filler {
      type: "constant"
    }
    kernel_h: 6
    kernel_w: 3
  }
}
layer {
  name: "relu3"
  type: "ReLU"
  bottom: "conv3"
  top: "conv3"
}
layer {
  name: "pool3"
  type: "Pooling"
  bottom: "conv3"
  top: "pool3"
  pooling_param {
    pool: MAX
    kernel_h: 2
    kernel_w: 1
    stride_h: 2
    stride_w: 1
  }
}
layer {
  name: "conv4"
  type: "Convolution"
  bottom: "pool3"
  top: "conv4"
  convolution_param {
    num_output: 36
    pad: 0
    stride: 1
    weight_filler {
      type: "xavier"
    }
    bias_filler {
      type: "constant"
    }
    kernel_h: 6
    kernel_w: 3
  }
}
layer {
  name: "relu4"
  type: "ReLU"
  bottom: "conv4"
  top: "conv4"
}
layer {
  name: "pool4"
  type: "Pooling"
  bottom: "conv4"
  top: "pool4"
  pooling_param {
    pool: MAX
    kernel_h: 2
    kernel_w: 1
    stride_h: 2
    stride_w: 1
  }
}
layer {
  name: "ip1"
  type: "InnerProduct"
  bottom: "pool4"
  top: "ip1"
  inner_product_param {
    num_output: 196
    weight_filler {
      type: "xavier"
    }
    bias_filler {
      type: "constant"
    }
  }
}
layer {
  name: "relu5"
  type: "ReLU"
  bottom: "ip1"
  top: "ip1"
}
layer {
  name: "drop1"
  type: "Dropout"
  bottom: "ip1"
  top: "ip1"
  dropout_param {
    dropout_ratio: 0.5
  }
}
layer {
  name: "ip2"
  type: "InnerProduct"
  bottom: "ip1"
  top: "ip2"
  inner_product_param {
    num_output: 98
    weight_filler {
      type: "xavier"
    }
    bias_filler {
      type: "constant"
    }
  }
}
layer {
  name: "relu6"
  type: "ReLU"
  bottom: "ip2"
  top: "ip2"
}
layer {
  name: "drop2"
  type: "Dropout"
  bottom: "ip2"
  top: "ip2"
  dropout_param {
    dropout_ratio: 0.5
  }
}
layer {
  name: "ip3"
  type: "InnerProduct"
  bottom: "ip2"
  top: "ip3"
  inner_product_param {
    num_output: 11
    weight_filler {
      type: "xavier"
    }
    bias_filler {
      type: "constant"
    }
  }
}
layer {
  name: "drop3"
  type: "Dropout"
  bottom: "ip3"
  top: "ip3"
  dropout_param {
    dropout_ratio: 0.5
  }
}
layer {
  name: "loss"
  type: "SoftmaxWithLoss"
  bottom: "ip3"
  bottom: "label"
  top: "loss"
}
I0522 12:08:26.007961 19035 layer_factory.hpp:77] Creating layer data_hdf5
I0522 12:08:26.007984 19035 net.cpp:106] Creating Layer data_hdf5
I0522 12:08:26.007999 19035 net.cpp:411] data_hdf5 -> data
I0522 12:08:26.008033 19035 net.cpp:411] data_hdf5 -> label
I0522 12:08:26.008064 19035 hdf5_data_layer.cpp:79] Loading list of HDF5 filenames from: /lustre/atlas/proj-shared/hep105/caffe_titan/minosmatch_nukecczdefs_127x50_x_unshifted_me1Bmc.trainlist
I0522 12:08:26.010376 19035 hdf5_data_layer.cpp:93] Number of HDF5 files: 15
I0522 12:08:26.012617 19035 hdf5.cpp:32] Datatype class: H5T_FLOAT
I0522 12:08:47.553283 19035 hdf5.cpp:35] Datatype class: H5T_INTEGER
I0522 12:08:47.558517 19035 net.cpp:150] Setting up data_hdf5
I0522 12:08:47.558571 19035 net.cpp:157] Top shape: 30 1 127 50 (190500)
I0522 12:08:47.558585 19035 net.cpp:157] Top shape: 30 (30)
I0522 12:08:47.558596 19035 net.cpp:165] Memory required for data: 762120
I0522 12:08:47.558609 19035 layer_factory.hpp:77] Creating layer conv1
I0522 12:08:47.558643 19035 net.cpp:106] Creating Layer conv1
I0522 12:08:47.558655 19035 net.cpp:454] conv1 <- data
I0522 12:08:47.558678 19035 net.cpp:411] conv1 -> conv1
I0522 12:08:47.926493 19035 net.cpp:150] Setting up conv1
I0522 12:08:47.926551 19035 net.cpp:157] Top shape: 30 12 120 48 (2073600)
I0522 12:08:47.926563 19035 net.cpp:165] Memory required for data: 9056520
I0522 12:08:47.926594 19035 layer_factory.hpp:77] Creating layer relu1
I0522 12:08:47.926615 19035 net.cpp:106] Creating Layer relu1
I0522 12:08:47.926626 19035 net.cpp:454] relu1 <- conv1
I0522 12:08:47.926640 19035 net.cpp:397] relu1 -> conv1 (in-place)
I0522 12:08:47.927156 19035 net.cpp:150] Setting up relu1
I0522 12:08:47.927173 19035 net.cpp:157] Top shape: 30 12 120 48 (2073600)
I0522 12:08:47.927184 19035 net.cpp:165] Memory required for data: 17350920
I0522 12:08:47.927196 19035 layer_factory.hpp:77] Creating layer pool1
I0522 12:08:47.927212 19035 net.cpp:106] Creating Layer pool1
I0522 12:08:47.927222 19035 net.cpp:454] pool1 <- conv1
I0522 12:08:47.927235 19035 net.cpp:411] pool1 -> pool1
I0522 12:08:47.927316 19035 net.cpp:150] Setting up pool1
I0522 12:08:47.927330 19035 net.cpp:157] Top shape: 30 12 60 48 (1036800)
I0522 12:08:47.927340 19035 net.cpp:165] Memory required for data: 21498120
I0522 12:08:47.927350 19035 layer_factory.hpp:77] Creating layer conv2
I0522 12:08:47.927371 19035 net.cpp:106] Creating Layer conv2
I0522 12:08:47.927382 19035 net.cpp:454] conv2 <- pool1
I0522 12:08:47.927397 19035 net.cpp:411] conv2 -> conv2
I0522 12:08:47.930063 19035 net.cpp:150] Setting up conv2
I0522 12:08:47.930090 19035 net.cpp:157] Top shape: 30 20 54 46 (1490400)
I0522 12:08:47.930101 19035 net.cpp:165] Memory required for data: 27459720
I0522 12:08:47.930120 19035 layer_factory.hpp:77] Creating layer relu2
I0522 12:08:47.930135 19035 net.cpp:106] Creating Layer relu2
I0522 12:08:47.930145 19035 net.cpp:454] relu2 <- conv2
I0522 12:08:47.930157 19035 net.cpp:397] relu2 -> conv2 (in-place)
I0522 12:08:47.930487 19035 net.cpp:150] Setting up relu2
I0522 12:08:47.930501 19035 net.cpp:157] Top shape: 30 20 54 46 (1490400)
I0522 12:08:47.930511 19035 net.cpp:165] Memory required for data: 33421320
I0522 12:08:47.930521 19035 layer_factory.hpp:77] Creating layer pool2
I0522 12:08:47.930534 19035 net.cpp:106] Creating Layer pool2
I0522 12:08:47.930553 19035 net.cpp:454] pool2 <- conv2
I0522 12:08:47.930567 19035 net.cpp:411] pool2 -> pool2
I0522 12:08:47.930649 19035 net.cpp:150] Setting up pool2
I0522 12:08:47.930662 19035 net.cpp:157] Top shape: 30 20 27 46 (745200)
I0522 12:08:47.930672 19035 net.cpp:165] Memory required for data: 36402120
I0522 12:08:47.930680 19035 layer_factory.hpp:77] Creating layer conv3
I0522 12:08:47.930698 19035 net.cpp:106] Creating Layer conv3
I0522 12:08:47.930708 19035 net.cpp:454] conv3 <- pool2
I0522 12:08:47.930722 19035 net.cpp:411] conv3 -> conv3
I0522 12:08:47.932677 19035 net.cpp:150] Setting up conv3
I0522 12:08:47.932695 19035 net.cpp:157] Top shape: 30 28 22 44 (813120)
I0522 12:08:47.932706 19035 net.cpp:165] Memory required for data: 39654600
I0522 12:08:47.932724 19035 layer_factory.hpp:77] Creating layer relu3
I0522 12:08:47.932740 19035 net.cpp:106] Creating Layer relu3
I0522 12:08:47.932750 19035 net.cpp:454] relu3 <- conv3
I0522 12:08:47.932763 19035 net.cpp:397] relu3 -> conv3 (in-place)
I0522 12:08:47.933230 19035 net.cpp:150] Setting up relu3
I0522 12:08:47.933248 19035 net.cpp:157] Top shape: 30 28 22 44 (813120)
I0522 12:08:47.933257 19035 net.cpp:165] Memory required for data: 42907080
I0522 12:08:47.933267 19035 layer_factory.hpp:77] Creating layer pool3
I0522 12:08:47.933280 19035 net.cpp:106] Creating Layer pool3
I0522 12:08:47.933290 19035 net.cpp:454] pool3 <- conv3
I0522 12:08:47.933303 19035 net.cpp:411] pool3 -> pool3
I0522 12:08:47.933370 19035 net.cpp:150] Setting up pool3
I0522 12:08:47.933384 19035 net.cpp:157] Top shape: 30 28 11 44 (406560)
I0522 12:08:47.933393 19035 net.cpp:165] Memory required for data: 44533320
I0522 12:08:47.933403 19035 layer_factory.hpp:77] Creating layer conv4
I0522 12:08:47.933418 19035 net.cpp:106] Creating Layer conv4
I0522 12:08:47.933429 19035 net.cpp:454] conv4 <- pool3
I0522 12:08:47.933442 19035 net.cpp:411] conv4 -> conv4
I0522 12:08:47.936163 19035 net.cpp:150] Setting up conv4
I0522 12:08:47.936192 19035 net.cpp:157] Top shape: 30 36 6 42 (272160)
I0522 12:08:47.936203 19035 net.cpp:165] Memory required for data: 45621960
I0522 12:08:47.936218 19035 layer_factory.hpp:77] Creating layer relu4
I0522 12:08:47.936233 19035 net.cpp:106] Creating Layer relu4
I0522 12:08:47.936242 19035 net.cpp:454] relu4 <- conv4
I0522 12:08:47.936255 19035 net.cpp:397] relu4 -> conv4 (in-place)
I0522 12:08:47.936718 19035 net.cpp:150] Setting up relu4
I0522 12:08:47.936734 19035 net.cpp:157] Top shape: 30 36 6 42 (272160)
I0522 12:08:47.936744 19035 net.cpp:165] Memory required for data: 46710600
I0522 12:08:47.936754 19035 layer_factory.hpp:77] Creating layer pool4
I0522 12:08:47.936767 19035 net.cpp:106] Creating Layer pool4
I0522 12:08:47.936777 19035 net.cpp:454] pool4 <- conv4
I0522 12:08:47.936790 19035 net.cpp:411] pool4 -> pool4
I0522 12:08:47.936858 19035 net.cpp:150] Setting up pool4
I0522 12:08:47.936872 19035 net.cpp:157] Top shape: 30 36 3 42 (136080)
I0522 12:08:47.936882 19035 net.cpp:165] Memory required for data: 47254920
I0522 12:08:47.936893 19035 layer_factory.hpp:77] Creating layer ip1
I0522 12:08:47.936914 19035 net.cpp:106] Creating Layer ip1
I0522 12:08:47.936924 19035 net.cpp:454] ip1 <- pool4
I0522 12:08:47.936938 19035 net.cpp:411] ip1 -> ip1
I0522 12:08:47.952368 19035 net.cpp:150] Setting up ip1
I0522 12:08:47.952396 19035 net.cpp:157] Top shape: 30 196 (5880)
I0522 12:08:47.952409 19035 net.cpp:165] Memory required for data: 47278440
I0522 12:08:47.952436 19035 layer_factory.hpp:77] Creating layer relu5
I0522 12:08:47.952451 19035 net.cpp:106] Creating Layer relu5
I0522 12:08:47.952461 19035 net.cpp:454] relu5 <- ip1
I0522 12:08:47.952476 19035 net.cpp:397] relu5 -> ip1 (in-place)
I0522 12:08:47.952817 19035 net.cpp:150] Setting up relu5
I0522 12:08:47.952831 19035 net.cpp:157] Top shape: 30 196 (5880)
I0522 12:08:47.952842 19035 net.cpp:165] Memory required for data: 47301960
I0522 12:08:47.952852 19035 layer_factory.hpp:77] Creating layer drop1
I0522 12:08:47.952877 19035 net.cpp:106] Creating Layer drop1
I0522 12:08:47.952886 19035 net.cpp:454] drop1 <- ip1
I0522 12:08:47.952898 19035 net.cpp:397] drop1 -> ip1 (in-place)
I0522 12:08:47.952956 19035 net.cpp:150] Setting up drop1
I0522 12:08:47.952970 19035 net.cpp:157] Top shape: 30 196 (5880)
I0522 12:08:47.952980 19035 net.cpp:165] Memory required for data: 47325480
I0522 12:08:47.952991 19035 layer_factory.hpp:77] Creating layer ip2
I0522 12:08:47.953008 19035 net.cpp:106] Creating Layer ip2
I0522 12:08:47.953019 19035 net.cpp:454] ip2 <- ip1
I0522 12:08:47.953032 19035 net.cpp:411] ip2 -> ip2
I0522 12:08:47.953493 19035 net.cpp:150] Setting up ip2
I0522 12:08:47.953506 19035 net.cpp:157] Top shape: 30 98 (2940)
I0522 12:08:47.953516 19035 net.cpp:165] Memory required for data: 47337240
I0522 12:08:47.953532 19035 layer_factory.hpp:77] Creating layer relu6
I0522 12:08:47.953546 19035 net.cpp:106] Creating Layer relu6
I0522 12:08:47.953555 19035 net.cpp:454] relu6 <- ip2
I0522 12:08:47.953567 19035 net.cpp:397] relu6 -> ip2 (in-place)
I0522 12:08:47.954082 19035 net.cpp:150] Setting up relu6
I0522 12:08:47.954097 19035 net.cpp:157] Top shape: 30 98 (2940)
I0522 12:08:47.954108 19035 net.cpp:165] Memory required for data: 47349000
I0522 12:08:47.954119 19035 layer_factory.hpp:77] Creating layer drop2
I0522 12:08:47.954133 19035 net.cpp:106] Creating Layer drop2
I0522 12:08:47.954143 19035 net.cpp:454] drop2 <- ip2
I0522 12:08:47.954154 19035 net.cpp:397] drop2 -> ip2 (in-place)
I0522 12:08:47.954197 19035 net.cpp:150] Setting up drop2
I0522 12:08:47.954210 19035 net.cpp:157] Top shape: 30 98 (2940)
I0522 12:08:47.954221 19035 net.cpp:165] Memory required for data: 47360760
I0522 12:08:47.954231 19035 layer_factory.hpp:77] Creating layer ip3
I0522 12:08:47.954244 19035 net.cpp:106] Creating Layer ip3
I0522 12:08:47.954253 19035 net.cpp:454] ip3 <- ip2
I0522 12:08:47.954265 19035 net.cpp:411] ip3 -> ip3
I0522 12:08:47.954475 19035 net.cpp:150] Setting up ip3
I0522 12:08:47.954488 19035 net.cpp:157] Top shape: 30 11 (330)
I0522 12:08:47.954499 19035 net.cpp:165] Memory required for data: 47362080
I0522 12:08:47.954514 19035 layer_factory.hpp:77] Creating layer drop3
I0522 12:08:47.954526 19035 net.cpp:106] Creating Layer drop3
I0522 12:08:47.954535 19035 net.cpp:454] drop3 <- ip3
I0522 12:08:47.954555 19035 net.cpp:397] drop3 -> ip3 (in-place)
I0522 12:08:47.954596 19035 net.cpp:150] Setting up drop3
I0522 12:08:47.954608 19035 net.cpp:157] Top shape: 30 11 (330)
I0522 12:08:47.954618 19035 net.cpp:165] Memory required for data: 47363400
I0522 12:08:47.954627 19035 layer_factory.hpp:77] Creating layer loss
I0522 12:08:47.954646 19035 net.cpp:106] Creating Layer loss
I0522 12:08:47.954656 19035 net.cpp:454] loss <- ip3
I0522 12:08:47.954668 19035 net.cpp:454] loss <- label
I0522 12:08:47.954679 19035 net.cpp:411] loss -> loss
I0522 12:08:47.954696 19035 layer_factory.hpp:77] Creating layer loss
…
I0522 12:08:47.958923 19035 solver.cpp:181] Creating test net (#0) specified by net file: /lustre/atlas/proj-shared/hep105/caffe_titan/caffe_workflow/logs_bslr/bs_30_lr_0.0035_2016-05-20T15.48.59.592053.prototxt
I0522 12:08:47.958998 19035 net.cpp:322] The NetState phase (1) differed from the phase (0) specified by a rule in layer data_hdf5
I0522 12:08:47.959357 19035 net.cpp:49] Initializing net from parameters: 
name: "caffe_test_127x50_x_unshifted"
state {
  phase: TEST
}
layer {
  name: "data_hdf5"
  type: "HDF5Data"
  top: "data"
  top: "label"
  include {
    phase: TEST
  }
  hdf5_data_param {
    source: "/lustre/atlas/proj-shared/hep105/caffe_titan/minosmatch_nukecczdefs_127x50_x_unshifted_me1Bmc.testlist"
    batch_size: 30
  }
}
layer {
  name: "conv1"
  type: "Convolution"
  bottom: "data"
  top: "conv1"
  convolution_param {
    num_output: 12
    pad: 0
    stride: 1
    weight_filler {
      type: "xavier"
    }
    bias_filler {
      type: "constant"
    }
    kernel_h: 8
    kernel_w: 3
  }
}
layer {
  name: "relu1"
  type: "ReLU"
  bottom: "conv1"
  top: "conv1"
}
layer {
  name: "pool1"
  type: "Pooling"
  bottom: "conv1"
  top: "pool1"
  pooling_param {
    pool: MAX
    kernel_h: 2
    kernel_w: 1
    stride_h: 2
    stride_w: 1
  }
}
layer {
  name: "conv2"
  type: "Convolution"
  bottom: "pool1"
  top: "conv2"
  convolution_param {
    num_output: 20
    pad: 0
    stride: 1
    weight_filler {
      type: "xavier"
    }
    bias_filler {
      type: "constant"
    }
    kernel_h: 7
    kernel_w: 3
  }
}
layer {
  name: "relu2"
  type: "ReLU"
  bottom: "conv2"
  top: "conv2"
}
layer {
  name: "pool2"
  type: "Pooling"
  bottom: "conv2"
  top: "pool2"
  pooling_param {
    pool: MAX
    kernel_h: 2
    kernel_w: 1
    stride_h: 2
    stride_w: 1
  }
}
layer {
  name: "conv3"
  type: "Convolution"
  bottom: "pool2"
  top: "conv3"
  convolution_param {
    num_output: 28
    pad: 0
    stride: 1
    weight_filler {
      type: "xavier"
    }
    bias_filler {
      type: "constant"
    }
    kernel_h: 6
    kernel_w: 3
  }
}
layer {
  name: "relu3"
  type: "ReLU"
  bottom: "conv3"
  top: "conv3"
}
layer {
  name: "pool3"
  type: "Pooling"
  bottom: "conv3"
  top: "pool3"
  pooling_param {
    pool: MAX
    kernel_h: 2
    kernel_w: 1
    stride_h: 2
    stride_w: 1
  }
}
layer {
  name: "conv4"
  type: "Convolution"
  bottom: "pool3"
  top: "conv4"
  convolution_param {
    num_output: 36
    pad: 0
    stride: 1
    weight_filler {
      type: "xavier"
    }
    bias_filler {
      type: "constant"
    }
    kernel_h: 6
    kernel_w: 3
  }
}
layer {
  name: "relu4"
  type: "ReLU"
  bottom: "conv4"
  top: "conv4"
}
layer {
  name: "pool4"
  type: "Pooling"
  bottom: "conv4"
  top: "pool4"
  pooling_param {
    pool: MAX
    kernel_h: 2
    kernel_w: 1
    stride_h: 2
    stride_w: 1
  }
}
layer {
  name: "ip1"
  type: "InnerProduct"
  bottom: "pool4"
  top: "ip1"
  inner_product_param {
    num_output: 196
    weight_filler {
      type: "xavier"
    }
    bias_filler {
      type: "constant"
    }
  }
}
layer {
  name: "relu5"
  type: "ReLU"
  bottom: "ip1"
  top: "ip1"
}
layer {
  name: "drop1"
  type: "Dropout"
  bottom: "ip1"
  top: "ip1"
  dropout_param {
    dropout_ratio: 0.5
  }
}
layer {
  name: "ip2"
  type: "InnerProduct"
  bottom: "ip1"
  top: "ip2"
  inner_product_param {
    num_output: 98
    weight_filler {
      type: "xavier"
    }
    bias_filler {
      type: "constant"
    }
  }
}
layer {
  name: "relu6"
  type: "ReLU"
  bottom: "ip2"
  top: "ip2"
}
layer {
  name: "drop2"
  type: "Dropout"
  bottom: "ip2"
  top: "ip2"
  dropout_param {
    dropout_ratio: 0.5
  }
}
layer {
  name: "ip3"
  type: "InnerProduct"
  bottom: "ip2"
  top: "ip3"
  inner_product_param {
    num_output: 11
    weight_filler {
      type: "xavier"
    }
    bias_filler {
      type: "constant"
    }
  }
}
layer {
  name: "drop3"
  type: "Dropout"
  bottom: "ip3"
  top: "ip3"
  dropout_param {
    dropout_ratio: 0.5
  }
}
layer {
  name: "accuracy"
  type: "Accuracy"
  bottom: "ip3"
  bottom: "label"
  top: "accuracy"
  include {
    phase: TEST
  }
}
layer {
  name: "loss"
  type: "SoftmaxWithLoss"
  bottom: "ip3"
  bottom: "label"
  top: "loss"
}
I0522 12:08:47.959548 19035 layer_factory.hpp:77] Creating layer data_hdf5
I0522 12:08:47.959564 19035 net.cpp:106] Creating Layer data_hdf5
I0522 12:08:47.959576 19035 net.cpp:411] data_hdf5 -> data
I0522 12:08:47.959595 19035 net.cpp:411] data_hdf5 -> label
I0522 12:08:47.959611 19035 hdf5_data_layer.cpp:79] Loading list of HDF5 filenames from: /lustre/atlas/proj-shared/hep105/caffe_titan/minosmatch_nukecczdefs_127x50_x_unshifted_me1Bmc.testlist
I0522 12:08:47.963824 19035 hdf5_data_layer.cpp:93] Number of HDF5 files: 3
I0522 12:09:09.280892 19035 net.cpp:150] Setting up data_hdf5
I0522 12:09:09.281059 19035 net.cpp:157] Top shape: 30 1 127 50 (190500)
I0522 12:09:09.281074 19035 net.cpp:157] Top shape: 30 (30)
I0522 12:09:09.281086 19035 net.cpp:165] Memory required for data: 762120
I0522 12:09:09.281100 19035 layer_factory.hpp:77] Creating layer label_data_hdf5_1_split
I0522 12:09:09.281128 19035 net.cpp:106] Creating Layer label_data_hdf5_1_split
I0522 12:09:09.281139 19035 net.cpp:454] label_data_hdf5_1_split <- label
I0522 12:09:09.281154 19035 net.cpp:411] label_data_hdf5_1_split -> label_data_hdf5_1_split_0
I0522 12:09:09.281177 19035 net.cpp:411] label_data_hdf5_1_split -> label_data_hdf5_1_split_1
I0522 12:09:09.281249 19035 net.cpp:150] Setting up label_data_hdf5_1_split
I0522 12:09:09.281262 19035 net.cpp:157] Top shape: 30 (30)
I0522 12:09:09.281275 19035 net.cpp:157] Top shape: 30 (30)
I0522 12:09:09.281285 19035 net.cpp:165] Memory required for data: 762360
I0522 12:09:09.281294 19035 layer_factory.hpp:77] Creating layer conv1
I0522 12:09:09.281316 19035 net.cpp:106] Creating Layer conv1
I0522 12:09:09.281327 19035 net.cpp:454] conv1 <- data
I0522 12:09:09.281340 19035 net.cpp:411] conv1 -> conv1
I0522 12:09:09.283263 19035 net.cpp:150] Setting up conv1
I0522 12:09:09.283288 19035 net.cpp:157] Top shape: 30 12 120 48 (2073600)
I0522 12:09:09.283298 19035 net.cpp:165] Memory required for data: 9056760
I0522 12:09:09.283319 19035 layer_factory.hpp:77] Creating layer relu1
I0522 12:09:09.283334 19035 net.cpp:106] Creating Layer relu1
I0522 12:09:09.283344 19035 net.cpp:454] relu1 <- conv1
I0522 12:09:09.283356 19035 net.cpp:397] relu1 -> conv1 (in-place)
I0522 12:09:09.283857 19035 net.cpp:150] Setting up relu1
I0522 12:09:09.283874 19035 net.cpp:157] Top shape: 30 12 120 48 (2073600)
I0522 12:09:09.283885 19035 net.cpp:165] Memory required for data: 17351160
I0522 12:09:09.283895 19035 layer_factory.hpp:77] Creating layer pool1
I0522 12:09:09.283910 19035 net.cpp:106] Creating Layer pool1
I0522 12:09:09.283921 19035 net.cpp:454] pool1 <- conv1
I0522 12:09:09.283932 19035 net.cpp:411] pool1 -> pool1
I0522 12:09:09.284008 19035 net.cpp:150] Setting up pool1
I0522 12:09:09.284020 19035 net.cpp:157] Top shape: 30 12 60 48 (1036800)
I0522 12:09:09.284030 19035 net.cpp:165] Memory required for data: 21498360
I0522 12:09:09.284039 19035 layer_factory.hpp:77] Creating layer conv2
I0522 12:09:09.284056 19035 net.cpp:106] Creating Layer conv2
I0522 12:09:09.284066 19035 net.cpp:454] conv2 <- pool1
I0522 12:09:09.284081 19035 net.cpp:411] conv2 -> conv2
I0522 12:09:09.285989 19035 net.cpp:150] Setting up conv2
I0522 12:09:09.286010 19035 net.cpp:157] Top shape: 30 20 54 46 (1490400)
I0522 12:09:09.286023 19035 net.cpp:165] Memory required for data: 27459960
I0522 12:09:09.286041 19035 layer_factory.hpp:77] Creating layer relu2
I0522 12:09:09.286054 19035 net.cpp:106] Creating Layer relu2
I0522 12:09:09.286064 19035 net.cpp:454] relu2 <- conv2
I0522 12:09:09.286077 19035 net.cpp:397] relu2 -> conv2 (in-place)
I0522 12:09:09.286408 19035 net.cpp:150] Setting up relu2
I0522 12:09:09.286422 19035 net.cpp:157] Top shape: 30 20 54 46 (1490400)
I0522 12:09:09.286432 19035 net.cpp:165] Memory required for data: 33421560
I0522 12:09:09.286442 19035 layer_factory.hpp:77] Creating layer pool2
I0522 12:09:09.286455 19035 net.cpp:106] Creating Layer pool2
I0522 12:09:09.286465 19035 net.cpp:454] pool2 <- conv2
I0522 12:09:09.286478 19035 net.cpp:411] pool2 -> pool2
I0522 12:09:09.286559 19035 net.cpp:150] Setting up pool2
I0522 12:09:09.286572 19035 net.cpp:157] Top shape: 30 20 27 46 (745200)
I0522 12:09:09.286582 19035 net.cpp:165] Memory required for data: 36402360
I0522 12:09:09.286592 19035 layer_factory.hpp:77] Creating layer conv3
I0522 12:09:09.286612 19035 net.cpp:106] Creating Layer conv3
I0522 12:09:09.286623 19035 net.cpp:454] conv3 <- pool2
I0522 12:09:09.286636 19035 net.cpp:411] conv3 -> conv3
I0522 12:09:09.288610 19035 net.cpp:150] Setting up conv3
I0522 12:09:09.288628 19035 net.cpp:157] Top shape: 30 28 22 44 (813120)
I0522 12:09:09.288638 19035 net.cpp:165] Memory required for data: 39654840
I0522 12:09:09.288672 19035 layer_factory.hpp:77] Creating layer relu3
I0522 12:09:09.288686 19035 net.cpp:106] Creating Layer relu3
I0522 12:09:09.288696 19035 net.cpp:454] relu3 <- conv3
I0522 12:09:09.288708 19035 net.cpp:397] relu3 -> conv3 (in-place)
I0522 12:09:09.289181 19035 net.cpp:150] Setting up relu3
I0522 12:09:09.289197 19035 net.cpp:157] Top shape: 30 28 22 44 (813120)
I0522 12:09:09.289207 19035 net.cpp:165] Memory required for data: 42907320
I0522 12:09:09.289217 19035 layer_factory.hpp:77] Creating layer pool3
I0522 12:09:09.289230 19035 net.cpp:106] Creating Layer pool3
I0522 12:09:09.289240 19035 net.cpp:454] pool3 <- conv3
I0522 12:09:09.289253 19035 net.cpp:411] pool3 -> pool3
I0522 12:09:09.289324 19035 net.cpp:150] Setting up pool3
I0522 12:09:09.289337 19035 net.cpp:157] Top shape: 30 28 11 44 (406560)
I0522 12:09:09.289347 19035 net.cpp:165] Memory required for data: 44533560
I0522 12:09:09.289356 19035 layer_factory.hpp:77] Creating layer conv4
I0522 12:09:09.289373 19035 net.cpp:106] Creating Layer conv4
I0522 12:09:09.289383 19035 net.cpp:454] conv4 <- pool3
I0522 12:09:09.289397 19035 net.cpp:411] conv4 -> conv4
I0522 12:09:09.291456 19035 net.cpp:150] Setting up conv4
I0522 12:09:09.291477 19035 net.cpp:157] Top shape: 30 36 6 42 (272160)
I0522 12:09:09.291491 19035 net.cpp:165] Memory required for data: 45622200
I0522 12:09:09.291507 19035 layer_factory.hpp:77] Creating layer relu4
I0522 12:09:09.291519 19035 net.cpp:106] Creating Layer relu4
I0522 12:09:09.291529 19035 net.cpp:454] relu4 <- conv4
I0522 12:09:09.291543 19035 net.cpp:397] relu4 -> conv4 (in-place)
I0522 12:09:09.292014 19035 net.cpp:150] Setting up relu4
I0522 12:09:09.292031 19035 net.cpp:157] Top shape: 30 36 6 42 (272160)
I0522 12:09:09.292040 19035 net.cpp:165] Memory required for data: 46710840
I0522 12:09:09.292052 19035 layer_factory.hpp:77] Creating layer pool4
I0522 12:09:09.292068 19035 net.cpp:106] Creating Layer pool4
I0522 12:09:09.292080 19035 net.cpp:454] pool4 <- conv4
I0522 12:09:09.292095 19035 net.cpp:411] pool4 -> pool4
I0522 12:09:09.292168 19035 net.cpp:150] Setting up pool4
I0522 12:09:09.292182 19035 net.cpp:157] Top shape: 30 36 3 42 (136080)
I0522 12:09:09.292191 19035 net.cpp:165] Memory required for data: 47255160
I0522 12:09:09.292201 19035 layer_factory.hpp:77] Creating layer ip1
I0522 12:09:09.292217 19035 net.cpp:106] Creating Layer ip1
I0522 12:09:09.292227 19035 net.cpp:454] ip1 <- pool4
I0522 12:09:09.292239 19035 net.cpp:411] ip1 -> ip1
I0522 12:09:09.307763 19035 net.cpp:150] Setting up ip1
I0522 12:09:09.307791 19035 net.cpp:157] Top shape: 30 196 (5880)
I0522 12:09:09.307807 19035 net.cpp:165] Memory required for data: 47278680
I0522 12:09:09.307829 19035 layer_factory.hpp:77] Creating layer relu5
I0522 12:09:09.307845 19035 net.cpp:106] Creating Layer relu5
I0522 12:09:09.307855 19035 net.cpp:454] relu5 <- ip1
I0522 12:09:09.307868 19035 net.cpp:397] relu5 -> ip1 (in-place)
I0522 12:09:09.308217 19035 net.cpp:150] Setting up relu5
I0522 12:09:09.308230 19035 net.cpp:157] Top shape: 30 196 (5880)
I0522 12:09:09.308240 19035 net.cpp:165] Memory required for data: 47302200
I0522 12:09:09.308250 19035 layer_factory.hpp:77] Creating layer drop1
I0522 12:09:09.308270 19035 net.cpp:106] Creating Layer drop1
I0522 12:09:09.308280 19035 net.cpp:454] drop1 <- ip1
I0522 12:09:09.308293 19035 net.cpp:397] drop1 -> ip1 (in-place)
I0522 12:09:09.308339 19035 net.cpp:150] Setting up drop1
I0522 12:09:09.308352 19035 net.cpp:157] Top shape: 30 196 (5880)
I0522 12:09:09.308362 19035 net.cpp:165] Memory required for data: 47325720
I0522 12:09:09.308372 19035 layer_factory.hpp:77] Creating layer ip2
I0522 12:09:09.308387 19035 net.cpp:106] Creating Layer ip2
I0522 12:09:09.308396 19035 net.cpp:454] ip2 <- ip1
I0522 12:09:09.308410 19035 net.cpp:411] ip2 -> ip2
I0522 12:09:09.308889 19035 net.cpp:150] Setting up ip2
I0522 12:09:09.308902 19035 net.cpp:157] Top shape: 30 98 (2940)
I0522 12:09:09.308913 19035 net.cpp:165] Memory required for data: 47337480
I0522 12:09:09.308928 19035 layer_factory.hpp:77] Creating layer relu6
I0522 12:09:09.308954 19035 net.cpp:106] Creating Layer relu6
I0522 12:09:09.308964 19035 net.cpp:454] relu6 <- ip2
I0522 12:09:09.308977 19035 net.cpp:397] relu6 -> ip2 (in-place)
I0522 12:09:09.309510 19035 net.cpp:150] Setting up relu6
I0522 12:09:09.309526 19035 net.cpp:157] Top shape: 30 98 (2940)
I0522 12:09:09.309535 19035 net.cpp:165] Memory required for data: 47349240
I0522 12:09:09.309546 19035 layer_factory.hpp:77] Creating layer drop2
I0522 12:09:09.309559 19035 net.cpp:106] Creating Layer drop2
I0522 12:09:09.309571 19035 net.cpp:454] drop2 <- ip2
I0522 12:09:09.309583 19035 net.cpp:397] drop2 -> ip2 (in-place)
I0522 12:09:09.309628 19035 net.cpp:150] Setting up drop2
I0522 12:09:09.309640 19035 net.cpp:157] Top shape: 30 98 (2940)
I0522 12:09:09.309650 19035 net.cpp:165] Memory required for data: 47361000
I0522 12:09:09.309660 19035 layer_factory.hpp:77] Creating layer ip3
I0522 12:09:09.309674 19035 net.cpp:106] Creating Layer ip3
I0522 12:09:09.309684 19035 net.cpp:454] ip3 <- ip2
I0522 12:09:09.309698 19035 net.cpp:411] ip3 -> ip3
I0522 12:09:09.309921 19035 net.cpp:150] Setting up ip3
I0522 12:09:09.309933 19035 net.cpp:157] Top shape: 30 11 (330)
I0522 12:09:09.309943 19035 net.cpp:165] Memory required for data: 47362320
I0522 12:09:09.309958 19035 layer_factory.hpp:77] Creating layer drop3
I0522 12:09:09.309972 19035 net.cpp:106] Creating Layer drop3
I0522 12:09:09.309980 19035 net.cpp:454] drop3 <- ip3
I0522 12:09:09.309993 19035 net.cpp:397] drop3 -> ip3 (in-place)
I0522 12:09:09.310034 19035 net.cpp:150] Setting up drop3
I0522 12:09:09.310047 19035 net.cpp:157] Top shape: 30 11 (330)
I0522 12:09:09.310056 19035 net.cpp:165] Memory required for data: 47363640
I0522 12:09:09.310066 19035 layer_factory.hpp:77] Creating layer ip3_drop3_0_split
I0522 12:09:09.310080 19035 net.cpp:106] Creating Layer ip3_drop3_0_split
I0522 12:09:09.310088 19035 net.cpp:454] ip3_drop3_0_split <- ip3
I0522 12:09:09.310101 19035 net.cpp:411] ip3_drop3_0_split -> ip3_drop3_0_split_0
I0522 12:09:09.310117 19035 net.cpp:411] ip3_drop3_0_split -> ip3_drop3_0_split_1
I0522 12:09:09.310190 19035 net.cpp:150] Setting up ip3_drop3_0_split
I0522 12:09:09.310204 19035 net.cpp:157] Top shape: 30 11 (330)
I0522 12:09:09.310216 19035 net.cpp:157] Top shape: 30 11 (330)
I0522 12:09:09.310226 19035 net.cpp:165] Memory required for data: 47366280
I0522 12:09:09.310235 19035 layer_factory.hpp:77] Creating layer accuracy
I0522 12:09:09.310256 19035 net.cpp:106] Creating Layer accuracy
I0522 12:09:09.310266 19035 net.cpp:454] accuracy <- ip3_drop3_0_split_0
I0522 12:09:09.310277 19035 net.cpp:454] accuracy <- label_data_hdf5_1_split_0
I0522 12:09:09.310292 19035 net.cpp:411] accuracy -> accuracy
…
