…
I0526 23:42:13.713757 31871 net.cpp:322] The NetState phase (0) differed from the phase (1) specified by a rule in layer data_hdf5
I0526 23:42:13.713819 31871 net.cpp:322] The NetState phase (0) differed from the phase (1) specified by a rule in layer accuracy
I0526 23:42:13.714198 31871 net.cpp:49] Initializing net from parameters: 
name: "caffe_test_127x50_x_unshifted"
state {
  phase: TRAIN
}
layer {
  name: "data_hdf5"
  type: "HDF5Data"
  top: "data"
  top: "label"
  include {
    phase: TRAIN
  }
  hdf5_data_param {
    source: "/lustre/atlas/proj-shared/hep105/caffe_titan/minosmatch_nukecczdefs_127x50_x_unshifted_me1Bmc.trainlist"
    batch_size: 30
  }
}
layer {
  name: "conv1"
  type: "Convolution"
  bottom: "data"
  top: "conv1"
  convolution_param {
    num_output: 12
    pad: 0
    stride: 1
    weight_filler {
      type: "xavier"
    }
    bias_filler {
      type: "constant"
    }
    kernel_h: 8
    kernel_w: 3
  }
}
layer {
  name: "relu1"
  type: "ReLU"
  bottom: "conv1"
  top: "conv1"
}
layer {
  name: "pool1"
  type: "Pooling"
  bottom: "conv1"
  top: "pool1"
  pooling_param {
    pool: MAX
    kernel_h: 2
    kernel_w: 1
    stride_h: 2
    stride_w: 1
  }
}
layer {
  name: "conv2"
  type: "Convolution"
  bottom: "pool1"
  top: "conv2"
  convolution_param {
    num_output: 20
    pad: 0
    stride: 1
    weight_filler {
      type: "xavier"
    }
    bias_filler {
      type: "constant"
    }
    kernel_h: 7
    kernel_w: 3
  }
}
layer {
  name: "relu2"
  type: "ReLU"
  bottom: "conv2"
  top: "conv2"
}
layer {
  name: "pool2"
  type: "Pooling"
  bottom: "conv2"
  top: "pool2"
  pooling_param {
    pool: MAX
    kernel_h: 2
    kernel_w: 1
    stride_h: 2
    stride_w: 1
  }
}
layer {
  name: "conv3"
  type: "Convolution"
  bottom: "pool2"
  top: "conv3"
  convolution_param {
    num_output: 28
    pad: 0
    stride: 1
    weight_filler {
      type: "xavier"
    }
    bias_filler {
      type: "constant"
    }
    kernel_h: 6
    kernel_w: 3
  }
}
layer {
  name: "relu3"
  type: "ReLU"
  bottom: "conv3"
  top: "conv3"
}
layer {
  name: "pool3"
  type: "Pooling"
  bottom: "conv3"
  top: "pool3"
  pooling_param {
    pool: MAX
    kernel_h: 2
    kernel_w: 1
    stride_h: 2
    stride_w: 1
  }
}
layer {
  name: "conv4"
  type: "Convolution"
  bottom: "pool3"
  top: "conv4"
  convolution_param {
    num_output: 36
    pad: 0
    stride: 1
    weight_filler {
      type: "xavier"
    }
    bias_filler {
      type: "constant"
    }
    kernel_h: 6
    kernel_w: 3
  }
}
layer {
  name: "relu4"
  type: "ReLU"
  bottom: "conv4"
  top: "conv4"
}
layer {
  name: "pool4"
  type: "Pooling"
  bottom: "conv4"
  top: "pool4"
  pooling_param {
    pool: MAX
    kernel_h: 2
    kernel_w: 1
    stride_h: 2
    stride_w: 1
  }
}
layer {
  name: "ip1"
  type: "InnerProduct"
  bottom: "pool4"
  top: "ip1"
  inner_product_param {
    num_output: 196
    weight_filler {
      type: "xavier"
    }
    bias_filler {
      type: "constant"
    }
  }
}
layer {
  name: "relu5"
  type: "ReLU"
  bottom: "ip1"
  top: "ip1"
}
layer {
  name: "drop1"
  type: "Dropout"
  bottom: "ip1"
  top: "ip1"
  dropout_param {
    dropout_ratio: 0.5
  }
}
layer {
  name: "ip2"
  type: "InnerProduct"
  bottom: "ip1"
  top: "ip2"
  inner_product_param {
    num_output: 98
    weight_filler {
      type: "xavier"
    }
    bias_filler {
      type: "constant"
    }
  }
}
layer {
  name: "relu6"
  type: "ReLU"
  bottom: "ip2"
  top: "ip2"
}
layer {
  name: "drop2"
  type: "Dropout"
  bottom: "ip2"
  top: "ip2"
  dropout_param {
    dropout_ratio: 0.5
  }
}
layer {
  name: "ip3"
  type: "InnerProduct"
  bottom: "ip2"
  top: "ip3"
  inner_product_param {
    num_output: 11
    weight_filler {
      type: "xavier"
    }
    bias_filler {
      type: "constant"
    }
  }
}
layer {
  name: "drop3"
  type: "Dropout"
  bottom: "ip3"
  top: "ip3"
  dropout_param {
    dropout_ratio: 0.5
  }
}
layer {
  name: "loss"
  type: "SoftmaxWithLoss"
  bottom: "ip3"
  bottom: "label"
  top: "loss"
}
I0526 23:42:13.714402 31871 layer_factory.hpp:77] Creating layer data_hdf5
I0526 23:42:13.714438 31871 net.cpp:106] Creating Layer data_hdf5
I0526 23:42:13.714457 31871 net.cpp:411] data_hdf5 -> data
I0526 23:42:13.714498 31871 net.cpp:411] data_hdf5 -> label
I0526 23:42:13.714541 31871 hdf5_data_layer.cpp:79] Loading list of HDF5 filenames from: /lustre/atlas/proj-shared/hep105/caffe_titan/minosmatch_nukecczdefs_127x50_x_unshifted_me1Bmc.trainlist
I0526 23:42:13.715996 31871 hdf5_data_layer.cpp:93] Number of HDF5 files: 15
I0526 23:42:13.718348 31871 hdf5.cpp:32] Datatype class: H5T_FLOAT
I0526 23:42:35.275070 31871 hdf5.cpp:35] Datatype class: H5T_INTEGER
I0526 23:42:35.280269 31871 net.cpp:150] Setting up data_hdf5
I0526 23:42:35.280315 31871 net.cpp:157] Top shape: 30 1 127 50 (190500)
I0526 23:42:35.280333 31871 net.cpp:157] Top shape: 30 (30)
I0526 23:42:35.280345 31871 net.cpp:165] Memory required for data: 762120
I0526 23:42:35.280364 31871 layer_factory.hpp:77] Creating layer conv1
I0526 23:42:35.280411 31871 net.cpp:106] Creating Layer conv1
I0526 23:42:35.280424 31871 net.cpp:454] conv1 <- data
I0526 23:42:35.280449 31871 net.cpp:411] conv1 -> conv1
I0526 23:42:35.647235 31871 net.cpp:150] Setting up conv1
I0526 23:42:35.647289 31871 net.cpp:157] Top shape: 30 12 120 48 (2073600)
I0526 23:42:35.647312 31871 net.cpp:165] Memory required for data: 9056520
I0526 23:42:35.647343 31871 layer_factory.hpp:77] Creating layer relu1
I0526 23:42:35.647366 31871 net.cpp:106] Creating Layer relu1
I0526 23:42:35.647392 31871 net.cpp:454] relu1 <- conv1
I0526 23:42:35.647428 31871 net.cpp:397] relu1 -> conv1 (in-place)
I0526 23:42:35.647963 31871 net.cpp:150] Setting up relu1
I0526 23:42:35.647986 31871 net.cpp:157] Top shape: 30 12 120 48 (2073600)
I0526 23:42:35.648000 31871 net.cpp:165] Memory required for data: 17350920
I0526 23:42:35.648015 31871 layer_factory.hpp:77] Creating layer pool1
I0526 23:42:35.648035 31871 net.cpp:106] Creating Layer pool1
I0526 23:42:35.648056 31871 net.cpp:454] pool1 <- conv1
I0526 23:42:35.648072 31871 net.cpp:411] pool1 -> pool1
I0526 23:42:35.648165 31871 net.cpp:150] Setting up pool1
I0526 23:42:35.648183 31871 net.cpp:157] Top shape: 30 12 60 48 (1036800)
I0526 23:42:35.648198 31871 net.cpp:165] Memory required for data: 21498120
I0526 23:42:35.648211 31871 layer_factory.hpp:77] Creating layer conv2
I0526 23:42:35.648241 31871 net.cpp:106] Creating Layer conv2
I0526 23:42:35.648255 31871 net.cpp:454] conv2 <- pool1
I0526 23:42:35.648272 31871 net.cpp:411] conv2 -> conv2
I0526 23:42:35.650965 31871 net.cpp:150] Setting up conv2
I0526 23:42:35.650996 31871 net.cpp:157] Top shape: 30 20 54 46 (1490400)
I0526 23:42:35.651012 31871 net.cpp:165] Memory required for data: 27459720
I0526 23:42:35.651041 31871 layer_factory.hpp:77] Creating layer relu2
I0526 23:42:35.651057 31871 net.cpp:106] Creating Layer relu2
I0526 23:42:35.651072 31871 net.cpp:454] relu2 <- conv2
I0526 23:42:35.651098 31871 net.cpp:397] relu2 -> conv2 (in-place)
I0526 23:42:35.651460 31871 net.cpp:150] Setting up relu2
I0526 23:42:35.651480 31871 net.cpp:157] Top shape: 30 20 54 46 (1490400)
I0526 23:42:35.651494 31871 net.cpp:165] Memory required for data: 33421320
I0526 23:42:35.651506 31871 layer_factory.hpp:77] Creating layer pool2
I0526 23:42:35.651525 31871 net.cpp:106] Creating Layer pool2
I0526 23:42:35.651538 31871 net.cpp:454] pool2 <- conv2
I0526 23:42:35.651561 31871 net.cpp:411] pool2 -> pool2
I0526 23:42:35.651648 31871 net.cpp:150] Setting up pool2
I0526 23:42:35.651679 31871 net.cpp:157] Top shape: 30 20 27 46 (745200)
I0526 23:42:35.651692 31871 net.cpp:165] Memory required for data: 36402120
I0526 23:42:35.651707 31871 layer_factory.hpp:77] Creating layer conv3
I0526 23:42:35.651727 31871 net.cpp:106] Creating Layer conv3
I0526 23:42:35.651741 31871 net.cpp:454] conv3 <- pool2
I0526 23:42:35.651764 31871 net.cpp:411] conv3 -> conv3
I0526 23:42:35.653751 31871 net.cpp:150] Setting up conv3
I0526 23:42:35.653777 31871 net.cpp:157] Top shape: 30 28 22 44 (813120)
I0526 23:42:35.653797 31871 net.cpp:165] Memory required for data: 39654600
I0526 23:42:35.653820 31871 layer_factory.hpp:77] Creating layer relu3
I0526 23:42:35.653842 31871 net.cpp:106] Creating Layer relu3
I0526 23:42:35.653854 31871 net.cpp:454] relu3 <- conv3
I0526 23:42:35.653872 31871 net.cpp:397] relu3 -> conv3 (in-place)
I0526 23:42:35.654371 31871 net.cpp:150] Setting up relu3
I0526 23:42:35.654394 31871 net.cpp:157] Top shape: 30 28 22 44 (813120)
I0526 23:42:35.654407 31871 net.cpp:165] Memory required for data: 42907080
I0526 23:42:35.654420 31871 layer_factory.hpp:77] Creating layer pool3
I0526 23:42:35.654439 31871 net.cpp:106] Creating Layer pool3
I0526 23:42:35.654453 31871 net.cpp:454] pool3 <- conv3
I0526 23:42:35.654477 31871 net.cpp:411] pool3 -> pool3
I0526 23:42:35.654553 31871 net.cpp:150] Setting up pool3
I0526 23:42:35.654583 31871 net.cpp:157] Top shape: 30 28 11 44 (406560)
I0526 23:42:35.654597 31871 net.cpp:165] Memory required for data: 44533320
I0526 23:42:35.654608 31871 layer_factory.hpp:77] Creating layer conv4
I0526 23:42:35.654630 31871 net.cpp:106] Creating Layer conv4
I0526 23:42:35.654649 31871 net.cpp:454] conv4 <- pool3
I0526 23:42:35.654666 31871 net.cpp:411] conv4 -> conv4
I0526 23:42:35.657418 31871 net.cpp:150] Setting up conv4
I0526 23:42:35.657449 31871 net.cpp:157] Top shape: 30 36 6 42 (272160)
I0526 23:42:35.657464 31871 net.cpp:165] Memory required for data: 45621960
I0526 23:42:35.657485 31871 layer_factory.hpp:77] Creating layer relu4
I0526 23:42:35.657505 31871 net.cpp:106] Creating Layer relu4
I0526 23:42:35.657529 31871 net.cpp:454] relu4 <- conv4
I0526 23:42:35.657546 31871 net.cpp:397] relu4 -> conv4 (in-place)
I0526 23:42:35.658040 31871 net.cpp:150] Setting up relu4
I0526 23:42:35.658062 31871 net.cpp:157] Top shape: 30 36 6 42 (272160)
I0526 23:42:35.658077 31871 net.cpp:165] Memory required for data: 46710600
I0526 23:42:35.658092 31871 layer_factory.hpp:77] Creating layer pool4
I0526 23:42:35.658108 31871 net.cpp:106] Creating Layer pool4
I0526 23:42:35.658121 31871 net.cpp:454] pool4 <- conv4
I0526 23:42:35.658146 31871 net.cpp:411] pool4 -> pool4
I0526 23:42:35.658228 31871 net.cpp:150] Setting up pool4
I0526 23:42:35.658252 31871 net.cpp:157] Top shape: 30 36 3 42 (136080)
I0526 23:42:35.658264 31871 net.cpp:165] Memory required for data: 47254920
I0526 23:42:35.658279 31871 layer_factory.hpp:77] Creating layer ip1
I0526 23:42:35.658300 31871 net.cpp:106] Creating Layer ip1
I0526 23:42:35.658320 31871 net.cpp:454] ip1 <- pool4
I0526 23:42:35.658337 31871 net.cpp:411] ip1 -> ip1
I0526 23:42:35.673755 31871 net.cpp:150] Setting up ip1
I0526 23:42:35.673789 31871 net.cpp:157] Top shape: 30 196 (5880)
I0526 23:42:35.673810 31871 net.cpp:165] Memory required for data: 47278440
I0526 23:42:35.673836 31871 layer_factory.hpp:77] Creating layer relu5
I0526 23:42:35.673858 31871 net.cpp:106] Creating Layer relu5
I0526 23:42:35.673882 31871 net.cpp:454] relu5 <- ip1
I0526 23:42:35.673900 31871 net.cpp:397] relu5 -> ip1 (in-place)
I0526 23:42:35.674255 31871 net.cpp:150] Setting up relu5
I0526 23:42:35.674275 31871 net.cpp:157] Top shape: 30 196 (5880)
I0526 23:42:35.674289 31871 net.cpp:165] Memory required for data: 47301960
I0526 23:42:35.674304 31871 layer_factory.hpp:77] Creating layer drop1
I0526 23:42:35.674335 31871 net.cpp:106] Creating Layer drop1
I0526 23:42:35.674350 31871 net.cpp:454] drop1 <- ip1
I0526 23:42:35.674372 31871 net.cpp:397] drop1 -> ip1 (in-place)
I0526 23:42:35.674445 31871 net.cpp:150] Setting up drop1
I0526 23:42:35.674463 31871 net.cpp:157] Top shape: 30 196 (5880)
I0526 23:42:35.674475 31871 net.cpp:165] Memory required for data: 47325480
I0526 23:42:35.674491 31871 layer_factory.hpp:77] Creating layer ip2
I0526 23:42:35.674512 31871 net.cpp:106] Creating Layer ip2
I0526 23:42:35.674531 31871 net.cpp:454] ip2 <- ip1
I0526 23:42:35.674547 31871 net.cpp:411] ip2 -> ip2
I0526 23:42:35.675032 31871 net.cpp:150] Setting up ip2
I0526 23:42:35.675052 31871 net.cpp:157] Top shape: 30 98 (2940)
I0526 23:42:35.675065 31871 net.cpp:165] Memory required for data: 47337240
I0526 23:42:35.675086 31871 layer_factory.hpp:77] Creating layer relu6
I0526 23:42:35.675107 31871 net.cpp:106] Creating Layer relu6
I0526 23:42:35.675119 31871 net.cpp:454] relu6 <- ip2
I0526 23:42:35.675135 31871 net.cpp:397] relu6 -> ip2 (in-place)
I0526 23:42:35.675690 31871 net.cpp:150] Setting up relu6
I0526 23:42:35.675714 31871 net.cpp:157] Top shape: 30 98 (2940)
I0526 23:42:35.675729 31871 net.cpp:165] Memory required for data: 47349000
I0526 23:42:35.675745 31871 layer_factory.hpp:77] Creating layer drop2
I0526 23:42:35.675760 31871 net.cpp:106] Creating Layer drop2
I0526 23:42:35.675775 31871 net.cpp:454] drop2 <- ip2
I0526 23:42:35.675797 31871 net.cpp:397] drop2 -> ip2 (in-place)
I0526 23:42:35.675848 31871 net.cpp:150] Setting up drop2
I0526 23:42:35.675865 31871 net.cpp:157] Top shape: 30 98 (2940)
I0526 23:42:35.675879 31871 net.cpp:165] Memory required for data: 47360760
I0526 23:42:35.675899 31871 layer_factory.hpp:77] Creating layer ip3
I0526 23:42:35.675915 31871 net.cpp:106] Creating Layer ip3
I0526 23:42:35.675930 31871 net.cpp:454] ip3 <- ip2
I0526 23:42:35.675945 31871 net.cpp:411] ip3 -> ip3
I0526 23:42:35.676179 31871 net.cpp:150] Setting up ip3
I0526 23:42:35.676198 31871 net.cpp:157] Top shape: 30 11 (330)
I0526 23:42:35.676211 31871 net.cpp:165] Memory required for data: 47362080
I0526 23:42:35.676231 31871 layer_factory.hpp:77] Creating layer drop3
I0526 23:42:35.676254 31871 net.cpp:106] Creating Layer drop3
I0526 23:42:35.676267 31871 net.cpp:454] drop3 <- ip3
I0526 23:42:35.676282 31871 net.cpp:397] drop3 -> ip3 (in-place)
I0526 23:42:35.676331 31871 net.cpp:150] Setting up drop3
I0526 23:42:35.676352 31871 net.cpp:157] Top shape: 30 11 (330)
I0526 23:42:35.676364 31871 net.cpp:165] Memory required for data: 47363400
I0526 23:42:35.676383 31871 layer_factory.hpp:77] Creating layer loss
I0526 23:42:35.676405 31871 net.cpp:106] Creating Layer loss
I0526 23:42:35.676420 31871 net.cpp:454] loss <- ip3
I0526 23:42:35.676434 31871 net.cpp:454] loss <- label
I0526 23:42:35.676456 31871 net.cpp:411] loss -> loss
I0526 23:42:35.676476 31871 layer_factory.hpp:77] Creating layer loss
…
I0526 23:42:35.679355 31871 solver.cpp:181] Creating test net (#0) specified by net file: /lustre/atlas/proj-shared/hep105/caffe_titan/caffe_workflow/logs_bslr/bs_30_lr_0.0020_2016-05-20T15.48.58.488214.prototxt
I0526 23:42:35.679445 31871 net.cpp:322] The NetState phase (1) differed from the phase (0) specified by a rule in layer data_hdf5
I0526 23:42:35.679826 31871 net.cpp:49] Initializing net from parameters: 
name: "caffe_test_127x50_x_unshifted"
state {
  phase: TEST
}
layer {
  name: "data_hdf5"
  type: "HDF5Data"
  top: "data"
  top: "label"
  include {
    phase: TEST
  }
  hdf5_data_param {
    source: "/lustre/atlas/proj-shared/hep105/caffe_titan/minosmatch_nukecczdefs_127x50_x_unshifted_me1Bmc.testlist"
    batch_size: 30
  }
}
layer {
  name: "conv1"
  type: "Convolution"
  bottom: "data"
  top: "conv1"
  convolution_param {
    num_output: 12
    pad: 0
    stride: 1
    weight_filler {
      type: "xavier"
    }
    bias_filler {
      type: "constant"
    }
    kernel_h: 8
    kernel_w: 3
  }
}
layer {
  name: "relu1"
  type: "ReLU"
  bottom: "conv1"
  top: "conv1"
}
layer {
  name: "pool1"
  type: "Pooling"
  bottom: "conv1"
  top: "pool1"
  pooling_param {
    pool: MAX
    kernel_h: 2
    kernel_w: 1
    stride_h: 2
    stride_w: 1
  }
}
layer {
  name: "conv2"
  type: "Convolution"
  bottom: "pool1"
  top: "conv2"
  convolution_param {
    num_output: 20
    pad: 0
    stride: 1
    weight_filler {
      type: "xavier"
    }
    bias_filler {
      type: "constant"
    }
    kernel_h: 7
    kernel_w: 3
  }
}
layer {
  name: "relu2"
  type: "ReLU"
  bottom: "conv2"
  top: "conv2"
}
layer {
  name: "pool2"
  type: "Pooling"
  bottom: "conv2"
  top: "pool2"
  pooling_param {
    pool: MAX
    kernel_h: 2
    kernel_w: 1
    stride_h: 2
    stride_w: 1
  }
}
layer {
  name: "conv3"
  type: "Convolution"
  bottom: "pool2"
  top: "conv3"
  convolution_param {
    num_output: 28
    pad: 0
    stride: 1
    weight_filler {
      type: "xavier"
    }
    bias_filler {
      type: "constant"
    }
    kernel_h: 6
    kernel_w: 3
  }
}
layer {
  name: "relu3"
  type: "ReLU"
  bottom: "conv3"
  top: "conv3"
}
layer {
  name: "pool3"
  type: "Pooling"
  bottom: "conv3"
  top: "pool3"
  pooling_param {
    pool: MAX
    kernel_h: 2
    kernel_w: 1
    stride_h: 2
    stride_w: 1
  }
}
layer {
  name: "conv4"
  type: "Convolution"
  bottom: "pool3"
  top: "conv4"
  convolution_param {
    num_output: 36
    pad: 0
    stride: 1
    weight_filler {
      type: "xavier"
    }
    bias_filler {
      type: "constant"
    }
    kernel_h: 6
    kernel_w: 3
  }
}
layer {
  name: "relu4"
  type: "ReLU"
  bottom: "conv4"
  top: "conv4"
}
layer {
  name: "pool4"
  type: "Pooling"
  bottom: "conv4"
  top: "pool4"
  pooling_param {
    pool: MAX
    kernel_h: 2
    kernel_w: 1
    stride_h: 2
    stride_w: 1
  }
}
layer {
  name: "ip1"
  type: "InnerProduct"
  bottom: "pool4"
  top: "ip1"
  inner_product_param {
    num_output: 196
    weight_filler {
      type: "xavier"
    }
    bias_filler {
      type: "constant"
    }
  }
}
layer {
  name: "relu5"
  type: "ReLU"
  bottom: "ip1"
  top: "ip1"
}
layer {
  name: "drop1"
  type: "Dropout"
  bottom: "ip1"
  top: "ip1"
  dropout_param {
    dropout_ratio: 0.5
  }
}
layer {
  name: "ip2"
  type: "InnerProduct"
  bottom: "ip1"
  top: "ip2"
  inner_product_param {
    num_output: 98
    weight_filler {
      type: "xavier"
    }
    bias_filler {
      type: "constant"
    }
  }
}
layer {
  name: "relu6"
  type: "ReLU"
  bottom: "ip2"
  top: "ip2"
}
layer {
  name: "drop2"
  type: "Dropout"
  bottom: "ip2"
  top: "ip2"
  dropout_param {
    dropout_ratio: 0.5
  }
}
layer {
  name: "ip3"
  type: "InnerProduct"
  bottom: "ip2"
  top: "ip3"
  inner_product_param {
    num_output: 11
    weight_filler {
      type: "xavier"
    }
    bias_filler {
      type: "constant"
    }
  }
}
layer {
  name: "drop3"
  type: "Dropout"
  bottom: "ip3"
  top: "ip3"
  dropout_param {
    dropout_ratio: 0.5
  }
}
layer {
  name: "accuracy"
  type: "Accuracy"
  bottom: "ip3"
  bottom: "label"
  top: "accuracy"
  include {
    phase: TEST
  }
}
layer {
  name: "loss"
  type: "SoftmaxWithLoss"
  bottom: "ip3"
  bottom: "label"
  top: "loss"
}
I0526 23:42:35.680049 31871 layer_factory.hpp:77] Creating layer data_hdf5
I0526 23:42:35.680069 31871 net.cpp:106] Creating Layer data_hdf5
I0526 23:42:35.680086 31871 net.cpp:411] data_hdf5 -> data
I0526 23:42:35.680109 31871 net.cpp:411] data_hdf5 -> label
I0526 23:42:35.680127 31871 hdf5_data_layer.cpp:79] Loading list of HDF5 filenames from: /lustre/atlas/proj-shared/hep105/caffe_titan/minosmatch_nukecczdefs_127x50_x_unshifted_me1Bmc.testlist
I0526 23:42:35.681752 31871 hdf5_data_layer.cpp:93] Number of HDF5 files: 3
I0526 23:42:57.012248 31871 net.cpp:150] Setting up data_hdf5
I0526 23:42:57.012428 31871 net.cpp:157] Top shape: 30 1 127 50 (190500)
I0526 23:42:57.012447 31871 net.cpp:157] Top shape: 30 (30)
I0526 23:42:57.012459 31871 net.cpp:165] Memory required for data: 762120
I0526 23:42:57.012475 31871 layer_factory.hpp:77] Creating layer label_data_hdf5_1_split
I0526 23:42:57.012503 31871 net.cpp:106] Creating Layer label_data_hdf5_1_split
I0526 23:42:57.012522 31871 net.cpp:454] label_data_hdf5_1_split <- label
I0526 23:42:57.012558 31871 net.cpp:411] label_data_hdf5_1_split -> label_data_hdf5_1_split_0
I0526 23:42:57.012583 31871 net.cpp:411] label_data_hdf5_1_split -> label_data_hdf5_1_split_1
I0526 23:42:57.012661 31871 net.cpp:150] Setting up label_data_hdf5_1_split
I0526 23:42:57.012686 31871 net.cpp:157] Top shape: 30 (30)
I0526 23:42:57.012701 31871 net.cpp:157] Top shape: 30 (30)
I0526 23:42:57.012724 31871 net.cpp:165] Memory required for data: 762360
I0526 23:42:57.012737 31871 layer_factory.hpp:77] Creating layer conv1
I0526 23:42:57.012763 31871 net.cpp:106] Creating Layer conv1
I0526 23:42:57.012781 31871 net.cpp:454] conv1 <- data
I0526 23:42:57.012799 31871 net.cpp:411] conv1 -> conv1
I0526 23:42:57.014755 31871 net.cpp:150] Setting up conv1
I0526 23:42:57.014780 31871 net.cpp:157] Top shape: 30 12 120 48 (2073600)
I0526 23:42:57.014799 31871 net.cpp:165] Memory required for data: 9056760
I0526 23:42:57.014823 31871 layer_factory.hpp:77] Creating layer relu1
I0526 23:42:57.014845 31871 net.cpp:106] Creating Layer relu1
I0526 23:42:57.014868 31871 net.cpp:454] relu1 <- conv1
I0526 23:42:57.014884 31871 net.cpp:397] relu1 -> conv1 (in-place)
I0526 23:42:57.015411 31871 net.cpp:150] Setting up relu1
I0526 23:42:57.015435 31871 net.cpp:157] Top shape: 30 12 120 48 (2073600)
I0526 23:42:57.015450 31871 net.cpp:165] Memory required for data: 17351160
I0526 23:42:57.015461 31871 layer_factory.hpp:77] Creating layer pool1
I0526 23:42:57.015491 31871 net.cpp:106] Creating Layer pool1
I0526 23:42:57.015506 31871 net.cpp:454] pool1 <- conv1
I0526 23:42:57.015522 31871 net.cpp:411] pool1 -> pool1
I0526 23:42:57.015619 31871 net.cpp:150] Setting up pool1
I0526 23:42:57.015637 31871 net.cpp:157] Top shape: 30 12 60 48 (1036800)
I0526 23:42:57.015651 31871 net.cpp:165] Memory required for data: 21498360
I0526 23:42:57.015664 31871 layer_factory.hpp:77] Creating layer conv2
I0526 23:42:57.015693 31871 net.cpp:106] Creating Layer conv2
I0526 23:42:57.015707 31871 net.cpp:454] conv2 <- pool1
I0526 23:42:57.015724 31871 net.cpp:411] conv2 -> conv2
I0526 23:42:57.017669 31871 net.cpp:150] Setting up conv2
I0526 23:42:57.017693 31871 net.cpp:157] Top shape: 30 20 54 46 (1490400)
I0526 23:42:57.017714 31871 net.cpp:165] Memory required for data: 27459960
I0526 23:42:57.017735 31871 layer_factory.hpp:77] Creating layer relu2
I0526 23:42:57.017755 31871 net.cpp:106] Creating Layer relu2
I0526 23:42:57.017776 31871 net.cpp:454] relu2 <- conv2
I0526 23:42:57.017792 31871 net.cpp:397] relu2 -> conv2 (in-place)
I0526 23:42:57.018141 31871 net.cpp:150] Setting up relu2
I0526 23:42:57.018162 31871 net.cpp:157] Top shape: 30 20 54 46 (1490400)
I0526 23:42:57.018174 31871 net.cpp:165] Memory required for data: 33421560
I0526 23:42:57.018189 31871 layer_factory.hpp:77] Creating layer pool2
I0526 23:42:57.018205 31871 net.cpp:106] Creating Layer pool2
I0526 23:42:57.018225 31871 net.cpp:454] pool2 <- conv2
I0526 23:42:57.018241 31871 net.cpp:411] pool2 -> pool2
I0526 23:42:57.018328 31871 net.cpp:150] Setting up pool2
I0526 23:42:57.018352 31871 net.cpp:157] Top shape: 30 20 27 46 (745200)
I0526 23:42:57.018363 31871 net.cpp:165] Memory required for data: 36402360
I0526 23:42:57.018378 31871 layer_factory.hpp:77] Creating layer conv3
I0526 23:42:57.018406 31871 net.cpp:106] Creating Layer conv3
I0526 23:42:57.018421 31871 net.cpp:454] conv3 <- pool2
I0526 23:42:57.018437 31871 net.cpp:411] conv3 -> conv3
I0526 23:42:57.020478 31871 net.cpp:150] Setting up conv3
I0526 23:42:57.020503 31871 net.cpp:157] Top shape: 30 28 22 44 (813120)
I0526 23:42:57.020524 31871 net.cpp:165] Memory required for data: 39654840
I0526 23:42:57.020562 31871 layer_factory.hpp:77] Creating layer relu3
I0526 23:42:57.020588 31871 net.cpp:106] Creating Layer relu3
I0526 23:42:57.020601 31871 net.cpp:454] relu3 <- conv3
I0526 23:42:57.020617 31871 net.cpp:397] relu3 -> conv3 (in-place)
I0526 23:42:57.021113 31871 net.cpp:150] Setting up relu3
I0526 23:42:57.021136 31871 net.cpp:157] Top shape: 30 28 22 44 (813120)
I0526 23:42:57.021149 31871 net.cpp:165] Memory required for data: 42907320
I0526 23:42:57.021167 31871 layer_factory.hpp:77] Creating layer pool3
I0526 23:42:57.021244 31871 net.cpp:106] Creating Layer pool3
I0526 23:42:57.021258 31871 net.cpp:454] pool3 <- conv3
I0526 23:42:57.021276 31871 net.cpp:411] pool3 -> pool3
I0526 23:42:57.021363 31871 net.cpp:150] Setting up pool3
I0526 23:42:57.021387 31871 net.cpp:157] Top shape: 30 28 11 44 (406560)
I0526 23:42:57.021400 31871 net.cpp:165] Memory required for data: 44533560
I0526 23:42:57.021412 31871 layer_factory.hpp:77] Creating layer conv4
I0526 23:42:57.021433 31871 net.cpp:106] Creating Layer conv4
I0526 23:42:57.021448 31871 net.cpp:454] conv4 <- pool3
I0526 23:42:57.021471 31871 net.cpp:411] conv4 -> conv4
I0526 23:42:57.023561 31871 net.cpp:150] Setting up conv4
I0526 23:42:57.023586 31871 net.cpp:157] Top shape: 30 36 6 42 (272160)
I0526 23:42:57.023607 31871 net.cpp:165] Memory required for data: 45622200
I0526 23:42:57.023625 31871 layer_factory.hpp:77] Creating layer relu4
I0526 23:42:57.023641 31871 net.cpp:106] Creating Layer relu4
I0526 23:42:57.023658 31871 net.cpp:454] relu4 <- conv4
I0526 23:42:57.023684 31871 net.cpp:397] relu4 -> conv4 (in-place)
I0526 23:42:57.024175 31871 net.cpp:150] Setting up relu4
I0526 23:42:57.024199 31871 net.cpp:157] Top shape: 30 36 6 42 (272160)
I0526 23:42:57.024211 31871 net.cpp:165] Memory required for data: 46710840
I0526 23:42:57.024227 31871 layer_factory.hpp:77] Creating layer pool4
I0526 23:42:57.024243 31871 net.cpp:106] Creating Layer pool4
I0526 23:42:57.024266 31871 net.cpp:454] pool4 <- conv4
I0526 23:42:57.024281 31871 net.cpp:411] pool4 -> pool4
I0526 23:42:57.024368 31871 net.cpp:150] Setting up pool4
I0526 23:42:57.024384 31871 net.cpp:157] Top shape: 30 36 3 42 (136080)
I0526 23:42:57.024399 31871 net.cpp:165] Memory required for data: 47255160
I0526 23:42:57.024411 31871 layer_factory.hpp:77] Creating layer ip1
I0526 23:42:57.024435 31871 net.cpp:106] Creating Layer ip1
I0526 23:42:57.024448 31871 net.cpp:454] ip1 <- pool4
I0526 23:42:57.024471 31871 net.cpp:411] ip1 -> ip1
I0526 23:42:57.039960 31871 net.cpp:150] Setting up ip1
I0526 23:42:57.039991 31871 net.cpp:157] Top shape: 30 196 (5880)
I0526 23:42:57.040004 31871 net.cpp:165] Memory required for data: 47278680
I0526 23:42:57.040035 31871 layer_factory.hpp:77] Creating layer relu5
I0526 23:42:57.040063 31871 net.cpp:106] Creating Layer relu5
I0526 23:42:57.040077 31871 net.cpp:454] relu5 <- ip1
I0526 23:42:57.040094 31871 net.cpp:397] relu5 -> ip1 (in-place)
I0526 23:42:57.040473 31871 net.cpp:150] Setting up relu5
I0526 23:42:57.040494 31871 net.cpp:157] Top shape: 30 196 (5880)
I0526 23:42:57.040506 31871 net.cpp:165] Memory required for data: 47302200
I0526 23:42:57.040521 31871 layer_factory.hpp:77] Creating layer drop1
I0526 23:42:57.040550 31871 net.cpp:106] Creating Layer drop1
I0526 23:42:57.040563 31871 net.cpp:454] drop1 <- ip1
I0526 23:42:57.040580 31871 net.cpp:397] drop1 -> ip1 (in-place)
I0526 23:42:57.040638 31871 net.cpp:150] Setting up drop1
I0526 23:42:57.040654 31871 net.cpp:157] Top shape: 30 196 (5880)
I0526 23:42:57.040668 31871 net.cpp:165] Memory required for data: 47325720
I0526 23:42:57.040680 31871 layer_factory.hpp:77] Creating layer ip2
I0526 23:42:57.040699 31871 net.cpp:106] Creating Layer ip2
I0526 23:42:57.040712 31871 net.cpp:454] ip2 <- ip1
I0526 23:42:57.040735 31871 net.cpp:411] ip2 -> ip2
I0526 23:42:57.041231 31871 net.cpp:150] Setting up ip2
I0526 23:42:57.041250 31871 net.cpp:157] Top shape: 30 98 (2940)
I0526 23:42:57.041263 31871 net.cpp:165] Memory required for data: 47337480
I0526 23:42:57.041285 31871 layer_factory.hpp:77] Creating layer relu6
I0526 23:42:57.041319 31871 net.cpp:106] Creating Layer relu6
I0526 23:42:57.041332 31871 net.cpp:454] relu6 <- ip2
I0526 23:42:57.041348 31871 net.cpp:397] relu6 -> ip2 (in-place)
I0526 23:42:57.041916 31871 net.cpp:150] Setting up relu6
I0526 23:42:57.041939 31871 net.cpp:157] Top shape: 30 98 (2940)
I0526 23:42:57.041954 31871 net.cpp:165] Memory required for data: 47349240
I0526 23:42:57.041965 31871 layer_factory.hpp:77] Creating layer drop2
I0526 23:42:57.041985 31871 net.cpp:106] Creating Layer drop2
I0526 23:42:57.042006 31871 net.cpp:454] drop2 <- ip2
I0526 23:42:57.042023 31871 net.cpp:397] drop2 -> ip2 (in-place)
I0526 23:42:57.042074 31871 net.cpp:150] Setting up drop2
I0526 23:42:57.042098 31871 net.cpp:157] Top shape: 30 98 (2940)
I0526 23:42:57.042110 31871 net.cpp:165] Memory required for data: 47361000
I0526 23:42:57.042130 31871 layer_factory.hpp:77] Creating layer ip3
I0526 23:42:57.042147 31871 net.cpp:106] Creating Layer ip3
I0526 23:42:57.042162 31871 net.cpp:454] ip3 <- ip2
I0526 23:42:57.042178 31871 net.cpp:411] ip3 -> ip3
I0526 23:42:57.042424 31871 net.cpp:150] Setting up ip3
I0526 23:42:57.042443 31871 net.cpp:157] Top shape: 30 11 (330)
I0526 23:42:57.042456 31871 net.cpp:165] Memory required for data: 47362320
I0526 23:42:57.042477 31871 layer_factory.hpp:77] Creating layer drop3
I0526 23:42:57.042500 31871 net.cpp:106] Creating Layer drop3
I0526 23:42:57.042513 31871 net.cpp:454] drop3 <- ip3
I0526 23:42:57.042528 31871 net.cpp:397] drop3 -> ip3 (in-place)
I0526 23:42:57.042577 31871 net.cpp:150] Setting up drop3
I0526 23:42:57.042599 31871 net.cpp:157] Top shape: 30 11 (330)
I0526 23:42:57.042611 31871 net.cpp:165] Memory required for data: 47363640
I0526 23:42:57.042626 31871 layer_factory.hpp:77] Creating layer ip3_drop3_0_split
I0526 23:42:57.042642 31871 net.cpp:106] Creating Layer ip3_drop3_0_split
I0526 23:42:57.042656 31871 net.cpp:454] ip3_drop3_0_split <- ip3
I0526 23:42:57.042678 31871 net.cpp:411] ip3_drop3_0_split -> ip3_drop3_0_split_0
I0526 23:42:57.042697 31871 net.cpp:411] ip3_drop3_0_split -> ip3_drop3_0_split_1
I0526 23:42:57.042791 31871 net.cpp:150] Setting up ip3_drop3_0_split
I0526 23:42:57.042807 31871 net.cpp:157] Top shape: 30 11 (330)
I0526 23:42:57.042824 31871 net.cpp:157] Top shape: 30 11 (330)
I0526 23:42:57.042836 31871 net.cpp:165] Memory required for data: 47366280
I0526 23:42:57.042850 31871 layer_factory.hpp:77] Creating layer accuracy
I0526 23:42:57.042879 31871 net.cpp:106] Creating Layer accuracy
I0526 23:42:57.042892 31871 net.cpp:454] accuracy <- ip3_drop3_0_split_0
I0526 23:42:57.042912 31871 net.cpp:454] accuracy <- label_data_hdf5_1_split_0
I0526 23:42:57.042929 31871 net.cpp:411] accuracy -> accuracy
…
