…
I0522 09:47:37.813474 31637 net.cpp:322] The NetState phase (0) differed from the phase (1) specified by a rule in layer data_hdf5
I0522 09:47:37.813534 31637 net.cpp:322] The NetState phase (0) differed from the phase (1) specified by a rule in layer accuracy
I0522 09:47:37.813882 31637 net.cpp:49] Initializing net from parameters: 
name: "caffe_test_127x50_x_unshifted"
state {
  phase: TRAIN
}
layer {
  name: "data_hdf5"
  type: "HDF5Data"
  top: "data"
  top: "label"
  include {
    phase: TRAIN
  }
  hdf5_data_param {
    source: "/lustre/atlas/proj-shared/hep105/caffe_titan/minosmatch_nukecczdefs_127x50_x_unshifted_me1Bmc.trainlist"
    batch_size: 30
  }
}
layer {
  name: "conv1"
  type: "Convolution"
  bottom: "data"
  top: "conv1"
  convolution_param {
    num_output: 12
    pad: 0
    stride: 1
    weight_filler {
      type: "xavier"
    }
    bias_filler {
      type: "constant"
    }
    kernel_h: 8
    kernel_w: 3
  }
}
layer {
  name: "relu1"
  type: "ReLU"
  bottom: "conv1"
  top: "conv1"
}
layer {
  name: "pool1"
  type: "Pooling"
  bottom: "conv1"
  top: "pool1"
  pooling_param {
    pool: MAX
    kernel_h: 2
    kernel_w: 1
    stride_h: 2
    stride_w: 1
  }
}
layer {
  name: "conv2"
  type: "Convolution"
  bottom: "pool1"
  top: "conv2"
  convolution_param {
    num_output: 20
    pad: 0
    stride: 1
    weight_filler {
      type: "xavier"
    }
    bias_filler {
      type: "constant"
    }
    kernel_h: 7
    kernel_w: 3
  }
}
layer {
  name: "relu2"
  type: "ReLU"
  bottom: "conv2"
  top: "conv2"
}
layer {
  name: "pool2"
  type: "Pooling"
  bottom: "conv2"
  top: "pool2"
  pooling_param {
    pool: MAX
    kernel_h: 2
    kernel_w: 1
    stride_h: 2
    stride_w: 1
  }
}
layer {
  name: "conv3"
  type: "Convolution"
  bottom: "pool2"
  top: "conv3"
  convolution_param {
    num_output: 28
    pad: 0
    stride: 1
    weight_filler {
      type: "xavier"
    }
    bias_filler {
      type: "constant"
    }
    kernel_h: 6
    kernel_w: 3
  }
}
layer {
  name: "relu3"
  type: "ReLU"
  bottom: "conv3"
  top: "conv3"
}
layer {
  name: "pool3"
  type: "Pooling"
  bottom: "conv3"
  top: "pool3"
  pooling_param {
    pool: MAX
    kernel_h: 2
    kernel_w: 1
    stride_h: 2
    stride_w: 1
  }
}
layer {
  name: "conv4"
  type: "Convolution"
  bottom: "pool3"
  top: "conv4"
  convolution_param {
    num_output: 36
    pad: 0
    stride: 1
    weight_filler {
      type: "xavier"
    }
    bias_filler {
      type: "constant"
    }
    kernel_h: 6
    kernel_w: 3
  }
}
layer {
  name: "relu4"
  type: "ReLU"
  bottom: "conv4"
  top: "conv4"
}
layer {
  name: "pool4"
  type: "Pooling"
  bottom: "conv4"
  top: "pool4"
  pooling_param {
    pool: MAX
    kernel_h: 2
    kernel_w: 1
    stride_h: 2
    stride_w: 1
  }
}
layer {
  name: "ip1"
  type: "InnerProduct"
  bottom: "pool4"
  top: "ip1"
  inner_product_param {
    num_output: 196
    weight_filler {
      type: "xavier"
    }
    bias_filler {
      type: "constant"
    }
  }
}
layer {
  name: "relu5"
  type: "ReLU"
  bottom: "ip1"
  top: "ip1"
}
layer {
  name: "drop1"
  type: "Dropout"
  bottom: "ip1"
  top: "ip1"
  dropout_param {
    dropout_ratio: 0.5
  }
}
layer {
  name: "ip2"
  type: "InnerProduct"
  bottom: "ip1"
  top: "ip2"
  inner_product_param {
    num_output: 98
    weight_filler {
      type: "xavier"
    }
    bias_filler {
      type: "constant"
    }
  }
}
layer {
  name: "relu6"
  type: "ReLU"
  bottom: "ip2"
  top: "ip2"
}
layer {
  name: "drop2"
  type: "Dropout"
  bottom: "ip2"
  top: "ip2"
  dropout_param {
    dropout_ratio: 0.5
  }
}
layer {
  name: "ip3"
  type: "InnerProduct"
  bottom: "ip2"
  top: "ip3"
  inner_product_param {
    num_output: 11
    weight_filler {
      type: "xavier"
    }
    bias_filler {
      type: "constant"
    }
  }
}
layer {
  name: "drop3"
  type: "Dropout"
  bottom: "ip3"
  top: "ip3"
  dropout_param {
    dropout_ratio: 0.5
  }
}
layer {
  name: "loss"
  type: "SoftmaxWithLoss"
  bottom: "ip3"
  bottom: "label"
  top: "loss"
}
I0522 09:47:37.814070 31637 layer_factory.hpp:77] Creating layer data_hdf5
I0522 09:47:37.814095 31637 net.cpp:106] Creating Layer data_hdf5
I0522 09:47:37.814110 31637 net.cpp:411] data_hdf5 -> data
I0522 09:47:37.814142 31637 net.cpp:411] data_hdf5 -> label
I0522 09:47:37.814174 31637 hdf5_data_layer.cpp:79] Loading list of HDF5 filenames from: /lustre/atlas/proj-shared/hep105/caffe_titan/minosmatch_nukecczdefs_127x50_x_unshifted_me1Bmc.trainlist
I0522 09:47:37.827469 31637 hdf5_data_layer.cpp:93] Number of HDF5 files: 15
I0522 09:47:37.838810 31637 hdf5.cpp:32] Datatype class: H5T_FLOAT
I0522 09:47:59.384498 31637 hdf5.cpp:35] Datatype class: H5T_INTEGER
I0522 09:47:59.389670 31637 net.cpp:150] Setting up data_hdf5
I0522 09:47:59.389710 31637 net.cpp:157] Top shape: 30 1 127 50 (190500)
I0522 09:47:59.389725 31637 net.cpp:157] Top shape: 30 (30)
I0522 09:47:59.389739 31637 net.cpp:165] Memory required for data: 762120
I0522 09:47:59.389751 31637 layer_factory.hpp:77] Creating layer conv1
I0522 09:47:59.389786 31637 net.cpp:106] Creating Layer conv1
I0522 09:47:59.389797 31637 net.cpp:454] conv1 <- data
I0522 09:47:59.389819 31637 net.cpp:411] conv1 -> conv1
I0522 09:48:01.838394 31637 net.cpp:150] Setting up conv1
I0522 09:48:01.838443 31637 net.cpp:157] Top shape: 30 12 120 48 (2073600)
I0522 09:48:01.838454 31637 net.cpp:165] Memory required for data: 9056520
I0522 09:48:01.838485 31637 layer_factory.hpp:77] Creating layer relu1
I0522 09:48:01.838506 31637 net.cpp:106] Creating Layer relu1
I0522 09:48:01.838517 31637 net.cpp:454] relu1 <- conv1
I0522 09:48:01.838531 31637 net.cpp:397] relu1 -> conv1 (in-place)
I0522 09:48:01.839048 31637 net.cpp:150] Setting up relu1
I0522 09:48:01.839064 31637 net.cpp:157] Top shape: 30 12 120 48 (2073600)
I0522 09:48:01.839074 31637 net.cpp:165] Memory required for data: 17350920
I0522 09:48:01.839084 31637 layer_factory.hpp:77] Creating layer pool1
I0522 09:48:01.839100 31637 net.cpp:106] Creating Layer pool1
I0522 09:48:01.839112 31637 net.cpp:454] pool1 <- conv1
I0522 09:48:01.839124 31637 net.cpp:411] pool1 -> pool1
I0522 09:48:01.839205 31637 net.cpp:150] Setting up pool1
I0522 09:48:01.839218 31637 net.cpp:157] Top shape: 30 12 60 48 (1036800)
I0522 09:48:01.839228 31637 net.cpp:165] Memory required for data: 21498120
I0522 09:48:01.839238 31637 layer_factory.hpp:77] Creating layer conv2
I0522 09:48:01.839262 31637 net.cpp:106] Creating Layer conv2
I0522 09:48:01.839272 31637 net.cpp:454] conv2 <- pool1
I0522 09:48:01.839285 31637 net.cpp:411] conv2 -> conv2
I0522 09:48:01.841950 31637 net.cpp:150] Setting up conv2
I0522 09:48:01.841979 31637 net.cpp:157] Top shape: 30 20 54 46 (1490400)
I0522 09:48:01.841989 31637 net.cpp:165] Memory required for data: 27459720
I0522 09:48:01.842007 31637 layer_factory.hpp:77] Creating layer relu2
I0522 09:48:01.842022 31637 net.cpp:106] Creating Layer relu2
I0522 09:48:01.842042 31637 net.cpp:454] relu2 <- conv2
I0522 09:48:01.842056 31637 net.cpp:397] relu2 -> conv2 (in-place)
I0522 09:48:01.842386 31637 net.cpp:150] Setting up relu2
I0522 09:48:01.842401 31637 net.cpp:157] Top shape: 30 20 54 46 (1490400)
I0522 09:48:01.842411 31637 net.cpp:165] Memory required for data: 33421320
I0522 09:48:01.842422 31637 layer_factory.hpp:77] Creating layer pool2
I0522 09:48:01.842433 31637 net.cpp:106] Creating Layer pool2
I0522 09:48:01.842443 31637 net.cpp:454] pool2 <- conv2
I0522 09:48:01.842456 31637 net.cpp:411] pool2 -> pool2
I0522 09:48:01.842537 31637 net.cpp:150] Setting up pool2
I0522 09:48:01.842550 31637 net.cpp:157] Top shape: 30 20 27 46 (745200)
I0522 09:48:01.842561 31637 net.cpp:165] Memory required for data: 36402120
I0522 09:48:01.842568 31637 layer_factory.hpp:77] Creating layer conv3
I0522 09:48:01.842588 31637 net.cpp:106] Creating Layer conv3
I0522 09:48:01.842598 31637 net.cpp:454] conv3 <- pool2
I0522 09:48:01.842612 31637 net.cpp:411] conv3 -> conv3
I0522 09:48:01.844573 31637 net.cpp:150] Setting up conv3
I0522 09:48:01.844595 31637 net.cpp:157] Top shape: 30 28 22 44 (813120)
I0522 09:48:01.844607 31637 net.cpp:165] Memory required for data: 39654600
I0522 09:48:01.844625 31637 layer_factory.hpp:77] Creating layer relu3
I0522 09:48:01.844641 31637 net.cpp:106] Creating Layer relu3
I0522 09:48:01.844651 31637 net.cpp:454] relu3 <- conv3
I0522 09:48:01.844665 31637 net.cpp:397] relu3 -> conv3 (in-place)
I0522 09:48:01.845130 31637 net.cpp:150] Setting up relu3
I0522 09:48:01.845149 31637 net.cpp:157] Top shape: 30 28 22 44 (813120)
I0522 09:48:01.845158 31637 net.cpp:165] Memory required for data: 42907080
I0522 09:48:01.845168 31637 layer_factory.hpp:77] Creating layer pool3
I0522 09:48:01.845181 31637 net.cpp:106] Creating Layer pool3
I0522 09:48:01.845191 31637 net.cpp:454] pool3 <- conv3
I0522 09:48:01.845204 31637 net.cpp:411] pool3 -> pool3
I0522 09:48:01.845271 31637 net.cpp:150] Setting up pool3
I0522 09:48:01.845284 31637 net.cpp:157] Top shape: 30 28 11 44 (406560)
I0522 09:48:01.845294 31637 net.cpp:165] Memory required for data: 44533320
I0522 09:48:01.845302 31637 layer_factory.hpp:77] Creating layer conv4
I0522 09:48:01.845319 31637 net.cpp:106] Creating Layer conv4
I0522 09:48:01.845329 31637 net.cpp:454] conv4 <- pool3
I0522 09:48:01.845343 31637 net.cpp:411] conv4 -> conv4
I0522 09:48:01.848072 31637 net.cpp:150] Setting up conv4
I0522 09:48:01.848094 31637 net.cpp:157] Top shape: 30 36 6 42 (272160)
I0522 09:48:01.848105 31637 net.cpp:165] Memory required for data: 45621960
I0522 09:48:01.848121 31637 layer_factory.hpp:77] Creating layer relu4
I0522 09:48:01.848135 31637 net.cpp:106] Creating Layer relu4
I0522 09:48:01.848146 31637 net.cpp:454] relu4 <- conv4
I0522 09:48:01.848160 31637 net.cpp:397] relu4 -> conv4 (in-place)
I0522 09:48:01.848623 31637 net.cpp:150] Setting up relu4
I0522 09:48:01.848639 31637 net.cpp:157] Top shape: 30 36 6 42 (272160)
I0522 09:48:01.848650 31637 net.cpp:165] Memory required for data: 46710600
I0522 09:48:01.848660 31637 layer_factory.hpp:77] Creating layer pool4
I0522 09:48:01.848673 31637 net.cpp:106] Creating Layer pool4
I0522 09:48:01.848683 31637 net.cpp:454] pool4 <- conv4
I0522 09:48:01.848697 31637 net.cpp:411] pool4 -> pool4
I0522 09:48:01.848765 31637 net.cpp:150] Setting up pool4
I0522 09:48:01.848779 31637 net.cpp:157] Top shape: 30 36 3 42 (136080)
I0522 09:48:01.848789 31637 net.cpp:165] Memory required for data: 47254920
I0522 09:48:01.848799 31637 layer_factory.hpp:77] Creating layer ip1
I0522 09:48:01.848819 31637 net.cpp:106] Creating Layer ip1
I0522 09:48:01.848830 31637 net.cpp:454] ip1 <- pool4
I0522 09:48:01.848844 31637 net.cpp:411] ip1 -> ip1
I0522 09:48:01.864279 31637 net.cpp:150] Setting up ip1
I0522 09:48:01.864303 31637 net.cpp:157] Top shape: 30 196 (5880)
I0522 09:48:01.864317 31637 net.cpp:165] Memory required for data: 47278440
I0522 09:48:01.864343 31637 layer_factory.hpp:77] Creating layer relu5
I0522 09:48:01.864358 31637 net.cpp:106] Creating Layer relu5
I0522 09:48:01.864368 31637 net.cpp:454] relu5 <- ip1
I0522 09:48:01.864382 31637 net.cpp:397] relu5 -> ip1 (in-place)
I0522 09:48:01.864722 31637 net.cpp:150] Setting up relu5
I0522 09:48:01.864737 31637 net.cpp:157] Top shape: 30 196 (5880)
I0522 09:48:01.864747 31637 net.cpp:165] Memory required for data: 47301960
I0522 09:48:01.864758 31637 layer_factory.hpp:77] Creating layer drop1
I0522 09:48:01.864778 31637 net.cpp:106] Creating Layer drop1
I0522 09:48:01.864789 31637 net.cpp:454] drop1 <- ip1
I0522 09:48:01.864801 31637 net.cpp:397] drop1 -> ip1 (in-place)
I0522 09:48:01.864861 31637 net.cpp:150] Setting up drop1
I0522 09:48:01.864874 31637 net.cpp:157] Top shape: 30 196 (5880)
I0522 09:48:01.864884 31637 net.cpp:165] Memory required for data: 47325480
I0522 09:48:01.864894 31637 layer_factory.hpp:77] Creating layer ip2
I0522 09:48:01.864912 31637 net.cpp:106] Creating Layer ip2
I0522 09:48:01.864923 31637 net.cpp:454] ip2 <- ip1
I0522 09:48:01.864936 31637 net.cpp:411] ip2 -> ip2
I0522 09:48:01.865397 31637 net.cpp:150] Setting up ip2
I0522 09:48:01.865411 31637 net.cpp:157] Top shape: 30 98 (2940)
I0522 09:48:01.865419 31637 net.cpp:165] Memory required for data: 47337240
I0522 09:48:01.865434 31637 layer_factory.hpp:77] Creating layer relu6
I0522 09:48:01.865447 31637 net.cpp:106] Creating Layer relu6
I0522 09:48:01.865456 31637 net.cpp:454] relu6 <- ip2
I0522 09:48:01.865468 31637 net.cpp:397] relu6 -> ip2 (in-place)
I0522 09:48:01.865986 31637 net.cpp:150] Setting up relu6
I0522 09:48:01.866003 31637 net.cpp:157] Top shape: 30 98 (2940)
I0522 09:48:01.866014 31637 net.cpp:165] Memory required for data: 47349000
I0522 09:48:01.866024 31637 layer_factory.hpp:77] Creating layer drop2
I0522 09:48:01.866044 31637 net.cpp:106] Creating Layer drop2
I0522 09:48:01.866053 31637 net.cpp:454] drop2 <- ip2
I0522 09:48:01.866066 31637 net.cpp:397] drop2 -> ip2 (in-place)
I0522 09:48:01.866108 31637 net.cpp:150] Setting up drop2
I0522 09:48:01.866122 31637 net.cpp:157] Top shape: 30 98 (2940)
I0522 09:48:01.866132 31637 net.cpp:165] Memory required for data: 47360760
I0522 09:48:01.866139 31637 layer_factory.hpp:77] Creating layer ip3
I0522 09:48:01.866154 31637 net.cpp:106] Creating Layer ip3
I0522 09:48:01.866163 31637 net.cpp:454] ip3 <- ip2
I0522 09:48:01.866176 31637 net.cpp:411] ip3 -> ip3
I0522 09:48:01.866387 31637 net.cpp:150] Setting up ip3
I0522 09:48:01.866400 31637 net.cpp:157] Top shape: 30 11 (330)
I0522 09:48:01.866410 31637 net.cpp:165] Memory required for data: 47362080
I0522 09:48:01.866425 31637 layer_factory.hpp:77] Creating layer drop3
I0522 09:48:01.866436 31637 net.cpp:106] Creating Layer drop3
I0522 09:48:01.866446 31637 net.cpp:454] drop3 <- ip3
I0522 09:48:01.866458 31637 net.cpp:397] drop3 -> ip3 (in-place)
I0522 09:48:01.866498 31637 net.cpp:150] Setting up drop3
I0522 09:48:01.866510 31637 net.cpp:157] Top shape: 30 11 (330)
I0522 09:48:01.866521 31637 net.cpp:165] Memory required for data: 47363400
I0522 09:48:01.866531 31637 layer_factory.hpp:77] Creating layer loss
I0522 09:48:01.866550 31637 net.cpp:106] Creating Layer loss
I0522 09:48:01.866560 31637 net.cpp:454] loss <- ip3
I0522 09:48:01.866571 31637 net.cpp:454] loss <- label
I0522 09:48:01.866583 31637 net.cpp:411] loss -> loss
I0522 09:48:01.866601 31637 layer_factory.hpp:77] Creating layer loss
…
I0522 09:48:01.869370 31637 solver.cpp:181] Creating test net (#0) specified by net file: /lustre/atlas/proj-shared/hep105/caffe_titan/caffe_workflow/logs_bslr/bs_30_lr_0.0020_2016-05-20T15.48.58.488214.prototxt
I0522 09:48:01.869441 31637 net.cpp:322] The NetState phase (1) differed from the phase (0) specified by a rule in layer data_hdf5
I0522 09:48:01.869797 31637 net.cpp:49] Initializing net from parameters: 
name: "caffe_test_127x50_x_unshifted"
state {
  phase: TEST
}
layer {
  name: "data_hdf5"
  type: "HDF5Data"
  top: "data"
  top: "label"
  include {
    phase: TEST
  }
  hdf5_data_param {
    source: "/lustre/atlas/proj-shared/hep105/caffe_titan/minosmatch_nukecczdefs_127x50_x_unshifted_me1Bmc.testlist"
    batch_size: 30
  }
}
layer {
  name: "conv1"
  type: "Convolution"
  bottom: "data"
  top: "conv1"
  convolution_param {
    num_output: 12
    pad: 0
    stride: 1
    weight_filler {
      type: "xavier"
    }
    bias_filler {
      type: "constant"
    }
    kernel_h: 8
    kernel_w: 3
  }
}
layer {
  name: "relu1"
  type: "ReLU"
  bottom: "conv1"
  top: "conv1"
}
layer {
  name: "pool1"
  type: "Pooling"
  bottom: "conv1"
  top: "pool1"
  pooling_param {
    pool: MAX
    kernel_h: 2
    kernel_w: 1
    stride_h: 2
    stride_w: 1
  }
}
layer {
  name: "conv2"
  type: "Convolution"
  bottom: "pool1"
  top: "conv2"
  convolution_param {
    num_output: 20
    pad: 0
    stride: 1
    weight_filler {
      type: "xavier"
    }
    bias_filler {
      type: "constant"
    }
    kernel_h: 7
    kernel_w: 3
  }
}
layer {
  name: "relu2"
  type: "ReLU"
  bottom: "conv2"
  top: "conv2"
}
layer {
  name: "pool2"
  type: "Pooling"
  bottom: "conv2"
  top: "pool2"
  pooling_param {
    pool: MAX
    kernel_h: 2
    kernel_w: 1
    stride_h: 2
    stride_w: 1
  }
}
layer {
  name: "conv3"
  type: "Convolution"
  bottom: "pool2"
  top: "conv3"
  convolution_param {
    num_output: 28
    pad: 0
    stride: 1
    weight_filler {
      type: "xavier"
    }
    bias_filler {
      type: "constant"
    }
    kernel_h: 6
    kernel_w: 3
  }
}
layer {
  name: "relu3"
  type: "ReLU"
  bottom: "conv3"
  top: "conv3"
}
layer {
  name: "pool3"
  type: "Pooling"
  bottom: "conv3"
  top: "pool3"
  pooling_param {
    pool: MAX
    kernel_h: 2
    kernel_w: 1
    stride_h: 2
    stride_w: 1
  }
}
layer {
  name: "conv4"
  type: "Convolution"
  bottom: "pool3"
  top: "conv4"
  convolution_param {
    num_output: 36
    pad: 0
    stride: 1
    weight_filler {
      type: "xavier"
    }
    bias_filler {
      type: "constant"
    }
    kernel_h: 6
    kernel_w: 3
  }
}
layer {
  name: "relu4"
  type: "ReLU"
  bottom: "conv4"
  top: "conv4"
}
layer {
  name: "pool4"
  type: "Pooling"
  bottom: "conv4"
  top: "pool4"
  pooling_param {
    pool: MAX
    kernel_h: 2
    kernel_w: 1
    stride_h: 2
    stride_w: 1
  }
}
layer {
  name: "ip1"
  type: "InnerProduct"
  bottom: "pool4"
  top: "ip1"
  inner_product_param {
    num_output: 196
    weight_filler {
      type: "xavier"
    }
    bias_filler {
      type: "constant"
    }
  }
}
layer {
  name: "relu5"
  type: "ReLU"
  bottom: "ip1"
  top: "ip1"
}
layer {
  name: "drop1"
  type: "Dropout"
  bottom: "ip1"
  top: "ip1"
  dropout_param {
    dropout_ratio: 0.5
  }
}
layer {
  name: "ip2"
  type: "InnerProduct"
  bottom: "ip1"
  top: "ip2"
  inner_product_param {
    num_output: 98
    weight_filler {
      type: "xavier"
    }
    bias_filler {
      type: "constant"
    }
  }
}
layer {
  name: "relu6"
  type: "ReLU"
  bottom: "ip2"
  top: "ip2"
}
layer {
  name: "drop2"
  type: "Dropout"
  bottom: "ip2"
  top: "ip2"
  dropout_param {
    dropout_ratio: 0.5
  }
}
layer {
  name: "ip3"
  type: "InnerProduct"
  bottom: "ip2"
  top: "ip3"
  inner_product_param {
    num_output: 11
    weight_filler {
      type: "xavier"
    }
    bias_filler {
      type: "constant"
    }
  }
}
layer {
  name: "drop3"
  type: "Dropout"
  bottom: "ip3"
  top: "ip3"
  dropout_param {
    dropout_ratio: 0.5
  }
}
layer {
  name: "accuracy"
  type: "Accuracy"
  bottom: "ip3"
  bottom: "label"
  top: "accuracy"
  include {
    phase: TEST
  }
}
layer {
  name: "loss"
  type: "SoftmaxWithLoss"
  bottom: "ip3"
  bottom: "label"
  top: "loss"
}
I0522 09:48:01.869987 31637 layer_factory.hpp:77] Creating layer data_hdf5
I0522 09:48:01.870002 31637 net.cpp:106] Creating Layer data_hdf5
I0522 09:48:01.870013 31637 net.cpp:411] data_hdf5 -> data
I0522 09:48:01.870036 31637 net.cpp:411] data_hdf5 -> label
I0522 09:48:01.870053 31637 hdf5_data_layer.cpp:79] Loading list of HDF5 filenames from: /lustre/atlas/proj-shared/hep105/caffe_titan/minosmatch_nukecczdefs_127x50_x_unshifted_me1Bmc.testlist
I0522 09:48:01.882066 31637 hdf5_data_layer.cpp:93] Number of HDF5 files: 3
I0522 09:48:23.198693 31637 net.cpp:150] Setting up data_hdf5
I0522 09:48:23.198861 31637 net.cpp:157] Top shape: 30 1 127 50 (190500)
I0522 09:48:23.198875 31637 net.cpp:157] Top shape: 30 (30)
I0522 09:48:23.198885 31637 net.cpp:165] Memory required for data: 762120
I0522 09:48:23.198899 31637 layer_factory.hpp:77] Creating layer label_data_hdf5_1_split
I0522 09:48:23.198927 31637 net.cpp:106] Creating Layer label_data_hdf5_1_split
I0522 09:48:23.198938 31637 net.cpp:454] label_data_hdf5_1_split <- label
I0522 09:48:23.198953 31637 net.cpp:411] label_data_hdf5_1_split -> label_data_hdf5_1_split_0
I0522 09:48:23.198974 31637 net.cpp:411] label_data_hdf5_1_split -> label_data_hdf5_1_split_1
I0522 09:48:23.199046 31637 net.cpp:150] Setting up label_data_hdf5_1_split
I0522 09:48:23.199060 31637 net.cpp:157] Top shape: 30 (30)
I0522 09:48:23.199071 31637 net.cpp:157] Top shape: 30 (30)
I0522 09:48:23.199081 31637 net.cpp:165] Memory required for data: 762360
I0522 09:48:23.199090 31637 layer_factory.hpp:77] Creating layer conv1
I0522 09:48:23.199112 31637 net.cpp:106] Creating Layer conv1
I0522 09:48:23.199123 31637 net.cpp:454] conv1 <- data
I0522 09:48:23.199137 31637 net.cpp:411] conv1 -> conv1
I0522 09:48:23.201056 31637 net.cpp:150] Setting up conv1
I0522 09:48:23.201081 31637 net.cpp:157] Top shape: 30 12 120 48 (2073600)
I0522 09:48:23.201092 31637 net.cpp:165] Memory required for data: 9056760
I0522 09:48:23.201112 31637 layer_factory.hpp:77] Creating layer relu1
I0522 09:48:23.201128 31637 net.cpp:106] Creating Layer relu1
I0522 09:48:23.201136 31637 net.cpp:454] relu1 <- conv1
I0522 09:48:23.201149 31637 net.cpp:397] relu1 -> conv1 (in-place)
I0522 09:48:23.201645 31637 net.cpp:150] Setting up relu1
I0522 09:48:23.201661 31637 net.cpp:157] Top shape: 30 12 120 48 (2073600)
I0522 09:48:23.201671 31637 net.cpp:165] Memory required for data: 17351160
I0522 09:48:23.201681 31637 layer_factory.hpp:77] Creating layer pool1
I0522 09:48:23.201697 31637 net.cpp:106] Creating Layer pool1
I0522 09:48:23.201707 31637 net.cpp:454] pool1 <- conv1
I0522 09:48:23.201721 31637 net.cpp:411] pool1 -> pool1
I0522 09:48:23.201795 31637 net.cpp:150] Setting up pool1
I0522 09:48:23.201808 31637 net.cpp:157] Top shape: 30 12 60 48 (1036800)
I0522 09:48:23.201818 31637 net.cpp:165] Memory required for data: 21498360
I0522 09:48:23.201829 31637 layer_factory.hpp:77] Creating layer conv2
I0522 09:48:23.201846 31637 net.cpp:106] Creating Layer conv2
I0522 09:48:23.201858 31637 net.cpp:454] conv2 <- pool1
I0522 09:48:23.201871 31637 net.cpp:411] conv2 -> conv2
I0522 09:48:23.203795 31637 net.cpp:150] Setting up conv2
I0522 09:48:23.203817 31637 net.cpp:157] Top shape: 30 20 54 46 (1490400)
I0522 09:48:23.203827 31637 net.cpp:165] Memory required for data: 27459960
I0522 09:48:23.203846 31637 layer_factory.hpp:77] Creating layer relu2
I0522 09:48:23.203860 31637 net.cpp:106] Creating Layer relu2
I0522 09:48:23.203869 31637 net.cpp:454] relu2 <- conv2
I0522 09:48:23.203881 31637 net.cpp:397] relu2 -> conv2 (in-place)
I0522 09:48:23.204213 31637 net.cpp:150] Setting up relu2
I0522 09:48:23.204227 31637 net.cpp:157] Top shape: 30 20 54 46 (1490400)
I0522 09:48:23.204237 31637 net.cpp:165] Memory required for data: 33421560
I0522 09:48:23.204248 31637 layer_factory.hpp:77] Creating layer pool2
I0522 09:48:23.204262 31637 net.cpp:106] Creating Layer pool2
I0522 09:48:23.204272 31637 net.cpp:454] pool2 <- conv2
I0522 09:48:23.204283 31637 net.cpp:411] pool2 -> pool2
I0522 09:48:23.204355 31637 net.cpp:150] Setting up pool2
I0522 09:48:23.204368 31637 net.cpp:157] Top shape: 30 20 27 46 (745200)
I0522 09:48:23.204378 31637 net.cpp:165] Memory required for data: 36402360
I0522 09:48:23.204388 31637 layer_factory.hpp:77] Creating layer conv3
I0522 09:48:23.204406 31637 net.cpp:106] Creating Layer conv3
I0522 09:48:23.204416 31637 net.cpp:454] conv3 <- pool2
I0522 09:48:23.204430 31637 net.cpp:411] conv3 -> conv3
I0522 09:48:23.206406 31637 net.cpp:150] Setting up conv3
I0522 09:48:23.206429 31637 net.cpp:157] Top shape: 30 28 22 44 (813120)
I0522 09:48:23.206441 31637 net.cpp:165] Memory required for data: 39654840
I0522 09:48:23.206473 31637 layer_factory.hpp:77] Creating layer relu3
I0522 09:48:23.206487 31637 net.cpp:106] Creating Layer relu3
I0522 09:48:23.206498 31637 net.cpp:454] relu3 <- conv3
I0522 09:48:23.206511 31637 net.cpp:397] relu3 -> conv3 (in-place)
I0522 09:48:23.206982 31637 net.cpp:150] Setting up relu3
I0522 09:48:23.207000 31637 net.cpp:157] Top shape: 30 28 22 44 (813120)
I0522 09:48:23.207008 31637 net.cpp:165] Memory required for data: 42907320
I0522 09:48:23.207020 31637 layer_factory.hpp:77] Creating layer pool3
I0522 09:48:23.207032 31637 net.cpp:106] Creating Layer pool3
I0522 09:48:23.207042 31637 net.cpp:454] pool3 <- conv3
I0522 09:48:23.207056 31637 net.cpp:411] pool3 -> pool3
I0522 09:48:23.207126 31637 net.cpp:150] Setting up pool3
I0522 09:48:23.207140 31637 net.cpp:157] Top shape: 30 28 11 44 (406560)
I0522 09:48:23.207150 31637 net.cpp:165] Memory required for data: 44533560
I0522 09:48:23.207157 31637 layer_factory.hpp:77] Creating layer conv4
I0522 09:48:23.207175 31637 net.cpp:106] Creating Layer conv4
I0522 09:48:23.207185 31637 net.cpp:454] conv4 <- pool3
I0522 09:48:23.207201 31637 net.cpp:411] conv4 -> conv4
I0522 09:48:23.209252 31637 net.cpp:150] Setting up conv4
I0522 09:48:23.209275 31637 net.cpp:157] Top shape: 30 36 6 42 (272160)
I0522 09:48:23.209287 31637 net.cpp:165] Memory required for data: 45622200
I0522 09:48:23.209302 31637 layer_factory.hpp:77] Creating layer relu4
I0522 09:48:23.209316 31637 net.cpp:106] Creating Layer relu4
I0522 09:48:23.209326 31637 net.cpp:454] relu4 <- conv4
I0522 09:48:23.209339 31637 net.cpp:397] relu4 -> conv4 (in-place)
I0522 09:48:23.209805 31637 net.cpp:150] Setting up relu4
I0522 09:48:23.209821 31637 net.cpp:157] Top shape: 30 36 6 42 (272160)
I0522 09:48:23.209832 31637 net.cpp:165] Memory required for data: 46710840
I0522 09:48:23.209842 31637 layer_factory.hpp:77] Creating layer pool4
I0522 09:48:23.209856 31637 net.cpp:106] Creating Layer pool4
I0522 09:48:23.209866 31637 net.cpp:454] pool4 <- conv4
I0522 09:48:23.209878 31637 net.cpp:411] pool4 -> pool4
I0522 09:48:23.209950 31637 net.cpp:150] Setting up pool4
I0522 09:48:23.209964 31637 net.cpp:157] Top shape: 30 36 3 42 (136080)
I0522 09:48:23.209974 31637 net.cpp:165] Memory required for data: 47255160
I0522 09:48:23.209983 31637 layer_factory.hpp:77] Creating layer ip1
I0522 09:48:23.210000 31637 net.cpp:106] Creating Layer ip1
I0522 09:48:23.210011 31637 net.cpp:454] ip1 <- pool4
I0522 09:48:23.210024 31637 net.cpp:411] ip1 -> ip1
I0522 09:48:23.225379 31637 net.cpp:150] Setting up ip1
I0522 09:48:23.225406 31637 net.cpp:157] Top shape: 30 196 (5880)
I0522 09:48:23.225419 31637 net.cpp:165] Memory required for data: 47278680
I0522 09:48:23.225440 31637 layer_factory.hpp:77] Creating layer relu5
I0522 09:48:23.225455 31637 net.cpp:106] Creating Layer relu5
I0522 09:48:23.225466 31637 net.cpp:454] relu5 <- ip1
I0522 09:48:23.225479 31637 net.cpp:397] relu5 -> ip1 (in-place)
I0522 09:48:23.225826 31637 net.cpp:150] Setting up relu5
I0522 09:48:23.225839 31637 net.cpp:157] Top shape: 30 196 (5880)
I0522 09:48:23.225849 31637 net.cpp:165] Memory required for data: 47302200
I0522 09:48:23.225859 31637 layer_factory.hpp:77] Creating layer drop1
I0522 09:48:23.225878 31637 net.cpp:106] Creating Layer drop1
I0522 09:48:23.225888 31637 net.cpp:454] drop1 <- ip1
I0522 09:48:23.225901 31637 net.cpp:397] drop1 -> ip1 (in-place)
I0522 09:48:23.225949 31637 net.cpp:150] Setting up drop1
I0522 09:48:23.225961 31637 net.cpp:157] Top shape: 30 196 (5880)
I0522 09:48:23.225971 31637 net.cpp:165] Memory required for data: 47325720
I0522 09:48:23.225981 31637 layer_factory.hpp:77] Creating layer ip2
I0522 09:48:23.225996 31637 net.cpp:106] Creating Layer ip2
I0522 09:48:23.226004 31637 net.cpp:454] ip2 <- ip1
I0522 09:48:23.226018 31637 net.cpp:411] ip2 -> ip2
I0522 09:48:23.226503 31637 net.cpp:150] Setting up ip2
I0522 09:48:23.226516 31637 net.cpp:157] Top shape: 30 98 (2940)
I0522 09:48:23.226526 31637 net.cpp:165] Memory required for data: 47337480
I0522 09:48:23.226541 31637 layer_factory.hpp:77] Creating layer relu6
I0522 09:48:23.226567 31637 net.cpp:106] Creating Layer relu6
I0522 09:48:23.226577 31637 net.cpp:454] relu6 <- ip2
I0522 09:48:23.226589 31637 net.cpp:397] relu6 -> ip2 (in-place)
I0522 09:48:23.227118 31637 net.cpp:150] Setting up relu6
I0522 09:48:23.227134 31637 net.cpp:157] Top shape: 30 98 (2940)
I0522 09:48:23.227144 31637 net.cpp:165] Memory required for data: 47349240
I0522 09:48:23.227154 31637 layer_factory.hpp:77] Creating layer drop2
I0522 09:48:23.227167 31637 net.cpp:106] Creating Layer drop2
I0522 09:48:23.227177 31637 net.cpp:454] drop2 <- ip2
I0522 09:48:23.227190 31637 net.cpp:397] drop2 -> ip2 (in-place)
I0522 09:48:23.227234 31637 net.cpp:150] Setting up drop2
I0522 09:48:23.227247 31637 net.cpp:157] Top shape: 30 98 (2940)
I0522 09:48:23.227257 31637 net.cpp:165] Memory required for data: 47361000
I0522 09:48:23.227267 31637 layer_factory.hpp:77] Creating layer ip3
I0522 09:48:23.227282 31637 net.cpp:106] Creating Layer ip3
I0522 09:48:23.227291 31637 net.cpp:454] ip3 <- ip2
I0522 09:48:23.227306 31637 net.cpp:411] ip3 -> ip3
I0522 09:48:23.227530 31637 net.cpp:150] Setting up ip3
I0522 09:48:23.227543 31637 net.cpp:157] Top shape: 30 11 (330)
I0522 09:48:23.227553 31637 net.cpp:165] Memory required for data: 47362320
I0522 09:48:23.227568 31637 layer_factory.hpp:77] Creating layer drop3
I0522 09:48:23.227582 31637 net.cpp:106] Creating Layer drop3
I0522 09:48:23.227592 31637 net.cpp:454] drop3 <- ip3
I0522 09:48:23.227604 31637 net.cpp:397] drop3 -> ip3 (in-place)
I0522 09:48:23.227646 31637 net.cpp:150] Setting up drop3
I0522 09:48:23.227659 31637 net.cpp:157] Top shape: 30 11 (330)
I0522 09:48:23.227669 31637 net.cpp:165] Memory required for data: 47363640
I0522 09:48:23.227679 31637 layer_factory.hpp:77] Creating layer ip3_drop3_0_split
I0522 09:48:23.227691 31637 net.cpp:106] Creating Layer ip3_drop3_0_split
I0522 09:48:23.227701 31637 net.cpp:454] ip3_drop3_0_split <- ip3
I0522 09:48:23.227715 31637 net.cpp:411] ip3_drop3_0_split -> ip3_drop3_0_split_0
I0522 09:48:23.227730 31637 net.cpp:411] ip3_drop3_0_split -> ip3_drop3_0_split_1
I0522 09:48:23.227803 31637 net.cpp:150] Setting up ip3_drop3_0_split
I0522 09:48:23.227816 31637 net.cpp:157] Top shape: 30 11 (330)
I0522 09:48:23.227829 31637 net.cpp:157] Top shape: 30 11 (330)
I0522 09:48:23.227839 31637 net.cpp:165] Memory required for data: 47366280
I0522 09:48:23.227849 31637 layer_factory.hpp:77] Creating layer accuracy
I0522 09:48:23.227869 31637 net.cpp:106] Creating Layer accuracy
I0522 09:48:23.227880 31637 net.cpp:454] accuracy <- ip3_drop3_0_split_0
I0522 09:48:23.227891 31637 net.cpp:454] accuracy <- label_data_hdf5_1_split_0
I0522 09:48:23.227905 31637 net.cpp:411] accuracy -> accuracy
…
