…
I0522 07:46:51.256482  9392 net.cpp:322] The NetState phase (0) differed from the phase (1) specified by a rule in layer data_hdf5
I0522 07:46:51.256542  9392 net.cpp:322] The NetState phase (0) differed from the phase (1) specified by a rule in layer accuracy
I0522 07:46:51.256889  9392 net.cpp:49] Initializing net from parameters: 
name: "caffe_test_127x50_x_unshifted"
state {
  phase: TRAIN
}
layer {
  name: "data_hdf5"
  type: "HDF5Data"
  top: "data"
  top: "label"
  include {
    phase: TRAIN
  }
  hdf5_data_param {
    source: "/lustre/atlas/proj-shared/hep105/caffe_titan/minosmatch_nukecczdefs_127x50_x_unshifted_me1Bmc.trainlist"
    batch_size: 30
  }
}
layer {
  name: "conv1"
  type: "Convolution"
  bottom: "data"
  top: "conv1"
  convolution_param {
    num_output: 12
    pad: 0
    stride: 1
    weight_filler {
      type: "xavier"
    }
    bias_filler {
      type: "constant"
    }
    kernel_h: 8
    kernel_w: 3
  }
}
layer {
  name: "relu1"
  type: "ReLU"
  bottom: "conv1"
  top: "conv1"
}
layer {
  name: "pool1"
  type: "Pooling"
  bottom: "conv1"
  top: "pool1"
  pooling_param {
    pool: MAX
    kernel_h: 2
    kernel_w: 1
    stride_h: 2
    stride_w: 1
  }
}
layer {
  name: "conv2"
  type: "Convolution"
  bottom: "pool1"
  top: "conv2"
  convolution_param {
    num_output: 20
    pad: 0
    stride: 1
    weight_filler {
      type: "xavier"
    }
    bias_filler {
      type: "constant"
    }
    kernel_h: 7
    kernel_w: 3
  }
}
layer {
  name: "relu2"
  type: "ReLU"
  bottom: "conv2"
  top: "conv2"
}
layer {
  name: "pool2"
  type: "Pooling"
  bottom: "conv2"
  top: "pool2"
  pooling_param {
    pool: MAX
    kernel_h: 2
    kernel_w: 1
    stride_h: 2
    stride_w: 1
  }
}
layer {
  name: "conv3"
  type: "Convolution"
  bottom: "pool2"
  top: "conv3"
  convolution_param {
    num_output: 28
    pad: 0
    stride: 1
    weight_filler {
      type: "xavier"
    }
    bias_filler {
      type: "constant"
    }
    kernel_h: 6
    kernel_w: 3
  }
}
layer {
  name: "relu3"
  type: "ReLU"
  bottom: "conv3"
  top: "conv3"
}
layer {
  name: "pool3"
  type: "Pooling"
  bottom: "conv3"
  top: "pool3"
  pooling_param {
    pool: MAX
    kernel_h: 2
    kernel_w: 1
    stride_h: 2
    stride_w: 1
  }
}
layer {
  name: "conv4"
  type: "Convolution"
  bottom: "pool3"
  top: "conv4"
  convolution_param {
    num_output: 36
    pad: 0
    stride: 1
    weight_filler {
      type: "xavier"
    }
    bias_filler {
      type: "constant"
    }
    kernel_h: 6
    kernel_w: 3
  }
}
layer {
  name: "relu4"
  type: "ReLU"
  bottom: "conv4"
  top: "conv4"
}
layer {
  name: "pool4"
  type: "Pooling"
  bottom: "conv4"
  top: "pool4"
  pooling_param {
    pool: MAX
    kernel_h: 2
    kernel_w: 1
    stride_h: 2
    stride_w: 1
  }
}
layer {
  name: "ip1"
  type: "InnerProduct"
  bottom: "pool4"
  top: "ip1"
  inner_product_param {
    num_output: 196
    weight_filler {
      type: "xavier"
    }
    bias_filler {
      type: "constant"
    }
  }
}
layer {
  name: "relu5"
  type: "ReLU"
  bottom: "ip1"
  top: "ip1"
}
layer {
  name: "drop1"
  type: "Dropout"
  bottom: "ip1"
  top: "ip1"
  dropout_param {
    dropout_ratio: 0.5
  }
}
layer {
  name: "ip2"
  type: "InnerProduct"
  bottom: "ip1"
  top: "ip2"
  inner_product_param {
    num_output: 98
    weight_filler {
      type: "xavier"
    }
    bias_filler {
      type: "constant"
    }
  }
}
layer {
  name: "relu6"
  type: "ReLU"
  bottom: "ip2"
  top: "ip2"
}
layer {
  name: "drop2"
  type: "Dropout"
  bottom: "ip2"
  top: "ip2"
  dropout_param {
    dropout_ratio: 0.5
  }
}
layer {
  name: "ip3"
  type: "InnerProduct"
  bottom: "ip2"
  top: "ip3"
  inner_product_param {
    num_output: 11
    weight_filler {
      type: "xavier"
    }
    bias_filler {
      type: "constant"
    }
  }
}
layer {
  name: "drop3"
  type: "Dropout"
  bottom: "ip3"
  top: "ip3"
  dropout_param {
    dropout_ratio: 0.5
  }
}
layer {
  name: "loss"
  type: "SoftmaxWithLoss"
  bottom: "ip3"
  bottom: "label"
  top: "loss"
}
I0522 07:46:51.257069  9392 layer_factory.hpp:77] Creating layer data_hdf5
I0522 07:46:51.257092  9392 net.cpp:106] Creating Layer data_hdf5
I0522 07:46:51.257107  9392 net.cpp:411] data_hdf5 -> data
I0522 07:46:51.257140  9392 net.cpp:411] data_hdf5 -> label
I0522 07:46:51.257174  9392 hdf5_data_layer.cpp:79] Loading list of HDF5 filenames from: /lustre/atlas/proj-shared/hep105/caffe_titan/minosmatch_nukecczdefs_127x50_x_unshifted_me1Bmc.trainlist
I0522 07:46:51.268036  9392 hdf5_data_layer.cpp:93] Number of HDF5 files: 15
I0522 07:46:51.278142  9392 hdf5.cpp:32] Datatype class: H5T_FLOAT
I0522 07:47:12.850683  9392 hdf5.cpp:35] Datatype class: H5T_INTEGER
I0522 07:47:12.862085  9392 net.cpp:150] Setting up data_hdf5
I0522 07:47:12.862123  9392 net.cpp:157] Top shape: 30 1 127 50 (190500)
I0522 07:47:12.862138  9392 net.cpp:157] Top shape: 30 (30)
I0522 07:47:12.862148  9392 net.cpp:165] Memory required for data: 762120
I0522 07:47:12.862160  9392 layer_factory.hpp:77] Creating layer conv1
I0522 07:47:12.862195  9392 net.cpp:106] Creating Layer conv1
I0522 07:47:12.862205  9392 net.cpp:454] conv1 <- data
I0522 07:47:12.862226  9392 net.cpp:411] conv1 -> conv1
I0522 07:47:15.927891  9392 net.cpp:150] Setting up conv1
I0522 07:47:15.927939  9392 net.cpp:157] Top shape: 30 12 120 48 (2073600)
I0522 07:47:15.927950  9392 net.cpp:165] Memory required for data: 9056520
I0522 07:47:15.927979  9392 layer_factory.hpp:77] Creating layer relu1
I0522 07:47:15.928000  9392 net.cpp:106] Creating Layer relu1
I0522 07:47:15.928011  9392 net.cpp:454] relu1 <- conv1
I0522 07:47:15.928025  9392 net.cpp:397] relu1 -> conv1 (in-place)
I0522 07:47:15.928575  9392 net.cpp:150] Setting up relu1
I0522 07:47:15.928592  9392 net.cpp:157] Top shape: 30 12 120 48 (2073600)
I0522 07:47:15.928603  9392 net.cpp:165] Memory required for data: 17350920
I0522 07:47:15.928613  9392 layer_factory.hpp:77] Creating layer pool1
I0522 07:47:15.928630  9392 net.cpp:106] Creating Layer pool1
I0522 07:47:15.928640  9392 net.cpp:454] pool1 <- conv1
I0522 07:47:15.928653  9392 net.cpp:411] pool1 -> pool1
I0522 07:47:15.928733  9392 net.cpp:150] Setting up pool1
I0522 07:47:15.928748  9392 net.cpp:157] Top shape: 30 12 60 48 (1036800)
I0522 07:47:15.928758  9392 net.cpp:165] Memory required for data: 21498120
I0522 07:47:15.928768  9392 layer_factory.hpp:77] Creating layer conv2
I0522 07:47:15.928791  9392 net.cpp:106] Creating Layer conv2
I0522 07:47:15.928802  9392 net.cpp:454] conv2 <- pool1
I0522 07:47:15.928817  9392 net.cpp:411] conv2 -> conv2
I0522 07:47:15.931498  9392 net.cpp:150] Setting up conv2
I0522 07:47:15.931525  9392 net.cpp:157] Top shape: 30 20 54 46 (1490400)
I0522 07:47:15.931535  9392 net.cpp:165] Memory required for data: 27459720
I0522 07:47:15.931555  9392 layer_factory.hpp:77] Creating layer relu2
I0522 07:47:15.931571  9392 net.cpp:106] Creating Layer relu2
I0522 07:47:15.931581  9392 net.cpp:454] relu2 <- conv2
I0522 07:47:15.931593  9392 net.cpp:397] relu2 -> conv2 (in-place)
I0522 07:47:15.931933  9392 net.cpp:150] Setting up relu2
I0522 07:47:15.931946  9392 net.cpp:157] Top shape: 30 20 54 46 (1490400)
I0522 07:47:15.931957  9392 net.cpp:165] Memory required for data: 33421320
I0522 07:47:15.931967  9392 layer_factory.hpp:77] Creating layer pool2
I0522 07:47:15.931979  9392 net.cpp:106] Creating Layer pool2
I0522 07:47:15.931989  9392 net.cpp:454] pool2 <- conv2
I0522 07:47:15.932003  9392 net.cpp:411] pool2 -> pool2
I0522 07:47:15.932083  9392 net.cpp:150] Setting up pool2
I0522 07:47:15.932097  9392 net.cpp:157] Top shape: 30 20 27 46 (745200)
I0522 07:47:15.932106  9392 net.cpp:165] Memory required for data: 36402120
I0522 07:47:15.932116  9392 layer_factory.hpp:77] Creating layer conv3
I0522 07:47:15.932133  9392 net.cpp:106] Creating Layer conv3
I0522 07:47:15.932144  9392 net.cpp:454] conv3 <- pool2
I0522 07:47:15.932158  9392 net.cpp:411] conv3 -> conv3
I0522 07:47:15.934129  9392 net.cpp:150] Setting up conv3
I0522 07:47:15.934152  9392 net.cpp:157] Top shape: 30 28 22 44 (813120)
I0522 07:47:15.934165  9392 net.cpp:165] Memory required for data: 39654600
I0522 07:47:15.934183  9392 layer_factory.hpp:77] Creating layer relu3
I0522 07:47:15.934200  9392 net.cpp:106] Creating Layer relu3
I0522 07:47:15.934209  9392 net.cpp:454] relu3 <- conv3
I0522 07:47:15.934221  9392 net.cpp:397] relu3 -> conv3 (in-place)
I0522 07:47:15.934694  9392 net.cpp:150] Setting up relu3
I0522 07:47:15.934710  9392 net.cpp:157] Top shape: 30 28 22 44 (813120)
I0522 07:47:15.934720  9392 net.cpp:165] Memory required for data: 42907080
I0522 07:47:15.934731  9392 layer_factory.hpp:77] Creating layer pool3
I0522 07:47:15.934743  9392 net.cpp:106] Creating Layer pool3
I0522 07:47:15.934753  9392 net.cpp:454] pool3 <- conv3
I0522 07:47:15.934765  9392 net.cpp:411] pool3 -> pool3
I0522 07:47:15.934834  9392 net.cpp:150] Setting up pool3
I0522 07:47:15.934846  9392 net.cpp:157] Top shape: 30 28 11 44 (406560)
I0522 07:47:15.934856  9392 net.cpp:165] Memory required for data: 44533320
I0522 07:47:15.934866  9392 layer_factory.hpp:77] Creating layer conv4
I0522 07:47:15.934882  9392 net.cpp:106] Creating Layer conv4
I0522 07:47:15.934892  9392 net.cpp:454] conv4 <- pool3
I0522 07:47:15.934906  9392 net.cpp:411] conv4 -> conv4
I0522 07:47:15.937624  9392 net.cpp:150] Setting up conv4
I0522 07:47:15.937652  9392 net.cpp:157] Top shape: 30 36 6 42 (272160)
I0522 07:47:15.937662  9392 net.cpp:165] Memory required for data: 45621960
I0522 07:47:15.937681  9392 layer_factory.hpp:77] Creating layer relu4
I0522 07:47:15.937695  9392 net.cpp:106] Creating Layer relu4
I0522 07:47:15.937705  9392 net.cpp:454] relu4 <- conv4
I0522 07:47:15.937718  9392 net.cpp:397] relu4 -> conv4 (in-place)
I0522 07:47:15.938184  9392 net.cpp:150] Setting up relu4
I0522 07:47:15.938200  9392 net.cpp:157] Top shape: 30 36 6 42 (272160)
I0522 07:47:15.938211  9392 net.cpp:165] Memory required for data: 46710600
I0522 07:47:15.938221  9392 layer_factory.hpp:77] Creating layer pool4
I0522 07:47:15.938235  9392 net.cpp:106] Creating Layer pool4
I0522 07:47:15.938244  9392 net.cpp:454] pool4 <- conv4
I0522 07:47:15.938257  9392 net.cpp:411] pool4 -> pool4
I0522 07:47:15.938325  9392 net.cpp:150] Setting up pool4
I0522 07:47:15.938338  9392 net.cpp:157] Top shape: 30 36 3 42 (136080)
I0522 07:47:15.938349  9392 net.cpp:165] Memory required for data: 47254920
I0522 07:47:15.938359  9392 layer_factory.hpp:77] Creating layer ip1
I0522 07:47:15.938380  9392 net.cpp:106] Creating Layer ip1
I0522 07:47:15.938390  9392 net.cpp:454] ip1 <- pool4
I0522 07:47:15.938402  9392 net.cpp:411] ip1 -> ip1
I0522 07:47:15.953809  9392 net.cpp:150] Setting up ip1
I0522 07:47:15.953832  9392 net.cpp:157] Top shape: 30 196 (5880)
I0522 07:47:15.953845  9392 net.cpp:165] Memory required for data: 47278440
I0522 07:47:15.953868  9392 layer_factory.hpp:77] Creating layer relu5
I0522 07:47:15.953882  9392 net.cpp:106] Creating Layer relu5
I0522 07:47:15.953892  9392 net.cpp:454] relu5 <- ip1
I0522 07:47:15.953905  9392 net.cpp:397] relu5 -> ip1 (in-place)
I0522 07:47:15.954247  9392 net.cpp:150] Setting up relu5
I0522 07:47:15.954262  9392 net.cpp:157] Top shape: 30 196 (5880)
I0522 07:47:15.954272  9392 net.cpp:165] Memory required for data: 47301960
I0522 07:47:15.954282  9392 layer_factory.hpp:77] Creating layer drop1
I0522 07:47:15.954305  9392 net.cpp:106] Creating Layer drop1
I0522 07:47:15.954316  9392 net.cpp:454] drop1 <- ip1
I0522 07:47:15.954329  9392 net.cpp:397] drop1 -> ip1 (in-place)
I0522 07:47:15.954387  9392 net.cpp:150] Setting up drop1
I0522 07:47:15.954401  9392 net.cpp:157] Top shape: 30 196 (5880)
I0522 07:47:15.954411  9392 net.cpp:165] Memory required for data: 47325480
I0522 07:47:15.954421  9392 layer_factory.hpp:77] Creating layer ip2
I0522 07:47:15.954438  9392 net.cpp:106] Creating Layer ip2
I0522 07:47:15.954448  9392 net.cpp:454] ip2 <- ip1
I0522 07:47:15.954462  9392 net.cpp:411] ip2 -> ip2
I0522 07:47:15.954923  9392 net.cpp:150] Setting up ip2
I0522 07:47:15.954936  9392 net.cpp:157] Top shape: 30 98 (2940)
I0522 07:47:15.954946  9392 net.cpp:165] Memory required for data: 47337240
I0522 07:47:15.954962  9392 layer_factory.hpp:77] Creating layer relu6
I0522 07:47:15.954972  9392 net.cpp:106] Creating Layer relu6
I0522 07:47:15.954982  9392 net.cpp:454] relu6 <- ip2
I0522 07:47:15.954994  9392 net.cpp:397] relu6 -> ip2 (in-place)
I0522 07:47:15.955518  9392 net.cpp:150] Setting up relu6
I0522 07:47:15.955534  9392 net.cpp:157] Top shape: 30 98 (2940)
I0522 07:47:15.955544  9392 net.cpp:165] Memory required for data: 47349000
I0522 07:47:15.955554  9392 layer_factory.hpp:77] Creating layer drop2
I0522 07:47:15.955567  9392 net.cpp:106] Creating Layer drop2
I0522 07:47:15.955577  9392 net.cpp:454] drop2 <- ip2
I0522 07:47:15.955590  9392 net.cpp:397] drop2 -> ip2 (in-place)
I0522 07:47:15.955631  9392 net.cpp:150] Setting up drop2
I0522 07:47:15.955646  9392 net.cpp:157] Top shape: 30 98 (2940)
I0522 07:47:15.955656  9392 net.cpp:165] Memory required for data: 47360760
I0522 07:47:15.955665  9392 layer_factory.hpp:77] Creating layer ip3
I0522 07:47:15.955678  9392 net.cpp:106] Creating Layer ip3
I0522 07:47:15.955687  9392 net.cpp:454] ip3 <- ip2
I0522 07:47:15.955700  9392 net.cpp:411] ip3 -> ip3
I0522 07:47:15.955919  9392 net.cpp:150] Setting up ip3
I0522 07:47:15.955934  9392 net.cpp:157] Top shape: 30 11 (330)
I0522 07:47:15.955943  9392 net.cpp:165] Memory required for data: 47362080
I0522 07:47:15.955958  9392 layer_factory.hpp:77] Creating layer drop3
I0522 07:47:15.955971  9392 net.cpp:106] Creating Layer drop3
I0522 07:47:15.955981  9392 net.cpp:454] drop3 <- ip3
I0522 07:47:15.955992  9392 net.cpp:397] drop3 -> ip3 (in-place)
I0522 07:47:15.956032  9392 net.cpp:150] Setting up drop3
I0522 07:47:15.956045  9392 net.cpp:157] Top shape: 30 11 (330)
I0522 07:47:15.956055  9392 net.cpp:165] Memory required for data: 47363400
I0522 07:47:15.956064  9392 layer_factory.hpp:77] Creating layer loss
I0522 07:47:15.956084  9392 net.cpp:106] Creating Layer loss
I0522 07:47:15.956094  9392 net.cpp:454] loss <- ip3
I0522 07:47:15.956104  9392 net.cpp:454] loss <- label
I0522 07:47:15.956116  9392 net.cpp:411] loss -> loss
I0522 07:47:15.956133  9392 layer_factory.hpp:77] Creating layer loss
…
I0522 07:47:15.958889  9392 solver.cpp:181] Creating test net (#0) specified by net file: /lustre/atlas/proj-shared/hep105/caffe_titan/caffe_workflow/logs_bslr/bs_30_lr_0.0010_2016-05-20T15.48.57.685382.prototxt
I0522 07:47:15.958961  9392 net.cpp:322] The NetState phase (1) differed from the phase (0) specified by a rule in layer data_hdf5
I0522 07:47:15.959316  9392 net.cpp:49] Initializing net from parameters: 
name: "caffe_test_127x50_x_unshifted"
state {
  phase: TEST
}
layer {
  name: "data_hdf5"
  type: "HDF5Data"
  top: "data"
  top: "label"
  include {
    phase: TEST
  }
  hdf5_data_param {
    source: "/lustre/atlas/proj-shared/hep105/caffe_titan/minosmatch_nukecczdefs_127x50_x_unshifted_me1Bmc.testlist"
    batch_size: 30
  }
}
layer {
  name: "conv1"
  type: "Convolution"
  bottom: "data"
  top: "conv1"
  convolution_param {
    num_output: 12
    pad: 0
    stride: 1
    weight_filler {
      type: "xavier"
    }
    bias_filler {
      type: "constant"
    }
    kernel_h: 8
    kernel_w: 3
  }
}
layer {
  name: "relu1"
  type: "ReLU"
  bottom: "conv1"
  top: "conv1"
}
layer {
  name: "pool1"
  type: "Pooling"
  bottom: "conv1"
  top: "pool1"
  pooling_param {
    pool: MAX
    kernel_h: 2
    kernel_w: 1
    stride_h: 2
    stride_w: 1
  }
}
layer {
  name: "conv2"
  type: "Convolution"
  bottom: "pool1"
  top: "conv2"
  convolution_param {
    num_output: 20
    pad: 0
    stride: 1
    weight_filler {
      type: "xavier"
    }
    bias_filler {
      type: "constant"
    }
    kernel_h: 7
    kernel_w: 3
  }
}
layer {
  name: "relu2"
  type: "ReLU"
  bottom: "conv2"
  top: "conv2"
}
layer {
  name: "pool2"
  type: "Pooling"
  bottom: "conv2"
  top: "pool2"
  pooling_param {
    pool: MAX
    kernel_h: 2
    kernel_w: 1
    stride_h: 2
    stride_w: 1
  }
}
layer {
  name: "conv3"
  type: "Convolution"
  bottom: "pool2"
  top: "conv3"
  convolution_param {
    num_output: 28
    pad: 0
    stride: 1
    weight_filler {
      type: "xavier"
    }
    bias_filler {
      type: "constant"
    }
    kernel_h: 6
    kernel_w: 3
  }
}
layer {
  name: "relu3"
  type: "ReLU"
  bottom: "conv3"
  top: "conv3"
}
layer {
  name: "pool3"
  type: "Pooling"
  bottom: "conv3"
  top: "pool3"
  pooling_param {
    pool: MAX
    kernel_h: 2
    kernel_w: 1
    stride_h: 2
    stride_w: 1
  }
}
layer {
  name: "conv4"
  type: "Convolution"
  bottom: "pool3"
  top: "conv4"
  convolution_param {
    num_output: 36
    pad: 0
    stride: 1
    weight_filler {
      type: "xavier"
    }
    bias_filler {
      type: "constant"
    }
    kernel_h: 6
    kernel_w: 3
  }
}
layer {
  name: "relu4"
  type: "ReLU"
  bottom: "conv4"
  top: "conv4"
}
layer {
  name: "pool4"
  type: "Pooling"
  bottom: "conv4"
  top: "pool4"
  pooling_param {
    pool: MAX
    kernel_h: 2
    kernel_w: 1
    stride_h: 2
    stride_w: 1
  }
}
layer {
  name: "ip1"
  type: "InnerProduct"
  bottom: "pool4"
  top: "ip1"
  inner_product_param {
    num_output: 196
    weight_filler {
      type: "xavier"
    }
    bias_filler {
      type: "constant"
    }
  }
}
layer {
  name: "relu5"
  type: "ReLU"
  bottom: "ip1"
  top: "ip1"
}
layer {
  name: "drop1"
  type: "Dropout"
  bottom: "ip1"
  top: "ip1"
  dropout_param {
    dropout_ratio: 0.5
  }
}
layer {
  name: "ip2"
  type: "InnerProduct"
  bottom: "ip1"
  top: "ip2"
  inner_product_param {
    num_output: 98
    weight_filler {
      type: "xavier"
    }
    bias_filler {
      type: "constant"
    }
  }
}
layer {
  name: "relu6"
  type: "ReLU"
  bottom: "ip2"
  top: "ip2"
}
layer {
  name: "drop2"
  type: "Dropout"
  bottom: "ip2"
  top: "ip2"
  dropout_param {
    dropout_ratio: 0.5
  }
}
layer {
  name: "ip3"
  type: "InnerProduct"
  bottom: "ip2"
  top: "ip3"
  inner_product_param {
    num_output: 11
    weight_filler {
      type: "xavier"
    }
    bias_filler {
      type: "constant"
    }
  }
}
layer {
  name: "drop3"
  type: "Dropout"
  bottom: "ip3"
  top: "ip3"
  dropout_param {
    dropout_ratio: 0.5
  }
}
layer {
  name: "accuracy"
  type: "Accuracy"
  bottom: "ip3"
  bottom: "label"
  top: "accuracy"
  include {
    phase: TEST
  }
}
layer {
  name: "loss"
  type: "SoftmaxWithLoss"
  bottom: "ip3"
  bottom: "label"
  top: "loss"
}
I0522 07:47:15.959506  9392 layer_factory.hpp:77] Creating layer data_hdf5
I0522 07:47:15.959522  9392 net.cpp:106] Creating Layer data_hdf5
I0522 07:47:15.959533  9392 net.cpp:411] data_hdf5 -> data
I0522 07:47:15.959550  9392 net.cpp:411] data_hdf5 -> label
I0522 07:47:15.959566  9392 hdf5_data_layer.cpp:79] Loading list of HDF5 filenames from: /lustre/atlas/proj-shared/hep105/caffe_titan/minosmatch_nukecczdefs_127x50_x_unshifted_me1Bmc.testlist
I0522 07:47:15.968478  9392 hdf5_data_layer.cpp:93] Number of HDF5 files: 3
I0522 07:47:37.320447  9392 net.cpp:150] Setting up data_hdf5
I0522 07:47:37.320613  9392 net.cpp:157] Top shape: 30 1 127 50 (190500)
I0522 07:47:37.320628  9392 net.cpp:157] Top shape: 30 (30)
I0522 07:47:37.320641  9392 net.cpp:165] Memory required for data: 762120
I0522 07:47:37.320654  9392 layer_factory.hpp:77] Creating layer label_data_hdf5_1_split
I0522 07:47:37.320683  9392 net.cpp:106] Creating Layer label_data_hdf5_1_split
I0522 07:47:37.320693  9392 net.cpp:454] label_data_hdf5_1_split <- label
I0522 07:47:37.320708  9392 net.cpp:411] label_data_hdf5_1_split -> label_data_hdf5_1_split_0
I0522 07:47:37.320729  9392 net.cpp:411] label_data_hdf5_1_split -> label_data_hdf5_1_split_1
I0522 07:47:37.320802  9392 net.cpp:150] Setting up label_data_hdf5_1_split
I0522 07:47:37.320816  9392 net.cpp:157] Top shape: 30 (30)
I0522 07:47:37.320827  9392 net.cpp:157] Top shape: 30 (30)
I0522 07:47:37.320837  9392 net.cpp:165] Memory required for data: 762360
I0522 07:47:37.320847  9392 layer_factory.hpp:77] Creating layer conv1
I0522 07:47:37.320869  9392 net.cpp:106] Creating Layer conv1
I0522 07:47:37.320879  9392 net.cpp:454] conv1 <- data
I0522 07:47:37.320893  9392 net.cpp:411] conv1 -> conv1
I0522 07:47:37.322851  9392 net.cpp:150] Setting up conv1
I0522 07:47:37.322875  9392 net.cpp:157] Top shape: 30 12 120 48 (2073600)
I0522 07:47:37.322887  9392 net.cpp:165] Memory required for data: 9056760
I0522 07:47:37.322907  9392 layer_factory.hpp:77] Creating layer relu1
I0522 07:47:37.322922  9392 net.cpp:106] Creating Layer relu1
I0522 07:47:37.322932  9392 net.cpp:454] relu1 <- conv1
I0522 07:47:37.322945  9392 net.cpp:397] relu1 -> conv1 (in-place)
I0522 07:47:37.323442  9392 net.cpp:150] Setting up relu1
I0522 07:47:37.323458  9392 net.cpp:157] Top shape: 30 12 120 48 (2073600)
I0522 07:47:37.323468  9392 net.cpp:165] Memory required for data: 17351160
I0522 07:47:37.323479  9392 layer_factory.hpp:77] Creating layer pool1
I0522 07:47:37.323494  9392 net.cpp:106] Creating Layer pool1
I0522 07:47:37.323504  9392 net.cpp:454] pool1 <- conv1
I0522 07:47:37.323518  9392 net.cpp:411] pool1 -> pool1
I0522 07:47:37.323591  9392 net.cpp:150] Setting up pool1
I0522 07:47:37.323606  9392 net.cpp:157] Top shape: 30 12 60 48 (1036800)
I0522 07:47:37.323616  9392 net.cpp:165] Memory required for data: 21498360
I0522 07:47:37.323626  9392 layer_factory.hpp:77] Creating layer conv2
I0522 07:47:37.323642  9392 net.cpp:106] Creating Layer conv2
I0522 07:47:37.323652  9392 net.cpp:454] conv2 <- pool1
I0522 07:47:37.323667  9392 net.cpp:411] conv2 -> conv2
I0522 07:47:37.325589  9392 net.cpp:150] Setting up conv2
I0522 07:47:37.325613  9392 net.cpp:157] Top shape: 30 20 54 46 (1490400)
I0522 07:47:37.325623  9392 net.cpp:165] Memory required for data: 27459960
I0522 07:47:37.325642  9392 layer_factory.hpp:77] Creating layer relu2
I0522 07:47:37.325655  9392 net.cpp:106] Creating Layer relu2
I0522 07:47:37.325665  9392 net.cpp:454] relu2 <- conv2
I0522 07:47:37.325678  9392 net.cpp:397] relu2 -> conv2 (in-place)
I0522 07:47:37.326009  9392 net.cpp:150] Setting up relu2
I0522 07:47:37.326023  9392 net.cpp:157] Top shape: 30 20 54 46 (1490400)
I0522 07:47:37.326033  9392 net.cpp:165] Memory required for data: 33421560
I0522 07:47:37.326043  9392 layer_factory.hpp:77] Creating layer pool2
I0522 07:47:37.326057  9392 net.cpp:106] Creating Layer pool2
I0522 07:47:37.326066  9392 net.cpp:454] pool2 <- conv2
I0522 07:47:37.326079  9392 net.cpp:411] pool2 -> pool2
I0522 07:47:37.326150  9392 net.cpp:150] Setting up pool2
I0522 07:47:37.326164  9392 net.cpp:157] Top shape: 30 20 27 46 (745200)
I0522 07:47:37.326174  9392 net.cpp:165] Memory required for data: 36402360
I0522 07:47:37.326184  9392 layer_factory.hpp:77] Creating layer conv3
I0522 07:47:37.326201  9392 net.cpp:106] Creating Layer conv3
I0522 07:47:37.326212  9392 net.cpp:454] conv3 <- pool2
I0522 07:47:37.326226  9392 net.cpp:411] conv3 -> conv3
I0522 07:47:37.328215  9392 net.cpp:150] Setting up conv3
I0522 07:47:37.328238  9392 net.cpp:157] Top shape: 30 28 22 44 (813120)
I0522 07:47:37.328250  9392 net.cpp:165] Memory required for data: 39654840
I0522 07:47:37.328284  9392 layer_factory.hpp:77] Creating layer relu3
I0522 07:47:37.328297  9392 net.cpp:106] Creating Layer relu3
I0522 07:47:37.328307  9392 net.cpp:454] relu3 <- conv3
I0522 07:47:37.328321  9392 net.cpp:397] relu3 -> conv3 (in-place)
I0522 07:47:37.328795  9392 net.cpp:150] Setting up relu3
I0522 07:47:37.328810  9392 net.cpp:157] Top shape: 30 28 22 44 (813120)
I0522 07:47:37.328822  9392 net.cpp:165] Memory required for data: 42907320
I0522 07:47:37.328832  9392 layer_factory.hpp:77] Creating layer pool3
I0522 07:47:37.328845  9392 net.cpp:106] Creating Layer pool3
I0522 07:47:37.328855  9392 net.cpp:454] pool3 <- conv3
I0522 07:47:37.328868  9392 net.cpp:411] pool3 -> pool3
I0522 07:47:37.328940  9392 net.cpp:150] Setting up pool3
I0522 07:47:37.328953  9392 net.cpp:157] Top shape: 30 28 11 44 (406560)
I0522 07:47:37.328963  9392 net.cpp:165] Memory required for data: 44533560
I0522 07:47:37.328972  9392 layer_factory.hpp:77] Creating layer conv4
I0522 07:47:37.328990  9392 net.cpp:106] Creating Layer conv4
I0522 07:47:37.329000  9392 net.cpp:454] conv4 <- pool3
I0522 07:47:37.329015  9392 net.cpp:411] conv4 -> conv4
I0522 07:47:37.331071  9392 net.cpp:150] Setting up conv4
I0522 07:47:37.331094  9392 net.cpp:157] Top shape: 30 36 6 42 (272160)
I0522 07:47:37.331107  9392 net.cpp:165] Memory required for data: 45622200
I0522 07:47:37.331122  9392 layer_factory.hpp:77] Creating layer relu4
I0522 07:47:37.331136  9392 net.cpp:106] Creating Layer relu4
I0522 07:47:37.331146  9392 net.cpp:454] relu4 <- conv4
I0522 07:47:37.331158  9392 net.cpp:397] relu4 -> conv4 (in-place)
I0522 07:47:37.331630  9392 net.cpp:150] Setting up relu4
I0522 07:47:37.331646  9392 net.cpp:157] Top shape: 30 36 6 42 (272160)
I0522 07:47:37.331656  9392 net.cpp:165] Memory required for data: 46710840
I0522 07:47:37.331666  9392 layer_factory.hpp:77] Creating layer pool4
I0522 07:47:37.331679  9392 net.cpp:106] Creating Layer pool4
I0522 07:47:37.331689  9392 net.cpp:454] pool4 <- conv4
I0522 07:47:37.331703  9392 net.cpp:411] pool4 -> pool4
I0522 07:47:37.331784  9392 net.cpp:150] Setting up pool4
I0522 07:47:37.331796  9392 net.cpp:157] Top shape: 30 36 3 42 (136080)
I0522 07:47:37.331806  9392 net.cpp:165] Memory required for data: 47255160
I0522 07:47:37.331815  9392 layer_factory.hpp:77] Creating layer ip1
I0522 07:47:37.331830  9392 net.cpp:106] Creating Layer ip1
I0522 07:47:37.331840  9392 net.cpp:454] ip1 <- pool4
I0522 07:47:37.331854  9392 net.cpp:411] ip1 -> ip1
I0522 07:47:37.347324  9392 net.cpp:150] Setting up ip1
I0522 07:47:37.347352  9392 net.cpp:157] Top shape: 30 196 (5880)
I0522 07:47:37.347364  9392 net.cpp:165] Memory required for data: 47278680
I0522 07:47:37.347386  9392 layer_factory.hpp:77] Creating layer relu5
I0522 07:47:37.347401  9392 net.cpp:106] Creating Layer relu5
I0522 07:47:37.347412  9392 net.cpp:454] relu5 <- ip1
I0522 07:47:37.347425  9392 net.cpp:397] relu5 -> ip1 (in-place)
I0522 07:47:37.347777  9392 net.cpp:150] Setting up relu5
I0522 07:47:37.347791  9392 net.cpp:157] Top shape: 30 196 (5880)
I0522 07:47:37.347801  9392 net.cpp:165] Memory required for data: 47302200
I0522 07:47:37.347811  9392 layer_factory.hpp:77] Creating layer drop1
I0522 07:47:37.347829  9392 net.cpp:106] Creating Layer drop1
I0522 07:47:37.347839  9392 net.cpp:454] drop1 <- ip1
I0522 07:47:37.347852  9392 net.cpp:397] drop1 -> ip1 (in-place)
I0522 07:47:37.347898  9392 net.cpp:150] Setting up drop1
I0522 07:47:37.347910  9392 net.cpp:157] Top shape: 30 196 (5880)
I0522 07:47:37.347921  9392 net.cpp:165] Memory required for data: 47325720
I0522 07:47:37.347931  9392 layer_factory.hpp:77] Creating layer ip2
I0522 07:47:37.347945  9392 net.cpp:106] Creating Layer ip2
I0522 07:47:37.347954  9392 net.cpp:454] ip2 <- ip1
I0522 07:47:37.347968  9392 net.cpp:411] ip2 -> ip2
I0522 07:47:37.348448  9392 net.cpp:150] Setting up ip2
I0522 07:47:37.348461  9392 net.cpp:157] Top shape: 30 98 (2940)
I0522 07:47:37.348471  9392 net.cpp:165] Memory required for data: 47337480
I0522 07:47:37.348486  9392 layer_factory.hpp:77] Creating layer relu6
I0522 07:47:37.348512  9392 net.cpp:106] Creating Layer relu6
I0522 07:47:37.348522  9392 net.cpp:454] relu6 <- ip2
I0522 07:47:37.348534  9392 net.cpp:397] relu6 -> ip2 (in-place)
I0522 07:47:37.349071  9392 net.cpp:150] Setting up relu6
I0522 07:47:37.349088  9392 net.cpp:157] Top shape: 30 98 (2940)
I0522 07:47:37.349097  9392 net.cpp:165] Memory required for data: 47349240
I0522 07:47:37.349107  9392 layer_factory.hpp:77] Creating layer drop2
I0522 07:47:37.349120  9392 net.cpp:106] Creating Layer drop2
I0522 07:47:37.349130  9392 net.cpp:454] drop2 <- ip2
I0522 07:47:37.349143  9392 net.cpp:397] drop2 -> ip2 (in-place)
I0522 07:47:37.349186  9392 net.cpp:150] Setting up drop2
I0522 07:47:37.349200  9392 net.cpp:157] Top shape: 30 98 (2940)
I0522 07:47:37.349210  9392 net.cpp:165] Memory required for data: 47361000
I0522 07:47:37.349220  9392 layer_factory.hpp:77] Creating layer ip3
I0522 07:47:37.349233  9392 net.cpp:106] Creating Layer ip3
I0522 07:47:37.349243  9392 net.cpp:454] ip3 <- ip2
I0522 07:47:37.349257  9392 net.cpp:411] ip3 -> ip3
I0522 07:47:37.349483  9392 net.cpp:150] Setting up ip3
I0522 07:47:37.349495  9392 net.cpp:157] Top shape: 30 11 (330)
I0522 07:47:37.349505  9392 net.cpp:165] Memory required for data: 47362320
I0522 07:47:37.349520  9392 layer_factory.hpp:77] Creating layer drop3
I0522 07:47:37.349534  9392 net.cpp:106] Creating Layer drop3
I0522 07:47:37.349542  9392 net.cpp:454] drop3 <- ip3
I0522 07:47:37.349555  9392 net.cpp:397] drop3 -> ip3 (in-place)
I0522 07:47:37.349597  9392 net.cpp:150] Setting up drop3
I0522 07:47:37.349609  9392 net.cpp:157] Top shape: 30 11 (330)
I0522 07:47:37.349620  9392 net.cpp:165] Memory required for data: 47363640
I0522 07:47:37.349630  9392 layer_factory.hpp:77] Creating layer ip3_drop3_0_split
I0522 07:47:37.349643  9392 net.cpp:106] Creating Layer ip3_drop3_0_split
I0522 07:47:37.349653  9392 net.cpp:454] ip3_drop3_0_split <- ip3
I0522 07:47:37.349666  9392 net.cpp:411] ip3_drop3_0_split -> ip3_drop3_0_split_0
I0522 07:47:37.349681  9392 net.cpp:411] ip3_drop3_0_split -> ip3_drop3_0_split_1
I0522 07:47:37.349756  9392 net.cpp:150] Setting up ip3_drop3_0_split
I0522 07:47:37.349769  9392 net.cpp:157] Top shape: 30 11 (330)
I0522 07:47:37.349781  9392 net.cpp:157] Top shape: 30 11 (330)
I0522 07:47:37.349792  9392 net.cpp:165] Memory required for data: 47366280
I0522 07:47:37.349802  9392 layer_factory.hpp:77] Creating layer accuracy
I0522 07:47:37.349823  9392 net.cpp:106] Creating Layer accuracy
I0522 07:47:37.349833  9392 net.cpp:454] accuracy <- ip3_drop3_0_split_0
I0522 07:47:37.349844  9392 net.cpp:454] accuracy <- label_data_hdf5_1_split_0
I0522 07:47:37.349858  9392 net.cpp:411] accuracy -> accuracy
…
