…
I0527 05:45:45.523066  5661 net.cpp:322] The NetState phase (0) differed from the phase (1) specified by a rule in layer data_hdf5
I0527 05:45:45.523130  5661 net.cpp:322] The NetState phase (0) differed from the phase (1) specified by a rule in layer accuracy
I0527 05:45:45.523514  5661 net.cpp:49] Initializing net from parameters: 
name: "caffe_test_127x50_x_unshifted"
state {
  phase: TRAIN
}
layer {
  name: "data_hdf5"
  type: "HDF5Data"
  top: "data"
  top: "label"
  include {
    phase: TRAIN
  }
  hdf5_data_param {
    source: "/lustre/atlas/proj-shared/hep105/caffe_titan/minosmatch_nukecczdefs_127x50_x_unshifted_me1Bmc.trainlist"
    batch_size: 30
  }
}
layer {
  name: "conv1"
  type: "Convolution"
  bottom: "data"
  top: "conv1"
  convolution_param {
    num_output: 12
    pad: 0
    stride: 1
    weight_filler {
      type: "xavier"
    }
    bias_filler {
      type: "constant"
    }
    kernel_h: 8
    kernel_w: 3
  }
}
layer {
  name: "relu1"
  type: "ReLU"
  bottom: "conv1"
  top: "conv1"
}
layer {
  name: "pool1"
  type: "Pooling"
  bottom: "conv1"
  top: "pool1"
  pooling_param {
    pool: MAX
    kernel_h: 2
    kernel_w: 1
    stride_h: 2
    stride_w: 1
  }
}
layer {
  name: "conv2"
  type: "Convolution"
  bottom: "pool1"
  top: "conv2"
  convolution_param {
    num_output: 20
    pad: 0
    stride: 1
    weight_filler {
      type: "xavier"
    }
    bias_filler {
      type: "constant"
    }
    kernel_h: 7
    kernel_w: 3
  }
}
layer {
  name: "relu2"
  type: "ReLU"
  bottom: "conv2"
  top: "conv2"
}
layer {
  name: "pool2"
  type: "Pooling"
  bottom: "conv2"
  top: "pool2"
  pooling_param {
    pool: MAX
    kernel_h: 2
    kernel_w: 1
    stride_h: 2
    stride_w: 1
  }
}
layer {
  name: "conv3"
  type: "Convolution"
  bottom: "pool2"
  top: "conv3"
  convolution_param {
    num_output: 28
    pad: 0
    stride: 1
    weight_filler {
      type: "xavier"
    }
    bias_filler {
      type: "constant"
    }
    kernel_h: 6
    kernel_w: 3
  }
}
layer {
  name: "relu3"
  type: "ReLU"
  bottom: "conv3"
  top: "conv3"
}
layer {
  name: "pool3"
  type: "Pooling"
  bottom: "conv3"
  top: "pool3"
  pooling_param {
    pool: MAX
    kernel_h: 2
    kernel_w: 1
    stride_h: 2
    stride_w: 1
  }
}
layer {
  name: "conv4"
  type: "Convolution"
  bottom: "pool3"
  top: "conv4"
  convolution_param {
    num_output: 36
    pad: 0
    stride: 1
    weight_filler {
      type: "xavier"
    }
    bias_filler {
      type: "constant"
    }
    kernel_h: 6
    kernel_w: 3
  }
}
layer {
  name: "relu4"
  type: "ReLU"
  bottom: "conv4"
  top: "conv4"
}
layer {
  name: "pool4"
  type: "Pooling"
  bottom: "conv4"
  top: "pool4"
  pooling_param {
    pool: MAX
    kernel_h: 2
    kernel_w: 1
    stride_h: 2
    stride_w: 1
  }
}
layer {
  name: "ip1"
  type: "InnerProduct"
  bottom: "pool4"
  top: "ip1"
  inner_product_param {
    num_output: 196
    weight_filler {
      type: "xavier"
    }
    bias_filler {
      type: "constant"
    }
  }
}
layer {
  name: "relu5"
  type: "ReLU"
  bottom: "ip1"
  top: "ip1"
}
layer {
  name: "drop1"
  type: "Dropout"
  bottom: "ip1"
  top: "ip1"
  dropout_param {
    dropout_ratio: 0.5
  }
}
layer {
  name: "ip2"
  type: "InnerProduct"
  bottom: "ip1"
  top: "ip2"
  inner_product_param {
    num_output: 98
    weight_filler {
      type: "xavier"
    }
    bias_filler {
      type: "constant"
    }
  }
}
layer {
  name: "relu6"
  type: "ReLU"
  bottom: "ip2"
  top: "ip2"
}
layer {
  name: "drop2"
  type: "Dropout"
  bottom: "ip2"
  top: "ip2"
  dropout_param {
    dropout_ratio: 0.5
  }
}
layer {
  name: "ip3"
  type: "InnerProduct"
  bottom: "ip2"
  top: "ip3"
  inner_product_param {
    num_output: 11
    weight_filler {
      type: "xavier"
    }
    bias_filler {
      type: "constant"
    }
  }
}
layer {
  name: "drop3"
  type: "Dropout"
  bottom: "ip3"
  top: "ip3"
  dropout_param {
    dropout_ratio: 0.5
  }
}
layer {
  name: "loss"
  type: "SoftmaxWithLoss"
  bottom: "ip3"
  bottom: "label"
  top: "loss"
}
I0527 05:45:45.523721  5661 layer_factory.hpp:77] Creating layer data_hdf5
I0527 05:45:45.523751  5661 net.cpp:106] Creating Layer data_hdf5
I0527 05:45:45.523775  5661 net.cpp:411] data_hdf5 -> data
I0527 05:45:45.523808  5661 net.cpp:411] data_hdf5 -> label
I0527 05:45:45.523846  5661 hdf5_data_layer.cpp:79] Loading list of HDF5 filenames from: /lustre/atlas/proj-shared/hep105/caffe_titan/minosmatch_nukecczdefs_127x50_x_unshifted_me1Bmc.trainlist
I0527 05:45:45.525362  5661 hdf5_data_layer.cpp:93] Number of HDF5 files: 15
I0527 05:45:45.527760  5661 hdf5.cpp:32] Datatype class: H5T_FLOAT
I0527 05:46:07.041257  5661 hdf5.cpp:35] Datatype class: H5T_INTEGER
I0527 05:46:07.046524  5661 net.cpp:150] Setting up data_hdf5
I0527 05:46:07.046566  5661 net.cpp:157] Top shape: 30 1 127 50 (190500)
I0527 05:46:07.046582  5661 net.cpp:157] Top shape: 30 (30)
I0527 05:46:07.046596  5661 net.cpp:165] Memory required for data: 762120
I0527 05:46:07.046614  5661 layer_factory.hpp:77] Creating layer conv1
I0527 05:46:07.046661  5661 net.cpp:106] Creating Layer conv1
I0527 05:46:07.046675  5661 net.cpp:454] conv1 <- data
I0527 05:46:07.046700  5661 net.cpp:411] conv1 -> conv1
I0527 05:46:07.840188  5661 net.cpp:150] Setting up conv1
I0527 05:46:07.840240  5661 net.cpp:157] Top shape: 30 12 120 48 (2073600)
I0527 05:46:07.840255  5661 net.cpp:165] Memory required for data: 9056520
I0527 05:46:07.840286  5661 layer_factory.hpp:77] Creating layer relu1
I0527 05:46:07.840307  5661 net.cpp:106] Creating Layer relu1
I0527 05:46:07.840327  5661 net.cpp:454] relu1 <- conv1
I0527 05:46:07.840343  5661 net.cpp:397] relu1 -> conv1 (in-place)
I0527 05:46:07.840894  5661 net.cpp:150] Setting up relu1
I0527 05:46:07.840917  5661 net.cpp:157] Top shape: 30 12 120 48 (2073600)
I0527 05:46:07.840930  5661 net.cpp:165] Memory required for data: 17350920
I0527 05:46:07.840947  5661 layer_factory.hpp:77] Creating layer pool1
I0527 05:46:07.840975  5661 net.cpp:106] Creating Layer pool1
I0527 05:46:07.840988  5661 net.cpp:454] pool1 <- conv1
I0527 05:46:07.841006  5661 net.cpp:411] pool1 -> pool1
I0527 05:46:07.841099  5661 net.cpp:150] Setting up pool1
I0527 05:46:07.841117  5661 net.cpp:157] Top shape: 30 12 60 48 (1036800)
I0527 05:46:07.841132  5661 net.cpp:165] Memory required for data: 21498120
I0527 05:46:07.841155  5661 layer_factory.hpp:77] Creating layer conv2
I0527 05:46:07.841178  5661 net.cpp:106] Creating Layer conv2
I0527 05:46:07.841192  5661 net.cpp:454] conv2 <- pool1
I0527 05:46:07.841210  5661 net.cpp:411] conv2 -> conv2
I0527 05:46:07.843897  5661 net.cpp:150] Setting up conv2
I0527 05:46:07.843929  5661 net.cpp:157] Top shape: 30 20 54 46 (1490400)
I0527 05:46:07.843945  5661 net.cpp:165] Memory required for data: 27459720
I0527 05:46:07.843972  5661 layer_factory.hpp:77] Creating layer relu2
I0527 05:46:07.844000  5661 net.cpp:106] Creating Layer relu2
I0527 05:46:07.844014  5661 net.cpp:454] relu2 <- conv2
I0527 05:46:07.844030  5661 net.cpp:397] relu2 -> conv2 (in-place)
I0527 05:46:07.844386  5661 net.cpp:150] Setting up relu2
I0527 05:46:07.844408  5661 net.cpp:157] Top shape: 30 20 54 46 (1490400)
I0527 05:46:07.844420  5661 net.cpp:165] Memory required for data: 33421320
I0527 05:46:07.844435  5661 layer_factory.hpp:77] Creating layer pool2
I0527 05:46:07.844457  5661 net.cpp:106] Creating Layer pool2
I0527 05:46:07.844471  5661 net.cpp:454] pool2 <- conv2
I0527 05:46:07.844486  5661 net.cpp:411] pool2 -> pool2
I0527 05:46:07.844583  5661 net.cpp:150] Setting up pool2
I0527 05:46:07.844600  5661 net.cpp:157] Top shape: 30 20 27 46 (745200)
I0527 05:46:07.844615  5661 net.cpp:165] Memory required for data: 36402120
I0527 05:46:07.844635  5661 layer_factory.hpp:77] Creating layer conv3
I0527 05:46:07.844655  5661 net.cpp:106] Creating Layer conv3
I0527 05:46:07.844676  5661 net.cpp:454] conv3 <- pool2
I0527 05:46:07.844693  5661 net.cpp:411] conv3 -> conv3
I0527 05:46:07.846681  5661 net.cpp:150] Setting up conv3
I0527 05:46:07.846705  5661 net.cpp:157] Top shape: 30 28 22 44 (813120)
I0527 05:46:07.846726  5661 net.cpp:165] Memory required for data: 39654600
I0527 05:46:07.846748  5661 layer_factory.hpp:77] Creating layer relu3
I0527 05:46:07.846771  5661 net.cpp:106] Creating Layer relu3
I0527 05:46:07.846794  5661 net.cpp:454] relu3 <- conv3
I0527 05:46:07.846810  5661 net.cpp:397] relu3 -> conv3 (in-place)
I0527 05:46:07.847312  5661 net.cpp:150] Setting up relu3
I0527 05:46:07.847337  5661 net.cpp:157] Top shape: 30 28 22 44 (813120)
I0527 05:46:07.847350  5661 net.cpp:165] Memory required for data: 42907080
I0527 05:46:07.847367  5661 layer_factory.hpp:77] Creating layer pool3
I0527 05:46:07.847383  5661 net.cpp:106] Creating Layer pool3
I0527 05:46:07.847405  5661 net.cpp:454] pool3 <- conv3
I0527 05:46:07.847421  5661 net.cpp:411] pool3 -> pool3
I0527 05:46:07.847503  5661 net.cpp:150] Setting up pool3
I0527 05:46:07.847525  5661 net.cpp:157] Top shape: 30 28 11 44 (406560)
I0527 05:46:07.847538  5661 net.cpp:165] Memory required for data: 44533320
I0527 05:46:07.847553  5661 layer_factory.hpp:77] Creating layer conv4
I0527 05:46:07.847573  5661 net.cpp:106] Creating Layer conv4
I0527 05:46:07.847592  5661 net.cpp:454] conv4 <- pool3
I0527 05:46:07.847609  5661 net.cpp:411] conv4 -> conv4
I0527 05:46:07.850340  5661 net.cpp:150] Setting up conv4
I0527 05:46:07.850371  5661 net.cpp:157] Top shape: 30 36 6 42 (272160)
I0527 05:46:07.850388  5661 net.cpp:165] Memory required for data: 45621960
I0527 05:46:07.850406  5661 layer_factory.hpp:77] Creating layer relu4
I0527 05:46:07.850427  5661 net.cpp:106] Creating Layer relu4
I0527 05:46:07.850453  5661 net.cpp:454] relu4 <- conv4
I0527 05:46:07.850471  5661 net.cpp:397] relu4 -> conv4 (in-place)
I0527 05:46:07.850970  5661 net.cpp:150] Setting up relu4
I0527 05:46:07.850992  5661 net.cpp:157] Top shape: 30 36 6 42 (272160)
I0527 05:46:07.851006  5661 net.cpp:165] Memory required for data: 46710600
I0527 05:46:07.851022  5661 layer_factory.hpp:77] Creating layer pool4
I0527 05:46:07.851037  5661 net.cpp:106] Creating Layer pool4
I0527 05:46:07.851059  5661 net.cpp:454] pool4 <- conv4
I0527 05:46:07.851075  5661 net.cpp:411] pool4 -> pool4
I0527 05:46:07.851158  5661 net.cpp:150] Setting up pool4
I0527 05:46:07.851176  5661 net.cpp:157] Top shape: 30 36 3 42 (136080)
I0527 05:46:07.851189  5661 net.cpp:165] Memory required for data: 47254920
I0527 05:46:07.851204  5661 layer_factory.hpp:77] Creating layer ip1
I0527 05:46:07.851233  5661 net.cpp:106] Creating Layer ip1
I0527 05:46:07.851245  5661 net.cpp:454] ip1 <- pool4
I0527 05:46:07.851263  5661 net.cpp:411] ip1 -> ip1
I0527 05:46:07.866682  5661 net.cpp:150] Setting up ip1
I0527 05:46:07.866714  5661 net.cpp:157] Top shape: 30 196 (5880)
I0527 05:46:07.866735  5661 net.cpp:165] Memory required for data: 47278440
I0527 05:46:07.866762  5661 layer_factory.hpp:77] Creating layer relu5
I0527 05:46:07.866785  5661 net.cpp:106] Creating Layer relu5
I0527 05:46:07.866808  5661 net.cpp:454] relu5 <- ip1
I0527 05:46:07.866825  5661 net.cpp:397] relu5 -> ip1 (in-place)
I0527 05:46:07.867189  5661 net.cpp:150] Setting up relu5
I0527 05:46:07.867209  5661 net.cpp:157] Top shape: 30 196 (5880)
I0527 05:46:07.867223  5661 net.cpp:165] Memory required for data: 47301960
I0527 05:46:07.867238  5661 layer_factory.hpp:77] Creating layer drop1
I0527 05:46:07.867269  5661 net.cpp:106] Creating Layer drop1
I0527 05:46:07.867283  5661 net.cpp:454] drop1 <- ip1
I0527 05:46:07.867298  5661 net.cpp:397] drop1 -> ip1 (in-place)
I0527 05:46:07.867372  5661 net.cpp:150] Setting up drop1
I0527 05:46:07.867396  5661 net.cpp:157] Top shape: 30 196 (5880)
I0527 05:46:07.867409  5661 net.cpp:165] Memory required for data: 47325480
I0527 05:46:07.867421  5661 layer_factory.hpp:77] Creating layer ip2
I0527 05:46:07.867445  5661 net.cpp:106] Creating Layer ip2
I0527 05:46:07.867465  5661 net.cpp:454] ip2 <- ip1
I0527 05:46:07.867480  5661 net.cpp:411] ip2 -> ip2
I0527 05:46:07.867966  5661 net.cpp:150] Setting up ip2
I0527 05:46:07.867985  5661 net.cpp:157] Top shape: 30 98 (2940)
I0527 05:46:07.867997  5661 net.cpp:165] Memory required for data: 47337240
I0527 05:46:07.868018  5661 layer_factory.hpp:77] Creating layer relu6
I0527 05:46:07.868041  5661 net.cpp:106] Creating Layer relu6
I0527 05:46:07.868054  5661 net.cpp:454] relu6 <- ip2
I0527 05:46:07.868069  5661 net.cpp:397] relu6 -> ip2 (in-place)
I0527 05:46:07.868614  5661 net.cpp:150] Setting up relu6
I0527 05:46:07.868638  5661 net.cpp:157] Top shape: 30 98 (2940)
I0527 05:46:07.868651  5661 net.cpp:165] Memory required for data: 47349000
I0527 05:46:07.868667  5661 layer_factory.hpp:77] Creating layer drop2
I0527 05:46:07.868690  5661 net.cpp:106] Creating Layer drop2
I0527 05:46:07.868705  5661 net.cpp:454] drop2 <- ip2
I0527 05:46:07.868721  5661 net.cpp:397] drop2 -> ip2 (in-place)
I0527 05:46:07.868769  5661 net.cpp:150] Setting up drop2
I0527 05:46:07.868793  5661 net.cpp:157] Top shape: 30 98 (2940)
I0527 05:46:07.868806  5661 net.cpp:165] Memory required for data: 47360760
I0527 05:46:07.868820  5661 layer_factory.hpp:77] Creating layer ip3
I0527 05:46:07.868836  5661 net.cpp:106] Creating Layer ip3
I0527 05:46:07.868852  5661 net.cpp:454] ip3 <- ip2
I0527 05:46:07.868875  5661 net.cpp:411] ip3 -> ip3
I0527 05:46:07.869102  5661 net.cpp:150] Setting up ip3
I0527 05:46:07.869122  5661 net.cpp:157] Top shape: 30 11 (330)
I0527 05:46:07.869134  5661 net.cpp:165] Memory required for data: 47362080
I0527 05:46:07.869154  5661 layer_factory.hpp:77] Creating layer drop3
I0527 05:46:07.869176  5661 net.cpp:106] Creating Layer drop3
I0527 05:46:07.869189  5661 net.cpp:454] drop3 <- ip3
I0527 05:46:07.869205  5661 net.cpp:397] drop3 -> ip3 (in-place)
I0527 05:46:07.869252  5661 net.cpp:150] Setting up drop3
I0527 05:46:07.869274  5661 net.cpp:157] Top shape: 30 11 (330)
I0527 05:46:07.869287  5661 net.cpp:165] Memory required for data: 47363400
I0527 05:46:07.869307  5661 layer_factory.hpp:77] Creating layer loss
I0527 05:46:07.869328  5661 net.cpp:106] Creating Layer loss
I0527 05:46:07.869344  5661 net.cpp:454] loss <- ip3
I0527 05:46:07.869357  5661 net.cpp:454] loss <- label
I0527 05:46:07.869379  5661 net.cpp:411] loss -> loss
I0527 05:46:07.869400  5661 layer_factory.hpp:77] Creating layer loss
…
I0527 05:46:07.872135  5661 solver.cpp:181] Creating test net (#0) specified by net file: /lustre/atlas/proj-shared/hep105/caffe_titan/caffe_workflow/logs_bslr/bs_30_lr_0.0050_2016-05-20T15.49.00.709235.prototxt
I0527 05:46:07.872215  5661 net.cpp:322] The NetState phase (1) differed from the phase (0) specified by a rule in layer data_hdf5
I0527 05:46:07.872596  5661 net.cpp:49] Initializing net from parameters: 
name: "caffe_test_127x50_x_unshifted"
state {
  phase: TEST
}
layer {
  name: "data_hdf5"
  type: "HDF5Data"
  top: "data"
  top: "label"
  include {
    phase: TEST
  }
  hdf5_data_param {
    source: "/lustre/atlas/proj-shared/hep105/caffe_titan/minosmatch_nukecczdefs_127x50_x_unshifted_me1Bmc.testlist"
    batch_size: 30
  }
}
layer {
  name: "conv1"
  type: "Convolution"
  bottom: "data"
  top: "conv1"
  convolution_param {
    num_output: 12
    pad: 0
    stride: 1
    weight_filler {
      type: "xavier"
    }
    bias_filler {
      type: "constant"
    }
    kernel_h: 8
    kernel_w: 3
  }
}
layer {
  name: "relu1"
  type: "ReLU"
  bottom: "conv1"
  top: "conv1"
}
layer {
  name: "pool1"
  type: "Pooling"
  bottom: "conv1"
  top: "pool1"
  pooling_param {
    pool: MAX
    kernel_h: 2
    kernel_w: 1
    stride_h: 2
    stride_w: 1
  }
}
layer {
  name: "conv2"
  type: "Convolution"
  bottom: "pool1"
  top: "conv2"
  convolution_param {
    num_output: 20
    pad: 0
    stride: 1
    weight_filler {
      type: "xavier"
    }
    bias_filler {
      type: "constant"
    }
    kernel_h: 7
    kernel_w: 3
  }
}
layer {
  name: "relu2"
  type: "ReLU"
  bottom: "conv2"
  top: "conv2"
}
layer {
  name: "pool2"
  type: "Pooling"
  bottom: "conv2"
  top: "pool2"
  pooling_param {
    pool: MAX
    kernel_h: 2
    kernel_w: 1
    stride_h: 2
    stride_w: 1
  }
}
layer {
  name: "conv3"
  type: "Convolution"
  bottom: "pool2"
  top: "conv3"
  convolution_param {
    num_output: 28
    pad: 0
    stride: 1
    weight_filler {
      type: "xavier"
    }
    bias_filler {
      type: "constant"
    }
    kernel_h: 6
    kernel_w: 3
  }
}
layer {
  name: "relu3"
  type: "ReLU"
  bottom: "conv3"
  top: "conv3"
}
layer {
  name: "pool3"
  type: "Pooling"
  bottom: "conv3"
  top: "pool3"
  pooling_param {
    pool: MAX
    kernel_h: 2
    kernel_w: 1
    stride_h: 2
    stride_w: 1
  }
}
layer {
  name: "conv4"
  type: "Convolution"
  bottom: "pool3"
  top: "conv4"
  convolution_param {
    num_output: 36
    pad: 0
    stride: 1
    weight_filler {
      type: "xavier"
    }
    bias_filler {
      type: "constant"
    }
    kernel_h: 6
    kernel_w: 3
  }
}
layer {
  name: "relu4"
  type: "ReLU"
  bottom: "conv4"
  top: "conv4"
}
layer {
  name: "pool4"
  type: "Pooling"
  bottom: "conv4"
  top: "pool4"
  pooling_param {
    pool: MAX
    kernel_h: 2
    kernel_w: 1
    stride_h: 2
    stride_w: 1
  }
}
layer {
  name: "ip1"
  type: "InnerProduct"
  bottom: "pool4"
  top: "ip1"
  inner_product_param {
    num_output: 196
    weight_filler {
      type: "xavier"
    }
    bias_filler {
      type: "constant"
    }
  }
}
layer {
  name: "relu5"
  type: "ReLU"
  bottom: "ip1"
  top: "ip1"
}
layer {
  name: "drop1"
  type: "Dropout"
  bottom: "ip1"
  top: "ip1"
  dropout_param {
    dropout_ratio: 0.5
  }
}
layer {
  name: "ip2"
  type: "InnerProduct"
  bottom: "ip1"
  top: "ip2"
  inner_product_param {
    num_output: 98
    weight_filler {
      type: "xavier"
    }
    bias_filler {
      type: "constant"
    }
  }
}
layer {
  name: "relu6"
  type: "ReLU"
  bottom: "ip2"
  top: "ip2"
}
layer {
  name: "drop2"
  type: "Dropout"
  bottom: "ip2"
  top: "ip2"
  dropout_param {
    dropout_ratio: 0.5
  }
}
layer {
  name: "ip3"
  type: "InnerProduct"
  bottom: "ip2"
  top: "ip3"
  inner_product_param {
    num_output: 11
    weight_filler {
      type: "xavier"
    }
    bias_filler {
      type: "constant"
    }
  }
}
layer {
  name: "drop3"
  type: "Dropout"
  bottom: "ip3"
  top: "ip3"
  dropout_param {
    dropout_ratio: 0.5
  }
}
layer {
  name: "accuracy"
  type: "Accuracy"
  bottom: "ip3"
  bottom: "label"
  top: "accuracy"
  include {
    phase: TEST
  }
}
layer {
  name: "loss"
  type: "SoftmaxWithLoss"
  bottom: "ip3"
  bottom: "label"
  top: "loss"
}
I0527 05:46:07.872817  5661 layer_factory.hpp:77] Creating layer data_hdf5
I0527 05:46:07.872838  5661 net.cpp:106] Creating Layer data_hdf5
I0527 05:46:07.872856  5661 net.cpp:411] data_hdf5 -> data
I0527 05:46:07.872877  5661 net.cpp:411] data_hdf5 -> label
I0527 05:46:07.872900  5661 hdf5_data_layer.cpp:79] Loading list of HDF5 filenames from: /lustre/atlas/proj-shared/hep105/caffe_titan/minosmatch_nukecczdefs_127x50_x_unshifted_me1Bmc.testlist
I0527 05:46:07.874155  5661 hdf5_data_layer.cpp:93] Number of HDF5 files: 3
I0527 05:46:29.274201  5661 net.cpp:150] Setting up data_hdf5
I0527 05:46:29.274374  5661 net.cpp:157] Top shape: 30 1 127 50 (190500)
I0527 05:46:29.274401  5661 net.cpp:157] Top shape: 30 (30)
I0527 05:46:29.274415  5661 net.cpp:165] Memory required for data: 762120
I0527 05:46:29.274430  5661 layer_factory.hpp:77] Creating layer label_data_hdf5_1_split
I0527 05:46:29.274457  5661 net.cpp:106] Creating Layer label_data_hdf5_1_split
I0527 05:46:29.274477  5661 net.cpp:454] label_data_hdf5_1_split <- label
I0527 05:46:29.274513  5661 net.cpp:411] label_data_hdf5_1_split -> label_data_hdf5_1_split_0
I0527 05:46:29.274535  5661 net.cpp:411] label_data_hdf5_1_split -> label_data_hdf5_1_split_1
I0527 05:46:29.274616  5661 net.cpp:150] Setting up label_data_hdf5_1_split
I0527 05:46:29.274639  5661 net.cpp:157] Top shape: 30 (30)
I0527 05:46:29.274654  5661 net.cpp:157] Top shape: 30 (30)
I0527 05:46:29.274667  5661 net.cpp:165] Memory required for data: 762360
I0527 05:46:29.274680  5661 layer_factory.hpp:77] Creating layer conv1
I0527 05:46:29.274708  5661 net.cpp:106] Creating Layer conv1
I0527 05:46:29.274725  5661 net.cpp:454] conv1 <- data
I0527 05:46:29.274744  5661 net.cpp:411] conv1 -> conv1
I0527 05:46:29.276693  5661 net.cpp:150] Setting up conv1
I0527 05:46:29.276720  5661 net.cpp:157] Top shape: 30 12 120 48 (2073600)
I0527 05:46:29.276739  5661 net.cpp:165] Memory required for data: 9056760
I0527 05:46:29.276764  5661 layer_factory.hpp:77] Creating layer relu1
I0527 05:46:29.276787  5661 net.cpp:106] Creating Layer relu1
I0527 05:46:29.276808  5661 net.cpp:454] relu1 <- conv1
I0527 05:46:29.276825  5661 net.cpp:397] relu1 -> conv1 (in-place)
I0527 05:46:29.277340  5661 net.cpp:150] Setting up relu1
I0527 05:46:29.277364  5661 net.cpp:157] Top shape: 30 12 120 48 (2073600)
I0527 05:46:29.277376  5661 net.cpp:165] Memory required for data: 17351160
I0527 05:46:29.277390  5661 layer_factory.hpp:77] Creating layer pool1
I0527 05:46:29.277420  5661 net.cpp:106] Creating Layer pool1
I0527 05:46:29.277432  5661 net.cpp:454] pool1 <- conv1
I0527 05:46:29.277449  5661 net.cpp:411] pool1 -> pool1
I0527 05:46:29.277539  5661 net.cpp:150] Setting up pool1
I0527 05:46:29.277556  5661 net.cpp:157] Top shape: 30 12 60 48 (1036800)
I0527 05:46:29.277571  5661 net.cpp:165] Memory required for data: 21498360
I0527 05:46:29.277590  5661 layer_factory.hpp:77] Creating layer conv2
I0527 05:46:29.277611  5661 net.cpp:106] Creating Layer conv2
I0527 05:46:29.277633  5661 net.cpp:454] conv2 <- pool1
I0527 05:46:29.277650  5661 net.cpp:411] conv2 -> conv2
I0527 05:46:29.279603  5661 net.cpp:150] Setting up conv2
I0527 05:46:29.279628  5661 net.cpp:157] Top shape: 30 20 54 46 (1490400)
I0527 05:46:29.279647  5661 net.cpp:165] Memory required for data: 27459960
I0527 05:46:29.279670  5661 layer_factory.hpp:77] Creating layer relu2
I0527 05:46:29.279690  5661 net.cpp:106] Creating Layer relu2
I0527 05:46:29.279702  5661 net.cpp:454] relu2 <- conv2
I0527 05:46:29.279717  5661 net.cpp:397] relu2 -> conv2 (in-place)
I0527 05:46:29.280073  5661 net.cpp:150] Setting up relu2
I0527 05:46:29.280093  5661 net.cpp:157] Top shape: 30 20 54 46 (1490400)
I0527 05:46:29.280107  5661 net.cpp:165] Memory required for data: 33421560
I0527 05:46:29.280122  5661 layer_factory.hpp:77] Creating layer pool2
I0527 05:46:29.280145  5661 net.cpp:106] Creating Layer pool2
I0527 05:46:29.280158  5661 net.cpp:454] pool2 <- conv2
I0527 05:46:29.280174  5661 net.cpp:411] pool2 -> pool2
I0527 05:46:29.280261  5661 net.cpp:150] Setting up pool2
I0527 05:46:29.280277  5661 net.cpp:157] Top shape: 30 20 27 46 (745200)
I0527 05:46:29.280292  5661 net.cpp:165] Memory required for data: 36402360
I0527 05:46:29.280310  5661 layer_factory.hpp:77] Creating layer conv3
I0527 05:46:29.280333  5661 net.cpp:106] Creating Layer conv3
I0527 05:46:29.280346  5661 net.cpp:454] conv3 <- pool2
I0527 05:46:29.280362  5661 net.cpp:411] conv3 -> conv3
I0527 05:46:29.282359  5661 net.cpp:150] Setting up conv3
I0527 05:46:29.282384  5661 net.cpp:157] Top shape: 30 28 22 44 (813120)
I0527 05:46:29.282403  5661 net.cpp:165] Memory required for data: 39654840
I0527 05:46:29.282444  5661 layer_factory.hpp:77] Creating layer relu3
I0527 05:46:29.282459  5661 net.cpp:106] Creating Layer relu3
I0527 05:46:29.282482  5661 net.cpp:454] relu3 <- conv3
I0527 05:46:29.282498  5661 net.cpp:397] relu3 -> conv3 (in-place)
I0527 05:46:29.283004  5661 net.cpp:150] Setting up relu3
I0527 05:46:29.283027  5661 net.cpp:157] Top shape: 30 28 22 44 (813120)
I0527 05:46:29.283041  5661 net.cpp:165] Memory required for data: 42907320
I0527 05:46:29.283056  5661 layer_factory.hpp:77] Creating layer pool3
I0527 05:46:29.283082  5661 net.cpp:106] Creating Layer pool3
I0527 05:46:29.283094  5661 net.cpp:454] pool3 <- conv3
I0527 05:46:29.283110  5661 net.cpp:411] pool3 -> pool3
I0527 05:46:29.283197  5661 net.cpp:150] Setting up pool3
I0527 05:46:29.283216  5661 net.cpp:157] Top shape: 30 28 11 44 (406560)
I0527 05:46:29.283228  5661 net.cpp:165] Memory required for data: 44533560
I0527 05:46:29.283243  5661 layer_factory.hpp:77] Creating layer conv4
I0527 05:46:29.283270  5661 net.cpp:106] Creating Layer conv4
I0527 05:46:29.283283  5661 net.cpp:454] conv4 <- pool3
I0527 05:46:29.283303  5661 net.cpp:411] conv4 -> conv4
I0527 05:46:29.285398  5661 net.cpp:150] Setting up conv4
I0527 05:46:29.285425  5661 net.cpp:157] Top shape: 30 36 6 42 (272160)
I0527 05:46:29.285439  5661 net.cpp:165] Memory required for data: 45622200
I0527 05:46:29.285457  5661 layer_factory.hpp:77] Creating layer relu4
I0527 05:46:29.285477  5661 net.cpp:106] Creating Layer relu4
I0527 05:46:29.285501  5661 net.cpp:454] relu4 <- conv4
I0527 05:46:29.285517  5661 net.cpp:397] relu4 -> conv4 (in-place)
I0527 05:46:29.286005  5661 net.cpp:150] Setting up relu4
I0527 05:46:29.286028  5661 net.cpp:157] Top shape: 30 36 6 42 (272160)
I0527 05:46:29.286041  5661 net.cpp:165] Memory required for data: 46710840
I0527 05:46:29.286053  5661 layer_factory.hpp:77] Creating layer pool4
I0527 05:46:29.286073  5661 net.cpp:106] Creating Layer pool4
I0527 05:46:29.286094  5661 net.cpp:454] pool4 <- conv4
I0527 05:46:29.286111  5661 net.cpp:411] pool4 -> pool4
I0527 05:46:29.286197  5661 net.cpp:150] Setting up pool4
I0527 05:46:29.286216  5661 net.cpp:157] Top shape: 30 36 3 42 (136080)
I0527 05:46:29.286229  5661 net.cpp:165] Memory required for data: 47255160
I0527 05:46:29.286242  5661 layer_factory.hpp:77] Creating layer ip1
I0527 05:46:29.286267  5661 net.cpp:106] Creating Layer ip1
I0527 05:46:29.286279  5661 net.cpp:454] ip1 <- pool4
I0527 05:46:29.286298  5661 net.cpp:411] ip1 -> ip1
I0527 05:46:29.301661  5661 net.cpp:150] Setting up ip1
I0527 05:46:29.301693  5661 net.cpp:157] Top shape: 30 196 (5880)
I0527 05:46:29.301714  5661 net.cpp:165] Memory required for data: 47278680
I0527 05:46:29.301741  5661 layer_factory.hpp:77] Creating layer relu5
I0527 05:46:29.301762  5661 net.cpp:106] Creating Layer relu5
I0527 05:46:29.301775  5661 net.cpp:454] relu5 <- ip1
I0527 05:46:29.301803  5661 net.cpp:397] relu5 -> ip1 (in-place)
I0527 05:46:29.302166  5661 net.cpp:150] Setting up relu5
I0527 05:46:29.302186  5661 net.cpp:157] Top shape: 30 196 (5880)
I0527 05:46:29.302199  5661 net.cpp:165] Memory required for data: 47302200
I0527 05:46:29.302214  5661 layer_factory.hpp:77] Creating layer drop1
I0527 05:46:29.302243  5661 net.cpp:106] Creating Layer drop1
I0527 05:46:29.302258  5661 net.cpp:454] drop1 <- ip1
I0527 05:46:29.302273  5661 net.cpp:397] drop1 -> ip1 (in-place)
I0527 05:46:29.302332  5661 net.cpp:150] Setting up drop1
I0527 05:46:29.302348  5661 net.cpp:157] Top shape: 30 196 (5880)
I0527 05:46:29.302361  5661 net.cpp:165] Memory required for data: 47325720
I0527 05:46:29.302373  5661 layer_factory.hpp:77] Creating layer ip2
I0527 05:46:29.302393  5661 net.cpp:106] Creating Layer ip2
I0527 05:46:29.302405  5661 net.cpp:454] ip2 <- ip1
I0527 05:46:29.302431  5661 net.cpp:411] ip2 -> ip2
I0527 05:46:29.302928  5661 net.cpp:150] Setting up ip2
I0527 05:46:29.302948  5661 net.cpp:157] Top shape: 30 98 (2940)
I0527 05:46:29.302961  5661 net.cpp:165] Memory required for data: 47337480
I0527 05:46:29.302983  5661 layer_factory.hpp:77] Creating layer relu6
I0527 05:46:29.303017  5661 net.cpp:106] Creating Layer relu6
I0527 05:46:29.303030  5661 net.cpp:454] relu6 <- ip2
I0527 05:46:29.303046  5661 net.cpp:397] relu6 -> ip2 (in-place)
I0527 05:46:29.303607  5661 net.cpp:150] Setting up relu6
I0527 05:46:29.303630  5661 net.cpp:157] Top shape: 30 98 (2940)
I0527 05:46:29.303643  5661 net.cpp:165] Memory required for data: 47349240
I0527 05:46:29.303658  5661 layer_factory.hpp:77] Creating layer drop2
I0527 05:46:29.303674  5661 net.cpp:106] Creating Layer drop2
I0527 05:46:29.303696  5661 net.cpp:454] drop2 <- ip2
I0527 05:46:29.303712  5661 net.cpp:397] drop2 -> ip2 (in-place)
I0527 05:46:29.303764  5661 net.cpp:150] Setting up drop2
I0527 05:46:29.303786  5661 net.cpp:157] Top shape: 30 98 (2940)
I0527 05:46:29.303799  5661 net.cpp:165] Memory required for data: 47361000
I0527 05:46:29.303812  5661 layer_factory.hpp:77] Creating layer ip3
I0527 05:46:29.303828  5661 net.cpp:106] Creating Layer ip3
I0527 05:46:29.303843  5661 net.cpp:454] ip3 <- ip2
I0527 05:46:29.303859  5661 net.cpp:411] ip3 -> ip3
I0527 05:46:29.304105  5661 net.cpp:150] Setting up ip3
I0527 05:46:29.304123  5661 net.cpp:157] Top shape: 30 11 (330)
I0527 05:46:29.304136  5661 net.cpp:165] Memory required for data: 47362320
I0527 05:46:29.304157  5661 layer_factory.hpp:77] Creating layer drop3
I0527 05:46:29.304178  5661 net.cpp:106] Creating Layer drop3
I0527 05:46:29.304193  5661 net.cpp:454] drop3 <- ip3
I0527 05:46:29.304208  5661 net.cpp:397] drop3 -> ip3 (in-place)
I0527 05:46:29.304255  5661 net.cpp:150] Setting up drop3
I0527 05:46:29.304278  5661 net.cpp:157] Top shape: 30 11 (330)
I0527 05:46:29.304291  5661 net.cpp:165] Memory required for data: 47363640
I0527 05:46:29.304306  5661 layer_factory.hpp:77] Creating layer ip3_drop3_0_split
I0527 05:46:29.304321  5661 net.cpp:106] Creating Layer ip3_drop3_0_split
I0527 05:46:29.304335  5661 net.cpp:454] ip3_drop3_0_split <- ip3
I0527 05:46:29.304358  5661 net.cpp:411] ip3_drop3_0_split -> ip3_drop3_0_split_0
I0527 05:46:29.304376  5661 net.cpp:411] ip3_drop3_0_split -> ip3_drop3_0_split_1
I0527 05:46:29.304469  5661 net.cpp:150] Setting up ip3_drop3_0_split
I0527 05:46:29.304486  5661 net.cpp:157] Top shape: 30 11 (330)
I0527 05:46:29.304517  5661 net.cpp:157] Top shape: 30 11 (330)
I0527 05:46:29.304544  5661 net.cpp:165] Memory required for data: 47366280
I0527 05:46:29.304569  5661 layer_factory.hpp:77] Creating layer accuracy
I0527 05:46:29.304591  5661 net.cpp:106] Creating Layer accuracy
I0527 05:46:29.304607  5661 net.cpp:454] accuracy <- ip3_drop3_0_split_0
I0527 05:46:29.304621  5661 net.cpp:454] accuracy <- label_data_hdf5_1_split_0
I0527 05:46:29.304644  5661 net.cpp:411] accuracy -> accuracy
…
