…
I0526 21:38:16.203794 31495 net.cpp:322] The NetState phase (0) differed from the phase (1) specified by a rule in layer data_hdf5
I0526 21:38:16.203856 31495 net.cpp:322] The NetState phase (0) differed from the phase (1) specified by a rule in layer accuracy
I0526 21:38:16.204238 31495 net.cpp:49] Initializing net from parameters: 
name: "caffe_test_127x50_x_unshifted"
state {
  phase: TRAIN
}
layer {
  name: "data_hdf5"
  type: "HDF5Data"
  top: "data"
  top: "label"
  include {
    phase: TRAIN
  }
  hdf5_data_param {
    source: "/lustre/atlas/proj-shared/hep105/caffe_titan/minosmatch_nukecczdefs_127x50_x_unshifted_me1Bmc.trainlist"
    batch_size: 30
  }
}
layer {
  name: "conv1"
  type: "Convolution"
  bottom: "data"
  top: "conv1"
  convolution_param {
    num_output: 12
    pad: 0
    stride: 1
    weight_filler {
      type: "xavier"
    }
    bias_filler {
      type: "constant"
    }
    kernel_h: 8
    kernel_w: 3
  }
}
layer {
  name: "relu1"
  type: "ReLU"
  bottom: "conv1"
  top: "conv1"
}
layer {
  name: "pool1"
  type: "Pooling"
  bottom: "conv1"
  top: "pool1"
  pooling_param {
    pool: MAX
    kernel_h: 2
    kernel_w: 1
    stride_h: 2
    stride_w: 1
  }
}
layer {
  name: "conv2"
  type: "Convolution"
  bottom: "pool1"
  top: "conv2"
  convolution_param {
    num_output: 20
    pad: 0
    stride: 1
    weight_filler {
      type: "xavier"
    }
    bias_filler {
      type: "constant"
    }
    kernel_h: 7
    kernel_w: 3
  }
}
layer {
  name: "relu2"
  type: "ReLU"
  bottom: "conv2"
  top: "conv2"
}
layer {
  name: "pool2"
  type: "Pooling"
  bottom: "conv2"
  top: "pool2"
  pooling_param {
    pool: MAX
    kernel_h: 2
    kernel_w: 1
    stride_h: 2
    stride_w: 1
  }
}
layer {
  name: "conv3"
  type: "Convolution"
  bottom: "pool2"
  top: "conv3"
  convolution_param {
    num_output: 28
    pad: 0
    stride: 1
    weight_filler {
      type: "xavier"
    }
    bias_filler {
      type: "constant"
    }
    kernel_h: 6
    kernel_w: 3
  }
}
layer {
  name: "relu3"
  type: "ReLU"
  bottom: "conv3"
  top: "conv3"
}
layer {
  name: "pool3"
  type: "Pooling"
  bottom: "conv3"
  top: "pool3"
  pooling_param {
    pool: MAX
    kernel_h: 2
    kernel_w: 1
    stride_h: 2
    stride_w: 1
  }
}
layer {
  name: "conv4"
  type: "Convolution"
  bottom: "pool3"
  top: "conv4"
  convolution_param {
    num_output: 36
    pad: 0
    stride: 1
    weight_filler {
      type: "xavier"
    }
    bias_filler {
      type: "constant"
    }
    kernel_h: 6
    kernel_w: 3
  }
}
layer {
  name: "relu4"
  type: "ReLU"
  bottom: "conv4"
  top: "conv4"
}
layer {
  name: "pool4"
  type: "Pooling"
  bottom: "conv4"
  top: "pool4"
  pooling_param {
    pool: MAX
    kernel_h: 2
    kernel_w: 1
    stride_h: 2
    stride_w: 1
  }
}
layer {
  name: "ip1"
  type: "InnerProduct"
  bottom: "pool4"
  top: "ip1"
  inner_product_param {
    num_output: 196
    weight_filler {
      type: "xavier"
    }
    bias_filler {
      type: "constant"
    }
  }
}
layer {
  name: "relu5"
  type: "ReLU"
  bottom: "ip1"
  top: "ip1"
}
layer {
  name: "drop1"
  type: "Dropout"
  bottom: "ip1"
  top: "ip1"
  dropout_param {
    dropout_ratio: 0.5
  }
}
layer {
  name: "ip2"
  type: "InnerProduct"
  bottom: "ip1"
  top: "ip2"
  inner_product_param {
    num_output: 98
    weight_filler {
      type: "xavier"
    }
    bias_filler {
      type: "constant"
    }
  }
}
layer {
  name: "relu6"
  type: "ReLU"
  bottom: "ip2"
  top: "ip2"
}
layer {
  name: "drop2"
  type: "Dropout"
  bottom: "ip2"
  top: "ip2"
  dropout_param {
    dropout_ratio: 0.5
  }
}
layer {
  name: "ip3"
  type: "InnerProduct"
  bottom: "ip2"
  top: "ip3"
  inner_product_param {
    num_output: 11
    weight_filler {
      type: "xavier"
    }
    bias_filler {
      type: "constant"
    }
  }
}
layer {
  name: "drop3"
  type: "Dropout"
  bottom: "ip3"
  top: "ip3"
  dropout_param {
    dropout_ratio: 0.5
  }
}
layer {
  name: "loss"
  type: "SoftmaxWithLoss"
  bottom: "ip3"
  bottom: "label"
  top: "loss"
}
I0526 21:38:16.204442 31495 layer_factory.hpp:77] Creating layer data_hdf5
I0526 21:38:16.204480 31495 net.cpp:106] Creating Layer data_hdf5
I0526 21:38:16.204499 31495 net.cpp:411] data_hdf5 -> data
I0526 21:38:16.204530 31495 net.cpp:411] data_hdf5 -> label
I0526 21:38:16.204574 31495 hdf5_data_layer.cpp:79] Loading list of HDF5 filenames from: /lustre/atlas/proj-shared/hep105/caffe_titan/minosmatch_nukecczdefs_127x50_x_unshifted_me1Bmc.trainlist
I0526 21:38:16.205819 31495 hdf5_data_layer.cpp:93] Number of HDF5 files: 15
I0526 21:38:16.208127 31495 hdf5.cpp:32] Datatype class: H5T_FLOAT
I0526 21:38:37.801241 31495 hdf5.cpp:35] Datatype class: H5T_INTEGER
I0526 21:38:37.806505 31495 net.cpp:150] Setting up data_hdf5
I0526 21:38:37.806546 31495 net.cpp:157] Top shape: 30 1 127 50 (190500)
I0526 21:38:37.806563 31495 net.cpp:157] Top shape: 30 (30)
I0526 21:38:37.806576 31495 net.cpp:165] Memory required for data: 762120
I0526 21:38:37.806596 31495 layer_factory.hpp:77] Creating layer conv1
I0526 21:38:37.806641 31495 net.cpp:106] Creating Layer conv1
I0526 21:38:37.806655 31495 net.cpp:454] conv1 <- data
I0526 21:38:37.806682 31495 net.cpp:411] conv1 -> conv1
I0526 21:38:38.173920 31495 net.cpp:150] Setting up conv1
I0526 21:38:38.173974 31495 net.cpp:157] Top shape: 30 12 120 48 (2073600)
I0526 21:38:38.174000 31495 net.cpp:165] Memory required for data: 9056520
I0526 21:38:38.174031 31495 layer_factory.hpp:77] Creating layer relu1
I0526 21:38:38.174054 31495 net.cpp:106] Creating Layer relu1
I0526 21:38:38.174074 31495 net.cpp:454] relu1 <- conv1
I0526 21:38:38.174090 31495 net.cpp:397] relu1 -> conv1 (in-place)
I0526 21:38:38.174639 31495 net.cpp:150] Setting up relu1
I0526 21:38:38.174664 31495 net.cpp:157] Top shape: 30 12 120 48 (2073600)
I0526 21:38:38.174676 31495 net.cpp:165] Memory required for data: 17350920
I0526 21:38:38.174692 31495 layer_factory.hpp:77] Creating layer pool1
I0526 21:38:38.174720 31495 net.cpp:106] Creating Layer pool1
I0526 21:38:38.174733 31495 net.cpp:454] pool1 <- conv1
I0526 21:38:38.174749 31495 net.cpp:411] pool1 -> pool1
I0526 21:38:38.174844 31495 net.cpp:150] Setting up pool1
I0526 21:38:38.174862 31495 net.cpp:157] Top shape: 30 12 60 48 (1036800)
I0526 21:38:38.174877 31495 net.cpp:165] Memory required for data: 21498120
I0526 21:38:38.174897 31495 layer_factory.hpp:77] Creating layer conv2
I0526 21:38:38.174922 31495 net.cpp:106] Creating Layer conv2
I0526 21:38:38.174935 31495 net.cpp:454] conv2 <- pool1
I0526 21:38:38.174954 31495 net.cpp:411] conv2 -> conv2
I0526 21:38:38.177655 31495 net.cpp:150] Setting up conv2
I0526 21:38:38.177690 31495 net.cpp:157] Top shape: 30 20 54 46 (1490400)
I0526 21:38:38.177705 31495 net.cpp:165] Memory required for data: 27459720
I0526 21:38:38.177731 31495 layer_factory.hpp:77] Creating layer relu2
I0526 21:38:38.177759 31495 net.cpp:106] Creating Layer relu2
I0526 21:38:38.177773 31495 net.cpp:454] relu2 <- conv2
I0526 21:38:38.177789 31495 net.cpp:397] relu2 -> conv2 (in-place)
I0526 21:38:38.178146 31495 net.cpp:150] Setting up relu2
I0526 21:38:38.178166 31495 net.cpp:157] Top shape: 30 20 54 46 (1490400)
I0526 21:38:38.178179 31495 net.cpp:165] Memory required for data: 33421320
I0526 21:38:38.178195 31495 layer_factory.hpp:77] Creating layer pool2
I0526 21:38:38.178218 31495 net.cpp:106] Creating Layer pool2
I0526 21:38:38.178231 31495 net.cpp:454] pool2 <- conv2
I0526 21:38:38.178247 31495 net.cpp:411] pool2 -> pool2
I0526 21:38:38.178344 31495 net.cpp:150] Setting up pool2
I0526 21:38:38.178361 31495 net.cpp:157] Top shape: 30 20 27 46 (745200)
I0526 21:38:38.178376 31495 net.cpp:165] Memory required for data: 36402120
I0526 21:38:38.178396 31495 layer_factory.hpp:77] Creating layer conv3
I0526 21:38:38.178416 31495 net.cpp:106] Creating Layer conv3
I0526 21:38:38.178436 31495 net.cpp:454] conv3 <- pool2
I0526 21:38:38.178453 31495 net.cpp:411] conv3 -> conv3
I0526 21:38:38.180455 31495 net.cpp:150] Setting up conv3
I0526 21:38:38.180481 31495 net.cpp:157] Top shape: 30 28 22 44 (813120)
I0526 21:38:38.180501 31495 net.cpp:165] Memory required for data: 39654600
I0526 21:38:38.180523 31495 layer_factory.hpp:77] Creating layer relu3
I0526 21:38:38.180546 31495 net.cpp:106] Creating Layer relu3
I0526 21:38:38.180569 31495 net.cpp:454] relu3 <- conv3
I0526 21:38:38.180585 31495 net.cpp:397] relu3 -> conv3 (in-place)
I0526 21:38:38.181074 31495 net.cpp:150] Setting up relu3
I0526 21:38:38.181098 31495 net.cpp:157] Top shape: 30 28 22 44 (813120)
I0526 21:38:38.181112 31495 net.cpp:165] Memory required for data: 42907080
I0526 21:38:38.181128 31495 layer_factory.hpp:77] Creating layer pool3
I0526 21:38:38.181143 31495 net.cpp:106] Creating Layer pool3
I0526 21:38:38.181164 31495 net.cpp:454] pool3 <- conv3
I0526 21:38:38.181181 31495 net.cpp:411] pool3 -> pool3
I0526 21:38:38.181263 31495 net.cpp:150] Setting up pool3
I0526 21:38:38.181285 31495 net.cpp:157] Top shape: 30 28 11 44 (406560)
I0526 21:38:38.181298 31495 net.cpp:165] Memory required for data: 44533320
I0526 21:38:38.181313 31495 layer_factory.hpp:77] Creating layer conv4
I0526 21:38:38.181339 31495 net.cpp:106] Creating Layer conv4
I0526 21:38:38.181354 31495 net.cpp:454] conv4 <- pool3
I0526 21:38:38.181370 31495 net.cpp:411] conv4 -> conv4
I0526 21:38:38.184118 31495 net.cpp:150] Setting up conv4
I0526 21:38:38.184149 31495 net.cpp:157] Top shape: 30 36 6 42 (272160)
I0526 21:38:38.184168 31495 net.cpp:165] Memory required for data: 45621960
I0526 21:38:38.184188 31495 layer_factory.hpp:77] Creating layer relu4
I0526 21:38:38.184209 31495 net.cpp:106] Creating Layer relu4
I0526 21:38:38.184233 31495 net.cpp:454] relu4 <- conv4
I0526 21:38:38.184250 31495 net.cpp:397] relu4 -> conv4 (in-place)
I0526 21:38:38.184733 31495 net.cpp:150] Setting up relu4
I0526 21:38:38.184756 31495 net.cpp:157] Top shape: 30 36 6 42 (272160)
I0526 21:38:38.184770 31495 net.cpp:165] Memory required for data: 46710600
I0526 21:38:38.184787 31495 layer_factory.hpp:77] Creating layer pool4
I0526 21:38:38.184809 31495 net.cpp:106] Creating Layer pool4
I0526 21:38:38.184823 31495 net.cpp:454] pool4 <- conv4
I0526 21:38:38.184840 31495 net.cpp:411] pool4 -> pool4
I0526 21:38:38.184922 31495 net.cpp:150] Setting up pool4
I0526 21:38:38.184940 31495 net.cpp:157] Top shape: 30 36 3 42 (136080)
I0526 21:38:38.184957 31495 net.cpp:165] Memory required for data: 47254920
I0526 21:38:38.184968 31495 layer_factory.hpp:77] Creating layer ip1
I0526 21:38:38.184996 31495 net.cpp:106] Creating Layer ip1
I0526 21:38:38.185010 31495 net.cpp:454] ip1 <- pool4
I0526 21:38:38.185026 31495 net.cpp:411] ip1 -> ip1
I0526 21:38:38.200494 31495 net.cpp:150] Setting up ip1
I0526 21:38:38.200526 31495 net.cpp:157] Top shape: 30 196 (5880)
I0526 21:38:38.200548 31495 net.cpp:165] Memory required for data: 47278440
I0526 21:38:38.200574 31495 layer_factory.hpp:77] Creating layer relu5
I0526 21:38:38.200597 31495 net.cpp:106] Creating Layer relu5
I0526 21:38:38.200620 31495 net.cpp:454] relu5 <- ip1
I0526 21:38:38.200637 31495 net.cpp:397] relu5 -> ip1 (in-place)
I0526 21:38:38.200996 31495 net.cpp:150] Setting up relu5
I0526 21:38:38.201016 31495 net.cpp:157] Top shape: 30 196 (5880)
I0526 21:38:38.201030 31495 net.cpp:165] Memory required for data: 47301960
I0526 21:38:38.201042 31495 layer_factory.hpp:77] Creating layer drop1
I0526 21:38:38.201078 31495 net.cpp:106] Creating Layer drop1
I0526 21:38:38.201092 31495 net.cpp:454] drop1 <- ip1
I0526 21:38:38.201114 31495 net.cpp:397] drop1 -> ip1 (in-place)
I0526 21:38:38.201187 31495 net.cpp:150] Setting up drop1
I0526 21:38:38.201205 31495 net.cpp:157] Top shape: 30 196 (5880)
I0526 21:38:38.201217 31495 net.cpp:165] Memory required for data: 47325480
I0526 21:38:38.201232 31495 layer_factory.hpp:77] Creating layer ip2
I0526 21:38:38.201253 31495 net.cpp:106] Creating Layer ip2
I0526 21:38:38.201267 31495 net.cpp:454] ip2 <- ip1
I0526 21:38:38.201289 31495 net.cpp:411] ip2 -> ip2
I0526 21:38:38.201773 31495 net.cpp:150] Setting up ip2
I0526 21:38:38.201792 31495 net.cpp:157] Top shape: 30 98 (2940)
I0526 21:38:38.201805 31495 net.cpp:165] Memory required for data: 47337240
I0526 21:38:38.201827 31495 layer_factory.hpp:77] Creating layer relu6
I0526 21:38:38.201848 31495 net.cpp:106] Creating Layer relu6
I0526 21:38:38.201860 31495 net.cpp:454] relu6 <- ip2
I0526 21:38:38.201875 31495 net.cpp:397] relu6 -> ip2 (in-place)
I0526 21:38:38.202421 31495 net.cpp:150] Setting up relu6
I0526 21:38:38.202445 31495 net.cpp:157] Top shape: 30 98 (2940)
I0526 21:38:38.202458 31495 net.cpp:165] Memory required for data: 47349000
I0526 21:38:38.202474 31495 layer_factory.hpp:77] Creating layer drop2
I0526 21:38:38.202491 31495 net.cpp:106] Creating Layer drop2
I0526 21:38:38.202512 31495 net.cpp:454] drop2 <- ip2
I0526 21:38:38.202527 31495 net.cpp:397] drop2 -> ip2 (in-place)
I0526 21:38:38.202577 31495 net.cpp:150] Setting up drop2
I0526 21:38:38.202600 31495 net.cpp:157] Top shape: 30 98 (2940)
I0526 21:38:38.202613 31495 net.cpp:165] Memory required for data: 47360760
I0526 21:38:38.202626 31495 layer_factory.hpp:77] Creating layer ip3
I0526 21:38:38.202646 31495 net.cpp:106] Creating Layer ip3
I0526 21:38:38.202657 31495 net.cpp:454] ip3 <- ip2
I0526 21:38:38.202680 31495 net.cpp:411] ip3 -> ip3
I0526 21:38:38.202908 31495 net.cpp:150] Setting up ip3
I0526 21:38:38.202926 31495 net.cpp:157] Top shape: 30 11 (330)
I0526 21:38:38.202939 31495 net.cpp:165] Memory required for data: 47362080
I0526 21:38:38.202960 31495 layer_factory.hpp:77] Creating layer drop3
I0526 21:38:38.202982 31495 net.cpp:106] Creating Layer drop3
I0526 21:38:38.202996 31495 net.cpp:454] drop3 <- ip3
I0526 21:38:38.203011 31495 net.cpp:397] drop3 -> ip3 (in-place)
I0526 21:38:38.203058 31495 net.cpp:150] Setting up drop3
I0526 21:38:38.203080 31495 net.cpp:157] Top shape: 30 11 (330)
I0526 21:38:38.203093 31495 net.cpp:165] Memory required for data: 47363400
I0526 21:38:38.203107 31495 layer_factory.hpp:77] Creating layer loss
I0526 21:38:38.203131 31495 net.cpp:106] Creating Layer loss
I0526 21:38:38.203143 31495 net.cpp:454] loss <- ip3
I0526 21:38:38.203164 31495 net.cpp:454] loss <- label
I0526 21:38:38.203181 31495 net.cpp:411] loss -> loss
I0526 21:38:38.203199 31495 layer_factory.hpp:77] Creating layer loss
…
I0526 21:38:38.206009 31495 solver.cpp:181] Creating test net (#0) specified by net file: /lustre/atlas/proj-shared/hep105/caffe_titan/caffe_workflow/logs_bslr/bs_30_lr_0.0005_2016-05-20T15.48.57.300508.prototxt
I0526 21:38:38.206089 31495 net.cpp:322] The NetState phase (1) differed from the phase (0) specified by a rule in layer data_hdf5
I0526 21:38:38.206470 31495 net.cpp:49] Initializing net from parameters: 
name: "caffe_test_127x50_x_unshifted"
state {
  phase: TEST
}
layer {
  name: "data_hdf5"
  type: "HDF5Data"
  top: "data"
  top: "label"
  include {
    phase: TEST
  }
  hdf5_data_param {
    source: "/lustre/atlas/proj-shared/hep105/caffe_titan/minosmatch_nukecczdefs_127x50_x_unshifted_me1Bmc.testlist"
    batch_size: 30
  }
}
layer {
  name: "conv1"
  type: "Convolution"
  bottom: "data"
  top: "conv1"
  convolution_param {
    num_output: 12
    pad: 0
    stride: 1
    weight_filler {
      type: "xavier"
    }
    bias_filler {
      type: "constant"
    }
    kernel_h: 8
    kernel_w: 3
  }
}
layer {
  name: "relu1"
  type: "ReLU"
  bottom: "conv1"
  top: "conv1"
}
layer {
  name: "pool1"
  type: "Pooling"
  bottom: "conv1"
  top: "pool1"
  pooling_param {
    pool: MAX
    kernel_h: 2
    kernel_w: 1
    stride_h: 2
    stride_w: 1
  }
}
layer {
  name: "conv2"
  type: "Convolution"
  bottom: "pool1"
  top: "conv2"
  convolution_param {
    num_output: 20
    pad: 0
    stride: 1
    weight_filler {
      type: "xavier"
    }
    bias_filler {
      type: "constant"
    }
    kernel_h: 7
    kernel_w: 3
  }
}
layer {
  name: "relu2"
  type: "ReLU"
  bottom: "conv2"
  top: "conv2"
}
layer {
  name: "pool2"
  type: "Pooling"
  bottom: "conv2"
  top: "pool2"
  pooling_param {
    pool: MAX
    kernel_h: 2
    kernel_w: 1
    stride_h: 2
    stride_w: 1
  }
}
layer {
  name: "conv3"
  type: "Convolution"
  bottom: "pool2"
  top: "conv3"
  convolution_param {
    num_output: 28
    pad: 0
    stride: 1
    weight_filler {
      type: "xavier"
    }
    bias_filler {
      type: "constant"
    }
    kernel_h: 6
    kernel_w: 3
  }
}
layer {
  name: "relu3"
  type: "ReLU"
  bottom: "conv3"
  top: "conv3"
}
layer {
  name: "pool3"
  type: "Pooling"
  bottom: "conv3"
  top: "pool3"
  pooling_param {
    pool: MAX
    kernel_h: 2
    kernel_w: 1
    stride_h: 2
    stride_w: 1
  }
}
layer {
  name: "conv4"
  type: "Convolution"
  bottom: "pool3"
  top: "conv4"
  convolution_param {
    num_output: 36
    pad: 0
    stride: 1
    weight_filler {
      type: "xavier"
    }
    bias_filler {
      type: "constant"
    }
    kernel_h: 6
    kernel_w: 3
  }
}
layer {
  name: "relu4"
  type: "ReLU"
  bottom: "conv4"
  top: "conv4"
}
layer {
  name: "pool4"
  type: "Pooling"
  bottom: "conv4"
  top: "pool4"
  pooling_param {
    pool: MAX
    kernel_h: 2
    kernel_w: 1
    stride_h: 2
    stride_w: 1
  }
}
layer {
  name: "ip1"
  type: "InnerProduct"
  bottom: "pool4"
  top: "ip1"
  inner_product_param {
    num_output: 196
    weight_filler {
      type: "xavier"
    }
    bias_filler {
      type: "constant"
    }
  }
}
layer {
  name: "relu5"
  type: "ReLU"
  bottom: "ip1"
  top: "ip1"
}
layer {
  name: "drop1"
  type: "Dropout"
  bottom: "ip1"
  top: "ip1"
  dropout_param {
    dropout_ratio: 0.5
  }
}
layer {
  name: "ip2"
  type: "InnerProduct"
  bottom: "ip1"
  top: "ip2"
  inner_product_param {
    num_output: 98
    weight_filler {
      type: "xavier"
    }
    bias_filler {
      type: "constant"
    }
  }
}
layer {
  name: "relu6"
  type: "ReLU"
  bottom: "ip2"
  top: "ip2"
}
layer {
  name: "drop2"
  type: "Dropout"
  bottom: "ip2"
  top: "ip2"
  dropout_param {
    dropout_ratio: 0.5
  }
}
layer {
  name: "ip3"
  type: "InnerProduct"
  bottom: "ip2"
  top: "ip3"
  inner_product_param {
    num_output: 11
    weight_filler {
      type: "xavier"
    }
    bias_filler {
      type: "constant"
    }
  }
}
layer {
  name: "drop3"
  type: "Dropout"
  bottom: "ip3"
  top: "ip3"
  dropout_param {
    dropout_ratio: 0.5
  }
}
layer {
  name: "accuracy"
  type: "Accuracy"
  bottom: "ip3"
  bottom: "label"
  top: "accuracy"
  include {
    phase: TEST
  }
}
layer {
  name: "loss"
  type: "SoftmaxWithLoss"
  bottom: "ip3"
  bottom: "label"
  top: "loss"
}
I0526 21:38:38.206689 31495 layer_factory.hpp:77] Creating layer data_hdf5
I0526 21:38:38.206710 31495 net.cpp:106] Creating Layer data_hdf5
I0526 21:38:38.206727 31495 net.cpp:411] data_hdf5 -> data
I0526 21:38:38.206749 31495 net.cpp:411] data_hdf5 -> label
I0526 21:38:38.206768 31495 hdf5_data_layer.cpp:79] Loading list of HDF5 filenames from: /lustre/atlas/proj-shared/hep105/caffe_titan/minosmatch_nukecczdefs_127x50_x_unshifted_me1Bmc.testlist
I0526 21:38:38.208061 31495 hdf5_data_layer.cpp:93] Number of HDF5 files: 3
I0526 21:38:59.565418 31495 net.cpp:150] Setting up data_hdf5
I0526 21:38:59.565589 31495 net.cpp:157] Top shape: 30 1 127 50 (190500)
I0526 21:38:59.565609 31495 net.cpp:157] Top shape: 30 (30)
I0526 21:38:59.565623 31495 net.cpp:165] Memory required for data: 762120
I0526 21:38:59.565637 31495 layer_factory.hpp:77] Creating layer label_data_hdf5_1_split
I0526 21:38:59.565672 31495 net.cpp:106] Creating Layer label_data_hdf5_1_split
I0526 21:38:59.565706 31495 net.cpp:454] label_data_hdf5_1_split <- label
I0526 21:38:59.565723 31495 net.cpp:411] label_data_hdf5_1_split -> label_data_hdf5_1_split_0
I0526 21:38:59.565745 31495 net.cpp:411] label_data_hdf5_1_split -> label_data_hdf5_1_split_1
I0526 21:38:59.565831 31495 net.cpp:150] Setting up label_data_hdf5_1_split
I0526 21:38:59.565850 31495 net.cpp:157] Top shape: 30 (30)
I0526 21:38:59.565865 31495 net.cpp:157] Top shape: 30 (30)
I0526 21:38:59.565887 31495 net.cpp:165] Memory required for data: 762360
I0526 21:38:59.565901 31495 layer_factory.hpp:77] Creating layer conv1
I0526 21:38:59.565927 31495 net.cpp:106] Creating Layer conv1
I0526 21:38:59.565946 31495 net.cpp:454] conv1 <- data
I0526 21:38:59.565964 31495 net.cpp:411] conv1 -> conv1
I0526 21:38:59.567922 31495 net.cpp:150] Setting up conv1
I0526 21:38:59.567948 31495 net.cpp:157] Top shape: 30 12 120 48 (2073600)
I0526 21:38:59.567961 31495 net.cpp:165] Memory required for data: 9056760
I0526 21:38:59.567988 31495 layer_factory.hpp:77] Creating layer relu1
I0526 21:38:59.568016 31495 net.cpp:106] Creating Layer relu1
I0526 21:38:59.568028 31495 net.cpp:454] relu1 <- conv1
I0526 21:38:59.568045 31495 net.cpp:397] relu1 -> conv1 (in-place)
I0526 21:38:59.568572 31495 net.cpp:150] Setting up relu1
I0526 21:38:59.568596 31495 net.cpp:157] Top shape: 30 12 120 48 (2073600)
I0526 21:38:59.568609 31495 net.cpp:165] Memory required for data: 17351160
I0526 21:38:59.568626 31495 layer_factory.hpp:77] Creating layer pool1
I0526 21:38:59.568652 31495 net.cpp:106] Creating Layer pool1
I0526 21:38:59.568666 31495 net.cpp:454] pool1 <- conv1
I0526 21:38:59.568683 31495 net.cpp:411] pool1 -> pool1
I0526 21:38:59.568773 31495 net.cpp:150] Setting up pool1
I0526 21:38:59.568789 31495 net.cpp:157] Top shape: 30 12 60 48 (1036800)
I0526 21:38:59.568804 31495 net.cpp:165] Memory required for data: 21498360
I0526 21:38:59.568824 31495 layer_factory.hpp:77] Creating layer conv2
I0526 21:38:59.568845 31495 net.cpp:106] Creating Layer conv2
I0526 21:38:59.568866 31495 net.cpp:454] conv2 <- pool1
I0526 21:38:59.568882 31495 net.cpp:411] conv2 -> conv2
I0526 21:38:59.570834 31495 net.cpp:150] Setting up conv2
I0526 21:38:59.570863 31495 net.cpp:157] Top shape: 30 20 54 46 (1490400)
I0526 21:38:59.570876 31495 net.cpp:165] Memory required for data: 27459960
I0526 21:38:59.570901 31495 layer_factory.hpp:77] Creating layer relu2
I0526 21:38:59.570926 31495 net.cpp:106] Creating Layer relu2
I0526 21:38:59.570940 31495 net.cpp:454] relu2 <- conv2
I0526 21:38:59.570955 31495 net.cpp:397] relu2 -> conv2 (in-place)
I0526 21:38:59.571312 31495 net.cpp:150] Setting up relu2
I0526 21:38:59.571332 31495 net.cpp:157] Top shape: 30 20 54 46 (1490400)
I0526 21:38:59.571346 31495 net.cpp:165] Memory required for data: 33421560
I0526 21:38:59.571357 31495 layer_factory.hpp:77] Creating layer pool2
I0526 21:38:59.571377 31495 net.cpp:106] Creating Layer pool2
I0526 21:38:59.571408 31495 net.cpp:454] pool2 <- conv2
I0526 21:38:59.571422 31495 net.cpp:411] pool2 -> pool2
I0526 21:38:59.571511 31495 net.cpp:150] Setting up pool2
I0526 21:38:59.571527 31495 net.cpp:157] Top shape: 30 20 27 46 (745200)
I0526 21:38:59.571542 31495 net.cpp:165] Memory required for data: 36402360
I0526 21:38:59.571554 31495 layer_factory.hpp:77] Creating layer conv3
I0526 21:38:59.571583 31495 net.cpp:106] Creating Layer conv3
I0526 21:38:59.571604 31495 net.cpp:454] conv3 <- pool2
I0526 21:38:59.571620 31495 net.cpp:411] conv3 -> conv3
I0526 21:38:59.573624 31495 net.cpp:150] Setting up conv3
I0526 21:38:59.573653 31495 net.cpp:157] Top shape: 30 28 22 44 (813120)
I0526 21:38:59.573668 31495 net.cpp:165] Memory required for data: 39654840
I0526 21:38:59.573706 31495 layer_factory.hpp:77] Creating layer relu3
I0526 21:38:59.573732 31495 net.cpp:106] Creating Layer relu3
I0526 21:38:59.573746 31495 net.cpp:454] relu3 <- conv3
I0526 21:38:59.573770 31495 net.cpp:397] relu3 -> conv3 (in-place)
I0526 21:38:59.574273 31495 net.cpp:150] Setting up relu3
I0526 21:38:59.574296 31495 net.cpp:157] Top shape: 30 28 22 44 (813120)
I0526 21:38:59.574309 31495 net.cpp:165] Memory required for data: 42907320
I0526 21:38:59.574326 31495 layer_factory.hpp:77] Creating layer pool3
I0526 21:38:59.574342 31495 net.cpp:106] Creating Layer pool3
I0526 21:38:59.574362 31495 net.cpp:454] pool3 <- conv3
I0526 21:38:59.574379 31495 net.cpp:411] pool3 -> pool3
I0526 21:38:59.574467 31495 net.cpp:150] Setting up pool3
I0526 21:38:59.574484 31495 net.cpp:157] Top shape: 30 28 11 44 (406560)
I0526 21:38:59.574499 31495 net.cpp:165] Memory required for data: 44533560
I0526 21:38:59.574512 31495 layer_factory.hpp:77] Creating layer conv4
I0526 21:38:59.574538 31495 net.cpp:106] Creating Layer conv4
I0526 21:38:59.574551 31495 net.cpp:454] conv4 <- pool3
I0526 21:38:59.574568 31495 net.cpp:411] conv4 -> conv4
I0526 21:38:59.576668 31495 net.cpp:150] Setting up conv4
I0526 21:38:59.576691 31495 net.cpp:157] Top shape: 30 36 6 42 (272160)
I0526 21:38:59.576712 31495 net.cpp:165] Memory required for data: 45622200
I0526 21:38:59.576731 31495 layer_factory.hpp:77] Creating layer relu4
I0526 21:38:59.576751 31495 net.cpp:106] Creating Layer relu4
I0526 21:38:59.576764 31495 net.cpp:454] relu4 <- conv4
I0526 21:38:59.576792 31495 net.cpp:397] relu4 -> conv4 (in-place)
I0526 21:38:59.577280 31495 net.cpp:150] Setting up relu4
I0526 21:38:59.577303 31495 net.cpp:157] Top shape: 30 36 6 42 (272160)
I0526 21:38:59.577316 31495 net.cpp:165] Memory required for data: 46710840
I0526 21:38:59.577332 31495 layer_factory.hpp:77] Creating layer pool4
I0526 21:38:59.577356 31495 net.cpp:106] Creating Layer pool4
I0526 21:38:59.577370 31495 net.cpp:454] pool4 <- conv4
I0526 21:38:59.577388 31495 net.cpp:411] pool4 -> pool4
I0526 21:38:59.577474 31495 net.cpp:150] Setting up pool4
I0526 21:38:59.577491 31495 net.cpp:157] Top shape: 30 36 3 42 (136080)
I0526 21:38:59.577507 31495 net.cpp:165] Memory required for data: 47255160
I0526 21:38:59.577518 31495 layer_factory.hpp:77] Creating layer ip1
I0526 21:38:59.577543 31495 net.cpp:106] Creating Layer ip1
I0526 21:38:59.577556 31495 net.cpp:454] ip1 <- pool4
I0526 21:38:59.577574 31495 net.cpp:411] ip1 -> ip1
I0526 21:38:59.593024 31495 net.cpp:150] Setting up ip1
I0526 21:38:59.593056 31495 net.cpp:157] Top shape: 30 196 (5880)
I0526 21:38:59.593078 31495 net.cpp:165] Memory required for data: 47278680
I0526 21:38:59.593104 31495 layer_factory.hpp:77] Creating layer relu5
I0526 21:38:59.593127 31495 net.cpp:106] Creating Layer relu5
I0526 21:38:59.593150 31495 net.cpp:454] relu5 <- ip1
I0526 21:38:59.593168 31495 net.cpp:397] relu5 -> ip1 (in-place)
I0526 21:38:59.593531 31495 net.cpp:150] Setting up relu5
I0526 21:38:59.593552 31495 net.cpp:157] Top shape: 30 196 (5880)
I0526 21:38:59.593565 31495 net.cpp:165] Memory required for data: 47302200
I0526 21:38:59.593577 31495 layer_factory.hpp:77] Creating layer drop1
I0526 21:38:59.593611 31495 net.cpp:106] Creating Layer drop1
I0526 21:38:59.593624 31495 net.cpp:454] drop1 <- ip1
I0526 21:38:59.593641 31495 net.cpp:397] drop1 -> ip1 (in-place)
I0526 21:38:59.593701 31495 net.cpp:150] Setting up drop1
I0526 21:38:59.593719 31495 net.cpp:157] Top shape: 30 196 (5880)
I0526 21:38:59.593731 31495 net.cpp:165] Memory required for data: 47325720
I0526 21:38:59.593744 31495 layer_factory.hpp:77] Creating layer ip2
I0526 21:38:59.593765 31495 net.cpp:106] Creating Layer ip2
I0526 21:38:59.593777 31495 net.cpp:454] ip2 <- ip1
I0526 21:38:59.593801 31495 net.cpp:411] ip2 -> ip2
I0526 21:38:59.594298 31495 net.cpp:150] Setting up ip2
I0526 21:38:59.594317 31495 net.cpp:157] Top shape: 30 98 (2940)
I0526 21:38:59.594331 31495 net.cpp:165] Memory required for data: 47337480
I0526 21:38:59.594352 31495 layer_factory.hpp:77] Creating layer relu6
I0526 21:38:59.594386 31495 net.cpp:106] Creating Layer relu6
I0526 21:38:59.594399 31495 net.cpp:454] relu6 <- ip2
I0526 21:38:59.594415 31495 net.cpp:397] relu6 -> ip2 (in-place)
I0526 21:38:59.594975 31495 net.cpp:150] Setting up relu6
I0526 21:38:59.594998 31495 net.cpp:157] Top shape: 30 98 (2940)
I0526 21:38:59.595012 31495 net.cpp:165] Memory required for data: 47349240
I0526 21:38:59.595024 31495 layer_factory.hpp:77] Creating layer drop2
I0526 21:38:59.595044 31495 net.cpp:106] Creating Layer drop2
I0526 21:38:59.595067 31495 net.cpp:454] drop2 <- ip2
I0526 21:38:59.595083 31495 net.cpp:397] drop2 -> ip2 (in-place)
I0526 21:38:59.595136 31495 net.cpp:150] Setting up drop2
I0526 21:38:59.595158 31495 net.cpp:157] Top shape: 30 98 (2940)
I0526 21:38:59.595171 31495 net.cpp:165] Memory required for data: 47361000
I0526 21:38:59.595191 31495 layer_factory.hpp:77] Creating layer ip3
I0526 21:38:59.595207 31495 net.cpp:106] Creating Layer ip3
I0526 21:38:59.595219 31495 net.cpp:454] ip3 <- ip2
I0526 21:38:59.595239 31495 net.cpp:411] ip3 -> ip3
I0526 21:38:59.595492 31495 net.cpp:150] Setting up ip3
I0526 21:38:59.595511 31495 net.cpp:157] Top shape: 30 11 (330)
I0526 21:38:59.595525 31495 net.cpp:165] Memory required for data: 47362320
I0526 21:38:59.595546 31495 layer_factory.hpp:77] Creating layer drop3
I0526 21:38:59.595568 31495 net.cpp:106] Creating Layer drop3
I0526 21:38:59.595582 31495 net.cpp:454] drop3 <- ip3
I0526 21:38:59.595597 31495 net.cpp:397] drop3 -> ip3 (in-place)
I0526 21:38:59.595646 31495 net.cpp:150] Setting up drop3
I0526 21:38:59.595669 31495 net.cpp:157] Top shape: 30 11 (330)
I0526 21:38:59.595682 31495 net.cpp:165] Memory required for data: 47363640
I0526 21:38:59.595695 31495 layer_factory.hpp:77] Creating layer ip3_drop3_0_split
I0526 21:38:59.595711 31495 net.cpp:106] Creating Layer ip3_drop3_0_split
I0526 21:38:59.595723 31495 net.cpp:454] ip3_drop3_0_split <- ip3
I0526 21:38:59.595741 31495 net.cpp:411] ip3_drop3_0_split -> ip3_drop3_0_split_0
I0526 21:38:59.595767 31495 net.cpp:411] ip3_drop3_0_split -> ip3_drop3_0_split_1
I0526 21:38:59.595855 31495 net.cpp:150] Setting up ip3_drop3_0_split
I0526 21:38:59.595872 31495 net.cpp:157] Top shape: 30 11 (330)
I0526 21:38:59.595896 31495 net.cpp:157] Top shape: 30 11 (330)
I0526 21:38:59.595908 31495 net.cpp:165] Memory required for data: 47366280
I0526 21:38:59.595923 31495 layer_factory.hpp:77] Creating layer accuracy
I0526 21:38:59.595952 31495 net.cpp:106] Creating Layer accuracy
I0526 21:38:59.595966 31495 net.cpp:454] accuracy <- ip3_drop3_0_split_0
I0526 21:38:59.595980 31495 net.cpp:454] accuracy <- label_data_hdf5_1_split_0
I0526 21:38:59.595998 31495 net.cpp:411] accuracy -> accuracy
…
