…
I0527 03:13:35.068436  7584 net.cpp:322] The NetState phase (0) differed from the phase (1) specified by a rule in layer data_hdf5
I0527 03:13:35.068500  7584 net.cpp:322] The NetState phase (0) differed from the phase (1) specified by a rule in layer accuracy
I0527 03:13:35.068878  7584 net.cpp:49] Initializing net from parameters: 
name: "caffe_test_127x50_x_unshifted"
state {
  phase: TRAIN
}
layer {
  name: "data_hdf5"
  type: "HDF5Data"
  top: "data"
  top: "label"
  include {
    phase: TRAIN
  }
  hdf5_data_param {
    source: "/lustre/atlas/proj-shared/hep105/caffe_titan/minosmatch_nukecczdefs_127x50_x_unshifted_me1Bmc.trainlist"
    batch_size: 30
  }
}
layer {
  name: "conv1"
  type: "Convolution"
  bottom: "data"
  top: "conv1"
  convolution_param {
    num_output: 12
    pad: 0
    stride: 1
    weight_filler {
      type: "xavier"
    }
    bias_filler {
      type: "constant"
    }
    kernel_h: 8
    kernel_w: 3
  }
}
layer {
  name: "relu1"
  type: "ReLU"
  bottom: "conv1"
  top: "conv1"
}
layer {
  name: "pool1"
  type: "Pooling"
  bottom: "conv1"
  top: "pool1"
  pooling_param {
    pool: MAX
    kernel_h: 2
    kernel_w: 1
    stride_h: 2
    stride_w: 1
  }
}
layer {
  name: "conv2"
  type: "Convolution"
  bottom: "pool1"
  top: "conv2"
  convolution_param {
    num_output: 20
    pad: 0
    stride: 1
    weight_filler {
      type: "xavier"
    }
    bias_filler {
      type: "constant"
    }
    kernel_h: 7
    kernel_w: 3
  }
}
layer {
  name: "relu2"
  type: "ReLU"
  bottom: "conv2"
  top: "conv2"
}
layer {
  name: "pool2"
  type: "Pooling"
  bottom: "conv2"
  top: "pool2"
  pooling_param {
    pool: MAX
    kernel_h: 2
    kernel_w: 1
    stride_h: 2
    stride_w: 1
  }
}
layer {
  name: "conv3"
  type: "Convolution"
  bottom: "pool2"
  top: "conv3"
  convolution_param {
    num_output: 28
    pad: 0
    stride: 1
    weight_filler {
      type: "xavier"
    }
    bias_filler {
      type: "constant"
    }
    kernel_h: 6
    kernel_w: 3
  }
}
layer {
  name: "relu3"
  type: "ReLU"
  bottom: "conv3"
  top: "conv3"
}
layer {
  name: "pool3"
  type: "Pooling"
  bottom: "conv3"
  top: "pool3"
  pooling_param {
    pool: MAX
    kernel_h: 2
    kernel_w: 1
    stride_h: 2
    stride_w: 1
  }
}
layer {
  name: "conv4"
  type: "Convolution"
  bottom: "pool3"
  top: "conv4"
  convolution_param {
    num_output: 36
    pad: 0
    stride: 1
    weight_filler {
      type: "xavier"
    }
    bias_filler {
      type: "constant"
    }
    kernel_h: 6
    kernel_w: 3
  }
}
layer {
  name: "relu4"
  type: "ReLU"
  bottom: "conv4"
  top: "conv4"
}
layer {
  name: "pool4"
  type: "Pooling"
  bottom: "conv4"
  top: "pool4"
  pooling_param {
    pool: MAX
    kernel_h: 2
    kernel_w: 1
    stride_h: 2
    stride_w: 1
  }
}
layer {
  name: "ip1"
  type: "InnerProduct"
  bottom: "pool4"
  top: "ip1"
  inner_product_param {
    num_output: 196
    weight_filler {
      type: "xavier"
    }
    bias_filler {
      type: "constant"
    }
  }
}
layer {
  name: "relu5"
  type: "ReLU"
  bottom: "ip1"
  top: "ip1"
}
layer {
  name: "drop1"
  type: "Dropout"
  bottom: "ip1"
  top: "ip1"
  dropout_param {
    dropout_ratio: 0.5
  }
}
layer {
  name: "ip2"
  type: "InnerProduct"
  bottom: "ip1"
  top: "ip2"
  inner_product_param {
    num_output: 98
    weight_filler {
      type: "xavier"
    }
    bias_filler {
      type: "constant"
    }
  }
}
layer {
  name: "relu6"
  type: "ReLU"
  bottom: "ip2"
  top: "ip2"
}
layer {
  name: "drop2"
  type: "Dropout"
  bottom: "ip2"
  top: "ip2"
  dropout_param {
    dropout_ratio: 0.5
  }
}
layer {
  name: "ip3"
  type: "InnerProduct"
  bottom: "ip2"
  top: "ip3"
  inner_product_param {
    num_output: 11
    weight_filler {
      type: "xavier"
    }
    bias_filler {
      type: "constant"
    }
  }
}
layer {
  name: "drop3"
  type: "Dropout"
  bottom: "ip3"
  top: "ip3"
  dropout_param {
    dropout_ratio: 0.5
  }
}
layer {
  name: "loss"
  type: "SoftmaxWithLoss"
  bottom: "ip3"
  bottom: "label"
  top: "loss"
}
I0527 03:13:35.069090  7584 layer_factory.hpp:77] Creating layer data_hdf5
I0527 03:13:35.069120  7584 net.cpp:106] Creating Layer data_hdf5
I0527 03:13:35.069144  7584 net.cpp:411] data_hdf5 -> data
I0527 03:13:35.069178  7584 net.cpp:411] data_hdf5 -> label
I0527 03:13:35.069221  7584 hdf5_data_layer.cpp:79] Loading list of HDF5 filenames from: /lustre/atlas/proj-shared/hep105/caffe_titan/minosmatch_nukecczdefs_127x50_x_unshifted_me1Bmc.trainlist
I0527 03:13:35.070580  7584 hdf5_data_layer.cpp:93] Number of HDF5 files: 15
I0527 03:13:35.072978  7584 hdf5.cpp:32] Datatype class: H5T_FLOAT
I0527 03:13:56.654943  7584 hdf5.cpp:35] Datatype class: H5T_INTEGER
I0527 03:13:56.660215  7584 net.cpp:150] Setting up data_hdf5
I0527 03:13:56.660257  7584 net.cpp:157] Top shape: 30 1 127 50 (190500)
I0527 03:13:56.660274  7584 net.cpp:157] Top shape: 30 (30)
I0527 03:13:56.660287  7584 net.cpp:165] Memory required for data: 762120
I0527 03:13:56.660306  7584 layer_factory.hpp:77] Creating layer conv1
I0527 03:13:56.660351  7584 net.cpp:106] Creating Layer conv1
I0527 03:13:56.660365  7584 net.cpp:454] conv1 <- data
I0527 03:13:56.660390  7584 net.cpp:411] conv1 -> conv1
I0527 03:13:57.025745  7584 net.cpp:150] Setting up conv1
I0527 03:13:57.025799  7584 net.cpp:157] Top shape: 30 12 120 48 (2073600)
I0527 03:13:57.025815  7584 net.cpp:165] Memory required for data: 9056520
I0527 03:13:57.025846  7584 layer_factory.hpp:77] Creating layer relu1
I0527 03:13:57.025876  7584 net.cpp:106] Creating Layer relu1
I0527 03:13:57.025908  7584 net.cpp:454] relu1 <- conv1
I0527 03:13:57.025926  7584 net.cpp:397] relu1 -> conv1 (in-place)
I0527 03:13:57.026465  7584 net.cpp:150] Setting up relu1
I0527 03:13:57.026490  7584 net.cpp:157] Top shape: 30 12 120 48 (2073600)
I0527 03:13:57.026504  7584 net.cpp:165] Memory required for data: 17350920
I0527 03:13:57.026520  7584 layer_factory.hpp:77] Creating layer pool1
I0527 03:13:57.026548  7584 net.cpp:106] Creating Layer pool1
I0527 03:13:57.026562  7584 net.cpp:454] pool1 <- conv1
I0527 03:13:57.026578  7584 net.cpp:411] pool1 -> pool1
I0527 03:13:57.026672  7584 net.cpp:150] Setting up pool1
I0527 03:13:57.026690  7584 net.cpp:157] Top shape: 30 12 60 48 (1036800)
I0527 03:13:57.026711  7584 net.cpp:165] Memory required for data: 21498120
I0527 03:13:57.026726  7584 layer_factory.hpp:77] Creating layer conv2
I0527 03:13:57.026751  7584 net.cpp:106] Creating Layer conv2
I0527 03:13:57.026764  7584 net.cpp:454] conv2 <- pool1
I0527 03:13:57.026779  7584 net.cpp:411] conv2 -> conv2
I0527 03:13:57.029455  7584 net.cpp:150] Setting up conv2
I0527 03:13:57.029490  7584 net.cpp:157] Top shape: 30 20 54 46 (1490400)
I0527 03:13:57.029505  7584 net.cpp:165] Memory required for data: 27459720
I0527 03:13:57.029532  7584 layer_factory.hpp:77] Creating layer relu2
I0527 03:13:57.029561  7584 net.cpp:106] Creating Layer relu2
I0527 03:13:57.029574  7584 net.cpp:454] relu2 <- conv2
I0527 03:13:57.029590  7584 net.cpp:397] relu2 -> conv2 (in-place)
I0527 03:13:57.029947  7584 net.cpp:150] Setting up relu2
I0527 03:13:57.029966  7584 net.cpp:157] Top shape: 30 20 54 46 (1490400)
I0527 03:13:57.029979  7584 net.cpp:165] Memory required for data: 33421320
I0527 03:13:57.029995  7584 layer_factory.hpp:77] Creating layer pool2
I0527 03:13:57.030019  7584 net.cpp:106] Creating Layer pool2
I0527 03:13:57.030031  7584 net.cpp:454] pool2 <- conv2
I0527 03:13:57.030047  7584 net.cpp:411] pool2 -> pool2
I0527 03:13:57.030144  7584 net.cpp:150] Setting up pool2
I0527 03:13:57.030161  7584 net.cpp:157] Top shape: 30 20 27 46 (745200)
I0527 03:13:57.030182  7584 net.cpp:165] Memory required for data: 36402120
I0527 03:13:57.030197  7584 layer_factory.hpp:77] Creating layer conv3
I0527 03:13:57.030217  7584 net.cpp:106] Creating Layer conv3
I0527 03:13:57.030238  7584 net.cpp:454] conv3 <- pool2
I0527 03:13:57.030257  7584 net.cpp:411] conv3 -> conv3
I0527 03:13:57.032240  7584 net.cpp:150] Setting up conv3
I0527 03:13:57.032266  7584 net.cpp:157] Top shape: 30 28 22 44 (813120)
I0527 03:13:57.032287  7584 net.cpp:165] Memory required for data: 39654600
I0527 03:13:57.032310  7584 layer_factory.hpp:77] Creating layer relu3
I0527 03:13:57.032342  7584 net.cpp:106] Creating Layer relu3
I0527 03:13:57.032356  7584 net.cpp:454] relu3 <- conv3
I0527 03:13:57.032371  7584 net.cpp:397] relu3 -> conv3 (in-place)
I0527 03:13:57.032860  7584 net.cpp:150] Setting up relu3
I0527 03:13:57.032884  7584 net.cpp:157] Top shape: 30 28 22 44 (813120)
I0527 03:13:57.032897  7584 net.cpp:165] Memory required for data: 42907080
I0527 03:13:57.032913  7584 layer_factory.hpp:77] Creating layer pool3
I0527 03:13:57.032938  7584 net.cpp:106] Creating Layer pool3
I0527 03:13:57.032951  7584 net.cpp:454] pool3 <- conv3
I0527 03:13:57.032968  7584 net.cpp:411] pool3 -> pool3
I0527 03:13:57.033048  7584 net.cpp:150] Setting up pool3
I0527 03:13:57.033067  7584 net.cpp:157] Top shape: 30 28 11 44 (406560)
I0527 03:13:57.033080  7584 net.cpp:165] Memory required for data: 44533320
I0527 03:13:57.033095  7584 layer_factory.hpp:77] Creating layer conv4
I0527 03:13:57.033123  7584 net.cpp:106] Creating Layer conv4
I0527 03:13:57.033135  7584 net.cpp:454] conv4 <- pool3
I0527 03:13:57.033151  7584 net.cpp:411] conv4 -> conv4
I0527 03:13:57.035887  7584 net.cpp:150] Setting up conv4
I0527 03:13:57.035918  7584 net.cpp:157] Top shape: 30 36 6 42 (272160)
I0527 03:13:57.035933  7584 net.cpp:165] Memory required for data: 45621960
I0527 03:13:57.035953  7584 layer_factory.hpp:77] Creating layer relu4
I0527 03:13:57.035984  7584 net.cpp:106] Creating Layer relu4
I0527 03:13:57.036000  7584 net.cpp:454] relu4 <- conv4
I0527 03:13:57.036015  7584 net.cpp:397] relu4 -> conv4 (in-place)
I0527 03:13:57.036504  7584 net.cpp:150] Setting up relu4
I0527 03:13:57.036526  7584 net.cpp:157] Top shape: 30 36 6 42 (272160)
I0527 03:13:57.036540  7584 net.cpp:165] Memory required for data: 46710600
I0527 03:13:57.036556  7584 layer_factory.hpp:77] Creating layer pool4
I0527 03:13:57.036579  7584 net.cpp:106] Creating Layer pool4
I0527 03:13:57.036592  7584 net.cpp:454] pool4 <- conv4
I0527 03:13:57.036608  7584 net.cpp:411] pool4 -> pool4
I0527 03:13:57.036690  7584 net.cpp:150] Setting up pool4
I0527 03:13:57.036713  7584 net.cpp:157] Top shape: 30 36 3 42 (136080)
I0527 03:13:57.036727  7584 net.cpp:165] Memory required for data: 47254920
I0527 03:13:57.036742  7584 layer_factory.hpp:77] Creating layer ip1
I0527 03:13:57.036770  7584 net.cpp:106] Creating Layer ip1
I0527 03:13:57.036784  7584 net.cpp:454] ip1 <- pool4
I0527 03:13:57.036800  7584 net.cpp:411] ip1 -> ip1
I0527 03:13:57.052206  7584 net.cpp:150] Setting up ip1
I0527 03:13:57.052239  7584 net.cpp:157] Top shape: 30 196 (5880)
I0527 03:13:57.052261  7584 net.cpp:165] Memory required for data: 47278440
I0527 03:13:57.052287  7584 layer_factory.hpp:77] Creating layer relu5
I0527 03:13:57.052309  7584 net.cpp:106] Creating Layer relu5
I0527 03:13:57.052333  7584 net.cpp:454] relu5 <- ip1
I0527 03:13:57.052351  7584 net.cpp:397] relu5 -> ip1 (in-place)
I0527 03:13:57.052707  7584 net.cpp:150] Setting up relu5
I0527 03:13:57.052727  7584 net.cpp:157] Top shape: 30 196 (5880)
I0527 03:13:57.052741  7584 net.cpp:165] Memory required for data: 47301960
I0527 03:13:57.052757  7584 layer_factory.hpp:77] Creating layer drop1
I0527 03:13:57.052786  7584 net.cpp:106] Creating Layer drop1
I0527 03:13:57.052800  7584 net.cpp:454] drop1 <- ip1
I0527 03:13:57.052816  7584 net.cpp:397] drop1 -> ip1 (in-place)
I0527 03:13:57.052888  7584 net.cpp:150] Setting up drop1
I0527 03:13:57.052914  7584 net.cpp:157] Top shape: 30 196 (5880)
I0527 03:13:57.052927  7584 net.cpp:165] Memory required for data: 47325480
I0527 03:13:57.052939  7584 layer_factory.hpp:77] Creating layer ip2
I0527 03:13:57.052969  7584 net.cpp:106] Creating Layer ip2
I0527 03:13:57.052983  7584 net.cpp:454] ip2 <- ip1
I0527 03:13:57.052999  7584 net.cpp:411] ip2 -> ip2
I0527 03:13:57.053483  7584 net.cpp:150] Setting up ip2
I0527 03:13:57.053501  7584 net.cpp:157] Top shape: 30 98 (2940)
I0527 03:13:57.053514  7584 net.cpp:165] Memory required for data: 47337240
I0527 03:13:57.053535  7584 layer_factory.hpp:77] Creating layer relu6
I0527 03:13:57.053556  7584 net.cpp:106] Creating Layer relu6
I0527 03:13:57.053570  7584 net.cpp:454] relu6 <- ip2
I0527 03:13:57.053586  7584 net.cpp:397] relu6 -> ip2 (in-place)
I0527 03:13:57.054132  7584 net.cpp:150] Setting up relu6
I0527 03:13:57.054154  7584 net.cpp:157] Top shape: 30 98 (2940)
I0527 03:13:57.054168  7584 net.cpp:165] Memory required for data: 47349000
I0527 03:13:57.054184  7584 layer_factory.hpp:77] Creating layer drop2
I0527 03:13:57.054208  7584 net.cpp:106] Creating Layer drop2
I0527 03:13:57.054227  7584 net.cpp:454] drop2 <- ip2
I0527 03:13:57.054244  7584 net.cpp:397] drop2 -> ip2 (in-place)
I0527 03:13:57.054299  7584 net.cpp:150] Setting up drop2
I0527 03:13:57.054316  7584 net.cpp:157] Top shape: 30 98 (2940)
I0527 03:13:57.054337  7584 net.cpp:165] Memory required for data: 47360760
I0527 03:13:57.054349  7584 layer_factory.hpp:77] Creating layer ip3
I0527 03:13:57.054368  7584 net.cpp:106] Creating Layer ip3
I0527 03:13:57.054380  7584 net.cpp:454] ip3 <- ip2
I0527 03:13:57.054402  7584 net.cpp:411] ip3 -> ip3
I0527 03:13:57.054631  7584 net.cpp:150] Setting up ip3
I0527 03:13:57.054651  7584 net.cpp:157] Top shape: 30 11 (330)
I0527 03:13:57.054662  7584 net.cpp:165] Memory required for data: 47362080
I0527 03:13:57.054683  7584 layer_factory.hpp:77] Creating layer drop3
I0527 03:13:57.054704  7584 net.cpp:106] Creating Layer drop3
I0527 03:13:57.054718  7584 net.cpp:454] drop3 <- ip3
I0527 03:13:57.054733  7584 net.cpp:397] drop3 -> ip3 (in-place)
I0527 03:13:57.054780  7584 net.cpp:150] Setting up drop3
I0527 03:13:57.054801  7584 net.cpp:157] Top shape: 30 11 (330)
I0527 03:13:57.054814  7584 net.cpp:165] Memory required for data: 47363400
I0527 03:13:57.054829  7584 layer_factory.hpp:77] Creating layer loss
I0527 03:13:57.054852  7584 net.cpp:106] Creating Layer loss
I0527 03:13:57.054867  7584 net.cpp:454] loss <- ip3
I0527 03:13:57.054886  7584 net.cpp:454] loss <- label
I0527 03:13:57.054901  7584 net.cpp:411] loss -> loss
I0527 03:13:57.054921  7584 layer_factory.hpp:77] Creating layer loss
…
I0527 03:13:57.057831  7584 solver.cpp:181] Creating test net (#0) specified by net file: /lustre/atlas/proj-shared/hep105/caffe_titan/caffe_workflow/logs_bslr/bs_30_lr_0.0035_2016-05-20T15.48.59.592053.prototxt
I0527 03:13:57.057910  7584 net.cpp:322] The NetState phase (1) differed from the phase (0) specified by a rule in layer data_hdf5
I0527 03:13:57.058303  7584 net.cpp:49] Initializing net from parameters: 
name: "caffe_test_127x50_x_unshifted"
state {
  phase: TEST
}
layer {
  name: "data_hdf5"
  type: "HDF5Data"
  top: "data"
  top: "label"
  include {
    phase: TEST
  }
  hdf5_data_param {
    source: "/lustre/atlas/proj-shared/hep105/caffe_titan/minosmatch_nukecczdefs_127x50_x_unshifted_me1Bmc.testlist"
    batch_size: 30
  }
}
layer {
  name: "conv1"
  type: "Convolution"
  bottom: "data"
  top: "conv1"
  convolution_param {
    num_output: 12
    pad: 0
    stride: 1
    weight_filler {
      type: "xavier"
    }
    bias_filler {
      type: "constant"
    }
    kernel_h: 8
    kernel_w: 3
  }
}
layer {
  name: "relu1"
  type: "ReLU"
  bottom: "conv1"
  top: "conv1"
}
layer {
  name: "pool1"
  type: "Pooling"
  bottom: "conv1"
  top: "pool1"
  pooling_param {
    pool: MAX
    kernel_h: 2
    kernel_w: 1
    stride_h: 2
    stride_w: 1
  }
}
layer {
  name: "conv2"
  type: "Convolution"
  bottom: "pool1"
  top: "conv2"
  convolution_param {
    num_output: 20
    pad: 0
    stride: 1
    weight_filler {
      type: "xavier"
    }
    bias_filler {
      type: "constant"
    }
    kernel_h: 7
    kernel_w: 3
  }
}
layer {
  name: "relu2"
  type: "ReLU"
  bottom: "conv2"
  top: "conv2"
}
layer {
  name: "pool2"
  type: "Pooling"
  bottom: "conv2"
  top: "pool2"
  pooling_param {
    pool: MAX
    kernel_h: 2
    kernel_w: 1
    stride_h: 2
    stride_w: 1
  }
}
layer {
  name: "conv3"
  type: "Convolution"
  bottom: "pool2"
  top: "conv3"
  convolution_param {
    num_output: 28
    pad: 0
    stride: 1
    weight_filler {
      type: "xavier"
    }
    bias_filler {
      type: "constant"
    }
    kernel_h: 6
    kernel_w: 3
  }
}
layer {
  name: "relu3"
  type: "ReLU"
  bottom: "conv3"
  top: "conv3"
}
layer {
  name: "pool3"
  type: "Pooling"
  bottom: "conv3"
  top: "pool3"
  pooling_param {
    pool: MAX
    kernel_h: 2
    kernel_w: 1
    stride_h: 2
    stride_w: 1
  }
}
layer {
  name: "conv4"
  type: "Convolution"
  bottom: "pool3"
  top: "conv4"
  convolution_param {
    num_output: 36
    pad: 0
    stride: 1
    weight_filler {
      type: "xavier"
    }
    bias_filler {
      type: "constant"
    }
    kernel_h: 6
    kernel_w: 3
  }
}
layer {
  name: "relu4"
  type: "ReLU"
  bottom: "conv4"
  top: "conv4"
}
layer {
  name: "pool4"
  type: "Pooling"
  bottom: "conv4"
  top: "pool4"
  pooling_param {
    pool: MAX
    kernel_h: 2
    kernel_w: 1
    stride_h: 2
    stride_w: 1
  }
}
layer {
  name: "ip1"
  type: "InnerProduct"
  bottom: "pool4"
  top: "ip1"
  inner_product_param {
    num_output: 196
    weight_filler {
      type: "xavier"
    }
    bias_filler {
      type: "constant"
    }
  }
}
layer {
  name: "relu5"
  type: "ReLU"
  bottom: "ip1"
  top: "ip1"
}
layer {
  name: "drop1"
  type: "Dropout"
  bottom: "ip1"
  top: "ip1"
  dropout_param {
    dropout_ratio: 0.5
  }
}
layer {
  name: "ip2"
  type: "InnerProduct"
  bottom: "ip1"
  top: "ip2"
  inner_product_param {
    num_output: 98
    weight_filler {
      type: "xavier"
    }
    bias_filler {
      type: "constant"
    }
  }
}
layer {
  name: "relu6"
  type: "ReLU"
  bottom: "ip2"
  top: "ip2"
}
layer {
  name: "drop2"
  type: "Dropout"
  bottom: "ip2"
  top: "ip2"
  dropout_param {
    dropout_ratio: 0.5
  }
}
layer {
  name: "ip3"
  type: "InnerProduct"
  bottom: "ip2"
  top: "ip3"
  inner_product_param {
    num_output: 11
    weight_filler {
      type: "xavier"
    }
    bias_filler {
      type: "constant"
    }
  }
}
layer {
  name: "drop3"
  type: "Dropout"
  bottom: "ip3"
  top: "ip3"
  dropout_param {
    dropout_ratio: 0.5
  }
}
layer {
  name: "accuracy"
  type: "Accuracy"
  bottom: "ip3"
  bottom: "label"
  top: "accuracy"
  include {
    phase: TEST
  }
}
layer {
  name: "loss"
  type: "SoftmaxWithLoss"
  bottom: "ip3"
  bottom: "label"
  top: "loss"
}
I0527 03:13:57.058524  7584 layer_factory.hpp:77] Creating layer data_hdf5
I0527 03:13:57.058545  7584 net.cpp:106] Creating Layer data_hdf5
I0527 03:13:57.058562  7584 net.cpp:411] data_hdf5 -> data
I0527 03:13:57.058583  7584 net.cpp:411] data_hdf5 -> label
I0527 03:13:57.058603  7584 hdf5_data_layer.cpp:79] Loading list of HDF5 filenames from: /lustre/atlas/proj-shared/hep105/caffe_titan/minosmatch_nukecczdefs_127x50_x_unshifted_me1Bmc.testlist
I0527 03:13:57.060034  7584 hdf5_data_layer.cpp:93] Number of HDF5 files: 3
I0527 03:14:18.440114  7584 net.cpp:150] Setting up data_hdf5
I0527 03:14:18.440284  7584 net.cpp:157] Top shape: 30 1 127 50 (190500)
I0527 03:14:18.440302  7584 net.cpp:157] Top shape: 30 (30)
I0527 03:14:18.440315  7584 net.cpp:165] Memory required for data: 762120
I0527 03:14:18.440330  7584 layer_factory.hpp:77] Creating layer label_data_hdf5_1_split
I0527 03:14:18.440364  7584 net.cpp:106] Creating Layer label_data_hdf5_1_split
I0527 03:14:18.440397  7584 net.cpp:454] label_data_hdf5_1_split <- label
I0527 03:14:18.440414  7584 net.cpp:411] label_data_hdf5_1_split -> label_data_hdf5_1_split_0
I0527 03:14:18.440438  7584 net.cpp:411] label_data_hdf5_1_split -> label_data_hdf5_1_split_1
I0527 03:14:18.440523  7584 net.cpp:150] Setting up label_data_hdf5_1_split
I0527 03:14:18.440541  7584 net.cpp:157] Top shape: 30 (30)
I0527 03:14:18.440556  7584 net.cpp:157] Top shape: 30 (30)
I0527 03:14:18.440568  7584 net.cpp:165] Memory required for data: 762360
I0527 03:14:18.440579  7584 layer_factory.hpp:77] Creating layer conv1
I0527 03:14:18.440613  7584 net.cpp:106] Creating Layer conv1
I0527 03:14:18.440625  7584 net.cpp:454] conv1 <- data
I0527 03:14:18.440642  7584 net.cpp:411] conv1 -> conv1
I0527 03:14:18.442641  7584 net.cpp:150] Setting up conv1
I0527 03:14:18.442667  7584 net.cpp:157] Top shape: 30 12 120 48 (2073600)
I0527 03:14:18.442679  7584 net.cpp:165] Memory required for data: 9056760
I0527 03:14:18.442708  7584 layer_factory.hpp:77] Creating layer relu1
I0527 03:14:18.442734  7584 net.cpp:106] Creating Layer relu1
I0527 03:14:18.442747  7584 net.cpp:454] relu1 <- conv1
I0527 03:14:18.442764  7584 net.cpp:397] relu1 -> conv1 (in-place)
I0527 03:14:18.443292  7584 net.cpp:150] Setting up relu1
I0527 03:14:18.443315  7584 net.cpp:157] Top shape: 30 12 120 48 (2073600)
I0527 03:14:18.443328  7584 net.cpp:165] Memory required for data: 17351160
I0527 03:14:18.443344  7584 layer_factory.hpp:77] Creating layer pool1
I0527 03:14:18.443370  7584 net.cpp:106] Creating Layer pool1
I0527 03:14:18.443385  7584 net.cpp:454] pool1 <- conv1
I0527 03:14:18.443402  7584 net.cpp:411] pool1 -> pool1
I0527 03:14:18.443490  7584 net.cpp:150] Setting up pool1
I0527 03:14:18.443507  7584 net.cpp:157] Top shape: 30 12 60 48 (1036800)
I0527 03:14:18.443528  7584 net.cpp:165] Memory required for data: 21498360
I0527 03:14:18.443543  7584 layer_factory.hpp:77] Creating layer conv2
I0527 03:14:18.443563  7584 net.cpp:106] Creating Layer conv2
I0527 03:14:18.443584  7584 net.cpp:454] conv2 <- pool1
I0527 03:14:18.443601  7584 net.cpp:411] conv2 -> conv2
I0527 03:14:18.445544  7584 net.cpp:150] Setting up conv2
I0527 03:14:18.445569  7584 net.cpp:157] Top shape: 30 20 54 46 (1490400)
I0527 03:14:18.445588  7584 net.cpp:165] Memory required for data: 27459960
I0527 03:14:18.445611  7584 layer_factory.hpp:77] Creating layer relu2
I0527 03:14:18.445631  7584 net.cpp:106] Creating Layer relu2
I0527 03:14:18.445652  7584 net.cpp:454] relu2 <- conv2
I0527 03:14:18.445667  7584 net.cpp:397] relu2 -> conv2 (in-place)
I0527 03:14:18.446017  7584 net.cpp:150] Setting up relu2
I0527 03:14:18.446036  7584 net.cpp:157] Top shape: 30 20 54 46 (1490400)
I0527 03:14:18.446049  7584 net.cpp:165] Memory required for data: 33421560
I0527 03:14:18.446064  7584 layer_factory.hpp:77] Creating layer pool2
I0527 03:14:18.446087  7584 net.cpp:106] Creating Layer pool2
I0527 03:14:18.446100  7584 net.cpp:454] pool2 <- conv2
I0527 03:14:18.446115  7584 net.cpp:411] pool2 -> pool2
I0527 03:14:18.446204  7584 net.cpp:150] Setting up pool2
I0527 03:14:18.446238  7584 net.cpp:157] Top shape: 30 20 27 46 (745200)
I0527 03:14:18.446252  7584 net.cpp:165] Memory required for data: 36402360
I0527 03:14:18.446267  7584 layer_factory.hpp:77] Creating layer conv3
I0527 03:14:18.446296  7584 net.cpp:106] Creating Layer conv3
I0527 03:14:18.446310  7584 net.cpp:454] conv3 <- pool2
I0527 03:14:18.446336  7584 net.cpp:411] conv3 -> conv3
I0527 03:14:18.448345  7584 net.cpp:150] Setting up conv3
I0527 03:14:18.448371  7584 net.cpp:157] Top shape: 30 28 22 44 (813120)
I0527 03:14:18.448390  7584 net.cpp:165] Memory required for data: 39654840
I0527 03:14:18.448431  7584 layer_factory.hpp:77] Creating layer relu3
I0527 03:14:18.448456  7584 net.cpp:106] Creating Layer relu3
I0527 03:14:18.448469  7584 net.cpp:454] relu3 <- conv3
I0527 03:14:18.448485  7584 net.cpp:397] relu3 -> conv3 (in-place)
I0527 03:14:18.448984  7584 net.cpp:150] Setting up relu3
I0527 03:14:18.449007  7584 net.cpp:157] Top shape: 30 28 22 44 (813120)
I0527 03:14:18.449021  7584 net.cpp:165] Memory required for data: 42907320
I0527 03:14:18.449038  7584 layer_factory.hpp:77] Creating layer pool3
I0527 03:14:18.449060  7584 net.cpp:106] Creating Layer pool3
I0527 03:14:18.449074  7584 net.cpp:454] pool3 <- conv3
I0527 03:14:18.449090  7584 net.cpp:411] pool3 -> pool3
I0527 03:14:18.449177  7584 net.cpp:150] Setting up pool3
I0527 03:14:18.449193  7584 net.cpp:157] Top shape: 30 28 11 44 (406560)
I0527 03:14:18.449208  7584 net.cpp:165] Memory required for data: 44533560
I0527 03:14:18.449220  7584 layer_factory.hpp:77] Creating layer conv4
I0527 03:14:18.449247  7584 net.cpp:106] Creating Layer conv4
I0527 03:14:18.449260  7584 net.cpp:454] conv4 <- pool3
I0527 03:14:18.449277  7584 net.cpp:411] conv4 -> conv4
I0527 03:14:18.451373  7584 net.cpp:150] Setting up conv4
I0527 03:14:18.451398  7584 net.cpp:157] Top shape: 30 36 6 42 (272160)
I0527 03:14:18.451417  7584 net.cpp:165] Memory required for data: 45622200
I0527 03:14:18.451436  7584 layer_factory.hpp:77] Creating layer relu4
I0527 03:14:18.451457  7584 net.cpp:106] Creating Layer relu4
I0527 03:14:18.451478  7584 net.cpp:454] relu4 <- conv4
I0527 03:14:18.451494  7584 net.cpp:397] relu4 -> conv4 (in-place)
I0527 03:14:18.451983  7584 net.cpp:150] Setting up relu4
I0527 03:14:18.452006  7584 net.cpp:157] Top shape: 30 36 6 42 (272160)
I0527 03:14:18.452019  7584 net.cpp:165] Memory required for data: 46710840
I0527 03:14:18.452031  7584 layer_factory.hpp:77] Creating layer pool4
I0527 03:14:18.452059  7584 net.cpp:106] Creating Layer pool4
I0527 03:14:18.452074  7584 net.cpp:454] pool4 <- conv4
I0527 03:14:18.452090  7584 net.cpp:411] pool4 -> pool4
I0527 03:14:18.452177  7584 net.cpp:150] Setting up pool4
I0527 03:14:18.452194  7584 net.cpp:157] Top shape: 30 36 3 42 (136080)
I0527 03:14:18.452209  7584 net.cpp:165] Memory required for data: 47255160
I0527 03:14:18.452220  7584 layer_factory.hpp:77] Creating layer ip1
I0527 03:14:18.452244  7584 net.cpp:106] Creating Layer ip1
I0527 03:14:18.452257  7584 net.cpp:454] ip1 <- pool4
I0527 03:14:18.452280  7584 net.cpp:411] ip1 -> ip1
I0527 03:14:18.467670  7584 net.cpp:150] Setting up ip1
I0527 03:14:18.467703  7584 net.cpp:157] Top shape: 30 196 (5880)
I0527 03:14:18.467725  7584 net.cpp:165] Memory required for data: 47278680
I0527 03:14:18.467751  7584 layer_factory.hpp:77] Creating layer relu5
I0527 03:14:18.467772  7584 net.cpp:106] Creating Layer relu5
I0527 03:14:18.467797  7584 net.cpp:454] relu5 <- ip1
I0527 03:14:18.467814  7584 net.cpp:397] relu5 -> ip1 (in-place)
I0527 03:14:18.468178  7584 net.cpp:150] Setting up relu5
I0527 03:14:18.468199  7584 net.cpp:157] Top shape: 30 196 (5880)
I0527 03:14:18.468211  7584 net.cpp:165] Memory required for data: 47302200
I0527 03:14:18.468222  7584 layer_factory.hpp:77] Creating layer drop1
I0527 03:14:18.468255  7584 net.cpp:106] Creating Layer drop1
I0527 03:14:18.468269  7584 net.cpp:454] drop1 <- ip1
I0527 03:14:18.468286  7584 net.cpp:397] drop1 -> ip1 (in-place)
I0527 03:14:18.468348  7584 net.cpp:150] Setting up drop1
I0527 03:14:18.468364  7584 net.cpp:157] Top shape: 30 196 (5880)
I0527 03:14:18.468384  7584 net.cpp:165] Memory required for data: 47325720
I0527 03:14:18.468397  7584 layer_factory.hpp:77] Creating layer ip2
I0527 03:14:18.468416  7584 net.cpp:106] Creating Layer ip2
I0527 03:14:18.468428  7584 net.cpp:454] ip2 <- ip1
I0527 03:14:18.468452  7584 net.cpp:411] ip2 -> ip2
I0527 03:14:18.468948  7584 net.cpp:150] Setting up ip2
I0527 03:14:18.468967  7584 net.cpp:157] Top shape: 30 98 (2940)
I0527 03:14:18.468979  7584 net.cpp:165] Memory required for data: 47337480
I0527 03:14:18.469000  7584 layer_factory.hpp:77] Creating layer relu6
I0527 03:14:18.469058  7584 net.cpp:106] Creating Layer relu6
I0527 03:14:18.469074  7584 net.cpp:454] relu6 <- ip2
I0527 03:14:18.469091  7584 net.cpp:397] relu6 -> ip2 (in-place)
I0527 03:14:18.469657  7584 net.cpp:150] Setting up relu6
I0527 03:14:18.469681  7584 net.cpp:157] Top shape: 30 98 (2940)
I0527 03:14:18.469698  7584 net.cpp:165] Memory required for data: 47349240
I0527 03:14:18.469712  7584 layer_factory.hpp:77] Creating layer drop2
I0527 03:14:18.469727  7584 net.cpp:106] Creating Layer drop2
I0527 03:14:18.469743  7584 net.cpp:454] drop2 <- ip2
I0527 03:14:18.469768  7584 net.cpp:397] drop2 -> ip2 (in-place)
I0527 03:14:18.469815  7584 net.cpp:150] Setting up drop2
I0527 03:14:18.469835  7584 net.cpp:157] Top shape: 30 98 (2940)
I0527 03:14:18.469852  7584 net.cpp:165] Memory required for data: 47361000
I0527 03:14:18.469866  7584 layer_factory.hpp:77] Creating layer ip3
I0527 03:14:18.469882  7584 net.cpp:106] Creating Layer ip3
I0527 03:14:18.469895  7584 net.cpp:454] ip3 <- ip2
I0527 03:14:18.469914  7584 net.cpp:411] ip3 -> ip3
I0527 03:14:18.470161  7584 net.cpp:150] Setting up ip3
I0527 03:14:18.470180  7584 net.cpp:157] Top shape: 30 11 (330)
I0527 03:14:18.470193  7584 net.cpp:165] Memory required for data: 47362320
I0527 03:14:18.470214  7584 layer_factory.hpp:77] Creating layer drop3
I0527 03:14:18.470249  7584 net.cpp:106] Creating Layer drop3
I0527 03:14:18.470263  7584 net.cpp:454] drop3 <- ip3
I0527 03:14:18.470278  7584 net.cpp:397] drop3 -> ip3 (in-place)
I0527 03:14:18.470335  7584 net.cpp:150] Setting up drop3
I0527 03:14:18.470350  7584 net.cpp:157] Top shape: 30 11 (330)
I0527 03:14:18.470363  7584 net.cpp:165] Memory required for data: 47363640
I0527 03:14:18.470374  7584 layer_factory.hpp:77] Creating layer ip3_drop3_0_split
I0527 03:14:18.470393  7584 net.cpp:106] Creating Layer ip3_drop3_0_split
I0527 03:14:18.470413  7584 net.cpp:454] ip3_drop3_0_split <- ip3
I0527 03:14:18.470430  7584 net.cpp:411] ip3_drop3_0_split -> ip3_drop3_0_split_0
I0527 03:14:18.470458  7584 net.cpp:411] ip3_drop3_0_split -> ip3_drop3_0_split_1
I0527 03:14:18.470543  7584 net.cpp:150] Setting up ip3_drop3_0_split
I0527 03:14:18.470563  7584 net.cpp:157] Top shape: 30 11 (330)
I0527 03:14:18.470578  7584 net.cpp:157] Top shape: 30 11 (330)
I0527 03:14:18.470590  7584 net.cpp:165] Memory required for data: 47366280
I0527 03:14:18.470605  7584 layer_factory.hpp:77] Creating layer accuracy
I0527 03:14:18.470635  7584 net.cpp:106] Creating Layer accuracy
I0527 03:14:18.470649  7584 net.cpp:454] accuracy <- ip3_drop3_0_split_0
I0527 03:14:18.470662  7584 net.cpp:454] accuracy <- label_data_hdf5_1_split_0
I0527 03:14:18.470679  7584 net.cpp:411] accuracy -> accuracy
…
