…
I0522 10:07:45.337774  9292 net.cpp:322] The NetState phase (0) differed from the phase (1) specified by a rule in layer data_hdf5
I0522 10:07:45.337834  9292 net.cpp:322] The NetState phase (0) differed from the phase (1) specified by a rule in layer accuracy
I0522 10:07:45.338181  9292 net.cpp:49] Initializing net from parameters: 
name: "caffe_test_127x50_x_unshifted"
state {
  phase: TRAIN
}
layer {
  name: "data_hdf5"
  type: "HDF5Data"
  top: "data"
  top: "label"
  include {
    phase: TRAIN
  }
  hdf5_data_param {
    source: "/lustre/atlas/proj-shared/hep105/caffe_titan/minosmatch_nukecczdefs_127x50_x_unshifted_me1Bmc.trainlist"
    batch_size: 30
  }
}
layer {
  name: "conv1"
  type: "Convolution"
  bottom: "data"
  top: "conv1"
  convolution_param {
    num_output: 12
    pad: 0
    stride: 1
    weight_filler {
      type: "xavier"
    }
    bias_filler {
      type: "constant"
    }
    kernel_h: 8
    kernel_w: 3
  }
}
layer {
  name: "relu1"
  type: "ReLU"
  bottom: "conv1"
  top: "conv1"
}
layer {
  name: "pool1"
  type: "Pooling"
  bottom: "conv1"
  top: "pool1"
  pooling_param {
    pool: MAX
    kernel_h: 2
    kernel_w: 1
    stride_h: 2
    stride_w: 1
  }
}
layer {
  name: "conv2"
  type: "Convolution"
  bottom: "pool1"
  top: "conv2"
  convolution_param {
    num_output: 20
    pad: 0
    stride: 1
    weight_filler {
      type: "xavier"
    }
    bias_filler {
      type: "constant"
    }
    kernel_h: 7
    kernel_w: 3
  }
}
layer {
  name: "relu2"
  type: "ReLU"
  bottom: "conv2"
  top: "conv2"
}
layer {
  name: "pool2"
  type: "Pooling"
  bottom: "conv2"
  top: "pool2"
  pooling_param {
    pool: MAX
    kernel_h: 2
    kernel_w: 1
    stride_h: 2
    stride_w: 1
  }
}
layer {
  name: "conv3"
  type: "Convolution"
  bottom: "pool2"
  top: "conv3"
  convolution_param {
    num_output: 28
    pad: 0
    stride: 1
    weight_filler {
      type: "xavier"
    }
    bias_filler {
      type: "constant"
    }
    kernel_h: 6
    kernel_w: 3
  }
}
layer {
  name: "relu3"
  type: "ReLU"
  bottom: "conv3"
  top: "conv3"
}
layer {
  name: "pool3"
  type: "Pooling"
  bottom: "conv3"
  top: "pool3"
  pooling_param {
    pool: MAX
    kernel_h: 2
    kernel_w: 1
    stride_h: 2
    stride_w: 1
  }
}
layer {
  name: "conv4"
  type: "Convolution"
  bottom: "pool3"
  top: "conv4"
  convolution_param {
    num_output: 36
    pad: 0
    stride: 1
    weight_filler {
      type: "xavier"
    }
    bias_filler {
      type: "constant"
    }
    kernel_h: 6
    kernel_w: 3
  }
}
layer {
  name: "relu4"
  type: "ReLU"
  bottom: "conv4"
  top: "conv4"
}
layer {
  name: "pool4"
  type: "Pooling"
  bottom: "conv4"
  top: "pool4"
  pooling_param {
    pool: MAX
    kernel_h: 2
    kernel_w: 1
    stride_h: 2
    stride_w: 1
  }
}
layer {
  name: "ip1"
  type: "InnerProduct"
  bottom: "pool4"
  top: "ip1"
  inner_product_param {
    num_output: 196
    weight_filler {
      type: "xavier"
    }
    bias_filler {
      type: "constant"
    }
  }
}
layer {
  name: "relu5"
  type: "ReLU"
  bottom: "ip1"
  top: "ip1"
}
layer {
  name: "drop1"
  type: "Dropout"
  bottom: "ip1"
  top: "ip1"
  dropout_param {
    dropout_ratio: 0.5
  }
}
layer {
  name: "ip2"
  type: "InnerProduct"
  bottom: "ip1"
  top: "ip2"
  inner_product_param {
    num_output: 98
    weight_filler {
      type: "xavier"
    }
    bias_filler {
      type: "constant"
    }
  }
}
layer {
  name: "relu6"
  type: "ReLU"
  bottom: "ip2"
  top: "ip2"
}
layer {
  name: "drop2"
  type: "Dropout"
  bottom: "ip2"
  top: "ip2"
  dropout_param {
    dropout_ratio: 0.5
  }
}
layer {
  name: "ip3"
  type: "InnerProduct"
  bottom: "ip2"
  top: "ip3"
  inner_product_param {
    num_output: 11
    weight_filler {
      type: "xavier"
    }
    bias_filler {
      type: "constant"
    }
  }
}
layer {
  name: "drop3"
  type: "Dropout"
  bottom: "ip3"
  top: "ip3"
  dropout_param {
    dropout_ratio: 0.5
  }
}
layer {
  name: "loss"
  type: "SoftmaxWithLoss"
  bottom: "ip3"
  bottom: "label"
  top: "loss"
}
I0522 10:07:45.338359  9292 layer_factory.hpp:77] Creating layer data_hdf5
I0522 10:07:45.338384  9292 net.cpp:106] Creating Layer data_hdf5
I0522 10:07:45.338398  9292 net.cpp:411] data_hdf5 -> data
I0522 10:07:45.338433  9292 net.cpp:411] data_hdf5 -> label
I0522 10:07:45.338465  9292 hdf5_data_layer.cpp:79] Loading list of HDF5 filenames from: /lustre/atlas/proj-shared/hep105/caffe_titan/minosmatch_nukecczdefs_127x50_x_unshifted_me1Bmc.trainlist
I0522 10:07:45.339903  9292 hdf5_data_layer.cpp:93] Number of HDF5 files: 15
I0522 10:07:45.342288  9292 hdf5.cpp:32] Datatype class: H5T_FLOAT
I0522 10:08:06.840625  9292 hdf5.cpp:35] Datatype class: H5T_INTEGER
I0522 10:08:06.845770  9292 net.cpp:150] Setting up data_hdf5
I0522 10:08:06.845810  9292 net.cpp:157] Top shape: 30 1 127 50 (190500)
I0522 10:08:06.845825  9292 net.cpp:157] Top shape: 30 (30)
I0522 10:08:06.845837  9292 net.cpp:165] Memory required for data: 762120
I0522 10:08:06.845850  9292 layer_factory.hpp:77] Creating layer conv1
I0522 10:08:06.845885  9292 net.cpp:106] Creating Layer conv1
I0522 10:08:06.845896  9292 net.cpp:454] conv1 <- data
I0522 10:08:06.845917  9292 net.cpp:411] conv1 -> conv1
I0522 10:08:07.226876  9292 net.cpp:150] Setting up conv1
I0522 10:08:07.226922  9292 net.cpp:157] Top shape: 30 12 120 48 (2073600)
I0522 10:08:07.226933  9292 net.cpp:165] Memory required for data: 9056520
I0522 10:08:07.226960  9292 layer_factory.hpp:77] Creating layer relu1
I0522 10:08:07.226981  9292 net.cpp:106] Creating Layer relu1
I0522 10:08:07.226992  9292 net.cpp:454] relu1 <- conv1
I0522 10:08:07.227005  9292 net.cpp:397] relu1 -> conv1 (in-place)
I0522 10:08:07.227536  9292 net.cpp:150] Setting up relu1
I0522 10:08:07.227553  9292 net.cpp:157] Top shape: 30 12 120 48 (2073600)
I0522 10:08:07.227565  9292 net.cpp:165] Memory required for data: 17350920
I0522 10:08:07.227576  9292 layer_factory.hpp:77] Creating layer pool1
I0522 10:08:07.227592  9292 net.cpp:106] Creating Layer pool1
I0522 10:08:07.227602  9292 net.cpp:454] pool1 <- conv1
I0522 10:08:07.227615  9292 net.cpp:411] pool1 -> pool1
I0522 10:08:07.227696  9292 net.cpp:150] Setting up pool1
I0522 10:08:07.227710  9292 net.cpp:157] Top shape: 30 12 60 48 (1036800)
I0522 10:08:07.227720  9292 net.cpp:165] Memory required for data: 21498120
I0522 10:08:07.227730  9292 layer_factory.hpp:77] Creating layer conv2
I0522 10:08:07.227752  9292 net.cpp:106] Creating Layer conv2
I0522 10:08:07.227764  9292 net.cpp:454] conv2 <- pool1
I0522 10:08:07.227777  9292 net.cpp:411] conv2 -> conv2
I0522 10:08:07.230466  9292 net.cpp:150] Setting up conv2
I0522 10:08:07.230494  9292 net.cpp:157] Top shape: 30 20 54 46 (1490400)
I0522 10:08:07.230505  9292 net.cpp:165] Memory required for data: 27459720
I0522 10:08:07.230525  9292 layer_factory.hpp:77] Creating layer relu2
I0522 10:08:07.230540  9292 net.cpp:106] Creating Layer relu2
I0522 10:08:07.230550  9292 net.cpp:454] relu2 <- conv2
I0522 10:08:07.230562  9292 net.cpp:397] relu2 -> conv2 (in-place)
I0522 10:08:07.230893  9292 net.cpp:150] Setting up relu2
I0522 10:08:07.230907  9292 net.cpp:157] Top shape: 30 20 54 46 (1490400)
I0522 10:08:07.230917  9292 net.cpp:165] Memory required for data: 33421320
I0522 10:08:07.230927  9292 layer_factory.hpp:77] Creating layer pool2
I0522 10:08:07.230939  9292 net.cpp:106] Creating Layer pool2
I0522 10:08:07.230949  9292 net.cpp:454] pool2 <- conv2
I0522 10:08:07.230962  9292 net.cpp:411] pool2 -> pool2
I0522 10:08:07.231042  9292 net.cpp:150] Setting up pool2
I0522 10:08:07.231056  9292 net.cpp:157] Top shape: 30 20 27 46 (745200)
I0522 10:08:07.231066  9292 net.cpp:165] Memory required for data: 36402120
I0522 10:08:07.231076  9292 layer_factory.hpp:77] Creating layer conv3
I0522 10:08:07.231102  9292 net.cpp:106] Creating Layer conv3
I0522 10:08:07.231113  9292 net.cpp:454] conv3 <- pool2
I0522 10:08:07.231127  9292 net.cpp:411] conv3 -> conv3
I0522 10:08:07.233089  9292 net.cpp:150] Setting up conv3
I0522 10:08:07.233108  9292 net.cpp:157] Top shape: 30 28 22 44 (813120)
I0522 10:08:07.233119  9292 net.cpp:165] Memory required for data: 39654600
I0522 10:08:07.233137  9292 layer_factory.hpp:77] Creating layer relu3
I0522 10:08:07.233153  9292 net.cpp:106] Creating Layer relu3
I0522 10:08:07.233162  9292 net.cpp:454] relu3 <- conv3
I0522 10:08:07.233175  9292 net.cpp:397] relu3 -> conv3 (in-place)
I0522 10:08:07.233644  9292 net.cpp:150] Setting up relu3
I0522 10:08:07.233661  9292 net.cpp:157] Top shape: 30 28 22 44 (813120)
I0522 10:08:07.233672  9292 net.cpp:165] Memory required for data: 42907080
I0522 10:08:07.233682  9292 layer_factory.hpp:77] Creating layer pool3
I0522 10:08:07.233695  9292 net.cpp:106] Creating Layer pool3
I0522 10:08:07.233705  9292 net.cpp:454] pool3 <- conv3
I0522 10:08:07.233718  9292 net.cpp:411] pool3 -> pool3
I0522 10:08:07.233786  9292 net.cpp:150] Setting up pool3
I0522 10:08:07.233799  9292 net.cpp:157] Top shape: 30 28 11 44 (406560)
I0522 10:08:07.233809  9292 net.cpp:165] Memory required for data: 44533320
I0522 10:08:07.233819  9292 layer_factory.hpp:77] Creating layer conv4
I0522 10:08:07.233836  9292 net.cpp:106] Creating Layer conv4
I0522 10:08:07.233847  9292 net.cpp:454] conv4 <- pool3
I0522 10:08:07.233860  9292 net.cpp:411] conv4 -> conv4
I0522 10:08:07.236577  9292 net.cpp:150] Setting up conv4
I0522 10:08:07.236608  9292 net.cpp:157] Top shape: 30 36 6 42 (272160)
I0522 10:08:07.236618  9292 net.cpp:165] Memory required for data: 45621960
I0522 10:08:07.236635  9292 layer_factory.hpp:77] Creating layer relu4
I0522 10:08:07.236649  9292 net.cpp:106] Creating Layer relu4
I0522 10:08:07.236660  9292 net.cpp:454] relu4 <- conv4
I0522 10:08:07.236672  9292 net.cpp:397] relu4 -> conv4 (in-place)
I0522 10:08:07.237135  9292 net.cpp:150] Setting up relu4
I0522 10:08:07.237151  9292 net.cpp:157] Top shape: 30 36 6 42 (272160)
I0522 10:08:07.237161  9292 net.cpp:165] Memory required for data: 46710600
I0522 10:08:07.237172  9292 layer_factory.hpp:77] Creating layer pool4
I0522 10:08:07.237185  9292 net.cpp:106] Creating Layer pool4
I0522 10:08:07.237195  9292 net.cpp:454] pool4 <- conv4
I0522 10:08:07.237207  9292 net.cpp:411] pool4 -> pool4
I0522 10:08:07.237275  9292 net.cpp:150] Setting up pool4
I0522 10:08:07.237289  9292 net.cpp:157] Top shape: 30 36 3 42 (136080)
I0522 10:08:07.237299  9292 net.cpp:165] Memory required for data: 47254920
I0522 10:08:07.237309  9292 layer_factory.hpp:77] Creating layer ip1
I0522 10:08:07.237330  9292 net.cpp:106] Creating Layer ip1
I0522 10:08:07.237340  9292 net.cpp:454] ip1 <- pool4
I0522 10:08:07.237437  9292 net.cpp:411] ip1 -> ip1
I0522 10:08:07.252840  9292 net.cpp:150] Setting up ip1
I0522 10:08:07.252868  9292 net.cpp:157] Top shape: 30 196 (5880)
I0522 10:08:07.252881  9292 net.cpp:165] Memory required for data: 47278440
I0522 10:08:07.252905  9292 layer_factory.hpp:77] Creating layer relu5
I0522 10:08:07.252920  9292 net.cpp:106] Creating Layer relu5
I0522 10:08:07.252931  9292 net.cpp:454] relu5 <- ip1
I0522 10:08:07.252944  9292 net.cpp:397] relu5 -> ip1 (in-place)
I0522 10:08:07.253286  9292 net.cpp:150] Setting up relu5
I0522 10:08:07.253299  9292 net.cpp:157] Top shape: 30 196 (5880)
I0522 10:08:07.253310  9292 net.cpp:165] Memory required for data: 47301960
I0522 10:08:07.253320  9292 layer_factory.hpp:77] Creating layer drop1
I0522 10:08:07.253345  9292 net.cpp:106] Creating Layer drop1
I0522 10:08:07.253355  9292 net.cpp:454] drop1 <- ip1
I0522 10:08:07.253366  9292 net.cpp:397] drop1 -> ip1 (in-place)
I0522 10:08:07.253427  9292 net.cpp:150] Setting up drop1
I0522 10:08:07.253440  9292 net.cpp:157] Top shape: 30 196 (5880)
I0522 10:08:07.253450  9292 net.cpp:165] Memory required for data: 47325480
I0522 10:08:07.253460  9292 layer_factory.hpp:77] Creating layer ip2
I0522 10:08:07.253479  9292 net.cpp:106] Creating Layer ip2
I0522 10:08:07.253489  9292 net.cpp:454] ip2 <- ip1
I0522 10:08:07.253501  9292 net.cpp:411] ip2 -> ip2
I0522 10:08:07.253962  9292 net.cpp:150] Setting up ip2
I0522 10:08:07.253975  9292 net.cpp:157] Top shape: 30 98 (2940)
I0522 10:08:07.253985  9292 net.cpp:165] Memory required for data: 47337240
I0522 10:08:07.254000  9292 layer_factory.hpp:77] Creating layer relu6
I0522 10:08:07.254014  9292 net.cpp:106] Creating Layer relu6
I0522 10:08:07.254022  9292 net.cpp:454] relu6 <- ip2
I0522 10:08:07.254034  9292 net.cpp:397] relu6 -> ip2 (in-place)
I0522 10:08:07.254555  9292 net.cpp:150] Setting up relu6
I0522 10:08:07.254571  9292 net.cpp:157] Top shape: 30 98 (2940)
I0522 10:08:07.254582  9292 net.cpp:165] Memory required for data: 47349000
I0522 10:08:07.254592  9292 layer_factory.hpp:77] Creating layer drop2
I0522 10:08:07.254606  9292 net.cpp:106] Creating Layer drop2
I0522 10:08:07.254616  9292 net.cpp:454] drop2 <- ip2
I0522 10:08:07.254627  9292 net.cpp:397] drop2 -> ip2 (in-place)
I0522 10:08:07.254670  9292 net.cpp:150] Setting up drop2
I0522 10:08:07.254683  9292 net.cpp:157] Top shape: 30 98 (2940)
I0522 10:08:07.254694  9292 net.cpp:165] Memory required for data: 47360760
I0522 10:08:07.254705  9292 layer_factory.hpp:77] Creating layer ip3
I0522 10:08:07.254719  9292 net.cpp:106] Creating Layer ip3
I0522 10:08:07.254729  9292 net.cpp:454] ip3 <- ip2
I0522 10:08:07.254740  9292 net.cpp:411] ip3 -> ip3
I0522 10:08:07.254951  9292 net.cpp:150] Setting up ip3
I0522 10:08:07.254964  9292 net.cpp:157] Top shape: 30 11 (330)
I0522 10:08:07.254974  9292 net.cpp:165] Memory required for data: 47362080
I0522 10:08:07.254989  9292 layer_factory.hpp:77] Creating layer drop3
I0522 10:08:07.255002  9292 net.cpp:106] Creating Layer drop3
I0522 10:08:07.255012  9292 net.cpp:454] drop3 <- ip3
I0522 10:08:07.255023  9292 net.cpp:397] drop3 -> ip3 (in-place)
I0522 10:08:07.255064  9292 net.cpp:150] Setting up drop3
I0522 10:08:07.255076  9292 net.cpp:157] Top shape: 30 11 (330)
I0522 10:08:07.255095  9292 net.cpp:165] Memory required for data: 47363400
I0522 10:08:07.255105  9292 layer_factory.hpp:77] Creating layer loss
I0522 10:08:07.255123  9292 net.cpp:106] Creating Layer loss
I0522 10:08:07.255133  9292 net.cpp:454] loss <- ip3
I0522 10:08:07.255144  9292 net.cpp:454] loss <- label
I0522 10:08:07.255157  9292 net.cpp:411] loss -> loss
I0522 10:08:07.255174  9292 layer_factory.hpp:77] Creating layer loss
…
I0522 10:08:07.257855  9292 solver.cpp:181] Creating test net (#0) specified by net file: /lustre/atlas/proj-shared/hep105/caffe_titan/caffe_workflow/logs_bslr/bs_30_lr_0.0025_2016-05-20T15.48.58.860327.prototxt
I0522 10:08:07.257926  9292 net.cpp:322] The NetState phase (1) differed from the phase (0) specified by a rule in layer data_hdf5
I0522 10:08:07.258283  9292 net.cpp:49] Initializing net from parameters: 
name: "caffe_test_127x50_x_unshifted"
state {
  phase: TEST
}
layer {
  name: "data_hdf5"
  type: "HDF5Data"
  top: "data"
  top: "label"
  include {
    phase: TEST
  }
  hdf5_data_param {
    source: "/lustre/atlas/proj-shared/hep105/caffe_titan/minosmatch_nukecczdefs_127x50_x_unshifted_me1Bmc.testlist"
    batch_size: 30
  }
}
layer {
  name: "conv1"
  type: "Convolution"
  bottom: "data"
  top: "conv1"
  convolution_param {
    num_output: 12
    pad: 0
    stride: 1
    weight_filler {
      type: "xavier"
    }
    bias_filler {
      type: "constant"
    }
    kernel_h: 8
    kernel_w: 3
  }
}
layer {
  name: "relu1"
  type: "ReLU"
  bottom: "conv1"
  top: "conv1"
}
layer {
  name: "pool1"
  type: "Pooling"
  bottom: "conv1"
  top: "pool1"
  pooling_param {
    pool: MAX
    kernel_h: 2
    kernel_w: 1
    stride_h: 2
    stride_w: 1
  }
}
layer {
  name: "conv2"
  type: "Convolution"
  bottom: "pool1"
  top: "conv2"
  convolution_param {
    num_output: 20
    pad: 0
    stride: 1
    weight_filler {
      type: "xavier"
    }
    bias_filler {
      type: "constant"
    }
    kernel_h: 7
    kernel_w: 3
  }
}
layer {
  name: "relu2"
  type: "ReLU"
  bottom: "conv2"
  top: "conv2"
}
layer {
  name: "pool2"
  type: "Pooling"
  bottom: "conv2"
  top: "pool2"
  pooling_param {
    pool: MAX
    kernel_h: 2
    kernel_w: 1
    stride_h: 2
    stride_w: 1
  }
}
layer {
  name: "conv3"
  type: "Convolution"
  bottom: "pool2"
  top: "conv3"
  convolution_param {
    num_output: 28
    pad: 0
    stride: 1
    weight_filler {
      type: "xavier"
    }
    bias_filler {
      type: "constant"
    }
    kernel_h: 6
    kernel_w: 3
  }
}
layer {
  name: "relu3"
  type: "ReLU"
  bottom: "conv3"
  top: "conv3"
}
layer {
  name: "pool3"
  type: "Pooling"
  bottom: "conv3"
  top: "pool3"
  pooling_param {
    pool: MAX
    kernel_h: 2
    kernel_w: 1
    stride_h: 2
    stride_w: 1
  }
}
layer {
  name: "conv4"
  type: "Convolution"
  bottom: "pool3"
  top: "conv4"
  convolution_param {
    num_output: 36
    pad: 0
    stride: 1
    weight_filler {
      type: "xavier"
    }
    bias_filler {
      type: "constant"
    }
    kernel_h: 6
    kernel_w: 3
  }
}
layer {
  name: "relu4"
  type: "ReLU"
  bottom: "conv4"
  top: "conv4"
}
layer {
  name: "pool4"
  type: "Pooling"
  bottom: "conv4"
  top: "pool4"
  pooling_param {
    pool: MAX
    kernel_h: 2
    kernel_w: 1
    stride_h: 2
    stride_w: 1
  }
}
layer {
  name: "ip1"
  type: "InnerProduct"
  bottom: "pool4"
  top: "ip1"
  inner_product_param {
    num_output: 196
    weight_filler {
      type: "xavier"
    }
    bias_filler {
      type: "constant"
    }
  }
}
layer {
  name: "relu5"
  type: "ReLU"
  bottom: "ip1"
  top: "ip1"
}
layer {
  name: "drop1"
  type: "Dropout"
  bottom: "ip1"
  top: "ip1"
  dropout_param {
    dropout_ratio: 0.5
  }
}
layer {
  name: "ip2"
  type: "InnerProduct"
  bottom: "ip1"
  top: "ip2"
  inner_product_param {
    num_output: 98
    weight_filler {
      type: "xavier"
    }
    bias_filler {
      type: "constant"
    }
  }
}
layer {
  name: "relu6"
  type: "ReLU"
  bottom: "ip2"
  top: "ip2"
}
layer {
  name: "drop2"
  type: "Dropout"
  bottom: "ip2"
  top: "ip2"
  dropout_param {
    dropout_ratio: 0.5
  }
}
layer {
  name: "ip3"
  type: "InnerProduct"
  bottom: "ip2"
  top: "ip3"
  inner_product_param {
    num_output: 11
    weight_filler {
      type: "xavier"
    }
    bias_filler {
      type: "constant"
    }
  }
}
layer {
  name: "drop3"
  type: "Dropout"
  bottom: "ip3"
  top: "ip3"
  dropout_param {
    dropout_ratio: 0.5
  }
}
layer {
  name: "accuracy"
  type: "Accuracy"
  bottom: "ip3"
  bottom: "label"
  top: "accuracy"
  include {
    phase: TEST
  }
}
layer {
  name: "loss"
  type: "SoftmaxWithLoss"
  bottom: "ip3"
  bottom: "label"
  top: "loss"
}
I0522 10:08:07.258471  9292 layer_factory.hpp:77] Creating layer data_hdf5
I0522 10:08:07.258486  9292 net.cpp:106] Creating Layer data_hdf5
I0522 10:08:07.258498  9292 net.cpp:411] data_hdf5 -> data
I0522 10:08:07.258513  9292 net.cpp:411] data_hdf5 -> label
I0522 10:08:07.258529  9292 hdf5_data_layer.cpp:79] Loading list of HDF5 filenames from: /lustre/atlas/proj-shared/hep105/caffe_titan/minosmatch_nukecczdefs_127x50_x_unshifted_me1Bmc.testlist
I0522 10:08:07.260071  9292 hdf5_data_layer.cpp:93] Number of HDF5 files: 3
I0522 10:08:28.570055  9292 net.cpp:150] Setting up data_hdf5
I0522 10:08:28.570219  9292 net.cpp:157] Top shape: 30 1 127 50 (190500)
I0522 10:08:28.570233  9292 net.cpp:157] Top shape: 30 (30)
I0522 10:08:28.570245  9292 net.cpp:165] Memory required for data: 762120
I0522 10:08:28.570257  9292 layer_factory.hpp:77] Creating layer label_data_hdf5_1_split
I0522 10:08:28.570286  9292 net.cpp:106] Creating Layer label_data_hdf5_1_split
I0522 10:08:28.570297  9292 net.cpp:454] label_data_hdf5_1_split <- label
I0522 10:08:28.570312  9292 net.cpp:411] label_data_hdf5_1_split -> label_data_hdf5_1_split_0
I0522 10:08:28.570333  9292 net.cpp:411] label_data_hdf5_1_split -> label_data_hdf5_1_split_1
I0522 10:08:28.570405  9292 net.cpp:150] Setting up label_data_hdf5_1_split
I0522 10:08:28.570420  9292 net.cpp:157] Top shape: 30 (30)
I0522 10:08:28.570431  9292 net.cpp:157] Top shape: 30 (30)
I0522 10:08:28.570441  9292 net.cpp:165] Memory required for data: 762360
I0522 10:08:28.570451  9292 layer_factory.hpp:77] Creating layer conv1
I0522 10:08:28.570472  9292 net.cpp:106] Creating Layer conv1
I0522 10:08:28.570483  9292 net.cpp:454] conv1 <- data
I0522 10:08:28.570498  9292 net.cpp:411] conv1 -> conv1
I0522 10:08:28.572455  9292 net.cpp:150] Setting up conv1
I0522 10:08:28.572479  9292 net.cpp:157] Top shape: 30 12 120 48 (2073600)
I0522 10:08:28.572491  9292 net.cpp:165] Memory required for data: 9056760
I0522 10:08:28.572512  9292 layer_factory.hpp:77] Creating layer relu1
I0522 10:08:28.572527  9292 net.cpp:106] Creating Layer relu1
I0522 10:08:28.572537  9292 net.cpp:454] relu1 <- conv1
I0522 10:08:28.572549  9292 net.cpp:397] relu1 -> conv1 (in-place)
I0522 10:08:28.573045  9292 net.cpp:150] Setting up relu1
I0522 10:08:28.573061  9292 net.cpp:157] Top shape: 30 12 120 48 (2073600)
I0522 10:08:28.573071  9292 net.cpp:165] Memory required for data: 17351160
I0522 10:08:28.573082  9292 layer_factory.hpp:77] Creating layer pool1
I0522 10:08:28.573098  9292 net.cpp:106] Creating Layer pool1
I0522 10:08:28.573108  9292 net.cpp:454] pool1 <- conv1
I0522 10:08:28.573122  9292 net.cpp:411] pool1 -> pool1
I0522 10:08:28.573195  9292 net.cpp:150] Setting up pool1
I0522 10:08:28.573209  9292 net.cpp:157] Top shape: 30 12 60 48 (1036800)
I0522 10:08:28.573218  9292 net.cpp:165] Memory required for data: 21498360
I0522 10:08:28.573226  9292 layer_factory.hpp:77] Creating layer conv2
I0522 10:08:28.573245  9292 net.cpp:106] Creating Layer conv2
I0522 10:08:28.573254  9292 net.cpp:454] conv2 <- pool1
I0522 10:08:28.573268  9292 net.cpp:411] conv2 -> conv2
I0522 10:08:28.575183  9292 net.cpp:150] Setting up conv2
I0522 10:08:28.575206  9292 net.cpp:157] Top shape: 30 20 54 46 (1490400)
I0522 10:08:28.575218  9292 net.cpp:165] Memory required for data: 27459960
I0522 10:08:28.575235  9292 layer_factory.hpp:77] Creating layer relu2
I0522 10:08:28.575249  9292 net.cpp:106] Creating Layer relu2
I0522 10:08:28.575259  9292 net.cpp:454] relu2 <- conv2
I0522 10:08:28.575271  9292 net.cpp:397] relu2 -> conv2 (in-place)
I0522 10:08:28.575601  9292 net.cpp:150] Setting up relu2
I0522 10:08:28.575615  9292 net.cpp:157] Top shape: 30 20 54 46 (1490400)
I0522 10:08:28.575626  9292 net.cpp:165] Memory required for data: 33421560
I0522 10:08:28.575636  9292 layer_factory.hpp:77] Creating layer pool2
I0522 10:08:28.575649  9292 net.cpp:106] Creating Layer pool2
I0522 10:08:28.575659  9292 net.cpp:454] pool2 <- conv2
I0522 10:08:28.575671  9292 net.cpp:411] pool2 -> pool2
I0522 10:08:28.575744  9292 net.cpp:150] Setting up pool2
I0522 10:08:28.575757  9292 net.cpp:157] Top shape: 30 20 27 46 (745200)
I0522 10:08:28.575767  9292 net.cpp:165] Memory required for data: 36402360
I0522 10:08:28.575776  9292 layer_factory.hpp:77] Creating layer conv3
I0522 10:08:28.575794  9292 net.cpp:106] Creating Layer conv3
I0522 10:08:28.575804  9292 net.cpp:454] conv3 <- pool2
I0522 10:08:28.575819  9292 net.cpp:411] conv3 -> conv3
I0522 10:08:28.577790  9292 net.cpp:150] Setting up conv3
I0522 10:08:28.577812  9292 net.cpp:157] Top shape: 30 28 22 44 (813120)
I0522 10:08:28.577823  9292 net.cpp:165] Memory required for data: 39654840
I0522 10:08:28.577857  9292 layer_factory.hpp:77] Creating layer relu3
I0522 10:08:28.577870  9292 net.cpp:106] Creating Layer relu3
I0522 10:08:28.577880  9292 net.cpp:454] relu3 <- conv3
I0522 10:08:28.577894  9292 net.cpp:397] relu3 -> conv3 (in-place)
I0522 10:08:28.578373  9292 net.cpp:150] Setting up relu3
I0522 10:08:28.578390  9292 net.cpp:157] Top shape: 30 28 22 44 (813120)
I0522 10:08:28.578400  9292 net.cpp:165] Memory required for data: 42907320
I0522 10:08:28.578409  9292 layer_factory.hpp:77] Creating layer pool3
I0522 10:08:28.578423  9292 net.cpp:106] Creating Layer pool3
I0522 10:08:28.578433  9292 net.cpp:454] pool3 <- conv3
I0522 10:08:28.578445  9292 net.cpp:411] pool3 -> pool3
I0522 10:08:28.578517  9292 net.cpp:150] Setting up pool3
I0522 10:08:28.578531  9292 net.cpp:157] Top shape: 30 28 11 44 (406560)
I0522 10:08:28.578539  9292 net.cpp:165] Memory required for data: 44533560
I0522 10:08:28.578549  9292 layer_factory.hpp:77] Creating layer conv4
I0522 10:08:28.578565  9292 net.cpp:106] Creating Layer conv4
I0522 10:08:28.578575  9292 net.cpp:454] conv4 <- pool3
I0522 10:08:28.578589  9292 net.cpp:411] conv4 -> conv4
I0522 10:08:28.580657  9292 net.cpp:150] Setting up conv4
I0522 10:08:28.580679  9292 net.cpp:157] Top shape: 30 36 6 42 (272160)
I0522 10:08:28.580689  9292 net.cpp:165] Memory required for data: 45622200
I0522 10:08:28.580704  9292 layer_factory.hpp:77] Creating layer relu4
I0522 10:08:28.580718  9292 net.cpp:106] Creating Layer relu4
I0522 10:08:28.580727  9292 net.cpp:454] relu4 <- conv4
I0522 10:08:28.580740  9292 net.cpp:397] relu4 -> conv4 (in-place)
I0522 10:08:28.581210  9292 net.cpp:150] Setting up relu4
I0522 10:08:28.581225  9292 net.cpp:157] Top shape: 30 36 6 42 (272160)
I0522 10:08:28.581235  9292 net.cpp:165] Memory required for data: 46710840
I0522 10:08:28.581245  9292 layer_factory.hpp:77] Creating layer pool4
I0522 10:08:28.581259  9292 net.cpp:106] Creating Layer pool4
I0522 10:08:28.581269  9292 net.cpp:454] pool4 <- conv4
I0522 10:08:28.581282  9292 net.cpp:411] pool4 -> pool4
I0522 10:08:28.581353  9292 net.cpp:150] Setting up pool4
I0522 10:08:28.581367  9292 net.cpp:157] Top shape: 30 36 3 42 (136080)
I0522 10:08:28.581377  9292 net.cpp:165] Memory required for data: 47255160
I0522 10:08:28.581387  9292 layer_factory.hpp:77] Creating layer ip1
I0522 10:08:28.581399  9292 net.cpp:106] Creating Layer ip1
I0522 10:08:28.581409  9292 net.cpp:454] ip1 <- pool4
I0522 10:08:28.581423  9292 net.cpp:411] ip1 -> ip1
I0522 10:08:28.596861  9292 net.cpp:150] Setting up ip1
I0522 10:08:28.596889  9292 net.cpp:157] Top shape: 30 196 (5880)
I0522 10:08:28.596900  9292 net.cpp:165] Memory required for data: 47278680
I0522 10:08:28.596922  9292 layer_factory.hpp:77] Creating layer relu5
I0522 10:08:28.596937  9292 net.cpp:106] Creating Layer relu5
I0522 10:08:28.596947  9292 net.cpp:454] relu5 <- ip1
I0522 10:08:28.596966  9292 net.cpp:397] relu5 -> ip1 (in-place)
I0522 10:08:28.597313  9292 net.cpp:150] Setting up relu5
I0522 10:08:28.597327  9292 net.cpp:157] Top shape: 30 196 (5880)
I0522 10:08:28.597337  9292 net.cpp:165] Memory required for data: 47302200
I0522 10:08:28.597347  9292 layer_factory.hpp:77] Creating layer drop1
I0522 10:08:28.597367  9292 net.cpp:106] Creating Layer drop1
I0522 10:08:28.597376  9292 net.cpp:454] drop1 <- ip1
I0522 10:08:28.597389  9292 net.cpp:397] drop1 -> ip1 (in-place)
I0522 10:08:28.597435  9292 net.cpp:150] Setting up drop1
I0522 10:08:28.597448  9292 net.cpp:157] Top shape: 30 196 (5880)
I0522 10:08:28.597458  9292 net.cpp:165] Memory required for data: 47325720
I0522 10:08:28.597467  9292 layer_factory.hpp:77] Creating layer ip2
I0522 10:08:28.597482  9292 net.cpp:106] Creating Layer ip2
I0522 10:08:28.597491  9292 net.cpp:454] ip2 <- ip1
I0522 10:08:28.597506  9292 net.cpp:411] ip2 -> ip2
I0522 10:08:28.597983  9292 net.cpp:150] Setting up ip2
I0522 10:08:28.597996  9292 net.cpp:157] Top shape: 30 98 (2940)
I0522 10:08:28.598006  9292 net.cpp:165] Memory required for data: 47337480
I0522 10:08:28.598022  9292 layer_factory.hpp:77] Creating layer relu6
I0522 10:08:28.598047  9292 net.cpp:106] Creating Layer relu6
I0522 10:08:28.598057  9292 net.cpp:454] relu6 <- ip2
I0522 10:08:28.598069  9292 net.cpp:397] relu6 -> ip2 (in-place)
I0522 10:08:28.598604  9292 net.cpp:150] Setting up relu6
I0522 10:08:28.598621  9292 net.cpp:157] Top shape: 30 98 (2940)
I0522 10:08:28.598634  9292 net.cpp:165] Memory required for data: 47349240
I0522 10:08:28.598644  9292 layer_factory.hpp:77] Creating layer drop2
I0522 10:08:28.598659  9292 net.cpp:106] Creating Layer drop2
I0522 10:08:28.598669  9292 net.cpp:454] drop2 <- ip2
I0522 10:08:28.598681  9292 net.cpp:397] drop2 -> ip2 (in-place)
I0522 10:08:28.598726  9292 net.cpp:150] Setting up drop2
I0522 10:08:28.598738  9292 net.cpp:157] Top shape: 30 98 (2940)
I0522 10:08:28.598748  9292 net.cpp:165] Memory required for data: 47361000
I0522 10:08:28.598757  9292 layer_factory.hpp:77] Creating layer ip3
I0522 10:08:28.598772  9292 net.cpp:106] Creating Layer ip3
I0522 10:08:28.598781  9292 net.cpp:454] ip3 <- ip2
I0522 10:08:28.598795  9292 net.cpp:411] ip3 -> ip3
I0522 10:08:28.599020  9292 net.cpp:150] Setting up ip3
I0522 10:08:28.599032  9292 net.cpp:157] Top shape: 30 11 (330)
I0522 10:08:28.599042  9292 net.cpp:165] Memory required for data: 47362320
I0522 10:08:28.599058  9292 layer_factory.hpp:77] Creating layer drop3
I0522 10:08:28.599071  9292 net.cpp:106] Creating Layer drop3
I0522 10:08:28.599081  9292 net.cpp:454] drop3 <- ip3
I0522 10:08:28.599102  9292 net.cpp:397] drop3 -> ip3 (in-place)
I0522 10:08:28.599144  9292 net.cpp:150] Setting up drop3
I0522 10:08:28.599158  9292 net.cpp:157] Top shape: 30 11 (330)
I0522 10:08:28.599167  9292 net.cpp:165] Memory required for data: 47363640
I0522 10:08:28.599176  9292 layer_factory.hpp:77] Creating layer ip3_drop3_0_split
I0522 10:08:28.599190  9292 net.cpp:106] Creating Layer ip3_drop3_0_split
I0522 10:08:28.599200  9292 net.cpp:454] ip3_drop3_0_split <- ip3
I0522 10:08:28.599212  9292 net.cpp:411] ip3_drop3_0_split -> ip3_drop3_0_split_0
I0522 10:08:28.599227  9292 net.cpp:411] ip3_drop3_0_split -> ip3_drop3_0_split_1
I0522 10:08:28.599301  9292 net.cpp:150] Setting up ip3_drop3_0_split
I0522 10:08:28.599314  9292 net.cpp:157] Top shape: 30 11 (330)
I0522 10:08:28.599326  9292 net.cpp:157] Top shape: 30 11 (330)
I0522 10:08:28.599337  9292 net.cpp:165] Memory required for data: 47366280
I0522 10:08:28.599347  9292 layer_factory.hpp:77] Creating layer accuracy
I0522 10:08:28.599367  9292 net.cpp:106] Creating Layer accuracy
I0522 10:08:28.599377  9292 net.cpp:454] accuracy <- ip3_drop3_0_split_0
I0522 10:08:28.599390  9292 net.cpp:454] accuracy <- label_data_hdf5_1_split_0
I0522 10:08:28.599402  9292 net.cpp:411] accuracy -> accuracy
…
