…
I0527 01:42:40.484398  5259 net.cpp:322] The NetState phase (0) differed from the phase (1) specified by a rule in layer data_hdf5
I0527 01:42:40.484462  5259 net.cpp:322] The NetState phase (0) differed from the phase (1) specified by a rule in layer accuracy
I0527 01:42:40.484843  5259 net.cpp:49] Initializing net from parameters: 
name: "caffe_test_127x50_x_unshifted"
state {
  phase: TRAIN
}
layer {
  name: "data_hdf5"
  type: "HDF5Data"
  top: "data"
  top: "label"
  include {
    phase: TRAIN
  }
  hdf5_data_param {
    source: "/lustre/atlas/proj-shared/hep105/caffe_titan/minosmatch_nukecczdefs_127x50_x_unshifted_me1Bmc.trainlist"
    batch_size: 30
  }
}
layer {
  name: "conv1"
  type: "Convolution"
  bottom: "data"
  top: "conv1"
  convolution_param {
    num_output: 12
    pad: 0
    stride: 1
    weight_filler {
      type: "xavier"
    }
    bias_filler {
      type: "constant"
    }
    kernel_h: 8
    kernel_w: 3
  }
}
layer {
  name: "relu1"
  type: "ReLU"
  bottom: "conv1"
  top: "conv1"
}
layer {
  name: "pool1"
  type: "Pooling"
  bottom: "conv1"
  top: "pool1"
  pooling_param {
    pool: MAX
    kernel_h: 2
    kernel_w: 1
    stride_h: 2
    stride_w: 1
  }
}
layer {
  name: "conv2"
  type: "Convolution"
  bottom: "pool1"
  top: "conv2"
  convolution_param {
    num_output: 20
    pad: 0
    stride: 1
    weight_filler {
      type: "xavier"
    }
    bias_filler {
      type: "constant"
    }
    kernel_h: 7
    kernel_w: 3
  }
}
layer {
  name: "relu2"
  type: "ReLU"
  bottom: "conv2"
  top: "conv2"
}
layer {
  name: "pool2"
  type: "Pooling"
  bottom: "conv2"
  top: "pool2"
  pooling_param {
    pool: MAX
    kernel_h: 2
    kernel_w: 1
    stride_h: 2
    stride_w: 1
  }
}
layer {
  name: "conv3"
  type: "Convolution"
  bottom: "pool2"
  top: "conv3"
  convolution_param {
    num_output: 28
    pad: 0
    stride: 1
    weight_filler {
      type: "xavier"
    }
    bias_filler {
      type: "constant"
    }
    kernel_h: 6
    kernel_w: 3
  }
}
layer {
  name: "relu3"
  type: "ReLU"
  bottom: "conv3"
  top: "conv3"
}
layer {
  name: "pool3"
  type: "Pooling"
  bottom: "conv3"
  top: "pool3"
  pooling_param {
    pool: MAX
    kernel_h: 2
    kernel_w: 1
    stride_h: 2
    stride_w: 1
  }
}
layer {
  name: "conv4"
  type: "Convolution"
  bottom: "pool3"
  top: "conv4"
  convolution_param {
    num_output: 36
    pad: 0
    stride: 1
    weight_filler {
      type: "xavier"
    }
    bias_filler {
      type: "constant"
    }
    kernel_h: 6
    kernel_w: 3
  }
}
layer {
  name: "relu4"
  type: "ReLU"
  bottom: "conv4"
  top: "conv4"
}
layer {
  name: "pool4"
  type: "Pooling"
  bottom: "conv4"
  top: "pool4"
  pooling_param {
    pool: MAX
    kernel_h: 2
    kernel_w: 1
    stride_h: 2
    stride_w: 1
  }
}
layer {
  name: "ip1"
  type: "InnerProduct"
  bottom: "pool4"
  top: "ip1"
  inner_product_param {
    num_output: 196
    weight_filler {
      type: "xavier"
    }
    bias_filler {
      type: "constant"
    }
  }
}
layer {
  name: "relu5"
  type: "ReLU"
  bottom: "ip1"
  top: "ip1"
}
layer {
  name: "drop1"
  type: "Dropout"
  bottom: "ip1"
  top: "ip1"
  dropout_param {
    dropout_ratio: 0.5
  }
}
layer {
  name: "ip2"
  type: "InnerProduct"
  bottom: "ip1"
  top: "ip2"
  inner_product_param {
    num_output: 98
    weight_filler {
      type: "xavier"
    }
    bias_filler {
      type: "constant"
    }
  }
}
layer {
  name: "relu6"
  type: "ReLU"
  bottom: "ip2"
  top: "ip2"
}
layer {
  name: "drop2"
  type: "Dropout"
  bottom: "ip2"
  top: "ip2"
  dropout_param {
    dropout_ratio: 0.5
  }
}
layer {
  name: "ip3"
  type: "InnerProduct"
  bottom: "ip2"
  top: "ip3"
  inner_product_param {
    num_output: 11
    weight_filler {
      type: "xavier"
    }
    bias_filler {
      type: "constant"
    }
  }
}
layer {
  name: "drop3"
  type: "Dropout"
  bottom: "ip3"
  top: "ip3"
  dropout_param {
    dropout_ratio: 0.5
  }
}
layer {
  name: "loss"
  type: "SoftmaxWithLoss"
  bottom: "ip3"
  bottom: "label"
  top: "loss"
}
I0527 01:42:40.485049  5259 layer_factory.hpp:77] Creating layer data_hdf5
I0527 01:42:40.485077  5259 net.cpp:106] Creating Layer data_hdf5
I0527 01:42:40.485103  5259 net.cpp:411] data_hdf5 -> data
I0527 01:42:40.485137  5259 net.cpp:411] data_hdf5 -> label
I0527 01:42:40.485180  5259 hdf5_data_layer.cpp:79] Loading list of HDF5 filenames from: /lustre/atlas/proj-shared/hep105/caffe_titan/minosmatch_nukecczdefs_127x50_x_unshifted_me1Bmc.trainlist
I0527 01:42:40.486413  5259 hdf5_data_layer.cpp:93] Number of HDF5 files: 15
I0527 01:42:40.495970  5259 hdf5.cpp:32] Datatype class: H5T_FLOAT
I0527 01:43:02.069439  5259 hdf5.cpp:35] Datatype class: H5T_INTEGER
I0527 01:43:02.074735  5259 net.cpp:150] Setting up data_hdf5
I0527 01:43:02.074781  5259 net.cpp:157] Top shape: 30 1 127 50 (190500)
I0527 01:43:02.074800  5259 net.cpp:157] Top shape: 30 (30)
I0527 01:43:02.074811  5259 net.cpp:165] Memory required for data: 762120
I0527 01:43:02.074831  5259 layer_factory.hpp:77] Creating layer conv1
I0527 01:43:02.074884  5259 net.cpp:106] Creating Layer conv1
I0527 01:43:02.074908  5259 net.cpp:454] conv1 <- data
I0527 01:43:02.074933  5259 net.cpp:411] conv1 -> conv1
I0527 01:43:02.437194  5259 net.cpp:150] Setting up conv1
I0527 01:43:02.437252  5259 net.cpp:157] Top shape: 30 12 120 48 (2073600)
I0527 01:43:02.437266  5259 net.cpp:165] Memory required for data: 9056520
I0527 01:43:02.437296  5259 layer_factory.hpp:77] Creating layer relu1
I0527 01:43:02.437345  5259 net.cpp:106] Creating Layer relu1
I0527 01:43:02.437358  5259 net.cpp:454] relu1 <- conv1
I0527 01:43:02.437376  5259 net.cpp:397] relu1 -> conv1 (in-place)
I0527 01:43:02.437904  5259 net.cpp:150] Setting up relu1
I0527 01:43:02.437928  5259 net.cpp:157] Top shape: 30 12 120 48 (2073600)
I0527 01:43:02.437942  5259 net.cpp:165] Memory required for data: 17350920
I0527 01:43:02.437954  5259 layer_factory.hpp:77] Creating layer pool1
I0527 01:43:02.437985  5259 net.cpp:106] Creating Layer pool1
I0527 01:43:02.437999  5259 net.cpp:454] pool1 <- conv1
I0527 01:43:02.438015  5259 net.cpp:411] pool1 -> pool1
I0527 01:43:02.438109  5259 net.cpp:150] Setting up pool1
I0527 01:43:02.438127  5259 net.cpp:157] Top shape: 30 12 60 48 (1036800)
I0527 01:43:02.438143  5259 net.cpp:165] Memory required for data: 21498120
I0527 01:43:02.438163  5259 layer_factory.hpp:77] Creating layer conv2
I0527 01:43:02.438187  5259 net.cpp:106] Creating Layer conv2
I0527 01:43:02.438202  5259 net.cpp:454] conv2 <- pool1
I0527 01:43:02.438217  5259 net.cpp:411] conv2 -> conv2
I0527 01:43:02.440904  5259 net.cpp:150] Setting up conv2
I0527 01:43:02.440935  5259 net.cpp:157] Top shape: 30 20 54 46 (1490400)
I0527 01:43:02.440951  5259 net.cpp:165] Memory required for data: 27459720
I0527 01:43:02.440980  5259 layer_factory.hpp:77] Creating layer relu2
I0527 01:43:02.441009  5259 net.cpp:106] Creating Layer relu2
I0527 01:43:02.441022  5259 net.cpp:454] relu2 <- conv2
I0527 01:43:02.441038  5259 net.cpp:397] relu2 -> conv2 (in-place)
I0527 01:43:02.441396  5259 net.cpp:150] Setting up relu2
I0527 01:43:02.441416  5259 net.cpp:157] Top shape: 30 20 54 46 (1490400)
I0527 01:43:02.441429  5259 net.cpp:165] Memory required for data: 33421320
I0527 01:43:02.441442  5259 layer_factory.hpp:77] Creating layer pool2
I0527 01:43:02.441468  5259 net.cpp:106] Creating Layer pool2
I0527 01:43:02.441483  5259 net.cpp:454] pool2 <- conv2
I0527 01:43:02.441498  5259 net.cpp:411] pool2 -> pool2
I0527 01:43:02.441593  5259 net.cpp:150] Setting up pool2
I0527 01:43:02.441611  5259 net.cpp:157] Top shape: 30 20 27 46 (745200)
I0527 01:43:02.441625  5259 net.cpp:165] Memory required for data: 36402120
I0527 01:43:02.441647  5259 layer_factory.hpp:77] Creating layer conv3
I0527 01:43:02.441666  5259 net.cpp:106] Creating Layer conv3
I0527 01:43:02.441686  5259 net.cpp:454] conv3 <- pool2
I0527 01:43:02.441704  5259 net.cpp:411] conv3 -> conv3
I0527 01:43:02.443702  5259 net.cpp:150] Setting up conv3
I0527 01:43:02.443727  5259 net.cpp:157] Top shape: 30 28 22 44 (813120)
I0527 01:43:02.443747  5259 net.cpp:165] Memory required for data: 39654600
I0527 01:43:02.443769  5259 layer_factory.hpp:77] Creating layer relu3
I0527 01:43:02.443800  5259 net.cpp:106] Creating Layer relu3
I0527 01:43:02.443815  5259 net.cpp:454] relu3 <- conv3
I0527 01:43:02.443830  5259 net.cpp:397] relu3 -> conv3 (in-place)
I0527 01:43:02.444320  5259 net.cpp:150] Setting up relu3
I0527 01:43:02.444345  5259 net.cpp:157] Top shape: 30 28 22 44 (813120)
I0527 01:43:02.444358  5259 net.cpp:165] Memory required for data: 42907080
I0527 01:43:02.444375  5259 layer_factory.hpp:77] Creating layer pool3
I0527 01:43:02.444398  5259 net.cpp:106] Creating Layer pool3
I0527 01:43:02.444412  5259 net.cpp:454] pool3 <- conv3
I0527 01:43:02.444428  5259 net.cpp:411] pool3 -> pool3
I0527 01:43:02.444509  5259 net.cpp:150] Setting up pool3
I0527 01:43:02.444528  5259 net.cpp:157] Top shape: 30 28 11 44 (406560)
I0527 01:43:02.444543  5259 net.cpp:165] Memory required for data: 44533320
I0527 01:43:02.444556  5259 layer_factory.hpp:77] Creating layer conv4
I0527 01:43:02.444582  5259 net.cpp:106] Creating Layer conv4
I0527 01:43:02.444596  5259 net.cpp:454] conv4 <- pool3
I0527 01:43:02.444612  5259 net.cpp:411] conv4 -> conv4
I0527 01:43:02.447363  5259 net.cpp:150] Setting up conv4
I0527 01:43:02.447394  5259 net.cpp:157] Top shape: 30 36 6 42 (272160)
I0527 01:43:02.447408  5259 net.cpp:165] Memory required for data: 45621960
I0527 01:43:02.447432  5259 layer_factory.hpp:77] Creating layer relu4
I0527 01:43:02.447459  5259 net.cpp:106] Creating Layer relu4
I0527 01:43:02.447474  5259 net.cpp:454] relu4 <- conv4
I0527 01:43:02.447489  5259 net.cpp:397] relu4 -> conv4 (in-place)
I0527 01:43:02.447983  5259 net.cpp:150] Setting up relu4
I0527 01:43:02.448005  5259 net.cpp:157] Top shape: 30 36 6 42 (272160)
I0527 01:43:02.448019  5259 net.cpp:165] Memory required for data: 46710600
I0527 01:43:02.448035  5259 layer_factory.hpp:77] Creating layer pool4
I0527 01:43:02.448058  5259 net.cpp:106] Creating Layer pool4
I0527 01:43:02.448072  5259 net.cpp:454] pool4 <- conv4
I0527 01:43:02.448088  5259 net.cpp:411] pool4 -> pool4
I0527 01:43:02.448171  5259 net.cpp:150] Setting up pool4
I0527 01:43:02.448194  5259 net.cpp:157] Top shape: 30 36 3 42 (136080)
I0527 01:43:02.448209  5259 net.cpp:165] Memory required for data: 47254920
I0527 01:43:02.448223  5259 layer_factory.hpp:77] Creating layer ip1
I0527 01:43:02.448251  5259 net.cpp:106] Creating Layer ip1
I0527 01:43:02.448266  5259 net.cpp:454] ip1 <- pool4
I0527 01:43:02.448282  5259 net.cpp:411] ip1 -> ip1
I0527 01:43:02.463713  5259 net.cpp:150] Setting up ip1
I0527 01:43:02.463752  5259 net.cpp:157] Top shape: 30 196 (5880)
I0527 01:43:02.463765  5259 net.cpp:165] Memory required for data: 47278440
I0527 01:43:02.463795  5259 layer_factory.hpp:77] Creating layer relu5
I0527 01:43:02.463824  5259 net.cpp:106] Creating Layer relu5
I0527 01:43:02.463838  5259 net.cpp:454] relu5 <- ip1
I0527 01:43:02.463855  5259 net.cpp:397] relu5 -> ip1 (in-place)
I0527 01:43:02.464218  5259 net.cpp:150] Setting up relu5
I0527 01:43:02.464238  5259 net.cpp:157] Top shape: 30 196 (5880)
I0527 01:43:02.464251  5259 net.cpp:165] Memory required for data: 47301960
I0527 01:43:02.464267  5259 layer_factory.hpp:77] Creating layer drop1
I0527 01:43:02.464298  5259 net.cpp:106] Creating Layer drop1
I0527 01:43:02.464313  5259 net.cpp:454] drop1 <- ip1
I0527 01:43:02.464328  5259 net.cpp:397] drop1 -> ip1 (in-place)
I0527 01:43:02.464401  5259 net.cpp:150] Setting up drop1
I0527 01:43:02.464426  5259 net.cpp:157] Top shape: 30 196 (5880)
I0527 01:43:02.464438  5259 net.cpp:165] Memory required for data: 47325480
I0527 01:43:02.464453  5259 layer_factory.hpp:77] Creating layer ip2
I0527 01:43:02.464474  5259 net.cpp:106] Creating Layer ip2
I0527 01:43:02.464493  5259 net.cpp:454] ip2 <- ip1
I0527 01:43:02.464510  5259 net.cpp:411] ip2 -> ip2
I0527 01:43:02.464996  5259 net.cpp:150] Setting up ip2
I0527 01:43:02.465015  5259 net.cpp:157] Top shape: 30 98 (2940)
I0527 01:43:02.465029  5259 net.cpp:165] Memory required for data: 47337240
I0527 01:43:02.465049  5259 layer_factory.hpp:77] Creating layer relu6
I0527 01:43:02.465070  5259 net.cpp:106] Creating Layer relu6
I0527 01:43:02.465083  5259 net.cpp:454] relu6 <- ip2
I0527 01:43:02.465098  5259 net.cpp:397] relu6 -> ip2 (in-place)
I0527 01:43:02.465644  5259 net.cpp:150] Setting up relu6
I0527 01:43:02.465668  5259 net.cpp:157] Top shape: 30 98 (2940)
I0527 01:43:02.465682  5259 net.cpp:165] Memory required for data: 47349000
I0527 01:43:02.465698  5259 layer_factory.hpp:77] Creating layer drop2
I0527 01:43:02.465721  5259 net.cpp:106] Creating Layer drop2
I0527 01:43:02.465734  5259 net.cpp:454] drop2 <- ip2
I0527 01:43:02.465750  5259 net.cpp:397] drop2 -> ip2 (in-place)
I0527 01:43:02.465806  5259 net.cpp:150] Setting up drop2
I0527 01:43:02.465822  5259 net.cpp:157] Top shape: 30 98 (2940)
I0527 01:43:02.465836  5259 net.cpp:165] Memory required for data: 47360760
I0527 01:43:02.465848  5259 layer_factory.hpp:77] Creating layer ip3
I0527 01:43:02.465864  5259 net.cpp:106] Creating Layer ip3
I0527 01:43:02.465879  5259 net.cpp:454] ip3 <- ip2
I0527 01:43:02.465900  5259 net.cpp:411] ip3 -> ip3
I0527 01:43:02.466128  5259 net.cpp:150] Setting up ip3
I0527 01:43:02.466147  5259 net.cpp:157] Top shape: 30 11 (330)
I0527 01:43:02.466159  5259 net.cpp:165] Memory required for data: 47362080
I0527 01:43:02.466181  5259 layer_factory.hpp:77] Creating layer drop3
I0527 01:43:02.466202  5259 net.cpp:106] Creating Layer drop3
I0527 01:43:02.466215  5259 net.cpp:454] drop3 <- ip3
I0527 01:43:02.466230  5259 net.cpp:397] drop3 -> ip3 (in-place)
I0527 01:43:02.466277  5259 net.cpp:150] Setting up drop3
I0527 01:43:02.466300  5259 net.cpp:157] Top shape: 30 11 (330)
I0527 01:43:02.466312  5259 net.cpp:165] Memory required for data: 47363400
I0527 01:43:02.466332  5259 layer_factory.hpp:77] Creating layer loss
I0527 01:43:02.466354  5259 net.cpp:106] Creating Layer loss
I0527 01:43:02.466369  5259 net.cpp:454] loss <- ip3
I0527 01:43:02.466389  5259 net.cpp:454] loss <- label
I0527 01:43:02.466405  5259 net.cpp:411] loss -> loss
I0527 01:43:02.466425  5259 layer_factory.hpp:77] Creating layer loss
…
I0527 01:43:02.469372  5259 solver.cpp:181] Creating test net (#0) specified by net file: /lustre/atlas/proj-shared/hep105/caffe_titan/caffe_workflow/logs_bslr/bs_30_lr_0.0030_2016-05-20T15.48.59.226161.prototxt
I0527 01:43:02.469447  5259 net.cpp:322] The NetState phase (1) differed from the phase (0) specified by a rule in layer data_hdf5
I0527 01:43:02.469807  5259 net.cpp:49] Initializing net from parameters: 
name: "caffe_test_127x50_x_unshifted"
state {
  phase: TEST
}
layer {
  name: "data_hdf5"
  type: "HDF5Data"
  top: "data"
  top: "label"
  include {
    phase: TEST
  }
  hdf5_data_param {
    source: "/lustre/atlas/proj-shared/hep105/caffe_titan/minosmatch_nukecczdefs_127x50_x_unshifted_me1Bmc.testlist"
    batch_size: 30
  }
}
layer {
  name: "conv1"
  type: "Convolution"
  bottom: "data"
  top: "conv1"
  convolution_param {
    num_output: 12
    pad: 0
    stride: 1
    weight_filler {
      type: "xavier"
    }
    bias_filler {
      type: "constant"
    }
    kernel_h: 8
    kernel_w: 3
  }
}
layer {
  name: "relu1"
  type: "ReLU"
  bottom: "conv1"
  top: "conv1"
}
layer {
  name: "pool1"
  type: "Pooling"
  bottom: "conv1"
  top: "pool1"
  pooling_param {
    pool: MAX
    kernel_h: 2
    kernel_w: 1
    stride_h: 2
    stride_w: 1
  }
}
layer {
  name: "conv2"
  type: "Convolution"
  bottom: "pool1"
  top: "conv2"
  convolution_param {
    num_output: 20
    pad: 0
    stride: 1
    weight_filler {
      type: "xavier"
    }
    bias_filler {
      type: "constant"
    }
    kernel_h: 7
    kernel_w: 3
  }
}
layer {
  name: "relu2"
  type: "ReLU"
  bottom: "conv2"
  top: "conv2"
}
layer {
  name: "pool2"
  type: "Pooling"
  bottom: "conv2"
  top: "pool2"
  pooling_param {
    pool: MAX
    kernel_h: 2
    kernel_w: 1
    stride_h: 2
    stride_w: 1
  }
}
layer {
  name: "conv3"
  type: "Convolution"
  bottom: "pool2"
  top: "conv3"
  convolution_param {
    num_output: 28
    pad: 0
    stride: 1
    weight_filler {
      type: "xavier"
    }
    bias_filler {
      type: "constant"
    }
    kernel_h: 6
    kernel_w: 3
  }
}
layer {
  name: "relu3"
  type: "ReLU"
  bottom: "conv3"
  top: "conv3"
}
layer {
  name: "pool3"
  type: "Pooling"
  bottom: "conv3"
  top: "pool3"
  pooling_param {
    pool: MAX
    kernel_h: 2
    kernel_w: 1
    stride_h: 2
    stride_w: 1
  }
}
layer {
  name: "conv4"
  type: "Convolution"
  bottom: "pool3"
  top: "conv4"
  convolution_param {
    num_output: 36
    pad: 0
    stride: 1
    weight_filler {
      type: "xavier"
    }
    bias_filler {
      type: "constant"
    }
    kernel_h: 6
    kernel_w: 3
  }
}
layer {
  name: "relu4"
  type: "ReLU"
  bottom: "conv4"
  top: "conv4"
}
layer {
  name: "pool4"
  type: "Pooling"
  bottom: "conv4"
  top: "pool4"
  pooling_param {
    pool: MAX
    kernel_h: 2
    kernel_w: 1
    stride_h: 2
    stride_w: 1
  }
}
layer {
  name: "ip1"
  type: "InnerProduct"
  bottom: "pool4"
  top: "ip1"
  inner_product_param {
    num_output: 196
    weight_filler {
      type: "xavier"
    }
    bias_filler {
      type: "constant"
    }
  }
}
layer {
  name: "relu5"
  type: "ReLU"
  bottom: "ip1"
  top: "ip1"
}
layer {
  name: "drop1"
  type: "Dropout"
  bottom: "ip1"
  top: "ip1"
  dropout_param {
    dropout_ratio: 0.5
  }
}
layer {
  name: "ip2"
  type: "InnerProduct"
  bottom: "ip1"
  top: "ip2"
  inner_product_param {
    num_output: 98
    weight_filler {
      type: "xavier"
    }
    bias_filler {
      type: "constant"
    }
  }
}
layer {
  name: "relu6"
  type: "ReLU"
  bottom: "ip2"
  top: "ip2"
}
layer {
  name: "drop2"
  type: "Dropout"
  bottom: "ip2"
  top: "ip2"
  dropout_param {
    dropout_ratio: 0.5
  }
}
layer {
  name: "ip3"
  type: "InnerProduct"
  bottom: "ip2"
  top: "ip3"
  inner_product_param {
    num_output: 11
    weight_filler {
      type: "xavier"
    }
    bias_filler {
      type: "constant"
    }
  }
}
layer {
  name: "drop3"
  type: "Dropout"
  bottom: "ip3"
  top: "ip3"
  dropout_param {
    dropout_ratio: 0.5
  }
}
layer {
  name: "accuracy"
  type: "Accuracy"
  bottom: "ip3"
  bottom: "label"
  top: "accuracy"
  include {
    phase: TEST
  }
}
layer {
  name: "loss"
  type: "SoftmaxWithLoss"
  bottom: "ip3"
  bottom: "label"
  top: "loss"
}
I0527 01:43:02.470006  5259 layer_factory.hpp:77] Creating layer data_hdf5
I0527 01:43:02.470024  5259 net.cpp:106] Creating Layer data_hdf5
I0527 01:43:02.470039  5259 net.cpp:411] data_hdf5 -> data
I0527 01:43:02.470059  5259 net.cpp:411] data_hdf5 -> label
I0527 01:43:02.470077  5259 hdf5_data_layer.cpp:79] Loading list of HDF5 filenames from: /lustre/atlas/proj-shared/hep105/caffe_titan/minosmatch_nukecczdefs_127x50_x_unshifted_me1Bmc.testlist
I0527 01:43:02.471567  5259 hdf5_data_layer.cpp:93] Number of HDF5 files: 3
I0527 01:43:23.862534  5259 net.cpp:150] Setting up data_hdf5
I0527 01:43:23.862702  5259 net.cpp:157] Top shape: 30 1 127 50 (190500)
I0527 01:43:23.862721  5259 net.cpp:157] Top shape: 30 (30)
I0527 01:43:23.862735  5259 net.cpp:165] Memory required for data: 762120
I0527 01:43:23.862749  5259 layer_factory.hpp:77] Creating layer label_data_hdf5_1_split
I0527 01:43:23.862783  5259 net.cpp:106] Creating Layer label_data_hdf5_1_split
I0527 01:43:23.862818  5259 net.cpp:454] label_data_hdf5_1_split <- label
I0527 01:43:23.862835  5259 net.cpp:411] label_data_hdf5_1_split -> label_data_hdf5_1_split_0
I0527 01:43:23.862857  5259 net.cpp:411] label_data_hdf5_1_split -> label_data_hdf5_1_split_1
I0527 01:43:23.862951  5259 net.cpp:150] Setting up label_data_hdf5_1_split
I0527 01:43:23.862969  5259 net.cpp:157] Top shape: 30 (30)
I0527 01:43:23.862995  5259 net.cpp:157] Top shape: 30 (30)
I0527 01:43:23.863008  5259 net.cpp:165] Memory required for data: 762360
I0527 01:43:23.863020  5259 layer_factory.hpp:77] Creating layer conv1
I0527 01:43:23.863054  5259 net.cpp:106] Creating Layer conv1
I0527 01:43:23.863066  5259 net.cpp:454] conv1 <- data
I0527 01:43:23.863085  5259 net.cpp:411] conv1 -> conv1
I0527 01:43:23.865043  5259 net.cpp:150] Setting up conv1
I0527 01:43:23.865069  5259 net.cpp:157] Top shape: 30 12 120 48 (2073600)
I0527 01:43:23.865090  5259 net.cpp:165] Memory required for data: 9056760
I0527 01:43:23.865114  5259 layer_factory.hpp:77] Creating layer relu1
I0527 01:43:23.865135  5259 net.cpp:106] Creating Layer relu1
I0527 01:43:23.865157  5259 net.cpp:454] relu1 <- conv1
I0527 01:43:23.865173  5259 net.cpp:397] relu1 -> conv1 (in-place)
I0527 01:43:23.865687  5259 net.cpp:150] Setting up relu1
I0527 01:43:23.865710  5259 net.cpp:157] Top shape: 30 12 120 48 (2073600)
I0527 01:43:23.865723  5259 net.cpp:165] Memory required for data: 17351160
I0527 01:43:23.865736  5259 layer_factory.hpp:77] Creating layer pool1
I0527 01:43:23.865767  5259 net.cpp:106] Creating Layer pool1
I0527 01:43:23.865779  5259 net.cpp:454] pool1 <- conv1
I0527 01:43:23.865797  5259 net.cpp:411] pool1 -> pool1
I0527 01:43:23.865885  5259 net.cpp:150] Setting up pool1
I0527 01:43:23.865902  5259 net.cpp:157] Top shape: 30 12 60 48 (1036800)
I0527 01:43:23.865917  5259 net.cpp:165] Memory required for data: 21498360
I0527 01:43:23.865929  5259 layer_factory.hpp:77] Creating layer conv2
I0527 01:43:23.865952  5259 net.cpp:106] Creating Layer conv2
I0527 01:43:23.865970  5259 net.cpp:454] conv2 <- pool1
I0527 01:43:23.865988  5259 net.cpp:411] conv2 -> conv2
I0527 01:43:23.867938  5259 net.cpp:150] Setting up conv2
I0527 01:43:23.867962  5259 net.cpp:157] Top shape: 30 20 54 46 (1490400)
I0527 01:43:23.867983  5259 net.cpp:165] Memory required for data: 27459960
I0527 01:43:23.868005  5259 layer_factory.hpp:77] Creating layer relu2
I0527 01:43:23.868026  5259 net.cpp:106] Creating Layer relu2
I0527 01:43:23.868038  5259 net.cpp:454] relu2 <- conv2
I0527 01:43:23.868064  5259 net.cpp:397] relu2 -> conv2 (in-place)
I0527 01:43:23.868412  5259 net.cpp:150] Setting up relu2
I0527 01:43:23.868432  5259 net.cpp:157] Top shape: 30 20 54 46 (1490400)
I0527 01:43:23.868445  5259 net.cpp:165] Memory required for data: 33421560
I0527 01:43:23.868461  5259 layer_factory.hpp:77] Creating layer pool2
I0527 01:43:23.868484  5259 net.cpp:106] Creating Layer pool2
I0527 01:43:23.868497  5259 net.cpp:454] pool2 <- conv2
I0527 01:43:23.868513  5259 net.cpp:411] pool2 -> pool2
I0527 01:43:23.868602  5259 net.cpp:150] Setting up pool2
I0527 01:43:23.868624  5259 net.cpp:157] Top shape: 30 20 27 46 (745200)
I0527 01:43:23.868636  5259 net.cpp:165] Memory required for data: 36402360
I0527 01:43:23.868649  5259 layer_factory.hpp:77] Creating layer conv3
I0527 01:43:23.868680  5259 net.cpp:106] Creating Layer conv3
I0527 01:43:23.868695  5259 net.cpp:454] conv3 <- pool2
I0527 01:43:23.868710  5259 net.cpp:411] conv3 -> conv3
I0527 01:43:23.870715  5259 net.cpp:150] Setting up conv3
I0527 01:43:23.870740  5259 net.cpp:157] Top shape: 30 28 22 44 (813120)
I0527 01:43:23.870760  5259 net.cpp:165] Memory required for data: 39654840
I0527 01:43:23.870801  5259 layer_factory.hpp:77] Creating layer relu3
I0527 01:43:23.870826  5259 net.cpp:106] Creating Layer relu3
I0527 01:43:23.870841  5259 net.cpp:454] relu3 <- conv3
I0527 01:43:23.870857  5259 net.cpp:397] relu3 -> conv3 (in-place)
I0527 01:43:23.871361  5259 net.cpp:150] Setting up relu3
I0527 01:43:23.871384  5259 net.cpp:157] Top shape: 30 28 22 44 (813120)
I0527 01:43:23.871397  5259 net.cpp:165] Memory required for data: 42907320
I0527 01:43:23.871413  5259 layer_factory.hpp:77] Creating layer pool3
I0527 01:43:23.871438  5259 net.cpp:106] Creating Layer pool3
I0527 01:43:23.871451  5259 net.cpp:454] pool3 <- conv3
I0527 01:43:23.871467  5259 net.cpp:411] pool3 -> pool3
I0527 01:43:23.871554  5259 net.cpp:150] Setting up pool3
I0527 01:43:23.871572  5259 net.cpp:157] Top shape: 30 28 11 44 (406560)
I0527 01:43:23.871587  5259 net.cpp:165] Memory required for data: 44533560
I0527 01:43:23.871598  5259 layer_factory.hpp:77] Creating layer conv4
I0527 01:43:23.871625  5259 net.cpp:106] Creating Layer conv4
I0527 01:43:23.871639  5259 net.cpp:454] conv4 <- pool3
I0527 01:43:23.871657  5259 net.cpp:411] conv4 -> conv4
I0527 01:43:23.873746  5259 net.cpp:150] Setting up conv4
I0527 01:43:23.873770  5259 net.cpp:157] Top shape: 30 36 6 42 (272160)
I0527 01:43:23.873790  5259 net.cpp:165] Memory required for data: 45622200
I0527 01:43:23.873810  5259 layer_factory.hpp:77] Creating layer relu4
I0527 01:43:23.873829  5259 net.cpp:106] Creating Layer relu4
I0527 01:43:23.873842  5259 net.cpp:454] relu4 <- conv4
I0527 01:43:23.873868  5259 net.cpp:397] relu4 -> conv4 (in-place)
I0527 01:43:23.874356  5259 net.cpp:150] Setting up relu4
I0527 01:43:23.874379  5259 net.cpp:157] Top shape: 30 36 6 42 (272160)
I0527 01:43:23.874392  5259 net.cpp:165] Memory required for data: 46710840
I0527 01:43:23.874408  5259 layer_factory.hpp:77] Creating layer pool4
I0527 01:43:23.874433  5259 net.cpp:106] Creating Layer pool4
I0527 01:43:23.874446  5259 net.cpp:454] pool4 <- conv4
I0527 01:43:23.874462  5259 net.cpp:411] pool4 -> pool4
I0527 01:43:23.874549  5259 net.cpp:150] Setting up pool4
I0527 01:43:23.874567  5259 net.cpp:157] Top shape: 30 36 3 42 (136080)
I0527 01:43:23.874582  5259 net.cpp:165] Memory required for data: 47255160
I0527 01:43:23.874593  5259 layer_factory.hpp:77] Creating layer ip1
I0527 01:43:23.874619  5259 net.cpp:106] Creating Layer ip1
I0527 01:43:23.874631  5259 net.cpp:454] ip1 <- pool4
I0527 01:43:23.874649  5259 net.cpp:411] ip1 -> ip1
I0527 01:43:23.890127  5259 net.cpp:150] Setting up ip1
I0527 01:43:23.890157  5259 net.cpp:157] Top shape: 30 196 (5880)
I0527 01:43:23.890178  5259 net.cpp:165] Memory required for data: 47278680
I0527 01:43:23.890205  5259 layer_factory.hpp:77] Creating layer relu5
I0527 01:43:23.890228  5259 net.cpp:106] Creating Layer relu5
I0527 01:43:23.890252  5259 net.cpp:454] relu5 <- ip1
I0527 01:43:23.890269  5259 net.cpp:397] relu5 -> ip1 (in-place)
I0527 01:43:23.890632  5259 net.cpp:150] Setting up relu5
I0527 01:43:23.890652  5259 net.cpp:157] Top shape: 30 196 (5880)
I0527 01:43:23.890666  5259 net.cpp:165] Memory required for data: 47302200
I0527 01:43:23.890677  5259 layer_factory.hpp:77] Creating layer drop1
I0527 01:43:23.890710  5259 net.cpp:106] Creating Layer drop1
I0527 01:43:23.890724  5259 net.cpp:454] drop1 <- ip1
I0527 01:43:23.890739  5259 net.cpp:397] drop1 -> ip1 (in-place)
I0527 01:43:23.890791  5259 net.cpp:150] Setting up drop1
I0527 01:43:23.890813  5259 net.cpp:157] Top shape: 30 196 (5880)
I0527 01:43:23.890827  5259 net.cpp:165] Memory required for data: 47325720
I0527 01:43:23.890841  5259 layer_factory.hpp:77] Creating layer ip2
I0527 01:43:23.890862  5259 net.cpp:106] Creating Layer ip2
I0527 01:43:23.890882  5259 net.cpp:454] ip2 <- ip1
I0527 01:43:23.890899  5259 net.cpp:411] ip2 -> ip2
I0527 01:43:23.891396  5259 net.cpp:150] Setting up ip2
I0527 01:43:23.891414  5259 net.cpp:157] Top shape: 30 98 (2940)
I0527 01:43:23.891427  5259 net.cpp:165] Memory required for data: 47337480
I0527 01:43:23.891448  5259 layer_factory.hpp:77] Creating layer relu6
I0527 01:43:23.891482  5259 net.cpp:106] Creating Layer relu6
I0527 01:43:23.891496  5259 net.cpp:454] relu6 <- ip2
I0527 01:43:23.891517  5259 net.cpp:397] relu6 -> ip2 (in-place)
I0527 01:43:23.892083  5259 net.cpp:150] Setting up relu6
I0527 01:43:23.892107  5259 net.cpp:157] Top shape: 30 98 (2940)
I0527 01:43:23.892120  5259 net.cpp:165] Memory required for data: 47349240
I0527 01:43:23.892137  5259 layer_factory.hpp:77] Creating layer drop2
I0527 01:43:23.892160  5259 net.cpp:106] Creating Layer drop2
I0527 01:43:23.892174  5259 net.cpp:454] drop2 <- ip2
I0527 01:43:23.892190  5259 net.cpp:397] drop2 -> ip2 (in-place)
I0527 01:43:23.892248  5259 net.cpp:150] Setting up drop2
I0527 01:43:23.892264  5259 net.cpp:157] Top shape: 30 98 (2940)
I0527 01:43:23.892277  5259 net.cpp:165] Memory required for data: 47361000
I0527 01:43:23.892289  5259 layer_factory.hpp:77] Creating layer ip3
I0527 01:43:23.892308  5259 net.cpp:106] Creating Layer ip3
I0527 01:43:23.892321  5259 net.cpp:454] ip3 <- ip2
I0527 01:43:23.892344  5259 net.cpp:411] ip3 -> ip3
I0527 01:43:23.892585  5259 net.cpp:150] Setting up ip3
I0527 01:43:23.892603  5259 net.cpp:157] Top shape: 30 11 (330)
I0527 01:43:23.892616  5259 net.cpp:165] Memory required for data: 47362320
I0527 01:43:23.892637  5259 layer_factory.hpp:77] Creating layer drop3
I0527 01:43:23.892658  5259 net.cpp:106] Creating Layer drop3
I0527 01:43:23.892671  5259 net.cpp:454] drop3 <- ip3
I0527 01:43:23.892686  5259 net.cpp:397] drop3 -> ip3 (in-place)
I0527 01:43:23.892735  5259 net.cpp:150] Setting up drop3
I0527 01:43:23.892758  5259 net.cpp:157] Top shape: 30 11 (330)
I0527 01:43:23.892771  5259 net.cpp:165] Memory required for data: 47363640
I0527 01:43:23.892791  5259 layer_factory.hpp:77] Creating layer ip3_drop3_0_split
I0527 01:43:23.892807  5259 net.cpp:106] Creating Layer ip3_drop3_0_split
I0527 01:43:23.892818  5259 net.cpp:454] ip3_drop3_0_split <- ip3
I0527 01:43:23.892837  5259 net.cpp:411] ip3_drop3_0_split -> ip3_drop3_0_split_0
I0527 01:43:23.892861  5259 net.cpp:411] ip3_drop3_0_split -> ip3_drop3_0_split_1
I0527 01:43:23.892948  5259 net.cpp:150] Setting up ip3_drop3_0_split
I0527 01:43:23.892966  5259 net.cpp:157] Top shape: 30 11 (330)
I0527 01:43:23.892984  5259 net.cpp:157] Top shape: 30 11 (330)
I0527 01:43:23.892997  5259 net.cpp:165] Memory required for data: 47366280
I0527 01:43:23.893008  5259 layer_factory.hpp:77] Creating layer accuracy
I0527 01:43:23.893040  5259 net.cpp:106] Creating Layer accuracy
I0527 01:43:23.893054  5259 net.cpp:454] accuracy <- ip3_drop3_0_split_0
I0527 01:43:23.893067  5259 net.cpp:454] accuracy <- label_data_hdf5_1_split_0
I0527 01:43:23.893085  5259 net.cpp:411] accuracy -> accuracy
…
