…
I0527 05:14:21.746667  1888 net.cpp:322] The NetState phase (0) differed from the phase (1) specified by a rule in layer data_hdf5
I0527 05:14:21.746723  1888 net.cpp:322] The NetState phase (0) differed from the phase (1) specified by a rule in layer accuracy
I0527 05:14:21.747071  1888 net.cpp:49] Initializing net from parameters: 
name: "caffe_test_127x50_x_unshifted"
state {
  phase: TRAIN
}
layer {
  name: "data_hdf5"
  type: "HDF5Data"
  top: "data"
  top: "label"
  include {
    phase: TRAIN
  }
  hdf5_data_param {
    source: "/lustre/atlas/proj-shared/hep105/caffe_titan/minosmatch_nukecczdefs_127x50_x_unshifted_me1Bmc.trainlist"
    batch_size: 30
  }
}
layer {
  name: "conv1"
  type: "Convolution"
  bottom: "data"
  top: "conv1"
  convolution_param {
    num_output: 12
    pad: 0
    stride: 1
    weight_filler {
      type: "xavier"
    }
    bias_filler {
      type: "constant"
    }
    kernel_h: 8
    kernel_w: 3
  }
}
layer {
  name: "relu1"
  type: "ReLU"
  bottom: "conv1"
  top: "conv1"
}
layer {
  name: "pool1"
  type: "Pooling"
  bottom: "conv1"
  top: "pool1"
  pooling_param {
    pool: MAX
    kernel_h: 2
    kernel_w: 1
    stride_h: 2
    stride_w: 1
  }
}
layer {
  name: "conv2"
  type: "Convolution"
  bottom: "pool1"
  top: "conv2"
  convolution_param {
    num_output: 20
    pad: 0
    stride: 1
    weight_filler {
      type: "xavier"
    }
    bias_filler {
      type: "constant"
    }
    kernel_h: 7
    kernel_w: 3
  }
}
layer {
  name: "relu2"
  type: "ReLU"
  bottom: "conv2"
  top: "conv2"
}
layer {
  name: "pool2"
  type: "Pooling"
  bottom: "conv2"
  top: "pool2"
  pooling_param {
    pool: MAX
    kernel_h: 2
    kernel_w: 1
    stride_h: 2
    stride_w: 1
  }
}
layer {
  name: "conv3"
  type: "Convolution"
  bottom: "pool2"
  top: "conv3"
  convolution_param {
    num_output: 28
    pad: 0
    stride: 1
    weight_filler {
      type: "xavier"
    }
    bias_filler {
      type: "constant"
    }
    kernel_h: 6
    kernel_w: 3
  }
}
layer {
  name: "relu3"
  type: "ReLU"
  bottom: "conv3"
  top: "conv3"
}
layer {
  name: "pool3"
  type: "Pooling"
  bottom: "conv3"
  top: "pool3"
  pooling_param {
    pool: MAX
    kernel_h: 2
    kernel_w: 1
    stride_h: 2
    stride_w: 1
  }
}
layer {
  name: "conv4"
  type: "Convolution"
  bottom: "pool3"
  top: "conv4"
  convolution_param {
    num_output: 36
    pad: 0
    stride: 1
    weight_filler {
      type: "xavier"
    }
    bias_filler {
      type: "constant"
    }
    kernel_h: 6
    kernel_w: 3
  }
}
layer {
  name: "relu4"
  type: "ReLU"
  bottom: "conv4"
  top: "conv4"
}
layer {
  name: "pool4"
  type: "Pooling"
  bottom: "conv4"
  top: "pool4"
  pooling_param {
    pool: MAX
    kernel_h: 2
    kernel_w: 1
    stride_h: 2
    stride_w: 1
  }
}
layer {
  name: "ip1"
  type: "InnerProduct"
  bottom: "pool4"
  top: "ip1"
  inner_product_param {
    num_output: 196
    weight_filler {
      type: "xavier"
    }
    bias_filler {
      type: "constant"
    }
  }
}
layer {
  name: "relu5"
  type: "ReLU"
  bottom: "ip1"
  top: "ip1"
}
layer {
  name: "drop1"
  type: "Dropout"
  bottom: "ip1"
  top: "ip1"
  dropout_param {
    dropout_ratio: 0.5
  }
}
layer {
  name: "ip2"
  type: "InnerProduct"
  bottom: "ip1"
  top: "ip2"
  inner_product_param {
    num_output: 98
    weight_filler {
      type: "xavier"
    }
    bias_filler {
      type: "constant"
    }
  }
}
layer {
  name: "relu6"
  type: "ReLU"
  bottom: "ip2"
  top: "ip2"
}
layer {
  name: "drop2"
  type: "Dropout"
  bottom: "ip2"
  top: "ip2"
  dropout_param {
    dropout_ratio: 0.5
  }
}
layer {
  name: "ip3"
  type: "InnerProduct"
  bottom: "ip2"
  top: "ip3"
  inner_product_param {
    num_output: 11
    weight_filler {
      type: "xavier"
    }
    bias_filler {
      type: "constant"
    }
  }
}
layer {
  name: "drop3"
  type: "Dropout"
  bottom: "ip3"
  top: "ip3"
  dropout_param {
    dropout_ratio: 0.5
  }
}
layer {
  name: "loss"
  type: "SoftmaxWithLoss"
  bottom: "ip3"
  bottom: "label"
  top: "loss"
}
I0527 05:14:21.747251  1888 layer_factory.hpp:77] Creating layer data_hdf5
I0527 05:14:21.747274  1888 net.cpp:106] Creating Layer data_hdf5
I0527 05:14:21.747288  1888 net.cpp:411] data_hdf5 -> data
I0527 05:14:21.747323  1888 net.cpp:411] data_hdf5 -> label
I0527 05:14:21.747354  1888 hdf5_data_layer.cpp:79] Loading list of HDF5 filenames from: /lustre/atlas/proj-shared/hep105/caffe_titan/minosmatch_nukecczdefs_127x50_x_unshifted_me1Bmc.trainlist
I0527 05:14:21.748821  1888 hdf5_data_layer.cpp:93] Number of HDF5 files: 15
I0527 05:14:21.751127  1888 hdf5.cpp:32] Datatype class: H5T_FLOAT
I0527 05:14:43.273562  1888 hdf5.cpp:35] Datatype class: H5T_INTEGER
I0527 05:14:43.278775  1888 net.cpp:150] Setting up data_hdf5
I0527 05:14:43.278816  1888 net.cpp:157] Top shape: 30 1 127 50 (190500)
I0527 05:14:43.278831  1888 net.cpp:157] Top shape: 30 (30)
I0527 05:14:43.278841  1888 net.cpp:165] Memory required for data: 762120
I0527 05:14:43.278853  1888 layer_factory.hpp:77] Creating layer conv1
I0527 05:14:43.278887  1888 net.cpp:106] Creating Layer conv1
I0527 05:14:43.278899  1888 net.cpp:454] conv1 <- data
I0527 05:14:43.278923  1888 net.cpp:411] conv1 -> conv1
I0527 05:14:43.746419  1888 net.cpp:150] Setting up conv1
I0527 05:14:43.746464  1888 net.cpp:157] Top shape: 30 12 120 48 (2073600)
I0527 05:14:43.746474  1888 net.cpp:165] Memory required for data: 9056520
I0527 05:14:43.746505  1888 layer_factory.hpp:77] Creating layer relu1
I0527 05:14:43.746527  1888 net.cpp:106] Creating Layer relu1
I0527 05:14:43.746538  1888 net.cpp:454] relu1 <- conv1
I0527 05:14:43.746551  1888 net.cpp:397] relu1 -> conv1 (in-place)
I0527 05:14:43.747068  1888 net.cpp:150] Setting up relu1
I0527 05:14:43.747086  1888 net.cpp:157] Top shape: 30 12 120 48 (2073600)
I0527 05:14:43.747097  1888 net.cpp:165] Memory required for data: 17350920
I0527 05:14:43.747107  1888 layer_factory.hpp:77] Creating layer pool1
I0527 05:14:43.747123  1888 net.cpp:106] Creating Layer pool1
I0527 05:14:43.747133  1888 net.cpp:454] pool1 <- conv1
I0527 05:14:43.747148  1888 net.cpp:411] pool1 -> pool1
I0527 05:14:43.747229  1888 net.cpp:150] Setting up pool1
I0527 05:14:43.747243  1888 net.cpp:157] Top shape: 30 12 60 48 (1036800)
I0527 05:14:43.747251  1888 net.cpp:165] Memory required for data: 21498120
I0527 05:14:43.747262  1888 layer_factory.hpp:77] Creating layer conv2
I0527 05:14:43.747285  1888 net.cpp:106] Creating Layer conv2
I0527 05:14:43.747295  1888 net.cpp:454] conv2 <- pool1
I0527 05:14:43.747308  1888 net.cpp:411] conv2 -> conv2
I0527 05:14:43.750003  1888 net.cpp:150] Setting up conv2
I0527 05:14:43.750031  1888 net.cpp:157] Top shape: 30 20 54 46 (1490400)
I0527 05:14:43.750042  1888 net.cpp:165] Memory required for data: 27459720
I0527 05:14:43.750061  1888 layer_factory.hpp:77] Creating layer relu2
I0527 05:14:43.750077  1888 net.cpp:106] Creating Layer relu2
I0527 05:14:43.750087  1888 net.cpp:454] relu2 <- conv2
I0527 05:14:43.750100  1888 net.cpp:397] relu2 -> conv2 (in-place)
I0527 05:14:43.750433  1888 net.cpp:150] Setting up relu2
I0527 05:14:43.750448  1888 net.cpp:157] Top shape: 30 20 54 46 (1490400)
I0527 05:14:43.750458  1888 net.cpp:165] Memory required for data: 33421320
I0527 05:14:43.750468  1888 layer_factory.hpp:77] Creating layer pool2
I0527 05:14:43.750481  1888 net.cpp:106] Creating Layer pool2
I0527 05:14:43.750491  1888 net.cpp:454] pool2 <- conv2
I0527 05:14:43.750504  1888 net.cpp:411] pool2 -> pool2
I0527 05:14:43.750584  1888 net.cpp:150] Setting up pool2
I0527 05:14:43.750598  1888 net.cpp:157] Top shape: 30 20 27 46 (745200)
I0527 05:14:43.750608  1888 net.cpp:165] Memory required for data: 36402120
I0527 05:14:43.750617  1888 layer_factory.hpp:77] Creating layer conv3
I0527 05:14:43.750634  1888 net.cpp:106] Creating Layer conv3
I0527 05:14:43.750644  1888 net.cpp:454] conv3 <- pool2
I0527 05:14:43.750658  1888 net.cpp:411] conv3 -> conv3
I0527 05:14:43.752614  1888 net.cpp:150] Setting up conv3
I0527 05:14:43.752637  1888 net.cpp:157] Top shape: 30 28 22 44 (813120)
I0527 05:14:43.752650  1888 net.cpp:165] Memory required for data: 39654600
I0527 05:14:43.752667  1888 layer_factory.hpp:77] Creating layer relu3
I0527 05:14:43.752684  1888 net.cpp:106] Creating Layer relu3
I0527 05:14:43.752694  1888 net.cpp:454] relu3 <- conv3
I0527 05:14:43.752707  1888 net.cpp:397] relu3 -> conv3 (in-place)
I0527 05:14:43.753177  1888 net.cpp:150] Setting up relu3
I0527 05:14:43.753195  1888 net.cpp:157] Top shape: 30 28 22 44 (813120)
I0527 05:14:43.753206  1888 net.cpp:165] Memory required for data: 42907080
I0527 05:14:43.753216  1888 layer_factory.hpp:77] Creating layer pool3
I0527 05:14:43.753228  1888 net.cpp:106] Creating Layer pool3
I0527 05:14:43.753238  1888 net.cpp:454] pool3 <- conv3
I0527 05:14:43.753259  1888 net.cpp:411] pool3 -> pool3
I0527 05:14:43.753329  1888 net.cpp:150] Setting up pool3
I0527 05:14:43.753341  1888 net.cpp:157] Top shape: 30 28 11 44 (406560)
I0527 05:14:43.753353  1888 net.cpp:165] Memory required for data: 44533320
I0527 05:14:43.753363  1888 layer_factory.hpp:77] Creating layer conv4
I0527 05:14:43.753381  1888 net.cpp:106] Creating Layer conv4
I0527 05:14:43.753391  1888 net.cpp:454] conv4 <- pool3
I0527 05:14:43.753406  1888 net.cpp:411] conv4 -> conv4
I0527 05:14:43.756111  1888 net.cpp:150] Setting up conv4
I0527 05:14:43.756139  1888 net.cpp:157] Top shape: 30 36 6 42 (272160)
I0527 05:14:43.756150  1888 net.cpp:165] Memory required for data: 45621960
I0527 05:14:43.756165  1888 layer_factory.hpp:77] Creating layer relu4
I0527 05:14:43.756181  1888 net.cpp:106] Creating Layer relu4
I0527 05:14:43.756191  1888 net.cpp:454] relu4 <- conv4
I0527 05:14:43.756203  1888 net.cpp:397] relu4 -> conv4 (in-place)
I0527 05:14:43.756674  1888 net.cpp:150] Setting up relu4
I0527 05:14:43.756690  1888 net.cpp:157] Top shape: 30 36 6 42 (272160)
I0527 05:14:43.756700  1888 net.cpp:165] Memory required for data: 46710600
I0527 05:14:43.756711  1888 layer_factory.hpp:77] Creating layer pool4
I0527 05:14:43.756724  1888 net.cpp:106] Creating Layer pool4
I0527 05:14:43.756734  1888 net.cpp:454] pool4 <- conv4
I0527 05:14:43.756747  1888 net.cpp:411] pool4 -> pool4
I0527 05:14:43.756814  1888 net.cpp:150] Setting up pool4
I0527 05:14:43.756829  1888 net.cpp:157] Top shape: 30 36 3 42 (136080)
I0527 05:14:43.756839  1888 net.cpp:165] Memory required for data: 47254920
I0527 05:14:43.756850  1888 layer_factory.hpp:77] Creating layer ip1
I0527 05:14:43.756870  1888 net.cpp:106] Creating Layer ip1
I0527 05:14:43.756881  1888 net.cpp:454] ip1 <- pool4
I0527 05:14:43.756894  1888 net.cpp:411] ip1 -> ip1
I0527 05:14:43.772380  1888 net.cpp:150] Setting up ip1
I0527 05:14:43.772409  1888 net.cpp:157] Top shape: 30 196 (5880)
I0527 05:14:43.772421  1888 net.cpp:165] Memory required for data: 47278440
I0527 05:14:43.772444  1888 layer_factory.hpp:77] Creating layer relu5
I0527 05:14:43.772459  1888 net.cpp:106] Creating Layer relu5
I0527 05:14:43.772469  1888 net.cpp:454] relu5 <- ip1
I0527 05:14:43.772482  1888 net.cpp:397] relu5 -> ip1 (in-place)
I0527 05:14:43.772824  1888 net.cpp:150] Setting up relu5
I0527 05:14:43.772837  1888 net.cpp:157] Top shape: 30 196 (5880)
I0527 05:14:43.772848  1888 net.cpp:165] Memory required for data: 47301960
I0527 05:14:43.772860  1888 layer_factory.hpp:77] Creating layer drop1
I0527 05:14:43.772881  1888 net.cpp:106] Creating Layer drop1
I0527 05:14:43.772891  1888 net.cpp:454] drop1 <- ip1
I0527 05:14:43.772903  1888 net.cpp:397] drop1 -> ip1 (in-place)
I0527 05:14:43.772964  1888 net.cpp:150] Setting up drop1
I0527 05:14:43.772977  1888 net.cpp:157] Top shape: 30 196 (5880)
I0527 05:14:43.772987  1888 net.cpp:165] Memory required for data: 47325480
I0527 05:14:43.772997  1888 layer_factory.hpp:77] Creating layer ip2
I0527 05:14:43.773016  1888 net.cpp:106] Creating Layer ip2
I0527 05:14:43.773027  1888 net.cpp:454] ip2 <- ip1
I0527 05:14:43.773041  1888 net.cpp:411] ip2 -> ip2
I0527 05:14:43.773509  1888 net.cpp:150] Setting up ip2
I0527 05:14:43.773521  1888 net.cpp:157] Top shape: 30 98 (2940)
I0527 05:14:43.773531  1888 net.cpp:165] Memory required for data: 47337240
I0527 05:14:43.773546  1888 layer_factory.hpp:77] Creating layer relu6
I0527 05:14:43.773561  1888 net.cpp:106] Creating Layer relu6
I0527 05:14:43.773571  1888 net.cpp:454] relu6 <- ip2
I0527 05:14:43.773582  1888 net.cpp:397] relu6 -> ip2 (in-place)
I0527 05:14:43.774103  1888 net.cpp:150] Setting up relu6
I0527 05:14:43.774119  1888 net.cpp:157] Top shape: 30 98 (2940)
I0527 05:14:43.774130  1888 net.cpp:165] Memory required for data: 47349000
I0527 05:14:43.774140  1888 layer_factory.hpp:77] Creating layer drop2
I0527 05:14:43.774153  1888 net.cpp:106] Creating Layer drop2
I0527 05:14:43.774163  1888 net.cpp:454] drop2 <- ip2
I0527 05:14:43.774176  1888 net.cpp:397] drop2 -> ip2 (in-place)
I0527 05:14:43.774219  1888 net.cpp:150] Setting up drop2
I0527 05:14:43.774232  1888 net.cpp:157] Top shape: 30 98 (2940)
I0527 05:14:43.774242  1888 net.cpp:165] Memory required for data: 47360760
I0527 05:14:43.774252  1888 layer_factory.hpp:77] Creating layer ip3
I0527 05:14:43.774266  1888 net.cpp:106] Creating Layer ip3
I0527 05:14:43.774276  1888 net.cpp:454] ip3 <- ip2
I0527 05:14:43.774288  1888 net.cpp:411] ip3 -> ip3
I0527 05:14:43.774503  1888 net.cpp:150] Setting up ip3
I0527 05:14:43.774516  1888 net.cpp:157] Top shape: 30 11 (330)
I0527 05:14:43.774526  1888 net.cpp:165] Memory required for data: 47362080
I0527 05:14:43.774541  1888 layer_factory.hpp:77] Creating layer drop3
I0527 05:14:43.774554  1888 net.cpp:106] Creating Layer drop3
I0527 05:14:43.774564  1888 net.cpp:454] drop3 <- ip3
I0527 05:14:43.774575  1888 net.cpp:397] drop3 -> ip3 (in-place)
I0527 05:14:43.774616  1888 net.cpp:150] Setting up drop3
I0527 05:14:43.774628  1888 net.cpp:157] Top shape: 30 11 (330)
I0527 05:14:43.774637  1888 net.cpp:165] Memory required for data: 47363400
I0527 05:14:43.774647  1888 layer_factory.hpp:77] Creating layer loss
I0527 05:14:43.774667  1888 net.cpp:106] Creating Layer loss
I0527 05:14:43.774677  1888 net.cpp:454] loss <- ip3
I0527 05:14:43.774688  1888 net.cpp:454] loss <- label
I0527 05:14:43.774700  1888 net.cpp:411] loss -> loss
I0527 05:14:43.774718  1888 layer_factory.hpp:77] Creating layer loss
…
I0527 05:14:43.777379  1888 solver.cpp:181] Creating test net (#0) specified by net file: /lustre/atlas/proj-shared/hep105/caffe_titan/caffe_workflow/logs_bslr/bs_30_lr_0.0045_2016-05-20T15.49.00.352182.prototxt
I0527 05:14:43.777451  1888 net.cpp:322] The NetState phase (1) differed from the phase (0) specified by a rule in layer data_hdf5
I0527 05:14:43.777808  1888 net.cpp:49] Initializing net from parameters: 
name: "caffe_test_127x50_x_unshifted"
state {
  phase: TEST
}
layer {
  name: "data_hdf5"
  type: "HDF5Data"
  top: "data"
  top: "label"
  include {
    phase: TEST
  }
  hdf5_data_param {
    source: "/lustre/atlas/proj-shared/hep105/caffe_titan/minosmatch_nukecczdefs_127x50_x_unshifted_me1Bmc.testlist"
    batch_size: 30
  }
}
layer {
  name: "conv1"
  type: "Convolution"
  bottom: "data"
  top: "conv1"
  convolution_param {
    num_output: 12
    pad: 0
    stride: 1
    weight_filler {
      type: "xavier"
    }
    bias_filler {
      type: "constant"
    }
    kernel_h: 8
    kernel_w: 3
  }
}
layer {
  name: "relu1"
  type: "ReLU"
  bottom: "conv1"
  top: "conv1"
}
layer {
  name: "pool1"
  type: "Pooling"
  bottom: "conv1"
  top: "pool1"
  pooling_param {
    pool: MAX
    kernel_h: 2
    kernel_w: 1
    stride_h: 2
    stride_w: 1
  }
}
layer {
  name: "conv2"
  type: "Convolution"
  bottom: "pool1"
  top: "conv2"
  convolution_param {
    num_output: 20
    pad: 0
    stride: 1
    weight_filler {
      type: "xavier"
    }
    bias_filler {
      type: "constant"
    }
    kernel_h: 7
    kernel_w: 3
  }
}
layer {
  name: "relu2"
  type: "ReLU"
  bottom: "conv2"
  top: "conv2"
}
layer {
  name: "pool2"
  type: "Pooling"
  bottom: "conv2"
  top: "pool2"
  pooling_param {
    pool: MAX
    kernel_h: 2
    kernel_w: 1
    stride_h: 2
    stride_w: 1
  }
}
layer {
  name: "conv3"
  type: "Convolution"
  bottom: "pool2"
  top: "conv3"
  convolution_param {
    num_output: 28
    pad: 0
    stride: 1
    weight_filler {
      type: "xavier"
    }
    bias_filler {
      type: "constant"
    }
    kernel_h: 6
    kernel_w: 3
  }
}
layer {
  name: "relu3"
  type: "ReLU"
  bottom: "conv3"
  top: "conv3"
}
layer {
  name: "pool3"
  type: "Pooling"
  bottom: "conv3"
  top: "pool3"
  pooling_param {
    pool: MAX
    kernel_h: 2
    kernel_w: 1
    stride_h: 2
    stride_w: 1
  }
}
layer {
  name: "conv4"
  type: "Convolution"
  bottom: "pool3"
  top: "conv4"
  convolution_param {
    num_output: 36
    pad: 0
    stride: 1
    weight_filler {
      type: "xavier"
    }
    bias_filler {
      type: "constant"
    }
    kernel_h: 6
    kernel_w: 3
  }
}
layer {
  name: "relu4"
  type: "ReLU"
  bottom: "conv4"
  top: "conv4"
}
layer {
  name: "pool4"
  type: "Pooling"
  bottom: "conv4"
  top: "pool4"
  pooling_param {
    pool: MAX
    kernel_h: 2
    kernel_w: 1
    stride_h: 2
    stride_w: 1
  }
}
layer {
  name: "ip1"
  type: "InnerProduct"
  bottom: "pool4"
  top: "ip1"
  inner_product_param {
    num_output: 196
    weight_filler {
      type: "xavier"
    }
    bias_filler {
      type: "constant"
    }
  }
}
layer {
  name: "relu5"
  type: "ReLU"
  bottom: "ip1"
  top: "ip1"
}
layer {
  name: "drop1"
  type: "Dropout"
  bottom: "ip1"
  top: "ip1"
  dropout_param {
    dropout_ratio: 0.5
  }
}
layer {
  name: "ip2"
  type: "InnerProduct"
  bottom: "ip1"
  top: "ip2"
  inner_product_param {
    num_output: 98
    weight_filler {
      type: "xavier"
    }
    bias_filler {
      type: "constant"
    }
  }
}
layer {
  name: "relu6"
  type: "ReLU"
  bottom: "ip2"
  top: "ip2"
}
layer {
  name: "drop2"
  type: "Dropout"
  bottom: "ip2"
  top: "ip2"
  dropout_param {
    dropout_ratio: 0.5
  }
}
layer {
  name: "ip3"
  type: "InnerProduct"
  bottom: "ip2"
  top: "ip3"
  inner_product_param {
    num_output: 11
    weight_filler {
      type: "xavier"
    }
    bias_filler {
      type: "constant"
    }
  }
}
layer {
  name: "drop3"
  type: "Dropout"
  bottom: "ip3"
  top: "ip3"
  dropout_param {
    dropout_ratio: 0.5
  }
}
layer {
  name: "accuracy"
  type: "Accuracy"
  bottom: "ip3"
  bottom: "label"
  top: "accuracy"
  include {
    phase: TEST
  }
}
layer {
  name: "loss"
  type: "SoftmaxWithLoss"
  bottom: "ip3"
  bottom: "label"
  top: "loss"
}
I0527 05:14:43.778000  1888 layer_factory.hpp:77] Creating layer data_hdf5
I0527 05:14:43.778015  1888 net.cpp:106] Creating Layer data_hdf5
I0527 05:14:43.778028  1888 net.cpp:411] data_hdf5 -> data
I0527 05:14:43.778045  1888 net.cpp:411] data_hdf5 -> label
I0527 05:14:43.778061  1888 hdf5_data_layer.cpp:79] Loading list of HDF5 filenames from: /lustre/atlas/proj-shared/hep105/caffe_titan/minosmatch_nukecczdefs_127x50_x_unshifted_me1Bmc.testlist
I0527 05:14:43.779429  1888 hdf5_data_layer.cpp:93] Number of HDF5 files: 3
I0527 05:15:05.095986  1888 net.cpp:150] Setting up data_hdf5
I0527 05:15:05.096153  1888 net.cpp:157] Top shape: 30 1 127 50 (190500)
I0527 05:15:05.096168  1888 net.cpp:157] Top shape: 30 (30)
I0527 05:15:05.096180  1888 net.cpp:165] Memory required for data: 762120
I0527 05:15:05.096194  1888 layer_factory.hpp:77] Creating layer label_data_hdf5_1_split
I0527 05:15:05.096221  1888 net.cpp:106] Creating Layer label_data_hdf5_1_split
I0527 05:15:05.096232  1888 net.cpp:454] label_data_hdf5_1_split <- label
I0527 05:15:05.096247  1888 net.cpp:411] label_data_hdf5_1_split -> label_data_hdf5_1_split_0
I0527 05:15:05.096269  1888 net.cpp:411] label_data_hdf5_1_split -> label_data_hdf5_1_split_1
I0527 05:15:05.096343  1888 net.cpp:150] Setting up label_data_hdf5_1_split
I0527 05:15:05.096355  1888 net.cpp:157] Top shape: 30 (30)
I0527 05:15:05.096367  1888 net.cpp:157] Top shape: 30 (30)
I0527 05:15:05.096377  1888 net.cpp:165] Memory required for data: 762360
I0527 05:15:05.096387  1888 layer_factory.hpp:77] Creating layer conv1
I0527 05:15:05.096407  1888 net.cpp:106] Creating Layer conv1
I0527 05:15:05.096417  1888 net.cpp:454] conv1 <- data
I0527 05:15:05.096431  1888 net.cpp:411] conv1 -> conv1
I0527 05:15:05.098389  1888 net.cpp:150] Setting up conv1
I0527 05:15:05.098414  1888 net.cpp:157] Top shape: 30 12 120 48 (2073600)
I0527 05:15:05.098425  1888 net.cpp:165] Memory required for data: 9056760
I0527 05:15:05.098446  1888 layer_factory.hpp:77] Creating layer relu1
I0527 05:15:05.098461  1888 net.cpp:106] Creating Layer relu1
I0527 05:15:05.098471  1888 net.cpp:454] relu1 <- conv1
I0527 05:15:05.098484  1888 net.cpp:397] relu1 -> conv1 (in-place)
I0527 05:15:05.098980  1888 net.cpp:150] Setting up relu1
I0527 05:15:05.098996  1888 net.cpp:157] Top shape: 30 12 120 48 (2073600)
I0527 05:15:05.099006  1888 net.cpp:165] Memory required for data: 17351160
I0527 05:15:05.099017  1888 layer_factory.hpp:77] Creating layer pool1
I0527 05:15:05.099033  1888 net.cpp:106] Creating Layer pool1
I0527 05:15:05.099042  1888 net.cpp:454] pool1 <- conv1
I0527 05:15:05.099057  1888 net.cpp:411] pool1 -> pool1
I0527 05:15:05.099131  1888 net.cpp:150] Setting up pool1
I0527 05:15:05.099145  1888 net.cpp:157] Top shape: 30 12 60 48 (1036800)
I0527 05:15:05.099155  1888 net.cpp:165] Memory required for data: 21498360
I0527 05:15:05.099165  1888 layer_factory.hpp:77] Creating layer conv2
I0527 05:15:05.099182  1888 net.cpp:106] Creating Layer conv2
I0527 05:15:05.099194  1888 net.cpp:454] conv2 <- pool1
I0527 05:15:05.099207  1888 net.cpp:411] conv2 -> conv2
I0527 05:15:05.101111  1888 net.cpp:150] Setting up conv2
I0527 05:15:05.101133  1888 net.cpp:157] Top shape: 30 20 54 46 (1490400)
I0527 05:15:05.101145  1888 net.cpp:165] Memory required for data: 27459960
I0527 05:15:05.101163  1888 layer_factory.hpp:77] Creating layer relu2
I0527 05:15:05.101177  1888 net.cpp:106] Creating Layer relu2
I0527 05:15:05.101187  1888 net.cpp:454] relu2 <- conv2
I0527 05:15:05.101200  1888 net.cpp:397] relu2 -> conv2 (in-place)
I0527 05:15:05.101541  1888 net.cpp:150] Setting up relu2
I0527 05:15:05.101555  1888 net.cpp:157] Top shape: 30 20 54 46 (1490400)
I0527 05:15:05.101565  1888 net.cpp:165] Memory required for data: 33421560
I0527 05:15:05.101577  1888 layer_factory.hpp:77] Creating layer pool2
I0527 05:15:05.101589  1888 net.cpp:106] Creating Layer pool2
I0527 05:15:05.101599  1888 net.cpp:454] pool2 <- conv2
I0527 05:15:05.101611  1888 net.cpp:411] pool2 -> pool2
I0527 05:15:05.101683  1888 net.cpp:150] Setting up pool2
I0527 05:15:05.101696  1888 net.cpp:157] Top shape: 30 20 27 46 (745200)
I0527 05:15:05.101706  1888 net.cpp:165] Memory required for data: 36402360
I0527 05:15:05.101716  1888 layer_factory.hpp:77] Creating layer conv3
I0527 05:15:05.101737  1888 net.cpp:106] Creating Layer conv3
I0527 05:15:05.101747  1888 net.cpp:454] conv3 <- pool2
I0527 05:15:05.101761  1888 net.cpp:411] conv3 -> conv3
I0527 05:15:05.103729  1888 net.cpp:150] Setting up conv3
I0527 05:15:05.103751  1888 net.cpp:157] Top shape: 30 28 22 44 (813120)
I0527 05:15:05.103762  1888 net.cpp:165] Memory required for data: 39654840
I0527 05:15:05.103796  1888 layer_factory.hpp:77] Creating layer relu3
I0527 05:15:05.103808  1888 net.cpp:106] Creating Layer relu3
I0527 05:15:05.103819  1888 net.cpp:454] relu3 <- conv3
I0527 05:15:05.103832  1888 net.cpp:397] relu3 -> conv3 (in-place)
I0527 05:15:05.104307  1888 net.cpp:150] Setting up relu3
I0527 05:15:05.104323  1888 net.cpp:157] Top shape: 30 28 22 44 (813120)
I0527 05:15:05.104333  1888 net.cpp:165] Memory required for data: 42907320
I0527 05:15:05.104344  1888 layer_factory.hpp:77] Creating layer pool3
I0527 05:15:05.104357  1888 net.cpp:106] Creating Layer pool3
I0527 05:15:05.104367  1888 net.cpp:454] pool3 <- conv3
I0527 05:15:05.104380  1888 net.cpp:411] pool3 -> pool3
I0527 05:15:05.104452  1888 net.cpp:150] Setting up pool3
I0527 05:15:05.104465  1888 net.cpp:157] Top shape: 30 28 11 44 (406560)
I0527 05:15:05.104475  1888 net.cpp:165] Memory required for data: 44533560
I0527 05:15:05.104486  1888 layer_factory.hpp:77] Creating layer conv4
I0527 05:15:05.104503  1888 net.cpp:106] Creating Layer conv4
I0527 05:15:05.104513  1888 net.cpp:454] conv4 <- pool3
I0527 05:15:05.104527  1888 net.cpp:411] conv4 -> conv4
I0527 05:15:05.106595  1888 net.cpp:150] Setting up conv4
I0527 05:15:05.106617  1888 net.cpp:157] Top shape: 30 36 6 42 (272160)
I0527 05:15:05.106631  1888 net.cpp:165] Memory required for data: 45622200
I0527 05:15:05.106645  1888 layer_factory.hpp:77] Creating layer relu4
I0527 05:15:05.106658  1888 net.cpp:106] Creating Layer relu4
I0527 05:15:05.106668  1888 net.cpp:454] relu4 <- conv4
I0527 05:15:05.106681  1888 net.cpp:397] relu4 -> conv4 (in-place)
I0527 05:15:05.107152  1888 net.cpp:150] Setting up relu4
I0527 05:15:05.107168  1888 net.cpp:157] Top shape: 30 36 6 42 (272160)
I0527 05:15:05.107178  1888 net.cpp:165] Memory required for data: 46710840
I0527 05:15:05.107188  1888 layer_factory.hpp:77] Creating layer pool4
I0527 05:15:05.107203  1888 net.cpp:106] Creating Layer pool4
I0527 05:15:05.107213  1888 net.cpp:454] pool4 <- conv4
I0527 05:15:05.107225  1888 net.cpp:411] pool4 -> pool4
I0527 05:15:05.107297  1888 net.cpp:150] Setting up pool4
I0527 05:15:05.107311  1888 net.cpp:157] Top shape: 30 36 3 42 (136080)
I0527 05:15:05.107321  1888 net.cpp:165] Memory required for data: 47255160
I0527 05:15:05.107331  1888 layer_factory.hpp:77] Creating layer ip1
I0527 05:15:05.107343  1888 net.cpp:106] Creating Layer ip1
I0527 05:15:05.107354  1888 net.cpp:454] ip1 <- pool4
I0527 05:15:05.107368  1888 net.cpp:411] ip1 -> ip1
I0527 05:15:05.122774  1888 net.cpp:150] Setting up ip1
I0527 05:15:05.122802  1888 net.cpp:157] Top shape: 30 196 (5880)
I0527 05:15:05.122813  1888 net.cpp:165] Memory required for data: 47278680
I0527 05:15:05.122835  1888 layer_factory.hpp:77] Creating layer relu5
I0527 05:15:05.122850  1888 net.cpp:106] Creating Layer relu5
I0527 05:15:05.122861  1888 net.cpp:454] relu5 <- ip1
I0527 05:15:05.122874  1888 net.cpp:397] relu5 -> ip1 (in-place)
I0527 05:15:05.123220  1888 net.cpp:150] Setting up relu5
I0527 05:15:05.123234  1888 net.cpp:157] Top shape: 30 196 (5880)
I0527 05:15:05.123245  1888 net.cpp:165] Memory required for data: 47302200
I0527 05:15:05.123255  1888 layer_factory.hpp:77] Creating layer drop1
I0527 05:15:05.123275  1888 net.cpp:106] Creating Layer drop1
I0527 05:15:05.123284  1888 net.cpp:454] drop1 <- ip1
I0527 05:15:05.123297  1888 net.cpp:397] drop1 -> ip1 (in-place)
I0527 05:15:05.123342  1888 net.cpp:150] Setting up drop1
I0527 05:15:05.123355  1888 net.cpp:157] Top shape: 30 196 (5880)
I0527 05:15:05.123364  1888 net.cpp:165] Memory required for data: 47325720
I0527 05:15:05.123374  1888 layer_factory.hpp:77] Creating layer ip2
I0527 05:15:05.123389  1888 net.cpp:106] Creating Layer ip2
I0527 05:15:05.123399  1888 net.cpp:454] ip2 <- ip1
I0527 05:15:05.123414  1888 net.cpp:411] ip2 -> ip2
I0527 05:15:05.123896  1888 net.cpp:150] Setting up ip2
I0527 05:15:05.123909  1888 net.cpp:157] Top shape: 30 98 (2940)
I0527 05:15:05.123919  1888 net.cpp:165] Memory required for data: 47337480
I0527 05:15:05.123935  1888 layer_factory.hpp:77] Creating layer relu6
I0527 05:15:05.123960  1888 net.cpp:106] Creating Layer relu6
I0527 05:15:05.123970  1888 net.cpp:454] relu6 <- ip2
I0527 05:15:05.123983  1888 net.cpp:397] relu6 -> ip2 (in-place)
I0527 05:15:05.124521  1888 net.cpp:150] Setting up relu6
I0527 05:15:05.124544  1888 net.cpp:157] Top shape: 30 98 (2940)
I0527 05:15:05.124554  1888 net.cpp:165] Memory required for data: 47349240
I0527 05:15:05.124567  1888 layer_factory.hpp:77] Creating layer drop2
I0527 05:15:05.124580  1888 net.cpp:106] Creating Layer drop2
I0527 05:15:05.124590  1888 net.cpp:454] drop2 <- ip2
I0527 05:15:05.124603  1888 net.cpp:397] drop2 -> ip2 (in-place)
I0527 05:15:05.124647  1888 net.cpp:150] Setting up drop2
I0527 05:15:05.124660  1888 net.cpp:157] Top shape: 30 98 (2940)
I0527 05:15:05.124670  1888 net.cpp:165] Memory required for data: 47361000
I0527 05:15:05.124680  1888 layer_factory.hpp:77] Creating layer ip3
I0527 05:15:05.124694  1888 net.cpp:106] Creating Layer ip3
I0527 05:15:05.124704  1888 net.cpp:454] ip3 <- ip2
I0527 05:15:05.124718  1888 net.cpp:411] ip3 -> ip3
I0527 05:15:05.124944  1888 net.cpp:150] Setting up ip3
I0527 05:15:05.124958  1888 net.cpp:157] Top shape: 30 11 (330)
I0527 05:15:05.124968  1888 net.cpp:165] Memory required for data: 47362320
I0527 05:15:05.124984  1888 layer_factory.hpp:77] Creating layer drop3
I0527 05:15:05.124996  1888 net.cpp:106] Creating Layer drop3
I0527 05:15:05.125006  1888 net.cpp:454] drop3 <- ip3
I0527 05:15:05.125018  1888 net.cpp:397] drop3 -> ip3 (in-place)
I0527 05:15:05.125061  1888 net.cpp:150] Setting up drop3
I0527 05:15:05.125073  1888 net.cpp:157] Top shape: 30 11 (330)
I0527 05:15:05.125083  1888 net.cpp:165] Memory required for data: 47363640
I0527 05:15:05.125093  1888 layer_factory.hpp:77] Creating layer ip3_drop3_0_split
I0527 05:15:05.125107  1888 net.cpp:106] Creating Layer ip3_drop3_0_split
I0527 05:15:05.125116  1888 net.cpp:454] ip3_drop3_0_split <- ip3
I0527 05:15:05.125129  1888 net.cpp:411] ip3_drop3_0_split -> ip3_drop3_0_split_0
I0527 05:15:05.125144  1888 net.cpp:411] ip3_drop3_0_split -> ip3_drop3_0_split_1
I0527 05:15:05.125218  1888 net.cpp:150] Setting up ip3_drop3_0_split
I0527 05:15:05.125231  1888 net.cpp:157] Top shape: 30 11 (330)
I0527 05:15:05.125243  1888 net.cpp:157] Top shape: 30 11 (330)
I0527 05:15:05.125262  1888 net.cpp:165] Memory required for data: 47366280
I0527 05:15:05.125272  1888 layer_factory.hpp:77] Creating layer accuracy
I0527 05:15:05.125293  1888 net.cpp:106] Creating Layer accuracy
I0527 05:15:05.125303  1888 net.cpp:454] accuracy <- ip3_drop3_0_split_0
I0527 05:15:05.125313  1888 net.cpp:454] accuracy <- label_data_hdf5_1_split_0
I0527 05:15:05.125327  1888 net.cpp:411] accuracy -> accuracy
…
