…
I0526 23:11:45.844290  4662 net.cpp:322] The NetState phase (0) differed from the phase (1) specified by a rule in layer data_hdf5
I0526 23:11:45.844348  4662 net.cpp:322] The NetState phase (0) differed from the phase (1) specified by a rule in layer accuracy
I0526 23:11:45.844694  4662 net.cpp:49] Initializing net from parameters: 
name: "caffe_test_127x50_x_unshifted"
state {
  phase: TRAIN
}
layer {
  name: "data_hdf5"
  type: "HDF5Data"
  top: "data"
  top: "label"
  include {
    phase: TRAIN
  }
  hdf5_data_param {
    source: "/lustre/atlas/proj-shared/hep105/caffe_titan/minosmatch_nukecczdefs_127x50_x_unshifted_me1Bmc.trainlist"
    batch_size: 30
  }
}
layer {
  name: "conv1"
  type: "Convolution"
  bottom: "data"
  top: "conv1"
  convolution_param {
    num_output: 12
    pad: 0
    stride: 1
    weight_filler {
      type: "xavier"
    }
    bias_filler {
      type: "constant"
    }
    kernel_h: 8
    kernel_w: 3
  }
}
layer {
  name: "relu1"
  type: "ReLU"
  bottom: "conv1"
  top: "conv1"
}
layer {
  name: "pool1"
  type: "Pooling"
  bottom: "conv1"
  top: "pool1"
  pooling_param {
    pool: MAX
    kernel_h: 2
    kernel_w: 1
    stride_h: 2
    stride_w: 1
  }
}
layer {
  name: "conv2"
  type: "Convolution"
  bottom: "pool1"
  top: "conv2"
  convolution_param {
    num_output: 20
    pad: 0
    stride: 1
    weight_filler {
      type: "xavier"
    }
    bias_filler {
      type: "constant"
    }
    kernel_h: 7
    kernel_w: 3
  }
}
layer {
  name: "relu2"
  type: "ReLU"
  bottom: "conv2"
  top: "conv2"
}
layer {
  name: "pool2"
  type: "Pooling"
  bottom: "conv2"
  top: "pool2"
  pooling_param {
    pool: MAX
    kernel_h: 2
    kernel_w: 1
    stride_h: 2
    stride_w: 1
  }
}
layer {
  name: "conv3"
  type: "Convolution"
  bottom: "pool2"
  top: "conv3"
  convolution_param {
    num_output: 28
    pad: 0
    stride: 1
    weight_filler {
      type: "xavier"
    }
    bias_filler {
      type: "constant"
    }
    kernel_h: 6
    kernel_w: 3
  }
}
layer {
  name: "relu3"
  type: "ReLU"
  bottom: "conv3"
  top: "conv3"
}
layer {
  name: "pool3"
  type: "Pooling"
  bottom: "conv3"
  top: "pool3"
  pooling_param {
    pool: MAX
    kernel_h: 2
    kernel_w: 1
    stride_h: 2
    stride_w: 1
  }
}
layer {
  name: "conv4"
  type: "Convolution"
  bottom: "pool3"
  top: "conv4"
  convolution_param {
    num_output: 36
    pad: 0
    stride: 1
    weight_filler {
      type: "xavier"
    }
    bias_filler {
      type: "constant"
    }
    kernel_h: 6
    kernel_w: 3
  }
}
layer {
  name: "relu4"
  type: "ReLU"
  bottom: "conv4"
  top: "conv4"
}
layer {
  name: "pool4"
  type: "Pooling"
  bottom: "conv4"
  top: "pool4"
  pooling_param {
    pool: MAX
    kernel_h: 2
    kernel_w: 1
    stride_h: 2
    stride_w: 1
  }
}
layer {
  name: "ip1"
  type: "InnerProduct"
  bottom: "pool4"
  top: "ip1"
  inner_product_param {
    num_output: 196
    weight_filler {
      type: "xavier"
    }
    bias_filler {
      type: "constant"
    }
  }
}
layer {
  name: "relu5"
  type: "ReLU"
  bottom: "ip1"
  top: "ip1"
}
layer {
  name: "drop1"
  type: "Dropout"
  bottom: "ip1"
  top: "ip1"
  dropout_param {
    dropout_ratio: 0.5
  }
}
layer {
  name: "ip2"
  type: "InnerProduct"
  bottom: "ip1"
  top: "ip2"
  inner_product_param {
    num_output: 98
    weight_filler {
      type: "xavier"
    }
    bias_filler {
      type: "constant"
    }
  }
}
layer {
  name: "relu6"
  type: "ReLU"
  bottom: "ip2"
  top: "ip2"
}
layer {
  name: "drop2"
  type: "Dropout"
  bottom: "ip2"
  top: "ip2"
  dropout_param {
    dropout_ratio: 0.5
  }
}
layer {
  name: "ip3"
  type: "InnerProduct"
  bottom: "ip2"
  top: "ip3"
  inner_product_param {
    num_output: 11
    weight_filler {
      type: "xavier"
    }
    bias_filler {
      type: "constant"
    }
  }
}
layer {
  name: "drop3"
  type: "Dropout"
  bottom: "ip3"
  top: "ip3"
  dropout_param {
    dropout_ratio: 0.5
  }
}
layer {
  name: "loss"
  type: "SoftmaxWithLoss"
  bottom: "ip3"
  bottom: "label"
  top: "loss"
}
I0526 23:11:45.844874  4662 layer_factory.hpp:77] Creating layer data_hdf5
I0526 23:11:45.844898  4662 net.cpp:106] Creating Layer data_hdf5
I0526 23:11:45.844913  4662 net.cpp:411] data_hdf5 -> data
I0526 23:11:45.844946  4662 net.cpp:411] data_hdf5 -> label
I0526 23:11:45.844979  4662 hdf5_data_layer.cpp:79] Loading list of HDF5 filenames from: /lustre/atlas/proj-shared/hep105/caffe_titan/minosmatch_nukecczdefs_127x50_x_unshifted_me1Bmc.trainlist
I0526 23:11:45.846289  4662 hdf5_data_layer.cpp:93] Number of HDF5 files: 15
I0526 23:11:45.848593  4662 hdf5.cpp:32] Datatype class: H5T_FLOAT
I0526 23:12:07.378196  4662 hdf5.cpp:35] Datatype class: H5T_INTEGER
I0526 23:12:07.383491  4662 net.cpp:150] Setting up data_hdf5
I0526 23:12:07.383532  4662 net.cpp:157] Top shape: 30 1 127 50 (190500)
I0526 23:12:07.383546  4662 net.cpp:157] Top shape: 30 (30)
I0526 23:12:07.383558  4662 net.cpp:165] Memory required for data: 762120
I0526 23:12:07.383572  4662 layer_factory.hpp:77] Creating layer conv1
I0526 23:12:07.383605  4662 net.cpp:106] Creating Layer conv1
I0526 23:12:07.383616  4662 net.cpp:454] conv1 <- data
I0526 23:12:07.383640  4662 net.cpp:411] conv1 -> conv1
I0526 23:12:08.334261  4662 net.cpp:150] Setting up conv1
I0526 23:12:08.334309  4662 net.cpp:157] Top shape: 30 12 120 48 (2073600)
I0526 23:12:08.334321  4662 net.cpp:165] Memory required for data: 9056520
I0526 23:12:08.334349  4662 layer_factory.hpp:77] Creating layer relu1
I0526 23:12:08.334372  4662 net.cpp:106] Creating Layer relu1
I0526 23:12:08.334383  4662 net.cpp:454] relu1 <- conv1
I0526 23:12:08.334396  4662 net.cpp:397] relu1 -> conv1 (in-place)
I0526 23:12:08.334928  4662 net.cpp:150] Setting up relu1
I0526 23:12:08.334945  4662 net.cpp:157] Top shape: 30 12 120 48 (2073600)
I0526 23:12:08.334955  4662 net.cpp:165] Memory required for data: 17350920
I0526 23:12:08.334966  4662 layer_factory.hpp:77] Creating layer pool1
I0526 23:12:08.334982  4662 net.cpp:106] Creating Layer pool1
I0526 23:12:08.334993  4662 net.cpp:454] pool1 <- conv1
I0526 23:12:08.335006  4662 net.cpp:411] pool1 -> pool1
I0526 23:12:08.335088  4662 net.cpp:150] Setting up pool1
I0526 23:12:08.335101  4662 net.cpp:157] Top shape: 30 12 60 48 (1036800)
I0526 23:12:08.335111  4662 net.cpp:165] Memory required for data: 21498120
I0526 23:12:08.335120  4662 layer_factory.hpp:77] Creating layer conv2
I0526 23:12:08.335142  4662 net.cpp:106] Creating Layer conv2
I0526 23:12:08.335152  4662 net.cpp:454] conv2 <- pool1
I0526 23:12:08.335167  4662 net.cpp:411] conv2 -> conv2
I0526 23:12:08.337859  4662 net.cpp:150] Setting up conv2
I0526 23:12:08.337888  4662 net.cpp:157] Top shape: 30 20 54 46 (1490400)
I0526 23:12:08.337898  4662 net.cpp:165] Memory required for data: 27459720
I0526 23:12:08.337918  4662 layer_factory.hpp:77] Creating layer relu2
I0526 23:12:08.337931  4662 net.cpp:106] Creating Layer relu2
I0526 23:12:08.337941  4662 net.cpp:454] relu2 <- conv2
I0526 23:12:08.337954  4662 net.cpp:397] relu2 -> conv2 (in-place)
I0526 23:12:08.338285  4662 net.cpp:150] Setting up relu2
I0526 23:12:08.338299  4662 net.cpp:157] Top shape: 30 20 54 46 (1490400)
I0526 23:12:08.338310  4662 net.cpp:165] Memory required for data: 33421320
I0526 23:12:08.338320  4662 layer_factory.hpp:77] Creating layer pool2
I0526 23:12:08.338332  4662 net.cpp:106] Creating Layer pool2
I0526 23:12:08.338342  4662 net.cpp:454] pool2 <- conv2
I0526 23:12:08.338354  4662 net.cpp:411] pool2 -> pool2
I0526 23:12:08.338438  4662 net.cpp:150] Setting up pool2
I0526 23:12:08.338452  4662 net.cpp:157] Top shape: 30 20 27 46 (745200)
I0526 23:12:08.338462  4662 net.cpp:165] Memory required for data: 36402120
I0526 23:12:08.338469  4662 layer_factory.hpp:77] Creating layer conv3
I0526 23:12:08.338488  4662 net.cpp:106] Creating Layer conv3
I0526 23:12:08.338498  4662 net.cpp:454] conv3 <- pool2
I0526 23:12:08.338512  4662 net.cpp:411] conv3 -> conv3
I0526 23:12:08.340487  4662 net.cpp:150] Setting up conv3
I0526 23:12:08.340505  4662 net.cpp:157] Top shape: 30 28 22 44 (813120)
I0526 23:12:08.340517  4662 net.cpp:165] Memory required for data: 39654600
I0526 23:12:08.340536  4662 layer_factory.hpp:77] Creating layer relu3
I0526 23:12:08.340553  4662 net.cpp:106] Creating Layer relu3
I0526 23:12:08.340562  4662 net.cpp:454] relu3 <- conv3
I0526 23:12:08.340575  4662 net.cpp:397] relu3 -> conv3 (in-place)
I0526 23:12:08.341048  4662 net.cpp:150] Setting up relu3
I0526 23:12:08.341064  4662 net.cpp:157] Top shape: 30 28 22 44 (813120)
I0526 23:12:08.341074  4662 net.cpp:165] Memory required for data: 42907080
I0526 23:12:08.341084  4662 layer_factory.hpp:77] Creating layer pool3
I0526 23:12:08.341097  4662 net.cpp:106] Creating Layer pool3
I0526 23:12:08.341107  4662 net.cpp:454] pool3 <- conv3
I0526 23:12:08.341120  4662 net.cpp:411] pool3 -> pool3
I0526 23:12:08.341188  4662 net.cpp:150] Setting up pool3
I0526 23:12:08.341202  4662 net.cpp:157] Top shape: 30 28 11 44 (406560)
I0526 23:12:08.341212  4662 net.cpp:165] Memory required for data: 44533320
I0526 23:12:08.341219  4662 layer_factory.hpp:77] Creating layer conv4
I0526 23:12:08.341238  4662 net.cpp:106] Creating Layer conv4
I0526 23:12:08.341248  4662 net.cpp:454] conv4 <- pool3
I0526 23:12:08.341264  4662 net.cpp:411] conv4 -> conv4
I0526 23:12:08.343997  4662 net.cpp:150] Setting up conv4
I0526 23:12:08.344025  4662 net.cpp:157] Top shape: 30 36 6 42 (272160)
I0526 23:12:08.344036  4662 net.cpp:165] Memory required for data: 45621960
I0526 23:12:08.344053  4662 layer_factory.hpp:77] Creating layer relu4
I0526 23:12:08.344066  4662 net.cpp:106] Creating Layer relu4
I0526 23:12:08.344076  4662 net.cpp:454] relu4 <- conv4
I0526 23:12:08.344089  4662 net.cpp:397] relu4 -> conv4 (in-place)
I0526 23:12:08.344552  4662 net.cpp:150] Setting up relu4
I0526 23:12:08.344568  4662 net.cpp:157] Top shape: 30 36 6 42 (272160)
I0526 23:12:08.344578  4662 net.cpp:165] Memory required for data: 46710600
I0526 23:12:08.344589  4662 layer_factory.hpp:77] Creating layer pool4
I0526 23:12:08.344602  4662 net.cpp:106] Creating Layer pool4
I0526 23:12:08.344612  4662 net.cpp:454] pool4 <- conv4
I0526 23:12:08.344625  4662 net.cpp:411] pool4 -> pool4
I0526 23:12:08.344693  4662 net.cpp:150] Setting up pool4
I0526 23:12:08.344707  4662 net.cpp:157] Top shape: 30 36 3 42 (136080)
I0526 23:12:08.344717  4662 net.cpp:165] Memory required for data: 47254920
I0526 23:12:08.344727  4662 layer_factory.hpp:77] Creating layer ip1
I0526 23:12:08.344748  4662 net.cpp:106] Creating Layer ip1
I0526 23:12:08.344758  4662 net.cpp:454] ip1 <- pool4
I0526 23:12:08.344772  4662 net.cpp:411] ip1 -> ip1
I0526 23:12:08.360219  4662 net.cpp:150] Setting up ip1
I0526 23:12:08.360247  4662 net.cpp:157] Top shape: 30 196 (5880)
I0526 23:12:08.360260  4662 net.cpp:165] Memory required for data: 47278440
I0526 23:12:08.360283  4662 layer_factory.hpp:77] Creating layer relu5
I0526 23:12:08.360297  4662 net.cpp:106] Creating Layer relu5
I0526 23:12:08.360308  4662 net.cpp:454] relu5 <- ip1
I0526 23:12:08.360324  4662 net.cpp:397] relu5 -> ip1 (in-place)
I0526 23:12:08.360666  4662 net.cpp:150] Setting up relu5
I0526 23:12:08.360680  4662 net.cpp:157] Top shape: 30 196 (5880)
I0526 23:12:08.360690  4662 net.cpp:165] Memory required for data: 47301960
I0526 23:12:08.360702  4662 layer_factory.hpp:77] Creating layer drop1
I0526 23:12:08.360724  4662 net.cpp:106] Creating Layer drop1
I0526 23:12:08.360734  4662 net.cpp:454] drop1 <- ip1
I0526 23:12:08.360748  4662 net.cpp:397] drop1 -> ip1 (in-place)
I0526 23:12:08.360807  4662 net.cpp:150] Setting up drop1
I0526 23:12:08.360821  4662 net.cpp:157] Top shape: 30 196 (5880)
I0526 23:12:08.360831  4662 net.cpp:165] Memory required for data: 47325480
I0526 23:12:08.360841  4662 layer_factory.hpp:77] Creating layer ip2
I0526 23:12:08.360860  4662 net.cpp:106] Creating Layer ip2
I0526 23:12:08.360870  4662 net.cpp:454] ip2 <- ip1
I0526 23:12:08.360883  4662 net.cpp:411] ip2 -> ip2
I0526 23:12:08.361343  4662 net.cpp:150] Setting up ip2
I0526 23:12:08.361356  4662 net.cpp:157] Top shape: 30 98 (2940)
I0526 23:12:08.361366  4662 net.cpp:165] Memory required for data: 47337240
I0526 23:12:08.361382  4662 layer_factory.hpp:77] Creating layer relu6
I0526 23:12:08.361394  4662 net.cpp:106] Creating Layer relu6
I0526 23:12:08.361403  4662 net.cpp:454] relu6 <- ip2
I0526 23:12:08.361415  4662 net.cpp:397] relu6 -> ip2 (in-place)
I0526 23:12:08.361937  4662 net.cpp:150] Setting up relu6
I0526 23:12:08.361953  4662 net.cpp:157] Top shape: 30 98 (2940)
I0526 23:12:08.361964  4662 net.cpp:165] Memory required for data: 47349000
I0526 23:12:08.361975  4662 layer_factory.hpp:77] Creating layer drop2
I0526 23:12:08.361989  4662 net.cpp:106] Creating Layer drop2
I0526 23:12:08.361997  4662 net.cpp:454] drop2 <- ip2
I0526 23:12:08.362010  4662 net.cpp:397] drop2 -> ip2 (in-place)
I0526 23:12:08.362053  4662 net.cpp:150] Setting up drop2
I0526 23:12:08.362066  4662 net.cpp:157] Top shape: 30 98 (2940)
I0526 23:12:08.362076  4662 net.cpp:165] Memory required for data: 47360760
I0526 23:12:08.362087  4662 layer_factory.hpp:77] Creating layer ip3
I0526 23:12:08.362099  4662 net.cpp:106] Creating Layer ip3
I0526 23:12:08.362109  4662 net.cpp:454] ip3 <- ip2
I0526 23:12:08.362123  4662 net.cpp:411] ip3 -> ip3
I0526 23:12:08.362337  4662 net.cpp:150] Setting up ip3
I0526 23:12:08.362350  4662 net.cpp:157] Top shape: 30 11 (330)
I0526 23:12:08.362360  4662 net.cpp:165] Memory required for data: 47362080
I0526 23:12:08.362375  4662 layer_factory.hpp:77] Creating layer drop3
I0526 23:12:08.362388  4662 net.cpp:106] Creating Layer drop3
I0526 23:12:08.362397  4662 net.cpp:454] drop3 <- ip3
I0526 23:12:08.362409  4662 net.cpp:397] drop3 -> ip3 (in-place)
I0526 23:12:08.362450  4662 net.cpp:150] Setting up drop3
I0526 23:12:08.362463  4662 net.cpp:157] Top shape: 30 11 (330)
I0526 23:12:08.362473  4662 net.cpp:165] Memory required for data: 47363400
I0526 23:12:08.362483  4662 layer_factory.hpp:77] Creating layer loss
I0526 23:12:08.362503  4662 net.cpp:106] Creating Layer loss
I0526 23:12:08.362511  4662 net.cpp:454] loss <- ip3
I0526 23:12:08.362524  4662 net.cpp:454] loss <- label
I0526 23:12:08.362535  4662 net.cpp:411] loss -> loss
I0526 23:12:08.362553  4662 layer_factory.hpp:77] Creating layer loss
…
I0526 23:12:08.365290  4662 solver.cpp:181] Creating test net (#0) specified by net file: /lustre/atlas/proj-shared/hep105/caffe_titan/caffe_workflow/logs_bslr/bs_30_lr_0.0010_2016-05-20T15.48.57.685382.prototxt
I0526 23:12:08.365362  4662 net.cpp:322] The NetState phase (1) differed from the phase (0) specified by a rule in layer data_hdf5
I0526 23:12:08.365717  4662 net.cpp:49] Initializing net from parameters: 
name: "caffe_test_127x50_x_unshifted"
state {
  phase: TEST
}
layer {
  name: "data_hdf5"
  type: "HDF5Data"
  top: "data"
  top: "label"
  include {
    phase: TEST
  }
  hdf5_data_param {
    source: "/lustre/atlas/proj-shared/hep105/caffe_titan/minosmatch_nukecczdefs_127x50_x_unshifted_me1Bmc.testlist"
    batch_size: 30
  }
}
layer {
  name: "conv1"
  type: "Convolution"
  bottom: "data"
  top: "conv1"
  convolution_param {
    num_output: 12
    pad: 0
    stride: 1
    weight_filler {
      type: "xavier"
    }
    bias_filler {
      type: "constant"
    }
    kernel_h: 8
    kernel_w: 3
  }
}
layer {
  name: "relu1"
  type: "ReLU"
  bottom: "conv1"
  top: "conv1"
}
layer {
  name: "pool1"
  type: "Pooling"
  bottom: "conv1"
  top: "pool1"
  pooling_param {
    pool: MAX
    kernel_h: 2
    kernel_w: 1
    stride_h: 2
    stride_w: 1
  }
}
layer {
  name: "conv2"
  type: "Convolution"
  bottom: "pool1"
  top: "conv2"
  convolution_param {
    num_output: 20
    pad: 0
    stride: 1
    weight_filler {
      type: "xavier"
    }
    bias_filler {
      type: "constant"
    }
    kernel_h: 7
    kernel_w: 3
  }
}
layer {
  name: "relu2"
  type: "ReLU"
  bottom: "conv2"
  top: "conv2"
}
layer {
  name: "pool2"
  type: "Pooling"
  bottom: "conv2"
  top: "pool2"
  pooling_param {
    pool: MAX
    kernel_h: 2
    kernel_w: 1
    stride_h: 2
    stride_w: 1
  }
}
layer {
  name: "conv3"
  type: "Convolution"
  bottom: "pool2"
  top: "conv3"
  convolution_param {
    num_output: 28
    pad: 0
    stride: 1
    weight_filler {
      type: "xavier"
    }
    bias_filler {
      type: "constant"
    }
    kernel_h: 6
    kernel_w: 3
  }
}
layer {
  name: "relu3"
  type: "ReLU"
  bottom: "conv3"
  top: "conv3"
}
layer {
  name: "pool3"
  type: "Pooling"
  bottom: "conv3"
  top: "pool3"
  pooling_param {
    pool: MAX
    kernel_h: 2
    kernel_w: 1
    stride_h: 2
    stride_w: 1
  }
}
layer {
  name: "conv4"
  type: "Convolution"
  bottom: "pool3"
  top: "conv4"
  convolution_param {
    num_output: 36
    pad: 0
    stride: 1
    weight_filler {
      type: "xavier"
    }
    bias_filler {
      type: "constant"
    }
    kernel_h: 6
    kernel_w: 3
  }
}
layer {
  name: "relu4"
  type: "ReLU"
  bottom: "conv4"
  top: "conv4"
}
layer {
  name: "pool4"
  type: "Pooling"
  bottom: "conv4"
  top: "pool4"
  pooling_param {
    pool: MAX
    kernel_h: 2
    kernel_w: 1
    stride_h: 2
    stride_w: 1
  }
}
layer {
  name: "ip1"
  type: "InnerProduct"
  bottom: "pool4"
  top: "ip1"
  inner_product_param {
    num_output: 196
    weight_filler {
      type: "xavier"
    }
    bias_filler {
      type: "constant"
    }
  }
}
layer {
  name: "relu5"
  type: "ReLU"
  bottom: "ip1"
  top: "ip1"
}
layer {
  name: "drop1"
  type: "Dropout"
  bottom: "ip1"
  top: "ip1"
  dropout_param {
    dropout_ratio: 0.5
  }
}
layer {
  name: "ip2"
  type: "InnerProduct"
  bottom: "ip1"
  top: "ip2"
  inner_product_param {
    num_output: 98
    weight_filler {
      type: "xavier"
    }
    bias_filler {
      type: "constant"
    }
  }
}
layer {
  name: "relu6"
  type: "ReLU"
  bottom: "ip2"
  top: "ip2"
}
layer {
  name: "drop2"
  type: "Dropout"
  bottom: "ip2"
  top: "ip2"
  dropout_param {
    dropout_ratio: 0.5
  }
}
layer {
  name: "ip3"
  type: "InnerProduct"
  bottom: "ip2"
  top: "ip3"
  inner_product_param {
    num_output: 11
    weight_filler {
      type: "xavier"
    }
    bias_filler {
      type: "constant"
    }
  }
}
layer {
  name: "drop3"
  type: "Dropout"
  bottom: "ip3"
  top: "ip3"
  dropout_param {
    dropout_ratio: 0.5
  }
}
layer {
  name: "accuracy"
  type: "Accuracy"
  bottom: "ip3"
  bottom: "label"
  top: "accuracy"
  include {
    phase: TEST
  }
}
layer {
  name: "loss"
  type: "SoftmaxWithLoss"
  bottom: "ip3"
  bottom: "label"
  top: "loss"
}
I0526 23:12:08.365906  4662 layer_factory.hpp:77] Creating layer data_hdf5
I0526 23:12:08.365921  4662 net.cpp:106] Creating Layer data_hdf5
I0526 23:12:08.365934  4662 net.cpp:411] data_hdf5 -> data
I0526 23:12:08.365952  4662 net.cpp:411] data_hdf5 -> label
I0526 23:12:08.365967  4662 hdf5_data_layer.cpp:79] Loading list of HDF5 filenames from: /lustre/atlas/proj-shared/hep105/caffe_titan/minosmatch_nukecczdefs_127x50_x_unshifted_me1Bmc.testlist
I0526 23:12:08.378806  4662 hdf5_data_layer.cpp:93] Number of HDF5 files: 3
I0526 23:12:29.724269  4662 net.cpp:150] Setting up data_hdf5
I0526 23:12:29.724434  4662 net.cpp:157] Top shape: 30 1 127 50 (190500)
I0526 23:12:29.724448  4662 net.cpp:157] Top shape: 30 (30)
I0526 23:12:29.724459  4662 net.cpp:165] Memory required for data: 762120
I0526 23:12:29.724472  4662 layer_factory.hpp:77] Creating layer label_data_hdf5_1_split
I0526 23:12:29.724501  4662 net.cpp:106] Creating Layer label_data_hdf5_1_split
I0526 23:12:29.724514  4662 net.cpp:454] label_data_hdf5_1_split <- label
I0526 23:12:29.724529  4662 net.cpp:411] label_data_hdf5_1_split -> label_data_hdf5_1_split_0
I0526 23:12:29.724550  4662 net.cpp:411] label_data_hdf5_1_split -> label_data_hdf5_1_split_1
I0526 23:12:29.724622  4662 net.cpp:150] Setting up label_data_hdf5_1_split
I0526 23:12:29.724635  4662 net.cpp:157] Top shape: 30 (30)
I0526 23:12:29.724647  4662 net.cpp:157] Top shape: 30 (30)
I0526 23:12:29.724658  4662 net.cpp:165] Memory required for data: 762360
I0526 23:12:29.724668  4662 layer_factory.hpp:77] Creating layer conv1
I0526 23:12:29.724687  4662 net.cpp:106] Creating Layer conv1
I0526 23:12:29.724699  4662 net.cpp:454] conv1 <- data
I0526 23:12:29.724712  4662 net.cpp:411] conv1 -> conv1
I0526 23:12:29.726672  4662 net.cpp:150] Setting up conv1
I0526 23:12:29.726696  4662 net.cpp:157] Top shape: 30 12 120 48 (2073600)
I0526 23:12:29.726708  4662 net.cpp:165] Memory required for data: 9056760
I0526 23:12:29.726729  4662 layer_factory.hpp:77] Creating layer relu1
I0526 23:12:29.726744  4662 net.cpp:106] Creating Layer relu1
I0526 23:12:29.726753  4662 net.cpp:454] relu1 <- conv1
I0526 23:12:29.726766  4662 net.cpp:397] relu1 -> conv1 (in-place)
I0526 23:12:29.727268  4662 net.cpp:150] Setting up relu1
I0526 23:12:29.727284  4662 net.cpp:157] Top shape: 30 12 120 48 (2073600)
I0526 23:12:29.727295  4662 net.cpp:165] Memory required for data: 17351160
I0526 23:12:29.727305  4662 layer_factory.hpp:77] Creating layer pool1
I0526 23:12:29.727321  4662 net.cpp:106] Creating Layer pool1
I0526 23:12:29.727331  4662 net.cpp:454] pool1 <- conv1
I0526 23:12:29.727344  4662 net.cpp:411] pool1 -> pool1
I0526 23:12:29.727418  4662 net.cpp:150] Setting up pool1
I0526 23:12:29.727432  4662 net.cpp:157] Top shape: 30 12 60 48 (1036800)
I0526 23:12:29.727442  4662 net.cpp:165] Memory required for data: 21498360
I0526 23:12:29.727452  4662 layer_factory.hpp:77] Creating layer conv2
I0526 23:12:29.727469  4662 net.cpp:106] Creating Layer conv2
I0526 23:12:29.727480  4662 net.cpp:454] conv2 <- pool1
I0526 23:12:29.727494  4662 net.cpp:411] conv2 -> conv2
I0526 23:12:29.729408  4662 net.cpp:150] Setting up conv2
I0526 23:12:29.729430  4662 net.cpp:157] Top shape: 30 20 54 46 (1490400)
I0526 23:12:29.729444  4662 net.cpp:165] Memory required for data: 27459960
I0526 23:12:29.729461  4662 layer_factory.hpp:77] Creating layer relu2
I0526 23:12:29.729475  4662 net.cpp:106] Creating Layer relu2
I0526 23:12:29.729485  4662 net.cpp:454] relu2 <- conv2
I0526 23:12:29.729497  4662 net.cpp:397] relu2 -> conv2 (in-place)
I0526 23:12:29.729830  4662 net.cpp:150] Setting up relu2
I0526 23:12:29.729843  4662 net.cpp:157] Top shape: 30 20 54 46 (1490400)
I0526 23:12:29.729853  4662 net.cpp:165] Memory required for data: 33421560
I0526 23:12:29.729863  4662 layer_factory.hpp:77] Creating layer pool2
I0526 23:12:29.729877  4662 net.cpp:106] Creating Layer pool2
I0526 23:12:29.729887  4662 net.cpp:454] pool2 <- conv2
I0526 23:12:29.729899  4662 net.cpp:411] pool2 -> pool2
I0526 23:12:29.729971  4662 net.cpp:150] Setting up pool2
I0526 23:12:29.729984  4662 net.cpp:157] Top shape: 30 20 27 46 (745200)
I0526 23:12:29.729995  4662 net.cpp:165] Memory required for data: 36402360
I0526 23:12:29.730005  4662 layer_factory.hpp:77] Creating layer conv3
I0526 23:12:29.730024  4662 net.cpp:106] Creating Layer conv3
I0526 23:12:29.730036  4662 net.cpp:454] conv3 <- pool2
I0526 23:12:29.730048  4662 net.cpp:411] conv3 -> conv3
I0526 23:12:29.732022  4662 net.cpp:150] Setting up conv3
I0526 23:12:29.732044  4662 net.cpp:157] Top shape: 30 28 22 44 (813120)
I0526 23:12:29.732056  4662 net.cpp:165] Memory required for data: 39654840
I0526 23:12:29.732089  4662 layer_factory.hpp:77] Creating layer relu3
I0526 23:12:29.732103  4662 net.cpp:106] Creating Layer relu3
I0526 23:12:29.732113  4662 net.cpp:454] relu3 <- conv3
I0526 23:12:29.732126  4662 net.cpp:397] relu3 -> conv3 (in-place)
I0526 23:12:29.732602  4662 net.cpp:150] Setting up relu3
I0526 23:12:29.732619  4662 net.cpp:157] Top shape: 30 28 22 44 (813120)
I0526 23:12:29.732630  4662 net.cpp:165] Memory required for data: 42907320
I0526 23:12:29.732640  4662 layer_factory.hpp:77] Creating layer pool3
I0526 23:12:29.732651  4662 net.cpp:106] Creating Layer pool3
I0526 23:12:29.732661  4662 net.cpp:454] pool3 <- conv3
I0526 23:12:29.732674  4662 net.cpp:411] pool3 -> pool3
I0526 23:12:29.732745  4662 net.cpp:150] Setting up pool3
I0526 23:12:29.732759  4662 net.cpp:157] Top shape: 30 28 11 44 (406560)
I0526 23:12:29.732769  4662 net.cpp:165] Memory required for data: 44533560
I0526 23:12:29.732776  4662 layer_factory.hpp:77] Creating layer conv4
I0526 23:12:29.732795  4662 net.cpp:106] Creating Layer conv4
I0526 23:12:29.732805  4662 net.cpp:454] conv4 <- pool3
I0526 23:12:29.732820  4662 net.cpp:411] conv4 -> conv4
I0526 23:12:29.734881  4662 net.cpp:150] Setting up conv4
I0526 23:12:29.734904  4662 net.cpp:157] Top shape: 30 36 6 42 (272160)
I0526 23:12:29.734915  4662 net.cpp:165] Memory required for data: 45622200
I0526 23:12:29.734931  4662 layer_factory.hpp:77] Creating layer relu4
I0526 23:12:29.734944  4662 net.cpp:106] Creating Layer relu4
I0526 23:12:29.734954  4662 net.cpp:454] relu4 <- conv4
I0526 23:12:29.734968  4662 net.cpp:397] relu4 -> conv4 (in-place)
I0526 23:12:29.735437  4662 net.cpp:150] Setting up relu4
I0526 23:12:29.735452  4662 net.cpp:157] Top shape: 30 36 6 42 (272160)
I0526 23:12:29.735463  4662 net.cpp:165] Memory required for data: 46710840
I0526 23:12:29.735473  4662 layer_factory.hpp:77] Creating layer pool4
I0526 23:12:29.735486  4662 net.cpp:106] Creating Layer pool4
I0526 23:12:29.735496  4662 net.cpp:454] pool4 <- conv4
I0526 23:12:29.735509  4662 net.cpp:411] pool4 -> pool4
I0526 23:12:29.735581  4662 net.cpp:150] Setting up pool4
I0526 23:12:29.735595  4662 net.cpp:157] Top shape: 30 36 3 42 (136080)
I0526 23:12:29.735605  4662 net.cpp:165] Memory required for data: 47255160
I0526 23:12:29.735613  4662 layer_factory.hpp:77] Creating layer ip1
I0526 23:12:29.735630  4662 net.cpp:106] Creating Layer ip1
I0526 23:12:29.735640  4662 net.cpp:454] ip1 <- pool4
I0526 23:12:29.735653  4662 net.cpp:411] ip1 -> ip1
I0526 23:12:29.750995  4662 net.cpp:150] Setting up ip1
I0526 23:12:29.751024  4662 net.cpp:157] Top shape: 30 196 (5880)
I0526 23:12:29.751034  4662 net.cpp:165] Memory required for data: 47278680
I0526 23:12:29.751056  4662 layer_factory.hpp:77] Creating layer relu5
I0526 23:12:29.751071  4662 net.cpp:106] Creating Layer relu5
I0526 23:12:29.751081  4662 net.cpp:454] relu5 <- ip1
I0526 23:12:29.751094  4662 net.cpp:397] relu5 -> ip1 (in-place)
I0526 23:12:29.751442  4662 net.cpp:150] Setting up relu5
I0526 23:12:29.751457  4662 net.cpp:157] Top shape: 30 196 (5880)
I0526 23:12:29.751466  4662 net.cpp:165] Memory required for data: 47302200
I0526 23:12:29.751477  4662 layer_factory.hpp:77] Creating layer drop1
I0526 23:12:29.751495  4662 net.cpp:106] Creating Layer drop1
I0526 23:12:29.751505  4662 net.cpp:454] drop1 <- ip1
I0526 23:12:29.751518  4662 net.cpp:397] drop1 -> ip1 (in-place)
I0526 23:12:29.751564  4662 net.cpp:150] Setting up drop1
I0526 23:12:29.751579  4662 net.cpp:157] Top shape: 30 196 (5880)
I0526 23:12:29.751588  4662 net.cpp:165] Memory required for data: 47325720
I0526 23:12:29.751597  4662 layer_factory.hpp:77] Creating layer ip2
I0526 23:12:29.751611  4662 net.cpp:106] Creating Layer ip2
I0526 23:12:29.751621  4662 net.cpp:454] ip2 <- ip1
I0526 23:12:29.751636  4662 net.cpp:411] ip2 -> ip2
I0526 23:12:29.752117  4662 net.cpp:150] Setting up ip2
I0526 23:12:29.752130  4662 net.cpp:157] Top shape: 30 98 (2940)
I0526 23:12:29.752140  4662 net.cpp:165] Memory required for data: 47337480
I0526 23:12:29.752156  4662 layer_factory.hpp:77] Creating layer relu6
I0526 23:12:29.752180  4662 net.cpp:106] Creating Layer relu6
I0526 23:12:29.752190  4662 net.cpp:454] relu6 <- ip2
I0526 23:12:29.752203  4662 net.cpp:397] relu6 -> ip2 (in-place)
I0526 23:12:29.752742  4662 net.cpp:150] Setting up relu6
I0526 23:12:29.752758  4662 net.cpp:157] Top shape: 30 98 (2940)
I0526 23:12:29.752768  4662 net.cpp:165] Memory required for data: 47349240
I0526 23:12:29.752779  4662 layer_factory.hpp:77] Creating layer drop2
I0526 23:12:29.752792  4662 net.cpp:106] Creating Layer drop2
I0526 23:12:29.752802  4662 net.cpp:454] drop2 <- ip2
I0526 23:12:29.752815  4662 net.cpp:397] drop2 -> ip2 (in-place)
I0526 23:12:29.752861  4662 net.cpp:150] Setting up drop2
I0526 23:12:29.752873  4662 net.cpp:157] Top shape: 30 98 (2940)
I0526 23:12:29.752883  4662 net.cpp:165] Memory required for data: 47361000
I0526 23:12:29.752892  4662 layer_factory.hpp:77] Creating layer ip3
I0526 23:12:29.752907  4662 net.cpp:106] Creating Layer ip3
I0526 23:12:29.752917  4662 net.cpp:454] ip3 <- ip2
I0526 23:12:29.752930  4662 net.cpp:411] ip3 -> ip3
I0526 23:12:29.753156  4662 net.cpp:150] Setting up ip3
I0526 23:12:29.753170  4662 net.cpp:157] Top shape: 30 11 (330)
I0526 23:12:29.753180  4662 net.cpp:165] Memory required for data: 47362320
I0526 23:12:29.753196  4662 layer_factory.hpp:77] Creating layer drop3
I0526 23:12:29.753207  4662 net.cpp:106] Creating Layer drop3
I0526 23:12:29.753217  4662 net.cpp:454] drop3 <- ip3
I0526 23:12:29.753229  4662 net.cpp:397] drop3 -> ip3 (in-place)
I0526 23:12:29.753271  4662 net.cpp:150] Setting up drop3
I0526 23:12:29.753284  4662 net.cpp:157] Top shape: 30 11 (330)
I0526 23:12:29.753294  4662 net.cpp:165] Memory required for data: 47363640
I0526 23:12:29.753304  4662 layer_factory.hpp:77] Creating layer ip3_drop3_0_split
I0526 23:12:29.753317  4662 net.cpp:106] Creating Layer ip3_drop3_0_split
I0526 23:12:29.753327  4662 net.cpp:454] ip3_drop3_0_split <- ip3
I0526 23:12:29.753340  4662 net.cpp:411] ip3_drop3_0_split -> ip3_drop3_0_split_0
I0526 23:12:29.753355  4662 net.cpp:411] ip3_drop3_0_split -> ip3_drop3_0_split_1
I0526 23:12:29.753429  4662 net.cpp:150] Setting up ip3_drop3_0_split
I0526 23:12:29.753443  4662 net.cpp:157] Top shape: 30 11 (330)
I0526 23:12:29.753455  4662 net.cpp:157] Top shape: 30 11 (330)
I0526 23:12:29.753465  4662 net.cpp:165] Memory required for data: 47366280
I0526 23:12:29.753475  4662 layer_factory.hpp:77] Creating layer accuracy
I0526 23:12:29.753496  4662 net.cpp:106] Creating Layer accuracy
I0526 23:12:29.753506  4662 net.cpp:454] accuracy <- ip3_drop3_0_split_0
I0526 23:12:29.753518  4662 net.cpp:454] accuracy <- label_data_hdf5_1_split_0
I0526 23:12:29.753531  4662 net.cpp:411] accuracy -> accuracy
…
