…
I0527 01:12:46.256142 17798 net.cpp:322] The NetState phase (0) differed from the phase (1) specified by a rule in layer data_hdf5
I0527 01:12:46.256199 17798 net.cpp:322] The NetState phase (0) differed from the phase (1) specified by a rule in layer accuracy
I0527 01:12:46.256547 17798 net.cpp:49] Initializing net from parameters: 
name: "caffe_test_127x50_x_unshifted"
state {
  phase: TRAIN
}
layer {
  name: "data_hdf5"
  type: "HDF5Data"
  top: "data"
  top: "label"
  include {
    phase: TRAIN
  }
  hdf5_data_param {
    source: "/lustre/atlas/proj-shared/hep105/caffe_titan/minosmatch_nukecczdefs_127x50_x_unshifted_me1Bmc.trainlist"
    batch_size: 30
  }
}
layer {
  name: "conv1"
  type: "Convolution"
  bottom: "data"
  top: "conv1"
  convolution_param {
    num_output: 12
    pad: 0
    stride: 1
    weight_filler {
      type: "xavier"
    }
    bias_filler {
      type: "constant"
    }
    kernel_h: 8
    kernel_w: 3
  }
}
layer {
  name: "relu1"
  type: "ReLU"
  bottom: "conv1"
  top: "conv1"
}
layer {
  name: "pool1"
  type: "Pooling"
  bottom: "conv1"
  top: "pool1"
  pooling_param {
    pool: MAX
    kernel_h: 2
    kernel_w: 1
    stride_h: 2
    stride_w: 1
  }
}
layer {
  name: "conv2"
  type: "Convolution"
  bottom: "pool1"
  top: "conv2"
  convolution_param {
    num_output: 20
    pad: 0
    stride: 1
    weight_filler {
      type: "xavier"
    }
    bias_filler {
      type: "constant"
    }
    kernel_h: 7
    kernel_w: 3
  }
}
layer {
  name: "relu2"
  type: "ReLU"
  bottom: "conv2"
  top: "conv2"
}
layer {
  name: "pool2"
  type: "Pooling"
  bottom: "conv2"
  top: "pool2"
  pooling_param {
    pool: MAX
    kernel_h: 2
    kernel_w: 1
    stride_h: 2
    stride_w: 1
  }
}
layer {
  name: "conv3"
  type: "Convolution"
  bottom: "pool2"
  top: "conv3"
  convolution_param {
    num_output: 28
    pad: 0
    stride: 1
    weight_filler {
      type: "xavier"
    }
    bias_filler {
      type: "constant"
    }
    kernel_h: 6
    kernel_w: 3
  }
}
layer {
  name: "relu3"
  type: "ReLU"
  bottom: "conv3"
  top: "conv3"
}
layer {
  name: "pool3"
  type: "Pooling"
  bottom: "conv3"
  top: "pool3"
  pooling_param {
    pool: MAX
    kernel_h: 2
    kernel_w: 1
    stride_h: 2
    stride_w: 1
  }
}
layer {
  name: "conv4"
  type: "Convolution"
  bottom: "pool3"
  top: "conv4"
  convolution_param {
    num_output: 36
    pad: 0
    stride: 1
    weight_filler {
      type: "xavier"
    }
    bias_filler {
      type: "constant"
    }
    kernel_h: 6
    kernel_w: 3
  }
}
layer {
  name: "relu4"
  type: "ReLU"
  bottom: "conv4"
  top: "conv4"
}
layer {
  name: "pool4"
  type: "Pooling"
  bottom: "conv4"
  top: "pool4"
  pooling_param {
    pool: MAX
    kernel_h: 2
    kernel_w: 1
    stride_h: 2
    stride_w: 1
  }
}
layer {
  name: "ip1"
  type: "InnerProduct"
  bottom: "pool4"
  top: "ip1"
  inner_product_param {
    num_output: 196
    weight_filler {
      type: "xavier"
    }
    bias_filler {
      type: "constant"
    }
  }
}
layer {
  name: "relu5"
  type: "ReLU"
  bottom: "ip1"
  top: "ip1"
}
layer {
  name: "drop1"
  type: "Dropout"
  bottom: "ip1"
  top: "ip1"
  dropout_param {
    dropout_ratio: 0.5
  }
}
layer {
  name: "ip2"
  type: "InnerProduct"
  bottom: "ip1"
  top: "ip2"
  inner_product_param {
    num_output: 98
    weight_filler {
      type: "xavier"
    }
    bias_filler {
      type: "constant"
    }
  }
}
layer {
  name: "relu6"
  type: "ReLU"
  bottom: "ip2"
  top: "ip2"
}
layer {
  name: "drop2"
  type: "Dropout"
  bottom: "ip2"
  top: "ip2"
  dropout_param {
    dropout_ratio: 0.5
  }
}
layer {
  name: "ip3"
  type: "InnerProduct"
  bottom: "ip2"
  top: "ip3"
  inner_product_param {
    num_output: 11
    weight_filler {
      type: "xavier"
    }
    bias_filler {
      type: "constant"
    }
  }
}
layer {
  name: "drop3"
  type: "Dropout"
  bottom: "ip3"
  top: "ip3"
  dropout_param {
    dropout_ratio: 0.5
  }
}
layer {
  name: "loss"
  type: "SoftmaxWithLoss"
  bottom: "ip3"
  bottom: "label"
  top: "loss"
}
I0527 01:12:46.256728 17798 layer_factory.hpp:77] Creating layer data_hdf5
I0527 01:12:46.256753 17798 net.cpp:106] Creating Layer data_hdf5
I0527 01:12:46.256767 17798 net.cpp:411] data_hdf5 -> data
I0527 01:12:46.256800 17798 net.cpp:411] data_hdf5 -> label
I0527 01:12:46.256832 17798 hdf5_data_layer.cpp:79] Loading list of HDF5 filenames from: /lustre/atlas/proj-shared/hep105/caffe_titan/minosmatch_nukecczdefs_127x50_x_unshifted_me1Bmc.trainlist
I0527 01:12:46.270030 17798 hdf5_data_layer.cpp:93] Number of HDF5 files: 15
I0527 01:12:46.272382 17798 hdf5.cpp:32] Datatype class: H5T_FLOAT
I0527 01:13:07.795994 17798 hdf5.cpp:35] Datatype class: H5T_INTEGER
I0527 01:13:07.801240 17798 net.cpp:150] Setting up data_hdf5
I0527 01:13:07.801280 17798 net.cpp:157] Top shape: 30 1 127 50 (190500)
I0527 01:13:07.801295 17798 net.cpp:157] Top shape: 30 (30)
I0527 01:13:07.801307 17798 net.cpp:165] Memory required for data: 762120
I0527 01:13:07.801321 17798 layer_factory.hpp:77] Creating layer conv1
I0527 01:13:07.801354 17798 net.cpp:106] Creating Layer conv1
I0527 01:13:07.801364 17798 net.cpp:454] conv1 <- data
I0527 01:13:07.801385 17798 net.cpp:411] conv1 -> conv1
I0527 01:13:09.825708 17798 net.cpp:150] Setting up conv1
I0527 01:13:09.825757 17798 net.cpp:157] Top shape: 30 12 120 48 (2073600)
I0527 01:13:09.825767 17798 net.cpp:165] Memory required for data: 9056520
I0527 01:13:09.825796 17798 layer_factory.hpp:77] Creating layer relu1
I0527 01:13:09.825819 17798 net.cpp:106] Creating Layer relu1
I0527 01:13:09.825829 17798 net.cpp:454] relu1 <- conv1
I0527 01:13:09.825844 17798 net.cpp:397] relu1 -> conv1 (in-place)
I0527 01:13:09.826365 17798 net.cpp:150] Setting up relu1
I0527 01:13:09.826382 17798 net.cpp:157] Top shape: 30 12 120 48 (2073600)
I0527 01:13:09.826392 17798 net.cpp:165] Memory required for data: 17350920
I0527 01:13:09.826403 17798 layer_factory.hpp:77] Creating layer pool1
I0527 01:13:09.826419 17798 net.cpp:106] Creating Layer pool1
I0527 01:13:09.826429 17798 net.cpp:454] pool1 <- conv1
I0527 01:13:09.826442 17798 net.cpp:411] pool1 -> pool1
I0527 01:13:09.826522 17798 net.cpp:150] Setting up pool1
I0527 01:13:09.826536 17798 net.cpp:157] Top shape: 30 12 60 48 (1036800)
I0527 01:13:09.826546 17798 net.cpp:165] Memory required for data: 21498120
I0527 01:13:09.826556 17798 layer_factory.hpp:77] Creating layer conv2
I0527 01:13:09.826580 17798 net.cpp:106] Creating Layer conv2
I0527 01:13:09.826589 17798 net.cpp:454] conv2 <- pool1
I0527 01:13:09.826603 17798 net.cpp:411] conv2 -> conv2
I0527 01:13:09.829293 17798 net.cpp:150] Setting up conv2
I0527 01:13:09.829320 17798 net.cpp:157] Top shape: 30 20 54 46 (1490400)
I0527 01:13:09.829331 17798 net.cpp:165] Memory required for data: 27459720
I0527 01:13:09.829350 17798 layer_factory.hpp:77] Creating layer relu2
I0527 01:13:09.829365 17798 net.cpp:106] Creating Layer relu2
I0527 01:13:09.829375 17798 net.cpp:454] relu2 <- conv2
I0527 01:13:09.829387 17798 net.cpp:397] relu2 -> conv2 (in-place)
I0527 01:13:09.829718 17798 net.cpp:150] Setting up relu2
I0527 01:13:09.829732 17798 net.cpp:157] Top shape: 30 20 54 46 (1490400)
I0527 01:13:09.829742 17798 net.cpp:165] Memory required for data: 33421320
I0527 01:13:09.829752 17798 layer_factory.hpp:77] Creating layer pool2
I0527 01:13:09.829766 17798 net.cpp:106] Creating Layer pool2
I0527 01:13:09.829776 17798 net.cpp:454] pool2 <- conv2
I0527 01:13:09.829787 17798 net.cpp:411] pool2 -> pool2
I0527 01:13:09.829869 17798 net.cpp:150] Setting up pool2
I0527 01:13:09.829881 17798 net.cpp:157] Top shape: 30 20 27 46 (745200)
I0527 01:13:09.829891 17798 net.cpp:165] Memory required for data: 36402120
I0527 01:13:09.829901 17798 layer_factory.hpp:77] Creating layer conv3
I0527 01:13:09.829921 17798 net.cpp:106] Creating Layer conv3
I0527 01:13:09.829931 17798 net.cpp:454] conv3 <- pool2
I0527 01:13:09.829944 17798 net.cpp:411] conv3 -> conv3
I0527 01:13:09.831914 17798 net.cpp:150] Setting up conv3
I0527 01:13:09.831938 17798 net.cpp:157] Top shape: 30 28 22 44 (813120)
I0527 01:13:09.831950 17798 net.cpp:165] Memory required for data: 39654600
I0527 01:13:09.831969 17798 layer_factory.hpp:77] Creating layer relu3
I0527 01:13:09.831984 17798 net.cpp:106] Creating Layer relu3
I0527 01:13:09.831995 17798 net.cpp:454] relu3 <- conv3
I0527 01:13:09.832006 17798 net.cpp:397] relu3 -> conv3 (in-place)
I0527 01:13:09.832475 17798 net.cpp:150] Setting up relu3
I0527 01:13:09.832494 17798 net.cpp:157] Top shape: 30 28 22 44 (813120)
I0527 01:13:09.832504 17798 net.cpp:165] Memory required for data: 42907080
I0527 01:13:09.832514 17798 layer_factory.hpp:77] Creating layer pool3
I0527 01:13:09.832526 17798 net.cpp:106] Creating Layer pool3
I0527 01:13:09.832536 17798 net.cpp:454] pool3 <- conv3
I0527 01:13:09.832550 17798 net.cpp:411] pool3 -> pool3
I0527 01:13:09.832618 17798 net.cpp:150] Setting up pool3
I0527 01:13:09.832631 17798 net.cpp:157] Top shape: 30 28 11 44 (406560)
I0527 01:13:09.832640 17798 net.cpp:165] Memory required for data: 44533320
I0527 01:13:09.832648 17798 layer_factory.hpp:77] Creating layer conv4
I0527 01:13:09.832666 17798 net.cpp:106] Creating Layer conv4
I0527 01:13:09.832677 17798 net.cpp:454] conv4 <- pool3
I0527 01:13:09.832691 17798 net.cpp:411] conv4 -> conv4
I0527 01:13:09.835410 17798 net.cpp:150] Setting up conv4
I0527 01:13:09.835438 17798 net.cpp:157] Top shape: 30 36 6 42 (272160)
I0527 01:13:09.835449 17798 net.cpp:165] Memory required for data: 45621960
I0527 01:13:09.835464 17798 layer_factory.hpp:77] Creating layer relu4
I0527 01:13:09.835479 17798 net.cpp:106] Creating Layer relu4
I0527 01:13:09.835489 17798 net.cpp:454] relu4 <- conv4
I0527 01:13:09.835501 17798 net.cpp:397] relu4 -> conv4 (in-place)
I0527 01:13:09.835964 17798 net.cpp:150] Setting up relu4
I0527 01:13:09.835981 17798 net.cpp:157] Top shape: 30 36 6 42 (272160)
I0527 01:13:09.835991 17798 net.cpp:165] Memory required for data: 46710600
I0527 01:13:09.836002 17798 layer_factory.hpp:77] Creating layer pool4
I0527 01:13:09.836014 17798 net.cpp:106] Creating Layer pool4
I0527 01:13:09.836024 17798 net.cpp:454] pool4 <- conv4
I0527 01:13:09.836037 17798 net.cpp:411] pool4 -> pool4
I0527 01:13:09.836105 17798 net.cpp:150] Setting up pool4
I0527 01:13:09.836119 17798 net.cpp:157] Top shape: 30 36 3 42 (136080)
I0527 01:13:09.836130 17798 net.cpp:165] Memory required for data: 47254920
I0527 01:13:09.836140 17798 layer_factory.hpp:77] Creating layer ip1
I0527 01:13:09.836160 17798 net.cpp:106] Creating Layer ip1
I0527 01:13:09.836170 17798 net.cpp:454] ip1 <- pool4
I0527 01:13:09.836184 17798 net.cpp:411] ip1 -> ip1
I0527 01:13:09.851661 17798 net.cpp:150] Setting up ip1
I0527 01:13:09.851691 17798 net.cpp:157] Top shape: 30 196 (5880)
I0527 01:13:09.851703 17798 net.cpp:165] Memory required for data: 47278440
I0527 01:13:09.851727 17798 layer_factory.hpp:77] Creating layer relu5
I0527 01:13:09.851740 17798 net.cpp:106] Creating Layer relu5
I0527 01:13:09.851750 17798 net.cpp:454] relu5 <- ip1
I0527 01:13:09.851763 17798 net.cpp:397] relu5 -> ip1 (in-place)
I0527 01:13:09.852107 17798 net.cpp:150] Setting up relu5
I0527 01:13:09.852120 17798 net.cpp:157] Top shape: 30 196 (5880)
I0527 01:13:09.852130 17798 net.cpp:165] Memory required for data: 47301960
I0527 01:13:09.852141 17798 layer_factory.hpp:77] Creating layer drop1
I0527 01:13:09.852162 17798 net.cpp:106] Creating Layer drop1
I0527 01:13:09.852172 17798 net.cpp:454] drop1 <- ip1
I0527 01:13:09.852185 17798 net.cpp:397] drop1 -> ip1 (in-place)
I0527 01:13:09.852246 17798 net.cpp:150] Setting up drop1
I0527 01:13:09.852259 17798 net.cpp:157] Top shape: 30 196 (5880)
I0527 01:13:09.852270 17798 net.cpp:165] Memory required for data: 47325480
I0527 01:13:09.852280 17798 layer_factory.hpp:77] Creating layer ip2
I0527 01:13:09.852299 17798 net.cpp:106] Creating Layer ip2
I0527 01:13:09.852309 17798 net.cpp:454] ip2 <- ip1
I0527 01:13:09.852322 17798 net.cpp:411] ip2 -> ip2
I0527 01:13:09.852785 17798 net.cpp:150] Setting up ip2
I0527 01:13:09.852798 17798 net.cpp:157] Top shape: 30 98 (2940)
I0527 01:13:09.852807 17798 net.cpp:165] Memory required for data: 47337240
I0527 01:13:09.852823 17798 layer_factory.hpp:77] Creating layer relu6
I0527 01:13:09.852835 17798 net.cpp:106] Creating Layer relu6
I0527 01:13:09.852845 17798 net.cpp:454] relu6 <- ip2
I0527 01:13:09.852857 17798 net.cpp:397] relu6 -> ip2 (in-place)
I0527 01:13:09.853379 17798 net.cpp:150] Setting up relu6
I0527 01:13:09.853396 17798 net.cpp:157] Top shape: 30 98 (2940)
I0527 01:13:09.853407 17798 net.cpp:165] Memory required for data: 47349000
I0527 01:13:09.853417 17798 layer_factory.hpp:77] Creating layer drop2
I0527 01:13:09.853430 17798 net.cpp:106] Creating Layer drop2
I0527 01:13:09.853440 17798 net.cpp:454] drop2 <- ip2
I0527 01:13:09.853452 17798 net.cpp:397] drop2 -> ip2 (in-place)
I0527 01:13:09.853495 17798 net.cpp:150] Setting up drop2
I0527 01:13:09.853508 17798 net.cpp:157] Top shape: 30 98 (2940)
I0527 01:13:09.853518 17798 net.cpp:165] Memory required for data: 47360760
I0527 01:13:09.853528 17798 layer_factory.hpp:77] Creating layer ip3
I0527 01:13:09.853543 17798 net.cpp:106] Creating Layer ip3
I0527 01:13:09.853551 17798 net.cpp:454] ip3 <- ip2
I0527 01:13:09.853565 17798 net.cpp:411] ip3 -> ip3
I0527 01:13:09.853780 17798 net.cpp:150] Setting up ip3
I0527 01:13:09.853792 17798 net.cpp:157] Top shape: 30 11 (330)
I0527 01:13:09.853801 17798 net.cpp:165] Memory required for data: 47362080
I0527 01:13:09.853817 17798 layer_factory.hpp:77] Creating layer drop3
I0527 01:13:09.853829 17798 net.cpp:106] Creating Layer drop3
I0527 01:13:09.853839 17798 net.cpp:454] drop3 <- ip3
I0527 01:13:09.853852 17798 net.cpp:397] drop3 -> ip3 (in-place)
I0527 01:13:09.853891 17798 net.cpp:150] Setting up drop3
I0527 01:13:09.853904 17798 net.cpp:157] Top shape: 30 11 (330)
I0527 01:13:09.853914 17798 net.cpp:165] Memory required for data: 47363400
I0527 01:13:09.853924 17798 layer_factory.hpp:77] Creating layer loss
I0527 01:13:09.853943 17798 net.cpp:106] Creating Layer loss
I0527 01:13:09.853952 17798 net.cpp:454] loss <- ip3
I0527 01:13:09.853965 17798 net.cpp:454] loss <- label
I0527 01:13:09.853976 17798 net.cpp:411] loss -> loss
I0527 01:13:09.853994 17798 layer_factory.hpp:77] Creating layer loss
…
I0527 01:13:09.857297 17798 solver.cpp:181] Creating test net (#0) specified by net file: /lustre/atlas/proj-shared/hep105/caffe_titan/caffe_workflow/logs_bslr/bs_30_lr_0.0025_2016-05-20T15.48.58.860327.prototxt
I0527 01:13:09.857372 17798 net.cpp:322] The NetState phase (1) differed from the phase (0) specified by a rule in layer data_hdf5
I0527 01:13:09.857727 17798 net.cpp:49] Initializing net from parameters: 
name: "caffe_test_127x50_x_unshifted"
state {
  phase: TEST
}
layer {
  name: "data_hdf5"
  type: "HDF5Data"
  top: "data"
  top: "label"
  include {
    phase: TEST
  }
  hdf5_data_param {
    source: "/lustre/atlas/proj-shared/hep105/caffe_titan/minosmatch_nukecczdefs_127x50_x_unshifted_me1Bmc.testlist"
    batch_size: 30
  }
}
layer {
  name: "conv1"
  type: "Convolution"
  bottom: "data"
  top: "conv1"
  convolution_param {
    num_output: 12
    pad: 0
    stride: 1
    weight_filler {
      type: "xavier"
    }
    bias_filler {
      type: "constant"
    }
    kernel_h: 8
    kernel_w: 3
  }
}
layer {
  name: "relu1"
  type: "ReLU"
  bottom: "conv1"
  top: "conv1"
}
layer {
  name: "pool1"
  type: "Pooling"
  bottom: "conv1"
  top: "pool1"
  pooling_param {
    pool: MAX
    kernel_h: 2
    kernel_w: 1
    stride_h: 2
    stride_w: 1
  }
}
layer {
  name: "conv2"
  type: "Convolution"
  bottom: "pool1"
  top: "conv2"
  convolution_param {
    num_output: 20
    pad: 0
    stride: 1
    weight_filler {
      type: "xavier"
    }
    bias_filler {
      type: "constant"
    }
    kernel_h: 7
    kernel_w: 3
  }
}
layer {
  name: "relu2"
  type: "ReLU"
  bottom: "conv2"
  top: "conv2"
}
layer {
  name: "pool2"
  type: "Pooling"
  bottom: "conv2"
  top: "pool2"
  pooling_param {
    pool: MAX
    kernel_h: 2
    kernel_w: 1
    stride_h: 2
    stride_w: 1
  }
}
layer {
  name: "conv3"
  type: "Convolution"
  bottom: "pool2"
  top: "conv3"
  convolution_param {
    num_output: 28
    pad: 0
    stride: 1
    weight_filler {
      type: "xavier"
    }
    bias_filler {
      type: "constant"
    }
    kernel_h: 6
    kernel_w: 3
  }
}
layer {
  name: "relu3"
  type: "ReLU"
  bottom: "conv3"
  top: "conv3"
}
layer {
  name: "pool3"
  type: "Pooling"
  bottom: "conv3"
  top: "pool3"
  pooling_param {
    pool: MAX
    kernel_h: 2
    kernel_w: 1
    stride_h: 2
    stride_w: 1
  }
}
layer {
  name: "conv4"
  type: "Convolution"
  bottom: "pool3"
  top: "conv4"
  convolution_param {
    num_output: 36
    pad: 0
    stride: 1
    weight_filler {
      type: "xavier"
    }
    bias_filler {
      type: "constant"
    }
    kernel_h: 6
    kernel_w: 3
  }
}
layer {
  name: "relu4"
  type: "ReLU"
  bottom: "conv4"
  top: "conv4"
}
layer {
  name: "pool4"
  type: "Pooling"
  bottom: "conv4"
  top: "pool4"
  pooling_param {
    pool: MAX
    kernel_h: 2
    kernel_w: 1
    stride_h: 2
    stride_w: 1
  }
}
layer {
  name: "ip1"
  type: "InnerProduct"
  bottom: "pool4"
  top: "ip1"
  inner_product_param {
    num_output: 196
    weight_filler {
      type: "xavier"
    }
    bias_filler {
      type: "constant"
    }
  }
}
layer {
  name: "relu5"
  type: "ReLU"
  bottom: "ip1"
  top: "ip1"
}
layer {
  name: "drop1"
  type: "Dropout"
  bottom: "ip1"
  top: "ip1"
  dropout_param {
    dropout_ratio: 0.5
  }
}
layer {
  name: "ip2"
  type: "InnerProduct"
  bottom: "ip1"
  top: "ip2"
  inner_product_param {
    num_output: 98
    weight_filler {
      type: "xavier"
    }
    bias_filler {
      type: "constant"
    }
  }
}
layer {
  name: "relu6"
  type: "ReLU"
  bottom: "ip2"
  top: "ip2"
}
layer {
  name: "drop2"
  type: "Dropout"
  bottom: "ip2"
  top: "ip2"
  dropout_param {
    dropout_ratio: 0.5
  }
}
layer {
  name: "ip3"
  type: "InnerProduct"
  bottom: "ip2"
  top: "ip3"
  inner_product_param {
    num_output: 11
    weight_filler {
      type: "xavier"
    }
    bias_filler {
      type: "constant"
    }
  }
}
layer {
  name: "drop3"
  type: "Dropout"
  bottom: "ip3"
  top: "ip3"
  dropout_param {
    dropout_ratio: 0.5
  }
}
layer {
  name: "accuracy"
  type: "Accuracy"
  bottom: "ip3"
  bottom: "label"
  top: "accuracy"
  include {
    phase: TEST
  }
}
layer {
  name: "loss"
  type: "SoftmaxWithLoss"
  bottom: "ip3"
  bottom: "label"
  top: "loss"
}
I0527 01:13:09.857918 17798 layer_factory.hpp:77] Creating layer data_hdf5
I0527 01:13:09.857933 17798 net.cpp:106] Creating Layer data_hdf5
I0527 01:13:09.857945 17798 net.cpp:411] data_hdf5 -> data
I0527 01:13:09.857962 17798 net.cpp:411] data_hdf5 -> label
I0527 01:13:09.857980 17798 hdf5_data_layer.cpp:79] Loading list of HDF5 filenames from: /lustre/atlas/proj-shared/hep105/caffe_titan/minosmatch_nukecczdefs_127x50_x_unshifted_me1Bmc.testlist
I0527 01:13:09.859340 17798 hdf5_data_layer.cpp:93] Number of HDF5 files: 3
I0527 01:13:31.210012 17798 net.cpp:150] Setting up data_hdf5
I0527 01:13:31.210176 17798 net.cpp:157] Top shape: 30 1 127 50 (190500)
I0527 01:13:31.210191 17798 net.cpp:157] Top shape: 30 (30)
I0527 01:13:31.210201 17798 net.cpp:165] Memory required for data: 762120
I0527 01:13:31.210214 17798 layer_factory.hpp:77] Creating layer label_data_hdf5_1_split
I0527 01:13:31.210242 17798 net.cpp:106] Creating Layer label_data_hdf5_1_split
I0527 01:13:31.210253 17798 net.cpp:454] label_data_hdf5_1_split <- label
I0527 01:13:31.210268 17798 net.cpp:411] label_data_hdf5_1_split -> label_data_hdf5_1_split_0
I0527 01:13:31.210289 17798 net.cpp:411] label_data_hdf5_1_split -> label_data_hdf5_1_split_1
I0527 01:13:31.210363 17798 net.cpp:150] Setting up label_data_hdf5_1_split
I0527 01:13:31.210377 17798 net.cpp:157] Top shape: 30 (30)
I0527 01:13:31.210388 17798 net.cpp:157] Top shape: 30 (30)
I0527 01:13:31.210398 17798 net.cpp:165] Memory required for data: 762360
I0527 01:13:31.210409 17798 layer_factory.hpp:77] Creating layer conv1
I0527 01:13:31.210432 17798 net.cpp:106] Creating Layer conv1
I0527 01:13:31.210443 17798 net.cpp:454] conv1 <- data
I0527 01:13:31.210456 17798 net.cpp:411] conv1 -> conv1
I0527 01:13:31.212409 17798 net.cpp:150] Setting up conv1
I0527 01:13:31.212435 17798 net.cpp:157] Top shape: 30 12 120 48 (2073600)
I0527 01:13:31.212445 17798 net.cpp:165] Memory required for data: 9056760
I0527 01:13:31.212466 17798 layer_factory.hpp:77] Creating layer relu1
I0527 01:13:31.212481 17798 net.cpp:106] Creating Layer relu1
I0527 01:13:31.212491 17798 net.cpp:454] relu1 <- conv1
I0527 01:13:31.212503 17798 net.cpp:397] relu1 -> conv1 (in-place)
I0527 01:13:31.213033 17798 net.cpp:150] Setting up relu1
I0527 01:13:31.213050 17798 net.cpp:157] Top shape: 30 12 120 48 (2073600)
I0527 01:13:31.213060 17798 net.cpp:165] Memory required for data: 17351160
I0527 01:13:31.213073 17798 layer_factory.hpp:77] Creating layer pool1
I0527 01:13:31.213089 17798 net.cpp:106] Creating Layer pool1
I0527 01:13:31.213099 17798 net.cpp:454] pool1 <- conv1
I0527 01:13:31.213114 17798 net.cpp:411] pool1 -> pool1
I0527 01:13:31.213188 17798 net.cpp:150] Setting up pool1
I0527 01:13:31.213202 17798 net.cpp:157] Top shape: 30 12 60 48 (1036800)
I0527 01:13:31.213212 17798 net.cpp:165] Memory required for data: 21498360
I0527 01:13:31.213220 17798 layer_factory.hpp:77] Creating layer conv2
I0527 01:13:31.213238 17798 net.cpp:106] Creating Layer conv2
I0527 01:13:31.213248 17798 net.cpp:454] conv2 <- pool1
I0527 01:13:31.213263 17798 net.cpp:411] conv2 -> conv2
I0527 01:13:31.215181 17798 net.cpp:150] Setting up conv2
I0527 01:13:31.215204 17798 net.cpp:157] Top shape: 30 20 54 46 (1490400)
I0527 01:13:31.215216 17798 net.cpp:165] Memory required for data: 27459960
I0527 01:13:31.215234 17798 layer_factory.hpp:77] Creating layer relu2
I0527 01:13:31.215247 17798 net.cpp:106] Creating Layer relu2
I0527 01:13:31.215257 17798 net.cpp:454] relu2 <- conv2
I0527 01:13:31.215270 17798 net.cpp:397] relu2 -> conv2 (in-place)
I0527 01:13:31.215603 17798 net.cpp:150] Setting up relu2
I0527 01:13:31.215616 17798 net.cpp:157] Top shape: 30 20 54 46 (1490400)
I0527 01:13:31.215627 17798 net.cpp:165] Memory required for data: 33421560
I0527 01:13:31.215637 17798 layer_factory.hpp:77] Creating layer pool2
I0527 01:13:31.215651 17798 net.cpp:106] Creating Layer pool2
I0527 01:13:31.215661 17798 net.cpp:454] pool2 <- conv2
I0527 01:13:31.215672 17798 net.cpp:411] pool2 -> pool2
I0527 01:13:31.215744 17798 net.cpp:150] Setting up pool2
I0527 01:13:31.215757 17798 net.cpp:157] Top shape: 30 20 27 46 (745200)
I0527 01:13:31.215767 17798 net.cpp:165] Memory required for data: 36402360
I0527 01:13:31.215778 17798 layer_factory.hpp:77] Creating layer conv3
I0527 01:13:31.215796 17798 net.cpp:106] Creating Layer conv3
I0527 01:13:31.215807 17798 net.cpp:454] conv3 <- pool2
I0527 01:13:31.215821 17798 net.cpp:411] conv3 -> conv3
I0527 01:13:31.217790 17798 net.cpp:150] Setting up conv3
I0527 01:13:31.217813 17798 net.cpp:157] Top shape: 30 28 22 44 (813120)
I0527 01:13:31.217825 17798 net.cpp:165] Memory required for data: 39654840
I0527 01:13:31.217857 17798 layer_factory.hpp:77] Creating layer relu3
I0527 01:13:31.217871 17798 net.cpp:106] Creating Layer relu3
I0527 01:13:31.217881 17798 net.cpp:454] relu3 <- conv3
I0527 01:13:31.217895 17798 net.cpp:397] relu3 -> conv3 (in-place)
I0527 01:13:31.218365 17798 net.cpp:150] Setting up relu3
I0527 01:13:31.218382 17798 net.cpp:157] Top shape: 30 28 22 44 (813120)
I0527 01:13:31.218392 17798 net.cpp:165] Memory required for data: 42907320
I0527 01:13:31.218402 17798 layer_factory.hpp:77] Creating layer pool3
I0527 01:13:31.218415 17798 net.cpp:106] Creating Layer pool3
I0527 01:13:31.218425 17798 net.cpp:454] pool3 <- conv3
I0527 01:13:31.218439 17798 net.cpp:411] pool3 -> pool3
I0527 01:13:31.218510 17798 net.cpp:150] Setting up pool3
I0527 01:13:31.218524 17798 net.cpp:157] Top shape: 30 28 11 44 (406560)
I0527 01:13:31.218534 17798 net.cpp:165] Memory required for data: 44533560
I0527 01:13:31.218544 17798 layer_factory.hpp:77] Creating layer conv4
I0527 01:13:31.218560 17798 net.cpp:106] Creating Layer conv4
I0527 01:13:31.218571 17798 net.cpp:454] conv4 <- pool3
I0527 01:13:31.218586 17798 net.cpp:411] conv4 -> conv4
I0527 01:13:31.220652 17798 net.cpp:150] Setting up conv4
I0527 01:13:31.220670 17798 net.cpp:157] Top shape: 30 36 6 42 (272160)
I0527 01:13:31.220682 17798 net.cpp:165] Memory required for data: 45622200
I0527 01:13:31.220697 17798 layer_factory.hpp:77] Creating layer relu4
I0527 01:13:31.220711 17798 net.cpp:106] Creating Layer relu4
I0527 01:13:31.220721 17798 net.cpp:454] relu4 <- conv4
I0527 01:13:31.220734 17798 net.cpp:397] relu4 -> conv4 (in-place)
I0527 01:13:31.221210 17798 net.cpp:150] Setting up relu4
I0527 01:13:31.221225 17798 net.cpp:157] Top shape: 30 36 6 42 (272160)
I0527 01:13:31.221235 17798 net.cpp:165] Memory required for data: 46710840
I0527 01:13:31.221246 17798 layer_factory.hpp:77] Creating layer pool4
I0527 01:13:31.221259 17798 net.cpp:106] Creating Layer pool4
I0527 01:13:31.221269 17798 net.cpp:454] pool4 <- conv4
I0527 01:13:31.221283 17798 net.cpp:411] pool4 -> pool4
I0527 01:13:31.221355 17798 net.cpp:150] Setting up pool4
I0527 01:13:31.221369 17798 net.cpp:157] Top shape: 30 36 3 42 (136080)
I0527 01:13:31.221379 17798 net.cpp:165] Memory required for data: 47255160
I0527 01:13:31.221388 17798 layer_factory.hpp:77] Creating layer ip1
I0527 01:13:31.221405 17798 net.cpp:106] Creating Layer ip1
I0527 01:13:31.221415 17798 net.cpp:454] ip1 <- pool4
I0527 01:13:31.221427 17798 net.cpp:411] ip1 -> ip1
I0527 01:13:31.236852 17798 net.cpp:150] Setting up ip1
I0527 01:13:31.236876 17798 net.cpp:157] Top shape: 30 196 (5880)
I0527 01:13:31.236886 17798 net.cpp:165] Memory required for data: 47278680
I0527 01:13:31.236909 17798 layer_factory.hpp:77] Creating layer relu5
I0527 01:13:31.236924 17798 net.cpp:106] Creating Layer relu5
I0527 01:13:31.236934 17798 net.cpp:454] relu5 <- ip1
I0527 01:13:31.236948 17798 net.cpp:397] relu5 -> ip1 (in-place)
I0527 01:13:31.237295 17798 net.cpp:150] Setting up relu5
I0527 01:13:31.237309 17798 net.cpp:157] Top shape: 30 196 (5880)
I0527 01:13:31.237319 17798 net.cpp:165] Memory required for data: 47302200
I0527 01:13:31.237329 17798 layer_factory.hpp:77] Creating layer drop1
I0527 01:13:31.237349 17798 net.cpp:106] Creating Layer drop1
I0527 01:13:31.237359 17798 net.cpp:454] drop1 <- ip1
I0527 01:13:31.237371 17798 net.cpp:397] drop1 -> ip1 (in-place)
I0527 01:13:31.237417 17798 net.cpp:150] Setting up drop1
I0527 01:13:31.237431 17798 net.cpp:157] Top shape: 30 196 (5880)
I0527 01:13:31.237440 17798 net.cpp:165] Memory required for data: 47325720
I0527 01:13:31.237449 17798 layer_factory.hpp:77] Creating layer ip2
I0527 01:13:31.237464 17798 net.cpp:106] Creating Layer ip2
I0527 01:13:31.237473 17798 net.cpp:454] ip2 <- ip1
I0527 01:13:31.237488 17798 net.cpp:411] ip2 -> ip2
I0527 01:13:31.237967 17798 net.cpp:150] Setting up ip2
I0527 01:13:31.237982 17798 net.cpp:157] Top shape: 30 98 (2940)
I0527 01:13:31.237990 17798 net.cpp:165] Memory required for data: 47337480
I0527 01:13:31.238006 17798 layer_factory.hpp:77] Creating layer relu6
I0527 01:13:31.238030 17798 net.cpp:106] Creating Layer relu6
I0527 01:13:31.238040 17798 net.cpp:454] relu6 <- ip2
I0527 01:13:31.238054 17798 net.cpp:397] relu6 -> ip2 (in-place)
I0527 01:13:31.238590 17798 net.cpp:150] Setting up relu6
I0527 01:13:31.238605 17798 net.cpp:157] Top shape: 30 98 (2940)
I0527 01:13:31.238615 17798 net.cpp:165] Memory required for data: 47349240
I0527 01:13:31.238626 17798 layer_factory.hpp:77] Creating layer drop2
I0527 01:13:31.238638 17798 net.cpp:106] Creating Layer drop2
I0527 01:13:31.238648 17798 net.cpp:454] drop2 <- ip2
I0527 01:13:31.238662 17798 net.cpp:397] drop2 -> ip2 (in-place)
I0527 01:13:31.238705 17798 net.cpp:150] Setting up drop2
I0527 01:13:31.238726 17798 net.cpp:157] Top shape: 30 98 (2940)
I0527 01:13:31.238736 17798 net.cpp:165] Memory required for data: 47361000
I0527 01:13:31.238746 17798 layer_factory.hpp:77] Creating layer ip3
I0527 01:13:31.238760 17798 net.cpp:106] Creating Layer ip3
I0527 01:13:31.238770 17798 net.cpp:454] ip3 <- ip2
I0527 01:13:31.238785 17798 net.cpp:411] ip3 -> ip3
I0527 01:13:31.239012 17798 net.cpp:150] Setting up ip3
I0527 01:13:31.239024 17798 net.cpp:157] Top shape: 30 11 (330)
I0527 01:13:31.239034 17798 net.cpp:165] Memory required for data: 47362320
I0527 01:13:31.239049 17798 layer_factory.hpp:77] Creating layer drop3
I0527 01:13:31.239063 17798 net.cpp:106] Creating Layer drop3
I0527 01:13:31.239073 17798 net.cpp:454] drop3 <- ip3
I0527 01:13:31.239084 17798 net.cpp:397] drop3 -> ip3 (in-place)
I0527 01:13:31.239127 17798 net.cpp:150] Setting up drop3
I0527 01:13:31.239140 17798 net.cpp:157] Top shape: 30 11 (330)
I0527 01:13:31.239150 17798 net.cpp:165] Memory required for data: 47363640
I0527 01:13:31.239159 17798 layer_factory.hpp:77] Creating layer ip3_drop3_0_split
I0527 01:13:31.239172 17798 net.cpp:106] Creating Layer ip3_drop3_0_split
I0527 01:13:31.239182 17798 net.cpp:454] ip3_drop3_0_split <- ip3
I0527 01:13:31.239195 17798 net.cpp:411] ip3_drop3_0_split -> ip3_drop3_0_split_0
I0527 01:13:31.239210 17798 net.cpp:411] ip3_drop3_0_split -> ip3_drop3_0_split_1
I0527 01:13:31.239285 17798 net.cpp:150] Setting up ip3_drop3_0_split
I0527 01:13:31.239298 17798 net.cpp:157] Top shape: 30 11 (330)
I0527 01:13:31.239310 17798 net.cpp:157] Top shape: 30 11 (330)
I0527 01:13:31.239321 17798 net.cpp:165] Memory required for data: 47366280
I0527 01:13:31.239331 17798 layer_factory.hpp:77] Creating layer accuracy
I0527 01:13:31.239352 17798 net.cpp:106] Creating Layer accuracy
I0527 01:13:31.239362 17798 net.cpp:454] accuracy <- ip3_drop3_0_split_0
I0527 01:13:31.239373 17798 net.cpp:454] accuracy <- label_data_hdf5_1_split_0
I0527 01:13:31.239387 17798 net.cpp:411] accuracy -> accuracy
…
