…
I0522 11:48:43.716413 12588 net.cpp:322] The NetState phase (0) differed from the phase (1) specified by a rule in layer data_hdf5
I0522 11:48:43.716472 12588 net.cpp:322] The NetState phase (0) differed from the phase (1) specified by a rule in layer accuracy
I0522 11:48:43.716820 12588 net.cpp:49] Initializing net from parameters: 
name: "caffe_test_127x50_x_unshifted"
state {
  phase: TRAIN
}
layer {
  name: "data_hdf5"
  type: "HDF5Data"
  top: "data"
  top: "label"
  include {
    phase: TRAIN
  }
  hdf5_data_param {
    source: "/lustre/atlas/proj-shared/hep105/caffe_titan/minosmatch_nukecczdefs_127x50_x_unshifted_me1Bmc.trainlist"
    batch_size: 30
  }
}
layer {
  name: "conv1"
  type: "Convolution"
  bottom: "data"
  top: "conv1"
  convolution_param {
    num_output: 12
    pad: 0
    stride: 1
    weight_filler {
      type: "xavier"
    }
    bias_filler {
      type: "constant"
    }
    kernel_h: 8
    kernel_w: 3
  }
}
layer {
  name: "relu1"
  type: "ReLU"
  bottom: "conv1"
  top: "conv1"
}
layer {
  name: "pool1"
  type: "Pooling"
  bottom: "conv1"
  top: "pool1"
  pooling_param {
    pool: MAX
    kernel_h: 2
    kernel_w: 1
    stride_h: 2
    stride_w: 1
  }
}
layer {
  name: "conv2"
  type: "Convolution"
  bottom: "pool1"
  top: "conv2"
  convolution_param {
    num_output: 20
    pad: 0
    stride: 1
    weight_filler {
      type: "xavier"
    }
    bias_filler {
      type: "constant"
    }
    kernel_h: 7
    kernel_w: 3
  }
}
layer {
  name: "relu2"
  type: "ReLU"
  bottom: "conv2"
  top: "conv2"
}
layer {
  name: "pool2"
  type: "Pooling"
  bottom: "conv2"
  top: "pool2"
  pooling_param {
    pool: MAX
    kernel_h: 2
    kernel_w: 1
    stride_h: 2
    stride_w: 1
  }
}
layer {
  name: "conv3"
  type: "Convolution"
  bottom: "pool2"
  top: "conv3"
  convolution_param {
    num_output: 28
    pad: 0
    stride: 1
    weight_filler {
      type: "xavier"
    }
    bias_filler {
      type: "constant"
    }
    kernel_h: 6
    kernel_w: 3
  }
}
layer {
  name: "relu3"
  type: "ReLU"
  bottom: "conv3"
  top: "conv3"
}
layer {
  name: "pool3"
  type: "Pooling"
  bottom: "conv3"
  top: "pool3"
  pooling_param {
    pool: MAX
    kernel_h: 2
    kernel_w: 1
    stride_h: 2
    stride_w: 1
  }
}
layer {
  name: "conv4"
  type: "Convolution"
  bottom: "pool3"
  top: "conv4"
  convolution_param {
    num_output: 36
    pad: 0
    stride: 1
    weight_filler {
      type: "xavier"
    }
    bias_filler {
      type: "constant"
    }
    kernel_h: 6
    kernel_w: 3
  }
}
layer {
  name: "relu4"
  type: "ReLU"
  bottom: "conv4"
  top: "conv4"
}
layer {
  name: "pool4"
  type: "Pooling"
  bottom: "conv4"
  top: "pool4"
  pooling_param {
    pool: MAX
    kernel_h: 2
    kernel_w: 1
    stride_h: 2
    stride_w: 1
  }
}
layer {
  name: "ip1"
  type: "InnerProduct"
  bottom: "pool4"
  top: "ip1"
  inner_product_param {
    num_output: 196
    weight_filler {
      type: "xavier"
    }
    bias_filler {
      type: "constant"
    }
  }
}
layer {
  name: "relu5"
  type: "ReLU"
  bottom: "ip1"
  top: "ip1"
}
layer {
  name: "drop1"
  type: "Dropout"
  bottom: "ip1"
  top: "ip1"
  dropout_param {
    dropout_ratio: 0.5
  }
}
layer {
  name: "ip2"
  type: "InnerProduct"
  bottom: "ip1"
  top: "ip2"
  inner_product_param {
    num_output: 98
    weight_filler {
      type: "xavier"
    }
    bias_filler {
      type: "constant"
    }
  }
}
layer {
  name: "relu6"
  type: "ReLU"
  bottom: "ip2"
  top: "ip2"
}
layer {
  name: "drop2"
  type: "Dropout"
  bottom: "ip2"
  top: "ip2"
  dropout_param {
    dropout_ratio: 0.5
  }
}
layer {
  name: "ip3"
  type: "InnerProduct"
  bottom: "ip2"
  top: "ip3"
  inner_product_param {
    num_output: 11
    weight_filler {
      type: "xavier"
    }
    bias_filler {
      type: "constant"
    }
  }
}
layer {
  name: "drop3"
  type: "Dropout"
  bottom: "ip3"
  top: "ip3"
  dropout_param {
    dropout_ratio: 0.5
  }
}
layer {
  name: "loss"
  type: "SoftmaxWithLoss"
  bottom: "ip3"
  bottom: "label"
  top: "loss"
}
I0522 11:48:43.717000 12588 layer_factory.hpp:77] Creating layer data_hdf5
I0522 11:48:43.717025 12588 net.cpp:106] Creating Layer data_hdf5
I0522 11:48:43.717039 12588 net.cpp:411] data_hdf5 -> data
I0522 11:48:43.717073 12588 net.cpp:411] data_hdf5 -> label
I0522 11:48:43.717105 12588 hdf5_data_layer.cpp:79] Loading list of HDF5 filenames from: /lustre/atlas/proj-shared/hep105/caffe_titan/minosmatch_nukecczdefs_127x50_x_unshifted_me1Bmc.trainlist
I0522 11:48:43.732151 12588 hdf5_data_layer.cpp:93] Number of HDF5 files: 15
I0522 11:48:43.743871 12588 hdf5.cpp:32] Datatype class: H5T_FLOAT
I0522 11:49:05.314070 12588 hdf5.cpp:35] Datatype class: H5T_INTEGER
I0522 11:49:05.319293 12588 net.cpp:150] Setting up data_hdf5
I0522 11:49:05.319332 12588 net.cpp:157] Top shape: 30 1 127 50 (190500)
I0522 11:49:05.319347 12588 net.cpp:157] Top shape: 30 (30)
I0522 11:49:05.319360 12588 net.cpp:165] Memory required for data: 762120
I0522 11:49:05.319372 12588 layer_factory.hpp:77] Creating layer conv1
I0522 11:49:05.319406 12588 net.cpp:106] Creating Layer conv1
I0522 11:49:05.319417 12588 net.cpp:454] conv1 <- data
I0522 11:49:05.319438 12588 net.cpp:411] conv1 -> conv1
I0522 11:49:07.771167 12588 net.cpp:150] Setting up conv1
I0522 11:49:07.771214 12588 net.cpp:157] Top shape: 30 12 120 48 (2073600)
I0522 11:49:07.771226 12588 net.cpp:165] Memory required for data: 9056520
I0522 11:49:07.771255 12588 layer_factory.hpp:77] Creating layer relu1
I0522 11:49:07.771276 12588 net.cpp:106] Creating Layer relu1
I0522 11:49:07.771287 12588 net.cpp:454] relu1 <- conv1
I0522 11:49:07.771301 12588 net.cpp:397] relu1 -> conv1 (in-place)
I0522 11:49:07.771817 12588 net.cpp:150] Setting up relu1
I0522 11:49:07.771834 12588 net.cpp:157] Top shape: 30 12 120 48 (2073600)
I0522 11:49:07.771845 12588 net.cpp:165] Memory required for data: 17350920
I0522 11:49:07.771855 12588 layer_factory.hpp:77] Creating layer pool1
I0522 11:49:07.771873 12588 net.cpp:106] Creating Layer pool1
I0522 11:49:07.771883 12588 net.cpp:454] pool1 <- conv1
I0522 11:49:07.771898 12588 net.cpp:411] pool1 -> pool1
I0522 11:49:07.771977 12588 net.cpp:150] Setting up pool1
I0522 11:49:07.771991 12588 net.cpp:157] Top shape: 30 12 60 48 (1036800)
I0522 11:49:07.772001 12588 net.cpp:165] Memory required for data: 21498120
I0522 11:49:07.772012 12588 layer_factory.hpp:77] Creating layer conv2
I0522 11:49:07.772034 12588 net.cpp:106] Creating Layer conv2
I0522 11:49:07.772045 12588 net.cpp:454] conv2 <- pool1
I0522 11:49:07.772058 12588 net.cpp:411] conv2 -> conv2
I0522 11:49:07.774758 12588 net.cpp:150] Setting up conv2
I0522 11:49:07.774785 12588 net.cpp:157] Top shape: 30 20 54 46 (1490400)
I0522 11:49:07.774797 12588 net.cpp:165] Memory required for data: 27459720
I0522 11:49:07.774816 12588 layer_factory.hpp:77] Creating layer relu2
I0522 11:49:07.774830 12588 net.cpp:106] Creating Layer relu2
I0522 11:49:07.774842 12588 net.cpp:454] relu2 <- conv2
I0522 11:49:07.774854 12588 net.cpp:397] relu2 -> conv2 (in-place)
I0522 11:49:07.775183 12588 net.cpp:150] Setting up relu2
I0522 11:49:07.775197 12588 net.cpp:157] Top shape: 30 20 54 46 (1490400)
I0522 11:49:07.775207 12588 net.cpp:165] Memory required for data: 33421320
I0522 11:49:07.775218 12588 layer_factory.hpp:77] Creating layer pool2
I0522 11:49:07.775230 12588 net.cpp:106] Creating Layer pool2
I0522 11:49:07.775240 12588 net.cpp:454] pool2 <- conv2
I0522 11:49:07.775254 12588 net.cpp:411] pool2 -> pool2
I0522 11:49:07.775333 12588 net.cpp:150] Setting up pool2
I0522 11:49:07.775347 12588 net.cpp:157] Top shape: 30 20 27 46 (745200)
I0522 11:49:07.775357 12588 net.cpp:165] Memory required for data: 36402120
I0522 11:49:07.775367 12588 layer_factory.hpp:77] Creating layer conv3
I0522 11:49:07.775385 12588 net.cpp:106] Creating Layer conv3
I0522 11:49:07.775396 12588 net.cpp:454] conv3 <- pool2
I0522 11:49:07.775409 12588 net.cpp:411] conv3 -> conv3
I0522 11:49:07.777354 12588 net.cpp:150] Setting up conv3
I0522 11:49:07.777379 12588 net.cpp:157] Top shape: 30 28 22 44 (813120)
I0522 11:49:07.777390 12588 net.cpp:165] Memory required for data: 39654600
I0522 11:49:07.777408 12588 layer_factory.hpp:77] Creating layer relu3
I0522 11:49:07.777425 12588 net.cpp:106] Creating Layer relu3
I0522 11:49:07.777436 12588 net.cpp:454] relu3 <- conv3
I0522 11:49:07.777447 12588 net.cpp:397] relu3 -> conv3 (in-place)
I0522 11:49:07.777914 12588 net.cpp:150] Setting up relu3
I0522 11:49:07.777931 12588 net.cpp:157] Top shape: 30 28 22 44 (813120)
I0522 11:49:07.777941 12588 net.cpp:165] Memory required for data: 42907080
I0522 11:49:07.777951 12588 layer_factory.hpp:77] Creating layer pool3
I0522 11:49:07.777964 12588 net.cpp:106] Creating Layer pool3
I0522 11:49:07.777974 12588 net.cpp:454] pool3 <- conv3
I0522 11:49:07.777987 12588 net.cpp:411] pool3 -> pool3
I0522 11:49:07.778053 12588 net.cpp:150] Setting up pool3
I0522 11:49:07.778075 12588 net.cpp:157] Top shape: 30 28 11 44 (406560)
I0522 11:49:07.778085 12588 net.cpp:165] Memory required for data: 44533320
I0522 11:49:07.778095 12588 layer_factory.hpp:77] Creating layer conv4
I0522 11:49:07.778111 12588 net.cpp:106] Creating Layer conv4
I0522 11:49:07.778122 12588 net.cpp:454] conv4 <- pool3
I0522 11:49:07.778137 12588 net.cpp:411] conv4 -> conv4
I0522 11:49:07.780855 12588 net.cpp:150] Setting up conv4
I0522 11:49:07.780884 12588 net.cpp:157] Top shape: 30 36 6 42 (272160)
I0522 11:49:07.780894 12588 net.cpp:165] Memory required for data: 45621960
I0522 11:49:07.780910 12588 layer_factory.hpp:77] Creating layer relu4
I0522 11:49:07.780925 12588 net.cpp:106] Creating Layer relu4
I0522 11:49:07.780935 12588 net.cpp:454] relu4 <- conv4
I0522 11:49:07.780947 12588 net.cpp:397] relu4 -> conv4 (in-place)
I0522 11:49:07.781407 12588 net.cpp:150] Setting up relu4
I0522 11:49:07.781424 12588 net.cpp:157] Top shape: 30 36 6 42 (272160)
I0522 11:49:07.781435 12588 net.cpp:165] Memory required for data: 46710600
I0522 11:49:07.781445 12588 layer_factory.hpp:77] Creating layer pool4
I0522 11:49:07.781458 12588 net.cpp:106] Creating Layer pool4
I0522 11:49:07.781468 12588 net.cpp:454] pool4 <- conv4
I0522 11:49:07.781481 12588 net.cpp:411] pool4 -> pool4
I0522 11:49:07.781548 12588 net.cpp:150] Setting up pool4
I0522 11:49:07.781563 12588 net.cpp:157] Top shape: 30 36 3 42 (136080)
I0522 11:49:07.781572 12588 net.cpp:165] Memory required for data: 47254920
I0522 11:49:07.781582 12588 layer_factory.hpp:77] Creating layer ip1
I0522 11:49:07.781604 12588 net.cpp:106] Creating Layer ip1
I0522 11:49:07.781615 12588 net.cpp:454] ip1 <- pool4
I0522 11:49:07.781626 12588 net.cpp:411] ip1 -> ip1
I0522 11:49:07.797214 12588 net.cpp:150] Setting up ip1
I0522 11:49:07.797243 12588 net.cpp:157] Top shape: 30 196 (5880)
I0522 11:49:07.797260 12588 net.cpp:165] Memory required for data: 47278440
I0522 11:49:07.797284 12588 layer_factory.hpp:77] Creating layer relu5
I0522 11:49:07.797299 12588 net.cpp:106] Creating Layer relu5
I0522 11:49:07.797309 12588 net.cpp:454] relu5 <- ip1
I0522 11:49:07.797323 12588 net.cpp:397] relu5 -> ip1 (in-place)
I0522 11:49:07.797667 12588 net.cpp:150] Setting up relu5
I0522 11:49:07.797680 12588 net.cpp:157] Top shape: 30 196 (5880)
I0522 11:49:07.797691 12588 net.cpp:165] Memory required for data: 47301960
I0522 11:49:07.797701 12588 layer_factory.hpp:77] Creating layer drop1
I0522 11:49:07.797722 12588 net.cpp:106] Creating Layer drop1
I0522 11:49:07.797734 12588 net.cpp:454] drop1 <- ip1
I0522 11:49:07.797745 12588 net.cpp:397] drop1 -> ip1 (in-place)
I0522 11:49:07.797804 12588 net.cpp:150] Setting up drop1
I0522 11:49:07.797818 12588 net.cpp:157] Top shape: 30 196 (5880)
I0522 11:49:07.797828 12588 net.cpp:165] Memory required for data: 47325480
I0522 11:49:07.797838 12588 layer_factory.hpp:77] Creating layer ip2
I0522 11:49:07.797857 12588 net.cpp:106] Creating Layer ip2
I0522 11:49:07.797868 12588 net.cpp:454] ip2 <- ip1
I0522 11:49:07.797879 12588 net.cpp:411] ip2 -> ip2
I0522 11:49:07.798348 12588 net.cpp:150] Setting up ip2
I0522 11:49:07.798360 12588 net.cpp:157] Top shape: 30 98 (2940)
I0522 11:49:07.798370 12588 net.cpp:165] Memory required for data: 47337240
I0522 11:49:07.798385 12588 layer_factory.hpp:77] Creating layer relu6
I0522 11:49:07.798398 12588 net.cpp:106] Creating Layer relu6
I0522 11:49:07.798408 12588 net.cpp:454] relu6 <- ip2
I0522 11:49:07.798419 12588 net.cpp:397] relu6 -> ip2 (in-place)
I0522 11:49:07.798933 12588 net.cpp:150] Setting up relu6
I0522 11:49:07.798949 12588 net.cpp:157] Top shape: 30 98 (2940)
I0522 11:49:07.798960 12588 net.cpp:165] Memory required for data: 47349000
I0522 11:49:07.798970 12588 layer_factory.hpp:77] Creating layer drop2
I0522 11:49:07.798984 12588 net.cpp:106] Creating Layer drop2
I0522 11:49:07.798993 12588 net.cpp:454] drop2 <- ip2
I0522 11:49:07.799005 12588 net.cpp:397] drop2 -> ip2 (in-place)
I0522 11:49:07.799048 12588 net.cpp:150] Setting up drop2
I0522 11:49:07.799062 12588 net.cpp:157] Top shape: 30 98 (2940)
I0522 11:49:07.799072 12588 net.cpp:165] Memory required for data: 47360760
I0522 11:49:07.799082 12588 layer_factory.hpp:77] Creating layer ip3
I0522 11:49:07.799095 12588 net.cpp:106] Creating Layer ip3
I0522 11:49:07.799104 12588 net.cpp:454] ip3 <- ip2
I0522 11:49:07.799118 12588 net.cpp:411] ip3 -> ip3
I0522 11:49:07.799327 12588 net.cpp:150] Setting up ip3
I0522 11:49:07.799340 12588 net.cpp:157] Top shape: 30 11 (330)
I0522 11:49:07.799350 12588 net.cpp:165] Memory required for data: 47362080
I0522 11:49:07.799365 12588 layer_factory.hpp:77] Creating layer drop3
I0522 11:49:07.799378 12588 net.cpp:106] Creating Layer drop3
I0522 11:49:07.799388 12588 net.cpp:454] drop3 <- ip3
I0522 11:49:07.799401 12588 net.cpp:397] drop3 -> ip3 (in-place)
I0522 11:49:07.799440 12588 net.cpp:150] Setting up drop3
I0522 11:49:07.799453 12588 net.cpp:157] Top shape: 30 11 (330)
I0522 11:49:07.799463 12588 net.cpp:165] Memory required for data: 47363400
I0522 11:49:07.799474 12588 layer_factory.hpp:77] Creating layer loss
I0522 11:49:07.799492 12588 net.cpp:106] Creating Layer loss
I0522 11:49:07.799501 12588 net.cpp:454] loss <- ip3
I0522 11:49:07.799512 12588 net.cpp:454] loss <- label
I0522 11:49:07.799525 12588 net.cpp:411] loss -> loss
I0522 11:49:07.799542 12588 layer_factory.hpp:77] Creating layer loss
…
I0522 11:49:07.802314 12588 solver.cpp:181] Creating test net (#0) specified by net file: /lustre/atlas/proj-shared/hep105/caffe_titan/caffe_workflow/logs_bslr/bs_30_lr_0.0030_2016-05-20T15.48.59.226161.prototxt
I0522 11:49:07.802386 12588 net.cpp:322] The NetState phase (1) differed from the phase (0) specified by a rule in layer data_hdf5
I0522 11:49:07.802741 12588 net.cpp:49] Initializing net from parameters: 
name: "caffe_test_127x50_x_unshifted"
state {
  phase: TEST
}
layer {
  name: "data_hdf5"
  type: "HDF5Data"
  top: "data"
  top: "label"
  include {
    phase: TEST
  }
  hdf5_data_param {
    source: "/lustre/atlas/proj-shared/hep105/caffe_titan/minosmatch_nukecczdefs_127x50_x_unshifted_me1Bmc.testlist"
    batch_size: 30
  }
}
layer {
  name: "conv1"
  type: "Convolution"
  bottom: "data"
  top: "conv1"
  convolution_param {
    num_output: 12
    pad: 0
    stride: 1
    weight_filler {
      type: "xavier"
    }
    bias_filler {
      type: "constant"
    }
    kernel_h: 8
    kernel_w: 3
  }
}
layer {
  name: "relu1"
  type: "ReLU"
  bottom: "conv1"
  top: "conv1"
}
layer {
  name: "pool1"
  type: "Pooling"
  bottom: "conv1"
  top: "pool1"
  pooling_param {
    pool: MAX
    kernel_h: 2
    kernel_w: 1
    stride_h: 2
    stride_w: 1
  }
}
layer {
  name: "conv2"
  type: "Convolution"
  bottom: "pool1"
  top: "conv2"
  convolution_param {
    num_output: 20
    pad: 0
    stride: 1
    weight_filler {
      type: "xavier"
    }
    bias_filler {
      type: "constant"
    }
    kernel_h: 7
    kernel_w: 3
  }
}
layer {
  name: "relu2"
  type: "ReLU"
  bottom: "conv2"
  top: "conv2"
}
layer {
  name: "pool2"
  type: "Pooling"
  bottom: "conv2"
  top: "pool2"
  pooling_param {
    pool: MAX
    kernel_h: 2
    kernel_w: 1
    stride_h: 2
    stride_w: 1
  }
}
layer {
  name: "conv3"
  type: "Convolution"
  bottom: "pool2"
  top: "conv3"
  convolution_param {
    num_output: 28
    pad: 0
    stride: 1
    weight_filler {
      type: "xavier"
    }
    bias_filler {
      type: "constant"
    }
    kernel_h: 6
    kernel_w: 3
  }
}
layer {
  name: "relu3"
  type: "ReLU"
  bottom: "conv3"
  top: "conv3"
}
layer {
  name: "pool3"
  type: "Pooling"
  bottom: "conv3"
  top: "pool3"
  pooling_param {
    pool: MAX
    kernel_h: 2
    kernel_w: 1
    stride_h: 2
    stride_w: 1
  }
}
layer {
  name: "conv4"
  type: "Convolution"
  bottom: "pool3"
  top: "conv4"
  convolution_param {
    num_output: 36
    pad: 0
    stride: 1
    weight_filler {
      type: "xavier"
    }
    bias_filler {
      type: "constant"
    }
    kernel_h: 6
    kernel_w: 3
  }
}
layer {
  name: "relu4"
  type: "ReLU"
  bottom: "conv4"
  top: "conv4"
}
layer {
  name: "pool4"
  type: "Pooling"
  bottom: "conv4"
  top: "pool4"
  pooling_param {
    pool: MAX
    kernel_h: 2
    kernel_w: 1
    stride_h: 2
    stride_w: 1
  }
}
layer {
  name: "ip1"
  type: "InnerProduct"
  bottom: "pool4"
  top: "ip1"
  inner_product_param {
    num_output: 196
    weight_filler {
      type: "xavier"
    }
    bias_filler {
      type: "constant"
    }
  }
}
layer {
  name: "relu5"
  type: "ReLU"
  bottom: "ip1"
  top: "ip1"
}
layer {
  name: "drop1"
  type: "Dropout"
  bottom: "ip1"
  top: "ip1"
  dropout_param {
    dropout_ratio: 0.5
  }
}
layer {
  name: "ip2"
  type: "InnerProduct"
  bottom: "ip1"
  top: "ip2"
  inner_product_param {
    num_output: 98
    weight_filler {
      type: "xavier"
    }
    bias_filler {
      type: "constant"
    }
  }
}
layer {
  name: "relu6"
  type: "ReLU"
  bottom: "ip2"
  top: "ip2"
}
layer {
  name: "drop2"
  type: "Dropout"
  bottom: "ip2"
  top: "ip2"
  dropout_param {
    dropout_ratio: 0.5
  }
}
layer {
  name: "ip3"
  type: "InnerProduct"
  bottom: "ip2"
  top: "ip3"
  inner_product_param {
    num_output: 11
    weight_filler {
      type: "xavier"
    }
    bias_filler {
      type: "constant"
    }
  }
}
layer {
  name: "drop3"
  type: "Dropout"
  bottom: "ip3"
  top: "ip3"
  dropout_param {
    dropout_ratio: 0.5
  }
}
layer {
  name: "accuracy"
  type: "Accuracy"
  bottom: "ip3"
  bottom: "label"
  top: "accuracy"
  include {
    phase: TEST
  }
}
layer {
  name: "loss"
  type: "SoftmaxWithLoss"
  bottom: "ip3"
  bottom: "label"
  top: "loss"
}
I0522 11:49:07.802927 12588 layer_factory.hpp:77] Creating layer data_hdf5
I0522 11:49:07.802942 12588 net.cpp:106] Creating Layer data_hdf5
I0522 11:49:07.802955 12588 net.cpp:411] data_hdf5 -> data
I0522 11:49:07.802971 12588 net.cpp:411] data_hdf5 -> label
I0522 11:49:07.802986 12588 hdf5_data_layer.cpp:79] Loading list of HDF5 filenames from: /lustre/atlas/proj-shared/hep105/caffe_titan/minosmatch_nukecczdefs_127x50_x_unshifted_me1Bmc.testlist
I0522 11:49:07.814856 12588 hdf5_data_layer.cpp:93] Number of HDF5 files: 3
I0522 11:49:29.219735 12588 net.cpp:150] Setting up data_hdf5
I0522 11:49:29.219899 12588 net.cpp:157] Top shape: 30 1 127 50 (190500)
I0522 11:49:29.219914 12588 net.cpp:157] Top shape: 30 (30)
I0522 11:49:29.219926 12588 net.cpp:165] Memory required for data: 762120
I0522 11:49:29.219939 12588 layer_factory.hpp:77] Creating layer label_data_hdf5_1_split
I0522 11:49:29.219966 12588 net.cpp:106] Creating Layer label_data_hdf5_1_split
I0522 11:49:29.219977 12588 net.cpp:454] label_data_hdf5_1_split <- label
I0522 11:49:29.219992 12588 net.cpp:411] label_data_hdf5_1_split -> label_data_hdf5_1_split_0
I0522 11:49:29.220015 12588 net.cpp:411] label_data_hdf5_1_split -> label_data_hdf5_1_split_1
I0522 11:49:29.220087 12588 net.cpp:150] Setting up label_data_hdf5_1_split
I0522 11:49:29.220100 12588 net.cpp:157] Top shape: 30 (30)
I0522 11:49:29.220113 12588 net.cpp:157] Top shape: 30 (30)
I0522 11:49:29.220121 12588 net.cpp:165] Memory required for data: 762360
I0522 11:49:29.220131 12588 layer_factory.hpp:77] Creating layer conv1
I0522 11:49:29.220154 12588 net.cpp:106] Creating Layer conv1
I0522 11:49:29.220165 12588 net.cpp:454] conv1 <- data
I0522 11:49:29.220178 12588 net.cpp:411] conv1 -> conv1
I0522 11:49:29.222106 12588 net.cpp:150] Setting up conv1
I0522 11:49:29.222131 12588 net.cpp:157] Top shape: 30 12 120 48 (2073600)
I0522 11:49:29.222141 12588 net.cpp:165] Memory required for data: 9056760
I0522 11:49:29.222162 12588 layer_factory.hpp:77] Creating layer relu1
I0522 11:49:29.222177 12588 net.cpp:106] Creating Layer relu1
I0522 11:49:29.222187 12588 net.cpp:454] relu1 <- conv1
I0522 11:49:29.222200 12588 net.cpp:397] relu1 -> conv1 (in-place)
I0522 11:49:29.222702 12588 net.cpp:150] Setting up relu1
I0522 11:49:29.222718 12588 net.cpp:157] Top shape: 30 12 120 48 (2073600)
I0522 11:49:29.222728 12588 net.cpp:165] Memory required for data: 17351160
I0522 11:49:29.222738 12588 layer_factory.hpp:77] Creating layer pool1
I0522 11:49:29.222754 12588 net.cpp:106] Creating Layer pool1
I0522 11:49:29.222764 12588 net.cpp:454] pool1 <- conv1
I0522 11:49:29.222777 12588 net.cpp:411] pool1 -> pool1
I0522 11:49:29.222852 12588 net.cpp:150] Setting up pool1
I0522 11:49:29.222865 12588 net.cpp:157] Top shape: 30 12 60 48 (1036800)
I0522 11:49:29.222875 12588 net.cpp:165] Memory required for data: 21498360
I0522 11:49:29.222884 12588 layer_factory.hpp:77] Creating layer conv2
I0522 11:49:29.222903 12588 net.cpp:106] Creating Layer conv2
I0522 11:49:29.222913 12588 net.cpp:454] conv2 <- pool1
I0522 11:49:29.222926 12588 net.cpp:411] conv2 -> conv2
I0522 11:49:29.224838 12588 net.cpp:150] Setting up conv2
I0522 11:49:29.224860 12588 net.cpp:157] Top shape: 30 20 54 46 (1490400)
I0522 11:49:29.224872 12588 net.cpp:165] Memory required for data: 27459960
I0522 11:49:29.224890 12588 layer_factory.hpp:77] Creating layer relu2
I0522 11:49:29.224905 12588 net.cpp:106] Creating Layer relu2
I0522 11:49:29.224915 12588 net.cpp:454] relu2 <- conv2
I0522 11:49:29.224926 12588 net.cpp:397] relu2 -> conv2 (in-place)
I0522 11:49:29.225257 12588 net.cpp:150] Setting up relu2
I0522 11:49:29.225271 12588 net.cpp:157] Top shape: 30 20 54 46 (1490400)
I0522 11:49:29.225281 12588 net.cpp:165] Memory required for data: 33421560
I0522 11:49:29.225291 12588 layer_factory.hpp:77] Creating layer pool2
I0522 11:49:29.225304 12588 net.cpp:106] Creating Layer pool2
I0522 11:49:29.225314 12588 net.cpp:454] pool2 <- conv2
I0522 11:49:29.225327 12588 net.cpp:411] pool2 -> pool2
I0522 11:49:29.225399 12588 net.cpp:150] Setting up pool2
I0522 11:49:29.225412 12588 net.cpp:157] Top shape: 30 20 27 46 (745200)
I0522 11:49:29.225421 12588 net.cpp:165] Memory required for data: 36402360
I0522 11:49:29.225431 12588 layer_factory.hpp:77] Creating layer conv3
I0522 11:49:29.225450 12588 net.cpp:106] Creating Layer conv3
I0522 11:49:29.225460 12588 net.cpp:454] conv3 <- pool2
I0522 11:49:29.225473 12588 net.cpp:411] conv3 -> conv3
I0522 11:49:29.227452 12588 net.cpp:150] Setting up conv3
I0522 11:49:29.227475 12588 net.cpp:157] Top shape: 30 28 22 44 (813120)
I0522 11:49:29.227488 12588 net.cpp:165] Memory required for data: 39654840
I0522 11:49:29.227519 12588 layer_factory.hpp:77] Creating layer relu3
I0522 11:49:29.227533 12588 net.cpp:106] Creating Layer relu3
I0522 11:49:29.227543 12588 net.cpp:454] relu3 <- conv3
I0522 11:49:29.227556 12588 net.cpp:397] relu3 -> conv3 (in-place)
I0522 11:49:29.228026 12588 net.cpp:150] Setting up relu3
I0522 11:49:29.228041 12588 net.cpp:157] Top shape: 30 28 22 44 (813120)
I0522 11:49:29.228052 12588 net.cpp:165] Memory required for data: 42907320
I0522 11:49:29.228061 12588 layer_factory.hpp:77] Creating layer pool3
I0522 11:49:29.228075 12588 net.cpp:106] Creating Layer pool3
I0522 11:49:29.228085 12588 net.cpp:454] pool3 <- conv3
I0522 11:49:29.228097 12588 net.cpp:411] pool3 -> pool3
I0522 11:49:29.228169 12588 net.cpp:150] Setting up pool3
I0522 11:49:29.228183 12588 net.cpp:157] Top shape: 30 28 11 44 (406560)
I0522 11:49:29.228191 12588 net.cpp:165] Memory required for data: 44533560
I0522 11:49:29.228202 12588 layer_factory.hpp:77] Creating layer conv4
I0522 11:49:29.228219 12588 net.cpp:106] Creating Layer conv4
I0522 11:49:29.228230 12588 net.cpp:454] conv4 <- pool3
I0522 11:49:29.228245 12588 net.cpp:411] conv4 -> conv4
I0522 11:49:29.230314 12588 net.cpp:150] Setting up conv4
I0522 11:49:29.230336 12588 net.cpp:157] Top shape: 30 36 6 42 (272160)
I0522 11:49:29.230350 12588 net.cpp:165] Memory required for data: 45622200
I0522 11:49:29.230365 12588 layer_factory.hpp:77] Creating layer relu4
I0522 11:49:29.230377 12588 net.cpp:106] Creating Layer relu4
I0522 11:49:29.230388 12588 net.cpp:454] relu4 <- conv4
I0522 11:49:29.230401 12588 net.cpp:397] relu4 -> conv4 (in-place)
I0522 11:49:29.230871 12588 net.cpp:150] Setting up relu4
I0522 11:49:29.230887 12588 net.cpp:157] Top shape: 30 36 6 42 (272160)
I0522 11:49:29.230897 12588 net.cpp:165] Memory required for data: 46710840
I0522 11:49:29.230907 12588 layer_factory.hpp:77] Creating layer pool4
I0522 11:49:29.230921 12588 net.cpp:106] Creating Layer pool4
I0522 11:49:29.230931 12588 net.cpp:454] pool4 <- conv4
I0522 11:49:29.230944 12588 net.cpp:411] pool4 -> pool4
I0522 11:49:29.231015 12588 net.cpp:150] Setting up pool4
I0522 11:49:29.231029 12588 net.cpp:157] Top shape: 30 36 3 42 (136080)
I0522 11:49:29.231039 12588 net.cpp:165] Memory required for data: 47255160
I0522 11:49:29.231048 12588 layer_factory.hpp:77] Creating layer ip1
I0522 11:49:29.231061 12588 net.cpp:106] Creating Layer ip1
I0522 11:49:29.231072 12588 net.cpp:454] ip1 <- pool4
I0522 11:49:29.231086 12588 net.cpp:411] ip1 -> ip1
I0522 11:49:29.246573 12588 net.cpp:150] Setting up ip1
I0522 11:49:29.246600 12588 net.cpp:157] Top shape: 30 196 (5880)
I0522 11:49:29.246615 12588 net.cpp:165] Memory required for data: 47278680
I0522 11:49:29.246637 12588 layer_factory.hpp:77] Creating layer relu5
I0522 11:49:29.246651 12588 net.cpp:106] Creating Layer relu5
I0522 11:49:29.246662 12588 net.cpp:454] relu5 <- ip1
I0522 11:49:29.246675 12588 net.cpp:397] relu5 -> ip1 (in-place)
I0522 11:49:29.247020 12588 net.cpp:150] Setting up relu5
I0522 11:49:29.247035 12588 net.cpp:157] Top shape: 30 196 (5880)
I0522 11:49:29.247045 12588 net.cpp:165] Memory required for data: 47302200
I0522 11:49:29.247054 12588 layer_factory.hpp:77] Creating layer drop1
I0522 11:49:29.247073 12588 net.cpp:106] Creating Layer drop1
I0522 11:49:29.247083 12588 net.cpp:454] drop1 <- ip1
I0522 11:49:29.247097 12588 net.cpp:397] drop1 -> ip1 (in-place)
I0522 11:49:29.247143 12588 net.cpp:150] Setting up drop1
I0522 11:49:29.247155 12588 net.cpp:157] Top shape: 30 196 (5880)
I0522 11:49:29.247164 12588 net.cpp:165] Memory required for data: 47325720
I0522 11:49:29.247174 12588 layer_factory.hpp:77] Creating layer ip2
I0522 11:49:29.247189 12588 net.cpp:106] Creating Layer ip2
I0522 11:49:29.247198 12588 net.cpp:454] ip2 <- ip1
I0522 11:49:29.247212 12588 net.cpp:411] ip2 -> ip2
I0522 11:49:29.247689 12588 net.cpp:150] Setting up ip2
I0522 11:49:29.247704 12588 net.cpp:157] Top shape: 30 98 (2940)
I0522 11:49:29.247714 12588 net.cpp:165] Memory required for data: 47337480
I0522 11:49:29.247728 12588 layer_factory.hpp:77] Creating layer relu6
I0522 11:49:29.247753 12588 net.cpp:106] Creating Layer relu6
I0522 11:49:29.247763 12588 net.cpp:454] relu6 <- ip2
I0522 11:49:29.247778 12588 net.cpp:397] relu6 -> ip2 (in-place)
I0522 11:49:29.248311 12588 net.cpp:150] Setting up relu6
I0522 11:49:29.248327 12588 net.cpp:157] Top shape: 30 98 (2940)
I0522 11:49:29.248337 12588 net.cpp:165] Memory required for data: 47349240
I0522 11:49:29.248347 12588 layer_factory.hpp:77] Creating layer drop2
I0522 11:49:29.248360 12588 net.cpp:106] Creating Layer drop2
I0522 11:49:29.248370 12588 net.cpp:454] drop2 <- ip2
I0522 11:49:29.248383 12588 net.cpp:397] drop2 -> ip2 (in-place)
I0522 11:49:29.248427 12588 net.cpp:150] Setting up drop2
I0522 11:49:29.248440 12588 net.cpp:157] Top shape: 30 98 (2940)
I0522 11:49:29.248450 12588 net.cpp:165] Memory required for data: 47361000
I0522 11:49:29.248459 12588 layer_factory.hpp:77] Creating layer ip3
I0522 11:49:29.248473 12588 net.cpp:106] Creating Layer ip3
I0522 11:49:29.248483 12588 net.cpp:454] ip3 <- ip2
I0522 11:49:29.248497 12588 net.cpp:411] ip3 -> ip3
I0522 11:49:29.248719 12588 net.cpp:150] Setting up ip3
I0522 11:49:29.248733 12588 net.cpp:157] Top shape: 30 11 (330)
I0522 11:49:29.248742 12588 net.cpp:165] Memory required for data: 47362320
I0522 11:49:29.248757 12588 layer_factory.hpp:77] Creating layer drop3
I0522 11:49:29.248770 12588 net.cpp:106] Creating Layer drop3
I0522 11:49:29.248780 12588 net.cpp:454] drop3 <- ip3
I0522 11:49:29.248793 12588 net.cpp:397] drop3 -> ip3 (in-place)
I0522 11:49:29.248834 12588 net.cpp:150] Setting up drop3
I0522 11:49:29.248847 12588 net.cpp:157] Top shape: 30 11 (330)
I0522 11:49:29.248857 12588 net.cpp:165] Memory required for data: 47363640
I0522 11:49:29.248865 12588 layer_factory.hpp:77] Creating layer ip3_drop3_0_split
I0522 11:49:29.248879 12588 net.cpp:106] Creating Layer ip3_drop3_0_split
I0522 11:49:29.248888 12588 net.cpp:454] ip3_drop3_0_split <- ip3
I0522 11:49:29.248901 12588 net.cpp:411] ip3_drop3_0_split -> ip3_drop3_0_split_0
I0522 11:49:29.248916 12588 net.cpp:411] ip3_drop3_0_split -> ip3_drop3_0_split_1
I0522 11:49:29.248989 12588 net.cpp:150] Setting up ip3_drop3_0_split
I0522 11:49:29.249002 12588 net.cpp:157] Top shape: 30 11 (330)
I0522 11:49:29.249014 12588 net.cpp:157] Top shape: 30 11 (330)
I0522 11:49:29.249024 12588 net.cpp:165] Memory required for data: 47366280
I0522 11:49:29.249037 12588 layer_factory.hpp:77] Creating layer accuracy
I0522 11:49:29.249058 12588 net.cpp:106] Creating Layer accuracy
I0522 11:49:29.249068 12588 net.cpp:454] accuracy <- ip3_drop3_0_split_0
I0522 11:49:29.249079 12588 net.cpp:454] accuracy <- label_data_hdf5_1_split_0
I0522 11:49:29.249092 12588 net.cpp:411] accuracy -> accuracy
…
