…
I0522 08:06:38.819869 10501 net.cpp:322] The NetState phase (0) differed from the phase (1) specified by a rule in layer data_hdf5
I0522 08:06:38.819927 10501 net.cpp:322] The NetState phase (0) differed from the phase (1) specified by a rule in layer accuracy
I0522 08:06:38.820276 10501 net.cpp:49] Initializing net from parameters: 
name: "caffe_test_127x50_x_unshifted"
state {
  phase: TRAIN
}
layer {
  name: "data_hdf5"
  type: "HDF5Data"
  top: "data"
  top: "label"
  include {
    phase: TRAIN
  }
  hdf5_data_param {
    source: "/lustre/atlas/proj-shared/hep105/caffe_titan/minosmatch_nukecczdefs_127x50_x_unshifted_me1Bmc.trainlist"
    batch_size: 30
  }
}
layer {
  name: "conv1"
  type: "Convolution"
  bottom: "data"
  top: "conv1"
  convolution_param {
    num_output: 12
    pad: 0
    stride: 1
    weight_filler {
      type: "xavier"
    }
    bias_filler {
      type: "constant"
    }
    kernel_h: 8
    kernel_w: 3
  }
}
layer {
  name: "relu1"
  type: "ReLU"
  bottom: "conv1"
  top: "conv1"
}
layer {
  name: "pool1"
  type: "Pooling"
  bottom: "conv1"
  top: "pool1"
  pooling_param {
    pool: MAX
    kernel_h: 2
    kernel_w: 1
    stride_h: 2
    stride_w: 1
  }
}
layer {
  name: "conv2"
  type: "Convolution"
  bottom: "pool1"
  top: "conv2"
  convolution_param {
    num_output: 20
    pad: 0
    stride: 1
    weight_filler {
      type: "xavier"
    }
    bias_filler {
      type: "constant"
    }
    kernel_h: 7
    kernel_w: 3
  }
}
layer {
  name: "relu2"
  type: "ReLU"
  bottom: "conv2"
  top: "conv2"
}
layer {
  name: "pool2"
  type: "Pooling"
  bottom: "conv2"
  top: "pool2"
  pooling_param {
    pool: MAX
    kernel_h: 2
    kernel_w: 1
    stride_h: 2
    stride_w: 1
  }
}
layer {
  name: "conv3"
  type: "Convolution"
  bottom: "pool2"
  top: "conv3"
  convolution_param {
    num_output: 28
    pad: 0
    stride: 1
    weight_filler {
      type: "xavier"
    }
    bias_filler {
      type: "constant"
    }
    kernel_h: 6
    kernel_w: 3
  }
}
layer {
  name: "relu3"
  type: "ReLU"
  bottom: "conv3"
  top: "conv3"
}
layer {
  name: "pool3"
  type: "Pooling"
  bottom: "conv3"
  top: "pool3"
  pooling_param {
    pool: MAX
    kernel_h: 2
    kernel_w: 1
    stride_h: 2
    stride_w: 1
  }
}
layer {
  name: "conv4"
  type: "Convolution"
  bottom: "pool3"
  top: "conv4"
  convolution_param {
    num_output: 36
    pad: 0
    stride: 1
    weight_filler {
      type: "xavier"
    }
    bias_filler {
      type: "constant"
    }
    kernel_h: 6
    kernel_w: 3
  }
}
layer {
  name: "relu4"
  type: "ReLU"
  bottom: "conv4"
  top: "conv4"
}
layer {
  name: "pool4"
  type: "Pooling"
  bottom: "conv4"
  top: "pool4"
  pooling_param {
    pool: MAX
    kernel_h: 2
    kernel_w: 1
    stride_h: 2
    stride_w: 1
  }
}
layer {
  name: "ip1"
  type: "InnerProduct"
  bottom: "pool4"
  top: "ip1"
  inner_product_param {
    num_output: 196
    weight_filler {
      type: "xavier"
    }
    bias_filler {
      type: "constant"
    }
  }
}
layer {
  name: "relu5"
  type: "ReLU"
  bottom: "ip1"
  top: "ip1"
}
layer {
  name: "drop1"
  type: "Dropout"
  bottom: "ip1"
  top: "ip1"
  dropout_param {
    dropout_ratio: 0.5
  }
}
layer {
  name: "ip2"
  type: "InnerProduct"
  bottom: "ip1"
  top: "ip2"
  inner_product_param {
    num_output: 98
    weight_filler {
      type: "xavier"
    }
    bias_filler {
      type: "constant"
    }
  }
}
layer {
  name: "relu6"
  type: "ReLU"
  bottom: "ip2"
  top: "ip2"
}
layer {
  name: "drop2"
  type: "Dropout"
  bottom: "ip2"
  top: "ip2"
  dropout_param {
    dropout_ratio: 0.5
  }
}
layer {
  name: "ip3"
  type: "InnerProduct"
  bottom: "ip2"
  top: "ip3"
  inner_product_param {
    num_output: 11
    weight_filler {
      type: "xavier"
    }
    bias_filler {
      type: "constant"
    }
  }
}
layer {
  name: "drop3"
  type: "Dropout"
  bottom: "ip3"
  top: "ip3"
  dropout_param {
    dropout_ratio: 0.5
  }
}
layer {
  name: "loss"
  type: "SoftmaxWithLoss"
  bottom: "ip3"
  bottom: "label"
  top: "loss"
}
I0522 08:06:38.820458 10501 layer_factory.hpp:77] Creating layer data_hdf5
I0522 08:06:38.820482 10501 net.cpp:106] Creating Layer data_hdf5
I0522 08:06:38.820497 10501 net.cpp:411] data_hdf5 -> data
I0522 08:06:38.820529 10501 net.cpp:411] data_hdf5 -> label
I0522 08:06:38.820561 10501 hdf5_data_layer.cpp:79] Loading list of HDF5 filenames from: /lustre/atlas/proj-shared/hep105/caffe_titan/minosmatch_nukecczdefs_127x50_x_unshifted_me1Bmc.trainlist
I0522 08:06:38.821888 10501 hdf5_data_layer.cpp:93] Number of HDF5 files: 15
I0522 08:06:38.824203 10501 hdf5.cpp:32] Datatype class: H5T_FLOAT
I0522 08:07:00.377770 10501 hdf5.cpp:35] Datatype class: H5T_INTEGER
I0522 08:07:00.383033 10501 net.cpp:150] Setting up data_hdf5
I0522 08:07:00.383077 10501 net.cpp:157] Top shape: 30 1 127 50 (190500)
I0522 08:07:00.383092 10501 net.cpp:157] Top shape: 30 (30)
I0522 08:07:00.383103 10501 net.cpp:165] Memory required for data: 762120
I0522 08:07:00.383116 10501 layer_factory.hpp:77] Creating layer conv1
I0522 08:07:00.383150 10501 net.cpp:106] Creating Layer conv1
I0522 08:07:00.383162 10501 net.cpp:454] conv1 <- data
I0522 08:07:00.383184 10501 net.cpp:411] conv1 -> conv1
I0522 08:07:00.749903 10501 net.cpp:150] Setting up conv1
I0522 08:07:00.749948 10501 net.cpp:157] Top shape: 30 12 120 48 (2073600)
I0522 08:07:00.749958 10501 net.cpp:165] Memory required for data: 9056520
I0522 08:07:00.749986 10501 layer_factory.hpp:77] Creating layer relu1
I0522 08:07:00.750008 10501 net.cpp:106] Creating Layer relu1
I0522 08:07:00.750020 10501 net.cpp:454] relu1 <- conv1
I0522 08:07:00.750032 10501 net.cpp:397] relu1 -> conv1 (in-place)
I0522 08:07:00.750548 10501 net.cpp:150] Setting up relu1
I0522 08:07:00.750565 10501 net.cpp:157] Top shape: 30 12 120 48 (2073600)
I0522 08:07:00.750576 10501 net.cpp:165] Memory required for data: 17350920
I0522 08:07:00.750586 10501 layer_factory.hpp:77] Creating layer pool1
I0522 08:07:00.750602 10501 net.cpp:106] Creating Layer pool1
I0522 08:07:00.750613 10501 net.cpp:454] pool1 <- conv1
I0522 08:07:00.750627 10501 net.cpp:411] pool1 -> pool1
I0522 08:07:00.750707 10501 net.cpp:150] Setting up pool1
I0522 08:07:00.750721 10501 net.cpp:157] Top shape: 30 12 60 48 (1036800)
I0522 08:07:00.750730 10501 net.cpp:165] Memory required for data: 21498120
I0522 08:07:00.750741 10501 layer_factory.hpp:77] Creating layer conv2
I0522 08:07:00.750764 10501 net.cpp:106] Creating Layer conv2
I0522 08:07:00.750774 10501 net.cpp:454] conv2 <- pool1
I0522 08:07:00.750787 10501 net.cpp:411] conv2 -> conv2
I0522 08:07:00.753486 10501 net.cpp:150] Setting up conv2
I0522 08:07:00.753515 10501 net.cpp:157] Top shape: 30 20 54 46 (1490400)
I0522 08:07:00.753527 10501 net.cpp:165] Memory required for data: 27459720
I0522 08:07:00.753548 10501 layer_factory.hpp:77] Creating layer relu2
I0522 08:07:00.753563 10501 net.cpp:106] Creating Layer relu2
I0522 08:07:00.753573 10501 net.cpp:454] relu2 <- conv2
I0522 08:07:00.753587 10501 net.cpp:397] relu2 -> conv2 (in-place)
I0522 08:07:00.753917 10501 net.cpp:150] Setting up relu2
I0522 08:07:00.753931 10501 net.cpp:157] Top shape: 30 20 54 46 (1490400)
I0522 08:07:00.753942 10501 net.cpp:165] Memory required for data: 33421320
I0522 08:07:00.753952 10501 layer_factory.hpp:77] Creating layer pool2
I0522 08:07:00.753965 10501 net.cpp:106] Creating Layer pool2
I0522 08:07:00.753975 10501 net.cpp:454] pool2 <- conv2
I0522 08:07:00.753988 10501 net.cpp:411] pool2 -> pool2
I0522 08:07:00.754070 10501 net.cpp:150] Setting up pool2
I0522 08:07:00.754082 10501 net.cpp:157] Top shape: 30 20 27 46 (745200)
I0522 08:07:00.754092 10501 net.cpp:165] Memory required for data: 36402120
I0522 08:07:00.754102 10501 layer_factory.hpp:77] Creating layer conv3
I0522 08:07:00.754118 10501 net.cpp:106] Creating Layer conv3
I0522 08:07:00.754128 10501 net.cpp:454] conv3 <- pool2
I0522 08:07:00.754142 10501 net.cpp:411] conv3 -> conv3
I0522 08:07:00.756114 10501 net.cpp:150] Setting up conv3
I0522 08:07:00.756137 10501 net.cpp:157] Top shape: 30 28 22 44 (813120)
I0522 08:07:00.756150 10501 net.cpp:165] Memory required for data: 39654600
I0522 08:07:00.756168 10501 layer_factory.hpp:77] Creating layer relu3
I0522 08:07:00.756184 10501 net.cpp:106] Creating Layer relu3
I0522 08:07:00.756194 10501 net.cpp:454] relu3 <- conv3
I0522 08:07:00.756206 10501 net.cpp:397] relu3 -> conv3 (in-place)
I0522 08:07:00.756675 10501 net.cpp:150] Setting up relu3
I0522 08:07:00.756692 10501 net.cpp:157] Top shape: 30 28 22 44 (813120)
I0522 08:07:00.756702 10501 net.cpp:165] Memory required for data: 42907080
I0522 08:07:00.756713 10501 layer_factory.hpp:77] Creating layer pool3
I0522 08:07:00.756726 10501 net.cpp:106] Creating Layer pool3
I0522 08:07:00.756736 10501 net.cpp:454] pool3 <- conv3
I0522 08:07:00.756748 10501 net.cpp:411] pool3 -> pool3
I0522 08:07:00.756816 10501 net.cpp:150] Setting up pool3
I0522 08:07:00.756829 10501 net.cpp:157] Top shape: 30 28 11 44 (406560)
I0522 08:07:00.756839 10501 net.cpp:165] Memory required for data: 44533320
I0522 08:07:00.756849 10501 layer_factory.hpp:77] Creating layer conv4
I0522 08:07:00.756863 10501 net.cpp:106] Creating Layer conv4
I0522 08:07:00.756873 10501 net.cpp:454] conv4 <- pool3
I0522 08:07:00.756888 10501 net.cpp:411] conv4 -> conv4
I0522 08:07:00.759603 10501 net.cpp:150] Setting up conv4
I0522 08:07:00.759632 10501 net.cpp:157] Top shape: 30 36 6 42 (272160)
I0522 08:07:00.759651 10501 net.cpp:165] Memory required for data: 45621960
I0522 08:07:00.759668 10501 layer_factory.hpp:77] Creating layer relu4
I0522 08:07:00.759682 10501 net.cpp:106] Creating Layer relu4
I0522 08:07:00.759693 10501 net.cpp:454] relu4 <- conv4
I0522 08:07:00.759706 10501 net.cpp:397] relu4 -> conv4 (in-place)
I0522 08:07:00.760174 10501 net.cpp:150] Setting up relu4
I0522 08:07:00.760190 10501 net.cpp:157] Top shape: 30 36 6 42 (272160)
I0522 08:07:00.760200 10501 net.cpp:165] Memory required for data: 46710600
I0522 08:07:00.760210 10501 layer_factory.hpp:77] Creating layer pool4
I0522 08:07:00.760223 10501 net.cpp:106] Creating Layer pool4
I0522 08:07:00.760233 10501 net.cpp:454] pool4 <- conv4
I0522 08:07:00.760246 10501 net.cpp:411] pool4 -> pool4
I0522 08:07:00.760314 10501 net.cpp:150] Setting up pool4
I0522 08:07:00.760329 10501 net.cpp:157] Top shape: 30 36 3 42 (136080)
I0522 08:07:00.760339 10501 net.cpp:165] Memory required for data: 47254920
I0522 08:07:00.760349 10501 layer_factory.hpp:77] Creating layer ip1
I0522 08:07:00.760370 10501 net.cpp:106] Creating Layer ip1
I0522 08:07:00.760380 10501 net.cpp:454] ip1 <- pool4
I0522 08:07:00.760393 10501 net.cpp:411] ip1 -> ip1
I0522 08:07:00.775842 10501 net.cpp:150] Setting up ip1
I0522 08:07:00.775871 10501 net.cpp:157] Top shape: 30 196 (5880)
I0522 08:07:00.775887 10501 net.cpp:165] Memory required for data: 47278440
I0522 08:07:00.775913 10501 layer_factory.hpp:77] Creating layer relu5
I0522 08:07:00.775928 10501 net.cpp:106] Creating Layer relu5
I0522 08:07:00.775938 10501 net.cpp:454] relu5 <- ip1
I0522 08:07:00.775951 10501 net.cpp:397] relu5 -> ip1 (in-place)
I0522 08:07:00.776293 10501 net.cpp:150] Setting up relu5
I0522 08:07:00.776306 10501 net.cpp:157] Top shape: 30 196 (5880)
I0522 08:07:00.776317 10501 net.cpp:165] Memory required for data: 47301960
I0522 08:07:00.776327 10501 layer_factory.hpp:77] Creating layer drop1
I0522 08:07:00.776348 10501 net.cpp:106] Creating Layer drop1
I0522 08:07:00.776360 10501 net.cpp:454] drop1 <- ip1
I0522 08:07:00.776371 10501 net.cpp:397] drop1 -> ip1 (in-place)
I0522 08:07:00.776430 10501 net.cpp:150] Setting up drop1
I0522 08:07:00.776444 10501 net.cpp:157] Top shape: 30 196 (5880)
I0522 08:07:00.776453 10501 net.cpp:165] Memory required for data: 47325480
I0522 08:07:00.776464 10501 layer_factory.hpp:77] Creating layer ip2
I0522 08:07:00.776481 10501 net.cpp:106] Creating Layer ip2
I0522 08:07:00.776491 10501 net.cpp:454] ip2 <- ip1
I0522 08:07:00.776504 10501 net.cpp:411] ip2 -> ip2
I0522 08:07:00.776995 10501 net.cpp:150] Setting up ip2
I0522 08:07:00.777009 10501 net.cpp:157] Top shape: 30 98 (2940)
I0522 08:07:00.777019 10501 net.cpp:165] Memory required for data: 47337240
I0522 08:07:00.777034 10501 layer_factory.hpp:77] Creating layer relu6
I0522 08:07:00.777046 10501 net.cpp:106] Creating Layer relu6
I0522 08:07:00.777056 10501 net.cpp:454] relu6 <- ip2
I0522 08:07:00.777068 10501 net.cpp:397] relu6 -> ip2 (in-place)
I0522 08:07:00.777590 10501 net.cpp:150] Setting up relu6
I0522 08:07:00.777607 10501 net.cpp:157] Top shape: 30 98 (2940)
I0522 08:07:00.777618 10501 net.cpp:165] Memory required for data: 47349000
I0522 08:07:00.777631 10501 layer_factory.hpp:77] Creating layer drop2
I0522 08:07:00.777643 10501 net.cpp:106] Creating Layer drop2
I0522 08:07:00.777652 10501 net.cpp:454] drop2 <- ip2
I0522 08:07:00.777665 10501 net.cpp:397] drop2 -> ip2 (in-place)
I0522 08:07:00.777707 10501 net.cpp:150] Setting up drop2
I0522 08:07:00.777720 10501 net.cpp:157] Top shape: 30 98 (2940)
I0522 08:07:00.777731 10501 net.cpp:165] Memory required for data: 47360760
I0522 08:07:00.777741 10501 layer_factory.hpp:77] Creating layer ip3
I0522 08:07:00.777755 10501 net.cpp:106] Creating Layer ip3
I0522 08:07:00.777765 10501 net.cpp:454] ip3 <- ip2
I0522 08:07:00.777777 10501 net.cpp:411] ip3 -> ip3
I0522 08:07:00.777987 10501 net.cpp:150] Setting up ip3
I0522 08:07:00.778000 10501 net.cpp:157] Top shape: 30 11 (330)
I0522 08:07:00.778009 10501 net.cpp:165] Memory required for data: 47362080
I0522 08:07:00.778025 10501 layer_factory.hpp:77] Creating layer drop3
I0522 08:07:00.778038 10501 net.cpp:106] Creating Layer drop3
I0522 08:07:00.778048 10501 net.cpp:454] drop3 <- ip3
I0522 08:07:00.778059 10501 net.cpp:397] drop3 -> ip3 (in-place)
I0522 08:07:00.778100 10501 net.cpp:150] Setting up drop3
I0522 08:07:00.778111 10501 net.cpp:157] Top shape: 30 11 (330)
I0522 08:07:00.778121 10501 net.cpp:165] Memory required for data: 47363400
I0522 08:07:00.778131 10501 layer_factory.hpp:77] Creating layer loss
I0522 08:07:00.778149 10501 net.cpp:106] Creating Layer loss
I0522 08:07:00.778159 10501 net.cpp:454] loss <- ip3
I0522 08:07:00.778170 10501 net.cpp:454] loss <- label
I0522 08:07:00.778182 10501 net.cpp:411] loss -> loss
I0522 08:07:00.778199 10501 layer_factory.hpp:77] Creating layer loss
…
I0522 08:07:00.780953 10501 solver.cpp:181] Creating test net (#0) specified by net file: /lustre/atlas/proj-shared/hep105/caffe_titan/caffe_workflow/logs_bslr/bs_30_lr_0.0015_2016-05-20T15.48.58.106821.prototxt
I0522 08:07:00.781024 10501 net.cpp:322] The NetState phase (1) differed from the phase (0) specified by a rule in layer data_hdf5
I0522 08:07:00.781381 10501 net.cpp:49] Initializing net from parameters: 
name: "caffe_test_127x50_x_unshifted"
state {
  phase: TEST
}
layer {
  name: "data_hdf5"
  type: "HDF5Data"
  top: "data"
  top: "label"
  include {
    phase: TEST
  }
  hdf5_data_param {
    source: "/lustre/atlas/proj-shared/hep105/caffe_titan/minosmatch_nukecczdefs_127x50_x_unshifted_me1Bmc.testlist"
    batch_size: 30
  }
}
layer {
  name: "conv1"
  type: "Convolution"
  bottom: "data"
  top: "conv1"
  convolution_param {
    num_output: 12
    pad: 0
    stride: 1
    weight_filler {
      type: "xavier"
    }
    bias_filler {
      type: "constant"
    }
    kernel_h: 8
    kernel_w: 3
  }
}
layer {
  name: "relu1"
  type: "ReLU"
  bottom: "conv1"
  top: "conv1"
}
layer {
  name: "pool1"
  type: "Pooling"
  bottom: "conv1"
  top: "pool1"
  pooling_param {
    pool: MAX
    kernel_h: 2
    kernel_w: 1
    stride_h: 2
    stride_w: 1
  }
}
layer {
  name: "conv2"
  type: "Convolution"
  bottom: "pool1"
  top: "conv2"
  convolution_param {
    num_output: 20
    pad: 0
    stride: 1
    weight_filler {
      type: "xavier"
    }
    bias_filler {
      type: "constant"
    }
    kernel_h: 7
    kernel_w: 3
  }
}
layer {
  name: "relu2"
  type: "ReLU"
  bottom: "conv2"
  top: "conv2"
}
layer {
  name: "pool2"
  type: "Pooling"
  bottom: "conv2"
  top: "pool2"
  pooling_param {
    pool: MAX
    kernel_h: 2
    kernel_w: 1
    stride_h: 2
    stride_w: 1
  }
}
layer {
  name: "conv3"
  type: "Convolution"
  bottom: "pool2"
  top: "conv3"
  convolution_param {
    num_output: 28
    pad: 0
    stride: 1
    weight_filler {
      type: "xavier"
    }
    bias_filler {
      type: "constant"
    }
    kernel_h: 6
    kernel_w: 3
  }
}
layer {
  name: "relu3"
  type: "ReLU"
  bottom: "conv3"
  top: "conv3"
}
layer {
  name: "pool3"
  type: "Pooling"
  bottom: "conv3"
  top: "pool3"
  pooling_param {
    pool: MAX
    kernel_h: 2
    kernel_w: 1
    stride_h: 2
    stride_w: 1
  }
}
layer {
  name: "conv4"
  type: "Convolution"
  bottom: "pool3"
  top: "conv4"
  convolution_param {
    num_output: 36
    pad: 0
    stride: 1
    weight_filler {
      type: "xavier"
    }
    bias_filler {
      type: "constant"
    }
    kernel_h: 6
    kernel_w: 3
  }
}
layer {
  name: "relu4"
  type: "ReLU"
  bottom: "conv4"
  top: "conv4"
}
layer {
  name: "pool4"
  type: "Pooling"
  bottom: "conv4"
  top: "pool4"
  pooling_param {
    pool: MAX
    kernel_h: 2
    kernel_w: 1
    stride_h: 2
    stride_w: 1
  }
}
layer {
  name: "ip1"
  type: "InnerProduct"
  bottom: "pool4"
  top: "ip1"
  inner_product_param {
    num_output: 196
    weight_filler {
      type: "xavier"
    }
    bias_filler {
      type: "constant"
    }
  }
}
layer {
  name: "relu5"
  type: "ReLU"
  bottom: "ip1"
  top: "ip1"
}
layer {
  name: "drop1"
  type: "Dropout"
  bottom: "ip1"
  top: "ip1"
  dropout_param {
    dropout_ratio: 0.5
  }
}
layer {
  name: "ip2"
  type: "InnerProduct"
  bottom: "ip1"
  top: "ip2"
  inner_product_param {
    num_output: 98
    weight_filler {
      type: "xavier"
    }
    bias_filler {
      type: "constant"
    }
  }
}
layer {
  name: "relu6"
  type: "ReLU"
  bottom: "ip2"
  top: "ip2"
}
layer {
  name: "drop2"
  type: "Dropout"
  bottom: "ip2"
  top: "ip2"
  dropout_param {
    dropout_ratio: 0.5
  }
}
layer {
  name: "ip3"
  type: "InnerProduct"
  bottom: "ip2"
  top: "ip3"
  inner_product_param {
    num_output: 11
    weight_filler {
      type: "xavier"
    }
    bias_filler {
      type: "constant"
    }
  }
}
layer {
  name: "drop3"
  type: "Dropout"
  bottom: "ip3"
  top: "ip3"
  dropout_param {
    dropout_ratio: 0.5
  }
}
layer {
  name: "accuracy"
  type: "Accuracy"
  bottom: "ip3"
  bottom: "label"
  top: "accuracy"
  include {
    phase: TEST
  }
}
layer {
  name: "loss"
  type: "SoftmaxWithLoss"
  bottom: "ip3"
  bottom: "label"
  top: "loss"
}
I0522 08:07:00.781571 10501 layer_factory.hpp:77] Creating layer data_hdf5
I0522 08:07:00.781587 10501 net.cpp:106] Creating Layer data_hdf5
I0522 08:07:00.781599 10501 net.cpp:411] data_hdf5 -> data
I0522 08:07:00.781615 10501 net.cpp:411] data_hdf5 -> label
I0522 08:07:00.781631 10501 hdf5_data_layer.cpp:79] Loading list of HDF5 filenames from: /lustre/atlas/proj-shared/hep105/caffe_titan/minosmatch_nukecczdefs_127x50_x_unshifted_me1Bmc.testlist
I0522 08:07:00.783114 10501 hdf5_data_layer.cpp:93] Number of HDF5 files: 3
I0522 08:07:22.143524 10501 net.cpp:150] Setting up data_hdf5
I0522 08:07:22.143700 10501 net.cpp:157] Top shape: 30 1 127 50 (190500)
I0522 08:07:22.143714 10501 net.cpp:157] Top shape: 30 (30)
I0522 08:07:22.143726 10501 net.cpp:165] Memory required for data: 762120
I0522 08:07:22.143740 10501 layer_factory.hpp:77] Creating layer label_data_hdf5_1_split
I0522 08:07:22.143769 10501 net.cpp:106] Creating Layer label_data_hdf5_1_split
I0522 08:07:22.143779 10501 net.cpp:454] label_data_hdf5_1_split <- label
I0522 08:07:22.143795 10501 net.cpp:411] label_data_hdf5_1_split -> label_data_hdf5_1_split_0
I0522 08:07:22.143816 10501 net.cpp:411] label_data_hdf5_1_split -> label_data_hdf5_1_split_1
I0522 08:07:22.143890 10501 net.cpp:150] Setting up label_data_hdf5_1_split
I0522 08:07:22.143903 10501 net.cpp:157] Top shape: 30 (30)
I0522 08:07:22.143915 10501 net.cpp:157] Top shape: 30 (30)
I0522 08:07:22.143925 10501 net.cpp:165] Memory required for data: 762360
I0522 08:07:22.143935 10501 layer_factory.hpp:77] Creating layer conv1
I0522 08:07:22.143959 10501 net.cpp:106] Creating Layer conv1
I0522 08:07:22.143968 10501 net.cpp:454] conv1 <- data
I0522 08:07:22.143983 10501 net.cpp:411] conv1 -> conv1
I0522 08:07:22.145922 10501 net.cpp:150] Setting up conv1
I0522 08:07:22.145941 10501 net.cpp:157] Top shape: 30 12 120 48 (2073600)
I0522 08:07:22.145951 10501 net.cpp:165] Memory required for data: 9056760
I0522 08:07:22.145972 10501 layer_factory.hpp:77] Creating layer relu1
I0522 08:07:22.145987 10501 net.cpp:106] Creating Layer relu1
I0522 08:07:22.145997 10501 net.cpp:454] relu1 <- conv1
I0522 08:07:22.146009 10501 net.cpp:397] relu1 -> conv1 (in-place)
I0522 08:07:22.146517 10501 net.cpp:150] Setting up relu1
I0522 08:07:22.146533 10501 net.cpp:157] Top shape: 30 12 120 48 (2073600)
I0522 08:07:22.146543 10501 net.cpp:165] Memory required for data: 17351160
I0522 08:07:22.146553 10501 layer_factory.hpp:77] Creating layer pool1
I0522 08:07:22.146569 10501 net.cpp:106] Creating Layer pool1
I0522 08:07:22.146579 10501 net.cpp:454] pool1 <- conv1
I0522 08:07:22.146592 10501 net.cpp:411] pool1 -> pool1
I0522 08:07:22.146667 10501 net.cpp:150] Setting up pool1
I0522 08:07:22.146682 10501 net.cpp:157] Top shape: 30 12 60 48 (1036800)
I0522 08:07:22.146690 10501 net.cpp:165] Memory required for data: 21498360
I0522 08:07:22.146698 10501 layer_factory.hpp:77] Creating layer conv2
I0522 08:07:22.146718 10501 net.cpp:106] Creating Layer conv2
I0522 08:07:22.146728 10501 net.cpp:454] conv2 <- pool1
I0522 08:07:22.146742 10501 net.cpp:411] conv2 -> conv2
I0522 08:07:22.148659 10501 net.cpp:150] Setting up conv2
I0522 08:07:22.148682 10501 net.cpp:157] Top shape: 30 20 54 46 (1490400)
I0522 08:07:22.148695 10501 net.cpp:165] Memory required for data: 27459960
I0522 08:07:22.148712 10501 layer_factory.hpp:77] Creating layer relu2
I0522 08:07:22.148726 10501 net.cpp:106] Creating Layer relu2
I0522 08:07:22.148736 10501 net.cpp:454] relu2 <- conv2
I0522 08:07:22.148748 10501 net.cpp:397] relu2 -> conv2 (in-place)
I0522 08:07:22.149080 10501 net.cpp:150] Setting up relu2
I0522 08:07:22.149093 10501 net.cpp:157] Top shape: 30 20 54 46 (1490400)
I0522 08:07:22.149103 10501 net.cpp:165] Memory required for data: 33421560
I0522 08:07:22.149113 10501 layer_factory.hpp:77] Creating layer pool2
I0522 08:07:22.149127 10501 net.cpp:106] Creating Layer pool2
I0522 08:07:22.149137 10501 net.cpp:454] pool2 <- conv2
I0522 08:07:22.149148 10501 net.cpp:411] pool2 -> pool2
I0522 08:07:22.149220 10501 net.cpp:150] Setting up pool2
I0522 08:07:22.149233 10501 net.cpp:157] Top shape: 30 20 27 46 (745200)
I0522 08:07:22.149242 10501 net.cpp:165] Memory required for data: 36402360
I0522 08:07:22.149252 10501 layer_factory.hpp:77] Creating layer conv3
I0522 08:07:22.149271 10501 net.cpp:106] Creating Layer conv3
I0522 08:07:22.149281 10501 net.cpp:454] conv3 <- pool2
I0522 08:07:22.149296 10501 net.cpp:411] conv3 -> conv3
I0522 08:07:22.151265 10501 net.cpp:150] Setting up conv3
I0522 08:07:22.151288 10501 net.cpp:157] Top shape: 30 28 22 44 (813120)
I0522 08:07:22.151300 10501 net.cpp:165] Memory required for data: 39654840
I0522 08:07:22.151334 10501 layer_factory.hpp:77] Creating layer relu3
I0522 08:07:22.151347 10501 net.cpp:106] Creating Layer relu3
I0522 08:07:22.151357 10501 net.cpp:454] relu3 <- conv3
I0522 08:07:22.151371 10501 net.cpp:397] relu3 -> conv3 (in-place)
I0522 08:07:22.151855 10501 net.cpp:150] Setting up relu3
I0522 08:07:22.151871 10501 net.cpp:157] Top shape: 30 28 22 44 (813120)
I0522 08:07:22.151882 10501 net.cpp:165] Memory required for data: 42907320
I0522 08:07:22.151892 10501 layer_factory.hpp:77] Creating layer pool3
I0522 08:07:22.151906 10501 net.cpp:106] Creating Layer pool3
I0522 08:07:22.151916 10501 net.cpp:454] pool3 <- conv3
I0522 08:07:22.151929 10501 net.cpp:411] pool3 -> pool3
I0522 08:07:22.152001 10501 net.cpp:150] Setting up pool3
I0522 08:07:22.152015 10501 net.cpp:157] Top shape: 30 28 11 44 (406560)
I0522 08:07:22.152025 10501 net.cpp:165] Memory required for data: 44533560
I0522 08:07:22.152034 10501 layer_factory.hpp:77] Creating layer conv4
I0522 08:07:22.152051 10501 net.cpp:106] Creating Layer conv4
I0522 08:07:22.152061 10501 net.cpp:454] conv4 <- pool3
I0522 08:07:22.152076 10501 net.cpp:411] conv4 -> conv4
I0522 08:07:22.154131 10501 net.cpp:150] Setting up conv4
I0522 08:07:22.154155 10501 net.cpp:157] Top shape: 30 36 6 42 (272160)
I0522 08:07:22.154166 10501 net.cpp:165] Memory required for data: 45622200
I0522 08:07:22.154181 10501 layer_factory.hpp:77] Creating layer relu4
I0522 08:07:22.154196 10501 net.cpp:106] Creating Layer relu4
I0522 08:07:22.154206 10501 net.cpp:454] relu4 <- conv4
I0522 08:07:22.154218 10501 net.cpp:397] relu4 -> conv4 (in-place)
I0522 08:07:22.154690 10501 net.cpp:150] Setting up relu4
I0522 08:07:22.154706 10501 net.cpp:157] Top shape: 30 36 6 42 (272160)
I0522 08:07:22.154716 10501 net.cpp:165] Memory required for data: 46710840
I0522 08:07:22.154726 10501 layer_factory.hpp:77] Creating layer pool4
I0522 08:07:22.154739 10501 net.cpp:106] Creating Layer pool4
I0522 08:07:22.154749 10501 net.cpp:454] pool4 <- conv4
I0522 08:07:22.154762 10501 net.cpp:411] pool4 -> pool4
I0522 08:07:22.154834 10501 net.cpp:150] Setting up pool4
I0522 08:07:22.154847 10501 net.cpp:157] Top shape: 30 36 3 42 (136080)
I0522 08:07:22.154856 10501 net.cpp:165] Memory required for data: 47255160
I0522 08:07:22.154866 10501 layer_factory.hpp:77] Creating layer ip1
I0522 08:07:22.154881 10501 net.cpp:106] Creating Layer ip1
I0522 08:07:22.154892 10501 net.cpp:454] ip1 <- pool4
I0522 08:07:22.154906 10501 net.cpp:411] ip1 -> ip1
I0522 08:07:22.170388 10501 net.cpp:150] Setting up ip1
I0522 08:07:22.170418 10501 net.cpp:157] Top shape: 30 196 (5880)
I0522 08:07:22.170430 10501 net.cpp:165] Memory required for data: 47278680
I0522 08:07:22.170452 10501 layer_factory.hpp:77] Creating layer relu5
I0522 08:07:22.170467 10501 net.cpp:106] Creating Layer relu5
I0522 08:07:22.170477 10501 net.cpp:454] relu5 <- ip1
I0522 08:07:22.170491 10501 net.cpp:397] relu5 -> ip1 (in-place)
I0522 08:07:22.170837 10501 net.cpp:150] Setting up relu5
I0522 08:07:22.170851 10501 net.cpp:157] Top shape: 30 196 (5880)
I0522 08:07:22.170861 10501 net.cpp:165] Memory required for data: 47302200
I0522 08:07:22.170871 10501 layer_factory.hpp:77] Creating layer drop1
I0522 08:07:22.170891 10501 net.cpp:106] Creating Layer drop1
I0522 08:07:22.170900 10501 net.cpp:454] drop1 <- ip1
I0522 08:07:22.170913 10501 net.cpp:397] drop1 -> ip1 (in-place)
I0522 08:07:22.170959 10501 net.cpp:150] Setting up drop1
I0522 08:07:22.170972 10501 net.cpp:157] Top shape: 30 196 (5880)
I0522 08:07:22.170984 10501 net.cpp:165] Memory required for data: 47325720
I0522 08:07:22.170994 10501 layer_factory.hpp:77] Creating layer ip2
I0522 08:07:22.171007 10501 net.cpp:106] Creating Layer ip2
I0522 08:07:22.171017 10501 net.cpp:454] ip2 <- ip1
I0522 08:07:22.171030 10501 net.cpp:411] ip2 -> ip2
I0522 08:07:22.171506 10501 net.cpp:150] Setting up ip2
I0522 08:07:22.171519 10501 net.cpp:157] Top shape: 30 98 (2940)
I0522 08:07:22.171530 10501 net.cpp:165] Memory required for data: 47337480
I0522 08:07:22.171545 10501 layer_factory.hpp:77] Creating layer relu6
I0522 08:07:22.171571 10501 net.cpp:106] Creating Layer relu6
I0522 08:07:22.171581 10501 net.cpp:454] relu6 <- ip2
I0522 08:07:22.171593 10501 net.cpp:397] relu6 -> ip2 (in-place)
I0522 08:07:22.172132 10501 net.cpp:150] Setting up relu6
I0522 08:07:22.172148 10501 net.cpp:157] Top shape: 30 98 (2940)
I0522 08:07:22.172158 10501 net.cpp:165] Memory required for data: 47349240
I0522 08:07:22.172169 10501 layer_factory.hpp:77] Creating layer drop2
I0522 08:07:22.172183 10501 net.cpp:106] Creating Layer drop2
I0522 08:07:22.172194 10501 net.cpp:454] drop2 <- ip2
I0522 08:07:22.172206 10501 net.cpp:397] drop2 -> ip2 (in-place)
I0522 08:07:22.172250 10501 net.cpp:150] Setting up drop2
I0522 08:07:22.172263 10501 net.cpp:157] Top shape: 30 98 (2940)
I0522 08:07:22.172273 10501 net.cpp:165] Memory required for data: 47361000
I0522 08:07:22.172283 10501 layer_factory.hpp:77] Creating layer ip3
I0522 08:07:22.172298 10501 net.cpp:106] Creating Layer ip3
I0522 08:07:22.172308 10501 net.cpp:454] ip3 <- ip2
I0522 08:07:22.172322 10501 net.cpp:411] ip3 -> ip3
I0522 08:07:22.172547 10501 net.cpp:150] Setting up ip3
I0522 08:07:22.172560 10501 net.cpp:157] Top shape: 30 11 (330)
I0522 08:07:22.172570 10501 net.cpp:165] Memory required for data: 47362320
I0522 08:07:22.172585 10501 layer_factory.hpp:77] Creating layer drop3
I0522 08:07:22.172598 10501 net.cpp:106] Creating Layer drop3
I0522 08:07:22.172608 10501 net.cpp:454] drop3 <- ip3
I0522 08:07:22.172621 10501 net.cpp:397] drop3 -> ip3 (in-place)
I0522 08:07:22.172662 10501 net.cpp:150] Setting up drop3
I0522 08:07:22.172674 10501 net.cpp:157] Top shape: 30 11 (330)
I0522 08:07:22.172684 10501 net.cpp:165] Memory required for data: 47363640
I0522 08:07:22.172693 10501 layer_factory.hpp:77] Creating layer ip3_drop3_0_split
I0522 08:07:22.172706 10501 net.cpp:106] Creating Layer ip3_drop3_0_split
I0522 08:07:22.172716 10501 net.cpp:454] ip3_drop3_0_split <- ip3
I0522 08:07:22.172729 10501 net.cpp:411] ip3_drop3_0_split -> ip3_drop3_0_split_0
I0522 08:07:22.172744 10501 net.cpp:411] ip3_drop3_0_split -> ip3_drop3_0_split_1
I0522 08:07:22.172819 10501 net.cpp:150] Setting up ip3_drop3_0_split
I0522 08:07:22.172833 10501 net.cpp:157] Top shape: 30 11 (330)
I0522 08:07:22.172845 10501 net.cpp:157] Top shape: 30 11 (330)
I0522 08:07:22.172855 10501 net.cpp:165] Memory required for data: 47366280
I0522 08:07:22.172863 10501 layer_factory.hpp:77] Creating layer accuracy
I0522 08:07:22.172885 10501 net.cpp:106] Creating Layer accuracy
I0522 08:07:22.172895 10501 net.cpp:454] accuracy <- ip3_drop3_0_split_0
I0522 08:07:22.172906 10501 net.cpp:454] accuracy <- label_data_hdf5_1_split_0
I0522 08:07:22.172920 10501 net.cpp:411] accuracy -> accuracy
…
