…
I0522 15:49:56.322226 32217 net.cpp:322] The NetState phase (0) differed from the phase (1) specified by a rule in layer data_hdf5
I0522 15:49:56.322285 32217 net.cpp:322] The NetState phase (0) differed from the phase (1) specified by a rule in layer accuracy
I0522 15:49:56.322633 32217 net.cpp:49] Initializing net from parameters: 
name: "caffe_test_127x50_x_unshifted"
state {
  phase: TRAIN
}
layer {
  name: "data_hdf5"
  type: "HDF5Data"
  top: "data"
  top: "label"
  include {
    phase: TRAIN
  }
  hdf5_data_param {
    source: "/lustre/atlas/proj-shared/hep105/caffe_titan/minosmatch_nukecczdefs_127x50_x_unshifted_me1Bmc.trainlist"
    batch_size: 30
  }
}
layer {
  name: "conv1"
  type: "Convolution"
  bottom: "data"
  top: "conv1"
  convolution_param {
    num_output: 12
    pad: 0
    stride: 1
    weight_filler {
      type: "xavier"
    }
    bias_filler {
      type: "constant"
    }
    kernel_h: 8
    kernel_w: 3
  }
}
layer {
  name: "relu1"
  type: "ReLU"
  bottom: "conv1"
  top: "conv1"
}
layer {
  name: "pool1"
  type: "Pooling"
  bottom: "conv1"
  top: "pool1"
  pooling_param {
    pool: MAX
    kernel_h: 2
    kernel_w: 1
    stride_h: 2
    stride_w: 1
  }
}
layer {
  name: "conv2"
  type: "Convolution"
  bottom: "pool1"
  top: "conv2"
  convolution_param {
    num_output: 20
    pad: 0
    stride: 1
    weight_filler {
      type: "xavier"
    }
    bias_filler {
      type: "constant"
    }
    kernel_h: 7
    kernel_w: 3
  }
}
layer {
  name: "relu2"
  type: "ReLU"
  bottom: "conv2"
  top: "conv2"
}
layer {
  name: "pool2"
  type: "Pooling"
  bottom: "conv2"
  top: "pool2"
  pooling_param {
    pool: MAX
    kernel_h: 2
    kernel_w: 1
    stride_h: 2
    stride_w: 1
  }
}
layer {
  name: "conv3"
  type: "Convolution"
  bottom: "pool2"
  top: "conv3"
  convolution_param {
    num_output: 28
    pad: 0
    stride: 1
    weight_filler {
      type: "xavier"
    }
    bias_filler {
      type: "constant"
    }
    kernel_h: 6
    kernel_w: 3
  }
}
layer {
  name: "relu3"
  type: "ReLU"
  bottom: "conv3"
  top: "conv3"
}
layer {
  name: "pool3"
  type: "Pooling"
  bottom: "conv3"
  top: "pool3"
  pooling_param {
    pool: MAX
    kernel_h: 2
    kernel_w: 1
    stride_h: 2
    stride_w: 1
  }
}
layer {
  name: "conv4"
  type: "Convolution"
  bottom: "pool3"
  top: "conv4"
  convolution_param {
    num_output: 36
    pad: 0
    stride: 1
    weight_filler {
      type: "xavier"
    }
    bias_filler {
      type: "constant"
    }
    kernel_h: 6
    kernel_w: 3
  }
}
layer {
  name: "relu4"
  type: "ReLU"
  bottom: "conv4"
  top: "conv4"
}
layer {
  name: "pool4"
  type: "Pooling"
  bottom: "conv4"
  top: "pool4"
  pooling_param {
    pool: MAX
    kernel_h: 2
    kernel_w: 1
    stride_h: 2
    stride_w: 1
  }
}
layer {
  name: "ip1"
  type: "InnerProduct"
  bottom: "pool4"
  top: "ip1"
  inner_product_param {
    num_output: 196
    weight_filler {
      type: "xavier"
    }
    bias_filler {
      type: "constant"
    }
  }
}
layer {
  name: "relu5"
  type: "ReLU"
  bottom: "ip1"
  top: "ip1"
}
layer {
  name: "drop1"
  type: "Dropout"
  bottom: "ip1"
  top: "ip1"
  dropout_param {
    dropout_ratio: 0.5
  }
}
layer {
  name: "ip2"
  type: "InnerProduct"
  bottom: "ip1"
  top: "ip2"
  inner_product_param {
    num_output: 98
    weight_filler {
      type: "xavier"
    }
    bias_filler {
      type: "constant"
    }
  }
}
layer {
  name: "relu6"
  type: "ReLU"
  bottom: "ip2"
  top: "ip2"
}
layer {
  name: "drop2"
  type: "Dropout"
  bottom: "ip2"
  top: "ip2"
  dropout_param {
    dropout_ratio: 0.5
  }
}
layer {
  name: "ip3"
  type: "InnerProduct"
  bottom: "ip2"
  top: "ip3"
  inner_product_param {
    num_output: 11
    weight_filler {
      type: "xavier"
    }
    bias_filler {
      type: "constant"
    }
  }
}
layer {
  name: "drop3"
  type: "Dropout"
  bottom: "ip3"
  top: "ip3"
  dropout_param {
    dropout_ratio: 0.5
  }
}
layer {
  name: "loss"
  type: "SoftmaxWithLoss"
  bottom: "ip3"
  bottom: "label"
  top: "loss"
}
I0522 15:49:56.322818 32217 layer_factory.hpp:77] Creating layer data_hdf5
I0522 15:49:56.322842 32217 net.cpp:106] Creating Layer data_hdf5
I0522 15:49:56.322857 32217 net.cpp:411] data_hdf5 -> data
I0522 15:49:56.322891 32217 net.cpp:411] data_hdf5 -> label
I0522 15:49:56.322924 32217 hdf5_data_layer.cpp:79] Loading list of HDF5 filenames from: /lustre/atlas/proj-shared/hep105/caffe_titan/minosmatch_nukecczdefs_127x50_x_unshifted_me1Bmc.trainlist
I0522 15:49:56.340095 32217 hdf5_data_layer.cpp:93] Number of HDF5 files: 15
I0522 15:49:56.354421 32217 hdf5.cpp:32] Datatype class: H5T_FLOAT
I0522 15:50:17.909972 32217 hdf5.cpp:35] Datatype class: H5T_INTEGER
I0522 15:50:17.915138 32217 net.cpp:150] Setting up data_hdf5
I0522 15:50:17.915179 32217 net.cpp:157] Top shape: 30 1 127 50 (190500)
I0522 15:50:17.915194 32217 net.cpp:157] Top shape: 30 (30)
I0522 15:50:17.915205 32217 net.cpp:165] Memory required for data: 762120
I0522 15:50:17.915218 32217 layer_factory.hpp:77] Creating layer conv1
I0522 15:50:17.915252 32217 net.cpp:106] Creating Layer conv1
I0522 15:50:17.915263 32217 net.cpp:454] conv1 <- data
I0522 15:50:17.915284 32217 net.cpp:411] conv1 -> conv1
I0522 15:50:20.826927 32217 net.cpp:150] Setting up conv1
I0522 15:50:20.826974 32217 net.cpp:157] Top shape: 30 12 120 48 (2073600)
I0522 15:50:20.826985 32217 net.cpp:165] Memory required for data: 9056520
I0522 15:50:20.827016 32217 layer_factory.hpp:77] Creating layer relu1
I0522 15:50:20.827036 32217 net.cpp:106] Creating Layer relu1
I0522 15:50:20.827047 32217 net.cpp:454] relu1 <- conv1
I0522 15:50:20.827061 32217 net.cpp:397] relu1 -> conv1 (in-place)
I0522 15:50:20.827589 32217 net.cpp:150] Setting up relu1
I0522 15:50:20.827605 32217 net.cpp:157] Top shape: 30 12 120 48 (2073600)
I0522 15:50:20.827616 32217 net.cpp:165] Memory required for data: 17350920
I0522 15:50:20.827625 32217 layer_factory.hpp:77] Creating layer pool1
I0522 15:50:20.827642 32217 net.cpp:106] Creating Layer pool1
I0522 15:50:20.827652 32217 net.cpp:454] pool1 <- conv1
I0522 15:50:20.827666 32217 net.cpp:411] pool1 -> pool1
I0522 15:50:20.827746 32217 net.cpp:150] Setting up pool1
I0522 15:50:20.827761 32217 net.cpp:157] Top shape: 30 12 60 48 (1036800)
I0522 15:50:20.827771 32217 net.cpp:165] Memory required for data: 21498120
I0522 15:50:20.827782 32217 layer_factory.hpp:77] Creating layer conv2
I0522 15:50:20.827805 32217 net.cpp:106] Creating Layer conv2
I0522 15:50:20.827816 32217 net.cpp:454] conv2 <- pool1
I0522 15:50:20.827829 32217 net.cpp:411] conv2 -> conv2
I0522 15:50:20.830507 32217 net.cpp:150] Setting up conv2
I0522 15:50:20.830533 32217 net.cpp:157] Top shape: 30 20 54 46 (1490400)
I0522 15:50:20.830544 32217 net.cpp:165] Memory required for data: 27459720
I0522 15:50:20.830564 32217 layer_factory.hpp:77] Creating layer relu2
I0522 15:50:20.830577 32217 net.cpp:106] Creating Layer relu2
I0522 15:50:20.830587 32217 net.cpp:454] relu2 <- conv2
I0522 15:50:20.830600 32217 net.cpp:397] relu2 -> conv2 (in-place)
I0522 15:50:20.830932 32217 net.cpp:150] Setting up relu2
I0522 15:50:20.830946 32217 net.cpp:157] Top shape: 30 20 54 46 (1490400)
I0522 15:50:20.830956 32217 net.cpp:165] Memory required for data: 33421320
I0522 15:50:20.830966 32217 layer_factory.hpp:77] Creating layer pool2
I0522 15:50:20.830978 32217 net.cpp:106] Creating Layer pool2
I0522 15:50:20.830988 32217 net.cpp:454] pool2 <- conv2
I0522 15:50:20.831001 32217 net.cpp:411] pool2 -> pool2
I0522 15:50:20.831082 32217 net.cpp:150] Setting up pool2
I0522 15:50:20.831096 32217 net.cpp:157] Top shape: 30 20 27 46 (745200)
I0522 15:50:20.831105 32217 net.cpp:165] Memory required for data: 36402120
I0522 15:50:20.831115 32217 layer_factory.hpp:77] Creating layer conv3
I0522 15:50:20.831135 32217 net.cpp:106] Creating Layer conv3
I0522 15:50:20.831146 32217 net.cpp:454] conv3 <- pool2
I0522 15:50:20.831159 32217 net.cpp:411] conv3 -> conv3
I0522 15:50:20.833132 32217 net.cpp:150] Setting up conv3
I0522 15:50:20.833154 32217 net.cpp:157] Top shape: 30 28 22 44 (813120)
I0522 15:50:20.833165 32217 net.cpp:165] Memory required for data: 39654600
I0522 15:50:20.833184 32217 layer_factory.hpp:77] Creating layer relu3
I0522 15:50:20.833200 32217 net.cpp:106] Creating Layer relu3
I0522 15:50:20.833210 32217 net.cpp:454] relu3 <- conv3
I0522 15:50:20.833223 32217 net.cpp:397] relu3 -> conv3 (in-place)
I0522 15:50:20.833693 32217 net.cpp:150] Setting up relu3
I0522 15:50:20.833709 32217 net.cpp:157] Top shape: 30 28 22 44 (813120)
I0522 15:50:20.833720 32217 net.cpp:165] Memory required for data: 42907080
I0522 15:50:20.833729 32217 layer_factory.hpp:77] Creating layer pool3
I0522 15:50:20.833744 32217 net.cpp:106] Creating Layer pool3
I0522 15:50:20.833752 32217 net.cpp:454] pool3 <- conv3
I0522 15:50:20.833765 32217 net.cpp:411] pool3 -> pool3
I0522 15:50:20.833832 32217 net.cpp:150] Setting up pool3
I0522 15:50:20.833847 32217 net.cpp:157] Top shape: 30 28 11 44 (406560)
I0522 15:50:20.833856 32217 net.cpp:165] Memory required for data: 44533320
I0522 15:50:20.833865 32217 layer_factory.hpp:77] Creating layer conv4
I0522 15:50:20.833880 32217 net.cpp:106] Creating Layer conv4
I0522 15:50:20.833890 32217 net.cpp:454] conv4 <- pool3
I0522 15:50:20.833904 32217 net.cpp:411] conv4 -> conv4
I0522 15:50:20.836629 32217 net.cpp:150] Setting up conv4
I0522 15:50:20.836657 32217 net.cpp:157] Top shape: 30 36 6 42 (272160)
I0522 15:50:20.836666 32217 net.cpp:165] Memory required for data: 45621960
I0522 15:50:20.836683 32217 layer_factory.hpp:77] Creating layer relu4
I0522 15:50:20.836696 32217 net.cpp:106] Creating Layer relu4
I0522 15:50:20.836706 32217 net.cpp:454] relu4 <- conv4
I0522 15:50:20.836719 32217 net.cpp:397] relu4 -> conv4 (in-place)
I0522 15:50:20.837187 32217 net.cpp:150] Setting up relu4
I0522 15:50:20.837203 32217 net.cpp:157] Top shape: 30 36 6 42 (272160)
I0522 15:50:20.837213 32217 net.cpp:165] Memory required for data: 46710600
I0522 15:50:20.837224 32217 layer_factory.hpp:77] Creating layer pool4
I0522 15:50:20.837236 32217 net.cpp:106] Creating Layer pool4
I0522 15:50:20.837246 32217 net.cpp:454] pool4 <- conv4
I0522 15:50:20.837260 32217 net.cpp:411] pool4 -> pool4
I0522 15:50:20.837327 32217 net.cpp:150] Setting up pool4
I0522 15:50:20.837340 32217 net.cpp:157] Top shape: 30 36 3 42 (136080)
I0522 15:50:20.837354 32217 net.cpp:165] Memory required for data: 47254920
I0522 15:50:20.837366 32217 layer_factory.hpp:77] Creating layer ip1
I0522 15:50:20.837390 32217 net.cpp:106] Creating Layer ip1
I0522 15:50:20.837401 32217 net.cpp:454] ip1 <- pool4
I0522 15:50:20.837414 32217 net.cpp:411] ip1 -> ip1
I0522 15:50:20.852809 32217 net.cpp:150] Setting up ip1
I0522 15:50:20.852838 32217 net.cpp:157] Top shape: 30 196 (5880)
I0522 15:50:20.852852 32217 net.cpp:165] Memory required for data: 47278440
I0522 15:50:20.852874 32217 layer_factory.hpp:77] Creating layer relu5
I0522 15:50:20.852888 32217 net.cpp:106] Creating Layer relu5
I0522 15:50:20.852900 32217 net.cpp:454] relu5 <- ip1
I0522 15:50:20.852912 32217 net.cpp:397] relu5 -> ip1 (in-place)
I0522 15:50:20.853253 32217 net.cpp:150] Setting up relu5
I0522 15:50:20.853267 32217 net.cpp:157] Top shape: 30 196 (5880)
I0522 15:50:20.853278 32217 net.cpp:165] Memory required for data: 47301960
I0522 15:50:20.853288 32217 layer_factory.hpp:77] Creating layer drop1
I0522 15:50:20.853310 32217 net.cpp:106] Creating Layer drop1
I0522 15:50:20.853320 32217 net.cpp:454] drop1 <- ip1
I0522 15:50:20.853333 32217 net.cpp:397] drop1 -> ip1 (in-place)
I0522 15:50:20.853392 32217 net.cpp:150] Setting up drop1
I0522 15:50:20.853406 32217 net.cpp:157] Top shape: 30 196 (5880)
I0522 15:50:20.853416 32217 net.cpp:165] Memory required for data: 47325480
I0522 15:50:20.853425 32217 layer_factory.hpp:77] Creating layer ip2
I0522 15:50:20.853444 32217 net.cpp:106] Creating Layer ip2
I0522 15:50:20.853454 32217 net.cpp:454] ip2 <- ip1
I0522 15:50:20.853467 32217 net.cpp:411] ip2 -> ip2
I0522 15:50:20.853929 32217 net.cpp:150] Setting up ip2
I0522 15:50:20.853941 32217 net.cpp:157] Top shape: 30 98 (2940)
I0522 15:50:20.853951 32217 net.cpp:165] Memory required for data: 47337240
I0522 15:50:20.853966 32217 layer_factory.hpp:77] Creating layer relu6
I0522 15:50:20.853979 32217 net.cpp:106] Creating Layer relu6
I0522 15:50:20.853989 32217 net.cpp:454] relu6 <- ip2
I0522 15:50:20.854001 32217 net.cpp:397] relu6 -> ip2 (in-place)
I0522 15:50:20.854518 32217 net.cpp:150] Setting up relu6
I0522 15:50:20.854535 32217 net.cpp:157] Top shape: 30 98 (2940)
I0522 15:50:20.854545 32217 net.cpp:165] Memory required for data: 47349000
I0522 15:50:20.854557 32217 layer_factory.hpp:77] Creating layer drop2
I0522 15:50:20.854570 32217 net.cpp:106] Creating Layer drop2
I0522 15:50:20.854579 32217 net.cpp:454] drop2 <- ip2
I0522 15:50:20.854593 32217 net.cpp:397] drop2 -> ip2 (in-place)
I0522 15:50:20.854635 32217 net.cpp:150] Setting up drop2
I0522 15:50:20.854648 32217 net.cpp:157] Top shape: 30 98 (2940)
I0522 15:50:20.854658 32217 net.cpp:165] Memory required for data: 47360760
I0522 15:50:20.854667 32217 layer_factory.hpp:77] Creating layer ip3
I0522 15:50:20.854683 32217 net.cpp:106] Creating Layer ip3
I0522 15:50:20.854692 32217 net.cpp:454] ip3 <- ip2
I0522 15:50:20.854704 32217 net.cpp:411] ip3 -> ip3
I0522 15:50:20.854914 32217 net.cpp:150] Setting up ip3
I0522 15:50:20.854928 32217 net.cpp:157] Top shape: 30 11 (330)
I0522 15:50:20.854938 32217 net.cpp:165] Memory required for data: 47362080
I0522 15:50:20.854953 32217 layer_factory.hpp:77] Creating layer drop3
I0522 15:50:20.854965 32217 net.cpp:106] Creating Layer drop3
I0522 15:50:20.854974 32217 net.cpp:454] drop3 <- ip3
I0522 15:50:20.854986 32217 net.cpp:397] drop3 -> ip3 (in-place)
I0522 15:50:20.855026 32217 net.cpp:150] Setting up drop3
I0522 15:50:20.855039 32217 net.cpp:157] Top shape: 30 11 (330)
I0522 15:50:20.855049 32217 net.cpp:165] Memory required for data: 47363400
I0522 15:50:20.855059 32217 layer_factory.hpp:77] Creating layer loss
I0522 15:50:20.855078 32217 net.cpp:106] Creating Layer loss
I0522 15:50:20.855088 32217 net.cpp:454] loss <- ip3
I0522 15:50:20.855099 32217 net.cpp:454] loss <- label
I0522 15:50:20.855113 32217 net.cpp:411] loss -> loss
I0522 15:50:20.855129 32217 layer_factory.hpp:77] Creating layer loss
…
I0522 15:50:20.857877 32217 solver.cpp:181] Creating test net (#0) specified by net file: /lustre/atlas/proj-shared/hep105/caffe_titan/caffe_workflow/logs_bslr/bs_30_lr_0.0050_2016-05-20T15.49.00.709235.prototxt
I0522 15:50:20.857949 32217 net.cpp:322] The NetState phase (1) differed from the phase (0) specified by a rule in layer data_hdf5
I0522 15:50:20.858305 32217 net.cpp:49] Initializing net from parameters: 
name: "caffe_test_127x50_x_unshifted"
state {
  phase: TEST
}
layer {
  name: "data_hdf5"
  type: "HDF5Data"
  top: "data"
  top: "label"
  include {
    phase: TEST
  }
  hdf5_data_param {
    source: "/lustre/atlas/proj-shared/hep105/caffe_titan/minosmatch_nukecczdefs_127x50_x_unshifted_me1Bmc.testlist"
    batch_size: 30
  }
}
layer {
  name: "conv1"
  type: "Convolution"
  bottom: "data"
  top: "conv1"
  convolution_param {
    num_output: 12
    pad: 0
    stride: 1
    weight_filler {
      type: "xavier"
    }
    bias_filler {
      type: "constant"
    }
    kernel_h: 8
    kernel_w: 3
  }
}
layer {
  name: "relu1"
  type: "ReLU"
  bottom: "conv1"
  top: "conv1"
}
layer {
  name: "pool1"
  type: "Pooling"
  bottom: "conv1"
  top: "pool1"
  pooling_param {
    pool: MAX
    kernel_h: 2
    kernel_w: 1
    stride_h: 2
    stride_w: 1
  }
}
layer {
  name: "conv2"
  type: "Convolution"
  bottom: "pool1"
  top: "conv2"
  convolution_param {
    num_output: 20
    pad: 0
    stride: 1
    weight_filler {
      type: "xavier"
    }
    bias_filler {
      type: "constant"
    }
    kernel_h: 7
    kernel_w: 3
  }
}
layer {
  name: "relu2"
  type: "ReLU"
  bottom: "conv2"
  top: "conv2"
}
layer {
  name: "pool2"
  type: "Pooling"
  bottom: "conv2"
  top: "pool2"
  pooling_param {
    pool: MAX
    kernel_h: 2
    kernel_w: 1
    stride_h: 2
    stride_w: 1
  }
}
layer {
  name: "conv3"
  type: "Convolution"
  bottom: "pool2"
  top: "conv3"
  convolution_param {
    num_output: 28
    pad: 0
    stride: 1
    weight_filler {
      type: "xavier"
    }
    bias_filler {
      type: "constant"
    }
    kernel_h: 6
    kernel_w: 3
  }
}
layer {
  name: "relu3"
  type: "ReLU"
  bottom: "conv3"
  top: "conv3"
}
layer {
  name: "pool3"
  type: "Pooling"
  bottom: "conv3"
  top: "pool3"
  pooling_param {
    pool: MAX
    kernel_h: 2
    kernel_w: 1
    stride_h: 2
    stride_w: 1
  }
}
layer {
  name: "conv4"
  type: "Convolution"
  bottom: "pool3"
  top: "conv4"
  convolution_param {
    num_output: 36
    pad: 0
    stride: 1
    weight_filler {
      type: "xavier"
    }
    bias_filler {
      type: "constant"
    }
    kernel_h: 6
    kernel_w: 3
  }
}
layer {
  name: "relu4"
  type: "ReLU"
  bottom: "conv4"
  top: "conv4"
}
layer {
  name: "pool4"
  type: "Pooling"
  bottom: "conv4"
  top: "pool4"
  pooling_param {
    pool: MAX
    kernel_h: 2
    kernel_w: 1
    stride_h: 2
    stride_w: 1
  }
}
layer {
  name: "ip1"
  type: "InnerProduct"
  bottom: "pool4"
  top: "ip1"
  inner_product_param {
    num_output: 196
    weight_filler {
      type: "xavier"
    }
    bias_filler {
      type: "constant"
    }
  }
}
layer {
  name: "relu5"
  type: "ReLU"
  bottom: "ip1"
  top: "ip1"
}
layer {
  name: "drop1"
  type: "Dropout"
  bottom: "ip1"
  top: "ip1"
  dropout_param {
    dropout_ratio: 0.5
  }
}
layer {
  name: "ip2"
  type: "InnerProduct"
  bottom: "ip1"
  top: "ip2"
  inner_product_param {
    num_output: 98
    weight_filler {
      type: "xavier"
    }
    bias_filler {
      type: "constant"
    }
  }
}
layer {
  name: "relu6"
  type: "ReLU"
  bottom: "ip2"
  top: "ip2"
}
layer {
  name: "drop2"
  type: "Dropout"
  bottom: "ip2"
  top: "ip2"
  dropout_param {
    dropout_ratio: 0.5
  }
}
layer {
  name: "ip3"
  type: "InnerProduct"
  bottom: "ip2"
  top: "ip3"
  inner_product_param {
    num_output: 11
    weight_filler {
      type: "xavier"
    }
    bias_filler {
      type: "constant"
    }
  }
}
layer {
  name: "drop3"
  type: "Dropout"
  bottom: "ip3"
  top: "ip3"
  dropout_param {
    dropout_ratio: 0.5
  }
}
layer {
  name: "accuracy"
  type: "Accuracy"
  bottom: "ip3"
  bottom: "label"
  top: "accuracy"
  include {
    phase: TEST
  }
}
layer {
  name: "loss"
  type: "SoftmaxWithLoss"
  bottom: "ip3"
  bottom: "label"
  top: "loss"
}
I0522 15:50:20.858494 32217 layer_factory.hpp:77] Creating layer data_hdf5
I0522 15:50:20.858510 32217 net.cpp:106] Creating Layer data_hdf5
I0522 15:50:20.858522 32217 net.cpp:411] data_hdf5 -> data
I0522 15:50:20.858541 32217 net.cpp:411] data_hdf5 -> label
I0522 15:50:20.858556 32217 hdf5_data_layer.cpp:79] Loading list of HDF5 filenames from: /lustre/atlas/proj-shared/hep105/caffe_titan/minosmatch_nukecczdefs_127x50_x_unshifted_me1Bmc.testlist
I0522 15:50:20.872087 32217 hdf5_data_layer.cpp:93] Number of HDF5 files: 3
I0522 15:50:42.235098 32217 net.cpp:150] Setting up data_hdf5
I0522 15:50:42.235265 32217 net.cpp:157] Top shape: 30 1 127 50 (190500)
I0522 15:50:42.235280 32217 net.cpp:157] Top shape: 30 (30)
I0522 15:50:42.235290 32217 net.cpp:165] Memory required for data: 762120
I0522 15:50:42.235303 32217 layer_factory.hpp:77] Creating layer label_data_hdf5_1_split
I0522 15:50:42.235332 32217 net.cpp:106] Creating Layer label_data_hdf5_1_split
I0522 15:50:42.235343 32217 net.cpp:454] label_data_hdf5_1_split <- label
I0522 15:50:42.235358 32217 net.cpp:411] label_data_hdf5_1_split -> label_data_hdf5_1_split_0
I0522 15:50:42.235380 32217 net.cpp:411] label_data_hdf5_1_split -> label_data_hdf5_1_split_1
I0522 15:50:42.235452 32217 net.cpp:150] Setting up label_data_hdf5_1_split
I0522 15:50:42.235474 32217 net.cpp:157] Top shape: 30 (30)
I0522 15:50:42.235486 32217 net.cpp:157] Top shape: 30 (30)
I0522 15:50:42.235496 32217 net.cpp:165] Memory required for data: 762360
I0522 15:50:42.235507 32217 layer_factory.hpp:77] Creating layer conv1
I0522 15:50:42.235528 32217 net.cpp:106] Creating Layer conv1
I0522 15:50:42.235538 32217 net.cpp:454] conv1 <- data
I0522 15:50:42.235553 32217 net.cpp:411] conv1 -> conv1
I0522 15:50:42.237500 32217 net.cpp:150] Setting up conv1
I0522 15:50:42.237520 32217 net.cpp:157] Top shape: 30 12 120 48 (2073600)
I0522 15:50:42.237530 32217 net.cpp:165] Memory required for data: 9056760
I0522 15:50:42.237550 32217 layer_factory.hpp:77] Creating layer relu1
I0522 15:50:42.237565 32217 net.cpp:106] Creating Layer relu1
I0522 15:50:42.237576 32217 net.cpp:454] relu1 <- conv1
I0522 15:50:42.237587 32217 net.cpp:397] relu1 -> conv1 (in-place)
I0522 15:50:42.238085 32217 net.cpp:150] Setting up relu1
I0522 15:50:42.238101 32217 net.cpp:157] Top shape: 30 12 120 48 (2073600)
I0522 15:50:42.238111 32217 net.cpp:165] Memory required for data: 17351160
I0522 15:50:42.238122 32217 layer_factory.hpp:77] Creating layer pool1
I0522 15:50:42.238137 32217 net.cpp:106] Creating Layer pool1
I0522 15:50:42.238148 32217 net.cpp:454] pool1 <- conv1
I0522 15:50:42.238160 32217 net.cpp:411] pool1 -> pool1
I0522 15:50:42.238235 32217 net.cpp:150] Setting up pool1
I0522 15:50:42.238250 32217 net.cpp:157] Top shape: 30 12 60 48 (1036800)
I0522 15:50:42.238260 32217 net.cpp:165] Memory required for data: 21498360
I0522 15:50:42.238267 32217 layer_factory.hpp:77] Creating layer conv2
I0522 15:50:42.238286 32217 net.cpp:106] Creating Layer conv2
I0522 15:50:42.238296 32217 net.cpp:454] conv2 <- pool1
I0522 15:50:42.238308 32217 net.cpp:411] conv2 -> conv2
I0522 15:50:42.240224 32217 net.cpp:150] Setting up conv2
I0522 15:50:42.240247 32217 net.cpp:157] Top shape: 30 20 54 46 (1490400)
I0522 15:50:42.240259 32217 net.cpp:165] Memory required for data: 27459960
I0522 15:50:42.240277 32217 layer_factory.hpp:77] Creating layer relu2
I0522 15:50:42.240290 32217 net.cpp:106] Creating Layer relu2
I0522 15:50:42.240300 32217 net.cpp:454] relu2 <- conv2
I0522 15:50:42.240312 32217 net.cpp:397] relu2 -> conv2 (in-place)
I0522 15:50:42.240641 32217 net.cpp:150] Setting up relu2
I0522 15:50:42.240654 32217 net.cpp:157] Top shape: 30 20 54 46 (1490400)
I0522 15:50:42.240665 32217 net.cpp:165] Memory required for data: 33421560
I0522 15:50:42.240675 32217 layer_factory.hpp:77] Creating layer pool2
I0522 15:50:42.240689 32217 net.cpp:106] Creating Layer pool2
I0522 15:50:42.240699 32217 net.cpp:454] pool2 <- conv2
I0522 15:50:42.240710 32217 net.cpp:411] pool2 -> pool2
I0522 15:50:42.240782 32217 net.cpp:150] Setting up pool2
I0522 15:50:42.240795 32217 net.cpp:157] Top shape: 30 20 27 46 (745200)
I0522 15:50:42.240804 32217 net.cpp:165] Memory required for data: 36402360
I0522 15:50:42.240815 32217 layer_factory.hpp:77] Creating layer conv3
I0522 15:50:42.240835 32217 net.cpp:106] Creating Layer conv3
I0522 15:50:42.240845 32217 net.cpp:454] conv3 <- pool2
I0522 15:50:42.240859 32217 net.cpp:411] conv3 -> conv3
I0522 15:50:42.242828 32217 net.cpp:150] Setting up conv3
I0522 15:50:42.242851 32217 net.cpp:157] Top shape: 30 28 22 44 (813120)
I0522 15:50:42.242862 32217 net.cpp:165] Memory required for data: 39654840
I0522 15:50:42.242895 32217 layer_factory.hpp:77] Creating layer relu3
I0522 15:50:42.242908 32217 net.cpp:106] Creating Layer relu3
I0522 15:50:42.242918 32217 net.cpp:454] relu3 <- conv3
I0522 15:50:42.242931 32217 net.cpp:397] relu3 -> conv3 (in-place)
I0522 15:50:42.243407 32217 net.cpp:150] Setting up relu3
I0522 15:50:42.243422 32217 net.cpp:157] Top shape: 30 28 22 44 (813120)
I0522 15:50:42.243432 32217 net.cpp:165] Memory required for data: 42907320
I0522 15:50:42.243443 32217 layer_factory.hpp:77] Creating layer pool3
I0522 15:50:42.243455 32217 net.cpp:106] Creating Layer pool3
I0522 15:50:42.243472 32217 net.cpp:454] pool3 <- conv3
I0522 15:50:42.243485 32217 net.cpp:411] pool3 -> pool3
I0522 15:50:42.243558 32217 net.cpp:150] Setting up pool3
I0522 15:50:42.243571 32217 net.cpp:157] Top shape: 30 28 11 44 (406560)
I0522 15:50:42.243582 32217 net.cpp:165] Memory required for data: 44533560
I0522 15:50:42.243592 32217 layer_factory.hpp:77] Creating layer conv4
I0522 15:50:42.243609 32217 net.cpp:106] Creating Layer conv4
I0522 15:50:42.243619 32217 net.cpp:454] conv4 <- pool3
I0522 15:50:42.243633 32217 net.cpp:411] conv4 -> conv4
I0522 15:50:42.245689 32217 net.cpp:150] Setting up conv4
I0522 15:50:42.245707 32217 net.cpp:157] Top shape: 30 36 6 42 (272160)
I0522 15:50:42.245718 32217 net.cpp:165] Memory required for data: 45622200
I0522 15:50:42.245733 32217 layer_factory.hpp:77] Creating layer relu4
I0522 15:50:42.245746 32217 net.cpp:106] Creating Layer relu4
I0522 15:50:42.245756 32217 net.cpp:454] relu4 <- conv4
I0522 15:50:42.245769 32217 net.cpp:397] relu4 -> conv4 (in-place)
I0522 15:50:42.246239 32217 net.cpp:150] Setting up relu4
I0522 15:50:42.246255 32217 net.cpp:157] Top shape: 30 36 6 42 (272160)
I0522 15:50:42.246264 32217 net.cpp:165] Memory required for data: 46710840
I0522 15:50:42.246274 32217 layer_factory.hpp:77] Creating layer pool4
I0522 15:50:42.246289 32217 net.cpp:106] Creating Layer pool4
I0522 15:50:42.246297 32217 net.cpp:454] pool4 <- conv4
I0522 15:50:42.246310 32217 net.cpp:411] pool4 -> pool4
I0522 15:50:42.246382 32217 net.cpp:150] Setting up pool4
I0522 15:50:42.246395 32217 net.cpp:157] Top shape: 30 36 3 42 (136080)
I0522 15:50:42.246405 32217 net.cpp:165] Memory required for data: 47255160
I0522 15:50:42.246415 32217 layer_factory.hpp:77] Creating layer ip1
I0522 15:50:42.246429 32217 net.cpp:106] Creating Layer ip1
I0522 15:50:42.246440 32217 net.cpp:454] ip1 <- pool4
I0522 15:50:42.246454 32217 net.cpp:411] ip1 -> ip1
I0522 15:50:42.261929 32217 net.cpp:150] Setting up ip1
I0522 15:50:42.261956 32217 net.cpp:157] Top shape: 30 196 (5880)
I0522 15:50:42.261968 32217 net.cpp:165] Memory required for data: 47278680
I0522 15:50:42.261989 32217 layer_factory.hpp:77] Creating layer relu5
I0522 15:50:42.262004 32217 net.cpp:106] Creating Layer relu5
I0522 15:50:42.262014 32217 net.cpp:454] relu5 <- ip1
I0522 15:50:42.262027 32217 net.cpp:397] relu5 -> ip1 (in-place)
I0522 15:50:42.262375 32217 net.cpp:150] Setting up relu5
I0522 15:50:42.262390 32217 net.cpp:157] Top shape: 30 196 (5880)
I0522 15:50:42.262400 32217 net.cpp:165] Memory required for data: 47302200
I0522 15:50:42.262410 32217 layer_factory.hpp:77] Creating layer drop1
I0522 15:50:42.262429 32217 net.cpp:106] Creating Layer drop1
I0522 15:50:42.262439 32217 net.cpp:454] drop1 <- ip1
I0522 15:50:42.262452 32217 net.cpp:397] drop1 -> ip1 (in-place)
I0522 15:50:42.262498 32217 net.cpp:150] Setting up drop1
I0522 15:50:42.262512 32217 net.cpp:157] Top shape: 30 196 (5880)
I0522 15:50:42.262522 32217 net.cpp:165] Memory required for data: 47325720
I0522 15:50:42.262531 32217 layer_factory.hpp:77] Creating layer ip2
I0522 15:50:42.262547 32217 net.cpp:106] Creating Layer ip2
I0522 15:50:42.262557 32217 net.cpp:454] ip2 <- ip1
I0522 15:50:42.262570 32217 net.cpp:411] ip2 -> ip2
I0522 15:50:42.263047 32217 net.cpp:150] Setting up ip2
I0522 15:50:42.263061 32217 net.cpp:157] Top shape: 30 98 (2940)
I0522 15:50:42.263070 32217 net.cpp:165] Memory required for data: 47337480
I0522 15:50:42.263085 32217 layer_factory.hpp:77] Creating layer relu6
I0522 15:50:42.263110 32217 net.cpp:106] Creating Layer relu6
I0522 15:50:42.263120 32217 net.cpp:454] relu6 <- ip2
I0522 15:50:42.263134 32217 net.cpp:397] relu6 -> ip2 (in-place)
I0522 15:50:42.263675 32217 net.cpp:150] Setting up relu6
I0522 15:50:42.263697 32217 net.cpp:157] Top shape: 30 98 (2940)
I0522 15:50:42.263707 32217 net.cpp:165] Memory required for data: 47349240
I0522 15:50:42.263717 32217 layer_factory.hpp:77] Creating layer drop2
I0522 15:50:42.263731 32217 net.cpp:106] Creating Layer drop2
I0522 15:50:42.263741 32217 net.cpp:454] drop2 <- ip2
I0522 15:50:42.263756 32217 net.cpp:397] drop2 -> ip2 (in-place)
I0522 15:50:42.263799 32217 net.cpp:150] Setting up drop2
I0522 15:50:42.263813 32217 net.cpp:157] Top shape: 30 98 (2940)
I0522 15:50:42.263823 32217 net.cpp:165] Memory required for data: 47361000
I0522 15:50:42.263831 32217 layer_factory.hpp:77] Creating layer ip3
I0522 15:50:42.263846 32217 net.cpp:106] Creating Layer ip3
I0522 15:50:42.263856 32217 net.cpp:454] ip3 <- ip2
I0522 15:50:42.263870 32217 net.cpp:411] ip3 -> ip3
I0522 15:50:42.264094 32217 net.cpp:150] Setting up ip3
I0522 15:50:42.264107 32217 net.cpp:157] Top shape: 30 11 (330)
I0522 15:50:42.264117 32217 net.cpp:165] Memory required for data: 47362320
I0522 15:50:42.264132 32217 layer_factory.hpp:77] Creating layer drop3
I0522 15:50:42.264147 32217 net.cpp:106] Creating Layer drop3
I0522 15:50:42.264155 32217 net.cpp:454] drop3 <- ip3
I0522 15:50:42.264168 32217 net.cpp:397] drop3 -> ip3 (in-place)
I0522 15:50:42.264210 32217 net.cpp:150] Setting up drop3
I0522 15:50:42.264222 32217 net.cpp:157] Top shape: 30 11 (330)
I0522 15:50:42.264232 32217 net.cpp:165] Memory required for data: 47363640
I0522 15:50:42.264241 32217 layer_factory.hpp:77] Creating layer ip3_drop3_0_split
I0522 15:50:42.264256 32217 net.cpp:106] Creating Layer ip3_drop3_0_split
I0522 15:50:42.264264 32217 net.cpp:454] ip3_drop3_0_split <- ip3
I0522 15:50:42.264277 32217 net.cpp:411] ip3_drop3_0_split -> ip3_drop3_0_split_0
I0522 15:50:42.264292 32217 net.cpp:411] ip3_drop3_0_split -> ip3_drop3_0_split_1
I0522 15:50:42.264367 32217 net.cpp:150] Setting up ip3_drop3_0_split
I0522 15:50:42.264380 32217 net.cpp:157] Top shape: 30 11 (330)
I0522 15:50:42.264392 32217 net.cpp:157] Top shape: 30 11 (330)
I0522 15:50:42.264402 32217 net.cpp:165] Memory required for data: 47366280
I0522 15:50:42.264412 32217 layer_factory.hpp:77] Creating layer accuracy
I0522 15:50:42.264433 32217 net.cpp:106] Creating Layer accuracy
I0522 15:50:42.264443 32217 net.cpp:454] accuracy <- ip3_drop3_0_split_0
I0522 15:50:42.264454 32217 net.cpp:454] accuracy <- label_data_hdf5_1_split_0
I0522 15:50:42.264468 32217 net.cpp:411] accuracy -> accuracy
…
