…
I0522 19:51:23.276828 22569 net.cpp:322] The NetState phase (0) differed from the phase (1) specified by a rule in layer data_hdf5
I0522 19:51:23.276897 22569 net.cpp:322] The NetState phase (0) differed from the phase (1) specified by a rule in layer accuracy
I0522 19:51:23.277251 22569 net.cpp:49] Initializing net from parameters: 
name: "caffe_test_127x50_x_unshifted"
state {
  phase: TRAIN
}
layer {
  name: "data_hdf5"
  type: "HDF5Data"
  top: "data"
  top: "label"
  include {
    phase: TRAIN
  }
  hdf5_data_param {
    source: "/lustre/atlas/proj-shared/hep105/caffe_titan/minosmatch_nukecczdefs_127x50_x_unshifted_me1Bmc.trainlist"
    batch_size: 40
  }
}
layer {
  name: "conv1"
  type: "Convolution"
  bottom: "data"
  top: "conv1"
  convolution_param {
    num_output: 12
    pad: 0
    stride: 1
    weight_filler {
      type: "xavier"
    }
    bias_filler {
      type: "constant"
    }
    kernel_h: 8
    kernel_w: 3
  }
}
layer {
  name: "relu1"
  type: "ReLU"
  bottom: "conv1"
  top: "conv1"
}
layer {
  name: "pool1"
  type: "Pooling"
  bottom: "conv1"
  top: "pool1"
  pooling_param {
    pool: MAX
    kernel_h: 2
    kernel_w: 1
    stride_h: 2
    stride_w: 1
  }
}
layer {
  name: "conv2"
  type: "Convolution"
  bottom: "pool1"
  top: "conv2"
  convolution_param {
    num_output: 20
    pad: 0
    stride: 1
    weight_filler {
      type: "xavier"
    }
    bias_filler {
      type: "constant"
    }
    kernel_h: 7
    kernel_w: 3
  }
}
layer {
  name: "relu2"
  type: "ReLU"
  bottom: "conv2"
  top: "conv2"
}
layer {
  name: "pool2"
  type: "Pooling"
  bottom: "conv2"
  top: "pool2"
  pooling_param {
    pool: MAX
    kernel_h: 2
    kernel_w: 1
    stride_h: 2
    stride_w: 1
  }
}
layer {
  name: "conv3"
  type: "Convolution"
  bottom: "pool2"
  top: "conv3"
  convolution_param {
    num_output: 28
    pad: 0
    stride: 1
    weight_filler {
      type: "xavier"
    }
    bias_filler {
      type: "constant"
    }
    kernel_h: 6
    kernel_w: 3
  }
}
layer {
  name: "relu3"
  type: "ReLU"
  bottom: "conv3"
  top: "conv3"
}
layer {
  name: "pool3"
  type: "Pooling"
  bottom: "conv3"
  top: "pool3"
  pooling_param {
    pool: MAX
    kernel_h: 2
    kernel_w: 1
    stride_h: 2
    stride_w: 1
  }
}
layer {
  name: "conv4"
  type: "Convolution"
  bottom: "pool3"
  top: "conv4"
  convolution_param {
    num_output: 36
    pad: 0
    stride: 1
    weight_filler {
      type: "xavier"
    }
    bias_filler {
      type: "constant"
    }
    kernel_h: 6
    kernel_w: 3
  }
}
layer {
  name: "relu4"
  type: "ReLU"
  bottom: "conv4"
  top: "conv4"
}
layer {
  name: "pool4"
  type: "Pooling"
  bottom: "conv4"
  top: "pool4"
  pooling_param {
    pool: MAX
    kernel_h: 2
    kernel_w: 1
    stride_h: 2
    stride_w: 1
  }
}
layer {
  name: "ip1"
  type: "InnerProduct"
  bottom: "pool4"
  top: "ip1"
  inner_product_param {
    num_output: 196
    weight_filler {
      type: "xavier"
    }
    bias_filler {
      type: "constant"
    }
  }
}
layer {
  name: "relu5"
  type: "ReLU"
  bottom: "ip1"
  top: "ip1"
}
layer {
  name: "drop1"
  type: "Dropout"
  bottom: "ip1"
  top: "ip1"
  dropout_param {
    dropout_ratio: 0.5
  }
}
layer {
  name: "ip2"
  type: "InnerProduct"
  bottom: "ip1"
  top: "ip2"
  inner_product_param {
    num_output: 98
    weight_filler {
      type: "xavier"
    }
    bias_filler {
      type: "constant"
    }
  }
}
layer {
  name: "relu6"
  type: "ReLU"
  bottom: "ip2"
  top: "ip2"
}
layer {
  name: "drop2"
  type: "Dropout"
  bottom: "ip2"
  top: "ip2"
  dropout_param {
    dropout_ratio: 0.5
  }
}
layer {
  name: "ip3"
  type: "InnerProduct"
  bottom: "ip2"
  top: "ip3"
  inner_product_param {
    num_output: 11
    weight_filler {
      type: "xavier"
    }
    bias_filler {
      type: "constant"
    }
  }
}
layer {
  name: "drop3"
  type: "Dropout"
  bottom: "ip3"
  top: "ip3"
  dropout_param {
    dropout_ratio: 0.5
  }
}
layer {
  name: "loss"
  type: "SoftmaxWithLoss"
  bottom: "ip3"
  bottom: "label"
  top: "loss"
}
I0522 19:51:23.277433 22569 layer_factory.hpp:77] Creating layer data_hdf5
I0522 19:51:23.277456 22569 net.cpp:106] Creating Layer data_hdf5
I0522 19:51:23.277472 22569 net.cpp:411] data_hdf5 -> data
I0522 19:51:23.277505 22569 net.cpp:411] data_hdf5 -> label
I0522 19:51:23.277539 22569 hdf5_data_layer.cpp:79] Loading list of HDF5 filenames from: /lustre/atlas/proj-shared/hep105/caffe_titan/minosmatch_nukecczdefs_127x50_x_unshifted_me1Bmc.trainlist
I0522 19:51:23.287374 22569 hdf5_data_layer.cpp:93] Number of HDF5 files: 15
I0522 19:51:23.305939 22569 hdf5.cpp:32] Datatype class: H5T_FLOAT
I0522 19:51:44.870512 22569 hdf5.cpp:35] Datatype class: H5T_INTEGER
I0522 19:51:44.875676 22569 net.cpp:150] Setting up data_hdf5
I0522 19:51:44.875716 22569 net.cpp:157] Top shape: 40 1 127 50 (254000)
I0522 19:51:44.875731 22569 net.cpp:157] Top shape: 40 (40)
I0522 19:51:44.875742 22569 net.cpp:165] Memory required for data: 1016160
I0522 19:51:44.875756 22569 layer_factory.hpp:77] Creating layer conv1
I0522 19:51:44.875789 22569 net.cpp:106] Creating Layer conv1
I0522 19:51:44.875800 22569 net.cpp:454] conv1 <- data
I0522 19:51:44.875821 22569 net.cpp:411] conv1 -> conv1
I0522 19:51:49.398877 22569 net.cpp:150] Setting up conv1
I0522 19:51:49.398924 22569 net.cpp:157] Top shape: 40 12 120 48 (2764800)
I0522 19:51:49.398936 22569 net.cpp:165] Memory required for data: 12075360
I0522 19:51:49.398964 22569 layer_factory.hpp:77] Creating layer relu1
I0522 19:51:49.398986 22569 net.cpp:106] Creating Layer relu1
I0522 19:51:49.398996 22569 net.cpp:454] relu1 <- conv1
I0522 19:51:49.399010 22569 net.cpp:397] relu1 -> conv1 (in-place)
I0522 19:51:49.399526 22569 net.cpp:150] Setting up relu1
I0522 19:51:49.399543 22569 net.cpp:157] Top shape: 40 12 120 48 (2764800)
I0522 19:51:49.399552 22569 net.cpp:165] Memory required for data: 23134560
I0522 19:51:49.399564 22569 layer_factory.hpp:77] Creating layer pool1
I0522 19:51:49.399580 22569 net.cpp:106] Creating Layer pool1
I0522 19:51:49.399590 22569 net.cpp:454] pool1 <- conv1
I0522 19:51:49.399602 22569 net.cpp:411] pool1 -> pool1
I0522 19:51:49.399682 22569 net.cpp:150] Setting up pool1
I0522 19:51:49.399695 22569 net.cpp:157] Top shape: 40 12 60 48 (1382400)
I0522 19:51:49.399705 22569 net.cpp:165] Memory required for data: 28664160
I0522 19:51:49.399715 22569 layer_factory.hpp:77] Creating layer conv2
I0522 19:51:49.399735 22569 net.cpp:106] Creating Layer conv2
I0522 19:51:49.399746 22569 net.cpp:454] conv2 <- pool1
I0522 19:51:49.399760 22569 net.cpp:411] conv2 -> conv2
I0522 19:51:49.402432 22569 net.cpp:150] Setting up conv2
I0522 19:51:49.402461 22569 net.cpp:157] Top shape: 40 20 54 46 (1987200)
I0522 19:51:49.402472 22569 net.cpp:165] Memory required for data: 36612960
I0522 19:51:49.402493 22569 layer_factory.hpp:77] Creating layer relu2
I0522 19:51:49.402506 22569 net.cpp:106] Creating Layer relu2
I0522 19:51:49.402516 22569 net.cpp:454] relu2 <- conv2
I0522 19:51:49.402529 22569 net.cpp:397] relu2 -> conv2 (in-place)
I0522 19:51:49.402859 22569 net.cpp:150] Setting up relu2
I0522 19:51:49.402873 22569 net.cpp:157] Top shape: 40 20 54 46 (1987200)
I0522 19:51:49.402884 22569 net.cpp:165] Memory required for data: 44561760
I0522 19:51:49.402894 22569 layer_factory.hpp:77] Creating layer pool2
I0522 19:51:49.402906 22569 net.cpp:106] Creating Layer pool2
I0522 19:51:49.402916 22569 net.cpp:454] pool2 <- conv2
I0522 19:51:49.402928 22569 net.cpp:411] pool2 -> pool2
I0522 19:51:49.403009 22569 net.cpp:150] Setting up pool2
I0522 19:51:49.403023 22569 net.cpp:157] Top shape: 40 20 27 46 (993600)
I0522 19:51:49.403033 22569 net.cpp:165] Memory required for data: 48536160
I0522 19:51:49.403043 22569 layer_factory.hpp:77] Creating layer conv3
I0522 19:51:49.403059 22569 net.cpp:106] Creating Layer conv3
I0522 19:51:49.403069 22569 net.cpp:454] conv3 <- pool2
I0522 19:51:49.403082 22569 net.cpp:411] conv3 -> conv3
I0522 19:51:49.405030 22569 net.cpp:150] Setting up conv3
I0522 19:51:49.405053 22569 net.cpp:157] Top shape: 40 28 22 44 (1084160)
I0522 19:51:49.405066 22569 net.cpp:165] Memory required for data: 52872800
I0522 19:51:49.405084 22569 layer_factory.hpp:77] Creating layer relu3
I0522 19:51:49.405100 22569 net.cpp:106] Creating Layer relu3
I0522 19:51:49.405110 22569 net.cpp:454] relu3 <- conv3
I0522 19:51:49.405123 22569 net.cpp:397] relu3 -> conv3 (in-place)
I0522 19:51:49.405597 22569 net.cpp:150] Setting up relu3
I0522 19:51:49.405614 22569 net.cpp:157] Top shape: 40 28 22 44 (1084160)
I0522 19:51:49.405624 22569 net.cpp:165] Memory required for data: 57209440
I0522 19:51:49.405635 22569 layer_factory.hpp:77] Creating layer pool3
I0522 19:51:49.405648 22569 net.cpp:106] Creating Layer pool3
I0522 19:51:49.405658 22569 net.cpp:454] pool3 <- conv3
I0522 19:51:49.405670 22569 net.cpp:411] pool3 -> pool3
I0522 19:51:49.405738 22569 net.cpp:150] Setting up pool3
I0522 19:51:49.405750 22569 net.cpp:157] Top shape: 40 28 11 44 (542080)
I0522 19:51:49.405761 22569 net.cpp:165] Memory required for data: 59377760
I0522 19:51:49.405771 22569 layer_factory.hpp:77] Creating layer conv4
I0522 19:51:49.405786 22569 net.cpp:106] Creating Layer conv4
I0522 19:51:49.405797 22569 net.cpp:454] conv4 <- pool3
I0522 19:51:49.405812 22569 net.cpp:411] conv4 -> conv4
I0522 19:51:49.408561 22569 net.cpp:150] Setting up conv4
I0522 19:51:49.408589 22569 net.cpp:157] Top shape: 40 36 6 42 (362880)
I0522 19:51:49.408601 22569 net.cpp:165] Memory required for data: 60829280
I0522 19:51:49.408615 22569 layer_factory.hpp:77] Creating layer relu4
I0522 19:51:49.408629 22569 net.cpp:106] Creating Layer relu4
I0522 19:51:49.408640 22569 net.cpp:454] relu4 <- conv4
I0522 19:51:49.408654 22569 net.cpp:397] relu4 -> conv4 (in-place)
I0522 19:51:49.409139 22569 net.cpp:150] Setting up relu4
I0522 19:51:49.409157 22569 net.cpp:157] Top shape: 40 36 6 42 (362880)
I0522 19:51:49.409168 22569 net.cpp:165] Memory required for data: 62280800
I0522 19:51:49.409178 22569 layer_factory.hpp:77] Creating layer pool4
I0522 19:51:49.409191 22569 net.cpp:106] Creating Layer pool4
I0522 19:51:49.409201 22569 net.cpp:454] pool4 <- conv4
I0522 19:51:49.409214 22569 net.cpp:411] pool4 -> pool4
I0522 19:51:49.409282 22569 net.cpp:150] Setting up pool4
I0522 19:51:49.409296 22569 net.cpp:157] Top shape: 40 36 3 42 (181440)
I0522 19:51:49.409307 22569 net.cpp:165] Memory required for data: 63006560
I0522 19:51:49.409317 22569 layer_factory.hpp:77] Creating layer ip1
I0522 19:51:49.409335 22569 net.cpp:106] Creating Layer ip1
I0522 19:51:49.409345 22569 net.cpp:454] ip1 <- pool4
I0522 19:51:49.409359 22569 net.cpp:411] ip1 -> ip1
I0522 19:51:49.424794 22569 net.cpp:150] Setting up ip1
I0522 19:51:49.424823 22569 net.cpp:157] Top shape: 40 196 (7840)
I0522 19:51:49.424837 22569 net.cpp:165] Memory required for data: 63037920
I0522 19:51:49.424860 22569 layer_factory.hpp:77] Creating layer relu5
I0522 19:51:49.424880 22569 net.cpp:106] Creating Layer relu5
I0522 19:51:49.424890 22569 net.cpp:454] relu5 <- ip1
I0522 19:51:49.424903 22569 net.cpp:397] relu5 -> ip1 (in-place)
I0522 19:51:49.425246 22569 net.cpp:150] Setting up relu5
I0522 19:51:49.425261 22569 net.cpp:157] Top shape: 40 196 (7840)
I0522 19:51:49.425271 22569 net.cpp:165] Memory required for data: 63069280
I0522 19:51:49.425281 22569 layer_factory.hpp:77] Creating layer drop1
I0522 19:51:49.425303 22569 net.cpp:106] Creating Layer drop1
I0522 19:51:49.425313 22569 net.cpp:454] drop1 <- ip1
I0522 19:51:49.425325 22569 net.cpp:397] drop1 -> ip1 (in-place)
I0522 19:51:49.425389 22569 net.cpp:150] Setting up drop1
I0522 19:51:49.425401 22569 net.cpp:157] Top shape: 40 196 (7840)
I0522 19:51:49.425411 22569 net.cpp:165] Memory required for data: 63100640
I0522 19:51:49.425421 22569 layer_factory.hpp:77] Creating layer ip2
I0522 19:51:49.425439 22569 net.cpp:106] Creating Layer ip2
I0522 19:51:49.425449 22569 net.cpp:454] ip2 <- ip1
I0522 19:51:49.425462 22569 net.cpp:411] ip2 -> ip2
I0522 19:51:49.425925 22569 net.cpp:150] Setting up ip2
I0522 19:51:49.425937 22569 net.cpp:157] Top shape: 40 98 (3920)
I0522 19:51:49.425946 22569 net.cpp:165] Memory required for data: 63116320
I0522 19:51:49.425961 22569 layer_factory.hpp:77] Creating layer relu6
I0522 19:51:49.425974 22569 net.cpp:106] Creating Layer relu6
I0522 19:51:49.425983 22569 net.cpp:454] relu6 <- ip2
I0522 19:51:49.425995 22569 net.cpp:397] relu6 -> ip2 (in-place)
I0522 19:51:49.426511 22569 net.cpp:150] Setting up relu6
I0522 19:51:49.426527 22569 net.cpp:157] Top shape: 40 98 (3920)
I0522 19:51:49.426538 22569 net.cpp:165] Memory required for data: 63132000
I0522 19:51:49.426549 22569 layer_factory.hpp:77] Creating layer drop2
I0522 19:51:49.426563 22569 net.cpp:106] Creating Layer drop2
I0522 19:51:49.426573 22569 net.cpp:454] drop2 <- ip2
I0522 19:51:49.426585 22569 net.cpp:397] drop2 -> ip2 (in-place)
I0522 19:51:49.426627 22569 net.cpp:150] Setting up drop2
I0522 19:51:49.426642 22569 net.cpp:157] Top shape: 40 98 (3920)
I0522 19:51:49.426652 22569 net.cpp:165] Memory required for data: 63147680
I0522 19:51:49.426661 22569 layer_factory.hpp:77] Creating layer ip3
I0522 19:51:49.426676 22569 net.cpp:106] Creating Layer ip3
I0522 19:51:49.426686 22569 net.cpp:454] ip3 <- ip2
I0522 19:51:49.426698 22569 net.cpp:411] ip3 -> ip3
I0522 19:51:49.426908 22569 net.cpp:150] Setting up ip3
I0522 19:51:49.426920 22569 net.cpp:157] Top shape: 40 11 (440)
I0522 19:51:49.426930 22569 net.cpp:165] Memory required for data: 63149440
I0522 19:51:49.426945 22569 layer_factory.hpp:77] Creating layer drop3
I0522 19:51:49.426959 22569 net.cpp:106] Creating Layer drop3
I0522 19:51:49.426967 22569 net.cpp:454] drop3 <- ip3
I0522 19:51:49.426980 22569 net.cpp:397] drop3 -> ip3 (in-place)
I0522 19:51:49.427019 22569 net.cpp:150] Setting up drop3
I0522 19:51:49.427032 22569 net.cpp:157] Top shape: 40 11 (440)
I0522 19:51:49.427042 22569 net.cpp:165] Memory required for data: 63151200
I0522 19:51:49.427052 22569 layer_factory.hpp:77] Creating layer loss
I0522 19:51:49.427072 22569 net.cpp:106] Creating Layer loss
I0522 19:51:49.427081 22569 net.cpp:454] loss <- ip3
I0522 19:51:49.427093 22569 net.cpp:454] loss <- label
I0522 19:51:49.427104 22569 net.cpp:411] loss -> loss
I0522 19:51:49.427121 22569 layer_factory.hpp:77] Creating layer loss
…
I0522 19:51:49.429911 22569 solver.cpp:181] Creating test net (#0) specified by net file: /lustre/atlas/proj-shared/hep105/caffe_titan/caffe_workflow/logs_bslr/bs_40_lr_0.0025_2016-05-20T15.49.02.631491.prototxt
I0522 19:51:49.429982 22569 net.cpp:322] The NetState phase (1) differed from the phase (0) specified by a rule in layer data_hdf5
I0522 19:51:49.430341 22569 net.cpp:49] Initializing net from parameters: 
name: "caffe_test_127x50_x_unshifted"
state {
  phase: TEST
}
layer {
  name: "data_hdf5"
  type: "HDF5Data"
  top: "data"
  top: "label"
  include {
    phase: TEST
  }
  hdf5_data_param {
    source: "/lustre/atlas/proj-shared/hep105/caffe_titan/minosmatch_nukecczdefs_127x50_x_unshifted_me1Bmc.testlist"
    batch_size: 40
  }
}
layer {
  name: "conv1"
  type: "Convolution"
  bottom: "data"
  top: "conv1"
  convolution_param {
    num_output: 12
    pad: 0
    stride: 1
    weight_filler {
      type: "xavier"
    }
    bias_filler {
      type: "constant"
    }
    kernel_h: 8
    kernel_w: 3
  }
}
layer {
  name: "relu1"
  type: "ReLU"
  bottom: "conv1"
  top: "conv1"
}
layer {
  name: "pool1"
  type: "Pooling"
  bottom: "conv1"
  top: "pool1"
  pooling_param {
    pool: MAX
    kernel_h: 2
    kernel_w: 1
    stride_h: 2
    stride_w: 1
  }
}
layer {
  name: "conv2"
  type: "Convolution"
  bottom: "pool1"
  top: "conv2"
  convolution_param {
    num_output: 20
    pad: 0
    stride: 1
    weight_filler {
      type: "xavier"
    }
    bias_filler {
      type: "constant"
    }
    kernel_h: 7
    kernel_w: 3
  }
}
layer {
  name: "relu2"
  type: "ReLU"
  bottom: "conv2"
  top: "conv2"
}
layer {
  name: "pool2"
  type: "Pooling"
  bottom: "conv2"
  top: "pool2"
  pooling_param {
    pool: MAX
    kernel_h: 2
    kernel_w: 1
    stride_h: 2
    stride_w: 1
  }
}
layer {
  name: "conv3"
  type: "Convolution"
  bottom: "pool2"
  top: "conv3"
  convolution_param {
    num_output: 28
    pad: 0
    stride: 1
    weight_filler {
      type: "xavier"
    }
    bias_filler {
      type: "constant"
    }
    kernel_h: 6
    kernel_w: 3
  }
}
layer {
  name: "relu3"
  type: "ReLU"
  bottom: "conv3"
  top: "conv3"
}
layer {
  name: "pool3"
  type: "Pooling"
  bottom: "conv3"
  top: "pool3"
  pooling_param {
    pool: MAX
    kernel_h: 2
    kernel_w: 1
    stride_h: 2
    stride_w: 1
  }
}
layer {
  name: "conv4"
  type: "Convolution"
  bottom: "pool3"
  top: "conv4"
  convolution_param {
    num_output: 36
    pad: 0
    stride: 1
    weight_filler {
      type: "xavier"
    }
    bias_filler {
      type: "constant"
    }
    kernel_h: 6
    kernel_w: 3
  }
}
layer {
  name: "relu4"
  type: "ReLU"
  bottom: "conv4"
  top: "conv4"
}
layer {
  name: "pool4"
  type: "Pooling"
  bottom: "conv4"
  top: "pool4"
  pooling_param {
    pool: MAX
    kernel_h: 2
    kernel_w: 1
    stride_h: 2
    stride_w: 1
  }
}
layer {
  name: "ip1"
  type: "InnerProduct"
  bottom: "pool4"
  top: "ip1"
  inner_product_param {
    num_output: 196
    weight_filler {
      type: "xavier"
    }
    bias_filler {
      type: "constant"
    }
  }
}
layer {
  name: "relu5"
  type: "ReLU"
  bottom: "ip1"
  top: "ip1"
}
layer {
  name: "drop1"
  type: "Dropout"
  bottom: "ip1"
  top: "ip1"
  dropout_param {
    dropout_ratio: 0.5
  }
}
layer {
  name: "ip2"
  type: "InnerProduct"
  bottom: "ip1"
  top: "ip2"
  inner_product_param {
    num_output: 98
    weight_filler {
      type: "xavier"
    }
    bias_filler {
      type: "constant"
    }
  }
}
layer {
  name: "relu6"
  type: "ReLU"
  bottom: "ip2"
  top: "ip2"
}
layer {
  name: "drop2"
  type: "Dropout"
  bottom: "ip2"
  top: "ip2"
  dropout_param {
    dropout_ratio: 0.5
  }
}
layer {
  name: "ip3"
  type: "InnerProduct"
  bottom: "ip2"
  top: "ip3"
  inner_product_param {
    num_output: 11
    weight_filler {
      type: "xavier"
    }
    bias_filler {
      type: "constant"
    }
  }
}
layer {
  name: "drop3"
  type: "Dropout"
  bottom: "ip3"
  top: "ip3"
  dropout_param {
    dropout_ratio: 0.5
  }
}
layer {
  name: "accuracy"
  type: "Accuracy"
  bottom: "ip3"
  bottom: "label"
  top: "accuracy"
  include {
    phase: TEST
  }
}
layer {
  name: "loss"
  type: "SoftmaxWithLoss"
  bottom: "ip3"
  bottom: "label"
  top: "loss"
}
I0522 19:51:49.430527 22569 layer_factory.hpp:77] Creating layer data_hdf5
I0522 19:51:49.430542 22569 net.cpp:106] Creating Layer data_hdf5
I0522 19:51:49.430554 22569 net.cpp:411] data_hdf5 -> data
I0522 19:51:49.430572 22569 net.cpp:411] data_hdf5 -> label
I0522 19:51:49.430586 22569 hdf5_data_layer.cpp:79] Loading list of HDF5 filenames from: /lustre/atlas/proj-shared/hep105/caffe_titan/minosmatch_nukecczdefs_127x50_x_unshifted_me1Bmc.testlist
I0522 19:51:49.437335 22569 hdf5_data_layer.cpp:93] Number of HDF5 files: 3
I0522 19:52:10.802747 22569 net.cpp:150] Setting up data_hdf5
I0522 19:52:10.802913 22569 net.cpp:157] Top shape: 40 1 127 50 (254000)
I0522 19:52:10.802927 22569 net.cpp:157] Top shape: 40 (40)
I0522 19:52:10.802940 22569 net.cpp:165] Memory required for data: 1016160
I0522 19:52:10.802953 22569 layer_factory.hpp:77] Creating layer label_data_hdf5_1_split
I0522 19:52:10.802983 22569 net.cpp:106] Creating Layer label_data_hdf5_1_split
I0522 19:52:10.802994 22569 net.cpp:454] label_data_hdf5_1_split <- label
I0522 19:52:10.803007 22569 net.cpp:411] label_data_hdf5_1_split -> label_data_hdf5_1_split_0
I0522 19:52:10.803028 22569 net.cpp:411] label_data_hdf5_1_split -> label_data_hdf5_1_split_1
I0522 19:52:10.803100 22569 net.cpp:150] Setting up label_data_hdf5_1_split
I0522 19:52:10.803114 22569 net.cpp:157] Top shape: 40 (40)
I0522 19:52:10.803127 22569 net.cpp:157] Top shape: 40 (40)
I0522 19:52:10.803136 22569 net.cpp:165] Memory required for data: 1016480
I0522 19:52:10.803146 22569 layer_factory.hpp:77] Creating layer conv1
I0522 19:52:10.803167 22569 net.cpp:106] Creating Layer conv1
I0522 19:52:10.803179 22569 net.cpp:454] conv1 <- data
I0522 19:52:10.803194 22569 net.cpp:411] conv1 -> conv1
I0522 19:52:10.805119 22569 net.cpp:150] Setting up conv1
I0522 19:52:10.805143 22569 net.cpp:157] Top shape: 40 12 120 48 (2764800)
I0522 19:52:10.805155 22569 net.cpp:165] Memory required for data: 12075680
I0522 19:52:10.805176 22569 layer_factory.hpp:77] Creating layer relu1
I0522 19:52:10.805191 22569 net.cpp:106] Creating Layer relu1
I0522 19:52:10.805200 22569 net.cpp:454] relu1 <- conv1
I0522 19:52:10.805213 22569 net.cpp:397] relu1 -> conv1 (in-place)
I0522 19:52:10.805711 22569 net.cpp:150] Setting up relu1
I0522 19:52:10.805727 22569 net.cpp:157] Top shape: 40 12 120 48 (2764800)
I0522 19:52:10.805737 22569 net.cpp:165] Memory required for data: 23134880
I0522 19:52:10.805748 22569 layer_factory.hpp:77] Creating layer pool1
I0522 19:52:10.805764 22569 net.cpp:106] Creating Layer pool1
I0522 19:52:10.805774 22569 net.cpp:454] pool1 <- conv1
I0522 19:52:10.805786 22569 net.cpp:411] pool1 -> pool1
I0522 19:52:10.805861 22569 net.cpp:150] Setting up pool1
I0522 19:52:10.805874 22569 net.cpp:157] Top shape: 40 12 60 48 (1382400)
I0522 19:52:10.805883 22569 net.cpp:165] Memory required for data: 28664480
I0522 19:52:10.805891 22569 layer_factory.hpp:77] Creating layer conv2
I0522 19:52:10.805909 22569 net.cpp:106] Creating Layer conv2
I0522 19:52:10.805920 22569 net.cpp:454] conv2 <- pool1
I0522 19:52:10.805934 22569 net.cpp:411] conv2 -> conv2
I0522 19:52:10.807837 22569 net.cpp:150] Setting up conv2
I0522 19:52:10.807860 22569 net.cpp:157] Top shape: 40 20 54 46 (1987200)
I0522 19:52:10.807873 22569 net.cpp:165] Memory required for data: 36613280
I0522 19:52:10.807890 22569 layer_factory.hpp:77] Creating layer relu2
I0522 19:52:10.807904 22569 net.cpp:106] Creating Layer relu2
I0522 19:52:10.807914 22569 net.cpp:454] relu2 <- conv2
I0522 19:52:10.807925 22569 net.cpp:397] relu2 -> conv2 (in-place)
I0522 19:52:10.808259 22569 net.cpp:150] Setting up relu2
I0522 19:52:10.808272 22569 net.cpp:157] Top shape: 40 20 54 46 (1987200)
I0522 19:52:10.808282 22569 net.cpp:165] Memory required for data: 44562080
I0522 19:52:10.808292 22569 layer_factory.hpp:77] Creating layer pool2
I0522 19:52:10.808306 22569 net.cpp:106] Creating Layer pool2
I0522 19:52:10.808316 22569 net.cpp:454] pool2 <- conv2
I0522 19:52:10.808329 22569 net.cpp:411] pool2 -> pool2
I0522 19:52:10.808399 22569 net.cpp:150] Setting up pool2
I0522 19:52:10.808413 22569 net.cpp:157] Top shape: 40 20 27 46 (993600)
I0522 19:52:10.808423 22569 net.cpp:165] Memory required for data: 48536480
I0522 19:52:10.808432 22569 layer_factory.hpp:77] Creating layer conv3
I0522 19:52:10.808449 22569 net.cpp:106] Creating Layer conv3
I0522 19:52:10.808459 22569 net.cpp:454] conv3 <- pool2
I0522 19:52:10.808473 22569 net.cpp:411] conv3 -> conv3
I0522 19:52:10.810446 22569 net.cpp:150] Setting up conv3
I0522 19:52:10.810469 22569 net.cpp:157] Top shape: 40 28 22 44 (1084160)
I0522 19:52:10.810479 22569 net.cpp:165] Memory required for data: 52873120
I0522 19:52:10.810511 22569 layer_factory.hpp:77] Creating layer relu3
I0522 19:52:10.810524 22569 net.cpp:106] Creating Layer relu3
I0522 19:52:10.810535 22569 net.cpp:454] relu3 <- conv3
I0522 19:52:10.810549 22569 net.cpp:397] relu3 -> conv3 (in-place)
I0522 19:52:10.811022 22569 net.cpp:150] Setting up relu3
I0522 19:52:10.811038 22569 net.cpp:157] Top shape: 40 28 22 44 (1084160)
I0522 19:52:10.811048 22569 net.cpp:165] Memory required for data: 57209760
I0522 19:52:10.811058 22569 layer_factory.hpp:77] Creating layer pool3
I0522 19:52:10.811071 22569 net.cpp:106] Creating Layer pool3
I0522 19:52:10.811081 22569 net.cpp:454] pool3 <- conv3
I0522 19:52:10.811094 22569 net.cpp:411] pool3 -> pool3
I0522 19:52:10.811166 22569 net.cpp:150] Setting up pool3
I0522 19:52:10.811179 22569 net.cpp:157] Top shape: 40 28 11 44 (542080)
I0522 19:52:10.811188 22569 net.cpp:165] Memory required for data: 59378080
I0522 19:52:10.811198 22569 layer_factory.hpp:77] Creating layer conv4
I0522 19:52:10.811213 22569 net.cpp:106] Creating Layer conv4
I0522 19:52:10.811223 22569 net.cpp:454] conv4 <- pool3
I0522 19:52:10.811238 22569 net.cpp:411] conv4 -> conv4
I0522 19:52:10.813298 22569 net.cpp:150] Setting up conv4
I0522 19:52:10.813320 22569 net.cpp:157] Top shape: 40 36 6 42 (362880)
I0522 19:52:10.813333 22569 net.cpp:165] Memory required for data: 60829600
I0522 19:52:10.813349 22569 layer_factory.hpp:77] Creating layer relu4
I0522 19:52:10.813361 22569 net.cpp:106] Creating Layer relu4
I0522 19:52:10.813371 22569 net.cpp:454] relu4 <- conv4
I0522 19:52:10.813383 22569 net.cpp:397] relu4 -> conv4 (in-place)
I0522 19:52:10.813853 22569 net.cpp:150] Setting up relu4
I0522 19:52:10.813869 22569 net.cpp:157] Top shape: 40 36 6 42 (362880)
I0522 19:52:10.813880 22569 net.cpp:165] Memory required for data: 62281120
I0522 19:52:10.813889 22569 layer_factory.hpp:77] Creating layer pool4
I0522 19:52:10.813902 22569 net.cpp:106] Creating Layer pool4
I0522 19:52:10.813912 22569 net.cpp:454] pool4 <- conv4
I0522 19:52:10.813925 22569 net.cpp:411] pool4 -> pool4
I0522 19:52:10.813997 22569 net.cpp:150] Setting up pool4
I0522 19:52:10.814009 22569 net.cpp:157] Top shape: 40 36 3 42 (181440)
I0522 19:52:10.814019 22569 net.cpp:165] Memory required for data: 63006880
I0522 19:52:10.814029 22569 layer_factory.hpp:77] Creating layer ip1
I0522 19:52:10.814044 22569 net.cpp:106] Creating Layer ip1
I0522 19:52:10.814055 22569 net.cpp:454] ip1 <- pool4
I0522 19:52:10.814067 22569 net.cpp:411] ip1 -> ip1
I0522 19:52:10.829506 22569 net.cpp:150] Setting up ip1
I0522 19:52:10.829535 22569 net.cpp:157] Top shape: 40 196 (7840)
I0522 19:52:10.829546 22569 net.cpp:165] Memory required for data: 63038240
I0522 19:52:10.829568 22569 layer_factory.hpp:77] Creating layer relu5
I0522 19:52:10.829583 22569 net.cpp:106] Creating Layer relu5
I0522 19:52:10.829593 22569 net.cpp:454] relu5 <- ip1
I0522 19:52:10.829607 22569 net.cpp:397] relu5 -> ip1 (in-place)
I0522 19:52:10.829953 22569 net.cpp:150] Setting up relu5
I0522 19:52:10.829967 22569 net.cpp:157] Top shape: 40 196 (7840)
I0522 19:52:10.829977 22569 net.cpp:165] Memory required for data: 63069600
I0522 19:52:10.829988 22569 layer_factory.hpp:77] Creating layer drop1
I0522 19:52:10.830006 22569 net.cpp:106] Creating Layer drop1
I0522 19:52:10.830016 22569 net.cpp:454] drop1 <- ip1
I0522 19:52:10.830029 22569 net.cpp:397] drop1 -> ip1 (in-place)
I0522 19:52:10.830075 22569 net.cpp:150] Setting up drop1
I0522 19:52:10.830088 22569 net.cpp:157] Top shape: 40 196 (7840)
I0522 19:52:10.830097 22569 net.cpp:165] Memory required for data: 63100960
I0522 19:52:10.830107 22569 layer_factory.hpp:77] Creating layer ip2
I0522 19:52:10.830121 22569 net.cpp:106] Creating Layer ip2
I0522 19:52:10.830132 22569 net.cpp:454] ip2 <- ip1
I0522 19:52:10.830145 22569 net.cpp:411] ip2 -> ip2
I0522 19:52:10.830624 22569 net.cpp:150] Setting up ip2
I0522 19:52:10.830637 22569 net.cpp:157] Top shape: 40 98 (3920)
I0522 19:52:10.830647 22569 net.cpp:165] Memory required for data: 63116640
I0522 19:52:10.830663 22569 layer_factory.hpp:77] Creating layer relu6
I0522 19:52:10.830688 22569 net.cpp:106] Creating Layer relu6
I0522 19:52:10.830698 22569 net.cpp:454] relu6 <- ip2
I0522 19:52:10.830711 22569 net.cpp:397] relu6 -> ip2 (in-place)
I0522 19:52:10.831251 22569 net.cpp:150] Setting up relu6
I0522 19:52:10.831274 22569 net.cpp:157] Top shape: 40 98 (3920)
I0522 19:52:10.831282 22569 net.cpp:165] Memory required for data: 63132320
I0522 19:52:10.831292 22569 layer_factory.hpp:77] Creating layer drop2
I0522 19:52:10.831305 22569 net.cpp:106] Creating Layer drop2
I0522 19:52:10.831315 22569 net.cpp:454] drop2 <- ip2
I0522 19:52:10.831328 22569 net.cpp:397] drop2 -> ip2 (in-place)
I0522 19:52:10.831372 22569 net.cpp:150] Setting up drop2
I0522 19:52:10.831385 22569 net.cpp:157] Top shape: 40 98 (3920)
I0522 19:52:10.831395 22569 net.cpp:165] Memory required for data: 63148000
I0522 19:52:10.831405 22569 layer_factory.hpp:77] Creating layer ip3
I0522 19:52:10.831419 22569 net.cpp:106] Creating Layer ip3
I0522 19:52:10.831429 22569 net.cpp:454] ip3 <- ip2
I0522 19:52:10.831444 22569 net.cpp:411] ip3 -> ip3
I0522 19:52:10.831666 22569 net.cpp:150] Setting up ip3
I0522 19:52:10.831679 22569 net.cpp:157] Top shape: 40 11 (440)
I0522 19:52:10.831689 22569 net.cpp:165] Memory required for data: 63149760
I0522 19:52:10.831704 22569 layer_factory.hpp:77] Creating layer drop3
I0522 19:52:10.831717 22569 net.cpp:106] Creating Layer drop3
I0522 19:52:10.831727 22569 net.cpp:454] drop3 <- ip3
I0522 19:52:10.831740 22569 net.cpp:397] drop3 -> ip3 (in-place)
I0522 19:52:10.831782 22569 net.cpp:150] Setting up drop3
I0522 19:52:10.831794 22569 net.cpp:157] Top shape: 40 11 (440)
I0522 19:52:10.831804 22569 net.cpp:165] Memory required for data: 63151520
I0522 19:52:10.831815 22569 layer_factory.hpp:77] Creating layer ip3_drop3_0_split
I0522 19:52:10.831827 22569 net.cpp:106] Creating Layer ip3_drop3_0_split
I0522 19:52:10.831837 22569 net.cpp:454] ip3_drop3_0_split <- ip3
I0522 19:52:10.831851 22569 net.cpp:411] ip3_drop3_0_split -> ip3_drop3_0_split_0
I0522 19:52:10.831864 22569 net.cpp:411] ip3_drop3_0_split -> ip3_drop3_0_split_1
I0522 19:52:10.831939 22569 net.cpp:150] Setting up ip3_drop3_0_split
I0522 19:52:10.831953 22569 net.cpp:157] Top shape: 40 11 (440)
I0522 19:52:10.831964 22569 net.cpp:157] Top shape: 40 11 (440)
I0522 19:52:10.831974 22569 net.cpp:165] Memory required for data: 63155040
I0522 19:52:10.831984 22569 layer_factory.hpp:77] Creating layer accuracy
I0522 19:52:10.832005 22569 net.cpp:106] Creating Layer accuracy
I0522 19:52:10.832015 22569 net.cpp:454] accuracy <- ip3_drop3_0_split_0
I0522 19:52:10.832027 22569 net.cpp:454] accuracy <- label_data_hdf5_1_split_0
I0522 19:52:10.832041 22569 net.cpp:411] accuracy -> accuracy
…
