…
I0522 16:10:05.108098 31280 net.cpp:322] The NetState phase (0) differed from the phase (1) specified by a rule in layer data_hdf5
I0522 16:10:05.108157 31280 net.cpp:322] The NetState phase (0) differed from the phase (1) specified by a rule in layer accuracy
I0522 16:10:05.108505 31280 net.cpp:49] Initializing net from parameters: 
name: "caffe_test_127x50_x_unshifted"
state {
  phase: TRAIN
}
layer {
  name: "data_hdf5"
  type: "HDF5Data"
  top: "data"
  top: "label"
  include {
    phase: TRAIN
  }
  hdf5_data_param {
    source: "/lustre/atlas/proj-shared/hep105/caffe_titan/minosmatch_nukecczdefs_127x50_x_unshifted_me1Bmc.trainlist"
    batch_size: 40
  }
}
layer {
  name: "conv1"
  type: "Convolution"
  bottom: "data"
  top: "conv1"
  convolution_param {
    num_output: 12
    pad: 0
    stride: 1
    weight_filler {
      type: "xavier"
    }
    bias_filler {
      type: "constant"
    }
    kernel_h: 8
    kernel_w: 3
  }
}
layer {
  name: "relu1"
  type: "ReLU"
  bottom: "conv1"
  top: "conv1"
}
layer {
  name: "pool1"
  type: "Pooling"
  bottom: "conv1"
  top: "pool1"
  pooling_param {
    pool: MAX
    kernel_h: 2
    kernel_w: 1
    stride_h: 2
    stride_w: 1
  }
}
layer {
  name: "conv2"
  type: "Convolution"
  bottom: "pool1"
  top: "conv2"
  convolution_param {
    num_output: 20
    pad: 0
    stride: 1
    weight_filler {
      type: "xavier"
    }
    bias_filler {
      type: "constant"
    }
    kernel_h: 7
    kernel_w: 3
  }
}
layer {
  name: "relu2"
  type: "ReLU"
  bottom: "conv2"
  top: "conv2"
}
layer {
  name: "pool2"
  type: "Pooling"
  bottom: "conv2"
  top: "pool2"
  pooling_param {
    pool: MAX
    kernel_h: 2
    kernel_w: 1
    stride_h: 2
    stride_w: 1
  }
}
layer {
  name: "conv3"
  type: "Convolution"
  bottom: "pool2"
  top: "conv3"
  convolution_param {
    num_output: 28
    pad: 0
    stride: 1
    weight_filler {
      type: "xavier"
    }
    bias_filler {
      type: "constant"
    }
    kernel_h: 6
    kernel_w: 3
  }
}
layer {
  name: "relu3"
  type: "ReLU"
  bottom: "conv3"
  top: "conv3"
}
layer {
  name: "pool3"
  type: "Pooling"
  bottom: "conv3"
  top: "pool3"
  pooling_param {
    pool: MAX
    kernel_h: 2
    kernel_w: 1
    stride_h: 2
    stride_w: 1
  }
}
layer {
  name: "conv4"
  type: "Convolution"
  bottom: "pool3"
  top: "conv4"
  convolution_param {
    num_output: 36
    pad: 0
    stride: 1
    weight_filler {
      type: "xavier"
    }
    bias_filler {
      type: "constant"
    }
    kernel_h: 6
    kernel_w: 3
  }
}
layer {
  name: "relu4"
  type: "ReLU"
  bottom: "conv4"
  top: "conv4"
}
layer {
  name: "pool4"
  type: "Pooling"
  bottom: "conv4"
  top: "pool4"
  pooling_param {
    pool: MAX
    kernel_h: 2
    kernel_w: 1
    stride_h: 2
    stride_w: 1
  }
}
layer {
  name: "ip1"
  type: "InnerProduct"
  bottom: "pool4"
  top: "ip1"
  inner_product_param {
    num_output: 196
    weight_filler {
      type: "xavier"
    }
    bias_filler {
      type: "constant"
    }
  }
}
layer {
  name: "relu5"
  type: "ReLU"
  bottom: "ip1"
  top: "ip1"
}
layer {
  name: "drop1"
  type: "Dropout"
  bottom: "ip1"
  top: "ip1"
  dropout_param {
    dropout_ratio: 0.5
  }
}
layer {
  name: "ip2"
  type: "InnerProduct"
  bottom: "ip1"
  top: "ip2"
  inner_product_param {
    num_output: 98
    weight_filler {
      type: "xavier"
    }
    bias_filler {
      type: "constant"
    }
  }
}
layer {
  name: "relu6"
  type: "ReLU"
  bottom: "ip2"
  top: "ip2"
}
layer {
  name: "drop2"
  type: "Dropout"
  bottom: "ip2"
  top: "ip2"
  dropout_param {
    dropout_ratio: 0.5
  }
}
layer {
  name: "ip3"
  type: "InnerProduct"
  bottom: "ip2"
  top: "ip3"
  inner_product_param {
    num_output: 11
    weight_filler {
      type: "xavier"
    }
    bias_filler {
      type: "constant"
    }
  }
}
layer {
  name: "drop3"
  type: "Dropout"
  bottom: "ip3"
  top: "ip3"
  dropout_param {
    dropout_ratio: 0.5
  }
}
layer {
  name: "loss"
  type: "SoftmaxWithLoss"
  bottom: "ip3"
  bottom: "label"
  top: "loss"
}
I0522 16:10:05.108687 31280 layer_factory.hpp:77] Creating layer data_hdf5
I0522 16:10:05.108711 31280 net.cpp:106] Creating Layer data_hdf5
I0522 16:10:05.108726 31280 net.cpp:411] data_hdf5 -> data
I0522 16:10:05.108760 31280 net.cpp:411] data_hdf5 -> label
I0522 16:10:05.108793 31280 hdf5_data_layer.cpp:79] Loading list of HDF5 filenames from: /lustre/atlas/proj-shared/hep105/caffe_titan/minosmatch_nukecczdefs_127x50_x_unshifted_me1Bmc.trainlist
I0522 16:10:05.110229 31280 hdf5_data_layer.cpp:93] Number of HDF5 files: 15
I0522 16:10:05.112506 31280 hdf5.cpp:32] Datatype class: H5T_FLOAT
I0522 16:10:26.639273 31280 hdf5.cpp:35] Datatype class: H5T_INTEGER
I0522 16:10:26.644479 31280 net.cpp:150] Setting up data_hdf5
I0522 16:10:26.644523 31280 net.cpp:157] Top shape: 40 1 127 50 (254000)
I0522 16:10:26.644537 31280 net.cpp:157] Top shape: 40 (40)
I0522 16:10:26.644547 31280 net.cpp:165] Memory required for data: 1016160
I0522 16:10:26.644561 31280 layer_factory.hpp:77] Creating layer conv1
I0522 16:10:26.644595 31280 net.cpp:106] Creating Layer conv1
I0522 16:10:26.644606 31280 net.cpp:454] conv1 <- data
I0522 16:10:26.644629 31280 net.cpp:411] conv1 -> conv1
I0522 16:10:27.006683 31280 net.cpp:150] Setting up conv1
I0522 16:10:27.006731 31280 net.cpp:157] Top shape: 40 12 120 48 (2764800)
I0522 16:10:27.006742 31280 net.cpp:165] Memory required for data: 12075360
I0522 16:10:27.006772 31280 layer_factory.hpp:77] Creating layer relu1
I0522 16:10:27.006793 31280 net.cpp:106] Creating Layer relu1
I0522 16:10:27.006805 31280 net.cpp:454] relu1 <- conv1
I0522 16:10:27.006819 31280 net.cpp:397] relu1 -> conv1 (in-place)
I0522 16:10:27.007335 31280 net.cpp:150] Setting up relu1
I0522 16:10:27.007351 31280 net.cpp:157] Top shape: 40 12 120 48 (2764800)
I0522 16:10:27.007362 31280 net.cpp:165] Memory required for data: 23134560
I0522 16:10:27.007374 31280 layer_factory.hpp:77] Creating layer pool1
I0522 16:10:27.007390 31280 net.cpp:106] Creating Layer pool1
I0522 16:10:27.007400 31280 net.cpp:454] pool1 <- conv1
I0522 16:10:27.007414 31280 net.cpp:411] pool1 -> pool1
I0522 16:10:27.007494 31280 net.cpp:150] Setting up pool1
I0522 16:10:27.007508 31280 net.cpp:157] Top shape: 40 12 60 48 (1382400)
I0522 16:10:27.007519 31280 net.cpp:165] Memory required for data: 28664160
I0522 16:10:27.007529 31280 layer_factory.hpp:77] Creating layer conv2
I0522 16:10:27.007552 31280 net.cpp:106] Creating Layer conv2
I0522 16:10:27.007562 31280 net.cpp:454] conv2 <- pool1
I0522 16:10:27.007575 31280 net.cpp:411] conv2 -> conv2
I0522 16:10:27.010256 31280 net.cpp:150] Setting up conv2
I0522 16:10:27.010284 31280 net.cpp:157] Top shape: 40 20 54 46 (1987200)
I0522 16:10:27.010295 31280 net.cpp:165] Memory required for data: 36612960
I0522 16:10:27.010314 31280 layer_factory.hpp:77] Creating layer relu2
I0522 16:10:27.010329 31280 net.cpp:106] Creating Layer relu2
I0522 16:10:27.010339 31280 net.cpp:454] relu2 <- conv2
I0522 16:10:27.010351 31280 net.cpp:397] relu2 -> conv2 (in-place)
I0522 16:10:27.010681 31280 net.cpp:150] Setting up relu2
I0522 16:10:27.010696 31280 net.cpp:157] Top shape: 40 20 54 46 (1987200)
I0522 16:10:27.010707 31280 net.cpp:165] Memory required for data: 44561760
I0522 16:10:27.010717 31280 layer_factory.hpp:77] Creating layer pool2
I0522 16:10:27.010730 31280 net.cpp:106] Creating Layer pool2
I0522 16:10:27.010740 31280 net.cpp:454] pool2 <- conv2
I0522 16:10:27.010756 31280 net.cpp:411] pool2 -> pool2
I0522 16:10:27.010838 31280 net.cpp:150] Setting up pool2
I0522 16:10:27.010851 31280 net.cpp:157] Top shape: 40 20 27 46 (993600)
I0522 16:10:27.010861 31280 net.cpp:165] Memory required for data: 48536160
I0522 16:10:27.010871 31280 layer_factory.hpp:77] Creating layer conv3
I0522 16:10:27.010890 31280 net.cpp:106] Creating Layer conv3
I0522 16:10:27.010900 31280 net.cpp:454] conv3 <- pool2
I0522 16:10:27.010913 31280 net.cpp:411] conv3 -> conv3
I0522 16:10:27.012850 31280 net.cpp:150] Setting up conv3
I0522 16:10:27.012872 31280 net.cpp:157] Top shape: 40 28 22 44 (1084160)
I0522 16:10:27.012884 31280 net.cpp:165] Memory required for data: 52872800
I0522 16:10:27.012903 31280 layer_factory.hpp:77] Creating layer relu3
I0522 16:10:27.012919 31280 net.cpp:106] Creating Layer relu3
I0522 16:10:27.012929 31280 net.cpp:454] relu3 <- conv3
I0522 16:10:27.012943 31280 net.cpp:397] relu3 -> conv3 (in-place)
I0522 16:10:27.013408 31280 net.cpp:150] Setting up relu3
I0522 16:10:27.013425 31280 net.cpp:157] Top shape: 40 28 22 44 (1084160)
I0522 16:10:27.013437 31280 net.cpp:165] Memory required for data: 57209440
I0522 16:10:27.013447 31280 layer_factory.hpp:77] Creating layer pool3
I0522 16:10:27.013460 31280 net.cpp:106] Creating Layer pool3
I0522 16:10:27.013469 31280 net.cpp:454] pool3 <- conv3
I0522 16:10:27.013483 31280 net.cpp:411] pool3 -> pool3
I0522 16:10:27.013559 31280 net.cpp:150] Setting up pool3
I0522 16:10:27.013573 31280 net.cpp:157] Top shape: 40 28 11 44 (542080)
I0522 16:10:27.013584 31280 net.cpp:165] Memory required for data: 59377760
I0522 16:10:27.013594 31280 layer_factory.hpp:77] Creating layer conv4
I0522 16:10:27.013612 31280 net.cpp:106] Creating Layer conv4
I0522 16:10:27.013622 31280 net.cpp:454] conv4 <- pool3
I0522 16:10:27.013636 31280 net.cpp:411] conv4 -> conv4
I0522 16:10:27.016383 31280 net.cpp:150] Setting up conv4
I0522 16:10:27.016412 31280 net.cpp:157] Top shape: 40 36 6 42 (362880)
I0522 16:10:27.016422 31280 net.cpp:165] Memory required for data: 60829280
I0522 16:10:27.016438 31280 layer_factory.hpp:77] Creating layer relu4
I0522 16:10:27.016453 31280 net.cpp:106] Creating Layer relu4
I0522 16:10:27.016463 31280 net.cpp:454] relu4 <- conv4
I0522 16:10:27.016475 31280 net.cpp:397] relu4 -> conv4 (in-place)
I0522 16:10:27.016947 31280 net.cpp:150] Setting up relu4
I0522 16:10:27.016963 31280 net.cpp:157] Top shape: 40 36 6 42 (362880)
I0522 16:10:27.016973 31280 net.cpp:165] Memory required for data: 62280800
I0522 16:10:27.016983 31280 layer_factory.hpp:77] Creating layer pool4
I0522 16:10:27.016996 31280 net.cpp:106] Creating Layer pool4
I0522 16:10:27.017006 31280 net.cpp:454] pool4 <- conv4
I0522 16:10:27.017019 31280 net.cpp:411] pool4 -> pool4
I0522 16:10:27.017086 31280 net.cpp:150] Setting up pool4
I0522 16:10:27.017101 31280 net.cpp:157] Top shape: 40 36 3 42 (181440)
I0522 16:10:27.017112 31280 net.cpp:165] Memory required for data: 63006560
I0522 16:10:27.017122 31280 layer_factory.hpp:77] Creating layer ip1
I0522 16:10:27.017143 31280 net.cpp:106] Creating Layer ip1
I0522 16:10:27.017153 31280 net.cpp:454] ip1 <- pool4
I0522 16:10:27.017165 31280 net.cpp:411] ip1 -> ip1
I0522 16:10:27.032675 31280 net.cpp:150] Setting up ip1
I0522 16:10:27.032702 31280 net.cpp:157] Top shape: 40 196 (7840)
I0522 16:10:27.032721 31280 net.cpp:165] Memory required for data: 63037920
I0522 16:10:27.032749 31280 layer_factory.hpp:77] Creating layer relu5
I0522 16:10:27.032764 31280 net.cpp:106] Creating Layer relu5
I0522 16:10:27.032774 31280 net.cpp:454] relu5 <- ip1
I0522 16:10:27.032788 31280 net.cpp:397] relu5 -> ip1 (in-place)
I0522 16:10:27.033130 31280 net.cpp:150] Setting up relu5
I0522 16:10:27.033144 31280 net.cpp:157] Top shape: 40 196 (7840)
I0522 16:10:27.033155 31280 net.cpp:165] Memory required for data: 63069280
I0522 16:10:27.033165 31280 layer_factory.hpp:77] Creating layer drop1
I0522 16:10:27.033190 31280 net.cpp:106] Creating Layer drop1
I0522 16:10:27.033200 31280 net.cpp:454] drop1 <- ip1
I0522 16:10:27.033211 31280 net.cpp:397] drop1 -> ip1 (in-place)
I0522 16:10:27.033272 31280 net.cpp:150] Setting up drop1
I0522 16:10:27.033285 31280 net.cpp:157] Top shape: 40 196 (7840)
I0522 16:10:27.033295 31280 net.cpp:165] Memory required for data: 63100640
I0522 16:10:27.033305 31280 layer_factory.hpp:77] Creating layer ip2
I0522 16:10:27.033324 31280 net.cpp:106] Creating Layer ip2
I0522 16:10:27.033334 31280 net.cpp:454] ip2 <- ip1
I0522 16:10:27.033347 31280 net.cpp:411] ip2 -> ip2
I0522 16:10:27.033817 31280 net.cpp:150] Setting up ip2
I0522 16:10:27.033829 31280 net.cpp:157] Top shape: 40 98 (3920)
I0522 16:10:27.033839 31280 net.cpp:165] Memory required for data: 63116320
I0522 16:10:27.033854 31280 layer_factory.hpp:77] Creating layer relu6
I0522 16:10:27.033867 31280 net.cpp:106] Creating Layer relu6
I0522 16:10:27.033876 31280 net.cpp:454] relu6 <- ip2
I0522 16:10:27.033888 31280 net.cpp:397] relu6 -> ip2 (in-place)
I0522 16:10:27.034411 31280 net.cpp:150] Setting up relu6
I0522 16:10:27.034427 31280 net.cpp:157] Top shape: 40 98 (3920)
I0522 16:10:27.034437 31280 net.cpp:165] Memory required for data: 63132000
I0522 16:10:27.034448 31280 layer_factory.hpp:77] Creating layer drop2
I0522 16:10:27.034461 31280 net.cpp:106] Creating Layer drop2
I0522 16:10:27.034471 31280 net.cpp:454] drop2 <- ip2
I0522 16:10:27.034484 31280 net.cpp:397] drop2 -> ip2 (in-place)
I0522 16:10:27.034526 31280 net.cpp:150] Setting up drop2
I0522 16:10:27.034539 31280 net.cpp:157] Top shape: 40 98 (3920)
I0522 16:10:27.034550 31280 net.cpp:165] Memory required for data: 63147680
I0522 16:10:27.034559 31280 layer_factory.hpp:77] Creating layer ip3
I0522 16:10:27.034574 31280 net.cpp:106] Creating Layer ip3
I0522 16:10:27.034582 31280 net.cpp:454] ip3 <- ip2
I0522 16:10:27.034595 31280 net.cpp:411] ip3 -> ip3
I0522 16:10:27.034806 31280 net.cpp:150] Setting up ip3
I0522 16:10:27.034819 31280 net.cpp:157] Top shape: 40 11 (440)
I0522 16:10:27.034829 31280 net.cpp:165] Memory required for data: 63149440
I0522 16:10:27.034844 31280 layer_factory.hpp:77] Creating layer drop3
I0522 16:10:27.034857 31280 net.cpp:106] Creating Layer drop3
I0522 16:10:27.034867 31280 net.cpp:454] drop3 <- ip3
I0522 16:10:27.034878 31280 net.cpp:397] drop3 -> ip3 (in-place)
I0522 16:10:27.034919 31280 net.cpp:150] Setting up drop3
I0522 16:10:27.034930 31280 net.cpp:157] Top shape: 40 11 (440)
I0522 16:10:27.034940 31280 net.cpp:165] Memory required for data: 63151200
I0522 16:10:27.034950 31280 layer_factory.hpp:77] Creating layer loss
I0522 16:10:27.034970 31280 net.cpp:106] Creating Layer loss
I0522 16:10:27.034981 31280 net.cpp:454] loss <- ip3
I0522 16:10:27.034991 31280 net.cpp:454] loss <- label
I0522 16:10:27.035003 31280 net.cpp:411] loss -> loss
I0522 16:10:27.035022 31280 layer_factory.hpp:77] Creating layer loss
…
I0522 16:10:27.037813 31280 solver.cpp:181] Creating test net (#0) specified by net file: /lustre/atlas/proj-shared/hep105/caffe_titan/caffe_workflow/logs_bslr/bs_40_lr_0.0005_2016-05-20T15.49.01.064003.prototxt
I0522 16:10:27.037884 31280 net.cpp:322] The NetState phase (1) differed from the phase (0) specified by a rule in layer data_hdf5
I0522 16:10:27.038239 31280 net.cpp:49] Initializing net from parameters: 
name: "caffe_test_127x50_x_unshifted"
state {
  phase: TEST
}
layer {
  name: "data_hdf5"
  type: "HDF5Data"
  top: "data"
  top: "label"
  include {
    phase: TEST
  }
  hdf5_data_param {
    source: "/lustre/atlas/proj-shared/hep105/caffe_titan/minosmatch_nukecczdefs_127x50_x_unshifted_me1Bmc.testlist"
    batch_size: 40
  }
}
layer {
  name: "conv1"
  type: "Convolution"
  bottom: "data"
  top: "conv1"
  convolution_param {
    num_output: 12
    pad: 0
    stride: 1
    weight_filler {
      type: "xavier"
    }
    bias_filler {
      type: "constant"
    }
    kernel_h: 8
    kernel_w: 3
  }
}
layer {
  name: "relu1"
  type: "ReLU"
  bottom: "conv1"
  top: "conv1"
}
layer {
  name: "pool1"
  type: "Pooling"
  bottom: "conv1"
  top: "pool1"
  pooling_param {
    pool: MAX
    kernel_h: 2
    kernel_w: 1
    stride_h: 2
    stride_w: 1
  }
}
layer {
  name: "conv2"
  type: "Convolution"
  bottom: "pool1"
  top: "conv2"
  convolution_param {
    num_output: 20
    pad: 0
    stride: 1
    weight_filler {
      type: "xavier"
    }
    bias_filler {
      type: "constant"
    }
    kernel_h: 7
    kernel_w: 3
  }
}
layer {
  name: "relu2"
  type: "ReLU"
  bottom: "conv2"
  top: "conv2"
}
layer {
  name: "pool2"
  type: "Pooling"
  bottom: "conv2"
  top: "pool2"
  pooling_param {
    pool: MAX
    kernel_h: 2
    kernel_w: 1
    stride_h: 2
    stride_w: 1
  }
}
layer {
  name: "conv3"
  type: "Convolution"
  bottom: "pool2"
  top: "conv3"
  convolution_param {
    num_output: 28
    pad: 0
    stride: 1
    weight_filler {
      type: "xavier"
    }
    bias_filler {
      type: "constant"
    }
    kernel_h: 6
    kernel_w: 3
  }
}
layer {
  name: "relu3"
  type: "ReLU"
  bottom: "conv3"
  top: "conv3"
}
layer {
  name: "pool3"
  type: "Pooling"
  bottom: "conv3"
  top: "pool3"
  pooling_param {
    pool: MAX
    kernel_h: 2
    kernel_w: 1
    stride_h: 2
    stride_w: 1
  }
}
layer {
  name: "conv4"
  type: "Convolution"
  bottom: "pool3"
  top: "conv4"
  convolution_param {
    num_output: 36
    pad: 0
    stride: 1
    weight_filler {
      type: "xavier"
    }
    bias_filler {
      type: "constant"
    }
    kernel_h: 6
    kernel_w: 3
  }
}
layer {
  name: "relu4"
  type: "ReLU"
  bottom: "conv4"
  top: "conv4"
}
layer {
  name: "pool4"
  type: "Pooling"
  bottom: "conv4"
  top: "pool4"
  pooling_param {
    pool: MAX
    kernel_h: 2
    kernel_w: 1
    stride_h: 2
    stride_w: 1
  }
}
layer {
  name: "ip1"
  type: "InnerProduct"
  bottom: "pool4"
  top: "ip1"
  inner_product_param {
    num_output: 196
    weight_filler {
      type: "xavier"
    }
    bias_filler {
      type: "constant"
    }
  }
}
layer {
  name: "relu5"
  type: "ReLU"
  bottom: "ip1"
  top: "ip1"
}
layer {
  name: "drop1"
  type: "Dropout"
  bottom: "ip1"
  top: "ip1"
  dropout_param {
    dropout_ratio: 0.5
  }
}
layer {
  name: "ip2"
  type: "InnerProduct"
  bottom: "ip1"
  top: "ip2"
  inner_product_param {
    num_output: 98
    weight_filler {
      type: "xavier"
    }
    bias_filler {
      type: "constant"
    }
  }
}
layer {
  name: "relu6"
  type: "ReLU"
  bottom: "ip2"
  top: "ip2"
}
layer {
  name: "drop2"
  type: "Dropout"
  bottom: "ip2"
  top: "ip2"
  dropout_param {
    dropout_ratio: 0.5
  }
}
layer {
  name: "ip3"
  type: "InnerProduct"
  bottom: "ip2"
  top: "ip3"
  inner_product_param {
    num_output: 11
    weight_filler {
      type: "xavier"
    }
    bias_filler {
      type: "constant"
    }
  }
}
layer {
  name: "drop3"
  type: "Dropout"
  bottom: "ip3"
  top: "ip3"
  dropout_param {
    dropout_ratio: 0.5
  }
}
layer {
  name: "accuracy"
  type: "Accuracy"
  bottom: "ip3"
  bottom: "label"
  top: "accuracy"
  include {
    phase: TEST
  }
}
layer {
  name: "loss"
  type: "SoftmaxWithLoss"
  bottom: "ip3"
  bottom: "label"
  top: "loss"
}
I0522 16:10:27.038429 31280 layer_factory.hpp:77] Creating layer data_hdf5
I0522 16:10:27.038445 31280 net.cpp:106] Creating Layer data_hdf5
I0522 16:10:27.038457 31280 net.cpp:411] data_hdf5 -> data
I0522 16:10:27.038475 31280 net.cpp:411] data_hdf5 -> label
I0522 16:10:27.038491 31280 hdf5_data_layer.cpp:79] Loading list of HDF5 filenames from: /lustre/atlas/proj-shared/hep105/caffe_titan/minosmatch_nukecczdefs_127x50_x_unshifted_me1Bmc.testlist
I0522 16:10:27.039842 31280 hdf5_data_layer.cpp:93] Number of HDF5 files: 3
I0522 16:10:48.373061 31280 net.cpp:150] Setting up data_hdf5
I0522 16:10:48.373229 31280 net.cpp:157] Top shape: 40 1 127 50 (254000)
I0522 16:10:48.373244 31280 net.cpp:157] Top shape: 40 (40)
I0522 16:10:48.373255 31280 net.cpp:165] Memory required for data: 1016160
I0522 16:10:48.373267 31280 layer_factory.hpp:77] Creating layer label_data_hdf5_1_split
I0522 16:10:48.373297 31280 net.cpp:106] Creating Layer label_data_hdf5_1_split
I0522 16:10:48.373308 31280 net.cpp:454] label_data_hdf5_1_split <- label
I0522 16:10:48.373323 31280 net.cpp:411] label_data_hdf5_1_split -> label_data_hdf5_1_split_0
I0522 16:10:48.373344 31280 net.cpp:411] label_data_hdf5_1_split -> label_data_hdf5_1_split_1
I0522 16:10:48.373417 31280 net.cpp:150] Setting up label_data_hdf5_1_split
I0522 16:10:48.373431 31280 net.cpp:157] Top shape: 40 (40)
I0522 16:10:48.373443 31280 net.cpp:157] Top shape: 40 (40)
I0522 16:10:48.373453 31280 net.cpp:165] Memory required for data: 1016480
I0522 16:10:48.373463 31280 layer_factory.hpp:77] Creating layer conv1
I0522 16:10:48.373486 31280 net.cpp:106] Creating Layer conv1
I0522 16:10:48.373497 31280 net.cpp:454] conv1 <- data
I0522 16:10:48.373510 31280 net.cpp:411] conv1 -> conv1
I0522 16:10:48.375460 31280 net.cpp:150] Setting up conv1
I0522 16:10:48.375479 31280 net.cpp:157] Top shape: 40 12 120 48 (2764800)
I0522 16:10:48.375489 31280 net.cpp:165] Memory required for data: 12075680
I0522 16:10:48.375511 31280 layer_factory.hpp:77] Creating layer relu1
I0522 16:10:48.375525 31280 net.cpp:106] Creating Layer relu1
I0522 16:10:48.375536 31280 net.cpp:454] relu1 <- conv1
I0522 16:10:48.375548 31280 net.cpp:397] relu1 -> conv1 (in-place)
I0522 16:10:48.376045 31280 net.cpp:150] Setting up relu1
I0522 16:10:48.376061 31280 net.cpp:157] Top shape: 40 12 120 48 (2764800)
I0522 16:10:48.376072 31280 net.cpp:165] Memory required for data: 23134880
I0522 16:10:48.376082 31280 layer_factory.hpp:77] Creating layer pool1
I0522 16:10:48.376099 31280 net.cpp:106] Creating Layer pool1
I0522 16:10:48.376108 31280 net.cpp:454] pool1 <- conv1
I0522 16:10:48.376123 31280 net.cpp:411] pool1 -> pool1
I0522 16:10:48.376199 31280 net.cpp:150] Setting up pool1
I0522 16:10:48.376212 31280 net.cpp:157] Top shape: 40 12 60 48 (1382400)
I0522 16:10:48.376224 31280 net.cpp:165] Memory required for data: 28664480
I0522 16:10:48.376233 31280 layer_factory.hpp:77] Creating layer conv2
I0522 16:10:48.376251 31280 net.cpp:106] Creating Layer conv2
I0522 16:10:48.376262 31280 net.cpp:454] conv2 <- pool1
I0522 16:10:48.376276 31280 net.cpp:411] conv2 -> conv2
I0522 16:10:48.378190 31280 net.cpp:150] Setting up conv2
I0522 16:10:48.378211 31280 net.cpp:157] Top shape: 40 20 54 46 (1987200)
I0522 16:10:48.378224 31280 net.cpp:165] Memory required for data: 36613280
I0522 16:10:48.378242 31280 layer_factory.hpp:77] Creating layer relu2
I0522 16:10:48.378254 31280 net.cpp:106] Creating Layer relu2
I0522 16:10:48.378264 31280 net.cpp:454] relu2 <- conv2
I0522 16:10:48.378278 31280 net.cpp:397] relu2 -> conv2 (in-place)
I0522 16:10:48.378607 31280 net.cpp:150] Setting up relu2
I0522 16:10:48.378620 31280 net.cpp:157] Top shape: 40 20 54 46 (1987200)
I0522 16:10:48.378630 31280 net.cpp:165] Memory required for data: 44562080
I0522 16:10:48.378641 31280 layer_factory.hpp:77] Creating layer pool2
I0522 16:10:48.378654 31280 net.cpp:106] Creating Layer pool2
I0522 16:10:48.378664 31280 net.cpp:454] pool2 <- conv2
I0522 16:10:48.378676 31280 net.cpp:411] pool2 -> pool2
I0522 16:10:48.378747 31280 net.cpp:150] Setting up pool2
I0522 16:10:48.378762 31280 net.cpp:157] Top shape: 40 20 27 46 (993600)
I0522 16:10:48.378770 31280 net.cpp:165] Memory required for data: 48536480
I0522 16:10:48.378780 31280 layer_factory.hpp:77] Creating layer conv3
I0522 16:10:48.378800 31280 net.cpp:106] Creating Layer conv3
I0522 16:10:48.378811 31280 net.cpp:454] conv3 <- pool2
I0522 16:10:48.378824 31280 net.cpp:411] conv3 -> conv3
I0522 16:10:48.380785 31280 net.cpp:150] Setting up conv3
I0522 16:10:48.380808 31280 net.cpp:157] Top shape: 40 28 22 44 (1084160)
I0522 16:10:48.380821 31280 net.cpp:165] Memory required for data: 52873120
I0522 16:10:48.380853 31280 layer_factory.hpp:77] Creating layer relu3
I0522 16:10:48.380867 31280 net.cpp:106] Creating Layer relu3
I0522 16:10:48.380877 31280 net.cpp:454] relu3 <- conv3
I0522 16:10:48.380890 31280 net.cpp:397] relu3 -> conv3 (in-place)
I0522 16:10:48.381361 31280 net.cpp:150] Setting up relu3
I0522 16:10:48.381377 31280 net.cpp:157] Top shape: 40 28 22 44 (1084160)
I0522 16:10:48.381388 31280 net.cpp:165] Memory required for data: 57209760
I0522 16:10:48.381398 31280 layer_factory.hpp:77] Creating layer pool3
I0522 16:10:48.381412 31280 net.cpp:106] Creating Layer pool3
I0522 16:10:48.381422 31280 net.cpp:454] pool3 <- conv3
I0522 16:10:48.381434 31280 net.cpp:411] pool3 -> pool3
I0522 16:10:48.381505 31280 net.cpp:150] Setting up pool3
I0522 16:10:48.381526 31280 net.cpp:157] Top shape: 40 28 11 44 (542080)
I0522 16:10:48.381536 31280 net.cpp:165] Memory required for data: 59378080
I0522 16:10:48.381546 31280 layer_factory.hpp:77] Creating layer conv4
I0522 16:10:48.381564 31280 net.cpp:106] Creating Layer conv4
I0522 16:10:48.381575 31280 net.cpp:454] conv4 <- pool3
I0522 16:10:48.381589 31280 net.cpp:411] conv4 -> conv4
I0522 16:10:48.383652 31280 net.cpp:150] Setting up conv4
I0522 16:10:48.383669 31280 net.cpp:157] Top shape: 40 36 6 42 (362880)
I0522 16:10:48.383680 31280 net.cpp:165] Memory required for data: 60829600
I0522 16:10:48.383695 31280 layer_factory.hpp:77] Creating layer relu4
I0522 16:10:48.383709 31280 net.cpp:106] Creating Layer relu4
I0522 16:10:48.383719 31280 net.cpp:454] relu4 <- conv4
I0522 16:10:48.383731 31280 net.cpp:397] relu4 -> conv4 (in-place)
I0522 16:10:48.384201 31280 net.cpp:150] Setting up relu4
I0522 16:10:48.384217 31280 net.cpp:157] Top shape: 40 36 6 42 (362880)
I0522 16:10:48.384227 31280 net.cpp:165] Memory required for data: 62281120
I0522 16:10:48.384238 31280 layer_factory.hpp:77] Creating layer pool4
I0522 16:10:48.384250 31280 net.cpp:106] Creating Layer pool4
I0522 16:10:48.384260 31280 net.cpp:454] pool4 <- conv4
I0522 16:10:48.384274 31280 net.cpp:411] pool4 -> pool4
I0522 16:10:48.384346 31280 net.cpp:150] Setting up pool4
I0522 16:10:48.384359 31280 net.cpp:157] Top shape: 40 36 3 42 (181440)
I0522 16:10:48.384369 31280 net.cpp:165] Memory required for data: 63006880
I0522 16:10:48.384377 31280 layer_factory.hpp:77] Creating layer ip1
I0522 16:10:48.384393 31280 net.cpp:106] Creating Layer ip1
I0522 16:10:48.384404 31280 net.cpp:454] ip1 <- pool4
I0522 16:10:48.384418 31280 net.cpp:411] ip1 -> ip1
I0522 16:10:48.399907 31280 net.cpp:150] Setting up ip1
I0522 16:10:48.399935 31280 net.cpp:157] Top shape: 40 196 (7840)
I0522 16:10:48.399946 31280 net.cpp:165] Memory required for data: 63038240
I0522 16:10:48.399968 31280 layer_factory.hpp:77] Creating layer relu5
I0522 16:10:48.399983 31280 net.cpp:106] Creating Layer relu5
I0522 16:10:48.399994 31280 net.cpp:454] relu5 <- ip1
I0522 16:10:48.400008 31280 net.cpp:397] relu5 -> ip1 (in-place)
I0522 16:10:48.400355 31280 net.cpp:150] Setting up relu5
I0522 16:10:48.400369 31280 net.cpp:157] Top shape: 40 196 (7840)
I0522 16:10:48.400378 31280 net.cpp:165] Memory required for data: 63069600
I0522 16:10:48.400389 31280 layer_factory.hpp:77] Creating layer drop1
I0522 16:10:48.400408 31280 net.cpp:106] Creating Layer drop1
I0522 16:10:48.400418 31280 net.cpp:454] drop1 <- ip1
I0522 16:10:48.400431 31280 net.cpp:397] drop1 -> ip1 (in-place)
I0522 16:10:48.400476 31280 net.cpp:150] Setting up drop1
I0522 16:10:48.400490 31280 net.cpp:157] Top shape: 40 196 (7840)
I0522 16:10:48.400501 31280 net.cpp:165] Memory required for data: 63100960
I0522 16:10:48.400509 31280 layer_factory.hpp:77] Creating layer ip2
I0522 16:10:48.400524 31280 net.cpp:106] Creating Layer ip2
I0522 16:10:48.400534 31280 net.cpp:454] ip2 <- ip1
I0522 16:10:48.400547 31280 net.cpp:411] ip2 -> ip2
I0522 16:10:48.401026 31280 net.cpp:150] Setting up ip2
I0522 16:10:48.401038 31280 net.cpp:157] Top shape: 40 98 (3920)
I0522 16:10:48.401048 31280 net.cpp:165] Memory required for data: 63116640
I0522 16:10:48.401063 31280 layer_factory.hpp:77] Creating layer relu6
I0522 16:10:48.401088 31280 net.cpp:106] Creating Layer relu6
I0522 16:10:48.401098 31280 net.cpp:454] relu6 <- ip2
I0522 16:10:48.401111 31280 net.cpp:397] relu6 -> ip2 (in-place)
I0522 16:10:48.401659 31280 net.cpp:150] Setting up relu6
I0522 16:10:48.401679 31280 net.cpp:157] Top shape: 40 98 (3920)
I0522 16:10:48.401690 31280 net.cpp:165] Memory required for data: 63132320
I0522 16:10:48.401700 31280 layer_factory.hpp:77] Creating layer drop2
I0522 16:10:48.401715 31280 net.cpp:106] Creating Layer drop2
I0522 16:10:48.401724 31280 net.cpp:454] drop2 <- ip2
I0522 16:10:48.401737 31280 net.cpp:397] drop2 -> ip2 (in-place)
I0522 16:10:48.401782 31280 net.cpp:150] Setting up drop2
I0522 16:10:48.401794 31280 net.cpp:157] Top shape: 40 98 (3920)
I0522 16:10:48.401804 31280 net.cpp:165] Memory required for data: 63148000
I0522 16:10:48.401814 31280 layer_factory.hpp:77] Creating layer ip3
I0522 16:10:48.401829 31280 net.cpp:106] Creating Layer ip3
I0522 16:10:48.401839 31280 net.cpp:454] ip3 <- ip2
I0522 16:10:48.401852 31280 net.cpp:411] ip3 -> ip3
I0522 16:10:48.402076 31280 net.cpp:150] Setting up ip3
I0522 16:10:48.402089 31280 net.cpp:157] Top shape: 40 11 (440)
I0522 16:10:48.402098 31280 net.cpp:165] Memory required for data: 63149760
I0522 16:10:48.402114 31280 layer_factory.hpp:77] Creating layer drop3
I0522 16:10:48.402127 31280 net.cpp:106] Creating Layer drop3
I0522 16:10:48.402137 31280 net.cpp:454] drop3 <- ip3
I0522 16:10:48.402150 31280 net.cpp:397] drop3 -> ip3 (in-place)
I0522 16:10:48.402191 31280 net.cpp:150] Setting up drop3
I0522 16:10:48.402204 31280 net.cpp:157] Top shape: 40 11 (440)
I0522 16:10:48.402215 31280 net.cpp:165] Memory required for data: 63151520
I0522 16:10:48.402225 31280 layer_factory.hpp:77] Creating layer ip3_drop3_0_split
I0522 16:10:48.402237 31280 net.cpp:106] Creating Layer ip3_drop3_0_split
I0522 16:10:48.402247 31280 net.cpp:454] ip3_drop3_0_split <- ip3
I0522 16:10:48.402261 31280 net.cpp:411] ip3_drop3_0_split -> ip3_drop3_0_split_0
I0522 16:10:48.402276 31280 net.cpp:411] ip3_drop3_0_split -> ip3_drop3_0_split_1
I0522 16:10:48.402348 31280 net.cpp:150] Setting up ip3_drop3_0_split
I0522 16:10:48.402361 31280 net.cpp:157] Top shape: 40 11 (440)
I0522 16:10:48.402374 31280 net.cpp:157] Top shape: 40 11 (440)
I0522 16:10:48.402384 31280 net.cpp:165] Memory required for data: 63155040
I0522 16:10:48.402393 31280 layer_factory.hpp:77] Creating layer accuracy
I0522 16:10:48.402415 31280 net.cpp:106] Creating Layer accuracy
I0522 16:10:48.402425 31280 net.cpp:454] accuracy <- ip3_drop3_0_split_0
I0522 16:10:48.402436 31280 net.cpp:454] accuracy <- label_data_hdf5_1_split_0
I0522 16:10:48.402449 31280 net.cpp:411] accuracy -> accuracy
…
