…
I0527 09:47:15.796725 25403 net.cpp:322] The NetState phase (0) differed from the phase (1) specified by a rule in layer data_hdf5
I0527 09:47:15.796783 25403 net.cpp:322] The NetState phase (0) differed from the phase (1) specified by a rule in layer accuracy
I0527 09:47:15.797132 25403 net.cpp:49] Initializing net from parameters: 
name: "caffe_test_127x50_x_unshifted"
state {
  phase: TRAIN
}
layer {
  name: "data_hdf5"
  type: "HDF5Data"
  top: "data"
  top: "label"
  include {
    phase: TRAIN
  }
  hdf5_data_param {
    source: "/lustre/atlas/proj-shared/hep105/caffe_titan/minosmatch_nukecczdefs_127x50_x_unshifted_me1Bmc.trainlist"
    batch_size: 40
  }
}
layer {
  name: "conv1"
  type: "Convolution"
  bottom: "data"
  top: "conv1"
  convolution_param {
    num_output: 12
    pad: 0
    stride: 1
    weight_filler {
      type: "xavier"
    }
    bias_filler {
      type: "constant"
    }
    kernel_h: 8
    kernel_w: 3
  }
}
layer {
  name: "relu1"
  type: "ReLU"
  bottom: "conv1"
  top: "conv1"
}
layer {
  name: "pool1"
  type: "Pooling"
  bottom: "conv1"
  top: "pool1"
  pooling_param {
    pool: MAX
    kernel_h: 2
    kernel_w: 1
    stride_h: 2
    stride_w: 1
  }
}
layer {
  name: "conv2"
  type: "Convolution"
  bottom: "pool1"
  top: "conv2"
  convolution_param {
    num_output: 20
    pad: 0
    stride: 1
    weight_filler {
      type: "xavier"
    }
    bias_filler {
      type: "constant"
    }
    kernel_h: 7
    kernel_w: 3
  }
}
layer {
  name: "relu2"
  type: "ReLU"
  bottom: "conv2"
  top: "conv2"
}
layer {
  name: "pool2"
  type: "Pooling"
  bottom: "conv2"
  top: "pool2"
  pooling_param {
    pool: MAX
    kernel_h: 2
    kernel_w: 1
    stride_h: 2
    stride_w: 1
  }
}
layer {
  name: "conv3"
  type: "Convolution"
  bottom: "pool2"
  top: "conv3"
  convolution_param {
    num_output: 28
    pad: 0
    stride: 1
    weight_filler {
      type: "xavier"
    }
    bias_filler {
      type: "constant"
    }
    kernel_h: 6
    kernel_w: 3
  }
}
layer {
  name: "relu3"
  type: "ReLU"
  bottom: "conv3"
  top: "conv3"
}
layer {
  name: "pool3"
  type: "Pooling"
  bottom: "conv3"
  top: "pool3"
  pooling_param {
    pool: MAX
    kernel_h: 2
    kernel_w: 1
    stride_h: 2
    stride_w: 1
  }
}
layer {
  name: "conv4"
  type: "Convolution"
  bottom: "pool3"
  top: "conv4"
  convolution_param {
    num_output: 36
    pad: 0
    stride: 1
    weight_filler {
      type: "xavier"
    }
    bias_filler {
      type: "constant"
    }
    kernel_h: 6
    kernel_w: 3
  }
}
layer {
  name: "relu4"
  type: "ReLU"
  bottom: "conv4"
  top: "conv4"
}
layer {
  name: "pool4"
  type: "Pooling"
  bottom: "conv4"
  top: "pool4"
  pooling_param {
    pool: MAX
    kernel_h: 2
    kernel_w: 1
    stride_h: 2
    stride_w: 1
  }
}
layer {
  name: "ip1"
  type: "InnerProduct"
  bottom: "pool4"
  top: "ip1"
  inner_product_param {
    num_output: 196
    weight_filler {
      type: "xavier"
    }
    bias_filler {
      type: "constant"
    }
  }
}
layer {
  name: "relu5"
  type: "ReLU"
  bottom: "ip1"
  top: "ip1"
}
layer {
  name: "drop1"
  type: "Dropout"
  bottom: "ip1"
  top: "ip1"
  dropout_param {
    dropout_ratio: 0.5
  }
}
layer {
  name: "ip2"
  type: "InnerProduct"
  bottom: "ip1"
  top: "ip2"
  inner_product_param {
    num_output: 98
    weight_filler {
      type: "xavier"
    }
    bias_filler {
      type: "constant"
    }
  }
}
layer {
  name: "relu6"
  type: "ReLU"
  bottom: "ip2"
  top: "ip2"
}
layer {
  name: "drop2"
  type: "Dropout"
  bottom: "ip2"
  top: "ip2"
  dropout_param {
    dropout_ratio: 0.5
  }
}
layer {
  name: "ip3"
  type: "InnerProduct"
  bottom: "ip2"
  top: "ip3"
  inner_product_param {
    num_output: 11
    weight_filler {
      type: "xavier"
    }
    bias_filler {
      type: "constant"
    }
  }
}
layer {
  name: "drop3"
  type: "Dropout"
  bottom: "ip3"
  top: "ip3"
  dropout_param {
    dropout_ratio: 0.5
  }
}
layer {
  name: "loss"
  type: "SoftmaxWithLoss"
  bottom: "ip3"
  bottom: "label"
  top: "loss"
}
I0527 09:47:15.797312 25403 layer_factory.hpp:77] Creating layer data_hdf5
I0527 09:47:15.797335 25403 net.cpp:106] Creating Layer data_hdf5
I0527 09:47:15.797349 25403 net.cpp:411] data_hdf5 -> data
I0527 09:47:15.797382 25403 net.cpp:411] data_hdf5 -> label
I0527 09:47:15.797415 25403 hdf5_data_layer.cpp:79] Loading list of HDF5 filenames from: /lustre/atlas/proj-shared/hep105/caffe_titan/minosmatch_nukecczdefs_127x50_x_unshifted_me1Bmc.trainlist
I0527 09:47:15.798729 25403 hdf5_data_layer.cpp:93] Number of HDF5 files: 15
I0527 09:47:15.801136 25403 hdf5.cpp:32] Datatype class: H5T_FLOAT
I0527 09:47:37.399760 25403 hdf5.cpp:35] Datatype class: H5T_INTEGER
I0527 09:47:37.404861 25403 net.cpp:150] Setting up data_hdf5
I0527 09:47:37.404901 25403 net.cpp:157] Top shape: 40 1 127 50 (254000)
I0527 09:47:37.404917 25403 net.cpp:157] Top shape: 40 (40)
I0527 09:47:37.404929 25403 net.cpp:165] Memory required for data: 1016160
I0527 09:47:37.404942 25403 layer_factory.hpp:77] Creating layer conv1
I0527 09:47:37.404978 25403 net.cpp:106] Creating Layer conv1
I0527 09:47:37.404989 25403 net.cpp:454] conv1 <- data
I0527 09:47:37.405009 25403 net.cpp:411] conv1 -> conv1
I0527 09:47:37.934664 25403 net.cpp:150] Setting up conv1
I0527 09:47:37.934711 25403 net.cpp:157] Top shape: 40 12 120 48 (2764800)
I0527 09:47:37.934722 25403 net.cpp:165] Memory required for data: 12075360
I0527 09:47:37.934751 25403 layer_factory.hpp:77] Creating layer relu1
I0527 09:47:37.934773 25403 net.cpp:106] Creating Layer relu1
I0527 09:47:37.934784 25403 net.cpp:454] relu1 <- conv1
I0527 09:47:37.934798 25403 net.cpp:397] relu1 -> conv1 (in-place)
I0527 09:47:37.935312 25403 net.cpp:150] Setting up relu1
I0527 09:47:37.935329 25403 net.cpp:157] Top shape: 40 12 120 48 (2764800)
I0527 09:47:37.935339 25403 net.cpp:165] Memory required for data: 23134560
I0527 09:47:37.935349 25403 layer_factory.hpp:77] Creating layer pool1
I0527 09:47:37.935366 25403 net.cpp:106] Creating Layer pool1
I0527 09:47:37.935376 25403 net.cpp:454] pool1 <- conv1
I0527 09:47:37.935389 25403 net.cpp:411] pool1 -> pool1
I0527 09:47:37.935470 25403 net.cpp:150] Setting up pool1
I0527 09:47:37.935484 25403 net.cpp:157] Top shape: 40 12 60 48 (1382400)
I0527 09:47:37.935494 25403 net.cpp:165] Memory required for data: 28664160
I0527 09:47:37.935503 25403 layer_factory.hpp:77] Creating layer conv2
I0527 09:47:37.935526 25403 net.cpp:106] Creating Layer conv2
I0527 09:47:37.935536 25403 net.cpp:454] conv2 <- pool1
I0527 09:47:37.935549 25403 net.cpp:411] conv2 -> conv2
I0527 09:47:37.938230 25403 net.cpp:150] Setting up conv2
I0527 09:47:37.938257 25403 net.cpp:157] Top shape: 40 20 54 46 (1987200)
I0527 09:47:37.938267 25403 net.cpp:165] Memory required for data: 36612960
I0527 09:47:37.938287 25403 layer_factory.hpp:77] Creating layer relu2
I0527 09:47:37.938302 25403 net.cpp:106] Creating Layer relu2
I0527 09:47:37.938311 25403 net.cpp:454] relu2 <- conv2
I0527 09:47:37.938324 25403 net.cpp:397] relu2 -> conv2 (in-place)
I0527 09:47:37.938655 25403 net.cpp:150] Setting up relu2
I0527 09:47:37.938670 25403 net.cpp:157] Top shape: 40 20 54 46 (1987200)
I0527 09:47:37.938681 25403 net.cpp:165] Memory required for data: 44561760
I0527 09:47:37.938691 25403 layer_factory.hpp:77] Creating layer pool2
I0527 09:47:37.938704 25403 net.cpp:106] Creating Layer pool2
I0527 09:47:37.938714 25403 net.cpp:454] pool2 <- conv2
I0527 09:47:37.938727 25403 net.cpp:411] pool2 -> pool2
I0527 09:47:37.938809 25403 net.cpp:150] Setting up pool2
I0527 09:47:37.938823 25403 net.cpp:157] Top shape: 40 20 27 46 (993600)
I0527 09:47:37.938832 25403 net.cpp:165] Memory required for data: 48536160
I0527 09:47:37.938840 25403 layer_factory.hpp:77] Creating layer conv3
I0527 09:47:37.938859 25403 net.cpp:106] Creating Layer conv3
I0527 09:47:37.938869 25403 net.cpp:454] conv3 <- pool2
I0527 09:47:37.938884 25403 net.cpp:411] conv3 -> conv3
I0527 09:47:37.940834 25403 net.cpp:150] Setting up conv3
I0527 09:47:37.940852 25403 net.cpp:157] Top shape: 40 28 22 44 (1084160)
I0527 09:47:37.940866 25403 net.cpp:165] Memory required for data: 52872800
I0527 09:47:37.940886 25403 layer_factory.hpp:77] Creating layer relu3
I0527 09:47:37.940903 25403 net.cpp:106] Creating Layer relu3
I0527 09:47:37.940913 25403 net.cpp:454] relu3 <- conv3
I0527 09:47:37.940927 25403 net.cpp:397] relu3 -> conv3 (in-place)
I0527 09:47:37.941395 25403 net.cpp:150] Setting up relu3
I0527 09:47:37.941412 25403 net.cpp:157] Top shape: 40 28 22 44 (1084160)
I0527 09:47:37.941422 25403 net.cpp:165] Memory required for data: 57209440
I0527 09:47:37.941432 25403 layer_factory.hpp:77] Creating layer pool3
I0527 09:47:37.941445 25403 net.cpp:106] Creating Layer pool3
I0527 09:47:37.941455 25403 net.cpp:454] pool3 <- conv3
I0527 09:47:37.941468 25403 net.cpp:411] pool3 -> pool3
I0527 09:47:37.941536 25403 net.cpp:150] Setting up pool3
I0527 09:47:37.941550 25403 net.cpp:157] Top shape: 40 28 11 44 (542080)
I0527 09:47:37.941560 25403 net.cpp:165] Memory required for data: 59377760
I0527 09:47:37.941570 25403 layer_factory.hpp:77] Creating layer conv4
I0527 09:47:37.941587 25403 net.cpp:106] Creating Layer conv4
I0527 09:47:37.941597 25403 net.cpp:454] conv4 <- pool3
I0527 09:47:37.941612 25403 net.cpp:411] conv4 -> conv4
I0527 09:47:37.944375 25403 net.cpp:150] Setting up conv4
I0527 09:47:37.944401 25403 net.cpp:157] Top shape: 40 36 6 42 (362880)
I0527 09:47:37.944413 25403 net.cpp:165] Memory required for data: 60829280
I0527 09:47:37.944428 25403 layer_factory.hpp:77] Creating layer relu4
I0527 09:47:37.944443 25403 net.cpp:106] Creating Layer relu4
I0527 09:47:37.944453 25403 net.cpp:454] relu4 <- conv4
I0527 09:47:37.944468 25403 net.cpp:397] relu4 -> conv4 (in-place)
I0527 09:47:37.944938 25403 net.cpp:150] Setting up relu4
I0527 09:47:37.944954 25403 net.cpp:157] Top shape: 40 36 6 42 (362880)
I0527 09:47:37.944965 25403 net.cpp:165] Memory required for data: 62280800
I0527 09:47:37.944977 25403 layer_factory.hpp:77] Creating layer pool4
I0527 09:47:37.944989 25403 net.cpp:106] Creating Layer pool4
I0527 09:47:37.944999 25403 net.cpp:454] pool4 <- conv4
I0527 09:47:37.945013 25403 net.cpp:411] pool4 -> pool4
I0527 09:47:37.945080 25403 net.cpp:150] Setting up pool4
I0527 09:47:37.945094 25403 net.cpp:157] Top shape: 40 36 3 42 (181440)
I0527 09:47:37.945106 25403 net.cpp:165] Memory required for data: 63006560
I0527 09:47:37.945114 25403 layer_factory.hpp:77] Creating layer ip1
I0527 09:47:37.945135 25403 net.cpp:106] Creating Layer ip1
I0527 09:47:37.945145 25403 net.cpp:454] ip1 <- pool4
I0527 09:47:37.945158 25403 net.cpp:411] ip1 -> ip1
I0527 09:47:37.960708 25403 net.cpp:150] Setting up ip1
I0527 09:47:37.960737 25403 net.cpp:157] Top shape: 40 196 (7840)
I0527 09:47:37.960754 25403 net.cpp:165] Memory required for data: 63037920
I0527 09:47:37.960777 25403 layer_factory.hpp:77] Creating layer relu5
I0527 09:47:37.960791 25403 net.cpp:106] Creating Layer relu5
I0527 09:47:37.960803 25403 net.cpp:454] relu5 <- ip1
I0527 09:47:37.960815 25403 net.cpp:397] relu5 -> ip1 (in-place)
I0527 09:47:37.961160 25403 net.cpp:150] Setting up relu5
I0527 09:47:37.961174 25403 net.cpp:157] Top shape: 40 196 (7840)
I0527 09:47:37.961185 25403 net.cpp:165] Memory required for data: 63069280
I0527 09:47:37.961195 25403 layer_factory.hpp:77] Creating layer drop1
I0527 09:47:37.961216 25403 net.cpp:106] Creating Layer drop1
I0527 09:47:37.961226 25403 net.cpp:454] drop1 <- ip1
I0527 09:47:37.961239 25403 net.cpp:397] drop1 -> ip1 (in-place)
I0527 09:47:37.961302 25403 net.cpp:150] Setting up drop1
I0527 09:47:37.961316 25403 net.cpp:157] Top shape: 40 196 (7840)
I0527 09:47:37.961326 25403 net.cpp:165] Memory required for data: 63100640
I0527 09:47:37.961336 25403 layer_factory.hpp:77] Creating layer ip2
I0527 09:47:37.961354 25403 net.cpp:106] Creating Layer ip2
I0527 09:47:37.961365 25403 net.cpp:454] ip2 <- ip1
I0527 09:47:37.961379 25403 net.cpp:411] ip2 -> ip2
I0527 09:47:37.961841 25403 net.cpp:150] Setting up ip2
I0527 09:47:37.961854 25403 net.cpp:157] Top shape: 40 98 (3920)
I0527 09:47:37.961863 25403 net.cpp:165] Memory required for data: 63116320
I0527 09:47:37.961879 25403 layer_factory.hpp:77] Creating layer relu6
I0527 09:47:37.961892 25403 net.cpp:106] Creating Layer relu6
I0527 09:47:37.961902 25403 net.cpp:454] relu6 <- ip2
I0527 09:47:37.961915 25403 net.cpp:397] relu6 -> ip2 (in-place)
I0527 09:47:37.962435 25403 net.cpp:150] Setting up relu6
I0527 09:47:37.962450 25403 net.cpp:157] Top shape: 40 98 (3920)
I0527 09:47:37.962461 25403 net.cpp:165] Memory required for data: 63132000
I0527 09:47:37.962471 25403 layer_factory.hpp:77] Creating layer drop2
I0527 09:47:37.962484 25403 net.cpp:106] Creating Layer drop2
I0527 09:47:37.962493 25403 net.cpp:454] drop2 <- ip2
I0527 09:47:37.962507 25403 net.cpp:397] drop2 -> ip2 (in-place)
I0527 09:47:37.962549 25403 net.cpp:150] Setting up drop2
I0527 09:47:37.962563 25403 net.cpp:157] Top shape: 40 98 (3920)
I0527 09:47:37.962573 25403 net.cpp:165] Memory required for data: 63147680
I0527 09:47:37.962582 25403 layer_factory.hpp:77] Creating layer ip3
I0527 09:47:37.962595 25403 net.cpp:106] Creating Layer ip3
I0527 09:47:37.962605 25403 net.cpp:454] ip3 <- ip2
I0527 09:47:37.962618 25403 net.cpp:411] ip3 -> ip3
I0527 09:47:37.962831 25403 net.cpp:150] Setting up ip3
I0527 09:47:37.962843 25403 net.cpp:157] Top shape: 40 11 (440)
I0527 09:47:37.962853 25403 net.cpp:165] Memory required for data: 63149440
I0527 09:47:37.962868 25403 layer_factory.hpp:77] Creating layer drop3
I0527 09:47:37.962882 25403 net.cpp:106] Creating Layer drop3
I0527 09:47:37.962890 25403 net.cpp:454] drop3 <- ip3
I0527 09:47:37.962903 25403 net.cpp:397] drop3 -> ip3 (in-place)
I0527 09:47:37.962942 25403 net.cpp:150] Setting up drop3
I0527 09:47:37.962955 25403 net.cpp:157] Top shape: 40 11 (440)
I0527 09:47:37.962965 25403 net.cpp:165] Memory required for data: 63151200
I0527 09:47:37.962976 25403 layer_factory.hpp:77] Creating layer loss
I0527 09:47:37.962995 25403 net.cpp:106] Creating Layer loss
I0527 09:47:37.963004 25403 net.cpp:454] loss <- ip3
I0527 09:47:37.963016 25403 net.cpp:454] loss <- label
I0527 09:47:37.963028 25403 net.cpp:411] loss -> loss
I0527 09:47:37.963045 25403 layer_factory.hpp:77] Creating layer loss
…
I0527 09:47:37.965790 25403 solver.cpp:181] Creating test net (#0) specified by net file: /lustre/atlas/proj-shared/hep105/caffe_titan/caffe_workflow/logs_bslr/bs_40_lr_0.0025_2016-05-20T15.49.02.631491.prototxt
I0527 09:47:37.965863 25403 net.cpp:322] The NetState phase (1) differed from the phase (0) specified by a rule in layer data_hdf5
I0527 09:47:37.966220 25403 net.cpp:49] Initializing net from parameters: 
name: "caffe_test_127x50_x_unshifted"
state {
  phase: TEST
}
layer {
  name: "data_hdf5"
  type: "HDF5Data"
  top: "data"
  top: "label"
  include {
    phase: TEST
  }
  hdf5_data_param {
    source: "/lustre/atlas/proj-shared/hep105/caffe_titan/minosmatch_nukecczdefs_127x50_x_unshifted_me1Bmc.testlist"
    batch_size: 40
  }
}
layer {
  name: "conv1"
  type: "Convolution"
  bottom: "data"
  top: "conv1"
  convolution_param {
    num_output: 12
    pad: 0
    stride: 1
    weight_filler {
      type: "xavier"
    }
    bias_filler {
      type: "constant"
    }
    kernel_h: 8
    kernel_w: 3
  }
}
layer {
  name: "relu1"
  type: "ReLU"
  bottom: "conv1"
  top: "conv1"
}
layer {
  name: "pool1"
  type: "Pooling"
  bottom: "conv1"
  top: "pool1"
  pooling_param {
    pool: MAX
    kernel_h: 2
    kernel_w: 1
    stride_h: 2
    stride_w: 1
  }
}
layer {
  name: "conv2"
  type: "Convolution"
  bottom: "pool1"
  top: "conv2"
  convolution_param {
    num_output: 20
    pad: 0
    stride: 1
    weight_filler {
      type: "xavier"
    }
    bias_filler {
      type: "constant"
    }
    kernel_h: 7
    kernel_w: 3
  }
}
layer {
  name: "relu2"
  type: "ReLU"
  bottom: "conv2"
  top: "conv2"
}
layer {
  name: "pool2"
  type: "Pooling"
  bottom: "conv2"
  top: "pool2"
  pooling_param {
    pool: MAX
    kernel_h: 2
    kernel_w: 1
    stride_h: 2
    stride_w: 1
  }
}
layer {
  name: "conv3"
  type: "Convolution"
  bottom: "pool2"
  top: "conv3"
  convolution_param {
    num_output: 28
    pad: 0
    stride: 1
    weight_filler {
      type: "xavier"
    }
    bias_filler {
      type: "constant"
    }
    kernel_h: 6
    kernel_w: 3
  }
}
layer {
  name: "relu3"
  type: "ReLU"
  bottom: "conv3"
  top: "conv3"
}
layer {
  name: "pool3"
  type: "Pooling"
  bottom: "conv3"
  top: "pool3"
  pooling_param {
    pool: MAX
    kernel_h: 2
    kernel_w: 1
    stride_h: 2
    stride_w: 1
  }
}
layer {
  name: "conv4"
  type: "Convolution"
  bottom: "pool3"
  top: "conv4"
  convolution_param {
    num_output: 36
    pad: 0
    stride: 1
    weight_filler {
      type: "xavier"
    }
    bias_filler {
      type: "constant"
    }
    kernel_h: 6
    kernel_w: 3
  }
}
layer {
  name: "relu4"
  type: "ReLU"
  bottom: "conv4"
  top: "conv4"
}
layer {
  name: "pool4"
  type: "Pooling"
  bottom: "conv4"
  top: "pool4"
  pooling_param {
    pool: MAX
    kernel_h: 2
    kernel_w: 1
    stride_h: 2
    stride_w: 1
  }
}
layer {
  name: "ip1"
  type: "InnerProduct"
  bottom: "pool4"
  top: "ip1"
  inner_product_param {
    num_output: 196
    weight_filler {
      type: "xavier"
    }
    bias_filler {
      type: "constant"
    }
  }
}
layer {
  name: "relu5"
  type: "ReLU"
  bottom: "ip1"
  top: "ip1"
}
layer {
  name: "drop1"
  type: "Dropout"
  bottom: "ip1"
  top: "ip1"
  dropout_param {
    dropout_ratio: 0.5
  }
}
layer {
  name: "ip2"
  type: "InnerProduct"
  bottom: "ip1"
  top: "ip2"
  inner_product_param {
    num_output: 98
    weight_filler {
      type: "xavier"
    }
    bias_filler {
      type: "constant"
    }
  }
}
layer {
  name: "relu6"
  type: "ReLU"
  bottom: "ip2"
  top: "ip2"
}
layer {
  name: "drop2"
  type: "Dropout"
  bottom: "ip2"
  top: "ip2"
  dropout_param {
    dropout_ratio: 0.5
  }
}
layer {
  name: "ip3"
  type: "InnerProduct"
  bottom: "ip2"
  top: "ip3"
  inner_product_param {
    num_output: 11
    weight_filler {
      type: "xavier"
    }
    bias_filler {
      type: "constant"
    }
  }
}
layer {
  name: "drop3"
  type: "Dropout"
  bottom: "ip3"
  top: "ip3"
  dropout_param {
    dropout_ratio: 0.5
  }
}
layer {
  name: "accuracy"
  type: "Accuracy"
  bottom: "ip3"
  bottom: "label"
  top: "accuracy"
  include {
    phase: TEST
  }
}
layer {
  name: "loss"
  type: "SoftmaxWithLoss"
  bottom: "ip3"
  bottom: "label"
  top: "loss"
}
I0527 09:47:37.966408 25403 layer_factory.hpp:77] Creating layer data_hdf5
I0527 09:47:37.966423 25403 net.cpp:106] Creating Layer data_hdf5
I0527 09:47:37.966434 25403 net.cpp:411] data_hdf5 -> data
I0527 09:47:37.966451 25403 net.cpp:411] data_hdf5 -> label
I0527 09:47:37.966467 25403 hdf5_data_layer.cpp:79] Loading list of HDF5 filenames from: /lustre/atlas/proj-shared/hep105/caffe_titan/minosmatch_nukecczdefs_127x50_x_unshifted_me1Bmc.testlist
I0527 09:47:37.967849 25403 hdf5_data_layer.cpp:93] Number of HDF5 files: 3
I0527 09:47:59.338373 25403 net.cpp:150] Setting up data_hdf5
I0527 09:47:59.338541 25403 net.cpp:157] Top shape: 40 1 127 50 (254000)
I0527 09:47:59.338556 25403 net.cpp:157] Top shape: 40 (40)
I0527 09:47:59.338565 25403 net.cpp:165] Memory required for data: 1016160
I0527 09:47:59.338579 25403 layer_factory.hpp:77] Creating layer label_data_hdf5_1_split
I0527 09:47:59.338608 25403 net.cpp:106] Creating Layer label_data_hdf5_1_split
I0527 09:47:59.338618 25403 net.cpp:454] label_data_hdf5_1_split <- label
I0527 09:47:59.338634 25403 net.cpp:411] label_data_hdf5_1_split -> label_data_hdf5_1_split_0
I0527 09:47:59.338655 25403 net.cpp:411] label_data_hdf5_1_split -> label_data_hdf5_1_split_1
I0527 09:47:59.338728 25403 net.cpp:150] Setting up label_data_hdf5_1_split
I0527 09:47:59.338742 25403 net.cpp:157] Top shape: 40 (40)
I0527 09:47:59.338754 25403 net.cpp:157] Top shape: 40 (40)
I0527 09:47:59.338764 25403 net.cpp:165] Memory required for data: 1016480
I0527 09:47:59.338774 25403 layer_factory.hpp:77] Creating layer conv1
I0527 09:47:59.338796 25403 net.cpp:106] Creating Layer conv1
I0527 09:47:59.338807 25403 net.cpp:454] conv1 <- data
I0527 09:47:59.338821 25403 net.cpp:411] conv1 -> conv1
I0527 09:47:59.340771 25403 net.cpp:150] Setting up conv1
I0527 09:47:59.340795 25403 net.cpp:157] Top shape: 40 12 120 48 (2764800)
I0527 09:47:59.340807 25403 net.cpp:165] Memory required for data: 12075680
I0527 09:47:59.340828 25403 layer_factory.hpp:77] Creating layer relu1
I0527 09:47:59.340843 25403 net.cpp:106] Creating Layer relu1
I0527 09:47:59.340853 25403 net.cpp:454] relu1 <- conv1
I0527 09:47:59.340867 25403 net.cpp:397] relu1 -> conv1 (in-place)
I0527 09:47:59.341361 25403 net.cpp:150] Setting up relu1
I0527 09:47:59.341377 25403 net.cpp:157] Top shape: 40 12 120 48 (2764800)
I0527 09:47:59.341387 25403 net.cpp:165] Memory required for data: 23134880
I0527 09:47:59.341398 25403 layer_factory.hpp:77] Creating layer pool1
I0527 09:47:59.341413 25403 net.cpp:106] Creating Layer pool1
I0527 09:47:59.341423 25403 net.cpp:454] pool1 <- conv1
I0527 09:47:59.341436 25403 net.cpp:411] pool1 -> pool1
I0527 09:47:59.341511 25403 net.cpp:150] Setting up pool1
I0527 09:47:59.341524 25403 net.cpp:157] Top shape: 40 12 60 48 (1382400)
I0527 09:47:59.341534 25403 net.cpp:165] Memory required for data: 28664480
I0527 09:47:59.341544 25403 layer_factory.hpp:77] Creating layer conv2
I0527 09:47:59.341562 25403 net.cpp:106] Creating Layer conv2
I0527 09:47:59.341572 25403 net.cpp:454] conv2 <- pool1
I0527 09:47:59.341586 25403 net.cpp:411] conv2 -> conv2
I0527 09:47:59.343498 25403 net.cpp:150] Setting up conv2
I0527 09:47:59.343520 25403 net.cpp:157] Top shape: 40 20 54 46 (1987200)
I0527 09:47:59.343533 25403 net.cpp:165] Memory required for data: 36613280
I0527 09:47:59.343550 25403 layer_factory.hpp:77] Creating layer relu2
I0527 09:47:59.343564 25403 net.cpp:106] Creating Layer relu2
I0527 09:47:59.343575 25403 net.cpp:454] relu2 <- conv2
I0527 09:47:59.343587 25403 net.cpp:397] relu2 -> conv2 (in-place)
I0527 09:47:59.343929 25403 net.cpp:150] Setting up relu2
I0527 09:47:59.343942 25403 net.cpp:157] Top shape: 40 20 54 46 (1987200)
I0527 09:47:59.343953 25403 net.cpp:165] Memory required for data: 44562080
I0527 09:47:59.343963 25403 layer_factory.hpp:77] Creating layer pool2
I0527 09:47:59.343977 25403 net.cpp:106] Creating Layer pool2
I0527 09:47:59.343986 25403 net.cpp:454] pool2 <- conv2
I0527 09:47:59.343999 25403 net.cpp:411] pool2 -> pool2
I0527 09:47:59.344071 25403 net.cpp:150] Setting up pool2
I0527 09:47:59.344084 25403 net.cpp:157] Top shape: 40 20 27 46 (993600)
I0527 09:47:59.344094 25403 net.cpp:165] Memory required for data: 48536480
I0527 09:47:59.344105 25403 layer_factory.hpp:77] Creating layer conv3
I0527 09:47:59.344122 25403 net.cpp:106] Creating Layer conv3
I0527 09:47:59.344132 25403 net.cpp:454] conv3 <- pool2
I0527 09:47:59.344146 25403 net.cpp:411] conv3 -> conv3
I0527 09:47:59.346109 25403 net.cpp:150] Setting up conv3
I0527 09:47:59.346132 25403 net.cpp:157] Top shape: 40 28 22 44 (1084160)
I0527 09:47:59.346144 25403 net.cpp:165] Memory required for data: 52873120
I0527 09:47:59.346177 25403 layer_factory.hpp:77] Creating layer relu3
I0527 09:47:59.346191 25403 net.cpp:106] Creating Layer relu3
I0527 09:47:59.346201 25403 net.cpp:454] relu3 <- conv3
I0527 09:47:59.346215 25403 net.cpp:397] relu3 -> conv3 (in-place)
I0527 09:47:59.346689 25403 net.cpp:150] Setting up relu3
I0527 09:47:59.346706 25403 net.cpp:157] Top shape: 40 28 22 44 (1084160)
I0527 09:47:59.346716 25403 net.cpp:165] Memory required for data: 57209760
I0527 09:47:59.346726 25403 layer_factory.hpp:77] Creating layer pool3
I0527 09:47:59.346740 25403 net.cpp:106] Creating Layer pool3
I0527 09:47:59.346750 25403 net.cpp:454] pool3 <- conv3
I0527 09:47:59.346763 25403 net.cpp:411] pool3 -> pool3
I0527 09:47:59.346835 25403 net.cpp:150] Setting up pool3
I0527 09:47:59.346848 25403 net.cpp:157] Top shape: 40 28 11 44 (542080)
I0527 09:47:59.346858 25403 net.cpp:165] Memory required for data: 59378080
I0527 09:47:59.346868 25403 layer_factory.hpp:77] Creating layer conv4
I0527 09:47:59.346886 25403 net.cpp:106] Creating Layer conv4
I0527 09:47:59.346897 25403 net.cpp:454] conv4 <- pool3
I0527 09:47:59.346910 25403 net.cpp:411] conv4 -> conv4
I0527 09:47:59.348971 25403 net.cpp:150] Setting up conv4
I0527 09:47:59.348994 25403 net.cpp:157] Top shape: 40 36 6 42 (362880)
I0527 09:47:59.349006 25403 net.cpp:165] Memory required for data: 60829600
I0527 09:47:59.349021 25403 layer_factory.hpp:77] Creating layer relu4
I0527 09:47:59.349035 25403 net.cpp:106] Creating Layer relu4
I0527 09:47:59.349045 25403 net.cpp:454] relu4 <- conv4
I0527 09:47:59.349058 25403 net.cpp:397] relu4 -> conv4 (in-place)
I0527 09:47:59.349524 25403 net.cpp:150] Setting up relu4
I0527 09:47:59.349540 25403 net.cpp:157] Top shape: 40 36 6 42 (362880)
I0527 09:47:59.349551 25403 net.cpp:165] Memory required for data: 62281120
I0527 09:47:59.349561 25403 layer_factory.hpp:77] Creating layer pool4
I0527 09:47:59.349575 25403 net.cpp:106] Creating Layer pool4
I0527 09:47:59.349586 25403 net.cpp:454] pool4 <- conv4
I0527 09:47:59.349598 25403 net.cpp:411] pool4 -> pool4
I0527 09:47:59.349670 25403 net.cpp:150] Setting up pool4
I0527 09:47:59.349684 25403 net.cpp:157] Top shape: 40 36 3 42 (181440)
I0527 09:47:59.349694 25403 net.cpp:165] Memory required for data: 63006880
I0527 09:47:59.349704 25403 layer_factory.hpp:77] Creating layer ip1
I0527 09:47:59.349720 25403 net.cpp:106] Creating Layer ip1
I0527 09:47:59.349730 25403 net.cpp:454] ip1 <- pool4
I0527 09:47:59.349745 25403 net.cpp:411] ip1 -> ip1
I0527 09:47:59.365159 25403 net.cpp:150] Setting up ip1
I0527 09:47:59.365187 25403 net.cpp:157] Top shape: 40 196 (7840)
I0527 09:47:59.365200 25403 net.cpp:165] Memory required for data: 63038240
I0527 09:47:59.365222 25403 layer_factory.hpp:77] Creating layer relu5
I0527 09:47:59.365237 25403 net.cpp:106] Creating Layer relu5
I0527 09:47:59.365248 25403 net.cpp:454] relu5 <- ip1
I0527 09:47:59.365262 25403 net.cpp:397] relu5 -> ip1 (in-place)
I0527 09:47:59.365608 25403 net.cpp:150] Setting up relu5
I0527 09:47:59.365623 25403 net.cpp:157] Top shape: 40 196 (7840)
I0527 09:47:59.365633 25403 net.cpp:165] Memory required for data: 63069600
I0527 09:47:59.365643 25403 layer_factory.hpp:77] Creating layer drop1
I0527 09:47:59.365663 25403 net.cpp:106] Creating Layer drop1
I0527 09:47:59.365672 25403 net.cpp:454] drop1 <- ip1
I0527 09:47:59.365686 25403 net.cpp:397] drop1 -> ip1 (in-place)
I0527 09:47:59.365731 25403 net.cpp:150] Setting up drop1
I0527 09:47:59.365744 25403 net.cpp:157] Top shape: 40 196 (7840)
I0527 09:47:59.365754 25403 net.cpp:165] Memory required for data: 63100960
I0527 09:47:59.365764 25403 layer_factory.hpp:77] Creating layer ip2
I0527 09:47:59.365779 25403 net.cpp:106] Creating Layer ip2
I0527 09:47:59.365789 25403 net.cpp:454] ip2 <- ip1
I0527 09:47:59.365803 25403 net.cpp:411] ip2 -> ip2
I0527 09:47:59.366286 25403 net.cpp:150] Setting up ip2
I0527 09:47:59.366300 25403 net.cpp:157] Top shape: 40 98 (3920)
I0527 09:47:59.366310 25403 net.cpp:165] Memory required for data: 63116640
I0527 09:47:59.366327 25403 layer_factory.hpp:77] Creating layer relu6
I0527 09:47:59.366351 25403 net.cpp:106] Creating Layer relu6
I0527 09:47:59.366361 25403 net.cpp:454] relu6 <- ip2
I0527 09:47:59.366374 25403 net.cpp:397] relu6 -> ip2 (in-place)
I0527 09:47:59.366909 25403 net.cpp:150] Setting up relu6
I0527 09:47:59.366925 25403 net.cpp:157] Top shape: 40 98 (3920)
I0527 09:47:59.366936 25403 net.cpp:165] Memory required for data: 63132320
I0527 09:47:59.366946 25403 layer_factory.hpp:77] Creating layer drop2
I0527 09:47:59.366961 25403 net.cpp:106] Creating Layer drop2
I0527 09:47:59.366971 25403 net.cpp:454] drop2 <- ip2
I0527 09:47:59.366983 25403 net.cpp:397] drop2 -> ip2 (in-place)
I0527 09:47:59.367027 25403 net.cpp:150] Setting up drop2
I0527 09:47:59.367041 25403 net.cpp:157] Top shape: 40 98 (3920)
I0527 09:47:59.367051 25403 net.cpp:165] Memory required for data: 63148000
I0527 09:47:59.367060 25403 layer_factory.hpp:77] Creating layer ip3
I0527 09:47:59.367074 25403 net.cpp:106] Creating Layer ip3
I0527 09:47:59.367084 25403 net.cpp:454] ip3 <- ip2
I0527 09:47:59.367099 25403 net.cpp:411] ip3 -> ip3
I0527 09:47:59.367323 25403 net.cpp:150] Setting up ip3
I0527 09:47:59.367336 25403 net.cpp:157] Top shape: 40 11 (440)
I0527 09:47:59.367347 25403 net.cpp:165] Memory required for data: 63149760
I0527 09:47:59.367362 25403 layer_factory.hpp:77] Creating layer drop3
I0527 09:47:59.367375 25403 net.cpp:106] Creating Layer drop3
I0527 09:47:59.367385 25403 net.cpp:454] drop3 <- ip3
I0527 09:47:59.367398 25403 net.cpp:397] drop3 -> ip3 (in-place)
I0527 09:47:59.367439 25403 net.cpp:150] Setting up drop3
I0527 09:47:59.367451 25403 net.cpp:157] Top shape: 40 11 (440)
I0527 09:47:59.367461 25403 net.cpp:165] Memory required for data: 63151520
I0527 09:47:59.367471 25403 layer_factory.hpp:77] Creating layer ip3_drop3_0_split
I0527 09:47:59.367485 25403 net.cpp:106] Creating Layer ip3_drop3_0_split
I0527 09:47:59.367494 25403 net.cpp:454] ip3_drop3_0_split <- ip3
I0527 09:47:59.367507 25403 net.cpp:411] ip3_drop3_0_split -> ip3_drop3_0_split_0
I0527 09:47:59.367523 25403 net.cpp:411] ip3_drop3_0_split -> ip3_drop3_0_split_1
I0527 09:47:59.367599 25403 net.cpp:150] Setting up ip3_drop3_0_split
I0527 09:47:59.367611 25403 net.cpp:157] Top shape: 40 11 (440)
I0527 09:47:59.367624 25403 net.cpp:157] Top shape: 40 11 (440)
I0527 09:47:59.367635 25403 net.cpp:165] Memory required for data: 63155040
I0527 09:47:59.367645 25403 layer_factory.hpp:77] Creating layer accuracy
I0527 09:47:59.367666 25403 net.cpp:106] Creating Layer accuracy
I0527 09:47:59.367676 25403 net.cpp:454] accuracy <- ip3_drop3_0_split_0
I0527 09:47:59.367686 25403 net.cpp:454] accuracy <- label_data_hdf5_1_split_0
I0527 09:47:59.367699 25403 net.cpp:411] accuracy -> accuracy
…
