…
I0522 18:11:17.186336 12554 net.cpp:322] The NetState phase (0) differed from the phase (1) specified by a rule in layer data_hdf5
I0522 18:11:17.186395 12554 net.cpp:322] The NetState phase (0) differed from the phase (1) specified by a rule in layer accuracy
I0522 18:11:17.186743 12554 net.cpp:49] Initializing net from parameters: 
name: "caffe_test_127x50_x_unshifted"
state {
  phase: TRAIN
}
layer {
  name: "data_hdf5"
  type: "HDF5Data"
  top: "data"
  top: "label"
  include {
    phase: TRAIN
  }
  hdf5_data_param {
    source: "/lustre/atlas/proj-shared/hep105/caffe_titan/minosmatch_nukecczdefs_127x50_x_unshifted_me1Bmc.trainlist"
    batch_size: 40
  }
}
layer {
  name: "conv1"
  type: "Convolution"
  bottom: "data"
  top: "conv1"
  convolution_param {
    num_output: 12
    pad: 0
    stride: 1
    weight_filler {
      type: "xavier"
    }
    bias_filler {
      type: "constant"
    }
    kernel_h: 8
    kernel_w: 3
  }
}
layer {
  name: "relu1"
  type: "ReLU"
  bottom: "conv1"
  top: "conv1"
}
layer {
  name: "pool1"
  type: "Pooling"
  bottom: "conv1"
  top: "pool1"
  pooling_param {
    pool: MAX
    kernel_h: 2
    kernel_w: 1
    stride_h: 2
    stride_w: 1
  }
}
layer {
  name: "conv2"
  type: "Convolution"
  bottom: "pool1"
  top: "conv2"
  convolution_param {
    num_output: 20
    pad: 0
    stride: 1
    weight_filler {
      type: "xavier"
    }
    bias_filler {
      type: "constant"
    }
    kernel_h: 7
    kernel_w: 3
  }
}
layer {
  name: "relu2"
  type: "ReLU"
  bottom: "conv2"
  top: "conv2"
}
layer {
  name: "pool2"
  type: "Pooling"
  bottom: "conv2"
  top: "pool2"
  pooling_param {
    pool: MAX
    kernel_h: 2
    kernel_w: 1
    stride_h: 2
    stride_w: 1
  }
}
layer {
  name: "conv3"
  type: "Convolution"
  bottom: "pool2"
  top: "conv3"
  convolution_param {
    num_output: 28
    pad: 0
    stride: 1
    weight_filler {
      type: "xavier"
    }
    bias_filler {
      type: "constant"
    }
    kernel_h: 6
    kernel_w: 3
  }
}
layer {
  name: "relu3"
  type: "ReLU"
  bottom: "conv3"
  top: "conv3"
}
layer {
  name: "pool3"
  type: "Pooling"
  bottom: "conv3"
  top: "pool3"
  pooling_param {
    pool: MAX
    kernel_h: 2
    kernel_w: 1
    stride_h: 2
    stride_w: 1
  }
}
layer {
  name: "conv4"
  type: "Convolution"
  bottom: "pool3"
  top: "conv4"
  convolution_param {
    num_output: 36
    pad: 0
    stride: 1
    weight_filler {
      type: "xavier"
    }
    bias_filler {
      type: "constant"
    }
    kernel_h: 6
    kernel_w: 3
  }
}
layer {
  name: "relu4"
  type: "ReLU"
  bottom: "conv4"
  top: "conv4"
}
layer {
  name: "pool4"
  type: "Pooling"
  bottom: "conv4"
  top: "pool4"
  pooling_param {
    pool: MAX
    kernel_h: 2
    kernel_w: 1
    stride_h: 2
    stride_w: 1
  }
}
layer {
  name: "ip1"
  type: "InnerProduct"
  bottom: "pool4"
  top: "ip1"
  inner_product_param {
    num_output: 196
    weight_filler {
      type: "xavier"
    }
    bias_filler {
      type: "constant"
    }
  }
}
layer {
  name: "relu5"
  type: "ReLU"
  bottom: "ip1"
  top: "ip1"
}
layer {
  name: "drop1"
  type: "Dropout"
  bottom: "ip1"
  top: "ip1"
  dropout_param {
    dropout_ratio: 0.5
  }
}
layer {
  name: "ip2"
  type: "InnerProduct"
  bottom: "ip1"
  top: "ip2"
  inner_product_param {
    num_output: 98
    weight_filler {
      type: "xavier"
    }
    bias_filler {
      type: "constant"
    }
  }
}
layer {
  name: "relu6"
  type: "ReLU"
  bottom: "ip2"
  top: "ip2"
}
layer {
  name: "drop2"
  type: "Dropout"
  bottom: "ip2"
  top: "ip2"
  dropout_param {
    dropout_ratio: 0.5
  }
}
layer {
  name: "ip3"
  type: "InnerProduct"
  bottom: "ip2"
  top: "ip3"
  inner_product_param {
    num_output: 11
    weight_filler {
      type: "xavier"
    }
    bias_filler {
      type: "constant"
    }
  }
}
layer {
  name: "drop3"
  type: "Dropout"
  bottom: "ip3"
  top: "ip3"
  dropout_param {
    dropout_ratio: 0.5
  }
}
layer {
  name: "loss"
  type: "SoftmaxWithLoss"
  bottom: "ip3"
  bottom: "label"
  top: "loss"
}
I0522 18:11:17.186928 12554 layer_factory.hpp:77] Creating layer data_hdf5
I0522 18:11:17.186951 12554 net.cpp:106] Creating Layer data_hdf5
I0522 18:11:17.186966 12554 net.cpp:411] data_hdf5 -> data
I0522 18:11:17.187000 12554 net.cpp:411] data_hdf5 -> label
I0522 18:11:17.187032 12554 hdf5_data_layer.cpp:79] Loading list of HDF5 filenames from: /lustre/atlas/proj-shared/hep105/caffe_titan/minosmatch_nukecczdefs_127x50_x_unshifted_me1Bmc.trainlist
I0522 18:11:17.189129 12554 hdf5_data_layer.cpp:93] Number of HDF5 files: 15
I0522 18:11:17.192006 12554 hdf5.cpp:32] Datatype class: H5T_FLOAT
I0522 18:11:38.733791 12554 hdf5.cpp:35] Datatype class: H5T_INTEGER
I0522 18:11:38.738967 12554 net.cpp:150] Setting up data_hdf5
I0522 18:11:38.739007 12554 net.cpp:157] Top shape: 40 1 127 50 (254000)
I0522 18:11:38.739022 12554 net.cpp:157] Top shape: 40 (40)
I0522 18:11:38.739034 12554 net.cpp:165] Memory required for data: 1016160
I0522 18:11:38.739048 12554 layer_factory.hpp:77] Creating layer conv1
I0522 18:11:38.739080 12554 net.cpp:106] Creating Layer conv1
I0522 18:11:38.739092 12554 net.cpp:454] conv1 <- data
I0522 18:11:38.739114 12554 net.cpp:411] conv1 -> conv1
I0522 18:11:39.102278 12554 net.cpp:150] Setting up conv1
I0522 18:11:39.102326 12554 net.cpp:157] Top shape: 40 12 120 48 (2764800)
I0522 18:11:39.102337 12554 net.cpp:165] Memory required for data: 12075360
I0522 18:11:39.102366 12554 layer_factory.hpp:77] Creating layer relu1
I0522 18:11:39.102387 12554 net.cpp:106] Creating Layer relu1
I0522 18:11:39.102398 12554 net.cpp:454] relu1 <- conv1
I0522 18:11:39.102412 12554 net.cpp:397] relu1 -> conv1 (in-place)
I0522 18:11:39.102934 12554 net.cpp:150] Setting up relu1
I0522 18:11:39.102952 12554 net.cpp:157] Top shape: 40 12 120 48 (2764800)
I0522 18:11:39.102962 12554 net.cpp:165] Memory required for data: 23134560
I0522 18:11:39.102972 12554 layer_factory.hpp:77] Creating layer pool1
I0522 18:11:39.102989 12554 net.cpp:106] Creating Layer pool1
I0522 18:11:39.102999 12554 net.cpp:454] pool1 <- conv1
I0522 18:11:39.103013 12554 net.cpp:411] pool1 -> pool1
I0522 18:11:39.103093 12554 net.cpp:150] Setting up pool1
I0522 18:11:39.103107 12554 net.cpp:157] Top shape: 40 12 60 48 (1382400)
I0522 18:11:39.103117 12554 net.cpp:165] Memory required for data: 28664160
I0522 18:11:39.103127 12554 layer_factory.hpp:77] Creating layer conv2
I0522 18:11:39.103150 12554 net.cpp:106] Creating Layer conv2
I0522 18:11:39.103162 12554 net.cpp:454] conv2 <- pool1
I0522 18:11:39.103173 12554 net.cpp:411] conv2 -> conv2
I0522 18:11:39.105870 12554 net.cpp:150] Setting up conv2
I0522 18:11:39.105891 12554 net.cpp:157] Top shape: 40 20 54 46 (1987200)
I0522 18:11:39.105902 12554 net.cpp:165] Memory required for data: 36612960
I0522 18:11:39.105921 12554 layer_factory.hpp:77] Creating layer relu2
I0522 18:11:39.105936 12554 net.cpp:106] Creating Layer relu2
I0522 18:11:39.105947 12554 net.cpp:454] relu2 <- conv2
I0522 18:11:39.105959 12554 net.cpp:397] relu2 -> conv2 (in-place)
I0522 18:11:39.106289 12554 net.cpp:150] Setting up relu2
I0522 18:11:39.106304 12554 net.cpp:157] Top shape: 40 20 54 46 (1987200)
I0522 18:11:39.106313 12554 net.cpp:165] Memory required for data: 44561760
I0522 18:11:39.106324 12554 layer_factory.hpp:77] Creating layer pool2
I0522 18:11:39.106336 12554 net.cpp:106] Creating Layer pool2
I0522 18:11:39.106346 12554 net.cpp:454] pool2 <- conv2
I0522 18:11:39.106359 12554 net.cpp:411] pool2 -> pool2
I0522 18:11:39.106439 12554 net.cpp:150] Setting up pool2
I0522 18:11:39.106453 12554 net.cpp:157] Top shape: 40 20 27 46 (993600)
I0522 18:11:39.106463 12554 net.cpp:165] Memory required for data: 48536160
I0522 18:11:39.106473 12554 layer_factory.hpp:77] Creating layer conv3
I0522 18:11:39.106492 12554 net.cpp:106] Creating Layer conv3
I0522 18:11:39.106503 12554 net.cpp:454] conv3 <- pool2
I0522 18:11:39.106516 12554 net.cpp:411] conv3 -> conv3
I0522 18:11:39.108474 12554 net.cpp:150] Setting up conv3
I0522 18:11:39.108496 12554 net.cpp:157] Top shape: 40 28 22 44 (1084160)
I0522 18:11:39.108510 12554 net.cpp:165] Memory required for data: 52872800
I0522 18:11:39.108527 12554 layer_factory.hpp:77] Creating layer relu3
I0522 18:11:39.108543 12554 net.cpp:106] Creating Layer relu3
I0522 18:11:39.108553 12554 net.cpp:454] relu3 <- conv3
I0522 18:11:39.108566 12554 net.cpp:397] relu3 -> conv3 (in-place)
I0522 18:11:39.109036 12554 net.cpp:150] Setting up relu3
I0522 18:11:39.109053 12554 net.cpp:157] Top shape: 40 28 22 44 (1084160)
I0522 18:11:39.109064 12554 net.cpp:165] Memory required for data: 57209440
I0522 18:11:39.109074 12554 layer_factory.hpp:77] Creating layer pool3
I0522 18:11:39.109087 12554 net.cpp:106] Creating Layer pool3
I0522 18:11:39.109097 12554 net.cpp:454] pool3 <- conv3
I0522 18:11:39.109109 12554 net.cpp:411] pool3 -> pool3
I0522 18:11:39.109176 12554 net.cpp:150] Setting up pool3
I0522 18:11:39.109189 12554 net.cpp:157] Top shape: 40 28 11 44 (542080)
I0522 18:11:39.109200 12554 net.cpp:165] Memory required for data: 59377760
I0522 18:11:39.109210 12554 layer_factory.hpp:77] Creating layer conv4
I0522 18:11:39.109225 12554 net.cpp:106] Creating Layer conv4
I0522 18:11:39.109236 12554 net.cpp:454] conv4 <- pool3
I0522 18:11:39.109249 12554 net.cpp:411] conv4 -> conv4
I0522 18:11:39.112015 12554 net.cpp:150] Setting up conv4
I0522 18:11:39.112043 12554 net.cpp:157] Top shape: 40 36 6 42 (362880)
I0522 18:11:39.112053 12554 net.cpp:165] Memory required for data: 60829280
I0522 18:11:39.112069 12554 layer_factory.hpp:77] Creating layer relu4
I0522 18:11:39.112083 12554 net.cpp:106] Creating Layer relu4
I0522 18:11:39.112093 12554 net.cpp:454] relu4 <- conv4
I0522 18:11:39.112107 12554 net.cpp:397] relu4 -> conv4 (in-place)
I0522 18:11:39.112581 12554 net.cpp:150] Setting up relu4
I0522 18:11:39.112597 12554 net.cpp:157] Top shape: 40 36 6 42 (362880)
I0522 18:11:39.112608 12554 net.cpp:165] Memory required for data: 62280800
I0522 18:11:39.112618 12554 layer_factory.hpp:77] Creating layer pool4
I0522 18:11:39.112632 12554 net.cpp:106] Creating Layer pool4
I0522 18:11:39.112640 12554 net.cpp:454] pool4 <- conv4
I0522 18:11:39.112653 12554 net.cpp:411] pool4 -> pool4
I0522 18:11:39.112722 12554 net.cpp:150] Setting up pool4
I0522 18:11:39.112735 12554 net.cpp:157] Top shape: 40 36 3 42 (181440)
I0522 18:11:39.112746 12554 net.cpp:165] Memory required for data: 63006560
I0522 18:11:39.112756 12554 layer_factory.hpp:77] Creating layer ip1
I0522 18:11:39.112777 12554 net.cpp:106] Creating Layer ip1
I0522 18:11:39.112787 12554 net.cpp:454] ip1 <- pool4
I0522 18:11:39.112800 12554 net.cpp:411] ip1 -> ip1
I0522 18:11:39.128325 12554 net.cpp:150] Setting up ip1
I0522 18:11:39.128355 12554 net.cpp:157] Top shape: 40 196 (7840)
I0522 18:11:39.128371 12554 net.cpp:165] Memory required for data: 63037920
I0522 18:11:39.128396 12554 layer_factory.hpp:77] Creating layer relu5
I0522 18:11:39.128410 12554 net.cpp:106] Creating Layer relu5
I0522 18:11:39.128420 12554 net.cpp:454] relu5 <- ip1
I0522 18:11:39.128434 12554 net.cpp:397] relu5 -> ip1 (in-place)
I0522 18:11:39.128778 12554 net.cpp:150] Setting up relu5
I0522 18:11:39.128793 12554 net.cpp:157] Top shape: 40 196 (7840)
I0522 18:11:39.128803 12554 net.cpp:165] Memory required for data: 63069280
I0522 18:11:39.128813 12554 layer_factory.hpp:77] Creating layer drop1
I0522 18:11:39.128834 12554 net.cpp:106] Creating Layer drop1
I0522 18:11:39.128844 12554 net.cpp:454] drop1 <- ip1
I0522 18:11:39.128856 12554 net.cpp:397] drop1 -> ip1 (in-place)
I0522 18:11:39.128916 12554 net.cpp:150] Setting up drop1
I0522 18:11:39.128931 12554 net.cpp:157] Top shape: 40 196 (7840)
I0522 18:11:39.128940 12554 net.cpp:165] Memory required for data: 63100640
I0522 18:11:39.128950 12554 layer_factory.hpp:77] Creating layer ip2
I0522 18:11:39.128968 12554 net.cpp:106] Creating Layer ip2
I0522 18:11:39.128979 12554 net.cpp:454] ip2 <- ip1
I0522 18:11:39.128993 12554 net.cpp:411] ip2 -> ip2
I0522 18:11:39.129456 12554 net.cpp:150] Setting up ip2
I0522 18:11:39.129468 12554 net.cpp:157] Top shape: 40 98 (3920)
I0522 18:11:39.129478 12554 net.cpp:165] Memory required for data: 63116320
I0522 18:11:39.129493 12554 layer_factory.hpp:77] Creating layer relu6
I0522 18:11:39.129505 12554 net.cpp:106] Creating Layer relu6
I0522 18:11:39.129515 12554 net.cpp:454] relu6 <- ip2
I0522 18:11:39.129528 12554 net.cpp:397] relu6 -> ip2 (in-place)
I0522 18:11:39.130046 12554 net.cpp:150] Setting up relu6
I0522 18:11:39.130062 12554 net.cpp:157] Top shape: 40 98 (3920)
I0522 18:11:39.130074 12554 net.cpp:165] Memory required for data: 63132000
I0522 18:11:39.130084 12554 layer_factory.hpp:77] Creating layer drop2
I0522 18:11:39.130097 12554 net.cpp:106] Creating Layer drop2
I0522 18:11:39.130107 12554 net.cpp:454] drop2 <- ip2
I0522 18:11:39.130120 12554 net.cpp:397] drop2 -> ip2 (in-place)
I0522 18:11:39.130162 12554 net.cpp:150] Setting up drop2
I0522 18:11:39.130174 12554 net.cpp:157] Top shape: 40 98 (3920)
I0522 18:11:39.130185 12554 net.cpp:165] Memory required for data: 63147680
I0522 18:11:39.130193 12554 layer_factory.hpp:77] Creating layer ip3
I0522 18:11:39.130208 12554 net.cpp:106] Creating Layer ip3
I0522 18:11:39.130218 12554 net.cpp:454] ip3 <- ip2
I0522 18:11:39.130230 12554 net.cpp:411] ip3 -> ip3
I0522 18:11:39.130439 12554 net.cpp:150] Setting up ip3
I0522 18:11:39.130452 12554 net.cpp:157] Top shape: 40 11 (440)
I0522 18:11:39.130462 12554 net.cpp:165] Memory required for data: 63149440
I0522 18:11:39.130476 12554 layer_factory.hpp:77] Creating layer drop3
I0522 18:11:39.130489 12554 net.cpp:106] Creating Layer drop3
I0522 18:11:39.130499 12554 net.cpp:454] drop3 <- ip3
I0522 18:11:39.130511 12554 net.cpp:397] drop3 -> ip3 (in-place)
I0522 18:11:39.130550 12554 net.cpp:150] Setting up drop3
I0522 18:11:39.130563 12554 net.cpp:157] Top shape: 40 11 (440)
I0522 18:11:39.130574 12554 net.cpp:165] Memory required for data: 63151200
I0522 18:11:39.130584 12554 layer_factory.hpp:77] Creating layer loss
I0522 18:11:39.130604 12554 net.cpp:106] Creating Layer loss
I0522 18:11:39.130614 12554 net.cpp:454] loss <- ip3
I0522 18:11:39.130625 12554 net.cpp:454] loss <- label
I0522 18:11:39.130637 12554 net.cpp:411] loss -> loss
I0522 18:11:39.130655 12554 layer_factory.hpp:77] Creating layer loss
…
I0522 18:11:39.133294 12554 solver.cpp:181] Creating test net (#0) specified by net file: /lustre/atlas/proj-shared/hep105/caffe_titan/caffe_workflow/logs_bslr/bs_40_lr_0.0020_2016-05-20T15.49.02.258271.prototxt
I0522 18:11:39.133365 12554 net.cpp:322] The NetState phase (1) differed from the phase (0) specified by a rule in layer data_hdf5
I0522 18:11:39.133719 12554 net.cpp:49] Initializing net from parameters: 
name: "caffe_test_127x50_x_unshifted"
state {
  phase: TEST
}
layer {
  name: "data_hdf5"
  type: "HDF5Data"
  top: "data"
  top: "label"
  include {
    phase: TEST
  }
  hdf5_data_param {
    source: "/lustre/atlas/proj-shared/hep105/caffe_titan/minosmatch_nukecczdefs_127x50_x_unshifted_me1Bmc.testlist"
    batch_size: 40
  }
}
layer {
  name: "conv1"
  type: "Convolution"
  bottom: "data"
  top: "conv1"
  convolution_param {
    num_output: 12
    pad: 0
    stride: 1
    weight_filler {
      type: "xavier"
    }
    bias_filler {
      type: "constant"
    }
    kernel_h: 8
    kernel_w: 3
  }
}
layer {
  name: "relu1"
  type: "ReLU"
  bottom: "conv1"
  top: "conv1"
}
layer {
  name: "pool1"
  type: "Pooling"
  bottom: "conv1"
  top: "pool1"
  pooling_param {
    pool: MAX
    kernel_h: 2
    kernel_w: 1
    stride_h: 2
    stride_w: 1
  }
}
layer {
  name: "conv2"
  type: "Convolution"
  bottom: "pool1"
  top: "conv2"
  convolution_param {
    num_output: 20
    pad: 0
    stride: 1
    weight_filler {
      type: "xavier"
    }
    bias_filler {
      type: "constant"
    }
    kernel_h: 7
    kernel_w: 3
  }
}
layer {
  name: "relu2"
  type: "ReLU"
  bottom: "conv2"
  top: "conv2"
}
layer {
  name: "pool2"
  type: "Pooling"
  bottom: "conv2"
  top: "pool2"
  pooling_param {
    pool: MAX
    kernel_h: 2
    kernel_w: 1
    stride_h: 2
    stride_w: 1
  }
}
layer {
  name: "conv3"
  type: "Convolution"
  bottom: "pool2"
  top: "conv3"
  convolution_param {
    num_output: 28
    pad: 0
    stride: 1
    weight_filler {
      type: "xavier"
    }
    bias_filler {
      type: "constant"
    }
    kernel_h: 6
    kernel_w: 3
  }
}
layer {
  name: "relu3"
  type: "ReLU"
  bottom: "conv3"
  top: "conv3"
}
layer {
  name: "pool3"
  type: "Pooling"
  bottom: "conv3"
  top: "pool3"
  pooling_param {
    pool: MAX
    kernel_h: 2
    kernel_w: 1
    stride_h: 2
    stride_w: 1
  }
}
layer {
  name: "conv4"
  type: "Convolution"
  bottom: "pool3"
  top: "conv4"
  convolution_param {
    num_output: 36
    pad: 0
    stride: 1
    weight_filler {
      type: "xavier"
    }
    bias_filler {
      type: "constant"
    }
    kernel_h: 6
    kernel_w: 3
  }
}
layer {
  name: "relu4"
  type: "ReLU"
  bottom: "conv4"
  top: "conv4"
}
layer {
  name: "pool4"
  type: "Pooling"
  bottom: "conv4"
  top: "pool4"
  pooling_param {
    pool: MAX
    kernel_h: 2
    kernel_w: 1
    stride_h: 2
    stride_w: 1
  }
}
layer {
  name: "ip1"
  type: "InnerProduct"
  bottom: "pool4"
  top: "ip1"
  inner_product_param {
    num_output: 196
    weight_filler {
      type: "xavier"
    }
    bias_filler {
      type: "constant"
    }
  }
}
layer {
  name: "relu5"
  type: "ReLU"
  bottom: "ip1"
  top: "ip1"
}
layer {
  name: "drop1"
  type: "Dropout"
  bottom: "ip1"
  top: "ip1"
  dropout_param {
    dropout_ratio: 0.5
  }
}
layer {
  name: "ip2"
  type: "InnerProduct"
  bottom: "ip1"
  top: "ip2"
  inner_product_param {
    num_output: 98
    weight_filler {
      type: "xavier"
    }
    bias_filler {
      type: "constant"
    }
  }
}
layer {
  name: "relu6"
  type: "ReLU"
  bottom: "ip2"
  top: "ip2"
}
layer {
  name: "drop2"
  type: "Dropout"
  bottom: "ip2"
  top: "ip2"
  dropout_param {
    dropout_ratio: 0.5
  }
}
layer {
  name: "ip3"
  type: "InnerProduct"
  bottom: "ip2"
  top: "ip3"
  inner_product_param {
    num_output: 11
    weight_filler {
      type: "xavier"
    }
    bias_filler {
      type: "constant"
    }
  }
}
layer {
  name: "drop3"
  type: "Dropout"
  bottom: "ip3"
  top: "ip3"
  dropout_param {
    dropout_ratio: 0.5
  }
}
layer {
  name: "accuracy"
  type: "Accuracy"
  bottom: "ip3"
  bottom: "label"
  top: "accuracy"
  include {
    phase: TEST
  }
}
layer {
  name: "loss"
  type: "SoftmaxWithLoss"
  bottom: "ip3"
  bottom: "label"
  top: "loss"
}
I0522 18:11:39.133909 12554 layer_factory.hpp:77] Creating layer data_hdf5
I0522 18:11:39.133924 12554 net.cpp:106] Creating Layer data_hdf5
I0522 18:11:39.133936 12554 net.cpp:411] data_hdf5 -> data
I0522 18:11:39.133954 12554 net.cpp:411] data_hdf5 -> label
I0522 18:11:39.133970 12554 hdf5_data_layer.cpp:79] Loading list of HDF5 filenames from: /lustre/atlas/proj-shared/hep105/caffe_titan/minosmatch_nukecczdefs_127x50_x_unshifted_me1Bmc.testlist
I0522 18:11:39.135223 12554 hdf5_data_layer.cpp:93] Number of HDF5 files: 3
I0522 18:12:00.452456 12554 net.cpp:150] Setting up data_hdf5
I0522 18:12:00.452625 12554 net.cpp:157] Top shape: 40 1 127 50 (254000)
I0522 18:12:00.452638 12554 net.cpp:157] Top shape: 40 (40)
I0522 18:12:00.452651 12554 net.cpp:165] Memory required for data: 1016160
I0522 18:12:00.452666 12554 layer_factory.hpp:77] Creating layer label_data_hdf5_1_split
I0522 18:12:00.452693 12554 net.cpp:106] Creating Layer label_data_hdf5_1_split
I0522 18:12:00.452704 12554 net.cpp:454] label_data_hdf5_1_split <- label
I0522 18:12:00.452719 12554 net.cpp:411] label_data_hdf5_1_split -> label_data_hdf5_1_split_0
I0522 18:12:00.452740 12554 net.cpp:411] label_data_hdf5_1_split -> label_data_hdf5_1_split_1
I0522 18:12:00.452814 12554 net.cpp:150] Setting up label_data_hdf5_1_split
I0522 18:12:00.452827 12554 net.cpp:157] Top shape: 40 (40)
I0522 18:12:00.452839 12554 net.cpp:157] Top shape: 40 (40)
I0522 18:12:00.452849 12554 net.cpp:165] Memory required for data: 1016480
I0522 18:12:00.452859 12554 layer_factory.hpp:77] Creating layer conv1
I0522 18:12:00.452883 12554 net.cpp:106] Creating Layer conv1
I0522 18:12:00.452893 12554 net.cpp:454] conv1 <- data
I0522 18:12:00.452905 12554 net.cpp:411] conv1 -> conv1
I0522 18:12:00.454826 12554 net.cpp:150] Setting up conv1
I0522 18:12:00.454850 12554 net.cpp:157] Top shape: 40 12 120 48 (2764800)
I0522 18:12:00.454862 12554 net.cpp:165] Memory required for data: 12075680
I0522 18:12:00.454882 12554 layer_factory.hpp:77] Creating layer relu1
I0522 18:12:00.454897 12554 net.cpp:106] Creating Layer relu1
I0522 18:12:00.454907 12554 net.cpp:454] relu1 <- conv1
I0522 18:12:00.454921 12554 net.cpp:397] relu1 -> conv1 (in-place)
I0522 18:12:00.455415 12554 net.cpp:150] Setting up relu1
I0522 18:12:00.455431 12554 net.cpp:157] Top shape: 40 12 120 48 (2764800)
I0522 18:12:00.455442 12554 net.cpp:165] Memory required for data: 23134880
I0522 18:12:00.455452 12554 layer_factory.hpp:77] Creating layer pool1
I0522 18:12:00.455468 12554 net.cpp:106] Creating Layer pool1
I0522 18:12:00.455478 12554 net.cpp:454] pool1 <- conv1
I0522 18:12:00.455492 12554 net.cpp:411] pool1 -> pool1
I0522 18:12:00.455566 12554 net.cpp:150] Setting up pool1
I0522 18:12:00.455579 12554 net.cpp:157] Top shape: 40 12 60 48 (1382400)
I0522 18:12:00.455590 12554 net.cpp:165] Memory required for data: 28664480
I0522 18:12:00.455596 12554 layer_factory.hpp:77] Creating layer conv2
I0522 18:12:00.455615 12554 net.cpp:106] Creating Layer conv2
I0522 18:12:00.455624 12554 net.cpp:454] conv2 <- pool1
I0522 18:12:00.455648 12554 net.cpp:411] conv2 -> conv2
I0522 18:12:00.457571 12554 net.cpp:150] Setting up conv2
I0522 18:12:00.457587 12554 net.cpp:157] Top shape: 40 20 54 46 (1987200)
I0522 18:12:00.457597 12554 net.cpp:165] Memory required for data: 36613280
I0522 18:12:00.457614 12554 layer_factory.hpp:77] Creating layer relu2
I0522 18:12:00.457628 12554 net.cpp:106] Creating Layer relu2
I0522 18:12:00.457638 12554 net.cpp:454] relu2 <- conv2
I0522 18:12:00.457651 12554 net.cpp:397] relu2 -> conv2 (in-place)
I0522 18:12:00.457983 12554 net.cpp:150] Setting up relu2
I0522 18:12:00.457998 12554 net.cpp:157] Top shape: 40 20 54 46 (1987200)
I0522 18:12:00.458008 12554 net.cpp:165] Memory required for data: 44562080
I0522 18:12:00.458017 12554 layer_factory.hpp:77] Creating layer pool2
I0522 18:12:00.458031 12554 net.cpp:106] Creating Layer pool2
I0522 18:12:00.458040 12554 net.cpp:454] pool2 <- conv2
I0522 18:12:00.458053 12554 net.cpp:411] pool2 -> pool2
I0522 18:12:00.458124 12554 net.cpp:150] Setting up pool2
I0522 18:12:00.458137 12554 net.cpp:157] Top shape: 40 20 27 46 (993600)
I0522 18:12:00.458148 12554 net.cpp:165] Memory required for data: 48536480
I0522 18:12:00.458158 12554 layer_factory.hpp:77] Creating layer conv3
I0522 18:12:00.458175 12554 net.cpp:106] Creating Layer conv3
I0522 18:12:00.458186 12554 net.cpp:454] conv3 <- pool2
I0522 18:12:00.458200 12554 net.cpp:411] conv3 -> conv3
I0522 18:12:00.460176 12554 net.cpp:150] Setting up conv3
I0522 18:12:00.460199 12554 net.cpp:157] Top shape: 40 28 22 44 (1084160)
I0522 18:12:00.460212 12554 net.cpp:165] Memory required for data: 52873120
I0522 18:12:00.460244 12554 layer_factory.hpp:77] Creating layer relu3
I0522 18:12:00.460258 12554 net.cpp:106] Creating Layer relu3
I0522 18:12:00.460269 12554 net.cpp:454] relu3 <- conv3
I0522 18:12:00.460283 12554 net.cpp:397] relu3 -> conv3 (in-place)
I0522 18:12:00.460754 12554 net.cpp:150] Setting up relu3
I0522 18:12:00.460770 12554 net.cpp:157] Top shape: 40 28 22 44 (1084160)
I0522 18:12:00.460782 12554 net.cpp:165] Memory required for data: 57209760
I0522 18:12:00.460791 12554 layer_factory.hpp:77] Creating layer pool3
I0522 18:12:00.460804 12554 net.cpp:106] Creating Layer pool3
I0522 18:12:00.460813 12554 net.cpp:454] pool3 <- conv3
I0522 18:12:00.460827 12554 net.cpp:411] pool3 -> pool3
I0522 18:12:00.460898 12554 net.cpp:150] Setting up pool3
I0522 18:12:00.460912 12554 net.cpp:157] Top shape: 40 28 11 44 (542080)
I0522 18:12:00.460922 12554 net.cpp:165] Memory required for data: 59378080
I0522 18:12:00.460932 12554 layer_factory.hpp:77] Creating layer conv4
I0522 18:12:00.460947 12554 net.cpp:106] Creating Layer conv4
I0522 18:12:00.460958 12554 net.cpp:454] conv4 <- pool3
I0522 18:12:00.460973 12554 net.cpp:411] conv4 -> conv4
I0522 18:12:00.463032 12554 net.cpp:150] Setting up conv4
I0522 18:12:00.463053 12554 net.cpp:157] Top shape: 40 36 6 42 (362880)
I0522 18:12:00.463066 12554 net.cpp:165] Memory required for data: 60829600
I0522 18:12:00.463081 12554 layer_factory.hpp:77] Creating layer relu4
I0522 18:12:00.463095 12554 net.cpp:106] Creating Layer relu4
I0522 18:12:00.463105 12554 net.cpp:454] relu4 <- conv4
I0522 18:12:00.463119 12554 net.cpp:397] relu4 -> conv4 (in-place)
I0522 18:12:00.463589 12554 net.cpp:150] Setting up relu4
I0522 18:12:00.463605 12554 net.cpp:157] Top shape: 40 36 6 42 (362880)
I0522 18:12:00.463615 12554 net.cpp:165] Memory required for data: 62281120
I0522 18:12:00.463625 12554 layer_factory.hpp:77] Creating layer pool4
I0522 18:12:00.463639 12554 net.cpp:106] Creating Layer pool4
I0522 18:12:00.463655 12554 net.cpp:454] pool4 <- conv4
I0522 18:12:00.463670 12554 net.cpp:411] pool4 -> pool4
I0522 18:12:00.463742 12554 net.cpp:150] Setting up pool4
I0522 18:12:00.463755 12554 net.cpp:157] Top shape: 40 36 3 42 (181440)
I0522 18:12:00.463764 12554 net.cpp:165] Memory required for data: 63006880
I0522 18:12:00.463773 12554 layer_factory.hpp:77] Creating layer ip1
I0522 18:12:00.463788 12554 net.cpp:106] Creating Layer ip1
I0522 18:12:00.463798 12554 net.cpp:454] ip1 <- pool4
I0522 18:12:00.463812 12554 net.cpp:411] ip1 -> ip1
I0522 18:12:00.479305 12554 net.cpp:150] Setting up ip1
I0522 18:12:00.479334 12554 net.cpp:157] Top shape: 40 196 (7840)
I0522 18:12:00.479349 12554 net.cpp:165] Memory required for data: 63038240
I0522 18:12:00.479377 12554 layer_factory.hpp:77] Creating layer relu5
I0522 18:12:00.479392 12554 net.cpp:106] Creating Layer relu5
I0522 18:12:00.479403 12554 net.cpp:454] relu5 <- ip1
I0522 18:12:00.479416 12554 net.cpp:397] relu5 -> ip1 (in-place)
I0522 18:12:00.479768 12554 net.cpp:150] Setting up relu5
I0522 18:12:00.479782 12554 net.cpp:157] Top shape: 40 196 (7840)
I0522 18:12:00.479792 12554 net.cpp:165] Memory required for data: 63069600
I0522 18:12:00.479802 12554 layer_factory.hpp:77] Creating layer drop1
I0522 18:12:00.479820 12554 net.cpp:106] Creating Layer drop1
I0522 18:12:00.479830 12554 net.cpp:454] drop1 <- ip1
I0522 18:12:00.479843 12554 net.cpp:397] drop1 -> ip1 (in-place)
I0522 18:12:00.479888 12554 net.cpp:150] Setting up drop1
I0522 18:12:00.479902 12554 net.cpp:157] Top shape: 40 196 (7840)
I0522 18:12:00.479910 12554 net.cpp:165] Memory required for data: 63100960
I0522 18:12:00.479921 12554 layer_factory.hpp:77] Creating layer ip2
I0522 18:12:00.479936 12554 net.cpp:106] Creating Layer ip2
I0522 18:12:00.479946 12554 net.cpp:454] ip2 <- ip1
I0522 18:12:00.479959 12554 net.cpp:411] ip2 -> ip2
I0522 18:12:00.480437 12554 net.cpp:150] Setting up ip2
I0522 18:12:00.480449 12554 net.cpp:157] Top shape: 40 98 (3920)
I0522 18:12:00.480459 12554 net.cpp:165] Memory required for data: 63116640
I0522 18:12:00.480474 12554 layer_factory.hpp:77] Creating layer relu6
I0522 18:12:00.480499 12554 net.cpp:106] Creating Layer relu6
I0522 18:12:00.480510 12554 net.cpp:454] relu6 <- ip2
I0522 18:12:00.480523 12554 net.cpp:397] relu6 -> ip2 (in-place)
I0522 18:12:00.481061 12554 net.cpp:150] Setting up relu6
I0522 18:12:00.481082 12554 net.cpp:157] Top shape: 40 98 (3920)
I0522 18:12:00.481092 12554 net.cpp:165] Memory required for data: 63132320
I0522 18:12:00.481102 12554 layer_factory.hpp:77] Creating layer drop2
I0522 18:12:00.481117 12554 net.cpp:106] Creating Layer drop2
I0522 18:12:00.481127 12554 net.cpp:454] drop2 <- ip2
I0522 18:12:00.481140 12554 net.cpp:397] drop2 -> ip2 (in-place)
I0522 18:12:00.481184 12554 net.cpp:150] Setting up drop2
I0522 18:12:00.481196 12554 net.cpp:157] Top shape: 40 98 (3920)
I0522 18:12:00.481206 12554 net.cpp:165] Memory required for data: 63148000
I0522 18:12:00.481215 12554 layer_factory.hpp:77] Creating layer ip3
I0522 18:12:00.481230 12554 net.cpp:106] Creating Layer ip3
I0522 18:12:00.481240 12554 net.cpp:454] ip3 <- ip2
I0522 18:12:00.481253 12554 net.cpp:411] ip3 -> ip3
I0522 18:12:00.481477 12554 net.cpp:150] Setting up ip3
I0522 18:12:00.481490 12554 net.cpp:157] Top shape: 40 11 (440)
I0522 18:12:00.481500 12554 net.cpp:165] Memory required for data: 63149760
I0522 18:12:00.481515 12554 layer_factory.hpp:77] Creating layer drop3
I0522 18:12:00.481528 12554 net.cpp:106] Creating Layer drop3
I0522 18:12:00.481539 12554 net.cpp:454] drop3 <- ip3
I0522 18:12:00.481551 12554 net.cpp:397] drop3 -> ip3 (in-place)
I0522 18:12:00.481591 12554 net.cpp:150] Setting up drop3
I0522 18:12:00.481605 12554 net.cpp:157] Top shape: 40 11 (440)
I0522 18:12:00.481614 12554 net.cpp:165] Memory required for data: 63151520
I0522 18:12:00.481623 12554 layer_factory.hpp:77] Creating layer ip3_drop3_0_split
I0522 18:12:00.481637 12554 net.cpp:106] Creating Layer ip3_drop3_0_split
I0522 18:12:00.481647 12554 net.cpp:454] ip3_drop3_0_split <- ip3
I0522 18:12:00.481659 12554 net.cpp:411] ip3_drop3_0_split -> ip3_drop3_0_split_0
I0522 18:12:00.481674 12554 net.cpp:411] ip3_drop3_0_split -> ip3_drop3_0_split_1
I0522 18:12:00.481747 12554 net.cpp:150] Setting up ip3_drop3_0_split
I0522 18:12:00.481760 12554 net.cpp:157] Top shape: 40 11 (440)
I0522 18:12:00.481773 12554 net.cpp:157] Top shape: 40 11 (440)
I0522 18:12:00.481783 12554 net.cpp:165] Memory required for data: 63155040
I0522 18:12:00.481793 12554 layer_factory.hpp:77] Creating layer accuracy
I0522 18:12:00.481815 12554 net.cpp:106] Creating Layer accuracy
I0522 18:12:00.481825 12554 net.cpp:454] accuracy <- ip3_drop3_0_split_0
I0522 18:12:00.481834 12554 net.cpp:454] accuracy <- label_data_hdf5_1_split_0
I0522 18:12:00.481848 12554 net.cpp:411] accuracy -> accuracy
…
