…
I0527 07:46:40.682699 19848 net.cpp:322] The NetState phase (0) differed from the phase (1) specified by a rule in layer data_hdf5
I0527 07:46:40.682762 19848 net.cpp:322] The NetState phase (0) differed from the phase (1) specified by a rule in layer accuracy
I0527 07:46:40.683112 19848 net.cpp:49] Initializing net from parameters: 
name: "caffe_test_127x50_x_unshifted"
state {
  phase: TRAIN
}
layer {
  name: "data_hdf5"
  type: "HDF5Data"
  top: "data"
  top: "label"
  include {
    phase: TRAIN
  }
  hdf5_data_param {
    source: "/lustre/atlas/proj-shared/hep105/caffe_titan/minosmatch_nukecczdefs_127x50_x_unshifted_me1Bmc.trainlist"
    batch_size: 40
  }
}
layer {
  name: "conv1"
  type: "Convolution"
  bottom: "data"
  top: "conv1"
  convolution_param {
    num_output: 12
    pad: 0
    stride: 1
    weight_filler {
      type: "xavier"
    }
    bias_filler {
      type: "constant"
    }
    kernel_h: 8
    kernel_w: 3
  }
}
layer {
  name: "relu1"
  type: "ReLU"
  bottom: "conv1"
  top: "conv1"
}
layer {
  name: "pool1"
  type: "Pooling"
  bottom: "conv1"
  top: "pool1"
  pooling_param {
    pool: MAX
    kernel_h: 2
    kernel_w: 1
    stride_h: 2
    stride_w: 1
  }
}
layer {
  name: "conv2"
  type: "Convolution"
  bottom: "pool1"
  top: "conv2"
  convolution_param {
    num_output: 20
    pad: 0
    stride: 1
    weight_filler {
      type: "xavier"
    }
    bias_filler {
      type: "constant"
    }
    kernel_h: 7
    kernel_w: 3
  }
}
layer {
  name: "relu2"
  type: "ReLU"
  bottom: "conv2"
  top: "conv2"
}
layer {
  name: "pool2"
  type: "Pooling"
  bottom: "conv2"
  top: "pool2"
  pooling_param {
    pool: MAX
    kernel_h: 2
    kernel_w: 1
    stride_h: 2
    stride_w: 1
  }
}
layer {
  name: "conv3"
  type: "Convolution"
  bottom: "pool2"
  top: "conv3"
  convolution_param {
    num_output: 28
    pad: 0
    stride: 1
    weight_filler {
      type: "xavier"
    }
    bias_filler {
      type: "constant"
    }
    kernel_h: 6
    kernel_w: 3
  }
}
layer {
  name: "relu3"
  type: "ReLU"
  bottom: "conv3"
  top: "conv3"
}
layer {
  name: "pool3"
  type: "Pooling"
  bottom: "conv3"
  top: "pool3"
  pooling_param {
    pool: MAX
    kernel_h: 2
    kernel_w: 1
    stride_h: 2
    stride_w: 1
  }
}
layer {
  name: "conv4"
  type: "Convolution"
  bottom: "pool3"
  top: "conv4"
  convolution_param {
    num_output: 36
    pad: 0
    stride: 1
    weight_filler {
      type: "xavier"
    }
    bias_filler {
      type: "constant"
    }
    kernel_h: 6
    kernel_w: 3
  }
}
layer {
  name: "relu4"
  type: "ReLU"
  bottom: "conv4"
  top: "conv4"
}
layer {
  name: "pool4"
  type: "Pooling"
  bottom: "conv4"
  top: "pool4"
  pooling_param {
    pool: MAX
    kernel_h: 2
    kernel_w: 1
    stride_h: 2
    stride_w: 1
  }
}
layer {
  name: "ip1"
  type: "InnerProduct"
  bottom: "pool4"
  top: "ip1"
  inner_product_param {
    num_output: 196
    weight_filler {
      type: "xavier"
    }
    bias_filler {
      type: "constant"
    }
  }
}
layer {
  name: "relu5"
  type: "ReLU"
  bottom: "ip1"
  top: "ip1"
}
layer {
  name: "drop1"
  type: "Dropout"
  bottom: "ip1"
  top: "ip1"
  dropout_param {
    dropout_ratio: 0.5
  }
}
layer {
  name: "ip2"
  type: "InnerProduct"
  bottom: "ip1"
  top: "ip2"
  inner_product_param {
    num_output: 98
    weight_filler {
      type: "xavier"
    }
    bias_filler {
      type: "constant"
    }
  }
}
layer {
  name: "relu6"
  type: "ReLU"
  bottom: "ip2"
  top: "ip2"
}
layer {
  name: "drop2"
  type: "Dropout"
  bottom: "ip2"
  top: "ip2"
  dropout_param {
    dropout_ratio: 0.5
  }
}
layer {
  name: "ip3"
  type: "InnerProduct"
  bottom: "ip2"
  top: "ip3"
  inner_product_param {
    num_output: 11
    weight_filler {
      type: "xavier"
    }
    bias_filler {
      type: "constant"
    }
  }
}
layer {
  name: "drop3"
  type: "Dropout"
  bottom: "ip3"
  top: "ip3"
  dropout_param {
    dropout_ratio: 0.5
  }
}
layer {
  name: "loss"
  type: "SoftmaxWithLoss"
  bottom: "ip3"
  bottom: "label"
  top: "loss"
}
I0527 07:46:40.683293 19848 layer_factory.hpp:77] Creating layer data_hdf5
I0527 07:46:40.683318 19848 net.cpp:106] Creating Layer data_hdf5
I0527 07:46:40.683332 19848 net.cpp:411] data_hdf5 -> data
I0527 07:46:40.683367 19848 net.cpp:411] data_hdf5 -> label
I0527 07:46:40.683398 19848 hdf5_data_layer.cpp:79] Loading list of HDF5 filenames from: /lustre/atlas/proj-shared/hep105/caffe_titan/minosmatch_nukecczdefs_127x50_x_unshifted_me1Bmc.trainlist
I0527 07:46:40.684728 19848 hdf5_data_layer.cpp:93] Number of HDF5 files: 15
I0527 07:46:40.687762 19848 hdf5.cpp:32] Datatype class: H5T_FLOAT
I0527 07:47:02.241320 19848 hdf5.cpp:35] Datatype class: H5T_INTEGER
I0527 07:47:02.246444 19848 net.cpp:150] Setting up data_hdf5
I0527 07:47:02.246484 19848 net.cpp:157] Top shape: 40 1 127 50 (254000)
I0527 07:47:02.246498 19848 net.cpp:157] Top shape: 40 (40)
I0527 07:47:02.246511 19848 net.cpp:165] Memory required for data: 1016160
I0527 07:47:02.246526 19848 layer_factory.hpp:77] Creating layer conv1
I0527 07:47:02.246559 19848 net.cpp:106] Creating Layer conv1
I0527 07:47:02.246570 19848 net.cpp:454] conv1 <- data
I0527 07:47:02.246592 19848 net.cpp:411] conv1 -> conv1
I0527 07:47:02.609587 19848 net.cpp:150] Setting up conv1
I0527 07:47:02.609635 19848 net.cpp:157] Top shape: 40 12 120 48 (2764800)
I0527 07:47:02.609647 19848 net.cpp:165] Memory required for data: 12075360
I0527 07:47:02.609674 19848 layer_factory.hpp:77] Creating layer relu1
I0527 07:47:02.609696 19848 net.cpp:106] Creating Layer relu1
I0527 07:47:02.609707 19848 net.cpp:454] relu1 <- conv1
I0527 07:47:02.609721 19848 net.cpp:397] relu1 -> conv1 (in-place)
I0527 07:47:02.610235 19848 net.cpp:150] Setting up relu1
I0527 07:47:02.610251 19848 net.cpp:157] Top shape: 40 12 120 48 (2764800)
I0527 07:47:02.610261 19848 net.cpp:165] Memory required for data: 23134560
I0527 07:47:02.610272 19848 layer_factory.hpp:77] Creating layer pool1
I0527 07:47:02.610288 19848 net.cpp:106] Creating Layer pool1
I0527 07:47:02.610298 19848 net.cpp:454] pool1 <- conv1
I0527 07:47:02.610311 19848 net.cpp:411] pool1 -> pool1
I0527 07:47:02.610393 19848 net.cpp:150] Setting up pool1
I0527 07:47:02.610406 19848 net.cpp:157] Top shape: 40 12 60 48 (1382400)
I0527 07:47:02.610416 19848 net.cpp:165] Memory required for data: 28664160
I0527 07:47:02.610424 19848 layer_factory.hpp:77] Creating layer conv2
I0527 07:47:02.610447 19848 net.cpp:106] Creating Layer conv2
I0527 07:47:02.610457 19848 net.cpp:454] conv2 <- pool1
I0527 07:47:02.610469 19848 net.cpp:411] conv2 -> conv2
I0527 07:47:02.613164 19848 net.cpp:150] Setting up conv2
I0527 07:47:02.613188 19848 net.cpp:157] Top shape: 40 20 54 46 (1987200)
I0527 07:47:02.613203 19848 net.cpp:165] Memory required for data: 36612960
I0527 07:47:02.613221 19848 layer_factory.hpp:77] Creating layer relu2
I0527 07:47:02.613236 19848 net.cpp:106] Creating Layer relu2
I0527 07:47:02.613246 19848 net.cpp:454] relu2 <- conv2
I0527 07:47:02.613260 19848 net.cpp:397] relu2 -> conv2 (in-place)
I0527 07:47:02.613587 19848 net.cpp:150] Setting up relu2
I0527 07:47:02.613602 19848 net.cpp:157] Top shape: 40 20 54 46 (1987200)
I0527 07:47:02.613612 19848 net.cpp:165] Memory required for data: 44561760
I0527 07:47:02.613622 19848 layer_factory.hpp:77] Creating layer pool2
I0527 07:47:02.613636 19848 net.cpp:106] Creating Layer pool2
I0527 07:47:02.613646 19848 net.cpp:454] pool2 <- conv2
I0527 07:47:02.613658 19848 net.cpp:411] pool2 -> pool2
I0527 07:47:02.613739 19848 net.cpp:150] Setting up pool2
I0527 07:47:02.613752 19848 net.cpp:157] Top shape: 40 20 27 46 (993600)
I0527 07:47:02.613762 19848 net.cpp:165] Memory required for data: 48536160
I0527 07:47:02.613773 19848 layer_factory.hpp:77] Creating layer conv3
I0527 07:47:02.613791 19848 net.cpp:106] Creating Layer conv3
I0527 07:47:02.613802 19848 net.cpp:454] conv3 <- pool2
I0527 07:47:02.613816 19848 net.cpp:411] conv3 -> conv3
I0527 07:47:02.615756 19848 net.cpp:150] Setting up conv3
I0527 07:47:02.615779 19848 net.cpp:157] Top shape: 40 28 22 44 (1084160)
I0527 07:47:02.615792 19848 net.cpp:165] Memory required for data: 52872800
I0527 07:47:02.615809 19848 layer_factory.hpp:77] Creating layer relu3
I0527 07:47:02.615826 19848 net.cpp:106] Creating Layer relu3
I0527 07:47:02.615836 19848 net.cpp:454] relu3 <- conv3
I0527 07:47:02.615849 19848 net.cpp:397] relu3 -> conv3 (in-place)
I0527 07:47:02.616317 19848 net.cpp:150] Setting up relu3
I0527 07:47:02.616334 19848 net.cpp:157] Top shape: 40 28 22 44 (1084160)
I0527 07:47:02.616344 19848 net.cpp:165] Memory required for data: 57209440
I0527 07:47:02.616354 19848 layer_factory.hpp:77] Creating layer pool3
I0527 07:47:02.616369 19848 net.cpp:106] Creating Layer pool3
I0527 07:47:02.616377 19848 net.cpp:454] pool3 <- conv3
I0527 07:47:02.616390 19848 net.cpp:411] pool3 -> pool3
I0527 07:47:02.616456 19848 net.cpp:150] Setting up pool3
I0527 07:47:02.616471 19848 net.cpp:157] Top shape: 40 28 11 44 (542080)
I0527 07:47:02.616479 19848 net.cpp:165] Memory required for data: 59377760
I0527 07:47:02.616487 19848 layer_factory.hpp:77] Creating layer conv4
I0527 07:47:02.616505 19848 net.cpp:106] Creating Layer conv4
I0527 07:47:02.616516 19848 net.cpp:454] conv4 <- pool3
I0527 07:47:02.616530 19848 net.cpp:411] conv4 -> conv4
I0527 07:47:02.619288 19848 net.cpp:150] Setting up conv4
I0527 07:47:02.619316 19848 net.cpp:157] Top shape: 40 36 6 42 (362880)
I0527 07:47:02.619328 19848 net.cpp:165] Memory required for data: 60829280
I0527 07:47:02.619343 19848 layer_factory.hpp:77] Creating layer relu4
I0527 07:47:02.619357 19848 net.cpp:106] Creating Layer relu4
I0527 07:47:02.619367 19848 net.cpp:454] relu4 <- conv4
I0527 07:47:02.619380 19848 net.cpp:397] relu4 -> conv4 (in-place)
I0527 07:47:02.619856 19848 net.cpp:150] Setting up relu4
I0527 07:47:02.619873 19848 net.cpp:157] Top shape: 40 36 6 42 (362880)
I0527 07:47:02.619882 19848 net.cpp:165] Memory required for data: 62280800
I0527 07:47:02.619894 19848 layer_factory.hpp:77] Creating layer pool4
I0527 07:47:02.619906 19848 net.cpp:106] Creating Layer pool4
I0527 07:47:02.619915 19848 net.cpp:454] pool4 <- conv4
I0527 07:47:02.619928 19848 net.cpp:411] pool4 -> pool4
I0527 07:47:02.619997 19848 net.cpp:150] Setting up pool4
I0527 07:47:02.620010 19848 net.cpp:157] Top shape: 40 36 3 42 (181440)
I0527 07:47:02.620020 19848 net.cpp:165] Memory required for data: 63006560
I0527 07:47:02.620031 19848 layer_factory.hpp:77] Creating layer ip1
I0527 07:47:02.620051 19848 net.cpp:106] Creating Layer ip1
I0527 07:47:02.620062 19848 net.cpp:454] ip1 <- pool4
I0527 07:47:02.620075 19848 net.cpp:411] ip1 -> ip1
I0527 07:47:02.635469 19848 net.cpp:150] Setting up ip1
I0527 07:47:02.635499 19848 net.cpp:157] Top shape: 40 196 (7840)
I0527 07:47:02.635510 19848 net.cpp:165] Memory required for data: 63037920
I0527 07:47:02.635534 19848 layer_factory.hpp:77] Creating layer relu5
I0527 07:47:02.635547 19848 net.cpp:106] Creating Layer relu5
I0527 07:47:02.635557 19848 net.cpp:454] relu5 <- ip1
I0527 07:47:02.635571 19848 net.cpp:397] relu5 -> ip1 (in-place)
I0527 07:47:02.635910 19848 net.cpp:150] Setting up relu5
I0527 07:47:02.635924 19848 net.cpp:157] Top shape: 40 196 (7840)
I0527 07:47:02.635934 19848 net.cpp:165] Memory required for data: 63069280
I0527 07:47:02.635946 19848 layer_factory.hpp:77] Creating layer drop1
I0527 07:47:02.635967 19848 net.cpp:106] Creating Layer drop1
I0527 07:47:02.635977 19848 net.cpp:454] drop1 <- ip1
I0527 07:47:02.635989 19848 net.cpp:397] drop1 -> ip1 (in-place)
I0527 07:47:02.636049 19848 net.cpp:150] Setting up drop1
I0527 07:47:02.636061 19848 net.cpp:157] Top shape: 40 196 (7840)
I0527 07:47:02.636071 19848 net.cpp:165] Memory required for data: 63100640
I0527 07:47:02.636082 19848 layer_factory.hpp:77] Creating layer ip2
I0527 07:47:02.636101 19848 net.cpp:106] Creating Layer ip2
I0527 07:47:02.636111 19848 net.cpp:454] ip2 <- ip1
I0527 07:47:02.636124 19848 net.cpp:411] ip2 -> ip2
I0527 07:47:02.636585 19848 net.cpp:150] Setting up ip2
I0527 07:47:02.636600 19848 net.cpp:157] Top shape: 40 98 (3920)
I0527 07:47:02.636608 19848 net.cpp:165] Memory required for data: 63116320
I0527 07:47:02.636623 19848 layer_factory.hpp:77] Creating layer relu6
I0527 07:47:02.636636 19848 net.cpp:106] Creating Layer relu6
I0527 07:47:02.636646 19848 net.cpp:454] relu6 <- ip2
I0527 07:47:02.636657 19848 net.cpp:397] relu6 -> ip2 (in-place)
I0527 07:47:02.637179 19848 net.cpp:150] Setting up relu6
I0527 07:47:02.637197 19848 net.cpp:157] Top shape: 40 98 (3920)
I0527 07:47:02.637207 19848 net.cpp:165] Memory required for data: 63132000
I0527 07:47:02.637217 19848 layer_factory.hpp:77] Creating layer drop2
I0527 07:47:02.637229 19848 net.cpp:106] Creating Layer drop2
I0527 07:47:02.637239 19848 net.cpp:454] drop2 <- ip2
I0527 07:47:02.637253 19848 net.cpp:397] drop2 -> ip2 (in-place)
I0527 07:47:02.637295 19848 net.cpp:150] Setting up drop2
I0527 07:47:02.637307 19848 net.cpp:157] Top shape: 40 98 (3920)
I0527 07:47:02.637317 19848 net.cpp:165] Memory required for data: 63147680
I0527 07:47:02.637327 19848 layer_factory.hpp:77] Creating layer ip3
I0527 07:47:02.637341 19848 net.cpp:106] Creating Layer ip3
I0527 07:47:02.637351 19848 net.cpp:454] ip3 <- ip2
I0527 07:47:02.637363 19848 net.cpp:411] ip3 -> ip3
I0527 07:47:02.637575 19848 net.cpp:150] Setting up ip3
I0527 07:47:02.637588 19848 net.cpp:157] Top shape: 40 11 (440)
I0527 07:47:02.637598 19848 net.cpp:165] Memory required for data: 63149440
I0527 07:47:02.637614 19848 layer_factory.hpp:77] Creating layer drop3
I0527 07:47:02.637625 19848 net.cpp:106] Creating Layer drop3
I0527 07:47:02.637635 19848 net.cpp:454] drop3 <- ip3
I0527 07:47:02.637647 19848 net.cpp:397] drop3 -> ip3 (in-place)
I0527 07:47:02.637687 19848 net.cpp:150] Setting up drop3
I0527 07:47:02.637701 19848 net.cpp:157] Top shape: 40 11 (440)
I0527 07:47:02.637711 19848 net.cpp:165] Memory required for data: 63151200
I0527 07:47:02.637720 19848 layer_factory.hpp:77] Creating layer loss
I0527 07:47:02.637739 19848 net.cpp:106] Creating Layer loss
I0527 07:47:02.637749 19848 net.cpp:454] loss <- ip3
I0527 07:47:02.637760 19848 net.cpp:454] loss <- label
I0527 07:47:02.637773 19848 net.cpp:411] loss -> loss
I0527 07:47:02.637790 19848 layer_factory.hpp:77] Creating layer loss
…
I0527 07:47:02.640478 19848 solver.cpp:181] Creating test net (#0) specified by net file: /lustre/atlas/proj-shared/hep105/caffe_titan/caffe_workflow/logs_bslr/bs_40_lr_0.0010_2016-05-20T15.49.01.417468.prototxt
I0527 07:47:02.640550 19848 net.cpp:322] The NetState phase (1) differed from the phase (0) specified by a rule in layer data_hdf5
I0527 07:47:02.640904 19848 net.cpp:49] Initializing net from parameters: 
name: "caffe_test_127x50_x_unshifted"
state {
  phase: TEST
}
layer {
  name: "data_hdf5"
  type: "HDF5Data"
  top: "data"
  top: "label"
  include {
    phase: TEST
  }
  hdf5_data_param {
    source: "/lustre/atlas/proj-shared/hep105/caffe_titan/minosmatch_nukecczdefs_127x50_x_unshifted_me1Bmc.testlist"
    batch_size: 40
  }
}
layer {
  name: "conv1"
  type: "Convolution"
  bottom: "data"
  top: "conv1"
  convolution_param {
    num_output: 12
    pad: 0
    stride: 1
    weight_filler {
      type: "xavier"
    }
    bias_filler {
      type: "constant"
    }
    kernel_h: 8
    kernel_w: 3
  }
}
layer {
  name: "relu1"
  type: "ReLU"
  bottom: "conv1"
  top: "conv1"
}
layer {
  name: "pool1"
  type: "Pooling"
  bottom: "conv1"
  top: "pool1"
  pooling_param {
    pool: MAX
    kernel_h: 2
    kernel_w: 1
    stride_h: 2
    stride_w: 1
  }
}
layer {
  name: "conv2"
  type: "Convolution"
  bottom: "pool1"
  top: "conv2"
  convolution_param {
    num_output: 20
    pad: 0
    stride: 1
    weight_filler {
      type: "xavier"
    }
    bias_filler {
      type: "constant"
    }
    kernel_h: 7
    kernel_w: 3
  }
}
layer {
  name: "relu2"
  type: "ReLU"
  bottom: "conv2"
  top: "conv2"
}
layer {
  name: "pool2"
  type: "Pooling"
  bottom: "conv2"
  top: "pool2"
  pooling_param {
    pool: MAX
    kernel_h: 2
    kernel_w: 1
    stride_h: 2
    stride_w: 1
  }
}
layer {
  name: "conv3"
  type: "Convolution"
  bottom: "pool2"
  top: "conv3"
  convolution_param {
    num_output: 28
    pad: 0
    stride: 1
    weight_filler {
      type: "xavier"
    }
    bias_filler {
      type: "constant"
    }
    kernel_h: 6
    kernel_w: 3
  }
}
layer {
  name: "relu3"
  type: "ReLU"
  bottom: "conv3"
  top: "conv3"
}
layer {
  name: "pool3"
  type: "Pooling"
  bottom: "conv3"
  top: "pool3"
  pooling_param {
    pool: MAX
    kernel_h: 2
    kernel_w: 1
    stride_h: 2
    stride_w: 1
  }
}
layer {
  name: "conv4"
  type: "Convolution"
  bottom: "pool3"
  top: "conv4"
  convolution_param {
    num_output: 36
    pad: 0
    stride: 1
    weight_filler {
      type: "xavier"
    }
    bias_filler {
      type: "constant"
    }
    kernel_h: 6
    kernel_w: 3
  }
}
layer {
  name: "relu4"
  type: "ReLU"
  bottom: "conv4"
  top: "conv4"
}
layer {
  name: "pool4"
  type: "Pooling"
  bottom: "conv4"
  top: "pool4"
  pooling_param {
    pool: MAX
    kernel_h: 2
    kernel_w: 1
    stride_h: 2
    stride_w: 1
  }
}
layer {
  name: "ip1"
  type: "InnerProduct"
  bottom: "pool4"
  top: "ip1"
  inner_product_param {
    num_output: 196
    weight_filler {
      type: "xavier"
    }
    bias_filler {
      type: "constant"
    }
  }
}
layer {
  name: "relu5"
  type: "ReLU"
  bottom: "ip1"
  top: "ip1"
}
layer {
  name: "drop1"
  type: "Dropout"
  bottom: "ip1"
  top: "ip1"
  dropout_param {
    dropout_ratio: 0.5
  }
}
layer {
  name: "ip2"
  type: "InnerProduct"
  bottom: "ip1"
  top: "ip2"
  inner_product_param {
    num_output: 98
    weight_filler {
      type: "xavier"
    }
    bias_filler {
      type: "constant"
    }
  }
}
layer {
  name: "relu6"
  type: "ReLU"
  bottom: "ip2"
  top: "ip2"
}
layer {
  name: "drop2"
  type: "Dropout"
  bottom: "ip2"
  top: "ip2"
  dropout_param {
    dropout_ratio: 0.5
  }
}
layer {
  name: "ip3"
  type: "InnerProduct"
  bottom: "ip2"
  top: "ip3"
  inner_product_param {
    num_output: 11
    weight_filler {
      type: "xavier"
    }
    bias_filler {
      type: "constant"
    }
  }
}
layer {
  name: "drop3"
  type: "Dropout"
  bottom: "ip3"
  top: "ip3"
  dropout_param {
    dropout_ratio: 0.5
  }
}
layer {
  name: "accuracy"
  type: "Accuracy"
  bottom: "ip3"
  bottom: "label"
  top: "accuracy"
  include {
    phase: TEST
  }
}
layer {
  name: "loss"
  type: "SoftmaxWithLoss"
  bottom: "ip3"
  bottom: "label"
  top: "loss"
}
I0527 07:47:02.641093 19848 layer_factory.hpp:77] Creating layer data_hdf5
I0527 07:47:02.641109 19848 net.cpp:106] Creating Layer data_hdf5
I0527 07:47:02.641121 19848 net.cpp:411] data_hdf5 -> data
I0527 07:47:02.641139 19848 net.cpp:411] data_hdf5 -> label
I0527 07:47:02.641155 19848 hdf5_data_layer.cpp:79] Loading list of HDF5 filenames from: /lustre/atlas/proj-shared/hep105/caffe_titan/minosmatch_nukecczdefs_127x50_x_unshifted_me1Bmc.testlist
I0527 07:47:02.642379 19848 hdf5_data_layer.cpp:93] Number of HDF5 files: 3
I0527 07:47:23.987643 19848 net.cpp:150] Setting up data_hdf5
I0527 07:47:23.987808 19848 net.cpp:157] Top shape: 40 1 127 50 (254000)
I0527 07:47:23.987823 19848 net.cpp:157] Top shape: 40 (40)
I0527 07:47:23.987833 19848 net.cpp:165] Memory required for data: 1016160
I0527 07:47:23.987848 19848 layer_factory.hpp:77] Creating layer label_data_hdf5_1_split
I0527 07:47:23.987875 19848 net.cpp:106] Creating Layer label_data_hdf5_1_split
I0527 07:47:23.987886 19848 net.cpp:454] label_data_hdf5_1_split <- label
I0527 07:47:23.987901 19848 net.cpp:411] label_data_hdf5_1_split -> label_data_hdf5_1_split_0
I0527 07:47:23.987922 19848 net.cpp:411] label_data_hdf5_1_split -> label_data_hdf5_1_split_1
I0527 07:47:23.987995 19848 net.cpp:150] Setting up label_data_hdf5_1_split
I0527 07:47:23.988009 19848 net.cpp:157] Top shape: 40 (40)
I0527 07:47:23.988021 19848 net.cpp:157] Top shape: 40 (40)
I0527 07:47:23.988030 19848 net.cpp:165] Memory required for data: 1016480
I0527 07:47:23.988040 19848 layer_factory.hpp:77] Creating layer conv1
I0527 07:47:23.988064 19848 net.cpp:106] Creating Layer conv1
I0527 07:47:23.988073 19848 net.cpp:454] conv1 <- data
I0527 07:47:23.988088 19848 net.cpp:411] conv1 -> conv1
I0527 07:47:23.990056 19848 net.cpp:150] Setting up conv1
I0527 07:47:23.990082 19848 net.cpp:157] Top shape: 40 12 120 48 (2764800)
I0527 07:47:23.990093 19848 net.cpp:165] Memory required for data: 12075680
I0527 07:47:23.990114 19848 layer_factory.hpp:77] Creating layer relu1
I0527 07:47:23.990129 19848 net.cpp:106] Creating Layer relu1
I0527 07:47:23.990139 19848 net.cpp:454] relu1 <- conv1
I0527 07:47:23.990152 19848 net.cpp:397] relu1 -> conv1 (in-place)
I0527 07:47:23.990648 19848 net.cpp:150] Setting up relu1
I0527 07:47:23.990664 19848 net.cpp:157] Top shape: 40 12 120 48 (2764800)
I0527 07:47:23.990674 19848 net.cpp:165] Memory required for data: 23134880
I0527 07:47:23.990684 19848 layer_factory.hpp:77] Creating layer pool1
I0527 07:47:23.990701 19848 net.cpp:106] Creating Layer pool1
I0527 07:47:23.990718 19848 net.cpp:454] pool1 <- conv1
I0527 07:47:23.990732 19848 net.cpp:411] pool1 -> pool1
I0527 07:47:23.990808 19848 net.cpp:150] Setting up pool1
I0527 07:47:23.990823 19848 net.cpp:157] Top shape: 40 12 60 48 (1382400)
I0527 07:47:23.990833 19848 net.cpp:165] Memory required for data: 28664480
I0527 07:47:23.990842 19848 layer_factory.hpp:77] Creating layer conv2
I0527 07:47:23.990859 19848 net.cpp:106] Creating Layer conv2
I0527 07:47:23.990869 19848 net.cpp:454] conv2 <- pool1
I0527 07:47:23.990883 19848 net.cpp:411] conv2 -> conv2
I0527 07:47:23.992799 19848 net.cpp:150] Setting up conv2
I0527 07:47:23.992815 19848 net.cpp:157] Top shape: 40 20 54 46 (1987200)
I0527 07:47:23.992827 19848 net.cpp:165] Memory required for data: 36613280
I0527 07:47:23.992846 19848 layer_factory.hpp:77] Creating layer relu2
I0527 07:47:23.992858 19848 net.cpp:106] Creating Layer relu2
I0527 07:47:23.992868 19848 net.cpp:454] relu2 <- conv2
I0527 07:47:23.992882 19848 net.cpp:397] relu2 -> conv2 (in-place)
I0527 07:47:23.993213 19848 net.cpp:150] Setting up relu2
I0527 07:47:23.993227 19848 net.cpp:157] Top shape: 40 20 54 46 (1987200)
I0527 07:47:23.993237 19848 net.cpp:165] Memory required for data: 44562080
I0527 07:47:23.993247 19848 layer_factory.hpp:77] Creating layer pool2
I0527 07:47:23.993259 19848 net.cpp:106] Creating Layer pool2
I0527 07:47:23.993269 19848 net.cpp:454] pool2 <- conv2
I0527 07:47:23.993283 19848 net.cpp:411] pool2 -> pool2
I0527 07:47:23.993355 19848 net.cpp:150] Setting up pool2
I0527 07:47:23.993367 19848 net.cpp:157] Top shape: 40 20 27 46 (993600)
I0527 07:47:23.993377 19848 net.cpp:165] Memory required for data: 48536480
I0527 07:47:23.993387 19848 layer_factory.hpp:77] Creating layer conv3
I0527 07:47:23.993403 19848 net.cpp:106] Creating Layer conv3
I0527 07:47:23.993414 19848 net.cpp:454] conv3 <- pool2
I0527 07:47:23.993428 19848 net.cpp:411] conv3 -> conv3
I0527 07:47:23.995404 19848 net.cpp:150] Setting up conv3
I0527 07:47:23.995429 19848 net.cpp:157] Top shape: 40 28 22 44 (1084160)
I0527 07:47:23.995440 19848 net.cpp:165] Memory required for data: 52873120
I0527 07:47:23.995472 19848 layer_factory.hpp:77] Creating layer relu3
I0527 07:47:23.995486 19848 net.cpp:106] Creating Layer relu3
I0527 07:47:23.995496 19848 net.cpp:454] relu3 <- conv3
I0527 07:47:23.995509 19848 net.cpp:397] relu3 -> conv3 (in-place)
I0527 07:47:23.995981 19848 net.cpp:150] Setting up relu3
I0527 07:47:23.995997 19848 net.cpp:157] Top shape: 40 28 22 44 (1084160)
I0527 07:47:23.996008 19848 net.cpp:165] Memory required for data: 57209760
I0527 07:47:23.996018 19848 layer_factory.hpp:77] Creating layer pool3
I0527 07:47:23.996032 19848 net.cpp:106] Creating Layer pool3
I0527 07:47:23.996042 19848 net.cpp:454] pool3 <- conv3
I0527 07:47:23.996054 19848 net.cpp:411] pool3 -> pool3
I0527 07:47:23.996126 19848 net.cpp:150] Setting up pool3
I0527 07:47:23.996140 19848 net.cpp:157] Top shape: 40 28 11 44 (542080)
I0527 07:47:23.996150 19848 net.cpp:165] Memory required for data: 59378080
I0527 07:47:23.996158 19848 layer_factory.hpp:77] Creating layer conv4
I0527 07:47:23.996176 19848 net.cpp:106] Creating Layer conv4
I0527 07:47:23.996186 19848 net.cpp:454] conv4 <- pool3
I0527 07:47:23.996201 19848 net.cpp:411] conv4 -> conv4
I0527 07:47:23.998255 19848 net.cpp:150] Setting up conv4
I0527 07:47:23.998277 19848 net.cpp:157] Top shape: 40 36 6 42 (362880)
I0527 07:47:23.998289 19848 net.cpp:165] Memory required for data: 60829600
I0527 07:47:23.998304 19848 layer_factory.hpp:77] Creating layer relu4
I0527 07:47:23.998317 19848 net.cpp:106] Creating Layer relu4
I0527 07:47:23.998327 19848 net.cpp:454] relu4 <- conv4
I0527 07:47:23.998340 19848 net.cpp:397] relu4 -> conv4 (in-place)
I0527 07:47:23.998816 19848 net.cpp:150] Setting up relu4
I0527 07:47:23.998831 19848 net.cpp:157] Top shape: 40 36 6 42 (362880)
I0527 07:47:23.998842 19848 net.cpp:165] Memory required for data: 62281120
I0527 07:47:23.998852 19848 layer_factory.hpp:77] Creating layer pool4
I0527 07:47:23.998867 19848 net.cpp:106] Creating Layer pool4
I0527 07:47:23.998877 19848 net.cpp:454] pool4 <- conv4
I0527 07:47:23.998889 19848 net.cpp:411] pool4 -> pool4
I0527 07:47:23.998961 19848 net.cpp:150] Setting up pool4
I0527 07:47:23.998975 19848 net.cpp:157] Top shape: 40 36 3 42 (181440)
I0527 07:47:23.998985 19848 net.cpp:165] Memory required for data: 63006880
I0527 07:47:23.998994 19848 layer_factory.hpp:77] Creating layer ip1
I0527 07:47:23.999011 19848 net.cpp:106] Creating Layer ip1
I0527 07:47:23.999020 19848 net.cpp:454] ip1 <- pool4
I0527 07:47:23.999034 19848 net.cpp:411] ip1 -> ip1
I0527 07:47:24.014386 19848 net.cpp:150] Setting up ip1
I0527 07:47:24.014415 19848 net.cpp:157] Top shape: 40 196 (7840)
I0527 07:47:24.014426 19848 net.cpp:165] Memory required for data: 63038240
I0527 07:47:24.014448 19848 layer_factory.hpp:77] Creating layer relu5
I0527 07:47:24.014463 19848 net.cpp:106] Creating Layer relu5
I0527 07:47:24.014473 19848 net.cpp:454] relu5 <- ip1
I0527 07:47:24.014488 19848 net.cpp:397] relu5 -> ip1 (in-place)
I0527 07:47:24.014842 19848 net.cpp:150] Setting up relu5
I0527 07:47:24.014855 19848 net.cpp:157] Top shape: 40 196 (7840)
I0527 07:47:24.014865 19848 net.cpp:165] Memory required for data: 63069600
I0527 07:47:24.014876 19848 layer_factory.hpp:77] Creating layer drop1
I0527 07:47:24.014894 19848 net.cpp:106] Creating Layer drop1
I0527 07:47:24.014904 19848 net.cpp:454] drop1 <- ip1
I0527 07:47:24.014917 19848 net.cpp:397] drop1 -> ip1 (in-place)
I0527 07:47:24.014962 19848 net.cpp:150] Setting up drop1
I0527 07:47:24.014976 19848 net.cpp:157] Top shape: 40 196 (7840)
I0527 07:47:24.014986 19848 net.cpp:165] Memory required for data: 63100960
I0527 07:47:24.014994 19848 layer_factory.hpp:77] Creating layer ip2
I0527 07:47:24.015009 19848 net.cpp:106] Creating Layer ip2
I0527 07:47:24.015018 19848 net.cpp:454] ip2 <- ip1
I0527 07:47:24.015033 19848 net.cpp:411] ip2 -> ip2
I0527 07:47:24.015513 19848 net.cpp:150] Setting up ip2
I0527 07:47:24.015527 19848 net.cpp:157] Top shape: 40 98 (3920)
I0527 07:47:24.015537 19848 net.cpp:165] Memory required for data: 63116640
I0527 07:47:24.015552 19848 layer_factory.hpp:77] Creating layer relu6
I0527 07:47:24.015578 19848 net.cpp:106] Creating Layer relu6
I0527 07:47:24.015588 19848 net.cpp:454] relu6 <- ip2
I0527 07:47:24.015601 19848 net.cpp:397] relu6 -> ip2 (in-place)
I0527 07:47:24.016141 19848 net.cpp:150] Setting up relu6
I0527 07:47:24.016157 19848 net.cpp:157] Top shape: 40 98 (3920)
I0527 07:47:24.016167 19848 net.cpp:165] Memory required for data: 63132320
I0527 07:47:24.016178 19848 layer_factory.hpp:77] Creating layer drop2
I0527 07:47:24.016191 19848 net.cpp:106] Creating Layer drop2
I0527 07:47:24.016201 19848 net.cpp:454] drop2 <- ip2
I0527 07:47:24.016216 19848 net.cpp:397] drop2 -> ip2 (in-place)
I0527 07:47:24.016259 19848 net.cpp:150] Setting up drop2
I0527 07:47:24.016273 19848 net.cpp:157] Top shape: 40 98 (3920)
I0527 07:47:24.016283 19848 net.cpp:165] Memory required for data: 63148000
I0527 07:47:24.016294 19848 layer_factory.hpp:77] Creating layer ip3
I0527 07:47:24.016307 19848 net.cpp:106] Creating Layer ip3
I0527 07:47:24.016317 19848 net.cpp:454] ip3 <- ip2
I0527 07:47:24.016332 19848 net.cpp:411] ip3 -> ip3
I0527 07:47:24.016557 19848 net.cpp:150] Setting up ip3
I0527 07:47:24.016571 19848 net.cpp:157] Top shape: 40 11 (440)
I0527 07:47:24.016580 19848 net.cpp:165] Memory required for data: 63149760
I0527 07:47:24.016595 19848 layer_factory.hpp:77] Creating layer drop3
I0527 07:47:24.016609 19848 net.cpp:106] Creating Layer drop3
I0527 07:47:24.016619 19848 net.cpp:454] drop3 <- ip3
I0527 07:47:24.016633 19848 net.cpp:397] drop3 -> ip3 (in-place)
I0527 07:47:24.016674 19848 net.cpp:150] Setting up drop3
I0527 07:47:24.016687 19848 net.cpp:157] Top shape: 40 11 (440)
I0527 07:47:24.016697 19848 net.cpp:165] Memory required for data: 63151520
I0527 07:47:24.016706 19848 layer_factory.hpp:77] Creating layer ip3_drop3_0_split
I0527 07:47:24.016721 19848 net.cpp:106] Creating Layer ip3_drop3_0_split
I0527 07:47:24.016729 19848 net.cpp:454] ip3_drop3_0_split <- ip3
I0527 07:47:24.016743 19848 net.cpp:411] ip3_drop3_0_split -> ip3_drop3_0_split_0
I0527 07:47:24.016758 19848 net.cpp:411] ip3_drop3_0_split -> ip3_drop3_0_split_1
I0527 07:47:24.016832 19848 net.cpp:150] Setting up ip3_drop3_0_split
I0527 07:47:24.016845 19848 net.cpp:157] Top shape: 40 11 (440)
I0527 07:47:24.016856 19848 net.cpp:157] Top shape: 40 11 (440)
I0527 07:47:24.016867 19848 net.cpp:165] Memory required for data: 63155040
I0527 07:47:24.016877 19848 layer_factory.hpp:77] Creating layer accuracy
I0527 07:47:24.016898 19848 net.cpp:106] Creating Layer accuracy
I0527 07:47:24.016908 19848 net.cpp:454] accuracy <- ip3_drop3_0_split_0
I0527 07:47:24.016919 19848 net.cpp:454] accuracy <- label_data_hdf5_1_split_0
I0527 07:47:24.016933 19848 net.cpp:411] accuracy -> accuracy
…
