…
I0522 17:50:41.828090 12758 net.cpp:322] The NetState phase (0) differed from the phase (1) specified by a rule in layer data_hdf5
I0522 17:50:41.828156 12758 net.cpp:322] The NetState phase (0) differed from the phase (1) specified by a rule in layer accuracy
I0522 17:50:41.828534 12758 net.cpp:49] Initializing net from parameters: 
name: "caffe_test_127x50_x_unshifted"
state {
  phase: TRAIN
}
layer {
  name: "data_hdf5"
  type: "HDF5Data"
  top: "data"
  top: "label"
  include {
    phase: TRAIN
  }
  hdf5_data_param {
    source: "/lustre/atlas/proj-shared/hep105/caffe_titan/minosmatch_nukecczdefs_127x50_x_unshifted_me1Bmc.trainlist"
    batch_size: 40
  }
}
layer {
  name: "conv1"
  type: "Convolution"
  bottom: "data"
  top: "conv1"
  convolution_param {
    num_output: 12
    pad: 0
    stride: 1
    weight_filler {
      type: "xavier"
    }
    bias_filler {
      type: "constant"
    }
    kernel_h: 8
    kernel_w: 3
  }
}
layer {
  name: "relu1"
  type: "ReLU"
  bottom: "conv1"
  top: "conv1"
}
layer {
  name: "pool1"
  type: "Pooling"
  bottom: "conv1"
  top: "pool1"
  pooling_param {
    pool: MAX
    kernel_h: 2
    kernel_w: 1
    stride_h: 2
    stride_w: 1
  }
}
layer {
  name: "conv2"
  type: "Convolution"
  bottom: "pool1"
  top: "conv2"
  convolution_param {
    num_output: 20
    pad: 0
    stride: 1
    weight_filler {
      type: "xavier"
    }
    bias_filler {
      type: "constant"
    }
    kernel_h: 7
    kernel_w: 3
  }
}
layer {
  name: "relu2"
  type: "ReLU"
  bottom: "conv2"
  top: "conv2"
}
layer {
  name: "pool2"
  type: "Pooling"
  bottom: "conv2"
  top: "pool2"
  pooling_param {
    pool: MAX
    kernel_h: 2
    kernel_w: 1
    stride_h: 2
    stride_w: 1
  }
}
layer {
  name: "conv3"
  type: "Convolution"
  bottom: "pool2"
  top: "conv3"
  convolution_param {
    num_output: 28
    pad: 0
    stride: 1
    weight_filler {
      type: "xavier"
    }
    bias_filler {
      type: "constant"
    }
    kernel_h: 6
    kernel_w: 3
  }
}
layer {
  name: "relu3"
  type: "ReLU"
  bottom: "conv3"
  top: "conv3"
}
layer {
  name: "pool3"
  type: "Pooling"
  bottom: "conv3"
  top: "pool3"
  pooling_param {
    pool: MAX
    kernel_h: 2
    kernel_w: 1
    stride_h: 2
    stride_w: 1
  }
}
layer {
  name: "conv4"
  type: "Convolution"
  bottom: "pool3"
  top: "conv4"
  convolution_param {
    num_output: 36
    pad: 0
    stride: 1
    weight_filler {
      type: "xavier"
    }
    bias_filler {
      type: "constant"
    }
    kernel_h: 6
    kernel_w: 3
  }
}
layer {
  name: "relu4"
  type: "ReLU"
  bottom: "conv4"
  top: "conv4"
}
layer {
  name: "pool4"
  type: "Pooling"
  bottom: "conv4"
  top: "pool4"
  pooling_param {
    pool: MAX
    kernel_h: 2
    kernel_w: 1
    stride_h: 2
    stride_w: 1
  }
}
layer {
  name: "ip1"
  type: "InnerProduct"
  bottom: "pool4"
  top: "ip1"
  inner_product_param {
    num_output: 196
    weight_filler {
      type: "xavier"
    }
    bias_filler {
      type: "constant"
    }
  }
}
layer {
  name: "relu5"
  type: "ReLU"
  bottom: "ip1"
  top: "ip1"
}
layer {
  name: "drop1"
  type: "Dropout"
  bottom: "ip1"
  top: "ip1"
  dropout_param {
    dropout_ratio: 0.5
  }
}
layer {
  name: "ip2"
  type: "InnerProduct"
  bottom: "ip1"
  top: "ip2"
  inner_product_param {
    num_output: 98
    weight_filler {
      type: "xavier"
    }
    bias_filler {
      type: "constant"
    }
  }
}
layer {
  name: "relu6"
  type: "ReLU"
  bottom: "ip2"
  top: "ip2"
}
layer {
  name: "drop2"
  type: "Dropout"
  bottom: "ip2"
  top: "ip2"
  dropout_param {
    dropout_ratio: 0.5
  }
}
layer {
  name: "ip3"
  type: "InnerProduct"
  bottom: "ip2"
  top: "ip3"
  inner_product_param {
    num_output: 11
    weight_filler {
      type: "xavier"
    }
    bias_filler {
      type: "constant"
    }
  }
}
layer {
  name: "drop3"
  type: "Dropout"
  bottom: "ip3"
  top: "ip3"
  dropout_param {
    dropout_ratio: 0.5
  }
}
layer {
  name: "loss"
  type: "SoftmaxWithLoss"
  bottom: "ip3"
  bottom: "label"
  top: "loss"
}
I0522 17:50:41.828742 12758 layer_factory.hpp:77] Creating layer data_hdf5
I0522 17:50:41.828768 12758 net.cpp:106] Creating Layer data_hdf5
I0522 17:50:41.828788 12758 net.cpp:411] data_hdf5 -> data
I0522 17:50:41.828827 12758 net.cpp:411] data_hdf5 -> label
I0522 17:50:41.828861 12758 hdf5_data_layer.cpp:79] Loading list of HDF5 filenames from: /lustre/atlas/proj-shared/hep105/caffe_titan/minosmatch_nukecczdefs_127x50_x_unshifted_me1Bmc.trainlist
I0522 17:50:41.846608 12758 hdf5_data_layer.cpp:93] Number of HDF5 files: 15
I0522 17:50:41.863106 12758 hdf5.cpp:32] Datatype class: H5T_FLOAT
I0522 17:51:03.464360 12758 hdf5.cpp:35] Datatype class: H5T_INTEGER
I0522 17:51:03.469625 12758 net.cpp:150] Setting up data_hdf5
I0522 17:51:03.469666 12758 net.cpp:157] Top shape: 40 1 127 50 (254000)
I0522 17:51:03.469684 12758 net.cpp:157] Top shape: 40 (40)
I0522 17:51:03.469697 12758 net.cpp:165] Memory required for data: 1016160
I0522 17:51:03.469717 12758 layer_factory.hpp:77] Creating layer conv1
I0522 17:51:03.469763 12758 net.cpp:106] Creating Layer conv1
I0522 17:51:03.469777 12758 net.cpp:454] conv1 <- data
I0522 17:51:03.469802 12758 net.cpp:411] conv1 -> conv1
I0522 17:51:06.514848 12758 net.cpp:150] Setting up conv1
I0522 17:51:06.514904 12758 net.cpp:157] Top shape: 40 12 120 48 (2764800)
I0522 17:51:06.514928 12758 net.cpp:165] Memory required for data: 12075360
I0522 17:51:06.514960 12758 layer_factory.hpp:77] Creating layer relu1
I0522 17:51:06.514981 12758 net.cpp:106] Creating Layer relu1
I0522 17:51:06.514996 12758 net.cpp:454] relu1 <- conv1
I0522 17:51:06.515017 12758 net.cpp:397] relu1 -> conv1 (in-place)
I0522 17:51:06.515573 12758 net.cpp:150] Setting up relu1
I0522 17:51:06.515595 12758 net.cpp:157] Top shape: 40 12 120 48 (2764800)
I0522 17:51:06.515609 12758 net.cpp:165] Memory required for data: 23134560
I0522 17:51:06.515625 12758 layer_factory.hpp:77] Creating layer pool1
I0522 17:51:06.515652 12758 net.cpp:106] Creating Layer pool1
I0522 17:51:06.515666 12758 net.cpp:454] pool1 <- conv1
I0522 17:51:06.515682 12758 net.cpp:411] pool1 -> pool1
I0522 17:51:06.515777 12758 net.cpp:150] Setting up pool1
I0522 17:51:06.515795 12758 net.cpp:157] Top shape: 40 12 60 48 (1382400)
I0522 17:51:06.515810 12758 net.cpp:165] Memory required for data: 28664160
I0522 17:51:06.515832 12758 layer_factory.hpp:77] Creating layer conv2
I0522 17:51:06.515856 12758 net.cpp:106] Creating Layer conv2
I0522 17:51:06.515869 12758 net.cpp:454] conv2 <- pool1
I0522 17:51:06.515885 12758 net.cpp:411] conv2 -> conv2
I0522 17:51:06.518587 12758 net.cpp:150] Setting up conv2
I0522 17:51:06.518618 12758 net.cpp:157] Top shape: 40 20 54 46 (1987200)
I0522 17:51:06.518635 12758 net.cpp:165] Memory required for data: 36612960
I0522 17:51:06.518657 12758 layer_factory.hpp:77] Creating layer relu2
I0522 17:51:06.518689 12758 net.cpp:106] Creating Layer relu2
I0522 17:51:06.518704 12758 net.cpp:454] relu2 <- conv2
I0522 17:51:06.518721 12758 net.cpp:397] relu2 -> conv2 (in-place)
I0522 17:51:06.519078 12758 net.cpp:150] Setting up relu2
I0522 17:51:06.519098 12758 net.cpp:157] Top shape: 40 20 54 46 (1987200)
I0522 17:51:06.519111 12758 net.cpp:165] Memory required for data: 44561760
I0522 17:51:06.519124 12758 layer_factory.hpp:77] Creating layer pool2
I0522 17:51:06.519148 12758 net.cpp:106] Creating Layer pool2
I0522 17:51:06.519162 12758 net.cpp:454] pool2 <- conv2
I0522 17:51:06.519179 12758 net.cpp:411] pool2 -> pool2
I0522 17:51:06.519275 12758 net.cpp:150] Setting up pool2
I0522 17:51:06.519292 12758 net.cpp:157] Top shape: 40 20 27 46 (993600)
I0522 17:51:06.519309 12758 net.cpp:165] Memory required for data: 48536160
I0522 17:51:06.519326 12758 layer_factory.hpp:77] Creating layer conv3
I0522 17:51:06.519347 12758 net.cpp:106] Creating Layer conv3
I0522 17:51:06.519361 12758 net.cpp:454] conv3 <- pool2
I0522 17:51:06.519377 12758 net.cpp:411] conv3 -> conv3
I0522 17:51:06.521355 12758 net.cpp:150] Setting up conv3
I0522 17:51:06.521379 12758 net.cpp:157] Top shape: 40 28 22 44 (1084160)
I0522 17:51:06.521400 12758 net.cpp:165] Memory required for data: 52872800
I0522 17:51:06.521423 12758 layer_factory.hpp:77] Creating layer relu3
I0522 17:51:06.521445 12758 net.cpp:106] Creating Layer relu3
I0522 17:51:06.521458 12758 net.cpp:454] relu3 <- conv3
I0522 17:51:06.521483 12758 net.cpp:397] relu3 -> conv3 (in-place)
I0522 17:51:06.521972 12758 net.cpp:150] Setting up relu3
I0522 17:51:06.521996 12758 net.cpp:157] Top shape: 40 28 22 44 (1084160)
I0522 17:51:06.522009 12758 net.cpp:165] Memory required for data: 57209440
I0522 17:51:06.522025 12758 layer_factory.hpp:77] Creating layer pool3
I0522 17:51:06.522042 12758 net.cpp:106] Creating Layer pool3
I0522 17:51:06.522055 12758 net.cpp:454] pool3 <- conv3
I0522 17:51:06.522080 12758 net.cpp:411] pool3 -> pool3
I0522 17:51:06.522162 12758 net.cpp:150] Setting up pool3
I0522 17:51:06.522186 12758 net.cpp:157] Top shape: 40 28 11 44 (542080)
I0522 17:51:06.522197 12758 net.cpp:165] Memory required for data: 59377760
I0522 17:51:06.522212 12758 layer_factory.hpp:77] Creating layer conv4
I0522 17:51:06.522233 12758 net.cpp:106] Creating Layer conv4
I0522 17:51:06.522245 12758 net.cpp:454] conv4 <- pool3
I0522 17:51:06.522269 12758 net.cpp:411] conv4 -> conv4
I0522 17:51:06.525074 12758 net.cpp:150] Setting up conv4
I0522 17:51:06.525105 12758 net.cpp:157] Top shape: 40 36 6 42 (362880)
I0522 17:51:06.525120 12758 net.cpp:165] Memory required for data: 60829280
I0522 17:51:06.525141 12758 layer_factory.hpp:77] Creating layer relu4
I0522 17:51:06.525161 12758 net.cpp:106] Creating Layer relu4
I0522 17:51:06.525187 12758 net.cpp:454] relu4 <- conv4
I0522 17:51:06.525203 12758 net.cpp:397] relu4 -> conv4 (in-place)
I0522 17:51:06.525703 12758 net.cpp:150] Setting up relu4
I0522 17:51:06.525727 12758 net.cpp:157] Top shape: 40 36 6 42 (362880)
I0522 17:51:06.525740 12758 net.cpp:165] Memory required for data: 62280800
I0522 17:51:06.525756 12758 layer_factory.hpp:77] Creating layer pool4
I0522 17:51:06.525773 12758 net.cpp:106] Creating Layer pool4
I0522 17:51:06.525794 12758 net.cpp:454] pool4 <- conv4
I0522 17:51:06.525810 12758 net.cpp:411] pool4 -> pool4
I0522 17:51:06.525893 12758 net.cpp:150] Setting up pool4
I0522 17:51:06.525914 12758 net.cpp:157] Top shape: 40 36 3 42 (181440)
I0522 17:51:06.525928 12758 net.cpp:165] Memory required for data: 63006560
I0522 17:51:06.525940 12758 layer_factory.hpp:77] Creating layer ip1
I0522 17:51:06.525965 12758 net.cpp:106] Creating Layer ip1
I0522 17:51:06.525979 12758 net.cpp:454] ip1 <- pool4
I0522 17:51:06.526000 12758 net.cpp:411] ip1 -> ip1
I0522 17:51:06.541456 12758 net.cpp:150] Setting up ip1
I0522 17:51:06.541488 12758 net.cpp:157] Top shape: 40 196 (7840)
I0522 17:51:06.541512 12758 net.cpp:165] Memory required for data: 63037920
I0522 17:51:06.541538 12758 layer_factory.hpp:77] Creating layer relu5
I0522 17:51:06.541558 12758 net.cpp:106] Creating Layer relu5
I0522 17:51:06.541584 12758 net.cpp:454] relu5 <- ip1
I0522 17:51:06.541601 12758 net.cpp:397] relu5 -> ip1 (in-place)
I0522 17:51:06.541960 12758 net.cpp:150] Setting up relu5
I0522 17:51:06.541980 12758 net.cpp:157] Top shape: 40 196 (7840)
I0522 17:51:06.541993 12758 net.cpp:165] Memory required for data: 63069280
I0522 17:51:06.542006 12758 layer_factory.hpp:77] Creating layer drop1
I0522 17:51:06.542039 12758 net.cpp:106] Creating Layer drop1
I0522 17:51:06.542053 12758 net.cpp:454] drop1 <- ip1
I0522 17:51:06.542068 12758 net.cpp:397] drop1 -> ip1 (in-place)
I0522 17:51:06.542140 12758 net.cpp:150] Setting up drop1
I0522 17:51:06.542156 12758 net.cpp:157] Top shape: 40 196 (7840)
I0522 17:51:06.542171 12758 net.cpp:165] Memory required for data: 63100640
I0522 17:51:06.542182 12758 layer_factory.hpp:77] Creating layer ip2
I0522 17:51:06.542207 12758 net.cpp:106] Creating Layer ip2
I0522 17:51:06.542225 12758 net.cpp:454] ip2 <- ip1
I0522 17:51:06.542243 12758 net.cpp:411] ip2 -> ip2
I0522 17:51:06.542728 12758 net.cpp:150] Setting up ip2
I0522 17:51:06.542747 12758 net.cpp:157] Top shape: 40 98 (3920)
I0522 17:51:06.542760 12758 net.cpp:165] Memory required for data: 63116320
I0522 17:51:06.542780 12758 layer_factory.hpp:77] Creating layer relu6
I0522 17:51:06.542795 12758 net.cpp:106] Creating Layer relu6
I0522 17:51:06.542815 12758 net.cpp:454] relu6 <- ip2
I0522 17:51:06.542830 12758 net.cpp:397] relu6 -> ip2 (in-place)
I0522 17:51:06.543386 12758 net.cpp:150] Setting up relu6
I0522 17:51:06.543408 12758 net.cpp:157] Top shape: 40 98 (3920)
I0522 17:51:06.543422 12758 net.cpp:165] Memory required for data: 63132000
I0522 17:51:06.543439 12758 layer_factory.hpp:77] Creating layer drop2
I0522 17:51:06.543455 12758 net.cpp:106] Creating Layer drop2
I0522 17:51:06.543476 12758 net.cpp:454] drop2 <- ip2
I0522 17:51:06.543493 12758 net.cpp:397] drop2 -> ip2 (in-place)
I0522 17:51:06.543541 12758 net.cpp:150] Setting up drop2
I0522 17:51:06.543565 12758 net.cpp:157] Top shape: 40 98 (3920)
I0522 17:51:06.543578 12758 net.cpp:165] Memory required for data: 63147680
I0522 17:51:06.543596 12758 layer_factory.hpp:77] Creating layer ip3
I0522 17:51:06.543612 12758 net.cpp:106] Creating Layer ip3
I0522 17:51:06.543625 12758 net.cpp:454] ip3 <- ip2
I0522 17:51:06.543643 12758 net.cpp:411] ip3 -> ip3
I0522 17:51:06.543874 12758 net.cpp:150] Setting up ip3
I0522 17:51:06.543894 12758 net.cpp:157] Top shape: 40 11 (440)
I0522 17:51:06.543906 12758 net.cpp:165] Memory required for data: 63149440
I0522 17:51:06.543927 12758 layer_factory.hpp:77] Creating layer drop3
I0522 17:51:06.543967 12758 net.cpp:106] Creating Layer drop3
I0522 17:51:06.543980 12758 net.cpp:454] drop3 <- ip3
I0522 17:51:06.543995 12758 net.cpp:397] drop3 -> ip3 (in-place)
I0522 17:51:06.544049 12758 net.cpp:150] Setting up drop3
I0522 17:51:06.544064 12758 net.cpp:157] Top shape: 40 11 (440)
I0522 17:51:06.544080 12758 net.cpp:165] Memory required for data: 63151200
I0522 17:51:06.544091 12758 layer_factory.hpp:77] Creating layer loss
I0522 17:51:06.544116 12758 net.cpp:106] Creating Layer loss
I0522 17:51:06.544136 12758 net.cpp:454] loss <- ip3
I0522 17:51:06.544150 12758 net.cpp:454] loss <- label
I0522 17:51:06.544173 12758 net.cpp:411] loss -> loss
I0522 17:51:06.544193 12758 layer_factory.hpp:77] Creating layer loss
…
I0522 17:51:06.547000 12758 solver.cpp:181] Creating test net (#0) specified by net file: /lustre/atlas/proj-shared/hep105/caffe_titan/caffe_workflow/logs_bslr/bs_40_lr_0.0010_2016-05-20T15.49.01.417468.prototxt
I0522 17:51:06.547078 12758 net.cpp:322] The NetState phase (1) differed from the phase (0) specified by a rule in layer data_hdf5
I0522 17:51:06.547462 12758 net.cpp:49] Initializing net from parameters: 
name: "caffe_test_127x50_x_unshifted"
state {
  phase: TEST
}
layer {
  name: "data_hdf5"
  type: "HDF5Data"
  top: "data"
  top: "label"
  include {
    phase: TEST
  }
  hdf5_data_param {
    source: "/lustre/atlas/proj-shared/hep105/caffe_titan/minosmatch_nukecczdefs_127x50_x_unshifted_me1Bmc.testlist"
    batch_size: 40
  }
}
layer {
  name: "conv1"
  type: "Convolution"
  bottom: "data"
  top: "conv1"
  convolution_param {
    num_output: 12
    pad: 0
    stride: 1
    weight_filler {
      type: "xavier"
    }
    bias_filler {
      type: "constant"
    }
    kernel_h: 8
    kernel_w: 3
  }
}
layer {
  name: "relu1"
  type: "ReLU"
  bottom: "conv1"
  top: "conv1"
}
layer {
  name: "pool1"
  type: "Pooling"
  bottom: "conv1"
  top: "pool1"
  pooling_param {
    pool: MAX
    kernel_h: 2
    kernel_w: 1
    stride_h: 2
    stride_w: 1
  }
}
layer {
  name: "conv2"
  type: "Convolution"
  bottom: "pool1"
  top: "conv2"
  convolution_param {
    num_output: 20
    pad: 0
    stride: 1
    weight_filler {
      type: "xavier"
    }
    bias_filler {
      type: "constant"
    }
    kernel_h: 7
    kernel_w: 3
  }
}
layer {
  name: "relu2"
  type: "ReLU"
  bottom: "conv2"
  top: "conv2"
}
layer {
  name: "pool2"
  type: "Pooling"
  bottom: "conv2"
  top: "pool2"
  pooling_param {
    pool: MAX
    kernel_h: 2
    kernel_w: 1
    stride_h: 2
    stride_w: 1
  }
}
layer {
  name: "conv3"
  type: "Convolution"
  bottom: "pool2"
  top: "conv3"
  convolution_param {
    num_output: 28
    pad: 0
    stride: 1
    weight_filler {
      type: "xavier"
    }
    bias_filler {
      type: "constant"
    }
    kernel_h: 6
    kernel_w: 3
  }
}
layer {
  name: "relu3"
  type: "ReLU"
  bottom: "conv3"
  top: "conv3"
}
layer {
  name: "pool3"
  type: "Pooling"
  bottom: "conv3"
  top: "pool3"
  pooling_param {
    pool: MAX
    kernel_h: 2
    kernel_w: 1
    stride_h: 2
    stride_w: 1
  }
}
layer {
  name: "conv4"
  type: "Convolution"
  bottom: "pool3"
  top: "conv4"
  convolution_param {
    num_output: 36
    pad: 0
    stride: 1
    weight_filler {
      type: "xavier"
    }
    bias_filler {
      type: "constant"
    }
    kernel_h: 6
    kernel_w: 3
  }
}
layer {
  name: "relu4"
  type: "ReLU"
  bottom: "conv4"
  top: "conv4"
}
layer {
  name: "pool4"
  type: "Pooling"
  bottom: "conv4"
  top: "pool4"
  pooling_param {
    pool: MAX
    kernel_h: 2
    kernel_w: 1
    stride_h: 2
    stride_w: 1
  }
}
layer {
  name: "ip1"
  type: "InnerProduct"
  bottom: "pool4"
  top: "ip1"
  inner_product_param {
    num_output: 196
    weight_filler {
      type: "xavier"
    }
    bias_filler {
      type: "constant"
    }
  }
}
layer {
  name: "relu5"
  type: "ReLU"
  bottom: "ip1"
  top: "ip1"
}
layer {
  name: "drop1"
  type: "Dropout"
  bottom: "ip1"
  top: "ip1"
  dropout_param {
    dropout_ratio: 0.5
  }
}
layer {
  name: "ip2"
  type: "InnerProduct"
  bottom: "ip1"
  top: "ip2"
  inner_product_param {
    num_output: 98
    weight_filler {
      type: "xavier"
    }
    bias_filler {
      type: "constant"
    }
  }
}
layer {
  name: "relu6"
  type: "ReLU"
  bottom: "ip2"
  top: "ip2"
}
layer {
  name: "drop2"
  type: "Dropout"
  bottom: "ip2"
  top: "ip2"
  dropout_param {
    dropout_ratio: 0.5
  }
}
layer {
  name: "ip3"
  type: "InnerProduct"
  bottom: "ip2"
  top: "ip3"
  inner_product_param {
    num_output: 11
    weight_filler {
      type: "xavier"
    }
    bias_filler {
      type: "constant"
    }
  }
}
layer {
  name: "drop3"
  type: "Dropout"
  bottom: "ip3"
  top: "ip3"
  dropout_param {
    dropout_ratio: 0.5
  }
}
layer {
  name: "accuracy"
  type: "Accuracy"
  bottom: "ip3"
  bottom: "label"
  top: "accuracy"
  include {
    phase: TEST
  }
}
layer {
  name: "loss"
  type: "SoftmaxWithLoss"
  bottom: "ip3"
  bottom: "label"
  top: "loss"
}
I0522 17:51:06.547677 12758 layer_factory.hpp:77] Creating layer data_hdf5
I0522 17:51:06.547703 12758 net.cpp:106] Creating Layer data_hdf5
I0522 17:51:06.547719 12758 net.cpp:411] data_hdf5 -> data
I0522 17:51:06.547741 12758 net.cpp:411] data_hdf5 -> label
I0522 17:51:06.547760 12758 hdf5_data_layer.cpp:79] Loading list of HDF5 filenames from: /lustre/atlas/proj-shared/hep105/caffe_titan/minosmatch_nukecczdefs_127x50_x_unshifted_me1Bmc.testlist
I0522 17:51:06.562569 12758 hdf5_data_layer.cpp:93] Number of HDF5 files: 3
I0522 17:51:27.928045 12758 net.cpp:150] Setting up data_hdf5
I0522 17:51:27.928207 12758 net.cpp:157] Top shape: 40 1 127 50 (254000)
I0522 17:51:27.928234 12758 net.cpp:157] Top shape: 40 (40)
I0522 17:51:27.928247 12758 net.cpp:165] Memory required for data: 1016160
I0522 17:51:27.928262 12758 layer_factory.hpp:77] Creating layer label_data_hdf5_1_split
I0522 17:51:27.928290 12758 net.cpp:106] Creating Layer label_data_hdf5_1_split
I0522 17:51:27.928304 12758 net.cpp:454] label_data_hdf5_1_split <- label
I0522 17:51:27.928328 12758 net.cpp:411] label_data_hdf5_1_split -> label_data_hdf5_1_split_0
I0522 17:51:27.928367 12758 net.cpp:411] label_data_hdf5_1_split -> label_data_hdf5_1_split_1
I0522 17:51:27.928444 12758 net.cpp:150] Setting up label_data_hdf5_1_split
I0522 17:51:27.928464 12758 net.cpp:157] Top shape: 40 (40)
I0522 17:51:27.928486 12758 net.cpp:157] Top shape: 40 (40)
I0522 17:51:27.928499 12758 net.cpp:165] Memory required for data: 1016480
I0522 17:51:27.928513 12758 layer_factory.hpp:77] Creating layer conv1
I0522 17:51:27.928539 12758 net.cpp:106] Creating Layer conv1
I0522 17:51:27.928551 12758 net.cpp:454] conv1 <- data
I0522 17:51:27.928572 12758 net.cpp:411] conv1 -> conv1
I0522 17:51:27.930519 12758 net.cpp:150] Setting up conv1
I0522 17:51:27.930546 12758 net.cpp:157] Top shape: 40 12 120 48 (2764800)
I0522 17:51:27.930564 12758 net.cpp:165] Memory required for data: 12075680
I0522 17:51:27.930588 12758 layer_factory.hpp:77] Creating layer relu1
I0522 17:51:27.930610 12758 net.cpp:106] Creating Layer relu1
I0522 17:51:27.930632 12758 net.cpp:454] relu1 <- conv1
I0522 17:51:27.930650 12758 net.cpp:397] relu1 -> conv1 (in-place)
I0522 17:51:27.931169 12758 net.cpp:150] Setting up relu1
I0522 17:51:27.931191 12758 net.cpp:157] Top shape: 40 12 120 48 (2764800)
I0522 17:51:27.931205 12758 net.cpp:165] Memory required for data: 23134880
I0522 17:51:27.931216 12758 layer_factory.hpp:77] Creating layer pool1
I0522 17:51:27.931238 12758 net.cpp:106] Creating Layer pool1
I0522 17:51:27.931260 12758 net.cpp:454] pool1 <- conv1
I0522 17:51:27.931277 12758 net.cpp:411] pool1 -> pool1
I0522 17:51:27.931371 12758 net.cpp:150] Setting up pool1
I0522 17:51:27.931388 12758 net.cpp:157] Top shape: 40 12 60 48 (1382400)
I0522 17:51:27.931401 12758 net.cpp:165] Memory required for data: 28664480
I0522 17:51:27.931412 12758 layer_factory.hpp:77] Creating layer conv2
I0522 17:51:27.931442 12758 net.cpp:106] Creating Layer conv2
I0522 17:51:27.931455 12758 net.cpp:454] conv2 <- pool1
I0522 17:51:27.931473 12758 net.cpp:411] conv2 -> conv2
I0522 17:51:27.933418 12758 net.cpp:150] Setting up conv2
I0522 17:51:27.933441 12758 net.cpp:157] Top shape: 40 20 54 46 (1987200)
I0522 17:51:27.933462 12758 net.cpp:165] Memory required for data: 36613280
I0522 17:51:27.933485 12758 layer_factory.hpp:77] Creating layer relu2
I0522 17:51:27.933503 12758 net.cpp:106] Creating Layer relu2
I0522 17:51:27.933524 12758 net.cpp:454] relu2 <- conv2
I0522 17:51:27.933542 12758 net.cpp:397] relu2 -> conv2 (in-place)
I0522 17:51:27.933889 12758 net.cpp:150] Setting up relu2
I0522 17:51:27.933909 12758 net.cpp:157] Top shape: 40 20 54 46 (1987200)
I0522 17:51:27.933923 12758 net.cpp:165] Memory required for data: 44562080
I0522 17:51:27.933934 12758 layer_factory.hpp:77] Creating layer pool2
I0522 17:51:27.933959 12758 net.cpp:106] Creating Layer pool2
I0522 17:51:27.933972 12758 net.cpp:454] pool2 <- conv2
I0522 17:51:27.933989 12758 net.cpp:411] pool2 -> pool2
I0522 17:51:27.934080 12758 net.cpp:150] Setting up pool2
I0522 17:51:27.934098 12758 net.cpp:157] Top shape: 40 20 27 46 (993600)
I0522 17:51:27.934113 12758 net.cpp:165] Memory required for data: 48536480
I0522 17:51:27.934124 12758 layer_factory.hpp:77] Creating layer conv3
I0522 17:51:27.934156 12758 net.cpp:106] Creating Layer conv3
I0522 17:51:27.934170 12758 net.cpp:454] conv3 <- pool2
I0522 17:51:27.934187 12758 net.cpp:411] conv3 -> conv3
I0522 17:51:27.936197 12758 net.cpp:150] Setting up conv3
I0522 17:51:27.936221 12758 net.cpp:157] Top shape: 40 28 22 44 (1084160)
I0522 17:51:27.936234 12758 net.cpp:165] Memory required for data: 52873120
I0522 17:51:27.936274 12758 layer_factory.hpp:77] Creating layer relu3
I0522 17:51:27.936300 12758 net.cpp:106] Creating Layer relu3
I0522 17:51:27.936313 12758 net.cpp:454] relu3 <- conv3
I0522 17:51:27.936336 12758 net.cpp:397] relu3 -> conv3 (in-place)
I0522 17:51:27.936838 12758 net.cpp:150] Setting up relu3
I0522 17:51:27.936862 12758 net.cpp:157] Top shape: 40 28 22 44 (1084160)
I0522 17:51:27.936875 12758 net.cpp:165] Memory required for data: 57209760
I0522 17:51:27.936892 12758 layer_factory.hpp:77] Creating layer pool3
I0522 17:51:27.936908 12758 net.cpp:106] Creating Layer pool3
I0522 17:51:27.936928 12758 net.cpp:454] pool3 <- conv3
I0522 17:51:27.936944 12758 net.cpp:411] pool3 -> pool3
I0522 17:51:27.937031 12758 net.cpp:150] Setting up pool3
I0522 17:51:27.937048 12758 net.cpp:157] Top shape: 40 28 11 44 (542080)
I0522 17:51:27.937063 12758 net.cpp:165] Memory required for data: 59378080
I0522 17:51:27.937075 12758 layer_factory.hpp:77] Creating layer conv4
I0522 17:51:27.937103 12758 net.cpp:106] Creating Layer conv4
I0522 17:51:27.937115 12758 net.cpp:454] conv4 <- pool3
I0522 17:51:27.937132 12758 net.cpp:411] conv4 -> conv4
I0522 17:51:27.939235 12758 net.cpp:150] Setting up conv4
I0522 17:51:27.939260 12758 net.cpp:157] Top shape: 40 36 6 42 (362880)
I0522 17:51:27.939280 12758 net.cpp:165] Memory required for data: 60829600
I0522 17:51:27.939299 12758 layer_factory.hpp:77] Creating layer relu4
I0522 17:51:27.939319 12758 net.cpp:106] Creating Layer relu4
I0522 17:51:27.939332 12758 net.cpp:454] relu4 <- conv4
I0522 17:51:27.939347 12758 net.cpp:397] relu4 -> conv4 (in-place)
I0522 17:51:27.939847 12758 net.cpp:150] Setting up relu4
I0522 17:51:27.939870 12758 net.cpp:157] Top shape: 40 36 6 42 (362880)
I0522 17:51:27.939883 12758 net.cpp:165] Memory required for data: 62281120
I0522 17:51:27.939900 12758 layer_factory.hpp:77] Creating layer pool4
I0522 17:51:27.939915 12758 net.cpp:106] Creating Layer pool4
I0522 17:51:27.939944 12758 net.cpp:454] pool4 <- conv4
I0522 17:51:27.939961 12758 net.cpp:411] pool4 -> pool4
I0522 17:51:27.940047 12758 net.cpp:150] Setting up pool4
I0522 17:51:27.940071 12758 net.cpp:157] Top shape: 40 36 3 42 (181440)
I0522 17:51:27.940084 12758 net.cpp:165] Memory required for data: 63006880
I0522 17:51:27.940099 12758 layer_factory.hpp:77] Creating layer ip1
I0522 17:51:27.940116 12758 net.cpp:106] Creating Layer ip1
I0522 17:51:27.940136 12758 net.cpp:454] ip1 <- pool4
I0522 17:51:27.940153 12758 net.cpp:411] ip1 -> ip1
I0522 17:51:27.955618 12758 net.cpp:150] Setting up ip1
I0522 17:51:27.955651 12758 net.cpp:157] Top shape: 40 196 (7840)
I0522 17:51:27.955673 12758 net.cpp:165] Memory required for data: 63038240
I0522 17:51:27.955699 12758 layer_factory.hpp:77] Creating layer relu5
I0522 17:51:27.955721 12758 net.cpp:106] Creating Layer relu5
I0522 17:51:27.955746 12758 net.cpp:454] relu5 <- ip1
I0522 17:51:27.955765 12758 net.cpp:397] relu5 -> ip1 (in-place)
I0522 17:51:27.956133 12758 net.cpp:150] Setting up relu5
I0522 17:51:27.956153 12758 net.cpp:157] Top shape: 40 196 (7840)
I0522 17:51:27.956167 12758 net.cpp:165] Memory required for data: 63069600
I0522 17:51:27.956183 12758 layer_factory.hpp:77] Creating layer drop1
I0522 17:51:27.956205 12758 net.cpp:106] Creating Layer drop1
I0522 17:51:27.956226 12758 net.cpp:454] drop1 <- ip1
I0522 17:51:27.956243 12758 net.cpp:397] drop1 -> ip1 (in-place)
I0522 17:51:27.956300 12758 net.cpp:150] Setting up drop1
I0522 17:51:27.956318 12758 net.cpp:157] Top shape: 40 196 (7840)
I0522 17:51:27.956331 12758 net.cpp:165] Memory required for data: 63100960
I0522 17:51:27.956351 12758 layer_factory.hpp:77] Creating layer ip2
I0522 17:51:27.956369 12758 net.cpp:106] Creating Layer ip2
I0522 17:51:27.956382 12758 net.cpp:454] ip2 <- ip1
I0522 17:51:27.956401 12758 net.cpp:411] ip2 -> ip2
I0522 17:51:27.956898 12758 net.cpp:150] Setting up ip2
I0522 17:51:27.956918 12758 net.cpp:157] Top shape: 40 98 (3920)
I0522 17:51:27.956930 12758 net.cpp:165] Memory required for data: 63116640
I0522 17:51:27.956953 12758 layer_factory.hpp:77] Creating layer relu6
I0522 17:51:27.956986 12758 net.cpp:106] Creating Layer relu6
I0522 17:51:27.957000 12758 net.cpp:454] relu6 <- ip2
I0522 17:51:27.957015 12758 net.cpp:397] relu6 -> ip2 (in-place)
I0522 17:51:27.957576 12758 net.cpp:150] Setting up relu6
I0522 17:51:27.957599 12758 net.cpp:157] Top shape: 40 98 (3920)
I0522 17:51:27.957612 12758 net.cpp:165] Memory required for data: 63132320
I0522 17:51:27.957624 12758 layer_factory.hpp:77] Creating layer drop2
I0522 17:51:27.957644 12758 net.cpp:106] Creating Layer drop2
I0522 17:51:27.957666 12758 net.cpp:454] drop2 <- ip2
I0522 17:51:27.957684 12758 net.cpp:397] drop2 -> ip2 (in-place)
I0522 17:51:27.957733 12758 net.cpp:150] Setting up drop2
I0522 17:51:27.957756 12758 net.cpp:157] Top shape: 40 98 (3920)
I0522 17:51:27.957769 12758 net.cpp:165] Memory required for data: 63148000
I0522 17:51:27.957787 12758 layer_factory.hpp:77] Creating layer ip3
I0522 17:51:27.957805 12758 net.cpp:106] Creating Layer ip3
I0522 17:51:27.957818 12758 net.cpp:454] ip3 <- ip2
I0522 17:51:27.957837 12758 net.cpp:411] ip3 -> ip3
I0522 17:51:27.958083 12758 net.cpp:150] Setting up ip3
I0522 17:51:27.958102 12758 net.cpp:157] Top shape: 40 11 (440)
I0522 17:51:27.958115 12758 net.cpp:165] Memory required for data: 63149760
I0522 17:51:27.958137 12758 layer_factory.hpp:77] Creating layer drop3
I0522 17:51:27.958158 12758 net.cpp:106] Creating Layer drop3
I0522 17:51:27.958171 12758 net.cpp:454] drop3 <- ip3
I0522 17:51:27.958187 12758 net.cpp:397] drop3 -> ip3 (in-place)
I0522 17:51:27.958236 12758 net.cpp:150] Setting up drop3
I0522 17:51:27.958257 12758 net.cpp:157] Top shape: 40 11 (440)
I0522 17:51:27.958271 12758 net.cpp:165] Memory required for data: 63151520
I0522 17:51:27.958287 12758 layer_factory.hpp:77] Creating layer ip3_drop3_0_split
I0522 17:51:27.958302 12758 net.cpp:106] Creating Layer ip3_drop3_0_split
I0522 17:51:27.958314 12758 net.cpp:454] ip3_drop3_0_split <- ip3
I0522 17:51:27.958333 12758 net.cpp:411] ip3_drop3_0_split -> ip3_drop3_0_split_0
I0522 17:51:27.958356 12758 net.cpp:411] ip3_drop3_0_split -> ip3_drop3_0_split_1
I0522 17:51:27.958436 12758 net.cpp:150] Setting up ip3_drop3_0_split
I0522 17:51:27.958459 12758 net.cpp:157] Top shape: 40 11 (440)
I0522 17:51:27.958474 12758 net.cpp:157] Top shape: 40 11 (440)
I0522 17:51:27.958487 12758 net.cpp:165] Memory required for data: 63155040
I0522 17:51:27.958501 12758 layer_factory.hpp:77] Creating layer accuracy
I0522 17:51:27.958524 12758 net.cpp:106] Creating Layer accuracy
I0522 17:51:27.958544 12758 net.cpp:454] accuracy <- ip3_drop3_0_split_0
I0522 17:51:27.958559 12758 net.cpp:454] accuracy <- label_data_hdf5_1_split_0
I0522 17:51:27.958575 12758 net.cpp:411] accuracy -> accuracy
…
