…
I0522 23:52:56.657068  3818 net.cpp:322] The NetState phase (0) differed from the phase (1) specified by a rule in layer data_hdf5
I0522 23:52:56.657127  3818 net.cpp:322] The NetState phase (0) differed from the phase (1) specified by a rule in layer accuracy
I0522 23:52:56.657474  3818 net.cpp:49] Initializing net from parameters: 
name: "caffe_test_127x50_x_unshifted"
state {
  phase: TRAIN
}
layer {
  name: "data_hdf5"
  type: "HDF5Data"
  top: "data"
  top: "label"
  include {
    phase: TRAIN
  }
  hdf5_data_param {
    source: "/lustre/atlas/proj-shared/hep105/caffe_titan/minosmatch_nukecczdefs_127x50_x_unshifted_me1Bmc.trainlist"
    batch_size: 40
  }
}
layer {
  name: "conv1"
  type: "Convolution"
  bottom: "data"
  top: "conv1"
  convolution_param {
    num_output: 12
    pad: 0
    stride: 1
    weight_filler {
      type: "xavier"
    }
    bias_filler {
      type: "constant"
    }
    kernel_h: 8
    kernel_w: 3
  }
}
layer {
  name: "relu1"
  type: "ReLU"
  bottom: "conv1"
  top: "conv1"
}
layer {
  name: "pool1"
  type: "Pooling"
  bottom: "conv1"
  top: "pool1"
  pooling_param {
    pool: MAX
    kernel_h: 2
    kernel_w: 1
    stride_h: 2
    stride_w: 1
  }
}
layer {
  name: "conv2"
  type: "Convolution"
  bottom: "pool1"
  top: "conv2"
  convolution_param {
    num_output: 20
    pad: 0
    stride: 1
    weight_filler {
      type: "xavier"
    }
    bias_filler {
      type: "constant"
    }
    kernel_h: 7
    kernel_w: 3
  }
}
layer {
  name: "relu2"
  type: "ReLU"
  bottom: "conv2"
  top: "conv2"
}
layer {
  name: "pool2"
  type: "Pooling"
  bottom: "conv2"
  top: "pool2"
  pooling_param {
    pool: MAX
    kernel_h: 2
    kernel_w: 1
    stride_h: 2
    stride_w: 1
  }
}
layer {
  name: "conv3"
  type: "Convolution"
  bottom: "pool2"
  top: "conv3"
  convolution_param {
    num_output: 28
    pad: 0
    stride: 1
    weight_filler {
      type: "xavier"
    }
    bias_filler {
      type: "constant"
    }
    kernel_h: 6
    kernel_w: 3
  }
}
layer {
  name: "relu3"
  type: "ReLU"
  bottom: "conv3"
  top: "conv3"
}
layer {
  name: "pool3"
  type: "Pooling"
  bottom: "conv3"
  top: "pool3"
  pooling_param {
    pool: MAX
    kernel_h: 2
    kernel_w: 1
    stride_h: 2
    stride_w: 1
  }
}
layer {
  name: "conv4"
  type: "Convolution"
  bottom: "pool3"
  top: "conv4"
  convolution_param {
    num_output: 36
    pad: 0
    stride: 1
    weight_filler {
      type: "xavier"
    }
    bias_filler {
      type: "constant"
    }
    kernel_h: 6
    kernel_w: 3
  }
}
layer {
  name: "relu4"
  type: "ReLU"
  bottom: "conv4"
  top: "conv4"
}
layer {
  name: "pool4"
  type: "Pooling"
  bottom: "conv4"
  top: "pool4"
  pooling_param {
    pool: MAX
    kernel_h: 2
    kernel_w: 1
    stride_h: 2
    stride_w: 1
  }
}
layer {
  name: "ip1"
  type: "InnerProduct"
  bottom: "pool4"
  top: "ip1"
  inner_product_param {
    num_output: 196
    weight_filler {
      type: "xavier"
    }
    bias_filler {
      type: "constant"
    }
  }
}
layer {
  name: "relu5"
  type: "ReLU"
  bottom: "ip1"
  top: "ip1"
}
layer {
  name: "drop1"
  type: "Dropout"
  bottom: "ip1"
  top: "ip1"
  dropout_param {
    dropout_ratio: 0.5
  }
}
layer {
  name: "ip2"
  type: "InnerProduct"
  bottom: "ip1"
  top: "ip2"
  inner_product_param {
    num_output: 98
    weight_filler {
      type: "xavier"
    }
    bias_filler {
      type: "constant"
    }
  }
}
layer {
  name: "relu6"
  type: "ReLU"
  bottom: "ip2"
  top: "ip2"
}
layer {
  name: "drop2"
  type: "Dropout"
  bottom: "ip2"
  top: "ip2"
  dropout_param {
    dropout_ratio: 0.5
  }
}
layer {
  name: "ip3"
  type: "InnerProduct"
  bottom: "ip2"
  top: "ip3"
  inner_product_param {
    num_output: 11
    weight_filler {
      type: "xavier"
    }
    bias_filler {
      type: "constant"
    }
  }
}
layer {
  name: "drop3"
  type: "Dropout"
  bottom: "ip3"
  top: "ip3"
  dropout_param {
    dropout_ratio: 0.5
  }
}
layer {
  name: "loss"
  type: "SoftmaxWithLoss"
  bottom: "ip3"
  bottom: "label"
  top: "loss"
}
I0522 23:52:56.657652  3818 layer_factory.hpp:77] Creating layer data_hdf5
I0522 23:52:56.657676  3818 net.cpp:106] Creating Layer data_hdf5
I0522 23:52:56.657691  3818 net.cpp:411] data_hdf5 -> data
I0522 23:52:56.657724  3818 net.cpp:411] data_hdf5 -> label
I0522 23:52:56.657757  3818 hdf5_data_layer.cpp:79] Loading list of HDF5 filenames from: /lustre/atlas/proj-shared/hep105/caffe_titan/minosmatch_nukecczdefs_127x50_x_unshifted_me1Bmc.trainlist
I0522 23:52:56.669703  3818 hdf5_data_layer.cpp:93] Number of HDF5 files: 15
I0522 23:52:56.671885  3818 hdf5.cpp:32] Datatype class: H5T_FLOAT
I0522 23:53:18.259035  3818 hdf5.cpp:35] Datatype class: H5T_INTEGER
I0522 23:53:18.264179  3818 net.cpp:150] Setting up data_hdf5
I0522 23:53:18.264224  3818 net.cpp:157] Top shape: 40 1 127 50 (254000)
I0522 23:53:18.264238  3818 net.cpp:157] Top shape: 40 (40)
I0522 23:53:18.264248  3818 net.cpp:165] Memory required for data: 1016160
I0522 23:53:18.264262  3818 layer_factory.hpp:77] Creating layer conv1
I0522 23:53:18.264297  3818 net.cpp:106] Creating Layer conv1
I0522 23:53:18.264309  3818 net.cpp:454] conv1 <- data
I0522 23:53:18.264331  3818 net.cpp:411] conv1 -> conv1
I0522 23:53:19.112471  3818 net.cpp:150] Setting up conv1
I0522 23:53:19.112516  3818 net.cpp:157] Top shape: 40 12 120 48 (2764800)
I0522 23:53:19.112527  3818 net.cpp:165] Memory required for data: 12075360
I0522 23:53:19.112557  3818 layer_factory.hpp:77] Creating layer relu1
I0522 23:53:19.112578  3818 net.cpp:106] Creating Layer relu1
I0522 23:53:19.112589  3818 net.cpp:454] relu1 <- conv1
I0522 23:53:19.112603  3818 net.cpp:397] relu1 -> conv1 (in-place)
I0522 23:53:19.113123  3818 net.cpp:150] Setting up relu1
I0522 23:53:19.113140  3818 net.cpp:157] Top shape: 40 12 120 48 (2764800)
I0522 23:53:19.113152  3818 net.cpp:165] Memory required for data: 23134560
I0522 23:53:19.113162  3818 layer_factory.hpp:77] Creating layer pool1
I0522 23:53:19.113179  3818 net.cpp:106] Creating Layer pool1
I0522 23:53:19.113189  3818 net.cpp:454] pool1 <- conv1
I0522 23:53:19.113204  3818 net.cpp:411] pool1 -> pool1
I0522 23:53:19.113284  3818 net.cpp:150] Setting up pool1
I0522 23:53:19.113298  3818 net.cpp:157] Top shape: 40 12 60 48 (1382400)
I0522 23:53:19.113308  3818 net.cpp:165] Memory required for data: 28664160
I0522 23:53:19.113319  3818 layer_factory.hpp:77] Creating layer conv2
I0522 23:53:19.113342  3818 net.cpp:106] Creating Layer conv2
I0522 23:53:19.113353  3818 net.cpp:454] conv2 <- pool1
I0522 23:53:19.113365  3818 net.cpp:411] conv2 -> conv2
I0522 23:53:19.116088  3818 net.cpp:150] Setting up conv2
I0522 23:53:19.116117  3818 net.cpp:157] Top shape: 40 20 54 46 (1987200)
I0522 23:53:19.116127  3818 net.cpp:165] Memory required for data: 36612960
I0522 23:53:19.116147  3818 layer_factory.hpp:77] Creating layer relu2
I0522 23:53:19.116161  3818 net.cpp:106] Creating Layer relu2
I0522 23:53:19.116171  3818 net.cpp:454] relu2 <- conv2
I0522 23:53:19.116184  3818 net.cpp:397] relu2 -> conv2 (in-place)
I0522 23:53:19.116515  3818 net.cpp:150] Setting up relu2
I0522 23:53:19.116529  3818 net.cpp:157] Top shape: 40 20 54 46 (1987200)
I0522 23:53:19.116539  3818 net.cpp:165] Memory required for data: 44561760
I0522 23:53:19.116550  3818 layer_factory.hpp:77] Creating layer pool2
I0522 23:53:19.116562  3818 net.cpp:106] Creating Layer pool2
I0522 23:53:19.116572  3818 net.cpp:454] pool2 <- conv2
I0522 23:53:19.116585  3818 net.cpp:411] pool2 -> pool2
I0522 23:53:19.116667  3818 net.cpp:150] Setting up pool2
I0522 23:53:19.116680  3818 net.cpp:157] Top shape: 40 20 27 46 (993600)
I0522 23:53:19.116690  3818 net.cpp:165] Memory required for data: 48536160
I0522 23:53:19.116700  3818 layer_factory.hpp:77] Creating layer conv3
I0522 23:53:19.116719  3818 net.cpp:106] Creating Layer conv3
I0522 23:53:19.116729  3818 net.cpp:454] conv3 <- pool2
I0522 23:53:19.116742  3818 net.cpp:411] conv3 -> conv3
I0522 23:53:19.118683  3818 net.cpp:150] Setting up conv3
I0522 23:53:19.118706  3818 net.cpp:157] Top shape: 40 28 22 44 (1084160)
I0522 23:53:19.118719  3818 net.cpp:165] Memory required for data: 52872800
I0522 23:53:19.118736  3818 layer_factory.hpp:77] Creating layer relu3
I0522 23:53:19.118752  3818 net.cpp:106] Creating Layer relu3
I0522 23:53:19.118762  3818 net.cpp:454] relu3 <- conv3
I0522 23:53:19.118775  3818 net.cpp:397] relu3 -> conv3 (in-place)
I0522 23:53:19.119257  3818 net.cpp:150] Setting up relu3
I0522 23:53:19.119276  3818 net.cpp:157] Top shape: 40 28 22 44 (1084160)
I0522 23:53:19.119285  3818 net.cpp:165] Memory required for data: 57209440
I0522 23:53:19.119295  3818 layer_factory.hpp:77] Creating layer pool3
I0522 23:53:19.119309  3818 net.cpp:106] Creating Layer pool3
I0522 23:53:19.119319  3818 net.cpp:454] pool3 <- conv3
I0522 23:53:19.119331  3818 net.cpp:411] pool3 -> pool3
I0522 23:53:19.119400  3818 net.cpp:150] Setting up pool3
I0522 23:53:19.119412  3818 net.cpp:157] Top shape: 40 28 11 44 (542080)
I0522 23:53:19.119422  3818 net.cpp:165] Memory required for data: 59377760
I0522 23:53:19.119432  3818 layer_factory.hpp:77] Creating layer conv4
I0522 23:53:19.119451  3818 net.cpp:106] Creating Layer conv4
I0522 23:53:19.119462  3818 net.cpp:454] conv4 <- pool3
I0522 23:53:19.119474  3818 net.cpp:411] conv4 -> conv4
I0522 23:53:19.122234  3818 net.cpp:150] Setting up conv4
I0522 23:53:19.122263  3818 net.cpp:157] Top shape: 40 36 6 42 (362880)
I0522 23:53:19.122275  3818 net.cpp:165] Memory required for data: 60829280
I0522 23:53:19.122292  3818 layer_factory.hpp:77] Creating layer relu4
I0522 23:53:19.122306  3818 net.cpp:106] Creating Layer relu4
I0522 23:53:19.122316  3818 net.cpp:454] relu4 <- conv4
I0522 23:53:19.122329  3818 net.cpp:397] relu4 -> conv4 (in-place)
I0522 23:53:19.122800  3818 net.cpp:150] Setting up relu4
I0522 23:53:19.122817  3818 net.cpp:157] Top shape: 40 36 6 42 (362880)
I0522 23:53:19.122828  3818 net.cpp:165] Memory required for data: 62280800
I0522 23:53:19.122838  3818 layer_factory.hpp:77] Creating layer pool4
I0522 23:53:19.122851  3818 net.cpp:106] Creating Layer pool4
I0522 23:53:19.122861  3818 net.cpp:454] pool4 <- conv4
I0522 23:53:19.122874  3818 net.cpp:411] pool4 -> pool4
I0522 23:53:19.122942  3818 net.cpp:150] Setting up pool4
I0522 23:53:19.122956  3818 net.cpp:157] Top shape: 40 36 3 42 (181440)
I0522 23:53:19.122967  3818 net.cpp:165] Memory required for data: 63006560
I0522 23:53:19.122977  3818 layer_factory.hpp:77] Creating layer ip1
I0522 23:53:19.123006  3818 net.cpp:106] Creating Layer ip1
I0522 23:53:19.123018  3818 net.cpp:454] ip1 <- pool4
I0522 23:53:19.123030  3818 net.cpp:411] ip1 -> ip1
I0522 23:53:19.138461  3818 net.cpp:150] Setting up ip1
I0522 23:53:19.138489  3818 net.cpp:157] Top shape: 40 196 (7840)
I0522 23:53:19.138501  3818 net.cpp:165] Memory required for data: 63037920
I0522 23:53:19.138525  3818 layer_factory.hpp:77] Creating layer relu5
I0522 23:53:19.138538  3818 net.cpp:106] Creating Layer relu5
I0522 23:53:19.138548  3818 net.cpp:454] relu5 <- ip1
I0522 23:53:19.138561  3818 net.cpp:397] relu5 -> ip1 (in-place)
I0522 23:53:19.138905  3818 net.cpp:150] Setting up relu5
I0522 23:53:19.138918  3818 net.cpp:157] Top shape: 40 196 (7840)
I0522 23:53:19.138929  3818 net.cpp:165] Memory required for data: 63069280
I0522 23:53:19.138939  3818 layer_factory.hpp:77] Creating layer drop1
I0522 23:53:19.138962  3818 net.cpp:106] Creating Layer drop1
I0522 23:53:19.138972  3818 net.cpp:454] drop1 <- ip1
I0522 23:53:19.138990  3818 net.cpp:397] drop1 -> ip1 (in-place)
I0522 23:53:19.139051  3818 net.cpp:150] Setting up drop1
I0522 23:53:19.139065  3818 net.cpp:157] Top shape: 40 196 (7840)
I0522 23:53:19.139075  3818 net.cpp:165] Memory required for data: 63100640
I0522 23:53:19.139086  3818 layer_factory.hpp:77] Creating layer ip2
I0522 23:53:19.139103  3818 net.cpp:106] Creating Layer ip2
I0522 23:53:19.139114  3818 net.cpp:454] ip2 <- ip1
I0522 23:53:19.139127  3818 net.cpp:411] ip2 -> ip2
I0522 23:53:19.139590  3818 net.cpp:150] Setting up ip2
I0522 23:53:19.139603  3818 net.cpp:157] Top shape: 40 98 (3920)
I0522 23:53:19.139613  3818 net.cpp:165] Memory required for data: 63116320
I0522 23:53:19.139628  3818 layer_factory.hpp:77] Creating layer relu6
I0522 23:53:19.139641  3818 net.cpp:106] Creating Layer relu6
I0522 23:53:19.139650  3818 net.cpp:454] relu6 <- ip2
I0522 23:53:19.139662  3818 net.cpp:397] relu6 -> ip2 (in-place)
I0522 23:53:19.140180  3818 net.cpp:150] Setting up relu6
I0522 23:53:19.140197  3818 net.cpp:157] Top shape: 40 98 (3920)
I0522 23:53:19.140207  3818 net.cpp:165] Memory required for data: 63132000
I0522 23:53:19.140218  3818 layer_factory.hpp:77] Creating layer drop2
I0522 23:53:19.140230  3818 net.cpp:106] Creating Layer drop2
I0522 23:53:19.140240  3818 net.cpp:454] drop2 <- ip2
I0522 23:53:19.140252  3818 net.cpp:397] drop2 -> ip2 (in-place)
I0522 23:53:19.140295  3818 net.cpp:150] Setting up drop2
I0522 23:53:19.140308  3818 net.cpp:157] Top shape: 40 98 (3920)
I0522 23:53:19.140319  3818 net.cpp:165] Memory required for data: 63147680
I0522 23:53:19.140329  3818 layer_factory.hpp:77] Creating layer ip3
I0522 23:53:19.140342  3818 net.cpp:106] Creating Layer ip3
I0522 23:53:19.140353  3818 net.cpp:454] ip3 <- ip2
I0522 23:53:19.140365  3818 net.cpp:411] ip3 -> ip3
I0522 23:53:19.140575  3818 net.cpp:150] Setting up ip3
I0522 23:53:19.140588  3818 net.cpp:157] Top shape: 40 11 (440)
I0522 23:53:19.140599  3818 net.cpp:165] Memory required for data: 63149440
I0522 23:53:19.140614  3818 layer_factory.hpp:77] Creating layer drop3
I0522 23:53:19.140625  3818 net.cpp:106] Creating Layer drop3
I0522 23:53:19.140635  3818 net.cpp:454] drop3 <- ip3
I0522 23:53:19.140647  3818 net.cpp:397] drop3 -> ip3 (in-place)
I0522 23:53:19.140687  3818 net.cpp:150] Setting up drop3
I0522 23:53:19.140699  3818 net.cpp:157] Top shape: 40 11 (440)
I0522 23:53:19.140710  3818 net.cpp:165] Memory required for data: 63151200
I0522 23:53:19.140719  3818 layer_factory.hpp:77] Creating layer loss
I0522 23:53:19.140739  3818 net.cpp:106] Creating Layer loss
I0522 23:53:19.140749  3818 net.cpp:454] loss <- ip3
I0522 23:53:19.140760  3818 net.cpp:454] loss <- label
I0522 23:53:19.140772  3818 net.cpp:411] loss -> loss
I0522 23:53:19.140790  3818 layer_factory.hpp:77] Creating layer loss
…
I0522 23:53:19.143358  3818 solver.cpp:181] Creating test net (#0) specified by net file: /lustre/atlas/proj-shared/hep105/caffe_titan/caffe_workflow/logs_bslr/bs_40_lr_0.0045_2016-05-20T15.49.04.094905.prototxt
I0522 23:53:19.143429  3818 net.cpp:322] The NetState phase (1) differed from the phase (0) specified by a rule in layer data_hdf5
I0522 23:53:19.143784  3818 net.cpp:49] Initializing net from parameters: 
name: "caffe_test_127x50_x_unshifted"
state {
  phase: TEST
}
layer {
  name: "data_hdf5"
  type: "HDF5Data"
  top: "data"
  top: "label"
  include {
    phase: TEST
  }
  hdf5_data_param {
    source: "/lustre/atlas/proj-shared/hep105/caffe_titan/minosmatch_nukecczdefs_127x50_x_unshifted_me1Bmc.testlist"
    batch_size: 40
  }
}
layer {
  name: "conv1"
  type: "Convolution"
  bottom: "data"
  top: "conv1"
  convolution_param {
    num_output: 12
    pad: 0
    stride: 1
    weight_filler {
      type: "xavier"
    }
    bias_filler {
      type: "constant"
    }
    kernel_h: 8
    kernel_w: 3
  }
}
layer {
  name: "relu1"
  type: "ReLU"
  bottom: "conv1"
  top: "conv1"
}
layer {
  name: "pool1"
  type: "Pooling"
  bottom: "conv1"
  top: "pool1"
  pooling_param {
    pool: MAX
    kernel_h: 2
    kernel_w: 1
    stride_h: 2
    stride_w: 1
  }
}
layer {
  name: "conv2"
  type: "Convolution"
  bottom: "pool1"
  top: "conv2"
  convolution_param {
    num_output: 20
    pad: 0
    stride: 1
    weight_filler {
      type: "xavier"
    }
    bias_filler {
      type: "constant"
    }
    kernel_h: 7
    kernel_w: 3
  }
}
layer {
  name: "relu2"
  type: "ReLU"
  bottom: "conv2"
  top: "conv2"
}
layer {
  name: "pool2"
  type: "Pooling"
  bottom: "conv2"
  top: "pool2"
  pooling_param {
    pool: MAX
    kernel_h: 2
    kernel_w: 1
    stride_h: 2
    stride_w: 1
  }
}
layer {
  name: "conv3"
  type: "Convolution"
  bottom: "pool2"
  top: "conv3"
  convolution_param {
    num_output: 28
    pad: 0
    stride: 1
    weight_filler {
      type: "xavier"
    }
    bias_filler {
      type: "constant"
    }
    kernel_h: 6
    kernel_w: 3
  }
}
layer {
  name: "relu3"
  type: "ReLU"
  bottom: "conv3"
  top: "conv3"
}
layer {
  name: "pool3"
  type: "Pooling"
  bottom: "conv3"
  top: "pool3"
  pooling_param {
    pool: MAX
    kernel_h: 2
    kernel_w: 1
    stride_h: 2
    stride_w: 1
  }
}
layer {
  name: "conv4"
  type: "Convolution"
  bottom: "pool3"
  top: "conv4"
  convolution_param {
    num_output: 36
    pad: 0
    stride: 1
    weight_filler {
      type: "xavier"
    }
    bias_filler {
      type: "constant"
    }
    kernel_h: 6
    kernel_w: 3
  }
}
layer {
  name: "relu4"
  type: "ReLU"
  bottom: "conv4"
  top: "conv4"
}
layer {
  name: "pool4"
  type: "Pooling"
  bottom: "conv4"
  top: "pool4"
  pooling_param {
    pool: MAX
    kernel_h: 2
    kernel_w: 1
    stride_h: 2
    stride_w: 1
  }
}
layer {
  name: "ip1"
  type: "InnerProduct"
  bottom: "pool4"
  top: "ip1"
  inner_product_param {
    num_output: 196
    weight_filler {
      type: "xavier"
    }
    bias_filler {
      type: "constant"
    }
  }
}
layer {
  name: "relu5"
  type: "ReLU"
  bottom: "ip1"
  top: "ip1"
}
layer {
  name: "drop1"
  type: "Dropout"
  bottom: "ip1"
  top: "ip1"
  dropout_param {
    dropout_ratio: 0.5
  }
}
layer {
  name: "ip2"
  type: "InnerProduct"
  bottom: "ip1"
  top: "ip2"
  inner_product_param {
    num_output: 98
    weight_filler {
      type: "xavier"
    }
    bias_filler {
      type: "constant"
    }
  }
}
layer {
  name: "relu6"
  type: "ReLU"
  bottom: "ip2"
  top: "ip2"
}
layer {
  name: "drop2"
  type: "Dropout"
  bottom: "ip2"
  top: "ip2"
  dropout_param {
    dropout_ratio: 0.5
  }
}
layer {
  name: "ip3"
  type: "InnerProduct"
  bottom: "ip2"
  top: "ip3"
  inner_product_param {
    num_output: 11
    weight_filler {
      type: "xavier"
    }
    bias_filler {
      type: "constant"
    }
  }
}
layer {
  name: "drop3"
  type: "Dropout"
  bottom: "ip3"
  top: "ip3"
  dropout_param {
    dropout_ratio: 0.5
  }
}
layer {
  name: "accuracy"
  type: "Accuracy"
  bottom: "ip3"
  bottom: "label"
  top: "accuracy"
  include {
    phase: TEST
  }
}
layer {
  name: "loss"
  type: "SoftmaxWithLoss"
  bottom: "ip3"
  bottom: "label"
  top: "loss"
}
I0522 23:53:19.143973  3818 layer_factory.hpp:77] Creating layer data_hdf5
I0522 23:53:19.143988  3818 net.cpp:106] Creating Layer data_hdf5
I0522 23:53:19.144001  3818 net.cpp:411] data_hdf5 -> data
I0522 23:53:19.144017  3818 net.cpp:411] data_hdf5 -> label
I0522 23:53:19.144033  3818 hdf5_data_layer.cpp:79] Loading list of HDF5 filenames from: /lustre/atlas/proj-shared/hep105/caffe_titan/minosmatch_nukecczdefs_127x50_x_unshifted_me1Bmc.testlist
I0522 23:53:19.145182  3818 hdf5_data_layer.cpp:93] Number of HDF5 files: 3
I0522 23:53:40.480257  3818 net.cpp:150] Setting up data_hdf5
I0522 23:53:40.480422  3818 net.cpp:157] Top shape: 40 1 127 50 (254000)
I0522 23:53:40.480437  3818 net.cpp:157] Top shape: 40 (40)
I0522 23:53:40.480446  3818 net.cpp:165] Memory required for data: 1016160
I0522 23:53:40.480460  3818 layer_factory.hpp:77] Creating layer label_data_hdf5_1_split
I0522 23:53:40.480489  3818 net.cpp:106] Creating Layer label_data_hdf5_1_split
I0522 23:53:40.480499  3818 net.cpp:454] label_data_hdf5_1_split <- label
I0522 23:53:40.480515  3818 net.cpp:411] label_data_hdf5_1_split -> label_data_hdf5_1_split_0
I0522 23:53:40.480535  3818 net.cpp:411] label_data_hdf5_1_split -> label_data_hdf5_1_split_1
I0522 23:53:40.480607  3818 net.cpp:150] Setting up label_data_hdf5_1_split
I0522 23:53:40.480621  3818 net.cpp:157] Top shape: 40 (40)
I0522 23:53:40.480634  3818 net.cpp:157] Top shape: 40 (40)
I0522 23:53:40.480643  3818 net.cpp:165] Memory required for data: 1016480
I0522 23:53:40.480654  3818 layer_factory.hpp:77] Creating layer conv1
I0522 23:53:40.480675  3818 net.cpp:106] Creating Layer conv1
I0522 23:53:40.480685  3818 net.cpp:454] conv1 <- data
I0522 23:53:40.480701  3818 net.cpp:411] conv1 -> conv1
I0522 23:53:40.482615  3818 net.cpp:150] Setting up conv1
I0522 23:53:40.482640  3818 net.cpp:157] Top shape: 40 12 120 48 (2764800)
I0522 23:53:40.482650  3818 net.cpp:165] Memory required for data: 12075680
I0522 23:53:40.482671  3818 layer_factory.hpp:77] Creating layer relu1
I0522 23:53:40.482686  3818 net.cpp:106] Creating Layer relu1
I0522 23:53:40.482697  3818 net.cpp:454] relu1 <- conv1
I0522 23:53:40.482709  3818 net.cpp:397] relu1 -> conv1 (in-place)
I0522 23:53:40.483217  3818 net.cpp:150] Setting up relu1
I0522 23:53:40.483232  3818 net.cpp:157] Top shape: 40 12 120 48 (2764800)
I0522 23:53:40.483243  3818 net.cpp:165] Memory required for data: 23134880
I0522 23:53:40.483253  3818 layer_factory.hpp:77] Creating layer pool1
I0522 23:53:40.483268  3818 net.cpp:106] Creating Layer pool1
I0522 23:53:40.483278  3818 net.cpp:454] pool1 <- conv1
I0522 23:53:40.483291  3818 net.cpp:411] pool1 -> pool1
I0522 23:53:40.483366  3818 net.cpp:150] Setting up pool1
I0522 23:53:40.483379  3818 net.cpp:157] Top shape: 40 12 60 48 (1382400)
I0522 23:53:40.483389  3818 net.cpp:165] Memory required for data: 28664480
I0522 23:53:40.483399  3818 layer_factory.hpp:77] Creating layer conv2
I0522 23:53:40.483415  3818 net.cpp:106] Creating Layer conv2
I0522 23:53:40.483425  3818 net.cpp:454] conv2 <- pool1
I0522 23:53:40.483440  3818 net.cpp:411] conv2 -> conv2
I0522 23:53:40.485348  3818 net.cpp:150] Setting up conv2
I0522 23:53:40.485370  3818 net.cpp:157] Top shape: 40 20 54 46 (1987200)
I0522 23:53:40.485383  3818 net.cpp:165] Memory required for data: 36613280
I0522 23:53:40.485400  3818 layer_factory.hpp:77] Creating layer relu2
I0522 23:53:40.485414  3818 net.cpp:106] Creating Layer relu2
I0522 23:53:40.485424  3818 net.cpp:454] relu2 <- conv2
I0522 23:53:40.485436  3818 net.cpp:397] relu2 -> conv2 (in-place)
I0522 23:53:40.485767  3818 net.cpp:150] Setting up relu2
I0522 23:53:40.485781  3818 net.cpp:157] Top shape: 40 20 54 46 (1987200)
I0522 23:53:40.485791  3818 net.cpp:165] Memory required for data: 44562080
I0522 23:53:40.485801  3818 layer_factory.hpp:77] Creating layer pool2
I0522 23:53:40.485815  3818 net.cpp:106] Creating Layer pool2
I0522 23:53:40.485824  3818 net.cpp:454] pool2 <- conv2
I0522 23:53:40.485837  3818 net.cpp:411] pool2 -> pool2
I0522 23:53:40.485908  3818 net.cpp:150] Setting up pool2
I0522 23:53:40.485921  3818 net.cpp:157] Top shape: 40 20 27 46 (993600)
I0522 23:53:40.485931  3818 net.cpp:165] Memory required for data: 48536480
I0522 23:53:40.485942  3818 layer_factory.hpp:77] Creating layer conv3
I0522 23:53:40.485960  3818 net.cpp:106] Creating Layer conv3
I0522 23:53:40.485970  3818 net.cpp:454] conv3 <- pool2
I0522 23:53:40.485985  3818 net.cpp:411] conv3 -> conv3
I0522 23:53:40.487960  3818 net.cpp:150] Setting up conv3
I0522 23:53:40.487983  3818 net.cpp:157] Top shape: 40 28 22 44 (1084160)
I0522 23:53:40.487995  3818 net.cpp:165] Memory required for data: 52873120
I0522 23:53:40.488029  3818 layer_factory.hpp:77] Creating layer relu3
I0522 23:53:40.488042  3818 net.cpp:106] Creating Layer relu3
I0522 23:53:40.488052  3818 net.cpp:454] relu3 <- conv3
I0522 23:53:40.488065  3818 net.cpp:397] relu3 -> conv3 (in-place)
I0522 23:53:40.488535  3818 net.cpp:150] Setting up relu3
I0522 23:53:40.488551  3818 net.cpp:157] Top shape: 40 28 22 44 (1084160)
I0522 23:53:40.488562  3818 net.cpp:165] Memory required for data: 57209760
I0522 23:53:40.488572  3818 layer_factory.hpp:77] Creating layer pool3
I0522 23:53:40.488585  3818 net.cpp:106] Creating Layer pool3
I0522 23:53:40.488595  3818 net.cpp:454] pool3 <- conv3
I0522 23:53:40.488607  3818 net.cpp:411] pool3 -> pool3
I0522 23:53:40.488678  3818 net.cpp:150] Setting up pool3
I0522 23:53:40.488692  3818 net.cpp:157] Top shape: 40 28 11 44 (542080)
I0522 23:53:40.488701  3818 net.cpp:165] Memory required for data: 59378080
I0522 23:53:40.488710  3818 layer_factory.hpp:77] Creating layer conv4
I0522 23:53:40.488729  3818 net.cpp:106] Creating Layer conv4
I0522 23:53:40.488739  3818 net.cpp:454] conv4 <- pool3
I0522 23:53:40.488754  3818 net.cpp:411] conv4 -> conv4
I0522 23:53:40.490803  3818 net.cpp:150] Setting up conv4
I0522 23:53:40.490824  3818 net.cpp:157] Top shape: 40 36 6 42 (362880)
I0522 23:53:40.490836  3818 net.cpp:165] Memory required for data: 60829600
I0522 23:53:40.490852  3818 layer_factory.hpp:77] Creating layer relu4
I0522 23:53:40.490865  3818 net.cpp:106] Creating Layer relu4
I0522 23:53:40.490875  3818 net.cpp:454] relu4 <- conv4
I0522 23:53:40.490888  3818 net.cpp:397] relu4 -> conv4 (in-place)
I0522 23:53:40.491365  3818 net.cpp:150] Setting up relu4
I0522 23:53:40.491382  3818 net.cpp:157] Top shape: 40 36 6 42 (362880)
I0522 23:53:40.491392  3818 net.cpp:165] Memory required for data: 62281120
I0522 23:53:40.491402  3818 layer_factory.hpp:77] Creating layer pool4
I0522 23:53:40.491416  3818 net.cpp:106] Creating Layer pool4
I0522 23:53:40.491426  3818 net.cpp:454] pool4 <- conv4
I0522 23:53:40.491439  3818 net.cpp:411] pool4 -> pool4
I0522 23:53:40.491509  3818 net.cpp:150] Setting up pool4
I0522 23:53:40.491523  3818 net.cpp:157] Top shape: 40 36 3 42 (181440)
I0522 23:53:40.491533  3818 net.cpp:165] Memory required for data: 63006880
I0522 23:53:40.491541  3818 layer_factory.hpp:77] Creating layer ip1
I0522 23:53:40.491557  3818 net.cpp:106] Creating Layer ip1
I0522 23:53:40.491569  3818 net.cpp:454] ip1 <- pool4
I0522 23:53:40.491581  3818 net.cpp:411] ip1 -> ip1
I0522 23:53:40.507030  3818 net.cpp:150] Setting up ip1
I0522 23:53:40.507058  3818 net.cpp:157] Top shape: 40 196 (7840)
I0522 23:53:40.507069  3818 net.cpp:165] Memory required for data: 63038240
I0522 23:53:40.507091  3818 layer_factory.hpp:77] Creating layer relu5
I0522 23:53:40.507107  3818 net.cpp:106] Creating Layer relu5
I0522 23:53:40.507117  3818 net.cpp:454] relu5 <- ip1
I0522 23:53:40.507130  3818 net.cpp:397] relu5 -> ip1 (in-place)
I0522 23:53:40.507477  3818 net.cpp:150] Setting up relu5
I0522 23:53:40.507490  3818 net.cpp:157] Top shape: 40 196 (7840)
I0522 23:53:40.507500  3818 net.cpp:165] Memory required for data: 63069600
I0522 23:53:40.507510  3818 layer_factory.hpp:77] Creating layer drop1
I0522 23:53:40.507529  3818 net.cpp:106] Creating Layer drop1
I0522 23:53:40.507539  3818 net.cpp:454] drop1 <- ip1
I0522 23:53:40.507552  3818 net.cpp:397] drop1 -> ip1 (in-place)
I0522 23:53:40.507598  3818 net.cpp:150] Setting up drop1
I0522 23:53:40.507611  3818 net.cpp:157] Top shape: 40 196 (7840)
I0522 23:53:40.507622  3818 net.cpp:165] Memory required for data: 63100960
I0522 23:53:40.507632  3818 layer_factory.hpp:77] Creating layer ip2
I0522 23:53:40.507645  3818 net.cpp:106] Creating Layer ip2
I0522 23:53:40.507655  3818 net.cpp:454] ip2 <- ip1
I0522 23:53:40.507669  3818 net.cpp:411] ip2 -> ip2
I0522 23:53:40.508147  3818 net.cpp:150] Setting up ip2
I0522 23:53:40.508162  3818 net.cpp:157] Top shape: 40 98 (3920)
I0522 23:53:40.508172  3818 net.cpp:165] Memory required for data: 63116640
I0522 23:53:40.508186  3818 layer_factory.hpp:77] Creating layer relu6
I0522 23:53:40.508213  3818 net.cpp:106] Creating Layer relu6
I0522 23:53:40.508221  3818 net.cpp:454] relu6 <- ip2
I0522 23:53:40.508234  3818 net.cpp:397] relu6 -> ip2 (in-place)
I0522 23:53:40.508772  3818 net.cpp:150] Setting up relu6
I0522 23:53:40.508795  3818 net.cpp:157] Top shape: 40 98 (3920)
I0522 23:53:40.508805  3818 net.cpp:165] Memory required for data: 63132320
I0522 23:53:40.508816  3818 layer_factory.hpp:77] Creating layer drop2
I0522 23:53:40.508829  3818 net.cpp:106] Creating Layer drop2
I0522 23:53:40.508839  3818 net.cpp:454] drop2 <- ip2
I0522 23:53:40.508852  3818 net.cpp:397] drop2 -> ip2 (in-place)
I0522 23:53:40.508896  3818 net.cpp:150] Setting up drop2
I0522 23:53:40.508909  3818 net.cpp:157] Top shape: 40 98 (3920)
I0522 23:53:40.508919  3818 net.cpp:165] Memory required for data: 63148000
I0522 23:53:40.508929  3818 layer_factory.hpp:77] Creating layer ip3
I0522 23:53:40.508944  3818 net.cpp:106] Creating Layer ip3
I0522 23:53:40.508954  3818 net.cpp:454] ip3 <- ip2
I0522 23:53:40.508967  3818 net.cpp:411] ip3 -> ip3
I0522 23:53:40.509188  3818 net.cpp:150] Setting up ip3
I0522 23:53:40.509202  3818 net.cpp:157] Top shape: 40 11 (440)
I0522 23:53:40.509212  3818 net.cpp:165] Memory required for data: 63149760
I0522 23:53:40.509227  3818 layer_factory.hpp:77] Creating layer drop3
I0522 23:53:40.509239  3818 net.cpp:106] Creating Layer drop3
I0522 23:53:40.509249  3818 net.cpp:454] drop3 <- ip3
I0522 23:53:40.509261  3818 net.cpp:397] drop3 -> ip3 (in-place)
I0522 23:53:40.509302  3818 net.cpp:150] Setting up drop3
I0522 23:53:40.509315  3818 net.cpp:157] Top shape: 40 11 (440)
I0522 23:53:40.509325  3818 net.cpp:165] Memory required for data: 63151520
I0522 23:53:40.509335  3818 layer_factory.hpp:77] Creating layer ip3_drop3_0_split
I0522 23:53:40.509348  3818 net.cpp:106] Creating Layer ip3_drop3_0_split
I0522 23:53:40.509358  3818 net.cpp:454] ip3_drop3_0_split <- ip3
I0522 23:53:40.509371  3818 net.cpp:411] ip3_drop3_0_split -> ip3_drop3_0_split_0
I0522 23:53:40.509387  3818 net.cpp:411] ip3_drop3_0_split -> ip3_drop3_0_split_1
I0522 23:53:40.509460  3818 net.cpp:150] Setting up ip3_drop3_0_split
I0522 23:53:40.509474  3818 net.cpp:157] Top shape: 40 11 (440)
I0522 23:53:40.509486  3818 net.cpp:157] Top shape: 40 11 (440)
I0522 23:53:40.509496  3818 net.cpp:165] Memory required for data: 63155040
I0522 23:53:40.509506  3818 layer_factory.hpp:77] Creating layer accuracy
I0522 23:53:40.509529  3818 net.cpp:106] Creating Layer accuracy
I0522 23:53:40.509539  3818 net.cpp:454] accuracy <- ip3_drop3_0_split_0
I0522 23:53:40.509551  3818 net.cpp:454] accuracy <- label_data_hdf5_1_split_0
I0522 23:53:40.509564  3818 net.cpp:411] accuracy -> accuracy
…
