…
I0527 09:16:05.250283 22103 net.cpp:322] The NetState phase (0) differed from the phase (1) specified by a rule in layer data_hdf5
I0527 09:16:05.250339 22103 net.cpp:322] The NetState phase (0) differed from the phase (1) specified by a rule in layer accuracy
I0527 09:16:05.250684 22103 net.cpp:49] Initializing net from parameters: 
name: "caffe_test_127x50_x_unshifted"
state {
  phase: TRAIN
}
layer {
  name: "data_hdf5"
  type: "HDF5Data"
  top: "data"
  top: "label"
  include {
    phase: TRAIN
  }
  hdf5_data_param {
    source: "/lustre/atlas/proj-shared/hep105/caffe_titan/minosmatch_nukecczdefs_127x50_x_unshifted_me1Bmc.trainlist"
    batch_size: 40
  }
}
layer {
  name: "conv1"
  type: "Convolution"
  bottom: "data"
  top: "conv1"
  convolution_param {
    num_output: 12
    pad: 0
    stride: 1
    weight_filler {
      type: "xavier"
    }
    bias_filler {
      type: "constant"
    }
    kernel_h: 8
    kernel_w: 3
  }
}
layer {
  name: "relu1"
  type: "ReLU"
  bottom: "conv1"
  top: "conv1"
}
layer {
  name: "pool1"
  type: "Pooling"
  bottom: "conv1"
  top: "pool1"
  pooling_param {
    pool: MAX
    kernel_h: 2
    kernel_w: 1
    stride_h: 2
    stride_w: 1
  }
}
layer {
  name: "conv2"
  type: "Convolution"
  bottom: "pool1"
  top: "conv2"
  convolution_param {
    num_output: 20
    pad: 0
    stride: 1
    weight_filler {
      type: "xavier"
    }
    bias_filler {
      type: "constant"
    }
    kernel_h: 7
    kernel_w: 3
  }
}
layer {
  name: "relu2"
  type: "ReLU"
  bottom: "conv2"
  top: "conv2"
}
layer {
  name: "pool2"
  type: "Pooling"
  bottom: "conv2"
  top: "pool2"
  pooling_param {
    pool: MAX
    kernel_h: 2
    kernel_w: 1
    stride_h: 2
    stride_w: 1
  }
}
layer {
  name: "conv3"
  type: "Convolution"
  bottom: "pool2"
  top: "conv3"
  convolution_param {
    num_output: 28
    pad: 0
    stride: 1
    weight_filler {
      type: "xavier"
    }
    bias_filler {
      type: "constant"
    }
    kernel_h: 6
    kernel_w: 3
  }
}
layer {
  name: "relu3"
  type: "ReLU"
  bottom: "conv3"
  top: "conv3"
}
layer {
  name: "pool3"
  type: "Pooling"
  bottom: "conv3"
  top: "pool3"
  pooling_param {
    pool: MAX
    kernel_h: 2
    kernel_w: 1
    stride_h: 2
    stride_w: 1
  }
}
layer {
  name: "conv4"
  type: "Convolution"
  bottom: "pool3"
  top: "conv4"
  convolution_param {
    num_output: 36
    pad: 0
    stride: 1
    weight_filler {
      type: "xavier"
    }
    bias_filler {
      type: "constant"
    }
    kernel_h: 6
    kernel_w: 3
  }
}
layer {
  name: "relu4"
  type: "ReLU"
  bottom: "conv4"
  top: "conv4"
}
layer {
  name: "pool4"
  type: "Pooling"
  bottom: "conv4"
  top: "pool4"
  pooling_param {
    pool: MAX
    kernel_h: 2
    kernel_w: 1
    stride_h: 2
    stride_w: 1
  }
}
layer {
  name: "ip1"
  type: "InnerProduct"
  bottom: "pool4"
  top: "ip1"
  inner_product_param {
    num_output: 196
    weight_filler {
      type: "xavier"
    }
    bias_filler {
      type: "constant"
    }
  }
}
layer {
  name: "relu5"
  type: "ReLU"
  bottom: "ip1"
  top: "ip1"
}
layer {
  name: "drop1"
  type: "Dropout"
  bottom: "ip1"
  top: "ip1"
  dropout_param {
    dropout_ratio: 0.5
  }
}
layer {
  name: "ip2"
  type: "InnerProduct"
  bottom: "ip1"
  top: "ip2"
  inner_product_param {
    num_output: 98
    weight_filler {
      type: "xavier"
    }
    bias_filler {
      type: "constant"
    }
  }
}
layer {
  name: "relu6"
  type: "ReLU"
  bottom: "ip2"
  top: "ip2"
}
layer {
  name: "drop2"
  type: "Dropout"
  bottom: "ip2"
  top: "ip2"
  dropout_param {
    dropout_ratio: 0.5
  }
}
layer {
  name: "ip3"
  type: "InnerProduct"
  bottom: "ip2"
  top: "ip3"
  inner_product_param {
    num_output: 11
    weight_filler {
      type: "xavier"
    }
    bias_filler {
      type: "constant"
    }
  }
}
layer {
  name: "drop3"
  type: "Dropout"
  bottom: "ip3"
  top: "ip3"
  dropout_param {
    dropout_ratio: 0.5
  }
}
layer {
  name: "loss"
  type: "SoftmaxWithLoss"
  bottom: "ip3"
  bottom: "label"
  top: "loss"
}
I0527 09:16:05.250864 22103 layer_factory.hpp:77] Creating layer data_hdf5
I0527 09:16:05.250888 22103 net.cpp:106] Creating Layer data_hdf5
I0527 09:16:05.250902 22103 net.cpp:411] data_hdf5 -> data
I0527 09:16:05.250936 22103 net.cpp:411] data_hdf5 -> label
I0527 09:16:05.250968 22103 hdf5_data_layer.cpp:79] Loading list of HDF5 filenames from: /lustre/atlas/proj-shared/hep105/caffe_titan/minosmatch_nukecczdefs_127x50_x_unshifted_me1Bmc.trainlist
I0527 09:16:05.253054 22103 hdf5_data_layer.cpp:93] Number of HDF5 files: 15
I0527 09:16:05.268751 22103 hdf5.cpp:32] Datatype class: H5T_FLOAT
I0527 09:16:26.801836 22103 hdf5.cpp:35] Datatype class: H5T_INTEGER
I0527 09:16:26.807029 22103 net.cpp:150] Setting up data_hdf5
I0527 09:16:26.807068 22103 net.cpp:157] Top shape: 40 1 127 50 (254000)
I0527 09:16:26.807083 22103 net.cpp:157] Top shape: 40 (40)
I0527 09:16:26.807095 22103 net.cpp:165] Memory required for data: 1016160
I0527 09:16:26.807107 22103 layer_factory.hpp:77] Creating layer conv1
I0527 09:16:26.807140 22103 net.cpp:106] Creating Layer conv1
I0527 09:16:26.807152 22103 net.cpp:454] conv1 <- data
I0527 09:16:26.807173 22103 net.cpp:411] conv1 -> conv1
I0527 09:16:27.709892 22103 net.cpp:150] Setting up conv1
I0527 09:16:27.709938 22103 net.cpp:157] Top shape: 40 12 120 48 (2764800)
I0527 09:16:27.709949 22103 net.cpp:165] Memory required for data: 12075360
I0527 09:16:27.709976 22103 layer_factory.hpp:77] Creating layer relu1
I0527 09:16:27.710007 22103 net.cpp:106] Creating Layer relu1
I0527 09:16:27.710018 22103 net.cpp:454] relu1 <- conv1
I0527 09:16:27.710032 22103 net.cpp:397] relu1 -> conv1 (in-place)
I0527 09:16:27.710554 22103 net.cpp:150] Setting up relu1
I0527 09:16:27.710572 22103 net.cpp:157] Top shape: 40 12 120 48 (2764800)
I0527 09:16:27.710582 22103 net.cpp:165] Memory required for data: 23134560
I0527 09:16:27.710592 22103 layer_factory.hpp:77] Creating layer pool1
I0527 09:16:27.710608 22103 net.cpp:106] Creating Layer pool1
I0527 09:16:27.710618 22103 net.cpp:454] pool1 <- conv1
I0527 09:16:27.710631 22103 net.cpp:411] pool1 -> pool1
I0527 09:16:27.710711 22103 net.cpp:150] Setting up pool1
I0527 09:16:27.710726 22103 net.cpp:157] Top shape: 40 12 60 48 (1382400)
I0527 09:16:27.710736 22103 net.cpp:165] Memory required for data: 28664160
I0527 09:16:27.710747 22103 layer_factory.hpp:77] Creating layer conv2
I0527 09:16:27.710769 22103 net.cpp:106] Creating Layer conv2
I0527 09:16:27.710779 22103 net.cpp:454] conv2 <- pool1
I0527 09:16:27.710793 22103 net.cpp:411] conv2 -> conv2
I0527 09:16:27.713460 22103 net.cpp:150] Setting up conv2
I0527 09:16:27.713487 22103 net.cpp:157] Top shape: 40 20 54 46 (1987200)
I0527 09:16:27.713498 22103 net.cpp:165] Memory required for data: 36612960
I0527 09:16:27.713517 22103 layer_factory.hpp:77] Creating layer relu2
I0527 09:16:27.713531 22103 net.cpp:106] Creating Layer relu2
I0527 09:16:27.713541 22103 net.cpp:454] relu2 <- conv2
I0527 09:16:27.713554 22103 net.cpp:397] relu2 -> conv2 (in-place)
I0527 09:16:27.713883 22103 net.cpp:150] Setting up relu2
I0527 09:16:27.713897 22103 net.cpp:157] Top shape: 40 20 54 46 (1987200)
I0527 09:16:27.713907 22103 net.cpp:165] Memory required for data: 44561760
I0527 09:16:27.713917 22103 layer_factory.hpp:77] Creating layer pool2
I0527 09:16:27.713930 22103 net.cpp:106] Creating Layer pool2
I0527 09:16:27.713940 22103 net.cpp:454] pool2 <- conv2
I0527 09:16:27.713953 22103 net.cpp:411] pool2 -> pool2
I0527 09:16:27.714045 22103 net.cpp:150] Setting up pool2
I0527 09:16:27.714058 22103 net.cpp:157] Top shape: 40 20 27 46 (993600)
I0527 09:16:27.714068 22103 net.cpp:165] Memory required for data: 48536160
I0527 09:16:27.714079 22103 layer_factory.hpp:77] Creating layer conv3
I0527 09:16:27.714097 22103 net.cpp:106] Creating Layer conv3
I0527 09:16:27.714107 22103 net.cpp:454] conv3 <- pool2
I0527 09:16:27.714121 22103 net.cpp:411] conv3 -> conv3
I0527 09:16:27.716059 22103 net.cpp:150] Setting up conv3
I0527 09:16:27.716078 22103 net.cpp:157] Top shape: 40 28 22 44 (1084160)
I0527 09:16:27.716089 22103 net.cpp:165] Memory required for data: 52872800
I0527 09:16:27.716107 22103 layer_factory.hpp:77] Creating layer relu3
I0527 09:16:27.716123 22103 net.cpp:106] Creating Layer relu3
I0527 09:16:27.716133 22103 net.cpp:454] relu3 <- conv3
I0527 09:16:27.716146 22103 net.cpp:397] relu3 -> conv3 (in-place)
I0527 09:16:27.716616 22103 net.cpp:150] Setting up relu3
I0527 09:16:27.716634 22103 net.cpp:157] Top shape: 40 28 22 44 (1084160)
I0527 09:16:27.716644 22103 net.cpp:165] Memory required for data: 57209440
I0527 09:16:27.716653 22103 layer_factory.hpp:77] Creating layer pool3
I0527 09:16:27.716666 22103 net.cpp:106] Creating Layer pool3
I0527 09:16:27.716676 22103 net.cpp:454] pool3 <- conv3
I0527 09:16:27.716689 22103 net.cpp:411] pool3 -> pool3
I0527 09:16:27.716755 22103 net.cpp:150] Setting up pool3
I0527 09:16:27.716769 22103 net.cpp:157] Top shape: 40 28 11 44 (542080)
I0527 09:16:27.716778 22103 net.cpp:165] Memory required for data: 59377760
I0527 09:16:27.716789 22103 layer_factory.hpp:77] Creating layer conv4
I0527 09:16:27.716806 22103 net.cpp:106] Creating Layer conv4
I0527 09:16:27.716816 22103 net.cpp:454] conv4 <- pool3
I0527 09:16:27.716830 22103 net.cpp:411] conv4 -> conv4
I0527 09:16:27.719589 22103 net.cpp:150] Setting up conv4
I0527 09:16:27.719619 22103 net.cpp:157] Top shape: 40 36 6 42 (362880)
I0527 09:16:27.719630 22103 net.cpp:165] Memory required for data: 60829280
I0527 09:16:27.719645 22103 layer_factory.hpp:77] Creating layer relu4
I0527 09:16:27.719660 22103 net.cpp:106] Creating Layer relu4
I0527 09:16:27.719669 22103 net.cpp:454] relu4 <- conv4
I0527 09:16:27.719682 22103 net.cpp:397] relu4 -> conv4 (in-place)
I0527 09:16:27.720157 22103 net.cpp:150] Setting up relu4
I0527 09:16:27.720173 22103 net.cpp:157] Top shape: 40 36 6 42 (362880)
I0527 09:16:27.720185 22103 net.cpp:165] Memory required for data: 62280800
I0527 09:16:27.720194 22103 layer_factory.hpp:77] Creating layer pool4
I0527 09:16:27.720207 22103 net.cpp:106] Creating Layer pool4
I0527 09:16:27.720217 22103 net.cpp:454] pool4 <- conv4
I0527 09:16:27.720230 22103 net.cpp:411] pool4 -> pool4
I0527 09:16:27.720298 22103 net.cpp:150] Setting up pool4
I0527 09:16:27.720311 22103 net.cpp:157] Top shape: 40 36 3 42 (181440)
I0527 09:16:27.720321 22103 net.cpp:165] Memory required for data: 63006560
I0527 09:16:27.720331 22103 layer_factory.hpp:77] Creating layer ip1
I0527 09:16:27.720350 22103 net.cpp:106] Creating Layer ip1
I0527 09:16:27.720360 22103 net.cpp:454] ip1 <- pool4
I0527 09:16:27.720373 22103 net.cpp:411] ip1 -> ip1
I0527 09:16:27.735821 22103 net.cpp:150] Setting up ip1
I0527 09:16:27.735849 22103 net.cpp:157] Top shape: 40 196 (7840)
I0527 09:16:27.735862 22103 net.cpp:165] Memory required for data: 63037920
I0527 09:16:27.735888 22103 layer_factory.hpp:77] Creating layer relu5
I0527 09:16:27.735903 22103 net.cpp:106] Creating Layer relu5
I0527 09:16:27.735913 22103 net.cpp:454] relu5 <- ip1
I0527 09:16:27.735926 22103 net.cpp:397] relu5 -> ip1 (in-place)
I0527 09:16:27.736268 22103 net.cpp:150] Setting up relu5
I0527 09:16:27.736281 22103 net.cpp:157] Top shape: 40 196 (7840)
I0527 09:16:27.736292 22103 net.cpp:165] Memory required for data: 63069280
I0527 09:16:27.736302 22103 layer_factory.hpp:77] Creating layer drop1
I0527 09:16:27.736325 22103 net.cpp:106] Creating Layer drop1
I0527 09:16:27.736335 22103 net.cpp:454] drop1 <- ip1
I0527 09:16:27.736347 22103 net.cpp:397] drop1 -> ip1 (in-place)
I0527 09:16:27.736407 22103 net.cpp:150] Setting up drop1
I0527 09:16:27.736420 22103 net.cpp:157] Top shape: 40 196 (7840)
I0527 09:16:27.736429 22103 net.cpp:165] Memory required for data: 63100640
I0527 09:16:27.736440 22103 layer_factory.hpp:77] Creating layer ip2
I0527 09:16:27.736459 22103 net.cpp:106] Creating Layer ip2
I0527 09:16:27.736469 22103 net.cpp:454] ip2 <- ip1
I0527 09:16:27.736481 22103 net.cpp:411] ip2 -> ip2
I0527 09:16:27.736942 22103 net.cpp:150] Setting up ip2
I0527 09:16:27.736955 22103 net.cpp:157] Top shape: 40 98 (3920)
I0527 09:16:27.736964 22103 net.cpp:165] Memory required for data: 63116320
I0527 09:16:27.736979 22103 layer_factory.hpp:77] Creating layer relu6
I0527 09:16:27.736992 22103 net.cpp:106] Creating Layer relu6
I0527 09:16:27.737001 22103 net.cpp:454] relu6 <- ip2
I0527 09:16:27.737013 22103 net.cpp:397] relu6 -> ip2 (in-place)
I0527 09:16:27.737532 22103 net.cpp:150] Setting up relu6
I0527 09:16:27.737548 22103 net.cpp:157] Top shape: 40 98 (3920)
I0527 09:16:27.737560 22103 net.cpp:165] Memory required for data: 63132000
I0527 09:16:27.737570 22103 layer_factory.hpp:77] Creating layer drop2
I0527 09:16:27.737582 22103 net.cpp:106] Creating Layer drop2
I0527 09:16:27.737591 22103 net.cpp:454] drop2 <- ip2
I0527 09:16:27.737604 22103 net.cpp:397] drop2 -> ip2 (in-place)
I0527 09:16:27.737648 22103 net.cpp:150] Setting up drop2
I0527 09:16:27.737660 22103 net.cpp:157] Top shape: 40 98 (3920)
I0527 09:16:27.737670 22103 net.cpp:165] Memory required for data: 63147680
I0527 09:16:27.737680 22103 layer_factory.hpp:77] Creating layer ip3
I0527 09:16:27.737694 22103 net.cpp:106] Creating Layer ip3
I0527 09:16:27.737704 22103 net.cpp:454] ip3 <- ip2
I0527 09:16:27.737716 22103 net.cpp:411] ip3 -> ip3
I0527 09:16:27.737927 22103 net.cpp:150] Setting up ip3
I0527 09:16:27.737941 22103 net.cpp:157] Top shape: 40 11 (440)
I0527 09:16:27.737951 22103 net.cpp:165] Memory required for data: 63149440
I0527 09:16:27.737965 22103 layer_factory.hpp:77] Creating layer drop3
I0527 09:16:27.737978 22103 net.cpp:106] Creating Layer drop3
I0527 09:16:27.737995 22103 net.cpp:454] drop3 <- ip3
I0527 09:16:27.738008 22103 net.cpp:397] drop3 -> ip3 (in-place)
I0527 09:16:27.738047 22103 net.cpp:150] Setting up drop3
I0527 09:16:27.738061 22103 net.cpp:157] Top shape: 40 11 (440)
I0527 09:16:27.738071 22103 net.cpp:165] Memory required for data: 63151200
I0527 09:16:27.738081 22103 layer_factory.hpp:77] Creating layer loss
I0527 09:16:27.738101 22103 net.cpp:106] Creating Layer loss
I0527 09:16:27.738109 22103 net.cpp:454] loss <- ip3
I0527 09:16:27.738121 22103 net.cpp:454] loss <- label
I0527 09:16:27.738133 22103 net.cpp:411] loss -> loss
I0527 09:16:27.738150 22103 layer_factory.hpp:77] Creating layer loss
…
I0527 09:16:27.740855 22103 solver.cpp:181] Creating test net (#0) specified by net file: /lustre/atlas/proj-shared/hep105/caffe_titan/caffe_workflow/logs_bslr/bs_40_lr_0.0020_2016-05-20T15.49.02.258271.prototxt
I0527 09:16:27.740926 22103 net.cpp:322] The NetState phase (1) differed from the phase (0) specified by a rule in layer data_hdf5
I0527 09:16:27.741282 22103 net.cpp:49] Initializing net from parameters: 
name: "caffe_test_127x50_x_unshifted"
state {
  phase: TEST
}
layer {
  name: "data_hdf5"
  type: "HDF5Data"
  top: "data"
  top: "label"
  include {
    phase: TEST
  }
  hdf5_data_param {
    source: "/lustre/atlas/proj-shared/hep105/caffe_titan/minosmatch_nukecczdefs_127x50_x_unshifted_me1Bmc.testlist"
    batch_size: 40
  }
}
layer {
  name: "conv1"
  type: "Convolution"
  bottom: "data"
  top: "conv1"
  convolution_param {
    num_output: 12
    pad: 0
    stride: 1
    weight_filler {
      type: "xavier"
    }
    bias_filler {
      type: "constant"
    }
    kernel_h: 8
    kernel_w: 3
  }
}
layer {
  name: "relu1"
  type: "ReLU"
  bottom: "conv1"
  top: "conv1"
}
layer {
  name: "pool1"
  type: "Pooling"
  bottom: "conv1"
  top: "pool1"
  pooling_param {
    pool: MAX
    kernel_h: 2
    kernel_w: 1
    stride_h: 2
    stride_w: 1
  }
}
layer {
  name: "conv2"
  type: "Convolution"
  bottom: "pool1"
  top: "conv2"
  convolution_param {
    num_output: 20
    pad: 0
    stride: 1
    weight_filler {
      type: "xavier"
    }
    bias_filler {
      type: "constant"
    }
    kernel_h: 7
    kernel_w: 3
  }
}
layer {
  name: "relu2"
  type: "ReLU"
  bottom: "conv2"
  top: "conv2"
}
layer {
  name: "pool2"
  type: "Pooling"
  bottom: "conv2"
  top: "pool2"
  pooling_param {
    pool: MAX
    kernel_h: 2
    kernel_w: 1
    stride_h: 2
    stride_w: 1
  }
}
layer {
  name: "conv3"
  type: "Convolution"
  bottom: "pool2"
  top: "conv3"
  convolution_param {
    num_output: 28
    pad: 0
    stride: 1
    weight_filler {
      type: "xavier"
    }
    bias_filler {
      type: "constant"
    }
    kernel_h: 6
    kernel_w: 3
  }
}
layer {
  name: "relu3"
  type: "ReLU"
  bottom: "conv3"
  top: "conv3"
}
layer {
  name: "pool3"
  type: "Pooling"
  bottom: "conv3"
  top: "pool3"
  pooling_param {
    pool: MAX
    kernel_h: 2
    kernel_w: 1
    stride_h: 2
    stride_w: 1
  }
}
layer {
  name: "conv4"
  type: "Convolution"
  bottom: "pool3"
  top: "conv4"
  convolution_param {
    num_output: 36
    pad: 0
    stride: 1
    weight_filler {
      type: "xavier"
    }
    bias_filler {
      type: "constant"
    }
    kernel_h: 6
    kernel_w: 3
  }
}
layer {
  name: "relu4"
  type: "ReLU"
  bottom: "conv4"
  top: "conv4"
}
layer {
  name: "pool4"
  type: "Pooling"
  bottom: "conv4"
  top: "pool4"
  pooling_param {
    pool: MAX
    kernel_h: 2
    kernel_w: 1
    stride_h: 2
    stride_w: 1
  }
}
layer {
  name: "ip1"
  type: "InnerProduct"
  bottom: "pool4"
  top: "ip1"
  inner_product_param {
    num_output: 196
    weight_filler {
      type: "xavier"
    }
    bias_filler {
      type: "constant"
    }
  }
}
layer {
  name: "relu5"
  type: "ReLU"
  bottom: "ip1"
  top: "ip1"
}
layer {
  name: "drop1"
  type: "Dropout"
  bottom: "ip1"
  top: "ip1"
  dropout_param {
    dropout_ratio: 0.5
  }
}
layer {
  name: "ip2"
  type: "InnerProduct"
  bottom: "ip1"
  top: "ip2"
  inner_product_param {
    num_output: 98
    weight_filler {
      type: "xavier"
    }
    bias_filler {
      type: "constant"
    }
  }
}
layer {
  name: "relu6"
  type: "ReLU"
  bottom: "ip2"
  top: "ip2"
}
layer {
  name: "drop2"
  type: "Dropout"
  bottom: "ip2"
  top: "ip2"
  dropout_param {
    dropout_ratio: 0.5
  }
}
layer {
  name: "ip3"
  type: "InnerProduct"
  bottom: "ip2"
  top: "ip3"
  inner_product_param {
    num_output: 11
    weight_filler {
      type: "xavier"
    }
    bias_filler {
      type: "constant"
    }
  }
}
layer {
  name: "drop3"
  type: "Dropout"
  bottom: "ip3"
  top: "ip3"
  dropout_param {
    dropout_ratio: 0.5
  }
}
layer {
  name: "accuracy"
  type: "Accuracy"
  bottom: "ip3"
  bottom: "label"
  top: "accuracy"
  include {
    phase: TEST
  }
}
layer {
  name: "loss"
  type: "SoftmaxWithLoss"
  bottom: "ip3"
  bottom: "label"
  top: "loss"
}
I0527 09:16:27.741472 22103 layer_factory.hpp:77] Creating layer data_hdf5
I0527 09:16:27.741487 22103 net.cpp:106] Creating Layer data_hdf5
I0527 09:16:27.741498 22103 net.cpp:411] data_hdf5 -> data
I0527 09:16:27.741515 22103 net.cpp:411] data_hdf5 -> label
I0527 09:16:27.741531 22103 hdf5_data_layer.cpp:79] Loading list of HDF5 filenames from: /lustre/atlas/proj-shared/hep105/caffe_titan/minosmatch_nukecczdefs_127x50_x_unshifted_me1Bmc.testlist
I0527 09:16:27.742892 22103 hdf5_data_layer.cpp:93] Number of HDF5 files: 3
I0527 09:16:49.153062 22103 net.cpp:150] Setting up data_hdf5
I0527 09:16:49.153228 22103 net.cpp:157] Top shape: 40 1 127 50 (254000)
I0527 09:16:49.153242 22103 net.cpp:157] Top shape: 40 (40)
I0527 09:16:49.153252 22103 net.cpp:165] Memory required for data: 1016160
I0527 09:16:49.153266 22103 layer_factory.hpp:77] Creating layer label_data_hdf5_1_split
I0527 09:16:49.153295 22103 net.cpp:106] Creating Layer label_data_hdf5_1_split
I0527 09:16:49.153306 22103 net.cpp:454] label_data_hdf5_1_split <- label
I0527 09:16:49.153321 22103 net.cpp:411] label_data_hdf5_1_split -> label_data_hdf5_1_split_0
I0527 09:16:49.153342 22103 net.cpp:411] label_data_hdf5_1_split -> label_data_hdf5_1_split_1
I0527 09:16:49.153414 22103 net.cpp:150] Setting up label_data_hdf5_1_split
I0527 09:16:49.153429 22103 net.cpp:157] Top shape: 40 (40)
I0527 09:16:49.153440 22103 net.cpp:157] Top shape: 40 (40)
I0527 09:16:49.153450 22103 net.cpp:165] Memory required for data: 1016480
I0527 09:16:49.153460 22103 layer_factory.hpp:77] Creating layer conv1
I0527 09:16:49.153483 22103 net.cpp:106] Creating Layer conv1
I0527 09:16:49.153493 22103 net.cpp:454] conv1 <- data
I0527 09:16:49.153508 22103 net.cpp:411] conv1 -> conv1
I0527 09:16:49.155517 22103 net.cpp:150] Setting up conv1
I0527 09:16:49.155541 22103 net.cpp:157] Top shape: 40 12 120 48 (2764800)
I0527 09:16:49.155551 22103 net.cpp:165] Memory required for data: 12075680
I0527 09:16:49.155575 22103 layer_factory.hpp:77] Creating layer relu1
I0527 09:16:49.155589 22103 net.cpp:106] Creating Layer relu1
I0527 09:16:49.155599 22103 net.cpp:454] relu1 <- conv1
I0527 09:16:49.155612 22103 net.cpp:397] relu1 -> conv1 (in-place)
I0527 09:16:49.156108 22103 net.cpp:150] Setting up relu1
I0527 09:16:49.156126 22103 net.cpp:157] Top shape: 40 12 120 48 (2764800)
I0527 09:16:49.156136 22103 net.cpp:165] Memory required for data: 23134880
I0527 09:16:49.156146 22103 layer_factory.hpp:77] Creating layer pool1
I0527 09:16:49.156162 22103 net.cpp:106] Creating Layer pool1
I0527 09:16:49.156172 22103 net.cpp:454] pool1 <- conv1
I0527 09:16:49.156185 22103 net.cpp:411] pool1 -> pool1
I0527 09:16:49.156260 22103 net.cpp:150] Setting up pool1
I0527 09:16:49.156272 22103 net.cpp:157] Top shape: 40 12 60 48 (1382400)
I0527 09:16:49.156282 22103 net.cpp:165] Memory required for data: 28664480
I0527 09:16:49.156293 22103 layer_factory.hpp:77] Creating layer conv2
I0527 09:16:49.156311 22103 net.cpp:106] Creating Layer conv2
I0527 09:16:49.156321 22103 net.cpp:454] conv2 <- pool1
I0527 09:16:49.156334 22103 net.cpp:411] conv2 -> conv2
I0527 09:16:49.158337 22103 net.cpp:150] Setting up conv2
I0527 09:16:49.158360 22103 net.cpp:157] Top shape: 40 20 54 46 (1987200)
I0527 09:16:49.158373 22103 net.cpp:165] Memory required for data: 36613280
I0527 09:16:49.158391 22103 layer_factory.hpp:77] Creating layer relu2
I0527 09:16:49.158406 22103 net.cpp:106] Creating Layer relu2
I0527 09:16:49.158416 22103 net.cpp:454] relu2 <- conv2
I0527 09:16:49.158427 22103 net.cpp:397] relu2 -> conv2 (in-place)
I0527 09:16:49.158758 22103 net.cpp:150] Setting up relu2
I0527 09:16:49.158772 22103 net.cpp:157] Top shape: 40 20 54 46 (1987200)
I0527 09:16:49.158782 22103 net.cpp:165] Memory required for data: 44562080
I0527 09:16:49.158793 22103 layer_factory.hpp:77] Creating layer pool2
I0527 09:16:49.158807 22103 net.cpp:106] Creating Layer pool2
I0527 09:16:49.158817 22103 net.cpp:454] pool2 <- conv2
I0527 09:16:49.158829 22103 net.cpp:411] pool2 -> pool2
I0527 09:16:49.158900 22103 net.cpp:150] Setting up pool2
I0527 09:16:49.158913 22103 net.cpp:157] Top shape: 40 20 27 46 (993600)
I0527 09:16:49.158923 22103 net.cpp:165] Memory required for data: 48536480
I0527 09:16:49.158933 22103 layer_factory.hpp:77] Creating layer conv3
I0527 09:16:49.158951 22103 net.cpp:106] Creating Layer conv3
I0527 09:16:49.158962 22103 net.cpp:454] conv3 <- pool2
I0527 09:16:49.158975 22103 net.cpp:411] conv3 -> conv3
I0527 09:16:49.160943 22103 net.cpp:150] Setting up conv3
I0527 09:16:49.160965 22103 net.cpp:157] Top shape: 40 28 22 44 (1084160)
I0527 09:16:49.160976 22103 net.cpp:165] Memory required for data: 52873120
I0527 09:16:49.161010 22103 layer_factory.hpp:77] Creating layer relu3
I0527 09:16:49.161023 22103 net.cpp:106] Creating Layer relu3
I0527 09:16:49.161033 22103 net.cpp:454] relu3 <- conv3
I0527 09:16:49.161046 22103 net.cpp:397] relu3 -> conv3 (in-place)
I0527 09:16:49.161519 22103 net.cpp:150] Setting up relu3
I0527 09:16:49.161535 22103 net.cpp:157] Top shape: 40 28 22 44 (1084160)
I0527 09:16:49.161545 22103 net.cpp:165] Memory required for data: 57209760
I0527 09:16:49.161556 22103 layer_factory.hpp:77] Creating layer pool3
I0527 09:16:49.161569 22103 net.cpp:106] Creating Layer pool3
I0527 09:16:49.161578 22103 net.cpp:454] pool3 <- conv3
I0527 09:16:49.161592 22103 net.cpp:411] pool3 -> pool3
I0527 09:16:49.161664 22103 net.cpp:150] Setting up pool3
I0527 09:16:49.161677 22103 net.cpp:157] Top shape: 40 28 11 44 (542080)
I0527 09:16:49.161686 22103 net.cpp:165] Memory required for data: 59378080
I0527 09:16:49.161696 22103 layer_factory.hpp:77] Creating layer conv4
I0527 09:16:49.161715 22103 net.cpp:106] Creating Layer conv4
I0527 09:16:49.161725 22103 net.cpp:454] conv4 <- pool3
I0527 09:16:49.161739 22103 net.cpp:411] conv4 -> conv4
I0527 09:16:49.163805 22103 net.cpp:150] Setting up conv4
I0527 09:16:49.163828 22103 net.cpp:157] Top shape: 40 36 6 42 (362880)
I0527 09:16:49.163838 22103 net.cpp:165] Memory required for data: 60829600
I0527 09:16:49.163854 22103 layer_factory.hpp:77] Creating layer relu4
I0527 09:16:49.163867 22103 net.cpp:106] Creating Layer relu4
I0527 09:16:49.163877 22103 net.cpp:454] relu4 <- conv4
I0527 09:16:49.163889 22103 net.cpp:397] relu4 -> conv4 (in-place)
I0527 09:16:49.164357 22103 net.cpp:150] Setting up relu4
I0527 09:16:49.164373 22103 net.cpp:157] Top shape: 40 36 6 42 (362880)
I0527 09:16:49.164383 22103 net.cpp:165] Memory required for data: 62281120
I0527 09:16:49.164394 22103 layer_factory.hpp:77] Creating layer pool4
I0527 09:16:49.164407 22103 net.cpp:106] Creating Layer pool4
I0527 09:16:49.164417 22103 net.cpp:454] pool4 <- conv4
I0527 09:16:49.164430 22103 net.cpp:411] pool4 -> pool4
I0527 09:16:49.164501 22103 net.cpp:150] Setting up pool4
I0527 09:16:49.164515 22103 net.cpp:157] Top shape: 40 36 3 42 (181440)
I0527 09:16:49.164525 22103 net.cpp:165] Memory required for data: 63006880
I0527 09:16:49.164535 22103 layer_factory.hpp:77] Creating layer ip1
I0527 09:16:49.164548 22103 net.cpp:106] Creating Layer ip1
I0527 09:16:49.164558 22103 net.cpp:454] ip1 <- pool4
I0527 09:16:49.164572 22103 net.cpp:411] ip1 -> ip1
I0527 09:16:49.179947 22103 net.cpp:150] Setting up ip1
I0527 09:16:49.179971 22103 net.cpp:157] Top shape: 40 196 (7840)
I0527 09:16:49.179981 22103 net.cpp:165] Memory required for data: 63038240
I0527 09:16:49.180003 22103 layer_factory.hpp:77] Creating layer relu5
I0527 09:16:49.180019 22103 net.cpp:106] Creating Layer relu5
I0527 09:16:49.180029 22103 net.cpp:454] relu5 <- ip1
I0527 09:16:49.180043 22103 net.cpp:397] relu5 -> ip1 (in-place)
I0527 09:16:49.180387 22103 net.cpp:150] Setting up relu5
I0527 09:16:49.180402 22103 net.cpp:157] Top shape: 40 196 (7840)
I0527 09:16:49.180411 22103 net.cpp:165] Memory required for data: 63069600
I0527 09:16:49.180421 22103 layer_factory.hpp:77] Creating layer drop1
I0527 09:16:49.180441 22103 net.cpp:106] Creating Layer drop1
I0527 09:16:49.180451 22103 net.cpp:454] drop1 <- ip1
I0527 09:16:49.180464 22103 net.cpp:397] drop1 -> ip1 (in-place)
I0527 09:16:49.180510 22103 net.cpp:150] Setting up drop1
I0527 09:16:49.180521 22103 net.cpp:157] Top shape: 40 196 (7840)
I0527 09:16:49.180531 22103 net.cpp:165] Memory required for data: 63100960
I0527 09:16:49.180541 22103 layer_factory.hpp:77] Creating layer ip2
I0527 09:16:49.180555 22103 net.cpp:106] Creating Layer ip2
I0527 09:16:49.180565 22103 net.cpp:454] ip2 <- ip1
I0527 09:16:49.180579 22103 net.cpp:411] ip2 -> ip2
I0527 09:16:49.181059 22103 net.cpp:150] Setting up ip2
I0527 09:16:49.181072 22103 net.cpp:157] Top shape: 40 98 (3920)
I0527 09:16:49.181082 22103 net.cpp:165] Memory required for data: 63116640
I0527 09:16:49.181097 22103 layer_factory.hpp:77] Creating layer relu6
I0527 09:16:49.181123 22103 net.cpp:106] Creating Layer relu6
I0527 09:16:49.181134 22103 net.cpp:454] relu6 <- ip2
I0527 09:16:49.181146 22103 net.cpp:397] relu6 -> ip2 (in-place)
I0527 09:16:49.181684 22103 net.cpp:150] Setting up relu6
I0527 09:16:49.181701 22103 net.cpp:157] Top shape: 40 98 (3920)
I0527 09:16:49.181710 22103 net.cpp:165] Memory required for data: 63132320
I0527 09:16:49.181720 22103 layer_factory.hpp:77] Creating layer drop2
I0527 09:16:49.181733 22103 net.cpp:106] Creating Layer drop2
I0527 09:16:49.181743 22103 net.cpp:454] drop2 <- ip2
I0527 09:16:49.181756 22103 net.cpp:397] drop2 -> ip2 (in-place)
I0527 09:16:49.181800 22103 net.cpp:150] Setting up drop2
I0527 09:16:49.181813 22103 net.cpp:157] Top shape: 40 98 (3920)
I0527 09:16:49.181823 22103 net.cpp:165] Memory required for data: 63148000
I0527 09:16:49.181833 22103 layer_factory.hpp:77] Creating layer ip3
I0527 09:16:49.181848 22103 net.cpp:106] Creating Layer ip3
I0527 09:16:49.181857 22103 net.cpp:454] ip3 <- ip2
I0527 09:16:49.181871 22103 net.cpp:411] ip3 -> ip3
I0527 09:16:49.182103 22103 net.cpp:150] Setting up ip3
I0527 09:16:49.182117 22103 net.cpp:157] Top shape: 40 11 (440)
I0527 09:16:49.182126 22103 net.cpp:165] Memory required for data: 63149760
I0527 09:16:49.182142 22103 layer_factory.hpp:77] Creating layer drop3
I0527 09:16:49.182155 22103 net.cpp:106] Creating Layer drop3
I0527 09:16:49.182165 22103 net.cpp:454] drop3 <- ip3
I0527 09:16:49.182178 22103 net.cpp:397] drop3 -> ip3 (in-place)
I0527 09:16:49.182219 22103 net.cpp:150] Setting up drop3
I0527 09:16:49.182232 22103 net.cpp:157] Top shape: 40 11 (440)
I0527 09:16:49.182241 22103 net.cpp:165] Memory required for data: 63151520
I0527 09:16:49.182251 22103 layer_factory.hpp:77] Creating layer ip3_drop3_0_split
I0527 09:16:49.182265 22103 net.cpp:106] Creating Layer ip3_drop3_0_split
I0527 09:16:49.182276 22103 net.cpp:454] ip3_drop3_0_split <- ip3
I0527 09:16:49.182288 22103 net.cpp:411] ip3_drop3_0_split -> ip3_drop3_0_split_0
I0527 09:16:49.182303 22103 net.cpp:411] ip3_drop3_0_split -> ip3_drop3_0_split_1
I0527 09:16:49.182379 22103 net.cpp:150] Setting up ip3_drop3_0_split
I0527 09:16:49.182391 22103 net.cpp:157] Top shape: 40 11 (440)
I0527 09:16:49.182404 22103 net.cpp:157] Top shape: 40 11 (440)
I0527 09:16:49.182413 22103 net.cpp:165] Memory required for data: 63155040
I0527 09:16:49.182422 22103 layer_factory.hpp:77] Creating layer accuracy
I0527 09:16:49.182443 22103 net.cpp:106] Creating Layer accuracy
I0527 09:16:49.182453 22103 net.cpp:454] accuracy <- ip3_drop3_0_split_0
I0527 09:16:49.182466 22103 net.cpp:454] accuracy <- label_data_hdf5_1_split_0
I0527 09:16:49.182478 22103 net.cpp:411] accuracy -> accuracy
…
