…
I0520 16:13:06.567344 25100 net.cpp:322] The NetState phase (0) differed from the phase (1) specified by a rule in layer data_hdf5
I0520 16:13:06.567404 25100 net.cpp:322] The NetState phase (0) differed from the phase (1) specified by a rule in layer accuracy
I0520 16:13:06.567760 25100 net.cpp:49] Initializing net from parameters: 
name: "caffe_test_127x50_x_unshifted"
state {
  phase: TRAIN
}
layer {
  name: "data_hdf5"
  type: "HDF5Data"
  top: "data"
  top: "label"
  include {
    phase: TRAIN
  }
  hdf5_data_param {
    source: "/lustre/atlas/proj-shared/hep105/caffe_titan/minosmatch_nukecczdefs_127x50_x_unshifted_me1Bmc.trainlist"
    batch_size: 40
  }
}
layer {
  name: "conv1"
  type: "Convolution"
  bottom: "data"
  top: "conv1"
  convolution_param {
    num_output: 12
    pad: 0
    stride: 1
    weight_filler {
      type: "xavier"
    }
    bias_filler {
      type: "constant"
    }
    kernel_h: 8
    kernel_w: 3
  }
}
layer {
  name: "relu1"
  type: "ReLU"
  bottom: "conv1"
  top: "conv1"
}
layer {
  name: "pool1"
  type: "Pooling"
  bottom: "conv1"
  top: "pool1"
  pooling_param {
    pool: MAX
    kernel_h: 2
    kernel_w: 1
    stride_h: 2
    stride_w: 1
  }
}
layer {
  name: "conv2"
  type: "Convolution"
  bottom: "pool1"
  top: "conv2"
  convolution_param {
    num_output: 20
    pad: 0
    stride: 1
    weight_filler {
      type: "xavier"
    }
    bias_filler {
      type: "constant"
    }
    kernel_h: 7
    kernel_w: 3
  }
}
layer {
  name: "relu2"
  type: "ReLU"
  bottom: "conv2"
  top: "conv2"
}
layer {
  name: "pool2"
  type: "Pooling"
  bottom: "conv2"
  top: "pool2"
  pooling_param {
    pool: MAX
    kernel_h: 2
    kernel_w: 1
    stride_h: 2
    stride_w: 1
  }
}
layer {
  name: "conv3"
  type: "Convolution"
  bottom: "pool2"
  top: "conv3"
  convolution_param {
    num_output: 28
    pad: 0
    stride: 1
    weight_filler {
      type: "xavier"
    }
    bias_filler {
      type: "constant"
    }
    kernel_h: 6
    kernel_w: 3
  }
}
layer {
  name: "relu3"
  type: "ReLU"
  bottom: "conv3"
  top: "conv3"
}
layer {
  name: "pool3"
  type: "Pooling"
  bottom: "conv3"
  top: "pool3"
  pooling_param {
    pool: MAX
    kernel_h: 2
    kernel_w: 1
    stride_h: 2
    stride_w: 1
  }
}
layer {
  name: "conv4"
  type: "Convolution"
  bottom: "pool3"
  top: "conv4"
  convolution_param {
    num_output: 36
    pad: 0
    stride: 1
    weight_filler {
      type: "xavier"
    }
    bias_filler {
      type: "constant"
    }
    kernel_h: 6
    kernel_w: 3
  }
}
layer {
  name: "relu4"
  type: "ReLU"
  bottom: "conv4"
  top: "conv4"
}
layer {
  name: "pool4"
  type: "Pooling"
  bottom: "conv4"
  top: "pool4"
  pooling_param {
    pool: MAX
    kernel_h: 2
    kernel_w: 1
    stride_h: 2
    stride_w: 1
  }
}
layer {
  name: "ip1"
  type: "InnerProduct"
  bottom: "pool4"
  top: "ip1"
  inner_product_param {
    num_output: 196
    weight_filler {
      type: "xavier"
    }
    bias_filler {
      type: "constant"
    }
  }
}
layer {
  name: "relu5"
  type: "ReLU"
  bottom: "ip1"
  top: "ip1"
}
layer {
  name: "drop1"
  type: "Dropout"
  bottom: "ip1"
  top: "ip1"
  dropout_param {
    dropout_ratio: 0.5
  }
}
layer {
  name: "ip2"
  type: "InnerProduct"
  bottom: "ip1"
  top: "ip2"
  inner_product_param {
    num_output: 98
    weight_filler {
      type: "xavier"
    }
    bias_filler {
      type: "constant"
    }
  }
}
layer {
  name: "relu6"
  type: "ReLU"
  bottom: "ip2"
  top: "ip2"
}
layer {
  name: "drop2"
  type: "Dropout"
  bottom: "ip2"
  top: "ip2"
  dropout_param {
    dropout_ratio: 0.5
  }
}
layer {
  name: "ip3"
  type: "InnerProduct"
  bottom: "ip2"
  top: "ip3"
  inner_product_param {
    num_output: 11
    weight_filler {
      type: "xavier"
    }
    bias_filler {
      type: "constant"
    }
  }
}
layer {
  name: "drop3"
  type: "Dropout"
  bottom: "ip3"
  top: "ip3"
  dropout_param {
    dropout_ratio: 0.5
  }
}
layer {
  name: "loss"
  type: "SoftmaxWithLoss"
  bottom: "ip3"
  bottom: "label"
  top: "loss"
}
I0520 16:13:06.567939 25100 layer_factory.hpp:77] Creating layer data_hdf5
I0520 16:13:06.567963 25100 net.cpp:106] Creating Layer data_hdf5
I0520 16:13:06.567977 25100 net.cpp:411] data_hdf5 -> data
I0520 16:13:06.568011 25100 net.cpp:411] data_hdf5 -> label
I0520 16:13:06.568044 25100 hdf5_data_layer.cpp:79] Loading list of HDF5 filenames from: /lustre/atlas/proj-shared/hep105/caffe_titan/minosmatch_nukecczdefs_127x50_x_unshifted_me1Bmc.trainlist
I0520 16:13:06.569402 25100 hdf5_data_layer.cpp:93] Number of HDF5 files: 15
I0520 16:13:06.571796 25100 hdf5.cpp:32] Datatype class: H5T_FLOAT
I0520 16:13:28.142680 25100 hdf5.cpp:35] Datatype class: H5T_INTEGER
I0520 16:13:28.147711 25100 net.cpp:150] Setting up data_hdf5
I0520 16:13:28.147750 25100 net.cpp:157] Top shape: 40 1 127 50 (254000)
I0520 16:13:28.147765 25100 net.cpp:157] Top shape: 40 (40)
I0520 16:13:28.147778 25100 net.cpp:165] Memory required for data: 1016160
I0520 16:13:28.147792 25100 layer_factory.hpp:77] Creating layer conv1
I0520 16:13:28.147826 25100 net.cpp:106] Creating Layer conv1
I0520 16:13:28.147837 25100 net.cpp:454] conv1 <- data
I0520 16:13:28.147860 25100 net.cpp:411] conv1 -> conv1
I0520 16:13:29.268195 25100 net.cpp:150] Setting up conv1
I0520 16:13:29.268241 25100 net.cpp:157] Top shape: 40 12 120 48 (2764800)
I0520 16:13:29.268252 25100 net.cpp:165] Memory required for data: 12075360
I0520 16:13:29.268282 25100 layer_factory.hpp:77] Creating layer relu1
I0520 16:13:29.268303 25100 net.cpp:106] Creating Layer relu1
I0520 16:13:29.268314 25100 net.cpp:454] relu1 <- conv1
I0520 16:13:29.268328 25100 net.cpp:397] relu1 -> conv1 (in-place)
I0520 16:13:29.268846 25100 net.cpp:150] Setting up relu1
I0520 16:13:29.268862 25100 net.cpp:157] Top shape: 40 12 120 48 (2764800)
I0520 16:13:29.268872 25100 net.cpp:165] Memory required for data: 23134560
I0520 16:13:29.268883 25100 layer_factory.hpp:77] Creating layer pool1
I0520 16:13:29.268899 25100 net.cpp:106] Creating Layer pool1
I0520 16:13:29.268909 25100 net.cpp:454] pool1 <- conv1
I0520 16:13:29.268923 25100 net.cpp:411] pool1 -> pool1
I0520 16:13:29.269002 25100 net.cpp:150] Setting up pool1
I0520 16:13:29.269016 25100 net.cpp:157] Top shape: 40 12 60 48 (1382400)
I0520 16:13:29.269026 25100 net.cpp:165] Memory required for data: 28664160
I0520 16:13:29.269037 25100 layer_factory.hpp:77] Creating layer conv2
I0520 16:13:29.269059 25100 net.cpp:106] Creating Layer conv2
I0520 16:13:29.269069 25100 net.cpp:454] conv2 <- pool1
I0520 16:13:29.269083 25100 net.cpp:411] conv2 -> conv2
I0520 16:13:29.271760 25100 net.cpp:150] Setting up conv2
I0520 16:13:29.271787 25100 net.cpp:157] Top shape: 40 20 54 46 (1987200)
I0520 16:13:29.271798 25100 net.cpp:165] Memory required for data: 36612960
I0520 16:13:29.271817 25100 layer_factory.hpp:77] Creating layer relu2
I0520 16:13:29.271831 25100 net.cpp:106] Creating Layer relu2
I0520 16:13:29.271842 25100 net.cpp:454] relu2 <- conv2
I0520 16:13:29.271854 25100 net.cpp:397] relu2 -> conv2 (in-place)
I0520 16:13:29.272183 25100 net.cpp:150] Setting up relu2
I0520 16:13:29.272197 25100 net.cpp:157] Top shape: 40 20 54 46 (1987200)
I0520 16:13:29.272208 25100 net.cpp:165] Memory required for data: 44561760
I0520 16:13:29.272218 25100 layer_factory.hpp:77] Creating layer pool2
I0520 16:13:29.272230 25100 net.cpp:106] Creating Layer pool2
I0520 16:13:29.272240 25100 net.cpp:454] pool2 <- conv2
I0520 16:13:29.272253 25100 net.cpp:411] pool2 -> pool2
I0520 16:13:29.272333 25100 net.cpp:150] Setting up pool2
I0520 16:13:29.272346 25100 net.cpp:157] Top shape: 40 20 27 46 (993600)
I0520 16:13:29.272356 25100 net.cpp:165] Memory required for data: 48536160
I0520 16:13:29.272364 25100 layer_factory.hpp:77] Creating layer conv3
I0520 16:13:29.272382 25100 net.cpp:106] Creating Layer conv3
I0520 16:13:29.272393 25100 net.cpp:454] conv3 <- pool2
I0520 16:13:29.272406 25100 net.cpp:411] conv3 -> conv3
I0520 16:13:29.274335 25100 net.cpp:150] Setting up conv3
I0520 16:13:29.274358 25100 net.cpp:157] Top shape: 40 28 22 44 (1084160)
I0520 16:13:29.274370 25100 net.cpp:165] Memory required for data: 52872800
I0520 16:13:29.274389 25100 layer_factory.hpp:77] Creating layer relu3
I0520 16:13:29.274405 25100 net.cpp:106] Creating Layer relu3
I0520 16:13:29.274415 25100 net.cpp:454] relu3 <- conv3
I0520 16:13:29.274426 25100 net.cpp:397] relu3 -> conv3 (in-place)
I0520 16:13:29.274894 25100 net.cpp:150] Setting up relu3
I0520 16:13:29.274911 25100 net.cpp:157] Top shape: 40 28 22 44 (1084160)
I0520 16:13:29.274921 25100 net.cpp:165] Memory required for data: 57209440
I0520 16:13:29.274932 25100 layer_factory.hpp:77] Creating layer pool3
I0520 16:13:29.274945 25100 net.cpp:106] Creating Layer pool3
I0520 16:13:29.274955 25100 net.cpp:454] pool3 <- conv3
I0520 16:13:29.274967 25100 net.cpp:411] pool3 -> pool3
I0520 16:13:29.275034 25100 net.cpp:150] Setting up pool3
I0520 16:13:29.275048 25100 net.cpp:157] Top shape: 40 28 11 44 (542080)
I0520 16:13:29.275058 25100 net.cpp:165] Memory required for data: 59377760
I0520 16:13:29.275065 25100 layer_factory.hpp:77] Creating layer conv4
I0520 16:13:29.275082 25100 net.cpp:106] Creating Layer conv4
I0520 16:13:29.275092 25100 net.cpp:454] conv4 <- pool3
I0520 16:13:29.275106 25100 net.cpp:411] conv4 -> conv4
I0520 16:13:29.277854 25100 net.cpp:150] Setting up conv4
I0520 16:13:29.277878 25100 net.cpp:157] Top shape: 40 36 6 42 (362880)
I0520 16:13:29.277887 25100 net.cpp:165] Memory required for data: 60829280
I0520 16:13:29.277904 25100 layer_factory.hpp:77] Creating layer relu4
I0520 16:13:29.277917 25100 net.cpp:106] Creating Layer relu4
I0520 16:13:29.277927 25100 net.cpp:454] relu4 <- conv4
I0520 16:13:29.277941 25100 net.cpp:397] relu4 -> conv4 (in-place)
I0520 16:13:29.278412 25100 net.cpp:150] Setting up relu4
I0520 16:13:29.278429 25100 net.cpp:157] Top shape: 40 36 6 42 (362880)
I0520 16:13:29.278439 25100 net.cpp:165] Memory required for data: 62280800
I0520 16:13:29.278450 25100 layer_factory.hpp:77] Creating layer pool4
I0520 16:13:29.278462 25100 net.cpp:106] Creating Layer pool4
I0520 16:13:29.278471 25100 net.cpp:454] pool4 <- conv4
I0520 16:13:29.278484 25100 net.cpp:411] pool4 -> pool4
I0520 16:13:29.278553 25100 net.cpp:150] Setting up pool4
I0520 16:13:29.278565 25100 net.cpp:157] Top shape: 40 36 3 42 (181440)
I0520 16:13:29.278576 25100 net.cpp:165] Memory required for data: 63006560
I0520 16:13:29.278586 25100 layer_factory.hpp:77] Creating layer ip1
I0520 16:13:29.278604 25100 net.cpp:106] Creating Layer ip1
I0520 16:13:29.278614 25100 net.cpp:454] ip1 <- pool4
I0520 16:13:29.278627 25100 net.cpp:411] ip1 -> ip1
I0520 16:13:29.294056 25100 net.cpp:150] Setting up ip1
I0520 16:13:29.294085 25100 net.cpp:157] Top shape: 40 196 (7840)
I0520 16:13:29.294097 25100 net.cpp:165] Memory required for data: 63037920
I0520 16:13:29.294119 25100 layer_factory.hpp:77] Creating layer relu5
I0520 16:13:29.294134 25100 net.cpp:106] Creating Layer relu5
I0520 16:13:29.294144 25100 net.cpp:454] relu5 <- ip1
I0520 16:13:29.294157 25100 net.cpp:397] relu5 -> ip1 (in-place)
I0520 16:13:29.294499 25100 net.cpp:150] Setting up relu5
I0520 16:13:29.294513 25100 net.cpp:157] Top shape: 40 196 (7840)
I0520 16:13:29.294524 25100 net.cpp:165] Memory required for data: 63069280
I0520 16:13:29.294534 25100 layer_factory.hpp:77] Creating layer drop1
I0520 16:13:29.294556 25100 net.cpp:106] Creating Layer drop1
I0520 16:13:29.294566 25100 net.cpp:454] drop1 <- ip1
I0520 16:13:29.294579 25100 net.cpp:397] drop1 -> ip1 (in-place)
I0520 16:13:29.294637 25100 net.cpp:150] Setting up drop1
I0520 16:13:29.294651 25100 net.cpp:157] Top shape: 40 196 (7840)
I0520 16:13:29.294661 25100 net.cpp:165] Memory required for data: 63100640
I0520 16:13:29.294670 25100 layer_factory.hpp:77] Creating layer ip2
I0520 16:13:29.294688 25100 net.cpp:106] Creating Layer ip2
I0520 16:13:29.294699 25100 net.cpp:454] ip2 <- ip1
I0520 16:13:29.294713 25100 net.cpp:411] ip2 -> ip2
I0520 16:13:29.295176 25100 net.cpp:150] Setting up ip2
I0520 16:13:29.295188 25100 net.cpp:157] Top shape: 40 98 (3920)
I0520 16:13:29.295198 25100 net.cpp:165] Memory required for data: 63116320
I0520 16:13:29.295213 25100 layer_factory.hpp:77] Creating layer relu6
I0520 16:13:29.295227 25100 net.cpp:106] Creating Layer relu6
I0520 16:13:29.295235 25100 net.cpp:454] relu6 <- ip2
I0520 16:13:29.295248 25100 net.cpp:397] relu6 -> ip2 (in-place)
I0520 16:13:29.295769 25100 net.cpp:150] Setting up relu6
I0520 16:13:29.295785 25100 net.cpp:157] Top shape: 40 98 (3920)
I0520 16:13:29.295795 25100 net.cpp:165] Memory required for data: 63132000
I0520 16:13:29.295805 25100 layer_factory.hpp:77] Creating layer drop2
I0520 16:13:29.295819 25100 net.cpp:106] Creating Layer drop2
I0520 16:13:29.295828 25100 net.cpp:454] drop2 <- ip2
I0520 16:13:29.295841 25100 net.cpp:397] drop2 -> ip2 (in-place)
I0520 16:13:29.295883 25100 net.cpp:150] Setting up drop2
I0520 16:13:29.295897 25100 net.cpp:157] Top shape: 40 98 (3920)
I0520 16:13:29.295907 25100 net.cpp:165] Memory required for data: 63147680
I0520 16:13:29.295917 25100 layer_factory.hpp:77] Creating layer ip3
I0520 16:13:29.295931 25100 net.cpp:106] Creating Layer ip3
I0520 16:13:29.295940 25100 net.cpp:454] ip3 <- ip2
I0520 16:13:29.295953 25100 net.cpp:411] ip3 -> ip3
I0520 16:13:29.296165 25100 net.cpp:150] Setting up ip3
I0520 16:13:29.296177 25100 net.cpp:157] Top shape: 40 11 (440)
I0520 16:13:29.296187 25100 net.cpp:165] Memory required for data: 63149440
I0520 16:13:29.296202 25100 layer_factory.hpp:77] Creating layer drop3
I0520 16:13:29.296216 25100 net.cpp:106] Creating Layer drop3
I0520 16:13:29.296224 25100 net.cpp:454] drop3 <- ip3
I0520 16:13:29.296237 25100 net.cpp:397] drop3 -> ip3 (in-place)
I0520 16:13:29.296277 25100 net.cpp:150] Setting up drop3
I0520 16:13:29.296289 25100 net.cpp:157] Top shape: 40 11 (440)
I0520 16:13:29.296299 25100 net.cpp:165] Memory required for data: 63151200
I0520 16:13:29.296309 25100 layer_factory.hpp:77] Creating layer loss
I0520 16:13:29.296329 25100 net.cpp:106] Creating Layer loss
I0520 16:13:29.296339 25100 net.cpp:454] loss <- ip3
I0520 16:13:29.296349 25100 net.cpp:454] loss <- label
I0520 16:13:29.296361 25100 net.cpp:411] loss -> loss
I0520 16:13:29.296378 25100 layer_factory.hpp:77] Creating layer loss
…
I0520 16:13:29.298908 25100 solver.cpp:181] Creating test net (#0) specified by net file: /lustre/atlas/proj-shared/hep105/caffe_titan/caffe_workflow/logs_bslr/bs_40_lr_0.0015_2016-05-20T15.49.01.878706.prototxt
I0520 16:13:29.298980 25100 net.cpp:322] The NetState phase (1) differed from the phase (0) specified by a rule in layer data_hdf5
I0520 16:13:29.299335 25100 net.cpp:49] Initializing net from parameters: 
name: "caffe_test_127x50_x_unshifted"
state {
  phase: TEST
}
layer {
  name: "data_hdf5"
  type: "HDF5Data"
  top: "data"
  top: "label"
  include {
    phase: TEST
  }
  hdf5_data_param {
    source: "/lustre/atlas/proj-shared/hep105/caffe_titan/minosmatch_nukecczdefs_127x50_x_unshifted_me1Bmc.testlist"
    batch_size: 40
  }
}
layer {
  name: "conv1"
  type: "Convolution"
  bottom: "data"
  top: "conv1"
  convolution_param {
    num_output: 12
    pad: 0
    stride: 1
    weight_filler {
      type: "xavier"
    }
    bias_filler {
      type: "constant"
    }
    kernel_h: 8
    kernel_w: 3
  }
}
layer {
  name: "relu1"
  type: "ReLU"
  bottom: "conv1"
  top: "conv1"
}
layer {
  name: "pool1"
  type: "Pooling"
  bottom: "conv1"
  top: "pool1"
  pooling_param {
    pool: MAX
    kernel_h: 2
    kernel_w: 1
    stride_h: 2
    stride_w: 1
  }
}
layer {
  name: "conv2"
  type: "Convolution"
  bottom: "pool1"
  top: "conv2"
  convolution_param {
    num_output: 20
    pad: 0
    stride: 1
    weight_filler {
      type: "xavier"
    }
    bias_filler {
      type: "constant"
    }
    kernel_h: 7
    kernel_w: 3
  }
}
layer {
  name: "relu2"
  type: "ReLU"
  bottom: "conv2"
  top: "conv2"
}
layer {
  name: "pool2"
  type: "Pooling"
  bottom: "conv2"
  top: "pool2"
  pooling_param {
    pool: MAX
    kernel_h: 2
    kernel_w: 1
    stride_h: 2
    stride_w: 1
  }
}
layer {
  name: "conv3"
  type: "Convolution"
  bottom: "pool2"
  top: "conv3"
  convolution_param {
    num_output: 28
    pad: 0
    stride: 1
    weight_filler {
      type: "xavier"
    }
    bias_filler {
      type: "constant"
    }
    kernel_h: 6
    kernel_w: 3
  }
}
layer {
  name: "relu3"
  type: "ReLU"
  bottom: "conv3"
  top: "conv3"
}
layer {
  name: "pool3"
  type: "Pooling"
  bottom: "conv3"
  top: "pool3"
  pooling_param {
    pool: MAX
    kernel_h: 2
    kernel_w: 1
    stride_h: 2
    stride_w: 1
  }
}
layer {
  name: "conv4"
  type: "Convolution"
  bottom: "pool3"
  top: "conv4"
  convolution_param {
    num_output: 36
    pad: 0
    stride: 1
    weight_filler {
      type: "xavier"
    }
    bias_filler {
      type: "constant"
    }
    kernel_h: 6
    kernel_w: 3
  }
}
layer {
  name: "relu4"
  type: "ReLU"
  bottom: "conv4"
  top: "conv4"
}
layer {
  name: "pool4"
  type: "Pooling"
  bottom: "conv4"
  top: "pool4"
  pooling_param {
    pool: MAX
    kernel_h: 2
    kernel_w: 1
    stride_h: 2
    stride_w: 1
  }
}
layer {
  name: "ip1"
  type: "InnerProduct"
  bottom: "pool4"
  top: "ip1"
  inner_product_param {
    num_output: 196
    weight_filler {
      type: "xavier"
    }
    bias_filler {
      type: "constant"
    }
  }
}
layer {
  name: "relu5"
  type: "ReLU"
  bottom: "ip1"
  top: "ip1"
}
layer {
  name: "drop1"
  type: "Dropout"
  bottom: "ip1"
  top: "ip1"
  dropout_param {
    dropout_ratio: 0.5
  }
}
layer {
  name: "ip2"
  type: "InnerProduct"
  bottom: "ip1"
  top: "ip2"
  inner_product_param {
    num_output: 98
    weight_filler {
      type: "xavier"
    }
    bias_filler {
      type: "constant"
    }
  }
}
layer {
  name: "relu6"
  type: "ReLU"
  bottom: "ip2"
  top: "ip2"
}
layer {
  name: "drop2"
  type: "Dropout"
  bottom: "ip2"
  top: "ip2"
  dropout_param {
    dropout_ratio: 0.5
  }
}
layer {
  name: "ip3"
  type: "InnerProduct"
  bottom: "ip2"
  top: "ip3"
  inner_product_param {
    num_output: 11
    weight_filler {
      type: "xavier"
    }
    bias_filler {
      type: "constant"
    }
  }
}
layer {
  name: "drop3"
  type: "Dropout"
  bottom: "ip3"
  top: "ip3"
  dropout_param {
    dropout_ratio: 0.5
  }
}
layer {
  name: "accuracy"
  type: "Accuracy"
  bottom: "ip3"
  bottom: "label"
  top: "accuracy"
  include {
    phase: TEST
  }
}
layer {
  name: "loss"
  type: "SoftmaxWithLoss"
  bottom: "ip3"
  bottom: "label"
  top: "loss"
}
I0520 16:13:29.299523 25100 layer_factory.hpp:77] Creating layer data_hdf5
I0520 16:13:29.299538 25100 net.cpp:106] Creating Layer data_hdf5
I0520 16:13:29.299551 25100 net.cpp:411] data_hdf5 -> data
I0520 16:13:29.299567 25100 net.cpp:411] data_hdf5 -> label
I0520 16:13:29.299583 25100 hdf5_data_layer.cpp:79] Loading list of HDF5 filenames from: /lustre/atlas/proj-shared/hep105/caffe_titan/minosmatch_nukecczdefs_127x50_x_unshifted_me1Bmc.testlist
I0520 16:13:29.300743 25100 hdf5_data_layer.cpp:93] Number of HDF5 files: 3
I0520 16:13:50.625139 25100 net.cpp:150] Setting up data_hdf5
I0520 16:13:50.625316 25100 net.cpp:157] Top shape: 40 1 127 50 (254000)
I0520 16:13:50.625330 25100 net.cpp:157] Top shape: 40 (40)
I0520 16:13:50.625344 25100 net.cpp:165] Memory required for data: 1016160
I0520 16:13:50.625356 25100 layer_factory.hpp:77] Creating layer label_data_hdf5_1_split
I0520 16:13:50.625385 25100 net.cpp:106] Creating Layer label_data_hdf5_1_split
I0520 16:13:50.625396 25100 net.cpp:454] label_data_hdf5_1_split <- label
I0520 16:13:50.625411 25100 net.cpp:411] label_data_hdf5_1_split -> label_data_hdf5_1_split_0
I0520 16:13:50.625432 25100 net.cpp:411] label_data_hdf5_1_split -> label_data_hdf5_1_split_1
I0520 16:13:50.625505 25100 net.cpp:150] Setting up label_data_hdf5_1_split
I0520 16:13:50.625519 25100 net.cpp:157] Top shape: 40 (40)
I0520 16:13:50.625531 25100 net.cpp:157] Top shape: 40 (40)
I0520 16:13:50.625538 25100 net.cpp:165] Memory required for data: 1016480
I0520 16:13:50.625548 25100 layer_factory.hpp:77] Creating layer conv1
I0520 16:13:50.625568 25100 net.cpp:106] Creating Layer conv1
I0520 16:13:50.625579 25100 net.cpp:454] conv1 <- data
I0520 16:13:50.625593 25100 net.cpp:411] conv1 -> conv1
I0520 16:13:50.627504 25100 net.cpp:150] Setting up conv1
I0520 16:13:50.627528 25100 net.cpp:157] Top shape: 40 12 120 48 (2764800)
I0520 16:13:50.627539 25100 net.cpp:165] Memory required for data: 12075680
I0520 16:13:50.627560 25100 layer_factory.hpp:77] Creating layer relu1
I0520 16:13:50.627575 25100 net.cpp:106] Creating Layer relu1
I0520 16:13:50.627585 25100 net.cpp:454] relu1 <- conv1
I0520 16:13:50.627599 25100 net.cpp:397] relu1 -> conv1 (in-place)
I0520 16:13:50.628108 25100 net.cpp:150] Setting up relu1
I0520 16:13:50.628123 25100 net.cpp:157] Top shape: 40 12 120 48 (2764800)
I0520 16:13:50.628134 25100 net.cpp:165] Memory required for data: 23134880
I0520 16:13:50.628144 25100 layer_factory.hpp:77] Creating layer pool1
I0520 16:13:50.628160 25100 net.cpp:106] Creating Layer pool1
I0520 16:13:50.628170 25100 net.cpp:454] pool1 <- conv1
I0520 16:13:50.628183 25100 net.cpp:411] pool1 -> pool1
I0520 16:13:50.628258 25100 net.cpp:150] Setting up pool1
I0520 16:13:50.628271 25100 net.cpp:157] Top shape: 40 12 60 48 (1382400)
I0520 16:13:50.628281 25100 net.cpp:165] Memory required for data: 28664480
I0520 16:13:50.628289 25100 layer_factory.hpp:77] Creating layer conv2
I0520 16:13:50.628307 25100 net.cpp:106] Creating Layer conv2
I0520 16:13:50.628319 25100 net.cpp:454] conv2 <- pool1
I0520 16:13:50.628332 25100 net.cpp:411] conv2 -> conv2
I0520 16:13:50.630231 25100 net.cpp:150] Setting up conv2
I0520 16:13:50.630254 25100 net.cpp:157] Top shape: 40 20 54 46 (1987200)
I0520 16:13:50.630265 25100 net.cpp:165] Memory required for data: 36613280
I0520 16:13:50.630283 25100 layer_factory.hpp:77] Creating layer relu2
I0520 16:13:50.630296 25100 net.cpp:106] Creating Layer relu2
I0520 16:13:50.630306 25100 net.cpp:454] relu2 <- conv2
I0520 16:13:50.630318 25100 net.cpp:397] relu2 -> conv2 (in-place)
I0520 16:13:50.630648 25100 net.cpp:150] Setting up relu2
I0520 16:13:50.630662 25100 net.cpp:157] Top shape: 40 20 54 46 (1987200)
I0520 16:13:50.630672 25100 net.cpp:165] Memory required for data: 44562080
I0520 16:13:50.630682 25100 layer_factory.hpp:77] Creating layer pool2
I0520 16:13:50.630697 25100 net.cpp:106] Creating Layer pool2
I0520 16:13:50.630707 25100 net.cpp:454] pool2 <- conv2
I0520 16:13:50.630720 25100 net.cpp:411] pool2 -> pool2
I0520 16:13:50.630792 25100 net.cpp:150] Setting up pool2
I0520 16:13:50.630805 25100 net.cpp:157] Top shape: 40 20 27 46 (993600)
I0520 16:13:50.630815 25100 net.cpp:165] Memory required for data: 48536480
I0520 16:13:50.630825 25100 layer_factory.hpp:77] Creating layer conv3
I0520 16:13:50.630843 25100 net.cpp:106] Creating Layer conv3
I0520 16:13:50.630854 25100 net.cpp:454] conv3 <- pool2
I0520 16:13:50.630867 25100 net.cpp:411] conv3 -> conv3
I0520 16:13:50.632839 25100 net.cpp:150] Setting up conv3
I0520 16:13:50.632863 25100 net.cpp:157] Top shape: 40 28 22 44 (1084160)
I0520 16:13:50.632874 25100 net.cpp:165] Memory required for data: 52873120
I0520 16:13:50.632907 25100 layer_factory.hpp:77] Creating layer relu3
I0520 16:13:50.632920 25100 net.cpp:106] Creating Layer relu3
I0520 16:13:50.632931 25100 net.cpp:454] relu3 <- conv3
I0520 16:13:50.632943 25100 net.cpp:397] relu3 -> conv3 (in-place)
I0520 16:13:50.633415 25100 net.cpp:150] Setting up relu3
I0520 16:13:50.633431 25100 net.cpp:157] Top shape: 40 28 22 44 (1084160)
I0520 16:13:50.633441 25100 net.cpp:165] Memory required for data: 57209760
I0520 16:13:50.633451 25100 layer_factory.hpp:77] Creating layer pool3
I0520 16:13:50.633465 25100 net.cpp:106] Creating Layer pool3
I0520 16:13:50.633474 25100 net.cpp:454] pool3 <- conv3
I0520 16:13:50.633486 25100 net.cpp:411] pool3 -> pool3
I0520 16:13:50.633558 25100 net.cpp:150] Setting up pool3
I0520 16:13:50.633571 25100 net.cpp:157] Top shape: 40 28 11 44 (542080)
I0520 16:13:50.633581 25100 net.cpp:165] Memory required for data: 59378080
I0520 16:13:50.633591 25100 layer_factory.hpp:77] Creating layer conv4
I0520 16:13:50.633610 25100 net.cpp:106] Creating Layer conv4
I0520 16:13:50.633620 25100 net.cpp:454] conv4 <- pool3
I0520 16:13:50.633635 25100 net.cpp:411] conv4 -> conv4
I0520 16:13:50.635692 25100 net.cpp:150] Setting up conv4
I0520 16:13:50.635715 25100 net.cpp:157] Top shape: 40 36 6 42 (362880)
I0520 16:13:50.635727 25100 net.cpp:165] Memory required for data: 60829600
I0520 16:13:50.635742 25100 layer_factory.hpp:77] Creating layer relu4
I0520 16:13:50.635756 25100 net.cpp:106] Creating Layer relu4
I0520 16:13:50.635766 25100 net.cpp:454] relu4 <- conv4
I0520 16:13:50.635778 25100 net.cpp:397] relu4 -> conv4 (in-place)
I0520 16:13:50.636252 25100 net.cpp:150] Setting up relu4
I0520 16:13:50.636268 25100 net.cpp:157] Top shape: 40 36 6 42 (362880)
I0520 16:13:50.636278 25100 net.cpp:165] Memory required for data: 62281120
I0520 16:13:50.636288 25100 layer_factory.hpp:77] Creating layer pool4
I0520 16:13:50.636301 25100 net.cpp:106] Creating Layer pool4
I0520 16:13:50.636312 25100 net.cpp:454] pool4 <- conv4
I0520 16:13:50.636324 25100 net.cpp:411] pool4 -> pool4
I0520 16:13:50.636394 25100 net.cpp:150] Setting up pool4
I0520 16:13:50.636407 25100 net.cpp:157] Top shape: 40 36 3 42 (181440)
I0520 16:13:50.636417 25100 net.cpp:165] Memory required for data: 63006880
I0520 16:13:50.636427 25100 layer_factory.hpp:77] Creating layer ip1
I0520 16:13:50.636442 25100 net.cpp:106] Creating Layer ip1
I0520 16:13:50.636452 25100 net.cpp:454] ip1 <- pool4
I0520 16:13:50.636466 25100 net.cpp:411] ip1 -> ip1
I0520 16:13:50.651923 25100 net.cpp:150] Setting up ip1
I0520 16:13:50.651950 25100 net.cpp:157] Top shape: 40 196 (7840)
I0520 16:13:50.651963 25100 net.cpp:165] Memory required for data: 63038240
I0520 16:13:50.651984 25100 layer_factory.hpp:77] Creating layer relu5
I0520 16:13:50.651999 25100 net.cpp:106] Creating Layer relu5
I0520 16:13:50.652010 25100 net.cpp:454] relu5 <- ip1
I0520 16:13:50.652024 25100 net.cpp:397] relu5 -> ip1 (in-place)
I0520 16:13:50.652370 25100 net.cpp:150] Setting up relu5
I0520 16:13:50.652384 25100 net.cpp:157] Top shape: 40 196 (7840)
I0520 16:13:50.652395 25100 net.cpp:165] Memory required for data: 63069600
I0520 16:13:50.652405 25100 layer_factory.hpp:77] Creating layer drop1
I0520 16:13:50.652423 25100 net.cpp:106] Creating Layer drop1
I0520 16:13:50.652432 25100 net.cpp:454] drop1 <- ip1
I0520 16:13:50.652446 25100 net.cpp:397] drop1 -> ip1 (in-place)
I0520 16:13:50.652492 25100 net.cpp:150] Setting up drop1
I0520 16:13:50.652503 25100 net.cpp:157] Top shape: 40 196 (7840)
I0520 16:13:50.652513 25100 net.cpp:165] Memory required for data: 63100960
I0520 16:13:50.652523 25100 layer_factory.hpp:77] Creating layer ip2
I0520 16:13:50.652537 25100 net.cpp:106] Creating Layer ip2
I0520 16:13:50.652547 25100 net.cpp:454] ip2 <- ip1
I0520 16:13:50.652560 25100 net.cpp:411] ip2 -> ip2
I0520 16:13:50.653038 25100 net.cpp:150] Setting up ip2
I0520 16:13:50.653051 25100 net.cpp:157] Top shape: 40 98 (3920)
I0520 16:13:50.653061 25100 net.cpp:165] Memory required for data: 63116640
I0520 16:13:50.653076 25100 layer_factory.hpp:77] Creating layer relu6
I0520 16:13:50.653101 25100 net.cpp:106] Creating Layer relu6
I0520 16:13:50.653111 25100 net.cpp:454] relu6 <- ip2
I0520 16:13:50.653125 25100 net.cpp:397] relu6 -> ip2 (in-place)
I0520 16:13:50.653657 25100 net.cpp:150] Setting up relu6
I0520 16:13:50.653673 25100 net.cpp:157] Top shape: 40 98 (3920)
I0520 16:13:50.653683 25100 net.cpp:165] Memory required for data: 63132320
I0520 16:13:50.653692 25100 layer_factory.hpp:77] Creating layer drop2
I0520 16:13:50.653705 25100 net.cpp:106] Creating Layer drop2
I0520 16:13:50.653715 25100 net.cpp:454] drop2 <- ip2
I0520 16:13:50.653728 25100 net.cpp:397] drop2 -> ip2 (in-place)
I0520 16:13:50.653771 25100 net.cpp:150] Setting up drop2
I0520 16:13:50.653784 25100 net.cpp:157] Top shape: 40 98 (3920)
I0520 16:13:50.653795 25100 net.cpp:165] Memory required for data: 63148000
I0520 16:13:50.653803 25100 layer_factory.hpp:77] Creating layer ip3
I0520 16:13:50.653818 25100 net.cpp:106] Creating Layer ip3
I0520 16:13:50.653828 25100 net.cpp:454] ip3 <- ip2
I0520 16:13:50.653841 25100 net.cpp:411] ip3 -> ip3
I0520 16:13:50.654063 25100 net.cpp:150] Setting up ip3
I0520 16:13:50.654076 25100 net.cpp:157] Top shape: 40 11 (440)
I0520 16:13:50.654086 25100 net.cpp:165] Memory required for data: 63149760
I0520 16:13:50.654101 25100 layer_factory.hpp:77] Creating layer drop3
I0520 16:13:50.654114 25100 net.cpp:106] Creating Layer drop3
I0520 16:13:50.654124 25100 net.cpp:454] drop3 <- ip3
I0520 16:13:50.654136 25100 net.cpp:397] drop3 -> ip3 (in-place)
I0520 16:13:50.654177 25100 net.cpp:150] Setting up drop3
I0520 16:13:50.654189 25100 net.cpp:157] Top shape: 40 11 (440)
I0520 16:13:50.654199 25100 net.cpp:165] Memory required for data: 63151520
I0520 16:13:50.654208 25100 layer_factory.hpp:77] Creating layer ip3_drop3_0_split
I0520 16:13:50.654222 25100 net.cpp:106] Creating Layer ip3_drop3_0_split
I0520 16:13:50.654232 25100 net.cpp:454] ip3_drop3_0_split <- ip3
I0520 16:13:50.654244 25100 net.cpp:411] ip3_drop3_0_split -> ip3_drop3_0_split_0
I0520 16:13:50.654258 25100 net.cpp:411] ip3_drop3_0_split -> ip3_drop3_0_split_1
I0520 16:13:50.654332 25100 net.cpp:150] Setting up ip3_drop3_0_split
I0520 16:13:50.654345 25100 net.cpp:157] Top shape: 40 11 (440)
I0520 16:13:50.654358 25100 net.cpp:157] Top shape: 40 11 (440)
I0520 16:13:50.654368 25100 net.cpp:165] Memory required for data: 63155040
I0520 16:13:50.654378 25100 layer_factory.hpp:77] Creating layer accuracy
I0520 16:13:50.654399 25100 net.cpp:106] Creating Layer accuracy
I0520 16:13:50.654409 25100 net.cpp:454] accuracy <- ip3_drop3_0_split_0
I0520 16:13:50.654420 25100 net.cpp:454] accuracy <- label_data_hdf5_1_split_0
I0520 16:13:50.654434 25100 net.cpp:411] accuracy -> accuracy
…
