…
I0522 21:52:08.322927  1275 net.cpp:322] The NetState phase (0) differed from the phase (1) specified by a rule in layer data_hdf5
I0522 21:52:08.322986  1275 net.cpp:322] The NetState phase (0) differed from the phase (1) specified by a rule in layer accuracy
I0522 21:52:08.323334  1275 net.cpp:49] Initializing net from parameters: 
name: "caffe_test_127x50_x_unshifted"
state {
  phase: TRAIN
}
layer {
  name: "data_hdf5"
  type: "HDF5Data"
  top: "data"
  top: "label"
  include {
    phase: TRAIN
  }
  hdf5_data_param {
    source: "/lustre/atlas/proj-shared/hep105/caffe_titan/minosmatch_nukecczdefs_127x50_x_unshifted_me1Bmc.trainlist"
    batch_size: 40
  }
}
layer {
  name: "conv1"
  type: "Convolution"
  bottom: "data"
  top: "conv1"
  convolution_param {
    num_output: 12
    pad: 0
    stride: 1
    weight_filler {
      type: "xavier"
    }
    bias_filler {
      type: "constant"
    }
    kernel_h: 8
    kernel_w: 3
  }
}
layer {
  name: "relu1"
  type: "ReLU"
  bottom: "conv1"
  top: "conv1"
}
layer {
  name: "pool1"
  type: "Pooling"
  bottom: "conv1"
  top: "pool1"
  pooling_param {
    pool: MAX
    kernel_h: 2
    kernel_w: 1
    stride_h: 2
    stride_w: 1
  }
}
layer {
  name: "conv2"
  type: "Convolution"
  bottom: "pool1"
  top: "conv2"
  convolution_param {
    num_output: 20
    pad: 0
    stride: 1
    weight_filler {
      type: "xavier"
    }
    bias_filler {
      type: "constant"
    }
    kernel_h: 7
    kernel_w: 3
  }
}
layer {
  name: "relu2"
  type: "ReLU"
  bottom: "conv2"
  top: "conv2"
}
layer {
  name: "pool2"
  type: "Pooling"
  bottom: "conv2"
  top: "pool2"
  pooling_param {
    pool: MAX
    kernel_h: 2
    kernel_w: 1
    stride_h: 2
    stride_w: 1
  }
}
layer {
  name: "conv3"
  type: "Convolution"
  bottom: "pool2"
  top: "conv3"
  convolution_param {
    num_output: 28
    pad: 0
    stride: 1
    weight_filler {
      type: "xavier"
    }
    bias_filler {
      type: "constant"
    }
    kernel_h: 6
    kernel_w: 3
  }
}
layer {
  name: "relu3"
  type: "ReLU"
  bottom: "conv3"
  top: "conv3"
}
layer {
  name: "pool3"
  type: "Pooling"
  bottom: "conv3"
  top: "pool3"
  pooling_param {
    pool: MAX
    kernel_h: 2
    kernel_w: 1
    stride_h: 2
    stride_w: 1
  }
}
layer {
  name: "conv4"
  type: "Convolution"
  bottom: "pool3"
  top: "conv4"
  convolution_param {
    num_output: 36
    pad: 0
    stride: 1
    weight_filler {
      type: "xavier"
    }
    bias_filler {
      type: "constant"
    }
    kernel_h: 6
    kernel_w: 3
  }
}
layer {
  name: "relu4"
  type: "ReLU"
  bottom: "conv4"
  top: "conv4"
}
layer {
  name: "pool4"
  type: "Pooling"
  bottom: "conv4"
  top: "pool4"
  pooling_param {
    pool: MAX
    kernel_h: 2
    kernel_w: 1
    stride_h: 2
    stride_w: 1
  }
}
layer {
  name: "ip1"
  type: "InnerProduct"
  bottom: "pool4"
  top: "ip1"
  inner_product_param {
    num_output: 196
    weight_filler {
      type: "xavier"
    }
    bias_filler {
      type: "constant"
    }
  }
}
layer {
  name: "relu5"
  type: "ReLU"
  bottom: "ip1"
  top: "ip1"
}
layer {
  name: "drop1"
  type: "Dropout"
  bottom: "ip1"
  top: "ip1"
  dropout_param {
    dropout_ratio: 0.5
  }
}
layer {
  name: "ip2"
  type: "InnerProduct"
  bottom: "ip1"
  top: "ip2"
  inner_product_param {
    num_output: 98
    weight_filler {
      type: "xavier"
    }
    bias_filler {
      type: "constant"
    }
  }
}
layer {
  name: "relu6"
  type: "ReLU"
  bottom: "ip2"
  top: "ip2"
}
layer {
  name: "drop2"
  type: "Dropout"
  bottom: "ip2"
  top: "ip2"
  dropout_param {
    dropout_ratio: 0.5
  }
}
layer {
  name: "ip3"
  type: "InnerProduct"
  bottom: "ip2"
  top: "ip3"
  inner_product_param {
    num_output: 11
    weight_filler {
      type: "xavier"
    }
    bias_filler {
      type: "constant"
    }
  }
}
layer {
  name: "drop3"
  type: "Dropout"
  bottom: "ip3"
  top: "ip3"
  dropout_param {
    dropout_ratio: 0.5
  }
}
layer {
  name: "loss"
  type: "SoftmaxWithLoss"
  bottom: "ip3"
  bottom: "label"
  top: "loss"
}
I0522 21:52:08.323513  1275 layer_factory.hpp:77] Creating layer data_hdf5
I0522 21:52:08.323537  1275 net.cpp:106] Creating Layer data_hdf5
I0522 21:52:08.323552  1275 net.cpp:411] data_hdf5 -> data
I0522 21:52:08.323586  1275 net.cpp:411] data_hdf5 -> label
I0522 21:52:08.323618  1275 hdf5_data_layer.cpp:79] Loading list of HDF5 filenames from: /lustre/atlas/proj-shared/hep105/caffe_titan/minosmatch_nukecczdefs_127x50_x_unshifted_me1Bmc.trainlist
I0522 21:52:08.325065  1275 hdf5_data_layer.cpp:93] Number of HDF5 files: 15
I0522 21:52:08.327414  1275 hdf5.cpp:32] Datatype class: H5T_FLOAT
I0522 21:52:29.871217  1275 hdf5.cpp:35] Datatype class: H5T_INTEGER
I0522 21:52:29.876425  1275 net.cpp:150] Setting up data_hdf5
I0522 21:52:29.876467  1275 net.cpp:157] Top shape: 40 1 127 50 (254000)
I0522 21:52:29.876482  1275 net.cpp:157] Top shape: 40 (40)
I0522 21:52:29.876492  1275 net.cpp:165] Memory required for data: 1016160
I0522 21:52:29.876507  1275 layer_factory.hpp:77] Creating layer conv1
I0522 21:52:29.876540  1275 net.cpp:106] Creating Layer conv1
I0522 21:52:29.876552  1275 net.cpp:454] conv1 <- data
I0522 21:52:29.876575  1275 net.cpp:411] conv1 -> conv1
I0522 21:52:31.294308  1275 net.cpp:150] Setting up conv1
I0522 21:52:31.294355  1275 net.cpp:157] Top shape: 40 12 120 48 (2764800)
I0522 21:52:31.294366  1275 net.cpp:165] Memory required for data: 12075360
I0522 21:52:31.294396  1275 layer_factory.hpp:77] Creating layer relu1
I0522 21:52:31.294419  1275 net.cpp:106] Creating Layer relu1
I0522 21:52:31.294430  1275 net.cpp:454] relu1 <- conv1
I0522 21:52:31.294442  1275 net.cpp:397] relu1 -> conv1 (in-place)
I0522 21:52:31.294963  1275 net.cpp:150] Setting up relu1
I0522 21:52:31.294980  1275 net.cpp:157] Top shape: 40 12 120 48 (2764800)
I0522 21:52:31.294989  1275 net.cpp:165] Memory required for data: 23134560
I0522 21:52:31.295001  1275 layer_factory.hpp:77] Creating layer pool1
I0522 21:52:31.295017  1275 net.cpp:106] Creating Layer pool1
I0522 21:52:31.295027  1275 net.cpp:454] pool1 <- conv1
I0522 21:52:31.295039  1275 net.cpp:411] pool1 -> pool1
I0522 21:52:31.295120  1275 net.cpp:150] Setting up pool1
I0522 21:52:31.295133  1275 net.cpp:157] Top shape: 40 12 60 48 (1382400)
I0522 21:52:31.295143  1275 net.cpp:165] Memory required for data: 28664160
I0522 21:52:31.295155  1275 layer_factory.hpp:77] Creating layer conv2
I0522 21:52:31.295177  1275 net.cpp:106] Creating Layer conv2
I0522 21:52:31.295187  1275 net.cpp:454] conv2 <- pool1
I0522 21:52:31.295200  1275 net.cpp:411] conv2 -> conv2
I0522 21:52:31.297879  1275 net.cpp:150] Setting up conv2
I0522 21:52:31.297920  1275 net.cpp:157] Top shape: 40 20 54 46 (1987200)
I0522 21:52:31.297931  1275 net.cpp:165] Memory required for data: 36612960
I0522 21:52:31.297952  1275 layer_factory.hpp:77] Creating layer relu2
I0522 21:52:31.297966  1275 net.cpp:106] Creating Layer relu2
I0522 21:52:31.297976  1275 net.cpp:454] relu2 <- conv2
I0522 21:52:31.297987  1275 net.cpp:397] relu2 -> conv2 (in-place)
I0522 21:52:31.298319  1275 net.cpp:150] Setting up relu2
I0522 21:52:31.298333  1275 net.cpp:157] Top shape: 40 20 54 46 (1987200)
I0522 21:52:31.298343  1275 net.cpp:165] Memory required for data: 44561760
I0522 21:52:31.298353  1275 layer_factory.hpp:77] Creating layer pool2
I0522 21:52:31.298367  1275 net.cpp:106] Creating Layer pool2
I0522 21:52:31.298377  1275 net.cpp:454] pool2 <- conv2
I0522 21:52:31.298389  1275 net.cpp:411] pool2 -> pool2
I0522 21:52:31.298470  1275 net.cpp:150] Setting up pool2
I0522 21:52:31.298483  1275 net.cpp:157] Top shape: 40 20 27 46 (993600)
I0522 21:52:31.298493  1275 net.cpp:165] Memory required for data: 48536160
I0522 21:52:31.298503  1275 layer_factory.hpp:77] Creating layer conv3
I0522 21:52:31.298521  1275 net.cpp:106] Creating Layer conv3
I0522 21:52:31.298532  1275 net.cpp:454] conv3 <- pool2
I0522 21:52:31.298544  1275 net.cpp:411] conv3 -> conv3
I0522 21:52:31.300482  1275 net.cpp:150] Setting up conv3
I0522 21:52:31.300505  1275 net.cpp:157] Top shape: 40 28 22 44 (1084160)
I0522 21:52:31.300518  1275 net.cpp:165] Memory required for data: 52872800
I0522 21:52:31.300535  1275 layer_factory.hpp:77] Creating layer relu3
I0522 21:52:31.300552  1275 net.cpp:106] Creating Layer relu3
I0522 21:52:31.300562  1275 net.cpp:454] relu3 <- conv3
I0522 21:52:31.300575  1275 net.cpp:397] relu3 -> conv3 (in-place)
I0522 21:52:31.301043  1275 net.cpp:150] Setting up relu3
I0522 21:52:31.301060  1275 net.cpp:157] Top shape: 40 28 22 44 (1084160)
I0522 21:52:31.301070  1275 net.cpp:165] Memory required for data: 57209440
I0522 21:52:31.301081  1275 layer_factory.hpp:77] Creating layer pool3
I0522 21:52:31.301095  1275 net.cpp:106] Creating Layer pool3
I0522 21:52:31.301105  1275 net.cpp:454] pool3 <- conv3
I0522 21:52:31.301116  1275 net.cpp:411] pool3 -> pool3
I0522 21:52:31.301184  1275 net.cpp:150] Setting up pool3
I0522 21:52:31.301198  1275 net.cpp:157] Top shape: 40 28 11 44 (542080)
I0522 21:52:31.301208  1275 net.cpp:165] Memory required for data: 59377760
I0522 21:52:31.301216  1275 layer_factory.hpp:77] Creating layer conv4
I0522 21:52:31.301232  1275 net.cpp:106] Creating Layer conv4
I0522 21:52:31.301242  1275 net.cpp:454] conv4 <- pool3
I0522 21:52:31.301256  1275 net.cpp:411] conv4 -> conv4
I0522 21:52:31.304031  1275 net.cpp:150] Setting up conv4
I0522 21:52:31.304055  1275 net.cpp:157] Top shape: 40 36 6 42 (362880)
I0522 21:52:31.304065  1275 net.cpp:165] Memory required for data: 60829280
I0522 21:52:31.304080  1275 layer_factory.hpp:77] Creating layer relu4
I0522 21:52:31.304095  1275 net.cpp:106] Creating Layer relu4
I0522 21:52:31.304105  1275 net.cpp:454] relu4 <- conv4
I0522 21:52:31.304118  1275 net.cpp:397] relu4 -> conv4 (in-place)
I0522 21:52:31.304589  1275 net.cpp:150] Setting up relu4
I0522 21:52:31.304605  1275 net.cpp:157] Top shape: 40 36 6 42 (362880)
I0522 21:52:31.304615  1275 net.cpp:165] Memory required for data: 62280800
I0522 21:52:31.304625  1275 layer_factory.hpp:77] Creating layer pool4
I0522 21:52:31.304638  1275 net.cpp:106] Creating Layer pool4
I0522 21:52:31.304648  1275 net.cpp:454] pool4 <- conv4
I0522 21:52:31.304661  1275 net.cpp:411] pool4 -> pool4
I0522 21:52:31.304729  1275 net.cpp:150] Setting up pool4
I0522 21:52:31.304744  1275 net.cpp:157] Top shape: 40 36 3 42 (181440)
I0522 21:52:31.304754  1275 net.cpp:165] Memory required for data: 63006560
I0522 21:52:31.304764  1275 layer_factory.hpp:77] Creating layer ip1
I0522 21:52:31.304785  1275 net.cpp:106] Creating Layer ip1
I0522 21:52:31.304795  1275 net.cpp:454] ip1 <- pool4
I0522 21:52:31.304807  1275 net.cpp:411] ip1 -> ip1
I0522 21:52:31.320253  1275 net.cpp:150] Setting up ip1
I0522 21:52:31.320283  1275 net.cpp:157] Top shape: 40 196 (7840)
I0522 21:52:31.320296  1275 net.cpp:165] Memory required for data: 63037920
I0522 21:52:31.320318  1275 layer_factory.hpp:77] Creating layer relu5
I0522 21:52:31.320333  1275 net.cpp:106] Creating Layer relu5
I0522 21:52:31.320343  1275 net.cpp:454] relu5 <- ip1
I0522 21:52:31.320358  1275 net.cpp:397] relu5 -> ip1 (in-place)
I0522 21:52:31.320699  1275 net.cpp:150] Setting up relu5
I0522 21:52:31.320713  1275 net.cpp:157] Top shape: 40 196 (7840)
I0522 21:52:31.320724  1275 net.cpp:165] Memory required for data: 63069280
I0522 21:52:31.320734  1275 layer_factory.hpp:77] Creating layer drop1
I0522 21:52:31.320756  1275 net.cpp:106] Creating Layer drop1
I0522 21:52:31.320767  1275 net.cpp:454] drop1 <- ip1
I0522 21:52:31.320780  1275 net.cpp:397] drop1 -> ip1 (in-place)
I0522 21:52:31.320839  1275 net.cpp:150] Setting up drop1
I0522 21:52:31.320852  1275 net.cpp:157] Top shape: 40 196 (7840)
I0522 21:52:31.320863  1275 net.cpp:165] Memory required for data: 63100640
I0522 21:52:31.320873  1275 layer_factory.hpp:77] Creating layer ip2
I0522 21:52:31.320893  1275 net.cpp:106] Creating Layer ip2
I0522 21:52:31.320902  1275 net.cpp:454] ip2 <- ip1
I0522 21:52:31.320916  1275 net.cpp:411] ip2 -> ip2
I0522 21:52:31.321378  1275 net.cpp:150] Setting up ip2
I0522 21:52:31.321393  1275 net.cpp:157] Top shape: 40 98 (3920)
I0522 21:52:31.321401  1275 net.cpp:165] Memory required for data: 63116320
I0522 21:52:31.321418  1275 layer_factory.hpp:77] Creating layer relu6
I0522 21:52:31.321429  1275 net.cpp:106] Creating Layer relu6
I0522 21:52:31.321439  1275 net.cpp:454] relu6 <- ip2
I0522 21:52:31.321451  1275 net.cpp:397] relu6 -> ip2 (in-place)
I0522 21:52:31.321977  1275 net.cpp:150] Setting up relu6
I0522 21:52:31.321993  1275 net.cpp:157] Top shape: 40 98 (3920)
I0522 21:52:31.322003  1275 net.cpp:165] Memory required for data: 63132000
I0522 21:52:31.322015  1275 layer_factory.hpp:77] Creating layer drop2
I0522 21:52:31.322027  1275 net.cpp:106] Creating Layer drop2
I0522 21:52:31.322037  1275 net.cpp:454] drop2 <- ip2
I0522 21:52:31.322051  1275 net.cpp:397] drop2 -> ip2 (in-place)
I0522 21:52:31.322093  1275 net.cpp:150] Setting up drop2
I0522 21:52:31.322106  1275 net.cpp:157] Top shape: 40 98 (3920)
I0522 21:52:31.322116  1275 net.cpp:165] Memory required for data: 63147680
I0522 21:52:31.322127  1275 layer_factory.hpp:77] Creating layer ip3
I0522 21:52:31.322140  1275 net.cpp:106] Creating Layer ip3
I0522 21:52:31.322150  1275 net.cpp:454] ip3 <- ip2
I0522 21:52:31.322161  1275 net.cpp:411] ip3 -> ip3
I0522 21:52:31.322373  1275 net.cpp:150] Setting up ip3
I0522 21:52:31.322386  1275 net.cpp:157] Top shape: 40 11 (440)
I0522 21:52:31.322396  1275 net.cpp:165] Memory required for data: 63149440
I0522 21:52:31.322410  1275 layer_factory.hpp:77] Creating layer drop3
I0522 21:52:31.322423  1275 net.cpp:106] Creating Layer drop3
I0522 21:52:31.322432  1275 net.cpp:454] drop3 <- ip3
I0522 21:52:31.322445  1275 net.cpp:397] drop3 -> ip3 (in-place)
I0522 21:52:31.322484  1275 net.cpp:150] Setting up drop3
I0522 21:52:31.322497  1275 net.cpp:157] Top shape: 40 11 (440)
I0522 21:52:31.322507  1275 net.cpp:165] Memory required for data: 63151200
I0522 21:52:31.322517  1275 layer_factory.hpp:77] Creating layer loss
I0522 21:52:31.322536  1275 net.cpp:106] Creating Layer loss
I0522 21:52:31.322546  1275 net.cpp:454] loss <- ip3
I0522 21:52:31.322557  1275 net.cpp:454] loss <- label
I0522 21:52:31.322571  1275 net.cpp:411] loss -> loss
I0522 21:52:31.322587  1275 layer_factory.hpp:77] Creating layer loss
…
I0522 21:52:31.325268  1275 solver.cpp:181] Creating test net (#0) specified by net file: /lustre/atlas/proj-shared/hep105/caffe_titan/caffe_workflow/logs_bslr/bs_40_lr_0.0035_2016-05-20T15.49.03.369033.prototxt
I0522 21:52:31.325340  1275 net.cpp:322] The NetState phase (1) differed from the phase (0) specified by a rule in layer data_hdf5
I0522 21:52:31.325697  1275 net.cpp:49] Initializing net from parameters: 
name: "caffe_test_127x50_x_unshifted"
state {
  phase: TEST
}
layer {
  name: "data_hdf5"
  type: "HDF5Data"
  top: "data"
  top: "label"
  include {
    phase: TEST
  }
  hdf5_data_param {
    source: "/lustre/atlas/proj-shared/hep105/caffe_titan/minosmatch_nukecczdefs_127x50_x_unshifted_me1Bmc.testlist"
    batch_size: 40
  }
}
layer {
  name: "conv1"
  type: "Convolution"
  bottom: "data"
  top: "conv1"
  convolution_param {
    num_output: 12
    pad: 0
    stride: 1
    weight_filler {
      type: "xavier"
    }
    bias_filler {
      type: "constant"
    }
    kernel_h: 8
    kernel_w: 3
  }
}
layer {
  name: "relu1"
  type: "ReLU"
  bottom: "conv1"
  top: "conv1"
}
layer {
  name: "pool1"
  type: "Pooling"
  bottom: "conv1"
  top: "pool1"
  pooling_param {
    pool: MAX
    kernel_h: 2
    kernel_w: 1
    stride_h: 2
    stride_w: 1
  }
}
layer {
  name: "conv2"
  type: "Convolution"
  bottom: "pool1"
  top: "conv2"
  convolution_param {
    num_output: 20
    pad: 0
    stride: 1
    weight_filler {
      type: "xavier"
    }
    bias_filler {
      type: "constant"
    }
    kernel_h: 7
    kernel_w: 3
  }
}
layer {
  name: "relu2"
  type: "ReLU"
  bottom: "conv2"
  top: "conv2"
}
layer {
  name: "pool2"
  type: "Pooling"
  bottom: "conv2"
  top: "pool2"
  pooling_param {
    pool: MAX
    kernel_h: 2
    kernel_w: 1
    stride_h: 2
    stride_w: 1
  }
}
layer {
  name: "conv3"
  type: "Convolution"
  bottom: "pool2"
  top: "conv3"
  convolution_param {
    num_output: 28
    pad: 0
    stride: 1
    weight_filler {
      type: "xavier"
    }
    bias_filler {
      type: "constant"
    }
    kernel_h: 6
    kernel_w: 3
  }
}
layer {
  name: "relu3"
  type: "ReLU"
  bottom: "conv3"
  top: "conv3"
}
layer {
  name: "pool3"
  type: "Pooling"
  bottom: "conv3"
  top: "pool3"
  pooling_param {
    pool: MAX
    kernel_h: 2
    kernel_w: 1
    stride_h: 2
    stride_w: 1
  }
}
layer {
  name: "conv4"
  type: "Convolution"
  bottom: "pool3"
  top: "conv4"
  convolution_param {
    num_output: 36
    pad: 0
    stride: 1
    weight_filler {
      type: "xavier"
    }
    bias_filler {
      type: "constant"
    }
    kernel_h: 6
    kernel_w: 3
  }
}
layer {
  name: "relu4"
  type: "ReLU"
  bottom: "conv4"
  top: "conv4"
}
layer {
  name: "pool4"
  type: "Pooling"
  bottom: "conv4"
  top: "pool4"
  pooling_param {
    pool: MAX
    kernel_h: 2
    kernel_w: 1
    stride_h: 2
    stride_w: 1
  }
}
layer {
  name: "ip1"
  type: "InnerProduct"
  bottom: "pool4"
  top: "ip1"
  inner_product_param {
    num_output: 196
    weight_filler {
      type: "xavier"
    }
    bias_filler {
      type: "constant"
    }
  }
}
layer {
  name: "relu5"
  type: "ReLU"
  bottom: "ip1"
  top: "ip1"
}
layer {
  name: "drop1"
  type: "Dropout"
  bottom: "ip1"
  top: "ip1"
  dropout_param {
    dropout_ratio: 0.5
  }
}
layer {
  name: "ip2"
  type: "InnerProduct"
  bottom: "ip1"
  top: "ip2"
  inner_product_param {
    num_output: 98
    weight_filler {
      type: "xavier"
    }
    bias_filler {
      type: "constant"
    }
  }
}
layer {
  name: "relu6"
  type: "ReLU"
  bottom: "ip2"
  top: "ip2"
}
layer {
  name: "drop2"
  type: "Dropout"
  bottom: "ip2"
  top: "ip2"
  dropout_param {
    dropout_ratio: 0.5
  }
}
layer {
  name: "ip3"
  type: "InnerProduct"
  bottom: "ip2"
  top: "ip3"
  inner_product_param {
    num_output: 11
    weight_filler {
      type: "xavier"
    }
    bias_filler {
      type: "constant"
    }
  }
}
layer {
  name: "drop3"
  type: "Dropout"
  bottom: "ip3"
  top: "ip3"
  dropout_param {
    dropout_ratio: 0.5
  }
}
layer {
  name: "accuracy"
  type: "Accuracy"
  bottom: "ip3"
  bottom: "label"
  top: "accuracy"
  include {
    phase: TEST
  }
}
layer {
  name: "loss"
  type: "SoftmaxWithLoss"
  bottom: "ip3"
  bottom: "label"
  top: "loss"
}
I0522 21:52:31.325886  1275 layer_factory.hpp:77] Creating layer data_hdf5
I0522 21:52:31.325916  1275 net.cpp:106] Creating Layer data_hdf5
I0522 21:52:31.325928  1275 net.cpp:411] data_hdf5 -> data
I0522 21:52:31.325945  1275 net.cpp:411] data_hdf5 -> label
I0522 21:52:31.325961  1275 hdf5_data_layer.cpp:79] Loading list of HDF5 filenames from: /lustre/atlas/proj-shared/hep105/caffe_titan/minosmatch_nukecczdefs_127x50_x_unshifted_me1Bmc.testlist
I0522 21:52:31.336889  1275 hdf5_data_layer.cpp:93] Number of HDF5 files: 3
I0522 21:52:52.852973  1275 net.cpp:150] Setting up data_hdf5
I0522 21:52:52.853139  1275 net.cpp:157] Top shape: 40 1 127 50 (254000)
I0522 21:52:52.853153  1275 net.cpp:157] Top shape: 40 (40)
I0522 21:52:52.853165  1275 net.cpp:165] Memory required for data: 1016160
I0522 21:52:52.853179  1275 layer_factory.hpp:77] Creating layer label_data_hdf5_1_split
I0522 21:52:52.853207  1275 net.cpp:106] Creating Layer label_data_hdf5_1_split
I0522 21:52:52.853219  1275 net.cpp:454] label_data_hdf5_1_split <- label
I0522 21:52:52.853234  1275 net.cpp:411] label_data_hdf5_1_split -> label_data_hdf5_1_split_0
I0522 21:52:52.853255  1275 net.cpp:411] label_data_hdf5_1_split -> label_data_hdf5_1_split_1
I0522 21:52:52.853327  1275 net.cpp:150] Setting up label_data_hdf5_1_split
I0522 21:52:52.853341  1275 net.cpp:157] Top shape: 40 (40)
I0522 21:52:52.853353  1275 net.cpp:157] Top shape: 40 (40)
I0522 21:52:52.853363  1275 net.cpp:165] Memory required for data: 1016480
I0522 21:52:52.853373  1275 layer_factory.hpp:77] Creating layer conv1
I0522 21:52:52.853392  1275 net.cpp:106] Creating Layer conv1
I0522 21:52:52.853404  1275 net.cpp:454] conv1 <- data
I0522 21:52:52.853417  1275 net.cpp:411] conv1 -> conv1
I0522 21:52:52.855376  1275 net.cpp:150] Setting up conv1
I0522 21:52:52.855406  1275 net.cpp:157] Top shape: 40 12 120 48 (2764800)
I0522 21:52:52.855415  1275 net.cpp:165] Memory required for data: 12075680
I0522 21:52:52.855437  1275 layer_factory.hpp:77] Creating layer relu1
I0522 21:52:52.855453  1275 net.cpp:106] Creating Layer relu1
I0522 21:52:52.855463  1275 net.cpp:454] relu1 <- conv1
I0522 21:52:52.855476  1275 net.cpp:397] relu1 -> conv1 (in-place)
I0522 21:52:52.855973  1275 net.cpp:150] Setting up relu1
I0522 21:52:52.855989  1275 net.cpp:157] Top shape: 40 12 120 48 (2764800)
I0522 21:52:52.855999  1275 net.cpp:165] Memory required for data: 23134880
I0522 21:52:52.856009  1275 layer_factory.hpp:77] Creating layer pool1
I0522 21:52:52.856025  1275 net.cpp:106] Creating Layer pool1
I0522 21:52:52.856035  1275 net.cpp:454] pool1 <- conv1
I0522 21:52:52.856048  1275 net.cpp:411] pool1 -> pool1
I0522 21:52:52.856122  1275 net.cpp:150] Setting up pool1
I0522 21:52:52.856137  1275 net.cpp:157] Top shape: 40 12 60 48 (1382400)
I0522 21:52:52.856147  1275 net.cpp:165] Memory required for data: 28664480
I0522 21:52:52.856156  1275 layer_factory.hpp:77] Creating layer conv2
I0522 21:52:52.856173  1275 net.cpp:106] Creating Layer conv2
I0522 21:52:52.856184  1275 net.cpp:454] conv2 <- pool1
I0522 21:52:52.856199  1275 net.cpp:411] conv2 -> conv2
I0522 21:52:52.858106  1275 net.cpp:150] Setting up conv2
I0522 21:52:52.858129  1275 net.cpp:157] Top shape: 40 20 54 46 (1987200)
I0522 21:52:52.858141  1275 net.cpp:165] Memory required for data: 36613280
I0522 21:52:52.858158  1275 layer_factory.hpp:77] Creating layer relu2
I0522 21:52:52.858172  1275 net.cpp:106] Creating Layer relu2
I0522 21:52:52.858182  1275 net.cpp:454] relu2 <- conv2
I0522 21:52:52.858196  1275 net.cpp:397] relu2 -> conv2 (in-place)
I0522 21:52:52.858526  1275 net.cpp:150] Setting up relu2
I0522 21:52:52.858541  1275 net.cpp:157] Top shape: 40 20 54 46 (1987200)
I0522 21:52:52.858549  1275 net.cpp:165] Memory required for data: 44562080
I0522 21:52:52.858559  1275 layer_factory.hpp:77] Creating layer pool2
I0522 21:52:52.858572  1275 net.cpp:106] Creating Layer pool2
I0522 21:52:52.858582  1275 net.cpp:454] pool2 <- conv2
I0522 21:52:52.858594  1275 net.cpp:411] pool2 -> pool2
I0522 21:52:52.858665  1275 net.cpp:150] Setting up pool2
I0522 21:52:52.858678  1275 net.cpp:157] Top shape: 40 20 27 46 (993600)
I0522 21:52:52.858687  1275 net.cpp:165] Memory required for data: 48536480
I0522 21:52:52.858697  1275 layer_factory.hpp:77] Creating layer conv3
I0522 21:52:52.858717  1275 net.cpp:106] Creating Layer conv3
I0522 21:52:52.858727  1275 net.cpp:454] conv3 <- pool2
I0522 21:52:52.858741  1275 net.cpp:411] conv3 -> conv3
I0522 21:52:52.860698  1275 net.cpp:150] Setting up conv3
I0522 21:52:52.860721  1275 net.cpp:157] Top shape: 40 28 22 44 (1084160)
I0522 21:52:52.860733  1275 net.cpp:165] Memory required for data: 52873120
I0522 21:52:52.860765  1275 layer_factory.hpp:77] Creating layer relu3
I0522 21:52:52.860779  1275 net.cpp:106] Creating Layer relu3
I0522 21:52:52.860790  1275 net.cpp:454] relu3 <- conv3
I0522 21:52:52.860802  1275 net.cpp:397] relu3 -> conv3 (in-place)
I0522 21:52:52.861277  1275 net.cpp:150] Setting up relu3
I0522 21:52:52.861294  1275 net.cpp:157] Top shape: 40 28 22 44 (1084160)
I0522 21:52:52.861304  1275 net.cpp:165] Memory required for data: 57209760
I0522 21:52:52.861313  1275 layer_factory.hpp:77] Creating layer pool3
I0522 21:52:52.861326  1275 net.cpp:106] Creating Layer pool3
I0522 21:52:52.861336  1275 net.cpp:454] pool3 <- conv3
I0522 21:52:52.861349  1275 net.cpp:411] pool3 -> pool3
I0522 21:52:52.861421  1275 net.cpp:150] Setting up pool3
I0522 21:52:52.861434  1275 net.cpp:157] Top shape: 40 28 11 44 (542080)
I0522 21:52:52.861444  1275 net.cpp:165] Memory required for data: 59378080
I0522 21:52:52.861454  1275 layer_factory.hpp:77] Creating layer conv4
I0522 21:52:52.861472  1275 net.cpp:106] Creating Layer conv4
I0522 21:52:52.861482  1275 net.cpp:454] conv4 <- pool3
I0522 21:52:52.861495  1275 net.cpp:411] conv4 -> conv4
I0522 21:52:52.863554  1275 net.cpp:150] Setting up conv4
I0522 21:52:52.863577  1275 net.cpp:157] Top shape: 40 36 6 42 (362880)
I0522 21:52:52.863587  1275 net.cpp:165] Memory required for data: 60829600
I0522 21:52:52.863603  1275 layer_factory.hpp:77] Creating layer relu4
I0522 21:52:52.863616  1275 net.cpp:106] Creating Layer relu4
I0522 21:52:52.863626  1275 net.cpp:454] relu4 <- conv4
I0522 21:52:52.863639  1275 net.cpp:397] relu4 -> conv4 (in-place)
I0522 21:52:52.864109  1275 net.cpp:150] Setting up relu4
I0522 21:52:52.864123  1275 net.cpp:157] Top shape: 40 36 6 42 (362880)
I0522 21:52:52.864133  1275 net.cpp:165] Memory required for data: 62281120
I0522 21:52:52.864143  1275 layer_factory.hpp:77] Creating layer pool4
I0522 21:52:52.864157  1275 net.cpp:106] Creating Layer pool4
I0522 21:52:52.864166  1275 net.cpp:454] pool4 <- conv4
I0522 21:52:52.864181  1275 net.cpp:411] pool4 -> pool4
I0522 21:52:52.864251  1275 net.cpp:150] Setting up pool4
I0522 21:52:52.864264  1275 net.cpp:157] Top shape: 40 36 3 42 (181440)
I0522 21:52:52.864274  1275 net.cpp:165] Memory required for data: 63006880
I0522 21:52:52.864284  1275 layer_factory.hpp:77] Creating layer ip1
I0522 21:52:52.864298  1275 net.cpp:106] Creating Layer ip1
I0522 21:52:52.864310  1275 net.cpp:454] ip1 <- pool4
I0522 21:52:52.864322  1275 net.cpp:411] ip1 -> ip1
I0522 21:52:52.879760  1275 net.cpp:150] Setting up ip1
I0522 21:52:52.879786  1275 net.cpp:157] Top shape: 40 196 (7840)
I0522 21:52:52.879797  1275 net.cpp:165] Memory required for data: 63038240
I0522 21:52:52.879820  1275 layer_factory.hpp:77] Creating layer relu5
I0522 21:52:52.879835  1275 net.cpp:106] Creating Layer relu5
I0522 21:52:52.879845  1275 net.cpp:454] relu5 <- ip1
I0522 21:52:52.879863  1275 net.cpp:397] relu5 -> ip1 (in-place)
I0522 21:52:52.880208  1275 net.cpp:150] Setting up relu5
I0522 21:52:52.880223  1275 net.cpp:157] Top shape: 40 196 (7840)
I0522 21:52:52.880233  1275 net.cpp:165] Memory required for data: 63069600
I0522 21:52:52.880242  1275 layer_factory.hpp:77] Creating layer drop1
I0522 21:52:52.880261  1275 net.cpp:106] Creating Layer drop1
I0522 21:52:52.880271  1275 net.cpp:454] drop1 <- ip1
I0522 21:52:52.880285  1275 net.cpp:397] drop1 -> ip1 (in-place)
I0522 21:52:52.880331  1275 net.cpp:150] Setting up drop1
I0522 21:52:52.880344  1275 net.cpp:157] Top shape: 40 196 (7840)
I0522 21:52:52.880354  1275 net.cpp:165] Memory required for data: 63100960
I0522 21:52:52.880364  1275 layer_factory.hpp:77] Creating layer ip2
I0522 21:52:52.880379  1275 net.cpp:106] Creating Layer ip2
I0522 21:52:52.880388  1275 net.cpp:454] ip2 <- ip1
I0522 21:52:52.880403  1275 net.cpp:411] ip2 -> ip2
I0522 21:52:52.880879  1275 net.cpp:150] Setting up ip2
I0522 21:52:52.880892  1275 net.cpp:157] Top shape: 40 98 (3920)
I0522 21:52:52.880903  1275 net.cpp:165] Memory required for data: 63116640
I0522 21:52:52.880918  1275 layer_factory.hpp:77] Creating layer relu6
I0522 21:52:52.880944  1275 net.cpp:106] Creating Layer relu6
I0522 21:52:52.880954  1275 net.cpp:454] relu6 <- ip2
I0522 21:52:52.880966  1275 net.cpp:397] relu6 -> ip2 (in-place)
I0522 21:52:52.881496  1275 net.cpp:150] Setting up relu6
I0522 21:52:52.881513  1275 net.cpp:157] Top shape: 40 98 (3920)
I0522 21:52:52.881522  1275 net.cpp:165] Memory required for data: 63132320
I0522 21:52:52.881532  1275 layer_factory.hpp:77] Creating layer drop2
I0522 21:52:52.881546  1275 net.cpp:106] Creating Layer drop2
I0522 21:52:52.881556  1275 net.cpp:454] drop2 <- ip2
I0522 21:52:52.881569  1275 net.cpp:397] drop2 -> ip2 (in-place)
I0522 21:52:52.881613  1275 net.cpp:150] Setting up drop2
I0522 21:52:52.881625  1275 net.cpp:157] Top shape: 40 98 (3920)
I0522 21:52:52.881635  1275 net.cpp:165] Memory required for data: 63148000
I0522 21:52:52.881645  1275 layer_factory.hpp:77] Creating layer ip3
I0522 21:52:52.881659  1275 net.cpp:106] Creating Layer ip3
I0522 21:52:52.881669  1275 net.cpp:454] ip3 <- ip2
I0522 21:52:52.881683  1275 net.cpp:411] ip3 -> ip3
I0522 21:52:52.881912  1275 net.cpp:150] Setting up ip3
I0522 21:52:52.881925  1275 net.cpp:157] Top shape: 40 11 (440)
I0522 21:52:52.881935  1275 net.cpp:165] Memory required for data: 63149760
I0522 21:52:52.881952  1275 layer_factory.hpp:77] Creating layer drop3
I0522 21:52:52.881964  1275 net.cpp:106] Creating Layer drop3
I0522 21:52:52.881974  1275 net.cpp:454] drop3 <- ip3
I0522 21:52:52.881988  1275 net.cpp:397] drop3 -> ip3 (in-place)
I0522 21:52:52.882028  1275 net.cpp:150] Setting up drop3
I0522 21:52:52.882040  1275 net.cpp:157] Top shape: 40 11 (440)
I0522 21:52:52.882050  1275 net.cpp:165] Memory required for data: 63151520
I0522 21:52:52.882061  1275 layer_factory.hpp:77] Creating layer ip3_drop3_0_split
I0522 21:52:52.882073  1275 net.cpp:106] Creating Layer ip3_drop3_0_split
I0522 21:52:52.882083  1275 net.cpp:454] ip3_drop3_0_split <- ip3
I0522 21:52:52.882097  1275 net.cpp:411] ip3_drop3_0_split -> ip3_drop3_0_split_0
I0522 21:52:52.882112  1275 net.cpp:411] ip3_drop3_0_split -> ip3_drop3_0_split_1
I0522 21:52:52.882184  1275 net.cpp:150] Setting up ip3_drop3_0_split
I0522 21:52:52.882199  1275 net.cpp:157] Top shape: 40 11 (440)
I0522 21:52:52.882210  1275 net.cpp:157] Top shape: 40 11 (440)
I0522 21:52:52.882220  1275 net.cpp:165] Memory required for data: 63155040
I0522 21:52:52.882230  1275 layer_factory.hpp:77] Creating layer accuracy
I0522 21:52:52.882251  1275 net.cpp:106] Creating Layer accuracy
I0522 21:52:52.882261  1275 net.cpp:454] accuracy <- ip3_drop3_0_split_0
I0522 21:52:52.882272  1275 net.cpp:454] accuracy <- label_data_hdf5_1_split_0
I0522 21:52:52.882287  1275 net.cpp:411] accuracy -> accuracy
…
