…
I0523 00:14:06.583196 13206 net.cpp:322] The NetState phase (0) differed from the phase (1) specified by a rule in layer data_hdf5
I0523 00:14:06.583261 13206 net.cpp:322] The NetState phase (0) differed from the phase (1) specified by a rule in layer accuracy
I0523 00:14:06.583608 13206 net.cpp:49] Initializing net from parameters: 
name: "caffe_test_127x50_x_unshifted"
state {
  phase: TRAIN
}
layer {
  name: "data_hdf5"
  type: "HDF5Data"
  top: "data"
  top: "label"
  include {
    phase: TRAIN
  }
  hdf5_data_param {
    source: "/lustre/atlas/proj-shared/hep105/caffe_titan/minosmatch_nukecczdefs_127x50_x_unshifted_me1Bmc.trainlist"
    batch_size: 40
  }
}
layer {
  name: "conv1"
  type: "Convolution"
  bottom: "data"
  top: "conv1"
  convolution_param {
    num_output: 12
    pad: 0
    stride: 1
    weight_filler {
      type: "xavier"
    }
    bias_filler {
      type: "constant"
    }
    kernel_h: 8
    kernel_w: 3
  }
}
layer {
  name: "relu1"
  type: "ReLU"
  bottom: "conv1"
  top: "conv1"
}
layer {
  name: "pool1"
  type: "Pooling"
  bottom: "conv1"
  top: "pool1"
  pooling_param {
    pool: MAX
    kernel_h: 2
    kernel_w: 1
    stride_h: 2
    stride_w: 1
  }
}
layer {
  name: "conv2"
  type: "Convolution"
  bottom: "pool1"
  top: "conv2"
  convolution_param {
    num_output: 20
    pad: 0
    stride: 1
    weight_filler {
      type: "xavier"
    }
    bias_filler {
      type: "constant"
    }
    kernel_h: 7
    kernel_w: 3
  }
}
layer {
  name: "relu2"
  type: "ReLU"
  bottom: "conv2"
  top: "conv2"
}
layer {
  name: "pool2"
  type: "Pooling"
  bottom: "conv2"
  top: "pool2"
  pooling_param {
    pool: MAX
    kernel_h: 2
    kernel_w: 1
    stride_h: 2
    stride_w: 1
  }
}
layer {
  name: "conv3"
  type: "Convolution"
  bottom: "pool2"
  top: "conv3"
  convolution_param {
    num_output: 28
    pad: 0
    stride: 1
    weight_filler {
      type: "xavier"
    }
    bias_filler {
      type: "constant"
    }
    kernel_h: 6
    kernel_w: 3
  }
}
layer {
  name: "relu3"
  type: "ReLU"
  bottom: "conv3"
  top: "conv3"
}
layer {
  name: "pool3"
  type: "Pooling"
  bottom: "conv3"
  top: "pool3"
  pooling_param {
    pool: MAX
    kernel_h: 2
    kernel_w: 1
    stride_h: 2
    stride_w: 1
  }
}
layer {
  name: "conv4"
  type: "Convolution"
  bottom: "pool3"
  top: "conv4"
  convolution_param {
    num_output: 36
    pad: 0
    stride: 1
    weight_filler {
      type: "xavier"
    }
    bias_filler {
      type: "constant"
    }
    kernel_h: 6
    kernel_w: 3
  }
}
layer {
  name: "relu4"
  type: "ReLU"
  bottom: "conv4"
  top: "conv4"
}
layer {
  name: "pool4"
  type: "Pooling"
  bottom: "conv4"
  top: "pool4"
  pooling_param {
    pool: MAX
    kernel_h: 2
    kernel_w: 1
    stride_h: 2
    stride_w: 1
  }
}
layer {
  name: "ip1"
  type: "InnerProduct"
  bottom: "pool4"
  top: "ip1"
  inner_product_param {
    num_output: 196
    weight_filler {
      type: "xavier"
    }
    bias_filler {
      type: "constant"
    }
  }
}
layer {
  name: "relu5"
  type: "ReLU"
  bottom: "ip1"
  top: "ip1"
}
layer {
  name: "drop1"
  type: "Dropout"
  bottom: "ip1"
  top: "ip1"
  dropout_param {
    dropout_ratio: 0.5
  }
}
layer {
  name: "ip2"
  type: "InnerProduct"
  bottom: "ip1"
  top: "ip2"
  inner_product_param {
    num_output: 98
    weight_filler {
      type: "xavier"
    }
    bias_filler {
      type: "constant"
    }
  }
}
layer {
  name: "relu6"
  type: "ReLU"
  bottom: "ip2"
  top: "ip2"
}
layer {
  name: "drop2"
  type: "Dropout"
  bottom: "ip2"
  top: "ip2"
  dropout_param {
    dropout_ratio: 0.5
  }
}
layer {
  name: "ip3"
  type: "InnerProduct"
  bottom: "ip2"
  top: "ip3"
  inner_product_param {
    num_output: 11
    weight_filler {
      type: "xavier"
    }
    bias_filler {
      type: "constant"
    }
  }
}
layer {
  name: "drop3"
  type: "Dropout"
  bottom: "ip3"
  top: "ip3"
  dropout_param {
    dropout_ratio: 0.5
  }
}
layer {
  name: "loss"
  type: "SoftmaxWithLoss"
  bottom: "ip3"
  bottom: "label"
  top: "loss"
}
I0523 00:14:06.583787 13206 layer_factory.hpp:77] Creating layer data_hdf5
I0523 00:14:06.583811 13206 net.cpp:106] Creating Layer data_hdf5
I0523 00:14:06.583827 13206 net.cpp:411] data_hdf5 -> data
I0523 00:14:06.583859 13206 net.cpp:411] data_hdf5 -> label
I0523 00:14:06.583892 13206 hdf5_data_layer.cpp:79] Loading list of HDF5 filenames from: /lustre/atlas/proj-shared/hep105/caffe_titan/minosmatch_nukecczdefs_127x50_x_unshifted_me1Bmc.trainlist
I0523 00:14:06.585096 13206 hdf5_data_layer.cpp:93] Number of HDF5 files: 15
I0523 00:14:06.587317 13206 hdf5.cpp:32] Datatype class: H5T_FLOAT
I0523 00:14:28.140751 13206 hdf5.cpp:35] Datatype class: H5T_INTEGER
I0523 00:14:28.145932 13206 net.cpp:150] Setting up data_hdf5
I0523 00:14:28.145973 13206 net.cpp:157] Top shape: 40 1 127 50 (254000)
I0523 00:14:28.145987 13206 net.cpp:157] Top shape: 40 (40)
I0523 00:14:28.145997 13206 net.cpp:165] Memory required for data: 1016160
I0523 00:14:28.146008 13206 layer_factory.hpp:77] Creating layer conv1
I0523 00:14:28.146040 13206 net.cpp:106] Creating Layer conv1
I0523 00:14:28.146054 13206 net.cpp:454] conv1 <- data
I0523 00:14:28.146076 13206 net.cpp:411] conv1 -> conv1
I0523 00:14:28.509466 13206 net.cpp:150] Setting up conv1
I0523 00:14:28.509516 13206 net.cpp:157] Top shape: 40 12 120 48 (2764800)
I0523 00:14:28.509526 13206 net.cpp:165] Memory required for data: 12075360
I0523 00:14:28.509555 13206 layer_factory.hpp:77] Creating layer relu1
I0523 00:14:28.509577 13206 net.cpp:106] Creating Layer relu1
I0523 00:14:28.509588 13206 net.cpp:454] relu1 <- conv1
I0523 00:14:28.509600 13206 net.cpp:397] relu1 -> conv1 (in-place)
I0523 00:14:28.510131 13206 net.cpp:150] Setting up relu1
I0523 00:14:28.510149 13206 net.cpp:157] Top shape: 40 12 120 48 (2764800)
I0523 00:14:28.510159 13206 net.cpp:165] Memory required for data: 23134560
I0523 00:14:28.510169 13206 layer_factory.hpp:77] Creating layer pool1
I0523 00:14:28.510185 13206 net.cpp:106] Creating Layer pool1
I0523 00:14:28.510195 13206 net.cpp:454] pool1 <- conv1
I0523 00:14:28.510208 13206 net.cpp:411] pool1 -> pool1
I0523 00:14:28.510290 13206 net.cpp:150] Setting up pool1
I0523 00:14:28.510303 13206 net.cpp:157] Top shape: 40 12 60 48 (1382400)
I0523 00:14:28.510313 13206 net.cpp:165] Memory required for data: 28664160
I0523 00:14:28.510324 13206 layer_factory.hpp:77] Creating layer conv2
I0523 00:14:28.510347 13206 net.cpp:106] Creating Layer conv2
I0523 00:14:28.510357 13206 net.cpp:454] conv2 <- pool1
I0523 00:14:28.510372 13206 net.cpp:411] conv2 -> conv2
I0523 00:14:28.513046 13206 net.cpp:150] Setting up conv2
I0523 00:14:28.513074 13206 net.cpp:157] Top shape: 40 20 54 46 (1987200)
I0523 00:14:28.513085 13206 net.cpp:165] Memory required for data: 36612960
I0523 00:14:28.513104 13206 layer_factory.hpp:77] Creating layer relu2
I0523 00:14:28.513118 13206 net.cpp:106] Creating Layer relu2
I0523 00:14:28.513128 13206 net.cpp:454] relu2 <- conv2
I0523 00:14:28.513141 13206 net.cpp:397] relu2 -> conv2 (in-place)
I0523 00:14:28.513473 13206 net.cpp:150] Setting up relu2
I0523 00:14:28.513487 13206 net.cpp:157] Top shape: 40 20 54 46 (1987200)
I0523 00:14:28.513497 13206 net.cpp:165] Memory required for data: 44561760
I0523 00:14:28.513509 13206 layer_factory.hpp:77] Creating layer pool2
I0523 00:14:28.513520 13206 net.cpp:106] Creating Layer pool2
I0523 00:14:28.513531 13206 net.cpp:454] pool2 <- conv2
I0523 00:14:28.513543 13206 net.cpp:411] pool2 -> pool2
I0523 00:14:28.513624 13206 net.cpp:150] Setting up pool2
I0523 00:14:28.513638 13206 net.cpp:157] Top shape: 40 20 27 46 (993600)
I0523 00:14:28.513648 13206 net.cpp:165] Memory required for data: 48536160
I0523 00:14:28.513658 13206 layer_factory.hpp:77] Creating layer conv3
I0523 00:14:28.513676 13206 net.cpp:106] Creating Layer conv3
I0523 00:14:28.513686 13206 net.cpp:454] conv3 <- pool2
I0523 00:14:28.513700 13206 net.cpp:411] conv3 -> conv3
I0523 00:14:28.515651 13206 net.cpp:150] Setting up conv3
I0523 00:14:28.515671 13206 net.cpp:157] Top shape: 40 28 22 44 (1084160)
I0523 00:14:28.515682 13206 net.cpp:165] Memory required for data: 52872800
I0523 00:14:28.515702 13206 layer_factory.hpp:77] Creating layer relu3
I0523 00:14:28.515717 13206 net.cpp:106] Creating Layer relu3
I0523 00:14:28.515727 13206 net.cpp:454] relu3 <- conv3
I0523 00:14:28.515739 13206 net.cpp:397] relu3 -> conv3 (in-place)
I0523 00:14:28.516211 13206 net.cpp:150] Setting up relu3
I0523 00:14:28.516227 13206 net.cpp:157] Top shape: 40 28 22 44 (1084160)
I0523 00:14:28.516237 13206 net.cpp:165] Memory required for data: 57209440
I0523 00:14:28.516248 13206 layer_factory.hpp:77] Creating layer pool3
I0523 00:14:28.516261 13206 net.cpp:106] Creating Layer pool3
I0523 00:14:28.516270 13206 net.cpp:454] pool3 <- conv3
I0523 00:14:28.516283 13206 net.cpp:411] pool3 -> pool3
I0523 00:14:28.516351 13206 net.cpp:150] Setting up pool3
I0523 00:14:28.516366 13206 net.cpp:157] Top shape: 40 28 11 44 (542080)
I0523 00:14:28.516374 13206 net.cpp:165] Memory required for data: 59377760
I0523 00:14:28.516384 13206 layer_factory.hpp:77] Creating layer conv4
I0523 00:14:28.516402 13206 net.cpp:106] Creating Layer conv4
I0523 00:14:28.516413 13206 net.cpp:454] conv4 <- pool3
I0523 00:14:28.516427 13206 net.cpp:411] conv4 -> conv4
I0523 00:14:28.519201 13206 net.cpp:150] Setting up conv4
I0523 00:14:28.519229 13206 net.cpp:157] Top shape: 40 36 6 42 (362880)
I0523 00:14:28.519240 13206 net.cpp:165] Memory required for data: 60829280
I0523 00:14:28.519258 13206 layer_factory.hpp:77] Creating layer relu4
I0523 00:14:28.519271 13206 net.cpp:106] Creating Layer relu4
I0523 00:14:28.519281 13206 net.cpp:454] relu4 <- conv4
I0523 00:14:28.519294 13206 net.cpp:397] relu4 -> conv4 (in-place)
I0523 00:14:28.519769 13206 net.cpp:150] Setting up relu4
I0523 00:14:28.519785 13206 net.cpp:157] Top shape: 40 36 6 42 (362880)
I0523 00:14:28.519796 13206 net.cpp:165] Memory required for data: 62280800
I0523 00:14:28.519807 13206 layer_factory.hpp:77] Creating layer pool4
I0523 00:14:28.519820 13206 net.cpp:106] Creating Layer pool4
I0523 00:14:28.519829 13206 net.cpp:454] pool4 <- conv4
I0523 00:14:28.519842 13206 net.cpp:411] pool4 -> pool4
I0523 00:14:28.519911 13206 net.cpp:150] Setting up pool4
I0523 00:14:28.519924 13206 net.cpp:157] Top shape: 40 36 3 42 (181440)
I0523 00:14:28.519934 13206 net.cpp:165] Memory required for data: 63006560
I0523 00:14:28.519944 13206 layer_factory.hpp:77] Creating layer ip1
I0523 00:14:28.519964 13206 net.cpp:106] Creating Layer ip1
I0523 00:14:28.519975 13206 net.cpp:454] ip1 <- pool4
I0523 00:14:28.519989 13206 net.cpp:411] ip1 -> ip1
I0523 00:14:28.535398 13206 net.cpp:150] Setting up ip1
I0523 00:14:28.535426 13206 net.cpp:157] Top shape: 40 196 (7840)
I0523 00:14:28.535439 13206 net.cpp:165] Memory required for data: 63037920
I0523 00:14:28.535464 13206 layer_factory.hpp:77] Creating layer relu5
I0523 00:14:28.535477 13206 net.cpp:106] Creating Layer relu5
I0523 00:14:28.535488 13206 net.cpp:454] relu5 <- ip1
I0523 00:14:28.535501 13206 net.cpp:397] relu5 -> ip1 (in-place)
I0523 00:14:28.535843 13206 net.cpp:150] Setting up relu5
I0523 00:14:28.535857 13206 net.cpp:157] Top shape: 40 196 (7840)
I0523 00:14:28.535867 13206 net.cpp:165] Memory required for data: 63069280
I0523 00:14:28.535878 13206 layer_factory.hpp:77] Creating layer drop1
I0523 00:14:28.535902 13206 net.cpp:106] Creating Layer drop1
I0523 00:14:28.535912 13206 net.cpp:454] drop1 <- ip1
I0523 00:14:28.535923 13206 net.cpp:397] drop1 -> ip1 (in-place)
I0523 00:14:28.535984 13206 net.cpp:150] Setting up drop1
I0523 00:14:28.535996 13206 net.cpp:157] Top shape: 40 196 (7840)
I0523 00:14:28.536006 13206 net.cpp:165] Memory required for data: 63100640
I0523 00:14:28.536016 13206 layer_factory.hpp:77] Creating layer ip2
I0523 00:14:28.536034 13206 net.cpp:106] Creating Layer ip2
I0523 00:14:28.536044 13206 net.cpp:454] ip2 <- ip1
I0523 00:14:28.536057 13206 net.cpp:411] ip2 -> ip2
I0523 00:14:28.536519 13206 net.cpp:150] Setting up ip2
I0523 00:14:28.536531 13206 net.cpp:157] Top shape: 40 98 (3920)
I0523 00:14:28.536541 13206 net.cpp:165] Memory required for data: 63116320
I0523 00:14:28.536556 13206 layer_factory.hpp:77] Creating layer relu6
I0523 00:14:28.536569 13206 net.cpp:106] Creating Layer relu6
I0523 00:14:28.536578 13206 net.cpp:454] relu6 <- ip2
I0523 00:14:28.536590 13206 net.cpp:397] relu6 -> ip2 (in-place)
I0523 00:14:28.537112 13206 net.cpp:150] Setting up relu6
I0523 00:14:28.537128 13206 net.cpp:157] Top shape: 40 98 (3920)
I0523 00:14:28.537138 13206 net.cpp:165] Memory required for data: 63132000
I0523 00:14:28.537149 13206 layer_factory.hpp:77] Creating layer drop2
I0523 00:14:28.537163 13206 net.cpp:106] Creating Layer drop2
I0523 00:14:28.537173 13206 net.cpp:454] drop2 <- ip2
I0523 00:14:28.537184 13206 net.cpp:397] drop2 -> ip2 (in-place)
I0523 00:14:28.537227 13206 net.cpp:150] Setting up drop2
I0523 00:14:28.537240 13206 net.cpp:157] Top shape: 40 98 (3920)
I0523 00:14:28.537250 13206 net.cpp:165] Memory required for data: 63147680
I0523 00:14:28.537261 13206 layer_factory.hpp:77] Creating layer ip3
I0523 00:14:28.537274 13206 net.cpp:106] Creating Layer ip3
I0523 00:14:28.537283 13206 net.cpp:454] ip3 <- ip2
I0523 00:14:28.537297 13206 net.cpp:411] ip3 -> ip3
I0523 00:14:28.537505 13206 net.cpp:150] Setting up ip3
I0523 00:14:28.537518 13206 net.cpp:157] Top shape: 40 11 (440)
I0523 00:14:28.537528 13206 net.cpp:165] Memory required for data: 63149440
I0523 00:14:28.537544 13206 layer_factory.hpp:77] Creating layer drop3
I0523 00:14:28.537556 13206 net.cpp:106] Creating Layer drop3
I0523 00:14:28.537566 13206 net.cpp:454] drop3 <- ip3
I0523 00:14:28.537578 13206 net.cpp:397] drop3 -> ip3 (in-place)
I0523 00:14:28.537617 13206 net.cpp:150] Setting up drop3
I0523 00:14:28.537631 13206 net.cpp:157] Top shape: 40 11 (440)
I0523 00:14:28.537641 13206 net.cpp:165] Memory required for data: 63151200
I0523 00:14:28.537650 13206 layer_factory.hpp:77] Creating layer loss
I0523 00:14:28.537669 13206 net.cpp:106] Creating Layer loss
I0523 00:14:28.537679 13206 net.cpp:454] loss <- ip3
I0523 00:14:28.537690 13206 net.cpp:454] loss <- label
I0523 00:14:28.537703 13206 net.cpp:411] loss -> loss
I0523 00:14:28.537726 13206 layer_factory.hpp:77] Creating layer loss
…
I0523 00:14:28.540331 13206 solver.cpp:181] Creating test net (#0) specified by net file: /lustre/atlas/proj-shared/hep105/caffe_titan/caffe_workflow/logs_bslr/bs_40_lr_0.0050_2016-05-20T15.49.04.504211.prototxt
I0523 00:14:28.540401 13206 net.cpp:322] The NetState phase (1) differed from the phase (0) specified by a rule in layer data_hdf5
I0523 00:14:28.540758 13206 net.cpp:49] Initializing net from parameters: 
name: "caffe_test_127x50_x_unshifted"
state {
  phase: TEST
}
layer {
  name: "data_hdf5"
  type: "HDF5Data"
  top: "data"
  top: "label"
  include {
    phase: TEST
  }
  hdf5_data_param {
    source: "/lustre/atlas/proj-shared/hep105/caffe_titan/minosmatch_nukecczdefs_127x50_x_unshifted_me1Bmc.testlist"
    batch_size: 40
  }
}
layer {
  name: "conv1"
  type: "Convolution"
  bottom: "data"
  top: "conv1"
  convolution_param {
    num_output: 12
    pad: 0
    stride: 1
    weight_filler {
      type: "xavier"
    }
    bias_filler {
      type: "constant"
    }
    kernel_h: 8
    kernel_w: 3
  }
}
layer {
  name: "relu1"
  type: "ReLU"
  bottom: "conv1"
  top: "conv1"
}
layer {
  name: "pool1"
  type: "Pooling"
  bottom: "conv1"
  top: "pool1"
  pooling_param {
    pool: MAX
    kernel_h: 2
    kernel_w: 1
    stride_h: 2
    stride_w: 1
  }
}
layer {
  name: "conv2"
  type: "Convolution"
  bottom: "pool1"
  top: "conv2"
  convolution_param {
    num_output: 20
    pad: 0
    stride: 1
    weight_filler {
      type: "xavier"
    }
    bias_filler {
      type: "constant"
    }
    kernel_h: 7
    kernel_w: 3
  }
}
layer {
  name: "relu2"
  type: "ReLU"
  bottom: "conv2"
  top: "conv2"
}
layer {
  name: "pool2"
  type: "Pooling"
  bottom: "conv2"
  top: "pool2"
  pooling_param {
    pool: MAX
    kernel_h: 2
    kernel_w: 1
    stride_h: 2
    stride_w: 1
  }
}
layer {
  name: "conv3"
  type: "Convolution"
  bottom: "pool2"
  top: "conv3"
  convolution_param {
    num_output: 28
    pad: 0
    stride: 1
    weight_filler {
      type: "xavier"
    }
    bias_filler {
      type: "constant"
    }
    kernel_h: 6
    kernel_w: 3
  }
}
layer {
  name: "relu3"
  type: "ReLU"
  bottom: "conv3"
  top: "conv3"
}
layer {
  name: "pool3"
  type: "Pooling"
  bottom: "conv3"
  top: "pool3"
  pooling_param {
    pool: MAX
    kernel_h: 2
    kernel_w: 1
    stride_h: 2
    stride_w: 1
  }
}
layer {
  name: "conv4"
  type: "Convolution"
  bottom: "pool3"
  top: "conv4"
  convolution_param {
    num_output: 36
    pad: 0
    stride: 1
    weight_filler {
      type: "xavier"
    }
    bias_filler {
      type: "constant"
    }
    kernel_h: 6
    kernel_w: 3
  }
}
layer {
  name: "relu4"
  type: "ReLU"
  bottom: "conv4"
  top: "conv4"
}
layer {
  name: "pool4"
  type: "Pooling"
  bottom: "conv4"
  top: "pool4"
  pooling_param {
    pool: MAX
    kernel_h: 2
    kernel_w: 1
    stride_h: 2
    stride_w: 1
  }
}
layer {
  name: "ip1"
  type: "InnerProduct"
  bottom: "pool4"
  top: "ip1"
  inner_product_param {
    num_output: 196
    weight_filler {
      type: "xavier"
    }
    bias_filler {
      type: "constant"
    }
  }
}
layer {
  name: "relu5"
  type: "ReLU"
  bottom: "ip1"
  top: "ip1"
}
layer {
  name: "drop1"
  type: "Dropout"
  bottom: "ip1"
  top: "ip1"
  dropout_param {
    dropout_ratio: 0.5
  }
}
layer {
  name: "ip2"
  type: "InnerProduct"
  bottom: "ip1"
  top: "ip2"
  inner_product_param {
    num_output: 98
    weight_filler {
      type: "xavier"
    }
    bias_filler {
      type: "constant"
    }
  }
}
layer {
  name: "relu6"
  type: "ReLU"
  bottom: "ip2"
  top: "ip2"
}
layer {
  name: "drop2"
  type: "Dropout"
  bottom: "ip2"
  top: "ip2"
  dropout_param {
    dropout_ratio: 0.5
  }
}
layer {
  name: "ip3"
  type: "InnerProduct"
  bottom: "ip2"
  top: "ip3"
  inner_product_param {
    num_output: 11
    weight_filler {
      type: "xavier"
    }
    bias_filler {
      type: "constant"
    }
  }
}
layer {
  name: "drop3"
  type: "Dropout"
  bottom: "ip3"
  top: "ip3"
  dropout_param {
    dropout_ratio: 0.5
  }
}
layer {
  name: "accuracy"
  type: "Accuracy"
  bottom: "ip3"
  bottom: "label"
  top: "accuracy"
  include {
    phase: TEST
  }
}
layer {
  name: "loss"
  type: "SoftmaxWithLoss"
  bottom: "ip3"
  bottom: "label"
  top: "loss"
}
I0523 00:14:28.540947 13206 layer_factory.hpp:77] Creating layer data_hdf5
I0523 00:14:28.540963 13206 net.cpp:106] Creating Layer data_hdf5
I0523 00:14:28.540976 13206 net.cpp:411] data_hdf5 -> data
I0523 00:14:28.540989 13206 net.cpp:411] data_hdf5 -> label
I0523 00:14:28.541005 13206 hdf5_data_layer.cpp:79] Loading list of HDF5 filenames from: /lustre/atlas/proj-shared/hep105/caffe_titan/minosmatch_nukecczdefs_127x50_x_unshifted_me1Bmc.testlist
I0523 00:14:28.542171 13206 hdf5_data_layer.cpp:93] Number of HDF5 files: 3
I0523 00:14:49.862331 13206 net.cpp:150] Setting up data_hdf5
I0523 00:14:49.862503 13206 net.cpp:157] Top shape: 40 1 127 50 (254000)
I0523 00:14:49.862517 13206 net.cpp:157] Top shape: 40 (40)
I0523 00:14:49.862529 13206 net.cpp:165] Memory required for data: 1016160
I0523 00:14:49.862541 13206 layer_factory.hpp:77] Creating layer label_data_hdf5_1_split
I0523 00:14:49.862571 13206 net.cpp:106] Creating Layer label_data_hdf5_1_split
I0523 00:14:49.862581 13206 net.cpp:454] label_data_hdf5_1_split <- label
I0523 00:14:49.862596 13206 net.cpp:411] label_data_hdf5_1_split -> label_data_hdf5_1_split_0
I0523 00:14:49.862618 13206 net.cpp:411] label_data_hdf5_1_split -> label_data_hdf5_1_split_1
I0523 00:14:49.862690 13206 net.cpp:150] Setting up label_data_hdf5_1_split
I0523 00:14:49.862704 13206 net.cpp:157] Top shape: 40 (40)
I0523 00:14:49.862715 13206 net.cpp:157] Top shape: 40 (40)
I0523 00:14:49.862725 13206 net.cpp:165] Memory required for data: 1016480
I0523 00:14:49.862735 13206 layer_factory.hpp:77] Creating layer conv1
I0523 00:14:49.862756 13206 net.cpp:106] Creating Layer conv1
I0523 00:14:49.862767 13206 net.cpp:454] conv1 <- data
I0523 00:14:49.862782 13206 net.cpp:411] conv1 -> conv1
I0523 00:14:49.864737 13206 net.cpp:150] Setting up conv1
I0523 00:14:49.864761 13206 net.cpp:157] Top shape: 40 12 120 48 (2764800)
I0523 00:14:49.864773 13206 net.cpp:165] Memory required for data: 12075680
I0523 00:14:49.864794 13206 layer_factory.hpp:77] Creating layer relu1
I0523 00:14:49.864809 13206 net.cpp:106] Creating Layer relu1
I0523 00:14:49.864819 13206 net.cpp:454] relu1 <- conv1
I0523 00:14:49.864831 13206 net.cpp:397] relu1 -> conv1 (in-place)
I0523 00:14:49.865327 13206 net.cpp:150] Setting up relu1
I0523 00:14:49.865344 13206 net.cpp:157] Top shape: 40 12 120 48 (2764800)
I0523 00:14:49.865353 13206 net.cpp:165] Memory required for data: 23134880
I0523 00:14:49.865363 13206 layer_factory.hpp:77] Creating layer pool1
I0523 00:14:49.865381 13206 net.cpp:106] Creating Layer pool1
I0523 00:14:49.865391 13206 net.cpp:454] pool1 <- conv1
I0523 00:14:49.865402 13206 net.cpp:411] pool1 -> pool1
I0523 00:14:49.865478 13206 net.cpp:150] Setting up pool1
I0523 00:14:49.865490 13206 net.cpp:157] Top shape: 40 12 60 48 (1382400)
I0523 00:14:49.865500 13206 net.cpp:165] Memory required for data: 28664480
I0523 00:14:49.865509 13206 layer_factory.hpp:77] Creating layer conv2
I0523 00:14:49.865525 13206 net.cpp:106] Creating Layer conv2
I0523 00:14:49.865536 13206 net.cpp:454] conv2 <- pool1
I0523 00:14:49.865550 13206 net.cpp:411] conv2 -> conv2
I0523 00:14:49.867478 13206 net.cpp:150] Setting up conv2
I0523 00:14:49.867501 13206 net.cpp:157] Top shape: 40 20 54 46 (1987200)
I0523 00:14:49.867511 13206 net.cpp:165] Memory required for data: 36613280
I0523 00:14:49.867528 13206 layer_factory.hpp:77] Creating layer relu2
I0523 00:14:49.867542 13206 net.cpp:106] Creating Layer relu2
I0523 00:14:49.867552 13206 net.cpp:454] relu2 <- conv2
I0523 00:14:49.867563 13206 net.cpp:397] relu2 -> conv2 (in-place)
I0523 00:14:49.867894 13206 net.cpp:150] Setting up relu2
I0523 00:14:49.867908 13206 net.cpp:157] Top shape: 40 20 54 46 (1987200)
I0523 00:14:49.867918 13206 net.cpp:165] Memory required for data: 44562080
I0523 00:14:49.867928 13206 layer_factory.hpp:77] Creating layer pool2
I0523 00:14:49.867941 13206 net.cpp:106] Creating Layer pool2
I0523 00:14:49.867951 13206 net.cpp:454] pool2 <- conv2
I0523 00:14:49.867964 13206 net.cpp:411] pool2 -> pool2
I0523 00:14:49.868036 13206 net.cpp:150] Setting up pool2
I0523 00:14:49.868048 13206 net.cpp:157] Top shape: 40 20 27 46 (993600)
I0523 00:14:49.868058 13206 net.cpp:165] Memory required for data: 48536480
I0523 00:14:49.868068 13206 layer_factory.hpp:77] Creating layer conv3
I0523 00:14:49.868085 13206 net.cpp:106] Creating Layer conv3
I0523 00:14:49.868096 13206 net.cpp:454] conv3 <- pool2
I0523 00:14:49.868110 13206 net.cpp:411] conv3 -> conv3
I0523 00:14:49.870079 13206 net.cpp:150] Setting up conv3
I0523 00:14:49.870100 13206 net.cpp:157] Top shape: 40 28 22 44 (1084160)
I0523 00:14:49.870113 13206 net.cpp:165] Memory required for data: 52873120
I0523 00:14:49.870146 13206 layer_factory.hpp:77] Creating layer relu3
I0523 00:14:49.870160 13206 net.cpp:106] Creating Layer relu3
I0523 00:14:49.870170 13206 net.cpp:454] relu3 <- conv3
I0523 00:14:49.870183 13206 net.cpp:397] relu3 -> conv3 (in-place)
I0523 00:14:49.870656 13206 net.cpp:150] Setting up relu3
I0523 00:14:49.870673 13206 net.cpp:157] Top shape: 40 28 22 44 (1084160)
I0523 00:14:49.870683 13206 net.cpp:165] Memory required for data: 57209760
I0523 00:14:49.870693 13206 layer_factory.hpp:77] Creating layer pool3
I0523 00:14:49.870707 13206 net.cpp:106] Creating Layer pool3
I0523 00:14:49.870715 13206 net.cpp:454] pool3 <- conv3
I0523 00:14:49.870728 13206 net.cpp:411] pool3 -> pool3
I0523 00:14:49.870800 13206 net.cpp:150] Setting up pool3
I0523 00:14:49.870813 13206 net.cpp:157] Top shape: 40 28 11 44 (542080)
I0523 00:14:49.870823 13206 net.cpp:165] Memory required for data: 59378080
I0523 00:14:49.870832 13206 layer_factory.hpp:77] Creating layer conv4
I0523 00:14:49.870848 13206 net.cpp:106] Creating Layer conv4
I0523 00:14:49.870859 13206 net.cpp:454] conv4 <- pool3
I0523 00:14:49.870873 13206 net.cpp:411] conv4 -> conv4
I0523 00:14:49.872954 13206 net.cpp:150] Setting up conv4
I0523 00:14:49.872977 13206 net.cpp:157] Top shape: 40 36 6 42 (362880)
I0523 00:14:49.872989 13206 net.cpp:165] Memory required for data: 60829600
I0523 00:14:49.873004 13206 layer_factory.hpp:77] Creating layer relu4
I0523 00:14:49.873018 13206 net.cpp:106] Creating Layer relu4
I0523 00:14:49.873028 13206 net.cpp:454] relu4 <- conv4
I0523 00:14:49.873041 13206 net.cpp:397] relu4 -> conv4 (in-place)
I0523 00:14:49.873512 13206 net.cpp:150] Setting up relu4
I0523 00:14:49.873528 13206 net.cpp:157] Top shape: 40 36 6 42 (362880)
I0523 00:14:49.873538 13206 net.cpp:165] Memory required for data: 62281120
I0523 00:14:49.873548 13206 layer_factory.hpp:77] Creating layer pool4
I0523 00:14:49.873560 13206 net.cpp:106] Creating Layer pool4
I0523 00:14:49.873570 13206 net.cpp:454] pool4 <- conv4
I0523 00:14:49.873584 13206 net.cpp:411] pool4 -> pool4
I0523 00:14:49.873656 13206 net.cpp:150] Setting up pool4
I0523 00:14:49.873668 13206 net.cpp:157] Top shape: 40 36 3 42 (181440)
I0523 00:14:49.873678 13206 net.cpp:165] Memory required for data: 63006880
I0523 00:14:49.873688 13206 layer_factory.hpp:77] Creating layer ip1
I0523 00:14:49.873716 13206 net.cpp:106] Creating Layer ip1
I0523 00:14:49.873728 13206 net.cpp:454] ip1 <- pool4
I0523 00:14:49.873740 13206 net.cpp:411] ip1 -> ip1
I0523 00:14:49.889317 13206 net.cpp:150] Setting up ip1
I0523 00:14:49.889345 13206 net.cpp:157] Top shape: 40 196 (7840)
I0523 00:14:49.889361 13206 net.cpp:165] Memory required for data: 63038240
I0523 00:14:49.889384 13206 layer_factory.hpp:77] Creating layer relu5
I0523 00:14:49.889399 13206 net.cpp:106] Creating Layer relu5
I0523 00:14:49.889408 13206 net.cpp:454] relu5 <- ip1
I0523 00:14:49.889422 13206 net.cpp:397] relu5 -> ip1 (in-place)
I0523 00:14:49.889776 13206 net.cpp:150] Setting up relu5
I0523 00:14:49.889791 13206 net.cpp:157] Top shape: 40 196 (7840)
I0523 00:14:49.889801 13206 net.cpp:165] Memory required for data: 63069600
I0523 00:14:49.889811 13206 layer_factory.hpp:77] Creating layer drop1
I0523 00:14:49.889829 13206 net.cpp:106] Creating Layer drop1
I0523 00:14:49.889839 13206 net.cpp:454] drop1 <- ip1
I0523 00:14:49.889853 13206 net.cpp:397] drop1 -> ip1 (in-place)
I0523 00:14:49.889897 13206 net.cpp:150] Setting up drop1
I0523 00:14:49.889911 13206 net.cpp:157] Top shape: 40 196 (7840)
I0523 00:14:49.889922 13206 net.cpp:165] Memory required for data: 63100960
I0523 00:14:49.889931 13206 layer_factory.hpp:77] Creating layer ip2
I0523 00:14:49.889945 13206 net.cpp:106] Creating Layer ip2
I0523 00:14:49.889955 13206 net.cpp:454] ip2 <- ip1
I0523 00:14:49.889969 13206 net.cpp:411] ip2 -> ip2
I0523 00:14:49.890445 13206 net.cpp:150] Setting up ip2
I0523 00:14:49.890458 13206 net.cpp:157] Top shape: 40 98 (3920)
I0523 00:14:49.890468 13206 net.cpp:165] Memory required for data: 63116640
I0523 00:14:49.890485 13206 layer_factory.hpp:77] Creating layer relu6
I0523 00:14:49.890509 13206 net.cpp:106] Creating Layer relu6
I0523 00:14:49.890519 13206 net.cpp:454] relu6 <- ip2
I0523 00:14:49.890532 13206 net.cpp:397] relu6 -> ip2 (in-place)
I0523 00:14:49.891067 13206 net.cpp:150] Setting up relu6
I0523 00:14:49.891083 13206 net.cpp:157] Top shape: 40 98 (3920)
I0523 00:14:49.891093 13206 net.cpp:165] Memory required for data: 63132320
I0523 00:14:49.891103 13206 layer_factory.hpp:77] Creating layer drop2
I0523 00:14:49.891115 13206 net.cpp:106] Creating Layer drop2
I0523 00:14:49.891125 13206 net.cpp:454] drop2 <- ip2
I0523 00:14:49.891139 13206 net.cpp:397] drop2 -> ip2 (in-place)
I0523 00:14:49.891183 13206 net.cpp:150] Setting up drop2
I0523 00:14:49.891196 13206 net.cpp:157] Top shape: 40 98 (3920)
I0523 00:14:49.891206 13206 net.cpp:165] Memory required for data: 63148000
I0523 00:14:49.891214 13206 layer_factory.hpp:77] Creating layer ip3
I0523 00:14:49.891228 13206 net.cpp:106] Creating Layer ip3
I0523 00:14:49.891238 13206 net.cpp:454] ip3 <- ip2
I0523 00:14:49.891252 13206 net.cpp:411] ip3 -> ip3
I0523 00:14:49.891475 13206 net.cpp:150] Setting up ip3
I0523 00:14:49.891489 13206 net.cpp:157] Top shape: 40 11 (440)
I0523 00:14:49.891499 13206 net.cpp:165] Memory required for data: 63149760
I0523 00:14:49.891515 13206 layer_factory.hpp:77] Creating layer drop3
I0523 00:14:49.891527 13206 net.cpp:106] Creating Layer drop3
I0523 00:14:49.891536 13206 net.cpp:454] drop3 <- ip3
I0523 00:14:49.891549 13206 net.cpp:397] drop3 -> ip3 (in-place)
I0523 00:14:49.891590 13206 net.cpp:150] Setting up drop3
I0523 00:14:49.891603 13206 net.cpp:157] Top shape: 40 11 (440)
I0523 00:14:49.891613 13206 net.cpp:165] Memory required for data: 63151520
I0523 00:14:49.891621 13206 layer_factory.hpp:77] Creating layer ip3_drop3_0_split
I0523 00:14:49.891634 13206 net.cpp:106] Creating Layer ip3_drop3_0_split
I0523 00:14:49.891644 13206 net.cpp:454] ip3_drop3_0_split <- ip3
I0523 00:14:49.891657 13206 net.cpp:411] ip3_drop3_0_split -> ip3_drop3_0_split_0
I0523 00:14:49.891671 13206 net.cpp:411] ip3_drop3_0_split -> ip3_drop3_0_split_1
I0523 00:14:49.891744 13206 net.cpp:150] Setting up ip3_drop3_0_split
I0523 00:14:49.891758 13206 net.cpp:157] Top shape: 40 11 (440)
I0523 00:14:49.891770 13206 net.cpp:157] Top shape: 40 11 (440)
I0523 00:14:49.891780 13206 net.cpp:165] Memory required for data: 63155040
I0523 00:14:49.891788 13206 layer_factory.hpp:77] Creating layer accuracy
I0523 00:14:49.891810 13206 net.cpp:106] Creating Layer accuracy
I0523 00:14:49.891820 13206 net.cpp:454] accuracy <- ip3_drop3_0_split_0
I0523 00:14:49.891832 13206 net.cpp:454] accuracy <- label_data_hdf5_1_split_0
I0523 00:14:49.891845 13206 net.cpp:411] accuracy -> accuracy
…
