…
I0527 11:47:58.408349  5565 net.cpp:322] The NetState phase (0) differed from the phase (1) specified by a rule in layer data_hdf5
I0527 11:47:58.408411  5565 net.cpp:322] The NetState phase (0) differed from the phase (1) specified by a rule in layer accuracy
I0527 11:47:58.408792  5565 net.cpp:49] Initializing net from parameters: 
name: "caffe_test_127x50_x_unshifted"
state {
  phase: TRAIN
}
layer {
  name: "data_hdf5"
  type: "HDF5Data"
  top: "data"
  top: "label"
  include {
    phase: TRAIN
  }
  hdf5_data_param {
    source: "/lustre/atlas/proj-shared/hep105/caffe_titan/minosmatch_nukecczdefs_127x50_x_unshifted_me1Bmc.trainlist"
    batch_size: 40
  }
}
layer {
  name: "conv1"
  type: "Convolution"
  bottom: "data"
  top: "conv1"
  convolution_param {
    num_output: 12
    pad: 0
    stride: 1
    weight_filler {
      type: "xavier"
    }
    bias_filler {
      type: "constant"
    }
    kernel_h: 8
    kernel_w: 3
  }
}
layer {
  name: "relu1"
  type: "ReLU"
  bottom: "conv1"
  top: "conv1"
}
layer {
  name: "pool1"
  type: "Pooling"
  bottom: "conv1"
  top: "pool1"
  pooling_param {
    pool: MAX
    kernel_h: 2
    kernel_w: 1
    stride_h: 2
    stride_w: 1
  }
}
layer {
  name: "conv2"
  type: "Convolution"
  bottom: "pool1"
  top: "conv2"
  convolution_param {
    num_output: 20
    pad: 0
    stride: 1
    weight_filler {
      type: "xavier"
    }
    bias_filler {
      type: "constant"
    }
    kernel_h: 7
    kernel_w: 3
  }
}
layer {
  name: "relu2"
  type: "ReLU"
  bottom: "conv2"
  top: "conv2"
}
layer {
  name: "pool2"
  type: "Pooling"
  bottom: "conv2"
  top: "pool2"
  pooling_param {
    pool: MAX
    kernel_h: 2
    kernel_w: 1
    stride_h: 2
    stride_w: 1
  }
}
layer {
  name: "conv3"
  type: "Convolution"
  bottom: "pool2"
  top: "conv3"
  convolution_param {
    num_output: 28
    pad: 0
    stride: 1
    weight_filler {
      type: "xavier"
    }
    bias_filler {
      type: "constant"
    }
    kernel_h: 6
    kernel_w: 3
  }
}
layer {
  name: "relu3"
  type: "ReLU"
  bottom: "conv3"
  top: "conv3"
}
layer {
  name: "pool3"
  type: "Pooling"
  bottom: "conv3"
  top: "pool3"
  pooling_param {
    pool: MAX
    kernel_h: 2
    kernel_w: 1
    stride_h: 2
    stride_w: 1
  }
}
layer {
  name: "conv4"
  type: "Convolution"
  bottom: "pool3"
  top: "conv4"
  convolution_param {
    num_output: 36
    pad: 0
    stride: 1
    weight_filler {
      type: "xavier"
    }
    bias_filler {
      type: "constant"
    }
    kernel_h: 6
    kernel_w: 3
  }
}
layer {
  name: "relu4"
  type: "ReLU"
  bottom: "conv4"
  top: "conv4"
}
layer {
  name: "pool4"
  type: "Pooling"
  bottom: "conv4"
  top: "pool4"
  pooling_param {
    pool: MAX
    kernel_h: 2
    kernel_w: 1
    stride_h: 2
    stride_w: 1
  }
}
layer {
  name: "ip1"
  type: "InnerProduct"
  bottom: "pool4"
  top: "ip1"
  inner_product_param {
    num_output: 196
    weight_filler {
      type: "xavier"
    }
    bias_filler {
      type: "constant"
    }
  }
}
layer {
  name: "relu5"
  type: "ReLU"
  bottom: "ip1"
  top: "ip1"
}
layer {
  name: "drop1"
  type: "Dropout"
  bottom: "ip1"
  top: "ip1"
  dropout_param {
    dropout_ratio: 0.5
  }
}
layer {
  name: "ip2"
  type: "InnerProduct"
  bottom: "ip1"
  top: "ip2"
  inner_product_param {
    num_output: 98
    weight_filler {
      type: "xavier"
    }
    bias_filler {
      type: "constant"
    }
  }
}
layer {
  name: "relu6"
  type: "ReLU"
  bottom: "ip2"
  top: "ip2"
}
layer {
  name: "drop2"
  type: "Dropout"
  bottom: "ip2"
  top: "ip2"
  dropout_param {
    dropout_ratio: 0.5
  }
}
layer {
  name: "ip3"
  type: "InnerProduct"
  bottom: "ip2"
  top: "ip3"
  inner_product_param {
    num_output: 11
    weight_filler {
      type: "xavier"
    }
    bias_filler {
      type: "constant"
    }
  }
}
layer {
  name: "drop3"
  type: "Dropout"
  bottom: "ip3"
  top: "ip3"
  dropout_param {
    dropout_ratio: 0.5
  }
}
layer {
  name: "loss"
  type: "SoftmaxWithLoss"
  bottom: "ip3"
  bottom: "label"
  top: "loss"
}
I0527 11:47:58.409001  5565 layer_factory.hpp:77] Creating layer data_hdf5
I0527 11:47:58.409031  5565 net.cpp:106] Creating Layer data_hdf5
I0527 11:47:58.409056  5565 net.cpp:411] data_hdf5 -> data
I0527 11:47:58.409090  5565 net.cpp:411] data_hdf5 -> label
I0527 11:47:58.409126  5565 hdf5_data_layer.cpp:79] Loading list of HDF5 filenames from: /lustre/atlas/proj-shared/hep105/caffe_titan/minosmatch_nukecczdefs_127x50_x_unshifted_me1Bmc.trainlist
I0527 11:47:58.410701  5565 hdf5_data_layer.cpp:93] Number of HDF5 files: 15
I0527 11:47:58.413084  5565 hdf5.cpp:32] Datatype class: H5T_FLOAT
I0527 11:48:19.976829  5565 hdf5.cpp:35] Datatype class: H5T_INTEGER
I0527 11:48:19.981989  5565 net.cpp:150] Setting up data_hdf5
I0527 11:48:19.982030  5565 net.cpp:157] Top shape: 40 1 127 50 (254000)
I0527 11:48:19.982048  5565 net.cpp:157] Top shape: 40 (40)
I0527 11:48:19.982060  5565 net.cpp:165] Memory required for data: 1016160
I0527 11:48:19.982079  5565 layer_factory.hpp:77] Creating layer conv1
I0527 11:48:19.982125  5565 net.cpp:106] Creating Layer conv1
I0527 11:48:19.982139  5565 net.cpp:454] conv1 <- data
I0527 11:48:19.982164  5565 net.cpp:411] conv1 -> conv1
I0527 11:48:20.347314  5565 net.cpp:150] Setting up conv1
I0527 11:48:20.347365  5565 net.cpp:157] Top shape: 40 12 120 48 (2764800)
I0527 11:48:20.347380  5565 net.cpp:165] Memory required for data: 12075360
I0527 11:48:20.347410  5565 layer_factory.hpp:77] Creating layer relu1
I0527 11:48:20.347434  5565 net.cpp:106] Creating Layer relu1
I0527 11:48:20.347453  5565 net.cpp:454] relu1 <- conv1
I0527 11:48:20.347489  5565 net.cpp:397] relu1 -> conv1 (in-place)
I0527 11:48:20.348023  5565 net.cpp:150] Setting up relu1
I0527 11:48:20.348047  5565 net.cpp:157] Top shape: 40 12 120 48 (2764800)
I0527 11:48:20.348060  5565 net.cpp:165] Memory required for data: 23134560
I0527 11:48:20.348076  5565 layer_factory.hpp:77] Creating layer pool1
I0527 11:48:20.348104  5565 net.cpp:106] Creating Layer pool1
I0527 11:48:20.348117  5565 net.cpp:454] pool1 <- conv1
I0527 11:48:20.348134  5565 net.cpp:411] pool1 -> pool1
I0527 11:48:20.348228  5565 net.cpp:150] Setting up pool1
I0527 11:48:20.348247  5565 net.cpp:157] Top shape: 40 12 60 48 (1382400)
I0527 11:48:20.348260  5565 net.cpp:165] Memory required for data: 28664160
I0527 11:48:20.348281  5565 layer_factory.hpp:77] Creating layer conv2
I0527 11:48:20.348305  5565 net.cpp:106] Creating Layer conv2
I0527 11:48:20.348320  5565 net.cpp:454] conv2 <- pool1
I0527 11:48:20.348335  5565 net.cpp:411] conv2 -> conv2
I0527 11:48:20.351027  5565 net.cpp:150] Setting up conv2
I0527 11:48:20.351061  5565 net.cpp:157] Top shape: 40 20 54 46 (1987200)
I0527 11:48:20.351076  5565 net.cpp:165] Memory required for data: 36612960
I0527 11:48:20.351104  5565 layer_factory.hpp:77] Creating layer relu2
I0527 11:48:20.351132  5565 net.cpp:106] Creating Layer relu2
I0527 11:48:20.351146  5565 net.cpp:454] relu2 <- conv2
I0527 11:48:20.351163  5565 net.cpp:397] relu2 -> conv2 (in-place)
I0527 11:48:20.351516  5565 net.cpp:150] Setting up relu2
I0527 11:48:20.351537  5565 net.cpp:157] Top shape: 40 20 54 46 (1987200)
I0527 11:48:20.351550  5565 net.cpp:165] Memory required for data: 44561760
I0527 11:48:20.351562  5565 layer_factory.hpp:77] Creating layer pool2
I0527 11:48:20.351588  5565 net.cpp:106] Creating Layer pool2
I0527 11:48:20.351600  5565 net.cpp:454] pool2 <- conv2
I0527 11:48:20.351616  5565 net.cpp:411] pool2 -> pool2
I0527 11:48:20.351713  5565 net.cpp:150] Setting up pool2
I0527 11:48:20.351730  5565 net.cpp:157] Top shape: 40 20 27 46 (993600)
I0527 11:48:20.351745  5565 net.cpp:165] Memory required for data: 48536160
I0527 11:48:20.351764  5565 layer_factory.hpp:77] Creating layer conv3
I0527 11:48:20.351784  5565 net.cpp:106] Creating Layer conv3
I0527 11:48:20.351799  5565 net.cpp:454] conv3 <- pool2
I0527 11:48:20.351815  5565 net.cpp:411] conv3 -> conv3
I0527 11:48:20.353806  5565 net.cpp:150] Setting up conv3
I0527 11:48:20.353829  5565 net.cpp:157] Top shape: 40 28 22 44 (1084160)
I0527 11:48:20.353849  5565 net.cpp:165] Memory required for data: 52872800
I0527 11:48:20.353873  5565 layer_factory.hpp:77] Creating layer relu3
I0527 11:48:20.353894  5565 net.cpp:106] Creating Layer relu3
I0527 11:48:20.353917  5565 net.cpp:454] relu3 <- conv3
I0527 11:48:20.353934  5565 net.cpp:397] relu3 -> conv3 (in-place)
I0527 11:48:20.354423  5565 net.cpp:150] Setting up relu3
I0527 11:48:20.354447  5565 net.cpp:157] Top shape: 40 28 22 44 (1084160)
I0527 11:48:20.354460  5565 net.cpp:165] Memory required for data: 57209440
I0527 11:48:20.354476  5565 layer_factory.hpp:77] Creating layer pool3
I0527 11:48:20.354491  5565 net.cpp:106] Creating Layer pool3
I0527 11:48:20.354513  5565 net.cpp:454] pool3 <- conv3
I0527 11:48:20.354529  5565 net.cpp:411] pool3 -> pool3
I0527 11:48:20.354612  5565 net.cpp:150] Setting up pool3
I0527 11:48:20.354635  5565 net.cpp:157] Top shape: 40 28 11 44 (542080)
I0527 11:48:20.354647  5565 net.cpp:165] Memory required for data: 59377760
I0527 11:48:20.354662  5565 layer_factory.hpp:77] Creating layer conv4
I0527 11:48:20.354688  5565 net.cpp:106] Creating Layer conv4
I0527 11:48:20.354701  5565 net.cpp:454] conv4 <- pool3
I0527 11:48:20.354718  5565 net.cpp:411] conv4 -> conv4
I0527 11:48:20.357497  5565 net.cpp:150] Setting up conv4
I0527 11:48:20.357533  5565 net.cpp:157] Top shape: 40 36 6 42 (362880)
I0527 11:48:20.357547  5565 net.cpp:165] Memory required for data: 60829280
I0527 11:48:20.357570  5565 layer_factory.hpp:77] Creating layer relu4
I0527 11:48:20.357599  5565 net.cpp:106] Creating Layer relu4
I0527 11:48:20.357612  5565 net.cpp:454] relu4 <- conv4
I0527 11:48:20.357628  5565 net.cpp:397] relu4 -> conv4 (in-place)
I0527 11:48:20.358129  5565 net.cpp:150] Setting up relu4
I0527 11:48:20.358152  5565 net.cpp:157] Top shape: 40 36 6 42 (362880)
I0527 11:48:20.358165  5565 net.cpp:165] Memory required for data: 62280800
I0527 11:48:20.358181  5565 layer_factory.hpp:77] Creating layer pool4
I0527 11:48:20.358206  5565 net.cpp:106] Creating Layer pool4
I0527 11:48:20.358218  5565 net.cpp:454] pool4 <- conv4
I0527 11:48:20.358234  5565 net.cpp:411] pool4 -> pool4
I0527 11:48:20.358317  5565 net.cpp:150] Setting up pool4
I0527 11:48:20.358340  5565 net.cpp:157] Top shape: 40 36 3 42 (181440)
I0527 11:48:20.358355  5565 net.cpp:165] Memory required for data: 63006560
I0527 11:48:20.358369  5565 layer_factory.hpp:77] Creating layer ip1
I0527 11:48:20.358397  5565 net.cpp:106] Creating Layer ip1
I0527 11:48:20.358412  5565 net.cpp:454] ip1 <- pool4
I0527 11:48:20.358427  5565 net.cpp:411] ip1 -> ip1
I0527 11:48:20.373908  5565 net.cpp:150] Setting up ip1
I0527 11:48:20.373941  5565 net.cpp:157] Top shape: 40 196 (7840)
I0527 11:48:20.373958  5565 net.cpp:165] Memory required for data: 63037920
I0527 11:48:20.373988  5565 layer_factory.hpp:77] Creating layer relu5
I0527 11:48:20.374017  5565 net.cpp:106] Creating Layer relu5
I0527 11:48:20.374032  5565 net.cpp:454] relu5 <- ip1
I0527 11:48:20.374047  5565 net.cpp:397] relu5 -> ip1 (in-place)
I0527 11:48:20.374411  5565 net.cpp:150] Setting up relu5
I0527 11:48:20.374431  5565 net.cpp:157] Top shape: 40 196 (7840)
I0527 11:48:20.374444  5565 net.cpp:165] Memory required for data: 63069280
I0527 11:48:20.374456  5565 layer_factory.hpp:77] Creating layer drop1
I0527 11:48:20.374491  5565 net.cpp:106] Creating Layer drop1
I0527 11:48:20.374505  5565 net.cpp:454] drop1 <- ip1
I0527 11:48:20.374521  5565 net.cpp:397] drop1 -> ip1 (in-place)
I0527 11:48:20.374593  5565 net.cpp:150] Setting up drop1
I0527 11:48:20.374619  5565 net.cpp:157] Top shape: 40 196 (7840)
I0527 11:48:20.374632  5565 net.cpp:165] Memory required for data: 63100640
I0527 11:48:20.374649  5565 layer_factory.hpp:77] Creating layer ip2
I0527 11:48:20.374676  5565 net.cpp:106] Creating Layer ip2
I0527 11:48:20.374689  5565 net.cpp:454] ip2 <- ip1
I0527 11:48:20.374706  5565 net.cpp:411] ip2 -> ip2
I0527 11:48:20.375195  5565 net.cpp:150] Setting up ip2
I0527 11:48:20.375214  5565 net.cpp:157] Top shape: 40 98 (3920)
I0527 11:48:20.375227  5565 net.cpp:165] Memory required for data: 63116320
I0527 11:48:20.375248  5565 layer_factory.hpp:77] Creating layer relu6
I0527 11:48:20.375270  5565 net.cpp:106] Creating Layer relu6
I0527 11:48:20.375284  5565 net.cpp:454] relu6 <- ip2
I0527 11:48:20.375299  5565 net.cpp:397] relu6 -> ip2 (in-place)
I0527 11:48:20.375851  5565 net.cpp:150] Setting up relu6
I0527 11:48:20.375874  5565 net.cpp:157] Top shape: 40 98 (3920)
I0527 11:48:20.375887  5565 net.cpp:165] Memory required for data: 63132000
I0527 11:48:20.375905  5565 layer_factory.hpp:77] Creating layer drop2
I0527 11:48:20.375919  5565 net.cpp:106] Creating Layer drop2
I0527 11:48:20.375941  5565 net.cpp:454] drop2 <- ip2
I0527 11:48:20.375957  5565 net.cpp:397] drop2 -> ip2 (in-place)
I0527 11:48:20.376006  5565 net.cpp:150] Setting up drop2
I0527 11:48:20.376029  5565 net.cpp:157] Top shape: 40 98 (3920)
I0527 11:48:20.376042  5565 net.cpp:165] Memory required for data: 63147680
I0527 11:48:20.376056  5565 layer_factory.hpp:77] Creating layer ip3
I0527 11:48:20.376072  5565 net.cpp:106] Creating Layer ip3
I0527 11:48:20.376087  5565 net.cpp:454] ip3 <- ip2
I0527 11:48:20.376108  5565 net.cpp:411] ip3 -> ip3
I0527 11:48:20.376337  5565 net.cpp:150] Setting up ip3
I0527 11:48:20.376354  5565 net.cpp:157] Top shape: 40 11 (440)
I0527 11:48:20.376368  5565 net.cpp:165] Memory required for data: 63149440
I0527 11:48:20.376389  5565 layer_factory.hpp:77] Creating layer drop3
I0527 11:48:20.376410  5565 net.cpp:106] Creating Layer drop3
I0527 11:48:20.376423  5565 net.cpp:454] drop3 <- ip3
I0527 11:48:20.376440  5565 net.cpp:397] drop3 -> ip3 (in-place)
I0527 11:48:20.376487  5565 net.cpp:150] Setting up drop3
I0527 11:48:20.376508  5565 net.cpp:157] Top shape: 40 11 (440)
I0527 11:48:20.376520  5565 net.cpp:165] Memory required for data: 63151200
I0527 11:48:20.376539  5565 layer_factory.hpp:77] Creating layer loss
I0527 11:48:20.376560  5565 net.cpp:106] Creating Layer loss
I0527 11:48:20.376575  5565 net.cpp:454] loss <- ip3
I0527 11:48:20.376590  5565 net.cpp:454] loss <- label
I0527 11:48:20.376611  5565 net.cpp:411] loss -> loss
I0527 11:48:20.376631  5565 layer_factory.hpp:77] Creating layer loss
…
I0527 11:48:20.379420  5565 solver.cpp:181] Creating test net (#0) specified by net file: /lustre/atlas/proj-shared/hep105/caffe_titan/caffe_workflow/logs_bslr/bs_40_lr_0.0035_2016-05-20T15.49.03.369033.prototxt
I0527 11:48:20.379498  5565 net.cpp:322] The NetState phase (1) differed from the phase (0) specified by a rule in layer data_hdf5
I0527 11:48:20.379878  5565 net.cpp:49] Initializing net from parameters: 
name: "caffe_test_127x50_x_unshifted"
state {
  phase: TEST
}
layer {
  name: "data_hdf5"
  type: "HDF5Data"
  top: "data"
  top: "label"
  include {
    phase: TEST
  }
  hdf5_data_param {
    source: "/lustre/atlas/proj-shared/hep105/caffe_titan/minosmatch_nukecczdefs_127x50_x_unshifted_me1Bmc.testlist"
    batch_size: 40
  }
}
layer {
  name: "conv1"
  type: "Convolution"
  bottom: "data"
  top: "conv1"
  convolution_param {
    num_output: 12
    pad: 0
    stride: 1
    weight_filler {
      type: "xavier"
    }
    bias_filler {
      type: "constant"
    }
    kernel_h: 8
    kernel_w: 3
  }
}
layer {
  name: "relu1"
  type: "ReLU"
  bottom: "conv1"
  top: "conv1"
}
layer {
  name: "pool1"
  type: "Pooling"
  bottom: "conv1"
  top: "pool1"
  pooling_param {
    pool: MAX
    kernel_h: 2
    kernel_w: 1
    stride_h: 2
    stride_w: 1
  }
}
layer {
  name: "conv2"
  type: "Convolution"
  bottom: "pool1"
  top: "conv2"
  convolution_param {
    num_output: 20
    pad: 0
    stride: 1
    weight_filler {
      type: "xavier"
    }
    bias_filler {
      type: "constant"
    }
    kernel_h: 7
    kernel_w: 3
  }
}
layer {
  name: "relu2"
  type: "ReLU"
  bottom: "conv2"
  top: "conv2"
}
layer {
  name: "pool2"
  type: "Pooling"
  bottom: "conv2"
  top: "pool2"
  pooling_param {
    pool: MAX
    kernel_h: 2
    kernel_w: 1
    stride_h: 2
    stride_w: 1
  }
}
layer {
  name: "conv3"
  type: "Convolution"
  bottom: "pool2"
  top: "conv3"
  convolution_param {
    num_output: 28
    pad: 0
    stride: 1
    weight_filler {
      type: "xavier"
    }
    bias_filler {
      type: "constant"
    }
    kernel_h: 6
    kernel_w: 3
  }
}
layer {
  name: "relu3"
  type: "ReLU"
  bottom: "conv3"
  top: "conv3"
}
layer {
  name: "pool3"
  type: "Pooling"
  bottom: "conv3"
  top: "pool3"
  pooling_param {
    pool: MAX
    kernel_h: 2
    kernel_w: 1
    stride_h: 2
    stride_w: 1
  }
}
layer {
  name: "conv4"
  type: "Convolution"
  bottom: "pool3"
  top: "conv4"
  convolution_param {
    num_output: 36
    pad: 0
    stride: 1
    weight_filler {
      type: "xavier"
    }
    bias_filler {
      type: "constant"
    }
    kernel_h: 6
    kernel_w: 3
  }
}
layer {
  name: "relu4"
  type: "ReLU"
  bottom: "conv4"
  top: "conv4"
}
layer {
  name: "pool4"
  type: "Pooling"
  bottom: "conv4"
  top: "pool4"
  pooling_param {
    pool: MAX
    kernel_h: 2
    kernel_w: 1
    stride_h: 2
    stride_w: 1
  }
}
layer {
  name: "ip1"
  type: "InnerProduct"
  bottom: "pool4"
  top: "ip1"
  inner_product_param {
    num_output: 196
    weight_filler {
      type: "xavier"
    }
    bias_filler {
      type: "constant"
    }
  }
}
layer {
  name: "relu5"
  type: "ReLU"
  bottom: "ip1"
  top: "ip1"
}
layer {
  name: "drop1"
  type: "Dropout"
  bottom: "ip1"
  top: "ip1"
  dropout_param {
    dropout_ratio: 0.5
  }
}
layer {
  name: "ip2"
  type: "InnerProduct"
  bottom: "ip1"
  top: "ip2"
  inner_product_param {
    num_output: 98
    weight_filler {
      type: "xavier"
    }
    bias_filler {
      type: "constant"
    }
  }
}
layer {
  name: "relu6"
  type: "ReLU"
  bottom: "ip2"
  top: "ip2"
}
layer {
  name: "drop2"
  type: "Dropout"
  bottom: "ip2"
  top: "ip2"
  dropout_param {
    dropout_ratio: 0.5
  }
}
layer {
  name: "ip3"
  type: "InnerProduct"
  bottom: "ip2"
  top: "ip3"
  inner_product_param {
    num_output: 11
    weight_filler {
      type: "xavier"
    }
    bias_filler {
      type: "constant"
    }
  }
}
layer {
  name: "drop3"
  type: "Dropout"
  bottom: "ip3"
  top: "ip3"
  dropout_param {
    dropout_ratio: 0.5
  }
}
layer {
  name: "accuracy"
  type: "Accuracy"
  bottom: "ip3"
  bottom: "label"
  top: "accuracy"
  include {
    phase: TEST
  }
}
layer {
  name: "loss"
  type: "SoftmaxWithLoss"
  bottom: "ip3"
  bottom: "label"
  top: "loss"
}
I0527 11:48:20.380098  5565 layer_factory.hpp:77] Creating layer data_hdf5
I0527 11:48:20.380117  5565 net.cpp:106] Creating Layer data_hdf5
I0527 11:48:20.380138  5565 net.cpp:411] data_hdf5 -> data
I0527 11:48:20.380157  5565 net.cpp:411] data_hdf5 -> label
I0527 11:48:20.380178  5565 hdf5_data_layer.cpp:79] Loading list of HDF5 filenames from: /lustre/atlas/proj-shared/hep105/caffe_titan/minosmatch_nukecczdefs_127x50_x_unshifted_me1Bmc.testlist
I0527 11:48:20.381408  5565 hdf5_data_layer.cpp:93] Number of HDF5 files: 3
I0527 11:48:41.706939  5565 net.cpp:150] Setting up data_hdf5
I0527 11:48:41.707111  5565 net.cpp:157] Top shape: 40 1 127 50 (254000)
I0527 11:48:41.707137  5565 net.cpp:157] Top shape: 40 (40)
I0527 11:48:41.707150  5565 net.cpp:165] Memory required for data: 1016160
I0527 11:48:41.707165  5565 layer_factory.hpp:77] Creating layer label_data_hdf5_1_split
I0527 11:48:41.707193  5565 net.cpp:106] Creating Layer label_data_hdf5_1_split
I0527 11:48:41.707206  5565 net.cpp:454] label_data_hdf5_1_split <- label
I0527 11:48:41.707248  5565 net.cpp:411] label_data_hdf5_1_split -> label_data_hdf5_1_split_0
I0527 11:48:41.707270  5565 net.cpp:411] label_data_hdf5_1_split -> label_data_hdf5_1_split_1
I0527 11:48:41.707347  5565 net.cpp:150] Setting up label_data_hdf5_1_split
I0527 11:48:41.707367  5565 net.cpp:157] Top shape: 40 (40)
I0527 11:48:41.707389  5565 net.cpp:157] Top shape: 40 (40)
I0527 11:48:41.707402  5565 net.cpp:165] Memory required for data: 1016480
I0527 11:48:41.707415  5565 layer_factory.hpp:77] Creating layer conv1
I0527 11:48:41.707442  5565 net.cpp:106] Creating Layer conv1
I0527 11:48:41.707453  5565 net.cpp:454] conv1 <- data
I0527 11:48:41.707480  5565 net.cpp:411] conv1 -> conv1
I0527 11:48:41.709529  5565 net.cpp:150] Setting up conv1
I0527 11:48:41.709555  5565 net.cpp:157] Top shape: 40 12 120 48 (2764800)
I0527 11:48:41.709575  5565 net.cpp:165] Memory required for data: 12075680
I0527 11:48:41.709599  5565 layer_factory.hpp:77] Creating layer relu1
I0527 11:48:41.709620  5565 net.cpp:106] Creating Layer relu1
I0527 11:48:41.709642  5565 net.cpp:454] relu1 <- conv1
I0527 11:48:41.709659  5565 net.cpp:397] relu1 -> conv1 (in-place)
I0527 11:48:41.710173  5565 net.cpp:150] Setting up relu1
I0527 11:48:41.710196  5565 net.cpp:157] Top shape: 40 12 120 48 (2764800)
I0527 11:48:41.710209  5565 net.cpp:165] Memory required for data: 23134880
I0527 11:48:41.710222  5565 layer_factory.hpp:77] Creating layer pool1
I0527 11:48:41.710253  5565 net.cpp:106] Creating Layer pool1
I0527 11:48:41.710266  5565 net.cpp:454] pool1 <- conv1
I0527 11:48:41.710283  5565 net.cpp:411] pool1 -> pool1
I0527 11:48:41.710371  5565 net.cpp:150] Setting up pool1
I0527 11:48:41.710388  5565 net.cpp:157] Top shape: 40 12 60 48 (1382400)
I0527 11:48:41.710403  5565 net.cpp:165] Memory required for data: 28664480
I0527 11:48:41.710422  5565 layer_factory.hpp:77] Creating layer conv2
I0527 11:48:41.710443  5565 net.cpp:106] Creating Layer conv2
I0527 11:48:41.710455  5565 net.cpp:454] conv2 <- pool1
I0527 11:48:41.710472  5565 net.cpp:411] conv2 -> conv2
I0527 11:48:41.712426  5565 net.cpp:150] Setting up conv2
I0527 11:48:41.712451  5565 net.cpp:157] Top shape: 40 20 54 46 (1987200)
I0527 11:48:41.712472  5565 net.cpp:165] Memory required for data: 36613280
I0527 11:48:41.712494  5565 layer_factory.hpp:77] Creating layer relu2
I0527 11:48:41.712514  5565 net.cpp:106] Creating Layer relu2
I0527 11:48:41.712537  5565 net.cpp:454] relu2 <- conv2
I0527 11:48:41.712553  5565 net.cpp:397] relu2 -> conv2 (in-place)
I0527 11:48:41.712901  5565 net.cpp:150] Setting up relu2
I0527 11:48:41.712921  5565 net.cpp:157] Top shape: 40 20 54 46 (1987200)
I0527 11:48:41.712934  5565 net.cpp:165] Memory required for data: 44562080
I0527 11:48:41.712949  5565 layer_factory.hpp:77] Creating layer pool2
I0527 11:48:41.712972  5565 net.cpp:106] Creating Layer pool2
I0527 11:48:41.712985  5565 net.cpp:454] pool2 <- conv2
I0527 11:48:41.713001  5565 net.cpp:411] pool2 -> pool2
I0527 11:48:41.713088  5565 net.cpp:150] Setting up pool2
I0527 11:48:41.713111  5565 net.cpp:157] Top shape: 40 20 27 46 (993600)
I0527 11:48:41.713124  5565 net.cpp:165] Memory required for data: 48536480
I0527 11:48:41.713138  5565 layer_factory.hpp:77] Creating layer conv3
I0527 11:48:41.713166  5565 net.cpp:106] Creating Layer conv3
I0527 11:48:41.713181  5565 net.cpp:454] conv3 <- pool2
I0527 11:48:41.713196  5565 net.cpp:411] conv3 -> conv3
I0527 11:48:41.715204  5565 net.cpp:150] Setting up conv3
I0527 11:48:41.715229  5565 net.cpp:157] Top shape: 40 28 22 44 (1084160)
I0527 11:48:41.715242  5565 net.cpp:165] Memory required for data: 52873120
I0527 11:48:41.715281  5565 layer_factory.hpp:77] Creating layer relu3
I0527 11:48:41.715308  5565 net.cpp:106] Creating Layer relu3
I0527 11:48:41.715322  5565 net.cpp:454] relu3 <- conv3
I0527 11:48:41.715344  5565 net.cpp:397] relu3 -> conv3 (in-place)
I0527 11:48:41.715845  5565 net.cpp:150] Setting up relu3
I0527 11:48:41.715868  5565 net.cpp:157] Top shape: 40 28 22 44 (1084160)
I0527 11:48:41.715881  5565 net.cpp:165] Memory required for data: 57209760
I0527 11:48:41.715898  5565 layer_factory.hpp:77] Creating layer pool3
I0527 11:48:41.715922  5565 net.cpp:106] Creating Layer pool3
I0527 11:48:41.715936  5565 net.cpp:454] pool3 <- conv3
I0527 11:48:41.715951  5565 net.cpp:411] pool3 -> pool3
I0527 11:48:41.716037  5565 net.cpp:150] Setting up pool3
I0527 11:48:41.716055  5565 net.cpp:157] Top shape: 40 28 11 44 (542080)
I0527 11:48:41.716070  5565 net.cpp:165] Memory required for data: 59378080
I0527 11:48:41.716083  5565 layer_factory.hpp:77] Creating layer conv4
I0527 11:48:41.716111  5565 net.cpp:106] Creating Layer conv4
I0527 11:48:41.716132  5565 net.cpp:454] conv4 <- pool3
I0527 11:48:41.716150  5565 net.cpp:411] conv4 -> conv4
I0527 11:48:41.718233  5565 net.cpp:150] Setting up conv4
I0527 11:48:41.718257  5565 net.cpp:157] Top shape: 40 36 6 42 (362880)
I0527 11:48:41.718277  5565 net.cpp:165] Memory required for data: 60829600
I0527 11:48:41.718297  5565 layer_factory.hpp:77] Creating layer relu4
I0527 11:48:41.718317  5565 net.cpp:106] Creating Layer relu4
I0527 11:48:41.718328  5565 net.cpp:454] relu4 <- conv4
I0527 11:48:41.718354  5565 net.cpp:397] relu4 -> conv4 (in-place)
I0527 11:48:41.718848  5565 net.cpp:150] Setting up relu4
I0527 11:48:41.718871  5565 net.cpp:157] Top shape: 40 36 6 42 (362880)
I0527 11:48:41.718884  5565 net.cpp:165] Memory required for data: 62281120
I0527 11:48:41.718896  5565 layer_factory.hpp:77] Creating layer pool4
I0527 11:48:41.718916  5565 net.cpp:106] Creating Layer pool4
I0527 11:48:41.718930  5565 net.cpp:454] pool4 <- conv4
I0527 11:48:41.718955  5565 net.cpp:411] pool4 -> pool4
I0527 11:48:41.719036  5565 net.cpp:150] Setting up pool4
I0527 11:48:41.719065  5565 net.cpp:157] Top shape: 40 36 3 42 (181440)
I0527 11:48:41.719079  5565 net.cpp:165] Memory required for data: 63006880
I0527 11:48:41.719094  5565 layer_factory.hpp:77] Creating layer ip1
I0527 11:48:41.719111  5565 net.cpp:106] Creating Layer ip1
I0527 11:48:41.719125  5565 net.cpp:454] ip1 <- pool4
I0527 11:48:41.719148  5565 net.cpp:411] ip1 -> ip1
I0527 11:48:41.734532  5565 net.cpp:150] Setting up ip1
I0527 11:48:41.734565  5565 net.cpp:157] Top shape: 40 196 (7840)
I0527 11:48:41.734586  5565 net.cpp:165] Memory required for data: 63038240
I0527 11:48:41.734612  5565 layer_factory.hpp:77] Creating layer relu5
I0527 11:48:41.734634  5565 net.cpp:106] Creating Layer relu5
I0527 11:48:41.734647  5565 net.cpp:454] relu5 <- ip1
I0527 11:48:41.734676  5565 net.cpp:397] relu5 -> ip1 (in-place)
I0527 11:48:41.735046  5565 net.cpp:150] Setting up relu5
I0527 11:48:41.735067  5565 net.cpp:157] Top shape: 40 196 (7840)
I0527 11:48:41.735081  5565 net.cpp:165] Memory required for data: 63069600
I0527 11:48:41.735096  5565 layer_factory.hpp:77] Creating layer drop1
I0527 11:48:41.735126  5565 net.cpp:106] Creating Layer drop1
I0527 11:48:41.735139  5565 net.cpp:454] drop1 <- ip1
I0527 11:48:41.735155  5565 net.cpp:397] drop1 -> ip1 (in-place)
I0527 11:48:41.735215  5565 net.cpp:150] Setting up drop1
I0527 11:48:41.735230  5565 net.cpp:157] Top shape: 40 196 (7840)
I0527 11:48:41.735244  5565 net.cpp:165] Memory required for data: 63100960
I0527 11:48:41.735255  5565 layer_factory.hpp:77] Creating layer ip2
I0527 11:48:41.735275  5565 net.cpp:106] Creating Layer ip2
I0527 11:48:41.735287  5565 net.cpp:454] ip2 <- ip1
I0527 11:48:41.735311  5565 net.cpp:411] ip2 -> ip2
I0527 11:48:41.735808  5565 net.cpp:150] Setting up ip2
I0527 11:48:41.735828  5565 net.cpp:157] Top shape: 40 98 (3920)
I0527 11:48:41.735841  5565 net.cpp:165] Memory required for data: 63116640
I0527 11:48:41.735862  5565 layer_factory.hpp:77] Creating layer relu6
I0527 11:48:41.735896  5565 net.cpp:106] Creating Layer relu6
I0527 11:48:41.735910  5565 net.cpp:454] relu6 <- ip2
I0527 11:48:41.735926  5565 net.cpp:397] relu6 -> ip2 (in-place)
I0527 11:48:41.736491  5565 net.cpp:150] Setting up relu6
I0527 11:48:41.736515  5565 net.cpp:157] Top shape: 40 98 (3920)
I0527 11:48:41.736527  5565 net.cpp:165] Memory required for data: 63132320
I0527 11:48:41.736539  5565 layer_factory.hpp:77] Creating layer drop2
I0527 11:48:41.736559  5565 net.cpp:106] Creating Layer drop2
I0527 11:48:41.736580  5565 net.cpp:454] drop2 <- ip2
I0527 11:48:41.736598  5565 net.cpp:397] drop2 -> ip2 (in-place)
I0527 11:48:41.736649  5565 net.cpp:150] Setting up drop2
I0527 11:48:41.736671  5565 net.cpp:157] Top shape: 40 98 (3920)
I0527 11:48:41.736685  5565 net.cpp:165] Memory required for data: 63148000
I0527 11:48:41.736698  5565 layer_factory.hpp:77] Creating layer ip3
I0527 11:48:41.736714  5565 net.cpp:106] Creating Layer ip3
I0527 11:48:41.736729  5565 net.cpp:454] ip3 <- ip2
I0527 11:48:41.736752  5565 net.cpp:411] ip3 -> ip3
I0527 11:48:41.736994  5565 net.cpp:150] Setting up ip3
I0527 11:48:41.737012  5565 net.cpp:157] Top shape: 40 11 (440)
I0527 11:48:41.737025  5565 net.cpp:165] Memory required for data: 63149760
I0527 11:48:41.737046  5565 layer_factory.hpp:77] Creating layer drop3
I0527 11:48:41.737068  5565 net.cpp:106] Creating Layer drop3
I0527 11:48:41.737082  5565 net.cpp:454] drop3 <- ip3
I0527 11:48:41.737097  5565 net.cpp:397] drop3 -> ip3 (in-place)
I0527 11:48:41.737152  5565 net.cpp:150] Setting up drop3
I0527 11:48:41.737169  5565 net.cpp:157] Top shape: 40 11 (440)
I0527 11:48:41.737180  5565 net.cpp:165] Memory required for data: 63151520
I0527 11:48:41.737192  5565 layer_factory.hpp:77] Creating layer ip3_drop3_0_split
I0527 11:48:41.737208  5565 net.cpp:106] Creating Layer ip3_drop3_0_split
I0527 11:48:41.737223  5565 net.cpp:454] ip3_drop3_0_split <- ip3
I0527 11:48:41.737246  5565 net.cpp:411] ip3_drop3_0_split -> ip3_drop3_0_split_0
I0527 11:48:41.737265  5565 net.cpp:411] ip3_drop3_0_split -> ip3_drop3_0_split_1
I0527 11:48:41.737355  5565 net.cpp:150] Setting up ip3_drop3_0_split
I0527 11:48:41.737380  5565 net.cpp:157] Top shape: 40 11 (440)
I0527 11:48:41.737396  5565 net.cpp:157] Top shape: 40 11 (440)
I0527 11:48:41.737409  5565 net.cpp:165] Memory required for data: 63155040
I0527 11:48:41.737421  5565 layer_factory.hpp:77] Creating layer accuracy
I0527 11:48:41.737450  5565 net.cpp:106] Creating Layer accuracy
I0527 11:48:41.737464  5565 net.cpp:454] accuracy <- ip3_drop3_0_split_0
I0527 11:48:41.737478  5565 net.cpp:454] accuracy <- label_data_hdf5_1_split_0
I0527 11:48:41.737498  5565 net.cpp:411] accuracy -> accuracy
…
