…
I0526 00:57:59.357167 20937 net.cpp:322] The NetState phase (0) differed from the phase (1) specified by a rule in layer data_hdf5
I0526 00:57:59.357229 20937 net.cpp:322] The NetState phase (0) differed from the phase (1) specified by a rule in layer accuracy
I0526 00:57:59.357609 20937 net.cpp:49] Initializing net from parameters: 
name: "caffe_test_127x50_x_unshifted"
state {
  phase: TRAIN
}
layer {
  name: "data_hdf5"
  type: "HDF5Data"
  top: "data"
  top: "label"
  include {
    phase: TRAIN
  }
  hdf5_data_param {
    source: "/lustre/atlas/proj-shared/hep105/caffe_titan/minosmatch_nukecczdefs_127x50_x_unshifted_me1Bmc.trainlist"
    batch_size: 40
  }
}
layer {
  name: "conv1"
  type: "Convolution"
  bottom: "data"
  top: "conv1"
  convolution_param {
    num_output: 12
    pad: 0
    stride: 1
    weight_filler {
      type: "xavier"
    }
    bias_filler {
      type: "constant"
    }
    kernel_h: 8
    kernel_w: 3
  }
}
layer {
  name: "relu1"
  type: "ReLU"
  bottom: "conv1"
  top: "conv1"
}
layer {
  name: "pool1"
  type: "Pooling"
  bottom: "conv1"
  top: "pool1"
  pooling_param {
    pool: MAX
    kernel_h: 2
    kernel_w: 1
    stride_h: 2
    stride_w: 1
  }
}
layer {
  name: "conv2"
  type: "Convolution"
  bottom: "pool1"
  top: "conv2"
  convolution_param {
    num_output: 20
    pad: 0
    stride: 1
    weight_filler {
      type: "xavier"
    }
    bias_filler {
      type: "constant"
    }
    kernel_h: 7
    kernel_w: 3
  }
}
layer {
  name: "relu2"
  type: "ReLU"
  bottom: "conv2"
  top: "conv2"
}
layer {
  name: "pool2"
  type: "Pooling"
  bottom: "conv2"
  top: "pool2"
  pooling_param {
    pool: MAX
    kernel_h: 2
    kernel_w: 1
    stride_h: 2
    stride_w: 1
  }
}
layer {
  name: "conv3"
  type: "Convolution"
  bottom: "pool2"
  top: "conv3"
  convolution_param {
    num_output: 28
    pad: 0
    stride: 1
    weight_filler {
      type: "xavier"
    }
    bias_filler {
      type: "constant"
    }
    kernel_h: 6
    kernel_w: 3
  }
}
layer {
  name: "relu3"
  type: "ReLU"
  bottom: "conv3"
  top: "conv3"
}
layer {
  name: "pool3"
  type: "Pooling"
  bottom: "conv3"
  top: "pool3"
  pooling_param {
    pool: MAX
    kernel_h: 2
    kernel_w: 1
    stride_h: 2
    stride_w: 1
  }
}
layer {
  name: "conv4"
  type: "Convolution"
  bottom: "pool3"
  top: "conv4"
  convolution_param {
    num_output: 36
    pad: 0
    stride: 1
    weight_filler {
      type: "xavier"
    }
    bias_filler {
      type: "constant"
    }
    kernel_h: 6
    kernel_w: 3
  }
}
layer {
  name: "relu4"
  type: "ReLU"
  bottom: "conv4"
  top: "conv4"
}
layer {
  name: "pool4"
  type: "Pooling"
  bottom: "conv4"
  top: "pool4"
  pooling_param {
    pool: MAX
    kernel_h: 2
    kernel_w: 1
    stride_h: 2
    stride_w: 1
  }
}
layer {
  name: "ip1"
  type: "InnerProduct"
  bottom: "pool4"
  top: "ip1"
  inner_product_param {
    num_output: 196
    weight_filler {
      type: "xavier"
    }
    bias_filler {
      type: "constant"
    }
  }
}
layer {
  name: "relu5"
  type: "ReLU"
  bottom: "ip1"
  top: "ip1"
}
layer {
  name: "drop1"
  type: "Dropout"
  bottom: "ip1"
  top: "ip1"
  dropout_param {
    dropout_ratio: 0.5
  }
}
layer {
  name: "ip2"
  type: "InnerProduct"
  bottom: "ip1"
  top: "ip2"
  inner_product_param {
    num_output: 98
    weight_filler {
      type: "xavier"
    }
    bias_filler {
      type: "constant"
    }
  }
}
layer {
  name: "relu6"
  type: "ReLU"
  bottom: "ip2"
  top: "ip2"
}
layer {
  name: "drop2"
  type: "Dropout"
  bottom: "ip2"
  top: "ip2"
  dropout_param {
    dropout_ratio: 0.5
  }
}
layer {
  name: "ip3"
  type: "InnerProduct"
  bottom: "ip2"
  top: "ip3"
  inner_product_param {
    num_output: 11
    weight_filler {
      type: "xavier"
    }
    bias_filler {
      type: "constant"
    }
  }
}
layer {
  name: "drop3"
  type: "Dropout"
  bottom: "ip3"
  top: "ip3"
  dropout_param {
    dropout_ratio: 0.5
  }
}
layer {
  name: "loss"
  type: "SoftmaxWithLoss"
  bottom: "ip3"
  bottom: "label"
  top: "loss"
}
I0526 00:57:59.357815 20937 layer_factory.hpp:77] Creating layer data_hdf5
I0526 00:57:59.357843 20937 net.cpp:106] Creating Layer data_hdf5
I0526 00:57:59.357868 20937 net.cpp:411] data_hdf5 -> data
I0526 00:57:59.357902 20937 net.cpp:411] data_hdf5 -> label
I0526 00:57:59.357939 20937 hdf5_data_layer.cpp:79] Loading list of HDF5 filenames from: /lustre/atlas/proj-shared/hep105/caffe_titan/minosmatch_nukecczdefs_127x50_x_unshifted_me1Bmc.trainlist
I0526 00:57:59.366875 20937 hdf5_data_layer.cpp:93] Number of HDF5 files: 15
I0526 00:57:59.383491 20937 hdf5.cpp:32] Datatype class: H5T_FLOAT
I0526 00:58:20.959674 20937 hdf5.cpp:35] Datatype class: H5T_INTEGER
I0526 00:58:20.964949 20937 net.cpp:150] Setting up data_hdf5
I0526 00:58:20.964990 20937 net.cpp:157] Top shape: 40 1 127 50 (254000)
I0526 00:58:20.965008 20937 net.cpp:157] Top shape: 40 (40)
I0526 00:58:20.965020 20937 net.cpp:165] Memory required for data: 1016160
I0526 00:58:20.965052 20937 layer_factory.hpp:77] Creating layer conv1
I0526 00:58:20.965086 20937 net.cpp:106] Creating Layer conv1
I0526 00:58:20.965101 20937 net.cpp:454] conv1 <- data
I0526 00:58:20.965124 20937 net.cpp:411] conv1 -> conv1
I0526 00:58:22.741078 20937 net.cpp:150] Setting up conv1
I0526 00:58:22.741130 20937 net.cpp:157] Top shape: 40 12 120 48 (2764800)
I0526 00:58:22.741153 20937 net.cpp:165] Memory required for data: 12075360
I0526 00:58:22.741184 20937 layer_factory.hpp:77] Creating layer relu1
I0526 00:58:22.741206 20937 net.cpp:106] Creating Layer relu1
I0526 00:58:22.741225 20937 net.cpp:454] relu1 <- conv1
I0526 00:58:22.741261 20937 net.cpp:397] relu1 -> conv1 (in-place)
I0526 00:58:22.741794 20937 net.cpp:150] Setting up relu1
I0526 00:58:22.741818 20937 net.cpp:157] Top shape: 40 12 120 48 (2764800)
I0526 00:58:22.741832 20937 net.cpp:165] Memory required for data: 23134560
I0526 00:58:22.741848 20937 layer_factory.hpp:77] Creating layer pool1
I0526 00:58:22.741875 20937 net.cpp:106] Creating Layer pool1
I0526 00:58:22.741889 20937 net.cpp:454] pool1 <- conv1
I0526 00:58:22.741905 20937 net.cpp:411] pool1 -> pool1
I0526 00:58:22.741999 20937 net.cpp:150] Setting up pool1
I0526 00:58:22.742020 20937 net.cpp:157] Top shape: 40 12 60 48 (1382400)
I0526 00:58:22.742039 20937 net.cpp:165] Memory required for data: 28664160
I0526 00:58:22.742053 20937 layer_factory.hpp:77] Creating layer conv2
I0526 00:58:22.742077 20937 net.cpp:106] Creating Layer conv2
I0526 00:58:22.742091 20937 net.cpp:454] conv2 <- pool1
I0526 00:58:22.742110 20937 net.cpp:411] conv2 -> conv2
I0526 00:58:22.744797 20937 net.cpp:150] Setting up conv2
I0526 00:58:22.744828 20937 net.cpp:157] Top shape: 40 20 54 46 (1987200)
I0526 00:58:22.744842 20937 net.cpp:165] Memory required for data: 36612960
I0526 00:58:22.744869 20937 layer_factory.hpp:77] Creating layer relu2
I0526 00:58:22.744899 20937 net.cpp:106] Creating Layer relu2
I0526 00:58:22.744911 20937 net.cpp:454] relu2 <- conv2
I0526 00:58:22.744928 20937 net.cpp:397] relu2 -> conv2 (in-place)
I0526 00:58:22.745285 20937 net.cpp:150] Setting up relu2
I0526 00:58:22.745304 20937 net.cpp:157] Top shape: 40 20 54 46 (1987200)
I0526 00:58:22.745317 20937 net.cpp:165] Memory required for data: 44561760
I0526 00:58:22.745331 20937 layer_factory.hpp:77] Creating layer pool2
I0526 00:58:22.745357 20937 net.cpp:106] Creating Layer pool2
I0526 00:58:22.745369 20937 net.cpp:454] pool2 <- conv2
I0526 00:58:22.745385 20937 net.cpp:411] pool2 -> pool2
I0526 00:58:22.745482 20937 net.cpp:150] Setting up pool2
I0526 00:58:22.745502 20937 net.cpp:157] Top shape: 40 20 27 46 (993600)
I0526 00:58:22.745522 20937 net.cpp:165] Memory required for data: 48536160
I0526 00:58:22.745534 20937 layer_factory.hpp:77] Creating layer conv3
I0526 00:58:22.745555 20937 net.cpp:106] Creating Layer conv3
I0526 00:58:22.745568 20937 net.cpp:454] conv3 <- pool2
I0526 00:58:22.745584 20937 net.cpp:411] conv3 -> conv3
I0526 00:58:22.747541 20937 net.cpp:150] Setting up conv3
I0526 00:58:22.747566 20937 net.cpp:157] Top shape: 40 28 22 44 (1084160)
I0526 00:58:22.747586 20937 net.cpp:165] Memory required for data: 52872800
I0526 00:58:22.747609 20937 layer_factory.hpp:77] Creating layer relu3
I0526 00:58:22.747632 20937 net.cpp:106] Creating Layer relu3
I0526 00:58:22.747654 20937 net.cpp:454] relu3 <- conv3
I0526 00:58:22.747671 20937 net.cpp:397] relu3 -> conv3 (in-place)
I0526 00:58:22.748162 20937 net.cpp:150] Setting up relu3
I0526 00:58:22.748186 20937 net.cpp:157] Top shape: 40 28 22 44 (1084160)
I0526 00:58:22.748199 20937 net.cpp:165] Memory required for data: 57209440
I0526 00:58:22.748215 20937 layer_factory.hpp:77] Creating layer pool3
I0526 00:58:22.748230 20937 net.cpp:106] Creating Layer pool3
I0526 00:58:22.748251 20937 net.cpp:454] pool3 <- conv3
I0526 00:58:22.748267 20937 net.cpp:411] pool3 -> pool3
I0526 00:58:22.748358 20937 net.cpp:150] Setting up pool3
I0526 00:58:22.748374 20937 net.cpp:157] Top shape: 40 28 11 44 (542080)
I0526 00:58:22.748389 20937 net.cpp:165] Memory required for data: 59377760
I0526 00:58:22.748400 20937 layer_factory.hpp:77] Creating layer conv4
I0526 00:58:22.748427 20937 net.cpp:106] Creating Layer conv4
I0526 00:58:22.748447 20937 net.cpp:454] conv4 <- pool3
I0526 00:58:22.748463 20937 net.cpp:411] conv4 -> conv4
I0526 00:58:22.751243 20937 net.cpp:150] Setting up conv4
I0526 00:58:22.751276 20937 net.cpp:157] Top shape: 40 36 6 42 (362880)
I0526 00:58:22.751291 20937 net.cpp:165] Memory required for data: 60829280
I0526 00:58:22.751310 20937 layer_factory.hpp:77] Creating layer relu4
I0526 00:58:22.751332 20937 net.cpp:106] Creating Layer relu4
I0526 00:58:22.751358 20937 net.cpp:454] relu4 <- conv4
I0526 00:58:22.751374 20937 net.cpp:397] relu4 -> conv4 (in-place)
I0526 00:58:22.751869 20937 net.cpp:150] Setting up relu4
I0526 00:58:22.751893 20937 net.cpp:157] Top shape: 40 36 6 42 (362880)
I0526 00:58:22.751906 20937 net.cpp:165] Memory required for data: 62280800
I0526 00:58:22.751922 20937 layer_factory.hpp:77] Creating layer pool4
I0526 00:58:22.751937 20937 net.cpp:106] Creating Layer pool4
I0526 00:58:22.751960 20937 net.cpp:454] pool4 <- conv4
I0526 00:58:22.751976 20937 net.cpp:411] pool4 -> pool4
I0526 00:58:22.752058 20937 net.cpp:150] Setting up pool4
I0526 00:58:22.752081 20937 net.cpp:157] Top shape: 40 36 3 42 (181440)
I0526 00:58:22.752095 20937 net.cpp:165] Memory required for data: 63006560
I0526 00:58:22.752110 20937 layer_factory.hpp:77] Creating layer ip1
I0526 00:58:22.752137 20937 net.cpp:106] Creating Layer ip1
I0526 00:58:22.752151 20937 net.cpp:454] ip1 <- pool4
I0526 00:58:22.752166 20937 net.cpp:411] ip1 -> ip1
I0526 00:58:22.767642 20937 net.cpp:150] Setting up ip1
I0526 00:58:22.767673 20937 net.cpp:157] Top shape: 40 196 (7840)
I0526 00:58:22.767695 20937 net.cpp:165] Memory required for data: 63037920
I0526 00:58:22.767722 20937 layer_factory.hpp:77] Creating layer relu5
I0526 00:58:22.767743 20937 net.cpp:106] Creating Layer relu5
I0526 00:58:22.767768 20937 net.cpp:454] relu5 <- ip1
I0526 00:58:22.767784 20937 net.cpp:397] relu5 -> ip1 (in-place)
I0526 00:58:22.768143 20937 net.cpp:150] Setting up relu5
I0526 00:58:22.768163 20937 net.cpp:157] Top shape: 40 196 (7840)
I0526 00:58:22.768177 20937 net.cpp:165] Memory required for data: 63069280
I0526 00:58:22.768192 20937 layer_factory.hpp:77] Creating layer drop1
I0526 00:58:22.768223 20937 net.cpp:106] Creating Layer drop1
I0526 00:58:22.768236 20937 net.cpp:454] drop1 <- ip1
I0526 00:58:22.768252 20937 net.cpp:397] drop1 -> ip1 (in-place)
I0526 00:58:22.768324 20937 net.cpp:150] Setting up drop1
I0526 00:58:22.768347 20937 net.cpp:157] Top shape: 40 196 (7840)
I0526 00:58:22.768360 20937 net.cpp:165] Memory required for data: 63100640
I0526 00:58:22.768376 20937 layer_factory.hpp:77] Creating layer ip2
I0526 00:58:22.768398 20937 net.cpp:106] Creating Layer ip2
I0526 00:58:22.768416 20937 net.cpp:454] ip2 <- ip1
I0526 00:58:22.768438 20937 net.cpp:411] ip2 -> ip2
I0526 00:58:22.768923 20937 net.cpp:150] Setting up ip2
I0526 00:58:22.768942 20937 net.cpp:157] Top shape: 40 98 (3920)
I0526 00:58:22.768955 20937 net.cpp:165] Memory required for data: 63116320
I0526 00:58:22.768976 20937 layer_factory.hpp:77] Creating layer relu6
I0526 00:58:22.768990 20937 net.cpp:106] Creating Layer relu6
I0526 00:58:22.769011 20937 net.cpp:454] relu6 <- ip2
I0526 00:58:22.769026 20937 net.cpp:397] relu6 -> ip2 (in-place)
I0526 00:58:22.769572 20937 net.cpp:150] Setting up relu6
I0526 00:58:22.769595 20937 net.cpp:157] Top shape: 40 98 (3920)
I0526 00:58:22.769609 20937 net.cpp:165] Memory required for data: 63132000
I0526 00:58:22.769624 20937 layer_factory.hpp:77] Creating layer drop2
I0526 00:58:22.769639 20937 net.cpp:106] Creating Layer drop2
I0526 00:58:22.769660 20937 net.cpp:454] drop2 <- ip2
I0526 00:58:22.769676 20937 net.cpp:397] drop2 -> ip2 (in-place)
I0526 00:58:22.769727 20937 net.cpp:150] Setting up drop2
I0526 00:58:22.769749 20937 net.cpp:157] Top shape: 40 98 (3920)
I0526 00:58:22.769762 20937 net.cpp:165] Memory required for data: 63147680
I0526 00:58:22.769780 20937 layer_factory.hpp:77] Creating layer ip3
I0526 00:58:22.769796 20937 net.cpp:106] Creating Layer ip3
I0526 00:58:22.769811 20937 net.cpp:454] ip3 <- ip2
I0526 00:58:22.769827 20937 net.cpp:411] ip3 -> ip3
I0526 00:58:22.770061 20937 net.cpp:150] Setting up ip3
I0526 00:58:22.770079 20937 net.cpp:157] Top shape: 40 11 (440)
I0526 00:58:22.770092 20937 net.cpp:165] Memory required for data: 63149440
I0526 00:58:22.770112 20937 layer_factory.hpp:77] Creating layer drop3
I0526 00:58:22.770134 20937 net.cpp:106] Creating Layer drop3
I0526 00:58:22.770148 20937 net.cpp:454] drop3 <- ip3
I0526 00:58:22.770162 20937 net.cpp:397] drop3 -> ip3 (in-place)
I0526 00:58:22.770210 20937 net.cpp:150] Setting up drop3
I0526 00:58:22.770231 20937 net.cpp:157] Top shape: 40 11 (440)
I0526 00:58:22.770244 20937 net.cpp:165] Memory required for data: 63151200
I0526 00:58:22.770261 20937 layer_factory.hpp:77] Creating layer loss
I0526 00:58:22.770282 20937 net.cpp:106] Creating Layer loss
I0526 00:58:22.770298 20937 net.cpp:454] loss <- ip3
I0526 00:58:22.770311 20937 net.cpp:454] loss <- label
I0526 00:58:22.770334 20937 net.cpp:411] loss -> loss
I0526 00:58:22.770354 20937 layer_factory.hpp:77] Creating layer loss
…
I0526 00:58:22.773350 20937 solver.cpp:181] Creating test net (#0) specified by net file: /lustre/atlas/proj-shared/hep105/caffe_titan/caffe_workflow/logs_bslr/bs_40_lr_0.0015_2016-05-20T15.49.01.878706.prototxt
I0526 00:58:22.773429 20937 net.cpp:322] The NetState phase (1) differed from the phase (0) specified by a rule in layer data_hdf5
I0526 00:58:22.773809 20937 net.cpp:49] Initializing net from parameters: 
name: "caffe_test_127x50_x_unshifted"
state {
  phase: TEST
}
layer {
  name: "data_hdf5"
  type: "HDF5Data"
  top: "data"
  top: "label"
  include {
    phase: TEST
  }
  hdf5_data_param {
    source: "/lustre/atlas/proj-shared/hep105/caffe_titan/minosmatch_nukecczdefs_127x50_x_unshifted_me1Bmc.testlist"
    batch_size: 40
  }
}
layer {
  name: "conv1"
  type: "Convolution"
  bottom: "data"
  top: "conv1"
  convolution_param {
    num_output: 12
    pad: 0
    stride: 1
    weight_filler {
      type: "xavier"
    }
    bias_filler {
      type: "constant"
    }
    kernel_h: 8
    kernel_w: 3
  }
}
layer {
  name: "relu1"
  type: "ReLU"
  bottom: "conv1"
  top: "conv1"
}
layer {
  name: "pool1"
  type: "Pooling"
  bottom: "conv1"
  top: "pool1"
  pooling_param {
    pool: MAX
    kernel_h: 2
    kernel_w: 1
    stride_h: 2
    stride_w: 1
  }
}
layer {
  name: "conv2"
  type: "Convolution"
  bottom: "pool1"
  top: "conv2"
  convolution_param {
    num_output: 20
    pad: 0
    stride: 1
    weight_filler {
      type: "xavier"
    }
    bias_filler {
      type: "constant"
    }
    kernel_h: 7
    kernel_w: 3
  }
}
layer {
  name: "relu2"
  type: "ReLU"
  bottom: "conv2"
  top: "conv2"
}
layer {
  name: "pool2"
  type: "Pooling"
  bottom: "conv2"
  top: "pool2"
  pooling_param {
    pool: MAX
    kernel_h: 2
    kernel_w: 1
    stride_h: 2
    stride_w: 1
  }
}
layer {
  name: "conv3"
  type: "Convolution"
  bottom: "pool2"
  top: "conv3"
  convolution_param {
    num_output: 28
    pad: 0
    stride: 1
    weight_filler {
      type: "xavier"
    }
    bias_filler {
      type: "constant"
    }
    kernel_h: 6
    kernel_w: 3
  }
}
layer {
  name: "relu3"
  type: "ReLU"
  bottom: "conv3"
  top: "conv3"
}
layer {
  name: "pool3"
  type: "Pooling"
  bottom: "conv3"
  top: "pool3"
  pooling_param {
    pool: MAX
    kernel_h: 2
    kernel_w: 1
    stride_h: 2
    stride_w: 1
  }
}
layer {
  name: "conv4"
  type: "Convolution"
  bottom: "pool3"
  top: "conv4"
  convolution_param {
    num_output: 36
    pad: 0
    stride: 1
    weight_filler {
      type: "xavier"
    }
    bias_filler {
      type: "constant"
    }
    kernel_h: 6
    kernel_w: 3
  }
}
layer {
  name: "relu4"
  type: "ReLU"
  bottom: "conv4"
  top: "conv4"
}
layer {
  name: "pool4"
  type: "Pooling"
  bottom: "conv4"
  top: "pool4"
  pooling_param {
    pool: MAX
    kernel_h: 2
    kernel_w: 1
    stride_h: 2
    stride_w: 1
  }
}
layer {
  name: "ip1"
  type: "InnerProduct"
  bottom: "pool4"
  top: "ip1"
  inner_product_param {
    num_output: 196
    weight_filler {
      type: "xavier"
    }
    bias_filler {
      type: "constant"
    }
  }
}
layer {
  name: "relu5"
  type: "ReLU"
  bottom: "ip1"
  top: "ip1"
}
layer {
  name: "drop1"
  type: "Dropout"
  bottom: "ip1"
  top: "ip1"
  dropout_param {
    dropout_ratio: 0.5
  }
}
layer {
  name: "ip2"
  type: "InnerProduct"
  bottom: "ip1"
  top: "ip2"
  inner_product_param {
    num_output: 98
    weight_filler {
      type: "xavier"
    }
    bias_filler {
      type: "constant"
    }
  }
}
layer {
  name: "relu6"
  type: "ReLU"
  bottom: "ip2"
  top: "ip2"
}
layer {
  name: "drop2"
  type: "Dropout"
  bottom: "ip2"
  top: "ip2"
  dropout_param {
    dropout_ratio: 0.5
  }
}
layer {
  name: "ip3"
  type: "InnerProduct"
  bottom: "ip2"
  top: "ip3"
  inner_product_param {
    num_output: 11
    weight_filler {
      type: "xavier"
    }
    bias_filler {
      type: "constant"
    }
  }
}
layer {
  name: "drop3"
  type: "Dropout"
  bottom: "ip3"
  top: "ip3"
  dropout_param {
    dropout_ratio: 0.5
  }
}
layer {
  name: "accuracy"
  type: "Accuracy"
  bottom: "ip3"
  bottom: "label"
  top: "accuracy"
  include {
    phase: TEST
  }
}
layer {
  name: "loss"
  type: "SoftmaxWithLoss"
  bottom: "ip3"
  bottom: "label"
  top: "loss"
}
I0526 00:58:22.774032 20937 layer_factory.hpp:77] Creating layer data_hdf5
I0526 00:58:22.774052 20937 net.cpp:106] Creating Layer data_hdf5
I0526 00:58:22.774067 20937 net.cpp:411] data_hdf5 -> data
I0526 00:58:22.774090 20937 net.cpp:411] data_hdf5 -> label
I0526 00:58:22.774107 20937 hdf5_data_layer.cpp:79] Loading list of HDF5 filenames from: /lustre/atlas/proj-shared/hep105/caffe_titan/minosmatch_nukecczdefs_127x50_x_unshifted_me1Bmc.testlist
I0526 00:58:22.785403 20937 hdf5_data_layer.cpp:93] Number of HDF5 files: 3
I0526 00:58:44.157960 20937 net.cpp:150] Setting up data_hdf5
I0526 00:58:44.158143 20937 net.cpp:157] Top shape: 40 1 127 50 (254000)
I0526 00:58:44.158162 20937 net.cpp:157] Top shape: 40 (40)
I0526 00:58:44.158174 20937 net.cpp:165] Memory required for data: 1016160
I0526 00:58:44.158190 20937 layer_factory.hpp:77] Creating layer label_data_hdf5_1_split
I0526 00:58:44.158223 20937 net.cpp:106] Creating Layer label_data_hdf5_1_split
I0526 00:58:44.158237 20937 net.cpp:454] label_data_hdf5_1_split <- label
I0526 00:58:44.158272 20937 net.cpp:411] label_data_hdf5_1_split -> label_data_hdf5_1_split_0
I0526 00:58:44.158295 20937 net.cpp:411] label_data_hdf5_1_split -> label_data_hdf5_1_split_1
I0526 00:58:44.158382 20937 net.cpp:150] Setting up label_data_hdf5_1_split
I0526 00:58:44.158399 20937 net.cpp:157] Top shape: 40 (40)
I0526 00:58:44.158414 20937 net.cpp:157] Top shape: 40 (40)
I0526 00:58:44.158427 20937 net.cpp:165] Memory required for data: 1016480
I0526 00:58:44.158439 20937 layer_factory.hpp:77] Creating layer conv1
I0526 00:58:44.158473 20937 net.cpp:106] Creating Layer conv1
I0526 00:58:44.158485 20937 net.cpp:454] conv1 <- data
I0526 00:58:44.158504 20937 net.cpp:411] conv1 -> conv1
I0526 00:58:44.160459 20937 net.cpp:150] Setting up conv1
I0526 00:58:44.160485 20937 net.cpp:157] Top shape: 40 12 120 48 (2764800)
I0526 00:58:44.160506 20937 net.cpp:165] Memory required for data: 12075680
I0526 00:58:44.160531 20937 layer_factory.hpp:77] Creating layer relu1
I0526 00:58:44.160552 20937 net.cpp:106] Creating Layer relu1
I0526 00:58:44.160573 20937 net.cpp:454] relu1 <- conv1
I0526 00:58:44.160590 20937 net.cpp:397] relu1 -> conv1 (in-place)
I0526 00:58:44.161106 20937 net.cpp:150] Setting up relu1
I0526 00:58:44.161129 20937 net.cpp:157] Top shape: 40 12 120 48 (2764800)
I0526 00:58:44.161144 20937 net.cpp:165] Memory required for data: 23134880
I0526 00:58:44.161155 20937 layer_factory.hpp:77] Creating layer pool1
I0526 00:58:44.161185 20937 net.cpp:106] Creating Layer pool1
I0526 00:58:44.161200 20937 net.cpp:454] pool1 <- conv1
I0526 00:58:44.161216 20937 net.cpp:411] pool1 -> pool1
I0526 00:58:44.161304 20937 net.cpp:150] Setting up pool1
I0526 00:58:44.161321 20937 net.cpp:157] Top shape: 40 12 60 48 (1382400)
I0526 00:58:44.161336 20937 net.cpp:165] Memory required for data: 28664480
I0526 00:58:44.161355 20937 layer_factory.hpp:77] Creating layer conv2
I0526 00:58:44.161376 20937 net.cpp:106] Creating Layer conv2
I0526 00:58:44.161398 20937 net.cpp:454] conv2 <- pool1
I0526 00:58:44.161415 20937 net.cpp:411] conv2 -> conv2
I0526 00:58:44.163357 20937 net.cpp:150] Setting up conv2
I0526 00:58:44.163381 20937 net.cpp:157] Top shape: 40 20 54 46 (1987200)
I0526 00:58:44.163401 20937 net.cpp:165] Memory required for data: 36613280
I0526 00:58:44.163424 20937 layer_factory.hpp:77] Creating layer relu2
I0526 00:58:44.163442 20937 net.cpp:106] Creating Layer relu2
I0526 00:58:44.163465 20937 net.cpp:454] relu2 <- conv2
I0526 00:58:44.163480 20937 net.cpp:397] relu2 -> conv2 (in-place)
I0526 00:58:44.163830 20937 net.cpp:150] Setting up relu2
I0526 00:58:44.163849 20937 net.cpp:157] Top shape: 40 20 54 46 (1987200)
I0526 00:58:44.163862 20937 net.cpp:165] Memory required for data: 44562080
I0526 00:58:44.163877 20937 layer_factory.hpp:77] Creating layer pool2
I0526 00:58:44.163899 20937 net.cpp:106] Creating Layer pool2
I0526 00:58:44.163913 20937 net.cpp:454] pool2 <- conv2
I0526 00:58:44.163928 20937 net.cpp:411] pool2 -> pool2
I0526 00:58:44.164017 20937 net.cpp:150] Setting up pool2
I0526 00:58:44.164039 20937 net.cpp:157] Top shape: 40 20 27 46 (993600)
I0526 00:58:44.164052 20937 net.cpp:165] Memory required for data: 48536480
I0526 00:58:44.164067 20937 layer_factory.hpp:77] Creating layer conv3
I0526 00:58:44.164095 20937 net.cpp:106] Creating Layer conv3
I0526 00:58:44.164109 20937 net.cpp:454] conv3 <- pool2
I0526 00:58:44.164125 20937 net.cpp:411] conv3 -> conv3
I0526 00:58:44.166129 20937 net.cpp:150] Setting up conv3
I0526 00:58:44.166154 20937 net.cpp:157] Top shape: 40 28 22 44 (1084160)
I0526 00:58:44.166174 20937 net.cpp:165] Memory required for data: 52873120
I0526 00:58:44.166213 20937 layer_factory.hpp:77] Creating layer relu3
I0526 00:58:44.166239 20937 net.cpp:106] Creating Layer relu3
I0526 00:58:44.166254 20937 net.cpp:454] relu3 <- conv3
I0526 00:58:44.166270 20937 net.cpp:397] relu3 -> conv3 (in-place)
I0526 00:58:44.166764 20937 net.cpp:150] Setting up relu3
I0526 00:58:44.166787 20937 net.cpp:157] Top shape: 40 28 22 44 (1084160)
I0526 00:58:44.166800 20937 net.cpp:165] Memory required for data: 57209760
I0526 00:58:44.166816 20937 layer_factory.hpp:77] Creating layer pool3
I0526 00:58:44.166831 20937 net.cpp:106] Creating Layer pool3
I0526 00:58:44.166853 20937 net.cpp:454] pool3 <- conv3
I0526 00:58:44.166869 20937 net.cpp:411] pool3 -> pool3
I0526 00:58:44.166955 20937 net.cpp:150] Setting up pool3
I0526 00:58:44.166972 20937 net.cpp:157] Top shape: 40 28 11 44 (542080)
I0526 00:58:44.166987 20937 net.cpp:165] Memory required for data: 59378080
I0526 00:58:44.166999 20937 layer_factory.hpp:77] Creating layer conv4
I0526 00:58:44.167027 20937 net.cpp:106] Creating Layer conv4
I0526 00:58:44.167040 20937 net.cpp:454] conv4 <- pool3
I0526 00:58:44.167057 20937 net.cpp:411] conv4 -> conv4
I0526 00:58:44.169155 20937 net.cpp:150] Setting up conv4
I0526 00:58:44.169179 20937 net.cpp:157] Top shape: 40 36 6 42 (362880)
I0526 00:58:44.169199 20937 net.cpp:165] Memory required for data: 60829600
I0526 00:58:44.169219 20937 layer_factory.hpp:77] Creating layer relu4
I0526 00:58:44.169239 20937 net.cpp:106] Creating Layer relu4
I0526 00:58:44.169251 20937 net.cpp:454] relu4 <- conv4
I0526 00:58:44.169277 20937 net.cpp:397] relu4 -> conv4 (in-place)
I0526 00:58:44.169767 20937 net.cpp:150] Setting up relu4
I0526 00:58:44.169790 20937 net.cpp:157] Top shape: 40 36 6 42 (362880)
I0526 00:58:44.169803 20937 net.cpp:165] Memory required for data: 62281120
I0526 00:58:44.169819 20937 layer_factory.hpp:77] Creating layer pool4
I0526 00:58:44.169836 20937 net.cpp:106] Creating Layer pool4
I0526 00:58:44.169857 20937 net.cpp:454] pool4 <- conv4
I0526 00:58:44.169872 20937 net.cpp:411] pool4 -> pool4
I0526 00:58:44.169960 20937 net.cpp:150] Setting up pool4
I0526 00:58:44.169976 20937 net.cpp:157] Top shape: 40 36 3 42 (181440)
I0526 00:58:44.169991 20937 net.cpp:165] Memory required for data: 63006880
I0526 00:58:44.170003 20937 layer_factory.hpp:77] Creating layer ip1
I0526 00:58:44.170022 20937 net.cpp:106] Creating Layer ip1
I0526 00:58:44.170035 20937 net.cpp:454] ip1 <- pool4
I0526 00:58:44.170059 20937 net.cpp:411] ip1 -> ip1
I0526 00:58:44.185523 20937 net.cpp:150] Setting up ip1
I0526 00:58:44.185556 20937 net.cpp:157] Top shape: 40 196 (7840)
I0526 00:58:44.185577 20937 net.cpp:165] Memory required for data: 63038240
I0526 00:58:44.185603 20937 layer_factory.hpp:77] Creating layer relu5
I0526 00:58:44.185626 20937 net.cpp:106] Creating Layer relu5
I0526 00:58:44.185652 20937 net.cpp:454] relu5 <- ip1
I0526 00:58:44.185668 20937 net.cpp:397] relu5 -> ip1 (in-place)
I0526 00:58:44.186034 20937 net.cpp:150] Setting up relu5
I0526 00:58:44.186055 20937 net.cpp:157] Top shape: 40 196 (7840)
I0526 00:58:44.186069 20937 net.cpp:165] Memory required for data: 63069600
I0526 00:58:44.186084 20937 layer_factory.hpp:77] Creating layer drop1
I0526 00:58:44.186113 20937 net.cpp:106] Creating Layer drop1
I0526 00:58:44.186127 20937 net.cpp:454] drop1 <- ip1
I0526 00:58:44.186142 20937 net.cpp:397] drop1 -> ip1 (in-place)
I0526 00:58:44.186203 20937 net.cpp:150] Setting up drop1
I0526 00:58:44.186223 20937 net.cpp:157] Top shape: 40 196 (7840)
I0526 00:58:44.186236 20937 net.cpp:165] Memory required for data: 63100960
I0526 00:58:44.186249 20937 layer_factory.hpp:77] Creating layer ip2
I0526 00:58:44.186269 20937 net.cpp:106] Creating Layer ip2
I0526 00:58:44.186281 20937 net.cpp:454] ip2 <- ip1
I0526 00:58:44.186305 20937 net.cpp:411] ip2 -> ip2
I0526 00:58:44.186805 20937 net.cpp:150] Setting up ip2
I0526 00:58:44.186823 20937 net.cpp:157] Top shape: 40 98 (3920)
I0526 00:58:44.186836 20937 net.cpp:165] Memory required for data: 63116640
I0526 00:58:44.186858 20937 layer_factory.hpp:77] Creating layer relu6
I0526 00:58:44.186893 20937 net.cpp:106] Creating Layer relu6
I0526 00:58:44.186906 20937 net.cpp:454] relu6 <- ip2
I0526 00:58:44.186923 20937 net.cpp:397] relu6 -> ip2 (in-place)
I0526 00:58:44.187479 20937 net.cpp:150] Setting up relu6
I0526 00:58:44.187502 20937 net.cpp:157] Top shape: 40 98 (3920)
I0526 00:58:44.187515 20937 net.cpp:165] Memory required for data: 63132320
I0526 00:58:44.187527 20937 layer_factory.hpp:77] Creating layer drop2
I0526 00:58:44.187547 20937 net.cpp:106] Creating Layer drop2
I0526 00:58:44.187568 20937 net.cpp:454] drop2 <- ip2
I0526 00:58:44.187585 20937 net.cpp:397] drop2 -> ip2 (in-place)
I0526 00:58:44.187638 20937 net.cpp:150] Setting up drop2
I0526 00:58:44.187659 20937 net.cpp:157] Top shape: 40 98 (3920)
I0526 00:58:44.187672 20937 net.cpp:165] Memory required for data: 63148000
I0526 00:58:44.187691 20937 layer_factory.hpp:77] Creating layer ip3
I0526 00:58:44.187708 20937 net.cpp:106] Creating Layer ip3
I0526 00:58:44.187723 20937 net.cpp:454] ip3 <- ip2
I0526 00:58:44.187741 20937 net.cpp:411] ip3 -> ip3
I0526 00:58:44.187984 20937 net.cpp:150] Setting up ip3
I0526 00:58:44.188004 20937 net.cpp:157] Top shape: 40 11 (440)
I0526 00:58:44.188017 20937 net.cpp:165] Memory required for data: 63149760
I0526 00:58:44.188038 20937 layer_factory.hpp:77] Creating layer drop3
I0526 00:58:44.188060 20937 net.cpp:106] Creating Layer drop3
I0526 00:58:44.188074 20937 net.cpp:454] drop3 <- ip3
I0526 00:58:44.188091 20937 net.cpp:397] drop3 -> ip3 (in-place)
I0526 00:58:44.188138 20937 net.cpp:150] Setting up drop3
I0526 00:58:44.188160 20937 net.cpp:157] Top shape: 40 11 (440)
I0526 00:58:44.188174 20937 net.cpp:165] Memory required for data: 63151520
I0526 00:58:44.188187 20937 layer_factory.hpp:77] Creating layer ip3_drop3_0_split
I0526 00:58:44.188202 20937 net.cpp:106] Creating Layer ip3_drop3_0_split
I0526 00:58:44.188217 20937 net.cpp:454] ip3_drop3_0_split <- ip3
I0526 00:58:44.188232 20937 net.cpp:411] ip3_drop3_0_split -> ip3_drop3_0_split_0
I0526 00:58:44.188258 20937 net.cpp:411] ip3_drop3_0_split -> ip3_drop3_0_split_1
I0526 00:58:44.188360 20937 net.cpp:150] Setting up ip3_drop3_0_split
I0526 00:58:44.188381 20937 net.cpp:157] Top shape: 40 11 (440)
I0526 00:58:44.188396 20937 net.cpp:157] Top shape: 40 11 (440)
I0526 00:58:44.188411 20937 net.cpp:165] Memory required for data: 63155040
I0526 00:58:44.188423 20937 layer_factory.hpp:77] Creating layer accuracy
I0526 00:58:44.188452 20937 net.cpp:106] Creating Layer accuracy
I0526 00:58:44.188464 20937 net.cpp:454] accuracy <- ip3_drop3_0_split_0
I0526 00:58:44.188479 20937 net.cpp:454] accuracy <- label_data_hdf5_1_split_0
I0526 00:58:44.188495 20937 net.cpp:411] accuracy -> accuracy
…
