…
I0527 07:14:55.855399  2100 net.cpp:322] The NetState phase (0) differed from the phase (1) specified by a rule in layer data_hdf5
I0527 07:14:55.855456  2100 net.cpp:322] The NetState phase (0) differed from the phase (1) specified by a rule in layer accuracy
I0527 07:14:55.855803  2100 net.cpp:49] Initializing net from parameters: 
name: "caffe_test_127x50_x_unshifted"
state {
  phase: TRAIN
}
layer {
  name: "data_hdf5"
  type: "HDF5Data"
  top: "data"
  top: "label"
  include {
    phase: TRAIN
  }
  hdf5_data_param {
    source: "/lustre/atlas/proj-shared/hep105/caffe_titan/minosmatch_nukecczdefs_127x50_x_unshifted_me1Bmc.trainlist"
    batch_size: 40
  }
}
layer {
  name: "conv1"
  type: "Convolution"
  bottom: "data"
  top: "conv1"
  convolution_param {
    num_output: 12
    pad: 0
    stride: 1
    weight_filler {
      type: "xavier"
    }
    bias_filler {
      type: "constant"
    }
    kernel_h: 8
    kernel_w: 3
  }
}
layer {
  name: "relu1"
  type: "ReLU"
  bottom: "conv1"
  top: "conv1"
}
layer {
  name: "pool1"
  type: "Pooling"
  bottom: "conv1"
  top: "pool1"
  pooling_param {
    pool: MAX
    kernel_h: 2
    kernel_w: 1
    stride_h: 2
    stride_w: 1
  }
}
layer {
  name: "conv2"
  type: "Convolution"
  bottom: "pool1"
  top: "conv2"
  convolution_param {
    num_output: 20
    pad: 0
    stride: 1
    weight_filler {
      type: "xavier"
    }
    bias_filler {
      type: "constant"
    }
    kernel_h: 7
    kernel_w: 3
  }
}
layer {
  name: "relu2"
  type: "ReLU"
  bottom: "conv2"
  top: "conv2"
}
layer {
  name: "pool2"
  type: "Pooling"
  bottom: "conv2"
  top: "pool2"
  pooling_param {
    pool: MAX
    kernel_h: 2
    kernel_w: 1
    stride_h: 2
    stride_w: 1
  }
}
layer {
  name: "conv3"
  type: "Convolution"
  bottom: "pool2"
  top: "conv3"
  convolution_param {
    num_output: 28
    pad: 0
    stride: 1
    weight_filler {
      type: "xavier"
    }
    bias_filler {
      type: "constant"
    }
    kernel_h: 6
    kernel_w: 3
  }
}
layer {
  name: "relu3"
  type: "ReLU"
  bottom: "conv3"
  top: "conv3"
}
layer {
  name: "pool3"
  type: "Pooling"
  bottom: "conv3"
  top: "pool3"
  pooling_param {
    pool: MAX
    kernel_h: 2
    kernel_w: 1
    stride_h: 2
    stride_w: 1
  }
}
layer {
  name: "conv4"
  type: "Convolution"
  bottom: "pool3"
  top: "conv4"
  convolution_param {
    num_output: 36
    pad: 0
    stride: 1
    weight_filler {
      type: "xavier"
    }
    bias_filler {
      type: "constant"
    }
    kernel_h: 6
    kernel_w: 3
  }
}
layer {
  name: "relu4"
  type: "ReLU"
  bottom: "conv4"
  top: "conv4"
}
layer {
  name: "pool4"
  type: "Pooling"
  bottom: "conv4"
  top: "pool4"
  pooling_param {
    pool: MAX
    kernel_h: 2
    kernel_w: 1
    stride_h: 2
    stride_w: 1
  }
}
layer {
  name: "ip1"
  type: "InnerProduct"
  bottom: "pool4"
  top: "ip1"
  inner_product_param {
    num_output: 196
    weight_filler {
      type: "xavier"
    }
    bias_filler {
      type: "constant"
    }
  }
}
layer {
  name: "relu5"
  type: "ReLU"
  bottom: "ip1"
  top: "ip1"
}
layer {
  name: "drop1"
  type: "Dropout"
  bottom: "ip1"
  top: "ip1"
  dropout_param {
    dropout_ratio: 0.5
  }
}
layer {
  name: "ip2"
  type: "InnerProduct"
  bottom: "ip1"
  top: "ip2"
  inner_product_param {
    num_output: 98
    weight_filler {
      type: "xavier"
    }
    bias_filler {
      type: "constant"
    }
  }
}
layer {
  name: "relu6"
  type: "ReLU"
  bottom: "ip2"
  top: "ip2"
}
layer {
  name: "drop2"
  type: "Dropout"
  bottom: "ip2"
  top: "ip2"
  dropout_param {
    dropout_ratio: 0.5
  }
}
layer {
  name: "ip3"
  type: "InnerProduct"
  bottom: "ip2"
  top: "ip3"
  inner_product_param {
    num_output: 11
    weight_filler {
      type: "xavier"
    }
    bias_filler {
      type: "constant"
    }
  }
}
layer {
  name: "drop3"
  type: "Dropout"
  bottom: "ip3"
  top: "ip3"
  dropout_param {
    dropout_ratio: 0.5
  }
}
layer {
  name: "loss"
  type: "SoftmaxWithLoss"
  bottom: "ip3"
  bottom: "label"
  top: "loss"
}
I0527 07:14:55.855986  2100 layer_factory.hpp:77] Creating layer data_hdf5
I0527 07:14:55.856010  2100 net.cpp:106] Creating Layer data_hdf5
I0527 07:14:55.856024  2100 net.cpp:411] data_hdf5 -> data
I0527 07:14:55.856058  2100 net.cpp:411] data_hdf5 -> label
I0527 07:14:55.856091  2100 hdf5_data_layer.cpp:79] Loading list of HDF5 filenames from: /lustre/atlas/proj-shared/hep105/caffe_titan/minosmatch_nukecczdefs_127x50_x_unshifted_me1Bmc.trainlist
I0527 07:14:55.857491  2100 hdf5_data_layer.cpp:93] Number of HDF5 files: 15
I0527 07:14:55.869813  2100 hdf5.cpp:32] Datatype class: H5T_FLOAT
I0527 07:15:17.415628  2100 hdf5.cpp:35] Datatype class: H5T_INTEGER
I0527 07:15:17.420727  2100 net.cpp:150] Setting up data_hdf5
I0527 07:15:17.420766  2100 net.cpp:157] Top shape: 40 1 127 50 (254000)
I0527 07:15:17.420781  2100 net.cpp:157] Top shape: 40 (40)
I0527 07:15:17.420794  2100 net.cpp:165] Memory required for data: 1016160
I0527 07:15:17.420806  2100 layer_factory.hpp:77] Creating layer conv1
I0527 07:15:17.420840  2100 net.cpp:106] Creating Layer conv1
I0527 07:15:17.420851  2100 net.cpp:454] conv1 <- data
I0527 07:15:17.420871  2100 net.cpp:411] conv1 -> conv1
I0527 07:15:18.263165  2100 net.cpp:150] Setting up conv1
I0527 07:15:18.263207  2100 net.cpp:157] Top shape: 40 12 120 48 (2764800)
I0527 07:15:18.263218  2100 net.cpp:165] Memory required for data: 12075360
I0527 07:15:18.263247  2100 layer_factory.hpp:77] Creating layer relu1
I0527 07:15:18.263268  2100 net.cpp:106] Creating Layer relu1
I0527 07:15:18.263279  2100 net.cpp:454] relu1 <- conv1
I0527 07:15:18.263293  2100 net.cpp:397] relu1 -> conv1 (in-place)
I0527 07:15:18.263815  2100 net.cpp:150] Setting up relu1
I0527 07:15:18.263839  2100 net.cpp:157] Top shape: 40 12 120 48 (2764800)
I0527 07:15:18.263851  2100 net.cpp:165] Memory required for data: 23134560
I0527 07:15:18.263861  2100 layer_factory.hpp:77] Creating layer pool1
I0527 07:15:18.263878  2100 net.cpp:106] Creating Layer pool1
I0527 07:15:18.263888  2100 net.cpp:454] pool1 <- conv1
I0527 07:15:18.263901  2100 net.cpp:411] pool1 -> pool1
I0527 07:15:18.263983  2100 net.cpp:150] Setting up pool1
I0527 07:15:18.263996  2100 net.cpp:157] Top shape: 40 12 60 48 (1382400)
I0527 07:15:18.264005  2100 net.cpp:165] Memory required for data: 28664160
I0527 07:15:18.264016  2100 layer_factory.hpp:77] Creating layer conv2
I0527 07:15:18.264039  2100 net.cpp:106] Creating Layer conv2
I0527 07:15:18.264050  2100 net.cpp:454] conv2 <- pool1
I0527 07:15:18.264062  2100 net.cpp:411] conv2 -> conv2
I0527 07:15:18.266760  2100 net.cpp:150] Setting up conv2
I0527 07:15:18.266788  2100 net.cpp:157] Top shape: 40 20 54 46 (1987200)
I0527 07:15:18.266799  2100 net.cpp:165] Memory required for data: 36612960
I0527 07:15:18.266819  2100 layer_factory.hpp:77] Creating layer relu2
I0527 07:15:18.266834  2100 net.cpp:106] Creating Layer relu2
I0527 07:15:18.266844  2100 net.cpp:454] relu2 <- conv2
I0527 07:15:18.266857  2100 net.cpp:397] relu2 -> conv2 (in-place)
I0527 07:15:18.267187  2100 net.cpp:150] Setting up relu2
I0527 07:15:18.267202  2100 net.cpp:157] Top shape: 40 20 54 46 (1987200)
I0527 07:15:18.267212  2100 net.cpp:165] Memory required for data: 44561760
I0527 07:15:18.267222  2100 layer_factory.hpp:77] Creating layer pool2
I0527 07:15:18.267235  2100 net.cpp:106] Creating Layer pool2
I0527 07:15:18.267246  2100 net.cpp:454] pool2 <- conv2
I0527 07:15:18.267257  2100 net.cpp:411] pool2 -> pool2
I0527 07:15:18.267339  2100 net.cpp:150] Setting up pool2
I0527 07:15:18.267352  2100 net.cpp:157] Top shape: 40 20 27 46 (993600)
I0527 07:15:18.267362  2100 net.cpp:165] Memory required for data: 48536160
I0527 07:15:18.267372  2100 layer_factory.hpp:77] Creating layer conv3
I0527 07:15:18.267390  2100 net.cpp:106] Creating Layer conv3
I0527 07:15:18.267401  2100 net.cpp:454] conv3 <- pool2
I0527 07:15:18.267415  2100 net.cpp:411] conv3 -> conv3
I0527 07:15:18.269363  2100 net.cpp:150] Setting up conv3
I0527 07:15:18.269387  2100 net.cpp:157] Top shape: 40 28 22 44 (1084160)
I0527 07:15:18.269399  2100 net.cpp:165] Memory required for data: 52872800
I0527 07:15:18.269418  2100 layer_factory.hpp:77] Creating layer relu3
I0527 07:15:18.269433  2100 net.cpp:106] Creating Layer relu3
I0527 07:15:18.269443  2100 net.cpp:454] relu3 <- conv3
I0527 07:15:18.269456  2100 net.cpp:397] relu3 -> conv3 (in-place)
I0527 07:15:18.269930  2100 net.cpp:150] Setting up relu3
I0527 07:15:18.269948  2100 net.cpp:157] Top shape: 40 28 22 44 (1084160)
I0527 07:15:18.269958  2100 net.cpp:165] Memory required for data: 57209440
I0527 07:15:18.269970  2100 layer_factory.hpp:77] Creating layer pool3
I0527 07:15:18.269982  2100 net.cpp:106] Creating Layer pool3
I0527 07:15:18.269992  2100 net.cpp:454] pool3 <- conv3
I0527 07:15:18.270005  2100 net.cpp:411] pool3 -> pool3
I0527 07:15:18.270073  2100 net.cpp:150] Setting up pool3
I0527 07:15:18.270087  2100 net.cpp:157] Top shape: 40 28 11 44 (542080)
I0527 07:15:18.270097  2100 net.cpp:165] Memory required for data: 59377760
I0527 07:15:18.270107  2100 layer_factory.hpp:77] Creating layer conv4
I0527 07:15:18.270123  2100 net.cpp:106] Creating Layer conv4
I0527 07:15:18.270134  2100 net.cpp:454] conv4 <- pool3
I0527 07:15:18.270148  2100 net.cpp:411] conv4 -> conv4
I0527 07:15:18.272899  2100 net.cpp:150] Setting up conv4
I0527 07:15:18.272928  2100 net.cpp:157] Top shape: 40 36 6 42 (362880)
I0527 07:15:18.272938  2100 net.cpp:165] Memory required for data: 60829280
I0527 07:15:18.272953  2100 layer_factory.hpp:77] Creating layer relu4
I0527 07:15:18.272969  2100 net.cpp:106] Creating Layer relu4
I0527 07:15:18.272979  2100 net.cpp:454] relu4 <- conv4
I0527 07:15:18.272991  2100 net.cpp:397] relu4 -> conv4 (in-place)
I0527 07:15:18.273474  2100 net.cpp:150] Setting up relu4
I0527 07:15:18.273491  2100 net.cpp:157] Top shape: 40 36 6 42 (362880)
I0527 07:15:18.273502  2100 net.cpp:165] Memory required for data: 62280800
I0527 07:15:18.273512  2100 layer_factory.hpp:77] Creating layer pool4
I0527 07:15:18.273525  2100 net.cpp:106] Creating Layer pool4
I0527 07:15:18.273535  2100 net.cpp:454] pool4 <- conv4
I0527 07:15:18.273548  2100 net.cpp:411] pool4 -> pool4
I0527 07:15:18.273617  2100 net.cpp:150] Setting up pool4
I0527 07:15:18.273630  2100 net.cpp:157] Top shape: 40 36 3 42 (181440)
I0527 07:15:18.273638  2100 net.cpp:165] Memory required for data: 63006560
I0527 07:15:18.273649  2100 layer_factory.hpp:77] Creating layer ip1
I0527 07:15:18.273669  2100 net.cpp:106] Creating Layer ip1
I0527 07:15:18.273679  2100 net.cpp:454] ip1 <- pool4
I0527 07:15:18.273692  2100 net.cpp:411] ip1 -> ip1
I0527 07:15:18.289131  2100 net.cpp:150] Setting up ip1
I0527 07:15:18.289160  2100 net.cpp:157] Top shape: 40 196 (7840)
I0527 07:15:18.289172  2100 net.cpp:165] Memory required for data: 63037920
I0527 07:15:18.289194  2100 layer_factory.hpp:77] Creating layer relu5
I0527 07:15:18.289209  2100 net.cpp:106] Creating Layer relu5
I0527 07:15:18.289219  2100 net.cpp:454] relu5 <- ip1
I0527 07:15:18.289232  2100 net.cpp:397] relu5 -> ip1 (in-place)
I0527 07:15:18.289582  2100 net.cpp:150] Setting up relu5
I0527 07:15:18.289595  2100 net.cpp:157] Top shape: 40 196 (7840)
I0527 07:15:18.289607  2100 net.cpp:165] Memory required for data: 63069280
I0527 07:15:18.289616  2100 layer_factory.hpp:77] Creating layer drop1
I0527 07:15:18.289638  2100 net.cpp:106] Creating Layer drop1
I0527 07:15:18.289649  2100 net.cpp:454] drop1 <- ip1
I0527 07:15:18.289660  2100 net.cpp:397] drop1 -> ip1 (in-place)
I0527 07:15:18.289721  2100 net.cpp:150] Setting up drop1
I0527 07:15:18.289734  2100 net.cpp:157] Top shape: 40 196 (7840)
I0527 07:15:18.289744  2100 net.cpp:165] Memory required for data: 63100640
I0527 07:15:18.289753  2100 layer_factory.hpp:77] Creating layer ip2
I0527 07:15:18.289772  2100 net.cpp:106] Creating Layer ip2
I0527 07:15:18.289783  2100 net.cpp:454] ip2 <- ip1
I0527 07:15:18.289795  2100 net.cpp:411] ip2 -> ip2
I0527 07:15:18.290257  2100 net.cpp:150] Setting up ip2
I0527 07:15:18.290271  2100 net.cpp:157] Top shape: 40 98 (3920)
I0527 07:15:18.290280  2100 net.cpp:165] Memory required for data: 63116320
I0527 07:15:18.290295  2100 layer_factory.hpp:77] Creating layer relu6
I0527 07:15:18.290309  2100 net.cpp:106] Creating Layer relu6
I0527 07:15:18.290318  2100 net.cpp:454] relu6 <- ip2
I0527 07:15:18.290331  2100 net.cpp:397] relu6 -> ip2 (in-place)
I0527 07:15:18.290851  2100 net.cpp:150] Setting up relu6
I0527 07:15:18.290868  2100 net.cpp:157] Top shape: 40 98 (3920)
I0527 07:15:18.290879  2100 net.cpp:165] Memory required for data: 63132000
I0527 07:15:18.290889  2100 layer_factory.hpp:77] Creating layer drop2
I0527 07:15:18.290902  2100 net.cpp:106] Creating Layer drop2
I0527 07:15:18.290912  2100 net.cpp:454] drop2 <- ip2
I0527 07:15:18.290925  2100 net.cpp:397] drop2 -> ip2 (in-place)
I0527 07:15:18.290968  2100 net.cpp:150] Setting up drop2
I0527 07:15:18.290982  2100 net.cpp:157] Top shape: 40 98 (3920)
I0527 07:15:18.290992  2100 net.cpp:165] Memory required for data: 63147680
I0527 07:15:18.291002  2100 layer_factory.hpp:77] Creating layer ip3
I0527 07:15:18.291015  2100 net.cpp:106] Creating Layer ip3
I0527 07:15:18.291025  2100 net.cpp:454] ip3 <- ip2
I0527 07:15:18.291038  2100 net.cpp:411] ip3 -> ip3
I0527 07:15:18.291250  2100 net.cpp:150] Setting up ip3
I0527 07:15:18.291263  2100 net.cpp:157] Top shape: 40 11 (440)
I0527 07:15:18.291273  2100 net.cpp:165] Memory required for data: 63149440
I0527 07:15:18.291290  2100 layer_factory.hpp:77] Creating layer drop3
I0527 07:15:18.291302  2100 net.cpp:106] Creating Layer drop3
I0527 07:15:18.291311  2100 net.cpp:454] drop3 <- ip3
I0527 07:15:18.291323  2100 net.cpp:397] drop3 -> ip3 (in-place)
I0527 07:15:18.291363  2100 net.cpp:150] Setting up drop3
I0527 07:15:18.291376  2100 net.cpp:157] Top shape: 40 11 (440)
I0527 07:15:18.291385  2100 net.cpp:165] Memory required for data: 63151200
I0527 07:15:18.291395  2100 layer_factory.hpp:77] Creating layer loss
I0527 07:15:18.291414  2100 net.cpp:106] Creating Layer loss
I0527 07:15:18.291424  2100 net.cpp:454] loss <- ip3
I0527 07:15:18.291434  2100 net.cpp:454] loss <- label
I0527 07:15:18.291446  2100 net.cpp:411] loss -> loss
I0527 07:15:18.291463  2100 layer_factory.hpp:77] Creating layer loss
…
I0527 07:15:18.294435  2100 solver.cpp:181] Creating test net (#0) specified by net file: /lustre/atlas/proj-shared/hep105/caffe_titan/caffe_workflow/logs_bslr/bs_40_lr_0.0005_2016-05-20T15.49.01.064003.prototxt
I0527 07:15:18.294508  2100 net.cpp:322] The NetState phase (1) differed from the phase (0) specified by a rule in layer data_hdf5
I0527 07:15:18.294864  2100 net.cpp:49] Initializing net from parameters: 
name: "caffe_test_127x50_x_unshifted"
state {
  phase: TEST
}
layer {
  name: "data_hdf5"
  type: "HDF5Data"
  top: "data"
  top: "label"
  include {
    phase: TEST
  }
  hdf5_data_param {
    source: "/lustre/atlas/proj-shared/hep105/caffe_titan/minosmatch_nukecczdefs_127x50_x_unshifted_me1Bmc.testlist"
    batch_size: 40
  }
}
layer {
  name: "conv1"
  type: "Convolution"
  bottom: "data"
  top: "conv1"
  convolution_param {
    num_output: 12
    pad: 0
    stride: 1
    weight_filler {
      type: "xavier"
    }
    bias_filler {
      type: "constant"
    }
    kernel_h: 8
    kernel_w: 3
  }
}
layer {
  name: "relu1"
  type: "ReLU"
  bottom: "conv1"
  top: "conv1"
}
layer {
  name: "pool1"
  type: "Pooling"
  bottom: "conv1"
  top: "pool1"
  pooling_param {
    pool: MAX
    kernel_h: 2
    kernel_w: 1
    stride_h: 2
    stride_w: 1
  }
}
layer {
  name: "conv2"
  type: "Convolution"
  bottom: "pool1"
  top: "conv2"
  convolution_param {
    num_output: 20
    pad: 0
    stride: 1
    weight_filler {
      type: "xavier"
    }
    bias_filler {
      type: "constant"
    }
    kernel_h: 7
    kernel_w: 3
  }
}
layer {
  name: "relu2"
  type: "ReLU"
  bottom: "conv2"
  top: "conv2"
}
layer {
  name: "pool2"
  type: "Pooling"
  bottom: "conv2"
  top: "pool2"
  pooling_param {
    pool: MAX
    kernel_h: 2
    kernel_w: 1
    stride_h: 2
    stride_w: 1
  }
}
layer {
  name: "conv3"
  type: "Convolution"
  bottom: "pool2"
  top: "conv3"
  convolution_param {
    num_output: 28
    pad: 0
    stride: 1
    weight_filler {
      type: "xavier"
    }
    bias_filler {
      type: "constant"
    }
    kernel_h: 6
    kernel_w: 3
  }
}
layer {
  name: "relu3"
  type: "ReLU"
  bottom: "conv3"
  top: "conv3"
}
layer {
  name: "pool3"
  type: "Pooling"
  bottom: "conv3"
  top: "pool3"
  pooling_param {
    pool: MAX
    kernel_h: 2
    kernel_w: 1
    stride_h: 2
    stride_w: 1
  }
}
layer {
  name: "conv4"
  type: "Convolution"
  bottom: "pool3"
  top: "conv4"
  convolution_param {
    num_output: 36
    pad: 0
    stride: 1
    weight_filler {
      type: "xavier"
    }
    bias_filler {
      type: "constant"
    }
    kernel_h: 6
    kernel_w: 3
  }
}
layer {
  name: "relu4"
  type: "ReLU"
  bottom: "conv4"
  top: "conv4"
}
layer {
  name: "pool4"
  type: "Pooling"
  bottom: "conv4"
  top: "pool4"
  pooling_param {
    pool: MAX
    kernel_h: 2
    kernel_w: 1
    stride_h: 2
    stride_w: 1
  }
}
layer {
  name: "ip1"
  type: "InnerProduct"
  bottom: "pool4"
  top: "ip1"
  inner_product_param {
    num_output: 196
    weight_filler {
      type: "xavier"
    }
    bias_filler {
      type: "constant"
    }
  }
}
layer {
  name: "relu5"
  type: "ReLU"
  bottom: "ip1"
  top: "ip1"
}
layer {
  name: "drop1"
  type: "Dropout"
  bottom: "ip1"
  top: "ip1"
  dropout_param {
    dropout_ratio: 0.5
  }
}
layer {
  name: "ip2"
  type: "InnerProduct"
  bottom: "ip1"
  top: "ip2"
  inner_product_param {
    num_output: 98
    weight_filler {
      type: "xavier"
    }
    bias_filler {
      type: "constant"
    }
  }
}
layer {
  name: "relu6"
  type: "ReLU"
  bottom: "ip2"
  top: "ip2"
}
layer {
  name: "drop2"
  type: "Dropout"
  bottom: "ip2"
  top: "ip2"
  dropout_param {
    dropout_ratio: 0.5
  }
}
layer {
  name: "ip3"
  type: "InnerProduct"
  bottom: "ip2"
  top: "ip3"
  inner_product_param {
    num_output: 11
    weight_filler {
      type: "xavier"
    }
    bias_filler {
      type: "constant"
    }
  }
}
layer {
  name: "drop3"
  type: "Dropout"
  bottom: "ip3"
  top: "ip3"
  dropout_param {
    dropout_ratio: 0.5
  }
}
layer {
  name: "accuracy"
  type: "Accuracy"
  bottom: "ip3"
  bottom: "label"
  top: "accuracy"
  include {
    phase: TEST
  }
}
layer {
  name: "loss"
  type: "SoftmaxWithLoss"
  bottom: "ip3"
  bottom: "label"
  top: "loss"
}
I0527 07:15:18.295055  2100 layer_factory.hpp:77] Creating layer data_hdf5
I0527 07:15:18.295070  2100 net.cpp:106] Creating Layer data_hdf5
I0527 07:15:18.295083  2100 net.cpp:411] data_hdf5 -> data
I0527 07:15:18.295100  2100 net.cpp:411] data_hdf5 -> label
I0527 07:15:18.295116  2100 hdf5_data_layer.cpp:79] Loading list of HDF5 filenames from: /lustre/atlas/proj-shared/hep105/caffe_titan/minosmatch_nukecczdefs_127x50_x_unshifted_me1Bmc.testlist
I0527 07:15:18.305600  2100 hdf5_data_layer.cpp:93] Number of HDF5 files: 3
I0527 07:15:39.649798  2100 net.cpp:150] Setting up data_hdf5
I0527 07:15:39.649965  2100 net.cpp:157] Top shape: 40 1 127 50 (254000)
I0527 07:15:39.649978  2100 net.cpp:157] Top shape: 40 (40)
I0527 07:15:39.649989  2100 net.cpp:165] Memory required for data: 1016160
I0527 07:15:39.650003  2100 layer_factory.hpp:77] Creating layer label_data_hdf5_1_split
I0527 07:15:39.650032  2100 net.cpp:106] Creating Layer label_data_hdf5_1_split
I0527 07:15:39.650043  2100 net.cpp:454] label_data_hdf5_1_split <- label
I0527 07:15:39.650058  2100 net.cpp:411] label_data_hdf5_1_split -> label_data_hdf5_1_split_0
I0527 07:15:39.650079  2100 net.cpp:411] label_data_hdf5_1_split -> label_data_hdf5_1_split_1
I0527 07:15:39.650152  2100 net.cpp:150] Setting up label_data_hdf5_1_split
I0527 07:15:39.650166  2100 net.cpp:157] Top shape: 40 (40)
I0527 07:15:39.650178  2100 net.cpp:157] Top shape: 40 (40)
I0527 07:15:39.650188  2100 net.cpp:165] Memory required for data: 1016480
I0527 07:15:39.650198  2100 layer_factory.hpp:77] Creating layer conv1
I0527 07:15:39.650219  2100 net.cpp:106] Creating Layer conv1
I0527 07:15:39.650229  2100 net.cpp:454] conv1 <- data
I0527 07:15:39.650244  2100 net.cpp:411] conv1 -> conv1
I0527 07:15:39.652186  2100 net.cpp:150] Setting up conv1
I0527 07:15:39.652211  2100 net.cpp:157] Top shape: 40 12 120 48 (2764800)
I0527 07:15:39.652222  2100 net.cpp:165] Memory required for data: 12075680
I0527 07:15:39.652243  2100 layer_factory.hpp:77] Creating layer relu1
I0527 07:15:39.652258  2100 net.cpp:106] Creating Layer relu1
I0527 07:15:39.652268  2100 net.cpp:454] relu1 <- conv1
I0527 07:15:39.652281  2100 net.cpp:397] relu1 -> conv1 (in-place)
I0527 07:15:39.652778  2100 net.cpp:150] Setting up relu1
I0527 07:15:39.652796  2100 net.cpp:157] Top shape: 40 12 120 48 (2764800)
I0527 07:15:39.652806  2100 net.cpp:165] Memory required for data: 23134880
I0527 07:15:39.652815  2100 layer_factory.hpp:77] Creating layer pool1
I0527 07:15:39.652832  2100 net.cpp:106] Creating Layer pool1
I0527 07:15:39.652842  2100 net.cpp:454] pool1 <- conv1
I0527 07:15:39.652854  2100 net.cpp:411] pool1 -> pool1
I0527 07:15:39.652930  2100 net.cpp:150] Setting up pool1
I0527 07:15:39.652943  2100 net.cpp:157] Top shape: 40 12 60 48 (1382400)
I0527 07:15:39.652953  2100 net.cpp:165] Memory required for data: 28664480
I0527 07:15:39.652963  2100 layer_factory.hpp:77] Creating layer conv2
I0527 07:15:39.652981  2100 net.cpp:106] Creating Layer conv2
I0527 07:15:39.652992  2100 net.cpp:454] conv2 <- pool1
I0527 07:15:39.653007  2100 net.cpp:411] conv2 -> conv2
I0527 07:15:39.654947  2100 net.cpp:150] Setting up conv2
I0527 07:15:39.654969  2100 net.cpp:157] Top shape: 40 20 54 46 (1987200)
I0527 07:15:39.654979  2100 net.cpp:165] Memory required for data: 36613280
I0527 07:15:39.654997  2100 layer_factory.hpp:77] Creating layer relu2
I0527 07:15:39.655011  2100 net.cpp:106] Creating Layer relu2
I0527 07:15:39.655021  2100 net.cpp:454] relu2 <- conv2
I0527 07:15:39.655035  2100 net.cpp:397] relu2 -> conv2 (in-place)
I0527 07:15:39.655369  2100 net.cpp:150] Setting up relu2
I0527 07:15:39.655383  2100 net.cpp:157] Top shape: 40 20 54 46 (1987200)
I0527 07:15:39.655393  2100 net.cpp:165] Memory required for data: 44562080
I0527 07:15:39.655403  2100 layer_factory.hpp:77] Creating layer pool2
I0527 07:15:39.655416  2100 net.cpp:106] Creating Layer pool2
I0527 07:15:39.655426  2100 net.cpp:454] pool2 <- conv2
I0527 07:15:39.655439  2100 net.cpp:411] pool2 -> pool2
I0527 07:15:39.655510  2100 net.cpp:150] Setting up pool2
I0527 07:15:39.655524  2100 net.cpp:157] Top shape: 40 20 27 46 (993600)
I0527 07:15:39.655534  2100 net.cpp:165] Memory required for data: 48536480
I0527 07:15:39.655544  2100 layer_factory.hpp:77] Creating layer conv3
I0527 07:15:39.655563  2100 net.cpp:106] Creating Layer conv3
I0527 07:15:39.655575  2100 net.cpp:454] conv3 <- pool2
I0527 07:15:39.655587  2100 net.cpp:411] conv3 -> conv3
I0527 07:15:39.657567  2100 net.cpp:150] Setting up conv3
I0527 07:15:39.657590  2100 net.cpp:157] Top shape: 40 28 22 44 (1084160)
I0527 07:15:39.657603  2100 net.cpp:165] Memory required for data: 52873120
I0527 07:15:39.657635  2100 layer_factory.hpp:77] Creating layer relu3
I0527 07:15:39.657649  2100 net.cpp:106] Creating Layer relu3
I0527 07:15:39.657660  2100 net.cpp:454] relu3 <- conv3
I0527 07:15:39.657671  2100 net.cpp:397] relu3 -> conv3 (in-place)
I0527 07:15:39.658149  2100 net.cpp:150] Setting up relu3
I0527 07:15:39.658166  2100 net.cpp:157] Top shape: 40 28 22 44 (1084160)
I0527 07:15:39.658176  2100 net.cpp:165] Memory required for data: 57209760
I0527 07:15:39.658186  2100 layer_factory.hpp:77] Creating layer pool3
I0527 07:15:39.658200  2100 net.cpp:106] Creating Layer pool3
I0527 07:15:39.658210  2100 net.cpp:454] pool3 <- conv3
I0527 07:15:39.658222  2100 net.cpp:411] pool3 -> pool3
I0527 07:15:39.658295  2100 net.cpp:150] Setting up pool3
I0527 07:15:39.658308  2100 net.cpp:157] Top shape: 40 28 11 44 (542080)
I0527 07:15:39.658318  2100 net.cpp:165] Memory required for data: 59378080
I0527 07:15:39.658327  2100 layer_factory.hpp:77] Creating layer conv4
I0527 07:15:39.658344  2100 net.cpp:106] Creating Layer conv4
I0527 07:15:39.658355  2100 net.cpp:454] conv4 <- pool3
I0527 07:15:39.658368  2100 net.cpp:411] conv4 -> conv4
I0527 07:15:39.660420  2100 net.cpp:150] Setting up conv4
I0527 07:15:39.660444  2100 net.cpp:157] Top shape: 40 36 6 42 (362880)
I0527 07:15:39.660456  2100 net.cpp:165] Memory required for data: 60829600
I0527 07:15:39.660471  2100 layer_factory.hpp:77] Creating layer relu4
I0527 07:15:39.660485  2100 net.cpp:106] Creating Layer relu4
I0527 07:15:39.660495  2100 net.cpp:454] relu4 <- conv4
I0527 07:15:39.660508  2100 net.cpp:397] relu4 -> conv4 (in-place)
I0527 07:15:39.660981  2100 net.cpp:150] Setting up relu4
I0527 07:15:39.660997  2100 net.cpp:157] Top shape: 40 36 6 42 (362880)
I0527 07:15:39.661007  2100 net.cpp:165] Memory required for data: 62281120
I0527 07:15:39.661017  2100 layer_factory.hpp:77] Creating layer pool4
I0527 07:15:39.661031  2100 net.cpp:106] Creating Layer pool4
I0527 07:15:39.661041  2100 net.cpp:454] pool4 <- conv4
I0527 07:15:39.661054  2100 net.cpp:411] pool4 -> pool4
I0527 07:15:39.661125  2100 net.cpp:150] Setting up pool4
I0527 07:15:39.661139  2100 net.cpp:157] Top shape: 40 36 3 42 (181440)
I0527 07:15:39.661149  2100 net.cpp:165] Memory required for data: 63006880
I0527 07:15:39.661160  2100 layer_factory.hpp:77] Creating layer ip1
I0527 07:15:39.661175  2100 net.cpp:106] Creating Layer ip1
I0527 07:15:39.661185  2100 net.cpp:454] ip1 <- pool4
I0527 07:15:39.661201  2100 net.cpp:411] ip1 -> ip1
I0527 07:15:39.676590  2100 net.cpp:150] Setting up ip1
I0527 07:15:39.676619  2100 net.cpp:157] Top shape: 40 196 (7840)
I0527 07:15:39.676630  2100 net.cpp:165] Memory required for data: 63038240
I0527 07:15:39.676651  2100 layer_factory.hpp:77] Creating layer relu5
I0527 07:15:39.676666  2100 net.cpp:106] Creating Layer relu5
I0527 07:15:39.676677  2100 net.cpp:454] relu5 <- ip1
I0527 07:15:39.676692  2100 net.cpp:397] relu5 -> ip1 (in-place)
I0527 07:15:39.677038  2100 net.cpp:150] Setting up relu5
I0527 07:15:39.677053  2100 net.cpp:157] Top shape: 40 196 (7840)
I0527 07:15:39.677064  2100 net.cpp:165] Memory required for data: 63069600
I0527 07:15:39.677074  2100 layer_factory.hpp:77] Creating layer drop1
I0527 07:15:39.677094  2100 net.cpp:106] Creating Layer drop1
I0527 07:15:39.677104  2100 net.cpp:454] drop1 <- ip1
I0527 07:15:39.677117  2100 net.cpp:397] drop1 -> ip1 (in-place)
I0527 07:15:39.677163  2100 net.cpp:150] Setting up drop1
I0527 07:15:39.677176  2100 net.cpp:157] Top shape: 40 196 (7840)
I0527 07:15:39.677186  2100 net.cpp:165] Memory required for data: 63100960
I0527 07:15:39.677196  2100 layer_factory.hpp:77] Creating layer ip2
I0527 07:15:39.677211  2100 net.cpp:106] Creating Layer ip2
I0527 07:15:39.677222  2100 net.cpp:454] ip2 <- ip1
I0527 07:15:39.677233  2100 net.cpp:411] ip2 -> ip2
I0527 07:15:39.677722  2100 net.cpp:150] Setting up ip2
I0527 07:15:39.677736  2100 net.cpp:157] Top shape: 40 98 (3920)
I0527 07:15:39.677747  2100 net.cpp:165] Memory required for data: 63116640
I0527 07:15:39.677762  2100 layer_factory.hpp:77] Creating layer relu6
I0527 07:15:39.677788  2100 net.cpp:106] Creating Layer relu6
I0527 07:15:39.677798  2100 net.cpp:454] relu6 <- ip2
I0527 07:15:39.677811  2100 net.cpp:397] relu6 -> ip2 (in-place)
I0527 07:15:39.678349  2100 net.cpp:150] Setting up relu6
I0527 07:15:39.678371  2100 net.cpp:157] Top shape: 40 98 (3920)
I0527 07:15:39.678382  2100 net.cpp:165] Memory required for data: 63132320
I0527 07:15:39.678392  2100 layer_factory.hpp:77] Creating layer drop2
I0527 07:15:39.678406  2100 net.cpp:106] Creating Layer drop2
I0527 07:15:39.678416  2100 net.cpp:454] drop2 <- ip2
I0527 07:15:39.678428  2100 net.cpp:397] drop2 -> ip2 (in-place)
I0527 07:15:39.678473  2100 net.cpp:150] Setting up drop2
I0527 07:15:39.678486  2100 net.cpp:157] Top shape: 40 98 (3920)
I0527 07:15:39.678496  2100 net.cpp:165] Memory required for data: 63148000
I0527 07:15:39.678505  2100 layer_factory.hpp:77] Creating layer ip3
I0527 07:15:39.678520  2100 net.cpp:106] Creating Layer ip3
I0527 07:15:39.678529  2100 net.cpp:454] ip3 <- ip2
I0527 07:15:39.678544  2100 net.cpp:411] ip3 -> ip3
I0527 07:15:39.678768  2100 net.cpp:150] Setting up ip3
I0527 07:15:39.678782  2100 net.cpp:157] Top shape: 40 11 (440)
I0527 07:15:39.678792  2100 net.cpp:165] Memory required for data: 63149760
I0527 07:15:39.678807  2100 layer_factory.hpp:77] Creating layer drop3
I0527 07:15:39.678820  2100 net.cpp:106] Creating Layer drop3
I0527 07:15:39.678830  2100 net.cpp:454] drop3 <- ip3
I0527 07:15:39.678843  2100 net.cpp:397] drop3 -> ip3 (in-place)
I0527 07:15:39.678884  2100 net.cpp:150] Setting up drop3
I0527 07:15:39.678897  2100 net.cpp:157] Top shape: 40 11 (440)
I0527 07:15:39.678907  2100 net.cpp:165] Memory required for data: 63151520
I0527 07:15:39.678917  2100 layer_factory.hpp:77] Creating layer ip3_drop3_0_split
I0527 07:15:39.678930  2100 net.cpp:106] Creating Layer ip3_drop3_0_split
I0527 07:15:39.678941  2100 net.cpp:454] ip3_drop3_0_split <- ip3
I0527 07:15:39.678953  2100 net.cpp:411] ip3_drop3_0_split -> ip3_drop3_0_split_0
I0527 07:15:39.678968  2100 net.cpp:411] ip3_drop3_0_split -> ip3_drop3_0_split_1
I0527 07:15:39.679044  2100 net.cpp:150] Setting up ip3_drop3_0_split
I0527 07:15:39.679056  2100 net.cpp:157] Top shape: 40 11 (440)
I0527 07:15:39.679069  2100 net.cpp:157] Top shape: 40 11 (440)
I0527 07:15:39.679078  2100 net.cpp:165] Memory required for data: 63155040
I0527 07:15:39.679090  2100 layer_factory.hpp:77] Creating layer accuracy
I0527 07:15:39.679111  2100 net.cpp:106] Creating Layer accuracy
I0527 07:15:39.679121  2100 net.cpp:454] accuracy <- ip3_drop3_0_split_0
I0527 07:15:39.679131  2100 net.cpp:454] accuracy <- label_data_hdf5_1_split_0
I0527 07:15:39.679146  2100 net.cpp:411] accuracy -> accuracy
…
