…
I0527 11:16:39.628574 21372 net.cpp:322] The NetState phase (0) differed from the phase (1) specified by a rule in layer data_hdf5
I0527 11:16:39.628633 21372 net.cpp:322] The NetState phase (0) differed from the phase (1) specified by a rule in layer accuracy
I0527 11:16:39.628979 21372 net.cpp:49] Initializing net from parameters: 
name: "caffe_test_127x50_x_unshifted"
state {
  phase: TRAIN
}
layer {
  name: "data_hdf5"
  type: "HDF5Data"
  top: "data"
  top: "label"
  include {
    phase: TRAIN
  }
  hdf5_data_param {
    source: "/lustre/atlas/proj-shared/hep105/caffe_titan/minosmatch_nukecczdefs_127x50_x_unshifted_me1Bmc.trainlist"
    batch_size: 40
  }
}
layer {
  name: "conv1"
  type: "Convolution"
  bottom: "data"
  top: "conv1"
  convolution_param {
    num_output: 12
    pad: 0
    stride: 1
    weight_filler {
      type: "xavier"
    }
    bias_filler {
      type: "constant"
    }
    kernel_h: 8
    kernel_w: 3
  }
}
layer {
  name: "relu1"
  type: "ReLU"
  bottom: "conv1"
  top: "conv1"
}
layer {
  name: "pool1"
  type: "Pooling"
  bottom: "conv1"
  top: "pool1"
  pooling_param {
    pool: MAX
    kernel_h: 2
    kernel_w: 1
    stride_h: 2
    stride_w: 1
  }
}
layer {
  name: "conv2"
  type: "Convolution"
  bottom: "pool1"
  top: "conv2"
  convolution_param {
    num_output: 20
    pad: 0
    stride: 1
    weight_filler {
      type: "xavier"
    }
    bias_filler {
      type: "constant"
    }
    kernel_h: 7
    kernel_w: 3
  }
}
layer {
  name: "relu2"
  type: "ReLU"
  bottom: "conv2"
  top: "conv2"
}
layer {
  name: "pool2"
  type: "Pooling"
  bottom: "conv2"
  top: "pool2"
  pooling_param {
    pool: MAX
    kernel_h: 2
    kernel_w: 1
    stride_h: 2
    stride_w: 1
  }
}
layer {
  name: "conv3"
  type: "Convolution"
  bottom: "pool2"
  top: "conv3"
  convolution_param {
    num_output: 28
    pad: 0
    stride: 1
    weight_filler {
      type: "xavier"
    }
    bias_filler {
      type: "constant"
    }
    kernel_h: 6
    kernel_w: 3
  }
}
layer {
  name: "relu3"
  type: "ReLU"
  bottom: "conv3"
  top: "conv3"
}
layer {
  name: "pool3"
  type: "Pooling"
  bottom: "conv3"
  top: "pool3"
  pooling_param {
    pool: MAX
    kernel_h: 2
    kernel_w: 1
    stride_h: 2
    stride_w: 1
  }
}
layer {
  name: "conv4"
  type: "Convolution"
  bottom: "pool3"
  top: "conv4"
  convolution_param {
    num_output: 36
    pad: 0
    stride: 1
    weight_filler {
      type: "xavier"
    }
    bias_filler {
      type: "constant"
    }
    kernel_h: 6
    kernel_w: 3
  }
}
layer {
  name: "relu4"
  type: "ReLU"
  bottom: "conv4"
  top: "conv4"
}
layer {
  name: "pool4"
  type: "Pooling"
  bottom: "conv4"
  top: "pool4"
  pooling_param {
    pool: MAX
    kernel_h: 2
    kernel_w: 1
    stride_h: 2
    stride_w: 1
  }
}
layer {
  name: "ip1"
  type: "InnerProduct"
  bottom: "pool4"
  top: "ip1"
  inner_product_param {
    num_output: 196
    weight_filler {
      type: "xavier"
    }
    bias_filler {
      type: "constant"
    }
  }
}
layer {
  name: "relu5"
  type: "ReLU"
  bottom: "ip1"
  top: "ip1"
}
layer {
  name: "drop1"
  type: "Dropout"
  bottom: "ip1"
  top: "ip1"
  dropout_param {
    dropout_ratio: 0.5
  }
}
layer {
  name: "ip2"
  type: "InnerProduct"
  bottom: "ip1"
  top: "ip2"
  inner_product_param {
    num_output: 98
    weight_filler {
      type: "xavier"
    }
    bias_filler {
      type: "constant"
    }
  }
}
layer {
  name: "relu6"
  type: "ReLU"
  bottom: "ip2"
  top: "ip2"
}
layer {
  name: "drop2"
  type: "Dropout"
  bottom: "ip2"
  top: "ip2"
  dropout_param {
    dropout_ratio: 0.5
  }
}
layer {
  name: "ip3"
  type: "InnerProduct"
  bottom: "ip2"
  top: "ip3"
  inner_product_param {
    num_output: 11
    weight_filler {
      type: "xavier"
    }
    bias_filler {
      type: "constant"
    }
  }
}
layer {
  name: "drop3"
  type: "Dropout"
  bottom: "ip3"
  top: "ip3"
  dropout_param {
    dropout_ratio: 0.5
  }
}
layer {
  name: "loss"
  type: "SoftmaxWithLoss"
  bottom: "ip3"
  bottom: "label"
  top: "loss"
}
I0527 11:16:39.629160 21372 layer_factory.hpp:77] Creating layer data_hdf5
I0527 11:16:39.629184 21372 net.cpp:106] Creating Layer data_hdf5
I0527 11:16:39.629199 21372 net.cpp:411] data_hdf5 -> data
I0527 11:16:39.629232 21372 net.cpp:411] data_hdf5 -> label
I0527 11:16:39.629266 21372 hdf5_data_layer.cpp:79] Loading list of HDF5 filenames from: /lustre/atlas/proj-shared/hep105/caffe_titan/minosmatch_nukecczdefs_127x50_x_unshifted_me1Bmc.trainlist
I0527 11:16:39.642973 21372 hdf5_data_layer.cpp:93] Number of HDF5 files: 15
I0527 11:16:39.656337 21372 hdf5.cpp:32] Datatype class: H5T_FLOAT
I0527 11:17:01.267233 21372 hdf5.cpp:35] Datatype class: H5T_INTEGER
I0527 11:17:01.272435 21372 net.cpp:150] Setting up data_hdf5
I0527 11:17:01.272480 21372 net.cpp:157] Top shape: 40 1 127 50 (254000)
I0527 11:17:01.272495 21372 net.cpp:157] Top shape: 40 (40)
I0527 11:17:01.272505 21372 net.cpp:165] Memory required for data: 1016160
I0527 11:17:01.272518 21372 layer_factory.hpp:77] Creating layer conv1
I0527 11:17:01.272552 21372 net.cpp:106] Creating Layer conv1
I0527 11:17:01.272563 21372 net.cpp:454] conv1 <- data
I0527 11:17:01.272585 21372 net.cpp:411] conv1 -> conv1
I0527 11:17:02.993803 21372 net.cpp:150] Setting up conv1
I0527 11:17:02.993851 21372 net.cpp:157] Top shape: 40 12 120 48 (2764800)
I0527 11:17:02.993862 21372 net.cpp:165] Memory required for data: 12075360
I0527 11:17:02.993892 21372 layer_factory.hpp:77] Creating layer relu1
I0527 11:17:02.993914 21372 net.cpp:106] Creating Layer relu1
I0527 11:17:02.993926 21372 net.cpp:454] relu1 <- conv1
I0527 11:17:02.993939 21372 net.cpp:397] relu1 -> conv1 (in-place)
I0527 11:17:02.994480 21372 net.cpp:150] Setting up relu1
I0527 11:17:02.994498 21372 net.cpp:157] Top shape: 40 12 120 48 (2764800)
I0527 11:17:02.994508 21372 net.cpp:165] Memory required for data: 23134560
I0527 11:17:02.994519 21372 layer_factory.hpp:77] Creating layer pool1
I0527 11:17:02.994536 21372 net.cpp:106] Creating Layer pool1
I0527 11:17:02.994546 21372 net.cpp:454] pool1 <- conv1
I0527 11:17:02.994560 21372 net.cpp:411] pool1 -> pool1
I0527 11:17:02.994642 21372 net.cpp:150] Setting up pool1
I0527 11:17:02.994655 21372 net.cpp:157] Top shape: 40 12 60 48 (1382400)
I0527 11:17:02.994665 21372 net.cpp:165] Memory required for data: 28664160
I0527 11:17:02.994676 21372 layer_factory.hpp:77] Creating layer conv2
I0527 11:17:02.994699 21372 net.cpp:106] Creating Layer conv2
I0527 11:17:02.994709 21372 net.cpp:454] conv2 <- pool1
I0527 11:17:02.994721 21372 net.cpp:411] conv2 -> conv2
I0527 11:17:02.997403 21372 net.cpp:150] Setting up conv2
I0527 11:17:02.997432 21372 net.cpp:157] Top shape: 40 20 54 46 (1987200)
I0527 11:17:02.997442 21372 net.cpp:165] Memory required for data: 36612960
I0527 11:17:02.997462 21372 layer_factory.hpp:77] Creating layer relu2
I0527 11:17:02.997478 21372 net.cpp:106] Creating Layer relu2
I0527 11:17:02.997488 21372 net.cpp:454] relu2 <- conv2
I0527 11:17:02.997500 21372 net.cpp:397] relu2 -> conv2 (in-place)
I0527 11:17:02.997831 21372 net.cpp:150] Setting up relu2
I0527 11:17:02.997845 21372 net.cpp:157] Top shape: 40 20 54 46 (1987200)
I0527 11:17:02.997855 21372 net.cpp:165] Memory required for data: 44561760
I0527 11:17:02.997866 21372 layer_factory.hpp:77] Creating layer pool2
I0527 11:17:02.997879 21372 net.cpp:106] Creating Layer pool2
I0527 11:17:02.997889 21372 net.cpp:454] pool2 <- conv2
I0527 11:17:02.997901 21372 net.cpp:411] pool2 -> pool2
I0527 11:17:02.997983 21372 net.cpp:150] Setting up pool2
I0527 11:17:02.997997 21372 net.cpp:157] Top shape: 40 20 27 46 (993600)
I0527 11:17:02.998006 21372 net.cpp:165] Memory required for data: 48536160
I0527 11:17:02.998014 21372 layer_factory.hpp:77] Creating layer conv3
I0527 11:17:02.998034 21372 net.cpp:106] Creating Layer conv3
I0527 11:17:02.998044 21372 net.cpp:454] conv3 <- pool2
I0527 11:17:02.998056 21372 net.cpp:411] conv3 -> conv3
I0527 11:17:02.999994 21372 net.cpp:150] Setting up conv3
I0527 11:17:03.000017 21372 net.cpp:157] Top shape: 40 28 22 44 (1084160)
I0527 11:17:03.000030 21372 net.cpp:165] Memory required for data: 52872800
I0527 11:17:03.000048 21372 layer_factory.hpp:77] Creating layer relu3
I0527 11:17:03.000064 21372 net.cpp:106] Creating Layer relu3
I0527 11:17:03.000074 21372 net.cpp:454] relu3 <- conv3
I0527 11:17:03.000097 21372 net.cpp:397] relu3 -> conv3 (in-place)
I0527 11:17:03.000567 21372 net.cpp:150] Setting up relu3
I0527 11:17:03.000584 21372 net.cpp:157] Top shape: 40 28 22 44 (1084160)
I0527 11:17:03.000596 21372 net.cpp:165] Memory required for data: 57209440
I0527 11:17:03.000605 21372 layer_factory.hpp:77] Creating layer pool3
I0527 11:17:03.000618 21372 net.cpp:106] Creating Layer pool3
I0527 11:17:03.000628 21372 net.cpp:454] pool3 <- conv3
I0527 11:17:03.000641 21372 net.cpp:411] pool3 -> pool3
I0527 11:17:03.000710 21372 net.cpp:150] Setting up pool3
I0527 11:17:03.000723 21372 net.cpp:157] Top shape: 40 28 11 44 (542080)
I0527 11:17:03.000733 21372 net.cpp:165] Memory required for data: 59377760
I0527 11:17:03.000741 21372 layer_factory.hpp:77] Creating layer conv4
I0527 11:17:03.000758 21372 net.cpp:106] Creating Layer conv4
I0527 11:17:03.000769 21372 net.cpp:454] conv4 <- pool3
I0527 11:17:03.000783 21372 net.cpp:411] conv4 -> conv4
I0527 11:17:03.003559 21372 net.cpp:150] Setting up conv4
I0527 11:17:03.003587 21372 net.cpp:157] Top shape: 40 36 6 42 (362880)
I0527 11:17:03.003598 21372 net.cpp:165] Memory required for data: 60829280
I0527 11:17:03.003614 21372 layer_factory.hpp:77] Creating layer relu4
I0527 11:17:03.003628 21372 net.cpp:106] Creating Layer relu4
I0527 11:17:03.003638 21372 net.cpp:454] relu4 <- conv4
I0527 11:17:03.003653 21372 net.cpp:397] relu4 -> conv4 (in-place)
I0527 11:17:03.004140 21372 net.cpp:150] Setting up relu4
I0527 11:17:03.004156 21372 net.cpp:157] Top shape: 40 36 6 42 (362880)
I0527 11:17:03.004168 21372 net.cpp:165] Memory required for data: 62280800
I0527 11:17:03.004179 21372 layer_factory.hpp:77] Creating layer pool4
I0527 11:17:03.004191 21372 net.cpp:106] Creating Layer pool4
I0527 11:17:03.004201 21372 net.cpp:454] pool4 <- conv4
I0527 11:17:03.004215 21372 net.cpp:411] pool4 -> pool4
I0527 11:17:03.004284 21372 net.cpp:150] Setting up pool4
I0527 11:17:03.004298 21372 net.cpp:157] Top shape: 40 36 3 42 (181440)
I0527 11:17:03.004308 21372 net.cpp:165] Memory required for data: 63006560
I0527 11:17:03.004319 21372 layer_factory.hpp:77] Creating layer ip1
I0527 11:17:03.004339 21372 net.cpp:106] Creating Layer ip1
I0527 11:17:03.004350 21372 net.cpp:454] ip1 <- pool4
I0527 11:17:03.004364 21372 net.cpp:411] ip1 -> ip1
I0527 11:17:03.019824 21372 net.cpp:150] Setting up ip1
I0527 11:17:03.019853 21372 net.cpp:157] Top shape: 40 196 (7840)
I0527 11:17:03.019870 21372 net.cpp:165] Memory required for data: 63037920
I0527 11:17:03.019896 21372 layer_factory.hpp:77] Creating layer relu5
I0527 11:17:03.019911 21372 net.cpp:106] Creating Layer relu5
I0527 11:17:03.019922 21372 net.cpp:454] relu5 <- ip1
I0527 11:17:03.019934 21372 net.cpp:397] relu5 -> ip1 (in-place)
I0527 11:17:03.020287 21372 net.cpp:150] Setting up relu5
I0527 11:17:03.020300 21372 net.cpp:157] Top shape: 40 196 (7840)
I0527 11:17:03.020311 21372 net.cpp:165] Memory required for data: 63069280
I0527 11:17:03.020321 21372 layer_factory.hpp:77] Creating layer drop1
I0527 11:17:03.020344 21372 net.cpp:106] Creating Layer drop1
I0527 11:17:03.020354 21372 net.cpp:454] drop1 <- ip1
I0527 11:17:03.020367 21372 net.cpp:397] drop1 -> ip1 (in-place)
I0527 11:17:03.020428 21372 net.cpp:150] Setting up drop1
I0527 11:17:03.020442 21372 net.cpp:157] Top shape: 40 196 (7840)
I0527 11:17:03.020452 21372 net.cpp:165] Memory required for data: 63100640
I0527 11:17:03.020462 21372 layer_factory.hpp:77] Creating layer ip2
I0527 11:17:03.020481 21372 net.cpp:106] Creating Layer ip2
I0527 11:17:03.020491 21372 net.cpp:454] ip2 <- ip1
I0527 11:17:03.020505 21372 net.cpp:411] ip2 -> ip2
I0527 11:17:03.020968 21372 net.cpp:150] Setting up ip2
I0527 11:17:03.020982 21372 net.cpp:157] Top shape: 40 98 (3920)
I0527 11:17:03.020992 21372 net.cpp:165] Memory required for data: 63116320
I0527 11:17:03.021006 21372 layer_factory.hpp:77] Creating layer relu6
I0527 11:17:03.021019 21372 net.cpp:106] Creating Layer relu6
I0527 11:17:03.021029 21372 net.cpp:454] relu6 <- ip2
I0527 11:17:03.021041 21372 net.cpp:397] relu6 -> ip2 (in-place)
I0527 11:17:03.021558 21372 net.cpp:150] Setting up relu6
I0527 11:17:03.021574 21372 net.cpp:157] Top shape: 40 98 (3920)
I0527 11:17:03.021585 21372 net.cpp:165] Memory required for data: 63132000
I0527 11:17:03.021595 21372 layer_factory.hpp:77] Creating layer drop2
I0527 11:17:03.021610 21372 net.cpp:106] Creating Layer drop2
I0527 11:17:03.021618 21372 net.cpp:454] drop2 <- ip2
I0527 11:17:03.021631 21372 net.cpp:397] drop2 -> ip2 (in-place)
I0527 11:17:03.021673 21372 net.cpp:150] Setting up drop2
I0527 11:17:03.021687 21372 net.cpp:157] Top shape: 40 98 (3920)
I0527 11:17:03.021697 21372 net.cpp:165] Memory required for data: 63147680
I0527 11:17:03.021708 21372 layer_factory.hpp:77] Creating layer ip3
I0527 11:17:03.021721 21372 net.cpp:106] Creating Layer ip3
I0527 11:17:03.021730 21372 net.cpp:454] ip3 <- ip2
I0527 11:17:03.021744 21372 net.cpp:411] ip3 -> ip3
I0527 11:17:03.021955 21372 net.cpp:150] Setting up ip3
I0527 11:17:03.021968 21372 net.cpp:157] Top shape: 40 11 (440)
I0527 11:17:03.021978 21372 net.cpp:165] Memory required for data: 63149440
I0527 11:17:03.021993 21372 layer_factory.hpp:77] Creating layer drop3
I0527 11:17:03.022006 21372 net.cpp:106] Creating Layer drop3
I0527 11:17:03.022016 21372 net.cpp:454] drop3 <- ip3
I0527 11:17:03.022028 21372 net.cpp:397] drop3 -> ip3 (in-place)
I0527 11:17:03.022068 21372 net.cpp:150] Setting up drop3
I0527 11:17:03.022080 21372 net.cpp:157] Top shape: 40 11 (440)
I0527 11:17:03.022090 21372 net.cpp:165] Memory required for data: 63151200
I0527 11:17:03.022100 21372 layer_factory.hpp:77] Creating layer loss
I0527 11:17:03.022120 21372 net.cpp:106] Creating Layer loss
I0527 11:17:03.022130 21372 net.cpp:454] loss <- ip3
I0527 11:17:03.022141 21372 net.cpp:454] loss <- label
I0527 11:17:03.022155 21372 net.cpp:411] loss -> loss
I0527 11:17:03.022171 21372 layer_factory.hpp:77] Creating layer loss
…
I0527 11:17:03.024762 21372 solver.cpp:181] Creating test net (#0) specified by net file: /lustre/atlas/proj-shared/hep105/caffe_titan/caffe_workflow/logs_bslr/bs_40_lr_0.0030_2016-05-20T15.49.02.997511.prototxt
I0527 11:17:03.024834 21372 net.cpp:322] The NetState phase (1) differed from the phase (0) specified by a rule in layer data_hdf5
I0527 11:17:03.025188 21372 net.cpp:49] Initializing net from parameters: 
name: "caffe_test_127x50_x_unshifted"
state {
  phase: TEST
}
layer {
  name: "data_hdf5"
  type: "HDF5Data"
  top: "data"
  top: "label"
  include {
    phase: TEST
  }
  hdf5_data_param {
    source: "/lustre/atlas/proj-shared/hep105/caffe_titan/minosmatch_nukecczdefs_127x50_x_unshifted_me1Bmc.testlist"
    batch_size: 40
  }
}
layer {
  name: "conv1"
  type: "Convolution"
  bottom: "data"
  top: "conv1"
  convolution_param {
    num_output: 12
    pad: 0
    stride: 1
    weight_filler {
      type: "xavier"
    }
    bias_filler {
      type: "constant"
    }
    kernel_h: 8
    kernel_w: 3
  }
}
layer {
  name: "relu1"
  type: "ReLU"
  bottom: "conv1"
  top: "conv1"
}
layer {
  name: "pool1"
  type: "Pooling"
  bottom: "conv1"
  top: "pool1"
  pooling_param {
    pool: MAX
    kernel_h: 2
    kernel_w: 1
    stride_h: 2
    stride_w: 1
  }
}
layer {
  name: "conv2"
  type: "Convolution"
  bottom: "pool1"
  top: "conv2"
  convolution_param {
    num_output: 20
    pad: 0
    stride: 1
    weight_filler {
      type: "xavier"
    }
    bias_filler {
      type: "constant"
    }
    kernel_h: 7
    kernel_w: 3
  }
}
layer {
  name: "relu2"
  type: "ReLU"
  bottom: "conv2"
  top: "conv2"
}
layer {
  name: "pool2"
  type: "Pooling"
  bottom: "conv2"
  top: "pool2"
  pooling_param {
    pool: MAX
    kernel_h: 2
    kernel_w: 1
    stride_h: 2
    stride_w: 1
  }
}
layer {
  name: "conv3"
  type: "Convolution"
  bottom: "pool2"
  top: "conv3"
  convolution_param {
    num_output: 28
    pad: 0
    stride: 1
    weight_filler {
      type: "xavier"
    }
    bias_filler {
      type: "constant"
    }
    kernel_h: 6
    kernel_w: 3
  }
}
layer {
  name: "relu3"
  type: "ReLU"
  bottom: "conv3"
  top: "conv3"
}
layer {
  name: "pool3"
  type: "Pooling"
  bottom: "conv3"
  top: "pool3"
  pooling_param {
    pool: MAX
    kernel_h: 2
    kernel_w: 1
    stride_h: 2
    stride_w: 1
  }
}
layer {
  name: "conv4"
  type: "Convolution"
  bottom: "pool3"
  top: "conv4"
  convolution_param {
    num_output: 36
    pad: 0
    stride: 1
    weight_filler {
      type: "xavier"
    }
    bias_filler {
      type: "constant"
    }
    kernel_h: 6
    kernel_w: 3
  }
}
layer {
  name: "relu4"
  type: "ReLU"
  bottom: "conv4"
  top: "conv4"
}
layer {
  name: "pool4"
  type: "Pooling"
  bottom: "conv4"
  top: "pool4"
  pooling_param {
    pool: MAX
    kernel_h: 2
    kernel_w: 1
    stride_h: 2
    stride_w: 1
  }
}
layer {
  name: "ip1"
  type: "InnerProduct"
  bottom: "pool4"
  top: "ip1"
  inner_product_param {
    num_output: 196
    weight_filler {
      type: "xavier"
    }
    bias_filler {
      type: "constant"
    }
  }
}
layer {
  name: "relu5"
  type: "ReLU"
  bottom: "ip1"
  top: "ip1"
}
layer {
  name: "drop1"
  type: "Dropout"
  bottom: "ip1"
  top: "ip1"
  dropout_param {
    dropout_ratio: 0.5
  }
}
layer {
  name: "ip2"
  type: "InnerProduct"
  bottom: "ip1"
  top: "ip2"
  inner_product_param {
    num_output: 98
    weight_filler {
      type: "xavier"
    }
    bias_filler {
      type: "constant"
    }
  }
}
layer {
  name: "relu6"
  type: "ReLU"
  bottom: "ip2"
  top: "ip2"
}
layer {
  name: "drop2"
  type: "Dropout"
  bottom: "ip2"
  top: "ip2"
  dropout_param {
    dropout_ratio: 0.5
  }
}
layer {
  name: "ip3"
  type: "InnerProduct"
  bottom: "ip2"
  top: "ip3"
  inner_product_param {
    num_output: 11
    weight_filler {
      type: "xavier"
    }
    bias_filler {
      type: "constant"
    }
  }
}
layer {
  name: "drop3"
  type: "Dropout"
  bottom: "ip3"
  top: "ip3"
  dropout_param {
    dropout_ratio: 0.5
  }
}
layer {
  name: "accuracy"
  type: "Accuracy"
  bottom: "ip3"
  bottom: "label"
  top: "accuracy"
  include {
    phase: TEST
  }
}
layer {
  name: "loss"
  type: "SoftmaxWithLoss"
  bottom: "ip3"
  bottom: "label"
  top: "loss"
}
I0527 11:17:03.025385 21372 layer_factory.hpp:77] Creating layer data_hdf5
I0527 11:17:03.025400 21372 net.cpp:106] Creating Layer data_hdf5
I0527 11:17:03.025413 21372 net.cpp:411] data_hdf5 -> data
I0527 11:17:03.025429 21372 net.cpp:411] data_hdf5 -> label
I0527 11:17:03.025445 21372 hdf5_data_layer.cpp:79] Loading list of HDF5 filenames from: /lustre/atlas/proj-shared/hep105/caffe_titan/minosmatch_nukecczdefs_127x50_x_unshifted_me1Bmc.testlist
I0527 11:17:03.037443 21372 hdf5_data_layer.cpp:93] Number of HDF5 files: 3
I0527 11:17:24.406633 21372 net.cpp:150] Setting up data_hdf5
I0527 11:17:24.406801 21372 net.cpp:157] Top shape: 40 1 127 50 (254000)
I0527 11:17:24.406816 21372 net.cpp:157] Top shape: 40 (40)
I0527 11:17:24.406827 21372 net.cpp:165] Memory required for data: 1016160
I0527 11:17:24.406841 21372 layer_factory.hpp:77] Creating layer label_data_hdf5_1_split
I0527 11:17:24.406868 21372 net.cpp:106] Creating Layer label_data_hdf5_1_split
I0527 11:17:24.406879 21372 net.cpp:454] label_data_hdf5_1_split <- label
I0527 11:17:24.406894 21372 net.cpp:411] label_data_hdf5_1_split -> label_data_hdf5_1_split_0
I0527 11:17:24.406915 21372 net.cpp:411] label_data_hdf5_1_split -> label_data_hdf5_1_split_1
I0527 11:17:24.406987 21372 net.cpp:150] Setting up label_data_hdf5_1_split
I0527 11:17:24.407001 21372 net.cpp:157] Top shape: 40 (40)
I0527 11:17:24.407013 21372 net.cpp:157] Top shape: 40 (40)
I0527 11:17:24.407023 21372 net.cpp:165] Memory required for data: 1016480
I0527 11:17:24.407033 21372 layer_factory.hpp:77] Creating layer conv1
I0527 11:17:24.407055 21372 net.cpp:106] Creating Layer conv1
I0527 11:17:24.407066 21372 net.cpp:454] conv1 <- data
I0527 11:17:24.407081 21372 net.cpp:411] conv1 -> conv1
I0527 11:17:24.409009 21372 net.cpp:150] Setting up conv1
I0527 11:17:24.409034 21372 net.cpp:157] Top shape: 40 12 120 48 (2764800)
I0527 11:17:24.409046 21372 net.cpp:165] Memory required for data: 12075680
I0527 11:17:24.409066 21372 layer_factory.hpp:77] Creating layer relu1
I0527 11:17:24.409081 21372 net.cpp:106] Creating Layer relu1
I0527 11:17:24.409090 21372 net.cpp:454] relu1 <- conv1
I0527 11:17:24.409103 21372 net.cpp:397] relu1 -> conv1 (in-place)
I0527 11:17:24.409598 21372 net.cpp:150] Setting up relu1
I0527 11:17:24.409615 21372 net.cpp:157] Top shape: 40 12 120 48 (2764800)
I0527 11:17:24.409626 21372 net.cpp:165] Memory required for data: 23134880
I0527 11:17:24.409636 21372 layer_factory.hpp:77] Creating layer pool1
I0527 11:17:24.409651 21372 net.cpp:106] Creating Layer pool1
I0527 11:17:24.409662 21372 net.cpp:454] pool1 <- conv1
I0527 11:17:24.409674 21372 net.cpp:411] pool1 -> pool1
I0527 11:17:24.409749 21372 net.cpp:150] Setting up pool1
I0527 11:17:24.409764 21372 net.cpp:157] Top shape: 40 12 60 48 (1382400)
I0527 11:17:24.409773 21372 net.cpp:165] Memory required for data: 28664480
I0527 11:17:24.409783 21372 layer_factory.hpp:77] Creating layer conv2
I0527 11:17:24.409801 21372 net.cpp:106] Creating Layer conv2
I0527 11:17:24.409811 21372 net.cpp:454] conv2 <- pool1
I0527 11:17:24.409826 21372 net.cpp:411] conv2 -> conv2
I0527 11:17:24.411727 21372 net.cpp:150] Setting up conv2
I0527 11:17:24.411749 21372 net.cpp:157] Top shape: 40 20 54 46 (1987200)
I0527 11:17:24.411762 21372 net.cpp:165] Memory required for data: 36613280
I0527 11:17:24.411780 21372 layer_factory.hpp:77] Creating layer relu2
I0527 11:17:24.411794 21372 net.cpp:106] Creating Layer relu2
I0527 11:17:24.411804 21372 net.cpp:454] relu2 <- conv2
I0527 11:17:24.411816 21372 net.cpp:397] relu2 -> conv2 (in-place)
I0527 11:17:24.412159 21372 net.cpp:150] Setting up relu2
I0527 11:17:24.412173 21372 net.cpp:157] Top shape: 40 20 54 46 (1987200)
I0527 11:17:24.412184 21372 net.cpp:165] Memory required for data: 44562080
I0527 11:17:24.412194 21372 layer_factory.hpp:77] Creating layer pool2
I0527 11:17:24.412207 21372 net.cpp:106] Creating Layer pool2
I0527 11:17:24.412217 21372 net.cpp:454] pool2 <- conv2
I0527 11:17:24.412230 21372 net.cpp:411] pool2 -> pool2
I0527 11:17:24.412302 21372 net.cpp:150] Setting up pool2
I0527 11:17:24.412315 21372 net.cpp:157] Top shape: 40 20 27 46 (993600)
I0527 11:17:24.412325 21372 net.cpp:165] Memory required for data: 48536480
I0527 11:17:24.412335 21372 layer_factory.hpp:77] Creating layer conv3
I0527 11:17:24.412353 21372 net.cpp:106] Creating Layer conv3
I0527 11:17:24.412364 21372 net.cpp:454] conv3 <- pool2
I0527 11:17:24.412377 21372 net.cpp:411] conv3 -> conv3
I0527 11:17:24.414356 21372 net.cpp:150] Setting up conv3
I0527 11:17:24.414376 21372 net.cpp:157] Top shape: 40 28 22 44 (1084160)
I0527 11:17:24.414386 21372 net.cpp:165] Memory required for data: 52873120
I0527 11:17:24.414418 21372 layer_factory.hpp:77] Creating layer relu3
I0527 11:17:24.414433 21372 net.cpp:106] Creating Layer relu3
I0527 11:17:24.414443 21372 net.cpp:454] relu3 <- conv3
I0527 11:17:24.414456 21372 net.cpp:397] relu3 -> conv3 (in-place)
I0527 11:17:24.414934 21372 net.cpp:150] Setting up relu3
I0527 11:17:24.414952 21372 net.cpp:157] Top shape: 40 28 22 44 (1084160)
I0527 11:17:24.414961 21372 net.cpp:165] Memory required for data: 57209760
I0527 11:17:24.414971 21372 layer_factory.hpp:77] Creating layer pool3
I0527 11:17:24.414984 21372 net.cpp:106] Creating Layer pool3
I0527 11:17:24.414995 21372 net.cpp:454] pool3 <- conv3
I0527 11:17:24.415009 21372 net.cpp:411] pool3 -> pool3
I0527 11:17:24.415079 21372 net.cpp:150] Setting up pool3
I0527 11:17:24.415093 21372 net.cpp:157] Top shape: 40 28 11 44 (542080)
I0527 11:17:24.415103 21372 net.cpp:165] Memory required for data: 59378080
I0527 11:17:24.415112 21372 layer_factory.hpp:77] Creating layer conv4
I0527 11:17:24.415129 21372 net.cpp:106] Creating Layer conv4
I0527 11:17:24.415140 21372 net.cpp:454] conv4 <- pool3
I0527 11:17:24.415154 21372 net.cpp:411] conv4 -> conv4
I0527 11:17:24.417217 21372 net.cpp:150] Setting up conv4
I0527 11:17:24.417240 21372 net.cpp:157] Top shape: 40 36 6 42 (362880)
I0527 11:17:24.417253 21372 net.cpp:165] Memory required for data: 60829600
I0527 11:17:24.417268 21372 layer_factory.hpp:77] Creating layer relu4
I0527 11:17:24.417281 21372 net.cpp:106] Creating Layer relu4
I0527 11:17:24.417292 21372 net.cpp:454] relu4 <- conv4
I0527 11:17:24.417305 21372 net.cpp:397] relu4 -> conv4 (in-place)
I0527 11:17:24.417773 21372 net.cpp:150] Setting up relu4
I0527 11:17:24.417788 21372 net.cpp:157] Top shape: 40 36 6 42 (362880)
I0527 11:17:24.417799 21372 net.cpp:165] Memory required for data: 62281120
I0527 11:17:24.417809 21372 layer_factory.hpp:77] Creating layer pool4
I0527 11:17:24.417822 21372 net.cpp:106] Creating Layer pool4
I0527 11:17:24.417832 21372 net.cpp:454] pool4 <- conv4
I0527 11:17:24.417845 21372 net.cpp:411] pool4 -> pool4
I0527 11:17:24.417917 21372 net.cpp:150] Setting up pool4
I0527 11:17:24.417930 21372 net.cpp:157] Top shape: 40 36 3 42 (181440)
I0527 11:17:24.417940 21372 net.cpp:165] Memory required for data: 63006880
I0527 11:17:24.417948 21372 layer_factory.hpp:77] Creating layer ip1
I0527 11:17:24.417964 21372 net.cpp:106] Creating Layer ip1
I0527 11:17:24.417975 21372 net.cpp:454] ip1 <- pool4
I0527 11:17:24.417989 21372 net.cpp:411] ip1 -> ip1
I0527 11:17:24.433382 21372 net.cpp:150] Setting up ip1
I0527 11:17:24.433411 21372 net.cpp:157] Top shape: 40 196 (7840)
I0527 11:17:24.433423 21372 net.cpp:165] Memory required for data: 63038240
I0527 11:17:24.433445 21372 layer_factory.hpp:77] Creating layer relu5
I0527 11:17:24.433460 21372 net.cpp:106] Creating Layer relu5
I0527 11:17:24.433470 21372 net.cpp:454] relu5 <- ip1
I0527 11:17:24.433483 21372 net.cpp:397] relu5 -> ip1 (in-place)
I0527 11:17:24.433832 21372 net.cpp:150] Setting up relu5
I0527 11:17:24.433846 21372 net.cpp:157] Top shape: 40 196 (7840)
I0527 11:17:24.433856 21372 net.cpp:165] Memory required for data: 63069600
I0527 11:17:24.433867 21372 layer_factory.hpp:77] Creating layer drop1
I0527 11:17:24.433887 21372 net.cpp:106] Creating Layer drop1
I0527 11:17:24.433897 21372 net.cpp:454] drop1 <- ip1
I0527 11:17:24.433909 21372 net.cpp:397] drop1 -> ip1 (in-place)
I0527 11:17:24.433954 21372 net.cpp:150] Setting up drop1
I0527 11:17:24.433967 21372 net.cpp:157] Top shape: 40 196 (7840)
I0527 11:17:24.433976 21372 net.cpp:165] Memory required for data: 63100960
I0527 11:17:24.433987 21372 layer_factory.hpp:77] Creating layer ip2
I0527 11:17:24.434002 21372 net.cpp:106] Creating Layer ip2
I0527 11:17:24.434012 21372 net.cpp:454] ip2 <- ip1
I0527 11:17:24.434027 21372 net.cpp:411] ip2 -> ip2
I0527 11:17:24.434510 21372 net.cpp:150] Setting up ip2
I0527 11:17:24.434523 21372 net.cpp:157] Top shape: 40 98 (3920)
I0527 11:17:24.434533 21372 net.cpp:165] Memory required for data: 63116640
I0527 11:17:24.434550 21372 layer_factory.hpp:77] Creating layer relu6
I0527 11:17:24.434576 21372 net.cpp:106] Creating Layer relu6
I0527 11:17:24.434587 21372 net.cpp:454] relu6 <- ip2
I0527 11:17:24.434598 21372 net.cpp:397] relu6 -> ip2 (in-place)
I0527 11:17:24.435129 21372 net.cpp:150] Setting up relu6
I0527 11:17:24.435147 21372 net.cpp:157] Top shape: 40 98 (3920)
I0527 11:17:24.435159 21372 net.cpp:165] Memory required for data: 63132320
I0527 11:17:24.435170 21372 layer_factory.hpp:77] Creating layer drop2
I0527 11:17:24.435184 21372 net.cpp:106] Creating Layer drop2
I0527 11:17:24.435194 21372 net.cpp:454] drop2 <- ip2
I0527 11:17:24.435207 21372 net.cpp:397] drop2 -> ip2 (in-place)
I0527 11:17:24.435250 21372 net.cpp:150] Setting up drop2
I0527 11:17:24.435263 21372 net.cpp:157] Top shape: 40 98 (3920)
I0527 11:17:24.435273 21372 net.cpp:165] Memory required for data: 63148000
I0527 11:17:24.435283 21372 layer_factory.hpp:77] Creating layer ip3
I0527 11:17:24.435297 21372 net.cpp:106] Creating Layer ip3
I0527 11:17:24.435307 21372 net.cpp:454] ip3 <- ip2
I0527 11:17:24.435322 21372 net.cpp:411] ip3 -> ip3
I0527 11:17:24.435544 21372 net.cpp:150] Setting up ip3
I0527 11:17:24.435557 21372 net.cpp:157] Top shape: 40 11 (440)
I0527 11:17:24.435569 21372 net.cpp:165] Memory required for data: 63149760
I0527 11:17:24.435583 21372 layer_factory.hpp:77] Creating layer drop3
I0527 11:17:24.435596 21372 net.cpp:106] Creating Layer drop3
I0527 11:17:24.435606 21372 net.cpp:454] drop3 <- ip3
I0527 11:17:24.435619 21372 net.cpp:397] drop3 -> ip3 (in-place)
I0527 11:17:24.435660 21372 net.cpp:150] Setting up drop3
I0527 11:17:24.435673 21372 net.cpp:157] Top shape: 40 11 (440)
I0527 11:17:24.435683 21372 net.cpp:165] Memory required for data: 63151520
I0527 11:17:24.435693 21372 layer_factory.hpp:77] Creating layer ip3_drop3_0_split
I0527 11:17:24.435705 21372 net.cpp:106] Creating Layer ip3_drop3_0_split
I0527 11:17:24.435715 21372 net.cpp:454] ip3_drop3_0_split <- ip3
I0527 11:17:24.435729 21372 net.cpp:411] ip3_drop3_0_split -> ip3_drop3_0_split_0
I0527 11:17:24.435744 21372 net.cpp:411] ip3_drop3_0_split -> ip3_drop3_0_split_1
I0527 11:17:24.435817 21372 net.cpp:150] Setting up ip3_drop3_0_split
I0527 11:17:24.435830 21372 net.cpp:157] Top shape: 40 11 (440)
I0527 11:17:24.435842 21372 net.cpp:157] Top shape: 40 11 (440)
I0527 11:17:24.435853 21372 net.cpp:165] Memory required for data: 63155040
I0527 11:17:24.435863 21372 layer_factory.hpp:77] Creating layer accuracy
I0527 11:17:24.435885 21372 net.cpp:106] Creating Layer accuracy
I0527 11:17:24.435895 21372 net.cpp:454] accuracy <- ip3_drop3_0_split_0
I0527 11:17:24.435907 21372 net.cpp:454] accuracy <- label_data_hdf5_1_split_0
I0527 11:17:24.435921 21372 net.cpp:411] accuracy -> accuracy
…
