…
I0522 20:12:22.984815  5443 net.cpp:322] The NetState phase (0) differed from the phase (1) specified by a rule in layer data_hdf5
I0522 20:12:22.984875  5443 net.cpp:322] The NetState phase (0) differed from the phase (1) specified by a rule in layer accuracy
I0522 20:12:22.985222  5443 net.cpp:49] Initializing net from parameters: 
name: "caffe_test_127x50_x_unshifted"
state {
  phase: TRAIN
}
layer {
  name: "data_hdf5"
  type: "HDF5Data"
  top: "data"
  top: "label"
  include {
    phase: TRAIN
  }
  hdf5_data_param {
    source: "/lustre/atlas/proj-shared/hep105/caffe_titan/minosmatch_nukecczdefs_127x50_x_unshifted_me1Bmc.trainlist"
    batch_size: 40
  }
}
layer {
  name: "conv1"
  type: "Convolution"
  bottom: "data"
  top: "conv1"
  convolution_param {
    num_output: 12
    pad: 0
    stride: 1
    weight_filler {
      type: "xavier"
    }
    bias_filler {
      type: "constant"
    }
    kernel_h: 8
    kernel_w: 3
  }
}
layer {
  name: "relu1"
  type: "ReLU"
  bottom: "conv1"
  top: "conv1"
}
layer {
  name: "pool1"
  type: "Pooling"
  bottom: "conv1"
  top: "pool1"
  pooling_param {
    pool: MAX
    kernel_h: 2
    kernel_w: 1
    stride_h: 2
    stride_w: 1
  }
}
layer {
  name: "conv2"
  type: "Convolution"
  bottom: "pool1"
  top: "conv2"
  convolution_param {
    num_output: 20
    pad: 0
    stride: 1
    weight_filler {
      type: "xavier"
    }
    bias_filler {
      type: "constant"
    }
    kernel_h: 7
    kernel_w: 3
  }
}
layer {
  name: "relu2"
  type: "ReLU"
  bottom: "conv2"
  top: "conv2"
}
layer {
  name: "pool2"
  type: "Pooling"
  bottom: "conv2"
  top: "pool2"
  pooling_param {
    pool: MAX
    kernel_h: 2
    kernel_w: 1
    stride_h: 2
    stride_w: 1
  }
}
layer {
  name: "conv3"
  type: "Convolution"
  bottom: "pool2"
  top: "conv3"
  convolution_param {
    num_output: 28
    pad: 0
    stride: 1
    weight_filler {
      type: "xavier"
    }
    bias_filler {
      type: "constant"
    }
    kernel_h: 6
    kernel_w: 3
  }
}
layer {
  name: "relu3"
  type: "ReLU"
  bottom: "conv3"
  top: "conv3"
}
layer {
  name: "pool3"
  type: "Pooling"
  bottom: "conv3"
  top: "pool3"
  pooling_param {
    pool: MAX
    kernel_h: 2
    kernel_w: 1
    stride_h: 2
    stride_w: 1
  }
}
layer {
  name: "conv4"
  type: "Convolution"
  bottom: "pool3"
  top: "conv4"
  convolution_param {
    num_output: 36
    pad: 0
    stride: 1
    weight_filler {
      type: "xavier"
    }
    bias_filler {
      type: "constant"
    }
    kernel_h: 6
    kernel_w: 3
  }
}
layer {
  name: "relu4"
  type: "ReLU"
  bottom: "conv4"
  top: "conv4"
}
layer {
  name: "pool4"
  type: "Pooling"
  bottom: "conv4"
  top: "pool4"
  pooling_param {
    pool: MAX
    kernel_h: 2
    kernel_w: 1
    stride_h: 2
    stride_w: 1
  }
}
layer {
  name: "ip1"
  type: "InnerProduct"
  bottom: "pool4"
  top: "ip1"
  inner_product_param {
    num_output: 196
    weight_filler {
      type: "xavier"
    }
    bias_filler {
      type: "constant"
    }
  }
}
layer {
  name: "relu5"
  type: "ReLU"
  bottom: "ip1"
  top: "ip1"
}
layer {
  name: "drop1"
  type: "Dropout"
  bottom: "ip1"
  top: "ip1"
  dropout_param {
    dropout_ratio: 0.5
  }
}
layer {
  name: "ip2"
  type: "InnerProduct"
  bottom: "ip1"
  top: "ip2"
  inner_product_param {
    num_output: 98
    weight_filler {
      type: "xavier"
    }
    bias_filler {
      type: "constant"
    }
  }
}
layer {
  name: "relu6"
  type: "ReLU"
  bottom: "ip2"
  top: "ip2"
}
layer {
  name: "drop2"
  type: "Dropout"
  bottom: "ip2"
  top: "ip2"
  dropout_param {
    dropout_ratio: 0.5
  }
}
layer {
  name: "ip3"
  type: "InnerProduct"
  bottom: "ip2"
  top: "ip3"
  inner_product_param {
    num_output: 11
    weight_filler {
      type: "xavier"
    }
    bias_filler {
      type: "constant"
    }
  }
}
layer {
  name: "drop3"
  type: "Dropout"
  bottom: "ip3"
  top: "ip3"
  dropout_param {
    dropout_ratio: 0.5
  }
}
layer {
  name: "loss"
  type: "SoftmaxWithLoss"
  bottom: "ip3"
  bottom: "label"
  top: "loss"
}
I0522 20:12:22.985405  5443 layer_factory.hpp:77] Creating layer data_hdf5
I0522 20:12:22.985429  5443 net.cpp:106] Creating Layer data_hdf5
I0522 20:12:22.985443  5443 net.cpp:411] data_hdf5 -> data
I0522 20:12:22.985476  5443 net.cpp:411] data_hdf5 -> label
I0522 20:12:22.985509  5443 hdf5_data_layer.cpp:79] Loading list of HDF5 filenames from: /lustre/atlas/proj-shared/hep105/caffe_titan/minosmatch_nukecczdefs_127x50_x_unshifted_me1Bmc.trainlist
I0522 20:12:22.995467  5443 hdf5_data_layer.cpp:93] Number of HDF5 files: 15
I0522 20:12:22.998152  5443 hdf5.cpp:32] Datatype class: H5T_FLOAT
I0522 20:12:44.513949  5443 hdf5.cpp:35] Datatype class: H5T_INTEGER
I0522 20:12:44.519199  5443 net.cpp:150] Setting up data_hdf5
I0522 20:12:44.519243  5443 net.cpp:157] Top shape: 40 1 127 50 (254000)
I0522 20:12:44.519258  5443 net.cpp:157] Top shape: 40 (40)
I0522 20:12:44.519269  5443 net.cpp:165] Memory required for data: 1016160
I0522 20:12:44.519284  5443 layer_factory.hpp:77] Creating layer conv1
I0522 20:12:44.519317  5443 net.cpp:106] Creating Layer conv1
I0522 20:12:44.519330  5443 net.cpp:454] conv1 <- data
I0522 20:12:44.519351  5443 net.cpp:411] conv1 -> conv1
I0522 20:12:45.459041  5443 net.cpp:150] Setting up conv1
I0522 20:12:45.459084  5443 net.cpp:157] Top shape: 40 12 120 48 (2764800)
I0522 20:12:45.459100  5443 net.cpp:165] Memory required for data: 12075360
I0522 20:12:45.459127  5443 layer_factory.hpp:77] Creating layer relu1
I0522 20:12:45.459149  5443 net.cpp:106] Creating Layer relu1
I0522 20:12:45.459159  5443 net.cpp:454] relu1 <- conv1
I0522 20:12:45.459173  5443 net.cpp:397] relu1 -> conv1 (in-place)
I0522 20:12:45.459692  5443 net.cpp:150] Setting up relu1
I0522 20:12:45.459708  5443 net.cpp:157] Top shape: 40 12 120 48 (2764800)
I0522 20:12:45.459718  5443 net.cpp:165] Memory required for data: 23134560
I0522 20:12:45.459729  5443 layer_factory.hpp:77] Creating layer pool1
I0522 20:12:45.459746  5443 net.cpp:106] Creating Layer pool1
I0522 20:12:45.459756  5443 net.cpp:454] pool1 <- conv1
I0522 20:12:45.459771  5443 net.cpp:411] pool1 -> pool1
I0522 20:12:45.459852  5443 net.cpp:150] Setting up pool1
I0522 20:12:45.459867  5443 net.cpp:157] Top shape: 40 12 60 48 (1382400)
I0522 20:12:45.459877  5443 net.cpp:165] Memory required for data: 28664160
I0522 20:12:45.459887  5443 layer_factory.hpp:77] Creating layer conv2
I0522 20:12:45.459910  5443 net.cpp:106] Creating Layer conv2
I0522 20:12:45.459921  5443 net.cpp:454] conv2 <- pool1
I0522 20:12:45.459934  5443 net.cpp:411] conv2 -> conv2
I0522 20:12:45.462595  5443 net.cpp:150] Setting up conv2
I0522 20:12:45.462623  5443 net.cpp:157] Top shape: 40 20 54 46 (1987200)
I0522 20:12:45.462635  5443 net.cpp:165] Memory required for data: 36612960
I0522 20:12:45.462653  5443 layer_factory.hpp:77] Creating layer relu2
I0522 20:12:45.462668  5443 net.cpp:106] Creating Layer relu2
I0522 20:12:45.462678  5443 net.cpp:454] relu2 <- conv2
I0522 20:12:45.462690  5443 net.cpp:397] relu2 -> conv2 (in-place)
I0522 20:12:45.463032  5443 net.cpp:150] Setting up relu2
I0522 20:12:45.463047  5443 net.cpp:157] Top shape: 40 20 54 46 (1987200)
I0522 20:12:45.463057  5443 net.cpp:165] Memory required for data: 44561760
I0522 20:12:45.463068  5443 layer_factory.hpp:77] Creating layer pool2
I0522 20:12:45.463079  5443 net.cpp:106] Creating Layer pool2
I0522 20:12:45.463089  5443 net.cpp:454] pool2 <- conv2
I0522 20:12:45.463102  5443 net.cpp:411] pool2 -> pool2
I0522 20:12:45.463183  5443 net.cpp:150] Setting up pool2
I0522 20:12:45.463196  5443 net.cpp:157] Top shape: 40 20 27 46 (993600)
I0522 20:12:45.463207  5443 net.cpp:165] Memory required for data: 48536160
I0522 20:12:45.463214  5443 layer_factory.hpp:77] Creating layer conv3
I0522 20:12:45.463233  5443 net.cpp:106] Creating Layer conv3
I0522 20:12:45.463243  5443 net.cpp:454] conv3 <- pool2
I0522 20:12:45.463258  5443 net.cpp:411] conv3 -> conv3
I0522 20:12:45.465196  5443 net.cpp:150] Setting up conv3
I0522 20:12:45.465220  5443 net.cpp:157] Top shape: 40 28 22 44 (1084160)
I0522 20:12:45.465232  5443 net.cpp:165] Memory required for data: 52872800
I0522 20:12:45.465251  5443 layer_factory.hpp:77] Creating layer relu3
I0522 20:12:45.465267  5443 net.cpp:106] Creating Layer relu3
I0522 20:12:45.465277  5443 net.cpp:454] relu3 <- conv3
I0522 20:12:45.465289  5443 net.cpp:397] relu3 -> conv3 (in-place)
I0522 20:12:45.465756  5443 net.cpp:150] Setting up relu3
I0522 20:12:45.465773  5443 net.cpp:157] Top shape: 40 28 22 44 (1084160)
I0522 20:12:45.465785  5443 net.cpp:165] Memory required for data: 57209440
I0522 20:12:45.465795  5443 layer_factory.hpp:77] Creating layer pool3
I0522 20:12:45.465808  5443 net.cpp:106] Creating Layer pool3
I0522 20:12:45.465817  5443 net.cpp:454] pool3 <- conv3
I0522 20:12:45.465831  5443 net.cpp:411] pool3 -> pool3
I0522 20:12:45.465898  5443 net.cpp:150] Setting up pool3
I0522 20:12:45.465910  5443 net.cpp:157] Top shape: 40 28 11 44 (542080)
I0522 20:12:45.465920  5443 net.cpp:165] Memory required for data: 59377760
I0522 20:12:45.465929  5443 layer_factory.hpp:77] Creating layer conv4
I0522 20:12:45.465946  5443 net.cpp:106] Creating Layer conv4
I0522 20:12:45.465956  5443 net.cpp:454] conv4 <- pool3
I0522 20:12:45.465970  5443 net.cpp:411] conv4 -> conv4
I0522 20:12:45.468732  5443 net.cpp:150] Setting up conv4
I0522 20:12:45.468760  5443 net.cpp:157] Top shape: 40 36 6 42 (362880)
I0522 20:12:45.468770  5443 net.cpp:165] Memory required for data: 60829280
I0522 20:12:45.468786  5443 layer_factory.hpp:77] Creating layer relu4
I0522 20:12:45.468801  5443 net.cpp:106] Creating Layer relu4
I0522 20:12:45.468811  5443 net.cpp:454] relu4 <- conv4
I0522 20:12:45.468824  5443 net.cpp:397] relu4 -> conv4 (in-place)
I0522 20:12:45.469295  5443 net.cpp:150] Setting up relu4
I0522 20:12:45.469312  5443 net.cpp:157] Top shape: 40 36 6 42 (362880)
I0522 20:12:45.469322  5443 net.cpp:165] Memory required for data: 62280800
I0522 20:12:45.469333  5443 layer_factory.hpp:77] Creating layer pool4
I0522 20:12:45.469347  5443 net.cpp:106] Creating Layer pool4
I0522 20:12:45.469357  5443 net.cpp:454] pool4 <- conv4
I0522 20:12:45.469369  5443 net.cpp:411] pool4 -> pool4
I0522 20:12:45.469436  5443 net.cpp:150] Setting up pool4
I0522 20:12:45.469450  5443 net.cpp:157] Top shape: 40 36 3 42 (181440)
I0522 20:12:45.469461  5443 net.cpp:165] Memory required for data: 63006560
I0522 20:12:45.469471  5443 layer_factory.hpp:77] Creating layer ip1
I0522 20:12:45.469491  5443 net.cpp:106] Creating Layer ip1
I0522 20:12:45.469502  5443 net.cpp:454] ip1 <- pool4
I0522 20:12:45.469514  5443 net.cpp:411] ip1 -> ip1
I0522 20:12:45.484879  5443 net.cpp:150] Setting up ip1
I0522 20:12:45.484902  5443 net.cpp:157] Top shape: 40 196 (7840)
I0522 20:12:45.484915  5443 net.cpp:165] Memory required for data: 63037920
I0522 20:12:45.484936  5443 layer_factory.hpp:77] Creating layer relu5
I0522 20:12:45.484951  5443 net.cpp:106] Creating Layer relu5
I0522 20:12:45.484961  5443 net.cpp:454] relu5 <- ip1
I0522 20:12:45.484974  5443 net.cpp:397] relu5 -> ip1 (in-place)
I0522 20:12:45.485317  5443 net.cpp:150] Setting up relu5
I0522 20:12:45.485332  5443 net.cpp:157] Top shape: 40 196 (7840)
I0522 20:12:45.485342  5443 net.cpp:165] Memory required for data: 63069280
I0522 20:12:45.485353  5443 layer_factory.hpp:77] Creating layer drop1
I0522 20:12:45.485375  5443 net.cpp:106] Creating Layer drop1
I0522 20:12:45.485385  5443 net.cpp:454] drop1 <- ip1
I0522 20:12:45.485397  5443 net.cpp:397] drop1 -> ip1 (in-place)
I0522 20:12:45.485458  5443 net.cpp:150] Setting up drop1
I0522 20:12:45.485471  5443 net.cpp:157] Top shape: 40 196 (7840)
I0522 20:12:45.485482  5443 net.cpp:165] Memory required for data: 63100640
I0522 20:12:45.485492  5443 layer_factory.hpp:77] Creating layer ip2
I0522 20:12:45.485512  5443 net.cpp:106] Creating Layer ip2
I0522 20:12:45.485522  5443 net.cpp:454] ip2 <- ip1
I0522 20:12:45.485534  5443 net.cpp:411] ip2 -> ip2
I0522 20:12:45.485997  5443 net.cpp:150] Setting up ip2
I0522 20:12:45.486011  5443 net.cpp:157] Top shape: 40 98 (3920)
I0522 20:12:45.486021  5443 net.cpp:165] Memory required for data: 63116320
I0522 20:12:45.486035  5443 layer_factory.hpp:77] Creating layer relu6
I0522 20:12:45.486047  5443 net.cpp:106] Creating Layer relu6
I0522 20:12:45.486057  5443 net.cpp:454] relu6 <- ip2
I0522 20:12:45.486069  5443 net.cpp:397] relu6 -> ip2 (in-place)
I0522 20:12:45.486588  5443 net.cpp:150] Setting up relu6
I0522 20:12:45.486605  5443 net.cpp:157] Top shape: 40 98 (3920)
I0522 20:12:45.486615  5443 net.cpp:165] Memory required for data: 63132000
I0522 20:12:45.486626  5443 layer_factory.hpp:77] Creating layer drop2
I0522 20:12:45.486639  5443 net.cpp:106] Creating Layer drop2
I0522 20:12:45.486649  5443 net.cpp:454] drop2 <- ip2
I0522 20:12:45.486661  5443 net.cpp:397] drop2 -> ip2 (in-place)
I0522 20:12:45.486703  5443 net.cpp:150] Setting up drop2
I0522 20:12:45.486716  5443 net.cpp:157] Top shape: 40 98 (3920)
I0522 20:12:45.486726  5443 net.cpp:165] Memory required for data: 63147680
I0522 20:12:45.486737  5443 layer_factory.hpp:77] Creating layer ip3
I0522 20:12:45.486750  5443 net.cpp:106] Creating Layer ip3
I0522 20:12:45.486759  5443 net.cpp:454] ip3 <- ip2
I0522 20:12:45.486773  5443 net.cpp:411] ip3 -> ip3
I0522 20:12:45.486991  5443 net.cpp:150] Setting up ip3
I0522 20:12:45.487004  5443 net.cpp:157] Top shape: 40 11 (440)
I0522 20:12:45.487015  5443 net.cpp:165] Memory required for data: 63149440
I0522 20:12:45.487030  5443 layer_factory.hpp:77] Creating layer drop3
I0522 20:12:45.487042  5443 net.cpp:106] Creating Layer drop3
I0522 20:12:45.487052  5443 net.cpp:454] drop3 <- ip3
I0522 20:12:45.487064  5443 net.cpp:397] drop3 -> ip3 (in-place)
I0522 20:12:45.487103  5443 net.cpp:150] Setting up drop3
I0522 20:12:45.487117  5443 net.cpp:157] Top shape: 40 11 (440)
I0522 20:12:45.487126  5443 net.cpp:165] Memory required for data: 63151200
I0522 20:12:45.487136  5443 layer_factory.hpp:77] Creating layer loss
I0522 20:12:45.487155  5443 net.cpp:106] Creating Layer loss
I0522 20:12:45.487165  5443 net.cpp:454] loss <- ip3
I0522 20:12:45.487177  5443 net.cpp:454] loss <- label
I0522 20:12:45.487190  5443 net.cpp:411] loss -> loss
I0522 20:12:45.487206  5443 layer_factory.hpp:77] Creating layer loss
…
I0522 20:12:45.489980  5443 solver.cpp:181] Creating test net (#0) specified by net file: /lustre/atlas/proj-shared/hep105/caffe_titan/caffe_workflow/logs_bslr/bs_40_lr_0.0030_2016-05-20T15.49.02.997511.prototxt
I0522 20:12:45.490052  5443 net.cpp:322] The NetState phase (1) differed from the phase (0) specified by a rule in layer data_hdf5
I0522 20:12:45.490409  5443 net.cpp:49] Initializing net from parameters: 
name: "caffe_test_127x50_x_unshifted"
state {
  phase: TEST
}
layer {
  name: "data_hdf5"
  type: "HDF5Data"
  top: "data"
  top: "label"
  include {
    phase: TEST
  }
  hdf5_data_param {
    source: "/lustre/atlas/proj-shared/hep105/caffe_titan/minosmatch_nukecczdefs_127x50_x_unshifted_me1Bmc.testlist"
    batch_size: 40
  }
}
layer {
  name: "conv1"
  type: "Convolution"
  bottom: "data"
  top: "conv1"
  convolution_param {
    num_output: 12
    pad: 0
    stride: 1
    weight_filler {
      type: "xavier"
    }
    bias_filler {
      type: "constant"
    }
    kernel_h: 8
    kernel_w: 3
  }
}
layer {
  name: "relu1"
  type: "ReLU"
  bottom: "conv1"
  top: "conv1"
}
layer {
  name: "pool1"
  type: "Pooling"
  bottom: "conv1"
  top: "pool1"
  pooling_param {
    pool: MAX
    kernel_h: 2
    kernel_w: 1
    stride_h: 2
    stride_w: 1
  }
}
layer {
  name: "conv2"
  type: "Convolution"
  bottom: "pool1"
  top: "conv2"
  convolution_param {
    num_output: 20
    pad: 0
    stride: 1
    weight_filler {
      type: "xavier"
    }
    bias_filler {
      type: "constant"
    }
    kernel_h: 7
    kernel_w: 3
  }
}
layer {
  name: "relu2"
  type: "ReLU"
  bottom: "conv2"
  top: "conv2"
}
layer {
  name: "pool2"
  type: "Pooling"
  bottom: "conv2"
  top: "pool2"
  pooling_param {
    pool: MAX
    kernel_h: 2
    kernel_w: 1
    stride_h: 2
    stride_w: 1
  }
}
layer {
  name: "conv3"
  type: "Convolution"
  bottom: "pool2"
  top: "conv3"
  convolution_param {
    num_output: 28
    pad: 0
    stride: 1
    weight_filler {
      type: "xavier"
    }
    bias_filler {
      type: "constant"
    }
    kernel_h: 6
    kernel_w: 3
  }
}
layer {
  name: "relu3"
  type: "ReLU"
  bottom: "conv3"
  top: "conv3"
}
layer {
  name: "pool3"
  type: "Pooling"
  bottom: "conv3"
  top: "pool3"
  pooling_param {
    pool: MAX
    kernel_h: 2
    kernel_w: 1
    stride_h: 2
    stride_w: 1
  }
}
layer {
  name: "conv4"
  type: "Convolution"
  bottom: "pool3"
  top: "conv4"
  convolution_param {
    num_output: 36
    pad: 0
    stride: 1
    weight_filler {
      type: "xavier"
    }
    bias_filler {
      type: "constant"
    }
    kernel_h: 6
    kernel_w: 3
  }
}
layer {
  name: "relu4"
  type: "ReLU"
  bottom: "conv4"
  top: "conv4"
}
layer {
  name: "pool4"
  type: "Pooling"
  bottom: "conv4"
  top: "pool4"
  pooling_param {
    pool: MAX
    kernel_h: 2
    kernel_w: 1
    stride_h: 2
    stride_w: 1
  }
}
layer {
  name: "ip1"
  type: "InnerProduct"
  bottom: "pool4"
  top: "ip1"
  inner_product_param {
    num_output: 196
    weight_filler {
      type: "xavier"
    }
    bias_filler {
      type: "constant"
    }
  }
}
layer {
  name: "relu5"
  type: "ReLU"
  bottom: "ip1"
  top: "ip1"
}
layer {
  name: "drop1"
  type: "Dropout"
  bottom: "ip1"
  top: "ip1"
  dropout_param {
    dropout_ratio: 0.5
  }
}
layer {
  name: "ip2"
  type: "InnerProduct"
  bottom: "ip1"
  top: "ip2"
  inner_product_param {
    num_output: 98
    weight_filler {
      type: "xavier"
    }
    bias_filler {
      type: "constant"
    }
  }
}
layer {
  name: "relu6"
  type: "ReLU"
  bottom: "ip2"
  top: "ip2"
}
layer {
  name: "drop2"
  type: "Dropout"
  bottom: "ip2"
  top: "ip2"
  dropout_param {
    dropout_ratio: 0.5
  }
}
layer {
  name: "ip3"
  type: "InnerProduct"
  bottom: "ip2"
  top: "ip3"
  inner_product_param {
    num_output: 11
    weight_filler {
      type: "xavier"
    }
    bias_filler {
      type: "constant"
    }
  }
}
layer {
  name: "drop3"
  type: "Dropout"
  bottom: "ip3"
  top: "ip3"
  dropout_param {
    dropout_ratio: 0.5
  }
}
layer {
  name: "accuracy"
  type: "Accuracy"
  bottom: "ip3"
  bottom: "label"
  top: "accuracy"
  include {
    phase: TEST
  }
}
layer {
  name: "loss"
  type: "SoftmaxWithLoss"
  bottom: "ip3"
  bottom: "label"
  top: "loss"
}
I0522 20:12:45.490598  5443 layer_factory.hpp:77] Creating layer data_hdf5
I0522 20:12:45.490614  5443 net.cpp:106] Creating Layer data_hdf5
I0522 20:12:45.490627  5443 net.cpp:411] data_hdf5 -> data
I0522 20:12:45.490643  5443 net.cpp:411] data_hdf5 -> label
I0522 20:12:45.490659  5443 hdf5_data_layer.cpp:79] Loading list of HDF5 filenames from: /lustre/atlas/proj-shared/hep105/caffe_titan/minosmatch_nukecczdefs_127x50_x_unshifted_me1Bmc.testlist
I0522 20:12:45.492033  5443 hdf5_data_layer.cpp:93] Number of HDF5 files: 3
I0522 20:13:06.842010  5443 net.cpp:150] Setting up data_hdf5
I0522 20:13:06.842178  5443 net.cpp:157] Top shape: 40 1 127 50 (254000)
I0522 20:13:06.842192  5443 net.cpp:157] Top shape: 40 (40)
I0522 20:13:06.842206  5443 net.cpp:165] Memory required for data: 1016160
I0522 20:13:06.842218  5443 layer_factory.hpp:77] Creating layer label_data_hdf5_1_split
I0522 20:13:06.842247  5443 net.cpp:106] Creating Layer label_data_hdf5_1_split
I0522 20:13:06.842257  5443 net.cpp:454] label_data_hdf5_1_split <- label
I0522 20:13:06.842272  5443 net.cpp:411] label_data_hdf5_1_split -> label_data_hdf5_1_split_0
I0522 20:13:06.842293  5443 net.cpp:411] label_data_hdf5_1_split -> label_data_hdf5_1_split_1
I0522 20:13:06.842365  5443 net.cpp:150] Setting up label_data_hdf5_1_split
I0522 20:13:06.842380  5443 net.cpp:157] Top shape: 40 (40)
I0522 20:13:06.842391  5443 net.cpp:157] Top shape: 40 (40)
I0522 20:13:06.842401  5443 net.cpp:165] Memory required for data: 1016480
I0522 20:13:06.842411  5443 layer_factory.hpp:77] Creating layer conv1
I0522 20:13:06.842434  5443 net.cpp:106] Creating Layer conv1
I0522 20:13:06.842444  5443 net.cpp:454] conv1 <- data
I0522 20:13:06.842459  5443 net.cpp:411] conv1 -> conv1
I0522 20:13:06.844405  5443 net.cpp:150] Setting up conv1
I0522 20:13:06.844430  5443 net.cpp:157] Top shape: 40 12 120 48 (2764800)
I0522 20:13:06.844440  5443 net.cpp:165] Memory required for data: 12075680
I0522 20:13:06.844462  5443 layer_factory.hpp:77] Creating layer relu1
I0522 20:13:06.844477  5443 net.cpp:106] Creating Layer relu1
I0522 20:13:06.844487  5443 net.cpp:454] relu1 <- conv1
I0522 20:13:06.844501  5443 net.cpp:397] relu1 -> conv1 (in-place)
I0522 20:13:06.844997  5443 net.cpp:150] Setting up relu1
I0522 20:13:06.845015  5443 net.cpp:157] Top shape: 40 12 120 48 (2764800)
I0522 20:13:06.845026  5443 net.cpp:165] Memory required for data: 23134880
I0522 20:13:06.845036  5443 layer_factory.hpp:77] Creating layer pool1
I0522 20:13:06.845052  5443 net.cpp:106] Creating Layer pool1
I0522 20:13:06.845062  5443 net.cpp:454] pool1 <- conv1
I0522 20:13:06.845075  5443 net.cpp:411] pool1 -> pool1
I0522 20:13:06.845149  5443 net.cpp:150] Setting up pool1
I0522 20:13:06.845163  5443 net.cpp:157] Top shape: 40 12 60 48 (1382400)
I0522 20:13:06.845172  5443 net.cpp:165] Memory required for data: 28664480
I0522 20:13:06.845181  5443 layer_factory.hpp:77] Creating layer conv2
I0522 20:13:06.845199  5443 net.cpp:106] Creating Layer conv2
I0522 20:13:06.845211  5443 net.cpp:454] conv2 <- pool1
I0522 20:13:06.845223  5443 net.cpp:411] conv2 -> conv2
I0522 20:13:06.847132  5443 net.cpp:150] Setting up conv2
I0522 20:13:06.847156  5443 net.cpp:157] Top shape: 40 20 54 46 (1987200)
I0522 20:13:06.847168  5443 net.cpp:165] Memory required for data: 36613280
I0522 20:13:06.847185  5443 layer_factory.hpp:77] Creating layer relu2
I0522 20:13:06.847199  5443 net.cpp:106] Creating Layer relu2
I0522 20:13:06.847209  5443 net.cpp:454] relu2 <- conv2
I0522 20:13:06.847221  5443 net.cpp:397] relu2 -> conv2 (in-place)
I0522 20:13:06.847551  5443 net.cpp:150] Setting up relu2
I0522 20:13:06.847565  5443 net.cpp:157] Top shape: 40 20 54 46 (1987200)
I0522 20:13:06.847576  5443 net.cpp:165] Memory required for data: 44562080
I0522 20:13:06.847586  5443 layer_factory.hpp:77] Creating layer pool2
I0522 20:13:06.847599  5443 net.cpp:106] Creating Layer pool2
I0522 20:13:06.847610  5443 net.cpp:454] pool2 <- conv2
I0522 20:13:06.847622  5443 net.cpp:411] pool2 -> pool2
I0522 20:13:06.847693  5443 net.cpp:150] Setting up pool2
I0522 20:13:06.847707  5443 net.cpp:157] Top shape: 40 20 27 46 (993600)
I0522 20:13:06.847717  5443 net.cpp:165] Memory required for data: 48536480
I0522 20:13:06.847726  5443 layer_factory.hpp:77] Creating layer conv3
I0522 20:13:06.847746  5443 net.cpp:106] Creating Layer conv3
I0522 20:13:06.847756  5443 net.cpp:454] conv3 <- pool2
I0522 20:13:06.847771  5443 net.cpp:411] conv3 -> conv3
I0522 20:13:06.849733  5443 net.cpp:150] Setting up conv3
I0522 20:13:06.849756  5443 net.cpp:157] Top shape: 40 28 22 44 (1084160)
I0522 20:13:06.849768  5443 net.cpp:165] Memory required for data: 52873120
I0522 20:13:06.849800  5443 layer_factory.hpp:77] Creating layer relu3
I0522 20:13:06.849814  5443 net.cpp:106] Creating Layer relu3
I0522 20:13:06.849824  5443 net.cpp:454] relu3 <- conv3
I0522 20:13:06.849838  5443 net.cpp:397] relu3 -> conv3 (in-place)
I0522 20:13:06.850308  5443 net.cpp:150] Setting up relu3
I0522 20:13:06.850324  5443 net.cpp:157] Top shape: 40 28 22 44 (1084160)
I0522 20:13:06.850335  5443 net.cpp:165] Memory required for data: 57209760
I0522 20:13:06.850345  5443 layer_factory.hpp:77] Creating layer pool3
I0522 20:13:06.850358  5443 net.cpp:106] Creating Layer pool3
I0522 20:13:06.850368  5443 net.cpp:454] pool3 <- conv3
I0522 20:13:06.850381  5443 net.cpp:411] pool3 -> pool3
I0522 20:13:06.850452  5443 net.cpp:150] Setting up pool3
I0522 20:13:06.850466  5443 net.cpp:157] Top shape: 40 28 11 44 (542080)
I0522 20:13:06.850476  5443 net.cpp:165] Memory required for data: 59378080
I0522 20:13:06.850484  5443 layer_factory.hpp:77] Creating layer conv4
I0522 20:13:06.850502  5443 net.cpp:106] Creating Layer conv4
I0522 20:13:06.850513  5443 net.cpp:454] conv4 <- pool3
I0522 20:13:06.850528  5443 net.cpp:411] conv4 -> conv4
I0522 20:13:06.852596  5443 net.cpp:150] Setting up conv4
I0522 20:13:06.852617  5443 net.cpp:157] Top shape: 40 36 6 42 (362880)
I0522 20:13:06.852628  5443 net.cpp:165] Memory required for data: 60829600
I0522 20:13:06.852644  5443 layer_factory.hpp:77] Creating layer relu4
I0522 20:13:06.852658  5443 net.cpp:106] Creating Layer relu4
I0522 20:13:06.852669  5443 net.cpp:454] relu4 <- conv4
I0522 20:13:06.852681  5443 net.cpp:397] relu4 -> conv4 (in-place)
I0522 20:13:06.853147  5443 net.cpp:150] Setting up relu4
I0522 20:13:06.853163  5443 net.cpp:157] Top shape: 40 36 6 42 (362880)
I0522 20:13:06.853174  5443 net.cpp:165] Memory required for data: 62281120
I0522 20:13:06.853184  5443 layer_factory.hpp:77] Creating layer pool4
I0522 20:13:06.853198  5443 net.cpp:106] Creating Layer pool4
I0522 20:13:06.853207  5443 net.cpp:454] pool4 <- conv4
I0522 20:13:06.853220  5443 net.cpp:411] pool4 -> pool4
I0522 20:13:06.853291  5443 net.cpp:150] Setting up pool4
I0522 20:13:06.853305  5443 net.cpp:157] Top shape: 40 36 3 42 (181440)
I0522 20:13:06.853314  5443 net.cpp:165] Memory required for data: 63006880
I0522 20:13:06.853323  5443 layer_factory.hpp:77] Creating layer ip1
I0522 20:13:06.853339  5443 net.cpp:106] Creating Layer ip1
I0522 20:13:06.853350  5443 net.cpp:454] ip1 <- pool4
I0522 20:13:06.853364  5443 net.cpp:411] ip1 -> ip1
I0522 20:13:06.868823  5443 net.cpp:150] Setting up ip1
I0522 20:13:06.868846  5443 net.cpp:157] Top shape: 40 196 (7840)
I0522 20:13:06.868856  5443 net.cpp:165] Memory required for data: 63038240
I0522 20:13:06.868880  5443 layer_factory.hpp:77] Creating layer relu5
I0522 20:13:06.868896  5443 net.cpp:106] Creating Layer relu5
I0522 20:13:06.868906  5443 net.cpp:454] relu5 <- ip1
I0522 20:13:06.868918  5443 net.cpp:397] relu5 -> ip1 (in-place)
I0522 20:13:06.869267  5443 net.cpp:150] Setting up relu5
I0522 20:13:06.869282  5443 net.cpp:157] Top shape: 40 196 (7840)
I0522 20:13:06.869292  5443 net.cpp:165] Memory required for data: 63069600
I0522 20:13:06.869300  5443 layer_factory.hpp:77] Creating layer drop1
I0522 20:13:06.869320  5443 net.cpp:106] Creating Layer drop1
I0522 20:13:06.869330  5443 net.cpp:454] drop1 <- ip1
I0522 20:13:06.869343  5443 net.cpp:397] drop1 -> ip1 (in-place)
I0522 20:13:06.869388  5443 net.cpp:150] Setting up drop1
I0522 20:13:06.869401  5443 net.cpp:157] Top shape: 40 196 (7840)
I0522 20:13:06.869411  5443 net.cpp:165] Memory required for data: 63100960
I0522 20:13:06.869421  5443 layer_factory.hpp:77] Creating layer ip2
I0522 20:13:06.869436  5443 net.cpp:106] Creating Layer ip2
I0522 20:13:06.869446  5443 net.cpp:454] ip2 <- ip1
I0522 20:13:06.869460  5443 net.cpp:411] ip2 -> ip2
I0522 20:13:06.869938  5443 net.cpp:150] Setting up ip2
I0522 20:13:06.869952  5443 net.cpp:157] Top shape: 40 98 (3920)
I0522 20:13:06.869961  5443 net.cpp:165] Memory required for data: 63116640
I0522 20:13:06.869977  5443 layer_factory.hpp:77] Creating layer relu6
I0522 20:13:06.870002  5443 net.cpp:106] Creating Layer relu6
I0522 20:13:06.870012  5443 net.cpp:454] relu6 <- ip2
I0522 20:13:06.870025  5443 net.cpp:397] relu6 -> ip2 (in-place)
I0522 20:13:06.870559  5443 net.cpp:150] Setting up relu6
I0522 20:13:06.870582  5443 net.cpp:157] Top shape: 40 98 (3920)
I0522 20:13:06.870592  5443 net.cpp:165] Memory required for data: 63132320
I0522 20:13:06.870602  5443 layer_factory.hpp:77] Creating layer drop2
I0522 20:13:06.870615  5443 net.cpp:106] Creating Layer drop2
I0522 20:13:06.870625  5443 net.cpp:454] drop2 <- ip2
I0522 20:13:06.870638  5443 net.cpp:397] drop2 -> ip2 (in-place)
I0522 20:13:06.870682  5443 net.cpp:150] Setting up drop2
I0522 20:13:06.870695  5443 net.cpp:157] Top shape: 40 98 (3920)
I0522 20:13:06.870705  5443 net.cpp:165] Memory required for data: 63148000
I0522 20:13:06.870715  5443 layer_factory.hpp:77] Creating layer ip3
I0522 20:13:06.870729  5443 net.cpp:106] Creating Layer ip3
I0522 20:13:06.870739  5443 net.cpp:454] ip3 <- ip2
I0522 20:13:06.870753  5443 net.cpp:411] ip3 -> ip3
I0522 20:13:06.870985  5443 net.cpp:150] Setting up ip3
I0522 20:13:06.870998  5443 net.cpp:157] Top shape: 40 11 (440)
I0522 20:13:06.871008  5443 net.cpp:165] Memory required for data: 63149760
I0522 20:13:06.871023  5443 layer_factory.hpp:77] Creating layer drop3
I0522 20:13:06.871037  5443 net.cpp:106] Creating Layer drop3
I0522 20:13:06.871047  5443 net.cpp:454] drop3 <- ip3
I0522 20:13:06.871059  5443 net.cpp:397] drop3 -> ip3 (in-place)
I0522 20:13:06.871100  5443 net.cpp:150] Setting up drop3
I0522 20:13:06.871114  5443 net.cpp:157] Top shape: 40 11 (440)
I0522 20:13:06.871124  5443 net.cpp:165] Memory required for data: 63151520
I0522 20:13:06.871134  5443 layer_factory.hpp:77] Creating layer ip3_drop3_0_split
I0522 20:13:06.871146  5443 net.cpp:106] Creating Layer ip3_drop3_0_split
I0522 20:13:06.871156  5443 net.cpp:454] ip3_drop3_0_split <- ip3
I0522 20:13:06.871170  5443 net.cpp:411] ip3_drop3_0_split -> ip3_drop3_0_split_0
I0522 20:13:06.871183  5443 net.cpp:411] ip3_drop3_0_split -> ip3_drop3_0_split_1
I0522 20:13:06.871258  5443 net.cpp:150] Setting up ip3_drop3_0_split
I0522 20:13:06.871270  5443 net.cpp:157] Top shape: 40 11 (440)
I0522 20:13:06.871284  5443 net.cpp:157] Top shape: 40 11 (440)
I0522 20:13:06.871294  5443 net.cpp:165] Memory required for data: 63155040
I0522 20:13:06.871304  5443 layer_factory.hpp:77] Creating layer accuracy
I0522 20:13:06.871325  5443 net.cpp:106] Creating Layer accuracy
I0522 20:13:06.871335  5443 net.cpp:454] accuracy <- ip3_drop3_0_split_0
I0522 20:13:06.871346  5443 net.cpp:454] accuracy <- label_data_hdf5_1_split_0
I0522 20:13:06.871359  5443 net.cpp:411] accuracy -> accuracy
…
