…
I0522 22:13:27.413188 30227 net.cpp:322] The NetState phase (0) differed from the phase (1) specified by a rule in layer data_hdf5
I0522 22:13:27.413249 30227 net.cpp:322] The NetState phase (0) differed from the phase (1) specified by a rule in layer accuracy
I0522 22:13:27.413596 30227 net.cpp:49] Initializing net from parameters: 
name: "caffe_test_127x50_x_unshifted"
state {
  phase: TRAIN
}
layer {
  name: "data_hdf5"
  type: "HDF5Data"
  top: "data"
  top: "label"
  include {
    phase: TRAIN
  }
  hdf5_data_param {
    source: "/lustre/atlas/proj-shared/hep105/caffe_titan/minosmatch_nukecczdefs_127x50_x_unshifted_me1Bmc.trainlist"
    batch_size: 40
  }
}
layer {
  name: "conv1"
  type: "Convolution"
  bottom: "data"
  top: "conv1"
  convolution_param {
    num_output: 12
    pad: 0
    stride: 1
    weight_filler {
      type: "xavier"
    }
    bias_filler {
      type: "constant"
    }
    kernel_h: 8
    kernel_w: 3
  }
}
layer {
  name: "relu1"
  type: "ReLU"
  bottom: "conv1"
  top: "conv1"
}
layer {
  name: "pool1"
  type: "Pooling"
  bottom: "conv1"
  top: "pool1"
  pooling_param {
    pool: MAX
    kernel_h: 2
    kernel_w: 1
    stride_h: 2
    stride_w: 1
  }
}
layer {
  name: "conv2"
  type: "Convolution"
  bottom: "pool1"
  top: "conv2"
  convolution_param {
    num_output: 20
    pad: 0
    stride: 1
    weight_filler {
      type: "xavier"
    }
    bias_filler {
      type: "constant"
    }
    kernel_h: 7
    kernel_w: 3
  }
}
layer {
  name: "relu2"
  type: "ReLU"
  bottom: "conv2"
  top: "conv2"
}
layer {
  name: "pool2"
  type: "Pooling"
  bottom: "conv2"
  top: "pool2"
  pooling_param {
    pool: MAX
    kernel_h: 2
    kernel_w: 1
    stride_h: 2
    stride_w: 1
  }
}
layer {
  name: "conv3"
  type: "Convolution"
  bottom: "pool2"
  top: "conv3"
  convolution_param {
    num_output: 28
    pad: 0
    stride: 1
    weight_filler {
      type: "xavier"
    }
    bias_filler {
      type: "constant"
    }
    kernel_h: 6
    kernel_w: 3
  }
}
layer {
  name: "relu3"
  type: "ReLU"
  bottom: "conv3"
  top: "conv3"
}
layer {
  name: "pool3"
  type: "Pooling"
  bottom: "conv3"
  top: "pool3"
  pooling_param {
    pool: MAX
    kernel_h: 2
    kernel_w: 1
    stride_h: 2
    stride_w: 1
  }
}
layer {
  name: "conv4"
  type: "Convolution"
  bottom: "pool3"
  top: "conv4"
  convolution_param {
    num_output: 36
    pad: 0
    stride: 1
    weight_filler {
      type: "xavier"
    }
    bias_filler {
      type: "constant"
    }
    kernel_h: 6
    kernel_w: 3
  }
}
layer {
  name: "relu4"
  type: "ReLU"
  bottom: "conv4"
  top: "conv4"
}
layer {
  name: "pool4"
  type: "Pooling"
  bottom: "conv4"
  top: "pool4"
  pooling_param {
    pool: MAX
    kernel_h: 2
    kernel_w: 1
    stride_h: 2
    stride_w: 1
  }
}
layer {
  name: "ip1"
  type: "InnerProduct"
  bottom: "pool4"
  top: "ip1"
  inner_product_param {
    num_output: 196
    weight_filler {
      type: "xavier"
    }
    bias_filler {
      type: "constant"
    }
  }
}
layer {
  name: "relu5"
  type: "ReLU"
  bottom: "ip1"
  top: "ip1"
}
layer {
  name: "drop1"
  type: "Dropout"
  bottom: "ip1"
  top: "ip1"
  dropout_param {
    dropout_ratio: 0.5
  }
}
layer {
  name: "ip2"
  type: "InnerProduct"
  bottom: "ip1"
  top: "ip2"
  inner_product_param {
    num_output: 98
    weight_filler {
      type: "xavier"
    }
    bias_filler {
      type: "constant"
    }
  }
}
layer {
  name: "relu6"
  type: "ReLU"
  bottom: "ip2"
  top: "ip2"
}
layer {
  name: "drop2"
  type: "Dropout"
  bottom: "ip2"
  top: "ip2"
  dropout_param {
    dropout_ratio: 0.5
  }
}
layer {
  name: "ip3"
  type: "InnerProduct"
  bottom: "ip2"
  top: "ip3"
  inner_product_param {
    num_output: 11
    weight_filler {
      type: "xavier"
    }
    bias_filler {
      type: "constant"
    }
  }
}
layer {
  name: "drop3"
  type: "Dropout"
  bottom: "ip3"
  top: "ip3"
  dropout_param {
    dropout_ratio: 0.5
  }
}
layer {
  name: "loss"
  type: "SoftmaxWithLoss"
  bottom: "ip3"
  bottom: "label"
  top: "loss"
}
I0522 22:13:27.413781 30227 layer_factory.hpp:77] Creating layer data_hdf5
I0522 22:13:27.413805 30227 net.cpp:106] Creating Layer data_hdf5
I0522 22:13:27.413820 30227 net.cpp:411] data_hdf5 -> data
I0522 22:13:27.413854 30227 net.cpp:411] data_hdf5 -> label
I0522 22:13:27.413887 30227 hdf5_data_layer.cpp:79] Loading list of HDF5 filenames from: /lustre/atlas/proj-shared/hep105/caffe_titan/minosmatch_nukecczdefs_127x50_x_unshifted_me1Bmc.trainlist
I0522 22:13:27.415071 30227 hdf5_data_layer.cpp:93] Number of HDF5 files: 15
I0522 22:13:27.417243 30227 hdf5.cpp:32] Datatype class: H5T_FLOAT
I0522 22:13:48.949250 30227 hdf5.cpp:35] Datatype class: H5T_INTEGER
I0522 22:13:48.954409 30227 net.cpp:150] Setting up data_hdf5
I0522 22:13:48.954449 30227 net.cpp:157] Top shape: 40 1 127 50 (254000)
I0522 22:13:48.954464 30227 net.cpp:157] Top shape: 40 (40)
I0522 22:13:48.954476 30227 net.cpp:165] Memory required for data: 1016160
I0522 22:13:48.954489 30227 layer_factory.hpp:77] Creating layer conv1
I0522 22:13:48.954524 30227 net.cpp:106] Creating Layer conv1
I0522 22:13:48.954535 30227 net.cpp:454] conv1 <- data
I0522 22:13:48.954555 30227 net.cpp:411] conv1 -> conv1
I0522 22:13:49.315115 30227 net.cpp:150] Setting up conv1
I0522 22:13:49.315163 30227 net.cpp:157] Top shape: 40 12 120 48 (2764800)
I0522 22:13:49.315174 30227 net.cpp:165] Memory required for data: 12075360
I0522 22:13:49.315202 30227 layer_factory.hpp:77] Creating layer relu1
I0522 22:13:49.315224 30227 net.cpp:106] Creating Layer relu1
I0522 22:13:49.315235 30227 net.cpp:454] relu1 <- conv1
I0522 22:13:49.315248 30227 net.cpp:397] relu1 -> conv1 (in-place)
I0522 22:13:49.315767 30227 net.cpp:150] Setting up relu1
I0522 22:13:49.315783 30227 net.cpp:157] Top shape: 40 12 120 48 (2764800)
I0522 22:13:49.315794 30227 net.cpp:165] Memory required for data: 23134560
I0522 22:13:49.315804 30227 layer_factory.hpp:77] Creating layer pool1
I0522 22:13:49.315820 30227 net.cpp:106] Creating Layer pool1
I0522 22:13:49.315831 30227 net.cpp:454] pool1 <- conv1
I0522 22:13:49.315845 30227 net.cpp:411] pool1 -> pool1
I0522 22:13:49.315924 30227 net.cpp:150] Setting up pool1
I0522 22:13:49.315939 30227 net.cpp:157] Top shape: 40 12 60 48 (1382400)
I0522 22:13:49.315948 30227 net.cpp:165] Memory required for data: 28664160
I0522 22:13:49.315959 30227 layer_factory.hpp:77] Creating layer conv2
I0522 22:13:49.315981 30227 net.cpp:106] Creating Layer conv2
I0522 22:13:49.315992 30227 net.cpp:454] conv2 <- pool1
I0522 22:13:49.316005 30227 net.cpp:411] conv2 -> conv2
I0522 22:13:49.318776 30227 net.cpp:150] Setting up conv2
I0522 22:13:49.318804 30227 net.cpp:157] Top shape: 40 20 54 46 (1987200)
I0522 22:13:49.318814 30227 net.cpp:165] Memory required for data: 36612960
I0522 22:13:49.318835 30227 layer_factory.hpp:77] Creating layer relu2
I0522 22:13:49.318850 30227 net.cpp:106] Creating Layer relu2
I0522 22:13:49.318859 30227 net.cpp:454] relu2 <- conv2
I0522 22:13:49.318872 30227 net.cpp:397] relu2 -> conv2 (in-place)
I0522 22:13:49.319203 30227 net.cpp:150] Setting up relu2
I0522 22:13:49.319217 30227 net.cpp:157] Top shape: 40 20 54 46 (1987200)
I0522 22:13:49.319228 30227 net.cpp:165] Memory required for data: 44561760
I0522 22:13:49.319238 30227 layer_factory.hpp:77] Creating layer pool2
I0522 22:13:49.319250 30227 net.cpp:106] Creating Layer pool2
I0522 22:13:49.319260 30227 net.cpp:454] pool2 <- conv2
I0522 22:13:49.319273 30227 net.cpp:411] pool2 -> pool2
I0522 22:13:49.319353 30227 net.cpp:150] Setting up pool2
I0522 22:13:49.319367 30227 net.cpp:157] Top shape: 40 20 27 46 (993600)
I0522 22:13:49.319377 30227 net.cpp:165] Memory required for data: 48536160
I0522 22:13:49.319387 30227 layer_factory.hpp:77] Creating layer conv3
I0522 22:13:49.319407 30227 net.cpp:106] Creating Layer conv3
I0522 22:13:49.319417 30227 net.cpp:454] conv3 <- pool2
I0522 22:13:49.319432 30227 net.cpp:411] conv3 -> conv3
I0522 22:13:49.321383 30227 net.cpp:150] Setting up conv3
I0522 22:13:49.321406 30227 net.cpp:157] Top shape: 40 28 22 44 (1084160)
I0522 22:13:49.321419 30227 net.cpp:165] Memory required for data: 52872800
I0522 22:13:49.321437 30227 layer_factory.hpp:77] Creating layer relu3
I0522 22:13:49.321454 30227 net.cpp:106] Creating Layer relu3
I0522 22:13:49.321463 30227 net.cpp:454] relu3 <- conv3
I0522 22:13:49.321475 30227 net.cpp:397] relu3 -> conv3 (in-place)
I0522 22:13:49.321948 30227 net.cpp:150] Setting up relu3
I0522 22:13:49.321964 30227 net.cpp:157] Top shape: 40 28 22 44 (1084160)
I0522 22:13:49.321974 30227 net.cpp:165] Memory required for data: 57209440
I0522 22:13:49.321985 30227 layer_factory.hpp:77] Creating layer pool3
I0522 22:13:49.321997 30227 net.cpp:106] Creating Layer pool3
I0522 22:13:49.322007 30227 net.cpp:454] pool3 <- conv3
I0522 22:13:49.322019 30227 net.cpp:411] pool3 -> pool3
I0522 22:13:49.322088 30227 net.cpp:150] Setting up pool3
I0522 22:13:49.322101 30227 net.cpp:157] Top shape: 40 28 11 44 (542080)
I0522 22:13:49.322111 30227 net.cpp:165] Memory required for data: 59377760
I0522 22:13:49.322121 30227 layer_factory.hpp:77] Creating layer conv4
I0522 22:13:49.322137 30227 net.cpp:106] Creating Layer conv4
I0522 22:13:49.322147 30227 net.cpp:454] conv4 <- pool3
I0522 22:13:49.322161 30227 net.cpp:411] conv4 -> conv4
I0522 22:13:49.324939 30227 net.cpp:150] Setting up conv4
I0522 22:13:49.324967 30227 net.cpp:157] Top shape: 40 36 6 42 (362880)
I0522 22:13:49.324978 30227 net.cpp:165] Memory required for data: 60829280
I0522 22:13:49.324993 30227 layer_factory.hpp:77] Creating layer relu4
I0522 22:13:49.325008 30227 net.cpp:106] Creating Layer relu4
I0522 22:13:49.325018 30227 net.cpp:454] relu4 <- conv4
I0522 22:13:49.325031 30227 net.cpp:397] relu4 -> conv4 (in-place)
I0522 22:13:49.325506 30227 net.cpp:150] Setting up relu4
I0522 22:13:49.325523 30227 net.cpp:157] Top shape: 40 36 6 42 (362880)
I0522 22:13:49.325533 30227 net.cpp:165] Memory required for data: 62280800
I0522 22:13:49.325543 30227 layer_factory.hpp:77] Creating layer pool4
I0522 22:13:49.325556 30227 net.cpp:106] Creating Layer pool4
I0522 22:13:49.325567 30227 net.cpp:454] pool4 <- conv4
I0522 22:13:49.325579 30227 net.cpp:411] pool4 -> pool4
I0522 22:13:49.325647 30227 net.cpp:150] Setting up pool4
I0522 22:13:49.325666 30227 net.cpp:157] Top shape: 40 36 3 42 (181440)
I0522 22:13:49.325677 30227 net.cpp:165] Memory required for data: 63006560
I0522 22:13:49.325687 30227 layer_factory.hpp:77] Creating layer ip1
I0522 22:13:49.325707 30227 net.cpp:106] Creating Layer ip1
I0522 22:13:49.325718 30227 net.cpp:454] ip1 <- pool4
I0522 22:13:49.325731 30227 net.cpp:411] ip1 -> ip1
I0522 22:13:49.341202 30227 net.cpp:150] Setting up ip1
I0522 22:13:49.341230 30227 net.cpp:157] Top shape: 40 196 (7840)
I0522 22:13:49.341243 30227 net.cpp:165] Memory required for data: 63037920
I0522 22:13:49.341266 30227 layer_factory.hpp:77] Creating layer relu5
I0522 22:13:49.341281 30227 net.cpp:106] Creating Layer relu5
I0522 22:13:49.341291 30227 net.cpp:454] relu5 <- ip1
I0522 22:13:49.341305 30227 net.cpp:397] relu5 -> ip1 (in-place)
I0522 22:13:49.341648 30227 net.cpp:150] Setting up relu5
I0522 22:13:49.341662 30227 net.cpp:157] Top shape: 40 196 (7840)
I0522 22:13:49.341673 30227 net.cpp:165] Memory required for data: 63069280
I0522 22:13:49.341683 30227 layer_factory.hpp:77] Creating layer drop1
I0522 22:13:49.341704 30227 net.cpp:106] Creating Layer drop1
I0522 22:13:49.341714 30227 net.cpp:454] drop1 <- ip1
I0522 22:13:49.341727 30227 net.cpp:397] drop1 -> ip1 (in-place)
I0522 22:13:49.341786 30227 net.cpp:150] Setting up drop1
I0522 22:13:49.341800 30227 net.cpp:157] Top shape: 40 196 (7840)
I0522 22:13:49.341810 30227 net.cpp:165] Memory required for data: 63100640
I0522 22:13:49.341820 30227 layer_factory.hpp:77] Creating layer ip2
I0522 22:13:49.341838 30227 net.cpp:106] Creating Layer ip2
I0522 22:13:49.341850 30227 net.cpp:454] ip2 <- ip1
I0522 22:13:49.341859 30227 net.cpp:411] ip2 -> ip2
I0522 22:13:49.342321 30227 net.cpp:150] Setting up ip2
I0522 22:13:49.342335 30227 net.cpp:157] Top shape: 40 98 (3920)
I0522 22:13:49.342344 30227 net.cpp:165] Memory required for data: 63116320
I0522 22:13:49.342360 30227 layer_factory.hpp:77] Creating layer relu6
I0522 22:13:49.342373 30227 net.cpp:106] Creating Layer relu6
I0522 22:13:49.342383 30227 net.cpp:454] relu6 <- ip2
I0522 22:13:49.342396 30227 net.cpp:397] relu6 -> ip2 (in-place)
I0522 22:13:49.342916 30227 net.cpp:150] Setting up relu6
I0522 22:13:49.342931 30227 net.cpp:157] Top shape: 40 98 (3920)
I0522 22:13:49.342942 30227 net.cpp:165] Memory required for data: 63132000
I0522 22:13:49.342952 30227 layer_factory.hpp:77] Creating layer drop2
I0522 22:13:49.342965 30227 net.cpp:106] Creating Layer drop2
I0522 22:13:49.342974 30227 net.cpp:454] drop2 <- ip2
I0522 22:13:49.342988 30227 net.cpp:397] drop2 -> ip2 (in-place)
I0522 22:13:49.343029 30227 net.cpp:150] Setting up drop2
I0522 22:13:49.343042 30227 net.cpp:157] Top shape: 40 98 (3920)
I0522 22:13:49.343052 30227 net.cpp:165] Memory required for data: 63147680
I0522 22:13:49.343062 30227 layer_factory.hpp:77] Creating layer ip3
I0522 22:13:49.343075 30227 net.cpp:106] Creating Layer ip3
I0522 22:13:49.343086 30227 net.cpp:454] ip3 <- ip2
I0522 22:13:49.343097 30227 net.cpp:411] ip3 -> ip3
I0522 22:13:49.343308 30227 net.cpp:150] Setting up ip3
I0522 22:13:49.343322 30227 net.cpp:157] Top shape: 40 11 (440)
I0522 22:13:49.343332 30227 net.cpp:165] Memory required for data: 63149440
I0522 22:13:49.343346 30227 layer_factory.hpp:77] Creating layer drop3
I0522 22:13:49.343358 30227 net.cpp:106] Creating Layer drop3
I0522 22:13:49.343369 30227 net.cpp:454] drop3 <- ip3
I0522 22:13:49.343380 30227 net.cpp:397] drop3 -> ip3 (in-place)
I0522 22:13:49.343420 30227 net.cpp:150] Setting up drop3
I0522 22:13:49.343432 30227 net.cpp:157] Top shape: 40 11 (440)
I0522 22:13:49.343442 30227 net.cpp:165] Memory required for data: 63151200
I0522 22:13:49.343452 30227 layer_factory.hpp:77] Creating layer loss
I0522 22:13:49.343472 30227 net.cpp:106] Creating Layer loss
I0522 22:13:49.343482 30227 net.cpp:454] loss <- ip3
I0522 22:13:49.343492 30227 net.cpp:454] loss <- label
I0522 22:13:49.343504 30227 net.cpp:411] loss -> loss
I0522 22:13:49.343523 30227 layer_factory.hpp:77] Creating layer loss
…
I0522 22:13:49.346110 30227 solver.cpp:181] Creating test net (#0) specified by net file: /lustre/atlas/proj-shared/hep105/caffe_titan/caffe_workflow/logs_bslr/bs_40_lr_0.0040_2016-05-20T15.49.03.736237.prototxt
I0522 22:13:49.346181 30227 net.cpp:322] The NetState phase (1) differed from the phase (0) specified by a rule in layer data_hdf5
I0522 22:13:49.346536 30227 net.cpp:49] Initializing net from parameters: 
name: "caffe_test_127x50_x_unshifted"
state {
  phase: TEST
}
layer {
  name: "data_hdf5"
  type: "HDF5Data"
  top: "data"
  top: "label"
  include {
    phase: TEST
  }
  hdf5_data_param {
    source: "/lustre/atlas/proj-shared/hep105/caffe_titan/minosmatch_nukecczdefs_127x50_x_unshifted_me1Bmc.testlist"
    batch_size: 40
  }
}
layer {
  name: "conv1"
  type: "Convolution"
  bottom: "data"
  top: "conv1"
  convolution_param {
    num_output: 12
    pad: 0
    stride: 1
    weight_filler {
      type: "xavier"
    }
    bias_filler {
      type: "constant"
    }
    kernel_h: 8
    kernel_w: 3
  }
}
layer {
  name: "relu1"
  type: "ReLU"
  bottom: "conv1"
  top: "conv1"
}
layer {
  name: "pool1"
  type: "Pooling"
  bottom: "conv1"
  top: "pool1"
  pooling_param {
    pool: MAX
    kernel_h: 2
    kernel_w: 1
    stride_h: 2
    stride_w: 1
  }
}
layer {
  name: "conv2"
  type: "Convolution"
  bottom: "pool1"
  top: "conv2"
  convolution_param {
    num_output: 20
    pad: 0
    stride: 1
    weight_filler {
      type: "xavier"
    }
    bias_filler {
      type: "constant"
    }
    kernel_h: 7
    kernel_w: 3
  }
}
layer {
  name: "relu2"
  type: "ReLU"
  bottom: "conv2"
  top: "conv2"
}
layer {
  name: "pool2"
  type: "Pooling"
  bottom: "conv2"
  top: "pool2"
  pooling_param {
    pool: MAX
    kernel_h: 2
    kernel_w: 1
    stride_h: 2
    stride_w: 1
  }
}
layer {
  name: "conv3"
  type: "Convolution"
  bottom: "pool2"
  top: "conv3"
  convolution_param {
    num_output: 28
    pad: 0
    stride: 1
    weight_filler {
      type: "xavier"
    }
    bias_filler {
      type: "constant"
    }
    kernel_h: 6
    kernel_w: 3
  }
}
layer {
  name: "relu3"
  type: "ReLU"
  bottom: "conv3"
  top: "conv3"
}
layer {
  name: "pool3"
  type: "Pooling"
  bottom: "conv3"
  top: "pool3"
  pooling_param {
    pool: MAX
    kernel_h: 2
    kernel_w: 1
    stride_h: 2
    stride_w: 1
  }
}
layer {
  name: "conv4"
  type: "Convolution"
  bottom: "pool3"
  top: "conv4"
  convolution_param {
    num_output: 36
    pad: 0
    stride: 1
    weight_filler {
      type: "xavier"
    }
    bias_filler {
      type: "constant"
    }
    kernel_h: 6
    kernel_w: 3
  }
}
layer {
  name: "relu4"
  type: "ReLU"
  bottom: "conv4"
  top: "conv4"
}
layer {
  name: "pool4"
  type: "Pooling"
  bottom: "conv4"
  top: "pool4"
  pooling_param {
    pool: MAX
    kernel_h: 2
    kernel_w: 1
    stride_h: 2
    stride_w: 1
  }
}
layer {
  name: "ip1"
  type: "InnerProduct"
  bottom: "pool4"
  top: "ip1"
  inner_product_param {
    num_output: 196
    weight_filler {
      type: "xavier"
    }
    bias_filler {
      type: "constant"
    }
  }
}
layer {
  name: "relu5"
  type: "ReLU"
  bottom: "ip1"
  top: "ip1"
}
layer {
  name: "drop1"
  type: "Dropout"
  bottom: "ip1"
  top: "ip1"
  dropout_param {
    dropout_ratio: 0.5
  }
}
layer {
  name: "ip2"
  type: "InnerProduct"
  bottom: "ip1"
  top: "ip2"
  inner_product_param {
    num_output: 98
    weight_filler {
      type: "xavier"
    }
    bias_filler {
      type: "constant"
    }
  }
}
layer {
  name: "relu6"
  type: "ReLU"
  bottom: "ip2"
  top: "ip2"
}
layer {
  name: "drop2"
  type: "Dropout"
  bottom: "ip2"
  top: "ip2"
  dropout_param {
    dropout_ratio: 0.5
  }
}
layer {
  name: "ip3"
  type: "InnerProduct"
  bottom: "ip2"
  top: "ip3"
  inner_product_param {
    num_output: 11
    weight_filler {
      type: "xavier"
    }
    bias_filler {
      type: "constant"
    }
  }
}
layer {
  name: "drop3"
  type: "Dropout"
  bottom: "ip3"
  top: "ip3"
  dropout_param {
    dropout_ratio: 0.5
  }
}
layer {
  name: "accuracy"
  type: "Accuracy"
  bottom: "ip3"
  bottom: "label"
  top: "accuracy"
  include {
    phase: TEST
  }
}
layer {
  name: "loss"
  type: "SoftmaxWithLoss"
  bottom: "ip3"
  bottom: "label"
  top: "loss"
}
I0522 22:13:49.346726 30227 layer_factory.hpp:77] Creating layer data_hdf5
I0522 22:13:49.346741 30227 net.cpp:106] Creating Layer data_hdf5
I0522 22:13:49.346755 30227 net.cpp:411] data_hdf5 -> data
I0522 22:13:49.346771 30227 net.cpp:411] data_hdf5 -> label
I0522 22:13:49.346787 30227 hdf5_data_layer.cpp:79] Loading list of HDF5 filenames from: /lustre/atlas/proj-shared/hep105/caffe_titan/minosmatch_nukecczdefs_127x50_x_unshifted_me1Bmc.testlist
I0522 22:13:49.347949 30227 hdf5_data_layer.cpp:93] Number of HDF5 files: 3
I0522 22:14:10.722163 30227 net.cpp:150] Setting up data_hdf5
I0522 22:14:10.722337 30227 net.cpp:157] Top shape: 40 1 127 50 (254000)
I0522 22:14:10.722352 30227 net.cpp:157] Top shape: 40 (40)
I0522 22:14:10.722362 30227 net.cpp:165] Memory required for data: 1016160
I0522 22:14:10.722378 30227 layer_factory.hpp:77] Creating layer label_data_hdf5_1_split
I0522 22:14:10.722406 30227 net.cpp:106] Creating Layer label_data_hdf5_1_split
I0522 22:14:10.722417 30227 net.cpp:454] label_data_hdf5_1_split <- label
I0522 22:14:10.722432 30227 net.cpp:411] label_data_hdf5_1_split -> label_data_hdf5_1_split_0
I0522 22:14:10.722455 30227 net.cpp:411] label_data_hdf5_1_split -> label_data_hdf5_1_split_1
I0522 22:14:10.722527 30227 net.cpp:150] Setting up label_data_hdf5_1_split
I0522 22:14:10.722542 30227 net.cpp:157] Top shape: 40 (40)
I0522 22:14:10.722553 30227 net.cpp:157] Top shape: 40 (40)
I0522 22:14:10.722563 30227 net.cpp:165] Memory required for data: 1016480
I0522 22:14:10.722573 30227 layer_factory.hpp:77] Creating layer conv1
I0522 22:14:10.722595 30227 net.cpp:106] Creating Layer conv1
I0522 22:14:10.722605 30227 net.cpp:454] conv1 <- data
I0522 22:14:10.722617 30227 net.cpp:411] conv1 -> conv1
I0522 22:14:10.724539 30227 net.cpp:150] Setting up conv1
I0522 22:14:10.724565 30227 net.cpp:157] Top shape: 40 12 120 48 (2764800)
I0522 22:14:10.724575 30227 net.cpp:165] Memory required for data: 12075680
I0522 22:14:10.724596 30227 layer_factory.hpp:77] Creating layer relu1
I0522 22:14:10.724611 30227 net.cpp:106] Creating Layer relu1
I0522 22:14:10.724622 30227 net.cpp:454] relu1 <- conv1
I0522 22:14:10.724634 30227 net.cpp:397] relu1 -> conv1 (in-place)
I0522 22:14:10.725134 30227 net.cpp:150] Setting up relu1
I0522 22:14:10.725150 30227 net.cpp:157] Top shape: 40 12 120 48 (2764800)
I0522 22:14:10.725160 30227 net.cpp:165] Memory required for data: 23134880
I0522 22:14:10.725172 30227 layer_factory.hpp:77] Creating layer pool1
I0522 22:14:10.725188 30227 net.cpp:106] Creating Layer pool1
I0522 22:14:10.725198 30227 net.cpp:454] pool1 <- conv1
I0522 22:14:10.725210 30227 net.cpp:411] pool1 -> pool1
I0522 22:14:10.725286 30227 net.cpp:150] Setting up pool1
I0522 22:14:10.725299 30227 net.cpp:157] Top shape: 40 12 60 48 (1382400)
I0522 22:14:10.725309 30227 net.cpp:165] Memory required for data: 28664480
I0522 22:14:10.725317 30227 layer_factory.hpp:77] Creating layer conv2
I0522 22:14:10.725335 30227 net.cpp:106] Creating Layer conv2
I0522 22:14:10.725345 30227 net.cpp:454] conv2 <- pool1
I0522 22:14:10.725360 30227 net.cpp:411] conv2 -> conv2
I0522 22:14:10.727272 30227 net.cpp:150] Setting up conv2
I0522 22:14:10.727294 30227 net.cpp:157] Top shape: 40 20 54 46 (1987200)
I0522 22:14:10.727306 30227 net.cpp:165] Memory required for data: 36613280
I0522 22:14:10.727324 30227 layer_factory.hpp:77] Creating layer relu2
I0522 22:14:10.727337 30227 net.cpp:106] Creating Layer relu2
I0522 22:14:10.727347 30227 net.cpp:454] relu2 <- conv2
I0522 22:14:10.727360 30227 net.cpp:397] relu2 -> conv2 (in-place)
I0522 22:14:10.727689 30227 net.cpp:150] Setting up relu2
I0522 22:14:10.727702 30227 net.cpp:157] Top shape: 40 20 54 46 (1987200)
I0522 22:14:10.727712 30227 net.cpp:165] Memory required for data: 44562080
I0522 22:14:10.727722 30227 layer_factory.hpp:77] Creating layer pool2
I0522 22:14:10.727735 30227 net.cpp:106] Creating Layer pool2
I0522 22:14:10.727746 30227 net.cpp:454] pool2 <- conv2
I0522 22:14:10.727757 30227 net.cpp:411] pool2 -> pool2
I0522 22:14:10.727828 30227 net.cpp:150] Setting up pool2
I0522 22:14:10.727843 30227 net.cpp:157] Top shape: 40 20 27 46 (993600)
I0522 22:14:10.727852 30227 net.cpp:165] Memory required for data: 48536480
I0522 22:14:10.727862 30227 layer_factory.hpp:77] Creating layer conv3
I0522 22:14:10.727881 30227 net.cpp:106] Creating Layer conv3
I0522 22:14:10.727892 30227 net.cpp:454] conv3 <- pool2
I0522 22:14:10.727906 30227 net.cpp:411] conv3 -> conv3
I0522 22:14:10.729877 30227 net.cpp:150] Setting up conv3
I0522 22:14:10.729900 30227 net.cpp:157] Top shape: 40 28 22 44 (1084160)
I0522 22:14:10.729910 30227 net.cpp:165] Memory required for data: 52873120
I0522 22:14:10.729943 30227 layer_factory.hpp:77] Creating layer relu3
I0522 22:14:10.729956 30227 net.cpp:106] Creating Layer relu3
I0522 22:14:10.729966 30227 net.cpp:454] relu3 <- conv3
I0522 22:14:10.729979 30227 net.cpp:397] relu3 -> conv3 (in-place)
I0522 22:14:10.730453 30227 net.cpp:150] Setting up relu3
I0522 22:14:10.730468 30227 net.cpp:157] Top shape: 40 28 22 44 (1084160)
I0522 22:14:10.730479 30227 net.cpp:165] Memory required for data: 57209760
I0522 22:14:10.730489 30227 layer_factory.hpp:77] Creating layer pool3
I0522 22:14:10.730501 30227 net.cpp:106] Creating Layer pool3
I0522 22:14:10.730511 30227 net.cpp:454] pool3 <- conv3
I0522 22:14:10.730525 30227 net.cpp:411] pool3 -> pool3
I0522 22:14:10.730597 30227 net.cpp:150] Setting up pool3
I0522 22:14:10.730610 30227 net.cpp:157] Top shape: 40 28 11 44 (542080)
I0522 22:14:10.730620 30227 net.cpp:165] Memory required for data: 59378080
I0522 22:14:10.730630 30227 layer_factory.hpp:77] Creating layer conv4
I0522 22:14:10.730646 30227 net.cpp:106] Creating Layer conv4
I0522 22:14:10.730656 30227 net.cpp:454] conv4 <- pool3
I0522 22:14:10.730671 30227 net.cpp:411] conv4 -> conv4
I0522 22:14:10.732739 30227 net.cpp:150] Setting up conv4
I0522 22:14:10.732761 30227 net.cpp:157] Top shape: 40 36 6 42 (362880)
I0522 22:14:10.732774 30227 net.cpp:165] Memory required for data: 60829600
I0522 22:14:10.732789 30227 layer_factory.hpp:77] Creating layer relu4
I0522 22:14:10.732802 30227 net.cpp:106] Creating Layer relu4
I0522 22:14:10.732812 30227 net.cpp:454] relu4 <- conv4
I0522 22:14:10.732825 30227 net.cpp:397] relu4 -> conv4 (in-place)
I0522 22:14:10.733299 30227 net.cpp:150] Setting up relu4
I0522 22:14:10.733314 30227 net.cpp:157] Top shape: 40 36 6 42 (362880)
I0522 22:14:10.733325 30227 net.cpp:165] Memory required for data: 62281120
I0522 22:14:10.733335 30227 layer_factory.hpp:77] Creating layer pool4
I0522 22:14:10.733347 30227 net.cpp:106] Creating Layer pool4
I0522 22:14:10.733357 30227 net.cpp:454] pool4 <- conv4
I0522 22:14:10.733371 30227 net.cpp:411] pool4 -> pool4
I0522 22:14:10.733440 30227 net.cpp:150] Setting up pool4
I0522 22:14:10.733453 30227 net.cpp:157] Top shape: 40 36 3 42 (181440)
I0522 22:14:10.733464 30227 net.cpp:165] Memory required for data: 63006880
I0522 22:14:10.733474 30227 layer_factory.hpp:77] Creating layer ip1
I0522 22:14:10.733487 30227 net.cpp:106] Creating Layer ip1
I0522 22:14:10.733497 30227 net.cpp:454] ip1 <- pool4
I0522 22:14:10.733511 30227 net.cpp:411] ip1 -> ip1
I0522 22:14:10.748971 30227 net.cpp:150] Setting up ip1
I0522 22:14:10.748998 30227 net.cpp:157] Top shape: 40 196 (7840)
I0522 22:14:10.749011 30227 net.cpp:165] Memory required for data: 63038240
I0522 22:14:10.749033 30227 layer_factory.hpp:77] Creating layer relu5
I0522 22:14:10.749048 30227 net.cpp:106] Creating Layer relu5
I0522 22:14:10.749058 30227 net.cpp:454] relu5 <- ip1
I0522 22:14:10.749073 30227 net.cpp:397] relu5 -> ip1 (in-place)
I0522 22:14:10.749420 30227 net.cpp:150] Setting up relu5
I0522 22:14:10.749434 30227 net.cpp:157] Top shape: 40 196 (7840)
I0522 22:14:10.749444 30227 net.cpp:165] Memory required for data: 63069600
I0522 22:14:10.749454 30227 layer_factory.hpp:77] Creating layer drop1
I0522 22:14:10.749474 30227 net.cpp:106] Creating Layer drop1
I0522 22:14:10.749483 30227 net.cpp:454] drop1 <- ip1
I0522 22:14:10.749496 30227 net.cpp:397] drop1 -> ip1 (in-place)
I0522 22:14:10.749542 30227 net.cpp:150] Setting up drop1
I0522 22:14:10.749554 30227 net.cpp:157] Top shape: 40 196 (7840)
I0522 22:14:10.749567 30227 net.cpp:165] Memory required for data: 63100960
I0522 22:14:10.749575 30227 layer_factory.hpp:77] Creating layer ip2
I0522 22:14:10.749590 30227 net.cpp:106] Creating Layer ip2
I0522 22:14:10.749600 30227 net.cpp:454] ip2 <- ip1
I0522 22:14:10.749614 30227 net.cpp:411] ip2 -> ip2
I0522 22:14:10.750092 30227 net.cpp:150] Setting up ip2
I0522 22:14:10.750104 30227 net.cpp:157] Top shape: 40 98 (3920)
I0522 22:14:10.750114 30227 net.cpp:165] Memory required for data: 63116640
I0522 22:14:10.750130 30227 layer_factory.hpp:77] Creating layer relu6
I0522 22:14:10.750155 30227 net.cpp:106] Creating Layer relu6
I0522 22:14:10.750165 30227 net.cpp:454] relu6 <- ip2
I0522 22:14:10.750180 30227 net.cpp:397] relu6 -> ip2 (in-place)
I0522 22:14:10.750712 30227 net.cpp:150] Setting up relu6
I0522 22:14:10.750728 30227 net.cpp:157] Top shape: 40 98 (3920)
I0522 22:14:10.750737 30227 net.cpp:165] Memory required for data: 63132320
I0522 22:14:10.750747 30227 layer_factory.hpp:77] Creating layer drop2
I0522 22:14:10.750761 30227 net.cpp:106] Creating Layer drop2
I0522 22:14:10.750771 30227 net.cpp:454] drop2 <- ip2
I0522 22:14:10.750784 30227 net.cpp:397] drop2 -> ip2 (in-place)
I0522 22:14:10.750828 30227 net.cpp:150] Setting up drop2
I0522 22:14:10.750841 30227 net.cpp:157] Top shape: 40 98 (3920)
I0522 22:14:10.750851 30227 net.cpp:165] Memory required for data: 63148000
I0522 22:14:10.750860 30227 layer_factory.hpp:77] Creating layer ip3
I0522 22:14:10.750875 30227 net.cpp:106] Creating Layer ip3
I0522 22:14:10.750885 30227 net.cpp:454] ip3 <- ip2
I0522 22:14:10.750898 30227 net.cpp:411] ip3 -> ip3
I0522 22:14:10.751121 30227 net.cpp:150] Setting up ip3
I0522 22:14:10.751135 30227 net.cpp:157] Top shape: 40 11 (440)
I0522 22:14:10.751145 30227 net.cpp:165] Memory required for data: 63149760
I0522 22:14:10.751160 30227 layer_factory.hpp:77] Creating layer drop3
I0522 22:14:10.751173 30227 net.cpp:106] Creating Layer drop3
I0522 22:14:10.751183 30227 net.cpp:454] drop3 <- ip3
I0522 22:14:10.751195 30227 net.cpp:397] drop3 -> ip3 (in-place)
I0522 22:14:10.751236 30227 net.cpp:150] Setting up drop3
I0522 22:14:10.751250 30227 net.cpp:157] Top shape: 40 11 (440)
I0522 22:14:10.751260 30227 net.cpp:165] Memory required for data: 63151520
I0522 22:14:10.751269 30227 layer_factory.hpp:77] Creating layer ip3_drop3_0_split
I0522 22:14:10.751282 30227 net.cpp:106] Creating Layer ip3_drop3_0_split
I0522 22:14:10.751292 30227 net.cpp:454] ip3_drop3_0_split <- ip3
I0522 22:14:10.751305 30227 net.cpp:411] ip3_drop3_0_split -> ip3_drop3_0_split_0
I0522 22:14:10.751320 30227 net.cpp:411] ip3_drop3_0_split -> ip3_drop3_0_split_1
I0522 22:14:10.751394 30227 net.cpp:150] Setting up ip3_drop3_0_split
I0522 22:14:10.751407 30227 net.cpp:157] Top shape: 40 11 (440)
I0522 22:14:10.751420 30227 net.cpp:157] Top shape: 40 11 (440)
I0522 22:14:10.751430 30227 net.cpp:165] Memory required for data: 63155040
I0522 22:14:10.751441 30227 layer_factory.hpp:77] Creating layer accuracy
I0522 22:14:10.751462 30227 net.cpp:106] Creating Layer accuracy
I0522 22:14:10.751472 30227 net.cpp:454] accuracy <- ip3_drop3_0_split_0
I0522 22:14:10.751484 30227 net.cpp:454] accuracy <- label_data_hdf5_1_split_0
I0522 22:14:10.751497 30227 net.cpp:411] accuracy -> accuracy
…
