…
I0523 10:17:55.482091 32426 net.cpp:322] The NetState phase (0) differed from the phase (1) specified by a rule in layer data_hdf5
I0523 10:17:55.482151 32426 net.cpp:322] The NetState phase (0) differed from the phase (1) specified by a rule in layer accuracy
I0523 10:17:55.482498 32426 net.cpp:49] Initializing net from parameters: 
name: "caffe_test_127x50_x_unshifted"
state {
  phase: TRAIN
}
layer {
  name: "data_hdf5"
  type: "HDF5Data"
  top: "data"
  top: "label"
  include {
    phase: TRAIN
  }
  hdf5_data_param {
    source: "/lustre/atlas/proj-shared/hep105/caffe_titan/minosmatch_nukecczdefs_127x50_x_unshifted_me1Bmc.trainlist"
    batch_size: 50
  }
}
layer {
  name: "conv1"
  type: "Convolution"
  bottom: "data"
  top: "conv1"
  convolution_param {
    num_output: 12
    pad: 0
    stride: 1
    weight_filler {
      type: "xavier"
    }
    bias_filler {
      type: "constant"
    }
    kernel_h: 8
    kernel_w: 3
  }
}
layer {
  name: "relu1"
  type: "ReLU"
  bottom: "conv1"
  top: "conv1"
}
layer {
  name: "pool1"
  type: "Pooling"
  bottom: "conv1"
  top: "pool1"
  pooling_param {
    pool: MAX
    kernel_h: 2
    kernel_w: 1
    stride_h: 2
    stride_w: 1
  }
}
layer {
  name: "conv2"
  type: "Convolution"
  bottom: "pool1"
  top: "conv2"
  convolution_param {
    num_output: 20
    pad: 0
    stride: 1
    weight_filler {
      type: "xavier"
    }
    bias_filler {
      type: "constant"
    }
    kernel_h: 7
    kernel_w: 3
  }
}
layer {
  name: "relu2"
  type: "ReLU"
  bottom: "conv2"
  top: "conv2"
}
layer {
  name: "pool2"
  type: "Pooling"
  bottom: "conv2"
  top: "pool2"
  pooling_param {
    pool: MAX
    kernel_h: 2
    kernel_w: 1
    stride_h: 2
    stride_w: 1
  }
}
layer {
  name: "conv3"
  type: "Convolution"
  bottom: "pool2"
  top: "conv3"
  convolution_param {
    num_output: 28
    pad: 0
    stride: 1
    weight_filler {
      type: "xavier"
    }
    bias_filler {
      type: "constant"
    }
    kernel_h: 6
    kernel_w: 3
  }
}
layer {
  name: "relu3"
  type: "ReLU"
  bottom: "conv3"
  top: "conv3"
}
layer {
  name: "pool3"
  type: "Pooling"
  bottom: "conv3"
  top: "pool3"
  pooling_param {
    pool: MAX
    kernel_h: 2
    kernel_w: 1
    stride_h: 2
    stride_w: 1
  }
}
layer {
  name: "conv4"
  type: "Convolution"
  bottom: "pool3"
  top: "conv4"
  convolution_param {
    num_output: 36
    pad: 0
    stride: 1
    weight_filler {
      type: "xavier"
    }
    bias_filler {
      type: "constant"
    }
    kernel_h: 6
    kernel_w: 3
  }
}
layer {
  name: "relu4"
  type: "ReLU"
  bottom: "conv4"
  top: "conv4"
}
layer {
  name: "pool4"
  type: "Pooling"
  bottom: "conv4"
  top: "pool4"
  pooling_param {
    pool: MAX
    kernel_h: 2
    kernel_w: 1
    stride_h: 2
    stride_w: 1
  }
}
layer {
  name: "ip1"
  type: "InnerProduct"
  bottom: "pool4"
  top: "ip1"
  inner_product_param {
    num_output: 196
    weight_filler {
      type: "xavier"
    }
    bias_filler {
      type: "constant"
    }
  }
}
layer {
  name: "relu5"
  type: "ReLU"
  bottom: "ip1"
  top: "ip1"
}
layer {
  name: "drop1"
  type: "Dropout"
  bottom: "ip1"
  top: "ip1"
  dropout_param {
    dropout_ratio: 0.5
  }
}
layer {
  name: "ip2"
  type: "InnerProduct"
  bottom: "ip1"
  top: "ip2"
  inner_product_param {
    num_output: 98
    weight_filler {
      type: "xavier"
    }
    bias_filler {
      type: "constant"
    }
  }
}
layer {
  name: "relu6"
  type: "ReLU"
  bottom: "ip2"
  top: "ip2"
}
layer {
  name: "drop2"
  type: "Dropout"
  bottom: "ip2"
  top: "ip2"
  dropout_param {
    dropout_ratio: 0.5
  }
}
layer {
  name: "ip3"
  type: "InnerProduct"
  bottom: "ip2"
  top: "ip3"
  inner_product_param {
    num_output: 11
    weight_filler {
      type: "xavier"
    }
    bias_filler {
      type: "constant"
    }
  }
}
layer {
  name: "drop3"
  type: "Dropout"
  bottom: "ip3"
  top: "ip3"
  dropout_param {
    dropout_ratio: 0.5
  }
}
layer {
  name: "loss"
  type: "SoftmaxWithLoss"
  bottom: "ip3"
  bottom: "label"
  top: "loss"
}
I0523 10:17:55.482681 32426 layer_factory.hpp:77] Creating layer data_hdf5
I0523 10:17:55.482704 32426 net.cpp:106] Creating Layer data_hdf5
I0523 10:17:55.482719 32426 net.cpp:411] data_hdf5 -> data
I0523 10:17:55.482753 32426 net.cpp:411] data_hdf5 -> label
I0523 10:17:55.482786 32426 hdf5_data_layer.cpp:79] Loading list of HDF5 filenames from: /lustre/atlas/proj-shared/hep105/caffe_titan/minosmatch_nukecczdefs_127x50_x_unshifted_me1Bmc.trainlist
I0523 10:17:55.484174 32426 hdf5_data_layer.cpp:93] Number of HDF5 files: 15
I0523 10:17:55.486488 32426 hdf5.cpp:32] Datatype class: H5T_FLOAT
I0523 10:18:16.995899 32426 hdf5.cpp:35] Datatype class: H5T_INTEGER
I0523 10:18:17.001134 32426 net.cpp:150] Setting up data_hdf5
I0523 10:18:17.001175 32426 net.cpp:157] Top shape: 50 1 127 50 (317500)
I0523 10:18:17.001190 32426 net.cpp:157] Top shape: 50 (50)
I0523 10:18:17.001201 32426 net.cpp:165] Memory required for data: 1270200
I0523 10:18:17.001215 32426 layer_factory.hpp:77] Creating layer conv1
I0523 10:18:17.001250 32426 net.cpp:106] Creating Layer conv1
I0523 10:18:17.001260 32426 net.cpp:454] conv1 <- data
I0523 10:18:17.001281 32426 net.cpp:411] conv1 -> conv1
I0523 10:18:17.366245 32426 net.cpp:150] Setting up conv1
I0523 10:18:17.366291 32426 net.cpp:157] Top shape: 50 12 120 48 (3456000)
I0523 10:18:17.366302 32426 net.cpp:165] Memory required for data: 15094200
I0523 10:18:17.366333 32426 layer_factory.hpp:77] Creating layer relu1
I0523 10:18:17.366353 32426 net.cpp:106] Creating Layer relu1
I0523 10:18:17.366364 32426 net.cpp:454] relu1 <- conv1
I0523 10:18:17.366379 32426 net.cpp:397] relu1 -> conv1 (in-place)
I0523 10:18:17.366901 32426 net.cpp:150] Setting up relu1
I0523 10:18:17.366919 32426 net.cpp:157] Top shape: 50 12 120 48 (3456000)
I0523 10:18:17.366930 32426 net.cpp:165] Memory required for data: 28918200
I0523 10:18:17.366940 32426 layer_factory.hpp:77] Creating layer pool1
I0523 10:18:17.366956 32426 net.cpp:106] Creating Layer pool1
I0523 10:18:17.366966 32426 net.cpp:454] pool1 <- conv1
I0523 10:18:17.366979 32426 net.cpp:411] pool1 -> pool1
I0523 10:18:17.367060 32426 net.cpp:150] Setting up pool1
I0523 10:18:17.367074 32426 net.cpp:157] Top shape: 50 12 60 48 (1728000)
I0523 10:18:17.367084 32426 net.cpp:165] Memory required for data: 35830200
I0523 10:18:17.367092 32426 layer_factory.hpp:77] Creating layer conv2
I0523 10:18:17.367115 32426 net.cpp:106] Creating Layer conv2
I0523 10:18:17.367125 32426 net.cpp:454] conv2 <- pool1
I0523 10:18:17.367137 32426 net.cpp:411] conv2 -> conv2
I0523 10:18:17.369801 32426 net.cpp:150] Setting up conv2
I0523 10:18:17.369824 32426 net.cpp:157] Top shape: 50 20 54 46 (2484000)
I0523 10:18:17.369834 32426 net.cpp:165] Memory required for data: 45766200
I0523 10:18:17.369854 32426 layer_factory.hpp:77] Creating layer relu2
I0523 10:18:17.369869 32426 net.cpp:106] Creating Layer relu2
I0523 10:18:17.369879 32426 net.cpp:454] relu2 <- conv2
I0523 10:18:17.369892 32426 net.cpp:397] relu2 -> conv2 (in-place)
I0523 10:18:17.370225 32426 net.cpp:150] Setting up relu2
I0523 10:18:17.370239 32426 net.cpp:157] Top shape: 50 20 54 46 (2484000)
I0523 10:18:17.370249 32426 net.cpp:165] Memory required for data: 55702200
I0523 10:18:17.370260 32426 layer_factory.hpp:77] Creating layer pool2
I0523 10:18:17.370272 32426 net.cpp:106] Creating Layer pool2
I0523 10:18:17.370282 32426 net.cpp:454] pool2 <- conv2
I0523 10:18:17.370296 32426 net.cpp:411] pool2 -> pool2
I0523 10:18:17.370378 32426 net.cpp:150] Setting up pool2
I0523 10:18:17.370391 32426 net.cpp:157] Top shape: 50 20 27 46 (1242000)
I0523 10:18:17.370400 32426 net.cpp:165] Memory required for data: 60670200
I0523 10:18:17.370410 32426 layer_factory.hpp:77] Creating layer conv3
I0523 10:18:17.370429 32426 net.cpp:106] Creating Layer conv3
I0523 10:18:17.370440 32426 net.cpp:454] conv3 <- pool2
I0523 10:18:17.370453 32426 net.cpp:411] conv3 -> conv3
I0523 10:18:17.372405 32426 net.cpp:150] Setting up conv3
I0523 10:18:17.372428 32426 net.cpp:157] Top shape: 50 28 22 44 (1355200)
I0523 10:18:17.372442 32426 net.cpp:165] Memory required for data: 66091000
I0523 10:18:17.372459 32426 layer_factory.hpp:77] Creating layer relu3
I0523 10:18:17.372475 32426 net.cpp:106] Creating Layer relu3
I0523 10:18:17.372485 32426 net.cpp:454] relu3 <- conv3
I0523 10:18:17.372498 32426 net.cpp:397] relu3 -> conv3 (in-place)
I0523 10:18:17.372967 32426 net.cpp:150] Setting up relu3
I0523 10:18:17.372985 32426 net.cpp:157] Top shape: 50 28 22 44 (1355200)
I0523 10:18:17.372995 32426 net.cpp:165] Memory required for data: 71511800
I0523 10:18:17.373006 32426 layer_factory.hpp:77] Creating layer pool3
I0523 10:18:17.373019 32426 net.cpp:106] Creating Layer pool3
I0523 10:18:17.373028 32426 net.cpp:454] pool3 <- conv3
I0523 10:18:17.373041 32426 net.cpp:411] pool3 -> pool3
I0523 10:18:17.373109 32426 net.cpp:150] Setting up pool3
I0523 10:18:17.373122 32426 net.cpp:157] Top shape: 50 28 11 44 (677600)
I0523 10:18:17.373131 32426 net.cpp:165] Memory required for data: 74222200
I0523 10:18:17.373142 32426 layer_factory.hpp:77] Creating layer conv4
I0523 10:18:17.373159 32426 net.cpp:106] Creating Layer conv4
I0523 10:18:17.373170 32426 net.cpp:454] conv4 <- pool3
I0523 10:18:17.373183 32426 net.cpp:411] conv4 -> conv4
I0523 10:18:17.375931 32426 net.cpp:150] Setting up conv4
I0523 10:18:17.375958 32426 net.cpp:157] Top shape: 50 36 6 42 (453600)
I0523 10:18:17.375970 32426 net.cpp:165] Memory required for data: 76036600
I0523 10:18:17.375987 32426 layer_factory.hpp:77] Creating layer relu4
I0523 10:18:17.376000 32426 net.cpp:106] Creating Layer relu4
I0523 10:18:17.376010 32426 net.cpp:454] relu4 <- conv4
I0523 10:18:17.376024 32426 net.cpp:397] relu4 -> conv4 (in-place)
I0523 10:18:17.376495 32426 net.cpp:150] Setting up relu4
I0523 10:18:17.376513 32426 net.cpp:157] Top shape: 50 36 6 42 (453600)
I0523 10:18:17.376523 32426 net.cpp:165] Memory required for data: 77851000
I0523 10:18:17.376533 32426 layer_factory.hpp:77] Creating layer pool4
I0523 10:18:17.376546 32426 net.cpp:106] Creating Layer pool4
I0523 10:18:17.376556 32426 net.cpp:454] pool4 <- conv4
I0523 10:18:17.376570 32426 net.cpp:411] pool4 -> pool4
I0523 10:18:17.376638 32426 net.cpp:150] Setting up pool4
I0523 10:18:17.376652 32426 net.cpp:157] Top shape: 50 36 3 42 (226800)
I0523 10:18:17.376663 32426 net.cpp:165] Memory required for data: 78758200
I0523 10:18:17.376673 32426 layer_factory.hpp:77] Creating layer ip1
I0523 10:18:17.376691 32426 net.cpp:106] Creating Layer ip1
I0523 10:18:17.376701 32426 net.cpp:454] ip1 <- pool4
I0523 10:18:17.376714 32426 net.cpp:411] ip1 -> ip1
I0523 10:18:17.392055 32426 net.cpp:150] Setting up ip1
I0523 10:18:17.392083 32426 net.cpp:157] Top shape: 50 196 (9800)
I0523 10:18:17.392096 32426 net.cpp:165] Memory required for data: 78797400
I0523 10:18:17.392118 32426 layer_factory.hpp:77] Creating layer relu5
I0523 10:18:17.392133 32426 net.cpp:106] Creating Layer relu5
I0523 10:18:17.392143 32426 net.cpp:454] relu5 <- ip1
I0523 10:18:17.392158 32426 net.cpp:397] relu5 -> ip1 (in-place)
I0523 10:18:17.392498 32426 net.cpp:150] Setting up relu5
I0523 10:18:17.392513 32426 net.cpp:157] Top shape: 50 196 (9800)
I0523 10:18:17.392524 32426 net.cpp:165] Memory required for data: 78836600
I0523 10:18:17.392534 32426 layer_factory.hpp:77] Creating layer drop1
I0523 10:18:17.392554 32426 net.cpp:106] Creating Layer drop1
I0523 10:18:17.392565 32426 net.cpp:454] drop1 <- ip1
I0523 10:18:17.392577 32426 net.cpp:397] drop1 -> ip1 (in-place)
I0523 10:18:17.392635 32426 net.cpp:150] Setting up drop1
I0523 10:18:17.392649 32426 net.cpp:157] Top shape: 50 196 (9800)
I0523 10:18:17.392660 32426 net.cpp:165] Memory required for data: 78875800
I0523 10:18:17.392670 32426 layer_factory.hpp:77] Creating layer ip2
I0523 10:18:17.392689 32426 net.cpp:106] Creating Layer ip2
I0523 10:18:17.392700 32426 net.cpp:454] ip2 <- ip1
I0523 10:18:17.392712 32426 net.cpp:411] ip2 -> ip2
I0523 10:18:17.393173 32426 net.cpp:150] Setting up ip2
I0523 10:18:17.393187 32426 net.cpp:157] Top shape: 50 98 (4900)
I0523 10:18:17.393196 32426 net.cpp:165] Memory required for data: 78895400
I0523 10:18:17.393211 32426 layer_factory.hpp:77] Creating layer relu6
I0523 10:18:17.393225 32426 net.cpp:106] Creating Layer relu6
I0523 10:18:17.393234 32426 net.cpp:454] relu6 <- ip2
I0523 10:18:17.393249 32426 net.cpp:397] relu6 -> ip2 (in-place)
I0523 10:18:17.393769 32426 net.cpp:150] Setting up relu6
I0523 10:18:17.393785 32426 net.cpp:157] Top shape: 50 98 (4900)
I0523 10:18:17.393796 32426 net.cpp:165] Memory required for data: 78915000
I0523 10:18:17.393807 32426 layer_factory.hpp:77] Creating layer drop2
I0523 10:18:17.393821 32426 net.cpp:106] Creating Layer drop2
I0523 10:18:17.393831 32426 net.cpp:454] drop2 <- ip2
I0523 10:18:17.393843 32426 net.cpp:397] drop2 -> ip2 (in-place)
I0523 10:18:17.393885 32426 net.cpp:150] Setting up drop2
I0523 10:18:17.393899 32426 net.cpp:157] Top shape: 50 98 (4900)
I0523 10:18:17.393909 32426 net.cpp:165] Memory required for data: 78934600
I0523 10:18:17.393919 32426 layer_factory.hpp:77] Creating layer ip3
I0523 10:18:17.393934 32426 net.cpp:106] Creating Layer ip3
I0523 10:18:17.393942 32426 net.cpp:454] ip3 <- ip2
I0523 10:18:17.393956 32426 net.cpp:411] ip3 -> ip3
I0523 10:18:17.394167 32426 net.cpp:150] Setting up ip3
I0523 10:18:17.394181 32426 net.cpp:157] Top shape: 50 11 (550)
I0523 10:18:17.394191 32426 net.cpp:165] Memory required for data: 78936800
I0523 10:18:17.394207 32426 layer_factory.hpp:77] Creating layer drop3
I0523 10:18:17.394218 32426 net.cpp:106] Creating Layer drop3
I0523 10:18:17.394228 32426 net.cpp:454] drop3 <- ip3
I0523 10:18:17.394240 32426 net.cpp:397] drop3 -> ip3 (in-place)
I0523 10:18:17.394279 32426 net.cpp:150] Setting up drop3
I0523 10:18:17.394292 32426 net.cpp:157] Top shape: 50 11 (550)
I0523 10:18:17.394302 32426 net.cpp:165] Memory required for data: 78939000
I0523 10:18:17.394312 32426 layer_factory.hpp:77] Creating layer loss
I0523 10:18:17.394332 32426 net.cpp:106] Creating Layer loss
I0523 10:18:17.394342 32426 net.cpp:454] loss <- ip3
I0523 10:18:17.394353 32426 net.cpp:454] loss <- label
I0523 10:18:17.394366 32426 net.cpp:411] loss -> loss
I0523 10:18:17.394382 32426 layer_factory.hpp:77] Creating layer loss
…
I0523 10:18:17.397100 32426 solver.cpp:181] Creating test net (#0) specified by net file: /lustre/atlas/proj-shared/hep105/caffe_titan/caffe_workflow/logs_bslr/bs_50_lr_0.0050_2016-05-20T15.49.08.453964.prototxt
I0523 10:18:17.397172 32426 net.cpp:322] The NetState phase (1) differed from the phase (0) specified by a rule in layer data_hdf5
I0523 10:18:17.397528 32426 net.cpp:49] Initializing net from parameters: 
name: "caffe_test_127x50_x_unshifted"
state {
  phase: TEST
}
layer {
  name: "data_hdf5"
  type: "HDF5Data"
  top: "data"
  top: "label"
  include {
    phase: TEST
  }
  hdf5_data_param {
    source: "/lustre/atlas/proj-shared/hep105/caffe_titan/minosmatch_nukecczdefs_127x50_x_unshifted_me1Bmc.testlist"
    batch_size: 50
  }
}
layer {
  name: "conv1"
  type: "Convolution"
  bottom: "data"
  top: "conv1"
  convolution_param {
    num_output: 12
    pad: 0
    stride: 1
    weight_filler {
      type: "xavier"
    }
    bias_filler {
      type: "constant"
    }
    kernel_h: 8
    kernel_w: 3
  }
}
layer {
  name: "relu1"
  type: "ReLU"
  bottom: "conv1"
  top: "conv1"
}
layer {
  name: "pool1"
  type: "Pooling"
  bottom: "conv1"
  top: "pool1"
  pooling_param {
    pool: MAX
    kernel_h: 2
    kernel_w: 1
    stride_h: 2
    stride_w: 1
  }
}
layer {
  name: "conv2"
  type: "Convolution"
  bottom: "pool1"
  top: "conv2"
  convolution_param {
    num_output: 20
    pad: 0
    stride: 1
    weight_filler {
      type: "xavier"
    }
    bias_filler {
      type: "constant"
    }
    kernel_h: 7
    kernel_w: 3
  }
}
layer {
  name: "relu2"
  type: "ReLU"
  bottom: "conv2"
  top: "conv2"
}
layer {
  name: "pool2"
  type: "Pooling"
  bottom: "conv2"
  top: "pool2"
  pooling_param {
    pool: MAX
    kernel_h: 2
    kernel_w: 1
    stride_h: 2
    stride_w: 1
  }
}
layer {
  name: "conv3"
  type: "Convolution"
  bottom: "pool2"
  top: "conv3"
  convolution_param {
    num_output: 28
    pad: 0
    stride: 1
    weight_filler {
      type: "xavier"
    }
    bias_filler {
      type: "constant"
    }
    kernel_h: 6
    kernel_w: 3
  }
}
layer {
  name: "relu3"
  type: "ReLU"
  bottom: "conv3"
  top: "conv3"
}
layer {
  name: "pool3"
  type: "Pooling"
  bottom: "conv3"
  top: "pool3"
  pooling_param {
    pool: MAX
    kernel_h: 2
    kernel_w: 1
    stride_h: 2
    stride_w: 1
  }
}
layer {
  name: "conv4"
  type: "Convolution"
  bottom: "pool3"
  top: "conv4"
  convolution_param {
    num_output: 36
    pad: 0
    stride: 1
    weight_filler {
      type: "xavier"
    }
    bias_filler {
      type: "constant"
    }
    kernel_h: 6
    kernel_w: 3
  }
}
layer {
  name: "relu4"
  type: "ReLU"
  bottom: "conv4"
  top: "conv4"
}
layer {
  name: "pool4"
  type: "Pooling"
  bottom: "conv4"
  top: "pool4"
  pooling_param {
    pool: MAX
    kernel_h: 2
    kernel_w: 1
    stride_h: 2
    stride_w: 1
  }
}
layer {
  name: "ip1"
  type: "InnerProduct"
  bottom: "pool4"
  top: "ip1"
  inner_product_param {
    num_output: 196
    weight_filler {
      type: "xavier"
    }
    bias_filler {
      type: "constant"
    }
  }
}
layer {
  name: "relu5"
  type: "ReLU"
  bottom: "ip1"
  top: "ip1"
}
layer {
  name: "drop1"
  type: "Dropout"
  bottom: "ip1"
  top: "ip1"
  dropout_param {
    dropout_ratio: 0.5
  }
}
layer {
  name: "ip2"
  type: "InnerProduct"
  bottom: "ip1"
  top: "ip2"
  inner_product_param {
    num_output: 98
    weight_filler {
      type: "xavier"
    }
    bias_filler {
      type: "constant"
    }
  }
}
layer {
  name: "relu6"
  type: "ReLU"
  bottom: "ip2"
  top: "ip2"
}
layer {
  name: "drop2"
  type: "Dropout"
  bottom: "ip2"
  top: "ip2"
  dropout_param {
    dropout_ratio: 0.5
  }
}
layer {
  name: "ip3"
  type: "InnerProduct"
  bottom: "ip2"
  top: "ip3"
  inner_product_param {
    num_output: 11
    weight_filler {
      type: "xavier"
    }
    bias_filler {
      type: "constant"
    }
  }
}
layer {
  name: "drop3"
  type: "Dropout"
  bottom: "ip3"
  top: "ip3"
  dropout_param {
    dropout_ratio: 0.5
  }
}
layer {
  name: "accuracy"
  type: "Accuracy"
  bottom: "ip3"
  bottom: "label"
  top: "accuracy"
  include {
    phase: TEST
  }
}
layer {
  name: "loss"
  type: "SoftmaxWithLoss"
  bottom: "ip3"
  bottom: "label"
  top: "loss"
}
I0523 10:18:17.397717 32426 layer_factory.hpp:77] Creating layer data_hdf5
I0523 10:18:17.397732 32426 net.cpp:106] Creating Layer data_hdf5
I0523 10:18:17.397744 32426 net.cpp:411] data_hdf5 -> data
I0523 10:18:17.397761 32426 net.cpp:411] data_hdf5 -> label
I0523 10:18:17.397776 32426 hdf5_data_layer.cpp:79] Loading list of HDF5 filenames from: /lustre/atlas/proj-shared/hep105/caffe_titan/minosmatch_nukecczdefs_127x50_x_unshifted_me1Bmc.testlist
I0523 10:18:17.399044 32426 hdf5_data_layer.cpp:93] Number of HDF5 files: 3
I0523 10:18:38.727224 32426 net.cpp:150] Setting up data_hdf5
I0523 10:18:38.727393 32426 net.cpp:157] Top shape: 50 1 127 50 (317500)
I0523 10:18:38.727408 32426 net.cpp:157] Top shape: 50 (50)
I0523 10:18:38.727419 32426 net.cpp:165] Memory required for data: 1270200
I0523 10:18:38.727433 32426 layer_factory.hpp:77] Creating layer label_data_hdf5_1_split
I0523 10:18:38.727461 32426 net.cpp:106] Creating Layer label_data_hdf5_1_split
I0523 10:18:38.727473 32426 net.cpp:454] label_data_hdf5_1_split <- label
I0523 10:18:38.727488 32426 net.cpp:411] label_data_hdf5_1_split -> label_data_hdf5_1_split_0
I0523 10:18:38.727509 32426 net.cpp:411] label_data_hdf5_1_split -> label_data_hdf5_1_split_1
I0523 10:18:38.727581 32426 net.cpp:150] Setting up label_data_hdf5_1_split
I0523 10:18:38.727596 32426 net.cpp:157] Top shape: 50 (50)
I0523 10:18:38.727607 32426 net.cpp:157] Top shape: 50 (50)
I0523 10:18:38.727617 32426 net.cpp:165] Memory required for data: 1270600
I0523 10:18:38.727627 32426 layer_factory.hpp:77] Creating layer conv1
I0523 10:18:38.727649 32426 net.cpp:106] Creating Layer conv1
I0523 10:18:38.727659 32426 net.cpp:454] conv1 <- data
I0523 10:18:38.727674 32426 net.cpp:411] conv1 -> conv1
I0523 10:18:38.729634 32426 net.cpp:150] Setting up conv1
I0523 10:18:38.729653 32426 net.cpp:157] Top shape: 50 12 120 48 (3456000)
I0523 10:18:38.729663 32426 net.cpp:165] Memory required for data: 15094600
I0523 10:18:38.729684 32426 layer_factory.hpp:77] Creating layer relu1
I0523 10:18:38.729699 32426 net.cpp:106] Creating Layer relu1
I0523 10:18:38.729709 32426 net.cpp:454] relu1 <- conv1
I0523 10:18:38.729723 32426 net.cpp:397] relu1 -> conv1 (in-place)
I0523 10:18:38.730219 32426 net.cpp:150] Setting up relu1
I0523 10:18:38.730237 32426 net.cpp:157] Top shape: 50 12 120 48 (3456000)
I0523 10:18:38.730247 32426 net.cpp:165] Memory required for data: 28918600
I0523 10:18:38.730257 32426 layer_factory.hpp:77] Creating layer pool1
I0523 10:18:38.730273 32426 net.cpp:106] Creating Layer pool1
I0523 10:18:38.730283 32426 net.cpp:454] pool1 <- conv1
I0523 10:18:38.730295 32426 net.cpp:411] pool1 -> pool1
I0523 10:18:38.730370 32426 net.cpp:150] Setting up pool1
I0523 10:18:38.730383 32426 net.cpp:157] Top shape: 50 12 60 48 (1728000)
I0523 10:18:38.730392 32426 net.cpp:165] Memory required for data: 35830600
I0523 10:18:38.730401 32426 layer_factory.hpp:77] Creating layer conv2
I0523 10:18:38.730418 32426 net.cpp:106] Creating Layer conv2
I0523 10:18:38.730429 32426 net.cpp:454] conv2 <- pool1
I0523 10:18:38.730443 32426 net.cpp:411] conv2 -> conv2
I0523 10:18:38.732360 32426 net.cpp:150] Setting up conv2
I0523 10:18:38.732383 32426 net.cpp:157] Top shape: 50 20 54 46 (2484000)
I0523 10:18:38.732396 32426 net.cpp:165] Memory required for data: 45766600
I0523 10:18:38.732414 32426 layer_factory.hpp:77] Creating layer relu2
I0523 10:18:38.732427 32426 net.cpp:106] Creating Layer relu2
I0523 10:18:38.732437 32426 net.cpp:454] relu2 <- conv2
I0523 10:18:38.732450 32426 net.cpp:397] relu2 -> conv2 (in-place)
I0523 10:18:38.732784 32426 net.cpp:150] Setting up relu2
I0523 10:18:38.732798 32426 net.cpp:157] Top shape: 50 20 54 46 (2484000)
I0523 10:18:38.732808 32426 net.cpp:165] Memory required for data: 55702600
I0523 10:18:38.732818 32426 layer_factory.hpp:77] Creating layer pool2
I0523 10:18:38.732831 32426 net.cpp:106] Creating Layer pool2
I0523 10:18:38.732841 32426 net.cpp:454] pool2 <- conv2
I0523 10:18:38.732853 32426 net.cpp:411] pool2 -> pool2
I0523 10:18:38.732925 32426 net.cpp:150] Setting up pool2
I0523 10:18:38.732939 32426 net.cpp:157] Top shape: 50 20 27 46 (1242000)
I0523 10:18:38.732949 32426 net.cpp:165] Memory required for data: 60670600
I0523 10:18:38.732959 32426 layer_factory.hpp:77] Creating layer conv3
I0523 10:18:38.732977 32426 net.cpp:106] Creating Layer conv3
I0523 10:18:38.732987 32426 net.cpp:454] conv3 <- pool2
I0523 10:18:38.733001 32426 net.cpp:411] conv3 -> conv3
I0523 10:18:38.734971 32426 net.cpp:150] Setting up conv3
I0523 10:18:38.734992 32426 net.cpp:157] Top shape: 50 28 22 44 (1355200)
I0523 10:18:38.735005 32426 net.cpp:165] Memory required for data: 66091400
I0523 10:18:38.735038 32426 layer_factory.hpp:77] Creating layer relu3
I0523 10:18:38.735051 32426 net.cpp:106] Creating Layer relu3
I0523 10:18:38.735062 32426 net.cpp:454] relu3 <- conv3
I0523 10:18:38.735074 32426 net.cpp:397] relu3 -> conv3 (in-place)
I0523 10:18:38.735544 32426 net.cpp:150] Setting up relu3
I0523 10:18:38.735561 32426 net.cpp:157] Top shape: 50 28 22 44 (1355200)
I0523 10:18:38.735572 32426 net.cpp:165] Memory required for data: 71512200
I0523 10:18:38.735582 32426 layer_factory.hpp:77] Creating layer pool3
I0523 10:18:38.735595 32426 net.cpp:106] Creating Layer pool3
I0523 10:18:38.735605 32426 net.cpp:454] pool3 <- conv3
I0523 10:18:38.735617 32426 net.cpp:411] pool3 -> pool3
I0523 10:18:38.735689 32426 net.cpp:150] Setting up pool3
I0523 10:18:38.735702 32426 net.cpp:157] Top shape: 50 28 11 44 (677600)
I0523 10:18:38.735713 32426 net.cpp:165] Memory required for data: 74222600
I0523 10:18:38.735723 32426 layer_factory.hpp:77] Creating layer conv4
I0523 10:18:38.735745 32426 net.cpp:106] Creating Layer conv4
I0523 10:18:38.735756 32426 net.cpp:454] conv4 <- pool3
I0523 10:18:38.735769 32426 net.cpp:411] conv4 -> conv4
I0523 10:18:38.737826 32426 net.cpp:150] Setting up conv4
I0523 10:18:38.737844 32426 net.cpp:157] Top shape: 50 36 6 42 (453600)
I0523 10:18:38.737855 32426 net.cpp:165] Memory required for data: 76037000
I0523 10:18:38.737870 32426 layer_factory.hpp:77] Creating layer relu4
I0523 10:18:38.737884 32426 net.cpp:106] Creating Layer relu4
I0523 10:18:38.737895 32426 net.cpp:454] relu4 <- conv4
I0523 10:18:38.737907 32426 net.cpp:397] relu4 -> conv4 (in-place)
I0523 10:18:38.738379 32426 net.cpp:150] Setting up relu4
I0523 10:18:38.738394 32426 net.cpp:157] Top shape: 50 36 6 42 (453600)
I0523 10:18:38.738405 32426 net.cpp:165] Memory required for data: 77851400
I0523 10:18:38.738415 32426 layer_factory.hpp:77] Creating layer pool4
I0523 10:18:38.738428 32426 net.cpp:106] Creating Layer pool4
I0523 10:18:38.738438 32426 net.cpp:454] pool4 <- conv4
I0523 10:18:38.738452 32426 net.cpp:411] pool4 -> pool4
I0523 10:18:38.738524 32426 net.cpp:150] Setting up pool4
I0523 10:18:38.738538 32426 net.cpp:157] Top shape: 50 36 3 42 (226800)
I0523 10:18:38.738546 32426 net.cpp:165] Memory required for data: 78758600
I0523 10:18:38.738557 32426 layer_factory.hpp:77] Creating layer ip1
I0523 10:18:38.738572 32426 net.cpp:106] Creating Layer ip1
I0523 10:18:38.738584 32426 net.cpp:454] ip1 <- pool4
I0523 10:18:38.738596 32426 net.cpp:411] ip1 -> ip1
I0523 10:18:38.754098 32426 net.cpp:150] Setting up ip1
I0523 10:18:38.754127 32426 net.cpp:157] Top shape: 50 196 (9800)
I0523 10:18:38.754138 32426 net.cpp:165] Memory required for data: 78797800
I0523 10:18:38.754160 32426 layer_factory.hpp:77] Creating layer relu5
I0523 10:18:38.754175 32426 net.cpp:106] Creating Layer relu5
I0523 10:18:38.754186 32426 net.cpp:454] relu5 <- ip1
I0523 10:18:38.754199 32426 net.cpp:397] relu5 -> ip1 (in-place)
I0523 10:18:38.754547 32426 net.cpp:150] Setting up relu5
I0523 10:18:38.754561 32426 net.cpp:157] Top shape: 50 196 (9800)
I0523 10:18:38.754571 32426 net.cpp:165] Memory required for data: 78837000
I0523 10:18:38.754581 32426 layer_factory.hpp:77] Creating layer drop1
I0523 10:18:38.754601 32426 net.cpp:106] Creating Layer drop1
I0523 10:18:38.754611 32426 net.cpp:454] drop1 <- ip1
I0523 10:18:38.754623 32426 net.cpp:397] drop1 -> ip1 (in-place)
I0523 10:18:38.754669 32426 net.cpp:150] Setting up drop1
I0523 10:18:38.754683 32426 net.cpp:157] Top shape: 50 196 (9800)
I0523 10:18:38.754693 32426 net.cpp:165] Memory required for data: 78876200
I0523 10:18:38.754701 32426 layer_factory.hpp:77] Creating layer ip2
I0523 10:18:38.754716 32426 net.cpp:106] Creating Layer ip2
I0523 10:18:38.754725 32426 net.cpp:454] ip2 <- ip1
I0523 10:18:38.754739 32426 net.cpp:411] ip2 -> ip2
I0523 10:18:38.755218 32426 net.cpp:150] Setting up ip2
I0523 10:18:38.755230 32426 net.cpp:157] Top shape: 50 98 (4900)
I0523 10:18:38.755240 32426 net.cpp:165] Memory required for data: 78895800
I0523 10:18:38.755255 32426 layer_factory.hpp:77] Creating layer relu6
I0523 10:18:38.755281 32426 net.cpp:106] Creating Layer relu6
I0523 10:18:38.755291 32426 net.cpp:454] relu6 <- ip2
I0523 10:18:38.755303 32426 net.cpp:397] relu6 -> ip2 (in-place)
I0523 10:18:38.755844 32426 net.cpp:150] Setting up relu6
I0523 10:18:38.755867 32426 net.cpp:157] Top shape: 50 98 (4900)
I0523 10:18:38.755877 32426 net.cpp:165] Memory required for data: 78915400
I0523 10:18:38.755887 32426 layer_factory.hpp:77] Creating layer drop2
I0523 10:18:38.755902 32426 net.cpp:106] Creating Layer drop2
I0523 10:18:38.755911 32426 net.cpp:454] drop2 <- ip2
I0523 10:18:38.755924 32426 net.cpp:397] drop2 -> ip2 (in-place)
I0523 10:18:38.755970 32426 net.cpp:150] Setting up drop2
I0523 10:18:38.755982 32426 net.cpp:157] Top shape: 50 98 (4900)
I0523 10:18:38.755992 32426 net.cpp:165] Memory required for data: 78935000
I0523 10:18:38.756002 32426 layer_factory.hpp:77] Creating layer ip3
I0523 10:18:38.756016 32426 net.cpp:106] Creating Layer ip3
I0523 10:18:38.756027 32426 net.cpp:454] ip3 <- ip2
I0523 10:18:38.756042 32426 net.cpp:411] ip3 -> ip3
I0523 10:18:38.756265 32426 net.cpp:150] Setting up ip3
I0523 10:18:38.756278 32426 net.cpp:157] Top shape: 50 11 (550)
I0523 10:18:38.756289 32426 net.cpp:165] Memory required for data: 78937200
I0523 10:18:38.756304 32426 layer_factory.hpp:77] Creating layer drop3
I0523 10:18:38.756316 32426 net.cpp:106] Creating Layer drop3
I0523 10:18:38.756326 32426 net.cpp:454] drop3 <- ip3
I0523 10:18:38.756340 32426 net.cpp:397] drop3 -> ip3 (in-place)
I0523 10:18:38.756381 32426 net.cpp:150] Setting up drop3
I0523 10:18:38.756393 32426 net.cpp:157] Top shape: 50 11 (550)
I0523 10:18:38.756402 32426 net.cpp:165] Memory required for data: 78939400
I0523 10:18:38.756412 32426 layer_factory.hpp:77] Creating layer ip3_drop3_0_split
I0523 10:18:38.756425 32426 net.cpp:106] Creating Layer ip3_drop3_0_split
I0523 10:18:38.756435 32426 net.cpp:454] ip3_drop3_0_split <- ip3
I0523 10:18:38.756448 32426 net.cpp:411] ip3_drop3_0_split -> ip3_drop3_0_split_0
I0523 10:18:38.756464 32426 net.cpp:411] ip3_drop3_0_split -> ip3_drop3_0_split_1
I0523 10:18:38.756538 32426 net.cpp:150] Setting up ip3_drop3_0_split
I0523 10:18:38.756551 32426 net.cpp:157] Top shape: 50 11 (550)
I0523 10:18:38.756563 32426 net.cpp:157] Top shape: 50 11 (550)
I0523 10:18:38.756573 32426 net.cpp:165] Memory required for data: 78943800
I0523 10:18:38.756583 32426 layer_factory.hpp:77] Creating layer accuracy
I0523 10:18:38.756604 32426 net.cpp:106] Creating Layer accuracy
I0523 10:18:38.756615 32426 net.cpp:454] accuracy <- ip3_drop3_0_split_0
I0523 10:18:38.756626 32426 net.cpp:454] accuracy <- label_data_hdf5_1_split_0
I0523 10:18:38.756640 32426 net.cpp:411] accuracy -> accuracy
…
