…
I0523 08:17:11.008015  3513 net.cpp:322] The NetState phase (0) differed from the phase (1) specified by a rule in layer data_hdf5
I0523 08:17:11.008077  3513 net.cpp:322] The NetState phase (0) differed from the phase (1) specified by a rule in layer accuracy
I0523 08:17:11.008424  3513 net.cpp:49] Initializing net from parameters: 
name: "caffe_test_127x50_x_unshifted"
state {
  phase: TRAIN
}
layer {
  name: "data_hdf5"
  type: "HDF5Data"
  top: "data"
  top: "label"
  include {
    phase: TRAIN
  }
  hdf5_data_param {
    source: "/lustre/atlas/proj-shared/hep105/caffe_titan/minosmatch_nukecczdefs_127x50_x_unshifted_me1Bmc.trainlist"
    batch_size: 50
  }
}
layer {
  name: "conv1"
  type: "Convolution"
  bottom: "data"
  top: "conv1"
  convolution_param {
    num_output: 12
    pad: 0
    stride: 1
    weight_filler {
      type: "xavier"
    }
    bias_filler {
      type: "constant"
    }
    kernel_h: 8
    kernel_w: 3
  }
}
layer {
  name: "relu1"
  type: "ReLU"
  bottom: "conv1"
  top: "conv1"
}
layer {
  name: "pool1"
  type: "Pooling"
  bottom: "conv1"
  top: "pool1"
  pooling_param {
    pool: MAX
    kernel_h: 2
    kernel_w: 1
    stride_h: 2
    stride_w: 1
  }
}
layer {
  name: "conv2"
  type: "Convolution"
  bottom: "pool1"
  top: "conv2"
  convolution_param {
    num_output: 20
    pad: 0
    stride: 1
    weight_filler {
      type: "xavier"
    }
    bias_filler {
      type: "constant"
    }
    kernel_h: 7
    kernel_w: 3
  }
}
layer {
  name: "relu2"
  type: "ReLU"
  bottom: "conv2"
  top: "conv2"
}
layer {
  name: "pool2"
  type: "Pooling"
  bottom: "conv2"
  top: "pool2"
  pooling_param {
    pool: MAX
    kernel_h: 2
    kernel_w: 1
    stride_h: 2
    stride_w: 1
  }
}
layer {
  name: "conv3"
  type: "Convolution"
  bottom: "pool2"
  top: "conv3"
  convolution_param {
    num_output: 28
    pad: 0
    stride: 1
    weight_filler {
      type: "xavier"
    }
    bias_filler {
      type: "constant"
    }
    kernel_h: 6
    kernel_w: 3
  }
}
layer {
  name: "relu3"
  type: "ReLU"
  bottom: "conv3"
  top: "conv3"
}
layer {
  name: "pool3"
  type: "Pooling"
  bottom: "conv3"
  top: "pool3"
  pooling_param {
    pool: MAX
    kernel_h: 2
    kernel_w: 1
    stride_h: 2
    stride_w: 1
  }
}
layer {
  name: "conv4"
  type: "Convolution"
  bottom: "pool3"
  top: "conv4"
  convolution_param {
    num_output: 36
    pad: 0
    stride: 1
    weight_filler {
      type: "xavier"
    }
    bias_filler {
      type: "constant"
    }
    kernel_h: 6
    kernel_w: 3
  }
}
layer {
  name: "relu4"
  type: "ReLU"
  bottom: "conv4"
  top: "conv4"
}
layer {
  name: "pool4"
  type: "Pooling"
  bottom: "conv4"
  top: "pool4"
  pooling_param {
    pool: MAX
    kernel_h: 2
    kernel_w: 1
    stride_h: 2
    stride_w: 1
  }
}
layer {
  name: "ip1"
  type: "InnerProduct"
  bottom: "pool4"
  top: "ip1"
  inner_product_param {
    num_output: 196
    weight_filler {
      type: "xavier"
    }
    bias_filler {
      type: "constant"
    }
  }
}
layer {
  name: "relu5"
  type: "ReLU"
  bottom: "ip1"
  top: "ip1"
}
layer {
  name: "drop1"
  type: "Dropout"
  bottom: "ip1"
  top: "ip1"
  dropout_param {
    dropout_ratio: 0.5
  }
}
layer {
  name: "ip2"
  type: "InnerProduct"
  bottom: "ip1"
  top: "ip2"
  inner_product_param {
    num_output: 98
    weight_filler {
      type: "xavier"
    }
    bias_filler {
      type: "constant"
    }
  }
}
layer {
  name: "relu6"
  type: "ReLU"
  bottom: "ip2"
  top: "ip2"
}
layer {
  name: "drop2"
  type: "Dropout"
  bottom: "ip2"
  top: "ip2"
  dropout_param {
    dropout_ratio: 0.5
  }
}
layer {
  name: "ip3"
  type: "InnerProduct"
  bottom: "ip2"
  top: "ip3"
  inner_product_param {
    num_output: 11
    weight_filler {
      type: "xavier"
    }
    bias_filler {
      type: "constant"
    }
  }
}
layer {
  name: "drop3"
  type: "Dropout"
  bottom: "ip3"
  top: "ip3"
  dropout_param {
    dropout_ratio: 0.5
  }
}
layer {
  name: "loss"
  type: "SoftmaxWithLoss"
  bottom: "ip3"
  bottom: "label"
  top: "loss"
}
I0523 08:17:11.008602  3513 layer_factory.hpp:77] Creating layer data_hdf5
I0523 08:17:11.008626  3513 net.cpp:106] Creating Layer data_hdf5
I0523 08:17:11.008641  3513 net.cpp:411] data_hdf5 -> data
I0523 08:17:11.008674  3513 net.cpp:411] data_hdf5 -> label
I0523 08:17:11.008707  3513 hdf5_data_layer.cpp:79] Loading list of HDF5 filenames from: /lustre/atlas/proj-shared/hep105/caffe_titan/minosmatch_nukecczdefs_127x50_x_unshifted_me1Bmc.trainlist
I0523 08:17:11.010011  3513 hdf5_data_layer.cpp:93] Number of HDF5 files: 15
I0523 08:17:11.026098  3513 hdf5.cpp:32] Datatype class: H5T_FLOAT
I0523 08:17:32.594509  3513 hdf5.cpp:35] Datatype class: H5T_INTEGER
I0523 08:17:32.599725  3513 net.cpp:150] Setting up data_hdf5
I0523 08:17:32.599766  3513 net.cpp:157] Top shape: 50 1 127 50 (317500)
I0523 08:17:32.599781  3513 net.cpp:157] Top shape: 50 (50)
I0523 08:17:32.599793  3513 net.cpp:165] Memory required for data: 1270200
I0523 08:17:32.599807  3513 layer_factory.hpp:77] Creating layer conv1
I0523 08:17:32.599849  3513 net.cpp:106] Creating Layer conv1
I0523 08:17:32.599861  3513 net.cpp:454] conv1 <- data
I0523 08:17:32.599884  3513 net.cpp:411] conv1 -> conv1
I0523 08:17:33.708032  3513 net.cpp:150] Setting up conv1
I0523 08:17:33.708082  3513 net.cpp:157] Top shape: 50 12 120 48 (3456000)
I0523 08:17:33.708093  3513 net.cpp:165] Memory required for data: 15094200
I0523 08:17:33.708122  3513 layer_factory.hpp:77] Creating layer relu1
I0523 08:17:33.708143  3513 net.cpp:106] Creating Layer relu1
I0523 08:17:33.708154  3513 net.cpp:454] relu1 <- conv1
I0523 08:17:33.708168  3513 net.cpp:397] relu1 -> conv1 (in-place)
I0523 08:17:33.708688  3513 net.cpp:150] Setting up relu1
I0523 08:17:33.708704  3513 net.cpp:157] Top shape: 50 12 120 48 (3456000)
I0523 08:17:33.708715  3513 net.cpp:165] Memory required for data: 28918200
I0523 08:17:33.708725  3513 layer_factory.hpp:77] Creating layer pool1
I0523 08:17:33.708742  3513 net.cpp:106] Creating Layer pool1
I0523 08:17:33.708752  3513 net.cpp:454] pool1 <- conv1
I0523 08:17:33.708765  3513 net.cpp:411] pool1 -> pool1
I0523 08:17:33.708847  3513 net.cpp:150] Setting up pool1
I0523 08:17:33.708861  3513 net.cpp:157] Top shape: 50 12 60 48 (1728000)
I0523 08:17:33.708871  3513 net.cpp:165] Memory required for data: 35830200
I0523 08:17:33.708881  3513 layer_factory.hpp:77] Creating layer conv2
I0523 08:17:33.708904  3513 net.cpp:106] Creating Layer conv2
I0523 08:17:33.708915  3513 net.cpp:454] conv2 <- pool1
I0523 08:17:33.708928  3513 net.cpp:411] conv2 -> conv2
I0523 08:17:33.711598  3513 net.cpp:150] Setting up conv2
I0523 08:17:33.711627  3513 net.cpp:157] Top shape: 50 20 54 46 (2484000)
I0523 08:17:33.711637  3513 net.cpp:165] Memory required for data: 45766200
I0523 08:17:33.711658  3513 layer_factory.hpp:77] Creating layer relu2
I0523 08:17:33.711671  3513 net.cpp:106] Creating Layer relu2
I0523 08:17:33.711681  3513 net.cpp:454] relu2 <- conv2
I0523 08:17:33.711694  3513 net.cpp:397] relu2 -> conv2 (in-place)
I0523 08:17:33.712036  3513 net.cpp:150] Setting up relu2
I0523 08:17:33.712051  3513 net.cpp:157] Top shape: 50 20 54 46 (2484000)
I0523 08:17:33.712061  3513 net.cpp:165] Memory required for data: 55702200
I0523 08:17:33.712072  3513 layer_factory.hpp:77] Creating layer pool2
I0523 08:17:33.712085  3513 net.cpp:106] Creating Layer pool2
I0523 08:17:33.712095  3513 net.cpp:454] pool2 <- conv2
I0523 08:17:33.712108  3513 net.cpp:411] pool2 -> pool2
I0523 08:17:33.712188  3513 net.cpp:150] Setting up pool2
I0523 08:17:33.712203  3513 net.cpp:157] Top shape: 50 20 27 46 (1242000)
I0523 08:17:33.712213  3513 net.cpp:165] Memory required for data: 60670200
I0523 08:17:33.712222  3513 layer_factory.hpp:77] Creating layer conv3
I0523 08:17:33.712241  3513 net.cpp:106] Creating Layer conv3
I0523 08:17:33.712251  3513 net.cpp:454] conv3 <- pool2
I0523 08:17:33.712265  3513 net.cpp:411] conv3 -> conv3
I0523 08:17:33.714203  3513 net.cpp:150] Setting up conv3
I0523 08:17:33.714227  3513 net.cpp:157] Top shape: 50 28 22 44 (1355200)
I0523 08:17:33.714238  3513 net.cpp:165] Memory required for data: 66091000
I0523 08:17:33.714257  3513 layer_factory.hpp:77] Creating layer relu3
I0523 08:17:33.714273  3513 net.cpp:106] Creating Layer relu3
I0523 08:17:33.714283  3513 net.cpp:454] relu3 <- conv3
I0523 08:17:33.714296  3513 net.cpp:397] relu3 -> conv3 (in-place)
I0523 08:17:33.714762  3513 net.cpp:150] Setting up relu3
I0523 08:17:33.714779  3513 net.cpp:157] Top shape: 50 28 22 44 (1355200)
I0523 08:17:33.714790  3513 net.cpp:165] Memory required for data: 71511800
I0523 08:17:33.714800  3513 layer_factory.hpp:77] Creating layer pool3
I0523 08:17:33.714813  3513 net.cpp:106] Creating Layer pool3
I0523 08:17:33.714823  3513 net.cpp:454] pool3 <- conv3
I0523 08:17:33.714836  3513 net.cpp:411] pool3 -> pool3
I0523 08:17:33.714902  3513 net.cpp:150] Setting up pool3
I0523 08:17:33.714916  3513 net.cpp:157] Top shape: 50 28 11 44 (677600)
I0523 08:17:33.714926  3513 net.cpp:165] Memory required for data: 74222200
I0523 08:17:33.714936  3513 layer_factory.hpp:77] Creating layer conv4
I0523 08:17:33.714951  3513 net.cpp:106] Creating Layer conv4
I0523 08:17:33.714962  3513 net.cpp:454] conv4 <- pool3
I0523 08:17:33.714975  3513 net.cpp:411] conv4 -> conv4
I0523 08:17:33.717743  3513 net.cpp:150] Setting up conv4
I0523 08:17:33.717767  3513 net.cpp:157] Top shape: 50 36 6 42 (453600)
I0523 08:17:33.717778  3513 net.cpp:165] Memory required for data: 76036600
I0523 08:17:33.717795  3513 layer_factory.hpp:77] Creating layer relu4
I0523 08:17:33.717810  3513 net.cpp:106] Creating Layer relu4
I0523 08:17:33.717821  3513 net.cpp:454] relu4 <- conv4
I0523 08:17:33.717834  3513 net.cpp:397] relu4 -> conv4 (in-place)
I0523 08:17:33.718303  3513 net.cpp:150] Setting up relu4
I0523 08:17:33.718320  3513 net.cpp:157] Top shape: 50 36 6 42 (453600)
I0523 08:17:33.718330  3513 net.cpp:165] Memory required for data: 77851000
I0523 08:17:33.718343  3513 layer_factory.hpp:77] Creating layer pool4
I0523 08:17:33.718355  3513 net.cpp:106] Creating Layer pool4
I0523 08:17:33.718365  3513 net.cpp:454] pool4 <- conv4
I0523 08:17:33.718379  3513 net.cpp:411] pool4 -> pool4
I0523 08:17:33.718446  3513 net.cpp:150] Setting up pool4
I0523 08:17:33.718461  3513 net.cpp:157] Top shape: 50 36 3 42 (226800)
I0523 08:17:33.718471  3513 net.cpp:165] Memory required for data: 78758200
I0523 08:17:33.718480  3513 layer_factory.hpp:77] Creating layer ip1
I0523 08:17:33.718499  3513 net.cpp:106] Creating Layer ip1
I0523 08:17:33.718509  3513 net.cpp:454] ip1 <- pool4
I0523 08:17:33.718523  3513 net.cpp:411] ip1 -> ip1
I0523 08:17:33.733943  3513 net.cpp:150] Setting up ip1
I0523 08:17:33.733968  3513 net.cpp:157] Top shape: 50 196 (9800)
I0523 08:17:33.733979  3513 net.cpp:165] Memory required for data: 78797400
I0523 08:17:33.734005  3513 layer_factory.hpp:77] Creating layer relu5
I0523 08:17:33.734020  3513 net.cpp:106] Creating Layer relu5
I0523 08:17:33.734031  3513 net.cpp:454] relu5 <- ip1
I0523 08:17:33.734045  3513 net.cpp:397] relu5 -> ip1 (in-place)
I0523 08:17:33.734385  3513 net.cpp:150] Setting up relu5
I0523 08:17:33.734400  3513 net.cpp:157] Top shape: 50 196 (9800)
I0523 08:17:33.734411  3513 net.cpp:165] Memory required for data: 78836600
I0523 08:17:33.734421  3513 layer_factory.hpp:77] Creating layer drop1
I0523 08:17:33.734444  3513 net.cpp:106] Creating Layer drop1
I0523 08:17:33.734454  3513 net.cpp:454] drop1 <- ip1
I0523 08:17:33.734467  3513 net.cpp:397] drop1 -> ip1 (in-place)
I0523 08:17:33.734527  3513 net.cpp:150] Setting up drop1
I0523 08:17:33.734540  3513 net.cpp:157] Top shape: 50 196 (9800)
I0523 08:17:33.734550  3513 net.cpp:165] Memory required for data: 78875800
I0523 08:17:33.734561  3513 layer_factory.hpp:77] Creating layer ip2
I0523 08:17:33.734580  3513 net.cpp:106] Creating Layer ip2
I0523 08:17:33.734591  3513 net.cpp:454] ip2 <- ip1
I0523 08:17:33.734603  3513 net.cpp:411] ip2 -> ip2
I0523 08:17:33.735065  3513 net.cpp:150] Setting up ip2
I0523 08:17:33.735077  3513 net.cpp:157] Top shape: 50 98 (4900)
I0523 08:17:33.735087  3513 net.cpp:165] Memory required for data: 78895400
I0523 08:17:33.735103  3513 layer_factory.hpp:77] Creating layer relu6
I0523 08:17:33.735116  3513 net.cpp:106] Creating Layer relu6
I0523 08:17:33.735124  3513 net.cpp:454] relu6 <- ip2
I0523 08:17:33.735136  3513 net.cpp:397] relu6 -> ip2 (in-place)
I0523 08:17:33.735661  3513 net.cpp:150] Setting up relu6
I0523 08:17:33.735678  3513 net.cpp:157] Top shape: 50 98 (4900)
I0523 08:17:33.735688  3513 net.cpp:165] Memory required for data: 78915000
I0523 08:17:33.735699  3513 layer_factory.hpp:77] Creating layer drop2
I0523 08:17:33.735713  3513 net.cpp:106] Creating Layer drop2
I0523 08:17:33.735721  3513 net.cpp:454] drop2 <- ip2
I0523 08:17:33.735734  3513 net.cpp:397] drop2 -> ip2 (in-place)
I0523 08:17:33.735775  3513 net.cpp:150] Setting up drop2
I0523 08:17:33.735790  3513 net.cpp:157] Top shape: 50 98 (4900)
I0523 08:17:33.735800  3513 net.cpp:165] Memory required for data: 78934600
I0523 08:17:33.735810  3513 layer_factory.hpp:77] Creating layer ip3
I0523 08:17:33.735831  3513 net.cpp:106] Creating Layer ip3
I0523 08:17:33.735841  3513 net.cpp:454] ip3 <- ip2
I0523 08:17:33.735854  3513 net.cpp:411] ip3 -> ip3
I0523 08:17:33.736063  3513 net.cpp:150] Setting up ip3
I0523 08:17:33.736078  3513 net.cpp:157] Top shape: 50 11 (550)
I0523 08:17:33.736088  3513 net.cpp:165] Memory required for data: 78936800
I0523 08:17:33.736102  3513 layer_factory.hpp:77] Creating layer drop3
I0523 08:17:33.736115  3513 net.cpp:106] Creating Layer drop3
I0523 08:17:33.736124  3513 net.cpp:454] drop3 <- ip3
I0523 08:17:33.736136  3513 net.cpp:397] drop3 -> ip3 (in-place)
I0523 08:17:33.736176  3513 net.cpp:150] Setting up drop3
I0523 08:17:33.736188  3513 net.cpp:157] Top shape: 50 11 (550)
I0523 08:17:33.736197  3513 net.cpp:165] Memory required for data: 78939000
I0523 08:17:33.736207  3513 layer_factory.hpp:77] Creating layer loss
I0523 08:17:33.736227  3513 net.cpp:106] Creating Layer loss
I0523 08:17:33.736238  3513 net.cpp:454] loss <- ip3
I0523 08:17:33.736248  3513 net.cpp:454] loss <- label
I0523 08:17:33.736259  3513 net.cpp:411] loss -> loss
I0523 08:17:33.736276  3513 layer_factory.hpp:77] Creating layer loss
…
I0523 08:17:33.738960  3513 solver.cpp:181] Creating test net (#0) specified by net file: /lustre/atlas/proj-shared/hep105/caffe_titan/caffe_workflow/logs_bslr/bs_50_lr_0.0040_2016-05-20T15.49.07.678338.prototxt
I0523 08:17:33.739030  3513 net.cpp:322] The NetState phase (1) differed from the phase (0) specified by a rule in layer data_hdf5
I0523 08:17:33.739387  3513 net.cpp:49] Initializing net from parameters: 
name: "caffe_test_127x50_x_unshifted"
state {
  phase: TEST
}
layer {
  name: "data_hdf5"
  type: "HDF5Data"
  top: "data"
  top: "label"
  include {
    phase: TEST
  }
  hdf5_data_param {
    source: "/lustre/atlas/proj-shared/hep105/caffe_titan/minosmatch_nukecczdefs_127x50_x_unshifted_me1Bmc.testlist"
    batch_size: 50
  }
}
layer {
  name: "conv1"
  type: "Convolution"
  bottom: "data"
  top: "conv1"
  convolution_param {
    num_output: 12
    pad: 0
    stride: 1
    weight_filler {
      type: "xavier"
    }
    bias_filler {
      type: "constant"
    }
    kernel_h: 8
    kernel_w: 3
  }
}
layer {
  name: "relu1"
  type: "ReLU"
  bottom: "conv1"
  top: "conv1"
}
layer {
  name: "pool1"
  type: "Pooling"
  bottom: "conv1"
  top: "pool1"
  pooling_param {
    pool: MAX
    kernel_h: 2
    kernel_w: 1
    stride_h: 2
    stride_w: 1
  }
}
layer {
  name: "conv2"
  type: "Convolution"
  bottom: "pool1"
  top: "conv2"
  convolution_param {
    num_output: 20
    pad: 0
    stride: 1
    weight_filler {
      type: "xavier"
    }
    bias_filler {
      type: "constant"
    }
    kernel_h: 7
    kernel_w: 3
  }
}
layer {
  name: "relu2"
  type: "ReLU"
  bottom: "conv2"
  top: "conv2"
}
layer {
  name: "pool2"
  type: "Pooling"
  bottom: "conv2"
  top: "pool2"
  pooling_param {
    pool: MAX
    kernel_h: 2
    kernel_w: 1
    stride_h: 2
    stride_w: 1
  }
}
layer {
  name: "conv3"
  type: "Convolution"
  bottom: "pool2"
  top: "conv3"
  convolution_param {
    num_output: 28
    pad: 0
    stride: 1
    weight_filler {
      type: "xavier"
    }
    bias_filler {
      type: "constant"
    }
    kernel_h: 6
    kernel_w: 3
  }
}
layer {
  name: "relu3"
  type: "ReLU"
  bottom: "conv3"
  top: "conv3"
}
layer {
  name: "pool3"
  type: "Pooling"
  bottom: "conv3"
  top: "pool3"
  pooling_param {
    pool: MAX
    kernel_h: 2
    kernel_w: 1
    stride_h: 2
    stride_w: 1
  }
}
layer {
  name: "conv4"
  type: "Convolution"
  bottom: "pool3"
  top: "conv4"
  convolution_param {
    num_output: 36
    pad: 0
    stride: 1
    weight_filler {
      type: "xavier"
    }
    bias_filler {
      type: "constant"
    }
    kernel_h: 6
    kernel_w: 3
  }
}
layer {
  name: "relu4"
  type: "ReLU"
  bottom: "conv4"
  top: "conv4"
}
layer {
  name: "pool4"
  type: "Pooling"
  bottom: "conv4"
  top: "pool4"
  pooling_param {
    pool: MAX
    kernel_h: 2
    kernel_w: 1
    stride_h: 2
    stride_w: 1
  }
}
layer {
  name: "ip1"
  type: "InnerProduct"
  bottom: "pool4"
  top: "ip1"
  inner_product_param {
    num_output: 196
    weight_filler {
      type: "xavier"
    }
    bias_filler {
      type: "constant"
    }
  }
}
layer {
  name: "relu5"
  type: "ReLU"
  bottom: "ip1"
  top: "ip1"
}
layer {
  name: "drop1"
  type: "Dropout"
  bottom: "ip1"
  top: "ip1"
  dropout_param {
    dropout_ratio: 0.5
  }
}
layer {
  name: "ip2"
  type: "InnerProduct"
  bottom: "ip1"
  top: "ip2"
  inner_product_param {
    num_output: 98
    weight_filler {
      type: "xavier"
    }
    bias_filler {
      type: "constant"
    }
  }
}
layer {
  name: "relu6"
  type: "ReLU"
  bottom: "ip2"
  top: "ip2"
}
layer {
  name: "drop2"
  type: "Dropout"
  bottom: "ip2"
  top: "ip2"
  dropout_param {
    dropout_ratio: 0.5
  }
}
layer {
  name: "ip3"
  type: "InnerProduct"
  bottom: "ip2"
  top: "ip3"
  inner_product_param {
    num_output: 11
    weight_filler {
      type: "xavier"
    }
    bias_filler {
      type: "constant"
    }
  }
}
layer {
  name: "drop3"
  type: "Dropout"
  bottom: "ip3"
  top: "ip3"
  dropout_param {
    dropout_ratio: 0.5
  }
}
layer {
  name: "accuracy"
  type: "Accuracy"
  bottom: "ip3"
  bottom: "label"
  top: "accuracy"
  include {
    phase: TEST
  }
}
layer {
  name: "loss"
  type: "SoftmaxWithLoss"
  bottom: "ip3"
  bottom: "label"
  top: "loss"
}
I0523 08:17:33.739576  3513 layer_factory.hpp:77] Creating layer data_hdf5
I0523 08:17:33.739591  3513 net.cpp:106] Creating Layer data_hdf5
I0523 08:17:33.739603  3513 net.cpp:411] data_hdf5 -> data
I0523 08:17:33.739619  3513 net.cpp:411] data_hdf5 -> label
I0523 08:17:33.739635  3513 hdf5_data_layer.cpp:79] Loading list of HDF5 filenames from: /lustre/atlas/proj-shared/hep105/caffe_titan/minosmatch_nukecczdefs_127x50_x_unshifted_me1Bmc.testlist
I0523 08:17:33.740872  3513 hdf5_data_layer.cpp:93] Number of HDF5 files: 3
I0523 08:17:55.105692  3513 net.cpp:150] Setting up data_hdf5
I0523 08:17:55.105859  3513 net.cpp:157] Top shape: 50 1 127 50 (317500)
I0523 08:17:55.105873  3513 net.cpp:157] Top shape: 50 (50)
I0523 08:17:55.105885  3513 net.cpp:165] Memory required for data: 1270200
I0523 08:17:55.105897  3513 layer_factory.hpp:77] Creating layer label_data_hdf5_1_split
I0523 08:17:55.105926  3513 net.cpp:106] Creating Layer label_data_hdf5_1_split
I0523 08:17:55.105937  3513 net.cpp:454] label_data_hdf5_1_split <- label
I0523 08:17:55.105952  3513 net.cpp:411] label_data_hdf5_1_split -> label_data_hdf5_1_split_0
I0523 08:17:55.105973  3513 net.cpp:411] label_data_hdf5_1_split -> label_data_hdf5_1_split_1
I0523 08:17:55.106045  3513 net.cpp:150] Setting up label_data_hdf5_1_split
I0523 08:17:55.106058  3513 net.cpp:157] Top shape: 50 (50)
I0523 08:17:55.106070  3513 net.cpp:157] Top shape: 50 (50)
I0523 08:17:55.106079  3513 net.cpp:165] Memory required for data: 1270600
I0523 08:17:55.106089  3513 layer_factory.hpp:77] Creating layer conv1
I0523 08:17:55.106112  3513 net.cpp:106] Creating Layer conv1
I0523 08:17:55.106122  3513 net.cpp:454] conv1 <- data
I0523 08:17:55.106133  3513 net.cpp:411] conv1 -> conv1
I0523 08:17:55.108089  3513 net.cpp:150] Setting up conv1
I0523 08:17:55.108114  3513 net.cpp:157] Top shape: 50 12 120 48 (3456000)
I0523 08:17:55.108125  3513 net.cpp:165] Memory required for data: 15094600
I0523 08:17:55.108145  3513 layer_factory.hpp:77] Creating layer relu1
I0523 08:17:55.108160  3513 net.cpp:106] Creating Layer relu1
I0523 08:17:55.108170  3513 net.cpp:454] relu1 <- conv1
I0523 08:17:55.108183  3513 net.cpp:397] relu1 -> conv1 (in-place)
I0523 08:17:55.108685  3513 net.cpp:150] Setting up relu1
I0523 08:17:55.108701  3513 net.cpp:157] Top shape: 50 12 120 48 (3456000)
I0523 08:17:55.108711  3513 net.cpp:165] Memory required for data: 28918600
I0523 08:17:55.108721  3513 layer_factory.hpp:77] Creating layer pool1
I0523 08:17:55.108737  3513 net.cpp:106] Creating Layer pool1
I0523 08:17:55.108747  3513 net.cpp:454] pool1 <- conv1
I0523 08:17:55.108760  3513 net.cpp:411] pool1 -> pool1
I0523 08:17:55.108834  3513 net.cpp:150] Setting up pool1
I0523 08:17:55.108847  3513 net.cpp:157] Top shape: 50 12 60 48 (1728000)
I0523 08:17:55.108857  3513 net.cpp:165] Memory required for data: 35830600
I0523 08:17:55.108867  3513 layer_factory.hpp:77] Creating layer conv2
I0523 08:17:55.108886  3513 net.cpp:106] Creating Layer conv2
I0523 08:17:55.108896  3513 net.cpp:454] conv2 <- pool1
I0523 08:17:55.108908  3513 net.cpp:411] conv2 -> conv2
I0523 08:17:55.110827  3513 net.cpp:150] Setting up conv2
I0523 08:17:55.110851  3513 net.cpp:157] Top shape: 50 20 54 46 (2484000)
I0523 08:17:55.110863  3513 net.cpp:165] Memory required for data: 45766600
I0523 08:17:55.110882  3513 layer_factory.hpp:77] Creating layer relu2
I0523 08:17:55.110894  3513 net.cpp:106] Creating Layer relu2
I0523 08:17:55.110904  3513 net.cpp:454] relu2 <- conv2
I0523 08:17:55.110916  3513 net.cpp:397] relu2 -> conv2 (in-place)
I0523 08:17:55.111248  3513 net.cpp:150] Setting up relu2
I0523 08:17:55.111263  3513 net.cpp:157] Top shape: 50 20 54 46 (2484000)
I0523 08:17:55.111273  3513 net.cpp:165] Memory required for data: 55702600
I0523 08:17:55.111282  3513 layer_factory.hpp:77] Creating layer pool2
I0523 08:17:55.111295  3513 net.cpp:106] Creating Layer pool2
I0523 08:17:55.111305  3513 net.cpp:454] pool2 <- conv2
I0523 08:17:55.111318  3513 net.cpp:411] pool2 -> pool2
I0523 08:17:55.111390  3513 net.cpp:150] Setting up pool2
I0523 08:17:55.111403  3513 net.cpp:157] Top shape: 50 20 27 46 (1242000)
I0523 08:17:55.111413  3513 net.cpp:165] Memory required for data: 60670600
I0523 08:17:55.111423  3513 layer_factory.hpp:77] Creating layer conv3
I0523 08:17:55.111440  3513 net.cpp:106] Creating Layer conv3
I0523 08:17:55.111450  3513 net.cpp:454] conv3 <- pool2
I0523 08:17:55.111464  3513 net.cpp:411] conv3 -> conv3
I0523 08:17:55.113445  3513 net.cpp:150] Setting up conv3
I0523 08:17:55.113468  3513 net.cpp:157] Top shape: 50 28 22 44 (1355200)
I0523 08:17:55.113478  3513 net.cpp:165] Memory required for data: 66091400
I0523 08:17:55.113509  3513 layer_factory.hpp:77] Creating layer relu3
I0523 08:17:55.113523  3513 net.cpp:106] Creating Layer relu3
I0523 08:17:55.113533  3513 net.cpp:454] relu3 <- conv3
I0523 08:17:55.113546  3513 net.cpp:397] relu3 -> conv3 (in-place)
I0523 08:17:55.114017  3513 net.cpp:150] Setting up relu3
I0523 08:17:55.114032  3513 net.cpp:157] Top shape: 50 28 22 44 (1355200)
I0523 08:17:55.114042  3513 net.cpp:165] Memory required for data: 71512200
I0523 08:17:55.114053  3513 layer_factory.hpp:77] Creating layer pool3
I0523 08:17:55.114065  3513 net.cpp:106] Creating Layer pool3
I0523 08:17:55.114074  3513 net.cpp:454] pool3 <- conv3
I0523 08:17:55.114089  3513 net.cpp:411] pool3 -> pool3
I0523 08:17:55.114159  3513 net.cpp:150] Setting up pool3
I0523 08:17:55.114172  3513 net.cpp:157] Top shape: 50 28 11 44 (677600)
I0523 08:17:55.114182  3513 net.cpp:165] Memory required for data: 74222600
I0523 08:17:55.114192  3513 layer_factory.hpp:77] Creating layer conv4
I0523 08:17:55.114207  3513 net.cpp:106] Creating Layer conv4
I0523 08:17:55.114218  3513 net.cpp:454] conv4 <- pool3
I0523 08:17:55.114233  3513 net.cpp:411] conv4 -> conv4
I0523 08:17:55.116297  3513 net.cpp:150] Setting up conv4
I0523 08:17:55.116313  3513 net.cpp:157] Top shape: 50 36 6 42 (453600)
I0523 08:17:55.116328  3513 net.cpp:165] Memory required for data: 76037000
I0523 08:17:55.116344  3513 layer_factory.hpp:77] Creating layer relu4
I0523 08:17:55.116358  3513 net.cpp:106] Creating Layer relu4
I0523 08:17:55.116369  3513 net.cpp:454] relu4 <- conv4
I0523 08:17:55.116381  3513 net.cpp:397] relu4 -> conv4 (in-place)
I0523 08:17:55.116852  3513 net.cpp:150] Setting up relu4
I0523 08:17:55.116869  3513 net.cpp:157] Top shape: 50 36 6 42 (453600)
I0523 08:17:55.116879  3513 net.cpp:165] Memory required for data: 77851400
I0523 08:17:55.116889  3513 layer_factory.hpp:77] Creating layer pool4
I0523 08:17:55.116902  3513 net.cpp:106] Creating Layer pool4
I0523 08:17:55.116912  3513 net.cpp:454] pool4 <- conv4
I0523 08:17:55.116925  3513 net.cpp:411] pool4 -> pool4
I0523 08:17:55.116997  3513 net.cpp:150] Setting up pool4
I0523 08:17:55.117010  3513 net.cpp:157] Top shape: 50 36 3 42 (226800)
I0523 08:17:55.117019  3513 net.cpp:165] Memory required for data: 78758600
I0523 08:17:55.117029  3513 layer_factory.hpp:77] Creating layer ip1
I0523 08:17:55.117043  3513 net.cpp:106] Creating Layer ip1
I0523 08:17:55.117053  3513 net.cpp:454] ip1 <- pool4
I0523 08:17:55.117066  3513 net.cpp:411] ip1 -> ip1
I0523 08:17:55.132519  3513 net.cpp:150] Setting up ip1
I0523 08:17:55.132542  3513 net.cpp:157] Top shape: 50 196 (9800)
I0523 08:17:55.132557  3513 net.cpp:165] Memory required for data: 78797800
I0523 08:17:55.132581  3513 layer_factory.hpp:77] Creating layer relu5
I0523 08:17:55.132596  3513 net.cpp:106] Creating Layer relu5
I0523 08:17:55.132607  3513 net.cpp:454] relu5 <- ip1
I0523 08:17:55.132621  3513 net.cpp:397] relu5 -> ip1 (in-place)
I0523 08:17:55.132968  3513 net.cpp:150] Setting up relu5
I0523 08:17:55.132982  3513 net.cpp:157] Top shape: 50 196 (9800)
I0523 08:17:55.132992  3513 net.cpp:165] Memory required for data: 78837000
I0523 08:17:55.133002  3513 layer_factory.hpp:77] Creating layer drop1
I0523 08:17:55.133021  3513 net.cpp:106] Creating Layer drop1
I0523 08:17:55.133031  3513 net.cpp:454] drop1 <- ip1
I0523 08:17:55.133044  3513 net.cpp:397] drop1 -> ip1 (in-place)
I0523 08:17:55.133090  3513 net.cpp:150] Setting up drop1
I0523 08:17:55.133102  3513 net.cpp:157] Top shape: 50 196 (9800)
I0523 08:17:55.133112  3513 net.cpp:165] Memory required for data: 78876200
I0523 08:17:55.133121  3513 layer_factory.hpp:77] Creating layer ip2
I0523 08:17:55.133136  3513 net.cpp:106] Creating Layer ip2
I0523 08:17:55.133147  3513 net.cpp:454] ip2 <- ip1
I0523 08:17:55.133159  3513 net.cpp:411] ip2 -> ip2
I0523 08:17:55.133636  3513 net.cpp:150] Setting up ip2
I0523 08:17:55.133651  3513 net.cpp:157] Top shape: 50 98 (4900)
I0523 08:17:55.133659  3513 net.cpp:165] Memory required for data: 78895800
I0523 08:17:55.133676  3513 layer_factory.hpp:77] Creating layer relu6
I0523 08:17:55.133700  3513 net.cpp:106] Creating Layer relu6
I0523 08:17:55.133710  3513 net.cpp:454] relu6 <- ip2
I0523 08:17:55.133724  3513 net.cpp:397] relu6 -> ip2 (in-place)
I0523 08:17:55.134260  3513 net.cpp:150] Setting up relu6
I0523 08:17:55.134284  3513 net.cpp:157] Top shape: 50 98 (4900)
I0523 08:17:55.134294  3513 net.cpp:165] Memory required for data: 78915400
I0523 08:17:55.134304  3513 layer_factory.hpp:77] Creating layer drop2
I0523 08:17:55.134316  3513 net.cpp:106] Creating Layer drop2
I0523 08:17:55.134326  3513 net.cpp:454] drop2 <- ip2
I0523 08:17:55.134340  3513 net.cpp:397] drop2 -> ip2 (in-place)
I0523 08:17:55.134383  3513 net.cpp:150] Setting up drop2
I0523 08:17:55.134397  3513 net.cpp:157] Top shape: 50 98 (4900)
I0523 08:17:55.134407  3513 net.cpp:165] Memory required for data: 78935000
I0523 08:17:55.134415  3513 layer_factory.hpp:77] Creating layer ip3
I0523 08:17:55.134430  3513 net.cpp:106] Creating Layer ip3
I0523 08:17:55.134440  3513 net.cpp:454] ip3 <- ip2
I0523 08:17:55.134454  3513 net.cpp:411] ip3 -> ip3
I0523 08:17:55.134673  3513 net.cpp:150] Setting up ip3
I0523 08:17:55.134687  3513 net.cpp:157] Top shape: 50 11 (550)
I0523 08:17:55.134697  3513 net.cpp:165] Memory required for data: 78937200
I0523 08:17:55.134712  3513 layer_factory.hpp:77] Creating layer drop3
I0523 08:17:55.134726  3513 net.cpp:106] Creating Layer drop3
I0523 08:17:55.134734  3513 net.cpp:454] drop3 <- ip3
I0523 08:17:55.134747  3513 net.cpp:397] drop3 -> ip3 (in-place)
I0523 08:17:55.134788  3513 net.cpp:150] Setting up drop3
I0523 08:17:55.134801  3513 net.cpp:157] Top shape: 50 11 (550)
I0523 08:17:55.134811  3513 net.cpp:165] Memory required for data: 78939400
I0523 08:17:55.134820  3513 layer_factory.hpp:77] Creating layer ip3_drop3_0_split
I0523 08:17:55.134834  3513 net.cpp:106] Creating Layer ip3_drop3_0_split
I0523 08:17:55.134843  3513 net.cpp:454] ip3_drop3_0_split <- ip3
I0523 08:17:55.134856  3513 net.cpp:411] ip3_drop3_0_split -> ip3_drop3_0_split_0
I0523 08:17:55.134871  3513 net.cpp:411] ip3_drop3_0_split -> ip3_drop3_0_split_1
I0523 08:17:55.134943  3513 net.cpp:150] Setting up ip3_drop3_0_split
I0523 08:17:55.134956  3513 net.cpp:157] Top shape: 50 11 (550)
I0523 08:17:55.134968  3513 net.cpp:157] Top shape: 50 11 (550)
I0523 08:17:55.134979  3513 net.cpp:165] Memory required for data: 78943800
I0523 08:17:55.134989  3513 layer_factory.hpp:77] Creating layer accuracy
I0523 08:17:55.135010  3513 net.cpp:106] Creating Layer accuracy
I0523 08:17:55.135020  3513 net.cpp:454] accuracy <- ip3_drop3_0_split_0
I0523 08:17:55.135031  3513 net.cpp:454] accuracy <- label_data_hdf5_1_split_0
I0523 08:17:55.135045  3513 net.cpp:411] accuracy -> accuracy
…
