…
I0523 03:53:58.650722 30336 net.cpp:322] The NetState phase (0) differed from the phase (1) specified by a rule in layer data_hdf5
I0523 03:53:58.650781 30336 net.cpp:322] The NetState phase (0) differed from the phase (1) specified by a rule in layer accuracy
I0523 03:53:58.651125 30336 net.cpp:49] Initializing net from parameters: 
name: "caffe_test_127x50_x_unshifted"
state {
  phase: TRAIN
}
layer {
  name: "data_hdf5"
  type: "HDF5Data"
  top: "data"
  top: "label"
  include {
    phase: TRAIN
  }
  hdf5_data_param {
    source: "/lustre/atlas/proj-shared/hep105/caffe_titan/minosmatch_nukecczdefs_127x50_x_unshifted_me1Bmc.trainlist"
    batch_size: 50
  }
}
layer {
  name: "conv1"
  type: "Convolution"
  bottom: "data"
  top: "conv1"
  convolution_param {
    num_output: 12
    pad: 0
    stride: 1
    weight_filler {
      type: "xavier"
    }
    bias_filler {
      type: "constant"
    }
    kernel_h: 8
    kernel_w: 3
  }
}
layer {
  name: "relu1"
  type: "ReLU"
  bottom: "conv1"
  top: "conv1"
}
layer {
  name: "pool1"
  type: "Pooling"
  bottom: "conv1"
  top: "pool1"
  pooling_param {
    pool: MAX
    kernel_h: 2
    kernel_w: 1
    stride_h: 2
    stride_w: 1
  }
}
layer {
  name: "conv2"
  type: "Convolution"
  bottom: "pool1"
  top: "conv2"
  convolution_param {
    num_output: 20
    pad: 0
    stride: 1
    weight_filler {
      type: "xavier"
    }
    bias_filler {
      type: "constant"
    }
    kernel_h: 7
    kernel_w: 3
  }
}
layer {
  name: "relu2"
  type: "ReLU"
  bottom: "conv2"
  top: "conv2"
}
layer {
  name: "pool2"
  type: "Pooling"
  bottom: "conv2"
  top: "pool2"
  pooling_param {
    pool: MAX
    kernel_h: 2
    kernel_w: 1
    stride_h: 2
    stride_w: 1
  }
}
layer {
  name: "conv3"
  type: "Convolution"
  bottom: "pool2"
  top: "conv3"
  convolution_param {
    num_output: 28
    pad: 0
    stride: 1
    weight_filler {
      type: "xavier"
    }
    bias_filler {
      type: "constant"
    }
    kernel_h: 6
    kernel_w: 3
  }
}
layer {
  name: "relu3"
  type: "ReLU"
  bottom: "conv3"
  top: "conv3"
}
layer {
  name: "pool3"
  type: "Pooling"
  bottom: "conv3"
  top: "pool3"
  pooling_param {
    pool: MAX
    kernel_h: 2
    kernel_w: 1
    stride_h: 2
    stride_w: 1
  }
}
layer {
  name: "conv4"
  type: "Convolution"
  bottom: "pool3"
  top: "conv4"
  convolution_param {
    num_output: 36
    pad: 0
    stride: 1
    weight_filler {
      type: "xavier"
    }
    bias_filler {
      type: "constant"
    }
    kernel_h: 6
    kernel_w: 3
  }
}
layer {
  name: "relu4"
  type: "ReLU"
  bottom: "conv4"
  top: "conv4"
}
layer {
  name: "pool4"
  type: "Pooling"
  bottom: "conv4"
  top: "pool4"
  pooling_param {
    pool: MAX
    kernel_h: 2
    kernel_w: 1
    stride_h: 2
    stride_w: 1
  }
}
layer {
  name: "ip1"
  type: "InnerProduct"
  bottom: "pool4"
  top: "ip1"
  inner_product_param {
    num_output: 196
    weight_filler {
      type: "xavier"
    }
    bias_filler {
      type: "constant"
    }
  }
}
layer {
  name: "relu5"
  type: "ReLU"
  bottom: "ip1"
  top: "ip1"
}
layer {
  name: "drop1"
  type: "Dropout"
  bottom: "ip1"
  top: "ip1"
  dropout_param {
    dropout_ratio: 0.5
  }
}
layer {
  name: "ip2"
  type: "InnerProduct"
  bottom: "ip1"
  top: "ip2"
  inner_product_param {
    num_output: 98
    weight_filler {
      type: "xavier"
    }
    bias_filler {
      type: "constant"
    }
  }
}
layer {
  name: "relu6"
  type: "ReLU"
  bottom: "ip2"
  top: "ip2"
}
layer {
  name: "drop2"
  type: "Dropout"
  bottom: "ip2"
  top: "ip2"
  dropout_param {
    dropout_ratio: 0.5
  }
}
layer {
  name: "ip3"
  type: "InnerProduct"
  bottom: "ip2"
  top: "ip3"
  inner_product_param {
    num_output: 11
    weight_filler {
      type: "xavier"
    }
    bias_filler {
      type: "constant"
    }
  }
}
layer {
  name: "drop3"
  type: "Dropout"
  bottom: "ip3"
  top: "ip3"
  dropout_param {
    dropout_ratio: 0.5
  }
}
layer {
  name: "loss"
  type: "SoftmaxWithLoss"
  bottom: "ip3"
  bottom: "label"
  top: "loss"
}
I0523 03:53:58.651306 30336 layer_factory.hpp:77] Creating layer data_hdf5
I0523 03:53:58.651329 30336 net.cpp:106] Creating Layer data_hdf5
I0523 03:53:58.651345 30336 net.cpp:411] data_hdf5 -> data
I0523 03:53:58.651377 30336 net.cpp:411] data_hdf5 -> label
I0523 03:53:58.651410 30336 hdf5_data_layer.cpp:79] Loading list of HDF5 filenames from: /lustre/atlas/proj-shared/hep105/caffe_titan/minosmatch_nukecczdefs_127x50_x_unshifted_me1Bmc.trainlist
I0523 03:53:58.663077 30336 hdf5_data_layer.cpp:93] Number of HDF5 files: 15
I0523 03:53:58.673249 30336 hdf5.cpp:32] Datatype class: H5T_FLOAT
I0523 03:54:20.222254 30336 hdf5.cpp:35] Datatype class: H5T_INTEGER
I0523 03:54:20.227458 30336 net.cpp:150] Setting up data_hdf5
I0523 03:54:20.227501 30336 net.cpp:157] Top shape: 50 1 127 50 (317500)
I0523 03:54:20.227516 30336 net.cpp:157] Top shape: 50 (50)
I0523 03:54:20.227527 30336 net.cpp:165] Memory required for data: 1270200
I0523 03:54:20.227540 30336 layer_factory.hpp:77] Creating layer conv1
I0523 03:54:20.227576 30336 net.cpp:106] Creating Layer conv1
I0523 03:54:20.227586 30336 net.cpp:454] conv1 <- data
I0523 03:54:20.227608 30336 net.cpp:411] conv1 -> conv1
I0523 03:54:23.097808 30336 net.cpp:150] Setting up conv1
I0523 03:54:23.097854 30336 net.cpp:157] Top shape: 50 12 120 48 (3456000)
I0523 03:54:23.097867 30336 net.cpp:165] Memory required for data: 15094200
I0523 03:54:23.097898 30336 layer_factory.hpp:77] Creating layer relu1
I0523 03:54:23.097918 30336 net.cpp:106] Creating Layer relu1
I0523 03:54:23.097929 30336 net.cpp:454] relu1 <- conv1
I0523 03:54:23.097942 30336 net.cpp:397] relu1 -> conv1 (in-place)
I0523 03:54:23.098456 30336 net.cpp:150] Setting up relu1
I0523 03:54:23.098474 30336 net.cpp:157] Top shape: 50 12 120 48 (3456000)
I0523 03:54:23.098484 30336 net.cpp:165] Memory required for data: 28918200
I0523 03:54:23.098494 30336 layer_factory.hpp:77] Creating layer pool1
I0523 03:54:23.098510 30336 net.cpp:106] Creating Layer pool1
I0523 03:54:23.098520 30336 net.cpp:454] pool1 <- conv1
I0523 03:54:23.098532 30336 net.cpp:411] pool1 -> pool1
I0523 03:54:23.098613 30336 net.cpp:150] Setting up pool1
I0523 03:54:23.098626 30336 net.cpp:157] Top shape: 50 12 60 48 (1728000)
I0523 03:54:23.098636 30336 net.cpp:165] Memory required for data: 35830200
I0523 03:54:23.098647 30336 layer_factory.hpp:77] Creating layer conv2
I0523 03:54:23.098670 30336 net.cpp:106] Creating Layer conv2
I0523 03:54:23.098680 30336 net.cpp:454] conv2 <- pool1
I0523 03:54:23.098693 30336 net.cpp:411] conv2 -> conv2
I0523 03:54:23.101361 30336 net.cpp:150] Setting up conv2
I0523 03:54:23.101388 30336 net.cpp:157] Top shape: 50 20 54 46 (2484000)
I0523 03:54:23.101399 30336 net.cpp:165] Memory required for data: 45766200
I0523 03:54:23.101418 30336 layer_factory.hpp:77] Creating layer relu2
I0523 03:54:23.101433 30336 net.cpp:106] Creating Layer relu2
I0523 03:54:23.101444 30336 net.cpp:454] relu2 <- conv2
I0523 03:54:23.101455 30336 net.cpp:397] relu2 -> conv2 (in-place)
I0523 03:54:23.101783 30336 net.cpp:150] Setting up relu2
I0523 03:54:23.101799 30336 net.cpp:157] Top shape: 50 20 54 46 (2484000)
I0523 03:54:23.101809 30336 net.cpp:165] Memory required for data: 55702200
I0523 03:54:23.101819 30336 layer_factory.hpp:77] Creating layer pool2
I0523 03:54:23.101831 30336 net.cpp:106] Creating Layer pool2
I0523 03:54:23.101841 30336 net.cpp:454] pool2 <- conv2
I0523 03:54:23.101853 30336 net.cpp:411] pool2 -> pool2
I0523 03:54:23.101933 30336 net.cpp:150] Setting up pool2
I0523 03:54:23.101948 30336 net.cpp:157] Top shape: 50 20 27 46 (1242000)
I0523 03:54:23.101958 30336 net.cpp:165] Memory required for data: 60670200
I0523 03:54:23.101966 30336 layer_factory.hpp:77] Creating layer conv3
I0523 03:54:23.101982 30336 net.cpp:106] Creating Layer conv3
I0523 03:54:23.101992 30336 net.cpp:454] conv3 <- pool2
I0523 03:54:23.102006 30336 net.cpp:411] conv3 -> conv3
I0523 03:54:23.103930 30336 net.cpp:150] Setting up conv3
I0523 03:54:23.103955 30336 net.cpp:157] Top shape: 50 28 22 44 (1355200)
I0523 03:54:23.103965 30336 net.cpp:165] Memory required for data: 66091000
I0523 03:54:23.103996 30336 layer_factory.hpp:77] Creating layer relu3
I0523 03:54:23.104012 30336 net.cpp:106] Creating Layer relu3
I0523 03:54:23.104022 30336 net.cpp:454] relu3 <- conv3
I0523 03:54:23.104033 30336 net.cpp:397] relu3 -> conv3 (in-place)
I0523 03:54:23.104501 30336 net.cpp:150] Setting up relu3
I0523 03:54:23.104518 30336 net.cpp:157] Top shape: 50 28 22 44 (1355200)
I0523 03:54:23.104528 30336 net.cpp:165] Memory required for data: 71511800
I0523 03:54:23.104538 30336 layer_factory.hpp:77] Creating layer pool3
I0523 03:54:23.104552 30336 net.cpp:106] Creating Layer pool3
I0523 03:54:23.104562 30336 net.cpp:454] pool3 <- conv3
I0523 03:54:23.104574 30336 net.cpp:411] pool3 -> pool3
I0523 03:54:23.104641 30336 net.cpp:150] Setting up pool3
I0523 03:54:23.104655 30336 net.cpp:157] Top shape: 50 28 11 44 (677600)
I0523 03:54:23.104665 30336 net.cpp:165] Memory required for data: 74222200
I0523 03:54:23.104674 30336 layer_factory.hpp:77] Creating layer conv4
I0523 03:54:23.104694 30336 net.cpp:106] Creating Layer conv4
I0523 03:54:23.104704 30336 net.cpp:454] conv4 <- pool3
I0523 03:54:23.104718 30336 net.cpp:411] conv4 -> conv4
I0523 03:54:23.107472 30336 net.cpp:150] Setting up conv4
I0523 03:54:23.107501 30336 net.cpp:157] Top shape: 50 36 6 42 (453600)
I0523 03:54:23.107511 30336 net.cpp:165] Memory required for data: 76036600
I0523 03:54:23.107527 30336 layer_factory.hpp:77] Creating layer relu4
I0523 03:54:23.107542 30336 net.cpp:106] Creating Layer relu4
I0523 03:54:23.107552 30336 net.cpp:454] relu4 <- conv4
I0523 03:54:23.107564 30336 net.cpp:397] relu4 -> conv4 (in-place)
I0523 03:54:23.108053 30336 net.cpp:150] Setting up relu4
I0523 03:54:23.108070 30336 net.cpp:157] Top shape: 50 36 6 42 (453600)
I0523 03:54:23.108081 30336 net.cpp:165] Memory required for data: 77851000
I0523 03:54:23.108093 30336 layer_factory.hpp:77] Creating layer pool4
I0523 03:54:23.108105 30336 net.cpp:106] Creating Layer pool4
I0523 03:54:23.108115 30336 net.cpp:454] pool4 <- conv4
I0523 03:54:23.108129 30336 net.cpp:411] pool4 -> pool4
I0523 03:54:23.108196 30336 net.cpp:150] Setting up pool4
I0523 03:54:23.108211 30336 net.cpp:157] Top shape: 50 36 3 42 (226800)
I0523 03:54:23.108222 30336 net.cpp:165] Memory required for data: 78758200
I0523 03:54:23.108232 30336 layer_factory.hpp:77] Creating layer ip1
I0523 03:54:23.108252 30336 net.cpp:106] Creating Layer ip1
I0523 03:54:23.108263 30336 net.cpp:454] ip1 <- pool4
I0523 03:54:23.108276 30336 net.cpp:411] ip1 -> ip1
I0523 03:54:23.123690 30336 net.cpp:150] Setting up ip1
I0523 03:54:23.123719 30336 net.cpp:157] Top shape: 50 196 (9800)
I0523 03:54:23.123731 30336 net.cpp:165] Memory required for data: 78797400
I0523 03:54:23.123754 30336 layer_factory.hpp:77] Creating layer relu5
I0523 03:54:23.123769 30336 net.cpp:106] Creating Layer relu5
I0523 03:54:23.123780 30336 net.cpp:454] relu5 <- ip1
I0523 03:54:23.123793 30336 net.cpp:397] relu5 -> ip1 (in-place)
I0523 03:54:23.124140 30336 net.cpp:150] Setting up relu5
I0523 03:54:23.124155 30336 net.cpp:157] Top shape: 50 196 (9800)
I0523 03:54:23.124166 30336 net.cpp:165] Memory required for data: 78836600
I0523 03:54:23.124176 30336 layer_factory.hpp:77] Creating layer drop1
I0523 03:54:23.124197 30336 net.cpp:106] Creating Layer drop1
I0523 03:54:23.124208 30336 net.cpp:454] drop1 <- ip1
I0523 03:54:23.124220 30336 net.cpp:397] drop1 -> ip1 (in-place)
I0523 03:54:23.124280 30336 net.cpp:150] Setting up drop1
I0523 03:54:23.124294 30336 net.cpp:157] Top shape: 50 196 (9800)
I0523 03:54:23.124305 30336 net.cpp:165] Memory required for data: 78875800
I0523 03:54:23.124315 30336 layer_factory.hpp:77] Creating layer ip2
I0523 03:54:23.124333 30336 net.cpp:106] Creating Layer ip2
I0523 03:54:23.124343 30336 net.cpp:454] ip2 <- ip1
I0523 03:54:23.124356 30336 net.cpp:411] ip2 -> ip2
I0523 03:54:23.124819 30336 net.cpp:150] Setting up ip2
I0523 03:54:23.124832 30336 net.cpp:157] Top shape: 50 98 (4900)
I0523 03:54:23.124842 30336 net.cpp:165] Memory required for data: 78895400
I0523 03:54:23.124857 30336 layer_factory.hpp:77] Creating layer relu6
I0523 03:54:23.124871 30336 net.cpp:106] Creating Layer relu6
I0523 03:54:23.124879 30336 net.cpp:454] relu6 <- ip2
I0523 03:54:23.124891 30336 net.cpp:397] relu6 -> ip2 (in-place)
I0523 03:54:23.125406 30336 net.cpp:150] Setting up relu6
I0523 03:54:23.125422 30336 net.cpp:157] Top shape: 50 98 (4900)
I0523 03:54:23.125432 30336 net.cpp:165] Memory required for data: 78915000
I0523 03:54:23.125442 30336 layer_factory.hpp:77] Creating layer drop2
I0523 03:54:23.125457 30336 net.cpp:106] Creating Layer drop2
I0523 03:54:23.125466 30336 net.cpp:454] drop2 <- ip2
I0523 03:54:23.125484 30336 net.cpp:397] drop2 -> ip2 (in-place)
I0523 03:54:23.125526 30336 net.cpp:150] Setting up drop2
I0523 03:54:23.125540 30336 net.cpp:157] Top shape: 50 98 (4900)
I0523 03:54:23.125550 30336 net.cpp:165] Memory required for data: 78934600
I0523 03:54:23.125560 30336 layer_factory.hpp:77] Creating layer ip3
I0523 03:54:23.125573 30336 net.cpp:106] Creating Layer ip3
I0523 03:54:23.125583 30336 net.cpp:454] ip3 <- ip2
I0523 03:54:23.125597 30336 net.cpp:411] ip3 -> ip3
I0523 03:54:23.125808 30336 net.cpp:150] Setting up ip3
I0523 03:54:23.125820 30336 net.cpp:157] Top shape: 50 11 (550)
I0523 03:54:23.125830 30336 net.cpp:165] Memory required for data: 78936800
I0523 03:54:23.125845 30336 layer_factory.hpp:77] Creating layer drop3
I0523 03:54:23.125859 30336 net.cpp:106] Creating Layer drop3
I0523 03:54:23.125869 30336 net.cpp:454] drop3 <- ip3
I0523 03:54:23.125881 30336 net.cpp:397] drop3 -> ip3 (in-place)
I0523 03:54:23.125921 30336 net.cpp:150] Setting up drop3
I0523 03:54:23.125934 30336 net.cpp:157] Top shape: 50 11 (550)
I0523 03:54:23.125944 30336 net.cpp:165] Memory required for data: 78939000
I0523 03:54:23.125954 30336 layer_factory.hpp:77] Creating layer loss
I0523 03:54:23.125973 30336 net.cpp:106] Creating Layer loss
I0523 03:54:23.125983 30336 net.cpp:454] loss <- ip3
I0523 03:54:23.125994 30336 net.cpp:454] loss <- label
I0523 03:54:23.126006 30336 net.cpp:411] loss -> loss
I0523 03:54:23.126024 30336 layer_factory.hpp:77] Creating layer loss
…
I0523 03:54:23.128645 30336 solver.cpp:181] Creating test net (#0) specified by net file: /lustre/atlas/proj-shared/hep105/caffe_titan/caffe_workflow/logs_bslr/bs_50_lr_0.0015_2016-05-20T15.49.05.579326.prototxt
I0523 03:54:23.128716 30336 net.cpp:322] The NetState phase (1) differed from the phase (0) specified by a rule in layer data_hdf5
I0523 03:54:23.129073 30336 net.cpp:49] Initializing net from parameters: 
name: "caffe_test_127x50_x_unshifted"
state {
  phase: TEST
}
layer {
  name: "data_hdf5"
  type: "HDF5Data"
  top: "data"
  top: "label"
  include {
    phase: TEST
  }
  hdf5_data_param {
    source: "/lustre/atlas/proj-shared/hep105/caffe_titan/minosmatch_nukecczdefs_127x50_x_unshifted_me1Bmc.testlist"
    batch_size: 50
  }
}
layer {
  name: "conv1"
  type: "Convolution"
  bottom: "data"
  top: "conv1"
  convolution_param {
    num_output: 12
    pad: 0
    stride: 1
    weight_filler {
      type: "xavier"
    }
    bias_filler {
      type: "constant"
    }
    kernel_h: 8
    kernel_w: 3
  }
}
layer {
  name: "relu1"
  type: "ReLU"
  bottom: "conv1"
  top: "conv1"
}
layer {
  name: "pool1"
  type: "Pooling"
  bottom: "conv1"
  top: "pool1"
  pooling_param {
    pool: MAX
    kernel_h: 2
    kernel_w: 1
    stride_h: 2
    stride_w: 1
  }
}
layer {
  name: "conv2"
  type: "Convolution"
  bottom: "pool1"
  top: "conv2"
  convolution_param {
    num_output: 20
    pad: 0
    stride: 1
    weight_filler {
      type: "xavier"
    }
    bias_filler {
      type: "constant"
    }
    kernel_h: 7
    kernel_w: 3
  }
}
layer {
  name: "relu2"
  type: "ReLU"
  bottom: "conv2"
  top: "conv2"
}
layer {
  name: "pool2"
  type: "Pooling"
  bottom: "conv2"
  top: "pool2"
  pooling_param {
    pool: MAX
    kernel_h: 2
    kernel_w: 1
    stride_h: 2
    stride_w: 1
  }
}
layer {
  name: "conv3"
  type: "Convolution"
  bottom: "pool2"
  top: "conv3"
  convolution_param {
    num_output: 28
    pad: 0
    stride: 1
    weight_filler {
      type: "xavier"
    }
    bias_filler {
      type: "constant"
    }
    kernel_h: 6
    kernel_w: 3
  }
}
layer {
  name: "relu3"
  type: "ReLU"
  bottom: "conv3"
  top: "conv3"
}
layer {
  name: "pool3"
  type: "Pooling"
  bottom: "conv3"
  top: "pool3"
  pooling_param {
    pool: MAX
    kernel_h: 2
    kernel_w: 1
    stride_h: 2
    stride_w: 1
  }
}
layer {
  name: "conv4"
  type: "Convolution"
  bottom: "pool3"
  top: "conv4"
  convolution_param {
    num_output: 36
    pad: 0
    stride: 1
    weight_filler {
      type: "xavier"
    }
    bias_filler {
      type: "constant"
    }
    kernel_h: 6
    kernel_w: 3
  }
}
layer {
  name: "relu4"
  type: "ReLU"
  bottom: "conv4"
  top: "conv4"
}
layer {
  name: "pool4"
  type: "Pooling"
  bottom: "conv4"
  top: "pool4"
  pooling_param {
    pool: MAX
    kernel_h: 2
    kernel_w: 1
    stride_h: 2
    stride_w: 1
  }
}
layer {
  name: "ip1"
  type: "InnerProduct"
  bottom: "pool4"
  top: "ip1"
  inner_product_param {
    num_output: 196
    weight_filler {
      type: "xavier"
    }
    bias_filler {
      type: "constant"
    }
  }
}
layer {
  name: "relu5"
  type: "ReLU"
  bottom: "ip1"
  top: "ip1"
}
layer {
  name: "drop1"
  type: "Dropout"
  bottom: "ip1"
  top: "ip1"
  dropout_param {
    dropout_ratio: 0.5
  }
}
layer {
  name: "ip2"
  type: "InnerProduct"
  bottom: "ip1"
  top: "ip2"
  inner_product_param {
    num_output: 98
    weight_filler {
      type: "xavier"
    }
    bias_filler {
      type: "constant"
    }
  }
}
layer {
  name: "relu6"
  type: "ReLU"
  bottom: "ip2"
  top: "ip2"
}
layer {
  name: "drop2"
  type: "Dropout"
  bottom: "ip2"
  top: "ip2"
  dropout_param {
    dropout_ratio: 0.5
  }
}
layer {
  name: "ip3"
  type: "InnerProduct"
  bottom: "ip2"
  top: "ip3"
  inner_product_param {
    num_output: 11
    weight_filler {
      type: "xavier"
    }
    bias_filler {
      type: "constant"
    }
  }
}
layer {
  name: "drop3"
  type: "Dropout"
  bottom: "ip3"
  top: "ip3"
  dropout_param {
    dropout_ratio: 0.5
  }
}
layer {
  name: "accuracy"
  type: "Accuracy"
  bottom: "ip3"
  bottom: "label"
  top: "accuracy"
  include {
    phase: TEST
  }
}
layer {
  name: "loss"
  type: "SoftmaxWithLoss"
  bottom: "ip3"
  bottom: "label"
  top: "loss"
}
I0523 03:54:23.129266 30336 layer_factory.hpp:77] Creating layer data_hdf5
I0523 03:54:23.129281 30336 net.cpp:106] Creating Layer data_hdf5
I0523 03:54:23.129293 30336 net.cpp:411] data_hdf5 -> data
I0523 03:54:23.129312 30336 net.cpp:411] data_hdf5 -> label
I0523 03:54:23.129326 30336 hdf5_data_layer.cpp:79] Loading list of HDF5 filenames from: /lustre/atlas/proj-shared/hep105/caffe_titan/minosmatch_nukecczdefs_127x50_x_unshifted_me1Bmc.testlist
I0523 03:54:23.142722 30336 hdf5_data_layer.cpp:93] Number of HDF5 files: 3
I0523 03:54:44.436244 30336 net.cpp:150] Setting up data_hdf5
I0523 03:54:44.436413 30336 net.cpp:157] Top shape: 50 1 127 50 (317500)
I0523 03:54:44.436427 30336 net.cpp:157] Top shape: 50 (50)
I0523 03:54:44.436439 30336 net.cpp:165] Memory required for data: 1270200
I0523 03:54:44.436453 30336 layer_factory.hpp:77] Creating layer label_data_hdf5_1_split
I0523 03:54:44.436481 30336 net.cpp:106] Creating Layer label_data_hdf5_1_split
I0523 03:54:44.436491 30336 net.cpp:454] label_data_hdf5_1_split <- label
I0523 03:54:44.436506 30336 net.cpp:411] label_data_hdf5_1_split -> label_data_hdf5_1_split_0
I0523 03:54:44.436527 30336 net.cpp:411] label_data_hdf5_1_split -> label_data_hdf5_1_split_1
I0523 03:54:44.436599 30336 net.cpp:150] Setting up label_data_hdf5_1_split
I0523 03:54:44.436614 30336 net.cpp:157] Top shape: 50 (50)
I0523 03:54:44.436625 30336 net.cpp:157] Top shape: 50 (50)
I0523 03:54:44.436635 30336 net.cpp:165] Memory required for data: 1270600
I0523 03:54:44.436645 30336 layer_factory.hpp:77] Creating layer conv1
I0523 03:54:44.436666 30336 net.cpp:106] Creating Layer conv1
I0523 03:54:44.436677 30336 net.cpp:454] conv1 <- data
I0523 03:54:44.436691 30336 net.cpp:411] conv1 -> conv1
I0523 03:54:44.438607 30336 net.cpp:150] Setting up conv1
I0523 03:54:44.438632 30336 net.cpp:157] Top shape: 50 12 120 48 (3456000)
I0523 03:54:44.438643 30336 net.cpp:165] Memory required for data: 15094600
I0523 03:54:44.438664 30336 layer_factory.hpp:77] Creating layer relu1
I0523 03:54:44.438679 30336 net.cpp:106] Creating Layer relu1
I0523 03:54:44.438689 30336 net.cpp:454] relu1 <- conv1
I0523 03:54:44.438701 30336 net.cpp:397] relu1 -> conv1 (in-place)
I0523 03:54:44.439196 30336 net.cpp:150] Setting up relu1
I0523 03:54:44.439213 30336 net.cpp:157] Top shape: 50 12 120 48 (3456000)
I0523 03:54:44.439224 30336 net.cpp:165] Memory required for data: 28918600
I0523 03:54:44.439234 30336 layer_factory.hpp:77] Creating layer pool1
I0523 03:54:44.439250 30336 net.cpp:106] Creating Layer pool1
I0523 03:54:44.439260 30336 net.cpp:454] pool1 <- conv1
I0523 03:54:44.439272 30336 net.cpp:411] pool1 -> pool1
I0523 03:54:44.439347 30336 net.cpp:150] Setting up pool1
I0523 03:54:44.439363 30336 net.cpp:157] Top shape: 50 12 60 48 (1728000)
I0523 03:54:44.439371 30336 net.cpp:165] Memory required for data: 35830600
I0523 03:54:44.439379 30336 layer_factory.hpp:77] Creating layer conv2
I0523 03:54:44.439399 30336 net.cpp:106] Creating Layer conv2
I0523 03:54:44.439409 30336 net.cpp:454] conv2 <- pool1
I0523 03:54:44.439424 30336 net.cpp:411] conv2 -> conv2
I0523 03:54:44.441340 30336 net.cpp:150] Setting up conv2
I0523 03:54:44.441364 30336 net.cpp:157] Top shape: 50 20 54 46 (2484000)
I0523 03:54:44.441376 30336 net.cpp:165] Memory required for data: 45766600
I0523 03:54:44.441393 30336 layer_factory.hpp:77] Creating layer relu2
I0523 03:54:44.441407 30336 net.cpp:106] Creating Layer relu2
I0523 03:54:44.441418 30336 net.cpp:454] relu2 <- conv2
I0523 03:54:44.441431 30336 net.cpp:397] relu2 -> conv2 (in-place)
I0523 03:54:44.441762 30336 net.cpp:150] Setting up relu2
I0523 03:54:44.441776 30336 net.cpp:157] Top shape: 50 20 54 46 (2484000)
I0523 03:54:44.441787 30336 net.cpp:165] Memory required for data: 55702600
I0523 03:54:44.441798 30336 layer_factory.hpp:77] Creating layer pool2
I0523 03:54:44.441810 30336 net.cpp:106] Creating Layer pool2
I0523 03:54:44.441820 30336 net.cpp:454] pool2 <- conv2
I0523 03:54:44.441833 30336 net.cpp:411] pool2 -> pool2
I0523 03:54:44.441905 30336 net.cpp:150] Setting up pool2
I0523 03:54:44.441918 30336 net.cpp:157] Top shape: 50 20 27 46 (1242000)
I0523 03:54:44.441929 30336 net.cpp:165] Memory required for data: 60670600
I0523 03:54:44.441939 30336 layer_factory.hpp:77] Creating layer conv3
I0523 03:54:44.441958 30336 net.cpp:106] Creating Layer conv3
I0523 03:54:44.441969 30336 net.cpp:454] conv3 <- pool2
I0523 03:54:44.441983 30336 net.cpp:411] conv3 -> conv3
I0523 03:54:44.443948 30336 net.cpp:150] Setting up conv3
I0523 03:54:44.443984 30336 net.cpp:157] Top shape: 50 28 22 44 (1355200)
I0523 03:54:44.443995 30336 net.cpp:165] Memory required for data: 66091400
I0523 03:54:44.444026 30336 layer_factory.hpp:77] Creating layer relu3
I0523 03:54:44.444039 30336 net.cpp:106] Creating Layer relu3
I0523 03:54:44.444052 30336 net.cpp:454] relu3 <- conv3
I0523 03:54:44.444066 30336 net.cpp:397] relu3 -> conv3 (in-place)
I0523 03:54:44.444537 30336 net.cpp:150] Setting up relu3
I0523 03:54:44.444555 30336 net.cpp:157] Top shape: 50 28 22 44 (1355200)
I0523 03:54:44.444566 30336 net.cpp:165] Memory required for data: 71512200
I0523 03:54:44.444576 30336 layer_factory.hpp:77] Creating layer pool3
I0523 03:54:44.444588 30336 net.cpp:106] Creating Layer pool3
I0523 03:54:44.444598 30336 net.cpp:454] pool3 <- conv3
I0523 03:54:44.444612 30336 net.cpp:411] pool3 -> pool3
I0523 03:54:44.444682 30336 net.cpp:150] Setting up pool3
I0523 03:54:44.444696 30336 net.cpp:157] Top shape: 50 28 11 44 (677600)
I0523 03:54:44.444706 30336 net.cpp:165] Memory required for data: 74222600
I0523 03:54:44.444715 30336 layer_factory.hpp:77] Creating layer conv4
I0523 03:54:44.444731 30336 net.cpp:106] Creating Layer conv4
I0523 03:54:44.444741 30336 net.cpp:454] conv4 <- pool3
I0523 03:54:44.444756 30336 net.cpp:411] conv4 -> conv4
I0523 03:54:44.446810 30336 net.cpp:150] Setting up conv4
I0523 03:54:44.446832 30336 net.cpp:157] Top shape: 50 36 6 42 (453600)
I0523 03:54:44.446846 30336 net.cpp:165] Memory required for data: 76037000
I0523 03:54:44.446861 30336 layer_factory.hpp:77] Creating layer relu4
I0523 03:54:44.446873 30336 net.cpp:106] Creating Layer relu4
I0523 03:54:44.446883 30336 net.cpp:454] relu4 <- conv4
I0523 03:54:44.446897 30336 net.cpp:397] relu4 -> conv4 (in-place)
I0523 03:54:44.447367 30336 net.cpp:150] Setting up relu4
I0523 03:54:44.447383 30336 net.cpp:157] Top shape: 50 36 6 42 (453600)
I0523 03:54:44.447394 30336 net.cpp:165] Memory required for data: 77851400
I0523 03:54:44.447404 30336 layer_factory.hpp:77] Creating layer pool4
I0523 03:54:44.447417 30336 net.cpp:106] Creating Layer pool4
I0523 03:54:44.447427 30336 net.cpp:454] pool4 <- conv4
I0523 03:54:44.447440 30336 net.cpp:411] pool4 -> pool4
I0523 03:54:44.447510 30336 net.cpp:150] Setting up pool4
I0523 03:54:44.447523 30336 net.cpp:157] Top shape: 50 36 3 42 (226800)
I0523 03:54:44.447533 30336 net.cpp:165] Memory required for data: 78758600
I0523 03:54:44.447543 30336 layer_factory.hpp:77] Creating layer ip1
I0523 03:54:44.447556 30336 net.cpp:106] Creating Layer ip1
I0523 03:54:44.447567 30336 net.cpp:454] ip1 <- pool4
I0523 03:54:44.447581 30336 net.cpp:411] ip1 -> ip1
I0523 03:54:44.463101 30336 net.cpp:150] Setting up ip1
I0523 03:54:44.463130 30336 net.cpp:157] Top shape: 50 196 (9800)
I0523 03:54:44.463146 30336 net.cpp:165] Memory required for data: 78797800
I0523 03:54:44.463170 30336 layer_factory.hpp:77] Creating layer relu5
I0523 03:54:44.463184 30336 net.cpp:106] Creating Layer relu5
I0523 03:54:44.463196 30336 net.cpp:454] relu5 <- ip1
I0523 03:54:44.463208 30336 net.cpp:397] relu5 -> ip1 (in-place)
I0523 03:54:44.463556 30336 net.cpp:150] Setting up relu5
I0523 03:54:44.463569 30336 net.cpp:157] Top shape: 50 196 (9800)
I0523 03:54:44.463580 30336 net.cpp:165] Memory required for data: 78837000
I0523 03:54:44.463590 30336 layer_factory.hpp:77] Creating layer drop1
I0523 03:54:44.463609 30336 net.cpp:106] Creating Layer drop1
I0523 03:54:44.463619 30336 net.cpp:454] drop1 <- ip1
I0523 03:54:44.463632 30336 net.cpp:397] drop1 -> ip1 (in-place)
I0523 03:54:44.463678 30336 net.cpp:150] Setting up drop1
I0523 03:54:44.463691 30336 net.cpp:157] Top shape: 50 196 (9800)
I0523 03:54:44.463701 30336 net.cpp:165] Memory required for data: 78876200
I0523 03:54:44.463711 30336 layer_factory.hpp:77] Creating layer ip2
I0523 03:54:44.463726 30336 net.cpp:106] Creating Layer ip2
I0523 03:54:44.463735 30336 net.cpp:454] ip2 <- ip1
I0523 03:54:44.463749 30336 net.cpp:411] ip2 -> ip2
I0523 03:54:44.464233 30336 net.cpp:150] Setting up ip2
I0523 03:54:44.464246 30336 net.cpp:157] Top shape: 50 98 (4900)
I0523 03:54:44.464257 30336 net.cpp:165] Memory required for data: 78895800
I0523 03:54:44.464272 30336 layer_factory.hpp:77] Creating layer relu6
I0523 03:54:44.464298 30336 net.cpp:106] Creating Layer relu6
I0523 03:54:44.464308 30336 net.cpp:454] relu6 <- ip2
I0523 03:54:44.464320 30336 net.cpp:397] relu6 -> ip2 (in-place)
I0523 03:54:44.464854 30336 net.cpp:150] Setting up relu6
I0523 03:54:44.464870 30336 net.cpp:157] Top shape: 50 98 (4900)
I0523 03:54:44.464879 30336 net.cpp:165] Memory required for data: 78915400
I0523 03:54:44.464890 30336 layer_factory.hpp:77] Creating layer drop2
I0523 03:54:44.464905 30336 net.cpp:106] Creating Layer drop2
I0523 03:54:44.464915 30336 net.cpp:454] drop2 <- ip2
I0523 03:54:44.464927 30336 net.cpp:397] drop2 -> ip2 (in-place)
I0523 03:54:44.464972 30336 net.cpp:150] Setting up drop2
I0523 03:54:44.464984 30336 net.cpp:157] Top shape: 50 98 (4900)
I0523 03:54:44.464994 30336 net.cpp:165] Memory required for data: 78935000
I0523 03:54:44.465004 30336 layer_factory.hpp:77] Creating layer ip3
I0523 03:54:44.465018 30336 net.cpp:106] Creating Layer ip3
I0523 03:54:44.465029 30336 net.cpp:454] ip3 <- ip2
I0523 03:54:44.465042 30336 net.cpp:411] ip3 -> ip3
I0523 03:54:44.465263 30336 net.cpp:150] Setting up ip3
I0523 03:54:44.465276 30336 net.cpp:157] Top shape: 50 11 (550)
I0523 03:54:44.465287 30336 net.cpp:165] Memory required for data: 78937200
I0523 03:54:44.465302 30336 layer_factory.hpp:77] Creating layer drop3
I0523 03:54:44.465315 30336 net.cpp:106] Creating Layer drop3
I0523 03:54:44.465325 30336 net.cpp:454] drop3 <- ip3
I0523 03:54:44.465338 30336 net.cpp:397] drop3 -> ip3 (in-place)
I0523 03:54:44.465379 30336 net.cpp:150] Setting up drop3
I0523 03:54:44.465392 30336 net.cpp:157] Top shape: 50 11 (550)
I0523 03:54:44.465402 30336 net.cpp:165] Memory required for data: 78939400
I0523 03:54:44.465412 30336 layer_factory.hpp:77] Creating layer ip3_drop3_0_split
I0523 03:54:44.465425 30336 net.cpp:106] Creating Layer ip3_drop3_0_split
I0523 03:54:44.465435 30336 net.cpp:454] ip3_drop3_0_split <- ip3
I0523 03:54:44.465447 30336 net.cpp:411] ip3_drop3_0_split -> ip3_drop3_0_split_0
I0523 03:54:44.465462 30336 net.cpp:411] ip3_drop3_0_split -> ip3_drop3_0_split_1
I0523 03:54:44.465535 30336 net.cpp:150] Setting up ip3_drop3_0_split
I0523 03:54:44.465548 30336 net.cpp:157] Top shape: 50 11 (550)
I0523 03:54:44.465560 30336 net.cpp:157] Top shape: 50 11 (550)
I0523 03:54:44.465570 30336 net.cpp:165] Memory required for data: 78943800
I0523 03:54:44.465579 30336 layer_factory.hpp:77] Creating layer accuracy
I0523 03:54:44.465600 30336 net.cpp:106] Creating Layer accuracy
I0523 03:54:44.465611 30336 net.cpp:454] accuracy <- ip3_drop3_0_split_0
I0523 03:54:44.465622 30336 net.cpp:454] accuracy <- label_data_hdf5_1_split_0
I0523 03:54:44.465636 30336 net.cpp:411] accuracy -> accuracy
…
