…
I0523 06:16:10.776640  3146 net.cpp:322] The NetState phase (0) differed from the phase (1) specified by a rule in layer data_hdf5
I0523 06:16:10.776700  3146 net.cpp:322] The NetState phase (0) differed from the phase (1) specified by a rule in layer accuracy
I0523 06:16:10.777045  3146 net.cpp:49] Initializing net from parameters: 
name: "caffe_test_127x50_x_unshifted"
state {
  phase: TRAIN
}
layer {
  name: "data_hdf5"
  type: "HDF5Data"
  top: "data"
  top: "label"
  include {
    phase: TRAIN
  }
  hdf5_data_param {
    source: "/lustre/atlas/proj-shared/hep105/caffe_titan/minosmatch_nukecczdefs_127x50_x_unshifted_me1Bmc.trainlist"
    batch_size: 50
  }
}
layer {
  name: "conv1"
  type: "Convolution"
  bottom: "data"
  top: "conv1"
  convolution_param {
    num_output: 12
    pad: 0
    stride: 1
    weight_filler {
      type: "xavier"
    }
    bias_filler {
      type: "constant"
    }
    kernel_h: 8
    kernel_w: 3
  }
}
layer {
  name: "relu1"
  type: "ReLU"
  bottom: "conv1"
  top: "conv1"
}
layer {
  name: "pool1"
  type: "Pooling"
  bottom: "conv1"
  top: "pool1"
  pooling_param {
    pool: MAX
    kernel_h: 2
    kernel_w: 1
    stride_h: 2
    stride_w: 1
  }
}
layer {
  name: "conv2"
  type: "Convolution"
  bottom: "pool1"
  top: "conv2"
  convolution_param {
    num_output: 20
    pad: 0
    stride: 1
    weight_filler {
      type: "xavier"
    }
    bias_filler {
      type: "constant"
    }
    kernel_h: 7
    kernel_w: 3
  }
}
layer {
  name: "relu2"
  type: "ReLU"
  bottom: "conv2"
  top: "conv2"
}
layer {
  name: "pool2"
  type: "Pooling"
  bottom: "conv2"
  top: "pool2"
  pooling_param {
    pool: MAX
    kernel_h: 2
    kernel_w: 1
    stride_h: 2
    stride_w: 1
  }
}
layer {
  name: "conv3"
  type: "Convolution"
  bottom: "pool2"
  top: "conv3"
  convolution_param {
    num_output: 28
    pad: 0
    stride: 1
    weight_filler {
      type: "xavier"
    }
    bias_filler {
      type: "constant"
    }
    kernel_h: 6
    kernel_w: 3
  }
}
layer {
  name: "relu3"
  type: "ReLU"
  bottom: "conv3"
  top: "conv3"
}
layer {
  name: "pool3"
  type: "Pooling"
  bottom: "conv3"
  top: "pool3"
  pooling_param {
    pool: MAX
    kernel_h: 2
    kernel_w: 1
    stride_h: 2
    stride_w: 1
  }
}
layer {
  name: "conv4"
  type: "Convolution"
  bottom: "pool3"
  top: "conv4"
  convolution_param {
    num_output: 36
    pad: 0
    stride: 1
    weight_filler {
      type: "xavier"
    }
    bias_filler {
      type: "constant"
    }
    kernel_h: 6
    kernel_w: 3
  }
}
layer {
  name: "relu4"
  type: "ReLU"
  bottom: "conv4"
  top: "conv4"
}
layer {
  name: "pool4"
  type: "Pooling"
  bottom: "conv4"
  top: "pool4"
  pooling_param {
    pool: MAX
    kernel_h: 2
    kernel_w: 1
    stride_h: 2
    stride_w: 1
  }
}
layer {
  name: "ip1"
  type: "InnerProduct"
  bottom: "pool4"
  top: "ip1"
  inner_product_param {
    num_output: 196
    weight_filler {
      type: "xavier"
    }
    bias_filler {
      type: "constant"
    }
  }
}
layer {
  name: "relu5"
  type: "ReLU"
  bottom: "ip1"
  top: "ip1"
}
layer {
  name: "drop1"
  type: "Dropout"
  bottom: "ip1"
  top: "ip1"
  dropout_param {
    dropout_ratio: 0.5
  }
}
layer {
  name: "ip2"
  type: "InnerProduct"
  bottom: "ip1"
  top: "ip2"
  inner_product_param {
    num_output: 98
    weight_filler {
      type: "xavier"
    }
    bias_filler {
      type: "constant"
    }
  }
}
layer {
  name: "relu6"
  type: "ReLU"
  bottom: "ip2"
  top: "ip2"
}
layer {
  name: "drop2"
  type: "Dropout"
  bottom: "ip2"
  top: "ip2"
  dropout_param {
    dropout_ratio: 0.5
  }
}
layer {
  name: "ip3"
  type: "InnerProduct"
  bottom: "ip2"
  top: "ip3"
  inner_product_param {
    num_output: 11
    weight_filler {
      type: "xavier"
    }
    bias_filler {
      type: "constant"
    }
  }
}
layer {
  name: "drop3"
  type: "Dropout"
  bottom: "ip3"
  top: "ip3"
  dropout_param {
    dropout_ratio: 0.5
  }
}
layer {
  name: "loss"
  type: "SoftmaxWithLoss"
  bottom: "ip3"
  bottom: "label"
  top: "loss"
}
I0523 06:16:10.777226  3146 layer_factory.hpp:77] Creating layer data_hdf5
I0523 06:16:10.777251  3146 net.cpp:106] Creating Layer data_hdf5
I0523 06:16:10.777266  3146 net.cpp:411] data_hdf5 -> data
I0523 06:16:10.777298  3146 net.cpp:411] data_hdf5 -> label
I0523 06:16:10.777331  3146 hdf5_data_layer.cpp:79] Loading list of HDF5 filenames from: /lustre/atlas/proj-shared/hep105/caffe_titan/minosmatch_nukecczdefs_127x50_x_unshifted_me1Bmc.trainlist
I0523 06:16:10.778604  3146 hdf5_data_layer.cpp:93] Number of HDF5 files: 15
I0523 06:16:10.780777  3146 hdf5.cpp:32] Datatype class: H5T_FLOAT
I0523 06:16:32.347074  3146 hdf5.cpp:35] Datatype class: H5T_INTEGER
I0523 06:16:32.352253  3146 net.cpp:150] Setting up data_hdf5
I0523 06:16:32.352294  3146 net.cpp:157] Top shape: 50 1 127 50 (317500)
I0523 06:16:32.352309  3146 net.cpp:157] Top shape: 50 (50)
I0523 06:16:32.352321  3146 net.cpp:165] Memory required for data: 1270200
I0523 06:16:32.352334  3146 layer_factory.hpp:77] Creating layer conv1
I0523 06:16:32.352368  3146 net.cpp:106] Creating Layer conv1
I0523 06:16:32.352380  3146 net.cpp:454] conv1 <- data
I0523 06:16:32.352401  3146 net.cpp:411] conv1 -> conv1
I0523 06:16:32.713418  3146 net.cpp:150] Setting up conv1
I0523 06:16:32.713460  3146 net.cpp:157] Top shape: 50 12 120 48 (3456000)
I0523 06:16:32.713471  3146 net.cpp:165] Memory required for data: 15094200
I0523 06:16:32.713500  3146 layer_factory.hpp:77] Creating layer relu1
I0523 06:16:32.713521  3146 net.cpp:106] Creating Layer relu1
I0523 06:16:32.713531  3146 net.cpp:454] relu1 <- conv1
I0523 06:16:32.713546  3146 net.cpp:397] relu1 -> conv1 (in-place)
I0523 06:16:32.714061  3146 net.cpp:150] Setting up relu1
I0523 06:16:32.714078  3146 net.cpp:157] Top shape: 50 12 120 48 (3456000)
I0523 06:16:32.714089  3146 net.cpp:165] Memory required for data: 28918200
I0523 06:16:32.714099  3146 layer_factory.hpp:77] Creating layer pool1
I0523 06:16:32.714117  3146 net.cpp:106] Creating Layer pool1
I0523 06:16:32.714126  3146 net.cpp:454] pool1 <- conv1
I0523 06:16:32.714140  3146 net.cpp:411] pool1 -> pool1
I0523 06:16:32.714221  3146 net.cpp:150] Setting up pool1
I0523 06:16:32.714236  3146 net.cpp:157] Top shape: 50 12 60 48 (1728000)
I0523 06:16:32.714246  3146 net.cpp:165] Memory required for data: 35830200
I0523 06:16:32.714256  3146 layer_factory.hpp:77] Creating layer conv2
I0523 06:16:32.714277  3146 net.cpp:106] Creating Layer conv2
I0523 06:16:32.714288  3146 net.cpp:454] conv2 <- pool1
I0523 06:16:32.714303  3146 net.cpp:411] conv2 -> conv2
I0523 06:16:32.717022  3146 net.cpp:150] Setting up conv2
I0523 06:16:32.717051  3146 net.cpp:157] Top shape: 50 20 54 46 (2484000)
I0523 06:16:32.717062  3146 net.cpp:165] Memory required for data: 45766200
I0523 06:16:32.717082  3146 layer_factory.hpp:77] Creating layer relu2
I0523 06:16:32.717097  3146 net.cpp:106] Creating Layer relu2
I0523 06:16:32.717106  3146 net.cpp:454] relu2 <- conv2
I0523 06:16:32.717119  3146 net.cpp:397] relu2 -> conv2 (in-place)
I0523 06:16:32.717452  3146 net.cpp:150] Setting up relu2
I0523 06:16:32.717465  3146 net.cpp:157] Top shape: 50 20 54 46 (2484000)
I0523 06:16:32.717476  3146 net.cpp:165] Memory required for data: 55702200
I0523 06:16:32.717486  3146 layer_factory.hpp:77] Creating layer pool2
I0523 06:16:32.717499  3146 net.cpp:106] Creating Layer pool2
I0523 06:16:32.717509  3146 net.cpp:454] pool2 <- conv2
I0523 06:16:32.717521  3146 net.cpp:411] pool2 -> pool2
I0523 06:16:32.717602  3146 net.cpp:150] Setting up pool2
I0523 06:16:32.717617  3146 net.cpp:157] Top shape: 50 20 27 46 (1242000)
I0523 06:16:32.717627  3146 net.cpp:165] Memory required for data: 60670200
I0523 06:16:32.717635  3146 layer_factory.hpp:77] Creating layer conv3
I0523 06:16:32.717654  3146 net.cpp:106] Creating Layer conv3
I0523 06:16:32.717664  3146 net.cpp:454] conv3 <- pool2
I0523 06:16:32.717679  3146 net.cpp:411] conv3 -> conv3
I0523 06:16:32.719630  3146 net.cpp:150] Setting up conv3
I0523 06:16:32.719653  3146 net.cpp:157] Top shape: 50 28 22 44 (1355200)
I0523 06:16:32.719668  3146 net.cpp:165] Memory required for data: 66091000
I0523 06:16:32.719687  3146 layer_factory.hpp:77] Creating layer relu3
I0523 06:16:32.719703  3146 net.cpp:106] Creating Layer relu3
I0523 06:16:32.719713  3146 net.cpp:454] relu3 <- conv3
I0523 06:16:32.719727  3146 net.cpp:397] relu3 -> conv3 (in-place)
I0523 06:16:32.720194  3146 net.cpp:150] Setting up relu3
I0523 06:16:32.720212  3146 net.cpp:157] Top shape: 50 28 22 44 (1355200)
I0523 06:16:32.720222  3146 net.cpp:165] Memory required for data: 71511800
I0523 06:16:32.720232  3146 layer_factory.hpp:77] Creating layer pool3
I0523 06:16:32.720245  3146 net.cpp:106] Creating Layer pool3
I0523 06:16:32.720255  3146 net.cpp:454] pool3 <- conv3
I0523 06:16:32.720268  3146 net.cpp:411] pool3 -> pool3
I0523 06:16:32.720335  3146 net.cpp:150] Setting up pool3
I0523 06:16:32.720348  3146 net.cpp:157] Top shape: 50 28 11 44 (677600)
I0523 06:16:32.720358  3146 net.cpp:165] Memory required for data: 74222200
I0523 06:16:32.720368  3146 layer_factory.hpp:77] Creating layer conv4
I0523 06:16:32.720383  3146 net.cpp:106] Creating Layer conv4
I0523 06:16:32.720394  3146 net.cpp:454] conv4 <- pool3
I0523 06:16:32.720408  3146 net.cpp:411] conv4 -> conv4
I0523 06:16:32.723247  3146 net.cpp:150] Setting up conv4
I0523 06:16:32.723275  3146 net.cpp:157] Top shape: 50 36 6 42 (453600)
I0523 06:16:32.723285  3146 net.cpp:165] Memory required for data: 76036600
I0523 06:16:32.723301  3146 layer_factory.hpp:77] Creating layer relu4
I0523 06:16:32.723315  3146 net.cpp:106] Creating Layer relu4
I0523 06:16:32.723326  3146 net.cpp:454] relu4 <- conv4
I0523 06:16:32.723340  3146 net.cpp:397] relu4 -> conv4 (in-place)
I0523 06:16:32.723822  3146 net.cpp:150] Setting up relu4
I0523 06:16:32.723839  3146 net.cpp:157] Top shape: 50 36 6 42 (453600)
I0523 06:16:32.723850  3146 net.cpp:165] Memory required for data: 77851000
I0523 06:16:32.723860  3146 layer_factory.hpp:77] Creating layer pool4
I0523 06:16:32.723872  3146 net.cpp:106] Creating Layer pool4
I0523 06:16:32.723882  3146 net.cpp:454] pool4 <- conv4
I0523 06:16:32.723896  3146 net.cpp:411] pool4 -> pool4
I0523 06:16:32.723963  3146 net.cpp:150] Setting up pool4
I0523 06:16:32.723978  3146 net.cpp:157] Top shape: 50 36 3 42 (226800)
I0523 06:16:32.723987  3146 net.cpp:165] Memory required for data: 78758200
I0523 06:16:32.723997  3146 layer_factory.hpp:77] Creating layer ip1
I0523 06:16:32.724016  3146 net.cpp:106] Creating Layer ip1
I0523 06:16:32.724027  3146 net.cpp:454] ip1 <- pool4
I0523 06:16:32.724040  3146 net.cpp:411] ip1 -> ip1
I0523 06:16:32.739543  3146 net.cpp:150] Setting up ip1
I0523 06:16:32.739572  3146 net.cpp:157] Top shape: 50 196 (9800)
I0523 06:16:32.739588  3146 net.cpp:165] Memory required for data: 78797400
I0523 06:16:32.739614  3146 layer_factory.hpp:77] Creating layer relu5
I0523 06:16:32.739629  3146 net.cpp:106] Creating Layer relu5
I0523 06:16:32.739639  3146 net.cpp:454] relu5 <- ip1
I0523 06:16:32.739653  3146 net.cpp:397] relu5 -> ip1 (in-place)
I0523 06:16:32.739996  3146 net.cpp:150] Setting up relu5
I0523 06:16:32.740010  3146 net.cpp:157] Top shape: 50 196 (9800)
I0523 06:16:32.740021  3146 net.cpp:165] Memory required for data: 78836600
I0523 06:16:32.740031  3146 layer_factory.hpp:77] Creating layer drop1
I0523 06:16:32.740053  3146 net.cpp:106] Creating Layer drop1
I0523 06:16:32.740063  3146 net.cpp:454] drop1 <- ip1
I0523 06:16:32.740077  3146 net.cpp:397] drop1 -> ip1 (in-place)
I0523 06:16:32.740135  3146 net.cpp:150] Setting up drop1
I0523 06:16:32.740149  3146 net.cpp:157] Top shape: 50 196 (9800)
I0523 06:16:32.740159  3146 net.cpp:165] Memory required for data: 78875800
I0523 06:16:32.740170  3146 layer_factory.hpp:77] Creating layer ip2
I0523 06:16:32.740188  3146 net.cpp:106] Creating Layer ip2
I0523 06:16:32.740198  3146 net.cpp:454] ip2 <- ip1
I0523 06:16:32.740211  3146 net.cpp:411] ip2 -> ip2
I0523 06:16:32.740674  3146 net.cpp:150] Setting up ip2
I0523 06:16:32.740687  3146 net.cpp:157] Top shape: 50 98 (4900)
I0523 06:16:32.740697  3146 net.cpp:165] Memory required for data: 78895400
I0523 06:16:32.740712  3146 layer_factory.hpp:77] Creating layer relu6
I0523 06:16:32.740725  3146 net.cpp:106] Creating Layer relu6
I0523 06:16:32.740734  3146 net.cpp:454] relu6 <- ip2
I0523 06:16:32.740746  3146 net.cpp:397] relu6 -> ip2 (in-place)
I0523 06:16:32.741266  3146 net.cpp:150] Setting up relu6
I0523 06:16:32.741282  3146 net.cpp:157] Top shape: 50 98 (4900)
I0523 06:16:32.741293  3146 net.cpp:165] Memory required for data: 78915000
I0523 06:16:32.741303  3146 layer_factory.hpp:77] Creating layer drop2
I0523 06:16:32.741317  3146 net.cpp:106] Creating Layer drop2
I0523 06:16:32.741327  3146 net.cpp:454] drop2 <- ip2
I0523 06:16:32.741339  3146 net.cpp:397] drop2 -> ip2 (in-place)
I0523 06:16:32.741381  3146 net.cpp:150] Setting up drop2
I0523 06:16:32.741394  3146 net.cpp:157] Top shape: 50 98 (4900)
I0523 06:16:32.741405  3146 net.cpp:165] Memory required for data: 78934600
I0523 06:16:32.741415  3146 layer_factory.hpp:77] Creating layer ip3
I0523 06:16:32.741428  3146 net.cpp:106] Creating Layer ip3
I0523 06:16:32.741437  3146 net.cpp:454] ip3 <- ip2
I0523 06:16:32.741451  3146 net.cpp:411] ip3 -> ip3
I0523 06:16:32.741662  3146 net.cpp:150] Setting up ip3
I0523 06:16:32.741674  3146 net.cpp:157] Top shape: 50 11 (550)
I0523 06:16:32.741684  3146 net.cpp:165] Memory required for data: 78936800
I0523 06:16:32.741699  3146 layer_factory.hpp:77] Creating layer drop3
I0523 06:16:32.741713  3146 net.cpp:106] Creating Layer drop3
I0523 06:16:32.741721  3146 net.cpp:454] drop3 <- ip3
I0523 06:16:32.741734  3146 net.cpp:397] drop3 -> ip3 (in-place)
I0523 06:16:32.741773  3146 net.cpp:150] Setting up drop3
I0523 06:16:32.741786  3146 net.cpp:157] Top shape: 50 11 (550)
I0523 06:16:32.741796  3146 net.cpp:165] Memory required for data: 78939000
I0523 06:16:32.741806  3146 layer_factory.hpp:77] Creating layer loss
I0523 06:16:32.741824  3146 net.cpp:106] Creating Layer loss
I0523 06:16:32.741834  3146 net.cpp:454] loss <- ip3
I0523 06:16:32.741845  3146 net.cpp:454] loss <- label
I0523 06:16:32.741858  3146 net.cpp:411] loss -> loss
I0523 06:16:32.741874  3146 layer_factory.hpp:77] Creating layer loss
…
I0523 06:16:32.744423  3146 solver.cpp:181] Creating test net (#0) specified by net file: /lustre/atlas/proj-shared/hep105/caffe_titan/caffe_workflow/logs_bslr/bs_50_lr_0.0030_2016-05-20T15.49.06.903314.prototxt
I0523 06:16:32.744493  3146 net.cpp:322] The NetState phase (1) differed from the phase (0) specified by a rule in layer data_hdf5
I0523 06:16:32.744848  3146 net.cpp:49] Initializing net from parameters: 
name: "caffe_test_127x50_x_unshifted"
state {
  phase: TEST
}
layer {
  name: "data_hdf5"
  type: "HDF5Data"
  top: "data"
  top: "label"
  include {
    phase: TEST
  }
  hdf5_data_param {
    source: "/lustre/atlas/proj-shared/hep105/caffe_titan/minosmatch_nukecczdefs_127x50_x_unshifted_me1Bmc.testlist"
    batch_size: 50
  }
}
layer {
  name: "conv1"
  type: "Convolution"
  bottom: "data"
  top: "conv1"
  convolution_param {
    num_output: 12
    pad: 0
    stride: 1
    weight_filler {
      type: "xavier"
    }
    bias_filler {
      type: "constant"
    }
    kernel_h: 8
    kernel_w: 3
  }
}
layer {
  name: "relu1"
  type: "ReLU"
  bottom: "conv1"
  top: "conv1"
}
layer {
  name: "pool1"
  type: "Pooling"
  bottom: "conv1"
  top: "pool1"
  pooling_param {
    pool: MAX
    kernel_h: 2
    kernel_w: 1
    stride_h: 2
    stride_w: 1
  }
}
layer {
  name: "conv2"
  type: "Convolution"
  bottom: "pool1"
  top: "conv2"
  convolution_param {
    num_output: 20
    pad: 0
    stride: 1
    weight_filler {
      type: "xavier"
    }
    bias_filler {
      type: "constant"
    }
    kernel_h: 7
    kernel_w: 3
  }
}
layer {
  name: "relu2"
  type: "ReLU"
  bottom: "conv2"
  top: "conv2"
}
layer {
  name: "pool2"
  type: "Pooling"
  bottom: "conv2"
  top: "pool2"
  pooling_param {
    pool: MAX
    kernel_h: 2
    kernel_w: 1
    stride_h: 2
    stride_w: 1
  }
}
layer {
  name: "conv3"
  type: "Convolution"
  bottom: "pool2"
  top: "conv3"
  convolution_param {
    num_output: 28
    pad: 0
    stride: 1
    weight_filler {
      type: "xavier"
    }
    bias_filler {
      type: "constant"
    }
    kernel_h: 6
    kernel_w: 3
  }
}
layer {
  name: "relu3"
  type: "ReLU"
  bottom: "conv3"
  top: "conv3"
}
layer {
  name: "pool3"
  type: "Pooling"
  bottom: "conv3"
  top: "pool3"
  pooling_param {
    pool: MAX
    kernel_h: 2
    kernel_w: 1
    stride_h: 2
    stride_w: 1
  }
}
layer {
  name: "conv4"
  type: "Convolution"
  bottom: "pool3"
  top: "conv4"
  convolution_param {
    num_output: 36
    pad: 0
    stride: 1
    weight_filler {
      type: "xavier"
    }
    bias_filler {
      type: "constant"
    }
    kernel_h: 6
    kernel_w: 3
  }
}
layer {
  name: "relu4"
  type: "ReLU"
  bottom: "conv4"
  top: "conv4"
}
layer {
  name: "pool4"
  type: "Pooling"
  bottom: "conv4"
  top: "pool4"
  pooling_param {
    pool: MAX
    kernel_h: 2
    kernel_w: 1
    stride_h: 2
    stride_w: 1
  }
}
layer {
  name: "ip1"
  type: "InnerProduct"
  bottom: "pool4"
  top: "ip1"
  inner_product_param {
    num_output: 196
    weight_filler {
      type: "xavier"
    }
    bias_filler {
      type: "constant"
    }
  }
}
layer {
  name: "relu5"
  type: "ReLU"
  bottom: "ip1"
  top: "ip1"
}
layer {
  name: "drop1"
  type: "Dropout"
  bottom: "ip1"
  top: "ip1"
  dropout_param {
    dropout_ratio: 0.5
  }
}
layer {
  name: "ip2"
  type: "InnerProduct"
  bottom: "ip1"
  top: "ip2"
  inner_product_param {
    num_output: 98
    weight_filler {
      type: "xavier"
    }
    bias_filler {
      type: "constant"
    }
  }
}
layer {
  name: "relu6"
  type: "ReLU"
  bottom: "ip2"
  top: "ip2"
}
layer {
  name: "drop2"
  type: "Dropout"
  bottom: "ip2"
  top: "ip2"
  dropout_param {
    dropout_ratio: 0.5
  }
}
layer {
  name: "ip3"
  type: "InnerProduct"
  bottom: "ip2"
  top: "ip3"
  inner_product_param {
    num_output: 11
    weight_filler {
      type: "xavier"
    }
    bias_filler {
      type: "constant"
    }
  }
}
layer {
  name: "drop3"
  type: "Dropout"
  bottom: "ip3"
  top: "ip3"
  dropout_param {
    dropout_ratio: 0.5
  }
}
layer {
  name: "accuracy"
  type: "Accuracy"
  bottom: "ip3"
  bottom: "label"
  top: "accuracy"
  include {
    phase: TEST
  }
}
layer {
  name: "loss"
  type: "SoftmaxWithLoss"
  bottom: "ip3"
  bottom: "label"
  top: "loss"
}
I0523 06:16:32.745038  3146 layer_factory.hpp:77] Creating layer data_hdf5
I0523 06:16:32.745054  3146 net.cpp:106] Creating Layer data_hdf5
I0523 06:16:32.745066  3146 net.cpp:411] data_hdf5 -> data
I0523 06:16:32.745084  3146 net.cpp:411] data_hdf5 -> label
I0523 06:16:32.745100  3146 hdf5_data_layer.cpp:79] Loading list of HDF5 filenames from: /lustre/atlas/proj-shared/hep105/caffe_titan/minosmatch_nukecczdefs_127x50_x_unshifted_me1Bmc.testlist
I0523 06:16:32.746347  3146 hdf5_data_layer.cpp:93] Number of HDF5 files: 3
I0523 06:16:54.047288  3146 net.cpp:150] Setting up data_hdf5
I0523 06:16:54.047464  3146 net.cpp:157] Top shape: 50 1 127 50 (317500)
I0523 06:16:54.047478  3146 net.cpp:157] Top shape: 50 (50)
I0523 06:16:54.047492  3146 net.cpp:165] Memory required for data: 1270200
I0523 06:16:54.047505  3146 layer_factory.hpp:77] Creating layer label_data_hdf5_1_split
I0523 06:16:54.047535  3146 net.cpp:106] Creating Layer label_data_hdf5_1_split
I0523 06:16:54.047546  3146 net.cpp:454] label_data_hdf5_1_split <- label
I0523 06:16:54.047560  3146 net.cpp:411] label_data_hdf5_1_split -> label_data_hdf5_1_split_0
I0523 06:16:54.047582  3146 net.cpp:411] label_data_hdf5_1_split -> label_data_hdf5_1_split_1
I0523 06:16:54.047655  3146 net.cpp:150] Setting up label_data_hdf5_1_split
I0523 06:16:54.047669  3146 net.cpp:157] Top shape: 50 (50)
I0523 06:16:54.047680  3146 net.cpp:157] Top shape: 50 (50)
I0523 06:16:54.047690  3146 net.cpp:165] Memory required for data: 1270600
I0523 06:16:54.047700  3146 layer_factory.hpp:77] Creating layer conv1
I0523 06:16:54.047722  3146 net.cpp:106] Creating Layer conv1
I0523 06:16:54.047732  3146 net.cpp:454] conv1 <- data
I0523 06:16:54.047745  3146 net.cpp:411] conv1 -> conv1
I0523 06:16:54.049664  3146 net.cpp:150] Setting up conv1
I0523 06:16:54.049687  3146 net.cpp:157] Top shape: 50 12 120 48 (3456000)
I0523 06:16:54.049698  3146 net.cpp:165] Memory required for data: 15094600
I0523 06:16:54.049720  3146 layer_factory.hpp:77] Creating layer relu1
I0523 06:16:54.049734  3146 net.cpp:106] Creating Layer relu1
I0523 06:16:54.049744  3146 net.cpp:454] relu1 <- conv1
I0523 06:16:54.049757  3146 net.cpp:397] relu1 -> conv1 (in-place)
I0523 06:16:54.050254  3146 net.cpp:150] Setting up relu1
I0523 06:16:54.050271  3146 net.cpp:157] Top shape: 50 12 120 48 (3456000)
I0523 06:16:54.050281  3146 net.cpp:165] Memory required for data: 28918600
I0523 06:16:54.050290  3146 layer_factory.hpp:77] Creating layer pool1
I0523 06:16:54.050307  3146 net.cpp:106] Creating Layer pool1
I0523 06:16:54.050317  3146 net.cpp:454] pool1 <- conv1
I0523 06:16:54.050330  3146 net.cpp:411] pool1 -> pool1
I0523 06:16:54.050405  3146 net.cpp:150] Setting up pool1
I0523 06:16:54.050418  3146 net.cpp:157] Top shape: 50 12 60 48 (1728000)
I0523 06:16:54.050427  3146 net.cpp:165] Memory required for data: 35830600
I0523 06:16:54.050436  3146 layer_factory.hpp:77] Creating layer conv2
I0523 06:16:54.050453  3146 net.cpp:106] Creating Layer conv2
I0523 06:16:54.050463  3146 net.cpp:454] conv2 <- pool1
I0523 06:16:54.050477  3146 net.cpp:411] conv2 -> conv2
I0523 06:16:54.052397  3146 net.cpp:150] Setting up conv2
I0523 06:16:54.052419  3146 net.cpp:157] Top shape: 50 20 54 46 (2484000)
I0523 06:16:54.052433  3146 net.cpp:165] Memory required for data: 45766600
I0523 06:16:54.052449  3146 layer_factory.hpp:77] Creating layer relu2
I0523 06:16:54.052464  3146 net.cpp:106] Creating Layer relu2
I0523 06:16:54.052474  3146 net.cpp:454] relu2 <- conv2
I0523 06:16:54.052486  3146 net.cpp:397] relu2 -> conv2 (in-place)
I0523 06:16:54.052817  3146 net.cpp:150] Setting up relu2
I0523 06:16:54.052832  3146 net.cpp:157] Top shape: 50 20 54 46 (2484000)
I0523 06:16:54.052842  3146 net.cpp:165] Memory required for data: 55702600
I0523 06:16:54.052852  3146 layer_factory.hpp:77] Creating layer pool2
I0523 06:16:54.052865  3146 net.cpp:106] Creating Layer pool2
I0523 06:16:54.052875  3146 net.cpp:454] pool2 <- conv2
I0523 06:16:54.052887  3146 net.cpp:411] pool2 -> pool2
I0523 06:16:54.052959  3146 net.cpp:150] Setting up pool2
I0523 06:16:54.052973  3146 net.cpp:157] Top shape: 50 20 27 46 (1242000)
I0523 06:16:54.052983  3146 net.cpp:165] Memory required for data: 60670600
I0523 06:16:54.052992  3146 layer_factory.hpp:77] Creating layer conv3
I0523 06:16:54.053009  3146 net.cpp:106] Creating Layer conv3
I0523 06:16:54.053020  3146 net.cpp:454] conv3 <- pool2
I0523 06:16:54.053035  3146 net.cpp:411] conv3 -> conv3
I0523 06:16:54.055007  3146 net.cpp:150] Setting up conv3
I0523 06:16:54.055030  3146 net.cpp:157] Top shape: 50 28 22 44 (1355200)
I0523 06:16:54.055042  3146 net.cpp:165] Memory required for data: 66091400
I0523 06:16:54.055075  3146 layer_factory.hpp:77] Creating layer relu3
I0523 06:16:54.055088  3146 net.cpp:106] Creating Layer relu3
I0523 06:16:54.055099  3146 net.cpp:454] relu3 <- conv3
I0523 06:16:54.055114  3146 net.cpp:397] relu3 -> conv3 (in-place)
I0523 06:16:54.055593  3146 net.cpp:150] Setting up relu3
I0523 06:16:54.055608  3146 net.cpp:157] Top shape: 50 28 22 44 (1355200)
I0523 06:16:54.055619  3146 net.cpp:165] Memory required for data: 71512200
I0523 06:16:54.055629  3146 layer_factory.hpp:77] Creating layer pool3
I0523 06:16:54.055641  3146 net.cpp:106] Creating Layer pool3
I0523 06:16:54.055652  3146 net.cpp:454] pool3 <- conv3
I0523 06:16:54.055665  3146 net.cpp:411] pool3 -> pool3
I0523 06:16:54.055737  3146 net.cpp:150] Setting up pool3
I0523 06:16:54.055752  3146 net.cpp:157] Top shape: 50 28 11 44 (677600)
I0523 06:16:54.055760  3146 net.cpp:165] Memory required for data: 74222600
I0523 06:16:54.055770  3146 layer_factory.hpp:77] Creating layer conv4
I0523 06:16:54.055786  3146 net.cpp:106] Creating Layer conv4
I0523 06:16:54.055796  3146 net.cpp:454] conv4 <- pool3
I0523 06:16:54.055810  3146 net.cpp:411] conv4 -> conv4
I0523 06:16:54.057863  3146 net.cpp:150] Setting up conv4
I0523 06:16:54.057888  3146 net.cpp:157] Top shape: 50 36 6 42 (453600)
I0523 06:16:54.057898  3146 net.cpp:165] Memory required for data: 76037000
I0523 06:16:54.057914  3146 layer_factory.hpp:77] Creating layer relu4
I0523 06:16:54.057929  3146 net.cpp:106] Creating Layer relu4
I0523 06:16:54.057939  3146 net.cpp:454] relu4 <- conv4
I0523 06:16:54.057951  3146 net.cpp:397] relu4 -> conv4 (in-place)
I0523 06:16:54.058421  3146 net.cpp:150] Setting up relu4
I0523 06:16:54.058436  3146 net.cpp:157] Top shape: 50 36 6 42 (453600)
I0523 06:16:54.058446  3146 net.cpp:165] Memory required for data: 77851400
I0523 06:16:54.058456  3146 layer_factory.hpp:77] Creating layer pool4
I0523 06:16:54.058470  3146 net.cpp:106] Creating Layer pool4
I0523 06:16:54.058480  3146 net.cpp:454] pool4 <- conv4
I0523 06:16:54.058492  3146 net.cpp:411] pool4 -> pool4
I0523 06:16:54.058563  3146 net.cpp:150] Setting up pool4
I0523 06:16:54.058576  3146 net.cpp:157] Top shape: 50 36 3 42 (226800)
I0523 06:16:54.058586  3146 net.cpp:165] Memory required for data: 78758600
I0523 06:16:54.058595  3146 layer_factory.hpp:77] Creating layer ip1
I0523 06:16:54.058609  3146 net.cpp:106] Creating Layer ip1
I0523 06:16:54.058620  3146 net.cpp:454] ip1 <- pool4
I0523 06:16:54.058634  3146 net.cpp:411] ip1 -> ip1
I0523 06:16:54.074113  3146 net.cpp:150] Setting up ip1
I0523 06:16:54.074142  3146 net.cpp:157] Top shape: 50 196 (9800)
I0523 06:16:54.074153  3146 net.cpp:165] Memory required for data: 78797800
I0523 06:16:54.074175  3146 layer_factory.hpp:77] Creating layer relu5
I0523 06:16:54.074190  3146 net.cpp:106] Creating Layer relu5
I0523 06:16:54.074201  3146 net.cpp:454] relu5 <- ip1
I0523 06:16:54.074214  3146 net.cpp:397] relu5 -> ip1 (in-place)
I0523 06:16:54.074589  3146 net.cpp:150] Setting up relu5
I0523 06:16:54.074604  3146 net.cpp:157] Top shape: 50 196 (9800)
I0523 06:16:54.074615  3146 net.cpp:165] Memory required for data: 78837000
I0523 06:16:54.074625  3146 layer_factory.hpp:77] Creating layer drop1
I0523 06:16:54.074643  3146 net.cpp:106] Creating Layer drop1
I0523 06:16:54.074653  3146 net.cpp:454] drop1 <- ip1
I0523 06:16:54.074666  3146 net.cpp:397] drop1 -> ip1 (in-place)
I0523 06:16:54.074713  3146 net.cpp:150] Setting up drop1
I0523 06:16:54.074726  3146 net.cpp:157] Top shape: 50 196 (9800)
I0523 06:16:54.074736  3146 net.cpp:165] Memory required for data: 78876200
I0523 06:16:54.074745  3146 layer_factory.hpp:77] Creating layer ip2
I0523 06:16:54.074759  3146 net.cpp:106] Creating Layer ip2
I0523 06:16:54.074769  3146 net.cpp:454] ip2 <- ip1
I0523 06:16:54.074782  3146 net.cpp:411] ip2 -> ip2
I0523 06:16:54.075260  3146 net.cpp:150] Setting up ip2
I0523 06:16:54.075273  3146 net.cpp:157] Top shape: 50 98 (4900)
I0523 06:16:54.075284  3146 net.cpp:165] Memory required for data: 78895800
I0523 06:16:54.075299  3146 layer_factory.hpp:77] Creating layer relu6
I0523 06:16:54.075323  3146 net.cpp:106] Creating Layer relu6
I0523 06:16:54.075333  3146 net.cpp:454] relu6 <- ip2
I0523 06:16:54.075352  3146 net.cpp:397] relu6 -> ip2 (in-place)
I0523 06:16:54.075889  3146 net.cpp:150] Setting up relu6
I0523 06:16:54.075906  3146 net.cpp:157] Top shape: 50 98 (4900)
I0523 06:16:54.075916  3146 net.cpp:165] Memory required for data: 78915400
I0523 06:16:54.075927  3146 layer_factory.hpp:77] Creating layer drop2
I0523 06:16:54.075939  3146 net.cpp:106] Creating Layer drop2
I0523 06:16:54.075949  3146 net.cpp:454] drop2 <- ip2
I0523 06:16:54.075963  3146 net.cpp:397] drop2 -> ip2 (in-place)
I0523 06:16:54.076006  3146 net.cpp:150] Setting up drop2
I0523 06:16:54.076020  3146 net.cpp:157] Top shape: 50 98 (4900)
I0523 06:16:54.076030  3146 net.cpp:165] Memory required for data: 78935000
I0523 06:16:54.076040  3146 layer_factory.hpp:77] Creating layer ip3
I0523 06:16:54.076055  3146 net.cpp:106] Creating Layer ip3
I0523 06:16:54.076064  3146 net.cpp:454] ip3 <- ip2
I0523 06:16:54.076078  3146 net.cpp:411] ip3 -> ip3
I0523 06:16:54.076302  3146 net.cpp:150] Setting up ip3
I0523 06:16:54.076315  3146 net.cpp:157] Top shape: 50 11 (550)
I0523 06:16:54.076325  3146 net.cpp:165] Memory required for data: 78937200
I0523 06:16:54.076340  3146 layer_factory.hpp:77] Creating layer drop3
I0523 06:16:54.076354  3146 net.cpp:106] Creating Layer drop3
I0523 06:16:54.076364  3146 net.cpp:454] drop3 <- ip3
I0523 06:16:54.076376  3146 net.cpp:397] drop3 -> ip3 (in-place)
I0523 06:16:54.076417  3146 net.cpp:150] Setting up drop3
I0523 06:16:54.076431  3146 net.cpp:157] Top shape: 50 11 (550)
I0523 06:16:54.076441  3146 net.cpp:165] Memory required for data: 78939400
I0523 06:16:54.076449  3146 layer_factory.hpp:77] Creating layer ip3_drop3_0_split
I0523 06:16:54.076462  3146 net.cpp:106] Creating Layer ip3_drop3_0_split
I0523 06:16:54.076472  3146 net.cpp:454] ip3_drop3_0_split <- ip3
I0523 06:16:54.076485  3146 net.cpp:411] ip3_drop3_0_split -> ip3_drop3_0_split_0
I0523 06:16:54.076500  3146 net.cpp:411] ip3_drop3_0_split -> ip3_drop3_0_split_1
I0523 06:16:54.076575  3146 net.cpp:150] Setting up ip3_drop3_0_split
I0523 06:16:54.076587  3146 net.cpp:157] Top shape: 50 11 (550)
I0523 06:16:54.076599  3146 net.cpp:157] Top shape: 50 11 (550)
I0523 06:16:54.076608  3146 net.cpp:165] Memory required for data: 78943800
I0523 06:16:54.076617  3146 layer_factory.hpp:77] Creating layer accuracy
I0523 06:16:54.076638  3146 net.cpp:106] Creating Layer accuracy
I0523 06:16:54.076649  3146 net.cpp:454] accuracy <- ip3_drop3_0_split_0
I0523 06:16:54.076660  3146 net.cpp:454] accuracy <- label_data_hdf5_1_split_0
I0523 06:16:54.076674  3146 net.cpp:411] accuracy -> accuracy
…
