…
I0523 09:56:14.545766  3765 net.cpp:322] The NetState phase (0) differed from the phase (1) specified by a rule in layer data_hdf5
I0523 09:56:14.545825  3765 net.cpp:322] The NetState phase (0) differed from the phase (1) specified by a rule in layer accuracy
I0523 09:56:14.546175  3765 net.cpp:49] Initializing net from parameters: 
name: "caffe_test_127x50_x_unshifted"
state {
  phase: TRAIN
}
layer {
  name: "data_hdf5"
  type: "HDF5Data"
  top: "data"
  top: "label"
  include {
    phase: TRAIN
  }
  hdf5_data_param {
    source: "/lustre/atlas/proj-shared/hep105/caffe_titan/minosmatch_nukecczdefs_127x50_x_unshifted_me1Bmc.trainlist"
    batch_size: 50
  }
}
layer {
  name: "conv1"
  type: "Convolution"
  bottom: "data"
  top: "conv1"
  convolution_param {
    num_output: 12
    pad: 0
    stride: 1
    weight_filler {
      type: "xavier"
    }
    bias_filler {
      type: "constant"
    }
    kernel_h: 8
    kernel_w: 3
  }
}
layer {
  name: "relu1"
  type: "ReLU"
  bottom: "conv1"
  top: "conv1"
}
layer {
  name: "pool1"
  type: "Pooling"
  bottom: "conv1"
  top: "pool1"
  pooling_param {
    pool: MAX
    kernel_h: 2
    kernel_w: 1
    stride_h: 2
    stride_w: 1
  }
}
layer {
  name: "conv2"
  type: "Convolution"
  bottom: "pool1"
  top: "conv2"
  convolution_param {
    num_output: 20
    pad: 0
    stride: 1
    weight_filler {
      type: "xavier"
    }
    bias_filler {
      type: "constant"
    }
    kernel_h: 7
    kernel_w: 3
  }
}
layer {
  name: "relu2"
  type: "ReLU"
  bottom: "conv2"
  top: "conv2"
}
layer {
  name: "pool2"
  type: "Pooling"
  bottom: "conv2"
  top: "pool2"
  pooling_param {
    pool: MAX
    kernel_h: 2
    kernel_w: 1
    stride_h: 2
    stride_w: 1
  }
}
layer {
  name: "conv3"
  type: "Convolution"
  bottom: "pool2"
  top: "conv3"
  convolution_param {
    num_output: 28
    pad: 0
    stride: 1
    weight_filler {
      type: "xavier"
    }
    bias_filler {
      type: "constant"
    }
    kernel_h: 6
    kernel_w: 3
  }
}
layer {
  name: "relu3"
  type: "ReLU"
  bottom: "conv3"
  top: "conv3"
}
layer {
  name: "pool3"
  type: "Pooling"
  bottom: "conv3"
  top: "pool3"
  pooling_param {
    pool: MAX
    kernel_h: 2
    kernel_w: 1
    stride_h: 2
    stride_w: 1
  }
}
layer {
  name: "conv4"
  type: "Convolution"
  bottom: "pool3"
  top: "conv4"
  convolution_param {
    num_output: 36
    pad: 0
    stride: 1
    weight_filler {
      type: "xavier"
    }
    bias_filler {
      type: "constant"
    }
    kernel_h: 6
    kernel_w: 3
  }
}
layer {
  name: "relu4"
  type: "ReLU"
  bottom: "conv4"
  top: "conv4"
}
layer {
  name: "pool4"
  type: "Pooling"
  bottom: "conv4"
  top: "pool4"
  pooling_param {
    pool: MAX
    kernel_h: 2
    kernel_w: 1
    stride_h: 2
    stride_w: 1
  }
}
layer {
  name: "ip1"
  type: "InnerProduct"
  bottom: "pool4"
  top: "ip1"
  inner_product_param {
    num_output: 196
    weight_filler {
      type: "xavier"
    }
    bias_filler {
      type: "constant"
    }
  }
}
layer {
  name: "relu5"
  type: "ReLU"
  bottom: "ip1"
  top: "ip1"
}
layer {
  name: "drop1"
  type: "Dropout"
  bottom: "ip1"
  top: "ip1"
  dropout_param {
    dropout_ratio: 0.5
  }
}
layer {
  name: "ip2"
  type: "InnerProduct"
  bottom: "ip1"
  top: "ip2"
  inner_product_param {
    num_output: 98
    weight_filler {
      type: "xavier"
    }
    bias_filler {
      type: "constant"
    }
  }
}
layer {
  name: "relu6"
  type: "ReLU"
  bottom: "ip2"
  top: "ip2"
}
layer {
  name: "drop2"
  type: "Dropout"
  bottom: "ip2"
  top: "ip2"
  dropout_param {
    dropout_ratio: 0.5
  }
}
layer {
  name: "ip3"
  type: "InnerProduct"
  bottom: "ip2"
  top: "ip3"
  inner_product_param {
    num_output: 11
    weight_filler {
      type: "xavier"
    }
    bias_filler {
      type: "constant"
    }
  }
}
layer {
  name: "drop3"
  type: "Dropout"
  bottom: "ip3"
  top: "ip3"
  dropout_param {
    dropout_ratio: 0.5
  }
}
layer {
  name: "loss"
  type: "SoftmaxWithLoss"
  bottom: "ip3"
  bottom: "label"
  top: "loss"
}
I0523 09:56:14.546356  3765 layer_factory.hpp:77] Creating layer data_hdf5
I0523 09:56:14.546380  3765 net.cpp:106] Creating Layer data_hdf5
I0523 09:56:14.546394  3765 net.cpp:411] data_hdf5 -> data
I0523 09:56:14.546427  3765 net.cpp:411] data_hdf5 -> label
I0523 09:56:14.546459  3765 hdf5_data_layer.cpp:79] Loading list of HDF5 filenames from: /lustre/atlas/proj-shared/hep105/caffe_titan/minosmatch_nukecczdefs_127x50_x_unshifted_me1Bmc.trainlist
I0523 09:56:14.559372  3765 hdf5_data_layer.cpp:93] Number of HDF5 files: 15
I0523 09:56:14.561740  3765 hdf5.cpp:32] Datatype class: H5T_FLOAT
I0523 09:56:36.139578  3765 hdf5.cpp:35] Datatype class: H5T_INTEGER
I0523 09:56:36.144732  3765 net.cpp:150] Setting up data_hdf5
I0523 09:56:36.144773  3765 net.cpp:157] Top shape: 50 1 127 50 (317500)
I0523 09:56:36.144788  3765 net.cpp:157] Top shape: 50 (50)
I0523 09:56:36.144800  3765 net.cpp:165] Memory required for data: 1270200
I0523 09:56:36.144814  3765 layer_factory.hpp:77] Creating layer conv1
I0523 09:56:36.144846  3765 net.cpp:106] Creating Layer conv1
I0523 09:56:36.144858  3765 net.cpp:454] conv1 <- data
I0523 09:56:36.144878  3765 net.cpp:411] conv1 -> conv1
I0523 09:56:37.531289  3765 net.cpp:150] Setting up conv1
I0523 09:56:37.531337  3765 net.cpp:157] Top shape: 50 12 120 48 (3456000)
I0523 09:56:37.531347  3765 net.cpp:165] Memory required for data: 15094200
I0523 09:56:37.531378  3765 layer_factory.hpp:77] Creating layer relu1
I0523 09:56:37.531399  3765 net.cpp:106] Creating Layer relu1
I0523 09:56:37.531411  3765 net.cpp:454] relu1 <- conv1
I0523 09:56:37.531435  3765 net.cpp:397] relu1 -> conv1 (in-place)
I0523 09:56:37.531954  3765 net.cpp:150] Setting up relu1
I0523 09:56:37.531970  3765 net.cpp:157] Top shape: 50 12 120 48 (3456000)
I0523 09:56:37.531980  3765 net.cpp:165] Memory required for data: 28918200
I0523 09:56:37.531991  3765 layer_factory.hpp:77] Creating layer pool1
I0523 09:56:37.532007  3765 net.cpp:106] Creating Layer pool1
I0523 09:56:37.532017  3765 net.cpp:454] pool1 <- conv1
I0523 09:56:37.532030  3765 net.cpp:411] pool1 -> pool1
I0523 09:56:37.532110  3765 net.cpp:150] Setting up pool1
I0523 09:56:37.532124  3765 net.cpp:157] Top shape: 50 12 60 48 (1728000)
I0523 09:56:37.532135  3765 net.cpp:165] Memory required for data: 35830200
I0523 09:56:37.532145  3765 layer_factory.hpp:77] Creating layer conv2
I0523 09:56:37.532167  3765 net.cpp:106] Creating Layer conv2
I0523 09:56:37.532178  3765 net.cpp:454] conv2 <- pool1
I0523 09:56:37.532191  3765 net.cpp:411] conv2 -> conv2
I0523 09:56:37.534857  3765 net.cpp:150] Setting up conv2
I0523 09:56:37.534886  3765 net.cpp:157] Top shape: 50 20 54 46 (2484000)
I0523 09:56:37.534896  3765 net.cpp:165] Memory required for data: 45766200
I0523 09:56:37.534915  3765 layer_factory.hpp:77] Creating layer relu2
I0523 09:56:37.534930  3765 net.cpp:106] Creating Layer relu2
I0523 09:56:37.534940  3765 net.cpp:454] relu2 <- conv2
I0523 09:56:37.534952  3765 net.cpp:397] relu2 -> conv2 (in-place)
I0523 09:56:37.535284  3765 net.cpp:150] Setting up relu2
I0523 09:56:37.535297  3765 net.cpp:157] Top shape: 50 20 54 46 (2484000)
I0523 09:56:37.535307  3765 net.cpp:165] Memory required for data: 55702200
I0523 09:56:37.535317  3765 layer_factory.hpp:77] Creating layer pool2
I0523 09:56:37.535331  3765 net.cpp:106] Creating Layer pool2
I0523 09:56:37.535341  3765 net.cpp:454] pool2 <- conv2
I0523 09:56:37.535352  3765 net.cpp:411] pool2 -> pool2
I0523 09:56:37.535445  3765 net.cpp:150] Setting up pool2
I0523 09:56:37.535459  3765 net.cpp:157] Top shape: 50 20 27 46 (1242000)
I0523 09:56:37.535468  3765 net.cpp:165] Memory required for data: 60670200
I0523 09:56:37.535480  3765 layer_factory.hpp:77] Creating layer conv3
I0523 09:56:37.535497  3765 net.cpp:106] Creating Layer conv3
I0523 09:56:37.535508  3765 net.cpp:454] conv3 <- pool2
I0523 09:56:37.535522  3765 net.cpp:411] conv3 -> conv3
I0523 09:56:37.537457  3765 net.cpp:150] Setting up conv3
I0523 09:56:37.537477  3765 net.cpp:157] Top shape: 50 28 22 44 (1355200)
I0523 09:56:37.537487  3765 net.cpp:165] Memory required for data: 66091000
I0523 09:56:37.537505  3765 layer_factory.hpp:77] Creating layer relu3
I0523 09:56:37.537523  3765 net.cpp:106] Creating Layer relu3
I0523 09:56:37.537531  3765 net.cpp:454] relu3 <- conv3
I0523 09:56:37.537544  3765 net.cpp:397] relu3 -> conv3 (in-place)
I0523 09:56:37.538012  3765 net.cpp:150] Setting up relu3
I0523 09:56:37.538028  3765 net.cpp:157] Top shape: 50 28 22 44 (1355200)
I0523 09:56:37.538038  3765 net.cpp:165] Memory required for data: 71511800
I0523 09:56:37.538048  3765 layer_factory.hpp:77] Creating layer pool3
I0523 09:56:37.538061  3765 net.cpp:106] Creating Layer pool3
I0523 09:56:37.538071  3765 net.cpp:454] pool3 <- conv3
I0523 09:56:37.538084  3765 net.cpp:411] pool3 -> pool3
I0523 09:56:37.538151  3765 net.cpp:150] Setting up pool3
I0523 09:56:37.538164  3765 net.cpp:157] Top shape: 50 28 11 44 (677600)
I0523 09:56:37.538174  3765 net.cpp:165] Memory required for data: 74222200
I0523 09:56:37.538182  3765 layer_factory.hpp:77] Creating layer conv4
I0523 09:56:37.538199  3765 net.cpp:106] Creating Layer conv4
I0523 09:56:37.538210  3765 net.cpp:454] conv4 <- pool3
I0523 09:56:37.538223  3765 net.cpp:411] conv4 -> conv4
I0523 09:56:37.541004  3765 net.cpp:150] Setting up conv4
I0523 09:56:37.541033  3765 net.cpp:157] Top shape: 50 36 6 42 (453600)
I0523 09:56:37.541044  3765 net.cpp:165] Memory required for data: 76036600
I0523 09:56:37.541060  3765 layer_factory.hpp:77] Creating layer relu4
I0523 09:56:37.541074  3765 net.cpp:106] Creating Layer relu4
I0523 09:56:37.541085  3765 net.cpp:454] relu4 <- conv4
I0523 09:56:37.541097  3765 net.cpp:397] relu4 -> conv4 (in-place)
I0523 09:56:37.541566  3765 net.cpp:150] Setting up relu4
I0523 09:56:37.541582  3765 net.cpp:157] Top shape: 50 36 6 42 (453600)
I0523 09:56:37.541592  3765 net.cpp:165] Memory required for data: 77851000
I0523 09:56:37.541604  3765 layer_factory.hpp:77] Creating layer pool4
I0523 09:56:37.541616  3765 net.cpp:106] Creating Layer pool4
I0523 09:56:37.541626  3765 net.cpp:454] pool4 <- conv4
I0523 09:56:37.541640  3765 net.cpp:411] pool4 -> pool4
I0523 09:56:37.541707  3765 net.cpp:150] Setting up pool4
I0523 09:56:37.541721  3765 net.cpp:157] Top shape: 50 36 3 42 (226800)
I0523 09:56:37.541731  3765 net.cpp:165] Memory required for data: 78758200
I0523 09:56:37.541741  3765 layer_factory.hpp:77] Creating layer ip1
I0523 09:56:37.541762  3765 net.cpp:106] Creating Layer ip1
I0523 09:56:37.541772  3765 net.cpp:454] ip1 <- pool4
I0523 09:56:37.541786  3765 net.cpp:411] ip1 -> ip1
I0523 09:56:37.557243  3765 net.cpp:150] Setting up ip1
I0523 09:56:37.557272  3765 net.cpp:157] Top shape: 50 196 (9800)
I0523 09:56:37.557286  3765 net.cpp:165] Memory required for data: 78797400
I0523 09:56:37.557312  3765 layer_factory.hpp:77] Creating layer relu5
I0523 09:56:37.557327  3765 net.cpp:106] Creating Layer relu5
I0523 09:56:37.557337  3765 net.cpp:454] relu5 <- ip1
I0523 09:56:37.557353  3765 net.cpp:397] relu5 -> ip1 (in-place)
I0523 09:56:37.557698  3765 net.cpp:150] Setting up relu5
I0523 09:56:37.557713  3765 net.cpp:157] Top shape: 50 196 (9800)
I0523 09:56:37.557723  3765 net.cpp:165] Memory required for data: 78836600
I0523 09:56:37.557734  3765 layer_factory.hpp:77] Creating layer drop1
I0523 09:56:37.557754  3765 net.cpp:106] Creating Layer drop1
I0523 09:56:37.557765  3765 net.cpp:454] drop1 <- ip1
I0523 09:56:37.557777  3765 net.cpp:397] drop1 -> ip1 (in-place)
I0523 09:56:37.557837  3765 net.cpp:150] Setting up drop1
I0523 09:56:37.557850  3765 net.cpp:157] Top shape: 50 196 (9800)
I0523 09:56:37.557860  3765 net.cpp:165] Memory required for data: 78875800
I0523 09:56:37.557870  3765 layer_factory.hpp:77] Creating layer ip2
I0523 09:56:37.557888  3765 net.cpp:106] Creating Layer ip2
I0523 09:56:37.557899  3765 net.cpp:454] ip2 <- ip1
I0523 09:56:37.557912  3765 net.cpp:411] ip2 -> ip2
I0523 09:56:37.558374  3765 net.cpp:150] Setting up ip2
I0523 09:56:37.558388  3765 net.cpp:157] Top shape: 50 98 (4900)
I0523 09:56:37.558398  3765 net.cpp:165] Memory required for data: 78895400
I0523 09:56:37.558413  3765 layer_factory.hpp:77] Creating layer relu6
I0523 09:56:37.558425  3765 net.cpp:106] Creating Layer relu6
I0523 09:56:37.558434  3765 net.cpp:454] relu6 <- ip2
I0523 09:56:37.558447  3765 net.cpp:397] relu6 -> ip2 (in-place)
I0523 09:56:37.558964  3765 net.cpp:150] Setting up relu6
I0523 09:56:37.558981  3765 net.cpp:157] Top shape: 50 98 (4900)
I0523 09:56:37.558991  3765 net.cpp:165] Memory required for data: 78915000
I0523 09:56:37.559001  3765 layer_factory.hpp:77] Creating layer drop2
I0523 09:56:37.559015  3765 net.cpp:106] Creating Layer drop2
I0523 09:56:37.559025  3765 net.cpp:454] drop2 <- ip2
I0523 09:56:37.559037  3765 net.cpp:397] drop2 -> ip2 (in-place)
I0523 09:56:37.559079  3765 net.cpp:150] Setting up drop2
I0523 09:56:37.559092  3765 net.cpp:157] Top shape: 50 98 (4900)
I0523 09:56:37.559103  3765 net.cpp:165] Memory required for data: 78934600
I0523 09:56:37.559113  3765 layer_factory.hpp:77] Creating layer ip3
I0523 09:56:37.559126  3765 net.cpp:106] Creating Layer ip3
I0523 09:56:37.559136  3765 net.cpp:454] ip3 <- ip2
I0523 09:56:37.559149  3765 net.cpp:411] ip3 -> ip3
I0523 09:56:37.559360  3765 net.cpp:150] Setting up ip3
I0523 09:56:37.559372  3765 net.cpp:157] Top shape: 50 11 (550)
I0523 09:56:37.559381  3765 net.cpp:165] Memory required for data: 78936800
I0523 09:56:37.559396  3765 layer_factory.hpp:77] Creating layer drop3
I0523 09:56:37.559409  3765 net.cpp:106] Creating Layer drop3
I0523 09:56:37.559419  3765 net.cpp:454] drop3 <- ip3
I0523 09:56:37.559439  3765 net.cpp:397] drop3 -> ip3 (in-place)
I0523 09:56:37.559478  3765 net.cpp:150] Setting up drop3
I0523 09:56:37.559491  3765 net.cpp:157] Top shape: 50 11 (550)
I0523 09:56:37.559501  3765 net.cpp:165] Memory required for data: 78939000
I0523 09:56:37.559511  3765 layer_factory.hpp:77] Creating layer loss
I0523 09:56:37.559530  3765 net.cpp:106] Creating Layer loss
I0523 09:56:37.559540  3765 net.cpp:454] loss <- ip3
I0523 09:56:37.559551  3765 net.cpp:454] loss <- label
I0523 09:56:37.559563  3765 net.cpp:411] loss -> loss
I0523 09:56:37.559581  3765 layer_factory.hpp:77] Creating layer loss
…
I0523 09:56:37.562268  3765 solver.cpp:181] Creating test net (#0) specified by net file: /lustre/atlas/proj-shared/hep105/caffe_titan/caffe_workflow/logs_bslr/bs_50_lr_0.0045_2016-05-20T15.49.08.074792.prototxt
I0523 09:56:37.562340  3765 net.cpp:322] The NetState phase (1) differed from the phase (0) specified by a rule in layer data_hdf5
I0523 09:56:37.562698  3765 net.cpp:49] Initializing net from parameters: 
name: "caffe_test_127x50_x_unshifted"
state {
  phase: TEST
}
layer {
  name: "data_hdf5"
  type: "HDF5Data"
  top: "data"
  top: "label"
  include {
    phase: TEST
  }
  hdf5_data_param {
    source: "/lustre/atlas/proj-shared/hep105/caffe_titan/minosmatch_nukecczdefs_127x50_x_unshifted_me1Bmc.testlist"
    batch_size: 50
  }
}
layer {
  name: "conv1"
  type: "Convolution"
  bottom: "data"
  top: "conv1"
  convolution_param {
    num_output: 12
    pad: 0
    stride: 1
    weight_filler {
      type: "xavier"
    }
    bias_filler {
      type: "constant"
    }
    kernel_h: 8
    kernel_w: 3
  }
}
layer {
  name: "relu1"
  type: "ReLU"
  bottom: "conv1"
  top: "conv1"
}
layer {
  name: "pool1"
  type: "Pooling"
  bottom: "conv1"
  top: "pool1"
  pooling_param {
    pool: MAX
    kernel_h: 2
    kernel_w: 1
    stride_h: 2
    stride_w: 1
  }
}
layer {
  name: "conv2"
  type: "Convolution"
  bottom: "pool1"
  top: "conv2"
  convolution_param {
    num_output: 20
    pad: 0
    stride: 1
    weight_filler {
      type: "xavier"
    }
    bias_filler {
      type: "constant"
    }
    kernel_h: 7
    kernel_w: 3
  }
}
layer {
  name: "relu2"
  type: "ReLU"
  bottom: "conv2"
  top: "conv2"
}
layer {
  name: "pool2"
  type: "Pooling"
  bottom: "conv2"
  top: "pool2"
  pooling_param {
    pool: MAX
    kernel_h: 2
    kernel_w: 1
    stride_h: 2
    stride_w: 1
  }
}
layer {
  name: "conv3"
  type: "Convolution"
  bottom: "pool2"
  top: "conv3"
  convolution_param {
    num_output: 28
    pad: 0
    stride: 1
    weight_filler {
      type: "xavier"
    }
    bias_filler {
      type: "constant"
    }
    kernel_h: 6
    kernel_w: 3
  }
}
layer {
  name: "relu3"
  type: "ReLU"
  bottom: "conv3"
  top: "conv3"
}
layer {
  name: "pool3"
  type: "Pooling"
  bottom: "conv3"
  top: "pool3"
  pooling_param {
    pool: MAX
    kernel_h: 2
    kernel_w: 1
    stride_h: 2
    stride_w: 1
  }
}
layer {
  name: "conv4"
  type: "Convolution"
  bottom: "pool3"
  top: "conv4"
  convolution_param {
    num_output: 36
    pad: 0
    stride: 1
    weight_filler {
      type: "xavier"
    }
    bias_filler {
      type: "constant"
    }
    kernel_h: 6
    kernel_w: 3
  }
}
layer {
  name: "relu4"
  type: "ReLU"
  bottom: "conv4"
  top: "conv4"
}
layer {
  name: "pool4"
  type: "Pooling"
  bottom: "conv4"
  top: "pool4"
  pooling_param {
    pool: MAX
    kernel_h: 2
    kernel_w: 1
    stride_h: 2
    stride_w: 1
  }
}
layer {
  name: "ip1"
  type: "InnerProduct"
  bottom: "pool4"
  top: "ip1"
  inner_product_param {
    num_output: 196
    weight_filler {
      type: "xavier"
    }
    bias_filler {
      type: "constant"
    }
  }
}
layer {
  name: "relu5"
  type: "ReLU"
  bottom: "ip1"
  top: "ip1"
}
layer {
  name: "drop1"
  type: "Dropout"
  bottom: "ip1"
  top: "ip1"
  dropout_param {
    dropout_ratio: 0.5
  }
}
layer {
  name: "ip2"
  type: "InnerProduct"
  bottom: "ip1"
  top: "ip2"
  inner_product_param {
    num_output: 98
    weight_filler {
      type: "xavier"
    }
    bias_filler {
      type: "constant"
    }
  }
}
layer {
  name: "relu6"
  type: "ReLU"
  bottom: "ip2"
  top: "ip2"
}
layer {
  name: "drop2"
  type: "Dropout"
  bottom: "ip2"
  top: "ip2"
  dropout_param {
    dropout_ratio: 0.5
  }
}
layer {
  name: "ip3"
  type: "InnerProduct"
  bottom: "ip2"
  top: "ip3"
  inner_product_param {
    num_output: 11
    weight_filler {
      type: "xavier"
    }
    bias_filler {
      type: "constant"
    }
  }
}
layer {
  name: "drop3"
  type: "Dropout"
  bottom: "ip3"
  top: "ip3"
  dropout_param {
    dropout_ratio: 0.5
  }
}
layer {
  name: "accuracy"
  type: "Accuracy"
  bottom: "ip3"
  bottom: "label"
  top: "accuracy"
  include {
    phase: TEST
  }
}
layer {
  name: "loss"
  type: "SoftmaxWithLoss"
  bottom: "ip3"
  bottom: "label"
  top: "loss"
}
I0523 09:56:37.562887  3765 layer_factory.hpp:77] Creating layer data_hdf5
I0523 09:56:37.562902  3765 net.cpp:106] Creating Layer data_hdf5
I0523 09:56:37.562914  3765 net.cpp:411] data_hdf5 -> data
I0523 09:56:37.562932  3765 net.cpp:411] data_hdf5 -> label
I0523 09:56:37.562947  3765 hdf5_data_layer.cpp:79] Loading list of HDF5 filenames from: /lustre/atlas/proj-shared/hep105/caffe_titan/minosmatch_nukecczdefs_127x50_x_unshifted_me1Bmc.testlist
I0523 09:56:37.564270  3765 hdf5_data_layer.cpp:93] Number of HDF5 files: 3
I0523 09:56:58.938534  3765 net.cpp:150] Setting up data_hdf5
I0523 09:56:58.938701  3765 net.cpp:157] Top shape: 50 1 127 50 (317500)
I0523 09:56:58.938715  3765 net.cpp:157] Top shape: 50 (50)
I0523 09:56:58.938727  3765 net.cpp:165] Memory required for data: 1270200
I0523 09:56:58.938741  3765 layer_factory.hpp:77] Creating layer label_data_hdf5_1_split
I0523 09:56:58.938771  3765 net.cpp:106] Creating Layer label_data_hdf5_1_split
I0523 09:56:58.938781  3765 net.cpp:454] label_data_hdf5_1_split <- label
I0523 09:56:58.938796  3765 net.cpp:411] label_data_hdf5_1_split -> label_data_hdf5_1_split_0
I0523 09:56:58.938817  3765 net.cpp:411] label_data_hdf5_1_split -> label_data_hdf5_1_split_1
I0523 09:56:58.938889  3765 net.cpp:150] Setting up label_data_hdf5_1_split
I0523 09:56:58.938904  3765 net.cpp:157] Top shape: 50 (50)
I0523 09:56:58.938915  3765 net.cpp:157] Top shape: 50 (50)
I0523 09:56:58.938925  3765 net.cpp:165] Memory required for data: 1270600
I0523 09:56:58.938935  3765 layer_factory.hpp:77] Creating layer conv1
I0523 09:56:58.938957  3765 net.cpp:106] Creating Layer conv1
I0523 09:56:58.938967  3765 net.cpp:454] conv1 <- data
I0523 09:56:58.938982  3765 net.cpp:411] conv1 -> conv1
I0523 09:56:58.940930  3765 net.cpp:150] Setting up conv1
I0523 09:56:58.940955  3765 net.cpp:157] Top shape: 50 12 120 48 (3456000)
I0523 09:56:58.940965  3765 net.cpp:165] Memory required for data: 15094600
I0523 09:56:58.940987  3765 layer_factory.hpp:77] Creating layer relu1
I0523 09:56:58.941002  3765 net.cpp:106] Creating Layer relu1
I0523 09:56:58.941012  3765 net.cpp:454] relu1 <- conv1
I0523 09:56:58.941025  3765 net.cpp:397] relu1 -> conv1 (in-place)
I0523 09:56:58.941521  3765 net.cpp:150] Setting up relu1
I0523 09:56:58.941537  3765 net.cpp:157] Top shape: 50 12 120 48 (3456000)
I0523 09:56:58.941547  3765 net.cpp:165] Memory required for data: 28918600
I0523 09:56:58.941557  3765 layer_factory.hpp:77] Creating layer pool1
I0523 09:56:58.941575  3765 net.cpp:106] Creating Layer pool1
I0523 09:56:58.941584  3765 net.cpp:454] pool1 <- conv1
I0523 09:56:58.941597  3765 net.cpp:411] pool1 -> pool1
I0523 09:56:58.941673  3765 net.cpp:150] Setting up pool1
I0523 09:56:58.941685  3765 net.cpp:157] Top shape: 50 12 60 48 (1728000)
I0523 09:56:58.941695  3765 net.cpp:165] Memory required for data: 35830600
I0523 09:56:58.941705  3765 layer_factory.hpp:77] Creating layer conv2
I0523 09:56:58.941723  3765 net.cpp:106] Creating Layer conv2
I0523 09:56:58.941733  3765 net.cpp:454] conv2 <- pool1
I0523 09:56:58.941748  3765 net.cpp:411] conv2 -> conv2
I0523 09:56:58.943668  3765 net.cpp:150] Setting up conv2
I0523 09:56:58.943691  3765 net.cpp:157] Top shape: 50 20 54 46 (2484000)
I0523 09:56:58.943704  3765 net.cpp:165] Memory required for data: 45766600
I0523 09:56:58.943722  3765 layer_factory.hpp:77] Creating layer relu2
I0523 09:56:58.943734  3765 net.cpp:106] Creating Layer relu2
I0523 09:56:58.943744  3765 net.cpp:454] relu2 <- conv2
I0523 09:56:58.943758  3765 net.cpp:397] relu2 -> conv2 (in-place)
I0523 09:56:58.944087  3765 net.cpp:150] Setting up relu2
I0523 09:56:58.944100  3765 net.cpp:157] Top shape: 50 20 54 46 (2484000)
I0523 09:56:58.944110  3765 net.cpp:165] Memory required for data: 55702600
I0523 09:56:58.944120  3765 layer_factory.hpp:77] Creating layer pool2
I0523 09:56:58.944134  3765 net.cpp:106] Creating Layer pool2
I0523 09:56:58.944144  3765 net.cpp:454] pool2 <- conv2
I0523 09:56:58.944156  3765 net.cpp:411] pool2 -> pool2
I0523 09:56:58.944227  3765 net.cpp:150] Setting up pool2
I0523 09:56:58.944241  3765 net.cpp:157] Top shape: 50 20 27 46 (1242000)
I0523 09:56:58.944250  3765 net.cpp:165] Memory required for data: 60670600
I0523 09:56:58.944260  3765 layer_factory.hpp:77] Creating layer conv3
I0523 09:56:58.944278  3765 net.cpp:106] Creating Layer conv3
I0523 09:56:58.944288  3765 net.cpp:454] conv3 <- pool2
I0523 09:56:58.944301  3765 net.cpp:411] conv3 -> conv3
I0523 09:56:58.946269  3765 net.cpp:150] Setting up conv3
I0523 09:56:58.946292  3765 net.cpp:157] Top shape: 50 28 22 44 (1355200)
I0523 09:56:58.946303  3765 net.cpp:165] Memory required for data: 66091400
I0523 09:56:58.946336  3765 layer_factory.hpp:77] Creating layer relu3
I0523 09:56:58.946351  3765 net.cpp:106] Creating Layer relu3
I0523 09:56:58.946360  3765 net.cpp:454] relu3 <- conv3
I0523 09:56:58.946372  3765 net.cpp:397] relu3 -> conv3 (in-place)
I0523 09:56:58.946842  3765 net.cpp:150] Setting up relu3
I0523 09:56:58.946858  3765 net.cpp:157] Top shape: 50 28 22 44 (1355200)
I0523 09:56:58.946868  3765 net.cpp:165] Memory required for data: 71512200
I0523 09:56:58.946878  3765 layer_factory.hpp:77] Creating layer pool3
I0523 09:56:58.946892  3765 net.cpp:106] Creating Layer pool3
I0523 09:56:58.946902  3765 net.cpp:454] pool3 <- conv3
I0523 09:56:58.946914  3765 net.cpp:411] pool3 -> pool3
I0523 09:56:58.946985  3765 net.cpp:150] Setting up pool3
I0523 09:56:58.947000  3765 net.cpp:157] Top shape: 50 28 11 44 (677600)
I0523 09:56:58.947008  3765 net.cpp:165] Memory required for data: 74222600
I0523 09:56:58.947018  3765 layer_factory.hpp:77] Creating layer conv4
I0523 09:56:58.947034  3765 net.cpp:106] Creating Layer conv4
I0523 09:56:58.947044  3765 net.cpp:454] conv4 <- pool3
I0523 09:56:58.947058  3765 net.cpp:411] conv4 -> conv4
I0523 09:56:58.949126  3765 net.cpp:150] Setting up conv4
I0523 09:56:58.949149  3765 net.cpp:157] Top shape: 50 36 6 42 (453600)
I0523 09:56:58.949159  3765 net.cpp:165] Memory required for data: 76037000
I0523 09:56:58.949175  3765 layer_factory.hpp:77] Creating layer relu4
I0523 09:56:58.949189  3765 net.cpp:106] Creating Layer relu4
I0523 09:56:58.949199  3765 net.cpp:454] relu4 <- conv4
I0523 09:56:58.949213  3765 net.cpp:397] relu4 -> conv4 (in-place)
I0523 09:56:58.949687  3765 net.cpp:150] Setting up relu4
I0523 09:56:58.949702  3765 net.cpp:157] Top shape: 50 36 6 42 (453600)
I0523 09:56:58.949712  3765 net.cpp:165] Memory required for data: 77851400
I0523 09:56:58.949723  3765 layer_factory.hpp:77] Creating layer pool4
I0523 09:56:58.949736  3765 net.cpp:106] Creating Layer pool4
I0523 09:56:58.949746  3765 net.cpp:454] pool4 <- conv4
I0523 09:56:58.949759  3765 net.cpp:411] pool4 -> pool4
I0523 09:56:58.949831  3765 net.cpp:150] Setting up pool4
I0523 09:56:58.949843  3765 net.cpp:157] Top shape: 50 36 3 42 (226800)
I0523 09:56:58.949853  3765 net.cpp:165] Memory required for data: 78758600
I0523 09:56:58.949862  3765 layer_factory.hpp:77] Creating layer ip1
I0523 09:56:58.949877  3765 net.cpp:106] Creating Layer ip1
I0523 09:56:58.949887  3765 net.cpp:454] ip1 <- pool4
I0523 09:56:58.949900  3765 net.cpp:411] ip1 -> ip1
I0523 09:56:58.965440  3765 net.cpp:150] Setting up ip1
I0523 09:56:58.965468  3765 net.cpp:157] Top shape: 50 196 (9800)
I0523 09:56:58.965481  3765 net.cpp:165] Memory required for data: 78797800
I0523 09:56:58.965503  3765 layer_factory.hpp:77] Creating layer relu5
I0523 09:56:58.965518  3765 net.cpp:106] Creating Layer relu5
I0523 09:56:58.965529  3765 net.cpp:454] relu5 <- ip1
I0523 09:56:58.965543  3765 net.cpp:397] relu5 -> ip1 (in-place)
I0523 09:56:58.965890  3765 net.cpp:150] Setting up relu5
I0523 09:56:58.965904  3765 net.cpp:157] Top shape: 50 196 (9800)
I0523 09:56:58.965914  3765 net.cpp:165] Memory required for data: 78837000
I0523 09:56:58.965925  3765 layer_factory.hpp:77] Creating layer drop1
I0523 09:56:58.965944  3765 net.cpp:106] Creating Layer drop1
I0523 09:56:58.965953  3765 net.cpp:454] drop1 <- ip1
I0523 09:56:58.965966  3765 net.cpp:397] drop1 -> ip1 (in-place)
I0523 09:56:58.966012  3765 net.cpp:150] Setting up drop1
I0523 09:56:58.966024  3765 net.cpp:157] Top shape: 50 196 (9800)
I0523 09:56:58.966034  3765 net.cpp:165] Memory required for data: 78876200
I0523 09:56:58.966043  3765 layer_factory.hpp:77] Creating layer ip2
I0523 09:56:58.966058  3765 net.cpp:106] Creating Layer ip2
I0523 09:56:58.966068  3765 net.cpp:454] ip2 <- ip1
I0523 09:56:58.966081  3765 net.cpp:411] ip2 -> ip2
I0523 09:56:58.966560  3765 net.cpp:150] Setting up ip2
I0523 09:56:58.966573  3765 net.cpp:157] Top shape: 50 98 (4900)
I0523 09:56:58.966583  3765 net.cpp:165] Memory required for data: 78895800
I0523 09:56:58.966598  3765 layer_factory.hpp:77] Creating layer relu6
I0523 09:56:58.966624  3765 net.cpp:106] Creating Layer relu6
I0523 09:56:58.966634  3765 net.cpp:454] relu6 <- ip2
I0523 09:56:58.966647  3765 net.cpp:397] relu6 -> ip2 (in-place)
I0523 09:56:58.967183  3765 net.cpp:150] Setting up relu6
I0523 09:56:58.967206  3765 net.cpp:157] Top shape: 50 98 (4900)
I0523 09:56:58.967216  3765 net.cpp:165] Memory required for data: 78915400
I0523 09:56:58.967224  3765 layer_factory.hpp:77] Creating layer drop2
I0523 09:56:58.967238  3765 net.cpp:106] Creating Layer drop2
I0523 09:56:58.967248  3765 net.cpp:454] drop2 <- ip2
I0523 09:56:58.967262  3765 net.cpp:397] drop2 -> ip2 (in-place)
I0523 09:56:58.967306  3765 net.cpp:150] Setting up drop2
I0523 09:56:58.967319  3765 net.cpp:157] Top shape: 50 98 (4900)
I0523 09:56:58.967329  3765 net.cpp:165] Memory required for data: 78935000
I0523 09:56:58.967337  3765 layer_factory.hpp:77] Creating layer ip3
I0523 09:56:58.967352  3765 net.cpp:106] Creating Layer ip3
I0523 09:56:58.967362  3765 net.cpp:454] ip3 <- ip2
I0523 09:56:58.967375  3765 net.cpp:411] ip3 -> ip3
I0523 09:56:58.967607  3765 net.cpp:150] Setting up ip3
I0523 09:56:58.967620  3765 net.cpp:157] Top shape: 50 11 (550)
I0523 09:56:58.967629  3765 net.cpp:165] Memory required for data: 78937200
I0523 09:56:58.967644  3765 layer_factory.hpp:77] Creating layer drop3
I0523 09:56:58.967658  3765 net.cpp:106] Creating Layer drop3
I0523 09:56:58.967667  3765 net.cpp:454] drop3 <- ip3
I0523 09:56:58.967680  3765 net.cpp:397] drop3 -> ip3 (in-place)
I0523 09:56:58.967721  3765 net.cpp:150] Setting up drop3
I0523 09:56:58.967735  3765 net.cpp:157] Top shape: 50 11 (550)
I0523 09:56:58.967744  3765 net.cpp:165] Memory required for data: 78939400
I0523 09:56:58.967753  3765 layer_factory.hpp:77] Creating layer ip3_drop3_0_split
I0523 09:56:58.967767  3765 net.cpp:106] Creating Layer ip3_drop3_0_split
I0523 09:56:58.967777  3765 net.cpp:454] ip3_drop3_0_split <- ip3
I0523 09:56:58.967789  3765 net.cpp:411] ip3_drop3_0_split -> ip3_drop3_0_split_0
I0523 09:56:58.967804  3765 net.cpp:411] ip3_drop3_0_split -> ip3_drop3_0_split_1
I0523 09:56:58.967878  3765 net.cpp:150] Setting up ip3_drop3_0_split
I0523 09:56:58.967891  3765 net.cpp:157] Top shape: 50 11 (550)
I0523 09:56:58.967903  3765 net.cpp:157] Top shape: 50 11 (550)
I0523 09:56:58.967913  3765 net.cpp:165] Memory required for data: 78943800
I0523 09:56:58.967922  3765 layer_factory.hpp:77] Creating layer accuracy
I0523 09:56:58.967944  3765 net.cpp:106] Creating Layer accuracy
I0523 09:56:58.967954  3765 net.cpp:454] accuracy <- ip3_drop3_0_split_0
I0523 09:56:58.967965  3765 net.cpp:454] accuracy <- label_data_hdf5_1_split_0
I0523 09:56:58.967979  3765 net.cpp:411] accuracy -> accuracy
…
