…
I0523 04:15:33.350545  2943 net.cpp:322] The NetState phase (0) differed from the phase (1) specified by a rule in layer data_hdf5
I0523 04:15:33.350605  2943 net.cpp:322] The NetState phase (0) differed from the phase (1) specified by a rule in layer accuracy
I0523 04:15:33.350987  2943 net.cpp:49] Initializing net from parameters: 
name: "caffe_test_127x50_x_unshifted"
state {
  phase: TRAIN
}
layer {
  name: "data_hdf5"
  type: "HDF5Data"
  top: "data"
  top: "label"
  include {
    phase: TRAIN
  }
  hdf5_data_param {
    source: "/lustre/atlas/proj-shared/hep105/caffe_titan/minosmatch_nukecczdefs_127x50_x_unshifted_me1Bmc.trainlist"
    batch_size: 50
  }
}
layer {
  name: "conv1"
  type: "Convolution"
  bottom: "data"
  top: "conv1"
  convolution_param {
    num_output: 12
    pad: 0
    stride: 1
    weight_filler {
      type: "xavier"
    }
    bias_filler {
      type: "constant"
    }
    kernel_h: 8
    kernel_w: 3
  }
}
layer {
  name: "relu1"
  type: "ReLU"
  bottom: "conv1"
  top: "conv1"
}
layer {
  name: "pool1"
  type: "Pooling"
  bottom: "conv1"
  top: "pool1"
  pooling_param {
    pool: MAX
    kernel_h: 2
    kernel_w: 1
    stride_h: 2
    stride_w: 1
  }
}
layer {
  name: "conv2"
  type: "Convolution"
  bottom: "pool1"
  top: "conv2"
  convolution_param {
    num_output: 20
    pad: 0
    stride: 1
    weight_filler {
      type: "xavier"
    }
    bias_filler {
      type: "constant"
    }
    kernel_h: 7
    kernel_w: 3
  }
}
layer {
  name: "relu2"
  type: "ReLU"
  bottom: "conv2"
  top: "conv2"
}
layer {
  name: "pool2"
  type: "Pooling"
  bottom: "conv2"
  top: "pool2"
  pooling_param {
    pool: MAX
    kernel_h: 2
    kernel_w: 1
    stride_h: 2
    stride_w: 1
  }
}
layer {
  name: "conv3"
  type: "Convolution"
  bottom: "pool2"
  top: "conv3"
  convolution_param {
    num_output: 28
    pad: 0
    stride: 1
    weight_filler {
      type: "xavier"
    }
    bias_filler {
      type: "constant"
    }
    kernel_h: 6
    kernel_w: 3
  }
}
layer {
  name: "relu3"
  type: "ReLU"
  bottom: "conv3"
  top: "conv3"
}
layer {
  name: "pool3"
  type: "Pooling"
  bottom: "conv3"
  top: "pool3"
  pooling_param {
    pool: MAX
    kernel_h: 2
    kernel_w: 1
    stride_h: 2
    stride_w: 1
  }
}
layer {
  name: "conv4"
  type: "Convolution"
  bottom: "pool3"
  top: "conv4"
  convolution_param {
    num_output: 36
    pad: 0
    stride: 1
    weight_filler {
      type: "xavier"
    }
    bias_filler {
      type: "constant"
    }
    kernel_h: 6
    kernel_w: 3
  }
}
layer {
  name: "relu4"
  type: "ReLU"
  bottom: "conv4"
  top: "conv4"
}
layer {
  name: "pool4"
  type: "Pooling"
  bottom: "conv4"
  top: "pool4"
  pooling_param {
    pool: MAX
    kernel_h: 2
    kernel_w: 1
    stride_h: 2
    stride_w: 1
  }
}
layer {
  name: "ip1"
  type: "InnerProduct"
  bottom: "pool4"
  top: "ip1"
  inner_product_param {
    num_output: 196
    weight_filler {
      type: "xavier"
    }
    bias_filler {
      type: "constant"
    }
  }
}
layer {
  name: "relu5"
  type: "ReLU"
  bottom: "ip1"
  top: "ip1"
}
layer {
  name: "drop1"
  type: "Dropout"
  bottom: "ip1"
  top: "ip1"
  dropout_param {
    dropout_ratio: 0.5
  }
}
layer {
  name: "ip2"
  type: "InnerProduct"
  bottom: "ip1"
  top: "ip2"
  inner_product_param {
    num_output: 98
    weight_filler {
      type: "xavier"
    }
    bias_filler {
      type: "constant"
    }
  }
}
layer {
  name: "relu6"
  type: "ReLU"
  bottom: "ip2"
  top: "ip2"
}
layer {
  name: "drop2"
  type: "Dropout"
  bottom: "ip2"
  top: "ip2"
  dropout_param {
    dropout_ratio: 0.5
  }
}
layer {
  name: "ip3"
  type: "InnerProduct"
  bottom: "ip2"
  top: "ip3"
  inner_product_param {
    num_output: 11
    weight_filler {
      type: "xavier"
    }
    bias_filler {
      type: "constant"
    }
  }
}
layer {
  name: "drop3"
  type: "Dropout"
  bottom: "ip3"
  top: "ip3"
  dropout_param {
    dropout_ratio: 0.5
  }
}
layer {
  name: "loss"
  type: "SoftmaxWithLoss"
  bottom: "ip3"
  bottom: "label"
  top: "loss"
}
I0523 04:15:33.351168  2943 layer_factory.hpp:77] Creating layer data_hdf5
I0523 04:15:33.351192  2943 net.cpp:106] Creating Layer data_hdf5
I0523 04:15:33.351207  2943 net.cpp:411] data_hdf5 -> data
I0523 04:15:33.351241  2943 net.cpp:411] data_hdf5 -> label
I0523 04:15:33.351274  2943 hdf5_data_layer.cpp:79] Loading list of HDF5 filenames from: /lustre/atlas/proj-shared/hep105/caffe_titan/minosmatch_nukecczdefs_127x50_x_unshifted_me1Bmc.trainlist
I0523 04:15:33.352465  2943 hdf5_data_layer.cpp:93] Number of HDF5 files: 15
I0523 04:15:33.354619  2943 hdf5.cpp:32] Datatype class: H5T_FLOAT
I0523 04:15:54.876523  2943 hdf5.cpp:35] Datatype class: H5T_INTEGER
I0523 04:15:54.881597  2943 net.cpp:150] Setting up data_hdf5
I0523 04:15:54.881636  2943 net.cpp:157] Top shape: 50 1 127 50 (317500)
I0523 04:15:54.881651  2943 net.cpp:157] Top shape: 50 (50)
I0523 04:15:54.881664  2943 net.cpp:165] Memory required for data: 1270200
I0523 04:15:54.881676  2943 layer_factory.hpp:77] Creating layer conv1
I0523 04:15:54.881711  2943 net.cpp:106] Creating Layer conv1
I0523 04:15:54.881723  2943 net.cpp:454] conv1 <- data
I0523 04:15:54.881743  2943 net.cpp:411] conv1 -> conv1
I0523 04:15:55.242127  2943 net.cpp:150] Setting up conv1
I0523 04:15:55.242175  2943 net.cpp:157] Top shape: 50 12 120 48 (3456000)
I0523 04:15:55.242187  2943 net.cpp:165] Memory required for data: 15094200
I0523 04:15:55.242218  2943 layer_factory.hpp:77] Creating layer relu1
I0523 04:15:55.242238  2943 net.cpp:106] Creating Layer relu1
I0523 04:15:55.242249  2943 net.cpp:454] relu1 <- conv1
I0523 04:15:55.242264  2943 net.cpp:397] relu1 -> conv1 (in-place)
I0523 04:15:55.242784  2943 net.cpp:150] Setting up relu1
I0523 04:15:55.242800  2943 net.cpp:157] Top shape: 50 12 120 48 (3456000)
I0523 04:15:55.242811  2943 net.cpp:165] Memory required for data: 28918200
I0523 04:15:55.242821  2943 layer_factory.hpp:77] Creating layer pool1
I0523 04:15:55.242837  2943 net.cpp:106] Creating Layer pool1
I0523 04:15:55.242847  2943 net.cpp:454] pool1 <- conv1
I0523 04:15:55.242861  2943 net.cpp:411] pool1 -> pool1
I0523 04:15:55.242941  2943 net.cpp:150] Setting up pool1
I0523 04:15:55.242955  2943 net.cpp:157] Top shape: 50 12 60 48 (1728000)
I0523 04:15:55.242965  2943 net.cpp:165] Memory required for data: 35830200
I0523 04:15:55.242975  2943 layer_factory.hpp:77] Creating layer conv2
I0523 04:15:55.242996  2943 net.cpp:106] Creating Layer conv2
I0523 04:15:55.243007  2943 net.cpp:454] conv2 <- pool1
I0523 04:15:55.243021  2943 net.cpp:411] conv2 -> conv2
I0523 04:15:55.245704  2943 net.cpp:150] Setting up conv2
I0523 04:15:55.245733  2943 net.cpp:157] Top shape: 50 20 54 46 (2484000)
I0523 04:15:55.245743  2943 net.cpp:165] Memory required for data: 45766200
I0523 04:15:55.245762  2943 layer_factory.hpp:77] Creating layer relu2
I0523 04:15:55.245776  2943 net.cpp:106] Creating Layer relu2
I0523 04:15:55.245787  2943 net.cpp:454] relu2 <- conv2
I0523 04:15:55.245800  2943 net.cpp:397] relu2 -> conv2 (in-place)
I0523 04:15:55.246131  2943 net.cpp:150] Setting up relu2
I0523 04:15:55.246145  2943 net.cpp:157] Top shape: 50 20 54 46 (2484000)
I0523 04:15:55.246156  2943 net.cpp:165] Memory required for data: 55702200
I0523 04:15:55.246166  2943 layer_factory.hpp:77] Creating layer pool2
I0523 04:15:55.246179  2943 net.cpp:106] Creating Layer pool2
I0523 04:15:55.246188  2943 net.cpp:454] pool2 <- conv2
I0523 04:15:55.246201  2943 net.cpp:411] pool2 -> pool2
I0523 04:15:55.246284  2943 net.cpp:150] Setting up pool2
I0523 04:15:55.246297  2943 net.cpp:157] Top shape: 50 20 27 46 (1242000)
I0523 04:15:55.246306  2943 net.cpp:165] Memory required for data: 60670200
I0523 04:15:55.246315  2943 layer_factory.hpp:77] Creating layer conv3
I0523 04:15:55.246333  2943 net.cpp:106] Creating Layer conv3
I0523 04:15:55.246345  2943 net.cpp:454] conv3 <- pool2
I0523 04:15:55.246359  2943 net.cpp:411] conv3 -> conv3
I0523 04:15:55.248314  2943 net.cpp:150] Setting up conv3
I0523 04:15:55.248338  2943 net.cpp:157] Top shape: 50 28 22 44 (1355200)
I0523 04:15:55.248350  2943 net.cpp:165] Memory required for data: 66091000
I0523 04:15:55.248368  2943 layer_factory.hpp:77] Creating layer relu3
I0523 04:15:55.248385  2943 net.cpp:106] Creating Layer relu3
I0523 04:15:55.248395  2943 net.cpp:454] relu3 <- conv3
I0523 04:15:55.248407  2943 net.cpp:397] relu3 -> conv3 (in-place)
I0523 04:15:55.248879  2943 net.cpp:150] Setting up relu3
I0523 04:15:55.248896  2943 net.cpp:157] Top shape: 50 28 22 44 (1355200)
I0523 04:15:55.248906  2943 net.cpp:165] Memory required for data: 71511800
I0523 04:15:55.248917  2943 layer_factory.hpp:77] Creating layer pool3
I0523 04:15:55.248930  2943 net.cpp:106] Creating Layer pool3
I0523 04:15:55.248939  2943 net.cpp:454] pool3 <- conv3
I0523 04:15:55.248952  2943 net.cpp:411] pool3 -> pool3
I0523 04:15:55.249020  2943 net.cpp:150] Setting up pool3
I0523 04:15:55.249033  2943 net.cpp:157] Top shape: 50 28 11 44 (677600)
I0523 04:15:55.249043  2943 net.cpp:165] Memory required for data: 74222200
I0523 04:15:55.249053  2943 layer_factory.hpp:77] Creating layer conv4
I0523 04:15:55.249068  2943 net.cpp:106] Creating Layer conv4
I0523 04:15:55.249078  2943 net.cpp:454] conv4 <- pool3
I0523 04:15:55.249092  2943 net.cpp:411] conv4 -> conv4
I0523 04:15:55.251859  2943 net.cpp:150] Setting up conv4
I0523 04:15:55.251886  2943 net.cpp:157] Top shape: 50 36 6 42 (453600)
I0523 04:15:55.251899  2943 net.cpp:165] Memory required for data: 76036600
I0523 04:15:55.251914  2943 layer_factory.hpp:77] Creating layer relu4
I0523 04:15:55.251929  2943 net.cpp:106] Creating Layer relu4
I0523 04:15:55.251938  2943 net.cpp:454] relu4 <- conv4
I0523 04:15:55.251952  2943 net.cpp:397] relu4 -> conv4 (in-place)
I0523 04:15:55.252425  2943 net.cpp:150] Setting up relu4
I0523 04:15:55.252441  2943 net.cpp:157] Top shape: 50 36 6 42 (453600)
I0523 04:15:55.252452  2943 net.cpp:165] Memory required for data: 77851000
I0523 04:15:55.252462  2943 layer_factory.hpp:77] Creating layer pool4
I0523 04:15:55.252475  2943 net.cpp:106] Creating Layer pool4
I0523 04:15:55.252485  2943 net.cpp:454] pool4 <- conv4
I0523 04:15:55.252498  2943 net.cpp:411] pool4 -> pool4
I0523 04:15:55.252567  2943 net.cpp:150] Setting up pool4
I0523 04:15:55.252580  2943 net.cpp:157] Top shape: 50 36 3 42 (226800)
I0523 04:15:55.252590  2943 net.cpp:165] Memory required for data: 78758200
I0523 04:15:55.252600  2943 layer_factory.hpp:77] Creating layer ip1
I0523 04:15:55.252619  2943 net.cpp:106] Creating Layer ip1
I0523 04:15:55.252630  2943 net.cpp:454] ip1 <- pool4
I0523 04:15:55.252643  2943 net.cpp:411] ip1 -> ip1
I0523 04:15:55.268035  2943 net.cpp:150] Setting up ip1
I0523 04:15:55.268062  2943 net.cpp:157] Top shape: 50 196 (9800)
I0523 04:15:55.268076  2943 net.cpp:165] Memory required for data: 78797400
I0523 04:15:55.268098  2943 layer_factory.hpp:77] Creating layer relu5
I0523 04:15:55.268113  2943 net.cpp:106] Creating Layer relu5
I0523 04:15:55.268123  2943 net.cpp:454] relu5 <- ip1
I0523 04:15:55.268136  2943 net.cpp:397] relu5 -> ip1 (in-place)
I0523 04:15:55.268479  2943 net.cpp:150] Setting up relu5
I0523 04:15:55.268493  2943 net.cpp:157] Top shape: 50 196 (9800)
I0523 04:15:55.268504  2943 net.cpp:165] Memory required for data: 78836600
I0523 04:15:55.268514  2943 layer_factory.hpp:77] Creating layer drop1
I0523 04:15:55.268535  2943 net.cpp:106] Creating Layer drop1
I0523 04:15:55.268546  2943 net.cpp:454] drop1 <- ip1
I0523 04:15:55.268559  2943 net.cpp:397] drop1 -> ip1 (in-place)
I0523 04:15:55.268618  2943 net.cpp:150] Setting up drop1
I0523 04:15:55.268632  2943 net.cpp:157] Top shape: 50 196 (9800)
I0523 04:15:55.268642  2943 net.cpp:165] Memory required for data: 78875800
I0523 04:15:55.268652  2943 layer_factory.hpp:77] Creating layer ip2
I0523 04:15:55.268671  2943 net.cpp:106] Creating Layer ip2
I0523 04:15:55.268682  2943 net.cpp:454] ip2 <- ip1
I0523 04:15:55.268695  2943 net.cpp:411] ip2 -> ip2
I0523 04:15:55.269160  2943 net.cpp:150] Setting up ip2
I0523 04:15:55.269173  2943 net.cpp:157] Top shape: 50 98 (4900)
I0523 04:15:55.269183  2943 net.cpp:165] Memory required for data: 78895400
I0523 04:15:55.269198  2943 layer_factory.hpp:77] Creating layer relu6
I0523 04:15:55.269212  2943 net.cpp:106] Creating Layer relu6
I0523 04:15:55.269222  2943 net.cpp:454] relu6 <- ip2
I0523 04:15:55.269234  2943 net.cpp:397] relu6 -> ip2 (in-place)
I0523 04:15:55.269749  2943 net.cpp:150] Setting up relu6
I0523 04:15:55.269765  2943 net.cpp:157] Top shape: 50 98 (4900)
I0523 04:15:55.269775  2943 net.cpp:165] Memory required for data: 78915000
I0523 04:15:55.269862  2943 layer_factory.hpp:77] Creating layer drop2
I0523 04:15:55.269876  2943 net.cpp:106] Creating Layer drop2
I0523 04:15:55.269886  2943 net.cpp:454] drop2 <- ip2
I0523 04:15:55.269899  2943 net.cpp:397] drop2 -> ip2 (in-place)
I0523 04:15:55.269943  2943 net.cpp:150] Setting up drop2
I0523 04:15:55.269958  2943 net.cpp:157] Top shape: 50 98 (4900)
I0523 04:15:55.269968  2943 net.cpp:165] Memory required for data: 78934600
I0523 04:15:55.269978  2943 layer_factory.hpp:77] Creating layer ip3
I0523 04:15:55.269991  2943 net.cpp:106] Creating Layer ip3
I0523 04:15:55.270001  2943 net.cpp:454] ip3 <- ip2
I0523 04:15:55.270015  2943 net.cpp:411] ip3 -> ip3
I0523 04:15:55.270223  2943 net.cpp:150] Setting up ip3
I0523 04:15:55.270237  2943 net.cpp:157] Top shape: 50 11 (550)
I0523 04:15:55.270247  2943 net.cpp:165] Memory required for data: 78936800
I0523 04:15:55.270262  2943 layer_factory.hpp:77] Creating layer drop3
I0523 04:15:55.270275  2943 net.cpp:106] Creating Layer drop3
I0523 04:15:55.270285  2943 net.cpp:454] drop3 <- ip3
I0523 04:15:55.270298  2943 net.cpp:397] drop3 -> ip3 (in-place)
I0523 04:15:55.270336  2943 net.cpp:150] Setting up drop3
I0523 04:15:55.270349  2943 net.cpp:157] Top shape: 50 11 (550)
I0523 04:15:55.270359  2943 net.cpp:165] Memory required for data: 78939000
I0523 04:15:55.270370  2943 layer_factory.hpp:77] Creating layer loss
I0523 04:15:55.270390  2943 net.cpp:106] Creating Layer loss
I0523 04:15:55.270400  2943 net.cpp:454] loss <- ip3
I0523 04:15:55.270411  2943 net.cpp:454] loss <- label
I0523 04:15:55.270422  2943 net.cpp:411] loss -> loss
I0523 04:15:55.270439  2943 layer_factory.hpp:77] Creating layer loss
…
I0523 04:15:55.273098  2943 solver.cpp:181] Creating test net (#0) specified by net file: /lustre/atlas/proj-shared/hep105/caffe_titan/caffe_workflow/logs_bslr/bs_50_lr_0.0020_2016-05-20T15.49.05.949969.prototxt
I0523 04:15:55.273169  2943 net.cpp:322] The NetState phase (1) differed from the phase (0) specified by a rule in layer data_hdf5
I0523 04:15:55.273524  2943 net.cpp:49] Initializing net from parameters: 
name: "caffe_test_127x50_x_unshifted"
state {
  phase: TEST
}
layer {
  name: "data_hdf5"
  type: "HDF5Data"
  top: "data"
  top: "label"
  include {
    phase: TEST
  }
  hdf5_data_param {
    source: "/lustre/atlas/proj-shared/hep105/caffe_titan/minosmatch_nukecczdefs_127x50_x_unshifted_me1Bmc.testlist"
    batch_size: 50
  }
}
layer {
  name: "conv1"
  type: "Convolution"
  bottom: "data"
  top: "conv1"
  convolution_param {
    num_output: 12
    pad: 0
    stride: 1
    weight_filler {
      type: "xavier"
    }
    bias_filler {
      type: "constant"
    }
    kernel_h: 8
    kernel_w: 3
  }
}
layer {
  name: "relu1"
  type: "ReLU"
  bottom: "conv1"
  top: "conv1"
}
layer {
  name: "pool1"
  type: "Pooling"
  bottom: "conv1"
  top: "pool1"
  pooling_param {
    pool: MAX
    kernel_h: 2
    kernel_w: 1
    stride_h: 2
    stride_w: 1
  }
}
layer {
  name: "conv2"
  type: "Convolution"
  bottom: "pool1"
  top: "conv2"
  convolution_param {
    num_output: 20
    pad: 0
    stride: 1
    weight_filler {
      type: "xavier"
    }
    bias_filler {
      type: "constant"
    }
    kernel_h: 7
    kernel_w: 3
  }
}
layer {
  name: "relu2"
  type: "ReLU"
  bottom: "conv2"
  top: "conv2"
}
layer {
  name: "pool2"
  type: "Pooling"
  bottom: "conv2"
  top: "pool2"
  pooling_param {
    pool: MAX
    kernel_h: 2
    kernel_w: 1
    stride_h: 2
    stride_w: 1
  }
}
layer {
  name: "conv3"
  type: "Convolution"
  bottom: "pool2"
  top: "conv3"
  convolution_param {
    num_output: 28
    pad: 0
    stride: 1
    weight_filler {
      type: "xavier"
    }
    bias_filler {
      type: "constant"
    }
    kernel_h: 6
    kernel_w: 3
  }
}
layer {
  name: "relu3"
  type: "ReLU"
  bottom: "conv3"
  top: "conv3"
}
layer {
  name: "pool3"
  type: "Pooling"
  bottom: "conv3"
  top: "pool3"
  pooling_param {
    pool: MAX
    kernel_h: 2
    kernel_w: 1
    stride_h: 2
    stride_w: 1
  }
}
layer {
  name: "conv4"
  type: "Convolution"
  bottom: "pool3"
  top: "conv4"
  convolution_param {
    num_output: 36
    pad: 0
    stride: 1
    weight_filler {
      type: "xavier"
    }
    bias_filler {
      type: "constant"
    }
    kernel_h: 6
    kernel_w: 3
  }
}
layer {
  name: "relu4"
  type: "ReLU"
  bottom: "conv4"
  top: "conv4"
}
layer {
  name: "pool4"
  type: "Pooling"
  bottom: "conv4"
  top: "pool4"
  pooling_param {
    pool: MAX
    kernel_h: 2
    kernel_w: 1
    stride_h: 2
    stride_w: 1
  }
}
layer {
  name: "ip1"
  type: "InnerProduct"
  bottom: "pool4"
  top: "ip1"
  inner_product_param {
    num_output: 196
    weight_filler {
      type: "xavier"
    }
    bias_filler {
      type: "constant"
    }
  }
}
layer {
  name: "relu5"
  type: "ReLU"
  bottom: "ip1"
  top: "ip1"
}
layer {
  name: "drop1"
  type: "Dropout"
  bottom: "ip1"
  top: "ip1"
  dropout_param {
    dropout_ratio: 0.5
  }
}
layer {
  name: "ip2"
  type: "InnerProduct"
  bottom: "ip1"
  top: "ip2"
  inner_product_param {
    num_output: 98
    weight_filler {
      type: "xavier"
    }
    bias_filler {
      type: "constant"
    }
  }
}
layer {
  name: "relu6"
  type: "ReLU"
  bottom: "ip2"
  top: "ip2"
}
layer {
  name: "drop2"
  type: "Dropout"
  bottom: "ip2"
  top: "ip2"
  dropout_param {
    dropout_ratio: 0.5
  }
}
layer {
  name: "ip3"
  type: "InnerProduct"
  bottom: "ip2"
  top: "ip3"
  inner_product_param {
    num_output: 11
    weight_filler {
      type: "xavier"
    }
    bias_filler {
      type: "constant"
    }
  }
}
layer {
  name: "drop3"
  type: "Dropout"
  bottom: "ip3"
  top: "ip3"
  dropout_param {
    dropout_ratio: 0.5
  }
}
layer {
  name: "accuracy"
  type: "Accuracy"
  bottom: "ip3"
  bottom: "label"
  top: "accuracy"
  include {
    phase: TEST
  }
}
layer {
  name: "loss"
  type: "SoftmaxWithLoss"
  bottom: "ip3"
  bottom: "label"
  top: "loss"
}
I0523 04:15:55.273716  2943 layer_factory.hpp:77] Creating layer data_hdf5
I0523 04:15:55.273732  2943 net.cpp:106] Creating Layer data_hdf5
I0523 04:15:55.273744  2943 net.cpp:411] data_hdf5 -> data
I0523 04:15:55.273761  2943 net.cpp:411] data_hdf5 -> label
I0523 04:15:55.273777  2943 hdf5_data_layer.cpp:79] Loading list of HDF5 filenames from: /lustre/atlas/proj-shared/hep105/caffe_titan/minosmatch_nukecczdefs_127x50_x_unshifted_me1Bmc.testlist
I0523 04:15:55.275022  2943 hdf5_data_layer.cpp:93] Number of HDF5 files: 3
I0523 04:16:16.583067  2943 net.cpp:150] Setting up data_hdf5
I0523 04:16:16.583233  2943 net.cpp:157] Top shape: 50 1 127 50 (317500)
I0523 04:16:16.583248  2943 net.cpp:157] Top shape: 50 (50)
I0523 04:16:16.583261  2943 net.cpp:165] Memory required for data: 1270200
I0523 04:16:16.583276  2943 layer_factory.hpp:77] Creating layer label_data_hdf5_1_split
I0523 04:16:16.583304  2943 net.cpp:106] Creating Layer label_data_hdf5_1_split
I0523 04:16:16.583314  2943 net.cpp:454] label_data_hdf5_1_split <- label
I0523 04:16:16.583330  2943 net.cpp:411] label_data_hdf5_1_split -> label_data_hdf5_1_split_0
I0523 04:16:16.583359  2943 net.cpp:411] label_data_hdf5_1_split -> label_data_hdf5_1_split_1
I0523 04:16:16.583431  2943 net.cpp:150] Setting up label_data_hdf5_1_split
I0523 04:16:16.583444  2943 net.cpp:157] Top shape: 50 (50)
I0523 04:16:16.583456  2943 net.cpp:157] Top shape: 50 (50)
I0523 04:16:16.583465  2943 net.cpp:165] Memory required for data: 1270600
I0523 04:16:16.583475  2943 layer_factory.hpp:77] Creating layer conv1
I0523 04:16:16.583498  2943 net.cpp:106] Creating Layer conv1
I0523 04:16:16.583508  2943 net.cpp:454] conv1 <- data
I0523 04:16:16.583523  2943 net.cpp:411] conv1 -> conv1
I0523 04:16:16.585433  2943 net.cpp:150] Setting up conv1
I0523 04:16:16.585453  2943 net.cpp:157] Top shape: 50 12 120 48 (3456000)
I0523 04:16:16.585464  2943 net.cpp:165] Memory required for data: 15094600
I0523 04:16:16.585485  2943 layer_factory.hpp:77] Creating layer relu1
I0523 04:16:16.585500  2943 net.cpp:106] Creating Layer relu1
I0523 04:16:16.585510  2943 net.cpp:454] relu1 <- conv1
I0523 04:16:16.585525  2943 net.cpp:397] relu1 -> conv1 (in-place)
I0523 04:16:16.586017  2943 net.cpp:150] Setting up relu1
I0523 04:16:16.586035  2943 net.cpp:157] Top shape: 50 12 120 48 (3456000)
I0523 04:16:16.586045  2943 net.cpp:165] Memory required for data: 28918600
I0523 04:16:16.586055  2943 layer_factory.hpp:77] Creating layer pool1
I0523 04:16:16.586071  2943 net.cpp:106] Creating Layer pool1
I0523 04:16:16.586081  2943 net.cpp:454] pool1 <- conv1
I0523 04:16:16.586094  2943 net.cpp:411] pool1 -> pool1
I0523 04:16:16.586168  2943 net.cpp:150] Setting up pool1
I0523 04:16:16.586180  2943 net.cpp:157] Top shape: 50 12 60 48 (1728000)
I0523 04:16:16.586190  2943 net.cpp:165] Memory required for data: 35830600
I0523 04:16:16.586199  2943 layer_factory.hpp:77] Creating layer conv2
I0523 04:16:16.586217  2943 net.cpp:106] Creating Layer conv2
I0523 04:16:16.586227  2943 net.cpp:454] conv2 <- pool1
I0523 04:16:16.586242  2943 net.cpp:411] conv2 -> conv2
I0523 04:16:16.588162  2943 net.cpp:150] Setting up conv2
I0523 04:16:16.588186  2943 net.cpp:157] Top shape: 50 20 54 46 (2484000)
I0523 04:16:16.588197  2943 net.cpp:165] Memory required for data: 45766600
I0523 04:16:16.588214  2943 layer_factory.hpp:77] Creating layer relu2
I0523 04:16:16.588228  2943 net.cpp:106] Creating Layer relu2
I0523 04:16:16.588238  2943 net.cpp:454] relu2 <- conv2
I0523 04:16:16.588251  2943 net.cpp:397] relu2 -> conv2 (in-place)
I0523 04:16:16.588582  2943 net.cpp:150] Setting up relu2
I0523 04:16:16.588596  2943 net.cpp:157] Top shape: 50 20 54 46 (2484000)
I0523 04:16:16.588608  2943 net.cpp:165] Memory required for data: 55702600
I0523 04:16:16.588618  2943 layer_factory.hpp:77] Creating layer pool2
I0523 04:16:16.588630  2943 net.cpp:106] Creating Layer pool2
I0523 04:16:16.588641  2943 net.cpp:454] pool2 <- conv2
I0523 04:16:16.588654  2943 net.cpp:411] pool2 -> pool2
I0523 04:16:16.588724  2943 net.cpp:150] Setting up pool2
I0523 04:16:16.588738  2943 net.cpp:157] Top shape: 50 20 27 46 (1242000)
I0523 04:16:16.588747  2943 net.cpp:165] Memory required for data: 60670600
I0523 04:16:16.588757  2943 layer_factory.hpp:77] Creating layer conv3
I0523 04:16:16.588776  2943 net.cpp:106] Creating Layer conv3
I0523 04:16:16.588788  2943 net.cpp:454] conv3 <- pool2
I0523 04:16:16.588803  2943 net.cpp:411] conv3 -> conv3
I0523 04:16:16.590767  2943 net.cpp:150] Setting up conv3
I0523 04:16:16.590791  2943 net.cpp:157] Top shape: 50 28 22 44 (1355200)
I0523 04:16:16.590802  2943 net.cpp:165] Memory required for data: 66091400
I0523 04:16:16.590837  2943 layer_factory.hpp:77] Creating layer relu3
I0523 04:16:16.590849  2943 net.cpp:106] Creating Layer relu3
I0523 04:16:16.590860  2943 net.cpp:454] relu3 <- conv3
I0523 04:16:16.590873  2943 net.cpp:397] relu3 -> conv3 (in-place)
I0523 04:16:16.591351  2943 net.cpp:150] Setting up relu3
I0523 04:16:16.591366  2943 net.cpp:157] Top shape: 50 28 22 44 (1355200)
I0523 04:16:16.591377  2943 net.cpp:165] Memory required for data: 71512200
I0523 04:16:16.591387  2943 layer_factory.hpp:77] Creating layer pool3
I0523 04:16:16.591400  2943 net.cpp:106] Creating Layer pool3
I0523 04:16:16.591410  2943 net.cpp:454] pool3 <- conv3
I0523 04:16:16.591423  2943 net.cpp:411] pool3 -> pool3
I0523 04:16:16.591495  2943 net.cpp:150] Setting up pool3
I0523 04:16:16.591509  2943 net.cpp:157] Top shape: 50 28 11 44 (677600)
I0523 04:16:16.591519  2943 net.cpp:165] Memory required for data: 74222600
I0523 04:16:16.591529  2943 layer_factory.hpp:77] Creating layer conv4
I0523 04:16:16.591545  2943 net.cpp:106] Creating Layer conv4
I0523 04:16:16.591557  2943 net.cpp:454] conv4 <- pool3
I0523 04:16:16.591570  2943 net.cpp:411] conv4 -> conv4
I0523 04:16:16.593622  2943 net.cpp:150] Setting up conv4
I0523 04:16:16.593641  2943 net.cpp:157] Top shape: 50 36 6 42 (453600)
I0523 04:16:16.593652  2943 net.cpp:165] Memory required for data: 76037000
I0523 04:16:16.593667  2943 layer_factory.hpp:77] Creating layer relu4
I0523 04:16:16.593680  2943 net.cpp:106] Creating Layer relu4
I0523 04:16:16.593690  2943 net.cpp:454] relu4 <- conv4
I0523 04:16:16.593703  2943 net.cpp:397] relu4 -> conv4 (in-place)
I0523 04:16:16.594182  2943 net.cpp:150] Setting up relu4
I0523 04:16:16.594197  2943 net.cpp:157] Top shape: 50 36 6 42 (453600)
I0523 04:16:16.594208  2943 net.cpp:165] Memory required for data: 77851400
I0523 04:16:16.594218  2943 layer_factory.hpp:77] Creating layer pool4
I0523 04:16:16.594231  2943 net.cpp:106] Creating Layer pool4
I0523 04:16:16.594241  2943 net.cpp:454] pool4 <- conv4
I0523 04:16:16.594255  2943 net.cpp:411] pool4 -> pool4
I0523 04:16:16.594324  2943 net.cpp:150] Setting up pool4
I0523 04:16:16.594338  2943 net.cpp:157] Top shape: 50 36 3 42 (226800)
I0523 04:16:16.594348  2943 net.cpp:165] Memory required for data: 78758600
I0523 04:16:16.594358  2943 layer_factory.hpp:77] Creating layer ip1
I0523 04:16:16.594372  2943 net.cpp:106] Creating Layer ip1
I0523 04:16:16.594383  2943 net.cpp:454] ip1 <- pool4
I0523 04:16:16.594395  2943 net.cpp:411] ip1 -> ip1
I0523 04:16:16.609863  2943 net.cpp:150] Setting up ip1
I0523 04:16:16.609891  2943 net.cpp:157] Top shape: 50 196 (9800)
I0523 04:16:16.609904  2943 net.cpp:165] Memory required for data: 78797800
I0523 04:16:16.609925  2943 layer_factory.hpp:77] Creating layer relu5
I0523 04:16:16.609941  2943 net.cpp:106] Creating Layer relu5
I0523 04:16:16.609951  2943 net.cpp:454] relu5 <- ip1
I0523 04:16:16.609964  2943 net.cpp:397] relu5 -> ip1 (in-place)
I0523 04:16:16.610311  2943 net.cpp:150] Setting up relu5
I0523 04:16:16.610324  2943 net.cpp:157] Top shape: 50 196 (9800)
I0523 04:16:16.610334  2943 net.cpp:165] Memory required for data: 78837000
I0523 04:16:16.610344  2943 layer_factory.hpp:77] Creating layer drop1
I0523 04:16:16.610365  2943 net.cpp:106] Creating Layer drop1
I0523 04:16:16.610375  2943 net.cpp:454] drop1 <- ip1
I0523 04:16:16.610389  2943 net.cpp:397] drop1 -> ip1 (in-place)
I0523 04:16:16.610435  2943 net.cpp:150] Setting up drop1
I0523 04:16:16.610448  2943 net.cpp:157] Top shape: 50 196 (9800)
I0523 04:16:16.610458  2943 net.cpp:165] Memory required for data: 78876200
I0523 04:16:16.610468  2943 layer_factory.hpp:77] Creating layer ip2
I0523 04:16:16.610482  2943 net.cpp:106] Creating Layer ip2
I0523 04:16:16.610493  2943 net.cpp:454] ip2 <- ip1
I0523 04:16:16.610504  2943 net.cpp:411] ip2 -> ip2
I0523 04:16:16.610982  2943 net.cpp:150] Setting up ip2
I0523 04:16:16.610996  2943 net.cpp:157] Top shape: 50 98 (4900)
I0523 04:16:16.611006  2943 net.cpp:165] Memory required for data: 78895800
I0523 04:16:16.611021  2943 layer_factory.hpp:77] Creating layer relu6
I0523 04:16:16.611047  2943 net.cpp:106] Creating Layer relu6
I0523 04:16:16.611057  2943 net.cpp:454] relu6 <- ip2
I0523 04:16:16.611070  2943 net.cpp:397] relu6 -> ip2 (in-place)
I0523 04:16:16.611605  2943 net.cpp:150] Setting up relu6
I0523 04:16:16.611621  2943 net.cpp:157] Top shape: 50 98 (4900)
I0523 04:16:16.611634  2943 net.cpp:165] Memory required for data: 78915400
I0523 04:16:16.611642  2943 layer_factory.hpp:77] Creating layer drop2
I0523 04:16:16.611655  2943 net.cpp:106] Creating Layer drop2
I0523 04:16:16.611666  2943 net.cpp:454] drop2 <- ip2
I0523 04:16:16.611678  2943 net.cpp:397] drop2 -> ip2 (in-place)
I0523 04:16:16.611723  2943 net.cpp:150] Setting up drop2
I0523 04:16:16.611737  2943 net.cpp:157] Top shape: 50 98 (4900)
I0523 04:16:16.611747  2943 net.cpp:165] Memory required for data: 78935000
I0523 04:16:16.611757  2943 layer_factory.hpp:77] Creating layer ip3
I0523 04:16:16.611771  2943 net.cpp:106] Creating Layer ip3
I0523 04:16:16.611781  2943 net.cpp:454] ip3 <- ip2
I0523 04:16:16.611795  2943 net.cpp:411] ip3 -> ip3
I0523 04:16:16.612015  2943 net.cpp:150] Setting up ip3
I0523 04:16:16.612030  2943 net.cpp:157] Top shape: 50 11 (550)
I0523 04:16:16.612038  2943 net.cpp:165] Memory required for data: 78937200
I0523 04:16:16.612054  2943 layer_factory.hpp:77] Creating layer drop3
I0523 04:16:16.612067  2943 net.cpp:106] Creating Layer drop3
I0523 04:16:16.612076  2943 net.cpp:454] drop3 <- ip3
I0523 04:16:16.612089  2943 net.cpp:397] drop3 -> ip3 (in-place)
I0523 04:16:16.612131  2943 net.cpp:150] Setting up drop3
I0523 04:16:16.612143  2943 net.cpp:157] Top shape: 50 11 (550)
I0523 04:16:16.612154  2943 net.cpp:165] Memory required for data: 78939400
I0523 04:16:16.612164  2943 layer_factory.hpp:77] Creating layer ip3_drop3_0_split
I0523 04:16:16.612176  2943 net.cpp:106] Creating Layer ip3_drop3_0_split
I0523 04:16:16.612186  2943 net.cpp:454] ip3_drop3_0_split <- ip3
I0523 04:16:16.612198  2943 net.cpp:411] ip3_drop3_0_split -> ip3_drop3_0_split_0
I0523 04:16:16.612213  2943 net.cpp:411] ip3_drop3_0_split -> ip3_drop3_0_split_1
I0523 04:16:16.612287  2943 net.cpp:150] Setting up ip3_drop3_0_split
I0523 04:16:16.612300  2943 net.cpp:157] Top shape: 50 11 (550)
I0523 04:16:16.612313  2943 net.cpp:157] Top shape: 50 11 (550)
I0523 04:16:16.612323  2943 net.cpp:165] Memory required for data: 78943800
I0523 04:16:16.612330  2943 layer_factory.hpp:77] Creating layer accuracy
I0523 04:16:16.612352  2943 net.cpp:106] Creating Layer accuracy
I0523 04:16:16.612362  2943 net.cpp:454] accuracy <- ip3_drop3_0_split_0
I0523 04:16:16.612373  2943 net.cpp:454] accuracy <- label_data_hdf5_1_split_0
I0523 04:16:16.612387  2943 net.cpp:411] accuracy -> accuracy
…
