…
I0523 07:55:09.683902 24595 net.cpp:322] The NetState phase (0) differed from the phase (1) specified by a rule in layer data_hdf5
I0523 07:55:09.683976 24595 net.cpp:322] The NetState phase (0) differed from the phase (1) specified by a rule in layer accuracy
I0523 07:55:09.684324 24595 net.cpp:49] Initializing net from parameters: 
name: "caffe_test_127x50_x_unshifted"
state {
  phase: TRAIN
}
layer {
  name: "data_hdf5"
  type: "HDF5Data"
  top: "data"
  top: "label"
  include {
    phase: TRAIN
  }
  hdf5_data_param {
    source: "/lustre/atlas/proj-shared/hep105/caffe_titan/minosmatch_nukecczdefs_127x50_x_unshifted_me1Bmc.trainlist"
    batch_size: 50
  }
}
layer {
  name: "conv1"
  type: "Convolution"
  bottom: "data"
  top: "conv1"
  convolution_param {
    num_output: 12
    pad: 0
    stride: 1
    weight_filler {
      type: "xavier"
    }
    bias_filler {
      type: "constant"
    }
    kernel_h: 8
    kernel_w: 3
  }
}
layer {
  name: "relu1"
  type: "ReLU"
  bottom: "conv1"
  top: "conv1"
}
layer {
  name: "pool1"
  type: "Pooling"
  bottom: "conv1"
  top: "pool1"
  pooling_param {
    pool: MAX
    kernel_h: 2
    kernel_w: 1
    stride_h: 2
    stride_w: 1
  }
}
layer {
  name: "conv2"
  type: "Convolution"
  bottom: "pool1"
  top: "conv2"
  convolution_param {
    num_output: 20
    pad: 0
    stride: 1
    weight_filler {
      type: "xavier"
    }
    bias_filler {
      type: "constant"
    }
    kernel_h: 7
    kernel_w: 3
  }
}
layer {
  name: "relu2"
  type: "ReLU"
  bottom: "conv2"
  top: "conv2"
}
layer {
  name: "pool2"
  type: "Pooling"
  bottom: "conv2"
  top: "pool2"
  pooling_param {
    pool: MAX
    kernel_h: 2
    kernel_w: 1
    stride_h: 2
    stride_w: 1
  }
}
layer {
  name: "conv3"
  type: "Convolution"
  bottom: "pool2"
  top: "conv3"
  convolution_param {
    num_output: 28
    pad: 0
    stride: 1
    weight_filler {
      type: "xavier"
    }
    bias_filler {
      type: "constant"
    }
    kernel_h: 6
    kernel_w: 3
  }
}
layer {
  name: "relu3"
  type: "ReLU"
  bottom: "conv3"
  top: "conv3"
}
layer {
  name: "pool3"
  type: "Pooling"
  bottom: "conv3"
  top: "pool3"
  pooling_param {
    pool: MAX
    kernel_h: 2
    kernel_w: 1
    stride_h: 2
    stride_w: 1
  }
}
layer {
  name: "conv4"
  type: "Convolution"
  bottom: "pool3"
  top: "conv4"
  convolution_param {
    num_output: 36
    pad: 0
    stride: 1
    weight_filler {
      type: "xavier"
    }
    bias_filler {
      type: "constant"
    }
    kernel_h: 6
    kernel_w: 3
  }
}
layer {
  name: "relu4"
  type: "ReLU"
  bottom: "conv4"
  top: "conv4"
}
layer {
  name: "pool4"
  type: "Pooling"
  bottom: "conv4"
  top: "pool4"
  pooling_param {
    pool: MAX
    kernel_h: 2
    kernel_w: 1
    stride_h: 2
    stride_w: 1
  }
}
layer {
  name: "ip1"
  type: "InnerProduct"
  bottom: "pool4"
  top: "ip1"
  inner_product_param {
    num_output: 196
    weight_filler {
      type: "xavier"
    }
    bias_filler {
      type: "constant"
    }
  }
}
layer {
  name: "relu5"
  type: "ReLU"
  bottom: "ip1"
  top: "ip1"
}
layer {
  name: "drop1"
  type: "Dropout"
  bottom: "ip1"
  top: "ip1"
  dropout_param {
    dropout_ratio: 0.5
  }
}
layer {
  name: "ip2"
  type: "InnerProduct"
  bottom: "ip1"
  top: "ip2"
  inner_product_param {
    num_output: 98
    weight_filler {
      type: "xavier"
    }
    bias_filler {
      type: "constant"
    }
  }
}
layer {
  name: "relu6"
  type: "ReLU"
  bottom: "ip2"
  top: "ip2"
}
layer {
  name: "drop2"
  type: "Dropout"
  bottom: "ip2"
  top: "ip2"
  dropout_param {
    dropout_ratio: 0.5
  }
}
layer {
  name: "ip3"
  type: "InnerProduct"
  bottom: "ip2"
  top: "ip3"
  inner_product_param {
    num_output: 11
    weight_filler {
      type: "xavier"
    }
    bias_filler {
      type: "constant"
    }
  }
}
layer {
  name: "drop3"
  type: "Dropout"
  bottom: "ip3"
  top: "ip3"
  dropout_param {
    dropout_ratio: 0.5
  }
}
layer {
  name: "loss"
  type: "SoftmaxWithLoss"
  bottom: "ip3"
  bottom: "label"
  top: "loss"
}
I0523 07:55:09.684509 24595 layer_factory.hpp:77] Creating layer data_hdf5
I0523 07:55:09.684532 24595 net.cpp:106] Creating Layer data_hdf5
I0523 07:55:09.684547 24595 net.cpp:411] data_hdf5 -> data
I0523 07:55:09.684579 24595 net.cpp:411] data_hdf5 -> label
I0523 07:55:09.684612 24595 hdf5_data_layer.cpp:79] Loading list of HDF5 filenames from: /lustre/atlas/proj-shared/hep105/caffe_titan/minosmatch_nukecczdefs_127x50_x_unshifted_me1Bmc.trainlist
I0523 07:55:09.685986 24595 hdf5_data_layer.cpp:93] Number of HDF5 files: 15
I0523 07:55:09.688360 24595 hdf5.cpp:32] Datatype class: H5T_FLOAT
I0523 07:55:31.248329 24595 hdf5.cpp:35] Datatype class: H5T_INTEGER
I0523 07:55:31.253451 24595 net.cpp:150] Setting up data_hdf5
I0523 07:55:31.253491 24595 net.cpp:157] Top shape: 50 1 127 50 (317500)
I0523 07:55:31.253506 24595 net.cpp:157] Top shape: 50 (50)
I0523 07:55:31.253518 24595 net.cpp:165] Memory required for data: 1270200
I0523 07:55:31.253532 24595 layer_factory.hpp:77] Creating layer conv1
I0523 07:55:31.253566 24595 net.cpp:106] Creating Layer conv1
I0523 07:55:31.253576 24595 net.cpp:454] conv1 <- data
I0523 07:55:31.253597 24595 net.cpp:411] conv1 -> conv1
I0523 07:55:32.167441 24595 net.cpp:150] Setting up conv1
I0523 07:55:32.167489 24595 net.cpp:157] Top shape: 50 12 120 48 (3456000)
I0523 07:55:32.167500 24595 net.cpp:165] Memory required for data: 15094200
I0523 07:55:32.167531 24595 layer_factory.hpp:77] Creating layer relu1
I0523 07:55:32.167551 24595 net.cpp:106] Creating Layer relu1
I0523 07:55:32.167562 24595 net.cpp:454] relu1 <- conv1
I0523 07:55:32.167574 24595 net.cpp:397] relu1 -> conv1 (in-place)
I0523 07:55:32.168090 24595 net.cpp:150] Setting up relu1
I0523 07:55:32.168107 24595 net.cpp:157] Top shape: 50 12 120 48 (3456000)
I0523 07:55:32.168118 24595 net.cpp:165] Memory required for data: 28918200
I0523 07:55:32.168126 24595 layer_factory.hpp:77] Creating layer pool1
I0523 07:55:32.168143 24595 net.cpp:106] Creating Layer pool1
I0523 07:55:32.168154 24595 net.cpp:454] pool1 <- conv1
I0523 07:55:32.168167 24595 net.cpp:411] pool1 -> pool1
I0523 07:55:32.168248 24595 net.cpp:150] Setting up pool1
I0523 07:55:32.168262 24595 net.cpp:157] Top shape: 50 12 60 48 (1728000)
I0523 07:55:32.168272 24595 net.cpp:165] Memory required for data: 35830200
I0523 07:55:32.168283 24595 layer_factory.hpp:77] Creating layer conv2
I0523 07:55:32.168306 24595 net.cpp:106] Creating Layer conv2
I0523 07:55:32.168316 24595 net.cpp:454] conv2 <- pool1
I0523 07:55:32.168329 24595 net.cpp:411] conv2 -> conv2
I0523 07:55:32.171003 24595 net.cpp:150] Setting up conv2
I0523 07:55:32.171030 24595 net.cpp:157] Top shape: 50 20 54 46 (2484000)
I0523 07:55:32.171041 24595 net.cpp:165] Memory required for data: 45766200
I0523 07:55:32.171061 24595 layer_factory.hpp:77] Creating layer relu2
I0523 07:55:32.171075 24595 net.cpp:106] Creating Layer relu2
I0523 07:55:32.171085 24595 net.cpp:454] relu2 <- conv2
I0523 07:55:32.171098 24595 net.cpp:397] relu2 -> conv2 (in-place)
I0523 07:55:32.171428 24595 net.cpp:150] Setting up relu2
I0523 07:55:32.171443 24595 net.cpp:157] Top shape: 50 20 54 46 (2484000)
I0523 07:55:32.171453 24595 net.cpp:165] Memory required for data: 55702200
I0523 07:55:32.171463 24595 layer_factory.hpp:77] Creating layer pool2
I0523 07:55:32.171475 24595 net.cpp:106] Creating Layer pool2
I0523 07:55:32.171485 24595 net.cpp:454] pool2 <- conv2
I0523 07:55:32.171499 24595 net.cpp:411] pool2 -> pool2
I0523 07:55:32.171579 24595 net.cpp:150] Setting up pool2
I0523 07:55:32.171593 24595 net.cpp:157] Top shape: 50 20 27 46 (1242000)
I0523 07:55:32.171603 24595 net.cpp:165] Memory required for data: 60670200
I0523 07:55:32.171613 24595 layer_factory.hpp:77] Creating layer conv3
I0523 07:55:32.171632 24595 net.cpp:106] Creating Layer conv3
I0523 07:55:32.171641 24595 net.cpp:454] conv3 <- pool2
I0523 07:55:32.171655 24595 net.cpp:411] conv3 -> conv3
I0523 07:55:32.173594 24595 net.cpp:150] Setting up conv3
I0523 07:55:32.173617 24595 net.cpp:157] Top shape: 50 28 22 44 (1355200)
I0523 07:55:32.173629 24595 net.cpp:165] Memory required for data: 66091000
I0523 07:55:32.173648 24595 layer_factory.hpp:77] Creating layer relu3
I0523 07:55:32.173663 24595 net.cpp:106] Creating Layer relu3
I0523 07:55:32.173673 24595 net.cpp:454] relu3 <- conv3
I0523 07:55:32.173686 24595 net.cpp:397] relu3 -> conv3 (in-place)
I0523 07:55:32.174166 24595 net.cpp:150] Setting up relu3
I0523 07:55:32.174183 24595 net.cpp:157] Top shape: 50 28 22 44 (1355200)
I0523 07:55:32.174195 24595 net.cpp:165] Memory required for data: 71511800
I0523 07:55:32.174204 24595 layer_factory.hpp:77] Creating layer pool3
I0523 07:55:32.174217 24595 net.cpp:106] Creating Layer pool3
I0523 07:55:32.174227 24595 net.cpp:454] pool3 <- conv3
I0523 07:55:32.174240 24595 net.cpp:411] pool3 -> pool3
I0523 07:55:32.174307 24595 net.cpp:150] Setting up pool3
I0523 07:55:32.174321 24595 net.cpp:157] Top shape: 50 28 11 44 (677600)
I0523 07:55:32.174330 24595 net.cpp:165] Memory required for data: 74222200
I0523 07:55:32.174340 24595 layer_factory.hpp:77] Creating layer conv4
I0523 07:55:32.174360 24595 net.cpp:106] Creating Layer conv4
I0523 07:55:32.174371 24595 net.cpp:454] conv4 <- pool3
I0523 07:55:32.174383 24595 net.cpp:411] conv4 -> conv4
I0523 07:55:32.177145 24595 net.cpp:150] Setting up conv4
I0523 07:55:32.177173 24595 net.cpp:157] Top shape: 50 36 6 42 (453600)
I0523 07:55:32.177186 24595 net.cpp:165] Memory required for data: 76036600
I0523 07:55:32.177201 24595 layer_factory.hpp:77] Creating layer relu4
I0523 07:55:32.177217 24595 net.cpp:106] Creating Layer relu4
I0523 07:55:32.177227 24595 net.cpp:454] relu4 <- conv4
I0523 07:55:32.177239 24595 net.cpp:397] relu4 -> conv4 (in-place)
I0523 07:55:32.177709 24595 net.cpp:150] Setting up relu4
I0523 07:55:32.177726 24595 net.cpp:157] Top shape: 50 36 6 42 (453600)
I0523 07:55:32.177736 24595 net.cpp:165] Memory required for data: 77851000
I0523 07:55:32.177747 24595 layer_factory.hpp:77] Creating layer pool4
I0523 07:55:32.177760 24595 net.cpp:106] Creating Layer pool4
I0523 07:55:32.177770 24595 net.cpp:454] pool4 <- conv4
I0523 07:55:32.177783 24595 net.cpp:411] pool4 -> pool4
I0523 07:55:32.177852 24595 net.cpp:150] Setting up pool4
I0523 07:55:32.177865 24595 net.cpp:157] Top shape: 50 36 3 42 (226800)
I0523 07:55:32.177876 24595 net.cpp:165] Memory required for data: 78758200
I0523 07:55:32.177886 24595 layer_factory.hpp:77] Creating layer ip1
I0523 07:55:32.177907 24595 net.cpp:106] Creating Layer ip1
I0523 07:55:32.177918 24595 net.cpp:454] ip1 <- pool4
I0523 07:55:32.177932 24595 net.cpp:411] ip1 -> ip1
I0523 07:55:32.193377 24595 net.cpp:150] Setting up ip1
I0523 07:55:32.193404 24595 net.cpp:157] Top shape: 50 196 (9800)
I0523 07:55:32.193416 24595 net.cpp:165] Memory required for data: 78797400
I0523 07:55:32.193439 24595 layer_factory.hpp:77] Creating layer relu5
I0523 07:55:32.193454 24595 net.cpp:106] Creating Layer relu5
I0523 07:55:32.193464 24595 net.cpp:454] relu5 <- ip1
I0523 07:55:32.193478 24595 net.cpp:397] relu5 -> ip1 (in-place)
I0523 07:55:32.193819 24595 net.cpp:150] Setting up relu5
I0523 07:55:32.193832 24595 net.cpp:157] Top shape: 50 196 (9800)
I0523 07:55:32.193842 24595 net.cpp:165] Memory required for data: 78836600
I0523 07:55:32.193853 24595 layer_factory.hpp:77] Creating layer drop1
I0523 07:55:32.193874 24595 net.cpp:106] Creating Layer drop1
I0523 07:55:32.193884 24595 net.cpp:454] drop1 <- ip1
I0523 07:55:32.193897 24595 net.cpp:397] drop1 -> ip1 (in-place)
I0523 07:55:32.193955 24595 net.cpp:150] Setting up drop1
I0523 07:55:32.193969 24595 net.cpp:157] Top shape: 50 196 (9800)
I0523 07:55:32.193979 24595 net.cpp:165] Memory required for data: 78875800
I0523 07:55:32.193989 24595 layer_factory.hpp:77] Creating layer ip2
I0523 07:55:32.194006 24595 net.cpp:106] Creating Layer ip2
I0523 07:55:32.194017 24595 net.cpp:454] ip2 <- ip1
I0523 07:55:32.194030 24595 net.cpp:411] ip2 -> ip2
I0523 07:55:32.194497 24595 net.cpp:150] Setting up ip2
I0523 07:55:32.194510 24595 net.cpp:157] Top shape: 50 98 (4900)
I0523 07:55:32.194520 24595 net.cpp:165] Memory required for data: 78895400
I0523 07:55:32.194535 24595 layer_factory.hpp:77] Creating layer relu6
I0523 07:55:32.194548 24595 net.cpp:106] Creating Layer relu6
I0523 07:55:32.194557 24595 net.cpp:454] relu6 <- ip2
I0523 07:55:32.194569 24595 net.cpp:397] relu6 -> ip2 (in-place)
I0523 07:55:32.195086 24595 net.cpp:150] Setting up relu6
I0523 07:55:32.195102 24595 net.cpp:157] Top shape: 50 98 (4900)
I0523 07:55:32.195112 24595 net.cpp:165] Memory required for data: 78915000
I0523 07:55:32.195122 24595 layer_factory.hpp:77] Creating layer drop2
I0523 07:55:32.195135 24595 net.cpp:106] Creating Layer drop2
I0523 07:55:32.195145 24595 net.cpp:454] drop2 <- ip2
I0523 07:55:32.195158 24595 net.cpp:397] drop2 -> ip2 (in-place)
I0523 07:55:32.195200 24595 net.cpp:150] Setting up drop2
I0523 07:55:32.195214 24595 net.cpp:157] Top shape: 50 98 (4900)
I0523 07:55:32.195225 24595 net.cpp:165] Memory required for data: 78934600
I0523 07:55:32.195235 24595 layer_factory.hpp:77] Creating layer ip3
I0523 07:55:32.195247 24595 net.cpp:106] Creating Layer ip3
I0523 07:55:32.195257 24595 net.cpp:454] ip3 <- ip2
I0523 07:55:32.195271 24595 net.cpp:411] ip3 -> ip3
I0523 07:55:32.195480 24595 net.cpp:150] Setting up ip3
I0523 07:55:32.195493 24595 net.cpp:157] Top shape: 50 11 (550)
I0523 07:55:32.195504 24595 net.cpp:165] Memory required for data: 78936800
I0523 07:55:32.195519 24595 layer_factory.hpp:77] Creating layer drop3
I0523 07:55:32.195531 24595 net.cpp:106] Creating Layer drop3
I0523 07:55:32.195541 24595 net.cpp:454] drop3 <- ip3
I0523 07:55:32.195554 24595 net.cpp:397] drop3 -> ip3 (in-place)
I0523 07:55:32.195592 24595 net.cpp:150] Setting up drop3
I0523 07:55:32.195605 24595 net.cpp:157] Top shape: 50 11 (550)
I0523 07:55:32.195616 24595 net.cpp:165] Memory required for data: 78939000
I0523 07:55:32.195626 24595 layer_factory.hpp:77] Creating layer loss
I0523 07:55:32.195646 24595 net.cpp:106] Creating Layer loss
I0523 07:55:32.195655 24595 net.cpp:454] loss <- ip3
I0523 07:55:32.195667 24595 net.cpp:454] loss <- label
I0523 07:55:32.195679 24595 net.cpp:411] loss -> loss
I0523 07:55:32.195695 24595 layer_factory.hpp:77] Creating layer loss
…
I0523 07:55:32.198356 24595 solver.cpp:181] Creating test net (#0) specified by net file: /lustre/atlas/proj-shared/hep105/caffe_titan/caffe_workflow/logs_bslr/bs_50_lr_0.0035_2016-05-20T15.49.07.290047.prototxt
I0523 07:55:32.198427 24595 net.cpp:322] The NetState phase (1) differed from the phase (0) specified by a rule in layer data_hdf5
I0523 07:55:32.198781 24595 net.cpp:49] Initializing net from parameters: 
name: "caffe_test_127x50_x_unshifted"
state {
  phase: TEST
}
layer {
  name: "data_hdf5"
  type: "HDF5Data"
  top: "data"
  top: "label"
  include {
    phase: TEST
  }
  hdf5_data_param {
    source: "/lustre/atlas/proj-shared/hep105/caffe_titan/minosmatch_nukecczdefs_127x50_x_unshifted_me1Bmc.testlist"
    batch_size: 50
  }
}
layer {
  name: "conv1"
  type: "Convolution"
  bottom: "data"
  top: "conv1"
  convolution_param {
    num_output: 12
    pad: 0
    stride: 1
    weight_filler {
      type: "xavier"
    }
    bias_filler {
      type: "constant"
    }
    kernel_h: 8
    kernel_w: 3
  }
}
layer {
  name: "relu1"
  type: "ReLU"
  bottom: "conv1"
  top: "conv1"
}
layer {
  name: "pool1"
  type: "Pooling"
  bottom: "conv1"
  top: "pool1"
  pooling_param {
    pool: MAX
    kernel_h: 2
    kernel_w: 1
    stride_h: 2
    stride_w: 1
  }
}
layer {
  name: "conv2"
  type: "Convolution"
  bottom: "pool1"
  top: "conv2"
  convolution_param {
    num_output: 20
    pad: 0
    stride: 1
    weight_filler {
      type: "xavier"
    }
    bias_filler {
      type: "constant"
    }
    kernel_h: 7
    kernel_w: 3
  }
}
layer {
  name: "relu2"
  type: "ReLU"
  bottom: "conv2"
  top: "conv2"
}
layer {
  name: "pool2"
  type: "Pooling"
  bottom: "conv2"
  top: "pool2"
  pooling_param {
    pool: MAX
    kernel_h: 2
    kernel_w: 1
    stride_h: 2
    stride_w: 1
  }
}
layer {
  name: "conv3"
  type: "Convolution"
  bottom: "pool2"
  top: "conv3"
  convolution_param {
    num_output: 28
    pad: 0
    stride: 1
    weight_filler {
      type: "xavier"
    }
    bias_filler {
      type: "constant"
    }
    kernel_h: 6
    kernel_w: 3
  }
}
layer {
  name: "relu3"
  type: "ReLU"
  bottom: "conv3"
  top: "conv3"
}
layer {
  name: "pool3"
  type: "Pooling"
  bottom: "conv3"
  top: "pool3"
  pooling_param {
    pool: MAX
    kernel_h: 2
    kernel_w: 1
    stride_h: 2
    stride_w: 1
  }
}
layer {
  name: "conv4"
  type: "Convolution"
  bottom: "pool3"
  top: "conv4"
  convolution_param {
    num_output: 36
    pad: 0
    stride: 1
    weight_filler {
      type: "xavier"
    }
    bias_filler {
      type: "constant"
    }
    kernel_h: 6
    kernel_w: 3
  }
}
layer {
  name: "relu4"
  type: "ReLU"
  bottom: "conv4"
  top: "conv4"
}
layer {
  name: "pool4"
  type: "Pooling"
  bottom: "conv4"
  top: "pool4"
  pooling_param {
    pool: MAX
    kernel_h: 2
    kernel_w: 1
    stride_h: 2
    stride_w: 1
  }
}
layer {
  name: "ip1"
  type: "InnerProduct"
  bottom: "pool4"
  top: "ip1"
  inner_product_param {
    num_output: 196
    weight_filler {
      type: "xavier"
    }
    bias_filler {
      type: "constant"
    }
  }
}
layer {
  name: "relu5"
  type: "ReLU"
  bottom: "ip1"
  top: "ip1"
}
layer {
  name: "drop1"
  type: "Dropout"
  bottom: "ip1"
  top: "ip1"
  dropout_param {
    dropout_ratio: 0.5
  }
}
layer {
  name: "ip2"
  type: "InnerProduct"
  bottom: "ip1"
  top: "ip2"
  inner_product_param {
    num_output: 98
    weight_filler {
      type: "xavier"
    }
    bias_filler {
      type: "constant"
    }
  }
}
layer {
  name: "relu6"
  type: "ReLU"
  bottom: "ip2"
  top: "ip2"
}
layer {
  name: "drop2"
  type: "Dropout"
  bottom: "ip2"
  top: "ip2"
  dropout_param {
    dropout_ratio: 0.5
  }
}
layer {
  name: "ip3"
  type: "InnerProduct"
  bottom: "ip2"
  top: "ip3"
  inner_product_param {
    num_output: 11
    weight_filler {
      type: "xavier"
    }
    bias_filler {
      type: "constant"
    }
  }
}
layer {
  name: "drop3"
  type: "Dropout"
  bottom: "ip3"
  top: "ip3"
  dropout_param {
    dropout_ratio: 0.5
  }
}
layer {
  name: "accuracy"
  type: "Accuracy"
  bottom: "ip3"
  bottom: "label"
  top: "accuracy"
  include {
    phase: TEST
  }
}
layer {
  name: "loss"
  type: "SoftmaxWithLoss"
  bottom: "ip3"
  bottom: "label"
  top: "loss"
}
I0523 07:55:32.198971 24595 layer_factory.hpp:77] Creating layer data_hdf5
I0523 07:55:32.198987 24595 net.cpp:106] Creating Layer data_hdf5
I0523 07:55:32.198998 24595 net.cpp:411] data_hdf5 -> data
I0523 07:55:32.199018 24595 net.cpp:411] data_hdf5 -> label
I0523 07:55:32.199033 24595 hdf5_data_layer.cpp:79] Loading list of HDF5 filenames from: /lustre/atlas/proj-shared/hep105/caffe_titan/minosmatch_nukecczdefs_127x50_x_unshifted_me1Bmc.testlist
I0523 07:55:32.209311 24595 hdf5_data_layer.cpp:93] Number of HDF5 files: 3
I0523 07:55:53.546311 24595 net.cpp:150] Setting up data_hdf5
I0523 07:55:53.546476 24595 net.cpp:157] Top shape: 50 1 127 50 (317500)
I0523 07:55:53.546491 24595 net.cpp:157] Top shape: 50 (50)
I0523 07:55:53.546502 24595 net.cpp:165] Memory required for data: 1270200
I0523 07:55:53.546516 24595 layer_factory.hpp:77] Creating layer label_data_hdf5_1_split
I0523 07:55:53.546545 24595 net.cpp:106] Creating Layer label_data_hdf5_1_split
I0523 07:55:53.546555 24595 net.cpp:454] label_data_hdf5_1_split <- label
I0523 07:55:53.546571 24595 net.cpp:411] label_data_hdf5_1_split -> label_data_hdf5_1_split_0
I0523 07:55:53.546592 24595 net.cpp:411] label_data_hdf5_1_split -> label_data_hdf5_1_split_1
I0523 07:55:53.546664 24595 net.cpp:150] Setting up label_data_hdf5_1_split
I0523 07:55:53.546679 24595 net.cpp:157] Top shape: 50 (50)
I0523 07:55:53.546690 24595 net.cpp:157] Top shape: 50 (50)
I0523 07:55:53.546700 24595 net.cpp:165] Memory required for data: 1270600
I0523 07:55:53.546710 24595 layer_factory.hpp:77] Creating layer conv1
I0523 07:55:53.546731 24595 net.cpp:106] Creating Layer conv1
I0523 07:55:53.546741 24595 net.cpp:454] conv1 <- data
I0523 07:55:53.546756 24595 net.cpp:411] conv1 -> conv1
I0523 07:55:53.548665 24595 net.cpp:150] Setting up conv1
I0523 07:55:53.548689 24595 net.cpp:157] Top shape: 50 12 120 48 (3456000)
I0523 07:55:53.548701 24595 net.cpp:165] Memory required for data: 15094600
I0523 07:55:53.548722 24595 layer_factory.hpp:77] Creating layer relu1
I0523 07:55:53.548737 24595 net.cpp:106] Creating Layer relu1
I0523 07:55:53.548746 24595 net.cpp:454] relu1 <- conv1
I0523 07:55:53.548759 24595 net.cpp:397] relu1 -> conv1 (in-place)
I0523 07:55:53.549254 24595 net.cpp:150] Setting up relu1
I0523 07:55:53.549271 24595 net.cpp:157] Top shape: 50 12 120 48 (3456000)
I0523 07:55:53.549281 24595 net.cpp:165] Memory required for data: 28918600
I0523 07:55:53.549293 24595 layer_factory.hpp:77] Creating layer pool1
I0523 07:55:53.549309 24595 net.cpp:106] Creating Layer pool1
I0523 07:55:53.549319 24595 net.cpp:454] pool1 <- conv1
I0523 07:55:53.549331 24595 net.cpp:411] pool1 -> pool1
I0523 07:55:53.549406 24595 net.cpp:150] Setting up pool1
I0523 07:55:53.549419 24595 net.cpp:157] Top shape: 50 12 60 48 (1728000)
I0523 07:55:53.549429 24595 net.cpp:165] Memory required for data: 35830600
I0523 07:55:53.549442 24595 layer_factory.hpp:77] Creating layer conv2
I0523 07:55:53.549459 24595 net.cpp:106] Creating Layer conv2
I0523 07:55:53.549469 24595 net.cpp:454] conv2 <- pool1
I0523 07:55:53.549484 24595 net.cpp:411] conv2 -> conv2
I0523 07:55:53.551411 24595 net.cpp:150] Setting up conv2
I0523 07:55:53.551434 24595 net.cpp:157] Top shape: 50 20 54 46 (2484000)
I0523 07:55:53.551446 24595 net.cpp:165] Memory required for data: 45766600
I0523 07:55:53.551465 24595 layer_factory.hpp:77] Creating layer relu2
I0523 07:55:53.551477 24595 net.cpp:106] Creating Layer relu2
I0523 07:55:53.551487 24595 net.cpp:454] relu2 <- conv2
I0523 07:55:53.551501 24595 net.cpp:397] relu2 -> conv2 (in-place)
I0523 07:55:53.551831 24595 net.cpp:150] Setting up relu2
I0523 07:55:53.551843 24595 net.cpp:157] Top shape: 50 20 54 46 (2484000)
I0523 07:55:53.551854 24595 net.cpp:165] Memory required for data: 55702600
I0523 07:55:53.551864 24595 layer_factory.hpp:77] Creating layer pool2
I0523 07:55:53.551877 24595 net.cpp:106] Creating Layer pool2
I0523 07:55:53.551887 24595 net.cpp:454] pool2 <- conv2
I0523 07:55:53.551899 24595 net.cpp:411] pool2 -> pool2
I0523 07:55:53.551977 24595 net.cpp:150] Setting up pool2
I0523 07:55:53.551990 24595 net.cpp:157] Top shape: 50 20 27 46 (1242000)
I0523 07:55:53.552000 24595 net.cpp:165] Memory required for data: 60670600
I0523 07:55:53.552011 24595 layer_factory.hpp:77] Creating layer conv3
I0523 07:55:53.552028 24595 net.cpp:106] Creating Layer conv3
I0523 07:55:53.552038 24595 net.cpp:454] conv3 <- pool2
I0523 07:55:53.552052 24595 net.cpp:411] conv3 -> conv3
I0523 07:55:53.554025 24595 net.cpp:150] Setting up conv3
I0523 07:55:53.554049 24595 net.cpp:157] Top shape: 50 28 22 44 (1355200)
I0523 07:55:53.554067 24595 net.cpp:165] Memory required for data: 66091400
I0523 07:55:53.554100 24595 layer_factory.hpp:77] Creating layer relu3
I0523 07:55:53.554113 24595 net.cpp:106] Creating Layer relu3
I0523 07:55:53.554124 24595 net.cpp:454] relu3 <- conv3
I0523 07:55:53.554134 24595 net.cpp:397] relu3 -> conv3 (in-place)
I0523 07:55:53.554607 24595 net.cpp:150] Setting up relu3
I0523 07:55:53.554623 24595 net.cpp:157] Top shape: 50 28 22 44 (1355200)
I0523 07:55:53.554635 24595 net.cpp:165] Memory required for data: 71512200
I0523 07:55:53.554643 24595 layer_factory.hpp:77] Creating layer pool3
I0523 07:55:53.554656 24595 net.cpp:106] Creating Layer pool3
I0523 07:55:53.554666 24595 net.cpp:454] pool3 <- conv3
I0523 07:55:53.554679 24595 net.cpp:411] pool3 -> pool3
I0523 07:55:53.554751 24595 net.cpp:150] Setting up pool3
I0523 07:55:53.554764 24595 net.cpp:157] Top shape: 50 28 11 44 (677600)
I0523 07:55:53.554774 24595 net.cpp:165] Memory required for data: 74222600
I0523 07:55:53.554783 24595 layer_factory.hpp:77] Creating layer conv4
I0523 07:55:53.554801 24595 net.cpp:106] Creating Layer conv4
I0523 07:55:53.554812 24595 net.cpp:454] conv4 <- pool3
I0523 07:55:53.554826 24595 net.cpp:411] conv4 -> conv4
I0523 07:55:53.556879 24595 net.cpp:150] Setting up conv4
I0523 07:55:53.556900 24595 net.cpp:157] Top shape: 50 36 6 42 (453600)
I0523 07:55:53.556913 24595 net.cpp:165] Memory required for data: 76037000
I0523 07:55:53.556928 24595 layer_factory.hpp:77] Creating layer relu4
I0523 07:55:53.556942 24595 net.cpp:106] Creating Layer relu4
I0523 07:55:53.556952 24595 net.cpp:454] relu4 <- conv4
I0523 07:55:53.556965 24595 net.cpp:397] relu4 -> conv4 (in-place)
I0523 07:55:53.557436 24595 net.cpp:150] Setting up relu4
I0523 07:55:53.557452 24595 net.cpp:157] Top shape: 50 36 6 42 (453600)
I0523 07:55:53.557462 24595 net.cpp:165] Memory required for data: 77851400
I0523 07:55:53.557472 24595 layer_factory.hpp:77] Creating layer pool4
I0523 07:55:53.557485 24595 net.cpp:106] Creating Layer pool4
I0523 07:55:53.557495 24595 net.cpp:454] pool4 <- conv4
I0523 07:55:53.557508 24595 net.cpp:411] pool4 -> pool4
I0523 07:55:53.557579 24595 net.cpp:150] Setting up pool4
I0523 07:55:53.557592 24595 net.cpp:157] Top shape: 50 36 3 42 (226800)
I0523 07:55:53.557602 24595 net.cpp:165] Memory required for data: 78758600
I0523 07:55:53.557612 24595 layer_factory.hpp:77] Creating layer ip1
I0523 07:55:53.557626 24595 net.cpp:106] Creating Layer ip1
I0523 07:55:53.557636 24595 net.cpp:454] ip1 <- pool4
I0523 07:55:53.557649 24595 net.cpp:411] ip1 -> ip1
I0523 07:55:53.573132 24595 net.cpp:150] Setting up ip1
I0523 07:55:53.573160 24595 net.cpp:157] Top shape: 50 196 (9800)
I0523 07:55:53.573171 24595 net.cpp:165] Memory required for data: 78797800
I0523 07:55:53.573192 24595 layer_factory.hpp:77] Creating layer relu5
I0523 07:55:53.573209 24595 net.cpp:106] Creating Layer relu5
I0523 07:55:53.573220 24595 net.cpp:454] relu5 <- ip1
I0523 07:55:53.573232 24595 net.cpp:397] relu5 -> ip1 (in-place)
I0523 07:55:53.573580 24595 net.cpp:150] Setting up relu5
I0523 07:55:53.573595 24595 net.cpp:157] Top shape: 50 196 (9800)
I0523 07:55:53.573603 24595 net.cpp:165] Memory required for data: 78837000
I0523 07:55:53.573614 24595 layer_factory.hpp:77] Creating layer drop1
I0523 07:55:53.573633 24595 net.cpp:106] Creating Layer drop1
I0523 07:55:53.573643 24595 net.cpp:454] drop1 <- ip1
I0523 07:55:53.573657 24595 net.cpp:397] drop1 -> ip1 (in-place)
I0523 07:55:53.573704 24595 net.cpp:150] Setting up drop1
I0523 07:55:53.573716 24595 net.cpp:157] Top shape: 50 196 (9800)
I0523 07:55:53.573726 24595 net.cpp:165] Memory required for data: 78876200
I0523 07:55:53.573735 24595 layer_factory.hpp:77] Creating layer ip2
I0523 07:55:53.573750 24595 net.cpp:106] Creating Layer ip2
I0523 07:55:53.573760 24595 net.cpp:454] ip2 <- ip1
I0523 07:55:53.573773 24595 net.cpp:411] ip2 -> ip2
I0523 07:55:53.574259 24595 net.cpp:150] Setting up ip2
I0523 07:55:53.574271 24595 net.cpp:157] Top shape: 50 98 (4900)
I0523 07:55:53.574281 24595 net.cpp:165] Memory required for data: 78895800
I0523 07:55:53.574296 24595 layer_factory.hpp:77] Creating layer relu6
I0523 07:55:53.574322 24595 net.cpp:106] Creating Layer relu6
I0523 07:55:53.574332 24595 net.cpp:454] relu6 <- ip2
I0523 07:55:53.574345 24595 net.cpp:397] relu6 -> ip2 (in-place)
I0523 07:55:53.574882 24595 net.cpp:150] Setting up relu6
I0523 07:55:53.574898 24595 net.cpp:157] Top shape: 50 98 (4900)
I0523 07:55:53.574908 24595 net.cpp:165] Memory required for data: 78915400
I0523 07:55:53.574916 24595 layer_factory.hpp:77] Creating layer drop2
I0523 07:55:53.574930 24595 net.cpp:106] Creating Layer drop2
I0523 07:55:53.574940 24595 net.cpp:454] drop2 <- ip2
I0523 07:55:53.574954 24595 net.cpp:397] drop2 -> ip2 (in-place)
I0523 07:55:53.574997 24595 net.cpp:150] Setting up drop2
I0523 07:55:53.575011 24595 net.cpp:157] Top shape: 50 98 (4900)
I0523 07:55:53.575021 24595 net.cpp:165] Memory required for data: 78935000
I0523 07:55:53.575029 24595 layer_factory.hpp:77] Creating layer ip3
I0523 07:55:53.575043 24595 net.cpp:106] Creating Layer ip3
I0523 07:55:53.575053 24595 net.cpp:454] ip3 <- ip2
I0523 07:55:53.575067 24595 net.cpp:411] ip3 -> ip3
I0523 07:55:53.575287 24595 net.cpp:150] Setting up ip3
I0523 07:55:53.575300 24595 net.cpp:157] Top shape: 50 11 (550)
I0523 07:55:53.575310 24595 net.cpp:165] Memory required for data: 78937200
I0523 07:55:53.575325 24595 layer_factory.hpp:77] Creating layer drop3
I0523 07:55:53.575338 24595 net.cpp:106] Creating Layer drop3
I0523 07:55:53.575348 24595 net.cpp:454] drop3 <- ip3
I0523 07:55:53.575361 24595 net.cpp:397] drop3 -> ip3 (in-place)
I0523 07:55:53.575403 24595 net.cpp:150] Setting up drop3
I0523 07:55:53.575417 24595 net.cpp:157] Top shape: 50 11 (550)
I0523 07:55:53.575425 24595 net.cpp:165] Memory required for data: 78939400
I0523 07:55:53.575435 24595 layer_factory.hpp:77] Creating layer ip3_drop3_0_split
I0523 07:55:53.575448 24595 net.cpp:106] Creating Layer ip3_drop3_0_split
I0523 07:55:53.575459 24595 net.cpp:454] ip3_drop3_0_split <- ip3
I0523 07:55:53.575471 24595 net.cpp:411] ip3_drop3_0_split -> ip3_drop3_0_split_0
I0523 07:55:53.575487 24595 net.cpp:411] ip3_drop3_0_split -> ip3_drop3_0_split_1
I0523 07:55:53.575559 24595 net.cpp:150] Setting up ip3_drop3_0_split
I0523 07:55:53.575575 24595 net.cpp:157] Top shape: 50 11 (550)
I0523 07:55:53.575587 24595 net.cpp:157] Top shape: 50 11 (550)
I0523 07:55:53.575598 24595 net.cpp:165] Memory required for data: 78943800
I0523 07:55:53.575608 24595 layer_factory.hpp:77] Creating layer accuracy
I0523 07:55:53.575630 24595 net.cpp:106] Creating Layer accuracy
I0523 07:55:53.575640 24595 net.cpp:454] accuracy <- ip3_drop3_0_split_0
I0523 07:55:53.575651 24595 net.cpp:454] accuracy <- label_data_hdf5_1_split_0
I0523 07:55:53.575665 24595 net.cpp:411] accuracy -> accuracy
…
