…
I0523 01:53:27.828313  8024 net.cpp:322] The NetState phase (0) differed from the phase (1) specified by a rule in layer data_hdf5
I0523 01:53:27.828372  8024 net.cpp:322] The NetState phase (0) differed from the phase (1) specified by a rule in layer accuracy
I0523 01:53:27.828723  8024 net.cpp:49] Initializing net from parameters: 
name: "caffe_test_127x50_x_unshifted"
state {
  phase: TRAIN
}
layer {
  name: "data_hdf5"
  type: "HDF5Data"
  top: "data"
  top: "label"
  include {
    phase: TRAIN
  }
  hdf5_data_param {
    source: "/lustre/atlas/proj-shared/hep105/caffe_titan/minosmatch_nukecczdefs_127x50_x_unshifted_me1Bmc.trainlist"
    batch_size: 50
  }
}
layer {
  name: "conv1"
  type: "Convolution"
  bottom: "data"
  top: "conv1"
  convolution_param {
    num_output: 12
    pad: 0
    stride: 1
    weight_filler {
      type: "xavier"
    }
    bias_filler {
      type: "constant"
    }
    kernel_h: 8
    kernel_w: 3
  }
}
layer {
  name: "relu1"
  type: "ReLU"
  bottom: "conv1"
  top: "conv1"
}
layer {
  name: "pool1"
  type: "Pooling"
  bottom: "conv1"
  top: "pool1"
  pooling_param {
    pool: MAX
    kernel_h: 2
    kernel_w: 1
    stride_h: 2
    stride_w: 1
  }
}
layer {
  name: "conv2"
  type: "Convolution"
  bottom: "pool1"
  top: "conv2"
  convolution_param {
    num_output: 20
    pad: 0
    stride: 1
    weight_filler {
      type: "xavier"
    }
    bias_filler {
      type: "constant"
    }
    kernel_h: 7
    kernel_w: 3
  }
}
layer {
  name: "relu2"
  type: "ReLU"
  bottom: "conv2"
  top: "conv2"
}
layer {
  name: "pool2"
  type: "Pooling"
  bottom: "conv2"
  top: "pool2"
  pooling_param {
    pool: MAX
    kernel_h: 2
    kernel_w: 1
    stride_h: 2
    stride_w: 1
  }
}
layer {
  name: "conv3"
  type: "Convolution"
  bottom: "pool2"
  top: "conv3"
  convolution_param {
    num_output: 28
    pad: 0
    stride: 1
    weight_filler {
      type: "xavier"
    }
    bias_filler {
      type: "constant"
    }
    kernel_h: 6
    kernel_w: 3
  }
}
layer {
  name: "relu3"
  type: "ReLU"
  bottom: "conv3"
  top: "conv3"
}
layer {
  name: "pool3"
  type: "Pooling"
  bottom: "conv3"
  top: "pool3"
  pooling_param {
    pool: MAX
    kernel_h: 2
    kernel_w: 1
    stride_h: 2
    stride_w: 1
  }
}
layer {
  name: "conv4"
  type: "Convolution"
  bottom: "pool3"
  top: "conv4"
  convolution_param {
    num_output: 36
    pad: 0
    stride: 1
    weight_filler {
      type: "xavier"
    }
    bias_filler {
      type: "constant"
    }
    kernel_h: 6
    kernel_w: 3
  }
}
layer {
  name: "relu4"
  type: "ReLU"
  bottom: "conv4"
  top: "conv4"
}
layer {
  name: "pool4"
  type: "Pooling"
  bottom: "conv4"
  top: "pool4"
  pooling_param {
    pool: MAX
    kernel_h: 2
    kernel_w: 1
    stride_h: 2
    stride_w: 1
  }
}
layer {
  name: "ip1"
  type: "InnerProduct"
  bottom: "pool4"
  top: "ip1"
  inner_product_param {
    num_output: 196
    weight_filler {
      type: "xavier"
    }
    bias_filler {
      type: "constant"
    }
  }
}
layer {
  name: "relu5"
  type: "ReLU"
  bottom: "ip1"
  top: "ip1"
}
layer {
  name: "drop1"
  type: "Dropout"
  bottom: "ip1"
  top: "ip1"
  dropout_param {
    dropout_ratio: 0.5
  }
}
layer {
  name: "ip2"
  type: "InnerProduct"
  bottom: "ip1"
  top: "ip2"
  inner_product_param {
    num_output: 98
    weight_filler {
      type: "xavier"
    }
    bias_filler {
      type: "constant"
    }
  }
}
layer {
  name: "relu6"
  type: "ReLU"
  bottom: "ip2"
  top: "ip2"
}
layer {
  name: "drop2"
  type: "Dropout"
  bottom: "ip2"
  top: "ip2"
  dropout_param {
    dropout_ratio: 0.5
  }
}
layer {
  name: "ip3"
  type: "InnerProduct"
  bottom: "ip2"
  top: "ip3"
  inner_product_param {
    num_output: 11
    weight_filler {
      type: "xavier"
    }
    bias_filler {
      type: "constant"
    }
  }
}
layer {
  name: "drop3"
  type: "Dropout"
  bottom: "ip3"
  top: "ip3"
  dropout_param {
    dropout_ratio: 0.5
  }
}
layer {
  name: "loss"
  type: "SoftmaxWithLoss"
  bottom: "ip3"
  bottom: "label"
  top: "loss"
}
I0523 01:53:27.828902  8024 layer_factory.hpp:77] Creating layer data_hdf5
I0523 01:53:27.828925  8024 net.cpp:106] Creating Layer data_hdf5
I0523 01:53:27.828940  8024 net.cpp:411] data_hdf5 -> data
I0523 01:53:27.828974  8024 net.cpp:411] data_hdf5 -> label
I0523 01:53:27.829006  8024 hdf5_data_layer.cpp:79] Loading list of HDF5 filenames from: /lustre/atlas/proj-shared/hep105/caffe_titan/minosmatch_nukecczdefs_127x50_x_unshifted_me1Bmc.trainlist
I0523 01:53:27.841097  8024 hdf5_data_layer.cpp:93] Number of HDF5 files: 15
I0523 01:53:27.858062  8024 hdf5.cpp:32] Datatype class: H5T_FLOAT
I0523 01:53:49.494143  8024 hdf5.cpp:35] Datatype class: H5T_INTEGER
I0523 01:53:49.499335  8024 net.cpp:150] Setting up data_hdf5
I0523 01:53:49.499375  8024 net.cpp:157] Top shape: 50 1 127 50 (317500)
I0523 01:53:49.499389  8024 net.cpp:157] Top shape: 50 (50)
I0523 01:53:49.499402  8024 net.cpp:165] Memory required for data: 1270200
I0523 01:53:49.499416  8024 layer_factory.hpp:77] Creating layer conv1
I0523 01:53:49.499450  8024 net.cpp:106] Creating Layer conv1
I0523 01:53:49.499461  8024 net.cpp:454] conv1 <- data
I0523 01:53:49.499482  8024 net.cpp:411] conv1 -> conv1
I0523 01:53:52.641866  8024 net.cpp:150] Setting up conv1
I0523 01:53:52.641911  8024 net.cpp:157] Top shape: 50 12 120 48 (3456000)
I0523 01:53:52.641922  8024 net.cpp:165] Memory required for data: 15094200
I0523 01:53:52.641952  8024 layer_factory.hpp:77] Creating layer relu1
I0523 01:53:52.641974  8024 net.cpp:106] Creating Layer relu1
I0523 01:53:52.641985  8024 net.cpp:454] relu1 <- conv1
I0523 01:53:52.641999  8024 net.cpp:397] relu1 -> conv1 (in-place)
I0523 01:53:52.642530  8024 net.cpp:150] Setting up relu1
I0523 01:53:52.642546  8024 net.cpp:157] Top shape: 50 12 120 48 (3456000)
I0523 01:53:52.642557  8024 net.cpp:165] Memory required for data: 28918200
I0523 01:53:52.642567  8024 layer_factory.hpp:77] Creating layer pool1
I0523 01:53:52.642585  8024 net.cpp:106] Creating Layer pool1
I0523 01:53:52.642595  8024 net.cpp:454] pool1 <- conv1
I0523 01:53:52.642607  8024 net.cpp:411] pool1 -> pool1
I0523 01:53:52.642688  8024 net.cpp:150] Setting up pool1
I0523 01:53:52.642702  8024 net.cpp:157] Top shape: 50 12 60 48 (1728000)
I0523 01:53:52.642712  8024 net.cpp:165] Memory required for data: 35830200
I0523 01:53:52.642722  8024 layer_factory.hpp:77] Creating layer conv2
I0523 01:53:52.642745  8024 net.cpp:106] Creating Layer conv2
I0523 01:53:52.642755  8024 net.cpp:454] conv2 <- pool1
I0523 01:53:52.642768  8024 net.cpp:411] conv2 -> conv2
I0523 01:53:52.645422  8024 net.cpp:150] Setting up conv2
I0523 01:53:52.645450  8024 net.cpp:157] Top shape: 50 20 54 46 (2484000)
I0523 01:53:52.645460  8024 net.cpp:165] Memory required for data: 45766200
I0523 01:53:52.645479  8024 layer_factory.hpp:77] Creating layer relu2
I0523 01:53:52.645494  8024 net.cpp:106] Creating Layer relu2
I0523 01:53:52.645504  8024 net.cpp:454] relu2 <- conv2
I0523 01:53:52.645517  8024 net.cpp:397] relu2 -> conv2 (in-place)
I0523 01:53:52.645848  8024 net.cpp:150] Setting up relu2
I0523 01:53:52.645862  8024 net.cpp:157] Top shape: 50 20 54 46 (2484000)
I0523 01:53:52.645874  8024 net.cpp:165] Memory required for data: 55702200
I0523 01:53:52.645884  8024 layer_factory.hpp:77] Creating layer pool2
I0523 01:53:52.645896  8024 net.cpp:106] Creating Layer pool2
I0523 01:53:52.645906  8024 net.cpp:454] pool2 <- conv2
I0523 01:53:52.645918  8024 net.cpp:411] pool2 -> pool2
I0523 01:53:52.645999  8024 net.cpp:150] Setting up pool2
I0523 01:53:52.646013  8024 net.cpp:157] Top shape: 50 20 27 46 (1242000)
I0523 01:53:52.646023  8024 net.cpp:165] Memory required for data: 60670200
I0523 01:53:52.646034  8024 layer_factory.hpp:77] Creating layer conv3
I0523 01:53:52.646051  8024 net.cpp:106] Creating Layer conv3
I0523 01:53:52.646061  8024 net.cpp:454] conv3 <- pool2
I0523 01:53:52.646075  8024 net.cpp:411] conv3 -> conv3
I0523 01:53:52.648017  8024 net.cpp:150] Setting up conv3
I0523 01:53:52.648041  8024 net.cpp:157] Top shape: 50 28 22 44 (1355200)
I0523 01:53:52.648051  8024 net.cpp:165] Memory required for data: 66091000
I0523 01:53:52.648072  8024 layer_factory.hpp:77] Creating layer relu3
I0523 01:53:52.648087  8024 net.cpp:106] Creating Layer relu3
I0523 01:53:52.648097  8024 net.cpp:454] relu3 <- conv3
I0523 01:53:52.648110  8024 net.cpp:397] relu3 -> conv3 (in-place)
I0523 01:53:52.648581  8024 net.cpp:150] Setting up relu3
I0523 01:53:52.648598  8024 net.cpp:157] Top shape: 50 28 22 44 (1355200)
I0523 01:53:52.648608  8024 net.cpp:165] Memory required for data: 71511800
I0523 01:53:52.648619  8024 layer_factory.hpp:77] Creating layer pool3
I0523 01:53:52.648633  8024 net.cpp:106] Creating Layer pool3
I0523 01:53:52.648641  8024 net.cpp:454] pool3 <- conv3
I0523 01:53:52.648654  8024 net.cpp:411] pool3 -> pool3
I0523 01:53:52.648721  8024 net.cpp:150] Setting up pool3
I0523 01:53:52.648735  8024 net.cpp:157] Top shape: 50 28 11 44 (677600)
I0523 01:53:52.648744  8024 net.cpp:165] Memory required for data: 74222200
I0523 01:53:52.648753  8024 layer_factory.hpp:77] Creating layer conv4
I0523 01:53:52.648772  8024 net.cpp:106] Creating Layer conv4
I0523 01:53:52.648782  8024 net.cpp:454] conv4 <- pool3
I0523 01:53:52.648795  8024 net.cpp:411] conv4 -> conv4
I0523 01:53:52.651562  8024 net.cpp:150] Setting up conv4
I0523 01:53:52.651592  8024 net.cpp:157] Top shape: 50 36 6 42 (453600)
I0523 01:53:52.651602  8024 net.cpp:165] Memory required for data: 76036600
I0523 01:53:52.651618  8024 layer_factory.hpp:77] Creating layer relu4
I0523 01:53:52.651633  8024 net.cpp:106] Creating Layer relu4
I0523 01:53:52.651643  8024 net.cpp:454] relu4 <- conv4
I0523 01:53:52.651655  8024 net.cpp:397] relu4 -> conv4 (in-place)
I0523 01:53:52.652128  8024 net.cpp:150] Setting up relu4
I0523 01:53:52.652145  8024 net.cpp:157] Top shape: 50 36 6 42 (453600)
I0523 01:53:52.652155  8024 net.cpp:165] Memory required for data: 77851000
I0523 01:53:52.652166  8024 layer_factory.hpp:77] Creating layer pool4
I0523 01:53:52.652179  8024 net.cpp:106] Creating Layer pool4
I0523 01:53:52.652189  8024 net.cpp:454] pool4 <- conv4
I0523 01:53:52.652201  8024 net.cpp:411] pool4 -> pool4
I0523 01:53:52.652269  8024 net.cpp:150] Setting up pool4
I0523 01:53:52.652282  8024 net.cpp:157] Top shape: 50 36 3 42 (226800)
I0523 01:53:52.652293  8024 net.cpp:165] Memory required for data: 78758200
I0523 01:53:52.652303  8024 layer_factory.hpp:77] Creating layer ip1
I0523 01:53:52.652323  8024 net.cpp:106] Creating Layer ip1
I0523 01:53:52.652334  8024 net.cpp:454] ip1 <- pool4
I0523 01:53:52.652346  8024 net.cpp:411] ip1 -> ip1
I0523 01:53:52.667791  8024 net.cpp:150] Setting up ip1
I0523 01:53:52.667819  8024 net.cpp:157] Top shape: 50 196 (9800)
I0523 01:53:52.667832  8024 net.cpp:165] Memory required for data: 78797400
I0523 01:53:52.667855  8024 layer_factory.hpp:77] Creating layer relu5
I0523 01:53:52.667868  8024 net.cpp:106] Creating Layer relu5
I0523 01:53:52.667879  8024 net.cpp:454] relu5 <- ip1
I0523 01:53:52.667892  8024 net.cpp:397] relu5 -> ip1 (in-place)
I0523 01:53:52.668234  8024 net.cpp:150] Setting up relu5
I0523 01:53:52.668248  8024 net.cpp:157] Top shape: 50 196 (9800)
I0523 01:53:52.668258  8024 net.cpp:165] Memory required for data: 78836600
I0523 01:53:52.668268  8024 layer_factory.hpp:77] Creating layer drop1
I0523 01:53:52.668290  8024 net.cpp:106] Creating Layer drop1
I0523 01:53:52.668300  8024 net.cpp:454] drop1 <- ip1
I0523 01:53:52.668313  8024 net.cpp:397] drop1 -> ip1 (in-place)
I0523 01:53:52.668371  8024 net.cpp:150] Setting up drop1
I0523 01:53:52.668385  8024 net.cpp:157] Top shape: 50 196 (9800)
I0523 01:53:52.668395  8024 net.cpp:165] Memory required for data: 78875800
I0523 01:53:52.668406  8024 layer_factory.hpp:77] Creating layer ip2
I0523 01:53:52.668424  8024 net.cpp:106] Creating Layer ip2
I0523 01:53:52.668436  8024 net.cpp:454] ip2 <- ip1
I0523 01:53:52.668448  8024 net.cpp:411] ip2 -> ip2
I0523 01:53:52.668908  8024 net.cpp:150] Setting up ip2
I0523 01:53:52.668922  8024 net.cpp:157] Top shape: 50 98 (4900)
I0523 01:53:52.668932  8024 net.cpp:165] Memory required for data: 78895400
I0523 01:53:52.668947  8024 layer_factory.hpp:77] Creating layer relu6
I0523 01:53:52.668961  8024 net.cpp:106] Creating Layer relu6
I0523 01:53:52.668970  8024 net.cpp:454] relu6 <- ip2
I0523 01:53:52.668983  8024 net.cpp:397] relu6 -> ip2 (in-place)
I0523 01:53:52.669502  8024 net.cpp:150] Setting up relu6
I0523 01:53:52.669518  8024 net.cpp:157] Top shape: 50 98 (4900)
I0523 01:53:52.669529  8024 net.cpp:165] Memory required for data: 78915000
I0523 01:53:52.669539  8024 layer_factory.hpp:77] Creating layer drop2
I0523 01:53:52.669553  8024 net.cpp:106] Creating Layer drop2
I0523 01:53:52.669562  8024 net.cpp:454] drop2 <- ip2
I0523 01:53:52.669574  8024 net.cpp:397] drop2 -> ip2 (in-place)
I0523 01:53:52.669616  8024 net.cpp:150] Setting up drop2
I0523 01:53:52.669630  8024 net.cpp:157] Top shape: 50 98 (4900)
I0523 01:53:52.669641  8024 net.cpp:165] Memory required for data: 78934600
I0523 01:53:52.669651  8024 layer_factory.hpp:77] Creating layer ip3
I0523 01:53:52.669664  8024 net.cpp:106] Creating Layer ip3
I0523 01:53:52.669673  8024 net.cpp:454] ip3 <- ip2
I0523 01:53:52.669687  8024 net.cpp:411] ip3 -> ip3
I0523 01:53:52.669896  8024 net.cpp:150] Setting up ip3
I0523 01:53:52.669909  8024 net.cpp:157] Top shape: 50 11 (550)
I0523 01:53:52.669919  8024 net.cpp:165] Memory required for data: 78936800
I0523 01:53:52.669934  8024 layer_factory.hpp:77] Creating layer drop3
I0523 01:53:52.669946  8024 net.cpp:106] Creating Layer drop3
I0523 01:53:52.669955  8024 net.cpp:454] drop3 <- ip3
I0523 01:53:52.669967  8024 net.cpp:397] drop3 -> ip3 (in-place)
I0523 01:53:52.670007  8024 net.cpp:150] Setting up drop3
I0523 01:53:52.670019  8024 net.cpp:157] Top shape: 50 11 (550)
I0523 01:53:52.670029  8024 net.cpp:165] Memory required for data: 78939000
I0523 01:53:52.670039  8024 layer_factory.hpp:77] Creating layer loss
I0523 01:53:52.670058  8024 net.cpp:106] Creating Layer loss
I0523 01:53:52.670068  8024 net.cpp:454] loss <- ip3
I0523 01:53:52.670079  8024 net.cpp:454] loss <- label
I0523 01:53:52.670091  8024 net.cpp:411] loss -> loss
I0523 01:53:52.670109  8024 layer_factory.hpp:77] Creating layer loss
…
I0523 01:53:52.672705  8024 solver.cpp:181] Creating test net (#0) specified by net file: /lustre/atlas/proj-shared/hep105/caffe_titan/caffe_workflow/logs_bslr/bs_50_lr_0.0005_2016-05-20T15.49.04.864731.prototxt
I0523 01:53:52.672776  8024 net.cpp:322] The NetState phase (1) differed from the phase (0) specified by a rule in layer data_hdf5
I0523 01:53:52.673133  8024 net.cpp:49] Initializing net from parameters: 
name: "caffe_test_127x50_x_unshifted"
state {
  phase: TEST
}
layer {
  name: "data_hdf5"
  type: "HDF5Data"
  top: "data"
  top: "label"
  include {
    phase: TEST
  }
  hdf5_data_param {
    source: "/lustre/atlas/proj-shared/hep105/caffe_titan/minosmatch_nukecczdefs_127x50_x_unshifted_me1Bmc.testlist"
    batch_size: 50
  }
}
layer {
  name: "conv1"
  type: "Convolution"
  bottom: "data"
  top: "conv1"
  convolution_param {
    num_output: 12
    pad: 0
    stride: 1
    weight_filler {
      type: "xavier"
    }
    bias_filler {
      type: "constant"
    }
    kernel_h: 8
    kernel_w: 3
  }
}
layer {
  name: "relu1"
  type: "ReLU"
  bottom: "conv1"
  top: "conv1"
}
layer {
  name: "pool1"
  type: "Pooling"
  bottom: "conv1"
  top: "pool1"
  pooling_param {
    pool: MAX
    kernel_h: 2
    kernel_w: 1
    stride_h: 2
    stride_w: 1
  }
}
layer {
  name: "conv2"
  type: "Convolution"
  bottom: "pool1"
  top: "conv2"
  convolution_param {
    num_output: 20
    pad: 0
    stride: 1
    weight_filler {
      type: "xavier"
    }
    bias_filler {
      type: "constant"
    }
    kernel_h: 7
    kernel_w: 3
  }
}
layer {
  name: "relu2"
  type: "ReLU"
  bottom: "conv2"
  top: "conv2"
}
layer {
  name: "pool2"
  type: "Pooling"
  bottom: "conv2"
  top: "pool2"
  pooling_param {
    pool: MAX
    kernel_h: 2
    kernel_w: 1
    stride_h: 2
    stride_w: 1
  }
}
layer {
  name: "conv3"
  type: "Convolution"
  bottom: "pool2"
  top: "conv3"
  convolution_param {
    num_output: 28
    pad: 0
    stride: 1
    weight_filler {
      type: "xavier"
    }
    bias_filler {
      type: "constant"
    }
    kernel_h: 6
    kernel_w: 3
  }
}
layer {
  name: "relu3"
  type: "ReLU"
  bottom: "conv3"
  top: "conv3"
}
layer {
  name: "pool3"
  type: "Pooling"
  bottom: "conv3"
  top: "pool3"
  pooling_param {
    pool: MAX
    kernel_h: 2
    kernel_w: 1
    stride_h: 2
    stride_w: 1
  }
}
layer {
  name: "conv4"
  type: "Convolution"
  bottom: "pool3"
  top: "conv4"
  convolution_param {
    num_output: 36
    pad: 0
    stride: 1
    weight_filler {
      type: "xavier"
    }
    bias_filler {
      type: "constant"
    }
    kernel_h: 6
    kernel_w: 3
  }
}
layer {
  name: "relu4"
  type: "ReLU"
  bottom: "conv4"
  top: "conv4"
}
layer {
  name: "pool4"
  type: "Pooling"
  bottom: "conv4"
  top: "pool4"
  pooling_param {
    pool: MAX
    kernel_h: 2
    kernel_w: 1
    stride_h: 2
    stride_w: 1
  }
}
layer {
  name: "ip1"
  type: "InnerProduct"
  bottom: "pool4"
  top: "ip1"
  inner_product_param {
    num_output: 196
    weight_filler {
      type: "xavier"
    }
    bias_filler {
      type: "constant"
    }
  }
}
layer {
  name: "relu5"
  type: "ReLU"
  bottom: "ip1"
  top: "ip1"
}
layer {
  name: "drop1"
  type: "Dropout"
  bottom: "ip1"
  top: "ip1"
  dropout_param {
    dropout_ratio: 0.5
  }
}
layer {
  name: "ip2"
  type: "InnerProduct"
  bottom: "ip1"
  top: "ip2"
  inner_product_param {
    num_output: 98
    weight_filler {
      type: "xavier"
    }
    bias_filler {
      type: "constant"
    }
  }
}
layer {
  name: "relu6"
  type: "ReLU"
  bottom: "ip2"
  top: "ip2"
}
layer {
  name: "drop2"
  type: "Dropout"
  bottom: "ip2"
  top: "ip2"
  dropout_param {
    dropout_ratio: 0.5
  }
}
layer {
  name: "ip3"
  type: "InnerProduct"
  bottom: "ip2"
  top: "ip3"
  inner_product_param {
    num_output: 11
    weight_filler {
      type: "xavier"
    }
    bias_filler {
      type: "constant"
    }
  }
}
layer {
  name: "drop3"
  type: "Dropout"
  bottom: "ip3"
  top: "ip3"
  dropout_param {
    dropout_ratio: 0.5
  }
}
layer {
  name: "accuracy"
  type: "Accuracy"
  bottom: "ip3"
  bottom: "label"
  top: "accuracy"
  include {
    phase: TEST
  }
}
layer {
  name: "loss"
  type: "SoftmaxWithLoss"
  bottom: "ip3"
  bottom: "label"
  top: "loss"
}
I0523 01:53:52.673322  8024 layer_factory.hpp:77] Creating layer data_hdf5
I0523 01:53:52.673337  8024 net.cpp:106] Creating Layer data_hdf5
I0523 01:53:52.673349  8024 net.cpp:411] data_hdf5 -> data
I0523 01:53:52.673365  8024 net.cpp:411] data_hdf5 -> label
I0523 01:53:52.673382  8024 hdf5_data_layer.cpp:79] Loading list of HDF5 filenames from: /lustre/atlas/proj-shared/hep105/caffe_titan/minosmatch_nukecczdefs_127x50_x_unshifted_me1Bmc.testlist
I0523 01:53:52.691712  8024 hdf5_data_layer.cpp:93] Number of HDF5 files: 3
I0523 01:54:14.166846  8024 net.cpp:150] Setting up data_hdf5
I0523 01:54:14.167011  8024 net.cpp:157] Top shape: 50 1 127 50 (317500)
I0523 01:54:14.167026  8024 net.cpp:157] Top shape: 50 (50)
I0523 01:54:14.167037  8024 net.cpp:165] Memory required for data: 1270200
I0523 01:54:14.167050  8024 layer_factory.hpp:77] Creating layer label_data_hdf5_1_split
I0523 01:54:14.167078  8024 net.cpp:106] Creating Layer label_data_hdf5_1_split
I0523 01:54:14.167089  8024 net.cpp:454] label_data_hdf5_1_split <- label
I0523 01:54:14.167104  8024 net.cpp:411] label_data_hdf5_1_split -> label_data_hdf5_1_split_0
I0523 01:54:14.167125  8024 net.cpp:411] label_data_hdf5_1_split -> label_data_hdf5_1_split_1
I0523 01:54:14.167197  8024 net.cpp:150] Setting up label_data_hdf5_1_split
I0523 01:54:14.167212  8024 net.cpp:157] Top shape: 50 (50)
I0523 01:54:14.167222  8024 net.cpp:157] Top shape: 50 (50)
I0523 01:54:14.167232  8024 net.cpp:165] Memory required for data: 1270600
I0523 01:54:14.167243  8024 layer_factory.hpp:77] Creating layer conv1
I0523 01:54:14.167264  8024 net.cpp:106] Creating Layer conv1
I0523 01:54:14.167274  8024 net.cpp:454] conv1 <- data
I0523 01:54:14.167289  8024 net.cpp:411] conv1 -> conv1
I0523 01:54:14.169229  8024 net.cpp:150] Setting up conv1
I0523 01:54:14.169255  8024 net.cpp:157] Top shape: 50 12 120 48 (3456000)
I0523 01:54:14.169265  8024 net.cpp:165] Memory required for data: 15094600
I0523 01:54:14.169286  8024 layer_factory.hpp:77] Creating layer relu1
I0523 01:54:14.169301  8024 net.cpp:106] Creating Layer relu1
I0523 01:54:14.169312  8024 net.cpp:454] relu1 <- conv1
I0523 01:54:14.169325  8024 net.cpp:397] relu1 -> conv1 (in-place)
I0523 01:54:14.169826  8024 net.cpp:150] Setting up relu1
I0523 01:54:14.169843  8024 net.cpp:157] Top shape: 50 12 120 48 (3456000)
I0523 01:54:14.169853  8024 net.cpp:165] Memory required for data: 28918600
I0523 01:54:14.169863  8024 layer_factory.hpp:77] Creating layer pool1
I0523 01:54:14.169880  8024 net.cpp:106] Creating Layer pool1
I0523 01:54:14.169890  8024 net.cpp:454] pool1 <- conv1
I0523 01:54:14.169903  8024 net.cpp:411] pool1 -> pool1
I0523 01:54:14.169977  8024 net.cpp:150] Setting up pool1
I0523 01:54:14.169991  8024 net.cpp:157] Top shape: 50 12 60 48 (1728000)
I0523 01:54:14.170001  8024 net.cpp:165] Memory required for data: 35830600
I0523 01:54:14.170009  8024 layer_factory.hpp:77] Creating layer conv2
I0523 01:54:14.170027  8024 net.cpp:106] Creating Layer conv2
I0523 01:54:14.170038  8024 net.cpp:454] conv2 <- pool1
I0523 01:54:14.170052  8024 net.cpp:411] conv2 -> conv2
I0523 01:54:14.171969  8024 net.cpp:150] Setting up conv2
I0523 01:54:14.171991  8024 net.cpp:157] Top shape: 50 20 54 46 (2484000)
I0523 01:54:14.172004  8024 net.cpp:165] Memory required for data: 45766600
I0523 01:54:14.172021  8024 layer_factory.hpp:77] Creating layer relu2
I0523 01:54:14.172035  8024 net.cpp:106] Creating Layer relu2
I0523 01:54:14.172045  8024 net.cpp:454] relu2 <- conv2
I0523 01:54:14.172057  8024 net.cpp:397] relu2 -> conv2 (in-place)
I0523 01:54:14.172389  8024 net.cpp:150] Setting up relu2
I0523 01:54:14.172407  8024 net.cpp:157] Top shape: 50 20 54 46 (2484000)
I0523 01:54:14.172417  8024 net.cpp:165] Memory required for data: 55702600
I0523 01:54:14.172428  8024 layer_factory.hpp:77] Creating layer pool2
I0523 01:54:14.172441  8024 net.cpp:106] Creating Layer pool2
I0523 01:54:14.172451  8024 net.cpp:454] pool2 <- conv2
I0523 01:54:14.172463  8024 net.cpp:411] pool2 -> pool2
I0523 01:54:14.172534  8024 net.cpp:150] Setting up pool2
I0523 01:54:14.172547  8024 net.cpp:157] Top shape: 50 20 27 46 (1242000)
I0523 01:54:14.172557  8024 net.cpp:165] Memory required for data: 60670600
I0523 01:54:14.172569  8024 layer_factory.hpp:77] Creating layer conv3
I0523 01:54:14.172587  8024 net.cpp:106] Creating Layer conv3
I0523 01:54:14.172598  8024 net.cpp:454] conv3 <- pool2
I0523 01:54:14.172612  8024 net.cpp:411] conv3 -> conv3
I0523 01:54:14.174595  8024 net.cpp:150] Setting up conv3
I0523 01:54:14.174618  8024 net.cpp:157] Top shape: 50 28 22 44 (1355200)
I0523 01:54:14.174630  8024 net.cpp:165] Memory required for data: 66091400
I0523 01:54:14.174664  8024 layer_factory.hpp:77] Creating layer relu3
I0523 01:54:14.174677  8024 net.cpp:106] Creating Layer relu3
I0523 01:54:14.174687  8024 net.cpp:454] relu3 <- conv3
I0523 01:54:14.174700  8024 net.cpp:397] relu3 -> conv3 (in-place)
I0523 01:54:14.175173  8024 net.cpp:150] Setting up relu3
I0523 01:54:14.175189  8024 net.cpp:157] Top shape: 50 28 22 44 (1355200)
I0523 01:54:14.175199  8024 net.cpp:165] Memory required for data: 71512200
I0523 01:54:14.175209  8024 layer_factory.hpp:77] Creating layer pool3
I0523 01:54:14.175221  8024 net.cpp:106] Creating Layer pool3
I0523 01:54:14.175231  8024 net.cpp:454] pool3 <- conv3
I0523 01:54:14.175245  8024 net.cpp:411] pool3 -> pool3
I0523 01:54:14.175315  8024 net.cpp:150] Setting up pool3
I0523 01:54:14.175329  8024 net.cpp:157] Top shape: 50 28 11 44 (677600)
I0523 01:54:14.175338  8024 net.cpp:165] Memory required for data: 74222600
I0523 01:54:14.175348  8024 layer_factory.hpp:77] Creating layer conv4
I0523 01:54:14.175366  8024 net.cpp:106] Creating Layer conv4
I0523 01:54:14.175376  8024 net.cpp:454] conv4 <- pool3
I0523 01:54:14.175390  8024 net.cpp:411] conv4 -> conv4
I0523 01:54:14.177446  8024 net.cpp:150] Setting up conv4
I0523 01:54:14.177469  8024 net.cpp:157] Top shape: 50 36 6 42 (453600)
I0523 01:54:14.177481  8024 net.cpp:165] Memory required for data: 76037000
I0523 01:54:14.177496  8024 layer_factory.hpp:77] Creating layer relu4
I0523 01:54:14.177510  8024 net.cpp:106] Creating Layer relu4
I0523 01:54:14.177520  8024 net.cpp:454] relu4 <- conv4
I0523 01:54:14.177532  8024 net.cpp:397] relu4 -> conv4 (in-place)
I0523 01:54:14.178002  8024 net.cpp:150] Setting up relu4
I0523 01:54:14.178019  8024 net.cpp:157] Top shape: 50 36 6 42 (453600)
I0523 01:54:14.178028  8024 net.cpp:165] Memory required for data: 77851400
I0523 01:54:14.178038  8024 layer_factory.hpp:77] Creating layer pool4
I0523 01:54:14.178051  8024 net.cpp:106] Creating Layer pool4
I0523 01:54:14.178061  8024 net.cpp:454] pool4 <- conv4
I0523 01:54:14.178074  8024 net.cpp:411] pool4 -> pool4
I0523 01:54:14.178146  8024 net.cpp:150] Setting up pool4
I0523 01:54:14.178160  8024 net.cpp:157] Top shape: 50 36 3 42 (226800)
I0523 01:54:14.178169  8024 net.cpp:165] Memory required for data: 78758600
I0523 01:54:14.178179  8024 layer_factory.hpp:77] Creating layer ip1
I0523 01:54:14.178195  8024 net.cpp:106] Creating Layer ip1
I0523 01:54:14.178205  8024 net.cpp:454] ip1 <- pool4
I0523 01:54:14.178220  8024 net.cpp:411] ip1 -> ip1
I0523 01:54:14.193689  8024 net.cpp:150] Setting up ip1
I0523 01:54:14.193717  8024 net.cpp:157] Top shape: 50 196 (9800)
I0523 01:54:14.193728  8024 net.cpp:165] Memory required for data: 78797800
I0523 01:54:14.193750  8024 layer_factory.hpp:77] Creating layer relu5
I0523 01:54:14.193765  8024 net.cpp:106] Creating Layer relu5
I0523 01:54:14.193776  8024 net.cpp:454] relu5 <- ip1
I0523 01:54:14.193789  8024 net.cpp:397] relu5 -> ip1 (in-place)
I0523 01:54:14.194138  8024 net.cpp:150] Setting up relu5
I0523 01:54:14.194151  8024 net.cpp:157] Top shape: 50 196 (9800)
I0523 01:54:14.194161  8024 net.cpp:165] Memory required for data: 78837000
I0523 01:54:14.194171  8024 layer_factory.hpp:77] Creating layer drop1
I0523 01:54:14.194190  8024 net.cpp:106] Creating Layer drop1
I0523 01:54:14.194200  8024 net.cpp:454] drop1 <- ip1
I0523 01:54:14.194213  8024 net.cpp:397] drop1 -> ip1 (in-place)
I0523 01:54:14.194258  8024 net.cpp:150] Setting up drop1
I0523 01:54:14.194272  8024 net.cpp:157] Top shape: 50 196 (9800)
I0523 01:54:14.194283  8024 net.cpp:165] Memory required for data: 78876200
I0523 01:54:14.194291  8024 layer_factory.hpp:77] Creating layer ip2
I0523 01:54:14.194306  8024 net.cpp:106] Creating Layer ip2
I0523 01:54:14.194316  8024 net.cpp:454] ip2 <- ip1
I0523 01:54:14.194329  8024 net.cpp:411] ip2 -> ip2
I0523 01:54:14.194814  8024 net.cpp:150] Setting up ip2
I0523 01:54:14.194828  8024 net.cpp:157] Top shape: 50 98 (4900)
I0523 01:54:14.194838  8024 net.cpp:165] Memory required for data: 78895800
I0523 01:54:14.194854  8024 layer_factory.hpp:77] Creating layer relu6
I0523 01:54:14.194878  8024 net.cpp:106] Creating Layer relu6
I0523 01:54:14.194890  8024 net.cpp:454] relu6 <- ip2
I0523 01:54:14.194901  8024 net.cpp:397] relu6 -> ip2 (in-place)
I0523 01:54:14.195441  8024 net.cpp:150] Setting up relu6
I0523 01:54:14.195462  8024 net.cpp:157] Top shape: 50 98 (4900)
I0523 01:54:14.195472  8024 net.cpp:165] Memory required for data: 78915400
I0523 01:54:14.195482  8024 layer_factory.hpp:77] Creating layer drop2
I0523 01:54:14.195497  8024 net.cpp:106] Creating Layer drop2
I0523 01:54:14.195507  8024 net.cpp:454] drop2 <- ip2
I0523 01:54:14.195519  8024 net.cpp:397] drop2 -> ip2 (in-place)
I0523 01:54:14.195564  8024 net.cpp:150] Setting up drop2
I0523 01:54:14.195575  8024 net.cpp:157] Top shape: 50 98 (4900)
I0523 01:54:14.195585  8024 net.cpp:165] Memory required for data: 78935000
I0523 01:54:14.195596  8024 layer_factory.hpp:77] Creating layer ip3
I0523 01:54:14.195611  8024 net.cpp:106] Creating Layer ip3
I0523 01:54:14.195621  8024 net.cpp:454] ip3 <- ip2
I0523 01:54:14.195634  8024 net.cpp:411] ip3 -> ip3
I0523 01:54:14.195855  8024 net.cpp:150] Setting up ip3
I0523 01:54:14.195868  8024 net.cpp:157] Top shape: 50 11 (550)
I0523 01:54:14.195879  8024 net.cpp:165] Memory required for data: 78937200
I0523 01:54:14.195894  8024 layer_factory.hpp:77] Creating layer drop3
I0523 01:54:14.195907  8024 net.cpp:106] Creating Layer drop3
I0523 01:54:14.195917  8024 net.cpp:454] drop3 <- ip3
I0523 01:54:14.195930  8024 net.cpp:397] drop3 -> ip3 (in-place)
I0523 01:54:14.195971  8024 net.cpp:150] Setting up drop3
I0523 01:54:14.195984  8024 net.cpp:157] Top shape: 50 11 (550)
I0523 01:54:14.195994  8024 net.cpp:165] Memory required for data: 78939400
I0523 01:54:14.196004  8024 layer_factory.hpp:77] Creating layer ip3_drop3_0_split
I0523 01:54:14.196017  8024 net.cpp:106] Creating Layer ip3_drop3_0_split
I0523 01:54:14.196027  8024 net.cpp:454] ip3_drop3_0_split <- ip3
I0523 01:54:14.196040  8024 net.cpp:411] ip3_drop3_0_split -> ip3_drop3_0_split_0
I0523 01:54:14.196055  8024 net.cpp:411] ip3_drop3_0_split -> ip3_drop3_0_split_1
I0523 01:54:14.196128  8024 net.cpp:150] Setting up ip3_drop3_0_split
I0523 01:54:14.196141  8024 net.cpp:157] Top shape: 50 11 (550)
I0523 01:54:14.196153  8024 net.cpp:157] Top shape: 50 11 (550)
I0523 01:54:14.196163  8024 net.cpp:165] Memory required for data: 78943800
I0523 01:54:14.196173  8024 layer_factory.hpp:77] Creating layer accuracy
I0523 01:54:14.196195  8024 net.cpp:106] Creating Layer accuracy
I0523 01:54:14.196208  8024 net.cpp:454] accuracy <- ip3_drop3_0_split_0
I0523 01:54:14.196218  8024 net.cpp:454] accuracy <- label_data_hdf5_1_split_0
I0523 01:54:14.196231  8024 net.cpp:411] accuracy -> accuracy
…
