…
I0523 05:54:32.201800 32758 net.cpp:322] The NetState phase (0) differed from the phase (1) specified by a rule in layer data_hdf5
I0523 05:54:32.201860 32758 net.cpp:322] The NetState phase (0) differed from the phase (1) specified by a rule in layer accuracy
I0523 05:54:32.202208 32758 net.cpp:49] Initializing net from parameters: 
name: "caffe_test_127x50_x_unshifted"
state {
  phase: TRAIN
}
layer {
  name: "data_hdf5"
  type: "HDF5Data"
  top: "data"
  top: "label"
  include {
    phase: TRAIN
  }
  hdf5_data_param {
    source: "/lustre/atlas/proj-shared/hep105/caffe_titan/minosmatch_nukecczdefs_127x50_x_unshifted_me1Bmc.trainlist"
    batch_size: 50
  }
}
layer {
  name: "conv1"
  type: "Convolution"
  bottom: "data"
  top: "conv1"
  convolution_param {
    num_output: 12
    pad: 0
    stride: 1
    weight_filler {
      type: "xavier"
    }
    bias_filler {
      type: "constant"
    }
    kernel_h: 8
    kernel_w: 3
  }
}
layer {
  name: "relu1"
  type: "ReLU"
  bottom: "conv1"
  top: "conv1"
}
layer {
  name: "pool1"
  type: "Pooling"
  bottom: "conv1"
  top: "pool1"
  pooling_param {
    pool: MAX
    kernel_h: 2
    kernel_w: 1
    stride_h: 2
    stride_w: 1
  }
}
layer {
  name: "conv2"
  type: "Convolution"
  bottom: "pool1"
  top: "conv2"
  convolution_param {
    num_output: 20
    pad: 0
    stride: 1
    weight_filler {
      type: "xavier"
    }
    bias_filler {
      type: "constant"
    }
    kernel_h: 7
    kernel_w: 3
  }
}
layer {
  name: "relu2"
  type: "ReLU"
  bottom: "conv2"
  top: "conv2"
}
layer {
  name: "pool2"
  type: "Pooling"
  bottom: "conv2"
  top: "pool2"
  pooling_param {
    pool: MAX
    kernel_h: 2
    kernel_w: 1
    stride_h: 2
    stride_w: 1
  }
}
layer {
  name: "conv3"
  type: "Convolution"
  bottom: "pool2"
  top: "conv3"
  convolution_param {
    num_output: 28
    pad: 0
    stride: 1
    weight_filler {
      type: "xavier"
    }
    bias_filler {
      type: "constant"
    }
    kernel_h: 6
    kernel_w: 3
  }
}
layer {
  name: "relu3"
  type: "ReLU"
  bottom: "conv3"
  top: "conv3"
}
layer {
  name: "pool3"
  type: "Pooling"
  bottom: "conv3"
  top: "pool3"
  pooling_param {
    pool: MAX
    kernel_h: 2
    kernel_w: 1
    stride_h: 2
    stride_w: 1
  }
}
layer {
  name: "conv4"
  type: "Convolution"
  bottom: "pool3"
  top: "conv4"
  convolution_param {
    num_output: 36
    pad: 0
    stride: 1
    weight_filler {
      type: "xavier"
    }
    bias_filler {
      type: "constant"
    }
    kernel_h: 6
    kernel_w: 3
  }
}
layer {
  name: "relu4"
  type: "ReLU"
  bottom: "conv4"
  top: "conv4"
}
layer {
  name: "pool4"
  type: "Pooling"
  bottom: "conv4"
  top: "pool4"
  pooling_param {
    pool: MAX
    kernel_h: 2
    kernel_w: 1
    stride_h: 2
    stride_w: 1
  }
}
layer {
  name: "ip1"
  type: "InnerProduct"
  bottom: "pool4"
  top: "ip1"
  inner_product_param {
    num_output: 196
    weight_filler {
      type: "xavier"
    }
    bias_filler {
      type: "constant"
    }
  }
}
layer {
  name: "relu5"
  type: "ReLU"
  bottom: "ip1"
  top: "ip1"
}
layer {
  name: "drop1"
  type: "Dropout"
  bottom: "ip1"
  top: "ip1"
  dropout_param {
    dropout_ratio: 0.5
  }
}
layer {
  name: "ip2"
  type: "InnerProduct"
  bottom: "ip1"
  top: "ip2"
  inner_product_param {
    num_output: 98
    weight_filler {
      type: "xavier"
    }
    bias_filler {
      type: "constant"
    }
  }
}
layer {
  name: "relu6"
  type: "ReLU"
  bottom: "ip2"
  top: "ip2"
}
layer {
  name: "drop2"
  type: "Dropout"
  bottom: "ip2"
  top: "ip2"
  dropout_param {
    dropout_ratio: 0.5
  }
}
layer {
  name: "ip3"
  type: "InnerProduct"
  bottom: "ip2"
  top: "ip3"
  inner_product_param {
    num_output: 11
    weight_filler {
      type: "xavier"
    }
    bias_filler {
      type: "constant"
    }
  }
}
layer {
  name: "drop3"
  type: "Dropout"
  bottom: "ip3"
  top: "ip3"
  dropout_param {
    dropout_ratio: 0.5
  }
}
layer {
  name: "loss"
  type: "SoftmaxWithLoss"
  bottom: "ip3"
  bottom: "label"
  top: "loss"
}
I0523 05:54:32.202388 32758 layer_factory.hpp:77] Creating layer data_hdf5
I0523 05:54:32.202410 32758 net.cpp:106] Creating Layer data_hdf5
I0523 05:54:32.202425 32758 net.cpp:411] data_hdf5 -> data
I0523 05:54:32.202460 32758 net.cpp:411] data_hdf5 -> label
I0523 05:54:32.202491 32758 hdf5_data_layer.cpp:79] Loading list of HDF5 filenames from: /lustre/atlas/proj-shared/hep105/caffe_titan/minosmatch_nukecczdefs_127x50_x_unshifted_me1Bmc.trainlist
I0523 05:54:32.209460 32758 hdf5_data_layer.cpp:93] Number of HDF5 files: 15
I0523 05:54:32.220652 32758 hdf5.cpp:32] Datatype class: H5T_FLOAT
I0523 05:54:53.859091 32758 hdf5.cpp:35] Datatype class: H5T_INTEGER
I0523 05:54:53.864246 32758 net.cpp:150] Setting up data_hdf5
I0523 05:54:53.864287 32758 net.cpp:157] Top shape: 50 1 127 50 (317500)
I0523 05:54:53.864301 32758 net.cpp:157] Top shape: 50 (50)
I0523 05:54:53.864312 32758 net.cpp:165] Memory required for data: 1270200
I0523 05:54:53.864326 32758 layer_factory.hpp:77] Creating layer conv1
I0523 05:54:53.864361 32758 net.cpp:106] Creating Layer conv1
I0523 05:54:53.864372 32758 net.cpp:454] conv1 <- data
I0523 05:54:53.864392 32758 net.cpp:411] conv1 -> conv1
I0523 05:54:56.837373 32758 net.cpp:150] Setting up conv1
I0523 05:54:56.837419 32758 net.cpp:157] Top shape: 50 12 120 48 (3456000)
I0523 05:54:56.837430 32758 net.cpp:165] Memory required for data: 15094200
I0523 05:54:56.837460 32758 layer_factory.hpp:77] Creating layer relu1
I0523 05:54:56.837481 32758 net.cpp:106] Creating Layer relu1
I0523 05:54:56.837491 32758 net.cpp:454] relu1 <- conv1
I0523 05:54:56.837505 32758 net.cpp:397] relu1 -> conv1 (in-place)
I0523 05:54:56.838021 32758 net.cpp:150] Setting up relu1
I0523 05:54:56.838037 32758 net.cpp:157] Top shape: 50 12 120 48 (3456000)
I0523 05:54:56.838047 32758 net.cpp:165] Memory required for data: 28918200
I0523 05:54:56.838057 32758 layer_factory.hpp:77] Creating layer pool1
I0523 05:54:56.838074 32758 net.cpp:106] Creating Layer pool1
I0523 05:54:56.838084 32758 net.cpp:454] pool1 <- conv1
I0523 05:54:56.838098 32758 net.cpp:411] pool1 -> pool1
I0523 05:54:56.838177 32758 net.cpp:150] Setting up pool1
I0523 05:54:56.838192 32758 net.cpp:157] Top shape: 50 12 60 48 (1728000)
I0523 05:54:56.838202 32758 net.cpp:165] Memory required for data: 35830200
I0523 05:54:56.838212 32758 layer_factory.hpp:77] Creating layer conv2
I0523 05:54:56.838235 32758 net.cpp:106] Creating Layer conv2
I0523 05:54:56.838245 32758 net.cpp:454] conv2 <- pool1
I0523 05:54:56.838259 32758 net.cpp:411] conv2 -> conv2
I0523 05:54:56.840945 32758 net.cpp:150] Setting up conv2
I0523 05:54:56.840972 32758 net.cpp:157] Top shape: 50 20 54 46 (2484000)
I0523 05:54:56.840983 32758 net.cpp:165] Memory required for data: 45766200
I0523 05:54:56.841002 32758 layer_factory.hpp:77] Creating layer relu2
I0523 05:54:56.841038 32758 net.cpp:106] Creating Layer relu2
I0523 05:54:56.841050 32758 net.cpp:454] relu2 <- conv2
I0523 05:54:56.841061 32758 net.cpp:397] relu2 -> conv2 (in-place)
I0523 05:54:56.841395 32758 net.cpp:150] Setting up relu2
I0523 05:54:56.841410 32758 net.cpp:157] Top shape: 50 20 54 46 (2484000)
I0523 05:54:56.841420 32758 net.cpp:165] Memory required for data: 55702200
I0523 05:54:56.841430 32758 layer_factory.hpp:77] Creating layer pool2
I0523 05:54:56.841444 32758 net.cpp:106] Creating Layer pool2
I0523 05:54:56.841454 32758 net.cpp:454] pool2 <- conv2
I0523 05:54:56.841466 32758 net.cpp:411] pool2 -> pool2
I0523 05:54:56.841547 32758 net.cpp:150] Setting up pool2
I0523 05:54:56.841560 32758 net.cpp:157] Top shape: 50 20 27 46 (1242000)
I0523 05:54:56.841570 32758 net.cpp:165] Memory required for data: 60670200
I0523 05:54:56.841580 32758 layer_factory.hpp:77] Creating layer conv3
I0523 05:54:56.841598 32758 net.cpp:106] Creating Layer conv3
I0523 05:54:56.841609 32758 net.cpp:454] conv3 <- pool2
I0523 05:54:56.841622 32758 net.cpp:411] conv3 -> conv3
I0523 05:54:56.843565 32758 net.cpp:150] Setting up conv3
I0523 05:54:56.843588 32758 net.cpp:157] Top shape: 50 28 22 44 (1355200)
I0523 05:54:56.843601 32758 net.cpp:165] Memory required for data: 66091000
I0523 05:54:56.843619 32758 layer_factory.hpp:77] Creating layer relu3
I0523 05:54:56.843636 32758 net.cpp:106] Creating Layer relu3
I0523 05:54:56.843646 32758 net.cpp:454] relu3 <- conv3
I0523 05:54:56.843658 32758 net.cpp:397] relu3 -> conv3 (in-place)
I0523 05:54:56.844130 32758 net.cpp:150] Setting up relu3
I0523 05:54:56.844146 32758 net.cpp:157] Top shape: 50 28 22 44 (1355200)
I0523 05:54:56.844157 32758 net.cpp:165] Memory required for data: 71511800
I0523 05:54:56.844167 32758 layer_factory.hpp:77] Creating layer pool3
I0523 05:54:56.844180 32758 net.cpp:106] Creating Layer pool3
I0523 05:54:56.844190 32758 net.cpp:454] pool3 <- conv3
I0523 05:54:56.844202 32758 net.cpp:411] pool3 -> pool3
I0523 05:54:56.844270 32758 net.cpp:150] Setting up pool3
I0523 05:54:56.844283 32758 net.cpp:157] Top shape: 50 28 11 44 (677600)
I0523 05:54:56.844292 32758 net.cpp:165] Memory required for data: 74222200
I0523 05:54:56.844302 32758 layer_factory.hpp:77] Creating layer conv4
I0523 05:54:56.844317 32758 net.cpp:106] Creating Layer conv4
I0523 05:54:56.844327 32758 net.cpp:454] conv4 <- pool3
I0523 05:54:56.844341 32758 net.cpp:411] conv4 -> conv4
I0523 05:54:56.847101 32758 net.cpp:150] Setting up conv4
I0523 05:54:56.847137 32758 net.cpp:157] Top shape: 50 36 6 42 (453600)
I0523 05:54:56.847147 32758 net.cpp:165] Memory required for data: 76036600
I0523 05:54:56.847165 32758 layer_factory.hpp:77] Creating layer relu4
I0523 05:54:56.847179 32758 net.cpp:106] Creating Layer relu4
I0523 05:54:56.847190 32758 net.cpp:454] relu4 <- conv4
I0523 05:54:56.847203 32758 net.cpp:397] relu4 -> conv4 (in-place)
I0523 05:54:56.847677 32758 net.cpp:150] Setting up relu4
I0523 05:54:56.847693 32758 net.cpp:157] Top shape: 50 36 6 42 (453600)
I0523 05:54:56.847704 32758 net.cpp:165] Memory required for data: 77851000
I0523 05:54:56.847715 32758 layer_factory.hpp:77] Creating layer pool4
I0523 05:54:56.847728 32758 net.cpp:106] Creating Layer pool4
I0523 05:54:56.847738 32758 net.cpp:454] pool4 <- conv4
I0523 05:54:56.847750 32758 net.cpp:411] pool4 -> pool4
I0523 05:54:56.847818 32758 net.cpp:150] Setting up pool4
I0523 05:54:56.847831 32758 net.cpp:157] Top shape: 50 36 3 42 (226800)
I0523 05:54:56.847842 32758 net.cpp:165] Memory required for data: 78758200
I0523 05:54:56.847852 32758 layer_factory.hpp:77] Creating layer ip1
I0523 05:54:56.847872 32758 net.cpp:106] Creating Layer ip1
I0523 05:54:56.847882 32758 net.cpp:454] ip1 <- pool4
I0523 05:54:56.847895 32758 net.cpp:411] ip1 -> ip1
I0523 05:54:56.863312 32758 net.cpp:150] Setting up ip1
I0523 05:54:56.863340 32758 net.cpp:157] Top shape: 50 196 (9800)
I0523 05:54:56.863353 32758 net.cpp:165] Memory required for data: 78797400
I0523 05:54:56.863375 32758 layer_factory.hpp:77] Creating layer relu5
I0523 05:54:56.863390 32758 net.cpp:106] Creating Layer relu5
I0523 05:54:56.863400 32758 net.cpp:454] relu5 <- ip1
I0523 05:54:56.863414 32758 net.cpp:397] relu5 -> ip1 (in-place)
I0523 05:54:56.863757 32758 net.cpp:150] Setting up relu5
I0523 05:54:56.863771 32758 net.cpp:157] Top shape: 50 196 (9800)
I0523 05:54:56.863782 32758 net.cpp:165] Memory required for data: 78836600
I0523 05:54:56.863792 32758 layer_factory.hpp:77] Creating layer drop1
I0523 05:54:56.863813 32758 net.cpp:106] Creating Layer drop1
I0523 05:54:56.863823 32758 net.cpp:454] drop1 <- ip1
I0523 05:54:56.863837 32758 net.cpp:397] drop1 -> ip1 (in-place)
I0523 05:54:56.863894 32758 net.cpp:150] Setting up drop1
I0523 05:54:56.863909 32758 net.cpp:157] Top shape: 50 196 (9800)
I0523 05:54:56.863919 32758 net.cpp:165] Memory required for data: 78875800
I0523 05:54:56.863929 32758 layer_factory.hpp:77] Creating layer ip2
I0523 05:54:56.863947 32758 net.cpp:106] Creating Layer ip2
I0523 05:54:56.863957 32758 net.cpp:454] ip2 <- ip1
I0523 05:54:56.863971 32758 net.cpp:411] ip2 -> ip2
I0523 05:54:56.864434 32758 net.cpp:150] Setting up ip2
I0523 05:54:56.864446 32758 net.cpp:157] Top shape: 50 98 (4900)
I0523 05:54:56.864456 32758 net.cpp:165] Memory required for data: 78895400
I0523 05:54:56.864471 32758 layer_factory.hpp:77] Creating layer relu6
I0523 05:54:56.864483 32758 net.cpp:106] Creating Layer relu6
I0523 05:54:56.864493 32758 net.cpp:454] relu6 <- ip2
I0523 05:54:56.864506 32758 net.cpp:397] relu6 -> ip2 (in-place)
I0523 05:54:56.865020 32758 net.cpp:150] Setting up relu6
I0523 05:54:56.865036 32758 net.cpp:157] Top shape: 50 98 (4900)
I0523 05:54:56.865046 32758 net.cpp:165] Memory required for data: 78915000
I0523 05:54:56.865058 32758 layer_factory.hpp:77] Creating layer drop2
I0523 05:54:56.865072 32758 net.cpp:106] Creating Layer drop2
I0523 05:54:56.865082 32758 net.cpp:454] drop2 <- ip2
I0523 05:54:56.865093 32758 net.cpp:397] drop2 -> ip2 (in-place)
I0523 05:54:56.865135 32758 net.cpp:150] Setting up drop2
I0523 05:54:56.865149 32758 net.cpp:157] Top shape: 50 98 (4900)
I0523 05:54:56.865159 32758 net.cpp:165] Memory required for data: 78934600
I0523 05:54:56.865170 32758 layer_factory.hpp:77] Creating layer ip3
I0523 05:54:56.865182 32758 net.cpp:106] Creating Layer ip3
I0523 05:54:56.865192 32758 net.cpp:454] ip3 <- ip2
I0523 05:54:56.865203 32758 net.cpp:411] ip3 -> ip3
I0523 05:54:56.865413 32758 net.cpp:150] Setting up ip3
I0523 05:54:56.865427 32758 net.cpp:157] Top shape: 50 11 (550)
I0523 05:54:56.865437 32758 net.cpp:165] Memory required for data: 78936800
I0523 05:54:56.865453 32758 layer_factory.hpp:77] Creating layer drop3
I0523 05:54:56.865464 32758 net.cpp:106] Creating Layer drop3
I0523 05:54:56.865474 32758 net.cpp:454] drop3 <- ip3
I0523 05:54:56.865486 32758 net.cpp:397] drop3 -> ip3 (in-place)
I0523 05:54:56.865525 32758 net.cpp:150] Setting up drop3
I0523 05:54:56.865538 32758 net.cpp:157] Top shape: 50 11 (550)
I0523 05:54:56.865548 32758 net.cpp:165] Memory required for data: 78939000
I0523 05:54:56.865558 32758 layer_factory.hpp:77] Creating layer loss
I0523 05:54:56.865577 32758 net.cpp:106] Creating Layer loss
I0523 05:54:56.865586 32758 net.cpp:454] loss <- ip3
I0523 05:54:56.865597 32758 net.cpp:454] loss <- label
I0523 05:54:56.865609 32758 net.cpp:411] loss -> loss
I0523 05:54:56.865628 32758 layer_factory.hpp:77] Creating layer loss
…
I0523 05:54:56.868239 32758 solver.cpp:181] Creating test net (#0) specified by net file: /lustre/atlas/proj-shared/hep105/caffe_titan/caffe_workflow/logs_bslr/bs_50_lr_0.0025_2016-05-20T15.49.06.322924.prototxt
I0523 05:54:56.868311 32758 net.cpp:322] The NetState phase (1) differed from the phase (0) specified by a rule in layer data_hdf5
I0523 05:54:56.868669 32758 net.cpp:49] Initializing net from parameters: 
name: "caffe_test_127x50_x_unshifted"
state {
  phase: TEST
}
layer {
  name: "data_hdf5"
  type: "HDF5Data"
  top: "data"
  top: "label"
  include {
    phase: TEST
  }
  hdf5_data_param {
    source: "/lustre/atlas/proj-shared/hep105/caffe_titan/minosmatch_nukecczdefs_127x50_x_unshifted_me1Bmc.testlist"
    batch_size: 50
  }
}
layer {
  name: "conv1"
  type: "Convolution"
  bottom: "data"
  top: "conv1"
  convolution_param {
    num_output: 12
    pad: 0
    stride: 1
    weight_filler {
      type: "xavier"
    }
    bias_filler {
      type: "constant"
    }
    kernel_h: 8
    kernel_w: 3
  }
}
layer {
  name: "relu1"
  type: "ReLU"
  bottom: "conv1"
  top: "conv1"
}
layer {
  name: "pool1"
  type: "Pooling"
  bottom: "conv1"
  top: "pool1"
  pooling_param {
    pool: MAX
    kernel_h: 2
    kernel_w: 1
    stride_h: 2
    stride_w: 1
  }
}
layer {
  name: "conv2"
  type: "Convolution"
  bottom: "pool1"
  top: "conv2"
  convolution_param {
    num_output: 20
    pad: 0
    stride: 1
    weight_filler {
      type: "xavier"
    }
    bias_filler {
      type: "constant"
    }
    kernel_h: 7
    kernel_w: 3
  }
}
layer {
  name: "relu2"
  type: "ReLU"
  bottom: "conv2"
  top: "conv2"
}
layer {
  name: "pool2"
  type: "Pooling"
  bottom: "conv2"
  top: "pool2"
  pooling_param {
    pool: MAX
    kernel_h: 2
    kernel_w: 1
    stride_h: 2
    stride_w: 1
  }
}
layer {
  name: "conv3"
  type: "Convolution"
  bottom: "pool2"
  top: "conv3"
  convolution_param {
    num_output: 28
    pad: 0
    stride: 1
    weight_filler {
      type: "xavier"
    }
    bias_filler {
      type: "constant"
    }
    kernel_h: 6
    kernel_w: 3
  }
}
layer {
  name: "relu3"
  type: "ReLU"
  bottom: "conv3"
  top: "conv3"
}
layer {
  name: "pool3"
  type: "Pooling"
  bottom: "conv3"
  top: "pool3"
  pooling_param {
    pool: MAX
    kernel_h: 2
    kernel_w: 1
    stride_h: 2
    stride_w: 1
  }
}
layer {
  name: "conv4"
  type: "Convolution"
  bottom: "pool3"
  top: "conv4"
  convolution_param {
    num_output: 36
    pad: 0
    stride: 1
    weight_filler {
      type: "xavier"
    }
    bias_filler {
      type: "constant"
    }
    kernel_h: 6
    kernel_w: 3
  }
}
layer {
  name: "relu4"
  type: "ReLU"
  bottom: "conv4"
  top: "conv4"
}
layer {
  name: "pool4"
  type: "Pooling"
  bottom: "conv4"
  top: "pool4"
  pooling_param {
    pool: MAX
    kernel_h: 2
    kernel_w: 1
    stride_h: 2
    stride_w: 1
  }
}
layer {
  name: "ip1"
  type: "InnerProduct"
  bottom: "pool4"
  top: "ip1"
  inner_product_param {
    num_output: 196
    weight_filler {
      type: "xavier"
    }
    bias_filler {
      type: "constant"
    }
  }
}
layer {
  name: "relu5"
  type: "ReLU"
  bottom: "ip1"
  top: "ip1"
}
layer {
  name: "drop1"
  type: "Dropout"
  bottom: "ip1"
  top: "ip1"
  dropout_param {
    dropout_ratio: 0.5
  }
}
layer {
  name: "ip2"
  type: "InnerProduct"
  bottom: "ip1"
  top: "ip2"
  inner_product_param {
    num_output: 98
    weight_filler {
      type: "xavier"
    }
    bias_filler {
      type: "constant"
    }
  }
}
layer {
  name: "relu6"
  type: "ReLU"
  bottom: "ip2"
  top: "ip2"
}
layer {
  name: "drop2"
  type: "Dropout"
  bottom: "ip2"
  top: "ip2"
  dropout_param {
    dropout_ratio: 0.5
  }
}
layer {
  name: "ip3"
  type: "InnerProduct"
  bottom: "ip2"
  top: "ip3"
  inner_product_param {
    num_output: 11
    weight_filler {
      type: "xavier"
    }
    bias_filler {
      type: "constant"
    }
  }
}
layer {
  name: "drop3"
  type: "Dropout"
  bottom: "ip3"
  top: "ip3"
  dropout_param {
    dropout_ratio: 0.5
  }
}
layer {
  name: "accuracy"
  type: "Accuracy"
  bottom: "ip3"
  bottom: "label"
  top: "accuracy"
  include {
    phase: TEST
  }
}
layer {
  name: "loss"
  type: "SoftmaxWithLoss"
  bottom: "ip3"
  bottom: "label"
  top: "loss"
}
I0523 05:54:56.868855 32758 layer_factory.hpp:77] Creating layer data_hdf5
I0523 05:54:56.868870 32758 net.cpp:106] Creating Layer data_hdf5
I0523 05:54:56.868882 32758 net.cpp:411] data_hdf5 -> data
I0523 05:54:56.868898 32758 net.cpp:411] data_hdf5 -> label
I0523 05:54:56.868914 32758 hdf5_data_layer.cpp:79] Loading list of HDF5 filenames from: /lustre/atlas/proj-shared/hep105/caffe_titan/minosmatch_nukecczdefs_127x50_x_unshifted_me1Bmc.testlist
I0523 05:54:56.884582 32758 hdf5_data_layer.cpp:93] Number of HDF5 files: 3
I0523 05:55:18.265663 32758 net.cpp:150] Setting up data_hdf5
I0523 05:55:18.265827 32758 net.cpp:157] Top shape: 50 1 127 50 (317500)
I0523 05:55:18.265841 32758 net.cpp:157] Top shape: 50 (50)
I0523 05:55:18.265853 32758 net.cpp:165] Memory required for data: 1270200
I0523 05:55:18.265866 32758 layer_factory.hpp:77] Creating layer label_data_hdf5_1_split
I0523 05:55:18.265894 32758 net.cpp:106] Creating Layer label_data_hdf5_1_split
I0523 05:55:18.265905 32758 net.cpp:454] label_data_hdf5_1_split <- label
I0523 05:55:18.265920 32758 net.cpp:411] label_data_hdf5_1_split -> label_data_hdf5_1_split_0
I0523 05:55:18.265943 32758 net.cpp:411] label_data_hdf5_1_split -> label_data_hdf5_1_split_1
I0523 05:55:18.266015 32758 net.cpp:150] Setting up label_data_hdf5_1_split
I0523 05:55:18.266028 32758 net.cpp:157] Top shape: 50 (50)
I0523 05:55:18.266039 32758 net.cpp:157] Top shape: 50 (50)
I0523 05:55:18.266049 32758 net.cpp:165] Memory required for data: 1270600
I0523 05:55:18.266059 32758 layer_factory.hpp:77] Creating layer conv1
I0523 05:55:18.266082 32758 net.cpp:106] Creating Layer conv1
I0523 05:55:18.266091 32758 net.cpp:454] conv1 <- data
I0523 05:55:18.266104 32758 net.cpp:411] conv1 -> conv1
I0523 05:55:18.268023 32758 net.cpp:150] Setting up conv1
I0523 05:55:18.268049 32758 net.cpp:157] Top shape: 50 12 120 48 (3456000)
I0523 05:55:18.268060 32758 net.cpp:165] Memory required for data: 15094600
I0523 05:55:18.268079 32758 layer_factory.hpp:77] Creating layer relu1
I0523 05:55:18.268095 32758 net.cpp:106] Creating Layer relu1
I0523 05:55:18.268105 32758 net.cpp:454] relu1 <- conv1
I0523 05:55:18.268118 32758 net.cpp:397] relu1 -> conv1 (in-place)
I0523 05:55:18.268612 32758 net.cpp:150] Setting up relu1
I0523 05:55:18.268628 32758 net.cpp:157] Top shape: 50 12 120 48 (3456000)
I0523 05:55:18.268640 32758 net.cpp:165] Memory required for data: 28918600
I0523 05:55:18.268649 32758 layer_factory.hpp:77] Creating layer pool1
I0523 05:55:18.268666 32758 net.cpp:106] Creating Layer pool1
I0523 05:55:18.268676 32758 net.cpp:454] pool1 <- conv1
I0523 05:55:18.268688 32758 net.cpp:411] pool1 -> pool1
I0523 05:55:18.268762 32758 net.cpp:150] Setting up pool1
I0523 05:55:18.268776 32758 net.cpp:157] Top shape: 50 12 60 48 (1728000)
I0523 05:55:18.268785 32758 net.cpp:165] Memory required for data: 35830600
I0523 05:55:18.268796 32758 layer_factory.hpp:77] Creating layer conv2
I0523 05:55:18.268815 32758 net.cpp:106] Creating Layer conv2
I0523 05:55:18.268824 32758 net.cpp:454] conv2 <- pool1
I0523 05:55:18.268839 32758 net.cpp:411] conv2 -> conv2
I0523 05:55:18.270747 32758 net.cpp:150] Setting up conv2
I0523 05:55:18.270769 32758 net.cpp:157] Top shape: 50 20 54 46 (2484000)
I0523 05:55:18.270782 32758 net.cpp:165] Memory required for data: 45766600
I0523 05:55:18.270799 32758 layer_factory.hpp:77] Creating layer relu2
I0523 05:55:18.270813 32758 net.cpp:106] Creating Layer relu2
I0523 05:55:18.270823 32758 net.cpp:454] relu2 <- conv2
I0523 05:55:18.270835 32758 net.cpp:397] relu2 -> conv2 (in-place)
I0523 05:55:18.271176 32758 net.cpp:150] Setting up relu2
I0523 05:55:18.271189 32758 net.cpp:157] Top shape: 50 20 54 46 (2484000)
I0523 05:55:18.271199 32758 net.cpp:165] Memory required for data: 55702600
I0523 05:55:18.271209 32758 layer_factory.hpp:77] Creating layer pool2
I0523 05:55:18.271222 32758 net.cpp:106] Creating Layer pool2
I0523 05:55:18.271232 32758 net.cpp:454] pool2 <- conv2
I0523 05:55:18.271245 32758 net.cpp:411] pool2 -> pool2
I0523 05:55:18.271317 32758 net.cpp:150] Setting up pool2
I0523 05:55:18.271332 32758 net.cpp:157] Top shape: 50 20 27 46 (1242000)
I0523 05:55:18.271340 32758 net.cpp:165] Memory required for data: 60670600
I0523 05:55:18.271350 32758 layer_factory.hpp:77] Creating layer conv3
I0523 05:55:18.271368 32758 net.cpp:106] Creating Layer conv3
I0523 05:55:18.271378 32758 net.cpp:454] conv3 <- pool2
I0523 05:55:18.271391 32758 net.cpp:411] conv3 -> conv3
I0523 05:55:18.273363 32758 net.cpp:150] Setting up conv3
I0523 05:55:18.273381 32758 net.cpp:157] Top shape: 50 28 22 44 (1355200)
I0523 05:55:18.273392 32758 net.cpp:165] Memory required for data: 66091400
I0523 05:55:18.273424 32758 layer_factory.hpp:77] Creating layer relu3
I0523 05:55:18.273438 32758 net.cpp:106] Creating Layer relu3
I0523 05:55:18.273448 32758 net.cpp:454] relu3 <- conv3
I0523 05:55:18.273463 32758 net.cpp:397] relu3 -> conv3 (in-place)
I0523 05:55:18.273932 32758 net.cpp:150] Setting up relu3
I0523 05:55:18.273948 32758 net.cpp:157] Top shape: 50 28 22 44 (1355200)
I0523 05:55:18.273958 32758 net.cpp:165] Memory required for data: 71512200
I0523 05:55:18.273968 32758 layer_factory.hpp:77] Creating layer pool3
I0523 05:55:18.273982 32758 net.cpp:106] Creating Layer pool3
I0523 05:55:18.273991 32758 net.cpp:454] pool3 <- conv3
I0523 05:55:18.274003 32758 net.cpp:411] pool3 -> pool3
I0523 05:55:18.274075 32758 net.cpp:150] Setting up pool3
I0523 05:55:18.274087 32758 net.cpp:157] Top shape: 50 28 11 44 (677600)
I0523 05:55:18.274097 32758 net.cpp:165] Memory required for data: 74222600
I0523 05:55:18.274107 32758 layer_factory.hpp:77] Creating layer conv4
I0523 05:55:18.274123 32758 net.cpp:106] Creating Layer conv4
I0523 05:55:18.274134 32758 net.cpp:454] conv4 <- pool3
I0523 05:55:18.274148 32758 net.cpp:411] conv4 -> conv4
I0523 05:55:18.276209 32758 net.cpp:150] Setting up conv4
I0523 05:55:18.276226 32758 net.cpp:157] Top shape: 50 36 6 42 (453600)
I0523 05:55:18.276237 32758 net.cpp:165] Memory required for data: 76037000
I0523 05:55:18.276255 32758 layer_factory.hpp:77] Creating layer relu4
I0523 05:55:18.276268 32758 net.cpp:106] Creating Layer relu4
I0523 05:55:18.276279 32758 net.cpp:454] relu4 <- conv4
I0523 05:55:18.276291 32758 net.cpp:397] relu4 -> conv4 (in-place)
I0523 05:55:18.276762 32758 net.cpp:150] Setting up relu4
I0523 05:55:18.276778 32758 net.cpp:157] Top shape: 50 36 6 42 (453600)
I0523 05:55:18.276788 32758 net.cpp:165] Memory required for data: 77851400
I0523 05:55:18.276799 32758 layer_factory.hpp:77] Creating layer pool4
I0523 05:55:18.276813 32758 net.cpp:106] Creating Layer pool4
I0523 05:55:18.276823 32758 net.cpp:454] pool4 <- conv4
I0523 05:55:18.276835 32758 net.cpp:411] pool4 -> pool4
I0523 05:55:18.276906 32758 net.cpp:150] Setting up pool4
I0523 05:55:18.276921 32758 net.cpp:157] Top shape: 50 36 3 42 (226800)
I0523 05:55:18.276929 32758 net.cpp:165] Memory required for data: 78758600
I0523 05:55:18.276939 32758 layer_factory.hpp:77] Creating layer ip1
I0523 05:55:18.276953 32758 net.cpp:106] Creating Layer ip1
I0523 05:55:18.276964 32758 net.cpp:454] ip1 <- pool4
I0523 05:55:18.276978 32758 net.cpp:411] ip1 -> ip1
I0523 05:55:18.292474 32758 net.cpp:150] Setting up ip1
I0523 05:55:18.292503 32758 net.cpp:157] Top shape: 50 196 (9800)
I0523 05:55:18.292518 32758 net.cpp:165] Memory required for data: 78797800
I0523 05:55:18.292541 32758 layer_factory.hpp:77] Creating layer relu5
I0523 05:55:18.292556 32758 net.cpp:106] Creating Layer relu5
I0523 05:55:18.292565 32758 net.cpp:454] relu5 <- ip1
I0523 05:55:18.292580 32758 net.cpp:397] relu5 -> ip1 (in-place)
I0523 05:55:18.292929 32758 net.cpp:150] Setting up relu5
I0523 05:55:18.292943 32758 net.cpp:157] Top shape: 50 196 (9800)
I0523 05:55:18.292953 32758 net.cpp:165] Memory required for data: 78837000
I0523 05:55:18.292963 32758 layer_factory.hpp:77] Creating layer drop1
I0523 05:55:18.292982 32758 net.cpp:106] Creating Layer drop1
I0523 05:55:18.292992 32758 net.cpp:454] drop1 <- ip1
I0523 05:55:18.293006 32758 net.cpp:397] drop1 -> ip1 (in-place)
I0523 05:55:18.293051 32758 net.cpp:150] Setting up drop1
I0523 05:55:18.293063 32758 net.cpp:157] Top shape: 50 196 (9800)
I0523 05:55:18.293073 32758 net.cpp:165] Memory required for data: 78876200
I0523 05:55:18.293083 32758 layer_factory.hpp:77] Creating layer ip2
I0523 05:55:18.293097 32758 net.cpp:106] Creating Layer ip2
I0523 05:55:18.293107 32758 net.cpp:454] ip2 <- ip1
I0523 05:55:18.293120 32758 net.cpp:411] ip2 -> ip2
I0523 05:55:18.293598 32758 net.cpp:150] Setting up ip2
I0523 05:55:18.293612 32758 net.cpp:157] Top shape: 50 98 (4900)
I0523 05:55:18.293622 32758 net.cpp:165] Memory required for data: 78895800
I0523 05:55:18.293637 32758 layer_factory.hpp:77] Creating layer relu6
I0523 05:55:18.293660 32758 net.cpp:106] Creating Layer relu6
I0523 05:55:18.293670 32758 net.cpp:454] relu6 <- ip2
I0523 05:55:18.293684 32758 net.cpp:397] relu6 -> ip2 (in-place)
I0523 05:55:18.294216 32758 net.cpp:150] Setting up relu6
I0523 05:55:18.294232 32758 net.cpp:157] Top shape: 50 98 (4900)
I0523 05:55:18.294244 32758 net.cpp:165] Memory required for data: 78915400
I0523 05:55:18.294256 32758 layer_factory.hpp:77] Creating layer drop2
I0523 05:55:18.294270 32758 net.cpp:106] Creating Layer drop2
I0523 05:55:18.294280 32758 net.cpp:454] drop2 <- ip2
I0523 05:55:18.294292 32758 net.cpp:397] drop2 -> ip2 (in-place)
I0523 05:55:18.294337 32758 net.cpp:150] Setting up drop2
I0523 05:55:18.294349 32758 net.cpp:157] Top shape: 50 98 (4900)
I0523 05:55:18.294358 32758 net.cpp:165] Memory required for data: 78935000
I0523 05:55:18.294368 32758 layer_factory.hpp:77] Creating layer ip3
I0523 05:55:18.294381 32758 net.cpp:106] Creating Layer ip3
I0523 05:55:18.294391 32758 net.cpp:454] ip3 <- ip2
I0523 05:55:18.294405 32758 net.cpp:411] ip3 -> ip3
I0523 05:55:18.294625 32758 net.cpp:150] Setting up ip3
I0523 05:55:18.294638 32758 net.cpp:157] Top shape: 50 11 (550)
I0523 05:55:18.294648 32758 net.cpp:165] Memory required for data: 78937200
I0523 05:55:18.294662 32758 layer_factory.hpp:77] Creating layer drop3
I0523 05:55:18.294674 32758 net.cpp:106] Creating Layer drop3
I0523 05:55:18.294684 32758 net.cpp:454] drop3 <- ip3
I0523 05:55:18.294697 32758 net.cpp:397] drop3 -> ip3 (in-place)
I0523 05:55:18.294737 32758 net.cpp:150] Setting up drop3
I0523 05:55:18.294750 32758 net.cpp:157] Top shape: 50 11 (550)
I0523 05:55:18.294760 32758 net.cpp:165] Memory required for data: 78939400
I0523 05:55:18.294770 32758 layer_factory.hpp:77] Creating layer ip3_drop3_0_split
I0523 05:55:18.294782 32758 net.cpp:106] Creating Layer ip3_drop3_0_split
I0523 05:55:18.294791 32758 net.cpp:454] ip3_drop3_0_split <- ip3
I0523 05:55:18.294805 32758 net.cpp:411] ip3_drop3_0_split -> ip3_drop3_0_split_0
I0523 05:55:18.294819 32758 net.cpp:411] ip3_drop3_0_split -> ip3_drop3_0_split_1
I0523 05:55:18.294891 32758 net.cpp:150] Setting up ip3_drop3_0_split
I0523 05:55:18.294904 32758 net.cpp:157] Top shape: 50 11 (550)
I0523 05:55:18.294917 32758 net.cpp:157] Top shape: 50 11 (550)
I0523 05:55:18.294927 32758 net.cpp:165] Memory required for data: 78943800
I0523 05:55:18.294937 32758 layer_factory.hpp:77] Creating layer accuracy
I0523 05:55:18.294958 32758 net.cpp:106] Creating Layer accuracy
I0523 05:55:18.294967 32758 net.cpp:454] accuracy <- ip3_drop3_0_split_0
I0523 05:55:18.294978 32758 net.cpp:454] accuracy <- label_data_hdf5_1_split_0
I0523 05:55:18.294992 32758 net.cpp:411] accuracy -> accuracy
…
