…
I0523 02:14:37.180464 32154 net.cpp:322] The NetState phase (0) differed from the phase (1) specified by a rule in layer data_hdf5
I0523 02:14:37.180531 32154 net.cpp:322] The NetState phase (0) differed from the phase (1) specified by a rule in layer accuracy
I0523 02:14:37.180905 32154 net.cpp:49] Initializing net from parameters: 
name: "caffe_test_127x50_x_unshifted"
state {
  phase: TRAIN
}
layer {
  name: "data_hdf5"
  type: "HDF5Data"
  top: "data"
  top: "label"
  include {
    phase: TRAIN
  }
  hdf5_data_param {
    source: "/lustre/atlas/proj-shared/hep105/caffe_titan/minosmatch_nukecczdefs_127x50_x_unshifted_me1Bmc.trainlist"
    batch_size: 50
  }
}
layer {
  name: "conv1"
  type: "Convolution"
  bottom: "data"
  top: "conv1"
  convolution_param {
    num_output: 12
    pad: 0
    stride: 1
    weight_filler {
      type: "xavier"
    }
    bias_filler {
      type: "constant"
    }
    kernel_h: 8
    kernel_w: 3
  }
}
layer {
  name: "relu1"
  type: "ReLU"
  bottom: "conv1"
  top: "conv1"
}
layer {
  name: "pool1"
  type: "Pooling"
  bottom: "conv1"
  top: "pool1"
  pooling_param {
    pool: MAX
    kernel_h: 2
    kernel_w: 1
    stride_h: 2
    stride_w: 1
  }
}
layer {
  name: "conv2"
  type: "Convolution"
  bottom: "pool1"
  top: "conv2"
  convolution_param {
    num_output: 20
    pad: 0
    stride: 1
    weight_filler {
      type: "xavier"
    }
    bias_filler {
      type: "constant"
    }
    kernel_h: 7
    kernel_w: 3
  }
}
layer {
  name: "relu2"
  type: "ReLU"
  bottom: "conv2"
  top: "conv2"
}
layer {
  name: "pool2"
  type: "Pooling"
  bottom: "conv2"
  top: "pool2"
  pooling_param {
    pool: MAX
    kernel_h: 2
    kernel_w: 1
    stride_h: 2
    stride_w: 1
  }
}
layer {
  name: "conv3"
  type: "Convolution"
  bottom: "pool2"
  top: "conv3"
  convolution_param {
    num_output: 28
    pad: 0
    stride: 1
    weight_filler {
      type: "xavier"
    }
    bias_filler {
      type: "constant"
    }
    kernel_h: 6
    kernel_w: 3
  }
}
layer {
  name: "relu3"
  type: "ReLU"
  bottom: "conv3"
  top: "conv3"
}
layer {
  name: "pool3"
  type: "Pooling"
  bottom: "conv3"
  top: "pool3"
  pooling_param {
    pool: MAX
    kernel_h: 2
    kernel_w: 1
    stride_h: 2
    stride_w: 1
  }
}
layer {
  name: "conv4"
  type: "Convolution"
  bottom: "pool3"
  top: "conv4"
  convolution_param {
    num_output: 36
    pad: 0
    stride: 1
    weight_filler {
      type: "xavier"
    }
    bias_filler {
      type: "constant"
    }
    kernel_h: 6
    kernel_w: 3
  }
}
layer {
  name: "relu4"
  type: "ReLU"
  bottom: "conv4"
  top: "conv4"
}
layer {
  name: "pool4"
  type: "Pooling"
  bottom: "conv4"
  top: "pool4"
  pooling_param {
    pool: MAX
    kernel_h: 2
    kernel_w: 1
    stride_h: 2
    stride_w: 1
  }
}
layer {
  name: "ip1"
  type: "InnerProduct"
  bottom: "pool4"
  top: "ip1"
  inner_product_param {
    num_output: 196
    weight_filler {
      type: "xavier"
    }
    bias_filler {
      type: "constant"
    }
  }
}
layer {
  name: "relu5"
  type: "ReLU"
  bottom: "ip1"
  top: "ip1"
}
layer {
  name: "drop1"
  type: "Dropout"
  bottom: "ip1"
  top: "ip1"
  dropout_param {
    dropout_ratio: 0.5
  }
}
layer {
  name: "ip2"
  type: "InnerProduct"
  bottom: "ip1"
  top: "ip2"
  inner_product_param {
    num_output: 98
    weight_filler {
      type: "xavier"
    }
    bias_filler {
      type: "constant"
    }
  }
}
layer {
  name: "relu6"
  type: "ReLU"
  bottom: "ip2"
  top: "ip2"
}
layer {
  name: "drop2"
  type: "Dropout"
  bottom: "ip2"
  top: "ip2"
  dropout_param {
    dropout_ratio: 0.5
  }
}
layer {
  name: "ip3"
  type: "InnerProduct"
  bottom: "ip2"
  top: "ip3"
  inner_product_param {
    num_output: 11
    weight_filler {
      type: "xavier"
    }
    bias_filler {
      type: "constant"
    }
  }
}
layer {
  name: "drop3"
  type: "Dropout"
  bottom: "ip3"
  top: "ip3"
  dropout_param {
    dropout_ratio: 0.5
  }
}
layer {
  name: "loss"
  type: "SoftmaxWithLoss"
  bottom: "ip3"
  bottom: "label"
  top: "loss"
}
I0523 02:14:37.181097 32154 layer_factory.hpp:77] Creating layer data_hdf5
I0523 02:14:37.181123 32154 net.cpp:106] Creating Layer data_hdf5
I0523 02:14:37.181145 32154 net.cpp:411] data_hdf5 -> data
I0523 02:14:37.181180 32154 net.cpp:411] data_hdf5 -> label
I0523 02:14:37.181213 32154 hdf5_data_layer.cpp:79] Loading list of HDF5 filenames from: /lustre/atlas/proj-shared/hep105/caffe_titan/minosmatch_nukecczdefs_127x50_x_unshifted_me1Bmc.trainlist
I0523 02:14:37.197165 32154 hdf5_data_layer.cpp:93] Number of HDF5 files: 15
I0523 02:14:37.199409 32154 hdf5.cpp:32] Datatype class: H5T_FLOAT
I0523 02:14:58.699419 32154 hdf5.cpp:35] Datatype class: H5T_INTEGER
I0523 02:14:58.704565 32154 net.cpp:150] Setting up data_hdf5
I0523 02:14:58.704608 32154 net.cpp:157] Top shape: 50 1 127 50 (317500)
I0523 02:14:58.704623 32154 net.cpp:157] Top shape: 50 (50)
I0523 02:14:58.704638 32154 net.cpp:165] Memory required for data: 1270200
I0523 02:14:58.704651 32154 layer_factory.hpp:77] Creating layer conv1
I0523 02:14:58.704685 32154 net.cpp:106] Creating Layer conv1
I0523 02:14:58.704696 32154 net.cpp:454] conv1 <- data
I0523 02:14:58.704717 32154 net.cpp:411] conv1 -> conv1
I0523 02:14:59.067065 32154 net.cpp:150] Setting up conv1
I0523 02:14:59.067108 32154 net.cpp:157] Top shape: 50 12 120 48 (3456000)
I0523 02:14:59.067131 32154 net.cpp:165] Memory required for data: 15094200
I0523 02:14:59.067158 32154 layer_factory.hpp:77] Creating layer relu1
I0523 02:14:59.067180 32154 net.cpp:106] Creating Layer relu1
I0523 02:14:59.067191 32154 net.cpp:454] relu1 <- conv1
I0523 02:14:59.067205 32154 net.cpp:397] relu1 -> conv1 (in-place)
I0523 02:14:59.067728 32154 net.cpp:150] Setting up relu1
I0523 02:14:59.067744 32154 net.cpp:157] Top shape: 50 12 120 48 (3456000)
I0523 02:14:59.067754 32154 net.cpp:165] Memory required for data: 28918200
I0523 02:14:59.067764 32154 layer_factory.hpp:77] Creating layer pool1
I0523 02:14:59.067781 32154 net.cpp:106] Creating Layer pool1
I0523 02:14:59.067791 32154 net.cpp:454] pool1 <- conv1
I0523 02:14:59.067805 32154 net.cpp:411] pool1 -> pool1
I0523 02:14:59.067885 32154 net.cpp:150] Setting up pool1
I0523 02:14:59.067899 32154 net.cpp:157] Top shape: 50 12 60 48 (1728000)
I0523 02:14:59.067909 32154 net.cpp:165] Memory required for data: 35830200
I0523 02:14:59.067919 32154 layer_factory.hpp:77] Creating layer conv2
I0523 02:14:59.067940 32154 net.cpp:106] Creating Layer conv2
I0523 02:14:59.067950 32154 net.cpp:454] conv2 <- pool1
I0523 02:14:59.067963 32154 net.cpp:411] conv2 -> conv2
I0523 02:14:59.070649 32154 net.cpp:150] Setting up conv2
I0523 02:14:59.070677 32154 net.cpp:157] Top shape: 50 20 54 46 (2484000)
I0523 02:14:59.070688 32154 net.cpp:165] Memory required for data: 45766200
I0523 02:14:59.070706 32154 layer_factory.hpp:77] Creating layer relu2
I0523 02:14:59.070721 32154 net.cpp:106] Creating Layer relu2
I0523 02:14:59.070731 32154 net.cpp:454] relu2 <- conv2
I0523 02:14:59.070744 32154 net.cpp:397] relu2 -> conv2 (in-place)
I0523 02:14:59.071074 32154 net.cpp:150] Setting up relu2
I0523 02:14:59.071089 32154 net.cpp:157] Top shape: 50 20 54 46 (2484000)
I0523 02:14:59.071099 32154 net.cpp:165] Memory required for data: 55702200
I0523 02:14:59.071110 32154 layer_factory.hpp:77] Creating layer pool2
I0523 02:14:59.071132 32154 net.cpp:106] Creating Layer pool2
I0523 02:14:59.071143 32154 net.cpp:454] pool2 <- conv2
I0523 02:14:59.071156 32154 net.cpp:411] pool2 -> pool2
I0523 02:14:59.071238 32154 net.cpp:150] Setting up pool2
I0523 02:14:59.071251 32154 net.cpp:157] Top shape: 50 20 27 46 (1242000)
I0523 02:14:59.071264 32154 net.cpp:165] Memory required for data: 60670200
I0523 02:14:59.071274 32154 layer_factory.hpp:77] Creating layer conv3
I0523 02:14:59.071291 32154 net.cpp:106] Creating Layer conv3
I0523 02:14:59.071301 32154 net.cpp:454] conv3 <- pool2
I0523 02:14:59.071316 32154 net.cpp:411] conv3 -> conv3
I0523 02:14:59.073256 32154 net.cpp:150] Setting up conv3
I0523 02:14:59.073274 32154 net.cpp:157] Top shape: 50 28 22 44 (1355200)
I0523 02:14:59.073284 32154 net.cpp:165] Memory required for data: 66091000
I0523 02:14:59.073303 32154 layer_factory.hpp:77] Creating layer relu3
I0523 02:14:59.073319 32154 net.cpp:106] Creating Layer relu3
I0523 02:14:59.073329 32154 net.cpp:454] relu3 <- conv3
I0523 02:14:59.073343 32154 net.cpp:397] relu3 -> conv3 (in-place)
I0523 02:14:59.073814 32154 net.cpp:150] Setting up relu3
I0523 02:14:59.073832 32154 net.cpp:157] Top shape: 50 28 22 44 (1355200)
I0523 02:14:59.073843 32154 net.cpp:165] Memory required for data: 71511800
I0523 02:14:59.073853 32154 layer_factory.hpp:77] Creating layer pool3
I0523 02:14:59.073866 32154 net.cpp:106] Creating Layer pool3
I0523 02:14:59.073875 32154 net.cpp:454] pool3 <- conv3
I0523 02:14:59.073889 32154 net.cpp:411] pool3 -> pool3
I0523 02:14:59.073956 32154 net.cpp:150] Setting up pool3
I0523 02:14:59.073969 32154 net.cpp:157] Top shape: 50 28 11 44 (677600)
I0523 02:14:59.073979 32154 net.cpp:165] Memory required for data: 74222200
I0523 02:14:59.073989 32154 layer_factory.hpp:77] Creating layer conv4
I0523 02:14:59.074003 32154 net.cpp:106] Creating Layer conv4
I0523 02:14:59.074014 32154 net.cpp:454] conv4 <- pool3
I0523 02:14:59.074028 32154 net.cpp:411] conv4 -> conv4
I0523 02:14:59.076822 32154 net.cpp:150] Setting up conv4
I0523 02:14:59.076850 32154 net.cpp:157] Top shape: 50 36 6 42 (453600)
I0523 02:14:59.076861 32154 net.cpp:165] Memory required for data: 76036600
I0523 02:14:59.076877 32154 layer_factory.hpp:77] Creating layer relu4
I0523 02:14:59.076891 32154 net.cpp:106] Creating Layer relu4
I0523 02:14:59.076901 32154 net.cpp:454] relu4 <- conv4
I0523 02:14:59.076915 32154 net.cpp:397] relu4 -> conv4 (in-place)
I0523 02:14:59.077386 32154 net.cpp:150] Setting up relu4
I0523 02:14:59.077404 32154 net.cpp:157] Top shape: 50 36 6 42 (453600)
I0523 02:14:59.077414 32154 net.cpp:165] Memory required for data: 77851000
I0523 02:14:59.077425 32154 layer_factory.hpp:77] Creating layer pool4
I0523 02:14:59.077436 32154 net.cpp:106] Creating Layer pool4
I0523 02:14:59.077447 32154 net.cpp:454] pool4 <- conv4
I0523 02:14:59.077461 32154 net.cpp:411] pool4 -> pool4
I0523 02:14:59.077528 32154 net.cpp:150] Setting up pool4
I0523 02:14:59.077543 32154 net.cpp:157] Top shape: 50 36 3 42 (226800)
I0523 02:14:59.077553 32154 net.cpp:165] Memory required for data: 78758200
I0523 02:14:59.077564 32154 layer_factory.hpp:77] Creating layer ip1
I0523 02:14:59.077584 32154 net.cpp:106] Creating Layer ip1
I0523 02:14:59.077594 32154 net.cpp:454] ip1 <- pool4
I0523 02:14:59.077607 32154 net.cpp:411] ip1 -> ip1
I0523 02:14:59.093066 32154 net.cpp:150] Setting up ip1
I0523 02:14:59.093091 32154 net.cpp:157] Top shape: 50 196 (9800)
I0523 02:14:59.093102 32154 net.cpp:165] Memory required for data: 78797400
I0523 02:14:59.093124 32154 layer_factory.hpp:77] Creating layer relu5
I0523 02:14:59.093139 32154 net.cpp:106] Creating Layer relu5
I0523 02:14:59.093149 32154 net.cpp:454] relu5 <- ip1
I0523 02:14:59.093163 32154 net.cpp:397] relu5 -> ip1 (in-place)
I0523 02:14:59.093508 32154 net.cpp:150] Setting up relu5
I0523 02:14:59.093521 32154 net.cpp:157] Top shape: 50 196 (9800)
I0523 02:14:59.093531 32154 net.cpp:165] Memory required for data: 78836600
I0523 02:14:59.093541 32154 layer_factory.hpp:77] Creating layer drop1
I0523 02:14:59.093564 32154 net.cpp:106] Creating Layer drop1
I0523 02:14:59.093574 32154 net.cpp:454] drop1 <- ip1
I0523 02:14:59.093586 32154 net.cpp:397] drop1 -> ip1 (in-place)
I0523 02:14:59.093644 32154 net.cpp:150] Setting up drop1
I0523 02:14:59.093658 32154 net.cpp:157] Top shape: 50 196 (9800)
I0523 02:14:59.093668 32154 net.cpp:165] Memory required for data: 78875800
I0523 02:14:59.093677 32154 layer_factory.hpp:77] Creating layer ip2
I0523 02:14:59.093696 32154 net.cpp:106] Creating Layer ip2
I0523 02:14:59.093708 32154 net.cpp:454] ip2 <- ip1
I0523 02:14:59.093720 32154 net.cpp:411] ip2 -> ip2
I0523 02:14:59.094270 32154 net.cpp:150] Setting up ip2
I0523 02:14:59.094290 32154 net.cpp:157] Top shape: 50 98 (4900)
I0523 02:14:59.094300 32154 net.cpp:165] Memory required for data: 78895400
I0523 02:14:59.094316 32154 layer_factory.hpp:77] Creating layer relu6
I0523 02:14:59.094328 32154 net.cpp:106] Creating Layer relu6
I0523 02:14:59.094339 32154 net.cpp:454] relu6 <- ip2
I0523 02:14:59.094352 32154 net.cpp:397] relu6 -> ip2 (in-place)
I0523 02:14:59.094868 32154 net.cpp:150] Setting up relu6
I0523 02:14:59.094885 32154 net.cpp:157] Top shape: 50 98 (4900)
I0523 02:14:59.094897 32154 net.cpp:165] Memory required for data: 78915000
I0523 02:14:59.094907 32154 layer_factory.hpp:77] Creating layer drop2
I0523 02:14:59.094920 32154 net.cpp:106] Creating Layer drop2
I0523 02:14:59.094930 32154 net.cpp:454] drop2 <- ip2
I0523 02:14:59.094944 32154 net.cpp:397] drop2 -> ip2 (in-place)
I0523 02:14:59.094985 32154 net.cpp:150] Setting up drop2
I0523 02:14:59.095000 32154 net.cpp:157] Top shape: 50 98 (4900)
I0523 02:14:59.095010 32154 net.cpp:165] Memory required for data: 78934600
I0523 02:14:59.095021 32154 layer_factory.hpp:77] Creating layer ip3
I0523 02:14:59.095033 32154 net.cpp:106] Creating Layer ip3
I0523 02:14:59.095043 32154 net.cpp:454] ip3 <- ip2
I0523 02:14:59.095057 32154 net.cpp:411] ip3 -> ip3
I0523 02:14:59.095274 32154 net.cpp:150] Setting up ip3
I0523 02:14:59.095288 32154 net.cpp:157] Top shape: 50 11 (550)
I0523 02:14:59.095298 32154 net.cpp:165] Memory required for data: 78936800
I0523 02:14:59.095312 32154 layer_factory.hpp:77] Creating layer drop3
I0523 02:14:59.095325 32154 net.cpp:106] Creating Layer drop3
I0523 02:14:59.095335 32154 net.cpp:454] drop3 <- ip3
I0523 02:14:59.095347 32154 net.cpp:397] drop3 -> ip3 (in-place)
I0523 02:14:59.095387 32154 net.cpp:150] Setting up drop3
I0523 02:14:59.095399 32154 net.cpp:157] Top shape: 50 11 (550)
I0523 02:14:59.095410 32154 net.cpp:165] Memory required for data: 78939000
I0523 02:14:59.095420 32154 layer_factory.hpp:77] Creating layer loss
I0523 02:14:59.095439 32154 net.cpp:106] Creating Layer loss
I0523 02:14:59.095449 32154 net.cpp:454] loss <- ip3
I0523 02:14:59.095460 32154 net.cpp:454] loss <- label
I0523 02:14:59.095473 32154 net.cpp:411] loss -> loss
I0523 02:14:59.095490 32154 layer_factory.hpp:77] Creating layer loss
…
I0523 02:14:59.098052 32154 solver.cpp:181] Creating test net (#0) specified by net file: /lustre/atlas/proj-shared/hep105/caffe_titan/caffe_workflow/logs_bslr/bs_50_lr_0.0010_2016-05-20T15.49.05.219286.prototxt
I0523 02:14:59.098124 32154 net.cpp:322] The NetState phase (1) differed from the phase (0) specified by a rule in layer data_hdf5
I0523 02:14:59.098480 32154 net.cpp:49] Initializing net from parameters: 
name: "caffe_test_127x50_x_unshifted"
state {
  phase: TEST
}
layer {
  name: "data_hdf5"
  type: "HDF5Data"
  top: "data"
  top: "label"
  include {
    phase: TEST
  }
  hdf5_data_param {
    source: "/lustre/atlas/proj-shared/hep105/caffe_titan/minosmatch_nukecczdefs_127x50_x_unshifted_me1Bmc.testlist"
    batch_size: 50
  }
}
layer {
  name: "conv1"
  type: "Convolution"
  bottom: "data"
  top: "conv1"
  convolution_param {
    num_output: 12
    pad: 0
    stride: 1
    weight_filler {
      type: "xavier"
    }
    bias_filler {
      type: "constant"
    }
    kernel_h: 8
    kernel_w: 3
  }
}
layer {
  name: "relu1"
  type: "ReLU"
  bottom: "conv1"
  top: "conv1"
}
layer {
  name: "pool1"
  type: "Pooling"
  bottom: "conv1"
  top: "pool1"
  pooling_param {
    pool: MAX
    kernel_h: 2
    kernel_w: 1
    stride_h: 2
    stride_w: 1
  }
}
layer {
  name: "conv2"
  type: "Convolution"
  bottom: "pool1"
  top: "conv2"
  convolution_param {
    num_output: 20
    pad: 0
    stride: 1
    weight_filler {
      type: "xavier"
    }
    bias_filler {
      type: "constant"
    }
    kernel_h: 7
    kernel_w: 3
  }
}
layer {
  name: "relu2"
  type: "ReLU"
  bottom: "conv2"
  top: "conv2"
}
layer {
  name: "pool2"
  type: "Pooling"
  bottom: "conv2"
  top: "pool2"
  pooling_param {
    pool: MAX
    kernel_h: 2
    kernel_w: 1
    stride_h: 2
    stride_w: 1
  }
}
layer {
  name: "conv3"
  type: "Convolution"
  bottom: "pool2"
  top: "conv3"
  convolution_param {
    num_output: 28
    pad: 0
    stride: 1
    weight_filler {
      type: "xavier"
    }
    bias_filler {
      type: "constant"
    }
    kernel_h: 6
    kernel_w: 3
  }
}
layer {
  name: "relu3"
  type: "ReLU"
  bottom: "conv3"
  top: "conv3"
}
layer {
  name: "pool3"
  type: "Pooling"
  bottom: "conv3"
  top: "pool3"
  pooling_param {
    pool: MAX
    kernel_h: 2
    kernel_w: 1
    stride_h: 2
    stride_w: 1
  }
}
layer {
  name: "conv4"
  type: "Convolution"
  bottom: "pool3"
  top: "conv4"
  convolution_param {
    num_output: 36
    pad: 0
    stride: 1
    weight_filler {
      type: "xavier"
    }
    bias_filler {
      type: "constant"
    }
    kernel_h: 6
    kernel_w: 3
  }
}
layer {
  name: "relu4"
  type: "ReLU"
  bottom: "conv4"
  top: "conv4"
}
layer {
  name: "pool4"
  type: "Pooling"
  bottom: "conv4"
  top: "pool4"
  pooling_param {
    pool: MAX
    kernel_h: 2
    kernel_w: 1
    stride_h: 2
    stride_w: 1
  }
}
layer {
  name: "ip1"
  type: "InnerProduct"
  bottom: "pool4"
  top: "ip1"
  inner_product_param {
    num_output: 196
    weight_filler {
      type: "xavier"
    }
    bias_filler {
      type: "constant"
    }
  }
}
layer {
  name: "relu5"
  type: "ReLU"
  bottom: "ip1"
  top: "ip1"
}
layer {
  name: "drop1"
  type: "Dropout"
  bottom: "ip1"
  top: "ip1"
  dropout_param {
    dropout_ratio: 0.5
  }
}
layer {
  name: "ip2"
  type: "InnerProduct"
  bottom: "ip1"
  top: "ip2"
  inner_product_param {
    num_output: 98
    weight_filler {
      type: "xavier"
    }
    bias_filler {
      type: "constant"
    }
  }
}
layer {
  name: "relu6"
  type: "ReLU"
  bottom: "ip2"
  top: "ip2"
}
layer {
  name: "drop2"
  type: "Dropout"
  bottom: "ip2"
  top: "ip2"
  dropout_param {
    dropout_ratio: 0.5
  }
}
layer {
  name: "ip3"
  type: "InnerProduct"
  bottom: "ip2"
  top: "ip3"
  inner_product_param {
    num_output: 11
    weight_filler {
      type: "xavier"
    }
    bias_filler {
      type: "constant"
    }
  }
}
layer {
  name: "drop3"
  type: "Dropout"
  bottom: "ip3"
  top: "ip3"
  dropout_param {
    dropout_ratio: 0.5
  }
}
layer {
  name: "accuracy"
  type: "Accuracy"
  bottom: "ip3"
  bottom: "label"
  top: "accuracy"
  include {
    phase: TEST
  }
}
layer {
  name: "loss"
  type: "SoftmaxWithLoss"
  bottom: "ip3"
  bottom: "label"
  top: "loss"
}
I0523 02:14:59.098670 32154 layer_factory.hpp:77] Creating layer data_hdf5
I0523 02:14:59.098685 32154 net.cpp:106] Creating Layer data_hdf5
I0523 02:14:59.098696 32154 net.cpp:411] data_hdf5 -> data
I0523 02:14:59.098713 32154 net.cpp:411] data_hdf5 -> label
I0523 02:14:59.098729 32154 hdf5_data_layer.cpp:79] Loading list of HDF5 filenames from: /lustre/atlas/proj-shared/hep105/caffe_titan/minosmatch_nukecczdefs_127x50_x_unshifted_me1Bmc.testlist
I0523 02:14:59.099928 32154 hdf5_data_layer.cpp:93] Number of HDF5 files: 3
I0523 02:15:20.446770 32154 net.cpp:150] Setting up data_hdf5
I0523 02:15:20.446946 32154 net.cpp:157] Top shape: 50 1 127 50 (317500)
I0523 02:15:20.446961 32154 net.cpp:157] Top shape: 50 (50)
I0523 02:15:20.446974 32154 net.cpp:165] Memory required for data: 1270200
I0523 02:15:20.446986 32154 layer_factory.hpp:77] Creating layer label_data_hdf5_1_split
I0523 02:15:20.447015 32154 net.cpp:106] Creating Layer label_data_hdf5_1_split
I0523 02:15:20.447026 32154 net.cpp:454] label_data_hdf5_1_split <- label
I0523 02:15:20.447041 32154 net.cpp:411] label_data_hdf5_1_split -> label_data_hdf5_1_split_0
I0523 02:15:20.447062 32154 net.cpp:411] label_data_hdf5_1_split -> label_data_hdf5_1_split_1
I0523 02:15:20.447144 32154 net.cpp:150] Setting up label_data_hdf5_1_split
I0523 02:15:20.447159 32154 net.cpp:157] Top shape: 50 (50)
I0523 02:15:20.447170 32154 net.cpp:157] Top shape: 50 (50)
I0523 02:15:20.447180 32154 net.cpp:165] Memory required for data: 1270600
I0523 02:15:20.447190 32154 layer_factory.hpp:77] Creating layer conv1
I0523 02:15:20.447211 32154 net.cpp:106] Creating Layer conv1
I0523 02:15:20.447221 32154 net.cpp:454] conv1 <- data
I0523 02:15:20.447237 32154 net.cpp:411] conv1 -> conv1
I0523 02:15:20.449151 32154 net.cpp:150] Setting up conv1
I0523 02:15:20.449169 32154 net.cpp:157] Top shape: 50 12 120 48 (3456000)
I0523 02:15:20.449179 32154 net.cpp:165] Memory required for data: 15094600
I0523 02:15:20.449200 32154 layer_factory.hpp:77] Creating layer relu1
I0523 02:15:20.449215 32154 net.cpp:106] Creating Layer relu1
I0523 02:15:20.449225 32154 net.cpp:454] relu1 <- conv1
I0523 02:15:20.449239 32154 net.cpp:397] relu1 -> conv1 (in-place)
I0523 02:15:20.449733 32154 net.cpp:150] Setting up relu1
I0523 02:15:20.449748 32154 net.cpp:157] Top shape: 50 12 120 48 (3456000)
I0523 02:15:20.449759 32154 net.cpp:165] Memory required for data: 28918600
I0523 02:15:20.449769 32154 layer_factory.hpp:77] Creating layer pool1
I0523 02:15:20.449785 32154 net.cpp:106] Creating Layer pool1
I0523 02:15:20.449795 32154 net.cpp:454] pool1 <- conv1
I0523 02:15:20.449808 32154 net.cpp:411] pool1 -> pool1
I0523 02:15:20.449882 32154 net.cpp:150] Setting up pool1
I0523 02:15:20.449895 32154 net.cpp:157] Top shape: 50 12 60 48 (1728000)
I0523 02:15:20.449904 32154 net.cpp:165] Memory required for data: 35830600
I0523 02:15:20.449913 32154 layer_factory.hpp:77] Creating layer conv2
I0523 02:15:20.449933 32154 net.cpp:106] Creating Layer conv2
I0523 02:15:20.449942 32154 net.cpp:454] conv2 <- pool1
I0523 02:15:20.449956 32154 net.cpp:411] conv2 -> conv2
I0523 02:15:20.451875 32154 net.cpp:150] Setting up conv2
I0523 02:15:20.451897 32154 net.cpp:157] Top shape: 50 20 54 46 (2484000)
I0523 02:15:20.451910 32154 net.cpp:165] Memory required for data: 45766600
I0523 02:15:20.451927 32154 layer_factory.hpp:77] Creating layer relu2
I0523 02:15:20.451941 32154 net.cpp:106] Creating Layer relu2
I0523 02:15:20.451951 32154 net.cpp:454] relu2 <- conv2
I0523 02:15:20.451963 32154 net.cpp:397] relu2 -> conv2 (in-place)
I0523 02:15:20.452294 32154 net.cpp:150] Setting up relu2
I0523 02:15:20.452308 32154 net.cpp:157] Top shape: 50 20 54 46 (2484000)
I0523 02:15:20.452318 32154 net.cpp:165] Memory required for data: 55702600
I0523 02:15:20.452328 32154 layer_factory.hpp:77] Creating layer pool2
I0523 02:15:20.452342 32154 net.cpp:106] Creating Layer pool2
I0523 02:15:20.452352 32154 net.cpp:454] pool2 <- conv2
I0523 02:15:20.452364 32154 net.cpp:411] pool2 -> pool2
I0523 02:15:20.452435 32154 net.cpp:150] Setting up pool2
I0523 02:15:20.452447 32154 net.cpp:157] Top shape: 50 20 27 46 (1242000)
I0523 02:15:20.452457 32154 net.cpp:165] Memory required for data: 60670600
I0523 02:15:20.452467 32154 layer_factory.hpp:77] Creating layer conv3
I0523 02:15:20.452486 32154 net.cpp:106] Creating Layer conv3
I0523 02:15:20.452497 32154 net.cpp:454] conv3 <- pool2
I0523 02:15:20.452510 32154 net.cpp:411] conv3 -> conv3
I0523 02:15:20.454474 32154 net.cpp:150] Setting up conv3
I0523 02:15:20.454498 32154 net.cpp:157] Top shape: 50 28 22 44 (1355200)
I0523 02:15:20.454509 32154 net.cpp:165] Memory required for data: 66091400
I0523 02:15:20.454542 32154 layer_factory.hpp:77] Creating layer relu3
I0523 02:15:20.454555 32154 net.cpp:106] Creating Layer relu3
I0523 02:15:20.454566 32154 net.cpp:454] relu3 <- conv3
I0523 02:15:20.454579 32154 net.cpp:397] relu3 -> conv3 (in-place)
I0523 02:15:20.455055 32154 net.cpp:150] Setting up relu3
I0523 02:15:20.455072 32154 net.cpp:157] Top shape: 50 28 22 44 (1355200)
I0523 02:15:20.455082 32154 net.cpp:165] Memory required for data: 71512200
I0523 02:15:20.455092 32154 layer_factory.hpp:77] Creating layer pool3
I0523 02:15:20.455106 32154 net.cpp:106] Creating Layer pool3
I0523 02:15:20.455123 32154 net.cpp:454] pool3 <- conv3
I0523 02:15:20.455135 32154 net.cpp:411] pool3 -> pool3
I0523 02:15:20.455207 32154 net.cpp:150] Setting up pool3
I0523 02:15:20.455221 32154 net.cpp:157] Top shape: 50 28 11 44 (677600)
I0523 02:15:20.455231 32154 net.cpp:165] Memory required for data: 74222600
I0523 02:15:20.455242 32154 layer_factory.hpp:77] Creating layer conv4
I0523 02:15:20.455260 32154 net.cpp:106] Creating Layer conv4
I0523 02:15:20.455271 32154 net.cpp:454] conv4 <- pool3
I0523 02:15:20.455284 32154 net.cpp:411] conv4 -> conv4
I0523 02:15:20.457341 32154 net.cpp:150] Setting up conv4
I0523 02:15:20.457358 32154 net.cpp:157] Top shape: 50 36 6 42 (453600)
I0523 02:15:20.457370 32154 net.cpp:165] Memory required for data: 76037000
I0523 02:15:20.457386 32154 layer_factory.hpp:77] Creating layer relu4
I0523 02:15:20.457398 32154 net.cpp:106] Creating Layer relu4
I0523 02:15:20.457408 32154 net.cpp:454] relu4 <- conv4
I0523 02:15:20.457422 32154 net.cpp:397] relu4 -> conv4 (in-place)
I0523 02:15:20.457890 32154 net.cpp:150] Setting up relu4
I0523 02:15:20.457906 32154 net.cpp:157] Top shape: 50 36 6 42 (453600)
I0523 02:15:20.457916 32154 net.cpp:165] Memory required for data: 77851400
I0523 02:15:20.457926 32154 layer_factory.hpp:77] Creating layer pool4
I0523 02:15:20.457939 32154 net.cpp:106] Creating Layer pool4
I0523 02:15:20.457949 32154 net.cpp:454] pool4 <- conv4
I0523 02:15:20.457962 32154 net.cpp:411] pool4 -> pool4
I0523 02:15:20.458034 32154 net.cpp:150] Setting up pool4
I0523 02:15:20.458046 32154 net.cpp:157] Top shape: 50 36 3 42 (226800)
I0523 02:15:20.458056 32154 net.cpp:165] Memory required for data: 78758600
I0523 02:15:20.458066 32154 layer_factory.hpp:77] Creating layer ip1
I0523 02:15:20.458081 32154 net.cpp:106] Creating Layer ip1
I0523 02:15:20.458092 32154 net.cpp:454] ip1 <- pool4
I0523 02:15:20.458106 32154 net.cpp:411] ip1 -> ip1
I0523 02:15:20.473683 32154 net.cpp:150] Setting up ip1
I0523 02:15:20.473712 32154 net.cpp:157] Top shape: 50 196 (9800)
I0523 02:15:20.473723 32154 net.cpp:165] Memory required for data: 78797800
I0523 02:15:20.473745 32154 layer_factory.hpp:77] Creating layer relu5
I0523 02:15:20.473760 32154 net.cpp:106] Creating Layer relu5
I0523 02:15:20.473772 32154 net.cpp:454] relu5 <- ip1
I0523 02:15:20.473785 32154 net.cpp:397] relu5 -> ip1 (in-place)
I0523 02:15:20.474133 32154 net.cpp:150] Setting up relu5
I0523 02:15:20.474146 32154 net.cpp:157] Top shape: 50 196 (9800)
I0523 02:15:20.474156 32154 net.cpp:165] Memory required for data: 78837000
I0523 02:15:20.474166 32154 layer_factory.hpp:77] Creating layer drop1
I0523 02:15:20.474184 32154 net.cpp:106] Creating Layer drop1
I0523 02:15:20.474195 32154 net.cpp:454] drop1 <- ip1
I0523 02:15:20.474208 32154 net.cpp:397] drop1 -> ip1 (in-place)
I0523 02:15:20.474253 32154 net.cpp:150] Setting up drop1
I0523 02:15:20.474267 32154 net.cpp:157] Top shape: 50 196 (9800)
I0523 02:15:20.474275 32154 net.cpp:165] Memory required for data: 78876200
I0523 02:15:20.474287 32154 layer_factory.hpp:77] Creating layer ip2
I0523 02:15:20.474300 32154 net.cpp:106] Creating Layer ip2
I0523 02:15:20.474310 32154 net.cpp:454] ip2 <- ip1
I0523 02:15:20.474324 32154 net.cpp:411] ip2 -> ip2
I0523 02:15:20.474802 32154 net.cpp:150] Setting up ip2
I0523 02:15:20.474817 32154 net.cpp:157] Top shape: 50 98 (4900)
I0523 02:15:20.474827 32154 net.cpp:165] Memory required for data: 78895800
I0523 02:15:20.474841 32154 layer_factory.hpp:77] Creating layer relu6
I0523 02:15:20.474867 32154 net.cpp:106] Creating Layer relu6
I0523 02:15:20.474877 32154 net.cpp:454] relu6 <- ip2
I0523 02:15:20.474889 32154 net.cpp:397] relu6 -> ip2 (in-place)
I0523 02:15:20.475509 32154 net.cpp:150] Setting up relu6
I0523 02:15:20.475525 32154 net.cpp:157] Top shape: 50 98 (4900)
I0523 02:15:20.475535 32154 net.cpp:165] Memory required for data: 78915400
I0523 02:15:20.475545 32154 layer_factory.hpp:77] Creating layer drop2
I0523 02:15:20.475559 32154 net.cpp:106] Creating Layer drop2
I0523 02:15:20.475569 32154 net.cpp:454] drop2 <- ip2
I0523 02:15:20.475582 32154 net.cpp:397] drop2 -> ip2 (in-place)
I0523 02:15:20.475627 32154 net.cpp:150] Setting up drop2
I0523 02:15:20.475641 32154 net.cpp:157] Top shape: 50 98 (4900)
I0523 02:15:20.475651 32154 net.cpp:165] Memory required for data: 78935000
I0523 02:15:20.475661 32154 layer_factory.hpp:77] Creating layer ip3
I0523 02:15:20.475675 32154 net.cpp:106] Creating Layer ip3
I0523 02:15:20.475685 32154 net.cpp:454] ip3 <- ip2
I0523 02:15:20.475699 32154 net.cpp:411] ip3 -> ip3
I0523 02:15:20.475921 32154 net.cpp:150] Setting up ip3
I0523 02:15:20.475934 32154 net.cpp:157] Top shape: 50 11 (550)
I0523 02:15:20.475944 32154 net.cpp:165] Memory required for data: 78937200
I0523 02:15:20.475960 32154 layer_factory.hpp:77] Creating layer drop3
I0523 02:15:20.475972 32154 net.cpp:106] Creating Layer drop3
I0523 02:15:20.475982 32154 net.cpp:454] drop3 <- ip3
I0523 02:15:20.475996 32154 net.cpp:397] drop3 -> ip3 (in-place)
I0523 02:15:20.476037 32154 net.cpp:150] Setting up drop3
I0523 02:15:20.476049 32154 net.cpp:157] Top shape: 50 11 (550)
I0523 02:15:20.476059 32154 net.cpp:165] Memory required for data: 78939400
I0523 02:15:20.476069 32154 layer_factory.hpp:77] Creating layer ip3_drop3_0_split
I0523 02:15:20.476083 32154 net.cpp:106] Creating Layer ip3_drop3_0_split
I0523 02:15:20.476092 32154 net.cpp:454] ip3_drop3_0_split <- ip3
I0523 02:15:20.476104 32154 net.cpp:411] ip3_drop3_0_split -> ip3_drop3_0_split_0
I0523 02:15:20.476119 32154 net.cpp:411] ip3_drop3_0_split -> ip3_drop3_0_split_1
I0523 02:15:20.476192 32154 net.cpp:150] Setting up ip3_drop3_0_split
I0523 02:15:20.476205 32154 net.cpp:157] Top shape: 50 11 (550)
I0523 02:15:20.476218 32154 net.cpp:157] Top shape: 50 11 (550)
I0523 02:15:20.476227 32154 net.cpp:165] Memory required for data: 78943800
I0523 02:15:20.476235 32154 layer_factory.hpp:77] Creating layer accuracy
I0523 02:15:20.476258 32154 net.cpp:106] Creating Layer accuracy
I0523 02:15:20.476269 32154 net.cpp:454] accuracy <- ip3_drop3_0_split_0
I0523 02:15:20.476279 32154 net.cpp:454] accuracy <- label_data_hdf5_1_split_0
I0523 02:15:20.476294 32154 net.cpp:411] accuracy -> accuracy
…
