…
I0523 13:59:37.364202  1883 net.cpp:322] The NetState phase (0) differed from the phase (1) specified by a rule in layer data_hdf5
I0523 13:59:37.364262  1883 net.cpp:322] The NetState phase (0) differed from the phase (1) specified by a rule in layer accuracy
I0523 13:59:37.364611  1883 net.cpp:49] Initializing net from parameters: 
name: "caffe_test_127x50_x_unshifted"
state {
  phase: TRAIN
}
layer {
  name: "data_hdf5"
  type: "HDF5Data"
  top: "data"
  top: "label"
  include {
    phase: TRAIN
  }
  hdf5_data_param {
    source: "/lustre/atlas/proj-shared/hep105/caffe_titan/minosmatch_nukecczdefs_127x50_x_unshifted_me1Bmc.trainlist"
    batch_size: 60
  }
}
layer {
  name: "conv1"
  type: "Convolution"
  bottom: "data"
  top: "conv1"
  convolution_param {
    num_output: 12
    pad: 0
    stride: 1
    weight_filler {
      type: "xavier"
    }
    bias_filler {
      type: "constant"
    }
    kernel_h: 8
    kernel_w: 3
  }
}
layer {
  name: "relu1"
  type: "ReLU"
  bottom: "conv1"
  top: "conv1"
}
layer {
  name: "pool1"
  type: "Pooling"
  bottom: "conv1"
  top: "pool1"
  pooling_param {
    pool: MAX
    kernel_h: 2
    kernel_w: 1
    stride_h: 2
    stride_w: 1
  }
}
layer {
  name: "conv2"
  type: "Convolution"
  bottom: "pool1"
  top: "conv2"
  convolution_param {
    num_output: 20
    pad: 0
    stride: 1
    weight_filler {
      type: "xavier"
    }
    bias_filler {
      type: "constant"
    }
    kernel_h: 7
    kernel_w: 3
  }
}
layer {
  name: "relu2"
  type: "ReLU"
  bottom: "conv2"
  top: "conv2"
}
layer {
  name: "pool2"
  type: "Pooling"
  bottom: "conv2"
  top: "pool2"
  pooling_param {
    pool: MAX
    kernel_h: 2
    kernel_w: 1
    stride_h: 2
    stride_w: 1
  }
}
layer {
  name: "conv3"
  type: "Convolution"
  bottom: "pool2"
  top: "conv3"
  convolution_param {
    num_output: 28
    pad: 0
    stride: 1
    weight_filler {
      type: "xavier"
    }
    bias_filler {
      type: "constant"
    }
    kernel_h: 6
    kernel_w: 3
  }
}
layer {
  name: "relu3"
  type: "ReLU"
  bottom: "conv3"
  top: "conv3"
}
layer {
  name: "pool3"
  type: "Pooling"
  bottom: "conv3"
  top: "pool3"
  pooling_param {
    pool: MAX
    kernel_h: 2
    kernel_w: 1
    stride_h: 2
    stride_w: 1
  }
}
layer {
  name: "conv4"
  type: "Convolution"
  bottom: "pool3"
  top: "conv4"
  convolution_param {
    num_output: 36
    pad: 0
    stride: 1
    weight_filler {
      type: "xavier"
    }
    bias_filler {
      type: "constant"
    }
    kernel_h: 6
    kernel_w: 3
  }
}
layer {
  name: "relu4"
  type: "ReLU"
  bottom: "conv4"
  top: "conv4"
}
layer {
  name: "pool4"
  type: "Pooling"
  bottom: "conv4"
  top: "pool4"
  pooling_param {
    pool: MAX
    kernel_h: 2
    kernel_w: 1
    stride_h: 2
    stride_w: 1
  }
}
layer {
  name: "ip1"
  type: "InnerProduct"
  bottom: "pool4"
  top: "ip1"
  inner_product_param {
    num_output: 196
    weight_filler {
      type: "xavier"
    }
    bias_filler {
      type: "constant"
    }
  }
}
layer {
  name: "relu5"
  type: "ReLU"
  bottom: "ip1"
  top: "ip1"
}
layer {
  name: "drop1"
  type: "Dropout"
  bottom: "ip1"
  top: "ip1"
  dropout_param {
    dropout_ratio: 0.5
  }
}
layer {
  name: "ip2"
  type: "InnerProduct"
  bottom: "ip1"
  top: "ip2"
  inner_product_param {
    num_output: 98
    weight_filler {
      type: "xavier"
    }
    bias_filler {
      type: "constant"
    }
  }
}
layer {
  name: "relu6"
  type: "ReLU"
  bottom: "ip2"
  top: "ip2"
}
layer {
  name: "drop2"
  type: "Dropout"
  bottom: "ip2"
  top: "ip2"
  dropout_param {
    dropout_ratio: 0.5
  }
}
layer {
  name: "ip3"
  type: "InnerProduct"
  bottom: "ip2"
  top: "ip3"
  inner_product_param {
    num_output: 11
    weight_filler {
      type: "xavier"
    }
    bias_filler {
      type: "constant"
    }
  }
}
layer {
  name: "drop3"
  type: "Dropout"
  bottom: "ip3"
  top: "ip3"
  dropout_param {
    dropout_ratio: 0.5
  }
}
layer {
  name: "loss"
  type: "SoftmaxWithLoss"
  bottom: "ip3"
  bottom: "label"
  top: "loss"
}
I0523 13:59:37.364790  1883 layer_factory.hpp:77] Creating layer data_hdf5
I0523 13:59:37.364814  1883 net.cpp:106] Creating Layer data_hdf5
I0523 13:59:37.364830  1883 net.cpp:411] data_hdf5 -> data
I0523 13:59:37.364862  1883 net.cpp:411] data_hdf5 -> label
I0523 13:59:37.364894  1883 hdf5_data_layer.cpp:79] Loading list of HDF5 filenames from: /lustre/atlas/proj-shared/hep105/caffe_titan/minosmatch_nukecczdefs_127x50_x_unshifted_me1Bmc.trainlist
I0523 13:59:37.373838  1883 hdf5_data_layer.cpp:93] Number of HDF5 files: 15
I0523 13:59:37.388057  1883 hdf5.cpp:32] Datatype class: H5T_FLOAT
I0523 13:59:58.953004  1883 hdf5.cpp:35] Datatype class: H5T_INTEGER
I0523 13:59:58.958145  1883 net.cpp:150] Setting up data_hdf5
I0523 13:59:58.958190  1883 net.cpp:157] Top shape: 60 1 127 50 (381000)
I0523 13:59:58.958204  1883 net.cpp:157] Top shape: 60 (60)
I0523 13:59:58.958215  1883 net.cpp:165] Memory required for data: 1524240
I0523 13:59:58.958228  1883 layer_factory.hpp:77] Creating layer conv1
I0523 13:59:58.958262  1883 net.cpp:106] Creating Layer conv1
I0523 13:59:58.958274  1883 net.cpp:454] conv1 <- data
I0523 13:59:58.958298  1883 net.cpp:411] conv1 -> conv1
I0523 14:00:02.003244  1883 net.cpp:150] Setting up conv1
I0523 14:00:02.003293  1883 net.cpp:157] Top shape: 60 12 120 48 (4147200)
I0523 14:00:02.003304  1883 net.cpp:165] Memory required for data: 18113040
I0523 14:00:02.003334  1883 layer_factory.hpp:77] Creating layer relu1
I0523 14:00:02.003355  1883 net.cpp:106] Creating Layer relu1
I0523 14:00:02.003365  1883 net.cpp:454] relu1 <- conv1
I0523 14:00:02.003378  1883 net.cpp:397] relu1 -> conv1 (in-place)
I0523 14:00:02.003911  1883 net.cpp:150] Setting up relu1
I0523 14:00:02.003929  1883 net.cpp:157] Top shape: 60 12 120 48 (4147200)
I0523 14:00:02.003939  1883 net.cpp:165] Memory required for data: 34701840
I0523 14:00:02.003950  1883 layer_factory.hpp:77] Creating layer pool1
I0523 14:00:02.003967  1883 net.cpp:106] Creating Layer pool1
I0523 14:00:02.003976  1883 net.cpp:454] pool1 <- conv1
I0523 14:00:02.003989  1883 net.cpp:411] pool1 -> pool1
I0523 14:00:02.004070  1883 net.cpp:150] Setting up pool1
I0523 14:00:02.004084  1883 net.cpp:157] Top shape: 60 12 60 48 (2073600)
I0523 14:00:02.004094  1883 net.cpp:165] Memory required for data: 42996240
I0523 14:00:02.004104  1883 layer_factory.hpp:77] Creating layer conv2
I0523 14:00:02.004124  1883 net.cpp:106] Creating Layer conv2
I0523 14:00:02.004135  1883 net.cpp:454] conv2 <- pool1
I0523 14:00:02.004148  1883 net.cpp:411] conv2 -> conv2
I0523 14:00:02.006881  1883 net.cpp:150] Setting up conv2
I0523 14:00:02.006909  1883 net.cpp:157] Top shape: 60 20 54 46 (2980800)
I0523 14:00:02.006919  1883 net.cpp:165] Memory required for data: 54919440
I0523 14:00:02.006939  1883 layer_factory.hpp:77] Creating layer relu2
I0523 14:00:02.006953  1883 net.cpp:106] Creating Layer relu2
I0523 14:00:02.006963  1883 net.cpp:454] relu2 <- conv2
I0523 14:00:02.006976  1883 net.cpp:397] relu2 -> conv2 (in-place)
I0523 14:00:02.007308  1883 net.cpp:150] Setting up relu2
I0523 14:00:02.007323  1883 net.cpp:157] Top shape: 60 20 54 46 (2980800)
I0523 14:00:02.007333  1883 net.cpp:165] Memory required for data: 66842640
I0523 14:00:02.007344  1883 layer_factory.hpp:77] Creating layer pool2
I0523 14:00:02.007355  1883 net.cpp:106] Creating Layer pool2
I0523 14:00:02.007365  1883 net.cpp:454] pool2 <- conv2
I0523 14:00:02.007378  1883 net.cpp:411] pool2 -> pool2
I0523 14:00:02.007458  1883 net.cpp:150] Setting up pool2
I0523 14:00:02.007472  1883 net.cpp:157] Top shape: 60 20 27 46 (1490400)
I0523 14:00:02.007483  1883 net.cpp:165] Memory required for data: 72804240
I0523 14:00:02.007493  1883 layer_factory.hpp:77] Creating layer conv3
I0523 14:00:02.007510  1883 net.cpp:106] Creating Layer conv3
I0523 14:00:02.007520  1883 net.cpp:454] conv3 <- pool2
I0523 14:00:02.007534  1883 net.cpp:411] conv3 -> conv3
I0523 14:00:02.009490  1883 net.cpp:150] Setting up conv3
I0523 14:00:02.009513  1883 net.cpp:157] Top shape: 60 28 22 44 (1626240)
I0523 14:00:02.009524  1883 net.cpp:165] Memory required for data: 79309200
I0523 14:00:02.009543  1883 layer_factory.hpp:77] Creating layer relu3
I0523 14:00:02.009560  1883 net.cpp:106] Creating Layer relu3
I0523 14:00:02.009570  1883 net.cpp:454] relu3 <- conv3
I0523 14:00:02.009583  1883 net.cpp:397] relu3 -> conv3 (in-place)
I0523 14:00:02.010052  1883 net.cpp:150] Setting up relu3
I0523 14:00:02.010069  1883 net.cpp:157] Top shape: 60 28 22 44 (1626240)
I0523 14:00:02.010079  1883 net.cpp:165] Memory required for data: 85814160
I0523 14:00:02.010092  1883 layer_factory.hpp:77] Creating layer pool3
I0523 14:00:02.010104  1883 net.cpp:106] Creating Layer pool3
I0523 14:00:02.010114  1883 net.cpp:454] pool3 <- conv3
I0523 14:00:02.010126  1883 net.cpp:411] pool3 -> pool3
I0523 14:00:02.010193  1883 net.cpp:150] Setting up pool3
I0523 14:00:02.010206  1883 net.cpp:157] Top shape: 60 28 11 44 (813120)
I0523 14:00:02.010216  1883 net.cpp:165] Memory required for data: 89066640
I0523 14:00:02.010226  1883 layer_factory.hpp:77] Creating layer conv4
I0523 14:00:02.010244  1883 net.cpp:106] Creating Layer conv4
I0523 14:00:02.010254  1883 net.cpp:454] conv4 <- pool3
I0523 14:00:02.010268  1883 net.cpp:411] conv4 -> conv4
I0523 14:00:02.013049  1883 net.cpp:150] Setting up conv4
I0523 14:00:02.013077  1883 net.cpp:157] Top shape: 60 36 6 42 (544320)
I0523 14:00:02.013088  1883 net.cpp:165] Memory required for data: 91243920
I0523 14:00:02.013103  1883 layer_factory.hpp:77] Creating layer relu4
I0523 14:00:02.013118  1883 net.cpp:106] Creating Layer relu4
I0523 14:00:02.013128  1883 net.cpp:454] relu4 <- conv4
I0523 14:00:02.013141  1883 net.cpp:397] relu4 -> conv4 (in-place)
I0523 14:00:02.013620  1883 net.cpp:150] Setting up relu4
I0523 14:00:02.013638  1883 net.cpp:157] Top shape: 60 36 6 42 (544320)
I0523 14:00:02.013648  1883 net.cpp:165] Memory required for data: 93421200
I0523 14:00:02.013658  1883 layer_factory.hpp:77] Creating layer pool4
I0523 14:00:02.013671  1883 net.cpp:106] Creating Layer pool4
I0523 14:00:02.013681  1883 net.cpp:454] pool4 <- conv4
I0523 14:00:02.013695  1883 net.cpp:411] pool4 -> pool4
I0523 14:00:02.013762  1883 net.cpp:150] Setting up pool4
I0523 14:00:02.013775  1883 net.cpp:157] Top shape: 60 36 3 42 (272160)
I0523 14:00:02.013787  1883 net.cpp:165] Memory required for data: 94509840
I0523 14:00:02.013797  1883 layer_factory.hpp:77] Creating layer ip1
I0523 14:00:02.013814  1883 net.cpp:106] Creating Layer ip1
I0523 14:00:02.013824  1883 net.cpp:454] ip1 <- pool4
I0523 14:00:02.013838  1883 net.cpp:411] ip1 -> ip1
I0523 14:00:02.029263  1883 net.cpp:150] Setting up ip1
I0523 14:00:02.029291  1883 net.cpp:157] Top shape: 60 196 (11760)
I0523 14:00:02.029304  1883 net.cpp:165] Memory required for data: 94556880
I0523 14:00:02.029326  1883 layer_factory.hpp:77] Creating layer relu5
I0523 14:00:02.029341  1883 net.cpp:106] Creating Layer relu5
I0523 14:00:02.029351  1883 net.cpp:454] relu5 <- ip1
I0523 14:00:02.029368  1883 net.cpp:397] relu5 -> ip1 (in-place)
I0523 14:00:02.029711  1883 net.cpp:150] Setting up relu5
I0523 14:00:02.029724  1883 net.cpp:157] Top shape: 60 196 (11760)
I0523 14:00:02.029734  1883 net.cpp:165] Memory required for data: 94603920
I0523 14:00:02.029745  1883 layer_factory.hpp:77] Creating layer drop1
I0523 14:00:02.029767  1883 net.cpp:106] Creating Layer drop1
I0523 14:00:02.029778  1883 net.cpp:454] drop1 <- ip1
I0523 14:00:02.029789  1883 net.cpp:397] drop1 -> ip1 (in-place)
I0523 14:00:02.029850  1883 net.cpp:150] Setting up drop1
I0523 14:00:02.029862  1883 net.cpp:157] Top shape: 60 196 (11760)
I0523 14:00:02.029872  1883 net.cpp:165] Memory required for data: 94650960
I0523 14:00:02.029882  1883 layer_factory.hpp:77] Creating layer ip2
I0523 14:00:02.029901  1883 net.cpp:106] Creating Layer ip2
I0523 14:00:02.029912  1883 net.cpp:454] ip2 <- ip1
I0523 14:00:02.029925  1883 net.cpp:411] ip2 -> ip2
I0523 14:00:02.030387  1883 net.cpp:150] Setting up ip2
I0523 14:00:02.030400  1883 net.cpp:157] Top shape: 60 98 (5880)
I0523 14:00:02.030411  1883 net.cpp:165] Memory required for data: 94674480
I0523 14:00:02.030426  1883 layer_factory.hpp:77] Creating layer relu6
I0523 14:00:02.030439  1883 net.cpp:106] Creating Layer relu6
I0523 14:00:02.030448  1883 net.cpp:454] relu6 <- ip2
I0523 14:00:02.030462  1883 net.cpp:397] relu6 -> ip2 (in-place)
I0523 14:00:02.030980  1883 net.cpp:150] Setting up relu6
I0523 14:00:02.030997  1883 net.cpp:157] Top shape: 60 98 (5880)
I0523 14:00:02.031008  1883 net.cpp:165] Memory required for data: 94698000
I0523 14:00:02.031018  1883 layer_factory.hpp:77] Creating layer drop2
I0523 14:00:02.031030  1883 net.cpp:106] Creating Layer drop2
I0523 14:00:02.031040  1883 net.cpp:454] drop2 <- ip2
I0523 14:00:02.031052  1883 net.cpp:397] drop2 -> ip2 (in-place)
I0523 14:00:02.031095  1883 net.cpp:150] Setting up drop2
I0523 14:00:02.031108  1883 net.cpp:157] Top shape: 60 98 (5880)
I0523 14:00:02.031118  1883 net.cpp:165] Memory required for data: 94721520
I0523 14:00:02.031128  1883 layer_factory.hpp:77] Creating layer ip3
I0523 14:00:02.031142  1883 net.cpp:106] Creating Layer ip3
I0523 14:00:02.031152  1883 net.cpp:454] ip3 <- ip2
I0523 14:00:02.031164  1883 net.cpp:411] ip3 -> ip3
I0523 14:00:02.031376  1883 net.cpp:150] Setting up ip3
I0523 14:00:02.031389  1883 net.cpp:157] Top shape: 60 11 (660)
I0523 14:00:02.031399  1883 net.cpp:165] Memory required for data: 94724160
I0523 14:00:02.031414  1883 layer_factory.hpp:77] Creating layer drop3
I0523 14:00:02.031426  1883 net.cpp:106] Creating Layer drop3
I0523 14:00:02.031436  1883 net.cpp:454] drop3 <- ip3
I0523 14:00:02.031448  1883 net.cpp:397] drop3 -> ip3 (in-place)
I0523 14:00:02.031488  1883 net.cpp:150] Setting up drop3
I0523 14:00:02.031500  1883 net.cpp:157] Top shape: 60 11 (660)
I0523 14:00:02.031512  1883 net.cpp:165] Memory required for data: 94726800
I0523 14:00:02.031522  1883 layer_factory.hpp:77] Creating layer loss
I0523 14:00:02.031541  1883 net.cpp:106] Creating Layer loss
I0523 14:00:02.031551  1883 net.cpp:454] loss <- ip3
I0523 14:00:02.031563  1883 net.cpp:454] loss <- label
I0523 14:00:02.031576  1883 net.cpp:411] loss -> loss
I0523 14:00:02.031594  1883 layer_factory.hpp:77] Creating layer loss
…
I0523 14:00:02.034307  1883 solver.cpp:181] Creating test net (#0) specified by net file: /lustre/atlas/proj-shared/hep105/caffe_titan/caffe_workflow/logs_bslr/bs_60_lr_0.0015_2016-05-20T15.49.09.548601.prototxt
I0523 14:00:02.034378  1883 net.cpp:322] The NetState phase (1) differed from the phase (0) specified by a rule in layer data_hdf5
I0523 14:00:02.034734  1883 net.cpp:49] Initializing net from parameters: 
name: "caffe_test_127x50_x_unshifted"
state {
  phase: TEST
}
layer {
  name: "data_hdf5"
  type: "HDF5Data"
  top: "data"
  top: "label"
  include {
    phase: TEST
  }
  hdf5_data_param {
    source: "/lustre/atlas/proj-shared/hep105/caffe_titan/minosmatch_nukecczdefs_127x50_x_unshifted_me1Bmc.testlist"
    batch_size: 60
  }
}
layer {
  name: "conv1"
  type: "Convolution"
  bottom: "data"
  top: "conv1"
  convolution_param {
    num_output: 12
    pad: 0
    stride: 1
    weight_filler {
      type: "xavier"
    }
    bias_filler {
      type: "constant"
    }
    kernel_h: 8
    kernel_w: 3
  }
}
layer {
  name: "relu1"
  type: "ReLU"
  bottom: "conv1"
  top: "conv1"
}
layer {
  name: "pool1"
  type: "Pooling"
  bottom: "conv1"
  top: "pool1"
  pooling_param {
    pool: MAX
    kernel_h: 2
    kernel_w: 1
    stride_h: 2
    stride_w: 1
  }
}
layer {
  name: "conv2"
  type: "Convolution"
  bottom: "pool1"
  top: "conv2"
  convolution_param {
    num_output: 20
    pad: 0
    stride: 1
    weight_filler {
      type: "xavier"
    }
    bias_filler {
      type: "constant"
    }
    kernel_h: 7
    kernel_w: 3
  }
}
layer {
  name: "relu2"
  type: "ReLU"
  bottom: "conv2"
  top: "conv2"
}
layer {
  name: "pool2"
  type: "Pooling"
  bottom: "conv2"
  top: "pool2"
  pooling_param {
    pool: MAX
    kernel_h: 2
    kernel_w: 1
    stride_h: 2
    stride_w: 1
  }
}
layer {
  name: "conv3"
  type: "Convolution"
  bottom: "pool2"
  top: "conv3"
  convolution_param {
    num_output: 28
    pad: 0
    stride: 1
    weight_filler {
      type: "xavier"
    }
    bias_filler {
      type: "constant"
    }
    kernel_h: 6
    kernel_w: 3
  }
}
layer {
  name: "relu3"
  type: "ReLU"
  bottom: "conv3"
  top: "conv3"
}
layer {
  name: "pool3"
  type: "Pooling"
  bottom: "conv3"
  top: "pool3"
  pooling_param {
    pool: MAX
    kernel_h: 2
    kernel_w: 1
    stride_h: 2
    stride_w: 1
  }
}
layer {
  name: "conv4"
  type: "Convolution"
  bottom: "pool3"
  top: "conv4"
  convolution_param {
    num_output: 36
    pad: 0
    stride: 1
    weight_filler {
      type: "xavier"
    }
    bias_filler {
      type: "constant"
    }
    kernel_h: 6
    kernel_w: 3
  }
}
layer {
  name: "relu4"
  type: "ReLU"
  bottom: "conv4"
  top: "conv4"
}
layer {
  name: "pool4"
  type: "Pooling"
  bottom: "conv4"
  top: "pool4"
  pooling_param {
    pool: MAX
    kernel_h: 2
    kernel_w: 1
    stride_h: 2
    stride_w: 1
  }
}
layer {
  name: "ip1"
  type: "InnerProduct"
  bottom: "pool4"
  top: "ip1"
  inner_product_param {
    num_output: 196
    weight_filler {
      type: "xavier"
    }
    bias_filler {
      type: "constant"
    }
  }
}
layer {
  name: "relu5"
  type: "ReLU"
  bottom: "ip1"
  top: "ip1"
}
layer {
  name: "drop1"
  type: "Dropout"
  bottom: "ip1"
  top: "ip1"
  dropout_param {
    dropout_ratio: 0.5
  }
}
layer {
  name: "ip2"
  type: "InnerProduct"
  bottom: "ip1"
  top: "ip2"
  inner_product_param {
    num_output: 98
    weight_filler {
      type: "xavier"
    }
    bias_filler {
      type: "constant"
    }
  }
}
layer {
  name: "relu6"
  type: "ReLU"
  bottom: "ip2"
  top: "ip2"
}
layer {
  name: "drop2"
  type: "Dropout"
  bottom: "ip2"
  top: "ip2"
  dropout_param {
    dropout_ratio: 0.5
  }
}
layer {
  name: "ip3"
  type: "InnerProduct"
  bottom: "ip2"
  top: "ip3"
  inner_product_param {
    num_output: 11
    weight_filler {
      type: "xavier"
    }
    bias_filler {
      type: "constant"
    }
  }
}
layer {
  name: "drop3"
  type: "Dropout"
  bottom: "ip3"
  top: "ip3"
  dropout_param {
    dropout_ratio: 0.5
  }
}
layer {
  name: "accuracy"
  type: "Accuracy"
  bottom: "ip3"
  bottom: "label"
  top: "accuracy"
  include {
    phase: TEST
  }
}
layer {
  name: "loss"
  type: "SoftmaxWithLoss"
  bottom: "ip3"
  bottom: "label"
  top: "loss"
}
I0523 14:00:02.034922  1883 layer_factory.hpp:77] Creating layer data_hdf5
I0523 14:00:02.034937  1883 net.cpp:106] Creating Layer data_hdf5
I0523 14:00:02.034950  1883 net.cpp:411] data_hdf5 -> data
I0523 14:00:02.034965  1883 net.cpp:411] data_hdf5 -> label
I0523 14:00:02.034981  1883 hdf5_data_layer.cpp:79] Loading list of HDF5 filenames from: /lustre/atlas/proj-shared/hep105/caffe_titan/minosmatch_nukecczdefs_127x50_x_unshifted_me1Bmc.testlist
I0523 14:00:02.046696  1883 hdf5_data_layer.cpp:93] Number of HDF5 files: 3
I0523 14:00:23.491037  1883 net.cpp:150] Setting up data_hdf5
I0523 14:00:23.491204  1883 net.cpp:157] Top shape: 60 1 127 50 (381000)
I0523 14:00:23.491217  1883 net.cpp:157] Top shape: 60 (60)
I0523 14:00:23.491230  1883 net.cpp:165] Memory required for data: 1524240
I0523 14:00:23.491243  1883 layer_factory.hpp:77] Creating layer label_data_hdf5_1_split
I0523 14:00:23.491271  1883 net.cpp:106] Creating Layer label_data_hdf5_1_split
I0523 14:00:23.491283  1883 net.cpp:454] label_data_hdf5_1_split <- label
I0523 14:00:23.491297  1883 net.cpp:411] label_data_hdf5_1_split -> label_data_hdf5_1_split_0
I0523 14:00:23.491319  1883 net.cpp:411] label_data_hdf5_1_split -> label_data_hdf5_1_split_1
I0523 14:00:23.491391  1883 net.cpp:150] Setting up label_data_hdf5_1_split
I0523 14:00:23.491405  1883 net.cpp:157] Top shape: 60 (60)
I0523 14:00:23.491416  1883 net.cpp:157] Top shape: 60 (60)
I0523 14:00:23.491426  1883 net.cpp:165] Memory required for data: 1524720
I0523 14:00:23.491436  1883 layer_factory.hpp:77] Creating layer conv1
I0523 14:00:23.491458  1883 net.cpp:106] Creating Layer conv1
I0523 14:00:23.491468  1883 net.cpp:454] conv1 <- data
I0523 14:00:23.491482  1883 net.cpp:411] conv1 -> conv1
I0523 14:00:23.493408  1883 net.cpp:150] Setting up conv1
I0523 14:00:23.493433  1883 net.cpp:157] Top shape: 60 12 120 48 (4147200)
I0523 14:00:23.493443  1883 net.cpp:165] Memory required for data: 18113520
I0523 14:00:23.493464  1883 layer_factory.hpp:77] Creating layer relu1
I0523 14:00:23.493479  1883 net.cpp:106] Creating Layer relu1
I0523 14:00:23.493489  1883 net.cpp:454] relu1 <- conv1
I0523 14:00:23.493502  1883 net.cpp:397] relu1 -> conv1 (in-place)
I0523 14:00:23.493999  1883 net.cpp:150] Setting up relu1
I0523 14:00:23.494014  1883 net.cpp:157] Top shape: 60 12 120 48 (4147200)
I0523 14:00:23.494025  1883 net.cpp:165] Memory required for data: 34702320
I0523 14:00:23.494035  1883 layer_factory.hpp:77] Creating layer pool1
I0523 14:00:23.494051  1883 net.cpp:106] Creating Layer pool1
I0523 14:00:23.494060  1883 net.cpp:454] pool1 <- conv1
I0523 14:00:23.494074  1883 net.cpp:411] pool1 -> pool1
I0523 14:00:23.494149  1883 net.cpp:150] Setting up pool1
I0523 14:00:23.494163  1883 net.cpp:157] Top shape: 60 12 60 48 (2073600)
I0523 14:00:23.494173  1883 net.cpp:165] Memory required for data: 42996720
I0523 14:00:23.494180  1883 layer_factory.hpp:77] Creating layer conv2
I0523 14:00:23.494199  1883 net.cpp:106] Creating Layer conv2
I0523 14:00:23.494210  1883 net.cpp:454] conv2 <- pool1
I0523 14:00:23.494222  1883 net.cpp:411] conv2 -> conv2
I0523 14:00:23.496142  1883 net.cpp:150] Setting up conv2
I0523 14:00:23.496165  1883 net.cpp:157] Top shape: 60 20 54 46 (2980800)
I0523 14:00:23.496178  1883 net.cpp:165] Memory required for data: 54919920
I0523 14:00:23.496196  1883 layer_factory.hpp:77] Creating layer relu2
I0523 14:00:23.496211  1883 net.cpp:106] Creating Layer relu2
I0523 14:00:23.496220  1883 net.cpp:454] relu2 <- conv2
I0523 14:00:23.496232  1883 net.cpp:397] relu2 -> conv2 (in-place)
I0523 14:00:23.496563  1883 net.cpp:150] Setting up relu2
I0523 14:00:23.496577  1883 net.cpp:157] Top shape: 60 20 54 46 (2980800)
I0523 14:00:23.496588  1883 net.cpp:165] Memory required for data: 66843120
I0523 14:00:23.496598  1883 layer_factory.hpp:77] Creating layer pool2
I0523 14:00:23.496611  1883 net.cpp:106] Creating Layer pool2
I0523 14:00:23.496621  1883 net.cpp:454] pool2 <- conv2
I0523 14:00:23.496634  1883 net.cpp:411] pool2 -> pool2
I0523 14:00:23.496703  1883 net.cpp:150] Setting up pool2
I0523 14:00:23.496717  1883 net.cpp:157] Top shape: 60 20 27 46 (1490400)
I0523 14:00:23.496726  1883 net.cpp:165] Memory required for data: 72804720
I0523 14:00:23.496737  1883 layer_factory.hpp:77] Creating layer conv3
I0523 14:00:23.496757  1883 net.cpp:106] Creating Layer conv3
I0523 14:00:23.496767  1883 net.cpp:454] conv3 <- pool2
I0523 14:00:23.496781  1883 net.cpp:411] conv3 -> conv3
I0523 14:00:23.498744  1883 net.cpp:150] Setting up conv3
I0523 14:00:23.498769  1883 net.cpp:157] Top shape: 60 28 22 44 (1626240)
I0523 14:00:23.498780  1883 net.cpp:165] Memory required for data: 79309680
I0523 14:00:23.498812  1883 layer_factory.hpp:77] Creating layer relu3
I0523 14:00:23.498826  1883 net.cpp:106] Creating Layer relu3
I0523 14:00:23.498836  1883 net.cpp:454] relu3 <- conv3
I0523 14:00:23.498848  1883 net.cpp:397] relu3 -> conv3 (in-place)
I0523 14:00:23.499322  1883 net.cpp:150] Setting up relu3
I0523 14:00:23.499338  1883 net.cpp:157] Top shape: 60 28 22 44 (1626240)
I0523 14:00:23.499348  1883 net.cpp:165] Memory required for data: 85814640
I0523 14:00:23.499358  1883 layer_factory.hpp:77] Creating layer pool3
I0523 14:00:23.499372  1883 net.cpp:106] Creating Layer pool3
I0523 14:00:23.499382  1883 net.cpp:454] pool3 <- conv3
I0523 14:00:23.499394  1883 net.cpp:411] pool3 -> pool3
I0523 14:00:23.499466  1883 net.cpp:150] Setting up pool3
I0523 14:00:23.499480  1883 net.cpp:157] Top shape: 60 28 11 44 (813120)
I0523 14:00:23.499490  1883 net.cpp:165] Memory required for data: 89067120
I0523 14:00:23.499500  1883 layer_factory.hpp:77] Creating layer conv4
I0523 14:00:23.499518  1883 net.cpp:106] Creating Layer conv4
I0523 14:00:23.499528  1883 net.cpp:454] conv4 <- pool3
I0523 14:00:23.499542  1883 net.cpp:411] conv4 -> conv4
I0523 14:00:23.501608  1883 net.cpp:150] Setting up conv4
I0523 14:00:23.501626  1883 net.cpp:157] Top shape: 60 36 6 42 (544320)
I0523 14:00:23.501637  1883 net.cpp:165] Memory required for data: 91244400
I0523 14:00:23.501653  1883 layer_factory.hpp:77] Creating layer relu4
I0523 14:00:23.501667  1883 net.cpp:106] Creating Layer relu4
I0523 14:00:23.501677  1883 net.cpp:454] relu4 <- conv4
I0523 14:00:23.501690  1883 net.cpp:397] relu4 -> conv4 (in-place)
I0523 14:00:23.502159  1883 net.cpp:150] Setting up relu4
I0523 14:00:23.502174  1883 net.cpp:157] Top shape: 60 36 6 42 (544320)
I0523 14:00:23.502184  1883 net.cpp:165] Memory required for data: 93421680
I0523 14:00:23.502194  1883 layer_factory.hpp:77] Creating layer pool4
I0523 14:00:23.502207  1883 net.cpp:106] Creating Layer pool4
I0523 14:00:23.502218  1883 net.cpp:454] pool4 <- conv4
I0523 14:00:23.502231  1883 net.cpp:411] pool4 -> pool4
I0523 14:00:23.502302  1883 net.cpp:150] Setting up pool4
I0523 14:00:23.502315  1883 net.cpp:157] Top shape: 60 36 3 42 (272160)
I0523 14:00:23.502326  1883 net.cpp:165] Memory required for data: 94510320
I0523 14:00:23.502334  1883 layer_factory.hpp:77] Creating layer ip1
I0523 14:00:23.502348  1883 net.cpp:106] Creating Layer ip1
I0523 14:00:23.502358  1883 net.cpp:454] ip1 <- pool4
I0523 14:00:23.502372  1883 net.cpp:411] ip1 -> ip1
I0523 14:00:23.517823  1883 net.cpp:150] Setting up ip1
I0523 14:00:23.517846  1883 net.cpp:157] Top shape: 60 196 (11760)
I0523 14:00:23.517856  1883 net.cpp:165] Memory required for data: 94557360
I0523 14:00:23.517879  1883 layer_factory.hpp:77] Creating layer relu5
I0523 14:00:23.517894  1883 net.cpp:106] Creating Layer relu5
I0523 14:00:23.517904  1883 net.cpp:454] relu5 <- ip1
I0523 14:00:23.517917  1883 net.cpp:397] relu5 -> ip1 (in-place)
I0523 14:00:23.518261  1883 net.cpp:150] Setting up relu5
I0523 14:00:23.518275  1883 net.cpp:157] Top shape: 60 196 (11760)
I0523 14:00:23.518285  1883 net.cpp:165] Memory required for data: 94604400
I0523 14:00:23.518296  1883 layer_factory.hpp:77] Creating layer drop1
I0523 14:00:23.518314  1883 net.cpp:106] Creating Layer drop1
I0523 14:00:23.518324  1883 net.cpp:454] drop1 <- ip1
I0523 14:00:23.518337  1883 net.cpp:397] drop1 -> ip1 (in-place)
I0523 14:00:23.518383  1883 net.cpp:150] Setting up drop1
I0523 14:00:23.518395  1883 net.cpp:157] Top shape: 60 196 (11760)
I0523 14:00:23.518405  1883 net.cpp:165] Memory required for data: 94651440
I0523 14:00:23.518414  1883 layer_factory.hpp:77] Creating layer ip2
I0523 14:00:23.518429  1883 net.cpp:106] Creating Layer ip2
I0523 14:00:23.518438  1883 net.cpp:454] ip2 <- ip1
I0523 14:00:23.518452  1883 net.cpp:411] ip2 -> ip2
I0523 14:00:23.518929  1883 net.cpp:150] Setting up ip2
I0523 14:00:23.518941  1883 net.cpp:157] Top shape: 60 98 (5880)
I0523 14:00:23.518951  1883 net.cpp:165] Memory required for data: 94674960
I0523 14:00:23.518967  1883 layer_factory.hpp:77] Creating layer relu6
I0523 14:00:23.518992  1883 net.cpp:106] Creating Layer relu6
I0523 14:00:23.519002  1883 net.cpp:454] relu6 <- ip2
I0523 14:00:23.519016  1883 net.cpp:397] relu6 -> ip2 (in-place)
I0523 14:00:23.519549  1883 net.cpp:150] Setting up relu6
I0523 14:00:23.519572  1883 net.cpp:157] Top shape: 60 98 (5880)
I0523 14:00:23.519582  1883 net.cpp:165] Memory required for data: 94698480
I0523 14:00:23.519593  1883 layer_factory.hpp:77] Creating layer drop2
I0523 14:00:23.519606  1883 net.cpp:106] Creating Layer drop2
I0523 14:00:23.519616  1883 net.cpp:454] drop2 <- ip2
I0523 14:00:23.519629  1883 net.cpp:397] drop2 -> ip2 (in-place)
I0523 14:00:23.519681  1883 net.cpp:150] Setting up drop2
I0523 14:00:23.519695  1883 net.cpp:157] Top shape: 60 98 (5880)
I0523 14:00:23.519706  1883 net.cpp:165] Memory required for data: 94722000
I0523 14:00:23.519714  1883 layer_factory.hpp:77] Creating layer ip3
I0523 14:00:23.519728  1883 net.cpp:106] Creating Layer ip3
I0523 14:00:23.519738  1883 net.cpp:454] ip3 <- ip2
I0523 14:00:23.519752  1883 net.cpp:411] ip3 -> ip3
I0523 14:00:23.519975  1883 net.cpp:150] Setting up ip3
I0523 14:00:23.519989  1883 net.cpp:157] Top shape: 60 11 (660)
I0523 14:00:23.519999  1883 net.cpp:165] Memory required for data: 94724640
I0523 14:00:23.520015  1883 layer_factory.hpp:77] Creating layer drop3
I0523 14:00:23.520026  1883 net.cpp:106] Creating Layer drop3
I0523 14:00:23.520036  1883 net.cpp:454] drop3 <- ip3
I0523 14:00:23.520050  1883 net.cpp:397] drop3 -> ip3 (in-place)
I0523 14:00:23.520090  1883 net.cpp:150] Setting up drop3
I0523 14:00:23.520103  1883 net.cpp:157] Top shape: 60 11 (660)
I0523 14:00:23.520112  1883 net.cpp:165] Memory required for data: 94727280
I0523 14:00:23.520123  1883 layer_factory.hpp:77] Creating layer ip3_drop3_0_split
I0523 14:00:23.520135  1883 net.cpp:106] Creating Layer ip3_drop3_0_split
I0523 14:00:23.520145  1883 net.cpp:454] ip3_drop3_0_split <- ip3
I0523 14:00:23.520159  1883 net.cpp:411] ip3_drop3_0_split -> ip3_drop3_0_split_0
I0523 14:00:23.520174  1883 net.cpp:411] ip3_drop3_0_split -> ip3_drop3_0_split_1
I0523 14:00:23.520246  1883 net.cpp:150] Setting up ip3_drop3_0_split
I0523 14:00:23.520261  1883 net.cpp:157] Top shape: 60 11 (660)
I0523 14:00:23.520272  1883 net.cpp:157] Top shape: 60 11 (660)
I0523 14:00:23.520282  1883 net.cpp:165] Memory required for data: 94732560
I0523 14:00:23.520292  1883 layer_factory.hpp:77] Creating layer accuracy
I0523 14:00:23.520313  1883 net.cpp:106] Creating Layer accuracy
I0523 14:00:23.520323  1883 net.cpp:454] accuracy <- ip3_drop3_0_split_0
I0523 14:00:23.520334  1883 net.cpp:454] accuracy <- label_data_hdf5_1_split_0
I0523 14:00:23.520349  1883 net.cpp:411] accuracy -> accuracy
…
