…
I0523 18:21:06.778420  6543 net.cpp:322] The NetState phase (0) differed from the phase (1) specified by a rule in layer data_hdf5
I0523 18:21:06.778481  6543 net.cpp:322] The NetState phase (0) differed from the phase (1) specified by a rule in layer accuracy
I0523 18:21:06.778827  6543 net.cpp:49] Initializing net from parameters: 
name: "caffe_test_127x50_x_unshifted"
state {
  phase: TRAIN
}
layer {
  name: "data_hdf5"
  type: "HDF5Data"
  top: "data"
  top: "label"
  include {
    phase: TRAIN
  }
  hdf5_data_param {
    source: "/lustre/atlas/proj-shared/hep105/caffe_titan/minosmatch_nukecczdefs_127x50_x_unshifted_me1Bmc.trainlist"
    batch_size: 60
  }
}
layer {
  name: "conv1"
  type: "Convolution"
  bottom: "data"
  top: "conv1"
  convolution_param {
    num_output: 12
    pad: 0
    stride: 1
    weight_filler {
      type: "xavier"
    }
    bias_filler {
      type: "constant"
    }
    kernel_h: 8
    kernel_w: 3
  }
}
layer {
  name: "relu1"
  type: "ReLU"
  bottom: "conv1"
  top: "conv1"
}
layer {
  name: "pool1"
  type: "Pooling"
  bottom: "conv1"
  top: "pool1"
  pooling_param {
    pool: MAX
    kernel_h: 2
    kernel_w: 1
    stride_h: 2
    stride_w: 1
  }
}
layer {
  name: "conv2"
  type: "Convolution"
  bottom: "pool1"
  top: "conv2"
  convolution_param {
    num_output: 20
    pad: 0
    stride: 1
    weight_filler {
      type: "xavier"
    }
    bias_filler {
      type: "constant"
    }
    kernel_h: 7
    kernel_w: 3
  }
}
layer {
  name: "relu2"
  type: "ReLU"
  bottom: "conv2"
  top: "conv2"
}
layer {
  name: "pool2"
  type: "Pooling"
  bottom: "conv2"
  top: "pool2"
  pooling_param {
    pool: MAX
    kernel_h: 2
    kernel_w: 1
    stride_h: 2
    stride_w: 1
  }
}
layer {
  name: "conv3"
  type: "Convolution"
  bottom: "pool2"
  top: "conv3"
  convolution_param {
    num_output: 28
    pad: 0
    stride: 1
    weight_filler {
      type: "xavier"
    }
    bias_filler {
      type: "constant"
    }
    kernel_h: 6
    kernel_w: 3
  }
}
layer {
  name: "relu3"
  type: "ReLU"
  bottom: "conv3"
  top: "conv3"
}
layer {
  name: "pool3"
  type: "Pooling"
  bottom: "conv3"
  top: "pool3"
  pooling_param {
    pool: MAX
    kernel_h: 2
    kernel_w: 1
    stride_h: 2
    stride_w: 1
  }
}
layer {
  name: "conv4"
  type: "Convolution"
  bottom: "pool3"
  top: "conv4"
  convolution_param {
    num_output: 36
    pad: 0
    stride: 1
    weight_filler {
      type: "xavier"
    }
    bias_filler {
      type: "constant"
    }
    kernel_h: 6
    kernel_w: 3
  }
}
layer {
  name: "relu4"
  type: "ReLU"
  bottom: "conv4"
  top: "conv4"
}
layer {
  name: "pool4"
  type: "Pooling"
  bottom: "conv4"
  top: "pool4"
  pooling_param {
    pool: MAX
    kernel_h: 2
    kernel_w: 1
    stride_h: 2
    stride_w: 1
  }
}
layer {
  name: "ip1"
  type: "InnerProduct"
  bottom: "pool4"
  top: "ip1"
  inner_product_param {
    num_output: 196
    weight_filler {
      type: "xavier"
    }
    bias_filler {
      type: "constant"
    }
  }
}
layer {
  name: "relu5"
  type: "ReLU"
  bottom: "ip1"
  top: "ip1"
}
layer {
  name: "drop1"
  type: "Dropout"
  bottom: "ip1"
  top: "ip1"
  dropout_param {
    dropout_ratio: 0.5
  }
}
layer {
  name: "ip2"
  type: "InnerProduct"
  bottom: "ip1"
  top: "ip2"
  inner_product_param {
    num_output: 98
    weight_filler {
      type: "xavier"
    }
    bias_filler {
      type: "constant"
    }
  }
}
layer {
  name: "relu6"
  type: "ReLU"
  bottom: "ip2"
  top: "ip2"
}
layer {
  name: "drop2"
  type: "Dropout"
  bottom: "ip2"
  top: "ip2"
  dropout_param {
    dropout_ratio: 0.5
  }
}
layer {
  name: "ip3"
  type: "InnerProduct"
  bottom: "ip2"
  top: "ip3"
  inner_product_param {
    num_output: 11
    weight_filler {
      type: "xavier"
    }
    bias_filler {
      type: "constant"
    }
  }
}
layer {
  name: "drop3"
  type: "Dropout"
  bottom: "ip3"
  top: "ip3"
  dropout_param {
    dropout_ratio: 0.5
  }
}
layer {
  name: "loss"
  type: "SoftmaxWithLoss"
  bottom: "ip3"
  bottom: "label"
  top: "loss"
}
I0523 18:21:06.779006  6543 layer_factory.hpp:77] Creating layer data_hdf5
I0523 18:21:06.779031  6543 net.cpp:106] Creating Layer data_hdf5
I0523 18:21:06.779045  6543 net.cpp:411] data_hdf5 -> data
I0523 18:21:06.779079  6543 net.cpp:411] data_hdf5 -> label
I0523 18:21:06.779111  6543 hdf5_data_layer.cpp:79] Loading list of HDF5 filenames from: /lustre/atlas/proj-shared/hep105/caffe_titan/minosmatch_nukecczdefs_127x50_x_unshifted_me1Bmc.trainlist
I0523 18:21:06.781216  6543 hdf5_data_layer.cpp:93] Number of HDF5 files: 15
I0523 18:21:06.783515  6543 hdf5.cpp:32] Datatype class: H5T_FLOAT
I0523 18:21:28.365604  6543 hdf5.cpp:35] Datatype class: H5T_INTEGER
I0523 18:21:28.370789  6543 net.cpp:150] Setting up data_hdf5
I0523 18:21:28.370829  6543 net.cpp:157] Top shape: 60 1 127 50 (381000)
I0523 18:21:28.370844  6543 net.cpp:157] Top shape: 60 (60)
I0523 18:21:28.370856  6543 net.cpp:165] Memory required for data: 1524240
I0523 18:21:28.370869  6543 layer_factory.hpp:77] Creating layer conv1
I0523 18:21:28.370903  6543 net.cpp:106] Creating Layer conv1
I0523 18:21:28.370913  6543 net.cpp:454] conv1 <- data
I0523 18:21:28.370934  6543 net.cpp:411] conv1 -> conv1
I0523 18:21:28.764106  6543 net.cpp:150] Setting up conv1
I0523 18:21:28.764150  6543 net.cpp:157] Top shape: 60 12 120 48 (4147200)
I0523 18:21:28.764163  6543 net.cpp:165] Memory required for data: 18113040
I0523 18:21:28.764191  6543 layer_factory.hpp:77] Creating layer relu1
I0523 18:21:28.764214  6543 net.cpp:106] Creating Layer relu1
I0523 18:21:28.764225  6543 net.cpp:454] relu1 <- conv1
I0523 18:21:28.764238  6543 net.cpp:397] relu1 -> conv1 (in-place)
I0523 18:21:28.764782  6543 net.cpp:150] Setting up relu1
I0523 18:21:28.764799  6543 net.cpp:157] Top shape: 60 12 120 48 (4147200)
I0523 18:21:28.764811  6543 net.cpp:165] Memory required for data: 34701840
I0523 18:21:28.764822  6543 layer_factory.hpp:77] Creating layer pool1
I0523 18:21:28.764837  6543 net.cpp:106] Creating Layer pool1
I0523 18:21:28.764848  6543 net.cpp:454] pool1 <- conv1
I0523 18:21:28.764861  6543 net.cpp:411] pool1 -> pool1
I0523 18:21:28.764941  6543 net.cpp:150] Setting up pool1
I0523 18:21:28.764955  6543 net.cpp:157] Top shape: 60 12 60 48 (2073600)
I0523 18:21:28.764966  6543 net.cpp:165] Memory required for data: 42996240
I0523 18:21:28.764976  6543 layer_factory.hpp:77] Creating layer conv2
I0523 18:21:28.764996  6543 net.cpp:106] Creating Layer conv2
I0523 18:21:28.765005  6543 net.cpp:454] conv2 <- pool1
I0523 18:21:28.765019  6543 net.cpp:411] conv2 -> conv2
I0523 18:21:28.767771  6543 net.cpp:150] Setting up conv2
I0523 18:21:28.767799  6543 net.cpp:157] Top shape: 60 20 54 46 (2980800)
I0523 18:21:28.767809  6543 net.cpp:165] Memory required for data: 54919440
I0523 18:21:28.767838  6543 layer_factory.hpp:77] Creating layer relu2
I0523 18:21:28.767853  6543 net.cpp:106] Creating Layer relu2
I0523 18:21:28.767863  6543 net.cpp:454] relu2 <- conv2
I0523 18:21:28.767875  6543 net.cpp:397] relu2 -> conv2 (in-place)
I0523 18:21:28.768204  6543 net.cpp:150] Setting up relu2
I0523 18:21:28.768218  6543 net.cpp:157] Top shape: 60 20 54 46 (2980800)
I0523 18:21:28.768229  6543 net.cpp:165] Memory required for data: 66842640
I0523 18:21:28.768239  6543 layer_factory.hpp:77] Creating layer pool2
I0523 18:21:28.768251  6543 net.cpp:106] Creating Layer pool2
I0523 18:21:28.768261  6543 net.cpp:454] pool2 <- conv2
I0523 18:21:28.768273  6543 net.cpp:411] pool2 -> pool2
I0523 18:21:28.768354  6543 net.cpp:150] Setting up pool2
I0523 18:21:28.768368  6543 net.cpp:157] Top shape: 60 20 27 46 (1490400)
I0523 18:21:28.768378  6543 net.cpp:165] Memory required for data: 72804240
I0523 18:21:28.768388  6543 layer_factory.hpp:77] Creating layer conv3
I0523 18:21:28.768404  6543 net.cpp:106] Creating Layer conv3
I0523 18:21:28.768415  6543 net.cpp:454] conv3 <- pool2
I0523 18:21:28.768429  6543 net.cpp:411] conv3 -> conv3
I0523 18:21:28.770352  6543 net.cpp:150] Setting up conv3
I0523 18:21:28.770376  6543 net.cpp:157] Top shape: 60 28 22 44 (1626240)
I0523 18:21:28.770387  6543 net.cpp:165] Memory required for data: 79309200
I0523 18:21:28.770406  6543 layer_factory.hpp:77] Creating layer relu3
I0523 18:21:28.770422  6543 net.cpp:106] Creating Layer relu3
I0523 18:21:28.770431  6543 net.cpp:454] relu3 <- conv3
I0523 18:21:28.770444  6543 net.cpp:397] relu3 -> conv3 (in-place)
I0523 18:21:28.770913  6543 net.cpp:150] Setting up relu3
I0523 18:21:28.770931  6543 net.cpp:157] Top shape: 60 28 22 44 (1626240)
I0523 18:21:28.770941  6543 net.cpp:165] Memory required for data: 85814160
I0523 18:21:28.770951  6543 layer_factory.hpp:77] Creating layer pool3
I0523 18:21:28.770964  6543 net.cpp:106] Creating Layer pool3
I0523 18:21:28.770973  6543 net.cpp:454] pool3 <- conv3
I0523 18:21:28.770987  6543 net.cpp:411] pool3 -> pool3
I0523 18:21:28.771054  6543 net.cpp:150] Setting up pool3
I0523 18:21:28.771067  6543 net.cpp:157] Top shape: 60 28 11 44 (813120)
I0523 18:21:28.771077  6543 net.cpp:165] Memory required for data: 89066640
I0523 18:21:28.771087  6543 layer_factory.hpp:77] Creating layer conv4
I0523 18:21:28.771103  6543 net.cpp:106] Creating Layer conv4
I0523 18:21:28.771114  6543 net.cpp:454] conv4 <- pool3
I0523 18:21:28.771128  6543 net.cpp:411] conv4 -> conv4
I0523 18:21:28.773905  6543 net.cpp:150] Setting up conv4
I0523 18:21:28.773928  6543 net.cpp:157] Top shape: 60 36 6 42 (544320)
I0523 18:21:28.773938  6543 net.cpp:165] Memory required for data: 91243920
I0523 18:21:28.773954  6543 layer_factory.hpp:77] Creating layer relu4
I0523 18:21:28.773968  6543 net.cpp:106] Creating Layer relu4
I0523 18:21:28.773978  6543 net.cpp:454] relu4 <- conv4
I0523 18:21:28.773991  6543 net.cpp:397] relu4 -> conv4 (in-place)
I0523 18:21:28.774462  6543 net.cpp:150] Setting up relu4
I0523 18:21:28.774478  6543 net.cpp:157] Top shape: 60 36 6 42 (544320)
I0523 18:21:28.774488  6543 net.cpp:165] Memory required for data: 93421200
I0523 18:21:28.774499  6543 layer_factory.hpp:77] Creating layer pool4
I0523 18:21:28.774512  6543 net.cpp:106] Creating Layer pool4
I0523 18:21:28.774521  6543 net.cpp:454] pool4 <- conv4
I0523 18:21:28.774533  6543 net.cpp:411] pool4 -> pool4
I0523 18:21:28.774602  6543 net.cpp:150] Setting up pool4
I0523 18:21:28.774616  6543 net.cpp:157] Top shape: 60 36 3 42 (272160)
I0523 18:21:28.774626  6543 net.cpp:165] Memory required for data: 94509840
I0523 18:21:28.774636  6543 layer_factory.hpp:77] Creating layer ip1
I0523 18:21:28.774657  6543 net.cpp:106] Creating Layer ip1
I0523 18:21:28.774667  6543 net.cpp:454] ip1 <- pool4
I0523 18:21:28.774679  6543 net.cpp:411] ip1 -> ip1
I0523 18:21:28.790139  6543 net.cpp:150] Setting up ip1
I0523 18:21:28.790169  6543 net.cpp:157] Top shape: 60 196 (11760)
I0523 18:21:28.790180  6543 net.cpp:165] Memory required for data: 94556880
I0523 18:21:28.790204  6543 layer_factory.hpp:77] Creating layer relu5
I0523 18:21:28.790218  6543 net.cpp:106] Creating Layer relu5
I0523 18:21:28.790228  6543 net.cpp:454] relu5 <- ip1
I0523 18:21:28.790241  6543 net.cpp:397] relu5 -> ip1 (in-place)
I0523 18:21:28.790586  6543 net.cpp:150] Setting up relu5
I0523 18:21:28.790601  6543 net.cpp:157] Top shape: 60 196 (11760)
I0523 18:21:28.790611  6543 net.cpp:165] Memory required for data: 94603920
I0523 18:21:28.790621  6543 layer_factory.hpp:77] Creating layer drop1
I0523 18:21:28.790642  6543 net.cpp:106] Creating Layer drop1
I0523 18:21:28.790652  6543 net.cpp:454] drop1 <- ip1
I0523 18:21:28.790664  6543 net.cpp:397] drop1 -> ip1 (in-place)
I0523 18:21:28.790724  6543 net.cpp:150] Setting up drop1
I0523 18:21:28.790736  6543 net.cpp:157] Top shape: 60 196 (11760)
I0523 18:21:28.790746  6543 net.cpp:165] Memory required for data: 94650960
I0523 18:21:28.790756  6543 layer_factory.hpp:77] Creating layer ip2
I0523 18:21:28.790774  6543 net.cpp:106] Creating Layer ip2
I0523 18:21:28.790786  6543 net.cpp:454] ip2 <- ip1
I0523 18:21:28.790798  6543 net.cpp:411] ip2 -> ip2
I0523 18:21:28.791261  6543 net.cpp:150] Setting up ip2
I0523 18:21:28.791275  6543 net.cpp:157] Top shape: 60 98 (5880)
I0523 18:21:28.791285  6543 net.cpp:165] Memory required for data: 94674480
I0523 18:21:28.791299  6543 layer_factory.hpp:77] Creating layer relu6
I0523 18:21:28.791312  6543 net.cpp:106] Creating Layer relu6
I0523 18:21:28.791321  6543 net.cpp:454] relu6 <- ip2
I0523 18:21:28.791333  6543 net.cpp:397] relu6 -> ip2 (in-place)
I0523 18:21:28.791858  6543 net.cpp:150] Setting up relu6
I0523 18:21:28.791874  6543 net.cpp:157] Top shape: 60 98 (5880)
I0523 18:21:28.791885  6543 net.cpp:165] Memory required for data: 94698000
I0523 18:21:28.791895  6543 layer_factory.hpp:77] Creating layer drop2
I0523 18:21:28.791908  6543 net.cpp:106] Creating Layer drop2
I0523 18:21:28.791918  6543 net.cpp:454] drop2 <- ip2
I0523 18:21:28.791931  6543 net.cpp:397] drop2 -> ip2 (in-place)
I0523 18:21:28.791973  6543 net.cpp:150] Setting up drop2
I0523 18:21:28.791986  6543 net.cpp:157] Top shape: 60 98 (5880)
I0523 18:21:28.791996  6543 net.cpp:165] Memory required for data: 94721520
I0523 18:21:28.792008  6543 layer_factory.hpp:77] Creating layer ip3
I0523 18:21:28.792021  6543 net.cpp:106] Creating Layer ip3
I0523 18:21:28.792032  6543 net.cpp:454] ip3 <- ip2
I0523 18:21:28.792044  6543 net.cpp:411] ip3 -> ip3
I0523 18:21:28.792255  6543 net.cpp:150] Setting up ip3
I0523 18:21:28.792268  6543 net.cpp:157] Top shape: 60 11 (660)
I0523 18:21:28.792279  6543 net.cpp:165] Memory required for data: 94724160
I0523 18:21:28.792294  6543 layer_factory.hpp:77] Creating layer drop3
I0523 18:21:28.792305  6543 net.cpp:106] Creating Layer drop3
I0523 18:21:28.792315  6543 net.cpp:454] drop3 <- ip3
I0523 18:21:28.792327  6543 net.cpp:397] drop3 -> ip3 (in-place)
I0523 18:21:28.792367  6543 net.cpp:150] Setting up drop3
I0523 18:21:28.792379  6543 net.cpp:157] Top shape: 60 11 (660)
I0523 18:21:28.792389  6543 net.cpp:165] Memory required for data: 94726800
I0523 18:21:28.792399  6543 layer_factory.hpp:77] Creating layer loss
I0523 18:21:28.792418  6543 net.cpp:106] Creating Layer loss
I0523 18:21:28.792428  6543 net.cpp:454] loss <- ip3
I0523 18:21:28.792439  6543 net.cpp:454] loss <- label
I0523 18:21:28.792451  6543 net.cpp:411] loss -> loss
I0523 18:21:28.792469  6543 layer_factory.hpp:77] Creating layer loss
…
I0523 18:21:28.795207  6543 solver.cpp:181] Creating test net (#0) specified by net file: /lustre/atlas/proj-shared/hep105/caffe_titan/caffe_workflow/logs_bslr/bs_60_lr_0.0040_2016-05-20T15.49.11.382293.prototxt
I0523 18:21:28.795279  6543 net.cpp:322] The NetState phase (1) differed from the phase (0) specified by a rule in layer data_hdf5
I0523 18:21:28.795634  6543 net.cpp:49] Initializing net from parameters: 
name: "caffe_test_127x50_x_unshifted"
state {
  phase: TEST
}
layer {
  name: "data_hdf5"
  type: "HDF5Data"
  top: "data"
  top: "label"
  include {
    phase: TEST
  }
  hdf5_data_param {
    source: "/lustre/atlas/proj-shared/hep105/caffe_titan/minosmatch_nukecczdefs_127x50_x_unshifted_me1Bmc.testlist"
    batch_size: 60
  }
}
layer {
  name: "conv1"
  type: "Convolution"
  bottom: "data"
  top: "conv1"
  convolution_param {
    num_output: 12
    pad: 0
    stride: 1
    weight_filler {
      type: "xavier"
    }
    bias_filler {
      type: "constant"
    }
    kernel_h: 8
    kernel_w: 3
  }
}
layer {
  name: "relu1"
  type: "ReLU"
  bottom: "conv1"
  top: "conv1"
}
layer {
  name: "pool1"
  type: "Pooling"
  bottom: "conv1"
  top: "pool1"
  pooling_param {
    pool: MAX
    kernel_h: 2
    kernel_w: 1
    stride_h: 2
    stride_w: 1
  }
}
layer {
  name: "conv2"
  type: "Convolution"
  bottom: "pool1"
  top: "conv2"
  convolution_param {
    num_output: 20
    pad: 0
    stride: 1
    weight_filler {
      type: "xavier"
    }
    bias_filler {
      type: "constant"
    }
    kernel_h: 7
    kernel_w: 3
  }
}
layer {
  name: "relu2"
  type: "ReLU"
  bottom: "conv2"
  top: "conv2"
}
layer {
  name: "pool2"
  type: "Pooling"
  bottom: "conv2"
  top: "pool2"
  pooling_param {
    pool: MAX
    kernel_h: 2
    kernel_w: 1
    stride_h: 2
    stride_w: 1
  }
}
layer {
  name: "conv3"
  type: "Convolution"
  bottom: "pool2"
  top: "conv3"
  convolution_param {
    num_output: 28
    pad: 0
    stride: 1
    weight_filler {
      type: "xavier"
    }
    bias_filler {
      type: "constant"
    }
    kernel_h: 6
    kernel_w: 3
  }
}
layer {
  name: "relu3"
  type: "ReLU"
  bottom: "conv3"
  top: "conv3"
}
layer {
  name: "pool3"
  type: "Pooling"
  bottom: "conv3"
  top: "pool3"
  pooling_param {
    pool: MAX
    kernel_h: 2
    kernel_w: 1
    stride_h: 2
    stride_w: 1
  }
}
layer {
  name: "conv4"
  type: "Convolution"
  bottom: "pool3"
  top: "conv4"
  convolution_param {
    num_output: 36
    pad: 0
    stride: 1
    weight_filler {
      type: "xavier"
    }
    bias_filler {
      type: "constant"
    }
    kernel_h: 6
    kernel_w: 3
  }
}
layer {
  name: "relu4"
  type: "ReLU"
  bottom: "conv4"
  top: "conv4"
}
layer {
  name: "pool4"
  type: "Pooling"
  bottom: "conv4"
  top: "pool4"
  pooling_param {
    pool: MAX
    kernel_h: 2
    kernel_w: 1
    stride_h: 2
    stride_w: 1
  }
}
layer {
  name: "ip1"
  type: "InnerProduct"
  bottom: "pool4"
  top: "ip1"
  inner_product_param {
    num_output: 196
    weight_filler {
      type: "xavier"
    }
    bias_filler {
      type: "constant"
    }
  }
}
layer {
  name: "relu5"
  type: "ReLU"
  bottom: "ip1"
  top: "ip1"
}
layer {
  name: "drop1"
  type: "Dropout"
  bottom: "ip1"
  top: "ip1"
  dropout_param {
    dropout_ratio: 0.5
  }
}
layer {
  name: "ip2"
  type: "InnerProduct"
  bottom: "ip1"
  top: "ip2"
  inner_product_param {
    num_output: 98
    weight_filler {
      type: "xavier"
    }
    bias_filler {
      type: "constant"
    }
  }
}
layer {
  name: "relu6"
  type: "ReLU"
  bottom: "ip2"
  top: "ip2"
}
layer {
  name: "drop2"
  type: "Dropout"
  bottom: "ip2"
  top: "ip2"
  dropout_param {
    dropout_ratio: 0.5
  }
}
layer {
  name: "ip3"
  type: "InnerProduct"
  bottom: "ip2"
  top: "ip3"
  inner_product_param {
    num_output: 11
    weight_filler {
      type: "xavier"
    }
    bias_filler {
      type: "constant"
    }
  }
}
layer {
  name: "drop3"
  type: "Dropout"
  bottom: "ip3"
  top: "ip3"
  dropout_param {
    dropout_ratio: 0.5
  }
}
layer {
  name: "accuracy"
  type: "Accuracy"
  bottom: "ip3"
  bottom: "label"
  top: "accuracy"
  include {
    phase: TEST
  }
}
layer {
  name: "loss"
  type: "SoftmaxWithLoss"
  bottom: "ip3"
  bottom: "label"
  top: "loss"
}
I0523 18:21:28.795830  6543 layer_factory.hpp:77] Creating layer data_hdf5
I0523 18:21:28.795845  6543 net.cpp:106] Creating Layer data_hdf5
I0523 18:21:28.795857  6543 net.cpp:411] data_hdf5 -> data
I0523 18:21:28.795874  6543 net.cpp:411] data_hdf5 -> label
I0523 18:21:28.795891  6543 hdf5_data_layer.cpp:79] Loading list of HDF5 filenames from: /lustre/atlas/proj-shared/hep105/caffe_titan/minosmatch_nukecczdefs_127x50_x_unshifted_me1Bmc.testlist
I0523 18:21:28.797926  6543 hdf5_data_layer.cpp:93] Number of HDF5 files: 3
I0523 18:21:50.136837  6543 net.cpp:150] Setting up data_hdf5
I0523 18:21:50.137004  6543 net.cpp:157] Top shape: 60 1 127 50 (381000)
I0523 18:21:50.137018  6543 net.cpp:157] Top shape: 60 (60)
I0523 18:21:50.137029  6543 net.cpp:165] Memory required for data: 1524240
I0523 18:21:50.137042  6543 layer_factory.hpp:77] Creating layer label_data_hdf5_1_split
I0523 18:21:50.137071  6543 net.cpp:106] Creating Layer label_data_hdf5_1_split
I0523 18:21:50.137082  6543 net.cpp:454] label_data_hdf5_1_split <- label
I0523 18:21:50.137097  6543 net.cpp:411] label_data_hdf5_1_split -> label_data_hdf5_1_split_0
I0523 18:21:50.137118  6543 net.cpp:411] label_data_hdf5_1_split -> label_data_hdf5_1_split_1
I0523 18:21:50.137192  6543 net.cpp:150] Setting up label_data_hdf5_1_split
I0523 18:21:50.137205  6543 net.cpp:157] Top shape: 60 (60)
I0523 18:21:50.137217  6543 net.cpp:157] Top shape: 60 (60)
I0523 18:21:50.137226  6543 net.cpp:165] Memory required for data: 1524720
I0523 18:21:50.137235  6543 layer_factory.hpp:77] Creating layer conv1
I0523 18:21:50.137259  6543 net.cpp:106] Creating Layer conv1
I0523 18:21:50.137269  6543 net.cpp:454] conv1 <- data
I0523 18:21:50.137280  6543 net.cpp:411] conv1 -> conv1
I0523 18:21:50.139245  6543 net.cpp:150] Setting up conv1
I0523 18:21:50.139269  6543 net.cpp:157] Top shape: 60 12 120 48 (4147200)
I0523 18:21:50.139281  6543 net.cpp:165] Memory required for data: 18113520
I0523 18:21:50.139302  6543 layer_factory.hpp:77] Creating layer relu1
I0523 18:21:50.139317  6543 net.cpp:106] Creating Layer relu1
I0523 18:21:50.139328  6543 net.cpp:454] relu1 <- conv1
I0523 18:21:50.139340  6543 net.cpp:397] relu1 -> conv1 (in-place)
I0523 18:21:50.139842  6543 net.cpp:150] Setting up relu1
I0523 18:21:50.139858  6543 net.cpp:157] Top shape: 60 12 120 48 (4147200)
I0523 18:21:50.139869  6543 net.cpp:165] Memory required for data: 34702320
I0523 18:21:50.139879  6543 layer_factory.hpp:77] Creating layer pool1
I0523 18:21:50.139895  6543 net.cpp:106] Creating Layer pool1
I0523 18:21:50.139905  6543 net.cpp:454] pool1 <- conv1
I0523 18:21:50.139919  6543 net.cpp:411] pool1 -> pool1
I0523 18:21:50.139992  6543 net.cpp:150] Setting up pool1
I0523 18:21:50.140005  6543 net.cpp:157] Top shape: 60 12 60 48 (2073600)
I0523 18:21:50.140014  6543 net.cpp:165] Memory required for data: 42996720
I0523 18:21:50.140024  6543 layer_factory.hpp:77] Creating layer conv2
I0523 18:21:50.140043  6543 net.cpp:106] Creating Layer conv2
I0523 18:21:50.140053  6543 net.cpp:454] conv2 <- pool1
I0523 18:21:50.140067  6543 net.cpp:411] conv2 -> conv2
I0523 18:21:50.141978  6543 net.cpp:150] Setting up conv2
I0523 18:21:50.141995  6543 net.cpp:157] Top shape: 60 20 54 46 (2980800)
I0523 18:21:50.142007  6543 net.cpp:165] Memory required for data: 54919920
I0523 18:21:50.142024  6543 layer_factory.hpp:77] Creating layer relu2
I0523 18:21:50.142037  6543 net.cpp:106] Creating Layer relu2
I0523 18:21:50.142047  6543 net.cpp:454] relu2 <- conv2
I0523 18:21:50.142060  6543 net.cpp:397] relu2 -> conv2 (in-place)
I0523 18:21:50.142391  6543 net.cpp:150] Setting up relu2
I0523 18:21:50.142406  6543 net.cpp:157] Top shape: 60 20 54 46 (2980800)
I0523 18:21:50.142416  6543 net.cpp:165] Memory required for data: 66843120
I0523 18:21:50.142426  6543 layer_factory.hpp:77] Creating layer pool2
I0523 18:21:50.142438  6543 net.cpp:106] Creating Layer pool2
I0523 18:21:50.142448  6543 net.cpp:454] pool2 <- conv2
I0523 18:21:50.142460  6543 net.cpp:411] pool2 -> pool2
I0523 18:21:50.142532  6543 net.cpp:150] Setting up pool2
I0523 18:21:50.142545  6543 net.cpp:157] Top shape: 60 20 27 46 (1490400)
I0523 18:21:50.142555  6543 net.cpp:165] Memory required for data: 72804720
I0523 18:21:50.142565  6543 layer_factory.hpp:77] Creating layer conv3
I0523 18:21:50.142585  6543 net.cpp:106] Creating Layer conv3
I0523 18:21:50.142596  6543 net.cpp:454] conv3 <- pool2
I0523 18:21:50.142609  6543 net.cpp:411] conv3 -> conv3
I0523 18:21:50.144583  6543 net.cpp:150] Setting up conv3
I0523 18:21:50.144606  6543 net.cpp:157] Top shape: 60 28 22 44 (1626240)
I0523 18:21:50.144618  6543 net.cpp:165] Memory required for data: 79309680
I0523 18:21:50.144651  6543 layer_factory.hpp:77] Creating layer relu3
I0523 18:21:50.144665  6543 net.cpp:106] Creating Layer relu3
I0523 18:21:50.144675  6543 net.cpp:454] relu3 <- conv3
I0523 18:21:50.144687  6543 net.cpp:397] relu3 -> conv3 (in-place)
I0523 18:21:50.145156  6543 net.cpp:150] Setting up relu3
I0523 18:21:50.145172  6543 net.cpp:157] Top shape: 60 28 22 44 (1626240)
I0523 18:21:50.145184  6543 net.cpp:165] Memory required for data: 85814640
I0523 18:21:50.145193  6543 layer_factory.hpp:77] Creating layer pool3
I0523 18:21:50.145206  6543 net.cpp:106] Creating Layer pool3
I0523 18:21:50.145216  6543 net.cpp:454] pool3 <- conv3
I0523 18:21:50.145229  6543 net.cpp:411] pool3 -> pool3
I0523 18:21:50.145300  6543 net.cpp:150] Setting up pool3
I0523 18:21:50.145313  6543 net.cpp:157] Top shape: 60 28 11 44 (813120)
I0523 18:21:50.145326  6543 net.cpp:165] Memory required for data: 89067120
I0523 18:21:50.145336  6543 layer_factory.hpp:77] Creating layer conv4
I0523 18:21:50.145351  6543 net.cpp:106] Creating Layer conv4
I0523 18:21:50.145362  6543 net.cpp:454] conv4 <- pool3
I0523 18:21:50.145376  6543 net.cpp:411] conv4 -> conv4
I0523 18:21:50.147434  6543 net.cpp:150] Setting up conv4
I0523 18:21:50.147457  6543 net.cpp:157] Top shape: 60 36 6 42 (544320)
I0523 18:21:50.147469  6543 net.cpp:165] Memory required for data: 91244400
I0523 18:21:50.147485  6543 layer_factory.hpp:77] Creating layer relu4
I0523 18:21:50.147497  6543 net.cpp:106] Creating Layer relu4
I0523 18:21:50.147507  6543 net.cpp:454] relu4 <- conv4
I0523 18:21:50.147521  6543 net.cpp:397] relu4 -> conv4 (in-place)
I0523 18:21:50.148003  6543 net.cpp:150] Setting up relu4
I0523 18:21:50.148020  6543 net.cpp:157] Top shape: 60 36 6 42 (544320)
I0523 18:21:50.148030  6543 net.cpp:165] Memory required for data: 93421680
I0523 18:21:50.148041  6543 layer_factory.hpp:77] Creating layer pool4
I0523 18:21:50.148053  6543 net.cpp:106] Creating Layer pool4
I0523 18:21:50.148062  6543 net.cpp:454] pool4 <- conv4
I0523 18:21:50.148077  6543 net.cpp:411] pool4 -> pool4
I0523 18:21:50.148146  6543 net.cpp:150] Setting up pool4
I0523 18:21:50.148159  6543 net.cpp:157] Top shape: 60 36 3 42 (272160)
I0523 18:21:50.148169  6543 net.cpp:165] Memory required for data: 94510320
I0523 18:21:50.148180  6543 layer_factory.hpp:77] Creating layer ip1
I0523 18:21:50.148195  6543 net.cpp:106] Creating Layer ip1
I0523 18:21:50.148206  6543 net.cpp:454] ip1 <- pool4
I0523 18:21:50.148219  6543 net.cpp:411] ip1 -> ip1
I0523 18:21:50.163758  6543 net.cpp:150] Setting up ip1
I0523 18:21:50.163786  6543 net.cpp:157] Top shape: 60 196 (11760)
I0523 18:21:50.163801  6543 net.cpp:165] Memory required for data: 94557360
I0523 18:21:50.163830  6543 layer_factory.hpp:77] Creating layer relu5
I0523 18:21:50.163846  6543 net.cpp:106] Creating Layer relu5
I0523 18:21:50.163856  6543 net.cpp:454] relu5 <- ip1
I0523 18:21:50.163869  6543 net.cpp:397] relu5 -> ip1 (in-place)
I0523 18:21:50.164218  6543 net.cpp:150] Setting up relu5
I0523 18:21:50.164232  6543 net.cpp:157] Top shape: 60 196 (11760)
I0523 18:21:50.164242  6543 net.cpp:165] Memory required for data: 94604400
I0523 18:21:50.164252  6543 layer_factory.hpp:77] Creating layer drop1
I0523 18:21:50.164273  6543 net.cpp:106] Creating Layer drop1
I0523 18:21:50.164283  6543 net.cpp:454] drop1 <- ip1
I0523 18:21:50.164296  6543 net.cpp:397] drop1 -> ip1 (in-place)
I0523 18:21:50.164341  6543 net.cpp:150] Setting up drop1
I0523 18:21:50.164355  6543 net.cpp:157] Top shape: 60 196 (11760)
I0523 18:21:50.164364  6543 net.cpp:165] Memory required for data: 94651440
I0523 18:21:50.164374  6543 layer_factory.hpp:77] Creating layer ip2
I0523 18:21:50.164389  6543 net.cpp:106] Creating Layer ip2
I0523 18:21:50.164399  6543 net.cpp:454] ip2 <- ip1
I0523 18:21:50.164413  6543 net.cpp:411] ip2 -> ip2
I0523 18:21:50.164891  6543 net.cpp:150] Setting up ip2
I0523 18:21:50.164904  6543 net.cpp:157] Top shape: 60 98 (5880)
I0523 18:21:50.164914  6543 net.cpp:165] Memory required for data: 94674960
I0523 18:21:50.164929  6543 layer_factory.hpp:77] Creating layer relu6
I0523 18:21:50.164955  6543 net.cpp:106] Creating Layer relu6
I0523 18:21:50.164965  6543 net.cpp:454] relu6 <- ip2
I0523 18:21:50.164978  6543 net.cpp:397] relu6 -> ip2 (in-place)
I0523 18:21:50.165510  6543 net.cpp:150] Setting up relu6
I0523 18:21:50.165527  6543 net.cpp:157] Top shape: 60 98 (5880)
I0523 18:21:50.165535  6543 net.cpp:165] Memory required for data: 94698480
I0523 18:21:50.165545  6543 layer_factory.hpp:77] Creating layer drop2
I0523 18:21:50.165558  6543 net.cpp:106] Creating Layer drop2
I0523 18:21:50.165570  6543 net.cpp:454] drop2 <- ip2
I0523 18:21:50.165582  6543 net.cpp:397] drop2 -> ip2 (in-place)
I0523 18:21:50.165627  6543 net.cpp:150] Setting up drop2
I0523 18:21:50.165639  6543 net.cpp:157] Top shape: 60 98 (5880)
I0523 18:21:50.165649  6543 net.cpp:165] Memory required for data: 94722000
I0523 18:21:50.165659  6543 layer_factory.hpp:77] Creating layer ip3
I0523 18:21:50.165674  6543 net.cpp:106] Creating Layer ip3
I0523 18:21:50.165683  6543 net.cpp:454] ip3 <- ip2
I0523 18:21:50.165698  6543 net.cpp:411] ip3 -> ip3
I0523 18:21:50.165920  6543 net.cpp:150] Setting up ip3
I0523 18:21:50.165932  6543 net.cpp:157] Top shape: 60 11 (660)
I0523 18:21:50.165942  6543 net.cpp:165] Memory required for data: 94724640
I0523 18:21:50.165957  6543 layer_factory.hpp:77] Creating layer drop3
I0523 18:21:50.165971  6543 net.cpp:106] Creating Layer drop3
I0523 18:21:50.165979  6543 net.cpp:454] drop3 <- ip3
I0523 18:21:50.165992  6543 net.cpp:397] drop3 -> ip3 (in-place)
I0523 18:21:50.166034  6543 net.cpp:150] Setting up drop3
I0523 18:21:50.166046  6543 net.cpp:157] Top shape: 60 11 (660)
I0523 18:21:50.166056  6543 net.cpp:165] Memory required for data: 94727280
I0523 18:21:50.166065  6543 layer_factory.hpp:77] Creating layer ip3_drop3_0_split
I0523 18:21:50.166079  6543 net.cpp:106] Creating Layer ip3_drop3_0_split
I0523 18:21:50.166088  6543 net.cpp:454] ip3_drop3_0_split <- ip3
I0523 18:21:50.166101  6543 net.cpp:411] ip3_drop3_0_split -> ip3_drop3_0_split_0
I0523 18:21:50.166115  6543 net.cpp:411] ip3_drop3_0_split -> ip3_drop3_0_split_1
I0523 18:21:50.166189  6543 net.cpp:150] Setting up ip3_drop3_0_split
I0523 18:21:50.166203  6543 net.cpp:157] Top shape: 60 11 (660)
I0523 18:21:50.166214  6543 net.cpp:157] Top shape: 60 11 (660)
I0523 18:21:50.166224  6543 net.cpp:165] Memory required for data: 94732560
I0523 18:21:50.166234  6543 layer_factory.hpp:77] Creating layer accuracy
I0523 18:21:50.166256  6543 net.cpp:106] Creating Layer accuracy
I0523 18:21:50.166266  6543 net.cpp:454] accuracy <- ip3_drop3_0_split_0
I0523 18:21:50.166277  6543 net.cpp:454] accuracy <- label_data_hdf5_1_split_0
I0523 18:21:50.166290  6543 net.cpp:411] accuracy -> accuracy
…
