…
I0523 20:01:35.482484 14326 net.cpp:322] The NetState phase (0) differed from the phase (1) specified by a rule in layer data_hdf5
I0523 20:01:35.482544 14326 net.cpp:322] The NetState phase (0) differed from the phase (1) specified by a rule in layer accuracy
I0523 20:01:35.482892 14326 net.cpp:49] Initializing net from parameters: 
name: "caffe_test_127x50_x_unshifted"
state {
  phase: TRAIN
}
layer {
  name: "data_hdf5"
  type: "HDF5Data"
  top: "data"
  top: "label"
  include {
    phase: TRAIN
  }
  hdf5_data_param {
    source: "/lustre/atlas/proj-shared/hep105/caffe_titan/minosmatch_nukecczdefs_127x50_x_unshifted_me1Bmc.trainlist"
    batch_size: 60
  }
}
layer {
  name: "conv1"
  type: "Convolution"
  bottom: "data"
  top: "conv1"
  convolution_param {
    num_output: 12
    pad: 0
    stride: 1
    weight_filler {
      type: "xavier"
    }
    bias_filler {
      type: "constant"
    }
    kernel_h: 8
    kernel_w: 3
  }
}
layer {
  name: "relu1"
  type: "ReLU"
  bottom: "conv1"
  top: "conv1"
}
layer {
  name: "pool1"
  type: "Pooling"
  bottom: "conv1"
  top: "pool1"
  pooling_param {
    pool: MAX
    kernel_h: 2
    kernel_w: 1
    stride_h: 2
    stride_w: 1
  }
}
layer {
  name: "conv2"
  type: "Convolution"
  bottom: "pool1"
  top: "conv2"
  convolution_param {
    num_output: 20
    pad: 0
    stride: 1
    weight_filler {
      type: "xavier"
    }
    bias_filler {
      type: "constant"
    }
    kernel_h: 7
    kernel_w: 3
  }
}
layer {
  name: "relu2"
  type: "ReLU"
  bottom: "conv2"
  top: "conv2"
}
layer {
  name: "pool2"
  type: "Pooling"
  bottom: "conv2"
  top: "pool2"
  pooling_param {
    pool: MAX
    kernel_h: 2
    kernel_w: 1
    stride_h: 2
    stride_w: 1
  }
}
layer {
  name: "conv3"
  type: "Convolution"
  bottom: "pool2"
  top: "conv3"
  convolution_param {
    num_output: 28
    pad: 0
    stride: 1
    weight_filler {
      type: "xavier"
    }
    bias_filler {
      type: "constant"
    }
    kernel_h: 6
    kernel_w: 3
  }
}
layer {
  name: "relu3"
  type: "ReLU"
  bottom: "conv3"
  top: "conv3"
}
layer {
  name: "pool3"
  type: "Pooling"
  bottom: "conv3"
  top: "pool3"
  pooling_param {
    pool: MAX
    kernel_h: 2
    kernel_w: 1
    stride_h: 2
    stride_w: 1
  }
}
layer {
  name: "conv4"
  type: "Convolution"
  bottom: "pool3"
  top: "conv4"
  convolution_param {
    num_output: 36
    pad: 0
    stride: 1
    weight_filler {
      type: "xavier"
    }
    bias_filler {
      type: "constant"
    }
    kernel_h: 6
    kernel_w: 3
  }
}
layer {
  name: "relu4"
  type: "ReLU"
  bottom: "conv4"
  top: "conv4"
}
layer {
  name: "pool4"
  type: "Pooling"
  bottom: "conv4"
  top: "pool4"
  pooling_param {
    pool: MAX
    kernel_h: 2
    kernel_w: 1
    stride_h: 2
    stride_w: 1
  }
}
layer {
  name: "ip1"
  type: "InnerProduct"
  bottom: "pool4"
  top: "ip1"
  inner_product_param {
    num_output: 196
    weight_filler {
      type: "xavier"
    }
    bias_filler {
      type: "constant"
    }
  }
}
layer {
  name: "relu5"
  type: "ReLU"
  bottom: "ip1"
  top: "ip1"
}
layer {
  name: "drop1"
  type: "Dropout"
  bottom: "ip1"
  top: "ip1"
  dropout_param {
    dropout_ratio: 0.5
  }
}
layer {
  name: "ip2"
  type: "InnerProduct"
  bottom: "ip1"
  top: "ip2"
  inner_product_param {
    num_output: 98
    weight_filler {
      type: "xavier"
    }
    bias_filler {
      type: "constant"
    }
  }
}
layer {
  name: "relu6"
  type: "ReLU"
  bottom: "ip2"
  top: "ip2"
}
layer {
  name: "drop2"
  type: "Dropout"
  bottom: "ip2"
  top: "ip2"
  dropout_param {
    dropout_ratio: 0.5
  }
}
layer {
  name: "ip3"
  type: "InnerProduct"
  bottom: "ip2"
  top: "ip3"
  inner_product_param {
    num_output: 11
    weight_filler {
      type: "xavier"
    }
    bias_filler {
      type: "constant"
    }
  }
}
layer {
  name: "drop3"
  type: "Dropout"
  bottom: "ip3"
  top: "ip3"
  dropout_param {
    dropout_ratio: 0.5
  }
}
layer {
  name: "loss"
  type: "SoftmaxWithLoss"
  bottom: "ip3"
  bottom: "label"
  top: "loss"
}
I0523 20:01:35.483072 14326 layer_factory.hpp:77] Creating layer data_hdf5
I0523 20:01:35.483095 14326 net.cpp:106] Creating Layer data_hdf5
I0523 20:01:35.483109 14326 net.cpp:411] data_hdf5 -> data
I0523 20:01:35.483144 14326 net.cpp:411] data_hdf5 -> label
I0523 20:01:35.483176 14326 hdf5_data_layer.cpp:79] Loading list of HDF5 filenames from: /lustre/atlas/proj-shared/hep105/caffe_titan/minosmatch_nukecczdefs_127x50_x_unshifted_me1Bmc.trainlist
I0523 20:01:35.491976 14326 hdf5_data_layer.cpp:93] Number of HDF5 files: 15
I0523 20:01:35.508329 14326 hdf5.cpp:32] Datatype class: H5T_FLOAT
I0523 20:01:57.089300 14326 hdf5.cpp:35] Datatype class: H5T_INTEGER
I0523 20:01:57.094522 14326 net.cpp:150] Setting up data_hdf5
I0523 20:01:57.094563 14326 net.cpp:157] Top shape: 60 1 127 50 (381000)
I0523 20:01:57.094576 14326 net.cpp:157] Top shape: 60 (60)
I0523 20:01:57.094588 14326 net.cpp:165] Memory required for data: 1524240
I0523 20:01:57.094600 14326 layer_factory.hpp:77] Creating layer conv1
I0523 20:01:57.094635 14326 net.cpp:106] Creating Layer conv1
I0523 20:01:57.094646 14326 net.cpp:454] conv1 <- data
I0523 20:01:57.094669 14326 net.cpp:411] conv1 -> conv1
I0523 20:02:00.194335 14326 net.cpp:150] Setting up conv1
I0523 20:02:00.194382 14326 net.cpp:157] Top shape: 60 12 120 48 (4147200)
I0523 20:02:00.194393 14326 net.cpp:165] Memory required for data: 18113040
I0523 20:02:00.194423 14326 layer_factory.hpp:77] Creating layer relu1
I0523 20:02:00.194445 14326 net.cpp:106] Creating Layer relu1
I0523 20:02:00.194456 14326 net.cpp:454] relu1 <- conv1
I0523 20:02:00.194469 14326 net.cpp:397] relu1 -> conv1 (in-place)
I0523 20:02:00.194988 14326 net.cpp:150] Setting up relu1
I0523 20:02:00.195004 14326 net.cpp:157] Top shape: 60 12 120 48 (4147200)
I0523 20:02:00.195015 14326 net.cpp:165] Memory required for data: 34701840
I0523 20:02:00.195024 14326 layer_factory.hpp:77] Creating layer pool1
I0523 20:02:00.195042 14326 net.cpp:106] Creating Layer pool1
I0523 20:02:00.195051 14326 net.cpp:454] pool1 <- conv1
I0523 20:02:00.195065 14326 net.cpp:411] pool1 -> pool1
I0523 20:02:00.195145 14326 net.cpp:150] Setting up pool1
I0523 20:02:00.195159 14326 net.cpp:157] Top shape: 60 12 60 48 (2073600)
I0523 20:02:00.195169 14326 net.cpp:165] Memory required for data: 42996240
I0523 20:02:00.195180 14326 layer_factory.hpp:77] Creating layer conv2
I0523 20:02:00.195202 14326 net.cpp:106] Creating Layer conv2
I0523 20:02:00.195214 14326 net.cpp:454] conv2 <- pool1
I0523 20:02:00.195227 14326 net.cpp:411] conv2 -> conv2
I0523 20:02:00.197973 14326 net.cpp:150] Setting up conv2
I0523 20:02:00.198001 14326 net.cpp:157] Top shape: 60 20 54 46 (2980800)
I0523 20:02:00.198012 14326 net.cpp:165] Memory required for data: 54919440
I0523 20:02:00.198031 14326 layer_factory.hpp:77] Creating layer relu2
I0523 20:02:00.198046 14326 net.cpp:106] Creating Layer relu2
I0523 20:02:00.198056 14326 net.cpp:454] relu2 <- conv2
I0523 20:02:00.198068 14326 net.cpp:397] relu2 -> conv2 (in-place)
I0523 20:02:00.198401 14326 net.cpp:150] Setting up relu2
I0523 20:02:00.198416 14326 net.cpp:157] Top shape: 60 20 54 46 (2980800)
I0523 20:02:00.198426 14326 net.cpp:165] Memory required for data: 66842640
I0523 20:02:00.198436 14326 layer_factory.hpp:77] Creating layer pool2
I0523 20:02:00.198448 14326 net.cpp:106] Creating Layer pool2
I0523 20:02:00.198458 14326 net.cpp:454] pool2 <- conv2
I0523 20:02:00.198472 14326 net.cpp:411] pool2 -> pool2
I0523 20:02:00.198552 14326 net.cpp:150] Setting up pool2
I0523 20:02:00.198565 14326 net.cpp:157] Top shape: 60 20 27 46 (1490400)
I0523 20:02:00.198575 14326 net.cpp:165] Memory required for data: 72804240
I0523 20:02:00.198585 14326 layer_factory.hpp:77] Creating layer conv3
I0523 20:02:00.198601 14326 net.cpp:106] Creating Layer conv3
I0523 20:02:00.198611 14326 net.cpp:454] conv3 <- pool2
I0523 20:02:00.198626 14326 net.cpp:411] conv3 -> conv3
I0523 20:02:00.200558 14326 net.cpp:150] Setting up conv3
I0523 20:02:00.200582 14326 net.cpp:157] Top shape: 60 28 22 44 (1626240)
I0523 20:02:00.200594 14326 net.cpp:165] Memory required for data: 79309200
I0523 20:02:00.200613 14326 layer_factory.hpp:77] Creating layer relu3
I0523 20:02:00.200628 14326 net.cpp:106] Creating Layer relu3
I0523 20:02:00.200639 14326 net.cpp:454] relu3 <- conv3
I0523 20:02:00.200651 14326 net.cpp:397] relu3 -> conv3 (in-place)
I0523 20:02:00.201133 14326 net.cpp:150] Setting up relu3
I0523 20:02:00.201149 14326 net.cpp:157] Top shape: 60 28 22 44 (1626240)
I0523 20:02:00.201160 14326 net.cpp:165] Memory required for data: 85814160
I0523 20:02:00.201171 14326 layer_factory.hpp:77] Creating layer pool3
I0523 20:02:00.201184 14326 net.cpp:106] Creating Layer pool3
I0523 20:02:00.201194 14326 net.cpp:454] pool3 <- conv3
I0523 20:02:00.201207 14326 net.cpp:411] pool3 -> pool3
I0523 20:02:00.201274 14326 net.cpp:150] Setting up pool3
I0523 20:02:00.201287 14326 net.cpp:157] Top shape: 60 28 11 44 (813120)
I0523 20:02:00.201297 14326 net.cpp:165] Memory required for data: 89066640
I0523 20:02:00.201308 14326 layer_factory.hpp:77] Creating layer conv4
I0523 20:02:00.201324 14326 net.cpp:106] Creating Layer conv4
I0523 20:02:00.201335 14326 net.cpp:454] conv4 <- pool3
I0523 20:02:00.201349 14326 net.cpp:411] conv4 -> conv4
I0523 20:02:00.204102 14326 net.cpp:150] Setting up conv4
I0523 20:02:00.204130 14326 net.cpp:157] Top shape: 60 36 6 42 (544320)
I0523 20:02:00.204141 14326 net.cpp:165] Memory required for data: 91243920
I0523 20:02:00.204156 14326 layer_factory.hpp:77] Creating layer relu4
I0523 20:02:00.204171 14326 net.cpp:106] Creating Layer relu4
I0523 20:02:00.204181 14326 net.cpp:454] relu4 <- conv4
I0523 20:02:00.204193 14326 net.cpp:397] relu4 -> conv4 (in-place)
I0523 20:02:00.204666 14326 net.cpp:150] Setting up relu4
I0523 20:02:00.204682 14326 net.cpp:157] Top shape: 60 36 6 42 (544320)
I0523 20:02:00.204694 14326 net.cpp:165] Memory required for data: 93421200
I0523 20:02:00.204704 14326 layer_factory.hpp:77] Creating layer pool4
I0523 20:02:00.204717 14326 net.cpp:106] Creating Layer pool4
I0523 20:02:00.204726 14326 net.cpp:454] pool4 <- conv4
I0523 20:02:00.204740 14326 net.cpp:411] pool4 -> pool4
I0523 20:02:00.204808 14326 net.cpp:150] Setting up pool4
I0523 20:02:00.204821 14326 net.cpp:157] Top shape: 60 36 3 42 (272160)
I0523 20:02:00.204833 14326 net.cpp:165] Memory required for data: 94509840
I0523 20:02:00.204843 14326 layer_factory.hpp:77] Creating layer ip1
I0523 20:02:00.204872 14326 net.cpp:106] Creating Layer ip1
I0523 20:02:00.204884 14326 net.cpp:454] ip1 <- pool4
I0523 20:02:00.204896 14326 net.cpp:411] ip1 -> ip1
I0523 20:02:00.220260 14326 net.cpp:150] Setting up ip1
I0523 20:02:00.220289 14326 net.cpp:157] Top shape: 60 196 (11760)
I0523 20:02:00.220301 14326 net.cpp:165] Memory required for data: 94556880
I0523 20:02:00.220324 14326 layer_factory.hpp:77] Creating layer relu5
I0523 20:02:00.220338 14326 net.cpp:106] Creating Layer relu5
I0523 20:02:00.220350 14326 net.cpp:454] relu5 <- ip1
I0523 20:02:00.220362 14326 net.cpp:397] relu5 -> ip1 (in-place)
I0523 20:02:00.220705 14326 net.cpp:150] Setting up relu5
I0523 20:02:00.220720 14326 net.cpp:157] Top shape: 60 196 (11760)
I0523 20:02:00.220729 14326 net.cpp:165] Memory required for data: 94603920
I0523 20:02:00.220741 14326 layer_factory.hpp:77] Creating layer drop1
I0523 20:02:00.220762 14326 net.cpp:106] Creating Layer drop1
I0523 20:02:00.220772 14326 net.cpp:454] drop1 <- ip1
I0523 20:02:00.220783 14326 net.cpp:397] drop1 -> ip1 (in-place)
I0523 20:02:00.220844 14326 net.cpp:150] Setting up drop1
I0523 20:02:00.220863 14326 net.cpp:157] Top shape: 60 196 (11760)
I0523 20:02:00.220873 14326 net.cpp:165] Memory required for data: 94650960
I0523 20:02:00.220883 14326 layer_factory.hpp:77] Creating layer ip2
I0523 20:02:00.220902 14326 net.cpp:106] Creating Layer ip2
I0523 20:02:00.220913 14326 net.cpp:454] ip2 <- ip1
I0523 20:02:00.220927 14326 net.cpp:411] ip2 -> ip2
I0523 20:02:00.221390 14326 net.cpp:150] Setting up ip2
I0523 20:02:00.221402 14326 net.cpp:157] Top shape: 60 98 (5880)
I0523 20:02:00.221412 14326 net.cpp:165] Memory required for data: 94674480
I0523 20:02:00.221427 14326 layer_factory.hpp:77] Creating layer relu6
I0523 20:02:00.221441 14326 net.cpp:106] Creating Layer relu6
I0523 20:02:00.221451 14326 net.cpp:454] relu6 <- ip2
I0523 20:02:00.221462 14326 net.cpp:397] relu6 -> ip2 (in-place)
I0523 20:02:00.221983 14326 net.cpp:150] Setting up relu6
I0523 20:02:00.222000 14326 net.cpp:157] Top shape: 60 98 (5880)
I0523 20:02:00.222012 14326 net.cpp:165] Memory required for data: 94698000
I0523 20:02:00.222021 14326 layer_factory.hpp:77] Creating layer drop2
I0523 20:02:00.222034 14326 net.cpp:106] Creating Layer drop2
I0523 20:02:00.222044 14326 net.cpp:454] drop2 <- ip2
I0523 20:02:00.222056 14326 net.cpp:397] drop2 -> ip2 (in-place)
I0523 20:02:00.222100 14326 net.cpp:150] Setting up drop2
I0523 20:02:00.222112 14326 net.cpp:157] Top shape: 60 98 (5880)
I0523 20:02:00.222123 14326 net.cpp:165] Memory required for data: 94721520
I0523 20:02:00.222132 14326 layer_factory.hpp:77] Creating layer ip3
I0523 20:02:00.222146 14326 net.cpp:106] Creating Layer ip3
I0523 20:02:00.222156 14326 net.cpp:454] ip3 <- ip2
I0523 20:02:00.222168 14326 net.cpp:411] ip3 -> ip3
I0523 20:02:00.222380 14326 net.cpp:150] Setting up ip3
I0523 20:02:00.222393 14326 net.cpp:157] Top shape: 60 11 (660)
I0523 20:02:00.222404 14326 net.cpp:165] Memory required for data: 94724160
I0523 20:02:00.222419 14326 layer_factory.hpp:77] Creating layer drop3
I0523 20:02:00.222431 14326 net.cpp:106] Creating Layer drop3
I0523 20:02:00.222440 14326 net.cpp:454] drop3 <- ip3
I0523 20:02:00.222452 14326 net.cpp:397] drop3 -> ip3 (in-place)
I0523 20:02:00.222493 14326 net.cpp:150] Setting up drop3
I0523 20:02:00.222506 14326 net.cpp:157] Top shape: 60 11 (660)
I0523 20:02:00.222517 14326 net.cpp:165] Memory required for data: 94726800
I0523 20:02:00.222525 14326 layer_factory.hpp:77] Creating layer loss
I0523 20:02:00.222544 14326 net.cpp:106] Creating Layer loss
I0523 20:02:00.222554 14326 net.cpp:454] loss <- ip3
I0523 20:02:00.222565 14326 net.cpp:454] loss <- label
I0523 20:02:00.222578 14326 net.cpp:411] loss -> loss
I0523 20:02:00.222594 14326 layer_factory.hpp:77] Creating layer loss
…
I0523 20:02:00.225277 14326 solver.cpp:181] Creating test net (#0) specified by net file: /lustre/atlas/proj-shared/hep105/caffe_titan/caffe_workflow/logs_bslr/bs_60_lr_0.0045_2016-05-20T15.49.11.826484.prototxt
I0523 20:02:00.225348 14326 net.cpp:322] The NetState phase (1) differed from the phase (0) specified by a rule in layer data_hdf5
I0523 20:02:00.225703 14326 net.cpp:49] Initializing net from parameters: 
name: "caffe_test_127x50_x_unshifted"
state {
  phase: TEST
}
layer {
  name: "data_hdf5"
  type: "HDF5Data"
  top: "data"
  top: "label"
  include {
    phase: TEST
  }
  hdf5_data_param {
    source: "/lustre/atlas/proj-shared/hep105/caffe_titan/minosmatch_nukecczdefs_127x50_x_unshifted_me1Bmc.testlist"
    batch_size: 60
  }
}
layer {
  name: "conv1"
  type: "Convolution"
  bottom: "data"
  top: "conv1"
  convolution_param {
    num_output: 12
    pad: 0
    stride: 1
    weight_filler {
      type: "xavier"
    }
    bias_filler {
      type: "constant"
    }
    kernel_h: 8
    kernel_w: 3
  }
}
layer {
  name: "relu1"
  type: "ReLU"
  bottom: "conv1"
  top: "conv1"
}
layer {
  name: "pool1"
  type: "Pooling"
  bottom: "conv1"
  top: "pool1"
  pooling_param {
    pool: MAX
    kernel_h: 2
    kernel_w: 1
    stride_h: 2
    stride_w: 1
  }
}
layer {
  name: "conv2"
  type: "Convolution"
  bottom: "pool1"
  top: "conv2"
  convolution_param {
    num_output: 20
    pad: 0
    stride: 1
    weight_filler {
      type: "xavier"
    }
    bias_filler {
      type: "constant"
    }
    kernel_h: 7
    kernel_w: 3
  }
}
layer {
  name: "relu2"
  type: "ReLU"
  bottom: "conv2"
  top: "conv2"
}
layer {
  name: "pool2"
  type: "Pooling"
  bottom: "conv2"
  top: "pool2"
  pooling_param {
    pool: MAX
    kernel_h: 2
    kernel_w: 1
    stride_h: 2
    stride_w: 1
  }
}
layer {
  name: "conv3"
  type: "Convolution"
  bottom: "pool2"
  top: "conv3"
  convolution_param {
    num_output: 28
    pad: 0
    stride: 1
    weight_filler {
      type: "xavier"
    }
    bias_filler {
      type: "constant"
    }
    kernel_h: 6
    kernel_w: 3
  }
}
layer {
  name: "relu3"
  type: "ReLU"
  bottom: "conv3"
  top: "conv3"
}
layer {
  name: "pool3"
  type: "Pooling"
  bottom: "conv3"
  top: "pool3"
  pooling_param {
    pool: MAX
    kernel_h: 2
    kernel_w: 1
    stride_h: 2
    stride_w: 1
  }
}
layer {
  name: "conv4"
  type: "Convolution"
  bottom: "pool3"
  top: "conv4"
  convolution_param {
    num_output: 36
    pad: 0
    stride: 1
    weight_filler {
      type: "xavier"
    }
    bias_filler {
      type: "constant"
    }
    kernel_h: 6
    kernel_w: 3
  }
}
layer {
  name: "relu4"
  type: "ReLU"
  bottom: "conv4"
  top: "conv4"
}
layer {
  name: "pool4"
  type: "Pooling"
  bottom: "conv4"
  top: "pool4"
  pooling_param {
    pool: MAX
    kernel_h: 2
    kernel_w: 1
    stride_h: 2
    stride_w: 1
  }
}
layer {
  name: "ip1"
  type: "InnerProduct"
  bottom: "pool4"
  top: "ip1"
  inner_product_param {
    num_output: 196
    weight_filler {
      type: "xavier"
    }
    bias_filler {
      type: "constant"
    }
  }
}
layer {
  name: "relu5"
  type: "ReLU"
  bottom: "ip1"
  top: "ip1"
}
layer {
  name: "drop1"
  type: "Dropout"
  bottom: "ip1"
  top: "ip1"
  dropout_param {
    dropout_ratio: 0.5
  }
}
layer {
  name: "ip2"
  type: "InnerProduct"
  bottom: "ip1"
  top: "ip2"
  inner_product_param {
    num_output: 98
    weight_filler {
      type: "xavier"
    }
    bias_filler {
      type: "constant"
    }
  }
}
layer {
  name: "relu6"
  type: "ReLU"
  bottom: "ip2"
  top: "ip2"
}
layer {
  name: "drop2"
  type: "Dropout"
  bottom: "ip2"
  top: "ip2"
  dropout_param {
    dropout_ratio: 0.5
  }
}
layer {
  name: "ip3"
  type: "InnerProduct"
  bottom: "ip2"
  top: "ip3"
  inner_product_param {
    num_output: 11
    weight_filler {
      type: "xavier"
    }
    bias_filler {
      type: "constant"
    }
  }
}
layer {
  name: "drop3"
  type: "Dropout"
  bottom: "ip3"
  top: "ip3"
  dropout_param {
    dropout_ratio: 0.5
  }
}
layer {
  name: "accuracy"
  type: "Accuracy"
  bottom: "ip3"
  bottom: "label"
  top: "accuracy"
  include {
    phase: TEST
  }
}
layer {
  name: "loss"
  type: "SoftmaxWithLoss"
  bottom: "ip3"
  bottom: "label"
  top: "loss"
}
I0523 20:02:00.225893 14326 layer_factory.hpp:77] Creating layer data_hdf5
I0523 20:02:00.225908 14326 net.cpp:106] Creating Layer data_hdf5
I0523 20:02:00.225920 14326 net.cpp:411] data_hdf5 -> data
I0523 20:02:00.225937 14326 net.cpp:411] data_hdf5 -> label
I0523 20:02:00.225953 14326 hdf5_data_layer.cpp:79] Loading list of HDF5 filenames from: /lustre/atlas/proj-shared/hep105/caffe_titan/minosmatch_nukecczdefs_127x50_x_unshifted_me1Bmc.testlist
I0523 20:02:00.233757 14326 hdf5_data_layer.cpp:93] Number of HDF5 files: 3
I0523 20:02:21.663427 14326 net.cpp:150] Setting up data_hdf5
I0523 20:02:21.663594 14326 net.cpp:157] Top shape: 60 1 127 50 (381000)
I0523 20:02:21.663609 14326 net.cpp:157] Top shape: 60 (60)
I0523 20:02:21.663620 14326 net.cpp:165] Memory required for data: 1524240
I0523 20:02:21.663635 14326 layer_factory.hpp:77] Creating layer label_data_hdf5_1_split
I0523 20:02:21.663662 14326 net.cpp:106] Creating Layer label_data_hdf5_1_split
I0523 20:02:21.663674 14326 net.cpp:454] label_data_hdf5_1_split <- label
I0523 20:02:21.663688 14326 net.cpp:411] label_data_hdf5_1_split -> label_data_hdf5_1_split_0
I0523 20:02:21.663710 14326 net.cpp:411] label_data_hdf5_1_split -> label_data_hdf5_1_split_1
I0523 20:02:21.663781 14326 net.cpp:150] Setting up label_data_hdf5_1_split
I0523 20:02:21.663796 14326 net.cpp:157] Top shape: 60 (60)
I0523 20:02:21.663810 14326 net.cpp:157] Top shape: 60 (60)
I0523 20:02:21.663820 14326 net.cpp:165] Memory required for data: 1524720
I0523 20:02:21.663830 14326 layer_factory.hpp:77] Creating layer conv1
I0523 20:02:21.663851 14326 net.cpp:106] Creating Layer conv1
I0523 20:02:21.663861 14326 net.cpp:454] conv1 <- data
I0523 20:02:21.663877 14326 net.cpp:411] conv1 -> conv1
I0523 20:02:21.665804 14326 net.cpp:150] Setting up conv1
I0523 20:02:21.665828 14326 net.cpp:157] Top shape: 60 12 120 48 (4147200)
I0523 20:02:21.665839 14326 net.cpp:165] Memory required for data: 18113520
I0523 20:02:21.665860 14326 layer_factory.hpp:77] Creating layer relu1
I0523 20:02:21.665875 14326 net.cpp:106] Creating Layer relu1
I0523 20:02:21.665885 14326 net.cpp:454] relu1 <- conv1
I0523 20:02:21.665899 14326 net.cpp:397] relu1 -> conv1 (in-place)
I0523 20:02:21.666401 14326 net.cpp:150] Setting up relu1
I0523 20:02:21.666417 14326 net.cpp:157] Top shape: 60 12 120 48 (4147200)
I0523 20:02:21.666427 14326 net.cpp:165] Memory required for data: 34702320
I0523 20:02:21.666438 14326 layer_factory.hpp:77] Creating layer pool1
I0523 20:02:21.666455 14326 net.cpp:106] Creating Layer pool1
I0523 20:02:21.666465 14326 net.cpp:454] pool1 <- conv1
I0523 20:02:21.666477 14326 net.cpp:411] pool1 -> pool1
I0523 20:02:21.666551 14326 net.cpp:150] Setting up pool1
I0523 20:02:21.666564 14326 net.cpp:157] Top shape: 60 12 60 48 (2073600)
I0523 20:02:21.666574 14326 net.cpp:165] Memory required for data: 42996720
I0523 20:02:21.666582 14326 layer_factory.hpp:77] Creating layer conv2
I0523 20:02:21.666600 14326 net.cpp:106] Creating Layer conv2
I0523 20:02:21.666611 14326 net.cpp:454] conv2 <- pool1
I0523 20:02:21.666625 14326 net.cpp:411] conv2 -> conv2
I0523 20:02:21.668620 14326 net.cpp:150] Setting up conv2
I0523 20:02:21.668637 14326 net.cpp:157] Top shape: 60 20 54 46 (2980800)
I0523 20:02:21.668653 14326 net.cpp:165] Memory required for data: 54919920
I0523 20:02:21.668671 14326 layer_factory.hpp:77] Creating layer relu2
I0523 20:02:21.668685 14326 net.cpp:106] Creating Layer relu2
I0523 20:02:21.668695 14326 net.cpp:454] relu2 <- conv2
I0523 20:02:21.668707 14326 net.cpp:397] relu2 -> conv2 (in-place)
I0523 20:02:21.669049 14326 net.cpp:150] Setting up relu2
I0523 20:02:21.669062 14326 net.cpp:157] Top shape: 60 20 54 46 (2980800)
I0523 20:02:21.669072 14326 net.cpp:165] Memory required for data: 66843120
I0523 20:02:21.669083 14326 layer_factory.hpp:77] Creating layer pool2
I0523 20:02:21.669096 14326 net.cpp:106] Creating Layer pool2
I0523 20:02:21.669106 14326 net.cpp:454] pool2 <- conv2
I0523 20:02:21.669118 14326 net.cpp:411] pool2 -> pool2
I0523 20:02:21.669190 14326 net.cpp:150] Setting up pool2
I0523 20:02:21.669203 14326 net.cpp:157] Top shape: 60 20 27 46 (1490400)
I0523 20:02:21.669214 14326 net.cpp:165] Memory required for data: 72804720
I0523 20:02:21.669224 14326 layer_factory.hpp:77] Creating layer conv3
I0523 20:02:21.669241 14326 net.cpp:106] Creating Layer conv3
I0523 20:02:21.669251 14326 net.cpp:454] conv3 <- pool2
I0523 20:02:21.669265 14326 net.cpp:411] conv3 -> conv3
I0523 20:02:21.671231 14326 net.cpp:150] Setting up conv3
I0523 20:02:21.671254 14326 net.cpp:157] Top shape: 60 28 22 44 (1626240)
I0523 20:02:21.671267 14326 net.cpp:165] Memory required for data: 79309680
I0523 20:02:21.671299 14326 layer_factory.hpp:77] Creating layer relu3
I0523 20:02:21.671313 14326 net.cpp:106] Creating Layer relu3
I0523 20:02:21.671322 14326 net.cpp:454] relu3 <- conv3
I0523 20:02:21.671335 14326 net.cpp:397] relu3 -> conv3 (in-place)
I0523 20:02:21.671804 14326 net.cpp:150] Setting up relu3
I0523 20:02:21.671820 14326 net.cpp:157] Top shape: 60 28 22 44 (1626240)
I0523 20:02:21.671830 14326 net.cpp:165] Memory required for data: 85814640
I0523 20:02:21.671840 14326 layer_factory.hpp:77] Creating layer pool3
I0523 20:02:21.671854 14326 net.cpp:106] Creating Layer pool3
I0523 20:02:21.671864 14326 net.cpp:454] pool3 <- conv3
I0523 20:02:21.671876 14326 net.cpp:411] pool3 -> pool3
I0523 20:02:21.671947 14326 net.cpp:150] Setting up pool3
I0523 20:02:21.671960 14326 net.cpp:157] Top shape: 60 28 11 44 (813120)
I0523 20:02:21.671970 14326 net.cpp:165] Memory required for data: 89067120
I0523 20:02:21.671979 14326 layer_factory.hpp:77] Creating layer conv4
I0523 20:02:21.671998 14326 net.cpp:106] Creating Layer conv4
I0523 20:02:21.672008 14326 net.cpp:454] conv4 <- pool3
I0523 20:02:21.672022 14326 net.cpp:411] conv4 -> conv4
I0523 20:02:21.674084 14326 net.cpp:150] Setting up conv4
I0523 20:02:21.674108 14326 net.cpp:157] Top shape: 60 36 6 42 (544320)
I0523 20:02:21.674119 14326 net.cpp:165] Memory required for data: 91244400
I0523 20:02:21.674134 14326 layer_factory.hpp:77] Creating layer relu4
I0523 20:02:21.674149 14326 net.cpp:106] Creating Layer relu4
I0523 20:02:21.674159 14326 net.cpp:454] relu4 <- conv4
I0523 20:02:21.674171 14326 net.cpp:397] relu4 -> conv4 (in-place)
I0523 20:02:21.674643 14326 net.cpp:150] Setting up relu4
I0523 20:02:21.674659 14326 net.cpp:157] Top shape: 60 36 6 42 (544320)
I0523 20:02:21.674669 14326 net.cpp:165] Memory required for data: 93421680
I0523 20:02:21.674679 14326 layer_factory.hpp:77] Creating layer pool4
I0523 20:02:21.674692 14326 net.cpp:106] Creating Layer pool4
I0523 20:02:21.674702 14326 net.cpp:454] pool4 <- conv4
I0523 20:02:21.674716 14326 net.cpp:411] pool4 -> pool4
I0523 20:02:21.674787 14326 net.cpp:150] Setting up pool4
I0523 20:02:21.674800 14326 net.cpp:157] Top shape: 60 36 3 42 (272160)
I0523 20:02:21.674810 14326 net.cpp:165] Memory required for data: 94510320
I0523 20:02:21.674820 14326 layer_factory.hpp:77] Creating layer ip1
I0523 20:02:21.674835 14326 net.cpp:106] Creating Layer ip1
I0523 20:02:21.674846 14326 net.cpp:454] ip1 <- pool4
I0523 20:02:21.674860 14326 net.cpp:411] ip1 -> ip1
I0523 20:02:21.690347 14326 net.cpp:150] Setting up ip1
I0523 20:02:21.690376 14326 net.cpp:157] Top shape: 60 196 (11760)
I0523 20:02:21.690389 14326 net.cpp:165] Memory required for data: 94557360
I0523 20:02:21.690415 14326 layer_factory.hpp:77] Creating layer relu5
I0523 20:02:21.690430 14326 net.cpp:106] Creating Layer relu5
I0523 20:02:21.690441 14326 net.cpp:454] relu5 <- ip1
I0523 20:02:21.690455 14326 net.cpp:397] relu5 -> ip1 (in-place)
I0523 20:02:21.690804 14326 net.cpp:150] Setting up relu5
I0523 20:02:21.690817 14326 net.cpp:157] Top shape: 60 196 (11760)
I0523 20:02:21.690827 14326 net.cpp:165] Memory required for data: 94604400
I0523 20:02:21.690837 14326 layer_factory.hpp:77] Creating layer drop1
I0523 20:02:21.690855 14326 net.cpp:106] Creating Layer drop1
I0523 20:02:21.690865 14326 net.cpp:454] drop1 <- ip1
I0523 20:02:21.690878 14326 net.cpp:397] drop1 -> ip1 (in-place)
I0523 20:02:21.690923 14326 net.cpp:150] Setting up drop1
I0523 20:02:21.690937 14326 net.cpp:157] Top shape: 60 196 (11760)
I0523 20:02:21.690946 14326 net.cpp:165] Memory required for data: 94651440
I0523 20:02:21.690956 14326 layer_factory.hpp:77] Creating layer ip2
I0523 20:02:21.690971 14326 net.cpp:106] Creating Layer ip2
I0523 20:02:21.690981 14326 net.cpp:454] ip2 <- ip1
I0523 20:02:21.690994 14326 net.cpp:411] ip2 -> ip2
I0523 20:02:21.691471 14326 net.cpp:150] Setting up ip2
I0523 20:02:21.691484 14326 net.cpp:157] Top shape: 60 98 (5880)
I0523 20:02:21.691493 14326 net.cpp:165] Memory required for data: 94674960
I0523 20:02:21.691509 14326 layer_factory.hpp:77] Creating layer relu6
I0523 20:02:21.691536 14326 net.cpp:106] Creating Layer relu6
I0523 20:02:21.691547 14326 net.cpp:454] relu6 <- ip2
I0523 20:02:21.691560 14326 net.cpp:397] relu6 -> ip2 (in-place)
I0523 20:02:21.692093 14326 net.cpp:150] Setting up relu6
I0523 20:02:21.692116 14326 net.cpp:157] Top shape: 60 98 (5880)
I0523 20:02:21.692126 14326 net.cpp:165] Memory required for data: 94698480
I0523 20:02:21.692137 14326 layer_factory.hpp:77] Creating layer drop2
I0523 20:02:21.692152 14326 net.cpp:106] Creating Layer drop2
I0523 20:02:21.692162 14326 net.cpp:454] drop2 <- ip2
I0523 20:02:21.692174 14326 net.cpp:397] drop2 -> ip2 (in-place)
I0523 20:02:21.692219 14326 net.cpp:150] Setting up drop2
I0523 20:02:21.692231 14326 net.cpp:157] Top shape: 60 98 (5880)
I0523 20:02:21.692241 14326 net.cpp:165] Memory required for data: 94722000
I0523 20:02:21.692251 14326 layer_factory.hpp:77] Creating layer ip3
I0523 20:02:21.692265 14326 net.cpp:106] Creating Layer ip3
I0523 20:02:21.692276 14326 net.cpp:454] ip3 <- ip2
I0523 20:02:21.692288 14326 net.cpp:411] ip3 -> ip3
I0523 20:02:21.692510 14326 net.cpp:150] Setting up ip3
I0523 20:02:21.692523 14326 net.cpp:157] Top shape: 60 11 (660)
I0523 20:02:21.692533 14326 net.cpp:165] Memory required for data: 94724640
I0523 20:02:21.692548 14326 layer_factory.hpp:77] Creating layer drop3
I0523 20:02:21.692561 14326 net.cpp:106] Creating Layer drop3
I0523 20:02:21.692570 14326 net.cpp:454] drop3 <- ip3
I0523 20:02:21.692584 14326 net.cpp:397] drop3 -> ip3 (in-place)
I0523 20:02:21.692625 14326 net.cpp:150] Setting up drop3
I0523 20:02:21.692636 14326 net.cpp:157] Top shape: 60 11 (660)
I0523 20:02:21.692646 14326 net.cpp:165] Memory required for data: 94727280
I0523 20:02:21.692656 14326 layer_factory.hpp:77] Creating layer ip3_drop3_0_split
I0523 20:02:21.692669 14326 net.cpp:106] Creating Layer ip3_drop3_0_split
I0523 20:02:21.692679 14326 net.cpp:454] ip3_drop3_0_split <- ip3
I0523 20:02:21.692692 14326 net.cpp:411] ip3_drop3_0_split -> ip3_drop3_0_split_0
I0523 20:02:21.692708 14326 net.cpp:411] ip3_drop3_0_split -> ip3_drop3_0_split_1
I0523 20:02:21.692781 14326 net.cpp:150] Setting up ip3_drop3_0_split
I0523 20:02:21.692795 14326 net.cpp:157] Top shape: 60 11 (660)
I0523 20:02:21.692807 14326 net.cpp:157] Top shape: 60 11 (660)
I0523 20:02:21.692816 14326 net.cpp:165] Memory required for data: 94732560
I0523 20:02:21.692824 14326 layer_factory.hpp:77] Creating layer accuracy
I0523 20:02:21.692847 14326 net.cpp:106] Creating Layer accuracy
I0523 20:02:21.692862 14326 net.cpp:454] accuracy <- ip3_drop3_0_split_0
I0523 20:02:21.692875 14326 net.cpp:454] accuracy <- label_data_hdf5_1_split_0
I0523 20:02:21.692889 14326 net.cpp:411] accuracy -> accuracy
…
