…
I0523 14:19:03.327213 18921 net.cpp:322] The NetState phase (0) differed from the phase (1) specified by a rule in layer data_hdf5
I0523 14:19:03.327271 18921 net.cpp:322] The NetState phase (0) differed from the phase (1) specified by a rule in layer accuracy
I0523 14:19:03.327617 18921 net.cpp:49] Initializing net from parameters: 
name: "caffe_test_127x50_x_unshifted"
state {
  phase: TRAIN
}
layer {
  name: "data_hdf5"
  type: "HDF5Data"
  top: "data"
  top: "label"
  include {
    phase: TRAIN
  }
  hdf5_data_param {
    source: "/lustre/atlas/proj-shared/hep105/caffe_titan/minosmatch_nukecczdefs_127x50_x_unshifted_me1Bmc.trainlist"
    batch_size: 60
  }
}
layer {
  name: "conv1"
  type: "Convolution"
  bottom: "data"
  top: "conv1"
  convolution_param {
    num_output: 12
    pad: 0
    stride: 1
    weight_filler {
      type: "xavier"
    }
    bias_filler {
      type: "constant"
    }
    kernel_h: 8
    kernel_w: 3
  }
}
layer {
  name: "relu1"
  type: "ReLU"
  bottom: "conv1"
  top: "conv1"
}
layer {
  name: "pool1"
  type: "Pooling"
  bottom: "conv1"
  top: "pool1"
  pooling_param {
    pool: MAX
    kernel_h: 2
    kernel_w: 1
    stride_h: 2
    stride_w: 1
  }
}
layer {
  name: "conv2"
  type: "Convolution"
  bottom: "pool1"
  top: "conv2"
  convolution_param {
    num_output: 20
    pad: 0
    stride: 1
    weight_filler {
      type: "xavier"
    }
    bias_filler {
      type: "constant"
    }
    kernel_h: 7
    kernel_w: 3
  }
}
layer {
  name: "relu2"
  type: "ReLU"
  bottom: "conv2"
  top: "conv2"
}
layer {
  name: "pool2"
  type: "Pooling"
  bottom: "conv2"
  top: "pool2"
  pooling_param {
    pool: MAX
    kernel_h: 2
    kernel_w: 1
    stride_h: 2
    stride_w: 1
  }
}
layer {
  name: "conv3"
  type: "Convolution"
  bottom: "pool2"
  top: "conv3"
  convolution_param {
    num_output: 28
    pad: 0
    stride: 1
    weight_filler {
      type: "xavier"
    }
    bias_filler {
      type: "constant"
    }
    kernel_h: 6
    kernel_w: 3
  }
}
layer {
  name: "relu3"
  type: "ReLU"
  bottom: "conv3"
  top: "conv3"
}
layer {
  name: "pool3"
  type: "Pooling"
  bottom: "conv3"
  top: "pool3"
  pooling_param {
    pool: MAX
    kernel_h: 2
    kernel_w: 1
    stride_h: 2
    stride_w: 1
  }
}
layer {
  name: "conv4"
  type: "Convolution"
  bottom: "pool3"
  top: "conv4"
  convolution_param {
    num_output: 36
    pad: 0
    stride: 1
    weight_filler {
      type: "xavier"
    }
    bias_filler {
      type: "constant"
    }
    kernel_h: 6
    kernel_w: 3
  }
}
layer {
  name: "relu4"
  type: "ReLU"
  bottom: "conv4"
  top: "conv4"
}
layer {
  name: "pool4"
  type: "Pooling"
  bottom: "conv4"
  top: "pool4"
  pooling_param {
    pool: MAX
    kernel_h: 2
    kernel_w: 1
    stride_h: 2
    stride_w: 1
  }
}
layer {
  name: "ip1"
  type: "InnerProduct"
  bottom: "pool4"
  top: "ip1"
  inner_product_param {
    num_output: 196
    weight_filler {
      type: "xavier"
    }
    bias_filler {
      type: "constant"
    }
  }
}
layer {
  name: "relu5"
  type: "ReLU"
  bottom: "ip1"
  top: "ip1"
}
layer {
  name: "drop1"
  type: "Dropout"
  bottom: "ip1"
  top: "ip1"
  dropout_param {
    dropout_ratio: 0.5
  }
}
layer {
  name: "ip2"
  type: "InnerProduct"
  bottom: "ip1"
  top: "ip2"
  inner_product_param {
    num_output: 98
    weight_filler {
      type: "xavier"
    }
    bias_filler {
      type: "constant"
    }
  }
}
layer {
  name: "relu6"
  type: "ReLU"
  bottom: "ip2"
  top: "ip2"
}
layer {
  name: "drop2"
  type: "Dropout"
  bottom: "ip2"
  top: "ip2"
  dropout_param {
    dropout_ratio: 0.5
  }
}
layer {
  name: "ip3"
  type: "InnerProduct"
  bottom: "ip2"
  top: "ip3"
  inner_product_param {
    num_output: 11
    weight_filler {
      type: "xavier"
    }
    bias_filler {
      type: "constant"
    }
  }
}
layer {
  name: "drop3"
  type: "Dropout"
  bottom: "ip3"
  top: "ip3"
  dropout_param {
    dropout_ratio: 0.5
  }
}
layer {
  name: "loss"
  type: "SoftmaxWithLoss"
  bottom: "ip3"
  bottom: "label"
  top: "loss"
}
I0523 14:19:03.327796 18921 layer_factory.hpp:77] Creating layer data_hdf5
I0523 14:19:03.327821 18921 net.cpp:106] Creating Layer data_hdf5
I0523 14:19:03.327836 18921 net.cpp:411] data_hdf5 -> data
I0523 14:19:03.327868 18921 net.cpp:411] data_hdf5 -> label
I0523 14:19:03.327901 18921 hdf5_data_layer.cpp:79] Loading list of HDF5 filenames from: /lustre/atlas/proj-shared/hep105/caffe_titan/minosmatch_nukecczdefs_127x50_x_unshifted_me1Bmc.trainlist
I0523 14:19:03.329265 18921 hdf5_data_layer.cpp:93] Number of HDF5 files: 15
I0523 14:19:03.331531 18921 hdf5.cpp:32] Datatype class: H5T_FLOAT
I0523 14:19:24.836423 18921 hdf5.cpp:35] Datatype class: H5T_INTEGER
I0523 14:19:24.841691 18921 net.cpp:150] Setting up data_hdf5
I0523 14:19:24.841729 18921 net.cpp:157] Top shape: 60 1 127 50 (381000)
I0523 14:19:24.841744 18921 net.cpp:157] Top shape: 60 (60)
I0523 14:19:24.841756 18921 net.cpp:165] Memory required for data: 1524240
I0523 14:19:24.841770 18921 layer_factory.hpp:77] Creating layer conv1
I0523 14:19:24.841804 18921 net.cpp:106] Creating Layer conv1
I0523 14:19:24.841814 18921 net.cpp:454] conv1 <- data
I0523 14:19:24.841835 18921 net.cpp:411] conv1 -> conv1
I0523 14:19:25.205925 18921 net.cpp:150] Setting up conv1
I0523 14:19:25.205971 18921 net.cpp:157] Top shape: 60 12 120 48 (4147200)
I0523 14:19:25.205981 18921 net.cpp:165] Memory required for data: 18113040
I0523 14:19:25.206013 18921 layer_factory.hpp:77] Creating layer relu1
I0523 14:19:25.206034 18921 net.cpp:106] Creating Layer relu1
I0523 14:19:25.206045 18921 net.cpp:454] relu1 <- conv1
I0523 14:19:25.206058 18921 net.cpp:397] relu1 -> conv1 (in-place)
I0523 14:19:25.206570 18921 net.cpp:150] Setting up relu1
I0523 14:19:25.206588 18921 net.cpp:157] Top shape: 60 12 120 48 (4147200)
I0523 14:19:25.206598 18921 net.cpp:165] Memory required for data: 34701840
I0523 14:19:25.206607 18921 layer_factory.hpp:77] Creating layer pool1
I0523 14:19:25.206624 18921 net.cpp:106] Creating Layer pool1
I0523 14:19:25.206634 18921 net.cpp:454] pool1 <- conv1
I0523 14:19:25.206647 18921 net.cpp:411] pool1 -> pool1
I0523 14:19:25.206738 18921 net.cpp:150] Setting up pool1
I0523 14:19:25.206753 18921 net.cpp:157] Top shape: 60 12 60 48 (2073600)
I0523 14:19:25.206763 18921 net.cpp:165] Memory required for data: 42996240
I0523 14:19:25.206773 18921 layer_factory.hpp:77] Creating layer conv2
I0523 14:19:25.206796 18921 net.cpp:106] Creating Layer conv2
I0523 14:19:25.206806 18921 net.cpp:454] conv2 <- pool1
I0523 14:19:25.206820 18921 net.cpp:411] conv2 -> conv2
I0523 14:19:25.209534 18921 net.cpp:150] Setting up conv2
I0523 14:19:25.209561 18921 net.cpp:157] Top shape: 60 20 54 46 (2980800)
I0523 14:19:25.209573 18921 net.cpp:165] Memory required for data: 54919440
I0523 14:19:25.209591 18921 layer_factory.hpp:77] Creating layer relu2
I0523 14:19:25.209605 18921 net.cpp:106] Creating Layer relu2
I0523 14:19:25.209615 18921 net.cpp:454] relu2 <- conv2
I0523 14:19:25.209628 18921 net.cpp:397] relu2 -> conv2 (in-place)
I0523 14:19:25.209959 18921 net.cpp:150] Setting up relu2
I0523 14:19:25.209972 18921 net.cpp:157] Top shape: 60 20 54 46 (2980800)
I0523 14:19:25.209982 18921 net.cpp:165] Memory required for data: 66842640
I0523 14:19:25.209992 18921 layer_factory.hpp:77] Creating layer pool2
I0523 14:19:25.210005 18921 net.cpp:106] Creating Layer pool2
I0523 14:19:25.210016 18921 net.cpp:454] pool2 <- conv2
I0523 14:19:25.210027 18921 net.cpp:411] pool2 -> pool2
I0523 14:19:25.210108 18921 net.cpp:150] Setting up pool2
I0523 14:19:25.210122 18921 net.cpp:157] Top shape: 60 20 27 46 (1490400)
I0523 14:19:25.210132 18921 net.cpp:165] Memory required for data: 72804240
I0523 14:19:25.210141 18921 layer_factory.hpp:77] Creating layer conv3
I0523 14:19:25.210160 18921 net.cpp:106] Creating Layer conv3
I0523 14:19:25.210170 18921 net.cpp:454] conv3 <- pool2
I0523 14:19:25.210183 18921 net.cpp:411] conv3 -> conv3
I0523 14:19:25.212134 18921 net.cpp:150] Setting up conv3
I0523 14:19:25.212157 18921 net.cpp:157] Top shape: 60 28 22 44 (1626240)
I0523 14:19:25.212170 18921 net.cpp:165] Memory required for data: 79309200
I0523 14:19:25.212188 18921 layer_factory.hpp:77] Creating layer relu3
I0523 14:19:25.212203 18921 net.cpp:106] Creating Layer relu3
I0523 14:19:25.212213 18921 net.cpp:454] relu3 <- conv3
I0523 14:19:25.212226 18921 net.cpp:397] relu3 -> conv3 (in-place)
I0523 14:19:25.212695 18921 net.cpp:150] Setting up relu3
I0523 14:19:25.212713 18921 net.cpp:157] Top shape: 60 28 22 44 (1626240)
I0523 14:19:25.212723 18921 net.cpp:165] Memory required for data: 85814160
I0523 14:19:25.212733 18921 layer_factory.hpp:77] Creating layer pool3
I0523 14:19:25.212746 18921 net.cpp:106] Creating Layer pool3
I0523 14:19:25.212755 18921 net.cpp:454] pool3 <- conv3
I0523 14:19:25.212769 18921 net.cpp:411] pool3 -> pool3
I0523 14:19:25.212836 18921 net.cpp:150] Setting up pool3
I0523 14:19:25.212849 18921 net.cpp:157] Top shape: 60 28 11 44 (813120)
I0523 14:19:25.212858 18921 net.cpp:165] Memory required for data: 89066640
I0523 14:19:25.212867 18921 layer_factory.hpp:77] Creating layer conv4
I0523 14:19:25.212884 18921 net.cpp:106] Creating Layer conv4
I0523 14:19:25.212894 18921 net.cpp:454] conv4 <- pool3
I0523 14:19:25.212908 18921 net.cpp:411] conv4 -> conv4
I0523 14:19:25.215675 18921 net.cpp:150] Setting up conv4
I0523 14:19:25.215703 18921 net.cpp:157] Top shape: 60 36 6 42 (544320)
I0523 14:19:25.215714 18921 net.cpp:165] Memory required for data: 91243920
I0523 14:19:25.215730 18921 layer_factory.hpp:77] Creating layer relu4
I0523 14:19:25.215744 18921 net.cpp:106] Creating Layer relu4
I0523 14:19:25.215755 18921 net.cpp:454] relu4 <- conv4
I0523 14:19:25.215769 18921 net.cpp:397] relu4 -> conv4 (in-place)
I0523 14:19:25.216244 18921 net.cpp:150] Setting up relu4
I0523 14:19:25.216261 18921 net.cpp:157] Top shape: 60 36 6 42 (544320)
I0523 14:19:25.216271 18921 net.cpp:165] Memory required for data: 93421200
I0523 14:19:25.216282 18921 layer_factory.hpp:77] Creating layer pool4
I0523 14:19:25.216295 18921 net.cpp:106] Creating Layer pool4
I0523 14:19:25.216305 18921 net.cpp:454] pool4 <- conv4
I0523 14:19:25.216318 18921 net.cpp:411] pool4 -> pool4
I0523 14:19:25.216387 18921 net.cpp:150] Setting up pool4
I0523 14:19:25.216400 18921 net.cpp:157] Top shape: 60 36 3 42 (272160)
I0523 14:19:25.216410 18921 net.cpp:165] Memory required for data: 94509840
I0523 14:19:25.216420 18921 layer_factory.hpp:77] Creating layer ip1
I0523 14:19:25.216439 18921 net.cpp:106] Creating Layer ip1
I0523 14:19:25.216450 18921 net.cpp:454] ip1 <- pool4
I0523 14:19:25.216462 18921 net.cpp:411] ip1 -> ip1
I0523 14:19:25.231848 18921 net.cpp:150] Setting up ip1
I0523 14:19:25.231876 18921 net.cpp:157] Top shape: 60 196 (11760)
I0523 14:19:25.231889 18921 net.cpp:165] Memory required for data: 94556880
I0523 14:19:25.231912 18921 layer_factory.hpp:77] Creating layer relu5
I0523 14:19:25.231926 18921 net.cpp:106] Creating Layer relu5
I0523 14:19:25.231937 18921 net.cpp:454] relu5 <- ip1
I0523 14:19:25.231950 18921 net.cpp:397] relu5 -> ip1 (in-place)
I0523 14:19:25.232293 18921 net.cpp:150] Setting up relu5
I0523 14:19:25.232307 18921 net.cpp:157] Top shape: 60 196 (11760)
I0523 14:19:25.232317 18921 net.cpp:165] Memory required for data: 94603920
I0523 14:19:25.232328 18921 layer_factory.hpp:77] Creating layer drop1
I0523 14:19:25.232349 18921 net.cpp:106] Creating Layer drop1
I0523 14:19:25.232359 18921 net.cpp:454] drop1 <- ip1
I0523 14:19:25.232372 18921 net.cpp:397] drop1 -> ip1 (in-place)
I0523 14:19:25.232431 18921 net.cpp:150] Setting up drop1
I0523 14:19:25.232445 18921 net.cpp:157] Top shape: 60 196 (11760)
I0523 14:19:25.232455 18921 net.cpp:165] Memory required for data: 94650960
I0523 14:19:25.232465 18921 layer_factory.hpp:77] Creating layer ip2
I0523 14:19:25.232483 18921 net.cpp:106] Creating Layer ip2
I0523 14:19:25.232494 18921 net.cpp:454] ip2 <- ip1
I0523 14:19:25.232507 18921 net.cpp:411] ip2 -> ip2
I0523 14:19:25.232969 18921 net.cpp:150] Setting up ip2
I0523 14:19:25.232983 18921 net.cpp:157] Top shape: 60 98 (5880)
I0523 14:19:25.232992 18921 net.cpp:165] Memory required for data: 94674480
I0523 14:19:25.233008 18921 layer_factory.hpp:77] Creating layer relu6
I0523 14:19:25.233021 18921 net.cpp:106] Creating Layer relu6
I0523 14:19:25.233029 18921 net.cpp:454] relu6 <- ip2
I0523 14:19:25.233042 18921 net.cpp:397] relu6 -> ip2 (in-place)
I0523 14:19:25.233557 18921 net.cpp:150] Setting up relu6
I0523 14:19:25.233574 18921 net.cpp:157] Top shape: 60 98 (5880)
I0523 14:19:25.233584 18921 net.cpp:165] Memory required for data: 94698000
I0523 14:19:25.233594 18921 layer_factory.hpp:77] Creating layer drop2
I0523 14:19:25.233608 18921 net.cpp:106] Creating Layer drop2
I0523 14:19:25.233618 18921 net.cpp:454] drop2 <- ip2
I0523 14:19:25.233629 18921 net.cpp:397] drop2 -> ip2 (in-place)
I0523 14:19:25.233672 18921 net.cpp:150] Setting up drop2
I0523 14:19:25.233685 18921 net.cpp:157] Top shape: 60 98 (5880)
I0523 14:19:25.233697 18921 net.cpp:165] Memory required for data: 94721520
I0523 14:19:25.233707 18921 layer_factory.hpp:77] Creating layer ip3
I0523 14:19:25.233721 18921 net.cpp:106] Creating Layer ip3
I0523 14:19:25.233731 18921 net.cpp:454] ip3 <- ip2
I0523 14:19:25.233743 18921 net.cpp:411] ip3 -> ip3
I0523 14:19:25.233955 18921 net.cpp:150] Setting up ip3
I0523 14:19:25.233968 18921 net.cpp:157] Top shape: 60 11 (660)
I0523 14:19:25.233978 18921 net.cpp:165] Memory required for data: 94724160
I0523 14:19:25.233994 18921 layer_factory.hpp:77] Creating layer drop3
I0523 14:19:25.234006 18921 net.cpp:106] Creating Layer drop3
I0523 14:19:25.234016 18921 net.cpp:454] drop3 <- ip3
I0523 14:19:25.234028 18921 net.cpp:397] drop3 -> ip3 (in-place)
I0523 14:19:25.234068 18921 net.cpp:150] Setting up drop3
I0523 14:19:25.234081 18921 net.cpp:157] Top shape: 60 11 (660)
I0523 14:19:25.234091 18921 net.cpp:165] Memory required for data: 94726800
I0523 14:19:25.234102 18921 layer_factory.hpp:77] Creating layer loss
I0523 14:19:25.234120 18921 net.cpp:106] Creating Layer loss
I0523 14:19:25.234130 18921 net.cpp:454] loss <- ip3
I0523 14:19:25.234141 18921 net.cpp:454] loss <- label
I0523 14:19:25.234154 18921 net.cpp:411] loss -> loss
I0523 14:19:25.234171 18921 layer_factory.hpp:77] Creating layer loss
…
I0523 14:19:25.236994 18921 solver.cpp:181] Creating test net (#0) specified by net file: /lustre/atlas/proj-shared/hep105/caffe_titan/caffe_workflow/logs_bslr/bs_60_lr_0.0020_2016-05-20T15.49.09.909127.prototxt
I0523 14:19:25.237066 18921 net.cpp:322] The NetState phase (1) differed from the phase (0) specified by a rule in layer data_hdf5
I0523 14:19:25.237421 18921 net.cpp:49] Initializing net from parameters: 
name: "caffe_test_127x50_x_unshifted"
state {
  phase: TEST
}
layer {
  name: "data_hdf5"
  type: "HDF5Data"
  top: "data"
  top: "label"
  include {
    phase: TEST
  }
  hdf5_data_param {
    source: "/lustre/atlas/proj-shared/hep105/caffe_titan/minosmatch_nukecczdefs_127x50_x_unshifted_me1Bmc.testlist"
    batch_size: 60
  }
}
layer {
  name: "conv1"
  type: "Convolution"
  bottom: "data"
  top: "conv1"
  convolution_param {
    num_output: 12
    pad: 0
    stride: 1
    weight_filler {
      type: "xavier"
    }
    bias_filler {
      type: "constant"
    }
    kernel_h: 8
    kernel_w: 3
  }
}
layer {
  name: "relu1"
  type: "ReLU"
  bottom: "conv1"
  top: "conv1"
}
layer {
  name: "pool1"
  type: "Pooling"
  bottom: "conv1"
  top: "pool1"
  pooling_param {
    pool: MAX
    kernel_h: 2
    kernel_w: 1
    stride_h: 2
    stride_w: 1
  }
}
layer {
  name: "conv2"
  type: "Convolution"
  bottom: "pool1"
  top: "conv2"
  convolution_param {
    num_output: 20
    pad: 0
    stride: 1
    weight_filler {
      type: "xavier"
    }
    bias_filler {
      type: "constant"
    }
    kernel_h: 7
    kernel_w: 3
  }
}
layer {
  name: "relu2"
  type: "ReLU"
  bottom: "conv2"
  top: "conv2"
}
layer {
  name: "pool2"
  type: "Pooling"
  bottom: "conv2"
  top: "pool2"
  pooling_param {
    pool: MAX
    kernel_h: 2
    kernel_w: 1
    stride_h: 2
    stride_w: 1
  }
}
layer {
  name: "conv3"
  type: "Convolution"
  bottom: "pool2"
  top: "conv3"
  convolution_param {
    num_output: 28
    pad: 0
    stride: 1
    weight_filler {
      type: "xavier"
    }
    bias_filler {
      type: "constant"
    }
    kernel_h: 6
    kernel_w: 3
  }
}
layer {
  name: "relu3"
  type: "ReLU"
  bottom: "conv3"
  top: "conv3"
}
layer {
  name: "pool3"
  type: "Pooling"
  bottom: "conv3"
  top: "pool3"
  pooling_param {
    pool: MAX
    kernel_h: 2
    kernel_w: 1
    stride_h: 2
    stride_w: 1
  }
}
layer {
  name: "conv4"
  type: "Convolution"
  bottom: "pool3"
  top: "conv4"
  convolution_param {
    num_output: 36
    pad: 0
    stride: 1
    weight_filler {
      type: "xavier"
    }
    bias_filler {
      type: "constant"
    }
    kernel_h: 6
    kernel_w: 3
  }
}
layer {
  name: "relu4"
  type: "ReLU"
  bottom: "conv4"
  top: "conv4"
}
layer {
  name: "pool4"
  type: "Pooling"
  bottom: "conv4"
  top: "pool4"
  pooling_param {
    pool: MAX
    kernel_h: 2
    kernel_w: 1
    stride_h: 2
    stride_w: 1
  }
}
layer {
  name: "ip1"
  type: "InnerProduct"
  bottom: "pool4"
  top: "ip1"
  inner_product_param {
    num_output: 196
    weight_filler {
      type: "xavier"
    }
    bias_filler {
      type: "constant"
    }
  }
}
layer {
  name: "relu5"
  type: "ReLU"
  bottom: "ip1"
  top: "ip1"
}
layer {
  name: "drop1"
  type: "Dropout"
  bottom: "ip1"
  top: "ip1"
  dropout_param {
    dropout_ratio: 0.5
  }
}
layer {
  name: "ip2"
  type: "InnerProduct"
  bottom: "ip1"
  top: "ip2"
  inner_product_param {
    num_output: 98
    weight_filler {
      type: "xavier"
    }
    bias_filler {
      type: "constant"
    }
  }
}
layer {
  name: "relu6"
  type: "ReLU"
  bottom: "ip2"
  top: "ip2"
}
layer {
  name: "drop2"
  type: "Dropout"
  bottom: "ip2"
  top: "ip2"
  dropout_param {
    dropout_ratio: 0.5
  }
}
layer {
  name: "ip3"
  type: "InnerProduct"
  bottom: "ip2"
  top: "ip3"
  inner_product_param {
    num_output: 11
    weight_filler {
      type: "xavier"
    }
    bias_filler {
      type: "constant"
    }
  }
}
layer {
  name: "drop3"
  type: "Dropout"
  bottom: "ip3"
  top: "ip3"
  dropout_param {
    dropout_ratio: 0.5
  }
}
layer {
  name: "accuracy"
  type: "Accuracy"
  bottom: "ip3"
  bottom: "label"
  top: "accuracy"
  include {
    phase: TEST
  }
}
layer {
  name: "loss"
  type: "SoftmaxWithLoss"
  bottom: "ip3"
  bottom: "label"
  top: "loss"
}
I0523 14:19:25.237612 18921 layer_factory.hpp:77] Creating layer data_hdf5
I0523 14:19:25.237627 18921 net.cpp:106] Creating Layer data_hdf5
I0523 14:19:25.237638 18921 net.cpp:411] data_hdf5 -> data
I0523 14:19:25.237654 18921 net.cpp:411] data_hdf5 -> label
I0523 14:19:25.237670 18921 hdf5_data_layer.cpp:79] Loading list of HDF5 filenames from: /lustre/atlas/proj-shared/hep105/caffe_titan/minosmatch_nukecczdefs_127x50_x_unshifted_me1Bmc.testlist
I0523 14:19:25.239109 18921 hdf5_data_layer.cpp:93] Number of HDF5 files: 3
I0523 14:19:46.541219 18921 net.cpp:150] Setting up data_hdf5
I0523 14:19:46.541384 18921 net.cpp:157] Top shape: 60 1 127 50 (381000)
I0523 14:19:46.541399 18921 net.cpp:157] Top shape: 60 (60)
I0523 14:19:46.541412 18921 net.cpp:165] Memory required for data: 1524240
I0523 14:19:46.541426 18921 layer_factory.hpp:77] Creating layer label_data_hdf5_1_split
I0523 14:19:46.541455 18921 net.cpp:106] Creating Layer label_data_hdf5_1_split
I0523 14:19:46.541466 18921 net.cpp:454] label_data_hdf5_1_split <- label
I0523 14:19:46.541481 18921 net.cpp:411] label_data_hdf5_1_split -> label_data_hdf5_1_split_0
I0523 14:19:46.541501 18921 net.cpp:411] label_data_hdf5_1_split -> label_data_hdf5_1_split_1
I0523 14:19:46.541574 18921 net.cpp:150] Setting up label_data_hdf5_1_split
I0523 14:19:46.541589 18921 net.cpp:157] Top shape: 60 (60)
I0523 14:19:46.541600 18921 net.cpp:157] Top shape: 60 (60)
I0523 14:19:46.541610 18921 net.cpp:165] Memory required for data: 1524720
I0523 14:19:46.541620 18921 layer_factory.hpp:77] Creating layer conv1
I0523 14:19:46.541641 18921 net.cpp:106] Creating Layer conv1
I0523 14:19:46.541652 18921 net.cpp:454] conv1 <- data
I0523 14:19:46.541667 18921 net.cpp:411] conv1 -> conv1
I0523 14:19:46.543622 18921 net.cpp:150] Setting up conv1
I0523 14:19:46.543647 18921 net.cpp:157] Top shape: 60 12 120 48 (4147200)
I0523 14:19:46.543658 18921 net.cpp:165] Memory required for data: 18113520
I0523 14:19:46.543678 18921 layer_factory.hpp:77] Creating layer relu1
I0523 14:19:46.543694 18921 net.cpp:106] Creating Layer relu1
I0523 14:19:46.543704 18921 net.cpp:454] relu1 <- conv1
I0523 14:19:46.543717 18921 net.cpp:397] relu1 -> conv1 (in-place)
I0523 14:19:46.544214 18921 net.cpp:150] Setting up relu1
I0523 14:19:46.544229 18921 net.cpp:157] Top shape: 60 12 120 48 (4147200)
I0523 14:19:46.544239 18921 net.cpp:165] Memory required for data: 34702320
I0523 14:19:46.544250 18921 layer_factory.hpp:77] Creating layer pool1
I0523 14:19:46.544266 18921 net.cpp:106] Creating Layer pool1
I0523 14:19:46.544276 18921 net.cpp:454] pool1 <- conv1
I0523 14:19:46.544289 18921 net.cpp:411] pool1 -> pool1
I0523 14:19:46.544363 18921 net.cpp:150] Setting up pool1
I0523 14:19:46.544378 18921 net.cpp:157] Top shape: 60 12 60 48 (2073600)
I0523 14:19:46.544387 18921 net.cpp:165] Memory required for data: 42996720
I0523 14:19:46.544395 18921 layer_factory.hpp:77] Creating layer conv2
I0523 14:19:46.544414 18921 net.cpp:106] Creating Layer conv2
I0523 14:19:46.544423 18921 net.cpp:454] conv2 <- pool1
I0523 14:19:46.544437 18921 net.cpp:411] conv2 -> conv2
I0523 14:19:46.546347 18921 net.cpp:150] Setting up conv2
I0523 14:19:46.546370 18921 net.cpp:157] Top shape: 60 20 54 46 (2980800)
I0523 14:19:46.546382 18921 net.cpp:165] Memory required for data: 54919920
I0523 14:19:46.546401 18921 layer_factory.hpp:77] Creating layer relu2
I0523 14:19:46.546413 18921 net.cpp:106] Creating Layer relu2
I0523 14:19:46.546424 18921 net.cpp:454] relu2 <- conv2
I0523 14:19:46.546437 18921 net.cpp:397] relu2 -> conv2 (in-place)
I0523 14:19:46.546777 18921 net.cpp:150] Setting up relu2
I0523 14:19:46.546792 18921 net.cpp:157] Top shape: 60 20 54 46 (2980800)
I0523 14:19:46.546802 18921 net.cpp:165] Memory required for data: 66843120
I0523 14:19:46.546811 18921 layer_factory.hpp:77] Creating layer pool2
I0523 14:19:46.546824 18921 net.cpp:106] Creating Layer pool2
I0523 14:19:46.546834 18921 net.cpp:454] pool2 <- conv2
I0523 14:19:46.546847 18921 net.cpp:411] pool2 -> pool2
I0523 14:19:46.546919 18921 net.cpp:150] Setting up pool2
I0523 14:19:46.546933 18921 net.cpp:157] Top shape: 60 20 27 46 (1490400)
I0523 14:19:46.546942 18921 net.cpp:165] Memory required for data: 72804720
I0523 14:19:46.546954 18921 layer_factory.hpp:77] Creating layer conv3
I0523 14:19:46.546972 18921 net.cpp:106] Creating Layer conv3
I0523 14:19:46.546983 18921 net.cpp:454] conv3 <- pool2
I0523 14:19:46.546998 18921 net.cpp:411] conv3 -> conv3
I0523 14:19:46.548966 18921 net.cpp:150] Setting up conv3
I0523 14:19:46.548985 18921 net.cpp:157] Top shape: 60 28 22 44 (1626240)
I0523 14:19:46.548995 18921 net.cpp:165] Memory required for data: 79309680
I0523 14:19:46.549027 18921 layer_factory.hpp:77] Creating layer relu3
I0523 14:19:46.549041 18921 net.cpp:106] Creating Layer relu3
I0523 14:19:46.549052 18921 net.cpp:454] relu3 <- conv3
I0523 14:19:46.549064 18921 net.cpp:397] relu3 -> conv3 (in-place)
I0523 14:19:46.549537 18921 net.cpp:150] Setting up relu3
I0523 14:19:46.549553 18921 net.cpp:157] Top shape: 60 28 22 44 (1626240)
I0523 14:19:46.549563 18921 net.cpp:165] Memory required for data: 85814640
I0523 14:19:46.549573 18921 layer_factory.hpp:77] Creating layer pool3
I0523 14:19:46.549587 18921 net.cpp:106] Creating Layer pool3
I0523 14:19:46.549597 18921 net.cpp:454] pool3 <- conv3
I0523 14:19:46.549609 18921 net.cpp:411] pool3 -> pool3
I0523 14:19:46.549680 18921 net.cpp:150] Setting up pool3
I0523 14:19:46.549695 18921 net.cpp:157] Top shape: 60 28 11 44 (813120)
I0523 14:19:46.549703 18921 net.cpp:165] Memory required for data: 89067120
I0523 14:19:46.549712 18921 layer_factory.hpp:77] Creating layer conv4
I0523 14:19:46.549731 18921 net.cpp:106] Creating Layer conv4
I0523 14:19:46.549741 18921 net.cpp:454] conv4 <- pool3
I0523 14:19:46.549756 18921 net.cpp:411] conv4 -> conv4
I0523 14:19:46.551816 18921 net.cpp:150] Setting up conv4
I0523 14:19:46.551838 18921 net.cpp:157] Top shape: 60 36 6 42 (544320)
I0523 14:19:46.551851 18921 net.cpp:165] Memory required for data: 91244400
I0523 14:19:46.551867 18921 layer_factory.hpp:77] Creating layer relu4
I0523 14:19:46.551880 18921 net.cpp:106] Creating Layer relu4
I0523 14:19:46.551890 18921 net.cpp:454] relu4 <- conv4
I0523 14:19:46.551903 18921 net.cpp:397] relu4 -> conv4 (in-place)
I0523 14:19:46.552373 18921 net.cpp:150] Setting up relu4
I0523 14:19:46.552389 18921 net.cpp:157] Top shape: 60 36 6 42 (544320)
I0523 14:19:46.552400 18921 net.cpp:165] Memory required for data: 93421680
I0523 14:19:46.552410 18921 layer_factory.hpp:77] Creating layer pool4
I0523 14:19:46.552423 18921 net.cpp:106] Creating Layer pool4
I0523 14:19:46.552433 18921 net.cpp:454] pool4 <- conv4
I0523 14:19:46.552446 18921 net.cpp:411] pool4 -> pool4
I0523 14:19:46.552518 18921 net.cpp:150] Setting up pool4
I0523 14:19:46.552532 18921 net.cpp:157] Top shape: 60 36 3 42 (272160)
I0523 14:19:46.552541 18921 net.cpp:165] Memory required for data: 94510320
I0523 14:19:46.552551 18921 layer_factory.hpp:77] Creating layer ip1
I0523 14:19:46.552567 18921 net.cpp:106] Creating Layer ip1
I0523 14:19:46.552577 18921 net.cpp:454] ip1 <- pool4
I0523 14:19:46.552592 18921 net.cpp:411] ip1 -> ip1
I0523 14:19:46.568053 18921 net.cpp:150] Setting up ip1
I0523 14:19:46.568080 18921 net.cpp:157] Top shape: 60 196 (11760)
I0523 14:19:46.568096 18921 net.cpp:165] Memory required for data: 94557360
I0523 14:19:46.568123 18921 layer_factory.hpp:77] Creating layer relu5
I0523 14:19:46.568138 18921 net.cpp:106] Creating Layer relu5
I0523 14:19:46.568150 18921 net.cpp:454] relu5 <- ip1
I0523 14:19:46.568163 18921 net.cpp:397] relu5 -> ip1 (in-place)
I0523 14:19:46.568509 18921 net.cpp:150] Setting up relu5
I0523 14:19:46.568523 18921 net.cpp:157] Top shape: 60 196 (11760)
I0523 14:19:46.568533 18921 net.cpp:165] Memory required for data: 94604400
I0523 14:19:46.568543 18921 layer_factory.hpp:77] Creating layer drop1
I0523 14:19:46.568562 18921 net.cpp:106] Creating Layer drop1
I0523 14:19:46.568572 18921 net.cpp:454] drop1 <- ip1
I0523 14:19:46.568585 18921 net.cpp:397] drop1 -> ip1 (in-place)
I0523 14:19:46.568630 18921 net.cpp:150] Setting up drop1
I0523 14:19:46.568644 18921 net.cpp:157] Top shape: 60 196 (11760)
I0523 14:19:46.568652 18921 net.cpp:165] Memory required for data: 94651440
I0523 14:19:46.568663 18921 layer_factory.hpp:77] Creating layer ip2
I0523 14:19:46.568677 18921 net.cpp:106] Creating Layer ip2
I0523 14:19:46.568687 18921 net.cpp:454] ip2 <- ip1
I0523 14:19:46.568701 18921 net.cpp:411] ip2 -> ip2
I0523 14:19:46.569177 18921 net.cpp:150] Setting up ip2
I0523 14:19:46.569191 18921 net.cpp:157] Top shape: 60 98 (5880)
I0523 14:19:46.569201 18921 net.cpp:165] Memory required for data: 94674960
I0523 14:19:46.569216 18921 layer_factory.hpp:77] Creating layer relu6
I0523 14:19:46.569242 18921 net.cpp:106] Creating Layer relu6
I0523 14:19:46.569252 18921 net.cpp:454] relu6 <- ip2
I0523 14:19:46.569264 18921 net.cpp:397] relu6 -> ip2 (in-place)
I0523 14:19:46.569802 18921 net.cpp:150] Setting up relu6
I0523 14:19:46.569818 18921 net.cpp:157] Top shape: 60 98 (5880)
I0523 14:19:46.569826 18921 net.cpp:165] Memory required for data: 94698480
I0523 14:19:46.569836 18921 layer_factory.hpp:77] Creating layer drop2
I0523 14:19:46.569849 18921 net.cpp:106] Creating Layer drop2
I0523 14:19:46.569860 18921 net.cpp:454] drop2 <- ip2
I0523 14:19:46.569874 18921 net.cpp:397] drop2 -> ip2 (in-place)
I0523 14:19:46.569917 18921 net.cpp:150] Setting up drop2
I0523 14:19:46.569931 18921 net.cpp:157] Top shape: 60 98 (5880)
I0523 14:19:46.569941 18921 net.cpp:165] Memory required for data: 94722000
I0523 14:19:46.569952 18921 layer_factory.hpp:77] Creating layer ip3
I0523 14:19:46.569965 18921 net.cpp:106] Creating Layer ip3
I0523 14:19:46.569975 18921 net.cpp:454] ip3 <- ip2
I0523 14:19:46.569989 18921 net.cpp:411] ip3 -> ip3
I0523 14:19:46.570209 18921 net.cpp:150] Setting up ip3
I0523 14:19:46.570222 18921 net.cpp:157] Top shape: 60 11 (660)
I0523 14:19:46.570232 18921 net.cpp:165] Memory required for data: 94724640
I0523 14:19:46.570247 18921 layer_factory.hpp:77] Creating layer drop3
I0523 14:19:46.570261 18921 net.cpp:106] Creating Layer drop3
I0523 14:19:46.570269 18921 net.cpp:454] drop3 <- ip3
I0523 14:19:46.570282 18921 net.cpp:397] drop3 -> ip3 (in-place)
I0523 14:19:46.570323 18921 net.cpp:150] Setting up drop3
I0523 14:19:46.570336 18921 net.cpp:157] Top shape: 60 11 (660)
I0523 14:19:46.570345 18921 net.cpp:165] Memory required for data: 94727280
I0523 14:19:46.570355 18921 layer_factory.hpp:77] Creating layer ip3_drop3_0_split
I0523 14:19:46.570369 18921 net.cpp:106] Creating Layer ip3_drop3_0_split
I0523 14:19:46.570379 18921 net.cpp:454] ip3_drop3_0_split <- ip3
I0523 14:19:46.570391 18921 net.cpp:411] ip3_drop3_0_split -> ip3_drop3_0_split_0
I0523 14:19:46.570405 18921 net.cpp:411] ip3_drop3_0_split -> ip3_drop3_0_split_1
I0523 14:19:46.570478 18921 net.cpp:150] Setting up ip3_drop3_0_split
I0523 14:19:46.570492 18921 net.cpp:157] Top shape: 60 11 (660)
I0523 14:19:46.570503 18921 net.cpp:157] Top shape: 60 11 (660)
I0523 14:19:46.570513 18921 net.cpp:165] Memory required for data: 94732560
I0523 14:19:46.570525 18921 layer_factory.hpp:77] Creating layer accuracy
I0523 14:19:46.570547 18921 net.cpp:106] Creating Layer accuracy
I0523 14:19:46.570557 18921 net.cpp:454] accuracy <- ip3_drop3_0_split_0
I0523 14:19:46.570569 18921 net.cpp:454] accuracy <- label_data_hdf5_1_split_0
I0523 14:19:46.570582 18921 net.cpp:411] accuracy -> accuracy
…
