…
I0523 16:00:35.631000 11620 net.cpp:322] The NetState phase (0) differed from the phase (1) specified by a rule in layer data_hdf5
I0523 16:00:35.631058 11620 net.cpp:322] The NetState phase (0) differed from the phase (1) specified by a rule in layer accuracy
I0523 16:00:35.631407 11620 net.cpp:49] Initializing net from parameters: 
name: "caffe_test_127x50_x_unshifted"
state {
  phase: TRAIN
}
layer {
  name: "data_hdf5"
  type: "HDF5Data"
  top: "data"
  top: "label"
  include {
    phase: TRAIN
  }
  hdf5_data_param {
    source: "/lustre/atlas/proj-shared/hep105/caffe_titan/minosmatch_nukecczdefs_127x50_x_unshifted_me1Bmc.trainlist"
    batch_size: 60
  }
}
layer {
  name: "conv1"
  type: "Convolution"
  bottom: "data"
  top: "conv1"
  convolution_param {
    num_output: 12
    pad: 0
    stride: 1
    weight_filler {
      type: "xavier"
    }
    bias_filler {
      type: "constant"
    }
    kernel_h: 8
    kernel_w: 3
  }
}
layer {
  name: "relu1"
  type: "ReLU"
  bottom: "conv1"
  top: "conv1"
}
layer {
  name: "pool1"
  type: "Pooling"
  bottom: "conv1"
  top: "pool1"
  pooling_param {
    pool: MAX
    kernel_h: 2
    kernel_w: 1
    stride_h: 2
    stride_w: 1
  }
}
layer {
  name: "conv2"
  type: "Convolution"
  bottom: "pool1"
  top: "conv2"
  convolution_param {
    num_output: 20
    pad: 0
    stride: 1
    weight_filler {
      type: "xavier"
    }
    bias_filler {
      type: "constant"
    }
    kernel_h: 7
    kernel_w: 3
  }
}
layer {
  name: "relu2"
  type: "ReLU"
  bottom: "conv2"
  top: "conv2"
}
layer {
  name: "pool2"
  type: "Pooling"
  bottom: "conv2"
  top: "pool2"
  pooling_param {
    pool: MAX
    kernel_h: 2
    kernel_w: 1
    stride_h: 2
    stride_w: 1
  }
}
layer {
  name: "conv3"
  type: "Convolution"
  bottom: "pool2"
  top: "conv3"
  convolution_param {
    num_output: 28
    pad: 0
    stride: 1
    weight_filler {
      type: "xavier"
    }
    bias_filler {
      type: "constant"
    }
    kernel_h: 6
    kernel_w: 3
  }
}
layer {
  name: "relu3"
  type: "ReLU"
  bottom: "conv3"
  top: "conv3"
}
layer {
  name: "pool3"
  type: "Pooling"
  bottom: "conv3"
  top: "pool3"
  pooling_param {
    pool: MAX
    kernel_h: 2
    kernel_w: 1
    stride_h: 2
    stride_w: 1
  }
}
layer {
  name: "conv4"
  type: "Convolution"
  bottom: "pool3"
  top: "conv4"
  convolution_param {
    num_output: 36
    pad: 0
    stride: 1
    weight_filler {
      type: "xavier"
    }
    bias_filler {
      type: "constant"
    }
    kernel_h: 6
    kernel_w: 3
  }
}
layer {
  name: "relu4"
  type: "ReLU"
  bottom: "conv4"
  top: "conv4"
}
layer {
  name: "pool4"
  type: "Pooling"
  bottom: "conv4"
  top: "pool4"
  pooling_param {
    pool: MAX
    kernel_h: 2
    kernel_w: 1
    stride_h: 2
    stride_w: 1
  }
}
layer {
  name: "ip1"
  type: "InnerProduct"
  bottom: "pool4"
  top: "ip1"
  inner_product_param {
    num_output: 196
    weight_filler {
      type: "xavier"
    }
    bias_filler {
      type: "constant"
    }
  }
}
layer {
  name: "relu5"
  type: "ReLU"
  bottom: "ip1"
  top: "ip1"
}
layer {
  name: "drop1"
  type: "Dropout"
  bottom: "ip1"
  top: "ip1"
  dropout_param {
    dropout_ratio: 0.5
  }
}
layer {
  name: "ip2"
  type: "InnerProduct"
  bottom: "ip1"
  top: "ip2"
  inner_product_param {
    num_output: 98
    weight_filler {
      type: "xavier"
    }
    bias_filler {
      type: "constant"
    }
  }
}
layer {
  name: "relu6"
  type: "ReLU"
  bottom: "ip2"
  top: "ip2"
}
layer {
  name: "drop2"
  type: "Dropout"
  bottom: "ip2"
  top: "ip2"
  dropout_param {
    dropout_ratio: 0.5
  }
}
layer {
  name: "ip3"
  type: "InnerProduct"
  bottom: "ip2"
  top: "ip3"
  inner_product_param {
    num_output: 11
    weight_filler {
      type: "xavier"
    }
    bias_filler {
      type: "constant"
    }
  }
}
layer {
  name: "drop3"
  type: "Dropout"
  bottom: "ip3"
  top: "ip3"
  dropout_param {
    dropout_ratio: 0.5
  }
}
layer {
  name: "loss"
  type: "SoftmaxWithLoss"
  bottom: "ip3"
  bottom: "label"
  top: "loss"
}
I0523 16:00:35.631584 11620 layer_factory.hpp:77] Creating layer data_hdf5
I0523 16:00:35.631608 11620 net.cpp:106] Creating Layer data_hdf5
I0523 16:00:35.631623 11620 net.cpp:411] data_hdf5 -> data
I0523 16:00:35.631656 11620 net.cpp:411] data_hdf5 -> label
I0523 16:00:35.631688 11620 hdf5_data_layer.cpp:79] Loading list of HDF5 filenames from: /lustre/atlas/proj-shared/hep105/caffe_titan/minosmatch_nukecczdefs_127x50_x_unshifted_me1Bmc.trainlist
I0523 16:00:35.638797 11620 hdf5_data_layer.cpp:93] Number of HDF5 files: 15
I0523 16:00:35.653688 11620 hdf5.cpp:32] Datatype class: H5T_FLOAT
I0523 16:00:57.235432 11620 hdf5.cpp:35] Datatype class: H5T_INTEGER
I0523 16:00:57.240576 11620 net.cpp:150] Setting up data_hdf5
I0523 16:00:57.240622 11620 net.cpp:157] Top shape: 60 1 127 50 (381000)
I0523 16:00:57.240636 11620 net.cpp:157] Top shape: 60 (60)
I0523 16:00:57.240646 11620 net.cpp:165] Memory required for data: 1524240
I0523 16:00:57.240660 11620 layer_factory.hpp:77] Creating layer conv1
I0523 16:00:57.240694 11620 net.cpp:106] Creating Layer conv1
I0523 16:00:57.240705 11620 net.cpp:454] conv1 <- data
I0523 16:00:57.240727 11620 net.cpp:411] conv1 -> conv1
I0523 16:01:00.174109 11620 net.cpp:150] Setting up conv1
I0523 16:01:00.174157 11620 net.cpp:157] Top shape: 60 12 120 48 (4147200)
I0523 16:01:00.174170 11620 net.cpp:165] Memory required for data: 18113040
I0523 16:01:00.174198 11620 layer_factory.hpp:77] Creating layer relu1
I0523 16:01:00.174219 11620 net.cpp:106] Creating Layer relu1
I0523 16:01:00.174231 11620 net.cpp:454] relu1 <- conv1
I0523 16:01:00.174244 11620 net.cpp:397] relu1 -> conv1 (in-place)
I0523 16:01:00.174756 11620 net.cpp:150] Setting up relu1
I0523 16:01:00.174772 11620 net.cpp:157] Top shape: 60 12 120 48 (4147200)
I0523 16:01:00.174782 11620 net.cpp:165] Memory required for data: 34701840
I0523 16:01:00.174793 11620 layer_factory.hpp:77] Creating layer pool1
I0523 16:01:00.174808 11620 net.cpp:106] Creating Layer pool1
I0523 16:01:00.174818 11620 net.cpp:454] pool1 <- conv1
I0523 16:01:00.174830 11620 net.cpp:411] pool1 -> pool1
I0523 16:01:00.174909 11620 net.cpp:150] Setting up pool1
I0523 16:01:00.174922 11620 net.cpp:157] Top shape: 60 12 60 48 (2073600)
I0523 16:01:00.174932 11620 net.cpp:165] Memory required for data: 42996240
I0523 16:01:00.174942 11620 layer_factory.hpp:77] Creating layer conv2
I0523 16:01:00.174963 11620 net.cpp:106] Creating Layer conv2
I0523 16:01:00.174973 11620 net.cpp:454] conv2 <- pool1
I0523 16:01:00.174986 11620 net.cpp:411] conv2 -> conv2
I0523 16:01:00.177726 11620 net.cpp:150] Setting up conv2
I0523 16:01:00.177754 11620 net.cpp:157] Top shape: 60 20 54 46 (2980800)
I0523 16:01:00.177765 11620 net.cpp:165] Memory required for data: 54919440
I0523 16:01:00.177784 11620 layer_factory.hpp:77] Creating layer relu2
I0523 16:01:00.177799 11620 net.cpp:106] Creating Layer relu2
I0523 16:01:00.177809 11620 net.cpp:454] relu2 <- conv2
I0523 16:01:00.177822 11620 net.cpp:397] relu2 -> conv2 (in-place)
I0523 16:01:00.178154 11620 net.cpp:150] Setting up relu2
I0523 16:01:00.178169 11620 net.cpp:157] Top shape: 60 20 54 46 (2980800)
I0523 16:01:00.178179 11620 net.cpp:165] Memory required for data: 66842640
I0523 16:01:00.178189 11620 layer_factory.hpp:77] Creating layer pool2
I0523 16:01:00.178201 11620 net.cpp:106] Creating Layer pool2
I0523 16:01:00.178211 11620 net.cpp:454] pool2 <- conv2
I0523 16:01:00.178225 11620 net.cpp:411] pool2 -> pool2
I0523 16:01:00.178304 11620 net.cpp:150] Setting up pool2
I0523 16:01:00.178318 11620 net.cpp:157] Top shape: 60 20 27 46 (1490400)
I0523 16:01:00.178328 11620 net.cpp:165] Memory required for data: 72804240
I0523 16:01:00.178338 11620 layer_factory.hpp:77] Creating layer conv3
I0523 16:01:00.178356 11620 net.cpp:106] Creating Layer conv3
I0523 16:01:00.178367 11620 net.cpp:454] conv3 <- pool2
I0523 16:01:00.178380 11620 net.cpp:411] conv3 -> conv3
I0523 16:01:00.180321 11620 net.cpp:150] Setting up conv3
I0523 16:01:00.180343 11620 net.cpp:157] Top shape: 60 28 22 44 (1626240)
I0523 16:01:00.180356 11620 net.cpp:165] Memory required for data: 79309200
I0523 16:01:00.180374 11620 layer_factory.hpp:77] Creating layer relu3
I0523 16:01:00.180392 11620 net.cpp:106] Creating Layer relu3
I0523 16:01:00.180402 11620 net.cpp:454] relu3 <- conv3
I0523 16:01:00.180413 11620 net.cpp:397] relu3 -> conv3 (in-place)
I0523 16:01:00.180882 11620 net.cpp:150] Setting up relu3
I0523 16:01:00.180899 11620 net.cpp:157] Top shape: 60 28 22 44 (1626240)
I0523 16:01:00.180909 11620 net.cpp:165] Memory required for data: 85814160
I0523 16:01:00.180919 11620 layer_factory.hpp:77] Creating layer pool3
I0523 16:01:00.180932 11620 net.cpp:106] Creating Layer pool3
I0523 16:01:00.180943 11620 net.cpp:454] pool3 <- conv3
I0523 16:01:00.180955 11620 net.cpp:411] pool3 -> pool3
I0523 16:01:00.181022 11620 net.cpp:150] Setting up pool3
I0523 16:01:00.181035 11620 net.cpp:157] Top shape: 60 28 11 44 (813120)
I0523 16:01:00.181046 11620 net.cpp:165] Memory required for data: 89066640
I0523 16:01:00.181054 11620 layer_factory.hpp:77] Creating layer conv4
I0523 16:01:00.181071 11620 net.cpp:106] Creating Layer conv4
I0523 16:01:00.181082 11620 net.cpp:454] conv4 <- pool3
I0523 16:01:00.181095 11620 net.cpp:411] conv4 -> conv4
I0523 16:01:00.183845 11620 net.cpp:150] Setting up conv4
I0523 16:01:00.183872 11620 net.cpp:157] Top shape: 60 36 6 42 (544320)
I0523 16:01:00.183883 11620 net.cpp:165] Memory required for data: 91243920
I0523 16:01:00.183898 11620 layer_factory.hpp:77] Creating layer relu4
I0523 16:01:00.183913 11620 net.cpp:106] Creating Layer relu4
I0523 16:01:00.183923 11620 net.cpp:454] relu4 <- conv4
I0523 16:01:00.183936 11620 net.cpp:397] relu4 -> conv4 (in-place)
I0523 16:01:00.184415 11620 net.cpp:150] Setting up relu4
I0523 16:01:00.184432 11620 net.cpp:157] Top shape: 60 36 6 42 (544320)
I0523 16:01:00.184442 11620 net.cpp:165] Memory required for data: 93421200
I0523 16:01:00.184453 11620 layer_factory.hpp:77] Creating layer pool4
I0523 16:01:00.184465 11620 net.cpp:106] Creating Layer pool4
I0523 16:01:00.184475 11620 net.cpp:454] pool4 <- conv4
I0523 16:01:00.184489 11620 net.cpp:411] pool4 -> pool4
I0523 16:01:00.184556 11620 net.cpp:150] Setting up pool4
I0523 16:01:00.184569 11620 net.cpp:157] Top shape: 60 36 3 42 (272160)
I0523 16:01:00.184579 11620 net.cpp:165] Memory required for data: 94509840
I0523 16:01:00.184589 11620 layer_factory.hpp:77] Creating layer ip1
I0523 16:01:00.184607 11620 net.cpp:106] Creating Layer ip1
I0523 16:01:00.184618 11620 net.cpp:454] ip1 <- pool4
I0523 16:01:00.184631 11620 net.cpp:411] ip1 -> ip1
I0523 16:01:00.200126 11620 net.cpp:150] Setting up ip1
I0523 16:01:00.200155 11620 net.cpp:157] Top shape: 60 196 (11760)
I0523 16:01:00.200173 11620 net.cpp:165] Memory required for data: 94556880
I0523 16:01:00.200199 11620 layer_factory.hpp:77] Creating layer relu5
I0523 16:01:00.200214 11620 net.cpp:106] Creating Layer relu5
I0523 16:01:00.200224 11620 net.cpp:454] relu5 <- ip1
I0523 16:01:00.200238 11620 net.cpp:397] relu5 -> ip1 (in-place)
I0523 16:01:00.200580 11620 net.cpp:150] Setting up relu5
I0523 16:01:00.200594 11620 net.cpp:157] Top shape: 60 196 (11760)
I0523 16:01:00.200604 11620 net.cpp:165] Memory required for data: 94603920
I0523 16:01:00.200615 11620 layer_factory.hpp:77] Creating layer drop1
I0523 16:01:00.200636 11620 net.cpp:106] Creating Layer drop1
I0523 16:01:00.200646 11620 net.cpp:454] drop1 <- ip1
I0523 16:01:00.200659 11620 net.cpp:397] drop1 -> ip1 (in-place)
I0523 16:01:00.200718 11620 net.cpp:150] Setting up drop1
I0523 16:01:00.200731 11620 net.cpp:157] Top shape: 60 196 (11760)
I0523 16:01:00.200742 11620 net.cpp:165] Memory required for data: 94650960
I0523 16:01:00.200752 11620 layer_factory.hpp:77] Creating layer ip2
I0523 16:01:00.200769 11620 net.cpp:106] Creating Layer ip2
I0523 16:01:00.200780 11620 net.cpp:454] ip2 <- ip1
I0523 16:01:00.200793 11620 net.cpp:411] ip2 -> ip2
I0523 16:01:00.201256 11620 net.cpp:150] Setting up ip2
I0523 16:01:00.201268 11620 net.cpp:157] Top shape: 60 98 (5880)
I0523 16:01:00.201278 11620 net.cpp:165] Memory required for data: 94674480
I0523 16:01:00.201293 11620 layer_factory.hpp:77] Creating layer relu6
I0523 16:01:00.201305 11620 net.cpp:106] Creating Layer relu6
I0523 16:01:00.201315 11620 net.cpp:454] relu6 <- ip2
I0523 16:01:00.201328 11620 net.cpp:397] relu6 -> ip2 (in-place)
I0523 16:01:00.201845 11620 net.cpp:150] Setting up relu6
I0523 16:01:00.201863 11620 net.cpp:157] Top shape: 60 98 (5880)
I0523 16:01:00.201874 11620 net.cpp:165] Memory required for data: 94698000
I0523 16:01:00.201884 11620 layer_factory.hpp:77] Creating layer drop2
I0523 16:01:00.201896 11620 net.cpp:106] Creating Layer drop2
I0523 16:01:00.201906 11620 net.cpp:454] drop2 <- ip2
I0523 16:01:00.201918 11620 net.cpp:397] drop2 -> ip2 (in-place)
I0523 16:01:00.201961 11620 net.cpp:150] Setting up drop2
I0523 16:01:00.201974 11620 net.cpp:157] Top shape: 60 98 (5880)
I0523 16:01:00.201985 11620 net.cpp:165] Memory required for data: 94721520
I0523 16:01:00.201994 11620 layer_factory.hpp:77] Creating layer ip3
I0523 16:01:00.202008 11620 net.cpp:106] Creating Layer ip3
I0523 16:01:00.202018 11620 net.cpp:454] ip3 <- ip2
I0523 16:01:00.202030 11620 net.cpp:411] ip3 -> ip3
I0523 16:01:00.202241 11620 net.cpp:150] Setting up ip3
I0523 16:01:00.202255 11620 net.cpp:157] Top shape: 60 11 (660)
I0523 16:01:00.202263 11620 net.cpp:165] Memory required for data: 94724160
I0523 16:01:00.202280 11620 layer_factory.hpp:77] Creating layer drop3
I0523 16:01:00.202291 11620 net.cpp:106] Creating Layer drop3
I0523 16:01:00.202301 11620 net.cpp:454] drop3 <- ip3
I0523 16:01:00.202312 11620 net.cpp:397] drop3 -> ip3 (in-place)
I0523 16:01:00.202353 11620 net.cpp:150] Setting up drop3
I0523 16:01:00.202364 11620 net.cpp:157] Top shape: 60 11 (660)
I0523 16:01:00.202375 11620 net.cpp:165] Memory required for data: 94726800
I0523 16:01:00.202384 11620 layer_factory.hpp:77] Creating layer loss
I0523 16:01:00.202404 11620 net.cpp:106] Creating Layer loss
I0523 16:01:00.202414 11620 net.cpp:454] loss <- ip3
I0523 16:01:00.202425 11620 net.cpp:454] loss <- label
I0523 16:01:00.202437 11620 net.cpp:411] loss -> loss
I0523 16:01:00.202455 11620 layer_factory.hpp:77] Creating layer loss
…
I0523 16:01:00.205193 11620 solver.cpp:181] Creating test net (#0) specified by net file: /lustre/atlas/proj-shared/hep105/caffe_titan/caffe_workflow/logs_bslr/bs_60_lr_0.0025_2016-05-20T15.49.10.295409.prototxt
I0523 16:01:00.205265 11620 net.cpp:322] The NetState phase (1) differed from the phase (0) specified by a rule in layer data_hdf5
I0523 16:01:00.205621 11620 net.cpp:49] Initializing net from parameters: 
name: "caffe_test_127x50_x_unshifted"
state {
  phase: TEST
}
layer {
  name: "data_hdf5"
  type: "HDF5Data"
  top: "data"
  top: "label"
  include {
    phase: TEST
  }
  hdf5_data_param {
    source: "/lustre/atlas/proj-shared/hep105/caffe_titan/minosmatch_nukecczdefs_127x50_x_unshifted_me1Bmc.testlist"
    batch_size: 60
  }
}
layer {
  name: "conv1"
  type: "Convolution"
  bottom: "data"
  top: "conv1"
  convolution_param {
    num_output: 12
    pad: 0
    stride: 1
    weight_filler {
      type: "xavier"
    }
    bias_filler {
      type: "constant"
    }
    kernel_h: 8
    kernel_w: 3
  }
}
layer {
  name: "relu1"
  type: "ReLU"
  bottom: "conv1"
  top: "conv1"
}
layer {
  name: "pool1"
  type: "Pooling"
  bottom: "conv1"
  top: "pool1"
  pooling_param {
    pool: MAX
    kernel_h: 2
    kernel_w: 1
    stride_h: 2
    stride_w: 1
  }
}
layer {
  name: "conv2"
  type: "Convolution"
  bottom: "pool1"
  top: "conv2"
  convolution_param {
    num_output: 20
    pad: 0
    stride: 1
    weight_filler {
      type: "xavier"
    }
    bias_filler {
      type: "constant"
    }
    kernel_h: 7
    kernel_w: 3
  }
}
layer {
  name: "relu2"
  type: "ReLU"
  bottom: "conv2"
  top: "conv2"
}
layer {
  name: "pool2"
  type: "Pooling"
  bottom: "conv2"
  top: "pool2"
  pooling_param {
    pool: MAX
    kernel_h: 2
    kernel_w: 1
    stride_h: 2
    stride_w: 1
  }
}
layer {
  name: "conv3"
  type: "Convolution"
  bottom: "pool2"
  top: "conv3"
  convolution_param {
    num_output: 28
    pad: 0
    stride: 1
    weight_filler {
      type: "xavier"
    }
    bias_filler {
      type: "constant"
    }
    kernel_h: 6
    kernel_w: 3
  }
}
layer {
  name: "relu3"
  type: "ReLU"
  bottom: "conv3"
  top: "conv3"
}
layer {
  name: "pool3"
  type: "Pooling"
  bottom: "conv3"
  top: "pool3"
  pooling_param {
    pool: MAX
    kernel_h: 2
    kernel_w: 1
    stride_h: 2
    stride_w: 1
  }
}
layer {
  name: "conv4"
  type: "Convolution"
  bottom: "pool3"
  top: "conv4"
  convolution_param {
    num_output: 36
    pad: 0
    stride: 1
    weight_filler {
      type: "xavier"
    }
    bias_filler {
      type: "constant"
    }
    kernel_h: 6
    kernel_w: 3
  }
}
layer {
  name: "relu4"
  type: "ReLU"
  bottom: "conv4"
  top: "conv4"
}
layer {
  name: "pool4"
  type: "Pooling"
  bottom: "conv4"
  top: "pool4"
  pooling_param {
    pool: MAX
    kernel_h: 2
    kernel_w: 1
    stride_h: 2
    stride_w: 1
  }
}
layer {
  name: "ip1"
  type: "InnerProduct"
  bottom: "pool4"
  top: "ip1"
  inner_product_param {
    num_output: 196
    weight_filler {
      type: "xavier"
    }
    bias_filler {
      type: "constant"
    }
  }
}
layer {
  name: "relu5"
  type: "ReLU"
  bottom: "ip1"
  top: "ip1"
}
layer {
  name: "drop1"
  type: "Dropout"
  bottom: "ip1"
  top: "ip1"
  dropout_param {
    dropout_ratio: 0.5
  }
}
layer {
  name: "ip2"
  type: "InnerProduct"
  bottom: "ip1"
  top: "ip2"
  inner_product_param {
    num_output: 98
    weight_filler {
      type: "xavier"
    }
    bias_filler {
      type: "constant"
    }
  }
}
layer {
  name: "relu6"
  type: "ReLU"
  bottom: "ip2"
  top: "ip2"
}
layer {
  name: "drop2"
  type: "Dropout"
  bottom: "ip2"
  top: "ip2"
  dropout_param {
    dropout_ratio: 0.5
  }
}
layer {
  name: "ip3"
  type: "InnerProduct"
  bottom: "ip2"
  top: "ip3"
  inner_product_param {
    num_output: 11
    weight_filler {
      type: "xavier"
    }
    bias_filler {
      type: "constant"
    }
  }
}
layer {
  name: "drop3"
  type: "Dropout"
  bottom: "ip3"
  top: "ip3"
  dropout_param {
    dropout_ratio: 0.5
  }
}
layer {
  name: "accuracy"
  type: "Accuracy"
  bottom: "ip3"
  bottom: "label"
  top: "accuracy"
  include {
    phase: TEST
  }
}
layer {
  name: "loss"
  type: "SoftmaxWithLoss"
  bottom: "ip3"
  bottom: "label"
  top: "loss"
}
I0523 16:01:00.205811 11620 layer_factory.hpp:77] Creating layer data_hdf5
I0523 16:01:00.205826 11620 net.cpp:106] Creating Layer data_hdf5
I0523 16:01:00.205839 11620 net.cpp:411] data_hdf5 -> data
I0523 16:01:00.205855 11620 net.cpp:411] data_hdf5 -> label
I0523 16:01:00.205871 11620 hdf5_data_layer.cpp:79] Loading list of HDF5 filenames from: /lustre/atlas/proj-shared/hep105/caffe_titan/minosmatch_nukecczdefs_127x50_x_unshifted_me1Bmc.testlist
I0523 16:01:00.215116 11620 hdf5_data_layer.cpp:93] Number of HDF5 files: 3
I0523 16:01:21.575896 11620 net.cpp:150] Setting up data_hdf5
I0523 16:01:21.576067 11620 net.cpp:157] Top shape: 60 1 127 50 (381000)
I0523 16:01:21.576082 11620 net.cpp:157] Top shape: 60 (60)
I0523 16:01:21.576092 11620 net.cpp:165] Memory required for data: 1524240
I0523 16:01:21.576107 11620 layer_factory.hpp:77] Creating layer label_data_hdf5_1_split
I0523 16:01:21.576134 11620 net.cpp:106] Creating Layer label_data_hdf5_1_split
I0523 16:01:21.576145 11620 net.cpp:454] label_data_hdf5_1_split <- label
I0523 16:01:21.576159 11620 net.cpp:411] label_data_hdf5_1_split -> label_data_hdf5_1_split_0
I0523 16:01:21.576180 11620 net.cpp:411] label_data_hdf5_1_split -> label_data_hdf5_1_split_1
I0523 16:01:21.576251 11620 net.cpp:150] Setting up label_data_hdf5_1_split
I0523 16:01:21.576266 11620 net.cpp:157] Top shape: 60 (60)
I0523 16:01:21.576277 11620 net.cpp:157] Top shape: 60 (60)
I0523 16:01:21.576287 11620 net.cpp:165] Memory required for data: 1524720
I0523 16:01:21.576297 11620 layer_factory.hpp:77] Creating layer conv1
I0523 16:01:21.576316 11620 net.cpp:106] Creating Layer conv1
I0523 16:01:21.576326 11620 net.cpp:454] conv1 <- data
I0523 16:01:21.576341 11620 net.cpp:411] conv1 -> conv1
I0523 16:01:21.578310 11620 net.cpp:150] Setting up conv1
I0523 16:01:21.578330 11620 net.cpp:157] Top shape: 60 12 120 48 (4147200)
I0523 16:01:21.578341 11620 net.cpp:165] Memory required for data: 18113520
I0523 16:01:21.578361 11620 layer_factory.hpp:77] Creating layer relu1
I0523 16:01:21.578375 11620 net.cpp:106] Creating Layer relu1
I0523 16:01:21.578385 11620 net.cpp:454] relu1 <- conv1
I0523 16:01:21.578398 11620 net.cpp:397] relu1 -> conv1 (in-place)
I0523 16:01:21.578899 11620 net.cpp:150] Setting up relu1
I0523 16:01:21.578915 11620 net.cpp:157] Top shape: 60 12 120 48 (4147200)
I0523 16:01:21.578925 11620 net.cpp:165] Memory required for data: 34702320
I0523 16:01:21.578936 11620 layer_factory.hpp:77] Creating layer pool1
I0523 16:01:21.578953 11620 net.cpp:106] Creating Layer pool1
I0523 16:01:21.578963 11620 net.cpp:454] pool1 <- conv1
I0523 16:01:21.578975 11620 net.cpp:411] pool1 -> pool1
I0523 16:01:21.579051 11620 net.cpp:150] Setting up pool1
I0523 16:01:21.579064 11620 net.cpp:157] Top shape: 60 12 60 48 (2073600)
I0523 16:01:21.579073 11620 net.cpp:165] Memory required for data: 42996720
I0523 16:01:21.579082 11620 layer_factory.hpp:77] Creating layer conv2
I0523 16:01:21.579099 11620 net.cpp:106] Creating Layer conv2
I0523 16:01:21.579109 11620 net.cpp:454] conv2 <- pool1
I0523 16:01:21.579124 11620 net.cpp:411] conv2 -> conv2
I0523 16:01:21.581043 11620 net.cpp:150] Setting up conv2
I0523 16:01:21.581065 11620 net.cpp:157] Top shape: 60 20 54 46 (2980800)
I0523 16:01:21.581079 11620 net.cpp:165] Memory required for data: 54919920
I0523 16:01:21.581094 11620 layer_factory.hpp:77] Creating layer relu2
I0523 16:01:21.581109 11620 net.cpp:106] Creating Layer relu2
I0523 16:01:21.581118 11620 net.cpp:454] relu2 <- conv2
I0523 16:01:21.581131 11620 net.cpp:397] relu2 -> conv2 (in-place)
I0523 16:01:21.581464 11620 net.cpp:150] Setting up relu2
I0523 16:01:21.581477 11620 net.cpp:157] Top shape: 60 20 54 46 (2980800)
I0523 16:01:21.581487 11620 net.cpp:165] Memory required for data: 66843120
I0523 16:01:21.581497 11620 layer_factory.hpp:77] Creating layer pool2
I0523 16:01:21.581511 11620 net.cpp:106] Creating Layer pool2
I0523 16:01:21.581521 11620 net.cpp:454] pool2 <- conv2
I0523 16:01:21.581533 11620 net.cpp:411] pool2 -> pool2
I0523 16:01:21.581604 11620 net.cpp:150] Setting up pool2
I0523 16:01:21.581616 11620 net.cpp:157] Top shape: 60 20 27 46 (1490400)
I0523 16:01:21.581626 11620 net.cpp:165] Memory required for data: 72804720
I0523 16:01:21.581636 11620 layer_factory.hpp:77] Creating layer conv3
I0523 16:01:21.581655 11620 net.cpp:106] Creating Layer conv3
I0523 16:01:21.581665 11620 net.cpp:454] conv3 <- pool2
I0523 16:01:21.581681 11620 net.cpp:411] conv3 -> conv3
I0523 16:01:21.583639 11620 net.cpp:150] Setting up conv3
I0523 16:01:21.583662 11620 net.cpp:157] Top shape: 60 28 22 44 (1626240)
I0523 16:01:21.583674 11620 net.cpp:165] Memory required for data: 79309680
I0523 16:01:21.583706 11620 layer_factory.hpp:77] Creating layer relu3
I0523 16:01:21.583719 11620 net.cpp:106] Creating Layer relu3
I0523 16:01:21.583729 11620 net.cpp:454] relu3 <- conv3
I0523 16:01:21.583742 11620 net.cpp:397] relu3 -> conv3 (in-place)
I0523 16:01:21.584218 11620 net.cpp:150] Setting up relu3
I0523 16:01:21.584235 11620 net.cpp:157] Top shape: 60 28 22 44 (1626240)
I0523 16:01:21.584245 11620 net.cpp:165] Memory required for data: 85814640
I0523 16:01:21.584255 11620 layer_factory.hpp:77] Creating layer pool3
I0523 16:01:21.584270 11620 net.cpp:106] Creating Layer pool3
I0523 16:01:21.584280 11620 net.cpp:454] pool3 <- conv3
I0523 16:01:21.584292 11620 net.cpp:411] pool3 -> pool3
I0523 16:01:21.584364 11620 net.cpp:150] Setting up pool3
I0523 16:01:21.584378 11620 net.cpp:157] Top shape: 60 28 11 44 (813120)
I0523 16:01:21.584388 11620 net.cpp:165] Memory required for data: 89067120
I0523 16:01:21.584396 11620 layer_factory.hpp:77] Creating layer conv4
I0523 16:01:21.584414 11620 net.cpp:106] Creating Layer conv4
I0523 16:01:21.584424 11620 net.cpp:454] conv4 <- pool3
I0523 16:01:21.584439 11620 net.cpp:411] conv4 -> conv4
I0523 16:01:21.586495 11620 net.cpp:150] Setting up conv4
I0523 16:01:21.586518 11620 net.cpp:157] Top shape: 60 36 6 42 (544320)
I0523 16:01:21.586529 11620 net.cpp:165] Memory required for data: 91244400
I0523 16:01:21.586544 11620 layer_factory.hpp:77] Creating layer relu4
I0523 16:01:21.586558 11620 net.cpp:106] Creating Layer relu4
I0523 16:01:21.586567 11620 net.cpp:454] relu4 <- conv4
I0523 16:01:21.586580 11620 net.cpp:397] relu4 -> conv4 (in-place)
I0523 16:01:21.587049 11620 net.cpp:150] Setting up relu4
I0523 16:01:21.587064 11620 net.cpp:157] Top shape: 60 36 6 42 (544320)
I0523 16:01:21.587074 11620 net.cpp:165] Memory required for data: 93421680
I0523 16:01:21.587085 11620 layer_factory.hpp:77] Creating layer pool4
I0523 16:01:21.587097 11620 net.cpp:106] Creating Layer pool4
I0523 16:01:21.587106 11620 net.cpp:454] pool4 <- conv4
I0523 16:01:21.587121 11620 net.cpp:411] pool4 -> pool4
I0523 16:01:21.587190 11620 net.cpp:150] Setting up pool4
I0523 16:01:21.587203 11620 net.cpp:157] Top shape: 60 36 3 42 (272160)
I0523 16:01:21.587213 11620 net.cpp:165] Memory required for data: 94510320
I0523 16:01:21.587222 11620 layer_factory.hpp:77] Creating layer ip1
I0523 16:01:21.587237 11620 net.cpp:106] Creating Layer ip1
I0523 16:01:21.587249 11620 net.cpp:454] ip1 <- pool4
I0523 16:01:21.587261 11620 net.cpp:411] ip1 -> ip1
I0523 16:01:21.602736 11620 net.cpp:150] Setting up ip1
I0523 16:01:21.602764 11620 net.cpp:157] Top shape: 60 196 (11760)
I0523 16:01:21.602777 11620 net.cpp:165] Memory required for data: 94557360
I0523 16:01:21.602799 11620 layer_factory.hpp:77] Creating layer relu5
I0523 16:01:21.602813 11620 net.cpp:106] Creating Layer relu5
I0523 16:01:21.602824 11620 net.cpp:454] relu5 <- ip1
I0523 16:01:21.602838 11620 net.cpp:397] relu5 -> ip1 (in-place)
I0523 16:01:21.603185 11620 net.cpp:150] Setting up relu5
I0523 16:01:21.603199 11620 net.cpp:157] Top shape: 60 196 (11760)
I0523 16:01:21.603209 11620 net.cpp:165] Memory required for data: 94604400
I0523 16:01:21.603219 11620 layer_factory.hpp:77] Creating layer drop1
I0523 16:01:21.603238 11620 net.cpp:106] Creating Layer drop1
I0523 16:01:21.603248 11620 net.cpp:454] drop1 <- ip1
I0523 16:01:21.603261 11620 net.cpp:397] drop1 -> ip1 (in-place)
I0523 16:01:21.603307 11620 net.cpp:150] Setting up drop1
I0523 16:01:21.603319 11620 net.cpp:157] Top shape: 60 196 (11760)
I0523 16:01:21.603330 11620 net.cpp:165] Memory required for data: 94651440
I0523 16:01:21.603339 11620 layer_factory.hpp:77] Creating layer ip2
I0523 16:01:21.603354 11620 net.cpp:106] Creating Layer ip2
I0523 16:01:21.603363 11620 net.cpp:454] ip2 <- ip1
I0523 16:01:21.603377 11620 net.cpp:411] ip2 -> ip2
I0523 16:01:21.603853 11620 net.cpp:150] Setting up ip2
I0523 16:01:21.603866 11620 net.cpp:157] Top shape: 60 98 (5880)
I0523 16:01:21.603876 11620 net.cpp:165] Memory required for data: 94674960
I0523 16:01:21.603891 11620 layer_factory.hpp:77] Creating layer relu6
I0523 16:01:21.603916 11620 net.cpp:106] Creating Layer relu6
I0523 16:01:21.603926 11620 net.cpp:454] relu6 <- ip2
I0523 16:01:21.603940 11620 net.cpp:397] relu6 -> ip2 (in-place)
I0523 16:01:21.604476 11620 net.cpp:150] Setting up relu6
I0523 16:01:21.604501 11620 net.cpp:157] Top shape: 60 98 (5880)
I0523 16:01:21.604511 11620 net.cpp:165] Memory required for data: 94698480
I0523 16:01:21.604521 11620 layer_factory.hpp:77] Creating layer drop2
I0523 16:01:21.604532 11620 net.cpp:106] Creating Layer drop2
I0523 16:01:21.604542 11620 net.cpp:454] drop2 <- ip2
I0523 16:01:21.604557 11620 net.cpp:397] drop2 -> ip2 (in-place)
I0523 16:01:21.604600 11620 net.cpp:150] Setting up drop2
I0523 16:01:21.604614 11620 net.cpp:157] Top shape: 60 98 (5880)
I0523 16:01:21.604624 11620 net.cpp:165] Memory required for data: 94722000
I0523 16:01:21.604634 11620 layer_factory.hpp:77] Creating layer ip3
I0523 16:01:21.604647 11620 net.cpp:106] Creating Layer ip3
I0523 16:01:21.604657 11620 net.cpp:454] ip3 <- ip2
I0523 16:01:21.604671 11620 net.cpp:411] ip3 -> ip3
I0523 16:01:21.604894 11620 net.cpp:150] Setting up ip3
I0523 16:01:21.604908 11620 net.cpp:157] Top shape: 60 11 (660)
I0523 16:01:21.604918 11620 net.cpp:165] Memory required for data: 94724640
I0523 16:01:21.604933 11620 layer_factory.hpp:77] Creating layer drop3
I0523 16:01:21.604946 11620 net.cpp:106] Creating Layer drop3
I0523 16:01:21.604956 11620 net.cpp:454] drop3 <- ip3
I0523 16:01:21.604969 11620 net.cpp:397] drop3 -> ip3 (in-place)
I0523 16:01:21.605010 11620 net.cpp:150] Setting up drop3
I0523 16:01:21.605023 11620 net.cpp:157] Top shape: 60 11 (660)
I0523 16:01:21.605033 11620 net.cpp:165] Memory required for data: 94727280
I0523 16:01:21.605042 11620 layer_factory.hpp:77] Creating layer ip3_drop3_0_split
I0523 16:01:21.605057 11620 net.cpp:106] Creating Layer ip3_drop3_0_split
I0523 16:01:21.605065 11620 net.cpp:454] ip3_drop3_0_split <- ip3
I0523 16:01:21.605078 11620 net.cpp:411] ip3_drop3_0_split -> ip3_drop3_0_split_0
I0523 16:01:21.605093 11620 net.cpp:411] ip3_drop3_0_split -> ip3_drop3_0_split_1
I0523 16:01:21.605167 11620 net.cpp:150] Setting up ip3_drop3_0_split
I0523 16:01:21.605180 11620 net.cpp:157] Top shape: 60 11 (660)
I0523 16:01:21.605193 11620 net.cpp:157] Top shape: 60 11 (660)
I0523 16:01:21.605203 11620 net.cpp:165] Memory required for data: 94732560
I0523 16:01:21.605213 11620 layer_factory.hpp:77] Creating layer accuracy
I0523 16:01:21.605234 11620 net.cpp:106] Creating Layer accuracy
I0523 16:01:21.605244 11620 net.cpp:454] accuracy <- ip3_drop3_0_split_0
I0523 16:01:21.605255 11620 net.cpp:454] accuracy <- label_data_hdf5_1_split_0
I0523 16:01:21.605269 11620 net.cpp:411] accuracy -> accuracy
…
