…
I0523 20:22:10.157938  3749 net.cpp:322] The NetState phase (0) differed from the phase (1) specified by a rule in layer data_hdf5
I0523 20:22:10.157997  3749 net.cpp:322] The NetState phase (0) differed from the phase (1) specified by a rule in layer accuracy
I0523 20:22:10.158344  3749 net.cpp:49] Initializing net from parameters: 
name: "caffe_test_127x50_x_unshifted"
state {
  phase: TRAIN
}
layer {
  name: "data_hdf5"
  type: "HDF5Data"
  top: "data"
  top: "label"
  include {
    phase: TRAIN
  }
  hdf5_data_param {
    source: "/lustre/atlas/proj-shared/hep105/caffe_titan/minosmatch_nukecczdefs_127x50_x_unshifted_me1Bmc.trainlist"
    batch_size: 60
  }
}
layer {
  name: "conv1"
  type: "Convolution"
  bottom: "data"
  top: "conv1"
  convolution_param {
    num_output: 12
    pad: 0
    stride: 1
    weight_filler {
      type: "xavier"
    }
    bias_filler {
      type: "constant"
    }
    kernel_h: 8
    kernel_w: 3
  }
}
layer {
  name: "relu1"
  type: "ReLU"
  bottom: "conv1"
  top: "conv1"
}
layer {
  name: "pool1"
  type: "Pooling"
  bottom: "conv1"
  top: "pool1"
  pooling_param {
    pool: MAX
    kernel_h: 2
    kernel_w: 1
    stride_h: 2
    stride_w: 1
  }
}
layer {
  name: "conv2"
  type: "Convolution"
  bottom: "pool1"
  top: "conv2"
  convolution_param {
    num_output: 20
    pad: 0
    stride: 1
    weight_filler {
      type: "xavier"
    }
    bias_filler {
      type: "constant"
    }
    kernel_h: 7
    kernel_w: 3
  }
}
layer {
  name: "relu2"
  type: "ReLU"
  bottom: "conv2"
  top: "conv2"
}
layer {
  name: "pool2"
  type: "Pooling"
  bottom: "conv2"
  top: "pool2"
  pooling_param {
    pool: MAX
    kernel_h: 2
    kernel_w: 1
    stride_h: 2
    stride_w: 1
  }
}
layer {
  name: "conv3"
  type: "Convolution"
  bottom: "pool2"
  top: "conv3"
  convolution_param {
    num_output: 28
    pad: 0
    stride: 1
    weight_filler {
      type: "xavier"
    }
    bias_filler {
      type: "constant"
    }
    kernel_h: 6
    kernel_w: 3
  }
}
layer {
  name: "relu3"
  type: "ReLU"
  bottom: "conv3"
  top: "conv3"
}
layer {
  name: "pool3"
  type: "Pooling"
  bottom: "conv3"
  top: "pool3"
  pooling_param {
    pool: MAX
    kernel_h: 2
    kernel_w: 1
    stride_h: 2
    stride_w: 1
  }
}
layer {
  name: "conv4"
  type: "Convolution"
  bottom: "pool3"
  top: "conv4"
  convolution_param {
    num_output: 36
    pad: 0
    stride: 1
    weight_filler {
      type: "xavier"
    }
    bias_filler {
      type: "constant"
    }
    kernel_h: 6
    kernel_w: 3
  }
}
layer {
  name: "relu4"
  type: "ReLU"
  bottom: "conv4"
  top: "conv4"
}
layer {
  name: "pool4"
  type: "Pooling"
  bottom: "conv4"
  top: "pool4"
  pooling_param {
    pool: MAX
    kernel_h: 2
    kernel_w: 1
    stride_h: 2
    stride_w: 1
  }
}
layer {
  name: "ip1"
  type: "InnerProduct"
  bottom: "pool4"
  top: "ip1"
  inner_product_param {
    num_output: 196
    weight_filler {
      type: "xavier"
    }
    bias_filler {
      type: "constant"
    }
  }
}
layer {
  name: "relu5"
  type: "ReLU"
  bottom: "ip1"
  top: "ip1"
}
layer {
  name: "drop1"
  type: "Dropout"
  bottom: "ip1"
  top: "ip1"
  dropout_param {
    dropout_ratio: 0.5
  }
}
layer {
  name: "ip2"
  type: "InnerProduct"
  bottom: "ip1"
  top: "ip2"
  inner_product_param {
    num_output: 98
    weight_filler {
      type: "xavier"
    }
    bias_filler {
      type: "constant"
    }
  }
}
layer {
  name: "relu6"
  type: "ReLU"
  bottom: "ip2"
  top: "ip2"
}
layer {
  name: "drop2"
  type: "Dropout"
  bottom: "ip2"
  top: "ip2"
  dropout_param {
    dropout_ratio: 0.5
  }
}
layer {
  name: "ip3"
  type: "InnerProduct"
  bottom: "ip2"
  top: "ip3"
  inner_product_param {
    num_output: 11
    weight_filler {
      type: "xavier"
    }
    bias_filler {
      type: "constant"
    }
  }
}
layer {
  name: "drop3"
  type: "Dropout"
  bottom: "ip3"
  top: "ip3"
  dropout_param {
    dropout_ratio: 0.5
  }
}
layer {
  name: "loss"
  type: "SoftmaxWithLoss"
  bottom: "ip3"
  bottom: "label"
  top: "loss"
}
I0523 20:22:10.158525  3749 layer_factory.hpp:77] Creating layer data_hdf5
I0523 20:22:10.158550  3749 net.cpp:106] Creating Layer data_hdf5
I0523 20:22:10.158565  3749 net.cpp:411] data_hdf5 -> data
I0523 20:22:10.158597  3749 net.cpp:411] data_hdf5 -> label
I0523 20:22:10.158630  3749 hdf5_data_layer.cpp:79] Loading list of HDF5 filenames from: /lustre/atlas/proj-shared/hep105/caffe_titan/minosmatch_nukecczdefs_127x50_x_unshifted_me1Bmc.trainlist
I0523 20:22:10.159952  3749 hdf5_data_layer.cpp:93] Number of HDF5 files: 15
I0523 20:22:10.162156  3749 hdf5.cpp:32] Datatype class: H5T_FLOAT
I0523 20:22:31.665035  3749 hdf5.cpp:35] Datatype class: H5T_INTEGER
I0523 20:22:31.670194  3749 net.cpp:150] Setting up data_hdf5
I0523 20:22:31.670235  3749 net.cpp:157] Top shape: 60 1 127 50 (381000)
I0523 20:22:31.670250  3749 net.cpp:157] Top shape: 60 (60)
I0523 20:22:31.670263  3749 net.cpp:165] Memory required for data: 1524240
I0523 20:22:31.670275  3749 layer_factory.hpp:77] Creating layer conv1
I0523 20:22:31.670310  3749 net.cpp:106] Creating Layer conv1
I0523 20:22:31.670320  3749 net.cpp:454] conv1 <- data
I0523 20:22:31.670342  3749 net.cpp:411] conv1 -> conv1
I0523 20:22:32.034838  3749 net.cpp:150] Setting up conv1
I0523 20:22:32.034885  3749 net.cpp:157] Top shape: 60 12 120 48 (4147200)
I0523 20:22:32.034896  3749 net.cpp:165] Memory required for data: 18113040
I0523 20:22:32.034925  3749 layer_factory.hpp:77] Creating layer relu1
I0523 20:22:32.034946  3749 net.cpp:106] Creating Layer relu1
I0523 20:22:32.034957  3749 net.cpp:454] relu1 <- conv1
I0523 20:22:32.034970  3749 net.cpp:397] relu1 -> conv1 (in-place)
I0523 20:22:32.035495  3749 net.cpp:150] Setting up relu1
I0523 20:22:32.035512  3749 net.cpp:157] Top shape: 60 12 120 48 (4147200)
I0523 20:22:32.035522  3749 net.cpp:165] Memory required for data: 34701840
I0523 20:22:32.035533  3749 layer_factory.hpp:77] Creating layer pool1
I0523 20:22:32.035549  3749 net.cpp:106] Creating Layer pool1
I0523 20:22:32.035559  3749 net.cpp:454] pool1 <- conv1
I0523 20:22:32.035573  3749 net.cpp:411] pool1 -> pool1
I0523 20:22:32.035652  3749 net.cpp:150] Setting up pool1
I0523 20:22:32.035666  3749 net.cpp:157] Top shape: 60 12 60 48 (2073600)
I0523 20:22:32.035676  3749 net.cpp:165] Memory required for data: 42996240
I0523 20:22:32.035686  3749 layer_factory.hpp:77] Creating layer conv2
I0523 20:22:32.035709  3749 net.cpp:106] Creating Layer conv2
I0523 20:22:32.035719  3749 net.cpp:454] conv2 <- pool1
I0523 20:22:32.035733  3749 net.cpp:411] conv2 -> conv2
I0523 20:22:32.038442  3749 net.cpp:150] Setting up conv2
I0523 20:22:32.038471  3749 net.cpp:157] Top shape: 60 20 54 46 (2980800)
I0523 20:22:32.038481  3749 net.cpp:165] Memory required for data: 54919440
I0523 20:22:32.038501  3749 layer_factory.hpp:77] Creating layer relu2
I0523 20:22:32.038514  3749 net.cpp:106] Creating Layer relu2
I0523 20:22:32.038524  3749 net.cpp:454] relu2 <- conv2
I0523 20:22:32.038537  3749 net.cpp:397] relu2 -> conv2 (in-place)
I0523 20:22:32.038868  3749 net.cpp:150] Setting up relu2
I0523 20:22:32.038883  3749 net.cpp:157] Top shape: 60 20 54 46 (2980800)
I0523 20:22:32.038893  3749 net.cpp:165] Memory required for data: 66842640
I0523 20:22:32.038903  3749 layer_factory.hpp:77] Creating layer pool2
I0523 20:22:32.038915  3749 net.cpp:106] Creating Layer pool2
I0523 20:22:32.038925  3749 net.cpp:454] pool2 <- conv2
I0523 20:22:32.038938  3749 net.cpp:411] pool2 -> pool2
I0523 20:22:32.039021  3749 net.cpp:150] Setting up pool2
I0523 20:22:32.039033  3749 net.cpp:157] Top shape: 60 20 27 46 (1490400)
I0523 20:22:32.039043  3749 net.cpp:165] Memory required for data: 72804240
I0523 20:22:32.039052  3749 layer_factory.hpp:77] Creating layer conv3
I0523 20:22:32.039070  3749 net.cpp:106] Creating Layer conv3
I0523 20:22:32.039080  3749 net.cpp:454] conv3 <- pool2
I0523 20:22:32.039094  3749 net.cpp:411] conv3 -> conv3
I0523 20:22:32.041041  3749 net.cpp:150] Setting up conv3
I0523 20:22:32.041065  3749 net.cpp:157] Top shape: 60 28 22 44 (1626240)
I0523 20:22:32.041074  3749 net.cpp:165] Memory required for data: 79309200
I0523 20:22:32.041093  3749 layer_factory.hpp:77] Creating layer relu3
I0523 20:22:32.041110  3749 net.cpp:106] Creating Layer relu3
I0523 20:22:32.041121  3749 net.cpp:454] relu3 <- conv3
I0523 20:22:32.041133  3749 net.cpp:397] relu3 -> conv3 (in-place)
I0523 20:22:32.041604  3749 net.cpp:150] Setting up relu3
I0523 20:22:32.041620  3749 net.cpp:157] Top shape: 60 28 22 44 (1626240)
I0523 20:22:32.041630  3749 net.cpp:165] Memory required for data: 85814160
I0523 20:22:32.041640  3749 layer_factory.hpp:77] Creating layer pool3
I0523 20:22:32.041653  3749 net.cpp:106] Creating Layer pool3
I0523 20:22:32.041663  3749 net.cpp:454] pool3 <- conv3
I0523 20:22:32.041676  3749 net.cpp:411] pool3 -> pool3
I0523 20:22:32.041744  3749 net.cpp:150] Setting up pool3
I0523 20:22:32.041757  3749 net.cpp:157] Top shape: 60 28 11 44 (813120)
I0523 20:22:32.041766  3749 net.cpp:165] Memory required for data: 89066640
I0523 20:22:32.041776  3749 layer_factory.hpp:77] Creating layer conv4
I0523 20:22:32.041795  3749 net.cpp:106] Creating Layer conv4
I0523 20:22:32.041805  3749 net.cpp:454] conv4 <- pool3
I0523 20:22:32.041817  3749 net.cpp:411] conv4 -> conv4
I0523 20:22:32.044571  3749 net.cpp:150] Setting up conv4
I0523 20:22:32.044600  3749 net.cpp:157] Top shape: 60 36 6 42 (544320)
I0523 20:22:32.044611  3749 net.cpp:165] Memory required for data: 91243920
I0523 20:22:32.044627  3749 layer_factory.hpp:77] Creating layer relu4
I0523 20:22:32.044641  3749 net.cpp:106] Creating Layer relu4
I0523 20:22:32.044651  3749 net.cpp:454] relu4 <- conv4
I0523 20:22:32.044664  3749 net.cpp:397] relu4 -> conv4 (in-place)
I0523 20:22:32.045140  3749 net.cpp:150] Setting up relu4
I0523 20:22:32.045156  3749 net.cpp:157] Top shape: 60 36 6 42 (544320)
I0523 20:22:32.045166  3749 net.cpp:165] Memory required for data: 93421200
I0523 20:22:32.045176  3749 layer_factory.hpp:77] Creating layer pool4
I0523 20:22:32.045189  3749 net.cpp:106] Creating Layer pool4
I0523 20:22:32.045199  3749 net.cpp:454] pool4 <- conv4
I0523 20:22:32.045212  3749 net.cpp:411] pool4 -> pool4
I0523 20:22:32.045281  3749 net.cpp:150] Setting up pool4
I0523 20:22:32.045295  3749 net.cpp:157] Top shape: 60 36 3 42 (272160)
I0523 20:22:32.045305  3749 net.cpp:165] Memory required for data: 94509840
I0523 20:22:32.045315  3749 layer_factory.hpp:77] Creating layer ip1
I0523 20:22:32.045333  3749 net.cpp:106] Creating Layer ip1
I0523 20:22:32.045344  3749 net.cpp:454] ip1 <- pool4
I0523 20:22:32.045357  3749 net.cpp:411] ip1 -> ip1
I0523 20:22:32.060744  3749 net.cpp:150] Setting up ip1
I0523 20:22:32.060772  3749 net.cpp:157] Top shape: 60 196 (11760)
I0523 20:22:32.060786  3749 net.cpp:165] Memory required for data: 94556880
I0523 20:22:32.060808  3749 layer_factory.hpp:77] Creating layer relu5
I0523 20:22:32.060823  3749 net.cpp:106] Creating Layer relu5
I0523 20:22:32.060834  3749 net.cpp:454] relu5 <- ip1
I0523 20:22:32.060847  3749 net.cpp:397] relu5 -> ip1 (in-place)
I0523 20:22:32.061189  3749 net.cpp:150] Setting up relu5
I0523 20:22:32.061203  3749 net.cpp:157] Top shape: 60 196 (11760)
I0523 20:22:32.061214  3749 net.cpp:165] Memory required for data: 94603920
I0523 20:22:32.061224  3749 layer_factory.hpp:77] Creating layer drop1
I0523 20:22:32.061246  3749 net.cpp:106] Creating Layer drop1
I0523 20:22:32.061256  3749 net.cpp:454] drop1 <- ip1
I0523 20:22:32.061269  3749 net.cpp:397] drop1 -> ip1 (in-place)
I0523 20:22:32.061327  3749 net.cpp:150] Setting up drop1
I0523 20:22:32.061341  3749 net.cpp:157] Top shape: 60 196 (11760)
I0523 20:22:32.061350  3749 net.cpp:165] Memory required for data: 94650960
I0523 20:22:32.061362  3749 layer_factory.hpp:77] Creating layer ip2
I0523 20:22:32.061379  3749 net.cpp:106] Creating Layer ip2
I0523 20:22:32.061389  3749 net.cpp:454] ip2 <- ip1
I0523 20:22:32.061403  3749 net.cpp:411] ip2 -> ip2
I0523 20:22:32.061863  3749 net.cpp:150] Setting up ip2
I0523 20:22:32.061877  3749 net.cpp:157] Top shape: 60 98 (5880)
I0523 20:22:32.061887  3749 net.cpp:165] Memory required for data: 94674480
I0523 20:22:32.061902  3749 layer_factory.hpp:77] Creating layer relu6
I0523 20:22:32.061914  3749 net.cpp:106] Creating Layer relu6
I0523 20:22:32.061924  3749 net.cpp:454] relu6 <- ip2
I0523 20:22:32.061936  3749 net.cpp:397] relu6 -> ip2 (in-place)
I0523 20:22:32.062453  3749 net.cpp:150] Setting up relu6
I0523 20:22:32.062469  3749 net.cpp:157] Top shape: 60 98 (5880)
I0523 20:22:32.062480  3749 net.cpp:165] Memory required for data: 94698000
I0523 20:22:32.062491  3749 layer_factory.hpp:77] Creating layer drop2
I0523 20:22:32.062505  3749 net.cpp:106] Creating Layer drop2
I0523 20:22:32.062515  3749 net.cpp:454] drop2 <- ip2
I0523 20:22:32.062527  3749 net.cpp:397] drop2 -> ip2 (in-place)
I0523 20:22:32.062568  3749 net.cpp:150] Setting up drop2
I0523 20:22:32.062582  3749 net.cpp:157] Top shape: 60 98 (5880)
I0523 20:22:32.062592  3749 net.cpp:165] Memory required for data: 94721520
I0523 20:22:32.062602  3749 layer_factory.hpp:77] Creating layer ip3
I0523 20:22:32.062615  3749 net.cpp:106] Creating Layer ip3
I0523 20:22:32.062625  3749 net.cpp:454] ip3 <- ip2
I0523 20:22:32.062638  3749 net.cpp:411] ip3 -> ip3
I0523 20:22:32.062849  3749 net.cpp:150] Setting up ip3
I0523 20:22:32.062861  3749 net.cpp:157] Top shape: 60 11 (660)
I0523 20:22:32.062871  3749 net.cpp:165] Memory required for data: 94724160
I0523 20:22:32.062886  3749 layer_factory.hpp:77] Creating layer drop3
I0523 20:22:32.062898  3749 net.cpp:106] Creating Layer drop3
I0523 20:22:32.062908  3749 net.cpp:454] drop3 <- ip3
I0523 20:22:32.062919  3749 net.cpp:397] drop3 -> ip3 (in-place)
I0523 20:22:32.062959  3749 net.cpp:150] Setting up drop3
I0523 20:22:32.062973  3749 net.cpp:157] Top shape: 60 11 (660)
I0523 20:22:32.062983  3749 net.cpp:165] Memory required for data: 94726800
I0523 20:22:32.062993  3749 layer_factory.hpp:77] Creating layer loss
I0523 20:22:32.063011  3749 net.cpp:106] Creating Layer loss
I0523 20:22:32.063021  3749 net.cpp:454] loss <- ip3
I0523 20:22:32.063032  3749 net.cpp:454] loss <- label
I0523 20:22:32.063043  3749 net.cpp:411] loss -> loss
I0523 20:22:32.063061  3749 layer_factory.hpp:77] Creating layer loss
…
I0523 20:22:32.065778  3749 solver.cpp:181] Creating test net (#0) specified by net file: /lustre/atlas/proj-shared/hep105/caffe_titan/caffe_workflow/logs_bslr/bs_60_lr_0.0050_2016-05-20T15.49.12.235131.prototxt
I0523 20:22:32.065848  3749 net.cpp:322] The NetState phase (1) differed from the phase (0) specified by a rule in layer data_hdf5
I0523 20:22:32.066205  3749 net.cpp:49] Initializing net from parameters: 
name: "caffe_test_127x50_x_unshifted"
state {
  phase: TEST
}
layer {
  name: "data_hdf5"
  type: "HDF5Data"
  top: "data"
  top: "label"
  include {
    phase: TEST
  }
  hdf5_data_param {
    source: "/lustre/atlas/proj-shared/hep105/caffe_titan/minosmatch_nukecczdefs_127x50_x_unshifted_me1Bmc.testlist"
    batch_size: 60
  }
}
layer {
  name: "conv1"
  type: "Convolution"
  bottom: "data"
  top: "conv1"
  convolution_param {
    num_output: 12
    pad: 0
    stride: 1
    weight_filler {
      type: "xavier"
    }
    bias_filler {
      type: "constant"
    }
    kernel_h: 8
    kernel_w: 3
  }
}
layer {
  name: "relu1"
  type: "ReLU"
  bottom: "conv1"
  top: "conv1"
}
layer {
  name: "pool1"
  type: "Pooling"
  bottom: "conv1"
  top: "pool1"
  pooling_param {
    pool: MAX
    kernel_h: 2
    kernel_w: 1
    stride_h: 2
    stride_w: 1
  }
}
layer {
  name: "conv2"
  type: "Convolution"
  bottom: "pool1"
  top: "conv2"
  convolution_param {
    num_output: 20
    pad: 0
    stride: 1
    weight_filler {
      type: "xavier"
    }
    bias_filler {
      type: "constant"
    }
    kernel_h: 7
    kernel_w: 3
  }
}
layer {
  name: "relu2"
  type: "ReLU"
  bottom: "conv2"
  top: "conv2"
}
layer {
  name: "pool2"
  type: "Pooling"
  bottom: "conv2"
  top: "pool2"
  pooling_param {
    pool: MAX
    kernel_h: 2
    kernel_w: 1
    stride_h: 2
    stride_w: 1
  }
}
layer {
  name: "conv3"
  type: "Convolution"
  bottom: "pool2"
  top: "conv3"
  convolution_param {
    num_output: 28
    pad: 0
    stride: 1
    weight_filler {
      type: "xavier"
    }
    bias_filler {
      type: "constant"
    }
    kernel_h: 6
    kernel_w: 3
  }
}
layer {
  name: "relu3"
  type: "ReLU"
  bottom: "conv3"
  top: "conv3"
}
layer {
  name: "pool3"
  type: "Pooling"
  bottom: "conv3"
  top: "pool3"
  pooling_param {
    pool: MAX
    kernel_h: 2
    kernel_w: 1
    stride_h: 2
    stride_w: 1
  }
}
layer {
  name: "conv4"
  type: "Convolution"
  bottom: "pool3"
  top: "conv4"
  convolution_param {
    num_output: 36
    pad: 0
    stride: 1
    weight_filler {
      type: "xavier"
    }
    bias_filler {
      type: "constant"
    }
    kernel_h: 6
    kernel_w: 3
  }
}
layer {
  name: "relu4"
  type: "ReLU"
  bottom: "conv4"
  top: "conv4"
}
layer {
  name: "pool4"
  type: "Pooling"
  bottom: "conv4"
  top: "pool4"
  pooling_param {
    pool: MAX
    kernel_h: 2
    kernel_w: 1
    stride_h: 2
    stride_w: 1
  }
}
layer {
  name: "ip1"
  type: "InnerProduct"
  bottom: "pool4"
  top: "ip1"
  inner_product_param {
    num_output: 196
    weight_filler {
      type: "xavier"
    }
    bias_filler {
      type: "constant"
    }
  }
}
layer {
  name: "relu5"
  type: "ReLU"
  bottom: "ip1"
  top: "ip1"
}
layer {
  name: "drop1"
  type: "Dropout"
  bottom: "ip1"
  top: "ip1"
  dropout_param {
    dropout_ratio: 0.5
  }
}
layer {
  name: "ip2"
  type: "InnerProduct"
  bottom: "ip1"
  top: "ip2"
  inner_product_param {
    num_output: 98
    weight_filler {
      type: "xavier"
    }
    bias_filler {
      type: "constant"
    }
  }
}
layer {
  name: "relu6"
  type: "ReLU"
  bottom: "ip2"
  top: "ip2"
}
layer {
  name: "drop2"
  type: "Dropout"
  bottom: "ip2"
  top: "ip2"
  dropout_param {
    dropout_ratio: 0.5
  }
}
layer {
  name: "ip3"
  type: "InnerProduct"
  bottom: "ip2"
  top: "ip3"
  inner_product_param {
    num_output: 11
    weight_filler {
      type: "xavier"
    }
    bias_filler {
      type: "constant"
    }
  }
}
layer {
  name: "drop3"
  type: "Dropout"
  bottom: "ip3"
  top: "ip3"
  dropout_param {
    dropout_ratio: 0.5
  }
}
layer {
  name: "accuracy"
  type: "Accuracy"
  bottom: "ip3"
  bottom: "label"
  top: "accuracy"
  include {
    phase: TEST
  }
}
layer {
  name: "loss"
  type: "SoftmaxWithLoss"
  bottom: "ip3"
  bottom: "label"
  top: "loss"
}
I0523 20:22:32.066392  3749 layer_factory.hpp:77] Creating layer data_hdf5
I0523 20:22:32.066408  3749 net.cpp:106] Creating Layer data_hdf5
I0523 20:22:32.066421  3749 net.cpp:411] data_hdf5 -> data
I0523 20:22:32.066437  3749 net.cpp:411] data_hdf5 -> label
I0523 20:22:32.066452  3749 hdf5_data_layer.cpp:79] Loading list of HDF5 filenames from: /lustre/atlas/proj-shared/hep105/caffe_titan/minosmatch_nukecczdefs_127x50_x_unshifted_me1Bmc.testlist
I0523 20:22:32.067755  3749 hdf5_data_layer.cpp:93] Number of HDF5 files: 3
I0523 20:22:53.377832  3749 net.cpp:150] Setting up data_hdf5
I0523 20:22:53.377995  3749 net.cpp:157] Top shape: 60 1 127 50 (381000)
I0523 20:22:53.378010  3749 net.cpp:157] Top shape: 60 (60)
I0523 20:22:53.378021  3749 net.cpp:165] Memory required for data: 1524240
I0523 20:22:53.378033  3749 layer_factory.hpp:77] Creating layer label_data_hdf5_1_split
I0523 20:22:53.378062  3749 net.cpp:106] Creating Layer label_data_hdf5_1_split
I0523 20:22:53.378073  3749 net.cpp:454] label_data_hdf5_1_split <- label
I0523 20:22:53.378088  3749 net.cpp:411] label_data_hdf5_1_split -> label_data_hdf5_1_split_0
I0523 20:22:53.378110  3749 net.cpp:411] label_data_hdf5_1_split -> label_data_hdf5_1_split_1
I0523 20:22:53.378181  3749 net.cpp:150] Setting up label_data_hdf5_1_split
I0523 20:22:53.378196  3749 net.cpp:157] Top shape: 60 (60)
I0523 20:22:53.378207  3749 net.cpp:157] Top shape: 60 (60)
I0523 20:22:53.378216  3749 net.cpp:165] Memory required for data: 1524720
I0523 20:22:53.378226  3749 layer_factory.hpp:77] Creating layer conv1
I0523 20:22:53.378248  3749 net.cpp:106] Creating Layer conv1
I0523 20:22:53.378259  3749 net.cpp:454] conv1 <- data
I0523 20:22:53.378273  3749 net.cpp:411] conv1 -> conv1
I0523 20:22:53.380228  3749 net.cpp:150] Setting up conv1
I0523 20:22:53.380252  3749 net.cpp:157] Top shape: 60 12 120 48 (4147200)
I0523 20:22:53.380264  3749 net.cpp:165] Memory required for data: 18113520
I0523 20:22:53.380285  3749 layer_factory.hpp:77] Creating layer relu1
I0523 20:22:53.380300  3749 net.cpp:106] Creating Layer relu1
I0523 20:22:53.380311  3749 net.cpp:454] relu1 <- conv1
I0523 20:22:53.380323  3749 net.cpp:397] relu1 -> conv1 (in-place)
I0523 20:22:53.380817  3749 net.cpp:150] Setting up relu1
I0523 20:22:53.380834  3749 net.cpp:157] Top shape: 60 12 120 48 (4147200)
I0523 20:22:53.380844  3749 net.cpp:165] Memory required for data: 34702320
I0523 20:22:53.380854  3749 layer_factory.hpp:77] Creating layer pool1
I0523 20:22:53.380870  3749 net.cpp:106] Creating Layer pool1
I0523 20:22:53.380880  3749 net.cpp:454] pool1 <- conv1
I0523 20:22:53.380894  3749 net.cpp:411] pool1 -> pool1
I0523 20:22:53.380969  3749 net.cpp:150] Setting up pool1
I0523 20:22:53.380981  3749 net.cpp:157] Top shape: 60 12 60 48 (2073600)
I0523 20:22:53.380990  3749 net.cpp:165] Memory required for data: 42996720
I0523 20:22:53.380998  3749 layer_factory.hpp:77] Creating layer conv2
I0523 20:22:53.381017  3749 net.cpp:106] Creating Layer conv2
I0523 20:22:53.381027  3749 net.cpp:454] conv2 <- pool1
I0523 20:22:53.381042  3749 net.cpp:411] conv2 -> conv2
I0523 20:22:53.382942  3749 net.cpp:150] Setting up conv2
I0523 20:22:53.382964  3749 net.cpp:157] Top shape: 60 20 54 46 (2980800)
I0523 20:22:53.382977  3749 net.cpp:165] Memory required for data: 54919920
I0523 20:22:53.382994  3749 layer_factory.hpp:77] Creating layer relu2
I0523 20:22:53.383008  3749 net.cpp:106] Creating Layer relu2
I0523 20:22:53.383018  3749 net.cpp:454] relu2 <- conv2
I0523 20:22:53.383029  3749 net.cpp:397] relu2 -> conv2 (in-place)
I0523 20:22:53.383368  3749 net.cpp:150] Setting up relu2
I0523 20:22:53.383383  3749 net.cpp:157] Top shape: 60 20 54 46 (2980800)
I0523 20:22:53.383393  3749 net.cpp:165] Memory required for data: 66843120
I0523 20:22:53.383402  3749 layer_factory.hpp:77] Creating layer pool2
I0523 20:22:53.383414  3749 net.cpp:106] Creating Layer pool2
I0523 20:22:53.383425  3749 net.cpp:454] pool2 <- conv2
I0523 20:22:53.383437  3749 net.cpp:411] pool2 -> pool2
I0523 20:22:53.383508  3749 net.cpp:150] Setting up pool2
I0523 20:22:53.383522  3749 net.cpp:157] Top shape: 60 20 27 46 (1490400)
I0523 20:22:53.383532  3749 net.cpp:165] Memory required for data: 72804720
I0523 20:22:53.383541  3749 layer_factory.hpp:77] Creating layer conv3
I0523 20:22:53.383560  3749 net.cpp:106] Creating Layer conv3
I0523 20:22:53.383571  3749 net.cpp:454] conv3 <- pool2
I0523 20:22:53.383585  3749 net.cpp:411] conv3 -> conv3
I0523 20:22:53.385550  3749 net.cpp:150] Setting up conv3
I0523 20:22:53.385573  3749 net.cpp:157] Top shape: 60 28 22 44 (1626240)
I0523 20:22:53.385584  3749 net.cpp:165] Memory required for data: 79309680
I0523 20:22:53.385617  3749 layer_factory.hpp:77] Creating layer relu3
I0523 20:22:53.385630  3749 net.cpp:106] Creating Layer relu3
I0523 20:22:53.385642  3749 net.cpp:454] relu3 <- conv3
I0523 20:22:53.385654  3749 net.cpp:397] relu3 -> conv3 (in-place)
I0523 20:22:53.386122  3749 net.cpp:150] Setting up relu3
I0523 20:22:53.386138  3749 net.cpp:157] Top shape: 60 28 22 44 (1626240)
I0523 20:22:53.386148  3749 net.cpp:165] Memory required for data: 85814640
I0523 20:22:53.386158  3749 layer_factory.hpp:77] Creating layer pool3
I0523 20:22:53.386173  3749 net.cpp:106] Creating Layer pool3
I0523 20:22:53.386181  3749 net.cpp:454] pool3 <- conv3
I0523 20:22:53.386194  3749 net.cpp:411] pool3 -> pool3
I0523 20:22:53.386266  3749 net.cpp:150] Setting up pool3
I0523 20:22:53.386279  3749 net.cpp:157] Top shape: 60 28 11 44 (813120)
I0523 20:22:53.386289  3749 net.cpp:165] Memory required for data: 89067120
I0523 20:22:53.386298  3749 layer_factory.hpp:77] Creating layer conv4
I0523 20:22:53.386317  3749 net.cpp:106] Creating Layer conv4
I0523 20:22:53.386327  3749 net.cpp:454] conv4 <- pool3
I0523 20:22:53.386342  3749 net.cpp:411] conv4 -> conv4
I0523 20:22:53.388404  3749 net.cpp:150] Setting up conv4
I0523 20:22:53.388425  3749 net.cpp:157] Top shape: 60 36 6 42 (544320)
I0523 20:22:53.388439  3749 net.cpp:165] Memory required for data: 91244400
I0523 20:22:53.388454  3749 layer_factory.hpp:77] Creating layer relu4
I0523 20:22:53.388468  3749 net.cpp:106] Creating Layer relu4
I0523 20:22:53.388478  3749 net.cpp:454] relu4 <- conv4
I0523 20:22:53.388490  3749 net.cpp:397] relu4 -> conv4 (in-place)
I0523 20:22:53.388958  3749 net.cpp:150] Setting up relu4
I0523 20:22:53.388975  3749 net.cpp:157] Top shape: 60 36 6 42 (544320)
I0523 20:22:53.388985  3749 net.cpp:165] Memory required for data: 93421680
I0523 20:22:53.388995  3749 layer_factory.hpp:77] Creating layer pool4
I0523 20:22:53.389009  3749 net.cpp:106] Creating Layer pool4
I0523 20:22:53.389019  3749 net.cpp:454] pool4 <- conv4
I0523 20:22:53.389031  3749 net.cpp:411] pool4 -> pool4
I0523 20:22:53.389103  3749 net.cpp:150] Setting up pool4
I0523 20:22:53.389117  3749 net.cpp:157] Top shape: 60 36 3 42 (272160)
I0523 20:22:53.389125  3749 net.cpp:165] Memory required for data: 94510320
I0523 20:22:53.389135  3749 layer_factory.hpp:77] Creating layer ip1
I0523 20:22:53.389150  3749 net.cpp:106] Creating Layer ip1
I0523 20:22:53.389161  3749 net.cpp:454] ip1 <- pool4
I0523 20:22:53.389174  3749 net.cpp:411] ip1 -> ip1
I0523 20:22:53.404599  3749 net.cpp:150] Setting up ip1
I0523 20:22:53.404628  3749 net.cpp:157] Top shape: 60 196 (11760)
I0523 20:22:53.404644  3749 net.cpp:165] Memory required for data: 94557360
I0523 20:22:53.404671  3749 layer_factory.hpp:77] Creating layer relu5
I0523 20:22:53.404686  3749 net.cpp:106] Creating Layer relu5
I0523 20:22:53.404697  3749 net.cpp:454] relu5 <- ip1
I0523 20:22:53.404711  3749 net.cpp:397] relu5 -> ip1 (in-place)
I0523 20:22:53.405058  3749 net.cpp:150] Setting up relu5
I0523 20:22:53.405072  3749 net.cpp:157] Top shape: 60 196 (11760)
I0523 20:22:53.405082  3749 net.cpp:165] Memory required for data: 94604400
I0523 20:22:53.405092  3749 layer_factory.hpp:77] Creating layer drop1
I0523 20:22:53.405110  3749 net.cpp:106] Creating Layer drop1
I0523 20:22:53.405120  3749 net.cpp:454] drop1 <- ip1
I0523 20:22:53.405133  3749 net.cpp:397] drop1 -> ip1 (in-place)
I0523 20:22:53.405179  3749 net.cpp:150] Setting up drop1
I0523 20:22:53.405191  3749 net.cpp:157] Top shape: 60 196 (11760)
I0523 20:22:53.405201  3749 net.cpp:165] Memory required for data: 94651440
I0523 20:22:53.405210  3749 layer_factory.hpp:77] Creating layer ip2
I0523 20:22:53.405225  3749 net.cpp:106] Creating Layer ip2
I0523 20:22:53.405235  3749 net.cpp:454] ip2 <- ip1
I0523 20:22:53.405248  3749 net.cpp:411] ip2 -> ip2
I0523 20:22:53.405726  3749 net.cpp:150] Setting up ip2
I0523 20:22:53.405740  3749 net.cpp:157] Top shape: 60 98 (5880)
I0523 20:22:53.405750  3749 net.cpp:165] Memory required for data: 94674960
I0523 20:22:53.405766  3749 layer_factory.hpp:77] Creating layer relu6
I0523 20:22:53.405791  3749 net.cpp:106] Creating Layer relu6
I0523 20:22:53.405800  3749 net.cpp:454] relu6 <- ip2
I0523 20:22:53.405813  3749 net.cpp:397] relu6 -> ip2 (in-place)
I0523 20:22:53.406350  3749 net.cpp:150] Setting up relu6
I0523 20:22:53.406373  3749 net.cpp:157] Top shape: 60 98 (5880)
I0523 20:22:53.406381  3749 net.cpp:165] Memory required for data: 94698480
I0523 20:22:53.406393  3749 layer_factory.hpp:77] Creating layer drop2
I0523 20:22:53.406405  3749 net.cpp:106] Creating Layer drop2
I0523 20:22:53.406415  3749 net.cpp:454] drop2 <- ip2
I0523 20:22:53.406429  3749 net.cpp:397] drop2 -> ip2 (in-place)
I0523 20:22:53.406472  3749 net.cpp:150] Setting up drop2
I0523 20:22:53.406486  3749 net.cpp:157] Top shape: 60 98 (5880)
I0523 20:22:53.406496  3749 net.cpp:165] Memory required for data: 94722000
I0523 20:22:53.406505  3749 layer_factory.hpp:77] Creating layer ip3
I0523 20:22:53.406518  3749 net.cpp:106] Creating Layer ip3
I0523 20:22:53.406528  3749 net.cpp:454] ip3 <- ip2
I0523 20:22:53.406543  3749 net.cpp:411] ip3 -> ip3
I0523 20:22:53.406764  3749 net.cpp:150] Setting up ip3
I0523 20:22:53.406777  3749 net.cpp:157] Top shape: 60 11 (660)
I0523 20:22:53.406786  3749 net.cpp:165] Memory required for data: 94724640
I0523 20:22:53.406801  3749 layer_factory.hpp:77] Creating layer drop3
I0523 20:22:53.406815  3749 net.cpp:106] Creating Layer drop3
I0523 20:22:53.406824  3749 net.cpp:454] drop3 <- ip3
I0523 20:22:53.406837  3749 net.cpp:397] drop3 -> ip3 (in-place)
I0523 20:22:53.406879  3749 net.cpp:150] Setting up drop3
I0523 20:22:53.406891  3749 net.cpp:157] Top shape: 60 11 (660)
I0523 20:22:53.406901  3749 net.cpp:165] Memory required for data: 94727280
I0523 20:22:53.406911  3749 layer_factory.hpp:77] Creating layer ip3_drop3_0_split
I0523 20:22:53.406924  3749 net.cpp:106] Creating Layer ip3_drop3_0_split
I0523 20:22:53.406934  3749 net.cpp:454] ip3_drop3_0_split <- ip3
I0523 20:22:53.406946  3749 net.cpp:411] ip3_drop3_0_split -> ip3_drop3_0_split_0
I0523 20:22:53.406961  3749 net.cpp:411] ip3_drop3_0_split -> ip3_drop3_0_split_1
I0523 20:22:53.407035  3749 net.cpp:150] Setting up ip3_drop3_0_split
I0523 20:22:53.407049  3749 net.cpp:157] Top shape: 60 11 (660)
I0523 20:22:53.407061  3749 net.cpp:157] Top shape: 60 11 (660)
I0523 20:22:53.407071  3749 net.cpp:165] Memory required for data: 94732560
I0523 20:22:53.407081  3749 layer_factory.hpp:77] Creating layer accuracy
I0523 20:22:53.407102  3749 net.cpp:106] Creating Layer accuracy
I0523 20:22:53.407112  3749 net.cpp:454] accuracy <- ip3_drop3_0_split_0
I0523 20:22:53.407124  3749 net.cpp:454] accuracy <- label_data_hdf5_1_split_0
I0523 20:22:53.407137  3749 net.cpp:411] accuracy -> accuracy
…
