…
I0523 12:18:45.031131  1495 net.cpp:322] The NetState phase (0) differed from the phase (1) specified by a rule in layer data_hdf5
I0523 12:18:45.031189  1495 net.cpp:322] The NetState phase (0) differed from the phase (1) specified by a rule in layer accuracy
I0523 12:18:45.031535  1495 net.cpp:49] Initializing net from parameters: 
name: "caffe_test_127x50_x_unshifted"
state {
  phase: TRAIN
}
layer {
  name: "data_hdf5"
  type: "HDF5Data"
  top: "data"
  top: "label"
  include {
    phase: TRAIN
  }
  hdf5_data_param {
    source: "/lustre/atlas/proj-shared/hep105/caffe_titan/minosmatch_nukecczdefs_127x50_x_unshifted_me1Bmc.trainlist"
    batch_size: 60
  }
}
layer {
  name: "conv1"
  type: "Convolution"
  bottom: "data"
  top: "conv1"
  convolution_param {
    num_output: 12
    pad: 0
    stride: 1
    weight_filler {
      type: "xavier"
    }
    bias_filler {
      type: "constant"
    }
    kernel_h: 8
    kernel_w: 3
  }
}
layer {
  name: "relu1"
  type: "ReLU"
  bottom: "conv1"
  top: "conv1"
}
layer {
  name: "pool1"
  type: "Pooling"
  bottom: "conv1"
  top: "pool1"
  pooling_param {
    pool: MAX
    kernel_h: 2
    kernel_w: 1
    stride_h: 2
    stride_w: 1
  }
}
layer {
  name: "conv2"
  type: "Convolution"
  bottom: "pool1"
  top: "conv2"
  convolution_param {
    num_output: 20
    pad: 0
    stride: 1
    weight_filler {
      type: "xavier"
    }
    bias_filler {
      type: "constant"
    }
    kernel_h: 7
    kernel_w: 3
  }
}
layer {
  name: "relu2"
  type: "ReLU"
  bottom: "conv2"
  top: "conv2"
}
layer {
  name: "pool2"
  type: "Pooling"
  bottom: "conv2"
  top: "pool2"
  pooling_param {
    pool: MAX
    kernel_h: 2
    kernel_w: 1
    stride_h: 2
    stride_w: 1
  }
}
layer {
  name: "conv3"
  type: "Convolution"
  bottom: "pool2"
  top: "conv3"
  convolution_param {
    num_output: 28
    pad: 0
    stride: 1
    weight_filler {
      type: "xavier"
    }
    bias_filler {
      type: "constant"
    }
    kernel_h: 6
    kernel_w: 3
  }
}
layer {
  name: "relu3"
  type: "ReLU"
  bottom: "conv3"
  top: "conv3"
}
layer {
  name: "pool3"
  type: "Pooling"
  bottom: "conv3"
  top: "pool3"
  pooling_param {
    pool: MAX
    kernel_h: 2
    kernel_w: 1
    stride_h: 2
    stride_w: 1
  }
}
layer {
  name: "conv4"
  type: "Convolution"
  bottom: "pool3"
  top: "conv4"
  convolution_param {
    num_output: 36
    pad: 0
    stride: 1
    weight_filler {
      type: "xavier"
    }
    bias_filler {
      type: "constant"
    }
    kernel_h: 6
    kernel_w: 3
  }
}
layer {
  name: "relu4"
  type: "ReLU"
  bottom: "conv4"
  top: "conv4"
}
layer {
  name: "pool4"
  type: "Pooling"
  bottom: "conv4"
  top: "pool4"
  pooling_param {
    pool: MAX
    kernel_h: 2
    kernel_w: 1
    stride_h: 2
    stride_w: 1
  }
}
layer {
  name: "ip1"
  type: "InnerProduct"
  bottom: "pool4"
  top: "ip1"
  inner_product_param {
    num_output: 196
    weight_filler {
      type: "xavier"
    }
    bias_filler {
      type: "constant"
    }
  }
}
layer {
  name: "relu5"
  type: "ReLU"
  bottom: "ip1"
  top: "ip1"
}
layer {
  name: "drop1"
  type: "Dropout"
  bottom: "ip1"
  top: "ip1"
  dropout_param {
    dropout_ratio: 0.5
  }
}
layer {
  name: "ip2"
  type: "InnerProduct"
  bottom: "ip1"
  top: "ip2"
  inner_product_param {
    num_output: 98
    weight_filler {
      type: "xavier"
    }
    bias_filler {
      type: "constant"
    }
  }
}
layer {
  name: "relu6"
  type: "ReLU"
  bottom: "ip2"
  top: "ip2"
}
layer {
  name: "drop2"
  type: "Dropout"
  bottom: "ip2"
  top: "ip2"
  dropout_param {
    dropout_ratio: 0.5
  }
}
layer {
  name: "ip3"
  type: "InnerProduct"
  bottom: "ip2"
  top: "ip3"
  inner_product_param {
    num_output: 11
    weight_filler {
      type: "xavier"
    }
    bias_filler {
      type: "constant"
    }
  }
}
layer {
  name: "drop3"
  type: "Dropout"
  bottom: "ip3"
  top: "ip3"
  dropout_param {
    dropout_ratio: 0.5
  }
}
layer {
  name: "loss"
  type: "SoftmaxWithLoss"
  bottom: "ip3"
  bottom: "label"
  top: "loss"
}
I0523 12:18:45.031723  1495 layer_factory.hpp:77] Creating layer data_hdf5
I0523 12:18:45.031747  1495 net.cpp:106] Creating Layer data_hdf5
I0523 12:18:45.031762  1495 net.cpp:411] data_hdf5 -> data
I0523 12:18:45.031795  1495 net.cpp:411] data_hdf5 -> label
I0523 12:18:45.031827  1495 hdf5_data_layer.cpp:79] Loading list of HDF5 filenames from: /lustre/atlas/proj-shared/hep105/caffe_titan/minosmatch_nukecczdefs_127x50_x_unshifted_me1Bmc.trainlist
I0523 12:18:45.046922  1495 hdf5_data_layer.cpp:93] Number of HDF5 files: 15
I0523 12:18:45.049290  1495 hdf5.cpp:32] Datatype class: H5T_FLOAT
I0523 12:19:06.622313  1495 hdf5.cpp:35] Datatype class: H5T_INTEGER
I0523 12:19:06.627565  1495 net.cpp:150] Setting up data_hdf5
I0523 12:19:06.627605  1495 net.cpp:157] Top shape: 60 1 127 50 (381000)
I0523 12:19:06.627620  1495 net.cpp:157] Top shape: 60 (60)
I0523 12:19:06.627632  1495 net.cpp:165] Memory required for data: 1524240
I0523 12:19:06.627645  1495 layer_factory.hpp:77] Creating layer conv1
I0523 12:19:06.627679  1495 net.cpp:106] Creating Layer conv1
I0523 12:19:06.627691  1495 net.cpp:454] conv1 <- data
I0523 12:19:06.627712  1495 net.cpp:411] conv1 -> conv1
I0523 12:19:08.076745  1495 net.cpp:150] Setting up conv1
I0523 12:19:08.076786  1495 net.cpp:157] Top shape: 60 12 120 48 (4147200)
I0523 12:19:08.076797  1495 net.cpp:165] Memory required for data: 18113040
I0523 12:19:08.076825  1495 layer_factory.hpp:77] Creating layer relu1
I0523 12:19:08.076848  1495 net.cpp:106] Creating Layer relu1
I0523 12:19:08.076858  1495 net.cpp:454] relu1 <- conv1
I0523 12:19:08.076871  1495 net.cpp:397] relu1 -> conv1 (in-place)
I0523 12:19:08.077389  1495 net.cpp:150] Setting up relu1
I0523 12:19:08.077406  1495 net.cpp:157] Top shape: 60 12 120 48 (4147200)
I0523 12:19:08.077416  1495 net.cpp:165] Memory required for data: 34701840
I0523 12:19:08.077426  1495 layer_factory.hpp:77] Creating layer pool1
I0523 12:19:08.077443  1495 net.cpp:106] Creating Layer pool1
I0523 12:19:08.077453  1495 net.cpp:454] pool1 <- conv1
I0523 12:19:08.077466  1495 net.cpp:411] pool1 -> pool1
I0523 12:19:08.077558  1495 net.cpp:150] Setting up pool1
I0523 12:19:08.077572  1495 net.cpp:157] Top shape: 60 12 60 48 (2073600)
I0523 12:19:08.077582  1495 net.cpp:165] Memory required for data: 42996240
I0523 12:19:08.077594  1495 layer_factory.hpp:77] Creating layer conv2
I0523 12:19:08.077615  1495 net.cpp:106] Creating Layer conv2
I0523 12:19:08.077625  1495 net.cpp:454] conv2 <- pool1
I0523 12:19:08.077639  1495 net.cpp:411] conv2 -> conv2
I0523 12:19:08.080391  1495 net.cpp:150] Setting up conv2
I0523 12:19:08.080420  1495 net.cpp:157] Top shape: 60 20 54 46 (2980800)
I0523 12:19:08.080430  1495 net.cpp:165] Memory required for data: 54919440
I0523 12:19:08.080448  1495 layer_factory.hpp:77] Creating layer relu2
I0523 12:19:08.080463  1495 net.cpp:106] Creating Layer relu2
I0523 12:19:08.080473  1495 net.cpp:454] relu2 <- conv2
I0523 12:19:08.080485  1495 net.cpp:397] relu2 -> conv2 (in-place)
I0523 12:19:08.080816  1495 net.cpp:150] Setting up relu2
I0523 12:19:08.080831  1495 net.cpp:157] Top shape: 60 20 54 46 (2980800)
I0523 12:19:08.080842  1495 net.cpp:165] Memory required for data: 66842640
I0523 12:19:08.080852  1495 layer_factory.hpp:77] Creating layer pool2
I0523 12:19:08.080864  1495 net.cpp:106] Creating Layer pool2
I0523 12:19:08.080874  1495 net.cpp:454] pool2 <- conv2
I0523 12:19:08.080886  1495 net.cpp:411] pool2 -> pool2
I0523 12:19:08.080967  1495 net.cpp:150] Setting up pool2
I0523 12:19:08.080981  1495 net.cpp:157] Top shape: 60 20 27 46 (1490400)
I0523 12:19:08.080991  1495 net.cpp:165] Memory required for data: 72804240
I0523 12:19:08.080998  1495 layer_factory.hpp:77] Creating layer conv3
I0523 12:19:08.081017  1495 net.cpp:106] Creating Layer conv3
I0523 12:19:08.081027  1495 net.cpp:454] conv3 <- pool2
I0523 12:19:08.081042  1495 net.cpp:411] conv3 -> conv3
I0523 12:19:08.082993  1495 net.cpp:150] Setting up conv3
I0523 12:19:08.083015  1495 net.cpp:157] Top shape: 60 28 22 44 (1626240)
I0523 12:19:08.083029  1495 net.cpp:165] Memory required for data: 79309200
I0523 12:19:08.083046  1495 layer_factory.hpp:77] Creating layer relu3
I0523 12:19:08.083063  1495 net.cpp:106] Creating Layer relu3
I0523 12:19:08.083073  1495 net.cpp:454] relu3 <- conv3
I0523 12:19:08.083086  1495 net.cpp:397] relu3 -> conv3 (in-place)
I0523 12:19:08.083554  1495 net.cpp:150] Setting up relu3
I0523 12:19:08.083572  1495 net.cpp:157] Top shape: 60 28 22 44 (1626240)
I0523 12:19:08.083582  1495 net.cpp:165] Memory required for data: 85814160
I0523 12:19:08.083595  1495 layer_factory.hpp:77] Creating layer pool3
I0523 12:19:08.083607  1495 net.cpp:106] Creating Layer pool3
I0523 12:19:08.083617  1495 net.cpp:454] pool3 <- conv3
I0523 12:19:08.083631  1495 net.cpp:411] pool3 -> pool3
I0523 12:19:08.083698  1495 net.cpp:150] Setting up pool3
I0523 12:19:08.083711  1495 net.cpp:157] Top shape: 60 28 11 44 (813120)
I0523 12:19:08.083720  1495 net.cpp:165] Memory required for data: 89066640
I0523 12:19:08.083729  1495 layer_factory.hpp:77] Creating layer conv4
I0523 12:19:08.083746  1495 net.cpp:106] Creating Layer conv4
I0523 12:19:08.083756  1495 net.cpp:454] conv4 <- pool3
I0523 12:19:08.083770  1495 net.cpp:411] conv4 -> conv4
I0523 12:19:08.086539  1495 net.cpp:150] Setting up conv4
I0523 12:19:08.086567  1495 net.cpp:157] Top shape: 60 36 6 42 (544320)
I0523 12:19:08.086580  1495 net.cpp:165] Memory required for data: 91243920
I0523 12:19:08.086596  1495 layer_factory.hpp:77] Creating layer relu4
I0523 12:19:08.086609  1495 net.cpp:106] Creating Layer relu4
I0523 12:19:08.086621  1495 net.cpp:454] relu4 <- conv4
I0523 12:19:08.086633  1495 net.cpp:397] relu4 -> conv4 (in-place)
I0523 12:19:08.087102  1495 net.cpp:150] Setting up relu4
I0523 12:19:08.087119  1495 net.cpp:157] Top shape: 60 36 6 42 (544320)
I0523 12:19:08.087129  1495 net.cpp:165] Memory required for data: 93421200
I0523 12:19:08.087141  1495 layer_factory.hpp:77] Creating layer pool4
I0523 12:19:08.087154  1495 net.cpp:106] Creating Layer pool4
I0523 12:19:08.087164  1495 net.cpp:454] pool4 <- conv4
I0523 12:19:08.087177  1495 net.cpp:411] pool4 -> pool4
I0523 12:19:08.087245  1495 net.cpp:150] Setting up pool4
I0523 12:19:08.087260  1495 net.cpp:157] Top shape: 60 36 3 42 (272160)
I0523 12:19:08.087270  1495 net.cpp:165] Memory required for data: 94509840
I0523 12:19:08.087280  1495 layer_factory.hpp:77] Creating layer ip1
I0523 12:19:08.087298  1495 net.cpp:106] Creating Layer ip1
I0523 12:19:08.087308  1495 net.cpp:454] ip1 <- pool4
I0523 12:19:08.087322  1495 net.cpp:411] ip1 -> ip1
I0523 12:19:08.102746  1495 net.cpp:150] Setting up ip1
I0523 12:19:08.102774  1495 net.cpp:157] Top shape: 60 196 (11760)
I0523 12:19:08.102787  1495 net.cpp:165] Memory required for data: 94556880
I0523 12:19:08.102809  1495 layer_factory.hpp:77] Creating layer relu5
I0523 12:19:08.102824  1495 net.cpp:106] Creating Layer relu5
I0523 12:19:08.102835  1495 net.cpp:454] relu5 <- ip1
I0523 12:19:08.102849  1495 net.cpp:397] relu5 -> ip1 (in-place)
I0523 12:19:08.103191  1495 net.cpp:150] Setting up relu5
I0523 12:19:08.103205  1495 net.cpp:157] Top shape: 60 196 (11760)
I0523 12:19:08.103216  1495 net.cpp:165] Memory required for data: 94603920
I0523 12:19:08.103226  1495 layer_factory.hpp:77] Creating layer drop1
I0523 12:19:08.103250  1495 net.cpp:106] Creating Layer drop1
I0523 12:19:08.103260  1495 net.cpp:454] drop1 <- ip1
I0523 12:19:08.103273  1495 net.cpp:397] drop1 -> ip1 (in-place)
I0523 12:19:08.103332  1495 net.cpp:150] Setting up drop1
I0523 12:19:08.103345  1495 net.cpp:157] Top shape: 60 196 (11760)
I0523 12:19:08.103355  1495 net.cpp:165] Memory required for data: 94650960
I0523 12:19:08.103366  1495 layer_factory.hpp:77] Creating layer ip2
I0523 12:19:08.103384  1495 net.cpp:106] Creating Layer ip2
I0523 12:19:08.103394  1495 net.cpp:454] ip2 <- ip1
I0523 12:19:08.103409  1495 net.cpp:411] ip2 -> ip2
I0523 12:19:08.103870  1495 net.cpp:150] Setting up ip2
I0523 12:19:08.103883  1495 net.cpp:157] Top shape: 60 98 (5880)
I0523 12:19:08.103893  1495 net.cpp:165] Memory required for data: 94674480
I0523 12:19:08.103909  1495 layer_factory.hpp:77] Creating layer relu6
I0523 12:19:08.103921  1495 net.cpp:106] Creating Layer relu6
I0523 12:19:08.103930  1495 net.cpp:454] relu6 <- ip2
I0523 12:19:08.103943  1495 net.cpp:397] relu6 -> ip2 (in-place)
I0523 12:19:08.104460  1495 net.cpp:150] Setting up relu6
I0523 12:19:08.104475  1495 net.cpp:157] Top shape: 60 98 (5880)
I0523 12:19:08.104485  1495 net.cpp:165] Memory required for data: 94698000
I0523 12:19:08.104496  1495 layer_factory.hpp:77] Creating layer drop2
I0523 12:19:08.104509  1495 net.cpp:106] Creating Layer drop2
I0523 12:19:08.104518  1495 net.cpp:454] drop2 <- ip2
I0523 12:19:08.104532  1495 net.cpp:397] drop2 -> ip2 (in-place)
I0523 12:19:08.104573  1495 net.cpp:150] Setting up drop2
I0523 12:19:08.104586  1495 net.cpp:157] Top shape: 60 98 (5880)
I0523 12:19:08.104598  1495 net.cpp:165] Memory required for data: 94721520
I0523 12:19:08.104607  1495 layer_factory.hpp:77] Creating layer ip3
I0523 12:19:08.104621  1495 net.cpp:106] Creating Layer ip3
I0523 12:19:08.104630  1495 net.cpp:454] ip3 <- ip2
I0523 12:19:08.104643  1495 net.cpp:411] ip3 -> ip3
I0523 12:19:08.104853  1495 net.cpp:150] Setting up ip3
I0523 12:19:08.104866  1495 net.cpp:157] Top shape: 60 11 (660)
I0523 12:19:08.104877  1495 net.cpp:165] Memory required for data: 94724160
I0523 12:19:08.104892  1495 layer_factory.hpp:77] Creating layer drop3
I0523 12:19:08.104905  1495 net.cpp:106] Creating Layer drop3
I0523 12:19:08.104914  1495 net.cpp:454] drop3 <- ip3
I0523 12:19:08.104926  1495 net.cpp:397] drop3 -> ip3 (in-place)
I0523 12:19:08.104966  1495 net.cpp:150] Setting up drop3
I0523 12:19:08.104979  1495 net.cpp:157] Top shape: 60 11 (660)
I0523 12:19:08.104990  1495 net.cpp:165] Memory required for data: 94726800
I0523 12:19:08.105000  1495 layer_factory.hpp:77] Creating layer loss
I0523 12:19:08.105018  1495 net.cpp:106] Creating Layer loss
I0523 12:19:08.105028  1495 net.cpp:454] loss <- ip3
I0523 12:19:08.105039  1495 net.cpp:454] loss <- label
I0523 12:19:08.105051  1495 net.cpp:411] loss -> loss
I0523 12:19:08.105067  1495 layer_factory.hpp:77] Creating layer loss
…
I0523 12:19:08.107774  1495 solver.cpp:181] Creating test net (#0) specified by net file: /lustre/atlas/proj-shared/hep105/caffe_titan/caffe_workflow/logs_bslr/bs_60_lr_0.0010_2016-05-20T15.49.09.172977.prototxt
I0523 12:19:08.107846  1495 net.cpp:322] The NetState phase (1) differed from the phase (0) specified by a rule in layer data_hdf5
I0523 12:19:08.108203  1495 net.cpp:49] Initializing net from parameters: 
name: "caffe_test_127x50_x_unshifted"
state {
  phase: TEST
}
layer {
  name: "data_hdf5"
  type: "HDF5Data"
  top: "data"
  top: "label"
  include {
    phase: TEST
  }
  hdf5_data_param {
    source: "/lustre/atlas/proj-shared/hep105/caffe_titan/minosmatch_nukecczdefs_127x50_x_unshifted_me1Bmc.testlist"
    batch_size: 60
  }
}
layer {
  name: "conv1"
  type: "Convolution"
  bottom: "data"
  top: "conv1"
  convolution_param {
    num_output: 12
    pad: 0
    stride: 1
    weight_filler {
      type: "xavier"
    }
    bias_filler {
      type: "constant"
    }
    kernel_h: 8
    kernel_w: 3
  }
}
layer {
  name: "relu1"
  type: "ReLU"
  bottom: "conv1"
  top: "conv1"
}
layer {
  name: "pool1"
  type: "Pooling"
  bottom: "conv1"
  top: "pool1"
  pooling_param {
    pool: MAX
    kernel_h: 2
    kernel_w: 1
    stride_h: 2
    stride_w: 1
  }
}
layer {
  name: "conv2"
  type: "Convolution"
  bottom: "pool1"
  top: "conv2"
  convolution_param {
    num_output: 20
    pad: 0
    stride: 1
    weight_filler {
      type: "xavier"
    }
    bias_filler {
      type: "constant"
    }
    kernel_h: 7
    kernel_w: 3
  }
}
layer {
  name: "relu2"
  type: "ReLU"
  bottom: "conv2"
  top: "conv2"
}
layer {
  name: "pool2"
  type: "Pooling"
  bottom: "conv2"
  top: "pool2"
  pooling_param {
    pool: MAX
    kernel_h: 2
    kernel_w: 1
    stride_h: 2
    stride_w: 1
  }
}
layer {
  name: "conv3"
  type: "Convolution"
  bottom: "pool2"
  top: "conv3"
  convolution_param {
    num_output: 28
    pad: 0
    stride: 1
    weight_filler {
      type: "xavier"
    }
    bias_filler {
      type: "constant"
    }
    kernel_h: 6
    kernel_w: 3
  }
}
layer {
  name: "relu3"
  type: "ReLU"
  bottom: "conv3"
  top: "conv3"
}
layer {
  name: "pool3"
  type: "Pooling"
  bottom: "conv3"
  top: "pool3"
  pooling_param {
    pool: MAX
    kernel_h: 2
    kernel_w: 1
    stride_h: 2
    stride_w: 1
  }
}
layer {
  name: "conv4"
  type: "Convolution"
  bottom: "pool3"
  top: "conv4"
  convolution_param {
    num_output: 36
    pad: 0
    stride: 1
    weight_filler {
      type: "xavier"
    }
    bias_filler {
      type: "constant"
    }
    kernel_h: 6
    kernel_w: 3
  }
}
layer {
  name: "relu4"
  type: "ReLU"
  bottom: "conv4"
  top: "conv4"
}
layer {
  name: "pool4"
  type: "Pooling"
  bottom: "conv4"
  top: "pool4"
  pooling_param {
    pool: MAX
    kernel_h: 2
    kernel_w: 1
    stride_h: 2
    stride_w: 1
  }
}
layer {
  name: "ip1"
  type: "InnerProduct"
  bottom: "pool4"
  top: "ip1"
  inner_product_param {
    num_output: 196
    weight_filler {
      type: "xavier"
    }
    bias_filler {
      type: "constant"
    }
  }
}
layer {
  name: "relu5"
  type: "ReLU"
  bottom: "ip1"
  top: "ip1"
}
layer {
  name: "drop1"
  type: "Dropout"
  bottom: "ip1"
  top: "ip1"
  dropout_param {
    dropout_ratio: 0.5
  }
}
layer {
  name: "ip2"
  type: "InnerProduct"
  bottom: "ip1"
  top: "ip2"
  inner_product_param {
    num_output: 98
    weight_filler {
      type: "xavier"
    }
    bias_filler {
      type: "constant"
    }
  }
}
layer {
  name: "relu6"
  type: "ReLU"
  bottom: "ip2"
  top: "ip2"
}
layer {
  name: "drop2"
  type: "Dropout"
  bottom: "ip2"
  top: "ip2"
  dropout_param {
    dropout_ratio: 0.5
  }
}
layer {
  name: "ip3"
  type: "InnerProduct"
  bottom: "ip2"
  top: "ip3"
  inner_product_param {
    num_output: 11
    weight_filler {
      type: "xavier"
    }
    bias_filler {
      type: "constant"
    }
  }
}
layer {
  name: "drop3"
  type: "Dropout"
  bottom: "ip3"
  top: "ip3"
  dropout_param {
    dropout_ratio: 0.5
  }
}
layer {
  name: "accuracy"
  type: "Accuracy"
  bottom: "ip3"
  bottom: "label"
  top: "accuracy"
  include {
    phase: TEST
  }
}
layer {
  name: "loss"
  type: "SoftmaxWithLoss"
  bottom: "ip3"
  bottom: "label"
  top: "loss"
}
I0523 12:19:08.108392  1495 layer_factory.hpp:77] Creating layer data_hdf5
I0523 12:19:08.108407  1495 net.cpp:106] Creating Layer data_hdf5
I0523 12:19:08.108418  1495 net.cpp:411] data_hdf5 -> data
I0523 12:19:08.108434  1495 net.cpp:411] data_hdf5 -> label
I0523 12:19:08.108450  1495 hdf5_data_layer.cpp:79] Loading list of HDF5 filenames from: /lustre/atlas/proj-shared/hep105/caffe_titan/minosmatch_nukecczdefs_127x50_x_unshifted_me1Bmc.testlist
I0523 12:19:08.109685  1495 hdf5_data_layer.cpp:93] Number of HDF5 files: 3
I0523 12:19:29.521983  1495 net.cpp:150] Setting up data_hdf5
I0523 12:19:29.522148  1495 net.cpp:157] Top shape: 60 1 127 50 (381000)
I0523 12:19:29.522162  1495 net.cpp:157] Top shape: 60 (60)
I0523 12:19:29.522172  1495 net.cpp:165] Memory required for data: 1524240
I0523 12:19:29.522186  1495 layer_factory.hpp:77] Creating layer label_data_hdf5_1_split
I0523 12:19:29.522215  1495 net.cpp:106] Creating Layer label_data_hdf5_1_split
I0523 12:19:29.522227  1495 net.cpp:454] label_data_hdf5_1_split <- label
I0523 12:19:29.522240  1495 net.cpp:411] label_data_hdf5_1_split -> label_data_hdf5_1_split_0
I0523 12:19:29.522263  1495 net.cpp:411] label_data_hdf5_1_split -> label_data_hdf5_1_split_1
I0523 12:19:29.522335  1495 net.cpp:150] Setting up label_data_hdf5_1_split
I0523 12:19:29.522348  1495 net.cpp:157] Top shape: 60 (60)
I0523 12:19:29.522359  1495 net.cpp:157] Top shape: 60 (60)
I0523 12:19:29.522369  1495 net.cpp:165] Memory required for data: 1524720
I0523 12:19:29.522379  1495 layer_factory.hpp:77] Creating layer conv1
I0523 12:19:29.522402  1495 net.cpp:106] Creating Layer conv1
I0523 12:19:29.522411  1495 net.cpp:454] conv1 <- data
I0523 12:19:29.522425  1495 net.cpp:411] conv1 -> conv1
I0523 12:19:29.524364  1495 net.cpp:150] Setting up conv1
I0523 12:19:29.524389  1495 net.cpp:157] Top shape: 60 12 120 48 (4147200)
I0523 12:19:29.524399  1495 net.cpp:165] Memory required for data: 18113520
I0523 12:19:29.524420  1495 layer_factory.hpp:77] Creating layer relu1
I0523 12:19:29.524435  1495 net.cpp:106] Creating Layer relu1
I0523 12:19:29.524444  1495 net.cpp:454] relu1 <- conv1
I0523 12:19:29.524457  1495 net.cpp:397] relu1 -> conv1 (in-place)
I0523 12:19:29.524951  1495 net.cpp:150] Setting up relu1
I0523 12:19:29.524967  1495 net.cpp:157] Top shape: 60 12 120 48 (4147200)
I0523 12:19:29.524977  1495 net.cpp:165] Memory required for data: 34702320
I0523 12:19:29.524986  1495 layer_factory.hpp:77] Creating layer pool1
I0523 12:19:29.525003  1495 net.cpp:106] Creating Layer pool1
I0523 12:19:29.525012  1495 net.cpp:454] pool1 <- conv1
I0523 12:19:29.525025  1495 net.cpp:411] pool1 -> pool1
I0523 12:19:29.525099  1495 net.cpp:150] Setting up pool1
I0523 12:19:29.525112  1495 net.cpp:157] Top shape: 60 12 60 48 (2073600)
I0523 12:19:29.525122  1495 net.cpp:165] Memory required for data: 42996720
I0523 12:19:29.525132  1495 layer_factory.hpp:77] Creating layer conv2
I0523 12:19:29.525151  1495 net.cpp:106] Creating Layer conv2
I0523 12:19:29.525161  1495 net.cpp:454] conv2 <- pool1
I0523 12:19:29.525176  1495 net.cpp:411] conv2 -> conv2
I0523 12:19:29.527089  1495 net.cpp:150] Setting up conv2
I0523 12:19:29.527112  1495 net.cpp:157] Top shape: 60 20 54 46 (2980800)
I0523 12:19:29.527123  1495 net.cpp:165] Memory required for data: 54919920
I0523 12:19:29.527140  1495 layer_factory.hpp:77] Creating layer relu2
I0523 12:19:29.527153  1495 net.cpp:106] Creating Layer relu2
I0523 12:19:29.527163  1495 net.cpp:454] relu2 <- conv2
I0523 12:19:29.527176  1495 net.cpp:397] relu2 -> conv2 (in-place)
I0523 12:19:29.527506  1495 net.cpp:150] Setting up relu2
I0523 12:19:29.527520  1495 net.cpp:157] Top shape: 60 20 54 46 (2980800)
I0523 12:19:29.527530  1495 net.cpp:165] Memory required for data: 66843120
I0523 12:19:29.527539  1495 layer_factory.hpp:77] Creating layer pool2
I0523 12:19:29.527552  1495 net.cpp:106] Creating Layer pool2
I0523 12:19:29.527562  1495 net.cpp:454] pool2 <- conv2
I0523 12:19:29.527575  1495 net.cpp:411] pool2 -> pool2
I0523 12:19:29.527645  1495 net.cpp:150] Setting up pool2
I0523 12:19:29.527658  1495 net.cpp:157] Top shape: 60 20 27 46 (1490400)
I0523 12:19:29.527667  1495 net.cpp:165] Memory required for data: 72804720
I0523 12:19:29.527678  1495 layer_factory.hpp:77] Creating layer conv3
I0523 12:19:29.527696  1495 net.cpp:106] Creating Layer conv3
I0523 12:19:29.527706  1495 net.cpp:454] conv3 <- pool2
I0523 12:19:29.527717  1495 net.cpp:411] conv3 -> conv3
I0523 12:19:29.529685  1495 net.cpp:150] Setting up conv3
I0523 12:19:29.529707  1495 net.cpp:157] Top shape: 60 28 22 44 (1626240)
I0523 12:19:29.529717  1495 net.cpp:165] Memory required for data: 79309680
I0523 12:19:29.529749  1495 layer_factory.hpp:77] Creating layer relu3
I0523 12:19:29.529762  1495 net.cpp:106] Creating Layer relu3
I0523 12:19:29.529772  1495 net.cpp:454] relu3 <- conv3
I0523 12:19:29.529785  1495 net.cpp:397] relu3 -> conv3 (in-place)
I0523 12:19:29.530253  1495 net.cpp:150] Setting up relu3
I0523 12:19:29.530269  1495 net.cpp:157] Top shape: 60 28 22 44 (1626240)
I0523 12:19:29.530280  1495 net.cpp:165] Memory required for data: 85814640
I0523 12:19:29.530289  1495 layer_factory.hpp:77] Creating layer pool3
I0523 12:19:29.530303  1495 net.cpp:106] Creating Layer pool3
I0523 12:19:29.530311  1495 net.cpp:454] pool3 <- conv3
I0523 12:19:29.530324  1495 net.cpp:411] pool3 -> pool3
I0523 12:19:29.530395  1495 net.cpp:150] Setting up pool3
I0523 12:19:29.530408  1495 net.cpp:157] Top shape: 60 28 11 44 (813120)
I0523 12:19:29.530417  1495 net.cpp:165] Memory required for data: 89067120
I0523 12:19:29.530427  1495 layer_factory.hpp:77] Creating layer conv4
I0523 12:19:29.530443  1495 net.cpp:106] Creating Layer conv4
I0523 12:19:29.530453  1495 net.cpp:454] conv4 <- pool3
I0523 12:19:29.530465  1495 net.cpp:411] conv4 -> conv4
I0523 12:19:29.532552  1495 net.cpp:150] Setting up conv4
I0523 12:19:29.532568  1495 net.cpp:157] Top shape: 60 36 6 42 (544320)
I0523 12:19:29.532578  1495 net.cpp:165] Memory required for data: 91244400
I0523 12:19:29.532595  1495 layer_factory.hpp:77] Creating layer relu4
I0523 12:19:29.532608  1495 net.cpp:106] Creating Layer relu4
I0523 12:19:29.532618  1495 net.cpp:454] relu4 <- conv4
I0523 12:19:29.532631  1495 net.cpp:397] relu4 -> conv4 (in-place)
I0523 12:19:29.533102  1495 net.cpp:150] Setting up relu4
I0523 12:19:29.533118  1495 net.cpp:157] Top shape: 60 36 6 42 (544320)
I0523 12:19:29.533128  1495 net.cpp:165] Memory required for data: 93421680
I0523 12:19:29.533138  1495 layer_factory.hpp:77] Creating layer pool4
I0523 12:19:29.533150  1495 net.cpp:106] Creating Layer pool4
I0523 12:19:29.533160  1495 net.cpp:454] pool4 <- conv4
I0523 12:19:29.533174  1495 net.cpp:411] pool4 -> pool4
I0523 12:19:29.533243  1495 net.cpp:150] Setting up pool4
I0523 12:19:29.533257  1495 net.cpp:157] Top shape: 60 36 3 42 (272160)
I0523 12:19:29.533265  1495 net.cpp:165] Memory required for data: 94510320
I0523 12:19:29.533275  1495 layer_factory.hpp:77] Creating layer ip1
I0523 12:19:29.533290  1495 net.cpp:106] Creating Layer ip1
I0523 12:19:29.533300  1495 net.cpp:454] ip1 <- pool4
I0523 12:19:29.533313  1495 net.cpp:411] ip1 -> ip1
I0523 12:19:29.548719  1495 net.cpp:150] Setting up ip1
I0523 12:19:29.548748  1495 net.cpp:157] Top shape: 60 196 (11760)
I0523 12:19:29.548763  1495 net.cpp:165] Memory required for data: 94557360
I0523 12:19:29.548784  1495 layer_factory.hpp:77] Creating layer relu5
I0523 12:19:29.548799  1495 net.cpp:106] Creating Layer relu5
I0523 12:19:29.548810  1495 net.cpp:454] relu5 <- ip1
I0523 12:19:29.548825  1495 net.cpp:397] relu5 -> ip1 (in-place)
I0523 12:19:29.549171  1495 net.cpp:150] Setting up relu5
I0523 12:19:29.549186  1495 net.cpp:157] Top shape: 60 196 (11760)
I0523 12:19:29.549196  1495 net.cpp:165] Memory required for data: 94604400
I0523 12:19:29.549206  1495 layer_factory.hpp:77] Creating layer drop1
I0523 12:19:29.549224  1495 net.cpp:106] Creating Layer drop1
I0523 12:19:29.549234  1495 net.cpp:454] drop1 <- ip1
I0523 12:19:29.549247  1495 net.cpp:397] drop1 -> ip1 (in-place)
I0523 12:19:29.549293  1495 net.cpp:150] Setting up drop1
I0523 12:19:29.549305  1495 net.cpp:157] Top shape: 60 196 (11760)
I0523 12:19:29.549315  1495 net.cpp:165] Memory required for data: 94651440
I0523 12:19:29.549325  1495 layer_factory.hpp:77] Creating layer ip2
I0523 12:19:29.549340  1495 net.cpp:106] Creating Layer ip2
I0523 12:19:29.549348  1495 net.cpp:454] ip2 <- ip1
I0523 12:19:29.549362  1495 net.cpp:411] ip2 -> ip2
I0523 12:19:29.549846  1495 net.cpp:150] Setting up ip2
I0523 12:19:29.549860  1495 net.cpp:157] Top shape: 60 98 (5880)
I0523 12:19:29.549870  1495 net.cpp:165] Memory required for data: 94674960
I0523 12:19:29.549883  1495 layer_factory.hpp:77] Creating layer relu6
I0523 12:19:29.549908  1495 net.cpp:106] Creating Layer relu6
I0523 12:19:29.549918  1495 net.cpp:454] relu6 <- ip2
I0523 12:19:29.549931  1495 net.cpp:397] relu6 -> ip2 (in-place)
I0523 12:19:29.550462  1495 net.cpp:150] Setting up relu6
I0523 12:19:29.550477  1495 net.cpp:157] Top shape: 60 98 (5880)
I0523 12:19:29.550487  1495 net.cpp:165] Memory required for data: 94698480
I0523 12:19:29.550499  1495 layer_factory.hpp:77] Creating layer drop2
I0523 12:19:29.550513  1495 net.cpp:106] Creating Layer drop2
I0523 12:19:29.550523  1495 net.cpp:454] drop2 <- ip2
I0523 12:19:29.550535  1495 net.cpp:397] drop2 -> ip2 (in-place)
I0523 12:19:29.550578  1495 net.cpp:150] Setting up drop2
I0523 12:19:29.550591  1495 net.cpp:157] Top shape: 60 98 (5880)
I0523 12:19:29.550601  1495 net.cpp:165] Memory required for data: 94722000
I0523 12:19:29.550611  1495 layer_factory.hpp:77] Creating layer ip3
I0523 12:19:29.550624  1495 net.cpp:106] Creating Layer ip3
I0523 12:19:29.550634  1495 net.cpp:454] ip3 <- ip2
I0523 12:19:29.550648  1495 net.cpp:411] ip3 -> ip3
I0523 12:19:29.550868  1495 net.cpp:150] Setting up ip3
I0523 12:19:29.550881  1495 net.cpp:157] Top shape: 60 11 (660)
I0523 12:19:29.550890  1495 net.cpp:165] Memory required for data: 94724640
I0523 12:19:29.550907  1495 layer_factory.hpp:77] Creating layer drop3
I0523 12:19:29.550920  1495 net.cpp:106] Creating Layer drop3
I0523 12:19:29.550930  1495 net.cpp:454] drop3 <- ip3
I0523 12:19:29.550942  1495 net.cpp:397] drop3 -> ip3 (in-place)
I0523 12:19:29.550983  1495 net.cpp:150] Setting up drop3
I0523 12:19:29.550997  1495 net.cpp:157] Top shape: 60 11 (660)
I0523 12:19:29.551005  1495 net.cpp:165] Memory required for data: 94727280
I0523 12:19:29.551015  1495 layer_factory.hpp:77] Creating layer ip3_drop3_0_split
I0523 12:19:29.551028  1495 net.cpp:106] Creating Layer ip3_drop3_0_split
I0523 12:19:29.551038  1495 net.cpp:454] ip3_drop3_0_split <- ip3
I0523 12:19:29.551053  1495 net.cpp:411] ip3_drop3_0_split -> ip3_drop3_0_split_0
I0523 12:19:29.551066  1495 net.cpp:411] ip3_drop3_0_split -> ip3_drop3_0_split_1
I0523 12:19:29.551138  1495 net.cpp:150] Setting up ip3_drop3_0_split
I0523 12:19:29.551151  1495 net.cpp:157] Top shape: 60 11 (660)
I0523 12:19:29.551163  1495 net.cpp:157] Top shape: 60 11 (660)
I0523 12:19:29.551173  1495 net.cpp:165] Memory required for data: 94732560
I0523 12:19:29.551182  1495 layer_factory.hpp:77] Creating layer accuracy
I0523 12:19:29.551203  1495 net.cpp:106] Creating Layer accuracy
I0523 12:19:29.551213  1495 net.cpp:454] accuracy <- ip3_drop3_0_split_0
I0523 12:19:29.551225  1495 net.cpp:454] accuracy <- label_data_hdf5_1_split_0
I0523 12:19:29.551237  1495 net.cpp:411] accuracy -> accuracy
…
