…
I0523 11:56:52.033284  1678 net.cpp:322] The NetState phase (0) differed from the phase (1) specified by a rule in layer data_hdf5
I0523 11:56:52.033344  1678 net.cpp:322] The NetState phase (0) differed from the phase (1) specified by a rule in layer accuracy
I0523 11:56:52.033690  1678 net.cpp:49] Initializing net from parameters: 
name: "caffe_test_127x50_x_unshifted"
state {
  phase: TRAIN
}
layer {
  name: "data_hdf5"
  type: "HDF5Data"
  top: "data"
  top: "label"
  include {
    phase: TRAIN
  }
  hdf5_data_param {
    source: "/lustre/atlas/proj-shared/hep105/caffe_titan/minosmatch_nukecczdefs_127x50_x_unshifted_me1Bmc.trainlist"
    batch_size: 60
  }
}
layer {
  name: "conv1"
  type: "Convolution"
  bottom: "data"
  top: "conv1"
  convolution_param {
    num_output: 12
    pad: 0
    stride: 1
    weight_filler {
      type: "xavier"
    }
    bias_filler {
      type: "constant"
    }
    kernel_h: 8
    kernel_w: 3
  }
}
layer {
  name: "relu1"
  type: "ReLU"
  bottom: "conv1"
  top: "conv1"
}
layer {
  name: "pool1"
  type: "Pooling"
  bottom: "conv1"
  top: "pool1"
  pooling_param {
    pool: MAX
    kernel_h: 2
    kernel_w: 1
    stride_h: 2
    stride_w: 1
  }
}
layer {
  name: "conv2"
  type: "Convolution"
  bottom: "pool1"
  top: "conv2"
  convolution_param {
    num_output: 20
    pad: 0
    stride: 1
    weight_filler {
      type: "xavier"
    }
    bias_filler {
      type: "constant"
    }
    kernel_h: 7
    kernel_w: 3
  }
}
layer {
  name: "relu2"
  type: "ReLU"
  bottom: "conv2"
  top: "conv2"
}
layer {
  name: "pool2"
  type: "Pooling"
  bottom: "conv2"
  top: "pool2"
  pooling_param {
    pool: MAX
    kernel_h: 2
    kernel_w: 1
    stride_h: 2
    stride_w: 1
  }
}
layer {
  name: "conv3"
  type: "Convolution"
  bottom: "pool2"
  top: "conv3"
  convolution_param {
    num_output: 28
    pad: 0
    stride: 1
    weight_filler {
      type: "xavier"
    }
    bias_filler {
      type: "constant"
    }
    kernel_h: 6
    kernel_w: 3
  }
}
layer {
  name: "relu3"
  type: "ReLU"
  bottom: "conv3"
  top: "conv3"
}
layer {
  name: "pool3"
  type: "Pooling"
  bottom: "conv3"
  top: "pool3"
  pooling_param {
    pool: MAX
    kernel_h: 2
    kernel_w: 1
    stride_h: 2
    stride_w: 1
  }
}
layer {
  name: "conv4"
  type: "Convolution"
  bottom: "pool3"
  top: "conv4"
  convolution_param {
    num_output: 36
    pad: 0
    stride: 1
    weight_filler {
      type: "xavier"
    }
    bias_filler {
      type: "constant"
    }
    kernel_h: 6
    kernel_w: 3
  }
}
layer {
  name: "relu4"
  type: "ReLU"
  bottom: "conv4"
  top: "conv4"
}
layer {
  name: "pool4"
  type: "Pooling"
  bottom: "conv4"
  top: "pool4"
  pooling_param {
    pool: MAX
    kernel_h: 2
    kernel_w: 1
    stride_h: 2
    stride_w: 1
  }
}
layer {
  name: "ip1"
  type: "InnerProduct"
  bottom: "pool4"
  top: "ip1"
  inner_product_param {
    num_output: 196
    weight_filler {
      type: "xavier"
    }
    bias_filler {
      type: "constant"
    }
  }
}
layer {
  name: "relu5"
  type: "ReLU"
  bottom: "ip1"
  top: "ip1"
}
layer {
  name: "drop1"
  type: "Dropout"
  bottom: "ip1"
  top: "ip1"
  dropout_param {
    dropout_ratio: 0.5
  }
}
layer {
  name: "ip2"
  type: "InnerProduct"
  bottom: "ip1"
  top: "ip2"
  inner_product_param {
    num_output: 98
    weight_filler {
      type: "xavier"
    }
    bias_filler {
      type: "constant"
    }
  }
}
layer {
  name: "relu6"
  type: "ReLU"
  bottom: "ip2"
  top: "ip2"
}
layer {
  name: "drop2"
  type: "Dropout"
  bottom: "ip2"
  top: "ip2"
  dropout_param {
    dropout_ratio: 0.5
  }
}
layer {
  name: "ip3"
  type: "InnerProduct"
  bottom: "ip2"
  top: "ip3"
  inner_product_param {
    num_output: 11
    weight_filler {
      type: "xavier"
    }
    bias_filler {
      type: "constant"
    }
  }
}
layer {
  name: "drop3"
  type: "Dropout"
  bottom: "ip3"
  top: "ip3"
  dropout_param {
    dropout_ratio: 0.5
  }
}
layer {
  name: "loss"
  type: "SoftmaxWithLoss"
  bottom: "ip3"
  bottom: "label"
  top: "loss"
}
I0523 11:56:52.033870  1678 layer_factory.hpp:77] Creating layer data_hdf5
I0523 11:56:52.033895  1678 net.cpp:106] Creating Layer data_hdf5
I0523 11:56:52.033910  1678 net.cpp:411] data_hdf5 -> data
I0523 11:56:52.033943  1678 net.cpp:411] data_hdf5 -> label
I0523 11:56:52.033975  1678 hdf5_data_layer.cpp:79] Loading list of HDF5 filenames from: /lustre/atlas/proj-shared/hep105/caffe_titan/minosmatch_nukecczdefs_127x50_x_unshifted_me1Bmc.trainlist
I0523 11:56:52.046262  1678 hdf5_data_layer.cpp:93] Number of HDF5 files: 15
I0523 11:56:52.060219  1678 hdf5.cpp:32] Datatype class: H5T_FLOAT
I0523 11:57:13.663441  1678 hdf5.cpp:35] Datatype class: H5T_INTEGER
I0523 11:57:13.668619  1678 net.cpp:150] Setting up data_hdf5
I0523 11:57:13.668659  1678 net.cpp:157] Top shape: 60 1 127 50 (381000)
I0523 11:57:13.668673  1678 net.cpp:157] Top shape: 60 (60)
I0523 11:57:13.668686  1678 net.cpp:165] Memory required for data: 1524240
I0523 11:57:13.668700  1678 layer_factory.hpp:77] Creating layer conv1
I0523 11:57:13.668735  1678 net.cpp:106] Creating Layer conv1
I0523 11:57:13.668746  1678 net.cpp:454] conv1 <- data
I0523 11:57:13.668766  1678 net.cpp:411] conv1 -> conv1
I0523 11:57:16.518126  1678 net.cpp:150] Setting up conv1
I0523 11:57:16.518169  1678 net.cpp:157] Top shape: 60 12 120 48 (4147200)
I0523 11:57:16.518182  1678 net.cpp:165] Memory required for data: 18113040
I0523 11:57:16.518213  1678 layer_factory.hpp:77] Creating layer relu1
I0523 11:57:16.518234  1678 net.cpp:106] Creating Layer relu1
I0523 11:57:16.518244  1678 net.cpp:454] relu1 <- conv1
I0523 11:57:16.518257  1678 net.cpp:397] relu1 -> conv1 (in-place)
I0523 11:57:16.518770  1678 net.cpp:150] Setting up relu1
I0523 11:57:16.518786  1678 net.cpp:157] Top shape: 60 12 120 48 (4147200)
I0523 11:57:16.518797  1678 net.cpp:165] Memory required for data: 34701840
I0523 11:57:16.518807  1678 layer_factory.hpp:77] Creating layer pool1
I0523 11:57:16.518823  1678 net.cpp:106] Creating Layer pool1
I0523 11:57:16.518833  1678 net.cpp:454] pool1 <- conv1
I0523 11:57:16.518846  1678 net.cpp:411] pool1 -> pool1
I0523 11:57:16.518925  1678 net.cpp:150] Setting up pool1
I0523 11:57:16.518939  1678 net.cpp:157] Top shape: 60 12 60 48 (2073600)
I0523 11:57:16.518949  1678 net.cpp:165] Memory required for data: 42996240
I0523 11:57:16.518959  1678 layer_factory.hpp:77] Creating layer conv2
I0523 11:57:16.518980  1678 net.cpp:106] Creating Layer conv2
I0523 11:57:16.518990  1678 net.cpp:454] conv2 <- pool1
I0523 11:57:16.519003  1678 net.cpp:411] conv2 -> conv2
I0523 11:57:16.521744  1678 net.cpp:150] Setting up conv2
I0523 11:57:16.521767  1678 net.cpp:157] Top shape: 60 20 54 46 (2980800)
I0523 11:57:16.521777  1678 net.cpp:165] Memory required for data: 54919440
I0523 11:57:16.521797  1678 layer_factory.hpp:77] Creating layer relu2
I0523 11:57:16.521811  1678 net.cpp:106] Creating Layer relu2
I0523 11:57:16.521821  1678 net.cpp:454] relu2 <- conv2
I0523 11:57:16.521833  1678 net.cpp:397] relu2 -> conv2 (in-place)
I0523 11:57:16.522163  1678 net.cpp:150] Setting up relu2
I0523 11:57:16.522178  1678 net.cpp:157] Top shape: 60 20 54 46 (2980800)
I0523 11:57:16.522188  1678 net.cpp:165] Memory required for data: 66842640
I0523 11:57:16.522198  1678 layer_factory.hpp:77] Creating layer pool2
I0523 11:57:16.522212  1678 net.cpp:106] Creating Layer pool2
I0523 11:57:16.522222  1678 net.cpp:454] pool2 <- conv2
I0523 11:57:16.522233  1678 net.cpp:411] pool2 -> pool2
I0523 11:57:16.522315  1678 net.cpp:150] Setting up pool2
I0523 11:57:16.522328  1678 net.cpp:157] Top shape: 60 20 27 46 (1490400)
I0523 11:57:16.522337  1678 net.cpp:165] Memory required for data: 72804240
I0523 11:57:16.522347  1678 layer_factory.hpp:77] Creating layer conv3
I0523 11:57:16.522366  1678 net.cpp:106] Creating Layer conv3
I0523 11:57:16.522375  1678 net.cpp:454] conv3 <- pool2
I0523 11:57:16.522389  1678 net.cpp:411] conv3 -> conv3
I0523 11:57:16.524340  1678 net.cpp:150] Setting up conv3
I0523 11:57:16.524363  1678 net.cpp:157] Top shape: 60 28 22 44 (1626240)
I0523 11:57:16.524376  1678 net.cpp:165] Memory required for data: 79309200
I0523 11:57:16.524395  1678 layer_factory.hpp:77] Creating layer relu3
I0523 11:57:16.524411  1678 net.cpp:106] Creating Layer relu3
I0523 11:57:16.524421  1678 net.cpp:454] relu3 <- conv3
I0523 11:57:16.524433  1678 net.cpp:397] relu3 -> conv3 (in-place)
I0523 11:57:16.524904  1678 net.cpp:150] Setting up relu3
I0523 11:57:16.524920  1678 net.cpp:157] Top shape: 60 28 22 44 (1626240)
I0523 11:57:16.524930  1678 net.cpp:165] Memory required for data: 85814160
I0523 11:57:16.524940  1678 layer_factory.hpp:77] Creating layer pool3
I0523 11:57:16.524953  1678 net.cpp:106] Creating Layer pool3
I0523 11:57:16.524963  1678 net.cpp:454] pool3 <- conv3
I0523 11:57:16.524976  1678 net.cpp:411] pool3 -> pool3
I0523 11:57:16.525043  1678 net.cpp:150] Setting up pool3
I0523 11:57:16.525055  1678 net.cpp:157] Top shape: 60 28 11 44 (813120)
I0523 11:57:16.525065  1678 net.cpp:165] Memory required for data: 89066640
I0523 11:57:16.525074  1678 layer_factory.hpp:77] Creating layer conv4
I0523 11:57:16.525094  1678 net.cpp:106] Creating Layer conv4
I0523 11:57:16.525105  1678 net.cpp:454] conv4 <- pool3
I0523 11:57:16.525118  1678 net.cpp:411] conv4 -> conv4
I0523 11:57:16.527883  1678 net.cpp:150] Setting up conv4
I0523 11:57:16.527911  1678 net.cpp:157] Top shape: 60 36 6 42 (544320)
I0523 11:57:16.527921  1678 net.cpp:165] Memory required for data: 91243920
I0523 11:57:16.527937  1678 layer_factory.hpp:77] Creating layer relu4
I0523 11:57:16.527951  1678 net.cpp:106] Creating Layer relu4
I0523 11:57:16.527961  1678 net.cpp:454] relu4 <- conv4
I0523 11:57:16.527974  1678 net.cpp:397] relu4 -> conv4 (in-place)
I0523 11:57:16.528452  1678 net.cpp:150] Setting up relu4
I0523 11:57:16.528468  1678 net.cpp:157] Top shape: 60 36 6 42 (544320)
I0523 11:57:16.528480  1678 net.cpp:165] Memory required for data: 93421200
I0523 11:57:16.528489  1678 layer_factory.hpp:77] Creating layer pool4
I0523 11:57:16.528502  1678 net.cpp:106] Creating Layer pool4
I0523 11:57:16.528512  1678 net.cpp:454] pool4 <- conv4
I0523 11:57:16.528524  1678 net.cpp:411] pool4 -> pool4
I0523 11:57:16.528592  1678 net.cpp:150] Setting up pool4
I0523 11:57:16.528606  1678 net.cpp:157] Top shape: 60 36 3 42 (272160)
I0523 11:57:16.528616  1678 net.cpp:165] Memory required for data: 94509840
I0523 11:57:16.528626  1678 layer_factory.hpp:77] Creating layer ip1
I0523 11:57:16.528646  1678 net.cpp:106] Creating Layer ip1
I0523 11:57:16.528656  1678 net.cpp:454] ip1 <- pool4
I0523 11:57:16.528669  1678 net.cpp:411] ip1 -> ip1
I0523 11:57:16.544026  1678 net.cpp:150] Setting up ip1
I0523 11:57:16.544055  1678 net.cpp:157] Top shape: 60 196 (11760)
I0523 11:57:16.544067  1678 net.cpp:165] Memory required for data: 94556880
I0523 11:57:16.544090  1678 layer_factory.hpp:77] Creating layer relu5
I0523 11:57:16.544105  1678 net.cpp:106] Creating Layer relu5
I0523 11:57:16.544114  1678 net.cpp:454] relu5 <- ip1
I0523 11:57:16.544128  1678 net.cpp:397] relu5 -> ip1 (in-place)
I0523 11:57:16.544471  1678 net.cpp:150] Setting up relu5
I0523 11:57:16.544484  1678 net.cpp:157] Top shape: 60 196 (11760)
I0523 11:57:16.544495  1678 net.cpp:165] Memory required for data: 94603920
I0523 11:57:16.544505  1678 layer_factory.hpp:77] Creating layer drop1
I0523 11:57:16.544528  1678 net.cpp:106] Creating Layer drop1
I0523 11:57:16.544538  1678 net.cpp:454] drop1 <- ip1
I0523 11:57:16.544549  1678 net.cpp:397] drop1 -> ip1 (in-place)
I0523 11:57:16.544610  1678 net.cpp:150] Setting up drop1
I0523 11:57:16.544625  1678 net.cpp:157] Top shape: 60 196 (11760)
I0523 11:57:16.544634  1678 net.cpp:165] Memory required for data: 94650960
I0523 11:57:16.544644  1678 layer_factory.hpp:77] Creating layer ip2
I0523 11:57:16.544662  1678 net.cpp:106] Creating Layer ip2
I0523 11:57:16.544672  1678 net.cpp:454] ip2 <- ip1
I0523 11:57:16.544685  1678 net.cpp:411] ip2 -> ip2
I0523 11:57:16.545148  1678 net.cpp:150] Setting up ip2
I0523 11:57:16.545161  1678 net.cpp:157] Top shape: 60 98 (5880)
I0523 11:57:16.545171  1678 net.cpp:165] Memory required for data: 94674480
I0523 11:57:16.545192  1678 layer_factory.hpp:77] Creating layer relu6
I0523 11:57:16.545205  1678 net.cpp:106] Creating Layer relu6
I0523 11:57:16.545217  1678 net.cpp:454] relu6 <- ip2
I0523 11:57:16.545228  1678 net.cpp:397] relu6 -> ip2 (in-place)
I0523 11:57:16.545739  1678 net.cpp:150] Setting up relu6
I0523 11:57:16.545756  1678 net.cpp:157] Top shape: 60 98 (5880)
I0523 11:57:16.545766  1678 net.cpp:165] Memory required for data: 94698000
I0523 11:57:16.545778  1678 layer_factory.hpp:77] Creating layer drop2
I0523 11:57:16.545791  1678 net.cpp:106] Creating Layer drop2
I0523 11:57:16.545801  1678 net.cpp:454] drop2 <- ip2
I0523 11:57:16.545814  1678 net.cpp:397] drop2 -> ip2 (in-place)
I0523 11:57:16.545856  1678 net.cpp:150] Setting up drop2
I0523 11:57:16.545871  1678 net.cpp:157] Top shape: 60 98 (5880)
I0523 11:57:16.545881  1678 net.cpp:165] Memory required for data: 94721520
I0523 11:57:16.545891  1678 layer_factory.hpp:77] Creating layer ip3
I0523 11:57:16.545903  1678 net.cpp:106] Creating Layer ip3
I0523 11:57:16.545913  1678 net.cpp:454] ip3 <- ip2
I0523 11:57:16.545925  1678 net.cpp:411] ip3 -> ip3
I0523 11:57:16.546136  1678 net.cpp:150] Setting up ip3
I0523 11:57:16.546149  1678 net.cpp:157] Top shape: 60 11 (660)
I0523 11:57:16.546159  1678 net.cpp:165] Memory required for data: 94724160
I0523 11:57:16.546175  1678 layer_factory.hpp:77] Creating layer drop3
I0523 11:57:16.546186  1678 net.cpp:106] Creating Layer drop3
I0523 11:57:16.546196  1678 net.cpp:454] drop3 <- ip3
I0523 11:57:16.546207  1678 net.cpp:397] drop3 -> ip3 (in-place)
I0523 11:57:16.546247  1678 net.cpp:150] Setting up drop3
I0523 11:57:16.546259  1678 net.cpp:157] Top shape: 60 11 (660)
I0523 11:57:16.546269  1678 net.cpp:165] Memory required for data: 94726800
I0523 11:57:16.546279  1678 layer_factory.hpp:77] Creating layer loss
I0523 11:57:16.546298  1678 net.cpp:106] Creating Layer loss
I0523 11:57:16.546308  1678 net.cpp:454] loss <- ip3
I0523 11:57:16.546319  1678 net.cpp:454] loss <- label
I0523 11:57:16.546331  1678 net.cpp:411] loss -> loss
I0523 11:57:16.546350  1678 layer_factory.hpp:77] Creating layer loss
…
I0523 11:57:16.549072  1678 solver.cpp:181] Creating test net (#0) specified by net file: /lustre/atlas/proj-shared/hep105/caffe_titan/caffe_workflow/logs_bslr/bs_60_lr_0.0005_2016-05-20T15.49.08.817746.prototxt
I0523 11:57:16.549144  1678 net.cpp:322] The NetState phase (1) differed from the phase (0) specified by a rule in layer data_hdf5
I0523 11:57:16.549499  1678 net.cpp:49] Initializing net from parameters: 
name: "caffe_test_127x50_x_unshifted"
state {
  phase: TEST
}
layer {
  name: "data_hdf5"
  type: "HDF5Data"
  top: "data"
  top: "label"
  include {
    phase: TEST
  }
  hdf5_data_param {
    source: "/lustre/atlas/proj-shared/hep105/caffe_titan/minosmatch_nukecczdefs_127x50_x_unshifted_me1Bmc.testlist"
    batch_size: 60
  }
}
layer {
  name: "conv1"
  type: "Convolution"
  bottom: "data"
  top: "conv1"
  convolution_param {
    num_output: 12
    pad: 0
    stride: 1
    weight_filler {
      type: "xavier"
    }
    bias_filler {
      type: "constant"
    }
    kernel_h: 8
    kernel_w: 3
  }
}
layer {
  name: "relu1"
  type: "ReLU"
  bottom: "conv1"
  top: "conv1"
}
layer {
  name: "pool1"
  type: "Pooling"
  bottom: "conv1"
  top: "pool1"
  pooling_param {
    pool: MAX
    kernel_h: 2
    kernel_w: 1
    stride_h: 2
    stride_w: 1
  }
}
layer {
  name: "conv2"
  type: "Convolution"
  bottom: "pool1"
  top: "conv2"
  convolution_param {
    num_output: 20
    pad: 0
    stride: 1
    weight_filler {
      type: "xavier"
    }
    bias_filler {
      type: "constant"
    }
    kernel_h: 7
    kernel_w: 3
  }
}
layer {
  name: "relu2"
  type: "ReLU"
  bottom: "conv2"
  top: "conv2"
}
layer {
  name: "pool2"
  type: "Pooling"
  bottom: "conv2"
  top: "pool2"
  pooling_param {
    pool: MAX
    kernel_h: 2
    kernel_w: 1
    stride_h: 2
    stride_w: 1
  }
}
layer {
  name: "conv3"
  type: "Convolution"
  bottom: "pool2"
  top: "conv3"
  convolution_param {
    num_output: 28
    pad: 0
    stride: 1
    weight_filler {
      type: "xavier"
    }
    bias_filler {
      type: "constant"
    }
    kernel_h: 6
    kernel_w: 3
  }
}
layer {
  name: "relu3"
  type: "ReLU"
  bottom: "conv3"
  top: "conv3"
}
layer {
  name: "pool3"
  type: "Pooling"
  bottom: "conv3"
  top: "pool3"
  pooling_param {
    pool: MAX
    kernel_h: 2
    kernel_w: 1
    stride_h: 2
    stride_w: 1
  }
}
layer {
  name: "conv4"
  type: "Convolution"
  bottom: "pool3"
  top: "conv4"
  convolution_param {
    num_output: 36
    pad: 0
    stride: 1
    weight_filler {
      type: "xavier"
    }
    bias_filler {
      type: "constant"
    }
    kernel_h: 6
    kernel_w: 3
  }
}
layer {
  name: "relu4"
  type: "ReLU"
  bottom: "conv4"
  top: "conv4"
}
layer {
  name: "pool4"
  type: "Pooling"
  bottom: "conv4"
  top: "pool4"
  pooling_param {
    pool: MAX
    kernel_h: 2
    kernel_w: 1
    stride_h: 2
    stride_w: 1
  }
}
layer {
  name: "ip1"
  type: "InnerProduct"
  bottom: "pool4"
  top: "ip1"
  inner_product_param {
    num_output: 196
    weight_filler {
      type: "xavier"
    }
    bias_filler {
      type: "constant"
    }
  }
}
layer {
  name: "relu5"
  type: "ReLU"
  bottom: "ip1"
  top: "ip1"
}
layer {
  name: "drop1"
  type: "Dropout"
  bottom: "ip1"
  top: "ip1"
  dropout_param {
    dropout_ratio: 0.5
  }
}
layer {
  name: "ip2"
  type: "InnerProduct"
  bottom: "ip1"
  top: "ip2"
  inner_product_param {
    num_output: 98
    weight_filler {
      type: "xavier"
    }
    bias_filler {
      type: "constant"
    }
  }
}
layer {
  name: "relu6"
  type: "ReLU"
  bottom: "ip2"
  top: "ip2"
}
layer {
  name: "drop2"
  type: "Dropout"
  bottom: "ip2"
  top: "ip2"
  dropout_param {
    dropout_ratio: 0.5
  }
}
layer {
  name: "ip3"
  type: "InnerProduct"
  bottom: "ip2"
  top: "ip3"
  inner_product_param {
    num_output: 11
    weight_filler {
      type: "xavier"
    }
    bias_filler {
      type: "constant"
    }
  }
}
layer {
  name: "drop3"
  type: "Dropout"
  bottom: "ip3"
  top: "ip3"
  dropout_param {
    dropout_ratio: 0.5
  }
}
layer {
  name: "accuracy"
  type: "Accuracy"
  bottom: "ip3"
  bottom: "label"
  top: "accuracy"
  include {
    phase: TEST
  }
}
layer {
  name: "loss"
  type: "SoftmaxWithLoss"
  bottom: "ip3"
  bottom: "label"
  top: "loss"
}
I0523 11:57:16.549687  1678 layer_factory.hpp:77] Creating layer data_hdf5
I0523 11:57:16.549703  1678 net.cpp:106] Creating Layer data_hdf5
I0523 11:57:16.549715  1678 net.cpp:411] data_hdf5 -> data
I0523 11:57:16.549732  1678 net.cpp:411] data_hdf5 -> label
I0523 11:57:16.549748  1678 hdf5_data_layer.cpp:79] Loading list of HDF5 filenames from: /lustre/atlas/proj-shared/hep105/caffe_titan/minosmatch_nukecczdefs_127x50_x_unshifted_me1Bmc.testlist
I0523 11:57:16.557667  1678 hdf5_data_layer.cpp:93] Number of HDF5 files: 3
I0523 11:57:37.970237  1678 net.cpp:150] Setting up data_hdf5
I0523 11:57:37.970402  1678 net.cpp:157] Top shape: 60 1 127 50 (381000)
I0523 11:57:37.970415  1678 net.cpp:157] Top shape: 60 (60)
I0523 11:57:37.970427  1678 net.cpp:165] Memory required for data: 1524240
I0523 11:57:37.970440  1678 layer_factory.hpp:77] Creating layer label_data_hdf5_1_split
I0523 11:57:37.970468  1678 net.cpp:106] Creating Layer label_data_hdf5_1_split
I0523 11:57:37.970479  1678 net.cpp:454] label_data_hdf5_1_split <- label
I0523 11:57:37.970494  1678 net.cpp:411] label_data_hdf5_1_split -> label_data_hdf5_1_split_0
I0523 11:57:37.970515  1678 net.cpp:411] label_data_hdf5_1_split -> label_data_hdf5_1_split_1
I0523 11:57:37.970588  1678 net.cpp:150] Setting up label_data_hdf5_1_split
I0523 11:57:37.970602  1678 net.cpp:157] Top shape: 60 (60)
I0523 11:57:37.970613  1678 net.cpp:157] Top shape: 60 (60)
I0523 11:57:37.970623  1678 net.cpp:165] Memory required for data: 1524720
I0523 11:57:37.970633  1678 layer_factory.hpp:77] Creating layer conv1
I0523 11:57:37.970654  1678 net.cpp:106] Creating Layer conv1
I0523 11:57:37.970664  1678 net.cpp:454] conv1 <- data
I0523 11:57:37.970679  1678 net.cpp:411] conv1 -> conv1
I0523 11:57:37.972599  1678 net.cpp:150] Setting up conv1
I0523 11:57:37.972625  1678 net.cpp:157] Top shape: 60 12 120 48 (4147200)
I0523 11:57:37.972635  1678 net.cpp:165] Memory required for data: 18113520
I0523 11:57:37.972656  1678 layer_factory.hpp:77] Creating layer relu1
I0523 11:57:37.972671  1678 net.cpp:106] Creating Layer relu1
I0523 11:57:37.972681  1678 net.cpp:454] relu1 <- conv1
I0523 11:57:37.972693  1678 net.cpp:397] relu1 -> conv1 (in-place)
I0523 11:57:37.973191  1678 net.cpp:150] Setting up relu1
I0523 11:57:37.973206  1678 net.cpp:157] Top shape: 60 12 120 48 (4147200)
I0523 11:57:37.973217  1678 net.cpp:165] Memory required for data: 34702320
I0523 11:57:37.973227  1678 layer_factory.hpp:77] Creating layer pool1
I0523 11:57:37.973243  1678 net.cpp:106] Creating Layer pool1
I0523 11:57:37.973253  1678 net.cpp:454] pool1 <- conv1
I0523 11:57:37.973266  1678 net.cpp:411] pool1 -> pool1
I0523 11:57:37.973340  1678 net.cpp:150] Setting up pool1
I0523 11:57:37.973353  1678 net.cpp:157] Top shape: 60 12 60 48 (2073600)
I0523 11:57:37.973363  1678 net.cpp:165] Memory required for data: 42996720
I0523 11:57:37.973371  1678 layer_factory.hpp:77] Creating layer conv2
I0523 11:57:37.973389  1678 net.cpp:106] Creating Layer conv2
I0523 11:57:37.973399  1678 net.cpp:454] conv2 <- pool1
I0523 11:57:37.973413  1678 net.cpp:411] conv2 -> conv2
I0523 11:57:37.975319  1678 net.cpp:150] Setting up conv2
I0523 11:57:37.975342  1678 net.cpp:157] Top shape: 60 20 54 46 (2980800)
I0523 11:57:37.975354  1678 net.cpp:165] Memory required for data: 54919920
I0523 11:57:37.975371  1678 layer_factory.hpp:77] Creating layer relu2
I0523 11:57:37.975385  1678 net.cpp:106] Creating Layer relu2
I0523 11:57:37.975394  1678 net.cpp:454] relu2 <- conv2
I0523 11:57:37.975407  1678 net.cpp:397] relu2 -> conv2 (in-place)
I0523 11:57:37.975746  1678 net.cpp:150] Setting up relu2
I0523 11:57:37.975759  1678 net.cpp:157] Top shape: 60 20 54 46 (2980800)
I0523 11:57:37.975770  1678 net.cpp:165] Memory required for data: 66843120
I0523 11:57:37.975780  1678 layer_factory.hpp:77] Creating layer pool2
I0523 11:57:37.975793  1678 net.cpp:106] Creating Layer pool2
I0523 11:57:37.975802  1678 net.cpp:454] pool2 <- conv2
I0523 11:57:37.975814  1678 net.cpp:411] pool2 -> pool2
I0523 11:57:37.975888  1678 net.cpp:150] Setting up pool2
I0523 11:57:37.975900  1678 net.cpp:157] Top shape: 60 20 27 46 (1490400)
I0523 11:57:37.975910  1678 net.cpp:165] Memory required for data: 72804720
I0523 11:57:37.975919  1678 layer_factory.hpp:77] Creating layer conv3
I0523 11:57:37.975936  1678 net.cpp:106] Creating Layer conv3
I0523 11:57:37.975947  1678 net.cpp:454] conv3 <- pool2
I0523 11:57:37.975961  1678 net.cpp:411] conv3 -> conv3
I0523 11:57:37.977926  1678 net.cpp:150] Setting up conv3
I0523 11:57:37.977943  1678 net.cpp:157] Top shape: 60 28 22 44 (1626240)
I0523 11:57:37.977954  1678 net.cpp:165] Memory required for data: 79309680
I0523 11:57:37.977987  1678 layer_factory.hpp:77] Creating layer relu3
I0523 11:57:37.977999  1678 net.cpp:106] Creating Layer relu3
I0523 11:57:37.978010  1678 net.cpp:454] relu3 <- conv3
I0523 11:57:37.978023  1678 net.cpp:397] relu3 -> conv3 (in-place)
I0523 11:57:37.978490  1678 net.cpp:150] Setting up relu3
I0523 11:57:37.978507  1678 net.cpp:157] Top shape: 60 28 22 44 (1626240)
I0523 11:57:37.978516  1678 net.cpp:165] Memory required for data: 85814640
I0523 11:57:37.978525  1678 layer_factory.hpp:77] Creating layer pool3
I0523 11:57:37.978538  1678 net.cpp:106] Creating Layer pool3
I0523 11:57:37.978549  1678 net.cpp:454] pool3 <- conv3
I0523 11:57:37.978560  1678 net.cpp:411] pool3 -> pool3
I0523 11:57:37.978632  1678 net.cpp:150] Setting up pool3
I0523 11:57:37.978646  1678 net.cpp:157] Top shape: 60 28 11 44 (813120)
I0523 11:57:37.978655  1678 net.cpp:165] Memory required for data: 89067120
I0523 11:57:37.978665  1678 layer_factory.hpp:77] Creating layer conv4
I0523 11:57:37.978680  1678 net.cpp:106] Creating Layer conv4
I0523 11:57:37.978690  1678 net.cpp:454] conv4 <- pool3
I0523 11:57:37.978704  1678 net.cpp:411] conv4 -> conv4
I0523 11:57:37.980764  1678 net.cpp:150] Setting up conv4
I0523 11:57:37.980787  1678 net.cpp:157] Top shape: 60 36 6 42 (544320)
I0523 11:57:37.980799  1678 net.cpp:165] Memory required for data: 91244400
I0523 11:57:37.980815  1678 layer_factory.hpp:77] Creating layer relu4
I0523 11:57:37.980829  1678 net.cpp:106] Creating Layer relu4
I0523 11:57:37.980839  1678 net.cpp:454] relu4 <- conv4
I0523 11:57:37.980851  1678 net.cpp:397] relu4 -> conv4 (in-place)
I0523 11:57:37.981319  1678 net.cpp:150] Setting up relu4
I0523 11:57:37.981336  1678 net.cpp:157] Top shape: 60 36 6 42 (544320)
I0523 11:57:37.981346  1678 net.cpp:165] Memory required for data: 93421680
I0523 11:57:37.981356  1678 layer_factory.hpp:77] Creating layer pool4
I0523 11:57:37.981369  1678 net.cpp:106] Creating Layer pool4
I0523 11:57:37.981379  1678 net.cpp:454] pool4 <- conv4
I0523 11:57:37.981391  1678 net.cpp:411] pool4 -> pool4
I0523 11:57:37.981463  1678 net.cpp:150] Setting up pool4
I0523 11:57:37.981477  1678 net.cpp:157] Top shape: 60 36 3 42 (272160)
I0523 11:57:37.981485  1678 net.cpp:165] Memory required for data: 94510320
I0523 11:57:37.981495  1678 layer_factory.hpp:77] Creating layer ip1
I0523 11:57:37.981509  1678 net.cpp:106] Creating Layer ip1
I0523 11:57:37.981519  1678 net.cpp:454] ip1 <- pool4
I0523 11:57:37.981534  1678 net.cpp:411] ip1 -> ip1
I0523 11:57:37.997019  1678 net.cpp:150] Setting up ip1
I0523 11:57:37.997040  1678 net.cpp:157] Top shape: 60 196 (11760)
I0523 11:57:37.997056  1678 net.cpp:165] Memory required for data: 94557360
I0523 11:57:37.997079  1678 layer_factory.hpp:77] Creating layer relu5
I0523 11:57:37.997094  1678 net.cpp:106] Creating Layer relu5
I0523 11:57:37.997105  1678 net.cpp:454] relu5 <- ip1
I0523 11:57:37.997119  1678 net.cpp:397] relu5 -> ip1 (in-place)
I0523 11:57:37.997467  1678 net.cpp:150] Setting up relu5
I0523 11:57:37.997480  1678 net.cpp:157] Top shape: 60 196 (11760)
I0523 11:57:37.997490  1678 net.cpp:165] Memory required for data: 94604400
I0523 11:57:37.997500  1678 layer_factory.hpp:77] Creating layer drop1
I0523 11:57:37.997519  1678 net.cpp:106] Creating Layer drop1
I0523 11:57:37.997529  1678 net.cpp:454] drop1 <- ip1
I0523 11:57:37.997542  1678 net.cpp:397] drop1 -> ip1 (in-place)
I0523 11:57:37.997587  1678 net.cpp:150] Setting up drop1
I0523 11:57:37.997601  1678 net.cpp:157] Top shape: 60 196 (11760)
I0523 11:57:37.997609  1678 net.cpp:165] Memory required for data: 94651440
I0523 11:57:37.997620  1678 layer_factory.hpp:77] Creating layer ip2
I0523 11:57:37.997634  1678 net.cpp:106] Creating Layer ip2
I0523 11:57:37.997644  1678 net.cpp:454] ip2 <- ip1
I0523 11:57:37.997658  1678 net.cpp:411] ip2 -> ip2
I0523 11:57:37.998134  1678 net.cpp:150] Setting up ip2
I0523 11:57:37.998147  1678 net.cpp:157] Top shape: 60 98 (5880)
I0523 11:57:37.998157  1678 net.cpp:165] Memory required for data: 94674960
I0523 11:57:37.998172  1678 layer_factory.hpp:77] Creating layer relu6
I0523 11:57:37.998198  1678 net.cpp:106] Creating Layer relu6
I0523 11:57:37.998208  1678 net.cpp:454] relu6 <- ip2
I0523 11:57:37.998220  1678 net.cpp:397] relu6 -> ip2 (in-place)
I0523 11:57:37.998747  1678 net.cpp:150] Setting up relu6
I0523 11:57:37.998764  1678 net.cpp:157] Top shape: 60 98 (5880)
I0523 11:57:37.998770  1678 net.cpp:165] Memory required for data: 94698480
I0523 11:57:37.998780  1678 layer_factory.hpp:77] Creating layer drop2
I0523 11:57:37.998793  1678 net.cpp:106] Creating Layer drop2
I0523 11:57:37.998805  1678 net.cpp:454] drop2 <- ip2
I0523 11:57:37.998816  1678 net.cpp:397] drop2 -> ip2 (in-place)
I0523 11:57:37.998860  1678 net.cpp:150] Setting up drop2
I0523 11:57:37.998873  1678 net.cpp:157] Top shape: 60 98 (5880)
I0523 11:57:37.998883  1678 net.cpp:165] Memory required for data: 94722000
I0523 11:57:37.998893  1678 layer_factory.hpp:77] Creating layer ip3
I0523 11:57:37.998908  1678 net.cpp:106] Creating Layer ip3
I0523 11:57:37.998917  1678 net.cpp:454] ip3 <- ip2
I0523 11:57:37.998931  1678 net.cpp:411] ip3 -> ip3
I0523 11:57:37.999153  1678 net.cpp:150] Setting up ip3
I0523 11:57:37.999166  1678 net.cpp:157] Top shape: 60 11 (660)
I0523 11:57:37.999176  1678 net.cpp:165] Memory required for data: 94724640
I0523 11:57:37.999191  1678 layer_factory.hpp:77] Creating layer drop3
I0523 11:57:37.999204  1678 net.cpp:106] Creating Layer drop3
I0523 11:57:37.999213  1678 net.cpp:454] drop3 <- ip3
I0523 11:57:37.999227  1678 net.cpp:397] drop3 -> ip3 (in-place)
I0523 11:57:37.999269  1678 net.cpp:150] Setting up drop3
I0523 11:57:37.999280  1678 net.cpp:157] Top shape: 60 11 (660)
I0523 11:57:37.999289  1678 net.cpp:165] Memory required for data: 94727280
I0523 11:57:37.999300  1678 layer_factory.hpp:77] Creating layer ip3_drop3_0_split
I0523 11:57:37.999312  1678 net.cpp:106] Creating Layer ip3_drop3_0_split
I0523 11:57:37.999322  1678 net.cpp:454] ip3_drop3_0_split <- ip3
I0523 11:57:37.999335  1678 net.cpp:411] ip3_drop3_0_split -> ip3_drop3_0_split_0
I0523 11:57:37.999349  1678 net.cpp:411] ip3_drop3_0_split -> ip3_drop3_0_split_1
I0523 11:57:37.999423  1678 net.cpp:150] Setting up ip3_drop3_0_split
I0523 11:57:37.999434  1678 net.cpp:157] Top shape: 60 11 (660)
I0523 11:57:37.999447  1678 net.cpp:157] Top shape: 60 11 (660)
I0523 11:57:37.999456  1678 net.cpp:165] Memory required for data: 94732560
I0523 11:57:37.999464  1678 layer_factory.hpp:77] Creating layer accuracy
I0523 11:57:37.999486  1678 net.cpp:106] Creating Layer accuracy
I0523 11:57:37.999496  1678 net.cpp:454] accuracy <- ip3_drop3_0_split_0
I0523 11:57:37.999507  1678 net.cpp:454] accuracy <- label_data_hdf5_1_split_0
I0523 11:57:37.999521  1678 net.cpp:411] accuracy -> accuracy
…
