…
I0523 18:01:12.813349 15542 net.cpp:322] The NetState phase (0) differed from the phase (1) specified by a rule in layer data_hdf5
I0523 18:01:12.813408 15542 net.cpp:322] The NetState phase (0) differed from the phase (1) specified by a rule in layer accuracy
I0523 18:01:12.813755 15542 net.cpp:49] Initializing net from parameters: 
name: "caffe_test_127x50_x_unshifted"
state {
  phase: TRAIN
}
layer {
  name: "data_hdf5"
  type: "HDF5Data"
  top: "data"
  top: "label"
  include {
    phase: TRAIN
  }
  hdf5_data_param {
    source: "/lustre/atlas/proj-shared/hep105/caffe_titan/minosmatch_nukecczdefs_127x50_x_unshifted_me1Bmc.trainlist"
    batch_size: 60
  }
}
layer {
  name: "conv1"
  type: "Convolution"
  bottom: "data"
  top: "conv1"
  convolution_param {
    num_output: 12
    pad: 0
    stride: 1
    weight_filler {
      type: "xavier"
    }
    bias_filler {
      type: "constant"
    }
    kernel_h: 8
    kernel_w: 3
  }
}
layer {
  name: "relu1"
  type: "ReLU"
  bottom: "conv1"
  top: "conv1"
}
layer {
  name: "pool1"
  type: "Pooling"
  bottom: "conv1"
  top: "pool1"
  pooling_param {
    pool: MAX
    kernel_h: 2
    kernel_w: 1
    stride_h: 2
    stride_w: 1
  }
}
layer {
  name: "conv2"
  type: "Convolution"
  bottom: "pool1"
  top: "conv2"
  convolution_param {
    num_output: 20
    pad: 0
    stride: 1
    weight_filler {
      type: "xavier"
    }
    bias_filler {
      type: "constant"
    }
    kernel_h: 7
    kernel_w: 3
  }
}
layer {
  name: "relu2"
  type: "ReLU"
  bottom: "conv2"
  top: "conv2"
}
layer {
  name: "pool2"
  type: "Pooling"
  bottom: "conv2"
  top: "pool2"
  pooling_param {
    pool: MAX
    kernel_h: 2
    kernel_w: 1
    stride_h: 2
    stride_w: 1
  }
}
layer {
  name: "conv3"
  type: "Convolution"
  bottom: "pool2"
  top: "conv3"
  convolution_param {
    num_output: 28
    pad: 0
    stride: 1
    weight_filler {
      type: "xavier"
    }
    bias_filler {
      type: "constant"
    }
    kernel_h: 6
    kernel_w: 3
  }
}
layer {
  name: "relu3"
  type: "ReLU"
  bottom: "conv3"
  top: "conv3"
}
layer {
  name: "pool3"
  type: "Pooling"
  bottom: "conv3"
  top: "pool3"
  pooling_param {
    pool: MAX
    kernel_h: 2
    kernel_w: 1
    stride_h: 2
    stride_w: 1
  }
}
layer {
  name: "conv4"
  type: "Convolution"
  bottom: "pool3"
  top: "conv4"
  convolution_param {
    num_output: 36
    pad: 0
    stride: 1
    weight_filler {
      type: "xavier"
    }
    bias_filler {
      type: "constant"
    }
    kernel_h: 6
    kernel_w: 3
  }
}
layer {
  name: "relu4"
  type: "ReLU"
  bottom: "conv4"
  top: "conv4"
}
layer {
  name: "pool4"
  type: "Pooling"
  bottom: "conv4"
  top: "pool4"
  pooling_param {
    pool: MAX
    kernel_h: 2
    kernel_w: 1
    stride_h: 2
    stride_w: 1
  }
}
layer {
  name: "ip1"
  type: "InnerProduct"
  bottom: "pool4"
  top: "ip1"
  inner_product_param {
    num_output: 196
    weight_filler {
      type: "xavier"
    }
    bias_filler {
      type: "constant"
    }
  }
}
layer {
  name: "relu5"
  type: "ReLU"
  bottom: "ip1"
  top: "ip1"
}
layer {
  name: "drop1"
  type: "Dropout"
  bottom: "ip1"
  top: "ip1"
  dropout_param {
    dropout_ratio: 0.5
  }
}
layer {
  name: "ip2"
  type: "InnerProduct"
  bottom: "ip1"
  top: "ip2"
  inner_product_param {
    num_output: 98
    weight_filler {
      type: "xavier"
    }
    bias_filler {
      type: "constant"
    }
  }
}
layer {
  name: "relu6"
  type: "ReLU"
  bottom: "ip2"
  top: "ip2"
}
layer {
  name: "drop2"
  type: "Dropout"
  bottom: "ip2"
  top: "ip2"
  dropout_param {
    dropout_ratio: 0.5
  }
}
layer {
  name: "ip3"
  type: "InnerProduct"
  bottom: "ip2"
  top: "ip3"
  inner_product_param {
    num_output: 11
    weight_filler {
      type: "xavier"
    }
    bias_filler {
      type: "constant"
    }
  }
}
layer {
  name: "drop3"
  type: "Dropout"
  bottom: "ip3"
  top: "ip3"
  dropout_param {
    dropout_ratio: 0.5
  }
}
layer {
  name: "loss"
  type: "SoftmaxWithLoss"
  bottom: "ip3"
  bottom: "label"
  top: "loss"
}
I0523 18:01:12.813936 15542 layer_factory.hpp:77] Creating layer data_hdf5
I0523 18:01:12.813959 15542 net.cpp:106] Creating Layer data_hdf5
I0523 18:01:12.813974 15542 net.cpp:411] data_hdf5 -> data
I0523 18:01:12.814007 15542 net.cpp:411] data_hdf5 -> label
I0523 18:01:12.814039 15542 hdf5_data_layer.cpp:79] Loading list of HDF5 filenames from: /lustre/atlas/proj-shared/hep105/caffe_titan/minosmatch_nukecczdefs_127x50_x_unshifted_me1Bmc.trainlist
I0523 18:01:12.825806 15542 hdf5_data_layer.cpp:93] Number of HDF5 files: 15
I0523 18:01:12.850054 15542 hdf5.cpp:32] Datatype class: H5T_FLOAT
I0523 18:01:34.394004 15542 hdf5.cpp:35] Datatype class: H5T_INTEGER
I0523 18:01:34.399235 15542 net.cpp:150] Setting up data_hdf5
I0523 18:01:34.399278 15542 net.cpp:157] Top shape: 60 1 127 50 (381000)
I0523 18:01:34.399293 15542 net.cpp:157] Top shape: 60 (60)
I0523 18:01:34.399303 15542 net.cpp:165] Memory required for data: 1524240
I0523 18:01:34.399317 15542 layer_factory.hpp:77] Creating layer conv1
I0523 18:01:34.399351 15542 net.cpp:106] Creating Layer conv1
I0523 18:01:34.399363 15542 net.cpp:454] conv1 <- data
I0523 18:01:34.399385 15542 net.cpp:411] conv1 -> conv1
I0523 18:01:37.841770 15542 net.cpp:150] Setting up conv1
I0523 18:01:37.841814 15542 net.cpp:157] Top shape: 60 12 120 48 (4147200)
I0523 18:01:37.841827 15542 net.cpp:165] Memory required for data: 18113040
I0523 18:01:37.841858 15542 layer_factory.hpp:77] Creating layer relu1
I0523 18:01:37.841879 15542 net.cpp:106] Creating Layer relu1
I0523 18:01:37.841889 15542 net.cpp:454] relu1 <- conv1
I0523 18:01:37.841903 15542 net.cpp:397] relu1 -> conv1 (in-place)
I0523 18:01:37.842418 15542 net.cpp:150] Setting up relu1
I0523 18:01:37.842434 15542 net.cpp:157] Top shape: 60 12 120 48 (4147200)
I0523 18:01:37.842444 15542 net.cpp:165] Memory required for data: 34701840
I0523 18:01:37.842454 15542 layer_factory.hpp:77] Creating layer pool1
I0523 18:01:37.842473 15542 net.cpp:106] Creating Layer pool1
I0523 18:01:37.842481 15542 net.cpp:454] pool1 <- conv1
I0523 18:01:37.842494 15542 net.cpp:411] pool1 -> pool1
I0523 18:01:37.842574 15542 net.cpp:150] Setting up pool1
I0523 18:01:37.842589 15542 net.cpp:157] Top shape: 60 12 60 48 (2073600)
I0523 18:01:37.842598 15542 net.cpp:165] Memory required for data: 42996240
I0523 18:01:37.842609 15542 layer_factory.hpp:77] Creating layer conv2
I0523 18:01:37.842633 15542 net.cpp:106] Creating Layer conv2
I0523 18:01:37.842643 15542 net.cpp:454] conv2 <- pool1
I0523 18:01:37.842656 15542 net.cpp:411] conv2 -> conv2
I0523 18:01:37.845407 15542 net.cpp:150] Setting up conv2
I0523 18:01:37.845434 15542 net.cpp:157] Top shape: 60 20 54 46 (2980800)
I0523 18:01:37.845445 15542 net.cpp:165] Memory required for data: 54919440
I0523 18:01:37.845464 15542 layer_factory.hpp:77] Creating layer relu2
I0523 18:01:37.845479 15542 net.cpp:106] Creating Layer relu2
I0523 18:01:37.845489 15542 net.cpp:454] relu2 <- conv2
I0523 18:01:37.845501 15542 net.cpp:397] relu2 -> conv2 (in-place)
I0523 18:01:37.845834 15542 net.cpp:150] Setting up relu2
I0523 18:01:37.845849 15542 net.cpp:157] Top shape: 60 20 54 46 (2980800)
I0523 18:01:37.845859 15542 net.cpp:165] Memory required for data: 66842640
I0523 18:01:37.845868 15542 layer_factory.hpp:77] Creating layer pool2
I0523 18:01:37.845881 15542 net.cpp:106] Creating Layer pool2
I0523 18:01:37.845891 15542 net.cpp:454] pool2 <- conv2
I0523 18:01:37.845903 15542 net.cpp:411] pool2 -> pool2
I0523 18:01:37.845983 15542 net.cpp:150] Setting up pool2
I0523 18:01:37.845996 15542 net.cpp:157] Top shape: 60 20 27 46 (1490400)
I0523 18:01:37.846006 15542 net.cpp:165] Memory required for data: 72804240
I0523 18:01:37.846016 15542 layer_factory.hpp:77] Creating layer conv3
I0523 18:01:37.846036 15542 net.cpp:106] Creating Layer conv3
I0523 18:01:37.846047 15542 net.cpp:454] conv3 <- pool2
I0523 18:01:37.846061 15542 net.cpp:411] conv3 -> conv3
I0523 18:01:37.848001 15542 net.cpp:150] Setting up conv3
I0523 18:01:37.848023 15542 net.cpp:157] Top shape: 60 28 22 44 (1626240)
I0523 18:01:37.848036 15542 net.cpp:165] Memory required for data: 79309200
I0523 18:01:37.848053 15542 layer_factory.hpp:77] Creating layer relu3
I0523 18:01:37.848069 15542 net.cpp:106] Creating Layer relu3
I0523 18:01:37.848079 15542 net.cpp:454] relu3 <- conv3
I0523 18:01:37.848091 15542 net.cpp:397] relu3 -> conv3 (in-place)
I0523 18:01:37.848562 15542 net.cpp:150] Setting up relu3
I0523 18:01:37.848578 15542 net.cpp:157] Top shape: 60 28 22 44 (1626240)
I0523 18:01:37.848589 15542 net.cpp:165] Memory required for data: 85814160
I0523 18:01:37.848599 15542 layer_factory.hpp:77] Creating layer pool3
I0523 18:01:37.848613 15542 net.cpp:106] Creating Layer pool3
I0523 18:01:37.848623 15542 net.cpp:454] pool3 <- conv3
I0523 18:01:37.848634 15542 net.cpp:411] pool3 -> pool3
I0523 18:01:37.848701 15542 net.cpp:150] Setting up pool3
I0523 18:01:37.848714 15542 net.cpp:157] Top shape: 60 28 11 44 (813120)
I0523 18:01:37.848724 15542 net.cpp:165] Memory required for data: 89066640
I0523 18:01:37.848734 15542 layer_factory.hpp:77] Creating layer conv4
I0523 18:01:37.848752 15542 net.cpp:106] Creating Layer conv4
I0523 18:01:37.848763 15542 net.cpp:454] conv4 <- pool3
I0523 18:01:37.848776 15542 net.cpp:411] conv4 -> conv4
I0523 18:01:37.851569 15542 net.cpp:150] Setting up conv4
I0523 18:01:37.851598 15542 net.cpp:157] Top shape: 60 36 6 42 (544320)
I0523 18:01:37.851608 15542 net.cpp:165] Memory required for data: 91243920
I0523 18:01:37.851624 15542 layer_factory.hpp:77] Creating layer relu4
I0523 18:01:37.851639 15542 net.cpp:106] Creating Layer relu4
I0523 18:01:37.851649 15542 net.cpp:454] relu4 <- conv4
I0523 18:01:37.851661 15542 net.cpp:397] relu4 -> conv4 (in-place)
I0523 18:01:37.852134 15542 net.cpp:150] Setting up relu4
I0523 18:01:37.852150 15542 net.cpp:157] Top shape: 60 36 6 42 (544320)
I0523 18:01:37.852161 15542 net.cpp:165] Memory required for data: 93421200
I0523 18:01:37.852172 15542 layer_factory.hpp:77] Creating layer pool4
I0523 18:01:37.852185 15542 net.cpp:106] Creating Layer pool4
I0523 18:01:37.852195 15542 net.cpp:454] pool4 <- conv4
I0523 18:01:37.852207 15542 net.cpp:411] pool4 -> pool4
I0523 18:01:37.852275 15542 net.cpp:150] Setting up pool4
I0523 18:01:37.852289 15542 net.cpp:157] Top shape: 60 36 3 42 (272160)
I0523 18:01:37.852300 15542 net.cpp:165] Memory required for data: 94509840
I0523 18:01:37.852309 15542 layer_factory.hpp:77] Creating layer ip1
I0523 18:01:37.852329 15542 net.cpp:106] Creating Layer ip1
I0523 18:01:37.852339 15542 net.cpp:454] ip1 <- pool4
I0523 18:01:37.852351 15542 net.cpp:411] ip1 -> ip1
I0523 18:01:37.867782 15542 net.cpp:150] Setting up ip1
I0523 18:01:37.867810 15542 net.cpp:157] Top shape: 60 196 (11760)
I0523 18:01:37.867822 15542 net.cpp:165] Memory required for data: 94556880
I0523 18:01:37.867846 15542 layer_factory.hpp:77] Creating layer relu5
I0523 18:01:37.867861 15542 net.cpp:106] Creating Layer relu5
I0523 18:01:37.867871 15542 net.cpp:454] relu5 <- ip1
I0523 18:01:37.867884 15542 net.cpp:397] relu5 -> ip1 (in-place)
I0523 18:01:37.868226 15542 net.cpp:150] Setting up relu5
I0523 18:01:37.868239 15542 net.cpp:157] Top shape: 60 196 (11760)
I0523 18:01:37.868249 15542 net.cpp:165] Memory required for data: 94603920
I0523 18:01:37.868260 15542 layer_factory.hpp:77] Creating layer drop1
I0523 18:01:37.868283 15542 net.cpp:106] Creating Layer drop1
I0523 18:01:37.868293 15542 net.cpp:454] drop1 <- ip1
I0523 18:01:37.868304 15542 net.cpp:397] drop1 -> ip1 (in-place)
I0523 18:01:37.868363 15542 net.cpp:150] Setting up drop1
I0523 18:01:37.868376 15542 net.cpp:157] Top shape: 60 196 (11760)
I0523 18:01:37.868386 15542 net.cpp:165] Memory required for data: 94650960
I0523 18:01:37.868396 15542 layer_factory.hpp:77] Creating layer ip2
I0523 18:01:37.868415 15542 net.cpp:106] Creating Layer ip2
I0523 18:01:37.868425 15542 net.cpp:454] ip2 <- ip1
I0523 18:01:37.868438 15542 net.cpp:411] ip2 -> ip2
I0523 18:01:37.868901 15542 net.cpp:150] Setting up ip2
I0523 18:01:37.868914 15542 net.cpp:157] Top shape: 60 98 (5880)
I0523 18:01:37.868923 15542 net.cpp:165] Memory required for data: 94674480
I0523 18:01:37.868938 15542 layer_factory.hpp:77] Creating layer relu6
I0523 18:01:37.868952 15542 net.cpp:106] Creating Layer relu6
I0523 18:01:37.868960 15542 net.cpp:454] relu6 <- ip2
I0523 18:01:37.868973 15542 net.cpp:397] relu6 -> ip2 (in-place)
I0523 18:01:37.869503 15542 net.cpp:150] Setting up relu6
I0523 18:01:37.869519 15542 net.cpp:157] Top shape: 60 98 (5880)
I0523 18:01:37.869530 15542 net.cpp:165] Memory required for data: 94698000
I0523 18:01:37.869540 15542 layer_factory.hpp:77] Creating layer drop2
I0523 18:01:37.869554 15542 net.cpp:106] Creating Layer drop2
I0523 18:01:37.869563 15542 net.cpp:454] drop2 <- ip2
I0523 18:01:37.869576 15542 net.cpp:397] drop2 -> ip2 (in-place)
I0523 18:01:37.869619 15542 net.cpp:150] Setting up drop2
I0523 18:01:37.869632 15542 net.cpp:157] Top shape: 60 98 (5880)
I0523 18:01:37.869642 15542 net.cpp:165] Memory required for data: 94721520
I0523 18:01:37.869652 15542 layer_factory.hpp:77] Creating layer ip3
I0523 18:01:37.869666 15542 net.cpp:106] Creating Layer ip3
I0523 18:01:37.869676 15542 net.cpp:454] ip3 <- ip2
I0523 18:01:37.869689 15542 net.cpp:411] ip3 -> ip3
I0523 18:01:37.869899 15542 net.cpp:150] Setting up ip3
I0523 18:01:37.869911 15542 net.cpp:157] Top shape: 60 11 (660)
I0523 18:01:37.869921 15542 net.cpp:165] Memory required for data: 94724160
I0523 18:01:37.869936 15542 layer_factory.hpp:77] Creating layer drop3
I0523 18:01:37.869949 15542 net.cpp:106] Creating Layer drop3
I0523 18:01:37.869959 15542 net.cpp:454] drop3 <- ip3
I0523 18:01:37.869971 15542 net.cpp:397] drop3 -> ip3 (in-place)
I0523 18:01:37.870010 15542 net.cpp:150] Setting up drop3
I0523 18:01:37.870023 15542 net.cpp:157] Top shape: 60 11 (660)
I0523 18:01:37.870034 15542 net.cpp:165] Memory required for data: 94726800
I0523 18:01:37.870044 15542 layer_factory.hpp:77] Creating layer loss
I0523 18:01:37.870064 15542 net.cpp:106] Creating Layer loss
I0523 18:01:37.870074 15542 net.cpp:454] loss <- ip3
I0523 18:01:37.870085 15542 net.cpp:454] loss <- label
I0523 18:01:37.870097 15542 net.cpp:411] loss -> loss
I0523 18:01:37.870115 15542 layer_factory.hpp:77] Creating layer loss
…
I0523 18:01:37.872861 15542 solver.cpp:181] Creating test net (#0) specified by net file: /lustre/atlas/proj-shared/hep105/caffe_titan/caffe_workflow/logs_bslr/bs_60_lr_0.0035_2016-05-20T15.49.11.024507.prototxt
I0523 18:01:37.872932 15542 net.cpp:322] The NetState phase (1) differed from the phase (0) specified by a rule in layer data_hdf5
I0523 18:01:37.873299 15542 net.cpp:49] Initializing net from parameters: 
name: "caffe_test_127x50_x_unshifted"
state {
  phase: TEST
}
layer {
  name: "data_hdf5"
  type: "HDF5Data"
  top: "data"
  top: "label"
  include {
    phase: TEST
  }
  hdf5_data_param {
    source: "/lustre/atlas/proj-shared/hep105/caffe_titan/minosmatch_nukecczdefs_127x50_x_unshifted_me1Bmc.testlist"
    batch_size: 60
  }
}
layer {
  name: "conv1"
  type: "Convolution"
  bottom: "data"
  top: "conv1"
  convolution_param {
    num_output: 12
    pad: 0
    stride: 1
    weight_filler {
      type: "xavier"
    }
    bias_filler {
      type: "constant"
    }
    kernel_h: 8
    kernel_w: 3
  }
}
layer {
  name: "relu1"
  type: "ReLU"
  bottom: "conv1"
  top: "conv1"
}
layer {
  name: "pool1"
  type: "Pooling"
  bottom: "conv1"
  top: "pool1"
  pooling_param {
    pool: MAX
    kernel_h: 2
    kernel_w: 1
    stride_h: 2
    stride_w: 1
  }
}
layer {
  name: "conv2"
  type: "Convolution"
  bottom: "pool1"
  top: "conv2"
  convolution_param {
    num_output: 20
    pad: 0
    stride: 1
    weight_filler {
      type: "xavier"
    }
    bias_filler {
      type: "constant"
    }
    kernel_h: 7
    kernel_w: 3
  }
}
layer {
  name: "relu2"
  type: "ReLU"
  bottom: "conv2"
  top: "conv2"
}
layer {
  name: "pool2"
  type: "Pooling"
  bottom: "conv2"
  top: "pool2"
  pooling_param {
    pool: MAX
    kernel_h: 2
    kernel_w: 1
    stride_h: 2
    stride_w: 1
  }
}
layer {
  name: "conv3"
  type: "Convolution"
  bottom: "pool2"
  top: "conv3"
  convolution_param {
    num_output: 28
    pad: 0
    stride: 1
    weight_filler {
      type: "xavier"
    }
    bias_filler {
      type: "constant"
    }
    kernel_h: 6
    kernel_w: 3
  }
}
layer {
  name: "relu3"
  type: "ReLU"
  bottom: "conv3"
  top: "conv3"
}
layer {
  name: "pool3"
  type: "Pooling"
  bottom: "conv3"
  top: "pool3"
  pooling_param {
    pool: MAX
    kernel_h: 2
    kernel_w: 1
    stride_h: 2
    stride_w: 1
  }
}
layer {
  name: "conv4"
  type: "Convolution"
  bottom: "pool3"
  top: "conv4"
  convolution_param {
    num_output: 36
    pad: 0
    stride: 1
    weight_filler {
      type: "xavier"
    }
    bias_filler {
      type: "constant"
    }
    kernel_h: 6
    kernel_w: 3
  }
}
layer {
  name: "relu4"
  type: "ReLU"
  bottom: "conv4"
  top: "conv4"
}
layer {
  name: "pool4"
  type: "Pooling"
  bottom: "conv4"
  top: "pool4"
  pooling_param {
    pool: MAX
    kernel_h: 2
    kernel_w: 1
    stride_h: 2
    stride_w: 1
  }
}
layer {
  name: "ip1"
  type: "InnerProduct"
  bottom: "pool4"
  top: "ip1"
  inner_product_param {
    num_output: 196
    weight_filler {
      type: "xavier"
    }
    bias_filler {
      type: "constant"
    }
  }
}
layer {
  name: "relu5"
  type: "ReLU"
  bottom: "ip1"
  top: "ip1"
}
layer {
  name: "drop1"
  type: "Dropout"
  bottom: "ip1"
  top: "ip1"
  dropout_param {
    dropout_ratio: 0.5
  }
}
layer {
  name: "ip2"
  type: "InnerProduct"
  bottom: "ip1"
  top: "ip2"
  inner_product_param {
    num_output: 98
    weight_filler {
      type: "xavier"
    }
    bias_filler {
      type: "constant"
    }
  }
}
layer {
  name: "relu6"
  type: "ReLU"
  bottom: "ip2"
  top: "ip2"
}
layer {
  name: "drop2"
  type: "Dropout"
  bottom: "ip2"
  top: "ip2"
  dropout_param {
    dropout_ratio: 0.5
  }
}
layer {
  name: "ip3"
  type: "InnerProduct"
  bottom: "ip2"
  top: "ip3"
  inner_product_param {
    num_output: 11
    weight_filler {
      type: "xavier"
    }
    bias_filler {
      type: "constant"
    }
  }
}
layer {
  name: "drop3"
  type: "Dropout"
  bottom: "ip3"
  top: "ip3"
  dropout_param {
    dropout_ratio: 0.5
  }
}
layer {
  name: "accuracy"
  type: "Accuracy"
  bottom: "ip3"
  bottom: "label"
  top: "accuracy"
  include {
    phase: TEST
  }
}
layer {
  name: "loss"
  type: "SoftmaxWithLoss"
  bottom: "ip3"
  bottom: "label"
  top: "loss"
}
I0523 18:01:37.873491 15542 layer_factory.hpp:77] Creating layer data_hdf5
I0523 18:01:37.873505 15542 net.cpp:106] Creating Layer data_hdf5
I0523 18:01:37.873517 15542 net.cpp:411] data_hdf5 -> data
I0523 18:01:37.873534 15542 net.cpp:411] data_hdf5 -> label
I0523 18:01:37.873549 15542 hdf5_data_layer.cpp:79] Loading list of HDF5 filenames from: /lustre/atlas/proj-shared/hep105/caffe_titan/minosmatch_nukecczdefs_127x50_x_unshifted_me1Bmc.testlist
I0523 18:01:37.888885 15542 hdf5_data_layer.cpp:93] Number of HDF5 files: 3
I0523 18:01:59.253453 15542 net.cpp:150] Setting up data_hdf5
I0523 18:01:59.253618 15542 net.cpp:157] Top shape: 60 1 127 50 (381000)
I0523 18:01:59.253633 15542 net.cpp:157] Top shape: 60 (60)
I0523 18:01:59.253645 15542 net.cpp:165] Memory required for data: 1524240
I0523 18:01:59.253659 15542 layer_factory.hpp:77] Creating layer label_data_hdf5_1_split
I0523 18:01:59.253687 15542 net.cpp:106] Creating Layer label_data_hdf5_1_split
I0523 18:01:59.253697 15542 net.cpp:454] label_data_hdf5_1_split <- label
I0523 18:01:59.253712 15542 net.cpp:411] label_data_hdf5_1_split -> label_data_hdf5_1_split_0
I0523 18:01:59.253733 15542 net.cpp:411] label_data_hdf5_1_split -> label_data_hdf5_1_split_1
I0523 18:01:59.253806 15542 net.cpp:150] Setting up label_data_hdf5_1_split
I0523 18:01:59.253820 15542 net.cpp:157] Top shape: 60 (60)
I0523 18:01:59.253831 15542 net.cpp:157] Top shape: 60 (60)
I0523 18:01:59.253841 15542 net.cpp:165] Memory required for data: 1524720
I0523 18:01:59.253850 15542 layer_factory.hpp:77] Creating layer conv1
I0523 18:01:59.253873 15542 net.cpp:106] Creating Layer conv1
I0523 18:01:59.253885 15542 net.cpp:454] conv1 <- data
I0523 18:01:59.253897 15542 net.cpp:411] conv1 -> conv1
I0523 18:01:59.255844 15542 net.cpp:150] Setting up conv1
I0523 18:01:59.255868 15542 net.cpp:157] Top shape: 60 12 120 48 (4147200)
I0523 18:01:59.255880 15542 net.cpp:165] Memory required for data: 18113520
I0523 18:01:59.255902 15542 layer_factory.hpp:77] Creating layer relu1
I0523 18:01:59.255915 15542 net.cpp:106] Creating Layer relu1
I0523 18:01:59.255925 15542 net.cpp:454] relu1 <- conv1
I0523 18:01:59.255939 15542 net.cpp:397] relu1 -> conv1 (in-place)
I0523 18:01:59.256438 15542 net.cpp:150] Setting up relu1
I0523 18:01:59.256454 15542 net.cpp:157] Top shape: 60 12 120 48 (4147200)
I0523 18:01:59.256464 15542 net.cpp:165] Memory required for data: 34702320
I0523 18:01:59.256474 15542 layer_factory.hpp:77] Creating layer pool1
I0523 18:01:59.256491 15542 net.cpp:106] Creating Layer pool1
I0523 18:01:59.256500 15542 net.cpp:454] pool1 <- conv1
I0523 18:01:59.256513 15542 net.cpp:411] pool1 -> pool1
I0523 18:01:59.256587 15542 net.cpp:150] Setting up pool1
I0523 18:01:59.256602 15542 net.cpp:157] Top shape: 60 12 60 48 (2073600)
I0523 18:01:59.256610 15542 net.cpp:165] Memory required for data: 42996720
I0523 18:01:59.256618 15542 layer_factory.hpp:77] Creating layer conv2
I0523 18:01:59.256636 15542 net.cpp:106] Creating Layer conv2
I0523 18:01:59.256647 15542 net.cpp:454] conv2 <- pool1
I0523 18:01:59.256661 15542 net.cpp:411] conv2 -> conv2
I0523 18:01:59.258580 15542 net.cpp:150] Setting up conv2
I0523 18:01:59.258602 15542 net.cpp:157] Top shape: 60 20 54 46 (2980800)
I0523 18:01:59.258612 15542 net.cpp:165] Memory required for data: 54919920
I0523 18:01:59.258631 15542 layer_factory.hpp:77] Creating layer relu2
I0523 18:01:59.258644 15542 net.cpp:106] Creating Layer relu2
I0523 18:01:59.258654 15542 net.cpp:454] relu2 <- conv2
I0523 18:01:59.258667 15542 net.cpp:397] relu2 -> conv2 (in-place)
I0523 18:01:59.258998 15542 net.cpp:150] Setting up relu2
I0523 18:01:59.259012 15542 net.cpp:157] Top shape: 60 20 54 46 (2980800)
I0523 18:01:59.259022 15542 net.cpp:165] Memory required for data: 66843120
I0523 18:01:59.259032 15542 layer_factory.hpp:77] Creating layer pool2
I0523 18:01:59.259045 15542 net.cpp:106] Creating Layer pool2
I0523 18:01:59.259055 15542 net.cpp:454] pool2 <- conv2
I0523 18:01:59.259068 15542 net.cpp:411] pool2 -> pool2
I0523 18:01:59.259137 15542 net.cpp:150] Setting up pool2
I0523 18:01:59.259150 15542 net.cpp:157] Top shape: 60 20 27 46 (1490400)
I0523 18:01:59.259160 15542 net.cpp:165] Memory required for data: 72804720
I0523 18:01:59.259171 15542 layer_factory.hpp:77] Creating layer conv3
I0523 18:01:59.259189 15542 net.cpp:106] Creating Layer conv3
I0523 18:01:59.259199 15542 net.cpp:454] conv3 <- pool2
I0523 18:01:59.259213 15542 net.cpp:411] conv3 -> conv3
I0523 18:01:59.261193 15542 net.cpp:150] Setting up conv3
I0523 18:01:59.261215 15542 net.cpp:157] Top shape: 60 28 22 44 (1626240)
I0523 18:01:59.261227 15542 net.cpp:165] Memory required for data: 79309680
I0523 18:01:59.261260 15542 layer_factory.hpp:77] Creating layer relu3
I0523 18:01:59.261273 15542 net.cpp:106] Creating Layer relu3
I0523 18:01:59.261283 15542 net.cpp:454] relu3 <- conv3
I0523 18:01:59.261296 15542 net.cpp:397] relu3 -> conv3 (in-place)
I0523 18:01:59.261775 15542 net.cpp:150] Setting up relu3
I0523 18:01:59.261791 15542 net.cpp:157] Top shape: 60 28 22 44 (1626240)
I0523 18:01:59.261802 15542 net.cpp:165] Memory required for data: 85814640
I0523 18:01:59.261812 15542 layer_factory.hpp:77] Creating layer pool3
I0523 18:01:59.261826 15542 net.cpp:106] Creating Layer pool3
I0523 18:01:59.261836 15542 net.cpp:454] pool3 <- conv3
I0523 18:01:59.261848 15542 net.cpp:411] pool3 -> pool3
I0523 18:01:59.261919 15542 net.cpp:150] Setting up pool3
I0523 18:01:59.261932 15542 net.cpp:157] Top shape: 60 28 11 44 (813120)
I0523 18:01:59.261942 15542 net.cpp:165] Memory required for data: 89067120
I0523 18:01:59.261951 15542 layer_factory.hpp:77] Creating layer conv4
I0523 18:01:59.261970 15542 net.cpp:106] Creating Layer conv4
I0523 18:01:59.261979 15542 net.cpp:454] conv4 <- pool3
I0523 18:01:59.261993 15542 net.cpp:411] conv4 -> conv4
I0523 18:01:59.264045 15542 net.cpp:150] Setting up conv4
I0523 18:01:59.264067 15542 net.cpp:157] Top shape: 60 36 6 42 (544320)
I0523 18:01:59.264080 15542 net.cpp:165] Memory required for data: 91244400
I0523 18:01:59.264094 15542 layer_factory.hpp:77] Creating layer relu4
I0523 18:01:59.264107 15542 net.cpp:106] Creating Layer relu4
I0523 18:01:59.264117 15542 net.cpp:454] relu4 <- conv4
I0523 18:01:59.264130 15542 net.cpp:397] relu4 -> conv4 (in-place)
I0523 18:01:59.264600 15542 net.cpp:150] Setting up relu4
I0523 18:01:59.264616 15542 net.cpp:157] Top shape: 60 36 6 42 (544320)
I0523 18:01:59.264626 15542 net.cpp:165] Memory required for data: 93421680
I0523 18:01:59.264636 15542 layer_factory.hpp:77] Creating layer pool4
I0523 18:01:59.264649 15542 net.cpp:106] Creating Layer pool4
I0523 18:01:59.264659 15542 net.cpp:454] pool4 <- conv4
I0523 18:01:59.264672 15542 net.cpp:411] pool4 -> pool4
I0523 18:01:59.264744 15542 net.cpp:150] Setting up pool4
I0523 18:01:59.264756 15542 net.cpp:157] Top shape: 60 36 3 42 (272160)
I0523 18:01:59.264766 15542 net.cpp:165] Memory required for data: 94510320
I0523 18:01:59.264776 15542 layer_factory.hpp:77] Creating layer ip1
I0523 18:01:59.264791 15542 net.cpp:106] Creating Layer ip1
I0523 18:01:59.264801 15542 net.cpp:454] ip1 <- pool4
I0523 18:01:59.264814 15542 net.cpp:411] ip1 -> ip1
I0523 18:01:59.280321 15542 net.cpp:150] Setting up ip1
I0523 18:01:59.280349 15542 net.cpp:157] Top shape: 60 196 (11760)
I0523 18:01:59.280360 15542 net.cpp:165] Memory required for data: 94557360
I0523 18:01:59.280382 15542 layer_factory.hpp:77] Creating layer relu5
I0523 18:01:59.280397 15542 net.cpp:106] Creating Layer relu5
I0523 18:01:59.280407 15542 net.cpp:454] relu5 <- ip1
I0523 18:01:59.280421 15542 net.cpp:397] relu5 -> ip1 (in-place)
I0523 18:01:59.280766 15542 net.cpp:150] Setting up relu5
I0523 18:01:59.280781 15542 net.cpp:157] Top shape: 60 196 (11760)
I0523 18:01:59.280791 15542 net.cpp:165] Memory required for data: 94604400
I0523 18:01:59.280802 15542 layer_factory.hpp:77] Creating layer drop1
I0523 18:01:59.280819 15542 net.cpp:106] Creating Layer drop1
I0523 18:01:59.280829 15542 net.cpp:454] drop1 <- ip1
I0523 18:01:59.280843 15542 net.cpp:397] drop1 -> ip1 (in-place)
I0523 18:01:59.280887 15542 net.cpp:150] Setting up drop1
I0523 18:01:59.280900 15542 net.cpp:157] Top shape: 60 196 (11760)
I0523 18:01:59.280908 15542 net.cpp:165] Memory required for data: 94651440
I0523 18:01:59.280920 15542 layer_factory.hpp:77] Creating layer ip2
I0523 18:01:59.280935 15542 net.cpp:106] Creating Layer ip2
I0523 18:01:59.280944 15542 net.cpp:454] ip2 <- ip1
I0523 18:01:59.280957 15542 net.cpp:411] ip2 -> ip2
I0523 18:01:59.281442 15542 net.cpp:150] Setting up ip2
I0523 18:01:59.281455 15542 net.cpp:157] Top shape: 60 98 (5880)
I0523 18:01:59.281466 15542 net.cpp:165] Memory required for data: 94674960
I0523 18:01:59.281481 15542 layer_factory.hpp:77] Creating layer relu6
I0523 18:01:59.281507 15542 net.cpp:106] Creating Layer relu6
I0523 18:01:59.281517 15542 net.cpp:454] relu6 <- ip2
I0523 18:01:59.281529 15542 net.cpp:397] relu6 -> ip2 (in-place)
I0523 18:01:59.282063 15542 net.cpp:150] Setting up relu6
I0523 18:01:59.282078 15542 net.cpp:157] Top shape: 60 98 (5880)
I0523 18:01:59.282088 15542 net.cpp:165] Memory required for data: 94698480
I0523 18:01:59.282100 15542 layer_factory.hpp:77] Creating layer drop2
I0523 18:01:59.282114 15542 net.cpp:106] Creating Layer drop2
I0523 18:01:59.282124 15542 net.cpp:454] drop2 <- ip2
I0523 18:01:59.282136 15542 net.cpp:397] drop2 -> ip2 (in-place)
I0523 18:01:59.282181 15542 net.cpp:150] Setting up drop2
I0523 18:01:59.282193 15542 net.cpp:157] Top shape: 60 98 (5880)
I0523 18:01:59.282203 15542 net.cpp:165] Memory required for data: 94722000
I0523 18:01:59.282213 15542 layer_factory.hpp:77] Creating layer ip3
I0523 18:01:59.282228 15542 net.cpp:106] Creating Layer ip3
I0523 18:01:59.282238 15542 net.cpp:454] ip3 <- ip2
I0523 18:01:59.282251 15542 net.cpp:411] ip3 -> ip3
I0523 18:01:59.282471 15542 net.cpp:150] Setting up ip3
I0523 18:01:59.282485 15542 net.cpp:157] Top shape: 60 11 (660)
I0523 18:01:59.282495 15542 net.cpp:165] Memory required for data: 94724640
I0523 18:01:59.282510 15542 layer_factory.hpp:77] Creating layer drop3
I0523 18:01:59.282522 15542 net.cpp:106] Creating Layer drop3
I0523 18:01:59.282532 15542 net.cpp:454] drop3 <- ip3
I0523 18:01:59.282544 15542 net.cpp:397] drop3 -> ip3 (in-place)
I0523 18:01:59.282587 15542 net.cpp:150] Setting up drop3
I0523 18:01:59.282598 15542 net.cpp:157] Top shape: 60 11 (660)
I0523 18:01:59.282609 15542 net.cpp:165] Memory required for data: 94727280
I0523 18:01:59.282618 15542 layer_factory.hpp:77] Creating layer ip3_drop3_0_split
I0523 18:01:59.282631 15542 net.cpp:106] Creating Layer ip3_drop3_0_split
I0523 18:01:59.282641 15542 net.cpp:454] ip3_drop3_0_split <- ip3
I0523 18:01:59.282655 15542 net.cpp:411] ip3_drop3_0_split -> ip3_drop3_0_split_0
I0523 18:01:59.282668 15542 net.cpp:411] ip3_drop3_0_split -> ip3_drop3_0_split_1
I0523 18:01:59.282742 15542 net.cpp:150] Setting up ip3_drop3_0_split
I0523 18:01:59.282754 15542 net.cpp:157] Top shape: 60 11 (660)
I0523 18:01:59.282768 15542 net.cpp:157] Top shape: 60 11 (660)
I0523 18:01:59.282778 15542 net.cpp:165] Memory required for data: 94732560
I0523 18:01:59.282784 15542 layer_factory.hpp:77] Creating layer accuracy
I0523 18:01:59.282806 15542 net.cpp:106] Creating Layer accuracy
I0523 18:01:59.282816 15542 net.cpp:454] accuracy <- ip3_drop3_0_split_0
I0523 18:01:59.282827 15542 net.cpp:454] accuracy <- label_data_hdf5_1_split_0
I0523 18:01:59.282841 15542 net.cpp:411] accuracy -> accuracy
…
