…
I0523 16:20:18.789896 19131 net.cpp:322] The NetState phase (0) differed from the phase (1) specified by a rule in layer data_hdf5
I0523 16:20:18.789954 19131 net.cpp:322] The NetState phase (0) differed from the phase (1) specified by a rule in layer accuracy
I0523 16:20:18.790300 19131 net.cpp:49] Initializing net from parameters: 
name: "caffe_test_127x50_x_unshifted"
state {
  phase: TRAIN
}
layer {
  name: "data_hdf5"
  type: "HDF5Data"
  top: "data"
  top: "label"
  include {
    phase: TRAIN
  }
  hdf5_data_param {
    source: "/lustre/atlas/proj-shared/hep105/caffe_titan/minosmatch_nukecczdefs_127x50_x_unshifted_me1Bmc.trainlist"
    batch_size: 60
  }
}
layer {
  name: "conv1"
  type: "Convolution"
  bottom: "data"
  top: "conv1"
  convolution_param {
    num_output: 12
    pad: 0
    stride: 1
    weight_filler {
      type: "xavier"
    }
    bias_filler {
      type: "constant"
    }
    kernel_h: 8
    kernel_w: 3
  }
}
layer {
  name: "relu1"
  type: "ReLU"
  bottom: "conv1"
  top: "conv1"
}
layer {
  name: "pool1"
  type: "Pooling"
  bottom: "conv1"
  top: "pool1"
  pooling_param {
    pool: MAX
    kernel_h: 2
    kernel_w: 1
    stride_h: 2
    stride_w: 1
  }
}
layer {
  name: "conv2"
  type: "Convolution"
  bottom: "pool1"
  top: "conv2"
  convolution_param {
    num_output: 20
    pad: 0
    stride: 1
    weight_filler {
      type: "xavier"
    }
    bias_filler {
      type: "constant"
    }
    kernel_h: 7
    kernel_w: 3
  }
}
layer {
  name: "relu2"
  type: "ReLU"
  bottom: "conv2"
  top: "conv2"
}
layer {
  name: "pool2"
  type: "Pooling"
  bottom: "conv2"
  top: "pool2"
  pooling_param {
    pool: MAX
    kernel_h: 2
    kernel_w: 1
    stride_h: 2
    stride_w: 1
  }
}
layer {
  name: "conv3"
  type: "Convolution"
  bottom: "pool2"
  top: "conv3"
  convolution_param {
    num_output: 28
    pad: 0
    stride: 1
    weight_filler {
      type: "xavier"
    }
    bias_filler {
      type: "constant"
    }
    kernel_h: 6
    kernel_w: 3
  }
}
layer {
  name: "relu3"
  type: "ReLU"
  bottom: "conv3"
  top: "conv3"
}
layer {
  name: "pool3"
  type: "Pooling"
  bottom: "conv3"
  top: "pool3"
  pooling_param {
    pool: MAX
    kernel_h: 2
    kernel_w: 1
    stride_h: 2
    stride_w: 1
  }
}
layer {
  name: "conv4"
  type: "Convolution"
  bottom: "pool3"
  top: "conv4"
  convolution_param {
    num_output: 36
    pad: 0
    stride: 1
    weight_filler {
      type: "xavier"
    }
    bias_filler {
      type: "constant"
    }
    kernel_h: 6
    kernel_w: 3
  }
}
layer {
  name: "relu4"
  type: "ReLU"
  bottom: "conv4"
  top: "conv4"
}
layer {
  name: "pool4"
  type: "Pooling"
  bottom: "conv4"
  top: "pool4"
  pooling_param {
    pool: MAX
    kernel_h: 2
    kernel_w: 1
    stride_h: 2
    stride_w: 1
  }
}
layer {
  name: "ip1"
  type: "InnerProduct"
  bottom: "pool4"
  top: "ip1"
  inner_product_param {
    num_output: 196
    weight_filler {
      type: "xavier"
    }
    bias_filler {
      type: "constant"
    }
  }
}
layer {
  name: "relu5"
  type: "ReLU"
  bottom: "ip1"
  top: "ip1"
}
layer {
  name: "drop1"
  type: "Dropout"
  bottom: "ip1"
  top: "ip1"
  dropout_param {
    dropout_ratio: 0.5
  }
}
layer {
  name: "ip2"
  type: "InnerProduct"
  bottom: "ip1"
  top: "ip2"
  inner_product_param {
    num_output: 98
    weight_filler {
      type: "xavier"
    }
    bias_filler {
      type: "constant"
    }
  }
}
layer {
  name: "relu6"
  type: "ReLU"
  bottom: "ip2"
  top: "ip2"
}
layer {
  name: "drop2"
  type: "Dropout"
  bottom: "ip2"
  top: "ip2"
  dropout_param {
    dropout_ratio: 0.5
  }
}
layer {
  name: "ip3"
  type: "InnerProduct"
  bottom: "ip2"
  top: "ip3"
  inner_product_param {
    num_output: 11
    weight_filler {
      type: "xavier"
    }
    bias_filler {
      type: "constant"
    }
  }
}
layer {
  name: "drop3"
  type: "Dropout"
  bottom: "ip3"
  top: "ip3"
  dropout_param {
    dropout_ratio: 0.5
  }
}
layer {
  name: "loss"
  type: "SoftmaxWithLoss"
  bottom: "ip3"
  bottom: "label"
  top: "loss"
}
I0523 16:20:18.790480 19131 layer_factory.hpp:77] Creating layer data_hdf5
I0523 16:20:18.790504 19131 net.cpp:106] Creating Layer data_hdf5
I0523 16:20:18.790518 19131 net.cpp:411] data_hdf5 -> data
I0523 16:20:18.790552 19131 net.cpp:411] data_hdf5 -> label
I0523 16:20:18.790585 19131 hdf5_data_layer.cpp:79] Loading list of HDF5 filenames from: /lustre/atlas/proj-shared/hep105/caffe_titan/minosmatch_nukecczdefs_127x50_x_unshifted_me1Bmc.trainlist
I0523 16:20:18.791875 19131 hdf5_data_layer.cpp:93] Number of HDF5 files: 15
I0523 16:20:18.794121 19131 hdf5.cpp:32] Datatype class: H5T_FLOAT
I0523 16:20:40.309299 19131 hdf5.cpp:35] Datatype class: H5T_INTEGER
I0523 16:20:40.314499 19131 net.cpp:150] Setting up data_hdf5
I0523 16:20:40.314539 19131 net.cpp:157] Top shape: 60 1 127 50 (381000)
I0523 16:20:40.314553 19131 net.cpp:157] Top shape: 60 (60)
I0523 16:20:40.314565 19131 net.cpp:165] Memory required for data: 1524240
I0523 16:20:40.314579 19131 layer_factory.hpp:77] Creating layer conv1
I0523 16:20:40.314612 19131 net.cpp:106] Creating Layer conv1
I0523 16:20:40.314623 19131 net.cpp:454] conv1 <- data
I0523 16:20:40.314645 19131 net.cpp:411] conv1 -> conv1
I0523 16:20:40.678630 19131 net.cpp:150] Setting up conv1
I0523 16:20:40.678674 19131 net.cpp:157] Top shape: 60 12 120 48 (4147200)
I0523 16:20:40.678685 19131 net.cpp:165] Memory required for data: 18113040
I0523 16:20:40.678725 19131 layer_factory.hpp:77] Creating layer relu1
I0523 16:20:40.678746 19131 net.cpp:106] Creating Layer relu1
I0523 16:20:40.678757 19131 net.cpp:454] relu1 <- conv1
I0523 16:20:40.678771 19131 net.cpp:397] relu1 -> conv1 (in-place)
I0523 16:20:40.679283 19131 net.cpp:150] Setting up relu1
I0523 16:20:40.679301 19131 net.cpp:157] Top shape: 60 12 120 48 (4147200)
I0523 16:20:40.679311 19131 net.cpp:165] Memory required for data: 34701840
I0523 16:20:40.679321 19131 layer_factory.hpp:77] Creating layer pool1
I0523 16:20:40.679337 19131 net.cpp:106] Creating Layer pool1
I0523 16:20:40.679347 19131 net.cpp:454] pool1 <- conv1
I0523 16:20:40.679359 19131 net.cpp:411] pool1 -> pool1
I0523 16:20:40.679438 19131 net.cpp:150] Setting up pool1
I0523 16:20:40.679452 19131 net.cpp:157] Top shape: 60 12 60 48 (2073600)
I0523 16:20:40.679462 19131 net.cpp:165] Memory required for data: 42996240
I0523 16:20:40.679471 19131 layer_factory.hpp:77] Creating layer conv2
I0523 16:20:40.679493 19131 net.cpp:106] Creating Layer conv2
I0523 16:20:40.679504 19131 net.cpp:454] conv2 <- pool1
I0523 16:20:40.679518 19131 net.cpp:411] conv2 -> conv2
I0523 16:20:40.682229 19131 net.cpp:150] Setting up conv2
I0523 16:20:40.682255 19131 net.cpp:157] Top shape: 60 20 54 46 (2980800)
I0523 16:20:40.682266 19131 net.cpp:165] Memory required for data: 54919440
I0523 16:20:40.682284 19131 layer_factory.hpp:77] Creating layer relu2
I0523 16:20:40.682299 19131 net.cpp:106] Creating Layer relu2
I0523 16:20:40.682309 19131 net.cpp:454] relu2 <- conv2
I0523 16:20:40.682322 19131 net.cpp:397] relu2 -> conv2 (in-place)
I0523 16:20:40.682651 19131 net.cpp:150] Setting up relu2
I0523 16:20:40.682665 19131 net.cpp:157] Top shape: 60 20 54 46 (2980800)
I0523 16:20:40.682677 19131 net.cpp:165] Memory required for data: 66842640
I0523 16:20:40.682687 19131 layer_factory.hpp:77] Creating layer pool2
I0523 16:20:40.682699 19131 net.cpp:106] Creating Layer pool2
I0523 16:20:40.682719 19131 net.cpp:454] pool2 <- conv2
I0523 16:20:40.682732 19131 net.cpp:411] pool2 -> pool2
I0523 16:20:40.682813 19131 net.cpp:150] Setting up pool2
I0523 16:20:40.682826 19131 net.cpp:157] Top shape: 60 20 27 46 (1490400)
I0523 16:20:40.682838 19131 net.cpp:165] Memory required for data: 72804240
I0523 16:20:40.682848 19131 layer_factory.hpp:77] Creating layer conv3
I0523 16:20:40.682867 19131 net.cpp:106] Creating Layer conv3
I0523 16:20:40.682878 19131 net.cpp:454] conv3 <- pool2
I0523 16:20:40.682893 19131 net.cpp:411] conv3 -> conv3
I0523 16:20:40.684914 19131 net.cpp:150] Setting up conv3
I0523 16:20:40.684933 19131 net.cpp:157] Top shape: 60 28 22 44 (1626240)
I0523 16:20:40.684944 19131 net.cpp:165] Memory required for data: 79309200
I0523 16:20:40.684962 19131 layer_factory.hpp:77] Creating layer relu3
I0523 16:20:40.684978 19131 net.cpp:106] Creating Layer relu3
I0523 16:20:40.684988 19131 net.cpp:454] relu3 <- conv3
I0523 16:20:40.685001 19131 net.cpp:397] relu3 -> conv3 (in-place)
I0523 16:20:40.685472 19131 net.cpp:150] Setting up relu3
I0523 16:20:40.685489 19131 net.cpp:157] Top shape: 60 28 22 44 (1626240)
I0523 16:20:40.685499 19131 net.cpp:165] Memory required for data: 85814160
I0523 16:20:40.685509 19131 layer_factory.hpp:77] Creating layer pool3
I0523 16:20:40.685523 19131 net.cpp:106] Creating Layer pool3
I0523 16:20:40.685534 19131 net.cpp:454] pool3 <- conv3
I0523 16:20:40.685545 19131 net.cpp:411] pool3 -> pool3
I0523 16:20:40.685613 19131 net.cpp:150] Setting up pool3
I0523 16:20:40.685627 19131 net.cpp:157] Top shape: 60 28 11 44 (813120)
I0523 16:20:40.685636 19131 net.cpp:165] Memory required for data: 89066640
I0523 16:20:40.685647 19131 layer_factory.hpp:77] Creating layer conv4
I0523 16:20:40.685663 19131 net.cpp:106] Creating Layer conv4
I0523 16:20:40.685674 19131 net.cpp:454] conv4 <- pool3
I0523 16:20:40.685688 19131 net.cpp:411] conv4 -> conv4
I0523 16:20:40.688462 19131 net.cpp:150] Setting up conv4
I0523 16:20:40.688489 19131 net.cpp:157] Top shape: 60 36 6 42 (544320)
I0523 16:20:40.688499 19131 net.cpp:165] Memory required for data: 91243920
I0523 16:20:40.688516 19131 layer_factory.hpp:77] Creating layer relu4
I0523 16:20:40.688531 19131 net.cpp:106] Creating Layer relu4
I0523 16:20:40.688542 19131 net.cpp:454] relu4 <- conv4
I0523 16:20:40.688555 19131 net.cpp:397] relu4 -> conv4 (in-place)
I0523 16:20:40.689030 19131 net.cpp:150] Setting up relu4
I0523 16:20:40.689046 19131 net.cpp:157] Top shape: 60 36 6 42 (544320)
I0523 16:20:40.689057 19131 net.cpp:165] Memory required for data: 93421200
I0523 16:20:40.689067 19131 layer_factory.hpp:77] Creating layer pool4
I0523 16:20:40.689080 19131 net.cpp:106] Creating Layer pool4
I0523 16:20:40.689090 19131 net.cpp:454] pool4 <- conv4
I0523 16:20:40.689103 19131 net.cpp:411] pool4 -> pool4
I0523 16:20:40.689172 19131 net.cpp:150] Setting up pool4
I0523 16:20:40.689185 19131 net.cpp:157] Top shape: 60 36 3 42 (272160)
I0523 16:20:40.689195 19131 net.cpp:165] Memory required for data: 94509840
I0523 16:20:40.689205 19131 layer_factory.hpp:77] Creating layer ip1
I0523 16:20:40.689224 19131 net.cpp:106] Creating Layer ip1
I0523 16:20:40.689234 19131 net.cpp:454] ip1 <- pool4
I0523 16:20:40.689247 19131 net.cpp:411] ip1 -> ip1
I0523 16:20:40.704658 19131 net.cpp:150] Setting up ip1
I0523 16:20:40.704681 19131 net.cpp:157] Top shape: 60 196 (11760)
I0523 16:20:40.704692 19131 net.cpp:165] Memory required for data: 94556880
I0523 16:20:40.704715 19131 layer_factory.hpp:77] Creating layer relu5
I0523 16:20:40.704730 19131 net.cpp:106] Creating Layer relu5
I0523 16:20:40.704740 19131 net.cpp:454] relu5 <- ip1
I0523 16:20:40.704752 19131 net.cpp:397] relu5 -> ip1 (in-place)
I0523 16:20:40.705096 19131 net.cpp:150] Setting up relu5
I0523 16:20:40.705109 19131 net.cpp:157] Top shape: 60 196 (11760)
I0523 16:20:40.705119 19131 net.cpp:165] Memory required for data: 94603920
I0523 16:20:40.705130 19131 layer_factory.hpp:77] Creating layer drop1
I0523 16:20:40.705152 19131 net.cpp:106] Creating Layer drop1
I0523 16:20:40.705162 19131 net.cpp:454] drop1 <- ip1
I0523 16:20:40.705174 19131 net.cpp:397] drop1 -> ip1 (in-place)
I0523 16:20:40.705234 19131 net.cpp:150] Setting up drop1
I0523 16:20:40.705246 19131 net.cpp:157] Top shape: 60 196 (11760)
I0523 16:20:40.705256 19131 net.cpp:165] Memory required for data: 94650960
I0523 16:20:40.705266 19131 layer_factory.hpp:77] Creating layer ip2
I0523 16:20:40.705284 19131 net.cpp:106] Creating Layer ip2
I0523 16:20:40.705294 19131 net.cpp:454] ip2 <- ip1
I0523 16:20:40.705307 19131 net.cpp:411] ip2 -> ip2
I0523 16:20:40.705768 19131 net.cpp:150] Setting up ip2
I0523 16:20:40.705782 19131 net.cpp:157] Top shape: 60 98 (5880)
I0523 16:20:40.705792 19131 net.cpp:165] Memory required for data: 94674480
I0523 16:20:40.705806 19131 layer_factory.hpp:77] Creating layer relu6
I0523 16:20:40.705819 19131 net.cpp:106] Creating Layer relu6
I0523 16:20:40.705829 19131 net.cpp:454] relu6 <- ip2
I0523 16:20:40.705842 19131 net.cpp:397] relu6 -> ip2 (in-place)
I0523 16:20:40.706360 19131 net.cpp:150] Setting up relu6
I0523 16:20:40.706377 19131 net.cpp:157] Top shape: 60 98 (5880)
I0523 16:20:40.706387 19131 net.cpp:165] Memory required for data: 94698000
I0523 16:20:40.706398 19131 layer_factory.hpp:77] Creating layer drop2
I0523 16:20:40.706410 19131 net.cpp:106] Creating Layer drop2
I0523 16:20:40.706419 19131 net.cpp:454] drop2 <- ip2
I0523 16:20:40.706432 19131 net.cpp:397] drop2 -> ip2 (in-place)
I0523 16:20:40.706475 19131 net.cpp:150] Setting up drop2
I0523 16:20:40.706487 19131 net.cpp:157] Top shape: 60 98 (5880)
I0523 16:20:40.706499 19131 net.cpp:165] Memory required for data: 94721520
I0523 16:20:40.706508 19131 layer_factory.hpp:77] Creating layer ip3
I0523 16:20:40.706522 19131 net.cpp:106] Creating Layer ip3
I0523 16:20:40.706532 19131 net.cpp:454] ip3 <- ip2
I0523 16:20:40.706544 19131 net.cpp:411] ip3 -> ip3
I0523 16:20:40.706763 19131 net.cpp:150] Setting up ip3
I0523 16:20:40.706776 19131 net.cpp:157] Top shape: 60 11 (660)
I0523 16:20:40.706786 19131 net.cpp:165] Memory required for data: 94724160
I0523 16:20:40.706801 19131 layer_factory.hpp:77] Creating layer drop3
I0523 16:20:40.706815 19131 net.cpp:106] Creating Layer drop3
I0523 16:20:40.706825 19131 net.cpp:454] drop3 <- ip3
I0523 16:20:40.706836 19131 net.cpp:397] drop3 -> ip3 (in-place)
I0523 16:20:40.706876 19131 net.cpp:150] Setting up drop3
I0523 16:20:40.706888 19131 net.cpp:157] Top shape: 60 11 (660)
I0523 16:20:40.706898 19131 net.cpp:165] Memory required for data: 94726800
I0523 16:20:40.706908 19131 layer_factory.hpp:77] Creating layer loss
I0523 16:20:40.706928 19131 net.cpp:106] Creating Layer loss
I0523 16:20:40.706936 19131 net.cpp:454] loss <- ip3
I0523 16:20:40.706948 19131 net.cpp:454] loss <- label
I0523 16:20:40.706960 19131 net.cpp:411] loss -> loss
I0523 16:20:40.706979 19131 layer_factory.hpp:77] Creating layer loss
…
I0523 16:20:40.709694 19131 solver.cpp:181] Creating test net (#0) specified by net file: /lustre/atlas/proj-shared/hep105/caffe_titan/caffe_workflow/logs_bslr/bs_60_lr_0.0030_2016-05-20T15.49.10.660928.prototxt
I0523 16:20:40.709765 19131 net.cpp:322] The NetState phase (1) differed from the phase (0) specified by a rule in layer data_hdf5
I0523 16:20:40.710120 19131 net.cpp:49] Initializing net from parameters: 
name: "caffe_test_127x50_x_unshifted"
state {
  phase: TEST
}
layer {
  name: "data_hdf5"
  type: "HDF5Data"
  top: "data"
  top: "label"
  include {
    phase: TEST
  }
  hdf5_data_param {
    source: "/lustre/atlas/proj-shared/hep105/caffe_titan/minosmatch_nukecczdefs_127x50_x_unshifted_me1Bmc.testlist"
    batch_size: 60
  }
}
layer {
  name: "conv1"
  type: "Convolution"
  bottom: "data"
  top: "conv1"
  convolution_param {
    num_output: 12
    pad: 0
    stride: 1
    weight_filler {
      type: "xavier"
    }
    bias_filler {
      type: "constant"
    }
    kernel_h: 8
    kernel_w: 3
  }
}
layer {
  name: "relu1"
  type: "ReLU"
  bottom: "conv1"
  top: "conv1"
}
layer {
  name: "pool1"
  type: "Pooling"
  bottom: "conv1"
  top: "pool1"
  pooling_param {
    pool: MAX
    kernel_h: 2
    kernel_w: 1
    stride_h: 2
    stride_w: 1
  }
}
layer {
  name: "conv2"
  type: "Convolution"
  bottom: "pool1"
  top: "conv2"
  convolution_param {
    num_output: 20
    pad: 0
    stride: 1
    weight_filler {
      type: "xavier"
    }
    bias_filler {
      type: "constant"
    }
    kernel_h: 7
    kernel_w: 3
  }
}
layer {
  name: "relu2"
  type: "ReLU"
  bottom: "conv2"
  top: "conv2"
}
layer {
  name: "pool2"
  type: "Pooling"
  bottom: "conv2"
  top: "pool2"
  pooling_param {
    pool: MAX
    kernel_h: 2
    kernel_w: 1
    stride_h: 2
    stride_w: 1
  }
}
layer {
  name: "conv3"
  type: "Convolution"
  bottom: "pool2"
  top: "conv3"
  convolution_param {
    num_output: 28
    pad: 0
    stride: 1
    weight_filler {
      type: "xavier"
    }
    bias_filler {
      type: "constant"
    }
    kernel_h: 6
    kernel_w: 3
  }
}
layer {
  name: "relu3"
  type: "ReLU"
  bottom: "conv3"
  top: "conv3"
}
layer {
  name: "pool3"
  type: "Pooling"
  bottom: "conv3"
  top: "pool3"
  pooling_param {
    pool: MAX
    kernel_h: 2
    kernel_w: 1
    stride_h: 2
    stride_w: 1
  }
}
layer {
  name: "conv4"
  type: "Convolution"
  bottom: "pool3"
  top: "conv4"
  convolution_param {
    num_output: 36
    pad: 0
    stride: 1
    weight_filler {
      type: "xavier"
    }
    bias_filler {
      type: "constant"
    }
    kernel_h: 6
    kernel_w: 3
  }
}
layer {
  name: "relu4"
  type: "ReLU"
  bottom: "conv4"
  top: "conv4"
}
layer {
  name: "pool4"
  type: "Pooling"
  bottom: "conv4"
  top: "pool4"
  pooling_param {
    pool: MAX
    kernel_h: 2
    kernel_w: 1
    stride_h: 2
    stride_w: 1
  }
}
layer {
  name: "ip1"
  type: "InnerProduct"
  bottom: "pool4"
  top: "ip1"
  inner_product_param {
    num_output: 196
    weight_filler {
      type: "xavier"
    }
    bias_filler {
      type: "constant"
    }
  }
}
layer {
  name: "relu5"
  type: "ReLU"
  bottom: "ip1"
  top: "ip1"
}
layer {
  name: "drop1"
  type: "Dropout"
  bottom: "ip1"
  top: "ip1"
  dropout_param {
    dropout_ratio: 0.5
  }
}
layer {
  name: "ip2"
  type: "InnerProduct"
  bottom: "ip1"
  top: "ip2"
  inner_product_param {
    num_output: 98
    weight_filler {
      type: "xavier"
    }
    bias_filler {
      type: "constant"
    }
  }
}
layer {
  name: "relu6"
  type: "ReLU"
  bottom: "ip2"
  top: "ip2"
}
layer {
  name: "drop2"
  type: "Dropout"
  bottom: "ip2"
  top: "ip2"
  dropout_param {
    dropout_ratio: 0.5
  }
}
layer {
  name: "ip3"
  type: "InnerProduct"
  bottom: "ip2"
  top: "ip3"
  inner_product_param {
    num_output: 11
    weight_filler {
      type: "xavier"
    }
    bias_filler {
      type: "constant"
    }
  }
}
layer {
  name: "drop3"
  type: "Dropout"
  bottom: "ip3"
  top: "ip3"
  dropout_param {
    dropout_ratio: 0.5
  }
}
layer {
  name: "accuracy"
  type: "Accuracy"
  bottom: "ip3"
  bottom: "label"
  top: "accuracy"
  include {
    phase: TEST
  }
}
layer {
  name: "loss"
  type: "SoftmaxWithLoss"
  bottom: "ip3"
  bottom: "label"
  top: "loss"
}
I0523 16:20:40.710309 19131 layer_factory.hpp:77] Creating layer data_hdf5
I0523 16:20:40.710325 19131 net.cpp:106] Creating Layer data_hdf5
I0523 16:20:40.710338 19131 net.cpp:411] data_hdf5 -> data
I0523 16:20:40.710355 19131 net.cpp:411] data_hdf5 -> label
I0523 16:20:40.710371 19131 hdf5_data_layer.cpp:79] Loading list of HDF5 filenames from: /lustre/atlas/proj-shared/hep105/caffe_titan/minosmatch_nukecczdefs_127x50_x_unshifted_me1Bmc.testlist
I0523 16:20:40.711781 19131 hdf5_data_layer.cpp:93] Number of HDF5 files: 3
I0523 16:21:02.040532 19131 net.cpp:150] Setting up data_hdf5
I0523 16:21:02.040699 19131 net.cpp:157] Top shape: 60 1 127 50 (381000)
I0523 16:21:02.040712 19131 net.cpp:157] Top shape: 60 (60)
I0523 16:21:02.040724 19131 net.cpp:165] Memory required for data: 1524240
I0523 16:21:02.040738 19131 layer_factory.hpp:77] Creating layer label_data_hdf5_1_split
I0523 16:21:02.040766 19131 net.cpp:106] Creating Layer label_data_hdf5_1_split
I0523 16:21:02.040777 19131 net.cpp:454] label_data_hdf5_1_split <- label
I0523 16:21:02.040792 19131 net.cpp:411] label_data_hdf5_1_split -> label_data_hdf5_1_split_0
I0523 16:21:02.040813 19131 net.cpp:411] label_data_hdf5_1_split -> label_data_hdf5_1_split_1
I0523 16:21:02.040885 19131 net.cpp:150] Setting up label_data_hdf5_1_split
I0523 16:21:02.040899 19131 net.cpp:157] Top shape: 60 (60)
I0523 16:21:02.040911 19131 net.cpp:157] Top shape: 60 (60)
I0523 16:21:02.040920 19131 net.cpp:165] Memory required for data: 1524720
I0523 16:21:02.040930 19131 layer_factory.hpp:77] Creating layer conv1
I0523 16:21:02.040952 19131 net.cpp:106] Creating Layer conv1
I0523 16:21:02.040964 19131 net.cpp:454] conv1 <- data
I0523 16:21:02.040978 19131 net.cpp:411] conv1 -> conv1
I0523 16:21:02.042929 19131 net.cpp:150] Setting up conv1
I0523 16:21:02.042953 19131 net.cpp:157] Top shape: 60 12 120 48 (4147200)
I0523 16:21:02.042965 19131 net.cpp:165] Memory required for data: 18113520
I0523 16:21:02.042986 19131 layer_factory.hpp:77] Creating layer relu1
I0523 16:21:02.043001 19131 net.cpp:106] Creating Layer relu1
I0523 16:21:02.043011 19131 net.cpp:454] relu1 <- conv1
I0523 16:21:02.043025 19131 net.cpp:397] relu1 -> conv1 (in-place)
I0523 16:21:02.043524 19131 net.cpp:150] Setting up relu1
I0523 16:21:02.043540 19131 net.cpp:157] Top shape: 60 12 120 48 (4147200)
I0523 16:21:02.043550 19131 net.cpp:165] Memory required for data: 34702320
I0523 16:21:02.043560 19131 layer_factory.hpp:77] Creating layer pool1
I0523 16:21:02.043576 19131 net.cpp:106] Creating Layer pool1
I0523 16:21:02.043586 19131 net.cpp:454] pool1 <- conv1
I0523 16:21:02.043599 19131 net.cpp:411] pool1 -> pool1
I0523 16:21:02.043674 19131 net.cpp:150] Setting up pool1
I0523 16:21:02.043687 19131 net.cpp:157] Top shape: 60 12 60 48 (2073600)
I0523 16:21:02.043697 19131 net.cpp:165] Memory required for data: 42996720
I0523 16:21:02.043707 19131 layer_factory.hpp:77] Creating layer conv2
I0523 16:21:02.043723 19131 net.cpp:106] Creating Layer conv2
I0523 16:21:02.043735 19131 net.cpp:454] conv2 <- pool1
I0523 16:21:02.043748 19131 net.cpp:411] conv2 -> conv2
I0523 16:21:02.045660 19131 net.cpp:150] Setting up conv2
I0523 16:21:02.045682 19131 net.cpp:157] Top shape: 60 20 54 46 (2980800)
I0523 16:21:02.045694 19131 net.cpp:165] Memory required for data: 54919920
I0523 16:21:02.045712 19131 layer_factory.hpp:77] Creating layer relu2
I0523 16:21:02.045727 19131 net.cpp:106] Creating Layer relu2
I0523 16:21:02.045737 19131 net.cpp:454] relu2 <- conv2
I0523 16:21:02.045748 19131 net.cpp:397] relu2 -> conv2 (in-place)
I0523 16:21:02.046079 19131 net.cpp:150] Setting up relu2
I0523 16:21:02.046093 19131 net.cpp:157] Top shape: 60 20 54 46 (2980800)
I0523 16:21:02.046103 19131 net.cpp:165] Memory required for data: 66843120
I0523 16:21:02.046114 19131 layer_factory.hpp:77] Creating layer pool2
I0523 16:21:02.046128 19131 net.cpp:106] Creating Layer pool2
I0523 16:21:02.046138 19131 net.cpp:454] pool2 <- conv2
I0523 16:21:02.046150 19131 net.cpp:411] pool2 -> pool2
I0523 16:21:02.046222 19131 net.cpp:150] Setting up pool2
I0523 16:21:02.046236 19131 net.cpp:157] Top shape: 60 20 27 46 (1490400)
I0523 16:21:02.046244 19131 net.cpp:165] Memory required for data: 72804720
I0523 16:21:02.046255 19131 layer_factory.hpp:77] Creating layer conv3
I0523 16:21:02.046274 19131 net.cpp:106] Creating Layer conv3
I0523 16:21:02.046285 19131 net.cpp:454] conv3 <- pool2
I0523 16:21:02.046298 19131 net.cpp:411] conv3 -> conv3
I0523 16:21:02.048275 19131 net.cpp:150] Setting up conv3
I0523 16:21:02.048300 19131 net.cpp:157] Top shape: 60 28 22 44 (1626240)
I0523 16:21:02.048310 19131 net.cpp:165] Memory required for data: 79309680
I0523 16:21:02.048341 19131 layer_factory.hpp:77] Creating layer relu3
I0523 16:21:02.048354 19131 net.cpp:106] Creating Layer relu3
I0523 16:21:02.048364 19131 net.cpp:454] relu3 <- conv3
I0523 16:21:02.048377 19131 net.cpp:397] relu3 -> conv3 (in-place)
I0523 16:21:02.048848 19131 net.cpp:150] Setting up relu3
I0523 16:21:02.048866 19131 net.cpp:157] Top shape: 60 28 22 44 (1626240)
I0523 16:21:02.048876 19131 net.cpp:165] Memory required for data: 85814640
I0523 16:21:02.048885 19131 layer_factory.hpp:77] Creating layer pool3
I0523 16:21:02.048899 19131 net.cpp:106] Creating Layer pool3
I0523 16:21:02.048909 19131 net.cpp:454] pool3 <- conv3
I0523 16:21:02.048923 19131 net.cpp:411] pool3 -> pool3
I0523 16:21:02.048993 19131 net.cpp:150] Setting up pool3
I0523 16:21:02.049007 19131 net.cpp:157] Top shape: 60 28 11 44 (813120)
I0523 16:21:02.049016 19131 net.cpp:165] Memory required for data: 89067120
I0523 16:21:02.049026 19131 layer_factory.hpp:77] Creating layer conv4
I0523 16:21:02.049042 19131 net.cpp:106] Creating Layer conv4
I0523 16:21:02.049052 19131 net.cpp:454] conv4 <- pool3
I0523 16:21:02.049067 19131 net.cpp:411] conv4 -> conv4
I0523 16:21:02.051131 19131 net.cpp:150] Setting up conv4
I0523 16:21:02.051153 19131 net.cpp:157] Top shape: 60 36 6 42 (544320)
I0523 16:21:02.051167 19131 net.cpp:165] Memory required for data: 91244400
I0523 16:21:02.051182 19131 layer_factory.hpp:77] Creating layer relu4
I0523 16:21:02.051195 19131 net.cpp:106] Creating Layer relu4
I0523 16:21:02.051205 19131 net.cpp:454] relu4 <- conv4
I0523 16:21:02.051218 19131 net.cpp:397] relu4 -> conv4 (in-place)
I0523 16:21:02.051688 19131 net.cpp:150] Setting up relu4
I0523 16:21:02.051704 19131 net.cpp:157] Top shape: 60 36 6 42 (544320)
I0523 16:21:02.051714 19131 net.cpp:165] Memory required for data: 93421680
I0523 16:21:02.051724 19131 layer_factory.hpp:77] Creating layer pool4
I0523 16:21:02.051738 19131 net.cpp:106] Creating Layer pool4
I0523 16:21:02.051748 19131 net.cpp:454] pool4 <- conv4
I0523 16:21:02.051760 19131 net.cpp:411] pool4 -> pool4
I0523 16:21:02.051831 19131 net.cpp:150] Setting up pool4
I0523 16:21:02.051844 19131 net.cpp:157] Top shape: 60 36 3 42 (272160)
I0523 16:21:02.051853 19131 net.cpp:165] Memory required for data: 94510320
I0523 16:21:02.051863 19131 layer_factory.hpp:77] Creating layer ip1
I0523 16:21:02.051878 19131 net.cpp:106] Creating Layer ip1
I0523 16:21:02.051889 19131 net.cpp:454] ip1 <- pool4
I0523 16:21:02.051903 19131 net.cpp:411] ip1 -> ip1
I0523 16:21:02.067332 19131 net.cpp:150] Setting up ip1
I0523 16:21:02.067361 19131 net.cpp:157] Top shape: 60 196 (11760)
I0523 16:21:02.067373 19131 net.cpp:165] Memory required for data: 94557360
I0523 16:21:02.067394 19131 layer_factory.hpp:77] Creating layer relu5
I0523 16:21:02.067409 19131 net.cpp:106] Creating Layer relu5
I0523 16:21:02.067420 19131 net.cpp:454] relu5 <- ip1
I0523 16:21:02.067433 19131 net.cpp:397] relu5 -> ip1 (in-place)
I0523 16:21:02.067780 19131 net.cpp:150] Setting up relu5
I0523 16:21:02.067793 19131 net.cpp:157] Top shape: 60 196 (11760)
I0523 16:21:02.067802 19131 net.cpp:165] Memory required for data: 94604400
I0523 16:21:02.067813 19131 layer_factory.hpp:77] Creating layer drop1
I0523 16:21:02.067831 19131 net.cpp:106] Creating Layer drop1
I0523 16:21:02.067842 19131 net.cpp:454] drop1 <- ip1
I0523 16:21:02.067854 19131 net.cpp:397] drop1 -> ip1 (in-place)
I0523 16:21:02.067899 19131 net.cpp:150] Setting up drop1
I0523 16:21:02.067912 19131 net.cpp:157] Top shape: 60 196 (11760)
I0523 16:21:02.067921 19131 net.cpp:165] Memory required for data: 94651440
I0523 16:21:02.067931 19131 layer_factory.hpp:77] Creating layer ip2
I0523 16:21:02.067945 19131 net.cpp:106] Creating Layer ip2
I0523 16:21:02.067955 19131 net.cpp:454] ip2 <- ip1
I0523 16:21:02.067970 19131 net.cpp:411] ip2 -> ip2
I0523 16:21:02.068447 19131 net.cpp:150] Setting up ip2
I0523 16:21:02.068460 19131 net.cpp:157] Top shape: 60 98 (5880)
I0523 16:21:02.068470 19131 net.cpp:165] Memory required for data: 94674960
I0523 16:21:02.068486 19131 layer_factory.hpp:77] Creating layer relu6
I0523 16:21:02.068511 19131 net.cpp:106] Creating Layer relu6
I0523 16:21:02.068521 19131 net.cpp:454] relu6 <- ip2
I0523 16:21:02.068534 19131 net.cpp:397] relu6 -> ip2 (in-place)
I0523 16:21:02.069067 19131 net.cpp:150] Setting up relu6
I0523 16:21:02.069083 19131 net.cpp:157] Top shape: 60 98 (5880)
I0523 16:21:02.069095 19131 net.cpp:165] Memory required for data: 94698480
I0523 16:21:02.069105 19131 layer_factory.hpp:77] Creating layer drop2
I0523 16:21:02.069119 19131 net.cpp:106] Creating Layer drop2
I0523 16:21:02.069129 19131 net.cpp:454] drop2 <- ip2
I0523 16:21:02.069141 19131 net.cpp:397] drop2 -> ip2 (in-place)
I0523 16:21:02.069185 19131 net.cpp:150] Setting up drop2
I0523 16:21:02.069198 19131 net.cpp:157] Top shape: 60 98 (5880)
I0523 16:21:02.069208 19131 net.cpp:165] Memory required for data: 94722000
I0523 16:21:02.069218 19131 layer_factory.hpp:77] Creating layer ip3
I0523 16:21:02.069232 19131 net.cpp:106] Creating Layer ip3
I0523 16:21:02.069242 19131 net.cpp:454] ip3 <- ip2
I0523 16:21:02.069257 19131 net.cpp:411] ip3 -> ip3
I0523 16:21:02.069478 19131 net.cpp:150] Setting up ip3
I0523 16:21:02.069491 19131 net.cpp:157] Top shape: 60 11 (660)
I0523 16:21:02.069501 19131 net.cpp:165] Memory required for data: 94724640
I0523 16:21:02.069516 19131 layer_factory.hpp:77] Creating layer drop3
I0523 16:21:02.069530 19131 net.cpp:106] Creating Layer drop3
I0523 16:21:02.069540 19131 net.cpp:454] drop3 <- ip3
I0523 16:21:02.069552 19131 net.cpp:397] drop3 -> ip3 (in-place)
I0523 16:21:02.069593 19131 net.cpp:150] Setting up drop3
I0523 16:21:02.069607 19131 net.cpp:157] Top shape: 60 11 (660)
I0523 16:21:02.069615 19131 net.cpp:165] Memory required for data: 94727280
I0523 16:21:02.069625 19131 layer_factory.hpp:77] Creating layer ip3_drop3_0_split
I0523 16:21:02.069638 19131 net.cpp:106] Creating Layer ip3_drop3_0_split
I0523 16:21:02.069648 19131 net.cpp:454] ip3_drop3_0_split <- ip3
I0523 16:21:02.069661 19131 net.cpp:411] ip3_drop3_0_split -> ip3_drop3_0_split_0
I0523 16:21:02.069676 19131 net.cpp:411] ip3_drop3_0_split -> ip3_drop3_0_split_1
I0523 16:21:02.069749 19131 net.cpp:150] Setting up ip3_drop3_0_split
I0523 16:21:02.069762 19131 net.cpp:157] Top shape: 60 11 (660)
I0523 16:21:02.069774 19131 net.cpp:157] Top shape: 60 11 (660)
I0523 16:21:02.069784 19131 net.cpp:165] Memory required for data: 94732560
I0523 16:21:02.069794 19131 layer_factory.hpp:77] Creating layer accuracy
I0523 16:21:02.069816 19131 net.cpp:106] Creating Layer accuracy
I0523 16:21:02.069826 19131 net.cpp:454] accuracy <- ip3_drop3_0_split_0
I0523 16:21:02.069838 19131 net.cpp:454] accuracy <- label_data_hdf5_1_split_0
I0523 16:21:02.069851 19131 net.cpp:411] accuracy -> accuracy
…
