…
I0526 01:29:42.579852 27551 net.cpp:322] The NetState phase (0) differed from the phase (1) specified by a rule in layer data_hdf5
I0526 01:29:42.579916 27551 net.cpp:322] The NetState phase (0) differed from the phase (1) specified by a rule in layer accuracy
I0526 01:29:42.580296 27551 net.cpp:49] Initializing net from parameters: 
name: "caffe_test_127x50_x_unshifted"
state {
  phase: TRAIN
}
layer {
  name: "data_hdf5"
  type: "HDF5Data"
  top: "data"
  top: "label"
  include {
    phase: TRAIN
  }
  hdf5_data_param {
    source: "/lustre/atlas/proj-shared/hep105/caffe_titan/minosmatch_nukecczdefs_127x50_x_unshifted_me1Bmc.trainlist"
    batch_size: 70
  }
}
layer {
  name: "conv1"
  type: "Convolution"
  bottom: "data"
  top: "conv1"
  convolution_param {
    num_output: 12
    pad: 0
    stride: 1
    weight_filler {
      type: "xavier"
    }
    bias_filler {
      type: "constant"
    }
    kernel_h: 8
    kernel_w: 3
  }
}
layer {
  name: "relu1"
  type: "ReLU"
  bottom: "conv1"
  top: "conv1"
}
layer {
  name: "pool1"
  type: "Pooling"
  bottom: "conv1"
  top: "pool1"
  pooling_param {
    pool: MAX
    kernel_h: 2
    kernel_w: 1
    stride_h: 2
    stride_w: 1
  }
}
layer {
  name: "conv2"
  type: "Convolution"
  bottom: "pool1"
  top: "conv2"
  convolution_param {
    num_output: 20
    pad: 0
    stride: 1
    weight_filler {
      type: "xavier"
    }
    bias_filler {
      type: "constant"
    }
    kernel_h: 7
    kernel_w: 3
  }
}
layer {
  name: "relu2"
  type: "ReLU"
  bottom: "conv2"
  top: "conv2"
}
layer {
  name: "pool2"
  type: "Pooling"
  bottom: "conv2"
  top: "pool2"
  pooling_param {
    pool: MAX
    kernel_h: 2
    kernel_w: 1
    stride_h: 2
    stride_w: 1
  }
}
layer {
  name: "conv3"
  type: "Convolution"
  bottom: "pool2"
  top: "conv3"
  convolution_param {
    num_output: 28
    pad: 0
    stride: 1
    weight_filler {
      type: "xavier"
    }
    bias_filler {
      type: "constant"
    }
    kernel_h: 6
    kernel_w: 3
  }
}
layer {
  name: "relu3"
  type: "ReLU"
  bottom: "conv3"
  top: "conv3"
}
layer {
  name: "pool3"
  type: "Pooling"
  bottom: "conv3"
  top: "pool3"
  pooling_param {
    pool: MAX
    kernel_h: 2
    kernel_w: 1
    stride_h: 2
    stride_w: 1
  }
}
layer {
  name: "conv4"
  type: "Convolution"
  bottom: "pool3"
  top: "conv4"
  convolution_param {
    num_output: 36
    pad: 0
    stride: 1
    weight_filler {
      type: "xavier"
    }
    bias_filler {
      type: "constant"
    }
    kernel_h: 6
    kernel_w: 3
  }
}
layer {
  name: "relu4"
  type: "ReLU"
  bottom: "conv4"
  top: "conv4"
}
layer {
  name: "pool4"
  type: "Pooling"
  bottom: "conv4"
  top: "pool4"
  pooling_param {
    pool: MAX
    kernel_h: 2
    kernel_w: 1
    stride_h: 2
    stride_w: 1
  }
}
layer {
  name: "ip1"
  type: "InnerProduct"
  bottom: "pool4"
  top: "ip1"
  inner_product_param {
    num_output: 196
    weight_filler {
      type: "xavier"
    }
    bias_filler {
      type: "constant"
    }
  }
}
layer {
  name: "relu5"
  type: "ReLU"
  bottom: "ip1"
  top: "ip1"
}
layer {
  name: "drop1"
  type: "Dropout"
  bottom: "ip1"
  top: "ip1"
  dropout_param {
    dropout_ratio: 0.5
  }
}
layer {
  name: "ip2"
  type: "InnerProduct"
  bottom: "ip1"
  top: "ip2"
  inner_product_param {
    num_output: 98
    weight_filler {
      type: "xavier"
    }
    bias_filler {
      type: "constant"
    }
  }
}
layer {
  name: "relu6"
  type: "ReLU"
  bottom: "ip2"
  top: "ip2"
}
layer {
  name: "drop2"
  type: "Dropout"
  bottom: "ip2"
  top: "ip2"
  dropout_param {
    dropout_ratio: 0.5
  }
}
layer {
  name: "ip3"
  type: "InnerProduct"
  bottom: "ip2"
  top: "ip3"
  inner_product_param {
    num_output: 11
    weight_filler {
      type: "xavier"
    }
    bias_filler {
      type: "constant"
    }
  }
}
layer {
  name: "drop3"
  type: "Dropout"
  bottom: "ip3"
  top: "ip3"
  dropout_param {
    dropout_ratio: 0.5
  }
}
layer {
  name: "loss"
  type: "SoftmaxWithLoss"
  bottom: "ip3"
  bottom: "label"
  top: "loss"
}
I0526 01:29:42.580505 27551 layer_factory.hpp:77] Creating layer data_hdf5
I0526 01:29:42.580541 27551 net.cpp:106] Creating Layer data_hdf5
I0526 01:29:42.580559 27551 net.cpp:411] data_hdf5 -> data
I0526 01:29:42.580593 27551 net.cpp:411] data_hdf5 -> label
I0526 01:29:42.580636 27551 hdf5_data_layer.cpp:79] Loading list of HDF5 filenames from: /lustre/atlas/proj-shared/hep105/caffe_titan/minosmatch_nukecczdefs_127x50_x_unshifted_me1Bmc.trainlist
I0526 01:29:42.582113 27551 hdf5_data_layer.cpp:93] Number of HDF5 files: 15
I0526 01:29:42.584456 27551 hdf5.cpp:32] Datatype class: H5T_FLOAT
I0526 01:30:04.148591 27551 hdf5.cpp:35] Datatype class: H5T_INTEGER
I0526 01:30:04.153916 27551 net.cpp:150] Setting up data_hdf5
I0526 01:30:04.153957 27551 net.cpp:157] Top shape: 70 1 127 50 (444500)
I0526 01:30:04.153975 27551 net.cpp:157] Top shape: 70 (70)
I0526 01:30:04.153987 27551 net.cpp:165] Memory required for data: 1778280
I0526 01:30:04.154006 27551 layer_factory.hpp:77] Creating layer conv1
I0526 01:30:04.154052 27551 net.cpp:106] Creating Layer conv1
I0526 01:30:04.154067 27551 net.cpp:454] conv1 <- data
I0526 01:30:04.154091 27551 net.cpp:411] conv1 -> conv1
I0526 01:30:05.687841 27551 net.cpp:150] Setting up conv1
I0526 01:30:05.687894 27551 net.cpp:157] Top shape: 70 12 120 48 (4838400)
I0526 01:30:05.687922 27551 net.cpp:165] Memory required for data: 21131880
I0526 01:30:05.687952 27551 layer_factory.hpp:77] Creating layer relu1
I0526 01:30:05.687974 27551 net.cpp:106] Creating Layer relu1
I0526 01:30:05.687994 27551 net.cpp:454] relu1 <- conv1
I0526 01:30:05.688030 27551 net.cpp:397] relu1 -> conv1 (in-place)
I0526 01:30:05.688562 27551 net.cpp:150] Setting up relu1
I0526 01:30:05.688586 27551 net.cpp:157] Top shape: 70 12 120 48 (4838400)
I0526 01:30:05.688599 27551 net.cpp:165] Memory required for data: 40485480
I0526 01:30:05.688616 27551 layer_factory.hpp:77] Creating layer pool1
I0526 01:30:05.688643 27551 net.cpp:106] Creating Layer pool1
I0526 01:30:05.688657 27551 net.cpp:454] pool1 <- conv1
I0526 01:30:05.688673 27551 net.cpp:411] pool1 -> pool1
I0526 01:30:05.688778 27551 net.cpp:150] Setting up pool1
I0526 01:30:05.688799 27551 net.cpp:157] Top shape: 70 12 60 48 (2419200)
I0526 01:30:05.688819 27551 net.cpp:165] Memory required for data: 50162280
I0526 01:30:05.688832 27551 layer_factory.hpp:77] Creating layer conv2
I0526 01:30:05.688856 27551 net.cpp:106] Creating Layer conv2
I0526 01:30:05.688869 27551 net.cpp:454] conv2 <- pool1
I0526 01:30:05.688889 27551 net.cpp:411] conv2 -> conv2
I0526 01:30:05.691630 27551 net.cpp:150] Setting up conv2
I0526 01:30:05.691661 27551 net.cpp:157] Top shape: 70 20 54 46 (3477600)
I0526 01:30:05.691678 27551 net.cpp:165] Memory required for data: 64072680
I0526 01:30:05.691705 27551 layer_factory.hpp:77] Creating layer relu2
I0526 01:30:05.691732 27551 net.cpp:106] Creating Layer relu2
I0526 01:30:05.691746 27551 net.cpp:454] relu2 <- conv2
I0526 01:30:05.691763 27551 net.cpp:397] relu2 -> conv2 (in-place)
I0526 01:30:05.692121 27551 net.cpp:150] Setting up relu2
I0526 01:30:05.692140 27551 net.cpp:157] Top shape: 70 20 54 46 (3477600)
I0526 01:30:05.692154 27551 net.cpp:165] Memory required for data: 77983080
I0526 01:30:05.692169 27551 layer_factory.hpp:77] Creating layer pool2
I0526 01:30:05.692193 27551 net.cpp:106] Creating Layer pool2
I0526 01:30:05.692206 27551 net.cpp:454] pool2 <- conv2
I0526 01:30:05.692222 27551 net.cpp:411] pool2 -> pool2
I0526 01:30:05.692318 27551 net.cpp:150] Setting up pool2
I0526 01:30:05.692339 27551 net.cpp:157] Top shape: 70 20 27 46 (1738800)
I0526 01:30:05.692358 27551 net.cpp:165] Memory required for data: 84938280
I0526 01:30:05.692370 27551 layer_factory.hpp:77] Creating layer conv3
I0526 01:30:05.692391 27551 net.cpp:106] Creating Layer conv3
I0526 01:30:05.692405 27551 net.cpp:454] conv3 <- pool2
I0526 01:30:05.692421 27551 net.cpp:411] conv3 -> conv3
I0526 01:30:05.694375 27551 net.cpp:150] Setting up conv3
I0526 01:30:05.694401 27551 net.cpp:157] Top shape: 70 28 22 44 (1897280)
I0526 01:30:05.694422 27551 net.cpp:165] Memory required for data: 92527400
I0526 01:30:05.694443 27551 layer_factory.hpp:77] Creating layer relu3
I0526 01:30:05.694466 27551 net.cpp:106] Creating Layer relu3
I0526 01:30:05.694489 27551 net.cpp:454] relu3 <- conv3
I0526 01:30:05.694504 27551 net.cpp:397] relu3 -> conv3 (in-place)
I0526 01:30:05.694991 27551 net.cpp:150] Setting up relu3
I0526 01:30:05.695015 27551 net.cpp:157] Top shape: 70 28 22 44 (1897280)
I0526 01:30:05.695029 27551 net.cpp:165] Memory required for data: 100116520
I0526 01:30:05.695044 27551 layer_factory.hpp:77] Creating layer pool3
I0526 01:30:05.695060 27551 net.cpp:106] Creating Layer pool3
I0526 01:30:05.695082 27551 net.cpp:454] pool3 <- conv3
I0526 01:30:05.695098 27551 net.cpp:411] pool3 -> pool3
I0526 01:30:05.695180 27551 net.cpp:150] Setting up pool3
I0526 01:30:05.695199 27551 net.cpp:157] Top shape: 70 28 11 44 (948640)
I0526 01:30:05.695214 27551 net.cpp:165] Memory required for data: 103911080
I0526 01:30:05.695226 27551 layer_factory.hpp:77] Creating layer conv4
I0526 01:30:05.695253 27551 net.cpp:106] Creating Layer conv4
I0526 01:30:05.695266 27551 net.cpp:454] conv4 <- pool3
I0526 01:30:05.695283 27551 net.cpp:411] conv4 -> conv4
I0526 01:30:05.698096 27551 net.cpp:150] Setting up conv4
I0526 01:30:05.698128 27551 net.cpp:157] Top shape: 70 36 6 42 (635040)
I0526 01:30:05.698143 27551 net.cpp:165] Memory required for data: 106451240
I0526 01:30:05.698163 27551 layer_factory.hpp:77] Creating layer relu4
I0526 01:30:05.698184 27551 net.cpp:106] Creating Layer relu4
I0526 01:30:05.698210 27551 net.cpp:454] relu4 <- conv4
I0526 01:30:05.698226 27551 net.cpp:397] relu4 -> conv4 (in-place)
I0526 01:30:05.698725 27551 net.cpp:150] Setting up relu4
I0526 01:30:05.698750 27551 net.cpp:157] Top shape: 70 36 6 42 (635040)
I0526 01:30:05.698762 27551 net.cpp:165] Memory required for data: 108991400
I0526 01:30:05.698778 27551 layer_factory.hpp:77] Creating layer pool4
I0526 01:30:05.698794 27551 net.cpp:106] Creating Layer pool4
I0526 01:30:05.698817 27551 net.cpp:454] pool4 <- conv4
I0526 01:30:05.698833 27551 net.cpp:411] pool4 -> pool4
I0526 01:30:05.698909 27551 net.cpp:150] Setting up pool4
I0526 01:30:05.698937 27551 net.cpp:157] Top shape: 70 36 3 42 (317520)
I0526 01:30:05.698951 27551 net.cpp:165] Memory required for data: 110261480
I0526 01:30:05.698966 27551 layer_factory.hpp:77] Creating layer ip1
I0526 01:30:05.698987 27551 net.cpp:106] Creating Layer ip1
I0526 01:30:05.699007 27551 net.cpp:454] ip1 <- pool4
I0526 01:30:05.699023 27551 net.cpp:411] ip1 -> ip1
I0526 01:30:05.714447 27551 net.cpp:150] Setting up ip1
I0526 01:30:05.714479 27551 net.cpp:157] Top shape: 70 196 (13720)
I0526 01:30:05.714501 27551 net.cpp:165] Memory required for data: 110316360
I0526 01:30:05.714529 27551 layer_factory.hpp:77] Creating layer relu5
I0526 01:30:05.714550 27551 net.cpp:106] Creating Layer relu5
I0526 01:30:05.714575 27551 net.cpp:454] relu5 <- ip1
I0526 01:30:05.714591 27551 net.cpp:397] relu5 -> ip1 (in-place)
I0526 01:30:05.714947 27551 net.cpp:150] Setting up relu5
I0526 01:30:05.714967 27551 net.cpp:157] Top shape: 70 196 (13720)
I0526 01:30:05.714980 27551 net.cpp:165] Memory required for data: 110371240
I0526 01:30:05.714996 27551 layer_factory.hpp:77] Creating layer drop1
I0526 01:30:05.715026 27551 net.cpp:106] Creating Layer drop1
I0526 01:30:05.715040 27551 net.cpp:454] drop1 <- ip1
I0526 01:30:05.715055 27551 net.cpp:397] drop1 -> ip1 (in-place)
I0526 01:30:05.715122 27551 net.cpp:150] Setting up drop1
I0526 01:30:05.715154 27551 net.cpp:157] Top shape: 70 196 (13720)
I0526 01:30:05.715168 27551 net.cpp:165] Memory required for data: 110426120
I0526 01:30:05.715183 27551 layer_factory.hpp:77] Creating layer ip2
I0526 01:30:05.715204 27551 net.cpp:106] Creating Layer ip2
I0526 01:30:05.715217 27551 net.cpp:454] ip2 <- ip1
I0526 01:30:05.715240 27551 net.cpp:411] ip2 -> ip2
I0526 01:30:05.715728 27551 net.cpp:150] Setting up ip2
I0526 01:30:05.715746 27551 net.cpp:157] Top shape: 70 98 (6860)
I0526 01:30:05.715759 27551 net.cpp:165] Memory required for data: 110453560
I0526 01:30:05.715780 27551 layer_factory.hpp:77] Creating layer relu6
I0526 01:30:05.715801 27551 net.cpp:106] Creating Layer relu6
I0526 01:30:05.715814 27551 net.cpp:454] relu6 <- ip2
I0526 01:30:05.715831 27551 net.cpp:397] relu6 -> ip2 (in-place)
I0526 01:30:05.716373 27551 net.cpp:150] Setting up relu6
I0526 01:30:05.716397 27551 net.cpp:157] Top shape: 70 98 (6860)
I0526 01:30:05.716410 27551 net.cpp:165] Memory required for data: 110481000
I0526 01:30:05.716426 27551 layer_factory.hpp:77] Creating layer drop2
I0526 01:30:05.716442 27551 net.cpp:106] Creating Layer drop2
I0526 01:30:05.716464 27551 net.cpp:454] drop2 <- ip2
I0526 01:30:05.716480 27551 net.cpp:397] drop2 -> ip2 (in-place)
I0526 01:30:05.716531 27551 net.cpp:150] Setting up drop2
I0526 01:30:05.716547 27551 net.cpp:157] Top shape: 70 98 (6860)
I0526 01:30:05.716567 27551 net.cpp:165] Memory required for data: 110508440
I0526 01:30:05.716581 27551 layer_factory.hpp:77] Creating layer ip3
I0526 01:30:05.716596 27551 net.cpp:106] Creating Layer ip3
I0526 01:30:05.716611 27551 net.cpp:454] ip3 <- ip2
I0526 01:30:05.716627 27551 net.cpp:411] ip3 -> ip3
I0526 01:30:05.716868 27551 net.cpp:150] Setting up ip3
I0526 01:30:05.716887 27551 net.cpp:157] Top shape: 70 11 (770)
I0526 01:30:05.716900 27551 net.cpp:165] Memory required for data: 110511520
I0526 01:30:05.716922 27551 layer_factory.hpp:77] Creating layer drop3
I0526 01:30:05.716943 27551 net.cpp:106] Creating Layer drop3
I0526 01:30:05.716956 27551 net.cpp:454] drop3 <- ip3
I0526 01:30:05.716971 27551 net.cpp:397] drop3 -> ip3 (in-place)
I0526 01:30:05.717027 27551 net.cpp:150] Setting up drop3
I0526 01:30:05.717047 27551 net.cpp:157] Top shape: 70 11 (770)
I0526 01:30:05.717067 27551 net.cpp:165] Memory required for data: 110514600
I0526 01:30:05.717079 27551 layer_factory.hpp:77] Creating layer loss
I0526 01:30:05.717103 27551 net.cpp:106] Creating Layer loss
I0526 01:30:05.717116 27551 net.cpp:454] loss <- ip3
I0526 01:30:05.717133 27551 net.cpp:454] loss <- label
I0526 01:30:05.717154 27551 net.cpp:411] loss -> loss
I0526 01:30:05.717175 27551 layer_factory.hpp:77] Creating layer loss
…
I0526 01:30:05.720274 27551 solver.cpp:181] Creating test net (#0) specified by net file: /lustre/atlas/proj-shared/hep105/caffe_titan/caffe_workflow/logs_bslr/bs_70_lr_0.0025_2016-05-20T15.49.14.146224.prototxt
I0526 01:30:05.720353 27551 net.cpp:322] The NetState phase (1) differed from the phase (0) specified by a rule in layer data_hdf5
I0526 01:30:05.720746 27551 net.cpp:49] Initializing net from parameters: 
name: "caffe_test_127x50_x_unshifted"
state {
  phase: TEST
}
layer {
  name: "data_hdf5"
  type: "HDF5Data"
  top: "data"
  top: "label"
  include {
    phase: TEST
  }
  hdf5_data_param {
    source: "/lustre/atlas/proj-shared/hep105/caffe_titan/minosmatch_nukecczdefs_127x50_x_unshifted_me1Bmc.testlist"
    batch_size: 70
  }
}
layer {
  name: "conv1"
  type: "Convolution"
  bottom: "data"
  top: "conv1"
  convolution_param {
    num_output: 12
    pad: 0
    stride: 1
    weight_filler {
      type: "xavier"
    }
    bias_filler {
      type: "constant"
    }
    kernel_h: 8
    kernel_w: 3
  }
}
layer {
  name: "relu1"
  type: "ReLU"
  bottom: "conv1"
  top: "conv1"
}
layer {
  name: "pool1"
  type: "Pooling"
  bottom: "conv1"
  top: "pool1"
  pooling_param {
    pool: MAX
    kernel_h: 2
    kernel_w: 1
    stride_h: 2
    stride_w: 1
  }
}
layer {
  name: "conv2"
  type: "Convolution"
  bottom: "pool1"
  top: "conv2"
  convolution_param {
    num_output: 20
    pad: 0
    stride: 1
    weight_filler {
      type: "xavier"
    }
    bias_filler {
      type: "constant"
    }
    kernel_h: 7
    kernel_w: 3
  }
}
layer {
  name: "relu2"
  type: "ReLU"
  bottom: "conv2"
  top: "conv2"
}
layer {
  name: "pool2"
  type: "Pooling"
  bottom: "conv2"
  top: "pool2"
  pooling_param {
    pool: MAX
    kernel_h: 2
    kernel_w: 1
    stride_h: 2
    stride_w: 1
  }
}
layer {
  name: "conv3"
  type: "Convolution"
  bottom: "pool2"
  top: "conv3"
  convolution_param {
    num_output: 28
    pad: 0
    stride: 1
    weight_filler {
      type: "xavier"
    }
    bias_filler {
      type: "constant"
    }
    kernel_h: 6
    kernel_w: 3
  }
}
layer {
  name: "relu3"
  type: "ReLU"
  bottom: "conv3"
  top: "conv3"
}
layer {
  name: "pool3"
  type: "Pooling"
  bottom: "conv3"
  top: "pool3"
  pooling_param {
    pool: MAX
    kernel_h: 2
    kernel_w: 1
    stride_h: 2
    stride_w: 1
  }
}
layer {
  name: "conv4"
  type: "Convolution"
  bottom: "pool3"
  top: "conv4"
  convolution_param {
    num_output: 36
    pad: 0
    stride: 1
    weight_filler {
      type: "xavier"
    }
    bias_filler {
      type: "constant"
    }
    kernel_h: 6
    kernel_w: 3
  }
}
layer {
  name: "relu4"
  type: "ReLU"
  bottom: "conv4"
  top: "conv4"
}
layer {
  name: "pool4"
  type: "Pooling"
  bottom: "conv4"
  top: "pool4"
  pooling_param {
    pool: MAX
    kernel_h: 2
    kernel_w: 1
    stride_h: 2
    stride_w: 1
  }
}
layer {
  name: "ip1"
  type: "InnerProduct"
  bottom: "pool4"
  top: "ip1"
  inner_product_param {
    num_output: 196
    weight_filler {
      type: "xavier"
    }
    bias_filler {
      type: "constant"
    }
  }
}
layer {
  name: "relu5"
  type: "ReLU"
  bottom: "ip1"
  top: "ip1"
}
layer {
  name: "drop1"
  type: "Dropout"
  bottom: "ip1"
  top: "ip1"
  dropout_param {
    dropout_ratio: 0.5
  }
}
layer {
  name: "ip2"
  type: "InnerProduct"
  bottom: "ip1"
  top: "ip2"
  inner_product_param {
    num_output: 98
    weight_filler {
      type: "xavier"
    }
    bias_filler {
      type: "constant"
    }
  }
}
layer {
  name: "relu6"
  type: "ReLU"
  bottom: "ip2"
  top: "ip2"
}
layer {
  name: "drop2"
  type: "Dropout"
  bottom: "ip2"
  top: "ip2"
  dropout_param {
    dropout_ratio: 0.5
  }
}
layer {
  name: "ip3"
  type: "InnerProduct"
  bottom: "ip2"
  top: "ip3"
  inner_product_param {
    num_output: 11
    weight_filler {
      type: "xavier"
    }
    bias_filler {
      type: "constant"
    }
  }
}
layer {
  name: "drop3"
  type: "Dropout"
  bottom: "ip3"
  top: "ip3"
  dropout_param {
    dropout_ratio: 0.5
  }
}
layer {
  name: "accuracy"
  type: "Accuracy"
  bottom: "ip3"
  bottom: "label"
  top: "accuracy"
  include {
    phase: TEST
  }
}
layer {
  name: "loss"
  type: "SoftmaxWithLoss"
  bottom: "ip3"
  bottom: "label"
  top: "loss"
}
I0526 01:30:05.720973 27551 layer_factory.hpp:77] Creating layer data_hdf5
I0526 01:30:05.720994 27551 net.cpp:106] Creating Layer data_hdf5
I0526 01:30:05.721010 27551 net.cpp:411] data_hdf5 -> data
I0526 01:30:05.721029 27551 net.cpp:411] data_hdf5 -> label
I0526 01:30:05.721050 27551 hdf5_data_layer.cpp:79] Loading list of HDF5 filenames from: /lustre/atlas/proj-shared/hep105/caffe_titan/minosmatch_nukecczdefs_127x50_x_unshifted_me1Bmc.testlist
I0526 01:30:05.722321 27551 hdf5_data_layer.cpp:93] Number of HDF5 files: 3
I0526 01:30:27.042826 27551 net.cpp:150] Setting up data_hdf5
I0526 01:30:27.042994 27551 net.cpp:157] Top shape: 70 1 127 50 (444500)
I0526 01:30:27.043014 27551 net.cpp:157] Top shape: 70 (70)
I0526 01:30:27.043025 27551 net.cpp:165] Memory required for data: 1778280
I0526 01:30:27.043041 27551 layer_factory.hpp:77] Creating layer label_data_hdf5_1_split
I0526 01:30:27.043076 27551 net.cpp:106] Creating Layer label_data_hdf5_1_split
I0526 01:30:27.043089 27551 net.cpp:454] label_data_hdf5_1_split <- label
I0526 01:30:27.043124 27551 net.cpp:411] label_data_hdf5_1_split -> label_data_hdf5_1_split_0
I0526 01:30:27.043148 27551 net.cpp:411] label_data_hdf5_1_split -> label_data_hdf5_1_split_1
I0526 01:30:27.043233 27551 net.cpp:150] Setting up label_data_hdf5_1_split
I0526 01:30:27.043251 27551 net.cpp:157] Top shape: 70 (70)
I0526 01:30:27.043265 27551 net.cpp:157] Top shape: 70 (70)
I0526 01:30:27.043280 27551 net.cpp:165] Memory required for data: 1778840
I0526 01:30:27.043292 27551 layer_factory.hpp:77] Creating layer conv1
I0526 01:30:27.043324 27551 net.cpp:106] Creating Layer conv1
I0526 01:30:27.043337 27551 net.cpp:454] conv1 <- data
I0526 01:30:27.043354 27551 net.cpp:411] conv1 -> conv1
I0526 01:30:27.045320 27551 net.cpp:150] Setting up conv1
I0526 01:30:27.045346 27551 net.cpp:157] Top shape: 70 12 120 48 (4838400)
I0526 01:30:27.045358 27551 net.cpp:165] Memory required for data: 21132440
I0526 01:30:27.045385 27551 layer_factory.hpp:77] Creating layer relu1
I0526 01:30:27.045413 27551 net.cpp:106] Creating Layer relu1
I0526 01:30:27.045428 27551 net.cpp:454] relu1 <- conv1
I0526 01:30:27.045444 27551 net.cpp:397] relu1 -> conv1 (in-place)
I0526 01:30:27.045970 27551 net.cpp:150] Setting up relu1
I0526 01:30:27.045994 27551 net.cpp:157] Top shape: 70 12 120 48 (4838400)
I0526 01:30:27.046007 27551 net.cpp:165] Memory required for data: 40486040
I0526 01:30:27.046020 27551 layer_factory.hpp:77] Creating layer pool1
I0526 01:30:27.046051 27551 net.cpp:106] Creating Layer pool1
I0526 01:30:27.046063 27551 net.cpp:454] pool1 <- conv1
I0526 01:30:27.046080 27551 net.cpp:411] pool1 -> pool1
I0526 01:30:27.046169 27551 net.cpp:150] Setting up pool1
I0526 01:30:27.046186 27551 net.cpp:157] Top shape: 70 12 60 48 (2419200)
I0526 01:30:27.046200 27551 net.cpp:165] Memory required for data: 50162840
I0526 01:30:27.046221 27551 layer_factory.hpp:77] Creating layer conv2
I0526 01:30:27.046241 27551 net.cpp:106] Creating Layer conv2
I0526 01:30:27.046254 27551 net.cpp:454] conv2 <- pool1
I0526 01:30:27.046272 27551 net.cpp:411] conv2 -> conv2
I0526 01:30:27.048208 27551 net.cpp:150] Setting up conv2
I0526 01:30:27.048233 27551 net.cpp:157] Top shape: 70 20 54 46 (3477600)
I0526 01:30:27.048254 27551 net.cpp:165] Memory required for data: 64073240
I0526 01:30:27.048275 27551 layer_factory.hpp:77] Creating layer relu2
I0526 01:30:27.048295 27551 net.cpp:106] Creating Layer relu2
I0526 01:30:27.048316 27551 net.cpp:454] relu2 <- conv2
I0526 01:30:27.048332 27551 net.cpp:397] relu2 -> conv2 (in-place)
I0526 01:30:27.048681 27551 net.cpp:150] Setting up relu2
I0526 01:30:27.048701 27551 net.cpp:157] Top shape: 70 20 54 46 (3477600)
I0526 01:30:27.048713 27551 net.cpp:165] Memory required for data: 77983640
I0526 01:30:27.048738 27551 layer_factory.hpp:77] Creating layer pool2
I0526 01:30:27.048761 27551 net.cpp:106] Creating Layer pool2
I0526 01:30:27.048774 27551 net.cpp:454] pool2 <- conv2
I0526 01:30:27.048789 27551 net.cpp:411] pool2 -> pool2
I0526 01:30:27.048877 27551 net.cpp:150] Setting up pool2
I0526 01:30:27.048893 27551 net.cpp:157] Top shape: 70 20 27 46 (1738800)
I0526 01:30:27.048907 27551 net.cpp:165] Memory required for data: 84938840
I0526 01:30:27.048925 27551 layer_factory.hpp:77] Creating layer conv3
I0526 01:30:27.048949 27551 net.cpp:106] Creating Layer conv3
I0526 01:30:27.048961 27551 net.cpp:454] conv3 <- pool2
I0526 01:30:27.048979 27551 net.cpp:411] conv3 -> conv3
I0526 01:30:27.050987 27551 net.cpp:150] Setting up conv3
I0526 01:30:27.051012 27551 net.cpp:157] Top shape: 70 28 22 44 (1897280)
I0526 01:30:27.051031 27551 net.cpp:165] Memory required for data: 92527960
I0526 01:30:27.051070 27551 layer_factory.hpp:77] Creating layer relu3
I0526 01:30:27.051095 27551 net.cpp:106] Creating Layer relu3
I0526 01:30:27.051110 27551 net.cpp:454] relu3 <- conv3
I0526 01:30:27.051126 27551 net.cpp:397] relu3 -> conv3 (in-place)
I0526 01:30:27.051625 27551 net.cpp:150] Setting up relu3
I0526 01:30:27.051650 27551 net.cpp:157] Top shape: 70 28 22 44 (1897280)
I0526 01:30:27.051662 27551 net.cpp:165] Memory required for data: 100117080
I0526 01:30:27.051678 27551 layer_factory.hpp:77] Creating layer pool3
I0526 01:30:27.051702 27551 net.cpp:106] Creating Layer pool3
I0526 01:30:27.051717 27551 net.cpp:454] pool3 <- conv3
I0526 01:30:27.051733 27551 net.cpp:411] pool3 -> pool3
I0526 01:30:27.051817 27551 net.cpp:150] Setting up pool3
I0526 01:30:27.051836 27551 net.cpp:157] Top shape: 70 28 11 44 (948640)
I0526 01:30:27.051851 27551 net.cpp:165] Memory required for data: 103911640
I0526 01:30:27.051862 27551 layer_factory.hpp:77] Creating layer conv4
I0526 01:30:27.051890 27551 net.cpp:106] Creating Layer conv4
I0526 01:30:27.051903 27551 net.cpp:454] conv4 <- pool3
I0526 01:30:27.051919 27551 net.cpp:411] conv4 -> conv4
I0526 01:30:27.054014 27551 net.cpp:150] Setting up conv4
I0526 01:30:27.054039 27551 net.cpp:157] Top shape: 70 36 6 42 (635040)
I0526 01:30:27.054059 27551 net.cpp:165] Memory required for data: 106451800
I0526 01:30:27.054078 27551 layer_factory.hpp:77] Creating layer relu4
I0526 01:30:27.054098 27551 net.cpp:106] Creating Layer relu4
I0526 01:30:27.054111 27551 net.cpp:454] relu4 <- conv4
I0526 01:30:27.054136 27551 net.cpp:397] relu4 -> conv4 (in-place)
I0526 01:30:27.054623 27551 net.cpp:150] Setting up relu4
I0526 01:30:27.054647 27551 net.cpp:157] Top shape: 70 36 6 42 (635040)
I0526 01:30:27.054661 27551 net.cpp:165] Memory required for data: 108991960
I0526 01:30:27.054677 27551 layer_factory.hpp:77] Creating layer pool4
I0526 01:30:27.054700 27551 net.cpp:106] Creating Layer pool4
I0526 01:30:27.054713 27551 net.cpp:454] pool4 <- conv4
I0526 01:30:27.054729 27551 net.cpp:411] pool4 -> pool4
I0526 01:30:27.054817 27551 net.cpp:150] Setting up pool4
I0526 01:30:27.054834 27551 net.cpp:157] Top shape: 70 36 3 42 (317520)
I0526 01:30:27.054849 27551 net.cpp:165] Memory required for data: 110262040
I0526 01:30:27.054862 27551 layer_factory.hpp:77] Creating layer ip1
I0526 01:30:27.054886 27551 net.cpp:106] Creating Layer ip1
I0526 01:30:27.054899 27551 net.cpp:454] ip1 <- pool4
I0526 01:30:27.054922 27551 net.cpp:411] ip1 -> ip1
I0526 01:30:27.070289 27551 net.cpp:150] Setting up ip1
I0526 01:30:27.070322 27551 net.cpp:157] Top shape: 70 196 (13720)
I0526 01:30:27.070344 27551 net.cpp:165] Memory required for data: 110316920
I0526 01:30:27.070370 27551 layer_factory.hpp:77] Creating layer relu5
I0526 01:30:27.070392 27551 net.cpp:106] Creating Layer relu5
I0526 01:30:27.070417 27551 net.cpp:454] relu5 <- ip1
I0526 01:30:27.070435 27551 net.cpp:397] relu5 -> ip1 (in-place)
I0526 01:30:27.070799 27551 net.cpp:150] Setting up relu5
I0526 01:30:27.070821 27551 net.cpp:157] Top shape: 70 196 (13720)
I0526 01:30:27.070834 27551 net.cpp:165] Memory required for data: 110371800
I0526 01:30:27.070849 27551 layer_factory.hpp:77] Creating layer drop1
I0526 01:30:27.070878 27551 net.cpp:106] Creating Layer drop1
I0526 01:30:27.070893 27551 net.cpp:454] drop1 <- ip1
I0526 01:30:27.070909 27551 net.cpp:397] drop1 -> ip1 (in-place)
I0526 01:30:27.070969 27551 net.cpp:150] Setting up drop1
I0526 01:30:27.070986 27551 net.cpp:157] Top shape: 70 196 (13720)
I0526 01:30:27.070998 27551 net.cpp:165] Memory required for data: 110426680
I0526 01:30:27.071012 27551 layer_factory.hpp:77] Creating layer ip2
I0526 01:30:27.071032 27551 net.cpp:106] Creating Layer ip2
I0526 01:30:27.071043 27551 net.cpp:454] ip2 <- ip1
I0526 01:30:27.071066 27551 net.cpp:411] ip2 -> ip2
I0526 01:30:27.071565 27551 net.cpp:150] Setting up ip2
I0526 01:30:27.071585 27551 net.cpp:157] Top shape: 70 98 (6860)
I0526 01:30:27.071597 27551 net.cpp:165] Memory required for data: 110454120
I0526 01:30:27.071619 27551 layer_factory.hpp:77] Creating layer relu6
I0526 01:30:27.071653 27551 net.cpp:106] Creating Layer relu6
I0526 01:30:27.071666 27551 net.cpp:454] relu6 <- ip2
I0526 01:30:27.071682 27551 net.cpp:397] relu6 -> ip2 (in-place)
I0526 01:30:27.072243 27551 net.cpp:150] Setting up relu6
I0526 01:30:27.072268 27551 net.cpp:157] Top shape: 70 98 (6860)
I0526 01:30:27.072280 27551 net.cpp:165] Memory required for data: 110481560
I0526 01:30:27.072293 27551 layer_factory.hpp:77] Creating layer drop2
I0526 01:30:27.072314 27551 net.cpp:106] Creating Layer drop2
I0526 01:30:27.072335 27551 net.cpp:454] drop2 <- ip2
I0526 01:30:27.072351 27551 net.cpp:397] drop2 -> ip2 (in-place)
I0526 01:30:27.072403 27551 net.cpp:150] Setting up drop2
I0526 01:30:27.072427 27551 net.cpp:157] Top shape: 70 98 (6860)
I0526 01:30:27.072439 27551 net.cpp:165] Memory required for data: 110509000
I0526 01:30:27.072453 27551 layer_factory.hpp:77] Creating layer ip3
I0526 01:30:27.072468 27551 net.cpp:106] Creating Layer ip3
I0526 01:30:27.072484 27551 net.cpp:454] ip3 <- ip2
I0526 01:30:27.072507 27551 net.cpp:411] ip3 -> ip3
I0526 01:30:27.072756 27551 net.cpp:150] Setting up ip3
I0526 01:30:27.072773 27551 net.cpp:157] Top shape: 70 11 (770)
I0526 01:30:27.072787 27551 net.cpp:165] Memory required for data: 110512080
I0526 01:30:27.072808 27551 layer_factory.hpp:77] Creating layer drop3
I0526 01:30:27.072829 27551 net.cpp:106] Creating Layer drop3
I0526 01:30:27.072844 27551 net.cpp:454] drop3 <- ip3
I0526 01:30:27.072860 27551 net.cpp:397] drop3 -> ip3 (in-place)
I0526 01:30:27.072914 27551 net.cpp:150] Setting up drop3
I0526 01:30:27.072932 27551 net.cpp:157] Top shape: 70 11 (770)
I0526 01:30:27.072943 27551 net.cpp:165] Memory required for data: 110515160
I0526 01:30:27.072957 27551 layer_factory.hpp:77] Creating layer ip3_drop3_0_split
I0526 01:30:27.072971 27551 net.cpp:106] Creating Layer ip3_drop3_0_split
I0526 01:30:27.072984 27551 net.cpp:454] ip3_drop3_0_split <- ip3
I0526 01:30:27.073004 27551 net.cpp:411] ip3_drop3_0_split -> ip3_drop3_0_split_0
I0526 01:30:27.073029 27551 net.cpp:411] ip3_drop3_0_split -> ip3_drop3_0_split_1
I0526 01:30:27.073115 27551 net.cpp:150] Setting up ip3_drop3_0_split
I0526 01:30:27.073132 27551 net.cpp:157] Top shape: 70 11 (770)
I0526 01:30:27.073148 27551 net.cpp:157] Top shape: 70 11 (770)
I0526 01:30:27.073160 27551 net.cpp:165] Memory required for data: 110521320
I0526 01:30:27.073175 27551 layer_factory.hpp:77] Creating layer accuracy
I0526 01:30:27.073197 27551 net.cpp:106] Creating Layer accuracy
I0526 01:30:27.073217 27551 net.cpp:454] accuracy <- ip3_drop3_0_split_0
I0526 01:30:27.073231 27551 net.cpp:454] accuracy <- label_data_hdf5_1_split_0
I0526 01:30:27.073248 27551 net.cpp:411] accuracy -> accuracy
…
