…
I0524 02:24:55.041750  3740 net.cpp:322] The NetState phase (0) differed from the phase (1) specified by a rule in layer data_hdf5
I0524 02:24:55.041811  3740 net.cpp:322] The NetState phase (0) differed from the phase (1) specified by a rule in layer accuracy
I0524 02:24:55.042171  3740 net.cpp:49] Initializing net from parameters: 
name: "caffe_test_127x50_x_unshifted"
state {
  phase: TRAIN
}
layer {
  name: "data_hdf5"
  type: "HDF5Data"
  top: "data"
  top: "label"
  include {
    phase: TRAIN
  }
  hdf5_data_param {
    source: "/lustre/atlas/proj-shared/hep105/caffe_titan/minosmatch_nukecczdefs_127x50_x_unshifted_me1Bmc.trainlist"
    batch_size: 70
  }
}
layer {
  name: "conv1"
  type: "Convolution"
  bottom: "data"
  top: "conv1"
  convolution_param {
    num_output: 12
    pad: 0
    stride: 1
    weight_filler {
      type: "xavier"
    }
    bias_filler {
      type: "constant"
    }
    kernel_h: 8
    kernel_w: 3
  }
}
layer {
  name: "relu1"
  type: "ReLU"
  bottom: "conv1"
  top: "conv1"
}
layer {
  name: "pool1"
  type: "Pooling"
  bottom: "conv1"
  top: "pool1"
  pooling_param {
    pool: MAX
    kernel_h: 2
    kernel_w: 1
    stride_h: 2
    stride_w: 1
  }
}
layer {
  name: "conv2"
  type: "Convolution"
  bottom: "pool1"
  top: "conv2"
  convolution_param {
    num_output: 20
    pad: 0
    stride: 1
    weight_filler {
      type: "xavier"
    }
    bias_filler {
      type: "constant"
    }
    kernel_h: 7
    kernel_w: 3
  }
}
layer {
  name: "relu2"
  type: "ReLU"
  bottom: "conv2"
  top: "conv2"
}
layer {
  name: "pool2"
  type: "Pooling"
  bottom: "conv2"
  top: "pool2"
  pooling_param {
    pool: MAX
    kernel_h: 2
    kernel_w: 1
    stride_h: 2
    stride_w: 1
  }
}
layer {
  name: "conv3"
  type: "Convolution"
  bottom: "pool2"
  top: "conv3"
  convolution_param {
    num_output: 28
    pad: 0
    stride: 1
    weight_filler {
      type: "xavier"
    }
    bias_filler {
      type: "constant"
    }
    kernel_h: 6
    kernel_w: 3
  }
}
layer {
  name: "relu3"
  type: "ReLU"
  bottom: "conv3"
  top: "conv3"
}
layer {
  name: "pool3"
  type: "Pooling"
  bottom: "conv3"
  top: "pool3"
  pooling_param {
    pool: MAX
    kernel_h: 2
    kernel_w: 1
    stride_h: 2
    stride_w: 1
  }
}
layer {
  name: "conv4"
  type: "Convolution"
  bottom: "pool3"
  top: "conv4"
  convolution_param {
    num_output: 36
    pad: 0
    stride: 1
    weight_filler {
      type: "xavier"
    }
    bias_filler {
      type: "constant"
    }
    kernel_h: 6
    kernel_w: 3
  }
}
layer {
  name: "relu4"
  type: "ReLU"
  bottom: "conv4"
  top: "conv4"
}
layer {
  name: "pool4"
  type: "Pooling"
  bottom: "conv4"
  top: "pool4"
  pooling_param {
    pool: MAX
    kernel_h: 2
    kernel_w: 1
    stride_h: 2
    stride_w: 1
  }
}
layer {
  name: "ip1"
  type: "InnerProduct"
  bottom: "pool4"
  top: "ip1"
  inner_product_param {
    num_output: 196
    weight_filler {
      type: "xavier"
    }
    bias_filler {
      type: "constant"
    }
  }
}
layer {
  name: "relu5"
  type: "ReLU"
  bottom: "ip1"
  top: "ip1"
}
layer {
  name: "drop1"
  type: "Dropout"
  bottom: "ip1"
  top: "ip1"
  dropout_param {
    dropout_ratio: 0.5
  }
}
layer {
  name: "ip2"
  type: "InnerProduct"
  bottom: "ip1"
  top: "ip2"
  inner_product_param {
    num_output: 98
    weight_filler {
      type: "xavier"
    }
    bias_filler {
      type: "constant"
    }
  }
}
layer {
  name: "relu6"
  type: "ReLU"
  bottom: "ip2"
  top: "ip2"
}
layer {
  name: "drop2"
  type: "Dropout"
  bottom: "ip2"
  top: "ip2"
  dropout_param {
    dropout_ratio: 0.5
  }
}
layer {
  name: "ip3"
  type: "InnerProduct"
  bottom: "ip2"
  top: "ip3"
  inner_product_param {
    num_output: 11
    weight_filler {
      type: "xavier"
    }
    bias_filler {
      type: "constant"
    }
  }
}
layer {
  name: "drop3"
  type: "Dropout"
  bottom: "ip3"
  top: "ip3"
  dropout_param {
    dropout_ratio: 0.5
  }
}
layer {
  name: "loss"
  type: "SoftmaxWithLoss"
  bottom: "ip3"
  bottom: "label"
  top: "loss"
}
I0524 02:24:55.042352  3740 layer_factory.hpp:77] Creating layer data_hdf5
I0524 02:24:55.042376  3740 net.cpp:106] Creating Layer data_hdf5
I0524 02:24:55.042392  3740 net.cpp:411] data_hdf5 -> data
I0524 02:24:55.042424  3740 net.cpp:411] data_hdf5 -> label
I0524 02:24:55.042456  3740 hdf5_data_layer.cpp:79] Loading list of HDF5 filenames from: /lustre/atlas/proj-shared/hep105/caffe_titan/minosmatch_nukecczdefs_127x50_x_unshifted_me1Bmc.trainlist
I0524 02:24:55.103474  3740 hdf5_data_layer.cpp:93] Number of HDF5 files: 15
I0524 02:24:55.140889  3740 hdf5.cpp:32] Datatype class: H5T_FLOAT
I0524 02:25:16.685768  3740 hdf5.cpp:35] Datatype class: H5T_INTEGER
I0524 02:25:16.716512  3740 net.cpp:150] Setting up data_hdf5
I0524 02:25:16.716555  3740 net.cpp:157] Top shape: 70 1 127 50 (444500)
I0524 02:25:16.716570  3740 net.cpp:157] Top shape: 70 (70)
I0524 02:25:16.716581  3740 net.cpp:165] Memory required for data: 1778280
I0524 02:25:16.716595  3740 layer_factory.hpp:77] Creating layer conv1
I0524 02:25:16.716629  3740 net.cpp:106] Creating Layer conv1
I0524 02:25:16.716640  3740 net.cpp:454] conv1 <- data
I0524 02:25:16.716662  3740 net.cpp:411] conv1 -> conv1
I0524 02:25:18.137862  3740 net.cpp:150] Setting up conv1
I0524 02:25:18.137907  3740 net.cpp:157] Top shape: 70 12 120 48 (4838400)
I0524 02:25:18.137919  3740 net.cpp:165] Memory required for data: 21131880
I0524 02:25:18.137948  3740 layer_factory.hpp:77] Creating layer relu1
I0524 02:25:18.137970  3740 net.cpp:106] Creating Layer relu1
I0524 02:25:18.137981  3740 net.cpp:454] relu1 <- conv1
I0524 02:25:18.137995  3740 net.cpp:397] relu1 -> conv1 (in-place)
I0524 02:25:18.138515  3740 net.cpp:150] Setting up relu1
I0524 02:25:18.138532  3740 net.cpp:157] Top shape: 70 12 120 48 (4838400)
I0524 02:25:18.138542  3740 net.cpp:165] Memory required for data: 40485480
I0524 02:25:18.138553  3740 layer_factory.hpp:77] Creating layer pool1
I0524 02:25:18.138571  3740 net.cpp:106] Creating Layer pool1
I0524 02:25:18.138579  3740 net.cpp:454] pool1 <- conv1
I0524 02:25:18.138592  3740 net.cpp:411] pool1 -> pool1
I0524 02:25:18.138672  3740 net.cpp:150] Setting up pool1
I0524 02:25:18.138686  3740 net.cpp:157] Top shape: 70 12 60 48 (2419200)
I0524 02:25:18.138696  3740 net.cpp:165] Memory required for data: 50162280
I0524 02:25:18.138705  3740 layer_factory.hpp:77] Creating layer conv2
I0524 02:25:18.138728  3740 net.cpp:106] Creating Layer conv2
I0524 02:25:18.138738  3740 net.cpp:454] conv2 <- pool1
I0524 02:25:18.138751  3740 net.cpp:411] conv2 -> conv2
I0524 02:25:18.141507  3740 net.cpp:150] Setting up conv2
I0524 02:25:18.141535  3740 net.cpp:157] Top shape: 70 20 54 46 (3477600)
I0524 02:25:18.141546  3740 net.cpp:165] Memory required for data: 64072680
I0524 02:25:18.141566  3740 layer_factory.hpp:77] Creating layer relu2
I0524 02:25:18.141580  3740 net.cpp:106] Creating Layer relu2
I0524 02:25:18.141590  3740 net.cpp:454] relu2 <- conv2
I0524 02:25:18.141603  3740 net.cpp:397] relu2 -> conv2 (in-place)
I0524 02:25:18.141934  3740 net.cpp:150] Setting up relu2
I0524 02:25:18.141949  3740 net.cpp:157] Top shape: 70 20 54 46 (3477600)
I0524 02:25:18.141959  3740 net.cpp:165] Memory required for data: 77983080
I0524 02:25:18.141970  3740 layer_factory.hpp:77] Creating layer pool2
I0524 02:25:18.141983  3740 net.cpp:106] Creating Layer pool2
I0524 02:25:18.141993  3740 net.cpp:454] pool2 <- conv2
I0524 02:25:18.142005  3740 net.cpp:411] pool2 -> pool2
I0524 02:25:18.142087  3740 net.cpp:150] Setting up pool2
I0524 02:25:18.142102  3740 net.cpp:157] Top shape: 70 20 27 46 (1738800)
I0524 02:25:18.142112  3740 net.cpp:165] Memory required for data: 84938280
I0524 02:25:18.142122  3740 layer_factory.hpp:77] Creating layer conv3
I0524 02:25:18.142140  3740 net.cpp:106] Creating Layer conv3
I0524 02:25:18.142150  3740 net.cpp:454] conv3 <- pool2
I0524 02:25:18.142164  3740 net.cpp:411] conv3 -> conv3
I0524 02:25:18.144073  3740 net.cpp:150] Setting up conv3
I0524 02:25:18.144096  3740 net.cpp:157] Top shape: 70 28 22 44 (1897280)
I0524 02:25:18.144109  3740 net.cpp:165] Memory required for data: 92527400
I0524 02:25:18.144127  3740 layer_factory.hpp:77] Creating layer relu3
I0524 02:25:18.144143  3740 net.cpp:106] Creating Layer relu3
I0524 02:25:18.144153  3740 net.cpp:454] relu3 <- conv3
I0524 02:25:18.144166  3740 net.cpp:397] relu3 -> conv3 (in-place)
I0524 02:25:18.144634  3740 net.cpp:150] Setting up relu3
I0524 02:25:18.144652  3740 net.cpp:157] Top shape: 70 28 22 44 (1897280)
I0524 02:25:18.144662  3740 net.cpp:165] Memory required for data: 100116520
I0524 02:25:18.144672  3740 layer_factory.hpp:77] Creating layer pool3
I0524 02:25:18.144685  3740 net.cpp:106] Creating Layer pool3
I0524 02:25:18.144695  3740 net.cpp:454] pool3 <- conv3
I0524 02:25:18.144708  3740 net.cpp:411] pool3 -> pool3
I0524 02:25:18.144775  3740 net.cpp:150] Setting up pool3
I0524 02:25:18.144789  3740 net.cpp:157] Top shape: 70 28 11 44 (948640)
I0524 02:25:18.144798  3740 net.cpp:165] Memory required for data: 103911080
I0524 02:25:18.144809  3740 layer_factory.hpp:77] Creating layer conv4
I0524 02:25:18.144829  3740 net.cpp:106] Creating Layer conv4
I0524 02:25:18.144839  3740 net.cpp:454] conv4 <- pool3
I0524 02:25:18.144852  3740 net.cpp:411] conv4 -> conv4
I0524 02:25:18.147656  3740 net.cpp:150] Setting up conv4
I0524 02:25:18.147686  3740 net.cpp:157] Top shape: 70 36 6 42 (635040)
I0524 02:25:18.147696  3740 net.cpp:165] Memory required for data: 106451240
I0524 02:25:18.147711  3740 layer_factory.hpp:77] Creating layer relu4
I0524 02:25:18.147725  3740 net.cpp:106] Creating Layer relu4
I0524 02:25:18.147735  3740 net.cpp:454] relu4 <- conv4
I0524 02:25:18.147749  3740 net.cpp:397] relu4 -> conv4 (in-place)
I0524 02:25:18.148221  3740 net.cpp:150] Setting up relu4
I0524 02:25:18.148237  3740 net.cpp:157] Top shape: 70 36 6 42 (635040)
I0524 02:25:18.148248  3740 net.cpp:165] Memory required for data: 108991400
I0524 02:25:18.148260  3740 layer_factory.hpp:77] Creating layer pool4
I0524 02:25:18.148273  3740 net.cpp:106] Creating Layer pool4
I0524 02:25:18.148283  3740 net.cpp:454] pool4 <- conv4
I0524 02:25:18.148296  3740 net.cpp:411] pool4 -> pool4
I0524 02:25:18.148365  3740 net.cpp:150] Setting up pool4
I0524 02:25:18.148377  3740 net.cpp:157] Top shape: 70 36 3 42 (317520)
I0524 02:25:18.148388  3740 net.cpp:165] Memory required for data: 110261480
I0524 02:25:18.148398  3740 layer_factory.hpp:77] Creating layer ip1
I0524 02:25:18.148416  3740 net.cpp:106] Creating Layer ip1
I0524 02:25:18.148427  3740 net.cpp:454] ip1 <- pool4
I0524 02:25:18.148439  3740 net.cpp:411] ip1 -> ip1
I0524 02:25:18.163880  3740 net.cpp:150] Setting up ip1
I0524 02:25:18.163909  3740 net.cpp:157] Top shape: 70 196 (13720)
I0524 02:25:18.163921  3740 net.cpp:165] Memory required for data: 110316360
I0524 02:25:18.163944  3740 layer_factory.hpp:77] Creating layer relu5
I0524 02:25:18.163959  3740 net.cpp:106] Creating Layer relu5
I0524 02:25:18.163969  3740 net.cpp:454] relu5 <- ip1
I0524 02:25:18.163982  3740 net.cpp:397] relu5 -> ip1 (in-place)
I0524 02:25:18.164324  3740 net.cpp:150] Setting up relu5
I0524 02:25:18.164337  3740 net.cpp:157] Top shape: 70 196 (13720)
I0524 02:25:18.164348  3740 net.cpp:165] Memory required for data: 110371240
I0524 02:25:18.164358  3740 layer_factory.hpp:77] Creating layer drop1
I0524 02:25:18.164381  3740 net.cpp:106] Creating Layer drop1
I0524 02:25:18.164391  3740 net.cpp:454] drop1 <- ip1
I0524 02:25:18.164403  3740 net.cpp:397] drop1 -> ip1 (in-place)
I0524 02:25:18.164464  3740 net.cpp:150] Setting up drop1
I0524 02:25:18.164477  3740 net.cpp:157] Top shape: 70 196 (13720)
I0524 02:25:18.164487  3740 net.cpp:165] Memory required for data: 110426120
I0524 02:25:18.164497  3740 layer_factory.hpp:77] Creating layer ip2
I0524 02:25:18.164516  3740 net.cpp:106] Creating Layer ip2
I0524 02:25:18.164526  3740 net.cpp:454] ip2 <- ip1
I0524 02:25:18.164540  3740 net.cpp:411] ip2 -> ip2
I0524 02:25:18.165000  3740 net.cpp:150] Setting up ip2
I0524 02:25:18.165014  3740 net.cpp:157] Top shape: 70 98 (6860)
I0524 02:25:18.165024  3740 net.cpp:165] Memory required for data: 110453560
I0524 02:25:18.165040  3740 layer_factory.hpp:77] Creating layer relu6
I0524 02:25:18.165052  3740 net.cpp:106] Creating Layer relu6
I0524 02:25:18.165061  3740 net.cpp:454] relu6 <- ip2
I0524 02:25:18.165073  3740 net.cpp:397] relu6 -> ip2 (in-place)
I0524 02:25:18.165596  3740 net.cpp:150] Setting up relu6
I0524 02:25:18.165612  3740 net.cpp:157] Top shape: 70 98 (6860)
I0524 02:25:18.165622  3740 net.cpp:165] Memory required for data: 110481000
I0524 02:25:18.165633  3740 layer_factory.hpp:77] Creating layer drop2
I0524 02:25:18.165647  3740 net.cpp:106] Creating Layer drop2
I0524 02:25:18.165655  3740 net.cpp:454] drop2 <- ip2
I0524 02:25:18.165668  3740 net.cpp:397] drop2 -> ip2 (in-place)
I0524 02:25:18.165711  3740 net.cpp:150] Setting up drop2
I0524 02:25:18.165724  3740 net.cpp:157] Top shape: 70 98 (6860)
I0524 02:25:18.165735  3740 net.cpp:165] Memory required for data: 110508440
I0524 02:25:18.165745  3740 layer_factory.hpp:77] Creating layer ip3
I0524 02:25:18.165758  3740 net.cpp:106] Creating Layer ip3
I0524 02:25:18.165768  3740 net.cpp:454] ip3 <- ip2
I0524 02:25:18.165781  3740 net.cpp:411] ip3 -> ip3
I0524 02:25:18.165989  3740 net.cpp:150] Setting up ip3
I0524 02:25:18.166002  3740 net.cpp:157] Top shape: 70 11 (770)
I0524 02:25:18.166013  3740 net.cpp:165] Memory required for data: 110511520
I0524 02:25:18.166028  3740 layer_factory.hpp:77] Creating layer drop3
I0524 02:25:18.166040  3740 net.cpp:106] Creating Layer drop3
I0524 02:25:18.166050  3740 net.cpp:454] drop3 <- ip3
I0524 02:25:18.166062  3740 net.cpp:397] drop3 -> ip3 (in-place)
I0524 02:25:18.166101  3740 net.cpp:150] Setting up drop3
I0524 02:25:18.166115  3740 net.cpp:157] Top shape: 70 11 (770)
I0524 02:25:18.166126  3740 net.cpp:165] Memory required for data: 110514600
I0524 02:25:18.166136  3740 layer_factory.hpp:77] Creating layer loss
I0524 02:25:18.166154  3740 net.cpp:106] Creating Layer loss
I0524 02:25:18.166164  3740 net.cpp:454] loss <- ip3
I0524 02:25:18.166175  3740 net.cpp:454] loss <- label
I0524 02:25:18.166188  3740 net.cpp:411] loss -> loss
I0524 02:25:18.166204  3740 layer_factory.hpp:77] Creating layer loss
…
I0524 02:25:19.690381  3740 solver.cpp:181] Creating test net (#0) specified by net file: /lustre/atlas/proj-shared/hep105/caffe_titan/caffe_workflow/logs_bslr/bs_70_lr_0.0035_2016-05-20T15.49.14.901987.prototxt
I0524 02:25:19.690461  3740 net.cpp:322] The NetState phase (1) differed from the phase (0) specified by a rule in layer data_hdf5
I0524 02:25:19.690824  3740 net.cpp:49] Initializing net from parameters: 
name: "caffe_test_127x50_x_unshifted"
state {
  phase: TEST
}
layer {
  name: "data_hdf5"
  type: "HDF5Data"
  top: "data"
  top: "label"
  include {
    phase: TEST
  }
  hdf5_data_param {
    source: "/lustre/atlas/proj-shared/hep105/caffe_titan/minosmatch_nukecczdefs_127x50_x_unshifted_me1Bmc.testlist"
    batch_size: 70
  }
}
layer {
  name: "conv1"
  type: "Convolution"
  bottom: "data"
  top: "conv1"
  convolution_param {
    num_output: 12
    pad: 0
    stride: 1
    weight_filler {
      type: "xavier"
    }
    bias_filler {
      type: "constant"
    }
    kernel_h: 8
    kernel_w: 3
  }
}
layer {
  name: "relu1"
  type: "ReLU"
  bottom: "conv1"
  top: "conv1"
}
layer {
  name: "pool1"
  type: "Pooling"
  bottom: "conv1"
  top: "pool1"
  pooling_param {
    pool: MAX
    kernel_h: 2
    kernel_w: 1
    stride_h: 2
    stride_w: 1
  }
}
layer {
  name: "conv2"
  type: "Convolution"
  bottom: "pool1"
  top: "conv2"
  convolution_param {
    num_output: 20
    pad: 0
    stride: 1
    weight_filler {
      type: "xavier"
    }
    bias_filler {
      type: "constant"
    }
    kernel_h: 7
    kernel_w: 3
  }
}
layer {
  name: "relu2"
  type: "ReLU"
  bottom: "conv2"
  top: "conv2"
}
layer {
  name: "pool2"
  type: "Pooling"
  bottom: "conv2"
  top: "pool2"
  pooling_param {
    pool: MAX
    kernel_h: 2
    kernel_w: 1
    stride_h: 2
    stride_w: 1
  }
}
layer {
  name: "conv3"
  type: "Convolution"
  bottom: "pool2"
  top: "conv3"
  convolution_param {
    num_output: 28
    pad: 0
    stride: 1
    weight_filler {
      type: "xavier"
    }
    bias_filler {
      type: "constant"
    }
    kernel_h: 6
    kernel_w: 3
  }
}
layer {
  name: "relu3"
  type: "ReLU"
  bottom: "conv3"
  top: "conv3"
}
layer {
  name: "pool3"
  type: "Pooling"
  bottom: "conv3"
  top: "pool3"
  pooling_param {
    pool: MAX
    kernel_h: 2
    kernel_w: 1
    stride_h: 2
    stride_w: 1
  }
}
layer {
  name: "conv4"
  type: "Convolution"
  bottom: "pool3"
  top: "conv4"
  convolution_param {
    num_output: 36
    pad: 0
    stride: 1
    weight_filler {
      type: "xavier"
    }
    bias_filler {
      type: "constant"
    }
    kernel_h: 6
    kernel_w: 3
  }
}
layer {
  name: "relu4"
  type: "ReLU"
  bottom: "conv4"
  top: "conv4"
}
layer {
  name: "pool4"
  type: "Pooling"
  bottom: "conv4"
  top: "pool4"
  pooling_param {
    pool: MAX
    kernel_h: 2
    kernel_w: 1
    stride_h: 2
    stride_w: 1
  }
}
layer {
  name: "ip1"
  type: "InnerProduct"
  bottom: "pool4"
  top: "ip1"
  inner_product_param {
    num_output: 196
    weight_filler {
      type: "xavier"
    }
    bias_filler {
      type: "constant"
    }
  }
}
layer {
  name: "relu5"
  type: "ReLU"
  bottom: "ip1"
  top: "ip1"
}
layer {
  name: "drop1"
  type: "Dropout"
  bottom: "ip1"
  top: "ip1"
  dropout_param {
    dropout_ratio: 0.5
  }
}
layer {
  name: "ip2"
  type: "InnerProduct"
  bottom: "ip1"
  top: "ip2"
  inner_product_param {
    num_output: 98
    weight_filler {
      type: "xavier"
    }
    bias_filler {
      type: "constant"
    }
  }
}
layer {
  name: "relu6"
  type: "ReLU"
  bottom: "ip2"
  top: "ip2"
}
layer {
  name: "drop2"
  type: "Dropout"
  bottom: "ip2"
  top: "ip2"
  dropout_param {
    dropout_ratio: 0.5
  }
}
layer {
  name: "ip3"
  type: "InnerProduct"
  bottom: "ip2"
  top: "ip3"
  inner_product_param {
    num_output: 11
    weight_filler {
      type: "xavier"
    }
    bias_filler {
      type: "constant"
    }
  }
}
layer {
  name: "drop3"
  type: "Dropout"
  bottom: "ip3"
  top: "ip3"
  dropout_param {
    dropout_ratio: 0.5
  }
}
layer {
  name: "accuracy"
  type: "Accuracy"
  bottom: "ip3"
  bottom: "label"
  top: "accuracy"
  include {
    phase: TEST
  }
}
layer {
  name: "loss"
  type: "SoftmaxWithLoss"
  bottom: "ip3"
  bottom: "label"
  top: "loss"
}
I0524 02:25:19.691017  3740 layer_factory.hpp:77] Creating layer data_hdf5
I0524 02:25:19.691032  3740 net.cpp:106] Creating Layer data_hdf5
I0524 02:25:19.691045  3740 net.cpp:411] data_hdf5 -> data
I0524 02:25:19.691061  3740 net.cpp:411] data_hdf5 -> label
I0524 02:25:19.691077  3740 hdf5_data_layer.cpp:79] Loading list of HDF5 filenames from: /lustre/atlas/proj-shared/hep105/caffe_titan/minosmatch_nukecczdefs_127x50_x_unshifted_me1Bmc.testlist
I0524 02:25:19.711786  3740 hdf5_data_layer.cpp:93] Number of HDF5 files: 3
I0524 02:25:41.110007  3740 net.cpp:150] Setting up data_hdf5
I0524 02:25:41.110170  3740 net.cpp:157] Top shape: 70 1 127 50 (444500)
I0524 02:25:41.110185  3740 net.cpp:157] Top shape: 70 (70)
I0524 02:25:41.110198  3740 net.cpp:165] Memory required for data: 1778280
I0524 02:25:41.110211  3740 layer_factory.hpp:77] Creating layer label_data_hdf5_1_split
I0524 02:25:41.110239  3740 net.cpp:106] Creating Layer label_data_hdf5_1_split
I0524 02:25:41.110249  3740 net.cpp:454] label_data_hdf5_1_split <- label
I0524 02:25:41.110265  3740 net.cpp:411] label_data_hdf5_1_split -> label_data_hdf5_1_split_0
I0524 02:25:41.110285  3740 net.cpp:411] label_data_hdf5_1_split -> label_data_hdf5_1_split_1
I0524 02:25:41.110358  3740 net.cpp:150] Setting up label_data_hdf5_1_split
I0524 02:25:41.110373  3740 net.cpp:157] Top shape: 70 (70)
I0524 02:25:41.110384  3740 net.cpp:157] Top shape: 70 (70)
I0524 02:25:41.110394  3740 net.cpp:165] Memory required for data: 1778840
I0524 02:25:41.110404  3740 layer_factory.hpp:77] Creating layer conv1
I0524 02:25:41.110426  3740 net.cpp:106] Creating Layer conv1
I0524 02:25:41.110436  3740 net.cpp:454] conv1 <- data
I0524 02:25:41.110452  3740 net.cpp:411] conv1 -> conv1
I0524 02:25:41.112361  3740 net.cpp:150] Setting up conv1
I0524 02:25:41.112386  3740 net.cpp:157] Top shape: 70 12 120 48 (4838400)
I0524 02:25:41.112398  3740 net.cpp:165] Memory required for data: 21132440
I0524 02:25:41.112418  3740 layer_factory.hpp:77] Creating layer relu1
I0524 02:25:41.112433  3740 net.cpp:106] Creating Layer relu1
I0524 02:25:41.112443  3740 net.cpp:454] relu1 <- conv1
I0524 02:25:41.112457  3740 net.cpp:397] relu1 -> conv1 (in-place)
I0524 02:25:41.112958  3740 net.cpp:150] Setting up relu1
I0524 02:25:41.112975  3740 net.cpp:157] Top shape: 70 12 120 48 (4838400)
I0524 02:25:41.112985  3740 net.cpp:165] Memory required for data: 40486040
I0524 02:25:41.112995  3740 layer_factory.hpp:77] Creating layer pool1
I0524 02:25:41.113013  3740 net.cpp:106] Creating Layer pool1
I0524 02:25:41.113023  3740 net.cpp:454] pool1 <- conv1
I0524 02:25:41.113035  3740 net.cpp:411] pool1 -> pool1
I0524 02:25:41.113111  3740 net.cpp:150] Setting up pool1
I0524 02:25:41.113124  3740 net.cpp:157] Top shape: 70 12 60 48 (2419200)
I0524 02:25:41.113133  3740 net.cpp:165] Memory required for data: 50162840
I0524 02:25:41.113142  3740 layer_factory.hpp:77] Creating layer conv2
I0524 02:25:41.113159  3740 net.cpp:106] Creating Layer conv2
I0524 02:25:41.113169  3740 net.cpp:454] conv2 <- pool1
I0524 02:25:41.113184  3740 net.cpp:411] conv2 -> conv2
I0524 02:25:41.115111  3740 net.cpp:150] Setting up conv2
I0524 02:25:41.115134  3740 net.cpp:157] Top shape: 70 20 54 46 (3477600)
I0524 02:25:41.115144  3740 net.cpp:165] Memory required for data: 64073240
I0524 02:25:41.115164  3740 layer_factory.hpp:77] Creating layer relu2
I0524 02:25:41.115177  3740 net.cpp:106] Creating Layer relu2
I0524 02:25:41.115188  3740 net.cpp:454] relu2 <- conv2
I0524 02:25:41.115200  3740 net.cpp:397] relu2 -> conv2 (in-place)
I0524 02:25:41.115532  3740 net.cpp:150] Setting up relu2
I0524 02:25:41.115547  3740 net.cpp:157] Top shape: 70 20 54 46 (3477600)
I0524 02:25:41.115556  3740 net.cpp:165] Memory required for data: 77983640
I0524 02:25:41.115567  3740 layer_factory.hpp:77] Creating layer pool2
I0524 02:25:41.115581  3740 net.cpp:106] Creating Layer pool2
I0524 02:25:41.115591  3740 net.cpp:454] pool2 <- conv2
I0524 02:25:41.115602  3740 net.cpp:411] pool2 -> pool2
I0524 02:25:41.115674  3740 net.cpp:150] Setting up pool2
I0524 02:25:41.115687  3740 net.cpp:157] Top shape: 70 20 27 46 (1738800)
I0524 02:25:41.115697  3740 net.cpp:165] Memory required for data: 84938840
I0524 02:25:41.115706  3740 layer_factory.hpp:77] Creating layer conv3
I0524 02:25:41.115726  3740 net.cpp:106] Creating Layer conv3
I0524 02:25:41.115736  3740 net.cpp:454] conv3 <- pool2
I0524 02:25:41.115751  3740 net.cpp:411] conv3 -> conv3
I0524 02:25:41.117729  3740 net.cpp:150] Setting up conv3
I0524 02:25:41.117753  3740 net.cpp:157] Top shape: 70 28 22 44 (1897280)
I0524 02:25:41.117764  3740 net.cpp:165] Memory required for data: 92527960
I0524 02:25:41.117797  3740 layer_factory.hpp:77] Creating layer relu3
I0524 02:25:41.117811  3740 net.cpp:106] Creating Layer relu3
I0524 02:25:41.117821  3740 net.cpp:454] relu3 <- conv3
I0524 02:25:41.117835  3740 net.cpp:397] relu3 -> conv3 (in-place)
I0524 02:25:41.118306  3740 net.cpp:150] Setting up relu3
I0524 02:25:41.118322  3740 net.cpp:157] Top shape: 70 28 22 44 (1897280)
I0524 02:25:41.118332  3740 net.cpp:165] Memory required for data: 100117080
I0524 02:25:41.118343  3740 layer_factory.hpp:77] Creating layer pool3
I0524 02:25:41.118355  3740 net.cpp:106] Creating Layer pool3
I0524 02:25:41.118366  3740 net.cpp:454] pool3 <- conv3
I0524 02:25:41.118378  3740 net.cpp:411] pool3 -> pool3
I0524 02:25:41.118449  3740 net.cpp:150] Setting up pool3
I0524 02:25:41.118463  3740 net.cpp:157] Top shape: 70 28 11 44 (948640)
I0524 02:25:41.118472  3740 net.cpp:165] Memory required for data: 103911640
I0524 02:25:41.118482  3740 layer_factory.hpp:77] Creating layer conv4
I0524 02:25:41.118499  3740 net.cpp:106] Creating Layer conv4
I0524 02:25:41.118510  3740 net.cpp:454] conv4 <- pool3
I0524 02:25:41.118525  3740 net.cpp:411] conv4 -> conv4
I0524 02:25:41.120579  3740 net.cpp:150] Setting up conv4
I0524 02:25:41.120602  3740 net.cpp:157] Top shape: 70 36 6 42 (635040)
I0524 02:25:41.120615  3740 net.cpp:165] Memory required for data: 106451800
I0524 02:25:41.120630  3740 layer_factory.hpp:77] Creating layer relu4
I0524 02:25:41.120643  3740 net.cpp:106] Creating Layer relu4
I0524 02:25:41.120654  3740 net.cpp:454] relu4 <- conv4
I0524 02:25:41.120666  3740 net.cpp:397] relu4 -> conv4 (in-place)
I0524 02:25:41.121134  3740 net.cpp:150] Setting up relu4
I0524 02:25:41.121150  3740 net.cpp:157] Top shape: 70 36 6 42 (635040)
I0524 02:25:41.121160  3740 net.cpp:165] Memory required for data: 108991960
I0524 02:25:41.121171  3740 layer_factory.hpp:77] Creating layer pool4
I0524 02:25:41.121183  3740 net.cpp:106] Creating Layer pool4
I0524 02:25:41.121193  3740 net.cpp:454] pool4 <- conv4
I0524 02:25:41.121206  3740 net.cpp:411] pool4 -> pool4
I0524 02:25:41.121286  3740 net.cpp:150] Setting up pool4
I0524 02:25:41.121300  3740 net.cpp:157] Top shape: 70 36 3 42 (317520)
I0524 02:25:41.121309  3740 net.cpp:165] Memory required for data: 110262040
I0524 02:25:41.121318  3740 layer_factory.hpp:77] Creating layer ip1
I0524 02:25:41.121333  3740 net.cpp:106] Creating Layer ip1
I0524 02:25:41.121343  3740 net.cpp:454] ip1 <- pool4
I0524 02:25:41.121357  3740 net.cpp:411] ip1 -> ip1
I0524 02:25:41.136821  3740 net.cpp:150] Setting up ip1
I0524 02:25:41.136850  3740 net.cpp:157] Top shape: 70 196 (13720)
I0524 02:25:41.136862  3740 net.cpp:165] Memory required for data: 110316920
I0524 02:25:41.136885  3740 layer_factory.hpp:77] Creating layer relu5
I0524 02:25:41.136899  3740 net.cpp:106] Creating Layer relu5
I0524 02:25:41.136910  3740 net.cpp:454] relu5 <- ip1
I0524 02:25:41.136924  3740 net.cpp:397] relu5 -> ip1 (in-place)
I0524 02:25:41.137279  3740 net.cpp:150] Setting up relu5
I0524 02:25:41.137292  3740 net.cpp:157] Top shape: 70 196 (13720)
I0524 02:25:41.137302  3740 net.cpp:165] Memory required for data: 110371800
I0524 02:25:41.137312  3740 layer_factory.hpp:77] Creating layer drop1
I0524 02:25:41.137331  3740 net.cpp:106] Creating Layer drop1
I0524 02:25:41.137341  3740 net.cpp:454] drop1 <- ip1
I0524 02:25:41.137354  3740 net.cpp:397] drop1 -> ip1 (in-place)
I0524 02:25:41.137403  3740 net.cpp:150] Setting up drop1
I0524 02:25:41.137415  3740 net.cpp:157] Top shape: 70 196 (13720)
I0524 02:25:41.137425  3740 net.cpp:165] Memory required for data: 110426680
I0524 02:25:41.137434  3740 layer_factory.hpp:77] Creating layer ip2
I0524 02:25:41.137449  3740 net.cpp:106] Creating Layer ip2
I0524 02:25:41.137459  3740 net.cpp:454] ip2 <- ip1
I0524 02:25:41.137472  3740 net.cpp:411] ip2 -> ip2
I0524 02:25:41.137953  3740 net.cpp:150] Setting up ip2
I0524 02:25:41.137965  3740 net.cpp:157] Top shape: 70 98 (6860)
I0524 02:25:41.137975  3740 net.cpp:165] Memory required for data: 110454120
I0524 02:25:41.137991  3740 layer_factory.hpp:77] Creating layer relu6
I0524 02:25:41.138016  3740 net.cpp:106] Creating Layer relu6
I0524 02:25:41.138027  3740 net.cpp:454] relu6 <- ip2
I0524 02:25:41.138041  3740 net.cpp:397] relu6 -> ip2 (in-place)
I0524 02:25:41.138567  3740 net.cpp:150] Setting up relu6
I0524 02:25:41.138584  3740 net.cpp:157] Top shape: 70 98 (6860)
I0524 02:25:41.138594  3740 net.cpp:165] Memory required for data: 110481560
I0524 02:25:41.138607  3740 layer_factory.hpp:77] Creating layer drop2
I0524 02:25:41.138619  3740 net.cpp:106] Creating Layer drop2
I0524 02:25:41.138629  3740 net.cpp:454] drop2 <- ip2
I0524 02:25:41.138643  3740 net.cpp:397] drop2 -> ip2 (in-place)
I0524 02:25:41.138687  3740 net.cpp:150] Setting up drop2
I0524 02:25:41.138700  3740 net.cpp:157] Top shape: 70 98 (6860)
I0524 02:25:41.138710  3740 net.cpp:165] Memory required for data: 110509000
I0524 02:25:41.138720  3740 layer_factory.hpp:77] Creating layer ip3
I0524 02:25:41.138734  3740 net.cpp:106] Creating Layer ip3
I0524 02:25:41.138743  3740 net.cpp:454] ip3 <- ip2
I0524 02:25:41.138757  3740 net.cpp:411] ip3 -> ip3
I0524 02:25:41.138980  3740 net.cpp:150] Setting up ip3
I0524 02:25:41.138994  3740 net.cpp:157] Top shape: 70 11 (770)
I0524 02:25:41.139003  3740 net.cpp:165] Memory required for data: 110512080
I0524 02:25:41.139019  3740 layer_factory.hpp:77] Creating layer drop3
I0524 02:25:41.139031  3740 net.cpp:106] Creating Layer drop3
I0524 02:25:41.139041  3740 net.cpp:454] drop3 <- ip3
I0524 02:25:41.139055  3740 net.cpp:397] drop3 -> ip3 (in-place)
I0524 02:25:41.139096  3740 net.cpp:150] Setting up drop3
I0524 02:25:41.139108  3740 net.cpp:157] Top shape: 70 11 (770)
I0524 02:25:41.139118  3740 net.cpp:165] Memory required for data: 110515160
I0524 02:25:41.139127  3740 layer_factory.hpp:77] Creating layer ip3_drop3_0_split
I0524 02:25:41.139140  3740 net.cpp:106] Creating Layer ip3_drop3_0_split
I0524 02:25:41.139154  3740 net.cpp:454] ip3_drop3_0_split <- ip3
I0524 02:25:41.139171  3740 net.cpp:411] ip3_drop3_0_split -> ip3_drop3_0_split_0
I0524 02:25:41.139189  3740 net.cpp:411] ip3_drop3_0_split -> ip3_drop3_0_split_1
I0524 02:25:41.139263  3740 net.cpp:150] Setting up ip3_drop3_0_split
I0524 02:25:41.139276  3740 net.cpp:157] Top shape: 70 11 (770)
I0524 02:25:41.139289  3740 net.cpp:157] Top shape: 70 11 (770)
I0524 02:25:41.139299  3740 net.cpp:165] Memory required for data: 110521320
I0524 02:25:41.139309  3740 layer_factory.hpp:77] Creating layer accuracy
I0524 02:25:41.139330  3740 net.cpp:106] Creating Layer accuracy
I0524 02:25:41.139340  3740 net.cpp:454] accuracy <- ip3_drop3_0_split_0
I0524 02:25:41.139351  3740 net.cpp:454] accuracy <- label_data_hdf5_1_split_0
I0524 02:25:41.139365  3740 net.cpp:411] accuracy -> accuracy
…
