…
I0524 04:03:51.751973  7761 net.cpp:322] The NetState phase (0) differed from the phase (1) specified by a rule in layer data_hdf5
I0524 04:03:51.752038  7761 net.cpp:322] The NetState phase (0) differed from the phase (1) specified by a rule in layer accuracy
I0524 04:03:51.752427  7761 net.cpp:49] Initializing net from parameters: 
name: "caffe_test_127x50_x_unshifted"
state {
  phase: TRAIN
}
layer {
  name: "data_hdf5"
  type: "HDF5Data"
  top: "data"
  top: "label"
  include {
    phase: TRAIN
  }
  hdf5_data_param {
    source: "/lustre/atlas/proj-shared/hep105/caffe_titan/minosmatch_nukecczdefs_127x50_x_unshifted_me1Bmc.trainlist"
    batch_size: 70
  }
}
layer {
  name: "conv1"
  type: "Convolution"
  bottom: "data"
  top: "conv1"
  convolution_param {
    num_output: 12
    pad: 0
    stride: 1
    weight_filler {
      type: "xavier"
    }
    bias_filler {
      type: "constant"
    }
    kernel_h: 8
    kernel_w: 3
  }
}
layer {
  name: "relu1"
  type: "ReLU"
  bottom: "conv1"
  top: "conv1"
}
layer {
  name: "pool1"
  type: "Pooling"
  bottom: "conv1"
  top: "pool1"
  pooling_param {
    pool: MAX
    kernel_h: 2
    kernel_w: 1
    stride_h: 2
    stride_w: 1
  }
}
layer {
  name: "conv2"
  type: "Convolution"
  bottom: "pool1"
  top: "conv2"
  convolution_param {
    num_output: 20
    pad: 0
    stride: 1
    weight_filler {
      type: "xavier"
    }
    bias_filler {
      type: "constant"
    }
    kernel_h: 7
    kernel_w: 3
  }
}
layer {
  name: "relu2"
  type: "ReLU"
  bottom: "conv2"
  top: "conv2"
}
layer {
  name: "pool2"
  type: "Pooling"
  bottom: "conv2"
  top: "pool2"
  pooling_param {
    pool: MAX
    kernel_h: 2
    kernel_w: 1
    stride_h: 2
    stride_w: 1
  }
}
layer {
  name: "conv3"
  type: "Convolution"
  bottom: "pool2"
  top: "conv3"
  convolution_param {
    num_output: 28
    pad: 0
    stride: 1
    weight_filler {
      type: "xavier"
    }
    bias_filler {
      type: "constant"
    }
    kernel_h: 6
    kernel_w: 3
  }
}
layer {
  name: "relu3"
  type: "ReLU"
  bottom: "conv3"
  top: "conv3"
}
layer {
  name: "pool3"
  type: "Pooling"
  bottom: "conv3"
  top: "pool3"
  pooling_param {
    pool: MAX
    kernel_h: 2
    kernel_w: 1
    stride_h: 2
    stride_w: 1
  }
}
layer {
  name: "conv4"
  type: "Convolution"
  bottom: "pool3"
  top: "conv4"
  convolution_param {
    num_output: 36
    pad: 0
    stride: 1
    weight_filler {
      type: "xavier"
    }
    bias_filler {
      type: "constant"
    }
    kernel_h: 6
    kernel_w: 3
  }
}
layer {
  name: "relu4"
  type: "ReLU"
  bottom: "conv4"
  top: "conv4"
}
layer {
  name: "pool4"
  type: "Pooling"
  bottom: "conv4"
  top: "pool4"
  pooling_param {
    pool: MAX
    kernel_h: 2
    kernel_w: 1
    stride_h: 2
    stride_w: 1
  }
}
layer {
  name: "ip1"
  type: "InnerProduct"
  bottom: "pool4"
  top: "ip1"
  inner_product_param {
    num_output: 196
    weight_filler {
      type: "xavier"
    }
    bias_filler {
      type: "constant"
    }
  }
}
layer {
  name: "relu5"
  type: "ReLU"
  bottom: "ip1"
  top: "ip1"
}
layer {
  name: "drop1"
  type: "Dropout"
  bottom: "ip1"
  top: "ip1"
  dropout_param {
    dropout_ratio: 0.5
  }
}
layer {
  name: "ip2"
  type: "InnerProduct"
  bottom: "ip1"
  top: "ip2"
  inner_product_param {
    num_output: 98
    weight_filler {
      type: "xavier"
    }
    bias_filler {
      type: "constant"
    }
  }
}
layer {
  name: "relu6"
  type: "ReLU"
  bottom: "ip2"
  top: "ip2"
}
layer {
  name: "drop2"
  type: "Dropout"
  bottom: "ip2"
  top: "ip2"
  dropout_param {
    dropout_ratio: 0.5
  }
}
layer {
  name: "ip3"
  type: "InnerProduct"
  bottom: "ip2"
  top: "ip3"
  inner_product_param {
    num_output: 11
    weight_filler {
      type: "xavier"
    }
    bias_filler {
      type: "constant"
    }
  }
}
layer {
  name: "drop3"
  type: "Dropout"
  bottom: "ip3"
  top: "ip3"
  dropout_param {
    dropout_ratio: 0.5
  }
}
layer {
  name: "loss"
  type: "SoftmaxWithLoss"
  bottom: "ip3"
  bottom: "label"
  top: "loss"
}
I0524 04:03:51.752631  7761 layer_factory.hpp:77] Creating layer data_hdf5
I0524 04:03:51.752658  7761 net.cpp:106] Creating Layer data_hdf5
I0524 04:03:51.752678  7761 net.cpp:411] data_hdf5 -> data
I0524 04:03:51.752718  7761 net.cpp:411] data_hdf5 -> label
I0524 04:03:51.752759  7761 hdf5_data_layer.cpp:79] Loading list of HDF5 filenames from: /lustre/atlas/proj-shared/hep105/caffe_titan/minosmatch_nukecczdefs_127x50_x_unshifted_me1Bmc.trainlist
I0524 04:03:51.760777  7761 hdf5_data_layer.cpp:93] Number of HDF5 files: 15
I0524 04:03:51.772387  7761 hdf5.cpp:32] Datatype class: H5T_FLOAT
I0524 04:04:13.355226  7761 hdf5.cpp:35] Datatype class: H5T_INTEGER
I0524 04:04:13.360430  7761 net.cpp:150] Setting up data_hdf5
I0524 04:04:13.360471  7761 net.cpp:157] Top shape: 70 1 127 50 (444500)
I0524 04:04:13.360488  7761 net.cpp:157] Top shape: 70 (70)
I0524 04:04:13.360501  7761 net.cpp:165] Memory required for data: 1778280
I0524 04:04:13.360520  7761 layer_factory.hpp:77] Creating layer conv1
I0524 04:04:13.360566  7761 net.cpp:106] Creating Layer conv1
I0524 04:04:13.360580  7761 net.cpp:454] conv1 <- data
I0524 04:04:13.360615  7761 net.cpp:411] conv1 -> conv1
I0524 04:04:16.595937  7761 net.cpp:150] Setting up conv1
I0524 04:04:16.595993  7761 net.cpp:157] Top shape: 70 12 120 48 (4838400)
I0524 04:04:16.596015  7761 net.cpp:165] Memory required for data: 21131880
I0524 04:04:16.596046  7761 layer_factory.hpp:77] Creating layer relu1
I0524 04:04:16.596068  7761 net.cpp:106] Creating Layer relu1
I0524 04:04:16.596081  7761 net.cpp:454] relu1 <- conv1
I0524 04:04:16.596124  7761 net.cpp:397] relu1 -> conv1 (in-place)
I0524 04:04:16.596663  7761 net.cpp:150] Setting up relu1
I0524 04:04:16.596686  7761 net.cpp:157] Top shape: 70 12 120 48 (4838400)
I0524 04:04:16.596700  7761 net.cpp:165] Memory required for data: 40485480
I0524 04:04:16.596716  7761 layer_factory.hpp:77] Creating layer pool1
I0524 04:04:16.596743  7761 net.cpp:106] Creating Layer pool1
I0524 04:04:16.596756  7761 net.cpp:454] pool1 <- conv1
I0524 04:04:16.596773  7761 net.cpp:411] pool1 -> pool1
I0524 04:04:16.596868  7761 net.cpp:150] Setting up pool1
I0524 04:04:16.596885  7761 net.cpp:157] Top shape: 70 12 60 48 (2419200)
I0524 04:04:16.596900  7761 net.cpp:165] Memory required for data: 50162280
I0524 04:04:16.596920  7761 layer_factory.hpp:77] Creating layer conv2
I0524 04:04:16.596946  7761 net.cpp:106] Creating Layer conv2
I0524 04:04:16.596958  7761 net.cpp:454] conv2 <- pool1
I0524 04:04:16.596977  7761 net.cpp:411] conv2 -> conv2
I0524 04:04:16.599728  7761 net.cpp:150] Setting up conv2
I0524 04:04:16.599759  7761 net.cpp:157] Top shape: 70 20 54 46 (3477600)
I0524 04:04:16.599776  7761 net.cpp:165] Memory required for data: 64072680
I0524 04:04:16.599803  7761 layer_factory.hpp:77] Creating layer relu2
I0524 04:04:16.599830  7761 net.cpp:106] Creating Layer relu2
I0524 04:04:16.599844  7761 net.cpp:454] relu2 <- conv2
I0524 04:04:16.599861  7761 net.cpp:397] relu2 -> conv2 (in-place)
I0524 04:04:16.600221  7761 net.cpp:150] Setting up relu2
I0524 04:04:16.600242  7761 net.cpp:157] Top shape: 70 20 54 46 (3477600)
I0524 04:04:16.600255  7761 net.cpp:165] Memory required for data: 77983080
I0524 04:04:16.600278  7761 layer_factory.hpp:77] Creating layer pool2
I0524 04:04:16.600302  7761 net.cpp:106] Creating Layer pool2
I0524 04:04:16.600317  7761 net.cpp:454] pool2 <- conv2
I0524 04:04:16.600332  7761 net.cpp:411] pool2 -> pool2
I0524 04:04:16.600430  7761 net.cpp:150] Setting up pool2
I0524 04:04:16.600450  7761 net.cpp:157] Top shape: 70 20 27 46 (1738800)
I0524 04:04:16.600467  7761 net.cpp:165] Memory required for data: 84938280
I0524 04:04:16.600481  7761 layer_factory.hpp:77] Creating layer conv3
I0524 04:04:16.600502  7761 net.cpp:106] Creating Layer conv3
I0524 04:04:16.600514  7761 net.cpp:454] conv3 <- pool2
I0524 04:04:16.600530  7761 net.cpp:411] conv3 -> conv3
I0524 04:04:16.602474  7761 net.cpp:150] Setting up conv3
I0524 04:04:16.602499  7761 net.cpp:157] Top shape: 70 28 22 44 (1897280)
I0524 04:04:16.602520  7761 net.cpp:165] Memory required for data: 92527400
I0524 04:04:16.602543  7761 layer_factory.hpp:77] Creating layer relu3
I0524 04:04:16.602566  7761 net.cpp:106] Creating Layer relu3
I0524 04:04:16.602587  7761 net.cpp:454] relu3 <- conv3
I0524 04:04:16.602603  7761 net.cpp:397] relu3 -> conv3 (in-place)
I0524 04:04:16.603093  7761 net.cpp:150] Setting up relu3
I0524 04:04:16.603117  7761 net.cpp:157] Top shape: 70 28 22 44 (1897280)
I0524 04:04:16.603130  7761 net.cpp:165] Memory required for data: 100116520
I0524 04:04:16.603147  7761 layer_factory.hpp:77] Creating layer pool3
I0524 04:04:16.603163  7761 net.cpp:106] Creating Layer pool3
I0524 04:04:16.603185  7761 net.cpp:454] pool3 <- conv3
I0524 04:04:16.603201  7761 net.cpp:411] pool3 -> pool3
I0524 04:04:16.603282  7761 net.cpp:150] Setting up pool3
I0524 04:04:16.603305  7761 net.cpp:157] Top shape: 70 28 11 44 (948640)
I0524 04:04:16.603317  7761 net.cpp:165] Memory required for data: 103911080
I0524 04:04:16.603333  7761 layer_factory.hpp:77] Creating layer conv4
I0524 04:04:16.603359  7761 net.cpp:106] Creating Layer conv4
I0524 04:04:16.603374  7761 net.cpp:454] conv4 <- pool3
I0524 04:04:16.603389  7761 net.cpp:411] conv4 -> conv4
I0524 04:04:16.606218  7761 net.cpp:150] Setting up conv4
I0524 04:04:16.606251  7761 net.cpp:157] Top shape: 70 36 6 42 (635040)
I0524 04:04:16.606266  7761 net.cpp:165] Memory required for data: 106451240
I0524 04:04:16.606286  7761 layer_factory.hpp:77] Creating layer relu4
I0524 04:04:16.606307  7761 net.cpp:106] Creating Layer relu4
I0524 04:04:16.606333  7761 net.cpp:454] relu4 <- conv4
I0524 04:04:16.606350  7761 net.cpp:397] relu4 -> conv4 (in-place)
I0524 04:04:16.606849  7761 net.cpp:150] Setting up relu4
I0524 04:04:16.606873  7761 net.cpp:157] Top shape: 70 36 6 42 (635040)
I0524 04:04:16.606886  7761 net.cpp:165] Memory required for data: 108991400
I0524 04:04:16.606902  7761 layer_factory.hpp:77] Creating layer pool4
I0524 04:04:16.606919  7761 net.cpp:106] Creating Layer pool4
I0524 04:04:16.606940  7761 net.cpp:454] pool4 <- conv4
I0524 04:04:16.606956  7761 net.cpp:411] pool4 -> pool4
I0524 04:04:16.607038  7761 net.cpp:150] Setting up pool4
I0524 04:04:16.607061  7761 net.cpp:157] Top shape: 70 36 3 42 (317520)
I0524 04:04:16.607075  7761 net.cpp:165] Memory required for data: 110261480
I0524 04:04:16.607090  7761 layer_factory.hpp:77] Creating layer ip1
I0524 04:04:16.607118  7761 net.cpp:106] Creating Layer ip1
I0524 04:04:16.607132  7761 net.cpp:454] ip1 <- pool4
I0524 04:04:16.607148  7761 net.cpp:411] ip1 -> ip1
I0524 04:04:16.622599  7761 net.cpp:150] Setting up ip1
I0524 04:04:16.622632  7761 net.cpp:157] Top shape: 70 196 (13720)
I0524 04:04:16.622653  7761 net.cpp:165] Memory required for data: 110316360
I0524 04:04:16.622680  7761 layer_factory.hpp:77] Creating layer relu5
I0524 04:04:16.622702  7761 net.cpp:106] Creating Layer relu5
I0524 04:04:16.622727  7761 net.cpp:454] relu5 <- ip1
I0524 04:04:16.622745  7761 net.cpp:397] relu5 -> ip1 (in-place)
I0524 04:04:16.623105  7761 net.cpp:150] Setting up relu5
I0524 04:04:16.623124  7761 net.cpp:157] Top shape: 70 196 (13720)
I0524 04:04:16.623138  7761 net.cpp:165] Memory required for data: 110371240
I0524 04:04:16.623153  7761 layer_factory.hpp:77] Creating layer drop1
I0524 04:04:16.623184  7761 net.cpp:106] Creating Layer drop1
I0524 04:04:16.623198  7761 net.cpp:454] drop1 <- ip1
I0524 04:04:16.623221  7761 net.cpp:397] drop1 -> ip1 (in-place)
I0524 04:04:16.623296  7761 net.cpp:150] Setting up drop1
I0524 04:04:16.623312  7761 net.cpp:157] Top shape: 70 196 (13720)
I0524 04:04:16.623325  7761 net.cpp:165] Memory required for data: 110426120
I0524 04:04:16.623337  7761 layer_factory.hpp:77] Creating layer ip2
I0524 04:04:16.623361  7761 net.cpp:106] Creating Layer ip2
I0524 04:04:16.623374  7761 net.cpp:454] ip2 <- ip1
I0524 04:04:16.623397  7761 net.cpp:411] ip2 -> ip2
I0524 04:04:16.623883  7761 net.cpp:150] Setting up ip2
I0524 04:04:16.623903  7761 net.cpp:157] Top shape: 70 98 (6860)
I0524 04:04:16.623916  7761 net.cpp:165] Memory required for data: 110453560
I0524 04:04:16.623937  7761 layer_factory.hpp:77] Creating layer relu6
I0524 04:04:16.623960  7761 net.cpp:106] Creating Layer relu6
I0524 04:04:16.623973  7761 net.cpp:454] relu6 <- ip2
I0524 04:04:16.623988  7761 net.cpp:397] relu6 -> ip2 (in-place)
I0524 04:04:16.624541  7761 net.cpp:150] Setting up relu6
I0524 04:04:16.624564  7761 net.cpp:157] Top shape: 70 98 (6860)
I0524 04:04:16.624578  7761 net.cpp:165] Memory required for data: 110481000
I0524 04:04:16.624595  7761 layer_factory.hpp:77] Creating layer drop2
I0524 04:04:16.624619  7761 net.cpp:106] Creating Layer drop2
I0524 04:04:16.624632  7761 net.cpp:454] drop2 <- ip2
I0524 04:04:16.624649  7761 net.cpp:397] drop2 -> ip2 (in-place)
I0524 04:04:16.624699  7761 net.cpp:150] Setting up drop2
I0524 04:04:16.624722  7761 net.cpp:157] Top shape: 70 98 (6860)
I0524 04:04:16.624735  7761 net.cpp:165] Memory required for data: 110508440
I0524 04:04:16.624754  7761 layer_factory.hpp:77] Creating layer ip3
I0524 04:04:16.624771  7761 net.cpp:106] Creating Layer ip3
I0524 04:04:16.624786  7761 net.cpp:454] ip3 <- ip2
I0524 04:04:16.624801  7761 net.cpp:411] ip3 -> ip3
I0524 04:04:16.625033  7761 net.cpp:150] Setting up ip3
I0524 04:04:16.625053  7761 net.cpp:157] Top shape: 70 11 (770)
I0524 04:04:16.625066  7761 net.cpp:165] Memory required for data: 110511520
I0524 04:04:16.625087  7761 layer_factory.hpp:77] Creating layer drop3
I0524 04:04:16.625108  7761 net.cpp:106] Creating Layer drop3
I0524 04:04:16.625121  7761 net.cpp:454] drop3 <- ip3
I0524 04:04:16.625136  7761 net.cpp:397] drop3 -> ip3 (in-place)
I0524 04:04:16.625185  7761 net.cpp:150] Setting up drop3
I0524 04:04:16.625206  7761 net.cpp:157] Top shape: 70 11 (770)
I0524 04:04:16.625219  7761 net.cpp:165] Memory required for data: 110514600
I0524 04:04:16.625236  7761 layer_factory.hpp:77] Creating layer loss
I0524 04:04:16.625257  7761 net.cpp:106] Creating Layer loss
I0524 04:04:16.625272  7761 net.cpp:454] loss <- ip3
I0524 04:04:16.625285  7761 net.cpp:454] loss <- label
I0524 04:04:16.625308  7761 net.cpp:411] loss -> loss
I0524 04:04:16.625327  7761 layer_factory.hpp:77] Creating layer loss
…
I0524 04:04:16.628207  7761 solver.cpp:181] Creating test net (#0) specified by net file: /lustre/atlas/proj-shared/hep105/caffe_titan/caffe_workflow/logs_bslr/bs_70_lr_0.0040_2016-05-20T15.49.15.268270.prototxt
I0524 04:04:16.628296  7761 net.cpp:322] The NetState phase (1) differed from the phase (0) specified by a rule in layer data_hdf5
I0524 04:04:16.628676  7761 net.cpp:49] Initializing net from parameters: 
name: "caffe_test_127x50_x_unshifted"
state {
  phase: TEST
}
layer {
  name: "data_hdf5"
  type: "HDF5Data"
  top: "data"
  top: "label"
  include {
    phase: TEST
  }
  hdf5_data_param {
    source: "/lustre/atlas/proj-shared/hep105/caffe_titan/minosmatch_nukecczdefs_127x50_x_unshifted_me1Bmc.testlist"
    batch_size: 70
  }
}
layer {
  name: "conv1"
  type: "Convolution"
  bottom: "data"
  top: "conv1"
  convolution_param {
    num_output: 12
    pad: 0
    stride: 1
    weight_filler {
      type: "xavier"
    }
    bias_filler {
      type: "constant"
    }
    kernel_h: 8
    kernel_w: 3
  }
}
layer {
  name: "relu1"
  type: "ReLU"
  bottom: "conv1"
  top: "conv1"
}
layer {
  name: "pool1"
  type: "Pooling"
  bottom: "conv1"
  top: "pool1"
  pooling_param {
    pool: MAX
    kernel_h: 2
    kernel_w: 1
    stride_h: 2
    stride_w: 1
  }
}
layer {
  name: "conv2"
  type: "Convolution"
  bottom: "pool1"
  top: "conv2"
  convolution_param {
    num_output: 20
    pad: 0
    stride: 1
    weight_filler {
      type: "xavier"
    }
    bias_filler {
      type: "constant"
    }
    kernel_h: 7
    kernel_w: 3
  }
}
layer {
  name: "relu2"
  type: "ReLU"
  bottom: "conv2"
  top: "conv2"
}
layer {
  name: "pool2"
  type: "Pooling"
  bottom: "conv2"
  top: "pool2"
  pooling_param {
    pool: MAX
    kernel_h: 2
    kernel_w: 1
    stride_h: 2
    stride_w: 1
  }
}
layer {
  name: "conv3"
  type: "Convolution"
  bottom: "pool2"
  top: "conv3"
  convolution_param {
    num_output: 28
    pad: 0
    stride: 1
    weight_filler {
      type: "xavier"
    }
    bias_filler {
      type: "constant"
    }
    kernel_h: 6
    kernel_w: 3
  }
}
layer {
  name: "relu3"
  type: "ReLU"
  bottom: "conv3"
  top: "conv3"
}
layer {
  name: "pool3"
  type: "Pooling"
  bottom: "conv3"
  top: "pool3"
  pooling_param {
    pool: MAX
    kernel_h: 2
    kernel_w: 1
    stride_h: 2
    stride_w: 1
  }
}
layer {
  name: "conv4"
  type: "Convolution"
  bottom: "pool3"
  top: "conv4"
  convolution_param {
    num_output: 36
    pad: 0
    stride: 1
    weight_filler {
      type: "xavier"
    }
    bias_filler {
      type: "constant"
    }
    kernel_h: 6
    kernel_w: 3
  }
}
layer {
  name: "relu4"
  type: "ReLU"
  bottom: "conv4"
  top: "conv4"
}
layer {
  name: "pool4"
  type: "Pooling"
  bottom: "conv4"
  top: "pool4"
  pooling_param {
    pool: MAX
    kernel_h: 2
    kernel_w: 1
    stride_h: 2
    stride_w: 1
  }
}
layer {
  name: "ip1"
  type: "InnerProduct"
  bottom: "pool4"
  top: "ip1"
  inner_product_param {
    num_output: 196
    weight_filler {
      type: "xavier"
    }
    bias_filler {
      type: "constant"
    }
  }
}
layer {
  name: "relu5"
  type: "ReLU"
  bottom: "ip1"
  top: "ip1"
}
layer {
  name: "drop1"
  type: "Dropout"
  bottom: "ip1"
  top: "ip1"
  dropout_param {
    dropout_ratio: 0.5
  }
}
layer {
  name: "ip2"
  type: "InnerProduct"
  bottom: "ip1"
  top: "ip2"
  inner_product_param {
    num_output: 98
    weight_filler {
      type: "xavier"
    }
    bias_filler {
      type: "constant"
    }
  }
}
layer {
  name: "relu6"
  type: "ReLU"
  bottom: "ip2"
  top: "ip2"
}
layer {
  name: "drop2"
  type: "Dropout"
  bottom: "ip2"
  top: "ip2"
  dropout_param {
    dropout_ratio: 0.5
  }
}
layer {
  name: "ip3"
  type: "InnerProduct"
  bottom: "ip2"
  top: "ip3"
  inner_product_param {
    num_output: 11
    weight_filler {
      type: "xavier"
    }
    bias_filler {
      type: "constant"
    }
  }
}
layer {
  name: "drop3"
  type: "Dropout"
  bottom: "ip3"
  top: "ip3"
  dropout_param {
    dropout_ratio: 0.5
  }
}
layer {
  name: "accuracy"
  type: "Accuracy"
  bottom: "ip3"
  bottom: "label"
  top: "accuracy"
  include {
    phase: TEST
  }
}
layer {
  name: "loss"
  type: "SoftmaxWithLoss"
  bottom: "ip3"
  bottom: "label"
  top: "loss"
}
I0524 04:04:16.628897  7761 layer_factory.hpp:77] Creating layer data_hdf5
I0524 04:04:16.628917  7761 net.cpp:106] Creating Layer data_hdf5
I0524 04:04:16.628937  7761 net.cpp:411] data_hdf5 -> data
I0524 04:04:16.628955  7761 net.cpp:411] data_hdf5 -> label
I0524 04:04:16.628976  7761 hdf5_data_layer.cpp:79] Loading list of HDF5 filenames from: /lustre/atlas/proj-shared/hep105/caffe_titan/minosmatch_nukecczdefs_127x50_x_unshifted_me1Bmc.testlist
I0524 04:04:16.642158  7761 hdf5_data_layer.cpp:93] Number of HDF5 files: 3
I0524 04:04:38.046474  7761 net.cpp:150] Setting up data_hdf5
I0524 04:04:38.046643  7761 net.cpp:157] Top shape: 70 1 127 50 (444500)
I0524 04:04:38.046669  7761 net.cpp:157] Top shape: 70 (70)
I0524 04:04:38.046684  7761 net.cpp:165] Memory required for data: 1778280
I0524 04:04:38.046697  7761 layer_factory.hpp:77] Creating layer label_data_hdf5_1_split
I0524 04:04:38.046726  7761 net.cpp:106] Creating Layer label_data_hdf5_1_split
I0524 04:04:38.046739  7761 net.cpp:454] label_data_hdf5_1_split <- label
I0524 04:04:38.046762  7761 net.cpp:411] label_data_hdf5_1_split -> label_data_hdf5_1_split_0
I0524 04:04:38.046804  7761 net.cpp:411] label_data_hdf5_1_split -> label_data_hdf5_1_split_1
I0524 04:04:38.046880  7761 net.cpp:150] Setting up label_data_hdf5_1_split
I0524 04:04:38.046900  7761 net.cpp:157] Top shape: 70 (70)
I0524 04:04:38.046923  7761 net.cpp:157] Top shape: 70 (70)
I0524 04:04:38.046936  7761 net.cpp:165] Memory required for data: 1778840
I0524 04:04:38.046949  7761 layer_factory.hpp:77] Creating layer conv1
I0524 04:04:38.046973  7761 net.cpp:106] Creating Layer conv1
I0524 04:04:38.046989  7761 net.cpp:454] conv1 <- data
I0524 04:04:38.047013  7761 net.cpp:411] conv1 -> conv1
I0524 04:04:38.048965  7761 net.cpp:150] Setting up conv1
I0524 04:04:38.048991  7761 net.cpp:157] Top shape: 70 12 120 48 (4838400)
I0524 04:04:38.049012  7761 net.cpp:165] Memory required for data: 21132440
I0524 04:04:38.049036  7761 layer_factory.hpp:77] Creating layer relu1
I0524 04:04:38.049057  7761 net.cpp:106] Creating Layer relu1
I0524 04:04:38.049082  7761 net.cpp:454] relu1 <- conv1
I0524 04:04:38.049098  7761 net.cpp:397] relu1 -> conv1 (in-place)
I0524 04:04:38.049621  7761 net.cpp:150] Setting up relu1
I0524 04:04:38.049645  7761 net.cpp:157] Top shape: 70 12 120 48 (4838400)
I0524 04:04:38.049661  7761 net.cpp:165] Memory required for data: 40486040
I0524 04:04:38.049674  7761 layer_factory.hpp:77] Creating layer pool1
I0524 04:04:38.049705  7761 net.cpp:106] Creating Layer pool1
I0524 04:04:38.049717  7761 net.cpp:454] pool1 <- conv1
I0524 04:04:38.049734  7761 net.cpp:411] pool1 -> pool1
I0524 04:04:38.049825  7761 net.cpp:150] Setting up pool1
I0524 04:04:38.049842  7761 net.cpp:157] Top shape: 70 12 60 48 (2419200)
I0524 04:04:38.049857  7761 net.cpp:165] Memory required for data: 50162840
I0524 04:04:38.049876  7761 layer_factory.hpp:77] Creating layer conv2
I0524 04:04:38.049897  7761 net.cpp:106] Creating Layer conv2
I0524 04:04:38.049911  7761 net.cpp:454] conv2 <- pool1
I0524 04:04:38.049927  7761 net.cpp:411] conv2 -> conv2
I0524 04:04:38.051878  7761 net.cpp:150] Setting up conv2
I0524 04:04:38.051903  7761 net.cpp:157] Top shape: 70 20 54 46 (3477600)
I0524 04:04:38.051923  7761 net.cpp:165] Memory required for data: 64073240
I0524 04:04:38.051945  7761 layer_factory.hpp:77] Creating layer relu2
I0524 04:04:38.051965  7761 net.cpp:106] Creating Layer relu2
I0524 04:04:38.051987  7761 net.cpp:454] relu2 <- conv2
I0524 04:04:38.052003  7761 net.cpp:397] relu2 -> conv2 (in-place)
I0524 04:04:38.052359  7761 net.cpp:150] Setting up relu2
I0524 04:04:38.052379  7761 net.cpp:157] Top shape: 70 20 54 46 (3477600)
I0524 04:04:38.052392  7761 net.cpp:165] Memory required for data: 77983640
I0524 04:04:38.052408  7761 layer_factory.hpp:77] Creating layer pool2
I0524 04:04:38.052431  7761 net.cpp:106] Creating Layer pool2
I0524 04:04:38.052444  7761 net.cpp:454] pool2 <- conv2
I0524 04:04:38.052460  7761 net.cpp:411] pool2 -> pool2
I0524 04:04:38.052548  7761 net.cpp:150] Setting up pool2
I0524 04:04:38.052566  7761 net.cpp:157] Top shape: 70 20 27 46 (1738800)
I0524 04:04:38.052577  7761 net.cpp:165] Memory required for data: 84938840
I0524 04:04:38.052593  7761 layer_factory.hpp:77] Creating layer conv3
I0524 04:04:38.052621  7761 net.cpp:106] Creating Layer conv3
I0524 04:04:38.052635  7761 net.cpp:454] conv3 <- pool2
I0524 04:04:38.052660  7761 net.cpp:411] conv3 -> conv3
I0524 04:04:38.054672  7761 net.cpp:150] Setting up conv3
I0524 04:04:38.054697  7761 net.cpp:157] Top shape: 70 28 22 44 (1897280)
I0524 04:04:38.054716  7761 net.cpp:165] Memory required for data: 92527960
I0524 04:04:38.054755  7761 layer_factory.hpp:77] Creating layer relu3
I0524 04:04:38.054782  7761 net.cpp:106] Creating Layer relu3
I0524 04:04:38.054796  7761 net.cpp:454] relu3 <- conv3
I0524 04:04:38.054813  7761 net.cpp:397] relu3 -> conv3 (in-place)
I0524 04:04:38.055315  7761 net.cpp:150] Setting up relu3
I0524 04:04:38.055338  7761 net.cpp:157] Top shape: 70 28 22 44 (1897280)
I0524 04:04:38.055352  7761 net.cpp:165] Memory required for data: 100117080
I0524 04:04:38.055368  7761 layer_factory.hpp:77] Creating layer pool3
I0524 04:04:38.055392  7761 net.cpp:106] Creating Layer pool3
I0524 04:04:38.055407  7761 net.cpp:454] pool3 <- conv3
I0524 04:04:38.055423  7761 net.cpp:411] pool3 -> pool3
I0524 04:04:38.055508  7761 net.cpp:150] Setting up pool3
I0524 04:04:38.055526  7761 net.cpp:157] Top shape: 70 28 11 44 (948640)
I0524 04:04:38.055541  7761 net.cpp:165] Memory required for data: 103911640
I0524 04:04:38.055553  7761 layer_factory.hpp:77] Creating layer conv4
I0524 04:04:38.055580  7761 net.cpp:106] Creating Layer conv4
I0524 04:04:38.055593  7761 net.cpp:454] conv4 <- pool3
I0524 04:04:38.055610  7761 net.cpp:411] conv4 -> conv4
I0524 04:04:38.057720  7761 net.cpp:150] Setting up conv4
I0524 04:04:38.057745  7761 net.cpp:157] Top shape: 70 36 6 42 (635040)
I0524 04:04:38.057765  7761 net.cpp:165] Memory required for data: 106451800
I0524 04:04:38.057785  7761 layer_factory.hpp:77] Creating layer relu4
I0524 04:04:38.057806  7761 net.cpp:106] Creating Layer relu4
I0524 04:04:38.057818  7761 net.cpp:454] relu4 <- conv4
I0524 04:04:38.057843  7761 net.cpp:397] relu4 -> conv4 (in-place)
I0524 04:04:38.058336  7761 net.cpp:150] Setting up relu4
I0524 04:04:38.058358  7761 net.cpp:157] Top shape: 70 36 6 42 (635040)
I0524 04:04:38.058372  7761 net.cpp:165] Memory required for data: 108991960
I0524 04:04:38.058387  7761 layer_factory.hpp:77] Creating layer pool4
I0524 04:04:38.058411  7761 net.cpp:106] Creating Layer pool4
I0524 04:04:38.058425  7761 net.cpp:454] pool4 <- conv4
I0524 04:04:38.058441  7761 net.cpp:411] pool4 -> pool4
I0524 04:04:38.058528  7761 net.cpp:150] Setting up pool4
I0524 04:04:38.058545  7761 net.cpp:157] Top shape: 70 36 3 42 (317520)
I0524 04:04:38.058560  7761 net.cpp:165] Memory required for data: 110262040
I0524 04:04:38.058573  7761 layer_factory.hpp:77] Creating layer ip1
I0524 04:04:38.058590  7761 net.cpp:106] Creating Layer ip1
I0524 04:04:38.058609  7761 net.cpp:454] ip1 <- pool4
I0524 04:04:38.058629  7761 net.cpp:411] ip1 -> ip1
I0524 04:04:38.074161  7761 net.cpp:150] Setting up ip1
I0524 04:04:38.074193  7761 net.cpp:157] Top shape: 70 196 (13720)
I0524 04:04:38.074213  7761 net.cpp:165] Memory required for data: 110316920
I0524 04:04:38.074239  7761 layer_factory.hpp:77] Creating layer relu5
I0524 04:04:38.074261  7761 net.cpp:106] Creating Layer relu5
I0524 04:04:38.074275  7761 net.cpp:454] relu5 <- ip1
I0524 04:04:38.074303  7761 net.cpp:397] relu5 -> ip1 (in-place)
I0524 04:04:38.074666  7761 net.cpp:150] Setting up relu5
I0524 04:04:38.074686  7761 net.cpp:157] Top shape: 70 196 (13720)
I0524 04:04:38.074698  7761 net.cpp:165] Memory required for data: 110371800
I0524 04:04:38.074710  7761 layer_factory.hpp:77] Creating layer drop1
I0524 04:04:38.074743  7761 net.cpp:106] Creating Layer drop1
I0524 04:04:38.074756  7761 net.cpp:454] drop1 <- ip1
I0524 04:04:38.074772  7761 net.cpp:397] drop1 -> ip1 (in-place)
I0524 04:04:38.074836  7761 net.cpp:150] Setting up drop1
I0524 04:04:38.074851  7761 net.cpp:157] Top shape: 70 196 (13720)
I0524 04:04:38.074864  7761 net.cpp:165] Memory required for data: 110426680
I0524 04:04:38.074877  7761 layer_factory.hpp:77] Creating layer ip2
I0524 04:04:38.074898  7761 net.cpp:106] Creating Layer ip2
I0524 04:04:38.074909  7761 net.cpp:454] ip2 <- ip1
I0524 04:04:38.074954  7761 net.cpp:411] ip2 -> ip2
I0524 04:04:38.075456  7761 net.cpp:150] Setting up ip2
I0524 04:04:38.075476  7761 net.cpp:157] Top shape: 70 98 (6860)
I0524 04:04:38.075489  7761 net.cpp:165] Memory required for data: 110454120
I0524 04:04:38.075510  7761 layer_factory.hpp:77] Creating layer relu6
I0524 04:04:38.075546  7761 net.cpp:106] Creating Layer relu6
I0524 04:04:38.075558  7761 net.cpp:454] relu6 <- ip2
I0524 04:04:38.075574  7761 net.cpp:397] relu6 -> ip2 (in-place)
I0524 04:04:38.076138  7761 net.cpp:150] Setting up relu6
I0524 04:04:38.076161  7761 net.cpp:157] Top shape: 70 98 (6860)
I0524 04:04:38.076174  7761 net.cpp:165] Memory required for data: 110481560
I0524 04:04:38.076186  7761 layer_factory.hpp:77] Creating layer drop2
I0524 04:04:38.076206  7761 net.cpp:106] Creating Layer drop2
I0524 04:04:38.076228  7761 net.cpp:454] drop2 <- ip2
I0524 04:04:38.076246  7761 net.cpp:397] drop2 -> ip2 (in-place)
I0524 04:04:38.076311  7761 net.cpp:150] Setting up drop2
I0524 04:04:38.076328  7761 net.cpp:157] Top shape: 70 98 (6860)
I0524 04:04:38.076340  7761 net.cpp:165] Memory required for data: 110509000
I0524 04:04:38.076354  7761 layer_factory.hpp:77] Creating layer ip3
I0524 04:04:38.076373  7761 net.cpp:106] Creating Layer ip3
I0524 04:04:38.076385  7761 net.cpp:454] ip3 <- ip2
I0524 04:04:38.076409  7761 net.cpp:411] ip3 -> ip3
I0524 04:04:38.076647  7761 net.cpp:150] Setting up ip3
I0524 04:04:38.076666  7761 net.cpp:157] Top shape: 70 11 (770)
I0524 04:04:38.076679  7761 net.cpp:165] Memory required for data: 110512080
I0524 04:04:38.076700  7761 layer_factory.hpp:77] Creating layer drop3
I0524 04:04:38.076722  7761 net.cpp:106] Creating Layer drop3
I0524 04:04:38.076736  7761 net.cpp:454] drop3 <- ip3
I0524 04:04:38.076751  7761 net.cpp:397] drop3 -> ip3 (in-place)
I0524 04:04:38.076800  7761 net.cpp:150] Setting up drop3
I0524 04:04:38.076823  7761 net.cpp:157] Top shape: 70 11 (770)
I0524 04:04:38.076835  7761 net.cpp:165] Memory required for data: 110515160
I0524 04:04:38.076850  7761 layer_factory.hpp:77] Creating layer ip3_drop3_0_split
I0524 04:04:38.076865  7761 net.cpp:106] Creating Layer ip3_drop3_0_split
I0524 04:04:38.076881  7761 net.cpp:454] ip3_drop3_0_split <- ip3
I0524 04:04:38.076896  7761 net.cpp:411] ip3_drop3_0_split -> ip3_drop3_0_split_0
I0524 04:04:38.076922  7761 net.cpp:411] ip3_drop3_0_split -> ip3_drop3_0_split_1
I0524 04:04:38.077015  7761 net.cpp:150] Setting up ip3_drop3_0_split
I0524 04:04:38.077033  7761 net.cpp:157] Top shape: 70 11 (770)
I0524 04:04:38.077055  7761 net.cpp:157] Top shape: 70 11 (770)
I0524 04:04:38.077067  7761 net.cpp:165] Memory required for data: 110521320
I0524 04:04:38.077080  7761 layer_factory.hpp:77] Creating layer accuracy
I0524 04:04:38.077111  7761 net.cpp:106] Creating Layer accuracy
I0524 04:04:38.077126  7761 net.cpp:454] accuracy <- ip3_drop3_0_split_0
I0524 04:04:38.077139  7761 net.cpp:454] accuracy <- label_data_hdf5_1_split_0
I0524 04:04:38.077157  7761 net.cpp:411] accuracy -> accuracy
…
