…
I0524 00:02:26.599365 20112 net.cpp:322] The NetState phase (0) differed from the phase (1) specified by a rule in layer data_hdf5
I0524 00:02:26.599424 20112 net.cpp:322] The NetState phase (0) differed from the phase (1) specified by a rule in layer accuracy
I0524 00:02:26.599769 20112 net.cpp:49] Initializing net from parameters: 
name: "caffe_test_127x50_x_unshifted"
state {
  phase: TRAIN
}
layer {
  name: "data_hdf5"
  type: "HDF5Data"
  top: "data"
  top: "label"
  include {
    phase: TRAIN
  }
  hdf5_data_param {
    source: "/lustre/atlas/proj-shared/hep105/caffe_titan/minosmatch_nukecczdefs_127x50_x_unshifted_me1Bmc.trainlist"
    batch_size: 70
  }
}
layer {
  name: "conv1"
  type: "Convolution"
  bottom: "data"
  top: "conv1"
  convolution_param {
    num_output: 12
    pad: 0
    stride: 1
    weight_filler {
      type: "xavier"
    }
    bias_filler {
      type: "constant"
    }
    kernel_h: 8
    kernel_w: 3
  }
}
layer {
  name: "relu1"
  type: "ReLU"
  bottom: "conv1"
  top: "conv1"
}
layer {
  name: "pool1"
  type: "Pooling"
  bottom: "conv1"
  top: "pool1"
  pooling_param {
    pool: MAX
    kernel_h: 2
    kernel_w: 1
    stride_h: 2
    stride_w: 1
  }
}
layer {
  name: "conv2"
  type: "Convolution"
  bottom: "pool1"
  top: "conv2"
  convolution_param {
    num_output: 20
    pad: 0
    stride: 1
    weight_filler {
      type: "xavier"
    }
    bias_filler {
      type: "constant"
    }
    kernel_h: 7
    kernel_w: 3
  }
}
layer {
  name: "relu2"
  type: "ReLU"
  bottom: "conv2"
  top: "conv2"
}
layer {
  name: "pool2"
  type: "Pooling"
  bottom: "conv2"
  top: "pool2"
  pooling_param {
    pool: MAX
    kernel_h: 2
    kernel_w: 1
    stride_h: 2
    stride_w: 1
  }
}
layer {
  name: "conv3"
  type: "Convolution"
  bottom: "pool2"
  top: "conv3"
  convolution_param {
    num_output: 28
    pad: 0
    stride: 1
    weight_filler {
      type: "xavier"
    }
    bias_filler {
      type: "constant"
    }
    kernel_h: 6
    kernel_w: 3
  }
}
layer {
  name: "relu3"
  type: "ReLU"
  bottom: "conv3"
  top: "conv3"
}
layer {
  name: "pool3"
  type: "Pooling"
  bottom: "conv3"
  top: "pool3"
  pooling_param {
    pool: MAX
    kernel_h: 2
    kernel_w: 1
    stride_h: 2
    stride_w: 1
  }
}
layer {
  name: "conv4"
  type: "Convolution"
  bottom: "pool3"
  top: "conv4"
  convolution_param {
    num_output: 36
    pad: 0
    stride: 1
    weight_filler {
      type: "xavier"
    }
    bias_filler {
      type: "constant"
    }
    kernel_h: 6
    kernel_w: 3
  }
}
layer {
  name: "relu4"
  type: "ReLU"
  bottom: "conv4"
  top: "conv4"
}
layer {
  name: "pool4"
  type: "Pooling"
  bottom: "conv4"
  top: "pool4"
  pooling_param {
    pool: MAX
    kernel_h: 2
    kernel_w: 1
    stride_h: 2
    stride_w: 1
  }
}
layer {
  name: "ip1"
  type: "InnerProduct"
  bottom: "pool4"
  top: "ip1"
  inner_product_param {
    num_output: 196
    weight_filler {
      type: "xavier"
    }
    bias_filler {
      type: "constant"
    }
  }
}
layer {
  name: "relu5"
  type: "ReLU"
  bottom: "ip1"
  top: "ip1"
}
layer {
  name: "drop1"
  type: "Dropout"
  bottom: "ip1"
  top: "ip1"
  dropout_param {
    dropout_ratio: 0.5
  }
}
layer {
  name: "ip2"
  type: "InnerProduct"
  bottom: "ip1"
  top: "ip2"
  inner_product_param {
    num_output: 98
    weight_filler {
      type: "xavier"
    }
    bias_filler {
      type: "constant"
    }
  }
}
layer {
  name: "relu6"
  type: "ReLU"
  bottom: "ip2"
  top: "ip2"
}
layer {
  name: "drop2"
  type: "Dropout"
  bottom: "ip2"
  top: "ip2"
  dropout_param {
    dropout_ratio: 0.5
  }
}
layer {
  name: "ip3"
  type: "InnerProduct"
  bottom: "ip2"
  top: "ip3"
  inner_product_param {
    num_output: 11
    weight_filler {
      type: "xavier"
    }
    bias_filler {
      type: "constant"
    }
  }
}
layer {
  name: "drop3"
  type: "Dropout"
  bottom: "ip3"
  top: "ip3"
  dropout_param {
    dropout_ratio: 0.5
  }
}
layer {
  name: "loss"
  type: "SoftmaxWithLoss"
  bottom: "ip3"
  bottom: "label"
  top: "loss"
}
I0524 00:02:26.599948 20112 layer_factory.hpp:77] Creating layer data_hdf5
I0524 00:02:26.599972 20112 net.cpp:106] Creating Layer data_hdf5
I0524 00:02:26.599987 20112 net.cpp:411] data_hdf5 -> data
I0524 00:02:26.600019 20112 net.cpp:411] data_hdf5 -> label
I0524 00:02:26.600051 20112 hdf5_data_layer.cpp:79] Loading list of HDF5 filenames from: /lustre/atlas/proj-shared/hep105/caffe_titan/minosmatch_nukecczdefs_127x50_x_unshifted_me1Bmc.trainlist
I0524 00:02:26.614419 20112 hdf5_data_layer.cpp:93] Number of HDF5 files: 15
I0524 00:02:26.624289 20112 hdf5.cpp:32] Datatype class: H5T_FLOAT
I0524 00:02:48.171422 20112 hdf5.cpp:35] Datatype class: H5T_INTEGER
I0524 00:02:48.176623 20112 net.cpp:150] Setting up data_hdf5
I0524 00:02:48.176663 20112 net.cpp:157] Top shape: 70 1 127 50 (444500)
I0524 00:02:48.176677 20112 net.cpp:157] Top shape: 70 (70)
I0524 00:02:48.176690 20112 net.cpp:165] Memory required for data: 1778280
I0524 00:02:48.176704 20112 layer_factory.hpp:77] Creating layer conv1
I0524 00:02:48.176738 20112 net.cpp:106] Creating Layer conv1
I0524 00:02:48.176749 20112 net.cpp:454] conv1 <- data
I0524 00:02:48.176769 20112 net.cpp:411] conv1 -> conv1
I0524 00:02:50.940608 20112 net.cpp:150] Setting up conv1
I0524 00:02:50.940655 20112 net.cpp:157] Top shape: 70 12 120 48 (4838400)
I0524 00:02:50.940666 20112 net.cpp:165] Memory required for data: 21131880
I0524 00:02:50.940697 20112 layer_factory.hpp:77] Creating layer relu1
I0524 00:02:50.940717 20112 net.cpp:106] Creating Layer relu1
I0524 00:02:50.940728 20112 net.cpp:454] relu1 <- conv1
I0524 00:02:50.940742 20112 net.cpp:397] relu1 -> conv1 (in-place)
I0524 00:02:50.941265 20112 net.cpp:150] Setting up relu1
I0524 00:02:50.941282 20112 net.cpp:157] Top shape: 70 12 120 48 (4838400)
I0524 00:02:50.941293 20112 net.cpp:165] Memory required for data: 40485480
I0524 00:02:50.941303 20112 layer_factory.hpp:77] Creating layer pool1
I0524 00:02:50.941319 20112 net.cpp:106] Creating Layer pool1
I0524 00:02:50.941330 20112 net.cpp:454] pool1 <- conv1
I0524 00:02:50.941342 20112 net.cpp:411] pool1 -> pool1
I0524 00:02:50.941423 20112 net.cpp:150] Setting up pool1
I0524 00:02:50.941437 20112 net.cpp:157] Top shape: 70 12 60 48 (2419200)
I0524 00:02:50.941447 20112 net.cpp:165] Memory required for data: 50162280
I0524 00:02:50.941457 20112 layer_factory.hpp:77] Creating layer conv2
I0524 00:02:50.941478 20112 net.cpp:106] Creating Layer conv2
I0524 00:02:50.941488 20112 net.cpp:454] conv2 <- pool1
I0524 00:02:50.941501 20112 net.cpp:411] conv2 -> conv2
I0524 00:02:50.944224 20112 net.cpp:150] Setting up conv2
I0524 00:02:50.944252 20112 net.cpp:157] Top shape: 70 20 54 46 (3477600)
I0524 00:02:50.944263 20112 net.cpp:165] Memory required for data: 64072680
I0524 00:02:50.944283 20112 layer_factory.hpp:77] Creating layer relu2
I0524 00:02:50.944296 20112 net.cpp:106] Creating Layer relu2
I0524 00:02:50.944306 20112 net.cpp:454] relu2 <- conv2
I0524 00:02:50.944319 20112 net.cpp:397] relu2 -> conv2 (in-place)
I0524 00:02:50.944649 20112 net.cpp:150] Setting up relu2
I0524 00:02:50.944664 20112 net.cpp:157] Top shape: 70 20 54 46 (3477600)
I0524 00:02:50.944674 20112 net.cpp:165] Memory required for data: 77983080
I0524 00:02:50.944684 20112 layer_factory.hpp:77] Creating layer pool2
I0524 00:02:50.944695 20112 net.cpp:106] Creating Layer pool2
I0524 00:02:50.944705 20112 net.cpp:454] pool2 <- conv2
I0524 00:02:50.944718 20112 net.cpp:411] pool2 -> pool2
I0524 00:02:50.944799 20112 net.cpp:150] Setting up pool2
I0524 00:02:50.944813 20112 net.cpp:157] Top shape: 70 20 27 46 (1738800)
I0524 00:02:50.944823 20112 net.cpp:165] Memory required for data: 84938280
I0524 00:02:50.944833 20112 layer_factory.hpp:77] Creating layer conv3
I0524 00:02:50.944849 20112 net.cpp:106] Creating Layer conv3
I0524 00:02:50.944859 20112 net.cpp:454] conv3 <- pool2
I0524 00:02:50.944872 20112 net.cpp:411] conv3 -> conv3
I0524 00:02:50.946801 20112 net.cpp:150] Setting up conv3
I0524 00:02:50.946825 20112 net.cpp:157] Top shape: 70 28 22 44 (1897280)
I0524 00:02:50.946835 20112 net.cpp:165] Memory required for data: 92527400
I0524 00:02:50.946854 20112 layer_factory.hpp:77] Creating layer relu3
I0524 00:02:50.946871 20112 net.cpp:106] Creating Layer relu3
I0524 00:02:50.946880 20112 net.cpp:454] relu3 <- conv3
I0524 00:02:50.946892 20112 net.cpp:397] relu3 -> conv3 (in-place)
I0524 00:02:50.947362 20112 net.cpp:150] Setting up relu3
I0524 00:02:50.947381 20112 net.cpp:157] Top shape: 70 28 22 44 (1897280)
I0524 00:02:50.947391 20112 net.cpp:165] Memory required for data: 100116520
I0524 00:02:50.947401 20112 layer_factory.hpp:77] Creating layer pool3
I0524 00:02:50.947413 20112 net.cpp:106] Creating Layer pool3
I0524 00:02:50.947423 20112 net.cpp:454] pool3 <- conv3
I0524 00:02:50.947435 20112 net.cpp:411] pool3 -> pool3
I0524 00:02:50.947502 20112 net.cpp:150] Setting up pool3
I0524 00:02:50.947515 20112 net.cpp:157] Top shape: 70 28 11 44 (948640)
I0524 00:02:50.947525 20112 net.cpp:165] Memory required for data: 103911080
I0524 00:02:50.947535 20112 layer_factory.hpp:77] Creating layer conv4
I0524 00:02:50.947553 20112 net.cpp:106] Creating Layer conv4
I0524 00:02:50.947563 20112 net.cpp:454] conv4 <- pool3
I0524 00:02:50.947577 20112 net.cpp:411] conv4 -> conv4
I0524 00:02:50.950376 20112 net.cpp:150] Setting up conv4
I0524 00:02:50.950402 20112 net.cpp:157] Top shape: 70 36 6 42 (635040)
I0524 00:02:50.950414 20112 net.cpp:165] Memory required for data: 106451240
I0524 00:02:50.950429 20112 layer_factory.hpp:77] Creating layer relu4
I0524 00:02:50.950443 20112 net.cpp:106] Creating Layer relu4
I0524 00:02:50.950454 20112 net.cpp:454] relu4 <- conv4
I0524 00:02:50.950467 20112 net.cpp:397] relu4 -> conv4 (in-place)
I0524 00:02:50.950940 20112 net.cpp:150] Setting up relu4
I0524 00:02:50.950956 20112 net.cpp:157] Top shape: 70 36 6 42 (635040)
I0524 00:02:50.950968 20112 net.cpp:165] Memory required for data: 108991400
I0524 00:02:50.950978 20112 layer_factory.hpp:77] Creating layer pool4
I0524 00:02:50.950990 20112 net.cpp:106] Creating Layer pool4
I0524 00:02:50.951000 20112 net.cpp:454] pool4 <- conv4
I0524 00:02:50.951014 20112 net.cpp:411] pool4 -> pool4
I0524 00:02:50.951082 20112 net.cpp:150] Setting up pool4
I0524 00:02:50.951095 20112 net.cpp:157] Top shape: 70 36 3 42 (317520)
I0524 00:02:50.951105 20112 net.cpp:165] Memory required for data: 110261480
I0524 00:02:50.951117 20112 layer_factory.hpp:77] Creating layer ip1
I0524 00:02:50.951134 20112 net.cpp:106] Creating Layer ip1
I0524 00:02:50.951145 20112 net.cpp:454] ip1 <- pool4
I0524 00:02:50.951159 20112 net.cpp:411] ip1 -> ip1
I0524 00:02:50.966584 20112 net.cpp:150] Setting up ip1
I0524 00:02:50.966612 20112 net.cpp:157] Top shape: 70 196 (13720)
I0524 00:02:50.966625 20112 net.cpp:165] Memory required for data: 110316360
I0524 00:02:50.966648 20112 layer_factory.hpp:77] Creating layer relu5
I0524 00:02:50.966663 20112 net.cpp:106] Creating Layer relu5
I0524 00:02:50.966673 20112 net.cpp:454] relu5 <- ip1
I0524 00:02:50.966686 20112 net.cpp:397] relu5 -> ip1 (in-place)
I0524 00:02:50.967030 20112 net.cpp:150] Setting up relu5
I0524 00:02:50.967043 20112 net.cpp:157] Top shape: 70 196 (13720)
I0524 00:02:50.967054 20112 net.cpp:165] Memory required for data: 110371240
I0524 00:02:50.967064 20112 layer_factory.hpp:77] Creating layer drop1
I0524 00:02:50.967085 20112 net.cpp:106] Creating Layer drop1
I0524 00:02:50.967097 20112 net.cpp:454] drop1 <- ip1
I0524 00:02:50.967108 20112 net.cpp:397] drop1 -> ip1 (in-place)
I0524 00:02:50.967170 20112 net.cpp:150] Setting up drop1
I0524 00:02:50.967182 20112 net.cpp:157] Top shape: 70 196 (13720)
I0524 00:02:50.967192 20112 net.cpp:165] Memory required for data: 110426120
I0524 00:02:50.967202 20112 layer_factory.hpp:77] Creating layer ip2
I0524 00:02:50.967221 20112 net.cpp:106] Creating Layer ip2
I0524 00:02:50.967231 20112 net.cpp:454] ip2 <- ip1
I0524 00:02:50.967244 20112 net.cpp:411] ip2 -> ip2
I0524 00:02:50.967708 20112 net.cpp:150] Setting up ip2
I0524 00:02:50.967721 20112 net.cpp:157] Top shape: 70 98 (6860)
I0524 00:02:50.967731 20112 net.cpp:165] Memory required for data: 110453560
I0524 00:02:50.967746 20112 layer_factory.hpp:77] Creating layer relu6
I0524 00:02:50.967761 20112 net.cpp:106] Creating Layer relu6
I0524 00:02:50.967770 20112 net.cpp:454] relu6 <- ip2
I0524 00:02:50.967782 20112 net.cpp:397] relu6 -> ip2 (in-place)
I0524 00:02:50.968307 20112 net.cpp:150] Setting up relu6
I0524 00:02:50.968323 20112 net.cpp:157] Top shape: 70 98 (6860)
I0524 00:02:50.968333 20112 net.cpp:165] Memory required for data: 110481000
I0524 00:02:50.968344 20112 layer_factory.hpp:77] Creating layer drop2
I0524 00:02:50.968358 20112 net.cpp:106] Creating Layer drop2
I0524 00:02:50.968367 20112 net.cpp:454] drop2 <- ip2
I0524 00:02:50.968380 20112 net.cpp:397] drop2 -> ip2 (in-place)
I0524 00:02:50.968422 20112 net.cpp:150] Setting up drop2
I0524 00:02:50.968436 20112 net.cpp:157] Top shape: 70 98 (6860)
I0524 00:02:50.968446 20112 net.cpp:165] Memory required for data: 110508440
I0524 00:02:50.968456 20112 layer_factory.hpp:77] Creating layer ip3
I0524 00:02:50.968469 20112 net.cpp:106] Creating Layer ip3
I0524 00:02:50.968478 20112 net.cpp:454] ip3 <- ip2
I0524 00:02:50.968492 20112 net.cpp:411] ip3 -> ip3
I0524 00:02:50.968700 20112 net.cpp:150] Setting up ip3
I0524 00:02:50.968714 20112 net.cpp:157] Top shape: 70 11 (770)
I0524 00:02:50.968724 20112 net.cpp:165] Memory required for data: 110511520
I0524 00:02:50.968739 20112 layer_factory.hpp:77] Creating layer drop3
I0524 00:02:50.968751 20112 net.cpp:106] Creating Layer drop3
I0524 00:02:50.968761 20112 net.cpp:454] drop3 <- ip3
I0524 00:02:50.968773 20112 net.cpp:397] drop3 -> ip3 (in-place)
I0524 00:02:50.968812 20112 net.cpp:150] Setting up drop3
I0524 00:02:50.968825 20112 net.cpp:157] Top shape: 70 11 (770)
I0524 00:02:50.968835 20112 net.cpp:165] Memory required for data: 110514600
I0524 00:02:50.968845 20112 layer_factory.hpp:77] Creating layer loss
I0524 00:02:50.968864 20112 net.cpp:106] Creating Layer loss
I0524 00:02:50.968874 20112 net.cpp:454] loss <- ip3
I0524 00:02:50.968885 20112 net.cpp:454] loss <- label
I0524 00:02:50.968897 20112 net.cpp:411] loss -> loss
I0524 00:02:50.968914 20112 layer_factory.hpp:77] Creating layer loss
…
I0524 00:02:50.971635 20112 solver.cpp:181] Creating test net (#0) specified by net file: /lustre/atlas/proj-shared/hep105/caffe_titan/caffe_workflow/logs_bslr/bs_70_lr_0.0015_2016-05-20T15.49.13.382123.prototxt
I0524 00:02:50.971705 20112 net.cpp:322] The NetState phase (1) differed from the phase (0) specified by a rule in layer data_hdf5
I0524 00:02:50.972062 20112 net.cpp:49] Initializing net from parameters: 
name: "caffe_test_127x50_x_unshifted"
state {
  phase: TEST
}
layer {
  name: "data_hdf5"
  type: "HDF5Data"
  top: "data"
  top: "label"
  include {
    phase: TEST
  }
  hdf5_data_param {
    source: "/lustre/atlas/proj-shared/hep105/caffe_titan/minosmatch_nukecczdefs_127x50_x_unshifted_me1Bmc.testlist"
    batch_size: 70
  }
}
layer {
  name: "conv1"
  type: "Convolution"
  bottom: "data"
  top: "conv1"
  convolution_param {
    num_output: 12
    pad: 0
    stride: 1
    weight_filler {
      type: "xavier"
    }
    bias_filler {
      type: "constant"
    }
    kernel_h: 8
    kernel_w: 3
  }
}
layer {
  name: "relu1"
  type: "ReLU"
  bottom: "conv1"
  top: "conv1"
}
layer {
  name: "pool1"
  type: "Pooling"
  bottom: "conv1"
  top: "pool1"
  pooling_param {
    pool: MAX
    kernel_h: 2
    kernel_w: 1
    stride_h: 2
    stride_w: 1
  }
}
layer {
  name: "conv2"
  type: "Convolution"
  bottom: "pool1"
  top: "conv2"
  convolution_param {
    num_output: 20
    pad: 0
    stride: 1
    weight_filler {
      type: "xavier"
    }
    bias_filler {
      type: "constant"
    }
    kernel_h: 7
    kernel_w: 3
  }
}
layer {
  name: "relu2"
  type: "ReLU"
  bottom: "conv2"
  top: "conv2"
}
layer {
  name: "pool2"
  type: "Pooling"
  bottom: "conv2"
  top: "pool2"
  pooling_param {
    pool: MAX
    kernel_h: 2
    kernel_w: 1
    stride_h: 2
    stride_w: 1
  }
}
layer {
  name: "conv3"
  type: "Convolution"
  bottom: "pool2"
  top: "conv3"
  convolution_param {
    num_output: 28
    pad: 0
    stride: 1
    weight_filler {
      type: "xavier"
    }
    bias_filler {
      type: "constant"
    }
    kernel_h: 6
    kernel_w: 3
  }
}
layer {
  name: "relu3"
  type: "ReLU"
  bottom: "conv3"
  top: "conv3"
}
layer {
  name: "pool3"
  type: "Pooling"
  bottom: "conv3"
  top: "pool3"
  pooling_param {
    pool: MAX
    kernel_h: 2
    kernel_w: 1
    stride_h: 2
    stride_w: 1
  }
}
layer {
  name: "conv4"
  type: "Convolution"
  bottom: "pool3"
  top: "conv4"
  convolution_param {
    num_output: 36
    pad: 0
    stride: 1
    weight_filler {
      type: "xavier"
    }
    bias_filler {
      type: "constant"
    }
    kernel_h: 6
    kernel_w: 3
  }
}
layer {
  name: "relu4"
  type: "ReLU"
  bottom: "conv4"
  top: "conv4"
}
layer {
  name: "pool4"
  type: "Pooling"
  bottom: "conv4"
  top: "pool4"
  pooling_param {
    pool: MAX
    kernel_h: 2
    kernel_w: 1
    stride_h: 2
    stride_w: 1
  }
}
layer {
  name: "ip1"
  type: "InnerProduct"
  bottom: "pool4"
  top: "ip1"
  inner_product_param {
    num_output: 196
    weight_filler {
      type: "xavier"
    }
    bias_filler {
      type: "constant"
    }
  }
}
layer {
  name: "relu5"
  type: "ReLU"
  bottom: "ip1"
  top: "ip1"
}
layer {
  name: "drop1"
  type: "Dropout"
  bottom: "ip1"
  top: "ip1"
  dropout_param {
    dropout_ratio: 0.5
  }
}
layer {
  name: "ip2"
  type: "InnerProduct"
  bottom: "ip1"
  top: "ip2"
  inner_product_param {
    num_output: 98
    weight_filler {
      type: "xavier"
    }
    bias_filler {
      type: "constant"
    }
  }
}
layer {
  name: "relu6"
  type: "ReLU"
  bottom: "ip2"
  top: "ip2"
}
layer {
  name: "drop2"
  type: "Dropout"
  bottom: "ip2"
  top: "ip2"
  dropout_param {
    dropout_ratio: 0.5
  }
}
layer {
  name: "ip3"
  type: "InnerProduct"
  bottom: "ip2"
  top: "ip3"
  inner_product_param {
    num_output: 11
    weight_filler {
      type: "xavier"
    }
    bias_filler {
      type: "constant"
    }
  }
}
layer {
  name: "drop3"
  type: "Dropout"
  bottom: "ip3"
  top: "ip3"
  dropout_param {
    dropout_ratio: 0.5
  }
}
layer {
  name: "accuracy"
  type: "Accuracy"
  bottom: "ip3"
  bottom: "label"
  top: "accuracy"
  include {
    phase: TEST
  }
}
layer {
  name: "loss"
  type: "SoftmaxWithLoss"
  bottom: "ip3"
  bottom: "label"
  top: "loss"
}
I0524 00:02:50.972250 20112 layer_factory.hpp:77] Creating layer data_hdf5
I0524 00:02:50.972265 20112 net.cpp:106] Creating Layer data_hdf5
I0524 00:02:50.972278 20112 net.cpp:411] data_hdf5 -> data
I0524 00:02:50.972295 20112 net.cpp:411] data_hdf5 -> label
I0524 00:02:50.972312 20112 hdf5_data_layer.cpp:79] Loading list of HDF5 filenames from: /lustre/atlas/proj-shared/hep105/caffe_titan/minosmatch_nukecczdefs_127x50_x_unshifted_me1Bmc.testlist
I0524 00:02:50.980522 20112 hdf5_data_layer.cpp:93] Number of HDF5 files: 3
I0524 00:03:12.393837 20112 net.cpp:150] Setting up data_hdf5
I0524 00:03:12.394002 20112 net.cpp:157] Top shape: 70 1 127 50 (444500)
I0524 00:03:12.394017 20112 net.cpp:157] Top shape: 70 (70)
I0524 00:03:12.394027 20112 net.cpp:165] Memory required for data: 1778280
I0524 00:03:12.394042 20112 layer_factory.hpp:77] Creating layer label_data_hdf5_1_split
I0524 00:03:12.394069 20112 net.cpp:106] Creating Layer label_data_hdf5_1_split
I0524 00:03:12.394080 20112 net.cpp:454] label_data_hdf5_1_split <- label
I0524 00:03:12.394095 20112 net.cpp:411] label_data_hdf5_1_split -> label_data_hdf5_1_split_0
I0524 00:03:12.394117 20112 net.cpp:411] label_data_hdf5_1_split -> label_data_hdf5_1_split_1
I0524 00:03:12.394189 20112 net.cpp:150] Setting up label_data_hdf5_1_split
I0524 00:03:12.394203 20112 net.cpp:157] Top shape: 70 (70)
I0524 00:03:12.394215 20112 net.cpp:157] Top shape: 70 (70)
I0524 00:03:12.394224 20112 net.cpp:165] Memory required for data: 1778840
I0524 00:03:12.394234 20112 layer_factory.hpp:77] Creating layer conv1
I0524 00:03:12.394256 20112 net.cpp:106] Creating Layer conv1
I0524 00:03:12.394268 20112 net.cpp:454] conv1 <- data
I0524 00:03:12.394281 20112 net.cpp:411] conv1 -> conv1
I0524 00:03:12.396225 20112 net.cpp:150] Setting up conv1
I0524 00:03:12.396250 20112 net.cpp:157] Top shape: 70 12 120 48 (4838400)
I0524 00:03:12.396261 20112 net.cpp:165] Memory required for data: 21132440
I0524 00:03:12.396282 20112 layer_factory.hpp:77] Creating layer relu1
I0524 00:03:12.396297 20112 net.cpp:106] Creating Layer relu1
I0524 00:03:12.396307 20112 net.cpp:454] relu1 <- conv1
I0524 00:03:12.396320 20112 net.cpp:397] relu1 -> conv1 (in-place)
I0524 00:03:12.396818 20112 net.cpp:150] Setting up relu1
I0524 00:03:12.396834 20112 net.cpp:157] Top shape: 70 12 120 48 (4838400)
I0524 00:03:12.396845 20112 net.cpp:165] Memory required for data: 40486040
I0524 00:03:12.396855 20112 layer_factory.hpp:77] Creating layer pool1
I0524 00:03:12.396872 20112 net.cpp:106] Creating Layer pool1
I0524 00:03:12.396883 20112 net.cpp:454] pool1 <- conv1
I0524 00:03:12.396895 20112 net.cpp:411] pool1 -> pool1
I0524 00:03:12.396970 20112 net.cpp:150] Setting up pool1
I0524 00:03:12.396982 20112 net.cpp:157] Top shape: 70 12 60 48 (2419200)
I0524 00:03:12.396992 20112 net.cpp:165] Memory required for data: 50162840
I0524 00:03:12.397003 20112 layer_factory.hpp:77] Creating layer conv2
I0524 00:03:12.397022 20112 net.cpp:106] Creating Layer conv2
I0524 00:03:12.397032 20112 net.cpp:454] conv2 <- pool1
I0524 00:03:12.397045 20112 net.cpp:411] conv2 -> conv2
I0524 00:03:12.398974 20112 net.cpp:150] Setting up conv2
I0524 00:03:12.398998 20112 net.cpp:157] Top shape: 70 20 54 46 (3477600)
I0524 00:03:12.399008 20112 net.cpp:165] Memory required for data: 64073240
I0524 00:03:12.399026 20112 layer_factory.hpp:77] Creating layer relu2
I0524 00:03:12.399039 20112 net.cpp:106] Creating Layer relu2
I0524 00:03:12.399049 20112 net.cpp:454] relu2 <- conv2
I0524 00:03:12.399062 20112 net.cpp:397] relu2 -> conv2 (in-place)
I0524 00:03:12.399394 20112 net.cpp:150] Setting up relu2
I0524 00:03:12.399408 20112 net.cpp:157] Top shape: 70 20 54 46 (3477600)
I0524 00:03:12.399418 20112 net.cpp:165] Memory required for data: 77983640
I0524 00:03:12.399428 20112 layer_factory.hpp:77] Creating layer pool2
I0524 00:03:12.399441 20112 net.cpp:106] Creating Layer pool2
I0524 00:03:12.399451 20112 net.cpp:454] pool2 <- conv2
I0524 00:03:12.399464 20112 net.cpp:411] pool2 -> pool2
I0524 00:03:12.399535 20112 net.cpp:150] Setting up pool2
I0524 00:03:12.399549 20112 net.cpp:157] Top shape: 70 20 27 46 (1738800)
I0524 00:03:12.399557 20112 net.cpp:165] Memory required for data: 84938840
I0524 00:03:12.399567 20112 layer_factory.hpp:77] Creating layer conv3
I0524 00:03:12.399586 20112 net.cpp:106] Creating Layer conv3
I0524 00:03:12.399596 20112 net.cpp:454] conv3 <- pool2
I0524 00:03:12.399610 20112 net.cpp:411] conv3 -> conv3
I0524 00:03:12.401590 20112 net.cpp:150] Setting up conv3
I0524 00:03:12.401607 20112 net.cpp:157] Top shape: 70 28 22 44 (1897280)
I0524 00:03:12.401621 20112 net.cpp:165] Memory required for data: 92527960
I0524 00:03:12.401654 20112 layer_factory.hpp:77] Creating layer relu3
I0524 00:03:12.401667 20112 net.cpp:106] Creating Layer relu3
I0524 00:03:12.401677 20112 net.cpp:454] relu3 <- conv3
I0524 00:03:12.401690 20112 net.cpp:397] relu3 -> conv3 (in-place)
I0524 00:03:12.402163 20112 net.cpp:150] Setting up relu3
I0524 00:03:12.402179 20112 net.cpp:157] Top shape: 70 28 22 44 (1897280)
I0524 00:03:12.402190 20112 net.cpp:165] Memory required for data: 100117080
I0524 00:03:12.402200 20112 layer_factory.hpp:77] Creating layer pool3
I0524 00:03:12.402214 20112 net.cpp:106] Creating Layer pool3
I0524 00:03:12.402223 20112 net.cpp:454] pool3 <- conv3
I0524 00:03:12.402236 20112 net.cpp:411] pool3 -> pool3
I0524 00:03:12.402307 20112 net.cpp:150] Setting up pool3
I0524 00:03:12.402320 20112 net.cpp:157] Top shape: 70 28 11 44 (948640)
I0524 00:03:12.402329 20112 net.cpp:165] Memory required for data: 103911640
I0524 00:03:12.402339 20112 layer_factory.hpp:77] Creating layer conv4
I0524 00:03:12.402357 20112 net.cpp:106] Creating Layer conv4
I0524 00:03:12.402367 20112 net.cpp:454] conv4 <- pool3
I0524 00:03:12.402381 20112 net.cpp:411] conv4 -> conv4
I0524 00:03:12.404443 20112 net.cpp:150] Setting up conv4
I0524 00:03:12.404465 20112 net.cpp:157] Top shape: 70 36 6 42 (635040)
I0524 00:03:12.404477 20112 net.cpp:165] Memory required for data: 106451800
I0524 00:03:12.404492 20112 layer_factory.hpp:77] Creating layer relu4
I0524 00:03:12.404506 20112 net.cpp:106] Creating Layer relu4
I0524 00:03:12.404516 20112 net.cpp:454] relu4 <- conv4
I0524 00:03:12.404528 20112 net.cpp:397] relu4 -> conv4 (in-place)
I0524 00:03:12.405000 20112 net.cpp:150] Setting up relu4
I0524 00:03:12.405016 20112 net.cpp:157] Top shape: 70 36 6 42 (635040)
I0524 00:03:12.405027 20112 net.cpp:165] Memory required for data: 108991960
I0524 00:03:12.405037 20112 layer_factory.hpp:77] Creating layer pool4
I0524 00:03:12.405050 20112 net.cpp:106] Creating Layer pool4
I0524 00:03:12.405061 20112 net.cpp:454] pool4 <- conv4
I0524 00:03:12.405073 20112 net.cpp:411] pool4 -> pool4
I0524 00:03:12.405144 20112 net.cpp:150] Setting up pool4
I0524 00:03:12.405158 20112 net.cpp:157] Top shape: 70 36 3 42 (317520)
I0524 00:03:12.405167 20112 net.cpp:165] Memory required for data: 110262040
I0524 00:03:12.405177 20112 layer_factory.hpp:77] Creating layer ip1
I0524 00:03:12.405192 20112 net.cpp:106] Creating Layer ip1
I0524 00:03:12.405202 20112 net.cpp:454] ip1 <- pool4
I0524 00:03:12.405216 20112 net.cpp:411] ip1 -> ip1
I0524 00:03:12.420687 20112 net.cpp:150] Setting up ip1
I0524 00:03:12.420716 20112 net.cpp:157] Top shape: 70 196 (13720)
I0524 00:03:12.420727 20112 net.cpp:165] Memory required for data: 110316920
I0524 00:03:12.420748 20112 layer_factory.hpp:77] Creating layer relu5
I0524 00:03:12.420764 20112 net.cpp:106] Creating Layer relu5
I0524 00:03:12.420774 20112 net.cpp:454] relu5 <- ip1
I0524 00:03:12.420789 20112 net.cpp:397] relu5 -> ip1 (in-place)
I0524 00:03:12.421134 20112 net.cpp:150] Setting up relu5
I0524 00:03:12.421149 20112 net.cpp:157] Top shape: 70 196 (13720)
I0524 00:03:12.421159 20112 net.cpp:165] Memory required for data: 110371800
I0524 00:03:12.421169 20112 layer_factory.hpp:77] Creating layer drop1
I0524 00:03:12.421186 20112 net.cpp:106] Creating Layer drop1
I0524 00:03:12.421196 20112 net.cpp:454] drop1 <- ip1
I0524 00:03:12.421210 20112 net.cpp:397] drop1 -> ip1 (in-place)
I0524 00:03:12.421263 20112 net.cpp:150] Setting up drop1
I0524 00:03:12.421277 20112 net.cpp:157] Top shape: 70 196 (13720)
I0524 00:03:12.421288 20112 net.cpp:165] Memory required for data: 110426680
I0524 00:03:12.421298 20112 layer_factory.hpp:77] Creating layer ip2
I0524 00:03:12.421313 20112 net.cpp:106] Creating Layer ip2
I0524 00:03:12.421322 20112 net.cpp:454] ip2 <- ip1
I0524 00:03:12.421336 20112 net.cpp:411] ip2 -> ip2
I0524 00:03:12.421815 20112 net.cpp:150] Setting up ip2
I0524 00:03:12.421828 20112 net.cpp:157] Top shape: 70 98 (6860)
I0524 00:03:12.421838 20112 net.cpp:165] Memory required for data: 110454120
I0524 00:03:12.421855 20112 layer_factory.hpp:77] Creating layer relu6
I0524 00:03:12.421880 20112 net.cpp:106] Creating Layer relu6
I0524 00:03:12.421890 20112 net.cpp:454] relu6 <- ip2
I0524 00:03:12.421903 20112 net.cpp:397] relu6 -> ip2 (in-place)
I0524 00:03:12.422444 20112 net.cpp:150] Setting up relu6
I0524 00:03:12.422466 20112 net.cpp:157] Top shape: 70 98 (6860)
I0524 00:03:12.422477 20112 net.cpp:165] Memory required for data: 110481560
I0524 00:03:12.422485 20112 layer_factory.hpp:77] Creating layer drop2
I0524 00:03:12.422499 20112 net.cpp:106] Creating Layer drop2
I0524 00:03:12.422509 20112 net.cpp:454] drop2 <- ip2
I0524 00:03:12.422523 20112 net.cpp:397] drop2 -> ip2 (in-place)
I0524 00:03:12.422567 20112 net.cpp:150] Setting up drop2
I0524 00:03:12.422580 20112 net.cpp:157] Top shape: 70 98 (6860)
I0524 00:03:12.422590 20112 net.cpp:165] Memory required for data: 110509000
I0524 00:03:12.422600 20112 layer_factory.hpp:77] Creating layer ip3
I0524 00:03:12.422615 20112 net.cpp:106] Creating Layer ip3
I0524 00:03:12.422624 20112 net.cpp:454] ip3 <- ip2
I0524 00:03:12.422638 20112 net.cpp:411] ip3 -> ip3
I0524 00:03:12.422860 20112 net.cpp:150] Setting up ip3
I0524 00:03:12.422873 20112 net.cpp:157] Top shape: 70 11 (770)
I0524 00:03:12.422883 20112 net.cpp:165] Memory required for data: 110512080
I0524 00:03:12.422899 20112 layer_factory.hpp:77] Creating layer drop3
I0524 00:03:12.422911 20112 net.cpp:106] Creating Layer drop3
I0524 00:03:12.422921 20112 net.cpp:454] drop3 <- ip3
I0524 00:03:12.422935 20112 net.cpp:397] drop3 -> ip3 (in-place)
I0524 00:03:12.422976 20112 net.cpp:150] Setting up drop3
I0524 00:03:12.422988 20112 net.cpp:157] Top shape: 70 11 (770)
I0524 00:03:12.422998 20112 net.cpp:165] Memory required for data: 110515160
I0524 00:03:12.423008 20112 layer_factory.hpp:77] Creating layer ip3_drop3_0_split
I0524 00:03:12.423022 20112 net.cpp:106] Creating Layer ip3_drop3_0_split
I0524 00:03:12.423032 20112 net.cpp:454] ip3_drop3_0_split <- ip3
I0524 00:03:12.423044 20112 net.cpp:411] ip3_drop3_0_split -> ip3_drop3_0_split_0
I0524 00:03:12.423058 20112 net.cpp:411] ip3_drop3_0_split -> ip3_drop3_0_split_1
I0524 00:03:12.423133 20112 net.cpp:150] Setting up ip3_drop3_0_split
I0524 00:03:12.423151 20112 net.cpp:157] Top shape: 70 11 (770)
I0524 00:03:12.423164 20112 net.cpp:157] Top shape: 70 11 (770)
I0524 00:03:12.423176 20112 net.cpp:165] Memory required for data: 110521320
I0524 00:03:12.423185 20112 layer_factory.hpp:77] Creating layer accuracy
I0524 00:03:12.423207 20112 net.cpp:106] Creating Layer accuracy
I0524 00:03:12.423216 20112 net.cpp:454] accuracy <- ip3_drop3_0_split_0
I0524 00:03:12.423228 20112 net.cpp:454] accuracy <- label_data_hdf5_1_split_0
I0524 00:03:12.423241 20112 net.cpp:411] accuracy -> accuracy
…
