…
I0524 00:23:52.159027  8498 net.cpp:322] The NetState phase (0) differed from the phase (1) specified by a rule in layer data_hdf5
I0524 00:23:52.159086  8498 net.cpp:322] The NetState phase (0) differed from the phase (1) specified by a rule in layer accuracy
I0524 00:23:52.159435  8498 net.cpp:49] Initializing net from parameters: 
name: "caffe_test_127x50_x_unshifted"
state {
  phase: TRAIN
}
layer {
  name: "data_hdf5"
  type: "HDF5Data"
  top: "data"
  top: "label"
  include {
    phase: TRAIN
  }
  hdf5_data_param {
    source: "/lustre/atlas/proj-shared/hep105/caffe_titan/minosmatch_nukecczdefs_127x50_x_unshifted_me1Bmc.trainlist"
    batch_size: 70
  }
}
layer {
  name: "conv1"
  type: "Convolution"
  bottom: "data"
  top: "conv1"
  convolution_param {
    num_output: 12
    pad: 0
    stride: 1
    weight_filler {
      type: "xavier"
    }
    bias_filler {
      type: "constant"
    }
    kernel_h: 8
    kernel_w: 3
  }
}
layer {
  name: "relu1"
  type: "ReLU"
  bottom: "conv1"
  top: "conv1"
}
layer {
  name: "pool1"
  type: "Pooling"
  bottom: "conv1"
  top: "pool1"
  pooling_param {
    pool: MAX
    kernel_h: 2
    kernel_w: 1
    stride_h: 2
    stride_w: 1
  }
}
layer {
  name: "conv2"
  type: "Convolution"
  bottom: "pool1"
  top: "conv2"
  convolution_param {
    num_output: 20
    pad: 0
    stride: 1
    weight_filler {
      type: "xavier"
    }
    bias_filler {
      type: "constant"
    }
    kernel_h: 7
    kernel_w: 3
  }
}
layer {
  name: "relu2"
  type: "ReLU"
  bottom: "conv2"
  top: "conv2"
}
layer {
  name: "pool2"
  type: "Pooling"
  bottom: "conv2"
  top: "pool2"
  pooling_param {
    pool: MAX
    kernel_h: 2
    kernel_w: 1
    stride_h: 2
    stride_w: 1
  }
}
layer {
  name: "conv3"
  type: "Convolution"
  bottom: "pool2"
  top: "conv3"
  convolution_param {
    num_output: 28
    pad: 0
    stride: 1
    weight_filler {
      type: "xavier"
    }
    bias_filler {
      type: "constant"
    }
    kernel_h: 6
    kernel_w: 3
  }
}
layer {
  name: "relu3"
  type: "ReLU"
  bottom: "conv3"
  top: "conv3"
}
layer {
  name: "pool3"
  type: "Pooling"
  bottom: "conv3"
  top: "pool3"
  pooling_param {
    pool: MAX
    kernel_h: 2
    kernel_w: 1
    stride_h: 2
    stride_w: 1
  }
}
layer {
  name: "conv4"
  type: "Convolution"
  bottom: "pool3"
  top: "conv4"
  convolution_param {
    num_output: 36
    pad: 0
    stride: 1
    weight_filler {
      type: "xavier"
    }
    bias_filler {
      type: "constant"
    }
    kernel_h: 6
    kernel_w: 3
  }
}
layer {
  name: "relu4"
  type: "ReLU"
  bottom: "conv4"
  top: "conv4"
}
layer {
  name: "pool4"
  type: "Pooling"
  bottom: "conv4"
  top: "pool4"
  pooling_param {
    pool: MAX
    kernel_h: 2
    kernel_w: 1
    stride_h: 2
    stride_w: 1
  }
}
layer {
  name: "ip1"
  type: "InnerProduct"
  bottom: "pool4"
  top: "ip1"
  inner_product_param {
    num_output: 196
    weight_filler {
      type: "xavier"
    }
    bias_filler {
      type: "constant"
    }
  }
}
layer {
  name: "relu5"
  type: "ReLU"
  bottom: "ip1"
  top: "ip1"
}
layer {
  name: "drop1"
  type: "Dropout"
  bottom: "ip1"
  top: "ip1"
  dropout_param {
    dropout_ratio: 0.5
  }
}
layer {
  name: "ip2"
  type: "InnerProduct"
  bottom: "ip1"
  top: "ip2"
  inner_product_param {
    num_output: 98
    weight_filler {
      type: "xavier"
    }
    bias_filler {
      type: "constant"
    }
  }
}
layer {
  name: "relu6"
  type: "ReLU"
  bottom: "ip2"
  top: "ip2"
}
layer {
  name: "drop2"
  type: "Dropout"
  bottom: "ip2"
  top: "ip2"
  dropout_param {
    dropout_ratio: 0.5
  }
}
layer {
  name: "ip3"
  type: "InnerProduct"
  bottom: "ip2"
  top: "ip3"
  inner_product_param {
    num_output: 11
    weight_filler {
      type: "xavier"
    }
    bias_filler {
      type: "constant"
    }
  }
}
layer {
  name: "drop3"
  type: "Dropout"
  bottom: "ip3"
  top: "ip3"
  dropout_param {
    dropout_ratio: 0.5
  }
}
layer {
  name: "loss"
  type: "SoftmaxWithLoss"
  bottom: "ip3"
  bottom: "label"
  top: "loss"
}
I0524 00:23:52.159615  8498 layer_factory.hpp:77] Creating layer data_hdf5
I0524 00:23:52.159637  8498 net.cpp:106] Creating Layer data_hdf5
I0524 00:23:52.159652  8498 net.cpp:411] data_hdf5 -> data
I0524 00:23:52.159684  8498 net.cpp:411] data_hdf5 -> label
I0524 00:23:52.159716  8498 hdf5_data_layer.cpp:79] Loading list of HDF5 filenames from: /lustre/atlas/proj-shared/hep105/caffe_titan/minosmatch_nukecczdefs_127x50_x_unshifted_me1Bmc.trainlist
I0524 00:23:52.160890  8498 hdf5_data_layer.cpp:93] Number of HDF5 files: 15
I0524 00:23:52.163084  8498 hdf5.cpp:32] Datatype class: H5T_FLOAT
I0524 00:24:13.687458  8498 hdf5.cpp:35] Datatype class: H5T_INTEGER
I0524 00:24:13.692602  8498 net.cpp:150] Setting up data_hdf5
I0524 00:24:13.692642  8498 net.cpp:157] Top shape: 70 1 127 50 (444500)
I0524 00:24:13.692656  8498 net.cpp:157] Top shape: 70 (70)
I0524 00:24:13.692668  8498 net.cpp:165] Memory required for data: 1778280
I0524 00:24:13.692682  8498 layer_factory.hpp:77] Creating layer conv1
I0524 00:24:13.692718  8498 net.cpp:106] Creating Layer conv1
I0524 00:24:13.692728  8498 net.cpp:454] conv1 <- data
I0524 00:24:13.692750  8498 net.cpp:411] conv1 -> conv1
I0524 00:24:14.052958  8498 net.cpp:150] Setting up conv1
I0524 00:24:14.053006  8498 net.cpp:157] Top shape: 70 12 120 48 (4838400)
I0524 00:24:14.053017  8498 net.cpp:165] Memory required for data: 21131880
I0524 00:24:14.053045  8498 layer_factory.hpp:77] Creating layer relu1
I0524 00:24:14.053066  8498 net.cpp:106] Creating Layer relu1
I0524 00:24:14.053077  8498 net.cpp:454] relu1 <- conv1
I0524 00:24:14.053092  8498 net.cpp:397] relu1 -> conv1 (in-place)
I0524 00:24:14.053601  8498 net.cpp:150] Setting up relu1
I0524 00:24:14.053618  8498 net.cpp:157] Top shape: 70 12 120 48 (4838400)
I0524 00:24:14.053628  8498 net.cpp:165] Memory required for data: 40485480
I0524 00:24:14.053639  8498 layer_factory.hpp:77] Creating layer pool1
I0524 00:24:14.053664  8498 net.cpp:106] Creating Layer pool1
I0524 00:24:14.053674  8498 net.cpp:454] pool1 <- conv1
I0524 00:24:14.053689  8498 net.cpp:411] pool1 -> pool1
I0524 00:24:14.053768  8498 net.cpp:150] Setting up pool1
I0524 00:24:14.053782  8498 net.cpp:157] Top shape: 70 12 60 48 (2419200)
I0524 00:24:14.053792  8498 net.cpp:165] Memory required for data: 50162280
I0524 00:24:14.053803  8498 layer_factory.hpp:77] Creating layer conv2
I0524 00:24:14.053825  8498 net.cpp:106] Creating Layer conv2
I0524 00:24:14.053838  8498 net.cpp:454] conv2 <- pool1
I0524 00:24:14.053850  8498 net.cpp:411] conv2 -> conv2
I0524 00:24:14.056589  8498 net.cpp:150] Setting up conv2
I0524 00:24:14.056617  8498 net.cpp:157] Top shape: 70 20 54 46 (3477600)
I0524 00:24:14.056627  8498 net.cpp:165] Memory required for data: 64072680
I0524 00:24:14.056648  8498 layer_factory.hpp:77] Creating layer relu2
I0524 00:24:14.056663  8498 net.cpp:106] Creating Layer relu2
I0524 00:24:14.056673  8498 net.cpp:454] relu2 <- conv2
I0524 00:24:14.056685  8498 net.cpp:397] relu2 -> conv2 (in-place)
I0524 00:24:14.057014  8498 net.cpp:150] Setting up relu2
I0524 00:24:14.057029  8498 net.cpp:157] Top shape: 70 20 54 46 (3477600)
I0524 00:24:14.057039  8498 net.cpp:165] Memory required for data: 77983080
I0524 00:24:14.057049  8498 layer_factory.hpp:77] Creating layer pool2
I0524 00:24:14.057061  8498 net.cpp:106] Creating Layer pool2
I0524 00:24:14.057071  8498 net.cpp:454] pool2 <- conv2
I0524 00:24:14.057085  8498 net.cpp:411] pool2 -> pool2
I0524 00:24:14.057165  8498 net.cpp:150] Setting up pool2
I0524 00:24:14.057179  8498 net.cpp:157] Top shape: 70 20 27 46 (1738800)
I0524 00:24:14.057189  8498 net.cpp:165] Memory required for data: 84938280
I0524 00:24:14.057198  8498 layer_factory.hpp:77] Creating layer conv3
I0524 00:24:14.057215  8498 net.cpp:106] Creating Layer conv3
I0524 00:24:14.057226  8498 net.cpp:454] conv3 <- pool2
I0524 00:24:14.057240  8498 net.cpp:411] conv3 -> conv3
I0524 00:24:14.059161  8498 net.cpp:150] Setting up conv3
I0524 00:24:14.059185  8498 net.cpp:157] Top shape: 70 28 22 44 (1897280)
I0524 00:24:14.059196  8498 net.cpp:165] Memory required for data: 92527400
I0524 00:24:14.059216  8498 layer_factory.hpp:77] Creating layer relu3
I0524 00:24:14.059231  8498 net.cpp:106] Creating Layer relu3
I0524 00:24:14.059242  8498 net.cpp:454] relu3 <- conv3
I0524 00:24:14.059254  8498 net.cpp:397] relu3 -> conv3 (in-place)
I0524 00:24:14.059721  8498 net.cpp:150] Setting up relu3
I0524 00:24:14.059738  8498 net.cpp:157] Top shape: 70 28 22 44 (1897280)
I0524 00:24:14.059748  8498 net.cpp:165] Memory required for data: 100116520
I0524 00:24:14.059758  8498 layer_factory.hpp:77] Creating layer pool3
I0524 00:24:14.059772  8498 net.cpp:106] Creating Layer pool3
I0524 00:24:14.059780  8498 net.cpp:454] pool3 <- conv3
I0524 00:24:14.059793  8498 net.cpp:411] pool3 -> pool3
I0524 00:24:14.059860  8498 net.cpp:150] Setting up pool3
I0524 00:24:14.059875  8498 net.cpp:157] Top shape: 70 28 11 44 (948640)
I0524 00:24:14.059883  8498 net.cpp:165] Memory required for data: 103911080
I0524 00:24:14.059891  8498 layer_factory.hpp:77] Creating layer conv4
I0524 00:24:14.059909  8498 net.cpp:106] Creating Layer conv4
I0524 00:24:14.059921  8498 net.cpp:454] conv4 <- pool3
I0524 00:24:14.059933  8498 net.cpp:411] conv4 -> conv4
I0524 00:24:14.062721  8498 net.cpp:150] Setting up conv4
I0524 00:24:14.062750  8498 net.cpp:157] Top shape: 70 36 6 42 (635040)
I0524 00:24:14.062762  8498 net.cpp:165] Memory required for data: 106451240
I0524 00:24:14.062777  8498 layer_factory.hpp:77] Creating layer relu4
I0524 00:24:14.062791  8498 net.cpp:106] Creating Layer relu4
I0524 00:24:14.062801  8498 net.cpp:454] relu4 <- conv4
I0524 00:24:14.062814  8498 net.cpp:397] relu4 -> conv4 (in-place)
I0524 00:24:14.063290  8498 net.cpp:150] Setting up relu4
I0524 00:24:14.063308  8498 net.cpp:157] Top shape: 70 36 6 42 (635040)
I0524 00:24:14.063318  8498 net.cpp:165] Memory required for data: 108991400
I0524 00:24:14.063328  8498 layer_factory.hpp:77] Creating layer pool4
I0524 00:24:14.063340  8498 net.cpp:106] Creating Layer pool4
I0524 00:24:14.063350  8498 net.cpp:454] pool4 <- conv4
I0524 00:24:14.063364  8498 net.cpp:411] pool4 -> pool4
I0524 00:24:14.063431  8498 net.cpp:150] Setting up pool4
I0524 00:24:14.063444  8498 net.cpp:157] Top shape: 70 36 3 42 (317520)
I0524 00:24:14.063455  8498 net.cpp:165] Memory required for data: 110261480
I0524 00:24:14.063465  8498 layer_factory.hpp:77] Creating layer ip1
I0524 00:24:14.063485  8498 net.cpp:106] Creating Layer ip1
I0524 00:24:14.063496  8498 net.cpp:454] ip1 <- pool4
I0524 00:24:14.063508  8498 net.cpp:411] ip1 -> ip1
I0524 00:24:14.078999  8498 net.cpp:150] Setting up ip1
I0524 00:24:14.079026  8498 net.cpp:157] Top shape: 70 196 (13720)
I0524 00:24:14.079040  8498 net.cpp:165] Memory required for data: 110316360
I0524 00:24:14.079061  8498 layer_factory.hpp:77] Creating layer relu5
I0524 00:24:14.079077  8498 net.cpp:106] Creating Layer relu5
I0524 00:24:14.079087  8498 net.cpp:454] relu5 <- ip1
I0524 00:24:14.079100  8498 net.cpp:397] relu5 -> ip1 (in-place)
I0524 00:24:14.079442  8498 net.cpp:150] Setting up relu5
I0524 00:24:14.079457  8498 net.cpp:157] Top shape: 70 196 (13720)
I0524 00:24:14.079468  8498 net.cpp:165] Memory required for data: 110371240
I0524 00:24:14.079478  8498 layer_factory.hpp:77] Creating layer drop1
I0524 00:24:14.079499  8498 net.cpp:106] Creating Layer drop1
I0524 00:24:14.079510  8498 net.cpp:454] drop1 <- ip1
I0524 00:24:14.079522  8498 net.cpp:397] drop1 -> ip1 (in-place)
I0524 00:24:14.079583  8498 net.cpp:150] Setting up drop1
I0524 00:24:14.079597  8498 net.cpp:157] Top shape: 70 196 (13720)
I0524 00:24:14.079607  8498 net.cpp:165] Memory required for data: 110426120
I0524 00:24:14.079617  8498 layer_factory.hpp:77] Creating layer ip2
I0524 00:24:14.079635  8498 net.cpp:106] Creating Layer ip2
I0524 00:24:14.079646  8498 net.cpp:454] ip2 <- ip1
I0524 00:24:14.079659  8498 net.cpp:411] ip2 -> ip2
I0524 00:24:14.080121  8498 net.cpp:150] Setting up ip2
I0524 00:24:14.080133  8498 net.cpp:157] Top shape: 70 98 (6860)
I0524 00:24:14.080143  8498 net.cpp:165] Memory required for data: 110453560
I0524 00:24:14.080158  8498 layer_factory.hpp:77] Creating layer relu6
I0524 00:24:14.080170  8498 net.cpp:106] Creating Layer relu6
I0524 00:24:14.080180  8498 net.cpp:454] relu6 <- ip2
I0524 00:24:14.080193  8498 net.cpp:397] relu6 -> ip2 (in-place)
I0524 00:24:14.080704  8498 net.cpp:150] Setting up relu6
I0524 00:24:14.080721  8498 net.cpp:157] Top shape: 70 98 (6860)
I0524 00:24:14.080731  8498 net.cpp:165] Memory required for data: 110481000
I0524 00:24:14.080744  8498 layer_factory.hpp:77] Creating layer drop2
I0524 00:24:14.080756  8498 net.cpp:106] Creating Layer drop2
I0524 00:24:14.080766  8498 net.cpp:454] drop2 <- ip2
I0524 00:24:14.080780  8498 net.cpp:397] drop2 -> ip2 (in-place)
I0524 00:24:14.080821  8498 net.cpp:150] Setting up drop2
I0524 00:24:14.080835  8498 net.cpp:157] Top shape: 70 98 (6860)
I0524 00:24:14.080845  8498 net.cpp:165] Memory required for data: 110508440
I0524 00:24:14.080855  8498 layer_factory.hpp:77] Creating layer ip3
I0524 00:24:14.080868  8498 net.cpp:106] Creating Layer ip3
I0524 00:24:14.080878  8498 net.cpp:454] ip3 <- ip2
I0524 00:24:14.080889  8498 net.cpp:411] ip3 -> ip3
I0524 00:24:14.081099  8498 net.cpp:150] Setting up ip3
I0524 00:24:14.081111  8498 net.cpp:157] Top shape: 70 11 (770)
I0524 00:24:14.081121  8498 net.cpp:165] Memory required for data: 110511520
I0524 00:24:14.081136  8498 layer_factory.hpp:77] Creating layer drop3
I0524 00:24:14.081149  8498 net.cpp:106] Creating Layer drop3
I0524 00:24:14.081159  8498 net.cpp:454] drop3 <- ip3
I0524 00:24:14.081171  8498 net.cpp:397] drop3 -> ip3 (in-place)
I0524 00:24:14.081210  8498 net.cpp:150] Setting up drop3
I0524 00:24:14.081223  8498 net.cpp:157] Top shape: 70 11 (770)
I0524 00:24:14.081233  8498 net.cpp:165] Memory required for data: 110514600
I0524 00:24:14.081243  8498 layer_factory.hpp:77] Creating layer loss
I0524 00:24:14.081262  8498 net.cpp:106] Creating Layer loss
I0524 00:24:14.081272  8498 net.cpp:454] loss <- ip3
I0524 00:24:14.081281  8498 net.cpp:454] loss <- label
I0524 00:24:14.081295  8498 net.cpp:411] loss -> loss
I0524 00:24:14.081312  8498 layer_factory.hpp:77] Creating layer loss
…
I0524 00:24:14.083926  8498 solver.cpp:181] Creating test net (#0) specified by net file: /lustre/atlas/proj-shared/hep105/caffe_titan/caffe_workflow/logs_bslr/bs_70_lr_0.0020_2016-05-20T15.49.13.759876.prototxt
I0524 00:24:14.083997  8498 net.cpp:322] The NetState phase (1) differed from the phase (0) specified by a rule in layer data_hdf5
I0524 00:24:14.084354  8498 net.cpp:49] Initializing net from parameters: 
name: "caffe_test_127x50_x_unshifted"
state {
  phase: TEST
}
layer {
  name: "data_hdf5"
  type: "HDF5Data"
  top: "data"
  top: "label"
  include {
    phase: TEST
  }
  hdf5_data_param {
    source: "/lustre/atlas/proj-shared/hep105/caffe_titan/minosmatch_nukecczdefs_127x50_x_unshifted_me1Bmc.testlist"
    batch_size: 70
  }
}
layer {
  name: "conv1"
  type: "Convolution"
  bottom: "data"
  top: "conv1"
  convolution_param {
    num_output: 12
    pad: 0
    stride: 1
    weight_filler {
      type: "xavier"
    }
    bias_filler {
      type: "constant"
    }
    kernel_h: 8
    kernel_w: 3
  }
}
layer {
  name: "relu1"
  type: "ReLU"
  bottom: "conv1"
  top: "conv1"
}
layer {
  name: "pool1"
  type: "Pooling"
  bottom: "conv1"
  top: "pool1"
  pooling_param {
    pool: MAX
    kernel_h: 2
    kernel_w: 1
    stride_h: 2
    stride_w: 1
  }
}
layer {
  name: "conv2"
  type: "Convolution"
  bottom: "pool1"
  top: "conv2"
  convolution_param {
    num_output: 20
    pad: 0
    stride: 1
    weight_filler {
      type: "xavier"
    }
    bias_filler {
      type: "constant"
    }
    kernel_h: 7
    kernel_w: 3
  }
}
layer {
  name: "relu2"
  type: "ReLU"
  bottom: "conv2"
  top: "conv2"
}
layer {
  name: "pool2"
  type: "Pooling"
  bottom: "conv2"
  top: "pool2"
  pooling_param {
    pool: MAX
    kernel_h: 2
    kernel_w: 1
    stride_h: 2
    stride_w: 1
  }
}
layer {
  name: "conv3"
  type: "Convolution"
  bottom: "pool2"
  top: "conv3"
  convolution_param {
    num_output: 28
    pad: 0
    stride: 1
    weight_filler {
      type: "xavier"
    }
    bias_filler {
      type: "constant"
    }
    kernel_h: 6
    kernel_w: 3
  }
}
layer {
  name: "relu3"
  type: "ReLU"
  bottom: "conv3"
  top: "conv3"
}
layer {
  name: "pool3"
  type: "Pooling"
  bottom: "conv3"
  top: "pool3"
  pooling_param {
    pool: MAX
    kernel_h: 2
    kernel_w: 1
    stride_h: 2
    stride_w: 1
  }
}
layer {
  name: "conv4"
  type: "Convolution"
  bottom: "pool3"
  top: "conv4"
  convolution_param {
    num_output: 36
    pad: 0
    stride: 1
    weight_filler {
      type: "xavier"
    }
    bias_filler {
      type: "constant"
    }
    kernel_h: 6
    kernel_w: 3
  }
}
layer {
  name: "relu4"
  type: "ReLU"
  bottom: "conv4"
  top: "conv4"
}
layer {
  name: "pool4"
  type: "Pooling"
  bottom: "conv4"
  top: "pool4"
  pooling_param {
    pool: MAX
    kernel_h: 2
    kernel_w: 1
    stride_h: 2
    stride_w: 1
  }
}
layer {
  name: "ip1"
  type: "InnerProduct"
  bottom: "pool4"
  top: "ip1"
  inner_product_param {
    num_output: 196
    weight_filler {
      type: "xavier"
    }
    bias_filler {
      type: "constant"
    }
  }
}
layer {
  name: "relu5"
  type: "ReLU"
  bottom: "ip1"
  top: "ip1"
}
layer {
  name: "drop1"
  type: "Dropout"
  bottom: "ip1"
  top: "ip1"
  dropout_param {
    dropout_ratio: 0.5
  }
}
layer {
  name: "ip2"
  type: "InnerProduct"
  bottom: "ip1"
  top: "ip2"
  inner_product_param {
    num_output: 98
    weight_filler {
      type: "xavier"
    }
    bias_filler {
      type: "constant"
    }
  }
}
layer {
  name: "relu6"
  type: "ReLU"
  bottom: "ip2"
  top: "ip2"
}
layer {
  name: "drop2"
  type: "Dropout"
  bottom: "ip2"
  top: "ip2"
  dropout_param {
    dropout_ratio: 0.5
  }
}
layer {
  name: "ip3"
  type: "InnerProduct"
  bottom: "ip2"
  top: "ip3"
  inner_product_param {
    num_output: 11
    weight_filler {
      type: "xavier"
    }
    bias_filler {
      type: "constant"
    }
  }
}
layer {
  name: "drop3"
  type: "Dropout"
  bottom: "ip3"
  top: "ip3"
  dropout_param {
    dropout_ratio: 0.5
  }
}
layer {
  name: "accuracy"
  type: "Accuracy"
  bottom: "ip3"
  bottom: "label"
  top: "accuracy"
  include {
    phase: TEST
  }
}
layer {
  name: "loss"
  type: "SoftmaxWithLoss"
  bottom: "ip3"
  bottom: "label"
  top: "loss"
}
I0524 00:24:14.084543  8498 layer_factory.hpp:77] Creating layer data_hdf5
I0524 00:24:14.084558  8498 net.cpp:106] Creating Layer data_hdf5
I0524 00:24:14.084571  8498 net.cpp:411] data_hdf5 -> data
I0524 00:24:14.084588  8498 net.cpp:411] data_hdf5 -> label
I0524 00:24:14.084604  8498 hdf5_data_layer.cpp:79] Loading list of HDF5 filenames from: /lustre/atlas/proj-shared/hep105/caffe_titan/minosmatch_nukecczdefs_127x50_x_unshifted_me1Bmc.testlist
I0524 00:24:14.085742  8498 hdf5_data_layer.cpp:93] Number of HDF5 files: 3
I0524 00:24:35.421710  8498 net.cpp:150] Setting up data_hdf5
I0524 00:24:35.421878  8498 net.cpp:157] Top shape: 70 1 127 50 (444500)
I0524 00:24:35.421893  8498 net.cpp:157] Top shape: 70 (70)
I0524 00:24:35.421905  8498 net.cpp:165] Memory required for data: 1778280
I0524 00:24:35.421919  8498 layer_factory.hpp:77] Creating layer label_data_hdf5_1_split
I0524 00:24:35.421947  8498 net.cpp:106] Creating Layer label_data_hdf5_1_split
I0524 00:24:35.421957  8498 net.cpp:454] label_data_hdf5_1_split <- label
I0524 00:24:35.421973  8498 net.cpp:411] label_data_hdf5_1_split -> label_data_hdf5_1_split_0
I0524 00:24:35.421994  8498 net.cpp:411] label_data_hdf5_1_split -> label_data_hdf5_1_split_1
I0524 00:24:35.422067  8498 net.cpp:150] Setting up label_data_hdf5_1_split
I0524 00:24:35.422081  8498 net.cpp:157] Top shape: 70 (70)
I0524 00:24:35.422092  8498 net.cpp:157] Top shape: 70 (70)
I0524 00:24:35.422102  8498 net.cpp:165] Memory required for data: 1778840
I0524 00:24:35.422112  8498 layer_factory.hpp:77] Creating layer conv1
I0524 00:24:35.422134  8498 net.cpp:106] Creating Layer conv1
I0524 00:24:35.422145  8498 net.cpp:454] conv1 <- data
I0524 00:24:35.422159  8498 net.cpp:411] conv1 -> conv1
I0524 00:24:35.424067  8498 net.cpp:150] Setting up conv1
I0524 00:24:35.424091  8498 net.cpp:157] Top shape: 70 12 120 48 (4838400)
I0524 00:24:35.424103  8498 net.cpp:165] Memory required for data: 21132440
I0524 00:24:35.424124  8498 layer_factory.hpp:77] Creating layer relu1
I0524 00:24:35.424139  8498 net.cpp:106] Creating Layer relu1
I0524 00:24:35.424149  8498 net.cpp:454] relu1 <- conv1
I0524 00:24:35.424161  8498 net.cpp:397] relu1 -> conv1 (in-place)
I0524 00:24:35.424654  8498 net.cpp:150] Setting up relu1
I0524 00:24:35.424671  8498 net.cpp:157] Top shape: 70 12 120 48 (4838400)
I0524 00:24:35.424681  8498 net.cpp:165] Memory required for data: 40486040
I0524 00:24:35.424692  8498 layer_factory.hpp:77] Creating layer pool1
I0524 00:24:35.424708  8498 net.cpp:106] Creating Layer pool1
I0524 00:24:35.424718  8498 net.cpp:454] pool1 <- conv1
I0524 00:24:35.424731  8498 net.cpp:411] pool1 -> pool1
I0524 00:24:35.424805  8498 net.cpp:150] Setting up pool1
I0524 00:24:35.424818  8498 net.cpp:157] Top shape: 70 12 60 48 (2419200)
I0524 00:24:35.424829  8498 net.cpp:165] Memory required for data: 50162840
I0524 00:24:35.424840  8498 layer_factory.hpp:77] Creating layer conv2
I0524 00:24:35.424859  8498 net.cpp:106] Creating Layer conv2
I0524 00:24:35.424868  8498 net.cpp:454] conv2 <- pool1
I0524 00:24:35.424881  8498 net.cpp:411] conv2 -> conv2
I0524 00:24:35.426803  8498 net.cpp:150] Setting up conv2
I0524 00:24:35.426826  8498 net.cpp:157] Top shape: 70 20 54 46 (3477600)
I0524 00:24:35.426838  8498 net.cpp:165] Memory required for data: 64073240
I0524 00:24:35.426856  8498 layer_factory.hpp:77] Creating layer relu2
I0524 00:24:35.426870  8498 net.cpp:106] Creating Layer relu2
I0524 00:24:35.426880  8498 net.cpp:454] relu2 <- conv2
I0524 00:24:35.426893  8498 net.cpp:397] relu2 -> conv2 (in-place)
I0524 00:24:35.427225  8498 net.cpp:150] Setting up relu2
I0524 00:24:35.427239  8498 net.cpp:157] Top shape: 70 20 54 46 (3477600)
I0524 00:24:35.427250  8498 net.cpp:165] Memory required for data: 77983640
I0524 00:24:35.427260  8498 layer_factory.hpp:77] Creating layer pool2
I0524 00:24:35.427273  8498 net.cpp:106] Creating Layer pool2
I0524 00:24:35.427284  8498 net.cpp:454] pool2 <- conv2
I0524 00:24:35.427296  8498 net.cpp:411] pool2 -> pool2
I0524 00:24:35.427368  8498 net.cpp:150] Setting up pool2
I0524 00:24:35.427381  8498 net.cpp:157] Top shape: 70 20 27 46 (1738800)
I0524 00:24:35.427392  8498 net.cpp:165] Memory required for data: 84938840
I0524 00:24:35.427400  8498 layer_factory.hpp:77] Creating layer conv3
I0524 00:24:35.427420  8498 net.cpp:106] Creating Layer conv3
I0524 00:24:35.427431  8498 net.cpp:454] conv3 <- pool2
I0524 00:24:35.427446  8498 net.cpp:411] conv3 -> conv3
I0524 00:24:35.429411  8498 net.cpp:150] Setting up conv3
I0524 00:24:35.429435  8498 net.cpp:157] Top shape: 70 28 22 44 (1897280)
I0524 00:24:35.429446  8498 net.cpp:165] Memory required for data: 92527960
I0524 00:24:35.429481  8498 layer_factory.hpp:77] Creating layer relu3
I0524 00:24:35.429493  8498 net.cpp:106] Creating Layer relu3
I0524 00:24:35.429504  8498 net.cpp:454] relu3 <- conv3
I0524 00:24:35.429517  8498 net.cpp:397] relu3 -> conv3 (in-place)
I0524 00:24:35.429996  8498 net.cpp:150] Setting up relu3
I0524 00:24:35.430011  8498 net.cpp:157] Top shape: 70 28 22 44 (1897280)
I0524 00:24:35.430022  8498 net.cpp:165] Memory required for data: 100117080
I0524 00:24:35.430032  8498 layer_factory.hpp:77] Creating layer pool3
I0524 00:24:35.430044  8498 net.cpp:106] Creating Layer pool3
I0524 00:24:35.430055  8498 net.cpp:454] pool3 <- conv3
I0524 00:24:35.430068  8498 net.cpp:411] pool3 -> pool3
I0524 00:24:35.430140  8498 net.cpp:150] Setting up pool3
I0524 00:24:35.430153  8498 net.cpp:157] Top shape: 70 28 11 44 (948640)
I0524 00:24:35.430162  8498 net.cpp:165] Memory required for data: 103911640
I0524 00:24:35.430172  8498 layer_factory.hpp:77] Creating layer conv4
I0524 00:24:35.430191  8498 net.cpp:106] Creating Layer conv4
I0524 00:24:35.430202  8498 net.cpp:454] conv4 <- pool3
I0524 00:24:35.430214  8498 net.cpp:411] conv4 -> conv4
I0524 00:24:35.432260  8498 net.cpp:150] Setting up conv4
I0524 00:24:35.432282  8498 net.cpp:157] Top shape: 70 36 6 42 (635040)
I0524 00:24:35.432293  8498 net.cpp:165] Memory required for data: 106451800
I0524 00:24:35.432309  8498 layer_factory.hpp:77] Creating layer relu4
I0524 00:24:35.432323  8498 net.cpp:106] Creating Layer relu4
I0524 00:24:35.432333  8498 net.cpp:454] relu4 <- conv4
I0524 00:24:35.432345  8498 net.cpp:397] relu4 -> conv4 (in-place)
I0524 00:24:35.432813  8498 net.cpp:150] Setting up relu4
I0524 00:24:35.432834  8498 net.cpp:157] Top shape: 70 36 6 42 (635040)
I0524 00:24:35.432844  8498 net.cpp:165] Memory required for data: 108991960
I0524 00:24:35.432852  8498 layer_factory.hpp:77] Creating layer pool4
I0524 00:24:35.432863  8498 net.cpp:106] Creating Layer pool4
I0524 00:24:35.432873  8498 net.cpp:454] pool4 <- conv4
I0524 00:24:35.432884  8498 net.cpp:411] pool4 -> pool4
I0524 00:24:35.432957  8498 net.cpp:150] Setting up pool4
I0524 00:24:35.432971  8498 net.cpp:157] Top shape: 70 36 3 42 (317520)
I0524 00:24:35.432981  8498 net.cpp:165] Memory required for data: 110262040
I0524 00:24:35.432991  8498 layer_factory.hpp:77] Creating layer ip1
I0524 00:24:35.433006  8498 net.cpp:106] Creating Layer ip1
I0524 00:24:35.433015  8498 net.cpp:454] ip1 <- pool4
I0524 00:24:35.433029  8498 net.cpp:411] ip1 -> ip1
I0524 00:24:35.448539  8498 net.cpp:150] Setting up ip1
I0524 00:24:35.448566  8498 net.cpp:157] Top shape: 70 196 (13720)
I0524 00:24:35.448577  8498 net.cpp:165] Memory required for data: 110316920
I0524 00:24:35.448599  8498 layer_factory.hpp:77] Creating layer relu5
I0524 00:24:35.448616  8498 net.cpp:106] Creating Layer relu5
I0524 00:24:35.448626  8498 net.cpp:454] relu5 <- ip1
I0524 00:24:35.448639  8498 net.cpp:397] relu5 -> ip1 (in-place)
I0524 00:24:35.448983  8498 net.cpp:150] Setting up relu5
I0524 00:24:35.448998  8498 net.cpp:157] Top shape: 70 196 (13720)
I0524 00:24:35.449008  8498 net.cpp:165] Memory required for data: 110371800
I0524 00:24:35.449018  8498 layer_factory.hpp:77] Creating layer drop1
I0524 00:24:35.449038  8498 net.cpp:106] Creating Layer drop1
I0524 00:24:35.449048  8498 net.cpp:454] drop1 <- ip1
I0524 00:24:35.449060  8498 net.cpp:397] drop1 -> ip1 (in-place)
I0524 00:24:35.449107  8498 net.cpp:150] Setting up drop1
I0524 00:24:35.449120  8498 net.cpp:157] Top shape: 70 196 (13720)
I0524 00:24:35.449131  8498 net.cpp:165] Memory required for data: 110426680
I0524 00:24:35.449141  8498 layer_factory.hpp:77] Creating layer ip2
I0524 00:24:35.449156  8498 net.cpp:106] Creating Layer ip2
I0524 00:24:35.449165  8498 net.cpp:454] ip2 <- ip1
I0524 00:24:35.449179  8498 net.cpp:411] ip2 -> ip2
I0524 00:24:35.449669  8498 net.cpp:150] Setting up ip2
I0524 00:24:35.449682  8498 net.cpp:157] Top shape: 70 98 (6860)
I0524 00:24:35.449692  8498 net.cpp:165] Memory required for data: 110454120
I0524 00:24:35.449707  8498 layer_factory.hpp:77] Creating layer relu6
I0524 00:24:35.449733  8498 net.cpp:106] Creating Layer relu6
I0524 00:24:35.449743  8498 net.cpp:454] relu6 <- ip2
I0524 00:24:35.449755  8498 net.cpp:397] relu6 -> ip2 (in-place)
I0524 00:24:35.450289  8498 net.cpp:150] Setting up relu6
I0524 00:24:35.450310  8498 net.cpp:157] Top shape: 70 98 (6860)
I0524 00:24:35.450320  8498 net.cpp:165] Memory required for data: 110481560
I0524 00:24:35.450330  8498 layer_factory.hpp:77] Creating layer drop2
I0524 00:24:35.450345  8498 net.cpp:106] Creating Layer drop2
I0524 00:24:35.450355  8498 net.cpp:454] drop2 <- ip2
I0524 00:24:35.450367  8498 net.cpp:397] drop2 -> ip2 (in-place)
I0524 00:24:35.450412  8498 net.cpp:150] Setting up drop2
I0524 00:24:35.450424  8498 net.cpp:157] Top shape: 70 98 (6860)
I0524 00:24:35.450434  8498 net.cpp:165] Memory required for data: 110509000
I0524 00:24:35.450444  8498 layer_factory.hpp:77] Creating layer ip3
I0524 00:24:35.450459  8498 net.cpp:106] Creating Layer ip3
I0524 00:24:35.450469  8498 net.cpp:454] ip3 <- ip2
I0524 00:24:35.450482  8498 net.cpp:411] ip3 -> ip3
I0524 00:24:35.450705  8498 net.cpp:150] Setting up ip3
I0524 00:24:35.450717  8498 net.cpp:157] Top shape: 70 11 (770)
I0524 00:24:35.450726  8498 net.cpp:165] Memory required for data: 110512080
I0524 00:24:35.450742  8498 layer_factory.hpp:77] Creating layer drop3
I0524 00:24:35.450755  8498 net.cpp:106] Creating Layer drop3
I0524 00:24:35.450765  8498 net.cpp:454] drop3 <- ip3
I0524 00:24:35.450778  8498 net.cpp:397] drop3 -> ip3 (in-place)
I0524 00:24:35.450819  8498 net.cpp:150] Setting up drop3
I0524 00:24:35.450834  8498 net.cpp:157] Top shape: 70 11 (770)
I0524 00:24:35.450842  8498 net.cpp:165] Memory required for data: 110515160
I0524 00:24:35.450852  8498 layer_factory.hpp:77] Creating layer ip3_drop3_0_split
I0524 00:24:35.450865  8498 net.cpp:106] Creating Layer ip3_drop3_0_split
I0524 00:24:35.450875  8498 net.cpp:454] ip3_drop3_0_split <- ip3
I0524 00:24:35.450888  8498 net.cpp:411] ip3_drop3_0_split -> ip3_drop3_0_split_0
I0524 00:24:35.450904  8498 net.cpp:411] ip3_drop3_0_split -> ip3_drop3_0_split_1
I0524 00:24:35.450978  8498 net.cpp:150] Setting up ip3_drop3_0_split
I0524 00:24:35.450991  8498 net.cpp:157] Top shape: 70 11 (770)
I0524 00:24:35.451004  8498 net.cpp:157] Top shape: 70 11 (770)
I0524 00:24:35.451014  8498 net.cpp:165] Memory required for data: 110521320
I0524 00:24:35.451025  8498 layer_factory.hpp:77] Creating layer accuracy
I0524 00:24:35.451045  8498 net.cpp:106] Creating Layer accuracy
I0524 00:24:35.451056  8498 net.cpp:454] accuracy <- ip3_drop3_0_split_0
I0524 00:24:35.451066  8498 net.cpp:454] accuracy <- label_data_hdf5_1_split_0
I0524 00:24:35.451081  8498 net.cpp:411] accuracy -> accuracy
…
