…
I0524 02:03:13.845837 15289 net.cpp:322] The NetState phase (0) differed from the phase (1) specified by a rule in layer data_hdf5
I0524 02:03:13.845896 15289 net.cpp:322] The NetState phase (0) differed from the phase (1) specified by a rule in layer accuracy
I0524 02:03:13.846243 15289 net.cpp:49] Initializing net from parameters: 
name: "caffe_test_127x50_x_unshifted"
state {
  phase: TRAIN
}
layer {
  name: "data_hdf5"
  type: "HDF5Data"
  top: "data"
  top: "label"
  include {
    phase: TRAIN
  }
  hdf5_data_param {
    source: "/lustre/atlas/proj-shared/hep105/caffe_titan/minosmatch_nukecczdefs_127x50_x_unshifted_me1Bmc.trainlist"
    batch_size: 70
  }
}
layer {
  name: "conv1"
  type: "Convolution"
  bottom: "data"
  top: "conv1"
  convolution_param {
    num_output: 12
    pad: 0
    stride: 1
    weight_filler {
      type: "xavier"
    }
    bias_filler {
      type: "constant"
    }
    kernel_h: 8
    kernel_w: 3
  }
}
layer {
  name: "relu1"
  type: "ReLU"
  bottom: "conv1"
  top: "conv1"
}
layer {
  name: "pool1"
  type: "Pooling"
  bottom: "conv1"
  top: "pool1"
  pooling_param {
    pool: MAX
    kernel_h: 2
    kernel_w: 1
    stride_h: 2
    stride_w: 1
  }
}
layer {
  name: "conv2"
  type: "Convolution"
  bottom: "pool1"
  top: "conv2"
  convolution_param {
    num_output: 20
    pad: 0
    stride: 1
    weight_filler {
      type: "xavier"
    }
    bias_filler {
      type: "constant"
    }
    kernel_h: 7
    kernel_w: 3
  }
}
layer {
  name: "relu2"
  type: "ReLU"
  bottom: "conv2"
  top: "conv2"
}
layer {
  name: "pool2"
  type: "Pooling"
  bottom: "conv2"
  top: "pool2"
  pooling_param {
    pool: MAX
    kernel_h: 2
    kernel_w: 1
    stride_h: 2
    stride_w: 1
  }
}
layer {
  name: "conv3"
  type: "Convolution"
  bottom: "pool2"
  top: "conv3"
  convolution_param {
    num_output: 28
    pad: 0
    stride: 1
    weight_filler {
      type: "xavier"
    }
    bias_filler {
      type: "constant"
    }
    kernel_h: 6
    kernel_w: 3
  }
}
layer {
  name: "relu3"
  type: "ReLU"
  bottom: "conv3"
  top: "conv3"
}
layer {
  name: "pool3"
  type: "Pooling"
  bottom: "conv3"
  top: "pool3"
  pooling_param {
    pool: MAX
    kernel_h: 2
    kernel_w: 1
    stride_h: 2
    stride_w: 1
  }
}
layer {
  name: "conv4"
  type: "Convolution"
  bottom: "pool3"
  top: "conv4"
  convolution_param {
    num_output: 36
    pad: 0
    stride: 1
    weight_filler {
      type: "xavier"
    }
    bias_filler {
      type: "constant"
    }
    kernel_h: 6
    kernel_w: 3
  }
}
layer {
  name: "relu4"
  type: "ReLU"
  bottom: "conv4"
  top: "conv4"
}
layer {
  name: "pool4"
  type: "Pooling"
  bottom: "conv4"
  top: "pool4"
  pooling_param {
    pool: MAX
    kernel_h: 2
    kernel_w: 1
    stride_h: 2
    stride_w: 1
  }
}
layer {
  name: "ip1"
  type: "InnerProduct"
  bottom: "pool4"
  top: "ip1"
  inner_product_param {
    num_output: 196
    weight_filler {
      type: "xavier"
    }
    bias_filler {
      type: "constant"
    }
  }
}
layer {
  name: "relu5"
  type: "ReLU"
  bottom: "ip1"
  top: "ip1"
}
layer {
  name: "drop1"
  type: "Dropout"
  bottom: "ip1"
  top: "ip1"
  dropout_param {
    dropout_ratio: 0.5
  }
}
layer {
  name: "ip2"
  type: "InnerProduct"
  bottom: "ip1"
  top: "ip2"
  inner_product_param {
    num_output: 98
    weight_filler {
      type: "xavier"
    }
    bias_filler {
      type: "constant"
    }
  }
}
layer {
  name: "relu6"
  type: "ReLU"
  bottom: "ip2"
  top: "ip2"
}
layer {
  name: "drop2"
  type: "Dropout"
  bottom: "ip2"
  top: "ip2"
  dropout_param {
    dropout_ratio: 0.5
  }
}
layer {
  name: "ip3"
  type: "InnerProduct"
  bottom: "ip2"
  top: "ip3"
  inner_product_param {
    num_output: 11
    weight_filler {
      type: "xavier"
    }
    bias_filler {
      type: "constant"
    }
  }
}
layer {
  name: "drop3"
  type: "Dropout"
  bottom: "ip3"
  top: "ip3"
  dropout_param {
    dropout_ratio: 0.5
  }
}
layer {
  name: "loss"
  type: "SoftmaxWithLoss"
  bottom: "ip3"
  bottom: "label"
  top: "loss"
}
I0524 02:03:13.846426 15289 layer_factory.hpp:77] Creating layer data_hdf5
I0524 02:03:13.846449 15289 net.cpp:106] Creating Layer data_hdf5
I0524 02:03:13.846464 15289 net.cpp:411] data_hdf5 -> data
I0524 02:03:13.846498 15289 net.cpp:411] data_hdf5 -> label
I0524 02:03:13.846530 15289 hdf5_data_layer.cpp:79] Loading list of HDF5 filenames from: /lustre/atlas/proj-shared/hep105/caffe_titan/minosmatch_nukecczdefs_127x50_x_unshifted_me1Bmc.trainlist
I0524 02:03:13.847692 15289 hdf5_data_layer.cpp:93] Number of HDF5 files: 15
I0524 02:03:13.849889 15289 hdf5.cpp:32] Datatype class: H5T_FLOAT
I0524 02:03:35.361130 15289 hdf5.cpp:35] Datatype class: H5T_INTEGER
I0524 02:03:35.366293 15289 net.cpp:150] Setting up data_hdf5
I0524 02:03:35.366333 15289 net.cpp:157] Top shape: 70 1 127 50 (444500)
I0524 02:03:35.366348 15289 net.cpp:157] Top shape: 70 (70)
I0524 02:03:35.366359 15289 net.cpp:165] Memory required for data: 1778280
I0524 02:03:35.366372 15289 layer_factory.hpp:77] Creating layer conv1
I0524 02:03:35.366406 15289 net.cpp:106] Creating Layer conv1
I0524 02:03:35.366417 15289 net.cpp:454] conv1 <- data
I0524 02:03:35.366438 15289 net.cpp:411] conv1 -> conv1
I0524 02:03:36.991636 15289 net.cpp:150] Setting up conv1
I0524 02:03:36.991683 15289 net.cpp:157] Top shape: 70 12 120 48 (4838400)
I0524 02:03:36.991695 15289 net.cpp:165] Memory required for data: 21131880
I0524 02:03:36.991724 15289 layer_factory.hpp:77] Creating layer relu1
I0524 02:03:36.991745 15289 net.cpp:106] Creating Layer relu1
I0524 02:03:36.991756 15289 net.cpp:454] relu1 <- conv1
I0524 02:03:36.991770 15289 net.cpp:397] relu1 -> conv1 (in-place)
I0524 02:03:36.992286 15289 net.cpp:150] Setting up relu1
I0524 02:03:36.992303 15289 net.cpp:157] Top shape: 70 12 120 48 (4838400)
I0524 02:03:36.992313 15289 net.cpp:165] Memory required for data: 40485480
I0524 02:03:36.992324 15289 layer_factory.hpp:77] Creating layer pool1
I0524 02:03:36.992342 15289 net.cpp:106] Creating Layer pool1
I0524 02:03:36.992352 15289 net.cpp:454] pool1 <- conv1
I0524 02:03:36.992365 15289 net.cpp:411] pool1 -> pool1
I0524 02:03:36.992444 15289 net.cpp:150] Setting up pool1
I0524 02:03:36.992458 15289 net.cpp:157] Top shape: 70 12 60 48 (2419200)
I0524 02:03:36.992468 15289 net.cpp:165] Memory required for data: 50162280
I0524 02:03:36.992476 15289 layer_factory.hpp:77] Creating layer conv2
I0524 02:03:36.992499 15289 net.cpp:106] Creating Layer conv2
I0524 02:03:36.992509 15289 net.cpp:454] conv2 <- pool1
I0524 02:03:36.992523 15289 net.cpp:411] conv2 -> conv2
I0524 02:03:36.995270 15289 net.cpp:150] Setting up conv2
I0524 02:03:36.995298 15289 net.cpp:157] Top shape: 70 20 54 46 (3477600)
I0524 02:03:36.995309 15289 net.cpp:165] Memory required for data: 64072680
I0524 02:03:36.995328 15289 layer_factory.hpp:77] Creating layer relu2
I0524 02:03:36.995342 15289 net.cpp:106] Creating Layer relu2
I0524 02:03:36.995353 15289 net.cpp:454] relu2 <- conv2
I0524 02:03:36.995365 15289 net.cpp:397] relu2 -> conv2 (in-place)
I0524 02:03:36.995697 15289 net.cpp:150] Setting up relu2
I0524 02:03:36.995712 15289 net.cpp:157] Top shape: 70 20 54 46 (3477600)
I0524 02:03:36.995723 15289 net.cpp:165] Memory required for data: 77983080
I0524 02:03:36.995733 15289 layer_factory.hpp:77] Creating layer pool2
I0524 02:03:36.995744 15289 net.cpp:106] Creating Layer pool2
I0524 02:03:36.995754 15289 net.cpp:454] pool2 <- conv2
I0524 02:03:36.995767 15289 net.cpp:411] pool2 -> pool2
I0524 02:03:36.995847 15289 net.cpp:150] Setting up pool2
I0524 02:03:36.995860 15289 net.cpp:157] Top shape: 70 20 27 46 (1738800)
I0524 02:03:36.995870 15289 net.cpp:165] Memory required for data: 84938280
I0524 02:03:36.995880 15289 layer_factory.hpp:77] Creating layer conv3
I0524 02:03:36.995896 15289 net.cpp:106] Creating Layer conv3
I0524 02:03:36.995908 15289 net.cpp:454] conv3 <- pool2
I0524 02:03:36.995920 15289 net.cpp:411] conv3 -> conv3
I0524 02:03:36.997835 15289 net.cpp:150] Setting up conv3
I0524 02:03:36.997859 15289 net.cpp:157] Top shape: 70 28 22 44 (1897280)
I0524 02:03:36.997871 15289 net.cpp:165] Memory required for data: 92527400
I0524 02:03:36.997890 15289 layer_factory.hpp:77] Creating layer relu3
I0524 02:03:36.997906 15289 net.cpp:106] Creating Layer relu3
I0524 02:03:36.997916 15289 net.cpp:454] relu3 <- conv3
I0524 02:03:36.997928 15289 net.cpp:397] relu3 -> conv3 (in-place)
I0524 02:03:36.998394 15289 net.cpp:150] Setting up relu3
I0524 02:03:36.998411 15289 net.cpp:157] Top shape: 70 28 22 44 (1897280)
I0524 02:03:36.998421 15289 net.cpp:165] Memory required for data: 100116520
I0524 02:03:36.998432 15289 layer_factory.hpp:77] Creating layer pool3
I0524 02:03:36.998445 15289 net.cpp:106] Creating Layer pool3
I0524 02:03:36.998455 15289 net.cpp:454] pool3 <- conv3
I0524 02:03:36.998467 15289 net.cpp:411] pool3 -> pool3
I0524 02:03:36.998533 15289 net.cpp:150] Setting up pool3
I0524 02:03:36.998548 15289 net.cpp:157] Top shape: 70 28 11 44 (948640)
I0524 02:03:36.998556 15289 net.cpp:165] Memory required for data: 103911080
I0524 02:03:36.998567 15289 layer_factory.hpp:77] Creating layer conv4
I0524 02:03:36.998581 15289 net.cpp:106] Creating Layer conv4
I0524 02:03:36.998592 15289 net.cpp:454] conv4 <- pool3
I0524 02:03:36.998606 15289 net.cpp:411] conv4 -> conv4
I0524 02:03:37.001396 15289 net.cpp:150] Setting up conv4
I0524 02:03:37.001425 15289 net.cpp:157] Top shape: 70 36 6 42 (635040)
I0524 02:03:37.001435 15289 net.cpp:165] Memory required for data: 106451240
I0524 02:03:37.001451 15289 layer_factory.hpp:77] Creating layer relu4
I0524 02:03:37.001466 15289 net.cpp:106] Creating Layer relu4
I0524 02:03:37.001476 15289 net.cpp:454] relu4 <- conv4
I0524 02:03:37.001488 15289 net.cpp:397] relu4 -> conv4 (in-place)
I0524 02:03:37.001963 15289 net.cpp:150] Setting up relu4
I0524 02:03:37.001981 15289 net.cpp:157] Top shape: 70 36 6 42 (635040)
I0524 02:03:37.001991 15289 net.cpp:165] Memory required for data: 108991400
I0524 02:03:37.002002 15289 layer_factory.hpp:77] Creating layer pool4
I0524 02:03:37.002014 15289 net.cpp:106] Creating Layer pool4
I0524 02:03:37.002024 15289 net.cpp:454] pool4 <- conv4
I0524 02:03:37.002038 15289 net.cpp:411] pool4 -> pool4
I0524 02:03:37.002105 15289 net.cpp:150] Setting up pool4
I0524 02:03:37.002120 15289 net.cpp:157] Top shape: 70 36 3 42 (317520)
I0524 02:03:37.002130 15289 net.cpp:165] Memory required for data: 110261480
I0524 02:03:37.002140 15289 layer_factory.hpp:77] Creating layer ip1
I0524 02:03:37.002158 15289 net.cpp:106] Creating Layer ip1
I0524 02:03:37.002169 15289 net.cpp:454] ip1 <- pool4
I0524 02:03:37.002182 15289 net.cpp:411] ip1 -> ip1
I0524 02:03:37.017606 15289 net.cpp:150] Setting up ip1
I0524 02:03:37.017635 15289 net.cpp:157] Top shape: 70 196 (13720)
I0524 02:03:37.017652 15289 net.cpp:165] Memory required for data: 110316360
I0524 02:03:37.017678 15289 layer_factory.hpp:77] Creating layer relu5
I0524 02:03:37.017693 15289 net.cpp:106] Creating Layer relu5
I0524 02:03:37.017702 15289 net.cpp:454] relu5 <- ip1
I0524 02:03:37.017715 15289 net.cpp:397] relu5 -> ip1 (in-place)
I0524 02:03:37.018059 15289 net.cpp:150] Setting up relu5
I0524 02:03:37.018074 15289 net.cpp:157] Top shape: 70 196 (13720)
I0524 02:03:37.018084 15289 net.cpp:165] Memory required for data: 110371240
I0524 02:03:37.018095 15289 layer_factory.hpp:77] Creating layer drop1
I0524 02:03:37.018115 15289 net.cpp:106] Creating Layer drop1
I0524 02:03:37.018126 15289 net.cpp:454] drop1 <- ip1
I0524 02:03:37.018138 15289 net.cpp:397] drop1 -> ip1 (in-place)
I0524 02:03:37.018199 15289 net.cpp:150] Setting up drop1
I0524 02:03:37.018213 15289 net.cpp:157] Top shape: 70 196 (13720)
I0524 02:03:37.018224 15289 net.cpp:165] Memory required for data: 110426120
I0524 02:03:37.018234 15289 layer_factory.hpp:77] Creating layer ip2
I0524 02:03:37.018252 15289 net.cpp:106] Creating Layer ip2
I0524 02:03:37.018263 15289 net.cpp:454] ip2 <- ip1
I0524 02:03:37.018276 15289 net.cpp:411] ip2 -> ip2
I0524 02:03:37.018740 15289 net.cpp:150] Setting up ip2
I0524 02:03:37.018754 15289 net.cpp:157] Top shape: 70 98 (6860)
I0524 02:03:37.018764 15289 net.cpp:165] Memory required for data: 110453560
I0524 02:03:37.018779 15289 layer_factory.hpp:77] Creating layer relu6
I0524 02:03:37.018791 15289 net.cpp:106] Creating Layer relu6
I0524 02:03:37.018800 15289 net.cpp:454] relu6 <- ip2
I0524 02:03:37.018813 15289 net.cpp:397] relu6 -> ip2 (in-place)
I0524 02:03:37.019331 15289 net.cpp:150] Setting up relu6
I0524 02:03:37.019347 15289 net.cpp:157] Top shape: 70 98 (6860)
I0524 02:03:37.019358 15289 net.cpp:165] Memory required for data: 110481000
I0524 02:03:37.019368 15289 layer_factory.hpp:77] Creating layer drop2
I0524 02:03:37.019381 15289 net.cpp:106] Creating Layer drop2
I0524 02:03:37.019392 15289 net.cpp:454] drop2 <- ip2
I0524 02:03:37.019404 15289 net.cpp:397] drop2 -> ip2 (in-place)
I0524 02:03:37.019448 15289 net.cpp:150] Setting up drop2
I0524 02:03:37.019460 15289 net.cpp:157] Top shape: 70 98 (6860)
I0524 02:03:37.019471 15289 net.cpp:165] Memory required for data: 110508440
I0524 02:03:37.019481 15289 layer_factory.hpp:77] Creating layer ip3
I0524 02:03:37.019495 15289 net.cpp:106] Creating Layer ip3
I0524 02:03:37.019505 15289 net.cpp:454] ip3 <- ip2
I0524 02:03:37.019517 15289 net.cpp:411] ip3 -> ip3
I0524 02:03:37.019729 15289 net.cpp:150] Setting up ip3
I0524 02:03:37.019742 15289 net.cpp:157] Top shape: 70 11 (770)
I0524 02:03:37.019752 15289 net.cpp:165] Memory required for data: 110511520
I0524 02:03:37.019767 15289 layer_factory.hpp:77] Creating layer drop3
I0524 02:03:37.019779 15289 net.cpp:106] Creating Layer drop3
I0524 02:03:37.019789 15289 net.cpp:454] drop3 <- ip3
I0524 02:03:37.019801 15289 net.cpp:397] drop3 -> ip3 (in-place)
I0524 02:03:37.019841 15289 net.cpp:150] Setting up drop3
I0524 02:03:37.019855 15289 net.cpp:157] Top shape: 70 11 (770)
I0524 02:03:37.019865 15289 net.cpp:165] Memory required for data: 110514600
I0524 02:03:37.019875 15289 layer_factory.hpp:77] Creating layer loss
I0524 02:03:37.019894 15289 net.cpp:106] Creating Layer loss
I0524 02:03:37.019904 15289 net.cpp:454] loss <- ip3
I0524 02:03:37.019915 15289 net.cpp:454] loss <- label
I0524 02:03:37.019928 15289 net.cpp:411] loss -> loss
I0524 02:03:37.019945 15289 layer_factory.hpp:77] Creating layer loss
…
I0524 02:03:37.022559 15289 solver.cpp:181] Creating test net (#0) specified by net file: /lustre/atlas/proj-shared/hep105/caffe_titan/caffe_workflow/logs_bslr/bs_70_lr_0.0030_2016-05-20T15.49.14.533565.prototxt
I0524 02:03:37.022630 15289 net.cpp:322] The NetState phase (1) differed from the phase (0) specified by a rule in layer data_hdf5
I0524 02:03:37.022986 15289 net.cpp:49] Initializing net from parameters: 
name: "caffe_test_127x50_x_unshifted"
state {
  phase: TEST
}
layer {
  name: "data_hdf5"
  type: "HDF5Data"
  top: "data"
  top: "label"
  include {
    phase: TEST
  }
  hdf5_data_param {
    source: "/lustre/atlas/proj-shared/hep105/caffe_titan/minosmatch_nukecczdefs_127x50_x_unshifted_me1Bmc.testlist"
    batch_size: 70
  }
}
layer {
  name: "conv1"
  type: "Convolution"
  bottom: "data"
  top: "conv1"
  convolution_param {
    num_output: 12
    pad: 0
    stride: 1
    weight_filler {
      type: "xavier"
    }
    bias_filler {
      type: "constant"
    }
    kernel_h: 8
    kernel_w: 3
  }
}
layer {
  name: "relu1"
  type: "ReLU"
  bottom: "conv1"
  top: "conv1"
}
layer {
  name: "pool1"
  type: "Pooling"
  bottom: "conv1"
  top: "pool1"
  pooling_param {
    pool: MAX
    kernel_h: 2
    kernel_w: 1
    stride_h: 2
    stride_w: 1
  }
}
layer {
  name: "conv2"
  type: "Convolution"
  bottom: "pool1"
  top: "conv2"
  convolution_param {
    num_output: 20
    pad: 0
    stride: 1
    weight_filler {
      type: "xavier"
    }
    bias_filler {
      type: "constant"
    }
    kernel_h: 7
    kernel_w: 3
  }
}
layer {
  name: "relu2"
  type: "ReLU"
  bottom: "conv2"
  top: "conv2"
}
layer {
  name: "pool2"
  type: "Pooling"
  bottom: "conv2"
  top: "pool2"
  pooling_param {
    pool: MAX
    kernel_h: 2
    kernel_w: 1
    stride_h: 2
    stride_w: 1
  }
}
layer {
  name: "conv3"
  type: "Convolution"
  bottom: "pool2"
  top: "conv3"
  convolution_param {
    num_output: 28
    pad: 0
    stride: 1
    weight_filler {
      type: "xavier"
    }
    bias_filler {
      type: "constant"
    }
    kernel_h: 6
    kernel_w: 3
  }
}
layer {
  name: "relu3"
  type: "ReLU"
  bottom: "conv3"
  top: "conv3"
}
layer {
  name: "pool3"
  type: "Pooling"
  bottom: "conv3"
  top: "pool3"
  pooling_param {
    pool: MAX
    kernel_h: 2
    kernel_w: 1
    stride_h: 2
    stride_w: 1
  }
}
layer {
  name: "conv4"
  type: "Convolution"
  bottom: "pool3"
  top: "conv4"
  convolution_param {
    num_output: 36
    pad: 0
    stride: 1
    weight_filler {
      type: "xavier"
    }
    bias_filler {
      type: "constant"
    }
    kernel_h: 6
    kernel_w: 3
  }
}
layer {
  name: "relu4"
  type: "ReLU"
  bottom: "conv4"
  top: "conv4"
}
layer {
  name: "pool4"
  type: "Pooling"
  bottom: "conv4"
  top: "pool4"
  pooling_param {
    pool: MAX
    kernel_h: 2
    kernel_w: 1
    stride_h: 2
    stride_w: 1
  }
}
layer {
  name: "ip1"
  type: "InnerProduct"
  bottom: "pool4"
  top: "ip1"
  inner_product_param {
    num_output: 196
    weight_filler {
      type: "xavier"
    }
    bias_filler {
      type: "constant"
    }
  }
}
layer {
  name: "relu5"
  type: "ReLU"
  bottom: "ip1"
  top: "ip1"
}
layer {
  name: "drop1"
  type: "Dropout"
  bottom: "ip1"
  top: "ip1"
  dropout_param {
    dropout_ratio: 0.5
  }
}
layer {
  name: "ip2"
  type: "InnerProduct"
  bottom: "ip1"
  top: "ip2"
  inner_product_param {
    num_output: 98
    weight_filler {
      type: "xavier"
    }
    bias_filler {
      type: "constant"
    }
  }
}
layer {
  name: "relu6"
  type: "ReLU"
  bottom: "ip2"
  top: "ip2"
}
layer {
  name: "drop2"
  type: "Dropout"
  bottom: "ip2"
  top: "ip2"
  dropout_param {
    dropout_ratio: 0.5
  }
}
layer {
  name: "ip3"
  type: "InnerProduct"
  bottom: "ip2"
  top: "ip3"
  inner_product_param {
    num_output: 11
    weight_filler {
      type: "xavier"
    }
    bias_filler {
      type: "constant"
    }
  }
}
layer {
  name: "drop3"
  type: "Dropout"
  bottom: "ip3"
  top: "ip3"
  dropout_param {
    dropout_ratio: 0.5
  }
}
layer {
  name: "accuracy"
  type: "Accuracy"
  bottom: "ip3"
  bottom: "label"
  top: "accuracy"
  include {
    phase: TEST
  }
}
layer {
  name: "loss"
  type: "SoftmaxWithLoss"
  bottom: "ip3"
  bottom: "label"
  top: "loss"
}
I0524 02:03:37.023175 15289 layer_factory.hpp:77] Creating layer data_hdf5
I0524 02:03:37.023190 15289 net.cpp:106] Creating Layer data_hdf5
I0524 02:03:37.023202 15289 net.cpp:411] data_hdf5 -> data
I0524 02:03:37.023218 15289 net.cpp:411] data_hdf5 -> label
I0524 02:03:37.023234 15289 hdf5_data_layer.cpp:79] Loading list of HDF5 filenames from: /lustre/atlas/proj-shared/hep105/caffe_titan/minosmatch_nukecczdefs_127x50_x_unshifted_me1Bmc.testlist
I0524 02:03:37.024518 15289 hdf5_data_layer.cpp:93] Number of HDF5 files: 3
I0524 02:03:58.447809 15289 net.cpp:150] Setting up data_hdf5
I0524 02:03:58.447974 15289 net.cpp:157] Top shape: 70 1 127 50 (444500)
I0524 02:03:58.447989 15289 net.cpp:157] Top shape: 70 (70)
I0524 02:03:58.448001 15289 net.cpp:165] Memory required for data: 1778280
I0524 02:03:58.448014 15289 layer_factory.hpp:77] Creating layer label_data_hdf5_1_split
I0524 02:03:58.448043 15289 net.cpp:106] Creating Layer label_data_hdf5_1_split
I0524 02:03:58.448055 15289 net.cpp:454] label_data_hdf5_1_split <- label
I0524 02:03:58.448070 15289 net.cpp:411] label_data_hdf5_1_split -> label_data_hdf5_1_split_0
I0524 02:03:58.448091 15289 net.cpp:411] label_data_hdf5_1_split -> label_data_hdf5_1_split_1
I0524 02:03:58.448163 15289 net.cpp:150] Setting up label_data_hdf5_1_split
I0524 02:03:58.448178 15289 net.cpp:157] Top shape: 70 (70)
I0524 02:03:58.448189 15289 net.cpp:157] Top shape: 70 (70)
I0524 02:03:58.448199 15289 net.cpp:165] Memory required for data: 1778840
I0524 02:03:58.448209 15289 layer_factory.hpp:77] Creating layer conv1
I0524 02:03:58.448231 15289 net.cpp:106] Creating Layer conv1
I0524 02:03:58.448241 15289 net.cpp:454] conv1 <- data
I0524 02:03:58.448253 15289 net.cpp:411] conv1 -> conv1
I0524 02:03:58.450186 15289 net.cpp:150] Setting up conv1
I0524 02:03:58.450212 15289 net.cpp:157] Top shape: 70 12 120 48 (4838400)
I0524 02:03:58.450223 15289 net.cpp:165] Memory required for data: 21132440
I0524 02:03:58.450243 15289 layer_factory.hpp:77] Creating layer relu1
I0524 02:03:58.450259 15289 net.cpp:106] Creating Layer relu1
I0524 02:03:58.450269 15289 net.cpp:454] relu1 <- conv1
I0524 02:03:58.450281 15289 net.cpp:397] relu1 -> conv1 (in-place)
I0524 02:03:58.450776 15289 net.cpp:150] Setting up relu1
I0524 02:03:58.450793 15289 net.cpp:157] Top shape: 70 12 120 48 (4838400)
I0524 02:03:58.450803 15289 net.cpp:165] Memory required for data: 40486040
I0524 02:03:58.450812 15289 layer_factory.hpp:77] Creating layer pool1
I0524 02:03:58.450829 15289 net.cpp:106] Creating Layer pool1
I0524 02:03:58.450839 15289 net.cpp:454] pool1 <- conv1
I0524 02:03:58.450853 15289 net.cpp:411] pool1 -> pool1
I0524 02:03:58.450929 15289 net.cpp:150] Setting up pool1
I0524 02:03:58.450942 15289 net.cpp:157] Top shape: 70 12 60 48 (2419200)
I0524 02:03:58.450953 15289 net.cpp:165] Memory required for data: 50162840
I0524 02:03:58.450960 15289 layer_factory.hpp:77] Creating layer conv2
I0524 02:03:58.450978 15289 net.cpp:106] Creating Layer conv2
I0524 02:03:58.450989 15289 net.cpp:454] conv2 <- pool1
I0524 02:03:58.451004 15289 net.cpp:411] conv2 -> conv2
I0524 02:03:58.452919 15289 net.cpp:150] Setting up conv2
I0524 02:03:58.452940 15289 net.cpp:157] Top shape: 70 20 54 46 (3477600)
I0524 02:03:58.452953 15289 net.cpp:165] Memory required for data: 64073240
I0524 02:03:58.452971 15289 layer_factory.hpp:77] Creating layer relu2
I0524 02:03:58.452985 15289 net.cpp:106] Creating Layer relu2
I0524 02:03:58.452994 15289 net.cpp:454] relu2 <- conv2
I0524 02:03:58.453007 15289 net.cpp:397] relu2 -> conv2 (in-place)
I0524 02:03:58.453338 15289 net.cpp:150] Setting up relu2
I0524 02:03:58.453352 15289 net.cpp:157] Top shape: 70 20 54 46 (3477600)
I0524 02:03:58.453362 15289 net.cpp:165] Memory required for data: 77983640
I0524 02:03:58.453372 15289 layer_factory.hpp:77] Creating layer pool2
I0524 02:03:58.453387 15289 net.cpp:106] Creating Layer pool2
I0524 02:03:58.453397 15289 net.cpp:454] pool2 <- conv2
I0524 02:03:58.453408 15289 net.cpp:411] pool2 -> pool2
I0524 02:03:58.453481 15289 net.cpp:150] Setting up pool2
I0524 02:03:58.453495 15289 net.cpp:157] Top shape: 70 20 27 46 (1738800)
I0524 02:03:58.453505 15289 net.cpp:165] Memory required for data: 84938840
I0524 02:03:58.453513 15289 layer_factory.hpp:77] Creating layer conv3
I0524 02:03:58.453533 15289 net.cpp:106] Creating Layer conv3
I0524 02:03:58.453544 15289 net.cpp:454] conv3 <- pool2
I0524 02:03:58.453558 15289 net.cpp:411] conv3 -> conv3
I0524 02:03:58.455538 15289 net.cpp:150] Setting up conv3
I0524 02:03:58.455562 15289 net.cpp:157] Top shape: 70 28 22 44 (1897280)
I0524 02:03:58.455574 15289 net.cpp:165] Memory required for data: 92527960
I0524 02:03:58.455605 15289 layer_factory.hpp:77] Creating layer relu3
I0524 02:03:58.455620 15289 net.cpp:106] Creating Layer relu3
I0524 02:03:58.455631 15289 net.cpp:454] relu3 <- conv3
I0524 02:03:58.455643 15289 net.cpp:397] relu3 -> conv3 (in-place)
I0524 02:03:58.456115 15289 net.cpp:150] Setting up relu3
I0524 02:03:58.456130 15289 net.cpp:157] Top shape: 70 28 22 44 (1897280)
I0524 02:03:58.456140 15289 net.cpp:165] Memory required for data: 100117080
I0524 02:03:58.456151 15289 layer_factory.hpp:77] Creating layer pool3
I0524 02:03:58.456164 15289 net.cpp:106] Creating Layer pool3
I0524 02:03:58.456174 15289 net.cpp:454] pool3 <- conv3
I0524 02:03:58.456187 15289 net.cpp:411] pool3 -> pool3
I0524 02:03:58.456259 15289 net.cpp:150] Setting up pool3
I0524 02:03:58.456272 15289 net.cpp:157] Top shape: 70 28 11 44 (948640)
I0524 02:03:58.456281 15289 net.cpp:165] Memory required for data: 103911640
I0524 02:03:58.456291 15289 layer_factory.hpp:77] Creating layer conv4
I0524 02:03:58.456306 15289 net.cpp:106] Creating Layer conv4
I0524 02:03:58.456317 15289 net.cpp:454] conv4 <- pool3
I0524 02:03:58.456331 15289 net.cpp:411] conv4 -> conv4
I0524 02:03:58.458397 15289 net.cpp:150] Setting up conv4
I0524 02:03:58.458418 15289 net.cpp:157] Top shape: 70 36 6 42 (635040)
I0524 02:03:58.458428 15289 net.cpp:165] Memory required for data: 106451800
I0524 02:03:58.458443 15289 layer_factory.hpp:77] Creating layer relu4
I0524 02:03:58.458457 15289 net.cpp:106] Creating Layer relu4
I0524 02:03:58.458467 15289 net.cpp:454] relu4 <- conv4
I0524 02:03:58.458480 15289 net.cpp:397] relu4 -> conv4 (in-place)
I0524 02:03:58.458952 15289 net.cpp:150] Setting up relu4
I0524 02:03:58.458968 15289 net.cpp:157] Top shape: 70 36 6 42 (635040)
I0524 02:03:58.458978 15289 net.cpp:165] Memory required for data: 108991960
I0524 02:03:58.458988 15289 layer_factory.hpp:77] Creating layer pool4
I0524 02:03:58.459002 15289 net.cpp:106] Creating Layer pool4
I0524 02:03:58.459012 15289 net.cpp:454] pool4 <- conv4
I0524 02:03:58.459024 15289 net.cpp:411] pool4 -> pool4
I0524 02:03:58.459095 15289 net.cpp:150] Setting up pool4
I0524 02:03:58.459110 15289 net.cpp:157] Top shape: 70 36 3 42 (317520)
I0524 02:03:58.459118 15289 net.cpp:165] Memory required for data: 110262040
I0524 02:03:58.459128 15289 layer_factory.hpp:77] Creating layer ip1
I0524 02:03:58.459141 15289 net.cpp:106] Creating Layer ip1
I0524 02:03:58.459152 15289 net.cpp:454] ip1 <- pool4
I0524 02:03:58.459166 15289 net.cpp:411] ip1 -> ip1
I0524 02:03:58.474668 15289 net.cpp:150] Setting up ip1
I0524 02:03:58.474696 15289 net.cpp:157] Top shape: 70 196 (13720)
I0524 02:03:58.474709 15289 net.cpp:165] Memory required for data: 110316920
I0524 02:03:58.474735 15289 layer_factory.hpp:77] Creating layer relu5
I0524 02:03:58.474750 15289 net.cpp:106] Creating Layer relu5
I0524 02:03:58.474761 15289 net.cpp:454] relu5 <- ip1
I0524 02:03:58.474776 15289 net.cpp:397] relu5 -> ip1 (in-place)
I0524 02:03:58.475122 15289 net.cpp:150] Setting up relu5
I0524 02:03:58.475136 15289 net.cpp:157] Top shape: 70 196 (13720)
I0524 02:03:58.475147 15289 net.cpp:165] Memory required for data: 110371800
I0524 02:03:58.475157 15289 layer_factory.hpp:77] Creating layer drop1
I0524 02:03:58.475177 15289 net.cpp:106] Creating Layer drop1
I0524 02:03:58.475186 15289 net.cpp:454] drop1 <- ip1
I0524 02:03:58.475199 15289 net.cpp:397] drop1 -> ip1 (in-place)
I0524 02:03:58.475246 15289 net.cpp:150] Setting up drop1
I0524 02:03:58.475260 15289 net.cpp:157] Top shape: 70 196 (13720)
I0524 02:03:58.475270 15289 net.cpp:165] Memory required for data: 110426680
I0524 02:03:58.475278 15289 layer_factory.hpp:77] Creating layer ip2
I0524 02:03:58.475293 15289 net.cpp:106] Creating Layer ip2
I0524 02:03:58.475303 15289 net.cpp:454] ip2 <- ip1
I0524 02:03:58.475317 15289 net.cpp:411] ip2 -> ip2
I0524 02:03:58.475795 15289 net.cpp:150] Setting up ip2
I0524 02:03:58.475808 15289 net.cpp:157] Top shape: 70 98 (6860)
I0524 02:03:58.475818 15289 net.cpp:165] Memory required for data: 110454120
I0524 02:03:58.475833 15289 layer_factory.hpp:77] Creating layer relu6
I0524 02:03:58.475859 15289 net.cpp:106] Creating Layer relu6
I0524 02:03:58.475869 15289 net.cpp:454] relu6 <- ip2
I0524 02:03:58.475881 15289 net.cpp:397] relu6 -> ip2 (in-place)
I0524 02:03:58.476414 15289 net.cpp:150] Setting up relu6
I0524 02:03:58.476430 15289 net.cpp:157] Top shape: 70 98 (6860)
I0524 02:03:58.476441 15289 net.cpp:165] Memory required for data: 110481560
I0524 02:03:58.476451 15289 layer_factory.hpp:77] Creating layer drop2
I0524 02:03:58.476464 15289 net.cpp:106] Creating Layer drop2
I0524 02:03:58.476475 15289 net.cpp:454] drop2 <- ip2
I0524 02:03:58.476487 15289 net.cpp:397] drop2 -> ip2 (in-place)
I0524 02:03:58.476533 15289 net.cpp:150] Setting up drop2
I0524 02:03:58.476546 15289 net.cpp:157] Top shape: 70 98 (6860)
I0524 02:03:58.476555 15289 net.cpp:165] Memory required for data: 110509000
I0524 02:03:58.476565 15289 layer_factory.hpp:77] Creating layer ip3
I0524 02:03:58.476580 15289 net.cpp:106] Creating Layer ip3
I0524 02:03:58.476589 15289 net.cpp:454] ip3 <- ip2
I0524 02:03:58.476603 15289 net.cpp:411] ip3 -> ip3
I0524 02:03:58.476826 15289 net.cpp:150] Setting up ip3
I0524 02:03:58.476840 15289 net.cpp:157] Top shape: 70 11 (770)
I0524 02:03:58.476850 15289 net.cpp:165] Memory required for data: 110512080
I0524 02:03:58.476873 15289 layer_factory.hpp:77] Creating layer drop3
I0524 02:03:58.476886 15289 net.cpp:106] Creating Layer drop3
I0524 02:03:58.476897 15289 net.cpp:454] drop3 <- ip3
I0524 02:03:58.476909 15289 net.cpp:397] drop3 -> ip3 (in-place)
I0524 02:03:58.476953 15289 net.cpp:150] Setting up drop3
I0524 02:03:58.476965 15289 net.cpp:157] Top shape: 70 11 (770)
I0524 02:03:58.476975 15289 net.cpp:165] Memory required for data: 110515160
I0524 02:03:58.476984 15289 layer_factory.hpp:77] Creating layer ip3_drop3_0_split
I0524 02:03:58.476997 15289 net.cpp:106] Creating Layer ip3_drop3_0_split
I0524 02:03:58.477007 15289 net.cpp:454] ip3_drop3_0_split <- ip3
I0524 02:03:58.477020 15289 net.cpp:411] ip3_drop3_0_split -> ip3_drop3_0_split_0
I0524 02:03:58.477035 15289 net.cpp:411] ip3_drop3_0_split -> ip3_drop3_0_split_1
I0524 02:03:58.477108 15289 net.cpp:150] Setting up ip3_drop3_0_split
I0524 02:03:58.477121 15289 net.cpp:157] Top shape: 70 11 (770)
I0524 02:03:58.477134 15289 net.cpp:157] Top shape: 70 11 (770)
I0524 02:03:58.477144 15289 net.cpp:165] Memory required for data: 110521320
I0524 02:03:58.477154 15289 layer_factory.hpp:77] Creating layer accuracy
I0524 02:03:58.477177 15289 net.cpp:106] Creating Layer accuracy
I0524 02:03:58.477187 15289 net.cpp:454] accuracy <- ip3_drop3_0_split_0
I0524 02:03:58.477198 15289 net.cpp:454] accuracy <- label_data_hdf5_1_split_0
I0524 02:03:58.477212 15289 net.cpp:411] accuracy -> accuracy
…
