…
I0524 04:25:16.607446 19864 net.cpp:322] The NetState phase (0) differed from the phase (1) specified by a rule in layer data_hdf5
I0524 04:25:16.607506 19864 net.cpp:322] The NetState phase (0) differed from the phase (1) specified by a rule in layer accuracy
I0524 04:25:16.607867 19864 net.cpp:49] Initializing net from parameters: 
name: "caffe_test_127x50_x_unshifted"
state {
  phase: TRAIN
}
layer {
  name: "data_hdf5"
  type: "HDF5Data"
  top: "data"
  top: "label"
  include {
    phase: TRAIN
  }
  hdf5_data_param {
    source: "/lustre/atlas/proj-shared/hep105/caffe_titan/minosmatch_nukecczdefs_127x50_x_unshifted_me1Bmc.trainlist"
    batch_size: 70
  }
}
layer {
  name: "conv1"
  type: "Convolution"
  bottom: "data"
  top: "conv1"
  convolution_param {
    num_output: 12
    pad: 0
    stride: 1
    weight_filler {
      type: "xavier"
    }
    bias_filler {
      type: "constant"
    }
    kernel_h: 8
    kernel_w: 3
  }
}
layer {
  name: "relu1"
  type: "ReLU"
  bottom: "conv1"
  top: "conv1"
}
layer {
  name: "pool1"
  type: "Pooling"
  bottom: "conv1"
  top: "pool1"
  pooling_param {
    pool: MAX
    kernel_h: 2
    kernel_w: 1
    stride_h: 2
    stride_w: 1
  }
}
layer {
  name: "conv2"
  type: "Convolution"
  bottom: "pool1"
  top: "conv2"
  convolution_param {
    num_output: 20
    pad: 0
    stride: 1
    weight_filler {
      type: "xavier"
    }
    bias_filler {
      type: "constant"
    }
    kernel_h: 7
    kernel_w: 3
  }
}
layer {
  name: "relu2"
  type: "ReLU"
  bottom: "conv2"
  top: "conv2"
}
layer {
  name: "pool2"
  type: "Pooling"
  bottom: "conv2"
  top: "pool2"
  pooling_param {
    pool: MAX
    kernel_h: 2
    kernel_w: 1
    stride_h: 2
    stride_w: 1
  }
}
layer {
  name: "conv3"
  type: "Convolution"
  bottom: "pool2"
  top: "conv3"
  convolution_param {
    num_output: 28
    pad: 0
    stride: 1
    weight_filler {
      type: "xavier"
    }
    bias_filler {
      type: "constant"
    }
    kernel_h: 6
    kernel_w: 3
  }
}
layer {
  name: "relu3"
  type: "ReLU"
  bottom: "conv3"
  top: "conv3"
}
layer {
  name: "pool3"
  type: "Pooling"
  bottom: "conv3"
  top: "pool3"
  pooling_param {
    pool: MAX
    kernel_h: 2
    kernel_w: 1
    stride_h: 2
    stride_w: 1
  }
}
layer {
  name: "conv4"
  type: "Convolution"
  bottom: "pool3"
  top: "conv4"
  convolution_param {
    num_output: 36
    pad: 0
    stride: 1
    weight_filler {
      type: "xavier"
    }
    bias_filler {
      type: "constant"
    }
    kernel_h: 6
    kernel_w: 3
  }
}
layer {
  name: "relu4"
  type: "ReLU"
  bottom: "conv4"
  top: "conv4"
}
layer {
  name: "pool4"
  type: "Pooling"
  bottom: "conv4"
  top: "pool4"
  pooling_param {
    pool: MAX
    kernel_h: 2
    kernel_w: 1
    stride_h: 2
    stride_w: 1
  }
}
layer {
  name: "ip1"
  type: "InnerProduct"
  bottom: "pool4"
  top: "ip1"
  inner_product_param {
    num_output: 196
    weight_filler {
      type: "xavier"
    }
    bias_filler {
      type: "constant"
    }
  }
}
layer {
  name: "relu5"
  type: "ReLU"
  bottom: "ip1"
  top: "ip1"
}
layer {
  name: "drop1"
  type: "Dropout"
  bottom: "ip1"
  top: "ip1"
  dropout_param {
    dropout_ratio: 0.5
  }
}
layer {
  name: "ip2"
  type: "InnerProduct"
  bottom: "ip1"
  top: "ip2"
  inner_product_param {
    num_output: 98
    weight_filler {
      type: "xavier"
    }
    bias_filler {
      type: "constant"
    }
  }
}
layer {
  name: "relu6"
  type: "ReLU"
  bottom: "ip2"
  top: "ip2"
}
layer {
  name: "drop2"
  type: "Dropout"
  bottom: "ip2"
  top: "ip2"
  dropout_param {
    dropout_ratio: 0.5
  }
}
layer {
  name: "ip3"
  type: "InnerProduct"
  bottom: "ip2"
  top: "ip3"
  inner_product_param {
    num_output: 11
    weight_filler {
      type: "xavier"
    }
    bias_filler {
      type: "constant"
    }
  }
}
layer {
  name: "drop3"
  type: "Dropout"
  bottom: "ip3"
  top: "ip3"
  dropout_param {
    dropout_ratio: 0.5
  }
}
layer {
  name: "loss"
  type: "SoftmaxWithLoss"
  bottom: "ip3"
  bottom: "label"
  top: "loss"
}
I0524 04:25:16.608050 19864 layer_factory.hpp:77] Creating layer data_hdf5
I0524 04:25:16.608074 19864 net.cpp:106] Creating Layer data_hdf5
I0524 04:25:16.608089 19864 net.cpp:411] data_hdf5 -> data
I0524 04:25:16.608122 19864 net.cpp:411] data_hdf5 -> label
I0524 04:25:16.608155 19864 hdf5_data_layer.cpp:79] Loading list of HDF5 filenames from: /lustre/atlas/proj-shared/hep105/caffe_titan/minosmatch_nukecczdefs_127x50_x_unshifted_me1Bmc.trainlist
I0524 04:25:16.609694 19864 hdf5_data_layer.cpp:93] Number of HDF5 files: 15
I0524 04:25:16.611995 19864 hdf5.cpp:32] Datatype class: H5T_FLOAT
I0524 04:25:38.178163 19864 hdf5.cpp:35] Datatype class: H5T_INTEGER
I0524 04:25:38.183305 19864 net.cpp:150] Setting up data_hdf5
I0524 04:25:38.183346 19864 net.cpp:157] Top shape: 70 1 127 50 (444500)
I0524 04:25:38.183360 19864 net.cpp:157] Top shape: 70 (70)
I0524 04:25:38.183372 19864 net.cpp:165] Memory required for data: 1778280
I0524 04:25:38.183387 19864 layer_factory.hpp:77] Creating layer conv1
I0524 04:25:38.183420 19864 net.cpp:106] Creating Layer conv1
I0524 04:25:38.183431 19864 net.cpp:454] conv1 <- data
I0524 04:25:38.183452 19864 net.cpp:411] conv1 -> conv1
I0524 04:25:38.548014 19864 net.cpp:150] Setting up conv1
I0524 04:25:38.548063 19864 net.cpp:157] Top shape: 70 12 120 48 (4838400)
I0524 04:25:38.548072 19864 net.cpp:165] Memory required for data: 21131880
I0524 04:25:38.548101 19864 layer_factory.hpp:77] Creating layer relu1
I0524 04:25:38.548122 19864 net.cpp:106] Creating Layer relu1
I0524 04:25:38.548133 19864 net.cpp:454] relu1 <- conv1
I0524 04:25:38.548147 19864 net.cpp:397] relu1 -> conv1 (in-place)
I0524 04:25:38.548668 19864 net.cpp:150] Setting up relu1
I0524 04:25:38.548686 19864 net.cpp:157] Top shape: 70 12 120 48 (4838400)
I0524 04:25:38.548696 19864 net.cpp:165] Memory required for data: 40485480
I0524 04:25:38.548707 19864 layer_factory.hpp:77] Creating layer pool1
I0524 04:25:38.548723 19864 net.cpp:106] Creating Layer pool1
I0524 04:25:38.548733 19864 net.cpp:454] pool1 <- conv1
I0524 04:25:38.548746 19864 net.cpp:411] pool1 -> pool1
I0524 04:25:38.548827 19864 net.cpp:150] Setting up pool1
I0524 04:25:38.548841 19864 net.cpp:157] Top shape: 70 12 60 48 (2419200)
I0524 04:25:38.548851 19864 net.cpp:165] Memory required for data: 50162280
I0524 04:25:38.548861 19864 layer_factory.hpp:77] Creating layer conv2
I0524 04:25:38.548882 19864 net.cpp:106] Creating Layer conv2
I0524 04:25:38.548892 19864 net.cpp:454] conv2 <- pool1
I0524 04:25:38.548905 19864 net.cpp:411] conv2 -> conv2
I0524 04:25:38.551612 19864 net.cpp:150] Setting up conv2
I0524 04:25:38.551656 19864 net.cpp:157] Top shape: 70 20 54 46 (3477600)
I0524 04:25:38.551666 19864 net.cpp:165] Memory required for data: 64072680
I0524 04:25:38.551687 19864 layer_factory.hpp:77] Creating layer relu2
I0524 04:25:38.551702 19864 net.cpp:106] Creating Layer relu2
I0524 04:25:38.551712 19864 net.cpp:454] relu2 <- conv2
I0524 04:25:38.551725 19864 net.cpp:397] relu2 -> conv2 (in-place)
I0524 04:25:38.552057 19864 net.cpp:150] Setting up relu2
I0524 04:25:38.552070 19864 net.cpp:157] Top shape: 70 20 54 46 (3477600)
I0524 04:25:38.552080 19864 net.cpp:165] Memory required for data: 77983080
I0524 04:25:38.552090 19864 layer_factory.hpp:77] Creating layer pool2
I0524 04:25:38.552103 19864 net.cpp:106] Creating Layer pool2
I0524 04:25:38.552112 19864 net.cpp:454] pool2 <- conv2
I0524 04:25:38.552125 19864 net.cpp:411] pool2 -> pool2
I0524 04:25:38.552206 19864 net.cpp:150] Setting up pool2
I0524 04:25:38.552219 19864 net.cpp:157] Top shape: 70 20 27 46 (1738800)
I0524 04:25:38.552228 19864 net.cpp:165] Memory required for data: 84938280
I0524 04:25:38.552238 19864 layer_factory.hpp:77] Creating layer conv3
I0524 04:25:38.552255 19864 net.cpp:106] Creating Layer conv3
I0524 04:25:38.552265 19864 net.cpp:454] conv3 <- pool2
I0524 04:25:38.552279 19864 net.cpp:411] conv3 -> conv3
I0524 04:25:38.554196 19864 net.cpp:150] Setting up conv3
I0524 04:25:38.554219 19864 net.cpp:157] Top shape: 70 28 22 44 (1897280)
I0524 04:25:38.554231 19864 net.cpp:165] Memory required for data: 92527400
I0524 04:25:38.554250 19864 layer_factory.hpp:77] Creating layer relu3
I0524 04:25:38.554265 19864 net.cpp:106] Creating Layer relu3
I0524 04:25:38.554275 19864 net.cpp:454] relu3 <- conv3
I0524 04:25:38.554288 19864 net.cpp:397] relu3 -> conv3 (in-place)
I0524 04:25:38.554757 19864 net.cpp:150] Setting up relu3
I0524 04:25:38.554774 19864 net.cpp:157] Top shape: 70 28 22 44 (1897280)
I0524 04:25:38.554785 19864 net.cpp:165] Memory required for data: 100116520
I0524 04:25:38.554795 19864 layer_factory.hpp:77] Creating layer pool3
I0524 04:25:38.554808 19864 net.cpp:106] Creating Layer pool3
I0524 04:25:38.554817 19864 net.cpp:454] pool3 <- conv3
I0524 04:25:38.554831 19864 net.cpp:411] pool3 -> pool3
I0524 04:25:38.554898 19864 net.cpp:150] Setting up pool3
I0524 04:25:38.554911 19864 net.cpp:157] Top shape: 70 28 11 44 (948640)
I0524 04:25:38.554921 19864 net.cpp:165] Memory required for data: 103911080
I0524 04:25:38.554931 19864 layer_factory.hpp:77] Creating layer conv4
I0524 04:25:38.554950 19864 net.cpp:106] Creating Layer conv4
I0524 04:25:38.554960 19864 net.cpp:454] conv4 <- pool3
I0524 04:25:38.554973 19864 net.cpp:411] conv4 -> conv4
I0524 04:25:38.557755 19864 net.cpp:150] Setting up conv4
I0524 04:25:38.557780 19864 net.cpp:157] Top shape: 70 36 6 42 (635040)
I0524 04:25:38.557790 19864 net.cpp:165] Memory required for data: 106451240
I0524 04:25:38.557804 19864 layer_factory.hpp:77] Creating layer relu4
I0524 04:25:38.557819 19864 net.cpp:106] Creating Layer relu4
I0524 04:25:38.557829 19864 net.cpp:454] relu4 <- conv4
I0524 04:25:38.557842 19864 net.cpp:397] relu4 -> conv4 (in-place)
I0524 04:25:38.558316 19864 net.cpp:150] Setting up relu4
I0524 04:25:38.558332 19864 net.cpp:157] Top shape: 70 36 6 42 (635040)
I0524 04:25:38.558343 19864 net.cpp:165] Memory required for data: 108991400
I0524 04:25:38.558353 19864 layer_factory.hpp:77] Creating layer pool4
I0524 04:25:38.558367 19864 net.cpp:106] Creating Layer pool4
I0524 04:25:38.558377 19864 net.cpp:454] pool4 <- conv4
I0524 04:25:38.558389 19864 net.cpp:411] pool4 -> pool4
I0524 04:25:38.558457 19864 net.cpp:150] Setting up pool4
I0524 04:25:38.558471 19864 net.cpp:157] Top shape: 70 36 3 42 (317520)
I0524 04:25:38.558481 19864 net.cpp:165] Memory required for data: 110261480
I0524 04:25:38.558491 19864 layer_factory.hpp:77] Creating layer ip1
I0524 04:25:38.558509 19864 net.cpp:106] Creating Layer ip1
I0524 04:25:38.558519 19864 net.cpp:454] ip1 <- pool4
I0524 04:25:38.558532 19864 net.cpp:411] ip1 -> ip1
I0524 04:25:38.573907 19864 net.cpp:150] Setting up ip1
I0524 04:25:38.573931 19864 net.cpp:157] Top shape: 70 196 (13720)
I0524 04:25:38.573943 19864 net.cpp:165] Memory required for data: 110316360
I0524 04:25:38.573966 19864 layer_factory.hpp:77] Creating layer relu5
I0524 04:25:38.573981 19864 net.cpp:106] Creating Layer relu5
I0524 04:25:38.573990 19864 net.cpp:454] relu5 <- ip1
I0524 04:25:38.574003 19864 net.cpp:397] relu5 -> ip1 (in-place)
I0524 04:25:38.574344 19864 net.cpp:150] Setting up relu5
I0524 04:25:38.574358 19864 net.cpp:157] Top shape: 70 196 (13720)
I0524 04:25:38.574369 19864 net.cpp:165] Memory required for data: 110371240
I0524 04:25:38.574379 19864 layer_factory.hpp:77] Creating layer drop1
I0524 04:25:38.574401 19864 net.cpp:106] Creating Layer drop1
I0524 04:25:38.574411 19864 net.cpp:454] drop1 <- ip1
I0524 04:25:38.574424 19864 net.cpp:397] drop1 -> ip1 (in-place)
I0524 04:25:38.574486 19864 net.cpp:150] Setting up drop1
I0524 04:25:38.574499 19864 net.cpp:157] Top shape: 70 196 (13720)
I0524 04:25:38.574509 19864 net.cpp:165] Memory required for data: 110426120
I0524 04:25:38.574519 19864 layer_factory.hpp:77] Creating layer ip2
I0524 04:25:38.574538 19864 net.cpp:106] Creating Layer ip2
I0524 04:25:38.574548 19864 net.cpp:454] ip2 <- ip1
I0524 04:25:38.574561 19864 net.cpp:411] ip2 -> ip2
I0524 04:25:38.575022 19864 net.cpp:150] Setting up ip2
I0524 04:25:38.575036 19864 net.cpp:157] Top shape: 70 98 (6860)
I0524 04:25:38.575045 19864 net.cpp:165] Memory required for data: 110453560
I0524 04:25:38.575060 19864 layer_factory.hpp:77] Creating layer relu6
I0524 04:25:38.575073 19864 net.cpp:106] Creating Layer relu6
I0524 04:25:38.575083 19864 net.cpp:454] relu6 <- ip2
I0524 04:25:38.575093 19864 net.cpp:397] relu6 -> ip2 (in-place)
I0524 04:25:38.575613 19864 net.cpp:150] Setting up relu6
I0524 04:25:38.575628 19864 net.cpp:157] Top shape: 70 98 (6860)
I0524 04:25:38.575639 19864 net.cpp:165] Memory required for data: 110481000
I0524 04:25:38.575656 19864 layer_factory.hpp:77] Creating layer drop2
I0524 04:25:38.575670 19864 net.cpp:106] Creating Layer drop2
I0524 04:25:38.575678 19864 net.cpp:454] drop2 <- ip2
I0524 04:25:38.575691 19864 net.cpp:397] drop2 -> ip2 (in-place)
I0524 04:25:38.575736 19864 net.cpp:150] Setting up drop2
I0524 04:25:38.575748 19864 net.cpp:157] Top shape: 70 98 (6860)
I0524 04:25:38.575758 19864 net.cpp:165] Memory required for data: 110508440
I0524 04:25:38.575768 19864 layer_factory.hpp:77] Creating layer ip3
I0524 04:25:38.575783 19864 net.cpp:106] Creating Layer ip3
I0524 04:25:38.575793 19864 net.cpp:454] ip3 <- ip2
I0524 04:25:38.575805 19864 net.cpp:411] ip3 -> ip3
I0524 04:25:38.576015 19864 net.cpp:150] Setting up ip3
I0524 04:25:38.576028 19864 net.cpp:157] Top shape: 70 11 (770)
I0524 04:25:38.576038 19864 net.cpp:165] Memory required for data: 110511520
I0524 04:25:38.576053 19864 layer_factory.hpp:77] Creating layer drop3
I0524 04:25:38.576066 19864 net.cpp:106] Creating Layer drop3
I0524 04:25:38.576076 19864 net.cpp:454] drop3 <- ip3
I0524 04:25:38.576087 19864 net.cpp:397] drop3 -> ip3 (in-place)
I0524 04:25:38.576128 19864 net.cpp:150] Setting up drop3
I0524 04:25:38.576140 19864 net.cpp:157] Top shape: 70 11 (770)
I0524 04:25:38.576150 19864 net.cpp:165] Memory required for data: 110514600
I0524 04:25:38.576160 19864 layer_factory.hpp:77] Creating layer loss
I0524 04:25:38.576180 19864 net.cpp:106] Creating Layer loss
I0524 04:25:38.576190 19864 net.cpp:454] loss <- ip3
I0524 04:25:38.576200 19864 net.cpp:454] loss <- label
I0524 04:25:38.576212 19864 net.cpp:411] loss -> loss
I0524 04:25:38.576231 19864 layer_factory.hpp:77] Creating layer loss
…
I0524 04:25:38.579000 19864 solver.cpp:181] Creating test net (#0) specified by net file: /lustre/atlas/proj-shared/hep105/caffe_titan/caffe_workflow/logs_bslr/bs_70_lr_0.0045_2016-05-20T15.49.15.660923.prototxt
I0524 04:25:38.579071 19864 net.cpp:322] The NetState phase (1) differed from the phase (0) specified by a rule in layer data_hdf5
I0524 04:25:38.579428 19864 net.cpp:49] Initializing net from parameters: 
name: "caffe_test_127x50_x_unshifted"
state {
  phase: TEST
}
layer {
  name: "data_hdf5"
  type: "HDF5Data"
  top: "data"
  top: "label"
  include {
    phase: TEST
  }
  hdf5_data_param {
    source: "/lustre/atlas/proj-shared/hep105/caffe_titan/minosmatch_nukecczdefs_127x50_x_unshifted_me1Bmc.testlist"
    batch_size: 70
  }
}
layer {
  name: "conv1"
  type: "Convolution"
  bottom: "data"
  top: "conv1"
  convolution_param {
    num_output: 12
    pad: 0
    stride: 1
    weight_filler {
      type: "xavier"
    }
    bias_filler {
      type: "constant"
    }
    kernel_h: 8
    kernel_w: 3
  }
}
layer {
  name: "relu1"
  type: "ReLU"
  bottom: "conv1"
  top: "conv1"
}
layer {
  name: "pool1"
  type: "Pooling"
  bottom: "conv1"
  top: "pool1"
  pooling_param {
    pool: MAX
    kernel_h: 2
    kernel_w: 1
    stride_h: 2
    stride_w: 1
  }
}
layer {
  name: "conv2"
  type: "Convolution"
  bottom: "pool1"
  top: "conv2"
  convolution_param {
    num_output: 20
    pad: 0
    stride: 1
    weight_filler {
      type: "xavier"
    }
    bias_filler {
      type: "constant"
    }
    kernel_h: 7
    kernel_w: 3
  }
}
layer {
  name: "relu2"
  type: "ReLU"
  bottom: "conv2"
  top: "conv2"
}
layer {
  name: "pool2"
  type: "Pooling"
  bottom: "conv2"
  top: "pool2"
  pooling_param {
    pool: MAX
    kernel_h: 2
    kernel_w: 1
    stride_h: 2
    stride_w: 1
  }
}
layer {
  name: "conv3"
  type: "Convolution"
  bottom: "pool2"
  top: "conv3"
  convolution_param {
    num_output: 28
    pad: 0
    stride: 1
    weight_filler {
      type: "xavier"
    }
    bias_filler {
      type: "constant"
    }
    kernel_h: 6
    kernel_w: 3
  }
}
layer {
  name: "relu3"
  type: "ReLU"
  bottom: "conv3"
  top: "conv3"
}
layer {
  name: "pool3"
  type: "Pooling"
  bottom: "conv3"
  top: "pool3"
  pooling_param {
    pool: MAX
    kernel_h: 2
    kernel_w: 1
    stride_h: 2
    stride_w: 1
  }
}
layer {
  name: "conv4"
  type: "Convolution"
  bottom: "pool3"
  top: "conv4"
  convolution_param {
    num_output: 36
    pad: 0
    stride: 1
    weight_filler {
      type: "xavier"
    }
    bias_filler {
      type: "constant"
    }
    kernel_h: 6
    kernel_w: 3
  }
}
layer {
  name: "relu4"
  type: "ReLU"
  bottom: "conv4"
  top: "conv4"
}
layer {
  name: "pool4"
  type: "Pooling"
  bottom: "conv4"
  top: "pool4"
  pooling_param {
    pool: MAX
    kernel_h: 2
    kernel_w: 1
    stride_h: 2
    stride_w: 1
  }
}
layer {
  name: "ip1"
  type: "InnerProduct"
  bottom: "pool4"
  top: "ip1"
  inner_product_param {
    num_output: 196
    weight_filler {
      type: "xavier"
    }
    bias_filler {
      type: "constant"
    }
  }
}
layer {
  name: "relu5"
  type: "ReLU"
  bottom: "ip1"
  top: "ip1"
}
layer {
  name: "drop1"
  type: "Dropout"
  bottom: "ip1"
  top: "ip1"
  dropout_param {
    dropout_ratio: 0.5
  }
}
layer {
  name: "ip2"
  type: "InnerProduct"
  bottom: "ip1"
  top: "ip2"
  inner_product_param {
    num_output: 98
    weight_filler {
      type: "xavier"
    }
    bias_filler {
      type: "constant"
    }
  }
}
layer {
  name: "relu6"
  type: "ReLU"
  bottom: "ip2"
  top: "ip2"
}
layer {
  name: "drop2"
  type: "Dropout"
  bottom: "ip2"
  top: "ip2"
  dropout_param {
    dropout_ratio: 0.5
  }
}
layer {
  name: "ip3"
  type: "InnerProduct"
  bottom: "ip2"
  top: "ip3"
  inner_product_param {
    num_output: 11
    weight_filler {
      type: "xavier"
    }
    bias_filler {
      type: "constant"
    }
  }
}
layer {
  name: "drop3"
  type: "Dropout"
  bottom: "ip3"
  top: "ip3"
  dropout_param {
    dropout_ratio: 0.5
  }
}
layer {
  name: "accuracy"
  type: "Accuracy"
  bottom: "ip3"
  bottom: "label"
  top: "accuracy"
  include {
    phase: TEST
  }
}
layer {
  name: "loss"
  type: "SoftmaxWithLoss"
  bottom: "ip3"
  bottom: "label"
  top: "loss"
}
I0524 04:25:38.579615 19864 layer_factory.hpp:77] Creating layer data_hdf5
I0524 04:25:38.579630 19864 net.cpp:106] Creating Layer data_hdf5
I0524 04:25:38.579648 19864 net.cpp:411] data_hdf5 -> data
I0524 04:25:38.579665 19864 net.cpp:411] data_hdf5 -> label
I0524 04:25:38.579681 19864 hdf5_data_layer.cpp:79] Loading list of HDF5 filenames from: /lustre/atlas/proj-shared/hep105/caffe_titan/minosmatch_nukecczdefs_127x50_x_unshifted_me1Bmc.testlist
I0524 04:25:38.581110 19864 hdf5_data_layer.cpp:93] Number of HDF5 files: 3
I0524 04:25:59.900697 19864 net.cpp:150] Setting up data_hdf5
I0524 04:25:59.900857 19864 net.cpp:157] Top shape: 70 1 127 50 (444500)
I0524 04:25:59.900871 19864 net.cpp:157] Top shape: 70 (70)
I0524 04:25:59.900883 19864 net.cpp:165] Memory required for data: 1778280
I0524 04:25:59.900897 19864 layer_factory.hpp:77] Creating layer label_data_hdf5_1_split
I0524 04:25:59.900925 19864 net.cpp:106] Creating Layer label_data_hdf5_1_split
I0524 04:25:59.900935 19864 net.cpp:454] label_data_hdf5_1_split <- label
I0524 04:25:59.900950 19864 net.cpp:411] label_data_hdf5_1_split -> label_data_hdf5_1_split_0
I0524 04:25:59.900972 19864 net.cpp:411] label_data_hdf5_1_split -> label_data_hdf5_1_split_1
I0524 04:25:59.901044 19864 net.cpp:150] Setting up label_data_hdf5_1_split
I0524 04:25:59.901058 19864 net.cpp:157] Top shape: 70 (70)
I0524 04:25:59.901070 19864 net.cpp:157] Top shape: 70 (70)
I0524 04:25:59.901079 19864 net.cpp:165] Memory required for data: 1778840
I0524 04:25:59.901089 19864 layer_factory.hpp:77] Creating layer conv1
I0524 04:25:59.901113 19864 net.cpp:106] Creating Layer conv1
I0524 04:25:59.901123 19864 net.cpp:454] conv1 <- data
I0524 04:25:59.901134 19864 net.cpp:411] conv1 -> conv1
I0524 04:25:59.903048 19864 net.cpp:150] Setting up conv1
I0524 04:25:59.903074 19864 net.cpp:157] Top shape: 70 12 120 48 (4838400)
I0524 04:25:59.903084 19864 net.cpp:165] Memory required for data: 21132440
I0524 04:25:59.903105 19864 layer_factory.hpp:77] Creating layer relu1
I0524 04:25:59.903120 19864 net.cpp:106] Creating Layer relu1
I0524 04:25:59.903131 19864 net.cpp:454] relu1 <- conv1
I0524 04:25:59.903143 19864 net.cpp:397] relu1 -> conv1 (in-place)
I0524 04:25:59.903648 19864 net.cpp:150] Setting up relu1
I0524 04:25:59.903664 19864 net.cpp:157] Top shape: 70 12 120 48 (4838400)
I0524 04:25:59.903676 19864 net.cpp:165] Memory required for data: 40486040
I0524 04:25:59.903686 19864 layer_factory.hpp:77] Creating layer pool1
I0524 04:25:59.903702 19864 net.cpp:106] Creating Layer pool1
I0524 04:25:59.903712 19864 net.cpp:454] pool1 <- conv1
I0524 04:25:59.903724 19864 net.cpp:411] pool1 -> pool1
I0524 04:25:59.903798 19864 net.cpp:150] Setting up pool1
I0524 04:25:59.903812 19864 net.cpp:157] Top shape: 70 12 60 48 (2419200)
I0524 04:25:59.903822 19864 net.cpp:165] Memory required for data: 50162840
I0524 04:25:59.903832 19864 layer_factory.hpp:77] Creating layer conv2
I0524 04:25:59.903851 19864 net.cpp:106] Creating Layer conv2
I0524 04:25:59.903861 19864 net.cpp:454] conv2 <- pool1
I0524 04:25:59.903877 19864 net.cpp:411] conv2 -> conv2
I0524 04:25:59.905789 19864 net.cpp:150] Setting up conv2
I0524 04:25:59.905807 19864 net.cpp:157] Top shape: 70 20 54 46 (3477600)
I0524 04:25:59.905818 19864 net.cpp:165] Memory required for data: 64073240
I0524 04:25:59.905835 19864 layer_factory.hpp:77] Creating layer relu2
I0524 04:25:59.905849 19864 net.cpp:106] Creating Layer relu2
I0524 04:25:59.905859 19864 net.cpp:454] relu2 <- conv2
I0524 04:25:59.905871 19864 net.cpp:397] relu2 -> conv2 (in-place)
I0524 04:25:59.906204 19864 net.cpp:150] Setting up relu2
I0524 04:25:59.906219 19864 net.cpp:157] Top shape: 70 20 54 46 (3477600)
I0524 04:25:59.906229 19864 net.cpp:165] Memory required for data: 77983640
I0524 04:25:59.906239 19864 layer_factory.hpp:77] Creating layer pool2
I0524 04:25:59.906251 19864 net.cpp:106] Creating Layer pool2
I0524 04:25:59.906261 19864 net.cpp:454] pool2 <- conv2
I0524 04:25:59.906273 19864 net.cpp:411] pool2 -> pool2
I0524 04:25:59.906347 19864 net.cpp:150] Setting up pool2
I0524 04:25:59.906359 19864 net.cpp:157] Top shape: 70 20 27 46 (1738800)
I0524 04:25:59.906368 19864 net.cpp:165] Memory required for data: 84938840
I0524 04:25:59.906380 19864 layer_factory.hpp:77] Creating layer conv3
I0524 04:25:59.906397 19864 net.cpp:106] Creating Layer conv3
I0524 04:25:59.906409 19864 net.cpp:454] conv3 <- pool2
I0524 04:25:59.906422 19864 net.cpp:411] conv3 -> conv3
I0524 04:25:59.908401 19864 net.cpp:150] Setting up conv3
I0524 04:25:59.908424 19864 net.cpp:157] Top shape: 70 28 22 44 (1897280)
I0524 04:25:59.908437 19864 net.cpp:165] Memory required for data: 92527960
I0524 04:25:59.908469 19864 layer_factory.hpp:77] Creating layer relu3
I0524 04:25:59.908483 19864 net.cpp:106] Creating Layer relu3
I0524 04:25:59.908493 19864 net.cpp:454] relu3 <- conv3
I0524 04:25:59.908506 19864 net.cpp:397] relu3 -> conv3 (in-place)
I0524 04:25:59.908973 19864 net.cpp:150] Setting up relu3
I0524 04:25:59.908989 19864 net.cpp:157] Top shape: 70 28 22 44 (1897280)
I0524 04:25:59.908999 19864 net.cpp:165] Memory required for data: 100117080
I0524 04:25:59.909009 19864 layer_factory.hpp:77] Creating layer pool3
I0524 04:25:59.909023 19864 net.cpp:106] Creating Layer pool3
I0524 04:25:59.909032 19864 net.cpp:454] pool3 <- conv3
I0524 04:25:59.909045 19864 net.cpp:411] pool3 -> pool3
I0524 04:25:59.909117 19864 net.cpp:150] Setting up pool3
I0524 04:25:59.909131 19864 net.cpp:157] Top shape: 70 28 11 44 (948640)
I0524 04:25:59.909139 19864 net.cpp:165] Memory required for data: 103911640
I0524 04:25:59.909153 19864 layer_factory.hpp:77] Creating layer conv4
I0524 04:25:59.909170 19864 net.cpp:106] Creating Layer conv4
I0524 04:25:59.909181 19864 net.cpp:454] conv4 <- pool3
I0524 04:25:59.909195 19864 net.cpp:411] conv4 -> conv4
I0524 04:25:59.911254 19864 net.cpp:150] Setting up conv4
I0524 04:25:59.911276 19864 net.cpp:157] Top shape: 70 36 6 42 (635040)
I0524 04:25:59.911289 19864 net.cpp:165] Memory required for data: 106451800
I0524 04:25:59.911304 19864 layer_factory.hpp:77] Creating layer relu4
I0524 04:25:59.911317 19864 net.cpp:106] Creating Layer relu4
I0524 04:25:59.911327 19864 net.cpp:454] relu4 <- conv4
I0524 04:25:59.911340 19864 net.cpp:397] relu4 -> conv4 (in-place)
I0524 04:25:59.911818 19864 net.cpp:150] Setting up relu4
I0524 04:25:59.911834 19864 net.cpp:157] Top shape: 70 36 6 42 (635040)
I0524 04:25:59.911844 19864 net.cpp:165] Memory required for data: 108991960
I0524 04:25:59.911854 19864 layer_factory.hpp:77] Creating layer pool4
I0524 04:25:59.911867 19864 net.cpp:106] Creating Layer pool4
I0524 04:25:59.911877 19864 net.cpp:454] pool4 <- conv4
I0524 04:25:59.911890 19864 net.cpp:411] pool4 -> pool4
I0524 04:25:59.911962 19864 net.cpp:150] Setting up pool4
I0524 04:25:59.911975 19864 net.cpp:157] Top shape: 70 36 3 42 (317520)
I0524 04:25:59.911985 19864 net.cpp:165] Memory required for data: 110262040
I0524 04:25:59.911993 19864 layer_factory.hpp:77] Creating layer ip1
I0524 04:25:59.912009 19864 net.cpp:106] Creating Layer ip1
I0524 04:25:59.912019 19864 net.cpp:454] ip1 <- pool4
I0524 04:25:59.912032 19864 net.cpp:411] ip1 -> ip1
I0524 04:25:59.927530 19864 net.cpp:150] Setting up ip1
I0524 04:25:59.927558 19864 net.cpp:157] Top shape: 70 196 (13720)
I0524 04:25:59.927574 19864 net.cpp:165] Memory required for data: 110316920
I0524 04:25:59.927597 19864 layer_factory.hpp:77] Creating layer relu5
I0524 04:25:59.927613 19864 net.cpp:106] Creating Layer relu5
I0524 04:25:59.927623 19864 net.cpp:454] relu5 <- ip1
I0524 04:25:59.927636 19864 net.cpp:397] relu5 -> ip1 (in-place)
I0524 04:25:59.927989 19864 net.cpp:150] Setting up relu5
I0524 04:25:59.928002 19864 net.cpp:157] Top shape: 70 196 (13720)
I0524 04:25:59.928012 19864 net.cpp:165] Memory required for data: 110371800
I0524 04:25:59.928022 19864 layer_factory.hpp:77] Creating layer drop1
I0524 04:25:59.928040 19864 net.cpp:106] Creating Layer drop1
I0524 04:25:59.928051 19864 net.cpp:454] drop1 <- ip1
I0524 04:25:59.928064 19864 net.cpp:397] drop1 -> ip1 (in-place)
I0524 04:25:59.928112 19864 net.cpp:150] Setting up drop1
I0524 04:25:59.928124 19864 net.cpp:157] Top shape: 70 196 (13720)
I0524 04:25:59.928134 19864 net.cpp:165] Memory required for data: 110426680
I0524 04:25:59.928144 19864 layer_factory.hpp:77] Creating layer ip2
I0524 04:25:59.928158 19864 net.cpp:106] Creating Layer ip2
I0524 04:25:59.928169 19864 net.cpp:454] ip2 <- ip1
I0524 04:25:59.928181 19864 net.cpp:411] ip2 -> ip2
I0524 04:25:59.928663 19864 net.cpp:150] Setting up ip2
I0524 04:25:59.928676 19864 net.cpp:157] Top shape: 70 98 (6860)
I0524 04:25:59.928685 19864 net.cpp:165] Memory required for data: 110454120
I0524 04:25:59.928701 19864 layer_factory.hpp:77] Creating layer relu6
I0524 04:25:59.928727 19864 net.cpp:106] Creating Layer relu6
I0524 04:25:59.928737 19864 net.cpp:454] relu6 <- ip2
I0524 04:25:59.928750 19864 net.cpp:397] relu6 -> ip2 (in-place)
I0524 04:25:59.929286 19864 net.cpp:150] Setting up relu6
I0524 04:25:59.929301 19864 net.cpp:157] Top shape: 70 98 (6860)
I0524 04:25:59.929311 19864 net.cpp:165] Memory required for data: 110481560
I0524 04:25:59.929322 19864 layer_factory.hpp:77] Creating layer drop2
I0524 04:25:59.929334 19864 net.cpp:106] Creating Layer drop2
I0524 04:25:59.929344 19864 net.cpp:454] drop2 <- ip2
I0524 04:25:59.929358 19864 net.cpp:397] drop2 -> ip2 (in-place)
I0524 04:25:59.929402 19864 net.cpp:150] Setting up drop2
I0524 04:25:59.929414 19864 net.cpp:157] Top shape: 70 98 (6860)
I0524 04:25:59.929425 19864 net.cpp:165] Memory required for data: 110509000
I0524 04:25:59.929435 19864 layer_factory.hpp:77] Creating layer ip3
I0524 04:25:59.929448 19864 net.cpp:106] Creating Layer ip3
I0524 04:25:59.929458 19864 net.cpp:454] ip3 <- ip2
I0524 04:25:59.929471 19864 net.cpp:411] ip3 -> ip3
I0524 04:25:59.929694 19864 net.cpp:150] Setting up ip3
I0524 04:25:59.929708 19864 net.cpp:157] Top shape: 70 11 (770)
I0524 04:25:59.929718 19864 net.cpp:165] Memory required for data: 110512080
I0524 04:25:59.929733 19864 layer_factory.hpp:77] Creating layer drop3
I0524 04:25:59.929745 19864 net.cpp:106] Creating Layer drop3
I0524 04:25:59.929755 19864 net.cpp:454] drop3 <- ip3
I0524 04:25:59.929767 19864 net.cpp:397] drop3 -> ip3 (in-place)
I0524 04:25:59.929810 19864 net.cpp:150] Setting up drop3
I0524 04:25:59.929822 19864 net.cpp:157] Top shape: 70 11 (770)
I0524 04:25:59.929831 19864 net.cpp:165] Memory required for data: 110515160
I0524 04:25:59.929841 19864 layer_factory.hpp:77] Creating layer ip3_drop3_0_split
I0524 04:25:59.929854 19864 net.cpp:106] Creating Layer ip3_drop3_0_split
I0524 04:25:59.929863 19864 net.cpp:454] ip3_drop3_0_split <- ip3
I0524 04:25:59.929877 19864 net.cpp:411] ip3_drop3_0_split -> ip3_drop3_0_split_0
I0524 04:25:59.929891 19864 net.cpp:411] ip3_drop3_0_split -> ip3_drop3_0_split_1
I0524 04:25:59.929965 19864 net.cpp:150] Setting up ip3_drop3_0_split
I0524 04:25:59.929978 19864 net.cpp:157] Top shape: 70 11 (770)
I0524 04:25:59.929991 19864 net.cpp:157] Top shape: 70 11 (770)
I0524 04:25:59.930001 19864 net.cpp:165] Memory required for data: 110521320
I0524 04:25:59.930011 19864 layer_factory.hpp:77] Creating layer accuracy
I0524 04:25:59.930032 19864 net.cpp:106] Creating Layer accuracy
I0524 04:25:59.930042 19864 net.cpp:454] accuracy <- ip3_drop3_0_split_0
I0524 04:25:59.930054 19864 net.cpp:454] accuracy <- label_data_hdf5_1_split_0
I0524 04:25:59.930068 19864 net.cpp:411] accuracy -> accuracy
…
