…
I0523 22:23:02.171347  3995 net.cpp:322] The NetState phase (0) differed from the phase (1) specified by a rule in layer data_hdf5
I0523 22:23:02.171406  3995 net.cpp:322] The NetState phase (0) differed from the phase (1) specified by a rule in layer accuracy
I0523 22:23:02.171757  3995 net.cpp:49] Initializing net from parameters: 
name: "caffe_test_127x50_x_unshifted"
state {
  phase: TRAIN
}
layer {
  name: "data_hdf5"
  type: "HDF5Data"
  top: "data"
  top: "label"
  include {
    phase: TRAIN
  }
  hdf5_data_param {
    source: "/lustre/atlas/proj-shared/hep105/caffe_titan/minosmatch_nukecczdefs_127x50_x_unshifted_me1Bmc.trainlist"
    batch_size: 70
  }
}
layer {
  name: "conv1"
  type: "Convolution"
  bottom: "data"
  top: "conv1"
  convolution_param {
    num_output: 12
    pad: 0
    stride: 1
    weight_filler {
      type: "xavier"
    }
    bias_filler {
      type: "constant"
    }
    kernel_h: 8
    kernel_w: 3
  }
}
layer {
  name: "relu1"
  type: "ReLU"
  bottom: "conv1"
  top: "conv1"
}
layer {
  name: "pool1"
  type: "Pooling"
  bottom: "conv1"
  top: "pool1"
  pooling_param {
    pool: MAX
    kernel_h: 2
    kernel_w: 1
    stride_h: 2
    stride_w: 1
  }
}
layer {
  name: "conv2"
  type: "Convolution"
  bottom: "pool1"
  top: "conv2"
  convolution_param {
    num_output: 20
    pad: 0
    stride: 1
    weight_filler {
      type: "xavier"
    }
    bias_filler {
      type: "constant"
    }
    kernel_h: 7
    kernel_w: 3
  }
}
layer {
  name: "relu2"
  type: "ReLU"
  bottom: "conv2"
  top: "conv2"
}
layer {
  name: "pool2"
  type: "Pooling"
  bottom: "conv2"
  top: "pool2"
  pooling_param {
    pool: MAX
    kernel_h: 2
    kernel_w: 1
    stride_h: 2
    stride_w: 1
  }
}
layer {
  name: "conv3"
  type: "Convolution"
  bottom: "pool2"
  top: "conv3"
  convolution_param {
    num_output: 28
    pad: 0
    stride: 1
    weight_filler {
      type: "xavier"
    }
    bias_filler {
      type: "constant"
    }
    kernel_h: 6
    kernel_w: 3
  }
}
layer {
  name: "relu3"
  type: "ReLU"
  bottom: "conv3"
  top: "conv3"
}
layer {
  name: "pool3"
  type: "Pooling"
  bottom: "conv3"
  top: "pool3"
  pooling_param {
    pool: MAX
    kernel_h: 2
    kernel_w: 1
    stride_h: 2
    stride_w: 1
  }
}
layer {
  name: "conv4"
  type: "Convolution"
  bottom: "pool3"
  top: "conv4"
  convolution_param {
    num_output: 36
    pad: 0
    stride: 1
    weight_filler {
      type: "xavier"
    }
    bias_filler {
      type: "constant"
    }
    kernel_h: 6
    kernel_w: 3
  }
}
layer {
  name: "relu4"
  type: "ReLU"
  bottom: "conv4"
  top: "conv4"
}
layer {
  name: "pool4"
  type: "Pooling"
  bottom: "conv4"
  top: "pool4"
  pooling_param {
    pool: MAX
    kernel_h: 2
    kernel_w: 1
    stride_h: 2
    stride_w: 1
  }
}
layer {
  name: "ip1"
  type: "InnerProduct"
  bottom: "pool4"
  top: "ip1"
  inner_product_param {
    num_output: 196
    weight_filler {
      type: "xavier"
    }
    bias_filler {
      type: "constant"
    }
  }
}
layer {
  name: "relu5"
  type: "ReLU"
  bottom: "ip1"
  top: "ip1"
}
layer {
  name: "drop1"
  type: "Dropout"
  bottom: "ip1"
  top: "ip1"
  dropout_param {
    dropout_ratio: 0.5
  }
}
layer {
  name: "ip2"
  type: "InnerProduct"
  bottom: "ip1"
  top: "ip2"
  inner_product_param {
    num_output: 98
    weight_filler {
      type: "xavier"
    }
    bias_filler {
      type: "constant"
    }
  }
}
layer {
  name: "relu6"
  type: "ReLU"
  bottom: "ip2"
  top: "ip2"
}
layer {
  name: "drop2"
  type: "Dropout"
  bottom: "ip2"
  top: "ip2"
  dropout_param {
    dropout_ratio: 0.5
  }
}
layer {
  name: "ip3"
  type: "InnerProduct"
  bottom: "ip2"
  top: "ip3"
  inner_product_param {
    num_output: 11
    weight_filler {
      type: "xavier"
    }
    bias_filler {
      type: "constant"
    }
  }
}
layer {
  name: "drop3"
  type: "Dropout"
  bottom: "ip3"
  top: "ip3"
  dropout_param {
    dropout_ratio: 0.5
  }
}
layer {
  name: "loss"
  type: "SoftmaxWithLoss"
  bottom: "ip3"
  bottom: "label"
  top: "loss"
}
I0523 22:23:02.171936  3995 layer_factory.hpp:77] Creating layer data_hdf5
I0523 22:23:02.171958  3995 net.cpp:106] Creating Layer data_hdf5
I0523 22:23:02.171973  3995 net.cpp:411] data_hdf5 -> data
I0523 22:23:02.172006  3995 net.cpp:411] data_hdf5 -> label
I0523 22:23:02.172039  3995 hdf5_data_layer.cpp:79] Loading list of HDF5 filenames from: /lustre/atlas/proj-shared/hep105/caffe_titan/minosmatch_nukecczdefs_127x50_x_unshifted_me1Bmc.trainlist
I0523 22:23:02.173311  3995 hdf5_data_layer.cpp:93] Number of HDF5 files: 15
I0523 22:23:02.175598  3995 hdf5.cpp:32] Datatype class: H5T_FLOAT
I0523 22:23:23.778501  3995 hdf5.cpp:35] Datatype class: H5T_INTEGER
I0523 22:23:23.783705  3995 net.cpp:150] Setting up data_hdf5
I0523 22:23:23.783746  3995 net.cpp:157] Top shape: 70 1 127 50 (444500)
I0523 22:23:23.783761  3995 net.cpp:157] Top shape: 70 (70)
I0523 22:23:23.783771  3995 net.cpp:165] Memory required for data: 1778280
I0523 22:23:23.783783  3995 layer_factory.hpp:77] Creating layer conv1
I0523 22:23:23.783818  3995 net.cpp:106] Creating Layer conv1
I0523 22:23:23.783829  3995 net.cpp:454] conv1 <- data
I0523 22:23:23.783854  3995 net.cpp:411] conv1 -> conv1
I0523 22:23:24.143921  3995 net.cpp:150] Setting up conv1
I0523 22:23:24.143970  3995 net.cpp:157] Top shape: 70 12 120 48 (4838400)
I0523 22:23:24.143980  3995 net.cpp:165] Memory required for data: 21131880
I0523 22:23:24.144011  3995 layer_factory.hpp:77] Creating layer relu1
I0523 22:23:24.144032  3995 net.cpp:106] Creating Layer relu1
I0523 22:23:24.144042  3995 net.cpp:454] relu1 <- conv1
I0523 22:23:24.144057  3995 net.cpp:397] relu1 -> conv1 (in-place)
I0523 22:23:24.144568  3995 net.cpp:150] Setting up relu1
I0523 22:23:24.144584  3995 net.cpp:157] Top shape: 70 12 120 48 (4838400)
I0523 22:23:24.144595  3995 net.cpp:165] Memory required for data: 40485480
I0523 22:23:24.144605  3995 layer_factory.hpp:77] Creating layer pool1
I0523 22:23:24.144623  3995 net.cpp:106] Creating Layer pool1
I0523 22:23:24.144634  3995 net.cpp:454] pool1 <- conv1
I0523 22:23:24.144646  3995 net.cpp:411] pool1 -> pool1
I0523 22:23:24.144726  3995 net.cpp:150] Setting up pool1
I0523 22:23:24.144740  3995 net.cpp:157] Top shape: 70 12 60 48 (2419200)
I0523 22:23:24.144750  3995 net.cpp:165] Memory required for data: 50162280
I0523 22:23:24.144758  3995 layer_factory.hpp:77] Creating layer conv2
I0523 22:23:24.144780  3995 net.cpp:106] Creating Layer conv2
I0523 22:23:24.144791  3995 net.cpp:454] conv2 <- pool1
I0523 22:23:24.144804  3995 net.cpp:411] conv2 -> conv2
I0523 22:23:24.147544  3995 net.cpp:150] Setting up conv2
I0523 22:23:24.147572  3995 net.cpp:157] Top shape: 70 20 54 46 (3477600)
I0523 22:23:24.147583  3995 net.cpp:165] Memory required for data: 64072680
I0523 22:23:24.147603  3995 layer_factory.hpp:77] Creating layer relu2
I0523 22:23:24.147619  3995 net.cpp:106] Creating Layer relu2
I0523 22:23:24.147629  3995 net.cpp:454] relu2 <- conv2
I0523 22:23:24.147641  3995 net.cpp:397] relu2 -> conv2 (in-place)
I0523 22:23:24.147971  3995 net.cpp:150] Setting up relu2
I0523 22:23:24.147985  3995 net.cpp:157] Top shape: 70 20 54 46 (3477600)
I0523 22:23:24.147995  3995 net.cpp:165] Memory required for data: 77983080
I0523 22:23:24.148005  3995 layer_factory.hpp:77] Creating layer pool2
I0523 22:23:24.148017  3995 net.cpp:106] Creating Layer pool2
I0523 22:23:24.148027  3995 net.cpp:454] pool2 <- conv2
I0523 22:23:24.148039  3995 net.cpp:411] pool2 -> pool2
I0523 22:23:24.148120  3995 net.cpp:150] Setting up pool2
I0523 22:23:24.148133  3995 net.cpp:157] Top shape: 70 20 27 46 (1738800)
I0523 22:23:24.148144  3995 net.cpp:165] Memory required for data: 84938280
I0523 22:23:24.148154  3995 layer_factory.hpp:77] Creating layer conv3
I0523 22:23:24.148169  3995 net.cpp:106] Creating Layer conv3
I0523 22:23:24.148180  3995 net.cpp:454] conv3 <- pool2
I0523 22:23:24.148193  3995 net.cpp:411] conv3 -> conv3
I0523 22:23:24.150130  3995 net.cpp:150] Setting up conv3
I0523 22:23:24.150153  3995 net.cpp:157] Top shape: 70 28 22 44 (1897280)
I0523 22:23:24.150166  3995 net.cpp:165] Memory required for data: 92527400
I0523 22:23:24.150184  3995 layer_factory.hpp:77] Creating layer relu3
I0523 22:23:24.150200  3995 net.cpp:106] Creating Layer relu3
I0523 22:23:24.150209  3995 net.cpp:454] relu3 <- conv3
I0523 22:23:24.150223  3995 net.cpp:397] relu3 -> conv3 (in-place)
I0523 22:23:24.150691  3995 net.cpp:150] Setting up relu3
I0523 22:23:24.150707  3995 net.cpp:157] Top shape: 70 28 22 44 (1897280)
I0523 22:23:24.150718  3995 net.cpp:165] Memory required for data: 100116520
I0523 22:23:24.150728  3995 layer_factory.hpp:77] Creating layer pool3
I0523 22:23:24.150741  3995 net.cpp:106] Creating Layer pool3
I0523 22:23:24.150751  3995 net.cpp:454] pool3 <- conv3
I0523 22:23:24.150763  3995 net.cpp:411] pool3 -> pool3
I0523 22:23:24.150830  3995 net.cpp:150] Setting up pool3
I0523 22:23:24.150843  3995 net.cpp:157] Top shape: 70 28 11 44 (948640)
I0523 22:23:24.150853  3995 net.cpp:165] Memory required for data: 103911080
I0523 22:23:24.150863  3995 layer_factory.hpp:77] Creating layer conv4
I0523 22:23:24.150879  3995 net.cpp:106] Creating Layer conv4
I0523 22:23:24.150890  3995 net.cpp:454] conv4 <- pool3
I0523 22:23:24.150904  3995 net.cpp:411] conv4 -> conv4
I0523 22:23:24.153705  3995 net.cpp:150] Setting up conv4
I0523 22:23:24.153733  3995 net.cpp:157] Top shape: 70 36 6 42 (635040)
I0523 22:23:24.153744  3995 net.cpp:165] Memory required for data: 106451240
I0523 22:23:24.153759  3995 layer_factory.hpp:77] Creating layer relu4
I0523 22:23:24.153774  3995 net.cpp:106] Creating Layer relu4
I0523 22:23:24.153784  3995 net.cpp:454] relu4 <- conv4
I0523 22:23:24.153797  3995 net.cpp:397] relu4 -> conv4 (in-place)
I0523 22:23:24.154279  3995 net.cpp:150] Setting up relu4
I0523 22:23:24.154296  3995 net.cpp:157] Top shape: 70 36 6 42 (635040)
I0523 22:23:24.154307  3995 net.cpp:165] Memory required for data: 108991400
I0523 22:23:24.154317  3995 layer_factory.hpp:77] Creating layer pool4
I0523 22:23:24.154330  3995 net.cpp:106] Creating Layer pool4
I0523 22:23:24.154340  3995 net.cpp:454] pool4 <- conv4
I0523 22:23:24.154353  3995 net.cpp:411] pool4 -> pool4
I0523 22:23:24.154422  3995 net.cpp:150] Setting up pool4
I0523 22:23:24.154434  3995 net.cpp:157] Top shape: 70 36 3 42 (317520)
I0523 22:23:24.154445  3995 net.cpp:165] Memory required for data: 110261480
I0523 22:23:24.154455  3995 layer_factory.hpp:77] Creating layer ip1
I0523 22:23:24.154474  3995 net.cpp:106] Creating Layer ip1
I0523 22:23:24.154484  3995 net.cpp:454] ip1 <- pool4
I0523 22:23:24.154496  3995 net.cpp:411] ip1 -> ip1
I0523 22:23:24.169860  3995 net.cpp:150] Setting up ip1
I0523 22:23:24.169889  3995 net.cpp:157] Top shape: 70 196 (13720)
I0523 22:23:24.169901  3995 net.cpp:165] Memory required for data: 110316360
I0523 22:23:24.169924  3995 layer_factory.hpp:77] Creating layer relu5
I0523 22:23:24.169939  3995 net.cpp:106] Creating Layer relu5
I0523 22:23:24.169950  3995 net.cpp:454] relu5 <- ip1
I0523 22:23:24.169962  3995 net.cpp:397] relu5 -> ip1 (in-place)
I0523 22:23:24.170305  3995 net.cpp:150] Setting up relu5
I0523 22:23:24.170320  3995 net.cpp:157] Top shape: 70 196 (13720)
I0523 22:23:24.170331  3995 net.cpp:165] Memory required for data: 110371240
I0523 22:23:24.170341  3995 layer_factory.hpp:77] Creating layer drop1
I0523 22:23:24.170362  3995 net.cpp:106] Creating Layer drop1
I0523 22:23:24.170372  3995 net.cpp:454] drop1 <- ip1
I0523 22:23:24.170384  3995 net.cpp:397] drop1 -> ip1 (in-place)
I0523 22:23:24.170445  3995 net.cpp:150] Setting up drop1
I0523 22:23:24.170459  3995 net.cpp:157] Top shape: 70 196 (13720)
I0523 22:23:24.170469  3995 net.cpp:165] Memory required for data: 110426120
I0523 22:23:24.170478  3995 layer_factory.hpp:77] Creating layer ip2
I0523 22:23:24.170497  3995 net.cpp:106] Creating Layer ip2
I0523 22:23:24.170507  3995 net.cpp:454] ip2 <- ip1
I0523 22:23:24.170519  3995 net.cpp:411] ip2 -> ip2
I0523 22:23:24.170980  3995 net.cpp:150] Setting up ip2
I0523 22:23:24.170992  3995 net.cpp:157] Top shape: 70 98 (6860)
I0523 22:23:24.171002  3995 net.cpp:165] Memory required for data: 110453560
I0523 22:23:24.171017  3995 layer_factory.hpp:77] Creating layer relu6
I0523 22:23:24.171030  3995 net.cpp:106] Creating Layer relu6
I0523 22:23:24.171039  3995 net.cpp:454] relu6 <- ip2
I0523 22:23:24.171051  3995 net.cpp:397] relu6 -> ip2 (in-place)
I0523 22:23:24.171571  3995 net.cpp:150] Setting up relu6
I0523 22:23:24.171588  3995 net.cpp:157] Top shape: 70 98 (6860)
I0523 22:23:24.171598  3995 net.cpp:165] Memory required for data: 110481000
I0523 22:23:24.171608  3995 layer_factory.hpp:77] Creating layer drop2
I0523 22:23:24.171622  3995 net.cpp:106] Creating Layer drop2
I0523 22:23:24.171632  3995 net.cpp:454] drop2 <- ip2
I0523 22:23:24.171643  3995 net.cpp:397] drop2 -> ip2 (in-place)
I0523 22:23:24.171686  3995 net.cpp:150] Setting up drop2
I0523 22:23:24.171700  3995 net.cpp:157] Top shape: 70 98 (6860)
I0523 22:23:24.171710  3995 net.cpp:165] Memory required for data: 110508440
I0523 22:23:24.171720  3995 layer_factory.hpp:77] Creating layer ip3
I0523 22:23:24.171735  3995 net.cpp:106] Creating Layer ip3
I0523 22:23:24.171743  3995 net.cpp:454] ip3 <- ip2
I0523 22:23:24.171756  3995 net.cpp:411] ip3 -> ip3
I0523 22:23:24.171965  3995 net.cpp:150] Setting up ip3
I0523 22:23:24.171978  3995 net.cpp:157] Top shape: 70 11 (770)
I0523 22:23:24.171988  3995 net.cpp:165] Memory required for data: 110511520
I0523 22:23:24.172003  3995 layer_factory.hpp:77] Creating layer drop3
I0523 22:23:24.172016  3995 net.cpp:106] Creating Layer drop3
I0523 22:23:24.172025  3995 net.cpp:454] drop3 <- ip3
I0523 22:23:24.172037  3995 net.cpp:397] drop3 -> ip3 (in-place)
I0523 22:23:24.172077  3995 net.cpp:150] Setting up drop3
I0523 22:23:24.172091  3995 net.cpp:157] Top shape: 70 11 (770)
I0523 22:23:24.172101  3995 net.cpp:165] Memory required for data: 110514600
I0523 22:23:24.172111  3995 layer_factory.hpp:77] Creating layer loss
I0523 22:23:24.172129  3995 net.cpp:106] Creating Layer loss
I0523 22:23:24.172139  3995 net.cpp:454] loss <- ip3
I0523 22:23:24.172150  3995 net.cpp:454] loss <- label
I0523 22:23:24.172163  3995 net.cpp:411] loss -> loss
I0523 22:23:24.172179  3995 layer_factory.hpp:77] Creating layer loss
…
I0523 22:23:24.174840  3995 solver.cpp:181] Creating test net (#0) specified by net file: /lustre/atlas/proj-shared/hep105/caffe_titan/caffe_workflow/logs_bslr/bs_70_lr_0.0010_2016-05-20T15.49.13.007386.prototxt
I0523 22:23:24.174911  3995 net.cpp:322] The NetState phase (1) differed from the phase (0) specified by a rule in layer data_hdf5
I0523 22:23:24.175269  3995 net.cpp:49] Initializing net from parameters: 
name: "caffe_test_127x50_x_unshifted"
state {
  phase: TEST
}
layer {
  name: "data_hdf5"
  type: "HDF5Data"
  top: "data"
  top: "label"
  include {
    phase: TEST
  }
  hdf5_data_param {
    source: "/lustre/atlas/proj-shared/hep105/caffe_titan/minosmatch_nukecczdefs_127x50_x_unshifted_me1Bmc.testlist"
    batch_size: 70
  }
}
layer {
  name: "conv1"
  type: "Convolution"
  bottom: "data"
  top: "conv1"
  convolution_param {
    num_output: 12
    pad: 0
    stride: 1
    weight_filler {
      type: "xavier"
    }
    bias_filler {
      type: "constant"
    }
    kernel_h: 8
    kernel_w: 3
  }
}
layer {
  name: "relu1"
  type: "ReLU"
  bottom: "conv1"
  top: "conv1"
}
layer {
  name: "pool1"
  type: "Pooling"
  bottom: "conv1"
  top: "pool1"
  pooling_param {
    pool: MAX
    kernel_h: 2
    kernel_w: 1
    stride_h: 2
    stride_w: 1
  }
}
layer {
  name: "conv2"
  type: "Convolution"
  bottom: "pool1"
  top: "conv2"
  convolution_param {
    num_output: 20
    pad: 0
    stride: 1
    weight_filler {
      type: "xavier"
    }
    bias_filler {
      type: "constant"
    }
    kernel_h: 7
    kernel_w: 3
  }
}
layer {
  name: "relu2"
  type: "ReLU"
  bottom: "conv2"
  top: "conv2"
}
layer {
  name: "pool2"
  type: "Pooling"
  bottom: "conv2"
  top: "pool2"
  pooling_param {
    pool: MAX
    kernel_h: 2
    kernel_w: 1
    stride_h: 2
    stride_w: 1
  }
}
layer {
  name: "conv3"
  type: "Convolution"
  bottom: "pool2"
  top: "conv3"
  convolution_param {
    num_output: 28
    pad: 0
    stride: 1
    weight_filler {
      type: "xavier"
    }
    bias_filler {
      type: "constant"
    }
    kernel_h: 6
    kernel_w: 3
  }
}
layer {
  name: "relu3"
  type: "ReLU"
  bottom: "conv3"
  top: "conv3"
}
layer {
  name: "pool3"
  type: "Pooling"
  bottom: "conv3"
  top: "pool3"
  pooling_param {
    pool: MAX
    kernel_h: 2
    kernel_w: 1
    stride_h: 2
    stride_w: 1
  }
}
layer {
  name: "conv4"
  type: "Convolution"
  bottom: "pool3"
  top: "conv4"
  convolution_param {
    num_output: 36
    pad: 0
    stride: 1
    weight_filler {
      type: "xavier"
    }
    bias_filler {
      type: "constant"
    }
    kernel_h: 6
    kernel_w: 3
  }
}
layer {
  name: "relu4"
  type: "ReLU"
  bottom: "conv4"
  top: "conv4"
}
layer {
  name: "pool4"
  type: "Pooling"
  bottom: "conv4"
  top: "pool4"
  pooling_param {
    pool: MAX
    kernel_h: 2
    kernel_w: 1
    stride_h: 2
    stride_w: 1
  }
}
layer {
  name: "ip1"
  type: "InnerProduct"
  bottom: "pool4"
  top: "ip1"
  inner_product_param {
    num_output: 196
    weight_filler {
      type: "xavier"
    }
    bias_filler {
      type: "constant"
    }
  }
}
layer {
  name: "relu5"
  type: "ReLU"
  bottom: "ip1"
  top: "ip1"
}
layer {
  name: "drop1"
  type: "Dropout"
  bottom: "ip1"
  top: "ip1"
  dropout_param {
    dropout_ratio: 0.5
  }
}
layer {
  name: "ip2"
  type: "InnerProduct"
  bottom: "ip1"
  top: "ip2"
  inner_product_param {
    num_output: 98
    weight_filler {
      type: "xavier"
    }
    bias_filler {
      type: "constant"
    }
  }
}
layer {
  name: "relu6"
  type: "ReLU"
  bottom: "ip2"
  top: "ip2"
}
layer {
  name: "drop2"
  type: "Dropout"
  bottom: "ip2"
  top: "ip2"
  dropout_param {
    dropout_ratio: 0.5
  }
}
layer {
  name: "ip3"
  type: "InnerProduct"
  bottom: "ip2"
  top: "ip3"
  inner_product_param {
    num_output: 11
    weight_filler {
      type: "xavier"
    }
    bias_filler {
      type: "constant"
    }
  }
}
layer {
  name: "drop3"
  type: "Dropout"
  bottom: "ip3"
  top: "ip3"
  dropout_param {
    dropout_ratio: 0.5
  }
}
layer {
  name: "accuracy"
  type: "Accuracy"
  bottom: "ip3"
  bottom: "label"
  top: "accuracy"
  include {
    phase: TEST
  }
}
layer {
  name: "loss"
  type: "SoftmaxWithLoss"
  bottom: "ip3"
  bottom: "label"
  top: "loss"
}
I0523 22:23:24.175458  3995 layer_factory.hpp:77] Creating layer data_hdf5
I0523 22:23:24.175474  3995 net.cpp:106] Creating Layer data_hdf5
I0523 22:23:24.175487  3995 net.cpp:411] data_hdf5 -> data
I0523 22:23:24.175504  3995 net.cpp:411] data_hdf5 -> label
I0523 22:23:24.175520  3995 hdf5_data_layer.cpp:79] Loading list of HDF5 filenames from: /lustre/atlas/proj-shared/hep105/caffe_titan/minosmatch_nukecczdefs_127x50_x_unshifted_me1Bmc.testlist
I0523 22:23:24.176854  3995 hdf5_data_layer.cpp:93] Number of HDF5 files: 3
I0523 22:23:45.512487  3995 net.cpp:150] Setting up data_hdf5
I0523 22:23:45.512655  3995 net.cpp:157] Top shape: 70 1 127 50 (444500)
I0523 22:23:45.512670  3995 net.cpp:157] Top shape: 70 (70)
I0523 22:23:45.512681  3995 net.cpp:165] Memory required for data: 1778280
I0523 22:23:45.512694  3995 layer_factory.hpp:77] Creating layer label_data_hdf5_1_split
I0523 22:23:45.512722  3995 net.cpp:106] Creating Layer label_data_hdf5_1_split
I0523 22:23:45.512733  3995 net.cpp:454] label_data_hdf5_1_split <- label
I0523 22:23:45.512748  3995 net.cpp:411] label_data_hdf5_1_split -> label_data_hdf5_1_split_0
I0523 22:23:45.512768  3995 net.cpp:411] label_data_hdf5_1_split -> label_data_hdf5_1_split_1
I0523 22:23:45.512840  3995 net.cpp:150] Setting up label_data_hdf5_1_split
I0523 22:23:45.512853  3995 net.cpp:157] Top shape: 70 (70)
I0523 22:23:45.512866  3995 net.cpp:157] Top shape: 70 (70)
I0523 22:23:45.512874  3995 net.cpp:165] Memory required for data: 1778840
I0523 22:23:45.512884  3995 layer_factory.hpp:77] Creating layer conv1
I0523 22:23:45.512907  3995 net.cpp:106] Creating Layer conv1
I0523 22:23:45.512917  3995 net.cpp:454] conv1 <- data
I0523 22:23:45.512928  3995 net.cpp:411] conv1 -> conv1
I0523 22:23:45.514878  3995 net.cpp:150] Setting up conv1
I0523 22:23:45.514901  3995 net.cpp:157] Top shape: 70 12 120 48 (4838400)
I0523 22:23:45.514914  3995 net.cpp:165] Memory required for data: 21132440
I0523 22:23:45.514933  3995 layer_factory.hpp:77] Creating layer relu1
I0523 22:23:45.514948  3995 net.cpp:106] Creating Layer relu1
I0523 22:23:45.514958  3995 net.cpp:454] relu1 <- conv1
I0523 22:23:45.514971  3995 net.cpp:397] relu1 -> conv1 (in-place)
I0523 22:23:45.515465  3995 net.cpp:150] Setting up relu1
I0523 22:23:45.515481  3995 net.cpp:157] Top shape: 70 12 120 48 (4838400)
I0523 22:23:45.515491  3995 net.cpp:165] Memory required for data: 40486040
I0523 22:23:45.515502  3995 layer_factory.hpp:77] Creating layer pool1
I0523 22:23:45.515518  3995 net.cpp:106] Creating Layer pool1
I0523 22:23:45.515528  3995 net.cpp:454] pool1 <- conv1
I0523 22:23:45.515542  3995 net.cpp:411] pool1 -> pool1
I0523 22:23:45.515615  3995 net.cpp:150] Setting up pool1
I0523 22:23:45.515628  3995 net.cpp:157] Top shape: 70 12 60 48 (2419200)
I0523 22:23:45.515638  3995 net.cpp:165] Memory required for data: 50162840
I0523 22:23:45.515646  3995 layer_factory.hpp:77] Creating layer conv2
I0523 22:23:45.515664  3995 net.cpp:106] Creating Layer conv2
I0523 22:23:45.515674  3995 net.cpp:454] conv2 <- pool1
I0523 22:23:45.515688  3995 net.cpp:411] conv2 -> conv2
I0523 22:23:45.517598  3995 net.cpp:150] Setting up conv2
I0523 22:23:45.517621  3995 net.cpp:157] Top shape: 70 20 54 46 (3477600)
I0523 22:23:45.517633  3995 net.cpp:165] Memory required for data: 64073240
I0523 22:23:45.517650  3995 layer_factory.hpp:77] Creating layer relu2
I0523 22:23:45.517664  3995 net.cpp:106] Creating Layer relu2
I0523 22:23:45.517674  3995 net.cpp:454] relu2 <- conv2
I0523 22:23:45.517686  3995 net.cpp:397] relu2 -> conv2 (in-place)
I0523 22:23:45.518028  3995 net.cpp:150] Setting up relu2
I0523 22:23:45.518043  3995 net.cpp:157] Top shape: 70 20 54 46 (3477600)
I0523 22:23:45.518052  3995 net.cpp:165] Memory required for data: 77983640
I0523 22:23:45.518064  3995 layer_factory.hpp:77] Creating layer pool2
I0523 22:23:45.518077  3995 net.cpp:106] Creating Layer pool2
I0523 22:23:45.518087  3995 net.cpp:454] pool2 <- conv2
I0523 22:23:45.518100  3995 net.cpp:411] pool2 -> pool2
I0523 22:23:45.518172  3995 net.cpp:150] Setting up pool2
I0523 22:23:45.518184  3995 net.cpp:157] Top shape: 70 20 27 46 (1738800)
I0523 22:23:45.518193  3995 net.cpp:165] Memory required for data: 84938840
I0523 22:23:45.518204  3995 layer_factory.hpp:77] Creating layer conv3
I0523 22:23:45.518221  3995 net.cpp:106] Creating Layer conv3
I0523 22:23:45.518231  3995 net.cpp:454] conv3 <- pool2
I0523 22:23:45.518245  3995 net.cpp:411] conv3 -> conv3
I0523 22:23:45.520223  3995 net.cpp:150] Setting up conv3
I0523 22:23:45.520247  3995 net.cpp:157] Top shape: 70 28 22 44 (1897280)
I0523 22:23:45.520259  3995 net.cpp:165] Memory required for data: 92527960
I0523 22:23:45.520292  3995 layer_factory.hpp:77] Creating layer relu3
I0523 22:23:45.520306  3995 net.cpp:106] Creating Layer relu3
I0523 22:23:45.520316  3995 net.cpp:454] relu3 <- conv3
I0523 22:23:45.520329  3995 net.cpp:397] relu3 -> conv3 (in-place)
I0523 22:23:45.520802  3995 net.cpp:150] Setting up relu3
I0523 22:23:45.520819  3995 net.cpp:157] Top shape: 70 28 22 44 (1897280)
I0523 22:23:45.520829  3995 net.cpp:165] Memory required for data: 100117080
I0523 22:23:45.520839  3995 layer_factory.hpp:77] Creating layer pool3
I0523 22:23:45.520853  3995 net.cpp:106] Creating Layer pool3
I0523 22:23:45.520862  3995 net.cpp:454] pool3 <- conv3
I0523 22:23:45.520875  3995 net.cpp:411] pool3 -> pool3
I0523 22:23:45.520947  3995 net.cpp:150] Setting up pool3
I0523 22:23:45.520961  3995 net.cpp:157] Top shape: 70 28 11 44 (948640)
I0523 22:23:45.520969  3995 net.cpp:165] Memory required for data: 103911640
I0523 22:23:45.520979  3995 layer_factory.hpp:77] Creating layer conv4
I0523 22:23:45.520995  3995 net.cpp:106] Creating Layer conv4
I0523 22:23:45.521005  3995 net.cpp:454] conv4 <- pool3
I0523 22:23:45.521019  3995 net.cpp:411] conv4 -> conv4
I0523 22:23:45.523085  3995 net.cpp:150] Setting up conv4
I0523 22:23:45.523108  3995 net.cpp:157] Top shape: 70 36 6 42 (635040)
I0523 22:23:45.523120  3995 net.cpp:165] Memory required for data: 106451800
I0523 22:23:45.523135  3995 layer_factory.hpp:77] Creating layer relu4
I0523 22:23:45.523149  3995 net.cpp:106] Creating Layer relu4
I0523 22:23:45.523159  3995 net.cpp:454] relu4 <- conv4
I0523 22:23:45.523171  3995 net.cpp:397] relu4 -> conv4 (in-place)
I0523 22:23:45.523646  3995 net.cpp:150] Setting up relu4
I0523 22:23:45.523663  3995 net.cpp:157] Top shape: 70 36 6 42 (635040)
I0523 22:23:45.523674  3995 net.cpp:165] Memory required for data: 108991960
I0523 22:23:45.523684  3995 layer_factory.hpp:77] Creating layer pool4
I0523 22:23:45.523696  3995 net.cpp:106] Creating Layer pool4
I0523 22:23:45.523706  3995 net.cpp:454] pool4 <- conv4
I0523 22:23:45.523720  3995 net.cpp:411] pool4 -> pool4
I0523 22:23:45.523790  3995 net.cpp:150] Setting up pool4
I0523 22:23:45.523803  3995 net.cpp:157] Top shape: 70 36 3 42 (317520)
I0523 22:23:45.523813  3995 net.cpp:165] Memory required for data: 110262040
I0523 22:23:45.523823  3995 layer_factory.hpp:77] Creating layer ip1
I0523 22:23:45.523839  3995 net.cpp:106] Creating Layer ip1
I0523 22:23:45.523849  3995 net.cpp:454] ip1 <- pool4
I0523 22:23:45.523864  3995 net.cpp:411] ip1 -> ip1
I0523 22:23:45.539311  3995 net.cpp:150] Setting up ip1
I0523 22:23:45.539340  3995 net.cpp:157] Top shape: 70 196 (13720)
I0523 22:23:45.539351  3995 net.cpp:165] Memory required for data: 110316920
I0523 22:23:45.539376  3995 layer_factory.hpp:77] Creating layer relu5
I0523 22:23:45.539389  3995 net.cpp:106] Creating Layer relu5
I0523 22:23:45.539400  3995 net.cpp:454] relu5 <- ip1
I0523 22:23:45.539413  3995 net.cpp:397] relu5 -> ip1 (in-place)
I0523 22:23:45.539760  3995 net.cpp:150] Setting up relu5
I0523 22:23:45.539774  3995 net.cpp:157] Top shape: 70 196 (13720)
I0523 22:23:45.539784  3995 net.cpp:165] Memory required for data: 110371800
I0523 22:23:45.539794  3995 layer_factory.hpp:77] Creating layer drop1
I0523 22:23:45.539814  3995 net.cpp:106] Creating Layer drop1
I0523 22:23:45.539824  3995 net.cpp:454] drop1 <- ip1
I0523 22:23:45.539837  3995 net.cpp:397] drop1 -> ip1 (in-place)
I0523 22:23:45.539885  3995 net.cpp:150] Setting up drop1
I0523 22:23:45.539898  3995 net.cpp:157] Top shape: 70 196 (13720)
I0523 22:23:45.539907  3995 net.cpp:165] Memory required for data: 110426680
I0523 22:23:45.539917  3995 layer_factory.hpp:77] Creating layer ip2
I0523 22:23:45.539932  3995 net.cpp:106] Creating Layer ip2
I0523 22:23:45.539942  3995 net.cpp:454] ip2 <- ip1
I0523 22:23:45.539955  3995 net.cpp:411] ip2 -> ip2
I0523 22:23:45.540432  3995 net.cpp:150] Setting up ip2
I0523 22:23:45.540446  3995 net.cpp:157] Top shape: 70 98 (6860)
I0523 22:23:45.540455  3995 net.cpp:165] Memory required for data: 110454120
I0523 22:23:45.540472  3995 layer_factory.hpp:77] Creating layer relu6
I0523 22:23:45.540496  3995 net.cpp:106] Creating Layer relu6
I0523 22:23:45.540505  3995 net.cpp:454] relu6 <- ip2
I0523 22:23:45.540519  3995 net.cpp:397] relu6 -> ip2 (in-place)
I0523 22:23:45.541056  3995 net.cpp:150] Setting up relu6
I0523 22:23:45.541072  3995 net.cpp:157] Top shape: 70 98 (6860)
I0523 22:23:45.541085  3995 net.cpp:165] Memory required for data: 110481560
I0523 22:23:45.541095  3995 layer_factory.hpp:77] Creating layer drop2
I0523 22:23:45.541108  3995 net.cpp:106] Creating Layer drop2
I0523 22:23:45.541118  3995 net.cpp:454] drop2 <- ip2
I0523 22:23:45.541131  3995 net.cpp:397] drop2 -> ip2 (in-place)
I0523 22:23:45.541177  3995 net.cpp:150] Setting up drop2
I0523 22:23:45.541189  3995 net.cpp:157] Top shape: 70 98 (6860)
I0523 22:23:45.541199  3995 net.cpp:165] Memory required for data: 110509000
I0523 22:23:45.541209  3995 layer_factory.hpp:77] Creating layer ip3
I0523 22:23:45.541224  3995 net.cpp:106] Creating Layer ip3
I0523 22:23:45.541234  3995 net.cpp:454] ip3 <- ip2
I0523 22:23:45.541247  3995 net.cpp:411] ip3 -> ip3
I0523 22:23:45.541471  3995 net.cpp:150] Setting up ip3
I0523 22:23:45.541484  3995 net.cpp:157] Top shape: 70 11 (770)
I0523 22:23:45.541494  3995 net.cpp:165] Memory required for data: 110512080
I0523 22:23:45.541509  3995 layer_factory.hpp:77] Creating layer drop3
I0523 22:23:45.541523  3995 net.cpp:106] Creating Layer drop3
I0523 22:23:45.541532  3995 net.cpp:454] drop3 <- ip3
I0523 22:23:45.541545  3995 net.cpp:397] drop3 -> ip3 (in-place)
I0523 22:23:45.541586  3995 net.cpp:150] Setting up drop3
I0523 22:23:45.541599  3995 net.cpp:157] Top shape: 70 11 (770)
I0523 22:23:45.541610  3995 net.cpp:165] Memory required for data: 110515160
I0523 22:23:45.541620  3995 layer_factory.hpp:77] Creating layer ip3_drop3_0_split
I0523 22:23:45.541632  3995 net.cpp:106] Creating Layer ip3_drop3_0_split
I0523 22:23:45.541642  3995 net.cpp:454] ip3_drop3_0_split <- ip3
I0523 22:23:45.541656  3995 net.cpp:411] ip3_drop3_0_split -> ip3_drop3_0_split_0
I0523 22:23:45.541671  3995 net.cpp:411] ip3_drop3_0_split -> ip3_drop3_0_split_1
I0523 22:23:45.541744  3995 net.cpp:150] Setting up ip3_drop3_0_split
I0523 22:23:45.541757  3995 net.cpp:157] Top shape: 70 11 (770)
I0523 22:23:45.541771  3995 net.cpp:157] Top shape: 70 11 (770)
I0523 22:23:45.541781  3995 net.cpp:165] Memory required for data: 110521320
I0523 22:23:45.541791  3995 layer_factory.hpp:77] Creating layer accuracy
I0523 22:23:45.541812  3995 net.cpp:106] Creating Layer accuracy
I0523 22:23:45.541822  3995 net.cpp:454] accuracy <- ip3_drop3_0_split_0
I0523 22:23:45.541833  3995 net.cpp:454] accuracy <- label_data_hdf5_1_split_0
I0523 22:23:45.541856  3995 net.cpp:411] accuracy -> accuracy
…
