…
I0520 18:13:18.229358 23162 net.cpp:322] The NetState phase (0) differed from the phase (1) specified by a rule in layer data_hdf5
I0520 18:13:18.229418 23162 net.cpp:322] The NetState phase (0) differed from the phase (1) specified by a rule in layer accuracy
I0520 18:13:18.229764 23162 net.cpp:49] Initializing net from parameters: 
name: "caffe_test_127x50_x_unshifted"
state {
  phase: TRAIN
}
layer {
  name: "data_hdf5"
  type: "HDF5Data"
  top: "data"
  top: "label"
  include {
    phase: TRAIN
  }
  hdf5_data_param {
    source: "/lustre/atlas/proj-shared/hep105/caffe_titan/minosmatch_nukecczdefs_127x50_x_unshifted_me1Bmc.trainlist"
    batch_size: 70
  }
}
layer {
  name: "conv1"
  type: "Convolution"
  bottom: "data"
  top: "conv1"
  convolution_param {
    num_output: 12
    pad: 0
    stride: 1
    weight_filler {
      type: "xavier"
    }
    bias_filler {
      type: "constant"
    }
    kernel_h: 8
    kernel_w: 3
  }
}
layer {
  name: "relu1"
  type: "ReLU"
  bottom: "conv1"
  top: "conv1"
}
layer {
  name: "pool1"
  type: "Pooling"
  bottom: "conv1"
  top: "pool1"
  pooling_param {
    pool: MAX
    kernel_h: 2
    kernel_w: 1
    stride_h: 2
    stride_w: 1
  }
}
layer {
  name: "conv2"
  type: "Convolution"
  bottom: "pool1"
  top: "conv2"
  convolution_param {
    num_output: 20
    pad: 0
    stride: 1
    weight_filler {
      type: "xavier"
    }
    bias_filler {
      type: "constant"
    }
    kernel_h: 7
    kernel_w: 3
  }
}
layer {
  name: "relu2"
  type: "ReLU"
  bottom: "conv2"
  top: "conv2"
}
layer {
  name: "pool2"
  type: "Pooling"
  bottom: "conv2"
  top: "pool2"
  pooling_param {
    pool: MAX
    kernel_h: 2
    kernel_w: 1
    stride_h: 2
    stride_w: 1
  }
}
layer {
  name: "conv3"
  type: "Convolution"
  bottom: "pool2"
  top: "conv3"
  convolution_param {
    num_output: 28
    pad: 0
    stride: 1
    weight_filler {
      type: "xavier"
    }
    bias_filler {
      type: "constant"
    }
    kernel_h: 6
    kernel_w: 3
  }
}
layer {
  name: "relu3"
  type: "ReLU"
  bottom: "conv3"
  top: "conv3"
}
layer {
  name: "pool3"
  type: "Pooling"
  bottom: "conv3"
  top: "pool3"
  pooling_param {
    pool: MAX
    kernel_h: 2
    kernel_w: 1
    stride_h: 2
    stride_w: 1
  }
}
layer {
  name: "conv4"
  type: "Convolution"
  bottom: "pool3"
  top: "conv4"
  convolution_param {
    num_output: 36
    pad: 0
    stride: 1
    weight_filler {
      type: "xavier"
    }
    bias_filler {
      type: "constant"
    }
    kernel_h: 6
    kernel_w: 3
  }
}
layer {
  name: "relu4"
  type: "ReLU"
  bottom: "conv4"
  top: "conv4"
}
layer {
  name: "pool4"
  type: "Pooling"
  bottom: "conv4"
  top: "pool4"
  pooling_param {
    pool: MAX
    kernel_h: 2
    kernel_w: 1
    stride_h: 2
    stride_w: 1
  }
}
layer {
  name: "ip1"
  type: "InnerProduct"
  bottom: "pool4"
  top: "ip1"
  inner_product_param {
    num_output: 196
    weight_filler {
      type: "xavier"
    }
    bias_filler {
      type: "constant"
    }
  }
}
layer {
  name: "relu5"
  type: "ReLU"
  bottom: "ip1"
  top: "ip1"
}
layer {
  name: "drop1"
  type: "Dropout"
  bottom: "ip1"
  top: "ip1"
  dropout_param {
    dropout_ratio: 0.5
  }
}
layer {
  name: "ip2"
  type: "InnerProduct"
  bottom: "ip1"
  top: "ip2"
  inner_product_param {
    num_output: 98
    weight_filler {
      type: "xavier"
    }
    bias_filler {
      type: "constant"
    }
  }
}
layer {
  name: "relu6"
  type: "ReLU"
  bottom: "ip2"
  top: "ip2"
}
layer {
  name: "drop2"
  type: "Dropout"
  bottom: "ip2"
  top: "ip2"
  dropout_param {
    dropout_ratio: 0.5
  }
}
layer {
  name: "ip3"
  type: "InnerProduct"
  bottom: "ip2"
  top: "ip3"
  inner_product_param {
    num_output: 11
    weight_filler {
      type: "xavier"
    }
    bias_filler {
      type: "constant"
    }
  }
}
layer {
  name: "drop3"
  type: "Dropout"
  bottom: "ip3"
  top: "ip3"
  dropout_param {
    dropout_ratio: 0.5
  }
}
layer {
  name: "loss"
  type: "SoftmaxWithLoss"
  bottom: "ip3"
  bottom: "label"
  top: "loss"
}
I0520 18:13:18.229945 23162 layer_factory.hpp:77] Creating layer data_hdf5
I0520 18:13:18.229969 23162 net.cpp:106] Creating Layer data_hdf5
I0520 18:13:18.229984 23162 net.cpp:411] data_hdf5 -> data
I0520 18:13:18.230016 23162 net.cpp:411] data_hdf5 -> label
I0520 18:13:18.230049 23162 hdf5_data_layer.cpp:79] Loading list of HDF5 filenames from: /lustre/atlas/proj-shared/hep105/caffe_titan/minosmatch_nukecczdefs_127x50_x_unshifted_me1Bmc.trainlist
I0520 18:13:18.245065 23162 hdf5_data_layer.cpp:93] Number of HDF5 files: 15
I0520 18:13:18.266558 23162 hdf5.cpp:32] Datatype class: H5T_FLOAT
I0520 18:13:39.887646 23162 hdf5.cpp:35] Datatype class: H5T_INTEGER
I0520 18:13:39.892722 23162 net.cpp:150] Setting up data_hdf5
I0520 18:13:39.892762 23162 net.cpp:157] Top shape: 70 1 127 50 (444500)
I0520 18:13:39.892777 23162 net.cpp:157] Top shape: 70 (70)
I0520 18:13:39.892791 23162 net.cpp:165] Memory required for data: 1778280
I0520 18:13:39.892804 23162 layer_factory.hpp:77] Creating layer conv1
I0520 18:13:39.892838 23162 net.cpp:106] Creating Layer conv1
I0520 18:13:39.892849 23162 net.cpp:454] conv1 <- data
I0520 18:13:39.892869 23162 net.cpp:411] conv1 -> conv1
I0520 18:13:42.972292 23162 net.cpp:150] Setting up conv1
I0520 18:13:42.972338 23162 net.cpp:157] Top shape: 70 12 120 48 (4838400)
I0520 18:13:42.972349 23162 net.cpp:165] Memory required for data: 21131880
I0520 18:13:42.972378 23162 layer_factory.hpp:77] Creating layer relu1
I0520 18:13:42.972399 23162 net.cpp:106] Creating Layer relu1
I0520 18:13:42.972410 23162 net.cpp:454] relu1 <- conv1
I0520 18:13:42.972424 23162 net.cpp:397] relu1 -> conv1 (in-place)
I0520 18:13:42.972940 23162 net.cpp:150] Setting up relu1
I0520 18:13:42.972957 23162 net.cpp:157] Top shape: 70 12 120 48 (4838400)
I0520 18:13:42.972968 23162 net.cpp:165] Memory required for data: 40485480
I0520 18:13:42.972978 23162 layer_factory.hpp:77] Creating layer pool1
I0520 18:13:42.972995 23162 net.cpp:106] Creating Layer pool1
I0520 18:13:42.973006 23162 net.cpp:454] pool1 <- conv1
I0520 18:13:42.973018 23162 net.cpp:411] pool1 -> pool1
I0520 18:13:42.973098 23162 net.cpp:150] Setting up pool1
I0520 18:13:42.973111 23162 net.cpp:157] Top shape: 70 12 60 48 (2419200)
I0520 18:13:42.973121 23162 net.cpp:165] Memory required for data: 50162280
I0520 18:13:42.973132 23162 layer_factory.hpp:77] Creating layer conv2
I0520 18:13:42.973155 23162 net.cpp:106] Creating Layer conv2
I0520 18:13:42.973165 23162 net.cpp:454] conv2 <- pool1
I0520 18:13:42.973178 23162 net.cpp:411] conv2 -> conv2
I0520 18:13:42.975905 23162 net.cpp:150] Setting up conv2
I0520 18:13:42.975932 23162 net.cpp:157] Top shape: 70 20 54 46 (3477600)
I0520 18:13:42.975944 23162 net.cpp:165] Memory required for data: 64072680
I0520 18:13:42.975962 23162 layer_factory.hpp:77] Creating layer relu2
I0520 18:13:42.975976 23162 net.cpp:106] Creating Layer relu2
I0520 18:13:42.975987 23162 net.cpp:454] relu2 <- conv2
I0520 18:13:42.975999 23162 net.cpp:397] relu2 -> conv2 (in-place)
I0520 18:13:42.976341 23162 net.cpp:150] Setting up relu2
I0520 18:13:42.976354 23162 net.cpp:157] Top shape: 70 20 54 46 (3477600)
I0520 18:13:42.976364 23162 net.cpp:165] Memory required for data: 77983080
I0520 18:13:42.976375 23162 layer_factory.hpp:77] Creating layer pool2
I0520 18:13:42.976387 23162 net.cpp:106] Creating Layer pool2
I0520 18:13:42.976397 23162 net.cpp:454] pool2 <- conv2
I0520 18:13:42.976410 23162 net.cpp:411] pool2 -> pool2
I0520 18:13:42.976492 23162 net.cpp:150] Setting up pool2
I0520 18:13:42.976505 23162 net.cpp:157] Top shape: 70 20 27 46 (1738800)
I0520 18:13:42.976516 23162 net.cpp:165] Memory required for data: 84938280
I0520 18:13:42.976523 23162 layer_factory.hpp:77] Creating layer conv3
I0520 18:13:42.976542 23162 net.cpp:106] Creating Layer conv3
I0520 18:13:42.976552 23162 net.cpp:454] conv3 <- pool2
I0520 18:13:42.976565 23162 net.cpp:411] conv3 -> conv3
I0520 18:13:42.978477 23162 net.cpp:150] Setting up conv3
I0520 18:13:42.978497 23162 net.cpp:157] Top shape: 70 28 22 44 (1897280)
I0520 18:13:42.978507 23162 net.cpp:165] Memory required for data: 92527400
I0520 18:13:42.978525 23162 layer_factory.hpp:77] Creating layer relu3
I0520 18:13:42.978541 23162 net.cpp:106] Creating Layer relu3
I0520 18:13:42.978550 23162 net.cpp:454] relu3 <- conv3
I0520 18:13:42.978564 23162 net.cpp:397] relu3 -> conv3 (in-place)
I0520 18:13:42.979028 23162 net.cpp:150] Setting up relu3
I0520 18:13:42.979045 23162 net.cpp:157] Top shape: 70 28 22 44 (1897280)
I0520 18:13:42.979055 23162 net.cpp:165] Memory required for data: 100116520
I0520 18:13:42.979066 23162 layer_factory.hpp:77] Creating layer pool3
I0520 18:13:42.979079 23162 net.cpp:106] Creating Layer pool3
I0520 18:13:42.979089 23162 net.cpp:454] pool3 <- conv3
I0520 18:13:42.979101 23162 net.cpp:411] pool3 -> pool3
I0520 18:13:42.979169 23162 net.cpp:150] Setting up pool3
I0520 18:13:42.979182 23162 net.cpp:157] Top shape: 70 28 11 44 (948640)
I0520 18:13:42.979192 23162 net.cpp:165] Memory required for data: 103911080
I0520 18:13:42.979202 23162 layer_factory.hpp:77] Creating layer conv4
I0520 18:13:42.979218 23162 net.cpp:106] Creating Layer conv4
I0520 18:13:42.979228 23162 net.cpp:454] conv4 <- pool3
I0520 18:13:42.979243 23162 net.cpp:411] conv4 -> conv4
I0520 18:13:42.982002 23162 net.cpp:150] Setting up conv4
I0520 18:13:42.982030 23162 net.cpp:157] Top shape: 70 36 6 42 (635040)
I0520 18:13:42.982041 23162 net.cpp:165] Memory required for data: 106451240
I0520 18:13:42.982059 23162 layer_factory.hpp:77] Creating layer relu4
I0520 18:13:42.982072 23162 net.cpp:106] Creating Layer relu4
I0520 18:13:42.982084 23162 net.cpp:454] relu4 <- conv4
I0520 18:13:42.982096 23162 net.cpp:397] relu4 -> conv4 (in-place)
I0520 18:13:42.982566 23162 net.cpp:150] Setting up relu4
I0520 18:13:42.982583 23162 net.cpp:157] Top shape: 70 36 6 42 (635040)
I0520 18:13:42.982594 23162 net.cpp:165] Memory required for data: 108991400
I0520 18:13:42.982604 23162 layer_factory.hpp:77] Creating layer pool4
I0520 18:13:42.982617 23162 net.cpp:106] Creating Layer pool4
I0520 18:13:42.982627 23162 net.cpp:454] pool4 <- conv4
I0520 18:13:42.982641 23162 net.cpp:411] pool4 -> pool4
I0520 18:13:42.982709 23162 net.cpp:150] Setting up pool4
I0520 18:13:42.982723 23162 net.cpp:157] Top shape: 70 36 3 42 (317520)
I0520 18:13:42.982733 23162 net.cpp:165] Memory required for data: 110261480
I0520 18:13:42.982745 23162 layer_factory.hpp:77] Creating layer ip1
I0520 18:13:42.982765 23162 net.cpp:106] Creating Layer ip1
I0520 18:13:42.982775 23162 net.cpp:454] ip1 <- pool4
I0520 18:13:42.982789 23162 net.cpp:411] ip1 -> ip1
I0520 18:13:42.998174 23162 net.cpp:150] Setting up ip1
I0520 18:13:42.998200 23162 net.cpp:157] Top shape: 70 196 (13720)
I0520 18:13:42.998214 23162 net.cpp:165] Memory required for data: 110316360
I0520 18:13:42.998241 23162 layer_factory.hpp:77] Creating layer relu5
I0520 18:13:42.998256 23162 net.cpp:106] Creating Layer relu5
I0520 18:13:42.998266 23162 net.cpp:454] relu5 <- ip1
I0520 18:13:42.998280 23162 net.cpp:397] relu5 -> ip1 (in-place)
I0520 18:13:42.998620 23162 net.cpp:150] Setting up relu5
I0520 18:13:42.998633 23162 net.cpp:157] Top shape: 70 196 (13720)
I0520 18:13:42.998643 23162 net.cpp:165] Memory required for data: 110371240
I0520 18:13:42.998654 23162 layer_factory.hpp:77] Creating layer drop1
I0520 18:13:42.998675 23162 net.cpp:106] Creating Layer drop1
I0520 18:13:42.998685 23162 net.cpp:454] drop1 <- ip1
I0520 18:13:42.998698 23162 net.cpp:397] drop1 -> ip1 (in-place)
I0520 18:13:42.998759 23162 net.cpp:150] Setting up drop1
I0520 18:13:42.998772 23162 net.cpp:157] Top shape: 70 196 (13720)
I0520 18:13:42.998782 23162 net.cpp:165] Memory required for data: 110426120
I0520 18:13:42.998792 23162 layer_factory.hpp:77] Creating layer ip2
I0520 18:13:42.998811 23162 net.cpp:106] Creating Layer ip2
I0520 18:13:42.998821 23162 net.cpp:454] ip2 <- ip1
I0520 18:13:42.998833 23162 net.cpp:411] ip2 -> ip2
I0520 18:13:42.999295 23162 net.cpp:150] Setting up ip2
I0520 18:13:42.999308 23162 net.cpp:157] Top shape: 70 98 (6860)
I0520 18:13:42.999318 23162 net.cpp:165] Memory required for data: 110453560
I0520 18:13:42.999333 23162 layer_factory.hpp:77] Creating layer relu6
I0520 18:13:42.999346 23162 net.cpp:106] Creating Layer relu6
I0520 18:13:42.999356 23162 net.cpp:454] relu6 <- ip2
I0520 18:13:42.999367 23162 net.cpp:397] relu6 -> ip2 (in-place)
I0520 18:13:42.999882 23162 net.cpp:150] Setting up relu6
I0520 18:13:42.999898 23162 net.cpp:157] Top shape: 70 98 (6860)
I0520 18:13:42.999909 23162 net.cpp:165] Memory required for data: 110481000
I0520 18:13:42.999919 23162 layer_factory.hpp:77] Creating layer drop2
I0520 18:13:42.999933 23162 net.cpp:106] Creating Layer drop2
I0520 18:13:42.999943 23162 net.cpp:454] drop2 <- ip2
I0520 18:13:42.999954 23162 net.cpp:397] drop2 -> ip2 (in-place)
I0520 18:13:42.999997 23162 net.cpp:150] Setting up drop2
I0520 18:13:43.000010 23162 net.cpp:157] Top shape: 70 98 (6860)
I0520 18:13:43.000020 23162 net.cpp:165] Memory required for data: 110508440
I0520 18:13:43.000030 23162 layer_factory.hpp:77] Creating layer ip3
I0520 18:13:43.000044 23162 net.cpp:106] Creating Layer ip3
I0520 18:13:43.000053 23162 net.cpp:454] ip3 <- ip2
I0520 18:13:43.000066 23162 net.cpp:411] ip3 -> ip3
I0520 18:13:43.000284 23162 net.cpp:150] Setting up ip3
I0520 18:13:43.000296 23162 net.cpp:157] Top shape: 70 11 (770)
I0520 18:13:43.000306 23162 net.cpp:165] Memory required for data: 110511520
I0520 18:13:43.000322 23162 layer_factory.hpp:77] Creating layer drop3
I0520 18:13:43.000334 23162 net.cpp:106] Creating Layer drop3
I0520 18:13:43.000344 23162 net.cpp:454] drop3 <- ip3
I0520 18:13:43.000356 23162 net.cpp:397] drop3 -> ip3 (in-place)
I0520 18:13:43.000396 23162 net.cpp:150] Setting up drop3
I0520 18:13:43.000409 23162 net.cpp:157] Top shape: 70 11 (770)
I0520 18:13:43.000421 23162 net.cpp:165] Memory required for data: 110514600
I0520 18:13:43.000429 23162 layer_factory.hpp:77] Creating layer loss
I0520 18:13:43.000448 23162 net.cpp:106] Creating Layer loss
I0520 18:13:43.000458 23162 net.cpp:454] loss <- ip3
I0520 18:13:43.000469 23162 net.cpp:454] loss <- label
I0520 18:13:43.000483 23162 net.cpp:411] loss -> loss
I0520 18:13:43.000499 23162 layer_factory.hpp:77] Creating layer loss
…
I0520 18:13:43.003305 23162 solver.cpp:181] Creating test net (#0) specified by net file: /lustre/atlas/proj-shared/hep105/caffe_titan/caffe_workflow/logs_bslr/bs_70_lr_0.0025_2016-05-20T15.49.14.146224.prototxt
I0520 18:13:43.003376 23162 net.cpp:322] The NetState phase (1) differed from the phase (0) specified by a rule in layer data_hdf5
I0520 18:13:43.003734 23162 net.cpp:49] Initializing net from parameters: 
name: "caffe_test_127x50_x_unshifted"
state {
  phase: TEST
}
layer {
  name: "data_hdf5"
  type: "HDF5Data"
  top: "data"
  top: "label"
  include {
    phase: TEST
  }
  hdf5_data_param {
    source: "/lustre/atlas/proj-shared/hep105/caffe_titan/minosmatch_nukecczdefs_127x50_x_unshifted_me1Bmc.testlist"
    batch_size: 70
  }
}
layer {
  name: "conv1"
  type: "Convolution"
  bottom: "data"
  top: "conv1"
  convolution_param {
    num_output: 12
    pad: 0
    stride: 1
    weight_filler {
      type: "xavier"
    }
    bias_filler {
      type: "constant"
    }
    kernel_h: 8
    kernel_w: 3
  }
}
layer {
  name: "relu1"
  type: "ReLU"
  bottom: "conv1"
  top: "conv1"
}
layer {
  name: "pool1"
  type: "Pooling"
  bottom: "conv1"
  top: "pool1"
  pooling_param {
    pool: MAX
    kernel_h: 2
    kernel_w: 1
    stride_h: 2
    stride_w: 1
  }
}
layer {
  name: "conv2"
  type: "Convolution"
  bottom: "pool1"
  top: "conv2"
  convolution_param {
    num_output: 20
    pad: 0
    stride: 1
    weight_filler {
      type: "xavier"
    }
    bias_filler {
      type: "constant"
    }
    kernel_h: 7
    kernel_w: 3
  }
}
layer {
  name: "relu2"
  type: "ReLU"
  bottom: "conv2"
  top: "conv2"
}
layer {
  name: "pool2"
  type: "Pooling"
  bottom: "conv2"
  top: "pool2"
  pooling_param {
    pool: MAX
    kernel_h: 2
    kernel_w: 1
    stride_h: 2
    stride_w: 1
  }
}
layer {
  name: "conv3"
  type: "Convolution"
  bottom: "pool2"
  top: "conv3"
  convolution_param {
    num_output: 28
    pad: 0
    stride: 1
    weight_filler {
      type: "xavier"
    }
    bias_filler {
      type: "constant"
    }
    kernel_h: 6
    kernel_w: 3
  }
}
layer {
  name: "relu3"
  type: "ReLU"
  bottom: "conv3"
  top: "conv3"
}
layer {
  name: "pool3"
  type: "Pooling"
  bottom: "conv3"
  top: "pool3"
  pooling_param {
    pool: MAX
    kernel_h: 2
    kernel_w: 1
    stride_h: 2
    stride_w: 1
  }
}
layer {
  name: "conv4"
  type: "Convolution"
  bottom: "pool3"
  top: "conv4"
  convolution_param {
    num_output: 36
    pad: 0
    stride: 1
    weight_filler {
      type: "xavier"
    }
    bias_filler {
      type: "constant"
    }
    kernel_h: 6
    kernel_w: 3
  }
}
layer {
  name: "relu4"
  type: "ReLU"
  bottom: "conv4"
  top: "conv4"
}
layer {
  name: "pool4"
  type: "Pooling"
  bottom: "conv4"
  top: "pool4"
  pooling_param {
    pool: MAX
    kernel_h: 2
    kernel_w: 1
    stride_h: 2
    stride_w: 1
  }
}
layer {
  name: "ip1"
  type: "InnerProduct"
  bottom: "pool4"
  top: "ip1"
  inner_product_param {
    num_output: 196
    weight_filler {
      type: "xavier"
    }
    bias_filler {
      type: "constant"
    }
  }
}
layer {
  name: "relu5"
  type: "ReLU"
  bottom: "ip1"
  top: "ip1"
}
layer {
  name: "drop1"
  type: "Dropout"
  bottom: "ip1"
  top: "ip1"
  dropout_param {
    dropout_ratio: 0.5
  }
}
layer {
  name: "ip2"
  type: "InnerProduct"
  bottom: "ip1"
  top: "ip2"
  inner_product_param {
    num_output: 98
    weight_filler {
      type: "xavier"
    }
    bias_filler {
      type: "constant"
    }
  }
}
layer {
  name: "relu6"
  type: "ReLU"
  bottom: "ip2"
  top: "ip2"
}
layer {
  name: "drop2"
  type: "Dropout"
  bottom: "ip2"
  top: "ip2"
  dropout_param {
    dropout_ratio: 0.5
  }
}
layer {
  name: "ip3"
  type: "InnerProduct"
  bottom: "ip2"
  top: "ip3"
  inner_product_param {
    num_output: 11
    weight_filler {
      type: "xavier"
    }
    bias_filler {
      type: "constant"
    }
  }
}
layer {
  name: "drop3"
  type: "Dropout"
  bottom: "ip3"
  top: "ip3"
  dropout_param {
    dropout_ratio: 0.5
  }
}
layer {
  name: "accuracy"
  type: "Accuracy"
  bottom: "ip3"
  bottom: "label"
  top: "accuracy"
  include {
    phase: TEST
  }
}
layer {
  name: "loss"
  type: "SoftmaxWithLoss"
  bottom: "ip3"
  bottom: "label"
  top: "loss"
}
I0520 18:13:43.003921 23162 layer_factory.hpp:77] Creating layer data_hdf5
I0520 18:13:43.003937 23162 net.cpp:106] Creating Layer data_hdf5
I0520 18:13:43.003949 23162 net.cpp:411] data_hdf5 -> data
I0520 18:13:43.003965 23162 net.cpp:411] data_hdf5 -> label
I0520 18:13:43.003981 23162 hdf5_data_layer.cpp:79] Loading list of HDF5 filenames from: /lustre/atlas/proj-shared/hep105/caffe_titan/minosmatch_nukecczdefs_127x50_x_unshifted_me1Bmc.testlist
I0520 18:13:43.011852 23162 hdf5_data_layer.cpp:93] Number of HDF5 files: 3
I0520 18:14:04.396180 23162 net.cpp:150] Setting up data_hdf5
I0520 18:14:04.396356 23162 net.cpp:157] Top shape: 70 1 127 50 (444500)
I0520 18:14:04.396371 23162 net.cpp:157] Top shape: 70 (70)
I0520 18:14:04.396383 23162 net.cpp:165] Memory required for data: 1778280
I0520 18:14:04.396396 23162 layer_factory.hpp:77] Creating layer label_data_hdf5_1_split
I0520 18:14:04.396423 23162 net.cpp:106] Creating Layer label_data_hdf5_1_split
I0520 18:14:04.396435 23162 net.cpp:454] label_data_hdf5_1_split <- label
I0520 18:14:04.396450 23162 net.cpp:411] label_data_hdf5_1_split -> label_data_hdf5_1_split_0
I0520 18:14:04.396471 23162 net.cpp:411] label_data_hdf5_1_split -> label_data_hdf5_1_split_1
I0520 18:14:04.396543 23162 net.cpp:150] Setting up label_data_hdf5_1_split
I0520 18:14:04.396558 23162 net.cpp:157] Top shape: 70 (70)
I0520 18:14:04.396569 23162 net.cpp:157] Top shape: 70 (70)
I0520 18:14:04.396579 23162 net.cpp:165] Memory required for data: 1778840
I0520 18:14:04.396589 23162 layer_factory.hpp:77] Creating layer conv1
I0520 18:14:04.396611 23162 net.cpp:106] Creating Layer conv1
I0520 18:14:04.396621 23162 net.cpp:454] conv1 <- data
I0520 18:14:04.396636 23162 net.cpp:411] conv1 -> conv1
I0520 18:14:04.398547 23162 net.cpp:150] Setting up conv1
I0520 18:14:04.398566 23162 net.cpp:157] Top shape: 70 12 120 48 (4838400)
I0520 18:14:04.398581 23162 net.cpp:165] Memory required for data: 21132440
I0520 18:14:04.398602 23162 layer_factory.hpp:77] Creating layer relu1
I0520 18:14:04.398617 23162 net.cpp:106] Creating Layer relu1
I0520 18:14:04.398627 23162 net.cpp:454] relu1 <- conv1
I0520 18:14:04.398640 23162 net.cpp:397] relu1 -> conv1 (in-place)
I0520 18:14:04.399137 23162 net.cpp:150] Setting up relu1
I0520 18:14:04.399153 23162 net.cpp:157] Top shape: 70 12 120 48 (4838400)
I0520 18:14:04.399163 23162 net.cpp:165] Memory required for data: 40486040
I0520 18:14:04.399174 23162 layer_factory.hpp:77] Creating layer pool1
I0520 18:14:04.399190 23162 net.cpp:106] Creating Layer pool1
I0520 18:14:04.399200 23162 net.cpp:454] pool1 <- conv1
I0520 18:14:04.399214 23162 net.cpp:411] pool1 -> pool1
I0520 18:14:04.399287 23162 net.cpp:150] Setting up pool1
I0520 18:14:04.399301 23162 net.cpp:157] Top shape: 70 12 60 48 (2419200)
I0520 18:14:04.399310 23162 net.cpp:165] Memory required for data: 50162840
I0520 18:14:04.399323 23162 layer_factory.hpp:77] Creating layer conv2
I0520 18:14:04.399340 23162 net.cpp:106] Creating Layer conv2
I0520 18:14:04.399351 23162 net.cpp:454] conv2 <- pool1
I0520 18:14:04.399365 23162 net.cpp:411] conv2 -> conv2
I0520 18:14:04.401283 23162 net.cpp:150] Setting up conv2
I0520 18:14:04.401305 23162 net.cpp:157] Top shape: 70 20 54 46 (3477600)
I0520 18:14:04.401319 23162 net.cpp:165] Memory required for data: 64073240
I0520 18:14:04.401336 23162 layer_factory.hpp:77] Creating layer relu2
I0520 18:14:04.401350 23162 net.cpp:106] Creating Layer relu2
I0520 18:14:04.401360 23162 net.cpp:454] relu2 <- conv2
I0520 18:14:04.401372 23162 net.cpp:397] relu2 -> conv2 (in-place)
I0520 18:14:04.401703 23162 net.cpp:150] Setting up relu2
I0520 18:14:04.401716 23162 net.cpp:157] Top shape: 70 20 54 46 (3477600)
I0520 18:14:04.401727 23162 net.cpp:165] Memory required for data: 77983640
I0520 18:14:04.401737 23162 layer_factory.hpp:77] Creating layer pool2
I0520 18:14:04.401751 23162 net.cpp:106] Creating Layer pool2
I0520 18:14:04.401762 23162 net.cpp:454] pool2 <- conv2
I0520 18:14:04.401773 23162 net.cpp:411] pool2 -> pool2
I0520 18:14:04.401845 23162 net.cpp:150] Setting up pool2
I0520 18:14:04.401859 23162 net.cpp:157] Top shape: 70 20 27 46 (1738800)
I0520 18:14:04.401867 23162 net.cpp:165] Memory required for data: 84938840
I0520 18:14:04.401877 23162 layer_factory.hpp:77] Creating layer conv3
I0520 18:14:04.401896 23162 net.cpp:106] Creating Layer conv3
I0520 18:14:04.401906 23162 net.cpp:454] conv3 <- pool2
I0520 18:14:04.401921 23162 net.cpp:411] conv3 -> conv3
I0520 18:14:04.403892 23162 net.cpp:150] Setting up conv3
I0520 18:14:04.403914 23162 net.cpp:157] Top shape: 70 28 22 44 (1897280)
I0520 18:14:04.403926 23162 net.cpp:165] Memory required for data: 92527960
I0520 18:14:04.403959 23162 layer_factory.hpp:77] Creating layer relu3
I0520 18:14:04.403972 23162 net.cpp:106] Creating Layer relu3
I0520 18:14:04.403982 23162 net.cpp:454] relu3 <- conv3
I0520 18:14:04.403995 23162 net.cpp:397] relu3 -> conv3 (in-place)
I0520 18:14:04.404472 23162 net.cpp:150] Setting up relu3
I0520 18:14:04.404489 23162 net.cpp:157] Top shape: 70 28 22 44 (1897280)
I0520 18:14:04.404500 23162 net.cpp:165] Memory required for data: 100117080
I0520 18:14:04.404510 23162 layer_factory.hpp:77] Creating layer pool3
I0520 18:14:04.404522 23162 net.cpp:106] Creating Layer pool3
I0520 18:14:04.404532 23162 net.cpp:454] pool3 <- conv3
I0520 18:14:04.404546 23162 net.cpp:411] pool3 -> pool3
I0520 18:14:04.404618 23162 net.cpp:150] Setting up pool3
I0520 18:14:04.404633 23162 net.cpp:157] Top shape: 70 28 11 44 (948640)
I0520 18:14:04.404641 23162 net.cpp:165] Memory required for data: 103911640
I0520 18:14:04.404649 23162 layer_factory.hpp:77] Creating layer conv4
I0520 18:14:04.404667 23162 net.cpp:106] Creating Layer conv4
I0520 18:14:04.404678 23162 net.cpp:454] conv4 <- pool3
I0520 18:14:04.404693 23162 net.cpp:411] conv4 -> conv4
I0520 18:14:04.406751 23162 net.cpp:150] Setting up conv4
I0520 18:14:04.406774 23162 net.cpp:157] Top shape: 70 36 6 42 (635040)
I0520 18:14:04.406786 23162 net.cpp:165] Memory required for data: 106451800
I0520 18:14:04.406801 23162 layer_factory.hpp:77] Creating layer relu4
I0520 18:14:04.406815 23162 net.cpp:106] Creating Layer relu4
I0520 18:14:04.406824 23162 net.cpp:454] relu4 <- conv4
I0520 18:14:04.406837 23162 net.cpp:397] relu4 -> conv4 (in-place)
I0520 18:14:04.407306 23162 net.cpp:150] Setting up relu4
I0520 18:14:04.407322 23162 net.cpp:157] Top shape: 70 36 6 42 (635040)
I0520 18:14:04.407332 23162 net.cpp:165] Memory required for data: 108991960
I0520 18:14:04.407342 23162 layer_factory.hpp:77] Creating layer pool4
I0520 18:14:04.407356 23162 net.cpp:106] Creating Layer pool4
I0520 18:14:04.407366 23162 net.cpp:454] pool4 <- conv4
I0520 18:14:04.407378 23162 net.cpp:411] pool4 -> pool4
I0520 18:14:04.407449 23162 net.cpp:150] Setting up pool4
I0520 18:14:04.407462 23162 net.cpp:157] Top shape: 70 36 3 42 (317520)
I0520 18:14:04.407472 23162 net.cpp:165] Memory required for data: 110262040
I0520 18:14:04.407482 23162 layer_factory.hpp:77] Creating layer ip1
I0520 18:14:04.407498 23162 net.cpp:106] Creating Layer ip1
I0520 18:14:04.407508 23162 net.cpp:454] ip1 <- pool4
I0520 18:14:04.407522 23162 net.cpp:411] ip1 -> ip1
I0520 18:14:04.422969 23162 net.cpp:150] Setting up ip1
I0520 18:14:04.422997 23162 net.cpp:157] Top shape: 70 196 (13720)
I0520 18:14:04.423008 23162 net.cpp:165] Memory required for data: 110316920
I0520 18:14:04.423032 23162 layer_factory.hpp:77] Creating layer relu5
I0520 18:14:04.423046 23162 net.cpp:106] Creating Layer relu5
I0520 18:14:04.423058 23162 net.cpp:454] relu5 <- ip1
I0520 18:14:04.423070 23162 net.cpp:397] relu5 -> ip1 (in-place)
I0520 18:14:04.423416 23162 net.cpp:150] Setting up relu5
I0520 18:14:04.423430 23162 net.cpp:157] Top shape: 70 196 (13720)
I0520 18:14:04.423440 23162 net.cpp:165] Memory required for data: 110371800
I0520 18:14:04.423450 23162 layer_factory.hpp:77] Creating layer drop1
I0520 18:14:04.423470 23162 net.cpp:106] Creating Layer drop1
I0520 18:14:04.423480 23162 net.cpp:454] drop1 <- ip1
I0520 18:14:04.423493 23162 net.cpp:397] drop1 -> ip1 (in-place)
I0520 18:14:04.423540 23162 net.cpp:150] Setting up drop1
I0520 18:14:04.423554 23162 net.cpp:157] Top shape: 70 196 (13720)
I0520 18:14:04.423564 23162 net.cpp:165] Memory required for data: 110426680
I0520 18:14:04.423574 23162 layer_factory.hpp:77] Creating layer ip2
I0520 18:14:04.423588 23162 net.cpp:106] Creating Layer ip2
I0520 18:14:04.423599 23162 net.cpp:454] ip2 <- ip1
I0520 18:14:04.423610 23162 net.cpp:411] ip2 -> ip2
I0520 18:14:04.424090 23162 net.cpp:150] Setting up ip2
I0520 18:14:04.424103 23162 net.cpp:157] Top shape: 70 98 (6860)
I0520 18:14:04.424113 23162 net.cpp:165] Memory required for data: 110454120
I0520 18:14:04.424129 23162 layer_factory.hpp:77] Creating layer relu6
I0520 18:14:04.424155 23162 net.cpp:106] Creating Layer relu6
I0520 18:14:04.424165 23162 net.cpp:454] relu6 <- ip2
I0520 18:14:04.424178 23162 net.cpp:397] relu6 -> ip2 (in-place)
I0520 18:14:04.424715 23162 net.cpp:150] Setting up relu6
I0520 18:14:04.424737 23162 net.cpp:157] Top shape: 70 98 (6860)
I0520 18:14:04.424747 23162 net.cpp:165] Memory required for data: 110481560
I0520 18:14:04.424757 23162 layer_factory.hpp:77] Creating layer drop2
I0520 18:14:04.424772 23162 net.cpp:106] Creating Layer drop2
I0520 18:14:04.424782 23162 net.cpp:454] drop2 <- ip2
I0520 18:14:04.424795 23162 net.cpp:397] drop2 -> ip2 (in-place)
I0520 18:14:04.424840 23162 net.cpp:150] Setting up drop2
I0520 18:14:04.424854 23162 net.cpp:157] Top shape: 70 98 (6860)
I0520 18:14:04.424863 23162 net.cpp:165] Memory required for data: 110509000
I0520 18:14:04.424872 23162 layer_factory.hpp:77] Creating layer ip3
I0520 18:14:04.424887 23162 net.cpp:106] Creating Layer ip3
I0520 18:14:04.424896 23162 net.cpp:454] ip3 <- ip2
I0520 18:14:04.424911 23162 net.cpp:411] ip3 -> ip3
I0520 18:14:04.425133 23162 net.cpp:150] Setting up ip3
I0520 18:14:04.425146 23162 net.cpp:157] Top shape: 70 11 (770)
I0520 18:14:04.425156 23162 net.cpp:165] Memory required for data: 110512080
I0520 18:14:04.425171 23162 layer_factory.hpp:77] Creating layer drop3
I0520 18:14:04.425184 23162 net.cpp:106] Creating Layer drop3
I0520 18:14:04.425194 23162 net.cpp:454] drop3 <- ip3
I0520 18:14:04.425207 23162 net.cpp:397] drop3 -> ip3 (in-place)
I0520 18:14:04.425249 23162 net.cpp:150] Setting up drop3
I0520 18:14:04.425262 23162 net.cpp:157] Top shape: 70 11 (770)
I0520 18:14:04.425272 23162 net.cpp:165] Memory required for data: 110515160
I0520 18:14:04.425282 23162 layer_factory.hpp:77] Creating layer ip3_drop3_0_split
I0520 18:14:04.425295 23162 net.cpp:106] Creating Layer ip3_drop3_0_split
I0520 18:14:04.425304 23162 net.cpp:454] ip3_drop3_0_split <- ip3
I0520 18:14:04.425318 23162 net.cpp:411] ip3_drop3_0_split -> ip3_drop3_0_split_0
I0520 18:14:04.425333 23162 net.cpp:411] ip3_drop3_0_split -> ip3_drop3_0_split_1
I0520 18:14:04.425406 23162 net.cpp:150] Setting up ip3_drop3_0_split
I0520 18:14:04.425420 23162 net.cpp:157] Top shape: 70 11 (770)
I0520 18:14:04.425432 23162 net.cpp:157] Top shape: 70 11 (770)
I0520 18:14:04.425442 23162 net.cpp:165] Memory required for data: 110521320
I0520 18:14:04.425452 23162 layer_factory.hpp:77] Creating layer accuracy
I0520 18:14:04.425473 23162 net.cpp:106] Creating Layer accuracy
I0520 18:14:04.425483 23162 net.cpp:454] accuracy <- ip3_drop3_0_split_0
I0520 18:14:04.425495 23162 net.cpp:454] accuracy <- label_data_hdf5_1_split_0
I0520 18:14:04.425508 23162 net.cpp:411] accuracy -> accuracy
…
