…
I0523 22:01:58.830641 23120 net.cpp:322] The NetState phase (0) differed from the phase (1) specified by a rule in layer data_hdf5
I0523 22:01:58.830701 23120 net.cpp:322] The NetState phase (0) differed from the phase (1) specified by a rule in layer accuracy
I0523 22:01:58.831050 23120 net.cpp:49] Initializing net from parameters: 
name: "caffe_test_127x50_x_unshifted"
state {
  phase: TRAIN
}
layer {
  name: "data_hdf5"
  type: "HDF5Data"
  top: "data"
  top: "label"
  include {
    phase: TRAIN
  }
  hdf5_data_param {
    source: "/lustre/atlas/proj-shared/hep105/caffe_titan/minosmatch_nukecczdefs_127x50_x_unshifted_me1Bmc.trainlist"
    batch_size: 70
  }
}
layer {
  name: "conv1"
  type: "Convolution"
  bottom: "data"
  top: "conv1"
  convolution_param {
    num_output: 12
    pad: 0
    stride: 1
    weight_filler {
      type: "xavier"
    }
    bias_filler {
      type: "constant"
    }
    kernel_h: 8
    kernel_w: 3
  }
}
layer {
  name: "relu1"
  type: "ReLU"
  bottom: "conv1"
  top: "conv1"
}
layer {
  name: "pool1"
  type: "Pooling"
  bottom: "conv1"
  top: "pool1"
  pooling_param {
    pool: MAX
    kernel_h: 2
    kernel_w: 1
    stride_h: 2
    stride_w: 1
  }
}
layer {
  name: "conv2"
  type: "Convolution"
  bottom: "pool1"
  top: "conv2"
  convolution_param {
    num_output: 20
    pad: 0
    stride: 1
    weight_filler {
      type: "xavier"
    }
    bias_filler {
      type: "constant"
    }
    kernel_h: 7
    kernel_w: 3
  }
}
layer {
  name: "relu2"
  type: "ReLU"
  bottom: "conv2"
  top: "conv2"
}
layer {
  name: "pool2"
  type: "Pooling"
  bottom: "conv2"
  top: "pool2"
  pooling_param {
    pool: MAX
    kernel_h: 2
    kernel_w: 1
    stride_h: 2
    stride_w: 1
  }
}
layer {
  name: "conv3"
  type: "Convolution"
  bottom: "pool2"
  top: "conv3"
  convolution_param {
    num_output: 28
    pad: 0
    stride: 1
    weight_filler {
      type: "xavier"
    }
    bias_filler {
      type: "constant"
    }
    kernel_h: 6
    kernel_w: 3
  }
}
layer {
  name: "relu3"
  type: "ReLU"
  bottom: "conv3"
  top: "conv3"
}
layer {
  name: "pool3"
  type: "Pooling"
  bottom: "conv3"
  top: "pool3"
  pooling_param {
    pool: MAX
    kernel_h: 2
    kernel_w: 1
    stride_h: 2
    stride_w: 1
  }
}
layer {
  name: "conv4"
  type: "Convolution"
  bottom: "pool3"
  top: "conv4"
  convolution_param {
    num_output: 36
    pad: 0
    stride: 1
    weight_filler {
      type: "xavier"
    }
    bias_filler {
      type: "constant"
    }
    kernel_h: 6
    kernel_w: 3
  }
}
layer {
  name: "relu4"
  type: "ReLU"
  bottom: "conv4"
  top: "conv4"
}
layer {
  name: "pool4"
  type: "Pooling"
  bottom: "conv4"
  top: "pool4"
  pooling_param {
    pool: MAX
    kernel_h: 2
    kernel_w: 1
    stride_h: 2
    stride_w: 1
  }
}
layer {
  name: "ip1"
  type: "InnerProduct"
  bottom: "pool4"
  top: "ip1"
  inner_product_param {
    num_output: 196
    weight_filler {
      type: "xavier"
    }
    bias_filler {
      type: "constant"
    }
  }
}
layer {
  name: "relu5"
  type: "ReLU"
  bottom: "ip1"
  top: "ip1"
}
layer {
  name: "drop1"
  type: "Dropout"
  bottom: "ip1"
  top: "ip1"
  dropout_param {
    dropout_ratio: 0.5
  }
}
layer {
  name: "ip2"
  type: "InnerProduct"
  bottom: "ip1"
  top: "ip2"
  inner_product_param {
    num_output: 98
    weight_filler {
      type: "xavier"
    }
    bias_filler {
      type: "constant"
    }
  }
}
layer {
  name: "relu6"
  type: "ReLU"
  bottom: "ip2"
  top: "ip2"
}
layer {
  name: "drop2"
  type: "Dropout"
  bottom: "ip2"
  top: "ip2"
  dropout_param {
    dropout_ratio: 0.5
  }
}
layer {
  name: "ip3"
  type: "InnerProduct"
  bottom: "ip2"
  top: "ip3"
  inner_product_param {
    num_output: 11
    weight_filler {
      type: "xavier"
    }
    bias_filler {
      type: "constant"
    }
  }
}
layer {
  name: "drop3"
  type: "Dropout"
  bottom: "ip3"
  top: "ip3"
  dropout_param {
    dropout_ratio: 0.5
  }
}
layer {
  name: "loss"
  type: "SoftmaxWithLoss"
  bottom: "ip3"
  bottom: "label"
  top: "loss"
}
I0523 22:01:58.831230 23120 layer_factory.hpp:77] Creating layer data_hdf5
I0523 22:01:58.831255 23120 net.cpp:106] Creating Layer data_hdf5
I0523 22:01:58.831269 23120 net.cpp:411] data_hdf5 -> data
I0523 22:01:58.831303 23120 net.cpp:411] data_hdf5 -> label
I0523 22:01:58.831336 23120 hdf5_data_layer.cpp:79] Loading list of HDF5 filenames from: /lustre/atlas/proj-shared/hep105/caffe_titan/minosmatch_nukecczdefs_127x50_x_unshifted_me1Bmc.trainlist
I0523 22:01:58.841480 23120 hdf5_data_layer.cpp:93] Number of HDF5 files: 15
I0523 22:01:58.850502 23120 hdf5.cpp:32] Datatype class: H5T_FLOAT
I0523 22:02:20.413781 23120 hdf5.cpp:35] Datatype class: H5T_INTEGER
I0523 22:02:20.418992 23120 net.cpp:150] Setting up data_hdf5
I0523 22:02:20.419036 23120 net.cpp:157] Top shape: 70 1 127 50 (444500)
I0523 22:02:20.419050 23120 net.cpp:157] Top shape: 70 (70)
I0523 22:02:20.419060 23120 net.cpp:165] Memory required for data: 1778280
I0523 22:02:20.419073 23120 layer_factory.hpp:77] Creating layer conv1
I0523 22:02:20.419107 23120 net.cpp:106] Creating Layer conv1
I0523 22:02:20.419119 23120 net.cpp:454] conv1 <- data
I0523 22:02:20.419142 23120 net.cpp:411] conv1 -> conv1
I0523 22:02:23.250339 23120 net.cpp:150] Setting up conv1
I0523 22:02:23.250386 23120 net.cpp:157] Top shape: 70 12 120 48 (4838400)
I0523 22:02:23.250397 23120 net.cpp:165] Memory required for data: 21131880
I0523 22:02:23.250425 23120 layer_factory.hpp:77] Creating layer relu1
I0523 22:02:23.250447 23120 net.cpp:106] Creating Layer relu1
I0523 22:02:23.250458 23120 net.cpp:454] relu1 <- conv1
I0523 22:02:23.250471 23120 net.cpp:397] relu1 -> conv1 (in-place)
I0523 22:02:23.250988 23120 net.cpp:150] Setting up relu1
I0523 22:02:23.251003 23120 net.cpp:157] Top shape: 70 12 120 48 (4838400)
I0523 22:02:23.251014 23120 net.cpp:165] Memory required for data: 40485480
I0523 22:02:23.251025 23120 layer_factory.hpp:77] Creating layer pool1
I0523 22:02:23.251042 23120 net.cpp:106] Creating Layer pool1
I0523 22:02:23.251051 23120 net.cpp:454] pool1 <- conv1
I0523 22:02:23.251065 23120 net.cpp:411] pool1 -> pool1
I0523 22:02:23.251145 23120 net.cpp:150] Setting up pool1
I0523 22:02:23.251160 23120 net.cpp:157] Top shape: 70 12 60 48 (2419200)
I0523 22:02:23.251169 23120 net.cpp:165] Memory required for data: 50162280
I0523 22:02:23.251180 23120 layer_factory.hpp:77] Creating layer conv2
I0523 22:02:23.251202 23120 net.cpp:106] Creating Layer conv2
I0523 22:02:23.251219 23120 net.cpp:454] conv2 <- pool1
I0523 22:02:23.251230 23120 net.cpp:411] conv2 -> conv2
I0523 22:02:23.253979 23120 net.cpp:150] Setting up conv2
I0523 22:02:23.254007 23120 net.cpp:157] Top shape: 70 20 54 46 (3477600)
I0523 22:02:23.254019 23120 net.cpp:165] Memory required for data: 64072680
I0523 22:02:23.254037 23120 layer_factory.hpp:77] Creating layer relu2
I0523 22:02:23.254051 23120 net.cpp:106] Creating Layer relu2
I0523 22:02:23.254061 23120 net.cpp:454] relu2 <- conv2
I0523 22:02:23.254075 23120 net.cpp:397] relu2 -> conv2 (in-place)
I0523 22:02:23.254405 23120 net.cpp:150] Setting up relu2
I0523 22:02:23.254420 23120 net.cpp:157] Top shape: 70 20 54 46 (3477600)
I0523 22:02:23.254429 23120 net.cpp:165] Memory required for data: 77983080
I0523 22:02:23.254439 23120 layer_factory.hpp:77] Creating layer pool2
I0523 22:02:23.254452 23120 net.cpp:106] Creating Layer pool2
I0523 22:02:23.254462 23120 net.cpp:454] pool2 <- conv2
I0523 22:02:23.254474 23120 net.cpp:411] pool2 -> pool2
I0523 22:02:23.254556 23120 net.cpp:150] Setting up pool2
I0523 22:02:23.254570 23120 net.cpp:157] Top shape: 70 20 27 46 (1738800)
I0523 22:02:23.254580 23120 net.cpp:165] Memory required for data: 84938280
I0523 22:02:23.254590 23120 layer_factory.hpp:77] Creating layer conv3
I0523 22:02:23.254606 23120 net.cpp:106] Creating Layer conv3
I0523 22:02:23.254616 23120 net.cpp:454] conv3 <- pool2
I0523 22:02:23.254628 23120 net.cpp:411] conv3 -> conv3
I0523 22:02:23.256548 23120 net.cpp:150] Setting up conv3
I0523 22:02:23.256572 23120 net.cpp:157] Top shape: 70 28 22 44 (1897280)
I0523 22:02:23.256583 23120 net.cpp:165] Memory required for data: 92527400
I0523 22:02:23.256603 23120 layer_factory.hpp:77] Creating layer relu3
I0523 22:02:23.256618 23120 net.cpp:106] Creating Layer relu3
I0523 22:02:23.256628 23120 net.cpp:454] relu3 <- conv3
I0523 22:02:23.256640 23120 net.cpp:397] relu3 -> conv3 (in-place)
I0523 22:02:23.257107 23120 net.cpp:150] Setting up relu3
I0523 22:02:23.257125 23120 net.cpp:157] Top shape: 70 28 22 44 (1897280)
I0523 22:02:23.257135 23120 net.cpp:165] Memory required for data: 100116520
I0523 22:02:23.257146 23120 layer_factory.hpp:77] Creating layer pool3
I0523 22:02:23.257159 23120 net.cpp:106] Creating Layer pool3
I0523 22:02:23.257169 23120 net.cpp:454] pool3 <- conv3
I0523 22:02:23.257181 23120 net.cpp:411] pool3 -> pool3
I0523 22:02:23.257249 23120 net.cpp:150] Setting up pool3
I0523 22:02:23.257262 23120 net.cpp:157] Top shape: 70 28 11 44 (948640)
I0523 22:02:23.257272 23120 net.cpp:165] Memory required for data: 103911080
I0523 22:02:23.257282 23120 layer_factory.hpp:77] Creating layer conv4
I0523 22:02:23.257297 23120 net.cpp:106] Creating Layer conv4
I0523 22:02:23.257308 23120 net.cpp:454] conv4 <- pool3
I0523 22:02:23.257321 23120 net.cpp:411] conv4 -> conv4
I0523 22:02:23.260123 23120 net.cpp:150] Setting up conv4
I0523 22:02:23.260152 23120 net.cpp:157] Top shape: 70 36 6 42 (635040)
I0523 22:02:23.260162 23120 net.cpp:165] Memory required for data: 106451240
I0523 22:02:23.260179 23120 layer_factory.hpp:77] Creating layer relu4
I0523 22:02:23.260192 23120 net.cpp:106] Creating Layer relu4
I0523 22:02:23.260202 23120 net.cpp:454] relu4 <- conv4
I0523 22:02:23.260215 23120 net.cpp:397] relu4 -> conv4 (in-place)
I0523 22:02:23.260694 23120 net.cpp:150] Setting up relu4
I0523 22:02:23.260710 23120 net.cpp:157] Top shape: 70 36 6 42 (635040)
I0523 22:02:23.260720 23120 net.cpp:165] Memory required for data: 108991400
I0523 22:02:23.260731 23120 layer_factory.hpp:77] Creating layer pool4
I0523 22:02:23.260745 23120 net.cpp:106] Creating Layer pool4
I0523 22:02:23.260754 23120 net.cpp:454] pool4 <- conv4
I0523 22:02:23.260767 23120 net.cpp:411] pool4 -> pool4
I0523 22:02:23.260835 23120 net.cpp:150] Setting up pool4
I0523 22:02:23.260848 23120 net.cpp:157] Top shape: 70 36 3 42 (317520)
I0523 22:02:23.260859 23120 net.cpp:165] Memory required for data: 110261480
I0523 22:02:23.260869 23120 layer_factory.hpp:77] Creating layer ip1
I0523 22:02:23.260890 23120 net.cpp:106] Creating Layer ip1
I0523 22:02:23.260900 23120 net.cpp:454] ip1 <- pool4
I0523 22:02:23.260913 23120 net.cpp:411] ip1 -> ip1
I0523 22:02:23.276350 23120 net.cpp:150] Setting up ip1
I0523 22:02:23.276379 23120 net.cpp:157] Top shape: 70 196 (13720)
I0523 22:02:23.276391 23120 net.cpp:165] Memory required for data: 110316360
I0523 22:02:23.276413 23120 layer_factory.hpp:77] Creating layer relu5
I0523 22:02:23.276428 23120 net.cpp:106] Creating Layer relu5
I0523 22:02:23.276438 23120 net.cpp:454] relu5 <- ip1
I0523 22:02:23.276451 23120 net.cpp:397] relu5 -> ip1 (in-place)
I0523 22:02:23.276793 23120 net.cpp:150] Setting up relu5
I0523 22:02:23.276808 23120 net.cpp:157] Top shape: 70 196 (13720)
I0523 22:02:23.276818 23120 net.cpp:165] Memory required for data: 110371240
I0523 22:02:23.276829 23120 layer_factory.hpp:77] Creating layer drop1
I0523 22:02:23.276850 23120 net.cpp:106] Creating Layer drop1
I0523 22:02:23.276860 23120 net.cpp:454] drop1 <- ip1
I0523 22:02:23.276872 23120 net.cpp:397] drop1 -> ip1 (in-place)
I0523 22:02:23.276934 23120 net.cpp:150] Setting up drop1
I0523 22:02:23.276947 23120 net.cpp:157] Top shape: 70 196 (13720)
I0523 22:02:23.276957 23120 net.cpp:165] Memory required for data: 110426120
I0523 22:02:23.276968 23120 layer_factory.hpp:77] Creating layer ip2
I0523 22:02:23.276986 23120 net.cpp:106] Creating Layer ip2
I0523 22:02:23.276996 23120 net.cpp:454] ip2 <- ip1
I0523 22:02:23.277009 23120 net.cpp:411] ip2 -> ip2
I0523 22:02:23.277470 23120 net.cpp:150] Setting up ip2
I0523 22:02:23.277482 23120 net.cpp:157] Top shape: 70 98 (6860)
I0523 22:02:23.277493 23120 net.cpp:165] Memory required for data: 110453560
I0523 22:02:23.277508 23120 layer_factory.hpp:77] Creating layer relu6
I0523 22:02:23.277519 23120 net.cpp:106] Creating Layer relu6
I0523 22:02:23.277529 23120 net.cpp:454] relu6 <- ip2
I0523 22:02:23.277541 23120 net.cpp:397] relu6 -> ip2 (in-place)
I0523 22:02:23.278069 23120 net.cpp:150] Setting up relu6
I0523 22:02:23.278085 23120 net.cpp:157] Top shape: 70 98 (6860)
I0523 22:02:23.278096 23120 net.cpp:165] Memory required for data: 110481000
I0523 22:02:23.278107 23120 layer_factory.hpp:77] Creating layer drop2
I0523 22:02:23.278120 23120 net.cpp:106] Creating Layer drop2
I0523 22:02:23.278131 23120 net.cpp:454] drop2 <- ip2
I0523 22:02:23.278142 23120 net.cpp:397] drop2 -> ip2 (in-place)
I0523 22:02:23.278185 23120 net.cpp:150] Setting up drop2
I0523 22:02:23.278198 23120 net.cpp:157] Top shape: 70 98 (6860)
I0523 22:02:23.278209 23120 net.cpp:165] Memory required for data: 110508440
I0523 22:02:23.278219 23120 layer_factory.hpp:77] Creating layer ip3
I0523 22:02:23.278233 23120 net.cpp:106] Creating Layer ip3
I0523 22:02:23.278242 23120 net.cpp:454] ip3 <- ip2
I0523 22:02:23.278255 23120 net.cpp:411] ip3 -> ip3
I0523 22:02:23.278465 23120 net.cpp:150] Setting up ip3
I0523 22:02:23.278476 23120 net.cpp:157] Top shape: 70 11 (770)
I0523 22:02:23.278486 23120 net.cpp:165] Memory required for data: 110511520
I0523 22:02:23.278501 23120 layer_factory.hpp:77] Creating layer drop3
I0523 22:02:23.278514 23120 net.cpp:106] Creating Layer drop3
I0523 22:02:23.278523 23120 net.cpp:454] drop3 <- ip3
I0523 22:02:23.278535 23120 net.cpp:397] drop3 -> ip3 (in-place)
I0523 22:02:23.278575 23120 net.cpp:150] Setting up drop3
I0523 22:02:23.278589 23120 net.cpp:157] Top shape: 70 11 (770)
I0523 22:02:23.278599 23120 net.cpp:165] Memory required for data: 110514600
I0523 22:02:23.278609 23120 layer_factory.hpp:77] Creating layer loss
I0523 22:02:23.278628 23120 net.cpp:106] Creating Layer loss
I0523 22:02:23.278637 23120 net.cpp:454] loss <- ip3
I0523 22:02:23.278650 23120 net.cpp:454] loss <- label
I0523 22:02:23.278661 23120 net.cpp:411] loss -> loss
I0523 22:02:23.278678 23120 layer_factory.hpp:77] Creating layer loss
…
I0523 22:02:23.281286 23120 solver.cpp:181] Creating test net (#0) specified by net file: /lustre/atlas/proj-shared/hep105/caffe_titan/caffe_workflow/logs_bslr/bs_70_lr_0.0005_2016-05-20T15.49.12.638113.prototxt
I0523 22:02:23.281357 23120 net.cpp:322] The NetState phase (1) differed from the phase (0) specified by a rule in layer data_hdf5
I0523 22:02:23.281721 23120 net.cpp:49] Initializing net from parameters: 
name: "caffe_test_127x50_x_unshifted"
state {
  phase: TEST
}
layer {
  name: "data_hdf5"
  type: "HDF5Data"
  top: "data"
  top: "label"
  include {
    phase: TEST
  }
  hdf5_data_param {
    source: "/lustre/atlas/proj-shared/hep105/caffe_titan/minosmatch_nukecczdefs_127x50_x_unshifted_me1Bmc.testlist"
    batch_size: 70
  }
}
layer {
  name: "conv1"
  type: "Convolution"
  bottom: "data"
  top: "conv1"
  convolution_param {
    num_output: 12
    pad: 0
    stride: 1
    weight_filler {
      type: "xavier"
    }
    bias_filler {
      type: "constant"
    }
    kernel_h: 8
    kernel_w: 3
  }
}
layer {
  name: "relu1"
  type: "ReLU"
  bottom: "conv1"
  top: "conv1"
}
layer {
  name: "pool1"
  type: "Pooling"
  bottom: "conv1"
  top: "pool1"
  pooling_param {
    pool: MAX
    kernel_h: 2
    kernel_w: 1
    stride_h: 2
    stride_w: 1
  }
}
layer {
  name: "conv2"
  type: "Convolution"
  bottom: "pool1"
  top: "conv2"
  convolution_param {
    num_output: 20
    pad: 0
    stride: 1
    weight_filler {
      type: "xavier"
    }
    bias_filler {
      type: "constant"
    }
    kernel_h: 7
    kernel_w: 3
  }
}
layer {
  name: "relu2"
  type: "ReLU"
  bottom: "conv2"
  top: "conv2"
}
layer {
  name: "pool2"
  type: "Pooling"
  bottom: "conv2"
  top: "pool2"
  pooling_param {
    pool: MAX
    kernel_h: 2
    kernel_w: 1
    stride_h: 2
    stride_w: 1
  }
}
layer {
  name: "conv3"
  type: "Convolution"
  bottom: "pool2"
  top: "conv3"
  convolution_param {
    num_output: 28
    pad: 0
    stride: 1
    weight_filler {
      type: "xavier"
    }
    bias_filler {
      type: "constant"
    }
    kernel_h: 6
    kernel_w: 3
  }
}
layer {
  name: "relu3"
  type: "ReLU"
  bottom: "conv3"
  top: "conv3"
}
layer {
  name: "pool3"
  type: "Pooling"
  bottom: "conv3"
  top: "pool3"
  pooling_param {
    pool: MAX
    kernel_h: 2
    kernel_w: 1
    stride_h: 2
    stride_w: 1
  }
}
layer {
  name: "conv4"
  type: "Convolution"
  bottom: "pool3"
  top: "conv4"
  convolution_param {
    num_output: 36
    pad: 0
    stride: 1
    weight_filler {
      type: "xavier"
    }
    bias_filler {
      type: "constant"
    }
    kernel_h: 6
    kernel_w: 3
  }
}
layer {
  name: "relu4"
  type: "ReLU"
  bottom: "conv4"
  top: "conv4"
}
layer {
  name: "pool4"
  type: "Pooling"
  bottom: "conv4"
  top: "pool4"
  pooling_param {
    pool: MAX
    kernel_h: 2
    kernel_w: 1
    stride_h: 2
    stride_w: 1
  }
}
layer {
  name: "ip1"
  type: "InnerProduct"
  bottom: "pool4"
  top: "ip1"
  inner_product_param {
    num_output: 196
    weight_filler {
      type: "xavier"
    }
    bias_filler {
      type: "constant"
    }
  }
}
layer {
  name: "relu5"
  type: "ReLU"
  bottom: "ip1"
  top: "ip1"
}
layer {
  name: "drop1"
  type: "Dropout"
  bottom: "ip1"
  top: "ip1"
  dropout_param {
    dropout_ratio: 0.5
  }
}
layer {
  name: "ip2"
  type: "InnerProduct"
  bottom: "ip1"
  top: "ip2"
  inner_product_param {
    num_output: 98
    weight_filler {
      type: "xavier"
    }
    bias_filler {
      type: "constant"
    }
  }
}
layer {
  name: "relu6"
  type: "ReLU"
  bottom: "ip2"
  top: "ip2"
}
layer {
  name: "drop2"
  type: "Dropout"
  bottom: "ip2"
  top: "ip2"
  dropout_param {
    dropout_ratio: 0.5
  }
}
layer {
  name: "ip3"
  type: "InnerProduct"
  bottom: "ip2"
  top: "ip3"
  inner_product_param {
    num_output: 11
    weight_filler {
      type: "xavier"
    }
    bias_filler {
      type: "constant"
    }
  }
}
layer {
  name: "drop3"
  type: "Dropout"
  bottom: "ip3"
  top: "ip3"
  dropout_param {
    dropout_ratio: 0.5
  }
}
layer {
  name: "accuracy"
  type: "Accuracy"
  bottom: "ip3"
  bottom: "label"
  top: "accuracy"
  include {
    phase: TEST
  }
}
layer {
  name: "loss"
  type: "SoftmaxWithLoss"
  bottom: "ip3"
  bottom: "label"
  top: "loss"
}
I0523 22:02:23.281911 23120 layer_factory.hpp:77] Creating layer data_hdf5
I0523 22:02:23.281926 23120 net.cpp:106] Creating Layer data_hdf5
I0523 22:02:23.281939 23120 net.cpp:411] data_hdf5 -> data
I0523 22:02:23.281955 23120 net.cpp:411] data_hdf5 -> label
I0523 22:02:23.281971 23120 hdf5_data_layer.cpp:79] Loading list of HDF5 filenames from: /lustre/atlas/proj-shared/hep105/caffe_titan/minosmatch_nukecczdefs_127x50_x_unshifted_me1Bmc.testlist
I0523 22:02:23.295372 23120 hdf5_data_layer.cpp:93] Number of HDF5 files: 3
I0523 22:02:44.678555 23120 net.cpp:150] Setting up data_hdf5
I0523 22:02:44.678720 23120 net.cpp:157] Top shape: 70 1 127 50 (444500)
I0523 22:02:44.678735 23120 net.cpp:157] Top shape: 70 (70)
I0523 22:02:44.678746 23120 net.cpp:165] Memory required for data: 1778280
I0523 22:02:44.678761 23120 layer_factory.hpp:77] Creating layer label_data_hdf5_1_split
I0523 22:02:44.678787 23120 net.cpp:106] Creating Layer label_data_hdf5_1_split
I0523 22:02:44.678798 23120 net.cpp:454] label_data_hdf5_1_split <- label
I0523 22:02:44.678813 23120 net.cpp:411] label_data_hdf5_1_split -> label_data_hdf5_1_split_0
I0523 22:02:44.678834 23120 net.cpp:411] label_data_hdf5_1_split -> label_data_hdf5_1_split_1
I0523 22:02:44.678906 23120 net.cpp:150] Setting up label_data_hdf5_1_split
I0523 22:02:44.678920 23120 net.cpp:157] Top shape: 70 (70)
I0523 22:02:44.678932 23120 net.cpp:157] Top shape: 70 (70)
I0523 22:02:44.678941 23120 net.cpp:165] Memory required for data: 1778840
I0523 22:02:44.678951 23120 layer_factory.hpp:77] Creating layer conv1
I0523 22:02:44.678973 23120 net.cpp:106] Creating Layer conv1
I0523 22:02:44.678984 23120 net.cpp:454] conv1 <- data
I0523 22:02:44.678998 23120 net.cpp:411] conv1 -> conv1
I0523 22:02:44.680938 23120 net.cpp:150] Setting up conv1
I0523 22:02:44.680963 23120 net.cpp:157] Top shape: 70 12 120 48 (4838400)
I0523 22:02:44.680974 23120 net.cpp:165] Memory required for data: 21132440
I0523 22:02:44.680995 23120 layer_factory.hpp:77] Creating layer relu1
I0523 22:02:44.681010 23120 net.cpp:106] Creating Layer relu1
I0523 22:02:44.681020 23120 net.cpp:454] relu1 <- conv1
I0523 22:02:44.681032 23120 net.cpp:397] relu1 -> conv1 (in-place)
I0523 22:02:44.681532 23120 net.cpp:150] Setting up relu1
I0523 22:02:44.681550 23120 net.cpp:157] Top shape: 70 12 120 48 (4838400)
I0523 22:02:44.681560 23120 net.cpp:165] Memory required for data: 40486040
I0523 22:02:44.681571 23120 layer_factory.hpp:77] Creating layer pool1
I0523 22:02:44.681586 23120 net.cpp:106] Creating Layer pool1
I0523 22:02:44.681596 23120 net.cpp:454] pool1 <- conv1
I0523 22:02:44.681608 23120 net.cpp:411] pool1 -> pool1
I0523 22:02:44.681684 23120 net.cpp:150] Setting up pool1
I0523 22:02:44.681696 23120 net.cpp:157] Top shape: 70 12 60 48 (2419200)
I0523 22:02:44.681715 23120 net.cpp:165] Memory required for data: 50162840
I0523 22:02:44.681725 23120 layer_factory.hpp:77] Creating layer conv2
I0523 22:02:44.681742 23120 net.cpp:106] Creating Layer conv2
I0523 22:02:44.681752 23120 net.cpp:454] conv2 <- pool1
I0523 22:02:44.681766 23120 net.cpp:411] conv2 -> conv2
I0523 22:02:44.683679 23120 net.cpp:150] Setting up conv2
I0523 22:02:44.683696 23120 net.cpp:157] Top shape: 70 20 54 46 (3477600)
I0523 22:02:44.683708 23120 net.cpp:165] Memory required for data: 64073240
I0523 22:02:44.683725 23120 layer_factory.hpp:77] Creating layer relu2
I0523 22:02:44.683738 23120 net.cpp:106] Creating Layer relu2
I0523 22:02:44.683748 23120 net.cpp:454] relu2 <- conv2
I0523 22:02:44.683761 23120 net.cpp:397] relu2 -> conv2 (in-place)
I0523 22:02:44.684093 23120 net.cpp:150] Setting up relu2
I0523 22:02:44.684108 23120 net.cpp:157] Top shape: 70 20 54 46 (3477600)
I0523 22:02:44.684118 23120 net.cpp:165] Memory required for data: 77983640
I0523 22:02:44.684128 23120 layer_factory.hpp:77] Creating layer pool2
I0523 22:02:44.684140 23120 net.cpp:106] Creating Layer pool2
I0523 22:02:44.684150 23120 net.cpp:454] pool2 <- conv2
I0523 22:02:44.684164 23120 net.cpp:411] pool2 -> pool2
I0523 22:02:44.684234 23120 net.cpp:150] Setting up pool2
I0523 22:02:44.684247 23120 net.cpp:157] Top shape: 70 20 27 46 (1738800)
I0523 22:02:44.684257 23120 net.cpp:165] Memory required for data: 84938840
I0523 22:02:44.684267 23120 layer_factory.hpp:77] Creating layer conv3
I0523 22:02:44.684288 23120 net.cpp:106] Creating Layer conv3
I0523 22:02:44.684298 23120 net.cpp:454] conv3 <- pool2
I0523 22:02:44.684311 23120 net.cpp:411] conv3 -> conv3
I0523 22:02:44.686292 23120 net.cpp:150] Setting up conv3
I0523 22:02:44.686316 23120 net.cpp:157] Top shape: 70 28 22 44 (1897280)
I0523 22:02:44.686327 23120 net.cpp:165] Memory required for data: 92527960
I0523 22:02:44.686362 23120 layer_factory.hpp:77] Creating layer relu3
I0523 22:02:44.686375 23120 net.cpp:106] Creating Layer relu3
I0523 22:02:44.686385 23120 net.cpp:454] relu3 <- conv3
I0523 22:02:44.686398 23120 net.cpp:397] relu3 -> conv3 (in-place)
I0523 22:02:44.686874 23120 net.cpp:150] Setting up relu3
I0523 22:02:44.686890 23120 net.cpp:157] Top shape: 70 28 22 44 (1897280)
I0523 22:02:44.686900 23120 net.cpp:165] Memory required for data: 100117080
I0523 22:02:44.686910 23120 layer_factory.hpp:77] Creating layer pool3
I0523 22:02:44.686923 23120 net.cpp:106] Creating Layer pool3
I0523 22:02:44.686933 23120 net.cpp:454] pool3 <- conv3
I0523 22:02:44.686946 23120 net.cpp:411] pool3 -> pool3
I0523 22:02:44.687018 23120 net.cpp:150] Setting up pool3
I0523 22:02:44.687031 23120 net.cpp:157] Top shape: 70 28 11 44 (948640)
I0523 22:02:44.687041 23120 net.cpp:165] Memory required for data: 103911640
I0523 22:02:44.687049 23120 layer_factory.hpp:77] Creating layer conv4
I0523 22:02:44.687067 23120 net.cpp:106] Creating Layer conv4
I0523 22:02:44.687078 23120 net.cpp:454] conv4 <- pool3
I0523 22:02:44.687093 23120 net.cpp:411] conv4 -> conv4
I0523 22:02:44.689149 23120 net.cpp:150] Setting up conv4
I0523 22:02:44.689170 23120 net.cpp:157] Top shape: 70 36 6 42 (635040)
I0523 22:02:44.689184 23120 net.cpp:165] Memory required for data: 106451800
I0523 22:02:44.689199 23120 layer_factory.hpp:77] Creating layer relu4
I0523 22:02:44.689213 23120 net.cpp:106] Creating Layer relu4
I0523 22:02:44.689224 23120 net.cpp:454] relu4 <- conv4
I0523 22:02:44.689236 23120 net.cpp:397] relu4 -> conv4 (in-place)
I0523 22:02:44.689713 23120 net.cpp:150] Setting up relu4
I0523 22:02:44.689729 23120 net.cpp:157] Top shape: 70 36 6 42 (635040)
I0523 22:02:44.689739 23120 net.cpp:165] Memory required for data: 108991960
I0523 22:02:44.689749 23120 layer_factory.hpp:77] Creating layer pool4
I0523 22:02:44.689764 23120 net.cpp:106] Creating Layer pool4
I0523 22:02:44.689774 23120 net.cpp:454] pool4 <- conv4
I0523 22:02:44.689786 23120 net.cpp:411] pool4 -> pool4
I0523 22:02:44.689857 23120 net.cpp:150] Setting up pool4
I0523 22:02:44.689872 23120 net.cpp:157] Top shape: 70 36 3 42 (317520)
I0523 22:02:44.689880 23120 net.cpp:165] Memory required for data: 110262040
I0523 22:02:44.689890 23120 layer_factory.hpp:77] Creating layer ip1
I0523 22:02:44.689905 23120 net.cpp:106] Creating Layer ip1
I0523 22:02:44.689916 23120 net.cpp:454] ip1 <- pool4
I0523 22:02:44.689930 23120 net.cpp:411] ip1 -> ip1
I0523 22:02:44.705374 23120 net.cpp:150] Setting up ip1
I0523 22:02:44.705404 23120 net.cpp:157] Top shape: 70 196 (13720)
I0523 22:02:44.705416 23120 net.cpp:165] Memory required for data: 110316920
I0523 22:02:44.705438 23120 layer_factory.hpp:77] Creating layer relu5
I0523 22:02:44.705453 23120 net.cpp:106] Creating Layer relu5
I0523 22:02:44.705463 23120 net.cpp:454] relu5 <- ip1
I0523 22:02:44.705477 23120 net.cpp:397] relu5 -> ip1 (in-place)
I0523 22:02:44.705832 23120 net.cpp:150] Setting up relu5
I0523 22:02:44.705847 23120 net.cpp:157] Top shape: 70 196 (13720)
I0523 22:02:44.705857 23120 net.cpp:165] Memory required for data: 110371800
I0523 22:02:44.705867 23120 layer_factory.hpp:77] Creating layer drop1
I0523 22:02:44.705885 23120 net.cpp:106] Creating Layer drop1
I0523 22:02:44.705895 23120 net.cpp:454] drop1 <- ip1
I0523 22:02:44.705909 23120 net.cpp:397] drop1 -> ip1 (in-place)
I0523 22:02:44.705955 23120 net.cpp:150] Setting up drop1
I0523 22:02:44.705968 23120 net.cpp:157] Top shape: 70 196 (13720)
I0523 22:02:44.705981 23120 net.cpp:165] Memory required for data: 110426680
I0523 22:02:44.705989 23120 layer_factory.hpp:77] Creating layer ip2
I0523 22:02:44.706003 23120 net.cpp:106] Creating Layer ip2
I0523 22:02:44.706013 23120 net.cpp:454] ip2 <- ip1
I0523 22:02:44.706027 23120 net.cpp:411] ip2 -> ip2
I0523 22:02:44.706506 23120 net.cpp:150] Setting up ip2
I0523 22:02:44.706519 23120 net.cpp:157] Top shape: 70 98 (6860)
I0523 22:02:44.706528 23120 net.cpp:165] Memory required for data: 110454120
I0523 22:02:44.706544 23120 layer_factory.hpp:77] Creating layer relu6
I0523 22:02:44.706570 23120 net.cpp:106] Creating Layer relu6
I0523 22:02:44.706580 23120 net.cpp:454] relu6 <- ip2
I0523 22:02:44.706593 23120 net.cpp:397] relu6 -> ip2 (in-place)
I0523 22:02:44.707129 23120 net.cpp:150] Setting up relu6
I0523 22:02:44.707151 23120 net.cpp:157] Top shape: 70 98 (6860)
I0523 22:02:44.707161 23120 net.cpp:165] Memory required for data: 110481560
I0523 22:02:44.707171 23120 layer_factory.hpp:77] Creating layer drop2
I0523 22:02:44.707183 23120 net.cpp:106] Creating Layer drop2
I0523 22:02:44.707195 23120 net.cpp:454] drop2 <- ip2
I0523 22:02:44.707207 23120 net.cpp:397] drop2 -> ip2 (in-place)
I0523 22:02:44.707252 23120 net.cpp:150] Setting up drop2
I0523 22:02:44.707265 23120 net.cpp:157] Top shape: 70 98 (6860)
I0523 22:02:44.707275 23120 net.cpp:165] Memory required for data: 110509000
I0523 22:02:44.707285 23120 layer_factory.hpp:77] Creating layer ip3
I0523 22:02:44.707299 23120 net.cpp:106] Creating Layer ip3
I0523 22:02:44.707309 23120 net.cpp:454] ip3 <- ip2
I0523 22:02:44.707324 23120 net.cpp:411] ip3 -> ip3
I0523 22:02:44.707546 23120 net.cpp:150] Setting up ip3
I0523 22:02:44.707559 23120 net.cpp:157] Top shape: 70 11 (770)
I0523 22:02:44.707568 23120 net.cpp:165] Memory required for data: 110512080
I0523 22:02:44.707584 23120 layer_factory.hpp:77] Creating layer drop3
I0523 22:02:44.707595 23120 net.cpp:106] Creating Layer drop3
I0523 22:02:44.707607 23120 net.cpp:454] drop3 <- ip3
I0523 22:02:44.707618 23120 net.cpp:397] drop3 -> ip3 (in-place)
I0523 22:02:44.707660 23120 net.cpp:150] Setting up drop3
I0523 22:02:44.707674 23120 net.cpp:157] Top shape: 70 11 (770)
I0523 22:02:44.707684 23120 net.cpp:165] Memory required for data: 110515160
I0523 22:02:44.707693 23120 layer_factory.hpp:77] Creating layer ip3_drop3_0_split
I0523 22:02:44.707706 23120 net.cpp:106] Creating Layer ip3_drop3_0_split
I0523 22:02:44.707716 23120 net.cpp:454] ip3_drop3_0_split <- ip3
I0523 22:02:44.707729 23120 net.cpp:411] ip3_drop3_0_split -> ip3_drop3_0_split_0
I0523 22:02:44.707744 23120 net.cpp:411] ip3_drop3_0_split -> ip3_drop3_0_split_1
I0523 22:02:44.707818 23120 net.cpp:150] Setting up ip3_drop3_0_split
I0523 22:02:44.707831 23120 net.cpp:157] Top shape: 70 11 (770)
I0523 22:02:44.707844 23120 net.cpp:157] Top shape: 70 11 (770)
I0523 22:02:44.707852 23120 net.cpp:165] Memory required for data: 110521320
I0523 22:02:44.707861 23120 layer_factory.hpp:77] Creating layer accuracy
I0523 22:02:44.707883 23120 net.cpp:106] Creating Layer accuracy
I0523 22:02:44.707895 23120 net.cpp:454] accuracy <- ip3_drop3_0_split_0
I0523 22:02:44.707906 23120 net.cpp:454] accuracy <- label_data_hdf5_1_split_0
I0523 22:02:44.707919 23120 net.cpp:411] accuracy -> accuracy
…
