…
I0524 16:40:34.097501 16492 net.cpp:322] The NetState phase (0) differed from the phase (1) specified by a rule in layer data_hdf5
I0524 16:40:34.097565 16492 net.cpp:322] The NetState phase (0) differed from the phase (1) specified by a rule in layer accuracy
I0524 16:40:34.097949 16492 net.cpp:49] Initializing net from parameters: 
name: "caffe_test_127x50_x_unshifted"
state {
  phase: TRAIN
}
layer {
  name: "data_hdf5"
  type: "HDF5Data"
  top: "data"
  top: "label"
  include {
    phase: TRAIN
  }
  hdf5_data_param {
    source: "/lustre/atlas/proj-shared/hep105/caffe_titan/minosmatch_nukecczdefs_127x50_x_unshifted_me1Bmc.trainlist"
    batch_size: 70
  }
}
layer {
  name: "conv1"
  type: "Convolution"
  bottom: "data"
  top: "conv1"
  convolution_param {
    num_output: 12
    pad: 0
    stride: 1
    weight_filler {
      type: "xavier"
    }
    bias_filler {
      type: "constant"
    }
    kernel_h: 8
    kernel_w: 3
  }
}
layer {
  name: "relu1"
  type: "ReLU"
  bottom: "conv1"
  top: "conv1"
}
layer {
  name: "pool1"
  type: "Pooling"
  bottom: "conv1"
  top: "pool1"
  pooling_param {
    pool: MAX
    kernel_h: 2
    kernel_w: 1
    stride_h: 2
    stride_w: 1
  }
}
layer {
  name: "conv2"
  type: "Convolution"
  bottom: "pool1"
  top: "conv2"
  convolution_param {
    num_output: 20
    pad: 0
    stride: 1
    weight_filler {
      type: "xavier"
    }
    bias_filler {
      type: "constant"
    }
    kernel_h: 7
    kernel_w: 3
  }
}
layer {
  name: "relu2"
  type: "ReLU"
  bottom: "conv2"
  top: "conv2"
}
layer {
  name: "pool2"
  type: "Pooling"
  bottom: "conv2"
  top: "pool2"
  pooling_param {
    pool: MAX
    kernel_h: 2
    kernel_w: 1
    stride_h: 2
    stride_w: 1
  }
}
layer {
  name: "conv3"
  type: "Convolution"
  bottom: "pool2"
  top: "conv3"
  convolution_param {
    num_output: 28
    pad: 0
    stride: 1
    weight_filler {
      type: "xavier"
    }
    bias_filler {
      type: "constant"
    }
    kernel_h: 6
    kernel_w: 3
  }
}
layer {
  name: "relu3"
  type: "ReLU"
  bottom: "conv3"
  top: "conv3"
}
layer {
  name: "pool3"
  type: "Pooling"
  bottom: "conv3"
  top: "pool3"
  pooling_param {
    pool: MAX
    kernel_h: 2
    kernel_w: 1
    stride_h: 2
    stride_w: 1
  }
}
layer {
  name: "conv4"
  type: "Convolution"
  bottom: "pool3"
  top: "conv4"
  convolution_param {
    num_output: 36
    pad: 0
    stride: 1
    weight_filler {
      type: "xavier"
    }
    bias_filler {
      type: "constant"
    }
    kernel_h: 6
    kernel_w: 3
  }
}
layer {
  name: "relu4"
  type: "ReLU"
  bottom: "conv4"
  top: "conv4"
}
layer {
  name: "pool4"
  type: "Pooling"
  bottom: "conv4"
  top: "pool4"
  pooling_param {
    pool: MAX
    kernel_h: 2
    kernel_w: 1
    stride_h: 2
    stride_w: 1
  }
}
layer {
  name: "ip1"
  type: "InnerProduct"
  bottom: "pool4"
  top: "ip1"
  inner_product_param {
    num_output: 196
    weight_filler {
      type: "xavier"
    }
    bias_filler {
      type: "constant"
    }
  }
}
layer {
  name: "relu5"
  type: "ReLU"
  bottom: "ip1"
  top: "ip1"
}
layer {
  name: "drop1"
  type: "Dropout"
  bottom: "ip1"
  top: "ip1"
  dropout_param {
    dropout_ratio: 0.5
  }
}
layer {
  name: "ip2"
  type: "InnerProduct"
  bottom: "ip1"
  top: "ip2"
  inner_product_param {
    num_output: 98
    weight_filler {
      type: "xavier"
    }
    bias_filler {
      type: "constant"
    }
  }
}
layer {
  name: "relu6"
  type: "ReLU"
  bottom: "ip2"
  top: "ip2"
}
layer {
  name: "drop2"
  type: "Dropout"
  bottom: "ip2"
  top: "ip2"
  dropout_param {
    dropout_ratio: 0.5
  }
}
layer {
  name: "ip3"
  type: "InnerProduct"
  bottom: "ip2"
  top: "ip3"
  inner_product_param {
    num_output: 11
    weight_filler {
      type: "xavier"
    }
    bias_filler {
      type: "constant"
    }
  }
}
layer {
  name: "drop3"
  type: "Dropout"
  bottom: "ip3"
  top: "ip3"
  dropout_param {
    dropout_ratio: 0.5
  }
}
layer {
  name: "loss"
  type: "SoftmaxWithLoss"
  bottom: "ip3"
  bottom: "label"
  top: "loss"
}
I0524 16:40:34.098155 16492 layer_factory.hpp:77] Creating layer data_hdf5
I0524 16:40:34.098184 16492 net.cpp:106] Creating Layer data_hdf5
I0524 16:40:34.098209 16492 net.cpp:411] data_hdf5 -> data
I0524 16:40:34.098242 16492 net.cpp:411] data_hdf5 -> label
I0524 16:40:34.098284 16492 hdf5_data_layer.cpp:79] Loading list of HDF5 filenames from: /lustre/atlas/proj-shared/hep105/caffe_titan/minosmatch_nukecczdefs_127x50_x_unshifted_me1Bmc.trainlist
I0524 16:40:34.145390 16492 hdf5_data_layer.cpp:93] Number of HDF5 files: 15
I0524 16:40:34.191596 16492 hdf5.cpp:32] Datatype class: H5T_FLOAT
I0524 16:40:55.669014 16492 hdf5.cpp:35] Datatype class: H5T_INTEGER
I0524 16:40:55.674175 16492 net.cpp:150] Setting up data_hdf5
I0524 16:40:55.674216 16492 net.cpp:157] Top shape: 70 1 127 50 (444500)
I0524 16:40:55.674233 16492 net.cpp:157] Top shape: 70 (70)
I0524 16:40:55.674245 16492 net.cpp:165] Memory required for data: 1778280
I0524 16:40:55.674278 16492 layer_factory.hpp:77] Creating layer conv1
I0524 16:40:55.674311 16492 net.cpp:106] Creating Layer conv1
I0524 16:40:55.674336 16492 net.cpp:454] conv1 <- data
I0524 16:40:55.674361 16492 net.cpp:411] conv1 -> conv1
I0524 16:40:57.563107 16492 net.cpp:150] Setting up conv1
I0524 16:40:57.563160 16492 net.cpp:157] Top shape: 70 12 120 48 (4838400)
I0524 16:40:57.563174 16492 net.cpp:165] Memory required for data: 21131880
I0524 16:40:57.563205 16492 layer_factory.hpp:77] Creating layer relu1
I0524 16:40:57.563227 16492 net.cpp:106] Creating Layer relu1
I0524 16:40:57.563247 16492 net.cpp:454] relu1 <- conv1
I0524 16:40:57.563282 16492 net.cpp:397] relu1 -> conv1 (in-place)
I0524 16:40:57.563809 16492 net.cpp:150] Setting up relu1
I0524 16:40:57.563832 16492 net.cpp:157] Top shape: 70 12 120 48 (4838400)
I0524 16:40:57.563844 16492 net.cpp:165] Memory required for data: 40485480
I0524 16:40:57.563860 16492 layer_factory.hpp:77] Creating layer pool1
I0524 16:40:57.563889 16492 net.cpp:106] Creating Layer pool1
I0524 16:40:57.563904 16492 net.cpp:454] pool1 <- conv1
I0524 16:40:57.563920 16492 net.cpp:411] pool1 -> pool1
I0524 16:40:57.564013 16492 net.cpp:150] Setting up pool1
I0524 16:40:57.564033 16492 net.cpp:157] Top shape: 70 12 60 48 (2419200)
I0524 16:40:57.564051 16492 net.cpp:165] Memory required for data: 50162280
I0524 16:40:57.564064 16492 layer_factory.hpp:77] Creating layer conv2
I0524 16:40:57.564090 16492 net.cpp:106] Creating Layer conv2
I0524 16:40:57.564102 16492 net.cpp:454] conv2 <- pool1
I0524 16:40:57.564121 16492 net.cpp:411] conv2 -> conv2
I0524 16:40:57.566854 16492 net.cpp:150] Setting up conv2
I0524 16:40:57.566884 16492 net.cpp:157] Top shape: 70 20 54 46 (3477600)
I0524 16:40:57.566898 16492 net.cpp:165] Memory required for data: 64072680
I0524 16:40:57.566921 16492 layer_factory.hpp:77] Creating layer relu2
I0524 16:40:57.566952 16492 net.cpp:106] Creating Layer relu2
I0524 16:40:57.566967 16492 net.cpp:454] relu2 <- conv2
I0524 16:40:57.566982 16492 net.cpp:397] relu2 -> conv2 (in-place)
I0524 16:40:57.567327 16492 net.cpp:150] Setting up relu2
I0524 16:40:57.567348 16492 net.cpp:157] Top shape: 70 20 54 46 (3477600)
I0524 16:40:57.567360 16492 net.cpp:165] Memory required for data: 77983080
I0524 16:40:57.567373 16492 layer_factory.hpp:77] Creating layer pool2
I0524 16:40:57.567397 16492 net.cpp:106] Creating Layer pool2
I0524 16:40:57.567410 16492 net.cpp:454] pool2 <- conv2
I0524 16:40:57.567426 16492 net.cpp:411] pool2 -> pool2
I0524 16:40:57.567520 16492 net.cpp:150] Setting up pool2
I0524 16:40:57.567538 16492 net.cpp:157] Top shape: 70 20 27 46 (1738800)
I0524 16:40:57.567553 16492 net.cpp:165] Memory required for data: 84938280
I0524 16:40:57.567571 16492 layer_factory.hpp:77] Creating layer conv3
I0524 16:40:57.567592 16492 net.cpp:106] Creating Layer conv3
I0524 16:40:57.567605 16492 net.cpp:454] conv3 <- pool2
I0524 16:40:57.567621 16492 net.cpp:411] conv3 -> conv3
I0524 16:40:57.569566 16492 net.cpp:150] Setting up conv3
I0524 16:40:57.569591 16492 net.cpp:157] Top shape: 70 28 22 44 (1897280)
I0524 16:40:57.569612 16492 net.cpp:165] Memory required for data: 92527400
I0524 16:40:57.569635 16492 layer_factory.hpp:77] Creating layer relu3
I0524 16:40:57.569656 16492 net.cpp:106] Creating Layer relu3
I0524 16:40:57.569679 16492 net.cpp:454] relu3 <- conv3
I0524 16:40:57.569694 16492 net.cpp:397] relu3 -> conv3 (in-place)
I0524 16:40:57.570186 16492 net.cpp:150] Setting up relu3
I0524 16:40:57.570210 16492 net.cpp:157] Top shape: 70 28 22 44 (1897280)
I0524 16:40:57.570224 16492 net.cpp:165] Memory required for data: 100116520
I0524 16:40:57.570240 16492 layer_factory.hpp:77] Creating layer pool3
I0524 16:40:57.570255 16492 net.cpp:106] Creating Layer pool3
I0524 16:40:57.570276 16492 net.cpp:454] pool3 <- conv3
I0524 16:40:57.570292 16492 net.cpp:411] pool3 -> pool3
I0524 16:40:57.570374 16492 net.cpp:150] Setting up pool3
I0524 16:40:57.570397 16492 net.cpp:157] Top shape: 70 28 11 44 (948640)
I0524 16:40:57.570410 16492 net.cpp:165] Memory required for data: 103911080
I0524 16:40:57.570425 16492 layer_factory.hpp:77] Creating layer conv4
I0524 16:40:57.570451 16492 net.cpp:106] Creating Layer conv4
I0524 16:40:57.570463 16492 net.cpp:454] conv4 <- pool3
I0524 16:40:57.570480 16492 net.cpp:411] conv4 -> conv4
I0524 16:40:57.573253 16492 net.cpp:150] Setting up conv4
I0524 16:40:57.573285 16492 net.cpp:157] Top shape: 70 36 6 42 (635040)
I0524 16:40:57.573300 16492 net.cpp:165] Memory required for data: 106451240
I0524 16:40:57.573319 16492 layer_factory.hpp:77] Creating layer relu4
I0524 16:40:57.573340 16492 net.cpp:106] Creating Layer relu4
I0524 16:40:57.573365 16492 net.cpp:454] relu4 <- conv4
I0524 16:40:57.573382 16492 net.cpp:397] relu4 -> conv4 (in-place)
I0524 16:40:57.573887 16492 net.cpp:150] Setting up relu4
I0524 16:40:57.573909 16492 net.cpp:157] Top shape: 70 36 6 42 (635040)
I0524 16:40:57.573922 16492 net.cpp:165] Memory required for data: 108991400
I0524 16:40:57.573938 16492 layer_factory.hpp:77] Creating layer pool4
I0524 16:40:57.573953 16492 net.cpp:106] Creating Layer pool4
I0524 16:40:57.573976 16492 net.cpp:454] pool4 <- conv4
I0524 16:40:57.573992 16492 net.cpp:411] pool4 -> pool4
I0524 16:40:57.574074 16492 net.cpp:150] Setting up pool4
I0524 16:40:57.574097 16492 net.cpp:157] Top shape: 70 36 3 42 (317520)
I0524 16:40:57.574110 16492 net.cpp:165] Memory required for data: 110261480
I0524 16:40:57.574126 16492 layer_factory.hpp:77] Creating layer ip1
I0524 16:40:57.574152 16492 net.cpp:106] Creating Layer ip1
I0524 16:40:57.574165 16492 net.cpp:454] ip1 <- pool4
I0524 16:40:57.574182 16492 net.cpp:411] ip1 -> ip1
I0524 16:40:57.589503 16492 net.cpp:150] Setting up ip1
I0524 16:40:57.589534 16492 net.cpp:157] Top shape: 70 196 (13720)
I0524 16:40:57.589556 16492 net.cpp:165] Memory required for data: 110316360
I0524 16:40:57.589582 16492 layer_factory.hpp:77] Creating layer relu5
I0524 16:40:57.589603 16492 net.cpp:106] Creating Layer relu5
I0524 16:40:57.589627 16492 net.cpp:454] relu5 <- ip1
I0524 16:40:57.589643 16492 net.cpp:397] relu5 -> ip1 (in-place)
I0524 16:40:57.590008 16492 net.cpp:150] Setting up relu5
I0524 16:40:57.590028 16492 net.cpp:157] Top shape: 70 196 (13720)
I0524 16:40:57.590040 16492 net.cpp:165] Memory required for data: 110371240
I0524 16:40:57.590055 16492 layer_factory.hpp:77] Creating layer drop1
I0524 16:40:57.590085 16492 net.cpp:106] Creating Layer drop1
I0524 16:40:57.590100 16492 net.cpp:454] drop1 <- ip1
I0524 16:40:57.590116 16492 net.cpp:397] drop1 -> ip1 (in-place)
I0524 16:40:57.590190 16492 net.cpp:150] Setting up drop1
I0524 16:40:57.590209 16492 net.cpp:157] Top shape: 70 196 (13720)
I0524 16:40:57.590229 16492 net.cpp:165] Memory required for data: 110426120
I0524 16:40:57.590241 16492 layer_factory.hpp:77] Creating layer ip2
I0524 16:40:57.590265 16492 net.cpp:106] Creating Layer ip2
I0524 16:40:57.590277 16492 net.cpp:454] ip2 <- ip1
I0524 16:40:57.590299 16492 net.cpp:411] ip2 -> ip2
I0524 16:40:57.590775 16492 net.cpp:150] Setting up ip2
I0524 16:40:57.590795 16492 net.cpp:157] Top shape: 70 98 (6860)
I0524 16:40:57.590806 16492 net.cpp:165] Memory required for data: 110453560
I0524 16:40:57.590827 16492 layer_factory.hpp:77] Creating layer relu6
I0524 16:40:57.590849 16492 net.cpp:106] Creating Layer relu6
I0524 16:40:57.590863 16492 net.cpp:454] relu6 <- ip2
I0524 16:40:57.590878 16492 net.cpp:397] relu6 -> ip2 (in-place)
I0524 16:40:57.591423 16492 net.cpp:150] Setting up relu6
I0524 16:40:57.591444 16492 net.cpp:157] Top shape: 70 98 (6860)
I0524 16:40:57.591459 16492 net.cpp:165] Memory required for data: 110481000
I0524 16:40:57.591473 16492 layer_factory.hpp:77] Creating layer drop2
I0524 16:40:57.591496 16492 net.cpp:106] Creating Layer drop2
I0524 16:40:57.591509 16492 net.cpp:454] drop2 <- ip2
I0524 16:40:57.591526 16492 net.cpp:397] drop2 -> ip2 (in-place)
I0524 16:40:57.591581 16492 net.cpp:150] Setting up drop2
I0524 16:40:57.591598 16492 net.cpp:157] Top shape: 70 98 (6860)
I0524 16:40:57.591610 16492 net.cpp:165] Memory required for data: 110508440
I0524 16:40:57.591624 16492 layer_factory.hpp:77] Creating layer ip3
I0524 16:40:57.591639 16492 net.cpp:106] Creating Layer ip3
I0524 16:40:57.591655 16492 net.cpp:454] ip3 <- ip2
I0524 16:40:57.591675 16492 net.cpp:411] ip3 -> ip3
I0524 16:40:57.591899 16492 net.cpp:150] Setting up ip3
I0524 16:40:57.591918 16492 net.cpp:157] Top shape: 70 11 (770)
I0524 16:40:57.591931 16492 net.cpp:165] Memory required for data: 110511520
I0524 16:40:57.591951 16492 layer_factory.hpp:77] Creating layer drop3
I0524 16:40:57.591966 16492 net.cpp:106] Creating Layer drop3
I0524 16:40:57.591985 16492 net.cpp:454] drop3 <- ip3
I0524 16:40:57.592001 16492 net.cpp:397] drop3 -> ip3 (in-place)
I0524 16:40:57.592047 16492 net.cpp:150] Setting up drop3
I0524 16:40:57.592063 16492 net.cpp:157] Top shape: 70 11 (770)
I0524 16:40:57.592082 16492 net.cpp:165] Memory required for data: 110514600
I0524 16:40:57.592102 16492 layer_factory.hpp:77] Creating layer loss
I0524 16:40:57.592123 16492 net.cpp:106] Creating Layer loss
I0524 16:40:57.592138 16492 net.cpp:454] loss <- ip3
I0524 16:40:57.592150 16492 net.cpp:454] loss <- label
I0524 16:40:57.592172 16492 net.cpp:411] loss -> loss
I0524 16:40:57.592191 16492 layer_factory.hpp:77] Creating layer loss
…
I0524 16:40:57.594985 16492 solver.cpp:181] Creating test net (#0) specified by net file: /lustre/atlas/proj-shared/hep105/caffe_titan/caffe_workflow/logs_bslr/bs_70_lr_0.0050_2016-05-20T15.49.16.039802.prototxt
I0524 16:40:57.595058 16492 net.cpp:322] The NetState phase (1) differed from the phase (0) specified by a rule in layer data_hdf5
I0524 16:40:57.595418 16492 net.cpp:49] Initializing net from parameters: 
name: "caffe_test_127x50_x_unshifted"
state {
  phase: TEST
}
layer {
  name: "data_hdf5"
  type: "HDF5Data"
  top: "data"
  top: "label"
  include {
    phase: TEST
  }
  hdf5_data_param {
    source: "/lustre/atlas/proj-shared/hep105/caffe_titan/minosmatch_nukecczdefs_127x50_x_unshifted_me1Bmc.testlist"
    batch_size: 70
  }
}
layer {
  name: "conv1"
  type: "Convolution"
  bottom: "data"
  top: "conv1"
  convolution_param {
    num_output: 12
    pad: 0
    stride: 1
    weight_filler {
      type: "xavier"
    }
    bias_filler {
      type: "constant"
    }
    kernel_h: 8
    kernel_w: 3
  }
}
layer {
  name: "relu1"
  type: "ReLU"
  bottom: "conv1"
  top: "conv1"
}
layer {
  name: "pool1"
  type: "Pooling"
  bottom: "conv1"
  top: "pool1"
  pooling_param {
    pool: MAX
    kernel_h: 2
    kernel_w: 1
    stride_h: 2
    stride_w: 1
  }
}
layer {
  name: "conv2"
  type: "Convolution"
  bottom: "pool1"
  top: "conv2"
  convolution_param {
    num_output: 20
    pad: 0
    stride: 1
    weight_filler {
      type: "xavier"
    }
    bias_filler {
      type: "constant"
    }
    kernel_h: 7
    kernel_w: 3
  }
}
layer {
  name: "relu2"
  type: "ReLU"
  bottom: "conv2"
  top: "conv2"
}
layer {
  name: "pool2"
  type: "Pooling"
  bottom: "conv2"
  top: "pool2"
  pooling_param {
    pool: MAX
    kernel_h: 2
    kernel_w: 1
    stride_h: 2
    stride_w: 1
  }
}
layer {
  name: "conv3"
  type: "Convolution"
  bottom: "pool2"
  top: "conv3"
  convolution_param {
    num_output: 28
    pad: 0
    stride: 1
    weight_filler {
      type: "xavier"
    }
    bias_filler {
      type: "constant"
    }
    kernel_h: 6
    kernel_w: 3
  }
}
layer {
  name: "relu3"
  type: "ReLU"
  bottom: "conv3"
  top: "conv3"
}
layer {
  name: "pool3"
  type: "Pooling"
  bottom: "conv3"
  top: "pool3"
  pooling_param {
    pool: MAX
    kernel_h: 2
    kernel_w: 1
    stride_h: 2
    stride_w: 1
  }
}
layer {
  name: "conv4"
  type: "Convolution"
  bottom: "pool3"
  top: "conv4"
  convolution_param {
    num_output: 36
    pad: 0
    stride: 1
    weight_filler {
      type: "xavier"
    }
    bias_filler {
      type: "constant"
    }
    kernel_h: 6
    kernel_w: 3
  }
}
layer {
  name: "relu4"
  type: "ReLU"
  bottom: "conv4"
  top: "conv4"
}
layer {
  name: "pool4"
  type: "Pooling"
  bottom: "conv4"
  top: "pool4"
  pooling_param {
    pool: MAX
    kernel_h: 2
    kernel_w: 1
    stride_h: 2
    stride_w: 1
  }
}
layer {
  name: "ip1"
  type: "InnerProduct"
  bottom: "pool4"
  top: "ip1"
  inner_product_param {
    num_output: 196
    weight_filler {
      type: "xavier"
    }
    bias_filler {
      type: "constant"
    }
  }
}
layer {
  name: "relu5"
  type: "ReLU"
  bottom: "ip1"
  top: "ip1"
}
layer {
  name: "drop1"
  type: "Dropout"
  bottom: "ip1"
  top: "ip1"
  dropout_param {
    dropout_ratio: 0.5
  }
}
layer {
  name: "ip2"
  type: "InnerProduct"
  bottom: "ip1"
  top: "ip2"
  inner_product_param {
    num_output: 98
    weight_filler {
      type: "xavier"
    }
    bias_filler {
      type: "constant"
    }
  }
}
layer {
  name: "relu6"
  type: "ReLU"
  bottom: "ip2"
  top: "ip2"
}
layer {
  name: "drop2"
  type: "Dropout"
  bottom: "ip2"
  top: "ip2"
  dropout_param {
    dropout_ratio: 0.5
  }
}
layer {
  name: "ip3"
  type: "InnerProduct"
  bottom: "ip2"
  top: "ip3"
  inner_product_param {
    num_output: 11
    weight_filler {
      type: "xavier"
    }
    bias_filler {
      type: "constant"
    }
  }
}
layer {
  name: "drop3"
  type: "Dropout"
  bottom: "ip3"
  top: "ip3"
  dropout_param {
    dropout_ratio: 0.5
  }
}
layer {
  name: "accuracy"
  type: "Accuracy"
  bottom: "ip3"
  bottom: "label"
  top: "accuracy"
  include {
    phase: TEST
  }
}
layer {
  name: "loss"
  type: "SoftmaxWithLoss"
  bottom: "ip3"
  bottom: "label"
  top: "loss"
}
I0524 16:40:57.595616 16492 layer_factory.hpp:77] Creating layer data_hdf5
I0524 16:40:57.595640 16492 net.cpp:106] Creating Layer data_hdf5
I0524 16:40:57.595656 16492 net.cpp:411] data_hdf5 -> data
I0524 16:40:57.595674 16492 net.cpp:411] data_hdf5 -> label
I0524 16:40:57.595692 16492 hdf5_data_layer.cpp:79] Loading list of HDF5 filenames from: /lustre/atlas/proj-shared/hep105/caffe_titan/minosmatch_nukecczdefs_127x50_x_unshifted_me1Bmc.testlist
I0524 16:40:57.651296 16492 hdf5_data_layer.cpp:93] Number of HDF5 files: 3
I0524 16:41:19.000140 16492 net.cpp:150] Setting up data_hdf5
I0524 16:41:19.000306 16492 net.cpp:157] Top shape: 70 1 127 50 (444500)
I0524 16:41:19.000325 16492 net.cpp:157] Top shape: 70 (70)
I0524 16:41:19.000337 16492 net.cpp:165] Memory required for data: 1778280
I0524 16:41:19.000352 16492 layer_factory.hpp:77] Creating layer label_data_hdf5_1_split
I0524 16:41:19.000385 16492 net.cpp:106] Creating Layer label_data_hdf5_1_split
I0524 16:41:19.000399 16492 net.cpp:454] label_data_hdf5_1_split <- label
I0524 16:41:19.000433 16492 net.cpp:411] label_data_hdf5_1_split -> label_data_hdf5_1_split_0
I0524 16:41:19.000458 16492 net.cpp:411] label_data_hdf5_1_split -> label_data_hdf5_1_split_1
I0524 16:41:19.000542 16492 net.cpp:150] Setting up label_data_hdf5_1_split
I0524 16:41:19.000560 16492 net.cpp:157] Top shape: 70 (70)
I0524 16:41:19.000574 16492 net.cpp:157] Top shape: 70 (70)
I0524 16:41:19.000597 16492 net.cpp:165] Memory required for data: 1778840
I0524 16:41:19.000608 16492 layer_factory.hpp:77] Creating layer conv1
I0524 16:41:19.000635 16492 net.cpp:106] Creating Layer conv1
I0524 16:41:19.000648 16492 net.cpp:454] conv1 <- data
I0524 16:41:19.000671 16492 net.cpp:411] conv1 -> conv1
I0524 16:41:19.002637 16492 net.cpp:150] Setting up conv1
I0524 16:41:19.002662 16492 net.cpp:157] Top shape: 70 12 120 48 (4838400)
I0524 16:41:19.002682 16492 net.cpp:165] Memory required for data: 21132440
I0524 16:41:19.002707 16492 layer_factory.hpp:77] Creating layer relu1
I0524 16:41:19.002727 16492 net.cpp:106] Creating Layer relu1
I0524 16:41:19.002748 16492 net.cpp:454] relu1 <- conv1
I0524 16:41:19.002764 16492 net.cpp:397] relu1 -> conv1 (in-place)
I0524 16:41:19.003281 16492 net.cpp:150] Setting up relu1
I0524 16:41:19.003304 16492 net.cpp:157] Top shape: 70 12 120 48 (4838400)
I0524 16:41:19.003317 16492 net.cpp:165] Memory required for data: 40486040
I0524 16:41:19.003329 16492 layer_factory.hpp:77] Creating layer pool1
I0524 16:41:19.003360 16492 net.cpp:106] Creating Layer pool1
I0524 16:41:19.003372 16492 net.cpp:454] pool1 <- conv1
I0524 16:41:19.003389 16492 net.cpp:411] pool1 -> pool1
I0524 16:41:19.003476 16492 net.cpp:150] Setting up pool1
I0524 16:41:19.003494 16492 net.cpp:157] Top shape: 70 12 60 48 (2419200)
I0524 16:41:19.003507 16492 net.cpp:165] Memory required for data: 50162840
I0524 16:41:19.003520 16492 layer_factory.hpp:77] Creating layer conv2
I0524 16:41:19.003547 16492 net.cpp:106] Creating Layer conv2
I0524 16:41:19.003561 16492 net.cpp:454] conv2 <- pool1
I0524 16:41:19.003577 16492 net.cpp:411] conv2 -> conv2
I0524 16:41:19.005532 16492 net.cpp:150] Setting up conv2
I0524 16:41:19.005555 16492 net.cpp:157] Top shape: 70 20 54 46 (3477600)
I0524 16:41:19.005575 16492 net.cpp:165] Memory required for data: 64073240
I0524 16:41:19.005597 16492 layer_factory.hpp:77] Creating layer relu2
I0524 16:41:19.005616 16492 net.cpp:106] Creating Layer relu2
I0524 16:41:19.005630 16492 net.cpp:454] relu2 <- conv2
I0524 16:41:19.005655 16492 net.cpp:397] relu2 -> conv2 (in-place)
I0524 16:41:19.006012 16492 net.cpp:150] Setting up relu2
I0524 16:41:19.006031 16492 net.cpp:157] Top shape: 70 20 54 46 (3477600)
I0524 16:41:19.006044 16492 net.cpp:165] Memory required for data: 77983640
I0524 16:41:19.006057 16492 layer_factory.hpp:77] Creating layer pool2
I0524 16:41:19.006074 16492 net.cpp:106] Creating Layer pool2
I0524 16:41:19.006094 16492 net.cpp:454] pool2 <- conv2
I0524 16:41:19.006110 16492 net.cpp:411] pool2 -> pool2
I0524 16:41:19.006202 16492 net.cpp:150] Setting up pool2
I0524 16:41:19.006218 16492 net.cpp:157] Top shape: 70 20 27 46 (1738800)
I0524 16:41:19.006232 16492 net.cpp:165] Memory required for data: 84938840
I0524 16:41:19.006243 16492 layer_factory.hpp:77] Creating layer conv3
I0524 16:41:19.006268 16492 net.cpp:106] Creating Layer conv3
I0524 16:41:19.006289 16492 net.cpp:454] conv3 <- pool2
I0524 16:41:19.006305 16492 net.cpp:411] conv3 -> conv3
I0524 16:41:19.008302 16492 net.cpp:150] Setting up conv3
I0524 16:41:19.008327 16492 net.cpp:157] Top shape: 70 28 22 44 (1897280)
I0524 16:41:19.008347 16492 net.cpp:165] Memory required for data: 92527960
I0524 16:41:19.008385 16492 layer_factory.hpp:77] Creating layer relu3
I0524 16:41:19.008400 16492 net.cpp:106] Creating Layer relu3
I0524 16:41:19.008414 16492 net.cpp:454] relu3 <- conv3
I0524 16:41:19.008440 16492 net.cpp:397] relu3 -> conv3 (in-place)
I0524 16:41:19.008939 16492 net.cpp:150] Setting up relu3
I0524 16:41:19.008962 16492 net.cpp:157] Top shape: 70 28 22 44 (1897280)
I0524 16:41:19.008975 16492 net.cpp:165] Memory required for data: 100117080
I0524 16:41:19.008991 16492 layer_factory.hpp:77] Creating layer pool3
I0524 16:41:19.009006 16492 net.cpp:106] Creating Layer pool3
I0524 16:41:19.009027 16492 net.cpp:454] pool3 <- conv3
I0524 16:41:19.009043 16492 net.cpp:411] pool3 -> pool3
I0524 16:41:19.009130 16492 net.cpp:150] Setting up pool3
I0524 16:41:19.009146 16492 net.cpp:157] Top shape: 70 28 11 44 (948640)
I0524 16:41:19.009160 16492 net.cpp:165] Memory required for data: 103911640
I0524 16:41:19.009172 16492 layer_factory.hpp:77] Creating layer conv4
I0524 16:41:19.009201 16492 net.cpp:106] Creating Layer conv4
I0524 16:41:19.009212 16492 net.cpp:454] conv4 <- pool3
I0524 16:41:19.009229 16492 net.cpp:411] conv4 -> conv4
I0524 16:41:19.011322 16492 net.cpp:150] Setting up conv4
I0524 16:41:19.011345 16492 net.cpp:157] Top shape: 70 36 6 42 (635040)
I0524 16:41:19.011364 16492 net.cpp:165] Memory required for data: 106451800
I0524 16:41:19.011384 16492 layer_factory.hpp:77] Creating layer relu4
I0524 16:41:19.011402 16492 net.cpp:106] Creating Layer relu4
I0524 16:41:19.011415 16492 net.cpp:454] relu4 <- conv4
I0524 16:41:19.011430 16492 net.cpp:397] relu4 -> conv4 (in-place)
I0524 16:41:19.011922 16492 net.cpp:150] Setting up relu4
I0524 16:41:19.011945 16492 net.cpp:157] Top shape: 70 36 6 42 (635040)
I0524 16:41:19.011957 16492 net.cpp:165] Memory required for data: 108991960
I0524 16:41:19.011970 16492 layer_factory.hpp:77] Creating layer pool4
I0524 16:41:19.011989 16492 net.cpp:106] Creating Layer pool4
I0524 16:41:19.012011 16492 net.cpp:454] pool4 <- conv4
I0524 16:41:19.012027 16492 net.cpp:411] pool4 -> pool4
I0524 16:41:19.012112 16492 net.cpp:150] Setting up pool4
I0524 16:41:19.012130 16492 net.cpp:157] Top shape: 70 36 3 42 (317520)
I0524 16:41:19.012145 16492 net.cpp:165] Memory required for data: 110262040
I0524 16:41:19.012156 16492 layer_factory.hpp:77] Creating layer ip1
I0524 16:41:19.012181 16492 net.cpp:106] Creating Layer ip1
I0524 16:41:19.012193 16492 net.cpp:454] ip1 <- pool4
I0524 16:41:19.012214 16492 net.cpp:411] ip1 -> ip1
I0524 16:41:19.027632 16492 net.cpp:150] Setting up ip1
I0524 16:41:19.027662 16492 net.cpp:157] Top shape: 70 196 (13720)
I0524 16:41:19.027683 16492 net.cpp:165] Memory required for data: 110316920
I0524 16:41:19.027710 16492 layer_factory.hpp:77] Creating layer relu5
I0524 16:41:19.027732 16492 net.cpp:106] Creating Layer relu5
I0524 16:41:19.027756 16492 net.cpp:454] relu5 <- ip1
I0524 16:41:19.027773 16492 net.cpp:397] relu5 -> ip1 (in-place)
I0524 16:41:19.028136 16492 net.cpp:150] Setting up relu5
I0524 16:41:19.028156 16492 net.cpp:157] Top shape: 70 196 (13720)
I0524 16:41:19.028167 16492 net.cpp:165] Memory required for data: 110371800
I0524 16:41:19.028182 16492 layer_factory.hpp:77] Creating layer drop1
I0524 16:41:19.028213 16492 net.cpp:106] Creating Layer drop1
I0524 16:41:19.028225 16492 net.cpp:454] drop1 <- ip1
I0524 16:41:19.028241 16492 net.cpp:397] drop1 -> ip1 (in-place)
I0524 16:41:19.028301 16492 net.cpp:150] Setting up drop1
I0524 16:41:19.028318 16492 net.cpp:157] Top shape: 70 196 (13720)
I0524 16:41:19.028337 16492 net.cpp:165] Memory required for data: 110426680
I0524 16:41:19.028349 16492 layer_factory.hpp:77] Creating layer ip2
I0524 16:41:19.028365 16492 net.cpp:106] Creating Layer ip2
I0524 16:41:19.028380 16492 net.cpp:454] ip2 <- ip1
I0524 16:41:19.028396 16492 net.cpp:411] ip2 -> ip2
I0524 16:41:19.028898 16492 net.cpp:150] Setting up ip2
I0524 16:41:19.028915 16492 net.cpp:157] Top shape: 70 98 (6860)
I0524 16:41:19.028928 16492 net.cpp:165] Memory required for data: 110454120
I0524 16:41:19.028949 16492 layer_factory.hpp:77] Creating layer relu6
I0524 16:41:19.028983 16492 net.cpp:106] Creating Layer relu6
I0524 16:41:19.028996 16492 net.cpp:454] relu6 <- ip2
I0524 16:41:19.029013 16492 net.cpp:397] relu6 -> ip2 (in-place)
I0524 16:41:19.029573 16492 net.cpp:150] Setting up relu6
I0524 16:41:19.029597 16492 net.cpp:157] Top shape: 70 98 (6860)
I0524 16:41:19.029609 16492 net.cpp:165] Memory required for data: 110481560
I0524 16:41:19.029621 16492 layer_factory.hpp:77] Creating layer drop2
I0524 16:41:19.029640 16492 net.cpp:106] Creating Layer drop2
I0524 16:41:19.029654 16492 net.cpp:454] drop2 <- ip2
I0524 16:41:19.029677 16492 net.cpp:397] drop2 -> ip2 (in-place)
I0524 16:41:19.029734 16492 net.cpp:150] Setting up drop2
I0524 16:41:19.029749 16492 net.cpp:157] Top shape: 70 98 (6860)
I0524 16:41:19.029769 16492 net.cpp:165] Memory required for data: 110509000
I0524 16:41:19.029783 16492 layer_factory.hpp:77] Creating layer ip3
I0524 16:41:19.029804 16492 net.cpp:106] Creating Layer ip3
I0524 16:41:19.029817 16492 net.cpp:454] ip3 <- ip2
I0524 16:41:19.029836 16492 net.cpp:411] ip3 -> ip3
I0524 16:41:19.030086 16492 net.cpp:150] Setting up ip3
I0524 16:41:19.030104 16492 net.cpp:157] Top shape: 70 11 (770)
I0524 16:41:19.030117 16492 net.cpp:165] Memory required for data: 110512080
I0524 16:41:19.030134 16492 layer_factory.hpp:77] Creating layer drop3
I0524 16:41:19.030154 16492 net.cpp:106] Creating Layer drop3
I0524 16:41:19.030166 16492 net.cpp:454] drop3 <- ip3
I0524 16:41:19.030189 16492 net.cpp:397] drop3 -> ip3 (in-place)
I0524 16:41:19.030238 16492 net.cpp:150] Setting up drop3
I0524 16:41:19.030256 16492 net.cpp:157] Top shape: 70 11 (770)
I0524 16:41:19.030277 16492 net.cpp:165] Memory required for data: 110515160
I0524 16:41:19.030289 16492 layer_factory.hpp:77] Creating layer ip3_drop3_0_split
I0524 16:41:19.030308 16492 net.cpp:106] Creating Layer ip3_drop3_0_split
I0524 16:41:19.030320 16492 net.cpp:454] ip3_drop3_0_split <- ip3
I0524 16:41:19.030339 16492 net.cpp:411] ip3_drop3_0_split -> ip3_drop3_0_split_0
I0524 16:41:19.030356 16492 net.cpp:411] ip3_drop3_0_split -> ip3_drop3_0_split_1
I0524 16:41:19.030442 16492 net.cpp:150] Setting up ip3_drop3_0_split
I0524 16:41:19.030465 16492 net.cpp:157] Top shape: 70 11 (770)
I0524 16:41:19.030480 16492 net.cpp:157] Top shape: 70 11 (770)
I0524 16:41:19.030493 16492 net.cpp:165] Memory required for data: 110521320
I0524 16:41:19.030504 16492 layer_factory.hpp:77] Creating layer accuracy
I0524 16:41:19.030529 16492 net.cpp:106] Creating Layer accuracy
I0524 16:41:19.030542 16492 net.cpp:454] accuracy <- ip3_drop3_0_split_0
I0524 16:41:19.030563 16492 net.cpp:454] accuracy <- label_data_hdf5_1_split_0
I0524 16:41:19.030580 16492 net.cpp:411] accuracy -> accuracy
…
