…
I0524 20:42:24.461480 14843 net.cpp:322] The NetState phase (0) differed from the phase (1) specified by a rule in layer data_hdf5
I0524 20:42:24.461545 14843 net.cpp:322] The NetState phase (0) differed from the phase (1) specified by a rule in layer accuracy
I0524 20:42:24.461923 14843 net.cpp:49] Initializing net from parameters: 
name: "caffe_test_127x50_x_unshifted"
state {
  phase: TRAIN
}
layer {
  name: "data_hdf5"
  type: "HDF5Data"
  top: "data"
  top: "label"
  include {
    phase: TRAIN
  }
  hdf5_data_param {
    source: "/lustre/atlas/proj-shared/hep105/caffe_titan/minosmatch_nukecczdefs_127x50_x_unshifted_me1Bmc.trainlist"
    batch_size: 80
  }
}
layer {
  name: "conv1"
  type: "Convolution"
  bottom: "data"
  top: "conv1"
  convolution_param {
    num_output: 12
    pad: 0
    stride: 1
    weight_filler {
      type: "xavier"
    }
    bias_filler {
      type: "constant"
    }
    kernel_h: 8
    kernel_w: 3
  }
}
layer {
  name: "relu1"
  type: "ReLU"
  bottom: "conv1"
  top: "conv1"
}
layer {
  name: "pool1"
  type: "Pooling"
  bottom: "conv1"
  top: "pool1"
  pooling_param {
    pool: MAX
    kernel_h: 2
    kernel_w: 1
    stride_h: 2
    stride_w: 1
  }
}
layer {
  name: "conv2"
  type: "Convolution"
  bottom: "pool1"
  top: "conv2"
  convolution_param {
    num_output: 20
    pad: 0
    stride: 1
    weight_filler {
      type: "xavier"
    }
    bias_filler {
      type: "constant"
    }
    kernel_h: 7
    kernel_w: 3
  }
}
layer {
  name: "relu2"
  type: "ReLU"
  bottom: "conv2"
  top: "conv2"
}
layer {
  name: "pool2"
  type: "Pooling"
  bottom: "conv2"
  top: "pool2"
  pooling_param {
    pool: MAX
    kernel_h: 2
    kernel_w: 1
    stride_h: 2
    stride_w: 1
  }
}
layer {
  name: "conv3"
  type: "Convolution"
  bottom: "pool2"
  top: "conv3"
  convolution_param {
    num_output: 28
    pad: 0
    stride: 1
    weight_filler {
      type: "xavier"
    }
    bias_filler {
      type: "constant"
    }
    kernel_h: 6
    kernel_w: 3
  }
}
layer {
  name: "relu3"
  type: "ReLU"
  bottom: "conv3"
  top: "conv3"
}
layer {
  name: "pool3"
  type: "Pooling"
  bottom: "conv3"
  top: "pool3"
  pooling_param {
    pool: MAX
    kernel_h: 2
    kernel_w: 1
    stride_h: 2
    stride_w: 1
  }
}
layer {
  name: "conv4"
  type: "Convolution"
  bottom: "pool3"
  top: "conv4"
  convolution_param {
    num_output: 36
    pad: 0
    stride: 1
    weight_filler {
      type: "xavier"
    }
    bias_filler {
      type: "constant"
    }
    kernel_h: 6
    kernel_w: 3
  }
}
layer {
  name: "relu4"
  type: "ReLU"
  bottom: "conv4"
  top: "conv4"
}
layer {
  name: "pool4"
  type: "Pooling"
  bottom: "conv4"
  top: "pool4"
  pooling_param {
    pool: MAX
    kernel_h: 2
    kernel_w: 1
    stride_h: 2
    stride_w: 1
  }
}
layer {
  name: "ip1"
  type: "InnerProduct"
  bottom: "pool4"
  top: "ip1"
  inner_product_param {
    num_output: 196
    weight_filler {
      type: "xavier"
    }
    bias_filler {
      type: "constant"
    }
  }
}
layer {
  name: "relu5"
  type: "ReLU"
  bottom: "ip1"
  top: "ip1"
}
layer {
  name: "drop1"
  type: "Dropout"
  bottom: "ip1"
  top: "ip1"
  dropout_param {
    dropout_ratio: 0.5
  }
}
layer {
  name: "ip2"
  type: "InnerProduct"
  bottom: "ip1"
  top: "ip2"
  inner_product_param {
    num_output: 98
    weight_filler {
      type: "xavier"
    }
    bias_filler {
      type: "constant"
    }
  }
}
layer {
  name: "relu6"
  type: "ReLU"
  bottom: "ip2"
  top: "ip2"
}
layer {
  name: "drop2"
  type: "Dropout"
  bottom: "ip2"
  top: "ip2"
  dropout_param {
    dropout_ratio: 0.5
  }
}
layer {
  name: "ip3"
  type: "InnerProduct"
  bottom: "ip2"
  top: "ip3"
  inner_product_param {
    num_output: 11
    weight_filler {
      type: "xavier"
    }
    bias_filler {
      type: "constant"
    }
  }
}
layer {
  name: "drop3"
  type: "Dropout"
  bottom: "ip3"
  top: "ip3"
  dropout_param {
    dropout_ratio: 0.5
  }
}
layer {
  name: "loss"
  type: "SoftmaxWithLoss"
  bottom: "ip3"
  bottom: "label"
  top: "loss"
}
I0524 20:42:24.462132 14843 layer_factory.hpp:77] Creating layer data_hdf5
I0524 20:42:24.462169 14843 net.cpp:106] Creating Layer data_hdf5
I0524 20:42:24.462188 14843 net.cpp:411] data_hdf5 -> data
I0524 20:42:24.462219 14843 net.cpp:411] data_hdf5 -> label
I0524 20:42:24.462256 14843 hdf5_data_layer.cpp:79] Loading list of HDF5 filenames from: /lustre/atlas/proj-shared/hep105/caffe_titan/minosmatch_nukecczdefs_127x50_x_unshifted_me1Bmc.trainlist
I0524 20:42:24.463501 14843 hdf5_data_layer.cpp:93] Number of HDF5 files: 15
I0524 20:42:24.465713 14843 hdf5.cpp:32] Datatype class: H5T_FLOAT
I0524 20:42:45.992775 14843 hdf5.cpp:35] Datatype class: H5T_INTEGER
I0524 20:42:45.997975 14843 net.cpp:150] Setting up data_hdf5
I0524 20:42:45.998016 14843 net.cpp:157] Top shape: 80 1 127 50 (508000)
I0524 20:42:45.998034 14843 net.cpp:157] Top shape: 80 (80)
I0524 20:42:45.998046 14843 net.cpp:165] Memory required for data: 2032320
I0524 20:42:45.998065 14843 layer_factory.hpp:77] Creating layer conv1
I0524 20:42:45.998118 14843 net.cpp:106] Creating Layer conv1
I0524 20:42:45.998145 14843 net.cpp:454] conv1 <- data
I0524 20:42:45.998170 14843 net.cpp:411] conv1 -> conv1
I0524 20:42:46.370687 14843 net.cpp:150] Setting up conv1
I0524 20:42:46.370741 14843 net.cpp:157] Top shape: 80 12 120 48 (5529600)
I0524 20:42:46.370765 14843 net.cpp:165] Memory required for data: 24150720
I0524 20:42:46.370795 14843 layer_factory.hpp:77] Creating layer relu1
I0524 20:42:46.370817 14843 net.cpp:106] Creating Layer relu1
I0524 20:42:46.370838 14843 net.cpp:454] relu1 <- conv1
I0524 20:42:46.370873 14843 net.cpp:397] relu1 -> conv1 (in-place)
I0524 20:42:46.371404 14843 net.cpp:150] Setting up relu1
I0524 20:42:46.371428 14843 net.cpp:157] Top shape: 80 12 120 48 (5529600)
I0524 20:42:46.371441 14843 net.cpp:165] Memory required for data: 46269120
I0524 20:42:46.371459 14843 layer_factory.hpp:77] Creating layer pool1
I0524 20:42:46.371485 14843 net.cpp:106] Creating Layer pool1
I0524 20:42:46.371500 14843 net.cpp:454] pool1 <- conv1
I0524 20:42:46.371515 14843 net.cpp:411] pool1 -> pool1
I0524 20:42:46.371609 14843 net.cpp:150] Setting up pool1
I0524 20:42:46.371626 14843 net.cpp:157] Top shape: 80 12 60 48 (2764800)
I0524 20:42:46.371641 14843 net.cpp:165] Memory required for data: 57328320
I0524 20:42:46.371662 14843 layer_factory.hpp:77] Creating layer conv2
I0524 20:42:46.371686 14843 net.cpp:106] Creating Layer conv2
I0524 20:42:46.371700 14843 net.cpp:454] conv2 <- pool1
I0524 20:42:46.371716 14843 net.cpp:411] conv2 -> conv2
I0524 20:42:46.374462 14843 net.cpp:150] Setting up conv2
I0524 20:42:46.374493 14843 net.cpp:157] Top shape: 80 20 54 46 (3974400)
I0524 20:42:46.374507 14843 net.cpp:165] Memory required for data: 73225920
I0524 20:42:46.374536 14843 layer_factory.hpp:77] Creating layer relu2
I0524 20:42:46.374563 14843 net.cpp:106] Creating Layer relu2
I0524 20:42:46.374578 14843 net.cpp:454] relu2 <- conv2
I0524 20:42:46.374593 14843 net.cpp:397] relu2 -> conv2 (in-place)
I0524 20:42:46.374950 14843 net.cpp:150] Setting up relu2
I0524 20:42:46.374970 14843 net.cpp:157] Top shape: 80 20 54 46 (3974400)
I0524 20:42:46.374984 14843 net.cpp:165] Memory required for data: 89123520
I0524 20:42:46.374999 14843 layer_factory.hpp:77] Creating layer pool2
I0524 20:42:46.375021 14843 net.cpp:106] Creating Layer pool2
I0524 20:42:46.375036 14843 net.cpp:454] pool2 <- conv2
I0524 20:42:46.375051 14843 net.cpp:411] pool2 -> pool2
I0524 20:42:46.375145 14843 net.cpp:150] Setting up pool2
I0524 20:42:46.375162 14843 net.cpp:157] Top shape: 80 20 27 46 (1987200)
I0524 20:42:46.375177 14843 net.cpp:165] Memory required for data: 97072320
I0524 20:42:46.375196 14843 layer_factory.hpp:77] Creating layer conv3
I0524 20:42:46.375217 14843 net.cpp:106] Creating Layer conv3
I0524 20:42:46.375237 14843 net.cpp:454] conv3 <- pool2
I0524 20:42:46.375254 14843 net.cpp:411] conv3 -> conv3
I0524 20:42:46.377200 14843 net.cpp:150] Setting up conv3
I0524 20:42:46.377225 14843 net.cpp:157] Top shape: 80 28 22 44 (2168320)
I0524 20:42:46.377245 14843 net.cpp:165] Memory required for data: 105745600
I0524 20:42:46.377267 14843 layer_factory.hpp:77] Creating layer relu3
I0524 20:42:46.377290 14843 net.cpp:106] Creating Layer relu3
I0524 20:42:46.377311 14843 net.cpp:454] relu3 <- conv3
I0524 20:42:46.377327 14843 net.cpp:397] relu3 -> conv3 (in-place)
I0524 20:42:46.377815 14843 net.cpp:150] Setting up relu3
I0524 20:42:46.377838 14843 net.cpp:157] Top shape: 80 28 22 44 (2168320)
I0524 20:42:46.377851 14843 net.cpp:165] Memory required for data: 114418880
I0524 20:42:46.377867 14843 layer_factory.hpp:77] Creating layer pool3
I0524 20:42:46.377892 14843 net.cpp:106] Creating Layer pool3
I0524 20:42:46.377905 14843 net.cpp:454] pool3 <- conv3
I0524 20:42:46.377921 14843 net.cpp:411] pool3 -> pool3
I0524 20:42:46.378005 14843 net.cpp:150] Setting up pool3
I0524 20:42:46.378021 14843 net.cpp:157] Top shape: 80 28 11 44 (1084160)
I0524 20:42:46.378036 14843 net.cpp:165] Memory required for data: 118755520
I0524 20:42:46.378048 14843 layer_factory.hpp:77] Creating layer conv4
I0524 20:42:46.378075 14843 net.cpp:106] Creating Layer conv4
I0524 20:42:46.378094 14843 net.cpp:454] conv4 <- pool3
I0524 20:42:46.378113 14843 net.cpp:411] conv4 -> conv4
I0524 20:42:46.381089 14843 net.cpp:150] Setting up conv4
I0524 20:42:46.381122 14843 net.cpp:157] Top shape: 80 36 6 42 (725760)
I0524 20:42:46.381139 14843 net.cpp:165] Memory required for data: 121658560
I0524 20:42:46.381158 14843 layer_factory.hpp:77] Creating layer relu4
I0524 20:42:46.381180 14843 net.cpp:106] Creating Layer relu4
I0524 20:42:46.381206 14843 net.cpp:454] relu4 <- conv4
I0524 20:42:46.381222 14843 net.cpp:397] relu4 -> conv4 (in-place)
I0524 20:42:46.381711 14843 net.cpp:150] Setting up relu4
I0524 20:42:46.381734 14843 net.cpp:157] Top shape: 80 36 6 42 (725760)
I0524 20:42:46.381747 14843 net.cpp:165] Memory required for data: 124561600
I0524 20:42:46.381762 14843 layer_factory.hpp:77] Creating layer pool4
I0524 20:42:46.381778 14843 net.cpp:106] Creating Layer pool4
I0524 20:42:46.381800 14843 net.cpp:454] pool4 <- conv4
I0524 20:42:46.381817 14843 net.cpp:411] pool4 -> pool4
I0524 20:42:46.381899 14843 net.cpp:150] Setting up pool4
I0524 20:42:46.381921 14843 net.cpp:157] Top shape: 80 36 3 42 (362880)
I0524 20:42:46.381933 14843 net.cpp:165] Memory required for data: 126013120
I0524 20:42:46.381948 14843 layer_factory.hpp:77] Creating layer ip1
I0524 20:42:46.381975 14843 net.cpp:106] Creating Layer ip1
I0524 20:42:46.381989 14843 net.cpp:454] ip1 <- pool4
I0524 20:42:46.382004 14843 net.cpp:411] ip1 -> ip1
I0524 20:42:46.397428 14843 net.cpp:150] Setting up ip1
I0524 20:42:46.397459 14843 net.cpp:157] Top shape: 80 196 (15680)
I0524 20:42:46.397480 14843 net.cpp:165] Memory required for data: 126075840
I0524 20:42:46.397505 14843 layer_factory.hpp:77] Creating layer relu5
I0524 20:42:46.397527 14843 net.cpp:106] Creating Layer relu5
I0524 20:42:46.397552 14843 net.cpp:454] relu5 <- ip1
I0524 20:42:46.397569 14843 net.cpp:397] relu5 -> ip1 (in-place)
I0524 20:42:46.397925 14843 net.cpp:150] Setting up relu5
I0524 20:42:46.397945 14843 net.cpp:157] Top shape: 80 196 (15680)
I0524 20:42:46.397958 14843 net.cpp:165] Memory required for data: 126138560
I0524 20:42:46.397974 14843 layer_factory.hpp:77] Creating layer drop1
I0524 20:42:46.398005 14843 net.cpp:106] Creating Layer drop1
I0524 20:42:46.398020 14843 net.cpp:454] drop1 <- ip1
I0524 20:42:46.398041 14843 net.cpp:397] drop1 -> ip1 (in-place)
I0524 20:42:46.398123 14843 net.cpp:150] Setting up drop1
I0524 20:42:46.398144 14843 net.cpp:157] Top shape: 80 196 (15680)
I0524 20:42:46.398157 14843 net.cpp:165] Memory required for data: 126201280
I0524 20:42:46.398169 14843 layer_factory.hpp:77] Creating layer ip2
I0524 20:42:46.398195 14843 net.cpp:106] Creating Layer ip2
I0524 20:42:46.398213 14843 net.cpp:454] ip2 <- ip1
I0524 20:42:46.398229 14843 net.cpp:411] ip2 -> ip2
I0524 20:42:46.398716 14843 net.cpp:150] Setting up ip2
I0524 20:42:46.398736 14843 net.cpp:157] Top shape: 80 98 (7840)
I0524 20:42:46.398748 14843 net.cpp:165] Memory required for data: 126232640
I0524 20:42:46.398769 14843 layer_factory.hpp:77] Creating layer relu6
I0524 20:42:46.398784 14843 net.cpp:106] Creating Layer relu6
I0524 20:42:46.398804 14843 net.cpp:454] relu6 <- ip2
I0524 20:42:46.398819 14843 net.cpp:397] relu6 -> ip2 (in-place)
I0524 20:42:46.399379 14843 net.cpp:150] Setting up relu6
I0524 20:42:46.399401 14843 net.cpp:157] Top shape: 80 98 (7840)
I0524 20:42:46.399415 14843 net.cpp:165] Memory required for data: 126264000
I0524 20:42:46.399430 14843 layer_factory.hpp:77] Creating layer drop2
I0524 20:42:46.399454 14843 net.cpp:106] Creating Layer drop2
I0524 20:42:46.399467 14843 net.cpp:454] drop2 <- ip2
I0524 20:42:46.399483 14843 net.cpp:397] drop2 -> ip2 (in-place)
I0524 20:42:46.399533 14843 net.cpp:150] Setting up drop2
I0524 20:42:46.399556 14843 net.cpp:157] Top shape: 80 98 (7840)
I0524 20:42:46.399569 14843 net.cpp:165] Memory required for data: 126295360
I0524 20:42:46.399585 14843 layer_factory.hpp:77] Creating layer ip3
I0524 20:42:46.399601 14843 net.cpp:106] Creating Layer ip3
I0524 20:42:46.399616 14843 net.cpp:454] ip3 <- ip2
I0524 20:42:46.399637 14843 net.cpp:411] ip3 -> ip3
I0524 20:42:46.399862 14843 net.cpp:150] Setting up ip3
I0524 20:42:46.399879 14843 net.cpp:157] Top shape: 80 11 (880)
I0524 20:42:46.399893 14843 net.cpp:165] Memory required for data: 126298880
I0524 20:42:46.399912 14843 layer_factory.hpp:77] Creating layer drop3
I0524 20:42:46.399929 14843 net.cpp:106] Creating Layer drop3
I0524 20:42:46.399947 14843 net.cpp:454] drop3 <- ip3
I0524 20:42:46.399962 14843 net.cpp:397] drop3 -> ip3 (in-place)
I0524 20:42:46.400009 14843 net.cpp:150] Setting up drop3
I0524 20:42:46.400024 14843 net.cpp:157] Top shape: 80 11 (880)
I0524 20:42:46.400037 14843 net.cpp:165] Memory required for data: 126302400
I0524 20:42:46.400055 14843 layer_factory.hpp:77] Creating layer loss
I0524 20:42:46.400077 14843 net.cpp:106] Creating Layer loss
I0524 20:42:46.400092 14843 net.cpp:454] loss <- ip3
I0524 20:42:46.400106 14843 net.cpp:454] loss <- label
I0524 20:42:46.400122 14843 net.cpp:411] loss -> loss
I0524 20:42:46.400141 14843 layer_factory.hpp:77] Creating layer loss
…
I0524 20:42:46.403218 14843 solver.cpp:181] Creating test net (#0) specified by net file: /lustre/atlas/proj-shared/hep105/caffe_titan/caffe_workflow/logs_bslr/bs_80_lr_0.0025_2016-05-20T15.49.17.899667.prototxt
I0524 20:42:46.403297 14843 net.cpp:322] The NetState phase (1) differed from the phase (0) specified by a rule in layer data_hdf5
I0524 20:42:46.403676 14843 net.cpp:49] Initializing net from parameters: 
name: "caffe_test_127x50_x_unshifted"
state {
  phase: TEST
}
layer {
  name: "data_hdf5"
  type: "HDF5Data"
  top: "data"
  top: "label"
  include {
    phase: TEST
  }
  hdf5_data_param {
    source: "/lustre/atlas/proj-shared/hep105/caffe_titan/minosmatch_nukecczdefs_127x50_x_unshifted_me1Bmc.testlist"
    batch_size: 80
  }
}
layer {
  name: "conv1"
  type: "Convolution"
  bottom: "data"
  top: "conv1"
  convolution_param {
    num_output: 12
    pad: 0
    stride: 1
    weight_filler {
      type: "xavier"
    }
    bias_filler {
      type: "constant"
    }
    kernel_h: 8
    kernel_w: 3
  }
}
layer {
  name: "relu1"
  type: "ReLU"
  bottom: "conv1"
  top: "conv1"
}
layer {
  name: "pool1"
  type: "Pooling"
  bottom: "conv1"
  top: "pool1"
  pooling_param {
    pool: MAX
    kernel_h: 2
    kernel_w: 1
    stride_h: 2
    stride_w: 1
  }
}
layer {
  name: "conv2"
  type: "Convolution"
  bottom: "pool1"
  top: "conv2"
  convolution_param {
    num_output: 20
    pad: 0
    stride: 1
    weight_filler {
      type: "xavier"
    }
    bias_filler {
      type: "constant"
    }
    kernel_h: 7
    kernel_w: 3
  }
}
layer {
  name: "relu2"
  type: "ReLU"
  bottom: "conv2"
  top: "conv2"
}
layer {
  name: "pool2"
  type: "Pooling"
  bottom: "conv2"
  top: "pool2"
  pooling_param {
    pool: MAX
    kernel_h: 2
    kernel_w: 1
    stride_h: 2
    stride_w: 1
  }
}
layer {
  name: "conv3"
  type: "Convolution"
  bottom: "pool2"
  top: "conv3"
  convolution_param {
    num_output: 28
    pad: 0
    stride: 1
    weight_filler {
      type: "xavier"
    }
    bias_filler {
      type: "constant"
    }
    kernel_h: 6
    kernel_w: 3
  }
}
layer {
  name: "relu3"
  type: "ReLU"
  bottom: "conv3"
  top: "conv3"
}
layer {
  name: "pool3"
  type: "Pooling"
  bottom: "conv3"
  top: "pool3"
  pooling_param {
    pool: MAX
    kernel_h: 2
    kernel_w: 1
    stride_h: 2
    stride_w: 1
  }
}
layer {
  name: "conv4"
  type: "Convolution"
  bottom: "pool3"
  top: "conv4"
  convolution_param {
    num_output: 36
    pad: 0
    stride: 1
    weight_filler {
      type: "xavier"
    }
    bias_filler {
      type: "constant"
    }
    kernel_h: 6
    kernel_w: 3
  }
}
layer {
  name: "relu4"
  type: "ReLU"
  bottom: "conv4"
  top: "conv4"
}
layer {
  name: "pool4"
  type: "Pooling"
  bottom: "conv4"
  top: "pool4"
  pooling_param {
    pool: MAX
    kernel_h: 2
    kernel_w: 1
    stride_h: 2
    stride_w: 1
  }
}
layer {
  name: "ip1"
  type: "InnerProduct"
  bottom: "pool4"
  top: "ip1"
  inner_product_param {
    num_output: 196
    weight_filler {
      type: "xavier"
    }
    bias_filler {
      type: "constant"
    }
  }
}
layer {
  name: "relu5"
  type: "ReLU"
  bottom: "ip1"
  top: "ip1"
}
layer {
  name: "drop1"
  type: "Dropout"
  bottom: "ip1"
  top: "ip1"
  dropout_param {
    dropout_ratio: 0.5
  }
}
layer {
  name: "ip2"
  type: "InnerProduct"
  bottom: "ip1"
  top: "ip2"
  inner_product_param {
    num_output: 98
    weight_filler {
      type: "xavier"
    }
    bias_filler {
      type: "constant"
    }
  }
}
layer {
  name: "relu6"
  type: "ReLU"
  bottom: "ip2"
  top: "ip2"
}
layer {
  name: "drop2"
  type: "Dropout"
  bottom: "ip2"
  top: "ip2"
  dropout_param {
    dropout_ratio: 0.5
  }
}
layer {
  name: "ip3"
  type: "InnerProduct"
  bottom: "ip2"
  top: "ip3"
  inner_product_param {
    num_output: 11
    weight_filler {
      type: "xavier"
    }
    bias_filler {
      type: "constant"
    }
  }
}
layer {
  name: "drop3"
  type: "Dropout"
  bottom: "ip3"
  top: "ip3"
  dropout_param {
    dropout_ratio: 0.5
  }
}
layer {
  name: "accuracy"
  type: "Accuracy"
  bottom: "ip3"
  bottom: "label"
  top: "accuracy"
  include {
    phase: TEST
  }
}
layer {
  name: "loss"
  type: "SoftmaxWithLoss"
  bottom: "ip3"
  bottom: "label"
  top: "loss"
}
I0524 20:42:46.403892 14843 layer_factory.hpp:77] Creating layer data_hdf5
I0524 20:42:46.403918 14843 net.cpp:106] Creating Layer data_hdf5
I0524 20:42:46.403934 14843 net.cpp:411] data_hdf5 -> data
I0524 20:42:46.403959 14843 net.cpp:411] data_hdf5 -> label
I0524 20:42:46.403985 14843 hdf5_data_layer.cpp:79] Loading list of HDF5 filenames from: /lustre/atlas/proj-shared/hep105/caffe_titan/minosmatch_nukecczdefs_127x50_x_unshifted_me1Bmc.testlist
I0524 20:42:46.405218 14843 hdf5_data_layer.cpp:93] Number of HDF5 files: 3
I0524 20:43:07.736526 14843 net.cpp:150] Setting up data_hdf5
I0524 20:43:07.736696 14843 net.cpp:157] Top shape: 80 1 127 50 (508000)
I0524 20:43:07.736716 14843 net.cpp:157] Top shape: 80 (80)
I0524 20:43:07.736729 14843 net.cpp:165] Memory required for data: 2032320
I0524 20:43:07.736744 14843 layer_factory.hpp:77] Creating layer label_data_hdf5_1_split
I0524 20:43:07.736779 14843 net.cpp:106] Creating Layer label_data_hdf5_1_split
I0524 20:43:07.736793 14843 net.cpp:454] label_data_hdf5_1_split <- label
I0524 20:43:07.736809 14843 net.cpp:411] label_data_hdf5_1_split -> label_data_hdf5_1_split_0
I0524 20:43:07.736831 14843 net.cpp:411] label_data_hdf5_1_split -> label_data_hdf5_1_split_1
I0524 20:43:07.736909 14843 net.cpp:150] Setting up label_data_hdf5_1_split
I0524 20:43:07.736925 14843 net.cpp:157] Top shape: 80 (80)
I0524 20:43:07.736974 14843 net.cpp:157] Top shape: 80 (80)
I0524 20:43:07.736987 14843 net.cpp:165] Memory required for data: 2032960
I0524 20:43:07.736999 14843 layer_factory.hpp:77] Creating layer conv1
I0524 20:43:07.737022 14843 net.cpp:106] Creating Layer conv1
I0524 20:43:07.737035 14843 net.cpp:454] conv1 <- data
I0524 20:43:07.737066 14843 net.cpp:411] conv1 -> conv1
I0524 20:43:07.739063 14843 net.cpp:150] Setting up conv1
I0524 20:43:07.739090 14843 net.cpp:157] Top shape: 80 12 120 48 (5529600)
I0524 20:43:07.739111 14843 net.cpp:165] Memory required for data: 24151360
I0524 20:43:07.739135 14843 layer_factory.hpp:77] Creating layer relu1
I0524 20:43:07.739156 14843 net.cpp:106] Creating Layer relu1
I0524 20:43:07.739178 14843 net.cpp:454] relu1 <- conv1
I0524 20:43:07.739194 14843 net.cpp:397] relu1 -> conv1 (in-place)
I0524 20:43:07.739711 14843 net.cpp:150] Setting up relu1
I0524 20:43:07.739733 14843 net.cpp:157] Top shape: 80 12 120 48 (5529600)
I0524 20:43:07.739747 14843 net.cpp:165] Memory required for data: 46269760
I0524 20:43:07.739758 14843 layer_factory.hpp:77] Creating layer pool1
I0524 20:43:07.739789 14843 net.cpp:106] Creating Layer pool1
I0524 20:43:07.739801 14843 net.cpp:454] pool1 <- conv1
I0524 20:43:07.739819 14843 net.cpp:411] pool1 -> pool1
I0524 20:43:07.739907 14843 net.cpp:150] Setting up pool1
I0524 20:43:07.739924 14843 net.cpp:157] Top shape: 80 12 60 48 (2764800)
I0524 20:43:07.739939 14843 net.cpp:165] Memory required for data: 57328960
I0524 20:43:07.739958 14843 layer_factory.hpp:77] Creating layer conv2
I0524 20:43:07.739982 14843 net.cpp:106] Creating Layer conv2
I0524 20:43:07.740005 14843 net.cpp:454] conv2 <- pool1
I0524 20:43:07.740021 14843 net.cpp:411] conv2 -> conv2
I0524 20:43:07.741973 14843 net.cpp:150] Setting up conv2
I0524 20:43:07.741998 14843 net.cpp:157] Top shape: 80 20 54 46 (3974400)
I0524 20:43:07.742019 14843 net.cpp:165] Memory required for data: 73226560
I0524 20:43:07.742040 14843 layer_factory.hpp:77] Creating layer relu2
I0524 20:43:07.742060 14843 net.cpp:106] Creating Layer relu2
I0524 20:43:07.742081 14843 net.cpp:454] relu2 <- conv2
I0524 20:43:07.742105 14843 net.cpp:397] relu2 -> conv2 (in-place)
I0524 20:43:07.742458 14843 net.cpp:150] Setting up relu2
I0524 20:43:07.742478 14843 net.cpp:157] Top shape: 80 20 54 46 (3974400)
I0524 20:43:07.742491 14843 net.cpp:165] Memory required for data: 89124160
I0524 20:43:07.742507 14843 layer_factory.hpp:77] Creating layer pool2
I0524 20:43:07.742530 14843 net.cpp:106] Creating Layer pool2
I0524 20:43:07.742543 14843 net.cpp:454] pool2 <- conv2
I0524 20:43:07.742559 14843 net.cpp:411] pool2 -> pool2
I0524 20:43:07.742646 14843 net.cpp:150] Setting up pool2
I0524 20:43:07.742663 14843 net.cpp:157] Top shape: 80 20 27 46 (1987200)
I0524 20:43:07.742678 14843 net.cpp:165] Memory required for data: 97072960
I0524 20:43:07.742691 14843 layer_factory.hpp:77] Creating layer conv3
I0524 20:43:07.742714 14843 net.cpp:106] Creating Layer conv3
I0524 20:43:07.742733 14843 net.cpp:454] conv3 <- pool2
I0524 20:43:07.742751 14843 net.cpp:411] conv3 -> conv3
I0524 20:43:07.744770 14843 net.cpp:150] Setting up conv3
I0524 20:43:07.744794 14843 net.cpp:157] Top shape: 80 28 22 44 (2168320)
I0524 20:43:07.744813 14843 net.cpp:165] Memory required for data: 105746240
I0524 20:43:07.744853 14843 layer_factory.hpp:77] Creating layer relu3
I0524 20:43:07.744869 14843 net.cpp:106] Creating Layer relu3
I0524 20:43:07.744882 14843 net.cpp:454] relu3 <- conv3
I0524 20:43:07.744909 14843 net.cpp:397] relu3 -> conv3 (in-place)
I0524 20:43:07.745406 14843 net.cpp:150] Setting up relu3
I0524 20:43:07.745429 14843 net.cpp:157] Top shape: 80 28 22 44 (2168320)
I0524 20:43:07.745442 14843 net.cpp:165] Memory required for data: 114419520
I0524 20:43:07.745458 14843 layer_factory.hpp:77] Creating layer pool3
I0524 20:43:07.745474 14843 net.cpp:106] Creating Layer pool3
I0524 20:43:07.745488 14843 net.cpp:454] pool3 <- conv3
I0524 20:43:07.745504 14843 net.cpp:411] pool3 -> pool3
I0524 20:43:07.745584 14843 net.cpp:150] Setting up pool3
I0524 20:43:07.745601 14843 net.cpp:157] Top shape: 80 28 11 44 (1084160)
I0524 20:43:07.745615 14843 net.cpp:165] Memory required for data: 118756160
I0524 20:43:07.745626 14843 layer_factory.hpp:77] Creating layer conv4
I0524 20:43:07.745664 14843 net.cpp:106] Creating Layer conv4
I0524 20:43:07.745677 14843 net.cpp:454] conv4 <- pool3
I0524 20:43:07.745694 14843 net.cpp:411] conv4 -> conv4
I0524 20:43:07.747815 14843 net.cpp:150] Setting up conv4
I0524 20:43:07.747839 14843 net.cpp:157] Top shape: 80 36 6 42 (725760)
I0524 20:43:07.747859 14843 net.cpp:165] Memory required for data: 121659200
I0524 20:43:07.747879 14843 layer_factory.hpp:77] Creating layer relu4
I0524 20:43:07.747898 14843 net.cpp:106] Creating Layer relu4
I0524 20:43:07.747910 14843 net.cpp:454] relu4 <- conv4
I0524 20:43:07.747936 14843 net.cpp:397] relu4 -> conv4 (in-place)
I0524 20:43:07.748430 14843 net.cpp:150] Setting up relu4
I0524 20:43:07.748453 14843 net.cpp:157] Top shape: 80 36 6 42 (725760)
I0524 20:43:07.748466 14843 net.cpp:165] Memory required for data: 124562240
I0524 20:43:07.748482 14843 layer_factory.hpp:77] Creating layer pool4
I0524 20:43:07.748498 14843 net.cpp:106] Creating Layer pool4
I0524 20:43:07.748512 14843 net.cpp:454] pool4 <- conv4
I0524 20:43:07.748528 14843 net.cpp:411] pool4 -> pool4
I0524 20:43:07.748608 14843 net.cpp:150] Setting up pool4
I0524 20:43:07.748625 14843 net.cpp:157] Top shape: 80 36 3 42 (362880)
I0524 20:43:07.748638 14843 net.cpp:165] Memory required for data: 126013760
I0524 20:43:07.748651 14843 layer_factory.hpp:77] Creating layer ip1
I0524 20:43:07.748668 14843 net.cpp:106] Creating Layer ip1
I0524 20:43:07.748680 14843 net.cpp:454] ip1 <- pool4
I0524 20:43:07.748697 14843 net.cpp:411] ip1 -> ip1
I0524 20:43:07.764209 14843 net.cpp:150] Setting up ip1
I0524 20:43:07.764241 14843 net.cpp:157] Top shape: 80 196 (15680)
I0524 20:43:07.764263 14843 net.cpp:165] Memory required for data: 126076480
I0524 20:43:07.764289 14843 layer_factory.hpp:77] Creating layer relu5
I0524 20:43:07.764312 14843 net.cpp:106] Creating Layer relu5
I0524 20:43:07.764335 14843 net.cpp:454] relu5 <- ip1
I0524 20:43:07.764353 14843 net.cpp:397] relu5 -> ip1 (in-place)
I0524 20:43:07.764719 14843 net.cpp:150] Setting up relu5
I0524 20:43:07.764739 14843 net.cpp:157] Top shape: 80 196 (15680)
I0524 20:43:07.764752 14843 net.cpp:165] Memory required for data: 126139200
I0524 20:43:07.764767 14843 layer_factory.hpp:77] Creating layer drop1
I0524 20:43:07.764788 14843 net.cpp:106] Creating Layer drop1
I0524 20:43:07.764801 14843 net.cpp:454] drop1 <- ip1
I0524 20:43:07.764817 14843 net.cpp:397] drop1 -> ip1 (in-place)
I0524 20:43:07.764871 14843 net.cpp:150] Setting up drop1
I0524 20:43:07.764889 14843 net.cpp:157] Top shape: 80 196 (15680)
I0524 20:43:07.764902 14843 net.cpp:165] Memory required for data: 126201920
I0524 20:43:07.764914 14843 layer_factory.hpp:77] Creating layer ip2
I0524 20:43:07.764932 14843 net.cpp:106] Creating Layer ip2
I0524 20:43:07.764945 14843 net.cpp:454] ip2 <- ip1
I0524 20:43:07.764961 14843 net.cpp:411] ip2 -> ip2
I0524 20:43:07.765480 14843 net.cpp:150] Setting up ip2
I0524 20:43:07.765498 14843 net.cpp:157] Top shape: 80 98 (7840)
I0524 20:43:07.765511 14843 net.cpp:165] Memory required for data: 126233280
I0524 20:43:07.765533 14843 layer_factory.hpp:77] Creating layer relu6
I0524 20:43:07.765568 14843 net.cpp:106] Creating Layer relu6
I0524 20:43:07.765581 14843 net.cpp:454] relu6 <- ip2
I0524 20:43:07.765597 14843 net.cpp:397] relu6 -> ip2 (in-place)
I0524 20:43:07.766176 14843 net.cpp:150] Setting up relu6
I0524 20:43:07.766198 14843 net.cpp:157] Top shape: 80 98 (7840)
I0524 20:43:07.766212 14843 net.cpp:165] Memory required for data: 126264640
I0524 20:43:07.766225 14843 layer_factory.hpp:77] Creating layer drop2
I0524 20:43:07.766245 14843 net.cpp:106] Creating Layer drop2
I0524 20:43:07.766265 14843 net.cpp:454] drop2 <- ip2
I0524 20:43:07.766283 14843 net.cpp:397] drop2 -> ip2 (in-place)
I0524 20:43:07.766340 14843 net.cpp:150] Setting up drop2
I0524 20:43:07.766362 14843 net.cpp:157] Top shape: 80 98 (7840)
I0524 20:43:07.766376 14843 net.cpp:165] Memory required for data: 126296000
I0524 20:43:07.766387 14843 layer_factory.hpp:77] Creating layer ip3
I0524 20:43:07.766410 14843 net.cpp:106] Creating Layer ip3
I0524 20:43:07.766423 14843 net.cpp:454] ip3 <- ip2
I0524 20:43:07.766443 14843 net.cpp:411] ip3 -> ip3
I0524 20:43:07.766687 14843 net.cpp:150] Setting up ip3
I0524 20:43:07.766707 14843 net.cpp:157] Top shape: 80 11 (880)
I0524 20:43:07.766721 14843 net.cpp:165] Memory required for data: 126299520
I0524 20:43:07.766741 14843 layer_factory.hpp:77] Creating layer drop3
I0524 20:43:07.766763 14843 net.cpp:106] Creating Layer drop3
I0524 20:43:07.766777 14843 net.cpp:454] drop3 <- ip3
I0524 20:43:07.766793 14843 net.cpp:397] drop3 -> ip3 (in-place)
I0524 20:43:07.766847 14843 net.cpp:150] Setting up drop3
I0524 20:43:07.766865 14843 net.cpp:157] Top shape: 80 11 (880)
I0524 20:43:07.766876 14843 net.cpp:165] Memory required for data: 126303040
I0524 20:43:07.766890 14843 layer_factory.hpp:77] Creating layer ip3_drop3_0_split
I0524 20:43:07.766904 14843 net.cpp:106] Creating Layer ip3_drop3_0_split
I0524 20:43:07.766919 14843 net.cpp:454] ip3_drop3_0_split <- ip3
I0524 20:43:07.766942 14843 net.cpp:411] ip3_drop3_0_split -> ip3_drop3_0_split_0
I0524 20:43:07.766960 14843 net.cpp:411] ip3_drop3_0_split -> ip3_drop3_0_split_1
I0524 20:43:07.767047 14843 net.cpp:150] Setting up ip3_drop3_0_split
I0524 20:43:07.767068 14843 net.cpp:157] Top shape: 80 11 (880)
I0524 20:43:07.767083 14843 net.cpp:157] Top shape: 80 11 (880)
I0524 20:43:07.767098 14843 net.cpp:165] Memory required for data: 126310080
I0524 20:43:07.767117 14843 layer_factory.hpp:77] Creating layer accuracy
I0524 20:43:07.767140 14843 net.cpp:106] Creating Layer accuracy
I0524 20:43:07.767160 14843 net.cpp:454] accuracy <- ip3_drop3_0_split_0
I0524 20:43:07.767175 14843 net.cpp:454] accuracy <- label_data_hdf5_1_split_0
I0524 20:43:07.767191 14843 net.cpp:411] accuracy -> accuracy
…
