…
I0525 02:48:03.730847 22565 net.cpp:322] The NetState phase (0) differed from the phase (1) specified by a rule in layer data_hdf5
I0525 02:48:03.730912 22565 net.cpp:322] The NetState phase (0) differed from the phase (1) specified by a rule in layer accuracy
I0525 02:48:03.731298 22565 net.cpp:49] Initializing net from parameters: 
name: "caffe_test_127x50_x_unshifted"
state {
  phase: TRAIN
}
layer {
  name: "data_hdf5"
  type: "HDF5Data"
  top: "data"
  top: "label"
  include {
    phase: TRAIN
  }
  hdf5_data_param {
    source: "/lustre/atlas/proj-shared/hep105/caffe_titan/minosmatch_nukecczdefs_127x50_x_unshifted_me1Bmc.trainlist"
    batch_size: 80
  }
}
layer {
  name: "conv1"
  type: "Convolution"
  bottom: "data"
  top: "conv1"
  convolution_param {
    num_output: 12
    pad: 0
    stride: 1
    weight_filler {
      type: "xavier"
    }
    bias_filler {
      type: "constant"
    }
    kernel_h: 8
    kernel_w: 3
  }
}
layer {
  name: "relu1"
  type: "ReLU"
  bottom: "conv1"
  top: "conv1"
}
layer {
  name: "pool1"
  type: "Pooling"
  bottom: "conv1"
  top: "pool1"
  pooling_param {
    pool: MAX
    kernel_h: 2
    kernel_w: 1
    stride_h: 2
    stride_w: 1
  }
}
layer {
  name: "conv2"
  type: "Convolution"
  bottom: "pool1"
  top: "conv2"
  convolution_param {
    num_output: 20
    pad: 0
    stride: 1
    weight_filler {
      type: "xavier"
    }
    bias_filler {
      type: "constant"
    }
    kernel_h: 7
    kernel_w: 3
  }
}
layer {
  name: "relu2"
  type: "ReLU"
  bottom: "conv2"
  top: "conv2"
}
layer {
  name: "pool2"
  type: "Pooling"
  bottom: "conv2"
  top: "pool2"
  pooling_param {
    pool: MAX
    kernel_h: 2
    kernel_w: 1
    stride_h: 2
    stride_w: 1
  }
}
layer {
  name: "conv3"
  type: "Convolution"
  bottom: "pool2"
  top: "conv3"
  convolution_param {
    num_output: 28
    pad: 0
    stride: 1
    weight_filler {
      type: "xavier"
    }
    bias_filler {
      type: "constant"
    }
    kernel_h: 6
    kernel_w: 3
  }
}
layer {
  name: "relu3"
  type: "ReLU"
  bottom: "conv3"
  top: "conv3"
}
layer {
  name: "pool3"
  type: "Pooling"
  bottom: "conv3"
  top: "pool3"
  pooling_param {
    pool: MAX
    kernel_h: 2
    kernel_w: 1
    stride_h: 2
    stride_w: 1
  }
}
layer {
  name: "conv4"
  type: "Convolution"
  bottom: "pool3"
  top: "conv4"
  convolution_param {
    num_output: 36
    pad: 0
    stride: 1
    weight_filler {
      type: "xavier"
    }
    bias_filler {
      type: "constant"
    }
    kernel_h: 6
    kernel_w: 3
  }
}
layer {
  name: "relu4"
  type: "ReLU"
  bottom: "conv4"
  top: "conv4"
}
layer {
  name: "pool4"
  type: "Pooling"
  bottom: "conv4"
  top: "pool4"
  pooling_param {
    pool: MAX
    kernel_h: 2
    kernel_w: 1
    stride_h: 2
    stride_w: 1
  }
}
layer {
  name: "ip1"
  type: "InnerProduct"
  bottom: "pool4"
  top: "ip1"
  inner_product_param {
    num_output: 196
    weight_filler {
      type: "xavier"
    }
    bias_filler {
      type: "constant"
    }
  }
}
layer {
  name: "relu5"
  type: "ReLU"
  bottom: "ip1"
  top: "ip1"
}
layer {
  name: "drop1"
  type: "Dropout"
  bottom: "ip1"
  top: "ip1"
  dropout_param {
    dropout_ratio: 0.5
  }
}
layer {
  name: "ip2"
  type: "InnerProduct"
  bottom: "ip1"
  top: "ip2"
  inner_product_param {
    num_output: 98
    weight_filler {
      type: "xavier"
    }
    bias_filler {
      type: "constant"
    }
  }
}
layer {
  name: "relu6"
  type: "ReLU"
  bottom: "ip2"
  top: "ip2"
}
layer {
  name: "drop2"
  type: "Dropout"
  bottom: "ip2"
  top: "ip2"
  dropout_param {
    dropout_ratio: 0.5
  }
}
layer {
  name: "ip3"
  type: "InnerProduct"
  bottom: "ip2"
  top: "ip3"
  inner_product_param {
    num_output: 11
    weight_filler {
      type: "xavier"
    }
    bias_filler {
      type: "constant"
    }
  }
}
layer {
  name: "drop3"
  type: "Dropout"
  bottom: "ip3"
  top: "ip3"
  dropout_param {
    dropout_ratio: 0.5
  }
}
layer {
  name: "loss"
  type: "SoftmaxWithLoss"
  bottom: "ip3"
  bottom: "label"
  top: "loss"
}
I0525 02:48:03.731505 22565 layer_factory.hpp:77] Creating layer data_hdf5
I0525 02:48:03.731534 22565 net.cpp:106] Creating Layer data_hdf5
I0525 02:48:03.731552 22565 net.cpp:411] data_hdf5 -> data
I0525 02:48:03.731585 22565 net.cpp:411] data_hdf5 -> label
I0525 02:48:03.731631 22565 hdf5_data_layer.cpp:79] Loading list of HDF5 filenames from: /lustre/atlas/proj-shared/hep105/caffe_titan/minosmatch_nukecczdefs_127x50_x_unshifted_me1Bmc.trainlist
I0525 02:48:03.746742 22565 hdf5_data_layer.cpp:93] Number of HDF5 files: 15
I0525 02:48:03.749047 22565 hdf5.cpp:32] Datatype class: H5T_FLOAT
I0525 02:48:25.221295 22565 hdf5.cpp:35] Datatype class: H5T_INTEGER
I0525 02:48:25.226501 22565 net.cpp:150] Setting up data_hdf5
I0525 02:48:25.226541 22565 net.cpp:157] Top shape: 80 1 127 50 (508000)
I0525 02:48:25.226559 22565 net.cpp:157] Top shape: 80 (80)
I0525 02:48:25.226572 22565 net.cpp:165] Memory required for data: 2032320
I0525 02:48:25.226591 22565 layer_factory.hpp:77] Creating layer conv1
I0525 02:48:25.226641 22565 net.cpp:106] Creating Layer conv1
I0525 02:48:25.226665 22565 net.cpp:454] conv1 <- data
I0525 02:48:25.226691 22565 net.cpp:411] conv1 -> conv1
I0525 02:48:25.604086 22565 net.cpp:150] Setting up conv1
I0525 02:48:25.604143 22565 net.cpp:157] Top shape: 80 12 120 48 (5529600)
I0525 02:48:25.604166 22565 net.cpp:165] Memory required for data: 24150720
I0525 02:48:25.604197 22565 layer_factory.hpp:77] Creating layer relu1
I0525 02:48:25.604218 22565 net.cpp:106] Creating Layer relu1
I0525 02:48:25.604239 22565 net.cpp:454] relu1 <- conv1
I0525 02:48:25.604284 22565 net.cpp:397] relu1 -> conv1 (in-place)
I0525 02:48:25.604811 22565 net.cpp:150] Setting up relu1
I0525 02:48:25.604835 22565 net.cpp:157] Top shape: 80 12 120 48 (5529600)
I0525 02:48:25.604849 22565 net.cpp:165] Memory required for data: 46269120
I0525 02:48:25.604866 22565 layer_factory.hpp:77] Creating layer pool1
I0525 02:48:25.604892 22565 net.cpp:106] Creating Layer pool1
I0525 02:48:25.604907 22565 net.cpp:454] pool1 <- conv1
I0525 02:48:25.604923 22565 net.cpp:411] pool1 -> pool1
I0525 02:48:25.605015 22565 net.cpp:150] Setting up pool1
I0525 02:48:25.605033 22565 net.cpp:157] Top shape: 80 12 60 48 (2764800)
I0525 02:48:25.605048 22565 net.cpp:165] Memory required for data: 57328320
I0525 02:48:25.605069 22565 layer_factory.hpp:77] Creating layer conv2
I0525 02:48:25.605094 22565 net.cpp:106] Creating Layer conv2
I0525 02:48:25.605108 22565 net.cpp:454] conv2 <- pool1
I0525 02:48:25.605128 22565 net.cpp:411] conv2 -> conv2
I0525 02:48:25.607851 22565 net.cpp:150] Setting up conv2
I0525 02:48:25.607882 22565 net.cpp:157] Top shape: 80 20 54 46 (3974400)
I0525 02:48:25.607897 22565 net.cpp:165] Memory required for data: 73225920
I0525 02:48:25.607920 22565 layer_factory.hpp:77] Creating layer relu2
I0525 02:48:25.607954 22565 net.cpp:106] Creating Layer relu2
I0525 02:48:25.607967 22565 net.cpp:454] relu2 <- conv2
I0525 02:48:25.607983 22565 net.cpp:397] relu2 -> conv2 (in-place)
I0525 02:48:25.608350 22565 net.cpp:150] Setting up relu2
I0525 02:48:25.608371 22565 net.cpp:157] Top shape: 80 20 54 46 (3974400)
I0525 02:48:25.608384 22565 net.cpp:165] Memory required for data: 89123520
I0525 02:48:25.608399 22565 layer_factory.hpp:77] Creating layer pool2
I0525 02:48:25.608422 22565 net.cpp:106] Creating Layer pool2
I0525 02:48:25.608436 22565 net.cpp:454] pool2 <- conv2
I0525 02:48:25.608451 22565 net.cpp:411] pool2 -> pool2
I0525 02:48:25.608547 22565 net.cpp:150] Setting up pool2
I0525 02:48:25.608566 22565 net.cpp:157] Top shape: 80 20 27 46 (1987200)
I0525 02:48:25.608580 22565 net.cpp:165] Memory required for data: 97072320
I0525 02:48:25.608598 22565 layer_factory.hpp:77] Creating layer conv3
I0525 02:48:25.608620 22565 net.cpp:106] Creating Layer conv3
I0525 02:48:25.608633 22565 net.cpp:454] conv3 <- pool2
I0525 02:48:25.608649 22565 net.cpp:411] conv3 -> conv3
I0525 02:48:25.610591 22565 net.cpp:150] Setting up conv3
I0525 02:48:25.610616 22565 net.cpp:157] Top shape: 80 28 22 44 (2168320)
I0525 02:48:25.610637 22565 net.cpp:165] Memory required for data: 105745600
I0525 02:48:25.610659 22565 layer_factory.hpp:77] Creating layer relu3
I0525 02:48:25.610682 22565 net.cpp:106] Creating Layer relu3
I0525 02:48:25.610704 22565 net.cpp:454] relu3 <- conv3
I0525 02:48:25.610720 22565 net.cpp:397] relu3 -> conv3 (in-place)
I0525 02:48:25.611208 22565 net.cpp:150] Setting up relu3
I0525 02:48:25.611232 22565 net.cpp:157] Top shape: 80 28 22 44 (2168320)
I0525 02:48:25.611245 22565 net.cpp:165] Memory required for data: 114418880
I0525 02:48:25.611261 22565 layer_factory.hpp:77] Creating layer pool3
I0525 02:48:25.611276 22565 net.cpp:106] Creating Layer pool3
I0525 02:48:25.611290 22565 net.cpp:454] pool3 <- conv3
I0525 02:48:25.611315 22565 net.cpp:411] pool3 -> pool3
I0525 02:48:25.611395 22565 net.cpp:150] Setting up pool3
I0525 02:48:25.611413 22565 net.cpp:157] Top shape: 80 28 11 44 (1084160)
I0525 02:48:25.611428 22565 net.cpp:165] Memory required for data: 118755520
I0525 02:48:25.611440 22565 layer_factory.hpp:77] Creating layer conv4
I0525 02:48:25.611460 22565 net.cpp:106] Creating Layer conv4
I0525 02:48:25.611480 22565 net.cpp:454] conv4 <- pool3
I0525 02:48:25.611498 22565 net.cpp:411] conv4 -> conv4
I0525 02:48:25.614459 22565 net.cpp:150] Setting up conv4
I0525 02:48:25.614493 22565 net.cpp:157] Top shape: 80 36 6 42 (725760)
I0525 02:48:25.614507 22565 net.cpp:165] Memory required for data: 121658560
I0525 02:48:25.614531 22565 layer_factory.hpp:77] Creating layer relu4
I0525 02:48:25.614559 22565 net.cpp:106] Creating Layer relu4
I0525 02:48:25.614573 22565 net.cpp:454] relu4 <- conv4
I0525 02:48:25.614589 22565 net.cpp:397] relu4 -> conv4 (in-place)
I0525 02:48:25.615082 22565 net.cpp:150] Setting up relu4
I0525 02:48:25.615104 22565 net.cpp:157] Top shape: 80 36 6 42 (725760)
I0525 02:48:25.615118 22565 net.cpp:165] Memory required for data: 124561600
I0525 02:48:25.615134 22565 layer_factory.hpp:77] Creating layer pool4
I0525 02:48:25.615156 22565 net.cpp:106] Creating Layer pool4
I0525 02:48:25.615170 22565 net.cpp:454] pool4 <- conv4
I0525 02:48:25.615186 22565 net.cpp:411] pool4 -> pool4
I0525 02:48:25.615268 22565 net.cpp:150] Setting up pool4
I0525 02:48:25.615285 22565 net.cpp:157] Top shape: 80 36 3 42 (362880)
I0525 02:48:25.615300 22565 net.cpp:165] Memory required for data: 126013120
I0525 02:48:25.615312 22565 layer_factory.hpp:77] Creating layer ip1
I0525 02:48:25.615340 22565 net.cpp:106] Creating Layer ip1
I0525 02:48:25.615355 22565 net.cpp:454] ip1 <- pool4
I0525 02:48:25.615370 22565 net.cpp:411] ip1 -> ip1
I0525 02:48:25.630723 22565 net.cpp:150] Setting up ip1
I0525 02:48:25.630753 22565 net.cpp:157] Top shape: 80 196 (15680)
I0525 02:48:25.630775 22565 net.cpp:165] Memory required for data: 126075840
I0525 02:48:25.630800 22565 layer_factory.hpp:77] Creating layer relu5
I0525 02:48:25.630823 22565 net.cpp:106] Creating Layer relu5
I0525 02:48:25.630848 22565 net.cpp:454] relu5 <- ip1
I0525 02:48:25.630866 22565 net.cpp:397] relu5 -> ip1 (in-place)
I0525 02:48:25.631222 22565 net.cpp:150] Setting up relu5
I0525 02:48:25.631242 22565 net.cpp:157] Top shape: 80 196 (15680)
I0525 02:48:25.631254 22565 net.cpp:165] Memory required for data: 126138560
I0525 02:48:25.631269 22565 layer_factory.hpp:77] Creating layer drop1
I0525 02:48:25.631299 22565 net.cpp:106] Creating Layer drop1
I0525 02:48:25.631314 22565 net.cpp:454] drop1 <- ip1
I0525 02:48:25.631337 22565 net.cpp:397] drop1 -> ip1 (in-place)
I0525 02:48:25.631412 22565 net.cpp:150] Setting up drop1
I0525 02:48:25.631436 22565 net.cpp:157] Top shape: 80 196 (15680)
I0525 02:48:25.631449 22565 net.cpp:165] Memory required for data: 126201280
I0525 02:48:25.631465 22565 layer_factory.hpp:77] Creating layer ip2
I0525 02:48:25.631492 22565 net.cpp:106] Creating Layer ip2
I0525 02:48:25.631506 22565 net.cpp:454] ip2 <- ip1
I0525 02:48:25.631522 22565 net.cpp:411] ip2 -> ip2
I0525 02:48:25.632009 22565 net.cpp:150] Setting up ip2
I0525 02:48:25.632027 22565 net.cpp:157] Top shape: 80 98 (7840)
I0525 02:48:25.632040 22565 net.cpp:165] Memory required for data: 126232640
I0525 02:48:25.632061 22565 layer_factory.hpp:77] Creating layer relu6
I0525 02:48:25.632076 22565 net.cpp:106] Creating Layer relu6
I0525 02:48:25.632094 22565 net.cpp:454] relu6 <- ip2
I0525 02:48:25.632110 22565 net.cpp:397] relu6 -> ip2 (in-place)
I0525 02:48:25.632673 22565 net.cpp:150] Setting up relu6
I0525 02:48:25.632694 22565 net.cpp:157] Top shape: 80 98 (7840)
I0525 02:48:25.632707 22565 net.cpp:165] Memory required for data: 126264000
I0525 02:48:25.632724 22565 layer_factory.hpp:77] Creating layer drop2
I0525 02:48:25.632740 22565 net.cpp:106] Creating Layer drop2
I0525 02:48:25.632761 22565 net.cpp:454] drop2 <- ip2
I0525 02:48:25.632776 22565 net.cpp:397] drop2 -> ip2 (in-place)
I0525 02:48:25.632827 22565 net.cpp:150] Setting up drop2
I0525 02:48:25.632843 22565 net.cpp:157] Top shape: 80 98 (7840)
I0525 02:48:25.632860 22565 net.cpp:165] Memory required for data: 126295360
I0525 02:48:25.632874 22565 layer_factory.hpp:77] Creating layer ip3
I0525 02:48:25.632892 22565 net.cpp:106] Creating Layer ip3
I0525 02:48:25.632905 22565 net.cpp:454] ip3 <- ip2
I0525 02:48:25.632921 22565 net.cpp:411] ip3 -> ip3
I0525 02:48:25.633152 22565 net.cpp:150] Setting up ip3
I0525 02:48:25.633170 22565 net.cpp:157] Top shape: 80 11 (880)
I0525 02:48:25.633183 22565 net.cpp:165] Memory required for data: 126298880
I0525 02:48:25.633203 22565 layer_factory.hpp:77] Creating layer drop3
I0525 02:48:25.633225 22565 net.cpp:106] Creating Layer drop3
I0525 02:48:25.633239 22565 net.cpp:454] drop3 <- ip3
I0525 02:48:25.633254 22565 net.cpp:397] drop3 -> ip3 (in-place)
I0525 02:48:25.633299 22565 net.cpp:150] Setting up drop3
I0525 02:48:25.633322 22565 net.cpp:157] Top shape: 80 11 (880)
I0525 02:48:25.633335 22565 net.cpp:165] Memory required for data: 126302400
I0525 02:48:25.633354 22565 layer_factory.hpp:77] Creating layer loss
I0525 02:48:25.633375 22565 net.cpp:106] Creating Layer loss
I0525 02:48:25.633390 22565 net.cpp:454] loss <- ip3
I0525 02:48:25.633410 22565 net.cpp:454] loss <- label
I0525 02:48:25.633426 22565 net.cpp:411] loss -> loss
I0525 02:48:25.633445 22565 layer_factory.hpp:77] Creating layer loss
…
I0525 02:48:25.636296 22565 solver.cpp:181] Creating test net (#0) specified by net file: /lustre/atlas/proj-shared/hep105/caffe_titan/caffe_workflow/logs_bslr/bs_80_lr_0.0050_2016-05-20T15.49.19.790379.prototxt
I0525 02:48:25.636371 22565 net.cpp:322] The NetState phase (1) differed from the phase (0) specified by a rule in layer data_hdf5
I0525 02:48:25.636728 22565 net.cpp:49] Initializing net from parameters: 
name: "caffe_test_127x50_x_unshifted"
state {
  phase: TEST
}
layer {
  name: "data_hdf5"
  type: "HDF5Data"
  top: "data"
  top: "label"
  include {
    phase: TEST
  }
  hdf5_data_param {
    source: "/lustre/atlas/proj-shared/hep105/caffe_titan/minosmatch_nukecczdefs_127x50_x_unshifted_me1Bmc.testlist"
    batch_size: 80
  }
}
layer {
  name: "conv1"
  type: "Convolution"
  bottom: "data"
  top: "conv1"
  convolution_param {
    num_output: 12
    pad: 0
    stride: 1
    weight_filler {
      type: "xavier"
    }
    bias_filler {
      type: "constant"
    }
    kernel_h: 8
    kernel_w: 3
  }
}
layer {
  name: "relu1"
  type: "ReLU"
  bottom: "conv1"
  top: "conv1"
}
layer {
  name: "pool1"
  type: "Pooling"
  bottom: "conv1"
  top: "pool1"
  pooling_param {
    pool: MAX
    kernel_h: 2
    kernel_w: 1
    stride_h: 2
    stride_w: 1
  }
}
layer {
  name: "conv2"
  type: "Convolution"
  bottom: "pool1"
  top: "conv2"
  convolution_param {
    num_output: 20
    pad: 0
    stride: 1
    weight_filler {
      type: "xavier"
    }
    bias_filler {
      type: "constant"
    }
    kernel_h: 7
    kernel_w: 3
  }
}
layer {
  name: "relu2"
  type: "ReLU"
  bottom: "conv2"
  top: "conv2"
}
layer {
  name: "pool2"
  type: "Pooling"
  bottom: "conv2"
  top: "pool2"
  pooling_param {
    pool: MAX
    kernel_h: 2
    kernel_w: 1
    stride_h: 2
    stride_w: 1
  }
}
layer {
  name: "conv3"
  type: "Convolution"
  bottom: "pool2"
  top: "conv3"
  convolution_param {
    num_output: 28
    pad: 0
    stride: 1
    weight_filler {
      type: "xavier"
    }
    bias_filler {
      type: "constant"
    }
    kernel_h: 6
    kernel_w: 3
  }
}
layer {
  name: "relu3"
  type: "ReLU"
  bottom: "conv3"
  top: "conv3"
}
layer {
  name: "pool3"
  type: "Pooling"
  bottom: "conv3"
  top: "pool3"
  pooling_param {
    pool: MAX
    kernel_h: 2
    kernel_w: 1
    stride_h: 2
    stride_w: 1
  }
}
layer {
  name: "conv4"
  type: "Convolution"
  bottom: "pool3"
  top: "conv4"
  convolution_param {
    num_output: 36
    pad: 0
    stride: 1
    weight_filler {
      type: "xavier"
    }
    bias_filler {
      type: "constant"
    }
    kernel_h: 6
    kernel_w: 3
  }
}
layer {
  name: "relu4"
  type: "ReLU"
  bottom: "conv4"
  top: "conv4"
}
layer {
  name: "pool4"
  type: "Pooling"
  bottom: "conv4"
  top: "pool4"
  pooling_param {
    pool: MAX
    kernel_h: 2
    kernel_w: 1
    stride_h: 2
    stride_w: 1
  }
}
layer {
  name: "ip1"
  type: "InnerProduct"
  bottom: "pool4"
  top: "ip1"
  inner_product_param {
    num_output: 196
    weight_filler {
      type: "xavier"
    }
    bias_filler {
      type: "constant"
    }
  }
}
layer {
  name: "relu5"
  type: "ReLU"
  bottom: "ip1"
  top: "ip1"
}
layer {
  name: "drop1"
  type: "Dropout"
  bottom: "ip1"
  top: "ip1"
  dropout_param {
    dropout_ratio: 0.5
  }
}
layer {
  name: "ip2"
  type: "InnerProduct"
  bottom: "ip1"
  top: "ip2"
  inner_product_param {
    num_output: 98
    weight_filler {
      type: "xavier"
    }
    bias_filler {
      type: "constant"
    }
  }
}
layer {
  name: "relu6"
  type: "ReLU"
  bottom: "ip2"
  top: "ip2"
}
layer {
  name: "drop2"
  type: "Dropout"
  bottom: "ip2"
  top: "ip2"
  dropout_param {
    dropout_ratio: 0.5
  }
}
layer {
  name: "ip3"
  type: "InnerProduct"
  bottom: "ip2"
  top: "ip3"
  inner_product_param {
    num_output: 11
    weight_filler {
      type: "xavier"
    }
    bias_filler {
      type: "constant"
    }
  }
}
layer {
  name: "drop3"
  type: "Dropout"
  bottom: "ip3"
  top: "ip3"
  dropout_param {
    dropout_ratio: 0.5
  }
}
layer {
  name: "accuracy"
  type: "Accuracy"
  bottom: "ip3"
  bottom: "label"
  top: "accuracy"
  include {
    phase: TEST
  }
}
layer {
  name: "loss"
  type: "SoftmaxWithLoss"
  bottom: "ip3"
  bottom: "label"
  top: "loss"
}
I0525 02:48:25.636927 22565 layer_factory.hpp:77] Creating layer data_hdf5
I0525 02:48:25.636945 22565 net.cpp:106] Creating Layer data_hdf5
I0525 02:48:25.636961 22565 net.cpp:411] data_hdf5 -> data
I0525 02:48:25.636981 22565 net.cpp:411] data_hdf5 -> label
I0525 02:48:25.636999 22565 hdf5_data_layer.cpp:79] Loading list of HDF5 filenames from: /lustre/atlas/proj-shared/hep105/caffe_titan/minosmatch_nukecczdefs_127x50_x_unshifted_me1Bmc.testlist
I0525 02:48:25.638381 22565 hdf5_data_layer.cpp:93] Number of HDF5 files: 3
I0525 02:48:46.922021 22565 net.cpp:150] Setting up data_hdf5
I0525 02:48:46.922191 22565 net.cpp:157] Top shape: 80 1 127 50 (508000)
I0525 02:48:46.922210 22565 net.cpp:157] Top shape: 80 (80)
I0525 02:48:46.922224 22565 net.cpp:165] Memory required for data: 2032320
I0525 02:48:46.922238 22565 layer_factory.hpp:77] Creating layer label_data_hdf5_1_split
I0525 02:48:46.922271 22565 net.cpp:106] Creating Layer label_data_hdf5_1_split
I0525 02:48:46.922284 22565 net.cpp:454] label_data_hdf5_1_split <- label
I0525 02:48:46.922302 22565 net.cpp:411] label_data_hdf5_1_split -> label_data_hdf5_1_split_0
I0525 02:48:46.922323 22565 net.cpp:411] label_data_hdf5_1_split -> label_data_hdf5_1_split_1
I0525 02:48:46.922399 22565 net.cpp:150] Setting up label_data_hdf5_1_split
I0525 02:48:46.922416 22565 net.cpp:157] Top shape: 80 (80)
I0525 02:48:46.922432 22565 net.cpp:157] Top shape: 80 (80)
I0525 02:48:46.922444 22565 net.cpp:165] Memory required for data: 2032960
I0525 02:48:46.922497 22565 layer_factory.hpp:77] Creating layer conv1
I0525 02:48:46.922521 22565 net.cpp:106] Creating Layer conv1
I0525 02:48:46.922549 22565 net.cpp:454] conv1 <- data
I0525 02:48:46.922575 22565 net.cpp:411] conv1 -> conv1
I0525 02:48:46.924564 22565 net.cpp:150] Setting up conv1
I0525 02:48:46.924590 22565 net.cpp:157] Top shape: 80 12 120 48 (5529600)
I0525 02:48:46.924603 22565 net.cpp:165] Memory required for data: 24151360
I0525 02:48:46.924630 22565 layer_factory.hpp:77] Creating layer relu1
I0525 02:48:46.924657 22565 net.cpp:106] Creating Layer relu1
I0525 02:48:46.924670 22565 net.cpp:454] relu1 <- conv1
I0525 02:48:46.924686 22565 net.cpp:397] relu1 -> conv1 (in-place)
I0525 02:48:46.925211 22565 net.cpp:150] Setting up relu1
I0525 02:48:46.925235 22565 net.cpp:157] Top shape: 80 12 120 48 (5529600)
I0525 02:48:46.925247 22565 net.cpp:165] Memory required for data: 46269760
I0525 02:48:46.925263 22565 layer_factory.hpp:77] Creating layer pool1
I0525 02:48:46.925289 22565 net.cpp:106] Creating Layer pool1
I0525 02:48:46.925303 22565 net.cpp:454] pool1 <- conv1
I0525 02:48:46.925319 22565 net.cpp:411] pool1 -> pool1
I0525 02:48:46.925407 22565 net.cpp:150] Setting up pool1
I0525 02:48:46.925425 22565 net.cpp:157] Top shape: 80 12 60 48 (2764800)
I0525 02:48:46.925439 22565 net.cpp:165] Memory required for data: 57328960
I0525 02:48:46.925451 22565 layer_factory.hpp:77] Creating layer conv2
I0525 02:48:46.925479 22565 net.cpp:106] Creating Layer conv2
I0525 02:48:46.925500 22565 net.cpp:454] conv2 <- pool1
I0525 02:48:46.925518 22565 net.cpp:411] conv2 -> conv2
I0525 02:48:46.927460 22565 net.cpp:150] Setting up conv2
I0525 02:48:46.927484 22565 net.cpp:157] Top shape: 80 20 54 46 (3974400)
I0525 02:48:46.927505 22565 net.cpp:165] Memory required for data: 73226560
I0525 02:48:46.927526 22565 layer_factory.hpp:77] Creating layer relu2
I0525 02:48:46.927546 22565 net.cpp:106] Creating Layer relu2
I0525 02:48:46.927558 22565 net.cpp:454] relu2 <- conv2
I0525 02:48:46.927583 22565 net.cpp:397] relu2 -> conv2 (in-place)
I0525 02:48:46.927934 22565 net.cpp:150] Setting up relu2
I0525 02:48:46.927953 22565 net.cpp:157] Top shape: 80 20 54 46 (3974400)
I0525 02:48:46.927966 22565 net.cpp:165] Memory required for data: 89124160
I0525 02:48:46.927978 22565 layer_factory.hpp:77] Creating layer pool2
I0525 02:48:46.927997 22565 net.cpp:106] Creating Layer pool2
I0525 02:48:46.928019 22565 net.cpp:454] pool2 <- conv2
I0525 02:48:46.928033 22565 net.cpp:411] pool2 -> pool2
I0525 02:48:46.928122 22565 net.cpp:150] Setting up pool2
I0525 02:48:46.928144 22565 net.cpp:157] Top shape: 80 20 27 46 (1987200)
I0525 02:48:46.928158 22565 net.cpp:165] Memory required for data: 97072960
I0525 02:48:46.928172 22565 layer_factory.hpp:77] Creating layer conv3
I0525 02:48:46.928200 22565 net.cpp:106] Creating Layer conv3
I0525 02:48:46.928215 22565 net.cpp:454] conv3 <- pool2
I0525 02:48:46.928231 22565 net.cpp:411] conv3 -> conv3
I0525 02:48:46.930256 22565 net.cpp:150] Setting up conv3
I0525 02:48:46.930281 22565 net.cpp:157] Top shape: 80 28 22 44 (2168320)
I0525 02:48:46.930300 22565 net.cpp:165] Memory required for data: 105746240
I0525 02:48:46.930340 22565 layer_factory.hpp:77] Creating layer relu3
I0525 02:48:46.930366 22565 net.cpp:106] Creating Layer relu3
I0525 02:48:46.930379 22565 net.cpp:454] relu3 <- conv3
I0525 02:48:46.930395 22565 net.cpp:397] relu3 -> conv3 (in-place)
I0525 02:48:46.930909 22565 net.cpp:150] Setting up relu3
I0525 02:48:46.930933 22565 net.cpp:157] Top shape: 80 28 22 44 (2168320)
I0525 02:48:46.930946 22565 net.cpp:165] Memory required for data: 114419520
I0525 02:48:46.930959 22565 layer_factory.hpp:77] Creating layer pool3
I0525 02:48:46.930979 22565 net.cpp:106] Creating Layer pool3
I0525 02:48:46.930994 22565 net.cpp:454] pool3 <- conv3
I0525 02:48:46.931018 22565 net.cpp:411] pool3 -> pool3
I0525 02:48:46.931098 22565 net.cpp:150] Setting up pool3
I0525 02:48:46.931120 22565 net.cpp:157] Top shape: 80 28 11 44 (1084160)
I0525 02:48:46.931133 22565 net.cpp:165] Memory required for data: 118756160
I0525 02:48:46.931145 22565 layer_factory.hpp:77] Creating layer conv4
I0525 02:48:46.931180 22565 net.cpp:106] Creating Layer conv4
I0525 02:48:46.931193 22565 net.cpp:454] conv4 <- pool3
I0525 02:48:46.931216 22565 net.cpp:411] conv4 -> conv4
I0525 02:48:46.933346 22565 net.cpp:150] Setting up conv4
I0525 02:48:46.933370 22565 net.cpp:157] Top shape: 80 36 6 42 (725760)
I0525 02:48:46.933390 22565 net.cpp:165] Memory required for data: 121659200
I0525 02:48:46.933409 22565 layer_factory.hpp:77] Creating layer relu4
I0525 02:48:46.933429 22565 net.cpp:106] Creating Layer relu4
I0525 02:48:46.933442 22565 net.cpp:454] relu4 <- conv4
I0525 02:48:46.933467 22565 net.cpp:397] relu4 -> conv4 (in-place)
I0525 02:48:46.933962 22565 net.cpp:150] Setting up relu4
I0525 02:48:46.933985 22565 net.cpp:157] Top shape: 80 36 6 42 (725760)
I0525 02:48:46.934000 22565 net.cpp:165] Memory required for data: 124562240
I0525 02:48:46.934015 22565 layer_factory.hpp:77] Creating layer pool4
I0525 02:48:46.934031 22565 net.cpp:106] Creating Layer pool4
I0525 02:48:46.934044 22565 net.cpp:454] pool4 <- conv4
I0525 02:48:46.934061 22565 net.cpp:411] pool4 -> pool4
I0525 02:48:46.934152 22565 net.cpp:150] Setting up pool4
I0525 02:48:46.934170 22565 net.cpp:157] Top shape: 80 36 3 42 (362880)
I0525 02:48:46.934190 22565 net.cpp:165] Memory required for data: 126013760
I0525 02:48:46.934206 22565 layer_factory.hpp:77] Creating layer ip1
I0525 02:48:46.934222 22565 net.cpp:106] Creating Layer ip1
I0525 02:48:46.934237 22565 net.cpp:454] ip1 <- pool4
I0525 02:48:46.934258 22565 net.cpp:411] ip1 -> ip1
I0525 02:48:46.949673 22565 net.cpp:150] Setting up ip1
I0525 02:48:46.949705 22565 net.cpp:157] Top shape: 80 196 (15680)
I0525 02:48:46.949728 22565 net.cpp:165] Memory required for data: 126076480
I0525 02:48:46.949753 22565 layer_factory.hpp:77] Creating layer relu5
I0525 02:48:46.949777 22565 net.cpp:106] Creating Layer relu5
I0525 02:48:46.949790 22565 net.cpp:454] relu5 <- ip1
I0525 02:48:46.949805 22565 net.cpp:397] relu5 -> ip1 (in-place)
I0525 02:48:46.950182 22565 net.cpp:150] Setting up relu5
I0525 02:48:46.950203 22565 net.cpp:157] Top shape: 80 196 (15680)
I0525 02:48:46.950217 22565 net.cpp:165] Memory required for data: 126139200
I0525 02:48:46.950232 22565 layer_factory.hpp:77] Creating layer drop1
I0525 02:48:46.950261 22565 net.cpp:106] Creating Layer drop1
I0525 02:48:46.950275 22565 net.cpp:454] drop1 <- ip1
I0525 02:48:46.950299 22565 net.cpp:397] drop1 -> ip1 (in-place)
I0525 02:48:46.950361 22565 net.cpp:150] Setting up drop1
I0525 02:48:46.950377 22565 net.cpp:157] Top shape: 80 196 (15680)
I0525 02:48:46.950397 22565 net.cpp:165] Memory required for data: 126201920
I0525 02:48:46.950409 22565 layer_factory.hpp:77] Creating layer ip2
I0525 02:48:46.950425 22565 net.cpp:106] Creating Layer ip2
I0525 02:48:46.950440 22565 net.cpp:454] ip2 <- ip1
I0525 02:48:46.950464 22565 net.cpp:411] ip2 -> ip2
I0525 02:48:46.950956 22565 net.cpp:150] Setting up ip2
I0525 02:48:46.950975 22565 net.cpp:157] Top shape: 80 98 (7840)
I0525 02:48:46.950989 22565 net.cpp:165] Memory required for data: 126233280
I0525 02:48:46.951009 22565 layer_factory.hpp:77] Creating layer relu6
I0525 02:48:46.951038 22565 net.cpp:106] Creating Layer relu6
I0525 02:48:46.951051 22565 net.cpp:454] relu6 <- ip2
I0525 02:48:46.951078 22565 net.cpp:397] relu6 -> ip2 (in-place)
I0525 02:48:46.951653 22565 net.cpp:150] Setting up relu6
I0525 02:48:46.951675 22565 net.cpp:157] Top shape: 80 98 (7840)
I0525 02:48:46.951689 22565 net.cpp:165] Memory required for data: 126264640
I0525 02:48:46.951700 22565 layer_factory.hpp:77] Creating layer drop2
I0525 02:48:46.951721 22565 net.cpp:106] Creating Layer drop2
I0525 02:48:46.951742 22565 net.cpp:454] drop2 <- ip2
I0525 02:48:46.951758 22565 net.cpp:397] drop2 -> ip2 (in-place)
I0525 02:48:46.951810 22565 net.cpp:150] Setting up drop2
I0525 02:48:46.951833 22565 net.cpp:157] Top shape: 80 98 (7840)
I0525 02:48:46.951846 22565 net.cpp:165] Memory required for data: 126296000
I0525 02:48:46.951859 22565 layer_factory.hpp:77] Creating layer ip3
I0525 02:48:46.951876 22565 net.cpp:106] Creating Layer ip3
I0525 02:48:46.951891 22565 net.cpp:454] ip3 <- ip2
I0525 02:48:46.951913 22565 net.cpp:411] ip3 -> ip3
I0525 02:48:46.952152 22565 net.cpp:150] Setting up ip3
I0525 02:48:46.952169 22565 net.cpp:157] Top shape: 80 11 (880)
I0525 02:48:46.952183 22565 net.cpp:165] Memory required for data: 126299520
I0525 02:48:46.952203 22565 layer_factory.hpp:77] Creating layer drop3
I0525 02:48:46.952225 22565 net.cpp:106] Creating Layer drop3
I0525 02:48:46.952239 22565 net.cpp:454] drop3 <- ip3
I0525 02:48:46.952255 22565 net.cpp:397] drop3 -> ip3 (in-place)
I0525 02:48:46.952322 22565 net.cpp:150] Setting up drop3
I0525 02:48:46.952337 22565 net.cpp:157] Top shape: 80 11 (880)
I0525 02:48:46.952353 22565 net.cpp:165] Memory required for data: 126303040
I0525 02:48:46.952365 22565 layer_factory.hpp:77] Creating layer ip3_drop3_0_split
I0525 02:48:46.952380 22565 net.cpp:106] Creating Layer ip3_drop3_0_split
I0525 02:48:46.952395 22565 net.cpp:454] ip3_drop3_0_split <- ip3
I0525 02:48:46.952419 22565 net.cpp:411] ip3_drop3_0_split -> ip3_drop3_0_split_0
I0525 02:48:46.952437 22565 net.cpp:411] ip3_drop3_0_split -> ip3_drop3_0_split_1
I0525 02:48:46.952524 22565 net.cpp:150] Setting up ip3_drop3_0_split
I0525 02:48:46.952543 22565 net.cpp:157] Top shape: 80 11 (880)
I0525 02:48:46.952558 22565 net.cpp:157] Top shape: 80 11 (880)
I0525 02:48:46.952574 22565 net.cpp:165] Memory required for data: 126310080
I0525 02:48:46.952585 22565 layer_factory.hpp:77] Creating layer accuracy
I0525 02:48:46.952615 22565 net.cpp:106] Creating Layer accuracy
I0525 02:48:46.952628 22565 net.cpp:454] accuracy <- ip3_drop3_0_split_0
I0525 02:48:46.952642 22565 net.cpp:454] accuracy <- label_data_hdf5_1_split_0
I0525 02:48:46.952658 22565 net.cpp:411] accuracy -> accuracy
…
