…
I0524 22:42:55.368182 22021 net.cpp:322] The NetState phase (0) differed from the phase (1) specified by a rule in layer data_hdf5
I0524 22:42:55.368252 22021 net.cpp:322] The NetState phase (0) differed from the phase (1) specified by a rule in layer accuracy
I0524 22:42:55.368643 22021 net.cpp:49] Initializing net from parameters: 
name: "caffe_test_127x50_x_unshifted"
state {
  phase: TRAIN
}
layer {
  name: "data_hdf5"
  type: "HDF5Data"
  top: "data"
  top: "label"
  include {
    phase: TRAIN
  }
  hdf5_data_param {
    source: "/lustre/atlas/proj-shared/hep105/caffe_titan/minosmatch_nukecczdefs_127x50_x_unshifted_me1Bmc.trainlist"
    batch_size: 80
  }
}
layer {
  name: "conv1"
  type: "Convolution"
  bottom: "data"
  top: "conv1"
  convolution_param {
    num_output: 12
    pad: 0
    stride: 1
    weight_filler {
      type: "xavier"
    }
    bias_filler {
      type: "constant"
    }
    kernel_h: 8
    kernel_w: 3
  }
}
layer {
  name: "relu1"
  type: "ReLU"
  bottom: "conv1"
  top: "conv1"
}
layer {
  name: "pool1"
  type: "Pooling"
  bottom: "conv1"
  top: "pool1"
  pooling_param {
    pool: MAX
    kernel_h: 2
    kernel_w: 1
    stride_h: 2
    stride_w: 1
  }
}
layer {
  name: "conv2"
  type: "Convolution"
  bottom: "pool1"
  top: "conv2"
  convolution_param {
    num_output: 20
    pad: 0
    stride: 1
    weight_filler {
      type: "xavier"
    }
    bias_filler {
      type: "constant"
    }
    kernel_h: 7
    kernel_w: 3
  }
}
layer {
  name: "relu2"
  type: "ReLU"
  bottom: "conv2"
  top: "conv2"
}
layer {
  name: "pool2"
  type: "Pooling"
  bottom: "conv2"
  top: "pool2"
  pooling_param {
    pool: MAX
    kernel_h: 2
    kernel_w: 1
    stride_h: 2
    stride_w: 1
  }
}
layer {
  name: "conv3"
  type: "Convolution"
  bottom: "pool2"
  top: "conv3"
  convolution_param {
    num_output: 28
    pad: 0
    stride: 1
    weight_filler {
      type: "xavier"
    }
    bias_filler {
      type: "constant"
    }
    kernel_h: 6
    kernel_w: 3
  }
}
layer {
  name: "relu3"
  type: "ReLU"
  bottom: "conv3"
  top: "conv3"
}
layer {
  name: "pool3"
  type: "Pooling"
  bottom: "conv3"
  top: "pool3"
  pooling_param {
    pool: MAX
    kernel_h: 2
    kernel_w: 1
    stride_h: 2
    stride_w: 1
  }
}
layer {
  name: "conv4"
  type: "Convolution"
  bottom: "pool3"
  top: "conv4"
  convolution_param {
    num_output: 36
    pad: 0
    stride: 1
    weight_filler {
      type: "xavier"
    }
    bias_filler {
      type: "constant"
    }
    kernel_h: 6
    kernel_w: 3
  }
}
layer {
  name: "relu4"
  type: "ReLU"
  bottom: "conv4"
  top: "conv4"
}
layer {
  name: "pool4"
  type: "Pooling"
  bottom: "conv4"
  top: "pool4"
  pooling_param {
    pool: MAX
    kernel_h: 2
    kernel_w: 1
    stride_h: 2
    stride_w: 1
  }
}
layer {
  name: "ip1"
  type: "InnerProduct"
  bottom: "pool4"
  top: "ip1"
  inner_product_param {
    num_output: 196
    weight_filler {
      type: "xavier"
    }
    bias_filler {
      type: "constant"
    }
  }
}
layer {
  name: "relu5"
  type: "ReLU"
  bottom: "ip1"
  top: "ip1"
}
layer {
  name: "drop1"
  type: "Dropout"
  bottom: "ip1"
  top: "ip1"
  dropout_param {
    dropout_ratio: 0.5
  }
}
layer {
  name: "ip2"
  type: "InnerProduct"
  bottom: "ip1"
  top: "ip2"
  inner_product_param {
    num_output: 98
    weight_filler {
      type: "xavier"
    }
    bias_filler {
      type: "constant"
    }
  }
}
layer {
  name: "relu6"
  type: "ReLU"
  bottom: "ip2"
  top: "ip2"
}
layer {
  name: "drop2"
  type: "Dropout"
  bottom: "ip2"
  top: "ip2"
  dropout_param {
    dropout_ratio: 0.5
  }
}
layer {
  name: "ip3"
  type: "InnerProduct"
  bottom: "ip2"
  top: "ip3"
  inner_product_param {
    num_output: 11
    weight_filler {
      type: "xavier"
    }
    bias_filler {
      type: "constant"
    }
  }
}
layer {
  name: "drop3"
  type: "Dropout"
  bottom: "ip3"
  top: "ip3"
  dropout_param {
    dropout_ratio: 0.5
  }
}
layer {
  name: "loss"
  type: "SoftmaxWithLoss"
  bottom: "ip3"
  bottom: "label"
  top: "loss"
}
I0524 22:42:55.368850 22021 layer_factory.hpp:77] Creating layer data_hdf5
I0524 22:42:55.368886 22021 net.cpp:106] Creating Layer data_hdf5
I0524 22:42:55.368904 22021 net.cpp:411] data_hdf5 -> data
I0524 22:42:55.368937 22021 net.cpp:411] data_hdf5 -> label
I0524 22:42:55.368980 22021 hdf5_data_layer.cpp:79] Loading list of HDF5 filenames from: /lustre/atlas/proj-shared/hep105/caffe_titan/minosmatch_nukecczdefs_127x50_x_unshifted_me1Bmc.trainlist
I0524 22:42:55.370427 22021 hdf5_data_layer.cpp:93] Number of HDF5 files: 15
I0524 22:42:55.387111 22021 hdf5.cpp:32] Datatype class: H5T_FLOAT
I0524 22:43:16.935129 22021 hdf5.cpp:35] Datatype class: H5T_INTEGER
I0524 22:43:16.940311 22021 net.cpp:150] Setting up data_hdf5
I0524 22:43:16.940352 22021 net.cpp:157] Top shape: 80 1 127 50 (508000)
I0524 22:43:16.940371 22021 net.cpp:157] Top shape: 80 (80)
I0524 22:43:16.940382 22021 net.cpp:165] Memory required for data: 2032320
I0524 22:43:16.940402 22021 layer_factory.hpp:77] Creating layer conv1
I0524 22:43:16.940448 22021 net.cpp:106] Creating Layer conv1
I0524 22:43:16.940464 22021 net.cpp:454] conv1 <- data
I0524 22:43:16.940490 22021 net.cpp:411] conv1 -> conv1
I0524 22:43:18.024335 22021 net.cpp:150] Setting up conv1
I0524 22:43:18.024390 22021 net.cpp:157] Top shape: 80 12 120 48 (5529600)
I0524 22:43:18.024405 22021 net.cpp:165] Memory required for data: 24150720
I0524 22:43:18.024435 22021 layer_factory.hpp:77] Creating layer relu1
I0524 22:43:18.024464 22021 net.cpp:106] Creating Layer relu1
I0524 22:43:18.024497 22021 net.cpp:454] relu1 <- conv1
I0524 22:43:18.024513 22021 net.cpp:397] relu1 -> conv1 (in-place)
I0524 22:43:18.025041 22021 net.cpp:150] Setting up relu1
I0524 22:43:18.025064 22021 net.cpp:157] Top shape: 80 12 120 48 (5529600)
I0524 22:43:18.025079 22021 net.cpp:165] Memory required for data: 46269120
I0524 22:43:18.025094 22021 layer_factory.hpp:77] Creating layer pool1
I0524 22:43:18.025113 22021 net.cpp:106] Creating Layer pool1
I0524 22:43:18.025127 22021 net.cpp:454] pool1 <- conv1
I0524 22:43:18.025144 22021 net.cpp:411] pool1 -> pool1
I0524 22:43:18.025262 22021 net.cpp:150] Setting up pool1
I0524 22:43:18.025284 22021 net.cpp:157] Top shape: 80 12 60 48 (2764800)
I0524 22:43:18.025296 22021 net.cpp:165] Memory required for data: 57328320
I0524 22:43:18.025311 22021 layer_factory.hpp:77] Creating layer conv2
I0524 22:43:18.025342 22021 net.cpp:106] Creating Layer conv2
I0524 22:43:18.025357 22021 net.cpp:454] conv2 <- pool1
I0524 22:43:18.025380 22021 net.cpp:411] conv2 -> conv2
I0524 22:43:18.028131 22021 net.cpp:150] Setting up conv2
I0524 22:43:18.028165 22021 net.cpp:157] Top shape: 80 20 54 46 (3974400)
I0524 22:43:18.028179 22021 net.cpp:165] Memory required for data: 73225920
I0524 22:43:18.028208 22021 layer_factory.hpp:77] Creating layer relu2
I0524 22:43:18.028223 22021 net.cpp:106] Creating Layer relu2
I0524 22:43:18.028239 22021 net.cpp:454] relu2 <- conv2
I0524 22:43:18.028254 22021 net.cpp:397] relu2 -> conv2 (in-place)
I0524 22:43:18.028635 22021 net.cpp:150] Setting up relu2
I0524 22:43:18.028656 22021 net.cpp:157] Top shape: 80 20 54 46 (3974400)
I0524 22:43:18.028669 22021 net.cpp:165] Memory required for data: 89123520
I0524 22:43:18.028681 22021 layer_factory.hpp:77] Creating layer pool2
I0524 22:43:18.028707 22021 net.cpp:106] Creating Layer pool2
I0524 22:43:18.028720 22021 net.cpp:454] pool2 <- conv2
I0524 22:43:18.028738 22021 net.cpp:411] pool2 -> pool2
I0524 22:43:18.028833 22021 net.cpp:150] Setting up pool2
I0524 22:43:18.028851 22021 net.cpp:157] Top shape: 80 20 27 46 (1987200)
I0524 22:43:18.028867 22021 net.cpp:165] Memory required for data: 97072320
I0524 22:43:18.028885 22021 layer_factory.hpp:77] Creating layer conv3
I0524 22:43:18.028906 22021 net.cpp:106] Creating Layer conv3
I0524 22:43:18.028926 22021 net.cpp:454] conv3 <- pool2
I0524 22:43:18.028944 22021 net.cpp:411] conv3 -> conv3
I0524 22:43:18.030884 22021 net.cpp:150] Setting up conv3
I0524 22:43:18.030908 22021 net.cpp:157] Top shape: 80 28 22 44 (2168320)
I0524 22:43:18.030927 22021 net.cpp:165] Memory required for data: 105745600
I0524 22:43:18.030951 22021 layer_factory.hpp:77] Creating layer relu3
I0524 22:43:18.030973 22021 net.cpp:106] Creating Layer relu3
I0524 22:43:18.030995 22021 net.cpp:454] relu3 <- conv3
I0524 22:43:18.031013 22021 net.cpp:397] relu3 -> conv3 (in-place)
I0524 22:43:18.031498 22021 net.cpp:150] Setting up relu3
I0524 22:43:18.031522 22021 net.cpp:157] Top shape: 80 28 22 44 (2168320)
I0524 22:43:18.031535 22021 net.cpp:165] Memory required for data: 114418880
I0524 22:43:18.031551 22021 layer_factory.hpp:77] Creating layer pool3
I0524 22:43:18.031568 22021 net.cpp:106] Creating Layer pool3
I0524 22:43:18.031589 22021 net.cpp:454] pool3 <- conv3
I0524 22:43:18.031605 22021 net.cpp:411] pool3 -> pool3
I0524 22:43:18.031680 22021 net.cpp:150] Setting up pool3
I0524 22:43:18.031697 22021 net.cpp:157] Top shape: 80 28 11 44 (1084160)
I0524 22:43:18.031709 22021 net.cpp:165] Memory required for data: 118755520
I0524 22:43:18.031721 22021 layer_factory.hpp:77] Creating layer conv4
I0524 22:43:18.031740 22021 net.cpp:106] Creating Layer conv4
I0524 22:43:18.031769 22021 net.cpp:454] conv4 <- pool3
I0524 22:43:18.031791 22021 net.cpp:411] conv4 -> conv4
I0524 22:43:18.034777 22021 net.cpp:150] Setting up conv4
I0524 22:43:18.034813 22021 net.cpp:157] Top shape: 80 36 6 42 (725760)
I0524 22:43:18.034827 22021 net.cpp:165] Memory required for data: 121658560
I0524 22:43:18.034852 22021 layer_factory.hpp:77] Creating layer relu4
I0524 22:43:18.034868 22021 net.cpp:106] Creating Layer relu4
I0524 22:43:18.034894 22021 net.cpp:454] relu4 <- conv4
I0524 22:43:18.034911 22021 net.cpp:397] relu4 -> conv4 (in-place)
I0524 22:43:18.035405 22021 net.cpp:150] Setting up relu4
I0524 22:43:18.035429 22021 net.cpp:157] Top shape: 80 36 6 42 (725760)
I0524 22:43:18.035440 22021 net.cpp:165] Memory required for data: 124561600
I0524 22:43:18.035456 22021 layer_factory.hpp:77] Creating layer pool4
I0524 22:43:18.035480 22021 net.cpp:106] Creating Layer pool4
I0524 22:43:18.035492 22021 net.cpp:454] pool4 <- conv4
I0524 22:43:18.035509 22021 net.cpp:411] pool4 -> pool4
I0524 22:43:18.035593 22021 net.cpp:150] Setting up pool4
I0524 22:43:18.035611 22021 net.cpp:157] Top shape: 80 36 3 42 (362880)
I0524 22:43:18.035624 22021 net.cpp:165] Memory required for data: 126013120
I0524 22:43:18.035639 22021 layer_factory.hpp:77] Creating layer ip1
I0524 22:43:18.035660 22021 net.cpp:106] Creating Layer ip1
I0524 22:43:18.035681 22021 net.cpp:454] ip1 <- pool4
I0524 22:43:18.035696 22021 net.cpp:411] ip1 -> ip1
I0524 22:43:18.051105 22021 net.cpp:150] Setting up ip1
I0524 22:43:18.051136 22021 net.cpp:157] Top shape: 80 196 (15680)
I0524 22:43:18.051158 22021 net.cpp:165] Memory required for data: 126075840
I0524 22:43:18.051184 22021 layer_factory.hpp:77] Creating layer relu5
I0524 22:43:18.051205 22021 net.cpp:106] Creating Layer relu5
I0524 22:43:18.051218 22021 net.cpp:454] relu5 <- ip1
I0524 22:43:18.051234 22021 net.cpp:397] relu5 -> ip1 (in-place)
I0524 22:43:18.051604 22021 net.cpp:150] Setting up relu5
I0524 22:43:18.051625 22021 net.cpp:157] Top shape: 80 196 (15680)
I0524 22:43:18.051637 22021 net.cpp:165] Memory required for data: 126138560
I0524 22:43:18.051650 22021 layer_factory.hpp:77] Creating layer drop1
I0524 22:43:18.051676 22021 net.cpp:106] Creating Layer drop1
I0524 22:43:18.051697 22021 net.cpp:454] drop1 <- ip1
I0524 22:43:18.051713 22021 net.cpp:397] drop1 -> ip1 (in-place)
I0524 22:43:18.051789 22021 net.cpp:150] Setting up drop1
I0524 22:43:18.051812 22021 net.cpp:157] Top shape: 80 196 (15680)
I0524 22:43:18.051826 22021 net.cpp:165] Memory required for data: 126201280
I0524 22:43:18.051841 22021 layer_factory.hpp:77] Creating layer ip2
I0524 22:43:18.051862 22021 net.cpp:106] Creating Layer ip2
I0524 22:43:18.051882 22021 net.cpp:454] ip2 <- ip1
I0524 22:43:18.051898 22021 net.cpp:411] ip2 -> ip2
I0524 22:43:18.052392 22021 net.cpp:150] Setting up ip2
I0524 22:43:18.052412 22021 net.cpp:157] Top shape: 80 98 (7840)
I0524 22:43:18.052424 22021 net.cpp:165] Memory required for data: 126232640
I0524 22:43:18.052445 22021 layer_factory.hpp:77] Creating layer relu6
I0524 22:43:18.052467 22021 net.cpp:106] Creating Layer relu6
I0524 22:43:18.052481 22021 net.cpp:454] relu6 <- ip2
I0524 22:43:18.052496 22021 net.cpp:397] relu6 -> ip2 (in-place)
I0524 22:43:18.053046 22021 net.cpp:150] Setting up relu6
I0524 22:43:18.053069 22021 net.cpp:157] Top shape: 80 98 (7840)
I0524 22:43:18.053082 22021 net.cpp:165] Memory required for data: 126264000
I0524 22:43:18.053098 22021 layer_factory.hpp:77] Creating layer drop2
I0524 22:43:18.053114 22021 net.cpp:106] Creating Layer drop2
I0524 22:43:18.053128 22021 net.cpp:454] drop2 <- ip2
I0524 22:43:18.053144 22021 net.cpp:397] drop2 -> ip2 (in-place)
I0524 22:43:18.053208 22021 net.cpp:150] Setting up drop2
I0524 22:43:18.053225 22021 net.cpp:157] Top shape: 80 98 (7840)
I0524 22:43:18.053237 22021 net.cpp:165] Memory required for data: 126295360
I0524 22:43:18.053251 22021 layer_factory.hpp:77] Creating layer ip3
I0524 22:43:18.053277 22021 net.cpp:106] Creating Layer ip3
I0524 22:43:18.053290 22021 net.cpp:454] ip3 <- ip2
I0524 22:43:18.053309 22021 net.cpp:411] ip3 -> ip3
I0524 22:43:18.053539 22021 net.cpp:150] Setting up ip3
I0524 22:43:18.053558 22021 net.cpp:157] Top shape: 80 11 (880)
I0524 22:43:18.053570 22021 net.cpp:165] Memory required for data: 126298880
I0524 22:43:18.053591 22021 layer_factory.hpp:77] Creating layer drop3
I0524 22:43:18.053606 22021 net.cpp:106] Creating Layer drop3
I0524 22:43:18.053627 22021 net.cpp:454] drop3 <- ip3
I0524 22:43:18.053642 22021 net.cpp:397] drop3 -> ip3 (in-place)
I0524 22:43:18.053689 22021 net.cpp:150] Setting up drop3
I0524 22:43:18.053704 22021 net.cpp:157] Top shape: 80 11 (880)
I0524 22:43:18.053717 22021 net.cpp:165] Memory required for data: 126302400
I0524 22:43:18.053730 22021 layer_factory.hpp:77] Creating layer loss
I0524 22:43:18.053757 22021 net.cpp:106] Creating Layer loss
I0524 22:43:18.053772 22021 net.cpp:454] loss <- ip3
I0524 22:43:18.053786 22021 net.cpp:454] loss <- label
I0524 22:43:18.053802 22021 net.cpp:411] loss -> loss
I0524 22:43:18.053820 22021 layer_factory.hpp:77] Creating layer loss
…
I0524 22:43:18.056856 22021 solver.cpp:181] Creating test net (#0) specified by net file: /lustre/atlas/proj-shared/hep105/caffe_titan/caffe_workflow/logs_bslr/bs_80_lr_0.0030_2016-05-20T15.49.18.274561.prototxt
I0524 22:43:18.056936 22021 net.cpp:322] The NetState phase (1) differed from the phase (0) specified by a rule in layer data_hdf5
I0524 22:43:18.057313 22021 net.cpp:49] Initializing net from parameters: 
name: "caffe_test_127x50_x_unshifted"
state {
  phase: TEST
}
layer {
  name: "data_hdf5"
  type: "HDF5Data"
  top: "data"
  top: "label"
  include {
    phase: TEST
  }
  hdf5_data_param {
    source: "/lustre/atlas/proj-shared/hep105/caffe_titan/minosmatch_nukecczdefs_127x50_x_unshifted_me1Bmc.testlist"
    batch_size: 80
  }
}
layer {
  name: "conv1"
  type: "Convolution"
  bottom: "data"
  top: "conv1"
  convolution_param {
    num_output: 12
    pad: 0
    stride: 1
    weight_filler {
      type: "xavier"
    }
    bias_filler {
      type: "constant"
    }
    kernel_h: 8
    kernel_w: 3
  }
}
layer {
  name: "relu1"
  type: "ReLU"
  bottom: "conv1"
  top: "conv1"
}
layer {
  name: "pool1"
  type: "Pooling"
  bottom: "conv1"
  top: "pool1"
  pooling_param {
    pool: MAX
    kernel_h: 2
    kernel_w: 1
    stride_h: 2
    stride_w: 1
  }
}
layer {
  name: "conv2"
  type: "Convolution"
  bottom: "pool1"
  top: "conv2"
  convolution_param {
    num_output: 20
    pad: 0
    stride: 1
    weight_filler {
      type: "xavier"
    }
    bias_filler {
      type: "constant"
    }
    kernel_h: 7
    kernel_w: 3
  }
}
layer {
  name: "relu2"
  type: "ReLU"
  bottom: "conv2"
  top: "conv2"
}
layer {
  name: "pool2"
  type: "Pooling"
  bottom: "conv2"
  top: "pool2"
  pooling_param {
    pool: MAX
    kernel_h: 2
    kernel_w: 1
    stride_h: 2
    stride_w: 1
  }
}
layer {
  name: "conv3"
  type: "Convolution"
  bottom: "pool2"
  top: "conv3"
  convolution_param {
    num_output: 28
    pad: 0
    stride: 1
    weight_filler {
      type: "xavier"
    }
    bias_filler {
      type: "constant"
    }
    kernel_h: 6
    kernel_w: 3
  }
}
layer {
  name: "relu3"
  type: "ReLU"
  bottom: "conv3"
  top: "conv3"
}
layer {
  name: "pool3"
  type: "Pooling"
  bottom: "conv3"
  top: "pool3"
  pooling_param {
    pool: MAX
    kernel_h: 2
    kernel_w: 1
    stride_h: 2
    stride_w: 1
  }
}
layer {
  name: "conv4"
  type: "Convolution"
  bottom: "pool3"
  top: "conv4"
  convolution_param {
    num_output: 36
    pad: 0
    stride: 1
    weight_filler {
      type: "xavier"
    }
    bias_filler {
      type: "constant"
    }
    kernel_h: 6
    kernel_w: 3
  }
}
layer {
  name: "relu4"
  type: "ReLU"
  bottom: "conv4"
  top: "conv4"
}
layer {
  name: "pool4"
  type: "Pooling"
  bottom: "conv4"
  top: "pool4"
  pooling_param {
    pool: MAX
    kernel_h: 2
    kernel_w: 1
    stride_h: 2
    stride_w: 1
  }
}
layer {
  name: "ip1"
  type: "InnerProduct"
  bottom: "pool4"
  top: "ip1"
  inner_product_param {
    num_output: 196
    weight_filler {
      type: "xavier"
    }
    bias_filler {
      type: "constant"
    }
  }
}
layer {
  name: "relu5"
  type: "ReLU"
  bottom: "ip1"
  top: "ip1"
}
layer {
  name: "drop1"
  type: "Dropout"
  bottom: "ip1"
  top: "ip1"
  dropout_param {
    dropout_ratio: 0.5
  }
}
layer {
  name: "ip2"
  type: "InnerProduct"
  bottom: "ip1"
  top: "ip2"
  inner_product_param {
    num_output: 98
    weight_filler {
      type: "xavier"
    }
    bias_filler {
      type: "constant"
    }
  }
}
layer {
  name: "relu6"
  type: "ReLU"
  bottom: "ip2"
  top: "ip2"
}
layer {
  name: "drop2"
  type: "Dropout"
  bottom: "ip2"
  top: "ip2"
  dropout_param {
    dropout_ratio: 0.5
  }
}
layer {
  name: "ip3"
  type: "InnerProduct"
  bottom: "ip2"
  top: "ip3"
  inner_product_param {
    num_output: 11
    weight_filler {
      type: "xavier"
    }
    bias_filler {
      type: "constant"
    }
  }
}
layer {
  name: "drop3"
  type: "Dropout"
  bottom: "ip3"
  top: "ip3"
  dropout_param {
    dropout_ratio: 0.5
  }
}
layer {
  name: "accuracy"
  type: "Accuracy"
  bottom: "ip3"
  bottom: "label"
  top: "accuracy"
  include {
    phase: TEST
  }
}
layer {
  name: "loss"
  type: "SoftmaxWithLoss"
  bottom: "ip3"
  bottom: "label"
  top: "loss"
}
I0524 22:43:18.057534 22021 layer_factory.hpp:77] Creating layer data_hdf5
I0524 22:43:18.057555 22021 net.cpp:106] Creating Layer data_hdf5
I0524 22:43:18.057570 22021 net.cpp:411] data_hdf5 -> data
I0524 22:43:18.057595 22021 net.cpp:411] data_hdf5 -> label
I0524 22:43:18.057613 22021 hdf5_data_layer.cpp:79] Loading list of HDF5 filenames from: /lustre/atlas/proj-shared/hep105/caffe_titan/minosmatch_nukecczdefs_127x50_x_unshifted_me1Bmc.testlist
I0524 22:43:18.069672 22021 hdf5_data_layer.cpp:93] Number of HDF5 files: 3
I0524 22:43:39.397267 22021 net.cpp:150] Setting up data_hdf5
I0524 22:43:39.397433 22021 net.cpp:157] Top shape: 80 1 127 50 (508000)
I0524 22:43:39.397449 22021 net.cpp:157] Top shape: 80 (80)
I0524 22:43:39.397462 22021 net.cpp:165] Memory required for data: 2032320
I0524 22:43:39.397477 22021 layer_factory.hpp:77] Creating layer label_data_hdf5_1_split
I0524 22:43:39.397511 22021 net.cpp:106] Creating Layer label_data_hdf5_1_split
I0524 22:43:39.397543 22021 net.cpp:454] label_data_hdf5_1_split <- label
I0524 22:43:39.397562 22021 net.cpp:411] label_data_hdf5_1_split -> label_data_hdf5_1_split_0
I0524 22:43:39.397583 22021 net.cpp:411] label_data_hdf5_1_split -> label_data_hdf5_1_split_1
I0524 22:43:39.397665 22021 net.cpp:150] Setting up label_data_hdf5_1_split
I0524 22:43:39.397681 22021 net.cpp:157] Top shape: 80 (80)
I0524 22:43:39.397714 22021 net.cpp:157] Top shape: 80 (80)
I0524 22:43:39.397727 22021 net.cpp:165] Memory required for data: 2032960
I0524 22:43:39.397739 22021 layer_factory.hpp:77] Creating layer conv1
I0524 22:43:39.397764 22021 net.cpp:106] Creating Layer conv1
I0524 22:43:39.397785 22021 net.cpp:454] conv1 <- data
I0524 22:43:39.397804 22021 net.cpp:411] conv1 -> conv1
I0524 22:43:39.399771 22021 net.cpp:150] Setting up conv1
I0524 22:43:39.399797 22021 net.cpp:157] Top shape: 80 12 120 48 (5529600)
I0524 22:43:39.399817 22021 net.cpp:165] Memory required for data: 24151360
I0524 22:43:39.399842 22021 layer_factory.hpp:77] Creating layer relu1
I0524 22:43:39.399863 22021 net.cpp:106] Creating Layer relu1
I0524 22:43:39.399884 22021 net.cpp:454] relu1 <- conv1
I0524 22:43:39.399900 22021 net.cpp:397] relu1 -> conv1 (in-place)
I0524 22:43:39.400425 22021 net.cpp:150] Setting up relu1
I0524 22:43:39.400449 22021 net.cpp:157] Top shape: 80 12 120 48 (5529600)
I0524 22:43:39.400461 22021 net.cpp:165] Memory required for data: 46269760
I0524 22:43:39.400475 22021 layer_factory.hpp:77] Creating layer pool1
I0524 22:43:39.400504 22021 net.cpp:106] Creating Layer pool1
I0524 22:43:39.400517 22021 net.cpp:454] pool1 <- conv1
I0524 22:43:39.400533 22021 net.cpp:411] pool1 -> pool1
I0524 22:43:39.400624 22021 net.cpp:150] Setting up pool1
I0524 22:43:39.400640 22021 net.cpp:157] Top shape: 80 12 60 48 (2764800)
I0524 22:43:39.400653 22021 net.cpp:165] Memory required for data: 57328960
I0524 22:43:39.400668 22021 layer_factory.hpp:77] Creating layer conv2
I0524 22:43:39.400688 22021 net.cpp:106] Creating Layer conv2
I0524 22:43:39.400701 22021 net.cpp:454] conv2 <- pool1
I0524 22:43:39.400718 22021 net.cpp:411] conv2 -> conv2
I0524 22:43:39.402673 22021 net.cpp:150] Setting up conv2
I0524 22:43:39.402696 22021 net.cpp:157] Top shape: 80 20 54 46 (3974400)
I0524 22:43:39.402717 22021 net.cpp:165] Memory required for data: 73226560
I0524 22:43:39.402739 22021 layer_factory.hpp:77] Creating layer relu2
I0524 22:43:39.402758 22021 net.cpp:106] Creating Layer relu2
I0524 22:43:39.402779 22021 net.cpp:454] relu2 <- conv2
I0524 22:43:39.402796 22021 net.cpp:397] relu2 -> conv2 (in-place)
I0524 22:43:39.403146 22021 net.cpp:150] Setting up relu2
I0524 22:43:39.403165 22021 net.cpp:157] Top shape: 80 20 54 46 (3974400)
I0524 22:43:39.403178 22021 net.cpp:165] Memory required for data: 89124160
I0524 22:43:39.403193 22021 layer_factory.hpp:77] Creating layer pool2
I0524 22:43:39.403216 22021 net.cpp:106] Creating Layer pool2
I0524 22:43:39.403229 22021 net.cpp:454] pool2 <- conv2
I0524 22:43:39.403245 22021 net.cpp:411] pool2 -> pool2
I0524 22:43:39.403337 22021 net.cpp:150] Setting up pool2
I0524 22:43:39.403355 22021 net.cpp:157] Top shape: 80 20 27 46 (1987200)
I0524 22:43:39.403367 22021 net.cpp:165] Memory required for data: 97072960
I0524 22:43:39.403383 22021 layer_factory.hpp:77] Creating layer conv3
I0524 22:43:39.403404 22021 net.cpp:106] Creating Layer conv3
I0524 22:43:39.403425 22021 net.cpp:454] conv3 <- pool2
I0524 22:43:39.403450 22021 net.cpp:411] conv3 -> conv3
I0524 22:43:39.405509 22021 net.cpp:150] Setting up conv3
I0524 22:43:39.405534 22021 net.cpp:157] Top shape: 80 28 22 44 (2168320)
I0524 22:43:39.405555 22021 net.cpp:165] Memory required for data: 105746240
I0524 22:43:39.405594 22021 layer_factory.hpp:77] Creating layer relu3
I0524 22:43:39.405611 22021 net.cpp:106] Creating Layer relu3
I0524 22:43:39.405623 22021 net.cpp:454] relu3 <- conv3
I0524 22:43:39.405649 22021 net.cpp:397] relu3 -> conv3 (in-place)
I0524 22:43:39.406137 22021 net.cpp:150] Setting up relu3
I0524 22:43:39.406162 22021 net.cpp:157] Top shape: 80 28 22 44 (2168320)
I0524 22:43:39.406173 22021 net.cpp:165] Memory required for data: 114419520
I0524 22:43:39.406189 22021 layer_factory.hpp:77] Creating layer pool3
I0524 22:43:39.406205 22021 net.cpp:106] Creating Layer pool3
I0524 22:43:39.406227 22021 net.cpp:454] pool3 <- conv3
I0524 22:43:39.406244 22021 net.cpp:411] pool3 -> pool3
I0524 22:43:39.406330 22021 net.cpp:150] Setting up pool3
I0524 22:43:39.406347 22021 net.cpp:157] Top shape: 80 28 11 44 (1084160)
I0524 22:43:39.406363 22021 net.cpp:165] Memory required for data: 118756160
I0524 22:43:39.406374 22021 layer_factory.hpp:77] Creating layer conv4
I0524 22:43:39.406402 22021 net.cpp:106] Creating Layer conv4
I0524 22:43:39.406415 22021 net.cpp:454] conv4 <- pool3
I0524 22:43:39.406432 22021 net.cpp:411] conv4 -> conv4
I0524 22:43:39.408548 22021 net.cpp:150] Setting up conv4
I0524 22:43:39.408572 22021 net.cpp:157] Top shape: 80 36 6 42 (725760)
I0524 22:43:39.408586 22021 net.cpp:165] Memory required for data: 121659200
I0524 22:43:39.408607 22021 layer_factory.hpp:77] Creating layer relu4
I0524 22:43:39.408623 22021 net.cpp:106] Creating Layer relu4
I0524 22:43:39.408637 22021 net.cpp:454] relu4 <- conv4
I0524 22:43:39.408651 22021 net.cpp:397] relu4 -> conv4 (in-place)
I0524 22:43:39.409150 22021 net.cpp:150] Setting up relu4
I0524 22:43:39.409173 22021 net.cpp:157] Top shape: 80 36 6 42 (725760)
I0524 22:43:39.409186 22021 net.cpp:165] Memory required for data: 124562240
I0524 22:43:39.409203 22021 layer_factory.hpp:77] Creating layer pool4
I0524 22:43:39.409219 22021 net.cpp:106] Creating Layer pool4
I0524 22:43:39.409240 22021 net.cpp:454] pool4 <- conv4
I0524 22:43:39.409255 22021 net.cpp:411] pool4 -> pool4
I0524 22:43:39.409343 22021 net.cpp:150] Setting up pool4
I0524 22:43:39.409360 22021 net.cpp:157] Top shape: 80 36 3 42 (362880)
I0524 22:43:39.409375 22021 net.cpp:165] Memory required for data: 126013760
I0524 22:43:39.409387 22021 layer_factory.hpp:77] Creating layer ip1
I0524 22:43:39.409412 22021 net.cpp:106] Creating Layer ip1
I0524 22:43:39.409426 22021 net.cpp:454] ip1 <- pool4
I0524 22:43:39.409442 22021 net.cpp:411] ip1 -> ip1
I0524 22:43:39.424976 22021 net.cpp:150] Setting up ip1
I0524 22:43:39.425010 22021 net.cpp:157] Top shape: 80 196 (15680)
I0524 22:43:39.425032 22021 net.cpp:165] Memory required for data: 126076480
I0524 22:43:39.425058 22021 layer_factory.hpp:77] Creating layer relu5
I0524 22:43:39.425081 22021 net.cpp:106] Creating Layer relu5
I0524 22:43:39.425092 22021 net.cpp:454] relu5 <- ip1
I0524 22:43:39.425120 22021 net.cpp:397] relu5 -> ip1 (in-place)
I0524 22:43:39.425484 22021 net.cpp:150] Setting up relu5
I0524 22:43:39.425504 22021 net.cpp:157] Top shape: 80 196 (15680)
I0524 22:43:39.425518 22021 net.cpp:165] Memory required for data: 126139200
I0524 22:43:39.425529 22021 layer_factory.hpp:77] Creating layer drop1
I0524 22:43:39.425554 22021 net.cpp:106] Creating Layer drop1
I0524 22:43:39.425573 22021 net.cpp:454] drop1 <- ip1
I0524 22:43:39.425590 22021 net.cpp:397] drop1 -> ip1 (in-place)
I0524 22:43:39.425647 22021 net.cpp:150] Setting up drop1
I0524 22:43:39.425671 22021 net.cpp:157] Top shape: 80 196 (15680)
I0524 22:43:39.425691 22021 net.cpp:165] Memory required for data: 126201920
I0524 22:43:39.425704 22021 layer_factory.hpp:77] Creating layer ip2
I0524 22:43:39.425724 22021 net.cpp:106] Creating Layer ip2
I0524 22:43:39.425735 22021 net.cpp:454] ip2 <- ip1
I0524 22:43:39.425752 22021 net.cpp:411] ip2 -> ip2
I0524 22:43:39.426251 22021 net.cpp:150] Setting up ip2
I0524 22:43:39.426270 22021 net.cpp:157] Top shape: 80 98 (7840)
I0524 22:43:39.426282 22021 net.cpp:165] Memory required for data: 126233280
I0524 22:43:39.426304 22021 layer_factory.hpp:77] Creating layer relu6
I0524 22:43:39.426342 22021 net.cpp:106] Creating Layer relu6
I0524 22:43:39.426354 22021 net.cpp:454] relu6 <- ip2
I0524 22:43:39.426369 22021 net.cpp:397] relu6 -> ip2 (in-place)
I0524 22:43:39.426936 22021 net.cpp:150] Setting up relu6
I0524 22:43:39.426959 22021 net.cpp:157] Top shape: 80 98 (7840)
I0524 22:43:39.426972 22021 net.cpp:165] Memory required for data: 126264640
I0524 22:43:39.426985 22021 layer_factory.hpp:77] Creating layer drop2
I0524 22:43:39.427005 22021 net.cpp:106] Creating Layer drop2
I0524 22:43:39.427026 22021 net.cpp:454] drop2 <- ip2
I0524 22:43:39.427042 22021 net.cpp:397] drop2 -> ip2 (in-place)
I0524 22:43:39.427100 22021 net.cpp:150] Setting up drop2
I0524 22:43:39.427116 22021 net.cpp:157] Top shape: 80 98 (7840)
I0524 22:43:39.427135 22021 net.cpp:165] Memory required for data: 126296000
I0524 22:43:39.427148 22021 layer_factory.hpp:77] Creating layer ip3
I0524 22:43:39.427171 22021 net.cpp:106] Creating Layer ip3
I0524 22:43:39.427184 22021 net.cpp:454] ip3 <- ip2
I0524 22:43:39.427203 22021 net.cpp:411] ip3 -> ip3
I0524 22:43:39.427448 22021 net.cpp:150] Setting up ip3
I0524 22:43:39.427467 22021 net.cpp:157] Top shape: 80 11 (880)
I0524 22:43:39.427480 22021 net.cpp:165] Memory required for data: 126299520
I0524 22:43:39.427501 22021 layer_factory.hpp:77] Creating layer drop3
I0524 22:43:39.427523 22021 net.cpp:106] Creating Layer drop3
I0524 22:43:39.427536 22021 net.cpp:454] drop3 <- ip3
I0524 22:43:39.427552 22021 net.cpp:397] drop3 -> ip3 (in-place)
I0524 22:43:39.427600 22021 net.cpp:150] Setting up drop3
I0524 22:43:39.427623 22021 net.cpp:157] Top shape: 80 11 (880)
I0524 22:43:39.427636 22021 net.cpp:165] Memory required for data: 126303040
I0524 22:43:39.427650 22021 layer_factory.hpp:77] Creating layer ip3_drop3_0_split
I0524 22:43:39.427666 22021 net.cpp:106] Creating Layer ip3_drop3_0_split
I0524 22:43:39.427681 22021 net.cpp:454] ip3_drop3_0_split <- ip3
I0524 22:43:39.427696 22021 net.cpp:411] ip3_drop3_0_split -> ip3_drop3_0_split_0
I0524 22:43:39.427722 22021 net.cpp:411] ip3_drop3_0_split -> ip3_drop3_0_split_1
I0524 22:43:39.427812 22021 net.cpp:150] Setting up ip3_drop3_0_split
I0524 22:43:39.427829 22021 net.cpp:157] Top shape: 80 11 (880)
I0524 22:43:39.427845 22021 net.cpp:157] Top shape: 80 11 (880)
I0524 22:43:39.427856 22021 net.cpp:165] Memory required for data: 126310080
I0524 22:43:39.427871 22021 layer_factory.hpp:77] Creating layer accuracy
I0524 22:43:39.427899 22021 net.cpp:106] Creating Layer accuracy
I0524 22:43:39.427913 22021 net.cpp:454] accuracy <- ip3_drop3_0_split_0
I0524 22:43:39.427929 22021 net.cpp:454] accuracy <- label_data_hdf5_1_split_0
I0524 22:43:39.427945 22021 net.cpp:411] accuracy -> accuracy
…
