…
I0524 22:43:28.417106 19235 net.cpp:322] The NetState phase (0) differed from the phase (1) specified by a rule in layer data_hdf5
I0524 22:43:28.417171 19235 net.cpp:322] The NetState phase (0) differed from the phase (1) specified by a rule in layer accuracy
I0524 22:43:28.417557 19235 net.cpp:49] Initializing net from parameters: 
name: "caffe_test_127x50_x_unshifted"
state {
  phase: TRAIN
}
layer {
  name: "data_hdf5"
  type: "HDF5Data"
  top: "data"
  top: "label"
  include {
    phase: TRAIN
  }
  hdf5_data_param {
    source: "/lustre/atlas/proj-shared/hep105/caffe_titan/minosmatch_nukecczdefs_127x50_x_unshifted_me1Bmc.trainlist"
    batch_size: 80
  }
}
layer {
  name: "conv1"
  type: "Convolution"
  bottom: "data"
  top: "conv1"
  convolution_param {
    num_output: 12
    pad: 0
    stride: 1
    weight_filler {
      type: "xavier"
    }
    bias_filler {
      type: "constant"
    }
    kernel_h: 8
    kernel_w: 3
  }
}
layer {
  name: "relu1"
  type: "ReLU"
  bottom: "conv1"
  top: "conv1"
}
layer {
  name: "pool1"
  type: "Pooling"
  bottom: "conv1"
  top: "pool1"
  pooling_param {
    pool: MAX
    kernel_h: 2
    kernel_w: 1
    stride_h: 2
    stride_w: 1
  }
}
layer {
  name: "conv2"
  type: "Convolution"
  bottom: "pool1"
  top: "conv2"
  convolution_param {
    num_output: 20
    pad: 0
    stride: 1
    weight_filler {
      type: "xavier"
    }
    bias_filler {
      type: "constant"
    }
    kernel_h: 7
    kernel_w: 3
  }
}
layer {
  name: "relu2"
  type: "ReLU"
  bottom: "conv2"
  top: "conv2"
}
layer {
  name: "pool2"
  type: "Pooling"
  bottom: "conv2"
  top: "pool2"
  pooling_param {
    pool: MAX
    kernel_h: 2
    kernel_w: 1
    stride_h: 2
    stride_w: 1
  }
}
layer {
  name: "conv3"
  type: "Convolution"
  bottom: "pool2"
  top: "conv3"
  convolution_param {
    num_output: 28
    pad: 0
    stride: 1
    weight_filler {
      type: "xavier"
    }
    bias_filler {
      type: "constant"
    }
    kernel_h: 6
    kernel_w: 3
  }
}
layer {
  name: "relu3"
  type: "ReLU"
  bottom: "conv3"
  top: "conv3"
}
layer {
  name: "pool3"
  type: "Pooling"
  bottom: "conv3"
  top: "pool3"
  pooling_param {
    pool: MAX
    kernel_h: 2
    kernel_w: 1
    stride_h: 2
    stride_w: 1
  }
}
layer {
  name: "conv4"
  type: "Convolution"
  bottom: "pool3"
  top: "conv4"
  convolution_param {
    num_output: 36
    pad: 0
    stride: 1
    weight_filler {
      type: "xavier"
    }
    bias_filler {
      type: "constant"
    }
    kernel_h: 6
    kernel_w: 3
  }
}
layer {
  name: "relu4"
  type: "ReLU"
  bottom: "conv4"
  top: "conv4"
}
layer {
  name: "pool4"
  type: "Pooling"
  bottom: "conv4"
  top: "pool4"
  pooling_param {
    pool: MAX
    kernel_h: 2
    kernel_w: 1
    stride_h: 2
    stride_w: 1
  }
}
layer {
  name: "ip1"
  type: "InnerProduct"
  bottom: "pool4"
  top: "ip1"
  inner_product_param {
    num_output: 196
    weight_filler {
      type: "xavier"
    }
    bias_filler {
      type: "constant"
    }
  }
}
layer {
  name: "relu5"
  type: "ReLU"
  bottom: "ip1"
  top: "ip1"
}
layer {
  name: "drop1"
  type: "Dropout"
  bottom: "ip1"
  top: "ip1"
  dropout_param {
    dropout_ratio: 0.5
  }
}
layer {
  name: "ip2"
  type: "InnerProduct"
  bottom: "ip1"
  top: "ip2"
  inner_product_param {
    num_output: 98
    weight_filler {
      type: "xavier"
    }
    bias_filler {
      type: "constant"
    }
  }
}
layer {
  name: "relu6"
  type: "ReLU"
  bottom: "ip2"
  top: "ip2"
}
layer {
  name: "drop2"
  type: "Dropout"
  bottom: "ip2"
  top: "ip2"
  dropout_param {
    dropout_ratio: 0.5
  }
}
layer {
  name: "ip3"
  type: "InnerProduct"
  bottom: "ip2"
  top: "ip3"
  inner_product_param {
    num_output: 11
    weight_filler {
      type: "xavier"
    }
    bias_filler {
      type: "constant"
    }
  }
}
layer {
  name: "drop3"
  type: "Dropout"
  bottom: "ip3"
  top: "ip3"
  dropout_param {
    dropout_ratio: 0.5
  }
}
layer {
  name: "loss"
  type: "SoftmaxWithLoss"
  bottom: "ip3"
  bottom: "label"
  top: "loss"
}
I0524 22:43:28.417762 19235 layer_factory.hpp:77] Creating layer data_hdf5
I0524 22:43:28.417793 19235 net.cpp:106] Creating Layer data_hdf5
I0524 22:43:28.417816 19235 net.cpp:411] data_hdf5 -> data
I0524 22:43:28.417850 19235 net.cpp:411] data_hdf5 -> label
I0524 22:43:28.417887 19235 hdf5_data_layer.cpp:79] Loading list of HDF5 filenames from: /lustre/atlas/proj-shared/hep105/caffe_titan/minosmatch_nukecczdefs_127x50_x_unshifted_me1Bmc.trainlist
I0524 22:43:28.419385 19235 hdf5_data_layer.cpp:93] Number of HDF5 files: 15
I0524 22:43:28.421795 19235 hdf5.cpp:32] Datatype class: H5T_FLOAT
I0524 22:43:49.949076 19235 hdf5.cpp:35] Datatype class: H5T_INTEGER
I0524 22:43:49.954390 19235 net.cpp:150] Setting up data_hdf5
I0524 22:43:49.954430 19235 net.cpp:157] Top shape: 80 1 127 50 (508000)
I0524 22:43:49.954447 19235 net.cpp:157] Top shape: 80 (80)
I0524 22:43:49.954460 19235 net.cpp:165] Memory required for data: 2032320
I0524 22:43:49.954479 19235 layer_factory.hpp:77] Creating layer conv1
I0524 22:43:49.954525 19235 net.cpp:106] Creating Layer conv1
I0524 22:43:49.954540 19235 net.cpp:454] conv1 <- data
I0524 22:43:49.954563 19235 net.cpp:411] conv1 -> conv1
I0524 22:43:50.340092 19235 net.cpp:150] Setting up conv1
I0524 22:43:50.340152 19235 net.cpp:157] Top shape: 80 12 120 48 (5529600)
I0524 22:43:50.340167 19235 net.cpp:165] Memory required for data: 24150720
I0524 22:43:50.340195 19235 layer_factory.hpp:77] Creating layer relu1
I0524 22:43:50.340245 19235 net.cpp:106] Creating Layer relu1
I0524 22:43:50.340258 19235 net.cpp:454] relu1 <- conv1
I0524 22:43:50.340276 19235 net.cpp:397] relu1 -> conv1 (in-place)
I0524 22:43:50.340802 19235 net.cpp:150] Setting up relu1
I0524 22:43:50.340826 19235 net.cpp:157] Top shape: 80 12 120 48 (5529600)
I0524 22:43:50.340838 19235 net.cpp:165] Memory required for data: 46269120
I0524 22:43:50.340852 19235 layer_factory.hpp:77] Creating layer pool1
I0524 22:43:50.340881 19235 net.cpp:106] Creating Layer pool1
I0524 22:43:50.340895 19235 net.cpp:454] pool1 <- conv1
I0524 22:43:50.340911 19235 net.cpp:411] pool1 -> pool1
I0524 22:43:50.341004 19235 net.cpp:150] Setting up pool1
I0524 22:43:50.341022 19235 net.cpp:157] Top shape: 80 12 60 48 (2764800)
I0524 22:43:50.341037 19235 net.cpp:165] Memory required for data: 57328320
I0524 22:43:50.341058 19235 layer_factory.hpp:77] Creating layer conv2
I0524 22:43:50.341081 19235 net.cpp:106] Creating Layer conv2
I0524 22:43:50.341095 19235 net.cpp:454] conv2 <- pool1
I0524 22:43:50.341110 19235 net.cpp:411] conv2 -> conv2
I0524 22:43:50.343844 19235 net.cpp:150] Setting up conv2
I0524 22:43:50.343875 19235 net.cpp:157] Top shape: 80 20 54 46 (3974400)
I0524 22:43:50.343891 19235 net.cpp:165] Memory required for data: 73225920
I0524 22:43:50.343919 19235 layer_factory.hpp:77] Creating layer relu2
I0524 22:43:50.343947 19235 net.cpp:106] Creating Layer relu2
I0524 22:43:50.343961 19235 net.cpp:454] relu2 <- conv2
I0524 22:43:50.343977 19235 net.cpp:397] relu2 -> conv2 (in-place)
I0524 22:43:50.344334 19235 net.cpp:150] Setting up relu2
I0524 22:43:50.344355 19235 net.cpp:157] Top shape: 80 20 54 46 (3974400)
I0524 22:43:50.344368 19235 net.cpp:165] Memory required for data: 89123520
I0524 22:43:50.344383 19235 layer_factory.hpp:77] Creating layer pool2
I0524 22:43:50.344405 19235 net.cpp:106] Creating Layer pool2
I0524 22:43:50.344419 19235 net.cpp:454] pool2 <- conv2
I0524 22:43:50.344435 19235 net.cpp:411] pool2 -> pool2
I0524 22:43:50.344532 19235 net.cpp:150] Setting up pool2
I0524 22:43:50.344552 19235 net.cpp:157] Top shape: 80 20 27 46 (1987200)
I0524 22:43:50.344564 19235 net.cpp:165] Memory required for data: 97072320
I0524 22:43:50.344585 19235 layer_factory.hpp:77] Creating layer conv3
I0524 22:43:50.344605 19235 net.cpp:106] Creating Layer conv3
I0524 22:43:50.344619 19235 net.cpp:454] conv3 <- pool2
I0524 22:43:50.344635 19235 net.cpp:411] conv3 -> conv3
I0524 22:43:50.346592 19235 net.cpp:150] Setting up conv3
I0524 22:43:50.346617 19235 net.cpp:157] Top shape: 80 28 22 44 (2168320)
I0524 22:43:50.346638 19235 net.cpp:165] Memory required for data: 105745600
I0524 22:43:50.346662 19235 layer_factory.hpp:77] Creating layer relu3
I0524 22:43:50.346684 19235 net.cpp:106] Creating Layer relu3
I0524 22:43:50.346707 19235 net.cpp:454] relu3 <- conv3
I0524 22:43:50.346722 19235 net.cpp:397] relu3 -> conv3 (in-place)
I0524 22:43:50.347213 19235 net.cpp:150] Setting up relu3
I0524 22:43:50.347237 19235 net.cpp:157] Top shape: 80 28 22 44 (2168320)
I0524 22:43:50.347250 19235 net.cpp:165] Memory required for data: 114418880
I0524 22:43:50.347266 19235 layer_factory.hpp:77] Creating layer pool3
I0524 22:43:50.347290 19235 net.cpp:106] Creating Layer pool3
I0524 22:43:50.347302 19235 net.cpp:454] pool3 <- conv3
I0524 22:43:50.347318 19235 net.cpp:411] pool3 -> pool3
I0524 22:43:50.347399 19235 net.cpp:150] Setting up pool3
I0524 22:43:50.347419 19235 net.cpp:157] Top shape: 80 28 11 44 (1084160)
I0524 22:43:50.347434 19235 net.cpp:165] Memory required for data: 118755520
I0524 22:43:50.347445 19235 layer_factory.hpp:77] Creating layer conv4
I0524 22:43:50.347465 19235 net.cpp:106] Creating Layer conv4
I0524 22:43:50.347478 19235 net.cpp:454] conv4 <- pool3
I0524 22:43:50.347509 19235 net.cpp:411] conv4 -> conv4
I0524 22:43:50.350476 19235 net.cpp:150] Setting up conv4
I0524 22:43:50.350507 19235 net.cpp:157] Top shape: 80 36 6 42 (725760)
I0524 22:43:50.350523 19235 net.cpp:165] Memory required for data: 121658560
I0524 22:43:50.350543 19235 layer_factory.hpp:77] Creating layer relu4
I0524 22:43:50.350564 19235 net.cpp:106] Creating Layer relu4
I0524 22:43:50.350590 19235 net.cpp:454] relu4 <- conv4
I0524 22:43:50.350607 19235 net.cpp:397] relu4 -> conv4 (in-place)
I0524 22:43:50.351094 19235 net.cpp:150] Setting up relu4
I0524 22:43:50.351117 19235 net.cpp:157] Top shape: 80 36 6 42 (725760)
I0524 22:43:50.351130 19235 net.cpp:165] Memory required for data: 124561600
I0524 22:43:50.351146 19235 layer_factory.hpp:77] Creating layer pool4
I0524 22:43:50.351162 19235 net.cpp:106] Creating Layer pool4
I0524 22:43:50.351183 19235 net.cpp:454] pool4 <- conv4
I0524 22:43:50.351199 19235 net.cpp:411] pool4 -> pool4
I0524 22:43:50.351282 19235 net.cpp:150] Setting up pool4
I0524 22:43:50.351303 19235 net.cpp:157] Top shape: 80 36 3 42 (362880)
I0524 22:43:50.351316 19235 net.cpp:165] Memory required for data: 126013120
I0524 22:43:50.351331 19235 layer_factory.hpp:77] Creating layer ip1
I0524 22:43:50.351358 19235 net.cpp:106] Creating Layer ip1
I0524 22:43:50.351372 19235 net.cpp:454] ip1 <- pool4
I0524 22:43:50.351387 19235 net.cpp:411] ip1 -> ip1
I0524 22:43:50.366847 19235 net.cpp:150] Setting up ip1
I0524 22:43:50.366876 19235 net.cpp:157] Top shape: 80 196 (15680)
I0524 22:43:50.366897 19235 net.cpp:165] Memory required for data: 126075840
I0524 22:43:50.366924 19235 layer_factory.hpp:77] Creating layer relu5
I0524 22:43:50.366945 19235 net.cpp:106] Creating Layer relu5
I0524 22:43:50.366957 19235 net.cpp:454] relu5 <- ip1
I0524 22:43:50.366987 19235 net.cpp:397] relu5 -> ip1 (in-place)
I0524 22:43:50.367343 19235 net.cpp:150] Setting up relu5
I0524 22:43:50.367363 19235 net.cpp:157] Top shape: 80 196 (15680)
I0524 22:43:50.367377 19235 net.cpp:165] Memory required for data: 126138560
I0524 22:43:50.367391 19235 layer_factory.hpp:77] Creating layer drop1
I0524 22:43:50.367422 19235 net.cpp:106] Creating Layer drop1
I0524 22:43:50.367436 19235 net.cpp:454] drop1 <- ip1
I0524 22:43:50.367451 19235 net.cpp:397] drop1 -> ip1 (in-place)
I0524 22:43:50.367527 19235 net.cpp:150] Setting up drop1
I0524 22:43:50.367550 19235 net.cpp:157] Top shape: 80 196 (15680)
I0524 22:43:50.367563 19235 net.cpp:165] Memory required for data: 126201280
I0524 22:43:50.367578 19235 layer_factory.hpp:77] Creating layer ip2
I0524 22:43:50.367599 19235 net.cpp:106] Creating Layer ip2
I0524 22:43:50.367619 19235 net.cpp:454] ip2 <- ip1
I0524 22:43:50.367635 19235 net.cpp:411] ip2 -> ip2
I0524 22:43:50.368121 19235 net.cpp:150] Setting up ip2
I0524 22:43:50.368140 19235 net.cpp:157] Top shape: 80 98 (7840)
I0524 22:43:50.368154 19235 net.cpp:165] Memory required for data: 126232640
I0524 22:43:50.368175 19235 layer_factory.hpp:77] Creating layer relu6
I0524 22:43:50.368196 19235 net.cpp:106] Creating Layer relu6
I0524 22:43:50.368209 19235 net.cpp:454] relu6 <- ip2
I0524 22:43:50.368224 19235 net.cpp:397] relu6 -> ip2 (in-place)
I0524 22:43:50.368777 19235 net.cpp:150] Setting up relu6
I0524 22:43:50.368799 19235 net.cpp:157] Top shape: 80 98 (7840)
I0524 22:43:50.368813 19235 net.cpp:165] Memory required for data: 126264000
I0524 22:43:50.368829 19235 layer_factory.hpp:77] Creating layer drop2
I0524 22:43:50.368851 19235 net.cpp:106] Creating Layer drop2
I0524 22:43:50.368865 19235 net.cpp:454] drop2 <- ip2
I0524 22:43:50.368881 19235 net.cpp:397] drop2 -> ip2 (in-place)
I0524 22:43:50.368930 19235 net.cpp:150] Setting up drop2
I0524 22:43:50.368953 19235 net.cpp:157] Top shape: 80 98 (7840)
I0524 22:43:50.368965 19235 net.cpp:165] Memory required for data: 126295360
I0524 22:43:50.368979 19235 layer_factory.hpp:77] Creating layer ip3
I0524 22:43:50.368996 19235 net.cpp:106] Creating Layer ip3
I0524 22:43:50.369011 19235 net.cpp:454] ip3 <- ip2
I0524 22:43:50.369032 19235 net.cpp:411] ip3 -> ip3
I0524 22:43:50.369256 19235 net.cpp:150] Setting up ip3
I0524 22:43:50.369277 19235 net.cpp:157] Top shape: 80 11 (880)
I0524 22:43:50.369289 19235 net.cpp:165] Memory required for data: 126298880
I0524 22:43:50.369309 19235 layer_factory.hpp:77] Creating layer drop3
I0524 22:43:50.369324 19235 net.cpp:106] Creating Layer drop3
I0524 22:43:50.369338 19235 net.cpp:454] drop3 <- ip3
I0524 22:43:50.369352 19235 net.cpp:397] drop3 -> ip3 (in-place)
I0524 22:43:50.369415 19235 net.cpp:150] Setting up drop3
I0524 22:43:50.369432 19235 net.cpp:157] Top shape: 80 11 (880)
I0524 22:43:50.369444 19235 net.cpp:165] Memory required for data: 126302400
I0524 22:43:50.369457 19235 layer_factory.hpp:77] Creating layer loss
I0524 22:43:50.369488 19235 net.cpp:106] Creating Layer loss
I0524 22:43:50.369503 19235 net.cpp:454] loss <- ip3
I0524 22:43:50.369516 19235 net.cpp:454] loss <- label
I0524 22:43:50.369531 19235 net.cpp:411] loss -> loss
I0524 22:43:50.369550 19235 layer_factory.hpp:77] Creating layer loss
…
I0524 22:43:50.372352 19235 solver.cpp:181] Creating test net (#0) specified by net file: /lustre/atlas/proj-shared/hep105/caffe_titan/caffe_workflow/logs_bslr/bs_80_lr_0.0035_2016-05-20T15.49.18.656662.prototxt
I0524 22:43:50.372427 19235 net.cpp:322] The NetState phase (1) differed from the phase (0) specified by a rule in layer data_hdf5
I0524 22:43:50.372786 19235 net.cpp:49] Initializing net from parameters: 
name: "caffe_test_127x50_x_unshifted"
state {
  phase: TEST
}
layer {
  name: "data_hdf5"
  type: "HDF5Data"
  top: "data"
  top: "label"
  include {
    phase: TEST
  }
  hdf5_data_param {
    source: "/lustre/atlas/proj-shared/hep105/caffe_titan/minosmatch_nukecczdefs_127x50_x_unshifted_me1Bmc.testlist"
    batch_size: 80
  }
}
layer {
  name: "conv1"
  type: "Convolution"
  bottom: "data"
  top: "conv1"
  convolution_param {
    num_output: 12
    pad: 0
    stride: 1
    weight_filler {
      type: "xavier"
    }
    bias_filler {
      type: "constant"
    }
    kernel_h: 8
    kernel_w: 3
  }
}
layer {
  name: "relu1"
  type: "ReLU"
  bottom: "conv1"
  top: "conv1"
}
layer {
  name: "pool1"
  type: "Pooling"
  bottom: "conv1"
  top: "pool1"
  pooling_param {
    pool: MAX
    kernel_h: 2
    kernel_w: 1
    stride_h: 2
    stride_w: 1
  }
}
layer {
  name: "conv2"
  type: "Convolution"
  bottom: "pool1"
  top: "conv2"
  convolution_param {
    num_output: 20
    pad: 0
    stride: 1
    weight_filler {
      type: "xavier"
    }
    bias_filler {
      type: "constant"
    }
    kernel_h: 7
    kernel_w: 3
  }
}
layer {
  name: "relu2"
  type: "ReLU"
  bottom: "conv2"
  top: "conv2"
}
layer {
  name: "pool2"
  type: "Pooling"
  bottom: "conv2"
  top: "pool2"
  pooling_param {
    pool: MAX
    kernel_h: 2
    kernel_w: 1
    stride_h: 2
    stride_w: 1
  }
}
layer {
  name: "conv3"
  type: "Convolution"
  bottom: "pool2"
  top: "conv3"
  convolution_param {
    num_output: 28
    pad: 0
    stride: 1
    weight_filler {
      type: "xavier"
    }
    bias_filler {
      type: "constant"
    }
    kernel_h: 6
    kernel_w: 3
  }
}
layer {
  name: "relu3"
  type: "ReLU"
  bottom: "conv3"
  top: "conv3"
}
layer {
  name: "pool3"
  type: "Pooling"
  bottom: "conv3"
  top: "pool3"
  pooling_param {
    pool: MAX
    kernel_h: 2
    kernel_w: 1
    stride_h: 2
    stride_w: 1
  }
}
layer {
  name: "conv4"
  type: "Convolution"
  bottom: "pool3"
  top: "conv4"
  convolution_param {
    num_output: 36
    pad: 0
    stride: 1
    weight_filler {
      type: "xavier"
    }
    bias_filler {
      type: "constant"
    }
    kernel_h: 6
    kernel_w: 3
  }
}
layer {
  name: "relu4"
  type: "ReLU"
  bottom: "conv4"
  top: "conv4"
}
layer {
  name: "pool4"
  type: "Pooling"
  bottom: "conv4"
  top: "pool4"
  pooling_param {
    pool: MAX
    kernel_h: 2
    kernel_w: 1
    stride_h: 2
    stride_w: 1
  }
}
layer {
  name: "ip1"
  type: "InnerProduct"
  bottom: "pool4"
  top: "ip1"
  inner_product_param {
    num_output: 196
    weight_filler {
      type: "xavier"
    }
    bias_filler {
      type: "constant"
    }
  }
}
layer {
  name: "relu5"
  type: "ReLU"
  bottom: "ip1"
  top: "ip1"
}
layer {
  name: "drop1"
  type: "Dropout"
  bottom: "ip1"
  top: "ip1"
  dropout_param {
    dropout_ratio: 0.5
  }
}
layer {
  name: "ip2"
  type: "InnerProduct"
  bottom: "ip1"
  top: "ip2"
  inner_product_param {
    num_output: 98
    weight_filler {
      type: "xavier"
    }
    bias_filler {
      type: "constant"
    }
  }
}
layer {
  name: "relu6"
  type: "ReLU"
  bottom: "ip2"
  top: "ip2"
}
layer {
  name: "drop2"
  type: "Dropout"
  bottom: "ip2"
  top: "ip2"
  dropout_param {
    dropout_ratio: 0.5
  }
}
layer {
  name: "ip3"
  type: "InnerProduct"
  bottom: "ip2"
  top: "ip3"
  inner_product_param {
    num_output: 11
    weight_filler {
      type: "xavier"
    }
    bias_filler {
      type: "constant"
    }
  }
}
layer {
  name: "drop3"
  type: "Dropout"
  bottom: "ip3"
  top: "ip3"
  dropout_param {
    dropout_ratio: 0.5
  }
}
layer {
  name: "accuracy"
  type: "Accuracy"
  bottom: "ip3"
  bottom: "label"
  top: "accuracy"
  include {
    phase: TEST
  }
}
layer {
  name: "loss"
  type: "SoftmaxWithLoss"
  bottom: "ip3"
  bottom: "label"
  top: "loss"
}
I0524 22:43:50.372982 19235 layer_factory.hpp:77] Creating layer data_hdf5
I0524 22:43:50.373003 19235 net.cpp:106] Creating Layer data_hdf5
I0524 22:43:50.373019 19235 net.cpp:411] data_hdf5 -> data
I0524 22:43:50.373042 19235 net.cpp:411] data_hdf5 -> label
I0524 22:43:50.373061 19235 hdf5_data_layer.cpp:79] Loading list of HDF5 filenames from: /lustre/atlas/proj-shared/hep105/caffe_titan/minosmatch_nukecczdefs_127x50_x_unshifted_me1Bmc.testlist
I0524 22:43:50.374212 19235 hdf5_data_layer.cpp:93] Number of HDF5 files: 3
I0524 22:44:11.691081 19235 net.cpp:150] Setting up data_hdf5
I0524 22:44:11.691252 19235 net.cpp:157] Top shape: 80 1 127 50 (508000)
I0524 22:44:11.691272 19235 net.cpp:157] Top shape: 80 (80)
I0524 22:44:11.691285 19235 net.cpp:165] Memory required for data: 2032320
I0524 22:44:11.691299 19235 layer_factory.hpp:77] Creating layer label_data_hdf5_1_split
I0524 22:44:11.691334 19235 net.cpp:106] Creating Layer label_data_hdf5_1_split
I0524 22:44:11.691365 19235 net.cpp:454] label_data_hdf5_1_split <- label
I0524 22:44:11.691382 19235 net.cpp:411] label_data_hdf5_1_split -> label_data_hdf5_1_split_0
I0524 22:44:11.691406 19235 net.cpp:411] label_data_hdf5_1_split -> label_data_hdf5_1_split_1
I0524 22:44:11.691485 19235 net.cpp:150] Setting up label_data_hdf5_1_split
I0524 22:44:11.691509 19235 net.cpp:157] Top shape: 80 (80)
I0524 22:44:11.691524 19235 net.cpp:157] Top shape: 80 (80)
I0524 22:44:11.691536 19235 net.cpp:165] Memory required for data: 2032960
I0524 22:44:11.691548 19235 layer_factory.hpp:77] Creating layer conv1
I0524 22:44:11.691575 19235 net.cpp:106] Creating Layer conv1
I0524 22:44:11.691594 19235 net.cpp:454] conv1 <- data
I0524 22:44:11.691612 19235 net.cpp:411] conv1 -> conv1
I0524 22:44:11.693575 19235 net.cpp:150] Setting up conv1
I0524 22:44:11.693600 19235 net.cpp:157] Top shape: 80 12 120 48 (5529600)
I0524 22:44:11.693622 19235 net.cpp:165] Memory required for data: 24151360
I0524 22:44:11.693646 19235 layer_factory.hpp:77] Creating layer relu1
I0524 22:44:11.693667 19235 net.cpp:106] Creating Layer relu1
I0524 22:44:11.693680 19235 net.cpp:454] relu1 <- conv1
I0524 22:44:11.693696 19235 net.cpp:397] relu1 -> conv1 (in-place)
I0524 22:44:11.694222 19235 net.cpp:150] Setting up relu1
I0524 22:44:11.694245 19235 net.cpp:157] Top shape: 80 12 120 48 (5529600)
I0524 22:44:11.694259 19235 net.cpp:165] Memory required for data: 46269760
I0524 22:44:11.694272 19235 layer_factory.hpp:77] Creating layer pool1
I0524 22:44:11.694301 19235 net.cpp:106] Creating Layer pool1
I0524 22:44:11.694315 19235 net.cpp:454] pool1 <- conv1
I0524 22:44:11.694331 19235 net.cpp:411] pool1 -> pool1
I0524 22:44:11.694422 19235 net.cpp:150] Setting up pool1
I0524 22:44:11.694438 19235 net.cpp:157] Top shape: 80 12 60 48 (2764800)
I0524 22:44:11.694453 19235 net.cpp:165] Memory required for data: 57328960
I0524 22:44:11.694465 19235 layer_factory.hpp:77] Creating layer conv2
I0524 22:44:11.694492 19235 net.cpp:106] Creating Layer conv2
I0524 22:44:11.694505 19235 net.cpp:454] conv2 <- pool1
I0524 22:44:11.694521 19235 net.cpp:411] conv2 -> conv2
I0524 22:44:11.696461 19235 net.cpp:150] Setting up conv2
I0524 22:44:11.696485 19235 net.cpp:157] Top shape: 80 20 54 46 (3974400)
I0524 22:44:11.696506 19235 net.cpp:165] Memory required for data: 73226560
I0524 22:44:11.696528 19235 layer_factory.hpp:77] Creating layer relu2
I0524 22:44:11.696548 19235 net.cpp:106] Creating Layer relu2
I0524 22:44:11.696560 19235 net.cpp:454] relu2 <- conv2
I0524 22:44:11.696584 19235 net.cpp:397] relu2 -> conv2 (in-place)
I0524 22:44:11.696934 19235 net.cpp:150] Setting up relu2
I0524 22:44:11.696954 19235 net.cpp:157] Top shape: 80 20 54 46 (3974400)
I0524 22:44:11.696967 19235 net.cpp:165] Memory required for data: 89124160
I0524 22:44:11.696979 19235 layer_factory.hpp:77] Creating layer pool2
I0524 22:44:11.696998 19235 net.cpp:106] Creating Layer pool2
I0524 22:44:11.697011 19235 net.cpp:454] pool2 <- conv2
I0524 22:44:11.697027 19235 net.cpp:411] pool2 -> pool2
I0524 22:44:11.697118 19235 net.cpp:150] Setting up pool2
I0524 22:44:11.697139 19235 net.cpp:157] Top shape: 80 20 27 46 (1987200)
I0524 22:44:11.697152 19235 net.cpp:165] Memory required for data: 97072960
I0524 22:44:11.697165 19235 layer_factory.hpp:77] Creating layer conv3
I0524 22:44:11.697197 19235 net.cpp:106] Creating Layer conv3
I0524 22:44:11.697211 19235 net.cpp:454] conv3 <- pool2
I0524 22:44:11.697232 19235 net.cpp:411] conv3 -> conv3
I0524 22:44:11.699266 19235 net.cpp:150] Setting up conv3
I0524 22:44:11.699291 19235 net.cpp:157] Top shape: 80 28 22 44 (2168320)
I0524 22:44:11.699311 19235 net.cpp:165] Memory required for data: 105746240
I0524 22:44:11.699348 19235 layer_factory.hpp:77] Creating layer relu3
I0524 22:44:11.699373 19235 net.cpp:106] Creating Layer relu3
I0524 22:44:11.699388 19235 net.cpp:454] relu3 <- conv3
I0524 22:44:11.699404 19235 net.cpp:397] relu3 -> conv3 (in-place)
I0524 22:44:11.699895 19235 net.cpp:150] Setting up relu3
I0524 22:44:11.699919 19235 net.cpp:157] Top shape: 80 28 22 44 (2168320)
I0524 22:44:11.699933 19235 net.cpp:165] Memory required for data: 114419520
I0524 22:44:11.699949 19235 layer_factory.hpp:77] Creating layer pool3
I0524 22:44:11.699965 19235 net.cpp:106] Creating Layer pool3
I0524 22:44:11.699978 19235 net.cpp:454] pool3 <- conv3
I0524 22:44:11.699995 19235 net.cpp:411] pool3 -> pool3
I0524 22:44:11.700091 19235 net.cpp:150] Setting up pool3
I0524 22:44:11.700111 19235 net.cpp:157] Top shape: 80 28 11 44 (1084160)
I0524 22:44:11.700124 19235 net.cpp:165] Memory required for data: 118756160
I0524 22:44:11.700147 19235 layer_factory.hpp:77] Creating layer conv4
I0524 22:44:11.700167 19235 net.cpp:106] Creating Layer conv4
I0524 22:44:11.700182 19235 net.cpp:454] conv4 <- pool3
I0524 22:44:11.700201 19235 net.cpp:411] conv4 -> conv4
I0524 22:44:11.702323 19235 net.cpp:150] Setting up conv4
I0524 22:44:11.702347 19235 net.cpp:157] Top shape: 80 36 6 42 (725760)
I0524 22:44:11.702368 19235 net.cpp:165] Memory required for data: 121659200
I0524 22:44:11.702388 19235 layer_factory.hpp:77] Creating layer relu4
I0524 22:44:11.702406 19235 net.cpp:106] Creating Layer relu4
I0524 22:44:11.702419 19235 net.cpp:454] relu4 <- conv4
I0524 22:44:11.702435 19235 net.cpp:397] relu4 -> conv4 (in-place)
I0524 22:44:11.702929 19235 net.cpp:150] Setting up relu4
I0524 22:44:11.702952 19235 net.cpp:157] Top shape: 80 36 6 42 (725760)
I0524 22:44:11.702965 19235 net.cpp:165] Memory required for data: 124562240
I0524 22:44:11.702981 19235 layer_factory.hpp:77] Creating layer pool4
I0524 22:44:11.703006 19235 net.cpp:106] Creating Layer pool4
I0524 22:44:11.703018 19235 net.cpp:454] pool4 <- conv4
I0524 22:44:11.703034 19235 net.cpp:411] pool4 -> pool4
I0524 22:44:11.703121 19235 net.cpp:150] Setting up pool4
I0524 22:44:11.703137 19235 net.cpp:157] Top shape: 80 36 3 42 (362880)
I0524 22:44:11.703152 19235 net.cpp:165] Memory required for data: 126013760
I0524 22:44:11.703164 19235 layer_factory.hpp:77] Creating layer ip1
I0524 22:44:11.703183 19235 net.cpp:106] Creating Layer ip1
I0524 22:44:11.703197 19235 net.cpp:454] ip1 <- pool4
I0524 22:44:11.703215 19235 net.cpp:411] ip1 -> ip1
I0524 22:44:11.718721 19235 net.cpp:150] Setting up ip1
I0524 22:44:11.718750 19235 net.cpp:157] Top shape: 80 196 (15680)
I0524 22:44:11.718773 19235 net.cpp:165] Memory required for data: 126076480
I0524 22:44:11.718799 19235 layer_factory.hpp:77] Creating layer relu5
I0524 22:44:11.718821 19235 net.cpp:106] Creating Layer relu5
I0524 22:44:11.718834 19235 net.cpp:454] relu5 <- ip1
I0524 22:44:11.718849 19235 net.cpp:397] relu5 -> ip1 (in-place)
I0524 22:44:11.719229 19235 net.cpp:150] Setting up relu5
I0524 22:44:11.719250 19235 net.cpp:157] Top shape: 80 196 (15680)
I0524 22:44:11.719262 19235 net.cpp:165] Memory required for data: 126139200
I0524 22:44:11.719279 19235 layer_factory.hpp:77] Creating layer drop1
I0524 22:44:11.719300 19235 net.cpp:106] Creating Layer drop1
I0524 22:44:11.719312 19235 net.cpp:454] drop1 <- ip1
I0524 22:44:11.719329 19235 net.cpp:397] drop1 -> ip1 (in-place)
I0524 22:44:11.719395 19235 net.cpp:150] Setting up drop1
I0524 22:44:11.719413 19235 net.cpp:157] Top shape: 80 196 (15680)
I0524 22:44:11.719425 19235 net.cpp:165] Memory required for data: 126201920
I0524 22:44:11.719437 19235 layer_factory.hpp:77] Creating layer ip2
I0524 22:44:11.719463 19235 net.cpp:106] Creating Layer ip2
I0524 22:44:11.719478 19235 net.cpp:454] ip2 <- ip1
I0524 22:44:11.719494 19235 net.cpp:411] ip2 -> ip2
I0524 22:44:11.719998 19235 net.cpp:150] Setting up ip2
I0524 22:44:11.720017 19235 net.cpp:157] Top shape: 80 98 (7840)
I0524 22:44:11.720031 19235 net.cpp:165] Memory required for data: 126233280
I0524 22:44:11.720052 19235 layer_factory.hpp:77] Creating layer relu6
I0524 22:44:11.720087 19235 net.cpp:106] Creating Layer relu6
I0524 22:44:11.720099 19235 net.cpp:454] relu6 <- ip2
I0524 22:44:11.720115 19235 net.cpp:397] relu6 -> ip2 (in-place)
I0524 22:44:11.720674 19235 net.cpp:150] Setting up relu6
I0524 22:44:11.720697 19235 net.cpp:157] Top shape: 80 98 (7840)
I0524 22:44:11.720710 19235 net.cpp:165] Memory required for data: 126264640
I0524 22:44:11.720722 19235 layer_factory.hpp:77] Creating layer drop2
I0524 22:44:11.720742 19235 net.cpp:106] Creating Layer drop2
I0524 22:44:11.720755 19235 net.cpp:454] drop2 <- ip2
I0524 22:44:11.720780 19235 net.cpp:397] drop2 -> ip2 (in-place)
I0524 22:44:11.720836 19235 net.cpp:150] Setting up drop2
I0524 22:44:11.720852 19235 net.cpp:157] Top shape: 80 98 (7840)
I0524 22:44:11.720871 19235 net.cpp:165] Memory required for data: 126296000
I0524 22:44:11.720885 19235 layer_factory.hpp:77] Creating layer ip3
I0524 22:44:11.720903 19235 net.cpp:106] Creating Layer ip3
I0524 22:44:11.720916 19235 net.cpp:454] ip3 <- ip2
I0524 22:44:11.720934 19235 net.cpp:411] ip3 -> ip3
I0524 22:44:11.721180 19235 net.cpp:150] Setting up ip3
I0524 22:44:11.721199 19235 net.cpp:157] Top shape: 80 11 (880)
I0524 22:44:11.721212 19235 net.cpp:165] Memory required for data: 126299520
I0524 22:44:11.721233 19235 layer_factory.hpp:77] Creating layer drop3
I0524 22:44:11.721256 19235 net.cpp:106] Creating Layer drop3
I0524 22:44:11.721268 19235 net.cpp:454] drop3 <- ip3
I0524 22:44:11.721284 19235 net.cpp:397] drop3 -> ip3 (in-place)
I0524 22:44:11.721333 19235 net.cpp:150] Setting up drop3
I0524 22:44:11.721349 19235 net.cpp:157] Top shape: 80 11 (880)
I0524 22:44:11.721361 19235 net.cpp:165] Memory required for data: 126303040
I0524 22:44:11.721379 19235 layer_factory.hpp:77] Creating layer ip3_drop3_0_split
I0524 22:44:11.721396 19235 net.cpp:106] Creating Layer ip3_drop3_0_split
I0524 22:44:11.721416 19235 net.cpp:454] ip3_drop3_0_split <- ip3
I0524 22:44:11.721432 19235 net.cpp:411] ip3_drop3_0_split -> ip3_drop3_0_split_0
I0524 22:44:11.721451 19235 net.cpp:411] ip3_drop3_0_split -> ip3_drop3_0_split_1
I0524 22:44:11.721540 19235 net.cpp:150] Setting up ip3_drop3_0_split
I0524 22:44:11.721563 19235 net.cpp:157] Top shape: 80 11 (880)
I0524 22:44:11.721580 19235 net.cpp:157] Top shape: 80 11 (880)
I0524 22:44:11.721593 19235 net.cpp:165] Memory required for data: 126310080
I0524 22:44:11.721606 19235 layer_factory.hpp:77] Creating layer accuracy
I0524 22:44:11.721628 19235 net.cpp:106] Creating Layer accuracy
I0524 22:44:11.721647 19235 net.cpp:454] accuracy <- ip3_drop3_0_split_0
I0524 22:44:11.721662 19235 net.cpp:454] accuracy <- label_data_hdf5_1_split_0
I0524 22:44:11.721678 19235 net.cpp:411] accuracy -> accuracy
…
