…
I0525 00:46:42.442790 19044 net.cpp:322] The NetState phase (0) differed from the phase (1) specified by a rule in layer data_hdf5
I0525 00:46:42.442849 19044 net.cpp:322] The NetState phase (0) differed from the phase (1) specified by a rule in layer accuracy
I0525 00:46:42.443195 19044 net.cpp:49] Initializing net from parameters: 
name: "caffe_test_127x50_x_unshifted"
state {
  phase: TRAIN
}
layer {
  name: "data_hdf5"
  type: "HDF5Data"
  top: "data"
  top: "label"
  include {
    phase: TRAIN
  }
  hdf5_data_param {
    source: "/lustre/atlas/proj-shared/hep105/caffe_titan/minosmatch_nukecczdefs_127x50_x_unshifted_me1Bmc.trainlist"
    batch_size: 80
  }
}
layer {
  name: "conv1"
  type: "Convolution"
  bottom: "data"
  top: "conv1"
  convolution_param {
    num_output: 12
    pad: 0
    stride: 1
    weight_filler {
      type: "xavier"
    }
    bias_filler {
      type: "constant"
    }
    kernel_h: 8
    kernel_w: 3
  }
}
layer {
  name: "relu1"
  type: "ReLU"
  bottom: "conv1"
  top: "conv1"
}
layer {
  name: "pool1"
  type: "Pooling"
  bottom: "conv1"
  top: "pool1"
  pooling_param {
    pool: MAX
    kernel_h: 2
    kernel_w: 1
    stride_h: 2
    stride_w: 1
  }
}
layer {
  name: "conv2"
  type: "Convolution"
  bottom: "pool1"
  top: "conv2"
  convolution_param {
    num_output: 20
    pad: 0
    stride: 1
    weight_filler {
      type: "xavier"
    }
    bias_filler {
      type: "constant"
    }
    kernel_h: 7
    kernel_w: 3
  }
}
layer {
  name: "relu2"
  type: "ReLU"
  bottom: "conv2"
  top: "conv2"
}
layer {
  name: "pool2"
  type: "Pooling"
  bottom: "conv2"
  top: "pool2"
  pooling_param {
    pool: MAX
    kernel_h: 2
    kernel_w: 1
    stride_h: 2
    stride_w: 1
  }
}
layer {
  name: "conv3"
  type: "Convolution"
  bottom: "pool2"
  top: "conv3"
  convolution_param {
    num_output: 28
    pad: 0
    stride: 1
    weight_filler {
      type: "xavier"
    }
    bias_filler {
      type: "constant"
    }
    kernel_h: 6
    kernel_w: 3
  }
}
layer {
  name: "relu3"
  type: "ReLU"
  bottom: "conv3"
  top: "conv3"
}
layer {
  name: "pool3"
  type: "Pooling"
  bottom: "conv3"
  top: "pool3"
  pooling_param {
    pool: MAX
    kernel_h: 2
    kernel_w: 1
    stride_h: 2
    stride_w: 1
  }
}
layer {
  name: "conv4"
  type: "Convolution"
  bottom: "pool3"
  top: "conv4"
  convolution_param {
    num_output: 36
    pad: 0
    stride: 1
    weight_filler {
      type: "xavier"
    }
    bias_filler {
      type: "constant"
    }
    kernel_h: 6
    kernel_w: 3
  }
}
layer {
  name: "relu4"
  type: "ReLU"
  bottom: "conv4"
  top: "conv4"
}
layer {
  name: "pool4"
  type: "Pooling"
  bottom: "conv4"
  top: "pool4"
  pooling_param {
    pool: MAX
    kernel_h: 2
    kernel_w: 1
    stride_h: 2
    stride_w: 1
  }
}
layer {
  name: "ip1"
  type: "InnerProduct"
  bottom: "pool4"
  top: "ip1"
  inner_product_param {
    num_output: 196
    weight_filler {
      type: "xavier"
    }
    bias_filler {
      type: "constant"
    }
  }
}
layer {
  name: "relu5"
  type: "ReLU"
  bottom: "ip1"
  top: "ip1"
}
layer {
  name: "drop1"
  type: "Dropout"
  bottom: "ip1"
  top: "ip1"
  dropout_param {
    dropout_ratio: 0.5
  }
}
layer {
  name: "ip2"
  type: "InnerProduct"
  bottom: "ip1"
  top: "ip2"
  inner_product_param {
    num_output: 98
    weight_filler {
      type: "xavier"
    }
    bias_filler {
      type: "constant"
    }
  }
}
layer {
  name: "relu6"
  type: "ReLU"
  bottom: "ip2"
  top: "ip2"
}
layer {
  name: "drop2"
  type: "Dropout"
  bottom: "ip2"
  top: "ip2"
  dropout_param {
    dropout_ratio: 0.5
  }
}
layer {
  name: "ip3"
  type: "InnerProduct"
  bottom: "ip2"
  top: "ip3"
  inner_product_param {
    num_output: 11
    weight_filler {
      type: "xavier"
    }
    bias_filler {
      type: "constant"
    }
  }
}
layer {
  name: "drop3"
  type: "Dropout"
  bottom: "ip3"
  top: "ip3"
  dropout_param {
    dropout_ratio: 0.5
  }
}
layer {
  name: "loss"
  type: "SoftmaxWithLoss"
  bottom: "ip3"
  bottom: "label"
  top: "loss"
}
I0525 00:46:42.443373 19044 layer_factory.hpp:77] Creating layer data_hdf5
I0525 00:46:42.443397 19044 net.cpp:106] Creating Layer data_hdf5
I0525 00:46:42.443411 19044 net.cpp:411] data_hdf5 -> data
I0525 00:46:42.443444 19044 net.cpp:411] data_hdf5 -> label
I0525 00:46:42.443476 19044 hdf5_data_layer.cpp:79] Loading list of HDF5 filenames from: /lustre/atlas/proj-shared/hep105/caffe_titan/minosmatch_nukecczdefs_127x50_x_unshifted_me1Bmc.trainlist
I0525 00:46:42.445044 19044 hdf5_data_layer.cpp:93] Number of HDF5 files: 15
I0525 00:46:42.447373 19044 hdf5.cpp:32] Datatype class: H5T_FLOAT
I0525 00:47:03.937603 19044 hdf5.cpp:35] Datatype class: H5T_INTEGER
I0525 00:47:03.942878 19044 net.cpp:150] Setting up data_hdf5
I0525 00:47:03.942920 19044 net.cpp:157] Top shape: 80 1 127 50 (508000)
I0525 00:47:03.942934 19044 net.cpp:157] Top shape: 80 (80)
I0525 00:47:03.942947 19044 net.cpp:165] Memory required for data: 2032320
I0525 00:47:03.942961 19044 layer_factory.hpp:77] Creating layer conv1
I0525 00:47:03.942994 19044 net.cpp:106] Creating Layer conv1
I0525 00:47:03.943006 19044 net.cpp:454] conv1 <- data
I0525 00:47:03.943028 19044 net.cpp:411] conv1 -> conv1
I0525 00:47:04.308418 19044 net.cpp:150] Setting up conv1
I0525 00:47:04.308465 19044 net.cpp:157] Top shape: 80 12 120 48 (5529600)
I0525 00:47:04.308475 19044 net.cpp:165] Memory required for data: 24150720
I0525 00:47:04.308506 19044 layer_factory.hpp:77] Creating layer relu1
I0525 00:47:04.308526 19044 net.cpp:106] Creating Layer relu1
I0525 00:47:04.308537 19044 net.cpp:454] relu1 <- conv1
I0525 00:47:04.308552 19044 net.cpp:397] relu1 -> conv1 (in-place)
I0525 00:47:04.309063 19044 net.cpp:150] Setting up relu1
I0525 00:47:04.309080 19044 net.cpp:157] Top shape: 80 12 120 48 (5529600)
I0525 00:47:04.309092 19044 net.cpp:165] Memory required for data: 46269120
I0525 00:47:04.309103 19044 layer_factory.hpp:77] Creating layer pool1
I0525 00:47:04.309119 19044 net.cpp:106] Creating Layer pool1
I0525 00:47:04.309129 19044 net.cpp:454] pool1 <- conv1
I0525 00:47:04.309144 19044 net.cpp:411] pool1 -> pool1
I0525 00:47:04.309224 19044 net.cpp:150] Setting up pool1
I0525 00:47:04.309238 19044 net.cpp:157] Top shape: 80 12 60 48 (2764800)
I0525 00:47:04.309250 19044 net.cpp:165] Memory required for data: 57328320
I0525 00:47:04.309260 19044 layer_factory.hpp:77] Creating layer conv2
I0525 00:47:04.309283 19044 net.cpp:106] Creating Layer conv2
I0525 00:47:04.309293 19044 net.cpp:454] conv2 <- pool1
I0525 00:47:04.309306 19044 net.cpp:411] conv2 -> conv2
I0525 00:47:04.312039 19044 net.cpp:150] Setting up conv2
I0525 00:47:04.312067 19044 net.cpp:157] Top shape: 80 20 54 46 (3974400)
I0525 00:47:04.312077 19044 net.cpp:165] Memory required for data: 73225920
I0525 00:47:04.312098 19044 layer_factory.hpp:77] Creating layer relu2
I0525 00:47:04.312121 19044 net.cpp:106] Creating Layer relu2
I0525 00:47:04.312132 19044 net.cpp:454] relu2 <- conv2
I0525 00:47:04.312145 19044 net.cpp:397] relu2 -> conv2 (in-place)
I0525 00:47:04.312476 19044 net.cpp:150] Setting up relu2
I0525 00:47:04.312491 19044 net.cpp:157] Top shape: 80 20 54 46 (3974400)
I0525 00:47:04.312501 19044 net.cpp:165] Memory required for data: 89123520
I0525 00:47:04.312512 19044 layer_factory.hpp:77] Creating layer pool2
I0525 00:47:04.312525 19044 net.cpp:106] Creating Layer pool2
I0525 00:47:04.312535 19044 net.cpp:454] pool2 <- conv2
I0525 00:47:04.312547 19044 net.cpp:411] pool2 -> pool2
I0525 00:47:04.312628 19044 net.cpp:150] Setting up pool2
I0525 00:47:04.312641 19044 net.cpp:157] Top shape: 80 20 27 46 (1987200)
I0525 00:47:04.312651 19044 net.cpp:165] Memory required for data: 97072320
I0525 00:47:04.312659 19044 layer_factory.hpp:77] Creating layer conv3
I0525 00:47:04.312679 19044 net.cpp:106] Creating Layer conv3
I0525 00:47:04.312688 19044 net.cpp:454] conv3 <- pool2
I0525 00:47:04.312702 19044 net.cpp:411] conv3 -> conv3
I0525 00:47:04.314615 19044 net.cpp:150] Setting up conv3
I0525 00:47:04.314640 19044 net.cpp:157] Top shape: 80 28 22 44 (2168320)
I0525 00:47:04.314651 19044 net.cpp:165] Memory required for data: 105745600
I0525 00:47:04.314671 19044 layer_factory.hpp:77] Creating layer relu3
I0525 00:47:04.314687 19044 net.cpp:106] Creating Layer relu3
I0525 00:47:04.314697 19044 net.cpp:454] relu3 <- conv3
I0525 00:47:04.314709 19044 net.cpp:397] relu3 -> conv3 (in-place)
I0525 00:47:04.315176 19044 net.cpp:150] Setting up relu3
I0525 00:47:04.315192 19044 net.cpp:157] Top shape: 80 28 22 44 (2168320)
I0525 00:47:04.315202 19044 net.cpp:165] Memory required for data: 114418880
I0525 00:47:04.315213 19044 layer_factory.hpp:77] Creating layer pool3
I0525 00:47:04.315227 19044 net.cpp:106] Creating Layer pool3
I0525 00:47:04.315237 19044 net.cpp:454] pool3 <- conv3
I0525 00:47:04.315251 19044 net.cpp:411] pool3 -> pool3
I0525 00:47:04.315320 19044 net.cpp:150] Setting up pool3
I0525 00:47:04.315332 19044 net.cpp:157] Top shape: 80 28 11 44 (1084160)
I0525 00:47:04.315342 19044 net.cpp:165] Memory required for data: 118755520
I0525 00:47:04.315353 19044 layer_factory.hpp:77] Creating layer conv4
I0525 00:47:04.315371 19044 net.cpp:106] Creating Layer conv4
I0525 00:47:04.315382 19044 net.cpp:454] conv4 <- pool3
I0525 00:47:04.315395 19044 net.cpp:411] conv4 -> conv4
I0525 00:47:04.318369 19044 net.cpp:150] Setting up conv4
I0525 00:47:04.318392 19044 net.cpp:157] Top shape: 80 36 6 42 (725760)
I0525 00:47:04.318403 19044 net.cpp:165] Memory required for data: 121658560
I0525 00:47:04.318418 19044 layer_factory.hpp:77] Creating layer relu4
I0525 00:47:04.318434 19044 net.cpp:106] Creating Layer relu4
I0525 00:47:04.318444 19044 net.cpp:454] relu4 <- conv4
I0525 00:47:04.318456 19044 net.cpp:397] relu4 -> conv4 (in-place)
I0525 00:47:04.318922 19044 net.cpp:150] Setting up relu4
I0525 00:47:04.318938 19044 net.cpp:157] Top shape: 80 36 6 42 (725760)
I0525 00:47:04.318948 19044 net.cpp:165] Memory required for data: 124561600
I0525 00:47:04.318959 19044 layer_factory.hpp:77] Creating layer pool4
I0525 00:47:04.318972 19044 net.cpp:106] Creating Layer pool4
I0525 00:47:04.318981 19044 net.cpp:454] pool4 <- conv4
I0525 00:47:04.318995 19044 net.cpp:411] pool4 -> pool4
I0525 00:47:04.319063 19044 net.cpp:150] Setting up pool4
I0525 00:47:04.319077 19044 net.cpp:157] Top shape: 80 36 3 42 (362880)
I0525 00:47:04.319087 19044 net.cpp:165] Memory required for data: 126013120
I0525 00:47:04.319097 19044 layer_factory.hpp:77] Creating layer ip1
I0525 00:47:04.319114 19044 net.cpp:106] Creating Layer ip1
I0525 00:47:04.319125 19044 net.cpp:454] ip1 <- pool4
I0525 00:47:04.319139 19044 net.cpp:411] ip1 -> ip1
I0525 00:47:04.334583 19044 net.cpp:150] Setting up ip1
I0525 00:47:04.334611 19044 net.cpp:157] Top shape: 80 196 (15680)
I0525 00:47:04.334624 19044 net.cpp:165] Memory required for data: 126075840
I0525 00:47:04.334645 19044 layer_factory.hpp:77] Creating layer relu5
I0525 00:47:04.334661 19044 net.cpp:106] Creating Layer relu5
I0525 00:47:04.334671 19044 net.cpp:454] relu5 <- ip1
I0525 00:47:04.334684 19044 net.cpp:397] relu5 -> ip1 (in-place)
I0525 00:47:04.335024 19044 net.cpp:150] Setting up relu5
I0525 00:47:04.335039 19044 net.cpp:157] Top shape: 80 196 (15680)
I0525 00:47:04.335049 19044 net.cpp:165] Memory required for data: 126138560
I0525 00:47:04.335059 19044 layer_factory.hpp:77] Creating layer drop1
I0525 00:47:04.335080 19044 net.cpp:106] Creating Layer drop1
I0525 00:47:04.335091 19044 net.cpp:454] drop1 <- ip1
I0525 00:47:04.335104 19044 net.cpp:397] drop1 -> ip1 (in-place)
I0525 00:47:04.335166 19044 net.cpp:150] Setting up drop1
I0525 00:47:04.335180 19044 net.cpp:157] Top shape: 80 196 (15680)
I0525 00:47:04.335189 19044 net.cpp:165] Memory required for data: 126201280
I0525 00:47:04.335199 19044 layer_factory.hpp:77] Creating layer ip2
I0525 00:47:04.335219 19044 net.cpp:106] Creating Layer ip2
I0525 00:47:04.335229 19044 net.cpp:454] ip2 <- ip1
I0525 00:47:04.335243 19044 net.cpp:411] ip2 -> ip2
I0525 00:47:04.335708 19044 net.cpp:150] Setting up ip2
I0525 00:47:04.335721 19044 net.cpp:157] Top shape: 80 98 (7840)
I0525 00:47:04.335731 19044 net.cpp:165] Memory required for data: 126232640
I0525 00:47:04.335747 19044 layer_factory.hpp:77] Creating layer relu6
I0525 00:47:04.335759 19044 net.cpp:106] Creating Layer relu6
I0525 00:47:04.335769 19044 net.cpp:454] relu6 <- ip2
I0525 00:47:04.335783 19044 net.cpp:397] relu6 -> ip2 (in-place)
I0525 00:47:04.336308 19044 net.cpp:150] Setting up relu6
I0525 00:47:04.336323 19044 net.cpp:157] Top shape: 80 98 (7840)
I0525 00:47:04.336333 19044 net.cpp:165] Memory required for data: 126264000
I0525 00:47:04.336344 19044 layer_factory.hpp:77] Creating layer drop2
I0525 00:47:04.336357 19044 net.cpp:106] Creating Layer drop2
I0525 00:47:04.336367 19044 net.cpp:454] drop2 <- ip2
I0525 00:47:04.336380 19044 net.cpp:397] drop2 -> ip2 (in-place)
I0525 00:47:04.336422 19044 net.cpp:150] Setting up drop2
I0525 00:47:04.336436 19044 net.cpp:157] Top shape: 80 98 (7840)
I0525 00:47:04.336446 19044 net.cpp:165] Memory required for data: 126295360
I0525 00:47:04.336455 19044 layer_factory.hpp:77] Creating layer ip3
I0525 00:47:04.336469 19044 net.cpp:106] Creating Layer ip3
I0525 00:47:04.336479 19044 net.cpp:454] ip3 <- ip2
I0525 00:47:04.336493 19044 net.cpp:411] ip3 -> ip3
I0525 00:47:04.336700 19044 net.cpp:150] Setting up ip3
I0525 00:47:04.336714 19044 net.cpp:157] Top shape: 80 11 (880)
I0525 00:47:04.336724 19044 net.cpp:165] Memory required for data: 126298880
I0525 00:47:04.336738 19044 layer_factory.hpp:77] Creating layer drop3
I0525 00:47:04.336751 19044 net.cpp:106] Creating Layer drop3
I0525 00:47:04.336761 19044 net.cpp:454] drop3 <- ip3
I0525 00:47:04.336773 19044 net.cpp:397] drop3 -> ip3 (in-place)
I0525 00:47:04.336812 19044 net.cpp:150] Setting up drop3
I0525 00:47:04.336825 19044 net.cpp:157] Top shape: 80 11 (880)
I0525 00:47:04.336835 19044 net.cpp:165] Memory required for data: 126302400
I0525 00:47:04.336845 19044 layer_factory.hpp:77] Creating layer loss
I0525 00:47:04.336864 19044 net.cpp:106] Creating Layer loss
I0525 00:47:04.336874 19044 net.cpp:454] loss <- ip3
I0525 00:47:04.336885 19044 net.cpp:454] loss <- label
I0525 00:47:04.336899 19044 net.cpp:411] loss -> loss
I0525 00:47:04.336915 19044 layer_factory.hpp:77] Creating layer loss
…
I0525 00:47:04.339704 19044 solver.cpp:181] Creating test net (#0) specified by net file: /lustre/atlas/proj-shared/hep105/caffe_titan/caffe_workflow/logs_bslr/bs_80_lr_0.0045_2016-05-20T15.49.19.426326.prototxt
I0525 00:47:04.339777 19044 net.cpp:322] The NetState phase (1) differed from the phase (0) specified by a rule in layer data_hdf5
I0525 00:47:04.340142 19044 net.cpp:49] Initializing net from parameters: 
name: "caffe_test_127x50_x_unshifted"
state {
  phase: TEST
}
layer {
  name: "data_hdf5"
  type: "HDF5Data"
  top: "data"
  top: "label"
  include {
    phase: TEST
  }
  hdf5_data_param {
    source: "/lustre/atlas/proj-shared/hep105/caffe_titan/minosmatch_nukecczdefs_127x50_x_unshifted_me1Bmc.testlist"
    batch_size: 80
  }
}
layer {
  name: "conv1"
  type: "Convolution"
  bottom: "data"
  top: "conv1"
  convolution_param {
    num_output: 12
    pad: 0
    stride: 1
    weight_filler {
      type: "xavier"
    }
    bias_filler {
      type: "constant"
    }
    kernel_h: 8
    kernel_w: 3
  }
}
layer {
  name: "relu1"
  type: "ReLU"
  bottom: "conv1"
  top: "conv1"
}
layer {
  name: "pool1"
  type: "Pooling"
  bottom: "conv1"
  top: "pool1"
  pooling_param {
    pool: MAX
    kernel_h: 2
    kernel_w: 1
    stride_h: 2
    stride_w: 1
  }
}
layer {
  name: "conv2"
  type: "Convolution"
  bottom: "pool1"
  top: "conv2"
  convolution_param {
    num_output: 20
    pad: 0
    stride: 1
    weight_filler {
      type: "xavier"
    }
    bias_filler {
      type: "constant"
    }
    kernel_h: 7
    kernel_w: 3
  }
}
layer {
  name: "relu2"
  type: "ReLU"
  bottom: "conv2"
  top: "conv2"
}
layer {
  name: "pool2"
  type: "Pooling"
  bottom: "conv2"
  top: "pool2"
  pooling_param {
    pool: MAX
    kernel_h: 2
    kernel_w: 1
    stride_h: 2
    stride_w: 1
  }
}
layer {
  name: "conv3"
  type: "Convolution"
  bottom: "pool2"
  top: "conv3"
  convolution_param {
    num_output: 28
    pad: 0
    stride: 1
    weight_filler {
      type: "xavier"
    }
    bias_filler {
      type: "constant"
    }
    kernel_h: 6
    kernel_w: 3
  }
}
layer {
  name: "relu3"
  type: "ReLU"
  bottom: "conv3"
  top: "conv3"
}
layer {
  name: "pool3"
  type: "Pooling"
  bottom: "conv3"
  top: "pool3"
  pooling_param {
    pool: MAX
    kernel_h: 2
    kernel_w: 1
    stride_h: 2
    stride_w: 1
  }
}
layer {
  name: "conv4"
  type: "Convolution"
  bottom: "pool3"
  top: "conv4"
  convolution_param {
    num_output: 36
    pad: 0
    stride: 1
    weight_filler {
      type: "xavier"
    }
    bias_filler {
      type: "constant"
    }
    kernel_h: 6
    kernel_w: 3
  }
}
layer {
  name: "relu4"
  type: "ReLU"
  bottom: "conv4"
  top: "conv4"
}
layer {
  name: "pool4"
  type: "Pooling"
  bottom: "conv4"
  top: "pool4"
  pooling_param {
    pool: MAX
    kernel_h: 2
    kernel_w: 1
    stride_h: 2
    stride_w: 1
  }
}
layer {
  name: "ip1"
  type: "InnerProduct"
  bottom: "pool4"
  top: "ip1"
  inner_product_param {
    num_output: 196
    weight_filler {
      type: "xavier"
    }
    bias_filler {
      type: "constant"
    }
  }
}
layer {
  name: "relu5"
  type: "ReLU"
  bottom: "ip1"
  top: "ip1"
}
layer {
  name: "drop1"
  type: "Dropout"
  bottom: "ip1"
  top: "ip1"
  dropout_param {
    dropout_ratio: 0.5
  }
}
layer {
  name: "ip2"
  type: "InnerProduct"
  bottom: "ip1"
  top: "ip2"
  inner_product_param {
    num_output: 98
    weight_filler {
      type: "xavier"
    }
    bias_filler {
      type: "constant"
    }
  }
}
layer {
  name: "relu6"
  type: "ReLU"
  bottom: "ip2"
  top: "ip2"
}
layer {
  name: "drop2"
  type: "Dropout"
  bottom: "ip2"
  top: "ip2"
  dropout_param {
    dropout_ratio: 0.5
  }
}
layer {
  name: "ip3"
  type: "InnerProduct"
  bottom: "ip2"
  top: "ip3"
  inner_product_param {
    num_output: 11
    weight_filler {
      type: "xavier"
    }
    bias_filler {
      type: "constant"
    }
  }
}
layer {
  name: "drop3"
  type: "Dropout"
  bottom: "ip3"
  top: "ip3"
  dropout_param {
    dropout_ratio: 0.5
  }
}
layer {
  name: "accuracy"
  type: "Accuracy"
  bottom: "ip3"
  bottom: "label"
  top: "accuracy"
  include {
    phase: TEST
  }
}
layer {
  name: "loss"
  type: "SoftmaxWithLoss"
  bottom: "ip3"
  bottom: "label"
  top: "loss"
}
I0525 00:47:04.340332 19044 layer_factory.hpp:77] Creating layer data_hdf5
I0525 00:47:04.340348 19044 net.cpp:106] Creating Layer data_hdf5
I0525 00:47:04.340360 19044 net.cpp:411] data_hdf5 -> data
I0525 00:47:04.340378 19044 net.cpp:411] data_hdf5 -> label
I0525 00:47:04.340394 19044 hdf5_data_layer.cpp:79] Loading list of HDF5 filenames from: /lustre/atlas/proj-shared/hep105/caffe_titan/minosmatch_nukecczdefs_127x50_x_unshifted_me1Bmc.testlist
I0525 00:47:04.341686 19044 hdf5_data_layer.cpp:93] Number of HDF5 files: 3
I0525 00:47:25.656018 19044 net.cpp:150] Setting up data_hdf5
I0525 00:47:25.656191 19044 net.cpp:157] Top shape: 80 1 127 50 (508000)
I0525 00:47:25.656205 19044 net.cpp:157] Top shape: 80 (80)
I0525 00:47:25.656215 19044 net.cpp:165] Memory required for data: 2032320
I0525 00:47:25.656229 19044 layer_factory.hpp:77] Creating layer label_data_hdf5_1_split
I0525 00:47:25.656257 19044 net.cpp:106] Creating Layer label_data_hdf5_1_split
I0525 00:47:25.656267 19044 net.cpp:454] label_data_hdf5_1_split <- label
I0525 00:47:25.656282 19044 net.cpp:411] label_data_hdf5_1_split -> label_data_hdf5_1_split_0
I0525 00:47:25.656304 19044 net.cpp:411] label_data_hdf5_1_split -> label_data_hdf5_1_split_1
I0525 00:47:25.656378 19044 net.cpp:150] Setting up label_data_hdf5_1_split
I0525 00:47:25.656391 19044 net.cpp:157] Top shape: 80 (80)
I0525 00:47:25.656404 19044 net.cpp:157] Top shape: 80 (80)
I0525 00:47:25.656414 19044 net.cpp:165] Memory required for data: 2032960
I0525 00:47:25.656421 19044 layer_factory.hpp:77] Creating layer conv1
I0525 00:47:25.656445 19044 net.cpp:106] Creating Layer conv1
I0525 00:47:25.656455 19044 net.cpp:454] conv1 <- data
I0525 00:47:25.656471 19044 net.cpp:411] conv1 -> conv1
I0525 00:47:25.658413 19044 net.cpp:150] Setting up conv1
I0525 00:47:25.658432 19044 net.cpp:157] Top shape: 80 12 120 48 (5529600)
I0525 00:47:25.658445 19044 net.cpp:165] Memory required for data: 24151360
I0525 00:47:25.658465 19044 layer_factory.hpp:77] Creating layer relu1
I0525 00:47:25.658480 19044 net.cpp:106] Creating Layer relu1
I0525 00:47:25.658490 19044 net.cpp:454] relu1 <- conv1
I0525 00:47:25.658504 19044 net.cpp:397] relu1 -> conv1 (in-place)
I0525 00:47:25.658998 19044 net.cpp:150] Setting up relu1
I0525 00:47:25.659014 19044 net.cpp:157] Top shape: 80 12 120 48 (5529600)
I0525 00:47:25.659025 19044 net.cpp:165] Memory required for data: 46269760
I0525 00:47:25.659035 19044 layer_factory.hpp:77] Creating layer pool1
I0525 00:47:25.659051 19044 net.cpp:106] Creating Layer pool1
I0525 00:47:25.659061 19044 net.cpp:454] pool1 <- conv1
I0525 00:47:25.659075 19044 net.cpp:411] pool1 -> pool1
I0525 00:47:25.659149 19044 net.cpp:150] Setting up pool1
I0525 00:47:25.659162 19044 net.cpp:157] Top shape: 80 12 60 48 (2764800)
I0525 00:47:25.659173 19044 net.cpp:165] Memory required for data: 57328960
I0525 00:47:25.659183 19044 layer_factory.hpp:77] Creating layer conv2
I0525 00:47:25.659199 19044 net.cpp:106] Creating Layer conv2
I0525 00:47:25.659210 19044 net.cpp:454] conv2 <- pool1
I0525 00:47:25.659224 19044 net.cpp:411] conv2 -> conv2
I0525 00:47:25.661140 19044 net.cpp:150] Setting up conv2
I0525 00:47:25.661164 19044 net.cpp:157] Top shape: 80 20 54 46 (3974400)
I0525 00:47:25.661175 19044 net.cpp:165] Memory required for data: 73226560
I0525 00:47:25.661192 19044 layer_factory.hpp:77] Creating layer relu2
I0525 00:47:25.661206 19044 net.cpp:106] Creating Layer relu2
I0525 00:47:25.661216 19044 net.cpp:454] relu2 <- conv2
I0525 00:47:25.661229 19044 net.cpp:397] relu2 -> conv2 (in-place)
I0525 00:47:25.661562 19044 net.cpp:150] Setting up relu2
I0525 00:47:25.661576 19044 net.cpp:157] Top shape: 80 20 54 46 (3974400)
I0525 00:47:25.661586 19044 net.cpp:165] Memory required for data: 89124160
I0525 00:47:25.661597 19044 layer_factory.hpp:77] Creating layer pool2
I0525 00:47:25.661610 19044 net.cpp:106] Creating Layer pool2
I0525 00:47:25.661620 19044 net.cpp:454] pool2 <- conv2
I0525 00:47:25.661633 19044 net.cpp:411] pool2 -> pool2
I0525 00:47:25.661705 19044 net.cpp:150] Setting up pool2
I0525 00:47:25.661717 19044 net.cpp:157] Top shape: 80 20 27 46 (1987200)
I0525 00:47:25.661727 19044 net.cpp:165] Memory required for data: 97072960
I0525 00:47:25.661737 19044 layer_factory.hpp:77] Creating layer conv3
I0525 00:47:25.661756 19044 net.cpp:106] Creating Layer conv3
I0525 00:47:25.661767 19044 net.cpp:454] conv3 <- pool2
I0525 00:47:25.661782 19044 net.cpp:411] conv3 -> conv3
I0525 00:47:25.663760 19044 net.cpp:150] Setting up conv3
I0525 00:47:25.663784 19044 net.cpp:157] Top shape: 80 28 22 44 (2168320)
I0525 00:47:25.663795 19044 net.cpp:165] Memory required for data: 105746240
I0525 00:47:25.663827 19044 layer_factory.hpp:77] Creating layer relu3
I0525 00:47:25.663841 19044 net.cpp:106] Creating Layer relu3
I0525 00:47:25.663852 19044 net.cpp:454] relu3 <- conv3
I0525 00:47:25.663866 19044 net.cpp:397] relu3 -> conv3 (in-place)
I0525 00:47:25.664340 19044 net.cpp:150] Setting up relu3
I0525 00:47:25.664356 19044 net.cpp:157] Top shape: 80 28 22 44 (2168320)
I0525 00:47:25.664367 19044 net.cpp:165] Memory required for data: 114419520
I0525 00:47:25.664377 19044 layer_factory.hpp:77] Creating layer pool3
I0525 00:47:25.664391 19044 net.cpp:106] Creating Layer pool3
I0525 00:47:25.664400 19044 net.cpp:454] pool3 <- conv3
I0525 00:47:25.664414 19044 net.cpp:411] pool3 -> pool3
I0525 00:47:25.664485 19044 net.cpp:150] Setting up pool3
I0525 00:47:25.664499 19044 net.cpp:157] Top shape: 80 28 11 44 (1084160)
I0525 00:47:25.664508 19044 net.cpp:165] Memory required for data: 118756160
I0525 00:47:25.664517 19044 layer_factory.hpp:77] Creating layer conv4
I0525 00:47:25.664535 19044 net.cpp:106] Creating Layer conv4
I0525 00:47:25.664546 19044 net.cpp:454] conv4 <- pool3
I0525 00:47:25.664561 19044 net.cpp:411] conv4 -> conv4
I0525 00:47:25.666631 19044 net.cpp:150] Setting up conv4
I0525 00:47:25.666653 19044 net.cpp:157] Top shape: 80 36 6 42 (725760)
I0525 00:47:25.666666 19044 net.cpp:165] Memory required for data: 121659200
I0525 00:47:25.666682 19044 layer_factory.hpp:77] Creating layer relu4
I0525 00:47:25.666695 19044 net.cpp:106] Creating Layer relu4
I0525 00:47:25.666705 19044 net.cpp:454] relu4 <- conv4
I0525 00:47:25.666718 19044 net.cpp:397] relu4 -> conv4 (in-place)
I0525 00:47:25.667194 19044 net.cpp:150] Setting up relu4
I0525 00:47:25.667212 19044 net.cpp:157] Top shape: 80 36 6 42 (725760)
I0525 00:47:25.667222 19044 net.cpp:165] Memory required for data: 124562240
I0525 00:47:25.667232 19044 layer_factory.hpp:77] Creating layer pool4
I0525 00:47:25.667245 19044 net.cpp:106] Creating Layer pool4
I0525 00:47:25.667255 19044 net.cpp:454] pool4 <- conv4
I0525 00:47:25.667268 19044 net.cpp:411] pool4 -> pool4
I0525 00:47:25.667340 19044 net.cpp:150] Setting up pool4
I0525 00:47:25.667353 19044 net.cpp:157] Top shape: 80 36 3 42 (362880)
I0525 00:47:25.667362 19044 net.cpp:165] Memory required for data: 126013760
I0525 00:47:25.667373 19044 layer_factory.hpp:77] Creating layer ip1
I0525 00:47:25.667389 19044 net.cpp:106] Creating Layer ip1
I0525 00:47:25.667400 19044 net.cpp:454] ip1 <- pool4
I0525 00:47:25.667413 19044 net.cpp:411] ip1 -> ip1
I0525 00:47:25.682919 19044 net.cpp:150] Setting up ip1
I0525 00:47:25.682947 19044 net.cpp:157] Top shape: 80 196 (15680)
I0525 00:47:25.682960 19044 net.cpp:165] Memory required for data: 126076480
I0525 00:47:25.682981 19044 layer_factory.hpp:77] Creating layer relu5
I0525 00:47:25.682996 19044 net.cpp:106] Creating Layer relu5
I0525 00:47:25.683007 19044 net.cpp:454] relu5 <- ip1
I0525 00:47:25.683022 19044 net.cpp:397] relu5 -> ip1 (in-place)
I0525 00:47:25.683369 19044 net.cpp:150] Setting up relu5
I0525 00:47:25.683382 19044 net.cpp:157] Top shape: 80 196 (15680)
I0525 00:47:25.683393 19044 net.cpp:165] Memory required for data: 126139200
I0525 00:47:25.683403 19044 layer_factory.hpp:77] Creating layer drop1
I0525 00:47:25.683421 19044 net.cpp:106] Creating Layer drop1
I0525 00:47:25.683431 19044 net.cpp:454] drop1 <- ip1
I0525 00:47:25.683445 19044 net.cpp:397] drop1 -> ip1 (in-place)
I0525 00:47:25.683493 19044 net.cpp:150] Setting up drop1
I0525 00:47:25.683506 19044 net.cpp:157] Top shape: 80 196 (15680)
I0525 00:47:25.683516 19044 net.cpp:165] Memory required for data: 126201920
I0525 00:47:25.683526 19044 layer_factory.hpp:77] Creating layer ip2
I0525 00:47:25.683542 19044 net.cpp:106] Creating Layer ip2
I0525 00:47:25.683552 19044 net.cpp:454] ip2 <- ip1
I0525 00:47:25.683564 19044 net.cpp:411] ip2 -> ip2
I0525 00:47:25.684041 19044 net.cpp:150] Setting up ip2
I0525 00:47:25.684054 19044 net.cpp:157] Top shape: 80 98 (7840)
I0525 00:47:25.684064 19044 net.cpp:165] Memory required for data: 126233280
I0525 00:47:25.684080 19044 layer_factory.hpp:77] Creating layer relu6
I0525 00:47:25.684105 19044 net.cpp:106] Creating Layer relu6
I0525 00:47:25.684123 19044 net.cpp:454] relu6 <- ip2
I0525 00:47:25.684135 19044 net.cpp:397] relu6 -> ip2 (in-place)
I0525 00:47:25.684669 19044 net.cpp:150] Setting up relu6
I0525 00:47:25.684689 19044 net.cpp:157] Top shape: 80 98 (7840)
I0525 00:47:25.684698 19044 net.cpp:165] Memory required for data: 126264640
I0525 00:47:25.684707 19044 layer_factory.hpp:77] Creating layer drop2
I0525 00:47:25.684721 19044 net.cpp:106] Creating Layer drop2
I0525 00:47:25.684732 19044 net.cpp:454] drop2 <- ip2
I0525 00:47:25.684746 19044 net.cpp:397] drop2 -> ip2 (in-place)
I0525 00:47:25.684789 19044 net.cpp:150] Setting up drop2
I0525 00:47:25.684803 19044 net.cpp:157] Top shape: 80 98 (7840)
I0525 00:47:25.684813 19044 net.cpp:165] Memory required for data: 126296000
I0525 00:47:25.684823 19044 layer_factory.hpp:77] Creating layer ip3
I0525 00:47:25.684839 19044 net.cpp:106] Creating Layer ip3
I0525 00:47:25.684849 19044 net.cpp:454] ip3 <- ip2
I0525 00:47:25.684862 19044 net.cpp:411] ip3 -> ip3
I0525 00:47:25.685086 19044 net.cpp:150] Setting up ip3
I0525 00:47:25.685101 19044 net.cpp:157] Top shape: 80 11 (880)
I0525 00:47:25.685111 19044 net.cpp:165] Memory required for data: 126299520
I0525 00:47:25.685127 19044 layer_factory.hpp:77] Creating layer drop3
I0525 00:47:25.685140 19044 net.cpp:106] Creating Layer drop3
I0525 00:47:25.685150 19044 net.cpp:454] drop3 <- ip3
I0525 00:47:25.685163 19044 net.cpp:397] drop3 -> ip3 (in-place)
I0525 00:47:25.685204 19044 net.cpp:150] Setting up drop3
I0525 00:47:25.685217 19044 net.cpp:157] Top shape: 80 11 (880)
I0525 00:47:25.685227 19044 net.cpp:165] Memory required for data: 126303040
I0525 00:47:25.685237 19044 layer_factory.hpp:77] Creating layer ip3_drop3_0_split
I0525 00:47:25.685250 19044 net.cpp:106] Creating Layer ip3_drop3_0_split
I0525 00:47:25.685261 19044 net.cpp:454] ip3_drop3_0_split <- ip3
I0525 00:47:25.685273 19044 net.cpp:411] ip3_drop3_0_split -> ip3_drop3_0_split_0
I0525 00:47:25.685288 19044 net.cpp:411] ip3_drop3_0_split -> ip3_drop3_0_split_1
I0525 00:47:25.685362 19044 net.cpp:150] Setting up ip3_drop3_0_split
I0525 00:47:25.685375 19044 net.cpp:157] Top shape: 80 11 (880)
I0525 00:47:25.685389 19044 net.cpp:157] Top shape: 80 11 (880)
I0525 00:47:25.685400 19044 net.cpp:165] Memory required for data: 126310080
I0525 00:47:25.685410 19044 layer_factory.hpp:77] Creating layer accuracy
I0525 00:47:25.685431 19044 net.cpp:106] Creating Layer accuracy
I0525 00:47:25.685441 19044 net.cpp:454] accuracy <- ip3_drop3_0_split_0
I0525 00:47:25.685452 19044 net.cpp:454] accuracy <- label_data_hdf5_1_split_0
I0525 00:47:25.685467 19044 net.cpp:411] accuracy -> accuracy
…
