…
I0524 20:42:14.208760 19039 net.cpp:322] The NetState phase (0) differed from the phase (1) specified by a rule in layer data_hdf5
I0524 20:42:14.208824 19039 net.cpp:322] The NetState phase (0) differed from the phase (1) specified by a rule in layer accuracy
I0524 20:42:14.209204 19039 net.cpp:49] Initializing net from parameters: 
name: "caffe_test_127x50_x_unshifted"
state {
  phase: TRAIN
}
layer {
  name: "data_hdf5"
  type: "HDF5Data"
  top: "data"
  top: "label"
  include {
    phase: TRAIN
  }
  hdf5_data_param {
    source: "/lustre/atlas/proj-shared/hep105/caffe_titan/minosmatch_nukecczdefs_127x50_x_unshifted_me1Bmc.trainlist"
    batch_size: 80
  }
}
layer {
  name: "conv1"
  type: "Convolution"
  bottom: "data"
  top: "conv1"
  convolution_param {
    num_output: 12
    pad: 0
    stride: 1
    weight_filler {
      type: "xavier"
    }
    bias_filler {
      type: "constant"
    }
    kernel_h: 8
    kernel_w: 3
  }
}
layer {
  name: "relu1"
  type: "ReLU"
  bottom: "conv1"
  top: "conv1"
}
layer {
  name: "pool1"
  type: "Pooling"
  bottom: "conv1"
  top: "pool1"
  pooling_param {
    pool: MAX
    kernel_h: 2
    kernel_w: 1
    stride_h: 2
    stride_w: 1
  }
}
layer {
  name: "conv2"
  type: "Convolution"
  bottom: "pool1"
  top: "conv2"
  convolution_param {
    num_output: 20
    pad: 0
    stride: 1
    weight_filler {
      type: "xavier"
    }
    bias_filler {
      type: "constant"
    }
    kernel_h: 7
    kernel_w: 3
  }
}
layer {
  name: "relu2"
  type: "ReLU"
  bottom: "conv2"
  top: "conv2"
}
layer {
  name: "pool2"
  type: "Pooling"
  bottom: "conv2"
  top: "pool2"
  pooling_param {
    pool: MAX
    kernel_h: 2
    kernel_w: 1
    stride_h: 2
    stride_w: 1
  }
}
layer {
  name: "conv3"
  type: "Convolution"
  bottom: "pool2"
  top: "conv3"
  convolution_param {
    num_output: 28
    pad: 0
    stride: 1
    weight_filler {
      type: "xavier"
    }
    bias_filler {
      type: "constant"
    }
    kernel_h: 6
    kernel_w: 3
  }
}
layer {
  name: "relu3"
  type: "ReLU"
  bottom: "conv3"
  top: "conv3"
}
layer {
  name: "pool3"
  type: "Pooling"
  bottom: "conv3"
  top: "pool3"
  pooling_param {
    pool: MAX
    kernel_h: 2
    kernel_w: 1
    stride_h: 2
    stride_w: 1
  }
}
layer {
  name: "conv4"
  type: "Convolution"
  bottom: "pool3"
  top: "conv4"
  convolution_param {
    num_output: 36
    pad: 0
    stride: 1
    weight_filler {
      type: "xavier"
    }
    bias_filler {
      type: "constant"
    }
    kernel_h: 6
    kernel_w: 3
  }
}
layer {
  name: "relu4"
  type: "ReLU"
  bottom: "conv4"
  top: "conv4"
}
layer {
  name: "pool4"
  type: "Pooling"
  bottom: "conv4"
  top: "pool4"
  pooling_param {
    pool: MAX
    kernel_h: 2
    kernel_w: 1
    stride_h: 2
    stride_w: 1
  }
}
layer {
  name: "ip1"
  type: "InnerProduct"
  bottom: "pool4"
  top: "ip1"
  inner_product_param {
    num_output: 196
    weight_filler {
      type: "xavier"
    }
    bias_filler {
      type: "constant"
    }
  }
}
layer {
  name: "relu5"
  type: "ReLU"
  bottom: "ip1"
  top: "ip1"
}
layer {
  name: "drop1"
  type: "Dropout"
  bottom: "ip1"
  top: "ip1"
  dropout_param {
    dropout_ratio: 0.5
  }
}
layer {
  name: "ip2"
  type: "InnerProduct"
  bottom: "ip1"
  top: "ip2"
  inner_product_param {
    num_output: 98
    weight_filler {
      type: "xavier"
    }
    bias_filler {
      type: "constant"
    }
  }
}
layer {
  name: "relu6"
  type: "ReLU"
  bottom: "ip2"
  top: "ip2"
}
layer {
  name: "drop2"
  type: "Dropout"
  bottom: "ip2"
  top: "ip2"
  dropout_param {
    dropout_ratio: 0.5
  }
}
layer {
  name: "ip3"
  type: "InnerProduct"
  bottom: "ip2"
  top: "ip3"
  inner_product_param {
    num_output: 11
    weight_filler {
      type: "xavier"
    }
    bias_filler {
      type: "constant"
    }
  }
}
layer {
  name: "drop3"
  type: "Dropout"
  bottom: "ip3"
  top: "ip3"
  dropout_param {
    dropout_ratio: 0.5
  }
}
layer {
  name: "loss"
  type: "SoftmaxWithLoss"
  bottom: "ip3"
  bottom: "label"
  top: "loss"
}
I0524 20:42:14.209417 19039 layer_factory.hpp:77] Creating layer data_hdf5
I0524 20:42:14.209445 19039 net.cpp:106] Creating Layer data_hdf5
I0524 20:42:14.209470 19039 net.cpp:411] data_hdf5 -> data
I0524 20:42:14.209507 19039 net.cpp:411] data_hdf5 -> label
I0524 20:42:14.209539 19039 hdf5_data_layer.cpp:79] Loading list of HDF5 filenames from: /lustre/atlas/proj-shared/hep105/caffe_titan/minosmatch_nukecczdefs_127x50_x_unshifted_me1Bmc.trainlist
I0524 20:42:14.211194 19039 hdf5_data_layer.cpp:93] Number of HDF5 files: 15
I0524 20:42:14.213804 19039 hdf5.cpp:32] Datatype class: H5T_FLOAT
I0524 20:42:35.734922 19039 hdf5.cpp:35] Datatype class: H5T_INTEGER
I0524 20:42:35.740049 19039 net.cpp:150] Setting up data_hdf5
I0524 20:42:35.740089 19039 net.cpp:157] Top shape: 80 1 127 50 (508000)
I0524 20:42:35.740106 19039 net.cpp:157] Top shape: 80 (80)
I0524 20:42:35.740119 19039 net.cpp:165] Memory required for data: 2032320
I0524 20:42:35.740139 19039 layer_factory.hpp:77] Creating layer conv1
I0524 20:42:35.740185 19039 net.cpp:106] Creating Layer conv1
I0524 20:42:35.740198 19039 net.cpp:454] conv1 <- data
I0524 20:42:35.740233 19039 net.cpp:411] conv1 -> conv1
I0524 20:42:36.632994 19039 net.cpp:150] Setting up conv1
I0524 20:42:36.633049 19039 net.cpp:157] Top shape: 80 12 120 48 (5529600)
I0524 20:42:36.633064 19039 net.cpp:165] Memory required for data: 24150720
I0524 20:42:36.633095 19039 layer_factory.hpp:77] Creating layer relu1
I0524 20:42:36.633123 19039 net.cpp:106] Creating Layer relu1
I0524 20:42:36.633137 19039 net.cpp:454] relu1 <- conv1
I0524 20:42:36.633172 19039 net.cpp:397] relu1 -> conv1 (in-place)
I0524 20:42:36.633705 19039 net.cpp:150] Setting up relu1
I0524 20:42:36.633728 19039 net.cpp:157] Top shape: 80 12 120 48 (5529600)
I0524 20:42:36.633743 19039 net.cpp:165] Memory required for data: 46269120
I0524 20:42:36.633759 19039 layer_factory.hpp:77] Creating layer pool1
I0524 20:42:36.633779 19039 net.cpp:106] Creating Layer pool1
I0524 20:42:36.633800 19039 net.cpp:454] pool1 <- conv1
I0524 20:42:36.633816 19039 net.cpp:411] pool1 -> pool1
I0524 20:42:36.633903 19039 net.cpp:150] Setting up pool1
I0524 20:42:36.633920 19039 net.cpp:157] Top shape: 80 12 60 48 (2764800)
I0524 20:42:36.633931 19039 net.cpp:165] Memory required for data: 57328320
I0524 20:42:36.633944 19039 layer_factory.hpp:77] Creating layer conv2
I0524 20:42:36.633970 19039 net.cpp:106] Creating Layer conv2
I0524 20:42:36.633982 19039 net.cpp:454] conv2 <- pool1
I0524 20:42:36.634018 19039 net.cpp:411] conv2 -> conv2
I0524 20:42:36.636735 19039 net.cpp:150] Setting up conv2
I0524 20:42:36.636765 19039 net.cpp:157] Top shape: 80 20 54 46 (3974400)
I0524 20:42:36.636781 19039 net.cpp:165] Memory required for data: 73225920
I0524 20:42:36.636809 19039 layer_factory.hpp:77] Creating layer relu2
I0524 20:42:36.636826 19039 net.cpp:106] Creating Layer relu2
I0524 20:42:36.636850 19039 net.cpp:454] relu2 <- conv2
I0524 20:42:36.636867 19039 net.cpp:397] relu2 -> conv2 (in-place)
I0524 20:42:36.637224 19039 net.cpp:150] Setting up relu2
I0524 20:42:36.637244 19039 net.cpp:157] Top shape: 80 20 54 46 (3974400)
I0524 20:42:36.637258 19039 net.cpp:165] Memory required for data: 89123520
I0524 20:42:36.637269 19039 layer_factory.hpp:77] Creating layer pool2
I0524 20:42:36.637295 19039 net.cpp:106] Creating Layer pool2
I0524 20:42:36.637310 19039 net.cpp:454] pool2 <- conv2
I0524 20:42:36.637326 19039 net.cpp:411] pool2 -> pool2
I0524 20:42:36.637428 19039 net.cpp:150] Setting up pool2
I0524 20:42:36.637447 19039 net.cpp:157] Top shape: 80 20 27 46 (1987200)
I0524 20:42:36.637466 19039 net.cpp:165] Memory required for data: 97072320
I0524 20:42:36.637478 19039 layer_factory.hpp:77] Creating layer conv3
I0524 20:42:36.637500 19039 net.cpp:106] Creating Layer conv3
I0524 20:42:36.637512 19039 net.cpp:454] conv3 <- pool2
I0524 20:42:36.637531 19039 net.cpp:411] conv3 -> conv3
I0524 20:42:36.639463 19039 net.cpp:150] Setting up conv3
I0524 20:42:36.639488 19039 net.cpp:157] Top shape: 80 28 22 44 (2168320)
I0524 20:42:36.639510 19039 net.cpp:165] Memory required for data: 105745600
I0524 20:42:36.639533 19039 layer_factory.hpp:77] Creating layer relu3
I0524 20:42:36.639554 19039 net.cpp:106] Creating Layer relu3
I0524 20:42:36.639577 19039 net.cpp:454] relu3 <- conv3
I0524 20:42:36.639592 19039 net.cpp:397] relu3 -> conv3 (in-place)
I0524 20:42:36.640079 19039 net.cpp:150] Setting up relu3
I0524 20:42:36.640103 19039 net.cpp:157] Top shape: 80 28 22 44 (2168320)
I0524 20:42:36.640116 19039 net.cpp:165] Memory required for data: 114418880
I0524 20:42:36.640132 19039 layer_factory.hpp:77] Creating layer pool3
I0524 20:42:36.640148 19039 net.cpp:106] Creating Layer pool3
I0524 20:42:36.640169 19039 net.cpp:454] pool3 <- conv3
I0524 20:42:36.640185 19039 net.cpp:411] pool3 -> pool3
I0524 20:42:36.640266 19039 net.cpp:150] Setting up pool3
I0524 20:42:36.640288 19039 net.cpp:157] Top shape: 80 28 11 44 (1084160)
I0524 20:42:36.640300 19039 net.cpp:165] Memory required for data: 118755520
I0524 20:42:36.640316 19039 layer_factory.hpp:77] Creating layer conv4
I0524 20:42:36.640336 19039 net.cpp:106] Creating Layer conv4
I0524 20:42:36.640348 19039 net.cpp:454] conv4 <- pool3
I0524 20:42:36.640372 19039 net.cpp:411] conv4 -> conv4
I0524 20:42:36.643307 19039 net.cpp:150] Setting up conv4
I0524 20:42:36.643342 19039 net.cpp:157] Top shape: 80 36 6 42 (725760)
I0524 20:42:36.643357 19039 net.cpp:165] Memory required for data: 121658560
I0524 20:42:36.643383 19039 layer_factory.hpp:77] Creating layer relu4
I0524 20:42:36.643410 19039 net.cpp:106] Creating Layer relu4
I0524 20:42:36.643424 19039 net.cpp:454] relu4 <- conv4
I0524 20:42:36.643440 19039 net.cpp:397] relu4 -> conv4 (in-place)
I0524 20:42:36.643929 19039 net.cpp:150] Setting up relu4
I0524 20:42:36.643952 19039 net.cpp:157] Top shape: 80 36 6 42 (725760)
I0524 20:42:36.643965 19039 net.cpp:165] Memory required for data: 124561600
I0524 20:42:36.643980 19039 layer_factory.hpp:77] Creating layer pool4
I0524 20:42:36.643996 19039 net.cpp:106] Creating Layer pool4
I0524 20:42:36.644011 19039 net.cpp:454] pool4 <- conv4
I0524 20:42:36.644034 19039 net.cpp:411] pool4 -> pool4
I0524 20:42:36.644110 19039 net.cpp:150] Setting up pool4
I0524 20:42:36.644134 19039 net.cpp:157] Top shape: 80 36 3 42 (362880)
I0524 20:42:36.644147 19039 net.cpp:165] Memory required for data: 126013120
I0524 20:42:36.644160 19039 layer_factory.hpp:77] Creating layer ip1
I0524 20:42:36.644179 19039 net.cpp:106] Creating Layer ip1
I0524 20:42:36.644193 19039 net.cpp:454] ip1 <- pool4
I0524 20:42:36.644209 19039 net.cpp:411] ip1 -> ip1
I0524 20:42:36.659543 19039 net.cpp:150] Setting up ip1
I0524 20:42:36.659577 19039 net.cpp:157] Top shape: 80 196 (15680)
I0524 20:42:36.659591 19039 net.cpp:165] Memory required for data: 126075840
I0524 20:42:36.659617 19039 layer_factory.hpp:77] Creating layer relu5
I0524 20:42:36.659638 19039 net.cpp:106] Creating Layer relu5
I0524 20:42:36.659665 19039 net.cpp:454] relu5 <- ip1
I0524 20:42:36.659682 19039 net.cpp:397] relu5 -> ip1 (in-place)
I0524 20:42:36.660048 19039 net.cpp:150] Setting up relu5
I0524 20:42:36.660068 19039 net.cpp:157] Top shape: 80 196 (15680)
I0524 20:42:36.660081 19039 net.cpp:165] Memory required for data: 126138560
I0524 20:42:36.660096 19039 layer_factory.hpp:77] Creating layer drop1
I0524 20:42:36.660127 19039 net.cpp:106] Creating Layer drop1
I0524 20:42:36.660142 19039 net.cpp:454] drop1 <- ip1
I0524 20:42:36.660164 19039 net.cpp:397] drop1 -> ip1 (in-place)
I0524 20:42:36.660239 19039 net.cpp:150] Setting up drop1
I0524 20:42:36.660255 19039 net.cpp:157] Top shape: 80 196 (15680)
I0524 20:42:36.660267 19039 net.cpp:165] Memory required for data: 126201280
I0524 20:42:36.660279 19039 layer_factory.hpp:77] Creating layer ip2
I0524 20:42:36.660303 19039 net.cpp:106] Creating Layer ip2
I0524 20:42:36.660316 19039 net.cpp:454] ip2 <- ip1
I0524 20:42:36.660338 19039 net.cpp:411] ip2 -> ip2
I0524 20:42:36.660826 19039 net.cpp:150] Setting up ip2
I0524 20:42:36.660845 19039 net.cpp:157] Top shape: 80 98 (7840)
I0524 20:42:36.660858 19039 net.cpp:165] Memory required for data: 126232640
I0524 20:42:36.660878 19039 layer_factory.hpp:77] Creating layer relu6
I0524 20:42:36.660900 19039 net.cpp:106] Creating Layer relu6
I0524 20:42:36.660914 19039 net.cpp:454] relu6 <- ip2
I0524 20:42:36.660929 19039 net.cpp:397] relu6 -> ip2 (in-place)
I0524 20:42:36.661478 19039 net.cpp:150] Setting up relu6
I0524 20:42:36.661501 19039 net.cpp:157] Top shape: 80 98 (7840)
I0524 20:42:36.661514 19039 net.cpp:165] Memory required for data: 126264000
I0524 20:42:36.661530 19039 layer_factory.hpp:77] Creating layer drop2
I0524 20:42:36.661546 19039 net.cpp:106] Creating Layer drop2
I0524 20:42:36.661567 19039 net.cpp:454] drop2 <- ip2
I0524 20:42:36.661583 19039 net.cpp:397] drop2 -> ip2 (in-place)
I0524 20:42:36.661633 19039 net.cpp:150] Setting up drop2
I0524 20:42:36.661655 19039 net.cpp:157] Top shape: 80 98 (7840)
I0524 20:42:36.661674 19039 net.cpp:165] Memory required for data: 126295360
I0524 20:42:36.661689 19039 layer_factory.hpp:77] Creating layer ip3
I0524 20:42:36.661706 19039 net.cpp:106] Creating Layer ip3
I0524 20:42:36.661721 19039 net.cpp:454] ip3 <- ip2
I0524 20:42:36.661744 19039 net.cpp:411] ip3 -> ip3
I0524 20:42:36.661969 19039 net.cpp:150] Setting up ip3
I0524 20:42:36.661988 19039 net.cpp:157] Top shape: 80 11 (880)
I0524 20:42:36.662001 19039 net.cpp:165] Memory required for data: 126298880
I0524 20:42:36.662022 19039 layer_factory.hpp:77] Creating layer drop3
I0524 20:42:36.662045 19039 net.cpp:106] Creating Layer drop3
I0524 20:42:36.662057 19039 net.cpp:454] drop3 <- ip3
I0524 20:42:36.662072 19039 net.cpp:397] drop3 -> ip3 (in-place)
I0524 20:42:36.662118 19039 net.cpp:150] Setting up drop3
I0524 20:42:36.662142 19039 net.cpp:157] Top shape: 80 11 (880)
I0524 20:42:36.662155 19039 net.cpp:165] Memory required for data: 126302400
I0524 20:42:36.662173 19039 layer_factory.hpp:77] Creating layer loss
I0524 20:42:36.662194 19039 net.cpp:106] Creating Layer loss
I0524 20:42:36.662209 19039 net.cpp:454] loss <- ip3
I0524 20:42:36.662228 19039 net.cpp:454] loss <- label
I0524 20:42:36.662245 19039 net.cpp:411] loss -> loss
I0524 20:42:36.662263 19039 layer_factory.hpp:77] Creating layer loss
…
I0524 20:42:36.665197 19039 solver.cpp:181] Creating test net (#0) specified by net file: /lustre/atlas/proj-shared/hep105/caffe_titan/caffe_workflow/logs_bslr/bs_80_lr_0.0020_2016-05-20T15.49.17.510573.prototxt
I0524 20:42:36.665276 19039 net.cpp:322] The NetState phase (1) differed from the phase (0) specified by a rule in layer data_hdf5
I0524 20:42:36.665668 19039 net.cpp:49] Initializing net from parameters: 
name: "caffe_test_127x50_x_unshifted"
state {
  phase: TEST
}
layer {
  name: "data_hdf5"
  type: "HDF5Data"
  top: "data"
  top: "label"
  include {
    phase: TEST
  }
  hdf5_data_param {
    source: "/lustre/atlas/proj-shared/hep105/caffe_titan/minosmatch_nukecczdefs_127x50_x_unshifted_me1Bmc.testlist"
    batch_size: 80
  }
}
layer {
  name: "conv1"
  type: "Convolution"
  bottom: "data"
  top: "conv1"
  convolution_param {
    num_output: 12
    pad: 0
    stride: 1
    weight_filler {
      type: "xavier"
    }
    bias_filler {
      type: "constant"
    }
    kernel_h: 8
    kernel_w: 3
  }
}
layer {
  name: "relu1"
  type: "ReLU"
  bottom: "conv1"
  top: "conv1"
}
layer {
  name: "pool1"
  type: "Pooling"
  bottom: "conv1"
  top: "pool1"
  pooling_param {
    pool: MAX
    kernel_h: 2
    kernel_w: 1
    stride_h: 2
    stride_w: 1
  }
}
layer {
  name: "conv2"
  type: "Convolution"
  bottom: "pool1"
  top: "conv2"
  convolution_param {
    num_output: 20
    pad: 0
    stride: 1
    weight_filler {
      type: "xavier"
    }
    bias_filler {
      type: "constant"
    }
    kernel_h: 7
    kernel_w: 3
  }
}
layer {
  name: "relu2"
  type: "ReLU"
  bottom: "conv2"
  top: "conv2"
}
layer {
  name: "pool2"
  type: "Pooling"
  bottom: "conv2"
  top: "pool2"
  pooling_param {
    pool: MAX
    kernel_h: 2
    kernel_w: 1
    stride_h: 2
    stride_w: 1
  }
}
layer {
  name: "conv3"
  type: "Convolution"
  bottom: "pool2"
  top: "conv3"
  convolution_param {
    num_output: 28
    pad: 0
    stride: 1
    weight_filler {
      type: "xavier"
    }
    bias_filler {
      type: "constant"
    }
    kernel_h: 6
    kernel_w: 3
  }
}
layer {
  name: "relu3"
  type: "ReLU"
  bottom: "conv3"
  top: "conv3"
}
layer {
  name: "pool3"
  type: "Pooling"
  bottom: "conv3"
  top: "pool3"
  pooling_param {
    pool: MAX
    kernel_h: 2
    kernel_w: 1
    stride_h: 2
    stride_w: 1
  }
}
layer {
  name: "conv4"
  type: "Convolution"
  bottom: "pool3"
  top: "conv4"
  convolution_param {
    num_output: 36
    pad: 0
    stride: 1
    weight_filler {
      type: "xavier"
    }
    bias_filler {
      type: "constant"
    }
    kernel_h: 6
    kernel_w: 3
  }
}
layer {
  name: "relu4"
  type: "ReLU"
  bottom: "conv4"
  top: "conv4"
}
layer {
  name: "pool4"
  type: "Pooling"
  bottom: "conv4"
  top: "pool4"
  pooling_param {
    pool: MAX
    kernel_h: 2
    kernel_w: 1
    stride_h: 2
    stride_w: 1
  }
}
layer {
  name: "ip1"
  type: "InnerProduct"
  bottom: "pool4"
  top: "ip1"
  inner_product_param {
    num_output: 196
    weight_filler {
      type: "xavier"
    }
    bias_filler {
      type: "constant"
    }
  }
}
layer {
  name: "relu5"
  type: "ReLU"
  bottom: "ip1"
  top: "ip1"
}
layer {
  name: "drop1"
  type: "Dropout"
  bottom: "ip1"
  top: "ip1"
  dropout_param {
    dropout_ratio: 0.5
  }
}
layer {
  name: "ip2"
  type: "InnerProduct"
  bottom: "ip1"
  top: "ip2"
  inner_product_param {
    num_output: 98
    weight_filler {
      type: "xavier"
    }
    bias_filler {
      type: "constant"
    }
  }
}
layer {
  name: "relu6"
  type: "ReLU"
  bottom: "ip2"
  top: "ip2"
}
layer {
  name: "drop2"
  type: "Dropout"
  bottom: "ip2"
  top: "ip2"
  dropout_param {
    dropout_ratio: 0.5
  }
}
layer {
  name: "ip3"
  type: "InnerProduct"
  bottom: "ip2"
  top: "ip3"
  inner_product_param {
    num_output: 11
    weight_filler {
      type: "xavier"
    }
    bias_filler {
      type: "constant"
    }
  }
}
layer {
  name: "drop3"
  type: "Dropout"
  bottom: "ip3"
  top: "ip3"
  dropout_param {
    dropout_ratio: 0.5
  }
}
layer {
  name: "accuracy"
  type: "Accuracy"
  bottom: "ip3"
  bottom: "label"
  top: "accuracy"
  include {
    phase: TEST
  }
}
layer {
  name: "loss"
  type: "SoftmaxWithLoss"
  bottom: "ip3"
  bottom: "label"
  top: "loss"
}
I0524 20:42:36.665887 19039 layer_factory.hpp:77] Creating layer data_hdf5
I0524 20:42:36.665907 19039 net.cpp:106] Creating Layer data_hdf5
I0524 20:42:36.665927 19039 net.cpp:411] data_hdf5 -> data
I0524 20:42:36.665947 19039 net.cpp:411] data_hdf5 -> label
I0524 20:42:36.665967 19039 hdf5_data_layer.cpp:79] Loading list of HDF5 filenames from: /lustre/atlas/proj-shared/hep105/caffe_titan/minosmatch_nukecczdefs_127x50_x_unshifted_me1Bmc.testlist
I0524 20:42:36.667569 19039 hdf5_data_layer.cpp:93] Number of HDF5 files: 3
I0524 20:42:57.915916 19039 net.cpp:150] Setting up data_hdf5
I0524 20:42:57.916082 19039 net.cpp:157] Top shape: 80 1 127 50 (508000)
I0524 20:42:57.916102 19039 net.cpp:157] Top shape: 80 (80)
I0524 20:42:57.916115 19039 net.cpp:165] Memory required for data: 2032320
I0524 20:42:57.916131 19039 layer_factory.hpp:77] Creating layer label_data_hdf5_1_split
I0524 20:42:57.916164 19039 net.cpp:106] Creating Layer label_data_hdf5_1_split
I0524 20:42:57.916177 19039 net.cpp:454] label_data_hdf5_1_split <- label
I0524 20:42:57.916213 19039 net.cpp:411] label_data_hdf5_1_split -> label_data_hdf5_1_split_0
I0524 20:42:57.916236 19039 net.cpp:411] label_data_hdf5_1_split -> label_data_hdf5_1_split_1
I0524 20:42:57.916316 19039 net.cpp:150] Setting up label_data_hdf5_1_split
I0524 20:42:57.916342 19039 net.cpp:157] Top shape: 80 (80)
I0524 20:42:57.916357 19039 net.cpp:157] Top shape: 80 (80)
I0524 20:42:57.916369 19039 net.cpp:165] Memory required for data: 2032960
I0524 20:42:57.916381 19039 layer_factory.hpp:77] Creating layer conv1
I0524 20:42:57.916407 19039 net.cpp:106] Creating Layer conv1
I0524 20:42:57.916427 19039 net.cpp:454] conv1 <- data
I0524 20:42:57.916445 19039 net.cpp:411] conv1 -> conv1
I0524 20:42:57.918408 19039 net.cpp:150] Setting up conv1
I0524 20:42:57.918434 19039 net.cpp:157] Top shape: 80 12 120 48 (5529600)
I0524 20:42:57.918457 19039 net.cpp:165] Memory required for data: 24151360
I0524 20:42:57.918479 19039 layer_factory.hpp:77] Creating layer relu1
I0524 20:42:57.918500 19039 net.cpp:106] Creating Layer relu1
I0524 20:42:57.918522 19039 net.cpp:454] relu1 <- conv1
I0524 20:42:57.918539 19039 net.cpp:397] relu1 -> conv1 (in-place)
I0524 20:42:57.919049 19039 net.cpp:150] Setting up relu1
I0524 20:42:57.919070 19039 net.cpp:157] Top shape: 80 12 120 48 (5529600)
I0524 20:42:57.919083 19039 net.cpp:165] Memory required for data: 46269760
I0524 20:42:57.919096 19039 layer_factory.hpp:77] Creating layer pool1
I0524 20:42:57.919127 19039 net.cpp:106] Creating Layer pool1
I0524 20:42:57.919140 19039 net.cpp:454] pool1 <- conv1
I0524 20:42:57.919157 19039 net.cpp:411] pool1 -> pool1
I0524 20:42:57.919245 19039 net.cpp:150] Setting up pool1
I0524 20:42:57.919262 19039 net.cpp:157] Top shape: 80 12 60 48 (2764800)
I0524 20:42:57.919277 19039 net.cpp:165] Memory required for data: 57328960
I0524 20:42:57.919296 19039 layer_factory.hpp:77] Creating layer conv2
I0524 20:42:57.919317 19039 net.cpp:106] Creating Layer conv2
I0524 20:42:57.919330 19039 net.cpp:454] conv2 <- pool1
I0524 20:42:57.919347 19039 net.cpp:411] conv2 -> conv2
I0524 20:42:57.921283 19039 net.cpp:150] Setting up conv2
I0524 20:42:57.921308 19039 net.cpp:157] Top shape: 80 20 54 46 (3974400)
I0524 20:42:57.921327 19039 net.cpp:165] Memory required for data: 73226560
I0524 20:42:57.921350 19039 layer_factory.hpp:77] Creating layer relu2
I0524 20:42:57.921368 19039 net.cpp:106] Creating Layer relu2
I0524 20:42:57.921381 19039 net.cpp:454] relu2 <- conv2
I0524 20:42:57.921396 19039 net.cpp:397] relu2 -> conv2 (in-place)
I0524 20:42:57.921777 19039 net.cpp:150] Setting up relu2
I0524 20:42:57.921797 19039 net.cpp:157] Top shape: 80 20 54 46 (3974400)
I0524 20:42:57.921809 19039 net.cpp:165] Memory required for data: 89124160
I0524 20:42:57.921824 19039 layer_factory.hpp:77] Creating layer pool2
I0524 20:42:57.921846 19039 net.cpp:106] Creating Layer pool2
I0524 20:42:57.921859 19039 net.cpp:454] pool2 <- conv2
I0524 20:42:57.921875 19039 net.cpp:411] pool2 -> pool2
I0524 20:42:57.921968 19039 net.cpp:150] Setting up pool2
I0524 20:42:57.921985 19039 net.cpp:157] Top shape: 80 20 27 46 (1987200)
I0524 20:42:57.921998 19039 net.cpp:165] Memory required for data: 97072960
I0524 20:42:57.922013 19039 layer_factory.hpp:77] Creating layer conv3
I0524 20:42:57.922035 19039 net.cpp:106] Creating Layer conv3
I0524 20:42:57.922055 19039 net.cpp:454] conv3 <- pool2
I0524 20:42:57.922080 19039 net.cpp:411] conv3 -> conv3
I0524 20:42:57.924088 19039 net.cpp:150] Setting up conv3
I0524 20:42:57.924113 19039 net.cpp:157] Top shape: 80 28 22 44 (2168320)
I0524 20:42:57.924131 19039 net.cpp:165] Memory required for data: 105746240
I0524 20:42:57.924171 19039 layer_factory.hpp:77] Creating layer relu3
I0524 20:42:57.924196 19039 net.cpp:106] Creating Layer relu3
I0524 20:42:57.924209 19039 net.cpp:454] relu3 <- conv3
I0524 20:42:57.924226 19039 net.cpp:397] relu3 -> conv3 (in-place)
I0524 20:42:57.924721 19039 net.cpp:150] Setting up relu3
I0524 20:42:57.924744 19039 net.cpp:157] Top shape: 80 28 22 44 (2168320)
I0524 20:42:57.924757 19039 net.cpp:165] Memory required for data: 114419520
I0524 20:42:57.924773 19039 layer_factory.hpp:77] Creating layer pool3
I0524 20:42:57.924798 19039 net.cpp:106] Creating Layer pool3
I0524 20:42:57.924813 19039 net.cpp:454] pool3 <- conv3
I0524 20:42:57.924829 19039 net.cpp:411] pool3 -> pool3
I0524 20:42:57.924916 19039 net.cpp:150] Setting up pool3
I0524 20:42:57.924932 19039 net.cpp:157] Top shape: 80 28 11 44 (1084160)
I0524 20:42:57.924947 19039 net.cpp:165] Memory required for data: 118756160
I0524 20:42:57.924959 19039 layer_factory.hpp:77] Creating layer conv4
I0524 20:42:57.924986 19039 net.cpp:106] Creating Layer conv4
I0524 20:42:57.924999 19039 net.cpp:454] conv4 <- pool3
I0524 20:42:57.925015 19039 net.cpp:411] conv4 -> conv4
I0524 20:42:57.927119 19039 net.cpp:150] Setting up conv4
I0524 20:42:57.927144 19039 net.cpp:157] Top shape: 80 36 6 42 (725760)
I0524 20:42:57.927163 19039 net.cpp:165] Memory required for data: 121659200
I0524 20:42:57.927182 19039 layer_factory.hpp:77] Creating layer relu4
I0524 20:42:57.927202 19039 net.cpp:106] Creating Layer relu4
I0524 20:42:57.927214 19039 net.cpp:454] relu4 <- conv4
I0524 20:42:57.927242 19039 net.cpp:397] relu4 -> conv4 (in-place)
I0524 20:42:57.927727 19039 net.cpp:150] Setting up relu4
I0524 20:42:57.927750 19039 net.cpp:157] Top shape: 80 36 6 42 (725760)
I0524 20:42:57.927763 19039 net.cpp:165] Memory required for data: 124562240
I0524 20:42:57.927779 19039 layer_factory.hpp:77] Creating layer pool4
I0524 20:42:57.927803 19039 net.cpp:106] Creating Layer pool4
I0524 20:42:57.927816 19039 net.cpp:454] pool4 <- conv4
I0524 20:42:57.927832 19039 net.cpp:411] pool4 -> pool4
I0524 20:42:57.927917 19039 net.cpp:150] Setting up pool4
I0524 20:42:57.927937 19039 net.cpp:157] Top shape: 80 36 3 42 (362880)
I0524 20:42:57.927947 19039 net.cpp:165] Memory required for data: 126013760
I0524 20:42:57.927963 19039 layer_factory.hpp:77] Creating layer ip1
I0524 20:42:57.927979 19039 net.cpp:106] Creating Layer ip1
I0524 20:42:57.927999 19039 net.cpp:454] ip1 <- pool4
I0524 20:42:57.928021 19039 net.cpp:411] ip1 -> ip1
I0524 20:42:57.943378 19039 net.cpp:150] Setting up ip1
I0524 20:42:57.943410 19039 net.cpp:157] Top shape: 80 196 (15680)
I0524 20:42:57.943431 19039 net.cpp:165] Memory required for data: 126076480
I0524 20:42:57.943459 19039 layer_factory.hpp:77] Creating layer relu5
I0524 20:42:57.943480 19039 net.cpp:106] Creating Layer relu5
I0524 20:42:57.943505 19039 net.cpp:454] relu5 <- ip1
I0524 20:42:57.943521 19039 net.cpp:397] relu5 -> ip1 (in-place)
I0524 20:42:57.943886 19039 net.cpp:150] Setting up relu5
I0524 20:42:57.943905 19039 net.cpp:157] Top shape: 80 196 (15680)
I0524 20:42:57.943917 19039 net.cpp:165] Memory required for data: 126139200
I0524 20:42:57.943930 19039 layer_factory.hpp:77] Creating layer drop1
I0524 20:42:57.943954 19039 net.cpp:106] Creating Layer drop1
I0524 20:42:57.943975 19039 net.cpp:454] drop1 <- ip1
I0524 20:42:57.943991 19039 net.cpp:397] drop1 -> ip1 (in-place)
I0524 20:42:57.944052 19039 net.cpp:150] Setting up drop1
I0524 20:42:57.944068 19039 net.cpp:157] Top shape: 80 196 (15680)
I0524 20:42:57.944080 19039 net.cpp:165] Memory required for data: 126201920
I0524 20:42:57.944092 19039 layer_factory.hpp:77] Creating layer ip2
I0524 20:42:57.944113 19039 net.cpp:106] Creating Layer ip2
I0524 20:42:57.944124 19039 net.cpp:454] ip2 <- ip1
I0524 20:42:57.944147 19039 net.cpp:411] ip2 -> ip2
I0524 20:42:57.944644 19039 net.cpp:150] Setting up ip2
I0524 20:42:57.944664 19039 net.cpp:157] Top shape: 80 98 (7840)
I0524 20:42:57.944676 19039 net.cpp:165] Memory required for data: 126233280
I0524 20:42:57.944697 19039 layer_factory.hpp:77] Creating layer relu6
I0524 20:42:57.944733 19039 net.cpp:106] Creating Layer relu6
I0524 20:42:57.944746 19039 net.cpp:454] relu6 <- ip2
I0524 20:42:57.944762 19039 net.cpp:397] relu6 -> ip2 (in-place)
I0524 20:42:57.945319 19039 net.cpp:150] Setting up relu6
I0524 20:42:57.945341 19039 net.cpp:157] Top shape: 80 98 (7840)
I0524 20:42:57.945354 19039 net.cpp:165] Memory required for data: 126264640
I0524 20:42:57.945368 19039 layer_factory.hpp:77] Creating layer drop2
I0524 20:42:57.945387 19039 net.cpp:106] Creating Layer drop2
I0524 20:42:57.945416 19039 net.cpp:454] drop2 <- ip2
I0524 20:42:57.945433 19039 net.cpp:397] drop2 -> ip2 (in-place)
I0524 20:42:57.945492 19039 net.cpp:150] Setting up drop2
I0524 20:42:57.945508 19039 net.cpp:157] Top shape: 80 98 (7840)
I0524 20:42:57.945520 19039 net.cpp:165] Memory required for data: 126296000
I0524 20:42:57.945533 19039 layer_factory.hpp:77] Creating layer ip3
I0524 20:42:57.945551 19039 net.cpp:106] Creating Layer ip3
I0524 20:42:57.945564 19039 net.cpp:454] ip3 <- ip2
I0524 20:42:57.945587 19039 net.cpp:411] ip3 -> ip3
I0524 20:42:57.945824 19039 net.cpp:150] Setting up ip3
I0524 20:42:57.945843 19039 net.cpp:157] Top shape: 80 11 (880)
I0524 20:42:57.945857 19039 net.cpp:165] Memory required for data: 126299520
I0524 20:42:57.945878 19039 layer_factory.hpp:77] Creating layer drop3
I0524 20:42:57.945899 19039 net.cpp:106] Creating Layer drop3
I0524 20:42:57.945914 19039 net.cpp:454] drop3 <- ip3
I0524 20:42:57.945929 19039 net.cpp:397] drop3 -> ip3 (in-place)
I0524 20:42:57.945976 19039 net.cpp:150] Setting up drop3
I0524 20:42:57.945998 19039 net.cpp:157] Top shape: 80 11 (880)
I0524 20:42:57.946012 19039 net.cpp:165] Memory required for data: 126303040
I0524 20:42:57.946029 19039 layer_factory.hpp:77] Creating layer ip3_drop3_0_split
I0524 20:42:57.946045 19039 net.cpp:106] Creating Layer ip3_drop3_0_split
I0524 20:42:57.946058 19039 net.cpp:454] ip3_drop3_0_split <- ip3
I0524 20:42:57.946075 19039 net.cpp:411] ip3_drop3_0_split -> ip3_drop3_0_split_0
I0524 20:42:57.946100 19039 net.cpp:411] ip3_drop3_0_split -> ip3_drop3_0_split_1
I0524 20:42:57.946187 19039 net.cpp:150] Setting up ip3_drop3_0_split
I0524 20:42:57.946203 19039 net.cpp:157] Top shape: 80 11 (880)
I0524 20:42:57.946219 19039 net.cpp:157] Top shape: 80 11 (880)
I0524 20:42:57.946234 19039 net.cpp:165] Memory required for data: 126310080
I0524 20:42:57.946246 19039 layer_factory.hpp:77] Creating layer accuracy
I0524 20:42:57.946276 19039 net.cpp:106] Creating Layer accuracy
I0524 20:42:57.946298 19039 net.cpp:454] accuracy <- ip3_drop3_0_split_0
I0524 20:42:57.946312 19039 net.cpp:454] accuracy <- label_data_hdf5_1_split_0
I0524 20:42:57.946329 19039 net.cpp:411] accuracy -> accuracy
…
