…
I0525 00:44:22.873510 22219 net.cpp:322] The NetState phase (0) differed from the phase (1) specified by a rule in layer data_hdf5
I0525 00:44:22.873575 22219 net.cpp:322] The NetState phase (0) differed from the phase (1) specified by a rule in layer accuracy
I0525 00:44:22.873953 22219 net.cpp:49] Initializing net from parameters: 
name: "caffe_test_127x50_x_unshifted"
state {
  phase: TRAIN
}
layer {
  name: "data_hdf5"
  type: "HDF5Data"
  top: "data"
  top: "label"
  include {
    phase: TRAIN
  }
  hdf5_data_param {
    source: "/lustre/atlas/proj-shared/hep105/caffe_titan/minosmatch_nukecczdefs_127x50_x_unshifted_me1Bmc.trainlist"
    batch_size: 80
  }
}
layer {
  name: "conv1"
  type: "Convolution"
  bottom: "data"
  top: "conv1"
  convolution_param {
    num_output: 12
    pad: 0
    stride: 1
    weight_filler {
      type: "xavier"
    }
    bias_filler {
      type: "constant"
    }
    kernel_h: 8
    kernel_w: 3
  }
}
layer {
  name: "relu1"
  type: "ReLU"
  bottom: "conv1"
  top: "conv1"
}
layer {
  name: "pool1"
  type: "Pooling"
  bottom: "conv1"
  top: "pool1"
  pooling_param {
    pool: MAX
    kernel_h: 2
    kernel_w: 1
    stride_h: 2
    stride_w: 1
  }
}
layer {
  name: "conv2"
  type: "Convolution"
  bottom: "pool1"
  top: "conv2"
  convolution_param {
    num_output: 20
    pad: 0
    stride: 1
    weight_filler {
      type: "xavier"
    }
    bias_filler {
      type: "constant"
    }
    kernel_h: 7
    kernel_w: 3
  }
}
layer {
  name: "relu2"
  type: "ReLU"
  bottom: "conv2"
  top: "conv2"
}
layer {
  name: "pool2"
  type: "Pooling"
  bottom: "conv2"
  top: "pool2"
  pooling_param {
    pool: MAX
    kernel_h: 2
    kernel_w: 1
    stride_h: 2
    stride_w: 1
  }
}
layer {
  name: "conv3"
  type: "Convolution"
  bottom: "pool2"
  top: "conv3"
  convolution_param {
    num_output: 28
    pad: 0
    stride: 1
    weight_filler {
      type: "xavier"
    }
    bias_filler {
      type: "constant"
    }
    kernel_h: 6
    kernel_w: 3
  }
}
layer {
  name: "relu3"
  type: "ReLU"
  bottom: "conv3"
  top: "conv3"
}
layer {
  name: "pool3"
  type: "Pooling"
  bottom: "conv3"
  top: "pool3"
  pooling_param {
    pool: MAX
    kernel_h: 2
    kernel_w: 1
    stride_h: 2
    stride_w: 1
  }
}
layer {
  name: "conv4"
  type: "Convolution"
  bottom: "pool3"
  top: "conv4"
  convolution_param {
    num_output: 36
    pad: 0
    stride: 1
    weight_filler {
      type: "xavier"
    }
    bias_filler {
      type: "constant"
    }
    kernel_h: 6
    kernel_w: 3
  }
}
layer {
  name: "relu4"
  type: "ReLU"
  bottom: "conv4"
  top: "conv4"
}
layer {
  name: "pool4"
  type: "Pooling"
  bottom: "conv4"
  top: "pool4"
  pooling_param {
    pool: MAX
    kernel_h: 2
    kernel_w: 1
    stride_h: 2
    stride_w: 1
  }
}
layer {
  name: "ip1"
  type: "InnerProduct"
  bottom: "pool4"
  top: "ip1"
  inner_product_param {
    num_output: 196
    weight_filler {
      type: "xavier"
    }
    bias_filler {
      type: "constant"
    }
  }
}
layer {
  name: "relu5"
  type: "ReLU"
  bottom: "ip1"
  top: "ip1"
}
layer {
  name: "drop1"
  type: "Dropout"
  bottom: "ip1"
  top: "ip1"
  dropout_param {
    dropout_ratio: 0.5
  }
}
layer {
  name: "ip2"
  type: "InnerProduct"
  bottom: "ip1"
  top: "ip2"
  inner_product_param {
    num_output: 98
    weight_filler {
      type: "xavier"
    }
    bias_filler {
      type: "constant"
    }
  }
}
layer {
  name: "relu6"
  type: "ReLU"
  bottom: "ip2"
  top: "ip2"
}
layer {
  name: "drop2"
  type: "Dropout"
  bottom: "ip2"
  top: "ip2"
  dropout_param {
    dropout_ratio: 0.5
  }
}
layer {
  name: "ip3"
  type: "InnerProduct"
  bottom: "ip2"
  top: "ip3"
  inner_product_param {
    num_output: 11
    weight_filler {
      type: "xavier"
    }
    bias_filler {
      type: "constant"
    }
  }
}
layer {
  name: "drop3"
  type: "Dropout"
  bottom: "ip3"
  top: "ip3"
  dropout_param {
    dropout_ratio: 0.5
  }
}
layer {
  name: "loss"
  type: "SoftmaxWithLoss"
  bottom: "ip3"
  bottom: "label"
  top: "loss"
}
I0525 00:44:22.874160 22219 layer_factory.hpp:77] Creating layer data_hdf5
I0525 00:44:22.874188 22219 net.cpp:106] Creating Layer data_hdf5
I0525 00:44:22.874212 22219 net.cpp:411] data_hdf5 -> data
I0525 00:44:22.874245 22219 net.cpp:411] data_hdf5 -> label
I0525 00:44:22.874282 22219 hdf5_data_layer.cpp:79] Loading list of HDF5 filenames from: /lustre/atlas/proj-shared/hep105/caffe_titan/minosmatch_nukecczdefs_127x50_x_unshifted_me1Bmc.trainlist
I0525 00:44:22.875654 22219 hdf5_data_layer.cpp:93] Number of HDF5 files: 15
I0525 00:44:22.878173 22219 hdf5.cpp:32] Datatype class: H5T_FLOAT
I0525 00:44:44.453023 22219 hdf5.cpp:35] Datatype class: H5T_INTEGER
I0525 00:44:44.458271 22219 net.cpp:150] Setting up data_hdf5
I0525 00:44:44.458312 22219 net.cpp:157] Top shape: 80 1 127 50 (508000)
I0525 00:44:44.458330 22219 net.cpp:157] Top shape: 80 (80)
I0525 00:44:44.458343 22219 net.cpp:165] Memory required for data: 2032320
I0525 00:44:44.458362 22219 layer_factory.hpp:77] Creating layer conv1
I0525 00:44:44.458395 22219 net.cpp:106] Creating Layer conv1
I0525 00:44:44.458410 22219 net.cpp:454] conv1 <- data
I0525 00:44:44.458434 22219 net.cpp:411] conv1 -> conv1
I0525 00:44:46.016904 22219 net.cpp:150] Setting up conv1
I0525 00:44:46.016957 22219 net.cpp:157] Top shape: 80 12 120 48 (5529600)
I0525 00:44:46.016971 22219 net.cpp:165] Memory required for data: 24150720
I0525 00:44:46.017002 22219 layer_factory.hpp:77] Creating layer relu1
I0525 00:44:46.017025 22219 net.cpp:106] Creating Layer relu1
I0525 00:44:46.017045 22219 net.cpp:454] relu1 <- conv1
I0525 00:44:46.017061 22219 net.cpp:397] relu1 -> conv1 (in-place)
I0525 00:44:46.017606 22219 net.cpp:150] Setting up relu1
I0525 00:44:46.017629 22219 net.cpp:157] Top shape: 80 12 120 48 (5529600)
I0525 00:44:46.017642 22219 net.cpp:165] Memory required for data: 46269120
I0525 00:44:46.017655 22219 layer_factory.hpp:77] Creating layer pool1
I0525 00:44:46.017685 22219 net.cpp:106] Creating Layer pool1
I0525 00:44:46.017699 22219 net.cpp:454] pool1 <- conv1
I0525 00:44:46.017715 22219 net.cpp:411] pool1 -> pool1
I0525 00:44:46.017808 22219 net.cpp:150] Setting up pool1
I0525 00:44:46.017827 22219 net.cpp:157] Top shape: 80 12 60 48 (2764800)
I0525 00:44:46.017843 22219 net.cpp:165] Memory required for data: 57328320
I0525 00:44:46.017854 22219 layer_factory.hpp:77] Creating layer conv2
I0525 00:44:46.017884 22219 net.cpp:106] Creating Layer conv2
I0525 00:44:46.017900 22219 net.cpp:454] conv2 <- pool1
I0525 00:44:46.017916 22219 net.cpp:411] conv2 -> conv2
I0525 00:44:46.020673 22219 net.cpp:150] Setting up conv2
I0525 00:44:46.020702 22219 net.cpp:157] Top shape: 80 20 54 46 (3974400)
I0525 00:44:46.020716 22219 net.cpp:165] Memory required for data: 73225920
I0525 00:44:46.020745 22219 layer_factory.hpp:77] Creating layer relu2
I0525 00:44:46.020761 22219 net.cpp:106] Creating Layer relu2
I0525 00:44:46.020776 22219 net.cpp:454] relu2 <- conv2
I0525 00:44:46.020792 22219 net.cpp:397] relu2 -> conv2 (in-place)
I0525 00:44:46.021149 22219 net.cpp:150] Setting up relu2
I0525 00:44:46.021169 22219 net.cpp:157] Top shape: 80 20 54 46 (3974400)
I0525 00:44:46.021183 22219 net.cpp:165] Memory required for data: 89123520
I0525 00:44:46.021199 22219 layer_factory.hpp:77] Creating layer pool2
I0525 00:44:46.021221 22219 net.cpp:106] Creating Layer pool2
I0525 00:44:46.021235 22219 net.cpp:454] pool2 <- conv2
I0525 00:44:46.021251 22219 net.cpp:411] pool2 -> pool2
I0525 00:44:46.021347 22219 net.cpp:150] Setting up pool2
I0525 00:44:46.021364 22219 net.cpp:157] Top shape: 80 20 27 46 (1987200)
I0525 00:44:46.021379 22219 net.cpp:165] Memory required for data: 97072320
I0525 00:44:46.021399 22219 layer_factory.hpp:77] Creating layer conv3
I0525 00:44:46.021420 22219 net.cpp:106] Creating Layer conv3
I0525 00:44:46.021441 22219 net.cpp:454] conv3 <- pool2
I0525 00:44:46.021457 22219 net.cpp:411] conv3 -> conv3
I0525 00:44:46.023401 22219 net.cpp:150] Setting up conv3
I0525 00:44:46.023425 22219 net.cpp:157] Top shape: 80 28 22 44 (2168320)
I0525 00:44:46.023447 22219 net.cpp:165] Memory required for data: 105745600
I0525 00:44:46.023468 22219 layer_factory.hpp:77] Creating layer relu3
I0525 00:44:46.023491 22219 net.cpp:106] Creating Layer relu3
I0525 00:44:46.023514 22219 net.cpp:454] relu3 <- conv3
I0525 00:44:46.023530 22219 net.cpp:397] relu3 -> conv3 (in-place)
I0525 00:44:46.024018 22219 net.cpp:150] Setting up relu3
I0525 00:44:46.024041 22219 net.cpp:157] Top shape: 80 28 22 44 (2168320)
I0525 00:44:46.024055 22219 net.cpp:165] Memory required for data: 114418880
I0525 00:44:46.024070 22219 layer_factory.hpp:77] Creating layer pool3
I0525 00:44:46.024085 22219 net.cpp:106] Creating Layer pool3
I0525 00:44:46.024107 22219 net.cpp:454] pool3 <- conv3
I0525 00:44:46.024123 22219 net.cpp:411] pool3 -> pool3
I0525 00:44:46.024206 22219 net.cpp:150] Setting up pool3
I0525 00:44:46.024229 22219 net.cpp:157] Top shape: 80 28 11 44 (1084160)
I0525 00:44:46.024240 22219 net.cpp:165] Memory required for data: 118755520
I0525 00:44:46.024255 22219 layer_factory.hpp:77] Creating layer conv4
I0525 00:44:46.024294 22219 net.cpp:106] Creating Layer conv4
I0525 00:44:46.024308 22219 net.cpp:454] conv4 <- pool3
I0525 00:44:46.024325 22219 net.cpp:411] conv4 -> conv4
I0525 00:44:46.027297 22219 net.cpp:150] Setting up conv4
I0525 00:44:46.027333 22219 net.cpp:157] Top shape: 80 36 6 42 (725760)
I0525 00:44:46.027348 22219 net.cpp:165] Memory required for data: 121658560
I0525 00:44:46.027372 22219 layer_factory.hpp:77] Creating layer relu4
I0525 00:44:46.027389 22219 net.cpp:106] Creating Layer relu4
I0525 00:44:46.027402 22219 net.cpp:454] relu4 <- conv4
I0525 00:44:46.027431 22219 net.cpp:397] relu4 -> conv4 (in-place)
I0525 00:44:46.027942 22219 net.cpp:150] Setting up relu4
I0525 00:44:46.027966 22219 net.cpp:157] Top shape: 80 36 6 42 (725760)
I0525 00:44:46.027978 22219 net.cpp:165] Memory required for data: 124561600
I0525 00:44:46.027992 22219 layer_factory.hpp:77] Creating layer pool4
I0525 00:44:46.028010 22219 net.cpp:106] Creating Layer pool4
I0525 00:44:46.028023 22219 net.cpp:454] pool4 <- conv4
I0525 00:44:46.028039 22219 net.cpp:411] pool4 -> pool4
I0525 00:44:46.028131 22219 net.cpp:150] Setting up pool4
I0525 00:44:46.028149 22219 net.cpp:157] Top shape: 80 36 3 42 (362880)
I0525 00:44:46.028162 22219 net.cpp:165] Memory required for data: 126013120
I0525 00:44:46.028174 22219 layer_factory.hpp:77] Creating layer ip1
I0525 00:44:46.028211 22219 net.cpp:106] Creating Layer ip1
I0525 00:44:46.028224 22219 net.cpp:454] ip1 <- pool4
I0525 00:44:46.028246 22219 net.cpp:411] ip1 -> ip1
I0525 00:44:46.043686 22219 net.cpp:150] Setting up ip1
I0525 00:44:46.043718 22219 net.cpp:157] Top shape: 80 196 (15680)
I0525 00:44:46.043740 22219 net.cpp:165] Memory required for data: 126075840
I0525 00:44:46.043766 22219 layer_factory.hpp:77] Creating layer relu5
I0525 00:44:46.043788 22219 net.cpp:106] Creating Layer relu5
I0525 00:44:46.043802 22219 net.cpp:454] relu5 <- ip1
I0525 00:44:46.043817 22219 net.cpp:397] relu5 -> ip1 (in-place)
I0525 00:44:46.044188 22219 net.cpp:150] Setting up relu5
I0525 00:44:46.044208 22219 net.cpp:157] Top shape: 80 196 (15680)
I0525 00:44:46.044220 22219 net.cpp:165] Memory required for data: 126138560
I0525 00:44:46.044236 22219 layer_factory.hpp:77] Creating layer drop1
I0525 00:44:46.044260 22219 net.cpp:106] Creating Layer drop1
I0525 00:44:46.044286 22219 net.cpp:454] drop1 <- ip1
I0525 00:44:46.044304 22219 net.cpp:397] drop1 -> ip1 (in-place)
I0525 00:44:46.044378 22219 net.cpp:150] Setting up drop1
I0525 00:44:46.044395 22219 net.cpp:157] Top shape: 80 196 (15680)
I0525 00:44:46.044410 22219 net.cpp:165] Memory required for data: 126201280
I0525 00:44:46.044422 22219 layer_factory.hpp:77] Creating layer ip2
I0525 00:44:46.044450 22219 net.cpp:106] Creating Layer ip2
I0525 00:44:46.044464 22219 net.cpp:454] ip2 <- ip1
I0525 00:44:46.044479 22219 net.cpp:411] ip2 -> ip2
I0525 00:44:46.044966 22219 net.cpp:150] Setting up ip2
I0525 00:44:46.044986 22219 net.cpp:157] Top shape: 80 98 (7840)
I0525 00:44:46.044999 22219 net.cpp:165] Memory required for data: 126232640
I0525 00:44:46.045020 22219 layer_factory.hpp:77] Creating layer relu6
I0525 00:44:46.045042 22219 net.cpp:106] Creating Layer relu6
I0525 00:44:46.045056 22219 net.cpp:454] relu6 <- ip2
I0525 00:44:46.045071 22219 net.cpp:397] relu6 -> ip2 (in-place)
I0525 00:44:46.045625 22219 net.cpp:150] Setting up relu6
I0525 00:44:46.045649 22219 net.cpp:157] Top shape: 80 98 (7840)
I0525 00:44:46.045661 22219 net.cpp:165] Memory required for data: 126264000
I0525 00:44:46.045677 22219 layer_factory.hpp:77] Creating layer drop2
I0525 00:44:46.045693 22219 net.cpp:106] Creating Layer drop2
I0525 00:44:46.045714 22219 net.cpp:454] drop2 <- ip2
I0525 00:44:46.045729 22219 net.cpp:397] drop2 -> ip2 (in-place)
I0525 00:44:46.045779 22219 net.cpp:150] Setting up drop2
I0525 00:44:46.045802 22219 net.cpp:157] Top shape: 80 98 (7840)
I0525 00:44:46.045815 22219 net.cpp:165] Memory required for data: 126295360
I0525 00:44:46.045833 22219 layer_factory.hpp:77] Creating layer ip3
I0525 00:44:46.045850 22219 net.cpp:106] Creating Layer ip3
I0525 00:44:46.045867 22219 net.cpp:454] ip3 <- ip2
I0525 00:44:46.045882 22219 net.cpp:411] ip3 -> ip3
I0525 00:44:46.046113 22219 net.cpp:150] Setting up ip3
I0525 00:44:46.046133 22219 net.cpp:157] Top shape: 80 11 (880)
I0525 00:44:46.046145 22219 net.cpp:165] Memory required for data: 126298880
I0525 00:44:46.046166 22219 layer_factory.hpp:77] Creating layer drop3
I0525 00:44:46.046187 22219 net.cpp:106] Creating Layer drop3
I0525 00:44:46.046200 22219 net.cpp:454] drop3 <- ip3
I0525 00:44:46.046216 22219 net.cpp:397] drop3 -> ip3 (in-place)
I0525 00:44:46.046263 22219 net.cpp:150] Setting up drop3
I0525 00:44:46.046285 22219 net.cpp:157] Top shape: 80 11 (880)
I0525 00:44:46.046298 22219 net.cpp:165] Memory required for data: 126302400
I0525 00:44:46.046317 22219 layer_factory.hpp:77] Creating layer loss
I0525 00:44:46.046339 22219 net.cpp:106] Creating Layer loss
I0525 00:44:46.046353 22219 net.cpp:454] loss <- ip3
I0525 00:44:46.046367 22219 net.cpp:454] loss <- label
I0525 00:44:46.046383 22219 net.cpp:411] loss -> loss
I0525 00:44:46.046408 22219 layer_factory.hpp:77] Creating layer loss
…
I0525 00:44:46.049235 22219 solver.cpp:181] Creating test net (#0) specified by net file: /lustre/atlas/proj-shared/hep105/caffe_titan/caffe_workflow/logs_bslr/bs_80_lr_0.0040_2016-05-20T15.49.19.028130.prototxt
I0525 00:44:46.049311 22219 net.cpp:322] The NetState phase (1) differed from the phase (0) specified by a rule in layer data_hdf5
I0525 00:44:46.049669 22219 net.cpp:49] Initializing net from parameters: 
name: "caffe_test_127x50_x_unshifted"
state {
  phase: TEST
}
layer {
  name: "data_hdf5"
  type: "HDF5Data"
  top: "data"
  top: "label"
  include {
    phase: TEST
  }
  hdf5_data_param {
    source: "/lustre/atlas/proj-shared/hep105/caffe_titan/minosmatch_nukecczdefs_127x50_x_unshifted_me1Bmc.testlist"
    batch_size: 80
  }
}
layer {
  name: "conv1"
  type: "Convolution"
  bottom: "data"
  top: "conv1"
  convolution_param {
    num_output: 12
    pad: 0
    stride: 1
    weight_filler {
      type: "xavier"
    }
    bias_filler {
      type: "constant"
    }
    kernel_h: 8
    kernel_w: 3
  }
}
layer {
  name: "relu1"
  type: "ReLU"
  bottom: "conv1"
  top: "conv1"
}
layer {
  name: "pool1"
  type: "Pooling"
  bottom: "conv1"
  top: "pool1"
  pooling_param {
    pool: MAX
    kernel_h: 2
    kernel_w: 1
    stride_h: 2
    stride_w: 1
  }
}
layer {
  name: "conv2"
  type: "Convolution"
  bottom: "pool1"
  top: "conv2"
  convolution_param {
    num_output: 20
    pad: 0
    stride: 1
    weight_filler {
      type: "xavier"
    }
    bias_filler {
      type: "constant"
    }
    kernel_h: 7
    kernel_w: 3
  }
}
layer {
  name: "relu2"
  type: "ReLU"
  bottom: "conv2"
  top: "conv2"
}
layer {
  name: "pool2"
  type: "Pooling"
  bottom: "conv2"
  top: "pool2"
  pooling_param {
    pool: MAX
    kernel_h: 2
    kernel_w: 1
    stride_h: 2
    stride_w: 1
  }
}
layer {
  name: "conv3"
  type: "Convolution"
  bottom: "pool2"
  top: "conv3"
  convolution_param {
    num_output: 28
    pad: 0
    stride: 1
    weight_filler {
      type: "xavier"
    }
    bias_filler {
      type: "constant"
    }
    kernel_h: 6
    kernel_w: 3
  }
}
layer {
  name: "relu3"
  type: "ReLU"
  bottom: "conv3"
  top: "conv3"
}
layer {
  name: "pool3"
  type: "Pooling"
  bottom: "conv3"
  top: "pool3"
  pooling_param {
    pool: MAX
    kernel_h: 2
    kernel_w: 1
    stride_h: 2
    stride_w: 1
  }
}
layer {
  name: "conv4"
  type: "Convolution"
  bottom: "pool3"
  top: "conv4"
  convolution_param {
    num_output: 36
    pad: 0
    stride: 1
    weight_filler {
      type: "xavier"
    }
    bias_filler {
      type: "constant"
    }
    kernel_h: 6
    kernel_w: 3
  }
}
layer {
  name: "relu4"
  type: "ReLU"
  bottom: "conv4"
  top: "conv4"
}
layer {
  name: "pool4"
  type: "Pooling"
  bottom: "conv4"
  top: "pool4"
  pooling_param {
    pool: MAX
    kernel_h: 2
    kernel_w: 1
    stride_h: 2
    stride_w: 1
  }
}
layer {
  name: "ip1"
  type: "InnerProduct"
  bottom: "pool4"
  top: "ip1"
  inner_product_param {
    num_output: 196
    weight_filler {
      type: "xavier"
    }
    bias_filler {
      type: "constant"
    }
  }
}
layer {
  name: "relu5"
  type: "ReLU"
  bottom: "ip1"
  top: "ip1"
}
layer {
  name: "drop1"
  type: "Dropout"
  bottom: "ip1"
  top: "ip1"
  dropout_param {
    dropout_ratio: 0.5
  }
}
layer {
  name: "ip2"
  type: "InnerProduct"
  bottom: "ip1"
  top: "ip2"
  inner_product_param {
    num_output: 98
    weight_filler {
      type: "xavier"
    }
    bias_filler {
      type: "constant"
    }
  }
}
layer {
  name: "relu6"
  type: "ReLU"
  bottom: "ip2"
  top: "ip2"
}
layer {
  name: "drop2"
  type: "Dropout"
  bottom: "ip2"
  top: "ip2"
  dropout_param {
    dropout_ratio: 0.5
  }
}
layer {
  name: "ip3"
  type: "InnerProduct"
  bottom: "ip2"
  top: "ip3"
  inner_product_param {
    num_output: 11
    weight_filler {
      type: "xavier"
    }
    bias_filler {
      type: "constant"
    }
  }
}
layer {
  name: "drop3"
  type: "Dropout"
  bottom: "ip3"
  top: "ip3"
  dropout_param {
    dropout_ratio: 0.5
  }
}
layer {
  name: "accuracy"
  type: "Accuracy"
  bottom: "ip3"
  bottom: "label"
  top: "accuracy"
  include {
    phase: TEST
  }
}
layer {
  name: "loss"
  type: "SoftmaxWithLoss"
  bottom: "ip3"
  bottom: "label"
  top: "loss"
}
I0525 00:44:46.049870 22219 layer_factory.hpp:77] Creating layer data_hdf5
I0525 00:44:46.049890 22219 net.cpp:106] Creating Layer data_hdf5
I0525 00:44:46.049904 22219 net.cpp:411] data_hdf5 -> data
I0525 00:44:46.049924 22219 net.cpp:411] data_hdf5 -> label
I0525 00:44:46.049943 22219 hdf5_data_layer.cpp:79] Loading list of HDF5 filenames from: /lustre/atlas/proj-shared/hep105/caffe_titan/minosmatch_nukecczdefs_127x50_x_unshifted_me1Bmc.testlist
I0525 00:44:46.051326 22219 hdf5_data_layer.cpp:93] Number of HDF5 files: 3
I0525 00:45:07.390154 22219 net.cpp:150] Setting up data_hdf5
I0525 00:45:07.390326 22219 net.cpp:157] Top shape: 80 1 127 50 (508000)
I0525 00:45:07.390344 22219 net.cpp:157] Top shape: 80 (80)
I0525 00:45:07.390357 22219 net.cpp:165] Memory required for data: 2032320
I0525 00:45:07.390372 22219 layer_factory.hpp:77] Creating layer label_data_hdf5_1_split
I0525 00:45:07.390405 22219 net.cpp:106] Creating Layer label_data_hdf5_1_split
I0525 00:45:07.390419 22219 net.cpp:454] label_data_hdf5_1_split <- label
I0525 00:45:07.390455 22219 net.cpp:411] label_data_hdf5_1_split -> label_data_hdf5_1_split_0
I0525 00:45:07.390477 22219 net.cpp:411] label_data_hdf5_1_split -> label_data_hdf5_1_split_1
I0525 00:45:07.390565 22219 net.cpp:150] Setting up label_data_hdf5_1_split
I0525 00:45:07.390583 22219 net.cpp:157] Top shape: 80 (80)
I0525 00:45:07.390597 22219 net.cpp:157] Top shape: 80 (80)
I0525 00:45:07.390610 22219 net.cpp:165] Memory required for data: 2032960
I0525 00:45:07.390622 22219 layer_factory.hpp:77] Creating layer conv1
I0525 00:45:07.390648 22219 net.cpp:106] Creating Layer conv1
I0525 00:45:07.390663 22219 net.cpp:454] conv1 <- data
I0525 00:45:07.390681 22219 net.cpp:411] conv1 -> conv1
I0525 00:45:07.392679 22219 net.cpp:150] Setting up conv1
I0525 00:45:07.392705 22219 net.cpp:157] Top shape: 80 12 120 48 (5529600)
I0525 00:45:07.392719 22219 net.cpp:165] Memory required for data: 24151360
I0525 00:45:07.392745 22219 layer_factory.hpp:77] Creating layer relu1
I0525 00:45:07.392762 22219 net.cpp:106] Creating Layer relu1
I0525 00:45:07.392786 22219 net.cpp:454] relu1 <- conv1
I0525 00:45:07.392802 22219 net.cpp:397] relu1 -> conv1 (in-place)
I0525 00:45:07.393326 22219 net.cpp:150] Setting up relu1
I0525 00:45:07.393350 22219 net.cpp:157] Top shape: 80 12 120 48 (5529600)
I0525 00:45:07.393363 22219 net.cpp:165] Memory required for data: 46269760
I0525 00:45:07.393379 22219 layer_factory.hpp:77] Creating layer pool1
I0525 00:45:07.393405 22219 net.cpp:106] Creating Layer pool1
I0525 00:45:07.393419 22219 net.cpp:454] pool1 <- conv1
I0525 00:45:07.393435 22219 net.cpp:411] pool1 -> pool1
I0525 00:45:07.393525 22219 net.cpp:150] Setting up pool1
I0525 00:45:07.393543 22219 net.cpp:157] Top shape: 80 12 60 48 (2764800)
I0525 00:45:07.393558 22219 net.cpp:165] Memory required for data: 57328960
I0525 00:45:07.393569 22219 layer_factory.hpp:77] Creating layer conv2
I0525 00:45:07.393596 22219 net.cpp:106] Creating Layer conv2
I0525 00:45:07.393617 22219 net.cpp:454] conv2 <- pool1
I0525 00:45:07.393635 22219 net.cpp:411] conv2 -> conv2
I0525 00:45:07.395584 22219 net.cpp:150] Setting up conv2
I0525 00:45:07.395608 22219 net.cpp:157] Top shape: 80 20 54 46 (3974400)
I0525 00:45:07.395629 22219 net.cpp:165] Memory required for data: 73226560
I0525 00:45:07.395650 22219 layer_factory.hpp:77] Creating layer relu2
I0525 00:45:07.395671 22219 net.cpp:106] Creating Layer relu2
I0525 00:45:07.395692 22219 net.cpp:454] relu2 <- conv2
I0525 00:45:07.395709 22219 net.cpp:397] relu2 -> conv2 (in-place)
I0525 00:45:07.396059 22219 net.cpp:150] Setting up relu2
I0525 00:45:07.396078 22219 net.cpp:157] Top shape: 80 20 54 46 (3974400)
I0525 00:45:07.396091 22219 net.cpp:165] Memory required for data: 89124160
I0525 00:45:07.396106 22219 layer_factory.hpp:77] Creating layer pool2
I0525 00:45:07.396122 22219 net.cpp:106] Creating Layer pool2
I0525 00:45:07.396142 22219 net.cpp:454] pool2 <- conv2
I0525 00:45:07.396157 22219 net.cpp:411] pool2 -> pool2
I0525 00:45:07.396246 22219 net.cpp:150] Setting up pool2
I0525 00:45:07.396271 22219 net.cpp:157] Top shape: 80 20 27 46 (1987200)
I0525 00:45:07.396286 22219 net.cpp:165] Memory required for data: 97072960
I0525 00:45:07.396298 22219 layer_factory.hpp:77] Creating layer conv3
I0525 00:45:07.396322 22219 net.cpp:106] Creating Layer conv3
I0525 00:45:07.396335 22219 net.cpp:454] conv3 <- pool2
I0525 00:45:07.396352 22219 net.cpp:411] conv3 -> conv3
I0525 00:45:07.398385 22219 net.cpp:150] Setting up conv3
I0525 00:45:07.398409 22219 net.cpp:157] Top shape: 80 28 22 44 (2168320)
I0525 00:45:07.398428 22219 net.cpp:165] Memory required for data: 105746240
I0525 00:45:07.398468 22219 layer_factory.hpp:77] Creating layer relu3
I0525 00:45:07.398484 22219 net.cpp:106] Creating Layer relu3
I0525 00:45:07.398499 22219 net.cpp:454] relu3 <- conv3
I0525 00:45:07.398514 22219 net.cpp:397] relu3 -> conv3 (in-place)
I0525 00:45:07.399011 22219 net.cpp:150] Setting up relu3
I0525 00:45:07.399034 22219 net.cpp:157] Top shape: 80 28 22 44 (2168320)
I0525 00:45:07.399047 22219 net.cpp:165] Memory required for data: 114419520
I0525 00:45:07.399062 22219 layer_factory.hpp:77] Creating layer pool3
I0525 00:45:07.399078 22219 net.cpp:106] Creating Layer pool3
I0525 00:45:07.399092 22219 net.cpp:454] pool3 <- conv3
I0525 00:45:07.399108 22219 net.cpp:411] pool3 -> pool3
I0525 00:45:07.399195 22219 net.cpp:150] Setting up pool3
I0525 00:45:07.399217 22219 net.cpp:157] Top shape: 80 28 11 44 (1084160)
I0525 00:45:07.399230 22219 net.cpp:165] Memory required for data: 118756160
I0525 00:45:07.399242 22219 layer_factory.hpp:77] Creating layer conv4
I0525 00:45:07.399262 22219 net.cpp:106] Creating Layer conv4
I0525 00:45:07.399291 22219 net.cpp:454] conv4 <- pool3
I0525 00:45:07.399317 22219 net.cpp:411] conv4 -> conv4
I0525 00:45:07.401448 22219 net.cpp:150] Setting up conv4
I0525 00:45:07.401473 22219 net.cpp:157] Top shape: 80 36 6 42 (725760)
I0525 00:45:07.401492 22219 net.cpp:165] Memory required for data: 121659200
I0525 00:45:07.401511 22219 layer_factory.hpp:77] Creating layer relu4
I0525 00:45:07.401531 22219 net.cpp:106] Creating Layer relu4
I0525 00:45:07.401545 22219 net.cpp:454] relu4 <- conv4
I0525 00:45:07.401559 22219 net.cpp:397] relu4 -> conv4 (in-place)
I0525 00:45:07.402062 22219 net.cpp:150] Setting up relu4
I0525 00:45:07.402086 22219 net.cpp:157] Top shape: 80 36 6 42 (725760)
I0525 00:45:07.402098 22219 net.cpp:165] Memory required for data: 124562240
I0525 00:45:07.402114 22219 layer_factory.hpp:77] Creating layer pool4
I0525 00:45:07.402137 22219 net.cpp:106] Creating Layer pool4
I0525 00:45:07.402151 22219 net.cpp:454] pool4 <- conv4
I0525 00:45:07.402168 22219 net.cpp:411] pool4 -> pool4
I0525 00:45:07.402254 22219 net.cpp:150] Setting up pool4
I0525 00:45:07.402277 22219 net.cpp:157] Top shape: 80 36 3 42 (362880)
I0525 00:45:07.402289 22219 net.cpp:165] Memory required for data: 126013760
I0525 00:45:07.402304 22219 layer_factory.hpp:77] Creating layer ip1
I0525 00:45:07.402321 22219 net.cpp:106] Creating Layer ip1
I0525 00:45:07.402334 22219 net.cpp:454] ip1 <- pool4
I0525 00:45:07.402350 22219 net.cpp:411] ip1 -> ip1
I0525 00:45:07.417839 22219 net.cpp:150] Setting up ip1
I0525 00:45:07.417870 22219 net.cpp:157] Top shape: 80 196 (15680)
I0525 00:45:07.417891 22219 net.cpp:165] Memory required for data: 126076480
I0525 00:45:07.417917 22219 layer_factory.hpp:77] Creating layer relu5
I0525 00:45:07.417939 22219 net.cpp:106] Creating Layer relu5
I0525 00:45:07.417963 22219 net.cpp:454] relu5 <- ip1
I0525 00:45:07.417980 22219 net.cpp:397] relu5 -> ip1 (in-place)
I0525 00:45:07.418349 22219 net.cpp:150] Setting up relu5
I0525 00:45:07.418368 22219 net.cpp:157] Top shape: 80 196 (15680)
I0525 00:45:07.418382 22219 net.cpp:165] Memory required for data: 126139200
I0525 00:45:07.418397 22219 layer_factory.hpp:77] Creating layer drop1
I0525 00:45:07.418419 22219 net.cpp:106] Creating Layer drop1
I0525 00:45:07.418432 22219 net.cpp:454] drop1 <- ip1
I0525 00:45:07.418448 22219 net.cpp:397] drop1 -> ip1 (in-place)
I0525 00:45:07.418499 22219 net.cpp:150] Setting up drop1
I0525 00:45:07.418515 22219 net.cpp:157] Top shape: 80 196 (15680)
I0525 00:45:07.418529 22219 net.cpp:165] Memory required for data: 126201920
I0525 00:45:07.418562 22219 layer_factory.hpp:77] Creating layer ip2
I0525 00:45:07.418581 22219 net.cpp:106] Creating Layer ip2
I0525 00:45:07.418592 22219 net.cpp:454] ip2 <- ip1
I0525 00:45:07.418609 22219 net.cpp:411] ip2 -> ip2
I0525 00:45:07.419124 22219 net.cpp:150] Setting up ip2
I0525 00:45:07.419143 22219 net.cpp:157] Top shape: 80 98 (7840)
I0525 00:45:07.419157 22219 net.cpp:165] Memory required for data: 126233280
I0525 00:45:07.419178 22219 layer_factory.hpp:77] Creating layer relu6
I0525 00:45:07.419206 22219 net.cpp:106] Creating Layer relu6
I0525 00:45:07.419219 22219 net.cpp:454] relu6 <- ip2
I0525 00:45:07.419242 22219 net.cpp:397] relu6 -> ip2 (in-place)
I0525 00:45:07.419814 22219 net.cpp:150] Setting up relu6
I0525 00:45:07.419837 22219 net.cpp:157] Top shape: 80 98 (7840)
I0525 00:45:07.419852 22219 net.cpp:165] Memory required for data: 126264640
I0525 00:45:07.419863 22219 layer_factory.hpp:77] Creating layer drop2
I0525 00:45:07.419883 22219 net.cpp:106] Creating Layer drop2
I0525 00:45:07.419904 22219 net.cpp:454] drop2 <- ip2
I0525 00:45:07.419922 22219 net.cpp:397] drop2 -> ip2 (in-place)
I0525 00:45:07.419980 22219 net.cpp:150] Setting up drop2
I0525 00:45:07.419996 22219 net.cpp:157] Top shape: 80 98 (7840)
I0525 00:45:07.420008 22219 net.cpp:165] Memory required for data: 126296000
I0525 00:45:07.420028 22219 layer_factory.hpp:77] Creating layer ip3
I0525 00:45:07.420047 22219 net.cpp:106] Creating Layer ip3
I0525 00:45:07.420059 22219 net.cpp:454] ip3 <- ip2
I0525 00:45:07.420078 22219 net.cpp:411] ip3 -> ip3
I0525 00:45:07.420330 22219 net.cpp:150] Setting up ip3
I0525 00:45:07.420348 22219 net.cpp:157] Top shape: 80 11 (880)
I0525 00:45:07.420361 22219 net.cpp:165] Memory required for data: 126299520
I0525 00:45:07.420383 22219 layer_factory.hpp:77] Creating layer drop3
I0525 00:45:07.420398 22219 net.cpp:106] Creating Layer drop3
I0525 00:45:07.420411 22219 net.cpp:454] drop3 <- ip3
I0525 00:45:07.420429 22219 net.cpp:397] drop3 -> ip3 (in-place)
I0525 00:45:07.420477 22219 net.cpp:150] Setting up drop3
I0525 00:45:07.420509 22219 net.cpp:157] Top shape: 80 11 (880)
I0525 00:45:07.420521 22219 net.cpp:165] Memory required for data: 126303040
I0525 00:45:07.420534 22219 layer_factory.hpp:77] Creating layer ip3_drop3_0_split
I0525 00:45:07.420552 22219 net.cpp:106] Creating Layer ip3_drop3_0_split
I0525 00:45:07.420564 22219 net.cpp:454] ip3_drop3_0_split <- ip3
I0525 00:45:07.420579 22219 net.cpp:411] ip3_drop3_0_split -> ip3_drop3_0_split_0
I0525 00:45:07.420598 22219 net.cpp:411] ip3_drop3_0_split -> ip3_drop3_0_split_1
I0525 00:45:07.420686 22219 net.cpp:150] Setting up ip3_drop3_0_split
I0525 00:45:07.420704 22219 net.cpp:157] Top shape: 80 11 (880)
I0525 00:45:07.420723 22219 net.cpp:157] Top shape: 80 11 (880)
I0525 00:45:07.420747 22219 net.cpp:165] Memory required for data: 126310080
I0525 00:45:07.420759 22219 layer_factory.hpp:77] Creating layer accuracy
I0525 00:45:07.420781 22219 net.cpp:106] Creating Layer accuracy
I0525 00:45:07.420795 22219 net.cpp:454] accuracy <- ip3_drop3_0_split_0
I0525 00:45:07.420814 22219 net.cpp:454] accuracy <- label_data_hdf5_1_split_0
I0525 00:45:07.420842 22219 net.cpp:411] accuracy -> accuracy
…
