…
I0524 18:41:19.802397 20502 net.cpp:322] The NetState phase (0) differed from the phase (1) specified by a rule in layer data_hdf5
I0524 18:41:19.802462 20502 net.cpp:322] The NetState phase (0) differed from the phase (1) specified by a rule in layer accuracy
I0524 18:41:19.802846 20502 net.cpp:49] Initializing net from parameters: 
name: "caffe_test_127x50_x_unshifted"
state {
  phase: TRAIN
}
layer {
  name: "data_hdf5"
  type: "HDF5Data"
  top: "data"
  top: "label"
  include {
    phase: TRAIN
  }
  hdf5_data_param {
    source: "/lustre/atlas/proj-shared/hep105/caffe_titan/minosmatch_nukecczdefs_127x50_x_unshifted_me1Bmc.trainlist"
    batch_size: 80
  }
}
layer {
  name: "conv1"
  type: "Convolution"
  bottom: "data"
  top: "conv1"
  convolution_param {
    num_output: 12
    pad: 0
    stride: 1
    weight_filler {
      type: "xavier"
    }
    bias_filler {
      type: "constant"
    }
    kernel_h: 8
    kernel_w: 3
  }
}
layer {
  name: "relu1"
  type: "ReLU"
  bottom: "conv1"
  top: "conv1"
}
layer {
  name: "pool1"
  type: "Pooling"
  bottom: "conv1"
  top: "pool1"
  pooling_param {
    pool: MAX
    kernel_h: 2
    kernel_w: 1
    stride_h: 2
    stride_w: 1
  }
}
layer {
  name: "conv2"
  type: "Convolution"
  bottom: "pool1"
  top: "conv2"
  convolution_param {
    num_output: 20
    pad: 0
    stride: 1
    weight_filler {
      type: "xavier"
    }
    bias_filler {
      type: "constant"
    }
    kernel_h: 7
    kernel_w: 3
  }
}
layer {
  name: "relu2"
  type: "ReLU"
  bottom: "conv2"
  top: "conv2"
}
layer {
  name: "pool2"
  type: "Pooling"
  bottom: "conv2"
  top: "pool2"
  pooling_param {
    pool: MAX
    kernel_h: 2
    kernel_w: 1
    stride_h: 2
    stride_w: 1
  }
}
layer {
  name: "conv3"
  type: "Convolution"
  bottom: "pool2"
  top: "conv3"
  convolution_param {
    num_output: 28
    pad: 0
    stride: 1
    weight_filler {
      type: "xavier"
    }
    bias_filler {
      type: "constant"
    }
    kernel_h: 6
    kernel_w: 3
  }
}
layer {
  name: "relu3"
  type: "ReLU"
  bottom: "conv3"
  top: "conv3"
}
layer {
  name: "pool3"
  type: "Pooling"
  bottom: "conv3"
  top: "pool3"
  pooling_param {
    pool: MAX
    kernel_h: 2
    kernel_w: 1
    stride_h: 2
    stride_w: 1
  }
}
layer {
  name: "conv4"
  type: "Convolution"
  bottom: "pool3"
  top: "conv4"
  convolution_param {
    num_output: 36
    pad: 0
    stride: 1
    weight_filler {
      type: "xavier"
    }
    bias_filler {
      type: "constant"
    }
    kernel_h: 6
    kernel_w: 3
  }
}
layer {
  name: "relu4"
  type: "ReLU"
  bottom: "conv4"
  top: "conv4"
}
layer {
  name: "pool4"
  type: "Pooling"
  bottom: "conv4"
  top: "pool4"
  pooling_param {
    pool: MAX
    kernel_h: 2
    kernel_w: 1
    stride_h: 2
    stride_w: 1
  }
}
layer {
  name: "ip1"
  type: "InnerProduct"
  bottom: "pool4"
  top: "ip1"
  inner_product_param {
    num_output: 196
    weight_filler {
      type: "xavier"
    }
    bias_filler {
      type: "constant"
    }
  }
}
layer {
  name: "relu5"
  type: "ReLU"
  bottom: "ip1"
  top: "ip1"
}
layer {
  name: "drop1"
  type: "Dropout"
  bottom: "ip1"
  top: "ip1"
  dropout_param {
    dropout_ratio: 0.5
  }
}
layer {
  name: "ip2"
  type: "InnerProduct"
  bottom: "ip1"
  top: "ip2"
  inner_product_param {
    num_output: 98
    weight_filler {
      type: "xavier"
    }
    bias_filler {
      type: "constant"
    }
  }
}
layer {
  name: "relu6"
  type: "ReLU"
  bottom: "ip2"
  top: "ip2"
}
layer {
  name: "drop2"
  type: "Dropout"
  bottom: "ip2"
  top: "ip2"
  dropout_param {
    dropout_ratio: 0.5
  }
}
layer {
  name: "ip3"
  type: "InnerProduct"
  bottom: "ip2"
  top: "ip3"
  inner_product_param {
    num_output: 11
    weight_filler {
      type: "xavier"
    }
    bias_filler {
      type: "constant"
    }
  }
}
layer {
  name: "drop3"
  type: "Dropout"
  bottom: "ip3"
  top: "ip3"
  dropout_param {
    dropout_ratio: 0.5
  }
}
layer {
  name: "loss"
  type: "SoftmaxWithLoss"
  bottom: "ip3"
  bottom: "label"
  top: "loss"
}
I0524 18:41:19.803057 20502 layer_factory.hpp:77] Creating layer data_hdf5
I0524 18:41:19.803094 20502 net.cpp:106] Creating Layer data_hdf5
I0524 18:41:19.803113 20502 net.cpp:411] data_hdf5 -> data
I0524 18:41:19.803145 20502 net.cpp:411] data_hdf5 -> label
I0524 18:41:19.803189 20502 hdf5_data_layer.cpp:79] Loading list of HDF5 filenames from: /lustre/atlas/proj-shared/hep105/caffe_titan/minosmatch_nukecczdefs_127x50_x_unshifted_me1Bmc.trainlist
I0524 18:41:19.804663 20502 hdf5_data_layer.cpp:93] Number of HDF5 files: 15
I0524 18:41:19.807255 20502 hdf5.cpp:32] Datatype class: H5T_FLOAT
I0524 18:41:41.385268 20502 hdf5.cpp:35] Datatype class: H5T_INTEGER
I0524 18:41:41.390566 20502 net.cpp:150] Setting up data_hdf5
I0524 18:41:41.390607 20502 net.cpp:157] Top shape: 80 1 127 50 (508000)
I0524 18:41:41.390625 20502 net.cpp:157] Top shape: 80 (80)
I0524 18:41:41.390637 20502 net.cpp:165] Memory required for data: 2032320
I0524 18:41:41.390657 20502 layer_factory.hpp:77] Creating layer conv1
I0524 18:41:41.390703 20502 net.cpp:106] Creating Layer conv1
I0524 18:41:41.390729 20502 net.cpp:454] conv1 <- data
I0524 18:41:41.390758 20502 net.cpp:411] conv1 -> conv1
I0524 18:41:41.764267 20502 net.cpp:150] Setting up conv1
I0524 18:41:41.764322 20502 net.cpp:157] Top shape: 80 12 120 48 (5529600)
I0524 18:41:41.764338 20502 net.cpp:165] Memory required for data: 24150720
I0524 18:41:41.764367 20502 layer_factory.hpp:77] Creating layer relu1
I0524 18:41:41.764396 20502 net.cpp:106] Creating Layer relu1
I0524 18:41:41.764430 20502 net.cpp:454] relu1 <- conv1
I0524 18:41:41.764446 20502 net.cpp:397] relu1 -> conv1 (in-place)
I0524 18:41:41.765024 20502 net.cpp:150] Setting up relu1
I0524 18:41:41.765048 20502 net.cpp:157] Top shape: 80 12 120 48 (5529600)
I0524 18:41:41.765070 20502 net.cpp:165] Memory required for data: 46269120
I0524 18:41:41.765085 20502 layer_factory.hpp:77] Creating layer pool1
I0524 18:41:41.765105 20502 net.cpp:106] Creating Layer pool1
I0524 18:41:41.765120 20502 net.cpp:454] pool1 <- conv1
I0524 18:41:41.765136 20502 net.cpp:411] pool1 -> pool1
I0524 18:41:41.765236 20502 net.cpp:150] Setting up pool1
I0524 18:41:41.765255 20502 net.cpp:157] Top shape: 80 12 60 48 (2764800)
I0524 18:41:41.765269 20502 net.cpp:165] Memory required for data: 57328320
I0524 18:41:41.765281 20502 layer_factory.hpp:77] Creating layer conv2
I0524 18:41:41.765314 20502 net.cpp:106] Creating Layer conv2
I0524 18:41:41.765329 20502 net.cpp:454] conv2 <- pool1
I0524 18:41:41.765346 20502 net.cpp:411] conv2 -> conv2
I0524 18:41:41.768086 20502 net.cpp:150] Setting up conv2
I0524 18:41:41.768117 20502 net.cpp:157] Top shape: 80 20 54 46 (3974400)
I0524 18:41:41.768133 20502 net.cpp:165] Memory required for data: 73225920
I0524 18:41:41.768162 20502 layer_factory.hpp:77] Creating layer relu2
I0524 18:41:41.768188 20502 net.cpp:106] Creating Layer relu2
I0524 18:41:41.768203 20502 net.cpp:454] relu2 <- conv2
I0524 18:41:41.768218 20502 net.cpp:397] relu2 -> conv2 (in-place)
I0524 18:41:41.768571 20502 net.cpp:150] Setting up relu2
I0524 18:41:41.768671 20502 net.cpp:157] Top shape: 80 20 54 46 (3974400)
I0524 18:41:41.768683 20502 net.cpp:165] Memory required for data: 89123520
I0524 18:41:41.768699 20502 layer_factory.hpp:77] Creating layer pool2
I0524 18:41:41.768721 20502 net.cpp:106] Creating Layer pool2
I0524 18:41:41.768734 20502 net.cpp:454] pool2 <- conv2
I0524 18:41:41.768750 20502 net.cpp:411] pool2 -> pool2
I0524 18:41:41.768847 20502 net.cpp:150] Setting up pool2
I0524 18:41:41.768864 20502 net.cpp:157] Top shape: 80 20 27 46 (1987200)
I0524 18:41:41.768879 20502 net.cpp:165] Memory required for data: 97072320
I0524 18:41:41.768899 20502 layer_factory.hpp:77] Creating layer conv3
I0524 18:41:41.768920 20502 net.cpp:106] Creating Layer conv3
I0524 18:41:41.768940 20502 net.cpp:454] conv3 <- pool2
I0524 18:41:41.768957 20502 net.cpp:411] conv3 -> conv3
I0524 18:41:41.770908 20502 net.cpp:150] Setting up conv3
I0524 18:41:41.770933 20502 net.cpp:157] Top shape: 80 28 22 44 (2168320)
I0524 18:41:41.770953 20502 net.cpp:165] Memory required for data: 105745600
I0524 18:41:41.770977 20502 layer_factory.hpp:77] Creating layer relu3
I0524 18:41:41.770998 20502 net.cpp:106] Creating Layer relu3
I0524 18:41:41.771020 20502 net.cpp:454] relu3 <- conv3
I0524 18:41:41.771037 20502 net.cpp:397] relu3 -> conv3 (in-place)
I0524 18:41:41.771529 20502 net.cpp:150] Setting up relu3
I0524 18:41:41.771554 20502 net.cpp:157] Top shape: 80 28 22 44 (2168320)
I0524 18:41:41.771567 20502 net.cpp:165] Memory required for data: 114418880
I0524 18:41:41.771582 20502 layer_factory.hpp:77] Creating layer pool3
I0524 18:41:41.771598 20502 net.cpp:106] Creating Layer pool3
I0524 18:41:41.771620 20502 net.cpp:454] pool3 <- conv3
I0524 18:41:41.771636 20502 net.cpp:411] pool3 -> pool3
I0524 18:41:41.771718 20502 net.cpp:150] Setting up pool3
I0524 18:41:41.771740 20502 net.cpp:157] Top shape: 80 28 11 44 (1084160)
I0524 18:41:41.771754 20502 net.cpp:165] Memory required for data: 118755520
I0524 18:41:41.771770 20502 layer_factory.hpp:77] Creating layer conv4
I0524 18:41:41.771788 20502 net.cpp:106] Creating Layer conv4
I0524 18:41:41.771801 20502 net.cpp:454] conv4 <- pool3
I0524 18:41:41.771818 20502 net.cpp:411] conv4 -> conv4
I0524 18:41:41.774788 20502 net.cpp:150] Setting up conv4
I0524 18:41:41.774823 20502 net.cpp:157] Top shape: 80 36 6 42 (725760)
I0524 18:41:41.774837 20502 net.cpp:165] Memory required for data: 121658560
I0524 18:41:41.774862 20502 layer_factory.hpp:77] Creating layer relu4
I0524 18:41:41.774878 20502 net.cpp:106] Creating Layer relu4
I0524 18:41:41.774890 20502 net.cpp:454] relu4 <- conv4
I0524 18:41:41.774907 20502 net.cpp:397] relu4 -> conv4 (in-place)
I0524 18:41:41.775406 20502 net.cpp:150] Setting up relu4
I0524 18:41:41.775429 20502 net.cpp:157] Top shape: 80 36 6 42 (725760)
I0524 18:41:41.775444 20502 net.cpp:165] Memory required for data: 124561600
I0524 18:41:41.775455 20502 layer_factory.hpp:77] Creating layer pool4
I0524 18:41:41.775475 20502 net.cpp:106] Creating Layer pool4
I0524 18:41:41.775490 20502 net.cpp:454] pool4 <- conv4
I0524 18:41:41.775506 20502 net.cpp:411] pool4 -> pool4
I0524 18:41:41.775578 20502 net.cpp:150] Setting up pool4
I0524 18:41:41.775595 20502 net.cpp:157] Top shape: 80 36 3 42 (362880)
I0524 18:41:41.775624 20502 net.cpp:165] Memory required for data: 126013120
I0524 18:41:41.775635 20502 layer_factory.hpp:77] Creating layer ip1
I0524 18:41:41.775657 20502 net.cpp:106] Creating Layer ip1
I0524 18:41:41.775671 20502 net.cpp:454] ip1 <- pool4
I0524 18:41:41.775686 20502 net.cpp:411] ip1 -> ip1
I0524 18:41:41.791097 20502 net.cpp:150] Setting up ip1
I0524 18:41:41.791128 20502 net.cpp:157] Top shape: 80 196 (15680)
I0524 18:41:41.791141 20502 net.cpp:165] Memory required for data: 126075840
I0524 18:41:41.791172 20502 layer_factory.hpp:77] Creating layer relu5
I0524 18:41:41.791199 20502 net.cpp:106] Creating Layer relu5
I0524 18:41:41.791213 20502 net.cpp:454] relu5 <- ip1
I0524 18:41:41.791230 20502 net.cpp:397] relu5 -> ip1 (in-place)
I0524 18:41:41.791595 20502 net.cpp:150] Setting up relu5
I0524 18:41:41.791616 20502 net.cpp:157] Top shape: 80 196 (15680)
I0524 18:41:41.791628 20502 net.cpp:165] Memory required for data: 126138560
I0524 18:41:41.791643 20502 layer_factory.hpp:77] Creating layer drop1
I0524 18:41:41.791674 20502 net.cpp:106] Creating Layer drop1
I0524 18:41:41.791688 20502 net.cpp:454] drop1 <- ip1
I0524 18:41:41.791703 20502 net.cpp:397] drop1 -> ip1 (in-place)
I0524 18:41:41.791779 20502 net.cpp:150] Setting up drop1
I0524 18:41:41.791803 20502 net.cpp:157] Top shape: 80 196 (15680)
I0524 18:41:41.791816 20502 net.cpp:165] Memory required for data: 126201280
I0524 18:41:41.791831 20502 layer_factory.hpp:77] Creating layer ip2
I0524 18:41:41.791852 20502 net.cpp:106] Creating Layer ip2
I0524 18:41:41.791865 20502 net.cpp:454] ip2 <- ip1
I0524 18:41:41.791887 20502 net.cpp:411] ip2 -> ip2
I0524 18:41:41.792376 20502 net.cpp:150] Setting up ip2
I0524 18:41:41.792394 20502 net.cpp:157] Top shape: 80 98 (7840)
I0524 18:41:41.792407 20502 net.cpp:165] Memory required for data: 126232640
I0524 18:41:41.792428 20502 layer_factory.hpp:77] Creating layer relu6
I0524 18:41:41.792443 20502 net.cpp:106] Creating Layer relu6
I0524 18:41:41.792462 20502 net.cpp:454] relu6 <- ip2
I0524 18:41:41.792477 20502 net.cpp:397] relu6 -> ip2 (in-place)
I0524 18:41:41.793027 20502 net.cpp:150] Setting up relu6
I0524 18:41:41.793051 20502 net.cpp:157] Top shape: 80 98 (7840)
I0524 18:41:41.793063 20502 net.cpp:165] Memory required for data: 126264000
I0524 18:41:41.793078 20502 layer_factory.hpp:77] Creating layer drop2
I0524 18:41:41.793094 20502 net.cpp:106] Creating Layer drop2
I0524 18:41:41.793114 20502 net.cpp:454] drop2 <- ip2
I0524 18:41:41.793130 20502 net.cpp:397] drop2 -> ip2 (in-place)
I0524 18:41:41.793181 20502 net.cpp:150] Setting up drop2
I0524 18:41:41.793203 20502 net.cpp:157] Top shape: 80 98 (7840)
I0524 18:41:41.793216 20502 net.cpp:165] Memory required for data: 126295360
I0524 18:41:41.793229 20502 layer_factory.hpp:77] Creating layer ip3
I0524 18:41:41.793248 20502 net.cpp:106] Creating Layer ip3
I0524 18:41:41.793261 20502 net.cpp:454] ip3 <- ip2
I0524 18:41:41.793282 20502 net.cpp:411] ip3 -> ip3
I0524 18:41:41.793504 20502 net.cpp:150] Setting up ip3
I0524 18:41:41.793524 20502 net.cpp:157] Top shape: 80 11 (880)
I0524 18:41:41.793536 20502 net.cpp:165] Memory required for data: 126298880
I0524 18:41:41.793556 20502 layer_factory.hpp:77] Creating layer drop3
I0524 18:41:41.793578 20502 net.cpp:106] Creating Layer drop3
I0524 18:41:41.793591 20502 net.cpp:454] drop3 <- ip3
I0524 18:41:41.793607 20502 net.cpp:397] drop3 -> ip3 (in-place)
I0524 18:41:41.793653 20502 net.cpp:150] Setting up drop3
I0524 18:41:41.793675 20502 net.cpp:157] Top shape: 80 11 (880)
I0524 18:41:41.793689 20502 net.cpp:165] Memory required for data: 126302400
I0524 18:41:41.793709 20502 layer_factory.hpp:77] Creating layer loss
I0524 18:41:41.793730 20502 net.cpp:106] Creating Layer loss
I0524 18:41:41.793745 20502 net.cpp:454] loss <- ip3
I0524 18:41:41.793764 20502 net.cpp:454] loss <- label
I0524 18:41:41.793781 20502 net.cpp:411] loss -> loss
I0524 18:41:41.793799 20502 layer_factory.hpp:77] Creating layer loss
…
I0524 18:41:41.796648 20502 solver.cpp:181] Creating test net (#0) specified by net file: /lustre/atlas/proj-shared/hep105/caffe_titan/caffe_workflow/logs_bslr/bs_80_lr_0.0010_2016-05-20T15.49.16.778830.prototxt
I0524 18:41:41.796727 20502 net.cpp:322] The NetState phase (1) differed from the phase (0) specified by a rule in layer data_hdf5
I0524 18:41:41.797101 20502 net.cpp:49] Initializing net from parameters: 
name: "caffe_test_127x50_x_unshifted"
state {
  phase: TEST
}
layer {
  name: "data_hdf5"
  type: "HDF5Data"
  top: "data"
  top: "label"
  include {
    phase: TEST
  }
  hdf5_data_param {
    source: "/lustre/atlas/proj-shared/hep105/caffe_titan/minosmatch_nukecczdefs_127x50_x_unshifted_me1Bmc.testlist"
    batch_size: 80
  }
}
layer {
  name: "conv1"
  type: "Convolution"
  bottom: "data"
  top: "conv1"
  convolution_param {
    num_output: 12
    pad: 0
    stride: 1
    weight_filler {
      type: "xavier"
    }
    bias_filler {
      type: "constant"
    }
    kernel_h: 8
    kernel_w: 3
  }
}
layer {
  name: "relu1"
  type: "ReLU"
  bottom: "conv1"
  top: "conv1"
}
layer {
  name: "pool1"
  type: "Pooling"
  bottom: "conv1"
  top: "pool1"
  pooling_param {
    pool: MAX
    kernel_h: 2
    kernel_w: 1
    stride_h: 2
    stride_w: 1
  }
}
layer {
  name: "conv2"
  type: "Convolution"
  bottom: "pool1"
  top: "conv2"
  convolution_param {
    num_output: 20
    pad: 0
    stride: 1
    weight_filler {
      type: "xavier"
    }
    bias_filler {
      type: "constant"
    }
    kernel_h: 7
    kernel_w: 3
  }
}
layer {
  name: "relu2"
  type: "ReLU"
  bottom: "conv2"
  top: "conv2"
}
layer {
  name: "pool2"
  type: "Pooling"
  bottom: "conv2"
  top: "pool2"
  pooling_param {
    pool: MAX
    kernel_h: 2
    kernel_w: 1
    stride_h: 2
    stride_w: 1
  }
}
layer {
  name: "conv3"
  type: "Convolution"
  bottom: "pool2"
  top: "conv3"
  convolution_param {
    num_output: 28
    pad: 0
    stride: 1
    weight_filler {
      type: "xavier"
    }
    bias_filler {
      type: "constant"
    }
    kernel_h: 6
    kernel_w: 3
  }
}
layer {
  name: "relu3"
  type: "ReLU"
  bottom: "conv3"
  top: "conv3"
}
layer {
  name: "pool3"
  type: "Pooling"
  bottom: "conv3"
  top: "pool3"
  pooling_param {
    pool: MAX
    kernel_h: 2
    kernel_w: 1
    stride_h: 2
    stride_w: 1
  }
}
layer {
  name: "conv4"
  type: "Convolution"
  bottom: "pool3"
  top: "conv4"
  convolution_param {
    num_output: 36
    pad: 0
    stride: 1
    weight_filler {
      type: "xavier"
    }
    bias_filler {
      type: "constant"
    }
    kernel_h: 6
    kernel_w: 3
  }
}
layer {
  name: "relu4"
  type: "ReLU"
  bottom: "conv4"
  top: "conv4"
}
layer {
  name: "pool4"
  type: "Pooling"
  bottom: "conv4"
  top: "pool4"
  pooling_param {
    pool: MAX
    kernel_h: 2
    kernel_w: 1
    stride_h: 2
    stride_w: 1
  }
}
layer {
  name: "ip1"
  type: "InnerProduct"
  bottom: "pool4"
  top: "ip1"
  inner_product_param {
    num_output: 196
    weight_filler {
      type: "xavier"
    }
    bias_filler {
      type: "constant"
    }
  }
}
layer {
  name: "relu5"
  type: "ReLU"
  bottom: "ip1"
  top: "ip1"
}
layer {
  name: "drop1"
  type: "Dropout"
  bottom: "ip1"
  top: "ip1"
  dropout_param {
    dropout_ratio: 0.5
  }
}
layer {
  name: "ip2"
  type: "InnerProduct"
  bottom: "ip1"
  top: "ip2"
  inner_product_param {
    num_output: 98
    weight_filler {
      type: "xavier"
    }
    bias_filler {
      type: "constant"
    }
  }
}
layer {
  name: "relu6"
  type: "ReLU"
  bottom: "ip2"
  top: "ip2"
}
layer {
  name: "drop2"
  type: "Dropout"
  bottom: "ip2"
  top: "ip2"
  dropout_param {
    dropout_ratio: 0.5
  }
}
layer {
  name: "ip3"
  type: "InnerProduct"
  bottom: "ip2"
  top: "ip3"
  inner_product_param {
    num_output: 11
    weight_filler {
      type: "xavier"
    }
    bias_filler {
      type: "constant"
    }
  }
}
layer {
  name: "drop3"
  type: "Dropout"
  bottom: "ip3"
  top: "ip3"
  dropout_param {
    dropout_ratio: 0.5
  }
}
layer {
  name: "accuracy"
  type: "Accuracy"
  bottom: "ip3"
  bottom: "label"
  top: "accuracy"
  include {
    phase: TEST
  }
}
layer {
  name: "loss"
  type: "SoftmaxWithLoss"
  bottom: "ip3"
  bottom: "label"
  top: "loss"
}
I0524 18:41:41.797303 20502 layer_factory.hpp:77] Creating layer data_hdf5
I0524 18:41:41.797322 20502 net.cpp:106] Creating Layer data_hdf5
I0524 18:41:41.797338 20502 net.cpp:411] data_hdf5 -> data
I0524 18:41:41.797358 20502 net.cpp:411] data_hdf5 -> label
I0524 18:41:41.797376 20502 hdf5_data_layer.cpp:79] Loading list of HDF5 filenames from: /lustre/atlas/proj-shared/hep105/caffe_titan/minosmatch_nukecczdefs_127x50_x_unshifted_me1Bmc.testlist
I0524 18:41:41.798868 20502 hdf5_data_layer.cpp:93] Number of HDF5 files: 3
I0524 18:42:03.040935 20502 net.cpp:150] Setting up data_hdf5
I0524 18:42:03.041100 20502 net.cpp:157] Top shape: 80 1 127 50 (508000)
I0524 18:42:03.041121 20502 net.cpp:157] Top shape: 80 (80)
I0524 18:42:03.041132 20502 net.cpp:165] Memory required for data: 2032320
I0524 18:42:03.041147 20502 layer_factory.hpp:77] Creating layer label_data_hdf5_1_split
I0524 18:42:03.041174 20502 net.cpp:106] Creating Layer label_data_hdf5_1_split
I0524 18:42:03.041193 20502 net.cpp:454] label_data_hdf5_1_split <- label
I0524 18:42:03.041229 20502 net.cpp:411] label_data_hdf5_1_split -> label_data_hdf5_1_split_0
I0524 18:42:03.041252 20502 net.cpp:411] label_data_hdf5_1_split -> label_data_hdf5_1_split_1
I0524 18:42:03.041339 20502 net.cpp:150] Setting up label_data_hdf5_1_split
I0524 18:42:03.041357 20502 net.cpp:157] Top shape: 80 (80)
I0524 18:42:03.041373 20502 net.cpp:157] Top shape: 80 (80)
I0524 18:42:03.041394 20502 net.cpp:165] Memory required for data: 2032960
I0524 18:42:03.041406 20502 layer_factory.hpp:77] Creating layer conv1
I0524 18:42:03.041432 20502 net.cpp:106] Creating Layer conv1
I0524 18:42:03.041451 20502 net.cpp:454] conv1 <- data
I0524 18:42:03.041470 20502 net.cpp:411] conv1 -> conv1
I0524 18:42:03.043447 20502 net.cpp:150] Setting up conv1
I0524 18:42:03.043473 20502 net.cpp:157] Top shape: 80 12 120 48 (5529600)
I0524 18:42:03.043493 20502 net.cpp:165] Memory required for data: 24151360
I0524 18:42:03.043516 20502 layer_factory.hpp:77] Creating layer relu1
I0524 18:42:03.043537 20502 net.cpp:106] Creating Layer relu1
I0524 18:42:03.043560 20502 net.cpp:454] relu1 <- conv1
I0524 18:42:03.043576 20502 net.cpp:397] relu1 -> conv1 (in-place)
I0524 18:42:03.044088 20502 net.cpp:150] Setting up relu1
I0524 18:42:03.044111 20502 net.cpp:157] Top shape: 80 12 120 48 (5529600)
I0524 18:42:03.044124 20502 net.cpp:165] Memory required for data: 46269760
I0524 18:42:03.044137 20502 layer_factory.hpp:77] Creating layer pool1
I0524 18:42:03.044158 20502 net.cpp:106] Creating Layer pool1
I0524 18:42:03.044180 20502 net.cpp:454] pool1 <- conv1
I0524 18:42:03.044198 20502 net.cpp:411] pool1 -> pool1
I0524 18:42:03.044286 20502 net.cpp:150] Setting up pool1
I0524 18:42:03.044303 20502 net.cpp:157] Top shape: 80 12 60 48 (2764800)
I0524 18:42:03.044318 20502 net.cpp:165] Memory required for data: 57328960
I0524 18:42:03.044337 20502 layer_factory.hpp:77] Creating layer conv2
I0524 18:42:03.044358 20502 net.cpp:106] Creating Layer conv2
I0524 18:42:03.044370 20502 net.cpp:454] conv2 <- pool1
I0524 18:42:03.044387 20502 net.cpp:411] conv2 -> conv2
I0524 18:42:03.046334 20502 net.cpp:150] Setting up conv2
I0524 18:42:03.046358 20502 net.cpp:157] Top shape: 80 20 54 46 (3974400)
I0524 18:42:03.046380 20502 net.cpp:165] Memory required for data: 73226560
I0524 18:42:03.046401 20502 layer_factory.hpp:77] Creating layer relu2
I0524 18:42:03.046421 20502 net.cpp:106] Creating Layer relu2
I0524 18:42:03.046442 20502 net.cpp:454] relu2 <- conv2
I0524 18:42:03.046459 20502 net.cpp:397] relu2 -> conv2 (in-place)
I0524 18:42:03.046816 20502 net.cpp:150] Setting up relu2
I0524 18:42:03.046838 20502 net.cpp:157] Top shape: 80 20 54 46 (3974400)
I0524 18:42:03.046849 20502 net.cpp:165] Memory required for data: 89124160
I0524 18:42:03.046861 20502 layer_factory.hpp:77] Creating layer pool2
I0524 18:42:03.046887 20502 net.cpp:106] Creating Layer pool2
I0524 18:42:03.046900 20502 net.cpp:454] pool2 <- conv2
I0524 18:42:03.046916 20502 net.cpp:411] pool2 -> pool2
I0524 18:42:03.047008 20502 net.cpp:150] Setting up pool2
I0524 18:42:03.047026 20502 net.cpp:157] Top shape: 80 20 27 46 (1987200)
I0524 18:42:03.047045 20502 net.cpp:165] Memory required for data: 97072960
I0524 18:42:03.047058 20502 layer_factory.hpp:77] Creating layer conv3
I0524 18:42:03.047083 20502 net.cpp:106] Creating Layer conv3
I0524 18:42:03.047102 20502 net.cpp:454] conv3 <- pool2
I0524 18:42:03.047119 20502 net.cpp:411] conv3 -> conv3
I0524 18:42:03.049125 20502 net.cpp:150] Setting up conv3
I0524 18:42:03.049154 20502 net.cpp:157] Top shape: 80 28 22 44 (2168320)
I0524 18:42:03.049167 20502 net.cpp:165] Memory required for data: 105746240
I0524 18:42:03.049206 20502 layer_factory.hpp:77] Creating layer relu3
I0524 18:42:03.049232 20502 net.cpp:106] Creating Layer relu3
I0524 18:42:03.049245 20502 net.cpp:454] relu3 <- conv3
I0524 18:42:03.049262 20502 net.cpp:397] relu3 -> conv3 (in-place)
I0524 18:42:03.049753 20502 net.cpp:150] Setting up relu3
I0524 18:42:03.049777 20502 net.cpp:157] Top shape: 80 28 22 44 (2168320)
I0524 18:42:03.049790 20502 net.cpp:165] Memory required for data: 114419520
I0524 18:42:03.049805 20502 layer_factory.hpp:77] Creating layer pool3
I0524 18:42:03.049821 20502 net.cpp:106] Creating Layer pool3
I0524 18:42:03.049844 20502 net.cpp:454] pool3 <- conv3
I0524 18:42:03.049860 20502 net.cpp:411] pool3 -> pool3
I0524 18:42:03.049945 20502 net.cpp:150] Setting up pool3
I0524 18:42:03.049963 20502 net.cpp:157] Top shape: 80 28 11 44 (1084160)
I0524 18:42:03.049978 20502 net.cpp:165] Memory required for data: 118756160
I0524 18:42:03.049990 20502 layer_factory.hpp:77] Creating layer conv4
I0524 18:42:03.050019 20502 net.cpp:106] Creating Layer conv4
I0524 18:42:03.050031 20502 net.cpp:454] conv4 <- pool3
I0524 18:42:03.050048 20502 net.cpp:411] conv4 -> conv4
I0524 18:42:03.052160 20502 net.cpp:150] Setting up conv4
I0524 18:42:03.052184 20502 net.cpp:157] Top shape: 80 36 6 42 (725760)
I0524 18:42:03.052206 20502 net.cpp:165] Memory required for data: 121659200
I0524 18:42:03.052224 20502 layer_factory.hpp:77] Creating layer relu4
I0524 18:42:03.052244 20502 net.cpp:106] Creating Layer relu4
I0524 18:42:03.052258 20502 net.cpp:454] relu4 <- conv4
I0524 18:42:03.052284 20502 net.cpp:397] relu4 -> conv4 (in-place)
I0524 18:42:03.052772 20502 net.cpp:150] Setting up relu4
I0524 18:42:03.052795 20502 net.cpp:157] Top shape: 80 36 6 42 (725760)
I0524 18:42:03.052809 20502 net.cpp:165] Memory required for data: 124562240
I0524 18:42:03.052824 20502 layer_factory.hpp:77] Creating layer pool4
I0524 18:42:03.052840 20502 net.cpp:106] Creating Layer pool4
I0524 18:42:03.052853 20502 net.cpp:454] pool4 <- conv4
I0524 18:42:03.052878 20502 net.cpp:411] pool4 -> pool4
I0524 18:42:03.052956 20502 net.cpp:150] Setting up pool4
I0524 18:42:03.052985 20502 net.cpp:157] Top shape: 80 36 3 42 (362880)
I0524 18:42:03.052997 20502 net.cpp:165] Memory required for data: 126013760
I0524 18:42:03.053012 20502 layer_factory.hpp:77] Creating layer ip1
I0524 18:42:03.053030 20502 net.cpp:106] Creating Layer ip1
I0524 18:42:03.053043 20502 net.cpp:454] ip1 <- pool4
I0524 18:42:03.053066 20502 net.cpp:411] ip1 -> ip1
I0524 18:42:03.068439 20502 net.cpp:150] Setting up ip1
I0524 18:42:03.068472 20502 net.cpp:157] Top shape: 80 196 (15680)
I0524 18:42:03.068493 20502 net.cpp:165] Memory required for data: 126076480
I0524 18:42:03.068519 20502 layer_factory.hpp:77] Creating layer relu5
I0524 18:42:03.068542 20502 net.cpp:106] Creating Layer relu5
I0524 18:42:03.068567 20502 net.cpp:454] relu5 <- ip1
I0524 18:42:03.068583 20502 net.cpp:397] relu5 -> ip1 (in-place)
I0524 18:42:03.068949 20502 net.cpp:150] Setting up relu5
I0524 18:42:03.068969 20502 net.cpp:157] Top shape: 80 196 (15680)
I0524 18:42:03.068982 20502 net.cpp:165] Memory required for data: 126139200
I0524 18:42:03.068997 20502 layer_factory.hpp:77] Creating layer drop1
I0524 18:42:03.069025 20502 net.cpp:106] Creating Layer drop1
I0524 18:42:03.069041 20502 net.cpp:454] drop1 <- ip1
I0524 18:42:03.069056 20502 net.cpp:397] drop1 -> ip1 (in-place)
I0524 18:42:03.069118 20502 net.cpp:150] Setting up drop1
I0524 18:42:03.069135 20502 net.cpp:157] Top shape: 80 196 (15680)
I0524 18:42:03.069154 20502 net.cpp:165] Memory required for data: 126201920
I0524 18:42:03.069166 20502 layer_factory.hpp:77] Creating layer ip2
I0524 18:42:03.069183 20502 net.cpp:106] Creating Layer ip2
I0524 18:42:03.069198 20502 net.cpp:454] ip2 <- ip1
I0524 18:42:03.069222 20502 net.cpp:411] ip2 -> ip2
I0524 18:42:03.069717 20502 net.cpp:150] Setting up ip2
I0524 18:42:03.069736 20502 net.cpp:157] Top shape: 80 98 (7840)
I0524 18:42:03.069749 20502 net.cpp:165] Memory required for data: 126233280
I0524 18:42:03.069771 20502 layer_factory.hpp:77] Creating layer relu6
I0524 18:42:03.069805 20502 net.cpp:106] Creating Layer relu6
I0524 18:42:03.069818 20502 net.cpp:454] relu6 <- ip2
I0524 18:42:03.069834 20502 net.cpp:397] relu6 -> ip2 (in-place)
I0524 18:42:03.070401 20502 net.cpp:150] Setting up relu6
I0524 18:42:03.070425 20502 net.cpp:157] Top shape: 80 98 (7840)
I0524 18:42:03.070438 20502 net.cpp:165] Memory required for data: 126264640
I0524 18:42:03.070451 20502 layer_factory.hpp:77] Creating layer drop2
I0524 18:42:03.070471 20502 net.cpp:106] Creating Layer drop2
I0524 18:42:03.070492 20502 net.cpp:454] drop2 <- ip2
I0524 18:42:03.070509 20502 net.cpp:397] drop2 -> ip2 (in-place)
I0524 18:42:03.070566 20502 net.cpp:150] Setting up drop2
I0524 18:42:03.070588 20502 net.cpp:157] Top shape: 80 98 (7840)
I0524 18:42:03.070601 20502 net.cpp:165] Memory required for data: 126296000
I0524 18:42:03.070613 20502 layer_factory.hpp:77] Creating layer ip3
I0524 18:42:03.070632 20502 net.cpp:106] Creating Layer ip3
I0524 18:42:03.070644 20502 net.cpp:454] ip3 <- ip2
I0524 18:42:03.070664 20502 net.cpp:411] ip3 -> ip3
I0524 18:42:03.070917 20502 net.cpp:150] Setting up ip3
I0524 18:42:03.070937 20502 net.cpp:157] Top shape: 80 11 (880)
I0524 18:42:03.070950 20502 net.cpp:165] Memory required for data: 126299520
I0524 18:42:03.070967 20502 layer_factory.hpp:77] Creating layer drop3
I0524 18:42:03.070987 20502 net.cpp:106] Creating Layer drop3
I0524 18:42:03.071007 20502 net.cpp:454] drop3 <- ip3
I0524 18:42:03.071023 20502 net.cpp:397] drop3 -> ip3 (in-place)
I0524 18:42:03.071069 20502 net.cpp:150] Setting up drop3
I0524 18:42:03.071087 20502 net.cpp:157] Top shape: 80 11 (880)
I0524 18:42:03.071106 20502 net.cpp:165] Memory required for data: 126303040
I0524 18:42:03.071118 20502 layer_factory.hpp:77] Creating layer ip3_drop3_0_split
I0524 18:42:03.071135 20502 net.cpp:106] Creating Layer ip3_drop3_0_split
I0524 18:42:03.071147 20502 net.cpp:454] ip3_drop3_0_split <- ip3
I0524 18:42:03.071166 20502 net.cpp:411] ip3_drop3_0_split -> ip3_drop3_0_split_0
I0524 18:42:03.071189 20502 net.cpp:411] ip3_drop3_0_split -> ip3_drop3_0_split_1
I0524 18:42:03.071275 20502 net.cpp:150] Setting up ip3_drop3_0_split
I0524 18:42:03.071292 20502 net.cpp:157] Top shape: 80 11 (880)
I0524 18:42:03.071307 20502 net.cpp:157] Top shape: 80 11 (880)
I0524 18:42:03.071321 20502 net.cpp:165] Memory required for data: 126310080
I0524 18:42:03.071332 20502 layer_factory.hpp:77] Creating layer accuracy
I0524 18:42:03.071364 20502 net.cpp:106] Creating Layer accuracy
I0524 18:42:03.071377 20502 net.cpp:454] accuracy <- ip3_drop3_0_split_0
I0524 18:42:03.071393 20502 net.cpp:454] accuracy <- label_data_hdf5_1_split_0
I0524 18:42:03.071408 20502 net.cpp:411] accuracy -> accuracy
…
