…
I0524 18:41:20.253967 17599 net.cpp:322] The NetState phase (0) differed from the phase (1) specified by a rule in layer data_hdf5
I0524 18:41:20.254031 17599 net.cpp:322] The NetState phase (0) differed from the phase (1) specified by a rule in layer accuracy
I0524 18:41:20.254407 17599 net.cpp:49] Initializing net from parameters: 
name: "caffe_test_127x50_x_unshifted"
state {
  phase: TRAIN
}
layer {
  name: "data_hdf5"
  type: "HDF5Data"
  top: "data"
  top: "label"
  include {
    phase: TRAIN
  }
  hdf5_data_param {
    source: "/lustre/atlas/proj-shared/hep105/caffe_titan/minosmatch_nukecczdefs_127x50_x_unshifted_me1Bmc.trainlist"
    batch_size: 80
  }
}
layer {
  name: "conv1"
  type: "Convolution"
  bottom: "data"
  top: "conv1"
  convolution_param {
    num_output: 12
    pad: 0
    stride: 1
    weight_filler {
      type: "xavier"
    }
    bias_filler {
      type: "constant"
    }
    kernel_h: 8
    kernel_w: 3
  }
}
layer {
  name: "relu1"
  type: "ReLU"
  bottom: "conv1"
  top: "conv1"
}
layer {
  name: "pool1"
  type: "Pooling"
  bottom: "conv1"
  top: "pool1"
  pooling_param {
    pool: MAX
    kernel_h: 2
    kernel_w: 1
    stride_h: 2
    stride_w: 1
  }
}
layer {
  name: "conv2"
  type: "Convolution"
  bottom: "pool1"
  top: "conv2"
  convolution_param {
    num_output: 20
    pad: 0
    stride: 1
    weight_filler {
      type: "xavier"
    }
    bias_filler {
      type: "constant"
    }
    kernel_h: 7
    kernel_w: 3
  }
}
layer {
  name: "relu2"
  type: "ReLU"
  bottom: "conv2"
  top: "conv2"
}
layer {
  name: "pool2"
  type: "Pooling"
  bottom: "conv2"
  top: "pool2"
  pooling_param {
    pool: MAX
    kernel_h: 2
    kernel_w: 1
    stride_h: 2
    stride_w: 1
  }
}
layer {
  name: "conv3"
  type: "Convolution"
  bottom: "pool2"
  top: "conv3"
  convolution_param {
    num_output: 28
    pad: 0
    stride: 1
    weight_filler {
      type: "xavier"
    }
    bias_filler {
      type: "constant"
    }
    kernel_h: 6
    kernel_w: 3
  }
}
layer {
  name: "relu3"
  type: "ReLU"
  bottom: "conv3"
  top: "conv3"
}
layer {
  name: "pool3"
  type: "Pooling"
  bottom: "conv3"
  top: "pool3"
  pooling_param {
    pool: MAX
    kernel_h: 2
    kernel_w: 1
    stride_h: 2
    stride_w: 1
  }
}
layer {
  name: "conv4"
  type: "Convolution"
  bottom: "pool3"
  top: "conv4"
  convolution_param {
    num_output: 36
    pad: 0
    stride: 1
    weight_filler {
      type: "xavier"
    }
    bias_filler {
      type: "constant"
    }
    kernel_h: 6
    kernel_w: 3
  }
}
layer {
  name: "relu4"
  type: "ReLU"
  bottom: "conv4"
  top: "conv4"
}
layer {
  name: "pool4"
  type: "Pooling"
  bottom: "conv4"
  top: "pool4"
  pooling_param {
    pool: MAX
    kernel_h: 2
    kernel_w: 1
    stride_h: 2
    stride_w: 1
  }
}
layer {
  name: "ip1"
  type: "InnerProduct"
  bottom: "pool4"
  top: "ip1"
  inner_product_param {
    num_output: 196
    weight_filler {
      type: "xavier"
    }
    bias_filler {
      type: "constant"
    }
  }
}
layer {
  name: "relu5"
  type: "ReLU"
  bottom: "ip1"
  top: "ip1"
}
layer {
  name: "drop1"
  type: "Dropout"
  bottom: "ip1"
  top: "ip1"
  dropout_param {
    dropout_ratio: 0.5
  }
}
layer {
  name: "ip2"
  type: "InnerProduct"
  bottom: "ip1"
  top: "ip2"
  inner_product_param {
    num_output: 98
    weight_filler {
      type: "xavier"
    }
    bias_filler {
      type: "constant"
    }
  }
}
layer {
  name: "relu6"
  type: "ReLU"
  bottom: "ip2"
  top: "ip2"
}
layer {
  name: "drop2"
  type: "Dropout"
  bottom: "ip2"
  top: "ip2"
  dropout_param {
    dropout_ratio: 0.5
  }
}
layer {
  name: "ip3"
  type: "InnerProduct"
  bottom: "ip2"
  top: "ip3"
  inner_product_param {
    num_output: 11
    weight_filler {
      type: "xavier"
    }
    bias_filler {
      type: "constant"
    }
  }
}
layer {
  name: "drop3"
  type: "Dropout"
  bottom: "ip3"
  top: "ip3"
  dropout_param {
    dropout_ratio: 0.5
  }
}
layer {
  name: "loss"
  type: "SoftmaxWithLoss"
  bottom: "ip3"
  bottom: "label"
  top: "loss"
}
I0524 18:41:20.254611 17599 layer_factory.hpp:77] Creating layer data_hdf5
I0524 18:41:20.254647 17599 net.cpp:106] Creating Layer data_hdf5
I0524 18:41:20.254665 17599 net.cpp:411] data_hdf5 -> data
I0524 18:41:20.254698 17599 net.cpp:411] data_hdf5 -> label
I0524 18:41:20.254740 17599 hdf5_data_layer.cpp:79] Loading list of HDF5 filenames from: /lustre/atlas/proj-shared/hep105/caffe_titan/minosmatch_nukecczdefs_127x50_x_unshifted_me1Bmc.trainlist
I0524 18:41:20.256199 17599 hdf5_data_layer.cpp:93] Number of HDF5 files: 15
I0524 18:41:20.258546 17599 hdf5.cpp:32] Datatype class: H5T_FLOAT
I0524 18:41:41.802369 17599 hdf5.cpp:35] Datatype class: H5T_INTEGER
I0524 18:41:41.807940 17599 net.cpp:150] Setting up data_hdf5
I0524 18:41:41.807979 17599 net.cpp:157] Top shape: 80 1 127 50 (508000)
I0524 18:41:41.807997 17599 net.cpp:157] Top shape: 80 (80)
I0524 18:41:41.808010 17599 net.cpp:165] Memory required for data: 2032320
I0524 18:41:41.808029 17599 layer_factory.hpp:77] Creating layer conv1
I0524 18:41:41.808074 17599 net.cpp:106] Creating Layer conv1
I0524 18:41:41.808089 17599 net.cpp:454] conv1 <- data
I0524 18:41:41.808114 17599 net.cpp:411] conv1 -> conv1
I0524 18:41:42.185225 17599 net.cpp:150] Setting up conv1
I0524 18:41:42.185279 17599 net.cpp:157] Top shape: 80 12 120 48 (5529600)
I0524 18:41:42.185295 17599 net.cpp:165] Memory required for data: 24150720
I0524 18:41:42.185325 17599 layer_factory.hpp:77] Creating layer relu1
I0524 18:41:42.185354 17599 net.cpp:106] Creating Layer relu1
I0524 18:41:42.185387 17599 net.cpp:454] relu1 <- conv1
I0524 18:41:42.185403 17599 net.cpp:397] relu1 -> conv1 (in-place)
I0524 18:41:42.185930 17599 net.cpp:150] Setting up relu1
I0524 18:41:42.185953 17599 net.cpp:157] Top shape: 80 12 120 48 (5529600)
I0524 18:41:42.185966 17599 net.cpp:165] Memory required for data: 46269120
I0524 18:41:42.185983 17599 layer_factory.hpp:77] Creating layer pool1
I0524 18:41:42.186010 17599 net.cpp:106] Creating Layer pool1
I0524 18:41:42.186023 17599 net.cpp:454] pool1 <- conv1
I0524 18:41:42.186040 17599 net.cpp:411] pool1 -> pool1
I0524 18:41:42.186133 17599 net.cpp:150] Setting up pool1
I0524 18:41:42.186151 17599 net.cpp:157] Top shape: 80 12 60 48 (2764800)
I0524 18:41:42.186167 17599 net.cpp:165] Memory required for data: 57328320
I0524 18:41:42.186185 17599 layer_factory.hpp:77] Creating layer conv2
I0524 18:41:42.186209 17599 net.cpp:106] Creating Layer conv2
I0524 18:41:42.186230 17599 net.cpp:454] conv2 <- pool1
I0524 18:41:42.186246 17599 net.cpp:411] conv2 -> conv2
I0524 18:41:42.188982 17599 net.cpp:150] Setting up conv2
I0524 18:41:42.189018 17599 net.cpp:157] Top shape: 80 20 54 46 (3974400)
I0524 18:41:42.189033 17599 net.cpp:165] Memory required for data: 73225920
I0524 18:41:42.189059 17599 layer_factory.hpp:77] Creating layer relu2
I0524 18:41:42.189088 17599 net.cpp:106] Creating Layer relu2
I0524 18:41:42.189102 17599 net.cpp:454] relu2 <- conv2
I0524 18:41:42.189118 17599 net.cpp:397] relu2 -> conv2 (in-place)
I0524 18:41:42.189474 17599 net.cpp:150] Setting up relu2
I0524 18:41:42.189496 17599 net.cpp:157] Top shape: 80 20 54 46 (3974400)
I0524 18:41:42.189508 17599 net.cpp:165] Memory required for data: 89123520
I0524 18:41:42.189522 17599 layer_factory.hpp:77] Creating layer pool2
I0524 18:41:42.189548 17599 net.cpp:106] Creating Layer pool2
I0524 18:41:42.189561 17599 net.cpp:454] pool2 <- conv2
I0524 18:41:42.189576 17599 net.cpp:411] pool2 -> pool2
I0524 18:41:42.189671 17599 net.cpp:150] Setting up pool2
I0524 18:41:42.189689 17599 net.cpp:157] Top shape: 80 20 27 46 (1987200)
I0524 18:41:42.189704 17599 net.cpp:165] Memory required for data: 97072320
I0524 18:41:42.189723 17599 layer_factory.hpp:77] Creating layer conv3
I0524 18:41:42.189743 17599 net.cpp:106] Creating Layer conv3
I0524 18:41:42.189765 17599 net.cpp:454] conv3 <- pool2
I0524 18:41:42.189782 17599 net.cpp:411] conv3 -> conv3
I0524 18:41:42.191721 17599 net.cpp:150] Setting up conv3
I0524 18:41:42.191745 17599 net.cpp:157] Top shape: 80 28 22 44 (2168320)
I0524 18:41:42.191766 17599 net.cpp:165] Memory required for data: 105745600
I0524 18:41:42.191789 17599 layer_factory.hpp:77] Creating layer relu3
I0524 18:41:42.191820 17599 net.cpp:106] Creating Layer relu3
I0524 18:41:42.191834 17599 net.cpp:454] relu3 <- conv3
I0524 18:41:42.191850 17599 net.cpp:397] relu3 -> conv3 (in-place)
I0524 18:41:42.192333 17599 net.cpp:150] Setting up relu3
I0524 18:41:42.192358 17599 net.cpp:157] Top shape: 80 28 22 44 (2168320)
I0524 18:41:42.192370 17599 net.cpp:165] Memory required for data: 114418880
I0524 18:41:42.192386 17599 layer_factory.hpp:77] Creating layer pool3
I0524 18:41:42.192410 17599 net.cpp:106] Creating Layer pool3
I0524 18:41:42.192425 17599 net.cpp:454] pool3 <- conv3
I0524 18:41:42.192440 17599 net.cpp:411] pool3 -> pool3
I0524 18:41:42.192520 17599 net.cpp:150] Setting up pool3
I0524 18:41:42.192543 17599 net.cpp:157] Top shape: 80 28 11 44 (1084160)
I0524 18:41:42.192556 17599 net.cpp:165] Memory required for data: 118755520
I0524 18:41:42.192571 17599 layer_factory.hpp:77] Creating layer conv4
I0524 18:41:42.192597 17599 net.cpp:106] Creating Layer conv4
I0524 18:41:42.192610 17599 net.cpp:454] conv4 <- pool3
I0524 18:41:42.192627 17599 net.cpp:411] conv4 -> conv4
I0524 18:41:42.195590 17599 net.cpp:150] Setting up conv4
I0524 18:41:42.195622 17599 net.cpp:157] Top shape: 80 36 6 42 (725760)
I0524 18:41:42.195637 17599 net.cpp:165] Memory required for data: 121658560
I0524 18:41:42.195657 17599 layer_factory.hpp:77] Creating layer relu4
I0524 18:41:42.195678 17599 net.cpp:106] Creating Layer relu4
I0524 18:41:42.195704 17599 net.cpp:454] relu4 <- conv4
I0524 18:41:42.195721 17599 net.cpp:397] relu4 -> conv4 (in-place)
I0524 18:41:42.196208 17599 net.cpp:150] Setting up relu4
I0524 18:41:42.196230 17599 net.cpp:157] Top shape: 80 36 6 42 (725760)
I0524 18:41:42.196244 17599 net.cpp:165] Memory required for data: 124561600
I0524 18:41:42.196259 17599 layer_factory.hpp:77] Creating layer pool4
I0524 18:41:42.196274 17599 net.cpp:106] Creating Layer pool4
I0524 18:41:42.196295 17599 net.cpp:454] pool4 <- conv4
I0524 18:41:42.196312 17599 net.cpp:411] pool4 -> pool4
I0524 18:41:42.196396 17599 net.cpp:150] Setting up pool4
I0524 18:41:42.196415 17599 net.cpp:157] Top shape: 80 36 3 42 (362880)
I0524 18:41:42.196427 17599 net.cpp:165] Memory required for data: 126013120
I0524 18:41:42.196444 17599 layer_factory.hpp:77] Creating layer ip1
I0524 18:41:42.196465 17599 net.cpp:106] Creating Layer ip1
I0524 18:41:42.196478 17599 net.cpp:454] ip1 <- pool4
I0524 18:41:42.196501 17599 net.cpp:411] ip1 -> ip1
I0524 18:41:42.211928 17599 net.cpp:150] Setting up ip1
I0524 18:41:42.211961 17599 net.cpp:157] Top shape: 80 196 (15680)
I0524 18:41:42.211982 17599 net.cpp:165] Memory required for data: 126075840
I0524 18:41:42.212007 17599 layer_factory.hpp:77] Creating layer relu5
I0524 18:41:42.212028 17599 net.cpp:106] Creating Layer relu5
I0524 18:41:42.212054 17599 net.cpp:454] relu5 <- ip1
I0524 18:41:42.212070 17599 net.cpp:397] relu5 -> ip1 (in-place)
I0524 18:41:42.212430 17599 net.cpp:150] Setting up relu5
I0524 18:41:42.212450 17599 net.cpp:157] Top shape: 80 196 (15680)
I0524 18:41:42.212462 17599 net.cpp:165] Memory required for data: 126138560
I0524 18:41:42.212477 17599 layer_factory.hpp:77] Creating layer drop1
I0524 18:41:42.212508 17599 net.cpp:106] Creating Layer drop1
I0524 18:41:42.212522 17599 net.cpp:454] drop1 <- ip1
I0524 18:41:42.212538 17599 net.cpp:397] drop1 -> ip1 (in-place)
I0524 18:41:42.212613 17599 net.cpp:150] Setting up drop1
I0524 18:41:42.212635 17599 net.cpp:157] Top shape: 80 196 (15680)
I0524 18:41:42.212648 17599 net.cpp:165] Memory required for data: 126201280
I0524 18:41:42.212661 17599 layer_factory.hpp:77] Creating layer ip2
I0524 18:41:42.212684 17599 net.cpp:106] Creating Layer ip2
I0524 18:41:42.212703 17599 net.cpp:454] ip2 <- ip1
I0524 18:41:42.212719 17599 net.cpp:411] ip2 -> ip2
I0524 18:41:42.213212 17599 net.cpp:150] Setting up ip2
I0524 18:41:42.213232 17599 net.cpp:157] Top shape: 80 98 (7840)
I0524 18:41:42.213244 17599 net.cpp:165] Memory required for data: 126232640
I0524 18:41:42.213265 17599 layer_factory.hpp:77] Creating layer relu6
I0524 18:41:42.213289 17599 net.cpp:106] Creating Layer relu6
I0524 18:41:42.213304 17599 net.cpp:454] relu6 <- ip2
I0524 18:41:42.213318 17599 net.cpp:397] relu6 -> ip2 (in-place)
I0524 18:41:42.213863 17599 net.cpp:150] Setting up relu6
I0524 18:41:42.213886 17599 net.cpp:157] Top shape: 80 98 (7840)
I0524 18:41:42.213901 17599 net.cpp:165] Memory required for data: 126264000
I0524 18:41:42.213915 17599 layer_factory.hpp:77] Creating layer drop2
I0524 18:41:42.213938 17599 net.cpp:106] Creating Layer drop2
I0524 18:41:42.213951 17599 net.cpp:454] drop2 <- ip2
I0524 18:41:42.213968 17599 net.cpp:397] drop2 -> ip2 (in-place)
I0524 18:41:42.214023 17599 net.cpp:150] Setting up drop2
I0524 18:41:42.214040 17599 net.cpp:157] Top shape: 80 98 (7840)
I0524 18:41:42.214051 17599 net.cpp:165] Memory required for data: 126295360
I0524 18:41:42.214066 17599 layer_factory.hpp:77] Creating layer ip3
I0524 18:41:42.214082 17599 net.cpp:106] Creating Layer ip3
I0524 18:41:42.214097 17599 net.cpp:454] ip3 <- ip2
I0524 18:41:42.214118 17599 net.cpp:411] ip3 -> ip3
I0524 18:41:42.214342 17599 net.cpp:150] Setting up ip3
I0524 18:41:42.214361 17599 net.cpp:157] Top shape: 80 11 (880)
I0524 18:41:42.214375 17599 net.cpp:165] Memory required for data: 126298880
I0524 18:41:42.214395 17599 layer_factory.hpp:77] Creating layer drop3
I0524 18:41:42.214416 17599 net.cpp:106] Creating Layer drop3
I0524 18:41:42.214428 17599 net.cpp:454] drop3 <- ip3
I0524 18:41:42.214444 17599 net.cpp:397] drop3 -> ip3 (in-place)
I0524 18:41:42.214489 17599 net.cpp:150] Setting up drop3
I0524 18:41:42.214512 17599 net.cpp:157] Top shape: 80 11 (880)
I0524 18:41:42.214526 17599 net.cpp:165] Memory required for data: 126302400
I0524 18:41:42.214545 17599 layer_factory.hpp:77] Creating layer loss
I0524 18:41:42.214567 17599 net.cpp:106] Creating Layer loss
I0524 18:41:42.214582 17599 net.cpp:454] loss <- ip3
I0524 18:41:42.214596 17599 net.cpp:454] loss <- label
I0524 18:41:42.214618 17599 net.cpp:411] loss -> loss
I0524 18:41:42.214637 17599 layer_factory.hpp:77] Creating layer loss
…
I0524 18:41:42.217468 17599 solver.cpp:181] Creating test net (#0) specified by net file: /lustre/atlas/proj-shared/hep105/caffe_titan/caffe_workflow/logs_bslr/bs_80_lr_0.0015_2016-05-20T15.49.17.146207.prototxt
I0524 18:41:42.217547 17599 net.cpp:322] The NetState phase (1) differed from the phase (0) specified by a rule in layer data_hdf5
I0524 18:41:42.217924 17599 net.cpp:49] Initializing net from parameters: 
name: "caffe_test_127x50_x_unshifted"
state {
  phase: TEST
}
layer {
  name: "data_hdf5"
  type: "HDF5Data"
  top: "data"
  top: "label"
  include {
    phase: TEST
  }
  hdf5_data_param {
    source: "/lustre/atlas/proj-shared/hep105/caffe_titan/minosmatch_nukecczdefs_127x50_x_unshifted_me1Bmc.testlist"
    batch_size: 80
  }
}
layer {
  name: "conv1"
  type: "Convolution"
  bottom: "data"
  top: "conv1"
  convolution_param {
    num_output: 12
    pad: 0
    stride: 1
    weight_filler {
      type: "xavier"
    }
    bias_filler {
      type: "constant"
    }
    kernel_h: 8
    kernel_w: 3
  }
}
layer {
  name: "relu1"
  type: "ReLU"
  bottom: "conv1"
  top: "conv1"
}
layer {
  name: "pool1"
  type: "Pooling"
  bottom: "conv1"
  top: "pool1"
  pooling_param {
    pool: MAX
    kernel_h: 2
    kernel_w: 1
    stride_h: 2
    stride_w: 1
  }
}
layer {
  name: "conv2"
  type: "Convolution"
  bottom: "pool1"
  top: "conv2"
  convolution_param {
    num_output: 20
    pad: 0
    stride: 1
    weight_filler {
      type: "xavier"
    }
    bias_filler {
      type: "constant"
    }
    kernel_h: 7
    kernel_w: 3
  }
}
layer {
  name: "relu2"
  type: "ReLU"
  bottom: "conv2"
  top: "conv2"
}
layer {
  name: "pool2"
  type: "Pooling"
  bottom: "conv2"
  top: "pool2"
  pooling_param {
    pool: MAX
    kernel_h: 2
    kernel_w: 1
    stride_h: 2
    stride_w: 1
  }
}
layer {
  name: "conv3"
  type: "Convolution"
  bottom: "pool2"
  top: "conv3"
  convolution_param {
    num_output: 28
    pad: 0
    stride: 1
    weight_filler {
      type: "xavier"
    }
    bias_filler {
      type: "constant"
    }
    kernel_h: 6
    kernel_w: 3
  }
}
layer {
  name: "relu3"
  type: "ReLU"
  bottom: "conv3"
  top: "conv3"
}
layer {
  name: "pool3"
  type: "Pooling"
  bottom: "conv3"
  top: "pool3"
  pooling_param {
    pool: MAX
    kernel_h: 2
    kernel_w: 1
    stride_h: 2
    stride_w: 1
  }
}
layer {
  name: "conv4"
  type: "Convolution"
  bottom: "pool3"
  top: "conv4"
  convolution_param {
    num_output: 36
    pad: 0
    stride: 1
    weight_filler {
      type: "xavier"
    }
    bias_filler {
      type: "constant"
    }
    kernel_h: 6
    kernel_w: 3
  }
}
layer {
  name: "relu4"
  type: "ReLU"
  bottom: "conv4"
  top: "conv4"
}
layer {
  name: "pool4"
  type: "Pooling"
  bottom: "conv4"
  top: "pool4"
  pooling_param {
    pool: MAX
    kernel_h: 2
    kernel_w: 1
    stride_h: 2
    stride_w: 1
  }
}
layer {
  name: "ip1"
  type: "InnerProduct"
  bottom: "pool4"
  top: "ip1"
  inner_product_param {
    num_output: 196
    weight_filler {
      type: "xavier"
    }
    bias_filler {
      type: "constant"
    }
  }
}
layer {
  name: "relu5"
  type: "ReLU"
  bottom: "ip1"
  top: "ip1"
}
layer {
  name: "drop1"
  type: "Dropout"
  bottom: "ip1"
  top: "ip1"
  dropout_param {
    dropout_ratio: 0.5
  }
}
layer {
  name: "ip2"
  type: "InnerProduct"
  bottom: "ip1"
  top: "ip2"
  inner_product_param {
    num_output: 98
    weight_filler {
      type: "xavier"
    }
    bias_filler {
      type: "constant"
    }
  }
}
layer {
  name: "relu6"
  type: "ReLU"
  bottom: "ip2"
  top: "ip2"
}
layer {
  name: "drop2"
  type: "Dropout"
  bottom: "ip2"
  top: "ip2"
  dropout_param {
    dropout_ratio: 0.5
  }
}
layer {
  name: "ip3"
  type: "InnerProduct"
  bottom: "ip2"
  top: "ip3"
  inner_product_param {
    num_output: 11
    weight_filler {
      type: "xavier"
    }
    bias_filler {
      type: "constant"
    }
  }
}
layer {
  name: "drop3"
  type: "Dropout"
  bottom: "ip3"
  top: "ip3"
  dropout_param {
    dropout_ratio: 0.5
  }
}
layer {
  name: "accuracy"
  type: "Accuracy"
  bottom: "ip3"
  bottom: "label"
  top: "accuracy"
  include {
    phase: TEST
  }
}
layer {
  name: "loss"
  type: "SoftmaxWithLoss"
  bottom: "ip3"
  bottom: "label"
  top: "loss"
}
I0524 18:41:42.218145 17599 layer_factory.hpp:77] Creating layer data_hdf5
I0524 18:41:42.218165 17599 net.cpp:106] Creating Layer data_hdf5
I0524 18:41:42.218180 17599 net.cpp:411] data_hdf5 -> data
I0524 18:41:42.218200 17599 net.cpp:411] data_hdf5 -> label
I0524 18:41:42.218221 17599 hdf5_data_layer.cpp:79] Loading list of HDF5 filenames from: /lustre/atlas/proj-shared/hep105/caffe_titan/minosmatch_nukecczdefs_127x50_x_unshifted_me1Bmc.testlist
I0524 18:41:42.219794 17599 hdf5_data_layer.cpp:93] Number of HDF5 files: 3
I0524 18:42:03.483885 17599 net.cpp:150] Setting up data_hdf5
I0524 18:42:03.484057 17599 net.cpp:157] Top shape: 80 1 127 50 (508000)
I0524 18:42:03.484077 17599 net.cpp:157] Top shape: 80 (80)
I0524 18:42:03.484091 17599 net.cpp:165] Memory required for data: 2032320
I0524 18:42:03.484104 17599 layer_factory.hpp:77] Creating layer label_data_hdf5_1_split
I0524 18:42:03.484139 17599 net.cpp:106] Creating Layer label_data_hdf5_1_split
I0524 18:42:03.484153 17599 net.cpp:454] label_data_hdf5_1_split <- label
I0524 18:42:03.484189 17599 net.cpp:411] label_data_hdf5_1_split -> label_data_hdf5_1_split_0
I0524 18:42:03.484211 17599 net.cpp:411] label_data_hdf5_1_split -> label_data_hdf5_1_split_1
I0524 18:42:03.484297 17599 net.cpp:150] Setting up label_data_hdf5_1_split
I0524 18:42:03.484315 17599 net.cpp:157] Top shape: 80 (80)
I0524 18:42:03.484343 17599 net.cpp:157] Top shape: 80 (80)
I0524 18:42:03.484355 17599 net.cpp:165] Memory required for data: 2032960
I0524 18:42:03.484367 17599 layer_factory.hpp:77] Creating layer conv1
I0524 18:42:03.484400 17599 net.cpp:106] Creating Layer conv1
I0524 18:42:03.484413 17599 net.cpp:454] conv1 <- data
I0524 18:42:03.484431 17599 net.cpp:411] conv1 -> conv1
I0524 18:42:03.486397 17599 net.cpp:150] Setting up conv1
I0524 18:42:03.486423 17599 net.cpp:157] Top shape: 80 12 120 48 (5529600)
I0524 18:42:03.486443 17599 net.cpp:165] Memory required for data: 24151360
I0524 18:42:03.486466 17599 layer_factory.hpp:77] Creating layer relu1
I0524 18:42:03.486487 17599 net.cpp:106] Creating Layer relu1
I0524 18:42:03.486510 17599 net.cpp:454] relu1 <- conv1
I0524 18:42:03.486526 17599 net.cpp:397] relu1 -> conv1 (in-place)
I0524 18:42:03.487035 17599 net.cpp:150] Setting up relu1
I0524 18:42:03.487056 17599 net.cpp:157] Top shape: 80 12 120 48 (5529600)
I0524 18:42:03.487071 17599 net.cpp:165] Memory required for data: 46269760
I0524 18:42:03.487082 17599 layer_factory.hpp:77] Creating layer pool1
I0524 18:42:03.487113 17599 net.cpp:106] Creating Layer pool1
I0524 18:42:03.487126 17599 net.cpp:454] pool1 <- conv1
I0524 18:42:03.487143 17599 net.cpp:411] pool1 -> pool1
I0524 18:42:03.487231 17599 net.cpp:150] Setting up pool1
I0524 18:42:03.487248 17599 net.cpp:157] Top shape: 80 12 60 48 (2764800)
I0524 18:42:03.487262 17599 net.cpp:165] Memory required for data: 57328960
I0524 18:42:03.487280 17599 layer_factory.hpp:77] Creating layer conv2
I0524 18:42:03.487301 17599 net.cpp:106] Creating Layer conv2
I0524 18:42:03.487314 17599 net.cpp:454] conv2 <- pool1
I0524 18:42:03.487331 17599 net.cpp:411] conv2 -> conv2
I0524 18:42:03.489282 17599 net.cpp:150] Setting up conv2
I0524 18:42:03.489306 17599 net.cpp:157] Top shape: 80 20 54 46 (3974400)
I0524 18:42:03.489320 17599 net.cpp:165] Memory required for data: 73226560
I0524 18:42:03.489346 17599 layer_factory.hpp:77] Creating layer relu2
I0524 18:42:03.489370 17599 net.cpp:106] Creating Layer relu2
I0524 18:42:03.489384 17599 net.cpp:454] relu2 <- conv2
I0524 18:42:03.489400 17599 net.cpp:397] relu2 -> conv2 (in-place)
I0524 18:42:03.489756 17599 net.cpp:150] Setting up relu2
I0524 18:42:03.489776 17599 net.cpp:157] Top shape: 80 20 54 46 (3974400)
I0524 18:42:03.489789 17599 net.cpp:165] Memory required for data: 89124160
I0524 18:42:03.489804 17599 layer_factory.hpp:77] Creating layer pool2
I0524 18:42:03.489826 17599 net.cpp:106] Creating Layer pool2
I0524 18:42:03.489840 17599 net.cpp:454] pool2 <- conv2
I0524 18:42:03.489856 17599 net.cpp:411] pool2 -> pool2
I0524 18:42:03.489943 17599 net.cpp:150] Setting up pool2
I0524 18:42:03.489966 17599 net.cpp:157] Top shape: 80 20 27 46 (1987200)
I0524 18:42:03.489979 17599 net.cpp:165] Memory required for data: 97072960
I0524 18:42:03.489994 17599 layer_factory.hpp:77] Creating layer conv3
I0524 18:42:03.490022 17599 net.cpp:106] Creating Layer conv3
I0524 18:42:03.490036 17599 net.cpp:454] conv3 <- pool2
I0524 18:42:03.490052 17599 net.cpp:411] conv3 -> conv3
I0524 18:42:03.492063 17599 net.cpp:150] Setting up conv3
I0524 18:42:03.492087 17599 net.cpp:157] Top shape: 80 28 22 44 (2168320)
I0524 18:42:03.492106 17599 net.cpp:165] Memory required for data: 105746240
I0524 18:42:03.492146 17599 layer_factory.hpp:77] Creating layer relu3
I0524 18:42:03.492171 17599 net.cpp:106] Creating Layer relu3
I0524 18:42:03.492184 17599 net.cpp:454] relu3 <- conv3
I0524 18:42:03.492200 17599 net.cpp:397] relu3 -> conv3 (in-place)
I0524 18:42:03.492694 17599 net.cpp:150] Setting up relu3
I0524 18:42:03.492717 17599 net.cpp:157] Top shape: 80 28 22 44 (2168320)
I0524 18:42:03.492730 17599 net.cpp:165] Memory required for data: 114419520
I0524 18:42:03.492746 17599 layer_factory.hpp:77] Creating layer pool3
I0524 18:42:03.492771 17599 net.cpp:106] Creating Layer pool3
I0524 18:42:03.492784 17599 net.cpp:454] pool3 <- conv3
I0524 18:42:03.492800 17599 net.cpp:411] pool3 -> pool3
I0524 18:42:03.492887 17599 net.cpp:150] Setting up pool3
I0524 18:42:03.492903 17599 net.cpp:157] Top shape: 80 28 11 44 (1084160)
I0524 18:42:03.492918 17599 net.cpp:165] Memory required for data: 118756160
I0524 18:42:03.492930 17599 layer_factory.hpp:77] Creating layer conv4
I0524 18:42:03.492957 17599 net.cpp:106] Creating Layer conv4
I0524 18:42:03.492970 17599 net.cpp:454] conv4 <- pool3
I0524 18:42:03.492987 17599 net.cpp:411] conv4 -> conv4
I0524 18:42:03.495096 17599 net.cpp:150] Setting up conv4
I0524 18:42:03.495121 17599 net.cpp:157] Top shape: 80 36 6 42 (725760)
I0524 18:42:03.495141 17599 net.cpp:165] Memory required for data: 121659200
I0524 18:42:03.495159 17599 layer_factory.hpp:77] Creating layer relu4
I0524 18:42:03.495179 17599 net.cpp:106] Creating Layer relu4
I0524 18:42:03.495200 17599 net.cpp:454] relu4 <- conv4
I0524 18:42:03.495218 17599 net.cpp:397] relu4 -> conv4 (in-place)
I0524 18:42:03.495703 17599 net.cpp:150] Setting up relu4
I0524 18:42:03.495725 17599 net.cpp:157] Top shape: 80 36 6 42 (725760)
I0524 18:42:03.495738 17599 net.cpp:165] Memory required for data: 124562240
I0524 18:42:03.495754 17599 layer_factory.hpp:77] Creating layer pool4
I0524 18:42:03.495779 17599 net.cpp:106] Creating Layer pool4
I0524 18:42:03.495792 17599 net.cpp:454] pool4 <- conv4
I0524 18:42:03.495808 17599 net.cpp:411] pool4 -> pool4
I0524 18:42:03.495895 17599 net.cpp:150] Setting up pool4
I0524 18:42:03.495913 17599 net.cpp:157] Top shape: 80 36 3 42 (362880)
I0524 18:42:03.495928 17599 net.cpp:165] Memory required for data: 126013760
I0524 18:42:03.495939 17599 layer_factory.hpp:77] Creating layer ip1
I0524 18:42:03.495965 17599 net.cpp:106] Creating Layer ip1
I0524 18:42:03.495977 17599 net.cpp:454] ip1 <- pool4
I0524 18:42:03.495995 17599 net.cpp:411] ip1 -> ip1
I0524 18:42:03.511379 17599 net.cpp:150] Setting up ip1
I0524 18:42:03.511411 17599 net.cpp:157] Top shape: 80 196 (15680)
I0524 18:42:03.511432 17599 net.cpp:165] Memory required for data: 126076480
I0524 18:42:03.511458 17599 layer_factory.hpp:77] Creating layer relu5
I0524 18:42:03.511479 17599 net.cpp:106] Creating Layer relu5
I0524 18:42:03.511504 17599 net.cpp:454] relu5 <- ip1
I0524 18:42:03.511520 17599 net.cpp:397] relu5 -> ip1 (in-place)
I0524 18:42:03.511888 17599 net.cpp:150] Setting up relu5
I0524 18:42:03.511907 17599 net.cpp:157] Top shape: 80 196 (15680)
I0524 18:42:03.511920 17599 net.cpp:165] Memory required for data: 126139200
I0524 18:42:03.511932 17599 layer_factory.hpp:77] Creating layer drop1
I0524 18:42:03.511965 17599 net.cpp:106] Creating Layer drop1
I0524 18:42:03.511978 17599 net.cpp:454] drop1 <- ip1
I0524 18:42:03.511996 17599 net.cpp:397] drop1 -> ip1 (in-place)
I0524 18:42:03.512058 17599 net.cpp:150] Setting up drop1
I0524 18:42:03.512074 17599 net.cpp:157] Top shape: 80 196 (15680)
I0524 18:42:03.512094 17599 net.cpp:165] Memory required for data: 126201920
I0524 18:42:03.512106 17599 layer_factory.hpp:77] Creating layer ip2
I0524 18:42:03.512125 17599 net.cpp:106] Creating Layer ip2
I0524 18:42:03.512138 17599 net.cpp:454] ip2 <- ip1
I0524 18:42:03.512161 17599 net.cpp:411] ip2 -> ip2
I0524 18:42:03.512656 17599 net.cpp:150] Setting up ip2
I0524 18:42:03.512676 17599 net.cpp:157] Top shape: 80 98 (7840)
I0524 18:42:03.512688 17599 net.cpp:165] Memory required for data: 126233280
I0524 18:42:03.512711 17599 layer_factory.hpp:77] Creating layer relu6
I0524 18:42:03.512745 17599 net.cpp:106] Creating Layer relu6
I0524 18:42:03.512758 17599 net.cpp:454] relu6 <- ip2
I0524 18:42:03.512774 17599 net.cpp:397] relu6 -> ip2 (in-place)
I0524 18:42:03.513339 17599 net.cpp:150] Setting up relu6
I0524 18:42:03.513361 17599 net.cpp:157] Top shape: 80 98 (7840)
I0524 18:42:03.513375 17599 net.cpp:165] Memory required for data: 126264640
I0524 18:42:03.513391 17599 layer_factory.hpp:77] Creating layer drop2
I0524 18:42:03.513406 17599 net.cpp:106] Creating Layer drop2
I0524 18:42:03.513420 17599 net.cpp:454] drop2 <- ip2
I0524 18:42:03.513437 17599 net.cpp:397] drop2 -> ip2 (in-place)
I0524 18:42:03.513485 17599 net.cpp:150] Setting up drop2
I0524 18:42:03.513501 17599 net.cpp:157] Top shape: 80 98 (7840)
I0524 18:42:03.513514 17599 net.cpp:165] Memory required for data: 126296000
I0524 18:42:03.513527 17599 layer_factory.hpp:77] Creating layer ip3
I0524 18:42:03.513551 17599 net.cpp:106] Creating Layer ip3
I0524 18:42:03.513563 17599 net.cpp:454] ip3 <- ip2
I0524 18:42:03.513581 17599 net.cpp:411] ip3 -> ip3
I0524 18:42:03.513847 17599 net.cpp:150] Setting up ip3
I0524 18:42:03.513867 17599 net.cpp:157] Top shape: 80 11 (880)
I0524 18:42:03.513880 17599 net.cpp:165] Memory required for data: 126299520
I0524 18:42:03.513901 17599 layer_factory.hpp:77] Creating layer drop3
I0524 18:42:03.513923 17599 net.cpp:106] Creating Layer drop3
I0524 18:42:03.513936 17599 net.cpp:454] drop3 <- ip3
I0524 18:42:03.513952 17599 net.cpp:397] drop3 -> ip3 (in-place)
I0524 18:42:03.514006 17599 net.cpp:150] Setting up drop3
I0524 18:42:03.514024 17599 net.cpp:157] Top shape: 80 11 (880)
I0524 18:42:03.514035 17599 net.cpp:165] Memory required for data: 126303040
I0524 18:42:03.514050 17599 layer_factory.hpp:77] Creating layer ip3_drop3_0_split
I0524 18:42:03.514065 17599 net.cpp:106] Creating Layer ip3_drop3_0_split
I0524 18:42:03.514080 17599 net.cpp:454] ip3_drop3_0_split <- ip3
I0524 18:42:03.514101 17599 net.cpp:411] ip3_drop3_0_split -> ip3_drop3_0_split_0
I0524 18:42:03.514120 17599 net.cpp:411] ip3_drop3_0_split -> ip3_drop3_0_split_1
I0524 18:42:03.514214 17599 net.cpp:150] Setting up ip3_drop3_0_split
I0524 18:42:03.514230 17599 net.cpp:157] Top shape: 80 11 (880)
I0524 18:42:03.514245 17599 net.cpp:157] Top shape: 80 11 (880)
I0524 18:42:03.514261 17599 net.cpp:165] Memory required for data: 126310080
I0524 18:42:03.514272 17599 layer_factory.hpp:77] Creating layer accuracy
I0524 18:42:03.514300 17599 net.cpp:106] Creating Layer accuracy
I0524 18:42:03.514314 17599 net.cpp:454] accuracy <- ip3_drop3_0_split_0
I0524 18:42:03.514328 17599 net.cpp:454] accuracy <- label_data_hdf5_1_split_0
I0524 18:42:03.514344 17599 net.cpp:411] accuracy -> accuracy
…
