…
I0524 16:40:34.110781 16490 net.cpp:322] The NetState phase (0) differed from the phase (1) specified by a rule in layer data_hdf5
I0524 16:40:34.110846 16490 net.cpp:322] The NetState phase (0) differed from the phase (1) specified by a rule in layer accuracy
I0524 16:40:34.111234 16490 net.cpp:49] Initializing net from parameters: 
name: "caffe_test_127x50_x_unshifted"
state {
  phase: TRAIN
}
layer {
  name: "data_hdf5"
  type: "HDF5Data"
  top: "data"
  top: "label"
  include {
    phase: TRAIN
  }
  hdf5_data_param {
    source: "/lustre/atlas/proj-shared/hep105/caffe_titan/minosmatch_nukecczdefs_127x50_x_unshifted_me1Bmc.trainlist"
    batch_size: 80
  }
}
layer {
  name: "conv1"
  type: "Convolution"
  bottom: "data"
  top: "conv1"
  convolution_param {
    num_output: 12
    pad: 0
    stride: 1
    weight_filler {
      type: "xavier"
    }
    bias_filler {
      type: "constant"
    }
    kernel_h: 8
    kernel_w: 3
  }
}
layer {
  name: "relu1"
  type: "ReLU"
  bottom: "conv1"
  top: "conv1"
}
layer {
  name: "pool1"
  type: "Pooling"
  bottom: "conv1"
  top: "pool1"
  pooling_param {
    pool: MAX
    kernel_h: 2
    kernel_w: 1
    stride_h: 2
    stride_w: 1
  }
}
layer {
  name: "conv2"
  type: "Convolution"
  bottom: "pool1"
  top: "conv2"
  convolution_param {
    num_output: 20
    pad: 0
    stride: 1
    weight_filler {
      type: "xavier"
    }
    bias_filler {
      type: "constant"
    }
    kernel_h: 7
    kernel_w: 3
  }
}
layer {
  name: "relu2"
  type: "ReLU"
  bottom: "conv2"
  top: "conv2"
}
layer {
  name: "pool2"
  type: "Pooling"
  bottom: "conv2"
  top: "pool2"
  pooling_param {
    pool: MAX
    kernel_h: 2
    kernel_w: 1
    stride_h: 2
    stride_w: 1
  }
}
layer {
  name: "conv3"
  type: "Convolution"
  bottom: "pool2"
  top: "conv3"
  convolution_param {
    num_output: 28
    pad: 0
    stride: 1
    weight_filler {
      type: "xavier"
    }
    bias_filler {
      type: "constant"
    }
    kernel_h: 6
    kernel_w: 3
  }
}
layer {
  name: "relu3"
  type: "ReLU"
  bottom: "conv3"
  top: "conv3"
}
layer {
  name: "pool3"
  type: "Pooling"
  bottom: "conv3"
  top: "pool3"
  pooling_param {
    pool: MAX
    kernel_h: 2
    kernel_w: 1
    stride_h: 2
    stride_w: 1
  }
}
layer {
  name: "conv4"
  type: "Convolution"
  bottom: "pool3"
  top: "conv4"
  convolution_param {
    num_output: 36
    pad: 0
    stride: 1
    weight_filler {
      type: "xavier"
    }
    bias_filler {
      type: "constant"
    }
    kernel_h: 6
    kernel_w: 3
  }
}
layer {
  name: "relu4"
  type: "ReLU"
  bottom: "conv4"
  top: "conv4"
}
layer {
  name: "pool4"
  type: "Pooling"
  bottom: "conv4"
  top: "pool4"
  pooling_param {
    pool: MAX
    kernel_h: 2
    kernel_w: 1
    stride_h: 2
    stride_w: 1
  }
}
layer {
  name: "ip1"
  type: "InnerProduct"
  bottom: "pool4"
  top: "ip1"
  inner_product_param {
    num_output: 196
    weight_filler {
      type: "xavier"
    }
    bias_filler {
      type: "constant"
    }
  }
}
layer {
  name: "relu5"
  type: "ReLU"
  bottom: "ip1"
  top: "ip1"
}
layer {
  name: "drop1"
  type: "Dropout"
  bottom: "ip1"
  top: "ip1"
  dropout_param {
    dropout_ratio: 0.5
  }
}
layer {
  name: "ip2"
  type: "InnerProduct"
  bottom: "ip1"
  top: "ip2"
  inner_product_param {
    num_output: 98
    weight_filler {
      type: "xavier"
    }
    bias_filler {
      type: "constant"
    }
  }
}
layer {
  name: "relu6"
  type: "ReLU"
  bottom: "ip2"
  top: "ip2"
}
layer {
  name: "drop2"
  type: "Dropout"
  bottom: "ip2"
  top: "ip2"
  dropout_param {
    dropout_ratio: 0.5
  }
}
layer {
  name: "ip3"
  type: "InnerProduct"
  bottom: "ip2"
  top: "ip3"
  inner_product_param {
    num_output: 11
    weight_filler {
      type: "xavier"
    }
    bias_filler {
      type: "constant"
    }
  }
}
layer {
  name: "drop3"
  type: "Dropout"
  bottom: "ip3"
  top: "ip3"
  dropout_param {
    dropout_ratio: 0.5
  }
}
layer {
  name: "loss"
  type: "SoftmaxWithLoss"
  bottom: "ip3"
  bottom: "label"
  top: "loss"
}
I0524 16:40:34.111436 16490 layer_factory.hpp:77] Creating layer data_hdf5
I0524 16:40:34.111472 16490 net.cpp:106] Creating Layer data_hdf5
I0524 16:40:34.111490 16490 net.cpp:411] data_hdf5 -> data
I0524 16:40:34.111522 16490 net.cpp:411] data_hdf5 -> label
I0524 16:40:34.111564 16490 hdf5_data_layer.cpp:79] Loading list of HDF5 filenames from: /lustre/atlas/proj-shared/hep105/caffe_titan/minosmatch_nukecczdefs_127x50_x_unshifted_me1Bmc.trainlist
I0524 16:40:34.141634 16490 hdf5_data_layer.cpp:93] Number of HDF5 files: 15
I0524 16:40:34.187973 16490 hdf5.cpp:32] Datatype class: H5T_FLOAT
I0524 16:40:55.640529 16490 hdf5.cpp:35] Datatype class: H5T_INTEGER
I0524 16:40:55.645704 16490 net.cpp:150] Setting up data_hdf5
I0524 16:40:55.645743 16490 net.cpp:157] Top shape: 80 1 127 50 (508000)
I0524 16:40:55.645761 16490 net.cpp:157] Top shape: 80 (80)
I0524 16:40:55.645773 16490 net.cpp:165] Memory required for data: 2032320
I0524 16:40:55.645792 16490 layer_factory.hpp:77] Creating layer conv1
I0524 16:40:55.645838 16490 net.cpp:106] Creating Layer conv1
I0524 16:40:55.645853 16490 net.cpp:454] conv1 <- data
I0524 16:40:55.645886 16490 net.cpp:411] conv1 -> conv1
I0524 16:40:57.558305 16490 net.cpp:150] Setting up conv1
I0524 16:40:57.558359 16490 net.cpp:157] Top shape: 80 12 120 48 (5529600)
I0524 16:40:57.558382 16490 net.cpp:165] Memory required for data: 24150720
I0524 16:40:57.558413 16490 layer_factory.hpp:77] Creating layer relu1
I0524 16:40:57.558434 16490 net.cpp:106] Creating Layer relu1
I0524 16:40:57.558447 16490 net.cpp:454] relu1 <- conv1
I0524 16:40:57.558488 16490 net.cpp:397] relu1 -> conv1 (in-place)
I0524 16:40:57.559022 16490 net.cpp:150] Setting up relu1
I0524 16:40:57.559046 16490 net.cpp:157] Top shape: 80 12 120 48 (5529600)
I0524 16:40:57.559059 16490 net.cpp:165] Memory required for data: 46269120
I0524 16:40:57.559075 16490 layer_factory.hpp:77] Creating layer pool1
I0524 16:40:57.559103 16490 net.cpp:106] Creating Layer pool1
I0524 16:40:57.559115 16490 net.cpp:454] pool1 <- conv1
I0524 16:40:57.559131 16490 net.cpp:411] pool1 -> pool1
I0524 16:40:57.559226 16490 net.cpp:150] Setting up pool1
I0524 16:40:57.559244 16490 net.cpp:157] Top shape: 80 12 60 48 (2764800)
I0524 16:40:57.559260 16490 net.cpp:165] Memory required for data: 57328320
I0524 16:40:57.559279 16490 layer_factory.hpp:77] Creating layer conv2
I0524 16:40:57.559303 16490 net.cpp:106] Creating Layer conv2
I0524 16:40:57.559322 16490 net.cpp:454] conv2 <- pool1
I0524 16:40:57.559340 16490 net.cpp:411] conv2 -> conv2
I0524 16:40:57.562058 16490 net.cpp:150] Setting up conv2
I0524 16:40:57.562089 16490 net.cpp:157] Top shape: 80 20 54 46 (3974400)
I0524 16:40:57.562105 16490 net.cpp:165] Memory required for data: 73225920
I0524 16:40:57.562132 16490 layer_factory.hpp:77] Creating layer relu2
I0524 16:40:57.562160 16490 net.cpp:106] Creating Layer relu2
I0524 16:40:57.562172 16490 net.cpp:454] relu2 <- conv2
I0524 16:40:57.562188 16490 net.cpp:397] relu2 -> conv2 (in-place)
I0524 16:40:57.562541 16490 net.cpp:150] Setting up relu2
I0524 16:40:57.562561 16490 net.cpp:157] Top shape: 80 20 54 46 (3974400)
I0524 16:40:57.562573 16490 net.cpp:165] Memory required for data: 89123520
I0524 16:40:57.562585 16490 layer_factory.hpp:77] Creating layer pool2
I0524 16:40:57.562610 16490 net.cpp:106] Creating Layer pool2
I0524 16:40:57.562623 16490 net.cpp:454] pool2 <- conv2
I0524 16:40:57.562639 16490 net.cpp:411] pool2 -> pool2
I0524 16:40:57.562734 16490 net.cpp:150] Setting up pool2
I0524 16:40:57.562752 16490 net.cpp:157] Top shape: 80 20 27 46 (1987200)
I0524 16:40:57.562767 16490 net.cpp:165] Memory required for data: 97072320
I0524 16:40:57.562786 16490 layer_factory.hpp:77] Creating layer conv3
I0524 16:40:57.562806 16490 net.cpp:106] Creating Layer conv3
I0524 16:40:57.562825 16490 net.cpp:454] conv3 <- pool2
I0524 16:40:57.562842 16490 net.cpp:411] conv3 -> conv3
I0524 16:40:57.564791 16490 net.cpp:150] Setting up conv3
I0524 16:40:57.564816 16490 net.cpp:157] Top shape: 80 28 22 44 (2168320)
I0524 16:40:57.564836 16490 net.cpp:165] Memory required for data: 105745600
I0524 16:40:57.564859 16490 layer_factory.hpp:77] Creating layer relu3
I0524 16:40:57.564882 16490 net.cpp:106] Creating Layer relu3
I0524 16:40:57.564903 16490 net.cpp:454] relu3 <- conv3
I0524 16:40:57.564919 16490 net.cpp:397] relu3 -> conv3 (in-place)
I0524 16:40:57.565403 16490 net.cpp:150] Setting up relu3
I0524 16:40:57.565428 16490 net.cpp:157] Top shape: 80 28 22 44 (2168320)
I0524 16:40:57.565507 16490 net.cpp:165] Memory required for data: 114418880
I0524 16:40:57.565522 16490 layer_factory.hpp:77] Creating layer pool3
I0524 16:40:57.565541 16490 net.cpp:106] Creating Layer pool3
I0524 16:40:57.565553 16490 net.cpp:454] pool3 <- conv3
I0524 16:40:57.565577 16490 net.cpp:411] pool3 -> pool3
I0524 16:40:57.565659 16490 net.cpp:150] Setting up pool3
I0524 16:40:57.565675 16490 net.cpp:157] Top shape: 80 28 11 44 (1084160)
I0524 16:40:57.565688 16490 net.cpp:165] Memory required for data: 118755520
I0524 16:40:57.565703 16490 layer_factory.hpp:77] Creating layer conv4
I0524 16:40:57.565722 16490 net.cpp:106] Creating Layer conv4
I0524 16:40:57.565742 16490 net.cpp:454] conv4 <- pool3
I0524 16:40:57.565758 16490 net.cpp:411] conv4 -> conv4
I0524 16:40:57.568707 16490 net.cpp:150] Setting up conv4
I0524 16:40:57.568740 16490 net.cpp:157] Top shape: 80 36 6 42 (725760)
I0524 16:40:57.568754 16490 net.cpp:165] Memory required for data: 121658560
I0524 16:40:57.568778 16490 layer_factory.hpp:77] Creating layer relu4
I0524 16:40:57.568805 16490 net.cpp:106] Creating Layer relu4
I0524 16:40:57.568820 16490 net.cpp:454] relu4 <- conv4
I0524 16:40:57.568837 16490 net.cpp:397] relu4 -> conv4 (in-place)
I0524 16:40:57.569324 16490 net.cpp:150] Setting up relu4
I0524 16:40:57.569347 16490 net.cpp:157] Top shape: 80 36 6 42 (725760)
I0524 16:40:57.569360 16490 net.cpp:165] Memory required for data: 124561600
I0524 16:40:57.569376 16490 layer_factory.hpp:77] Creating layer pool4
I0524 16:40:57.569399 16490 net.cpp:106] Creating Layer pool4
I0524 16:40:57.569412 16490 net.cpp:454] pool4 <- conv4
I0524 16:40:57.569429 16490 net.cpp:411] pool4 -> pool4
I0524 16:40:57.569609 16490 net.cpp:150] Setting up pool4
I0524 16:40:57.569634 16490 net.cpp:157] Top shape: 80 36 3 42 (362880)
I0524 16:40:57.569648 16490 net.cpp:165] Memory required for data: 126013120
I0524 16:40:57.569661 16490 layer_factory.hpp:77] Creating layer ip1
I0524 16:40:57.569689 16490 net.cpp:106] Creating Layer ip1
I0524 16:40:57.569703 16490 net.cpp:454] ip1 <- pool4
I0524 16:40:57.569720 16490 net.cpp:411] ip1 -> ip1
I0524 16:40:57.585041 16490 net.cpp:150] Setting up ip1
I0524 16:40:57.585077 16490 net.cpp:157] Top shape: 80 196 (15680)
I0524 16:40:57.585089 16490 net.cpp:165] Memory required for data: 126075840
I0524 16:40:57.585114 16490 layer_factory.hpp:77] Creating layer relu5
I0524 16:40:57.585149 16490 net.cpp:106] Creating Layer relu5
I0524 16:40:57.585163 16490 net.cpp:454] relu5 <- ip1
I0524 16:40:57.585180 16490 net.cpp:397] relu5 -> ip1 (in-place)
I0524 16:40:57.585546 16490 net.cpp:150] Setting up relu5
I0524 16:40:57.585566 16490 net.cpp:157] Top shape: 80 196 (15680)
I0524 16:40:57.585578 16490 net.cpp:165] Memory required for data: 126138560
I0524 16:40:57.585593 16490 layer_factory.hpp:77] Creating layer drop1
I0524 16:40:57.585623 16490 net.cpp:106] Creating Layer drop1
I0524 16:40:57.585636 16490 net.cpp:454] drop1 <- ip1
I0524 16:40:57.585651 16490 net.cpp:397] drop1 -> ip1 (in-place)
I0524 16:40:57.585727 16490 net.cpp:150] Setting up drop1
I0524 16:40:57.585749 16490 net.cpp:157] Top shape: 80 196 (15680)
I0524 16:40:57.585762 16490 net.cpp:165] Memory required for data: 126201280
I0524 16:40:57.585778 16490 layer_factory.hpp:77] Creating layer ip2
I0524 16:40:57.585799 16490 net.cpp:106] Creating Layer ip2
I0524 16:40:57.585819 16490 net.cpp:454] ip2 <- ip1
I0524 16:40:57.585834 16490 net.cpp:411] ip2 -> ip2
I0524 16:40:57.586323 16490 net.cpp:150] Setting up ip2
I0524 16:40:57.586341 16490 net.cpp:157] Top shape: 80 98 (7840)
I0524 16:40:57.586354 16490 net.cpp:165] Memory required for data: 126232640
I0524 16:40:57.586374 16490 layer_factory.hpp:77] Creating layer relu6
I0524 16:40:57.586396 16490 net.cpp:106] Creating Layer relu6
I0524 16:40:57.586408 16490 net.cpp:454] relu6 <- ip2
I0524 16:40:57.586424 16490 net.cpp:397] relu6 -> ip2 (in-place)
I0524 16:40:57.586972 16490 net.cpp:150] Setting up relu6
I0524 16:40:57.587002 16490 net.cpp:157] Top shape: 80 98 (7840)
I0524 16:40:57.587014 16490 net.cpp:165] Memory required for data: 126264000
I0524 16:40:57.587030 16490 layer_factory.hpp:77] Creating layer drop2
I0524 16:40:57.587054 16490 net.cpp:106] Creating Layer drop2
I0524 16:40:57.587069 16490 net.cpp:454] drop2 <- ip2
I0524 16:40:57.587091 16490 net.cpp:397] drop2 -> ip2 (in-place)
I0524 16:40:57.587141 16490 net.cpp:150] Setting up drop2
I0524 16:40:57.587164 16490 net.cpp:157] Top shape: 80 98 (7840)
I0524 16:40:57.587177 16490 net.cpp:165] Memory required for data: 126295360
I0524 16:40:57.587190 16490 layer_factory.hpp:77] Creating layer ip3
I0524 16:40:57.587206 16490 net.cpp:106] Creating Layer ip3
I0524 16:40:57.587220 16490 net.cpp:454] ip3 <- ip2
I0524 16:40:57.587242 16490 net.cpp:411] ip3 -> ip3
I0524 16:40:57.587469 16490 net.cpp:150] Setting up ip3
I0524 16:40:57.587488 16490 net.cpp:157] Top shape: 80 11 (880)
I0524 16:40:57.587502 16490 net.cpp:165] Memory required for data: 126298880
I0524 16:40:57.587522 16490 layer_factory.hpp:77] Creating layer drop3
I0524 16:40:57.587543 16490 net.cpp:106] Creating Layer drop3
I0524 16:40:57.587556 16490 net.cpp:454] drop3 <- ip3
I0524 16:40:57.587573 16490 net.cpp:397] drop3 -> ip3 (in-place)
I0524 16:40:57.587618 16490 net.cpp:150] Setting up drop3
I0524 16:40:57.587641 16490 net.cpp:157] Top shape: 80 11 (880)
I0524 16:40:57.587653 16490 net.cpp:165] Memory required for data: 126302400
I0524 16:40:57.587669 16490 layer_factory.hpp:77] Creating layer loss
I0524 16:40:57.587690 16490 net.cpp:106] Creating Layer loss
I0524 16:40:57.587705 16490 net.cpp:454] loss <- ip3
I0524 16:40:57.587719 16490 net.cpp:454] loss <- label
I0524 16:40:57.587743 16490 net.cpp:411] loss -> loss
I0524 16:40:57.587762 16490 layer_factory.hpp:77] Creating layer loss
…
I0524 16:40:57.590555 16490 solver.cpp:181] Creating test net (#0) specified by net file: /lustre/atlas/proj-shared/hep105/caffe_titan/caffe_workflow/logs_bslr/bs_80_lr_0.0005_2016-05-20T15.49.16.403492.prototxt
I0524 16:40:57.590633 16490 net.cpp:322] The NetState phase (1) differed from the phase (0) specified by a rule in layer data_hdf5
I0524 16:40:57.591023 16490 net.cpp:49] Initializing net from parameters: 
name: "caffe_test_127x50_x_unshifted"
state {
  phase: TEST
}
layer {
  name: "data_hdf5"
  type: "HDF5Data"
  top: "data"
  top: "label"
  include {
    phase: TEST
  }
  hdf5_data_param {
    source: "/lustre/atlas/proj-shared/hep105/caffe_titan/minosmatch_nukecczdefs_127x50_x_unshifted_me1Bmc.testlist"
    batch_size: 80
  }
}
layer {
  name: "conv1"
  type: "Convolution"
  bottom: "data"
  top: "conv1"
  convolution_param {
    num_output: 12
    pad: 0
    stride: 1
    weight_filler {
      type: "xavier"
    }
    bias_filler {
      type: "constant"
    }
    kernel_h: 8
    kernel_w: 3
  }
}
layer {
  name: "relu1"
  type: "ReLU"
  bottom: "conv1"
  top: "conv1"
}
layer {
  name: "pool1"
  type: "Pooling"
  bottom: "conv1"
  top: "pool1"
  pooling_param {
    pool: MAX
    kernel_h: 2
    kernel_w: 1
    stride_h: 2
    stride_w: 1
  }
}
layer {
  name: "conv2"
  type: "Convolution"
  bottom: "pool1"
  top: "conv2"
  convolution_param {
    num_output: 20
    pad: 0
    stride: 1
    weight_filler {
      type: "xavier"
    }
    bias_filler {
      type: "constant"
    }
    kernel_h: 7
    kernel_w: 3
  }
}
layer {
  name: "relu2"
  type: "ReLU"
  bottom: "conv2"
  top: "conv2"
}
layer {
  name: "pool2"
  type: "Pooling"
  bottom: "conv2"
  top: "pool2"
  pooling_param {
    pool: MAX
    kernel_h: 2
    kernel_w: 1
    stride_h: 2
    stride_w: 1
  }
}
layer {
  name: "conv3"
  type: "Convolution"
  bottom: "pool2"
  top: "conv3"
  convolution_param {
    num_output: 28
    pad: 0
    stride: 1
    weight_filler {
      type: "xavier"
    }
    bias_filler {
      type: "constant"
    }
    kernel_h: 6
    kernel_w: 3
  }
}
layer {
  name: "relu3"
  type: "ReLU"
  bottom: "conv3"
  top: "conv3"
}
layer {
  name: "pool3"
  type: "Pooling"
  bottom: "conv3"
  top: "pool3"
  pooling_param {
    pool: MAX
    kernel_h: 2
    kernel_w: 1
    stride_h: 2
    stride_w: 1
  }
}
layer {
  name: "conv4"
  type: "Convolution"
  bottom: "pool3"
  top: "conv4"
  convolution_param {
    num_output: 36
    pad: 0
    stride: 1
    weight_filler {
      type: "xavier"
    }
    bias_filler {
      type: "constant"
    }
    kernel_h: 6
    kernel_w: 3
  }
}
layer {
  name: "relu4"
  type: "ReLU"
  bottom: "conv4"
  top: "conv4"
}
layer {
  name: "pool4"
  type: "Pooling"
  bottom: "conv4"
  top: "pool4"
  pooling_param {
    pool: MAX
    kernel_h: 2
    kernel_w: 1
    stride_h: 2
    stride_w: 1
  }
}
layer {
  name: "ip1"
  type: "InnerProduct"
  bottom: "pool4"
  top: "ip1"
  inner_product_param {
    num_output: 196
    weight_filler {
      type: "xavier"
    }
    bias_filler {
      type: "constant"
    }
  }
}
layer {
  name: "relu5"
  type: "ReLU"
  bottom: "ip1"
  top: "ip1"
}
layer {
  name: "drop1"
  type: "Dropout"
  bottom: "ip1"
  top: "ip1"
  dropout_param {
    dropout_ratio: 0.5
  }
}
layer {
  name: "ip2"
  type: "InnerProduct"
  bottom: "ip1"
  top: "ip2"
  inner_product_param {
    num_output: 98
    weight_filler {
      type: "xavier"
    }
    bias_filler {
      type: "constant"
    }
  }
}
layer {
  name: "relu6"
  type: "ReLU"
  bottom: "ip2"
  top: "ip2"
}
layer {
  name: "drop2"
  type: "Dropout"
  bottom: "ip2"
  top: "ip2"
  dropout_param {
    dropout_ratio: 0.5
  }
}
layer {
  name: "ip3"
  type: "InnerProduct"
  bottom: "ip2"
  top: "ip3"
  inner_product_param {
    num_output: 11
    weight_filler {
      type: "xavier"
    }
    bias_filler {
      type: "constant"
    }
  }
}
layer {
  name: "drop3"
  type: "Dropout"
  bottom: "ip3"
  top: "ip3"
  dropout_param {
    dropout_ratio: 0.5
  }
}
layer {
  name: "accuracy"
  type: "Accuracy"
  bottom: "ip3"
  bottom: "label"
  top: "accuracy"
  include {
    phase: TEST
  }
}
layer {
  name: "loss"
  type: "SoftmaxWithLoss"
  bottom: "ip3"
  bottom: "label"
  top: "loss"
}
I0524 16:40:57.591243 16490 layer_factory.hpp:77] Creating layer data_hdf5
I0524 16:40:57.591265 16490 net.cpp:106] Creating Layer data_hdf5
I0524 16:40:57.591281 16490 net.cpp:411] data_hdf5 -> data
I0524 16:40:57.591305 16490 net.cpp:411] data_hdf5 -> label
I0524 16:40:57.591322 16490 hdf5_data_layer.cpp:79] Loading list of HDF5 filenames from: /lustre/atlas/proj-shared/hep105/caffe_titan/minosmatch_nukecczdefs_127x50_x_unshifted_me1Bmc.testlist
I0524 16:40:57.647608 16490 hdf5_data_layer.cpp:93] Number of HDF5 files: 3
I0524 16:41:18.951685 16490 net.cpp:150] Setting up data_hdf5
I0524 16:41:18.951849 16490 net.cpp:157] Top shape: 80 1 127 50 (508000)
I0524 16:41:18.951869 16490 net.cpp:157] Top shape: 80 (80)
I0524 16:41:18.951881 16490 net.cpp:165] Memory required for data: 2032320
I0524 16:41:18.951895 16490 layer_factory.hpp:77] Creating layer label_data_hdf5_1_split
I0524 16:41:18.951923 16490 net.cpp:106] Creating Layer label_data_hdf5_1_split
I0524 16:41:18.951941 16490 net.cpp:454] label_data_hdf5_1_split <- label
I0524 16:41:18.951957 16490 net.cpp:411] label_data_hdf5_1_split -> label_data_hdf5_1_split_0
I0524 16:41:18.951997 16490 net.cpp:411] label_data_hdf5_1_split -> label_data_hdf5_1_split_1
I0524 16:41:18.952086 16490 net.cpp:150] Setting up label_data_hdf5_1_split
I0524 16:41:18.952103 16490 net.cpp:157] Top shape: 80 (80)
I0524 16:41:18.952118 16490 net.cpp:157] Top shape: 80 (80)
I0524 16:41:18.952131 16490 net.cpp:165] Memory required for data: 2032960
I0524 16:41:18.952143 16490 layer_factory.hpp:77] Creating layer conv1
I0524 16:41:18.952175 16490 net.cpp:106] Creating Layer conv1
I0524 16:41:18.952188 16490 net.cpp:454] conv1 <- data
I0524 16:41:18.952206 16490 net.cpp:411] conv1 -> conv1
I0524 16:41:18.954186 16490 net.cpp:150] Setting up conv1
I0524 16:41:18.954211 16490 net.cpp:157] Top shape: 80 12 120 48 (5529600)
I0524 16:41:18.954232 16490 net.cpp:165] Memory required for data: 24151360
I0524 16:41:18.954257 16490 layer_factory.hpp:77] Creating layer relu1
I0524 16:41:18.954277 16490 net.cpp:106] Creating Layer relu1
I0524 16:41:18.954298 16490 net.cpp:454] relu1 <- conv1
I0524 16:41:18.954314 16490 net.cpp:397] relu1 -> conv1 (in-place)
I0524 16:41:18.954823 16490 net.cpp:150] Setting up relu1
I0524 16:41:18.954846 16490 net.cpp:157] Top shape: 80 12 120 48 (5529600)
I0524 16:41:18.954859 16490 net.cpp:165] Memory required for data: 46269760
I0524 16:41:18.954871 16490 layer_factory.hpp:77] Creating layer pool1
I0524 16:41:18.954900 16490 net.cpp:106] Creating Layer pool1
I0524 16:41:18.954915 16490 net.cpp:454] pool1 <- conv1
I0524 16:41:18.954931 16490 net.cpp:411] pool1 -> pool1
I0524 16:41:18.955029 16490 net.cpp:150] Setting up pool1
I0524 16:41:18.955046 16490 net.cpp:157] Top shape: 80 12 60 48 (2764800)
I0524 16:41:18.955067 16490 net.cpp:165] Memory required for data: 57328960
I0524 16:41:18.955081 16490 layer_factory.hpp:77] Creating layer conv2
I0524 16:41:18.955102 16490 net.cpp:106] Creating Layer conv2
I0524 16:41:18.955116 16490 net.cpp:454] conv2 <- pool1
I0524 16:41:18.955132 16490 net.cpp:411] conv2 -> conv2
I0524 16:41:18.957072 16490 net.cpp:150] Setting up conv2
I0524 16:41:18.957095 16490 net.cpp:157] Top shape: 80 20 54 46 (3974400)
I0524 16:41:18.957118 16490 net.cpp:165] Memory required for data: 73226560
I0524 16:41:18.957139 16490 layer_factory.hpp:77] Creating layer relu2
I0524 16:41:18.957159 16490 net.cpp:106] Creating Layer relu2
I0524 16:41:18.957180 16490 net.cpp:454] relu2 <- conv2
I0524 16:41:18.957196 16490 net.cpp:397] relu2 -> conv2 (in-place)
I0524 16:41:18.957546 16490 net.cpp:150] Setting up relu2
I0524 16:41:18.957566 16490 net.cpp:157] Top shape: 80 20 54 46 (3974400)
I0524 16:41:18.957578 16490 net.cpp:165] Memory required for data: 89124160
I0524 16:41:18.957592 16490 layer_factory.hpp:77] Creating layer pool2
I0524 16:41:18.957617 16490 net.cpp:106] Creating Layer pool2
I0524 16:41:18.957629 16490 net.cpp:454] pool2 <- conv2
I0524 16:41:18.957645 16490 net.cpp:411] pool2 -> pool2
I0524 16:41:18.957732 16490 net.cpp:150] Setting up pool2
I0524 16:41:18.957751 16490 net.cpp:157] Top shape: 80 20 27 46 (1987200)
I0524 16:41:18.957763 16490 net.cpp:165] Memory required for data: 97072960
I0524 16:41:18.957778 16490 layer_factory.hpp:77] Creating layer conv3
I0524 16:41:18.957808 16490 net.cpp:106] Creating Layer conv3
I0524 16:41:18.957821 16490 net.cpp:454] conv3 <- pool2
I0524 16:41:18.957839 16490 net.cpp:411] conv3 -> conv3
I0524 16:41:18.959862 16490 net.cpp:150] Setting up conv3
I0524 16:41:18.959887 16490 net.cpp:157] Top shape: 80 28 22 44 (2168320)
I0524 16:41:18.959908 16490 net.cpp:165] Memory required for data: 105746240
I0524 16:41:18.959945 16490 layer_factory.hpp:77] Creating layer relu3
I0524 16:41:18.959970 16490 net.cpp:106] Creating Layer relu3
I0524 16:41:18.959985 16490 net.cpp:454] relu3 <- conv3
I0524 16:41:18.960000 16490 net.cpp:397] relu3 -> conv3 (in-place)
I0524 16:41:18.960494 16490 net.cpp:150] Setting up relu3
I0524 16:41:18.960516 16490 net.cpp:157] Top shape: 80 28 22 44 (2168320)
I0524 16:41:18.960530 16490 net.cpp:165] Memory required for data: 114419520
I0524 16:41:18.960546 16490 layer_factory.hpp:77] Creating layer pool3
I0524 16:41:18.960561 16490 net.cpp:106] Creating Layer pool3
I0524 16:41:18.960582 16490 net.cpp:454] pool3 <- conv3
I0524 16:41:18.960598 16490 net.cpp:411] pool3 -> pool3
I0524 16:41:18.960685 16490 net.cpp:150] Setting up pool3
I0524 16:41:18.960702 16490 net.cpp:157] Top shape: 80 28 11 44 (1084160)
I0524 16:41:18.960717 16490 net.cpp:165] Memory required for data: 118756160
I0524 16:41:18.960729 16490 layer_factory.hpp:77] Creating layer conv4
I0524 16:41:18.960750 16490 net.cpp:106] Creating Layer conv4
I0524 16:41:18.960777 16490 net.cpp:454] conv4 <- pool3
I0524 16:41:18.960794 16490 net.cpp:411] conv4 -> conv4
I0524 16:41:18.962898 16490 net.cpp:150] Setting up conv4
I0524 16:41:18.962921 16490 net.cpp:157] Top shape: 80 36 6 42 (725760)
I0524 16:41:18.962941 16490 net.cpp:165] Memory required for data: 121659200
I0524 16:41:18.962960 16490 layer_factory.hpp:77] Creating layer relu4
I0524 16:41:18.962980 16490 net.cpp:106] Creating Layer relu4
I0524 16:41:18.963006 16490 net.cpp:454] relu4 <- conv4
I0524 16:41:18.963022 16490 net.cpp:397] relu4 -> conv4 (in-place)
I0524 16:41:18.963510 16490 net.cpp:150] Setting up relu4
I0524 16:41:18.963533 16490 net.cpp:157] Top shape: 80 36 6 42 (725760)
I0524 16:41:18.963546 16490 net.cpp:165] Memory required for data: 124562240
I0524 16:41:18.963562 16490 layer_factory.hpp:77] Creating layer pool4
I0524 16:41:18.963585 16490 net.cpp:106] Creating Layer pool4
I0524 16:41:18.963599 16490 net.cpp:454] pool4 <- conv4
I0524 16:41:18.963615 16490 net.cpp:411] pool4 -> pool4
I0524 16:41:18.963702 16490 net.cpp:150] Setting up pool4
I0524 16:41:18.963719 16490 net.cpp:157] Top shape: 80 36 3 42 (362880)
I0524 16:41:18.963733 16490 net.cpp:165] Memory required for data: 126013760
I0524 16:41:18.963745 16490 layer_factory.hpp:77] Creating layer ip1
I0524 16:41:18.963771 16490 net.cpp:106] Creating Layer ip1
I0524 16:41:18.963784 16490 net.cpp:454] ip1 <- pool4
I0524 16:41:18.963800 16490 net.cpp:411] ip1 -> ip1
I0524 16:41:18.979159 16490 net.cpp:150] Setting up ip1
I0524 16:41:18.979192 16490 net.cpp:157] Top shape: 80 196 (15680)
I0524 16:41:18.979212 16490 net.cpp:165] Memory required for data: 126076480
I0524 16:41:18.979238 16490 layer_factory.hpp:77] Creating layer relu5
I0524 16:41:18.979255 16490 net.cpp:106] Creating Layer relu5
I0524 16:41:18.979274 16490 net.cpp:454] relu5 <- ip1
I0524 16:41:18.979301 16490 net.cpp:397] relu5 -> ip1 (in-place)
I0524 16:41:18.979666 16490 net.cpp:150] Setting up relu5
I0524 16:41:18.979686 16490 net.cpp:157] Top shape: 80 196 (15680)
I0524 16:41:18.979699 16490 net.cpp:165] Memory required for data: 126139200
I0524 16:41:18.979712 16490 layer_factory.hpp:77] Creating layer drop1
I0524 16:41:18.979744 16490 net.cpp:106] Creating Layer drop1
I0524 16:41:18.979758 16490 net.cpp:454] drop1 <- ip1
I0524 16:41:18.979773 16490 net.cpp:397] drop1 -> ip1 (in-place)
I0524 16:41:18.979835 16490 net.cpp:150] Setting up drop1
I0524 16:41:18.979851 16490 net.cpp:157] Top shape: 80 196 (15680)
I0524 16:41:18.979871 16490 net.cpp:165] Memory required for data: 126201920
I0524 16:41:18.979883 16490 layer_factory.hpp:77] Creating layer ip2
I0524 16:41:18.979900 16490 net.cpp:106] Creating Layer ip2
I0524 16:41:18.979915 16490 net.cpp:454] ip2 <- ip1
I0524 16:41:18.979938 16490 net.cpp:411] ip2 -> ip2
I0524 16:41:18.980432 16490 net.cpp:150] Setting up ip2
I0524 16:41:18.980450 16490 net.cpp:157] Top shape: 80 98 (7840)
I0524 16:41:18.980463 16490 net.cpp:165] Memory required for data: 126233280
I0524 16:41:18.980484 16490 layer_factory.hpp:77] Creating layer relu6
I0524 16:41:18.980518 16490 net.cpp:106] Creating Layer relu6
I0524 16:41:18.980531 16490 net.cpp:454] relu6 <- ip2
I0524 16:41:18.980546 16490 net.cpp:397] relu6 -> ip2 (in-place)
I0524 16:41:18.981109 16490 net.cpp:150] Setting up relu6
I0524 16:41:18.981132 16490 net.cpp:157] Top shape: 80 98 (7840)
I0524 16:41:18.981144 16490 net.cpp:165] Memory required for data: 126264640
I0524 16:41:18.981156 16490 layer_factory.hpp:77] Creating layer drop2
I0524 16:41:18.981176 16490 net.cpp:106] Creating Layer drop2
I0524 16:41:18.981199 16490 net.cpp:454] drop2 <- ip2
I0524 16:41:18.981215 16490 net.cpp:397] drop2 -> ip2 (in-place)
I0524 16:41:18.981273 16490 net.cpp:150] Setting up drop2
I0524 16:41:18.981295 16490 net.cpp:157] Top shape: 80 98 (7840)
I0524 16:41:18.981308 16490 net.cpp:165] Memory required for data: 126296000
I0524 16:41:18.981320 16490 layer_factory.hpp:77] Creating layer ip3
I0524 16:41:18.981343 16490 net.cpp:106] Creating Layer ip3
I0524 16:41:18.981355 16490 net.cpp:454] ip3 <- ip2
I0524 16:41:18.981374 16490 net.cpp:411] ip3 -> ip3
I0524 16:41:18.981616 16490 net.cpp:150] Setting up ip3
I0524 16:41:18.981636 16490 net.cpp:157] Top shape: 80 11 (880)
I0524 16:41:18.981647 16490 net.cpp:165] Memory required for data: 126299520
I0524 16:41:18.981668 16490 layer_factory.hpp:77] Creating layer drop3
I0524 16:41:18.981689 16490 net.cpp:106] Creating Layer drop3
I0524 16:41:18.981703 16490 net.cpp:454] drop3 <- ip3
I0524 16:41:18.981719 16490 net.cpp:397] drop3 -> ip3 (in-place)
I0524 16:41:18.981766 16490 net.cpp:150] Setting up drop3
I0524 16:41:18.981789 16490 net.cpp:157] Top shape: 80 11 (880)
I0524 16:41:18.981801 16490 net.cpp:165] Memory required for data: 126303040
I0524 16:41:18.981817 16490 layer_factory.hpp:77] Creating layer ip3_drop3_0_split
I0524 16:41:18.981832 16490 net.cpp:106] Creating Layer ip3_drop3_0_split
I0524 16:41:18.981847 16490 net.cpp:454] ip3_drop3_0_split <- ip3
I0524 16:41:18.981868 16490 net.cpp:411] ip3_drop3_0_split -> ip3_drop3_0_split_0
I0524 16:41:18.981887 16490 net.cpp:411] ip3_drop3_0_split -> ip3_drop3_0_split_1
I0524 16:41:18.981977 16490 net.cpp:150] Setting up ip3_drop3_0_split
I0524 16:41:18.981993 16490 net.cpp:157] Top shape: 80 11 (880)
I0524 16:41:18.982008 16490 net.cpp:157] Top shape: 80 11 (880)
I0524 16:41:18.982020 16490 net.cpp:165] Memory required for data: 126310080
I0524 16:41:18.982035 16490 layer_factory.hpp:77] Creating layer accuracy
I0524 16:41:18.982064 16490 net.cpp:106] Creating Layer accuracy
I0524 16:41:18.982076 16490 net.cpp:454] accuracy <- ip3_drop3_0_split_0
I0524 16:41:18.982092 16490 net.cpp:454] accuracy <- label_data_hdf5_1_split_0
I0524 16:41:18.982108 16490 net.cpp:411] accuracy -> accuracy
…
