…
I0525 06:49:34.660679 19224 net.cpp:322] The NetState phase (0) differed from the phase (1) specified by a rule in layer data_hdf5
I0525 06:49:34.660738 19224 net.cpp:322] The NetState phase (0) differed from the phase (1) specified by a rule in layer accuracy
I0525 06:49:34.661099 19224 net.cpp:49] Initializing net from parameters: 
name: "caffe_test_127x50_x_unshifted"
state {
  phase: TRAIN
}
layer {
  name: "data_hdf5"
  type: "HDF5Data"
  top: "data"
  top: "label"
  include {
    phase: TRAIN
  }
  hdf5_data_param {
    source: "/lustre/atlas/proj-shared/hep105/caffe_titan/minosmatch_nukecczdefs_127x50_x_unshifted_me1Bmc.trainlist"
    batch_size: 90
  }
}
layer {
  name: "conv1"
  type: "Convolution"
  bottom: "data"
  top: "conv1"
  convolution_param {
    num_output: 12
    pad: 0
    stride: 1
    weight_filler {
      type: "xavier"
    }
    bias_filler {
      type: "constant"
    }
    kernel_h: 8
    kernel_w: 3
  }
}
layer {
  name: "relu1"
  type: "ReLU"
  bottom: "conv1"
  top: "conv1"
}
layer {
  name: "pool1"
  type: "Pooling"
  bottom: "conv1"
  top: "pool1"
  pooling_param {
    pool: MAX
    kernel_h: 2
    kernel_w: 1
    stride_h: 2
    stride_w: 1
  }
}
layer {
  name: "conv2"
  type: "Convolution"
  bottom: "pool1"
  top: "conv2"
  convolution_param {
    num_output: 20
    pad: 0
    stride: 1
    weight_filler {
      type: "xavier"
    }
    bias_filler {
      type: "constant"
    }
    kernel_h: 7
    kernel_w: 3
  }
}
layer {
  name: "relu2"
  type: "ReLU"
  bottom: "conv2"
  top: "conv2"
}
layer {
  name: "pool2"
  type: "Pooling"
  bottom: "conv2"
  top: "pool2"
  pooling_param {
    pool: MAX
    kernel_h: 2
    kernel_w: 1
    stride_h: 2
    stride_w: 1
  }
}
layer {
  name: "conv3"
  type: "Convolution"
  bottom: "pool2"
  top: "conv3"
  convolution_param {
    num_output: 28
    pad: 0
    stride: 1
    weight_filler {
      type: "xavier"
    }
    bias_filler {
      type: "constant"
    }
    kernel_h: 6
    kernel_w: 3
  }
}
layer {
  name: "relu3"
  type: "ReLU"
  bottom: "conv3"
  top: "conv3"
}
layer {
  name: "pool3"
  type: "Pooling"
  bottom: "conv3"
  top: "pool3"
  pooling_param {
    pool: MAX
    kernel_h: 2
    kernel_w: 1
    stride_h: 2
    stride_w: 1
  }
}
layer {
  name: "conv4"
  type: "Convolution"
  bottom: "pool3"
  top: "conv4"
  convolution_param {
    num_output: 36
    pad: 0
    stride: 1
    weight_filler {
      type: "xavier"
    }
    bias_filler {
      type: "constant"
    }
    kernel_h: 6
    kernel_w: 3
  }
}
layer {
  name: "relu4"
  type: "ReLU"
  bottom: "conv4"
  top: "conv4"
}
layer {
  name: "pool4"
  type: "Pooling"
  bottom: "conv4"
  top: "pool4"
  pooling_param {
    pool: MAX
    kernel_h: 2
    kernel_w: 1
    stride_h: 2
    stride_w: 1
  }
}
layer {
  name: "ip1"
  type: "InnerProduct"
  bottom: "pool4"
  top: "ip1"
  inner_product_param {
    num_output: 196
    weight_filler {
      type: "xavier"
    }
    bias_filler {
      type: "constant"
    }
  }
}
layer {
  name: "relu5"
  type: "ReLU"
  bottom: "ip1"
  top: "ip1"
}
layer {
  name: "drop1"
  type: "Dropout"
  bottom: "ip1"
  top: "ip1"
  dropout_param {
    dropout_ratio: 0.5
  }
}
layer {
  name: "ip2"
  type: "InnerProduct"
  bottom: "ip1"
  top: "ip2"
  inner_product_param {
    num_output: 98
    weight_filler {
      type: "xavier"
    }
    bias_filler {
      type: "constant"
    }
  }
}
layer {
  name: "relu6"
  type: "ReLU"
  bottom: "ip2"
  top: "ip2"
}
layer {
  name: "drop2"
  type: "Dropout"
  bottom: "ip2"
  top: "ip2"
  dropout_param {
    dropout_ratio: 0.5
  }
}
layer {
  name: "ip3"
  type: "InnerProduct"
  bottom: "ip2"
  top: "ip3"
  inner_product_param {
    num_output: 11
    weight_filler {
      type: "xavier"
    }
    bias_filler {
      type: "constant"
    }
  }
}
layer {
  name: "drop3"
  type: "Dropout"
  bottom: "ip3"
  top: "ip3"
  dropout_param {
    dropout_ratio: 0.5
  }
}
layer {
  name: "loss"
  type: "SoftmaxWithLoss"
  bottom: "ip3"
  bottom: "label"
  top: "loss"
}
I0525 06:49:34.661280 19224 layer_factory.hpp:77] Creating layer data_hdf5
I0525 06:49:34.661303 19224 net.cpp:106] Creating Layer data_hdf5
I0525 06:49:34.661319 19224 net.cpp:411] data_hdf5 -> data
I0525 06:49:34.661352 19224 net.cpp:411] data_hdf5 -> label
I0525 06:49:34.661384 19224 hdf5_data_layer.cpp:79] Loading list of HDF5 filenames from: /lustre/atlas/proj-shared/hep105/caffe_titan/minosmatch_nukecczdefs_127x50_x_unshifted_me1Bmc.trainlist
I0525 06:49:34.662710 19224 hdf5_data_layer.cpp:93] Number of HDF5 files: 15
I0525 06:49:34.664924 19224 hdf5.cpp:32] Datatype class: H5T_FLOAT
I0525 06:49:56.248131 19224 hdf5.cpp:35] Datatype class: H5T_INTEGER
I0525 06:49:56.253324 19224 net.cpp:150] Setting up data_hdf5
I0525 06:49:56.253363 19224 net.cpp:157] Top shape: 90 1 127 50 (571500)
I0525 06:49:56.253378 19224 net.cpp:157] Top shape: 90 (90)
I0525 06:49:56.253392 19224 net.cpp:165] Memory required for data: 2286360
I0525 06:49:56.253406 19224 layer_factory.hpp:77] Creating layer conv1
I0525 06:49:56.253439 19224 net.cpp:106] Creating Layer conv1
I0525 06:49:56.253450 19224 net.cpp:454] conv1 <- data
I0525 06:49:56.253471 19224 net.cpp:411] conv1 -> conv1
I0525 06:49:57.316020 19224 net.cpp:150] Setting up conv1
I0525 06:49:57.316067 19224 net.cpp:157] Top shape: 90 12 120 48 (6220800)
I0525 06:49:57.316078 19224 net.cpp:165] Memory required for data: 27169560
I0525 06:49:57.316108 19224 layer_factory.hpp:77] Creating layer relu1
I0525 06:49:57.316129 19224 net.cpp:106] Creating Layer relu1
I0525 06:49:57.316140 19224 net.cpp:454] relu1 <- conv1
I0525 06:49:57.316154 19224 net.cpp:397] relu1 -> conv1 (in-place)
I0525 06:49:57.316665 19224 net.cpp:150] Setting up relu1
I0525 06:49:57.316681 19224 net.cpp:157] Top shape: 90 12 120 48 (6220800)
I0525 06:49:57.316692 19224 net.cpp:165] Memory required for data: 52052760
I0525 06:49:57.316702 19224 layer_factory.hpp:77] Creating layer pool1
I0525 06:49:57.316720 19224 net.cpp:106] Creating Layer pool1
I0525 06:49:57.316730 19224 net.cpp:454] pool1 <- conv1
I0525 06:49:57.316742 19224 net.cpp:411] pool1 -> pool1
I0525 06:49:57.316823 19224 net.cpp:150] Setting up pool1
I0525 06:49:57.316836 19224 net.cpp:157] Top shape: 90 12 60 48 (3110400)
I0525 06:49:57.316846 19224 net.cpp:165] Memory required for data: 64494360
I0525 06:49:57.316856 19224 layer_factory.hpp:77] Creating layer conv2
I0525 06:49:57.316879 19224 net.cpp:106] Creating Layer conv2
I0525 06:49:57.316890 19224 net.cpp:454] conv2 <- pool1
I0525 06:49:57.316902 19224 net.cpp:411] conv2 -> conv2
I0525 06:49:57.319631 19224 net.cpp:150] Setting up conv2
I0525 06:49:57.319658 19224 net.cpp:157] Top shape: 90 20 54 46 (4471200)
I0525 06:49:57.319669 19224 net.cpp:165] Memory required for data: 82379160
I0525 06:49:57.319689 19224 layer_factory.hpp:77] Creating layer relu2
I0525 06:49:57.319702 19224 net.cpp:106] Creating Layer relu2
I0525 06:49:57.319712 19224 net.cpp:454] relu2 <- conv2
I0525 06:49:57.319725 19224 net.cpp:397] relu2 -> conv2 (in-place)
I0525 06:49:57.320055 19224 net.cpp:150] Setting up relu2
I0525 06:49:57.320070 19224 net.cpp:157] Top shape: 90 20 54 46 (4471200)
I0525 06:49:57.320080 19224 net.cpp:165] Memory required for data: 100263960
I0525 06:49:57.320091 19224 layer_factory.hpp:77] Creating layer pool2
I0525 06:49:57.320102 19224 net.cpp:106] Creating Layer pool2
I0525 06:49:57.320112 19224 net.cpp:454] pool2 <- conv2
I0525 06:49:57.320124 19224 net.cpp:411] pool2 -> pool2
I0525 06:49:57.320205 19224 net.cpp:150] Setting up pool2
I0525 06:49:57.320219 19224 net.cpp:157] Top shape: 90 20 27 46 (2235600)
I0525 06:49:57.320228 19224 net.cpp:165] Memory required for data: 109206360
I0525 06:49:57.320238 19224 layer_factory.hpp:77] Creating layer conv3
I0525 06:49:57.320257 19224 net.cpp:106] Creating Layer conv3
I0525 06:49:57.320267 19224 net.cpp:454] conv3 <- pool2
I0525 06:49:57.320281 19224 net.cpp:411] conv3 -> conv3
I0525 06:49:57.322228 19224 net.cpp:150] Setting up conv3
I0525 06:49:57.322252 19224 net.cpp:157] Top shape: 90 28 22 44 (2439360)
I0525 06:49:57.322264 19224 net.cpp:165] Memory required for data: 118963800
I0525 06:49:57.322283 19224 layer_factory.hpp:77] Creating layer relu3
I0525 06:49:57.322299 19224 net.cpp:106] Creating Layer relu3
I0525 06:49:57.322309 19224 net.cpp:454] relu3 <- conv3
I0525 06:49:57.322321 19224 net.cpp:397] relu3 -> conv3 (in-place)
I0525 06:49:57.322787 19224 net.cpp:150] Setting up relu3
I0525 06:49:57.322803 19224 net.cpp:157] Top shape: 90 28 22 44 (2439360)
I0525 06:49:57.322813 19224 net.cpp:165] Memory required for data: 128721240
I0525 06:49:57.322824 19224 layer_factory.hpp:77] Creating layer pool3
I0525 06:49:57.322836 19224 net.cpp:106] Creating Layer pool3
I0525 06:49:57.322846 19224 net.cpp:454] pool3 <- conv3
I0525 06:49:57.322860 19224 net.cpp:411] pool3 -> pool3
I0525 06:49:57.322926 19224 net.cpp:150] Setting up pool3
I0525 06:49:57.322939 19224 net.cpp:157] Top shape: 90 28 11 44 (1219680)
I0525 06:49:57.322949 19224 net.cpp:165] Memory required for data: 133599960
I0525 06:49:57.322959 19224 layer_factory.hpp:77] Creating layer conv4
I0525 06:49:57.322978 19224 net.cpp:106] Creating Layer conv4
I0525 06:49:57.322988 19224 net.cpp:454] conv4 <- pool3
I0525 06:49:57.323002 19224 net.cpp:411] conv4 -> conv4
I0525 06:49:57.325938 19224 net.cpp:150] Setting up conv4
I0525 06:49:57.325968 19224 net.cpp:157] Top shape: 90 36 6 42 (816480)
I0525 06:49:57.325978 19224 net.cpp:165] Memory required for data: 136865880
I0525 06:49:57.325994 19224 layer_factory.hpp:77] Creating layer relu4
I0525 06:49:57.326007 19224 net.cpp:106] Creating Layer relu4
I0525 06:49:57.326019 19224 net.cpp:454] relu4 <- conv4
I0525 06:49:57.326031 19224 net.cpp:397] relu4 -> conv4 (in-place)
I0525 06:49:57.326490 19224 net.cpp:150] Setting up relu4
I0525 06:49:57.326506 19224 net.cpp:157] Top shape: 90 36 6 42 (816480)
I0525 06:49:57.326516 19224 net.cpp:165] Memory required for data: 140131800
I0525 06:49:57.326527 19224 layer_factory.hpp:77] Creating layer pool4
I0525 06:49:57.326542 19224 net.cpp:106] Creating Layer pool4
I0525 06:49:57.326555 19224 net.cpp:454] pool4 <- conv4
I0525 06:49:57.326570 19224 net.cpp:411] pool4 -> pool4
I0525 06:49:57.326642 19224 net.cpp:150] Setting up pool4
I0525 06:49:57.326654 19224 net.cpp:157] Top shape: 90 36 3 42 (408240)
I0525 06:49:57.326664 19224 net.cpp:165] Memory required for data: 141764760
I0525 06:49:57.326673 19224 layer_factory.hpp:77] Creating layer ip1
I0525 06:49:57.326694 19224 net.cpp:106] Creating Layer ip1
I0525 06:49:57.326704 19224 net.cpp:454] ip1 <- pool4
I0525 06:49:57.326716 19224 net.cpp:411] ip1 -> ip1
I0525 06:49:57.342082 19224 net.cpp:150] Setting up ip1
I0525 06:49:57.342109 19224 net.cpp:157] Top shape: 90 196 (17640)
I0525 06:49:57.342121 19224 net.cpp:165] Memory required for data: 141835320
I0525 06:49:57.342144 19224 layer_factory.hpp:77] Creating layer relu5
I0525 06:49:57.342159 19224 net.cpp:106] Creating Layer relu5
I0525 06:49:57.342169 19224 net.cpp:454] relu5 <- ip1
I0525 06:49:57.342182 19224 net.cpp:397] relu5 -> ip1 (in-place)
I0525 06:49:57.342524 19224 net.cpp:150] Setting up relu5
I0525 06:49:57.342537 19224 net.cpp:157] Top shape: 90 196 (17640)
I0525 06:49:57.342547 19224 net.cpp:165] Memory required for data: 141905880
I0525 06:49:57.342557 19224 layer_factory.hpp:77] Creating layer drop1
I0525 06:49:57.342578 19224 net.cpp:106] Creating Layer drop1
I0525 06:49:57.342588 19224 net.cpp:454] drop1 <- ip1
I0525 06:49:57.342602 19224 net.cpp:397] drop1 -> ip1 (in-place)
I0525 06:49:57.342663 19224 net.cpp:150] Setting up drop1
I0525 06:49:57.342675 19224 net.cpp:157] Top shape: 90 196 (17640)
I0525 06:49:57.342684 19224 net.cpp:165] Memory required for data: 141976440
I0525 06:49:57.342694 19224 layer_factory.hpp:77] Creating layer ip2
I0525 06:49:57.342713 19224 net.cpp:106] Creating Layer ip2
I0525 06:49:57.342723 19224 net.cpp:454] ip2 <- ip1
I0525 06:49:57.342737 19224 net.cpp:411] ip2 -> ip2
I0525 06:49:57.343202 19224 net.cpp:150] Setting up ip2
I0525 06:49:57.343215 19224 net.cpp:157] Top shape: 90 98 (8820)
I0525 06:49:57.343225 19224 net.cpp:165] Memory required for data: 142011720
I0525 06:49:57.343241 19224 layer_factory.hpp:77] Creating layer relu6
I0525 06:49:57.343253 19224 net.cpp:106] Creating Layer relu6
I0525 06:49:57.343263 19224 net.cpp:454] relu6 <- ip2
I0525 06:49:57.343276 19224 net.cpp:397] relu6 -> ip2 (in-place)
I0525 06:49:57.343791 19224 net.cpp:150] Setting up relu6
I0525 06:49:57.343807 19224 net.cpp:157] Top shape: 90 98 (8820)
I0525 06:49:57.343817 19224 net.cpp:165] Memory required for data: 142047000
I0525 06:49:57.343827 19224 layer_factory.hpp:77] Creating layer drop2
I0525 06:49:57.343840 19224 net.cpp:106] Creating Layer drop2
I0525 06:49:57.343850 19224 net.cpp:454] drop2 <- ip2
I0525 06:49:57.343863 19224 net.cpp:397] drop2 -> ip2 (in-place)
I0525 06:49:57.343904 19224 net.cpp:150] Setting up drop2
I0525 06:49:57.343917 19224 net.cpp:157] Top shape: 90 98 (8820)
I0525 06:49:57.343927 19224 net.cpp:165] Memory required for data: 142082280
I0525 06:49:57.343937 19224 layer_factory.hpp:77] Creating layer ip3
I0525 06:49:57.343950 19224 net.cpp:106] Creating Layer ip3
I0525 06:49:57.343961 19224 net.cpp:454] ip3 <- ip2
I0525 06:49:57.343972 19224 net.cpp:411] ip3 -> ip3
I0525 06:49:57.344180 19224 net.cpp:150] Setting up ip3
I0525 06:49:57.344193 19224 net.cpp:157] Top shape: 90 11 (990)
I0525 06:49:57.344203 19224 net.cpp:165] Memory required for data: 142086240
I0525 06:49:57.344218 19224 layer_factory.hpp:77] Creating layer drop3
I0525 06:49:57.344231 19224 net.cpp:106] Creating Layer drop3
I0525 06:49:57.344240 19224 net.cpp:454] drop3 <- ip3
I0525 06:49:57.344252 19224 net.cpp:397] drop3 -> ip3 (in-place)
I0525 06:49:57.344291 19224 net.cpp:150] Setting up drop3
I0525 06:49:57.344305 19224 net.cpp:157] Top shape: 90 11 (990)
I0525 06:49:57.344315 19224 net.cpp:165] Memory required for data: 142090200
I0525 06:49:57.344324 19224 layer_factory.hpp:77] Creating layer loss
I0525 06:49:57.344342 19224 net.cpp:106] Creating Layer loss
I0525 06:49:57.344352 19224 net.cpp:454] loss <- ip3
I0525 06:49:57.344363 19224 net.cpp:454] loss <- label
I0525 06:49:57.344377 19224 net.cpp:411] loss -> loss
I0525 06:49:57.344393 19224 layer_factory.hpp:77] Creating layer loss
…
I0525 06:49:57.347307 19224 solver.cpp:181] Creating test net (#0) specified by net file: /lustre/atlas/proj-shared/hep105/caffe_titan/caffe_workflow/logs_bslr/bs_90_lr_0.0020_2016-05-20T15.49.21.287877.prototxt
I0525 06:49:57.347378 19224 net.cpp:322] The NetState phase (1) differed from the phase (0) specified by a rule in layer data_hdf5
I0525 06:49:57.347731 19224 net.cpp:49] Initializing net from parameters: 
name: "caffe_test_127x50_x_unshifted"
state {
  phase: TEST
}
layer {
  name: "data_hdf5"
  type: "HDF5Data"
  top: "data"
  top: "label"
  include {
    phase: TEST
  }
  hdf5_data_param {
    source: "/lustre/atlas/proj-shared/hep105/caffe_titan/minosmatch_nukecczdefs_127x50_x_unshifted_me1Bmc.testlist"
    batch_size: 90
  }
}
layer {
  name: "conv1"
  type: "Convolution"
  bottom: "data"
  top: "conv1"
  convolution_param {
    num_output: 12
    pad: 0
    stride: 1
    weight_filler {
      type: "xavier"
    }
    bias_filler {
      type: "constant"
    }
    kernel_h: 8
    kernel_w: 3
  }
}
layer {
  name: "relu1"
  type: "ReLU"
  bottom: "conv1"
  top: "conv1"
}
layer {
  name: "pool1"
  type: "Pooling"
  bottom: "conv1"
  top: "pool1"
  pooling_param {
    pool: MAX
    kernel_h: 2
    kernel_w: 1
    stride_h: 2
    stride_w: 1
  }
}
layer {
  name: "conv2"
  type: "Convolution"
  bottom: "pool1"
  top: "conv2"
  convolution_param {
    num_output: 20
    pad: 0
    stride: 1
    weight_filler {
      type: "xavier"
    }
    bias_filler {
      type: "constant"
    }
    kernel_h: 7
    kernel_w: 3
  }
}
layer {
  name: "relu2"
  type: "ReLU"
  bottom: "conv2"
  top: "conv2"
}
layer {
  name: "pool2"
  type: "Pooling"
  bottom: "conv2"
  top: "pool2"
  pooling_param {
    pool: MAX
    kernel_h: 2
    kernel_w: 1
    stride_h: 2
    stride_w: 1
  }
}
layer {
  name: "conv3"
  type: "Convolution"
  bottom: "pool2"
  top: "conv3"
  convolution_param {
    num_output: 28
    pad: 0
    stride: 1
    weight_filler {
      type: "xavier"
    }
    bias_filler {
      type: "constant"
    }
    kernel_h: 6
    kernel_w: 3
  }
}
layer {
  name: "relu3"
  type: "ReLU"
  bottom: "conv3"
  top: "conv3"
}
layer {
  name: "pool3"
  type: "Pooling"
  bottom: "conv3"
  top: "pool3"
  pooling_param {
    pool: MAX
    kernel_h: 2
    kernel_w: 1
    stride_h: 2
    stride_w: 1
  }
}
layer {
  name: "conv4"
  type: "Convolution"
  bottom: "pool3"
  top: "conv4"
  convolution_param {
    num_output: 36
    pad: 0
    stride: 1
    weight_filler {
      type: "xavier"
    }
    bias_filler {
      type: "constant"
    }
    kernel_h: 6
    kernel_w: 3
  }
}
layer {
  name: "relu4"
  type: "ReLU"
  bottom: "conv4"
  top: "conv4"
}
layer {
  name: "pool4"
  type: "Pooling"
  bottom: "conv4"
  top: "pool4"
  pooling_param {
    pool: MAX
    kernel_h: 2
    kernel_w: 1
    stride_h: 2
    stride_w: 1
  }
}
layer {
  name: "ip1"
  type: "InnerProduct"
  bottom: "pool4"
  top: "ip1"
  inner_product_param {
    num_output: 196
    weight_filler {
      type: "xavier"
    }
    bias_filler {
      type: "constant"
    }
  }
}
layer {
  name: "relu5"
  type: "ReLU"
  bottom: "ip1"
  top: "ip1"
}
layer {
  name: "drop1"
  type: "Dropout"
  bottom: "ip1"
  top: "ip1"
  dropout_param {
    dropout_ratio: 0.5
  }
}
layer {
  name: "ip2"
  type: "InnerProduct"
  bottom: "ip1"
  top: "ip2"
  inner_product_param {
    num_output: 98
    weight_filler {
      type: "xavier"
    }
    bias_filler {
      type: "constant"
    }
  }
}
layer {
  name: "relu6"
  type: "ReLU"
  bottom: "ip2"
  top: "ip2"
}
layer {
  name: "drop2"
  type: "Dropout"
  bottom: "ip2"
  top: "ip2"
  dropout_param {
    dropout_ratio: 0.5
  }
}
layer {
  name: "ip3"
  type: "InnerProduct"
  bottom: "ip2"
  top: "ip3"
  inner_product_param {
    num_output: 11
    weight_filler {
      type: "xavier"
    }
    bias_filler {
      type: "constant"
    }
  }
}
layer {
  name: "drop3"
  type: "Dropout"
  bottom: "ip3"
  top: "ip3"
  dropout_param {
    dropout_ratio: 0.5
  }
}
layer {
  name: "accuracy"
  type: "Accuracy"
  bottom: "ip3"
  bottom: "label"
  top: "accuracy"
  include {
    phase: TEST
  }
}
layer {
  name: "loss"
  type: "SoftmaxWithLoss"
  bottom: "ip3"
  bottom: "label"
  top: "loss"
}
I0525 06:49:57.347918 19224 layer_factory.hpp:77] Creating layer data_hdf5
I0525 06:49:57.347934 19224 net.cpp:106] Creating Layer data_hdf5
I0525 06:49:57.347946 19224 net.cpp:411] data_hdf5 -> data
I0525 06:49:57.347964 19224 net.cpp:411] data_hdf5 -> label
I0525 06:49:57.347980 19224 hdf5_data_layer.cpp:79] Loading list of HDF5 filenames from: /lustre/atlas/proj-shared/hep105/caffe_titan/minosmatch_nukecczdefs_127x50_x_unshifted_me1Bmc.testlist
I0525 06:49:57.349500 19224 hdf5_data_layer.cpp:93] Number of HDF5 files: 3
I0525 06:50:18.652110 19224 net.cpp:150] Setting up data_hdf5
I0525 06:50:18.652277 19224 net.cpp:157] Top shape: 90 1 127 50 (571500)
I0525 06:50:18.652292 19224 net.cpp:157] Top shape: 90 (90)
I0525 06:50:18.652304 19224 net.cpp:165] Memory required for data: 2286360
I0525 06:50:18.652318 19224 layer_factory.hpp:77] Creating layer label_data_hdf5_1_split
I0525 06:50:18.652345 19224 net.cpp:106] Creating Layer label_data_hdf5_1_split
I0525 06:50:18.652356 19224 net.cpp:454] label_data_hdf5_1_split <- label
I0525 06:50:18.652372 19224 net.cpp:411] label_data_hdf5_1_split -> label_data_hdf5_1_split_0
I0525 06:50:18.652393 19224 net.cpp:411] label_data_hdf5_1_split -> label_data_hdf5_1_split_1
I0525 06:50:18.652467 19224 net.cpp:150] Setting up label_data_hdf5_1_split
I0525 06:50:18.652482 19224 net.cpp:157] Top shape: 90 (90)
I0525 06:50:18.652493 19224 net.cpp:157] Top shape: 90 (90)
I0525 06:50:18.652503 19224 net.cpp:165] Memory required for data: 2287080
I0525 06:50:18.652513 19224 layer_factory.hpp:77] Creating layer conv1
I0525 06:50:18.652534 19224 net.cpp:106] Creating Layer conv1
I0525 06:50:18.652544 19224 net.cpp:454] conv1 <- data
I0525 06:50:18.652559 19224 net.cpp:411] conv1 -> conv1
I0525 06:50:18.654520 19224 net.cpp:150] Setting up conv1
I0525 06:50:18.654544 19224 net.cpp:157] Top shape: 90 12 120 48 (6220800)
I0525 06:50:18.654557 19224 net.cpp:165] Memory required for data: 27170280
I0525 06:50:18.654578 19224 layer_factory.hpp:77] Creating layer relu1
I0525 06:50:18.654592 19224 net.cpp:106] Creating Layer relu1
I0525 06:50:18.654603 19224 net.cpp:454] relu1 <- conv1
I0525 06:50:18.654615 19224 net.cpp:397] relu1 -> conv1 (in-place)
I0525 06:50:18.655107 19224 net.cpp:150] Setting up relu1
I0525 06:50:18.655123 19224 net.cpp:157] Top shape: 90 12 120 48 (6220800)
I0525 06:50:18.655134 19224 net.cpp:165] Memory required for data: 52053480
I0525 06:50:18.655144 19224 layer_factory.hpp:77] Creating layer pool1
I0525 06:50:18.655160 19224 net.cpp:106] Creating Layer pool1
I0525 06:50:18.655170 19224 net.cpp:454] pool1 <- conv1
I0525 06:50:18.655184 19224 net.cpp:411] pool1 -> pool1
I0525 06:50:18.655258 19224 net.cpp:150] Setting up pool1
I0525 06:50:18.655272 19224 net.cpp:157] Top shape: 90 12 60 48 (3110400)
I0525 06:50:18.655282 19224 net.cpp:165] Memory required for data: 64495080
I0525 06:50:18.655292 19224 layer_factory.hpp:77] Creating layer conv2
I0525 06:50:18.655310 19224 net.cpp:106] Creating Layer conv2
I0525 06:50:18.655320 19224 net.cpp:454] conv2 <- pool1
I0525 06:50:18.655335 19224 net.cpp:411] conv2 -> conv2
I0525 06:50:18.657248 19224 net.cpp:150] Setting up conv2
I0525 06:50:18.657270 19224 net.cpp:157] Top shape: 90 20 54 46 (4471200)
I0525 06:50:18.657286 19224 net.cpp:165] Memory required for data: 82379880
I0525 06:50:18.657306 19224 layer_factory.hpp:77] Creating layer relu2
I0525 06:50:18.657320 19224 net.cpp:106] Creating Layer relu2
I0525 06:50:18.657330 19224 net.cpp:454] relu2 <- conv2
I0525 06:50:18.657342 19224 net.cpp:397] relu2 -> conv2 (in-place)
I0525 06:50:18.657677 19224 net.cpp:150] Setting up relu2
I0525 06:50:18.657691 19224 net.cpp:157] Top shape: 90 20 54 46 (4471200)
I0525 06:50:18.657701 19224 net.cpp:165] Memory required for data: 100264680
I0525 06:50:18.657712 19224 layer_factory.hpp:77] Creating layer pool2
I0525 06:50:18.657726 19224 net.cpp:106] Creating Layer pool2
I0525 06:50:18.657734 19224 net.cpp:454] pool2 <- conv2
I0525 06:50:18.657747 19224 net.cpp:411] pool2 -> pool2
I0525 06:50:18.657819 19224 net.cpp:150] Setting up pool2
I0525 06:50:18.657832 19224 net.cpp:157] Top shape: 90 20 27 46 (2235600)
I0525 06:50:18.657841 19224 net.cpp:165] Memory required for data: 109207080
I0525 06:50:18.657851 19224 layer_factory.hpp:77] Creating layer conv3
I0525 06:50:18.657871 19224 net.cpp:106] Creating Layer conv3
I0525 06:50:18.657882 19224 net.cpp:454] conv3 <- pool2
I0525 06:50:18.657896 19224 net.cpp:411] conv3 -> conv3
I0525 06:50:18.659909 19224 net.cpp:150] Setting up conv3
I0525 06:50:18.659932 19224 net.cpp:157] Top shape: 90 28 22 44 (2439360)
I0525 06:50:18.659943 19224 net.cpp:165] Memory required for data: 118964520
I0525 06:50:18.659976 19224 layer_factory.hpp:77] Creating layer relu3
I0525 06:50:18.659991 19224 net.cpp:106] Creating Layer relu3
I0525 06:50:18.660001 19224 net.cpp:454] relu3 <- conv3
I0525 06:50:18.660013 19224 net.cpp:397] relu3 -> conv3 (in-place)
I0525 06:50:18.660480 19224 net.cpp:150] Setting up relu3
I0525 06:50:18.660496 19224 net.cpp:157] Top shape: 90 28 22 44 (2439360)
I0525 06:50:18.660507 19224 net.cpp:165] Memory required for data: 128721960
I0525 06:50:18.660516 19224 layer_factory.hpp:77] Creating layer pool3
I0525 06:50:18.660529 19224 net.cpp:106] Creating Layer pool3
I0525 06:50:18.660539 19224 net.cpp:454] pool3 <- conv3
I0525 06:50:18.660553 19224 net.cpp:411] pool3 -> pool3
I0525 06:50:18.660624 19224 net.cpp:150] Setting up pool3
I0525 06:50:18.660637 19224 net.cpp:157] Top shape: 90 28 11 44 (1219680)
I0525 06:50:18.660647 19224 net.cpp:165] Memory required for data: 133600680
I0525 06:50:18.660656 19224 layer_factory.hpp:77] Creating layer conv4
I0525 06:50:18.660675 19224 net.cpp:106] Creating Layer conv4
I0525 06:50:18.660686 19224 net.cpp:454] conv4 <- pool3
I0525 06:50:18.660699 19224 net.cpp:411] conv4 -> conv4
I0525 06:50:18.662777 19224 net.cpp:150] Setting up conv4
I0525 06:50:18.662801 19224 net.cpp:157] Top shape: 90 36 6 42 (816480)
I0525 06:50:18.662809 19224 net.cpp:165] Memory required for data: 136866600
I0525 06:50:18.662827 19224 layer_factory.hpp:77] Creating layer relu4
I0525 06:50:18.662839 19224 net.cpp:106] Creating Layer relu4
I0525 06:50:18.662849 19224 net.cpp:454] relu4 <- conv4
I0525 06:50:18.662863 19224 net.cpp:397] relu4 -> conv4 (in-place)
I0525 06:50:18.663332 19224 net.cpp:150] Setting up relu4
I0525 06:50:18.663348 19224 net.cpp:157] Top shape: 90 36 6 42 (816480)
I0525 06:50:18.663358 19224 net.cpp:165] Memory required for data: 140132520
I0525 06:50:18.663368 19224 layer_factory.hpp:77] Creating layer pool4
I0525 06:50:18.663381 19224 net.cpp:106] Creating Layer pool4
I0525 06:50:18.663391 19224 net.cpp:454] pool4 <- conv4
I0525 06:50:18.663404 19224 net.cpp:411] pool4 -> pool4
I0525 06:50:18.663475 19224 net.cpp:150] Setting up pool4
I0525 06:50:18.663489 19224 net.cpp:157] Top shape: 90 36 3 42 (408240)
I0525 06:50:18.663498 19224 net.cpp:165] Memory required for data: 141765480
I0525 06:50:18.663507 19224 layer_factory.hpp:77] Creating layer ip1
I0525 06:50:18.663522 19224 net.cpp:106] Creating Layer ip1
I0525 06:50:18.663532 19224 net.cpp:454] ip1 <- pool4
I0525 06:50:18.663545 19224 net.cpp:411] ip1 -> ip1
I0525 06:50:18.678910 19224 net.cpp:150] Setting up ip1
I0525 06:50:18.678933 19224 net.cpp:157] Top shape: 90 196 (17640)
I0525 06:50:18.678946 19224 net.cpp:165] Memory required for data: 141836040
I0525 06:50:18.678967 19224 layer_factory.hpp:77] Creating layer relu5
I0525 06:50:18.678982 19224 net.cpp:106] Creating Layer relu5
I0525 06:50:18.678993 19224 net.cpp:454] relu5 <- ip1
I0525 06:50:18.679011 19224 net.cpp:397] relu5 -> ip1 (in-place)
I0525 06:50:18.679358 19224 net.cpp:150] Setting up relu5
I0525 06:50:18.679373 19224 net.cpp:157] Top shape: 90 196 (17640)
I0525 06:50:18.679381 19224 net.cpp:165] Memory required for data: 141906600
I0525 06:50:18.679391 19224 layer_factory.hpp:77] Creating layer drop1
I0525 06:50:18.679410 19224 net.cpp:106] Creating Layer drop1
I0525 06:50:18.679420 19224 net.cpp:454] drop1 <- ip1
I0525 06:50:18.679433 19224 net.cpp:397] drop1 -> ip1 (in-place)
I0525 06:50:18.679481 19224 net.cpp:150] Setting up drop1
I0525 06:50:18.679493 19224 net.cpp:157] Top shape: 90 196 (17640)
I0525 06:50:18.679503 19224 net.cpp:165] Memory required for data: 141977160
I0525 06:50:18.679513 19224 layer_factory.hpp:77] Creating layer ip2
I0525 06:50:18.679527 19224 net.cpp:106] Creating Layer ip2
I0525 06:50:18.679538 19224 net.cpp:454] ip2 <- ip1
I0525 06:50:18.679551 19224 net.cpp:411] ip2 -> ip2
I0525 06:50:18.680029 19224 net.cpp:150] Setting up ip2
I0525 06:50:18.680042 19224 net.cpp:157] Top shape: 90 98 (8820)
I0525 06:50:18.680052 19224 net.cpp:165] Memory required for data: 142012440
I0525 06:50:18.680068 19224 layer_factory.hpp:77] Creating layer relu6
I0525 06:50:18.680094 19224 net.cpp:106] Creating Layer relu6
I0525 06:50:18.680104 19224 net.cpp:454] relu6 <- ip2
I0525 06:50:18.680116 19224 net.cpp:397] relu6 -> ip2 (in-place)
I0525 06:50:18.680647 19224 net.cpp:150] Setting up relu6
I0525 06:50:18.680662 19224 net.cpp:157] Top shape: 90 98 (8820)
I0525 06:50:18.680671 19224 net.cpp:165] Memory required for data: 142047720
I0525 06:50:18.680681 19224 layer_factory.hpp:77] Creating layer drop2
I0525 06:50:18.680696 19224 net.cpp:106] Creating Layer drop2
I0525 06:50:18.680706 19224 net.cpp:454] drop2 <- ip2
I0525 06:50:18.680717 19224 net.cpp:397] drop2 -> ip2 (in-place)
I0525 06:50:18.680762 19224 net.cpp:150] Setting up drop2
I0525 06:50:18.680774 19224 net.cpp:157] Top shape: 90 98 (8820)
I0525 06:50:18.680784 19224 net.cpp:165] Memory required for data: 142083000
I0525 06:50:18.680794 19224 layer_factory.hpp:77] Creating layer ip3
I0525 06:50:18.680807 19224 net.cpp:106] Creating Layer ip3
I0525 06:50:18.680817 19224 net.cpp:454] ip3 <- ip2
I0525 06:50:18.680831 19224 net.cpp:411] ip3 -> ip3
I0525 06:50:18.681061 19224 net.cpp:150] Setting up ip3
I0525 06:50:18.681074 19224 net.cpp:157] Top shape: 90 11 (990)
I0525 06:50:18.681084 19224 net.cpp:165] Memory required for data: 142086960
I0525 06:50:18.681099 19224 layer_factory.hpp:77] Creating layer drop3
I0525 06:50:18.681113 19224 net.cpp:106] Creating Layer drop3
I0525 06:50:18.681123 19224 net.cpp:454] drop3 <- ip3
I0525 06:50:18.681135 19224 net.cpp:397] drop3 -> ip3 (in-place)
I0525 06:50:18.681176 19224 net.cpp:150] Setting up drop3
I0525 06:50:18.681190 19224 net.cpp:157] Top shape: 90 11 (990)
I0525 06:50:18.681198 19224 net.cpp:165] Memory required for data: 142090920
I0525 06:50:18.681208 19224 layer_factory.hpp:77] Creating layer ip3_drop3_0_split
I0525 06:50:18.681221 19224 net.cpp:106] Creating Layer ip3_drop3_0_split
I0525 06:50:18.681231 19224 net.cpp:454] ip3_drop3_0_split <- ip3
I0525 06:50:18.681243 19224 net.cpp:411] ip3_drop3_0_split -> ip3_drop3_0_split_0
I0525 06:50:18.681258 19224 net.cpp:411] ip3_drop3_0_split -> ip3_drop3_0_split_1
I0525 06:50:18.681332 19224 net.cpp:150] Setting up ip3_drop3_0_split
I0525 06:50:18.681344 19224 net.cpp:157] Top shape: 90 11 (990)
I0525 06:50:18.681357 19224 net.cpp:157] Top shape: 90 11 (990)
I0525 06:50:18.681367 19224 net.cpp:165] Memory required for data: 142098840
I0525 06:50:18.681377 19224 layer_factory.hpp:77] Creating layer accuracy
I0525 06:50:18.681398 19224 net.cpp:106] Creating Layer accuracy
I0525 06:50:18.681407 19224 net.cpp:454] accuracy <- ip3_drop3_0_split_0
I0525 06:50:18.681419 19224 net.cpp:454] accuracy <- label_data_hdf5_1_split_0
I0525 06:50:18.681432 19224 net.cpp:411] accuracy -> accuracy
…
