…
I0525 04:48:54.020519 22762 net.cpp:322] The NetState phase (0) differed from the phase (1) specified by a rule in layer data_hdf5
I0525 04:48:54.020584 22762 net.cpp:322] The NetState phase (0) differed from the phase (1) specified by a rule in layer accuracy
I0525 04:48:54.020963 22762 net.cpp:49] Initializing net from parameters: 
name: "caffe_test_127x50_x_unshifted"
state {
  phase: TRAIN
}
layer {
  name: "data_hdf5"
  type: "HDF5Data"
  top: "data"
  top: "label"
  include {
    phase: TRAIN
  }
  hdf5_data_param {
    source: "/lustre/atlas/proj-shared/hep105/caffe_titan/minosmatch_nukecczdefs_127x50_x_unshifted_me1Bmc.trainlist"
    batch_size: 90
  }
}
layer {
  name: "conv1"
  type: "Convolution"
  bottom: "data"
  top: "conv1"
  convolution_param {
    num_output: 12
    pad: 0
    stride: 1
    weight_filler {
      type: "xavier"
    }
    bias_filler {
      type: "constant"
    }
    kernel_h: 8
    kernel_w: 3
  }
}
layer {
  name: "relu1"
  type: "ReLU"
  bottom: "conv1"
  top: "conv1"
}
layer {
  name: "pool1"
  type: "Pooling"
  bottom: "conv1"
  top: "pool1"
  pooling_param {
    pool: MAX
    kernel_h: 2
    kernel_w: 1
    stride_h: 2
    stride_w: 1
  }
}
layer {
  name: "conv2"
  type: "Convolution"
  bottom: "pool1"
  top: "conv2"
  convolution_param {
    num_output: 20
    pad: 0
    stride: 1
    weight_filler {
      type: "xavier"
    }
    bias_filler {
      type: "constant"
    }
    kernel_h: 7
    kernel_w: 3
  }
}
layer {
  name: "relu2"
  type: "ReLU"
  bottom: "conv2"
  top: "conv2"
}
layer {
  name: "pool2"
  type: "Pooling"
  bottom: "conv2"
  top: "pool2"
  pooling_param {
    pool: MAX
    kernel_h: 2
    kernel_w: 1
    stride_h: 2
    stride_w: 1
  }
}
layer {
  name: "conv3"
  type: "Convolution"
  bottom: "pool2"
  top: "conv3"
  convolution_param {
    num_output: 28
    pad: 0
    stride: 1
    weight_filler {
      type: "xavier"
    }
    bias_filler {
      type: "constant"
    }
    kernel_h: 6
    kernel_w: 3
  }
}
layer {
  name: "relu3"
  type: "ReLU"
  bottom: "conv3"
  top: "conv3"
}
layer {
  name: "pool3"
  type: "Pooling"
  bottom: "conv3"
  top: "pool3"
  pooling_param {
    pool: MAX
    kernel_h: 2
    kernel_w: 1
    stride_h: 2
    stride_w: 1
  }
}
layer {
  name: "conv4"
  type: "Convolution"
  bottom: "pool3"
  top: "conv4"
  convolution_param {
    num_output: 36
    pad: 0
    stride: 1
    weight_filler {
      type: "xavier"
    }
    bias_filler {
      type: "constant"
    }
    kernel_h: 6
    kernel_w: 3
  }
}
layer {
  name: "relu4"
  type: "ReLU"
  bottom: "conv4"
  top: "conv4"
}
layer {
  name: "pool4"
  type: "Pooling"
  bottom: "conv4"
  top: "pool4"
  pooling_param {
    pool: MAX
    kernel_h: 2
    kernel_w: 1
    stride_h: 2
    stride_w: 1
  }
}
layer {
  name: "ip1"
  type: "InnerProduct"
  bottom: "pool4"
  top: "ip1"
  inner_product_param {
    num_output: 196
    weight_filler {
      type: "xavier"
    }
    bias_filler {
      type: "constant"
    }
  }
}
layer {
  name: "relu5"
  type: "ReLU"
  bottom: "ip1"
  top: "ip1"
}
layer {
  name: "drop1"
  type: "Dropout"
  bottom: "ip1"
  top: "ip1"
  dropout_param {
    dropout_ratio: 0.5
  }
}
layer {
  name: "ip2"
  type: "InnerProduct"
  bottom: "ip1"
  top: "ip2"
  inner_product_param {
    num_output: 98
    weight_filler {
      type: "xavier"
    }
    bias_filler {
      type: "constant"
    }
  }
}
layer {
  name: "relu6"
  type: "ReLU"
  bottom: "ip2"
  top: "ip2"
}
layer {
  name: "drop2"
  type: "Dropout"
  bottom: "ip2"
  top: "ip2"
  dropout_param {
    dropout_ratio: 0.5
  }
}
layer {
  name: "ip3"
  type: "InnerProduct"
  bottom: "ip2"
  top: "ip3"
  inner_product_param {
    num_output: 11
    weight_filler {
      type: "xavier"
    }
    bias_filler {
      type: "constant"
    }
  }
}
layer {
  name: "drop3"
  type: "Dropout"
  bottom: "ip3"
  top: "ip3"
  dropout_param {
    dropout_ratio: 0.5
  }
}
layer {
  name: "loss"
  type: "SoftmaxWithLoss"
  bottom: "ip3"
  bottom: "label"
  top: "loss"
}
I0525 04:48:54.021163 22762 layer_factory.hpp:77] Creating layer data_hdf5
I0525 04:48:54.021189 22762 net.cpp:106] Creating Layer data_hdf5
I0525 04:48:54.021205 22762 net.cpp:411] data_hdf5 -> data
I0525 04:48:54.021258 22762 net.cpp:411] data_hdf5 -> label
I0525 04:48:54.021293 22762 hdf5_data_layer.cpp:79] Loading list of HDF5 filenames from: /lustre/atlas/proj-shared/hep105/caffe_titan/minosmatch_nukecczdefs_127x50_x_unshifted_me1Bmc.trainlist
I0525 04:48:54.022868 22762 hdf5_data_layer.cpp:93] Number of HDF5 files: 15
I0525 04:48:54.025213 22762 hdf5.cpp:32] Datatype class: H5T_FLOAT
I0525 04:49:15.537080 22762 hdf5.cpp:35] Datatype class: H5T_INTEGER
I0525 04:49:15.542307 22762 net.cpp:150] Setting up data_hdf5
I0525 04:49:15.542347 22762 net.cpp:157] Top shape: 90 1 127 50 (571500)
I0525 04:49:15.542364 22762 net.cpp:157] Top shape: 90 (90)
I0525 04:49:15.542377 22762 net.cpp:165] Memory required for data: 2286360
I0525 04:49:15.542397 22762 layer_factory.hpp:77] Creating layer conv1
I0525 04:49:15.542429 22762 net.cpp:106] Creating Layer conv1
I0525 04:49:15.542457 22762 net.cpp:454] conv1 <- data
I0525 04:49:15.542482 22762 net.cpp:411] conv1 -> conv1
I0525 04:49:16.490108 22762 net.cpp:150] Setting up conv1
I0525 04:49:16.490162 22762 net.cpp:157] Top shape: 90 12 120 48 (6220800)
I0525 04:49:16.490190 22762 net.cpp:165] Memory required for data: 27169560
I0525 04:49:16.490221 22762 layer_factory.hpp:77] Creating layer relu1
I0525 04:49:16.490244 22762 net.cpp:106] Creating Layer relu1
I0525 04:49:16.490264 22762 net.cpp:454] relu1 <- conv1
I0525 04:49:16.490300 22762 net.cpp:397] relu1 -> conv1 (in-place)
I0525 04:49:16.490828 22762 net.cpp:150] Setting up relu1
I0525 04:49:16.490851 22762 net.cpp:157] Top shape: 90 12 120 48 (6220800)
I0525 04:49:16.490864 22762 net.cpp:165] Memory required for data: 52052760
I0525 04:49:16.490880 22762 layer_factory.hpp:77] Creating layer pool1
I0525 04:49:16.490907 22762 net.cpp:106] Creating Layer pool1
I0525 04:49:16.490921 22762 net.cpp:454] pool1 <- conv1
I0525 04:49:16.490937 22762 net.cpp:411] pool1 -> pool1
I0525 04:49:16.491022 22762 net.cpp:150] Setting up pool1
I0525 04:49:16.491040 22762 net.cpp:157] Top shape: 90 12 60 48 (3110400)
I0525 04:49:16.491052 22762 net.cpp:165] Memory required for data: 64494360
I0525 04:49:16.491065 22762 layer_factory.hpp:77] Creating layer conv2
I0525 04:49:16.491089 22762 net.cpp:106] Creating Layer conv2
I0525 04:49:16.491102 22762 net.cpp:454] conv2 <- pool1
I0525 04:49:16.491118 22762 net.cpp:411] conv2 -> conv2
I0525 04:49:16.493892 22762 net.cpp:150] Setting up conv2
I0525 04:49:16.493923 22762 net.cpp:157] Top shape: 90 20 54 46 (4471200)
I0525 04:49:16.493938 22762 net.cpp:165] Memory required for data: 82379160
I0525 04:49:16.493966 22762 layer_factory.hpp:77] Creating layer relu2
I0525 04:49:16.493994 22762 net.cpp:106] Creating Layer relu2
I0525 04:49:16.494009 22762 net.cpp:454] relu2 <- conv2
I0525 04:49:16.494024 22762 net.cpp:397] relu2 -> conv2 (in-place)
I0525 04:49:16.494382 22762 net.cpp:150] Setting up relu2
I0525 04:49:16.494402 22762 net.cpp:157] Top shape: 90 20 54 46 (4471200)
I0525 04:49:16.494415 22762 net.cpp:165] Memory required for data: 100263960
I0525 04:49:16.494427 22762 layer_factory.hpp:77] Creating layer pool2
I0525 04:49:16.494452 22762 net.cpp:106] Creating Layer pool2
I0525 04:49:16.494467 22762 net.cpp:454] pool2 <- conv2
I0525 04:49:16.494482 22762 net.cpp:411] pool2 -> pool2
I0525 04:49:16.494571 22762 net.cpp:150] Setting up pool2
I0525 04:49:16.494587 22762 net.cpp:157] Top shape: 90 20 27 46 (2235600)
I0525 04:49:16.494599 22762 net.cpp:165] Memory required for data: 109206360
I0525 04:49:16.494611 22762 layer_factory.hpp:77] Creating layer conv3
I0525 04:49:16.494648 22762 net.cpp:106] Creating Layer conv3
I0525 04:49:16.494663 22762 net.cpp:454] conv3 <- pool2
I0525 04:49:16.494679 22762 net.cpp:411] conv3 -> conv3
I0525 04:49:16.496646 22762 net.cpp:150] Setting up conv3
I0525 04:49:16.496672 22762 net.cpp:157] Top shape: 90 28 22 44 (2439360)
I0525 04:49:16.496685 22762 net.cpp:165] Memory required for data: 118963800
I0525 04:49:16.496711 22762 layer_factory.hpp:77] Creating layer relu3
I0525 04:49:16.496731 22762 net.cpp:106] Creating Layer relu3
I0525 04:49:16.496753 22762 net.cpp:454] relu3 <- conv3
I0525 04:49:16.496769 22762 net.cpp:397] relu3 -> conv3 (in-place)
I0525 04:49:16.497265 22762 net.cpp:150] Setting up relu3
I0525 04:49:16.497289 22762 net.cpp:157] Top shape: 90 28 22 44 (2439360)
I0525 04:49:16.497303 22762 net.cpp:165] Memory required for data: 128721240
I0525 04:49:16.497318 22762 layer_factory.hpp:77] Creating layer pool3
I0525 04:49:16.497342 22762 net.cpp:106] Creating Layer pool3
I0525 04:49:16.497355 22762 net.cpp:454] pool3 <- conv3
I0525 04:49:16.497371 22762 net.cpp:411] pool3 -> pool3
I0525 04:49:16.497447 22762 net.cpp:150] Setting up pool3
I0525 04:49:16.497473 22762 net.cpp:157] Top shape: 90 28 11 44 (1219680)
I0525 04:49:16.497485 22762 net.cpp:165] Memory required for data: 133599960
I0525 04:49:16.497498 22762 layer_factory.hpp:77] Creating layer conv4
I0525 04:49:16.497531 22762 net.cpp:106] Creating Layer conv4
I0525 04:49:16.497545 22762 net.cpp:454] conv4 <- pool3
I0525 04:49:16.497568 22762 net.cpp:411] conv4 -> conv4
I0525 04:49:16.500576 22762 net.cpp:150] Setting up conv4
I0525 04:49:16.500609 22762 net.cpp:157] Top shape: 90 36 6 42 (816480)
I0525 04:49:16.500622 22762 net.cpp:165] Memory required for data: 136865880
I0525 04:49:16.500648 22762 layer_factory.hpp:77] Creating layer relu4
I0525 04:49:16.500675 22762 net.cpp:106] Creating Layer relu4
I0525 04:49:16.500689 22762 net.cpp:454] relu4 <- conv4
I0525 04:49:16.500705 22762 net.cpp:397] relu4 -> conv4 (in-place)
I0525 04:49:16.501201 22762 net.cpp:150] Setting up relu4
I0525 04:49:16.501224 22762 net.cpp:157] Top shape: 90 36 6 42 (816480)
I0525 04:49:16.501238 22762 net.cpp:165] Memory required for data: 140131800
I0525 04:49:16.501253 22762 layer_factory.hpp:77] Creating layer pool4
I0525 04:49:16.501269 22762 net.cpp:106] Creating Layer pool4
I0525 04:49:16.501283 22762 net.cpp:454] pool4 <- conv4
I0525 04:49:16.501307 22762 net.cpp:411] pool4 -> pool4
I0525 04:49:16.501382 22762 net.cpp:150] Setting up pool4
I0525 04:49:16.501410 22762 net.cpp:157] Top shape: 90 36 3 42 (408240)
I0525 04:49:16.501422 22762 net.cpp:165] Memory required for data: 141764760
I0525 04:49:16.501437 22762 layer_factory.hpp:77] Creating layer ip1
I0525 04:49:16.501459 22762 net.cpp:106] Creating Layer ip1
I0525 04:49:16.501472 22762 net.cpp:454] ip1 <- pool4
I0525 04:49:16.501494 22762 net.cpp:411] ip1 -> ip1
I0525 04:49:16.516996 22762 net.cpp:150] Setting up ip1
I0525 04:49:16.517027 22762 net.cpp:157] Top shape: 90 196 (17640)
I0525 04:49:16.517048 22762 net.cpp:165] Memory required for data: 141835320
I0525 04:49:16.517076 22762 layer_factory.hpp:77] Creating layer relu5
I0525 04:49:16.517097 22762 net.cpp:106] Creating Layer relu5
I0525 04:49:16.517109 22762 net.cpp:454] relu5 <- ip1
I0525 04:49:16.517138 22762 net.cpp:397] relu5 -> ip1 (in-place)
I0525 04:49:16.517495 22762 net.cpp:150] Setting up relu5
I0525 04:49:16.517515 22762 net.cpp:157] Top shape: 90 196 (17640)
I0525 04:49:16.517527 22762 net.cpp:165] Memory required for data: 141905880
I0525 04:49:16.517540 22762 layer_factory.hpp:77] Creating layer drop1
I0525 04:49:16.517566 22762 net.cpp:106] Creating Layer drop1
I0525 04:49:16.517580 22762 net.cpp:454] drop1 <- ip1
I0525 04:49:16.517596 22762 net.cpp:397] drop1 -> ip1 (in-place)
I0525 04:49:16.517669 22762 net.cpp:150] Setting up drop1
I0525 04:49:16.517686 22762 net.cpp:157] Top shape: 90 196 (17640)
I0525 04:49:16.517699 22762 net.cpp:165] Memory required for data: 141976440
I0525 04:49:16.517710 22762 layer_factory.hpp:77] Creating layer ip2
I0525 04:49:16.517732 22762 net.cpp:106] Creating Layer ip2
I0525 04:49:16.517761 22762 net.cpp:454] ip2 <- ip1
I0525 04:49:16.517779 22762 net.cpp:411] ip2 -> ip2
I0525 04:49:16.518277 22762 net.cpp:150] Setting up ip2
I0525 04:49:16.518297 22762 net.cpp:157] Top shape: 90 98 (8820)
I0525 04:49:16.518311 22762 net.cpp:165] Memory required for data: 142011720
I0525 04:49:16.518332 22762 layer_factory.hpp:77] Creating layer relu6
I0525 04:49:16.518347 22762 net.cpp:106] Creating Layer relu6
I0525 04:49:16.518359 22762 net.cpp:454] relu6 <- ip2
I0525 04:49:16.518375 22762 net.cpp:397] relu6 -> ip2 (in-place)
I0525 04:49:16.518934 22762 net.cpp:150] Setting up relu6
I0525 04:49:16.518955 22762 net.cpp:157] Top shape: 90 98 (8820)
I0525 04:49:16.518980 22762 net.cpp:165] Memory required for data: 142047000
I0525 04:49:16.518992 22762 layer_factory.hpp:77] Creating layer drop2
I0525 04:49:16.519007 22762 net.cpp:106] Creating Layer drop2
I0525 04:49:16.519023 22762 net.cpp:454] drop2 <- ip2
I0525 04:49:16.519047 22762 net.cpp:397] drop2 -> ip2 (in-place)
I0525 04:49:16.519093 22762 net.cpp:150] Setting up drop2
I0525 04:49:16.519112 22762 net.cpp:157] Top shape: 90 98 (8820)
I0525 04:49:16.519124 22762 net.cpp:165] Memory required for data: 142082280
I0525 04:49:16.519143 22762 layer_factory.hpp:77] Creating layer ip3
I0525 04:49:16.519160 22762 net.cpp:106] Creating Layer ip3
I0525 04:49:16.519175 22762 net.cpp:454] ip3 <- ip2
I0525 04:49:16.519189 22762 net.cpp:411] ip3 -> ip3
I0525 04:49:16.519423 22762 net.cpp:150] Setting up ip3
I0525 04:49:16.519443 22762 net.cpp:157] Top shape: 90 11 (990)
I0525 04:49:16.519454 22762 net.cpp:165] Memory required for data: 142086240
I0525 04:49:16.519475 22762 layer_factory.hpp:77] Creating layer drop3
I0525 04:49:16.519496 22762 net.cpp:106] Creating Layer drop3
I0525 04:49:16.519510 22762 net.cpp:454] drop3 <- ip3
I0525 04:49:16.519526 22762 net.cpp:397] drop3 -> ip3 (in-place)
I0525 04:49:16.519572 22762 net.cpp:150] Setting up drop3
I0525 04:49:16.519587 22762 net.cpp:157] Top shape: 90 11 (990)
I0525 04:49:16.519606 22762 net.cpp:165] Memory required for data: 142090200
I0525 04:49:16.519621 22762 layer_factory.hpp:77] Creating layer loss
I0525 04:49:16.519644 22762 net.cpp:106] Creating Layer loss
I0525 04:49:16.519659 22762 net.cpp:454] loss <- ip3
I0525 04:49:16.519680 22762 net.cpp:454] loss <- label
I0525 04:49:16.519695 22762 net.cpp:411] loss -> loss
I0525 04:49:16.519714 22762 layer_factory.hpp:77] Creating layer loss
…
I0525 04:49:16.522603 22762 solver.cpp:181] Creating test net (#0) specified by net file: /lustre/atlas/proj-shared/hep105/caffe_titan/caffe_workflow/logs_bslr/bs_90_lr_0.0010_2016-05-20T15.49.20.538439.prototxt
I0525 04:49:16.522682 22762 net.cpp:322] The NetState phase (1) differed from the phase (0) specified by a rule in layer data_hdf5
I0525 04:49:16.523059 22762 net.cpp:49] Initializing net from parameters: 
name: "caffe_test_127x50_x_unshifted"
state {
  phase: TEST
}
layer {
  name: "data_hdf5"
  type: "HDF5Data"
  top: "data"
  top: "label"
  include {
    phase: TEST
  }
  hdf5_data_param {
    source: "/lustre/atlas/proj-shared/hep105/caffe_titan/minosmatch_nukecczdefs_127x50_x_unshifted_me1Bmc.testlist"
    batch_size: 90
  }
}
layer {
  name: "conv1"
  type: "Convolution"
  bottom: "data"
  top: "conv1"
  convolution_param {
    num_output: 12
    pad: 0
    stride: 1
    weight_filler {
      type: "xavier"
    }
    bias_filler {
      type: "constant"
    }
    kernel_h: 8
    kernel_w: 3
  }
}
layer {
  name: "relu1"
  type: "ReLU"
  bottom: "conv1"
  top: "conv1"
}
layer {
  name: "pool1"
  type: "Pooling"
  bottom: "conv1"
  top: "pool1"
  pooling_param {
    pool: MAX
    kernel_h: 2
    kernel_w: 1
    stride_h: 2
    stride_w: 1
  }
}
layer {
  name: "conv2"
  type: "Convolution"
  bottom: "pool1"
  top: "conv2"
  convolution_param {
    num_output: 20
    pad: 0
    stride: 1
    weight_filler {
      type: "xavier"
    }
    bias_filler {
      type: "constant"
    }
    kernel_h: 7
    kernel_w: 3
  }
}
layer {
  name: "relu2"
  type: "ReLU"
  bottom: "conv2"
  top: "conv2"
}
layer {
  name: "pool2"
  type: "Pooling"
  bottom: "conv2"
  top: "pool2"
  pooling_param {
    pool: MAX
    kernel_h: 2
    kernel_w: 1
    stride_h: 2
    stride_w: 1
  }
}
layer {
  name: "conv3"
  type: "Convolution"
  bottom: "pool2"
  top: "conv3"
  convolution_param {
    num_output: 28
    pad: 0
    stride: 1
    weight_filler {
      type: "xavier"
    }
    bias_filler {
      type: "constant"
    }
    kernel_h: 6
    kernel_w: 3
  }
}
layer {
  name: "relu3"
  type: "ReLU"
  bottom: "conv3"
  top: "conv3"
}
layer {
  name: "pool3"
  type: "Pooling"
  bottom: "conv3"
  top: "pool3"
  pooling_param {
    pool: MAX
    kernel_h: 2
    kernel_w: 1
    stride_h: 2
    stride_w: 1
  }
}
layer {
  name: "conv4"
  type: "Convolution"
  bottom: "pool3"
  top: "conv4"
  convolution_param {
    num_output: 36
    pad: 0
    stride: 1
    weight_filler {
      type: "xavier"
    }
    bias_filler {
      type: "constant"
    }
    kernel_h: 6
    kernel_w: 3
  }
}
layer {
  name: "relu4"
  type: "ReLU"
  bottom: "conv4"
  top: "conv4"
}
layer {
  name: "pool4"
  type: "Pooling"
  bottom: "conv4"
  top: "pool4"
  pooling_param {
    pool: MAX
    kernel_h: 2
    kernel_w: 1
    stride_h: 2
    stride_w: 1
  }
}
layer {
  name: "ip1"
  type: "InnerProduct"
  bottom: "pool4"
  top: "ip1"
  inner_product_param {
    num_output: 196
    weight_filler {
      type: "xavier"
    }
    bias_filler {
      type: "constant"
    }
  }
}
layer {
  name: "relu5"
  type: "ReLU"
  bottom: "ip1"
  top: "ip1"
}
layer {
  name: "drop1"
  type: "Dropout"
  bottom: "ip1"
  top: "ip1"
  dropout_param {
    dropout_ratio: 0.5
  }
}
layer {
  name: "ip2"
  type: "InnerProduct"
  bottom: "ip1"
  top: "ip2"
  inner_product_param {
    num_output: 98
    weight_filler {
      type: "xavier"
    }
    bias_filler {
      type: "constant"
    }
  }
}
layer {
  name: "relu6"
  type: "ReLU"
  bottom: "ip2"
  top: "ip2"
}
layer {
  name: "drop2"
  type: "Dropout"
  bottom: "ip2"
  top: "ip2"
  dropout_param {
    dropout_ratio: 0.5
  }
}
layer {
  name: "ip3"
  type: "InnerProduct"
  bottom: "ip2"
  top: "ip3"
  inner_product_param {
    num_output: 11
    weight_filler {
      type: "xavier"
    }
    bias_filler {
      type: "constant"
    }
  }
}
layer {
  name: "drop3"
  type: "Dropout"
  bottom: "ip3"
  top: "ip3"
  dropout_param {
    dropout_ratio: 0.5
  }
}
layer {
  name: "accuracy"
  type: "Accuracy"
  bottom: "ip3"
  bottom: "label"
  top: "accuracy"
  include {
    phase: TEST
  }
}
layer {
  name: "loss"
  type: "SoftmaxWithLoss"
  bottom: "ip3"
  bottom: "label"
  top: "loss"
}
I0525 04:49:16.523275 22762 layer_factory.hpp:77] Creating layer data_hdf5
I0525 04:49:16.523301 22762 net.cpp:106] Creating Layer data_hdf5
I0525 04:49:16.523320 22762 net.cpp:411] data_hdf5 -> data
I0525 04:49:16.523340 22762 net.cpp:411] data_hdf5 -> label
I0525 04:49:16.523361 22762 hdf5_data_layer.cpp:79] Loading list of HDF5 filenames from: /lustre/atlas/proj-shared/hep105/caffe_titan/minosmatch_nukecczdefs_127x50_x_unshifted_me1Bmc.testlist
I0525 04:49:16.524706 22762 hdf5_data_layer.cpp:93] Number of HDF5 files: 3
I0525 04:49:37.816859 22762 net.cpp:150] Setting up data_hdf5
I0525 04:49:37.817028 22762 net.cpp:157] Top shape: 90 1 127 50 (571500)
I0525 04:49:37.817046 22762 net.cpp:157] Top shape: 90 (90)
I0525 04:49:37.817059 22762 net.cpp:165] Memory required for data: 2286360
I0525 04:49:37.817073 22762 layer_factory.hpp:77] Creating layer label_data_hdf5_1_split
I0525 04:49:37.817107 22762 net.cpp:106] Creating Layer label_data_hdf5_1_split
I0525 04:49:37.817121 22762 net.cpp:454] label_data_hdf5_1_split <- label
I0525 04:49:37.817137 22762 net.cpp:411] label_data_hdf5_1_split -> label_data_hdf5_1_split_0
I0525 04:49:37.817159 22762 net.cpp:411] label_data_hdf5_1_split -> label_data_hdf5_1_split_1
I0525 04:49:37.817235 22762 net.cpp:150] Setting up label_data_hdf5_1_split
I0525 04:49:37.817252 22762 net.cpp:157] Top shape: 90 (90)
I0525 04:49:37.817267 22762 net.cpp:157] Top shape: 90 (90)
I0525 04:49:37.817281 22762 net.cpp:165] Memory required for data: 2287080
I0525 04:49:37.817325 22762 layer_factory.hpp:77] Creating layer conv1
I0525 04:49:37.817360 22762 net.cpp:106] Creating Layer conv1
I0525 04:49:37.817374 22762 net.cpp:454] conv1 <- data
I0525 04:49:37.817401 22762 net.cpp:411] conv1 -> conv1
I0525 04:49:37.819387 22762 net.cpp:150] Setting up conv1
I0525 04:49:37.819412 22762 net.cpp:157] Top shape: 90 12 120 48 (6220800)
I0525 04:49:37.819432 22762 net.cpp:165] Memory required for data: 27170280
I0525 04:49:37.819455 22762 layer_factory.hpp:77] Creating layer relu1
I0525 04:49:37.819476 22762 net.cpp:106] Creating Layer relu1
I0525 04:49:37.819489 22762 net.cpp:454] relu1 <- conv1
I0525 04:49:37.819506 22762 net.cpp:397] relu1 -> conv1 (in-place)
I0525 04:49:37.820032 22762 net.cpp:150] Setting up relu1
I0525 04:49:37.820056 22762 net.cpp:157] Top shape: 90 12 120 48 (6220800)
I0525 04:49:37.820070 22762 net.cpp:165] Memory required for data: 52053480
I0525 04:49:37.820081 22762 layer_factory.hpp:77] Creating layer pool1
I0525 04:49:37.820103 22762 net.cpp:106] Creating Layer pool1
I0525 04:49:37.820117 22762 net.cpp:454] pool1 <- conv1
I0525 04:49:37.820133 22762 net.cpp:411] pool1 -> pool1
I0525 04:49:37.820233 22762 net.cpp:150] Setting up pool1
I0525 04:49:37.820257 22762 net.cpp:157] Top shape: 90 12 60 48 (3110400)
I0525 04:49:37.820281 22762 net.cpp:165] Memory required for data: 64495080
I0525 04:49:37.820292 22762 layer_factory.hpp:77] Creating layer conv2
I0525 04:49:37.820314 22762 net.cpp:106] Creating Layer conv2
I0525 04:49:37.820327 22762 net.cpp:454] conv2 <- pool1
I0525 04:49:37.820349 22762 net.cpp:411] conv2 -> conv2
I0525 04:49:37.822304 22762 net.cpp:150] Setting up conv2
I0525 04:49:37.822329 22762 net.cpp:157] Top shape: 90 20 54 46 (4471200)
I0525 04:49:37.822350 22762 net.cpp:165] Memory required for data: 82379880
I0525 04:49:37.822371 22762 layer_factory.hpp:77] Creating layer relu2
I0525 04:49:37.822391 22762 net.cpp:106] Creating Layer relu2
I0525 04:49:37.822403 22762 net.cpp:454] relu2 <- conv2
I0525 04:49:37.822418 22762 net.cpp:397] relu2 -> conv2 (in-place)
I0525 04:49:37.822777 22762 net.cpp:150] Setting up relu2
I0525 04:49:37.822796 22762 net.cpp:157] Top shape: 90 20 54 46 (4471200)
I0525 04:49:37.822808 22762 net.cpp:165] Memory required for data: 100264680
I0525 04:49:37.822824 22762 layer_factory.hpp:77] Creating layer pool2
I0525 04:49:37.822846 22762 net.cpp:106] Creating Layer pool2
I0525 04:49:37.822860 22762 net.cpp:454] pool2 <- conv2
I0525 04:49:37.822875 22762 net.cpp:411] pool2 -> pool2
I0525 04:49:37.822964 22762 net.cpp:150] Setting up pool2
I0525 04:49:37.822986 22762 net.cpp:157] Top shape: 90 20 27 46 (2235600)
I0525 04:49:37.822999 22762 net.cpp:165] Memory required for data: 109207080
I0525 04:49:37.823014 22762 layer_factory.hpp:77] Creating layer conv3
I0525 04:49:37.823035 22762 net.cpp:106] Creating Layer conv3
I0525 04:49:37.823048 22762 net.cpp:454] conv3 <- pool2
I0525 04:49:37.823072 22762 net.cpp:411] conv3 -> conv3
I0525 04:49:37.825101 22762 net.cpp:150] Setting up conv3
I0525 04:49:37.825126 22762 net.cpp:157] Top shape: 90 28 22 44 (2439360)
I0525 04:49:37.825145 22762 net.cpp:165] Memory required for data: 118964520
I0525 04:49:37.825186 22762 layer_factory.hpp:77] Creating layer relu3
I0525 04:49:37.825212 22762 net.cpp:106] Creating Layer relu3
I0525 04:49:37.825224 22762 net.cpp:454] relu3 <- conv3
I0525 04:49:37.825240 22762 net.cpp:397] relu3 -> conv3 (in-place)
I0525 04:49:37.825736 22762 net.cpp:150] Setting up relu3
I0525 04:49:37.825758 22762 net.cpp:157] Top shape: 90 28 22 44 (2439360)
I0525 04:49:37.825772 22762 net.cpp:165] Memory required for data: 128721960
I0525 04:49:37.825788 22762 layer_factory.hpp:77] Creating layer pool3
I0525 04:49:37.825803 22762 net.cpp:106] Creating Layer pool3
I0525 04:49:37.825824 22762 net.cpp:454] pool3 <- conv3
I0525 04:49:37.825841 22762 net.cpp:411] pool3 -> pool3
I0525 04:49:37.825920 22762 net.cpp:150] Setting up pool3
I0525 04:49:37.825937 22762 net.cpp:157] Top shape: 90 28 11 44 (1219680)
I0525 04:49:37.825956 22762 net.cpp:165] Memory required for data: 133600680
I0525 04:49:37.825971 22762 layer_factory.hpp:77] Creating layer conv4
I0525 04:49:37.825991 22762 net.cpp:106] Creating Layer conv4
I0525 04:49:37.826005 22762 net.cpp:454] conv4 <- pool3
I0525 04:49:37.826021 22762 net.cpp:411] conv4 -> conv4
I0525 04:49:37.828174 22762 net.cpp:150] Setting up conv4
I0525 04:49:37.828198 22762 net.cpp:157] Top shape: 90 36 6 42 (816480)
I0525 04:49:37.828218 22762 net.cpp:165] Memory required for data: 136866600
I0525 04:49:37.828238 22762 layer_factory.hpp:77] Creating layer relu4
I0525 04:49:37.828258 22762 net.cpp:106] Creating Layer relu4
I0525 04:49:37.828285 22762 net.cpp:454] relu4 <- conv4
I0525 04:49:37.828302 22762 net.cpp:397] relu4 -> conv4 (in-place)
I0525 04:49:37.828794 22762 net.cpp:150] Setting up relu4
I0525 04:49:37.828817 22762 net.cpp:157] Top shape: 90 36 6 42 (816480)
I0525 04:49:37.828830 22762 net.cpp:165] Memory required for data: 140132520
I0525 04:49:37.828846 22762 layer_factory.hpp:77] Creating layer pool4
I0525 04:49:37.828862 22762 net.cpp:106] Creating Layer pool4
I0525 04:49:37.828877 22762 net.cpp:454] pool4 <- conv4
I0525 04:49:37.828902 22762 net.cpp:411] pool4 -> pool4
I0525 04:49:37.828989 22762 net.cpp:150] Setting up pool4
I0525 04:49:37.829006 22762 net.cpp:157] Top shape: 90 36 3 42 (408240)
I0525 04:49:37.829020 22762 net.cpp:165] Memory required for data: 141765480
I0525 04:49:37.829032 22762 layer_factory.hpp:77] Creating layer ip1
I0525 04:49:37.829051 22762 net.cpp:106] Creating Layer ip1
I0525 04:49:37.829069 22762 net.cpp:454] ip1 <- pool4
I0525 04:49:37.829092 22762 net.cpp:411] ip1 -> ip1
I0525 04:49:37.844602 22762 net.cpp:150] Setting up ip1
I0525 04:49:37.844636 22762 net.cpp:157] Top shape: 90 196 (17640)
I0525 04:49:37.844650 22762 net.cpp:165] Memory required for data: 141836040
I0525 04:49:37.844681 22762 layer_factory.hpp:77] Creating layer relu5
I0525 04:49:37.844708 22762 net.cpp:106] Creating Layer relu5
I0525 04:49:37.844722 22762 net.cpp:454] relu5 <- ip1
I0525 04:49:37.844739 22762 net.cpp:397] relu5 -> ip1 (in-place)
I0525 04:49:37.845118 22762 net.cpp:150] Setting up relu5
I0525 04:49:37.845139 22762 net.cpp:157] Top shape: 90 196 (17640)
I0525 04:49:37.845152 22762 net.cpp:165] Memory required for data: 141906600
I0525 04:49:37.845167 22762 layer_factory.hpp:77] Creating layer drop1
I0525 04:49:37.845188 22762 net.cpp:106] Creating Layer drop1
I0525 04:49:37.845201 22762 net.cpp:454] drop1 <- ip1
I0525 04:49:37.845217 22762 net.cpp:397] drop1 -> ip1 (in-place)
I0525 04:49:37.845268 22762 net.cpp:150] Setting up drop1
I0525 04:49:37.845284 22762 net.cpp:157] Top shape: 90 196 (17640)
I0525 04:49:37.845298 22762 net.cpp:165] Memory required for data: 141977160
I0525 04:49:37.845332 22762 layer_factory.hpp:77] Creating layer ip2
I0525 04:49:37.845350 22762 net.cpp:106] Creating Layer ip2
I0525 04:49:37.845376 22762 net.cpp:454] ip2 <- ip1
I0525 04:49:37.845392 22762 net.cpp:411] ip2 -> ip2
I0525 04:49:37.845887 22762 net.cpp:150] Setting up ip2
I0525 04:49:37.845906 22762 net.cpp:157] Top shape: 90 98 (8820)
I0525 04:49:37.845919 22762 net.cpp:165] Memory required for data: 142012440
I0525 04:49:37.845937 22762 layer_factory.hpp:77] Creating layer relu6
I0525 04:49:37.845966 22762 net.cpp:106] Creating Layer relu6
I0525 04:49:37.845979 22762 net.cpp:454] relu6 <- ip2
I0525 04:49:37.845995 22762 net.cpp:397] relu6 -> ip2 (in-place)
I0525 04:49:37.846573 22762 net.cpp:150] Setting up relu6
I0525 04:49:37.846596 22762 net.cpp:157] Top shape: 90 98 (8820)
I0525 04:49:37.846611 22762 net.cpp:165] Memory required for data: 142047720
I0525 04:49:37.846623 22762 layer_factory.hpp:77] Creating layer drop2
I0525 04:49:37.846642 22762 net.cpp:106] Creating Layer drop2
I0525 04:49:37.846657 22762 net.cpp:454] drop2 <- ip2
I0525 04:49:37.846673 22762 net.cpp:397] drop2 -> ip2 (in-place)
I0525 04:49:37.846720 22762 net.cpp:150] Setting up drop2
I0525 04:49:37.846750 22762 net.cpp:157] Top shape: 90 98 (8820)
I0525 04:49:37.846765 22762 net.cpp:165] Memory required for data: 142083000
I0525 04:49:37.846776 22762 layer_factory.hpp:77] Creating layer ip3
I0525 04:49:37.846793 22762 net.cpp:106] Creating Layer ip3
I0525 04:49:37.846806 22762 net.cpp:454] ip3 <- ip2
I0525 04:49:37.846822 22762 net.cpp:411] ip3 -> ip3
I0525 04:49:37.847079 22762 net.cpp:150] Setting up ip3
I0525 04:49:37.847100 22762 net.cpp:157] Top shape: 90 11 (990)
I0525 04:49:37.847112 22762 net.cpp:165] Memory required for data: 142086960
I0525 04:49:37.847133 22762 layer_factory.hpp:77] Creating layer drop3
I0525 04:49:37.847157 22762 net.cpp:106] Creating Layer drop3
I0525 04:49:37.847169 22762 net.cpp:454] drop3 <- ip3
I0525 04:49:37.847185 22762 net.cpp:397] drop3 -> ip3 (in-place)
I0525 04:49:37.847234 22762 net.cpp:150] Setting up drop3
I0525 04:49:37.847256 22762 net.cpp:157] Top shape: 90 11 (990)
I0525 04:49:37.847268 22762 net.cpp:165] Memory required for data: 142090920
I0525 04:49:37.847287 22762 layer_factory.hpp:77] Creating layer ip3_drop3_0_split
I0525 04:49:37.847303 22762 net.cpp:106] Creating Layer ip3_drop3_0_split
I0525 04:49:37.847316 22762 net.cpp:454] ip3_drop3_0_split <- ip3
I0525 04:49:37.847333 22762 net.cpp:411] ip3_drop3_0_split -> ip3_drop3_0_split_0
I0525 04:49:37.847358 22762 net.cpp:411] ip3_drop3_0_split -> ip3_drop3_0_split_1
I0525 04:49:37.847445 22762 net.cpp:150] Setting up ip3_drop3_0_split
I0525 04:49:37.847462 22762 net.cpp:157] Top shape: 90 11 (990)
I0525 04:49:37.847477 22762 net.cpp:157] Top shape: 90 11 (990)
I0525 04:49:37.847492 22762 net.cpp:165] Memory required for data: 142098840
I0525 04:49:37.847504 22762 layer_factory.hpp:77] Creating layer accuracy
I0525 04:49:37.847533 22762 net.cpp:106] Creating Layer accuracy
I0525 04:49:37.847556 22762 net.cpp:454] accuracy <- ip3_drop3_0_split_0
I0525 04:49:37.847570 22762 net.cpp:454] accuracy <- label_data_hdf5_1_split_0
I0525 04:49:37.847586 22762 net.cpp:411] accuracy -> accuracy
…
