…
I0525 04:52:28.087363 20374 net.cpp:322] The NetState phase (0) differed from the phase (1) specified by a rule in layer data_hdf5
I0525 04:52:28.087429 20374 net.cpp:322] The NetState phase (0) differed from the phase (1) specified by a rule in layer accuracy
I0525 04:52:28.087808 20374 net.cpp:49] Initializing net from parameters: 
name: "caffe_test_127x50_x_unshifted"
state {
  phase: TRAIN
}
layer {
  name: "data_hdf5"
  type: "HDF5Data"
  top: "data"
  top: "label"
  include {
    phase: TRAIN
  }
  hdf5_data_param {
    source: "/lustre/atlas/proj-shared/hep105/caffe_titan/minosmatch_nukecczdefs_127x50_x_unshifted_me1Bmc.trainlist"
    batch_size: 90
  }
}
layer {
  name: "conv1"
  type: "Convolution"
  bottom: "data"
  top: "conv1"
  convolution_param {
    num_output: 12
    pad: 0
    stride: 1
    weight_filler {
      type: "xavier"
    }
    bias_filler {
      type: "constant"
    }
    kernel_h: 8
    kernel_w: 3
  }
}
layer {
  name: "relu1"
  type: "ReLU"
  bottom: "conv1"
  top: "conv1"
}
layer {
  name: "pool1"
  type: "Pooling"
  bottom: "conv1"
  top: "pool1"
  pooling_param {
    pool: MAX
    kernel_h: 2
    kernel_w: 1
    stride_h: 2
    stride_w: 1
  }
}
layer {
  name: "conv2"
  type: "Convolution"
  bottom: "pool1"
  top: "conv2"
  convolution_param {
    num_output: 20
    pad: 0
    stride: 1
    weight_filler {
      type: "xavier"
    }
    bias_filler {
      type: "constant"
    }
    kernel_h: 7
    kernel_w: 3
  }
}
layer {
  name: "relu2"
  type: "ReLU"
  bottom: "conv2"
  top: "conv2"
}
layer {
  name: "pool2"
  type: "Pooling"
  bottom: "conv2"
  top: "pool2"
  pooling_param {
    pool: MAX
    kernel_h: 2
    kernel_w: 1
    stride_h: 2
    stride_w: 1
  }
}
layer {
  name: "conv3"
  type: "Convolution"
  bottom: "pool2"
  top: "conv3"
  convolution_param {
    num_output: 28
    pad: 0
    stride: 1
    weight_filler {
      type: "xavier"
    }
    bias_filler {
      type: "constant"
    }
    kernel_h: 6
    kernel_w: 3
  }
}
layer {
  name: "relu3"
  type: "ReLU"
  bottom: "conv3"
  top: "conv3"
}
layer {
  name: "pool3"
  type: "Pooling"
  bottom: "conv3"
  top: "pool3"
  pooling_param {
    pool: MAX
    kernel_h: 2
    kernel_w: 1
    stride_h: 2
    stride_w: 1
  }
}
layer {
  name: "conv4"
  type: "Convolution"
  bottom: "pool3"
  top: "conv4"
  convolution_param {
    num_output: 36
    pad: 0
    stride: 1
    weight_filler {
      type: "xavier"
    }
    bias_filler {
      type: "constant"
    }
    kernel_h: 6
    kernel_w: 3
  }
}
layer {
  name: "relu4"
  type: "ReLU"
  bottom: "conv4"
  top: "conv4"
}
layer {
  name: "pool4"
  type: "Pooling"
  bottom: "conv4"
  top: "pool4"
  pooling_param {
    pool: MAX
    kernel_h: 2
    kernel_w: 1
    stride_h: 2
    stride_w: 1
  }
}
layer {
  name: "ip1"
  type: "InnerProduct"
  bottom: "pool4"
  top: "ip1"
  inner_product_param {
    num_output: 196
    weight_filler {
      type: "xavier"
    }
    bias_filler {
      type: "constant"
    }
  }
}
layer {
  name: "relu5"
  type: "ReLU"
  bottom: "ip1"
  top: "ip1"
}
layer {
  name: "drop1"
  type: "Dropout"
  bottom: "ip1"
  top: "ip1"
  dropout_param {
    dropout_ratio: 0.5
  }
}
layer {
  name: "ip2"
  type: "InnerProduct"
  bottom: "ip1"
  top: "ip2"
  inner_product_param {
    num_output: 98
    weight_filler {
      type: "xavier"
    }
    bias_filler {
      type: "constant"
    }
  }
}
layer {
  name: "relu6"
  type: "ReLU"
  bottom: "ip2"
  top: "ip2"
}
layer {
  name: "drop2"
  type: "Dropout"
  bottom: "ip2"
  top: "ip2"
  dropout_param {
    dropout_ratio: 0.5
  }
}
layer {
  name: "ip3"
  type: "InnerProduct"
  bottom: "ip2"
  top: "ip3"
  inner_product_param {
    num_output: 11
    weight_filler {
      type: "xavier"
    }
    bias_filler {
      type: "constant"
    }
  }
}
layer {
  name: "drop3"
  type: "Dropout"
  bottom: "ip3"
  top: "ip3"
  dropout_param {
    dropout_ratio: 0.5
  }
}
layer {
  name: "loss"
  type: "SoftmaxWithLoss"
  bottom: "ip3"
  bottom: "label"
  top: "loss"
}
I0525 04:52:28.088004 20374 layer_factory.hpp:77] Creating layer data_hdf5
I0525 04:52:28.088032 20374 net.cpp:106] Creating Layer data_hdf5
I0525 04:52:28.088047 20374 net.cpp:411] data_hdf5 -> data
I0525 04:52:28.088079 20374 net.cpp:411] data_hdf5 -> label
I0525 04:52:28.088145 20374 hdf5_data_layer.cpp:79] Loading list of HDF5 filenames from: /lustre/atlas/proj-shared/hep105/caffe_titan/minosmatch_nukecczdefs_127x50_x_unshifted_me1Bmc.trainlist
I0525 04:52:28.089617 20374 hdf5_data_layer.cpp:93] Number of HDF5 files: 15
I0525 04:52:28.092308 20374 hdf5.cpp:32] Datatype class: H5T_FLOAT
I0525 04:52:49.655263 20374 hdf5.cpp:35] Datatype class: H5T_INTEGER
I0525 04:52:49.660377 20374 net.cpp:150] Setting up data_hdf5
I0525 04:52:49.660418 20374 net.cpp:157] Top shape: 90 1 127 50 (571500)
I0525 04:52:49.660436 20374 net.cpp:157] Top shape: 90 (90)
I0525 04:52:49.660449 20374 net.cpp:165] Memory required for data: 2286360
I0525 04:52:49.660480 20374 layer_factory.hpp:77] Creating layer conv1
I0525 04:52:49.660513 20374 net.cpp:106] Creating Layer conv1
I0525 04:52:49.660527 20374 net.cpp:454] conv1 <- data
I0525 04:52:49.660552 20374 net.cpp:411] conv1 -> conv1
I0525 04:52:50.025759 20374 net.cpp:150] Setting up conv1
I0525 04:52:50.025817 20374 net.cpp:157] Top shape: 90 12 120 48 (6220800)
I0525 04:52:50.025840 20374 net.cpp:165] Memory required for data: 27169560
I0525 04:52:50.025869 20374 layer_factory.hpp:77] Creating layer relu1
I0525 04:52:50.025898 20374 net.cpp:106] Creating Layer relu1
I0525 04:52:50.025933 20374 net.cpp:454] relu1 <- conv1
I0525 04:52:50.025949 20374 net.cpp:397] relu1 -> conv1 (in-place)
I0525 04:52:50.026478 20374 net.cpp:150] Setting up relu1
I0525 04:52:50.026500 20374 net.cpp:157] Top shape: 90 12 120 48 (6220800)
I0525 04:52:50.026513 20374 net.cpp:165] Memory required for data: 52052760
I0525 04:52:50.026530 20374 layer_factory.hpp:77] Creating layer pool1
I0525 04:52:50.026557 20374 net.cpp:106] Creating Layer pool1
I0525 04:52:50.026571 20374 net.cpp:454] pool1 <- conv1
I0525 04:52:50.026587 20374 net.cpp:411] pool1 -> pool1
I0525 04:52:50.026680 20374 net.cpp:150] Setting up pool1
I0525 04:52:50.026698 20374 net.cpp:157] Top shape: 90 12 60 48 (3110400)
I0525 04:52:50.026720 20374 net.cpp:165] Memory required for data: 64494360
I0525 04:52:50.026734 20374 layer_factory.hpp:77] Creating layer conv2
I0525 04:52:50.026758 20374 net.cpp:106] Creating Layer conv2
I0525 04:52:50.026772 20374 net.cpp:454] conv2 <- pool1
I0525 04:52:50.026790 20374 net.cpp:411] conv2 -> conv2
I0525 04:52:50.029556 20374 net.cpp:150] Setting up conv2
I0525 04:52:50.029587 20374 net.cpp:157] Top shape: 90 20 54 46 (4471200)
I0525 04:52:50.029603 20374 net.cpp:165] Memory required for data: 82379160
I0525 04:52:50.029630 20374 layer_factory.hpp:77] Creating layer relu2
I0525 04:52:50.029659 20374 net.cpp:106] Creating Layer relu2
I0525 04:52:50.029672 20374 net.cpp:454] relu2 <- conv2
I0525 04:52:50.029688 20374 net.cpp:397] relu2 -> conv2 (in-place)
I0525 04:52:50.030047 20374 net.cpp:150] Setting up relu2
I0525 04:52:50.030067 20374 net.cpp:157] Top shape: 90 20 54 46 (4471200)
I0525 04:52:50.030081 20374 net.cpp:165] Memory required for data: 100263960
I0525 04:52:50.030092 20374 layer_factory.hpp:77] Creating layer pool2
I0525 04:52:50.030118 20374 net.cpp:106] Creating Layer pool2
I0525 04:52:50.030131 20374 net.cpp:454] pool2 <- conv2
I0525 04:52:50.030148 20374 net.cpp:411] pool2 -> pool2
I0525 04:52:50.030242 20374 net.cpp:150] Setting up pool2
I0525 04:52:50.030261 20374 net.cpp:157] Top shape: 90 20 27 46 (2235600)
I0525 04:52:50.030283 20374 net.cpp:165] Memory required for data: 109206360
I0525 04:52:50.030297 20374 layer_factory.hpp:77] Creating layer conv3
I0525 04:52:50.030318 20374 net.cpp:106] Creating Layer conv3
I0525 04:52:50.030331 20374 net.cpp:454] conv3 <- pool2
I0525 04:52:50.030346 20374 net.cpp:411] conv3 -> conv3
I0525 04:52:50.032295 20374 net.cpp:150] Setting up conv3
I0525 04:52:50.032320 20374 net.cpp:157] Top shape: 90 28 22 44 (2439360)
I0525 04:52:50.032342 20374 net.cpp:165] Memory required for data: 118963800
I0525 04:52:50.032368 20374 layer_factory.hpp:77] Creating layer relu3
I0525 04:52:50.032397 20374 net.cpp:106] Creating Layer relu3
I0525 04:52:50.032410 20374 net.cpp:454] relu3 <- conv3
I0525 04:52:50.032426 20374 net.cpp:397] relu3 -> conv3 (in-place)
I0525 04:52:50.032925 20374 net.cpp:150] Setting up relu3
I0525 04:52:50.032949 20374 net.cpp:157] Top shape: 90 28 22 44 (2439360)
I0525 04:52:50.032963 20374 net.cpp:165] Memory required for data: 128721240
I0525 04:52:50.032979 20374 layer_factory.hpp:77] Creating layer pool3
I0525 04:52:50.033001 20374 net.cpp:106] Creating Layer pool3
I0525 04:52:50.033015 20374 net.cpp:454] pool3 <- conv3
I0525 04:52:50.033031 20374 net.cpp:411] pool3 -> pool3
I0525 04:52:50.033113 20374 net.cpp:150] Setting up pool3
I0525 04:52:50.033130 20374 net.cpp:157] Top shape: 90 28 11 44 (1219680)
I0525 04:52:50.033146 20374 net.cpp:165] Memory required for data: 133599960
I0525 04:52:50.033159 20374 layer_factory.hpp:77] Creating layer conv4
I0525 04:52:50.033185 20374 net.cpp:106] Creating Layer conv4
I0525 04:52:50.033200 20374 net.cpp:454] conv4 <- pool3
I0525 04:52:50.033216 20374 net.cpp:411] conv4 -> conv4
I0525 04:52:50.036193 20374 net.cpp:150] Setting up conv4
I0525 04:52:50.036226 20374 net.cpp:157] Top shape: 90 36 6 42 (816480)
I0525 04:52:50.036240 20374 net.cpp:165] Memory required for data: 136865880
I0525 04:52:50.036259 20374 layer_factory.hpp:77] Creating layer relu4
I0525 04:52:50.036293 20374 net.cpp:106] Creating Layer relu4
I0525 04:52:50.036308 20374 net.cpp:454] relu4 <- conv4
I0525 04:52:50.036332 20374 net.cpp:397] relu4 -> conv4 (in-place)
I0525 04:52:50.036823 20374 net.cpp:150] Setting up relu4
I0525 04:52:50.036846 20374 net.cpp:157] Top shape: 90 36 6 42 (816480)
I0525 04:52:50.036859 20374 net.cpp:165] Memory required for data: 140131800
I0525 04:52:50.036875 20374 layer_factory.hpp:77] Creating layer pool4
I0525 04:52:50.036900 20374 net.cpp:106] Creating Layer pool4
I0525 04:52:50.036912 20374 net.cpp:454] pool4 <- conv4
I0525 04:52:50.036928 20374 net.cpp:411] pool4 -> pool4
I0525 04:52:50.037011 20374 net.cpp:150] Setting up pool4
I0525 04:52:50.037029 20374 net.cpp:157] Top shape: 90 36 3 42 (408240)
I0525 04:52:50.037044 20374 net.cpp:165] Memory required for data: 141764760
I0525 04:52:50.037055 20374 layer_factory.hpp:77] Creating layer ip1
I0525 04:52:50.037084 20374 net.cpp:106] Creating Layer ip1
I0525 04:52:50.037097 20374 net.cpp:454] ip1 <- pool4
I0525 04:52:50.037113 20374 net.cpp:411] ip1 -> ip1
I0525 04:52:50.052528 20374 net.cpp:150] Setting up ip1
I0525 04:52:50.052566 20374 net.cpp:157] Top shape: 90 196 (17640)
I0525 04:52:50.052579 20374 net.cpp:165] Memory required for data: 141835320
I0525 04:52:50.052609 20374 layer_factory.hpp:77] Creating layer relu5
I0525 04:52:50.052626 20374 net.cpp:106] Creating Layer relu5
I0525 04:52:50.052639 20374 net.cpp:454] relu5 <- ip1
I0525 04:52:50.052669 20374 net.cpp:397] relu5 -> ip1 (in-place)
I0525 04:52:50.053037 20374 net.cpp:150] Setting up relu5
I0525 04:52:50.053057 20374 net.cpp:157] Top shape: 90 196 (17640)
I0525 04:52:50.053071 20374 net.cpp:165] Memory required for data: 141905880
I0525 04:52:50.053086 20374 layer_factory.hpp:77] Creating layer drop1
I0525 04:52:50.053117 20374 net.cpp:106] Creating Layer drop1
I0525 04:52:50.053131 20374 net.cpp:454] drop1 <- ip1
I0525 04:52:50.053156 20374 net.cpp:397] drop1 -> ip1 (in-place)
I0525 04:52:50.053232 20374 net.cpp:150] Setting up drop1
I0525 04:52:50.053256 20374 net.cpp:157] Top shape: 90 196 (17640)
I0525 04:52:50.053269 20374 net.cpp:165] Memory required for data: 141976440
I0525 04:52:50.053284 20374 layer_factory.hpp:77] Creating layer ip2
I0525 04:52:50.053311 20374 net.cpp:106] Creating Layer ip2
I0525 04:52:50.053325 20374 net.cpp:454] ip2 <- ip1
I0525 04:52:50.053341 20374 net.cpp:411] ip2 -> ip2
I0525 04:52:50.053829 20374 net.cpp:150] Setting up ip2
I0525 04:52:50.053849 20374 net.cpp:157] Top shape: 90 98 (8820)
I0525 04:52:50.053861 20374 net.cpp:165] Memory required for data: 142011720
I0525 04:52:50.053882 20374 layer_factory.hpp:77] Creating layer relu6
I0525 04:52:50.053903 20374 net.cpp:106] Creating Layer relu6
I0525 04:52:50.053917 20374 net.cpp:454] relu6 <- ip2
I0525 04:52:50.053932 20374 net.cpp:397] relu6 -> ip2 (in-place)
I0525 04:52:50.054502 20374 net.cpp:150] Setting up relu6
I0525 04:52:50.054524 20374 net.cpp:157] Top shape: 90 98 (8820)
I0525 04:52:50.054538 20374 net.cpp:165] Memory required for data: 142047000
I0525 04:52:50.054553 20374 layer_factory.hpp:77] Creating layer drop2
I0525 04:52:50.054569 20374 net.cpp:106] Creating Layer drop2
I0525 04:52:50.054591 20374 net.cpp:454] drop2 <- ip2
I0525 04:52:50.054607 20374 net.cpp:397] drop2 -> ip2 (in-place)
I0525 04:52:50.054662 20374 net.cpp:150] Setting up drop2
I0525 04:52:50.054678 20374 net.cpp:157] Top shape: 90 98 (8820)
I0525 04:52:50.054692 20374 net.cpp:165] Memory required for data: 142082280
I0525 04:52:50.054707 20374 layer_factory.hpp:77] Creating layer ip3
I0525 04:52:50.054723 20374 net.cpp:106] Creating Layer ip3
I0525 04:52:50.054738 20374 net.cpp:454] ip3 <- ip2
I0525 04:52:50.054761 20374 net.cpp:411] ip3 -> ip3
I0525 04:52:50.054983 20374 net.cpp:150] Setting up ip3
I0525 04:52:50.055002 20374 net.cpp:157] Top shape: 90 11 (990)
I0525 04:52:50.055016 20374 net.cpp:165] Memory required for data: 142086240
I0525 04:52:50.055037 20374 layer_factory.hpp:77] Creating layer drop3
I0525 04:52:50.055058 20374 net.cpp:106] Creating Layer drop3
I0525 04:52:50.055073 20374 net.cpp:454] drop3 <- ip3
I0525 04:52:50.055088 20374 net.cpp:397] drop3 -> ip3 (in-place)
I0525 04:52:50.055132 20374 net.cpp:150] Setting up drop3
I0525 04:52:50.055155 20374 net.cpp:157] Top shape: 90 11 (990)
I0525 04:52:50.055167 20374 net.cpp:165] Memory required for data: 142090200
I0525 04:52:50.055188 20374 layer_factory.hpp:77] Creating layer loss
I0525 04:52:50.055209 20374 net.cpp:106] Creating Layer loss
I0525 04:52:50.055224 20374 net.cpp:454] loss <- ip3
I0525 04:52:50.055244 20374 net.cpp:454] loss <- label
I0525 04:52:50.055259 20374 net.cpp:411] loss -> loss
I0525 04:52:50.055279 20374 layer_factory.hpp:77] Creating layer loss
…
I0525 04:52:50.058156 20374 solver.cpp:181] Creating test net (#0) specified by net file: /lustre/atlas/proj-shared/hep105/caffe_titan/caffe_workflow/logs_bslr/bs_90_lr_0.0015_2016-05-20T15.49.20.914763.prototxt
I0525 04:52:50.058233 20374 net.cpp:322] The NetState phase (1) differed from the phase (0) specified by a rule in layer data_hdf5
I0525 04:52:50.058589 20374 net.cpp:49] Initializing net from parameters: 
name: "caffe_test_127x50_x_unshifted"
state {
  phase: TEST
}
layer {
  name: "data_hdf5"
  type: "HDF5Data"
  top: "data"
  top: "label"
  include {
    phase: TEST
  }
  hdf5_data_param {
    source: "/lustre/atlas/proj-shared/hep105/caffe_titan/minosmatch_nukecczdefs_127x50_x_unshifted_me1Bmc.testlist"
    batch_size: 90
  }
}
layer {
  name: "conv1"
  type: "Convolution"
  bottom: "data"
  top: "conv1"
  convolution_param {
    num_output: 12
    pad: 0
    stride: 1
    weight_filler {
      type: "xavier"
    }
    bias_filler {
      type: "constant"
    }
    kernel_h: 8
    kernel_w: 3
  }
}
layer {
  name: "relu1"
  type: "ReLU"
  bottom: "conv1"
  top: "conv1"
}
layer {
  name: "pool1"
  type: "Pooling"
  bottom: "conv1"
  top: "pool1"
  pooling_param {
    pool: MAX
    kernel_h: 2
    kernel_w: 1
    stride_h: 2
    stride_w: 1
  }
}
layer {
  name: "conv2"
  type: "Convolution"
  bottom: "pool1"
  top: "conv2"
  convolution_param {
    num_output: 20
    pad: 0
    stride: 1
    weight_filler {
      type: "xavier"
    }
    bias_filler {
      type: "constant"
    }
    kernel_h: 7
    kernel_w: 3
  }
}
layer {
  name: "relu2"
  type: "ReLU"
  bottom: "conv2"
  top: "conv2"
}
layer {
  name: "pool2"
  type: "Pooling"
  bottom: "conv2"
  top: "pool2"
  pooling_param {
    pool: MAX
    kernel_h: 2
    kernel_w: 1
    stride_h: 2
    stride_w: 1
  }
}
layer {
  name: "conv3"
  type: "Convolution"
  bottom: "pool2"
  top: "conv3"
  convolution_param {
    num_output: 28
    pad: 0
    stride: 1
    weight_filler {
      type: "xavier"
    }
    bias_filler {
      type: "constant"
    }
    kernel_h: 6
    kernel_w: 3
  }
}
layer {
  name: "relu3"
  type: "ReLU"
  bottom: "conv3"
  top: "conv3"
}
layer {
  name: "pool3"
  type: "Pooling"
  bottom: "conv3"
  top: "pool3"
  pooling_param {
    pool: MAX
    kernel_h: 2
    kernel_w: 1
    stride_h: 2
    stride_w: 1
  }
}
layer {
  name: "conv4"
  type: "Convolution"
  bottom: "pool3"
  top: "conv4"
  convolution_param {
    num_output: 36
    pad: 0
    stride: 1
    weight_filler {
      type: "xavier"
    }
    bias_filler {
      type: "constant"
    }
    kernel_h: 6
    kernel_w: 3
  }
}
layer {
  name: "relu4"
  type: "ReLU"
  bottom: "conv4"
  top: "conv4"
}
layer {
  name: "pool4"
  type: "Pooling"
  bottom: "conv4"
  top: "pool4"
  pooling_param {
    pool: MAX
    kernel_h: 2
    kernel_w: 1
    stride_h: 2
    stride_w: 1
  }
}
layer {
  name: "ip1"
  type: "InnerProduct"
  bottom: "pool4"
  top: "ip1"
  inner_product_param {
    num_output: 196
    weight_filler {
      type: "xavier"
    }
    bias_filler {
      type: "constant"
    }
  }
}
layer {
  name: "relu5"
  type: "ReLU"
  bottom: "ip1"
  top: "ip1"
}
layer {
  name: "drop1"
  type: "Dropout"
  bottom: "ip1"
  top: "ip1"
  dropout_param {
    dropout_ratio: 0.5
  }
}
layer {
  name: "ip2"
  type: "InnerProduct"
  bottom: "ip1"
  top: "ip2"
  inner_product_param {
    num_output: 98
    weight_filler {
      type: "xavier"
    }
    bias_filler {
      type: "constant"
    }
  }
}
layer {
  name: "relu6"
  type: "ReLU"
  bottom: "ip2"
  top: "ip2"
}
layer {
  name: "drop2"
  type: "Dropout"
  bottom: "ip2"
  top: "ip2"
  dropout_param {
    dropout_ratio: 0.5
  }
}
layer {
  name: "ip3"
  type: "InnerProduct"
  bottom: "ip2"
  top: "ip3"
  inner_product_param {
    num_output: 11
    weight_filler {
      type: "xavier"
    }
    bias_filler {
      type: "constant"
    }
  }
}
layer {
  name: "drop3"
  type: "Dropout"
  bottom: "ip3"
  top: "ip3"
  dropout_param {
    dropout_ratio: 0.5
  }
}
layer {
  name: "accuracy"
  type: "Accuracy"
  bottom: "ip3"
  bottom: "label"
  top: "accuracy"
  include {
    phase: TEST
  }
}
layer {
  name: "loss"
  type: "SoftmaxWithLoss"
  bottom: "ip3"
  bottom: "label"
  top: "loss"
}
I0525 04:52:50.058787 20374 layer_factory.hpp:77] Creating layer data_hdf5
I0525 04:52:50.058807 20374 net.cpp:106] Creating Layer data_hdf5
I0525 04:52:50.058823 20374 net.cpp:411] data_hdf5 -> data
I0525 04:52:50.058846 20374 net.cpp:411] data_hdf5 -> label
I0525 04:52:50.058866 20374 hdf5_data_layer.cpp:79] Loading list of HDF5 filenames from: /lustre/atlas/proj-shared/hep105/caffe_titan/minosmatch_nukecczdefs_127x50_x_unshifted_me1Bmc.testlist
I0525 04:52:50.060209 20374 hdf5_data_layer.cpp:93] Number of HDF5 files: 3
I0525 04:53:11.377465 20374 net.cpp:150] Setting up data_hdf5
I0525 04:53:11.377635 20374 net.cpp:157] Top shape: 90 1 127 50 (571500)
I0525 04:53:11.377653 20374 net.cpp:157] Top shape: 90 (90)
I0525 04:53:11.377665 20374 net.cpp:165] Memory required for data: 2286360
I0525 04:53:11.377681 20374 layer_factory.hpp:77] Creating layer label_data_hdf5_1_split
I0525 04:53:11.377714 20374 net.cpp:106] Creating Layer label_data_hdf5_1_split
I0525 04:53:11.377727 20374 net.cpp:454] label_data_hdf5_1_split <- label
I0525 04:53:11.377763 20374 net.cpp:411] label_data_hdf5_1_split -> label_data_hdf5_1_split_0
I0525 04:53:11.377787 20374 net.cpp:411] label_data_hdf5_1_split -> label_data_hdf5_1_split_1
I0525 04:53:11.377873 20374 net.cpp:150] Setting up label_data_hdf5_1_split
I0525 04:53:11.377892 20374 net.cpp:157] Top shape: 90 (90)
I0525 04:53:11.377907 20374 net.cpp:157] Top shape: 90 (90)
I0525 04:53:11.377921 20374 net.cpp:165] Memory required for data: 2287080
I0525 04:53:11.377933 20374 layer_factory.hpp:77] Creating layer conv1
I0525 04:53:11.377959 20374 net.cpp:106] Creating Layer conv1
I0525 04:53:11.377981 20374 net.cpp:454] conv1 <- data
I0525 04:53:11.377998 20374 net.cpp:411] conv1 -> conv1
I0525 04:53:11.379958 20374 net.cpp:150] Setting up conv1
I0525 04:53:11.379984 20374 net.cpp:157] Top shape: 90 12 120 48 (6220800)
I0525 04:53:11.380004 20374 net.cpp:165] Memory required for data: 27170280
I0525 04:53:11.380028 20374 layer_factory.hpp:77] Creating layer relu1
I0525 04:53:11.380049 20374 net.cpp:106] Creating Layer relu1
I0525 04:53:11.380070 20374 net.cpp:454] relu1 <- conv1
I0525 04:53:11.380086 20374 net.cpp:397] relu1 -> conv1 (in-place)
I0525 04:53:11.380609 20374 net.cpp:150] Setting up relu1
I0525 04:53:11.380632 20374 net.cpp:157] Top shape: 90 12 120 48 (6220800)
I0525 04:53:11.380645 20374 net.cpp:165] Memory required for data: 52053480
I0525 04:53:11.380658 20374 layer_factory.hpp:77] Creating layer pool1
I0525 04:53:11.380688 20374 net.cpp:106] Creating Layer pool1
I0525 04:53:11.380702 20374 net.cpp:454] pool1 <- conv1
I0525 04:53:11.380717 20374 net.cpp:411] pool1 -> pool1
I0525 04:53:11.380806 20374 net.cpp:150] Setting up pool1
I0525 04:53:11.380823 20374 net.cpp:157] Top shape: 90 12 60 48 (3110400)
I0525 04:53:11.380836 20374 net.cpp:165] Memory required for data: 64495080
I0525 04:53:11.380848 20374 layer_factory.hpp:77] Creating layer conv2
I0525 04:53:11.380872 20374 net.cpp:106] Creating Layer conv2
I0525 04:53:11.380892 20374 net.cpp:454] conv2 <- pool1
I0525 04:53:11.380910 20374 net.cpp:411] conv2 -> conv2
I0525 04:53:11.382860 20374 net.cpp:150] Setting up conv2
I0525 04:53:11.382885 20374 net.cpp:157] Top shape: 90 20 54 46 (4471200)
I0525 04:53:11.382905 20374 net.cpp:165] Memory required for data: 82379880
I0525 04:53:11.382927 20374 layer_factory.hpp:77] Creating layer relu2
I0525 04:53:11.382947 20374 net.cpp:106] Creating Layer relu2
I0525 04:53:11.382968 20374 net.cpp:454] relu2 <- conv2
I0525 04:53:11.382985 20374 net.cpp:397] relu2 -> conv2 (in-place)
I0525 04:53:11.383337 20374 net.cpp:150] Setting up relu2
I0525 04:53:11.383358 20374 net.cpp:157] Top shape: 90 20 54 46 (4471200)
I0525 04:53:11.383370 20374 net.cpp:165] Memory required for data: 100264680
I0525 04:53:11.383385 20374 layer_factory.hpp:77] Creating layer pool2
I0525 04:53:11.383402 20374 net.cpp:106] Creating Layer pool2
I0525 04:53:11.383421 20374 net.cpp:454] pool2 <- conv2
I0525 04:53:11.383437 20374 net.cpp:411] pool2 -> pool2
I0525 04:53:11.383527 20374 net.cpp:150] Setting up pool2
I0525 04:53:11.383549 20374 net.cpp:157] Top shape: 90 20 27 46 (2235600)
I0525 04:53:11.383563 20374 net.cpp:165] Memory required for data: 109207080
I0525 04:53:11.383577 20374 layer_factory.hpp:77] Creating layer conv3
I0525 04:53:11.383605 20374 net.cpp:106] Creating Layer conv3
I0525 04:53:11.383620 20374 net.cpp:454] conv3 <- pool2
I0525 04:53:11.383635 20374 net.cpp:411] conv3 -> conv3
I0525 04:53:11.385665 20374 net.cpp:150] Setting up conv3
I0525 04:53:11.385690 20374 net.cpp:157] Top shape: 90 28 22 44 (2439360)
I0525 04:53:11.385710 20374 net.cpp:165] Memory required for data: 118964520
I0525 04:53:11.385749 20374 layer_factory.hpp:77] Creating layer relu3
I0525 04:53:11.385774 20374 net.cpp:106] Creating Layer relu3
I0525 04:53:11.385788 20374 net.cpp:454] relu3 <- conv3
I0525 04:53:11.385804 20374 net.cpp:397] relu3 -> conv3 (in-place)
I0525 04:53:11.386298 20374 net.cpp:150] Setting up relu3
I0525 04:53:11.386322 20374 net.cpp:157] Top shape: 90 28 22 44 (2439360)
I0525 04:53:11.386334 20374 net.cpp:165] Memory required for data: 128721960
I0525 04:53:11.386350 20374 layer_factory.hpp:77] Creating layer pool3
I0525 04:53:11.386374 20374 net.cpp:106] Creating Layer pool3
I0525 04:53:11.386387 20374 net.cpp:454] pool3 <- conv3
I0525 04:53:11.386404 20374 net.cpp:411] pool3 -> pool3
I0525 04:53:11.386489 20374 net.cpp:150] Setting up pool3
I0525 04:53:11.386507 20374 net.cpp:157] Top shape: 90 28 11 44 (1219680)
I0525 04:53:11.386521 20374 net.cpp:165] Memory required for data: 133600680
I0525 04:53:11.386534 20374 layer_factory.hpp:77] Creating layer conv4
I0525 04:53:11.386561 20374 net.cpp:106] Creating Layer conv4
I0525 04:53:11.386574 20374 net.cpp:454] conv4 <- pool3
I0525 04:53:11.386591 20374 net.cpp:411] conv4 -> conv4
I0525 04:53:11.388710 20374 net.cpp:150] Setting up conv4
I0525 04:53:11.388734 20374 net.cpp:157] Top shape: 90 36 6 42 (816480)
I0525 04:53:11.388747 20374 net.cpp:165] Memory required for data: 136866600
I0525 04:53:11.388766 20374 layer_factory.hpp:77] Creating layer relu4
I0525 04:53:11.388784 20374 net.cpp:106] Creating Layer relu4
I0525 04:53:11.388797 20374 net.cpp:454] relu4 <- conv4
I0525 04:53:11.388813 20374 net.cpp:397] relu4 -> conv4 (in-place)
I0525 04:53:11.389314 20374 net.cpp:150] Setting up relu4
I0525 04:53:11.389338 20374 net.cpp:157] Top shape: 90 36 6 42 (816480)
I0525 04:53:11.389350 20374 net.cpp:165] Memory required for data: 140132520
I0525 04:53:11.389365 20374 layer_factory.hpp:77] Creating layer pool4
I0525 04:53:11.389390 20374 net.cpp:106] Creating Layer pool4
I0525 04:53:11.389405 20374 net.cpp:454] pool4 <- conv4
I0525 04:53:11.389420 20374 net.cpp:411] pool4 -> pool4
I0525 04:53:11.389508 20374 net.cpp:150] Setting up pool4
I0525 04:53:11.389525 20374 net.cpp:157] Top shape: 90 36 3 42 (408240)
I0525 04:53:11.389539 20374 net.cpp:165] Memory required for data: 141765480
I0525 04:53:11.389552 20374 layer_factory.hpp:77] Creating layer ip1
I0525 04:53:11.389576 20374 net.cpp:106] Creating Layer ip1
I0525 04:53:11.389590 20374 net.cpp:454] ip1 <- pool4
I0525 04:53:11.389605 20374 net.cpp:411] ip1 -> ip1
I0525 04:53:11.405138 20374 net.cpp:150] Setting up ip1
I0525 04:53:11.405174 20374 net.cpp:157] Top shape: 90 196 (17640)
I0525 04:53:11.405186 20374 net.cpp:165] Memory required for data: 141836040
I0525 04:53:11.405216 20374 layer_factory.hpp:77] Creating layer relu5
I0525 04:53:11.405246 20374 net.cpp:106] Creating Layer relu5
I0525 04:53:11.405261 20374 net.cpp:454] relu5 <- ip1
I0525 04:53:11.405277 20374 net.cpp:397] relu5 -> ip1 (in-place)
I0525 04:53:11.405643 20374 net.cpp:150] Setting up relu5
I0525 04:53:11.405663 20374 net.cpp:157] Top shape: 90 196 (17640)
I0525 04:53:11.405678 20374 net.cpp:165] Memory required for data: 141906600
I0525 04:53:11.405692 20374 layer_factory.hpp:77] Creating layer drop1
I0525 04:53:11.405720 20374 net.cpp:106] Creating Layer drop1
I0525 04:53:11.405735 20374 net.cpp:454] drop1 <- ip1
I0525 04:53:11.405750 20374 net.cpp:397] drop1 -> ip1 (in-place)
I0525 04:53:11.405812 20374 net.cpp:150] Setting up drop1
I0525 04:53:11.405827 20374 net.cpp:157] Top shape: 90 196 (17640)
I0525 04:53:11.405848 20374 net.cpp:165] Memory required for data: 141977160
I0525 04:53:11.405860 20374 layer_factory.hpp:77] Creating layer ip2
I0525 04:53:11.405877 20374 net.cpp:106] Creating Layer ip2
I0525 04:53:11.405892 20374 net.cpp:454] ip2 <- ip1
I0525 04:53:11.405917 20374 net.cpp:411] ip2 -> ip2
I0525 04:53:11.406412 20374 net.cpp:150] Setting up ip2
I0525 04:53:11.406432 20374 net.cpp:157] Top shape: 90 98 (8820)
I0525 04:53:11.406445 20374 net.cpp:165] Memory required for data: 142012440
I0525 04:53:11.406466 20374 layer_factory.hpp:77] Creating layer relu6
I0525 04:53:11.406502 20374 net.cpp:106] Creating Layer relu6
I0525 04:53:11.406514 20374 net.cpp:454] relu6 <- ip2
I0525 04:53:11.406530 20374 net.cpp:397] relu6 -> ip2 (in-place)
I0525 04:53:11.407091 20374 net.cpp:150] Setting up relu6
I0525 04:53:11.407114 20374 net.cpp:157] Top shape: 90 98 (8820)
I0525 04:53:11.407127 20374 net.cpp:165] Memory required for data: 142047720
I0525 04:53:11.407140 20374 layer_factory.hpp:77] Creating layer drop2
I0525 04:53:11.407168 20374 net.cpp:106] Creating Layer drop2
I0525 04:53:11.407181 20374 net.cpp:454] drop2 <- ip2
I0525 04:53:11.407198 20374 net.cpp:397] drop2 -> ip2 (in-place)
I0525 04:53:11.407256 20374 net.cpp:150] Setting up drop2
I0525 04:53:11.407272 20374 net.cpp:157] Top shape: 90 98 (8820)
I0525 04:53:11.407285 20374 net.cpp:165] Memory required for data: 142083000
I0525 04:53:11.407297 20374 layer_factory.hpp:77] Creating layer ip3
I0525 04:53:11.407317 20374 net.cpp:106] Creating Layer ip3
I0525 04:53:11.407330 20374 net.cpp:454] ip3 <- ip2
I0525 04:53:11.407353 20374 net.cpp:411] ip3 -> ip3
I0525 04:53:11.407591 20374 net.cpp:150] Setting up ip3
I0525 04:53:11.407610 20374 net.cpp:157] Top shape: 90 11 (990)
I0525 04:53:11.407624 20374 net.cpp:165] Memory required for data: 142086960
I0525 04:53:11.407644 20374 layer_factory.hpp:77] Creating layer drop3
I0525 04:53:11.407666 20374 net.cpp:106] Creating Layer drop3
I0525 04:53:11.407680 20374 net.cpp:454] drop3 <- ip3
I0525 04:53:11.407696 20374 net.cpp:397] drop3 -> ip3 (in-place)
I0525 04:53:11.407744 20374 net.cpp:150] Setting up drop3
I0525 04:53:11.407768 20374 net.cpp:157] Top shape: 90 11 (990)
I0525 04:53:11.407780 20374 net.cpp:165] Memory required for data: 142090920
I0525 04:53:11.407795 20374 layer_factory.hpp:77] Creating layer ip3_drop3_0_split
I0525 04:53:11.407810 20374 net.cpp:106] Creating Layer ip3_drop3_0_split
I0525 04:53:11.407825 20374 net.cpp:454] ip3_drop3_0_split <- ip3
I0525 04:53:11.407846 20374 net.cpp:411] ip3_drop3_0_split -> ip3_drop3_0_split_0
I0525 04:53:11.407866 20374 net.cpp:411] ip3_drop3_0_split -> ip3_drop3_0_split_1
I0525 04:53:11.407959 20374 net.cpp:150] Setting up ip3_drop3_0_split
I0525 04:53:11.407975 20374 net.cpp:157] Top shape: 90 11 (990)
I0525 04:53:11.407991 20374 net.cpp:157] Top shape: 90 11 (990)
I0525 04:53:11.408002 20374 net.cpp:165] Memory required for data: 142098840
I0525 04:53:11.408018 20374 layer_factory.hpp:77] Creating layer accuracy
I0525 04:53:11.408046 20374 net.cpp:106] Creating Layer accuracy
I0525 04:53:11.408059 20374 net.cpp:454] accuracy <- ip3_drop3_0_split_0
I0525 04:53:11.408079 20374 net.cpp:454] accuracy <- label_data_hdf5_1_split_0
I0525 04:53:11.408097 20374 net.cpp:411] accuracy -> accuracy
…
