…
I0525 10:51:11.604192 18482 net.cpp:322] The NetState phase (0) differed from the phase (1) specified by a rule in layer data_hdf5
I0525 10:51:11.604250 18482 net.cpp:322] The NetState phase (0) differed from the phase (1) specified by a rule in layer accuracy
I0525 10:51:11.604598 18482 net.cpp:49] Initializing net from parameters: 
name: "caffe_test_127x50_x_unshifted"
state {
  phase: TRAIN
}
layer {
  name: "data_hdf5"
  type: "HDF5Data"
  top: "data"
  top: "label"
  include {
    phase: TRAIN
  }
  hdf5_data_param {
    source: "/lustre/atlas/proj-shared/hep105/caffe_titan/minosmatch_nukecczdefs_127x50_x_unshifted_me1Bmc.trainlist"
    batch_size: 90
  }
}
layer {
  name: "conv1"
  type: "Convolution"
  bottom: "data"
  top: "conv1"
  convolution_param {
    num_output: 12
    pad: 0
    stride: 1
    weight_filler {
      type: "xavier"
    }
    bias_filler {
      type: "constant"
    }
    kernel_h: 8
    kernel_w: 3
  }
}
layer {
  name: "relu1"
  type: "ReLU"
  bottom: "conv1"
  top: "conv1"
}
layer {
  name: "pool1"
  type: "Pooling"
  bottom: "conv1"
  top: "pool1"
  pooling_param {
    pool: MAX
    kernel_h: 2
    kernel_w: 1
    stride_h: 2
    stride_w: 1
  }
}
layer {
  name: "conv2"
  type: "Convolution"
  bottom: "pool1"
  top: "conv2"
  convolution_param {
    num_output: 20
    pad: 0
    stride: 1
    weight_filler {
      type: "xavier"
    }
    bias_filler {
      type: "constant"
    }
    kernel_h: 7
    kernel_w: 3
  }
}
layer {
  name: "relu2"
  type: "ReLU"
  bottom: "conv2"
  top: "conv2"
}
layer {
  name: "pool2"
  type: "Pooling"
  bottom: "conv2"
  top: "pool2"
  pooling_param {
    pool: MAX
    kernel_h: 2
    kernel_w: 1
    stride_h: 2
    stride_w: 1
  }
}
layer {
  name: "conv3"
  type: "Convolution"
  bottom: "pool2"
  top: "conv3"
  convolution_param {
    num_output: 28
    pad: 0
    stride: 1
    weight_filler {
      type: "xavier"
    }
    bias_filler {
      type: "constant"
    }
    kernel_h: 6
    kernel_w: 3
  }
}
layer {
  name: "relu3"
  type: "ReLU"
  bottom: "conv3"
  top: "conv3"
}
layer {
  name: "pool3"
  type: "Pooling"
  bottom: "conv3"
  top: "pool3"
  pooling_param {
    pool: MAX
    kernel_h: 2
    kernel_w: 1
    stride_h: 2
    stride_w: 1
  }
}
layer {
  name: "conv4"
  type: "Convolution"
  bottom: "pool3"
  top: "conv4"
  convolution_param {
    num_output: 36
    pad: 0
    stride: 1
    weight_filler {
      type: "xavier"
    }
    bias_filler {
      type: "constant"
    }
    kernel_h: 6
    kernel_w: 3
  }
}
layer {
  name: "relu4"
  type: "ReLU"
  bottom: "conv4"
  top: "conv4"
}
layer {
  name: "pool4"
  type: "Pooling"
  bottom: "conv4"
  top: "pool4"
  pooling_param {
    pool: MAX
    kernel_h: 2
    kernel_w: 1
    stride_h: 2
    stride_w: 1
  }
}
layer {
  name: "ip1"
  type: "InnerProduct"
  bottom: "pool4"
  top: "ip1"
  inner_product_param {
    num_output: 196
    weight_filler {
      type: "xavier"
    }
    bias_filler {
      type: "constant"
    }
  }
}
layer {
  name: "relu5"
  type: "ReLU"
  bottom: "ip1"
  top: "ip1"
}
layer {
  name: "drop1"
  type: "Dropout"
  bottom: "ip1"
  top: "ip1"
  dropout_param {
    dropout_ratio: 0.5
  }
}
layer {
  name: "ip2"
  type: "InnerProduct"
  bottom: "ip1"
  top: "ip2"
  inner_product_param {
    num_output: 98
    weight_filler {
      type: "xavier"
    }
    bias_filler {
      type: "constant"
    }
  }
}
layer {
  name: "relu6"
  type: "ReLU"
  bottom: "ip2"
  top: "ip2"
}
layer {
  name: "drop2"
  type: "Dropout"
  bottom: "ip2"
  top: "ip2"
  dropout_param {
    dropout_ratio: 0.5
  }
}
layer {
  name: "ip3"
  type: "InnerProduct"
  bottom: "ip2"
  top: "ip3"
  inner_product_param {
    num_output: 11
    weight_filler {
      type: "xavier"
    }
    bias_filler {
      type: "constant"
    }
  }
}
layer {
  name: "drop3"
  type: "Dropout"
  bottom: "ip3"
  top: "ip3"
  dropout_param {
    dropout_ratio: 0.5
  }
}
layer {
  name: "loss"
  type: "SoftmaxWithLoss"
  bottom: "ip3"
  bottom: "label"
  top: "loss"
}
I0525 10:51:11.604779 18482 layer_factory.hpp:77] Creating layer data_hdf5
I0525 10:51:11.604802 18482 net.cpp:106] Creating Layer data_hdf5
I0525 10:51:11.604817 18482 net.cpp:411] data_hdf5 -> data
I0525 10:51:11.604851 18482 net.cpp:411] data_hdf5 -> label
I0525 10:51:11.604882 18482 hdf5_data_layer.cpp:79] Loading list of HDF5 filenames from: /lustre/atlas/proj-shared/hep105/caffe_titan/minosmatch_nukecczdefs_127x50_x_unshifted_me1Bmc.trainlist
I0525 10:51:11.606326 18482 hdf5_data_layer.cpp:93] Number of HDF5 files: 15
I0525 10:51:11.609005 18482 hdf5.cpp:32] Datatype class: H5T_FLOAT
I0525 10:51:33.074314 18482 hdf5.cpp:35] Datatype class: H5T_INTEGER
I0525 10:51:33.079365 18482 net.cpp:150] Setting up data_hdf5
I0525 10:51:33.079403 18482 net.cpp:157] Top shape: 90 1 127 50 (571500)
I0525 10:51:33.079418 18482 net.cpp:157] Top shape: 90 (90)
I0525 10:51:33.079430 18482 net.cpp:165] Memory required for data: 2286360
I0525 10:51:33.079443 18482 layer_factory.hpp:77] Creating layer conv1
I0525 10:51:33.079478 18482 net.cpp:106] Creating Layer conv1
I0525 10:51:33.079488 18482 net.cpp:454] conv1 <- data
I0525 10:51:33.079509 18482 net.cpp:411] conv1 -> conv1
I0525 10:51:33.447576 18482 net.cpp:150] Setting up conv1
I0525 10:51:33.447620 18482 net.cpp:157] Top shape: 90 12 120 48 (6220800)
I0525 10:51:33.447631 18482 net.cpp:165] Memory required for data: 27169560
I0525 10:51:33.447661 18482 layer_factory.hpp:77] Creating layer relu1
I0525 10:51:33.447684 18482 net.cpp:106] Creating Layer relu1
I0525 10:51:33.447695 18482 net.cpp:454] relu1 <- conv1
I0525 10:51:33.447708 18482 net.cpp:397] relu1 -> conv1 (in-place)
I0525 10:51:33.448223 18482 net.cpp:150] Setting up relu1
I0525 10:51:33.448240 18482 net.cpp:157] Top shape: 90 12 120 48 (6220800)
I0525 10:51:33.448251 18482 net.cpp:165] Memory required for data: 52052760
I0525 10:51:33.448261 18482 layer_factory.hpp:77] Creating layer pool1
I0525 10:51:33.448278 18482 net.cpp:106] Creating Layer pool1
I0525 10:51:33.448288 18482 net.cpp:454] pool1 <- conv1
I0525 10:51:33.448302 18482 net.cpp:411] pool1 -> pool1
I0525 10:51:33.448382 18482 net.cpp:150] Setting up pool1
I0525 10:51:33.448397 18482 net.cpp:157] Top shape: 90 12 60 48 (3110400)
I0525 10:51:33.448407 18482 net.cpp:165] Memory required for data: 64494360
I0525 10:51:33.448417 18482 layer_factory.hpp:77] Creating layer conv2
I0525 10:51:33.448441 18482 net.cpp:106] Creating Layer conv2
I0525 10:51:33.448451 18482 net.cpp:454] conv2 <- pool1
I0525 10:51:33.448463 18482 net.cpp:411] conv2 -> conv2
I0525 10:51:33.451172 18482 net.cpp:150] Setting up conv2
I0525 10:51:33.451200 18482 net.cpp:157] Top shape: 90 20 54 46 (4471200)
I0525 10:51:33.451211 18482 net.cpp:165] Memory required for data: 82379160
I0525 10:51:33.451231 18482 layer_factory.hpp:77] Creating layer relu2
I0525 10:51:33.451244 18482 net.cpp:106] Creating Layer relu2
I0525 10:51:33.451254 18482 net.cpp:454] relu2 <- conv2
I0525 10:51:33.451267 18482 net.cpp:397] relu2 -> conv2 (in-place)
I0525 10:51:33.451598 18482 net.cpp:150] Setting up relu2
I0525 10:51:33.451612 18482 net.cpp:157] Top shape: 90 20 54 46 (4471200)
I0525 10:51:33.451623 18482 net.cpp:165] Memory required for data: 100263960
I0525 10:51:33.451633 18482 layer_factory.hpp:77] Creating layer pool2
I0525 10:51:33.451645 18482 net.cpp:106] Creating Layer pool2
I0525 10:51:33.451655 18482 net.cpp:454] pool2 <- conv2
I0525 10:51:33.451668 18482 net.cpp:411] pool2 -> pool2
I0525 10:51:33.451751 18482 net.cpp:150] Setting up pool2
I0525 10:51:33.451766 18482 net.cpp:157] Top shape: 90 20 27 46 (2235600)
I0525 10:51:33.451776 18482 net.cpp:165] Memory required for data: 109206360
I0525 10:51:33.451782 18482 layer_factory.hpp:77] Creating layer conv3
I0525 10:51:33.451802 18482 net.cpp:106] Creating Layer conv3
I0525 10:51:33.451812 18482 net.cpp:454] conv3 <- pool2
I0525 10:51:33.451825 18482 net.cpp:411] conv3 -> conv3
I0525 10:51:33.453748 18482 net.cpp:150] Setting up conv3
I0525 10:51:33.453771 18482 net.cpp:157] Top shape: 90 28 22 44 (2439360)
I0525 10:51:33.453784 18482 net.cpp:165] Memory required for data: 118963800
I0525 10:51:33.453802 18482 layer_factory.hpp:77] Creating layer relu3
I0525 10:51:33.453819 18482 net.cpp:106] Creating Layer relu3
I0525 10:51:33.453829 18482 net.cpp:454] relu3 <- conv3
I0525 10:51:33.453841 18482 net.cpp:397] relu3 -> conv3 (in-place)
I0525 10:51:33.454321 18482 net.cpp:150] Setting up relu3
I0525 10:51:33.454339 18482 net.cpp:157] Top shape: 90 28 22 44 (2439360)
I0525 10:51:33.454349 18482 net.cpp:165] Memory required for data: 128721240
I0525 10:51:33.454360 18482 layer_factory.hpp:77] Creating layer pool3
I0525 10:51:33.454373 18482 net.cpp:106] Creating Layer pool3
I0525 10:51:33.454383 18482 net.cpp:454] pool3 <- conv3
I0525 10:51:33.454396 18482 net.cpp:411] pool3 -> pool3
I0525 10:51:33.454463 18482 net.cpp:150] Setting up pool3
I0525 10:51:33.454478 18482 net.cpp:157] Top shape: 90 28 11 44 (1219680)
I0525 10:51:33.454485 18482 net.cpp:165] Memory required for data: 133599960
I0525 10:51:33.454493 18482 layer_factory.hpp:77] Creating layer conv4
I0525 10:51:33.454510 18482 net.cpp:106] Creating Layer conv4
I0525 10:51:33.454520 18482 net.cpp:454] conv4 <- pool3
I0525 10:51:33.454535 18482 net.cpp:411] conv4 -> conv4
I0525 10:51:33.457474 18482 net.cpp:150] Setting up conv4
I0525 10:51:33.457504 18482 net.cpp:157] Top shape: 90 36 6 42 (816480)
I0525 10:51:33.457515 18482 net.cpp:165] Memory required for data: 136865880
I0525 10:51:33.457530 18482 layer_factory.hpp:77] Creating layer relu4
I0525 10:51:33.457543 18482 net.cpp:106] Creating Layer relu4
I0525 10:51:33.457553 18482 net.cpp:454] relu4 <- conv4
I0525 10:51:33.457566 18482 net.cpp:397] relu4 -> conv4 (in-place)
I0525 10:51:33.458029 18482 net.cpp:150] Setting up relu4
I0525 10:51:33.458045 18482 net.cpp:157] Top shape: 90 36 6 42 (816480)
I0525 10:51:33.458055 18482 net.cpp:165] Memory required for data: 140131800
I0525 10:51:33.458065 18482 layer_factory.hpp:77] Creating layer pool4
I0525 10:51:33.458077 18482 net.cpp:106] Creating Layer pool4
I0525 10:51:33.458088 18482 net.cpp:454] pool4 <- conv4
I0525 10:51:33.458101 18482 net.cpp:411] pool4 -> pool4
I0525 10:51:33.458179 18482 net.cpp:150] Setting up pool4
I0525 10:51:33.458194 18482 net.cpp:157] Top shape: 90 36 3 42 (408240)
I0525 10:51:33.458202 18482 net.cpp:165] Memory required for data: 141764760
I0525 10:51:33.458212 18482 layer_factory.hpp:77] Creating layer ip1
I0525 10:51:33.458232 18482 net.cpp:106] Creating Layer ip1
I0525 10:51:33.458243 18482 net.cpp:454] ip1 <- pool4
I0525 10:51:33.458256 18482 net.cpp:411] ip1 -> ip1
I0525 10:51:33.473618 18482 net.cpp:150] Setting up ip1
I0525 10:51:33.473647 18482 net.cpp:157] Top shape: 90 196 (17640)
I0525 10:51:33.473659 18482 net.cpp:165] Memory required for data: 141835320
I0525 10:51:33.473680 18482 layer_factory.hpp:77] Creating layer relu5
I0525 10:51:33.473695 18482 net.cpp:106] Creating Layer relu5
I0525 10:51:33.473706 18482 net.cpp:454] relu5 <- ip1
I0525 10:51:33.473718 18482 net.cpp:397] relu5 -> ip1 (in-place)
I0525 10:51:33.474059 18482 net.cpp:150] Setting up relu5
I0525 10:51:33.474072 18482 net.cpp:157] Top shape: 90 196 (17640)
I0525 10:51:33.474082 18482 net.cpp:165] Memory required for data: 141905880
I0525 10:51:33.474092 18482 layer_factory.hpp:77] Creating layer drop1
I0525 10:51:33.474120 18482 net.cpp:106] Creating Layer drop1
I0525 10:51:33.474131 18482 net.cpp:454] drop1 <- ip1
I0525 10:51:33.474143 18482 net.cpp:397] drop1 -> ip1 (in-place)
I0525 10:51:33.474205 18482 net.cpp:150] Setting up drop1
I0525 10:51:33.474218 18482 net.cpp:157] Top shape: 90 196 (17640)
I0525 10:51:33.474228 18482 net.cpp:165] Memory required for data: 141976440
I0525 10:51:33.474238 18482 layer_factory.hpp:77] Creating layer ip2
I0525 10:51:33.474258 18482 net.cpp:106] Creating Layer ip2
I0525 10:51:33.474269 18482 net.cpp:454] ip2 <- ip1
I0525 10:51:33.474282 18482 net.cpp:411] ip2 -> ip2
I0525 10:51:33.474746 18482 net.cpp:150] Setting up ip2
I0525 10:51:33.474761 18482 net.cpp:157] Top shape: 90 98 (8820)
I0525 10:51:33.474771 18482 net.cpp:165] Memory required for data: 142011720
I0525 10:51:33.474786 18482 layer_factory.hpp:77] Creating layer relu6
I0525 10:51:33.474797 18482 net.cpp:106] Creating Layer relu6
I0525 10:51:33.474807 18482 net.cpp:454] relu6 <- ip2
I0525 10:51:33.474819 18482 net.cpp:397] relu6 -> ip2 (in-place)
I0525 10:51:33.475339 18482 net.cpp:150] Setting up relu6
I0525 10:51:33.475355 18482 net.cpp:157] Top shape: 90 98 (8820)
I0525 10:51:33.475366 18482 net.cpp:165] Memory required for data: 142047000
I0525 10:51:33.475376 18482 layer_factory.hpp:77] Creating layer drop2
I0525 10:51:33.475389 18482 net.cpp:106] Creating Layer drop2
I0525 10:51:33.475399 18482 net.cpp:454] drop2 <- ip2
I0525 10:51:33.475412 18482 net.cpp:397] drop2 -> ip2 (in-place)
I0525 10:51:33.475455 18482 net.cpp:150] Setting up drop2
I0525 10:51:33.475467 18482 net.cpp:157] Top shape: 90 98 (8820)
I0525 10:51:33.475477 18482 net.cpp:165] Memory required for data: 142082280
I0525 10:51:33.475487 18482 layer_factory.hpp:77] Creating layer ip3
I0525 10:51:33.475502 18482 net.cpp:106] Creating Layer ip3
I0525 10:51:33.475512 18482 net.cpp:454] ip3 <- ip2
I0525 10:51:33.475524 18482 net.cpp:411] ip3 -> ip3
I0525 10:51:33.475733 18482 net.cpp:150] Setting up ip3
I0525 10:51:33.475746 18482 net.cpp:157] Top shape: 90 11 (990)
I0525 10:51:33.475756 18482 net.cpp:165] Memory required for data: 142086240
I0525 10:51:33.475772 18482 layer_factory.hpp:77] Creating layer drop3
I0525 10:51:33.475785 18482 net.cpp:106] Creating Layer drop3
I0525 10:51:33.475795 18482 net.cpp:454] drop3 <- ip3
I0525 10:51:33.475806 18482 net.cpp:397] drop3 -> ip3 (in-place)
I0525 10:51:33.475846 18482 net.cpp:150] Setting up drop3
I0525 10:51:33.475858 18482 net.cpp:157] Top shape: 90 11 (990)
I0525 10:51:33.475868 18482 net.cpp:165] Memory required for data: 142090200
I0525 10:51:33.475878 18482 layer_factory.hpp:77] Creating layer loss
I0525 10:51:33.475898 18482 net.cpp:106] Creating Layer loss
I0525 10:51:33.475908 18482 net.cpp:454] loss <- ip3
I0525 10:51:33.475919 18482 net.cpp:454] loss <- label
I0525 10:51:33.475931 18482 net.cpp:411] loss -> loss
I0525 10:51:33.475949 18482 layer_factory.hpp:77] Creating layer loss
…
I0525 10:51:33.478617 18482 solver.cpp:181] Creating test net (#0) specified by net file: /lustre/atlas/proj-shared/hep105/caffe_titan/caffe_workflow/logs_bslr/bs_90_lr_0.0040_2016-05-20T15.49.22.858069.prototxt
I0525 10:51:33.478688 18482 net.cpp:322] The NetState phase (1) differed from the phase (0) specified by a rule in layer data_hdf5
I0525 10:51:33.479040 18482 net.cpp:49] Initializing net from parameters: 
name: "caffe_test_127x50_x_unshifted"
state {
  phase: TEST
}
layer {
  name: "data_hdf5"
  type: "HDF5Data"
  top: "data"
  top: "label"
  include {
    phase: TEST
  }
  hdf5_data_param {
    source: "/lustre/atlas/proj-shared/hep105/caffe_titan/minosmatch_nukecczdefs_127x50_x_unshifted_me1Bmc.testlist"
    batch_size: 90
  }
}
layer {
  name: "conv1"
  type: "Convolution"
  bottom: "data"
  top: "conv1"
  convolution_param {
    num_output: 12
    pad: 0
    stride: 1
    weight_filler {
      type: "xavier"
    }
    bias_filler {
      type: "constant"
    }
    kernel_h: 8
    kernel_w: 3
  }
}
layer {
  name: "relu1"
  type: "ReLU"
  bottom: "conv1"
  top: "conv1"
}
layer {
  name: "pool1"
  type: "Pooling"
  bottom: "conv1"
  top: "pool1"
  pooling_param {
    pool: MAX
    kernel_h: 2
    kernel_w: 1
    stride_h: 2
    stride_w: 1
  }
}
layer {
  name: "conv2"
  type: "Convolution"
  bottom: "pool1"
  top: "conv2"
  convolution_param {
    num_output: 20
    pad: 0
    stride: 1
    weight_filler {
      type: "xavier"
    }
    bias_filler {
      type: "constant"
    }
    kernel_h: 7
    kernel_w: 3
  }
}
layer {
  name: "relu2"
  type: "ReLU"
  bottom: "conv2"
  top: "conv2"
}
layer {
  name: "pool2"
  type: "Pooling"
  bottom: "conv2"
  top: "pool2"
  pooling_param {
    pool: MAX
    kernel_h: 2
    kernel_w: 1
    stride_h: 2
    stride_w: 1
  }
}
layer {
  name: "conv3"
  type: "Convolution"
  bottom: "pool2"
  top: "conv3"
  convolution_param {
    num_output: 28
    pad: 0
    stride: 1
    weight_filler {
      type: "xavier"
    }
    bias_filler {
      type: "constant"
    }
    kernel_h: 6
    kernel_w: 3
  }
}
layer {
  name: "relu3"
  type: "ReLU"
  bottom: "conv3"
  top: "conv3"
}
layer {
  name: "pool3"
  type: "Pooling"
  bottom: "conv3"
  top: "pool3"
  pooling_param {
    pool: MAX
    kernel_h: 2
    kernel_w: 1
    stride_h: 2
    stride_w: 1
  }
}
layer {
  name: "conv4"
  type: "Convolution"
  bottom: "pool3"
  top: "conv4"
  convolution_param {
    num_output: 36
    pad: 0
    stride: 1
    weight_filler {
      type: "xavier"
    }
    bias_filler {
      type: "constant"
    }
    kernel_h: 6
    kernel_w: 3
  }
}
layer {
  name: "relu4"
  type: "ReLU"
  bottom: "conv4"
  top: "conv4"
}
layer {
  name: "pool4"
  type: "Pooling"
  bottom: "conv4"
  top: "pool4"
  pooling_param {
    pool: MAX
    kernel_h: 2
    kernel_w: 1
    stride_h: 2
    stride_w: 1
  }
}
layer {
  name: "ip1"
  type: "InnerProduct"
  bottom: "pool4"
  top: "ip1"
  inner_product_param {
    num_output: 196
    weight_filler {
      type: "xavier"
    }
    bias_filler {
      type: "constant"
    }
  }
}
layer {
  name: "relu5"
  type: "ReLU"
  bottom: "ip1"
  top: "ip1"
}
layer {
  name: "drop1"
  type: "Dropout"
  bottom: "ip1"
  top: "ip1"
  dropout_param {
    dropout_ratio: 0.5
  }
}
layer {
  name: "ip2"
  type: "InnerProduct"
  bottom: "ip1"
  top: "ip2"
  inner_product_param {
    num_output: 98
    weight_filler {
      type: "xavier"
    }
    bias_filler {
      type: "constant"
    }
  }
}
layer {
  name: "relu6"
  type: "ReLU"
  bottom: "ip2"
  top: "ip2"
}
layer {
  name: "drop2"
  type: "Dropout"
  bottom: "ip2"
  top: "ip2"
  dropout_param {
    dropout_ratio: 0.5
  }
}
layer {
  name: "ip3"
  type: "InnerProduct"
  bottom: "ip2"
  top: "ip3"
  inner_product_param {
    num_output: 11
    weight_filler {
      type: "xavier"
    }
    bias_filler {
      type: "constant"
    }
  }
}
layer {
  name: "drop3"
  type: "Dropout"
  bottom: "ip3"
  top: "ip3"
  dropout_param {
    dropout_ratio: 0.5
  }
}
layer {
  name: "accuracy"
  type: "Accuracy"
  bottom: "ip3"
  bottom: "label"
  top: "accuracy"
  include {
    phase: TEST
  }
}
layer {
  name: "loss"
  type: "SoftmaxWithLoss"
  bottom: "ip3"
  bottom: "label"
  top: "loss"
}
I0525 10:51:33.479229 18482 layer_factory.hpp:77] Creating layer data_hdf5
I0525 10:51:33.479244 18482 net.cpp:106] Creating Layer data_hdf5
I0525 10:51:33.479257 18482 net.cpp:411] data_hdf5 -> data
I0525 10:51:33.479274 18482 net.cpp:411] data_hdf5 -> label
I0525 10:51:33.479290 18482 hdf5_data_layer.cpp:79] Loading list of HDF5 filenames from: /lustre/atlas/proj-shared/hep105/caffe_titan/minosmatch_nukecczdefs_127x50_x_unshifted_me1Bmc.testlist
I0525 10:51:33.480530 18482 hdf5_data_layer.cpp:93] Number of HDF5 files: 3
I0525 10:51:54.761409 18482 net.cpp:150] Setting up data_hdf5
I0525 10:51:54.761574 18482 net.cpp:157] Top shape: 90 1 127 50 (571500)
I0525 10:51:54.761589 18482 net.cpp:157] Top shape: 90 (90)
I0525 10:51:54.761600 18482 net.cpp:165] Memory required for data: 2286360
I0525 10:51:54.761615 18482 layer_factory.hpp:77] Creating layer label_data_hdf5_1_split
I0525 10:51:54.761642 18482 net.cpp:106] Creating Layer label_data_hdf5_1_split
I0525 10:51:54.761653 18482 net.cpp:454] label_data_hdf5_1_split <- label
I0525 10:51:54.761668 18482 net.cpp:411] label_data_hdf5_1_split -> label_data_hdf5_1_split_0
I0525 10:51:54.761688 18482 net.cpp:411] label_data_hdf5_1_split -> label_data_hdf5_1_split_1
I0525 10:51:54.761762 18482 net.cpp:150] Setting up label_data_hdf5_1_split
I0525 10:51:54.761775 18482 net.cpp:157] Top shape: 90 (90)
I0525 10:51:54.761787 18482 net.cpp:157] Top shape: 90 (90)
I0525 10:51:54.761797 18482 net.cpp:165] Memory required for data: 2287080
I0525 10:51:54.761806 18482 layer_factory.hpp:77] Creating layer conv1
I0525 10:51:54.761826 18482 net.cpp:106] Creating Layer conv1
I0525 10:51:54.761837 18482 net.cpp:454] conv1 <- data
I0525 10:51:54.761852 18482 net.cpp:411] conv1 -> conv1
I0525 10:51:54.763818 18482 net.cpp:150] Setting up conv1
I0525 10:51:54.763841 18482 net.cpp:157] Top shape: 90 12 120 48 (6220800)
I0525 10:51:54.763852 18482 net.cpp:165] Memory required for data: 27170280
I0525 10:51:54.763875 18482 layer_factory.hpp:77] Creating layer relu1
I0525 10:51:54.763888 18482 net.cpp:106] Creating Layer relu1
I0525 10:51:54.763900 18482 net.cpp:454] relu1 <- conv1
I0525 10:51:54.763911 18482 net.cpp:397] relu1 -> conv1 (in-place)
I0525 10:51:54.764411 18482 net.cpp:150] Setting up relu1
I0525 10:51:54.764427 18482 net.cpp:157] Top shape: 90 12 120 48 (6220800)
I0525 10:51:54.764438 18482 net.cpp:165] Memory required for data: 52053480
I0525 10:51:54.764448 18482 layer_factory.hpp:77] Creating layer pool1
I0525 10:51:54.764466 18482 net.cpp:106] Creating Layer pool1
I0525 10:51:54.764475 18482 net.cpp:454] pool1 <- conv1
I0525 10:51:54.764489 18482 net.cpp:411] pool1 -> pool1
I0525 10:51:54.764564 18482 net.cpp:150] Setting up pool1
I0525 10:51:54.764577 18482 net.cpp:157] Top shape: 90 12 60 48 (3110400)
I0525 10:51:54.764587 18482 net.cpp:165] Memory required for data: 64495080
I0525 10:51:54.764597 18482 layer_factory.hpp:77] Creating layer conv2
I0525 10:51:54.764616 18482 net.cpp:106] Creating Layer conv2
I0525 10:51:54.764626 18482 net.cpp:454] conv2 <- pool1
I0525 10:51:54.764641 18482 net.cpp:411] conv2 -> conv2
I0525 10:51:54.766580 18482 net.cpp:150] Setting up conv2
I0525 10:51:54.766602 18482 net.cpp:157] Top shape: 90 20 54 46 (4471200)
I0525 10:51:54.766616 18482 net.cpp:165] Memory required for data: 82379880
I0525 10:51:54.766633 18482 layer_factory.hpp:77] Creating layer relu2
I0525 10:51:54.766647 18482 net.cpp:106] Creating Layer relu2
I0525 10:51:54.766657 18482 net.cpp:454] relu2 <- conv2
I0525 10:51:54.766669 18482 net.cpp:397] relu2 -> conv2 (in-place)
I0525 10:51:54.767006 18482 net.cpp:150] Setting up relu2
I0525 10:51:54.767020 18482 net.cpp:157] Top shape: 90 20 54 46 (4471200)
I0525 10:51:54.767030 18482 net.cpp:165] Memory required for data: 100264680
I0525 10:51:54.767040 18482 layer_factory.hpp:77] Creating layer pool2
I0525 10:51:54.767055 18482 net.cpp:106] Creating Layer pool2
I0525 10:51:54.767065 18482 net.cpp:454] pool2 <- conv2
I0525 10:51:54.767077 18482 net.cpp:411] pool2 -> pool2
I0525 10:51:54.767150 18482 net.cpp:150] Setting up pool2
I0525 10:51:54.767163 18482 net.cpp:157] Top shape: 90 20 27 46 (2235600)
I0525 10:51:54.767174 18482 net.cpp:165] Memory required for data: 109207080
I0525 10:51:54.767184 18482 layer_factory.hpp:77] Creating layer conv3
I0525 10:51:54.767202 18482 net.cpp:106] Creating Layer conv3
I0525 10:51:54.767213 18482 net.cpp:454] conv3 <- pool2
I0525 10:51:54.767226 18482 net.cpp:411] conv3 -> conv3
I0525 10:51:54.769212 18482 net.cpp:150] Setting up conv3
I0525 10:51:54.769234 18482 net.cpp:157] Top shape: 90 28 22 44 (2439360)
I0525 10:51:54.769246 18482 net.cpp:165] Memory required for data: 118964520
I0525 10:51:54.769279 18482 layer_factory.hpp:77] Creating layer relu3
I0525 10:51:54.769292 18482 net.cpp:106] Creating Layer relu3
I0525 10:51:54.769302 18482 net.cpp:454] relu3 <- conv3
I0525 10:51:54.769315 18482 net.cpp:397] relu3 -> conv3 (in-place)
I0525 10:51:54.769784 18482 net.cpp:150] Setting up relu3
I0525 10:51:54.769800 18482 net.cpp:157] Top shape: 90 28 22 44 (2439360)
I0525 10:51:54.769811 18482 net.cpp:165] Memory required for data: 128721960
I0525 10:51:54.769820 18482 layer_factory.hpp:77] Creating layer pool3
I0525 10:51:54.769834 18482 net.cpp:106] Creating Layer pool3
I0525 10:51:54.769843 18482 net.cpp:454] pool3 <- conv3
I0525 10:51:54.769856 18482 net.cpp:411] pool3 -> pool3
I0525 10:51:54.769927 18482 net.cpp:150] Setting up pool3
I0525 10:51:54.769940 18482 net.cpp:157] Top shape: 90 28 11 44 (1219680)
I0525 10:51:54.769949 18482 net.cpp:165] Memory required for data: 133600680
I0525 10:51:54.769960 18482 layer_factory.hpp:77] Creating layer conv4
I0525 10:51:54.769979 18482 net.cpp:106] Creating Layer conv4
I0525 10:51:54.769989 18482 net.cpp:454] conv4 <- pool3
I0525 10:51:54.770002 18482 net.cpp:411] conv4 -> conv4
I0525 10:51:54.772079 18482 net.cpp:150] Setting up conv4
I0525 10:51:54.772097 18482 net.cpp:157] Top shape: 90 36 6 42 (816480)
I0525 10:51:54.772109 18482 net.cpp:165] Memory required for data: 136866600
I0525 10:51:54.772125 18482 layer_factory.hpp:77] Creating layer relu4
I0525 10:51:54.772138 18482 net.cpp:106] Creating Layer relu4
I0525 10:51:54.772148 18482 net.cpp:454] relu4 <- conv4
I0525 10:51:54.772161 18482 net.cpp:397] relu4 -> conv4 (in-place)
I0525 10:51:54.772630 18482 net.cpp:150] Setting up relu4
I0525 10:51:54.772646 18482 net.cpp:157] Top shape: 90 36 6 42 (816480)
I0525 10:51:54.772656 18482 net.cpp:165] Memory required for data: 140132520
I0525 10:51:54.772666 18482 layer_factory.hpp:77] Creating layer pool4
I0525 10:51:54.772680 18482 net.cpp:106] Creating Layer pool4
I0525 10:51:54.772691 18482 net.cpp:454] pool4 <- conv4
I0525 10:51:54.772703 18482 net.cpp:411] pool4 -> pool4
I0525 10:51:54.772774 18482 net.cpp:150] Setting up pool4
I0525 10:51:54.772788 18482 net.cpp:157] Top shape: 90 36 3 42 (408240)
I0525 10:51:54.772797 18482 net.cpp:165] Memory required for data: 141765480
I0525 10:51:54.772807 18482 layer_factory.hpp:77] Creating layer ip1
I0525 10:51:54.772824 18482 net.cpp:106] Creating Layer ip1
I0525 10:51:54.772835 18482 net.cpp:454] ip1 <- pool4
I0525 10:51:54.772848 18482 net.cpp:411] ip1 -> ip1
I0525 10:51:54.788261 18482 net.cpp:150] Setting up ip1
I0525 10:51:54.788290 18482 net.cpp:157] Top shape: 90 196 (17640)
I0525 10:51:54.788302 18482 net.cpp:165] Memory required for data: 141836040
I0525 10:51:54.788324 18482 layer_factory.hpp:77] Creating layer relu5
I0525 10:51:54.788339 18482 net.cpp:106] Creating Layer relu5
I0525 10:51:54.788350 18482 net.cpp:454] relu5 <- ip1
I0525 10:51:54.788363 18482 net.cpp:397] relu5 -> ip1 (in-place)
I0525 10:51:54.788712 18482 net.cpp:150] Setting up relu5
I0525 10:51:54.788725 18482 net.cpp:157] Top shape: 90 196 (17640)
I0525 10:51:54.788735 18482 net.cpp:165] Memory required for data: 141906600
I0525 10:51:54.788745 18482 layer_factory.hpp:77] Creating layer drop1
I0525 10:51:54.788763 18482 net.cpp:106] Creating Layer drop1
I0525 10:51:54.788774 18482 net.cpp:454] drop1 <- ip1
I0525 10:51:54.788786 18482 net.cpp:397] drop1 -> ip1 (in-place)
I0525 10:51:54.788833 18482 net.cpp:150] Setting up drop1
I0525 10:51:54.788847 18482 net.cpp:157] Top shape: 90 196 (17640)
I0525 10:51:54.788857 18482 net.cpp:165] Memory required for data: 141977160
I0525 10:51:54.788867 18482 layer_factory.hpp:77] Creating layer ip2
I0525 10:51:54.788882 18482 net.cpp:106] Creating Layer ip2
I0525 10:51:54.788892 18482 net.cpp:454] ip2 <- ip1
I0525 10:51:54.788907 18482 net.cpp:411] ip2 -> ip2
I0525 10:51:54.789383 18482 net.cpp:150] Setting up ip2
I0525 10:51:54.789397 18482 net.cpp:157] Top shape: 90 98 (8820)
I0525 10:51:54.789407 18482 net.cpp:165] Memory required for data: 142012440
I0525 10:51:54.789422 18482 layer_factory.hpp:77] Creating layer relu6
I0525 10:51:54.789448 18482 net.cpp:106] Creating Layer relu6
I0525 10:51:54.789458 18482 net.cpp:454] relu6 <- ip2
I0525 10:51:54.789471 18482 net.cpp:397] relu6 -> ip2 (in-place)
I0525 10:51:54.790006 18482 net.cpp:150] Setting up relu6
I0525 10:51:54.790022 18482 net.cpp:157] Top shape: 90 98 (8820)
I0525 10:51:54.790032 18482 net.cpp:165] Memory required for data: 142047720
I0525 10:51:54.790043 18482 layer_factory.hpp:77] Creating layer drop2
I0525 10:51:54.790057 18482 net.cpp:106] Creating Layer drop2
I0525 10:51:54.790067 18482 net.cpp:454] drop2 <- ip2
I0525 10:51:54.790081 18482 net.cpp:397] drop2 -> ip2 (in-place)
I0525 10:51:54.790132 18482 net.cpp:150] Setting up drop2
I0525 10:51:54.790145 18482 net.cpp:157] Top shape: 90 98 (8820)
I0525 10:51:54.790155 18482 net.cpp:165] Memory required for data: 142083000
I0525 10:51:54.790164 18482 layer_factory.hpp:77] Creating layer ip3
I0525 10:51:54.790179 18482 net.cpp:106] Creating Layer ip3
I0525 10:51:54.790189 18482 net.cpp:454] ip3 <- ip2
I0525 10:51:54.790202 18482 net.cpp:411] ip3 -> ip3
I0525 10:51:54.790426 18482 net.cpp:150] Setting up ip3
I0525 10:51:54.790438 18482 net.cpp:157] Top shape: 90 11 (990)
I0525 10:51:54.790448 18482 net.cpp:165] Memory required for data: 142086960
I0525 10:51:54.790463 18482 layer_factory.hpp:77] Creating layer drop3
I0525 10:51:54.790477 18482 net.cpp:106] Creating Layer drop3
I0525 10:51:54.790487 18482 net.cpp:454] drop3 <- ip3
I0525 10:51:54.790499 18482 net.cpp:397] drop3 -> ip3 (in-place)
I0525 10:51:54.790540 18482 net.cpp:150] Setting up drop3
I0525 10:51:54.790554 18482 net.cpp:157] Top shape: 90 11 (990)
I0525 10:51:54.790562 18482 net.cpp:165] Memory required for data: 142090920
I0525 10:51:54.790572 18482 layer_factory.hpp:77] Creating layer ip3_drop3_0_split
I0525 10:51:54.790585 18482 net.cpp:106] Creating Layer ip3_drop3_0_split
I0525 10:51:54.790596 18482 net.cpp:454] ip3_drop3_0_split <- ip3
I0525 10:51:54.790608 18482 net.cpp:411] ip3_drop3_0_split -> ip3_drop3_0_split_0
I0525 10:51:54.790623 18482 net.cpp:411] ip3_drop3_0_split -> ip3_drop3_0_split_1
I0525 10:51:54.790696 18482 net.cpp:150] Setting up ip3_drop3_0_split
I0525 10:51:54.790709 18482 net.cpp:157] Top shape: 90 11 (990)
I0525 10:51:54.790721 18482 net.cpp:157] Top shape: 90 11 (990)
I0525 10:51:54.790731 18482 net.cpp:165] Memory required for data: 142098840
I0525 10:51:54.790741 18482 layer_factory.hpp:77] Creating layer accuracy
I0525 10:51:54.790762 18482 net.cpp:106] Creating Layer accuracy
I0525 10:51:54.790772 18482 net.cpp:454] accuracy <- ip3_drop3_0_split_0
I0525 10:51:54.790781 18482 net.cpp:454] accuracy <- label_data_hdf5_1_split_0
I0525 10:51:54.790794 18482 net.cpp:411] accuracy -> accuracy
…
