…
I0525 02:51:48.002696 24199 net.cpp:322] The NetState phase (0) differed from the phase (1) specified by a rule in layer data_hdf5
I0525 02:51:48.002763 24199 net.cpp:322] The NetState phase (0) differed from the phase (1) specified by a rule in layer accuracy
I0525 02:51:48.003144 24199 net.cpp:49] Initializing net from parameters: 
name: "caffe_test_127x50_x_unshifted"
state {
  phase: TRAIN
}
layer {
  name: "data_hdf5"
  type: "HDF5Data"
  top: "data"
  top: "label"
  include {
    phase: TRAIN
  }
  hdf5_data_param {
    source: "/lustre/atlas/proj-shared/hep105/caffe_titan/minosmatch_nukecczdefs_127x50_x_unshifted_me1Bmc.trainlist"
    batch_size: 90
  }
}
layer {
  name: "conv1"
  type: "Convolution"
  bottom: "data"
  top: "conv1"
  convolution_param {
    num_output: 12
    pad: 0
    stride: 1
    weight_filler {
      type: "xavier"
    }
    bias_filler {
      type: "constant"
    }
    kernel_h: 8
    kernel_w: 3
  }
}
layer {
  name: "relu1"
  type: "ReLU"
  bottom: "conv1"
  top: "conv1"
}
layer {
  name: "pool1"
  type: "Pooling"
  bottom: "conv1"
  top: "pool1"
  pooling_param {
    pool: MAX
    kernel_h: 2
    kernel_w: 1
    stride_h: 2
    stride_w: 1
  }
}
layer {
  name: "conv2"
  type: "Convolution"
  bottom: "pool1"
  top: "conv2"
  convolution_param {
    num_output: 20
    pad: 0
    stride: 1
    weight_filler {
      type: "xavier"
    }
    bias_filler {
      type: "constant"
    }
    kernel_h: 7
    kernel_w: 3
  }
}
layer {
  name: "relu2"
  type: "ReLU"
  bottom: "conv2"
  top: "conv2"
}
layer {
  name: "pool2"
  type: "Pooling"
  bottom: "conv2"
  top: "pool2"
  pooling_param {
    pool: MAX
    kernel_h: 2
    kernel_w: 1
    stride_h: 2
    stride_w: 1
  }
}
layer {
  name: "conv3"
  type: "Convolution"
  bottom: "pool2"
  top: "conv3"
  convolution_param {
    num_output: 28
    pad: 0
    stride: 1
    weight_filler {
      type: "xavier"
    }
    bias_filler {
      type: "constant"
    }
    kernel_h: 6
    kernel_w: 3
  }
}
layer {
  name: "relu3"
  type: "ReLU"
  bottom: "conv3"
  top: "conv3"
}
layer {
  name: "pool3"
  type: "Pooling"
  bottom: "conv3"
  top: "pool3"
  pooling_param {
    pool: MAX
    kernel_h: 2
    kernel_w: 1
    stride_h: 2
    stride_w: 1
  }
}
layer {
  name: "conv4"
  type: "Convolution"
  bottom: "pool3"
  top: "conv4"
  convolution_param {
    num_output: 36
    pad: 0
    stride: 1
    weight_filler {
      type: "xavier"
    }
    bias_filler {
      type: "constant"
    }
    kernel_h: 6
    kernel_w: 3
  }
}
layer {
  name: "relu4"
  type: "ReLU"
  bottom: "conv4"
  top: "conv4"
}
layer {
  name: "pool4"
  type: "Pooling"
  bottom: "conv4"
  top: "pool4"
  pooling_param {
    pool: MAX
    kernel_h: 2
    kernel_w: 1
    stride_h: 2
    stride_w: 1
  }
}
layer {
  name: "ip1"
  type: "InnerProduct"
  bottom: "pool4"
  top: "ip1"
  inner_product_param {
    num_output: 196
    weight_filler {
      type: "xavier"
    }
    bias_filler {
      type: "constant"
    }
  }
}
layer {
  name: "relu5"
  type: "ReLU"
  bottom: "ip1"
  top: "ip1"
}
layer {
  name: "drop1"
  type: "Dropout"
  bottom: "ip1"
  top: "ip1"
  dropout_param {
    dropout_ratio: 0.5
  }
}
layer {
  name: "ip2"
  type: "InnerProduct"
  bottom: "ip1"
  top: "ip2"
  inner_product_param {
    num_output: 98
    weight_filler {
      type: "xavier"
    }
    bias_filler {
      type: "constant"
    }
  }
}
layer {
  name: "relu6"
  type: "ReLU"
  bottom: "ip2"
  top: "ip2"
}
layer {
  name: "drop2"
  type: "Dropout"
  bottom: "ip2"
  top: "ip2"
  dropout_param {
    dropout_ratio: 0.5
  }
}
layer {
  name: "ip3"
  type: "InnerProduct"
  bottom: "ip2"
  top: "ip3"
  inner_product_param {
    num_output: 11
    weight_filler {
      type: "xavier"
    }
    bias_filler {
      type: "constant"
    }
  }
}
layer {
  name: "drop3"
  type: "Dropout"
  bottom: "ip3"
  top: "ip3"
  dropout_param {
    dropout_ratio: 0.5
  }
}
layer {
  name: "loss"
  type: "SoftmaxWithLoss"
  bottom: "ip3"
  bottom: "label"
  top: "loss"
}
I0525 02:51:48.003352 24199 layer_factory.hpp:77] Creating layer data_hdf5
I0525 02:51:48.003389 24199 net.cpp:106] Creating Layer data_hdf5
I0525 02:51:48.003407 24199 net.cpp:411] data_hdf5 -> data
I0525 02:51:48.003439 24199 net.cpp:411] data_hdf5 -> label
I0525 02:51:48.003482 24199 hdf5_data_layer.cpp:79] Loading list of HDF5 filenames from: /lustre/atlas/proj-shared/hep105/caffe_titan/minosmatch_nukecczdefs_127x50_x_unshifted_me1Bmc.trainlist
I0525 02:51:48.005398 24199 hdf5_data_layer.cpp:93] Number of HDF5 files: 15
I0525 02:51:48.007835 24199 hdf5.cpp:32] Datatype class: H5T_FLOAT
I0525 02:52:09.504859 24199 hdf5.cpp:35] Datatype class: H5T_INTEGER
I0525 02:52:09.510099 24199 net.cpp:150] Setting up data_hdf5
I0525 02:52:09.510140 24199 net.cpp:157] Top shape: 90 1 127 50 (571500)
I0525 02:52:09.510159 24199 net.cpp:157] Top shape: 90 (90)
I0525 02:52:09.510171 24199 net.cpp:165] Memory required for data: 2286360
I0525 02:52:09.510190 24199 layer_factory.hpp:77] Creating layer conv1
I0525 02:52:09.510236 24199 net.cpp:106] Creating Layer conv1
I0525 02:52:09.510251 24199 net.cpp:454] conv1 <- data
I0525 02:52:09.510277 24199 net.cpp:411] conv1 -> conv1
I0525 02:52:09.881729 24199 net.cpp:150] Setting up conv1
I0525 02:52:09.881784 24199 net.cpp:157] Top shape: 90 12 120 48 (6220800)
I0525 02:52:09.881811 24199 net.cpp:165] Memory required for data: 27169560
I0525 02:52:09.881842 24199 layer_factory.hpp:77] Creating layer relu1
I0525 02:52:09.881865 24199 net.cpp:106] Creating Layer relu1
I0525 02:52:09.881885 24199 net.cpp:454] relu1 <- conv1
I0525 02:52:09.881921 24199 net.cpp:397] relu1 -> conv1 (in-place)
I0525 02:52:09.882452 24199 net.cpp:150] Setting up relu1
I0525 02:52:09.882474 24199 net.cpp:157] Top shape: 90 12 120 48 (6220800)
I0525 02:52:09.882488 24199 net.cpp:165] Memory required for data: 52052760
I0525 02:52:09.882504 24199 layer_factory.hpp:77] Creating layer pool1
I0525 02:52:09.882524 24199 net.cpp:106] Creating Layer pool1
I0525 02:52:09.882536 24199 net.cpp:454] pool1 <- conv1
I0525 02:52:09.882553 24199 net.cpp:411] pool1 -> pool1
I0525 02:52:09.882640 24199 net.cpp:150] Setting up pool1
I0525 02:52:09.882659 24199 net.cpp:157] Top shape: 90 12 60 48 (3110400)
I0525 02:52:09.882674 24199 net.cpp:165] Memory required for data: 64494360
I0525 02:52:09.882686 24199 layer_factory.hpp:77] Creating layer conv2
I0525 02:52:09.882709 24199 net.cpp:106] Creating Layer conv2
I0525 02:52:09.882722 24199 net.cpp:454] conv2 <- pool1
I0525 02:52:09.882740 24199 net.cpp:411] conv2 -> conv2
I0525 02:52:09.885521 24199 net.cpp:150] Setting up conv2
I0525 02:52:09.885555 24199 net.cpp:157] Top shape: 90 20 54 46 (4471200)
I0525 02:52:09.885570 24199 net.cpp:165] Memory required for data: 82379160
I0525 02:52:09.885598 24199 layer_factory.hpp:77] Creating layer relu2
I0525 02:52:09.885614 24199 net.cpp:106] Creating Layer relu2
I0525 02:52:09.885629 24199 net.cpp:454] relu2 <- conv2
I0525 02:52:09.885645 24199 net.cpp:397] relu2 -> conv2 (in-place)
I0525 02:52:09.886001 24199 net.cpp:150] Setting up relu2
I0525 02:52:09.886023 24199 net.cpp:157] Top shape: 90 20 54 46 (4471200)
I0525 02:52:09.886035 24199 net.cpp:165] Memory required for data: 100263960
I0525 02:52:09.886047 24199 layer_factory.hpp:77] Creating layer pool2
I0525 02:52:09.886064 24199 net.cpp:106] Creating Layer pool2
I0525 02:52:09.886077 24199 net.cpp:454] pool2 <- conv2
I0525 02:52:09.886092 24199 net.cpp:411] pool2 -> pool2
I0525 02:52:09.886178 24199 net.cpp:150] Setting up pool2
I0525 02:52:09.886201 24199 net.cpp:157] Top shape: 90 20 27 46 (2235600)
I0525 02:52:09.886214 24199 net.cpp:165] Memory required for data: 109206360
I0525 02:52:09.886226 24199 layer_factory.hpp:77] Creating layer conv3
I0525 02:52:09.886247 24199 net.cpp:106] Creating Layer conv3
I0525 02:52:09.886260 24199 net.cpp:454] conv3 <- pool2
I0525 02:52:09.886277 24199 net.cpp:411] conv3 -> conv3
I0525 02:52:09.888238 24199 net.cpp:150] Setting up conv3
I0525 02:52:09.888264 24199 net.cpp:157] Top shape: 90 28 22 44 (2439360)
I0525 02:52:09.888278 24199 net.cpp:165] Memory required for data: 118963800
I0525 02:52:09.888304 24199 layer_factory.hpp:77] Creating layer relu3
I0525 02:52:09.888324 24199 net.cpp:106] Creating Layer relu3
I0525 02:52:09.888337 24199 net.cpp:454] relu3 <- conv3
I0525 02:52:09.888352 24199 net.cpp:397] relu3 -> conv3 (in-place)
I0525 02:52:09.888856 24199 net.cpp:150] Setting up relu3
I0525 02:52:09.888880 24199 net.cpp:157] Top shape: 90 28 22 44 (2439360)
I0525 02:52:09.888893 24199 net.cpp:165] Memory required for data: 128721240
I0525 02:52:09.888906 24199 layer_factory.hpp:77] Creating layer pool3
I0525 02:52:09.888926 24199 net.cpp:106] Creating Layer pool3
I0525 02:52:09.888938 24199 net.cpp:454] pool3 <- conv3
I0525 02:52:09.888954 24199 net.cpp:411] pool3 -> pool3
I0525 02:52:09.889027 24199 net.cpp:150] Setting up pool3
I0525 02:52:09.889044 24199 net.cpp:157] Top shape: 90 28 11 44 (1219680)
I0525 02:52:09.889056 24199 net.cpp:165] Memory required for data: 133599960
I0525 02:52:09.889070 24199 layer_factory.hpp:77] Creating layer conv4
I0525 02:52:09.889088 24199 net.cpp:106] Creating Layer conv4
I0525 02:52:09.889101 24199 net.cpp:454] conv4 <- pool3
I0525 02:52:09.889117 24199 net.cpp:411] conv4 -> conv4
I0525 02:52:09.892103 24199 net.cpp:150] Setting up conv4
I0525 02:52:09.892135 24199 net.cpp:157] Top shape: 90 36 6 42 (816480)
I0525 02:52:09.892150 24199 net.cpp:165] Memory required for data: 136865880
I0525 02:52:09.892169 24199 layer_factory.hpp:77] Creating layer relu4
I0525 02:52:09.892190 24199 net.cpp:106] Creating Layer relu4
I0525 02:52:09.892204 24199 net.cpp:454] relu4 <- conv4
I0525 02:52:09.892220 24199 net.cpp:397] relu4 -> conv4 (in-place)
I0525 02:52:09.892712 24199 net.cpp:150] Setting up relu4
I0525 02:52:09.892735 24199 net.cpp:157] Top shape: 90 36 6 42 (816480)
I0525 02:52:09.892748 24199 net.cpp:165] Memory required for data: 140131800
I0525 02:52:09.892765 24199 layer_factory.hpp:77] Creating layer pool4
I0525 02:52:09.892781 24199 net.cpp:106] Creating Layer pool4
I0525 02:52:09.892796 24199 net.cpp:454] pool4 <- conv4
I0525 02:52:09.892812 24199 net.cpp:411] pool4 -> pool4
I0525 02:52:09.892896 24199 net.cpp:150] Setting up pool4
I0525 02:52:09.892912 24199 net.cpp:157] Top shape: 90 36 3 42 (408240)
I0525 02:52:09.892925 24199 net.cpp:165] Memory required for data: 141764760
I0525 02:52:09.892937 24199 layer_factory.hpp:77] Creating layer ip1
I0525 02:52:09.892958 24199 net.cpp:106] Creating Layer ip1
I0525 02:52:09.892971 24199 net.cpp:454] ip1 <- pool4
I0525 02:52:09.892987 24199 net.cpp:411] ip1 -> ip1
I0525 02:52:09.908395 24199 net.cpp:150] Setting up ip1
I0525 02:52:09.908426 24199 net.cpp:157] Top shape: 90 196 (17640)
I0525 02:52:09.908439 24199 net.cpp:165] Memory required for data: 141835320
I0525 02:52:09.908469 24199 layer_factory.hpp:77] Creating layer relu5
I0525 02:52:09.908488 24199 net.cpp:106] Creating Layer relu5
I0525 02:52:09.908499 24199 net.cpp:454] relu5 <- ip1
I0525 02:52:09.908516 24199 net.cpp:397] relu5 -> ip1 (in-place)
I0525 02:52:09.908882 24199 net.cpp:150] Setting up relu5
I0525 02:52:09.908902 24199 net.cpp:157] Top shape: 90 196 (17640)
I0525 02:52:09.908915 24199 net.cpp:165] Memory required for data: 141905880
I0525 02:52:09.908927 24199 layer_factory.hpp:77] Creating layer drop1
I0525 02:52:09.908951 24199 net.cpp:106] Creating Layer drop1
I0525 02:52:09.908963 24199 net.cpp:454] drop1 <- ip1
I0525 02:52:09.908979 24199 net.cpp:397] drop1 -> ip1 (in-place)
I0525 02:52:09.909041 24199 net.cpp:150] Setting up drop1
I0525 02:52:09.909072 24199 net.cpp:157] Top shape: 90 196 (17640)
I0525 02:52:09.909085 24199 net.cpp:165] Memory required for data: 141976440
I0525 02:52:09.909097 24199 layer_factory.hpp:77] Creating layer ip2
I0525 02:52:09.909118 24199 net.cpp:106] Creating Layer ip2
I0525 02:52:09.909132 24199 net.cpp:454] ip2 <- ip1
I0525 02:52:09.909147 24199 net.cpp:411] ip2 -> ip2
I0525 02:52:09.909643 24199 net.cpp:150] Setting up ip2
I0525 02:52:09.909663 24199 net.cpp:157] Top shape: 90 98 (8820)
I0525 02:52:09.909675 24199 net.cpp:165] Memory required for data: 142011720
I0525 02:52:09.909696 24199 layer_factory.hpp:77] Creating layer relu6
I0525 02:52:09.909718 24199 net.cpp:106] Creating Layer relu6
I0525 02:52:09.909731 24199 net.cpp:454] relu6 <- ip2
I0525 02:52:09.909746 24199 net.cpp:397] relu6 -> ip2 (in-place)
I0525 02:52:09.910295 24199 net.cpp:150] Setting up relu6
I0525 02:52:09.910320 24199 net.cpp:157] Top shape: 90 98 (8820)
I0525 02:52:09.910332 24199 net.cpp:165] Memory required for data: 142047000
I0525 02:52:09.910348 24199 layer_factory.hpp:77] Creating layer drop2
I0525 02:52:09.910372 24199 net.cpp:106] Creating Layer drop2
I0525 02:52:09.910385 24199 net.cpp:454] drop2 <- ip2
I0525 02:52:09.910401 24199 net.cpp:397] drop2 -> ip2 (in-place)
I0525 02:52:09.910459 24199 net.cpp:150] Setting up drop2
I0525 02:52:09.910475 24199 net.cpp:157] Top shape: 90 98 (8820)
I0525 02:52:09.910487 24199 net.cpp:165] Memory required for data: 142082280
I0525 02:52:09.910501 24199 layer_factory.hpp:77] Creating layer ip3
I0525 02:52:09.910516 24199 net.cpp:106] Creating Layer ip3
I0525 02:52:09.910531 24199 net.cpp:454] ip3 <- ip2
I0525 02:52:09.910553 24199 net.cpp:411] ip3 -> ip3
I0525 02:52:09.910778 24199 net.cpp:150] Setting up ip3
I0525 02:52:09.910796 24199 net.cpp:157] Top shape: 90 11 (990)
I0525 02:52:09.910809 24199 net.cpp:165] Memory required for data: 142086240
I0525 02:52:09.910830 24199 layer_factory.hpp:77] Creating layer drop3
I0525 02:52:09.910851 24199 net.cpp:106] Creating Layer drop3
I0525 02:52:09.910864 24199 net.cpp:454] drop3 <- ip3
I0525 02:52:09.910881 24199 net.cpp:397] drop3 -> ip3 (in-place)
I0525 02:52:09.910926 24199 net.cpp:150] Setting up drop3
I0525 02:52:09.910949 24199 net.cpp:157] Top shape: 90 11 (990)
I0525 02:52:09.910961 24199 net.cpp:165] Memory required for data: 142090200
I0525 02:52:09.910982 24199 layer_factory.hpp:77] Creating layer loss
I0525 02:52:09.911003 24199 net.cpp:106] Creating Layer loss
I0525 02:52:09.911020 24199 net.cpp:454] loss <- ip3
I0525 02:52:09.911038 24199 net.cpp:454] loss <- label
I0525 02:52:09.911054 24199 net.cpp:411] loss -> loss
I0525 02:52:09.911073 24199 layer_factory.hpp:77] Creating layer loss
…
I0525 02:52:09.914055 24199 solver.cpp:181] Creating test net (#0) specified by net file: /lustre/atlas/proj-shared/hep105/caffe_titan/caffe_workflow/logs_bslr/bs_90_lr_0.0005_2016-05-20T15.49.20.168960.prototxt
I0525 02:52:09.914131 24199 net.cpp:322] The NetState phase (1) differed from the phase (0) specified by a rule in layer data_hdf5
I0525 02:52:09.914485 24199 net.cpp:49] Initializing net from parameters: 
name: "caffe_test_127x50_x_unshifted"
state {
  phase: TEST
}
layer {
  name: "data_hdf5"
  type: "HDF5Data"
  top: "data"
  top: "label"
  include {
    phase: TEST
  }
  hdf5_data_param {
    source: "/lustre/atlas/proj-shared/hep105/caffe_titan/minosmatch_nukecczdefs_127x50_x_unshifted_me1Bmc.testlist"
    batch_size: 90
  }
}
layer {
  name: "conv1"
  type: "Convolution"
  bottom: "data"
  top: "conv1"
  convolution_param {
    num_output: 12
    pad: 0
    stride: 1
    weight_filler {
      type: "xavier"
    }
    bias_filler {
      type: "constant"
    }
    kernel_h: 8
    kernel_w: 3
  }
}
layer {
  name: "relu1"
  type: "ReLU"
  bottom: "conv1"
  top: "conv1"
}
layer {
  name: "pool1"
  type: "Pooling"
  bottom: "conv1"
  top: "pool1"
  pooling_param {
    pool: MAX
    kernel_h: 2
    kernel_w: 1
    stride_h: 2
    stride_w: 1
  }
}
layer {
  name: "conv2"
  type: "Convolution"
  bottom: "pool1"
  top: "conv2"
  convolution_param {
    num_output: 20
    pad: 0
    stride: 1
    weight_filler {
      type: "xavier"
    }
    bias_filler {
      type: "constant"
    }
    kernel_h: 7
    kernel_w: 3
  }
}
layer {
  name: "relu2"
  type: "ReLU"
  bottom: "conv2"
  top: "conv2"
}
layer {
  name: "pool2"
  type: "Pooling"
  bottom: "conv2"
  top: "pool2"
  pooling_param {
    pool: MAX
    kernel_h: 2
    kernel_w: 1
    stride_h: 2
    stride_w: 1
  }
}
layer {
  name: "conv3"
  type: "Convolution"
  bottom: "pool2"
  top: "conv3"
  convolution_param {
    num_output: 28
    pad: 0
    stride: 1
    weight_filler {
      type: "xavier"
    }
    bias_filler {
      type: "constant"
    }
    kernel_h: 6
    kernel_w: 3
  }
}
layer {
  name: "relu3"
  type: "ReLU"
  bottom: "conv3"
  top: "conv3"
}
layer {
  name: "pool3"
  type: "Pooling"
  bottom: "conv3"
  top: "pool3"
  pooling_param {
    pool: MAX
    kernel_h: 2
    kernel_w: 1
    stride_h: 2
    stride_w: 1
  }
}
layer {
  name: "conv4"
  type: "Convolution"
  bottom: "pool3"
  top: "conv4"
  convolution_param {
    num_output: 36
    pad: 0
    stride: 1
    weight_filler {
      type: "xavier"
    }
    bias_filler {
      type: "constant"
    }
    kernel_h: 6
    kernel_w: 3
  }
}
layer {
  name: "relu4"
  type: "ReLU"
  bottom: "conv4"
  top: "conv4"
}
layer {
  name: "pool4"
  type: "Pooling"
  bottom: "conv4"
  top: "pool4"
  pooling_param {
    pool: MAX
    kernel_h: 2
    kernel_w: 1
    stride_h: 2
    stride_w: 1
  }
}
layer {
  name: "ip1"
  type: "InnerProduct"
  bottom: "pool4"
  top: "ip1"
  inner_product_param {
    num_output: 196
    weight_filler {
      type: "xavier"
    }
    bias_filler {
      type: "constant"
    }
  }
}
layer {
  name: "relu5"
  type: "ReLU"
  bottom: "ip1"
  top: "ip1"
}
layer {
  name: "drop1"
  type: "Dropout"
  bottom: "ip1"
  top: "ip1"
  dropout_param {
    dropout_ratio: 0.5
  }
}
layer {
  name: "ip2"
  type: "InnerProduct"
  bottom: "ip1"
  top: "ip2"
  inner_product_param {
    num_output: 98
    weight_filler {
      type: "xavier"
    }
    bias_filler {
      type: "constant"
    }
  }
}
layer {
  name: "relu6"
  type: "ReLU"
  bottom: "ip2"
  top: "ip2"
}
layer {
  name: "drop2"
  type: "Dropout"
  bottom: "ip2"
  top: "ip2"
  dropout_param {
    dropout_ratio: 0.5
  }
}
layer {
  name: "ip3"
  type: "InnerProduct"
  bottom: "ip2"
  top: "ip3"
  inner_product_param {
    num_output: 11
    weight_filler {
      type: "xavier"
    }
    bias_filler {
      type: "constant"
    }
  }
}
layer {
  name: "drop3"
  type: "Dropout"
  bottom: "ip3"
  top: "ip3"
  dropout_param {
    dropout_ratio: 0.5
  }
}
layer {
  name: "accuracy"
  type: "Accuracy"
  bottom: "ip3"
  bottom: "label"
  top: "accuracy"
  include {
    phase: TEST
  }
}
layer {
  name: "loss"
  type: "SoftmaxWithLoss"
  bottom: "ip3"
  bottom: "label"
  top: "loss"
}
I0525 02:52:09.914683 24199 layer_factory.hpp:77] Creating layer data_hdf5
I0525 02:52:09.914703 24199 net.cpp:106] Creating Layer data_hdf5
I0525 02:52:09.914719 24199 net.cpp:411] data_hdf5 -> data
I0525 02:52:09.914742 24199 net.cpp:411] data_hdf5 -> label
I0525 02:52:09.914762 24199 hdf5_data_layer.cpp:79] Loading list of HDF5 filenames from: /lustre/atlas/proj-shared/hep105/caffe_titan/minosmatch_nukecczdefs_127x50_x_unshifted_me1Bmc.testlist
I0525 02:52:09.916365 24199 hdf5_data_layer.cpp:93] Number of HDF5 files: 3
I0525 02:52:31.255198 24199 net.cpp:150] Setting up data_hdf5
I0525 02:52:31.255363 24199 net.cpp:157] Top shape: 90 1 127 50 (571500)
I0525 02:52:31.255383 24199 net.cpp:157] Top shape: 90 (90)
I0525 02:52:31.255395 24199 net.cpp:165] Memory required for data: 2286360
I0525 02:52:31.255410 24199 layer_factory.hpp:77] Creating layer label_data_hdf5_1_split
I0525 02:52:31.255439 24199 net.cpp:106] Creating Layer label_data_hdf5_1_split
I0525 02:52:31.255457 24199 net.cpp:454] label_data_hdf5_1_split <- label
I0525 02:52:31.255494 24199 net.cpp:411] label_data_hdf5_1_split -> label_data_hdf5_1_split_0
I0525 02:52:31.255517 24199 net.cpp:411] label_data_hdf5_1_split -> label_data_hdf5_1_split_1
I0525 02:52:31.255599 24199 net.cpp:150] Setting up label_data_hdf5_1_split
I0525 02:52:31.255615 24199 net.cpp:157] Top shape: 90 (90)
I0525 02:52:31.255630 24199 net.cpp:157] Top shape: 90 (90)
I0525 02:52:31.255642 24199 net.cpp:165] Memory required for data: 2287080
I0525 02:52:31.255656 24199 layer_factory.hpp:77] Creating layer conv1
I0525 02:52:31.255679 24199 net.cpp:106] Creating Layer conv1
I0525 02:52:31.255692 24199 net.cpp:454] conv1 <- data
I0525 02:52:31.255733 24199 net.cpp:411] conv1 -> conv1
I0525 02:52:31.257702 24199 net.cpp:150] Setting up conv1
I0525 02:52:31.257730 24199 net.cpp:157] Top shape: 90 12 120 48 (6220800)
I0525 02:52:31.257750 24199 net.cpp:165] Memory required for data: 27170280
I0525 02:52:31.257774 24199 layer_factory.hpp:77] Creating layer relu1
I0525 02:52:31.257796 24199 net.cpp:106] Creating Layer relu1
I0525 02:52:31.257817 24199 net.cpp:454] relu1 <- conv1
I0525 02:52:31.257833 24199 net.cpp:397] relu1 -> conv1 (in-place)
I0525 02:52:31.258348 24199 net.cpp:150] Setting up relu1
I0525 02:52:31.258371 24199 net.cpp:157] Top shape: 90 12 120 48 (6220800)
I0525 02:52:31.258385 24199 net.cpp:165] Memory required for data: 52053480
I0525 02:52:31.258397 24199 layer_factory.hpp:77] Creating layer pool1
I0525 02:52:31.258429 24199 net.cpp:106] Creating Layer pool1
I0525 02:52:31.258441 24199 net.cpp:454] pool1 <- conv1
I0525 02:52:31.258457 24199 net.cpp:411] pool1 -> pool1
I0525 02:52:31.258548 24199 net.cpp:150] Setting up pool1
I0525 02:52:31.258565 24199 net.cpp:157] Top shape: 90 12 60 48 (3110400)
I0525 02:52:31.258580 24199 net.cpp:165] Memory required for data: 64495080
I0525 02:52:31.258592 24199 layer_factory.hpp:77] Creating layer conv2
I0525 02:52:31.258613 24199 net.cpp:106] Creating Layer conv2
I0525 02:52:31.258633 24199 net.cpp:454] conv2 <- pool1
I0525 02:52:31.258651 24199 net.cpp:411] conv2 -> conv2
I0525 02:52:31.260612 24199 net.cpp:150] Setting up conv2
I0525 02:52:31.260637 24199 net.cpp:157] Top shape: 90 20 54 46 (4471200)
I0525 02:52:31.260650 24199 net.cpp:165] Memory required for data: 82379880
I0525 02:52:31.260675 24199 layer_factory.hpp:77] Creating layer relu2
I0525 02:52:31.260691 24199 net.cpp:106] Creating Layer relu2
I0525 02:52:31.260715 24199 net.cpp:454] relu2 <- conv2
I0525 02:52:31.260732 24199 net.cpp:397] relu2 -> conv2 (in-place)
I0525 02:52:31.261090 24199 net.cpp:150] Setting up relu2
I0525 02:52:31.261111 24199 net.cpp:157] Top shape: 90 20 54 46 (4471200)
I0525 02:52:31.261123 24199 net.cpp:165] Memory required for data: 100264680
I0525 02:52:31.261139 24199 layer_factory.hpp:77] Creating layer pool2
I0525 02:52:31.261155 24199 net.cpp:106] Creating Layer pool2
I0525 02:52:31.261175 24199 net.cpp:454] pool2 <- conv2
I0525 02:52:31.261191 24199 net.cpp:411] pool2 -> pool2
I0525 02:52:31.261277 24199 net.cpp:150] Setting up pool2
I0525 02:52:31.261299 24199 net.cpp:157] Top shape: 90 20 27 46 (2235600)
I0525 02:52:31.261312 24199 net.cpp:165] Memory required for data: 109207080
I0525 02:52:31.261327 24199 layer_factory.hpp:77] Creating layer conv3
I0525 02:52:31.261358 24199 net.cpp:106] Creating Layer conv3
I0525 02:52:31.261370 24199 net.cpp:454] conv3 <- pool2
I0525 02:52:31.261386 24199 net.cpp:411] conv3 -> conv3
I0525 02:52:31.263402 24199 net.cpp:150] Setting up conv3
I0525 02:52:31.263427 24199 net.cpp:157] Top shape: 90 28 22 44 (2439360)
I0525 02:52:31.263447 24199 net.cpp:165] Memory required for data: 118964520
I0525 02:52:31.263486 24199 layer_factory.hpp:77] Creating layer relu3
I0525 02:52:31.263511 24199 net.cpp:106] Creating Layer relu3
I0525 02:52:31.263525 24199 net.cpp:454] relu3 <- conv3
I0525 02:52:31.263541 24199 net.cpp:397] relu3 -> conv3 (in-place)
I0525 02:52:31.264041 24199 net.cpp:150] Setting up relu3
I0525 02:52:31.264063 24199 net.cpp:157] Top shape: 90 28 22 44 (2439360)
I0525 02:52:31.264076 24199 net.cpp:165] Memory required for data: 128721960
I0525 02:52:31.264092 24199 layer_factory.hpp:77] Creating layer pool3
I0525 02:52:31.264117 24199 net.cpp:106] Creating Layer pool3
I0525 02:52:31.264129 24199 net.cpp:454] pool3 <- conv3
I0525 02:52:31.264147 24199 net.cpp:411] pool3 -> pool3
I0525 02:52:31.264231 24199 net.cpp:150] Setting up pool3
I0525 02:52:31.264256 24199 net.cpp:157] Top shape: 90 28 11 44 (1219680)
I0525 02:52:31.264269 24199 net.cpp:165] Memory required for data: 133600680
I0525 02:52:31.264284 24199 layer_factory.hpp:77] Creating layer conv4
I0525 02:52:31.264310 24199 net.cpp:106] Creating Layer conv4
I0525 02:52:31.264324 24199 net.cpp:454] conv4 <- pool3
I0525 02:52:31.264340 24199 net.cpp:411] conv4 -> conv4
I0525 02:52:31.266454 24199 net.cpp:150] Setting up conv4
I0525 02:52:31.266479 24199 net.cpp:157] Top shape: 90 36 6 42 (816480)
I0525 02:52:31.266499 24199 net.cpp:165] Memory required for data: 136866600
I0525 02:52:31.266518 24199 layer_factory.hpp:77] Creating layer relu4
I0525 02:52:31.266538 24199 net.cpp:106] Creating Layer relu4
I0525 02:52:31.266551 24199 net.cpp:454] relu4 <- conv4
I0525 02:52:31.266566 24199 net.cpp:397] relu4 -> conv4 (in-place)
I0525 02:52:31.267072 24199 net.cpp:150] Setting up relu4
I0525 02:52:31.267096 24199 net.cpp:157] Top shape: 90 36 6 42 (816480)
I0525 02:52:31.267108 24199 net.cpp:165] Memory required for data: 140132520
I0525 02:52:31.267122 24199 layer_factory.hpp:77] Creating layer pool4
I0525 02:52:31.267139 24199 net.cpp:106] Creating Layer pool4
I0525 02:52:31.267160 24199 net.cpp:454] pool4 <- conv4
I0525 02:52:31.267177 24199 net.cpp:411] pool4 -> pool4
I0525 02:52:31.267261 24199 net.cpp:150] Setting up pool4
I0525 02:52:31.267284 24199 net.cpp:157] Top shape: 90 36 3 42 (408240)
I0525 02:52:31.267297 24199 net.cpp:165] Memory required for data: 141765480
I0525 02:52:31.267308 24199 layer_factory.hpp:77] Creating layer ip1
I0525 02:52:31.267329 24199 net.cpp:106] Creating Layer ip1
I0525 02:52:31.267343 24199 net.cpp:454] ip1 <- pool4
I0525 02:52:31.267365 24199 net.cpp:411] ip1 -> ip1
I0525 02:52:31.282850 24199 net.cpp:150] Setting up ip1
I0525 02:52:31.282884 24199 net.cpp:157] Top shape: 90 196 (17640)
I0525 02:52:31.282905 24199 net.cpp:165] Memory required for data: 141836040
I0525 02:52:31.282932 24199 layer_factory.hpp:77] Creating layer relu5
I0525 02:52:31.282953 24199 net.cpp:106] Creating Layer relu5
I0525 02:52:31.282977 24199 net.cpp:454] relu5 <- ip1
I0525 02:52:31.282994 24199 net.cpp:397] relu5 -> ip1 (in-place)
I0525 02:52:31.283360 24199 net.cpp:150] Setting up relu5
I0525 02:52:31.283380 24199 net.cpp:157] Top shape: 90 196 (17640)
I0525 02:52:31.283391 24199 net.cpp:165] Memory required for data: 141906600
I0525 02:52:31.283406 24199 layer_factory.hpp:77] Creating layer drop1
I0525 02:52:31.283434 24199 net.cpp:106] Creating Layer drop1
I0525 02:52:31.283447 24199 net.cpp:454] drop1 <- ip1
I0525 02:52:31.283463 24199 net.cpp:397] drop1 -> ip1 (in-place)
I0525 02:52:31.283524 24199 net.cpp:150] Setting up drop1
I0525 02:52:31.283540 24199 net.cpp:157] Top shape: 90 196 (17640)
I0525 02:52:31.283552 24199 net.cpp:165] Memory required for data: 141977160
I0525 02:52:31.283565 24199 layer_factory.hpp:77] Creating layer ip2
I0525 02:52:31.283584 24199 net.cpp:106] Creating Layer ip2
I0525 02:52:31.283596 24199 net.cpp:454] ip2 <- ip1
I0525 02:52:31.283622 24199 net.cpp:411] ip2 -> ip2
I0525 02:52:31.284122 24199 net.cpp:150] Setting up ip2
I0525 02:52:31.284142 24199 net.cpp:157] Top shape: 90 98 (8820)
I0525 02:52:31.284155 24199 net.cpp:165] Memory required for data: 142012440
I0525 02:52:31.284178 24199 layer_factory.hpp:77] Creating layer relu6
I0525 02:52:31.284212 24199 net.cpp:106] Creating Layer relu6
I0525 02:52:31.284225 24199 net.cpp:454] relu6 <- ip2
I0525 02:52:31.284245 24199 net.cpp:397] relu6 -> ip2 (in-place)
I0525 02:52:31.284811 24199 net.cpp:150] Setting up relu6
I0525 02:52:31.284833 24199 net.cpp:157] Top shape: 90 98 (8820)
I0525 02:52:31.284847 24199 net.cpp:165] Memory required for data: 142047720
I0525 02:52:31.284860 24199 layer_factory.hpp:77] Creating layer drop2
I0525 02:52:31.284880 24199 net.cpp:106] Creating Layer drop2
I0525 02:52:31.284901 24199 net.cpp:454] drop2 <- ip2
I0525 02:52:31.284917 24199 net.cpp:397] drop2 -> ip2 (in-place)
I0525 02:52:31.284976 24199 net.cpp:150] Setting up drop2
I0525 02:52:31.284999 24199 net.cpp:157] Top shape: 90 98 (8820)
I0525 02:52:31.285012 24199 net.cpp:165] Memory required for data: 142083000
I0525 02:52:31.285024 24199 layer_factory.hpp:77] Creating layer ip3
I0525 02:52:31.285042 24199 net.cpp:106] Creating Layer ip3
I0525 02:52:31.285053 24199 net.cpp:454] ip3 <- ip2
I0525 02:52:31.285079 24199 net.cpp:411] ip3 -> ip3
I0525 02:52:31.285316 24199 net.cpp:150] Setting up ip3
I0525 02:52:31.285336 24199 net.cpp:157] Top shape: 90 11 (990)
I0525 02:52:31.285348 24199 net.cpp:165] Memory required for data: 142086960
I0525 02:52:31.285370 24199 layer_factory.hpp:77] Creating layer drop3
I0525 02:52:31.285392 24199 net.cpp:106] Creating Layer drop3
I0525 02:52:31.285405 24199 net.cpp:454] drop3 <- ip3
I0525 02:52:31.285421 24199 net.cpp:397] drop3 -> ip3 (in-place)
I0525 02:52:31.285468 24199 net.cpp:150] Setting up drop3
I0525 02:52:31.285491 24199 net.cpp:157] Top shape: 90 11 (990)
I0525 02:52:31.285504 24199 net.cpp:165] Memory required for data: 142090920
I0525 02:52:31.285518 24199 layer_factory.hpp:77] Creating layer ip3_drop3_0_split
I0525 02:52:31.285534 24199 net.cpp:106] Creating Layer ip3_drop3_0_split
I0525 02:52:31.285549 24199 net.cpp:454] ip3_drop3_0_split <- ip3
I0525 02:52:31.285572 24199 net.cpp:411] ip3_drop3_0_split -> ip3_drop3_0_split_0
I0525 02:52:31.285590 24199 net.cpp:411] ip3_drop3_0_split -> ip3_drop3_0_split_1
I0525 02:52:31.285683 24199 net.cpp:150] Setting up ip3_drop3_0_split
I0525 02:52:31.285701 24199 net.cpp:157] Top shape: 90 11 (990)
I0525 02:52:31.285719 24199 net.cpp:157] Top shape: 90 11 (990)
I0525 02:52:31.285732 24199 net.cpp:165] Memory required for data: 142098840
I0525 02:52:31.285743 24199 layer_factory.hpp:77] Creating layer accuracy
I0525 02:52:31.285775 24199 net.cpp:106] Creating Layer accuracy
I0525 02:52:31.285789 24199 net.cpp:454] accuracy <- ip3_drop3_0_split_0
I0525 02:52:31.285804 24199 net.cpp:454] accuracy <- label_data_hdf5_1_split_0
I0525 02:52:31.285820 24199 net.cpp:411] accuracy -> accuracy
…
