…
I0525 08:53:29.147122 19426 net.cpp:322] The NetState phase (0) differed from the phase (1) specified by a rule in layer data_hdf5
I0525 08:53:29.147181 19426 net.cpp:322] The NetState phase (0) differed from the phase (1) specified by a rule in layer accuracy
I0525 08:53:29.147526 19426 net.cpp:49] Initializing net from parameters: 
name: "caffe_test_127x50_x_unshifted"
state {
  phase: TRAIN
}
layer {
  name: "data_hdf5"
  type: "HDF5Data"
  top: "data"
  top: "label"
  include {
    phase: TRAIN
  }
  hdf5_data_param {
    source: "/lustre/atlas/proj-shared/hep105/caffe_titan/minosmatch_nukecczdefs_127x50_x_unshifted_me1Bmc.trainlist"
    batch_size: 90
  }
}
layer {
  name: "conv1"
  type: "Convolution"
  bottom: "data"
  top: "conv1"
  convolution_param {
    num_output: 12
    pad: 0
    stride: 1
    weight_filler {
      type: "xavier"
    }
    bias_filler {
      type: "constant"
    }
    kernel_h: 8
    kernel_w: 3
  }
}
layer {
  name: "relu1"
  type: "ReLU"
  bottom: "conv1"
  top: "conv1"
}
layer {
  name: "pool1"
  type: "Pooling"
  bottom: "conv1"
  top: "pool1"
  pooling_param {
    pool: MAX
    kernel_h: 2
    kernel_w: 1
    stride_h: 2
    stride_w: 1
  }
}
layer {
  name: "conv2"
  type: "Convolution"
  bottom: "pool1"
  top: "conv2"
  convolution_param {
    num_output: 20
    pad: 0
    stride: 1
    weight_filler {
      type: "xavier"
    }
    bias_filler {
      type: "constant"
    }
    kernel_h: 7
    kernel_w: 3
  }
}
layer {
  name: "relu2"
  type: "ReLU"
  bottom: "conv2"
  top: "conv2"
}
layer {
  name: "pool2"
  type: "Pooling"
  bottom: "conv2"
  top: "pool2"
  pooling_param {
    pool: MAX
    kernel_h: 2
    kernel_w: 1
    stride_h: 2
    stride_w: 1
  }
}
layer {
  name: "conv3"
  type: "Convolution"
  bottom: "pool2"
  top: "conv3"
  convolution_param {
    num_output: 28
    pad: 0
    stride: 1
    weight_filler {
      type: "xavier"
    }
    bias_filler {
      type: "constant"
    }
    kernel_h: 6
    kernel_w: 3
  }
}
layer {
  name: "relu3"
  type: "ReLU"
  bottom: "conv3"
  top: "conv3"
}
layer {
  name: "pool3"
  type: "Pooling"
  bottom: "conv3"
  top: "pool3"
  pooling_param {
    pool: MAX
    kernel_h: 2
    kernel_w: 1
    stride_h: 2
    stride_w: 1
  }
}
layer {
  name: "conv4"
  type: "Convolution"
  bottom: "pool3"
  top: "conv4"
  convolution_param {
    num_output: 36
    pad: 0
    stride: 1
    weight_filler {
      type: "xavier"
    }
    bias_filler {
      type: "constant"
    }
    kernel_h: 6
    kernel_w: 3
  }
}
layer {
  name: "relu4"
  type: "ReLU"
  bottom: "conv4"
  top: "conv4"
}
layer {
  name: "pool4"
  type: "Pooling"
  bottom: "conv4"
  top: "pool4"
  pooling_param {
    pool: MAX
    kernel_h: 2
    kernel_w: 1
    stride_h: 2
    stride_w: 1
  }
}
layer {
  name: "ip1"
  type: "InnerProduct"
  bottom: "pool4"
  top: "ip1"
  inner_product_param {
    num_output: 196
    weight_filler {
      type: "xavier"
    }
    bias_filler {
      type: "constant"
    }
  }
}
layer {
  name: "relu5"
  type: "ReLU"
  bottom: "ip1"
  top: "ip1"
}
layer {
  name: "drop1"
  type: "Dropout"
  bottom: "ip1"
  top: "ip1"
  dropout_param {
    dropout_ratio: 0.5
  }
}
layer {
  name: "ip2"
  type: "InnerProduct"
  bottom: "ip1"
  top: "ip2"
  inner_product_param {
    num_output: 98
    weight_filler {
      type: "xavier"
    }
    bias_filler {
      type: "constant"
    }
  }
}
layer {
  name: "relu6"
  type: "ReLU"
  bottom: "ip2"
  top: "ip2"
}
layer {
  name: "drop2"
  type: "Dropout"
  bottom: "ip2"
  top: "ip2"
  dropout_param {
    dropout_ratio: 0.5
  }
}
layer {
  name: "ip3"
  type: "InnerProduct"
  bottom: "ip2"
  top: "ip3"
  inner_product_param {
    num_output: 11
    weight_filler {
      type: "xavier"
    }
    bias_filler {
      type: "constant"
    }
  }
}
layer {
  name: "drop3"
  type: "Dropout"
  bottom: "ip3"
  top: "ip3"
  dropout_param {
    dropout_ratio: 0.5
  }
}
layer {
  name: "loss"
  type: "SoftmaxWithLoss"
  bottom: "ip3"
  bottom: "label"
  top: "loss"
}
I0525 08:53:29.147706 19426 layer_factory.hpp:77] Creating layer data_hdf5
I0525 08:53:29.147729 19426 net.cpp:106] Creating Layer data_hdf5
I0525 08:53:29.147744 19426 net.cpp:411] data_hdf5 -> data
I0525 08:53:29.147776 19426 net.cpp:411] data_hdf5 -> label
I0525 08:53:29.147809 19426 hdf5_data_layer.cpp:79] Loading list of HDF5 filenames from: /lustre/atlas/proj-shared/hep105/caffe_titan/minosmatch_nukecczdefs_127x50_x_unshifted_me1Bmc.trainlist
I0525 08:53:29.149231 19426 hdf5_data_layer.cpp:93] Number of HDF5 files: 15
I0525 08:53:29.151643 19426 hdf5.cpp:32] Datatype class: H5T_FLOAT
I0525 08:53:50.628144 19426 hdf5.cpp:35] Datatype class: H5T_INTEGER
I0525 08:53:50.633333 19426 net.cpp:150] Setting up data_hdf5
I0525 08:53:50.633373 19426 net.cpp:157] Top shape: 90 1 127 50 (571500)
I0525 08:53:50.633388 19426 net.cpp:157] Top shape: 90 (90)
I0525 08:53:50.633401 19426 net.cpp:165] Memory required for data: 2286360
I0525 08:53:50.633415 19426 layer_factory.hpp:77] Creating layer conv1
I0525 08:53:50.633448 19426 net.cpp:106] Creating Layer conv1
I0525 08:53:50.633460 19426 net.cpp:454] conv1 <- data
I0525 08:53:50.633481 19426 net.cpp:411] conv1 -> conv1
I0525 08:53:51.001768 19426 net.cpp:150] Setting up conv1
I0525 08:53:51.001809 19426 net.cpp:157] Top shape: 90 12 120 48 (6220800)
I0525 08:53:51.001826 19426 net.cpp:165] Memory required for data: 27169560
I0525 08:53:51.001855 19426 layer_factory.hpp:77] Creating layer relu1
I0525 08:53:51.001878 19426 net.cpp:106] Creating Layer relu1
I0525 08:53:51.001888 19426 net.cpp:454] relu1 <- conv1
I0525 08:53:51.001902 19426 net.cpp:397] relu1 -> conv1 (in-place)
I0525 08:53:51.002418 19426 net.cpp:150] Setting up relu1
I0525 08:53:51.002435 19426 net.cpp:157] Top shape: 90 12 120 48 (6220800)
I0525 08:53:51.002446 19426 net.cpp:165] Memory required for data: 52052760
I0525 08:53:51.002457 19426 layer_factory.hpp:77] Creating layer pool1
I0525 08:53:51.002473 19426 net.cpp:106] Creating Layer pool1
I0525 08:53:51.002483 19426 net.cpp:454] pool1 <- conv1
I0525 08:53:51.002498 19426 net.cpp:411] pool1 -> pool1
I0525 08:53:51.002578 19426 net.cpp:150] Setting up pool1
I0525 08:53:51.002591 19426 net.cpp:157] Top shape: 90 12 60 48 (3110400)
I0525 08:53:51.002601 19426 net.cpp:165] Memory required for data: 64494360
I0525 08:53:51.002611 19426 layer_factory.hpp:77] Creating layer conv2
I0525 08:53:51.002635 19426 net.cpp:106] Creating Layer conv2
I0525 08:53:51.002645 19426 net.cpp:454] conv2 <- pool1
I0525 08:53:51.002658 19426 net.cpp:411] conv2 -> conv2
I0525 08:53:51.005401 19426 net.cpp:150] Setting up conv2
I0525 08:53:51.005429 19426 net.cpp:157] Top shape: 90 20 54 46 (4471200)
I0525 08:53:51.005440 19426 net.cpp:165] Memory required for data: 82379160
I0525 08:53:51.005460 19426 layer_factory.hpp:77] Creating layer relu2
I0525 08:53:51.005475 19426 net.cpp:106] Creating Layer relu2
I0525 08:53:51.005484 19426 net.cpp:454] relu2 <- conv2
I0525 08:53:51.005497 19426 net.cpp:397] relu2 -> conv2 (in-place)
I0525 08:53:51.005826 19426 net.cpp:150] Setting up relu2
I0525 08:53:51.005841 19426 net.cpp:157] Top shape: 90 20 54 46 (4471200)
I0525 08:53:51.005851 19426 net.cpp:165] Memory required for data: 100263960
I0525 08:53:51.005861 19426 layer_factory.hpp:77] Creating layer pool2
I0525 08:53:51.005874 19426 net.cpp:106] Creating Layer pool2
I0525 08:53:51.005884 19426 net.cpp:454] pool2 <- conv2
I0525 08:53:51.005897 19426 net.cpp:411] pool2 -> pool2
I0525 08:53:51.005976 19426 net.cpp:150] Setting up pool2
I0525 08:53:51.005990 19426 net.cpp:157] Top shape: 90 20 27 46 (2235600)
I0525 08:53:51.006000 19426 net.cpp:165] Memory required for data: 109206360
I0525 08:53:51.006009 19426 layer_factory.hpp:77] Creating layer conv3
I0525 08:53:51.006029 19426 net.cpp:106] Creating Layer conv3
I0525 08:53:51.006039 19426 net.cpp:454] conv3 <- pool2
I0525 08:53:51.006052 19426 net.cpp:411] conv3 -> conv3
I0525 08:53:51.007957 19426 net.cpp:150] Setting up conv3
I0525 08:53:51.007982 19426 net.cpp:157] Top shape: 90 28 22 44 (2439360)
I0525 08:53:51.007993 19426 net.cpp:165] Memory required for data: 118963800
I0525 08:53:51.008013 19426 layer_factory.hpp:77] Creating layer relu3
I0525 08:53:51.008028 19426 net.cpp:106] Creating Layer relu3
I0525 08:53:51.008038 19426 net.cpp:454] relu3 <- conv3
I0525 08:53:51.008050 19426 net.cpp:397] relu3 -> conv3 (in-place)
I0525 08:53:51.008517 19426 net.cpp:150] Setting up relu3
I0525 08:53:51.008534 19426 net.cpp:157] Top shape: 90 28 22 44 (2439360)
I0525 08:53:51.008544 19426 net.cpp:165] Memory required for data: 128721240
I0525 08:53:51.008555 19426 layer_factory.hpp:77] Creating layer pool3
I0525 08:53:51.008569 19426 net.cpp:106] Creating Layer pool3
I0525 08:53:51.008577 19426 net.cpp:454] pool3 <- conv3
I0525 08:53:51.008590 19426 net.cpp:411] pool3 -> pool3
I0525 08:53:51.008657 19426 net.cpp:150] Setting up pool3
I0525 08:53:51.008671 19426 net.cpp:157] Top shape: 90 28 11 44 (1219680)
I0525 08:53:51.008682 19426 net.cpp:165] Memory required for data: 133599960
I0525 08:53:51.008690 19426 layer_factory.hpp:77] Creating layer conv4
I0525 08:53:51.008708 19426 net.cpp:106] Creating Layer conv4
I0525 08:53:51.008718 19426 net.cpp:454] conv4 <- pool3
I0525 08:53:51.008733 19426 net.cpp:411] conv4 -> conv4
I0525 08:53:51.011680 19426 net.cpp:150] Setting up conv4
I0525 08:53:51.011709 19426 net.cpp:157] Top shape: 90 36 6 42 (816480)
I0525 08:53:51.011720 19426 net.cpp:165] Memory required for data: 136865880
I0525 08:53:51.011735 19426 layer_factory.hpp:77] Creating layer relu4
I0525 08:53:51.011750 19426 net.cpp:106] Creating Layer relu4
I0525 08:53:51.011760 19426 net.cpp:454] relu4 <- conv4
I0525 08:53:51.011773 19426 net.cpp:397] relu4 -> conv4 (in-place)
I0525 08:53:51.012238 19426 net.cpp:150] Setting up relu4
I0525 08:53:51.012253 19426 net.cpp:157] Top shape: 90 36 6 42 (816480)
I0525 08:53:51.012264 19426 net.cpp:165] Memory required for data: 140131800
I0525 08:53:51.012274 19426 layer_factory.hpp:77] Creating layer pool4
I0525 08:53:51.012286 19426 net.cpp:106] Creating Layer pool4
I0525 08:53:51.012296 19426 net.cpp:454] pool4 <- conv4
I0525 08:53:51.012308 19426 net.cpp:411] pool4 -> pool4
I0525 08:53:51.012377 19426 net.cpp:150] Setting up pool4
I0525 08:53:51.012390 19426 net.cpp:157] Top shape: 90 36 3 42 (408240)
I0525 08:53:51.012400 19426 net.cpp:165] Memory required for data: 141764760
I0525 08:53:51.012410 19426 layer_factory.hpp:77] Creating layer ip1
I0525 08:53:51.012430 19426 net.cpp:106] Creating Layer ip1
I0525 08:53:51.012440 19426 net.cpp:454] ip1 <- pool4
I0525 08:53:51.012454 19426 net.cpp:411] ip1 -> ip1
I0525 08:53:51.027897 19426 net.cpp:150] Setting up ip1
I0525 08:53:51.027925 19426 net.cpp:157] Top shape: 90 196 (17640)
I0525 08:53:51.027936 19426 net.cpp:165] Memory required for data: 141835320
I0525 08:53:51.027958 19426 layer_factory.hpp:77] Creating layer relu5
I0525 08:53:51.027972 19426 net.cpp:106] Creating Layer relu5
I0525 08:53:51.027983 19426 net.cpp:454] relu5 <- ip1
I0525 08:53:51.027997 19426 net.cpp:397] relu5 -> ip1 (in-place)
I0525 08:53:51.028337 19426 net.cpp:150] Setting up relu5
I0525 08:53:51.028350 19426 net.cpp:157] Top shape: 90 196 (17640)
I0525 08:53:51.028360 19426 net.cpp:165] Memory required for data: 141905880
I0525 08:53:51.028370 19426 layer_factory.hpp:77] Creating layer drop1
I0525 08:53:51.028391 19426 net.cpp:106] Creating Layer drop1
I0525 08:53:51.028401 19426 net.cpp:454] drop1 <- ip1
I0525 08:53:51.028414 19426 net.cpp:397] drop1 -> ip1 (in-place)
I0525 08:53:51.028473 19426 net.cpp:150] Setting up drop1
I0525 08:53:51.028487 19426 net.cpp:157] Top shape: 90 196 (17640)
I0525 08:53:51.028496 19426 net.cpp:165] Memory required for data: 141976440
I0525 08:53:51.028506 19426 layer_factory.hpp:77] Creating layer ip2
I0525 08:53:51.028525 19426 net.cpp:106] Creating Layer ip2
I0525 08:53:51.028537 19426 net.cpp:454] ip2 <- ip1
I0525 08:53:51.028549 19426 net.cpp:411] ip2 -> ip2
I0525 08:53:51.029013 19426 net.cpp:150] Setting up ip2
I0525 08:53:51.029026 19426 net.cpp:157] Top shape: 90 98 (8820)
I0525 08:53:51.029043 19426 net.cpp:165] Memory required for data: 142011720
I0525 08:53:51.029059 19426 layer_factory.hpp:77] Creating layer relu6
I0525 08:53:51.029072 19426 net.cpp:106] Creating Layer relu6
I0525 08:53:51.029083 19426 net.cpp:454] relu6 <- ip2
I0525 08:53:51.029094 19426 net.cpp:397] relu6 -> ip2 (in-place)
I0525 08:53:51.029618 19426 net.cpp:150] Setting up relu6
I0525 08:53:51.029633 19426 net.cpp:157] Top shape: 90 98 (8820)
I0525 08:53:51.029644 19426 net.cpp:165] Memory required for data: 142047000
I0525 08:53:51.029654 19426 layer_factory.hpp:77] Creating layer drop2
I0525 08:53:51.029669 19426 net.cpp:106] Creating Layer drop2
I0525 08:53:51.029678 19426 net.cpp:454] drop2 <- ip2
I0525 08:53:51.029690 19426 net.cpp:397] drop2 -> ip2 (in-place)
I0525 08:53:51.029733 19426 net.cpp:150] Setting up drop2
I0525 08:53:51.029747 19426 net.cpp:157] Top shape: 90 98 (8820)
I0525 08:53:51.029757 19426 net.cpp:165] Memory required for data: 142082280
I0525 08:53:51.029767 19426 layer_factory.hpp:77] Creating layer ip3
I0525 08:53:51.029779 19426 net.cpp:106] Creating Layer ip3
I0525 08:53:51.029789 19426 net.cpp:454] ip3 <- ip2
I0525 08:53:51.029803 19426 net.cpp:411] ip3 -> ip3
I0525 08:53:51.030011 19426 net.cpp:150] Setting up ip3
I0525 08:53:51.030025 19426 net.cpp:157] Top shape: 90 11 (990)
I0525 08:53:51.030035 19426 net.cpp:165] Memory required for data: 142086240
I0525 08:53:51.030050 19426 layer_factory.hpp:77] Creating layer drop3
I0525 08:53:51.030061 19426 net.cpp:106] Creating Layer drop3
I0525 08:53:51.030071 19426 net.cpp:454] drop3 <- ip3
I0525 08:53:51.030083 19426 net.cpp:397] drop3 -> ip3 (in-place)
I0525 08:53:51.030122 19426 net.cpp:150] Setting up drop3
I0525 08:53:51.030135 19426 net.cpp:157] Top shape: 90 11 (990)
I0525 08:53:51.030145 19426 net.cpp:165] Memory required for data: 142090200
I0525 08:53:51.030155 19426 layer_factory.hpp:77] Creating layer loss
I0525 08:53:51.030174 19426 net.cpp:106] Creating Layer loss
I0525 08:53:51.030184 19426 net.cpp:454] loss <- ip3
I0525 08:53:51.030195 19426 net.cpp:454] loss <- label
I0525 08:53:51.030207 19426 net.cpp:411] loss -> loss
I0525 08:53:51.030225 19426 layer_factory.hpp:77] Creating layer loss
…
I0525 08:53:51.033030 19426 solver.cpp:181] Creating test net (#0) specified by net file: /lustre/atlas/proj-shared/hep105/caffe_titan/caffe_workflow/logs_bslr/bs_90_lr_0.0035_2016-05-20T15.49.22.429442.prototxt
I0525 08:53:51.033110 19426 net.cpp:322] The NetState phase (1) differed from the phase (0) specified by a rule in layer data_hdf5
I0525 08:53:51.033462 19426 net.cpp:49] Initializing net from parameters: 
name: "caffe_test_127x50_x_unshifted"
state {
  phase: TEST
}
layer {
  name: "data_hdf5"
  type: "HDF5Data"
  top: "data"
  top: "label"
  include {
    phase: TEST
  }
  hdf5_data_param {
    source: "/lustre/atlas/proj-shared/hep105/caffe_titan/minosmatch_nukecczdefs_127x50_x_unshifted_me1Bmc.testlist"
    batch_size: 90
  }
}
layer {
  name: "conv1"
  type: "Convolution"
  bottom: "data"
  top: "conv1"
  convolution_param {
    num_output: 12
    pad: 0
    stride: 1
    weight_filler {
      type: "xavier"
    }
    bias_filler {
      type: "constant"
    }
    kernel_h: 8
    kernel_w: 3
  }
}
layer {
  name: "relu1"
  type: "ReLU"
  bottom: "conv1"
  top: "conv1"
}
layer {
  name: "pool1"
  type: "Pooling"
  bottom: "conv1"
  top: "pool1"
  pooling_param {
    pool: MAX
    kernel_h: 2
    kernel_w: 1
    stride_h: 2
    stride_w: 1
  }
}
layer {
  name: "conv2"
  type: "Convolution"
  bottom: "pool1"
  top: "conv2"
  convolution_param {
    num_output: 20
    pad: 0
    stride: 1
    weight_filler {
      type: "xavier"
    }
    bias_filler {
      type: "constant"
    }
    kernel_h: 7
    kernel_w: 3
  }
}
layer {
  name: "relu2"
  type: "ReLU"
  bottom: "conv2"
  top: "conv2"
}
layer {
  name: "pool2"
  type: "Pooling"
  bottom: "conv2"
  top: "pool2"
  pooling_param {
    pool: MAX
    kernel_h: 2
    kernel_w: 1
    stride_h: 2
    stride_w: 1
  }
}
layer {
  name: "conv3"
  type: "Convolution"
  bottom: "pool2"
  top: "conv3"
  convolution_param {
    num_output: 28
    pad: 0
    stride: 1
    weight_filler {
      type: "xavier"
    }
    bias_filler {
      type: "constant"
    }
    kernel_h: 6
    kernel_w: 3
  }
}
layer {
  name: "relu3"
  type: "ReLU"
  bottom: "conv3"
  top: "conv3"
}
layer {
  name: "pool3"
  type: "Pooling"
  bottom: "conv3"
  top: "pool3"
  pooling_param {
    pool: MAX
    kernel_h: 2
    kernel_w: 1
    stride_h: 2
    stride_w: 1
  }
}
layer {
  name: "conv4"
  type: "Convolution"
  bottom: "pool3"
  top: "conv4"
  convolution_param {
    num_output: 36
    pad: 0
    stride: 1
    weight_filler {
      type: "xavier"
    }
    bias_filler {
      type: "constant"
    }
    kernel_h: 6
    kernel_w: 3
  }
}
layer {
  name: "relu4"
  type: "ReLU"
  bottom: "conv4"
  top: "conv4"
}
layer {
  name: "pool4"
  type: "Pooling"
  bottom: "conv4"
  top: "pool4"
  pooling_param {
    pool: MAX
    kernel_h: 2
    kernel_w: 1
    stride_h: 2
    stride_w: 1
  }
}
layer {
  name: "ip1"
  type: "InnerProduct"
  bottom: "pool4"
  top: "ip1"
  inner_product_param {
    num_output: 196
    weight_filler {
      type: "xavier"
    }
    bias_filler {
      type: "constant"
    }
  }
}
layer {
  name: "relu5"
  type: "ReLU"
  bottom: "ip1"
  top: "ip1"
}
layer {
  name: "drop1"
  type: "Dropout"
  bottom: "ip1"
  top: "ip1"
  dropout_param {
    dropout_ratio: 0.5
  }
}
layer {
  name: "ip2"
  type: "InnerProduct"
  bottom: "ip1"
  top: "ip2"
  inner_product_param {
    num_output: 98
    weight_filler {
      type: "xavier"
    }
    bias_filler {
      type: "constant"
    }
  }
}
layer {
  name: "relu6"
  type: "ReLU"
  bottom: "ip2"
  top: "ip2"
}
layer {
  name: "drop2"
  type: "Dropout"
  bottom: "ip2"
  top: "ip2"
  dropout_param {
    dropout_ratio: 0.5
  }
}
layer {
  name: "ip3"
  type: "InnerProduct"
  bottom: "ip2"
  top: "ip3"
  inner_product_param {
    num_output: 11
    weight_filler {
      type: "xavier"
    }
    bias_filler {
      type: "constant"
    }
  }
}
layer {
  name: "drop3"
  type: "Dropout"
  bottom: "ip3"
  top: "ip3"
  dropout_param {
    dropout_ratio: 0.5
  }
}
layer {
  name: "accuracy"
  type: "Accuracy"
  bottom: "ip3"
  bottom: "label"
  top: "accuracy"
  include {
    phase: TEST
  }
}
layer {
  name: "loss"
  type: "SoftmaxWithLoss"
  bottom: "ip3"
  bottom: "label"
  top: "loss"
}
I0525 08:53:51.033649 19426 layer_factory.hpp:77] Creating layer data_hdf5
I0525 08:53:51.033665 19426 net.cpp:106] Creating Layer data_hdf5
I0525 08:53:51.033679 19426 net.cpp:411] data_hdf5 -> data
I0525 08:53:51.033695 19426 net.cpp:411] data_hdf5 -> label
I0525 08:53:51.033711 19426 hdf5_data_layer.cpp:79] Loading list of HDF5 filenames from: /lustre/atlas/proj-shared/hep105/caffe_titan/minosmatch_nukecczdefs_127x50_x_unshifted_me1Bmc.testlist
I0525 08:53:51.035102 19426 hdf5_data_layer.cpp:93] Number of HDF5 files: 3
I0525 08:54:12.422605 19426 net.cpp:150] Setting up data_hdf5
I0525 08:54:12.422770 19426 net.cpp:157] Top shape: 90 1 127 50 (571500)
I0525 08:54:12.422785 19426 net.cpp:157] Top shape: 90 (90)
I0525 08:54:12.422798 19426 net.cpp:165] Memory required for data: 2286360
I0525 08:54:12.422811 19426 layer_factory.hpp:77] Creating layer label_data_hdf5_1_split
I0525 08:54:12.422839 19426 net.cpp:106] Creating Layer label_data_hdf5_1_split
I0525 08:54:12.422850 19426 net.cpp:454] label_data_hdf5_1_split <- label
I0525 08:54:12.422865 19426 net.cpp:411] label_data_hdf5_1_split -> label_data_hdf5_1_split_0
I0525 08:54:12.422886 19426 net.cpp:411] label_data_hdf5_1_split -> label_data_hdf5_1_split_1
I0525 08:54:12.422960 19426 net.cpp:150] Setting up label_data_hdf5_1_split
I0525 08:54:12.422973 19426 net.cpp:157] Top shape: 90 (90)
I0525 08:54:12.422986 19426 net.cpp:157] Top shape: 90 (90)
I0525 08:54:12.422996 19426 net.cpp:165] Memory required for data: 2287080
I0525 08:54:12.423005 19426 layer_factory.hpp:77] Creating layer conv1
I0525 08:54:12.423025 19426 net.cpp:106] Creating Layer conv1
I0525 08:54:12.423037 19426 net.cpp:454] conv1 <- data
I0525 08:54:12.423050 19426 net.cpp:411] conv1 -> conv1
I0525 08:54:12.425006 19426 net.cpp:150] Setting up conv1
I0525 08:54:12.425030 19426 net.cpp:157] Top shape: 90 12 120 48 (6220800)
I0525 08:54:12.425051 19426 net.cpp:165] Memory required for data: 27170280
I0525 08:54:12.425072 19426 layer_factory.hpp:77] Creating layer relu1
I0525 08:54:12.425087 19426 net.cpp:106] Creating Layer relu1
I0525 08:54:12.425097 19426 net.cpp:454] relu1 <- conv1
I0525 08:54:12.425109 19426 net.cpp:397] relu1 -> conv1 (in-place)
I0525 08:54:12.425606 19426 net.cpp:150] Setting up relu1
I0525 08:54:12.425622 19426 net.cpp:157] Top shape: 90 12 120 48 (6220800)
I0525 08:54:12.425633 19426 net.cpp:165] Memory required for data: 52053480
I0525 08:54:12.425643 19426 layer_factory.hpp:77] Creating layer pool1
I0525 08:54:12.425659 19426 net.cpp:106] Creating Layer pool1
I0525 08:54:12.425669 19426 net.cpp:454] pool1 <- conv1
I0525 08:54:12.425683 19426 net.cpp:411] pool1 -> pool1
I0525 08:54:12.425758 19426 net.cpp:150] Setting up pool1
I0525 08:54:12.425771 19426 net.cpp:157] Top shape: 90 12 60 48 (3110400)
I0525 08:54:12.425781 19426 net.cpp:165] Memory required for data: 64495080
I0525 08:54:12.425792 19426 layer_factory.hpp:77] Creating layer conv2
I0525 08:54:12.425811 19426 net.cpp:106] Creating Layer conv2
I0525 08:54:12.425820 19426 net.cpp:454] conv2 <- pool1
I0525 08:54:12.425834 19426 net.cpp:411] conv2 -> conv2
I0525 08:54:12.427747 19426 net.cpp:150] Setting up conv2
I0525 08:54:12.427769 19426 net.cpp:157] Top shape: 90 20 54 46 (4471200)
I0525 08:54:12.427781 19426 net.cpp:165] Memory required for data: 82379880
I0525 08:54:12.427799 19426 layer_factory.hpp:77] Creating layer relu2
I0525 08:54:12.427812 19426 net.cpp:106] Creating Layer relu2
I0525 08:54:12.427822 19426 net.cpp:454] relu2 <- conv2
I0525 08:54:12.427834 19426 net.cpp:397] relu2 -> conv2 (in-place)
I0525 08:54:12.428169 19426 net.cpp:150] Setting up relu2
I0525 08:54:12.428184 19426 net.cpp:157] Top shape: 90 20 54 46 (4471200)
I0525 08:54:12.428194 19426 net.cpp:165] Memory required for data: 100264680
I0525 08:54:12.428203 19426 layer_factory.hpp:77] Creating layer pool2
I0525 08:54:12.428216 19426 net.cpp:106] Creating Layer pool2
I0525 08:54:12.428226 19426 net.cpp:454] pool2 <- conv2
I0525 08:54:12.428238 19426 net.cpp:411] pool2 -> pool2
I0525 08:54:12.428310 19426 net.cpp:150] Setting up pool2
I0525 08:54:12.428323 19426 net.cpp:157] Top shape: 90 20 27 46 (2235600)
I0525 08:54:12.428333 19426 net.cpp:165] Memory required for data: 109207080
I0525 08:54:12.428344 19426 layer_factory.hpp:77] Creating layer conv3
I0525 08:54:12.428364 19426 net.cpp:106] Creating Layer conv3
I0525 08:54:12.428374 19426 net.cpp:454] conv3 <- pool2
I0525 08:54:12.428387 19426 net.cpp:411] conv3 -> conv3
I0525 08:54:12.430377 19426 net.cpp:150] Setting up conv3
I0525 08:54:12.430400 19426 net.cpp:157] Top shape: 90 28 22 44 (2439360)
I0525 08:54:12.430413 19426 net.cpp:165] Memory required for data: 118964520
I0525 08:54:12.430445 19426 layer_factory.hpp:77] Creating layer relu3
I0525 08:54:12.430459 19426 net.cpp:106] Creating Layer relu3
I0525 08:54:12.430469 19426 net.cpp:454] relu3 <- conv3
I0525 08:54:12.430483 19426 net.cpp:397] relu3 -> conv3 (in-place)
I0525 08:54:12.430950 19426 net.cpp:150] Setting up relu3
I0525 08:54:12.430966 19426 net.cpp:157] Top shape: 90 28 22 44 (2439360)
I0525 08:54:12.430976 19426 net.cpp:165] Memory required for data: 128721960
I0525 08:54:12.430986 19426 layer_factory.hpp:77] Creating layer pool3
I0525 08:54:12.430999 19426 net.cpp:106] Creating Layer pool3
I0525 08:54:12.431010 19426 net.cpp:454] pool3 <- conv3
I0525 08:54:12.431022 19426 net.cpp:411] pool3 -> pool3
I0525 08:54:12.431093 19426 net.cpp:150] Setting up pool3
I0525 08:54:12.431107 19426 net.cpp:157] Top shape: 90 28 11 44 (1219680)
I0525 08:54:12.431115 19426 net.cpp:165] Memory required for data: 133600680
I0525 08:54:12.431126 19426 layer_factory.hpp:77] Creating layer conv4
I0525 08:54:12.431143 19426 net.cpp:106] Creating Layer conv4
I0525 08:54:12.431154 19426 net.cpp:454] conv4 <- pool3
I0525 08:54:12.431166 19426 net.cpp:411] conv4 -> conv4
I0525 08:54:12.433250 19426 net.cpp:150] Setting up conv4
I0525 08:54:12.433274 19426 net.cpp:157] Top shape: 90 36 6 42 (816480)
I0525 08:54:12.433285 19426 net.cpp:165] Memory required for data: 136866600
I0525 08:54:12.433300 19426 layer_factory.hpp:77] Creating layer relu4
I0525 08:54:12.433315 19426 net.cpp:106] Creating Layer relu4
I0525 08:54:12.433325 19426 net.cpp:454] relu4 <- conv4
I0525 08:54:12.433337 19426 net.cpp:397] relu4 -> conv4 (in-place)
I0525 08:54:12.433809 19426 net.cpp:150] Setting up relu4
I0525 08:54:12.433825 19426 net.cpp:157] Top shape: 90 36 6 42 (816480)
I0525 08:54:12.433835 19426 net.cpp:165] Memory required for data: 140132520
I0525 08:54:12.433845 19426 layer_factory.hpp:77] Creating layer pool4
I0525 08:54:12.433858 19426 net.cpp:106] Creating Layer pool4
I0525 08:54:12.433868 19426 net.cpp:454] pool4 <- conv4
I0525 08:54:12.433881 19426 net.cpp:411] pool4 -> pool4
I0525 08:54:12.433954 19426 net.cpp:150] Setting up pool4
I0525 08:54:12.433966 19426 net.cpp:157] Top shape: 90 36 3 42 (408240)
I0525 08:54:12.433976 19426 net.cpp:165] Memory required for data: 141765480
I0525 08:54:12.433986 19426 layer_factory.hpp:77] Creating layer ip1
I0525 08:54:12.434002 19426 net.cpp:106] Creating Layer ip1
I0525 08:54:12.434012 19426 net.cpp:454] ip1 <- pool4
I0525 08:54:12.434026 19426 net.cpp:411] ip1 -> ip1
I0525 08:54:12.449506 19426 net.cpp:150] Setting up ip1
I0525 08:54:12.449533 19426 net.cpp:157] Top shape: 90 196 (17640)
I0525 08:54:12.449545 19426 net.cpp:165] Memory required for data: 141836040
I0525 08:54:12.449568 19426 layer_factory.hpp:77] Creating layer relu5
I0525 08:54:12.449582 19426 net.cpp:106] Creating Layer relu5
I0525 08:54:12.449594 19426 net.cpp:454] relu5 <- ip1
I0525 08:54:12.449606 19426 net.cpp:397] relu5 -> ip1 (in-place)
I0525 08:54:12.449955 19426 net.cpp:150] Setting up relu5
I0525 08:54:12.449970 19426 net.cpp:157] Top shape: 90 196 (17640)
I0525 08:54:12.449980 19426 net.cpp:165] Memory required for data: 141906600
I0525 08:54:12.449990 19426 layer_factory.hpp:77] Creating layer drop1
I0525 08:54:12.450007 19426 net.cpp:106] Creating Layer drop1
I0525 08:54:12.450017 19426 net.cpp:454] drop1 <- ip1
I0525 08:54:12.450031 19426 net.cpp:397] drop1 -> ip1 (in-place)
I0525 08:54:12.450078 19426 net.cpp:150] Setting up drop1
I0525 08:54:12.450090 19426 net.cpp:157] Top shape: 90 196 (17640)
I0525 08:54:12.450100 19426 net.cpp:165] Memory required for data: 141977160
I0525 08:54:12.450109 19426 layer_factory.hpp:77] Creating layer ip2
I0525 08:54:12.450124 19426 net.cpp:106] Creating Layer ip2
I0525 08:54:12.450134 19426 net.cpp:454] ip2 <- ip1
I0525 08:54:12.450147 19426 net.cpp:411] ip2 -> ip2
I0525 08:54:12.450628 19426 net.cpp:150] Setting up ip2
I0525 08:54:12.450641 19426 net.cpp:157] Top shape: 90 98 (8820)
I0525 08:54:12.450651 19426 net.cpp:165] Memory required for data: 142012440
I0525 08:54:12.450666 19426 layer_factory.hpp:77] Creating layer relu6
I0525 08:54:12.450692 19426 net.cpp:106] Creating Layer relu6
I0525 08:54:12.450702 19426 net.cpp:454] relu6 <- ip2
I0525 08:54:12.450714 19426 net.cpp:397] relu6 -> ip2 (in-place)
I0525 08:54:12.451249 19426 net.cpp:150] Setting up relu6
I0525 08:54:12.451266 19426 net.cpp:157] Top shape: 90 98 (8820)
I0525 08:54:12.451274 19426 net.cpp:165] Memory required for data: 142047720
I0525 08:54:12.451284 19426 layer_factory.hpp:77] Creating layer drop2
I0525 08:54:12.451298 19426 net.cpp:106] Creating Layer drop2
I0525 08:54:12.451308 19426 net.cpp:454] drop2 <- ip2
I0525 08:54:12.451321 19426 net.cpp:397] drop2 -> ip2 (in-place)
I0525 08:54:12.451365 19426 net.cpp:150] Setting up drop2
I0525 08:54:12.451378 19426 net.cpp:157] Top shape: 90 98 (8820)
I0525 08:54:12.451388 19426 net.cpp:165] Memory required for data: 142083000
I0525 08:54:12.451397 19426 layer_factory.hpp:77] Creating layer ip3
I0525 08:54:12.451412 19426 net.cpp:106] Creating Layer ip3
I0525 08:54:12.451421 19426 net.cpp:454] ip3 <- ip2
I0525 08:54:12.451436 19426 net.cpp:411] ip3 -> ip3
I0525 08:54:12.451659 19426 net.cpp:150] Setting up ip3
I0525 08:54:12.451673 19426 net.cpp:157] Top shape: 90 11 (990)
I0525 08:54:12.451683 19426 net.cpp:165] Memory required for data: 142086960
I0525 08:54:12.451697 19426 layer_factory.hpp:77] Creating layer drop3
I0525 08:54:12.451711 19426 net.cpp:106] Creating Layer drop3
I0525 08:54:12.451720 19426 net.cpp:454] drop3 <- ip3
I0525 08:54:12.451733 19426 net.cpp:397] drop3 -> ip3 (in-place)
I0525 08:54:12.451776 19426 net.cpp:150] Setting up drop3
I0525 08:54:12.451788 19426 net.cpp:157] Top shape: 90 11 (990)
I0525 08:54:12.451798 19426 net.cpp:165] Memory required for data: 142090920
I0525 08:54:12.451808 19426 layer_factory.hpp:77] Creating layer ip3_drop3_0_split
I0525 08:54:12.451822 19426 net.cpp:106] Creating Layer ip3_drop3_0_split
I0525 08:54:12.451830 19426 net.cpp:454] ip3_drop3_0_split <- ip3
I0525 08:54:12.451843 19426 net.cpp:411] ip3_drop3_0_split -> ip3_drop3_0_split_0
I0525 08:54:12.451858 19426 net.cpp:411] ip3_drop3_0_split -> ip3_drop3_0_split_1
I0525 08:54:12.451931 19426 net.cpp:150] Setting up ip3_drop3_0_split
I0525 08:54:12.451944 19426 net.cpp:157] Top shape: 90 11 (990)
I0525 08:54:12.451956 19426 net.cpp:157] Top shape: 90 11 (990)
I0525 08:54:12.451967 19426 net.cpp:165] Memory required for data: 142098840
I0525 08:54:12.451977 19426 layer_factory.hpp:77] Creating layer accuracy
I0525 08:54:12.451999 19426 net.cpp:106] Creating Layer accuracy
I0525 08:54:12.452008 19426 net.cpp:454] accuracy <- ip3_drop3_0_split_0
I0525 08:54:12.452020 19426 net.cpp:454] accuracy <- label_data_hdf5_1_split_0
I0525 08:54:12.452033 19426 net.cpp:411] accuracy -> accuracy
…
