…
I0525 06:53:04.939306 20349 net.cpp:322] The NetState phase (0) differed from the phase (1) specified by a rule in layer data_hdf5
I0525 06:53:04.939365 20349 net.cpp:322] The NetState phase (0) differed from the phase (1) specified by a rule in layer accuracy
I0525 06:53:04.939713 20349 net.cpp:49] Initializing net from parameters: 
name: "caffe_test_127x50_x_unshifted"
state {
  phase: TRAIN
}
layer {
  name: "data_hdf5"
  type: "HDF5Data"
  top: "data"
  top: "label"
  include {
    phase: TRAIN
  }
  hdf5_data_param {
    source: "/lustre/atlas/proj-shared/hep105/caffe_titan/minosmatch_nukecczdefs_127x50_x_unshifted_me1Bmc.trainlist"
    batch_size: 90
  }
}
layer {
  name: "conv1"
  type: "Convolution"
  bottom: "data"
  top: "conv1"
  convolution_param {
    num_output: 12
    pad: 0
    stride: 1
    weight_filler {
      type: "xavier"
    }
    bias_filler {
      type: "constant"
    }
    kernel_h: 8
    kernel_w: 3
  }
}
layer {
  name: "relu1"
  type: "ReLU"
  bottom: "conv1"
  top: "conv1"
}
layer {
  name: "pool1"
  type: "Pooling"
  bottom: "conv1"
  top: "pool1"
  pooling_param {
    pool: MAX
    kernel_h: 2
    kernel_w: 1
    stride_h: 2
    stride_w: 1
  }
}
layer {
  name: "conv2"
  type: "Convolution"
  bottom: "pool1"
  top: "conv2"
  convolution_param {
    num_output: 20
    pad: 0
    stride: 1
    weight_filler {
      type: "xavier"
    }
    bias_filler {
      type: "constant"
    }
    kernel_h: 7
    kernel_w: 3
  }
}
layer {
  name: "relu2"
  type: "ReLU"
  bottom: "conv2"
  top: "conv2"
}
layer {
  name: "pool2"
  type: "Pooling"
  bottom: "conv2"
  top: "pool2"
  pooling_param {
    pool: MAX
    kernel_h: 2
    kernel_w: 1
    stride_h: 2
    stride_w: 1
  }
}
layer {
  name: "conv3"
  type: "Convolution"
  bottom: "pool2"
  top: "conv3"
  convolution_param {
    num_output: 28
    pad: 0
    stride: 1
    weight_filler {
      type: "xavier"
    }
    bias_filler {
      type: "constant"
    }
    kernel_h: 6
    kernel_w: 3
  }
}
layer {
  name: "relu3"
  type: "ReLU"
  bottom: "conv3"
  top: "conv3"
}
layer {
  name: "pool3"
  type: "Pooling"
  bottom: "conv3"
  top: "pool3"
  pooling_param {
    pool: MAX
    kernel_h: 2
    kernel_w: 1
    stride_h: 2
    stride_w: 1
  }
}
layer {
  name: "conv4"
  type: "Convolution"
  bottom: "pool3"
  top: "conv4"
  convolution_param {
    num_output: 36
    pad: 0
    stride: 1
    weight_filler {
      type: "xavier"
    }
    bias_filler {
      type: "constant"
    }
    kernel_h: 6
    kernel_w: 3
  }
}
layer {
  name: "relu4"
  type: "ReLU"
  bottom: "conv4"
  top: "conv4"
}
layer {
  name: "pool4"
  type: "Pooling"
  bottom: "conv4"
  top: "pool4"
  pooling_param {
    pool: MAX
    kernel_h: 2
    kernel_w: 1
    stride_h: 2
    stride_w: 1
  }
}
layer {
  name: "ip1"
  type: "InnerProduct"
  bottom: "pool4"
  top: "ip1"
  inner_product_param {
    num_output: 196
    weight_filler {
      type: "xavier"
    }
    bias_filler {
      type: "constant"
    }
  }
}
layer {
  name: "relu5"
  type: "ReLU"
  bottom: "ip1"
  top: "ip1"
}
layer {
  name: "drop1"
  type: "Dropout"
  bottom: "ip1"
  top: "ip1"
  dropout_param {
    dropout_ratio: 0.5
  }
}
layer {
  name: "ip2"
  type: "InnerProduct"
  bottom: "ip1"
  top: "ip2"
  inner_product_param {
    num_output: 98
    weight_filler {
      type: "xavier"
    }
    bias_filler {
      type: "constant"
    }
  }
}
layer {
  name: "relu6"
  type: "ReLU"
  bottom: "ip2"
  top: "ip2"
}
layer {
  name: "drop2"
  type: "Dropout"
  bottom: "ip2"
  top: "ip2"
  dropout_param {
    dropout_ratio: 0.5
  }
}
layer {
  name: "ip3"
  type: "InnerProduct"
  bottom: "ip2"
  top: "ip3"
  inner_product_param {
    num_output: 11
    weight_filler {
      type: "xavier"
    }
    bias_filler {
      type: "constant"
    }
  }
}
layer {
  name: "drop3"
  type: "Dropout"
  bottom: "ip3"
  top: "ip3"
  dropout_param {
    dropout_ratio: 0.5
  }
}
layer {
  name: "loss"
  type: "SoftmaxWithLoss"
  bottom: "ip3"
  bottom: "label"
  top: "loss"
}
I0525 06:53:04.939895 20349 layer_factory.hpp:77] Creating layer data_hdf5
I0525 06:53:04.939918 20349 net.cpp:106] Creating Layer data_hdf5
I0525 06:53:04.939932 20349 net.cpp:411] data_hdf5 -> data
I0525 06:53:04.939965 20349 net.cpp:411] data_hdf5 -> label
I0525 06:53:04.939997 20349 hdf5_data_layer.cpp:79] Loading list of HDF5 filenames from: /lustre/atlas/proj-shared/hep105/caffe_titan/minosmatch_nukecczdefs_127x50_x_unshifted_me1Bmc.trainlist
I0525 06:53:04.941671 20349 hdf5_data_layer.cpp:93] Number of HDF5 files: 15
I0525 06:53:04.956759 20349 hdf5.cpp:32] Datatype class: H5T_FLOAT
I0525 06:53:26.488277 20349 hdf5.cpp:35] Datatype class: H5T_INTEGER
I0525 06:53:26.493561 20349 net.cpp:150] Setting up data_hdf5
I0525 06:53:26.493602 20349 net.cpp:157] Top shape: 90 1 127 50 (571500)
I0525 06:53:26.493616 20349 net.cpp:157] Top shape: 90 (90)
I0525 06:53:26.493628 20349 net.cpp:165] Memory required for data: 2286360
I0525 06:53:26.493643 20349 layer_factory.hpp:77] Creating layer conv1
I0525 06:53:26.493676 20349 net.cpp:106] Creating Layer conv1
I0525 06:53:26.493687 20349 net.cpp:454] conv1 <- data
I0525 06:53:26.493710 20349 net.cpp:411] conv1 -> conv1
I0525 06:53:26.866886 20349 net.cpp:150] Setting up conv1
I0525 06:53:26.866932 20349 net.cpp:157] Top shape: 90 12 120 48 (6220800)
I0525 06:53:26.866943 20349 net.cpp:165] Memory required for data: 27169560
I0525 06:53:26.866971 20349 layer_factory.hpp:77] Creating layer relu1
I0525 06:53:26.866993 20349 net.cpp:106] Creating Layer relu1
I0525 06:53:26.867004 20349 net.cpp:454] relu1 <- conv1
I0525 06:53:26.867017 20349 net.cpp:397] relu1 -> conv1 (in-place)
I0525 06:53:26.867534 20349 net.cpp:150] Setting up relu1
I0525 06:53:26.867552 20349 net.cpp:157] Top shape: 90 12 120 48 (6220800)
I0525 06:53:26.867561 20349 net.cpp:165] Memory required for data: 52052760
I0525 06:53:26.867573 20349 layer_factory.hpp:77] Creating layer pool1
I0525 06:53:26.867588 20349 net.cpp:106] Creating Layer pool1
I0525 06:53:26.867599 20349 net.cpp:454] pool1 <- conv1
I0525 06:53:26.867611 20349 net.cpp:411] pool1 -> pool1
I0525 06:53:26.867691 20349 net.cpp:150] Setting up pool1
I0525 06:53:26.867704 20349 net.cpp:157] Top shape: 90 12 60 48 (3110400)
I0525 06:53:26.867714 20349 net.cpp:165] Memory required for data: 64494360
I0525 06:53:26.867724 20349 layer_factory.hpp:77] Creating layer conv2
I0525 06:53:26.867748 20349 net.cpp:106] Creating Layer conv2
I0525 06:53:26.867758 20349 net.cpp:454] conv2 <- pool1
I0525 06:53:26.867771 20349 net.cpp:411] conv2 -> conv2
I0525 06:53:26.870486 20349 net.cpp:150] Setting up conv2
I0525 06:53:26.870514 20349 net.cpp:157] Top shape: 90 20 54 46 (4471200)
I0525 06:53:26.870525 20349 net.cpp:165] Memory required for data: 82379160
I0525 06:53:26.870544 20349 layer_factory.hpp:77] Creating layer relu2
I0525 06:53:26.870558 20349 net.cpp:106] Creating Layer relu2
I0525 06:53:26.870568 20349 net.cpp:454] relu2 <- conv2
I0525 06:53:26.870581 20349 net.cpp:397] relu2 -> conv2 (in-place)
I0525 06:53:26.870910 20349 net.cpp:150] Setting up relu2
I0525 06:53:26.870925 20349 net.cpp:157] Top shape: 90 20 54 46 (4471200)
I0525 06:53:26.870935 20349 net.cpp:165] Memory required for data: 100263960
I0525 06:53:26.870946 20349 layer_factory.hpp:77] Creating layer pool2
I0525 06:53:26.870959 20349 net.cpp:106] Creating Layer pool2
I0525 06:53:26.870968 20349 net.cpp:454] pool2 <- conv2
I0525 06:53:26.870981 20349 net.cpp:411] pool2 -> pool2
I0525 06:53:26.871062 20349 net.cpp:150] Setting up pool2
I0525 06:53:26.871075 20349 net.cpp:157] Top shape: 90 20 27 46 (2235600)
I0525 06:53:26.871085 20349 net.cpp:165] Memory required for data: 109206360
I0525 06:53:26.871095 20349 layer_factory.hpp:77] Creating layer conv3
I0525 06:53:26.871114 20349 net.cpp:106] Creating Layer conv3
I0525 06:53:26.871124 20349 net.cpp:454] conv3 <- pool2
I0525 06:53:26.871137 20349 net.cpp:411] conv3 -> conv3
I0525 06:53:26.873044 20349 net.cpp:150] Setting up conv3
I0525 06:53:26.873067 20349 net.cpp:157] Top shape: 90 28 22 44 (2439360)
I0525 06:53:26.873080 20349 net.cpp:165] Memory required for data: 118963800
I0525 06:53:26.873098 20349 layer_factory.hpp:77] Creating layer relu3
I0525 06:53:26.873113 20349 net.cpp:106] Creating Layer relu3
I0525 06:53:26.873123 20349 net.cpp:454] relu3 <- conv3
I0525 06:53:26.873136 20349 net.cpp:397] relu3 -> conv3 (in-place)
I0525 06:53:26.873615 20349 net.cpp:150] Setting up relu3
I0525 06:53:26.873632 20349 net.cpp:157] Top shape: 90 28 22 44 (2439360)
I0525 06:53:26.873642 20349 net.cpp:165] Memory required for data: 128721240
I0525 06:53:26.873652 20349 layer_factory.hpp:77] Creating layer pool3
I0525 06:53:26.873666 20349 net.cpp:106] Creating Layer pool3
I0525 06:53:26.873675 20349 net.cpp:454] pool3 <- conv3
I0525 06:53:26.873688 20349 net.cpp:411] pool3 -> pool3
I0525 06:53:26.873756 20349 net.cpp:150] Setting up pool3
I0525 06:53:26.873769 20349 net.cpp:157] Top shape: 90 28 11 44 (1219680)
I0525 06:53:26.873780 20349 net.cpp:165] Memory required for data: 133599960
I0525 06:53:26.873787 20349 layer_factory.hpp:77] Creating layer conv4
I0525 06:53:26.873805 20349 net.cpp:106] Creating Layer conv4
I0525 06:53:26.873814 20349 net.cpp:454] conv4 <- pool3
I0525 06:53:26.873828 20349 net.cpp:411] conv4 -> conv4
I0525 06:53:26.876766 20349 net.cpp:150] Setting up conv4
I0525 06:53:26.876796 20349 net.cpp:157] Top shape: 90 36 6 42 (816480)
I0525 06:53:26.876806 20349 net.cpp:165] Memory required for data: 136865880
I0525 06:53:26.876822 20349 layer_factory.hpp:77] Creating layer relu4
I0525 06:53:26.876837 20349 net.cpp:106] Creating Layer relu4
I0525 06:53:26.876847 20349 net.cpp:454] relu4 <- conv4
I0525 06:53:26.876860 20349 net.cpp:397] relu4 -> conv4 (in-place)
I0525 06:53:26.877322 20349 net.cpp:150] Setting up relu4
I0525 06:53:26.877338 20349 net.cpp:157] Top shape: 90 36 6 42 (816480)
I0525 06:53:26.877348 20349 net.cpp:165] Memory required for data: 140131800
I0525 06:53:26.877359 20349 layer_factory.hpp:77] Creating layer pool4
I0525 06:53:26.877372 20349 net.cpp:106] Creating Layer pool4
I0525 06:53:26.877382 20349 net.cpp:454] pool4 <- conv4
I0525 06:53:26.877394 20349 net.cpp:411] pool4 -> pool4
I0525 06:53:26.877472 20349 net.cpp:150] Setting up pool4
I0525 06:53:26.877486 20349 net.cpp:157] Top shape: 90 36 3 42 (408240)
I0525 06:53:26.877496 20349 net.cpp:165] Memory required for data: 141764760
I0525 06:53:26.877506 20349 layer_factory.hpp:77] Creating layer ip1
I0525 06:53:26.877526 20349 net.cpp:106] Creating Layer ip1
I0525 06:53:26.877535 20349 net.cpp:454] ip1 <- pool4
I0525 06:53:26.877548 20349 net.cpp:411] ip1 -> ip1
I0525 06:53:26.892964 20349 net.cpp:150] Setting up ip1
I0525 06:53:26.892992 20349 net.cpp:157] Top shape: 90 196 (17640)
I0525 06:53:26.893003 20349 net.cpp:165] Memory required for data: 141835320
I0525 06:53:26.893024 20349 layer_factory.hpp:77] Creating layer relu5
I0525 06:53:26.893039 20349 net.cpp:106] Creating Layer relu5
I0525 06:53:26.893050 20349 net.cpp:454] relu5 <- ip1
I0525 06:53:26.893064 20349 net.cpp:397] relu5 -> ip1 (in-place)
I0525 06:53:26.893411 20349 net.cpp:150] Setting up relu5
I0525 06:53:26.893424 20349 net.cpp:157] Top shape: 90 196 (17640)
I0525 06:53:26.893435 20349 net.cpp:165] Memory required for data: 141905880
I0525 06:53:26.893445 20349 layer_factory.hpp:77] Creating layer drop1
I0525 06:53:26.893465 20349 net.cpp:106] Creating Layer drop1
I0525 06:53:26.893476 20349 net.cpp:454] drop1 <- ip1
I0525 06:53:26.893488 20349 net.cpp:397] drop1 -> ip1 (in-place)
I0525 06:53:26.893549 20349 net.cpp:150] Setting up drop1
I0525 06:53:26.893563 20349 net.cpp:157] Top shape: 90 196 (17640)
I0525 06:53:26.893571 20349 net.cpp:165] Memory required for data: 141976440
I0525 06:53:26.893581 20349 layer_factory.hpp:77] Creating layer ip2
I0525 06:53:26.893600 20349 net.cpp:106] Creating Layer ip2
I0525 06:53:26.893611 20349 net.cpp:454] ip2 <- ip1
I0525 06:53:26.893625 20349 net.cpp:411] ip2 -> ip2
I0525 06:53:26.894089 20349 net.cpp:150] Setting up ip2
I0525 06:53:26.894103 20349 net.cpp:157] Top shape: 90 98 (8820)
I0525 06:53:26.894112 20349 net.cpp:165] Memory required for data: 142011720
I0525 06:53:26.894127 20349 layer_factory.hpp:77] Creating layer relu6
I0525 06:53:26.894140 20349 net.cpp:106] Creating Layer relu6
I0525 06:53:26.894150 20349 net.cpp:454] relu6 <- ip2
I0525 06:53:26.894161 20349 net.cpp:397] relu6 -> ip2 (in-place)
I0525 06:53:26.894681 20349 net.cpp:150] Setting up relu6
I0525 06:53:26.894698 20349 net.cpp:157] Top shape: 90 98 (8820)
I0525 06:53:26.894707 20349 net.cpp:165] Memory required for data: 142047000
I0525 06:53:26.894718 20349 layer_factory.hpp:77] Creating layer drop2
I0525 06:53:26.894731 20349 net.cpp:106] Creating Layer drop2
I0525 06:53:26.894740 20349 net.cpp:454] drop2 <- ip2
I0525 06:53:26.894752 20349 net.cpp:397] drop2 -> ip2 (in-place)
I0525 06:53:26.894795 20349 net.cpp:150] Setting up drop2
I0525 06:53:26.894809 20349 net.cpp:157] Top shape: 90 98 (8820)
I0525 06:53:26.894819 20349 net.cpp:165] Memory required for data: 142082280
I0525 06:53:26.894829 20349 layer_factory.hpp:77] Creating layer ip3
I0525 06:53:26.894842 20349 net.cpp:106] Creating Layer ip3
I0525 06:53:26.894852 20349 net.cpp:454] ip3 <- ip2
I0525 06:53:26.894865 20349 net.cpp:411] ip3 -> ip3
I0525 06:53:26.895072 20349 net.cpp:150] Setting up ip3
I0525 06:53:26.895086 20349 net.cpp:157] Top shape: 90 11 (990)
I0525 06:53:26.895094 20349 net.cpp:165] Memory required for data: 142086240
I0525 06:53:26.895109 20349 layer_factory.hpp:77] Creating layer drop3
I0525 06:53:26.895123 20349 net.cpp:106] Creating Layer drop3
I0525 06:53:26.895131 20349 net.cpp:454] drop3 <- ip3
I0525 06:53:26.895143 20349 net.cpp:397] drop3 -> ip3 (in-place)
I0525 06:53:26.895182 20349 net.cpp:150] Setting up drop3
I0525 06:53:26.895195 20349 net.cpp:157] Top shape: 90 11 (990)
I0525 06:53:26.895205 20349 net.cpp:165] Memory required for data: 142090200
I0525 06:53:26.895215 20349 layer_factory.hpp:77] Creating layer loss
I0525 06:53:26.895234 20349 net.cpp:106] Creating Layer loss
I0525 06:53:26.895243 20349 net.cpp:454] loss <- ip3
I0525 06:53:26.895256 20349 net.cpp:454] loss <- label
I0525 06:53:26.895267 20349 net.cpp:411] loss -> loss
I0525 06:53:26.895284 20349 layer_factory.hpp:77] Creating layer loss
…
I0525 06:53:26.898233 20349 solver.cpp:181] Creating test net (#0) specified by net file: /lustre/atlas/proj-shared/hep105/caffe_titan/caffe_workflow/logs_bslr/bs_90_lr_0.0025_2016-05-20T15.49.21.668786.prototxt
I0525 06:53:26.898304 20349 net.cpp:322] The NetState phase (1) differed from the phase (0) specified by a rule in layer data_hdf5
I0525 06:53:26.898658 20349 net.cpp:49] Initializing net from parameters: 
name: "caffe_test_127x50_x_unshifted"
state {
  phase: TEST
}
layer {
  name: "data_hdf5"
  type: "HDF5Data"
  top: "data"
  top: "label"
  include {
    phase: TEST
  }
  hdf5_data_param {
    source: "/lustre/atlas/proj-shared/hep105/caffe_titan/minosmatch_nukecczdefs_127x50_x_unshifted_me1Bmc.testlist"
    batch_size: 90
  }
}
layer {
  name: "conv1"
  type: "Convolution"
  bottom: "data"
  top: "conv1"
  convolution_param {
    num_output: 12
    pad: 0
    stride: 1
    weight_filler {
      type: "xavier"
    }
    bias_filler {
      type: "constant"
    }
    kernel_h: 8
    kernel_w: 3
  }
}
layer {
  name: "relu1"
  type: "ReLU"
  bottom: "conv1"
  top: "conv1"
}
layer {
  name: "pool1"
  type: "Pooling"
  bottom: "conv1"
  top: "pool1"
  pooling_param {
    pool: MAX
    kernel_h: 2
    kernel_w: 1
    stride_h: 2
    stride_w: 1
  }
}
layer {
  name: "conv2"
  type: "Convolution"
  bottom: "pool1"
  top: "conv2"
  convolution_param {
    num_output: 20
    pad: 0
    stride: 1
    weight_filler {
      type: "xavier"
    }
    bias_filler {
      type: "constant"
    }
    kernel_h: 7
    kernel_w: 3
  }
}
layer {
  name: "relu2"
  type: "ReLU"
  bottom: "conv2"
  top: "conv2"
}
layer {
  name: "pool2"
  type: "Pooling"
  bottom: "conv2"
  top: "pool2"
  pooling_param {
    pool: MAX
    kernel_h: 2
    kernel_w: 1
    stride_h: 2
    stride_w: 1
  }
}
layer {
  name: "conv3"
  type: "Convolution"
  bottom: "pool2"
  top: "conv3"
  convolution_param {
    num_output: 28
    pad: 0
    stride: 1
    weight_filler {
      type: "xavier"
    }
    bias_filler {
      type: "constant"
    }
    kernel_h: 6
    kernel_w: 3
  }
}
layer {
  name: "relu3"
  type: "ReLU"
  bottom: "conv3"
  top: "conv3"
}
layer {
  name: "pool3"
  type: "Pooling"
  bottom: "conv3"
  top: "pool3"
  pooling_param {
    pool: MAX
    kernel_h: 2
    kernel_w: 1
    stride_h: 2
    stride_w: 1
  }
}
layer {
  name: "conv4"
  type: "Convolution"
  bottom: "pool3"
  top: "conv4"
  convolution_param {
    num_output: 36
    pad: 0
    stride: 1
    weight_filler {
      type: "xavier"
    }
    bias_filler {
      type: "constant"
    }
    kernel_h: 6
    kernel_w: 3
  }
}
layer {
  name: "relu4"
  type: "ReLU"
  bottom: "conv4"
  top: "conv4"
}
layer {
  name: "pool4"
  type: "Pooling"
  bottom: "conv4"
  top: "pool4"
  pooling_param {
    pool: MAX
    kernel_h: 2
    kernel_w: 1
    stride_h: 2
    stride_w: 1
  }
}
layer {
  name: "ip1"
  type: "InnerProduct"
  bottom: "pool4"
  top: "ip1"
  inner_product_param {
    num_output: 196
    weight_filler {
      type: "xavier"
    }
    bias_filler {
      type: "constant"
    }
  }
}
layer {
  name: "relu5"
  type: "ReLU"
  bottom: "ip1"
  top: "ip1"
}
layer {
  name: "drop1"
  type: "Dropout"
  bottom: "ip1"
  top: "ip1"
  dropout_param {
    dropout_ratio: 0.5
  }
}
layer {
  name: "ip2"
  type: "InnerProduct"
  bottom: "ip1"
  top: "ip2"
  inner_product_param {
    num_output: 98
    weight_filler {
      type: "xavier"
    }
    bias_filler {
      type: "constant"
    }
  }
}
layer {
  name: "relu6"
  type: "ReLU"
  bottom: "ip2"
  top: "ip2"
}
layer {
  name: "drop2"
  type: "Dropout"
  bottom: "ip2"
  top: "ip2"
  dropout_param {
    dropout_ratio: 0.5
  }
}
layer {
  name: "ip3"
  type: "InnerProduct"
  bottom: "ip2"
  top: "ip3"
  inner_product_param {
    num_output: 11
    weight_filler {
      type: "xavier"
    }
    bias_filler {
      type: "constant"
    }
  }
}
layer {
  name: "drop3"
  type: "Dropout"
  bottom: "ip3"
  top: "ip3"
  dropout_param {
    dropout_ratio: 0.5
  }
}
layer {
  name: "accuracy"
  type: "Accuracy"
  bottom: "ip3"
  bottom: "label"
  top: "accuracy"
  include {
    phase: TEST
  }
}
layer {
  name: "loss"
  type: "SoftmaxWithLoss"
  bottom: "ip3"
  bottom: "label"
  top: "loss"
}
I0525 06:53:26.898845 20349 layer_factory.hpp:77] Creating layer data_hdf5
I0525 06:53:26.898860 20349 net.cpp:106] Creating Layer data_hdf5
I0525 06:53:26.898872 20349 net.cpp:411] data_hdf5 -> data
I0525 06:53:26.898891 20349 net.cpp:411] data_hdf5 -> label
I0525 06:53:26.898908 20349 hdf5_data_layer.cpp:79] Loading list of HDF5 filenames from: /lustre/atlas/proj-shared/hep105/caffe_titan/minosmatch_nukecczdefs_127x50_x_unshifted_me1Bmc.testlist
I0525 06:53:26.900336 20349 hdf5_data_layer.cpp:93] Number of HDF5 files: 3
I0525 06:53:48.276885 20349 net.cpp:150] Setting up data_hdf5
I0525 06:53:48.277050 20349 net.cpp:157] Top shape: 90 1 127 50 (571500)
I0525 06:53:48.277063 20349 net.cpp:157] Top shape: 90 (90)
I0525 06:53:48.277076 20349 net.cpp:165] Memory required for data: 2286360
I0525 06:53:48.277088 20349 layer_factory.hpp:77] Creating layer label_data_hdf5_1_split
I0525 06:53:48.277117 20349 net.cpp:106] Creating Layer label_data_hdf5_1_split
I0525 06:53:48.277127 20349 net.cpp:454] label_data_hdf5_1_split <- label
I0525 06:53:48.277143 20349 net.cpp:411] label_data_hdf5_1_split -> label_data_hdf5_1_split_0
I0525 06:53:48.277164 20349 net.cpp:411] label_data_hdf5_1_split -> label_data_hdf5_1_split_1
I0525 06:53:48.277238 20349 net.cpp:150] Setting up label_data_hdf5_1_split
I0525 06:53:48.277251 20349 net.cpp:157] Top shape: 90 (90)
I0525 06:53:48.277263 20349 net.cpp:157] Top shape: 90 (90)
I0525 06:53:48.277273 20349 net.cpp:165] Memory required for data: 2287080
I0525 06:53:48.277282 20349 layer_factory.hpp:77] Creating layer conv1
I0525 06:53:48.277304 20349 net.cpp:106] Creating Layer conv1
I0525 06:53:48.277315 20349 net.cpp:454] conv1 <- data
I0525 06:53:48.277330 20349 net.cpp:411] conv1 -> conv1
I0525 06:53:48.279273 20349 net.cpp:150] Setting up conv1
I0525 06:53:48.279297 20349 net.cpp:157] Top shape: 90 12 120 48 (6220800)
I0525 06:53:48.279309 20349 net.cpp:165] Memory required for data: 27170280
I0525 06:53:48.279330 20349 layer_factory.hpp:77] Creating layer relu1
I0525 06:53:48.279345 20349 net.cpp:106] Creating Layer relu1
I0525 06:53:48.279356 20349 net.cpp:454] relu1 <- conv1
I0525 06:53:48.279368 20349 net.cpp:397] relu1 -> conv1 (in-place)
I0525 06:53:48.279858 20349 net.cpp:150] Setting up relu1
I0525 06:53:48.279875 20349 net.cpp:157] Top shape: 90 12 120 48 (6220800)
I0525 06:53:48.279884 20349 net.cpp:165] Memory required for data: 52053480
I0525 06:53:48.279894 20349 layer_factory.hpp:77] Creating layer pool1
I0525 06:53:48.279911 20349 net.cpp:106] Creating Layer pool1
I0525 06:53:48.279920 20349 net.cpp:454] pool1 <- conv1
I0525 06:53:48.279933 20349 net.cpp:411] pool1 -> pool1
I0525 06:53:48.280009 20349 net.cpp:150] Setting up pool1
I0525 06:53:48.280021 20349 net.cpp:157] Top shape: 90 12 60 48 (3110400)
I0525 06:53:48.280031 20349 net.cpp:165] Memory required for data: 64495080
I0525 06:53:48.280041 20349 layer_factory.hpp:77] Creating layer conv2
I0525 06:53:48.280058 20349 net.cpp:106] Creating Layer conv2
I0525 06:53:48.280069 20349 net.cpp:454] conv2 <- pool1
I0525 06:53:48.280083 20349 net.cpp:411] conv2 -> conv2
I0525 06:53:48.282003 20349 net.cpp:150] Setting up conv2
I0525 06:53:48.282027 20349 net.cpp:157] Top shape: 90 20 54 46 (4471200)
I0525 06:53:48.282038 20349 net.cpp:165] Memory required for data: 82379880
I0525 06:53:48.282057 20349 layer_factory.hpp:77] Creating layer relu2
I0525 06:53:48.282069 20349 net.cpp:106] Creating Layer relu2
I0525 06:53:48.282079 20349 net.cpp:454] relu2 <- conv2
I0525 06:53:48.282091 20349 net.cpp:397] relu2 -> conv2 (in-place)
I0525 06:53:48.282428 20349 net.cpp:150] Setting up relu2
I0525 06:53:48.282441 20349 net.cpp:157] Top shape: 90 20 54 46 (4471200)
I0525 06:53:48.282451 20349 net.cpp:165] Memory required for data: 100264680
I0525 06:53:48.282461 20349 layer_factory.hpp:77] Creating layer pool2
I0525 06:53:48.282474 20349 net.cpp:106] Creating Layer pool2
I0525 06:53:48.282485 20349 net.cpp:454] pool2 <- conv2
I0525 06:53:48.282496 20349 net.cpp:411] pool2 -> pool2
I0525 06:53:48.282568 20349 net.cpp:150] Setting up pool2
I0525 06:53:48.282582 20349 net.cpp:157] Top shape: 90 20 27 46 (2235600)
I0525 06:53:48.282591 20349 net.cpp:165] Memory required for data: 109207080
I0525 06:53:48.282603 20349 layer_factory.hpp:77] Creating layer conv3
I0525 06:53:48.282621 20349 net.cpp:106] Creating Layer conv3
I0525 06:53:48.282632 20349 net.cpp:454] conv3 <- pool2
I0525 06:53:48.282646 20349 net.cpp:411] conv3 -> conv3
I0525 06:53:48.284618 20349 net.cpp:150] Setting up conv3
I0525 06:53:48.284641 20349 net.cpp:157] Top shape: 90 28 22 44 (2439360)
I0525 06:53:48.284653 20349 net.cpp:165] Memory required for data: 118964520
I0525 06:53:48.284685 20349 layer_factory.hpp:77] Creating layer relu3
I0525 06:53:48.284699 20349 net.cpp:106] Creating Layer relu3
I0525 06:53:48.284709 20349 net.cpp:454] relu3 <- conv3
I0525 06:53:48.284723 20349 net.cpp:397] relu3 -> conv3 (in-place)
I0525 06:53:48.285188 20349 net.cpp:150] Setting up relu3
I0525 06:53:48.285204 20349 net.cpp:157] Top shape: 90 28 22 44 (2439360)
I0525 06:53:48.285214 20349 net.cpp:165] Memory required for data: 128721960
I0525 06:53:48.285224 20349 layer_factory.hpp:77] Creating layer pool3
I0525 06:53:48.285238 20349 net.cpp:106] Creating Layer pool3
I0525 06:53:48.285246 20349 net.cpp:454] pool3 <- conv3
I0525 06:53:48.285260 20349 net.cpp:411] pool3 -> pool3
I0525 06:53:48.285331 20349 net.cpp:150] Setting up pool3
I0525 06:53:48.285344 20349 net.cpp:157] Top shape: 90 28 11 44 (1219680)
I0525 06:53:48.285353 20349 net.cpp:165] Memory required for data: 133600680
I0525 06:53:48.285363 20349 layer_factory.hpp:77] Creating layer conv4
I0525 06:53:48.285380 20349 net.cpp:106] Creating Layer conv4
I0525 06:53:48.285392 20349 net.cpp:454] conv4 <- pool3
I0525 06:53:48.285413 20349 net.cpp:411] conv4 -> conv4
I0525 06:53:48.287485 20349 net.cpp:150] Setting up conv4
I0525 06:53:48.287503 20349 net.cpp:157] Top shape: 90 36 6 42 (816480)
I0525 06:53:48.287514 20349 net.cpp:165] Memory required for data: 136866600
I0525 06:53:48.287529 20349 layer_factory.hpp:77] Creating layer relu4
I0525 06:53:48.287542 20349 net.cpp:106] Creating Layer relu4
I0525 06:53:48.287552 20349 net.cpp:454] relu4 <- conv4
I0525 06:53:48.287565 20349 net.cpp:397] relu4 -> conv4 (in-place)
I0525 06:53:48.288039 20349 net.cpp:150] Setting up relu4
I0525 06:53:48.288055 20349 net.cpp:157] Top shape: 90 36 6 42 (816480)
I0525 06:53:48.288066 20349 net.cpp:165] Memory required for data: 140132520
I0525 06:53:48.288076 20349 layer_factory.hpp:77] Creating layer pool4
I0525 06:53:48.288089 20349 net.cpp:106] Creating Layer pool4
I0525 06:53:48.288100 20349 net.cpp:454] pool4 <- conv4
I0525 06:53:48.288112 20349 net.cpp:411] pool4 -> pool4
I0525 06:53:48.288183 20349 net.cpp:150] Setting up pool4
I0525 06:53:48.288197 20349 net.cpp:157] Top shape: 90 36 3 42 (408240)
I0525 06:53:48.288206 20349 net.cpp:165] Memory required for data: 141765480
I0525 06:53:48.288216 20349 layer_factory.hpp:77] Creating layer ip1
I0525 06:53:48.288233 20349 net.cpp:106] Creating Layer ip1
I0525 06:53:48.288242 20349 net.cpp:454] ip1 <- pool4
I0525 06:53:48.288256 20349 net.cpp:411] ip1 -> ip1
I0525 06:53:48.303779 20349 net.cpp:150] Setting up ip1
I0525 06:53:48.303808 20349 net.cpp:157] Top shape: 90 196 (17640)
I0525 06:53:48.303819 20349 net.cpp:165] Memory required for data: 141836040
I0525 06:53:48.303841 20349 layer_factory.hpp:77] Creating layer relu5
I0525 06:53:48.303856 20349 net.cpp:106] Creating Layer relu5
I0525 06:53:48.303866 20349 net.cpp:454] relu5 <- ip1
I0525 06:53:48.303879 20349 net.cpp:397] relu5 -> ip1 (in-place)
I0525 06:53:48.304226 20349 net.cpp:150] Setting up relu5
I0525 06:53:48.304240 20349 net.cpp:157] Top shape: 90 196 (17640)
I0525 06:53:48.304250 20349 net.cpp:165] Memory required for data: 141906600
I0525 06:53:48.304260 20349 layer_factory.hpp:77] Creating layer drop1
I0525 06:53:48.304278 20349 net.cpp:106] Creating Layer drop1
I0525 06:53:48.304288 20349 net.cpp:454] drop1 <- ip1
I0525 06:53:48.304301 20349 net.cpp:397] drop1 -> ip1 (in-place)
I0525 06:53:48.304348 20349 net.cpp:150] Setting up drop1
I0525 06:53:48.304361 20349 net.cpp:157] Top shape: 90 196 (17640)
I0525 06:53:48.304371 20349 net.cpp:165] Memory required for data: 141977160
I0525 06:53:48.304380 20349 layer_factory.hpp:77] Creating layer ip2
I0525 06:53:48.304394 20349 net.cpp:106] Creating Layer ip2
I0525 06:53:48.304404 20349 net.cpp:454] ip2 <- ip1
I0525 06:53:48.304419 20349 net.cpp:411] ip2 -> ip2
I0525 06:53:48.304896 20349 net.cpp:150] Setting up ip2
I0525 06:53:48.304909 20349 net.cpp:157] Top shape: 90 98 (8820)
I0525 06:53:48.304919 20349 net.cpp:165] Memory required for data: 142012440
I0525 06:53:48.304934 20349 layer_factory.hpp:77] Creating layer relu6
I0525 06:53:48.304961 20349 net.cpp:106] Creating Layer relu6
I0525 06:53:48.304971 20349 net.cpp:454] relu6 <- ip2
I0525 06:53:48.304985 20349 net.cpp:397] relu6 -> ip2 (in-place)
I0525 06:53:48.305521 20349 net.cpp:150] Setting up relu6
I0525 06:53:48.305537 20349 net.cpp:157] Top shape: 90 98 (8820)
I0525 06:53:48.305547 20349 net.cpp:165] Memory required for data: 142047720
I0525 06:53:48.305558 20349 layer_factory.hpp:77] Creating layer drop2
I0525 06:53:48.305572 20349 net.cpp:106] Creating Layer drop2
I0525 06:53:48.305582 20349 net.cpp:454] drop2 <- ip2
I0525 06:53:48.305594 20349 net.cpp:397] drop2 -> ip2 (in-place)
I0525 06:53:48.305637 20349 net.cpp:150] Setting up drop2
I0525 06:53:48.305651 20349 net.cpp:157] Top shape: 90 98 (8820)
I0525 06:53:48.305660 20349 net.cpp:165] Memory required for data: 142083000
I0525 06:53:48.305670 20349 layer_factory.hpp:77] Creating layer ip3
I0525 06:53:48.305685 20349 net.cpp:106] Creating Layer ip3
I0525 06:53:48.305694 20349 net.cpp:454] ip3 <- ip2
I0525 06:53:48.305708 20349 net.cpp:411] ip3 -> ip3
I0525 06:53:48.305932 20349 net.cpp:150] Setting up ip3
I0525 06:53:48.305944 20349 net.cpp:157] Top shape: 90 11 (990)
I0525 06:53:48.305954 20349 net.cpp:165] Memory required for data: 142086960
I0525 06:53:48.305970 20349 layer_factory.hpp:77] Creating layer drop3
I0525 06:53:48.305984 20349 net.cpp:106] Creating Layer drop3
I0525 06:53:48.305994 20349 net.cpp:454] drop3 <- ip3
I0525 06:53:48.306006 20349 net.cpp:397] drop3 -> ip3 (in-place)
I0525 06:53:48.306047 20349 net.cpp:150] Setting up drop3
I0525 06:53:48.306061 20349 net.cpp:157] Top shape: 90 11 (990)
I0525 06:53:48.306071 20349 net.cpp:165] Memory required for data: 142090920
I0525 06:53:48.306080 20349 layer_factory.hpp:77] Creating layer ip3_drop3_0_split
I0525 06:53:48.306092 20349 net.cpp:106] Creating Layer ip3_drop3_0_split
I0525 06:53:48.306102 20349 net.cpp:454] ip3_drop3_0_split <- ip3
I0525 06:53:48.306115 20349 net.cpp:411] ip3_drop3_0_split -> ip3_drop3_0_split_0
I0525 06:53:48.306130 20349 net.cpp:411] ip3_drop3_0_split -> ip3_drop3_0_split_1
I0525 06:53:48.306205 20349 net.cpp:150] Setting up ip3_drop3_0_split
I0525 06:53:48.306217 20349 net.cpp:157] Top shape: 90 11 (990)
I0525 06:53:48.306229 20349 net.cpp:157] Top shape: 90 11 (990)
I0525 06:53:48.306241 20349 net.cpp:165] Memory required for data: 142098840
I0525 06:53:48.306251 20349 layer_factory.hpp:77] Creating layer accuracy
I0525 06:53:48.306270 20349 net.cpp:106] Creating Layer accuracy
I0525 06:53:48.306282 20349 net.cpp:454] accuracy <- ip3_drop3_0_split_0
I0525 06:53:48.306293 20349 net.cpp:454] accuracy <- label_data_hdf5_1_split_0
I0525 06:53:48.306305 20349 net.cpp:411] accuracy -> accuracy
…
