…
I0525 08:50:17.032270 18279 net.cpp:322] The NetState phase (0) differed from the phase (1) specified by a rule in layer data_hdf5
I0525 08:50:17.032330 18279 net.cpp:322] The NetState phase (0) differed from the phase (1) specified by a rule in layer accuracy
I0525 08:50:17.032677 18279 net.cpp:49] Initializing net from parameters: 
name: "caffe_test_127x50_x_unshifted"
state {
  phase: TRAIN
}
layer {
  name: "data_hdf5"
  type: "HDF5Data"
  top: "data"
  top: "label"
  include {
    phase: TRAIN
  }
  hdf5_data_param {
    source: "/lustre/atlas/proj-shared/hep105/caffe_titan/minosmatch_nukecczdefs_127x50_x_unshifted_me1Bmc.trainlist"
    batch_size: 90
  }
}
layer {
  name: "conv1"
  type: "Convolution"
  bottom: "data"
  top: "conv1"
  convolution_param {
    num_output: 12
    pad: 0
    stride: 1
    weight_filler {
      type: "xavier"
    }
    bias_filler {
      type: "constant"
    }
    kernel_h: 8
    kernel_w: 3
  }
}
layer {
  name: "relu1"
  type: "ReLU"
  bottom: "conv1"
  top: "conv1"
}
layer {
  name: "pool1"
  type: "Pooling"
  bottom: "conv1"
  top: "pool1"
  pooling_param {
    pool: MAX
    kernel_h: 2
    kernel_w: 1
    stride_h: 2
    stride_w: 1
  }
}
layer {
  name: "conv2"
  type: "Convolution"
  bottom: "pool1"
  top: "conv2"
  convolution_param {
    num_output: 20
    pad: 0
    stride: 1
    weight_filler {
      type: "xavier"
    }
    bias_filler {
      type: "constant"
    }
    kernel_h: 7
    kernel_w: 3
  }
}
layer {
  name: "relu2"
  type: "ReLU"
  bottom: "conv2"
  top: "conv2"
}
layer {
  name: "pool2"
  type: "Pooling"
  bottom: "conv2"
  top: "pool2"
  pooling_param {
    pool: MAX
    kernel_h: 2
    kernel_w: 1
    stride_h: 2
    stride_w: 1
  }
}
layer {
  name: "conv3"
  type: "Convolution"
  bottom: "pool2"
  top: "conv3"
  convolution_param {
    num_output: 28
    pad: 0
    stride: 1
    weight_filler {
      type: "xavier"
    }
    bias_filler {
      type: "constant"
    }
    kernel_h: 6
    kernel_w: 3
  }
}
layer {
  name: "relu3"
  type: "ReLU"
  bottom: "conv3"
  top: "conv3"
}
layer {
  name: "pool3"
  type: "Pooling"
  bottom: "conv3"
  top: "pool3"
  pooling_param {
    pool: MAX
    kernel_h: 2
    kernel_w: 1
    stride_h: 2
    stride_w: 1
  }
}
layer {
  name: "conv4"
  type: "Convolution"
  bottom: "pool3"
  top: "conv4"
  convolution_param {
    num_output: 36
    pad: 0
    stride: 1
    weight_filler {
      type: "xavier"
    }
    bias_filler {
      type: "constant"
    }
    kernel_h: 6
    kernel_w: 3
  }
}
layer {
  name: "relu4"
  type: "ReLU"
  bottom: "conv4"
  top: "conv4"
}
layer {
  name: "pool4"
  type: "Pooling"
  bottom: "conv4"
  top: "pool4"
  pooling_param {
    pool: MAX
    kernel_h: 2
    kernel_w: 1
    stride_h: 2
    stride_w: 1
  }
}
layer {
  name: "ip1"
  type: "InnerProduct"
  bottom: "pool4"
  top: "ip1"
  inner_product_param {
    num_output: 196
    weight_filler {
      type: "xavier"
    }
    bias_filler {
      type: "constant"
    }
  }
}
layer {
  name: "relu5"
  type: "ReLU"
  bottom: "ip1"
  top: "ip1"
}
layer {
  name: "drop1"
  type: "Dropout"
  bottom: "ip1"
  top: "ip1"
  dropout_param {
    dropout_ratio: 0.5
  }
}
layer {
  name: "ip2"
  type: "InnerProduct"
  bottom: "ip1"
  top: "ip2"
  inner_product_param {
    num_output: 98
    weight_filler {
      type: "xavier"
    }
    bias_filler {
      type: "constant"
    }
  }
}
layer {
  name: "relu6"
  type: "ReLU"
  bottom: "ip2"
  top: "ip2"
}
layer {
  name: "drop2"
  type: "Dropout"
  bottom: "ip2"
  top: "ip2"
  dropout_param {
    dropout_ratio: 0.5
  }
}
layer {
  name: "ip3"
  type: "InnerProduct"
  bottom: "ip2"
  top: "ip3"
  inner_product_param {
    num_output: 11
    weight_filler {
      type: "xavier"
    }
    bias_filler {
      type: "constant"
    }
  }
}
layer {
  name: "drop3"
  type: "Dropout"
  bottom: "ip3"
  top: "ip3"
  dropout_param {
    dropout_ratio: 0.5
  }
}
layer {
  name: "loss"
  type: "SoftmaxWithLoss"
  bottom: "ip3"
  bottom: "label"
  top: "loss"
}
I0525 08:50:17.032856 18279 layer_factory.hpp:77] Creating layer data_hdf5
I0525 08:50:17.032879 18279 net.cpp:106] Creating Layer data_hdf5
I0525 08:50:17.032894 18279 net.cpp:411] data_hdf5 -> data
I0525 08:50:17.032927 18279 net.cpp:411] data_hdf5 -> label
I0525 08:50:17.032960 18279 hdf5_data_layer.cpp:79] Loading list of HDF5 filenames from: /lustre/atlas/proj-shared/hep105/caffe_titan/minosmatch_nukecczdefs_127x50_x_unshifted_me1Bmc.trainlist
I0525 08:50:17.044467 18279 hdf5_data_layer.cpp:93] Number of HDF5 files: 15
I0525 08:50:17.046808 18279 hdf5.cpp:32] Datatype class: H5T_FLOAT
I0525 08:50:38.596863 18279 hdf5.cpp:35] Datatype class: H5T_INTEGER
I0525 08:50:38.601980 18279 net.cpp:150] Setting up data_hdf5
I0525 08:50:38.602020 18279 net.cpp:157] Top shape: 90 1 127 50 (571500)
I0525 08:50:38.602035 18279 net.cpp:157] Top shape: 90 (90)
I0525 08:50:38.602046 18279 net.cpp:165] Memory required for data: 2286360
I0525 08:50:38.602058 18279 layer_factory.hpp:77] Creating layer conv1
I0525 08:50:38.602092 18279 net.cpp:106] Creating Layer conv1
I0525 08:50:38.602103 18279 net.cpp:454] conv1 <- data
I0525 08:50:38.602135 18279 net.cpp:411] conv1 -> conv1
I0525 08:50:40.744838 18279 net.cpp:150] Setting up conv1
I0525 08:50:40.744884 18279 net.cpp:157] Top shape: 90 12 120 48 (6220800)
I0525 08:50:40.744894 18279 net.cpp:165] Memory required for data: 27169560
I0525 08:50:40.744923 18279 layer_factory.hpp:77] Creating layer relu1
I0525 08:50:40.744945 18279 net.cpp:106] Creating Layer relu1
I0525 08:50:40.744956 18279 net.cpp:454] relu1 <- conv1
I0525 08:50:40.744969 18279 net.cpp:397] relu1 -> conv1 (in-place)
I0525 08:50:40.745481 18279 net.cpp:150] Setting up relu1
I0525 08:50:40.745498 18279 net.cpp:157] Top shape: 90 12 120 48 (6220800)
I0525 08:50:40.745508 18279 net.cpp:165] Memory required for data: 52052760
I0525 08:50:40.745519 18279 layer_factory.hpp:77] Creating layer pool1
I0525 08:50:40.745535 18279 net.cpp:106] Creating Layer pool1
I0525 08:50:40.745545 18279 net.cpp:454] pool1 <- conv1
I0525 08:50:40.745558 18279 net.cpp:411] pool1 -> pool1
I0525 08:50:40.745638 18279 net.cpp:150] Setting up pool1
I0525 08:50:40.745652 18279 net.cpp:157] Top shape: 90 12 60 48 (3110400)
I0525 08:50:40.745662 18279 net.cpp:165] Memory required for data: 64494360
I0525 08:50:40.745671 18279 layer_factory.hpp:77] Creating layer conv2
I0525 08:50:40.745693 18279 net.cpp:106] Creating Layer conv2
I0525 08:50:40.745703 18279 net.cpp:454] conv2 <- pool1
I0525 08:50:40.745715 18279 net.cpp:411] conv2 -> conv2
I0525 08:50:40.748455 18279 net.cpp:150] Setting up conv2
I0525 08:50:40.748477 18279 net.cpp:157] Top shape: 90 20 54 46 (4471200)
I0525 08:50:40.748491 18279 net.cpp:165] Memory required for data: 82379160
I0525 08:50:40.748509 18279 layer_factory.hpp:77] Creating layer relu2
I0525 08:50:40.748523 18279 net.cpp:106] Creating Layer relu2
I0525 08:50:40.748534 18279 net.cpp:454] relu2 <- conv2
I0525 08:50:40.748546 18279 net.cpp:397] relu2 -> conv2 (in-place)
I0525 08:50:40.748877 18279 net.cpp:150] Setting up relu2
I0525 08:50:40.748890 18279 net.cpp:157] Top shape: 90 20 54 46 (4471200)
I0525 08:50:40.748900 18279 net.cpp:165] Memory required for data: 100263960
I0525 08:50:40.748910 18279 layer_factory.hpp:77] Creating layer pool2
I0525 08:50:40.748924 18279 net.cpp:106] Creating Layer pool2
I0525 08:50:40.748934 18279 net.cpp:454] pool2 <- conv2
I0525 08:50:40.748945 18279 net.cpp:411] pool2 -> pool2
I0525 08:50:40.749027 18279 net.cpp:150] Setting up pool2
I0525 08:50:40.749039 18279 net.cpp:157] Top shape: 90 20 27 46 (2235600)
I0525 08:50:40.749049 18279 net.cpp:165] Memory required for data: 109206360
I0525 08:50:40.749058 18279 layer_factory.hpp:77] Creating layer conv3
I0525 08:50:40.749076 18279 net.cpp:106] Creating Layer conv3
I0525 08:50:40.749086 18279 net.cpp:454] conv3 <- pool2
I0525 08:50:40.749100 18279 net.cpp:411] conv3 -> conv3
I0525 08:50:40.751029 18279 net.cpp:150] Setting up conv3
I0525 08:50:40.751052 18279 net.cpp:157] Top shape: 90 28 22 44 (2439360)
I0525 08:50:40.751065 18279 net.cpp:165] Memory required for data: 118963800
I0525 08:50:40.751082 18279 layer_factory.hpp:77] Creating layer relu3
I0525 08:50:40.751098 18279 net.cpp:106] Creating Layer relu3
I0525 08:50:40.751108 18279 net.cpp:454] relu3 <- conv3
I0525 08:50:40.751121 18279 net.cpp:397] relu3 -> conv3 (in-place)
I0525 08:50:40.751590 18279 net.cpp:150] Setting up relu3
I0525 08:50:40.751606 18279 net.cpp:157] Top shape: 90 28 22 44 (2439360)
I0525 08:50:40.751616 18279 net.cpp:165] Memory required for data: 128721240
I0525 08:50:40.751626 18279 layer_factory.hpp:77] Creating layer pool3
I0525 08:50:40.751639 18279 net.cpp:106] Creating Layer pool3
I0525 08:50:40.751649 18279 net.cpp:454] pool3 <- conv3
I0525 08:50:40.751662 18279 net.cpp:411] pool3 -> pool3
I0525 08:50:40.751730 18279 net.cpp:150] Setting up pool3
I0525 08:50:40.751744 18279 net.cpp:157] Top shape: 90 28 11 44 (1219680)
I0525 08:50:40.751754 18279 net.cpp:165] Memory required for data: 133599960
I0525 08:50:40.751763 18279 layer_factory.hpp:77] Creating layer conv4
I0525 08:50:40.751778 18279 net.cpp:106] Creating Layer conv4
I0525 08:50:40.751788 18279 net.cpp:454] conv4 <- pool3
I0525 08:50:40.751802 18279 net.cpp:411] conv4 -> conv4
I0525 08:50:40.754788 18279 net.cpp:150] Setting up conv4
I0525 08:50:40.754817 18279 net.cpp:157] Top shape: 90 36 6 42 (816480)
I0525 08:50:40.754827 18279 net.cpp:165] Memory required for data: 136865880
I0525 08:50:40.754842 18279 layer_factory.hpp:77] Creating layer relu4
I0525 08:50:40.754858 18279 net.cpp:106] Creating Layer relu4
I0525 08:50:40.754868 18279 net.cpp:454] relu4 <- conv4
I0525 08:50:40.754880 18279 net.cpp:397] relu4 -> conv4 (in-place)
I0525 08:50:40.755342 18279 net.cpp:150] Setting up relu4
I0525 08:50:40.755357 18279 net.cpp:157] Top shape: 90 36 6 42 (816480)
I0525 08:50:40.755368 18279 net.cpp:165] Memory required for data: 140131800
I0525 08:50:40.755379 18279 layer_factory.hpp:77] Creating layer pool4
I0525 08:50:40.755391 18279 net.cpp:106] Creating Layer pool4
I0525 08:50:40.755403 18279 net.cpp:454] pool4 <- conv4
I0525 08:50:40.755415 18279 net.cpp:411] pool4 -> pool4
I0525 08:50:40.755483 18279 net.cpp:150] Setting up pool4
I0525 08:50:40.755496 18279 net.cpp:157] Top shape: 90 36 3 42 (408240)
I0525 08:50:40.755506 18279 net.cpp:165] Memory required for data: 141764760
I0525 08:50:40.755517 18279 layer_factory.hpp:77] Creating layer ip1
I0525 08:50:40.755537 18279 net.cpp:106] Creating Layer ip1
I0525 08:50:40.755548 18279 net.cpp:454] ip1 <- pool4
I0525 08:50:40.755560 18279 net.cpp:411] ip1 -> ip1
I0525 08:50:40.770987 18279 net.cpp:150] Setting up ip1
I0525 08:50:40.771016 18279 net.cpp:157] Top shape: 90 196 (17640)
I0525 08:50:40.771028 18279 net.cpp:165] Memory required for data: 141835320
I0525 08:50:40.771049 18279 layer_factory.hpp:77] Creating layer relu5
I0525 08:50:40.771064 18279 net.cpp:106] Creating Layer relu5
I0525 08:50:40.771075 18279 net.cpp:454] relu5 <- ip1
I0525 08:50:40.771088 18279 net.cpp:397] relu5 -> ip1 (in-place)
I0525 08:50:40.771431 18279 net.cpp:150] Setting up relu5
I0525 08:50:40.771445 18279 net.cpp:157] Top shape: 90 196 (17640)
I0525 08:50:40.771456 18279 net.cpp:165] Memory required for data: 141905880
I0525 08:50:40.771466 18279 layer_factory.hpp:77] Creating layer drop1
I0525 08:50:40.771486 18279 net.cpp:106] Creating Layer drop1
I0525 08:50:40.771497 18279 net.cpp:454] drop1 <- ip1
I0525 08:50:40.771509 18279 net.cpp:397] drop1 -> ip1 (in-place)
I0525 08:50:40.771570 18279 net.cpp:150] Setting up drop1
I0525 08:50:40.771584 18279 net.cpp:157] Top shape: 90 196 (17640)
I0525 08:50:40.771594 18279 net.cpp:165] Memory required for data: 141976440
I0525 08:50:40.771603 18279 layer_factory.hpp:77] Creating layer ip2
I0525 08:50:40.771622 18279 net.cpp:106] Creating Layer ip2
I0525 08:50:40.771633 18279 net.cpp:454] ip2 <- ip1
I0525 08:50:40.771646 18279 net.cpp:411] ip2 -> ip2
I0525 08:50:40.772112 18279 net.cpp:150] Setting up ip2
I0525 08:50:40.772125 18279 net.cpp:157] Top shape: 90 98 (8820)
I0525 08:50:40.772135 18279 net.cpp:165] Memory required for data: 142011720
I0525 08:50:40.772151 18279 layer_factory.hpp:77] Creating layer relu6
I0525 08:50:40.772163 18279 net.cpp:106] Creating Layer relu6
I0525 08:50:40.772173 18279 net.cpp:454] relu6 <- ip2
I0525 08:50:40.772186 18279 net.cpp:397] relu6 -> ip2 (in-place)
I0525 08:50:40.772708 18279 net.cpp:150] Setting up relu6
I0525 08:50:40.772724 18279 net.cpp:157] Top shape: 90 98 (8820)
I0525 08:50:40.772734 18279 net.cpp:165] Memory required for data: 142047000
I0525 08:50:40.772744 18279 layer_factory.hpp:77] Creating layer drop2
I0525 08:50:40.772758 18279 net.cpp:106] Creating Layer drop2
I0525 08:50:40.772768 18279 net.cpp:454] drop2 <- ip2
I0525 08:50:40.772779 18279 net.cpp:397] drop2 -> ip2 (in-place)
I0525 08:50:40.772822 18279 net.cpp:150] Setting up drop2
I0525 08:50:40.772835 18279 net.cpp:157] Top shape: 90 98 (8820)
I0525 08:50:40.772845 18279 net.cpp:165] Memory required for data: 142082280
I0525 08:50:40.772855 18279 layer_factory.hpp:77] Creating layer ip3
I0525 08:50:40.772868 18279 net.cpp:106] Creating Layer ip3
I0525 08:50:40.772877 18279 net.cpp:454] ip3 <- ip2
I0525 08:50:40.772891 18279 net.cpp:411] ip3 -> ip3
I0525 08:50:40.773098 18279 net.cpp:150] Setting up ip3
I0525 08:50:40.773111 18279 net.cpp:157] Top shape: 90 11 (990)
I0525 08:50:40.773121 18279 net.cpp:165] Memory required for data: 142086240
I0525 08:50:40.773136 18279 layer_factory.hpp:77] Creating layer drop3
I0525 08:50:40.773149 18279 net.cpp:106] Creating Layer drop3
I0525 08:50:40.773159 18279 net.cpp:454] drop3 <- ip3
I0525 08:50:40.773171 18279 net.cpp:397] drop3 -> ip3 (in-place)
I0525 08:50:40.773211 18279 net.cpp:150] Setting up drop3
I0525 08:50:40.773222 18279 net.cpp:157] Top shape: 90 11 (990)
I0525 08:50:40.773232 18279 net.cpp:165] Memory required for data: 142090200
I0525 08:50:40.773241 18279 layer_factory.hpp:77] Creating layer loss
I0525 08:50:40.773259 18279 net.cpp:106] Creating Layer loss
I0525 08:50:40.773269 18279 net.cpp:454] loss <- ip3
I0525 08:50:40.773280 18279 net.cpp:454] loss <- label
I0525 08:50:40.773293 18279 net.cpp:411] loss -> loss
I0525 08:50:40.773309 18279 layer_factory.hpp:77] Creating layer loss
…
I0525 08:50:40.776331 18279 solver.cpp:181] Creating test net (#0) specified by net file: /lustre/atlas/proj-shared/hep105/caffe_titan/caffe_workflow/logs_bslr/bs_90_lr_0.0030_2016-05-20T15.49.22.055151.prototxt
I0525 08:50:40.776404 18279 net.cpp:322] The NetState phase (1) differed from the phase (0) specified by a rule in layer data_hdf5
I0525 08:50:40.776757 18279 net.cpp:49] Initializing net from parameters: 
name: "caffe_test_127x50_x_unshifted"
state {
  phase: TEST
}
layer {
  name: "data_hdf5"
  type: "HDF5Data"
  top: "data"
  top: "label"
  include {
    phase: TEST
  }
  hdf5_data_param {
    source: "/lustre/atlas/proj-shared/hep105/caffe_titan/minosmatch_nukecczdefs_127x50_x_unshifted_me1Bmc.testlist"
    batch_size: 90
  }
}
layer {
  name: "conv1"
  type: "Convolution"
  bottom: "data"
  top: "conv1"
  convolution_param {
    num_output: 12
    pad: 0
    stride: 1
    weight_filler {
      type: "xavier"
    }
    bias_filler {
      type: "constant"
    }
    kernel_h: 8
    kernel_w: 3
  }
}
layer {
  name: "relu1"
  type: "ReLU"
  bottom: "conv1"
  top: "conv1"
}
layer {
  name: "pool1"
  type: "Pooling"
  bottom: "conv1"
  top: "pool1"
  pooling_param {
    pool: MAX
    kernel_h: 2
    kernel_w: 1
    stride_h: 2
    stride_w: 1
  }
}
layer {
  name: "conv2"
  type: "Convolution"
  bottom: "pool1"
  top: "conv2"
  convolution_param {
    num_output: 20
    pad: 0
    stride: 1
    weight_filler {
      type: "xavier"
    }
    bias_filler {
      type: "constant"
    }
    kernel_h: 7
    kernel_w: 3
  }
}
layer {
  name: "relu2"
  type: "ReLU"
  bottom: "conv2"
  top: "conv2"
}
layer {
  name: "pool2"
  type: "Pooling"
  bottom: "conv2"
  top: "pool2"
  pooling_param {
    pool: MAX
    kernel_h: 2
    kernel_w: 1
    stride_h: 2
    stride_w: 1
  }
}
layer {
  name: "conv3"
  type: "Convolution"
  bottom: "pool2"
  top: "conv3"
  convolution_param {
    num_output: 28
    pad: 0
    stride: 1
    weight_filler {
      type: "xavier"
    }
    bias_filler {
      type: "constant"
    }
    kernel_h: 6
    kernel_w: 3
  }
}
layer {
  name: "relu3"
  type: "ReLU"
  bottom: "conv3"
  top: "conv3"
}
layer {
  name: "pool3"
  type: "Pooling"
  bottom: "conv3"
  top: "pool3"
  pooling_param {
    pool: MAX
    kernel_h: 2
    kernel_w: 1
    stride_h: 2
    stride_w: 1
  }
}
layer {
  name: "conv4"
  type: "Convolution"
  bottom: "pool3"
  top: "conv4"
  convolution_param {
    num_output: 36
    pad: 0
    stride: 1
    weight_filler {
      type: "xavier"
    }
    bias_filler {
      type: "constant"
    }
    kernel_h: 6
    kernel_w: 3
  }
}
layer {
  name: "relu4"
  type: "ReLU"
  bottom: "conv4"
  top: "conv4"
}
layer {
  name: "pool4"
  type: "Pooling"
  bottom: "conv4"
  top: "pool4"
  pooling_param {
    pool: MAX
    kernel_h: 2
    kernel_w: 1
    stride_h: 2
    stride_w: 1
  }
}
layer {
  name: "ip1"
  type: "InnerProduct"
  bottom: "pool4"
  top: "ip1"
  inner_product_param {
    num_output: 196
    weight_filler {
      type: "xavier"
    }
    bias_filler {
      type: "constant"
    }
  }
}
layer {
  name: "relu5"
  type: "ReLU"
  bottom: "ip1"
  top: "ip1"
}
layer {
  name: "drop1"
  type: "Dropout"
  bottom: "ip1"
  top: "ip1"
  dropout_param {
    dropout_ratio: 0.5
  }
}
layer {
  name: "ip2"
  type: "InnerProduct"
  bottom: "ip1"
  top: "ip2"
  inner_product_param {
    num_output: 98
    weight_filler {
      type: "xavier"
    }
    bias_filler {
      type: "constant"
    }
  }
}
layer {
  name: "relu6"
  type: "ReLU"
  bottom: "ip2"
  top: "ip2"
}
layer {
  name: "drop2"
  type: "Dropout"
  bottom: "ip2"
  top: "ip2"
  dropout_param {
    dropout_ratio: 0.5
  }
}
layer {
  name: "ip3"
  type: "InnerProduct"
  bottom: "ip2"
  top: "ip3"
  inner_product_param {
    num_output: 11
    weight_filler {
      type: "xavier"
    }
    bias_filler {
      type: "constant"
    }
  }
}
layer {
  name: "drop3"
  type: "Dropout"
  bottom: "ip3"
  top: "ip3"
  dropout_param {
    dropout_ratio: 0.5
  }
}
layer {
  name: "accuracy"
  type: "Accuracy"
  bottom: "ip3"
  bottom: "label"
  top: "accuracy"
  include {
    phase: TEST
  }
}
layer {
  name: "loss"
  type: "SoftmaxWithLoss"
  bottom: "ip3"
  bottom: "label"
  top: "loss"
}
I0525 08:50:40.776947 18279 layer_factory.hpp:77] Creating layer data_hdf5
I0525 08:50:40.776962 18279 net.cpp:106] Creating Layer data_hdf5
I0525 08:50:40.776975 18279 net.cpp:411] data_hdf5 -> data
I0525 08:50:40.776993 18279 net.cpp:411] data_hdf5 -> label
I0525 08:50:40.777009 18279 hdf5_data_layer.cpp:79] Loading list of HDF5 filenames from: /lustre/atlas/proj-shared/hep105/caffe_titan/minosmatch_nukecczdefs_127x50_x_unshifted_me1Bmc.testlist
I0525 08:50:40.786615 18279 hdf5_data_layer.cpp:93] Number of HDF5 files: 3
I0525 08:51:02.216846 18279 net.cpp:150] Setting up data_hdf5
I0525 08:51:02.217008 18279 net.cpp:157] Top shape: 90 1 127 50 (571500)
I0525 08:51:02.217023 18279 net.cpp:157] Top shape: 90 (90)
I0525 08:51:02.217036 18279 net.cpp:165] Memory required for data: 2286360
I0525 08:51:02.217049 18279 layer_factory.hpp:77] Creating layer label_data_hdf5_1_split
I0525 08:51:02.217077 18279 net.cpp:106] Creating Layer label_data_hdf5_1_split
I0525 08:51:02.217088 18279 net.cpp:454] label_data_hdf5_1_split <- label
I0525 08:51:02.217103 18279 net.cpp:411] label_data_hdf5_1_split -> label_data_hdf5_1_split_0
I0525 08:51:02.217124 18279 net.cpp:411] label_data_hdf5_1_split -> label_data_hdf5_1_split_1
I0525 08:51:02.217197 18279 net.cpp:150] Setting up label_data_hdf5_1_split
I0525 08:51:02.217211 18279 net.cpp:157] Top shape: 90 (90)
I0525 08:51:02.217223 18279 net.cpp:157] Top shape: 90 (90)
I0525 08:51:02.217233 18279 net.cpp:165] Memory required for data: 2287080
I0525 08:51:02.217243 18279 layer_factory.hpp:77] Creating layer conv1
I0525 08:51:02.217264 18279 net.cpp:106] Creating Layer conv1
I0525 08:51:02.217275 18279 net.cpp:454] conv1 <- data
I0525 08:51:02.217290 18279 net.cpp:411] conv1 -> conv1
I0525 08:51:02.219274 18279 net.cpp:150] Setting up conv1
I0525 08:51:02.219293 18279 net.cpp:157] Top shape: 90 12 120 48 (6220800)
I0525 08:51:02.219307 18279 net.cpp:165] Memory required for data: 27170280
I0525 08:51:02.219328 18279 layer_factory.hpp:77] Creating layer relu1
I0525 08:51:02.219343 18279 net.cpp:106] Creating Layer relu1
I0525 08:51:02.219353 18279 net.cpp:454] relu1 <- conv1
I0525 08:51:02.219367 18279 net.cpp:397] relu1 -> conv1 (in-place)
I0525 08:51:02.219863 18279 net.cpp:150] Setting up relu1
I0525 08:51:02.219878 18279 net.cpp:157] Top shape: 90 12 120 48 (6220800)
I0525 08:51:02.219889 18279 net.cpp:165] Memory required for data: 52053480
I0525 08:51:02.219899 18279 layer_factory.hpp:77] Creating layer pool1
I0525 08:51:02.219915 18279 net.cpp:106] Creating Layer pool1
I0525 08:51:02.219924 18279 net.cpp:454] pool1 <- conv1
I0525 08:51:02.219938 18279 net.cpp:411] pool1 -> pool1
I0525 08:51:02.220013 18279 net.cpp:150] Setting up pool1
I0525 08:51:02.220026 18279 net.cpp:157] Top shape: 90 12 60 48 (3110400)
I0525 08:51:02.220036 18279 net.cpp:165] Memory required for data: 64495080
I0525 08:51:02.220046 18279 layer_factory.hpp:77] Creating layer conv2
I0525 08:51:02.220064 18279 net.cpp:106] Creating Layer conv2
I0525 08:51:02.220074 18279 net.cpp:454] conv2 <- pool1
I0525 08:51:02.220088 18279 net.cpp:411] conv2 -> conv2
I0525 08:51:02.222002 18279 net.cpp:150] Setting up conv2
I0525 08:51:02.222024 18279 net.cpp:157] Top shape: 90 20 54 46 (4471200)
I0525 08:51:02.222036 18279 net.cpp:165] Memory required for data: 82379880
I0525 08:51:02.222054 18279 layer_factory.hpp:77] Creating layer relu2
I0525 08:51:02.222069 18279 net.cpp:106] Creating Layer relu2
I0525 08:51:02.222077 18279 net.cpp:454] relu2 <- conv2
I0525 08:51:02.222090 18279 net.cpp:397] relu2 -> conv2 (in-place)
I0525 08:51:02.222434 18279 net.cpp:150] Setting up relu2
I0525 08:51:02.222448 18279 net.cpp:157] Top shape: 90 20 54 46 (4471200)
I0525 08:51:02.222458 18279 net.cpp:165] Memory required for data: 100264680
I0525 08:51:02.222468 18279 layer_factory.hpp:77] Creating layer pool2
I0525 08:51:02.222482 18279 net.cpp:106] Creating Layer pool2
I0525 08:51:02.222492 18279 net.cpp:454] pool2 <- conv2
I0525 08:51:02.222504 18279 net.cpp:411] pool2 -> pool2
I0525 08:51:02.222579 18279 net.cpp:150] Setting up pool2
I0525 08:51:02.222591 18279 net.cpp:157] Top shape: 90 20 27 46 (2235600)
I0525 08:51:02.222601 18279 net.cpp:165] Memory required for data: 109207080
I0525 08:51:02.222611 18279 layer_factory.hpp:77] Creating layer conv3
I0525 08:51:02.222631 18279 net.cpp:106] Creating Layer conv3
I0525 08:51:02.222641 18279 net.cpp:454] conv3 <- pool2
I0525 08:51:02.222656 18279 net.cpp:411] conv3 -> conv3
I0525 08:51:02.224638 18279 net.cpp:150] Setting up conv3
I0525 08:51:02.224661 18279 net.cpp:157] Top shape: 90 28 22 44 (2439360)
I0525 08:51:02.224673 18279 net.cpp:165] Memory required for data: 118964520
I0525 08:51:02.224705 18279 layer_factory.hpp:77] Creating layer relu3
I0525 08:51:02.224719 18279 net.cpp:106] Creating Layer relu3
I0525 08:51:02.224730 18279 net.cpp:454] relu3 <- conv3
I0525 08:51:02.224742 18279 net.cpp:397] relu3 -> conv3 (in-place)
I0525 08:51:02.225214 18279 net.cpp:150] Setting up relu3
I0525 08:51:02.225229 18279 net.cpp:157] Top shape: 90 28 22 44 (2439360)
I0525 08:51:02.225239 18279 net.cpp:165] Memory required for data: 128721960
I0525 08:51:02.225250 18279 layer_factory.hpp:77] Creating layer pool3
I0525 08:51:02.225262 18279 net.cpp:106] Creating Layer pool3
I0525 08:51:02.225272 18279 net.cpp:454] pool3 <- conv3
I0525 08:51:02.225286 18279 net.cpp:411] pool3 -> pool3
I0525 08:51:02.225355 18279 net.cpp:150] Setting up pool3
I0525 08:51:02.225369 18279 net.cpp:157] Top shape: 90 28 11 44 (1219680)
I0525 08:51:02.225379 18279 net.cpp:165] Memory required for data: 133600680
I0525 08:51:02.225391 18279 layer_factory.hpp:77] Creating layer conv4
I0525 08:51:02.225409 18279 net.cpp:106] Creating Layer conv4
I0525 08:51:02.225419 18279 net.cpp:454] conv4 <- pool3
I0525 08:51:02.225433 18279 net.cpp:411] conv4 -> conv4
I0525 08:51:02.227516 18279 net.cpp:150] Setting up conv4
I0525 08:51:02.227538 18279 net.cpp:157] Top shape: 90 36 6 42 (816480)
I0525 08:51:02.227551 18279 net.cpp:165] Memory required for data: 136866600
I0525 08:51:02.227566 18279 layer_factory.hpp:77] Creating layer relu4
I0525 08:51:02.227579 18279 net.cpp:106] Creating Layer relu4
I0525 08:51:02.227589 18279 net.cpp:454] relu4 <- conv4
I0525 08:51:02.227602 18279 net.cpp:397] relu4 -> conv4 (in-place)
I0525 08:51:02.228072 18279 net.cpp:150] Setting up relu4
I0525 08:51:02.228088 18279 net.cpp:157] Top shape: 90 36 6 42 (816480)
I0525 08:51:02.228098 18279 net.cpp:165] Memory required for data: 140132520
I0525 08:51:02.228108 18279 layer_factory.hpp:77] Creating layer pool4
I0525 08:51:02.228121 18279 net.cpp:106] Creating Layer pool4
I0525 08:51:02.228132 18279 net.cpp:454] pool4 <- conv4
I0525 08:51:02.228145 18279 net.cpp:411] pool4 -> pool4
I0525 08:51:02.228217 18279 net.cpp:150] Setting up pool4
I0525 08:51:02.228230 18279 net.cpp:157] Top shape: 90 36 3 42 (408240)
I0525 08:51:02.228240 18279 net.cpp:165] Memory required for data: 141765480
I0525 08:51:02.228251 18279 layer_factory.hpp:77] Creating layer ip1
I0525 08:51:02.228266 18279 net.cpp:106] Creating Layer ip1
I0525 08:51:02.228277 18279 net.cpp:454] ip1 <- pool4
I0525 08:51:02.228291 18279 net.cpp:411] ip1 -> ip1
I0525 08:51:02.243734 18279 net.cpp:150] Setting up ip1
I0525 08:51:02.243762 18279 net.cpp:157] Top shape: 90 196 (17640)
I0525 08:51:02.243773 18279 net.cpp:165] Memory required for data: 141836040
I0525 08:51:02.243800 18279 layer_factory.hpp:77] Creating layer relu5
I0525 08:51:02.243815 18279 net.cpp:106] Creating Layer relu5
I0525 08:51:02.243826 18279 net.cpp:454] relu5 <- ip1
I0525 08:51:02.243839 18279 net.cpp:397] relu5 -> ip1 (in-place)
I0525 08:51:02.244189 18279 net.cpp:150] Setting up relu5
I0525 08:51:02.244202 18279 net.cpp:157] Top shape: 90 196 (17640)
I0525 08:51:02.244212 18279 net.cpp:165] Memory required for data: 141906600
I0525 08:51:02.244222 18279 layer_factory.hpp:77] Creating layer drop1
I0525 08:51:02.244241 18279 net.cpp:106] Creating Layer drop1
I0525 08:51:02.244251 18279 net.cpp:454] drop1 <- ip1
I0525 08:51:02.244263 18279 net.cpp:397] drop1 -> ip1 (in-place)
I0525 08:51:02.244310 18279 net.cpp:150] Setting up drop1
I0525 08:51:02.244323 18279 net.cpp:157] Top shape: 90 196 (17640)
I0525 08:51:02.244333 18279 net.cpp:165] Memory required for data: 141977160
I0525 08:51:02.244343 18279 layer_factory.hpp:77] Creating layer ip2
I0525 08:51:02.244356 18279 net.cpp:106] Creating Layer ip2
I0525 08:51:02.244366 18279 net.cpp:454] ip2 <- ip1
I0525 08:51:02.244380 18279 net.cpp:411] ip2 -> ip2
I0525 08:51:02.244858 18279 net.cpp:150] Setting up ip2
I0525 08:51:02.244873 18279 net.cpp:157] Top shape: 90 98 (8820)
I0525 08:51:02.244884 18279 net.cpp:165] Memory required for data: 142012440
I0525 08:51:02.244899 18279 layer_factory.hpp:77] Creating layer relu6
I0525 08:51:02.244925 18279 net.cpp:106] Creating Layer relu6
I0525 08:51:02.244935 18279 net.cpp:454] relu6 <- ip2
I0525 08:51:02.244947 18279 net.cpp:397] relu6 -> ip2 (in-place)
I0525 08:51:02.245484 18279 net.cpp:150] Setting up relu6
I0525 08:51:02.245507 18279 net.cpp:157] Top shape: 90 98 (8820)
I0525 08:51:02.245517 18279 net.cpp:165] Memory required for data: 142047720
I0525 08:51:02.245527 18279 layer_factory.hpp:77] Creating layer drop2
I0525 08:51:02.245542 18279 net.cpp:106] Creating Layer drop2
I0525 08:51:02.245551 18279 net.cpp:454] drop2 <- ip2
I0525 08:51:02.245564 18279 net.cpp:397] drop2 -> ip2 (in-place)
I0525 08:51:02.245609 18279 net.cpp:150] Setting up drop2
I0525 08:51:02.245621 18279 net.cpp:157] Top shape: 90 98 (8820)
I0525 08:51:02.245630 18279 net.cpp:165] Memory required for data: 142083000
I0525 08:51:02.245640 18279 layer_factory.hpp:77] Creating layer ip3
I0525 08:51:02.245654 18279 net.cpp:106] Creating Layer ip3
I0525 08:51:02.245664 18279 net.cpp:454] ip3 <- ip2
I0525 08:51:02.245679 18279 net.cpp:411] ip3 -> ip3
I0525 08:51:02.245903 18279 net.cpp:150] Setting up ip3
I0525 08:51:02.245916 18279 net.cpp:157] Top shape: 90 11 (990)
I0525 08:51:02.245926 18279 net.cpp:165] Memory required for data: 142086960
I0525 08:51:02.245942 18279 layer_factory.hpp:77] Creating layer drop3
I0525 08:51:02.245955 18279 net.cpp:106] Creating Layer drop3
I0525 08:51:02.245965 18279 net.cpp:454] drop3 <- ip3
I0525 08:51:02.245978 18279 net.cpp:397] drop3 -> ip3 (in-place)
I0525 08:51:02.246019 18279 net.cpp:150] Setting up drop3
I0525 08:51:02.246032 18279 net.cpp:157] Top shape: 90 11 (990)
I0525 08:51:02.246042 18279 net.cpp:165] Memory required for data: 142090920
I0525 08:51:02.246052 18279 layer_factory.hpp:77] Creating layer ip3_drop3_0_split
I0525 08:51:02.246064 18279 net.cpp:106] Creating Layer ip3_drop3_0_split
I0525 08:51:02.246074 18279 net.cpp:454] ip3_drop3_0_split <- ip3
I0525 08:51:02.246088 18279 net.cpp:411] ip3_drop3_0_split -> ip3_drop3_0_split_0
I0525 08:51:02.246103 18279 net.cpp:411] ip3_drop3_0_split -> ip3_drop3_0_split_1
I0525 08:51:02.246183 18279 net.cpp:150] Setting up ip3_drop3_0_split
I0525 08:51:02.246197 18279 net.cpp:157] Top shape: 90 11 (990)
I0525 08:51:02.246209 18279 net.cpp:157] Top shape: 90 11 (990)
I0525 08:51:02.246219 18279 net.cpp:165] Memory required for data: 142098840
I0525 08:51:02.246229 18279 layer_factory.hpp:77] Creating layer accuracy
I0525 08:51:02.246251 18279 net.cpp:106] Creating Layer accuracy
I0525 08:51:02.246261 18279 net.cpp:454] accuracy <- ip3_drop3_0_split_0
I0525 08:51:02.246273 18279 net.cpp:454] accuracy <- label_data_hdf5_1_split_0
I0525 08:51:02.246286 18279 net.cpp:411] accuracy -> accuracy
…
