…
I0525 12:52:09.026377 21963 net.cpp:322] The NetState phase (0) differed from the phase (1) specified by a rule in layer data_hdf5
I0525 12:52:09.026437 21963 net.cpp:322] The NetState phase (0) differed from the phase (1) specified by a rule in layer accuracy
I0525 12:52:09.026784 21963 net.cpp:49] Initializing net from parameters: 
name: "caffe_test_127x50_x_unshifted"
state {
  phase: TRAIN
}
layer {
  name: "data_hdf5"
  type: "HDF5Data"
  top: "data"
  top: "label"
  include {
    phase: TRAIN
  }
  hdf5_data_param {
    source: "/lustre/atlas/proj-shared/hep105/caffe_titan/minosmatch_nukecczdefs_127x50_x_unshifted_me1Bmc.trainlist"
    batch_size: 90
  }
}
layer {
  name: "conv1"
  type: "Convolution"
  bottom: "data"
  top: "conv1"
  convolution_param {
    num_output: 12
    pad: 0
    stride: 1
    weight_filler {
      type: "xavier"
    }
    bias_filler {
      type: "constant"
    }
    kernel_h: 8
    kernel_w: 3
  }
}
layer {
  name: "relu1"
  type: "ReLU"
  bottom: "conv1"
  top: "conv1"
}
layer {
  name: "pool1"
  type: "Pooling"
  bottom: "conv1"
  top: "pool1"
  pooling_param {
    pool: MAX
    kernel_h: 2
    kernel_w: 1
    stride_h: 2
    stride_w: 1
  }
}
layer {
  name: "conv2"
  type: "Convolution"
  bottom: "pool1"
  top: "conv2"
  convolution_param {
    num_output: 20
    pad: 0
    stride: 1
    weight_filler {
      type: "xavier"
    }
    bias_filler {
      type: "constant"
    }
    kernel_h: 7
    kernel_w: 3
  }
}
layer {
  name: "relu2"
  type: "ReLU"
  bottom: "conv2"
  top: "conv2"
}
layer {
  name: "pool2"
  type: "Pooling"
  bottom: "conv2"
  top: "pool2"
  pooling_param {
    pool: MAX
    kernel_h: 2
    kernel_w: 1
    stride_h: 2
    stride_w: 1
  }
}
layer {
  name: "conv3"
  type: "Convolution"
  bottom: "pool2"
  top: "conv3"
  convolution_param {
    num_output: 28
    pad: 0
    stride: 1
    weight_filler {
      type: "xavier"
    }
    bias_filler {
      type: "constant"
    }
    kernel_h: 6
    kernel_w: 3
  }
}
layer {
  name: "relu3"
  type: "ReLU"
  bottom: "conv3"
  top: "conv3"
}
layer {
  name: "pool3"
  type: "Pooling"
  bottom: "conv3"
  top: "pool3"
  pooling_param {
    pool: MAX
    kernel_h: 2
    kernel_w: 1
    stride_h: 2
    stride_w: 1
  }
}
layer {
  name: "conv4"
  type: "Convolution"
  bottom: "pool3"
  top: "conv4"
  convolution_param {
    num_output: 36
    pad: 0
    stride: 1
    weight_filler {
      type: "xavier"
    }
    bias_filler {
      type: "constant"
    }
    kernel_h: 6
    kernel_w: 3
  }
}
layer {
  name: "relu4"
  type: "ReLU"
  bottom: "conv4"
  top: "conv4"
}
layer {
  name: "pool4"
  type: "Pooling"
  bottom: "conv4"
  top: "pool4"
  pooling_param {
    pool: MAX
    kernel_h: 2
    kernel_w: 1
    stride_h: 2
    stride_w: 1
  }
}
layer {
  name: "ip1"
  type: "InnerProduct"
  bottom: "pool4"
  top: "ip1"
  inner_product_param {
    num_output: 196
    weight_filler {
      type: "xavier"
    }
    bias_filler {
      type: "constant"
    }
  }
}
layer {
  name: "relu5"
  type: "ReLU"
  bottom: "ip1"
  top: "ip1"
}
layer {
  name: "drop1"
  type: "Dropout"
  bottom: "ip1"
  top: "ip1"
  dropout_param {
    dropout_ratio: 0.5
  }
}
layer {
  name: "ip2"
  type: "InnerProduct"
  bottom: "ip1"
  top: "ip2"
  inner_product_param {
    num_output: 98
    weight_filler {
      type: "xavier"
    }
    bias_filler {
      type: "constant"
    }
  }
}
layer {
  name: "relu6"
  type: "ReLU"
  bottom: "ip2"
  top: "ip2"
}
layer {
  name: "drop2"
  type: "Dropout"
  bottom: "ip2"
  top: "ip2"
  dropout_param {
    dropout_ratio: 0.5
  }
}
layer {
  name: "ip3"
  type: "InnerProduct"
  bottom: "ip2"
  top: "ip3"
  inner_product_param {
    num_output: 11
    weight_filler {
      type: "xavier"
    }
    bias_filler {
      type: "constant"
    }
  }
}
layer {
  name: "drop3"
  type: "Dropout"
  bottom: "ip3"
  top: "ip3"
  dropout_param {
    dropout_ratio: 0.5
  }
}
layer {
  name: "loss"
  type: "SoftmaxWithLoss"
  bottom: "ip3"
  bottom: "label"
  top: "loss"
}
I0525 12:52:09.026965 21963 layer_factory.hpp:77] Creating layer data_hdf5
I0525 12:52:09.026989 21963 net.cpp:106] Creating Layer data_hdf5
I0525 12:52:09.027005 21963 net.cpp:411] data_hdf5 -> data
I0525 12:52:09.027040 21963 net.cpp:411] data_hdf5 -> label
I0525 12:52:09.027071 21963 hdf5_data_layer.cpp:79] Loading list of HDF5 filenames from: /lustre/atlas/proj-shared/hep105/caffe_titan/minosmatch_nukecczdefs_127x50_x_unshifted_me1Bmc.trainlist
I0525 12:52:09.028429 21963 hdf5_data_layer.cpp:93] Number of HDF5 files: 15
I0525 12:52:09.045485 21963 hdf5.cpp:32] Datatype class: H5T_FLOAT
I0525 12:52:30.632119 21963 hdf5.cpp:35] Datatype class: H5T_INTEGER
I0525 12:52:30.637271 21963 net.cpp:150] Setting up data_hdf5
I0525 12:52:30.637306 21963 net.cpp:157] Top shape: 90 1 127 50 (571500)
I0525 12:52:30.637322 21963 net.cpp:157] Top shape: 90 (90)
I0525 12:52:30.637332 21963 net.cpp:165] Memory required for data: 2286360
I0525 12:52:30.637346 21963 layer_factory.hpp:77] Creating layer conv1
I0525 12:52:30.637380 21963 net.cpp:106] Creating Layer conv1
I0525 12:52:30.637392 21963 net.cpp:454] conv1 <- data
I0525 12:52:30.637414 21963 net.cpp:411] conv1 -> conv1
I0525 12:52:33.534238 21963 net.cpp:150] Setting up conv1
I0525 12:52:33.534282 21963 net.cpp:157] Top shape: 90 12 120 48 (6220800)
I0525 12:52:33.534293 21963 net.cpp:165] Memory required for data: 27169560
I0525 12:52:33.534324 21963 layer_factory.hpp:77] Creating layer relu1
I0525 12:52:33.534345 21963 net.cpp:106] Creating Layer relu1
I0525 12:52:33.534356 21963 net.cpp:454] relu1 <- conv1
I0525 12:52:33.534369 21963 net.cpp:397] relu1 -> conv1 (in-place)
I0525 12:52:33.534885 21963 net.cpp:150] Setting up relu1
I0525 12:52:33.534903 21963 net.cpp:157] Top shape: 90 12 120 48 (6220800)
I0525 12:52:33.534912 21963 net.cpp:165] Memory required for data: 52052760
I0525 12:52:33.534924 21963 layer_factory.hpp:77] Creating layer pool1
I0525 12:52:33.534940 21963 net.cpp:106] Creating Layer pool1
I0525 12:52:33.534950 21963 net.cpp:454] pool1 <- conv1
I0525 12:52:33.534963 21963 net.cpp:411] pool1 -> pool1
I0525 12:52:33.535043 21963 net.cpp:150] Setting up pool1
I0525 12:52:33.535058 21963 net.cpp:157] Top shape: 90 12 60 48 (3110400)
I0525 12:52:33.535068 21963 net.cpp:165] Memory required for data: 64494360
I0525 12:52:33.535079 21963 layer_factory.hpp:77] Creating layer conv2
I0525 12:52:33.535101 21963 net.cpp:106] Creating Layer conv2
I0525 12:52:33.535111 21963 net.cpp:454] conv2 <- pool1
I0525 12:52:33.535125 21963 net.cpp:411] conv2 -> conv2
I0525 12:52:33.537863 21963 net.cpp:150] Setting up conv2
I0525 12:52:33.537890 21963 net.cpp:157] Top shape: 90 20 54 46 (4471200)
I0525 12:52:33.537900 21963 net.cpp:165] Memory required for data: 82379160
I0525 12:52:33.537920 21963 layer_factory.hpp:77] Creating layer relu2
I0525 12:52:33.537935 21963 net.cpp:106] Creating Layer relu2
I0525 12:52:33.537945 21963 net.cpp:454] relu2 <- conv2
I0525 12:52:33.537956 21963 net.cpp:397] relu2 -> conv2 (in-place)
I0525 12:52:33.538287 21963 net.cpp:150] Setting up relu2
I0525 12:52:33.538302 21963 net.cpp:157] Top shape: 90 20 54 46 (4471200)
I0525 12:52:33.538312 21963 net.cpp:165] Memory required for data: 100263960
I0525 12:52:33.538322 21963 layer_factory.hpp:77] Creating layer pool2
I0525 12:52:33.538336 21963 net.cpp:106] Creating Layer pool2
I0525 12:52:33.538344 21963 net.cpp:454] pool2 <- conv2
I0525 12:52:33.538357 21963 net.cpp:411] pool2 -> pool2
I0525 12:52:33.538439 21963 net.cpp:150] Setting up pool2
I0525 12:52:33.538451 21963 net.cpp:157] Top shape: 90 20 27 46 (2235600)
I0525 12:52:33.538461 21963 net.cpp:165] Memory required for data: 109206360
I0525 12:52:33.538471 21963 layer_factory.hpp:77] Creating layer conv3
I0525 12:52:33.538489 21963 net.cpp:106] Creating Layer conv3
I0525 12:52:33.538499 21963 net.cpp:454] conv3 <- pool2
I0525 12:52:33.538513 21963 net.cpp:411] conv3 -> conv3
I0525 12:52:33.540432 21963 net.cpp:150] Setting up conv3
I0525 12:52:33.540455 21963 net.cpp:157] Top shape: 90 28 22 44 (2439360)
I0525 12:52:33.540468 21963 net.cpp:165] Memory required for data: 118963800
I0525 12:52:33.540487 21963 layer_factory.hpp:77] Creating layer relu3
I0525 12:52:33.540503 21963 net.cpp:106] Creating Layer relu3
I0525 12:52:33.540513 21963 net.cpp:454] relu3 <- conv3
I0525 12:52:33.540524 21963 net.cpp:397] relu3 -> conv3 (in-place)
I0525 12:52:33.540992 21963 net.cpp:150] Setting up relu3
I0525 12:52:33.541009 21963 net.cpp:157] Top shape: 90 28 22 44 (2439360)
I0525 12:52:33.541020 21963 net.cpp:165] Memory required for data: 128721240
I0525 12:52:33.541030 21963 layer_factory.hpp:77] Creating layer pool3
I0525 12:52:33.541043 21963 net.cpp:106] Creating Layer pool3
I0525 12:52:33.541054 21963 net.cpp:454] pool3 <- conv3
I0525 12:52:33.541066 21963 net.cpp:411] pool3 -> pool3
I0525 12:52:33.541133 21963 net.cpp:150] Setting up pool3
I0525 12:52:33.541146 21963 net.cpp:157] Top shape: 90 28 11 44 (1219680)
I0525 12:52:33.541157 21963 net.cpp:165] Memory required for data: 133599960
I0525 12:52:33.541167 21963 layer_factory.hpp:77] Creating layer conv4
I0525 12:52:33.541183 21963 net.cpp:106] Creating Layer conv4
I0525 12:52:33.541194 21963 net.cpp:454] conv4 <- pool3
I0525 12:52:33.541208 21963 net.cpp:411] conv4 -> conv4
I0525 12:52:33.544152 21963 net.cpp:150] Setting up conv4
I0525 12:52:33.544180 21963 net.cpp:157] Top shape: 90 36 6 42 (816480)
I0525 12:52:33.544190 21963 net.cpp:165] Memory required for data: 136865880
I0525 12:52:33.544206 21963 layer_factory.hpp:77] Creating layer relu4
I0525 12:52:33.544221 21963 net.cpp:106] Creating Layer relu4
I0525 12:52:33.544231 21963 net.cpp:454] relu4 <- conv4
I0525 12:52:33.544244 21963 net.cpp:397] relu4 -> conv4 (in-place)
I0525 12:52:33.544703 21963 net.cpp:150] Setting up relu4
I0525 12:52:33.544718 21963 net.cpp:157] Top shape: 90 36 6 42 (816480)
I0525 12:52:33.544728 21963 net.cpp:165] Memory required for data: 140131800
I0525 12:52:33.544739 21963 layer_factory.hpp:77] Creating layer pool4
I0525 12:52:33.544751 21963 net.cpp:106] Creating Layer pool4
I0525 12:52:33.544761 21963 net.cpp:454] pool4 <- conv4
I0525 12:52:33.544775 21963 net.cpp:411] pool4 -> pool4
I0525 12:52:33.544842 21963 net.cpp:150] Setting up pool4
I0525 12:52:33.544855 21963 net.cpp:157] Top shape: 90 36 3 42 (408240)
I0525 12:52:33.544864 21963 net.cpp:165] Memory required for data: 141764760
I0525 12:52:33.544874 21963 layer_factory.hpp:77] Creating layer ip1
I0525 12:52:33.544894 21963 net.cpp:106] Creating Layer ip1
I0525 12:52:33.544904 21963 net.cpp:454] ip1 <- pool4
I0525 12:52:33.544917 21963 net.cpp:411] ip1 -> ip1
I0525 12:52:33.560322 21963 net.cpp:150] Setting up ip1
I0525 12:52:33.560349 21963 net.cpp:157] Top shape: 90 196 (17640)
I0525 12:52:33.560365 21963 net.cpp:165] Memory required for data: 141835320
I0525 12:52:33.560392 21963 layer_factory.hpp:77] Creating layer relu5
I0525 12:52:33.560407 21963 net.cpp:106] Creating Layer relu5
I0525 12:52:33.560417 21963 net.cpp:454] relu5 <- ip1
I0525 12:52:33.560431 21963 net.cpp:397] relu5 -> ip1 (in-place)
I0525 12:52:33.560771 21963 net.cpp:150] Setting up relu5
I0525 12:52:33.560786 21963 net.cpp:157] Top shape: 90 196 (17640)
I0525 12:52:33.560796 21963 net.cpp:165] Memory required for data: 141905880
I0525 12:52:33.560806 21963 layer_factory.hpp:77] Creating layer drop1
I0525 12:52:33.560827 21963 net.cpp:106] Creating Layer drop1
I0525 12:52:33.560837 21963 net.cpp:454] drop1 <- ip1
I0525 12:52:33.560848 21963 net.cpp:397] drop1 -> ip1 (in-place)
I0525 12:52:33.560909 21963 net.cpp:150] Setting up drop1
I0525 12:52:33.560922 21963 net.cpp:157] Top shape: 90 196 (17640)
I0525 12:52:33.560932 21963 net.cpp:165] Memory required for data: 141976440
I0525 12:52:33.560942 21963 layer_factory.hpp:77] Creating layer ip2
I0525 12:52:33.560961 21963 net.cpp:106] Creating Layer ip2
I0525 12:52:33.560972 21963 net.cpp:454] ip2 <- ip1
I0525 12:52:33.560986 21963 net.cpp:411] ip2 -> ip2
I0525 12:52:33.561450 21963 net.cpp:150] Setting up ip2
I0525 12:52:33.561463 21963 net.cpp:157] Top shape: 90 98 (8820)
I0525 12:52:33.561473 21963 net.cpp:165] Memory required for data: 142011720
I0525 12:52:33.561488 21963 layer_factory.hpp:77] Creating layer relu6
I0525 12:52:33.561501 21963 net.cpp:106] Creating Layer relu6
I0525 12:52:33.561511 21963 net.cpp:454] relu6 <- ip2
I0525 12:52:33.561522 21963 net.cpp:397] relu6 -> ip2 (in-place)
I0525 12:52:33.562041 21963 net.cpp:150] Setting up relu6
I0525 12:52:33.562057 21963 net.cpp:157] Top shape: 90 98 (8820)
I0525 12:52:33.562067 21963 net.cpp:165] Memory required for data: 142047000
I0525 12:52:33.562077 21963 layer_factory.hpp:77] Creating layer drop2
I0525 12:52:33.562090 21963 net.cpp:106] Creating Layer drop2
I0525 12:52:33.562100 21963 net.cpp:454] drop2 <- ip2
I0525 12:52:33.562114 21963 net.cpp:397] drop2 -> ip2 (in-place)
I0525 12:52:33.562155 21963 net.cpp:150] Setting up drop2
I0525 12:52:33.562168 21963 net.cpp:157] Top shape: 90 98 (8820)
I0525 12:52:33.562178 21963 net.cpp:165] Memory required for data: 142082280
I0525 12:52:33.562188 21963 layer_factory.hpp:77] Creating layer ip3
I0525 12:52:33.562202 21963 net.cpp:106] Creating Layer ip3
I0525 12:52:33.562212 21963 net.cpp:454] ip3 <- ip2
I0525 12:52:33.562224 21963 net.cpp:411] ip3 -> ip3
I0525 12:52:33.562510 21963 net.cpp:150] Setting up ip3
I0525 12:52:33.562523 21963 net.cpp:157] Top shape: 90 11 (990)
I0525 12:52:33.562533 21963 net.cpp:165] Memory required for data: 142086240
I0525 12:52:33.562548 21963 layer_factory.hpp:77] Creating layer drop3
I0525 12:52:33.562561 21963 net.cpp:106] Creating Layer drop3
I0525 12:52:33.562572 21963 net.cpp:454] drop3 <- ip3
I0525 12:52:33.562583 21963 net.cpp:397] drop3 -> ip3 (in-place)
I0525 12:52:33.562624 21963 net.cpp:150] Setting up drop3
I0525 12:52:33.562638 21963 net.cpp:157] Top shape: 90 11 (990)
I0525 12:52:33.562646 21963 net.cpp:165] Memory required for data: 142090200
I0525 12:52:33.562656 21963 layer_factory.hpp:77] Creating layer loss
I0525 12:52:33.562675 21963 net.cpp:106] Creating Layer loss
I0525 12:52:33.562685 21963 net.cpp:454] loss <- ip3
I0525 12:52:33.562695 21963 net.cpp:454] loss <- label
I0525 12:52:33.562707 21963 net.cpp:411] loss -> loss
I0525 12:52:33.562724 21963 layer_factory.hpp:77] Creating layer loss
…
I0525 12:52:33.565449 21963 solver.cpp:181] Creating test net (#0) specified by net file: /lustre/atlas/proj-shared/hep105/caffe_titan/caffe_workflow/logs_bslr/bs_90_lr_0.0050_2016-05-20T15.49.23.604564.prototxt
I0525 12:52:33.565521 21963 net.cpp:322] The NetState phase (1) differed from the phase (0) specified by a rule in layer data_hdf5
I0525 12:52:33.565876 21963 net.cpp:49] Initializing net from parameters: 
name: "caffe_test_127x50_x_unshifted"
state {
  phase: TEST
}
layer {
  name: "data_hdf5"
  type: "HDF5Data"
  top: "data"
  top: "label"
  include {
    phase: TEST
  }
  hdf5_data_param {
    source: "/lustre/atlas/proj-shared/hep105/caffe_titan/minosmatch_nukecczdefs_127x50_x_unshifted_me1Bmc.testlist"
    batch_size: 90
  }
}
layer {
  name: "conv1"
  type: "Convolution"
  bottom: "data"
  top: "conv1"
  convolution_param {
    num_output: 12
    pad: 0
    stride: 1
    weight_filler {
      type: "xavier"
    }
    bias_filler {
      type: "constant"
    }
    kernel_h: 8
    kernel_w: 3
  }
}
layer {
  name: "relu1"
  type: "ReLU"
  bottom: "conv1"
  top: "conv1"
}
layer {
  name: "pool1"
  type: "Pooling"
  bottom: "conv1"
  top: "pool1"
  pooling_param {
    pool: MAX
    kernel_h: 2
    kernel_w: 1
    stride_h: 2
    stride_w: 1
  }
}
layer {
  name: "conv2"
  type: "Convolution"
  bottom: "pool1"
  top: "conv2"
  convolution_param {
    num_output: 20
    pad: 0
    stride: 1
    weight_filler {
      type: "xavier"
    }
    bias_filler {
      type: "constant"
    }
    kernel_h: 7
    kernel_w: 3
  }
}
layer {
  name: "relu2"
  type: "ReLU"
  bottom: "conv2"
  top: "conv2"
}
layer {
  name: "pool2"
  type: "Pooling"
  bottom: "conv2"
  top: "pool2"
  pooling_param {
    pool: MAX
    kernel_h: 2
    kernel_w: 1
    stride_h: 2
    stride_w: 1
  }
}
layer {
  name: "conv3"
  type: "Convolution"
  bottom: "pool2"
  top: "conv3"
  convolution_param {
    num_output: 28
    pad: 0
    stride: 1
    weight_filler {
      type: "xavier"
    }
    bias_filler {
      type: "constant"
    }
    kernel_h: 6
    kernel_w: 3
  }
}
layer {
  name: "relu3"
  type: "ReLU"
  bottom: "conv3"
  top: "conv3"
}
layer {
  name: "pool3"
  type: "Pooling"
  bottom: "conv3"
  top: "pool3"
  pooling_param {
    pool: MAX
    kernel_h: 2
    kernel_w: 1
    stride_h: 2
    stride_w: 1
  }
}
layer {
  name: "conv4"
  type: "Convolution"
  bottom: "pool3"
  top: "conv4"
  convolution_param {
    num_output: 36
    pad: 0
    stride: 1
    weight_filler {
      type: "xavier"
    }
    bias_filler {
      type: "constant"
    }
    kernel_h: 6
    kernel_w: 3
  }
}
layer {
  name: "relu4"
  type: "ReLU"
  bottom: "conv4"
  top: "conv4"
}
layer {
  name: "pool4"
  type: "Pooling"
  bottom: "conv4"
  top: "pool4"
  pooling_param {
    pool: MAX
    kernel_h: 2
    kernel_w: 1
    stride_h: 2
    stride_w: 1
  }
}
layer {
  name: "ip1"
  type: "InnerProduct"
  bottom: "pool4"
  top: "ip1"
  inner_product_param {
    num_output: 196
    weight_filler {
      type: "xavier"
    }
    bias_filler {
      type: "constant"
    }
  }
}
layer {
  name: "relu5"
  type: "ReLU"
  bottom: "ip1"
  top: "ip1"
}
layer {
  name: "drop1"
  type: "Dropout"
  bottom: "ip1"
  top: "ip1"
  dropout_param {
    dropout_ratio: 0.5
  }
}
layer {
  name: "ip2"
  type: "InnerProduct"
  bottom: "ip1"
  top: "ip2"
  inner_product_param {
    num_output: 98
    weight_filler {
      type: "xavier"
    }
    bias_filler {
      type: "constant"
    }
  }
}
layer {
  name: "relu6"
  type: "ReLU"
  bottom: "ip2"
  top: "ip2"
}
layer {
  name: "drop2"
  type: "Dropout"
  bottom: "ip2"
  top: "ip2"
  dropout_param {
    dropout_ratio: 0.5
  }
}
layer {
  name: "ip3"
  type: "InnerProduct"
  bottom: "ip2"
  top: "ip3"
  inner_product_param {
    num_output: 11
    weight_filler {
      type: "xavier"
    }
    bias_filler {
      type: "constant"
    }
  }
}
layer {
  name: "drop3"
  type: "Dropout"
  bottom: "ip3"
  top: "ip3"
  dropout_param {
    dropout_ratio: 0.5
  }
}
layer {
  name: "accuracy"
  type: "Accuracy"
  bottom: "ip3"
  bottom: "label"
  top: "accuracy"
  include {
    phase: TEST
  }
}
layer {
  name: "loss"
  type: "SoftmaxWithLoss"
  bottom: "ip3"
  bottom: "label"
  top: "loss"
}
I0525 12:52:33.566063 21963 layer_factory.hpp:77] Creating layer data_hdf5
I0525 12:52:33.566078 21963 net.cpp:106] Creating Layer data_hdf5
I0525 12:52:33.566092 21963 net.cpp:411] data_hdf5 -> data
I0525 12:52:33.566108 21963 net.cpp:411] data_hdf5 -> label
I0525 12:52:33.566124 21963 hdf5_data_layer.cpp:79] Loading list of HDF5 filenames from: /lustre/atlas/proj-shared/hep105/caffe_titan/minosmatch_nukecczdefs_127x50_x_unshifted_me1Bmc.testlist
I0525 12:52:33.582792 21963 hdf5_data_layer.cpp:93] Number of HDF5 files: 3
I0525 12:52:54.979171 21963 net.cpp:150] Setting up data_hdf5
I0525 12:52:54.979343 21963 net.cpp:157] Top shape: 90 1 127 50 (571500)
I0525 12:52:54.979357 21963 net.cpp:157] Top shape: 90 (90)
I0525 12:52:54.979368 21963 net.cpp:165] Memory required for data: 2286360
I0525 12:52:54.979382 21963 layer_factory.hpp:77] Creating layer label_data_hdf5_1_split
I0525 12:52:54.979409 21963 net.cpp:106] Creating Layer label_data_hdf5_1_split
I0525 12:52:54.979420 21963 net.cpp:454] label_data_hdf5_1_split <- label
I0525 12:52:54.979436 21963 net.cpp:411] label_data_hdf5_1_split -> label_data_hdf5_1_split_0
I0525 12:52:54.979457 21963 net.cpp:411] label_data_hdf5_1_split -> label_data_hdf5_1_split_1
I0525 12:52:54.979532 21963 net.cpp:150] Setting up label_data_hdf5_1_split
I0525 12:52:54.979545 21963 net.cpp:157] Top shape: 90 (90)
I0525 12:52:54.979557 21963 net.cpp:157] Top shape: 90 (90)
I0525 12:52:54.979567 21963 net.cpp:165] Memory required for data: 2287080
I0525 12:52:54.979575 21963 layer_factory.hpp:77] Creating layer conv1
I0525 12:52:54.979595 21963 net.cpp:106] Creating Layer conv1
I0525 12:52:54.979604 21963 net.cpp:454] conv1 <- data
I0525 12:52:54.979619 21963 net.cpp:411] conv1 -> conv1
I0525 12:52:54.981570 21963 net.cpp:150] Setting up conv1
I0525 12:52:54.981593 21963 net.cpp:157] Top shape: 90 12 120 48 (6220800)
I0525 12:52:54.981606 21963 net.cpp:165] Memory required for data: 27170280
I0525 12:52:54.981626 21963 layer_factory.hpp:77] Creating layer relu1
I0525 12:52:54.981640 21963 net.cpp:106] Creating Layer relu1
I0525 12:52:54.981650 21963 net.cpp:454] relu1 <- conv1
I0525 12:52:54.981662 21963 net.cpp:397] relu1 -> conv1 (in-place)
I0525 12:52:54.982154 21963 net.cpp:150] Setting up relu1
I0525 12:52:54.982170 21963 net.cpp:157] Top shape: 90 12 120 48 (6220800)
I0525 12:52:54.982182 21963 net.cpp:165] Memory required for data: 52053480
I0525 12:52:54.982192 21963 layer_factory.hpp:77] Creating layer pool1
I0525 12:52:54.982208 21963 net.cpp:106] Creating Layer pool1
I0525 12:52:54.982218 21963 net.cpp:454] pool1 <- conv1
I0525 12:52:54.982230 21963 net.cpp:411] pool1 -> pool1
I0525 12:52:54.982306 21963 net.cpp:150] Setting up pool1
I0525 12:52:54.982319 21963 net.cpp:157] Top shape: 90 12 60 48 (3110400)
I0525 12:52:54.982328 21963 net.cpp:165] Memory required for data: 64495080
I0525 12:52:54.982336 21963 layer_factory.hpp:77] Creating layer conv2
I0525 12:52:54.982354 21963 net.cpp:106] Creating Layer conv2
I0525 12:52:54.982364 21963 net.cpp:454] conv2 <- pool1
I0525 12:52:54.982378 21963 net.cpp:411] conv2 -> conv2
I0525 12:52:54.984293 21963 net.cpp:150] Setting up conv2
I0525 12:52:54.984315 21963 net.cpp:157] Top shape: 90 20 54 46 (4471200)
I0525 12:52:54.984328 21963 net.cpp:165] Memory required for data: 82379880
I0525 12:52:54.984345 21963 layer_factory.hpp:77] Creating layer relu2
I0525 12:52:54.984359 21963 net.cpp:106] Creating Layer relu2
I0525 12:52:54.984369 21963 net.cpp:454] relu2 <- conv2
I0525 12:52:54.984381 21963 net.cpp:397] relu2 -> conv2 (in-place)
I0525 12:52:54.984715 21963 net.cpp:150] Setting up relu2
I0525 12:52:54.984730 21963 net.cpp:157] Top shape: 90 20 54 46 (4471200)
I0525 12:52:54.984740 21963 net.cpp:165] Memory required for data: 100264680
I0525 12:52:54.984750 21963 layer_factory.hpp:77] Creating layer pool2
I0525 12:52:54.984763 21963 net.cpp:106] Creating Layer pool2
I0525 12:52:54.984773 21963 net.cpp:454] pool2 <- conv2
I0525 12:52:54.984786 21963 net.cpp:411] pool2 -> pool2
I0525 12:52:54.984858 21963 net.cpp:150] Setting up pool2
I0525 12:52:54.984871 21963 net.cpp:157] Top shape: 90 20 27 46 (2235600)
I0525 12:52:54.984881 21963 net.cpp:165] Memory required for data: 109207080
I0525 12:52:54.984891 21963 layer_factory.hpp:77] Creating layer conv3
I0525 12:52:54.984908 21963 net.cpp:106] Creating Layer conv3
I0525 12:52:54.984920 21963 net.cpp:454] conv3 <- pool2
I0525 12:52:54.984933 21963 net.cpp:411] conv3 -> conv3
I0525 12:52:54.986915 21963 net.cpp:150] Setting up conv3
I0525 12:52:54.986937 21963 net.cpp:157] Top shape: 90 28 22 44 (2439360)
I0525 12:52:54.986949 21963 net.cpp:165] Memory required for data: 118964520
I0525 12:52:54.986982 21963 layer_factory.hpp:77] Creating layer relu3
I0525 12:52:54.986995 21963 net.cpp:106] Creating Layer relu3
I0525 12:52:54.987006 21963 net.cpp:454] relu3 <- conv3
I0525 12:52:54.987018 21963 net.cpp:397] relu3 -> conv3 (in-place)
I0525 12:52:54.987499 21963 net.cpp:150] Setting up relu3
I0525 12:52:54.987515 21963 net.cpp:157] Top shape: 90 28 22 44 (2439360)
I0525 12:52:54.987526 21963 net.cpp:165] Memory required for data: 128721960
I0525 12:52:54.987536 21963 layer_factory.hpp:77] Creating layer pool3
I0525 12:52:54.987550 21963 net.cpp:106] Creating Layer pool3
I0525 12:52:54.987560 21963 net.cpp:454] pool3 <- conv3
I0525 12:52:54.987572 21963 net.cpp:411] pool3 -> pool3
I0525 12:52:54.987643 21963 net.cpp:150] Setting up pool3
I0525 12:52:54.987656 21963 net.cpp:157] Top shape: 90 28 11 44 (1219680)
I0525 12:52:54.987665 21963 net.cpp:165] Memory required for data: 133600680
I0525 12:52:54.987676 21963 layer_factory.hpp:77] Creating layer conv4
I0525 12:52:54.987694 21963 net.cpp:106] Creating Layer conv4
I0525 12:52:54.987704 21963 net.cpp:454] conv4 <- pool3
I0525 12:52:54.987718 21963 net.cpp:411] conv4 -> conv4
I0525 12:52:54.989792 21963 net.cpp:150] Setting up conv4
I0525 12:52:54.989815 21963 net.cpp:157] Top shape: 90 36 6 42 (816480)
I0525 12:52:54.989827 21963 net.cpp:165] Memory required for data: 136866600
I0525 12:52:54.989842 21963 layer_factory.hpp:77] Creating layer relu4
I0525 12:52:54.989856 21963 net.cpp:106] Creating Layer relu4
I0525 12:52:54.989866 21963 net.cpp:454] relu4 <- conv4
I0525 12:52:54.989879 21963 net.cpp:397] relu4 -> conv4 (in-place)
I0525 12:52:54.990350 21963 net.cpp:150] Setting up relu4
I0525 12:52:54.990365 21963 net.cpp:157] Top shape: 90 36 6 42 (816480)
I0525 12:52:54.990375 21963 net.cpp:165] Memory required for data: 140132520
I0525 12:52:54.990386 21963 layer_factory.hpp:77] Creating layer pool4
I0525 12:52:54.990398 21963 net.cpp:106] Creating Layer pool4
I0525 12:52:54.990408 21963 net.cpp:454] pool4 <- conv4
I0525 12:52:54.990420 21963 net.cpp:411] pool4 -> pool4
I0525 12:52:54.990491 21963 net.cpp:150] Setting up pool4
I0525 12:52:54.990504 21963 net.cpp:157] Top shape: 90 36 3 42 (408240)
I0525 12:52:54.990514 21963 net.cpp:165] Memory required for data: 141765480
I0525 12:52:54.990523 21963 layer_factory.hpp:77] Creating layer ip1
I0525 12:52:54.990537 21963 net.cpp:106] Creating Layer ip1
I0525 12:52:54.990548 21963 net.cpp:454] ip1 <- pool4
I0525 12:52:54.990561 21963 net.cpp:411] ip1 -> ip1
I0525 12:52:55.006144 21963 net.cpp:150] Setting up ip1
I0525 12:52:55.006171 21963 net.cpp:157] Top shape: 90 196 (17640)
I0525 12:52:55.006187 21963 net.cpp:165] Memory required for data: 141836040
I0525 12:52:55.006211 21963 layer_factory.hpp:77] Creating layer relu5
I0525 12:52:55.006225 21963 net.cpp:106] Creating Layer relu5
I0525 12:52:55.006237 21963 net.cpp:454] relu5 <- ip1
I0525 12:52:55.006249 21963 net.cpp:397] relu5 -> ip1 (in-place)
I0525 12:52:55.006598 21963 net.cpp:150] Setting up relu5
I0525 12:52:55.006613 21963 net.cpp:157] Top shape: 90 196 (17640)
I0525 12:52:55.006623 21963 net.cpp:165] Memory required for data: 141906600
I0525 12:52:55.006633 21963 layer_factory.hpp:77] Creating layer drop1
I0525 12:52:55.006651 21963 net.cpp:106] Creating Layer drop1
I0525 12:52:55.006661 21963 net.cpp:454] drop1 <- ip1
I0525 12:52:55.006672 21963 net.cpp:397] drop1 -> ip1 (in-place)
I0525 12:52:55.006719 21963 net.cpp:150] Setting up drop1
I0525 12:52:55.006732 21963 net.cpp:157] Top shape: 90 196 (17640)
I0525 12:52:55.006744 21963 net.cpp:165] Memory required for data: 141977160
I0525 12:52:55.006753 21963 layer_factory.hpp:77] Creating layer ip2
I0525 12:52:55.006765 21963 net.cpp:106] Creating Layer ip2
I0525 12:52:55.006777 21963 net.cpp:454] ip2 <- ip1
I0525 12:52:55.006789 21963 net.cpp:411] ip2 -> ip2
I0525 12:52:55.007274 21963 net.cpp:150] Setting up ip2
I0525 12:52:55.007287 21963 net.cpp:157] Top shape: 90 98 (8820)
I0525 12:52:55.007297 21963 net.cpp:165] Memory required for data: 142012440
I0525 12:52:55.007313 21963 layer_factory.hpp:77] Creating layer relu6
I0525 12:52:55.007339 21963 net.cpp:106] Creating Layer relu6
I0525 12:52:55.007349 21963 net.cpp:454] relu6 <- ip2
I0525 12:52:55.007361 21963 net.cpp:397] relu6 -> ip2 (in-place)
I0525 12:52:55.007897 21963 net.cpp:150] Setting up relu6
I0525 12:52:55.007918 21963 net.cpp:157] Top shape: 90 98 (8820)
I0525 12:52:55.007928 21963 net.cpp:165] Memory required for data: 142047720
I0525 12:52:55.007938 21963 layer_factory.hpp:77] Creating layer drop2
I0525 12:52:55.007952 21963 net.cpp:106] Creating Layer drop2
I0525 12:52:55.007962 21963 net.cpp:454] drop2 <- ip2
I0525 12:52:55.007974 21963 net.cpp:397] drop2 -> ip2 (in-place)
I0525 12:52:55.008018 21963 net.cpp:150] Setting up drop2
I0525 12:52:55.008031 21963 net.cpp:157] Top shape: 90 98 (8820)
I0525 12:52:55.008041 21963 net.cpp:165] Memory required for data: 142083000
I0525 12:52:55.008050 21963 layer_factory.hpp:77] Creating layer ip3
I0525 12:52:55.008064 21963 net.cpp:106] Creating Layer ip3
I0525 12:52:55.008074 21963 net.cpp:454] ip3 <- ip2
I0525 12:52:55.008087 21963 net.cpp:411] ip3 -> ip3
I0525 12:52:55.008309 21963 net.cpp:150] Setting up ip3
I0525 12:52:55.008322 21963 net.cpp:157] Top shape: 90 11 (990)
I0525 12:52:55.008332 21963 net.cpp:165] Memory required for data: 142086960
I0525 12:52:55.008347 21963 layer_factory.hpp:77] Creating layer drop3
I0525 12:52:55.008360 21963 net.cpp:106] Creating Layer drop3
I0525 12:52:55.008370 21963 net.cpp:454] drop3 <- ip3
I0525 12:52:55.008383 21963 net.cpp:397] drop3 -> ip3 (in-place)
I0525 12:52:55.008424 21963 net.cpp:150] Setting up drop3
I0525 12:52:55.008437 21963 net.cpp:157] Top shape: 90 11 (990)
I0525 12:52:55.008447 21963 net.cpp:165] Memory required for data: 142090920
I0525 12:52:55.008456 21963 layer_factory.hpp:77] Creating layer ip3_drop3_0_split
I0525 12:52:55.008471 21963 net.cpp:106] Creating Layer ip3_drop3_0_split
I0525 12:52:55.008479 21963 net.cpp:454] ip3_drop3_0_split <- ip3
I0525 12:52:55.008492 21963 net.cpp:411] ip3_drop3_0_split -> ip3_drop3_0_split_0
I0525 12:52:55.008507 21963 net.cpp:411] ip3_drop3_0_split -> ip3_drop3_0_split_1
I0525 12:52:55.008581 21963 net.cpp:150] Setting up ip3_drop3_0_split
I0525 12:52:55.008594 21963 net.cpp:157] Top shape: 90 11 (990)
I0525 12:52:55.008606 21963 net.cpp:157] Top shape: 90 11 (990)
I0525 12:52:55.008616 21963 net.cpp:165] Memory required for data: 142098840
I0525 12:52:55.008626 21963 layer_factory.hpp:77] Creating layer accuracy
I0525 12:52:55.008647 21963 net.cpp:106] Creating Layer accuracy
I0525 12:52:55.008657 21963 net.cpp:454] accuracy <- ip3_drop3_0_split_0
I0525 12:52:55.008668 21963 net.cpp:454] accuracy <- label_data_hdf5_1_split_0
I0525 12:52:55.008682 21963 net.cpp:411] accuracy -> accuracy
…
