…
I0525 10:54:23.674895 22426 net.cpp:322] The NetState phase (0) differed from the phase (1) specified by a rule in layer data_hdf5
I0525 10:54:23.674954 22426 net.cpp:322] The NetState phase (0) differed from the phase (1) specified by a rule in layer accuracy
I0525 10:54:23.675305 22426 net.cpp:49] Initializing net from parameters: 
name: "caffe_test_127x50_x_unshifted"
state {
  phase: TRAIN
}
layer {
  name: "data_hdf5"
  type: "HDF5Data"
  top: "data"
  top: "label"
  include {
    phase: TRAIN
  }
  hdf5_data_param {
    source: "/lustre/atlas/proj-shared/hep105/caffe_titan/minosmatch_nukecczdefs_127x50_x_unshifted_me1Bmc.trainlist"
    batch_size: 90
  }
}
layer {
  name: "conv1"
  type: "Convolution"
  bottom: "data"
  top: "conv1"
  convolution_param {
    num_output: 12
    pad: 0
    stride: 1
    weight_filler {
      type: "xavier"
    }
    bias_filler {
      type: "constant"
    }
    kernel_h: 8
    kernel_w: 3
  }
}
layer {
  name: "relu1"
  type: "ReLU"
  bottom: "conv1"
  top: "conv1"
}
layer {
  name: "pool1"
  type: "Pooling"
  bottom: "conv1"
  top: "pool1"
  pooling_param {
    pool: MAX
    kernel_h: 2
    kernel_w: 1
    stride_h: 2
    stride_w: 1
  }
}
layer {
  name: "conv2"
  type: "Convolution"
  bottom: "pool1"
  top: "conv2"
  convolution_param {
    num_output: 20
    pad: 0
    stride: 1
    weight_filler {
      type: "xavier"
    }
    bias_filler {
      type: "constant"
    }
    kernel_h: 7
    kernel_w: 3
  }
}
layer {
  name: "relu2"
  type: "ReLU"
  bottom: "conv2"
  top: "conv2"
}
layer {
  name: "pool2"
  type: "Pooling"
  bottom: "conv2"
  top: "pool2"
  pooling_param {
    pool: MAX
    kernel_h: 2
    kernel_w: 1
    stride_h: 2
    stride_w: 1
  }
}
layer {
  name: "conv3"
  type: "Convolution"
  bottom: "pool2"
  top: "conv3"
  convolution_param {
    num_output: 28
    pad: 0
    stride: 1
    weight_filler {
      type: "xavier"
    }
    bias_filler {
      type: "constant"
    }
    kernel_h: 6
    kernel_w: 3
  }
}
layer {
  name: "relu3"
  type: "ReLU"
  bottom: "conv3"
  top: "conv3"
}
layer {
  name: "pool3"
  type: "Pooling"
  bottom: "conv3"
  top: "pool3"
  pooling_param {
    pool: MAX
    kernel_h: 2
    kernel_w: 1
    stride_h: 2
    stride_w: 1
  }
}
layer {
  name: "conv4"
  type: "Convolution"
  bottom: "pool3"
  top: "conv4"
  convolution_param {
    num_output: 36
    pad: 0
    stride: 1
    weight_filler {
      type: "xavier"
    }
    bias_filler {
      type: "constant"
    }
    kernel_h: 6
    kernel_w: 3
  }
}
layer {
  name: "relu4"
  type: "ReLU"
  bottom: "conv4"
  top: "conv4"
}
layer {
  name: "pool4"
  type: "Pooling"
  bottom: "conv4"
  top: "pool4"
  pooling_param {
    pool: MAX
    kernel_h: 2
    kernel_w: 1
    stride_h: 2
    stride_w: 1
  }
}
layer {
  name: "ip1"
  type: "InnerProduct"
  bottom: "pool4"
  top: "ip1"
  inner_product_param {
    num_output: 196
    weight_filler {
      type: "xavier"
    }
    bias_filler {
      type: "constant"
    }
  }
}
layer {
  name: "relu5"
  type: "ReLU"
  bottom: "ip1"
  top: "ip1"
}
layer {
  name: "drop1"
  type: "Dropout"
  bottom: "ip1"
  top: "ip1"
  dropout_param {
    dropout_ratio: 0.5
  }
}
layer {
  name: "ip2"
  type: "InnerProduct"
  bottom: "ip1"
  top: "ip2"
  inner_product_param {
    num_output: 98
    weight_filler {
      type: "xavier"
    }
    bias_filler {
      type: "constant"
    }
  }
}
layer {
  name: "relu6"
  type: "ReLU"
  bottom: "ip2"
  top: "ip2"
}
layer {
  name: "drop2"
  type: "Dropout"
  bottom: "ip2"
  top: "ip2"
  dropout_param {
    dropout_ratio: 0.5
  }
}
layer {
  name: "ip3"
  type: "InnerProduct"
  bottom: "ip2"
  top: "ip3"
  inner_product_param {
    num_output: 11
    weight_filler {
      type: "xavier"
    }
    bias_filler {
      type: "constant"
    }
  }
}
layer {
  name: "drop3"
  type: "Dropout"
  bottom: "ip3"
  top: "ip3"
  dropout_param {
    dropout_ratio: 0.5
  }
}
layer {
  name: "loss"
  type: "SoftmaxWithLoss"
  bottom: "ip3"
  bottom: "label"
  top: "loss"
}
I0525 10:54:23.675484 22426 layer_factory.hpp:77] Creating layer data_hdf5
I0525 10:54:23.675508 22426 net.cpp:106] Creating Layer data_hdf5
I0525 10:54:23.675523 22426 net.cpp:411] data_hdf5 -> data
I0525 10:54:23.675555 22426 net.cpp:411] data_hdf5 -> label
I0525 10:54:23.675587 22426 hdf5_data_layer.cpp:79] Loading list of HDF5 filenames from: /lustre/atlas/proj-shared/hep105/caffe_titan/minosmatch_nukecczdefs_127x50_x_unshifted_me1Bmc.trainlist
I0525 10:54:23.676991 22426 hdf5_data_layer.cpp:93] Number of HDF5 files: 15
I0525 10:54:23.679256 22426 hdf5.cpp:32] Datatype class: H5T_FLOAT
I0525 10:54:45.263025 22426 hdf5.cpp:35] Datatype class: H5T_INTEGER
I0525 10:54:45.268244 22426 net.cpp:150] Setting up data_hdf5
I0525 10:54:45.268283 22426 net.cpp:157] Top shape: 90 1 127 50 (571500)
I0525 10:54:45.268297 22426 net.cpp:157] Top shape: 90 (90)
I0525 10:54:45.268311 22426 net.cpp:165] Memory required for data: 2286360
I0525 10:54:45.268324 22426 layer_factory.hpp:77] Creating layer conv1
I0525 10:54:45.268358 22426 net.cpp:106] Creating Layer conv1
I0525 10:54:45.268369 22426 net.cpp:454] conv1 <- data
I0525 10:54:45.268391 22426 net.cpp:411] conv1 -> conv1
I0525 10:54:45.635874 22426 net.cpp:150] Setting up conv1
I0525 10:54:45.635921 22426 net.cpp:157] Top shape: 90 12 120 48 (6220800)
I0525 10:54:45.635931 22426 net.cpp:165] Memory required for data: 27169560
I0525 10:54:45.635959 22426 layer_factory.hpp:77] Creating layer relu1
I0525 10:54:45.635980 22426 net.cpp:106] Creating Layer relu1
I0525 10:54:45.635992 22426 net.cpp:454] relu1 <- conv1
I0525 10:54:45.636004 22426 net.cpp:397] relu1 -> conv1 (in-place)
I0525 10:54:45.636518 22426 net.cpp:150] Setting up relu1
I0525 10:54:45.636534 22426 net.cpp:157] Top shape: 90 12 120 48 (6220800)
I0525 10:54:45.636544 22426 net.cpp:165] Memory required for data: 52052760
I0525 10:54:45.636555 22426 layer_factory.hpp:77] Creating layer pool1
I0525 10:54:45.636571 22426 net.cpp:106] Creating Layer pool1
I0525 10:54:45.636581 22426 net.cpp:454] pool1 <- conv1
I0525 10:54:45.636595 22426 net.cpp:411] pool1 -> pool1
I0525 10:54:45.636674 22426 net.cpp:150] Setting up pool1
I0525 10:54:45.636688 22426 net.cpp:157] Top shape: 90 12 60 48 (3110400)
I0525 10:54:45.636696 22426 net.cpp:165] Memory required for data: 64494360
I0525 10:54:45.636704 22426 layer_factory.hpp:77] Creating layer conv2
I0525 10:54:45.636726 22426 net.cpp:106] Creating Layer conv2
I0525 10:54:45.636737 22426 net.cpp:454] conv2 <- pool1
I0525 10:54:45.636750 22426 net.cpp:411] conv2 -> conv2
I0525 10:54:45.639477 22426 net.cpp:150] Setting up conv2
I0525 10:54:45.639505 22426 net.cpp:157] Top shape: 90 20 54 46 (4471200)
I0525 10:54:45.639515 22426 net.cpp:165] Memory required for data: 82379160
I0525 10:54:45.639534 22426 layer_factory.hpp:77] Creating layer relu2
I0525 10:54:45.639549 22426 net.cpp:106] Creating Layer relu2
I0525 10:54:45.639559 22426 net.cpp:454] relu2 <- conv2
I0525 10:54:45.639571 22426 net.cpp:397] relu2 -> conv2 (in-place)
I0525 10:54:45.639902 22426 net.cpp:150] Setting up relu2
I0525 10:54:45.639917 22426 net.cpp:157] Top shape: 90 20 54 46 (4471200)
I0525 10:54:45.639927 22426 net.cpp:165] Memory required for data: 100263960
I0525 10:54:45.639937 22426 layer_factory.hpp:77] Creating layer pool2
I0525 10:54:45.639950 22426 net.cpp:106] Creating Layer pool2
I0525 10:54:45.639960 22426 net.cpp:454] pool2 <- conv2
I0525 10:54:45.639972 22426 net.cpp:411] pool2 -> pool2
I0525 10:54:45.640053 22426 net.cpp:150] Setting up pool2
I0525 10:54:45.640066 22426 net.cpp:157] Top shape: 90 20 27 46 (2235600)
I0525 10:54:45.640076 22426 net.cpp:165] Memory required for data: 109206360
I0525 10:54:45.640084 22426 layer_factory.hpp:77] Creating layer conv3
I0525 10:54:45.640102 22426 net.cpp:106] Creating Layer conv3
I0525 10:54:45.640112 22426 net.cpp:454] conv3 <- pool2
I0525 10:54:45.640126 22426 net.cpp:411] conv3 -> conv3
I0525 10:54:45.642047 22426 net.cpp:150] Setting up conv3
I0525 10:54:45.642066 22426 net.cpp:157] Top shape: 90 28 22 44 (2439360)
I0525 10:54:45.642079 22426 net.cpp:165] Memory required for data: 118963800
I0525 10:54:45.642099 22426 layer_factory.hpp:77] Creating layer relu3
I0525 10:54:45.642115 22426 net.cpp:106] Creating Layer relu3
I0525 10:54:45.642125 22426 net.cpp:454] relu3 <- conv3
I0525 10:54:45.642138 22426 net.cpp:397] relu3 -> conv3 (in-place)
I0525 10:54:45.642603 22426 net.cpp:150] Setting up relu3
I0525 10:54:45.642621 22426 net.cpp:157] Top shape: 90 28 22 44 (2439360)
I0525 10:54:45.642632 22426 net.cpp:165] Memory required for data: 128721240
I0525 10:54:45.642642 22426 layer_factory.hpp:77] Creating layer pool3
I0525 10:54:45.642654 22426 net.cpp:106] Creating Layer pool3
I0525 10:54:45.642664 22426 net.cpp:454] pool3 <- conv3
I0525 10:54:45.642678 22426 net.cpp:411] pool3 -> pool3
I0525 10:54:45.642745 22426 net.cpp:150] Setting up pool3
I0525 10:54:45.642757 22426 net.cpp:157] Top shape: 90 28 11 44 (1219680)
I0525 10:54:45.642767 22426 net.cpp:165] Memory required for data: 133599960
I0525 10:54:45.642774 22426 layer_factory.hpp:77] Creating layer conv4
I0525 10:54:45.642792 22426 net.cpp:106] Creating Layer conv4
I0525 10:54:45.642802 22426 net.cpp:454] conv4 <- pool3
I0525 10:54:45.642817 22426 net.cpp:411] conv4 -> conv4
I0525 10:54:45.645764 22426 net.cpp:150] Setting up conv4
I0525 10:54:45.645793 22426 net.cpp:157] Top shape: 90 36 6 42 (816480)
I0525 10:54:45.645804 22426 net.cpp:165] Memory required for data: 136865880
I0525 10:54:45.645819 22426 layer_factory.hpp:77] Creating layer relu4
I0525 10:54:45.645834 22426 net.cpp:106] Creating Layer relu4
I0525 10:54:45.645844 22426 net.cpp:454] relu4 <- conv4
I0525 10:54:45.645858 22426 net.cpp:397] relu4 -> conv4 (in-place)
I0525 10:54:45.646320 22426 net.cpp:150] Setting up relu4
I0525 10:54:45.646337 22426 net.cpp:157] Top shape: 90 36 6 42 (816480)
I0525 10:54:45.646347 22426 net.cpp:165] Memory required for data: 140131800
I0525 10:54:45.646358 22426 layer_factory.hpp:77] Creating layer pool4
I0525 10:54:45.646370 22426 net.cpp:106] Creating Layer pool4
I0525 10:54:45.646380 22426 net.cpp:454] pool4 <- conv4
I0525 10:54:45.646394 22426 net.cpp:411] pool4 -> pool4
I0525 10:54:45.646461 22426 net.cpp:150] Setting up pool4
I0525 10:54:45.646474 22426 net.cpp:157] Top shape: 90 36 3 42 (408240)
I0525 10:54:45.646484 22426 net.cpp:165] Memory required for data: 141764760
I0525 10:54:45.646494 22426 layer_factory.hpp:77] Creating layer ip1
I0525 10:54:45.646514 22426 net.cpp:106] Creating Layer ip1
I0525 10:54:45.646524 22426 net.cpp:454] ip1 <- pool4
I0525 10:54:45.646535 22426 net.cpp:411] ip1 -> ip1
I0525 10:54:45.662142 22426 net.cpp:150] Setting up ip1
I0525 10:54:45.662170 22426 net.cpp:157] Top shape: 90 196 (17640)
I0525 10:54:45.662185 22426 net.cpp:165] Memory required for data: 141835320
I0525 10:54:45.662207 22426 layer_factory.hpp:77] Creating layer relu5
I0525 10:54:45.662222 22426 net.cpp:106] Creating Layer relu5
I0525 10:54:45.662232 22426 net.cpp:454] relu5 <- ip1
I0525 10:54:45.662246 22426 net.cpp:397] relu5 -> ip1 (in-place)
I0525 10:54:45.662588 22426 net.cpp:150] Setting up relu5
I0525 10:54:45.662602 22426 net.cpp:157] Top shape: 90 196 (17640)
I0525 10:54:45.662612 22426 net.cpp:165] Memory required for data: 141905880
I0525 10:54:45.662623 22426 layer_factory.hpp:77] Creating layer drop1
I0525 10:54:45.662644 22426 net.cpp:106] Creating Layer drop1
I0525 10:54:45.662654 22426 net.cpp:454] drop1 <- ip1
I0525 10:54:45.662667 22426 net.cpp:397] drop1 -> ip1 (in-place)
I0525 10:54:45.662726 22426 net.cpp:150] Setting up drop1
I0525 10:54:45.662739 22426 net.cpp:157] Top shape: 90 196 (17640)
I0525 10:54:45.662750 22426 net.cpp:165] Memory required for data: 141976440
I0525 10:54:45.662760 22426 layer_factory.hpp:77] Creating layer ip2
I0525 10:54:45.662777 22426 net.cpp:106] Creating Layer ip2
I0525 10:54:45.662787 22426 net.cpp:454] ip2 <- ip1
I0525 10:54:45.662801 22426 net.cpp:411] ip2 -> ip2
I0525 10:54:45.663264 22426 net.cpp:150] Setting up ip2
I0525 10:54:45.663277 22426 net.cpp:157] Top shape: 90 98 (8820)
I0525 10:54:45.663287 22426 net.cpp:165] Memory required for data: 142011720
I0525 10:54:45.663303 22426 layer_factory.hpp:77] Creating layer relu6
I0525 10:54:45.663316 22426 net.cpp:106] Creating Layer relu6
I0525 10:54:45.663326 22426 net.cpp:454] relu6 <- ip2
I0525 10:54:45.663337 22426 net.cpp:397] relu6 -> ip2 (in-place)
I0525 10:54:45.663857 22426 net.cpp:150] Setting up relu6
I0525 10:54:45.663873 22426 net.cpp:157] Top shape: 90 98 (8820)
I0525 10:54:45.663883 22426 net.cpp:165] Memory required for data: 142047000
I0525 10:54:45.663893 22426 layer_factory.hpp:77] Creating layer drop2
I0525 10:54:45.663908 22426 net.cpp:106] Creating Layer drop2
I0525 10:54:45.663918 22426 net.cpp:454] drop2 <- ip2
I0525 10:54:45.663929 22426 net.cpp:397] drop2 -> ip2 (in-place)
I0525 10:54:45.663972 22426 net.cpp:150] Setting up drop2
I0525 10:54:45.663985 22426 net.cpp:157] Top shape: 90 98 (8820)
I0525 10:54:45.663995 22426 net.cpp:165] Memory required for data: 142082280
I0525 10:54:45.664005 22426 layer_factory.hpp:77] Creating layer ip3
I0525 10:54:45.664018 22426 net.cpp:106] Creating Layer ip3
I0525 10:54:45.664028 22426 net.cpp:454] ip3 <- ip2
I0525 10:54:45.664041 22426 net.cpp:411] ip3 -> ip3
I0525 10:54:45.664248 22426 net.cpp:150] Setting up ip3
I0525 10:54:45.664261 22426 net.cpp:157] Top shape: 90 11 (990)
I0525 10:54:45.664271 22426 net.cpp:165] Memory required for data: 142086240
I0525 10:54:45.664286 22426 layer_factory.hpp:77] Creating layer drop3
I0525 10:54:45.664299 22426 net.cpp:106] Creating Layer drop3
I0525 10:54:45.664309 22426 net.cpp:454] drop3 <- ip3
I0525 10:54:45.664320 22426 net.cpp:397] drop3 -> ip3 (in-place)
I0525 10:54:45.664357 22426 net.cpp:150] Setting up drop3
I0525 10:54:45.664371 22426 net.cpp:157] Top shape: 90 11 (990)
I0525 10:54:45.664381 22426 net.cpp:165] Memory required for data: 142090200
I0525 10:54:45.664391 22426 layer_factory.hpp:77] Creating layer loss
I0525 10:54:45.664407 22426 net.cpp:106] Creating Layer loss
I0525 10:54:45.664417 22426 net.cpp:454] loss <- ip3
I0525 10:54:45.664428 22426 net.cpp:454] loss <- label
I0525 10:54:45.664440 22426 net.cpp:411] loss -> loss
I0525 10:54:45.664458 22426 layer_factory.hpp:77] Creating layer loss
…
I0525 10:54:45.667151 22426 solver.cpp:181] Creating test net (#0) specified by net file: /lustre/atlas/proj-shared/hep105/caffe_titan/caffe_workflow/logs_bslr/bs_90_lr_0.0045_2016-05-20T15.49.23.235180.prototxt
I0525 10:54:45.667297 22426 net.cpp:322] The NetState phase (1) differed from the phase (0) specified by a rule in layer data_hdf5
I0525 10:54:45.667651 22426 net.cpp:49] Initializing net from parameters: 
name: "caffe_test_127x50_x_unshifted"
state {
  phase: TEST
}
layer {
  name: "data_hdf5"
  type: "HDF5Data"
  top: "data"
  top: "label"
  include {
    phase: TEST
  }
  hdf5_data_param {
    source: "/lustre/atlas/proj-shared/hep105/caffe_titan/minosmatch_nukecczdefs_127x50_x_unshifted_me1Bmc.testlist"
    batch_size: 90
  }
}
layer {
  name: "conv1"
  type: "Convolution"
  bottom: "data"
  top: "conv1"
  convolution_param {
    num_output: 12
    pad: 0
    stride: 1
    weight_filler {
      type: "xavier"
    }
    bias_filler {
      type: "constant"
    }
    kernel_h: 8
    kernel_w: 3
  }
}
layer {
  name: "relu1"
  type: "ReLU"
  bottom: "conv1"
  top: "conv1"
}
layer {
  name: "pool1"
  type: "Pooling"
  bottom: "conv1"
  top: "pool1"
  pooling_param {
    pool: MAX
    kernel_h: 2
    kernel_w: 1
    stride_h: 2
    stride_w: 1
  }
}
layer {
  name: "conv2"
  type: "Convolution"
  bottom: "pool1"
  top: "conv2"
  convolution_param {
    num_output: 20
    pad: 0
    stride: 1
    weight_filler {
      type: "xavier"
    }
    bias_filler {
      type: "constant"
    }
    kernel_h: 7
    kernel_w: 3
  }
}
layer {
  name: "relu2"
  type: "ReLU"
  bottom: "conv2"
  top: "conv2"
}
layer {
  name: "pool2"
  type: "Pooling"
  bottom: "conv2"
  top: "pool2"
  pooling_param {
    pool: MAX
    kernel_h: 2
    kernel_w: 1
    stride_h: 2
    stride_w: 1
  }
}
layer {
  name: "conv3"
  type: "Convolution"
  bottom: "pool2"
  top: "conv3"
  convolution_param {
    num_output: 28
    pad: 0
    stride: 1
    weight_filler {
      type: "xavier"
    }
    bias_filler {
      type: "constant"
    }
    kernel_h: 6
    kernel_w: 3
  }
}
layer {
  name: "relu3"
  type: "ReLU"
  bottom: "conv3"
  top: "conv3"
}
layer {
  name: "pool3"
  type: "Pooling"
  bottom: "conv3"
  top: "pool3"
  pooling_param {
    pool: MAX
    kernel_h: 2
    kernel_w: 1
    stride_h: 2
    stride_w: 1
  }
}
layer {
  name: "conv4"
  type: "Convolution"
  bottom: "pool3"
  top: "conv4"
  convolution_param {
    num_output: 36
    pad: 0
    stride: 1
    weight_filler {
      type: "xavier"
    }
    bias_filler {
      type: "constant"
    }
    kernel_h: 6
    kernel_w: 3
  }
}
layer {
  name: "relu4"
  type: "ReLU"
  bottom: "conv4"
  top: "conv4"
}
layer {
  name: "pool4"
  type: "Pooling"
  bottom: "conv4"
  top: "pool4"
  pooling_param {
    pool: MAX
    kernel_h: 2
    kernel_w: 1
    stride_h: 2
    stride_w: 1
  }
}
layer {
  name: "ip1"
  type: "InnerProduct"
  bottom: "pool4"
  top: "ip1"
  inner_product_param {
    num_output: 196
    weight_filler {
      type: "xavier"
    }
    bias_filler {
      type: "constant"
    }
  }
}
layer {
  name: "relu5"
  type: "ReLU"
  bottom: "ip1"
  top: "ip1"
}
layer {
  name: "drop1"
  type: "Dropout"
  bottom: "ip1"
  top: "ip1"
  dropout_param {
    dropout_ratio: 0.5
  }
}
layer {
  name: "ip2"
  type: "InnerProduct"
  bottom: "ip1"
  top: "ip2"
  inner_product_param {
    num_output: 98
    weight_filler {
      type: "xavier"
    }
    bias_filler {
      type: "constant"
    }
  }
}
layer {
  name: "relu6"
  type: "ReLU"
  bottom: "ip2"
  top: "ip2"
}
layer {
  name: "drop2"
  type: "Dropout"
  bottom: "ip2"
  top: "ip2"
  dropout_param {
    dropout_ratio: 0.5
  }
}
layer {
  name: "ip3"
  type: "InnerProduct"
  bottom: "ip2"
  top: "ip3"
  inner_product_param {
    num_output: 11
    weight_filler {
      type: "xavier"
    }
    bias_filler {
      type: "constant"
    }
  }
}
layer {
  name: "drop3"
  type: "Dropout"
  bottom: "ip3"
  top: "ip3"
  dropout_param {
    dropout_ratio: 0.5
  }
}
layer {
  name: "accuracy"
  type: "Accuracy"
  bottom: "ip3"
  bottom: "label"
  top: "accuracy"
  include {
    phase: TEST
  }
}
layer {
  name: "loss"
  type: "SoftmaxWithLoss"
  bottom: "ip3"
  bottom: "label"
  top: "loss"
}
I0525 10:54:45.667842 22426 layer_factory.hpp:77] Creating layer data_hdf5
I0525 10:54:45.667857 22426 net.cpp:106] Creating Layer data_hdf5
I0525 10:54:45.667870 22426 net.cpp:411] data_hdf5 -> data
I0525 10:54:45.667886 22426 net.cpp:411] data_hdf5 -> label
I0525 10:54:45.667903 22426 hdf5_data_layer.cpp:79] Loading list of HDF5 filenames from: /lustre/atlas/proj-shared/hep105/caffe_titan/minosmatch_nukecczdefs_127x50_x_unshifted_me1Bmc.testlist
I0525 10:54:45.669160 22426 hdf5_data_layer.cpp:93] Number of HDF5 files: 3
I0525 10:55:07.015331 22426 net.cpp:150] Setting up data_hdf5
I0525 10:55:07.015496 22426 net.cpp:157] Top shape: 90 1 127 50 (571500)
I0525 10:55:07.015509 22426 net.cpp:157] Top shape: 90 (90)
I0525 10:55:07.015522 22426 net.cpp:165] Memory required for data: 2286360
I0525 10:55:07.015534 22426 layer_factory.hpp:77] Creating layer label_data_hdf5_1_split
I0525 10:55:07.015563 22426 net.cpp:106] Creating Layer label_data_hdf5_1_split
I0525 10:55:07.015573 22426 net.cpp:454] label_data_hdf5_1_split <- label
I0525 10:55:07.015588 22426 net.cpp:411] label_data_hdf5_1_split -> label_data_hdf5_1_split_0
I0525 10:55:07.015609 22426 net.cpp:411] label_data_hdf5_1_split -> label_data_hdf5_1_split_1
I0525 10:55:07.015683 22426 net.cpp:150] Setting up label_data_hdf5_1_split
I0525 10:55:07.015697 22426 net.cpp:157] Top shape: 90 (90)
I0525 10:55:07.015709 22426 net.cpp:157] Top shape: 90 (90)
I0525 10:55:07.015718 22426 net.cpp:165] Memory required for data: 2287080
I0525 10:55:07.015728 22426 layer_factory.hpp:77] Creating layer conv1
I0525 10:55:07.015750 22426 net.cpp:106] Creating Layer conv1
I0525 10:55:07.015760 22426 net.cpp:454] conv1 <- data
I0525 10:55:07.015775 22426 net.cpp:411] conv1 -> conv1
I0525 10:55:07.017736 22426 net.cpp:150] Setting up conv1
I0525 10:55:07.017760 22426 net.cpp:157] Top shape: 90 12 120 48 (6220800)
I0525 10:55:07.017772 22426 net.cpp:165] Memory required for data: 27170280
I0525 10:55:07.017792 22426 layer_factory.hpp:77] Creating layer relu1
I0525 10:55:07.017807 22426 net.cpp:106] Creating Layer relu1
I0525 10:55:07.017817 22426 net.cpp:454] relu1 <- conv1
I0525 10:55:07.017830 22426 net.cpp:397] relu1 -> conv1 (in-place)
I0525 10:55:07.018327 22426 net.cpp:150] Setting up relu1
I0525 10:55:07.018344 22426 net.cpp:157] Top shape: 90 12 120 48 (6220800)
I0525 10:55:07.018354 22426 net.cpp:165] Memory required for data: 52053480
I0525 10:55:07.018365 22426 layer_factory.hpp:77] Creating layer pool1
I0525 10:55:07.018381 22426 net.cpp:106] Creating Layer pool1
I0525 10:55:07.018390 22426 net.cpp:454] pool1 <- conv1
I0525 10:55:07.018404 22426 net.cpp:411] pool1 -> pool1
I0525 10:55:07.018478 22426 net.cpp:150] Setting up pool1
I0525 10:55:07.018492 22426 net.cpp:157] Top shape: 90 12 60 48 (3110400)
I0525 10:55:07.018501 22426 net.cpp:165] Memory required for data: 64495080
I0525 10:55:07.018512 22426 layer_factory.hpp:77] Creating layer conv2
I0525 10:55:07.018529 22426 net.cpp:106] Creating Layer conv2
I0525 10:55:07.018540 22426 net.cpp:454] conv2 <- pool1
I0525 10:55:07.018554 22426 net.cpp:411] conv2 -> conv2
I0525 10:55:07.020465 22426 net.cpp:150] Setting up conv2
I0525 10:55:07.020488 22426 net.cpp:157] Top shape: 90 20 54 46 (4471200)
I0525 10:55:07.020500 22426 net.cpp:165] Memory required for data: 82379880
I0525 10:55:07.020517 22426 layer_factory.hpp:77] Creating layer relu2
I0525 10:55:07.020531 22426 net.cpp:106] Creating Layer relu2
I0525 10:55:07.020541 22426 net.cpp:454] relu2 <- conv2
I0525 10:55:07.020553 22426 net.cpp:397] relu2 -> conv2 (in-place)
I0525 10:55:07.020889 22426 net.cpp:150] Setting up relu2
I0525 10:55:07.020903 22426 net.cpp:157] Top shape: 90 20 54 46 (4471200)
I0525 10:55:07.020913 22426 net.cpp:165] Memory required for data: 100264680
I0525 10:55:07.020923 22426 layer_factory.hpp:77] Creating layer pool2
I0525 10:55:07.020936 22426 net.cpp:106] Creating Layer pool2
I0525 10:55:07.020946 22426 net.cpp:454] pool2 <- conv2
I0525 10:55:07.020967 22426 net.cpp:411] pool2 -> pool2
I0525 10:55:07.021039 22426 net.cpp:150] Setting up pool2
I0525 10:55:07.021052 22426 net.cpp:157] Top shape: 90 20 27 46 (2235600)
I0525 10:55:07.021062 22426 net.cpp:165] Memory required for data: 109207080
I0525 10:55:07.021072 22426 layer_factory.hpp:77] Creating layer conv3
I0525 10:55:07.021092 22426 net.cpp:106] Creating Layer conv3
I0525 10:55:07.021102 22426 net.cpp:454] conv3 <- pool2
I0525 10:55:07.021116 22426 net.cpp:411] conv3 -> conv3
I0525 10:55:07.023092 22426 net.cpp:150] Setting up conv3
I0525 10:55:07.023110 22426 net.cpp:157] Top shape: 90 28 22 44 (2439360)
I0525 10:55:07.023120 22426 net.cpp:165] Memory required for data: 118964520
I0525 10:55:07.023154 22426 layer_factory.hpp:77] Creating layer relu3
I0525 10:55:07.023166 22426 net.cpp:106] Creating Layer relu3
I0525 10:55:07.023176 22426 net.cpp:454] relu3 <- conv3
I0525 10:55:07.023190 22426 net.cpp:397] relu3 -> conv3 (in-place)
I0525 10:55:07.023658 22426 net.cpp:150] Setting up relu3
I0525 10:55:07.023674 22426 net.cpp:157] Top shape: 90 28 22 44 (2439360)
I0525 10:55:07.023684 22426 net.cpp:165] Memory required for data: 128721960
I0525 10:55:07.023694 22426 layer_factory.hpp:77] Creating layer pool3
I0525 10:55:07.023707 22426 net.cpp:106] Creating Layer pool3
I0525 10:55:07.023717 22426 net.cpp:454] pool3 <- conv3
I0525 10:55:07.023730 22426 net.cpp:411] pool3 -> pool3
I0525 10:55:07.023800 22426 net.cpp:150] Setting up pool3
I0525 10:55:07.023813 22426 net.cpp:157] Top shape: 90 28 11 44 (1219680)
I0525 10:55:07.023823 22426 net.cpp:165] Memory required for data: 133600680
I0525 10:55:07.023833 22426 layer_factory.hpp:77] Creating layer conv4
I0525 10:55:07.023851 22426 net.cpp:106] Creating Layer conv4
I0525 10:55:07.023861 22426 net.cpp:454] conv4 <- pool3
I0525 10:55:07.023874 22426 net.cpp:411] conv4 -> conv4
I0525 10:55:07.025959 22426 net.cpp:150] Setting up conv4
I0525 10:55:07.025975 22426 net.cpp:157] Top shape: 90 36 6 42 (816480)
I0525 10:55:07.025985 22426 net.cpp:165] Memory required for data: 136866600
I0525 10:55:07.026002 22426 layer_factory.hpp:77] Creating layer relu4
I0525 10:55:07.026016 22426 net.cpp:106] Creating Layer relu4
I0525 10:55:07.026026 22426 net.cpp:454] relu4 <- conv4
I0525 10:55:07.026039 22426 net.cpp:397] relu4 -> conv4 (in-place)
I0525 10:55:07.026515 22426 net.cpp:150] Setting up relu4
I0525 10:55:07.026530 22426 net.cpp:157] Top shape: 90 36 6 42 (816480)
I0525 10:55:07.026540 22426 net.cpp:165] Memory required for data: 140132520
I0525 10:55:07.026551 22426 layer_factory.hpp:77] Creating layer pool4
I0525 10:55:07.026563 22426 net.cpp:106] Creating Layer pool4
I0525 10:55:07.026573 22426 net.cpp:454] pool4 <- conv4
I0525 10:55:07.026587 22426 net.cpp:411] pool4 -> pool4
I0525 10:55:07.026657 22426 net.cpp:150] Setting up pool4
I0525 10:55:07.026670 22426 net.cpp:157] Top shape: 90 36 3 42 (408240)
I0525 10:55:07.026680 22426 net.cpp:165] Memory required for data: 141765480
I0525 10:55:07.026690 22426 layer_factory.hpp:77] Creating layer ip1
I0525 10:55:07.026705 22426 net.cpp:106] Creating Layer ip1
I0525 10:55:07.026715 22426 net.cpp:454] ip1 <- pool4
I0525 10:55:07.026729 22426 net.cpp:411] ip1 -> ip1
I0525 10:55:07.042248 22426 net.cpp:150] Setting up ip1
I0525 10:55:07.042276 22426 net.cpp:157] Top shape: 90 196 (17640)
I0525 10:55:07.042289 22426 net.cpp:165] Memory required for data: 141836040
I0525 10:55:07.042311 22426 layer_factory.hpp:77] Creating layer relu5
I0525 10:55:07.042326 22426 net.cpp:106] Creating Layer relu5
I0525 10:55:07.042336 22426 net.cpp:454] relu5 <- ip1
I0525 10:55:07.042351 22426 net.cpp:397] relu5 -> ip1 (in-place)
I0525 10:55:07.042701 22426 net.cpp:150] Setting up relu5
I0525 10:55:07.042714 22426 net.cpp:157] Top shape: 90 196 (17640)
I0525 10:55:07.042723 22426 net.cpp:165] Memory required for data: 141906600
I0525 10:55:07.042733 22426 layer_factory.hpp:77] Creating layer drop1
I0525 10:55:07.042752 22426 net.cpp:106] Creating Layer drop1
I0525 10:55:07.042762 22426 net.cpp:454] drop1 <- ip1
I0525 10:55:07.042775 22426 net.cpp:397] drop1 -> ip1 (in-place)
I0525 10:55:07.042824 22426 net.cpp:150] Setting up drop1
I0525 10:55:07.042836 22426 net.cpp:157] Top shape: 90 196 (17640)
I0525 10:55:07.042847 22426 net.cpp:165] Memory required for data: 141977160
I0525 10:55:07.042856 22426 layer_factory.hpp:77] Creating layer ip2
I0525 10:55:07.042871 22426 net.cpp:106] Creating Layer ip2
I0525 10:55:07.042881 22426 net.cpp:454] ip2 <- ip1
I0525 10:55:07.042896 22426 net.cpp:411] ip2 -> ip2
I0525 10:55:07.043373 22426 net.cpp:150] Setting up ip2
I0525 10:55:07.043386 22426 net.cpp:157] Top shape: 90 98 (8820)
I0525 10:55:07.043396 22426 net.cpp:165] Memory required for data: 142012440
I0525 10:55:07.043412 22426 layer_factory.hpp:77] Creating layer relu6
I0525 10:55:07.043438 22426 net.cpp:106] Creating Layer relu6
I0525 10:55:07.043448 22426 net.cpp:454] relu6 <- ip2
I0525 10:55:07.043462 22426 net.cpp:397] relu6 -> ip2 (in-place)
I0525 10:55:07.043998 22426 net.cpp:150] Setting up relu6
I0525 10:55:07.044014 22426 net.cpp:157] Top shape: 90 98 (8820)
I0525 10:55:07.044024 22426 net.cpp:165] Memory required for data: 142047720
I0525 10:55:07.044035 22426 layer_factory.hpp:77] Creating layer drop2
I0525 10:55:07.044049 22426 net.cpp:106] Creating Layer drop2
I0525 10:55:07.044059 22426 net.cpp:454] drop2 <- ip2
I0525 10:55:07.044072 22426 net.cpp:397] drop2 -> ip2 (in-place)
I0525 10:55:07.044116 22426 net.cpp:150] Setting up drop2
I0525 10:55:07.044129 22426 net.cpp:157] Top shape: 90 98 (8820)
I0525 10:55:07.044138 22426 net.cpp:165] Memory required for data: 142083000
I0525 10:55:07.044148 22426 layer_factory.hpp:77] Creating layer ip3
I0525 10:55:07.044163 22426 net.cpp:106] Creating Layer ip3
I0525 10:55:07.044173 22426 net.cpp:454] ip3 <- ip2
I0525 10:55:07.044186 22426 net.cpp:411] ip3 -> ip3
I0525 10:55:07.044409 22426 net.cpp:150] Setting up ip3
I0525 10:55:07.044422 22426 net.cpp:157] Top shape: 90 11 (990)
I0525 10:55:07.044431 22426 net.cpp:165] Memory required for data: 142086960
I0525 10:55:07.044447 22426 layer_factory.hpp:77] Creating layer drop3
I0525 10:55:07.044461 22426 net.cpp:106] Creating Layer drop3
I0525 10:55:07.044471 22426 net.cpp:454] drop3 <- ip3
I0525 10:55:07.044483 22426 net.cpp:397] drop3 -> ip3 (in-place)
I0525 10:55:07.044525 22426 net.cpp:150] Setting up drop3
I0525 10:55:07.044538 22426 net.cpp:157] Top shape: 90 11 (990)
I0525 10:55:07.044548 22426 net.cpp:165] Memory required for data: 142090920
I0525 10:55:07.044558 22426 layer_factory.hpp:77] Creating layer ip3_drop3_0_split
I0525 10:55:07.044570 22426 net.cpp:106] Creating Layer ip3_drop3_0_split
I0525 10:55:07.044580 22426 net.cpp:454] ip3_drop3_0_split <- ip3
I0525 10:55:07.044594 22426 net.cpp:411] ip3_drop3_0_split -> ip3_drop3_0_split_0
I0525 10:55:07.044608 22426 net.cpp:411] ip3_drop3_0_split -> ip3_drop3_0_split_1
I0525 10:55:07.044682 22426 net.cpp:150] Setting up ip3_drop3_0_split
I0525 10:55:07.044695 22426 net.cpp:157] Top shape: 90 11 (990)
I0525 10:55:07.044708 22426 net.cpp:157] Top shape: 90 11 (990)
I0525 10:55:07.044718 22426 net.cpp:165] Memory required for data: 142098840
I0525 10:55:07.044725 22426 layer_factory.hpp:77] Creating layer accuracy
I0525 10:55:07.044747 22426 net.cpp:106] Creating Layer accuracy
I0525 10:55:07.044756 22426 net.cpp:454] accuracy <- ip3_drop3_0_split_0
I0525 10:55:07.044769 22426 net.cpp:454] accuracy <- label_data_hdf5_1_split_0
I0525 10:55:07.044781 22426 net.cpp:411] accuracy -> accuracy
…
