…
I0531 15:25:21.945596 30715 net.cpp:322] The NetState phase (0) differed from the phase (1) specified by a rule in layer data
I0531 15:25:21.945683 30715 net.cpp:322] The NetState phase (0) differed from the phase (1) specified by a rule in layer accuracy
I0531 15:25:21.946444 30715 net.cpp:49] Initializing net from parameters: 
name: "epsilon_127x50_xuv"
state {
  phase: TRAIN
}
layer {
  name: "data"
  type: "HDF5Data"
  top: "hits-x"
  top: "hits-u"
  top: "hits-v"
  top: "segments"
  include {
    phase: TRAIN
  }
  hdf5_data_param {
    source: "/lustre/atlas/proj-shared/hep105/caffe_titan/xuv/epsilon_127x50_xuv.trainlist"
    batch_size: 100
  }
}
layer {
  name: "conv_x1"
  type: "Convolution"
  bottom: "hits-x"
  top: "conv_x1"
  convolution_param {
    num_output: 12
    pad: 0
    stride: 1
    weight_filler {
      type: "xavier"
    }
    bias_filler {
      type: "constant"
    }
    kernel_h: 8
    kernel_w: 3
  }
}
layer {
  name: "relu_x1"
  type: "ReLU"
  bottom: "conv_x1"
  top: "conv_x1"
}
layer {
  name: "pool_x1"
  type: "Pooling"
  bottom: "conv_x1"
  top: "pool_x1"
  pooling_param {
    pool: MAX
    kernel_h: 2
    kernel_w: 1
    stride_h: 2
    stride_w: 1
  }
}
layer {
  name: "conv_x2"
  type: "Convolution"
  bottom: "pool_x1"
  top: "conv_x2"
  convolution_param {
    num_output: 20
    pad: 0
    stride: 1
    weight_filler {
      type: "xavier"
    }
    bias_filler {
      type: "constant"
    }
    kernel_h: 7
    kernel_w: 3
  }
}
layer {
  name: "relu_x2"
  type: "ReLU"
  bottom: "conv_x2"
  top: "conv_x2"
}
layer {
  name: "pool_x2"
  type: "Pooling"
  bottom: "conv_x2"
  top: "pool_x2"
  pooling_param {
    pool: MAX
    kernel_h: 2
    kernel_w: 1
    stride_h: 2
    stride_w: 1
  }
}
layer {
  name: "conv_x3"
  type: "Convolution"
  bottom: "pool_x2"
  top: "conv_x3"
  convolution_param {
    num_output: 28
    pad: 0
    stride: 1
    weight_filler {
      type: "xavier"
    }
    bias_filler {
      type: "constant"
    }
    kernel_h: 6
    kernel_w: 3
  }
}
layer {
  name: "relu_x3"
  type: "ReLU"
  bottom: "conv_x3"
  top: "conv_x3"
}
layer {
  name: "pool_x3"
  type: "Pooling"
  bottom: "conv_x3"
  top: "pool_x3"
  pooling_param {
    pool: MAX
    kernel_h: 2
    kernel_w: 1
    stride_h: 2
    stride_w: 1
  }
}
layer {
  name: "conv_x4"
  type: "Convolution"
  bottom: "pool_x3"
  top: "conv_x4"
  convolution_param {
    num_output: 36
    pad: 0
    stride: 1
    weight_filler {
      type: "xavier"
    }
    bias_filler {
      type: "constant"
    }
    kernel_h: 6
    kernel_w: 3
  }
}
layer {
  name: "relu_x4"
  type: "ReLU"
  bottom: "conv_x4"
  top: "conv_x4"
}
layer {
  name: "pool_x4"
  type: "Pooling"
  bottom: "conv_x4"
  top: "pool_x4"
  pooling_param {
    pool: MAX
    kernel_h: 2
    kernel_w: 1
    stride_h: 2
    stride_w: 1
  }
}
layer {
  name: "dl_x1"
  type: "InnerProduct"
  bottom: "pool_x4"
  top: "dl_x1"
  inner_product_param {
    num_output: 196
    weight_filler {
      type: "xavier"
    }
    bias_filler {
      type: "constant"
    }
  }
}
layer {
  name: "relu_x5"
  type: "ReLU"
  bottom: "dl_x1"
  top: "dl_x1"
}
layer {
  name: "drop_x1"
  type: "Dropout"
  bottom: "dl_x1"
  top: "dl_x1"
  dropout_param {
    dropout_ratio: 0.5
  }
}
layer {
  name: "conv_u1"
  type: "Convolution"
  bottom: "hits-u"
  top: "conv_u1"
  convolution_param {
    num_output: 12
    pad: 0
    stride: 1
    weight_filler {
      type: "xavier"
    }
    bias_filler {
      type: "constant"
    }
    kernel_h: 8
    kernel_w: 3
  }
}
layer {
  name: "relu_u1"
  type: "ReLU"
  bottom: "conv_u1"
  top: "conv_u1"
}
layer {
  name: "pool_u1"
  type: "Pooling"
  bottom: "conv_u1"
  top: "pool_u1"
  pooling_param {
    pool: MAX
    kernel_h: 2
    kernel_w: 1
    stride_h: 2
    stride_w: 1
  }
}
layer {
  name: "conv_u2"
  type: "Convolution"
  bottom: "pool_u1"
  top: "conv_u2"
  convolution_param {
    num_output: 20
    pad: 0
    stride: 1
    weight_filler {
      type: "xavier"
    }
    bias_filler {
      type: "constant"
    }
    kernel_h: 7
    kernel_w: 3
  }
}
layer {
  name: "relu_u2"
  type: "ReLU"
  bottom: "conv_u2"
  top: "conv_u2"
}
layer {
  name: "pool_u2"
  type: "Pooling"
  bottom: "conv_u2"
  top: "pool_u2"
  pooling_param {
    pool: MAX
    kernel_h: 2
    kernel_w: 1
    stride_h: 2
    stride_w: 1
  }
}
layer {
  name: "conv_u3"
  type: "Convolution"
  bottom: "pool_u2"
  top: "conv_u3"
  convolution_param {
    num_output: 28
    pad: 0
    stride: 1
    weight_filler {
      type: "xavier"
    }
    bias_filler {
      type: "constant"
    }
    kernel_h: 6
    kernel_w: 3
  }
}
layer {
  name: "relu_u3"
  type: "ReLU"
  bottom: "conv_u3"
  top: "conv_u3"
}
layer {
  name: "pool_u3"
  type: "Pooling"
  bottom: "conv_u3"
  top: "pool_u3"
  pooling_param {
    pool: MAX
    kernel_h: 2
    kernel_w: 1
    stride_h: 2
    stride_w: 1
  }
}
layer {
  name: "conv_u4"
  type: "Convolution"
  bottom: "pool_u3"
  top: "conv_u4"
  convolution_param {
    num_output: 36
    pad: 0
    stride: 1
    weight_filler {
      type: "xavier"
    }
    bias_filler {
      type: "constant"
    }
    kernel_h: 6
    kernel_w: 3
  }
}
layer {
  name: "relu_u4"
  type: "ReLU"
  bottom: "conv_u4"
  top: "conv_u4"
}
layer {
  name: "pool_u4"
  type: "Pooling"
  bottom: "conv_u4"
  top: "pool_u4"
  pooling_param {
    pool: MAX
    kernel_h: 2
    kernel_w: 1
    stride_h: 2
    stride_w: 1
  }
}
layer {
  name: "dl_u1"
  type: "InnerProduct"
  bottom: "pool_u4"
  top: "dl_u1"
  inner_product_param {
    num_output: 196
    weight_filler {
      type: "xavier"
    }
    bias_filler {
      type: "constant"
    }
  }
}
layer {
  name: "relu_u5"
  type: "ReLU"
  bottom: "dl_u1"
  top: "dl_u1"
}
layer {
  name: "drop_u1"
  type: "Dropout"
  bottom: "dl_u1"
  top: "dl_u1"
  dropout_param {
    dropout_ratio: 0.5
  }
}
layer {
  name: "conv_v1"
  type: "Convolution"
  bottom: "hits-v"
  top: "conv_v1"
  convolution_param {
    num_output: 12
    pad: 0
    stride: 1
    weight_filler {
      type: "xavier"
    }
    bias_filler {
      type: "constant"
    }
    kernel_h: 8
    kernel_w: 3
  }
}
layer {
  name: "relu_v1"
  type: "ReLU"
  bottom: "conv_v1"
  top: "conv_v1"
}
layer {
  name: "pool_v1"
  type: "Pooling"
  bottom: "conv_v1"
  top: "pool_v1"
  pooling_param {
    pool: MAX
    kernel_h: 2
    kernel_w: 1
    stride_h: 2
    stride_w: 1
  }
}
layer {
  name: "conv_v2"
  type: "Convolution"
  bottom: "pool_v1"
  top: "conv_v2"
  convolution_param {
    num_output: 20
    pad: 0
    stride: 1
    weight_filler {
      type: "xavier"
    }
    bias_filler {
      type: "constant"
    }
    kernel_h: 7
    kernel_w: 3
  }
}
layer {
  name: "relu_v2"
  type: "ReLU"
  bottom: "conv_v2"
  top: "conv_v2"
}
layer {
  name: "pool_v2"
  type: "Pooling"
  bottom: "conv_v2"
  top: "pool_v2"
  pooling_param {
    pool: MAX
    kernel_h: 2
    kernel_w: 1
    stride_h: 2
    stride_w: 1
  }
}
layer {
  name: "conv_v3"
  type: "Convolution"
  bottom: "pool_v2"
  top: "conv_v3"
  convolution_param {
    num_output: 28
    pad: 0
    stride: 1
    weight_filler {
      type: "xavier"
    }
    bias_filler {
      type: "constant"
    }
    kernel_h: 6
    kernel_w: 3
  }
}
layer {
  name: "relu_v3"
  type: "ReLU"
  bottom: "conv_v3"
  top: "conv_v3"
}
layer {
  name: "pool_v3"
  type: "Pooling"
  bottom: "conv_v3"
  top: "pool_v3"
  pooling_param {
    pool: MAX
    kernel_h: 2
    kernel_w: 1
    stride_h: 2
    stride_w: 1
  }
}
layer {
  name: "conv_v4"
  type: "Convolution"
  bottom: "pool_v3"
  top: "conv_v4"
  convolution_param {
    num_output: 36
    pad: 0
    stride: 1
    weight_filler {
      type: "xavier"
    }
    bias_filler {
      type: "constant"
    }
    kernel_h: 6
    kernel_w: 3
  }
}
layer {
  name: "relu_v4"
  type: "ReLU"
  bottom: "conv_v4"
  top: "conv_v4"
}
layer {
  name: "pool_v4"
  type: "Pooling"
  bottom: "conv_v4"
  top: "pool_v4"
  pooling_param {
    pool: MAX
    kernel_h: 2
    kernel_w: 1
    stride_h: 2
    stride_w: 1
  }
}
layer {
  name: "dl_v1"
  type: "InnerProduct"
  bottom: "pool_v4"
  top: "dl_v1"
  inner_product_param {
    num_output: 196
    weight_filler {
      type: "xavier"
    }
    bias_filler {
      type: "constant"
    }
  }
}
layer {
  name: "relu_v5"
  type: "ReLU"
  bottom: "dl_v1"
  top: "dl_v1"
}
layer {
  name: "drop_v1"
  type: "Dropout"
  bottom: "dl_v1"
  top: "dl_v1"
  dropout_param {
    dropout_ratio: 0.5
  }
}
layer {
  name: "concat_xuv"
  type: "Concat"
  bottom: "dl_x1"
  bottom: "dl_u1"
  bottom: "dl_v1"
  top: "concat_xuv"
  concat_param {
    axis: 1
  }
}
layer {
  name: "dl_xuv"
  type: "InnerProduct"
  bottom: "concat_xuv"
  top: "dl_xuv"
  inner_product_param {
    num_output: 98
    weight_filler {
      type: "xavier"
    }
    bias_filler {
      type: "constant"
    }
  }
}
layer {
  name: "relu_xuv"
  type: "ReLU"
  bottom: "dl_xuv"
  top: "dl_xuv"
}
layer {
  name: "drop_xuv"
  type: "Dropout"
  bottom: "dl_xuv"
  top: "dl_xuv"
  dropout_param {
    dropout_ratio: 0.5
  }
}
layer {
  name: "output"
  type: "InnerProduct"
  bottom: "dl_xuv"
  top: "output"
  inner_product_param {
    num_output: 11
    weight_filler {
      type: "xavier"
    }
    bias_filler {
      type: "constant"
    }
  }
}
layer {
  name: "drop_output"
  type: "Dropout"
  bottom: "output"
  top: "output"
  dropout_param {
    dropout_ratio: 0.5
  }
}
layer {
  name: "loss"
  type: "SoftmaxWithLoss"
  bottom: "output"
  bottom: "segments"
  top: "loss"
}
I0531 15:25:21.946805 30715 layer_factory.hpp:77] Creating layer data
I0531 15:25:21.946828 30715 net.cpp:106] Creating Layer data
I0531 15:25:21.946843 30715 net.cpp:411] data -> hits-x
I0531 15:25:21.946877 30715 net.cpp:411] data -> hits-u
I0531 15:25:21.946899 30715 net.cpp:411] data -> hits-v
I0531 15:25:21.946914 30715 net.cpp:411] data -> segments
I0531 15:25:21.946943 30715 hdf5_data_layer.cpp:79] Loading list of HDF5 filenames from: /lustre/atlas/proj-shared/hep105/caffe_titan/xuv/epsilon_127x50_xuv.trainlist
I0531 15:25:21.959537 30715 hdf5_data_layer.cpp:93] Number of HDF5 files: 15
I0531 15:25:21.996568 30715 hdf5.cpp:32] Datatype class: H5T_FLOAT
I0531 15:26:26.238176 30715 hdf5.cpp:35] Datatype class: H5T_INTEGER
I0531 15:26:26.243861 30715 net.cpp:150] Setting up data
I0531 15:26:26.243901 30715 net.cpp:157] Top shape: 100 1 127 50 (635000)
I0531 15:26:26.243916 30715 net.cpp:157] Top shape: 100 1 127 50 (635000)
I0531 15:26:26.243929 30715 net.cpp:157] Top shape: 100 1 127 50 (635000)
I0531 15:26:26.243942 30715 net.cpp:157] Top shape: 100 (100)
I0531 15:26:26.243952 30715 net.cpp:165] Memory required for data: 7620400
I0531 15:26:26.243966 30715 layer_factory.hpp:77] Creating layer conv_x1
I0531 15:26:26.244000 30715 net.cpp:106] Creating Layer conv_x1
I0531 15:26:26.244012 30715 net.cpp:454] conv_x1 <- hits-x
I0531 15:26:26.244035 30715 net.cpp:411] conv_x1 -> conv_x1
I0531 15:26:29.946137 30715 net.cpp:150] Setting up conv_x1
I0531 15:26:29.946182 30715 net.cpp:157] Top shape: 100 12 120 48 (6912000)
I0531 15:26:29.946194 30715 net.cpp:165] Memory required for data: 35268400
I0531 15:26:29.946225 30715 layer_factory.hpp:77] Creating layer relu_x1
I0531 15:26:29.946247 30715 net.cpp:106] Creating Layer relu_x1
I0531 15:26:29.946259 30715 net.cpp:454] relu_x1 <- conv_x1
I0531 15:26:29.946274 30715 net.cpp:397] relu_x1 -> conv_x1 (in-place)
I0531 15:26:29.946794 30715 net.cpp:150] Setting up relu_x1
I0531 15:26:29.946811 30715 net.cpp:157] Top shape: 100 12 120 48 (6912000)
I0531 15:26:29.946822 30715 net.cpp:165] Memory required for data: 62916400
I0531 15:26:29.946831 30715 layer_factory.hpp:77] Creating layer pool_x1
I0531 15:26:29.946848 30715 net.cpp:106] Creating Layer pool_x1
I0531 15:26:29.946858 30715 net.cpp:454] pool_x1 <- conv_x1
I0531 15:26:29.946872 30715 net.cpp:411] pool_x1 -> pool_x1
I0531 15:26:29.946954 30715 net.cpp:150] Setting up pool_x1
I0531 15:26:29.946969 30715 net.cpp:157] Top shape: 100 12 60 48 (3456000)
I0531 15:26:29.946979 30715 net.cpp:165] Memory required for data: 76740400
I0531 15:26:29.946988 30715 layer_factory.hpp:77] Creating layer conv_x2
I0531 15:26:29.947010 30715 net.cpp:106] Creating Layer conv_x2
I0531 15:26:29.947021 30715 net.cpp:454] conv_x2 <- pool_x1
I0531 15:26:29.947036 30715 net.cpp:411] conv_x2 -> conv_x2
I0531 15:26:29.949733 30715 net.cpp:150] Setting up conv_x2
I0531 15:26:29.949759 30715 net.cpp:157] Top shape: 100 20 54 46 (4968000)
I0531 15:26:29.949772 30715 net.cpp:165] Memory required for data: 96612400
I0531 15:26:29.949792 30715 layer_factory.hpp:77] Creating layer relu_x2
I0531 15:26:29.949806 30715 net.cpp:106] Creating Layer relu_x2
I0531 15:26:29.949817 30715 net.cpp:454] relu_x2 <- conv_x2
I0531 15:26:29.949831 30715 net.cpp:397] relu_x2 -> conv_x2 (in-place)
I0531 15:26:29.950168 30715 net.cpp:150] Setting up relu_x2
I0531 15:26:29.950183 30715 net.cpp:157] Top shape: 100 20 54 46 (4968000)
I0531 15:26:29.950193 30715 net.cpp:165] Memory required for data: 116484400
I0531 15:26:29.950203 30715 layer_factory.hpp:77] Creating layer pool_x2
I0531 15:26:29.950217 30715 net.cpp:106] Creating Layer pool_x2
I0531 15:26:29.950227 30715 net.cpp:454] pool_x2 <- conv_x2
I0531 15:26:29.950240 30715 net.cpp:411] pool_x2 -> pool_x2
I0531 15:26:29.950309 30715 net.cpp:150] Setting up pool_x2
I0531 15:26:29.950322 30715 net.cpp:157] Top shape: 100 20 27 46 (2484000)
I0531 15:26:29.950332 30715 net.cpp:165] Memory required for data: 126420400
I0531 15:26:29.950342 30715 layer_factory.hpp:77] Creating layer conv_x3
I0531 15:26:29.950361 30715 net.cpp:106] Creating Layer conv_x3
I0531 15:26:29.950371 30715 net.cpp:454] conv_x3 <- pool_x2
I0531 15:26:29.950384 30715 net.cpp:411] conv_x3 -> conv_x3
I0531 15:26:29.952296 30715 net.cpp:150] Setting up conv_x3
I0531 15:26:29.952316 30715 net.cpp:157] Top shape: 100 28 22 44 (2710400)
I0531 15:26:29.952327 30715 net.cpp:165] Memory required for data: 137262000
I0531 15:26:29.952347 30715 layer_factory.hpp:77] Creating layer relu_x3
I0531 15:26:29.952363 30715 net.cpp:106] Creating Layer relu_x3
I0531 15:26:29.952373 30715 net.cpp:454] relu_x3 <- conv_x3
I0531 15:26:29.952385 30715 net.cpp:397] relu_x3 -> conv_x3 (in-place)
I0531 15:26:29.952857 30715 net.cpp:150] Setting up relu_x3
I0531 15:26:29.952873 30715 net.cpp:157] Top shape: 100 28 22 44 (2710400)
I0531 15:26:29.952895 30715 net.cpp:165] Memory required for data: 148103600
I0531 15:26:29.952906 30715 layer_factory.hpp:77] Creating layer pool_x3
I0531 15:26:29.952920 30715 net.cpp:106] Creating Layer pool_x3
I0531 15:26:29.952930 30715 net.cpp:454] pool_x3 <- conv_x3
I0531 15:26:29.952944 30715 net.cpp:411] pool_x3 -> pool_x3
I0531 15:26:29.953012 30715 net.cpp:150] Setting up pool_x3
I0531 15:26:29.953025 30715 net.cpp:157] Top shape: 100 28 11 44 (1355200)
I0531 15:26:29.953037 30715 net.cpp:165] Memory required for data: 153524400
I0531 15:26:29.953047 30715 layer_factory.hpp:77] Creating layer conv_x4
I0531 15:26:29.953063 30715 net.cpp:106] Creating Layer conv_x4
I0531 15:26:29.953074 30715 net.cpp:454] conv_x4 <- pool_x3
I0531 15:26:29.953088 30715 net.cpp:411] conv_x4 -> conv_x4
I0531 15:26:29.956073 30715 net.cpp:150] Setting up conv_x4
I0531 15:26:29.956097 30715 net.cpp:157] Top shape: 100 36 6 42 (907200)
I0531 15:26:29.956107 30715 net.cpp:165] Memory required for data: 157153200
I0531 15:26:29.956123 30715 layer_factory.hpp:77] Creating layer relu_x4
I0531 15:26:29.956137 30715 net.cpp:106] Creating Layer relu_x4
I0531 15:26:29.956148 30715 net.cpp:454] relu_x4 <- conv_x4
I0531 15:26:29.956162 30715 net.cpp:397] relu_x4 -> conv_x4 (in-place)
I0531 15:26:29.956626 30715 net.cpp:150] Setting up relu_x4
I0531 15:26:29.956642 30715 net.cpp:157] Top shape: 100 36 6 42 (907200)
I0531 15:26:29.956653 30715 net.cpp:165] Memory required for data: 160782000
I0531 15:26:29.956663 30715 layer_factory.hpp:77] Creating layer pool_x4
I0531 15:26:29.956677 30715 net.cpp:106] Creating Layer pool_x4
I0531 15:26:29.956686 30715 net.cpp:454] pool_x4 <- conv_x4
I0531 15:26:29.956701 30715 net.cpp:411] pool_x4 -> pool_x4
I0531 15:26:29.956769 30715 net.cpp:150] Setting up pool_x4
I0531 15:26:29.956784 30715 net.cpp:157] Top shape: 100 36 3 42 (453600)
I0531 15:26:29.956794 30715 net.cpp:165] Memory required for data: 162596400
I0531 15:26:29.956804 30715 layer_factory.hpp:77] Creating layer dl_x1
I0531 15:26:29.956825 30715 net.cpp:106] Creating Layer dl_x1
I0531 15:26:29.956835 30715 net.cpp:454] dl_x1 <- pool_x4
I0531 15:26:29.956850 30715 net.cpp:411] dl_x1 -> dl_x1
I0531 15:26:29.972375 30715 net.cpp:150] Setting up dl_x1
I0531 15:26:29.972404 30715 net.cpp:157] Top shape: 100 196 (19600)
I0531 15:26:29.972419 30715 net.cpp:165] Memory required for data: 162674800
I0531 15:26:29.972445 30715 layer_factory.hpp:77] Creating layer relu_x5
I0531 15:26:29.972460 30715 net.cpp:106] Creating Layer relu_x5
I0531 15:26:29.972470 30715 net.cpp:454] relu_x5 <- dl_x1
I0531 15:26:29.972484 30715 net.cpp:397] relu_x5 -> dl_x1 (in-place)
I0531 15:26:29.972827 30715 net.cpp:150] Setting up relu_x5
I0531 15:26:29.972841 30715 net.cpp:157] Top shape: 100 196 (19600)
I0531 15:26:29.972852 30715 net.cpp:165] Memory required for data: 162753200
I0531 15:26:29.972862 30715 layer_factory.hpp:77] Creating layer drop_x1
I0531 15:26:29.972884 30715 net.cpp:106] Creating Layer drop_x1
I0531 15:26:29.972894 30715 net.cpp:454] drop_x1 <- dl_x1
I0531 15:26:29.972908 30715 net.cpp:397] drop_x1 -> dl_x1 (in-place)
I0531 15:26:29.972952 30715 net.cpp:150] Setting up drop_x1
I0531 15:26:29.972966 30715 net.cpp:157] Top shape: 100 196 (19600)
I0531 15:26:29.972976 30715 net.cpp:165] Memory required for data: 162831600
I0531 15:26:29.972986 30715 layer_factory.hpp:77] Creating layer conv_u1
I0531 15:26:29.973009 30715 net.cpp:106] Creating Layer conv_u1
I0531 15:26:29.973019 30715 net.cpp:454] conv_u1 <- hits-u
I0531 15:26:29.973033 30715 net.cpp:411] conv_u1 -> conv_u1
I0531 15:26:29.974870 30715 net.cpp:150] Setting up conv_u1
I0531 15:26:29.974894 30715 net.cpp:157] Top shape: 100 12 120 48 (6912000)
I0531 15:26:29.974905 30715 net.cpp:165] Memory required for data: 190479600
I0531 15:26:29.974920 30715 layer_factory.hpp:77] Creating layer relu_u1
I0531 15:26:29.974934 30715 net.cpp:106] Creating Layer relu_u1
I0531 15:26:29.974944 30715 net.cpp:454] relu_u1 <- conv_u1
I0531 15:26:29.974956 30715 net.cpp:397] relu_u1 -> conv_u1 (in-place)
I0531 15:26:29.975442 30715 net.cpp:150] Setting up relu_u1
I0531 15:26:29.975461 30715 net.cpp:157] Top shape: 100 12 120 48 (6912000)
I0531 15:26:29.975471 30715 net.cpp:165] Memory required for data: 218127600
I0531 15:26:29.975481 30715 layer_factory.hpp:77] Creating layer pool_u1
I0531 15:26:29.975495 30715 net.cpp:106] Creating Layer pool_u1
I0531 15:26:29.975505 30715 net.cpp:454] pool_u1 <- conv_u1
I0531 15:26:29.975518 30715 net.cpp:411] pool_u1 -> pool_u1
I0531 15:26:29.975589 30715 net.cpp:150] Setting up pool_u1
I0531 15:26:29.975602 30715 net.cpp:157] Top shape: 100 12 60 48 (3456000)
I0531 15:26:29.975611 30715 net.cpp:165] Memory required for data: 231951600
I0531 15:26:29.975621 30715 layer_factory.hpp:77] Creating layer conv_u2
I0531 15:26:29.975638 30715 net.cpp:106] Creating Layer conv_u2
I0531 15:26:29.975649 30715 net.cpp:454] conv_u2 <- pool_u1
I0531 15:26:29.975663 30715 net.cpp:411] conv_u2 -> conv_u2
I0531 15:26:29.977484 30715 net.cpp:150] Setting up conv_u2
I0531 15:26:29.977507 30715 net.cpp:157] Top shape: 100 20 54 46 (4968000)
I0531 15:26:29.977519 30715 net.cpp:165] Memory required for data: 251823600
I0531 15:26:29.977535 30715 layer_factory.hpp:77] Creating layer relu_u2
I0531 15:26:29.977548 30715 net.cpp:106] Creating Layer relu_u2
I0531 15:26:29.977558 30715 net.cpp:454] relu_u2 <- conv_u2
I0531 15:26:29.977571 30715 net.cpp:397] relu_u2 -> conv_u2 (in-place)
I0531 15:26:29.977891 30715 net.cpp:150] Setting up relu_u2
I0531 15:26:29.977905 30715 net.cpp:157] Top shape: 100 20 54 46 (4968000)
I0531 15:26:29.977916 30715 net.cpp:165] Memory required for data: 271695600
I0531 15:26:29.977926 30715 layer_factory.hpp:77] Creating layer pool_u2
I0531 15:26:29.977938 30715 net.cpp:106] Creating Layer pool_u2
I0531 15:26:29.977948 30715 net.cpp:454] pool_u2 <- conv_u2
I0531 15:26:29.977962 30715 net.cpp:411] pool_u2 -> pool_u2
I0531 15:26:29.978046 30715 net.cpp:150] Setting up pool_u2
I0531 15:26:29.978060 30715 net.cpp:157] Top shape: 100 20 27 46 (2484000)
I0531 15:26:29.978072 30715 net.cpp:165] Memory required for data: 281631600
I0531 15:26:29.978082 30715 layer_factory.hpp:77] Creating layer conv_u3
I0531 15:26:29.978101 30715 net.cpp:106] Creating Layer conv_u3
I0531 15:26:29.978111 30715 net.cpp:454] conv_u3 <- pool_u2
I0531 15:26:29.978126 30715 net.cpp:411] conv_u3 -> conv_u3
I0531 15:26:29.980036 30715 net.cpp:150] Setting up conv_u3
I0531 15:26:29.980053 30715 net.cpp:157] Top shape: 100 28 22 44 (2710400)
I0531 15:26:29.980065 30715 net.cpp:165] Memory required for data: 292473200
I0531 15:26:29.980080 30715 layer_factory.hpp:77] Creating layer relu_u3
I0531 15:26:29.980093 30715 net.cpp:106] Creating Layer relu_u3
I0531 15:26:29.980103 30715 net.cpp:454] relu_u3 <- conv_u3
I0531 15:26:29.980116 30715 net.cpp:397] relu_u3 -> conv_u3 (in-place)
I0531 15:26:29.980448 30715 net.cpp:150] Setting up relu_u3
I0531 15:26:29.980463 30715 net.cpp:157] Top shape: 100 28 22 44 (2710400)
I0531 15:26:29.980473 30715 net.cpp:165] Memory required for data: 303314800
I0531 15:26:29.980482 30715 layer_factory.hpp:77] Creating layer pool_u3
I0531 15:26:29.980495 30715 net.cpp:106] Creating Layer pool_u3
I0531 15:26:29.980505 30715 net.cpp:454] pool_u3 <- conv_u3
I0531 15:26:29.980518 30715 net.cpp:411] pool_u3 -> pool_u3
I0531 15:26:29.980587 30715 net.cpp:150] Setting up pool_u3
I0531 15:26:29.980600 30715 net.cpp:157] Top shape: 100 28 11 44 (1355200)
I0531 15:26:29.980610 30715 net.cpp:165] Memory required for data: 308735600
I0531 15:26:29.980620 30715 layer_factory.hpp:77] Creating layer conv_u4
I0531 15:26:29.980638 30715 net.cpp:106] Creating Layer conv_u4
I0531 15:26:29.980648 30715 net.cpp:454] conv_u4 <- pool_u3
I0531 15:26:29.980662 30715 net.cpp:411] conv_u4 -> conv_u4
I0531 15:26:29.982874 30715 net.cpp:150] Setting up conv_u4
I0531 15:26:29.982897 30715 net.cpp:157] Top shape: 100 36 6 42 (907200)
I0531 15:26:29.982910 30715 net.cpp:165] Memory required for data: 312364400
I0531 15:26:29.982933 30715 layer_factory.hpp:77] Creating layer relu_u4
I0531 15:26:29.982945 30715 net.cpp:106] Creating Layer relu_u4
I0531 15:26:29.982965 30715 net.cpp:454] relu_u4 <- conv_u4
I0531 15:26:29.982980 30715 net.cpp:397] relu_u4 -> conv_u4 (in-place)
I0531 15:26:29.983458 30715 net.cpp:150] Setting up relu_u4
I0531 15:26:29.983474 30715 net.cpp:157] Top shape: 100 36 6 42 (907200)
I0531 15:26:29.983484 30715 net.cpp:165] Memory required for data: 315993200
I0531 15:26:29.983495 30715 layer_factory.hpp:77] Creating layer pool_u4
I0531 15:26:29.983506 30715 net.cpp:106] Creating Layer pool_u4
I0531 15:26:29.983516 30715 net.cpp:454] pool_u4 <- conv_u4
I0531 15:26:29.983530 30715 net.cpp:411] pool_u4 -> pool_u4
I0531 15:26:29.983602 30715 net.cpp:150] Setting up pool_u4
I0531 15:26:29.983614 30715 net.cpp:157] Top shape: 100 36 3 42 (453600)
I0531 15:26:29.983625 30715 net.cpp:165] Memory required for data: 317807600
I0531 15:26:29.983635 30715 layer_factory.hpp:77] Creating layer dl_u1
I0531 15:26:29.983650 30715 net.cpp:106] Creating Layer dl_u1
I0531 15:26:29.983660 30715 net.cpp:454] dl_u1 <- pool_u4
I0531 15:26:29.983675 30715 net.cpp:411] dl_u1 -> dl_u1
I0531 15:26:29.999208 30715 net.cpp:150] Setting up dl_u1
I0531 15:26:29.999236 30715 net.cpp:157] Top shape: 100 196 (19600)
I0531 15:26:29.999248 30715 net.cpp:165] Memory required for data: 317886000
I0531 15:26:29.999264 30715 layer_factory.hpp:77] Creating layer relu_u5
I0531 15:26:29.999280 30715 net.cpp:106] Creating Layer relu_u5
I0531 15:26:29.999290 30715 net.cpp:454] relu_u5 <- dl_u1
I0531 15:26:29.999305 30715 net.cpp:397] relu_u5 -> dl_u1 (in-place)
I0531 15:26:29.999649 30715 net.cpp:150] Setting up relu_u5
I0531 15:26:29.999662 30715 net.cpp:157] Top shape: 100 196 (19600)
I0531 15:26:29.999672 30715 net.cpp:165] Memory required for data: 317964400
I0531 15:26:29.999682 30715 layer_factory.hpp:77] Creating layer drop_u1
I0531 15:26:29.999696 30715 net.cpp:106] Creating Layer drop_u1
I0531 15:26:29.999706 30715 net.cpp:454] drop_u1 <- dl_u1
I0531 15:26:29.999718 30715 net.cpp:397] drop_u1 -> dl_u1 (in-place)
I0531 15:26:29.999761 30715 net.cpp:150] Setting up drop_u1
I0531 15:26:29.999775 30715 net.cpp:157] Top shape: 100 196 (19600)
I0531 15:26:29.999784 30715 net.cpp:165] Memory required for data: 318042800
I0531 15:26:29.999794 30715 layer_factory.hpp:77] Creating layer conv_v1
I0531 15:26:29.999811 30715 net.cpp:106] Creating Layer conv_v1
I0531 15:26:29.999822 30715 net.cpp:454] conv_v1 <- hits-v
I0531 15:26:29.999835 30715 net.cpp:411] conv_v1 -> conv_v1
I0531 15:26:30.001693 30715 net.cpp:150] Setting up conv_v1
I0531 15:26:30.001715 30715 net.cpp:157] Top shape: 100 12 120 48 (6912000)
I0531 15:26:30.001727 30715 net.cpp:165] Memory required for data: 345690800
I0531 15:26:30.001742 30715 layer_factory.hpp:77] Creating layer relu_v1
I0531 15:26:30.001766 30715 net.cpp:106] Creating Layer relu_v1
I0531 15:26:30.001776 30715 net.cpp:454] relu_v1 <- conv_v1
I0531 15:26:30.001790 30715 net.cpp:397] relu_v1 -> conv_v1 (in-place)
I0531 15:26:30.002279 30715 net.cpp:150] Setting up relu_v1
I0531 15:26:30.002297 30715 net.cpp:157] Top shape: 100 12 120 48 (6912000)
I0531 15:26:30.002308 30715 net.cpp:165] Memory required for data: 373338800
I0531 15:26:30.002318 30715 layer_factory.hpp:77] Creating layer pool_v1
I0531 15:26:30.002333 30715 net.cpp:106] Creating Layer pool_v1
I0531 15:26:30.002343 30715 net.cpp:454] pool_v1 <- conv_v1
I0531 15:26:30.002357 30715 net.cpp:411] pool_v1 -> pool_v1
I0531 15:26:30.002430 30715 net.cpp:150] Setting up pool_v1
I0531 15:26:30.002445 30715 net.cpp:157] Top shape: 100 12 60 48 (3456000)
I0531 15:26:30.002455 30715 net.cpp:165] Memory required for data: 387162800
I0531 15:26:30.002465 30715 layer_factory.hpp:77] Creating layer conv_v2
I0531 15:26:30.002481 30715 net.cpp:106] Creating Layer conv_v2
I0531 15:26:30.002492 30715 net.cpp:454] conv_v2 <- pool_v1
I0531 15:26:30.002506 30715 net.cpp:411] conv_v2 -> conv_v2
I0531 15:26:30.004201 30715 net.cpp:150] Setting up conv_v2
I0531 15:26:30.004220 30715 net.cpp:157] Top shape: 100 20 54 46 (4968000)
I0531 15:26:30.004230 30715 net.cpp:165] Memory required for data: 407034800
I0531 15:26:30.004258 30715 layer_factory.hpp:77] Creating layer relu_v2
I0531 15:26:30.004272 30715 net.cpp:106] Creating Layer relu_v2
I0531 15:26:30.004283 30715 net.cpp:454] relu_v2 <- conv_v2
I0531 15:26:30.004295 30715 net.cpp:397] relu_v2 -> conv_v2 (in-place)
I0531 15:26:30.004776 30715 net.cpp:150] Setting up relu_v2
I0531 15:26:30.004791 30715 net.cpp:157] Top shape: 100 20 54 46 (4968000)
I0531 15:26:30.004801 30715 net.cpp:165] Memory required for data: 426906800
I0531 15:26:30.004812 30715 layer_factory.hpp:77] Creating layer pool_v2
I0531 15:26:30.004825 30715 net.cpp:106] Creating Layer pool_v2
I0531 15:26:30.004835 30715 net.cpp:454] pool_v2 <- conv_v2
I0531 15:26:30.004849 30715 net.cpp:411] pool_v2 -> pool_v2
I0531 15:26:30.004920 30715 net.cpp:150] Setting up pool_v2
I0531 15:26:30.004933 30715 net.cpp:157] Top shape: 100 20 27 46 (2484000)
I0531 15:26:30.004945 30715 net.cpp:165] Memory required for data: 436842800
I0531 15:26:30.004953 30715 layer_factory.hpp:77] Creating layer conv_v3
I0531 15:26:30.004971 30715 net.cpp:106] Creating Layer conv_v3
I0531 15:26:30.004981 30715 net.cpp:454] conv_v3 <- pool_v2
I0531 15:26:30.004997 30715 net.cpp:411] conv_v3 -> conv_v3
I0531 15:26:30.006938 30715 net.cpp:150] Setting up conv_v3
I0531 15:26:30.006961 30715 net.cpp:157] Top shape: 100 28 22 44 (2710400)
I0531 15:26:30.006974 30715 net.cpp:165] Memory required for data: 447684400
I0531 15:26:30.006990 30715 layer_factory.hpp:77] Creating layer relu_v3
I0531 15:26:30.007004 30715 net.cpp:106] Creating Layer relu_v3
I0531 15:26:30.007014 30715 net.cpp:454] relu_v3 <- conv_v3
I0531 15:26:30.007026 30715 net.cpp:397] relu_v3 -> conv_v3 (in-place)
I0531 15:26:30.007345 30715 net.cpp:150] Setting up relu_v3
I0531 15:26:30.007359 30715 net.cpp:157] Top shape: 100 28 22 44 (2710400)
I0531 15:26:30.007370 30715 net.cpp:165] Memory required for data: 458526000
I0531 15:26:30.007380 30715 layer_factory.hpp:77] Creating layer pool_v3
I0531 15:26:30.007393 30715 net.cpp:106] Creating Layer pool_v3
I0531 15:26:30.007403 30715 net.cpp:454] pool_v3 <- conv_v3
I0531 15:26:30.007416 30715 net.cpp:411] pool_v3 -> pool_v3
I0531 15:26:30.007485 30715 net.cpp:150] Setting up pool_v3
I0531 15:26:30.007504 30715 net.cpp:157] Top shape: 100 28 11 44 (1355200)
I0531 15:26:30.007515 30715 net.cpp:165] Memory required for data: 463946800
I0531 15:26:30.007525 30715 layer_factory.hpp:77] Creating layer conv_v4
I0531 15:26:30.007542 30715 net.cpp:106] Creating Layer conv_v4
I0531 15:26:30.007553 30715 net.cpp:454] conv_v4 <- pool_v3
I0531 15:26:30.007567 30715 net.cpp:411] conv_v4 -> conv_v4
I0531 15:26:30.009652 30715 net.cpp:150] Setting up conv_v4
I0531 15:26:30.009675 30715 net.cpp:157] Top shape: 100 36 6 42 (907200)
I0531 15:26:30.009687 30715 net.cpp:165] Memory required for data: 467575600
I0531 15:26:30.009703 30715 layer_factory.hpp:77] Creating layer relu_v4
I0531 15:26:30.009717 30715 net.cpp:106] Creating Layer relu_v4
I0531 15:26:30.009727 30715 net.cpp:454] relu_v4 <- conv_v4
I0531 15:26:30.009739 30715 net.cpp:397] relu_v4 -> conv_v4 (in-place)
I0531 15:26:30.010227 30715 net.cpp:150] Setting up relu_v4
I0531 15:26:30.010244 30715 net.cpp:157] Top shape: 100 36 6 42 (907200)
I0531 15:26:30.010256 30715 net.cpp:165] Memory required for data: 471204400
I0531 15:26:30.010267 30715 layer_factory.hpp:77] Creating layer pool_v4
I0531 15:26:30.010279 30715 net.cpp:106] Creating Layer pool_v4
I0531 15:26:30.010290 30715 net.cpp:454] pool_v4 <- conv_v4
I0531 15:26:30.010303 30715 net.cpp:411] pool_v4 -> pool_v4
I0531 15:26:30.010377 30715 net.cpp:150] Setting up pool_v4
I0531 15:26:30.010391 30715 net.cpp:157] Top shape: 100 36 3 42 (453600)
I0531 15:26:30.010401 30715 net.cpp:165] Memory required for data: 473018800
I0531 15:26:30.010411 30715 layer_factory.hpp:77] Creating layer dl_v1
I0531 15:26:30.010426 30715 net.cpp:106] Creating Layer dl_v1
I0531 15:26:30.010437 30715 net.cpp:454] dl_v1 <- pool_v4
I0531 15:26:30.010452 30715 net.cpp:411] dl_v1 -> dl_v1
I0531 15:26:30.025948 30715 net.cpp:150] Setting up dl_v1
I0531 15:26:30.025985 30715 net.cpp:157] Top shape: 100 196 (19600)
I0531 15:26:30.026010 30715 net.cpp:165] Memory required for data: 473097200
I0531 15:26:30.026027 30715 layer_factory.hpp:77] Creating layer relu_v5
I0531 15:26:30.026042 30715 net.cpp:106] Creating Layer relu_v5
I0531 15:26:30.026053 30715 net.cpp:454] relu_v5 <- dl_v1
I0531 15:26:30.026067 30715 net.cpp:397] relu_v5 -> dl_v1 (in-place)
I0531 15:26:30.026419 30715 net.cpp:150] Setting up relu_v5
I0531 15:26:30.026434 30715 net.cpp:157] Top shape: 100 196 (19600)
I0531 15:26:30.026445 30715 net.cpp:165] Memory required for data: 473175600
I0531 15:26:30.026456 30715 layer_factory.hpp:77] Creating layer drop_v1
I0531 15:26:30.026470 30715 net.cpp:106] Creating Layer drop_v1
I0531 15:26:30.026480 30715 net.cpp:454] drop_v1 <- dl_v1
I0531 15:26:30.026492 30715 net.cpp:397] drop_v1 -> dl_v1 (in-place)
I0531 15:26:30.026537 30715 net.cpp:150] Setting up drop_v1
I0531 15:26:30.026551 30715 net.cpp:157] Top shape: 100 196 (19600)
I0531 15:26:30.026561 30715 net.cpp:165] Memory required for data: 473254000
I0531 15:26:30.026571 30715 layer_factory.hpp:77] Creating layer concat_xuv
I0531 15:26:30.026593 30715 net.cpp:106] Creating Layer concat_xuv
I0531 15:26:30.026604 30715 net.cpp:454] concat_xuv <- dl_x1
I0531 15:26:30.026615 30715 net.cpp:454] concat_xuv <- dl_u1
I0531 15:26:30.026628 30715 net.cpp:454] concat_xuv <- dl_v1
I0531 15:26:30.026641 30715 net.cpp:411] concat_xuv -> concat_xuv
I0531 15:26:30.026693 30715 net.cpp:150] Setting up concat_xuv
I0531 15:26:30.026706 30715 net.cpp:157] Top shape: 100 588 (58800)
I0531 15:26:30.026717 30715 net.cpp:165] Memory required for data: 473489200
I0531 15:26:30.026728 30715 layer_factory.hpp:77] Creating layer dl_xuv
I0531 15:26:30.026741 30715 net.cpp:106] Creating Layer dl_xuv
I0531 15:26:30.026751 30715 net.cpp:454] dl_xuv <- concat_xuv
I0531 15:26:30.026765 30715 net.cpp:411] dl_xuv -> dl_xuv
I0531 15:26:30.027799 30715 net.cpp:150] Setting up dl_xuv
I0531 15:26:30.027818 30715 net.cpp:157] Top shape: 100 98 (9800)
I0531 15:26:30.027828 30715 net.cpp:165] Memory required for data: 473528400
I0531 15:26:30.027842 30715 layer_factory.hpp:77] Creating layer relu_xuv
I0531 15:26:30.027855 30715 net.cpp:106] Creating Layer relu_xuv
I0531 15:26:30.027865 30715 net.cpp:454] relu_xuv <- dl_xuv
I0531 15:26:30.027878 30715 net.cpp:397] relu_xuv -> dl_xuv (in-place)
I0531 15:26:30.028425 30715 net.cpp:150] Setting up relu_xuv
I0531 15:26:30.028441 30715 net.cpp:157] Top shape: 100 98 (9800)
I0531 15:26:30.028452 30715 net.cpp:165] Memory required for data: 473567600
I0531 15:26:30.028461 30715 layer_factory.hpp:77] Creating layer drop_xuv
I0531 15:26:30.028475 30715 net.cpp:106] Creating Layer drop_xuv
I0531 15:26:30.028486 30715 net.cpp:454] drop_xuv <- dl_xuv
I0531 15:26:30.028498 30715 net.cpp:397] drop_xuv -> dl_xuv (in-place)
I0531 15:26:30.028544 30715 net.cpp:150] Setting up drop_xuv
I0531 15:26:30.028558 30715 net.cpp:157] Top shape: 100 98 (9800)
I0531 15:26:30.028568 30715 net.cpp:165] Memory required for data: 473606800
I0531 15:26:30.028578 30715 layer_factory.hpp:77] Creating layer output
I0531 15:26:30.028591 30715 net.cpp:106] Creating Layer output
I0531 15:26:30.028602 30715 net.cpp:454] output <- dl_xuv
I0531 15:26:30.028615 30715 net.cpp:411] output -> output
I0531 15:26:30.028846 30715 net.cpp:150] Setting up output
I0531 15:26:30.028858 30715 net.cpp:157] Top shape: 100 11 (1100)
I0531 15:26:30.028868 30715 net.cpp:165] Memory required for data: 473611200
I0531 15:26:30.028898 30715 layer_factory.hpp:77] Creating layer drop_output
I0531 15:26:30.028911 30715 net.cpp:106] Creating Layer drop_output
I0531 15:26:30.028921 30715 net.cpp:454] drop_output <- output
I0531 15:26:30.028934 30715 net.cpp:397] drop_output -> output (in-place)
I0531 15:26:30.028980 30715 net.cpp:150] Setting up drop_output
I0531 15:26:30.028993 30715 net.cpp:157] Top shape: 100 11 (1100)
I0531 15:26:30.029003 30715 net.cpp:165] Memory required for data: 473615600
I0531 15:26:30.029013 30715 layer_factory.hpp:77] Creating layer loss
I0531 15:26:30.029042 30715 net.cpp:106] Creating Layer loss
I0531 15:26:30.029052 30715 net.cpp:454] loss <- output
I0531 15:26:30.029064 30715 net.cpp:454] loss <- segments
I0531 15:26:30.029078 30715 net.cpp:411] loss -> loss
I0531 15:26:30.029095 30715 layer_factory.hpp:77] Creating layer loss
…
I0531 15:26:30.033201 30715 solver.cpp:181] Creating test net (#0) specified by net file: /lustre/atlas/proj-shared/hep105/caffe_titan/caffe_workflow/xuv/logs/epsilon_noada_2016-05-30T07.36.54.892099.prototxt
I0531 15:26:30.033334 30715 net.cpp:322] The NetState phase (1) differed from the phase (0) specified by a rule in layer data
I0531 15:26:30.034132 30715 net.cpp:49] Initializing net from parameters: 
name: "epsilon_127x50_xuv"
state {
  phase: TEST
}
layer {
  name: "data"
  type: "HDF5Data"
  top: "hits-x"
  top: "hits-u"
  top: "hits-v"
  top: "segments"
  include {
    phase: TEST
  }
  hdf5_data_param {
    source: "/lustre/atlas/proj-shared/hep105/caffe_titan/xuv/epsilon_127x50_xuv.testlist"
    batch_size: 100
  }
}
layer {
  name: "conv_x1"
  type: "Convolution"
  bottom: "hits-x"
  top: "conv_x1"
  convolution_param {
    num_output: 12
    pad: 0
    stride: 1
    weight_filler {
      type: "xavier"
    }
    bias_filler {
      type: "constant"
    }
    kernel_h: 8
    kernel_w: 3
  }
}
layer {
  name: "relu_x1"
  type: "ReLU"
  bottom: "conv_x1"
  top: "conv_x1"
}
layer {
  name: "pool_x1"
  type: "Pooling"
  bottom: "conv_x1"
  top: "pool_x1"
  pooling_param {
    pool: MAX
    kernel_h: 2
    kernel_w: 1
    stride_h: 2
    stride_w: 1
  }
}
layer {
  name: "conv_x2"
  type: "Convolution"
  bottom: "pool_x1"
  top: "conv_x2"
  convolution_param {
    num_output: 20
    pad: 0
    stride: 1
    weight_filler {
      type: "xavier"
    }
    bias_filler {
      type: "constant"
    }
    kernel_h: 7
    kernel_w: 3
  }
}
layer {
  name: "relu_x2"
  type: "ReLU"
  bottom: "conv_x2"
  top: "conv_x2"
}
layer {
  name: "pool_x2"
  type: "Pooling"
  bottom: "conv_x2"
  top: "pool_x2"
  pooling_param {
    pool: MAX
    kernel_h: 2
    kernel_w: 1
    stride_h: 2
    stride_w: 1
  }
}
layer {
  name: "conv_x3"
  type: "Convolution"
  bottom: "pool_x2"
  top: "conv_x3"
  convolution_param {
    num_output: 28
    pad: 0
    stride: 1
    weight_filler {
      type: "xavier"
    }
    bias_filler {
      type: "constant"
    }
    kernel_h: 6
    kernel_w: 3
  }
}
layer {
  name: "relu_x3"
  type: "ReLU"
  bottom: "conv_x3"
  top: "conv_x3"
}
layer {
  name: "pool_x3"
  type: "Pooling"
  bottom: "conv_x3"
  top: "pool_x3"
  pooling_param {
    pool: MAX
    kernel_h: 2
    kernel_w: 1
    stride_h: 2
    stride_w: 1
  }
}
layer {
  name: "conv_x4"
  type: "Convolution"
  bottom: "pool_x3"
  top: "conv_x4"
  convolution_param {
    num_output: 36
    pad: 0
    stride: 1
    weight_filler {
      type: "xavier"
    }
    bias_filler {
      type: "constant"
    }
    kernel_h: 6
    kernel_w: 3
  }
}
layer {
  name: "relu_x4"
  type: "ReLU"
  bottom: "conv_x4"
  top: "conv_x4"
}
layer {
  name: "pool_x4"
  type: "Pooling"
  bottom: "conv_x4"
  top: "pool_x4"
  pooling_param {
    pool: MAX
    kernel_h: 2
    kernel_w: 1
    stride_h: 2
    stride_w: 1
  }
}
layer {
  name: "dl_x1"
  type: "InnerProduct"
  bottom: "pool_x4"
  top: "dl_x1"
  inner_product_param {
    num_output: 196
    weight_filler {
      type: "xavier"
    }
    bias_filler {
      type: "constant"
    }
  }
}
layer {
  name: "relu_x5"
  type: "ReLU"
  bottom: "dl_x1"
  top: "dl_x1"
}
layer {
  name: "drop_x1"
  type: "Dropout"
  bottom: "dl_x1"
  top: "dl_x1"
  dropout_param {
    dropout_ratio: 0.5
  }
}
layer {
  name: "conv_u1"
  type: "Convolution"
  bottom: "hits-u"
  top: "conv_u1"
  convolution_param {
    num_output: 12
    pad: 0
    stride: 1
    weight_filler {
      type: "xavier"
    }
    bias_filler {
      type: "constant"
    }
    kernel_h: 8
    kernel_w: 3
  }
}
layer {
  name: "relu_u1"
  type: "ReLU"
  bottom: "conv_u1"
  top: "conv_u1"
}
layer {
  name: "pool_u1"
  type: "Pooling"
  bottom: "conv_u1"
  top: "pool_u1"
  pooling_param {
    pool: MAX
    kernel_h: 2
    kernel_w: 1
    stride_h: 2
    stride_w: 1
  }
}
layer {
  name: "conv_u2"
  type: "Convolution"
  bottom: "pool_u1"
  top: "conv_u2"
  convolution_param {
    num_output: 20
    pad: 0
    stride: 1
    weight_filler {
      type: "xavier"
    }
    bias_filler {
      type: "constant"
    }
    kernel_h: 7
    kernel_w: 3
  }
}
layer {
  name: "relu_u2"
  type: "ReLU"
  bottom: "conv_u2"
  top: "conv_u2"
}
layer {
  name: "pool_u2"
  type: "Pooling"
  bottom: "conv_u2"
  top: "pool_u2"
  pooling_param {
    pool: MAX
    kernel_h: 2
    kernel_w: 1
    stride_h: 2
    stride_w: 1
  }
}
layer {
  name: "conv_u3"
  type: "Convolution"
  bottom: "pool_u2"
  top: "conv_u3"
  convolution_param {
    num_output: 28
    pad: 0
    stride: 1
    weight_filler {
      type: "xavier"
    }
    bias_filler {
      type: "constant"
    }
    kernel_h: 6
    kernel_w: 3
  }
}
layer {
  name: "relu_u3"
  type: "ReLU"
  bottom: "conv_u3"
  top: "conv_u3"
}
layer {
  name: "pool_u3"
  type: "Pooling"
  bottom: "conv_u3"
  top: "pool_u3"
  pooling_param {
    pool: MAX
    kernel_h: 2
    kernel_w: 1
    stride_h: 2
    stride_w: 1
  }
}
layer {
  name: "conv_u4"
  type: "Convolution"
  bottom: "pool_u3"
  top: "conv_u4"
  convolution_param {
    num_output: 36
    pad: 0
    stride: 1
    weight_filler {
      type: "xavier"
    }
    bias_filler {
      type: "constant"
    }
    kernel_h: 6
    kernel_w: 3
  }
}
layer {
  name: "relu_u4"
  type: "ReLU"
  bottom: "conv_u4"
  top: "conv_u4"
}
layer {
  name: "pool_u4"
  type: "Pooling"
  bottom: "conv_u4"
  top: "pool_u4"
  pooling_param {
    pool: MAX
    kernel_h: 2
    kernel_w: 1
    stride_h: 2
    stride_w: 1
  }
}
layer {
  name: "dl_u1"
  type: "InnerProduct"
  bottom: "pool_u4"
  top: "dl_u1"
  inner_product_param {
    num_output: 196
    weight_filler {
      type: "xavier"
    }
    bias_filler {
      type: "constant"
    }
  }
}
layer {
  name: "relu_u5"
  type: "ReLU"
  bottom: "dl_u1"
  top: "dl_u1"
}
layer {
  name: "drop_u1"
  type: "Dropout"
  bottom: "dl_u1"
  top: "dl_u1"
  dropout_param {
    dropout_ratio: 0.5
  }
}
layer {
  name: "conv_v1"
  type: "Convolution"
  bottom: "hits-v"
  top: "conv_v1"
  convolution_param {
    num_output: 12
    pad: 0
    stride: 1
    weight_filler {
      type: "xavier"
    }
    bias_filler {
      type: "constant"
    }
    kernel_h: 8
    kernel_w: 3
  }
}
layer {
  name: "relu_v1"
  type: "ReLU"
  bottom: "conv_v1"
  top: "conv_v1"
}
layer {
  name: "pool_v1"
  type: "Pooling"
  bottom: "conv_v1"
  top: "pool_v1"
  pooling_param {
    pool: MAX
    kernel_h: 2
    kernel_w: 1
    stride_h: 2
    stride_w: 1
  }
}
layer {
  name: "conv_v2"
  type: "Convolution"
  bottom: "pool_v1"
  top: "conv_v2"
  convolution_param {
    num_output: 20
    pad: 0
    stride: 1
    weight_filler {
      type: "xavier"
    }
    bias_filler {
      type: "constant"
    }
    kernel_h: 7
    kernel_w: 3
  }
}
layer {
  name: "relu_v2"
  type: "ReLU"
  bottom: "conv_v2"
  top: "conv_v2"
}
layer {
  name: "pool_v2"
  type: "Pooling"
  bottom: "conv_v2"
  top: "pool_v2"
  pooling_param {
    pool: MAX
    kernel_h: 2
    kernel_w: 1
    stride_h: 2
    stride_w: 1
  }
}
layer {
  name: "conv_v3"
  type: "Convolution"
  bottom: "pool_v2"
  top: "conv_v3"
  convolution_param {
    num_output: 28
    pad: 0
    stride: 1
    weight_filler {
      type: "xavier"
    }
    bias_filler {
      type: "constant"
    }
    kernel_h: 6
    kernel_w: 3
  }
}
layer {
  name: "relu_v3"
  type: "ReLU"
  bottom: "conv_v3"
  top: "conv_v3"
}
layer {
  name: "pool_v3"
  type: "Pooling"
  bottom: "conv_v3"
  top: "pool_v3"
  pooling_param {
    pool: MAX
    kernel_h: 2
    kernel_w: 1
    stride_h: 2
    stride_w: 1
  }
}
layer {
  name: "conv_v4"
  type: "Convolution"
  bottom: "pool_v3"
  top: "conv_v4"
  convolution_param {
    num_output: 36
    pad: 0
    stride: 1
    weight_filler {
      type: "xavier"
    }
    bias_filler {
      type: "constant"
    }
    kernel_h: 6
    kernel_w: 3
  }
}
layer {
  name: "relu_v4"
  type: "ReLU"
  bottom: "conv_v4"
  top: "conv_v4"
}
layer {
  name: "pool_v4"
  type: "Pooling"
  bottom: "conv_v4"
  top: "pool_v4"
  pooling_param {
    pool: MAX
    kernel_h: 2
    kernel_w: 1
    stride_h: 2
    stride_w: 1
  }
}
layer {
  name: "dl_v1"
  type: "InnerProduct"
  bottom: "pool_v4"
  top: "dl_v1"
  inner_product_param {
    num_output: 196
    weight_filler {
      type: "xavier"
    }
    bias_filler {
      type: "constant"
    }
  }
}
layer {
  name: "relu_v5"
  type: "ReLU"
  bottom: "dl_v1"
  top: "dl_v1"
}
layer {
  name: "drop_v1"
  type: "Dropout"
  bottom: "dl_v1"
  top: "dl_v1"
  dropout_param {
    dropout_ratio: 0.5
  }
}
layer {
  name: "concat_xuv"
  type: "Concat"
  bottom: "dl_x1"
  bottom: "dl_u1"
  bottom: "dl_v1"
  top: "concat_xuv"
  concat_param {
    axis: 1
  }
}
layer {
  name: "dl_xuv"
  type: "InnerProduct"
  bottom: "concat_xuv"
  top: "dl_xuv"
  inner_product_param {
    num_output: 98
    weight_filler {
      type: "xavier"
    }
    bias_filler {
      type: "constant"
    }
  }
}
layer {
  name: "relu_xuv"
  type: "ReLU"
  bottom: "dl_xuv"
  top: "dl_xuv"
}
layer {
  name: "drop_xuv"
  type: "Dropout"
  bottom: "dl_xuv"
  top: "dl_xuv"
  dropout_param {
    dropout_ratio: 0.5
  }
}
layer {
  name: "output"
  type: "InnerProduct"
  bottom: "dl_xuv"
  top: "output"
  inner_product_param {
    num_output: 11
    weight_filler {
      type: "xavier"
    }
    bias_filler {
      type: "constant"
    }
  }
}
layer {
  name: "drop_output"
  type: "Dropout"
  bottom: "output"
  top: "output"
  dropout_param {
    dropout_ratio: 0.5
  }
}
layer {
  name: "accuracy"
  type: "Accuracy"
  bottom: "output"
  bottom: "segments"
  top: "accuracy"
  include {
    phase: TEST
  }
}
layer {
  name: "loss"
  type: "SoftmaxWithLoss"
  bottom: "output"
  bottom: "segments"
  top: "loss"
}
I0531 15:26:30.034507 30715 layer_factory.hpp:77] Creating layer data
I0531 15:26:30.034523 30715 net.cpp:106] Creating Layer data
I0531 15:26:30.034538 30715 net.cpp:411] data -> hits-x
I0531 15:26:30.034555 30715 net.cpp:411] data -> hits-u
I0531 15:26:30.034570 30715 net.cpp:411] data -> hits-v
I0531 15:26:30.034586 30715 net.cpp:411] data -> segments
I0531 15:26:30.034600 30715 hdf5_data_layer.cpp:79] Loading list of HDF5 filenames from: /lustre/atlas/proj-shared/hep105/caffe_titan/xuv/epsilon_127x50_xuv.testlist
I0531 15:26:30.046521 30715 hdf5_data_layer.cpp:93] Number of HDF5 files: 3
I0531 15:27:34.701104 30715 net.cpp:150] Setting up data
I0531 15:27:34.701266 30715 net.cpp:157] Top shape: 100 1 127 50 (635000)
I0531 15:27:34.701280 30715 net.cpp:157] Top shape: 100 1 127 50 (635000)
I0531 15:27:34.701299 30715 net.cpp:157] Top shape: 100 1 127 50 (635000)
I0531 15:27:34.701311 30715 net.cpp:157] Top shape: 100 (100)
I0531 15:27:34.701321 30715 net.cpp:165] Memory required for data: 7620400
I0531 15:27:34.701335 30715 layer_factory.hpp:77] Creating layer segments_data_3_split
I0531 15:27:34.701364 30715 net.cpp:106] Creating Layer segments_data_3_split
I0531 15:27:34.701375 30715 net.cpp:454] segments_data_3_split <- segments
I0531 15:27:34.701390 30715 net.cpp:411] segments_data_3_split -> segments_data_3_split_0
I0531 15:27:34.701411 30715 net.cpp:411] segments_data_3_split -> segments_data_3_split_1
I0531 15:27:34.701488 30715 net.cpp:150] Setting up segments_data_3_split
I0531 15:27:34.701501 30715 net.cpp:157] Top shape: 100 (100)
I0531 15:27:34.701514 30715 net.cpp:157] Top shape: 100 (100)
I0531 15:27:34.701524 30715 net.cpp:165] Memory required for data: 7621200
I0531 15:27:34.701534 30715 layer_factory.hpp:77] Creating layer conv_x1
I0531 15:27:34.701555 30715 net.cpp:106] Creating Layer conv_x1
I0531 15:27:34.701565 30715 net.cpp:454] conv_x1 <- hits-x
I0531 15:27:34.701581 30715 net.cpp:411] conv_x1 -> conv_x1
I0531 15:27:34.703789 30715 net.cpp:150] Setting up conv_x1
I0531 15:27:34.703812 30715 net.cpp:157] Top shape: 100 12 120 48 (6912000)
I0531 15:27:34.703822 30715 net.cpp:165] Memory required for data: 35269200
I0531 15:27:34.703845 30715 layer_factory.hpp:77] Creating layer relu_x1
I0531 15:27:34.703860 30715 net.cpp:106] Creating Layer relu_x1
I0531 15:27:34.703869 30715 net.cpp:454] relu_x1 <- conv_x1
I0531 15:27:34.703881 30715 net.cpp:397] relu_x1 -> conv_x1 (in-place)
I0531 15:27:34.704396 30715 net.cpp:150] Setting up relu_x1
I0531 15:27:34.704412 30715 net.cpp:157] Top shape: 100 12 120 48 (6912000)
I0531 15:27:34.704422 30715 net.cpp:165] Memory required for data: 62917200
I0531 15:27:34.704432 30715 layer_factory.hpp:77] Creating layer pool_x1
I0531 15:27:34.704448 30715 net.cpp:106] Creating Layer pool_x1
I0531 15:27:34.704459 30715 net.cpp:454] pool_x1 <- conv_x1
I0531 15:27:34.704473 30715 net.cpp:411] pool_x1 -> pool_x1
I0531 15:27:34.704555 30715 net.cpp:150] Setting up pool_x1
I0531 15:27:34.704568 30715 net.cpp:157] Top shape: 100 12 60 48 (3456000)
I0531 15:27:34.704578 30715 net.cpp:165] Memory required for data: 76741200
I0531 15:27:34.704586 30715 layer_factory.hpp:77] Creating layer conv_x2
I0531 15:27:34.704605 30715 net.cpp:106] Creating Layer conv_x2
I0531 15:27:34.704615 30715 net.cpp:454] conv_x2 <- pool_x1
I0531 15:27:34.704629 30715 net.cpp:411] conv_x2 -> conv_x2
I0531 15:27:34.706514 30715 net.cpp:150] Setting up conv_x2
I0531 15:27:34.706537 30715 net.cpp:157] Top shape: 100 20 54 46 (4968000)
I0531 15:27:34.706550 30715 net.cpp:165] Memory required for data: 96613200
I0531 15:27:34.706568 30715 layer_factory.hpp:77] Creating layer relu_x2
I0531 15:27:34.706583 30715 net.cpp:106] Creating Layer relu_x2
I0531 15:27:34.706593 30715 net.cpp:454] relu_x2 <- conv_x2
I0531 15:27:34.706606 30715 net.cpp:397] relu_x2 -> conv_x2 (in-place)
I0531 15:27:34.707118 30715 net.cpp:150] Setting up relu_x2
I0531 15:27:34.707134 30715 net.cpp:157] Top shape: 100 20 54 46 (4968000)
I0531 15:27:34.707144 30715 net.cpp:165] Memory required for data: 116485200
I0531 15:27:34.707155 30715 layer_factory.hpp:77] Creating layer pool_x2
I0531 15:27:34.707168 30715 net.cpp:106] Creating Layer pool_x2
I0531 15:27:34.707178 30715 net.cpp:454] pool_x2 <- conv_x2
I0531 15:27:34.707192 30715 net.cpp:411] pool_x2 -> pool_x2
I0531 15:27:34.707270 30715 net.cpp:150] Setting up pool_x2
I0531 15:27:34.707284 30715 net.cpp:157] Top shape: 100 20 27 46 (2484000)
I0531 15:27:34.707294 30715 net.cpp:165] Memory required for data: 126421200
I0531 15:27:34.707304 30715 layer_factory.hpp:77] Creating layer conv_x3
I0531 15:27:34.707324 30715 net.cpp:106] Creating Layer conv_x3
I0531 15:27:34.707335 30715 net.cpp:454] conv_x3 <- pool_x2
I0531 15:27:34.707350 30715 net.cpp:411] conv_x3 -> conv_x3
I0531 15:27:34.709684 30715 net.cpp:150] Setting up conv_x3
I0531 15:27:34.709708 30715 net.cpp:157] Top shape: 100 28 22 44 (2710400)
I0531 15:27:34.709722 30715 net.cpp:165] Memory required for data: 137262800
I0531 15:27:34.709741 30715 layer_factory.hpp:77] Creating layer relu_x3
I0531 15:27:34.709755 30715 net.cpp:106] Creating Layer relu_x3
I0531 15:27:34.709765 30715 net.cpp:454] relu_x3 <- conv_x3
I0531 15:27:34.709779 30715 net.cpp:397] relu_x3 -> conv_x3 (in-place)
I0531 15:27:34.710132 30715 net.cpp:150] Setting up relu_x3
I0531 15:27:34.710146 30715 net.cpp:157] Top shape: 100 28 22 44 (2710400)
I0531 15:27:34.710157 30715 net.cpp:165] Memory required for data: 148104400
I0531 15:27:34.710167 30715 layer_factory.hpp:77] Creating layer pool_x3
I0531 15:27:34.710180 30715 net.cpp:106] Creating Layer pool_x3
I0531 15:27:34.710191 30715 net.cpp:454] pool_x3 <- conv_x3
I0531 15:27:34.710204 30715 net.cpp:411] pool_x3 -> pool_x3
I0531 15:27:34.710283 30715 net.cpp:150] Setting up pool_x3
I0531 15:27:34.710296 30715 net.cpp:157] Top shape: 100 28 11 44 (1355200)
I0531 15:27:34.710306 30715 net.cpp:165] Memory required for data: 153525200
I0531 15:27:34.710316 30715 layer_factory.hpp:77] Creating layer conv_x4
I0531 15:27:34.710332 30715 net.cpp:106] Creating Layer conv_x4
I0531 15:27:34.710343 30715 net.cpp:454] conv_x4 <- pool_x3
I0531 15:27:34.710357 30715 net.cpp:411] conv_x4 -> conv_x4
I0531 15:27:34.712532 30715 net.cpp:150] Setting up conv_x4
I0531 15:27:34.712554 30715 net.cpp:157] Top shape: 100 36 6 42 (907200)
I0531 15:27:34.712568 30715 net.cpp:165] Memory required for data: 157154000
I0531 15:27:34.712582 30715 layer_factory.hpp:77] Creating layer relu_x4
I0531 15:27:34.712597 30715 net.cpp:106] Creating Layer relu_x4
I0531 15:27:34.712607 30715 net.cpp:454] relu_x4 <- conv_x4
I0531 15:27:34.712620 30715 net.cpp:397] relu_x4 -> conv_x4 (in-place)
I0531 15:27:34.713120 30715 net.cpp:150] Setting up relu_x4
I0531 15:27:34.713136 30715 net.cpp:157] Top shape: 100 36 6 42 (907200)
I0531 15:27:34.713146 30715 net.cpp:165] Memory required for data: 160782800
I0531 15:27:34.713157 30715 layer_factory.hpp:77] Creating layer pool_x4
I0531 15:27:34.713171 30715 net.cpp:106] Creating Layer pool_x4
I0531 15:27:34.713181 30715 net.cpp:454] pool_x4 <- conv_x4
I0531 15:27:34.713196 30715 net.cpp:411] pool_x4 -> pool_x4
I0531 15:27:34.713274 30715 net.cpp:150] Setting up pool_x4
I0531 15:27:34.713286 30715 net.cpp:157] Top shape: 100 36 3 42 (453600)
I0531 15:27:34.713296 30715 net.cpp:165] Memory required for data: 162597200
I0531 15:27:34.713304 30715 layer_factory.hpp:77] Creating layer dl_x1
I0531 15:27:34.713320 30715 net.cpp:106] Creating Layer dl_x1
I0531 15:27:34.713330 30715 net.cpp:454] dl_x1 <- pool_x4
I0531 15:27:34.713346 30715 net.cpp:411] dl_x1 -> dl_x1
I0531 15:27:34.729754 30715 net.cpp:150] Setting up dl_x1
I0531 15:27:34.729784 30715 net.cpp:157] Top shape: 100 196 (19600)
I0531 15:27:34.729799 30715 net.cpp:165] Memory required for data: 162675600
I0531 15:27:34.729822 30715 layer_factory.hpp:77] Creating layer relu_x5
I0531 15:27:34.729837 30715 net.cpp:106] Creating Layer relu_x5
I0531 15:27:34.729847 30715 net.cpp:454] relu_x5 <- dl_x1
I0531 15:27:34.729861 30715 net.cpp:397] relu_x5 -> dl_x1 (in-place)
I0531 15:27:34.730231 30715 net.cpp:150] Setting up relu_x5
I0531 15:27:34.730245 30715 net.cpp:157] Top shape: 100 196 (19600)
I0531 15:27:34.730255 30715 net.cpp:165] Memory required for data: 162754000
I0531 15:27:34.730265 30715 layer_factory.hpp:77] Creating layer drop_x1
I0531 15:27:34.730286 30715 net.cpp:106] Creating Layer drop_x1
I0531 15:27:34.730296 30715 net.cpp:454] drop_x1 <- dl_x1
I0531 15:27:34.730309 30715 net.cpp:397] drop_x1 -> dl_x1 (in-place)
I0531 15:27:34.730357 30715 net.cpp:150] Setting up drop_x1
I0531 15:27:34.730371 30715 net.cpp:157] Top shape: 100 196 (19600)
I0531 15:27:34.730381 30715 net.cpp:165] Memory required for data: 162832400
I0531 15:27:34.730391 30715 layer_factory.hpp:77] Creating layer conv_u1
I0531 15:27:34.730412 30715 net.cpp:106] Creating Layer conv_u1
I0531 15:27:34.730437 30715 net.cpp:454] conv_u1 <- hits-u
I0531 15:27:34.730451 30715 net.cpp:411] conv_u1 -> conv_u1
I0531 15:27:34.732439 30715 net.cpp:150] Setting up conv_u1
I0531 15:27:34.732462 30715 net.cpp:157] Top shape: 100 12 120 48 (6912000)
I0531 15:27:34.732475 30715 net.cpp:165] Memory required for data: 190480400
I0531 15:27:34.732489 30715 layer_factory.hpp:77] Creating layer relu_u1
I0531 15:27:34.732503 30715 net.cpp:106] Creating Layer relu_u1
I0531 15:27:34.732513 30715 net.cpp:454] relu_u1 <- conv_u1
I0531 15:27:34.732527 30715 net.cpp:397] relu_u1 -> conv_u1 (in-place)
I0531 15:27:34.732861 30715 net.cpp:150] Setting up relu_u1
I0531 15:27:34.732875 30715 net.cpp:157] Top shape: 100 12 120 48 (6912000)
I0531 15:27:34.732885 30715 net.cpp:165] Memory required for data: 218128400
I0531 15:27:34.732895 30715 layer_factory.hpp:77] Creating layer pool_u1
I0531 15:27:34.732909 30715 net.cpp:106] Creating Layer pool_u1
I0531 15:27:34.732919 30715 net.cpp:454] pool_u1 <- conv_u1
I0531 15:27:34.732933 30715 net.cpp:411] pool_u1 -> pool_u1
I0531 15:27:34.733017 30715 net.cpp:150] Setting up pool_u1
I0531 15:27:34.733031 30715 net.cpp:157] Top shape: 100 12 60 48 (3456000)
I0531 15:27:34.733042 30715 net.cpp:165] Memory required for data: 231952400
I0531 15:27:34.733052 30715 layer_factory.hpp:77] Creating layer conv_u2
I0531 15:27:34.733069 30715 net.cpp:106] Creating Layer conv_u2
I0531 15:27:34.733080 30715 net.cpp:454] conv_u2 <- pool_u1
I0531 15:27:34.733095 30715 net.cpp:411] conv_u2 -> conv_u2
I0531 15:27:34.735065 30715 net.cpp:150] Setting up conv_u2
I0531 15:27:34.735087 30715 net.cpp:157] Top shape: 100 20 54 46 (4968000)
I0531 15:27:34.735100 30715 net.cpp:165] Memory required for data: 251824400
I0531 15:27:34.735116 30715 layer_factory.hpp:77] Creating layer relu_u2
I0531 15:27:34.735129 30715 net.cpp:106] Creating Layer relu_u2
I0531 15:27:34.735139 30715 net.cpp:454] relu_u2 <- conv_u2
I0531 15:27:34.735152 30715 net.cpp:397] relu_u2 -> conv_u2 (in-place)
I0531 15:27:34.735656 30715 net.cpp:150] Setting up relu_u2
I0531 15:27:34.735672 30715 net.cpp:157] Top shape: 100 20 54 46 (4968000)
I0531 15:27:34.735683 30715 net.cpp:165] Memory required for data: 271696400
I0531 15:27:34.735693 30715 layer_factory.hpp:77] Creating layer pool_u2
I0531 15:27:34.735707 30715 net.cpp:106] Creating Layer pool_u2
I0531 15:27:34.735718 30715 net.cpp:454] pool_u2 <- conv_u2
I0531 15:27:34.735730 30715 net.cpp:411] pool_u2 -> pool_u2
I0531 15:27:34.735810 30715 net.cpp:150] Setting up pool_u2
I0531 15:27:34.735823 30715 net.cpp:157] Top shape: 100 20 27 46 (2484000)
I0531 15:27:34.735832 30715 net.cpp:165] Memory required for data: 281632400
I0531 15:27:34.735841 30715 layer_factory.hpp:77] Creating layer conv_u3
I0531 15:27:34.735860 30715 net.cpp:106] Creating Layer conv_u3
I0531 15:27:34.735872 30715 net.cpp:454] conv_u3 <- pool_u2
I0531 15:27:34.735887 30715 net.cpp:411] conv_u3 -> conv_u3
I0531 15:27:34.737910 30715 net.cpp:150] Setting up conv_u3
I0531 15:27:34.737933 30715 net.cpp:157] Top shape: 100 28 22 44 (2710400)
I0531 15:27:34.737946 30715 net.cpp:165] Memory required for data: 292474000
I0531 15:27:34.737962 30715 layer_factory.hpp:77] Creating layer relu_u3
I0531 15:27:34.737975 30715 net.cpp:106] Creating Layer relu_u3
I0531 15:27:34.737985 30715 net.cpp:454] relu_u3 <- conv_u3
I0531 15:27:34.738006 30715 net.cpp:397] relu_u3 -> conv_u3 (in-place)
I0531 15:27:34.738335 30715 net.cpp:150] Setting up relu_u3
I0531 15:27:34.738349 30715 net.cpp:157] Top shape: 100 28 22 44 (2710400)
I0531 15:27:34.738360 30715 net.cpp:165] Memory required for data: 303315600
I0531 15:27:34.738370 30715 layer_factory.hpp:77] Creating layer pool_u3
I0531 15:27:34.738384 30715 net.cpp:106] Creating Layer pool_u3
I0531 15:27:34.738394 30715 net.cpp:454] pool_u3 <- conv_u3
I0531 15:27:34.738407 30715 net.cpp:411] pool_u3 -> pool_u3
I0531 15:27:34.738486 30715 net.cpp:150] Setting up pool_u3
I0531 15:27:34.738499 30715 net.cpp:157] Top shape: 100 28 11 44 (1355200)
I0531 15:27:34.738509 30715 net.cpp:165] Memory required for data: 308736400
I0531 15:27:34.738530 30715 layer_factory.hpp:77] Creating layer conv_u4
I0531 15:27:34.738548 30715 net.cpp:106] Creating Layer conv_u4
I0531 15:27:34.738560 30715 net.cpp:454] conv_u4 <- pool_u3
I0531 15:27:34.738574 30715 net.cpp:411] conv_u4 -> conv_u4
I0531 15:27:34.740762 30715 net.cpp:150] Setting up conv_u4
I0531 15:27:34.740785 30715 net.cpp:157] Top shape: 100 36 6 42 (907200)
I0531 15:27:34.740797 30715 net.cpp:165] Memory required for data: 312365200
I0531 15:27:34.740820 30715 layer_factory.hpp:77] Creating layer relu_u4
I0531 15:27:34.740834 30715 net.cpp:106] Creating Layer relu_u4
I0531 15:27:34.740844 30715 net.cpp:454] relu_u4 <- conv_u4
I0531 15:27:34.740859 30715 net.cpp:397] relu_u4 -> conv_u4 (in-place)
I0531 15:27:34.741190 30715 net.cpp:150] Setting up relu_u4
I0531 15:27:34.741204 30715 net.cpp:157] Top shape: 100 36 6 42 (907200)
I0531 15:27:34.741214 30715 net.cpp:165] Memory required for data: 315994000
I0531 15:27:34.741225 30715 layer_factory.hpp:77] Creating layer pool_u4
I0531 15:27:34.741237 30715 net.cpp:106] Creating Layer pool_u4
I0531 15:27:34.741248 30715 net.cpp:454] pool_u4 <- conv_u4
I0531 15:27:34.741261 30715 net.cpp:411] pool_u4 -> pool_u4
I0531 15:27:34.741339 30715 net.cpp:150] Setting up pool_u4
I0531 15:27:34.741353 30715 net.cpp:157] Top shape: 100 36 3 42 (453600)
I0531 15:27:34.741363 30715 net.cpp:165] Memory required for data: 317808400
I0531 15:27:34.741370 30715 layer_factory.hpp:77] Creating layer dl_u1
I0531 15:27:34.741385 30715 net.cpp:106] Creating Layer dl_u1
I0531 15:27:34.741396 30715 net.cpp:454] dl_u1 <- pool_u4
I0531 15:27:34.741410 30715 net.cpp:411] dl_u1 -> dl_u1
I0531 15:27:34.757803 30715 net.cpp:150] Setting up dl_u1
I0531 15:27:34.757832 30715 net.cpp:157] Top shape: 100 196 (19600)
I0531 15:27:34.757843 30715 net.cpp:165] Memory required for data: 317886800
I0531 15:27:34.757858 30715 layer_factory.hpp:77] Creating layer relu_u5
I0531 15:27:34.757874 30715 net.cpp:106] Creating Layer relu_u5
I0531 15:27:34.757884 30715 net.cpp:454] relu_u5 <- dl_u1
I0531 15:27:34.757899 30715 net.cpp:397] relu_u5 -> dl_u1 (in-place)
I0531 15:27:34.758491 30715 net.cpp:150] Setting up relu_u5
I0531 15:27:34.758512 30715 net.cpp:157] Top shape: 100 196 (19600)
I0531 15:27:34.758523 30715 net.cpp:165] Memory required for data: 317965200
I0531 15:27:34.758533 30715 layer_factory.hpp:77] Creating layer drop_u1
I0531 15:27:34.758548 30715 net.cpp:106] Creating Layer drop_u1
I0531 15:27:34.758558 30715 net.cpp:454] drop_u1 <- dl_u1
I0531 15:27:34.758571 30715 net.cpp:397] drop_u1 -> dl_u1 (in-place)
I0531 15:27:34.758620 30715 net.cpp:150] Setting up drop_u1
I0531 15:27:34.758635 30715 net.cpp:157] Top shape: 100 196 (19600)
I0531 15:27:34.758644 30715 net.cpp:165] Memory required for data: 318043600
I0531 15:27:34.758656 30715 layer_factory.hpp:77] Creating layer conv_v1
I0531 15:27:34.758683 30715 net.cpp:106] Creating Layer conv_v1
I0531 15:27:34.758694 30715 net.cpp:454] conv_v1 <- hits-v
I0531 15:27:34.758708 30715 net.cpp:411] conv_v1 -> conv_v1
I0531 15:27:34.760648 30715 net.cpp:150] Setting up conv_v1
I0531 15:27:34.760670 30715 net.cpp:157] Top shape: 100 12 120 48 (6912000)
I0531 15:27:34.760682 30715 net.cpp:165] Memory required for data: 345691600
I0531 15:27:34.760699 30715 layer_factory.hpp:77] Creating layer relu_v1
I0531 15:27:34.760712 30715 net.cpp:106] Creating Layer relu_v1
I0531 15:27:34.760723 30715 net.cpp:454] relu_v1 <- conv_v1
I0531 15:27:34.760735 30715 net.cpp:397] relu_v1 -> conv_v1 (in-place)
I0531 15:27:34.761067 30715 net.cpp:150] Setting up relu_v1
I0531 15:27:34.761081 30715 net.cpp:157] Top shape: 100 12 120 48 (6912000)
I0531 15:27:34.761092 30715 net.cpp:165] Memory required for data: 373339600
I0531 15:27:34.761102 30715 layer_factory.hpp:77] Creating layer pool_v1
I0531 15:27:34.761116 30715 net.cpp:106] Creating Layer pool_v1
I0531 15:27:34.761126 30715 net.cpp:454] pool_v1 <- conv_v1
I0531 15:27:34.761140 30715 net.cpp:411] pool_v1 -> pool_v1
I0531 15:27:34.761220 30715 net.cpp:150] Setting up pool_v1
I0531 15:27:34.761247 30715 net.cpp:157] Top shape: 100 12 60 48 (3456000)
I0531 15:27:34.761257 30715 net.cpp:165] Memory required for data: 387163600
I0531 15:27:34.761268 30715 layer_factory.hpp:77] Creating layer conv_v2
I0531 15:27:34.761286 30715 net.cpp:106] Creating Layer conv_v2
I0531 15:27:34.761296 30715 net.cpp:454] conv_v2 <- pool_v1
I0531 15:27:34.761310 30715 net.cpp:411] conv_v2 -> conv_v2
I0531 15:27:34.763341 30715 net.cpp:150] Setting up conv_v2
I0531 15:27:34.763365 30715 net.cpp:157] Top shape: 100 20 54 46 (4968000)
I0531 15:27:34.763377 30715 net.cpp:165] Memory required for data: 407035600
I0531 15:27:34.763392 30715 layer_factory.hpp:77] Creating layer relu_v2
I0531 15:27:34.763406 30715 net.cpp:106] Creating Layer relu_v2
I0531 15:27:34.763417 30715 net.cpp:454] relu_v2 <- conv_v2
I0531 15:27:34.763429 30715 net.cpp:397] relu_v2 -> conv_v2 (in-place)
I0531 15:27:34.763936 30715 net.cpp:150] Setting up relu_v2
I0531 15:27:34.763952 30715 net.cpp:157] Top shape: 100 20 54 46 (4968000)
I0531 15:27:34.763963 30715 net.cpp:165] Memory required for data: 426907600
I0531 15:27:34.763973 30715 layer_factory.hpp:77] Creating layer pool_v2
I0531 15:27:34.763988 30715 net.cpp:106] Creating Layer pool_v2
I0531 15:27:34.763998 30715 net.cpp:454] pool_v2 <- conv_v2
I0531 15:27:34.764011 30715 net.cpp:411] pool_v2 -> pool_v2
I0531 15:27:34.764092 30715 net.cpp:150] Setting up pool_v2
I0531 15:27:34.764106 30715 net.cpp:157] Top shape: 100 20 27 46 (2484000)
I0531 15:27:34.764116 30715 net.cpp:165] Memory required for data: 436843600
I0531 15:27:34.764125 30715 layer_factory.hpp:77] Creating layer conv_v3
I0531 15:27:34.764143 30715 net.cpp:106] Creating Layer conv_v3
I0531 15:27:34.764154 30715 net.cpp:454] conv_v3 <- pool_v2
I0531 15:27:34.764168 30715 net.cpp:411] conv_v3 -> conv_v3
I0531 15:27:34.766252 30715 net.cpp:150] Setting up conv_v3
I0531 15:27:34.766275 30715 net.cpp:157] Top shape: 100 28 22 44 (2710400)
I0531 15:27:34.766288 30715 net.cpp:165] Memory required for data: 447685200
I0531 15:27:34.766302 30715 layer_factory.hpp:77] Creating layer relu_v3
I0531 15:27:34.766315 30715 net.cpp:106] Creating Layer relu_v3
I0531 15:27:34.766326 30715 net.cpp:454] relu_v3 <- conv_v3
I0531 15:27:34.766338 30715 net.cpp:397] relu_v3 -> conv_v3 (in-place)
I0531 15:27:34.766839 30715 net.cpp:150] Setting up relu_v3
I0531 15:27:34.766856 30715 net.cpp:157] Top shape: 100 28 22 44 (2710400)
I0531 15:27:34.766866 30715 net.cpp:165] Memory required for data: 458526800
I0531 15:27:34.766876 30715 layer_factory.hpp:77] Creating layer pool_v3
I0531 15:27:34.766890 30715 net.cpp:106] Creating Layer pool_v3
I0531 15:27:34.766901 30715 net.cpp:454] pool_v3 <- conv_v3
I0531 15:27:34.766913 30715 net.cpp:411] pool_v3 -> pool_v3
I0531 15:27:34.766993 30715 net.cpp:150] Setting up pool_v3
I0531 15:27:34.767006 30715 net.cpp:157] Top shape: 100 28 11 44 (1355200)
I0531 15:27:34.767016 30715 net.cpp:165] Memory required for data: 463947600
I0531 15:27:34.767026 30715 layer_factory.hpp:77] Creating layer conv_v4
I0531 15:27:34.767042 30715 net.cpp:106] Creating Layer conv_v4
I0531 15:27:34.767053 30715 net.cpp:454] conv_v4 <- pool_v3
I0531 15:27:34.767067 30715 net.cpp:411] conv_v4 -> conv_v4
I0531 15:27:34.769243 30715 net.cpp:150] Setting up conv_v4
I0531 15:27:34.769266 30715 net.cpp:157] Top shape: 100 36 6 42 (907200)
I0531 15:27:34.769279 30715 net.cpp:165] Memory required for data: 467576400
I0531 15:27:34.769294 30715 layer_factory.hpp:77] Creating layer relu_v4
I0531 15:27:34.769307 30715 net.cpp:106] Creating Layer relu_v4
I0531 15:27:34.769317 30715 net.cpp:454] relu_v4 <- conv_v4
I0531 15:27:34.769330 30715 net.cpp:397] relu_v4 -> conv_v4 (in-place)
I0531 15:27:34.769661 30715 net.cpp:150] Setting up relu_v4
I0531 15:27:34.769675 30715 net.cpp:157] Top shape: 100 36 6 42 (907200)
I0531 15:27:34.769685 30715 net.cpp:165] Memory required for data: 471205200
I0531 15:27:34.769695 30715 layer_factory.hpp:77] Creating layer pool_v4
I0531 15:27:34.769709 30715 net.cpp:106] Creating Layer pool_v4
I0531 15:27:34.769729 30715 net.cpp:454] pool_v4 <- conv_v4
I0531 15:27:34.769743 30715 net.cpp:411] pool_v4 -> pool_v4
I0531 15:27:34.769821 30715 net.cpp:150] Setting up pool_v4
I0531 15:27:34.769835 30715 net.cpp:157] Top shape: 100 36 3 42 (453600)
I0531 15:27:34.769845 30715 net.cpp:165] Memory required for data: 473019600
I0531 15:27:34.769853 30715 layer_factory.hpp:77] Creating layer dl_v1
I0531 15:27:34.769867 30715 net.cpp:106] Creating Layer dl_v1
I0531 15:27:34.769878 30715 net.cpp:454] dl_v1 <- pool_v4
I0531 15:27:34.769892 30715 net.cpp:411] dl_v1 -> dl_v1
I0531 15:27:34.786315 30715 net.cpp:150] Setting up dl_v1
I0531 15:27:34.786344 30715 net.cpp:157] Top shape: 100 196 (19600)
I0531 15:27:34.786355 30715 net.cpp:165] Memory required for data: 473098000
I0531 15:27:34.786370 30715 layer_factory.hpp:77] Creating layer relu_v5
I0531 15:27:34.786386 30715 net.cpp:106] Creating Layer relu_v5
I0531 15:27:34.786396 30715 net.cpp:454] relu_v5 <- dl_v1
I0531 15:27:34.786411 30715 net.cpp:397] relu_v5 -> dl_v1 (in-place)
I0531 15:27:34.786996 30715 net.cpp:150] Setting up relu_v5
I0531 15:27:34.787019 30715 net.cpp:157] Top shape: 100 196 (19600)
I0531 15:27:34.787029 30715 net.cpp:165] Memory required for data: 473176400
I0531 15:27:34.787039 30715 layer_factory.hpp:77] Creating layer drop_v1
I0531 15:27:34.787055 30715 net.cpp:106] Creating Layer drop_v1
I0531 15:27:34.787065 30715 net.cpp:454] drop_v1 <- dl_v1
I0531 15:27:34.787078 30715 net.cpp:397] drop_v1 -> dl_v1 (in-place)
I0531 15:27:34.787127 30715 net.cpp:150] Setting up drop_v1
I0531 15:27:34.787142 30715 net.cpp:157] Top shape: 100 196 (19600)
I0531 15:27:34.787152 30715 net.cpp:165] Memory required for data: 473254800
I0531 15:27:34.787163 30715 layer_factory.hpp:77] Creating layer concat_xuv
I0531 15:27:34.787178 30715 net.cpp:106] Creating Layer concat_xuv
I0531 15:27:34.787187 30715 net.cpp:454] concat_xuv <- dl_x1
I0531 15:27:34.787199 30715 net.cpp:454] concat_xuv <- dl_u1
I0531 15:27:34.787210 30715 net.cpp:454] concat_xuv <- dl_v1
I0531 15:27:34.787225 30715 net.cpp:411] concat_xuv -> concat_xuv
I0531 15:27:34.787273 30715 net.cpp:150] Setting up concat_xuv
I0531 15:27:34.787286 30715 net.cpp:157] Top shape: 100 588 (58800)
I0531 15:27:34.787297 30715 net.cpp:165] Memory required for data: 473490000
I0531 15:27:34.787307 30715 layer_factory.hpp:77] Creating layer dl_xuv
I0531 15:27:34.787320 30715 net.cpp:106] Creating Layer dl_xuv
I0531 15:27:34.787331 30715 net.cpp:454] dl_xuv <- concat_xuv
I0531 15:27:34.787344 30715 net.cpp:411] dl_xuv -> dl_xuv
I0531 15:27:34.788391 30715 net.cpp:150] Setting up dl_xuv
I0531 15:27:34.788410 30715 net.cpp:157] Top shape: 100 98 (9800)
I0531 15:27:34.788424 30715 net.cpp:165] Memory required for data: 473529200
I0531 15:27:34.788439 30715 layer_factory.hpp:77] Creating layer relu_xuv
I0531 15:27:34.788451 30715 net.cpp:106] Creating Layer relu_xuv
I0531 15:27:34.788461 30715 net.cpp:454] relu_xuv <- dl_xuv
I0531 15:27:34.788475 30715 net.cpp:397] relu_xuv -> dl_xuv (in-place)
I0531 15:27:34.788805 30715 net.cpp:150] Setting up relu_xuv
I0531 15:27:34.788820 30715 net.cpp:157] Top shape: 100 98 (9800)
I0531 15:27:34.788830 30715 net.cpp:165] Memory required for data: 473568400
I0531 15:27:34.788841 30715 layer_factory.hpp:77] Creating layer drop_xuv
I0531 15:27:34.788852 30715 net.cpp:106] Creating Layer drop_xuv
I0531 15:27:34.788863 30715 net.cpp:454] drop_xuv <- dl_xuv
I0531 15:27:34.788877 30715 net.cpp:397] drop_xuv -> dl_xuv (in-place)
I0531 15:27:34.788923 30715 net.cpp:150] Setting up drop_xuv
I0531 15:27:34.788936 30715 net.cpp:157] Top shape: 100 98 (9800)
I0531 15:27:34.788945 30715 net.cpp:165] Memory required for data: 473607600
I0531 15:27:34.788955 30715 layer_factory.hpp:77] Creating layer output
I0531 15:27:34.788969 30715 net.cpp:106] Creating Layer output
I0531 15:27:34.788980 30715 net.cpp:454] output <- dl_xuv
I0531 15:27:34.788992 30715 net.cpp:411] output -> output
I0531 15:27:34.789237 30715 net.cpp:150] Setting up output
I0531 15:27:34.789250 30715 net.cpp:157] Top shape: 100 11 (1100)
I0531 15:27:34.789273 30715 net.cpp:165] Memory required for data: 473612000
I0531 15:27:34.789305 30715 layer_factory.hpp:77] Creating layer drop_output
I0531 15:27:34.789319 30715 net.cpp:106] Creating Layer drop_output
I0531 15:27:34.789330 30715 net.cpp:454] drop_output <- output
I0531 15:27:34.789343 30715 net.cpp:397] drop_output -> output (in-place)
I0531 15:27:34.789389 30715 net.cpp:150] Setting up drop_output
I0531 15:27:34.789402 30715 net.cpp:157] Top shape: 100 11 (1100)
I0531 15:27:34.789412 30715 net.cpp:165] Memory required for data: 473616400
I0531 15:27:34.789422 30715 layer_factory.hpp:77] Creating layer output_drop_output_0_split
I0531 15:27:34.789433 30715 net.cpp:106] Creating Layer output_drop_output_0_split
I0531 15:27:34.789444 30715 net.cpp:454] output_drop_output_0_split <- output
I0531 15:27:34.789458 30715 net.cpp:411] output_drop_output_0_split -> output_drop_output_0_split_0
I0531 15:27:34.789474 30715 net.cpp:411] output_drop_output_0_split -> output_drop_output_0_split_1
I0531 15:27:34.789549 30715 net.cpp:150] Setting up output_drop_output_0_split
I0531 15:27:34.789563 30715 net.cpp:157] Top shape: 100 11 (1100)
I0531 15:27:34.789575 30715 net.cpp:157] Top shape: 100 11 (1100)
I0531 15:27:34.789584 30715 net.cpp:165] Memory required for data: 473625200
I0531 15:27:34.789594 30715 layer_factory.hpp:77] Creating layer accuracy
I0531 15:27:34.789615 30715 net.cpp:106] Creating Layer accuracy
I0531 15:27:34.789625 30715 net.cpp:454] accuracy <- output_drop_output_0_split_0
I0531 15:27:34.789638 30715 net.cpp:454] accuracy <- segments_data_3_split_0
I0531 15:27:34.789650 30715 net.cpp:411] accuracy -> accuracy
…
