…
I0531 13:24:03.112416  6377 net.cpp:322] The NetState phase (0) differed from the phase (1) specified by a rule in layer data
I0531 13:24:03.112503  6377 net.cpp:322] The NetState phase (0) differed from the phase (1) specified by a rule in layer accuracy
I0531 13:24:03.113253  6377 net.cpp:49] Initializing net from parameters: 
name: "epsilon_127x50_xuv"
state {
  phase: TRAIN
}
layer {
  name: "data"
  type: "HDF5Data"
  top: "hits-x"
  top: "hits-u"
  top: "hits-v"
  top: "segments"
  include {
    phase: TRAIN
  }
  hdf5_data_param {
    source: "/lustre/atlas/proj-shared/hep105/caffe_titan/xuv/epsilon_127x50_xuv.trainlist"
    batch_size: 100
  }
}
layer {
  name: "conv_x1"
  type: "Convolution"
  bottom: "hits-x"
  top: "conv_x1"
  convolution_param {
    num_output: 12
    pad: 0
    stride: 1
    weight_filler {
      type: "xavier"
    }
    bias_filler {
      type: "constant"
    }
    kernel_h: 8
    kernel_w: 3
  }
}
layer {
  name: "relu_x1"
  type: "ReLU"
  bottom: "conv_x1"
  top: "conv_x1"
}
layer {
  name: "pool_x1"
  type: "Pooling"
  bottom: "conv_x1"
  top: "pool_x1"
  pooling_param {
    pool: MAX
    kernel_h: 2
    kernel_w: 1
    stride_h: 2
    stride_w: 1
  }
}
layer {
  name: "conv_x2"
  type: "Convolution"
  bottom: "pool_x1"
  top: "conv_x2"
  convolution_param {
    num_output: 20
    pad: 0
    stride: 1
    weight_filler {
      type: "xavier"
    }
    bias_filler {
      type: "constant"
    }
    kernel_h: 7
    kernel_w: 3
  }
}
layer {
  name: "relu_x2"
  type: "ReLU"
  bottom: "conv_x2"
  top: "conv_x2"
}
layer {
  name: "pool_x2"
  type: "Pooling"
  bottom: "conv_x2"
  top: "pool_x2"
  pooling_param {
    pool: MAX
    kernel_h: 2
    kernel_w: 1
    stride_h: 2
    stride_w: 1
  }
}
layer {
  name: "conv_x3"
  type: "Convolution"
  bottom: "pool_x2"
  top: "conv_x3"
  convolution_param {
    num_output: 28
    pad: 0
    stride: 1
    weight_filler {
      type: "xavier"
    }
    bias_filler {
      type: "constant"
    }
    kernel_h: 6
    kernel_w: 3
  }
}
layer {
  name: "relu_x3"
  type: "ReLU"
  bottom: "conv_x3"
  top: "conv_x3"
}
layer {
  name: "pool_x3"
  type: "Pooling"
  bottom: "conv_x3"
  top: "pool_x3"
  pooling_param {
    pool: MAX
    kernel_h: 2
    kernel_w: 1
    stride_h: 2
    stride_w: 1
  }
}
layer {
  name: "conv_x4"
  type: "Convolution"
  bottom: "pool_x3"
  top: "conv_x4"
  convolution_param {
    num_output: 36
    pad: 0
    stride: 1
    weight_filler {
      type: "xavier"
    }
    bias_filler {
      type: "constant"
    }
    kernel_h: 6
    kernel_w: 3
  }
}
layer {
  name: "relu_x4"
  type: "ReLU"
  bottom: "conv_x4"
  top: "conv_x4"
}
layer {
  name: "pool_x4"
  type: "Pooling"
  bottom: "conv_x4"
  top: "pool_x4"
  pooling_param {
    pool: MAX
    kernel_h: 2
    kernel_w: 1
    stride_h: 2
    stride_w: 1
  }
}
layer {
  name: "dl_x1"
  type: "InnerProduct"
  bottom: "pool_x4"
  top: "dl_x1"
  inner_product_param {
    num_output: 196
    weight_filler {
      type: "xavier"
    }
    bias_filler {
      type: "constant"
    }
  }
}
layer {
  name: "relu_x5"
  type: "ReLU"
  bottom: "dl_x1"
  top: "dl_x1"
}
layer {
  name: "drop_x1"
  type: "Dropout"
  bottom: "dl_x1"
  top: "dl_x1"
  dropout_param {
    dropout_ratio: 0.5
  }
}
layer {
  name: "conv_u1"
  type: "Convolution"
  bottom: "hits-u"
  top: "conv_u1"
  convolution_param {
    num_output: 12
    pad: 0
    stride: 1
    weight_filler {
      type: "xavier"
    }
    bias_filler {
      type: "constant"
    }
    kernel_h: 8
    kernel_w: 3
  }
}
layer {
  name: "relu_u1"
  type: "ReLU"
  bottom: "conv_u1"
  top: "conv_u1"
}
layer {
  name: "pool_u1"
  type: "Pooling"
  bottom: "conv_u1"
  top: "pool_u1"
  pooling_param {
    pool: MAX
    kernel_h: 2
    kernel_w: 1
    stride_h: 2
    stride_w: 1
  }
}
layer {
  name: "conv_u2"
  type: "Convolution"
  bottom: "pool_u1"
  top: "conv_u2"
  convolution_param {
    num_output: 20
    pad: 0
    stride: 1
    weight_filler {
      type: "xavier"
    }
    bias_filler {
      type: "constant"
    }
    kernel_h: 7
    kernel_w: 3
  }
}
layer {
  name: "relu_u2"
  type: "ReLU"
  bottom: "conv_u2"
  top: "conv_u2"
}
layer {
  name: "pool_u2"
  type: "Pooling"
  bottom: "conv_u2"
  top: "pool_u2"
  pooling_param {
    pool: MAX
    kernel_h: 2
    kernel_w: 1
    stride_h: 2
    stride_w: 1
  }
}
layer {
  name: "conv_u3"
  type: "Convolution"
  bottom: "pool_u2"
  top: "conv_u3"
  convolution_param {
    num_output: 28
    pad: 0
    stride: 1
    weight_filler {
      type: "xavier"
    }
    bias_filler {
      type: "constant"
    }
    kernel_h: 6
    kernel_w: 3
  }
}
layer {
  name: "relu_u3"
  type: "ReLU"
  bottom: "conv_u3"
  top: "conv_u3"
}
layer {
  name: "pool_u3"
  type: "Pooling"
  bottom: "conv_u3"
  top: "pool_u3"
  pooling_param {
    pool: MAX
    kernel_h: 2
    kernel_w: 1
    stride_h: 2
    stride_w: 1
  }
}
layer {
  name: "conv_u4"
  type: "Convolution"
  bottom: "pool_u3"
  top: "conv_u4"
  convolution_param {
    num_output: 36
    pad: 0
    stride: 1
    weight_filler {
      type: "xavier"
    }
    bias_filler {
      type: "constant"
    }
    kernel_h: 6
    kernel_w: 3
  }
}
layer {
  name: "relu_u4"
  type: "ReLU"
  bottom: "conv_u4"
  top: "conv_u4"
}
layer {
  name: "pool_u4"
  type: "Pooling"
  bottom: "conv_u4"
  top: "pool_u4"
  pooling_param {
    pool: MAX
    kernel_h: 2
    kernel_w: 1
    stride_h: 2
    stride_w: 1
  }
}
layer {
  name: "dl_u1"
  type: "InnerProduct"
  bottom: "pool_u4"
  top: "dl_u1"
  inner_product_param {
    num_output: 196
    weight_filler {
      type: "xavier"
    }
    bias_filler {
      type: "constant"
    }
  }
}
layer {
  name: "relu_u5"
  type: "ReLU"
  bottom: "dl_u1"
  top: "dl_u1"
}
layer {
  name: "drop_u1"
  type: "Dropout"
  bottom: "dl_u1"
  top: "dl_u1"
  dropout_param {
    dropout_ratio: 0.5
  }
}
layer {
  name: "conv_v1"
  type: "Convolution"
  bottom: "hits-v"
  top: "conv_v1"
  convolution_param {
    num_output: 12
    pad: 0
    stride: 1
    weight_filler {
      type: "xavier"
    }
    bias_filler {
      type: "constant"
    }
    kernel_h: 8
    kernel_w: 3
  }
}
layer {
  name: "relu_v1"
  type: "ReLU"
  bottom: "conv_v1"
  top: "conv_v1"
}
layer {
  name: "pool_v1"
  type: "Pooling"
  bottom: "conv_v1"
  top: "pool_v1"
  pooling_param {
    pool: MAX
    kernel_h: 2
    kernel_w: 1
    stride_h: 2
    stride_w: 1
  }
}
layer {
  name: "conv_v2"
  type: "Convolution"
  bottom: "pool_v1"
  top: "conv_v2"
  convolution_param {
    num_output: 20
    pad: 0
    stride: 1
    weight_filler {
      type: "xavier"
    }
    bias_filler {
      type: "constant"
    }
    kernel_h: 7
    kernel_w: 3
  }
}
layer {
  name: "relu_v2"
  type: "ReLU"
  bottom: "conv_v2"
  top: "conv_v2"
}
layer {
  name: "pool_v2"
  type: "Pooling"
  bottom: "conv_v2"
  top: "pool_v2"
  pooling_param {
    pool: MAX
    kernel_h: 2
    kernel_w: 1
    stride_h: 2
    stride_w: 1
  }
}
layer {
  name: "conv_v3"
  type: "Convolution"
  bottom: "pool_v2"
  top: "conv_v3"
  convolution_param {
    num_output: 28
    pad: 0
    stride: 1
    weight_filler {
      type: "xavier"
    }
    bias_filler {
      type: "constant"
    }
    kernel_h: 6
    kernel_w: 3
  }
}
layer {
  name: "relu_v3"
  type: "ReLU"
  bottom: "conv_v3"
  top: "conv_v3"
}
layer {
  name: "pool_v3"
  type: "Pooling"
  bottom: "conv_v3"
  top: "pool_v3"
  pooling_param {
    pool: MAX
    kernel_h: 2
    kernel_w: 1
    stride_h: 2
    stride_w: 1
  }
}
layer {
  name: "conv_v4"
  type: "Convolution"
  bottom: "pool_v3"
  top: "conv_v4"
  convolution_param {
    num_output: 36
    pad: 0
    stride: 1
    weight_filler {
      type: "xavier"
    }
    bias_filler {
      type: "constant"
    }
    kernel_h: 6
    kernel_w: 3
  }
}
layer {
  name: "relu_v4"
  type: "ReLU"
  bottom: "conv_v4"
  top: "conv_v4"
}
layer {
  name: "pool_v4"
  type: "Pooling"
  bottom: "conv_v4"
  top: "pool_v4"
  pooling_param {
    pool: MAX
    kernel_h: 2
    kernel_w: 1
    stride_h: 2
    stride_w: 1
  }
}
layer {
  name: "dl_v1"
  type: "InnerProduct"
  bottom: "pool_v4"
  top: "dl_v1"
  inner_product_param {
    num_output: 196
    weight_filler {
      type: "xavier"
    }
    bias_filler {
      type: "constant"
    }
  }
}
layer {
  name: "relu_v5"
  type: "ReLU"
  bottom: "dl_v1"
  top: "dl_v1"
}
layer {
  name: "drop_v1"
  type: "Dropout"
  bottom: "dl_v1"
  top: "dl_v1"
  dropout_param {
    dropout_ratio: 0.5
  }
}
layer {
  name: "concat_xuv"
  type: "Concat"
  bottom: "dl_x1"
  bottom: "dl_u1"
  bottom: "dl_v1"
  top: "concat_xuv"
  concat_param {
    axis: 1
  }
}
layer {
  name: "dl_xuv"
  type: "InnerProduct"
  bottom: "concat_xuv"
  top: "dl_xuv"
  inner_product_param {
    num_output: 98
    weight_filler {
      type: "xavier"
    }
    bias_filler {
      type: "constant"
    }
  }
}
layer {
  name: "relu_xuv"
  type: "ReLU"
  bottom: "dl_xuv"
  top: "dl_xuv"
}
layer {
  name: "drop_xuv"
  type: "Dropout"
  bottom: "dl_xuv"
  top: "dl_xuv"
  dropout_param {
    dropout_ratio: 0.5
  }
}
layer {
  name: "output"
  type: "InnerProduct"
  bottom: "dl_xuv"
  top: "output"
  inner_product_param {
    num_output: 11
    weight_filler {
      type: "xavier"
    }
    bias_filler {
      type: "constant"
    }
  }
}
layer {
  name: "drop_output"
  type: "Dropout"
  bottom: "output"
  top: "output"
  dropout_param {
    dropout_ratio: 0.5
  }
}
layer {
  name: "loss"
  type: "SoftmaxWithLoss"
  bottom: "output"
  bottom: "segments"
  top: "loss"
}
I0531 13:24:03.113607  6377 layer_factory.hpp:77] Creating layer data
I0531 13:24:03.113631  6377 net.cpp:106] Creating Layer data
I0531 13:24:03.113646  6377 net.cpp:411] data -> hits-x
I0531 13:24:03.113680  6377 net.cpp:411] data -> hits-u
I0531 13:24:03.113703  6377 net.cpp:411] data -> hits-v
I0531 13:24:03.113718  6377 net.cpp:411] data -> segments
I0531 13:24:03.113745  6377 hdf5_data_layer.cpp:79] Loading list of HDF5 filenames from: /lustre/atlas/proj-shared/hep105/caffe_titan/xuv/epsilon_127x50_xuv.trainlist
I0531 13:24:03.132138  6377 hdf5_data_layer.cpp:93] Number of HDF5 files: 15
I0531 13:24:03.175072  6377 hdf5.cpp:32] Datatype class: H5T_FLOAT
I0531 13:25:24.689528  6377 hdf5.cpp:35] Datatype class: H5T_INTEGER
I0531 13:25:24.695247  6377 net.cpp:150] Setting up data
I0531 13:25:24.695287  6377 net.cpp:157] Top shape: 100 1 127 50 (635000)
I0531 13:25:24.695302  6377 net.cpp:157] Top shape: 100 1 127 50 (635000)
I0531 13:25:24.695317  6377 net.cpp:157] Top shape: 100 1 127 50 (635000)
I0531 13:25:24.695329  6377 net.cpp:157] Top shape: 100 (100)
I0531 13:25:24.695339  6377 net.cpp:165] Memory required for data: 7620400
I0531 13:25:24.695353  6377 layer_factory.hpp:77] Creating layer conv_x1
I0531 13:25:24.695386  6377 net.cpp:106] Creating Layer conv_x1
I0531 13:25:24.695397  6377 net.cpp:454] conv_x1 <- hits-x
I0531 13:25:24.695420  6377 net.cpp:411] conv_x1 -> conv_x1
I0531 13:25:28.245952  6377 net.cpp:150] Setting up conv_x1
I0531 13:25:28.245995  6377 net.cpp:157] Top shape: 100 12 120 48 (6912000)
I0531 13:25:28.246007  6377 net.cpp:165] Memory required for data: 35268400
I0531 13:25:28.246038  6377 layer_factory.hpp:77] Creating layer relu_x1
I0531 13:25:28.246059  6377 net.cpp:106] Creating Layer relu_x1
I0531 13:25:28.246071  6377 net.cpp:454] relu_x1 <- conv_x1
I0531 13:25:28.246085  6377 net.cpp:397] relu_x1 -> conv_x1 (in-place)
I0531 13:25:28.246600  6377 net.cpp:150] Setting up relu_x1
I0531 13:25:28.246618  6377 net.cpp:157] Top shape: 100 12 120 48 (6912000)
I0531 13:25:28.246628  6377 net.cpp:165] Memory required for data: 62916400
I0531 13:25:28.246639  6377 layer_factory.hpp:77] Creating layer pool_x1
I0531 13:25:28.246655  6377 net.cpp:106] Creating Layer pool_x1
I0531 13:25:28.246665  6377 net.cpp:454] pool_x1 <- conv_x1
I0531 13:25:28.246680  6377 net.cpp:411] pool_x1 -> pool_x1
I0531 13:25:28.246759  6377 net.cpp:150] Setting up pool_x1
I0531 13:25:28.246773  6377 net.cpp:157] Top shape: 100 12 60 48 (3456000)
I0531 13:25:28.246783  6377 net.cpp:165] Memory required for data: 76740400
I0531 13:25:28.246793  6377 layer_factory.hpp:77] Creating layer conv_x2
I0531 13:25:28.246815  6377 net.cpp:106] Creating Layer conv_x2
I0531 13:25:28.246825  6377 net.cpp:454] conv_x2 <- pool_x1
I0531 13:25:28.246840  6377 net.cpp:411] conv_x2 -> conv_x2
I0531 13:25:28.249522  6377 net.cpp:150] Setting up conv_x2
I0531 13:25:28.249546  6377 net.cpp:157] Top shape: 100 20 54 46 (4968000)
I0531 13:25:28.249558  6377 net.cpp:165] Memory required for data: 96612400
I0531 13:25:28.249579  6377 layer_factory.hpp:77] Creating layer relu_x2
I0531 13:25:28.249593  6377 net.cpp:106] Creating Layer relu_x2
I0531 13:25:28.249604  6377 net.cpp:454] relu_x2 <- conv_x2
I0531 13:25:28.249617  6377 net.cpp:397] relu_x2 -> conv_x2 (in-place)
I0531 13:25:28.249943  6377 net.cpp:150] Setting up relu_x2
I0531 13:25:28.249958  6377 net.cpp:157] Top shape: 100 20 54 46 (4968000)
I0531 13:25:28.249969  6377 net.cpp:165] Memory required for data: 116484400
I0531 13:25:28.249979  6377 layer_factory.hpp:77] Creating layer pool_x2
I0531 13:25:28.249994  6377 net.cpp:106] Creating Layer pool_x2
I0531 13:25:28.250003  6377 net.cpp:454] pool_x2 <- conv_x2
I0531 13:25:28.250016  6377 net.cpp:411] pool_x2 -> pool_x2
I0531 13:25:28.250085  6377 net.cpp:150] Setting up pool_x2
I0531 13:25:28.250099  6377 net.cpp:157] Top shape: 100 20 27 46 (2484000)
I0531 13:25:28.250109  6377 net.cpp:165] Memory required for data: 126420400
I0531 13:25:28.250119  6377 layer_factory.hpp:77] Creating layer conv_x3
I0531 13:25:28.250134  6377 net.cpp:106] Creating Layer conv_x3
I0531 13:25:28.250145  6377 net.cpp:454] conv_x3 <- pool_x2
I0531 13:25:28.250159  6377 net.cpp:411] conv_x3 -> conv_x3
I0531 13:25:28.252079  6377 net.cpp:150] Setting up conv_x3
I0531 13:25:28.252104  6377 net.cpp:157] Top shape: 100 28 22 44 (2710400)
I0531 13:25:28.252115  6377 net.cpp:165] Memory required for data: 137262000
I0531 13:25:28.252133  6377 layer_factory.hpp:77] Creating layer relu_x3
I0531 13:25:28.252149  6377 net.cpp:106] Creating Layer relu_x3
I0531 13:25:28.252159  6377 net.cpp:454] relu_x3 <- conv_x3
I0531 13:25:28.252172  6377 net.cpp:397] relu_x3 -> conv_x3 (in-place)
I0531 13:25:28.252643  6377 net.cpp:150] Setting up relu_x3
I0531 13:25:28.252660  6377 net.cpp:157] Top shape: 100 28 22 44 (2710400)
I0531 13:25:28.252681  6377 net.cpp:165] Memory required for data: 148103600
I0531 13:25:28.252692  6377 layer_factory.hpp:77] Creating layer pool_x3
I0531 13:25:28.252706  6377 net.cpp:106] Creating Layer pool_x3
I0531 13:25:28.252715  6377 net.cpp:454] pool_x3 <- conv_x3
I0531 13:25:28.252729  6377 net.cpp:411] pool_x3 -> pool_x3
I0531 13:25:28.252799  6377 net.cpp:150] Setting up pool_x3
I0531 13:25:28.252812  6377 net.cpp:157] Top shape: 100 28 11 44 (1355200)
I0531 13:25:28.252822  6377 net.cpp:165] Memory required for data: 153524400
I0531 13:25:28.252832  6377 layer_factory.hpp:77] Creating layer conv_x4
I0531 13:25:28.252849  6377 net.cpp:106] Creating Layer conv_x4
I0531 13:25:28.252859  6377 net.cpp:454] conv_x4 <- pool_x3
I0531 13:25:28.252872  6377 net.cpp:411] conv_x4 -> conv_x4
I0531 13:25:28.255811  6377 net.cpp:150] Setting up conv_x4
I0531 13:25:28.255839  6377 net.cpp:157] Top shape: 100 36 6 42 (907200)
I0531 13:25:28.255851  6377 net.cpp:165] Memory required for data: 157153200
I0531 13:25:28.255866  6377 layer_factory.hpp:77] Creating layer relu_x4
I0531 13:25:28.255880  6377 net.cpp:106] Creating Layer relu_x4
I0531 13:25:28.255890  6377 net.cpp:454] relu_x4 <- conv_x4
I0531 13:25:28.255904  6377 net.cpp:397] relu_x4 -> conv_x4 (in-place)
I0531 13:25:28.256367  6377 net.cpp:150] Setting up relu_x4
I0531 13:25:28.256383  6377 net.cpp:157] Top shape: 100 36 6 42 (907200)
I0531 13:25:28.256394  6377 net.cpp:165] Memory required for data: 160782000
I0531 13:25:28.256404  6377 layer_factory.hpp:77] Creating layer pool_x4
I0531 13:25:28.256417  6377 net.cpp:106] Creating Layer pool_x4
I0531 13:25:28.256428  6377 net.cpp:454] pool_x4 <- conv_x4
I0531 13:25:28.256440  6377 net.cpp:411] pool_x4 -> pool_x4
I0531 13:25:28.256510  6377 net.cpp:150] Setting up pool_x4
I0531 13:25:28.256523  6377 net.cpp:157] Top shape: 100 36 3 42 (453600)
I0531 13:25:28.256533  6377 net.cpp:165] Memory required for data: 162596400
I0531 13:25:28.256543  6377 layer_factory.hpp:77] Creating layer dl_x1
I0531 13:25:28.256561  6377 net.cpp:106] Creating Layer dl_x1
I0531 13:25:28.256572  6377 net.cpp:454] dl_x1 <- pool_x4
I0531 13:25:28.256587  6377 net.cpp:411] dl_x1 -> dl_x1
I0531 13:25:28.272035  6377 net.cpp:150] Setting up dl_x1
I0531 13:25:28.272064  6377 net.cpp:157] Top shape: 100 196 (19600)
I0531 13:25:28.272075  6377 net.cpp:165] Memory required for data: 162674800
I0531 13:25:28.272097  6377 layer_factory.hpp:77] Creating layer relu_x5
I0531 13:25:28.272112  6377 net.cpp:106] Creating Layer relu_x5
I0531 13:25:28.272122  6377 net.cpp:454] relu_x5 <- dl_x1
I0531 13:25:28.272136  6377 net.cpp:397] relu_x5 -> dl_x1 (in-place)
I0531 13:25:28.272481  6377 net.cpp:150] Setting up relu_x5
I0531 13:25:28.272495  6377 net.cpp:157] Top shape: 100 196 (19600)
I0531 13:25:28.272505  6377 net.cpp:165] Memory required for data: 162753200
I0531 13:25:28.272516  6377 layer_factory.hpp:77] Creating layer drop_x1
I0531 13:25:28.272536  6377 net.cpp:106] Creating Layer drop_x1
I0531 13:25:28.272547  6377 net.cpp:454] drop_x1 <- dl_x1
I0531 13:25:28.272558  6377 net.cpp:397] drop_x1 -> dl_x1 (in-place)
I0531 13:25:28.272603  6377 net.cpp:150] Setting up drop_x1
I0531 13:25:28.272616  6377 net.cpp:157] Top shape: 100 196 (19600)
I0531 13:25:28.272627  6377 net.cpp:165] Memory required for data: 162831600
I0531 13:25:28.272637  6377 layer_factory.hpp:77] Creating layer conv_u1
I0531 13:25:28.272660  6377 net.cpp:106] Creating Layer conv_u1
I0531 13:25:28.272670  6377 net.cpp:454] conv_u1 <- hits-u
I0531 13:25:28.272683  6377 net.cpp:411] conv_u1 -> conv_u1
I0531 13:25:28.274492  6377 net.cpp:150] Setting up conv_u1
I0531 13:25:28.274514  6377 net.cpp:157] Top shape: 100 12 120 48 (6912000)
I0531 13:25:28.274530  6377 net.cpp:165] Memory required for data: 190479600
I0531 13:25:28.274545  6377 layer_factory.hpp:77] Creating layer relu_u1
I0531 13:25:28.274559  6377 net.cpp:106] Creating Layer relu_u1
I0531 13:25:28.274569  6377 net.cpp:454] relu_u1 <- conv_u1
I0531 13:25:28.274582  6377 net.cpp:397] relu_u1 -> conv_u1 (in-place)
I0531 13:25:28.275063  6377 net.cpp:150] Setting up relu_u1
I0531 13:25:28.275081  6377 net.cpp:157] Top shape: 100 12 120 48 (6912000)
I0531 13:25:28.275091  6377 net.cpp:165] Memory required for data: 218127600
I0531 13:25:28.275101  6377 layer_factory.hpp:77] Creating layer pool_u1
I0531 13:25:28.275115  6377 net.cpp:106] Creating Layer pool_u1
I0531 13:25:28.275125  6377 net.cpp:454] pool_u1 <- conv_u1
I0531 13:25:28.275138  6377 net.cpp:411] pool_u1 -> pool_u1
I0531 13:25:28.275209  6377 net.cpp:150] Setting up pool_u1
I0531 13:25:28.275223  6377 net.cpp:157] Top shape: 100 12 60 48 (3456000)
I0531 13:25:28.275233  6377 net.cpp:165] Memory required for data: 231951600
I0531 13:25:28.275241  6377 layer_factory.hpp:77] Creating layer conv_u2
I0531 13:25:28.275259  6377 net.cpp:106] Creating Layer conv_u2
I0531 13:25:28.275269  6377 net.cpp:454] conv_u2 <- pool_u1
I0531 13:25:28.275284  6377 net.cpp:411] conv_u2 -> conv_u2
I0531 13:25:28.277112  6377 net.cpp:150] Setting up conv_u2
I0531 13:25:28.277139  6377 net.cpp:157] Top shape: 100 20 54 46 (4968000)
I0531 13:25:28.277149  6377 net.cpp:165] Memory required for data: 251823600
I0531 13:25:28.277165  6377 layer_factory.hpp:77] Creating layer relu_u2
I0531 13:25:28.277179  6377 net.cpp:106] Creating Layer relu_u2
I0531 13:25:28.277189  6377 net.cpp:454] relu_u2 <- conv_u2
I0531 13:25:28.277201  6377 net.cpp:397] relu_u2 -> conv_u2 (in-place)
I0531 13:25:28.277523  6377 net.cpp:150] Setting up relu_u2
I0531 13:25:28.277537  6377 net.cpp:157] Top shape: 100 20 54 46 (4968000)
I0531 13:25:28.277547  6377 net.cpp:165] Memory required for data: 271695600
I0531 13:25:28.277557  6377 layer_factory.hpp:77] Creating layer pool_u2
I0531 13:25:28.277570  6377 net.cpp:106] Creating Layer pool_u2
I0531 13:25:28.277580  6377 net.cpp:454] pool_u2 <- conv_u2
I0531 13:25:28.277592  6377 net.cpp:411] pool_u2 -> pool_u2
I0531 13:25:28.277665  6377 net.cpp:150] Setting up pool_u2
I0531 13:25:28.277680  6377 net.cpp:157] Top shape: 100 20 27 46 (2484000)
I0531 13:25:28.277690  6377 net.cpp:165] Memory required for data: 281631600
I0531 13:25:28.277700  6377 layer_factory.hpp:77] Creating layer conv_u3
I0531 13:25:28.277716  6377 net.cpp:106] Creating Layer conv_u3
I0531 13:25:28.277726  6377 net.cpp:454] conv_u3 <- pool_u2
I0531 13:25:28.277740  6377 net.cpp:411] conv_u3 -> conv_u3
I0531 13:25:28.279656  6377 net.cpp:150] Setting up conv_u3
I0531 13:25:28.279678  6377 net.cpp:157] Top shape: 100 28 22 44 (2710400)
I0531 13:25:28.279691  6377 net.cpp:165] Memory required for data: 292473200
I0531 13:25:28.279706  6377 layer_factory.hpp:77] Creating layer relu_u3
I0531 13:25:28.279719  6377 net.cpp:106] Creating Layer relu_u3
I0531 13:25:28.279729  6377 net.cpp:454] relu_u3 <- conv_u3
I0531 13:25:28.279742  6377 net.cpp:397] relu_u3 -> conv_u3 (in-place)
I0531 13:25:28.280073  6377 net.cpp:150] Setting up relu_u3
I0531 13:25:28.280087  6377 net.cpp:157] Top shape: 100 28 22 44 (2710400)
I0531 13:25:28.280098  6377 net.cpp:165] Memory required for data: 303314800
I0531 13:25:28.280108  6377 layer_factory.hpp:77] Creating layer pool_u3
I0531 13:25:28.280122  6377 net.cpp:106] Creating Layer pool_u3
I0531 13:25:28.280131  6377 net.cpp:454] pool_u3 <- conv_u3
I0531 13:25:28.280144  6377 net.cpp:411] pool_u3 -> pool_u3
I0531 13:25:28.280213  6377 net.cpp:150] Setting up pool_u3
I0531 13:25:28.280226  6377 net.cpp:157] Top shape: 100 28 11 44 (1355200)
I0531 13:25:28.280236  6377 net.cpp:165] Memory required for data: 308735600
I0531 13:25:28.280246  6377 layer_factory.hpp:77] Creating layer conv_u4
I0531 13:25:28.280262  6377 net.cpp:106] Creating Layer conv_u4
I0531 13:25:28.280273  6377 net.cpp:454] conv_u4 <- pool_u3
I0531 13:25:28.280288  6377 net.cpp:411] conv_u4 -> conv_u4
I0531 13:25:28.282477  6377 net.cpp:150] Setting up conv_u4
I0531 13:25:28.282500  6377 net.cpp:157] Top shape: 100 36 6 42 (907200)
I0531 13:25:28.282512  6377 net.cpp:165] Memory required for data: 312364400
I0531 13:25:28.282534  6377 layer_factory.hpp:77] Creating layer relu_u4
I0531 13:25:28.282547  6377 net.cpp:106] Creating Layer relu_u4
I0531 13:25:28.282567  6377 net.cpp:454] relu_u4 <- conv_u4
I0531 13:25:28.282579  6377 net.cpp:397] relu_u4 -> conv_u4 (in-place)
I0531 13:25:28.283051  6377 net.cpp:150] Setting up relu_u4
I0531 13:25:28.283068  6377 net.cpp:157] Top shape: 100 36 6 42 (907200)
I0531 13:25:28.283079  6377 net.cpp:165] Memory required for data: 315993200
I0531 13:25:28.283089  6377 layer_factory.hpp:77] Creating layer pool_u4
I0531 13:25:28.283102  6377 net.cpp:106] Creating Layer pool_u4
I0531 13:25:28.283113  6377 net.cpp:454] pool_u4 <- conv_u4
I0531 13:25:28.283126  6377 net.cpp:411] pool_u4 -> pool_u4
I0531 13:25:28.283196  6377 net.cpp:150] Setting up pool_u4
I0531 13:25:28.283210  6377 net.cpp:157] Top shape: 100 36 3 42 (453600)
I0531 13:25:28.283221  6377 net.cpp:165] Memory required for data: 317807600
I0531 13:25:28.283231  6377 layer_factory.hpp:77] Creating layer dl_u1
I0531 13:25:28.283246  6377 net.cpp:106] Creating Layer dl_u1
I0531 13:25:28.283257  6377 net.cpp:454] dl_u1 <- pool_u4
I0531 13:25:28.283270  6377 net.cpp:411] dl_u1 -> dl_u1
I0531 13:25:28.298717  6377 net.cpp:150] Setting up dl_u1
I0531 13:25:28.298744  6377 net.cpp:157] Top shape: 100 196 (19600)
I0531 13:25:28.298756  6377 net.cpp:165] Memory required for data: 317886000
I0531 13:25:28.298773  6377 layer_factory.hpp:77] Creating layer relu_u5
I0531 13:25:28.298787  6377 net.cpp:106] Creating Layer relu_u5
I0531 13:25:28.298799  6377 net.cpp:454] relu_u5 <- dl_u1
I0531 13:25:28.298811  6377 net.cpp:397] relu_u5 -> dl_u1 (in-place)
I0531 13:25:28.299156  6377 net.cpp:150] Setting up relu_u5
I0531 13:25:28.299170  6377 net.cpp:157] Top shape: 100 196 (19600)
I0531 13:25:28.299180  6377 net.cpp:165] Memory required for data: 317964400
I0531 13:25:28.299190  6377 layer_factory.hpp:77] Creating layer drop_u1
I0531 13:25:28.299204  6377 net.cpp:106] Creating Layer drop_u1
I0531 13:25:28.299213  6377 net.cpp:454] drop_u1 <- dl_u1
I0531 13:25:28.299226  6377 net.cpp:397] drop_u1 -> dl_u1 (in-place)
I0531 13:25:28.299270  6377 net.cpp:150] Setting up drop_u1
I0531 13:25:28.299283  6377 net.cpp:157] Top shape: 100 196 (19600)
I0531 13:25:28.299294  6377 net.cpp:165] Memory required for data: 318042800
I0531 13:25:28.299304  6377 layer_factory.hpp:77] Creating layer conv_v1
I0531 13:25:28.299321  6377 net.cpp:106] Creating Layer conv_v1
I0531 13:25:28.299331  6377 net.cpp:454] conv_v1 <- hits-v
I0531 13:25:28.299345  6377 net.cpp:411] conv_v1 -> conv_v1
I0531 13:25:28.301193  6377 net.cpp:150] Setting up conv_v1
I0531 13:25:28.301216  6377 net.cpp:157] Top shape: 100 12 120 48 (6912000)
I0531 13:25:28.301228  6377 net.cpp:165] Memory required for data: 345690800
I0531 13:25:28.301244  6377 layer_factory.hpp:77] Creating layer relu_v1
I0531 13:25:28.301266  6377 net.cpp:106] Creating Layer relu_v1
I0531 13:25:28.301277  6377 net.cpp:454] relu_v1 <- conv_v1
I0531 13:25:28.301290  6377 net.cpp:397] relu_v1 -> conv_v1 (in-place)
I0531 13:25:28.301759  6377 net.cpp:150] Setting up relu_v1
I0531 13:25:28.301776  6377 net.cpp:157] Top shape: 100 12 120 48 (6912000)
I0531 13:25:28.301787  6377 net.cpp:165] Memory required for data: 373338800
I0531 13:25:28.301797  6377 layer_factory.hpp:77] Creating layer pool_v1
I0531 13:25:28.301811  6377 net.cpp:106] Creating Layer pool_v1
I0531 13:25:28.301821  6377 net.cpp:454] pool_v1 <- conv_v1
I0531 13:25:28.301834  6377 net.cpp:411] pool_v1 -> pool_v1
I0531 13:25:28.301908  6377 net.cpp:150] Setting up pool_v1
I0531 13:25:28.301921  6377 net.cpp:157] Top shape: 100 12 60 48 (3456000)
I0531 13:25:28.301931  6377 net.cpp:165] Memory required for data: 387162800
I0531 13:25:28.301939  6377 layer_factory.hpp:77] Creating layer conv_v2
I0531 13:25:28.301956  6377 net.cpp:106] Creating Layer conv_v2
I0531 13:25:28.301967  6377 net.cpp:454] conv_v2 <- pool_v1
I0531 13:25:28.301981  6377 net.cpp:411] conv_v2 -> conv_v2
I0531 13:25:28.303678  6377 net.cpp:150] Setting up conv_v2
I0531 13:25:28.303699  6377 net.cpp:157] Top shape: 100 20 54 46 (4968000)
I0531 13:25:28.303711  6377 net.cpp:165] Memory required for data: 407034800
I0531 13:25:28.303740  6377 layer_factory.hpp:77] Creating layer relu_v2
I0531 13:25:28.303753  6377 net.cpp:106] Creating Layer relu_v2
I0531 13:25:28.303764  6377 net.cpp:454] relu_v2 <- conv_v2
I0531 13:25:28.303777  6377 net.cpp:397] relu_v2 -> conv_v2 (in-place)
I0531 13:25:28.304255  6377 net.cpp:150] Setting up relu_v2
I0531 13:25:28.304271  6377 net.cpp:157] Top shape: 100 20 54 46 (4968000)
I0531 13:25:28.304282  6377 net.cpp:165] Memory required for data: 426906800
I0531 13:25:28.304292  6377 layer_factory.hpp:77] Creating layer pool_v2
I0531 13:25:28.304306  6377 net.cpp:106] Creating Layer pool_v2
I0531 13:25:28.304316  6377 net.cpp:454] pool_v2 <- conv_v2
I0531 13:25:28.304328  6377 net.cpp:411] pool_v2 -> pool_v2
I0531 13:25:28.304399  6377 net.cpp:150] Setting up pool_v2
I0531 13:25:28.304414  6377 net.cpp:157] Top shape: 100 20 27 46 (2484000)
I0531 13:25:28.304422  6377 net.cpp:165] Memory required for data: 436842800
I0531 13:25:28.304431  6377 layer_factory.hpp:77] Creating layer conv_v3
I0531 13:25:28.304448  6377 net.cpp:106] Creating Layer conv_v3
I0531 13:25:28.304458  6377 net.cpp:454] conv_v3 <- pool_v2
I0531 13:25:28.304473  6377 net.cpp:411] conv_v3 -> conv_v3
I0531 13:25:28.306396  6377 net.cpp:150] Setting up conv_v3
I0531 13:25:28.306418  6377 net.cpp:157] Top shape: 100 28 22 44 (2710400)
I0531 13:25:28.306430  6377 net.cpp:165] Memory required for data: 447684400
I0531 13:25:28.306445  6377 layer_factory.hpp:77] Creating layer relu_v3
I0531 13:25:28.306458  6377 net.cpp:106] Creating Layer relu_v3
I0531 13:25:28.306468  6377 net.cpp:454] relu_v3 <- conv_v3
I0531 13:25:28.306481  6377 net.cpp:397] relu_v3 -> conv_v3 (in-place)
I0531 13:25:28.306800  6377 net.cpp:150] Setting up relu_v3
I0531 13:25:28.306814  6377 net.cpp:157] Top shape: 100 28 22 44 (2710400)
I0531 13:25:28.306825  6377 net.cpp:165] Memory required for data: 458526000
I0531 13:25:28.306834  6377 layer_factory.hpp:77] Creating layer pool_v3
I0531 13:25:28.306848  6377 net.cpp:106] Creating Layer pool_v3
I0531 13:25:28.306857  6377 net.cpp:454] pool_v3 <- conv_v3
I0531 13:25:28.306870  6377 net.cpp:411] pool_v3 -> pool_v3
I0531 13:25:28.306939  6377 net.cpp:150] Setting up pool_v3
I0531 13:25:28.306952  6377 net.cpp:157] Top shape: 100 28 11 44 (1355200)
I0531 13:25:28.306963  6377 net.cpp:165] Memory required for data: 463946800
I0531 13:25:28.306973  6377 layer_factory.hpp:77] Creating layer conv_v4
I0531 13:25:28.306990  6377 net.cpp:106] Creating Layer conv_v4
I0531 13:25:28.307001  6377 net.cpp:454] conv_v4 <- pool_v3
I0531 13:25:28.307016  6377 net.cpp:411] conv_v4 -> conv_v4
I0531 13:25:28.309092  6377 net.cpp:150] Setting up conv_v4
I0531 13:25:28.309114  6377 net.cpp:157] Top shape: 100 36 6 42 (907200)
I0531 13:25:28.309126  6377 net.cpp:165] Memory required for data: 467575600
I0531 13:25:28.309144  6377 layer_factory.hpp:77] Creating layer relu_v4
I0531 13:25:28.309157  6377 net.cpp:106] Creating Layer relu_v4
I0531 13:25:28.309167  6377 net.cpp:454] relu_v4 <- conv_v4
I0531 13:25:28.309180  6377 net.cpp:397] relu_v4 -> conv_v4 (in-place)
I0531 13:25:28.309653  6377 net.cpp:150] Setting up relu_v4
I0531 13:25:28.309669  6377 net.cpp:157] Top shape: 100 36 6 42 (907200)
I0531 13:25:28.309680  6377 net.cpp:165] Memory required for data: 471204400
I0531 13:25:28.309690  6377 layer_factory.hpp:77] Creating layer pool_v4
I0531 13:25:28.309703  6377 net.cpp:106] Creating Layer pool_v4
I0531 13:25:28.309715  6377 net.cpp:454] pool_v4 <- conv_v4
I0531 13:25:28.309727  6377 net.cpp:411] pool_v4 -> pool_v4
I0531 13:25:28.309801  6377 net.cpp:150] Setting up pool_v4
I0531 13:25:28.309815  6377 net.cpp:157] Top shape: 100 36 3 42 (453600)
I0531 13:25:28.309824  6377 net.cpp:165] Memory required for data: 473018800
I0531 13:25:28.309834  6377 layer_factory.hpp:77] Creating layer dl_v1
I0531 13:25:28.309849  6377 net.cpp:106] Creating Layer dl_v1
I0531 13:25:28.309859  6377 net.cpp:454] dl_v1 <- pool_v4
I0531 13:25:28.309872  6377 net.cpp:411] dl_v1 -> dl_v1
I0531 13:25:28.325323  6377 net.cpp:150] Setting up dl_v1
I0531 13:25:28.325362  6377 net.cpp:157] Top shape: 100 196 (19600)
I0531 13:25:28.325376  6377 net.cpp:165] Memory required for data: 473097200
I0531 13:25:28.325395  6377 layer_factory.hpp:77] Creating layer relu_v5
I0531 13:25:28.325410  6377 net.cpp:106] Creating Layer relu_v5
I0531 13:25:28.325420  6377 net.cpp:454] relu_v5 <- dl_v1
I0531 13:25:28.325438  6377 net.cpp:397] relu_v5 -> dl_v1 (in-place)
I0531 13:25:28.325786  6377 net.cpp:150] Setting up relu_v5
I0531 13:25:28.325800  6377 net.cpp:157] Top shape: 100 196 (19600)
I0531 13:25:28.325812  6377 net.cpp:165] Memory required for data: 473175600
I0531 13:25:28.325824  6377 layer_factory.hpp:77] Creating layer drop_v1
I0531 13:25:28.325836  6377 net.cpp:106] Creating Layer drop_v1
I0531 13:25:28.325846  6377 net.cpp:454] drop_v1 <- dl_v1
I0531 13:25:28.325858  6377 net.cpp:397] drop_v1 -> dl_v1 (in-place)
I0531 13:25:28.325903  6377 net.cpp:150] Setting up drop_v1
I0531 13:25:28.325917  6377 net.cpp:157] Top shape: 100 196 (19600)
I0531 13:25:28.325927  6377 net.cpp:165] Memory required for data: 473254000
I0531 13:25:28.325937  6377 layer_factory.hpp:77] Creating layer concat_xuv
I0531 13:25:28.325958  6377 net.cpp:106] Creating Layer concat_xuv
I0531 13:25:28.325969  6377 net.cpp:454] concat_xuv <- dl_x1
I0531 13:25:28.325980  6377 net.cpp:454] concat_xuv <- dl_u1
I0531 13:25:28.325992  6377 net.cpp:454] concat_xuv <- dl_v1
I0531 13:25:28.326005  6377 net.cpp:411] concat_xuv -> concat_xuv
I0531 13:25:28.326057  6377 net.cpp:150] Setting up concat_xuv
I0531 13:25:28.326071  6377 net.cpp:157] Top shape: 100 588 (58800)
I0531 13:25:28.326082  6377 net.cpp:165] Memory required for data: 473489200
I0531 13:25:28.326092  6377 layer_factory.hpp:77] Creating layer dl_xuv
I0531 13:25:28.326107  6377 net.cpp:106] Creating Layer dl_xuv
I0531 13:25:28.326117  6377 net.cpp:454] dl_xuv <- concat_xuv
I0531 13:25:28.326130  6377 net.cpp:411] dl_xuv -> dl_xuv
I0531 13:25:28.327162  6377 net.cpp:150] Setting up dl_xuv
I0531 13:25:28.327183  6377 net.cpp:157] Top shape: 100 98 (9800)
I0531 13:25:28.327194  6377 net.cpp:165] Memory required for data: 473528400
I0531 13:25:28.327208  6377 layer_factory.hpp:77] Creating layer relu_xuv
I0531 13:25:28.327222  6377 net.cpp:106] Creating Layer relu_xuv
I0531 13:25:28.327232  6377 net.cpp:454] relu_xuv <- dl_xuv
I0531 13:25:28.327244  6377 net.cpp:397] relu_xuv -> dl_xuv (in-place)
I0531 13:25:28.327795  6377 net.cpp:150] Setting up relu_xuv
I0531 13:25:28.327811  6377 net.cpp:157] Top shape: 100 98 (9800)
I0531 13:25:28.327821  6377 net.cpp:165] Memory required for data: 473567600
I0531 13:25:28.327831  6377 layer_factory.hpp:77] Creating layer drop_xuv
I0531 13:25:28.327844  6377 net.cpp:106] Creating Layer drop_xuv
I0531 13:25:28.327855  6377 net.cpp:454] drop_xuv <- dl_xuv
I0531 13:25:28.327868  6377 net.cpp:397] drop_xuv -> dl_xuv (in-place)
I0531 13:25:28.327913  6377 net.cpp:150] Setting up drop_xuv
I0531 13:25:28.327927  6377 net.cpp:157] Top shape: 100 98 (9800)
I0531 13:25:28.327937  6377 net.cpp:165] Memory required for data: 473606800
I0531 13:25:28.327946  6377 layer_factory.hpp:77] Creating layer output
I0531 13:25:28.327961  6377 net.cpp:106] Creating Layer output
I0531 13:25:28.327971  6377 net.cpp:454] output <- dl_xuv
I0531 13:25:28.327985  6377 net.cpp:411] output -> output
I0531 13:25:28.328213  6377 net.cpp:150] Setting up output
I0531 13:25:28.328227  6377 net.cpp:157] Top shape: 100 11 (1100)
I0531 13:25:28.328238  6377 net.cpp:165] Memory required for data: 473611200
I0531 13:25:28.328266  6377 layer_factory.hpp:77] Creating layer drop_output
I0531 13:25:28.328279  6377 net.cpp:106] Creating Layer drop_output
I0531 13:25:28.328290  6377 net.cpp:454] drop_output <- output
I0531 13:25:28.328304  6377 net.cpp:397] drop_output -> output (in-place)
I0531 13:25:28.328347  6377 net.cpp:150] Setting up drop_output
I0531 13:25:28.328361  6377 net.cpp:157] Top shape: 100 11 (1100)
I0531 13:25:28.328371  6377 net.cpp:165] Memory required for data: 473615600
I0531 13:25:28.328380  6377 layer_factory.hpp:77] Creating layer loss
I0531 13:25:28.328409  6377 net.cpp:106] Creating Layer loss
I0531 13:25:28.328419  6377 net.cpp:454] loss <- output
I0531 13:25:28.328430  6377 net.cpp:454] loss <- segments
I0531 13:25:28.328444  6377 net.cpp:411] loss -> loss
I0531 13:25:28.328461  6377 layer_factory.hpp:77] Creating layer loss
…
I0531 13:25:28.332528  6377 solver.cpp:181] Creating test net (#0) specified by net file: /lustre/atlas/proj-shared/hep105/caffe_titan/caffe_workflow/xuv/logs/epsilon_noada_2016-05-30T07.36.54.892099.prototxt
I0531 13:25:28.332660  6377 net.cpp:322] The NetState phase (1) differed from the phase (0) specified by a rule in layer data
I0531 13:25:28.333451  6377 net.cpp:49] Initializing net from parameters: 
name: "epsilon_127x50_xuv"
state {
  phase: TEST
}
layer {
  name: "data"
  type: "HDF5Data"
  top: "hits-x"
  top: "hits-u"
  top: "hits-v"
  top: "segments"
  include {
    phase: TEST
  }
  hdf5_data_param {
    source: "/lustre/atlas/proj-shared/hep105/caffe_titan/xuv/epsilon_127x50_xuv.testlist"
    batch_size: 100
  }
}
layer {
  name: "conv_x1"
  type: "Convolution"
  bottom: "hits-x"
  top: "conv_x1"
  convolution_param {
    num_output: 12
    pad: 0
    stride: 1
    weight_filler {
      type: "xavier"
    }
    bias_filler {
      type: "constant"
    }
    kernel_h: 8
    kernel_w: 3
  }
}
layer {
  name: "relu_x1"
  type: "ReLU"
  bottom: "conv_x1"
  top: "conv_x1"
}
layer {
  name: "pool_x1"
  type: "Pooling"
  bottom: "conv_x1"
  top: "pool_x1"
  pooling_param {
    pool: MAX
    kernel_h: 2
    kernel_w: 1
    stride_h: 2
    stride_w: 1
  }
}
layer {
  name: "conv_x2"
  type: "Convolution"
  bottom: "pool_x1"
  top: "conv_x2"
  convolution_param {
    num_output: 20
    pad: 0
    stride: 1
    weight_filler {
      type: "xavier"
    }
    bias_filler {
      type: "constant"
    }
    kernel_h: 7
    kernel_w: 3
  }
}
layer {
  name: "relu_x2"
  type: "ReLU"
  bottom: "conv_x2"
  top: "conv_x2"
}
layer {
  name: "pool_x2"
  type: "Pooling"
  bottom: "conv_x2"
  top: "pool_x2"
  pooling_param {
    pool: MAX
    kernel_h: 2
    kernel_w: 1
    stride_h: 2
    stride_w: 1
  }
}
layer {
  name: "conv_x3"
  type: "Convolution"
  bottom: "pool_x2"
  top: "conv_x3"
  convolution_param {
    num_output: 28
    pad: 0
    stride: 1
    weight_filler {
      type: "xavier"
    }
    bias_filler {
      type: "constant"
    }
    kernel_h: 6
    kernel_w: 3
  }
}
layer {
  name: "relu_x3"
  type: "ReLU"
  bottom: "conv_x3"
  top: "conv_x3"
}
layer {
  name: "pool_x3"
  type: "Pooling"
  bottom: "conv_x3"
  top: "pool_x3"
  pooling_param {
    pool: MAX
    kernel_h: 2
    kernel_w: 1
    stride_h: 2
    stride_w: 1
  }
}
layer {
  name: "conv_x4"
  type: "Convolution"
  bottom: "pool_x3"
  top: "conv_x4"
  convolution_param {
    num_output: 36
    pad: 0
    stride: 1
    weight_filler {
      type: "xavier"
    }
    bias_filler {
      type: "constant"
    }
    kernel_h: 6
    kernel_w: 3
  }
}
layer {
  name: "relu_x4"
  type: "ReLU"
  bottom: "conv_x4"
  top: "conv_x4"
}
layer {
  name: "pool_x4"
  type: "Pooling"
  bottom: "conv_x4"
  top: "pool_x4"
  pooling_param {
    pool: MAX
    kernel_h: 2
    kernel_w: 1
    stride_h: 2
    stride_w: 1
  }
}
layer {
  name: "dl_x1"
  type: "InnerProduct"
  bottom: "pool_x4"
  top: "dl_x1"
  inner_product_param {
    num_output: 196
    weight_filler {
      type: "xavier"
    }
    bias_filler {
      type: "constant"
    }
  }
}
layer {
  name: "relu_x5"
  type: "ReLU"
  bottom: "dl_x1"
  top: "dl_x1"
}
layer {
  name: "drop_x1"
  type: "Dropout"
  bottom: "dl_x1"
  top: "dl_x1"
  dropout_param {
    dropout_ratio: 0.5
  }
}
layer {
  name: "conv_u1"
  type: "Convolution"
  bottom: "hits-u"
  top: "conv_u1"
  convolution_param {
    num_output: 12
    pad: 0
    stride: 1
    weight_filler {
      type: "xavier"
    }
    bias_filler {
      type: "constant"
    }
    kernel_h: 8
    kernel_w: 3
  }
}
layer {
  name: "relu_u1"
  type: "ReLU"
  bottom: "conv_u1"
  top: "conv_u1"
}
layer {
  name: "pool_u1"
  type: "Pooling"
  bottom: "conv_u1"
  top: "pool_u1"
  pooling_param {
    pool: MAX
    kernel_h: 2
    kernel_w: 1
    stride_h: 2
    stride_w: 1
  }
}
layer {
  name: "conv_u2"
  type: "Convolution"
  bottom: "pool_u1"
  top: "conv_u2"
  convolution_param {
    num_output: 20
    pad: 0
    stride: 1
    weight_filler {
      type: "xavier"
    }
    bias_filler {
      type: "constant"
    }
    kernel_h: 7
    kernel_w: 3
  }
}
layer {
  name: "relu_u2"
  type: "ReLU"
  bottom: "conv_u2"
  top: "conv_u2"
}
layer {
  name: "pool_u2"
  type: "Pooling"
  bottom: "conv_u2"
  top: "pool_u2"
  pooling_param {
    pool: MAX
    kernel_h: 2
    kernel_w: 1
    stride_h: 2
    stride_w: 1
  }
}
layer {
  name: "conv_u3"
  type: "Convolution"
  bottom: "pool_u2"
  top: "conv_u3"
  convolution_param {
    num_output: 28
    pad: 0
    stride: 1
    weight_filler {
      type: "xavier"
    }
    bias_filler {
      type: "constant"
    }
    kernel_h: 6
    kernel_w: 3
  }
}
layer {
  name: "relu_u3"
  type: "ReLU"
  bottom: "conv_u3"
  top: "conv_u3"
}
layer {
  name: "pool_u3"
  type: "Pooling"
  bottom: "conv_u3"
  top: "pool_u3"
  pooling_param {
    pool: MAX
    kernel_h: 2
    kernel_w: 1
    stride_h: 2
    stride_w: 1
  }
}
layer {
  name: "conv_u4"
  type: "Convolution"
  bottom: "pool_u3"
  top: "conv_u4"
  convolution_param {
    num_output: 36
    pad: 0
    stride: 1
    weight_filler {
      type: "xavier"
    }
    bias_filler {
      type: "constant"
    }
    kernel_h: 6
    kernel_w: 3
  }
}
layer {
  name: "relu_u4"
  type: "ReLU"
  bottom: "conv_u4"
  top: "conv_u4"
}
layer {
  name: "pool_u4"
  type: "Pooling"
  bottom: "conv_u4"
  top: "pool_u4"
  pooling_param {
    pool: MAX
    kernel_h: 2
    kernel_w: 1
    stride_h: 2
    stride_w: 1
  }
}
layer {
  name: "dl_u1"
  type: "InnerProduct"
  bottom: "pool_u4"
  top: "dl_u1"
  inner_product_param {
    num_output: 196
    weight_filler {
      type: "xavier"
    }
    bias_filler {
      type: "constant"
    }
  }
}
layer {
  name: "relu_u5"
  type: "ReLU"
  bottom: "dl_u1"
  top: "dl_u1"
}
layer {
  name: "drop_u1"
  type: "Dropout"
  bottom: "dl_u1"
  top: "dl_u1"
  dropout_param {
    dropout_ratio: 0.5
  }
}
layer {
  name: "conv_v1"
  type: "Convolution"
  bottom: "hits-v"
  top: "conv_v1"
  convolution_param {
    num_output: 12
    pad: 0
    stride: 1
    weight_filler {
      type: "xavier"
    }
    bias_filler {
      type: "constant"
    }
    kernel_h: 8
    kernel_w: 3
  }
}
layer {
  name: "relu_v1"
  type: "ReLU"
  bottom: "conv_v1"
  top: "conv_v1"
}
layer {
  name: "pool_v1"
  type: "Pooling"
  bottom: "conv_v1"
  top: "pool_v1"
  pooling_param {
    pool: MAX
    kernel_h: 2
    kernel_w: 1
    stride_h: 2
    stride_w: 1
  }
}
layer {
  name: "conv_v2"
  type: "Convolution"
  bottom: "pool_v1"
  top: "conv_v2"
  convolution_param {
    num_output: 20
    pad: 0
    stride: 1
    weight_filler {
      type: "xavier"
    }
    bias_filler {
      type: "constant"
    }
    kernel_h: 7
    kernel_w: 3
  }
}
layer {
  name: "relu_v2"
  type: "ReLU"
  bottom: "conv_v2"
  top: "conv_v2"
}
layer {
  name: "pool_v2"
  type: "Pooling"
  bottom: "conv_v2"
  top: "pool_v2"
  pooling_param {
    pool: MAX
    kernel_h: 2
    kernel_w: 1
    stride_h: 2
    stride_w: 1
  }
}
layer {
  name: "conv_v3"
  type: "Convolution"
  bottom: "pool_v2"
  top: "conv_v3"
  convolution_param {
    num_output: 28
    pad: 0
    stride: 1
    weight_filler {
      type: "xavier"
    }
    bias_filler {
      type: "constant"
    }
    kernel_h: 6
    kernel_w: 3
  }
}
layer {
  name: "relu_v3"
  type: "ReLU"
  bottom: "conv_v3"
  top: "conv_v3"
}
layer {
  name: "pool_v3"
  type: "Pooling"
  bottom: "conv_v3"
  top: "pool_v3"
  pooling_param {
    pool: MAX
    kernel_h: 2
    kernel_w: 1
    stride_h: 2
    stride_w: 1
  }
}
layer {
  name: "conv_v4"
  type: "Convolution"
  bottom: "pool_v3"
  top: "conv_v4"
  convolution_param {
    num_output: 36
    pad: 0
    stride: 1
    weight_filler {
      type: "xavier"
    }
    bias_filler {
      type: "constant"
    }
    kernel_h: 6
    kernel_w: 3
  }
}
layer {
  name: "relu_v4"
  type: "ReLU"
  bottom: "conv_v4"
  top: "conv_v4"
}
layer {
  name: "pool_v4"
  type: "Pooling"
  bottom: "conv_v4"
  top: "pool_v4"
  pooling_param {
    pool: MAX
    kernel_h: 2
    kernel_w: 1
    stride_h: 2
    stride_w: 1
  }
}
layer {
  name: "dl_v1"
  type: "InnerProduct"
  bottom: "pool_v4"
  top: "dl_v1"
  inner_product_param {
    num_output: 196
    weight_filler {
      type: "xavier"
    }
    bias_filler {
      type: "constant"
    }
  }
}
layer {
  name: "relu_v5"
  type: "ReLU"
  bottom: "dl_v1"
  top: "dl_v1"
}
layer {
  name: "drop_v1"
  type: "Dropout"
  bottom: "dl_v1"
  top: "dl_v1"
  dropout_param {
    dropout_ratio: 0.5
  }
}
layer {
  name: "concat_xuv"
  type: "Concat"
  bottom: "dl_x1"
  bottom: "dl_u1"
  bottom: "dl_v1"
  top: "concat_xuv"
  concat_param {
    axis: 1
  }
}
layer {
  name: "dl_xuv"
  type: "InnerProduct"
  bottom: "concat_xuv"
  top: "dl_xuv"
  inner_product_param {
    num_output: 98
    weight_filler {
      type: "xavier"
    }
    bias_filler {
      type: "constant"
    }
  }
}
layer {
  name: "relu_xuv"
  type: "ReLU"
  bottom: "dl_xuv"
  top: "dl_xuv"
}
layer {
  name: "drop_xuv"
  type: "Dropout"
  bottom: "dl_xuv"
  top: "dl_xuv"
  dropout_param {
    dropout_ratio: 0.5
  }
}
layer {
  name: "output"
  type: "InnerProduct"
  bottom: "dl_xuv"
  top: "output"
  inner_product_param {
    num_output: 11
    weight_filler {
      type: "xavier"
    }
    bias_filler {
      type: "constant"
    }
  }
}
layer {
  name: "drop_output"
  type: "Dropout"
  bottom: "output"
  top: "output"
  dropout_param {
    dropout_ratio: 0.5
  }
}
layer {
  name: "accuracy"
  type: "Accuracy"
  bottom: "output"
  bottom: "segments"
  top: "accuracy"
  include {
    phase: TEST
  }
}
layer {
  name: "loss"
  type: "SoftmaxWithLoss"
  bottom: "output"
  bottom: "segments"
  top: "loss"
}
I0531 13:25:28.333822  6377 layer_factory.hpp:77] Creating layer data
I0531 13:25:28.333838  6377 net.cpp:106] Creating Layer data
I0531 13:25:28.333850  6377 net.cpp:411] data -> hits-x
I0531 13:25:28.333868  6377 net.cpp:411] data -> hits-u
I0531 13:25:28.333884  6377 net.cpp:411] data -> hits-v
I0531 13:25:28.333899  6377 net.cpp:411] data -> segments
I0531 13:25:28.333914  6377 hdf5_data_layer.cpp:79] Loading list of HDF5 filenames from: /lustre/atlas/proj-shared/hep105/caffe_titan/xuv/epsilon_127x50_xuv.testlist
I0531 13:25:28.347102  6377 hdf5_data_layer.cpp:93] Number of HDF5 files: 3
I0531 13:26:33.005918  6377 net.cpp:150] Setting up data
I0531 13:26:33.006080  6377 net.cpp:157] Top shape: 100 1 127 50 (635000)
I0531 13:26:33.006095  6377 net.cpp:157] Top shape: 100 1 127 50 (635000)
I0531 13:26:33.006113  6377 net.cpp:157] Top shape: 100 1 127 50 (635000)
I0531 13:26:33.006125  6377 net.cpp:157] Top shape: 100 (100)
I0531 13:26:33.006134  6377 net.cpp:165] Memory required for data: 7620400
I0531 13:26:33.006148  6377 layer_factory.hpp:77] Creating layer segments_data_3_split
I0531 13:26:33.006176  6377 net.cpp:106] Creating Layer segments_data_3_split
I0531 13:26:33.006187  6377 net.cpp:454] segments_data_3_split <- segments
I0531 13:26:33.006201  6377 net.cpp:411] segments_data_3_split -> segments_data_3_split_0
I0531 13:26:33.006223  6377 net.cpp:411] segments_data_3_split -> segments_data_3_split_1
I0531 13:26:33.006299  6377 net.cpp:150] Setting up segments_data_3_split
I0531 13:26:33.006312  6377 net.cpp:157] Top shape: 100 (100)
I0531 13:26:33.006325  6377 net.cpp:157] Top shape: 100 (100)
I0531 13:26:33.006335  6377 net.cpp:165] Memory required for data: 7621200
I0531 13:26:33.006342  6377 layer_factory.hpp:77] Creating layer conv_x1
I0531 13:26:33.006366  6377 net.cpp:106] Creating Layer conv_x1
I0531 13:26:33.006376  6377 net.cpp:454] conv_x1 <- hits-x
I0531 13:26:33.006392  6377 net.cpp:411] conv_x1 -> conv_x1
I0531 13:26:33.008582  6377 net.cpp:150] Setting up conv_x1
I0531 13:26:33.008607  6377 net.cpp:157] Top shape: 100 12 120 48 (6912000)
I0531 13:26:33.008620  6377 net.cpp:165] Memory required for data: 35269200
I0531 13:26:33.008641  6377 layer_factory.hpp:77] Creating layer relu_x1
I0531 13:26:33.008656  6377 net.cpp:106] Creating Layer relu_x1
I0531 13:26:33.008666  6377 net.cpp:454] relu_x1 <- conv_x1
I0531 13:26:33.008679  6377 net.cpp:397] relu_x1 -> conv_x1 (in-place)
I0531 13:26:33.009187  6377 net.cpp:150] Setting up relu_x1
I0531 13:26:33.009204  6377 net.cpp:157] Top shape: 100 12 120 48 (6912000)
I0531 13:26:33.009214  6377 net.cpp:165] Memory required for data: 62917200
I0531 13:26:33.009224  6377 layer_factory.hpp:77] Creating layer pool_x1
I0531 13:26:33.009240  6377 net.cpp:106] Creating Layer pool_x1
I0531 13:26:33.009250  6377 net.cpp:454] pool_x1 <- conv_x1
I0531 13:26:33.009264  6377 net.cpp:411] pool_x1 -> pool_x1
I0531 13:26:33.009346  6377 net.cpp:150] Setting up pool_x1
I0531 13:26:33.009359  6377 net.cpp:157] Top shape: 100 12 60 48 (3456000)
I0531 13:26:33.009371  6377 net.cpp:165] Memory required for data: 76741200
I0531 13:26:33.009382  6377 layer_factory.hpp:77] Creating layer conv_x2
I0531 13:26:33.009400  6377 net.cpp:106] Creating Layer conv_x2
I0531 13:26:33.009410  6377 net.cpp:454] conv_x2 <- pool_x1
I0531 13:26:33.009424  6377 net.cpp:411] conv_x2 -> conv_x2
I0531 13:26:33.011301  6377 net.cpp:150] Setting up conv_x2
I0531 13:26:33.011324  6377 net.cpp:157] Top shape: 100 20 54 46 (4968000)
I0531 13:26:33.011335  6377 net.cpp:165] Memory required for data: 96613200
I0531 13:26:33.011353  6377 layer_factory.hpp:77] Creating layer relu_x2
I0531 13:26:33.011368  6377 net.cpp:106] Creating Layer relu_x2
I0531 13:26:33.011378  6377 net.cpp:454] relu_x2 <- conv_x2
I0531 13:26:33.011390  6377 net.cpp:397] relu_x2 -> conv_x2 (in-place)
I0531 13:26:33.011910  6377 net.cpp:150] Setting up relu_x2
I0531 13:26:33.011926  6377 net.cpp:157] Top shape: 100 20 54 46 (4968000)
I0531 13:26:33.011936  6377 net.cpp:165] Memory required for data: 116485200
I0531 13:26:33.011946  6377 layer_factory.hpp:77] Creating layer pool_x2
I0531 13:26:33.011961  6377 net.cpp:106] Creating Layer pool_x2
I0531 13:26:33.011971  6377 net.cpp:454] pool_x2 <- conv_x2
I0531 13:26:33.011984  6377 net.cpp:411] pool_x2 -> pool_x2
I0531 13:26:33.012064  6377 net.cpp:150] Setting up pool_x2
I0531 13:26:33.012079  6377 net.cpp:157] Top shape: 100 20 27 46 (2484000)
I0531 13:26:33.012089  6377 net.cpp:165] Memory required for data: 126421200
I0531 13:26:33.012096  6377 layer_factory.hpp:77] Creating layer conv_x3
I0531 13:26:33.012116  6377 net.cpp:106] Creating Layer conv_x3
I0531 13:26:33.012126  6377 net.cpp:454] conv_x3 <- pool_x2
I0531 13:26:33.012141  6377 net.cpp:411] conv_x3 -> conv_x3
I0531 13:26:33.014379  6377 net.cpp:150] Setting up conv_x3
I0531 13:26:33.014402  6377 net.cpp:157] Top shape: 100 28 22 44 (2710400)
I0531 13:26:33.014415  6377 net.cpp:165] Memory required for data: 137262800
I0531 13:26:33.014435  6377 layer_factory.hpp:77] Creating layer relu_x3
I0531 13:26:33.014448  6377 net.cpp:106] Creating Layer relu_x3
I0531 13:26:33.014458  6377 net.cpp:454] relu_x3 <- conv_x3
I0531 13:26:33.014472  6377 net.cpp:397] relu_x3 -> conv_x3 (in-place)
I0531 13:26:33.014818  6377 net.cpp:150] Setting up relu_x3
I0531 13:26:33.014832  6377 net.cpp:157] Top shape: 100 28 22 44 (2710400)
I0531 13:26:33.014842  6377 net.cpp:165] Memory required for data: 148104400
I0531 13:26:33.014852  6377 layer_factory.hpp:77] Creating layer pool_x3
I0531 13:26:33.014864  6377 net.cpp:106] Creating Layer pool_x3
I0531 13:26:33.014874  6377 net.cpp:454] pool_x3 <- conv_x3
I0531 13:26:33.014889  6377 net.cpp:411] pool_x3 -> pool_x3
I0531 13:26:33.014966  6377 net.cpp:150] Setting up pool_x3
I0531 13:26:33.014979  6377 net.cpp:157] Top shape: 100 28 11 44 (1355200)
I0531 13:26:33.014989  6377 net.cpp:165] Memory required for data: 153525200
I0531 13:26:33.014999  6377 layer_factory.hpp:77] Creating layer conv_x4
I0531 13:26:33.015015  6377 net.cpp:106] Creating Layer conv_x4
I0531 13:26:33.015027  6377 net.cpp:454] conv_x4 <- pool_x3
I0531 13:26:33.015040  6377 net.cpp:411] conv_x4 -> conv_x4
I0531 13:26:33.017206  6377 net.cpp:150] Setting up conv_x4
I0531 13:26:33.017230  6377 net.cpp:157] Top shape: 100 36 6 42 (907200)
I0531 13:26:33.017241  6377 net.cpp:165] Memory required for data: 157154000
I0531 13:26:33.017257  6377 layer_factory.hpp:77] Creating layer relu_x4
I0531 13:26:33.017271  6377 net.cpp:106] Creating Layer relu_x4
I0531 13:26:33.017282  6377 net.cpp:454] relu_x4 <- conv_x4
I0531 13:26:33.017294  6377 net.cpp:397] relu_x4 -> conv_x4 (in-place)
I0531 13:26:33.017786  6377 net.cpp:150] Setting up relu_x4
I0531 13:26:33.017802  6377 net.cpp:157] Top shape: 100 36 6 42 (907200)
I0531 13:26:33.017812  6377 net.cpp:165] Memory required for data: 160782800
I0531 13:26:33.017822  6377 layer_factory.hpp:77] Creating layer pool_x4
I0531 13:26:33.017837  6377 net.cpp:106] Creating Layer pool_x4
I0531 13:26:33.017846  6377 net.cpp:454] pool_x4 <- conv_x4
I0531 13:26:33.017860  6377 net.cpp:411] pool_x4 -> pool_x4
I0531 13:26:33.017938  6377 net.cpp:150] Setting up pool_x4
I0531 13:26:33.017952  6377 net.cpp:157] Top shape: 100 36 3 42 (453600)
I0531 13:26:33.017961  6377 net.cpp:165] Memory required for data: 162597200
I0531 13:26:33.017969  6377 layer_factory.hpp:77] Creating layer dl_x1
I0531 13:26:33.017985  6377 net.cpp:106] Creating Layer dl_x1
I0531 13:26:33.017997  6377 net.cpp:454] dl_x1 <- pool_x4
I0531 13:26:33.018009  6377 net.cpp:411] dl_x1 -> dl_x1
I0531 13:26:33.034404  6377 net.cpp:150] Setting up dl_x1
I0531 13:26:33.034432  6377 net.cpp:157] Top shape: 100 196 (19600)
I0531 13:26:33.034447  6377 net.cpp:165] Memory required for data: 162675600
I0531 13:26:33.034471  6377 layer_factory.hpp:77] Creating layer relu_x5
I0531 13:26:33.034485  6377 net.cpp:106] Creating Layer relu_x5
I0531 13:26:33.034495  6377 net.cpp:454] relu_x5 <- dl_x1
I0531 13:26:33.034509  6377 net.cpp:397] relu_x5 -> dl_x1 (in-place)
I0531 13:26:33.034869  6377 net.cpp:150] Setting up relu_x5
I0531 13:26:33.034883  6377 net.cpp:157] Top shape: 100 196 (19600)
I0531 13:26:33.034893  6377 net.cpp:165] Memory required for data: 162754000
I0531 13:26:33.034904  6377 layer_factory.hpp:77] Creating layer drop_x1
I0531 13:26:33.034924  6377 net.cpp:106] Creating Layer drop_x1
I0531 13:26:33.034934  6377 net.cpp:454] drop_x1 <- dl_x1
I0531 13:26:33.034946  6377 net.cpp:397] drop_x1 -> dl_x1 (in-place)
I0531 13:26:33.034994  6377 net.cpp:150] Setting up drop_x1
I0531 13:26:33.035008  6377 net.cpp:157] Top shape: 100 196 (19600)
I0531 13:26:33.035018  6377 net.cpp:165] Memory required for data: 162832400
I0531 13:26:33.035028  6377 layer_factory.hpp:77] Creating layer conv_u1
I0531 13:26:33.035048  6377 net.cpp:106] Creating Layer conv_u1
I0531 13:26:33.035071  6377 net.cpp:454] conv_u1 <- hits-u
I0531 13:26:33.035086  6377 net.cpp:411] conv_u1 -> conv_u1
I0531 13:26:33.037065  6377 net.cpp:150] Setting up conv_u1
I0531 13:26:33.037087  6377 net.cpp:157] Top shape: 100 12 120 48 (6912000)
I0531 13:26:33.037099  6377 net.cpp:165] Memory required for data: 190480400
I0531 13:26:33.037116  6377 layer_factory.hpp:77] Creating layer relu_u1
I0531 13:26:33.037129  6377 net.cpp:106] Creating Layer relu_u1
I0531 13:26:33.037139  6377 net.cpp:454] relu_u1 <- conv_u1
I0531 13:26:33.037153  6377 net.cpp:397] relu_u1 -> conv_u1 (in-place)
I0531 13:26:33.037484  6377 net.cpp:150] Setting up relu_u1
I0531 13:26:33.037498  6377 net.cpp:157] Top shape: 100 12 120 48 (6912000)
I0531 13:26:33.037508  6377 net.cpp:165] Memory required for data: 218128400
I0531 13:26:33.037518  6377 layer_factory.hpp:77] Creating layer pool_u1
I0531 13:26:33.037533  6377 net.cpp:106] Creating Layer pool_u1
I0531 13:26:33.037542  6377 net.cpp:454] pool_u1 <- conv_u1
I0531 13:26:33.037555  6377 net.cpp:411] pool_u1 -> pool_u1
I0531 13:26:33.037639  6377 net.cpp:150] Setting up pool_u1
I0531 13:26:33.037653  6377 net.cpp:157] Top shape: 100 12 60 48 (3456000)
I0531 13:26:33.037663  6377 net.cpp:165] Memory required for data: 231952400
I0531 13:26:33.037673  6377 layer_factory.hpp:77] Creating layer conv_u2
I0531 13:26:33.037691  6377 net.cpp:106] Creating Layer conv_u2
I0531 13:26:33.037701  6377 net.cpp:454] conv_u2 <- pool_u1
I0531 13:26:33.037716  6377 net.cpp:411] conv_u2 -> conv_u2
I0531 13:26:33.039670  6377 net.cpp:150] Setting up conv_u2
I0531 13:26:33.039693  6377 net.cpp:157] Top shape: 100 20 54 46 (4968000)
I0531 13:26:33.039705  6377 net.cpp:165] Memory required for data: 251824400
I0531 13:26:33.039721  6377 layer_factory.hpp:77] Creating layer relu_u2
I0531 13:26:33.039734  6377 net.cpp:106] Creating Layer relu_u2
I0531 13:26:33.039744  6377 net.cpp:454] relu_u2 <- conv_u2
I0531 13:26:33.039758  6377 net.cpp:397] relu_u2 -> conv_u2 (in-place)
I0531 13:26:33.040256  6377 net.cpp:150] Setting up relu_u2
I0531 13:26:33.040271  6377 net.cpp:157] Top shape: 100 20 54 46 (4968000)
I0531 13:26:33.040282  6377 net.cpp:165] Memory required for data: 271696400
I0531 13:26:33.040292  6377 layer_factory.hpp:77] Creating layer pool_u2
I0531 13:26:33.040307  6377 net.cpp:106] Creating Layer pool_u2
I0531 13:26:33.040316  6377 net.cpp:454] pool_u2 <- conv_u2
I0531 13:26:33.040329  6377 net.cpp:411] pool_u2 -> pool_u2
I0531 13:26:33.040407  6377 net.cpp:150] Setting up pool_u2
I0531 13:26:33.040421  6377 net.cpp:157] Top shape: 100 20 27 46 (2484000)
I0531 13:26:33.040431  6377 net.cpp:165] Memory required for data: 281632400
I0531 13:26:33.040439  6377 layer_factory.hpp:77] Creating layer conv_u3
I0531 13:26:33.040457  6377 net.cpp:106] Creating Layer conv_u3
I0531 13:26:33.040468  6377 net.cpp:454] conv_u3 <- pool_u2
I0531 13:26:33.040483  6377 net.cpp:411] conv_u3 -> conv_u3
I0531 13:26:33.042515  6377 net.cpp:150] Setting up conv_u3
I0531 13:26:33.042536  6377 net.cpp:157] Top shape: 100 28 22 44 (2710400)
I0531 13:26:33.042548  6377 net.cpp:165] Memory required for data: 292474000
I0531 13:26:33.042563  6377 layer_factory.hpp:77] Creating layer relu_u3
I0531 13:26:33.042577  6377 net.cpp:106] Creating Layer relu_u3
I0531 13:26:33.042587  6377 net.cpp:454] relu_u3 <- conv_u3
I0531 13:26:33.042600  6377 net.cpp:397] relu_u3 -> conv_u3 (in-place)
I0531 13:26:33.042929  6377 net.cpp:150] Setting up relu_u3
I0531 13:26:33.042943  6377 net.cpp:157] Top shape: 100 28 22 44 (2710400)
I0531 13:26:33.042953  6377 net.cpp:165] Memory required for data: 303315600
I0531 13:26:33.042963  6377 layer_factory.hpp:77] Creating layer pool_u3
I0531 13:26:33.042978  6377 net.cpp:106] Creating Layer pool_u3
I0531 13:26:33.042987  6377 net.cpp:454] pool_u3 <- conv_u3
I0531 13:26:33.043000  6377 net.cpp:411] pool_u3 -> pool_u3
I0531 13:26:33.043079  6377 net.cpp:150] Setting up pool_u3
I0531 13:26:33.043092  6377 net.cpp:157] Top shape: 100 28 11 44 (1355200)
I0531 13:26:33.043102  6377 net.cpp:165] Memory required for data: 308736400
I0531 13:26:33.043124  6377 layer_factory.hpp:77] Creating layer conv_u4
I0531 13:26:33.043143  6377 net.cpp:106] Creating Layer conv_u4
I0531 13:26:33.043154  6377 net.cpp:454] conv_u4 <- pool_u3
I0531 13:26:33.043169  6377 net.cpp:411] conv_u4 -> conv_u4
I0531 13:26:33.045354  6377 net.cpp:150] Setting up conv_u4
I0531 13:26:33.045378  6377 net.cpp:157] Top shape: 100 36 6 42 (907200)
I0531 13:26:33.045388  6377 net.cpp:165] Memory required for data: 312365200
I0531 13:26:33.045413  6377 layer_factory.hpp:77] Creating layer relu_u4
I0531 13:26:33.045425  6377 net.cpp:106] Creating Layer relu_u4
I0531 13:26:33.045435  6377 net.cpp:454] relu_u4 <- conv_u4
I0531 13:26:33.045449  6377 net.cpp:397] relu_u4 -> conv_u4 (in-place)
I0531 13:26:33.045780  6377 net.cpp:150] Setting up relu_u4
I0531 13:26:33.045794  6377 net.cpp:157] Top shape: 100 36 6 42 (907200)
I0531 13:26:33.045804  6377 net.cpp:165] Memory required for data: 315994000
I0531 13:26:33.045814  6377 layer_factory.hpp:77] Creating layer pool_u4
I0531 13:26:33.045827  6377 net.cpp:106] Creating Layer pool_u4
I0531 13:26:33.045837  6377 net.cpp:454] pool_u4 <- conv_u4
I0531 13:26:33.045850  6377 net.cpp:411] pool_u4 -> pool_u4
I0531 13:26:33.045928  6377 net.cpp:150] Setting up pool_u4
I0531 13:26:33.045941  6377 net.cpp:157] Top shape: 100 36 3 42 (453600)
I0531 13:26:33.045951  6377 net.cpp:165] Memory required for data: 317808400
I0531 13:26:33.045961  6377 layer_factory.hpp:77] Creating layer dl_u1
I0531 13:26:33.045974  6377 net.cpp:106] Creating Layer dl_u1
I0531 13:26:33.045985  6377 net.cpp:454] dl_u1 <- pool_u4
I0531 13:26:33.046000  6377 net.cpp:411] dl_u1 -> dl_u1
I0531 13:26:33.062371  6377 net.cpp:150] Setting up dl_u1
I0531 13:26:33.062399  6377 net.cpp:157] Top shape: 100 196 (19600)
I0531 13:26:33.062412  6377 net.cpp:165] Memory required for data: 317886800
I0531 13:26:33.062428  6377 layer_factory.hpp:77] Creating layer relu_u5
I0531 13:26:33.062443  6377 net.cpp:106] Creating Layer relu_u5
I0531 13:26:33.062453  6377 net.cpp:454] relu_u5 <- dl_u1
I0531 13:26:33.062468  6377 net.cpp:397] relu_u5 -> dl_u1 (in-place)
I0531 13:26:33.063047  6377 net.cpp:150] Setting up relu_u5
I0531 13:26:33.063068  6377 net.cpp:157] Top shape: 100 196 (19600)
I0531 13:26:33.063081  6377 net.cpp:165] Memory required for data: 317965200
I0531 13:26:33.063091  6377 layer_factory.hpp:77] Creating layer drop_u1
I0531 13:26:33.063105  6377 net.cpp:106] Creating Layer drop_u1
I0531 13:26:33.063115  6377 net.cpp:454] drop_u1 <- dl_u1
I0531 13:26:33.063128  6377 net.cpp:397] drop_u1 -> dl_u1 (in-place)
I0531 13:26:33.063176  6377 net.cpp:150] Setting up drop_u1
I0531 13:26:33.063189  6377 net.cpp:157] Top shape: 100 196 (19600)
I0531 13:26:33.063199  6377 net.cpp:165] Memory required for data: 318043600
I0531 13:26:33.063210  6377 layer_factory.hpp:77] Creating layer conv_v1
I0531 13:26:33.063240  6377 net.cpp:106] Creating Layer conv_v1
I0531 13:26:33.063249  6377 net.cpp:454] conv_v1 <- hits-v
I0531 13:26:33.063263  6377 net.cpp:411] conv_v1 -> conv_v1
I0531 13:26:33.065199  6377 net.cpp:150] Setting up conv_v1
I0531 13:26:33.065222  6377 net.cpp:157] Top shape: 100 12 120 48 (6912000)
I0531 13:26:33.065232  6377 net.cpp:165] Memory required for data: 345691600
I0531 13:26:33.065248  6377 layer_factory.hpp:77] Creating layer relu_v1
I0531 13:26:33.065263  6377 net.cpp:106] Creating Layer relu_v1
I0531 13:26:33.065274  6377 net.cpp:454] relu_v1 <- conv_v1
I0531 13:26:33.065286  6377 net.cpp:397] relu_v1 -> conv_v1 (in-place)
I0531 13:26:33.065623  6377 net.cpp:150] Setting up relu_v1
I0531 13:26:33.065636  6377 net.cpp:157] Top shape: 100 12 120 48 (6912000)
I0531 13:26:33.065646  6377 net.cpp:165] Memory required for data: 373339600
I0531 13:26:33.065656  6377 layer_factory.hpp:77] Creating layer pool_v1
I0531 13:26:33.065671  6377 net.cpp:106] Creating Layer pool_v1
I0531 13:26:33.065682  6377 net.cpp:454] pool_v1 <- conv_v1
I0531 13:26:33.065696  6377 net.cpp:411] pool_v1 -> pool_v1
I0531 13:26:33.065776  6377 net.cpp:150] Setting up pool_v1
I0531 13:26:33.065804  6377 net.cpp:157] Top shape: 100 12 60 48 (3456000)
I0531 13:26:33.065814  6377 net.cpp:165] Memory required for data: 387163600
I0531 13:26:33.065824  6377 layer_factory.hpp:77] Creating layer conv_v2
I0531 13:26:33.065841  6377 net.cpp:106] Creating Layer conv_v2
I0531 13:26:33.065852  6377 net.cpp:454] conv_v2 <- pool_v1
I0531 13:26:33.065866  6377 net.cpp:411] conv_v2 -> conv_v2
I0531 13:26:33.067888  6377 net.cpp:150] Setting up conv_v2
I0531 13:26:33.067911  6377 net.cpp:157] Top shape: 100 20 54 46 (4968000)
I0531 13:26:33.067924  6377 net.cpp:165] Memory required for data: 407035600
I0531 13:26:33.067939  6377 layer_factory.hpp:77] Creating layer relu_v2
I0531 13:26:33.067952  6377 net.cpp:106] Creating Layer relu_v2
I0531 13:26:33.067962  6377 net.cpp:454] relu_v2 <- conv_v2
I0531 13:26:33.067975  6377 net.cpp:397] relu_v2 -> conv_v2 (in-place)
I0531 13:26:33.068466  6377 net.cpp:150] Setting up relu_v2
I0531 13:26:33.068483  6377 net.cpp:157] Top shape: 100 20 54 46 (4968000)
I0531 13:26:33.068493  6377 net.cpp:165] Memory required for data: 426907600
I0531 13:26:33.068503  6377 layer_factory.hpp:77] Creating layer pool_v2
I0531 13:26:33.068516  6377 net.cpp:106] Creating Layer pool_v2
I0531 13:26:33.068526  6377 net.cpp:454] pool_v2 <- conv_v2
I0531 13:26:33.068541  6377 net.cpp:411] pool_v2 -> pool_v2
I0531 13:26:33.068621  6377 net.cpp:150] Setting up pool_v2
I0531 13:26:33.068634  6377 net.cpp:157] Top shape: 100 20 27 46 (2484000)
I0531 13:26:33.068645  6377 net.cpp:165] Memory required for data: 436843600
I0531 13:26:33.068655  6377 layer_factory.hpp:77] Creating layer conv_v3
I0531 13:26:33.068672  6377 net.cpp:106] Creating Layer conv_v3
I0531 13:26:33.068682  6377 net.cpp:454] conv_v3 <- pool_v2
I0531 13:26:33.068696  6377 net.cpp:411] conv_v3 -> conv_v3
I0531 13:26:33.070751  6377 net.cpp:150] Setting up conv_v3
I0531 13:26:33.070775  6377 net.cpp:157] Top shape: 100 28 22 44 (2710400)
I0531 13:26:33.070786  6377 net.cpp:165] Memory required for data: 447685200
I0531 13:26:33.070801  6377 layer_factory.hpp:77] Creating layer relu_v3
I0531 13:26:33.070814  6377 net.cpp:106] Creating Layer relu_v3
I0531 13:26:33.070824  6377 net.cpp:454] relu_v3 <- conv_v3
I0531 13:26:33.070837  6377 net.cpp:397] relu_v3 -> conv_v3 (in-place)
I0531 13:26:33.071336  6377 net.cpp:150] Setting up relu_v3
I0531 13:26:33.071352  6377 net.cpp:157] Top shape: 100 28 22 44 (2710400)
I0531 13:26:33.071362  6377 net.cpp:165] Memory required for data: 458526800
I0531 13:26:33.071372  6377 layer_factory.hpp:77] Creating layer pool_v3
I0531 13:26:33.071385  6377 net.cpp:106] Creating Layer pool_v3
I0531 13:26:33.071395  6377 net.cpp:454] pool_v3 <- conv_v3
I0531 13:26:33.071408  6377 net.cpp:411] pool_v3 -> pool_v3
I0531 13:26:33.071488  6377 net.cpp:150] Setting up pool_v3
I0531 13:26:33.071501  6377 net.cpp:157] Top shape: 100 28 11 44 (1355200)
I0531 13:26:33.071511  6377 net.cpp:165] Memory required for data: 463947600
I0531 13:26:33.071521  6377 layer_factory.hpp:77] Creating layer conv_v4
I0531 13:26:33.071539  6377 net.cpp:106] Creating Layer conv_v4
I0531 13:26:33.071552  6377 net.cpp:454] conv_v4 <- pool_v3
I0531 13:26:33.071565  6377 net.cpp:411] conv_v4 -> conv_v4
I0531 13:26:33.073751  6377 net.cpp:150] Setting up conv_v4
I0531 13:26:33.073770  6377 net.cpp:157] Top shape: 100 36 6 42 (907200)
I0531 13:26:33.073781  6377 net.cpp:165] Memory required for data: 467576400
I0531 13:26:33.073794  6377 layer_factory.hpp:77] Creating layer relu_v4
I0531 13:26:33.073808  6377 net.cpp:106] Creating Layer relu_v4
I0531 13:26:33.073818  6377 net.cpp:454] relu_v4 <- conv_v4
I0531 13:26:33.073832  6377 net.cpp:397] relu_v4 -> conv_v4 (in-place)
I0531 13:26:33.074163  6377 net.cpp:150] Setting up relu_v4
I0531 13:26:33.074177  6377 net.cpp:157] Top shape: 100 36 6 42 (907200)
I0531 13:26:33.074187  6377 net.cpp:165] Memory required for data: 471205200
I0531 13:26:33.074198  6377 layer_factory.hpp:77] Creating layer pool_v4
I0531 13:26:33.074210  6377 net.cpp:106] Creating Layer pool_v4
I0531 13:26:33.074231  6377 net.cpp:454] pool_v4 <- conv_v4
I0531 13:26:33.074244  6377 net.cpp:411] pool_v4 -> pool_v4
I0531 13:26:33.074323  6377 net.cpp:150] Setting up pool_v4
I0531 13:26:33.074337  6377 net.cpp:157] Top shape: 100 36 3 42 (453600)
I0531 13:26:33.074347  6377 net.cpp:165] Memory required for data: 473019600
I0531 13:26:33.074357  6377 layer_factory.hpp:77] Creating layer dl_v1
I0531 13:26:33.074373  6377 net.cpp:106] Creating Layer dl_v1
I0531 13:26:33.074383  6377 net.cpp:454] dl_v1 <- pool_v4
I0531 13:26:33.074396  6377 net.cpp:411] dl_v1 -> dl_v1
I0531 13:26:33.090772  6377 net.cpp:150] Setting up dl_v1
I0531 13:26:33.090801  6377 net.cpp:157] Top shape: 100 196 (19600)
I0531 13:26:33.090811  6377 net.cpp:165] Memory required for data: 473098000
I0531 13:26:33.090828  6377 layer_factory.hpp:77] Creating layer relu_v5
I0531 13:26:33.090843  6377 net.cpp:106] Creating Layer relu_v5
I0531 13:26:33.090853  6377 net.cpp:454] relu_v5 <- dl_v1
I0531 13:26:33.090867  6377 net.cpp:397] relu_v5 -> dl_v1 (in-place)
I0531 13:26:33.091445  6377 net.cpp:150] Setting up relu_v5
I0531 13:26:33.091467  6377 net.cpp:157] Top shape: 100 196 (19600)
I0531 13:26:33.091480  6377 net.cpp:165] Memory required for data: 473176400
I0531 13:26:33.091490  6377 layer_factory.hpp:77] Creating layer drop_v1
I0531 13:26:33.091505  6377 net.cpp:106] Creating Layer drop_v1
I0531 13:26:33.091514  6377 net.cpp:454] drop_v1 <- dl_v1
I0531 13:26:33.091527  6377 net.cpp:397] drop_v1 -> dl_v1 (in-place)
I0531 13:26:33.091578  6377 net.cpp:150] Setting up drop_v1
I0531 13:26:33.091591  6377 net.cpp:157] Top shape: 100 196 (19600)
I0531 13:26:33.091601  6377 net.cpp:165] Memory required for data: 473254800
I0531 13:26:33.091611  6377 layer_factory.hpp:77] Creating layer concat_xuv
I0531 13:26:33.091634  6377 net.cpp:106] Creating Layer concat_xuv
I0531 13:26:33.091645  6377 net.cpp:454] concat_xuv <- dl_x1
I0531 13:26:33.091656  6377 net.cpp:454] concat_xuv <- dl_u1
I0531 13:26:33.091668  6377 net.cpp:454] concat_xuv <- dl_v1
I0531 13:26:33.091681  6377 net.cpp:411] concat_xuv -> concat_xuv
I0531 13:26:33.091732  6377 net.cpp:150] Setting up concat_xuv
I0531 13:26:33.091745  6377 net.cpp:157] Top shape: 100 588 (58800)
I0531 13:26:33.091755  6377 net.cpp:165] Memory required for data: 473490000
I0531 13:26:33.091765  6377 layer_factory.hpp:77] Creating layer dl_xuv
I0531 13:26:33.091779  6377 net.cpp:106] Creating Layer dl_xuv
I0531 13:26:33.091790  6377 net.cpp:454] dl_xuv <- concat_xuv
I0531 13:26:33.091804  6377 net.cpp:411] dl_xuv -> dl_xuv
I0531 13:26:33.092849  6377 net.cpp:150] Setting up dl_xuv
I0531 13:26:33.092869  6377 net.cpp:157] Top shape: 100 98 (9800)
I0531 13:26:33.092881  6377 net.cpp:165] Memory required for data: 473529200
I0531 13:26:33.092896  6377 layer_factory.hpp:77] Creating layer relu_xuv
I0531 13:26:33.092910  6377 net.cpp:106] Creating Layer relu_xuv
I0531 13:26:33.092919  6377 net.cpp:454] relu_xuv <- dl_xuv
I0531 13:26:33.092932  6377 net.cpp:397] relu_xuv -> dl_xuv (in-place)
I0531 13:26:33.093262  6377 net.cpp:150] Setting up relu_xuv
I0531 13:26:33.093276  6377 net.cpp:157] Top shape: 100 98 (9800)
I0531 13:26:33.093286  6377 net.cpp:165] Memory required for data: 473568400
I0531 13:26:33.093297  6377 layer_factory.hpp:77] Creating layer drop_xuv
I0531 13:26:33.093312  6377 net.cpp:106] Creating Layer drop_xuv
I0531 13:26:33.093322  6377 net.cpp:454] drop_xuv <- dl_xuv
I0531 13:26:33.093334  6377 net.cpp:397] drop_xuv -> dl_xuv (in-place)
I0531 13:26:33.093381  6377 net.cpp:150] Setting up drop_xuv
I0531 13:26:33.093394  6377 net.cpp:157] Top shape: 100 98 (9800)
I0531 13:26:33.093405  6377 net.cpp:165] Memory required for data: 473607600
I0531 13:26:33.093415  6377 layer_factory.hpp:77] Creating layer output
I0531 13:26:33.093427  6377 net.cpp:106] Creating Layer output
I0531 13:26:33.093437  6377 net.cpp:454] output <- dl_xuv
I0531 13:26:33.093451  6377 net.cpp:411] output -> output
I0531 13:26:33.093696  6377 net.cpp:150] Setting up output
I0531 13:26:33.093710  6377 net.cpp:157] Top shape: 100 11 (1100)
I0531 13:26:33.093732  6377 net.cpp:165] Memory required for data: 473612000
I0531 13:26:33.093765  6377 layer_factory.hpp:77] Creating layer drop_output
I0531 13:26:33.093780  6377 net.cpp:106] Creating Layer drop_output
I0531 13:26:33.093789  6377 net.cpp:454] drop_output <- output
I0531 13:26:33.093802  6377 net.cpp:397] drop_output -> output (in-place)
I0531 13:26:33.093848  6377 net.cpp:150] Setting up drop_output
I0531 13:26:33.093860  6377 net.cpp:157] Top shape: 100 11 (1100)
I0531 13:26:33.093870  6377 net.cpp:165] Memory required for data: 473616400
I0531 13:26:33.093880  6377 layer_factory.hpp:77] Creating layer output_drop_output_0_split
I0531 13:26:33.093895  6377 net.cpp:106] Creating Layer output_drop_output_0_split
I0531 13:26:33.093906  6377 net.cpp:454] output_drop_output_0_split <- output
I0531 13:26:33.093919  6377 net.cpp:411] output_drop_output_0_split -> output_drop_output_0_split_0
I0531 13:26:33.093935  6377 net.cpp:411] output_drop_output_0_split -> output_drop_output_0_split_1
I0531 13:26:33.094010  6377 net.cpp:150] Setting up output_drop_output_0_split
I0531 13:26:33.094023  6377 net.cpp:157] Top shape: 100 11 (1100)
I0531 13:26:33.094036  6377 net.cpp:157] Top shape: 100 11 (1100)
I0531 13:26:33.094045  6377 net.cpp:165] Memory required for data: 473625200
I0531 13:26:33.094055  6377 layer_factory.hpp:77] Creating layer accuracy
I0531 13:26:33.094076  6377 net.cpp:106] Creating Layer accuracy
I0531 13:26:33.094087  6377 net.cpp:454] accuracy <- output_drop_output_0_split_0
I0531 13:26:33.094099  6377 net.cpp:454] accuracy <- segments_data_3_split_0
I0531 13:26:33.094113  6377 net.cpp:411] accuracy -> accuracy
…
