…
I0530 15:41:06.785477 11019 net.cpp:322] The NetState phase (0) differed from the phase (1) specified by a rule in layer data
I0530 15:41:06.785572 11019 net.cpp:322] The NetState phase (0) differed from the phase (1) specified by a rule in layer accuracy
I0530 15:41:06.786350 11019 net.cpp:49] Initializing net from parameters: 
name: "epsilon_127x50_xuv"
state {
  phase: TRAIN
}
layer {
  name: "data"
  type: "HDF5Data"
  top: "hits-x"
  top: "hits-u"
  top: "hits-v"
  top: "segments"
  include {
    phase: TRAIN
  }
  hdf5_data_param {
    source: "/lustre/atlas/proj-shared/hep105/caffe_titan/xuv/epsilon_127x50_xuv.trainlist"
    batch_size: 100
  }
}
layer {
  name: "conv_x1"
  type: "Convolution"
  bottom: "hits-x"
  top: "conv_x1"
  convolution_param {
    num_output: 12
    pad: 0
    stride: 1
    weight_filler {
      type: "xavier"
    }
    bias_filler {
      type: "constant"
    }
    kernel_h: 8
    kernel_w: 3
  }
}
layer {
  name: "relu_x1"
  type: "ReLU"
  bottom: "conv_x1"
  top: "conv_x1"
}
layer {
  name: "pool_x1"
  type: "Pooling"
  bottom: "conv_x1"
  top: "pool_x1"
  pooling_param {
    pool: MAX
    kernel_h: 2
    kernel_w: 1
    stride_h: 2
    stride_w: 1
  }
}
layer {
  name: "conv_x2"
  type: "Convolution"
  bottom: "pool_x1"
  top: "conv_x2"
  convolution_param {
    num_output: 20
    pad: 0
    stride: 1
    weight_filler {
      type: "xavier"
    }
    bias_filler {
      type: "constant"
    }
    kernel_h: 7
    kernel_w: 3
  }
}
layer {
  name: "relu_x2"
  type: "ReLU"
  bottom: "conv_x2"
  top: "conv_x2"
}
layer {
  name: "pool_x2"
  type: "Pooling"
  bottom: "conv_x2"
  top: "pool_x2"
  pooling_param {
    pool: MAX
    kernel_h: 2
    kernel_w: 1
    stride_h: 2
    stride_w: 1
  }
}
layer {
  name: "conv_x3"
  type: "Convolution"
  bottom: "pool_x2"
  top: "conv_x3"
  convolution_param {
    num_output: 28
    pad: 0
    stride: 1
    weight_filler {
      type: "xavier"
    }
    bias_filler {
      type: "constant"
    }
    kernel_h: 6
    kernel_w: 3
  }
}
layer {
  name: "relu_x3"
  type: "ReLU"
  bottom: "conv_x3"
  top: "conv_x3"
}
layer {
  name: "pool_x3"
  type: "Pooling"
  bottom: "conv_x3"
  top: "pool_x3"
  pooling_param {
    pool: MAX
    kernel_h: 2
    kernel_w: 1
    stride_h: 2
    stride_w: 1
  }
}
layer {
  name: "conv_x4"
  type: "Convolution"
  bottom: "pool_x3"
  top: "conv_x4"
  convolution_param {
    num_output: 36
    pad: 0
    stride: 1
    weight_filler {
      type: "xavier"
    }
    bias_filler {
      type: "constant"
    }
    kernel_h: 6
    kernel_w: 3
  }
}
layer {
  name: "relu_x4"
  type: "ReLU"
  bottom: "conv_x4"
  top: "conv_x4"
}
layer {
  name: "pool_x4"
  type: "Pooling"
  bottom: "conv_x4"
  top: "pool_x4"
  pooling_param {
    pool: MAX
    kernel_h: 2
    kernel_w: 1
    stride_h: 2
    stride_w: 1
  }
}
layer {
  name: "dl_x1"
  type: "InnerProduct"
  bottom: "pool_x4"
  top: "dl_x1"
  inner_product_param {
    num_output: 196
    weight_filler {
      type: "xavier"
    }
    bias_filler {
      type: "constant"
    }
  }
}
layer {
  name: "relu_x5"
  type: "ReLU"
  bottom: "dl_x1"
  top: "dl_x1"
}
layer {
  name: "drop_x1"
  type: "Dropout"
  bottom: "dl_x1"
  top: "dl_x1"
  dropout_param {
    dropout_ratio: 0.5
  }
}
layer {
  name: "conv_u1"
  type: "Convolution"
  bottom: "hits-u"
  top: "conv_u1"
  convolution_param {
    num_output: 12
    pad: 0
    stride: 1
    weight_filler {
      type: "xavier"
    }
    bias_filler {
      type: "constant"
    }
    kernel_h: 8
    kernel_w: 3
  }
}
layer {
  name: "relu_u1"
  type: "ReLU"
  bottom: "conv_u1"
  top: "conv_u1"
}
layer {
  name: "pool_u1"
  type: "Pooling"
  bottom: "conv_u1"
  top: "pool_u1"
  pooling_param {
    pool: MAX
    kernel_h: 2
    kernel_w: 1
    stride_h: 2
    stride_w: 1
  }
}
layer {
  name: "conv_u2"
  type: "Convolution"
  bottom: "pool_u1"
  top: "conv_u2"
  convolution_param {
    num_output: 20
    pad: 0
    stride: 1
    weight_filler {
      type: "xavier"
    }
    bias_filler {
      type: "constant"
    }
    kernel_h: 7
    kernel_w: 3
  }
}
layer {
  name: "relu_u2"
  type: "ReLU"
  bottom: "conv_u2"
  top: "conv_u2"
}
layer {
  name: "pool_u2"
  type: "Pooling"
  bottom: "conv_u2"
  top: "pool_u2"
  pooling_param {
    pool: MAX
    kernel_h: 2
    kernel_w: 1
    stride_h: 2
    stride_w: 1
  }
}
layer {
  name: "conv_u3"
  type: "Convolution"
  bottom: "pool_u2"
  top: "conv_u3"
  convolution_param {
    num_output: 28
    pad: 0
    stride: 1
    weight_filler {
      type: "xavier"
    }
    bias_filler {
      type: "constant"
    }
    kernel_h: 6
    kernel_w: 3
  }
}
layer {
  name: "relu_u3"
  type: "ReLU"
  bottom: "conv_u3"
  top: "conv_u3"
}
layer {
  name: "pool_u3"
  type: "Pooling"
  bottom: "conv_u3"
  top: "pool_u3"
  pooling_param {
    pool: MAX
    kernel_h: 2
    kernel_w: 1
    stride_h: 2
    stride_w: 1
  }
}
layer {
  name: "conv_u4"
  type: "Convolution"
  bottom: "pool_u3"
  top: "conv_u4"
  convolution_param {
    num_output: 36
    pad: 0
    stride: 1
    weight_filler {
      type: "xavier"
    }
    bias_filler {
      type: "constant"
    }
    kernel_h: 6
    kernel_w: 3
  }
}
layer {
  name: "relu_u4"
  type: "ReLU"
  bottom: "conv_u4"
  top: "conv_u4"
}
layer {
  name: "pool_u4"
  type: "Pooling"
  bottom: "conv_u4"
  top: "pool_u4"
  pooling_param {
    pool: MAX
    kernel_h: 2
    kernel_w: 1
    stride_h: 2
    stride_w: 1
  }
}
layer {
  name: "dl_u1"
  type: "InnerProduct"
  bottom: "pool_u4"
  top: "dl_u1"
  inner_product_param {
    num_output: 196
    weight_filler {
      type: "xavier"
    }
    bias_filler {
      type: "constant"
    }
  }
}
layer {
  name: "relu_u5"
  type: "ReLU"
  bottom: "dl_u1"
  top: "dl_u1"
}
layer {
  name: "drop_u1"
  type: "Dropout"
  bottom: "dl_u1"
  top: "dl_u1"
  dropout_param {
    dropout_ratio: 0.5
  }
}
layer {
  name: "conv_v1"
  type: "Convolution"
  bottom: "hits-v"
  top: "conv_v1"
  convolution_param {
    num_output: 12
    pad: 0
    stride: 1
    weight_filler {
      type: "xavier"
    }
    bias_filler {
      type: "constant"
    }
    kernel_h: 8
    kernel_w: 3
  }
}
layer {
  name: "relu_v1"
  type: "ReLU"
  bottom: "conv_v1"
  top: "conv_v1"
}
layer {
  name: "pool_v1"
  type: "Pooling"
  bottom: "conv_v1"
  top: "pool_v1"
  pooling_param {
    pool: MAX
    kernel_h: 2
    kernel_w: 1
    stride_h: 2
    stride_w: 1
  }
}
layer {
  name: "conv_v2"
  type: "Convolution"
  bottom: "pool_v1"
  top: "conv_v2"
  convolution_param {
    num_output: 20
    pad: 0
    stride: 1
    weight_filler {
      type: "xavier"
    }
    bias_filler {
      type: "constant"
    }
    kernel_h: 7
    kernel_w: 3
  }
}
layer {
  name: "relu_v2"
  type: "ReLU"
  bottom: "conv_v2"
  top: "conv_v2"
}
layer {
  name: "pool_v2"
  type: "Pooling"
  bottom: "conv_v2"
  top: "pool_v2"
  pooling_param {
    pool: MAX
    kernel_h: 2
    kernel_w: 1
    stride_h: 2
    stride_w: 1
  }
}
layer {
  name: "conv_v3"
  type: "Convolution"
  bottom: "pool_v2"
  top: "conv_v3"
  convolution_param {
    num_output: 28
    pad: 0
    stride: 1
    weight_filler {
      type: "xavier"
    }
    bias_filler {
      type: "constant"
    }
    kernel_h: 6
    kernel_w: 3
  }
}
layer {
  name: "relu_v3"
  type: "ReLU"
  bottom: "conv_v3"
  top: "conv_v3"
}
layer {
  name: "pool_v3"
  type: "Pooling"
  bottom: "conv_v3"
  top: "pool_v3"
  pooling_param {
    pool: MAX
    kernel_h: 2
    kernel_w: 1
    stride_h: 2
    stride_w: 1
  }
}
layer {
  name: "conv_v4"
  type: "Convolution"
  bottom: "pool_v3"
  top: "conv_v4"
  convolution_param {
    num_output: 36
    pad: 0
    stride: 1
    weight_filler {
      type: "xavier"
    }
    bias_filler {
      type: "constant"
    }
    kernel_h: 6
    kernel_w: 3
  }
}
layer {
  name: "relu_v4"
  type: "ReLU"
  bottom: "conv_v4"
  top: "conv_v4"
}
layer {
  name: "pool_v4"
  type: "Pooling"
  bottom: "conv_v4"
  top: "pool_v4"
  pooling_param {
    pool: MAX
    kernel_h: 2
    kernel_w: 1
    stride_h: 2
    stride_w: 1
  }
}
layer {
  name: "dl_v1"
  type: "InnerProduct"
  bottom: "pool_v4"
  top: "dl_v1"
  inner_product_param {
    num_output: 196
    weight_filler {
      type: "xavier"
    }
    bias_filler {
      type: "constant"
    }
  }
}
layer {
  name: "relu_v5"
  type: "ReLU"
  bottom: "dl_v1"
  top: "dl_v1"
}
layer {
  name: "drop_v1"
  type: "Dropout"
  bottom: "dl_v1"
  top: "dl_v1"
  dropout_param {
    dropout_ratio: 0.5
  }
}
layer {
  name: "concat_xuv"
  type: "Concat"
  bottom: "dl_x1"
  bottom: "dl_u1"
  bottom: "dl_v1"
  top: "concat_xuv"
  concat_param {
    axis: 1
  }
}
layer {
  name: "dl_xuv"
  type: "InnerProduct"
  bottom: "concat_xuv"
  top: "dl_xuv"
  inner_product_param {
    num_output: 98
    weight_filler {
      type: "xavier"
    }
    bias_filler {
      type: "constant"
    }
  }
}
layer {
  name: "relu_xuv"
  type: "ReLU"
  bottom: "dl_xuv"
  top: "dl_xuv"
}
layer {
  name: "drop_xuv"
  type: "Dropout"
  bottom: "dl_xuv"
  top: "dl_xuv"
  dropout_param {
    dropout_ratio: 0.5
  }
}
layer {
  name: "output"
  type: "InnerProduct"
  bottom: "dl_xuv"
  top: "output"
  inner_product_param {
    num_output: 11
    weight_filler {
      type: "xavier"
    }
    bias_filler {
      type: "constant"
    }
  }
}
layer {
  name: "drop_output"
  type: "Dropout"
  bottom: "output"
  top: "output"
  dropout_param {
    dropout_ratio: 0.5
  }
}
layer {
  name: "loss"
  type: "SoftmaxWithLoss"
  bottom: "output"
  bottom: "segments"
  top: "loss"
}
I0530 15:41:06.786767 11019 layer_factory.hpp:77] Creating layer data
I0530 15:41:06.786801 11019 net.cpp:106] Creating Layer data
I0530 15:41:06.786819 11019 net.cpp:411] data -> hits-x
I0530 15:41:06.786854 11019 net.cpp:411] data -> hits-u
I0530 15:41:06.786887 11019 net.cpp:411] data -> hits-v
I0530 15:41:06.786906 11019 net.cpp:411] data -> segments
I0530 15:41:06.786933 11019 hdf5_data_layer.cpp:79] Loading list of HDF5 filenames from: /lustre/atlas/proj-shared/hep105/caffe_titan/xuv/epsilon_127x50_xuv.trainlist
I0530 15:41:06.788482 11019 hdf5_data_layer.cpp:93] Number of HDF5 files: 15
I0530 15:41:06.791745 11019 hdf5.cpp:32] Datatype class: H5T_FLOAT
I0530 15:42:10.832443 11019 hdf5.cpp:35] Datatype class: H5T_INTEGER
I0530 15:42:10.838147 11019 net.cpp:150] Setting up data
I0530 15:42:10.838189 11019 net.cpp:157] Top shape: 100 1 127 50 (635000)
I0530 15:42:10.838207 11019 net.cpp:157] Top shape: 100 1 127 50 (635000)
I0530 15:42:10.838227 11019 net.cpp:157] Top shape: 100 1 127 50 (635000)
I0530 15:42:10.838243 11019 net.cpp:157] Top shape: 100 (100)
I0530 15:42:10.838268 11019 net.cpp:165] Memory required for data: 7620400
I0530 15:42:10.838284 11019 layer_factory.hpp:77] Creating layer conv_x1
I0530 15:42:10.838327 11019 net.cpp:106] Creating Layer conv_x1
I0530 15:42:10.838341 11019 net.cpp:454] conv_x1 <- hits-x
I0530 15:42:10.838376 11019 net.cpp:411] conv_x1 -> conv_x1
I0530 15:42:11.207023 11019 net.cpp:150] Setting up conv_x1
I0530 15:42:11.207075 11019 net.cpp:157] Top shape: 100 12 120 48 (6912000)
I0530 15:42:11.207098 11019 net.cpp:165] Memory required for data: 35268400
I0530 15:42:11.207129 11019 layer_factory.hpp:77] Creating layer relu_x1
I0530 15:42:11.207151 11019 net.cpp:106] Creating Layer relu_x1
I0530 15:42:11.207171 11019 net.cpp:454] relu_x1 <- conv_x1
I0530 15:42:11.207207 11019 net.cpp:397] relu_x1 -> conv_x1 (in-place)
I0530 15:42:11.207741 11019 net.cpp:150] Setting up relu_x1
I0530 15:42:11.207764 11019 net.cpp:157] Top shape: 100 12 120 48 (6912000)
I0530 15:42:11.207778 11019 net.cpp:165] Memory required for data: 62916400
I0530 15:42:11.207790 11019 layer_factory.hpp:77] Creating layer pool_x1
I0530 15:42:11.207813 11019 net.cpp:106] Creating Layer pool_x1
I0530 15:42:11.207828 11019 net.cpp:454] pool_x1 <- conv_x1
I0530 15:42:11.207844 11019 net.cpp:411] pool_x1 -> pool_x1
I0530 15:42:11.207948 11019 net.cpp:150] Setting up pool_x1
I0530 15:42:11.207967 11019 net.cpp:157] Top shape: 100 12 60 48 (3456000)
I0530 15:42:11.207986 11019 net.cpp:165] Memory required for data: 76740400
I0530 15:42:11.208001 11019 layer_factory.hpp:77] Creating layer conv_x2
I0530 15:42:11.208025 11019 net.cpp:106] Creating Layer conv_x2
I0530 15:42:11.208039 11019 net.cpp:454] conv_x2 <- pool_x1
I0530 15:42:11.208058 11019 net.cpp:411] conv_x2 -> conv_x2
I0530 15:42:11.210782 11019 net.cpp:150] Setting up conv_x2
I0530 15:42:11.210813 11019 net.cpp:157] Top shape: 100 20 54 46 (4968000)
I0530 15:42:11.210835 11019 net.cpp:165] Memory required for data: 96612400
I0530 15:42:11.210860 11019 layer_factory.hpp:77] Creating layer relu_x2
I0530 15:42:11.210881 11019 net.cpp:106] Creating Layer relu_x2
I0530 15:42:11.210906 11019 net.cpp:454] relu_x2 <- conv_x2
I0530 15:42:11.210922 11019 net.cpp:397] relu_x2 -> conv_x2 (in-place)
I0530 15:42:11.211268 11019 net.cpp:150] Setting up relu_x2
I0530 15:42:11.211288 11019 net.cpp:157] Top shape: 100 20 54 46 (4968000)
I0530 15:42:11.211300 11019 net.cpp:165] Memory required for data: 116484400
I0530 15:42:11.211316 11019 layer_factory.hpp:77] Creating layer pool_x2
I0530 15:42:11.211338 11019 net.cpp:106] Creating Layer pool_x2
I0530 15:42:11.211351 11019 net.cpp:454] pool_x2 <- conv_x2
I0530 15:42:11.211369 11019 net.cpp:411] pool_x2 -> pool_x2
I0530 15:42:11.211452 11019 net.cpp:150] Setting up pool_x2
I0530 15:42:11.211472 11019 net.cpp:157] Top shape: 100 20 27 46 (2484000)
I0530 15:42:11.211484 11019 net.cpp:165] Memory required for data: 126420400
I0530 15:42:11.211499 11019 layer_factory.hpp:77] Creating layer conv_x3
I0530 15:42:11.211527 11019 net.cpp:106] Creating Layer conv_x3
I0530 15:42:11.211540 11019 net.cpp:454] conv_x3 <- pool_x2
I0530 15:42:11.211562 11019 net.cpp:411] conv_x3 -> conv_x3
I0530 15:42:11.213510 11019 net.cpp:150] Setting up conv_x3
I0530 15:42:11.213536 11019 net.cpp:157] Top shape: 100 28 22 44 (2710400)
I0530 15:42:11.213556 11019 net.cpp:165] Memory required for data: 137262000
I0530 15:42:11.213578 11019 layer_factory.hpp:77] Creating layer relu_x3
I0530 15:42:11.213601 11019 net.cpp:106] Creating Layer relu_x3
I0530 15:42:11.213624 11019 net.cpp:454] relu_x3 <- conv_x3
I0530 15:42:11.213639 11019 net.cpp:397] relu_x3 -> conv_x3 (in-place)
I0530 15:42:11.214141 11019 net.cpp:150] Setting up relu_x3
I0530 15:42:11.214165 11019 net.cpp:157] Top shape: 100 28 22 44 (2710400)
I0530 15:42:11.214193 11019 net.cpp:165] Memory required for data: 148103600
I0530 15:42:11.214206 11019 layer_factory.hpp:77] Creating layer pool_x3
I0530 15:42:11.214232 11019 net.cpp:106] Creating Layer pool_x3
I0530 15:42:11.214246 11019 net.cpp:454] pool_x3 <- conv_x3
I0530 15:42:11.214263 11019 net.cpp:411] pool_x3 -> pool_x3
I0530 15:42:11.214345 11019 net.cpp:150] Setting up pool_x3
I0530 15:42:11.214366 11019 net.cpp:157] Top shape: 100 28 11 44 (1355200)
I0530 15:42:11.214378 11019 net.cpp:165] Memory required for data: 153524400
I0530 15:42:11.214397 11019 layer_factory.hpp:77] Creating layer conv_x4
I0530 15:42:11.214418 11019 net.cpp:106] Creating Layer conv_x4
I0530 15:42:11.214433 11019 net.cpp:454] conv_x4 <- pool_x3
I0530 15:42:11.214450 11019 net.cpp:411] conv_x4 -> conv_x4
I0530 15:42:11.217432 11019 net.cpp:150] Setting up conv_x4
I0530 15:42:11.217464 11019 net.cpp:157] Top shape: 100 36 6 42 (907200)
I0530 15:42:11.217480 11019 net.cpp:165] Memory required for data: 157153200
I0530 15:42:11.217499 11019 layer_factory.hpp:77] Creating layer relu_x4
I0530 15:42:11.217521 11019 net.cpp:106] Creating Layer relu_x4
I0530 15:42:11.217546 11019 net.cpp:454] relu_x4 <- conv_x4
I0530 15:42:11.217563 11019 net.cpp:397] relu_x4 -> conv_x4 (in-place)
I0530 15:42:11.218060 11019 net.cpp:150] Setting up relu_x4
I0530 15:42:11.218082 11019 net.cpp:157] Top shape: 100 36 6 42 (907200)
I0530 15:42:11.218096 11019 net.cpp:165] Memory required for data: 160782000
I0530 15:42:11.218108 11019 layer_factory.hpp:77] Creating layer pool_x4
I0530 15:42:11.218127 11019 net.cpp:106] Creating Layer pool_x4
I0530 15:42:11.218149 11019 net.cpp:454] pool_x4 <- conv_x4
I0530 15:42:11.218166 11019 net.cpp:411] pool_x4 -> pool_x4
I0530 15:42:11.218250 11019 net.cpp:150] Setting up pool_x4
I0530 15:42:11.218272 11019 net.cpp:157] Top shape: 100 36 3 42 (453600)
I0530 15:42:11.218286 11019 net.cpp:165] Memory required for data: 162596400
I0530 15:42:11.218300 11019 layer_factory.hpp:77] Creating layer dl_x1
I0530 15:42:11.218328 11019 net.cpp:106] Creating Layer dl_x1
I0530 15:42:11.218341 11019 net.cpp:454] dl_x1 <- pool_x4
I0530 15:42:11.218358 11019 net.cpp:411] dl_x1 -> dl_x1
I0530 15:42:11.233875 11019 net.cpp:150] Setting up dl_x1
I0530 15:42:11.233912 11019 net.cpp:157] Top shape: 100 196 (19600)
I0530 15:42:11.233927 11019 net.cpp:165] Memory required for data: 162674800
I0530 15:42:11.233955 11019 layer_factory.hpp:77] Creating layer relu_x5
I0530 15:42:11.233973 11019 net.cpp:106] Creating Layer relu_x5
I0530 15:42:11.233999 11019 net.cpp:454] relu_x5 <- dl_x1
I0530 15:42:11.234016 11019 net.cpp:397] relu_x5 -> dl_x1 (in-place)
I0530 15:42:11.234383 11019 net.cpp:150] Setting up relu_x5
I0530 15:42:11.234403 11019 net.cpp:157] Top shape: 100 196 (19600)
I0530 15:42:11.234416 11019 net.cpp:165] Memory required for data: 162753200
I0530 15:42:11.234431 11019 layer_factory.hpp:77] Creating layer drop_x1
I0530 15:42:11.234462 11019 net.cpp:106] Creating Layer drop_x1
I0530 15:42:11.234477 11019 net.cpp:454] drop_x1 <- dl_x1
I0530 15:42:11.234491 11019 net.cpp:397] drop_x1 -> dl_x1 (in-place)
I0530 15:42:11.234544 11019 net.cpp:150] Setting up drop_x1
I0530 15:42:11.234566 11019 net.cpp:157] Top shape: 100 196 (19600)
I0530 15:42:11.234580 11019 net.cpp:165] Memory required for data: 162831600
I0530 15:42:11.234591 11019 layer_factory.hpp:77] Creating layer conv_u1
I0530 15:42:11.234621 11019 net.cpp:106] Creating Layer conv_u1
I0530 15:42:11.234632 11019 net.cpp:454] conv_u1 <- hits-u
I0530 15:42:11.234655 11019 net.cpp:411] conv_u1 -> conv_u1
I0530 15:42:11.236515 11019 net.cpp:150] Setting up conv_u1
I0530 15:42:11.236539 11019 net.cpp:157] Top shape: 100 12 120 48 (6912000)
I0530 15:42:11.236559 11019 net.cpp:165] Memory required for data: 190479600
I0530 15:42:11.236578 11019 layer_factory.hpp:77] Creating layer relu_u1
I0530 15:42:11.236598 11019 net.cpp:106] Creating Layer relu_u1
I0530 15:42:11.236610 11019 net.cpp:454] relu_u1 <- conv_u1
I0530 15:42:11.236636 11019 net.cpp:397] relu_u1 -> conv_u1 (in-place)
I0530 15:42:11.237139 11019 net.cpp:150] Setting up relu_u1
I0530 15:42:11.237165 11019 net.cpp:157] Top shape: 100 12 120 48 (6912000)
I0530 15:42:11.237179 11019 net.cpp:165] Memory required for data: 218127600
I0530 15:42:11.237195 11019 layer_factory.hpp:77] Creating layer pool_u1
I0530 15:42:11.237217 11019 net.cpp:106] Creating Layer pool_u1
I0530 15:42:11.237231 11019 net.cpp:454] pool_u1 <- conv_u1
I0530 15:42:11.237247 11019 net.cpp:411] pool_u1 -> pool_u1
I0530 15:42:11.237332 11019 net.cpp:150] Setting up pool_u1
I0530 15:42:11.237350 11019 net.cpp:157] Top shape: 100 12 60 48 (3456000)
I0530 15:42:11.237365 11019 net.cpp:165] Memory required for data: 231951600
I0530 15:42:11.237376 11019 layer_factory.hpp:77] Creating layer conv_u2
I0530 15:42:11.237403 11019 net.cpp:106] Creating Layer conv_u2
I0530 15:42:11.237416 11019 net.cpp:454] conv_u2 <- pool_u1
I0530 15:42:11.237433 11019 net.cpp:411] conv_u2 -> conv_u2
I0530 15:42:11.239317 11019 net.cpp:150] Setting up conv_u2
I0530 15:42:11.239341 11019 net.cpp:157] Top shape: 100 20 54 46 (4968000)
I0530 15:42:11.239362 11019 net.cpp:165] Memory required for data: 251823600
I0530 15:42:11.239380 11019 layer_factory.hpp:77] Creating layer relu_u2
I0530 15:42:11.239399 11019 net.cpp:106] Creating Layer relu_u2
I0530 15:42:11.239413 11019 net.cpp:454] relu_u2 <- conv_u2
I0530 15:42:11.239437 11019 net.cpp:397] relu_u2 -> conv_u2 (in-place)
I0530 15:42:11.239771 11019 net.cpp:150] Setting up relu_u2
I0530 15:42:11.239792 11019 net.cpp:157] Top shape: 100 20 54 46 (4968000)
I0530 15:42:11.239804 11019 net.cpp:165] Memory required for data: 271695600
I0530 15:42:11.239816 11019 layer_factory.hpp:77] Creating layer pool_u2
I0530 15:42:11.239835 11019 net.cpp:106] Creating Layer pool_u2
I0530 15:42:11.239856 11019 net.cpp:454] pool_u2 <- conv_u2
I0530 15:42:11.239872 11019 net.cpp:411] pool_u2 -> pool_u2
I0530 15:42:11.239966 11019 net.cpp:150] Setting up pool_u2
I0530 15:42:11.239984 11019 net.cpp:157] Top shape: 100 20 27 46 (2484000)
I0530 15:42:11.239997 11019 net.cpp:165] Memory required for data: 281631600
I0530 15:42:11.240010 11019 layer_factory.hpp:77] Creating layer conv_u3
I0530 15:42:11.240031 11019 net.cpp:106] Creating Layer conv_u3
I0530 15:42:11.240051 11019 net.cpp:454] conv_u3 <- pool_u2
I0530 15:42:11.240068 11019 net.cpp:411] conv_u3 -> conv_u3
I0530 15:42:11.242014 11019 net.cpp:150] Setting up conv_u3
I0530 15:42:11.242038 11019 net.cpp:157] Top shape: 100 28 22 44 (2710400)
I0530 15:42:11.242051 11019 net.cpp:165] Memory required for data: 292473200
I0530 15:42:11.242072 11019 layer_factory.hpp:77] Creating layer relu_u3
I0530 15:42:11.242092 11019 net.cpp:106] Creating Layer relu_u3
I0530 15:42:11.242105 11019 net.cpp:454] relu_u3 <- conv_u3
I0530 15:42:11.242130 11019 net.cpp:397] relu_u3 -> conv_u3 (in-place)
I0530 15:42:11.242477 11019 net.cpp:150] Setting up relu_u3
I0530 15:42:11.242497 11019 net.cpp:157] Top shape: 100 28 22 44 (2710400)
I0530 15:42:11.242511 11019 net.cpp:165] Memory required for data: 303314800
I0530 15:42:11.242522 11019 layer_factory.hpp:77] Creating layer pool_u3
I0530 15:42:11.242542 11019 net.cpp:106] Creating Layer pool_u3
I0530 15:42:11.242563 11019 net.cpp:454] pool_u3 <- conv_u3
I0530 15:42:11.242580 11019 net.cpp:411] pool_u3 -> pool_u3
I0530 15:42:11.242668 11019 net.cpp:150] Setting up pool_u3
I0530 15:42:11.242686 11019 net.cpp:157] Top shape: 100 28 11 44 (1355200)
I0530 15:42:11.242704 11019 net.cpp:165] Memory required for data: 308735600
I0530 15:42:11.242717 11019 layer_factory.hpp:77] Creating layer conv_u4
I0530 15:42:11.242739 11019 net.cpp:106] Creating Layer conv_u4
I0530 15:42:11.242751 11019 net.cpp:454] conv_u4 <- pool_u3
I0530 15:42:11.242775 11019 net.cpp:411] conv_u4 -> conv_u4
I0530 15:42:11.244997 11019 net.cpp:150] Setting up conv_u4
I0530 15:42:11.245020 11019 net.cpp:157] Top shape: 100 36 6 42 (907200)
I0530 15:42:11.245041 11019 net.cpp:165] Memory required for data: 312364400
I0530 15:42:11.245066 11019 layer_factory.hpp:77] Creating layer relu_u4
I0530 15:42:11.245086 11019 net.cpp:106] Creating Layer relu_u4
I0530 15:42:11.245118 11019 net.cpp:454] relu_u4 <- conv_u4
I0530 15:42:11.245136 11019 net.cpp:397] relu_u4 -> conv_u4 (in-place)
I0530 15:42:11.245633 11019 net.cpp:150] Setting up relu_u4
I0530 15:42:11.245657 11019 net.cpp:157] Top shape: 100 36 6 42 (907200)
I0530 15:42:11.245671 11019 net.cpp:165] Memory required for data: 315993200
I0530 15:42:11.245687 11019 layer_factory.hpp:77] Creating layer pool_u4
I0530 15:42:11.245710 11019 net.cpp:106] Creating Layer pool_u4
I0530 15:42:11.245723 11019 net.cpp:454] pool_u4 <- conv_u4
I0530 15:42:11.245740 11019 net.cpp:411] pool_u4 -> pool_u4
I0530 15:42:11.245833 11019 net.cpp:150] Setting up pool_u4
I0530 15:42:11.245851 11019 net.cpp:157] Top shape: 100 36 3 42 (453600)
I0530 15:42:11.245867 11019 net.cpp:165] Memory required for data: 317807600
I0530 15:42:11.245879 11019 layer_factory.hpp:77] Creating layer dl_u1
I0530 15:42:11.245904 11019 net.cpp:106] Creating Layer dl_u1
I0530 15:42:11.245923 11019 net.cpp:454] dl_u1 <- pool_u4
I0530 15:42:11.245939 11019 net.cpp:411] dl_u1 -> dl_u1
I0530 15:42:11.261426 11019 net.cpp:150] Setting up dl_u1
I0530 15:42:11.261463 11019 net.cpp:157] Top shape: 100 196 (19600)
I0530 15:42:11.261477 11019 net.cpp:165] Memory required for data: 317886000
I0530 15:42:11.261497 11019 layer_factory.hpp:77] Creating layer relu_u5
I0530 15:42:11.261518 11019 net.cpp:106] Creating Layer relu_u5
I0530 15:42:11.261530 11019 net.cpp:454] relu_u5 <- dl_u1
I0530 15:42:11.261560 11019 net.cpp:397] relu_u5 -> dl_u1 (in-place)
I0530 15:42:11.261927 11019 net.cpp:150] Setting up relu_u5
I0530 15:42:11.261948 11019 net.cpp:157] Top shape: 100 196 (19600)
I0530 15:42:11.261961 11019 net.cpp:165] Memory required for data: 317964400
I0530 15:42:11.261976 11019 layer_factory.hpp:77] Creating layer drop_u1
I0530 15:42:11.261992 11019 net.cpp:106] Creating Layer drop_u1
I0530 15:42:11.262012 11019 net.cpp:454] drop_u1 <- dl_u1
I0530 15:42:11.262028 11019 net.cpp:397] drop_u1 -> dl_u1 (in-place)
I0530 15:42:11.262079 11019 net.cpp:150] Setting up drop_u1
I0530 15:42:11.262096 11019 net.cpp:157] Top shape: 100 196 (19600)
I0530 15:42:11.262109 11019 net.cpp:165] Memory required for data: 318042800
I0530 15:42:11.262121 11019 layer_factory.hpp:77] Creating layer conv_v1
I0530 15:42:11.262148 11019 net.cpp:106] Creating Layer conv_v1
I0530 15:42:11.262161 11019 net.cpp:454] conv_v1 <- hits-v
I0530 15:42:11.262181 11019 net.cpp:411] conv_v1 -> conv_v1
I0530 15:42:11.264066 11019 net.cpp:150] Setting up conv_v1
I0530 15:42:11.264091 11019 net.cpp:157] Top shape: 100 12 120 48 (6912000)
I0530 15:42:11.264111 11019 net.cpp:165] Memory required for data: 345690800
I0530 15:42:11.264130 11019 layer_factory.hpp:77] Creating layer relu_v1
I0530 15:42:11.264159 11019 net.cpp:106] Creating Layer relu_v1
I0530 15:42:11.264180 11019 net.cpp:454] relu_v1 <- conv_v1
I0530 15:42:11.264196 11019 net.cpp:397] relu_v1 -> conv_v1 (in-place)
I0530 15:42:11.264693 11019 net.cpp:150] Setting up relu_v1
I0530 15:42:11.264717 11019 net.cpp:157] Top shape: 100 12 120 48 (6912000)
I0530 15:42:11.264731 11019 net.cpp:165] Memory required for data: 373338800
I0530 15:42:11.264746 11019 layer_factory.hpp:77] Creating layer pool_v1
I0530 15:42:11.264771 11019 net.cpp:106] Creating Layer pool_v1
I0530 15:42:11.264786 11019 net.cpp:454] pool_v1 <- conv_v1
I0530 15:42:11.264802 11019 net.cpp:411] pool_v1 -> pool_v1
I0530 15:42:11.264890 11019 net.cpp:150] Setting up pool_v1
I0530 15:42:11.264907 11019 net.cpp:157] Top shape: 100 12 60 48 (3456000)
I0530 15:42:11.264922 11019 net.cpp:165] Memory required for data: 387162800
I0530 15:42:11.264935 11019 layer_factory.hpp:77] Creating layer conv_v2
I0530 15:42:11.264961 11019 net.cpp:106] Creating Layer conv_v2
I0530 15:42:11.264982 11019 net.cpp:454] conv_v2 <- pool_v1
I0530 15:42:11.265000 11019 net.cpp:411] conv_v2 -> conv_v2
I0530 15:42:11.266722 11019 net.cpp:150] Setting up conv_v2
I0530 15:42:11.266747 11019 net.cpp:157] Top shape: 100 20 54 46 (4968000)
I0530 15:42:11.266767 11019 net.cpp:165] Memory required for data: 407034800
I0530 15:42:11.266798 11019 layer_factory.hpp:77] Creating layer relu_v2
I0530 15:42:11.266818 11019 net.cpp:106] Creating Layer relu_v2
I0530 15:42:11.266840 11019 net.cpp:454] relu_v2 <- conv_v2
I0530 15:42:11.266856 11019 net.cpp:397] relu_v2 -> conv_v2 (in-place)
I0530 15:42:11.267354 11019 net.cpp:150] Setting up relu_v2
I0530 15:42:11.267376 11019 net.cpp:157] Top shape: 100 20 54 46 (4968000)
I0530 15:42:11.267390 11019 net.cpp:165] Memory required for data: 426906800
I0530 15:42:11.267406 11019 layer_factory.hpp:77] Creating layer pool_v2
I0530 15:42:11.267422 11019 net.cpp:106] Creating Layer pool_v2
I0530 15:42:11.267443 11019 net.cpp:454] pool_v2 <- conv_v2
I0530 15:42:11.267460 11019 net.cpp:411] pool_v2 -> pool_v2
I0530 15:42:11.267544 11019 net.cpp:150] Setting up pool_v2
I0530 15:42:11.267562 11019 net.cpp:157] Top shape: 100 20 27 46 (2484000)
I0530 15:42:11.267576 11019 net.cpp:165] Memory required for data: 436842800
I0530 15:42:11.267588 11019 layer_factory.hpp:77] Creating layer conv_v3
I0530 15:42:11.267616 11019 net.cpp:106] Creating Layer conv_v3
I0530 15:42:11.267629 11019 net.cpp:454] conv_v3 <- pool_v2
I0530 15:42:11.267645 11019 net.cpp:411] conv_v3 -> conv_v3
I0530 15:42:11.269605 11019 net.cpp:150] Setting up conv_v3
I0530 15:42:11.269629 11019 net.cpp:157] Top shape: 100 28 22 44 (2710400)
I0530 15:42:11.269649 11019 net.cpp:165] Memory required for data: 447684400
I0530 15:42:11.269670 11019 layer_factory.hpp:77] Creating layer relu_v3
I0530 15:42:11.269688 11019 net.cpp:106] Creating Layer relu_v3
I0530 15:42:11.269701 11019 net.cpp:454] relu_v3 <- conv_v3
I0530 15:42:11.269727 11019 net.cpp:397] relu_v3 -> conv_v3 (in-place)
I0530 15:42:11.270069 11019 net.cpp:150] Setting up relu_v3
I0530 15:42:11.270090 11019 net.cpp:157] Top shape: 100 28 22 44 (2710400)
I0530 15:42:11.270104 11019 net.cpp:165] Memory required for data: 458526000
I0530 15:42:11.270119 11019 layer_factory.hpp:77] Creating layer pool_v3
I0530 15:42:11.270134 11019 net.cpp:106] Creating Layer pool_v3
I0530 15:42:11.270155 11019 net.cpp:454] pool_v3 <- conv_v3
I0530 15:42:11.270172 11019 net.cpp:411] pool_v3 -> pool_v3
I0530 15:42:11.270256 11019 net.cpp:150] Setting up pool_v3
I0530 15:42:11.270279 11019 net.cpp:157] Top shape: 100 28 11 44 (1355200)
I0530 15:42:11.270294 11019 net.cpp:165] Memory required for data: 463946800
I0530 15:42:11.270309 11019 layer_factory.hpp:77] Creating layer conv_v4
I0530 15:42:11.270334 11019 net.cpp:106] Creating Layer conv_v4
I0530 15:42:11.270349 11019 net.cpp:454] conv_v4 <- pool_v3
I0530 15:42:11.270365 11019 net.cpp:411] conv_v4 -> conv_v4
I0530 15:42:11.272478 11019 net.cpp:150] Setting up conv_v4
I0530 15:42:11.272503 11019 net.cpp:157] Top shape: 100 36 6 42 (907200)
I0530 15:42:11.272523 11019 net.cpp:165] Memory required for data: 467575600
I0530 15:42:11.272542 11019 layer_factory.hpp:77] Creating layer relu_v4
I0530 15:42:11.272562 11019 net.cpp:106] Creating Layer relu_v4
I0530 15:42:11.272575 11019 net.cpp:454] relu_v4 <- conv_v4
I0530 15:42:11.272590 11019 net.cpp:397] relu_v4 -> conv_v4 (in-place)
I0530 15:42:11.273092 11019 net.cpp:150] Setting up relu_v4
I0530 15:42:11.273115 11019 net.cpp:157] Top shape: 100 36 6 42 (907200)
I0530 15:42:11.273129 11019 net.cpp:165] Memory required for data: 471204400
I0530 15:42:11.273145 11019 layer_factory.hpp:77] Creating layer pool_v4
I0530 15:42:11.273161 11019 net.cpp:106] Creating Layer pool_v4
I0530 15:42:11.273183 11019 net.cpp:454] pool_v4 <- conv_v4
I0530 15:42:11.273200 11019 net.cpp:411] pool_v4 -> pool_v4
I0530 15:42:11.273289 11019 net.cpp:150] Setting up pool_v4
I0530 15:42:11.273306 11019 net.cpp:157] Top shape: 100 36 3 42 (453600)
I0530 15:42:11.273322 11019 net.cpp:165] Memory required for data: 473018800
I0530 15:42:11.273334 11019 layer_factory.hpp:77] Creating layer dl_v1
I0530 15:42:11.273350 11019 net.cpp:106] Creating Layer dl_v1
I0530 15:42:11.273370 11019 net.cpp:454] dl_v1 <- pool_v4
I0530 15:42:11.273386 11019 net.cpp:411] dl_v1 -> dl_v1
I0530 15:42:11.288846 11019 net.cpp:150] Setting up dl_v1
I0530 15:42:11.288888 11019 net.cpp:157] Top shape: 100 196 (19600)
I0530 15:42:11.288910 11019 net.cpp:165] Memory required for data: 473097200
I0530 15:42:11.288930 11019 layer_factory.hpp:77] Creating layer relu_v5
I0530 15:42:11.288951 11019 net.cpp:106] Creating Layer relu_v5
I0530 15:42:11.288965 11019 net.cpp:454] relu_v5 <- dl_v1
I0530 15:42:11.288993 11019 net.cpp:397] relu_v5 -> dl_v1 (in-place)
I0530 15:42:11.289361 11019 net.cpp:150] Setting up relu_v5
I0530 15:42:11.289382 11019 net.cpp:157] Top shape: 100 196 (19600)
I0530 15:42:11.289396 11019 net.cpp:165] Memory required for data: 473175600
I0530 15:42:11.289410 11019 layer_factory.hpp:77] Creating layer drop_v1
I0530 15:42:11.289427 11019 net.cpp:106] Creating Layer drop_v1
I0530 15:42:11.289448 11019 net.cpp:454] drop_v1 <- dl_v1
I0530 15:42:11.289463 11019 net.cpp:397] drop_v1 -> dl_v1 (in-place)
I0530 15:42:11.289515 11019 net.cpp:150] Setting up drop_v1
I0530 15:42:11.289530 11019 net.cpp:157] Top shape: 100 196 (19600)
I0530 15:42:11.289551 11019 net.cpp:165] Memory required for data: 473254000
I0530 15:42:11.289568 11019 layer_factory.hpp:77] Creating layer concat_xuv
I0530 15:42:11.289592 11019 net.cpp:106] Creating Layer concat_xuv
I0530 15:42:11.289607 11019 net.cpp:454] concat_xuv <- dl_x1
I0530 15:42:11.289620 11019 net.cpp:454] concat_xuv <- dl_u1
I0530 15:42:11.289641 11019 net.cpp:454] concat_xuv <- dl_v1
I0530 15:42:11.289657 11019 net.cpp:411] concat_xuv -> concat_xuv
I0530 15:42:11.289721 11019 net.cpp:150] Setting up concat_xuv
I0530 15:42:11.289737 11019 net.cpp:157] Top shape: 100 588 (58800)
I0530 15:42:11.289751 11019 net.cpp:165] Memory required for data: 473489200
I0530 15:42:11.289763 11019 layer_factory.hpp:77] Creating layer dl_xuv
I0530 15:42:11.289783 11019 net.cpp:106] Creating Layer dl_xuv
I0530 15:42:11.289803 11019 net.cpp:454] dl_xuv <- concat_xuv
I0530 15:42:11.289827 11019 net.cpp:411] dl_xuv -> dl_xuv
I0530 15:42:11.290885 11019 net.cpp:150] Setting up dl_xuv
I0530 15:42:11.290904 11019 net.cpp:157] Top shape: 100 98 (9800)
I0530 15:42:11.290926 11019 net.cpp:165] Memory required for data: 473528400
I0530 15:42:11.290944 11019 layer_factory.hpp:77] Creating layer relu_xuv
I0530 15:42:11.290962 11019 net.cpp:106] Creating Layer relu_xuv
I0530 15:42:11.290974 11019 net.cpp:454] relu_xuv <- dl_xuv
I0530 15:42:11.290997 11019 net.cpp:397] relu_xuv -> dl_xuv (in-place)
I0530 15:42:11.291565 11019 net.cpp:150] Setting up relu_xuv
I0530 15:42:11.291587 11019 net.cpp:157] Top shape: 100 98 (9800)
I0530 15:42:11.291610 11019 net.cpp:165] Memory required for data: 473567600
I0530 15:42:11.291623 11019 layer_factory.hpp:77] Creating layer drop_xuv
I0530 15:42:11.291638 11019 net.cpp:106] Creating Layer drop_xuv
I0530 15:42:11.291654 11019 net.cpp:454] drop_xuv <- dl_xuv
I0530 15:42:11.291687 11019 net.cpp:397] drop_xuv -> dl_xuv (in-place)
I0530 15:42:11.291766 11019 net.cpp:150] Setting up drop_xuv
I0530 15:42:11.291785 11019 net.cpp:157] Top shape: 100 98 (9800)
I0530 15:42:11.291798 11019 net.cpp:165] Memory required for data: 473606800
I0530 15:42:11.291812 11019 layer_factory.hpp:77] Creating layer output
I0530 15:42:11.291831 11019 net.cpp:106] Creating Layer output
I0530 15:42:11.291843 11019 net.cpp:454] output <- dl_xuv
I0530 15:42:11.291867 11019 net.cpp:411] output -> output
I0530 15:42:11.292112 11019 net.cpp:150] Setting up output
I0530 15:42:11.292132 11019 net.cpp:157] Top shape: 100 11 (1100)
I0530 15:42:11.292145 11019 net.cpp:165] Memory required for data: 473611200
I0530 15:42:11.292187 11019 layer_factory.hpp:77] Creating layer drop_output
I0530 15:42:11.292204 11019 net.cpp:106] Creating Layer drop_output
I0530 15:42:11.292217 11019 net.cpp:454] drop_output <- output
I0530 15:42:11.292233 11019 net.cpp:397] drop_output -> output (in-place)
I0530 15:42:11.292290 11019 net.cpp:150] Setting up drop_output
I0530 15:42:11.292306 11019 net.cpp:157] Top shape: 100 11 (1100)
I0530 15:42:11.292320 11019 net.cpp:165] Memory required for data: 473615600
I0530 15:42:11.292335 11019 layer_factory.hpp:77] Creating layer loss
I0530 15:42:11.292372 11019 net.cpp:106] Creating Layer loss
I0530 15:42:11.292385 11019 net.cpp:454] loss <- output
I0530 15:42:11.292402 11019 net.cpp:454] loss <- segments
I0530 15:42:11.292418 11019 net.cpp:411] loss -> loss
I0530 15:42:11.292439 11019 layer_factory.hpp:77] Creating layer loss
…
I0530 15:42:11.296869 11019 solver.cpp:181] Creating test net (#0) specified by net file: /lustre/atlas/proj-shared/hep105/caffe_titan/caffe_workflow/xuv/logs/epsilon_noada_2016-05-30T07.36.54.892099.prototxt
I0530 15:42:11.297019 11019 net.cpp:322] The NetState phase (1) differed from the phase (0) specified by a rule in layer data
I0530 15:42:11.297830 11019 net.cpp:49] Initializing net from parameters: 
name: "epsilon_127x50_xuv"
state {
  phase: TEST
}
layer {
  name: "data"
  type: "HDF5Data"
  top: "hits-x"
  top: "hits-u"
  top: "hits-v"
  top: "segments"
  include {
    phase: TEST
  }
  hdf5_data_param {
    source: "/lustre/atlas/proj-shared/hep105/caffe_titan/xuv/epsilon_127x50_xuv.testlist"
    batch_size: 100
  }
}
layer {
  name: "conv_x1"
  type: "Convolution"
  bottom: "hits-x"
  top: "conv_x1"
  convolution_param {
    num_output: 12
    pad: 0
    stride: 1
    weight_filler {
      type: "xavier"
    }
    bias_filler {
      type: "constant"
    }
    kernel_h: 8
    kernel_w: 3
  }
}
layer {
  name: "relu_x1"
  type: "ReLU"
  bottom: "conv_x1"
  top: "conv_x1"
}
layer {
  name: "pool_x1"
  type: "Pooling"
  bottom: "conv_x1"
  top: "pool_x1"
  pooling_param {
    pool: MAX
    kernel_h: 2
    kernel_w: 1
    stride_h: 2
    stride_w: 1
  }
}
layer {
  name: "conv_x2"
  type: "Convolution"
  bottom: "pool_x1"
  top: "conv_x2"
  convolution_param {
    num_output: 20
    pad: 0
    stride: 1
    weight_filler {
      type: "xavier"
    }
    bias_filler {
      type: "constant"
    }
    kernel_h: 7
    kernel_w: 3
  }
}
layer {
  name: "relu_x2"
  type: "ReLU"
  bottom: "conv_x2"
  top: "conv_x2"
}
layer {
  name: "pool_x2"
  type: "Pooling"
  bottom: "conv_x2"
  top: "pool_x2"
  pooling_param {
    pool: MAX
    kernel_h: 2
    kernel_w: 1
    stride_h: 2
    stride_w: 1
  }
}
layer {
  name: "conv_x3"
  type: "Convolution"
  bottom: "pool_x2"
  top: "conv_x3"
  convolution_param {
    num_output: 28
    pad: 0
    stride: 1
    weight_filler {
      type: "xavier"
    }
    bias_filler {
      type: "constant"
    }
    kernel_h: 6
    kernel_w: 3
  }
}
layer {
  name: "relu_x3"
  type: "ReLU"
  bottom: "conv_x3"
  top: "conv_x3"
}
layer {
  name: "pool_x3"
  type: "Pooling"
  bottom: "conv_x3"
  top: "pool_x3"
  pooling_param {
    pool: MAX
    kernel_h: 2
    kernel_w: 1
    stride_h: 2
    stride_w: 1
  }
}
layer {
  name: "conv_x4"
  type: "Convolution"
  bottom: "pool_x3"
  top: "conv_x4"
  convolution_param {
    num_output: 36
    pad: 0
    stride: 1
    weight_filler {
      type: "xavier"
    }
    bias_filler {
      type: "constant"
    }
    kernel_h: 6
    kernel_w: 3
  }
}
layer {
  name: "relu_x4"
  type: "ReLU"
  bottom: "conv_x4"
  top: "conv_x4"
}
layer {
  name: "pool_x4"
  type: "Pooling"
  bottom: "conv_x4"
  top: "pool_x4"
  pooling_param {
    pool: MAX
    kernel_h: 2
    kernel_w: 1
    stride_h: 2
    stride_w: 1
  }
}
layer {
  name: "dl_x1"
  type: "InnerProduct"
  bottom: "pool_x4"
  top: "dl_x1"
  inner_product_param {
    num_output: 196
    weight_filler {
      type: "xavier"
    }
    bias_filler {
      type: "constant"
    }
  }
}
layer {
  name: "relu_x5"
  type: "ReLU"
  bottom: "dl_x1"
  top: "dl_x1"
}
layer {
  name: "drop_x1"
  type: "Dropout"
  bottom: "dl_x1"
  top: "dl_x1"
  dropout_param {
    dropout_ratio: 0.5
  }
}
layer {
  name: "conv_u1"
  type: "Convolution"
  bottom: "hits-u"
  top: "conv_u1"
  convolution_param {
    num_output: 12
    pad: 0
    stride: 1
    weight_filler {
      type: "xavier"
    }
    bias_filler {
      type: "constant"
    }
    kernel_h: 8
    kernel_w: 3
  }
}
layer {
  name: "relu_u1"
  type: "ReLU"
  bottom: "conv_u1"
  top: "conv_u1"
}
layer {
  name: "pool_u1"
  type: "Pooling"
  bottom: "conv_u1"
  top: "pool_u1"
  pooling_param {
    pool: MAX
    kernel_h: 2
    kernel_w: 1
    stride_h: 2
    stride_w: 1
  }
}
layer {
  name: "conv_u2"
  type: "Convolution"
  bottom: "pool_u1"
  top: "conv_u2"
  convolution_param {
    num_output: 20
    pad: 0
    stride: 1
    weight_filler {
      type: "xavier"
    }
    bias_filler {
      type: "constant"
    }
    kernel_h: 7
    kernel_w: 3
  }
}
layer {
  name: "relu_u2"
  type: "ReLU"
  bottom: "conv_u2"
  top: "conv_u2"
}
layer {
  name: "pool_u2"
  type: "Pooling"
  bottom: "conv_u2"
  top: "pool_u2"
  pooling_param {
    pool: MAX
    kernel_h: 2
    kernel_w: 1
    stride_h: 2
    stride_w: 1
  }
}
layer {
  name: "conv_u3"
  type: "Convolution"
  bottom: "pool_u2"
  top: "conv_u3"
  convolution_param {
    num_output: 28
    pad: 0
    stride: 1
    weight_filler {
      type: "xavier"
    }
    bias_filler {
      type: "constant"
    }
    kernel_h: 6
    kernel_w: 3
  }
}
layer {
  name: "relu_u3"
  type: "ReLU"
  bottom: "conv_u3"
  top: "conv_u3"
}
layer {
  name: "pool_u3"
  type: "Pooling"
  bottom: "conv_u3"
  top: "pool_u3"
  pooling_param {
    pool: MAX
    kernel_h: 2
    kernel_w: 1
    stride_h: 2
    stride_w: 1
  }
}
layer {
  name: "conv_u4"
  type: "Convolution"
  bottom: "pool_u3"
  top: "conv_u4"
  convolution_param {
    num_output: 36
    pad: 0
    stride: 1
    weight_filler {
      type: "xavier"
    }
    bias_filler {
      type: "constant"
    }
    kernel_h: 6
    kernel_w: 3
  }
}
layer {
  name: "relu_u4"
  type: "ReLU"
  bottom: "conv_u4"
  top: "conv_u4"
}
layer {
  name: "pool_u4"
  type: "Pooling"
  bottom: "conv_u4"
  top: "pool_u4"
  pooling_param {
    pool: MAX
    kernel_h: 2
    kernel_w: 1
    stride_h: 2
    stride_w: 1
  }
}
layer {
  name: "dl_u1"
  type: "InnerProduct"
  bottom: "pool_u4"
  top: "dl_u1"
  inner_product_param {
    num_output: 196
    weight_filler {
      type: "xavier"
    }
    bias_filler {
      type: "constant"
    }
  }
}
layer {
  name: "relu_u5"
  type: "ReLU"
  bottom: "dl_u1"
  top: "dl_u1"
}
layer {
  name: "drop_u1"
  type: "Dropout"
  bottom: "dl_u1"
  top: "dl_u1"
  dropout_param {
    dropout_ratio: 0.5
  }
}
layer {
  name: "conv_v1"
  type: "Convolution"
  bottom: "hits-v"
  top: "conv_v1"
  convolution_param {
    num_output: 12
    pad: 0
    stride: 1
    weight_filler {
      type: "xavier"
    }
    bias_filler {
      type: "constant"
    }
    kernel_h: 8
    kernel_w: 3
  }
}
layer {
  name: "relu_v1"
  type: "ReLU"
  bottom: "conv_v1"
  top: "conv_v1"
}
layer {
  name: "pool_v1"
  type: "Pooling"
  bottom: "conv_v1"
  top: "pool_v1"
  pooling_param {
    pool: MAX
    kernel_h: 2
    kernel_w: 1
    stride_h: 2
    stride_w: 1
  }
}
layer {
  name: "conv_v2"
  type: "Convolution"
  bottom: "pool_v1"
  top: "conv_v2"
  convolution_param {
    num_output: 20
    pad: 0
    stride: 1
    weight_filler {
      type: "xavier"
    }
    bias_filler {
      type: "constant"
    }
    kernel_h: 7
    kernel_w: 3
  }
}
layer {
  name: "relu_v2"
  type: "ReLU"
  bottom: "conv_v2"
  top: "conv_v2"
}
layer {
  name: "pool_v2"
  type: "Pooling"
  bottom: "conv_v2"
  top: "pool_v2"
  pooling_param {
    pool: MAX
    kernel_h: 2
    kernel_w: 1
    stride_h: 2
    stride_w: 1
  }
}
layer {
  name: "conv_v3"
  type: "Convolution"
  bottom: "pool_v2"
  top: "conv_v3"
  convolution_param {
    num_output: 28
    pad: 0
    stride: 1
    weight_filler {
      type: "xavier"
    }
    bias_filler {
      type: "constant"
    }
    kernel_h: 6
    kernel_w: 3
  }
}
layer {
  name: "relu_v3"
  type: "ReLU"
  bottom: "conv_v3"
  top: "conv_v3"
}
layer {
  name: "pool_v3"
  type: "Pooling"
  bottom: "conv_v3"
  top: "pool_v3"
  pooling_param {
    pool: MAX
    kernel_h: 2
    kernel_w: 1
    stride_h: 2
    stride_w: 1
  }
}
layer {
  name: "conv_v4"
  type: "Convolution"
  bottom: "pool_v3"
  top: "conv_v4"
  convolution_param {
    num_output: 36
    pad: 0
    stride: 1
    weight_filler {
      type: "xavier"
    }
    bias_filler {
      type: "constant"
    }
    kernel_h: 6
    kernel_w: 3
  }
}
layer {
  name: "relu_v4"
  type: "ReLU"
  bottom: "conv_v4"
  top: "conv_v4"
}
layer {
  name: "pool_v4"
  type: "Pooling"
  bottom: "conv_v4"
  top: "pool_v4"
  pooling_param {
    pool: MAX
    kernel_h: 2
    kernel_w: 1
    stride_h: 2
    stride_w: 1
  }
}
layer {
  name: "dl_v1"
  type: "InnerProduct"
  bottom: "pool_v4"
  top: "dl_v1"
  inner_product_param {
    num_output: 196
    weight_filler {
      type: "xavier"
    }
    bias_filler {
      type: "constant"
    }
  }
}
layer {
  name: "relu_v5"
  type: "ReLU"
  bottom: "dl_v1"
  top: "dl_v1"
}
layer {
  name: "drop_v1"
  type: "Dropout"
  bottom: "dl_v1"
  top: "dl_v1"
  dropout_param {
    dropout_ratio: 0.5
  }
}
layer {
  name: "concat_xuv"
  type: "Concat"
  bottom: "dl_x1"
  bottom: "dl_u1"
  bottom: "dl_v1"
  top: "concat_xuv"
  concat_param {
    axis: 1
  }
}
layer {
  name: "dl_xuv"
  type: "InnerProduct"
  bottom: "concat_xuv"
  top: "dl_xuv"
  inner_product_param {
    num_output: 98
    weight_filler {
      type: "xavier"
    }
    bias_filler {
      type: "constant"
    }
  }
}
layer {
  name: "relu_xuv"
  type: "ReLU"
  bottom: "dl_xuv"
  top: "dl_xuv"
}
layer {
  name: "drop_xuv"
  type: "Dropout"
  bottom: "dl_xuv"
  top: "dl_xuv"
  dropout_param {
    dropout_ratio: 0.5
  }
}
layer {
  name: "output"
  type: "InnerProduct"
  bottom: "dl_xuv"
  top: "output"
  inner_product_param {
    num_output: 11
    weight_filler {
      type: "xavier"
    }
    bias_filler {
      type: "constant"
    }
  }
}
layer {
  name: "drop_output"
  type: "Dropout"
  bottom: "output"
  top: "output"
  dropout_param {
    dropout_ratio: 0.5
  }
}
layer {
  name: "accuracy"
  type: "Accuracy"
  bottom: "output"
  bottom: "segments"
  top: "accuracy"
  include {
    phase: TEST
  }
}
layer {
  name: "loss"
  type: "SoftmaxWithLoss"
  bottom: "output"
  bottom: "segments"
  top: "loss"
}
I0530 15:42:11.298277 11019 layer_factory.hpp:77] Creating layer data
I0530 15:42:11.298305 11019 net.cpp:106] Creating Layer data
I0530 15:42:11.298321 11019 net.cpp:411] data -> hits-x
I0530 15:42:11.298341 11019 net.cpp:411] data -> hits-u
I0530 15:42:11.298359 11019 net.cpp:411] data -> hits-v
I0530 15:42:11.298378 11019 net.cpp:411] data -> segments
I0530 15:42:11.298394 11019 hdf5_data_layer.cpp:79] Loading list of HDF5 filenames from: /lustre/atlas/proj-shared/hep105/caffe_titan/xuv/epsilon_127x50_xuv.testlist
I0530 15:42:11.299875 11019 hdf5_data_layer.cpp:93] Number of HDF5 files: 3
I0530 15:43:15.750841 11019 net.cpp:150] Setting up data
I0530 15:43:15.751003 11019 net.cpp:157] Top shape: 100 1 127 50 (635000)
I0530 15:43:15.751021 11019 net.cpp:157] Top shape: 100 1 127 50 (635000)
I0530 15:43:15.751037 11019 net.cpp:157] Top shape: 100 1 127 50 (635000)
I0530 15:43:15.751052 11019 net.cpp:157] Top shape: 100 (100)
I0530 15:43:15.751065 11019 net.cpp:165] Memory required for data: 7620400
I0530 15:43:15.751080 11019 layer_factory.hpp:77] Creating layer segments_data_3_split
I0530 15:43:15.751112 11019 net.cpp:106] Creating Layer segments_data_3_split
I0530 15:43:15.751143 11019 net.cpp:454] segments_data_3_split <- segments
I0530 15:43:15.751162 11019 net.cpp:411] segments_data_3_split -> segments_data_3_split_0
I0530 15:43:15.751184 11019 net.cpp:411] segments_data_3_split -> segments_data_3_split_1
I0530 15:43:15.751276 11019 net.cpp:150] Setting up segments_data_3_split
I0530 15:43:15.751294 11019 net.cpp:157] Top shape: 100 (100)
I0530 15:43:15.751320 11019 net.cpp:157] Top shape: 100 (100)
I0530 15:43:15.751333 11019 net.cpp:165] Memory required for data: 7621200
I0530 15:43:15.751345 11019 layer_factory.hpp:77] Creating layer conv_x1
I0530 15:43:15.751379 11019 net.cpp:106] Creating Layer conv_x1
I0530 15:43:15.751392 11019 net.cpp:454] conv_x1 <- hits-x
I0530 15:43:15.751410 11019 net.cpp:411] conv_x1 -> conv_x1
I0530 15:43:15.753636 11019 net.cpp:150] Setting up conv_x1
I0530 15:43:15.753662 11019 net.cpp:157] Top shape: 100 12 120 48 (6912000)
I0530 15:43:15.753682 11019 net.cpp:165] Memory required for data: 35269200
I0530 15:43:15.753707 11019 layer_factory.hpp:77] Creating layer relu_x1
I0530 15:43:15.753728 11019 net.cpp:106] Creating Layer relu_x1
I0530 15:43:15.753751 11019 net.cpp:454] relu_x1 <- conv_x1
I0530 15:43:15.753767 11019 net.cpp:397] relu_x1 -> conv_x1 (in-place)
I0530 15:43:15.754309 11019 net.cpp:150] Setting up relu_x1
I0530 15:43:15.754333 11019 net.cpp:157] Top shape: 100 12 120 48 (6912000)
I0530 15:43:15.754346 11019 net.cpp:165] Memory required for data: 62917200
I0530 15:43:15.754362 11019 layer_factory.hpp:77] Creating layer pool_x1
I0530 15:43:15.754390 11019 net.cpp:106] Creating Layer pool_x1
I0530 15:43:15.754403 11019 net.cpp:454] pool_x1 <- conv_x1
I0530 15:43:15.754420 11019 net.cpp:411] pool_x1 -> pool_x1
I0530 15:43:15.754515 11019 net.cpp:150] Setting up pool_x1
I0530 15:43:15.754536 11019 net.cpp:157] Top shape: 100 12 60 48 (3456000)
I0530 15:43:15.754554 11019 net.cpp:165] Memory required for data: 76741200
I0530 15:43:15.754567 11019 layer_factory.hpp:77] Creating layer conv_x2
I0530 15:43:15.754588 11019 net.cpp:106] Creating Layer conv_x2
I0530 15:43:15.754602 11019 net.cpp:454] conv_x2 <- pool_x1
I0530 15:43:15.754618 11019 net.cpp:411] conv_x2 -> conv_x2
I0530 15:43:15.756525 11019 net.cpp:150] Setting up conv_x2
I0530 15:43:15.756551 11019 net.cpp:157] Top shape: 100 20 54 46 (4968000)
I0530 15:43:15.756569 11019 net.cpp:165] Memory required for data: 96613200
I0530 15:43:15.756592 11019 layer_factory.hpp:77] Creating layer relu_x2
I0530 15:43:15.756613 11019 net.cpp:106] Creating Layer relu_x2
I0530 15:43:15.756634 11019 net.cpp:454] relu_x2 <- conv_x2
I0530 15:43:15.756650 11019 net.cpp:397] relu_x2 -> conv_x2 (in-place)
I0530 15:43:15.757179 11019 net.cpp:150] Setting up relu_x2
I0530 15:43:15.757202 11019 net.cpp:157] Top shape: 100 20 54 46 (4968000)
I0530 15:43:15.757215 11019 net.cpp:165] Memory required for data: 116485200
I0530 15:43:15.757228 11019 layer_factory.hpp:77] Creating layer pool_x2
I0530 15:43:15.757256 11019 net.cpp:106] Creating Layer pool_x2
I0530 15:43:15.757271 11019 net.cpp:454] pool_x2 <- conv_x2
I0530 15:43:15.757287 11019 net.cpp:411] pool_x2 -> pool_x2
I0530 15:43:15.757382 11019 net.cpp:150] Setting up pool_x2
I0530 15:43:15.757400 11019 net.cpp:157] Top shape: 100 20 27 46 (2484000)
I0530 15:43:15.757414 11019 net.cpp:165] Memory required for data: 126421200
I0530 15:43:15.757426 11019 layer_factory.hpp:77] Creating layer conv_x3
I0530 15:43:15.757455 11019 net.cpp:106] Creating Layer conv_x3
I0530 15:43:15.757475 11019 net.cpp:454] conv_x3 <- pool_x2
I0530 15:43:15.757493 11019 net.cpp:411] conv_x3 -> conv_x3
I0530 15:43:15.759775 11019 net.cpp:150] Setting up conv_x3
I0530 15:43:15.759800 11019 net.cpp:157] Top shape: 100 28 22 44 (2710400)
I0530 15:43:15.759821 11019 net.cpp:165] Memory required for data: 137262800
I0530 15:43:15.759845 11019 layer_factory.hpp:77] Creating layer relu_x3
I0530 15:43:15.759865 11019 net.cpp:106] Creating Layer relu_x3
I0530 15:43:15.759888 11019 net.cpp:454] relu_x3 <- conv_x3
I0530 15:43:15.759907 11019 net.cpp:397] relu_x3 -> conv_x3 (in-place)
I0530 15:43:15.760269 11019 net.cpp:150] Setting up relu_x3
I0530 15:43:15.760289 11019 net.cpp:157] Top shape: 100 28 22 44 (2710400)
I0530 15:43:15.760303 11019 net.cpp:165] Memory required for data: 148104400
I0530 15:43:15.760314 11019 layer_factory.hpp:77] Creating layer pool_x3
I0530 15:43:15.760334 11019 net.cpp:106] Creating Layer pool_x3
I0530 15:43:15.760346 11019 net.cpp:454] pool_x3 <- conv_x3
I0530 15:43:15.760370 11019 net.cpp:411] pool_x3 -> pool_x3
I0530 15:43:15.760462 11019 net.cpp:150] Setting up pool_x3
I0530 15:43:15.760486 11019 net.cpp:157] Top shape: 100 28 11 44 (1355200)
I0530 15:43:15.760499 11019 net.cpp:165] Memory required for data: 153525200
I0530 15:43:15.760514 11019 layer_factory.hpp:77] Creating layer conv_x4
I0530 15:43:15.760534 11019 net.cpp:106] Creating Layer conv_x4
I0530 15:43:15.760546 11019 net.cpp:454] conv_x4 <- pool_x3
I0530 15:43:15.760565 11019 net.cpp:411] conv_x4 -> conv_x4
I0530 15:43:15.762780 11019 net.cpp:150] Setting up conv_x4
I0530 15:43:15.762805 11019 net.cpp:157] Top shape: 100 36 6 42 (907200)
I0530 15:43:15.762825 11019 net.cpp:165] Memory required for data: 157154000
I0530 15:43:15.762845 11019 layer_factory.hpp:77] Creating layer relu_x4
I0530 15:43:15.762866 11019 net.cpp:106] Creating Layer relu_x4
I0530 15:43:15.762877 11019 net.cpp:454] relu_x4 <- conv_x4
I0530 15:43:15.762904 11019 net.cpp:397] relu_x4 -> conv_x4 (in-place)
I0530 15:43:15.763414 11019 net.cpp:150] Setting up relu_x4
I0530 15:43:15.763437 11019 net.cpp:157] Top shape: 100 36 6 42 (907200)
I0530 15:43:15.763450 11019 net.cpp:165] Memory required for data: 160782800
I0530 15:43:15.763463 11019 layer_factory.hpp:77] Creating layer pool_x4
I0530 15:43:15.763484 11019 net.cpp:106] Creating Layer pool_x4
I0530 15:43:15.763505 11019 net.cpp:454] pool_x4 <- conv_x4
I0530 15:43:15.763522 11019 net.cpp:411] pool_x4 -> pool_x4
I0530 15:43:15.763615 11019 net.cpp:150] Setting up pool_x4
I0530 15:43:15.763633 11019 net.cpp:157] Top shape: 100 36 3 42 (453600)
I0530 15:43:15.763648 11019 net.cpp:165] Memory required for data: 162597200
I0530 15:43:15.763659 11019 layer_factory.hpp:77] Creating layer dl_x1
I0530 15:43:15.763685 11019 net.cpp:106] Creating Layer dl_x1
I0530 15:43:15.763698 11019 net.cpp:454] dl_x1 <- pool_x4
I0530 15:43:15.763715 11019 net.cpp:411] dl_x1 -> dl_x1
I0530 15:43:15.779808 11019 net.cpp:150] Setting up dl_x1
I0530 15:43:15.779841 11019 net.cpp:157] Top shape: 100 196 (19600)
I0530 15:43:15.779858 11019 net.cpp:165] Memory required for data: 162675600
I0530 15:43:15.779884 11019 layer_factory.hpp:77] Creating layer relu_x5
I0530 15:43:15.779906 11019 net.cpp:106] Creating Layer relu_x5
I0530 15:43:15.779932 11019 net.cpp:454] relu_x5 <- dl_x1
I0530 15:43:15.779949 11019 net.cpp:397] relu_x5 -> dl_x1 (in-place)
I0530 15:43:15.780325 11019 net.cpp:150] Setting up relu_x5
I0530 15:43:15.780345 11019 net.cpp:157] Top shape: 100 196 (19600)
I0530 15:43:15.780359 11019 net.cpp:165] Memory required for data: 162754000
I0530 15:43:15.780370 11019 layer_factory.hpp:77] Creating layer drop_x1
I0530 15:43:15.780395 11019 net.cpp:106] Creating Layer drop_x1
I0530 15:43:15.780416 11019 net.cpp:454] drop_x1 <- dl_x1
I0530 15:43:15.780433 11019 net.cpp:397] drop_x1 -> dl_x1 (in-place)
I0530 15:43:15.780488 11019 net.cpp:150] Setting up drop_x1
I0530 15:43:15.780511 11019 net.cpp:157] Top shape: 100 196 (19600)
I0530 15:43:15.780524 11019 net.cpp:165] Memory required for data: 162832400
I0530 15:43:15.780537 11019 layer_factory.hpp:77] Creating layer conv_u1
I0530 15:43:15.780558 11019 net.cpp:106] Creating Layer conv_u1
I0530 15:43:15.780596 11019 net.cpp:454] conv_u1 <- hits-u
I0530 15:43:15.780614 11019 net.cpp:411] conv_u1 -> conv_u1
I0530 15:43:15.782694 11019 net.cpp:150] Setting up conv_u1
I0530 15:43:15.782718 11019 net.cpp:157] Top shape: 100 12 120 48 (6912000)
I0530 15:43:15.782738 11019 net.cpp:165] Memory required for data: 190480400
I0530 15:43:15.782757 11019 layer_factory.hpp:77] Creating layer relu_u1
I0530 15:43:15.782774 11019 net.cpp:106] Creating Layer relu_u1
I0530 15:43:15.782790 11019 net.cpp:454] relu_u1 <- conv_u1
I0530 15:43:15.782815 11019 net.cpp:397] relu_u1 -> conv_u1 (in-place)
I0530 15:43:15.783167 11019 net.cpp:150] Setting up relu_u1
I0530 15:43:15.783187 11019 net.cpp:157] Top shape: 100 12 120 48 (6912000)
I0530 15:43:15.783200 11019 net.cpp:165] Memory required for data: 218128400
I0530 15:43:15.783212 11019 layer_factory.hpp:77] Creating layer pool_u1
I0530 15:43:15.783232 11019 net.cpp:106] Creating Layer pool_u1
I0530 15:43:15.783252 11019 net.cpp:454] pool_u1 <- conv_u1
I0530 15:43:15.783270 11019 net.cpp:411] pool_u1 -> pool_u1
I0530 15:43:15.783370 11019 net.cpp:150] Setting up pool_u1
I0530 15:43:15.783387 11019 net.cpp:157] Top shape: 100 12 60 48 (3456000)
I0530 15:43:15.783402 11019 net.cpp:165] Memory required for data: 231952400
I0530 15:43:15.783414 11019 layer_factory.hpp:77] Creating layer conv_u2
I0530 15:43:15.783442 11019 net.cpp:106] Creating Layer conv_u2
I0530 15:43:15.783455 11019 net.cpp:454] conv_u2 <- pool_u1
I0530 15:43:15.783473 11019 net.cpp:411] conv_u2 -> conv_u2
I0530 15:43:15.785475 11019 net.cpp:150] Setting up conv_u2
I0530 15:43:15.785501 11019 net.cpp:157] Top shape: 100 20 54 46 (4968000)
I0530 15:43:15.785521 11019 net.cpp:165] Memory required for data: 251824400
I0530 15:43:15.785539 11019 layer_factory.hpp:77] Creating layer relu_u2
I0530 15:43:15.785554 11019 net.cpp:106] Creating Layer relu_u2
I0530 15:43:15.785572 11019 net.cpp:454] relu_u2 <- conv_u2
I0530 15:43:15.785586 11019 net.cpp:397] relu_u2 -> conv_u2 (in-place)
I0530 15:43:15.786125 11019 net.cpp:150] Setting up relu_u2
I0530 15:43:15.786149 11019 net.cpp:157] Top shape: 100 20 54 46 (4968000)
I0530 15:43:15.786162 11019 net.cpp:165] Memory required for data: 271696400
I0530 15:43:15.786175 11019 layer_factory.hpp:77] Creating layer pool_u2
I0530 15:43:15.786195 11019 net.cpp:106] Creating Layer pool_u2
I0530 15:43:15.786217 11019 net.cpp:454] pool_u2 <- conv_u2
I0530 15:43:15.786234 11019 net.cpp:411] pool_u2 -> pool_u2
I0530 15:43:15.786330 11019 net.cpp:150] Setting up pool_u2
I0530 15:43:15.786348 11019 net.cpp:157] Top shape: 100 20 27 46 (2484000)
I0530 15:43:15.786360 11019 net.cpp:165] Memory required for data: 281632400
I0530 15:43:15.786375 11019 layer_factory.hpp:77] Creating layer conv_u3
I0530 15:43:15.786397 11019 net.cpp:106] Creating Layer conv_u3
I0530 15:43:15.786417 11019 net.cpp:454] conv_u3 <- pool_u2
I0530 15:43:15.786437 11019 net.cpp:411] conv_u3 -> conv_u3
I0530 15:43:15.788507 11019 net.cpp:150] Setting up conv_u3
I0530 15:43:15.788532 11019 net.cpp:157] Top shape: 100 28 22 44 (2710400)
I0530 15:43:15.788552 11019 net.cpp:165] Memory required for data: 292474000
I0530 15:43:15.788573 11019 layer_factory.hpp:77] Creating layer relu_u3
I0530 15:43:15.788589 11019 net.cpp:106] Creating Layer relu_u3
I0530 15:43:15.788605 11019 net.cpp:454] relu_u3 <- conv_u3
I0530 15:43:15.788630 11019 net.cpp:397] relu_u3 -> conv_u3 (in-place)
I0530 15:43:15.788976 11019 net.cpp:150] Setting up relu_u3
I0530 15:43:15.788997 11019 net.cpp:157] Top shape: 100 28 22 44 (2710400)
I0530 15:43:15.789010 11019 net.cpp:165] Memory required for data: 303315600
I0530 15:43:15.789021 11019 layer_factory.hpp:77] Creating layer pool_u3
I0530 15:43:15.789041 11019 net.cpp:106] Creating Layer pool_u3
I0530 15:43:15.789060 11019 net.cpp:454] pool_u3 <- conv_u3
I0530 15:43:15.789077 11019 net.cpp:411] pool_u3 -> pool_u3
I0530 15:43:15.789177 11019 net.cpp:150] Setting up pool_u3
I0530 15:43:15.789194 11019 net.cpp:157] Top shape: 100 28 11 44 (1355200)
I0530 15:43:15.789207 11019 net.cpp:165] Memory required for data: 308736400
I0530 15:43:15.789233 11019 layer_factory.hpp:77] Creating layer conv_u4
I0530 15:43:15.789261 11019 net.cpp:106] Creating Layer conv_u4
I0530 15:43:15.789275 11019 net.cpp:454] conv_u4 <- pool_u3
I0530 15:43:15.789293 11019 net.cpp:411] conv_u4 -> conv_u4
I0530 15:43:15.791533 11019 net.cpp:150] Setting up conv_u4
I0530 15:43:15.791559 11019 net.cpp:157] Top shape: 100 36 6 42 (907200)
I0530 15:43:15.791579 11019 net.cpp:165] Memory required for data: 312365200
I0530 15:43:15.791605 11019 layer_factory.hpp:77] Creating layer relu_u4
I0530 15:43:15.791625 11019 net.cpp:106] Creating Layer relu_u4
I0530 15:43:15.791647 11019 net.cpp:454] relu_u4 <- conv_u4
I0530 15:43:15.791664 11019 net.cpp:397] relu_u4 -> conv_u4 (in-place)
I0530 15:43:15.792013 11019 net.cpp:150] Setting up relu_u4
I0530 15:43:15.792033 11019 net.cpp:157] Top shape: 100 36 6 42 (907200)
I0530 15:43:15.792045 11019 net.cpp:165] Memory required for data: 315994000
I0530 15:43:15.792058 11019 layer_factory.hpp:77] Creating layer pool_u4
I0530 15:43:15.792076 11019 net.cpp:106] Creating Layer pool_u4
I0530 15:43:15.792096 11019 net.cpp:454] pool_u4 <- conv_u4
I0530 15:43:15.792114 11019 net.cpp:411] pool_u4 -> pool_u4
I0530 15:43:15.792206 11019 net.cpp:150] Setting up pool_u4
I0530 15:43:15.792230 11019 net.cpp:157] Top shape: 100 36 3 42 (453600)
I0530 15:43:15.792248 11019 net.cpp:165] Memory required for data: 317808400
I0530 15:43:15.792261 11019 layer_factory.hpp:77] Creating layer dl_u1
I0530 15:43:15.792279 11019 net.cpp:106] Creating Layer dl_u1
I0530 15:43:15.792294 11019 net.cpp:454] dl_u1 <- pool_u4
I0530 15:43:15.792310 11019 net.cpp:411] dl_u1 -> dl_u1
I0530 15:43:15.808737 11019 net.cpp:150] Setting up dl_u1
I0530 15:43:15.808768 11019 net.cpp:157] Top shape: 100 196 (19600)
I0530 15:43:15.808790 11019 net.cpp:165] Memory required for data: 317886800
I0530 15:43:15.808810 11019 layer_factory.hpp:77] Creating layer relu_u5
I0530 15:43:15.808827 11019 net.cpp:106] Creating Layer relu_u5
I0530 15:43:15.808845 11019 net.cpp:454] relu_u5 <- dl_u1
I0530 15:43:15.808873 11019 net.cpp:397] relu_u5 -> dl_u1 (in-place)
I0530 15:43:15.809484 11019 net.cpp:150] Setting up relu_u5
I0530 15:43:15.809507 11019 net.cpp:157] Top shape: 100 196 (19600)
I0530 15:43:15.809528 11019 net.cpp:165] Memory required for data: 317965200
I0530 15:43:15.809541 11019 layer_factory.hpp:77] Creating layer drop_u1
I0530 15:43:15.809557 11019 net.cpp:106] Creating Layer drop_u1
I0530 15:43:15.809573 11019 net.cpp:454] drop_u1 <- dl_u1
I0530 15:43:15.809597 11019 net.cpp:397] drop_u1 -> dl_u1 (in-place)
I0530 15:43:15.809650 11019 net.cpp:150] Setting up drop_u1
I0530 15:43:15.809666 11019 net.cpp:157] Top shape: 100 196 (19600)
I0530 15:43:15.809681 11019 net.cpp:165] Memory required for data: 318043600
I0530 15:43:15.809694 11019 layer_factory.hpp:77] Creating layer conv_v1
I0530 15:43:15.809734 11019 net.cpp:106] Creating Layer conv_v1
I0530 15:43:15.809748 11019 net.cpp:454] conv_v1 <- hits-v
I0530 15:43:15.809765 11019 net.cpp:411] conv_v1 -> conv_v1
I0530 15:43:15.811758 11019 net.cpp:150] Setting up conv_v1
I0530 15:43:15.811782 11019 net.cpp:157] Top shape: 100 12 120 48 (6912000)
I0530 15:43:15.811802 11019 net.cpp:165] Memory required for data: 345691600
I0530 15:43:15.811822 11019 layer_factory.hpp:77] Creating layer relu_v1
I0530 15:43:15.811838 11019 net.cpp:106] Creating Layer relu_v1
I0530 15:43:15.811856 11019 net.cpp:454] relu_v1 <- conv_v1
I0530 15:43:15.811880 11019 net.cpp:397] relu_v1 -> conv_v1 (in-place)
I0530 15:43:15.812235 11019 net.cpp:150] Setting up relu_v1
I0530 15:43:15.812255 11019 net.cpp:157] Top shape: 100 12 120 48 (6912000)
I0530 15:43:15.812268 11019 net.cpp:165] Memory required for data: 373339600
I0530 15:43:15.812280 11019 layer_factory.hpp:77] Creating layer pool_v1
I0530 15:43:15.812299 11019 net.cpp:106] Creating Layer pool_v1
I0530 15:43:15.812311 11019 net.cpp:454] pool_v1 <- conv_v1
I0530 15:43:15.812328 11019 net.cpp:411] pool_v1 -> pool_v1
I0530 15:43:15.812424 11019 net.cpp:150] Setting up pool_v1
I0530 15:43:15.812463 11019 net.cpp:157] Top shape: 100 12 60 48 (3456000)
I0530 15:43:15.812476 11019 net.cpp:165] Memory required for data: 387163600
I0530 15:43:15.812489 11019 layer_factory.hpp:77] Creating layer conv_v2
I0530 15:43:15.812511 11019 net.cpp:106] Creating Layer conv_v2
I0530 15:43:15.812525 11019 net.cpp:454] conv_v2 <- pool_v1
I0530 15:43:15.812548 11019 net.cpp:411] conv_v2 -> conv_v2
I0530 15:43:15.814641 11019 net.cpp:150] Setting up conv_v2
I0530 15:43:15.814666 11019 net.cpp:157] Top shape: 100 20 54 46 (4968000)
I0530 15:43:15.814687 11019 net.cpp:165] Memory required for data: 407035600
I0530 15:43:15.814705 11019 layer_factory.hpp:77] Creating layer relu_v2
I0530 15:43:15.814721 11019 net.cpp:106] Creating Layer relu_v2
I0530 15:43:15.814738 11019 net.cpp:454] relu_v2 <- conv_v2
I0530 15:43:15.814762 11019 net.cpp:397] relu_v2 -> conv_v2 (in-place)
I0530 15:43:15.815282 11019 net.cpp:150] Setting up relu_v2
I0530 15:43:15.815306 11019 net.cpp:157] Top shape: 100 20 54 46 (4968000)
I0530 15:43:15.815320 11019 net.cpp:165] Memory required for data: 426907600
I0530 15:43:15.815331 11019 layer_factory.hpp:77] Creating layer pool_v2
I0530 15:43:15.815351 11019 net.cpp:106] Creating Layer pool_v2
I0530 15:43:15.815373 11019 net.cpp:454] pool_v2 <- conv_v2
I0530 15:43:15.815390 11019 net.cpp:411] pool_v2 -> pool_v2
I0530 15:43:15.815486 11019 net.cpp:150] Setting up pool_v2
I0530 15:43:15.815505 11019 net.cpp:157] Top shape: 100 20 27 46 (2484000)
I0530 15:43:15.815520 11019 net.cpp:165] Memory required for data: 436843600
I0530 15:43:15.815531 11019 layer_factory.hpp:77] Creating layer conv_v3
I0530 15:43:15.815559 11019 net.cpp:106] Creating Layer conv_v3
I0530 15:43:15.815572 11019 net.cpp:454] conv_v3 <- pool_v2
I0530 15:43:15.815589 11019 net.cpp:411] conv_v3 -> conv_v3
I0530 15:43:15.817699 11019 net.cpp:150] Setting up conv_v3
I0530 15:43:15.817723 11019 net.cpp:157] Top shape: 100 28 22 44 (2710400)
I0530 15:43:15.817744 11019 net.cpp:165] Memory required for data: 447685200
I0530 15:43:15.817764 11019 layer_factory.hpp:77] Creating layer relu_v3
I0530 15:43:15.817780 11019 net.cpp:106] Creating Layer relu_v3
I0530 15:43:15.817812 11019 net.cpp:454] relu_v3 <- conv_v3
I0530 15:43:15.817831 11019 net.cpp:397] relu_v3 -> conv_v3 (in-place)
I0530 15:43:15.818348 11019 net.cpp:150] Setting up relu_v3
I0530 15:43:15.818372 11019 net.cpp:157] Top shape: 100 28 22 44 (2710400)
I0530 15:43:15.818384 11019 net.cpp:165] Memory required for data: 458526800
I0530 15:43:15.818397 11019 layer_factory.hpp:77] Creating layer pool_v3
I0530 15:43:15.818416 11019 net.cpp:106] Creating Layer pool_v3
I0530 15:43:15.818439 11019 net.cpp:454] pool_v3 <- conv_v3
I0530 15:43:15.818455 11019 net.cpp:411] pool_v3 -> pool_v3
I0530 15:43:15.818555 11019 net.cpp:150] Setting up pool_v3
I0530 15:43:15.818573 11019 net.cpp:157] Top shape: 100 28 11 44 (1355200)
I0530 15:43:15.818586 11019 net.cpp:165] Memory required for data: 463947600
I0530 15:43:15.818598 11019 layer_factory.hpp:77] Creating layer conv_v4
I0530 15:43:15.818621 11019 net.cpp:106] Creating Layer conv_v4
I0530 15:43:15.818641 11019 net.cpp:454] conv_v4 <- pool_v3
I0530 15:43:15.818658 11019 net.cpp:411] conv_v4 -> conv_v4
I0530 15:43:15.820883 11019 net.cpp:150] Setting up conv_v4
I0530 15:43:15.820906 11019 net.cpp:157] Top shape: 100 36 6 42 (907200)
I0530 15:43:15.820927 11019 net.cpp:165] Memory required for data: 467576400
I0530 15:43:15.820945 11019 layer_factory.hpp:77] Creating layer relu_v4
I0530 15:43:15.820961 11019 net.cpp:106] Creating Layer relu_v4
I0530 15:43:15.820979 11019 net.cpp:454] relu_v4 <- conv_v4
I0530 15:43:15.821004 11019 net.cpp:397] relu_v4 -> conv_v4 (in-place)
I0530 15:43:15.821354 11019 net.cpp:150] Setting up relu_v4
I0530 15:43:15.821374 11019 net.cpp:157] Top shape: 100 36 6 42 (907200)
I0530 15:43:15.821388 11019 net.cpp:165] Memory required for data: 471205200
I0530 15:43:15.821399 11019 layer_factory.hpp:77] Creating layer pool_v4
I0530 15:43:15.821419 11019 net.cpp:106] Creating Layer pool_v4
I0530 15:43:15.821449 11019 net.cpp:454] pool_v4 <- conv_v4
I0530 15:43:15.821466 11019 net.cpp:411] pool_v4 -> pool_v4
I0530 15:43:15.821559 11019 net.cpp:150] Setting up pool_v4
I0530 15:43:15.821578 11019 net.cpp:157] Top shape: 100 36 3 42 (453600)
I0530 15:43:15.821593 11019 net.cpp:165] Memory required for data: 473019600
I0530 15:43:15.821604 11019 layer_factory.hpp:77] Creating layer dl_v1
I0530 15:43:15.821629 11019 net.cpp:106] Creating Layer dl_v1
I0530 15:43:15.821642 11019 net.cpp:454] dl_v1 <- pool_v4
I0530 15:43:15.821660 11019 net.cpp:411] dl_v1 -> dl_v1
I0530 15:43:15.838068 11019 net.cpp:150] Setting up dl_v1
I0530 15:43:15.838100 11019 net.cpp:157] Top shape: 100 196 (19600)
I0530 15:43:15.838114 11019 net.cpp:165] Memory required for data: 473098000
I0530 15:43:15.838135 11019 layer_factory.hpp:77] Creating layer relu_v5
I0530 15:43:15.838155 11019 net.cpp:106] Creating Layer relu_v5
I0530 15:43:15.838181 11019 net.cpp:454] relu_v5 <- dl_v1
I0530 15:43:15.838198 11019 net.cpp:397] relu_v5 -> dl_v1 (in-place)
I0530 15:43:15.838817 11019 net.cpp:150] Setting up relu_v5
I0530 15:43:15.838840 11019 net.cpp:157] Top shape: 100 196 (19600)
I0530 15:43:15.838861 11019 net.cpp:165] Memory required for data: 473176400
I0530 15:43:15.838873 11019 layer_factory.hpp:77] Creating layer drop_v1
I0530 15:43:15.838891 11019 net.cpp:106] Creating Layer drop_v1
I0530 15:43:15.838907 11019 net.cpp:454] drop_v1 <- dl_v1
I0530 15:43:15.838932 11019 net.cpp:397] drop_v1 -> dl_v1 (in-place)
I0530 15:43:15.838985 11019 net.cpp:150] Setting up drop_v1
I0530 15:43:15.839005 11019 net.cpp:157] Top shape: 100 196 (19600)
I0530 15:43:15.839017 11019 net.cpp:165] Memory required for data: 473254800
I0530 15:43:15.839036 11019 layer_factory.hpp:77] Creating layer concat_xuv
I0530 15:43:15.839054 11019 net.cpp:106] Creating Layer concat_xuv
I0530 15:43:15.839073 11019 net.cpp:454] concat_xuv <- dl_x1
I0530 15:43:15.839088 11019 net.cpp:454] concat_xuv <- dl_u1
I0530 15:43:15.839102 11019 net.cpp:454] concat_xuv <- dl_v1
I0530 15:43:15.839120 11019 net.cpp:411] concat_xuv -> concat_xuv
I0530 15:43:15.839179 11019 net.cpp:150] Setting up concat_xuv
I0530 15:43:15.839196 11019 net.cpp:157] Top shape: 100 588 (58800)
I0530 15:43:15.839211 11019 net.cpp:165] Memory required for data: 473490000
I0530 15:43:15.839229 11019 layer_factory.hpp:77] Creating layer dl_xuv
I0530 15:43:15.839247 11019 net.cpp:106] Creating Layer dl_xuv
I0530 15:43:15.839259 11019 net.cpp:454] dl_xuv <- concat_xuv
I0530 15:43:15.839277 11019 net.cpp:411] dl_xuv -> dl_xuv
I0530 15:43:15.840345 11019 net.cpp:150] Setting up dl_xuv
I0530 15:43:15.840363 11019 net.cpp:157] Top shape: 100 98 (9800)
I0530 15:43:15.840383 11019 net.cpp:165] Memory required for data: 473529200
I0530 15:43:15.840402 11019 layer_factory.hpp:77] Creating layer relu_xuv
I0530 15:43:15.840417 11019 net.cpp:106] Creating Layer relu_xuv
I0530 15:43:15.840433 11019 net.cpp:454] relu_xuv <- dl_xuv
I0530 15:43:15.840454 11019 net.cpp:397] relu_xuv -> dl_xuv (in-place)
I0530 15:43:15.840804 11019 net.cpp:150] Setting up relu_xuv
I0530 15:43:15.840824 11019 net.cpp:157] Top shape: 100 98 (9800)
I0530 15:43:15.840837 11019 net.cpp:165] Memory required for data: 473568400
I0530 15:43:15.840849 11019 layer_factory.hpp:77] Creating layer drop_xuv
I0530 15:43:15.840867 11019 net.cpp:106] Creating Layer drop_xuv
I0530 15:43:15.840888 11019 net.cpp:454] drop_xuv <- dl_xuv
I0530 15:43:15.840905 11019 net.cpp:397] drop_xuv -> dl_xuv (in-place)
I0530 15:43:15.840963 11019 net.cpp:150] Setting up drop_xuv
I0530 15:43:15.840982 11019 net.cpp:157] Top shape: 100 98 (9800)
I0530 15:43:15.841002 11019 net.cpp:165] Memory required for data: 473607600
I0530 15:43:15.841015 11019 layer_factory.hpp:77] Creating layer output
I0530 15:43:15.841038 11019 net.cpp:106] Creating Layer output
I0530 15:43:15.841051 11019 net.cpp:454] output <- dl_xuv
I0530 15:43:15.841068 11019 net.cpp:411] output -> output
I0530 15:43:15.841341 11019 net.cpp:150] Setting up output
I0530 15:43:15.841361 11019 net.cpp:157] Top shape: 100 11 (1100)
I0530 15:43:15.841384 11019 net.cpp:165] Memory required for data: 473612000
I0530 15:43:15.841430 11019 layer_factory.hpp:77] Creating layer drop_output
I0530 15:43:15.841446 11019 net.cpp:106] Creating Layer drop_output
I0530 15:43:15.841459 11019 net.cpp:454] drop_output <- output
I0530 15:43:15.841475 11019 net.cpp:397] drop_output -> output (in-place)
I0530 15:43:15.841536 11019 net.cpp:150] Setting up drop_output
I0530 15:43:15.841553 11019 net.cpp:157] Top shape: 100 11 (1100)
I0530 15:43:15.841564 11019 net.cpp:165] Memory required for data: 473616400
I0530 15:43:15.841580 11019 layer_factory.hpp:77] Creating layer output_drop_output_0_split
I0530 15:43:15.841603 11019 net.cpp:106] Creating Layer output_drop_output_0_split
I0530 15:43:15.841616 11019 net.cpp:454] output_drop_output_0_split <- output
I0530 15:43:15.841632 11019 net.cpp:411] output_drop_output_0_split -> output_drop_output_0_split_0
I0530 15:43:15.841650 11019 net.cpp:411] output_drop_output_0_split -> output_drop_output_0_split_1
I0530 15:43:15.841739 11019 net.cpp:150] Setting up output_drop_output_0_split
I0530 15:43:15.841756 11019 net.cpp:157] Top shape: 100 11 (1100)
I0530 15:43:15.841773 11019 net.cpp:157] Top shape: 100 11 (1100)
I0530 15:43:15.841785 11019 net.cpp:165] Memory required for data: 473625200
I0530 15:43:15.841815 11019 layer_factory.hpp:77] Creating layer accuracy
I0530 15:43:15.841841 11019 net.cpp:106] Creating Layer accuracy
I0530 15:43:15.841856 11019 net.cpp:454] accuracy <- output_drop_output_0_split_0
I0530 15:43:15.841872 11019 net.cpp:454] accuracy <- segments_data_3_split_0
I0530 15:43:15.841888 11019 net.cpp:411] accuracy -> accuracy
…
