…
I0601 15:05:28.670636 18761 net.cpp:322] The NetState phase (0) differed from the phase (1) specified by a rule in layer data
I0601 15:05:28.670747 18761 net.cpp:322] The NetState phase (0) differed from the phase (1) specified by a rule in layer accuracy
I0601 15:05:28.671514 18761 net.cpp:49] Initializing net from parameters: 
name: "epsilon_127x50_xuv"
state {
  phase: TRAIN
}
layer {
  name: "data"
  type: "HDF5Data"
  top: "hits-x"
  top: "hits-u"
  top: "hits-v"
  top: "segments"
  include {
    phase: TRAIN
  }
  hdf5_data_param {
    source: "/lustre/atlas/proj-shared/hep105/caffe_titan/xuv/epsilon_127x50_xuv.trainlist"
    batch_size: 100
  }
}
layer {
  name: "conv_x1"
  type: "Convolution"
  bottom: "hits-x"
  top: "conv_x1"
  convolution_param {
    num_output: 12
    pad: 0
    stride: 1
    weight_filler {
      type: "xavier"
    }
    bias_filler {
      type: "constant"
    }
    kernel_h: 8
    kernel_w: 3
  }
}
layer {
  name: "relu_x1"
  type: "ReLU"
  bottom: "conv_x1"
  top: "conv_x1"
}
layer {
  name: "pool_x1"
  type: "Pooling"
  bottom: "conv_x1"
  top: "pool_x1"
  pooling_param {
    pool: MAX
    kernel_h: 2
    kernel_w: 1
    stride_h: 2
    stride_w: 1
  }
}
layer {
  name: "conv_x2"
  type: "Convolution"
  bottom: "pool_x1"
  top: "conv_x2"
  convolution_param {
    num_output: 20
    pad: 0
    stride: 1
    weight_filler {
      type: "xavier"
    }
    bias_filler {
      type: "constant"
    }
    kernel_h: 7
    kernel_w: 3
  }
}
layer {
  name: "relu_x2"
  type: "ReLU"
  bottom: "conv_x2"
  top: "conv_x2"
}
layer {
  name: "pool_x2"
  type: "Pooling"
  bottom: "conv_x2"
  top: "pool_x2"
  pooling_param {
    pool: MAX
    kernel_h: 2
    kernel_w: 1
    stride_h: 2
    stride_w: 1
  }
}
layer {
  name: "conv_x3"
  type: "Convolution"
  bottom: "pool_x2"
  top: "conv_x3"
  convolution_param {
    num_output: 28
    pad: 0
    stride: 1
    weight_filler {
      type: "xavier"
    }
    bias_filler {
      type: "constant"
    }
    kernel_h: 6
    kernel_w: 3
  }
}
layer {
  name: "relu_x3"
  type: "ReLU"
  bottom: "conv_x3"
  top: "conv_x3"
}
layer {
  name: "pool_x3"
  type: "Pooling"
  bottom: "conv_x3"
  top: "pool_x3"
  pooling_param {
    pool: MAX
    kernel_h: 2
    kernel_w: 1
    stride_h: 2
    stride_w: 1
  }
}
layer {
  name: "conv_x4"
  type: "Convolution"
  bottom: "pool_x3"
  top: "conv_x4"
  convolution_param {
    num_output: 36
    pad: 0
    stride: 1
    weight_filler {
      type: "xavier"
    }
    bias_filler {
      type: "constant"
    }
    kernel_h: 6
    kernel_w: 3
  }
}
layer {
  name: "relu_x4"
  type: "ReLU"
  bottom: "conv_x4"
  top: "conv_x4"
}
layer {
  name: "pool_x4"
  type: "Pooling"
  bottom: "conv_x4"
  top: "pool_x4"
  pooling_param {
    pool: MAX
    kernel_h: 2
    kernel_w: 1
    stride_h: 2
    stride_w: 1
  }
}
layer {
  name: "dl_x1"
  type: "InnerProduct"
  bottom: "pool_x4"
  top: "dl_x1"
  inner_product_param {
    num_output: 196
    weight_filler {
      type: "xavier"
    }
    bias_filler {
      type: "constant"
    }
  }
}
layer {
  name: "relu_x5"
  type: "ReLU"
  bottom: "dl_x1"
  top: "dl_x1"
}
layer {
  name: "drop_x1"
  type: "Dropout"
  bottom: "dl_x1"
  top: "dl_x1"
  dropout_param {
    dropout_ratio: 0.5
  }
}
layer {
  name: "conv_u1"
  type: "Convolution"
  bottom: "hits-u"
  top: "conv_u1"
  convolution_param {
    num_output: 12
    pad: 0
    stride: 1
    weight_filler {
      type: "xavier"
    }
    bias_filler {
      type: "constant"
    }
    kernel_h: 8
    kernel_w: 3
  }
}
layer {
  name: "relu_u1"
  type: "ReLU"
  bottom: "conv_u1"
  top: "conv_u1"
}
layer {
  name: "pool_u1"
  type: "Pooling"
  bottom: "conv_u1"
  top: "pool_u1"
  pooling_param {
    pool: MAX
    kernel_h: 2
    kernel_w: 1
    stride_h: 2
    stride_w: 1
  }
}
layer {
  name: "conv_u2"
  type: "Convolution"
  bottom: "pool_u1"
  top: "conv_u2"
  convolution_param {
    num_output: 20
    pad: 0
    stride: 1
    weight_filler {
      type: "xavier"
    }
    bias_filler {
      type: "constant"
    }
    kernel_h: 7
    kernel_w: 3
  }
}
layer {
  name: "relu_u2"
  type: "ReLU"
  bottom: "conv_u2"
  top: "conv_u2"
}
layer {
  name: "pool_u2"
  type: "Pooling"
  bottom: "conv_u2"
  top: "pool_u2"
  pooling_param {
    pool: MAX
    kernel_h: 2
    kernel_w: 1
    stride_h: 2
    stride_w: 1
  }
}
layer {
  name: "conv_u3"
  type: "Convolution"
  bottom: "pool_u2"
  top: "conv_u3"
  convolution_param {
    num_output: 28
    pad: 0
    stride: 1
    weight_filler {
      type: "xavier"
    }
    bias_filler {
      type: "constant"
    }
    kernel_h: 6
    kernel_w: 3
  }
}
layer {
  name: "relu_u3"
  type: "ReLU"
  bottom: "conv_u3"
  top: "conv_u3"
}
layer {
  name: "pool_u3"
  type: "Pooling"
  bottom: "conv_u3"
  top: "pool_u3"
  pooling_param {
    pool: MAX
    kernel_h: 2
    kernel_w: 1
    stride_h: 2
    stride_w: 1
  }
}
layer {
  name: "conv_u4"
  type: "Convolution"
  bottom: "pool_u3"
  top: "conv_u4"
  convolution_param {
    num_output: 36
    pad: 0
    stride: 1
    weight_filler {
      type: "xavier"
    }
    bias_filler {
      type: "constant"
    }
    kernel_h: 6
    kernel_w: 3
  }
}
layer {
  name: "relu_u4"
  type: "ReLU"
  bottom: "conv_u4"
  top: "conv_u4"
}
layer {
  name: "pool_u4"
  type: "Pooling"
  bottom: "conv_u4"
  top: "pool_u4"
  pooling_param {
    pool: MAX
    kernel_h: 2
    kernel_w: 1
    stride_h: 2
    stride_w: 1
  }
}
layer {
  name: "dl_u1"
  type: "InnerProduct"
  bottom: "pool_u4"
  top: "dl_u1"
  inner_product_param {
    num_output: 196
    weight_filler {
      type: "xavier"
    }
    bias_filler {
      type: "constant"
    }
  }
}
layer {
  name: "relu_u5"
  type: "ReLU"
  bottom: "dl_u1"
  top: "dl_u1"
}
layer {
  name: "drop_u1"
  type: "Dropout"
  bottom: "dl_u1"
  top: "dl_u1"
  dropout_param {
    dropout_ratio: 0.5
  }
}
layer {
  name: "conv_v1"
  type: "Convolution"
  bottom: "hits-v"
  top: "conv_v1"
  convolution_param {
    num_output: 12
    pad: 0
    stride: 1
    weight_filler {
      type: "xavier"
    }
    bias_filler {
      type: "constant"
    }
    kernel_h: 8
    kernel_w: 3
  }
}
layer {
  name: "relu_v1"
  type: "ReLU"
  bottom: "conv_v1"
  top: "conv_v1"
}
layer {
  name: "pool_v1"
  type: "Pooling"
  bottom: "conv_v1"
  top: "pool_v1"
  pooling_param {
    pool: MAX
    kernel_h: 2
    kernel_w: 1
    stride_h: 2
    stride_w: 1
  }
}
layer {
  name: "conv_v2"
  type: "Convolution"
  bottom: "pool_v1"
  top: "conv_v2"
  convolution_param {
    num_output: 20
    pad: 0
    stride: 1
    weight_filler {
      type: "xavier"
    }
    bias_filler {
      type: "constant"
    }
    kernel_h: 7
    kernel_w: 3
  }
}
layer {
  name: "relu_v2"
  type: "ReLU"
  bottom: "conv_v2"
  top: "conv_v2"
}
layer {
  name: "pool_v2"
  type: "Pooling"
  bottom: "conv_v2"
  top: "pool_v2"
  pooling_param {
    pool: MAX
    kernel_h: 2
    kernel_w: 1
    stride_h: 2
    stride_w: 1
  }
}
layer {
  name: "conv_v3"
  type: "Convolution"
  bottom: "pool_v2"
  top: "conv_v3"
  convolution_param {
    num_output: 28
    pad: 0
    stride: 1
    weight_filler {
      type: "xavier"
    }
    bias_filler {
      type: "constant"
    }
    kernel_h: 6
    kernel_w: 3
  }
}
layer {
  name: "relu_v3"
  type: "ReLU"
  bottom: "conv_v3"
  top: "conv_v3"
}
layer {
  name: "pool_v3"
  type: "Pooling"
  bottom: "conv_v3"
  top: "pool_v3"
  pooling_param {
    pool: MAX
    kernel_h: 2
    kernel_w: 1
    stride_h: 2
    stride_w: 1
  }
}
layer {
  name: "conv_v4"
  type: "Convolution"
  bottom: "pool_v3"
  top: "conv_v4"
  convolution_param {
    num_output: 36
    pad: 0
    stride: 1
    weight_filler {
      type: "xavier"
    }
    bias_filler {
      type: "constant"
    }
    kernel_h: 6
    kernel_w: 3
  }
}
layer {
  name: "relu_v4"
  type: "ReLU"
  bottom: "conv_v4"
  top: "conv_v4"
}
layer {
  name: "pool_v4"
  type: "Pooling"
  bottom: "conv_v4"
  top: "pool_v4"
  pooling_param {
    pool: MAX
    kernel_h: 2
    kernel_w: 1
    stride_h: 2
    stride_w: 1
  }
}
layer {
  name: "dl_v1"
  type: "InnerProduct"
  bottom: "pool_v4"
  top: "dl_v1"
  inner_product_param {
    num_output: 196
    weight_filler {
      type: "xavier"
    }
    bias_filler {
      type: "constant"
    }
  }
}
layer {
  name: "relu_v5"
  type: "ReLU"
  bottom: "dl_v1"
  top: "dl_v1"
}
layer {
  name: "drop_v1"
  type: "Dropout"
  bottom: "dl_v1"
  top: "dl_v1"
  dropout_param {
    dropout_ratio: 0.5
  }
}
layer {
  name: "concat_xuv"
  type: "Concat"
  bottom: "dl_x1"
  bottom: "dl_u1"
  bottom: "dl_v1"
  top: "concat_xuv"
  concat_param {
    axis: 1
  }
}
layer {
  name: "dl_xuv"
  type: "InnerProduct"
  bottom: "concat_xuv"
  top: "dl_xuv"
  inner_product_param {
    num_output: 98
    weight_filler {
      type: "xavier"
    }
    bias_filler {
      type: "constant"
    }
  }
}
layer {
  name: "relu_xuv"
  type: "ReLU"
  bottom: "dl_xuv"
  top: "dl_xuv"
}
layer {
  name: "drop_xuv"
  type: "Dropout"
  bottom: "dl_xuv"
  top: "dl_xuv"
  dropout_param {
    dropout_ratio: 0.5
  }
}
layer {
  name: "output"
  type: "InnerProduct"
  bottom: "dl_xuv"
  top: "output"
  inner_product_param {
    num_output: 11
    weight_filler {
      type: "xavier"
    }
    bias_filler {
      type: "constant"
    }
  }
}
layer {
  name: "drop_output"
  type: "Dropout"
  bottom: "output"
  top: "output"
  dropout_param {
    dropout_ratio: 0.5
  }
}
layer {
  name: "loss"
  type: "SoftmaxWithLoss"
  bottom: "output"
  bottom: "segments"
  top: "loss"
}
I0601 15:05:28.671933 18761 layer_factory.hpp:77] Creating layer data
I0601 15:05:28.671962 18761 net.cpp:106] Creating Layer data
I0601 15:05:28.671988 18761 net.cpp:411] data -> hits-x
I0601 15:05:28.672024 18761 net.cpp:411] data -> hits-u
I0601 15:05:28.672056 18761 net.cpp:411] data -> hits-v
I0601 15:05:28.672075 18761 net.cpp:411] data -> segments
I0601 15:05:28.672111 18761 hdf5_data_layer.cpp:79] Loading list of HDF5 filenames from: /lustre/atlas/proj-shared/hep105/caffe_titan/xuv/epsilon_127x50_xuv.trainlist
I0601 15:05:28.673573 18761 hdf5_data_layer.cpp:93] Number of HDF5 files: 15
I0601 15:05:28.719301 18761 hdf5.cpp:32] Datatype class: H5T_FLOAT
I0601 15:06:32.785192 18761 hdf5.cpp:35] Datatype class: H5T_INTEGER
I0601 15:06:32.790904 18761 net.cpp:150] Setting up data
I0601 15:06:32.790946 18761 net.cpp:157] Top shape: 100 1 127 50 (635000)
I0601 15:06:32.790964 18761 net.cpp:157] Top shape: 100 1 127 50 (635000)
I0601 15:06:32.790980 18761 net.cpp:157] Top shape: 100 1 127 50 (635000)
I0601 15:06:32.790998 18761 net.cpp:157] Top shape: 100 (100)
I0601 15:06:32.791023 18761 net.cpp:165] Memory required for data: 7620400
I0601 15:06:32.791040 18761 layer_factory.hpp:77] Creating layer conv_x1
I0601 15:06:32.791074 18761 net.cpp:106] Creating Layer conv_x1
I0601 15:06:32.791087 18761 net.cpp:454] conv_x1 <- hits-x
I0601 15:06:32.791111 18761 net.cpp:411] conv_x1 -> conv_x1
I0601 15:06:35.090430 18761 net.cpp:150] Setting up conv_x1
I0601 15:06:35.090482 18761 net.cpp:157] Top shape: 100 12 120 48 (6912000)
I0601 15:06:35.090497 18761 net.cpp:165] Memory required for data: 35268400
I0601 15:06:35.090528 18761 layer_factory.hpp:77] Creating layer relu_x1
I0601 15:06:35.090550 18761 net.cpp:106] Creating Layer relu_x1
I0601 15:06:35.090564 18761 net.cpp:454] relu_x1 <- conv_x1
I0601 15:06:35.090586 18761 net.cpp:397] relu_x1 -> conv_x1 (in-place)
I0601 15:06:35.091140 18761 net.cpp:150] Setting up relu_x1
I0601 15:06:35.091164 18761 net.cpp:157] Top shape: 100 12 120 48 (6912000)
I0601 15:06:35.091177 18761 net.cpp:165] Memory required for data: 62916400
I0601 15:06:35.091190 18761 layer_factory.hpp:77] Creating layer pool_x1
I0601 15:06:35.091222 18761 net.cpp:106] Creating Layer pool_x1
I0601 15:06:35.091235 18761 net.cpp:454] pool_x1 <- conv_x1
I0601 15:06:35.091253 18761 net.cpp:411] pool_x1 -> pool_x1
I0601 15:06:35.091346 18761 net.cpp:150] Setting up pool_x1
I0601 15:06:35.091364 18761 net.cpp:157] Top shape: 100 12 60 48 (3456000)
I0601 15:06:35.091379 18761 net.cpp:165] Memory required for data: 76740400
I0601 15:06:35.091400 18761 layer_factory.hpp:77] Creating layer conv_x2
I0601 15:06:35.091424 18761 net.cpp:106] Creating Layer conv_x2
I0601 15:06:35.091445 18761 net.cpp:454] conv_x2 <- pool_x1
I0601 15:06:35.091464 18761 net.cpp:411] conv_x2 -> conv_x2
I0601 15:06:35.094169 18761 net.cpp:150] Setting up conv_x2
I0601 15:06:35.094200 18761 net.cpp:157] Top shape: 100 20 54 46 (4968000)
I0601 15:06:35.094219 18761 net.cpp:165] Memory required for data: 96612400
I0601 15:06:35.094247 18761 layer_factory.hpp:77] Creating layer relu_x2
I0601 15:06:35.094275 18761 net.cpp:106] Creating Layer relu_x2
I0601 15:06:35.094290 18761 net.cpp:454] relu_x2 <- conv_x2
I0601 15:06:35.094306 18761 net.cpp:397] relu_x2 -> conv_x2 (in-place)
I0601 15:06:35.094660 18761 net.cpp:150] Setting up relu_x2
I0601 15:06:35.094681 18761 net.cpp:157] Top shape: 100 20 54 46 (4968000)
I0601 15:06:35.094694 18761 net.cpp:165] Memory required for data: 116484400
I0601 15:06:35.094707 18761 layer_factory.hpp:77] Creating layer pool_x2
I0601 15:06:35.094732 18761 net.cpp:106] Creating Layer pool_x2
I0601 15:06:35.094745 18761 net.cpp:454] pool_x2 <- conv_x2
I0601 15:06:35.094763 18761 net.cpp:411] pool_x2 -> pool_x2
I0601 15:06:35.094851 18761 net.cpp:150] Setting up pool_x2
I0601 15:06:35.094867 18761 net.cpp:157] Top shape: 100 20 27 46 (2484000)
I0601 15:06:35.094880 18761 net.cpp:165] Memory required for data: 126420400
I0601 15:06:35.094895 18761 layer_factory.hpp:77] Creating layer conv_x3
I0601 15:06:35.094918 18761 net.cpp:106] Creating Layer conv_x3
I0601 15:06:35.094936 18761 net.cpp:454] conv_x3 <- pool_x2
I0601 15:06:35.094954 18761 net.cpp:411] conv_x3 -> conv_x3
I0601 15:06:35.096889 18761 net.cpp:150] Setting up conv_x3
I0601 15:06:35.096915 18761 net.cpp:157] Top shape: 100 28 22 44 (2710400)
I0601 15:06:35.096933 18761 net.cpp:165] Memory required for data: 137262000
I0601 15:06:35.096956 18761 layer_factory.hpp:77] Creating layer relu_x3
I0601 15:06:35.096978 18761 net.cpp:106] Creating Layer relu_x3
I0601 15:06:35.097000 18761 net.cpp:454] relu_x3 <- conv_x3
I0601 15:06:35.097018 18761 net.cpp:397] relu_x3 -> conv_x3 (in-place)
I0601 15:06:35.097506 18761 net.cpp:150] Setting up relu_x3
I0601 15:06:35.097530 18761 net.cpp:157] Top shape: 100 28 22 44 (2710400)
I0601 15:06:35.097554 18761 net.cpp:165] Memory required for data: 148103600
I0601 15:06:35.097579 18761 layer_factory.hpp:77] Creating layer pool_x3
I0601 15:06:35.097596 18761 net.cpp:106] Creating Layer pool_x3
I0601 15:06:35.097610 18761 net.cpp:454] pool_x3 <- conv_x3
I0601 15:06:35.097628 18761 net.cpp:411] pool_x3 -> pool_x3
I0601 15:06:35.097712 18761 net.cpp:150] Setting up pool_x3
I0601 15:06:35.097728 18761 net.cpp:157] Top shape: 100 28 11 44 (1355200)
I0601 15:06:35.097743 18761 net.cpp:165] Memory required for data: 153524400
I0601 15:06:35.097756 18761 layer_factory.hpp:77] Creating layer conv_x4
I0601 15:06:35.097784 18761 net.cpp:106] Creating Layer conv_x4
I0601 15:06:35.097802 18761 net.cpp:454] conv_x4 <- pool_x3
I0601 15:06:35.097818 18761 net.cpp:411] conv_x4 -> conv_x4
I0601 15:06:35.100811 18761 net.cpp:150] Setting up conv_x4
I0601 15:06:35.100842 18761 net.cpp:157] Top shape: 100 36 6 42 (907200)
I0601 15:06:35.100863 18761 net.cpp:165] Memory required for data: 157153200
I0601 15:06:35.100883 18761 layer_factory.hpp:77] Creating layer relu_x4
I0601 15:06:35.100899 18761 net.cpp:106] Creating Layer relu_x4
I0601 15:06:35.100930 18761 net.cpp:454] relu_x4 <- conv_x4
I0601 15:06:35.100949 18761 net.cpp:397] relu_x4 -> conv_x4 (in-place)
I0601 15:06:35.101429 18761 net.cpp:150] Setting up relu_x4
I0601 15:06:35.101452 18761 net.cpp:157] Top shape: 100 36 6 42 (907200)
I0601 15:06:35.101466 18761 net.cpp:165] Memory required for data: 160782000
I0601 15:06:35.101478 18761 layer_factory.hpp:77] Creating layer pool_x4
I0601 15:06:35.101498 18761 net.cpp:106] Creating Layer pool_x4
I0601 15:06:35.101519 18761 net.cpp:454] pool_x4 <- conv_x4
I0601 15:06:35.101536 18761 net.cpp:411] pool_x4 -> pool_x4
I0601 15:06:35.101614 18761 net.cpp:150] Setting up pool_x4
I0601 15:06:35.101644 18761 net.cpp:157] Top shape: 100 36 3 42 (453600)
I0601 15:06:35.101657 18761 net.cpp:165] Memory required for data: 162596400
I0601 15:06:35.101670 18761 layer_factory.hpp:77] Creating layer dl_x1
I0601 15:06:35.101694 18761 net.cpp:106] Creating Layer dl_x1
I0601 15:06:35.101707 18761 net.cpp:454] dl_x1 <- pool_x4
I0601 15:06:35.101730 18761 net.cpp:411] dl_x1 -> dl_x1
I0601 15:06:35.117190 18761 net.cpp:150] Setting up dl_x1
I0601 15:06:35.117224 18761 net.cpp:157] Top shape: 100 196 (19600)
I0601 15:06:35.117244 18761 net.cpp:165] Memory required for data: 162674800
I0601 15:06:35.117271 18761 layer_factory.hpp:77] Creating layer relu_x5
I0601 15:06:35.117292 18761 net.cpp:106] Creating Layer relu_x5
I0601 15:06:35.117318 18761 net.cpp:454] relu_x5 <- dl_x1
I0601 15:06:35.117336 18761 net.cpp:397] relu_x5 -> dl_x1 (in-place)
I0601 15:06:35.117697 18761 net.cpp:150] Setting up relu_x5
I0601 15:06:35.117717 18761 net.cpp:157] Top shape: 100 196 (19600)
I0601 15:06:35.117729 18761 net.cpp:165] Memory required for data: 162753200
I0601 15:06:35.117741 18761 layer_factory.hpp:77] Creating layer drop_x1
I0601 15:06:35.117774 18761 net.cpp:106] Creating Layer drop_x1
I0601 15:06:35.117789 18761 net.cpp:454] drop_x1 <- dl_x1
I0601 15:06:35.117805 18761 net.cpp:397] drop_x1 -> dl_x1 (in-place)
I0601 15:06:35.117863 18761 net.cpp:150] Setting up drop_x1
I0601 15:06:35.117879 18761 net.cpp:157] Top shape: 100 196 (19600)
I0601 15:06:35.117892 18761 net.cpp:165] Memory required for data: 162831600
I0601 15:06:35.117905 18761 layer_factory.hpp:77] Creating layer conv_u1
I0601 15:06:35.117933 18761 net.cpp:106] Creating Layer conv_u1
I0601 15:06:35.117952 18761 net.cpp:454] conv_u1 <- hits-u
I0601 15:06:35.117969 18761 net.cpp:411] conv_u1 -> conv_u1
I0601 15:06:35.119827 18761 net.cpp:150] Setting up conv_u1
I0601 15:06:35.119851 18761 net.cpp:157] Top shape: 100 12 120 48 (6912000)
I0601 15:06:35.119871 18761 net.cpp:165] Memory required for data: 190479600
I0601 15:06:35.119891 18761 layer_factory.hpp:77] Creating layer relu_u1
I0601 15:06:35.119911 18761 net.cpp:106] Creating Layer relu_u1
I0601 15:06:35.119925 18761 net.cpp:454] relu_u1 <- conv_u1
I0601 15:06:35.119951 18761 net.cpp:397] relu_u1 -> conv_u1 (in-place)
I0601 15:06:35.120451 18761 net.cpp:150] Setting up relu_u1
I0601 15:06:35.120476 18761 net.cpp:157] Top shape: 100 12 120 48 (6912000)
I0601 15:06:35.120491 18761 net.cpp:165] Memory required for data: 218127600
I0601 15:06:35.120507 18761 layer_factory.hpp:77] Creating layer pool_u1
I0601 15:06:35.120522 18761 net.cpp:106] Creating Layer pool_u1
I0601 15:06:35.120544 18761 net.cpp:454] pool_u1 <- conv_u1
I0601 15:06:35.120561 18761 net.cpp:411] pool_u1 -> pool_u1
I0601 15:06:35.120648 18761 net.cpp:150] Setting up pool_u1
I0601 15:06:35.120666 18761 net.cpp:157] Top shape: 100 12 60 48 (3456000)
I0601 15:06:35.120682 18761 net.cpp:165] Memory required for data: 231951600
I0601 15:06:35.120693 18761 layer_factory.hpp:77] Creating layer conv_u2
I0601 15:06:35.120713 18761 net.cpp:106] Creating Layer conv_u2
I0601 15:06:35.120733 18761 net.cpp:454] conv_u2 <- pool_u1
I0601 15:06:35.120749 18761 net.cpp:411] conv_u2 -> conv_u2
I0601 15:06:35.122608 18761 net.cpp:150] Setting up conv_u2
I0601 15:06:35.122632 18761 net.cpp:157] Top shape: 100 20 54 46 (4968000)
I0601 15:06:35.122645 18761 net.cpp:165] Memory required for data: 251823600
I0601 15:06:35.122664 18761 layer_factory.hpp:77] Creating layer relu_u2
I0601 15:06:35.122684 18761 net.cpp:106] Creating Layer relu_u2
I0601 15:06:35.122706 18761 net.cpp:454] relu_u2 <- conv_u2
I0601 15:06:35.122722 18761 net.cpp:397] relu_u2 -> conv_u2 (in-place)
I0601 15:06:35.123066 18761 net.cpp:150] Setting up relu_u2
I0601 15:06:35.123087 18761 net.cpp:157] Top shape: 100 20 54 46 (4968000)
I0601 15:06:35.123100 18761 net.cpp:165] Memory required for data: 271695600
I0601 15:06:35.123112 18761 layer_factory.hpp:77] Creating layer pool_u2
I0601 15:06:35.123131 18761 net.cpp:106] Creating Layer pool_u2
I0601 15:06:35.123144 18761 net.cpp:454] pool_u2 <- conv_u2
I0601 15:06:35.123160 18761 net.cpp:411] pool_u2 -> pool_u2
I0601 15:06:35.123258 18761 net.cpp:150] Setting up pool_u2
I0601 15:06:35.123277 18761 net.cpp:157] Top shape: 100 20 27 46 (2484000)
I0601 15:06:35.123299 18761 net.cpp:165] Memory required for data: 281631600
I0601 15:06:35.123312 18761 layer_factory.hpp:77] Creating layer conv_u3
I0601 15:06:35.123334 18761 net.cpp:106] Creating Layer conv_u3
I0601 15:06:35.123347 18761 net.cpp:454] conv_u3 <- pool_u2
I0601 15:06:35.123370 18761 net.cpp:411] conv_u3 -> conv_u3
I0601 15:06:35.125299 18761 net.cpp:150] Setting up conv_u3
I0601 15:06:35.125324 18761 net.cpp:157] Top shape: 100 28 22 44 (2710400)
I0601 15:06:35.125344 18761 net.cpp:165] Memory required for data: 292473200
I0601 15:06:35.125363 18761 layer_factory.hpp:77] Creating layer relu_u3
I0601 15:06:35.125378 18761 net.cpp:106] Creating Layer relu_u3
I0601 15:06:35.125396 18761 net.cpp:454] relu_u3 <- conv_u3
I0601 15:06:35.125421 18761 net.cpp:397] relu_u3 -> conv_u3 (in-place)
I0601 15:06:35.125771 18761 net.cpp:150] Setting up relu_u3
I0601 15:06:35.125790 18761 net.cpp:157] Top shape: 100 28 22 44 (2710400)
I0601 15:06:35.125803 18761 net.cpp:165] Memory required for data: 303314800
I0601 15:06:35.125818 18761 layer_factory.hpp:77] Creating layer pool_u3
I0601 15:06:35.125834 18761 net.cpp:106] Creating Layer pool_u3
I0601 15:06:35.125854 18761 net.cpp:454] pool_u3 <- conv_u3
I0601 15:06:35.125871 18761 net.cpp:411] pool_u3 -> pool_u3
I0601 15:06:35.125948 18761 net.cpp:150] Setting up pool_u3
I0601 15:06:35.125979 18761 net.cpp:157] Top shape: 100 28 11 44 (1355200)
I0601 15:06:35.125993 18761 net.cpp:165] Memory required for data: 308735600
I0601 15:06:35.126004 18761 layer_factory.hpp:77] Creating layer conv_u4
I0601 15:06:35.126026 18761 net.cpp:106] Creating Layer conv_u4
I0601 15:06:35.126060 18761 net.cpp:454] conv_u4 <- pool_u3
I0601 15:06:35.126081 18761 net.cpp:411] conv_u4 -> conv_u4
I0601 15:06:35.128304 18761 net.cpp:150] Setting up conv_u4
I0601 15:06:35.128327 18761 net.cpp:157] Top shape: 100 36 6 42 (907200)
I0601 15:06:35.128348 18761 net.cpp:165] Memory required for data: 312364400
I0601 15:06:35.128374 18761 layer_factory.hpp:77] Creating layer relu_u4
I0601 15:06:35.128394 18761 net.cpp:106] Creating Layer relu_u4
I0601 15:06:35.128427 18761 net.cpp:454] relu_u4 <- conv_u4
I0601 15:06:35.128443 18761 net.cpp:397] relu_u4 -> conv_u4 (in-place)
I0601 15:06:35.128942 18761 net.cpp:150] Setting up relu_u4
I0601 15:06:35.128967 18761 net.cpp:157] Top shape: 100 36 6 42 (907200)
I0601 15:06:35.128979 18761 net.cpp:165] Memory required for data: 315993200
I0601 15:06:35.128996 18761 layer_factory.hpp:77] Creating layer pool_u4
I0601 15:06:35.129019 18761 net.cpp:106] Creating Layer pool_u4
I0601 15:06:35.129034 18761 net.cpp:454] pool_u4 <- conv_u4
I0601 15:06:35.129050 18761 net.cpp:411] pool_u4 -> pool_u4
I0601 15:06:35.129134 18761 net.cpp:150] Setting up pool_u4
I0601 15:06:35.129154 18761 net.cpp:157] Top shape: 100 36 3 42 (453600)
I0601 15:06:35.129168 18761 net.cpp:165] Memory required for data: 317807600
I0601 15:06:35.129184 18761 layer_factory.hpp:77] Creating layer dl_u1
I0601 15:06:35.129205 18761 net.cpp:106] Creating Layer dl_u1
I0601 15:06:35.129220 18761 net.cpp:454] dl_u1 <- pool_u4
I0601 15:06:35.129235 18761 net.cpp:411] dl_u1 -> dl_u1
I0601 15:06:35.144737 18761 net.cpp:150] Setting up dl_u1
I0601 15:06:35.144769 18761 net.cpp:157] Top shape: 100 196 (19600)
I0601 15:06:35.144790 18761 net.cpp:165] Memory required for data: 317886000
I0601 15:06:35.144810 18761 layer_factory.hpp:77] Creating layer relu_u5
I0601 15:06:35.144827 18761 net.cpp:106] Creating Layer relu_u5
I0601 15:06:35.144845 18761 net.cpp:454] relu_u5 <- dl_u1
I0601 15:06:35.144873 18761 net.cpp:397] relu_u5 -> dl_u1 (in-place)
I0601 15:06:35.145236 18761 net.cpp:150] Setting up relu_u5
I0601 15:06:35.145256 18761 net.cpp:157] Top shape: 100 196 (19600)
I0601 15:06:35.145268 18761 net.cpp:165] Memory required for data: 317964400
I0601 15:06:35.145280 18761 layer_factory.hpp:77] Creating layer drop_u1
I0601 15:06:35.145299 18761 net.cpp:106] Creating Layer drop_u1
I0601 15:06:35.145320 18761 net.cpp:454] drop_u1 <- dl_u1
I0601 15:06:35.145337 18761 net.cpp:397] drop_u1 -> dl_u1 (in-place)
I0601 15:06:35.145391 18761 net.cpp:150] Setting up drop_u1
I0601 15:06:35.145411 18761 net.cpp:157] Top shape: 100 196 (19600)
I0601 15:06:35.145431 18761 net.cpp:165] Memory required for data: 318042800
I0601 15:06:35.145443 18761 layer_factory.hpp:77] Creating layer conv_v1
I0601 15:06:35.145463 18761 net.cpp:106] Creating Layer conv_v1
I0601 15:06:35.145478 18761 net.cpp:454] conv_v1 <- hits-v
I0601 15:06:35.145496 18761 net.cpp:411] conv_v1 -> conv_v1
I0601 15:06:35.147389 18761 net.cpp:150] Setting up conv_v1
I0601 15:06:35.147413 18761 net.cpp:157] Top shape: 100 12 120 48 (6912000)
I0601 15:06:35.147433 18761 net.cpp:165] Memory required for data: 345690800
I0601 15:06:35.147454 18761 layer_factory.hpp:77] Creating layer relu_v1
I0601 15:06:35.147483 18761 net.cpp:106] Creating Layer relu_v1
I0601 15:06:35.147505 18761 net.cpp:454] relu_v1 <- conv_v1
I0601 15:06:35.147521 18761 net.cpp:397] relu_v1 -> conv_v1 (in-place)
I0601 15:06:35.148010 18761 net.cpp:150] Setting up relu_v1
I0601 15:06:35.148035 18761 net.cpp:157] Top shape: 100 12 120 48 (6912000)
I0601 15:06:35.148048 18761 net.cpp:165] Memory required for data: 373338800
I0601 15:06:35.148064 18761 layer_factory.hpp:77] Creating layer pool_v1
I0601 15:06:35.148080 18761 net.cpp:106] Creating Layer pool_v1
I0601 15:06:35.148102 18761 net.cpp:454] pool_v1 <- conv_v1
I0601 15:06:35.148119 18761 net.cpp:411] pool_v1 -> pool_v1
I0601 15:06:35.148206 18761 net.cpp:150] Setting up pool_v1
I0601 15:06:35.148224 18761 net.cpp:157] Top shape: 100 12 60 48 (3456000)
I0601 15:06:35.148239 18761 net.cpp:165] Memory required for data: 387162800
I0601 15:06:35.148252 18761 layer_factory.hpp:77] Creating layer conv_v2
I0601 15:06:35.148272 18761 net.cpp:106] Creating Layer conv_v2
I0601 15:06:35.148293 18761 net.cpp:454] conv_v2 <- pool_v1
I0601 15:06:35.148309 18761 net.cpp:411] conv_v2 -> conv_v2
I0601 15:06:35.150029 18761 net.cpp:150] Setting up conv_v2
I0601 15:06:35.150059 18761 net.cpp:157] Top shape: 100 20 54 46 (4968000)
I0601 15:06:35.150084 18761 net.cpp:165] Memory required for data: 407034800
I0601 15:06:35.150115 18761 layer_factory.hpp:77] Creating layer relu_v2
I0601 15:06:35.150135 18761 net.cpp:106] Creating Layer relu_v2
I0601 15:06:35.150158 18761 net.cpp:454] relu_v2 <- conv_v2
I0601 15:06:35.150174 18761 net.cpp:397] relu_v2 -> conv_v2 (in-place)
I0601 15:06:35.150667 18761 net.cpp:150] Setting up relu_v2
I0601 15:06:35.150691 18761 net.cpp:157] Top shape: 100 20 54 46 (4968000)
I0601 15:06:35.150704 18761 net.cpp:165] Memory required for data: 426906800
I0601 15:06:35.150720 18761 layer_factory.hpp:77] Creating layer pool_v2
I0601 15:06:35.150737 18761 net.cpp:106] Creating Layer pool_v2
I0601 15:06:35.150758 18761 net.cpp:454] pool_v2 <- conv_v2
I0601 15:06:35.150775 18761 net.cpp:411] pool_v2 -> pool_v2
I0601 15:06:35.150861 18761 net.cpp:150] Setting up pool_v2
I0601 15:06:35.150881 18761 net.cpp:157] Top shape: 100 20 27 46 (2484000)
I0601 15:06:35.150892 18761 net.cpp:165] Memory required for data: 436842800
I0601 15:06:35.150907 18761 layer_factory.hpp:77] Creating layer conv_v3
I0601 15:06:35.150933 18761 net.cpp:106] Creating Layer conv_v3
I0601 15:06:35.150948 18761 net.cpp:454] conv_v3 <- pool_v2
I0601 15:06:35.150969 18761 net.cpp:411] conv_v3 -> conv_v3
I0601 15:06:35.152930 18761 net.cpp:150] Setting up conv_v3
I0601 15:06:35.152953 18761 net.cpp:157] Top shape: 100 28 22 44 (2710400)
I0601 15:06:35.152974 18761 net.cpp:165] Memory required for data: 447684400
I0601 15:06:35.152992 18761 layer_factory.hpp:77] Creating layer relu_v3
I0601 15:06:35.153012 18761 net.cpp:106] Creating Layer relu_v3
I0601 15:06:35.153025 18761 net.cpp:454] relu_v3 <- conv_v3
I0601 15:06:35.153050 18761 net.cpp:397] relu_v3 -> conv_v3 (in-place)
I0601 15:06:35.153388 18761 net.cpp:150] Setting up relu_v3
I0601 15:06:35.153409 18761 net.cpp:157] Top shape: 100 28 22 44 (2710400)
I0601 15:06:35.153421 18761 net.cpp:165] Memory required for data: 458526000
I0601 15:06:35.153436 18761 layer_factory.hpp:77] Creating layer pool_v3
I0601 15:06:35.153452 18761 net.cpp:106] Creating Layer pool_v3
I0601 15:06:35.153472 18761 net.cpp:454] pool_v3 <- conv_v3
I0601 15:06:35.153489 18761 net.cpp:411] pool_v3 -> pool_v3
I0601 15:06:35.153578 18761 net.cpp:150] Setting up pool_v3
I0601 15:06:35.153596 18761 net.cpp:157] Top shape: 100 28 11 44 (1355200)
I0601 15:06:35.153616 18761 net.cpp:165] Memory required for data: 463946800
I0601 15:06:35.153630 18761 layer_factory.hpp:77] Creating layer conv_v4
I0601 15:06:35.153653 18761 net.cpp:106] Creating Layer conv_v4
I0601 15:06:35.153671 18761 net.cpp:454] conv_v4 <- pool_v3
I0601 15:06:35.153690 18761 net.cpp:411] conv_v4 -> conv_v4
I0601 15:06:35.155791 18761 net.cpp:150] Setting up conv_v4
I0601 15:06:35.155815 18761 net.cpp:157] Top shape: 100 36 6 42 (907200)
I0601 15:06:35.155835 18761 net.cpp:165] Memory required for data: 467575600
I0601 15:06:35.155854 18761 layer_factory.hpp:77] Creating layer relu_v4
I0601 15:06:35.155874 18761 net.cpp:106] Creating Layer relu_v4
I0601 15:06:35.155887 18761 net.cpp:454] relu_v4 <- conv_v4
I0601 15:06:35.155912 18761 net.cpp:397] relu_v4 -> conv_v4 (in-place)
I0601 15:06:35.156404 18761 net.cpp:150] Setting up relu_v4
I0601 15:06:35.156426 18761 net.cpp:157] Top shape: 100 36 6 42 (907200)
I0601 15:06:35.156440 18761 net.cpp:165] Memory required for data: 471204400
I0601 15:06:35.156455 18761 layer_factory.hpp:77] Creating layer pool_v4
I0601 15:06:35.156479 18761 net.cpp:106] Creating Layer pool_v4
I0601 15:06:35.156493 18761 net.cpp:454] pool_v4 <- conv_v4
I0601 15:06:35.156509 18761 net.cpp:411] pool_v4 -> pool_v4
I0601 15:06:35.156599 18761 net.cpp:150] Setting up pool_v4
I0601 15:06:35.156616 18761 net.cpp:157] Top shape: 100 36 3 42 (453600)
I0601 15:06:35.156631 18761 net.cpp:165] Memory required for data: 473018800
I0601 15:06:35.156643 18761 layer_factory.hpp:77] Creating layer dl_v1
I0601 15:06:35.156667 18761 net.cpp:106] Creating Layer dl_v1
I0601 15:06:35.156680 18761 net.cpp:454] dl_v1 <- pool_v4
I0601 15:06:35.156697 18761 net.cpp:411] dl_v1 -> dl_v1
I0601 15:06:35.172214 18761 net.cpp:150] Setting up dl_v1
I0601 15:06:35.172258 18761 net.cpp:157] Top shape: 100 196 (19600)
I0601 15:06:35.172281 18761 net.cpp:165] Memory required for data: 473097200
I0601 15:06:35.172302 18761 layer_factory.hpp:77] Creating layer relu_v5
I0601 15:06:35.172317 18761 net.cpp:106] Creating Layer relu_v5
I0601 15:06:35.172335 18761 net.cpp:454] relu_v5 <- dl_v1
I0601 15:06:35.172363 18761 net.cpp:397] relu_v5 -> dl_v1 (in-place)
I0601 15:06:35.172730 18761 net.cpp:150] Setting up relu_v5
I0601 15:06:35.172751 18761 net.cpp:157] Top shape: 100 196 (19600)
I0601 15:06:35.172765 18761 net.cpp:165] Memory required for data: 473175600
I0601 15:06:35.172777 18761 layer_factory.hpp:77] Creating layer drop_v1
I0601 15:06:35.172796 18761 net.cpp:106] Creating Layer drop_v1
I0601 15:06:35.172817 18761 net.cpp:454] drop_v1 <- dl_v1
I0601 15:06:35.172832 18761 net.cpp:397] drop_v1 -> dl_v1 (in-place)
I0601 15:06:35.172886 18761 net.cpp:150] Setting up drop_v1
I0601 15:06:35.172909 18761 net.cpp:157] Top shape: 100 196 (19600)
I0601 15:06:35.172922 18761 net.cpp:165] Memory required for data: 473254000
I0601 15:06:35.172940 18761 layer_factory.hpp:77] Creating layer concat_xuv
I0601 15:06:35.172965 18761 net.cpp:106] Creating Layer concat_xuv
I0601 15:06:35.172979 18761 net.cpp:454] concat_xuv <- dl_x1
I0601 15:06:35.172999 18761 net.cpp:454] concat_xuv <- dl_u1
I0601 15:06:35.173014 18761 net.cpp:454] concat_xuv <- dl_v1
I0601 15:06:35.173030 18761 net.cpp:411] concat_xuv -> concat_xuv
I0601 15:06:35.173089 18761 net.cpp:150] Setting up concat_xuv
I0601 15:06:35.173112 18761 net.cpp:157] Top shape: 100 588 (58800)
I0601 15:06:35.173125 18761 net.cpp:165] Memory required for data: 473489200
I0601 15:06:35.173138 18761 layer_factory.hpp:77] Creating layer dl_xuv
I0601 15:06:35.173154 18761 net.cpp:106] Creating Layer dl_xuv
I0601 15:06:35.173171 18761 net.cpp:454] dl_xuv <- concat_xuv
I0601 15:06:35.173185 18761 net.cpp:411] dl_xuv -> dl_xuv
I0601 15:06:35.174247 18761 net.cpp:150] Setting up dl_xuv
I0601 15:06:35.174265 18761 net.cpp:157] Top shape: 100 98 (9800)
I0601 15:06:35.174288 18761 net.cpp:165] Memory required for data: 473528400
I0601 15:06:35.174311 18761 layer_factory.hpp:77] Creating layer relu_xuv
I0601 15:06:35.174327 18761 net.cpp:106] Creating Layer relu_xuv
I0601 15:06:35.174342 18761 net.cpp:454] relu_xuv <- dl_xuv
I0601 15:06:35.174363 18761 net.cpp:397] relu_xuv -> dl_xuv (in-place)
I0601 15:06:35.174937 18761 net.cpp:150] Setting up relu_xuv
I0601 15:06:35.174959 18761 net.cpp:157] Top shape: 100 98 (9800)
I0601 15:06:35.174980 18761 net.cpp:165] Memory required for data: 473567600
I0601 15:06:35.174994 18761 layer_factory.hpp:77] Creating layer drop_xuv
I0601 15:06:35.175010 18761 net.cpp:106] Creating Layer drop_xuv
I0601 15:06:35.175026 18761 net.cpp:454] drop_xuv <- dl_xuv
I0601 15:06:35.175050 18761 net.cpp:397] drop_xuv -> dl_xuv (in-place)
I0601 15:06:35.175098 18761 net.cpp:150] Setting up drop_xuv
I0601 15:06:35.175118 18761 net.cpp:157] Top shape: 100 98 (9800)
I0601 15:06:35.175138 18761 net.cpp:165] Memory required for data: 473606800
I0601 15:06:35.175151 18761 layer_factory.hpp:77] Creating layer output
I0601 15:06:35.175168 18761 net.cpp:106] Creating Layer output
I0601 15:06:35.175181 18761 net.cpp:454] output <- dl_xuv
I0601 15:06:35.175197 18761 net.cpp:411] output -> output
I0601 15:06:35.175449 18761 net.cpp:150] Setting up output
I0601 15:06:35.175468 18761 net.cpp:157] Top shape: 100 11 (1100)
I0601 15:06:35.175482 18761 net.cpp:165] Memory required for data: 473611200
I0601 15:06:35.175524 18761 layer_factory.hpp:77] Creating layer drop_output
I0601 15:06:35.175540 18761 net.cpp:106] Creating Layer drop_output
I0601 15:06:35.175554 18761 net.cpp:454] drop_output <- output
I0601 15:06:35.175570 18761 net.cpp:397] drop_output -> output (in-place)
I0601 15:06:35.175626 18761 net.cpp:150] Setting up drop_output
I0601 15:06:35.175642 18761 net.cpp:157] Top shape: 100 11 (1100)
I0601 15:06:35.175655 18761 net.cpp:165] Memory required for data: 473615600
I0601 15:06:35.175668 18761 layer_factory.hpp:77] Creating layer loss
I0601 15:06:35.175706 18761 net.cpp:106] Creating Layer loss
I0601 15:06:35.175720 18761 net.cpp:454] loss <- output
I0601 15:06:35.175739 18761 net.cpp:454] loss <- segments
I0601 15:06:35.175755 18761 net.cpp:411] loss -> loss
I0601 15:06:35.175777 18761 layer_factory.hpp:77] Creating layer loss
…
I0601 15:06:35.180214 18761 solver.cpp:181] Creating test net (#0) specified by net file: /lustre/atlas/proj-shared/hep105/caffe_titan/caffe_workflow/xuv/logs/epsilon_noada_2016-05-30T07.36.54.892099.prototxt
I0601 15:06:35.180351 18761 net.cpp:322] The NetState phase (1) differed from the phase (0) specified by a rule in layer data
I0601 15:06:35.181145 18761 net.cpp:49] Initializing net from parameters: 
name: "epsilon_127x50_xuv"
state {
  phase: TEST
}
layer {
  name: "data"
  type: "HDF5Data"
  top: "hits-x"
  top: "hits-u"
  top: "hits-v"
  top: "segments"
  include {
    phase: TEST
  }
  hdf5_data_param {
    source: "/lustre/atlas/proj-shared/hep105/caffe_titan/xuv/epsilon_127x50_xuv.testlist"
    batch_size: 100
  }
}
layer {
  name: "conv_x1"
  type: "Convolution"
  bottom: "hits-x"
  top: "conv_x1"
  convolution_param {
    num_output: 12
    pad: 0
    stride: 1
    weight_filler {
      type: "xavier"
    }
    bias_filler {
      type: "constant"
    }
    kernel_h: 8
    kernel_w: 3
  }
}
layer {
  name: "relu_x1"
  type: "ReLU"
  bottom: "conv_x1"
  top: "conv_x1"
}
layer {
  name: "pool_x1"
  type: "Pooling"
  bottom: "conv_x1"
  top: "pool_x1"
  pooling_param {
    pool: MAX
    kernel_h: 2
    kernel_w: 1
    stride_h: 2
    stride_w: 1
  }
}
layer {
  name: "conv_x2"
  type: "Convolution"
  bottom: "pool_x1"
  top: "conv_x2"
  convolution_param {
    num_output: 20
    pad: 0
    stride: 1
    weight_filler {
      type: "xavier"
    }
    bias_filler {
      type: "constant"
    }
    kernel_h: 7
    kernel_w: 3
  }
}
layer {
  name: "relu_x2"
  type: "ReLU"
  bottom: "conv_x2"
  top: "conv_x2"
}
layer {
  name: "pool_x2"
  type: "Pooling"
  bottom: "conv_x2"
  top: "pool_x2"
  pooling_param {
    pool: MAX
    kernel_h: 2
    kernel_w: 1
    stride_h: 2
    stride_w: 1
  }
}
layer {
  name: "conv_x3"
  type: "Convolution"
  bottom: "pool_x2"
  top: "conv_x3"
  convolution_param {
    num_output: 28
    pad: 0
    stride: 1
    weight_filler {
      type: "xavier"
    }
    bias_filler {
      type: "constant"
    }
    kernel_h: 6
    kernel_w: 3
  }
}
layer {
  name: "relu_x3"
  type: "ReLU"
  bottom: "conv_x3"
  top: "conv_x3"
}
layer {
  name: "pool_x3"
  type: "Pooling"
  bottom: "conv_x3"
  top: "pool_x3"
  pooling_param {
    pool: MAX
    kernel_h: 2
    kernel_w: 1
    stride_h: 2
    stride_w: 1
  }
}
layer {
  name: "conv_x4"
  type: "Convolution"
  bottom: "pool_x3"
  top: "conv_x4"
  convolution_param {
    num_output: 36
    pad: 0
    stride: 1
    weight_filler {
      type: "xavier"
    }
    bias_filler {
      type: "constant"
    }
    kernel_h: 6
    kernel_w: 3
  }
}
layer {
  name: "relu_x4"
  type: "ReLU"
  bottom: "conv_x4"
  top: "conv_x4"
}
layer {
  name: "pool_x4"
  type: "Pooling"
  bottom: "conv_x4"
  top: "pool_x4"
  pooling_param {
    pool: MAX
    kernel_h: 2
    kernel_w: 1
    stride_h: 2
    stride_w: 1
  }
}
layer {
  name: "dl_x1"
  type: "InnerProduct"
  bottom: "pool_x4"
  top: "dl_x1"
  inner_product_param {
    num_output: 196
    weight_filler {
      type: "xavier"
    }
    bias_filler {
      type: "constant"
    }
  }
}
layer {
  name: "relu_x5"
  type: "ReLU"
  bottom: "dl_x1"
  top: "dl_x1"
}
layer {
  name: "drop_x1"
  type: "Dropout"
  bottom: "dl_x1"
  top: "dl_x1"
  dropout_param {
    dropout_ratio: 0.5
  }
}
layer {
  name: "conv_u1"
  type: "Convolution"
  bottom: "hits-u"
  top: "conv_u1"
  convolution_param {
    num_output: 12
    pad: 0
    stride: 1
    weight_filler {
      type: "xavier"
    }
    bias_filler {
      type: "constant"
    }
    kernel_h: 8
    kernel_w: 3
  }
}
layer {
  name: "relu_u1"
  type: "ReLU"
  bottom: "conv_u1"
  top: "conv_u1"
}
layer {
  name: "pool_u1"
  type: "Pooling"
  bottom: "conv_u1"
  top: "pool_u1"
  pooling_param {
    pool: MAX
    kernel_h: 2
    kernel_w: 1
    stride_h: 2
    stride_w: 1
  }
}
layer {
  name: "conv_u2"
  type: "Convolution"
  bottom: "pool_u1"
  top: "conv_u2"
  convolution_param {
    num_output: 20
    pad: 0
    stride: 1
    weight_filler {
      type: "xavier"
    }
    bias_filler {
      type: "constant"
    }
    kernel_h: 7
    kernel_w: 3
  }
}
layer {
  name: "relu_u2"
  type: "ReLU"
  bottom: "conv_u2"
  top: "conv_u2"
}
layer {
  name: "pool_u2"
  type: "Pooling"
  bottom: "conv_u2"
  top: "pool_u2"
  pooling_param {
    pool: MAX
    kernel_h: 2
    kernel_w: 1
    stride_h: 2
    stride_w: 1
  }
}
layer {
  name: "conv_u3"
  type: "Convolution"
  bottom: "pool_u2"
  top: "conv_u3"
  convolution_param {
    num_output: 28
    pad: 0
    stride: 1
    weight_filler {
      type: "xavier"
    }
    bias_filler {
      type: "constant"
    }
    kernel_h: 6
    kernel_w: 3
  }
}
layer {
  name: "relu_u3"
  type: "ReLU"
  bottom: "conv_u3"
  top: "conv_u3"
}
layer {
  name: "pool_u3"
  type: "Pooling"
  bottom: "conv_u3"
  top: "pool_u3"
  pooling_param {
    pool: MAX
    kernel_h: 2
    kernel_w: 1
    stride_h: 2
    stride_w: 1
  }
}
layer {
  name: "conv_u4"
  type: "Convolution"
  bottom: "pool_u3"
  top: "conv_u4"
  convolution_param {
    num_output: 36
    pad: 0
    stride: 1
    weight_filler {
      type: "xavier"
    }
    bias_filler {
      type: "constant"
    }
    kernel_h: 6
    kernel_w: 3
  }
}
layer {
  name: "relu_u4"
  type: "ReLU"
  bottom: "conv_u4"
  top: "conv_u4"
}
layer {
  name: "pool_u4"
  type: "Pooling"
  bottom: "conv_u4"
  top: "pool_u4"
  pooling_param {
    pool: MAX
    kernel_h: 2
    kernel_w: 1
    stride_h: 2
    stride_w: 1
  }
}
layer {
  name: "dl_u1"
  type: "InnerProduct"
  bottom: "pool_u4"
  top: "dl_u1"
  inner_product_param {
    num_output: 196
    weight_filler {
      type: "xavier"
    }
    bias_filler {
      type: "constant"
    }
  }
}
layer {
  name: "relu_u5"
  type: "ReLU"
  bottom: "dl_u1"
  top: "dl_u1"
}
layer {
  name: "drop_u1"
  type: "Dropout"
  bottom: "dl_u1"
  top: "dl_u1"
  dropout_param {
    dropout_ratio: 0.5
  }
}
layer {
  name: "conv_v1"
  type: "Convolution"
  bottom: "hits-v"
  top: "conv_v1"
  convolution_param {
    num_output: 12
    pad: 0
    stride: 1
    weight_filler {
      type: "xavier"
    }
    bias_filler {
      type: "constant"
    }
    kernel_h: 8
    kernel_w: 3
  }
}
layer {
  name: "relu_v1"
  type: "ReLU"
  bottom: "conv_v1"
  top: "conv_v1"
}
layer {
  name: "pool_v1"
  type: "Pooling"
  bottom: "conv_v1"
  top: "pool_v1"
  pooling_param {
    pool: MAX
    kernel_h: 2
    kernel_w: 1
    stride_h: 2
    stride_w: 1
  }
}
layer {
  name: "conv_v2"
  type: "Convolution"
  bottom: "pool_v1"
  top: "conv_v2"
  convolution_param {
    num_output: 20
    pad: 0
    stride: 1
    weight_filler {
      type: "xavier"
    }
    bias_filler {
      type: "constant"
    }
    kernel_h: 7
    kernel_w: 3
  }
}
layer {
  name: "relu_v2"
  type: "ReLU"
  bottom: "conv_v2"
  top: "conv_v2"
}
layer {
  name: "pool_v2"
  type: "Pooling"
  bottom: "conv_v2"
  top: "pool_v2"
  pooling_param {
    pool: MAX
    kernel_h: 2
    kernel_w: 1
    stride_h: 2
    stride_w: 1
  }
}
layer {
  name: "conv_v3"
  type: "Convolution"
  bottom: "pool_v2"
  top: "conv_v3"
  convolution_param {
    num_output: 28
    pad: 0
    stride: 1
    weight_filler {
      type: "xavier"
    }
    bias_filler {
      type: "constant"
    }
    kernel_h: 6
    kernel_w: 3
  }
}
layer {
  name: "relu_v3"
  type: "ReLU"
  bottom: "conv_v3"
  top: "conv_v3"
}
layer {
  name: "pool_v3"
  type: "Pooling"
  bottom: "conv_v3"
  top: "pool_v3"
  pooling_param {
    pool: MAX
    kernel_h: 2
    kernel_w: 1
    stride_h: 2
    stride_w: 1
  }
}
layer {
  name: "conv_v4"
  type: "Convolution"
  bottom: "pool_v3"
  top: "conv_v4"
  convolution_param {
    num_output: 36
    pad: 0
    stride: 1
    weight_filler {
      type: "xavier"
    }
    bias_filler {
      type: "constant"
    }
    kernel_h: 6
    kernel_w: 3
  }
}
layer {
  name: "relu_v4"
  type: "ReLU"
  bottom: "conv_v4"
  top: "conv_v4"
}
layer {
  name: "pool_v4"
  type: "Pooling"
  bottom: "conv_v4"
  top: "pool_v4"
  pooling_param {
    pool: MAX
    kernel_h: 2
    kernel_w: 1
    stride_h: 2
    stride_w: 1
  }
}
layer {
  name: "dl_v1"
  type: "InnerProduct"
  bottom: "pool_v4"
  top: "dl_v1"
  inner_product_param {
    num_output: 196
    weight_filler {
      type: "xavier"
    }
    bias_filler {
      type: "constant"
    }
  }
}
layer {
  name: "relu_v5"
  type: "ReLU"
  bottom: "dl_v1"
  top: "dl_v1"
}
layer {
  name: "drop_v1"
  type: "Dropout"
  bottom: "dl_v1"
  top: "dl_v1"
  dropout_param {
    dropout_ratio: 0.5
  }
}
layer {
  name: "concat_xuv"
  type: "Concat"
  bottom: "dl_x1"
  bottom: "dl_u1"
  bottom: "dl_v1"
  top: "concat_xuv"
  concat_param {
    axis: 1
  }
}
layer {
  name: "dl_xuv"
  type: "InnerProduct"
  bottom: "concat_xuv"
  top: "dl_xuv"
  inner_product_param {
    num_output: 98
    weight_filler {
      type: "xavier"
    }
    bias_filler {
      type: "constant"
    }
  }
}
layer {
  name: "relu_xuv"
  type: "ReLU"
  bottom: "dl_xuv"
  top: "dl_xuv"
}
layer {
  name: "drop_xuv"
  type: "Dropout"
  bottom: "dl_xuv"
  top: "dl_xuv"
  dropout_param {
    dropout_ratio: 0.5
  }
}
layer {
  name: "output"
  type: "InnerProduct"
  bottom: "dl_xuv"
  top: "output"
  inner_product_param {
    num_output: 11
    weight_filler {
      type: "xavier"
    }
    bias_filler {
      type: "constant"
    }
  }
}
layer {
  name: "drop_output"
  type: "Dropout"
  bottom: "output"
  top: "output"
  dropout_param {
    dropout_ratio: 0.5
  }
}
layer {
  name: "accuracy"
  type: "Accuracy"
  bottom: "output"
  bottom: "segments"
  top: "accuracy"
  include {
    phase: TEST
  }
}
layer {
  name: "loss"
  type: "SoftmaxWithLoss"
  bottom: "output"
  bottom: "segments"
  top: "loss"
}
I0601 15:06:35.181550 18761 layer_factory.hpp:77] Creating layer data
I0601 15:06:35.181568 18761 net.cpp:106] Creating Layer data
I0601 15:06:35.181583 18761 net.cpp:411] data -> hits-x
I0601 15:06:35.181602 18761 net.cpp:411] data -> hits-u
I0601 15:06:35.181622 18761 net.cpp:411] data -> hits-v
I0601 15:06:35.181640 18761 net.cpp:411] data -> segments
I0601 15:06:35.181658 18761 hdf5_data_layer.cpp:79] Loading list of HDF5 filenames from: /lustre/atlas/proj-shared/hep105/caffe_titan/xuv/epsilon_127x50_xuv.testlist
I0601 15:06:35.201839 18761 hdf5_data_layer.cpp:93] Number of HDF5 files: 3
I0601 15:07:39.768453 18761 net.cpp:150] Setting up data
I0601 15:07:39.768617 18761 net.cpp:157] Top shape: 100 1 127 50 (635000)
I0601 15:07:39.768636 18761 net.cpp:157] Top shape: 100 1 127 50 (635000)
I0601 15:07:39.768652 18761 net.cpp:157] Top shape: 100 1 127 50 (635000)
I0601 15:07:39.768666 18761 net.cpp:157] Top shape: 100 (100)
I0601 15:07:39.768679 18761 net.cpp:165] Memory required for data: 7620400
I0601 15:07:39.768694 18761 layer_factory.hpp:77] Creating layer segments_data_3_split
I0601 15:07:39.768728 18761 net.cpp:106] Creating Layer segments_data_3_split
I0601 15:07:39.768762 18761 net.cpp:454] segments_data_3_split <- segments
I0601 15:07:39.768780 18761 net.cpp:411] segments_data_3_split -> segments_data_3_split_0
I0601 15:07:39.768803 18761 net.cpp:411] segments_data_3_split -> segments_data_3_split_1
I0601 15:07:39.768894 18761 net.cpp:150] Setting up segments_data_3_split
I0601 15:07:39.768913 18761 net.cpp:157] Top shape: 100 (100)
I0601 15:07:39.768939 18761 net.cpp:157] Top shape: 100 (100)
I0601 15:07:39.768951 18761 net.cpp:165] Memory required for data: 7621200
I0601 15:07:39.768964 18761 layer_factory.hpp:77] Creating layer conv_x1
I0601 15:07:39.768987 18761 net.cpp:106] Creating Layer conv_x1
I0601 15:07:39.769011 18761 net.cpp:454] conv_x1 <- hits-x
I0601 15:07:39.769032 18761 net.cpp:411] conv_x1 -> conv_x1
I0601 15:07:39.771256 18761 net.cpp:150] Setting up conv_x1
I0601 15:07:39.771282 18761 net.cpp:157] Top shape: 100 12 120 48 (6912000)
I0601 15:07:39.771302 18761 net.cpp:165] Memory required for data: 35269200
I0601 15:07:39.771327 18761 layer_factory.hpp:77] Creating layer relu_x1
I0601 15:07:39.771348 18761 net.cpp:106] Creating Layer relu_x1
I0601 15:07:39.771360 18761 net.cpp:454] relu_x1 <- conv_x1
I0601 15:07:39.771387 18761 net.cpp:397] relu_x1 -> conv_x1 (in-place)
I0601 15:07:39.771914 18761 net.cpp:150] Setting up relu_x1
I0601 15:07:39.771939 18761 net.cpp:157] Top shape: 100 12 120 48 (6912000)
I0601 15:07:39.771951 18761 net.cpp:165] Memory required for data: 62917200
I0601 15:07:39.771965 18761 layer_factory.hpp:77] Creating layer pool_x1
I0601 15:07:39.771986 18761 net.cpp:106] Creating Layer pool_x1
I0601 15:07:39.772008 18761 net.cpp:454] pool_x1 <- conv_x1
I0601 15:07:39.772025 18761 net.cpp:411] pool_x1 -> pool_x1
I0601 15:07:39.772121 18761 net.cpp:150] Setting up pool_x1
I0601 15:07:39.772140 18761 net.cpp:157] Top shape: 100 12 60 48 (3456000)
I0601 15:07:39.772155 18761 net.cpp:165] Memory required for data: 76741200
I0601 15:07:39.772166 18761 layer_factory.hpp:77] Creating layer conv_x2
I0601 15:07:39.772194 18761 net.cpp:106] Creating Layer conv_x2
I0601 15:07:39.772214 18761 net.cpp:454] conv_x2 <- pool_x1
I0601 15:07:39.772231 18761 net.cpp:411] conv_x2 -> conv_x2
I0601 15:07:39.774148 18761 net.cpp:150] Setting up conv_x2
I0601 15:07:39.774173 18761 net.cpp:157] Top shape: 100 20 54 46 (4968000)
I0601 15:07:39.774194 18761 net.cpp:165] Memory required for data: 96613200
I0601 15:07:39.774216 18761 layer_factory.hpp:77] Creating layer relu_x2
I0601 15:07:39.774236 18761 net.cpp:106] Creating Layer relu_x2
I0601 15:07:39.774257 18761 net.cpp:454] relu_x2 <- conv_x2
I0601 15:07:39.774276 18761 net.cpp:397] relu_x2 -> conv_x2 (in-place)
I0601 15:07:39.774804 18761 net.cpp:150] Setting up relu_x2
I0601 15:07:39.774828 18761 net.cpp:157] Top shape: 100 20 54 46 (4968000)
I0601 15:07:39.774842 18761 net.cpp:165] Memory required for data: 116485200
I0601 15:07:39.774853 18761 layer_factory.hpp:77] Creating layer pool_x2
I0601 15:07:39.774873 18761 net.cpp:106] Creating Layer pool_x2
I0601 15:07:39.774895 18761 net.cpp:454] pool_x2 <- conv_x2
I0601 15:07:39.774912 18761 net.cpp:411] pool_x2 -> pool_x2
I0601 15:07:39.775008 18761 net.cpp:150] Setting up pool_x2
I0601 15:07:39.775027 18761 net.cpp:157] Top shape: 100 20 27 46 (2484000)
I0601 15:07:39.775040 18761 net.cpp:165] Memory required for data: 126421200
I0601 15:07:39.775053 18761 layer_factory.hpp:77] Creating layer conv_x3
I0601 15:07:39.775082 18761 net.cpp:106] Creating Layer conv_x3
I0601 15:07:39.775095 18761 net.cpp:454] conv_x3 <- pool_x2
I0601 15:07:39.775113 18761 net.cpp:411] conv_x3 -> conv_x3
I0601 15:07:39.777396 18761 net.cpp:150] Setting up conv_x3
I0601 15:07:39.777420 18761 net.cpp:157] Top shape: 100 28 22 44 (2710400)
I0601 15:07:39.777441 18761 net.cpp:165] Memory required for data: 137262800
I0601 15:07:39.777464 18761 layer_factory.hpp:77] Creating layer relu_x3
I0601 15:07:39.777485 18761 net.cpp:106] Creating Layer relu_x3
I0601 15:07:39.777506 18761 net.cpp:454] relu_x3 <- conv_x3
I0601 15:07:39.777523 18761 net.cpp:397] relu_x3 -> conv_x3 (in-place)
I0601 15:07:39.777886 18761 net.cpp:150] Setting up relu_x3
I0601 15:07:39.777906 18761 net.cpp:157] Top shape: 100 28 22 44 (2710400)
I0601 15:07:39.777920 18761 net.cpp:165] Memory required for data: 148104400
I0601 15:07:39.777931 18761 layer_factory.hpp:77] Creating layer pool_x3
I0601 15:07:39.777951 18761 net.cpp:106] Creating Layer pool_x3
I0601 15:07:39.777971 18761 net.cpp:454] pool_x3 <- conv_x3
I0601 15:07:39.777987 18761 net.cpp:411] pool_x3 -> pool_x3
I0601 15:07:39.778159 18761 net.cpp:150] Setting up pool_x3
I0601 15:07:39.778182 18761 net.cpp:157] Top shape: 100 28 11 44 (1355200)
I0601 15:07:39.778195 18761 net.cpp:165] Memory required for data: 153525200
I0601 15:07:39.778211 18761 layer_factory.hpp:77] Creating layer conv_x4
I0601 15:07:39.778239 18761 net.cpp:106] Creating Layer conv_x4
I0601 15:07:39.778251 18761 net.cpp:454] conv_x4 <- pool_x3
I0601 15:07:39.778270 18761 net.cpp:411] conv_x4 -> conv_x4
I0601 15:07:39.780474 18761 net.cpp:150] Setting up conv_x4
I0601 15:07:39.780499 18761 net.cpp:157] Top shape: 100 36 6 42 (907200)
I0601 15:07:39.780519 18761 net.cpp:165] Memory required for data: 157154000
I0601 15:07:39.780539 18761 layer_factory.hpp:77] Creating layer relu_x4
I0601 15:07:39.780560 18761 net.cpp:106] Creating Layer relu_x4
I0601 15:07:39.780572 18761 net.cpp:454] relu_x4 <- conv_x4
I0601 15:07:39.780598 18761 net.cpp:397] relu_x4 -> conv_x4 (in-place)
I0601 15:07:39.781112 18761 net.cpp:150] Setting up relu_x4
I0601 15:07:39.781136 18761 net.cpp:157] Top shape: 100 36 6 42 (907200)
I0601 15:07:39.781148 18761 net.cpp:165] Memory required for data: 160782800
I0601 15:07:39.781162 18761 layer_factory.hpp:77] Creating layer pool_x4
I0601 15:07:39.781182 18761 net.cpp:106] Creating Layer pool_x4
I0601 15:07:39.781203 18761 net.cpp:454] pool_x4 <- conv_x4
I0601 15:07:39.781220 18761 net.cpp:411] pool_x4 -> pool_x4
I0601 15:07:39.781313 18761 net.cpp:150] Setting up pool_x4
I0601 15:07:39.781330 18761 net.cpp:157] Top shape: 100 36 3 42 (453600)
I0601 15:07:39.781345 18761 net.cpp:165] Memory required for data: 162597200
I0601 15:07:39.781358 18761 layer_factory.hpp:77] Creating layer dl_x1
I0601 15:07:39.781383 18761 net.cpp:106] Creating Layer dl_x1
I0601 15:07:39.781395 18761 net.cpp:454] dl_x1 <- pool_x4
I0601 15:07:39.781412 18761 net.cpp:411] dl_x1 -> dl_x1
I0601 15:07:39.797797 18761 net.cpp:150] Setting up dl_x1
I0601 15:07:39.797830 18761 net.cpp:157] Top shape: 100 196 (19600)
I0601 15:07:39.797852 18761 net.cpp:165] Memory required for data: 162675600
I0601 15:07:39.797879 18761 layer_factory.hpp:77] Creating layer relu_x5
I0601 15:07:39.797901 18761 net.cpp:106] Creating Layer relu_x5
I0601 15:07:39.797926 18761 net.cpp:454] relu_x5 <- dl_x1
I0601 15:07:39.797945 18761 net.cpp:397] relu_x5 -> dl_x1 (in-place)
I0601 15:07:39.798331 18761 net.cpp:150] Setting up relu_x5
I0601 15:07:39.798352 18761 net.cpp:157] Top shape: 100 196 (19600)
I0601 15:07:39.798364 18761 net.cpp:165] Memory required for data: 162754000
I0601 15:07:39.798377 18761 layer_factory.hpp:77] Creating layer drop_x1
I0601 15:07:39.798409 18761 net.cpp:106] Creating Layer drop_x1
I0601 15:07:39.798424 18761 net.cpp:454] drop_x1 <- dl_x1
I0601 15:07:39.798439 18761 net.cpp:397] drop_x1 -> dl_x1 (in-place)
I0601 15:07:39.798501 18761 net.cpp:150] Setting up drop_x1
I0601 15:07:39.798518 18761 net.cpp:157] Top shape: 100 196 (19600)
I0601 15:07:39.798532 18761 net.cpp:165] Memory required for data: 162832400
I0601 15:07:39.798544 18761 layer_factory.hpp:77] Creating layer conv_u1
I0601 15:07:39.798569 18761 net.cpp:106] Creating Layer conv_u1
I0601 15:07:39.798602 18761 net.cpp:454] conv_u1 <- hits-u
I0601 15:07:39.798620 18761 net.cpp:411] conv_u1 -> conv_u1
I0601 15:07:39.800650 18761 net.cpp:150] Setting up conv_u1
I0601 15:07:39.800675 18761 net.cpp:157] Top shape: 100 12 120 48 (6912000)
I0601 15:07:39.800694 18761 net.cpp:165] Memory required for data: 190480400
I0601 15:07:39.800714 18761 layer_factory.hpp:77] Creating layer relu_u1
I0601 15:07:39.800730 18761 net.cpp:106] Creating Layer relu_u1
I0601 15:07:39.800747 18761 net.cpp:454] relu_u1 <- conv_u1
I0601 15:07:39.800775 18761 net.cpp:397] relu_u1 -> conv_u1 (in-place)
I0601 15:07:39.801122 18761 net.cpp:150] Setting up relu_u1
I0601 15:07:39.801143 18761 net.cpp:157] Top shape: 100 12 120 48 (6912000)
I0601 15:07:39.801156 18761 net.cpp:165] Memory required for data: 218128400
I0601 15:07:39.801172 18761 layer_factory.hpp:77] Creating layer pool_u1
I0601 15:07:39.801195 18761 net.cpp:106] Creating Layer pool_u1
I0601 15:07:39.801208 18761 net.cpp:454] pool_u1 <- conv_u1
I0601 15:07:39.801225 18761 net.cpp:411] pool_u1 -> pool_u1
I0601 15:07:39.801323 18761 net.cpp:150] Setting up pool_u1
I0601 15:07:39.801342 18761 net.cpp:157] Top shape: 100 12 60 48 (3456000)
I0601 15:07:39.801357 18761 net.cpp:165] Memory required for data: 231952400
I0601 15:07:39.801368 18761 layer_factory.hpp:77] Creating layer conv_u2
I0601 15:07:39.801395 18761 net.cpp:106] Creating Layer conv_u2
I0601 15:07:39.801416 18761 net.cpp:454] conv_u2 <- pool_u1
I0601 15:07:39.801434 18761 net.cpp:411] conv_u2 -> conv_u2
I0601 15:07:39.803426 18761 net.cpp:150] Setting up conv_u2
I0601 15:07:39.803450 18761 net.cpp:157] Top shape: 100 20 54 46 (4968000)
I0601 15:07:39.803472 18761 net.cpp:165] Memory required for data: 251824400
I0601 15:07:39.803491 18761 layer_factory.hpp:77] Creating layer relu_u2
I0601 15:07:39.803510 18761 net.cpp:106] Creating Layer relu_u2
I0601 15:07:39.803524 18761 net.cpp:454] relu_u2 <- conv_u2
I0601 15:07:39.803549 18761 net.cpp:397] relu_u2 -> conv_u2 (in-place)
I0601 15:07:39.804061 18761 net.cpp:150] Setting up relu_u2
I0601 15:07:39.804085 18761 net.cpp:157] Top shape: 100 20 54 46 (4968000)
I0601 15:07:39.804098 18761 net.cpp:165] Memory required for data: 271696400
I0601 15:07:39.804111 18761 layer_factory.hpp:77] Creating layer pool_u2
I0601 15:07:39.804131 18761 net.cpp:106] Creating Layer pool_u2
I0601 15:07:39.804152 18761 net.cpp:454] pool_u2 <- conv_u2
I0601 15:07:39.804170 18761 net.cpp:411] pool_u2 -> pool_u2
I0601 15:07:39.804267 18761 net.cpp:150] Setting up pool_u2
I0601 15:07:39.804285 18761 net.cpp:157] Top shape: 100 20 27 46 (2484000)
I0601 15:07:39.804299 18761 net.cpp:165] Memory required for data: 281632400
I0601 15:07:39.804311 18761 layer_factory.hpp:77] Creating layer conv_u3
I0601 15:07:39.804335 18761 net.cpp:106] Creating Layer conv_u3
I0601 15:07:39.804349 18761 net.cpp:454] conv_u3 <- pool_u2
I0601 15:07:39.804373 18761 net.cpp:411] conv_u3 -> conv_u3
I0601 15:07:39.806430 18761 net.cpp:150] Setting up conv_u3
I0601 15:07:39.806457 18761 net.cpp:157] Top shape: 100 28 22 44 (2710400)
I0601 15:07:39.806469 18761 net.cpp:165] Memory required for data: 292474000
I0601 15:07:39.806493 18761 layer_factory.hpp:77] Creating layer relu_u3
I0601 15:07:39.806509 18761 net.cpp:106] Creating Layer relu_u3
I0601 15:07:39.806531 18761 net.cpp:454] relu_u3 <- conv_u3
I0601 15:07:39.806547 18761 net.cpp:397] relu_u3 -> conv_u3 (in-place)
I0601 15:07:39.806902 18761 net.cpp:150] Setting up relu_u3
I0601 15:07:39.806922 18761 net.cpp:157] Top shape: 100 28 22 44 (2710400)
I0601 15:07:39.806936 18761 net.cpp:165] Memory required for data: 303315600
I0601 15:07:39.806947 18761 layer_factory.hpp:77] Creating layer pool_u3
I0601 15:07:39.806967 18761 net.cpp:106] Creating Layer pool_u3
I0601 15:07:39.806988 18761 net.cpp:454] pool_u3 <- conv_u3
I0601 15:07:39.807004 18761 net.cpp:411] pool_u3 -> pool_u3
I0601 15:07:39.807101 18761 net.cpp:150] Setting up pool_u3
I0601 15:07:39.807118 18761 net.cpp:157] Top shape: 100 28 11 44 (1355200)
I0601 15:07:39.807131 18761 net.cpp:165] Memory required for data: 308736400
I0601 15:07:39.807157 18761 layer_factory.hpp:77] Creating layer conv_u4
I0601 15:07:39.807184 18761 net.cpp:106] Creating Layer conv_u4
I0601 15:07:39.807199 18761 net.cpp:454] conv_u4 <- pool_u3
I0601 15:07:39.807221 18761 net.cpp:411] conv_u4 -> conv_u4
I0601 15:07:39.809437 18761 net.cpp:150] Setting up conv_u4
I0601 15:07:39.809463 18761 net.cpp:157] Top shape: 100 36 6 42 (907200)
I0601 15:07:39.809483 18761 net.cpp:165] Memory required for data: 312365200
I0601 15:07:39.809509 18761 layer_factory.hpp:77] Creating layer relu_u4
I0601 15:07:39.809528 18761 net.cpp:106] Creating Layer relu_u4
I0601 15:07:39.809551 18761 net.cpp:454] relu_u4 <- conv_u4
I0601 15:07:39.809567 18761 net.cpp:397] relu_u4 -> conv_u4 (in-place)
I0601 15:07:39.809916 18761 net.cpp:150] Setting up relu_u4
I0601 15:07:39.809937 18761 net.cpp:157] Top shape: 100 36 6 42 (907200)
I0601 15:07:39.809948 18761 net.cpp:165] Memory required for data: 315994000
I0601 15:07:39.809960 18761 layer_factory.hpp:77] Creating layer pool_u4
I0601 15:07:39.809979 18761 net.cpp:106] Creating Layer pool_u4
I0601 15:07:39.809999 18761 net.cpp:454] pool_u4 <- conv_u4
I0601 15:07:39.810016 18761 net.cpp:411] pool_u4 -> pool_u4
I0601 15:07:39.810125 18761 net.cpp:150] Setting up pool_u4
I0601 15:07:39.810147 18761 net.cpp:157] Top shape: 100 36 3 42 (453600)
I0601 15:07:39.810158 18761 net.cpp:165] Memory required for data: 317808400
I0601 15:07:39.810170 18761 layer_factory.hpp:77] Creating layer dl_u1
I0601 15:07:39.810191 18761 net.cpp:106] Creating Layer dl_u1
I0601 15:07:39.810211 18761 net.cpp:454] dl_u1 <- pool_u4
I0601 15:07:39.810228 18761 net.cpp:411] dl_u1 -> dl_u1
I0601 15:07:39.826627 18761 net.cpp:150] Setting up dl_u1
I0601 15:07:39.826659 18761 net.cpp:157] Top shape: 100 196 (19600)
I0601 15:07:39.826673 18761 net.cpp:165] Memory required for data: 317886800
I0601 15:07:39.826694 18761 layer_factory.hpp:77] Creating layer relu_u5
I0601 15:07:39.826714 18761 net.cpp:106] Creating Layer relu_u5
I0601 15:07:39.826740 18761 net.cpp:454] relu_u5 <- dl_u1
I0601 15:07:39.826757 18761 net.cpp:397] relu_u5 -> dl_u1 (in-place)
I0601 15:07:39.827360 18761 net.cpp:150] Setting up relu_u5
I0601 15:07:39.827383 18761 net.cpp:157] Top shape: 100 196 (19600)
I0601 15:07:39.827404 18761 net.cpp:165] Memory required for data: 317965200
I0601 15:07:39.827417 18761 layer_factory.hpp:77] Creating layer drop_u1
I0601 15:07:39.827433 18761 net.cpp:106] Creating Layer drop_u1
I0601 15:07:39.827450 18761 net.cpp:454] drop_u1 <- dl_u1
I0601 15:07:39.827473 18761 net.cpp:397] drop_u1 -> dl_u1 (in-place)
I0601 15:07:39.827527 18761 net.cpp:150] Setting up drop_u1
I0601 15:07:39.827546 18761 net.cpp:157] Top shape: 100 196 (19600)
I0601 15:07:39.827558 18761 net.cpp:165] Memory required for data: 318043600
I0601 15:07:39.827579 18761 layer_factory.hpp:77] Creating layer conv_v1
I0601 15:07:39.827611 18761 net.cpp:106] Creating Layer conv_v1
I0601 15:07:39.827625 18761 net.cpp:454] conv_v1 <- hits-v
I0601 15:07:39.827644 18761 net.cpp:411] conv_v1 -> conv_v1
I0601 15:07:39.829612 18761 net.cpp:150] Setting up conv_v1
I0601 15:07:39.829635 18761 net.cpp:157] Top shape: 100 12 120 48 (6912000)
I0601 15:07:39.829655 18761 net.cpp:165] Memory required for data: 345691600
I0601 15:07:39.829675 18761 layer_factory.hpp:77] Creating layer relu_v1
I0601 15:07:39.829694 18761 net.cpp:106] Creating Layer relu_v1
I0601 15:07:39.829707 18761 net.cpp:454] relu_v1 <- conv_v1
I0601 15:07:39.829733 18761 net.cpp:397] relu_v1 -> conv_v1 (in-place)
I0601 15:07:39.830092 18761 net.cpp:150] Setting up relu_v1
I0601 15:07:39.830112 18761 net.cpp:157] Top shape: 100 12 120 48 (6912000)
I0601 15:07:39.830126 18761 net.cpp:165] Memory required for data: 373339600
I0601 15:07:39.830140 18761 layer_factory.hpp:77] Creating layer pool_v1
I0601 15:07:39.830157 18761 net.cpp:106] Creating Layer pool_v1
I0601 15:07:39.830178 18761 net.cpp:454] pool_v1 <- conv_v1
I0601 15:07:39.830194 18761 net.cpp:411] pool_v1 -> pool_v1
I0601 15:07:39.830291 18761 net.cpp:150] Setting up pool_v1
I0601 15:07:39.830329 18761 net.cpp:157] Top shape: 100 12 60 48 (3456000)
I0601 15:07:39.830343 18761 net.cpp:165] Memory required for data: 387163600
I0601 15:07:39.830361 18761 layer_factory.hpp:77] Creating layer conv_v2
I0601 15:07:39.830382 18761 net.cpp:106] Creating Layer conv_v2
I0601 15:07:39.830395 18761 net.cpp:454] conv_v2 <- pool_v1
I0601 15:07:39.830412 18761 net.cpp:411] conv_v2 -> conv_v2
I0601 15:07:39.832465 18761 net.cpp:150] Setting up conv_v2
I0601 15:07:39.832489 18761 net.cpp:157] Top shape: 100 20 54 46 (4968000)
I0601 15:07:39.832510 18761 net.cpp:165] Memory required for data: 407035600
I0601 15:07:39.832530 18761 layer_factory.hpp:77] Creating layer relu_v2
I0601 15:07:39.832548 18761 net.cpp:106] Creating Layer relu_v2
I0601 15:07:39.832561 18761 net.cpp:454] relu_v2 <- conv_v2
I0601 15:07:39.832587 18761 net.cpp:397] relu_v2 -> conv_v2 (in-place)
I0601 15:07:39.833101 18761 net.cpp:150] Setting up relu_v2
I0601 15:07:39.833123 18761 net.cpp:157] Top shape: 100 20 54 46 (4968000)
I0601 15:07:39.833137 18761 net.cpp:165] Memory required for data: 426907600
I0601 15:07:39.833153 18761 layer_factory.hpp:77] Creating layer pool_v2
I0601 15:07:39.833169 18761 net.cpp:106] Creating Layer pool_v2
I0601 15:07:39.833191 18761 net.cpp:454] pool_v2 <- conv_v2
I0601 15:07:39.833207 18761 net.cpp:411] pool_v2 -> pool_v2
I0601 15:07:39.833302 18761 net.cpp:150] Setting up pool_v2
I0601 15:07:39.833320 18761 net.cpp:157] Top shape: 100 20 27 46 (2484000)
I0601 15:07:39.833334 18761 net.cpp:165] Memory required for data: 436843600
I0601 15:07:39.833346 18761 layer_factory.hpp:77] Creating layer conv_v3
I0601 15:07:39.833374 18761 net.cpp:106] Creating Layer conv_v3
I0601 15:07:39.833395 18761 net.cpp:454] conv_v3 <- pool_v2
I0601 15:07:39.833411 18761 net.cpp:411] conv_v3 -> conv_v3
I0601 15:07:39.835515 18761 net.cpp:150] Setting up conv_v3
I0601 15:07:39.835541 18761 net.cpp:157] Top shape: 100 28 22 44 (2710400)
I0601 15:07:39.835561 18761 net.cpp:165] Memory required for data: 447685200
I0601 15:07:39.835579 18761 layer_factory.hpp:77] Creating layer relu_v3
I0601 15:07:39.835595 18761 net.cpp:106] Creating Layer relu_v3
I0601 15:07:39.835611 18761 net.cpp:454] relu_v3 <- conv_v3
I0601 15:07:39.835635 18761 net.cpp:397] relu_v3 -> conv_v3 (in-place)
I0601 15:07:39.836148 18761 net.cpp:150] Setting up relu_v3
I0601 15:07:39.836171 18761 net.cpp:157] Top shape: 100 28 22 44 (2710400)
I0601 15:07:39.836184 18761 net.cpp:165] Memory required for data: 458526800
I0601 15:07:39.836196 18761 layer_factory.hpp:77] Creating layer pool_v3
I0601 15:07:39.836215 18761 net.cpp:106] Creating Layer pool_v3
I0601 15:07:39.836236 18761 net.cpp:454] pool_v3 <- conv_v3
I0601 15:07:39.836254 18761 net.cpp:411] pool_v3 -> pool_v3
I0601 15:07:39.836352 18761 net.cpp:150] Setting up pool_v3
I0601 15:07:39.836370 18761 net.cpp:157] Top shape: 100 28 11 44 (1355200)
I0601 15:07:39.836385 18761 net.cpp:165] Memory required for data: 463947600
I0601 15:07:39.836396 18761 layer_factory.hpp:77] Creating layer conv_v4
I0601 15:07:39.836419 18761 net.cpp:106] Creating Layer conv_v4
I0601 15:07:39.836439 18761 net.cpp:454] conv_v4 <- pool_v3
I0601 15:07:39.836457 18761 net.cpp:411] conv_v4 -> conv_v4
I0601 15:07:39.838673 18761 net.cpp:150] Setting up conv_v4
I0601 15:07:39.838698 18761 net.cpp:157] Top shape: 100 36 6 42 (907200)
I0601 15:07:39.838711 18761 net.cpp:165] Memory required for data: 467576400
I0601 15:07:39.838731 18761 layer_factory.hpp:77] Creating layer relu_v4
I0601 15:07:39.838750 18761 net.cpp:106] Creating Layer relu_v4
I0601 15:07:39.838773 18761 net.cpp:454] relu_v4 <- conv_v4
I0601 15:07:39.838789 18761 net.cpp:397] relu_v4 -> conv_v4 (in-place)
I0601 15:07:39.839138 18761 net.cpp:150] Setting up relu_v4
I0601 15:07:39.839159 18761 net.cpp:157] Top shape: 100 36 6 42 (907200)
I0601 15:07:39.839171 18761 net.cpp:165] Memory required for data: 471205200
I0601 15:07:39.839184 18761 layer_factory.hpp:77] Creating layer pool_v4
I0601 15:07:39.839202 18761 net.cpp:106] Creating Layer pool_v4
I0601 15:07:39.839234 18761 net.cpp:454] pool_v4 <- conv_v4
I0601 15:07:39.839258 18761 net.cpp:411] pool_v4 -> pool_v4
I0601 15:07:39.839352 18761 net.cpp:150] Setting up pool_v4
I0601 15:07:39.839370 18761 net.cpp:157] Top shape: 100 36 3 42 (453600)
I0601 15:07:39.839385 18761 net.cpp:165] Memory required for data: 473019600
I0601 15:07:39.839396 18761 layer_factory.hpp:77] Creating layer dl_v1
I0601 15:07:39.839421 18761 net.cpp:106] Creating Layer dl_v1
I0601 15:07:39.839442 18761 net.cpp:454] dl_v1 <- pool_v4
I0601 15:07:39.839458 18761 net.cpp:411] dl_v1 -> dl_v1
I0601 15:07:39.855991 18761 net.cpp:150] Setting up dl_v1
I0601 15:07:39.856021 18761 net.cpp:157] Top shape: 100 196 (19600)
I0601 15:07:39.856043 18761 net.cpp:165] Memory required for data: 473098000
I0601 15:07:39.856063 18761 layer_factory.hpp:77] Creating layer relu_v5
I0601 15:07:39.856081 18761 net.cpp:106] Creating Layer relu_v5
I0601 15:07:39.856098 18761 net.cpp:454] relu_v5 <- dl_v1
I0601 15:07:39.856125 18761 net.cpp:397] relu_v5 -> dl_v1 (in-place)
I0601 15:07:39.856734 18761 net.cpp:150] Setting up relu_v5
I0601 15:07:39.856758 18761 net.cpp:157] Top shape: 100 196 (19600)
I0601 15:07:39.856778 18761 net.cpp:165] Memory required for data: 473176400
I0601 15:07:39.856791 18761 layer_factory.hpp:77] Creating layer drop_v1
I0601 15:07:39.856808 18761 net.cpp:106] Creating Layer drop_v1
I0601 15:07:39.856824 18761 net.cpp:454] drop_v1 <- dl_v1
I0601 15:07:39.856848 18761 net.cpp:397] drop_v1 -> dl_v1 (in-place)
I0601 15:07:39.856904 18761 net.cpp:150] Setting up drop_v1
I0601 15:07:39.856923 18761 net.cpp:157] Top shape: 100 196 (19600)
I0601 15:07:39.856941 18761 net.cpp:165] Memory required for data: 473254800
I0601 15:07:39.856956 18761 layer_factory.hpp:77] Creating layer concat_xuv
I0601 15:07:39.856972 18761 net.cpp:106] Creating Layer concat_xuv
I0601 15:07:39.856986 18761 net.cpp:454] concat_xuv <- dl_x1
I0601 15:07:39.856999 18761 net.cpp:454] concat_xuv <- dl_u1
I0601 15:07:39.857017 18761 net.cpp:454] concat_xuv <- dl_v1
I0601 15:07:39.857038 18761 net.cpp:411] concat_xuv -> concat_xuv
I0601 15:07:39.857095 18761 net.cpp:150] Setting up concat_xuv
I0601 15:07:39.857110 18761 net.cpp:157] Top shape: 100 588 (58800)
I0601 15:07:39.857131 18761 net.cpp:165] Memory required for data: 473490000
I0601 15:07:39.857143 18761 layer_factory.hpp:77] Creating layer dl_xuv
I0601 15:07:39.857162 18761 net.cpp:106] Creating Layer dl_xuv
I0601 15:07:39.857175 18761 net.cpp:454] dl_xuv <- concat_xuv
I0601 15:07:39.857194 18761 net.cpp:411] dl_xuv -> dl_xuv
I0601 15:07:39.858330 18761 net.cpp:150] Setting up dl_xuv
I0601 15:07:39.858348 18761 net.cpp:157] Top shape: 100 98 (9800)
I0601 15:07:39.858362 18761 net.cpp:165] Memory required for data: 473529200
I0601 15:07:39.858381 18761 layer_factory.hpp:77] Creating layer relu_xuv
I0601 15:07:39.858399 18761 net.cpp:106] Creating Layer relu_xuv
I0601 15:07:39.858419 18761 net.cpp:454] relu_xuv <- dl_xuv
I0601 15:07:39.858436 18761 net.cpp:397] relu_xuv -> dl_xuv (in-place)
I0601 15:07:39.858785 18761 net.cpp:150] Setting up relu_xuv
I0601 15:07:39.858805 18761 net.cpp:157] Top shape: 100 98 (9800)
I0601 15:07:39.858819 18761 net.cpp:165] Memory required for data: 473568400
I0601 15:07:39.858830 18761 layer_factory.hpp:77] Creating layer drop_xuv
I0601 15:07:39.858850 18761 net.cpp:106] Creating Layer drop_xuv
I0601 15:07:39.858870 18761 net.cpp:454] drop_xuv <- dl_xuv
I0601 15:07:39.858887 18761 net.cpp:397] drop_xuv -> dl_xuv (in-place)
I0601 15:07:39.858943 18761 net.cpp:150] Setting up drop_xuv
I0601 15:07:39.858963 18761 net.cpp:157] Top shape: 100 98 (9800)
I0601 15:07:39.858981 18761 net.cpp:165] Memory required for data: 473607600
I0601 15:07:39.858994 18761 layer_factory.hpp:77] Creating layer output
I0601 15:07:39.859010 18761 net.cpp:106] Creating Layer output
I0601 15:07:39.859024 18761 net.cpp:454] output <- dl_xuv
I0601 15:07:39.859040 18761 net.cpp:411] output -> output
I0601 15:07:39.859310 18761 net.cpp:150] Setting up output
I0601 15:07:39.859329 18761 net.cpp:157] Top shape: 100 11 (1100)
I0601 15:07:39.859354 18761 net.cpp:165] Memory required for data: 473612000
I0601 15:07:39.859400 18761 layer_factory.hpp:77] Creating layer drop_output
I0601 15:07:39.859417 18761 net.cpp:106] Creating Layer drop_output
I0601 15:07:39.859429 18761 net.cpp:454] drop_output <- output
I0601 15:07:39.859447 18761 net.cpp:397] drop_output -> output (in-place)
I0601 15:07:39.859504 18761 net.cpp:150] Setting up drop_output
I0601 15:07:39.859520 18761 net.cpp:157] Top shape: 100 11 (1100)
I0601 15:07:39.859536 18761 net.cpp:165] Memory required for data: 473616400
I0601 15:07:39.859549 18761 layer_factory.hpp:77] Creating layer output_drop_output_0_split
I0601 15:07:39.859571 18761 net.cpp:106] Creating Layer output_drop_output_0_split
I0601 15:07:39.859585 18761 net.cpp:454] output_drop_output_0_split <- output
I0601 15:07:39.859606 18761 net.cpp:411] output_drop_output_0_split -> output_drop_output_0_split_0
I0601 15:07:39.859624 18761 net.cpp:411] output_drop_output_0_split -> output_drop_output_0_split_1
I0601 15:07:39.859714 18761 net.cpp:150] Setting up output_drop_output_0_split
I0601 15:07:39.859735 18761 net.cpp:157] Top shape: 100 11 (1100)
I0601 15:07:39.859748 18761 net.cpp:157] Top shape: 100 11 (1100)
I0601 15:07:39.859769 18761 net.cpp:165] Memory required for data: 473625200
I0601 15:07:39.859781 18761 layer_factory.hpp:77] Creating layer accuracy
I0601 15:07:39.859808 18761 net.cpp:106] Creating Layer accuracy
I0601 15:07:39.859822 18761 net.cpp:454] accuracy <- output_drop_output_0_split_0
I0601 15:07:39.859838 18761 net.cpp:454] accuracy <- segments_data_3_split_0
I0601 15:07:39.859854 18761 net.cpp:411] accuracy -> accuracy
…
