…
I0531 19:27:53.037065 25822 net.cpp:322] The NetState phase (0) differed from the phase (1) specified by a rule in layer data
I0531 19:27:53.037153 25822 net.cpp:322] The NetState phase (0) differed from the phase (1) specified by a rule in layer accuracy
I0531 19:27:53.037900 25822 net.cpp:49] Initializing net from parameters: 
name: "epsilon_127x50_xuv"
state {
  phase: TRAIN
}
layer {
  name: "data"
  type: "HDF5Data"
  top: "hits-x"
  top: "hits-u"
  top: "hits-v"
  top: "segments"
  include {
    phase: TRAIN
  }
  hdf5_data_param {
    source: "/lustre/atlas/proj-shared/hep105/caffe_titan/xuv/epsilon_127x50_xuv.trainlist"
    batch_size: 100
  }
}
layer {
  name: "conv_x1"
  type: "Convolution"
  bottom: "hits-x"
  top: "conv_x1"
  convolution_param {
    num_output: 12
    pad: 0
    stride: 1
    weight_filler {
      type: "xavier"
    }
    bias_filler {
      type: "constant"
    }
    kernel_h: 8
    kernel_w: 3
  }
}
layer {
  name: "relu_x1"
  type: "ReLU"
  bottom: "conv_x1"
  top: "conv_x1"
}
layer {
  name: "pool_x1"
  type: "Pooling"
  bottom: "conv_x1"
  top: "pool_x1"
  pooling_param {
    pool: MAX
    kernel_h: 2
    kernel_w: 1
    stride_h: 2
    stride_w: 1
  }
}
layer {
  name: "conv_x2"
  type: "Convolution"
  bottom: "pool_x1"
  top: "conv_x2"
  convolution_param {
    num_output: 20
    pad: 0
    stride: 1
    weight_filler {
      type: "xavier"
    }
    bias_filler {
      type: "constant"
    }
    kernel_h: 7
    kernel_w: 3
  }
}
layer {
  name: "relu_x2"
  type: "ReLU"
  bottom: "conv_x2"
  top: "conv_x2"
}
layer {
  name: "pool_x2"
  type: "Pooling"
  bottom: "conv_x2"
  top: "pool_x2"
  pooling_param {
    pool: MAX
    kernel_h: 2
    kernel_w: 1
    stride_h: 2
    stride_w: 1
  }
}
layer {
  name: "conv_x3"
  type: "Convolution"
  bottom: "pool_x2"
  top: "conv_x3"
  convolution_param {
    num_output: 28
    pad: 0
    stride: 1
    weight_filler {
      type: "xavier"
    }
    bias_filler {
      type: "constant"
    }
    kernel_h: 6
    kernel_w: 3
  }
}
layer {
  name: "relu_x3"
  type: "ReLU"
  bottom: "conv_x3"
  top: "conv_x3"
}
layer {
  name: "pool_x3"
  type: "Pooling"
  bottom: "conv_x3"
  top: "pool_x3"
  pooling_param {
    pool: MAX
    kernel_h: 2
    kernel_w: 1
    stride_h: 2
    stride_w: 1
  }
}
layer {
  name: "conv_x4"
  type: "Convolution"
  bottom: "pool_x3"
  top: "conv_x4"
  convolution_param {
    num_output: 36
    pad: 0
    stride: 1
    weight_filler {
      type: "xavier"
    }
    bias_filler {
      type: "constant"
    }
    kernel_h: 6
    kernel_w: 3
  }
}
layer {
  name: "relu_x4"
  type: "ReLU"
  bottom: "conv_x4"
  top: "conv_x4"
}
layer {
  name: "pool_x4"
  type: "Pooling"
  bottom: "conv_x4"
  top: "pool_x4"
  pooling_param {
    pool: MAX
    kernel_h: 2
    kernel_w: 1
    stride_h: 2
    stride_w: 1
  }
}
layer {
  name: "dl_x1"
  type: "InnerProduct"
  bottom: "pool_x4"
  top: "dl_x1"
  inner_product_param {
    num_output: 196
    weight_filler {
      type: "xavier"
    }
    bias_filler {
      type: "constant"
    }
  }
}
layer {
  name: "relu_x5"
  type: "ReLU"
  bottom: "dl_x1"
  top: "dl_x1"
}
layer {
  name: "drop_x1"
  type: "Dropout"
  bottom: "dl_x1"
  top: "dl_x1"
  dropout_param {
    dropout_ratio: 0.5
  }
}
layer {
  name: "conv_u1"
  type: "Convolution"
  bottom: "hits-u"
  top: "conv_u1"
  convolution_param {
    num_output: 12
    pad: 0
    stride: 1
    weight_filler {
      type: "xavier"
    }
    bias_filler {
      type: "constant"
    }
    kernel_h: 8
    kernel_w: 3
  }
}
layer {
  name: "relu_u1"
  type: "ReLU"
  bottom: "conv_u1"
  top: "conv_u1"
}
layer {
  name: "pool_u1"
  type: "Pooling"
  bottom: "conv_u1"
  top: "pool_u1"
  pooling_param {
    pool: MAX
    kernel_h: 2
    kernel_w: 1
    stride_h: 2
    stride_w: 1
  }
}
layer {
  name: "conv_u2"
  type: "Convolution"
  bottom: "pool_u1"
  top: "conv_u2"
  convolution_param {
    num_output: 20
    pad: 0
    stride: 1
    weight_filler {
      type: "xavier"
    }
    bias_filler {
      type: "constant"
    }
    kernel_h: 7
    kernel_w: 3
  }
}
layer {
  name: "relu_u2"
  type: "ReLU"
  bottom: "conv_u2"
  top: "conv_u2"
}
layer {
  name: "pool_u2"
  type: "Pooling"
  bottom: "conv_u2"
  top: "pool_u2"
  pooling_param {
    pool: MAX
    kernel_h: 2
    kernel_w: 1
    stride_h: 2
    stride_w: 1
  }
}
layer {
  name: "conv_u3"
  type: "Convolution"
  bottom: "pool_u2"
  top: "conv_u3"
  convolution_param {
    num_output: 28
    pad: 0
    stride: 1
    weight_filler {
      type: "xavier"
    }
    bias_filler {
      type: "constant"
    }
    kernel_h: 6
    kernel_w: 3
  }
}
layer {
  name: "relu_u3"
  type: "ReLU"
  bottom: "conv_u3"
  top: "conv_u3"
}
layer {
  name: "pool_u3"
  type: "Pooling"
  bottom: "conv_u3"
  top: "pool_u3"
  pooling_param {
    pool: MAX
    kernel_h: 2
    kernel_w: 1
    stride_h: 2
    stride_w: 1
  }
}
layer {
  name: "conv_u4"
  type: "Convolution"
  bottom: "pool_u3"
  top: "conv_u4"
  convolution_param {
    num_output: 36
    pad: 0
    stride: 1
    weight_filler {
      type: "xavier"
    }
    bias_filler {
      type: "constant"
    }
    kernel_h: 6
    kernel_w: 3
  }
}
layer {
  name: "relu_u4"
  type: "ReLU"
  bottom: "conv_u4"
  top: "conv_u4"
}
layer {
  name: "pool_u4"
  type: "Pooling"
  bottom: "conv_u4"
  top: "pool_u4"
  pooling_param {
    pool: MAX
    kernel_h: 2
    kernel_w: 1
    stride_h: 2
    stride_w: 1
  }
}
layer {
  name: "dl_u1"
  type: "InnerProduct"
  bottom: "pool_u4"
  top: "dl_u1"
  inner_product_param {
    num_output: 196
    weight_filler {
      type: "xavier"
    }
    bias_filler {
      type: "constant"
    }
  }
}
layer {
  name: "relu_u5"
  type: "ReLU"
  bottom: "dl_u1"
  top: "dl_u1"
}
layer {
  name: "drop_u1"
  type: "Dropout"
  bottom: "dl_u1"
  top: "dl_u1"
  dropout_param {
    dropout_ratio: 0.5
  }
}
layer {
  name: "conv_v1"
  type: "Convolution"
  bottom: "hits-v"
  top: "conv_v1"
  convolution_param {
    num_output: 12
    pad: 0
    stride: 1
    weight_filler {
      type: "xavier"
    }
    bias_filler {
      type: "constant"
    }
    kernel_h: 8
    kernel_w: 3
  }
}
layer {
  name: "relu_v1"
  type: "ReLU"
  bottom: "conv_v1"
  top: "conv_v1"
}
layer {
  name: "pool_v1"
  type: "Pooling"
  bottom: "conv_v1"
  top: "pool_v1"
  pooling_param {
    pool: MAX
    kernel_h: 2
    kernel_w: 1
    stride_h: 2
    stride_w: 1
  }
}
layer {
  name: "conv_v2"
  type: "Convolution"
  bottom: "pool_v1"
  top: "conv_v2"
  convolution_param {
    num_output: 20
    pad: 0
    stride: 1
    weight_filler {
      type: "xavier"
    }
    bias_filler {
      type: "constant"
    }
    kernel_h: 7
    kernel_w: 3
  }
}
layer {
  name: "relu_v2"
  type: "ReLU"
  bottom: "conv_v2"
  top: "conv_v2"
}
layer {
  name: "pool_v2"
  type: "Pooling"
  bottom: "conv_v2"
  top: "pool_v2"
  pooling_param {
    pool: MAX
    kernel_h: 2
    kernel_w: 1
    stride_h: 2
    stride_w: 1
  }
}
layer {
  name: "conv_v3"
  type: "Convolution"
  bottom: "pool_v2"
  top: "conv_v3"
  convolution_param {
    num_output: 28
    pad: 0
    stride: 1
    weight_filler {
      type: "xavier"
    }
    bias_filler {
      type: "constant"
    }
    kernel_h: 6
    kernel_w: 3
  }
}
layer {
  name: "relu_v3"
  type: "ReLU"
  bottom: "conv_v3"
  top: "conv_v3"
}
layer {
  name: "pool_v3"
  type: "Pooling"
  bottom: "conv_v3"
  top: "pool_v3"
  pooling_param {
    pool: MAX
    kernel_h: 2
    kernel_w: 1
    stride_h: 2
    stride_w: 1
  }
}
layer {
  name: "conv_v4"
  type: "Convolution"
  bottom: "pool_v3"
  top: "conv_v4"
  convolution_param {
    num_output: 36
    pad: 0
    stride: 1
    weight_filler {
      type: "xavier"
    }
    bias_filler {
      type: "constant"
    }
    kernel_h: 6
    kernel_w: 3
  }
}
layer {
  name: "relu_v4"
  type: "ReLU"
  bottom: "conv_v4"
  top: "conv_v4"
}
layer {
  name: "pool_v4"
  type: "Pooling"
  bottom: "conv_v4"
  top: "pool_v4"
  pooling_param {
    pool: MAX
    kernel_h: 2
    kernel_w: 1
    stride_h: 2
    stride_w: 1
  }
}
layer {
  name: "dl_v1"
  type: "InnerProduct"
  bottom: "pool_v4"
  top: "dl_v1"
  inner_product_param {
    num_output: 196
    weight_filler {
      type: "xavier"
    }
    bias_filler {
      type: "constant"
    }
  }
}
layer {
  name: "relu_v5"
  type: "ReLU"
  bottom: "dl_v1"
  top: "dl_v1"
}
layer {
  name: "drop_v1"
  type: "Dropout"
  bottom: "dl_v1"
  top: "dl_v1"
  dropout_param {
    dropout_ratio: 0.5
  }
}
layer {
  name: "concat_xuv"
  type: "Concat"
  bottom: "dl_x1"
  bottom: "dl_u1"
  bottom: "dl_v1"
  top: "concat_xuv"
  concat_param {
    axis: 1
  }
}
layer {
  name: "dl_xuv"
  type: "InnerProduct"
  bottom: "concat_xuv"
  top: "dl_xuv"
  inner_product_param {
    num_output: 98
    weight_filler {
      type: "xavier"
    }
    bias_filler {
      type: "constant"
    }
  }
}
layer {
  name: "relu_xuv"
  type: "ReLU"
  bottom: "dl_xuv"
  top: "dl_xuv"
}
layer {
  name: "drop_xuv"
  type: "Dropout"
  bottom: "dl_xuv"
  top: "dl_xuv"
  dropout_param {
    dropout_ratio: 0.5
  }
}
layer {
  name: "output"
  type: "InnerProduct"
  bottom: "dl_xuv"
  top: "output"
  inner_product_param {
    num_output: 11
    weight_filler {
      type: "xavier"
    }
    bias_filler {
      type: "constant"
    }
  }
}
layer {
  name: "drop_output"
  type: "Dropout"
  bottom: "output"
  top: "output"
  dropout_param {
    dropout_ratio: 0.5
  }
}
layer {
  name: "loss"
  type: "SoftmaxWithLoss"
  bottom: "output"
  bottom: "segments"
  top: "loss"
}
I0531 19:27:53.038255 25822 layer_factory.hpp:77] Creating layer data
I0531 19:27:53.038280 25822 net.cpp:106] Creating Layer data
I0531 19:27:53.038293 25822 net.cpp:411] data -> hits-x
I0531 19:27:53.038327 25822 net.cpp:411] data -> hits-u
I0531 19:27:53.038349 25822 net.cpp:411] data -> hits-v
I0531 19:27:53.038364 25822 net.cpp:411] data -> segments
I0531 19:27:53.038391 25822 hdf5_data_layer.cpp:79] Loading list of HDF5 filenames from: /lustre/atlas/proj-shared/hep105/caffe_titan/xuv/epsilon_127x50_xuv.trainlist
I0531 19:27:53.054078 25822 hdf5_data_layer.cpp:93] Number of HDF5 files: 15
I0531 19:27:53.092636 25822 hdf5.cpp:32] Datatype class: H5T_FLOAT
I0531 19:28:57.191547 25822 hdf5.cpp:35] Datatype class: H5T_INTEGER
I0531 19:28:57.197248 25822 net.cpp:150] Setting up data
I0531 19:28:57.197289 25822 net.cpp:157] Top shape: 100 1 127 50 (635000)
I0531 19:28:57.197304 25822 net.cpp:157] Top shape: 100 1 127 50 (635000)
I0531 19:28:57.197319 25822 net.cpp:157] Top shape: 100 1 127 50 (635000)
I0531 19:28:57.197330 25822 net.cpp:157] Top shape: 100 (100)
I0531 19:28:57.197340 25822 net.cpp:165] Memory required for data: 7620400
I0531 19:28:57.197353 25822 layer_factory.hpp:77] Creating layer conv_x1
I0531 19:28:57.197386 25822 net.cpp:106] Creating Layer conv_x1
I0531 19:28:57.197397 25822 net.cpp:454] conv_x1 <- hits-x
I0531 19:28:57.197419 25822 net.cpp:411] conv_x1 -> conv_x1
I0531 19:29:00.478714 25822 net.cpp:150] Setting up conv_x1
I0531 19:29:00.478760 25822 net.cpp:157] Top shape: 100 12 120 48 (6912000)
I0531 19:29:00.478770 25822 net.cpp:165] Memory required for data: 35268400
I0531 19:29:00.478801 25822 layer_factory.hpp:77] Creating layer relu_x1
I0531 19:29:00.478823 25822 net.cpp:106] Creating Layer relu_x1
I0531 19:29:00.478834 25822 net.cpp:454] relu_x1 <- conv_x1
I0531 19:29:00.478848 25822 net.cpp:397] relu_x1 -> conv_x1 (in-place)
I0531 19:29:00.479367 25822 net.cpp:150] Setting up relu_x1
I0531 19:29:00.479384 25822 net.cpp:157] Top shape: 100 12 120 48 (6912000)
I0531 19:29:00.479395 25822 net.cpp:165] Memory required for data: 62916400
I0531 19:29:00.479405 25822 layer_factory.hpp:77] Creating layer pool_x1
I0531 19:29:00.479423 25822 net.cpp:106] Creating Layer pool_x1
I0531 19:29:00.479434 25822 net.cpp:454] pool_x1 <- conv_x1
I0531 19:29:00.479447 25822 net.cpp:411] pool_x1 -> pool_x1
I0531 19:29:00.479528 25822 net.cpp:150] Setting up pool_x1
I0531 19:29:00.479542 25822 net.cpp:157] Top shape: 100 12 60 48 (3456000)
I0531 19:29:00.479550 25822 net.cpp:165] Memory required for data: 76740400
I0531 19:29:00.479562 25822 layer_factory.hpp:77] Creating layer conv_x2
I0531 19:29:00.479583 25822 net.cpp:106] Creating Layer conv_x2
I0531 19:29:00.479593 25822 net.cpp:454] conv_x2 <- pool_x1
I0531 19:29:00.479607 25822 net.cpp:411] conv_x2 -> conv_x2
I0531 19:29:00.482308 25822 net.cpp:150] Setting up conv_x2
I0531 19:29:00.482336 25822 net.cpp:157] Top shape: 100 20 54 46 (4968000)
I0531 19:29:00.482348 25822 net.cpp:165] Memory required for data: 96612400
I0531 19:29:00.482368 25822 layer_factory.hpp:77] Creating layer relu_x2
I0531 19:29:00.482383 25822 net.cpp:106] Creating Layer relu_x2
I0531 19:29:00.482393 25822 net.cpp:454] relu_x2 <- conv_x2
I0531 19:29:00.482406 25822 net.cpp:397] relu_x2 -> conv_x2 (in-place)
I0531 19:29:00.482734 25822 net.cpp:150] Setting up relu_x2
I0531 19:29:00.482748 25822 net.cpp:157] Top shape: 100 20 54 46 (4968000)
I0531 19:29:00.482758 25822 net.cpp:165] Memory required for data: 116484400
I0531 19:29:00.482769 25822 layer_factory.hpp:77] Creating layer pool_x2
I0531 19:29:00.482781 25822 net.cpp:106] Creating Layer pool_x2
I0531 19:29:00.482791 25822 net.cpp:454] pool_x2 <- conv_x2
I0531 19:29:00.482805 25822 net.cpp:411] pool_x2 -> pool_x2
I0531 19:29:00.482872 25822 net.cpp:150] Setting up pool_x2
I0531 19:29:00.482885 25822 net.cpp:157] Top shape: 100 20 27 46 (2484000)
I0531 19:29:00.482895 25822 net.cpp:165] Memory required for data: 126420400
I0531 19:29:00.482905 25822 layer_factory.hpp:77] Creating layer conv_x3
I0531 19:29:00.482923 25822 net.cpp:106] Creating Layer conv_x3
I0531 19:29:00.482933 25822 net.cpp:454] conv_x3 <- pool_x2
I0531 19:29:00.482947 25822 net.cpp:411] conv_x3 -> conv_x3
I0531 19:29:00.484861 25822 net.cpp:150] Setting up conv_x3
I0531 19:29:00.484886 25822 net.cpp:157] Top shape: 100 28 22 44 (2710400)
I0531 19:29:00.484897 25822 net.cpp:165] Memory required for data: 137262000
I0531 19:29:00.484916 25822 layer_factory.hpp:77] Creating layer relu_x3
I0531 19:29:00.484942 25822 net.cpp:106] Creating Layer relu_x3
I0531 19:29:00.484952 25822 net.cpp:454] relu_x3 <- conv_x3
I0531 19:29:00.484966 25822 net.cpp:397] relu_x3 -> conv_x3 (in-place)
I0531 19:29:00.485437 25822 net.cpp:150] Setting up relu_x3
I0531 19:29:00.485455 25822 net.cpp:157] Top shape: 100 28 22 44 (2710400)
I0531 19:29:00.485476 25822 net.cpp:165] Memory required for data: 148103600
I0531 19:29:00.485486 25822 layer_factory.hpp:77] Creating layer pool_x3
I0531 19:29:00.485499 25822 net.cpp:106] Creating Layer pool_x3
I0531 19:29:00.485509 25822 net.cpp:454] pool_x3 <- conv_x3
I0531 19:29:00.485523 25822 net.cpp:411] pool_x3 -> pool_x3
I0531 19:29:00.485592 25822 net.cpp:150] Setting up pool_x3
I0531 19:29:00.485605 25822 net.cpp:157] Top shape: 100 28 11 44 (1355200)
I0531 19:29:00.485616 25822 net.cpp:165] Memory required for data: 153524400
I0531 19:29:00.485627 25822 layer_factory.hpp:77] Creating layer conv_x4
I0531 19:29:00.485644 25822 net.cpp:106] Creating Layer conv_x4
I0531 19:29:00.485654 25822 net.cpp:454] conv_x4 <- pool_x3
I0531 19:29:00.485668 25822 net.cpp:411] conv_x4 -> conv_x4
I0531 19:29:00.488642 25822 net.cpp:150] Setting up conv_x4
I0531 19:29:00.488672 25822 net.cpp:157] Top shape: 100 36 6 42 (907200)
I0531 19:29:00.488682 25822 net.cpp:165] Memory required for data: 157153200
I0531 19:29:00.488698 25822 layer_factory.hpp:77] Creating layer relu_x4
I0531 19:29:00.488713 25822 net.cpp:106] Creating Layer relu_x4
I0531 19:29:00.488723 25822 net.cpp:454] relu_x4 <- conv_x4
I0531 19:29:00.488736 25822 net.cpp:397] relu_x4 -> conv_x4 (in-place)
I0531 19:29:00.489213 25822 net.cpp:150] Setting up relu_x4
I0531 19:29:00.489230 25822 net.cpp:157] Top shape: 100 36 6 42 (907200)
I0531 19:29:00.489240 25822 net.cpp:165] Memory required for data: 160782000
I0531 19:29:00.489251 25822 layer_factory.hpp:77] Creating layer pool_x4
I0531 19:29:00.489264 25822 net.cpp:106] Creating Layer pool_x4
I0531 19:29:00.489274 25822 net.cpp:454] pool_x4 <- conv_x4
I0531 19:29:00.489289 25822 net.cpp:411] pool_x4 -> pool_x4
I0531 19:29:00.489358 25822 net.cpp:150] Setting up pool_x4
I0531 19:29:00.489372 25822 net.cpp:157] Top shape: 100 36 3 42 (453600)
I0531 19:29:00.489382 25822 net.cpp:165] Memory required for data: 162596400
I0531 19:29:00.489392 25822 layer_factory.hpp:77] Creating layer dl_x1
I0531 19:29:00.489409 25822 net.cpp:106] Creating Layer dl_x1
I0531 19:29:00.489420 25822 net.cpp:454] dl_x1 <- pool_x4
I0531 19:29:00.489435 25822 net.cpp:411] dl_x1 -> dl_x1
I0531 19:29:00.504878 25822 net.cpp:150] Setting up dl_x1
I0531 19:29:00.504906 25822 net.cpp:157] Top shape: 100 196 (19600)
I0531 19:29:00.504917 25822 net.cpp:165] Memory required for data: 162674800
I0531 19:29:00.504945 25822 layer_factory.hpp:77] Creating layer relu_x5
I0531 19:29:00.504961 25822 net.cpp:106] Creating Layer relu_x5
I0531 19:29:00.504971 25822 net.cpp:454] relu_x5 <- dl_x1
I0531 19:29:00.504986 25822 net.cpp:397] relu_x5 -> dl_x1 (in-place)
I0531 19:29:00.505329 25822 net.cpp:150] Setting up relu_x5
I0531 19:29:00.505343 25822 net.cpp:157] Top shape: 100 196 (19600)
I0531 19:29:00.505353 25822 net.cpp:165] Memory required for data: 162753200
I0531 19:29:00.505362 25822 layer_factory.hpp:77] Creating layer drop_x1
I0531 19:29:00.505385 25822 net.cpp:106] Creating Layer drop_x1
I0531 19:29:00.505395 25822 net.cpp:454] drop_x1 <- dl_x1
I0531 19:29:00.505409 25822 net.cpp:397] drop_x1 -> dl_x1 (in-place)
I0531 19:29:00.505453 25822 net.cpp:150] Setting up drop_x1
I0531 19:29:00.505466 25822 net.cpp:157] Top shape: 100 196 (19600)
I0531 19:29:00.505476 25822 net.cpp:165] Memory required for data: 162831600
I0531 19:29:00.505486 25822 layer_factory.hpp:77] Creating layer conv_u1
I0531 19:29:00.505509 25822 net.cpp:106] Creating Layer conv_u1
I0531 19:29:00.505520 25822 net.cpp:454] conv_u1 <- hits-u
I0531 19:29:00.505533 25822 net.cpp:411] conv_u1 -> conv_u1
I0531 19:29:00.507357 25822 net.cpp:150] Setting up conv_u1
I0531 19:29:00.507380 25822 net.cpp:157] Top shape: 100 12 120 48 (6912000)
I0531 19:29:00.507392 25822 net.cpp:165] Memory required for data: 190479600
I0531 19:29:00.507407 25822 layer_factory.hpp:77] Creating layer relu_u1
I0531 19:29:00.507421 25822 net.cpp:106] Creating Layer relu_u1
I0531 19:29:00.507431 25822 net.cpp:454] relu_u1 <- conv_u1
I0531 19:29:00.507444 25822 net.cpp:397] relu_u1 -> conv_u1 (in-place)
I0531 19:29:00.507927 25822 net.cpp:150] Setting up relu_u1
I0531 19:29:00.507946 25822 net.cpp:157] Top shape: 100 12 120 48 (6912000)
I0531 19:29:00.507956 25822 net.cpp:165] Memory required for data: 218127600
I0531 19:29:00.507966 25822 layer_factory.hpp:77] Creating layer pool_u1
I0531 19:29:00.507980 25822 net.cpp:106] Creating Layer pool_u1
I0531 19:29:00.507990 25822 net.cpp:454] pool_u1 <- conv_u1
I0531 19:29:00.508003 25822 net.cpp:411] pool_u1 -> pool_u1
I0531 19:29:00.508074 25822 net.cpp:150] Setting up pool_u1
I0531 19:29:00.508088 25822 net.cpp:157] Top shape: 100 12 60 48 (3456000)
I0531 19:29:00.508097 25822 net.cpp:165] Memory required for data: 231951600
I0531 19:29:00.508107 25822 layer_factory.hpp:77] Creating layer conv_u2
I0531 19:29:00.508124 25822 net.cpp:106] Creating Layer conv_u2
I0531 19:29:00.508136 25822 net.cpp:454] conv_u2 <- pool_u1
I0531 19:29:00.508149 25822 net.cpp:411] conv_u2 -> conv_u2
I0531 19:29:00.509981 25822 net.cpp:150] Setting up conv_u2
I0531 19:29:00.510004 25822 net.cpp:157] Top shape: 100 20 54 46 (4968000)
I0531 19:29:00.510016 25822 net.cpp:165] Memory required for data: 251823600
I0531 19:29:00.510031 25822 layer_factory.hpp:77] Creating layer relu_u2
I0531 19:29:00.510045 25822 net.cpp:106] Creating Layer relu_u2
I0531 19:29:00.510056 25822 net.cpp:454] relu_u2 <- conv_u2
I0531 19:29:00.510067 25822 net.cpp:397] relu_u2 -> conv_u2 (in-place)
I0531 19:29:00.510387 25822 net.cpp:150] Setting up relu_u2
I0531 19:29:00.510401 25822 net.cpp:157] Top shape: 100 20 54 46 (4968000)
I0531 19:29:00.510411 25822 net.cpp:165] Memory required for data: 271695600
I0531 19:29:00.510422 25822 layer_factory.hpp:77] Creating layer pool_u2
I0531 19:29:00.510434 25822 net.cpp:106] Creating Layer pool_u2
I0531 19:29:00.510445 25822 net.cpp:454] pool_u2 <- conv_u2
I0531 19:29:00.510458 25822 net.cpp:411] pool_u2 -> pool_u2
I0531 19:29:00.510530 25822 net.cpp:150] Setting up pool_u2
I0531 19:29:00.510545 25822 net.cpp:157] Top shape: 100 20 27 46 (2484000)
I0531 19:29:00.510555 25822 net.cpp:165] Memory required for data: 281631600
I0531 19:29:00.510565 25822 layer_factory.hpp:77] Creating layer conv_u3
I0531 19:29:00.510581 25822 net.cpp:106] Creating Layer conv_u3
I0531 19:29:00.510592 25822 net.cpp:454] conv_u3 <- pool_u2
I0531 19:29:00.510606 25822 net.cpp:411] conv_u3 -> conv_u3
I0531 19:29:00.512512 25822 net.cpp:150] Setting up conv_u3
I0531 19:29:00.512536 25822 net.cpp:157] Top shape: 100 28 22 44 (2710400)
I0531 19:29:00.512547 25822 net.cpp:165] Memory required for data: 292473200
I0531 19:29:00.512562 25822 layer_factory.hpp:77] Creating layer relu_u3
I0531 19:29:00.512575 25822 net.cpp:106] Creating Layer relu_u3
I0531 19:29:00.512585 25822 net.cpp:454] relu_u3 <- conv_u3
I0531 19:29:00.512598 25822 net.cpp:397] relu_u3 -> conv_u3 (in-place)
I0531 19:29:00.512940 25822 net.cpp:150] Setting up relu_u3
I0531 19:29:00.512954 25822 net.cpp:157] Top shape: 100 28 22 44 (2710400)
I0531 19:29:00.512965 25822 net.cpp:165] Memory required for data: 303314800
I0531 19:29:00.512975 25822 layer_factory.hpp:77] Creating layer pool_u3
I0531 19:29:00.512989 25822 net.cpp:106] Creating Layer pool_u3
I0531 19:29:00.512998 25822 net.cpp:454] pool_u3 <- conv_u3
I0531 19:29:00.513011 25822 net.cpp:411] pool_u3 -> pool_u3
I0531 19:29:00.513080 25822 net.cpp:150] Setting up pool_u3
I0531 19:29:00.513093 25822 net.cpp:157] Top shape: 100 28 11 44 (1355200)
I0531 19:29:00.513103 25822 net.cpp:165] Memory required for data: 308735600
I0531 19:29:00.513113 25822 layer_factory.hpp:77] Creating layer conv_u4
I0531 19:29:00.513130 25822 net.cpp:106] Creating Layer conv_u4
I0531 19:29:00.513140 25822 net.cpp:454] conv_u4 <- pool_u3
I0531 19:29:00.513155 25822 net.cpp:411] conv_u4 -> conv_u4
I0531 19:29:00.515354 25822 net.cpp:150] Setting up conv_u4
I0531 19:29:00.515377 25822 net.cpp:157] Top shape: 100 36 6 42 (907200)
I0531 19:29:00.515389 25822 net.cpp:165] Memory required for data: 312364400
I0531 19:29:00.515411 25822 layer_factory.hpp:77] Creating layer relu_u4
I0531 19:29:00.515425 25822 net.cpp:106] Creating Layer relu_u4
I0531 19:29:00.515446 25822 net.cpp:454] relu_u4 <- conv_u4
I0531 19:29:00.515460 25822 net.cpp:397] relu_u4 -> conv_u4 (in-place)
I0531 19:29:00.515934 25822 net.cpp:150] Setting up relu_u4
I0531 19:29:00.515949 25822 net.cpp:157] Top shape: 100 36 6 42 (907200)
I0531 19:29:00.515960 25822 net.cpp:165] Memory required for data: 315993200
I0531 19:29:00.515970 25822 layer_factory.hpp:77] Creating layer pool_u4
I0531 19:29:00.515983 25822 net.cpp:106] Creating Layer pool_u4
I0531 19:29:00.515993 25822 net.cpp:454] pool_u4 <- conv_u4
I0531 19:29:00.516006 25822 net.cpp:411] pool_u4 -> pool_u4
I0531 19:29:00.516077 25822 net.cpp:150] Setting up pool_u4
I0531 19:29:00.516089 25822 net.cpp:157] Top shape: 100 36 3 42 (453600)
I0531 19:29:00.516099 25822 net.cpp:165] Memory required for data: 317807600
I0531 19:29:00.516109 25822 layer_factory.hpp:77] Creating layer dl_u1
I0531 19:29:00.516124 25822 net.cpp:106] Creating Layer dl_u1
I0531 19:29:00.516135 25822 net.cpp:454] dl_u1 <- pool_u4
I0531 19:29:00.516149 25822 net.cpp:411] dl_u1 -> dl_u1
I0531 19:29:00.531640 25822 net.cpp:150] Setting up dl_u1
I0531 19:29:00.531667 25822 net.cpp:157] Top shape: 100 196 (19600)
I0531 19:29:00.531680 25822 net.cpp:165] Memory required for data: 317886000
I0531 19:29:00.531697 25822 layer_factory.hpp:77] Creating layer relu_u5
I0531 19:29:00.531711 25822 net.cpp:106] Creating Layer relu_u5
I0531 19:29:00.531723 25822 net.cpp:454] relu_u5 <- dl_u1
I0531 19:29:00.531735 25822 net.cpp:397] relu_u5 -> dl_u1 (in-place)
I0531 19:29:00.532079 25822 net.cpp:150] Setting up relu_u5
I0531 19:29:00.532094 25822 net.cpp:157] Top shape: 100 196 (19600)
I0531 19:29:00.532104 25822 net.cpp:165] Memory required for data: 317964400
I0531 19:29:00.532114 25822 layer_factory.hpp:77] Creating layer drop_u1
I0531 19:29:00.532126 25822 net.cpp:106] Creating Layer drop_u1
I0531 19:29:00.532136 25822 net.cpp:454] drop_u1 <- dl_u1
I0531 19:29:00.532150 25822 net.cpp:397] drop_u1 -> dl_u1 (in-place)
I0531 19:29:00.532192 25822 net.cpp:150] Setting up drop_u1
I0531 19:29:00.532205 25822 net.cpp:157] Top shape: 100 196 (19600)
I0531 19:29:00.532215 25822 net.cpp:165] Memory required for data: 318042800
I0531 19:29:00.532225 25822 layer_factory.hpp:77] Creating layer conv_v1
I0531 19:29:00.532241 25822 net.cpp:106] Creating Layer conv_v1
I0531 19:29:00.532253 25822 net.cpp:454] conv_v1 <- hits-v
I0531 19:29:00.532266 25822 net.cpp:411] conv_v1 -> conv_v1
I0531 19:29:00.534137 25822 net.cpp:150] Setting up conv_v1
I0531 19:29:00.534160 25822 net.cpp:157] Top shape: 100 12 120 48 (6912000)
I0531 19:29:00.534173 25822 net.cpp:165] Memory required for data: 345690800
I0531 19:29:00.534188 25822 layer_factory.hpp:77] Creating layer relu_v1
I0531 19:29:00.534211 25822 net.cpp:106] Creating Layer relu_v1
I0531 19:29:00.534222 25822 net.cpp:454] relu_v1 <- conv_v1
I0531 19:29:00.534235 25822 net.cpp:397] relu_v1 -> conv_v1 (in-place)
I0531 19:29:00.534713 25822 net.cpp:150] Setting up relu_v1
I0531 19:29:00.534730 25822 net.cpp:157] Top shape: 100 12 120 48 (6912000)
I0531 19:29:00.534740 25822 net.cpp:165] Memory required for data: 373338800
I0531 19:29:00.534751 25822 layer_factory.hpp:77] Creating layer pool_v1
I0531 19:29:00.534765 25822 net.cpp:106] Creating Layer pool_v1
I0531 19:29:00.534775 25822 net.cpp:454] pool_v1 <- conv_v1
I0531 19:29:00.534788 25822 net.cpp:411] pool_v1 -> pool_v1
I0531 19:29:00.534860 25822 net.cpp:150] Setting up pool_v1
I0531 19:29:00.534874 25822 net.cpp:157] Top shape: 100 12 60 48 (3456000)
I0531 19:29:00.534884 25822 net.cpp:165] Memory required for data: 387162800
I0531 19:29:00.534893 25822 layer_factory.hpp:77] Creating layer conv_v2
I0531 19:29:00.534910 25822 net.cpp:106] Creating Layer conv_v2
I0531 19:29:00.534920 25822 net.cpp:454] conv_v2 <- pool_v1
I0531 19:29:00.534935 25822 net.cpp:411] conv_v2 -> conv_v2
I0531 19:29:00.536630 25822 net.cpp:150] Setting up conv_v2
I0531 19:29:00.536653 25822 net.cpp:157] Top shape: 100 20 54 46 (4968000)
I0531 19:29:00.536665 25822 net.cpp:165] Memory required for data: 407034800
I0531 19:29:00.536695 25822 layer_factory.hpp:77] Creating layer relu_v2
I0531 19:29:00.536708 25822 net.cpp:106] Creating Layer relu_v2
I0531 19:29:00.536720 25822 net.cpp:454] relu_v2 <- conv_v2
I0531 19:29:00.536732 25822 net.cpp:397] relu_v2 -> conv_v2 (in-place)
I0531 19:29:00.537222 25822 net.cpp:150] Setting up relu_v2
I0531 19:29:00.537238 25822 net.cpp:157] Top shape: 100 20 54 46 (4968000)
I0531 19:29:00.537250 25822 net.cpp:165] Memory required for data: 426906800
I0531 19:29:00.537261 25822 layer_factory.hpp:77] Creating layer pool_v2
I0531 19:29:00.537273 25822 net.cpp:106] Creating Layer pool_v2
I0531 19:29:00.537283 25822 net.cpp:454] pool_v2 <- conv_v2
I0531 19:29:00.537297 25822 net.cpp:411] pool_v2 -> pool_v2
I0531 19:29:00.537367 25822 net.cpp:150] Setting up pool_v2
I0531 19:29:00.537381 25822 net.cpp:157] Top shape: 100 20 27 46 (2484000)
I0531 19:29:00.537391 25822 net.cpp:165] Memory required for data: 436842800
I0531 19:29:00.537401 25822 layer_factory.hpp:77] Creating layer conv_v3
I0531 19:29:00.537418 25822 net.cpp:106] Creating Layer conv_v3
I0531 19:29:00.537430 25822 net.cpp:454] conv_v3 <- pool_v2
I0531 19:29:00.537443 25822 net.cpp:411] conv_v3 -> conv_v3
I0531 19:29:00.539379 25822 net.cpp:150] Setting up conv_v3
I0531 19:29:00.539402 25822 net.cpp:157] Top shape: 100 28 22 44 (2710400)
I0531 19:29:00.539414 25822 net.cpp:165] Memory required for data: 447684400
I0531 19:29:00.539428 25822 layer_factory.hpp:77] Creating layer relu_v3
I0531 19:29:00.539443 25822 net.cpp:106] Creating Layer relu_v3
I0531 19:29:00.539453 25822 net.cpp:454] relu_v3 <- conv_v3
I0531 19:29:00.539465 25822 net.cpp:397] relu_v3 -> conv_v3 (in-place)
I0531 19:29:00.539784 25822 net.cpp:150] Setting up relu_v3
I0531 19:29:00.539798 25822 net.cpp:157] Top shape: 100 28 22 44 (2710400)
I0531 19:29:00.539809 25822 net.cpp:165] Memory required for data: 458526000
I0531 19:29:00.539819 25822 layer_factory.hpp:77] Creating layer pool_v3
I0531 19:29:00.539832 25822 net.cpp:106] Creating Layer pool_v3
I0531 19:29:00.539841 25822 net.cpp:454] pool_v3 <- conv_v3
I0531 19:29:00.539855 25822 net.cpp:411] pool_v3 -> pool_v3
I0531 19:29:00.539923 25822 net.cpp:150] Setting up pool_v3
I0531 19:29:00.539937 25822 net.cpp:157] Top shape: 100 28 11 44 (1355200)
I0531 19:29:00.539947 25822 net.cpp:165] Memory required for data: 463946800
I0531 19:29:00.539958 25822 layer_factory.hpp:77] Creating layer conv_v4
I0531 19:29:00.539974 25822 net.cpp:106] Creating Layer conv_v4
I0531 19:29:00.539985 25822 net.cpp:454] conv_v4 <- pool_v3
I0531 19:29:00.540000 25822 net.cpp:411] conv_v4 -> conv_v4
I0531 19:29:00.542098 25822 net.cpp:150] Setting up conv_v4
I0531 19:29:00.542120 25822 net.cpp:157] Top shape: 100 36 6 42 (907200)
I0531 19:29:00.542132 25822 net.cpp:165] Memory required for data: 467575600
I0531 19:29:00.542147 25822 layer_factory.hpp:77] Creating layer relu_v4
I0531 19:29:00.542160 25822 net.cpp:106] Creating Layer relu_v4
I0531 19:29:00.542171 25822 net.cpp:454] relu_v4 <- conv_v4
I0531 19:29:00.542184 25822 net.cpp:397] relu_v4 -> conv_v4 (in-place)
I0531 19:29:00.542660 25822 net.cpp:150] Setting up relu_v4
I0531 19:29:00.542676 25822 net.cpp:157] Top shape: 100 36 6 42 (907200)
I0531 19:29:00.542686 25822 net.cpp:165] Memory required for data: 471204400
I0531 19:29:00.542696 25822 layer_factory.hpp:77] Creating layer pool_v4
I0531 19:29:00.542709 25822 net.cpp:106] Creating Layer pool_v4
I0531 19:29:00.542721 25822 net.cpp:454] pool_v4 <- conv_v4
I0531 19:29:00.542733 25822 net.cpp:411] pool_v4 -> pool_v4
I0531 19:29:00.542807 25822 net.cpp:150] Setting up pool_v4
I0531 19:29:00.542820 25822 net.cpp:157] Top shape: 100 36 3 42 (453600)
I0531 19:29:00.542830 25822 net.cpp:165] Memory required for data: 473018800
I0531 19:29:00.542839 25822 layer_factory.hpp:77] Creating layer dl_v1
I0531 19:29:00.542853 25822 net.cpp:106] Creating Layer dl_v1
I0531 19:29:00.542863 25822 net.cpp:454] dl_v1 <- pool_v4
I0531 19:29:00.542877 25822 net.cpp:411] dl_v1 -> dl_v1
I0531 19:29:00.558372 25822 net.cpp:150] Setting up dl_v1
I0531 19:29:00.558411 25822 net.cpp:157] Top shape: 100 196 (19600)
I0531 19:29:00.558426 25822 net.cpp:165] Memory required for data: 473097200
I0531 19:29:00.558451 25822 layer_factory.hpp:77] Creating layer relu_v5
I0531 19:29:00.558466 25822 net.cpp:106] Creating Layer relu_v5
I0531 19:29:00.558477 25822 net.cpp:454] relu_v5 <- dl_v1
I0531 19:29:00.558490 25822 net.cpp:397] relu_v5 -> dl_v1 (in-place)
I0531 19:29:00.558840 25822 net.cpp:150] Setting up relu_v5
I0531 19:29:00.558856 25822 net.cpp:157] Top shape: 100 196 (19600)
I0531 19:29:00.558866 25822 net.cpp:165] Memory required for data: 473175600
I0531 19:29:00.558876 25822 layer_factory.hpp:77] Creating layer drop_v1
I0531 19:29:00.558889 25822 net.cpp:106] Creating Layer drop_v1
I0531 19:29:00.558899 25822 net.cpp:454] drop_v1 <- dl_v1
I0531 19:29:00.558913 25822 net.cpp:397] drop_v1 -> dl_v1 (in-place)
I0531 19:29:00.558957 25822 net.cpp:150] Setting up drop_v1
I0531 19:29:00.558970 25822 net.cpp:157] Top shape: 100 196 (19600)
I0531 19:29:00.558980 25822 net.cpp:165] Memory required for data: 473254000
I0531 19:29:00.558990 25822 layer_factory.hpp:77] Creating layer concat_xuv
I0531 19:29:00.559011 25822 net.cpp:106] Creating Layer concat_xuv
I0531 19:29:00.559021 25822 net.cpp:454] concat_xuv <- dl_x1
I0531 19:29:00.559033 25822 net.cpp:454] concat_xuv <- dl_u1
I0531 19:29:00.559046 25822 net.cpp:454] concat_xuv <- dl_v1
I0531 19:29:00.559057 25822 net.cpp:411] concat_xuv -> concat_xuv
I0531 19:29:00.559110 25822 net.cpp:150] Setting up concat_xuv
I0531 19:29:00.559123 25822 net.cpp:157] Top shape: 100 588 (58800)
I0531 19:29:00.559134 25822 net.cpp:165] Memory required for data: 473489200
I0531 19:29:00.559144 25822 layer_factory.hpp:77] Creating layer dl_xuv
I0531 19:29:00.559159 25822 net.cpp:106] Creating Layer dl_xuv
I0531 19:29:00.559168 25822 net.cpp:454] dl_xuv <- concat_xuv
I0531 19:29:00.559181 25822 net.cpp:411] dl_xuv -> dl_xuv
I0531 19:29:00.560220 25822 net.cpp:150] Setting up dl_xuv
I0531 19:29:00.560240 25822 net.cpp:157] Top shape: 100 98 (9800)
I0531 19:29:00.560251 25822 net.cpp:165] Memory required for data: 473528400
I0531 19:29:00.560266 25822 layer_factory.hpp:77] Creating layer relu_xuv
I0531 19:29:00.560279 25822 net.cpp:106] Creating Layer relu_xuv
I0531 19:29:00.560289 25822 net.cpp:454] relu_xuv <- dl_xuv
I0531 19:29:00.560302 25822 net.cpp:397] relu_xuv -> dl_xuv (in-place)
I0531 19:29:00.560842 25822 net.cpp:150] Setting up relu_xuv
I0531 19:29:00.560858 25822 net.cpp:157] Top shape: 100 98 (9800)
I0531 19:29:00.560868 25822 net.cpp:165] Memory required for data: 473567600
I0531 19:29:00.560878 25822 layer_factory.hpp:77] Creating layer drop_xuv
I0531 19:29:00.560891 25822 net.cpp:106] Creating Layer drop_xuv
I0531 19:29:00.560901 25822 net.cpp:454] drop_xuv <- dl_xuv
I0531 19:29:00.560914 25822 net.cpp:397] drop_xuv -> dl_xuv (in-place)
I0531 19:29:00.560966 25822 net.cpp:150] Setting up drop_xuv
I0531 19:29:00.560981 25822 net.cpp:157] Top shape: 100 98 (9800)
I0531 19:29:00.560992 25822 net.cpp:165] Memory required for data: 473606800
I0531 19:29:00.561002 25822 layer_factory.hpp:77] Creating layer output
I0531 19:29:00.561014 25822 net.cpp:106] Creating Layer output
I0531 19:29:00.561024 25822 net.cpp:454] output <- dl_xuv
I0531 19:29:00.561038 25822 net.cpp:411] output -> output
I0531 19:29:00.561265 25822 net.cpp:150] Setting up output
I0531 19:29:00.561278 25822 net.cpp:157] Top shape: 100 11 (1100)
I0531 19:29:00.561288 25822 net.cpp:165] Memory required for data: 473611200
I0531 19:29:00.561318 25822 layer_factory.hpp:77] Creating layer drop_output
I0531 19:29:00.561331 25822 net.cpp:106] Creating Layer drop_output
I0531 19:29:00.561342 25822 net.cpp:454] drop_output <- output
I0531 19:29:00.561354 25822 net.cpp:397] drop_output -> output (in-place)
I0531 19:29:00.561398 25822 net.cpp:150] Setting up drop_output
I0531 19:29:00.561413 25822 net.cpp:157] Top shape: 100 11 (1100)
I0531 19:29:00.561422 25822 net.cpp:165] Memory required for data: 473615600
I0531 19:29:00.561432 25822 layer_factory.hpp:77] Creating layer loss
I0531 19:29:00.561460 25822 net.cpp:106] Creating Layer loss
I0531 19:29:00.561471 25822 net.cpp:454] loss <- output
I0531 19:29:00.561482 25822 net.cpp:454] loss <- segments
I0531 19:29:00.561496 25822 net.cpp:411] loss -> loss
I0531 19:29:00.561512 25822 layer_factory.hpp:77] Creating layer loss
…
I0531 19:29:00.565537 25822 solver.cpp:181] Creating test net (#0) specified by net file: /lustre/atlas/proj-shared/hep105/caffe_titan/caffe_workflow/xuv/logs/epsilon_noada_2016-05-30T07.36.54.892099.prototxt
I0531 19:29:00.565671 25822 net.cpp:322] The NetState phase (1) differed from the phase (0) specified by a rule in layer data
I0531 19:29:00.566458 25822 net.cpp:49] Initializing net from parameters: 
name: "epsilon_127x50_xuv"
state {
  phase: TEST
}
layer {
  name: "data"
  type: "HDF5Data"
  top: "hits-x"
  top: "hits-u"
  top: "hits-v"
  top: "segments"
  include {
    phase: TEST
  }
  hdf5_data_param {
    source: "/lustre/atlas/proj-shared/hep105/caffe_titan/xuv/epsilon_127x50_xuv.testlist"
    batch_size: 100
  }
}
layer {
  name: "conv_x1"
  type: "Convolution"
  bottom: "hits-x"
  top: "conv_x1"
  convolution_param {
    num_output: 12
    pad: 0
    stride: 1
    weight_filler {
      type: "xavier"
    }
    bias_filler {
      type: "constant"
    }
    kernel_h: 8
    kernel_w: 3
  }
}
layer {
  name: "relu_x1"
  type: "ReLU"
  bottom: "conv_x1"
  top: "conv_x1"
}
layer {
  name: "pool_x1"
  type: "Pooling"
  bottom: "conv_x1"
  top: "pool_x1"
  pooling_param {
    pool: MAX
    kernel_h: 2
    kernel_w: 1
    stride_h: 2
    stride_w: 1
  }
}
layer {
  name: "conv_x2"
  type: "Convolution"
  bottom: "pool_x1"
  top: "conv_x2"
  convolution_param {
    num_output: 20
    pad: 0
    stride: 1
    weight_filler {
      type: "xavier"
    }
    bias_filler {
      type: "constant"
    }
    kernel_h: 7
    kernel_w: 3
  }
}
layer {
  name: "relu_x2"
  type: "ReLU"
  bottom: "conv_x2"
  top: "conv_x2"
}
layer {
  name: "pool_x2"
  type: "Pooling"
  bottom: "conv_x2"
  top: "pool_x2"
  pooling_param {
    pool: MAX
    kernel_h: 2
    kernel_w: 1
    stride_h: 2
    stride_w: 1
  }
}
layer {
  name: "conv_x3"
  type: "Convolution"
  bottom: "pool_x2"
  top: "conv_x3"
  convolution_param {
    num_output: 28
    pad: 0
    stride: 1
    weight_filler {
      type: "xavier"
    }
    bias_filler {
      type: "constant"
    }
    kernel_h: 6
    kernel_w: 3
  }
}
layer {
  name: "relu_x3"
  type: "ReLU"
  bottom: "conv_x3"
  top: "conv_x3"
}
layer {
  name: "pool_x3"
  type: "Pooling"
  bottom: "conv_x3"
  top: "pool_x3"
  pooling_param {
    pool: MAX
    kernel_h: 2
    kernel_w: 1
    stride_h: 2
    stride_w: 1
  }
}
layer {
  name: "conv_x4"
  type: "Convolution"
  bottom: "pool_x3"
  top: "conv_x4"
  convolution_param {
    num_output: 36
    pad: 0
    stride: 1
    weight_filler {
      type: "xavier"
    }
    bias_filler {
      type: "constant"
    }
    kernel_h: 6
    kernel_w: 3
  }
}
layer {
  name: "relu_x4"
  type: "ReLU"
  bottom: "conv_x4"
  top: "conv_x4"
}
layer {
  name: "pool_x4"
  type: "Pooling"
  bottom: "conv_x4"
  top: "pool_x4"
  pooling_param {
    pool: MAX
    kernel_h: 2
    kernel_w: 1
    stride_h: 2
    stride_w: 1
  }
}
layer {
  name: "dl_x1"
  type: "InnerProduct"
  bottom: "pool_x4"
  top: "dl_x1"
  inner_product_param {
    num_output: 196
    weight_filler {
      type: "xavier"
    }
    bias_filler {
      type: "constant"
    }
  }
}
layer {
  name: "relu_x5"
  type: "ReLU"
  bottom: "dl_x1"
  top: "dl_x1"
}
layer {
  name: "drop_x1"
  type: "Dropout"
  bottom: "dl_x1"
  top: "dl_x1"
  dropout_param {
    dropout_ratio: 0.5
  }
}
layer {
  name: "conv_u1"
  type: "Convolution"
  bottom: "hits-u"
  top: "conv_u1"
  convolution_param {
    num_output: 12
    pad: 0
    stride: 1
    weight_filler {
      type: "xavier"
    }
    bias_filler {
      type: "constant"
    }
    kernel_h: 8
    kernel_w: 3
  }
}
layer {
  name: "relu_u1"
  type: "ReLU"
  bottom: "conv_u1"
  top: "conv_u1"
}
layer {
  name: "pool_u1"
  type: "Pooling"
  bottom: "conv_u1"
  top: "pool_u1"
  pooling_param {
    pool: MAX
    kernel_h: 2
    kernel_w: 1
    stride_h: 2
    stride_w: 1
  }
}
layer {
  name: "conv_u2"
  type: "Convolution"
  bottom: "pool_u1"
  top: "conv_u2"
  convolution_param {
    num_output: 20
    pad: 0
    stride: 1
    weight_filler {
      type: "xavier"
    }
    bias_filler {
      type: "constant"
    }
    kernel_h: 7
    kernel_w: 3
  }
}
layer {
  name: "relu_u2"
  type: "ReLU"
  bottom: "conv_u2"
  top: "conv_u2"
}
layer {
  name: "pool_u2"
  type: "Pooling"
  bottom: "conv_u2"
  top: "pool_u2"
  pooling_param {
    pool: MAX
    kernel_h: 2
    kernel_w: 1
    stride_h: 2
    stride_w: 1
  }
}
layer {
  name: "conv_u3"
  type: "Convolution"
  bottom: "pool_u2"
  top: "conv_u3"
  convolution_param {
    num_output: 28
    pad: 0
    stride: 1
    weight_filler {
      type: "xavier"
    }
    bias_filler {
      type: "constant"
    }
    kernel_h: 6
    kernel_w: 3
  }
}
layer {
  name: "relu_u3"
  type: "ReLU"
  bottom: "conv_u3"
  top: "conv_u3"
}
layer {
  name: "pool_u3"
  type: "Pooling"
  bottom: "conv_u3"
  top: "pool_u3"
  pooling_param {
    pool: MAX
    kernel_h: 2
    kernel_w: 1
    stride_h: 2
    stride_w: 1
  }
}
layer {
  name: "conv_u4"
  type: "Convolution"
  bottom: "pool_u3"
  top: "conv_u4"
  convolution_param {
    num_output: 36
    pad: 0
    stride: 1
    weight_filler {
      type: "xavier"
    }
    bias_filler {
      type: "constant"
    }
    kernel_h: 6
    kernel_w: 3
  }
}
layer {
  name: "relu_u4"
  type: "ReLU"
  bottom: "conv_u4"
  top: "conv_u4"
}
layer {
  name: "pool_u4"
  type: "Pooling"
  bottom: "conv_u4"
  top: "pool_u4"
  pooling_param {
    pool: MAX
    kernel_h: 2
    kernel_w: 1
    stride_h: 2
    stride_w: 1
  }
}
layer {
  name: "dl_u1"
  type: "InnerProduct"
  bottom: "pool_u4"
  top: "dl_u1"
  inner_product_param {
    num_output: 196
    weight_filler {
      type: "xavier"
    }
    bias_filler {
      type: "constant"
    }
  }
}
layer {
  name: "relu_u5"
  type: "ReLU"
  bottom: "dl_u1"
  top: "dl_u1"
}
layer {
  name: "drop_u1"
  type: "Dropout"
  bottom: "dl_u1"
  top: "dl_u1"
  dropout_param {
    dropout_ratio: 0.5
  }
}
layer {
  name: "conv_v1"
  type: "Convolution"
  bottom: "hits-v"
  top: "conv_v1"
  convolution_param {
    num_output: 12
    pad: 0
    stride: 1
    weight_filler {
      type: "xavier"
    }
    bias_filler {
      type: "constant"
    }
    kernel_h: 8
    kernel_w: 3
  }
}
layer {
  name: "relu_v1"
  type: "ReLU"
  bottom: "conv_v1"
  top: "conv_v1"
}
layer {
  name: "pool_v1"
  type: "Pooling"
  bottom: "conv_v1"
  top: "pool_v1"
  pooling_param {
    pool: MAX
    kernel_h: 2
    kernel_w: 1
    stride_h: 2
    stride_w: 1
  }
}
layer {
  name: "conv_v2"
  type: "Convolution"
  bottom: "pool_v1"
  top: "conv_v2"
  convolution_param {
    num_output: 20
    pad: 0
    stride: 1
    weight_filler {
      type: "xavier"
    }
    bias_filler {
      type: "constant"
    }
    kernel_h: 7
    kernel_w: 3
  }
}
layer {
  name: "relu_v2"
  type: "ReLU"
  bottom: "conv_v2"
  top: "conv_v2"
}
layer {
  name: "pool_v2"
  type: "Pooling"
  bottom: "conv_v2"
  top: "pool_v2"
  pooling_param {
    pool: MAX
    kernel_h: 2
    kernel_w: 1
    stride_h: 2
    stride_w: 1
  }
}
layer {
  name: "conv_v3"
  type: "Convolution"
  bottom: "pool_v2"
  top: "conv_v3"
  convolution_param {
    num_output: 28
    pad: 0
    stride: 1
    weight_filler {
      type: "xavier"
    }
    bias_filler {
      type: "constant"
    }
    kernel_h: 6
    kernel_w: 3
  }
}
layer {
  name: "relu_v3"
  type: "ReLU"
  bottom: "conv_v3"
  top: "conv_v3"
}
layer {
  name: "pool_v3"
  type: "Pooling"
  bottom: "conv_v3"
  top: "pool_v3"
  pooling_param {
    pool: MAX
    kernel_h: 2
    kernel_w: 1
    stride_h: 2
    stride_w: 1
  }
}
layer {
  name: "conv_v4"
  type: "Convolution"
  bottom: "pool_v3"
  top: "conv_v4"
  convolution_param {
    num_output: 36
    pad: 0
    stride: 1
    weight_filler {
      type: "xavier"
    }
    bias_filler {
      type: "constant"
    }
    kernel_h: 6
    kernel_w: 3
  }
}
layer {
  name: "relu_v4"
  type: "ReLU"
  bottom: "conv_v4"
  top: "conv_v4"
}
layer {
  name: "pool_v4"
  type: "Pooling"
  bottom: "conv_v4"
  top: "pool_v4"
  pooling_param {
    pool: MAX
    kernel_h: 2
    kernel_w: 1
    stride_h: 2
    stride_w: 1
  }
}
layer {
  name: "dl_v1"
  type: "InnerProduct"
  bottom: "pool_v4"
  top: "dl_v1"
  inner_product_param {
    num_output: 196
    weight_filler {
      type: "xavier"
    }
    bias_filler {
      type: "constant"
    }
  }
}
layer {
  name: "relu_v5"
  type: "ReLU"
  bottom: "dl_v1"
  top: "dl_v1"
}
layer {
  name: "drop_v1"
  type: "Dropout"
  bottom: "dl_v1"
  top: "dl_v1"
  dropout_param {
    dropout_ratio: 0.5
  }
}
layer {
  name: "concat_xuv"
  type: "Concat"
  bottom: "dl_x1"
  bottom: "dl_u1"
  bottom: "dl_v1"
  top: "concat_xuv"
  concat_param {
    axis: 1
  }
}
layer {
  name: "dl_xuv"
  type: "InnerProduct"
  bottom: "concat_xuv"
  top: "dl_xuv"
  inner_product_param {
    num_output: 98
    weight_filler {
      type: "xavier"
    }
    bias_filler {
      type: "constant"
    }
  }
}
layer {
  name: "relu_xuv"
  type: "ReLU"
  bottom: "dl_xuv"
  top: "dl_xuv"
}
layer {
  name: "drop_xuv"
  type: "Dropout"
  bottom: "dl_xuv"
  top: "dl_xuv"
  dropout_param {
    dropout_ratio: 0.5
  }
}
layer {
  name: "output"
  type: "InnerProduct"
  bottom: "dl_xuv"
  top: "output"
  inner_product_param {
    num_output: 11
    weight_filler {
      type: "xavier"
    }
    bias_filler {
      type: "constant"
    }
  }
}
layer {
  name: "drop_output"
  type: "Dropout"
  bottom: "output"
  top: "output"
  dropout_param {
    dropout_ratio: 0.5
  }
}
layer {
  name: "accuracy"
  type: "Accuracy"
  bottom: "output"
  bottom: "segments"
  top: "accuracy"
  include {
    phase: TEST
  }
}
layer {
  name: "loss"
  type: "SoftmaxWithLoss"
  bottom: "output"
  bottom: "segments"
  top: "loss"
}
I0531 19:29:00.566825 25822 layer_factory.hpp:77] Creating layer data
I0531 19:29:00.566841 25822 net.cpp:106] Creating Layer data
I0531 19:29:00.566854 25822 net.cpp:411] data -> hits-x
I0531 19:29:00.566869 25822 net.cpp:411] data -> hits-u
I0531 19:29:00.566885 25822 net.cpp:411] data -> hits-v
I0531 19:29:00.566901 25822 net.cpp:411] data -> segments
I0531 19:29:00.566915 25822 hdf5_data_layer.cpp:79] Loading list of HDF5 filenames from: /lustre/atlas/proj-shared/hep105/caffe_titan/xuv/epsilon_127x50_xuv.testlist
I0531 19:29:00.581698 25822 hdf5_data_layer.cpp:93] Number of HDF5 files: 3
I0531 19:30:05.242362 25822 net.cpp:150] Setting up data
I0531 19:30:05.242523 25822 net.cpp:157] Top shape: 100 1 127 50 (635000)
I0531 19:30:05.242537 25822 net.cpp:157] Top shape: 100 1 127 50 (635000)
I0531 19:30:05.242553 25822 net.cpp:157] Top shape: 100 1 127 50 (635000)
I0531 19:30:05.242565 25822 net.cpp:157] Top shape: 100 (100)
I0531 19:30:05.242575 25822 net.cpp:165] Memory required for data: 7620400
I0531 19:30:05.242589 25822 layer_factory.hpp:77] Creating layer segments_data_3_split
I0531 19:30:05.242616 25822 net.cpp:106] Creating Layer segments_data_3_split
I0531 19:30:05.242627 25822 net.cpp:454] segments_data_3_split <- segments
I0531 19:30:05.242642 25822 net.cpp:411] segments_data_3_split -> segments_data_3_split_0
I0531 19:30:05.242665 25822 net.cpp:411] segments_data_3_split -> segments_data_3_split_1
I0531 19:30:05.242741 25822 net.cpp:150] Setting up segments_data_3_split
I0531 19:30:05.242755 25822 net.cpp:157] Top shape: 100 (100)
I0531 19:30:05.242768 25822 net.cpp:157] Top shape: 100 (100)
I0531 19:30:05.242777 25822 net.cpp:165] Memory required for data: 7621200
I0531 19:30:05.242787 25822 layer_factory.hpp:77] Creating layer conv_x1
I0531 19:30:05.242810 25822 net.cpp:106] Creating Layer conv_x1
I0531 19:30:05.242820 25822 net.cpp:454] conv_x1 <- hits-x
I0531 19:30:05.242835 25822 net.cpp:411] conv_x1 -> conv_x1
I0531 19:30:05.245020 25822 net.cpp:150] Setting up conv_x1
I0531 19:30:05.245044 25822 net.cpp:157] Top shape: 100 12 120 48 (6912000)
I0531 19:30:05.245056 25822 net.cpp:165] Memory required for data: 35269200
I0531 19:30:05.245077 25822 layer_factory.hpp:77] Creating layer relu_x1
I0531 19:30:05.245091 25822 net.cpp:106] Creating Layer relu_x1
I0531 19:30:05.245101 25822 net.cpp:454] relu_x1 <- conv_x1
I0531 19:30:05.245115 25822 net.cpp:397] relu_x1 -> conv_x1 (in-place)
I0531 19:30:05.245626 25822 net.cpp:150] Setting up relu_x1
I0531 19:30:05.245642 25822 net.cpp:157] Top shape: 100 12 120 48 (6912000)
I0531 19:30:05.245652 25822 net.cpp:165] Memory required for data: 62917200
I0531 19:30:05.245662 25822 layer_factory.hpp:77] Creating layer pool_x1
I0531 19:30:05.245678 25822 net.cpp:106] Creating Layer pool_x1
I0531 19:30:05.245688 25822 net.cpp:454] pool_x1 <- conv_x1
I0531 19:30:05.245702 25822 net.cpp:411] pool_x1 -> pool_x1
I0531 19:30:05.245784 25822 net.cpp:150] Setting up pool_x1
I0531 19:30:05.245797 25822 net.cpp:157] Top shape: 100 12 60 48 (3456000)
I0531 19:30:05.245810 25822 net.cpp:165] Memory required for data: 76741200
I0531 19:30:05.245820 25822 layer_factory.hpp:77] Creating layer conv_x2
I0531 19:30:05.245837 25822 net.cpp:106] Creating Layer conv_x2
I0531 19:30:05.245847 25822 net.cpp:454] conv_x2 <- pool_x1
I0531 19:30:05.245862 25822 net.cpp:411] conv_x2 -> conv_x2
I0531 19:30:05.247735 25822 net.cpp:150] Setting up conv_x2
I0531 19:30:05.247759 25822 net.cpp:157] Top shape: 100 20 54 46 (4968000)
I0531 19:30:05.247771 25822 net.cpp:165] Memory required for data: 96613200
I0531 19:30:05.247788 25822 layer_factory.hpp:77] Creating layer relu_x2
I0531 19:30:05.247802 25822 net.cpp:106] Creating Layer relu_x2
I0531 19:30:05.247812 25822 net.cpp:454] relu_x2 <- conv_x2
I0531 19:30:05.247825 25822 net.cpp:397] relu_x2 -> conv_x2 (in-place)
I0531 19:30:05.248334 25822 net.cpp:150] Setting up relu_x2
I0531 19:30:05.248350 25822 net.cpp:157] Top shape: 100 20 54 46 (4968000)
I0531 19:30:05.248361 25822 net.cpp:165] Memory required for data: 116485200
I0531 19:30:05.248371 25822 layer_factory.hpp:77] Creating layer pool_x2
I0531 19:30:05.248384 25822 net.cpp:106] Creating Layer pool_x2
I0531 19:30:05.248394 25822 net.cpp:454] pool_x2 <- conv_x2
I0531 19:30:05.248409 25822 net.cpp:411] pool_x2 -> pool_x2
I0531 19:30:05.248487 25822 net.cpp:150] Setting up pool_x2
I0531 19:30:05.248502 25822 net.cpp:157] Top shape: 100 20 27 46 (2484000)
I0531 19:30:05.248510 25822 net.cpp:165] Memory required for data: 126421200
I0531 19:30:05.248522 25822 layer_factory.hpp:77] Creating layer conv_x3
I0531 19:30:05.248540 25822 net.cpp:106] Creating Layer conv_x3
I0531 19:30:05.248551 25822 net.cpp:454] conv_x3 <- pool_x2
I0531 19:30:05.248564 25822 net.cpp:411] conv_x3 -> conv_x3
I0531 19:30:05.250830 25822 net.cpp:150] Setting up conv_x3
I0531 19:30:05.250849 25822 net.cpp:157] Top shape: 100 28 22 44 (2710400)
I0531 19:30:05.250859 25822 net.cpp:165] Memory required for data: 137262800
I0531 19:30:05.250879 25822 layer_factory.hpp:77] Creating layer relu_x3
I0531 19:30:05.250892 25822 net.cpp:106] Creating Layer relu_x3
I0531 19:30:05.250902 25822 net.cpp:454] relu_x3 <- conv_x3
I0531 19:30:05.250916 25822 net.cpp:397] relu_x3 -> conv_x3 (in-place)
I0531 19:30:05.251265 25822 net.cpp:150] Setting up relu_x3
I0531 19:30:05.251278 25822 net.cpp:157] Top shape: 100 28 22 44 (2710400)
I0531 19:30:05.251289 25822 net.cpp:165] Memory required for data: 148104400
I0531 19:30:05.251299 25822 layer_factory.hpp:77] Creating layer pool_x3
I0531 19:30:05.251312 25822 net.cpp:106] Creating Layer pool_x3
I0531 19:30:05.251322 25822 net.cpp:454] pool_x3 <- conv_x3
I0531 19:30:05.251335 25822 net.cpp:411] pool_x3 -> pool_x3
I0531 19:30:05.251415 25822 net.cpp:150] Setting up pool_x3
I0531 19:30:05.251427 25822 net.cpp:157] Top shape: 100 28 11 44 (1355200)
I0531 19:30:05.251437 25822 net.cpp:165] Memory required for data: 153525200
I0531 19:30:05.251447 25822 layer_factory.hpp:77] Creating layer conv_x4
I0531 19:30:05.251463 25822 net.cpp:106] Creating Layer conv_x4
I0531 19:30:05.251474 25822 net.cpp:454] conv_x4 <- pool_x3
I0531 19:30:05.251488 25822 net.cpp:411] conv_x4 -> conv_x4
I0531 19:30:05.253777 25822 net.cpp:150] Setting up conv_x4
I0531 19:30:05.253799 25822 net.cpp:157] Top shape: 100 36 6 42 (907200)
I0531 19:30:05.253813 25822 net.cpp:165] Memory required for data: 157154000
I0531 19:30:05.253829 25822 layer_factory.hpp:77] Creating layer relu_x4
I0531 19:30:05.253842 25822 net.cpp:106] Creating Layer relu_x4
I0531 19:30:05.253852 25822 net.cpp:454] relu_x4 <- conv_x4
I0531 19:30:05.253866 25822 net.cpp:397] relu_x4 -> conv_x4 (in-place)
I0531 19:30:05.254369 25822 net.cpp:150] Setting up relu_x4
I0531 19:30:05.254385 25822 net.cpp:157] Top shape: 100 36 6 42 (907200)
I0531 19:30:05.254396 25822 net.cpp:165] Memory required for data: 160782800
I0531 19:30:05.254406 25822 layer_factory.hpp:77] Creating layer pool_x4
I0531 19:30:05.254420 25822 net.cpp:106] Creating Layer pool_x4
I0531 19:30:05.254429 25822 net.cpp:454] pool_x4 <- conv_x4
I0531 19:30:05.254443 25822 net.cpp:411] pool_x4 -> pool_x4
I0531 19:30:05.254520 25822 net.cpp:150] Setting up pool_x4
I0531 19:30:05.254534 25822 net.cpp:157] Top shape: 100 36 3 42 (453600)
I0531 19:30:05.254544 25822 net.cpp:165] Memory required for data: 162597200
I0531 19:30:05.254552 25822 layer_factory.hpp:77] Creating layer dl_x1
I0531 19:30:05.254568 25822 net.cpp:106] Creating Layer dl_x1
I0531 19:30:05.254578 25822 net.cpp:454] dl_x1 <- pool_x4
I0531 19:30:05.254592 25822 net.cpp:411] dl_x1 -> dl_x1
I0531 19:30:05.271057 25822 net.cpp:150] Setting up dl_x1
I0531 19:30:05.271087 25822 net.cpp:157] Top shape: 100 196 (19600)
I0531 19:30:05.271102 25822 net.cpp:165] Memory required for data: 162675600
I0531 19:30:05.271126 25822 layer_factory.hpp:77] Creating layer relu_x5
I0531 19:30:05.271142 25822 net.cpp:106] Creating Layer relu_x5
I0531 19:30:05.271152 25822 net.cpp:454] relu_x5 <- dl_x1
I0531 19:30:05.271165 25822 net.cpp:397] relu_x5 -> dl_x1 (in-place)
I0531 19:30:05.271527 25822 net.cpp:150] Setting up relu_x5
I0531 19:30:05.271540 25822 net.cpp:157] Top shape: 100 196 (19600)
I0531 19:30:05.271550 25822 net.cpp:165] Memory required for data: 162754000
I0531 19:30:05.271560 25822 layer_factory.hpp:77] Creating layer drop_x1
I0531 19:30:05.271580 25822 net.cpp:106] Creating Layer drop_x1
I0531 19:30:05.271590 25822 net.cpp:454] drop_x1 <- dl_x1
I0531 19:30:05.271603 25822 net.cpp:397] drop_x1 -> dl_x1 (in-place)
I0531 19:30:05.271651 25822 net.cpp:150] Setting up drop_x1
I0531 19:30:05.271664 25822 net.cpp:157] Top shape: 100 196 (19600)
I0531 19:30:05.271675 25822 net.cpp:165] Memory required for data: 162832400
I0531 19:30:05.271685 25822 layer_factory.hpp:77] Creating layer conv_u1
I0531 19:30:05.271704 25822 net.cpp:106] Creating Layer conv_u1
I0531 19:30:05.271728 25822 net.cpp:454] conv_u1 <- hits-u
I0531 19:30:05.271745 25822 net.cpp:411] conv_u1 -> conv_u1
I0531 19:30:05.273744 25822 net.cpp:150] Setting up conv_u1
I0531 19:30:05.273767 25822 net.cpp:157] Top shape: 100 12 120 48 (6912000)
I0531 19:30:05.273779 25822 net.cpp:165] Memory required for data: 190480400
I0531 19:30:05.273794 25822 layer_factory.hpp:77] Creating layer relu_u1
I0531 19:30:05.273808 25822 net.cpp:106] Creating Layer relu_u1
I0531 19:30:05.273818 25822 net.cpp:454] relu_u1 <- conv_u1
I0531 19:30:05.273833 25822 net.cpp:397] relu_u1 -> conv_u1 (in-place)
I0531 19:30:05.274165 25822 net.cpp:150] Setting up relu_u1
I0531 19:30:05.274179 25822 net.cpp:157] Top shape: 100 12 120 48 (6912000)
I0531 19:30:05.274190 25822 net.cpp:165] Memory required for data: 218128400
I0531 19:30:05.274200 25822 layer_factory.hpp:77] Creating layer pool_u1
I0531 19:30:05.274214 25822 net.cpp:106] Creating Layer pool_u1
I0531 19:30:05.274224 25822 net.cpp:454] pool_u1 <- conv_u1
I0531 19:30:05.274237 25822 net.cpp:411] pool_u1 -> pool_u1
I0531 19:30:05.274320 25822 net.cpp:150] Setting up pool_u1
I0531 19:30:05.274334 25822 net.cpp:157] Top shape: 100 12 60 48 (3456000)
I0531 19:30:05.274343 25822 net.cpp:165] Memory required for data: 231952400
I0531 19:30:05.274353 25822 layer_factory.hpp:77] Creating layer conv_u2
I0531 19:30:05.274370 25822 net.cpp:106] Creating Layer conv_u2
I0531 19:30:05.274381 25822 net.cpp:454] conv_u2 <- pool_u1
I0531 19:30:05.274396 25822 net.cpp:411] conv_u2 -> conv_u2
I0531 19:30:05.276358 25822 net.cpp:150] Setting up conv_u2
I0531 19:30:05.276381 25822 net.cpp:157] Top shape: 100 20 54 46 (4968000)
I0531 19:30:05.276394 25822 net.cpp:165] Memory required for data: 251824400
I0531 19:30:05.276409 25822 layer_factory.hpp:77] Creating layer relu_u2
I0531 19:30:05.276423 25822 net.cpp:106] Creating Layer relu_u2
I0531 19:30:05.276433 25822 net.cpp:454] relu_u2 <- conv_u2
I0531 19:30:05.276446 25822 net.cpp:397] relu_u2 -> conv_u2 (in-place)
I0531 19:30:05.276953 25822 net.cpp:150] Setting up relu_u2
I0531 19:30:05.276969 25822 net.cpp:157] Top shape: 100 20 54 46 (4968000)
I0531 19:30:05.276979 25822 net.cpp:165] Memory required for data: 271696400
I0531 19:30:05.276990 25822 layer_factory.hpp:77] Creating layer pool_u2
I0531 19:30:05.277004 25822 net.cpp:106] Creating Layer pool_u2
I0531 19:30:05.277014 25822 net.cpp:454] pool_u2 <- conv_u2
I0531 19:30:05.277027 25822 net.cpp:411] pool_u2 -> pool_u2
I0531 19:30:05.277106 25822 net.cpp:150] Setting up pool_u2
I0531 19:30:05.277119 25822 net.cpp:157] Top shape: 100 20 27 46 (2484000)
I0531 19:30:05.277129 25822 net.cpp:165] Memory required for data: 281632400
I0531 19:30:05.277142 25822 layer_factory.hpp:77] Creating layer conv_u3
I0531 19:30:05.277160 25822 net.cpp:106] Creating Layer conv_u3
I0531 19:30:05.277170 25822 net.cpp:454] conv_u3 <- pool_u2
I0531 19:30:05.277185 25822 net.cpp:411] conv_u3 -> conv_u3
I0531 19:30:05.279214 25822 net.cpp:150] Setting up conv_u3
I0531 19:30:05.279232 25822 net.cpp:157] Top shape: 100 28 22 44 (2710400)
I0531 19:30:05.279247 25822 net.cpp:165] Memory required for data: 292474000
I0531 19:30:05.279261 25822 layer_factory.hpp:77] Creating layer relu_u3
I0531 19:30:05.279275 25822 net.cpp:106] Creating Layer relu_u3
I0531 19:30:05.279285 25822 net.cpp:454] relu_u3 <- conv_u3
I0531 19:30:05.279299 25822 net.cpp:397] relu_u3 -> conv_u3 (in-place)
I0531 19:30:05.279628 25822 net.cpp:150] Setting up relu_u3
I0531 19:30:05.279642 25822 net.cpp:157] Top shape: 100 28 22 44 (2710400)
I0531 19:30:05.279652 25822 net.cpp:165] Memory required for data: 303315600
I0531 19:30:05.279662 25822 layer_factory.hpp:77] Creating layer pool_u3
I0531 19:30:05.279675 25822 net.cpp:106] Creating Layer pool_u3
I0531 19:30:05.279685 25822 net.cpp:454] pool_u3 <- conv_u3
I0531 19:30:05.279698 25822 net.cpp:411] pool_u3 -> pool_u3
I0531 19:30:05.279778 25822 net.cpp:150] Setting up pool_u3
I0531 19:30:05.279790 25822 net.cpp:157] Top shape: 100 28 11 44 (1355200)
I0531 19:30:05.279800 25822 net.cpp:165] Memory required for data: 308736400
I0531 19:30:05.279822 25822 layer_factory.hpp:77] Creating layer conv_u4
I0531 19:30:05.279841 25822 net.cpp:106] Creating Layer conv_u4
I0531 19:30:05.279852 25822 net.cpp:454] conv_u4 <- pool_u3
I0531 19:30:05.279866 25822 net.cpp:411] conv_u4 -> conv_u4
I0531 19:30:05.282063 25822 net.cpp:150] Setting up conv_u4
I0531 19:30:05.282085 25822 net.cpp:157] Top shape: 100 36 6 42 (907200)
I0531 19:30:05.282097 25822 net.cpp:165] Memory required for data: 312365200
I0531 19:30:05.282119 25822 layer_factory.hpp:77] Creating layer relu_u4
I0531 19:30:05.282133 25822 net.cpp:106] Creating Layer relu_u4
I0531 19:30:05.282143 25822 net.cpp:454] relu_u4 <- conv_u4
I0531 19:30:05.282156 25822 net.cpp:397] relu_u4 -> conv_u4 (in-place)
I0531 19:30:05.282487 25822 net.cpp:150] Setting up relu_u4
I0531 19:30:05.282501 25822 net.cpp:157] Top shape: 100 36 6 42 (907200)
I0531 19:30:05.282511 25822 net.cpp:165] Memory required for data: 315994000
I0531 19:30:05.282521 25822 layer_factory.hpp:77] Creating layer pool_u4
I0531 19:30:05.282534 25822 net.cpp:106] Creating Layer pool_u4
I0531 19:30:05.282543 25822 net.cpp:454] pool_u4 <- conv_u4
I0531 19:30:05.282557 25822 net.cpp:411] pool_u4 -> pool_u4
I0531 19:30:05.282634 25822 net.cpp:150] Setting up pool_u4
I0531 19:30:05.282649 25822 net.cpp:157] Top shape: 100 36 3 42 (453600)
I0531 19:30:05.282657 25822 net.cpp:165] Memory required for data: 317808400
I0531 19:30:05.282667 25822 layer_factory.hpp:77] Creating layer dl_u1
I0531 19:30:05.282681 25822 net.cpp:106] Creating Layer dl_u1
I0531 19:30:05.282691 25822 net.cpp:454] dl_u1 <- pool_u4
I0531 19:30:05.282706 25822 net.cpp:411] dl_u1 -> dl_u1
I0531 19:30:05.299080 25822 net.cpp:150] Setting up dl_u1
I0531 19:30:05.299104 25822 net.cpp:157] Top shape: 100 196 (19600)
I0531 19:30:05.299114 25822 net.cpp:165] Memory required for data: 317886800
I0531 19:30:05.299130 25822 layer_factory.hpp:77] Creating layer relu_u5
I0531 19:30:05.299145 25822 net.cpp:106] Creating Layer relu_u5
I0531 19:30:05.299156 25822 net.cpp:454] relu_u5 <- dl_u1
I0531 19:30:05.299170 25822 net.cpp:397] relu_u5 -> dl_u1 (in-place)
I0531 19:30:05.299754 25822 net.cpp:150] Setting up relu_u5
I0531 19:30:05.299777 25822 net.cpp:157] Top shape: 100 196 (19600)
I0531 19:30:05.299788 25822 net.cpp:165] Memory required for data: 317965200
I0531 19:30:05.299798 25822 layer_factory.hpp:77] Creating layer drop_u1
I0531 19:30:05.299813 25822 net.cpp:106] Creating Layer drop_u1
I0531 19:30:05.299823 25822 net.cpp:454] drop_u1 <- dl_u1
I0531 19:30:05.299835 25822 net.cpp:397] drop_u1 -> dl_u1 (in-place)
I0531 19:30:05.299885 25822 net.cpp:150] Setting up drop_u1
I0531 19:30:05.299897 25822 net.cpp:157] Top shape: 100 196 (19600)
I0531 19:30:05.299907 25822 net.cpp:165] Memory required for data: 318043600
I0531 19:30:05.299916 25822 layer_factory.hpp:77] Creating layer conv_v1
I0531 19:30:05.299945 25822 net.cpp:106] Creating Layer conv_v1
I0531 19:30:05.299955 25822 net.cpp:454] conv_v1 <- hits-v
I0531 19:30:05.299970 25822 net.cpp:411] conv_v1 -> conv_v1
I0531 19:30:05.301919 25822 net.cpp:150] Setting up conv_v1
I0531 19:30:05.301942 25822 net.cpp:157] Top shape: 100 12 120 48 (6912000)
I0531 19:30:05.301954 25822 net.cpp:165] Memory required for data: 345691600
I0531 19:30:05.301970 25822 layer_factory.hpp:77] Creating layer relu_v1
I0531 19:30:05.301985 25822 net.cpp:106] Creating Layer relu_v1
I0531 19:30:05.301995 25822 net.cpp:454] relu_v1 <- conv_v1
I0531 19:30:05.302007 25822 net.cpp:397] relu_v1 -> conv_v1 (in-place)
I0531 19:30:05.302342 25822 net.cpp:150] Setting up relu_v1
I0531 19:30:05.302356 25822 net.cpp:157] Top shape: 100 12 120 48 (6912000)
I0531 19:30:05.302366 25822 net.cpp:165] Memory required for data: 373339600
I0531 19:30:05.302376 25822 layer_factory.hpp:77] Creating layer pool_v1
I0531 19:30:05.302389 25822 net.cpp:106] Creating Layer pool_v1
I0531 19:30:05.302399 25822 net.cpp:454] pool_v1 <- conv_v1
I0531 19:30:05.302413 25822 net.cpp:411] pool_v1 -> pool_v1
I0531 19:30:05.302500 25822 net.cpp:150] Setting up pool_v1
I0531 19:30:05.302527 25822 net.cpp:157] Top shape: 100 12 60 48 (3456000)
I0531 19:30:05.302538 25822 net.cpp:165] Memory required for data: 387163600
I0531 19:30:05.302549 25822 layer_factory.hpp:77] Creating layer conv_v2
I0531 19:30:05.302567 25822 net.cpp:106] Creating Layer conv_v2
I0531 19:30:05.302577 25822 net.cpp:454] conv_v2 <- pool_v1
I0531 19:30:05.302590 25822 net.cpp:411] conv_v2 -> conv_v2
I0531 19:30:05.304613 25822 net.cpp:150] Setting up conv_v2
I0531 19:30:05.304636 25822 net.cpp:157] Top shape: 100 20 54 46 (4968000)
I0531 19:30:05.304648 25822 net.cpp:165] Memory required for data: 407035600
I0531 19:30:05.304662 25822 layer_factory.hpp:77] Creating layer relu_v2
I0531 19:30:05.304677 25822 net.cpp:106] Creating Layer relu_v2
I0531 19:30:05.304687 25822 net.cpp:454] relu_v2 <- conv_v2
I0531 19:30:05.304700 25822 net.cpp:397] relu_v2 -> conv_v2 (in-place)
I0531 19:30:05.305207 25822 net.cpp:150] Setting up relu_v2
I0531 19:30:05.305224 25822 net.cpp:157] Top shape: 100 20 54 46 (4968000)
I0531 19:30:05.305234 25822 net.cpp:165] Memory required for data: 426907600
I0531 19:30:05.305244 25822 layer_factory.hpp:77] Creating layer pool_v2
I0531 19:30:05.305258 25822 net.cpp:106] Creating Layer pool_v2
I0531 19:30:05.305269 25822 net.cpp:454] pool_v2 <- conv_v2
I0531 19:30:05.305282 25822 net.cpp:411] pool_v2 -> pool_v2
I0531 19:30:05.305363 25822 net.cpp:150] Setting up pool_v2
I0531 19:30:05.305377 25822 net.cpp:157] Top shape: 100 20 27 46 (2484000)
I0531 19:30:05.305388 25822 net.cpp:165] Memory required for data: 436843600
I0531 19:30:05.305398 25822 layer_factory.hpp:77] Creating layer conv_v3
I0531 19:30:05.305416 25822 net.cpp:106] Creating Layer conv_v3
I0531 19:30:05.305426 25822 net.cpp:454] conv_v3 <- pool_v2
I0531 19:30:05.305440 25822 net.cpp:411] conv_v3 -> conv_v3
I0531 19:30:05.307498 25822 net.cpp:150] Setting up conv_v3
I0531 19:30:05.307520 25822 net.cpp:157] Top shape: 100 28 22 44 (2710400)
I0531 19:30:05.307533 25822 net.cpp:165] Memory required for data: 447685200
I0531 19:30:05.307548 25822 layer_factory.hpp:77] Creating layer relu_v3
I0531 19:30:05.307561 25822 net.cpp:106] Creating Layer relu_v3
I0531 19:30:05.307571 25822 net.cpp:454] relu_v3 <- conv_v3
I0531 19:30:05.307585 25822 net.cpp:397] relu_v3 -> conv_v3 (in-place)
I0531 19:30:05.308079 25822 net.cpp:150] Setting up relu_v3
I0531 19:30:05.308094 25822 net.cpp:157] Top shape: 100 28 22 44 (2710400)
I0531 19:30:05.308104 25822 net.cpp:165] Memory required for data: 458526800
I0531 19:30:05.308115 25822 layer_factory.hpp:77] Creating layer pool_v3
I0531 19:30:05.308127 25822 net.cpp:106] Creating Layer pool_v3
I0531 19:30:05.308136 25822 net.cpp:454] pool_v3 <- conv_v3
I0531 19:30:05.308151 25822 net.cpp:411] pool_v3 -> pool_v3
I0531 19:30:05.308229 25822 net.cpp:150] Setting up pool_v3
I0531 19:30:05.308243 25822 net.cpp:157] Top shape: 100 28 11 44 (1355200)
I0531 19:30:05.308253 25822 net.cpp:165] Memory required for data: 463947600
I0531 19:30:05.308261 25822 layer_factory.hpp:77] Creating layer conv_v4
I0531 19:30:05.308280 25822 net.cpp:106] Creating Layer conv_v4
I0531 19:30:05.308291 25822 net.cpp:454] conv_v4 <- pool_v3
I0531 19:30:05.308305 25822 net.cpp:411] conv_v4 -> conv_v4
I0531 19:30:05.310485 25822 net.cpp:150] Setting up conv_v4
I0531 19:30:05.310508 25822 net.cpp:157] Top shape: 100 36 6 42 (907200)
I0531 19:30:05.310518 25822 net.cpp:165] Memory required for data: 467576400
I0531 19:30:05.310536 25822 layer_factory.hpp:77] Creating layer relu_v4
I0531 19:30:05.310550 25822 net.cpp:106] Creating Layer relu_v4
I0531 19:30:05.310561 25822 net.cpp:454] relu_v4 <- conv_v4
I0531 19:30:05.310575 25822 net.cpp:397] relu_v4 -> conv_v4 (in-place)
I0531 19:30:05.310905 25822 net.cpp:150] Setting up relu_v4
I0531 19:30:05.310920 25822 net.cpp:157] Top shape: 100 36 6 42 (907200)
I0531 19:30:05.310930 25822 net.cpp:165] Memory required for data: 471205200
I0531 19:30:05.310940 25822 layer_factory.hpp:77] Creating layer pool_v4
I0531 19:30:05.310952 25822 net.cpp:106] Creating Layer pool_v4
I0531 19:30:05.310973 25822 net.cpp:454] pool_v4 <- conv_v4
I0531 19:30:05.310986 25822 net.cpp:411] pool_v4 -> pool_v4
I0531 19:30:05.311065 25822 net.cpp:150] Setting up pool_v4
I0531 19:30:05.311079 25822 net.cpp:157] Top shape: 100 36 3 42 (453600)
I0531 19:30:05.311089 25822 net.cpp:165] Memory required for data: 473019600
I0531 19:30:05.311100 25822 layer_factory.hpp:77] Creating layer dl_v1
I0531 19:30:05.311115 25822 net.cpp:106] Creating Layer dl_v1
I0531 19:30:05.311125 25822 net.cpp:454] dl_v1 <- pool_v4
I0531 19:30:05.311138 25822 net.cpp:411] dl_v1 -> dl_v1
I0531 19:30:05.327543 25822 net.cpp:150] Setting up dl_v1
I0531 19:30:05.327571 25822 net.cpp:157] Top shape: 100 196 (19600)
I0531 19:30:05.327581 25822 net.cpp:165] Memory required for data: 473098000
I0531 19:30:05.327599 25822 layer_factory.hpp:77] Creating layer relu_v5
I0531 19:30:05.327613 25822 net.cpp:106] Creating Layer relu_v5
I0531 19:30:05.327623 25822 net.cpp:454] relu_v5 <- dl_v1
I0531 19:30:05.327637 25822 net.cpp:397] relu_v5 -> dl_v1 (in-place)
I0531 19:30:05.328222 25822 net.cpp:150] Setting up relu_v5
I0531 19:30:05.328243 25822 net.cpp:157] Top shape: 100 196 (19600)
I0531 19:30:05.328254 25822 net.cpp:165] Memory required for data: 473176400
I0531 19:30:05.328265 25822 layer_factory.hpp:77] Creating layer drop_v1
I0531 19:30:05.328281 25822 net.cpp:106] Creating Layer drop_v1
I0531 19:30:05.328291 25822 net.cpp:454] drop_v1 <- dl_v1
I0531 19:30:05.328305 25822 net.cpp:397] drop_v1 -> dl_v1 (in-place)
I0531 19:30:05.328353 25822 net.cpp:150] Setting up drop_v1
I0531 19:30:05.328366 25822 net.cpp:157] Top shape: 100 196 (19600)
I0531 19:30:05.328377 25822 net.cpp:165] Memory required for data: 473254800
I0531 19:30:05.328387 25822 layer_factory.hpp:77] Creating layer concat_xuv
I0531 19:30:05.328400 25822 net.cpp:106] Creating Layer concat_xuv
I0531 19:30:05.328410 25822 net.cpp:454] concat_xuv <- dl_x1
I0531 19:30:05.328423 25822 net.cpp:454] concat_xuv <- dl_u1
I0531 19:30:05.328433 25822 net.cpp:454] concat_xuv <- dl_v1
I0531 19:30:05.328446 25822 net.cpp:411] concat_xuv -> concat_xuv
I0531 19:30:05.328495 25822 net.cpp:150] Setting up concat_xuv
I0531 19:30:05.328510 25822 net.cpp:157] Top shape: 100 588 (58800)
I0531 19:30:05.328519 25822 net.cpp:165] Memory required for data: 473490000
I0531 19:30:05.328529 25822 layer_factory.hpp:77] Creating layer dl_xuv
I0531 19:30:05.328543 25822 net.cpp:106] Creating Layer dl_xuv
I0531 19:30:05.328553 25822 net.cpp:454] dl_xuv <- concat_xuv
I0531 19:30:05.328567 25822 net.cpp:411] dl_xuv -> dl_xuv
I0531 19:30:05.329618 25822 net.cpp:150] Setting up dl_xuv
I0531 19:30:05.329638 25822 net.cpp:157] Top shape: 100 98 (9800)
I0531 19:30:05.329651 25822 net.cpp:165] Memory required for data: 473529200
I0531 19:30:05.329666 25822 layer_factory.hpp:77] Creating layer relu_xuv
I0531 19:30:05.329679 25822 net.cpp:106] Creating Layer relu_xuv
I0531 19:30:05.329689 25822 net.cpp:454] relu_xuv <- dl_xuv
I0531 19:30:05.329702 25822 net.cpp:397] relu_xuv -> dl_xuv (in-place)
I0531 19:30:05.330031 25822 net.cpp:150] Setting up relu_xuv
I0531 19:30:05.330045 25822 net.cpp:157] Top shape: 100 98 (9800)
I0531 19:30:05.330055 25822 net.cpp:165] Memory required for data: 473568400
I0531 19:30:05.330065 25822 layer_factory.hpp:77] Creating layer drop_xuv
I0531 19:30:05.330078 25822 net.cpp:106] Creating Layer drop_xuv
I0531 19:30:05.330088 25822 net.cpp:454] drop_xuv <- dl_xuv
I0531 19:30:05.330101 25822 net.cpp:397] drop_xuv -> dl_xuv (in-place)
I0531 19:30:05.330147 25822 net.cpp:150] Setting up drop_xuv
I0531 19:30:05.330160 25822 net.cpp:157] Top shape: 100 98 (9800)
I0531 19:30:05.330170 25822 net.cpp:165] Memory required for data: 473607600
I0531 19:30:05.330179 25822 layer_factory.hpp:77] Creating layer output
I0531 19:30:05.330193 25822 net.cpp:106] Creating Layer output
I0531 19:30:05.330202 25822 net.cpp:454] output <- dl_xuv
I0531 19:30:05.330216 25822 net.cpp:411] output -> output
I0531 19:30:05.330461 25822 net.cpp:150] Setting up output
I0531 19:30:05.330474 25822 net.cpp:157] Top shape: 100 11 (1100)
I0531 19:30:05.330497 25822 net.cpp:165] Memory required for data: 473612000
I0531 19:30:05.330530 25822 layer_factory.hpp:77] Creating layer drop_output
I0531 19:30:05.330544 25822 net.cpp:106] Creating Layer drop_output
I0531 19:30:05.330554 25822 net.cpp:454] drop_output <- output
I0531 19:30:05.330567 25822 net.cpp:397] drop_output -> output (in-place)
I0531 19:30:05.330613 25822 net.cpp:150] Setting up drop_output
I0531 19:30:05.330626 25822 net.cpp:157] Top shape: 100 11 (1100)
I0531 19:30:05.330636 25822 net.cpp:165] Memory required for data: 473616400
I0531 19:30:05.330646 25822 layer_factory.hpp:77] Creating layer output_drop_output_0_split
I0531 19:30:05.330657 25822 net.cpp:106] Creating Layer output_drop_output_0_split
I0531 19:30:05.330668 25822 net.cpp:454] output_drop_output_0_split <- output
I0531 19:30:05.330682 25822 net.cpp:411] output_drop_output_0_split -> output_drop_output_0_split_0
I0531 19:30:05.330698 25822 net.cpp:411] output_drop_output_0_split -> output_drop_output_0_split_1
I0531 19:30:05.330772 25822 net.cpp:150] Setting up output_drop_output_0_split
I0531 19:30:05.330785 25822 net.cpp:157] Top shape: 100 11 (1100)
I0531 19:30:05.330798 25822 net.cpp:157] Top shape: 100 11 (1100)
I0531 19:30:05.330808 25822 net.cpp:165] Memory required for data: 473625200
I0531 19:30:05.330818 25822 layer_factory.hpp:77] Creating layer accuracy
I0531 19:30:05.330839 25822 net.cpp:106] Creating Layer accuracy
I0531 19:30:05.330849 25822 net.cpp:454] accuracy <- output_drop_output_0_split_0
I0531 19:30:05.330862 25822 net.cpp:454] accuracy <- segments_data_3_split_0
I0531 19:30:05.330875 25822 net.cpp:411] accuracy -> accuracy
…
