…
I0530 02:30:58.770213 24430 net.cpp:322] The NetState phase (0) differed from the phase (1) specified by a rule in layer data
I0530 02:30:58.770308 24430 net.cpp:322] The NetState phase (0) differed from the phase (1) specified by a rule in layer accuracy
I0530 02:30:58.771042 24430 net.cpp:49] Initializing net from parameters: 
name: "epsilon_127x50_xuv"
state {
  phase: TRAIN
}
layer {
  name: "data"
  type: "HDF5Data"
  top: "hits-x"
  top: "hits-u"
  top: "hits-v"
  top: "segments"
  include {
    phase: TRAIN
  }
  hdf5_data_param {
    source: "/lustre/atlas/proj-shared/hep105/caffe_titan/xuv/epsilon_127x50_xuv.trainlist"
    batch_size: 100
  }
}
layer {
  name: "conv_x1"
  type: "Convolution"
  bottom: "hits-x"
  top: "conv_x1"
  convolution_param {
    num_output: 12
    pad: 0
    stride: 1
    weight_filler {
      type: "xavier"
    }
    bias_filler {
      type: "constant"
    }
    kernel_h: 8
    kernel_w: 3
  }
}
layer {
  name: "relu_x1"
  type: "ReLU"
  bottom: "conv_x1"
  top: "conv_x1"
}
layer {
  name: "pool_x1"
  type: "Pooling"
  bottom: "conv_x1"
  top: "pool_x1"
  pooling_param {
    pool: MAX
    kernel_h: 2
    kernel_w: 1
    stride_h: 2
    stride_w: 1
  }
}
layer {
  name: "conv_x2"
  type: "Convolution"
  bottom: "pool_x1"
  top: "conv_x2"
  convolution_param {
    num_output: 20
    pad: 0
    stride: 1
    weight_filler {
      type: "xavier"
    }
    bias_filler {
      type: "constant"
    }
    kernel_h: 7
    kernel_w: 3
  }
}
layer {
  name: "relu_x2"
  type: "ReLU"
  bottom: "conv_x2"
  top: "conv_x2"
}
layer {
  name: "pool_x2"
  type: "Pooling"
  bottom: "conv_x2"
  top: "pool_x2"
  pooling_param {
    pool: MAX
    kernel_h: 2
    kernel_w: 1
    stride_h: 2
    stride_w: 1
  }
}
layer {
  name: "conv_x3"
  type: "Convolution"
  bottom: "pool_x2"
  top: "conv_x3"
  convolution_param {
    num_output: 28
    pad: 0
    stride: 1
    weight_filler {
      type: "xavier"
    }
    bias_filler {
      type: "constant"
    }
    kernel_h: 6
    kernel_w: 3
  }
}
layer {
  name: "relu_x3"
  type: "ReLU"
  bottom: "conv_x3"
  top: "conv_x3"
}
layer {
  name: "pool_x3"
  type: "Pooling"
  bottom: "conv_x3"
  top: "pool_x3"
  pooling_param {
    pool: MAX
    kernel_h: 2
    kernel_w: 1
    stride_h: 2
    stride_w: 1
  }
}
layer {
  name: "conv_x4"
  type: "Convolution"
  bottom: "pool_x3"
  top: "conv_x4"
  convolution_param {
    num_output: 36
    pad: 0
    stride: 1
    weight_filler {
      type: "xavier"
    }
    bias_filler {
      type: "constant"
    }
    kernel_h: 6
    kernel_w: 3
  }
}
layer {
  name: "relu_x4"
  type: "ReLU"
  bottom: "conv_x4"
  top: "conv_x4"
}
layer {
  name: "pool_x4"
  type: "Pooling"
  bottom: "conv_x4"
  top: "pool_x4"
  pooling_param {
    pool: MAX
    kernel_h: 2
    kernel_w: 1
    stride_h: 2
    stride_w: 1
  }
}
layer {
  name: "dl_x1"
  type: "InnerProduct"
  bottom: "pool_x4"
  top: "dl_x1"
  inner_product_param {
    num_output: 196
    weight_filler {
      type: "xavier"
    }
    bias_filler {
      type: "constant"
    }
  }
}
layer {
  name: "relu_x5"
  type: "ReLU"
  bottom: "dl_x1"
  top: "dl_x1"
}
layer {
  name: "drop_x1"
  type: "Dropout"
  bottom: "dl_x1"
  top: "dl_x1"
  dropout_param {
    dropout_ratio: 0.5
  }
}
layer {
  name: "conv_u1"
  type: "Convolution"
  bottom: "hits-u"
  top: "conv_u1"
  convolution_param {
    num_output: 12
    pad: 0
    stride: 1
    weight_filler {
      type: "xavier"
    }
    bias_filler {
      type: "constant"
    }
    kernel_h: 8
    kernel_w: 3
  }
}
layer {
  name: "relu_u1"
  type: "ReLU"
  bottom: "conv_u1"
  top: "conv_u1"
}
layer {
  name: "pool_u1"
  type: "Pooling"
  bottom: "conv_u1"
  top: "pool_u1"
  pooling_param {
    pool: MAX
    kernel_h: 2
    kernel_w: 1
    stride_h: 2
    stride_w: 1
  }
}
layer {
  name: "conv_u2"
  type: "Convolution"
  bottom: "pool_u1"
  top: "conv_u2"
  convolution_param {
    num_output: 20
    pad: 0
    stride: 1
    weight_filler {
      type: "xavier"
    }
    bias_filler {
      type: "constant"
    }
    kernel_h: 7
    kernel_w: 3
  }
}
layer {
  name: "relu_u2"
  type: "ReLU"
  bottom: "conv_u2"
  top: "conv_u2"
}
layer {
  name: "pool_u2"
  type: "Pooling"
  bottom: "conv_u2"
  top: "pool_u2"
  pooling_param {
    pool: MAX
    kernel_h: 2
    kernel_w: 1
    stride_h: 2
    stride_w: 1
  }
}
layer {
  name: "conv_u3"
  type: "Convolution"
  bottom: "pool_u2"
  top: "conv_u3"
  convolution_param {
    num_output: 28
    pad: 0
    stride: 1
    weight_filler {
      type: "xavier"
    }
    bias_filler {
      type: "constant"
    }
    kernel_h: 6
    kernel_w: 3
  }
}
layer {
  name: "relu_u3"
  type: "ReLU"
  bottom: "conv_u3"
  top: "conv_u3"
}
layer {
  name: "pool_u3"
  type: "Pooling"
  bottom: "conv_u3"
  top: "pool_u3"
  pooling_param {
    pool: MAX
    kernel_h: 2
    kernel_w: 1
    stride_h: 2
    stride_w: 1
  }
}
layer {
  name: "conv_u4"
  type: "Convolution"
  bottom: "pool_u3"
  top: "conv_u4"
  convolution_param {
    num_output: 36
    pad: 0
    stride: 1
    weight_filler {
      type: "xavier"
    }
    bias_filler {
      type: "constant"
    }
    kernel_h: 6
    kernel_w: 3
  }
}
layer {
  name: "relu_u4"
  type: "ReLU"
  bottom: "conv_u4"
  top: "conv_u4"
}
layer {
  name: "pool_u4"
  type: "Pooling"
  bottom: "conv_u4"
  top: "pool_u4"
  pooling_param {
    pool: MAX
    kernel_h: 2
    kernel_w: 1
    stride_h: 2
    stride_w: 1
  }
}
layer {
  name: "dl_u1"
  type: "InnerProduct"
  bottom: "pool_u4"
  top: "dl_u1"
  inner_product_param {
    num_output: 196
    weight_filler {
      type: "xavier"
    }
    bias_filler {
      type: "constant"
    }
  }
}
layer {
  name: "relu_u5"
  type: "ReLU"
  bottom: "dl_u1"
  top: "dl_u1"
}
layer {
  name: "drop_u1"
  type: "Dropout"
  bottom: "dl_u1"
  top: "dl_u1"
  dropout_param {
    dropout_ratio: 0.5
  }
}
layer {
  name: "conv_v1"
  type: "Convolution"
  bottom: "hits-v"
  top: "conv_v1"
  convolution_param {
    num_output: 12
    pad: 0
    stride: 1
    weight_filler {
      type: "xavier"
    }
    bias_filler {
      type: "constant"
    }
    kernel_h: 8
    kernel_w: 3
  }
}
layer {
  name: "relu_v1"
  type: "ReLU"
  bottom: "conv_v1"
  top: "conv_v1"
}
layer {
  name: "pool_v1"
  type: "Pooling"
  bottom: "conv_v1"
  top: "pool_v1"
  pooling_param {
    pool: MAX
    kernel_h: 2
    kernel_w: 1
    stride_h: 2
    stride_w: 1
  }
}
layer {
  name: "conv_v2"
  type: "Convolution"
  bottom: "pool_v1"
  top: "conv_v2"
  convolution_param {
    num_output: 20
    pad: 0
    stride: 1
    weight_filler {
      type: "xavier"
    }
    bias_filler {
      type: "constant"
    }
    kernel_h: 7
    kernel_w: 3
  }
}
layer {
  name: "relu_v2"
  type: "ReLU"
  bottom: "conv_v2"
  top: "conv_v2"
}
layer {
  name: "pool_v2"
  type: "Pooling"
  bottom: "conv_v2"
  top: "pool_v2"
  pooling_param {
    pool: MAX
    kernel_h: 2
    kernel_w: 1
    stride_h: 2
    stride_w: 1
  }
}
layer {
  name: "conv_v3"
  type: "Convolution"
  bottom: "pool_v2"
  top: "conv_v3"
  convolution_param {
    num_output: 28
    pad: 0
    stride: 1
    weight_filler {
      type: "xavier"
    }
    bias_filler {
      type: "constant"
    }
    kernel_h: 6
    kernel_w: 3
  }
}
layer {
  name: "relu_v3"
  type: "ReLU"
  bottom: "conv_v3"
  top: "conv_v3"
}
layer {
  name: "pool_v3"
  type: "Pooling"
  bottom: "conv_v3"
  top: "pool_v3"
  pooling_param {
    pool: MAX
    kernel_h: 2
    kernel_w: 1
    stride_h: 2
    stride_w: 1
  }
}
layer {
  name: "conv_v4"
  type: "Convolution"
  bottom: "pool_v3"
  top: "conv_v4"
  convolution_param {
    num_output: 36
    pad: 0
    stride: 1
    weight_filler {
      type: "xavier"
    }
    bias_filler {
      type: "constant"
    }
    kernel_h: 6
    kernel_w: 3
  }
}
layer {
  name: "relu_v4"
  type: "ReLU"
  bottom: "conv_v4"
  top: "conv_v4"
}
layer {
  name: "pool_v4"
  type: "Pooling"
  bottom: "conv_v4"
  top: "pool_v4"
  pooling_param {
    pool: MAX
    kernel_h: 2
    kernel_w: 1
    stride_h: 2
    stride_w: 1
  }
}
layer {
  name: "dl_v1"
  type: "InnerProduct"
  bottom: "pool_v4"
  top: "dl_v1"
  inner_product_param {
    num_output: 196
    weight_filler {
      type: "xavier"
    }
    bias_filler {
      type: "constant"
    }
  }
}
layer {
  name: "relu_v5"
  type: "ReLU"
  bottom: "dl_v1"
  top: "dl_v1"
}
layer {
  name: "drop_v1"
  type: "Dropout"
  bottom: "dl_v1"
  top: "dl_v1"
  dropout_param {
    dropout_ratio: 0.5
  }
}
layer {
  name: "concat_xuv"
  type: "Concat"
  bottom: "dl_x1"
  bottom: "dl_u1"
  bottom: "dl_v1"
  top: "concat_xuv"
  concat_param {
    axis: 1
  }
}
layer {
  name: "dl_xuv"
  type: "InnerProduct"
  bottom: "concat_xuv"
  top: "dl_xuv"
  inner_product_param {
    num_output: 98
    weight_filler {
      type: "xavier"
    }
    bias_filler {
      type: "constant"
    }
  }
}
layer {
  name: "relu_xuv"
  type: "ReLU"
  bottom: "dl_xuv"
  top: "dl_xuv"
}
layer {
  name: "drop_xuv"
  type: "Dropout"
  bottom: "dl_xuv"
  top: "dl_xuv"
  dropout_param {
    dropout_ratio: 0.5
  }
}
layer {
  name: "output"
  type: "InnerProduct"
  bottom: "dl_xuv"
  top: "output"
  inner_product_param {
    num_output: 11
    weight_filler {
      type: "xavier"
    }
    bias_filler {
      type: "constant"
    }
  }
}
layer {
  name: "drop_output"
  type: "Dropout"
  bottom: "output"
  top: "output"
  dropout_param {
    dropout_ratio: 0.5
  }
}
layer {
  name: "loss"
  type: "SoftmaxWithLoss"
  bottom: "output"
  bottom: "segments"
  top: "loss"
}
I0530 02:30:58.771401 24430 layer_factory.hpp:77] Creating layer data
I0530 02:30:58.771426 24430 net.cpp:106] Creating Layer data
I0530 02:30:58.771440 24430 net.cpp:411] data -> hits-x
I0530 02:30:58.771476 24430 net.cpp:411] data -> hits-u
I0530 02:30:58.771497 24430 net.cpp:411] data -> hits-v
I0530 02:30:58.771512 24430 net.cpp:411] data -> segments
I0530 02:30:58.771535 24430 hdf5_data_layer.cpp:79] Loading list of HDF5 filenames from: /lustre/atlas/proj-shared/hep105/caffe_titan/xuv/epsilon_127x50_xuv.trainlist
I0530 02:30:58.773273 24430 hdf5_data_layer.cpp:93] Number of HDF5 files: 15
I0530 02:30:58.817351 24430 hdf5.cpp:32] Datatype class: H5T_FLOAT
I0530 02:32:03.120231 24430 hdf5.cpp:35] Datatype class: H5T_INTEGER
I0530 02:32:03.125836 24430 net.cpp:150] Setting up data
I0530 02:32:03.125877 24430 net.cpp:157] Top shape: 100 1 127 50 (635000)
I0530 02:32:03.125892 24430 net.cpp:157] Top shape: 100 1 127 50 (635000)
I0530 02:32:03.125907 24430 net.cpp:157] Top shape: 100 1 127 50 (635000)
I0530 02:32:03.125919 24430 net.cpp:157] Top shape: 100 (100)
I0530 02:32:03.125929 24430 net.cpp:165] Memory required for data: 7620400
I0530 02:32:03.125942 24430 layer_factory.hpp:77] Creating layer conv_x1
I0530 02:32:03.125977 24430 net.cpp:106] Creating Layer conv_x1
I0530 02:32:03.125988 24430 net.cpp:454] conv_x1 <- hits-x
I0530 02:32:03.126010 24430 net.cpp:411] conv_x1 -> conv_x1
I0530 02:32:05.276185 24430 net.cpp:150] Setting up conv_x1
I0530 02:32:05.276226 24430 net.cpp:157] Top shape: 100 12 120 48 (6912000)
I0530 02:32:05.276238 24430 net.cpp:165] Memory required for data: 35268400
I0530 02:32:05.276267 24430 layer_factory.hpp:77] Creating layer relu_x1
I0530 02:32:05.276289 24430 net.cpp:106] Creating Layer relu_x1
I0530 02:32:05.276300 24430 net.cpp:454] relu_x1 <- conv_x1
I0530 02:32:05.276314 24430 net.cpp:397] relu_x1 -> conv_x1 (in-place)
I0530 02:32:05.276829 24430 net.cpp:150] Setting up relu_x1
I0530 02:32:05.276845 24430 net.cpp:157] Top shape: 100 12 120 48 (6912000)
I0530 02:32:05.276856 24430 net.cpp:165] Memory required for data: 62916400
I0530 02:32:05.276867 24430 layer_factory.hpp:77] Creating layer pool_x1
I0530 02:32:05.276885 24430 net.cpp:106] Creating Layer pool_x1
I0530 02:32:05.276895 24430 net.cpp:454] pool_x1 <- conv_x1
I0530 02:32:05.276911 24430 net.cpp:411] pool_x1 -> pool_x1
I0530 02:32:05.276991 24430 net.cpp:150] Setting up pool_x1
I0530 02:32:05.277005 24430 net.cpp:157] Top shape: 100 12 60 48 (3456000)
I0530 02:32:05.277014 24430 net.cpp:165] Memory required for data: 76740400
I0530 02:32:05.277024 24430 layer_factory.hpp:77] Creating layer conv_x2
I0530 02:32:05.277046 24430 net.cpp:106] Creating Layer conv_x2
I0530 02:32:05.277056 24430 net.cpp:454] conv_x2 <- pool_x1
I0530 02:32:05.277070 24430 net.cpp:411] conv_x2 -> conv_x2
I0530 02:32:05.279743 24430 net.cpp:150] Setting up conv_x2
I0530 02:32:05.279772 24430 net.cpp:157] Top shape: 100 20 54 46 (4968000)
I0530 02:32:05.279785 24430 net.cpp:165] Memory required for data: 96612400
I0530 02:32:05.279806 24430 layer_factory.hpp:77] Creating layer relu_x2
I0530 02:32:05.279820 24430 net.cpp:106] Creating Layer relu_x2
I0530 02:32:05.279831 24430 net.cpp:454] relu_x2 <- conv_x2
I0530 02:32:05.279844 24430 net.cpp:397] relu_x2 -> conv_x2 (in-place)
I0530 02:32:05.280174 24430 net.cpp:150] Setting up relu_x2
I0530 02:32:05.280190 24430 net.cpp:157] Top shape: 100 20 54 46 (4968000)
I0530 02:32:05.280200 24430 net.cpp:165] Memory required for data: 116484400
I0530 02:32:05.280211 24430 layer_factory.hpp:77] Creating layer pool_x2
I0530 02:32:05.280225 24430 net.cpp:106] Creating Layer pool_x2
I0530 02:32:05.280235 24430 net.cpp:454] pool_x2 <- conv_x2
I0530 02:32:05.280248 24430 net.cpp:411] pool_x2 -> pool_x2
I0530 02:32:05.280318 24430 net.cpp:150] Setting up pool_x2
I0530 02:32:05.280333 24430 net.cpp:157] Top shape: 100 20 27 46 (2484000)
I0530 02:32:05.280342 24430 net.cpp:165] Memory required for data: 126420400
I0530 02:32:05.280352 24430 layer_factory.hpp:77] Creating layer conv_x3
I0530 02:32:05.280370 24430 net.cpp:106] Creating Layer conv_x3
I0530 02:32:05.280381 24430 net.cpp:454] conv_x3 <- pool_x2
I0530 02:32:05.280395 24430 net.cpp:411] conv_x3 -> conv_x3
I0530 02:32:05.282326 24430 net.cpp:150] Setting up conv_x3
I0530 02:32:05.282351 24430 net.cpp:157] Top shape: 100 28 22 44 (2710400)
I0530 02:32:05.282362 24430 net.cpp:165] Memory required for data: 137262000
I0530 02:32:05.282382 24430 layer_factory.hpp:77] Creating layer relu_x3
I0530 02:32:05.282397 24430 net.cpp:106] Creating Layer relu_x3
I0530 02:32:05.282408 24430 net.cpp:454] relu_x3 <- conv_x3
I0530 02:32:05.282421 24430 net.cpp:397] relu_x3 -> conv_x3 (in-place)
I0530 02:32:05.282892 24430 net.cpp:150] Setting up relu_x3
I0530 02:32:05.282908 24430 net.cpp:157] Top shape: 100 28 22 44 (2710400)
I0530 02:32:05.282932 24430 net.cpp:165] Memory required for data: 148103600
I0530 02:32:05.282941 24430 layer_factory.hpp:77] Creating layer pool_x3
I0530 02:32:05.282955 24430 net.cpp:106] Creating Layer pool_x3
I0530 02:32:05.282965 24430 net.cpp:454] pool_x3 <- conv_x3
I0530 02:32:05.282979 24430 net.cpp:411] pool_x3 -> pool_x3
I0530 02:32:05.283047 24430 net.cpp:150] Setting up pool_x3
I0530 02:32:05.283061 24430 net.cpp:157] Top shape: 100 28 11 44 (1355200)
I0530 02:32:05.283073 24430 net.cpp:165] Memory required for data: 153524400
I0530 02:32:05.283083 24430 layer_factory.hpp:77] Creating layer conv_x4
I0530 02:32:05.283100 24430 net.cpp:106] Creating Layer conv_x4
I0530 02:32:05.283110 24430 net.cpp:454] conv_x4 <- pool_x3
I0530 02:32:05.283124 24430 net.cpp:411] conv_x4 -> conv_x4
I0530 02:32:05.286070 24430 net.cpp:150] Setting up conv_x4
I0530 02:32:05.286099 24430 net.cpp:157] Top shape: 100 36 6 42 (907200)
I0530 02:32:05.286109 24430 net.cpp:165] Memory required for data: 157153200
I0530 02:32:05.286125 24430 layer_factory.hpp:77] Creating layer relu_x4
I0530 02:32:05.286140 24430 net.cpp:106] Creating Layer relu_x4
I0530 02:32:05.286150 24430 net.cpp:454] relu_x4 <- conv_x4
I0530 02:32:05.286164 24430 net.cpp:397] relu_x4 -> conv_x4 (in-place)
I0530 02:32:05.286638 24430 net.cpp:150] Setting up relu_x4
I0530 02:32:05.286655 24430 net.cpp:157] Top shape: 100 36 6 42 (907200)
I0530 02:32:05.286667 24430 net.cpp:165] Memory required for data: 160782000
I0530 02:32:05.286677 24430 layer_factory.hpp:77] Creating layer pool_x4
I0530 02:32:05.286690 24430 net.cpp:106] Creating Layer pool_x4
I0530 02:32:05.286700 24430 net.cpp:454] pool_x4 <- conv_x4
I0530 02:32:05.286713 24430 net.cpp:411] pool_x4 -> pool_x4
I0530 02:32:05.286783 24430 net.cpp:150] Setting up pool_x4
I0530 02:32:05.286797 24430 net.cpp:157] Top shape: 100 36 3 42 (453600)
I0530 02:32:05.286808 24430 net.cpp:165] Memory required for data: 162596400
I0530 02:32:05.286818 24430 layer_factory.hpp:77] Creating layer dl_x1
I0530 02:32:05.286839 24430 net.cpp:106] Creating Layer dl_x1
I0530 02:32:05.286849 24430 net.cpp:454] dl_x1 <- pool_x4
I0530 02:32:05.286861 24430 net.cpp:411] dl_x1 -> dl_x1
I0530 02:32:05.302270 24430 net.cpp:150] Setting up dl_x1
I0530 02:32:05.302299 24430 net.cpp:157] Top shape: 100 196 (19600)
I0530 02:32:05.302310 24430 net.cpp:165] Memory required for data: 162674800
I0530 02:32:05.302333 24430 layer_factory.hpp:77] Creating layer relu_x5
I0530 02:32:05.302348 24430 net.cpp:106] Creating Layer relu_x5
I0530 02:32:05.302359 24430 net.cpp:454] relu_x5 <- dl_x1
I0530 02:32:05.302372 24430 net.cpp:397] relu_x5 -> dl_x1 (in-place)
I0530 02:32:05.302714 24430 net.cpp:150] Setting up relu_x5
I0530 02:32:05.302728 24430 net.cpp:157] Top shape: 100 196 (19600)
I0530 02:32:05.302738 24430 net.cpp:165] Memory required for data: 162753200
I0530 02:32:05.302749 24430 layer_factory.hpp:77] Creating layer drop_x1
I0530 02:32:05.302770 24430 net.cpp:106] Creating Layer drop_x1
I0530 02:32:05.302781 24430 net.cpp:454] drop_x1 <- dl_x1
I0530 02:32:05.302794 24430 net.cpp:397] drop_x1 -> dl_x1 (in-place)
I0530 02:32:05.302839 24430 net.cpp:150] Setting up drop_x1
I0530 02:32:05.302853 24430 net.cpp:157] Top shape: 100 196 (19600)
I0530 02:32:05.302863 24430 net.cpp:165] Memory required for data: 162831600
I0530 02:32:05.302873 24430 layer_factory.hpp:77] Creating layer conv_u1
I0530 02:32:05.302896 24430 net.cpp:106] Creating Layer conv_u1
I0530 02:32:05.302906 24430 net.cpp:454] conv_u1 <- hits-u
I0530 02:32:05.302919 24430 net.cpp:411] conv_u1 -> conv_u1
I0530 02:32:05.304743 24430 net.cpp:150] Setting up conv_u1
I0530 02:32:05.304764 24430 net.cpp:157] Top shape: 100 12 120 48 (6912000)
I0530 02:32:05.304777 24430 net.cpp:165] Memory required for data: 190479600
I0530 02:32:05.304793 24430 layer_factory.hpp:77] Creating layer relu_u1
I0530 02:32:05.304806 24430 net.cpp:106] Creating Layer relu_u1
I0530 02:32:05.304816 24430 net.cpp:454] relu_u1 <- conv_u1
I0530 02:32:05.304829 24430 net.cpp:397] relu_u1 -> conv_u1 (in-place)
I0530 02:32:05.305312 24430 net.cpp:150] Setting up relu_u1
I0530 02:32:05.305331 24430 net.cpp:157] Top shape: 100 12 120 48 (6912000)
I0530 02:32:05.305341 24430 net.cpp:165] Memory required for data: 218127600
I0530 02:32:05.305351 24430 layer_factory.hpp:77] Creating layer pool_u1
I0530 02:32:05.305366 24430 net.cpp:106] Creating Layer pool_u1
I0530 02:32:05.305376 24430 net.cpp:454] pool_u1 <- conv_u1
I0530 02:32:05.305388 24430 net.cpp:411] pool_u1 -> pool_u1
I0530 02:32:05.305459 24430 net.cpp:150] Setting up pool_u1
I0530 02:32:05.305472 24430 net.cpp:157] Top shape: 100 12 60 48 (3456000)
I0530 02:32:05.305482 24430 net.cpp:165] Memory required for data: 231951600
I0530 02:32:05.305492 24430 layer_factory.hpp:77] Creating layer conv_u2
I0530 02:32:05.305507 24430 net.cpp:106] Creating Layer conv_u2
I0530 02:32:05.305518 24430 net.cpp:454] conv_u2 <- pool_u1
I0530 02:32:05.305532 24430 net.cpp:411] conv_u2 -> conv_u2
I0530 02:32:05.307361 24430 net.cpp:150] Setting up conv_u2
I0530 02:32:05.307384 24430 net.cpp:157] Top shape: 100 20 54 46 (4968000)
I0530 02:32:05.307396 24430 net.cpp:165] Memory required for data: 251823600
I0530 02:32:05.307411 24430 layer_factory.hpp:77] Creating layer relu_u2
I0530 02:32:05.307425 24430 net.cpp:106] Creating Layer relu_u2
I0530 02:32:05.307435 24430 net.cpp:454] relu_u2 <- conv_u2
I0530 02:32:05.307447 24430 net.cpp:397] relu_u2 -> conv_u2 (in-place)
I0530 02:32:05.307767 24430 net.cpp:150] Setting up relu_u2
I0530 02:32:05.307782 24430 net.cpp:157] Top shape: 100 20 54 46 (4968000)
I0530 02:32:05.307792 24430 net.cpp:165] Memory required for data: 271695600
I0530 02:32:05.307803 24430 layer_factory.hpp:77] Creating layer pool_u2
I0530 02:32:05.307816 24430 net.cpp:106] Creating Layer pool_u2
I0530 02:32:05.307826 24430 net.cpp:454] pool_u2 <- conv_u2
I0530 02:32:05.307838 24430 net.cpp:411] pool_u2 -> pool_u2
I0530 02:32:05.307911 24430 net.cpp:150] Setting up pool_u2
I0530 02:32:05.307926 24430 net.cpp:157] Top shape: 100 20 27 46 (2484000)
I0530 02:32:05.307936 24430 net.cpp:165] Memory required for data: 281631600
I0530 02:32:05.307947 24430 layer_factory.hpp:77] Creating layer conv_u3
I0530 02:32:05.307965 24430 net.cpp:106] Creating Layer conv_u3
I0530 02:32:05.307974 24430 net.cpp:454] conv_u3 <- pool_u2
I0530 02:32:05.307988 24430 net.cpp:411] conv_u3 -> conv_u3
I0530 02:32:05.309898 24430 net.cpp:150] Setting up conv_u3
I0530 02:32:05.309921 24430 net.cpp:157] Top shape: 100 28 22 44 (2710400)
I0530 02:32:05.309933 24430 net.cpp:165] Memory required for data: 292473200
I0530 02:32:05.309949 24430 layer_factory.hpp:77] Creating layer relu_u3
I0530 02:32:05.309962 24430 net.cpp:106] Creating Layer relu_u3
I0530 02:32:05.309973 24430 net.cpp:454] relu_u3 <- conv_u3
I0530 02:32:05.309985 24430 net.cpp:397] relu_u3 -> conv_u3 (in-place)
I0530 02:32:05.310328 24430 net.cpp:150] Setting up relu_u3
I0530 02:32:05.310340 24430 net.cpp:157] Top shape: 100 28 22 44 (2710400)
I0530 02:32:05.310350 24430 net.cpp:165] Memory required for data: 303314800
I0530 02:32:05.310361 24430 layer_factory.hpp:77] Creating layer pool_u3
I0530 02:32:05.310374 24430 net.cpp:106] Creating Layer pool_u3
I0530 02:32:05.310384 24430 net.cpp:454] pool_u3 <- conv_u3
I0530 02:32:05.310395 24430 net.cpp:411] pool_u3 -> pool_u3
I0530 02:32:05.310464 24430 net.cpp:150] Setting up pool_u3
I0530 02:32:05.310478 24430 net.cpp:157] Top shape: 100 28 11 44 (1355200)
I0530 02:32:05.310488 24430 net.cpp:165] Memory required for data: 308735600
I0530 02:32:05.310500 24430 layer_factory.hpp:77] Creating layer conv_u4
I0530 02:32:05.310516 24430 net.cpp:106] Creating Layer conv_u4
I0530 02:32:05.310528 24430 net.cpp:454] conv_u4 <- pool_u3
I0530 02:32:05.310540 24430 net.cpp:411] conv_u4 -> conv_u4
I0530 02:32:05.312808 24430 net.cpp:150] Setting up conv_u4
I0530 02:32:05.312831 24430 net.cpp:157] Top shape: 100 36 6 42 (907200)
I0530 02:32:05.312844 24430 net.cpp:165] Memory required for data: 312364400
I0530 02:32:05.312866 24430 layer_factory.hpp:77] Creating layer relu_u4
I0530 02:32:05.312880 24430 net.cpp:106] Creating Layer relu_u4
I0530 02:32:05.312899 24430 net.cpp:454] relu_u4 <- conv_u4
I0530 02:32:05.312913 24430 net.cpp:397] relu_u4 -> conv_u4 (in-place)
I0530 02:32:05.313386 24430 net.cpp:150] Setting up relu_u4
I0530 02:32:05.313402 24430 net.cpp:157] Top shape: 100 36 6 42 (907200)
I0530 02:32:05.313412 24430 net.cpp:165] Memory required for data: 315993200
I0530 02:32:05.313423 24430 layer_factory.hpp:77] Creating layer pool_u4
I0530 02:32:05.313436 24430 net.cpp:106] Creating Layer pool_u4
I0530 02:32:05.313446 24430 net.cpp:454] pool_u4 <- conv_u4
I0530 02:32:05.313459 24430 net.cpp:411] pool_u4 -> pool_u4
I0530 02:32:05.313529 24430 net.cpp:150] Setting up pool_u4
I0530 02:32:05.313544 24430 net.cpp:157] Top shape: 100 36 3 42 (453600)
I0530 02:32:05.313554 24430 net.cpp:165] Memory required for data: 317807600
I0530 02:32:05.313563 24430 layer_factory.hpp:77] Creating layer dl_u1
I0530 02:32:05.313576 24430 net.cpp:106] Creating Layer dl_u1
I0530 02:32:05.313587 24430 net.cpp:454] dl_u1 <- pool_u4
I0530 02:32:05.313601 24430 net.cpp:411] dl_u1 -> dl_u1
I0530 02:32:05.329056 24430 net.cpp:150] Setting up dl_u1
I0530 02:32:05.329084 24430 net.cpp:157] Top shape: 100 196 (19600)
I0530 02:32:05.329097 24430 net.cpp:165] Memory required for data: 317886000
I0530 02:32:05.329113 24430 layer_factory.hpp:77] Creating layer relu_u5
I0530 02:32:05.329128 24430 net.cpp:106] Creating Layer relu_u5
I0530 02:32:05.329138 24430 net.cpp:454] relu_u5 <- dl_u1
I0530 02:32:05.329152 24430 net.cpp:397] relu_u5 -> dl_u1 (in-place)
I0530 02:32:05.329496 24430 net.cpp:150] Setting up relu_u5
I0530 02:32:05.329510 24430 net.cpp:157] Top shape: 100 196 (19600)
I0530 02:32:05.329520 24430 net.cpp:165] Memory required for data: 317964400
I0530 02:32:05.329530 24430 layer_factory.hpp:77] Creating layer drop_u1
I0530 02:32:05.329542 24430 net.cpp:106] Creating Layer drop_u1
I0530 02:32:05.329553 24430 net.cpp:454] drop_u1 <- dl_u1
I0530 02:32:05.329566 24430 net.cpp:397] drop_u1 -> dl_u1 (in-place)
I0530 02:32:05.329609 24430 net.cpp:150] Setting up drop_u1
I0530 02:32:05.329622 24430 net.cpp:157] Top shape: 100 196 (19600)
I0530 02:32:05.329632 24430 net.cpp:165] Memory required for data: 318042800
I0530 02:32:05.329643 24430 layer_factory.hpp:77] Creating layer conv_v1
I0530 02:32:05.329658 24430 net.cpp:106] Creating Layer conv_v1
I0530 02:32:05.329668 24430 net.cpp:454] conv_v1 <- hits-v
I0530 02:32:05.329682 24430 net.cpp:411] conv_v1 -> conv_v1
I0530 02:32:05.331545 24430 net.cpp:150] Setting up conv_v1
I0530 02:32:05.331568 24430 net.cpp:157] Top shape: 100 12 120 48 (6912000)
I0530 02:32:05.331581 24430 net.cpp:165] Memory required for data: 345690800
I0530 02:32:05.331596 24430 layer_factory.hpp:77] Creating layer relu_v1
I0530 02:32:05.331619 24430 net.cpp:106] Creating Layer relu_v1
I0530 02:32:05.331629 24430 net.cpp:454] relu_v1 <- conv_v1
I0530 02:32:05.331643 24430 net.cpp:397] relu_v1 -> conv_v1 (in-place)
I0530 02:32:05.332116 24430 net.cpp:150] Setting up relu_v1
I0530 02:32:05.332134 24430 net.cpp:157] Top shape: 100 12 120 48 (6912000)
I0530 02:32:05.332145 24430 net.cpp:165] Memory required for data: 373338800
I0530 02:32:05.332155 24430 layer_factory.hpp:77] Creating layer pool_v1
I0530 02:32:05.332170 24430 net.cpp:106] Creating Layer pool_v1
I0530 02:32:05.332180 24430 net.cpp:454] pool_v1 <- conv_v1
I0530 02:32:05.332192 24430 net.cpp:411] pool_v1 -> pool_v1
I0530 02:32:05.332265 24430 net.cpp:150] Setting up pool_v1
I0530 02:32:05.332278 24430 net.cpp:157] Top shape: 100 12 60 48 (3456000)
I0530 02:32:05.332288 24430 net.cpp:165] Memory required for data: 387162800
I0530 02:32:05.332299 24430 layer_factory.hpp:77] Creating layer conv_v2
I0530 02:32:05.332315 24430 net.cpp:106] Creating Layer conv_v2
I0530 02:32:05.332326 24430 net.cpp:454] conv_v2 <- pool_v1
I0530 02:32:05.332341 24430 net.cpp:411] conv_v2 -> conv_v2
I0530 02:32:05.334024 24430 net.cpp:150] Setting up conv_v2
I0530 02:32:05.334046 24430 net.cpp:157] Top shape: 100 20 54 46 (4968000)
I0530 02:32:05.334059 24430 net.cpp:165] Memory required for data: 407034800
I0530 02:32:05.334087 24430 layer_factory.hpp:77] Creating layer relu_v2
I0530 02:32:05.334100 24430 net.cpp:106] Creating Layer relu_v2
I0530 02:32:05.334110 24430 net.cpp:454] relu_v2 <- conv_v2
I0530 02:32:05.334123 24430 net.cpp:397] relu_v2 -> conv_v2 (in-place)
I0530 02:32:05.334605 24430 net.cpp:150] Setting up relu_v2
I0530 02:32:05.334622 24430 net.cpp:157] Top shape: 100 20 54 46 (4968000)
I0530 02:32:05.334633 24430 net.cpp:165] Memory required for data: 426906800
I0530 02:32:05.334643 24430 layer_factory.hpp:77] Creating layer pool_v2
I0530 02:32:05.334656 24430 net.cpp:106] Creating Layer pool_v2
I0530 02:32:05.334666 24430 net.cpp:454] pool_v2 <- conv_v2
I0530 02:32:05.334679 24430 net.cpp:411] pool_v2 -> pool_v2
I0530 02:32:05.334750 24430 net.cpp:150] Setting up pool_v2
I0530 02:32:05.334764 24430 net.cpp:157] Top shape: 100 20 27 46 (2484000)
I0530 02:32:05.334774 24430 net.cpp:165] Memory required for data: 436842800
I0530 02:32:05.334782 24430 layer_factory.hpp:77] Creating layer conv_v3
I0530 02:32:05.334800 24430 net.cpp:106] Creating Layer conv_v3
I0530 02:32:05.334810 24430 net.cpp:454] conv_v3 <- pool_v2
I0530 02:32:05.334825 24430 net.cpp:411] conv_v3 -> conv_v3
I0530 02:32:05.336745 24430 net.cpp:150] Setting up conv_v3
I0530 02:32:05.336766 24430 net.cpp:157] Top shape: 100 28 22 44 (2710400)
I0530 02:32:05.336779 24430 net.cpp:165] Memory required for data: 447684400
I0530 02:32:05.336794 24430 layer_factory.hpp:77] Creating layer relu_v3
I0530 02:32:05.336807 24430 net.cpp:106] Creating Layer relu_v3
I0530 02:32:05.336817 24430 net.cpp:454] relu_v3 <- conv_v3
I0530 02:32:05.336829 24430 net.cpp:397] relu_v3 -> conv_v3 (in-place)
I0530 02:32:05.337149 24430 net.cpp:150] Setting up relu_v3
I0530 02:32:05.337163 24430 net.cpp:157] Top shape: 100 28 22 44 (2710400)
I0530 02:32:05.337173 24430 net.cpp:165] Memory required for data: 458526000
I0530 02:32:05.337184 24430 layer_factory.hpp:77] Creating layer pool_v3
I0530 02:32:05.337196 24430 net.cpp:106] Creating Layer pool_v3
I0530 02:32:05.337206 24430 net.cpp:454] pool_v3 <- conv_v3
I0530 02:32:05.337219 24430 net.cpp:411] pool_v3 -> pool_v3
I0530 02:32:05.337287 24430 net.cpp:150] Setting up pool_v3
I0530 02:32:05.337301 24430 net.cpp:157] Top shape: 100 28 11 44 (1355200)
I0530 02:32:05.337311 24430 net.cpp:165] Memory required for data: 463946800
I0530 02:32:05.337321 24430 layer_factory.hpp:77] Creating layer conv_v4
I0530 02:32:05.337337 24430 net.cpp:106] Creating Layer conv_v4
I0530 02:32:05.337347 24430 net.cpp:454] conv_v4 <- pool_v3
I0530 02:32:05.337362 24430 net.cpp:411] conv_v4 -> conv_v4
I0530 02:32:05.339442 24430 net.cpp:150] Setting up conv_v4
I0530 02:32:05.339464 24430 net.cpp:157] Top shape: 100 36 6 42 (907200)
I0530 02:32:05.339476 24430 net.cpp:165] Memory required for data: 467575600
I0530 02:32:05.339493 24430 layer_factory.hpp:77] Creating layer relu_v4
I0530 02:32:05.339505 24430 net.cpp:106] Creating Layer relu_v4
I0530 02:32:05.339515 24430 net.cpp:454] relu_v4 <- conv_v4
I0530 02:32:05.339527 24430 net.cpp:397] relu_v4 -> conv_v4 (in-place)
I0530 02:32:05.340001 24430 net.cpp:150] Setting up relu_v4
I0530 02:32:05.340018 24430 net.cpp:157] Top shape: 100 36 6 42 (907200)
I0530 02:32:05.340029 24430 net.cpp:165] Memory required for data: 471204400
I0530 02:32:05.340037 24430 layer_factory.hpp:77] Creating layer pool_v4
I0530 02:32:05.340050 24430 net.cpp:106] Creating Layer pool_v4
I0530 02:32:05.340060 24430 net.cpp:454] pool_v4 <- conv_v4
I0530 02:32:05.340073 24430 net.cpp:411] pool_v4 -> pool_v4
I0530 02:32:05.340147 24430 net.cpp:150] Setting up pool_v4
I0530 02:32:05.340160 24430 net.cpp:157] Top shape: 100 36 3 42 (453600)
I0530 02:32:05.340170 24430 net.cpp:165] Memory required for data: 473018800
I0530 02:32:05.340178 24430 layer_factory.hpp:77] Creating layer dl_v1
I0530 02:32:05.340193 24430 net.cpp:106] Creating Layer dl_v1
I0530 02:32:05.340204 24430 net.cpp:454] dl_v1 <- pool_v4
I0530 02:32:05.340217 24430 net.cpp:411] dl_v1 -> dl_v1
I0530 02:32:05.355711 24430 net.cpp:150] Setting up dl_v1
I0530 02:32:05.355754 24430 net.cpp:157] Top shape: 100 196 (19600)
I0530 02:32:05.355767 24430 net.cpp:165] Memory required for data: 473097200
I0530 02:32:05.355789 24430 layer_factory.hpp:77] Creating layer relu_v5
I0530 02:32:05.355804 24430 net.cpp:106] Creating Layer relu_v5
I0530 02:32:05.355815 24430 net.cpp:454] relu_v5 <- dl_v1
I0530 02:32:05.355832 24430 net.cpp:397] relu_v5 -> dl_v1 (in-place)
I0530 02:32:05.356185 24430 net.cpp:150] Setting up relu_v5
I0530 02:32:05.356199 24430 net.cpp:157] Top shape: 100 196 (19600)
I0530 02:32:05.356210 24430 net.cpp:165] Memory required for data: 473175600
I0530 02:32:05.356222 24430 layer_factory.hpp:77] Creating layer drop_v1
I0530 02:32:05.356235 24430 net.cpp:106] Creating Layer drop_v1
I0530 02:32:05.356245 24430 net.cpp:454] drop_v1 <- dl_v1
I0530 02:32:05.356259 24430 net.cpp:397] drop_v1 -> dl_v1 (in-place)
I0530 02:32:05.356303 24430 net.cpp:150] Setting up drop_v1
I0530 02:32:05.356317 24430 net.cpp:157] Top shape: 100 196 (19600)
I0530 02:32:05.356325 24430 net.cpp:165] Memory required for data: 473254000
I0530 02:32:05.356335 24430 layer_factory.hpp:77] Creating layer concat_xuv
I0530 02:32:05.356356 24430 net.cpp:106] Creating Layer concat_xuv
I0530 02:32:05.356367 24430 net.cpp:454] concat_xuv <- dl_x1
I0530 02:32:05.356379 24430 net.cpp:454] concat_xuv <- dl_u1
I0530 02:32:05.356390 24430 net.cpp:454] concat_xuv <- dl_v1
I0530 02:32:05.356405 24430 net.cpp:411] concat_xuv -> concat_xuv
I0530 02:32:05.356456 24430 net.cpp:150] Setting up concat_xuv
I0530 02:32:05.356469 24430 net.cpp:157] Top shape: 100 588 (58800)
I0530 02:32:05.356479 24430 net.cpp:165] Memory required for data: 473489200
I0530 02:32:05.356489 24430 layer_factory.hpp:77] Creating layer dl_xuv
I0530 02:32:05.356504 24430 net.cpp:106] Creating Layer dl_xuv
I0530 02:32:05.356514 24430 net.cpp:454] dl_xuv <- concat_xuv
I0530 02:32:05.356528 24430 net.cpp:411] dl_xuv -> dl_xuv
I0530 02:32:05.357561 24430 net.cpp:150] Setting up dl_xuv
I0530 02:32:05.357580 24430 net.cpp:157] Top shape: 100 98 (9800)
I0530 02:32:05.357594 24430 net.cpp:165] Memory required for data: 473528400
I0530 02:32:05.357607 24430 layer_factory.hpp:77] Creating layer relu_xuv
I0530 02:32:05.357620 24430 net.cpp:106] Creating Layer relu_xuv
I0530 02:32:05.357630 24430 net.cpp:454] relu_xuv <- dl_xuv
I0530 02:32:05.357642 24430 net.cpp:397] relu_xuv -> dl_xuv (in-place)
I0530 02:32:05.358185 24430 net.cpp:150] Setting up relu_xuv
I0530 02:32:05.358201 24430 net.cpp:157] Top shape: 100 98 (9800)
I0530 02:32:05.358212 24430 net.cpp:165] Memory required for data: 473567600
I0530 02:32:05.358234 24430 layer_factory.hpp:77] Creating layer drop_xuv
I0530 02:32:05.358248 24430 net.cpp:106] Creating Layer drop_xuv
I0530 02:32:05.358258 24430 net.cpp:454] drop_xuv <- dl_xuv
I0530 02:32:05.358271 24430 net.cpp:397] drop_xuv -> dl_xuv (in-place)
I0530 02:32:05.358316 24430 net.cpp:150] Setting up drop_xuv
I0530 02:32:05.358331 24430 net.cpp:157] Top shape: 100 98 (9800)
I0530 02:32:05.358341 24430 net.cpp:165] Memory required for data: 473606800
I0530 02:32:05.358350 24430 layer_factory.hpp:77] Creating layer output
I0530 02:32:05.358364 24430 net.cpp:106] Creating Layer output
I0530 02:32:05.358374 24430 net.cpp:454] output <- dl_xuv
I0530 02:32:05.358387 24430 net.cpp:411] output -> output
I0530 02:32:05.358615 24430 net.cpp:150] Setting up output
I0530 02:32:05.358628 24430 net.cpp:157] Top shape: 100 11 (1100)
I0530 02:32:05.358639 24430 net.cpp:165] Memory required for data: 473611200
I0530 02:32:05.358669 24430 layer_factory.hpp:77] Creating layer drop_output
I0530 02:32:05.358681 24430 net.cpp:106] Creating Layer drop_output
I0530 02:32:05.358691 24430 net.cpp:454] drop_output <- output
I0530 02:32:05.358705 24430 net.cpp:397] drop_output -> output (in-place)
I0530 02:32:05.358747 24430 net.cpp:150] Setting up drop_output
I0530 02:32:05.358760 24430 net.cpp:157] Top shape: 100 11 (1100)
I0530 02:32:05.358770 24430 net.cpp:165] Memory required for data: 473615600
I0530 02:32:05.358780 24430 layer_factory.hpp:77] Creating layer loss
I0530 02:32:05.358808 24430 net.cpp:106] Creating Layer loss
I0530 02:32:05.358819 24430 net.cpp:454] loss <- output
I0530 02:32:05.358831 24430 net.cpp:454] loss <- segments
I0530 02:32:05.358844 24430 net.cpp:411] loss -> loss
I0530 02:32:05.358862 24430 layer_factory.hpp:77] Creating layer loss
…
I0530 02:32:05.363051 24430 solver.cpp:181] Creating test net (#0) specified by net file: /lustre/atlas/proj-shared/hep105/caffe_titan/caffe_workflow/xuv/logs/epsilon_lr001_2016-05-29T18.24.51.314592.prototxt
I0530 02:32:05.363183 24430 net.cpp:322] The NetState phase (1) differed from the phase (0) specified by a rule in layer data
I0530 02:32:05.363966 24430 net.cpp:49] Initializing net from parameters: 
name: "epsilon_127x50_xuv"
state {
  phase: TEST
}
layer {
  name: "data"
  type: "HDF5Data"
  top: "hits-x"
  top: "hits-u"
  top: "hits-v"
  top: "segments"
  include {
    phase: TEST
  }
  hdf5_data_param {
    source: "/lustre/atlas/proj-shared/hep105/caffe_titan/xuv/epsilon_127x50_xuv.testlist"
    batch_size: 100
  }
}
layer {
  name: "conv_x1"
  type: "Convolution"
  bottom: "hits-x"
  top: "conv_x1"
  convolution_param {
    num_output: 12
    pad: 0
    stride: 1
    weight_filler {
      type: "xavier"
    }
    bias_filler {
      type: "constant"
    }
    kernel_h: 8
    kernel_w: 3
  }
}
layer {
  name: "relu_x1"
  type: "ReLU"
  bottom: "conv_x1"
  top: "conv_x1"
}
layer {
  name: "pool_x1"
  type: "Pooling"
  bottom: "conv_x1"
  top: "pool_x1"
  pooling_param {
    pool: MAX
    kernel_h: 2
    kernel_w: 1
    stride_h: 2
    stride_w: 1
  }
}
layer {
  name: "conv_x2"
  type: "Convolution"
  bottom: "pool_x1"
  top: "conv_x2"
  convolution_param {
    num_output: 20
    pad: 0
    stride: 1
    weight_filler {
      type: "xavier"
    }
    bias_filler {
      type: "constant"
    }
    kernel_h: 7
    kernel_w: 3
  }
}
layer {
  name: "relu_x2"
  type: "ReLU"
  bottom: "conv_x2"
  top: "conv_x2"
}
layer {
  name: "pool_x2"
  type: "Pooling"
  bottom: "conv_x2"
  top: "pool_x2"
  pooling_param {
    pool: MAX
    kernel_h: 2
    kernel_w: 1
    stride_h: 2
    stride_w: 1
  }
}
layer {
  name: "conv_x3"
  type: "Convolution"
  bottom: "pool_x2"
  top: "conv_x3"
  convolution_param {
    num_output: 28
    pad: 0
    stride: 1
    weight_filler {
      type: "xavier"
    }
    bias_filler {
      type: "constant"
    }
    kernel_h: 6
    kernel_w: 3
  }
}
layer {
  name: "relu_x3"
  type: "ReLU"
  bottom: "conv_x3"
  top: "conv_x3"
}
layer {
  name: "pool_x3"
  type: "Pooling"
  bottom: "conv_x3"
  top: "pool_x3"
  pooling_param {
    pool: MAX
    kernel_h: 2
    kernel_w: 1
    stride_h: 2
    stride_w: 1
  }
}
layer {
  name: "conv_x4"
  type: "Convolution"
  bottom: "pool_x3"
  top: "conv_x4"
  convolution_param {
    num_output: 36
    pad: 0
    stride: 1
    weight_filler {
      type: "xavier"
    }
    bias_filler {
      type: "constant"
    }
    kernel_h: 6
    kernel_w: 3
  }
}
layer {
  name: "relu_x4"
  type: "ReLU"
  bottom: "conv_x4"
  top: "conv_x4"
}
layer {
  name: "pool_x4"
  type: "Pooling"
  bottom: "conv_x4"
  top: "pool_x4"
  pooling_param {
    pool: MAX
    kernel_h: 2
    kernel_w: 1
    stride_h: 2
    stride_w: 1
  }
}
layer {
  name: "dl_x1"
  type: "InnerProduct"
  bottom: "pool_x4"
  top: "dl_x1"
  inner_product_param {
    num_output: 196
    weight_filler {
      type: "xavier"
    }
    bias_filler {
      type: "constant"
    }
  }
}
layer {
  name: "relu_x5"
  type: "ReLU"
  bottom: "dl_x1"
  top: "dl_x1"
}
layer {
  name: "drop_x1"
  type: "Dropout"
  bottom: "dl_x1"
  top: "dl_x1"
  dropout_param {
    dropout_ratio: 0.5
  }
}
layer {
  name: "conv_u1"
  type: "Convolution"
  bottom: "hits-u"
  top: "conv_u1"
  convolution_param {
    num_output: 12
    pad: 0
    stride: 1
    weight_filler {
      type: "xavier"
    }
    bias_filler {
      type: "constant"
    }
    kernel_h: 8
    kernel_w: 3
  }
}
layer {
  name: "relu_u1"
  type: "ReLU"
  bottom: "conv_u1"
  top: "conv_u1"
}
layer {
  name: "pool_u1"
  type: "Pooling"
  bottom: "conv_u1"
  top: "pool_u1"
  pooling_param {
    pool: MAX
    kernel_h: 2
    kernel_w: 1
    stride_h: 2
    stride_w: 1
  }
}
layer {
  name: "conv_u2"
  type: "Convolution"
  bottom: "pool_u1"
  top: "conv_u2"
  convolution_param {
    num_output: 20
    pad: 0
    stride: 1
    weight_filler {
      type: "xavier"
    }
    bias_filler {
      type: "constant"
    }
    kernel_h: 7
    kernel_w: 3
  }
}
layer {
  name: "relu_u2"
  type: "ReLU"
  bottom: "conv_u2"
  top: "conv_u2"
}
layer {
  name: "pool_u2"
  type: "Pooling"
  bottom: "conv_u2"
  top: "pool_u2"
  pooling_param {
    pool: MAX
    kernel_h: 2
    kernel_w: 1
    stride_h: 2
    stride_w: 1
  }
}
layer {
  name: "conv_u3"
  type: "Convolution"
  bottom: "pool_u2"
  top: "conv_u3"
  convolution_param {
    num_output: 28
    pad: 0
    stride: 1
    weight_filler {
      type: "xavier"
    }
    bias_filler {
      type: "constant"
    }
    kernel_h: 6
    kernel_w: 3
  }
}
layer {
  name: "relu_u3"
  type: "ReLU"
  bottom: "conv_u3"
  top: "conv_u3"
}
layer {
  name: "pool_u3"
  type: "Pooling"
  bottom: "conv_u3"
  top: "pool_u3"
  pooling_param {
    pool: MAX
    kernel_h: 2
    kernel_w: 1
    stride_h: 2
    stride_w: 1
  }
}
layer {
  name: "conv_u4"
  type: "Convolution"
  bottom: "pool_u3"
  top: "conv_u4"
  convolution_param {
    num_output: 36
    pad: 0
    stride: 1
    weight_filler {
      type: "xavier"
    }
    bias_filler {
      type: "constant"
    }
    kernel_h: 6
    kernel_w: 3
  }
}
layer {
  name: "relu_u4"
  type: "ReLU"
  bottom: "conv_u4"
  top: "conv_u4"
}
layer {
  name: "pool_u4"
  type: "Pooling"
  bottom: "conv_u4"
  top: "pool_u4"
  pooling_param {
    pool: MAX
    kernel_h: 2
    kernel_w: 1
    stride_h: 2
    stride_w: 1
  }
}
layer {
  name: "dl_u1"
  type: "InnerProduct"
  bottom: "pool_u4"
  top: "dl_u1"
  inner_product_param {
    num_output: 196
    weight_filler {
      type: "xavier"
    }
    bias_filler {
      type: "constant"
    }
  }
}
layer {
  name: "relu_u5"
  type: "ReLU"
  bottom: "dl_u1"
  top: "dl_u1"
}
layer {
  name: "drop_u1"
  type: "Dropout"
  bottom: "dl_u1"
  top: "dl_u1"
  dropout_param {
    dropout_ratio: 0.5
  }
}
layer {
  name: "conv_v1"
  type: "Convolution"
  bottom: "hits-v"
  top: "conv_v1"
  convolution_param {
    num_output: 12
    pad: 0
    stride: 1
    weight_filler {
      type: "xavier"
    }
    bias_filler {
      type: "constant"
    }
    kernel_h: 8
    kernel_w: 3
  }
}
layer {
  name: "relu_v1"
  type: "ReLU"
  bottom: "conv_v1"
  top: "conv_v1"
}
layer {
  name: "pool_v1"
  type: "Pooling"
  bottom: "conv_v1"
  top: "pool_v1"
  pooling_param {
    pool: MAX
    kernel_h: 2
    kernel_w: 1
    stride_h: 2
    stride_w: 1
  }
}
layer {
  name: "conv_v2"
  type: "Convolution"
  bottom: "pool_v1"
  top: "conv_v2"
  convolution_param {
    num_output: 20
    pad: 0
    stride: 1
    weight_filler {
      type: "xavier"
    }
    bias_filler {
      type: "constant"
    }
    kernel_h: 7
    kernel_w: 3
  }
}
layer {
  name: "relu_v2"
  type: "ReLU"
  bottom: "conv_v2"
  top: "conv_v2"
}
layer {
  name: "pool_v2"
  type: "Pooling"
  bottom: "conv_v2"
  top: "pool_v2"
  pooling_param {
    pool: MAX
    kernel_h: 2
    kernel_w: 1
    stride_h: 2
    stride_w: 1
  }
}
layer {
  name: "conv_v3"
  type: "Convolution"
  bottom: "pool_v2"
  top: "conv_v3"
  convolution_param {
    num_output: 28
    pad: 0
    stride: 1
    weight_filler {
      type: "xavier"
    }
    bias_filler {
      type: "constant"
    }
    kernel_h: 6
    kernel_w: 3
  }
}
layer {
  name: "relu_v3"
  type: "ReLU"
  bottom: "conv_v3"
  top: "conv_v3"
}
layer {
  name: "pool_v3"
  type: "Pooling"
  bottom: "conv_v3"
  top: "pool_v3"
  pooling_param {
    pool: MAX
    kernel_h: 2
    kernel_w: 1
    stride_h: 2
    stride_w: 1
  }
}
layer {
  name: "conv_v4"
  type: "Convolution"
  bottom: "pool_v3"
  top: "conv_v4"
  convolution_param {
    num_output: 36
    pad: 0
    stride: 1
    weight_filler {
      type: "xavier"
    }
    bias_filler {
      type: "constant"
    }
    kernel_h: 6
    kernel_w: 3
  }
}
layer {
  name: "relu_v4"
  type: "ReLU"
  bottom: "conv_v4"
  top: "conv_v4"
}
layer {
  name: "pool_v4"
  type: "Pooling"
  bottom: "conv_v4"
  top: "pool_v4"
  pooling_param {
    pool: MAX
    kernel_h: 2
    kernel_w: 1
    stride_h: 2
    stride_w: 1
  }
}
layer {
  name: "dl_v1"
  type: "InnerProduct"
  bottom: "pool_v4"
  top: "dl_v1"
  inner_product_param {
    num_output: 196
    weight_filler {
      type: "xavier"
    }
    bias_filler {
      type: "constant"
    }
  }
}
layer {
  name: "relu_v5"
  type: "ReLU"
  bottom: "dl_v1"
  top: "dl_v1"
}
layer {
  name: "drop_v1"
  type: "Dropout"
  bottom: "dl_v1"
  top: "dl_v1"
  dropout_param {
    dropout_ratio: 0.5
  }
}
layer {
  name: "concat_xuv"
  type: "Concat"
  bottom: "dl_x1"
  bottom: "dl_u1"
  bottom: "dl_v1"
  top: "concat_xuv"
  concat_param {
    axis: 1
  }
}
layer {
  name: "dl_xuv"
  type: "InnerProduct"
  bottom: "concat_xuv"
  top: "dl_xuv"
  inner_product_param {
    num_output: 98
    weight_filler {
      type: "xavier"
    }
    bias_filler {
      type: "constant"
    }
  }
}
layer {
  name: "relu_xuv"
  type: "ReLU"
  bottom: "dl_xuv"
  top: "dl_xuv"
}
layer {
  name: "drop_xuv"
  type: "Dropout"
  bottom: "dl_xuv"
  top: "dl_xuv"
  dropout_param {
    dropout_ratio: 0.5
  }
}
layer {
  name: "output"
  type: "InnerProduct"
  bottom: "dl_xuv"
  top: "output"
  inner_product_param {
    num_output: 11
    weight_filler {
      type: "xavier"
    }
    bias_filler {
      type: "constant"
    }
  }
}
layer {
  name: "drop_output"
  type: "Dropout"
  bottom: "output"
  top: "output"
  dropout_param {
    dropout_ratio: 0.5
  }
}
layer {
  name: "accuracy"
  type: "Accuracy"
  bottom: "output"
  bottom: "segments"
  top: "accuracy"
  include {
    phase: TEST
  }
}
layer {
  name: "loss"
  type: "SoftmaxWithLoss"
  bottom: "output"
  bottom: "segments"
  top: "loss"
}
I0530 02:32:05.364336 24430 layer_factory.hpp:77] Creating layer data
I0530 02:32:05.364353 24430 net.cpp:106] Creating Layer data
I0530 02:32:05.364367 24430 net.cpp:411] data -> hits-x
I0530 02:32:05.364383 24430 net.cpp:411] data -> hits-u
I0530 02:32:05.364399 24430 net.cpp:411] data -> hits-v
I0530 02:32:05.364415 24430 net.cpp:411] data -> segments
I0530 02:32:05.364429 24430 hdf5_data_layer.cpp:79] Loading list of HDF5 filenames from: /lustre/atlas/proj-shared/hep105/caffe_titan/xuv/epsilon_127x50_xuv.testlist
I0530 02:32:05.380269 24430 hdf5_data_layer.cpp:93] Number of HDF5 files: 3
I0530 02:33:09.588394 24430 net.cpp:150] Setting up data
I0530 02:33:09.588554 24430 net.cpp:157] Top shape: 100 1 127 50 (635000)
I0530 02:33:09.588569 24430 net.cpp:157] Top shape: 100 1 127 50 (635000)
I0530 02:33:09.588585 24430 net.cpp:157] Top shape: 100 1 127 50 (635000)
I0530 02:33:09.588598 24430 net.cpp:157] Top shape: 100 (100)
I0530 02:33:09.588608 24430 net.cpp:165] Memory required for data: 7620400
I0530 02:33:09.588621 24430 layer_factory.hpp:77] Creating layer segments_data_3_split
I0530 02:33:09.588649 24430 net.cpp:106] Creating Layer segments_data_3_split
I0530 02:33:09.588660 24430 net.cpp:454] segments_data_3_split <- segments
I0530 02:33:09.588675 24430 net.cpp:411] segments_data_3_split -> segments_data_3_split_0
I0530 02:33:09.588696 24430 net.cpp:411] segments_data_3_split -> segments_data_3_split_1
I0530 02:33:09.588775 24430 net.cpp:150] Setting up segments_data_3_split
I0530 02:33:09.588789 24430 net.cpp:157] Top shape: 100 (100)
I0530 02:33:09.588801 24430 net.cpp:157] Top shape: 100 (100)
I0530 02:33:09.588814 24430 net.cpp:165] Memory required for data: 7621200
I0530 02:33:09.588824 24430 layer_factory.hpp:77] Creating layer conv_x1
I0530 02:33:09.588846 24430 net.cpp:106] Creating Layer conv_x1
I0530 02:33:09.588856 24430 net.cpp:454] conv_x1 <- hits-x
I0530 02:33:09.588871 24430 net.cpp:411] conv_x1 -> conv_x1
I0530 02:33:09.591064 24430 net.cpp:150] Setting up conv_x1
I0530 02:33:09.591089 24430 net.cpp:157] Top shape: 100 12 120 48 (6912000)
I0530 02:33:09.591101 24430 net.cpp:165] Memory required for data: 35269200
I0530 02:33:09.591122 24430 layer_factory.hpp:77] Creating layer relu_x1
I0530 02:33:09.591137 24430 net.cpp:106] Creating Layer relu_x1
I0530 02:33:09.591147 24430 net.cpp:454] relu_x1 <- conv_x1
I0530 02:33:09.591161 24430 net.cpp:397] relu_x1 -> conv_x1 (in-place)
I0530 02:33:09.591670 24430 net.cpp:150] Setting up relu_x1
I0530 02:33:09.591686 24430 net.cpp:157] Top shape: 100 12 120 48 (6912000)
I0530 02:33:09.591696 24430 net.cpp:165] Memory required for data: 62917200
I0530 02:33:09.591704 24430 layer_factory.hpp:77] Creating layer pool_x1
I0530 02:33:09.591722 24430 net.cpp:106] Creating Layer pool_x1
I0530 02:33:09.591732 24430 net.cpp:454] pool_x1 <- conv_x1
I0530 02:33:09.591744 24430 net.cpp:411] pool_x1 -> pool_x1
I0530 02:33:09.591825 24430 net.cpp:150] Setting up pool_x1
I0530 02:33:09.591838 24430 net.cpp:157] Top shape: 100 12 60 48 (3456000)
I0530 02:33:09.591848 24430 net.cpp:165] Memory required for data: 76741200
I0530 02:33:09.591856 24430 layer_factory.hpp:77] Creating layer conv_x2
I0530 02:33:09.591876 24430 net.cpp:106] Creating Layer conv_x2
I0530 02:33:09.591886 24430 net.cpp:454] conv_x2 <- pool_x1
I0530 02:33:09.591902 24430 net.cpp:411] conv_x2 -> conv_x2
I0530 02:33:09.593775 24430 net.cpp:150] Setting up conv_x2
I0530 02:33:09.593798 24430 net.cpp:157] Top shape: 100 20 54 46 (4968000)
I0530 02:33:09.593811 24430 net.cpp:165] Memory required for data: 96613200
I0530 02:33:09.593828 24430 layer_factory.hpp:77] Creating layer relu_x2
I0530 02:33:09.593842 24430 net.cpp:106] Creating Layer relu_x2
I0530 02:33:09.593852 24430 net.cpp:454] relu_x2 <- conv_x2
I0530 02:33:09.593865 24430 net.cpp:397] relu_x2 -> conv_x2 (in-place)
I0530 02:33:09.594383 24430 net.cpp:150] Setting up relu_x2
I0530 02:33:09.594398 24430 net.cpp:157] Top shape: 100 20 54 46 (4968000)
I0530 02:33:09.594408 24430 net.cpp:165] Memory required for data: 116485200
I0530 02:33:09.594419 24430 layer_factory.hpp:77] Creating layer pool_x2
I0530 02:33:09.594432 24430 net.cpp:106] Creating Layer pool_x2
I0530 02:33:09.594442 24430 net.cpp:454] pool_x2 <- conv_x2
I0530 02:33:09.594456 24430 net.cpp:411] pool_x2 -> pool_x2
I0530 02:33:09.594535 24430 net.cpp:150] Setting up pool_x2
I0530 02:33:09.594549 24430 net.cpp:157] Top shape: 100 20 27 46 (2484000)
I0530 02:33:09.594559 24430 net.cpp:165] Memory required for data: 126421200
I0530 02:33:09.594569 24430 layer_factory.hpp:77] Creating layer conv_x3
I0530 02:33:09.594591 24430 net.cpp:106] Creating Layer conv_x3
I0530 02:33:09.594601 24430 net.cpp:454] conv_x3 <- pool_x2
I0530 02:33:09.594616 24430 net.cpp:411] conv_x3 -> conv_x3
I0530 02:33:09.596856 24430 net.cpp:150] Setting up conv_x3
I0530 02:33:09.596880 24430 net.cpp:157] Top shape: 100 28 22 44 (2710400)
I0530 02:33:09.596892 24430 net.cpp:165] Memory required for data: 137262800
I0530 02:33:09.596912 24430 layer_factory.hpp:77] Creating layer relu_x3
I0530 02:33:09.596926 24430 net.cpp:106] Creating Layer relu_x3
I0530 02:33:09.596936 24430 net.cpp:454] relu_x3 <- conv_x3
I0530 02:33:09.596949 24430 net.cpp:397] relu_x3 -> conv_x3 (in-place)
I0530 02:33:09.597292 24430 net.cpp:150] Setting up relu_x3
I0530 02:33:09.597307 24430 net.cpp:157] Top shape: 100 28 22 44 (2710400)
I0530 02:33:09.597317 24430 net.cpp:165] Memory required for data: 148104400
I0530 02:33:09.597327 24430 layer_factory.hpp:77] Creating layer pool_x3
I0530 02:33:09.597340 24430 net.cpp:106] Creating Layer pool_x3
I0530 02:33:09.597350 24430 net.cpp:454] pool_x3 <- conv_x3
I0530 02:33:09.597363 24430 net.cpp:411] pool_x3 -> pool_x3
I0530 02:33:09.597441 24430 net.cpp:150] Setting up pool_x3
I0530 02:33:09.597455 24430 net.cpp:157] Top shape: 100 28 11 44 (1355200)
I0530 02:33:09.597465 24430 net.cpp:165] Memory required for data: 153525200
I0530 02:33:09.597476 24430 layer_factory.hpp:77] Creating layer conv_x4
I0530 02:33:09.597491 24430 net.cpp:106] Creating Layer conv_x4
I0530 02:33:09.597501 24430 net.cpp:454] conv_x4 <- pool_x3
I0530 02:33:09.597514 24430 net.cpp:411] conv_x4 -> conv_x4
I0530 02:33:09.599687 24430 net.cpp:150] Setting up conv_x4
I0530 02:33:09.599710 24430 net.cpp:157] Top shape: 100 36 6 42 (907200)
I0530 02:33:09.599725 24430 net.cpp:165] Memory required for data: 157154000
I0530 02:33:09.599745 24430 layer_factory.hpp:77] Creating layer relu_x4
I0530 02:33:09.599761 24430 net.cpp:106] Creating Layer relu_x4
I0530 02:33:09.599772 24430 net.cpp:454] relu_x4 <- conv_x4
I0530 02:33:09.599786 24430 net.cpp:397] relu_x4 -> conv_x4 (in-place)
I0530 02:33:09.600278 24430 net.cpp:150] Setting up relu_x4
I0530 02:33:09.600294 24430 net.cpp:157] Top shape: 100 36 6 42 (907200)
I0530 02:33:09.600306 24430 net.cpp:165] Memory required for data: 160782800
I0530 02:33:09.600316 24430 layer_factory.hpp:77] Creating layer pool_x4
I0530 02:33:09.600328 24430 net.cpp:106] Creating Layer pool_x4
I0530 02:33:09.600338 24430 net.cpp:454] pool_x4 <- conv_x4
I0530 02:33:09.600353 24430 net.cpp:411] pool_x4 -> pool_x4
I0530 02:33:09.600430 24430 net.cpp:150] Setting up pool_x4
I0530 02:33:09.600443 24430 net.cpp:157] Top shape: 100 36 3 42 (453600)
I0530 02:33:09.600452 24430 net.cpp:165] Memory required for data: 162597200
I0530 02:33:09.600462 24430 layer_factory.hpp:77] Creating layer dl_x1
I0530 02:33:09.600478 24430 net.cpp:106] Creating Layer dl_x1
I0530 02:33:09.600489 24430 net.cpp:454] dl_x1 <- pool_x4
I0530 02:33:09.600503 24430 net.cpp:411] dl_x1 -> dl_x1
I0530 02:33:09.616564 24430 net.cpp:150] Setting up dl_x1
I0530 02:33:09.616592 24430 net.cpp:157] Top shape: 100 196 (19600)
I0530 02:33:09.616602 24430 net.cpp:165] Memory required for data: 162675600
I0530 02:33:09.616626 24430 layer_factory.hpp:77] Creating layer relu_x5
I0530 02:33:09.616641 24430 net.cpp:106] Creating Layer relu_x5
I0530 02:33:09.616652 24430 net.cpp:454] relu_x5 <- dl_x1
I0530 02:33:09.616664 24430 net.cpp:397] relu_x5 -> dl_x1 (in-place)
I0530 02:33:09.617022 24430 net.cpp:150] Setting up relu_x5
I0530 02:33:09.617036 24430 net.cpp:157] Top shape: 100 196 (19600)
I0530 02:33:09.617046 24430 net.cpp:165] Memory required for data: 162754000
I0530 02:33:09.617056 24430 layer_factory.hpp:77] Creating layer drop_x1
I0530 02:33:09.617076 24430 net.cpp:106] Creating Layer drop_x1
I0530 02:33:09.617086 24430 net.cpp:454] drop_x1 <- dl_x1
I0530 02:33:09.617100 24430 net.cpp:397] drop_x1 -> dl_x1 (in-place)
I0530 02:33:09.617147 24430 net.cpp:150] Setting up drop_x1
I0530 02:33:09.617161 24430 net.cpp:157] Top shape: 100 196 (19600)
I0530 02:33:09.617172 24430 net.cpp:165] Memory required for data: 162832400
I0530 02:33:09.617183 24430 layer_factory.hpp:77] Creating layer conv_u1
I0530 02:33:09.617202 24430 net.cpp:106] Creating Layer conv_u1
I0530 02:33:09.617225 24430 net.cpp:454] conv_u1 <- hits-u
I0530 02:33:09.617241 24430 net.cpp:411] conv_u1 -> conv_u1
I0530 02:33:09.619242 24430 net.cpp:150] Setting up conv_u1
I0530 02:33:09.619266 24430 net.cpp:157] Top shape: 100 12 120 48 (6912000)
I0530 02:33:09.619277 24430 net.cpp:165] Memory required for data: 190480400
I0530 02:33:09.619292 24430 layer_factory.hpp:77] Creating layer relu_u1
I0530 02:33:09.619307 24430 net.cpp:106] Creating Layer relu_u1
I0530 02:33:09.619316 24430 net.cpp:454] relu_u1 <- conv_u1
I0530 02:33:09.619330 24430 net.cpp:397] relu_u1 -> conv_u1 (in-place)
I0530 02:33:09.619662 24430 net.cpp:150] Setting up relu_u1
I0530 02:33:09.619675 24430 net.cpp:157] Top shape: 100 12 120 48 (6912000)
I0530 02:33:09.619686 24430 net.cpp:165] Memory required for data: 218128400
I0530 02:33:09.619696 24430 layer_factory.hpp:77] Creating layer pool_u1
I0530 02:33:09.619710 24430 net.cpp:106] Creating Layer pool_u1
I0530 02:33:09.619720 24430 net.cpp:454] pool_u1 <- conv_u1
I0530 02:33:09.619737 24430 net.cpp:411] pool_u1 -> pool_u1
I0530 02:33:09.619823 24430 net.cpp:150] Setting up pool_u1
I0530 02:33:09.619838 24430 net.cpp:157] Top shape: 100 12 60 48 (3456000)
I0530 02:33:09.619848 24430 net.cpp:165] Memory required for data: 231952400
I0530 02:33:09.619856 24430 layer_factory.hpp:77] Creating layer conv_u2
I0530 02:33:09.619874 24430 net.cpp:106] Creating Layer conv_u2
I0530 02:33:09.619885 24430 net.cpp:454] conv_u2 <- pool_u1
I0530 02:33:09.619899 24430 net.cpp:411] conv_u2 -> conv_u2
I0530 02:33:09.621856 24430 net.cpp:150] Setting up conv_u2
I0530 02:33:09.621878 24430 net.cpp:157] Top shape: 100 20 54 46 (4968000)
I0530 02:33:09.621891 24430 net.cpp:165] Memory required for data: 251824400
I0530 02:33:09.621906 24430 layer_factory.hpp:77] Creating layer relu_u2
I0530 02:33:09.621919 24430 net.cpp:106] Creating Layer relu_u2
I0530 02:33:09.621929 24430 net.cpp:454] relu_u2 <- conv_u2
I0530 02:33:09.621942 24430 net.cpp:397] relu_u2 -> conv_u2 (in-place)
I0530 02:33:09.622453 24430 net.cpp:150] Setting up relu_u2
I0530 02:33:09.622469 24430 net.cpp:157] Top shape: 100 20 54 46 (4968000)
I0530 02:33:09.622480 24430 net.cpp:165] Memory required for data: 271696400
I0530 02:33:09.622490 24430 layer_factory.hpp:77] Creating layer pool_u2
I0530 02:33:09.622504 24430 net.cpp:106] Creating Layer pool_u2
I0530 02:33:09.622514 24430 net.cpp:454] pool_u2 <- conv_u2
I0530 02:33:09.622529 24430 net.cpp:411] pool_u2 -> pool_u2
I0530 02:33:09.622607 24430 net.cpp:150] Setting up pool_u2
I0530 02:33:09.622622 24430 net.cpp:157] Top shape: 100 20 27 46 (2484000)
I0530 02:33:09.622632 24430 net.cpp:165] Memory required for data: 281632400
I0530 02:33:09.622642 24430 layer_factory.hpp:77] Creating layer conv_u3
I0530 02:33:09.622661 24430 net.cpp:106] Creating Layer conv_u3
I0530 02:33:09.622671 24430 net.cpp:454] conv_u3 <- pool_u2
I0530 02:33:09.622686 24430 net.cpp:411] conv_u3 -> conv_u3
I0530 02:33:09.624722 24430 net.cpp:150] Setting up conv_u3
I0530 02:33:09.624743 24430 net.cpp:157] Top shape: 100 28 22 44 (2710400)
I0530 02:33:09.624757 24430 net.cpp:165] Memory required for data: 292474000
I0530 02:33:09.624771 24430 layer_factory.hpp:77] Creating layer relu_u3
I0530 02:33:09.624785 24430 net.cpp:106] Creating Layer relu_u3
I0530 02:33:09.624795 24430 net.cpp:454] relu_u3 <- conv_u3
I0530 02:33:09.624809 24430 net.cpp:397] relu_u3 -> conv_u3 (in-place)
I0530 02:33:09.625138 24430 net.cpp:150] Setting up relu_u3
I0530 02:33:09.625152 24430 net.cpp:157] Top shape: 100 28 22 44 (2710400)
I0530 02:33:09.625162 24430 net.cpp:165] Memory required for data: 303315600
I0530 02:33:09.625172 24430 layer_factory.hpp:77] Creating layer pool_u3
I0530 02:33:09.625185 24430 net.cpp:106] Creating Layer pool_u3
I0530 02:33:09.625195 24430 net.cpp:454] pool_u3 <- conv_u3
I0530 02:33:09.625208 24430 net.cpp:411] pool_u3 -> pool_u3
I0530 02:33:09.625285 24430 net.cpp:150] Setting up pool_u3
I0530 02:33:09.625298 24430 net.cpp:157] Top shape: 100 28 11 44 (1355200)
I0530 02:33:09.625308 24430 net.cpp:165] Memory required for data: 308736400
I0530 02:33:09.625329 24430 layer_factory.hpp:77] Creating layer conv_u4
I0530 02:33:09.625349 24430 net.cpp:106] Creating Layer conv_u4
I0530 02:33:09.625360 24430 net.cpp:454] conv_u4 <- pool_u3
I0530 02:33:09.625375 24430 net.cpp:411] conv_u4 -> conv_u4
I0530 02:33:09.627573 24430 net.cpp:150] Setting up conv_u4
I0530 02:33:09.627595 24430 net.cpp:157] Top shape: 100 36 6 42 (907200)
I0530 02:33:09.627609 24430 net.cpp:165] Memory required for data: 312365200
I0530 02:33:09.627631 24430 layer_factory.hpp:77] Creating layer relu_u4
I0530 02:33:09.627645 24430 net.cpp:106] Creating Layer relu_u4
I0530 02:33:09.627655 24430 net.cpp:454] relu_u4 <- conv_u4
I0530 02:33:09.627670 24430 net.cpp:397] relu_u4 -> conv_u4 (in-place)
I0530 02:33:09.628007 24430 net.cpp:150] Setting up relu_u4
I0530 02:33:09.628021 24430 net.cpp:157] Top shape: 100 36 6 42 (907200)
I0530 02:33:09.628031 24430 net.cpp:165] Memory required for data: 315994000
I0530 02:33:09.628042 24430 layer_factory.hpp:77] Creating layer pool_u4
I0530 02:33:09.628056 24430 net.cpp:106] Creating Layer pool_u4
I0530 02:33:09.628065 24430 net.cpp:454] pool_u4 <- conv_u4
I0530 02:33:09.628078 24430 net.cpp:411] pool_u4 -> pool_u4
I0530 02:33:09.628156 24430 net.cpp:150] Setting up pool_u4
I0530 02:33:09.628170 24430 net.cpp:157] Top shape: 100 36 3 42 (453600)
I0530 02:33:09.628180 24430 net.cpp:165] Memory required for data: 317808400
I0530 02:33:09.628190 24430 layer_factory.hpp:77] Creating layer dl_u1
I0530 02:33:09.628204 24430 net.cpp:106] Creating Layer dl_u1
I0530 02:33:09.628216 24430 net.cpp:454] dl_u1 <- pool_u4
I0530 02:33:09.628229 24430 net.cpp:411] dl_u1 -> dl_u1
I0530 02:33:09.644598 24430 net.cpp:150] Setting up dl_u1
I0530 02:33:09.644626 24430 net.cpp:157] Top shape: 100 196 (19600)
I0530 02:33:09.644637 24430 net.cpp:165] Memory required for data: 317886800
I0530 02:33:09.644654 24430 layer_factory.hpp:77] Creating layer relu_u5
I0530 02:33:09.644668 24430 net.cpp:106] Creating Layer relu_u5
I0530 02:33:09.644678 24430 net.cpp:454] relu_u5 <- dl_u1
I0530 02:33:09.644692 24430 net.cpp:397] relu_u5 -> dl_u1 (in-place)
I0530 02:33:09.645282 24430 net.cpp:150] Setting up relu_u5
I0530 02:33:09.645304 24430 net.cpp:157] Top shape: 100 196 (19600)
I0530 02:33:09.645318 24430 net.cpp:165] Memory required for data: 317965200
I0530 02:33:09.645328 24430 layer_factory.hpp:77] Creating layer drop_u1
I0530 02:33:09.645342 24430 net.cpp:106] Creating Layer drop_u1
I0530 02:33:09.645354 24430 net.cpp:454] drop_u1 <- dl_u1
I0530 02:33:09.645366 24430 net.cpp:397] drop_u1 -> dl_u1 (in-place)
I0530 02:33:09.645414 24430 net.cpp:150] Setting up drop_u1
I0530 02:33:09.645428 24430 net.cpp:157] Top shape: 100 196 (19600)
I0530 02:33:09.645438 24430 net.cpp:165] Memory required for data: 318043600
I0530 02:33:09.645448 24430 layer_factory.hpp:77] Creating layer conv_v1
I0530 02:33:09.645476 24430 net.cpp:106] Creating Layer conv_v1
I0530 02:33:09.645486 24430 net.cpp:454] conv_v1 <- hits-v
I0530 02:33:09.645500 24430 net.cpp:411] conv_v1 -> conv_v1
I0530 02:33:09.647455 24430 net.cpp:150] Setting up conv_v1
I0530 02:33:09.647478 24430 net.cpp:157] Top shape: 100 12 120 48 (6912000)
I0530 02:33:09.647491 24430 net.cpp:165] Memory required for data: 345691600
I0530 02:33:09.647506 24430 layer_factory.hpp:77] Creating layer relu_v1
I0530 02:33:09.647521 24430 net.cpp:106] Creating Layer relu_v1
I0530 02:33:09.647531 24430 net.cpp:454] relu_v1 <- conv_v1
I0530 02:33:09.647544 24430 net.cpp:397] relu_v1 -> conv_v1 (in-place)
I0530 02:33:09.647877 24430 net.cpp:150] Setting up relu_v1
I0530 02:33:09.647891 24430 net.cpp:157] Top shape: 100 12 120 48 (6912000)
I0530 02:33:09.647902 24430 net.cpp:165] Memory required for data: 373339600
I0530 02:33:09.647913 24430 layer_factory.hpp:77] Creating layer pool_v1
I0530 02:33:09.647925 24430 net.cpp:106] Creating Layer pool_v1
I0530 02:33:09.647935 24430 net.cpp:454] pool_v1 <- conv_v1
I0530 02:33:09.647949 24430 net.cpp:411] pool_v1 -> pool_v1
I0530 02:33:09.648030 24430 net.cpp:150] Setting up pool_v1
I0530 02:33:09.648057 24430 net.cpp:157] Top shape: 100 12 60 48 (3456000)
I0530 02:33:09.648068 24430 net.cpp:165] Memory required for data: 387163600
I0530 02:33:09.648078 24430 layer_factory.hpp:77] Creating layer conv_v2
I0530 02:33:09.648097 24430 net.cpp:106] Creating Layer conv_v2
I0530 02:33:09.648108 24430 net.cpp:454] conv_v2 <- pool_v1
I0530 02:33:09.648121 24430 net.cpp:411] conv_v2 -> conv_v2
I0530 02:33:09.650151 24430 net.cpp:150] Setting up conv_v2
I0530 02:33:09.650172 24430 net.cpp:157] Top shape: 100 20 54 46 (4968000)
I0530 02:33:09.650185 24430 net.cpp:165] Memory required for data: 407035600
I0530 02:33:09.650200 24430 layer_factory.hpp:77] Creating layer relu_v2
I0530 02:33:09.650214 24430 net.cpp:106] Creating Layer relu_v2
I0530 02:33:09.650231 24430 net.cpp:454] relu_v2 <- conv_v2
I0530 02:33:09.650245 24430 net.cpp:397] relu_v2 -> conv_v2 (in-place)
I0530 02:33:09.650744 24430 net.cpp:150] Setting up relu_v2
I0530 02:33:09.650760 24430 net.cpp:157] Top shape: 100 20 54 46 (4968000)
I0530 02:33:09.650771 24430 net.cpp:165] Memory required for data: 426907600
I0530 02:33:09.650781 24430 layer_factory.hpp:77] Creating layer pool_v2
I0530 02:33:09.650794 24430 net.cpp:106] Creating Layer pool_v2
I0530 02:33:09.650804 24430 net.cpp:454] pool_v2 <- conv_v2
I0530 02:33:09.650817 24430 net.cpp:411] pool_v2 -> pool_v2
I0530 02:33:09.650898 24430 net.cpp:150] Setting up pool_v2
I0530 02:33:09.650912 24430 net.cpp:157] Top shape: 100 20 27 46 (2484000)
I0530 02:33:09.650923 24430 net.cpp:165] Memory required for data: 436843600
I0530 02:33:09.650934 24430 layer_factory.hpp:77] Creating layer conv_v3
I0530 02:33:09.650952 24430 net.cpp:106] Creating Layer conv_v3
I0530 02:33:09.650964 24430 net.cpp:454] conv_v3 <- pool_v2
I0530 02:33:09.650979 24430 net.cpp:411] conv_v3 -> conv_v3
I0530 02:33:09.653076 24430 net.cpp:150] Setting up conv_v3
I0530 02:33:09.653100 24430 net.cpp:157] Top shape: 100 28 22 44 (2710400)
I0530 02:33:09.653111 24430 net.cpp:165] Memory required for data: 447685200
I0530 02:33:09.653127 24430 layer_factory.hpp:77] Creating layer relu_v3
I0530 02:33:09.653141 24430 net.cpp:106] Creating Layer relu_v3
I0530 02:33:09.653151 24430 net.cpp:454] relu_v3 <- conv_v3
I0530 02:33:09.653164 24430 net.cpp:397] relu_v3 -> conv_v3 (in-place)
I0530 02:33:09.653672 24430 net.cpp:150] Setting up relu_v3
I0530 02:33:09.653688 24430 net.cpp:157] Top shape: 100 28 22 44 (2710400)
I0530 02:33:09.653699 24430 net.cpp:165] Memory required for data: 458526800
I0530 02:33:09.653709 24430 layer_factory.hpp:77] Creating layer pool_v3
I0530 02:33:09.653723 24430 net.cpp:106] Creating Layer pool_v3
I0530 02:33:09.653733 24430 net.cpp:454] pool_v3 <- conv_v3
I0530 02:33:09.653748 24430 net.cpp:411] pool_v3 -> pool_v3
I0530 02:33:09.653827 24430 net.cpp:150] Setting up pool_v3
I0530 02:33:09.653841 24430 net.cpp:157] Top shape: 100 28 11 44 (1355200)
I0530 02:33:09.653851 24430 net.cpp:165] Memory required for data: 463947600
I0530 02:33:09.653859 24430 layer_factory.hpp:77] Creating layer conv_v4
I0530 02:33:09.653878 24430 net.cpp:106] Creating Layer conv_v4
I0530 02:33:09.653888 24430 net.cpp:454] conv_v4 <- pool_v3
I0530 02:33:09.653903 24430 net.cpp:411] conv_v4 -> conv_v4
I0530 02:33:09.656106 24430 net.cpp:150] Setting up conv_v4
I0530 02:33:09.656124 24430 net.cpp:157] Top shape: 100 36 6 42 (907200)
I0530 02:33:09.656136 24430 net.cpp:165] Memory required for data: 467576400
I0530 02:33:09.656152 24430 layer_factory.hpp:77] Creating layer relu_v4
I0530 02:33:09.656165 24430 net.cpp:106] Creating Layer relu_v4
I0530 02:33:09.656175 24430 net.cpp:454] relu_v4 <- conv_v4
I0530 02:33:09.656188 24430 net.cpp:397] relu_v4 -> conv_v4 (in-place)
I0530 02:33:09.656520 24430 net.cpp:150] Setting up relu_v4
I0530 02:33:09.656535 24430 net.cpp:157] Top shape: 100 36 6 42 (907200)
I0530 02:33:09.656546 24430 net.cpp:165] Memory required for data: 471205200
I0530 02:33:09.656556 24430 layer_factory.hpp:77] Creating layer pool_v4
I0530 02:33:09.656569 24430 net.cpp:106] Creating Layer pool_v4
I0530 02:33:09.656590 24430 net.cpp:454] pool_v4 <- conv_v4
I0530 02:33:09.656605 24430 net.cpp:411] pool_v4 -> pool_v4
I0530 02:33:09.656683 24430 net.cpp:150] Setting up pool_v4
I0530 02:33:09.656697 24430 net.cpp:157] Top shape: 100 36 3 42 (453600)
I0530 02:33:09.656708 24430 net.cpp:165] Memory required for data: 473019600
I0530 02:33:09.656718 24430 layer_factory.hpp:77] Creating layer dl_v1
I0530 02:33:09.656731 24430 net.cpp:106] Creating Layer dl_v1
I0530 02:33:09.656741 24430 net.cpp:454] dl_v1 <- pool_v4
I0530 02:33:09.656755 24430 net.cpp:411] dl_v1 -> dl_v1
I0530 02:33:09.673154 24430 net.cpp:150] Setting up dl_v1
I0530 02:33:09.673183 24430 net.cpp:157] Top shape: 100 196 (19600)
I0530 02:33:09.673193 24430 net.cpp:165] Memory required for data: 473098000
I0530 02:33:09.673210 24430 layer_factory.hpp:77] Creating layer relu_v5
I0530 02:33:09.673225 24430 net.cpp:106] Creating Layer relu_v5
I0530 02:33:09.673236 24430 net.cpp:454] relu_v5 <- dl_v1
I0530 02:33:09.673249 24430 net.cpp:397] relu_v5 -> dl_v1 (in-place)
I0530 02:33:09.673847 24430 net.cpp:150] Setting up relu_v5
I0530 02:33:09.673871 24430 net.cpp:157] Top shape: 100 196 (19600)
I0530 02:33:09.673882 24430 net.cpp:165] Memory required for data: 473176400
I0530 02:33:09.673892 24430 layer_factory.hpp:77] Creating layer drop_v1
I0530 02:33:09.673907 24430 net.cpp:106] Creating Layer drop_v1
I0530 02:33:09.673916 24430 net.cpp:454] drop_v1 <- dl_v1
I0530 02:33:09.673929 24430 net.cpp:397] drop_v1 -> dl_v1 (in-place)
I0530 02:33:09.673979 24430 net.cpp:150] Setting up drop_v1
I0530 02:33:09.673993 24430 net.cpp:157] Top shape: 100 196 (19600)
I0530 02:33:09.674003 24430 net.cpp:165] Memory required for data: 473254800
I0530 02:33:09.674013 24430 layer_factory.hpp:77] Creating layer concat_xuv
I0530 02:33:09.674028 24430 net.cpp:106] Creating Layer concat_xuv
I0530 02:33:09.674038 24430 net.cpp:454] concat_xuv <- dl_x1
I0530 02:33:09.674049 24430 net.cpp:454] concat_xuv <- dl_u1
I0530 02:33:09.674062 24430 net.cpp:454] concat_xuv <- dl_v1
I0530 02:33:09.674074 24430 net.cpp:411] concat_xuv -> concat_xuv
I0530 02:33:09.674125 24430 net.cpp:150] Setting up concat_xuv
I0530 02:33:09.674139 24430 net.cpp:157] Top shape: 100 588 (58800)
I0530 02:33:09.674149 24430 net.cpp:165] Memory required for data: 473490000
I0530 02:33:09.674160 24430 layer_factory.hpp:77] Creating layer dl_xuv
I0530 02:33:09.674173 24430 net.cpp:106] Creating Layer dl_xuv
I0530 02:33:09.674185 24430 net.cpp:454] dl_xuv <- concat_xuv
I0530 02:33:09.674197 24430 net.cpp:411] dl_xuv -> dl_xuv
I0530 02:33:09.675249 24430 net.cpp:150] Setting up dl_xuv
I0530 02:33:09.675268 24430 net.cpp:157] Top shape: 100 98 (9800)
I0530 02:33:09.675282 24430 net.cpp:165] Memory required for data: 473529200
I0530 02:33:09.675297 24430 layer_factory.hpp:77] Creating layer relu_xuv
I0530 02:33:09.675309 24430 net.cpp:106] Creating Layer relu_xuv
I0530 02:33:09.675319 24430 net.cpp:454] relu_xuv <- dl_xuv
I0530 02:33:09.675331 24430 net.cpp:397] relu_xuv -> dl_xuv (in-place)
I0530 02:33:09.675660 24430 net.cpp:150] Setting up relu_xuv
I0530 02:33:09.675674 24430 net.cpp:157] Top shape: 100 98 (9800)
I0530 02:33:09.675684 24430 net.cpp:165] Memory required for data: 473568400
I0530 02:33:09.675694 24430 layer_factory.hpp:77] Creating layer drop_xuv
I0530 02:33:09.675706 24430 net.cpp:106] Creating Layer drop_xuv
I0530 02:33:09.675717 24430 net.cpp:454] drop_xuv <- dl_xuv
I0530 02:33:09.675734 24430 net.cpp:397] drop_xuv -> dl_xuv (in-place)
I0530 02:33:09.675783 24430 net.cpp:150] Setting up drop_xuv
I0530 02:33:09.675797 24430 net.cpp:157] Top shape: 100 98 (9800)
I0530 02:33:09.675807 24430 net.cpp:165] Memory required for data: 473607600
I0530 02:33:09.675817 24430 layer_factory.hpp:77] Creating layer output
I0530 02:33:09.675830 24430 net.cpp:106] Creating Layer output
I0530 02:33:09.675840 24430 net.cpp:454] output <- dl_xuv
I0530 02:33:09.675853 24430 net.cpp:411] output -> output
I0530 02:33:09.676100 24430 net.cpp:150] Setting up output
I0530 02:33:09.676113 24430 net.cpp:157] Top shape: 100 11 (1100)
I0530 02:33:09.676136 24430 net.cpp:165] Memory required for data: 473612000
I0530 02:33:09.676169 24430 layer_factory.hpp:77] Creating layer drop_output
I0530 02:33:09.676184 24430 net.cpp:106] Creating Layer drop_output
I0530 02:33:09.676194 24430 net.cpp:454] drop_output <- output
I0530 02:33:09.676208 24430 net.cpp:397] drop_output -> output (in-place)
I0530 02:33:09.676254 24430 net.cpp:150] Setting up drop_output
I0530 02:33:09.676266 24430 net.cpp:157] Top shape: 100 11 (1100)
I0530 02:33:09.676276 24430 net.cpp:165] Memory required for data: 473616400
I0530 02:33:09.676286 24430 layer_factory.hpp:77] Creating layer output_drop_output_0_split
I0530 02:33:09.676298 24430 net.cpp:106] Creating Layer output_drop_output_0_split
I0530 02:33:09.676308 24430 net.cpp:454] output_drop_output_0_split <- output
I0530 02:33:09.676321 24430 net.cpp:411] output_drop_output_0_split -> output_drop_output_0_split_0
I0530 02:33:09.676337 24430 net.cpp:411] output_drop_output_0_split -> output_drop_output_0_split_1
I0530 02:33:09.676412 24430 net.cpp:150] Setting up output_drop_output_0_split
I0530 02:33:09.676426 24430 net.cpp:157] Top shape: 100 11 (1100)
I0530 02:33:09.676439 24430 net.cpp:157] Top shape: 100 11 (1100)
I0530 02:33:09.676447 24430 net.cpp:165] Memory required for data: 473625200
I0530 02:33:09.676457 24430 layer_factory.hpp:77] Creating layer accuracy
I0530 02:33:09.676478 24430 net.cpp:106] Creating Layer accuracy
I0530 02:33:09.676488 24430 net.cpp:454] accuracy <- output_drop_output_0_split_0
I0530 02:33:09.676501 24430 net.cpp:454] accuracy <- segments_data_3_split_0
I0530 02:33:09.676514 24430 net.cpp:411] accuracy -> accuracy
…
