…
I0530 15:43:28.737676  6458 net.cpp:322] The NetState phase (0) differed from the phase (1) specified by a rule in layer data
I0530 15:43:28.737759  6458 net.cpp:322] The NetState phase (0) differed from the phase (1) specified by a rule in layer accuracy
I0530 15:43:28.738507  6458 net.cpp:49] Initializing net from parameters: 
name: "epsilon_127x50_xuv"
state {
  phase: TRAIN
}
layer {
  name: "data"
  type: "HDF5Data"
  top: "hits-x"
  top: "hits-u"
  top: "hits-v"
  top: "segments"
  include {
    phase: TRAIN
  }
  hdf5_data_param {
    source: "/lustre/atlas/proj-shared/hep105/caffe_titan/xuv/epsilon_127x50_xuv.trainlist"
    batch_size: 100
  }
}
layer {
  name: "conv_x1"
  type: "Convolution"
  bottom: "hits-x"
  top: "conv_x1"
  convolution_param {
    num_output: 12
    pad: 0
    stride: 1
    weight_filler {
      type: "xavier"
    }
    bias_filler {
      type: "constant"
    }
    kernel_h: 8
    kernel_w: 3
  }
}
layer {
  name: "relu_x1"
  type: "ReLU"
  bottom: "conv_x1"
  top: "conv_x1"
}
layer {
  name: "pool_x1"
  type: "Pooling"
  bottom: "conv_x1"
  top: "pool_x1"
  pooling_param {
    pool: MAX
    kernel_h: 2
    kernel_w: 1
    stride_h: 2
    stride_w: 1
  }
}
layer {
  name: "conv_x2"
  type: "Convolution"
  bottom: "pool_x1"
  top: "conv_x2"
  convolution_param {
    num_output: 20
    pad: 0
    stride: 1
    weight_filler {
      type: "xavier"
    }
    bias_filler {
      type: "constant"
    }
    kernel_h: 7
    kernel_w: 3
  }
}
layer {
  name: "relu_x2"
  type: "ReLU"
  bottom: "conv_x2"
  top: "conv_x2"
}
layer {
  name: "pool_x2"
  type: "Pooling"
  bottom: "conv_x2"
  top: "pool_x2"
  pooling_param {
    pool: MAX
    kernel_h: 2
    kernel_w: 1
    stride_h: 2
    stride_w: 1
  }
}
layer {
  name: "conv_x3"
  type: "Convolution"
  bottom: "pool_x2"
  top: "conv_x3"
  convolution_param {
    num_output: 28
    pad: 0
    stride: 1
    weight_filler {
      type: "xavier"
    }
    bias_filler {
      type: "constant"
    }
    kernel_h: 6
    kernel_w: 3
  }
}
layer {
  name: "relu_x3"
  type: "ReLU"
  bottom: "conv_x3"
  top: "conv_x3"
}
layer {
  name: "pool_x3"
  type: "Pooling"
  bottom: "conv_x3"
  top: "pool_x3"
  pooling_param {
    pool: MAX
    kernel_h: 2
    kernel_w: 1
    stride_h: 2
    stride_w: 1
  }
}
layer {
  name: "conv_x4"
  type: "Convolution"
  bottom: "pool_x3"
  top: "conv_x4"
  convolution_param {
    num_output: 36
    pad: 0
    stride: 1
    weight_filler {
      type: "xavier"
    }
    bias_filler {
      type: "constant"
    }
    kernel_h: 6
    kernel_w: 3
  }
}
layer {
  name: "relu_x4"
  type: "ReLU"
  bottom: "conv_x4"
  top: "conv_x4"
}
layer {
  name: "pool_x4"
  type: "Pooling"
  bottom: "conv_x4"
  top: "pool_x4"
  pooling_param {
    pool: MAX
    kernel_h: 2
    kernel_w: 1
    stride_h: 2
    stride_w: 1
  }
}
layer {
  name: "dl_x1"
  type: "InnerProduct"
  bottom: "pool_x4"
  top: "dl_x1"
  inner_product_param {
    num_output: 196
    weight_filler {
      type: "xavier"
    }
    bias_filler {
      type: "constant"
    }
  }
}
layer {
  name: "relu_x5"
  type: "ReLU"
  bottom: "dl_x1"
  top: "dl_x1"
}
layer {
  name: "drop_x1"
  type: "Dropout"
  bottom: "dl_x1"
  top: "dl_x1"
  dropout_param {
    dropout_ratio: 0.5
  }
}
layer {
  name: "conv_u1"
  type: "Convolution"
  bottom: "hits-u"
  top: "conv_u1"
  convolution_param {
    num_output: 12
    pad: 0
    stride: 1
    weight_filler {
      type: "xavier"
    }
    bias_filler {
      type: "constant"
    }
    kernel_h: 8
    kernel_w: 3
  }
}
layer {
  name: "relu_u1"
  type: "ReLU"
  bottom: "conv_u1"
  top: "conv_u1"
}
layer {
  name: "pool_u1"
  type: "Pooling"
  bottom: "conv_u1"
  top: "pool_u1"
  pooling_param {
    pool: MAX
    kernel_h: 2
    kernel_w: 1
    stride_h: 2
    stride_w: 1
  }
}
layer {
  name: "conv_u2"
  type: "Convolution"
  bottom: "pool_u1"
  top: "conv_u2"
  convolution_param {
    num_output: 20
    pad: 0
    stride: 1
    weight_filler {
      type: "xavier"
    }
    bias_filler {
      type: "constant"
    }
    kernel_h: 7
    kernel_w: 3
  }
}
layer {
  name: "relu_u2"
  type: "ReLU"
  bottom: "conv_u2"
  top: "conv_u2"
}
layer {
  name: "pool_u2"
  type: "Pooling"
  bottom: "conv_u2"
  top: "pool_u2"
  pooling_param {
    pool: MAX
    kernel_h: 2
    kernel_w: 1
    stride_h: 2
    stride_w: 1
  }
}
layer {
  name: "conv_u3"
  type: "Convolution"
  bottom: "pool_u2"
  top: "conv_u3"
  convolution_param {
    num_output: 28
    pad: 0
    stride: 1
    weight_filler {
      type: "xavier"
    }
    bias_filler {
      type: "constant"
    }
    kernel_h: 6
    kernel_w: 3
  }
}
layer {
  name: "relu_u3"
  type: "ReLU"
  bottom: "conv_u3"
  top: "conv_u3"
}
layer {
  name: "pool_u3"
  type: "Pooling"
  bottom: "conv_u3"
  top: "pool_u3"
  pooling_param {
    pool: MAX
    kernel_h: 2
    kernel_w: 1
    stride_h: 2
    stride_w: 1
  }
}
layer {
  name: "conv_u4"
  type: "Convolution"
  bottom: "pool_u3"
  top: "conv_u4"
  convolution_param {
    num_output: 36
    pad: 0
    stride: 1
    weight_filler {
      type: "xavier"
    }
    bias_filler {
      type: "constant"
    }
    kernel_h: 6
    kernel_w: 3
  }
}
layer {
  name: "relu_u4"
  type: "ReLU"
  bottom: "conv_u4"
  top: "conv_u4"
}
layer {
  name: "pool_u4"
  type: "Pooling"
  bottom: "conv_u4"
  top: "pool_u4"
  pooling_param {
    pool: MAX
    kernel_h: 2
    kernel_w: 1
    stride_h: 2
    stride_w: 1
  }
}
layer {
  name: "dl_u1"
  type: "InnerProduct"
  bottom: "pool_u4"
  top: "dl_u1"
  inner_product_param {
    num_output: 196
    weight_filler {
      type: "xavier"
    }
    bias_filler {
      type: "constant"
    }
  }
}
layer {
  name: "relu_u5"
  type: "ReLU"
  bottom: "dl_u1"
  top: "dl_u1"
}
layer {
  name: "drop_u1"
  type: "Dropout"
  bottom: "dl_u1"
  top: "dl_u1"
  dropout_param {
    dropout_ratio: 0.5
  }
}
layer {
  name: "conv_v1"
  type: "Convolution"
  bottom: "hits-v"
  top: "conv_v1"
  convolution_param {
    num_output: 12
    pad: 0
    stride: 1
    weight_filler {
      type: "xavier"
    }
    bias_filler {
      type: "constant"
    }
    kernel_h: 8
    kernel_w: 3
  }
}
layer {
  name: "relu_v1"
  type: "ReLU"
  bottom: "conv_v1"
  top: "conv_v1"
}
layer {
  name: "pool_v1"
  type: "Pooling"
  bottom: "conv_v1"
  top: "pool_v1"
  pooling_param {
    pool: MAX
    kernel_h: 2
    kernel_w: 1
    stride_h: 2
    stride_w: 1
  }
}
layer {
  name: "conv_v2"
  type: "Convolution"
  bottom: "pool_v1"
  top: "conv_v2"
  convolution_param {
    num_output: 20
    pad: 0
    stride: 1
    weight_filler {
      type: "xavier"
    }
    bias_filler {
      type: "constant"
    }
    kernel_h: 7
    kernel_w: 3
  }
}
layer {
  name: "relu_v2"
  type: "ReLU"
  bottom: "conv_v2"
  top: "conv_v2"
}
layer {
  name: "pool_v2"
  type: "Pooling"
  bottom: "conv_v2"
  top: "pool_v2"
  pooling_param {
    pool: MAX
    kernel_h: 2
    kernel_w: 1
    stride_h: 2
    stride_w: 1
  }
}
layer {
  name: "conv_v3"
  type: "Convolution"
  bottom: "pool_v2"
  top: "conv_v3"
  convolution_param {
    num_output: 28
    pad: 0
    stride: 1
    weight_filler {
      type: "xavier"
    }
    bias_filler {
      type: "constant"
    }
    kernel_h: 6
    kernel_w: 3
  }
}
layer {
  name: "relu_v3"
  type: "ReLU"
  bottom: "conv_v3"
  top: "conv_v3"
}
layer {
  name: "pool_v3"
  type: "Pooling"
  bottom: "conv_v3"
  top: "pool_v3"
  pooling_param {
    pool: MAX
    kernel_h: 2
    kernel_w: 1
    stride_h: 2
    stride_w: 1
  }
}
layer {
  name: "conv_v4"
  type: "Convolution"
  bottom: "pool_v3"
  top: "conv_v4"
  convolution_param {
    num_output: 36
    pad: 0
    stride: 1
    weight_filler {
      type: "xavier"
    }
    bias_filler {
      type: "constant"
    }
    kernel_h: 6
    kernel_w: 3
  }
}
layer {
  name: "relu_v4"
  type: "ReLU"
  bottom: "conv_v4"
  top: "conv_v4"
}
layer {
  name: "pool_v4"
  type: "Pooling"
  bottom: "conv_v4"
  top: "pool_v4"
  pooling_param {
    pool: MAX
    kernel_h: 2
    kernel_w: 1
    stride_h: 2
    stride_w: 1
  }
}
layer {
  name: "dl_v1"
  type: "InnerProduct"
  bottom: "pool_v4"
  top: "dl_v1"
  inner_product_param {
    num_output: 196
    weight_filler {
      type: "xavier"
    }
    bias_filler {
      type: "constant"
    }
  }
}
layer {
  name: "relu_v5"
  type: "ReLU"
  bottom: "dl_v1"
  top: "dl_v1"
}
layer {
  name: "drop_v1"
  type: "Dropout"
  bottom: "dl_v1"
  top: "dl_v1"
  dropout_param {
    dropout_ratio: 0.5
  }
}
layer {
  name: "concat_xuv"
  type: "Concat"
  bottom: "dl_x1"
  bottom: "dl_u1"
  bottom: "dl_v1"
  top: "concat_xuv"
  concat_param {
    axis: 1
  }
}
layer {
  name: "dl_xuv"
  type: "InnerProduct"
  bottom: "concat_xuv"
  top: "dl_xuv"
  inner_product_param {
    num_output: 98
    weight_filler {
      type: "xavier"
    }
    bias_filler {
      type: "constant"
    }
  }
}
layer {
  name: "relu_xuv"
  type: "ReLU"
  bottom: "dl_xuv"
  top: "dl_xuv"
}
layer {
  name: "drop_xuv"
  type: "Dropout"
  bottom: "dl_xuv"
  top: "dl_xuv"
  dropout_param {
    dropout_ratio: 0.5
  }
}
layer {
  name: "output"
  type: "InnerProduct"
  bottom: "dl_xuv"
  top: "output"
  inner_product_param {
    num_output: 11
    weight_filler {
      type: "xavier"
    }
    bias_filler {
      type: "constant"
    }
  }
}
layer {
  name: "drop_output"
  type: "Dropout"
  bottom: "output"
  top: "output"
  dropout_param {
    dropout_ratio: 0.5
  }
}
layer {
  name: "loss"
  type: "SoftmaxWithLoss"
  bottom: "output"
  bottom: "segments"
  top: "loss"
}
I0530 15:43:28.738862  6458 layer_factory.hpp:77] Creating layer data
I0530 15:43:28.738884  6458 net.cpp:106] Creating Layer data
I0530 15:43:28.738899  6458 net.cpp:411] data -> hits-x
I0530 15:43:28.738932  6458 net.cpp:411] data -> hits-u
I0530 15:43:28.738955  6458 net.cpp:411] data -> hits-v
I0530 15:43:28.738970  6458 net.cpp:411] data -> segments
I0530 15:43:28.738996  6458 hdf5_data_layer.cpp:79] Loading list of HDF5 filenames from: /lustre/atlas/proj-shared/hep105/caffe_titan/xuv/epsilon_127x50_xuv.trainlist
I0530 15:43:28.740718  6458 hdf5_data_layer.cpp:93] Number of HDF5 files: 15
I0530 15:43:28.743999  6458 hdf5.cpp:32] Datatype class: H5T_FLOAT
I0530 15:44:32.857383  6458 hdf5.cpp:35] Datatype class: H5T_INTEGER
I0530 15:44:32.863112  6458 net.cpp:150] Setting up data
I0530 15:44:32.863155  6458 net.cpp:157] Top shape: 100 1 127 50 (635000)
I0530 15:44:32.863170  6458 net.cpp:157] Top shape: 100 1 127 50 (635000)
I0530 15:44:32.863184  6458 net.cpp:157] Top shape: 100 1 127 50 (635000)
I0530 15:44:32.863196  6458 net.cpp:157] Top shape: 100 (100)
I0530 15:44:32.863209  6458 net.cpp:165] Memory required for data: 7620400
I0530 15:44:32.863221  6458 layer_factory.hpp:77] Creating layer conv_x1
I0530 15:44:32.863256  6458 net.cpp:106] Creating Layer conv_x1
I0530 15:44:32.863267  6458 net.cpp:454] conv_x1 <- hits-x
I0530 15:44:32.863289  6458 net.cpp:411] conv_x1 -> conv_x1
I0530 15:44:33.223027  6458 net.cpp:150] Setting up conv_x1
I0530 15:44:33.223074  6458 net.cpp:157] Top shape: 100 12 120 48 (6912000)
I0530 15:44:33.223086  6458 net.cpp:165] Memory required for data: 35268400
I0530 15:44:33.223119  6458 layer_factory.hpp:77] Creating layer relu_x1
I0530 15:44:33.223140  6458 net.cpp:106] Creating Layer relu_x1
I0530 15:44:33.223152  6458 net.cpp:454] relu_x1 <- conv_x1
I0530 15:44:33.223166  6458 net.cpp:397] relu_x1 -> conv_x1 (in-place)
I0530 15:44:33.223695  6458 net.cpp:150] Setting up relu_x1
I0530 15:44:33.223712  6458 net.cpp:157] Top shape: 100 12 120 48 (6912000)
I0530 15:44:33.223722  6458 net.cpp:165] Memory required for data: 62916400
I0530 15:44:33.223732  6458 layer_factory.hpp:77] Creating layer pool_x1
I0530 15:44:33.223749  6458 net.cpp:106] Creating Layer pool_x1
I0530 15:44:33.223759  6458 net.cpp:454] pool_x1 <- conv_x1
I0530 15:44:33.223773  6458 net.cpp:411] pool_x1 -> pool_x1
I0530 15:44:33.223856  6458 net.cpp:150] Setting up pool_x1
I0530 15:44:33.223870  6458 net.cpp:157] Top shape: 100 12 60 48 (3456000)
I0530 15:44:33.223880  6458 net.cpp:165] Memory required for data: 76740400
I0530 15:44:33.223889  6458 layer_factory.hpp:77] Creating layer conv_x2
I0530 15:44:33.223912  6458 net.cpp:106] Creating Layer conv_x2
I0530 15:44:33.223922  6458 net.cpp:454] conv_x2 <- pool_x1
I0530 15:44:33.223937  6458 net.cpp:411] conv_x2 -> conv_x2
I0530 15:44:33.226637  6458 net.cpp:150] Setting up conv_x2
I0530 15:44:33.226665  6458 net.cpp:157] Top shape: 100 20 54 46 (4968000)
I0530 15:44:33.226677  6458 net.cpp:165] Memory required for data: 96612400
I0530 15:44:33.226697  6458 layer_factory.hpp:77] Creating layer relu_x2
I0530 15:44:33.226712  6458 net.cpp:106] Creating Layer relu_x2
I0530 15:44:33.226722  6458 net.cpp:454] relu_x2 <- conv_x2
I0530 15:44:33.226737  6458 net.cpp:397] relu_x2 -> conv_x2 (in-place)
I0530 15:44:33.227064  6458 net.cpp:150] Setting up relu_x2
I0530 15:44:33.227078  6458 net.cpp:157] Top shape: 100 20 54 46 (4968000)
I0530 15:44:33.227089  6458 net.cpp:165] Memory required for data: 116484400
I0530 15:44:33.227099  6458 layer_factory.hpp:77] Creating layer pool_x2
I0530 15:44:33.227113  6458 net.cpp:106] Creating Layer pool_x2
I0530 15:44:33.227123  6458 net.cpp:454] pool_x2 <- conv_x2
I0530 15:44:33.227135  6458 net.cpp:411] pool_x2 -> pool_x2
I0530 15:44:33.227205  6458 net.cpp:150] Setting up pool_x2
I0530 15:44:33.227218  6458 net.cpp:157] Top shape: 100 20 27 46 (2484000)
I0530 15:44:33.227228  6458 net.cpp:165] Memory required for data: 126420400
I0530 15:44:33.227239  6458 layer_factory.hpp:77] Creating layer conv_x3
I0530 15:44:33.227257  6458 net.cpp:106] Creating Layer conv_x3
I0530 15:44:33.227267  6458 net.cpp:454] conv_x3 <- pool_x2
I0530 15:44:33.227282  6458 net.cpp:411] conv_x3 -> conv_x3
I0530 15:44:33.229212  6458 net.cpp:150] Setting up conv_x3
I0530 15:44:33.229236  6458 net.cpp:157] Top shape: 100 28 22 44 (2710400)
I0530 15:44:33.229246  6458 net.cpp:165] Memory required for data: 137262000
I0530 15:44:33.229266  6458 layer_factory.hpp:77] Creating layer relu_x3
I0530 15:44:33.229282  6458 net.cpp:106] Creating Layer relu_x3
I0530 15:44:33.229293  6458 net.cpp:454] relu_x3 <- conv_x3
I0530 15:44:33.229305  6458 net.cpp:397] relu_x3 -> conv_x3 (in-place)
I0530 15:44:33.229775  6458 net.cpp:150] Setting up relu_x3
I0530 15:44:33.229791  6458 net.cpp:157] Top shape: 100 28 22 44 (2710400)
I0530 15:44:33.229814  6458 net.cpp:165] Memory required for data: 148103600
I0530 15:44:33.229825  6458 layer_factory.hpp:77] Creating layer pool_x3
I0530 15:44:33.229837  6458 net.cpp:106] Creating Layer pool_x3
I0530 15:44:33.229847  6458 net.cpp:454] pool_x3 <- conv_x3
I0530 15:44:33.229861  6458 net.cpp:411] pool_x3 -> pool_x3
I0530 15:44:33.229930  6458 net.cpp:150] Setting up pool_x3
I0530 15:44:33.229943  6458 net.cpp:157] Top shape: 100 28 11 44 (1355200)
I0530 15:44:33.229954  6458 net.cpp:165] Memory required for data: 153524400
I0530 15:44:33.229964  6458 layer_factory.hpp:77] Creating layer conv_x4
I0530 15:44:33.229981  6458 net.cpp:106] Creating Layer conv_x4
I0530 15:44:33.229991  6458 net.cpp:454] conv_x4 <- pool_x3
I0530 15:44:33.230005  6458 net.cpp:411] conv_x4 -> conv_x4
I0530 15:44:33.232978  6458 net.cpp:150] Setting up conv_x4
I0530 15:44:33.233006  6458 net.cpp:157] Top shape: 100 36 6 42 (907200)
I0530 15:44:33.233018  6458 net.cpp:165] Memory required for data: 157153200
I0530 15:44:33.233033  6458 layer_factory.hpp:77] Creating layer relu_x4
I0530 15:44:33.233048  6458 net.cpp:106] Creating Layer relu_x4
I0530 15:44:33.233059  6458 net.cpp:454] relu_x4 <- conv_x4
I0530 15:44:33.233072  6458 net.cpp:397] relu_x4 -> conv_x4 (in-place)
I0530 15:44:33.233539  6458 net.cpp:150] Setting up relu_x4
I0530 15:44:33.233556  6458 net.cpp:157] Top shape: 100 36 6 42 (907200)
I0530 15:44:33.233566  6458 net.cpp:165] Memory required for data: 160782000
I0530 15:44:33.233577  6458 layer_factory.hpp:77] Creating layer pool_x4
I0530 15:44:33.233590  6458 net.cpp:106] Creating Layer pool_x4
I0530 15:44:33.233600  6458 net.cpp:454] pool_x4 <- conv_x4
I0530 15:44:33.233614  6458 net.cpp:411] pool_x4 -> pool_x4
I0530 15:44:33.233683  6458 net.cpp:150] Setting up pool_x4
I0530 15:44:33.233697  6458 net.cpp:157] Top shape: 100 36 3 42 (453600)
I0530 15:44:33.233707  6458 net.cpp:165] Memory required for data: 162596400
I0530 15:44:33.233717  6458 layer_factory.hpp:77] Creating layer dl_x1
I0530 15:44:33.233736  6458 net.cpp:106] Creating Layer dl_x1
I0530 15:44:33.233747  6458 net.cpp:454] dl_x1 <- pool_x4
I0530 15:44:33.233762  6458 net.cpp:411] dl_x1 -> dl_x1
I0530 15:44:33.249224  6458 net.cpp:150] Setting up dl_x1
I0530 15:44:33.249253  6458 net.cpp:157] Top shape: 100 196 (19600)
I0530 15:44:33.249264  6458 net.cpp:165] Memory required for data: 162674800
I0530 15:44:33.249286  6458 layer_factory.hpp:77] Creating layer relu_x5
I0530 15:44:33.249302  6458 net.cpp:106] Creating Layer relu_x5
I0530 15:44:33.249313  6458 net.cpp:454] relu_x5 <- dl_x1
I0530 15:44:33.249330  6458 net.cpp:397] relu_x5 -> dl_x1 (in-place)
I0530 15:44:33.249671  6458 net.cpp:150] Setting up relu_x5
I0530 15:44:33.249686  6458 net.cpp:157] Top shape: 100 196 (19600)
I0530 15:44:33.249696  6458 net.cpp:165] Memory required for data: 162753200
I0530 15:44:33.249706  6458 layer_factory.hpp:77] Creating layer drop_x1
I0530 15:44:33.249727  6458 net.cpp:106] Creating Layer drop_x1
I0530 15:44:33.249737  6458 net.cpp:454] drop_x1 <- dl_x1
I0530 15:44:33.249749  6458 net.cpp:397] drop_x1 -> dl_x1 (in-place)
I0530 15:44:33.249795  6458 net.cpp:150] Setting up drop_x1
I0530 15:44:33.249809  6458 net.cpp:157] Top shape: 100 196 (19600)
I0530 15:44:33.249819  6458 net.cpp:165] Memory required for data: 162831600
I0530 15:44:33.249827  6458 layer_factory.hpp:77] Creating layer conv_u1
I0530 15:44:33.249850  6458 net.cpp:106] Creating Layer conv_u1
I0530 15:44:33.249861  6458 net.cpp:454] conv_u1 <- hits-u
I0530 15:44:33.249873  6458 net.cpp:411] conv_u1 -> conv_u1
I0530 15:44:33.251698  6458 net.cpp:150] Setting up conv_u1
I0530 15:44:33.251720  6458 net.cpp:157] Top shape: 100 12 120 48 (6912000)
I0530 15:44:33.251734  6458 net.cpp:165] Memory required for data: 190479600
I0530 15:44:33.251749  6458 layer_factory.hpp:77] Creating layer relu_u1
I0530 15:44:33.251762  6458 net.cpp:106] Creating Layer relu_u1
I0530 15:44:33.251772  6458 net.cpp:454] relu_u1 <- conv_u1
I0530 15:44:33.251785  6458 net.cpp:397] relu_u1 -> conv_u1 (in-place)
I0530 15:44:33.252274  6458 net.cpp:150] Setting up relu_u1
I0530 15:44:33.252293  6458 net.cpp:157] Top shape: 100 12 120 48 (6912000)
I0530 15:44:33.252303  6458 net.cpp:165] Memory required for data: 218127600
I0530 15:44:33.252313  6458 layer_factory.hpp:77] Creating layer pool_u1
I0530 15:44:33.252327  6458 net.cpp:106] Creating Layer pool_u1
I0530 15:44:33.252337  6458 net.cpp:454] pool_u1 <- conv_u1
I0530 15:44:33.252351  6458 net.cpp:411] pool_u1 -> pool_u1
I0530 15:44:33.252421  6458 net.cpp:150] Setting up pool_u1
I0530 15:44:33.252435  6458 net.cpp:157] Top shape: 100 12 60 48 (3456000)
I0530 15:44:33.252445  6458 net.cpp:165] Memory required for data: 231951600
I0530 15:44:33.252455  6458 layer_factory.hpp:77] Creating layer conv_u2
I0530 15:44:33.252472  6458 net.cpp:106] Creating Layer conv_u2
I0530 15:44:33.252482  6458 net.cpp:454] conv_u2 <- pool_u1
I0530 15:44:33.252497  6458 net.cpp:411] conv_u2 -> conv_u2
I0530 15:44:33.254328  6458 net.cpp:150] Setting up conv_u2
I0530 15:44:33.254349  6458 net.cpp:157] Top shape: 100 20 54 46 (4968000)
I0530 15:44:33.254361  6458 net.cpp:165] Memory required for data: 251823600
I0530 15:44:33.254376  6458 layer_factory.hpp:77] Creating layer relu_u2
I0530 15:44:33.254390  6458 net.cpp:106] Creating Layer relu_u2
I0530 15:44:33.254400  6458 net.cpp:454] relu_u2 <- conv_u2
I0530 15:44:33.254412  6458 net.cpp:397] relu_u2 -> conv_u2 (in-place)
I0530 15:44:33.254734  6458 net.cpp:150] Setting up relu_u2
I0530 15:44:33.254747  6458 net.cpp:157] Top shape: 100 20 54 46 (4968000)
I0530 15:44:33.254757  6458 net.cpp:165] Memory required for data: 271695600
I0530 15:44:33.254767  6458 layer_factory.hpp:77] Creating layer pool_u2
I0530 15:44:33.254781  6458 net.cpp:106] Creating Layer pool_u2
I0530 15:44:33.254791  6458 net.cpp:454] pool_u2 <- conv_u2
I0530 15:44:33.254803  6458 net.cpp:411] pool_u2 -> pool_u2
I0530 15:44:33.254875  6458 net.cpp:150] Setting up pool_u2
I0530 15:44:33.254890  6458 net.cpp:157] Top shape: 100 20 27 46 (2484000)
I0530 15:44:33.254900  6458 net.cpp:165] Memory required for data: 281631600
I0530 15:44:33.254910  6458 layer_factory.hpp:77] Creating layer conv_u3
I0530 15:44:33.254926  6458 net.cpp:106] Creating Layer conv_u3
I0530 15:44:33.254937  6458 net.cpp:454] conv_u3 <- pool_u2
I0530 15:44:33.254951  6458 net.cpp:411] conv_u3 -> conv_u3
I0530 15:44:33.256868  6458 net.cpp:150] Setting up conv_u3
I0530 15:44:33.256896  6458 net.cpp:157] Top shape: 100 28 22 44 (2710400)
I0530 15:44:33.256906  6458 net.cpp:165] Memory required for data: 292473200
I0530 15:44:33.256922  6458 layer_factory.hpp:77] Creating layer relu_u3
I0530 15:44:33.256935  6458 net.cpp:106] Creating Layer relu_u3
I0530 15:44:33.256945  6458 net.cpp:454] relu_u3 <- conv_u3
I0530 15:44:33.256958  6458 net.cpp:397] relu_u3 -> conv_u3 (in-place)
I0530 15:44:33.257289  6458 net.cpp:150] Setting up relu_u3
I0530 15:44:33.257303  6458 net.cpp:157] Top shape: 100 28 22 44 (2710400)
I0530 15:44:33.257314  6458 net.cpp:165] Memory required for data: 303314800
I0530 15:44:33.257324  6458 layer_factory.hpp:77] Creating layer pool_u3
I0530 15:44:33.257338  6458 net.cpp:106] Creating Layer pool_u3
I0530 15:44:33.257347  6458 net.cpp:454] pool_u3 <- conv_u3
I0530 15:44:33.257360  6458 net.cpp:411] pool_u3 -> pool_u3
I0530 15:44:33.257431  6458 net.cpp:150] Setting up pool_u3
I0530 15:44:33.257443  6458 net.cpp:157] Top shape: 100 28 11 44 (1355200)
I0530 15:44:33.257453  6458 net.cpp:165] Memory required for data: 308735600
I0530 15:44:33.257463  6458 layer_factory.hpp:77] Creating layer conv_u4
I0530 15:44:33.257479  6458 net.cpp:106] Creating Layer conv_u4
I0530 15:44:33.257490  6458 net.cpp:454] conv_u4 <- pool_u3
I0530 15:44:33.257503  6458 net.cpp:411] conv_u4 -> conv_u4
I0530 15:44:33.259701  6458 net.cpp:150] Setting up conv_u4
I0530 15:44:33.259723  6458 net.cpp:157] Top shape: 100 36 6 42 (907200)
I0530 15:44:33.259735  6458 net.cpp:165] Memory required for data: 312364400
I0530 15:44:33.259757  6458 layer_factory.hpp:77] Creating layer relu_u4
I0530 15:44:33.259771  6458 net.cpp:106] Creating Layer relu_u4
I0530 15:44:33.259791  6458 net.cpp:454] relu_u4 <- conv_u4
I0530 15:44:33.259805  6458 net.cpp:397] relu_u4 -> conv_u4 (in-place)
I0530 15:44:33.260280  6458 net.cpp:150] Setting up relu_u4
I0530 15:44:33.260298  6458 net.cpp:157] Top shape: 100 36 6 42 (907200)
I0530 15:44:33.260308  6458 net.cpp:165] Memory required for data: 315993200
I0530 15:44:33.260318  6458 layer_factory.hpp:77] Creating layer pool_u4
I0530 15:44:33.260331  6458 net.cpp:106] Creating Layer pool_u4
I0530 15:44:33.260341  6458 net.cpp:454] pool_u4 <- conv_u4
I0530 15:44:33.260354  6458 net.cpp:411] pool_u4 -> pool_u4
I0530 15:44:33.260424  6458 net.cpp:150] Setting up pool_u4
I0530 15:44:33.260438  6458 net.cpp:157] Top shape: 100 36 3 42 (453600)
I0530 15:44:33.260449  6458 net.cpp:165] Memory required for data: 317807600
I0530 15:44:33.260459  6458 layer_factory.hpp:77] Creating layer dl_u1
I0530 15:44:33.260474  6458 net.cpp:106] Creating Layer dl_u1
I0530 15:44:33.260485  6458 net.cpp:454] dl_u1 <- pool_u4
I0530 15:44:33.260499  6458 net.cpp:411] dl_u1 -> dl_u1
I0530 15:44:33.276046  6458 net.cpp:150] Setting up dl_u1
I0530 15:44:33.276074  6458 net.cpp:157] Top shape: 100 196 (19600)
I0530 15:44:33.276089  6458 net.cpp:165] Memory required for data: 317886000
I0530 15:44:33.276110  6458 layer_factory.hpp:77] Creating layer relu_u5
I0530 15:44:33.276125  6458 net.cpp:106] Creating Layer relu_u5
I0530 15:44:33.276136  6458 net.cpp:454] relu_u5 <- dl_u1
I0530 15:44:33.276149  6458 net.cpp:397] relu_u5 -> dl_u1 (in-place)
I0530 15:44:33.276494  6458 net.cpp:150] Setting up relu_u5
I0530 15:44:33.276507  6458 net.cpp:157] Top shape: 100 196 (19600)
I0530 15:44:33.276517  6458 net.cpp:165] Memory required for data: 317964400
I0530 15:44:33.276528  6458 layer_factory.hpp:77] Creating layer drop_u1
I0530 15:44:33.276541  6458 net.cpp:106] Creating Layer drop_u1
I0530 15:44:33.276551  6458 net.cpp:454] drop_u1 <- dl_u1
I0530 15:44:33.276564  6458 net.cpp:397] drop_u1 -> dl_u1 (in-place)
I0530 15:44:33.276607  6458 net.cpp:150] Setting up drop_u1
I0530 15:44:33.276620  6458 net.cpp:157] Top shape: 100 196 (19600)
I0530 15:44:33.276630  6458 net.cpp:165] Memory required for data: 318042800
I0530 15:44:33.276640  6458 layer_factory.hpp:77] Creating layer conv_v1
I0530 15:44:33.276657  6458 net.cpp:106] Creating Layer conv_v1
I0530 15:44:33.276669  6458 net.cpp:454] conv_v1 <- hits-v
I0530 15:44:33.276681  6458 net.cpp:411] conv_v1 -> conv_v1
I0530 15:44:33.278535  6458 net.cpp:150] Setting up conv_v1
I0530 15:44:33.278558  6458 net.cpp:157] Top shape: 100 12 120 48 (6912000)
I0530 15:44:33.278570  6458 net.cpp:165] Memory required for data: 345690800
I0530 15:44:33.278585  6458 layer_factory.hpp:77] Creating layer relu_v1
I0530 15:44:33.278609  6458 net.cpp:106] Creating Layer relu_v1
I0530 15:44:33.278619  6458 net.cpp:454] relu_v1 <- conv_v1
I0530 15:44:33.278631  6458 net.cpp:397] relu_v1 -> conv_v1 (in-place)
I0530 15:44:33.279101  6458 net.cpp:150] Setting up relu_v1
I0530 15:44:33.279119  6458 net.cpp:157] Top shape: 100 12 120 48 (6912000)
I0530 15:44:33.279130  6458 net.cpp:165] Memory required for data: 373338800
I0530 15:44:33.279140  6458 layer_factory.hpp:77] Creating layer pool_v1
I0530 15:44:33.279155  6458 net.cpp:106] Creating Layer pool_v1
I0530 15:44:33.279165  6458 net.cpp:454] pool_v1 <- conv_v1
I0530 15:44:33.279177  6458 net.cpp:411] pool_v1 -> pool_v1
I0530 15:44:33.279249  6458 net.cpp:150] Setting up pool_v1
I0530 15:44:33.279263  6458 net.cpp:157] Top shape: 100 12 60 48 (3456000)
I0530 15:44:33.279273  6458 net.cpp:165] Memory required for data: 387162800
I0530 15:44:33.279281  6458 layer_factory.hpp:77] Creating layer conv_v2
I0530 15:44:33.279299  6458 net.cpp:106] Creating Layer conv_v2
I0530 15:44:33.279310  6458 net.cpp:454] conv_v2 <- pool_v1
I0530 15:44:33.279325  6458 net.cpp:411] conv_v2 -> conv_v2
I0530 15:44:33.281025  6458 net.cpp:150] Setting up conv_v2
I0530 15:44:33.281047  6458 net.cpp:157] Top shape: 100 20 54 46 (4968000)
I0530 15:44:33.281059  6458 net.cpp:165] Memory required for data: 407034800
I0530 15:44:33.281086  6458 layer_factory.hpp:77] Creating layer relu_v2
I0530 15:44:33.281100  6458 net.cpp:106] Creating Layer relu_v2
I0530 15:44:33.281110  6458 net.cpp:454] relu_v2 <- conv_v2
I0530 15:44:33.281122  6458 net.cpp:397] relu_v2 -> conv_v2 (in-place)
I0530 15:44:33.281602  6458 net.cpp:150] Setting up relu_v2
I0530 15:44:33.281618  6458 net.cpp:157] Top shape: 100 20 54 46 (4968000)
I0530 15:44:33.281628  6458 net.cpp:165] Memory required for data: 426906800
I0530 15:44:33.281640  6458 layer_factory.hpp:77] Creating layer pool_v2
I0530 15:44:33.281652  6458 net.cpp:106] Creating Layer pool_v2
I0530 15:44:33.281663  6458 net.cpp:454] pool_v2 <- conv_v2
I0530 15:44:33.281677  6458 net.cpp:411] pool_v2 -> pool_v2
I0530 15:44:33.281747  6458 net.cpp:150] Setting up pool_v2
I0530 15:44:33.281760  6458 net.cpp:157] Top shape: 100 20 27 46 (2484000)
I0530 15:44:33.281770  6458 net.cpp:165] Memory required for data: 436842800
I0530 15:44:33.281780  6458 layer_factory.hpp:77] Creating layer conv_v3
I0530 15:44:33.281797  6458 net.cpp:106] Creating Layer conv_v3
I0530 15:44:33.281808  6458 net.cpp:454] conv_v3 <- pool_v2
I0530 15:44:33.281823  6458 net.cpp:411] conv_v3 -> conv_v3
I0530 15:44:33.283761  6458 net.cpp:150] Setting up conv_v3
I0530 15:44:33.283782  6458 net.cpp:157] Top shape: 100 28 22 44 (2710400)
I0530 15:44:33.283795  6458 net.cpp:165] Memory required for data: 447684400
I0530 15:44:33.283810  6458 layer_factory.hpp:77] Creating layer relu_v3
I0530 15:44:33.283824  6458 net.cpp:106] Creating Layer relu_v3
I0530 15:44:33.283834  6458 net.cpp:454] relu_v3 <- conv_v3
I0530 15:44:33.283849  6458 net.cpp:397] relu_v3 -> conv_v3 (in-place)
I0530 15:44:33.284164  6458 net.cpp:150] Setting up relu_v3
I0530 15:44:33.284179  6458 net.cpp:157] Top shape: 100 28 22 44 (2710400)
I0530 15:44:33.284189  6458 net.cpp:165] Memory required for data: 458526000
I0530 15:44:33.284199  6458 layer_factory.hpp:77] Creating layer pool_v3
I0530 15:44:33.284212  6458 net.cpp:106] Creating Layer pool_v3
I0530 15:44:33.284222  6458 net.cpp:454] pool_v3 <- conv_v3
I0530 15:44:33.284235  6458 net.cpp:411] pool_v3 -> pool_v3
I0530 15:44:33.284304  6458 net.cpp:150] Setting up pool_v3
I0530 15:44:33.284318  6458 net.cpp:157] Top shape: 100 28 11 44 (1355200)
I0530 15:44:33.284328  6458 net.cpp:165] Memory required for data: 463946800
I0530 15:44:33.284338  6458 layer_factory.hpp:77] Creating layer conv_v4
I0530 15:44:33.284354  6458 net.cpp:106] Creating Layer conv_v4
I0530 15:44:33.284365  6458 net.cpp:454] conv_v4 <- pool_v3
I0530 15:44:33.284380  6458 net.cpp:411] conv_v4 -> conv_v4
I0530 15:44:33.286528  6458 net.cpp:150] Setting up conv_v4
I0530 15:44:33.286551  6458 net.cpp:157] Top shape: 100 36 6 42 (907200)
I0530 15:44:33.286564  6458 net.cpp:165] Memory required for data: 467575600
I0530 15:44:33.286579  6458 layer_factory.hpp:77] Creating layer relu_v4
I0530 15:44:33.286592  6458 net.cpp:106] Creating Layer relu_v4
I0530 15:44:33.286602  6458 net.cpp:454] relu_v4 <- conv_v4
I0530 15:44:33.286615  6458 net.cpp:397] relu_v4 -> conv_v4 (in-place)
I0530 15:44:33.287092  6458 net.cpp:150] Setting up relu_v4
I0530 15:44:33.287108  6458 net.cpp:157] Top shape: 100 36 6 42 (907200)
I0530 15:44:33.287119  6458 net.cpp:165] Memory required for data: 471204400
I0530 15:44:33.287129  6458 layer_factory.hpp:77] Creating layer pool_v4
I0530 15:44:33.287142  6458 net.cpp:106] Creating Layer pool_v4
I0530 15:44:33.287153  6458 net.cpp:454] pool_v4 <- conv_v4
I0530 15:44:33.287166  6458 net.cpp:411] pool_v4 -> pool_v4
I0530 15:44:33.287240  6458 net.cpp:150] Setting up pool_v4
I0530 15:44:33.287253  6458 net.cpp:157] Top shape: 100 36 3 42 (453600)
I0530 15:44:33.287263  6458 net.cpp:165] Memory required for data: 473018800
I0530 15:44:33.287271  6458 layer_factory.hpp:77] Creating layer dl_v1
I0530 15:44:33.287286  6458 net.cpp:106] Creating Layer dl_v1
I0530 15:44:33.287297  6458 net.cpp:454] dl_v1 <- pool_v4
I0530 15:44:33.287310  6458 net.cpp:411] dl_v1 -> dl_v1
I0530 15:44:33.302815  6458 net.cpp:150] Setting up dl_v1
I0530 15:44:33.302855  6458 net.cpp:157] Top shape: 100 196 (19600)
I0530 15:44:33.302867  6458 net.cpp:165] Memory required for data: 473097200
I0530 15:44:33.302888  6458 layer_factory.hpp:77] Creating layer relu_v5
I0530 15:44:33.302903  6458 net.cpp:106] Creating Layer relu_v5
I0530 15:44:33.302914  6458 net.cpp:454] relu_v5 <- dl_v1
I0530 15:44:33.302927  6458 net.cpp:397] relu_v5 -> dl_v1 (in-place)
I0530 15:44:33.303279  6458 net.cpp:150] Setting up relu_v5
I0530 15:44:33.303293  6458 net.cpp:157] Top shape: 100 196 (19600)
I0530 15:44:33.303304  6458 net.cpp:165] Memory required for data: 473175600
I0530 15:44:33.303315  6458 layer_factory.hpp:77] Creating layer drop_v1
I0530 15:44:33.303328  6458 net.cpp:106] Creating Layer drop_v1
I0530 15:44:33.303339  6458 net.cpp:454] drop_v1 <- dl_v1
I0530 15:44:33.303350  6458 net.cpp:397] drop_v1 -> dl_v1 (in-place)
I0530 15:44:33.303406  6458 net.cpp:150] Setting up drop_v1
I0530 15:44:33.303419  6458 net.cpp:157] Top shape: 100 196 (19600)
I0530 15:44:33.303431  6458 net.cpp:165] Memory required for data: 473254000
I0530 15:44:33.303442  6458 layer_factory.hpp:77] Creating layer concat_xuv
I0530 15:44:33.303462  6458 net.cpp:106] Creating Layer concat_xuv
I0530 15:44:33.303472  6458 net.cpp:454] concat_xuv <- dl_x1
I0530 15:44:33.303484  6458 net.cpp:454] concat_xuv <- dl_u1
I0530 15:44:33.303496  6458 net.cpp:454] concat_xuv <- dl_v1
I0530 15:44:33.303510  6458 net.cpp:411] concat_xuv -> concat_xuv
I0530 15:44:33.303562  6458 net.cpp:150] Setting up concat_xuv
I0530 15:44:33.303575  6458 net.cpp:157] Top shape: 100 588 (58800)
I0530 15:44:33.303586  6458 net.cpp:165] Memory required for data: 473489200
I0530 15:44:33.303597  6458 layer_factory.hpp:77] Creating layer dl_xuv
I0530 15:44:33.303611  6458 net.cpp:106] Creating Layer dl_xuv
I0530 15:44:33.303622  6458 net.cpp:454] dl_xuv <- concat_xuv
I0530 15:44:33.303635  6458 net.cpp:411] dl_xuv -> dl_xuv
I0530 15:44:33.304671  6458 net.cpp:150] Setting up dl_xuv
I0530 15:44:33.304689  6458 net.cpp:157] Top shape: 100 98 (9800)
I0530 15:44:33.304702  6458 net.cpp:165] Memory required for data: 473528400
I0530 15:44:33.304718  6458 layer_factory.hpp:77] Creating layer relu_xuv
I0530 15:44:33.304731  6458 net.cpp:106] Creating Layer relu_xuv
I0530 15:44:33.304741  6458 net.cpp:454] relu_xuv <- dl_xuv
I0530 15:44:33.304754  6458 net.cpp:397] relu_xuv -> dl_xuv (in-place)
I0530 15:44:33.305292  6458 net.cpp:150] Setting up relu_xuv
I0530 15:44:33.305308  6458 net.cpp:157] Top shape: 100 98 (9800)
I0530 15:44:33.305320  6458 net.cpp:165] Memory required for data: 473567600
I0530 15:44:33.305330  6458 layer_factory.hpp:77] Creating layer drop_xuv
I0530 15:44:33.305344  6458 net.cpp:106] Creating Layer drop_xuv
I0530 15:44:33.305354  6458 net.cpp:454] drop_xuv <- dl_xuv
I0530 15:44:33.305367  6458 net.cpp:397] drop_xuv -> dl_xuv (in-place)
I0530 15:44:33.305413  6458 net.cpp:150] Setting up drop_xuv
I0530 15:44:33.305426  6458 net.cpp:157] Top shape: 100 98 (9800)
I0530 15:44:33.305436  6458 net.cpp:165] Memory required for data: 473606800
I0530 15:44:33.305446  6458 layer_factory.hpp:77] Creating layer output
I0530 15:44:33.305459  6458 net.cpp:106] Creating Layer output
I0530 15:44:33.305470  6458 net.cpp:454] output <- dl_xuv
I0530 15:44:33.305481  6458 net.cpp:411] output -> output
I0530 15:44:33.305711  6458 net.cpp:150] Setting up output
I0530 15:44:33.305726  6458 net.cpp:157] Top shape: 100 11 (1100)
I0530 15:44:33.305734  6458 net.cpp:165] Memory required for data: 473611200
I0530 15:44:33.305764  6458 layer_factory.hpp:77] Creating layer drop_output
I0530 15:44:33.305778  6458 net.cpp:106] Creating Layer drop_output
I0530 15:44:33.305788  6458 net.cpp:454] drop_output <- output
I0530 15:44:33.305799  6458 net.cpp:397] drop_output -> output (in-place)
I0530 15:44:33.305843  6458 net.cpp:150] Setting up drop_output
I0530 15:44:33.305856  6458 net.cpp:157] Top shape: 100 11 (1100)
I0530 15:44:33.305866  6458 net.cpp:165] Memory required for data: 473615600
I0530 15:44:33.305876  6458 layer_factory.hpp:77] Creating layer loss
I0530 15:44:33.305904  6458 net.cpp:106] Creating Layer loss
I0530 15:44:33.305915  6458 net.cpp:454] loss <- output
I0530 15:44:33.305927  6458 net.cpp:454] loss <- segments
I0530 15:44:33.305940  6458 net.cpp:411] loss -> loss
I0530 15:44:33.305958  6458 layer_factory.hpp:77] Creating layer loss
…
I0530 15:44:33.310166  6458 solver.cpp:181] Creating test net (#0) specified by net file: /lustre/atlas/proj-shared/hep105/caffe_titan/caffe_workflow/xuv/logs/epsilon_inv_2016-05-30T07.39.00.897234.prototxt
I0530 15:44:33.310298  6458 net.cpp:322] The NetState phase (1) differed from the phase (0) specified by a rule in layer data
I0530 15:44:33.311072  6458 net.cpp:49] Initializing net from parameters: 
name: "epsilon_127x50_xuv"
state {
  phase: TEST
}
layer {
  name: "data"
  type: "HDF5Data"
  top: "hits-x"
  top: "hits-u"
  top: "hits-v"
  top: "segments"
  include {
    phase: TEST
  }
  hdf5_data_param {
    source: "/lustre/atlas/proj-shared/hep105/caffe_titan/xuv/epsilon_127x50_xuv.testlist"
    batch_size: 100
  }
}
layer {
  name: "conv_x1"
  type: "Convolution"
  bottom: "hits-x"
  top: "conv_x1"
  convolution_param {
    num_output: 12
    pad: 0
    stride: 1
    weight_filler {
      type: "xavier"
    }
    bias_filler {
      type: "constant"
    }
    kernel_h: 8
    kernel_w: 3
  }
}
layer {
  name: "relu_x1"
  type: "ReLU"
  bottom: "conv_x1"
  top: "conv_x1"
}
layer {
  name: "pool_x1"
  type: "Pooling"
  bottom: "conv_x1"
  top: "pool_x1"
  pooling_param {
    pool: MAX
    kernel_h: 2
    kernel_w: 1
    stride_h: 2
    stride_w: 1
  }
}
layer {
  name: "conv_x2"
  type: "Convolution"
  bottom: "pool_x1"
  top: "conv_x2"
  convolution_param {
    num_output: 20
    pad: 0
    stride: 1
    weight_filler {
      type: "xavier"
    }
    bias_filler {
      type: "constant"
    }
    kernel_h: 7
    kernel_w: 3
  }
}
layer {
  name: "relu_x2"
  type: "ReLU"
  bottom: "conv_x2"
  top: "conv_x2"
}
layer {
  name: "pool_x2"
  type: "Pooling"
  bottom: "conv_x2"
  top: "pool_x2"
  pooling_param {
    pool: MAX
    kernel_h: 2
    kernel_w: 1
    stride_h: 2
    stride_w: 1
  }
}
layer {
  name: "conv_x3"
  type: "Convolution"
  bottom: "pool_x2"
  top: "conv_x3"
  convolution_param {
    num_output: 28
    pad: 0
    stride: 1
    weight_filler {
      type: "xavier"
    }
    bias_filler {
      type: "constant"
    }
    kernel_h: 6
    kernel_w: 3
  }
}
layer {
  name: "relu_x3"
  type: "ReLU"
  bottom: "conv_x3"
  top: "conv_x3"
}
layer {
  name: "pool_x3"
  type: "Pooling"
  bottom: "conv_x3"
  top: "pool_x3"
  pooling_param {
    pool: MAX
    kernel_h: 2
    kernel_w: 1
    stride_h: 2
    stride_w: 1
  }
}
layer {
  name: "conv_x4"
  type: "Convolution"
  bottom: "pool_x3"
  top: "conv_x4"
  convolution_param {
    num_output: 36
    pad: 0
    stride: 1
    weight_filler {
      type: "xavier"
    }
    bias_filler {
      type: "constant"
    }
    kernel_h: 6
    kernel_w: 3
  }
}
layer {
  name: "relu_x4"
  type: "ReLU"
  bottom: "conv_x4"
  top: "conv_x4"
}
layer {
  name: "pool_x4"
  type: "Pooling"
  bottom: "conv_x4"
  top: "pool_x4"
  pooling_param {
    pool: MAX
    kernel_h: 2
    kernel_w: 1
    stride_h: 2
    stride_w: 1
  }
}
layer {
  name: "dl_x1"
  type: "InnerProduct"
  bottom: "pool_x4"
  top: "dl_x1"
  inner_product_param {
    num_output: 196
    weight_filler {
      type: "xavier"
    }
    bias_filler {
      type: "constant"
    }
  }
}
layer {
  name: "relu_x5"
  type: "ReLU"
  bottom: "dl_x1"
  top: "dl_x1"
}
layer {
  name: "drop_x1"
  type: "Dropout"
  bottom: "dl_x1"
  top: "dl_x1"
  dropout_param {
    dropout_ratio: 0.5
  }
}
layer {
  name: "conv_u1"
  type: "Convolution"
  bottom: "hits-u"
  top: "conv_u1"
  convolution_param {
    num_output: 12
    pad: 0
    stride: 1
    weight_filler {
      type: "xavier"
    }
    bias_filler {
      type: "constant"
    }
    kernel_h: 8
    kernel_w: 3
  }
}
layer {
  name: "relu_u1"
  type: "ReLU"
  bottom: "conv_u1"
  top: "conv_u1"
}
layer {
  name: "pool_u1"
  type: "Pooling"
  bottom: "conv_u1"
  top: "pool_u1"
  pooling_param {
    pool: MAX
    kernel_h: 2
    kernel_w: 1
    stride_h: 2
    stride_w: 1
  }
}
layer {
  name: "conv_u2"
  type: "Convolution"
  bottom: "pool_u1"
  top: "conv_u2"
  convolution_param {
    num_output: 20
    pad: 0
    stride: 1
    weight_filler {
      type: "xavier"
    }
    bias_filler {
      type: "constant"
    }
    kernel_h: 7
    kernel_w: 3
  }
}
layer {
  name: "relu_u2"
  type: "ReLU"
  bottom: "conv_u2"
  top: "conv_u2"
}
layer {
  name: "pool_u2"
  type: "Pooling"
  bottom: "conv_u2"
  top: "pool_u2"
  pooling_param {
    pool: MAX
    kernel_h: 2
    kernel_w: 1
    stride_h: 2
    stride_w: 1
  }
}
layer {
  name: "conv_u3"
  type: "Convolution"
  bottom: "pool_u2"
  top: "conv_u3"
  convolution_param {
    num_output: 28
    pad: 0
    stride: 1
    weight_filler {
      type: "xavier"
    }
    bias_filler {
      type: "constant"
    }
    kernel_h: 6
    kernel_w: 3
  }
}
layer {
  name: "relu_u3"
  type: "ReLU"
  bottom: "conv_u3"
  top: "conv_u3"
}
layer {
  name: "pool_u3"
  type: "Pooling"
  bottom: "conv_u3"
  top: "pool_u3"
  pooling_param {
    pool: MAX
    kernel_h: 2
    kernel_w: 1
    stride_h: 2
    stride_w: 1
  }
}
layer {
  name: "conv_u4"
  type: "Convolution"
  bottom: "pool_u3"
  top: "conv_u4"
  convolution_param {
    num_output: 36
    pad: 0
    stride: 1
    weight_filler {
      type: "xavier"
    }
    bias_filler {
      type: "constant"
    }
    kernel_h: 6
    kernel_w: 3
  }
}
layer {
  name: "relu_u4"
  type: "ReLU"
  bottom: "conv_u4"
  top: "conv_u4"
}
layer {
  name: "pool_u4"
  type: "Pooling"
  bottom: "conv_u4"
  top: "pool_u4"
  pooling_param {
    pool: MAX
    kernel_h: 2
    kernel_w: 1
    stride_h: 2
    stride_w: 1
  }
}
layer {
  name: "dl_u1"
  type: "InnerProduct"
  bottom: "pool_u4"
  top: "dl_u1"
  inner_product_param {
    num_output: 196
    weight_filler {
      type: "xavier"
    }
    bias_filler {
      type: "constant"
    }
  }
}
layer {
  name: "relu_u5"
  type: "ReLU"
  bottom: "dl_u1"
  top: "dl_u1"
}
layer {
  name: "drop_u1"
  type: "Dropout"
  bottom: "dl_u1"
  top: "dl_u1"
  dropout_param {
    dropout_ratio: 0.5
  }
}
layer {
  name: "conv_v1"
  type: "Convolution"
  bottom: "hits-v"
  top: "conv_v1"
  convolution_param {
    num_output: 12
    pad: 0
    stride: 1
    weight_filler {
      type: "xavier"
    }
    bias_filler {
      type: "constant"
    }
    kernel_h: 8
    kernel_w: 3
  }
}
layer {
  name: "relu_v1"
  type: "ReLU"
  bottom: "conv_v1"
  top: "conv_v1"
}
layer {
  name: "pool_v1"
  type: "Pooling"
  bottom: "conv_v1"
  top: "pool_v1"
  pooling_param {
    pool: MAX
    kernel_h: 2
    kernel_w: 1
    stride_h: 2
    stride_w: 1
  }
}
layer {
  name: "conv_v2"
  type: "Convolution"
  bottom: "pool_v1"
  top: "conv_v2"
  convolution_param {
    num_output: 20
    pad: 0
    stride: 1
    weight_filler {
      type: "xavier"
    }
    bias_filler {
      type: "constant"
    }
    kernel_h: 7
    kernel_w: 3
  }
}
layer {
  name: "relu_v2"
  type: "ReLU"
  bottom: "conv_v2"
  top: "conv_v2"
}
layer {
  name: "pool_v2"
  type: "Pooling"
  bottom: "conv_v2"
  top: "pool_v2"
  pooling_param {
    pool: MAX
    kernel_h: 2
    kernel_w: 1
    stride_h: 2
    stride_w: 1
  }
}
layer {
  name: "conv_v3"
  type: "Convolution"
  bottom: "pool_v2"
  top: "conv_v3"
  convolution_param {
    num_output: 28
    pad: 0
    stride: 1
    weight_filler {
      type: "xavier"
    }
    bias_filler {
      type: "constant"
    }
    kernel_h: 6
    kernel_w: 3
  }
}
layer {
  name: "relu_v3"
  type: "ReLU"
  bottom: "conv_v3"
  top: "conv_v3"
}
layer {
  name: "pool_v3"
  type: "Pooling"
  bottom: "conv_v3"
  top: "pool_v3"
  pooling_param {
    pool: MAX
    kernel_h: 2
    kernel_w: 1
    stride_h: 2
    stride_w: 1
  }
}
layer {
  name: "conv_v4"
  type: "Convolution"
  bottom: "pool_v3"
  top: "conv_v4"
  convolution_param {
    num_output: 36
    pad: 0
    stride: 1
    weight_filler {
      type: "xavier"
    }
    bias_filler {
      type: "constant"
    }
    kernel_h: 6
    kernel_w: 3
  }
}
layer {
  name: "relu_v4"
  type: "ReLU"
  bottom: "conv_v4"
  top: "conv_v4"
}
layer {
  name: "pool_v4"
  type: "Pooling"
  bottom: "conv_v4"
  top: "pool_v4"
  pooling_param {
    pool: MAX
    kernel_h: 2
    kernel_w: 1
    stride_h: 2
    stride_w: 1
  }
}
layer {
  name: "dl_v1"
  type: "InnerProduct"
  bottom: "pool_v4"
  top: "dl_v1"
  inner_product_param {
    num_output: 196
    weight_filler {
      type: "xavier"
    }
    bias_filler {
      type: "constant"
    }
  }
}
layer {
  name: "relu_v5"
  type: "ReLU"
  bottom: "dl_v1"
  top: "dl_v1"
}
layer {
  name: "drop_v1"
  type: "Dropout"
  bottom: "dl_v1"
  top: "dl_v1"
  dropout_param {
    dropout_ratio: 0.5
  }
}
layer {
  name: "concat_xuv"
  type: "Concat"
  bottom: "dl_x1"
  bottom: "dl_u1"
  bottom: "dl_v1"
  top: "concat_xuv"
  concat_param {
    axis: 1
  }
}
layer {
  name: "dl_xuv"
  type: "InnerProduct"
  bottom: "concat_xuv"
  top: "dl_xuv"
  inner_product_param {
    num_output: 98
    weight_filler {
      type: "xavier"
    }
    bias_filler {
      type: "constant"
    }
  }
}
layer {
  name: "relu_xuv"
  type: "ReLU"
  bottom: "dl_xuv"
  top: "dl_xuv"
}
layer {
  name: "drop_xuv"
  type: "Dropout"
  bottom: "dl_xuv"
  top: "dl_xuv"
  dropout_param {
    dropout_ratio: 0.5
  }
}
layer {
  name: "output"
  type: "InnerProduct"
  bottom: "dl_xuv"
  top: "output"
  inner_product_param {
    num_output: 11
    weight_filler {
      type: "xavier"
    }
    bias_filler {
      type: "constant"
    }
  }
}
layer {
  name: "drop_output"
  type: "Dropout"
  bottom: "output"
  top: "output"
  dropout_param {
    dropout_ratio: 0.5
  }
}
layer {
  name: "accuracy"
  type: "Accuracy"
  bottom: "output"
  bottom: "segments"
  top: "accuracy"
  include {
    phase: TEST
  }
}
layer {
  name: "loss"
  type: "SoftmaxWithLoss"
  bottom: "output"
  bottom: "segments"
  top: "loss"
}
I0530 15:44:33.311511  6458 layer_factory.hpp:77] Creating layer data
I0530 15:44:33.311527  6458 net.cpp:106] Creating Layer data
I0530 15:44:33.311540  6458 net.cpp:411] data -> hits-x
I0530 15:44:33.311558  6458 net.cpp:411] data -> hits-u
I0530 15:44:33.311574  6458 net.cpp:411] data -> hits-v
I0530 15:44:33.311590  6458 net.cpp:411] data -> segments
I0530 15:44:33.311604  6458 hdf5_data_layer.cpp:79] Loading list of HDF5 filenames from: /lustre/atlas/proj-shared/hep105/caffe_titan/xuv/epsilon_127x50_xuv.testlist
I0530 15:44:33.313150  6458 hdf5_data_layer.cpp:93] Number of HDF5 files: 3
I0530 15:45:37.755146  6458 net.cpp:150] Setting up data
I0530 15:45:37.755311  6458 net.cpp:157] Top shape: 100 1 127 50 (635000)
I0530 15:45:37.755326  6458 net.cpp:157] Top shape: 100 1 127 50 (635000)
I0530 15:45:37.755342  6458 net.cpp:157] Top shape: 100 1 127 50 (635000)
I0530 15:45:37.755354  6458 net.cpp:157] Top shape: 100 (100)
I0530 15:45:37.755364  6458 net.cpp:165] Memory required for data: 7620400
I0530 15:45:37.755378  6458 layer_factory.hpp:77] Creating layer segments_data_3_split
I0530 15:45:37.755414  6458 net.cpp:106] Creating Layer segments_data_3_split
I0530 15:45:37.755426  6458 net.cpp:454] segments_data_3_split <- segments
I0530 15:45:37.755441  6458 net.cpp:411] segments_data_3_split -> segments_data_3_split_0
I0530 15:45:37.755463  6458 net.cpp:411] segments_data_3_split -> segments_data_3_split_1
I0530 15:45:37.755539  6458 net.cpp:150] Setting up segments_data_3_split
I0530 15:45:37.755553  6458 net.cpp:157] Top shape: 100 (100)
I0530 15:45:37.755565  6458 net.cpp:157] Top shape: 100 (100)
I0530 15:45:37.755573  6458 net.cpp:165] Memory required for data: 7621200
I0530 15:45:37.755584  6458 layer_factory.hpp:77] Creating layer conv_x1
I0530 15:45:37.755607  6458 net.cpp:106] Creating Layer conv_x1
I0530 15:45:37.755617  6458 net.cpp:454] conv_x1 <- hits-x
I0530 15:45:37.755632  6458 net.cpp:411] conv_x1 -> conv_x1
I0530 15:45:37.757797  6458 net.cpp:150] Setting up conv_x1
I0530 15:45:37.757820  6458 net.cpp:157] Top shape: 100 12 120 48 (6912000)
I0530 15:45:37.757833  6458 net.cpp:165] Memory required for data: 35269200
I0530 15:45:37.757853  6458 layer_factory.hpp:77] Creating layer relu_x1
I0530 15:45:37.757869  6458 net.cpp:106] Creating Layer relu_x1
I0530 15:45:37.757879  6458 net.cpp:454] relu_x1 <- conv_x1
I0530 15:45:37.757891  6458 net.cpp:397] relu_x1 -> conv_x1 (in-place)
I0530 15:45:37.758399  6458 net.cpp:150] Setting up relu_x1
I0530 15:45:37.758416  6458 net.cpp:157] Top shape: 100 12 120 48 (6912000)
I0530 15:45:37.758427  6458 net.cpp:165] Memory required for data: 62917200
I0530 15:45:37.758437  6458 layer_factory.hpp:77] Creating layer pool_x1
I0530 15:45:37.758455  6458 net.cpp:106] Creating Layer pool_x1
I0530 15:45:37.758465  6458 net.cpp:454] pool_x1 <- conv_x1
I0530 15:45:37.758477  6458 net.cpp:411] pool_x1 -> pool_x1
I0530 15:45:37.758558  6458 net.cpp:150] Setting up pool_x1
I0530 15:45:37.758572  6458 net.cpp:157] Top shape: 100 12 60 48 (3456000)
I0530 15:45:37.758581  6458 net.cpp:165] Memory required for data: 76741200
I0530 15:45:37.758589  6458 layer_factory.hpp:77] Creating layer conv_x2
I0530 15:45:37.758608  6458 net.cpp:106] Creating Layer conv_x2
I0530 15:45:37.758618  6458 net.cpp:454] conv_x2 <- pool_x1
I0530 15:45:37.758633  6458 net.cpp:411] conv_x2 -> conv_x2
I0530 15:45:37.760522  6458 net.cpp:150] Setting up conv_x2
I0530 15:45:37.760546  6458 net.cpp:157] Top shape: 100 20 54 46 (4968000)
I0530 15:45:37.760558  6458 net.cpp:165] Memory required for data: 96613200
I0530 15:45:37.760576  6458 layer_factory.hpp:77] Creating layer relu_x2
I0530 15:45:37.760591  6458 net.cpp:106] Creating Layer relu_x2
I0530 15:45:37.760601  6458 net.cpp:454] relu_x2 <- conv_x2
I0530 15:45:37.760614  6458 net.cpp:397] relu_x2 -> conv_x2 (in-place)
I0530 15:45:37.761121  6458 net.cpp:150] Setting up relu_x2
I0530 15:45:37.761137  6458 net.cpp:157] Top shape: 100 20 54 46 (4968000)
I0530 15:45:37.761147  6458 net.cpp:165] Memory required for data: 116485200
I0530 15:45:37.761157  6458 layer_factory.hpp:77] Creating layer pool_x2
I0530 15:45:37.761170  6458 net.cpp:106] Creating Layer pool_x2
I0530 15:45:37.761180  6458 net.cpp:454] pool_x2 <- conv_x2
I0530 15:45:37.761194  6458 net.cpp:411] pool_x2 -> pool_x2
I0530 15:45:37.761273  6458 net.cpp:150] Setting up pool_x2
I0530 15:45:37.761286  6458 net.cpp:157] Top shape: 100 20 27 46 (2484000)
I0530 15:45:37.761296  6458 net.cpp:165] Memory required for data: 126421200
I0530 15:45:37.761307  6458 layer_factory.hpp:77] Creating layer conv_x3
I0530 15:45:37.761327  6458 net.cpp:106] Creating Layer conv_x3
I0530 15:45:37.761337  6458 net.cpp:454] conv_x3 <- pool_x2
I0530 15:45:37.761351  6458 net.cpp:411] conv_x3 -> conv_x3
I0530 15:45:37.763599  6458 net.cpp:150] Setting up conv_x3
I0530 15:45:37.763622  6458 net.cpp:157] Top shape: 100 28 22 44 (2710400)
I0530 15:45:37.763634  6458 net.cpp:165] Memory required for data: 137262800
I0530 15:45:37.763653  6458 layer_factory.hpp:77] Creating layer relu_x3
I0530 15:45:37.763669  6458 net.cpp:106] Creating Layer relu_x3
I0530 15:45:37.763679  6458 net.cpp:454] relu_x3 <- conv_x3
I0530 15:45:37.763691  6458 net.cpp:397] relu_x3 -> conv_x3 (in-place)
I0530 15:45:37.764034  6458 net.cpp:150] Setting up relu_x3
I0530 15:45:37.764048  6458 net.cpp:157] Top shape: 100 28 22 44 (2710400)
I0530 15:45:37.764058  6458 net.cpp:165] Memory required for data: 148104400
I0530 15:45:37.764067  6458 layer_factory.hpp:77] Creating layer pool_x3
I0530 15:45:37.764081  6458 net.cpp:106] Creating Layer pool_x3
I0530 15:45:37.764091  6458 net.cpp:454] pool_x3 <- conv_x3
I0530 15:45:37.764104  6458 net.cpp:411] pool_x3 -> pool_x3
I0530 15:45:37.764181  6458 net.cpp:150] Setting up pool_x3
I0530 15:45:37.764194  6458 net.cpp:157] Top shape: 100 28 11 44 (1355200)
I0530 15:45:37.764204  6458 net.cpp:165] Memory required for data: 153525200
I0530 15:45:37.764214  6458 layer_factory.hpp:77] Creating layer conv_x4
I0530 15:45:37.764232  6458 net.cpp:106] Creating Layer conv_x4
I0530 15:45:37.764243  6458 net.cpp:454] conv_x4 <- pool_x3
I0530 15:45:37.764257  6458 net.cpp:411] conv_x4 -> conv_x4
I0530 15:45:37.766430  6458 net.cpp:150] Setting up conv_x4
I0530 15:45:37.766453  6458 net.cpp:157] Top shape: 100 36 6 42 (907200)
I0530 15:45:37.766465  6458 net.cpp:165] Memory required for data: 157154000
I0530 15:45:37.766481  6458 layer_factory.hpp:77] Creating layer relu_x4
I0530 15:45:37.766495  6458 net.cpp:106] Creating Layer relu_x4
I0530 15:45:37.766505  6458 net.cpp:454] relu_x4 <- conv_x4
I0530 15:45:37.766518  6458 net.cpp:397] relu_x4 -> conv_x4 (in-place)
I0530 15:45:37.767007  6458 net.cpp:150] Setting up relu_x4
I0530 15:45:37.767024  6458 net.cpp:157] Top shape: 100 36 6 42 (907200)
I0530 15:45:37.767035  6458 net.cpp:165] Memory required for data: 160782800
I0530 15:45:37.767045  6458 layer_factory.hpp:77] Creating layer pool_x4
I0530 15:45:37.767058  6458 net.cpp:106] Creating Layer pool_x4
I0530 15:45:37.767067  6458 net.cpp:454] pool_x4 <- conv_x4
I0530 15:45:37.767081  6458 net.cpp:411] pool_x4 -> pool_x4
I0530 15:45:37.767159  6458 net.cpp:150] Setting up pool_x4
I0530 15:45:37.767174  6458 net.cpp:157] Top shape: 100 36 3 42 (453600)
I0530 15:45:37.767182  6458 net.cpp:165] Memory required for data: 162597200
I0530 15:45:37.767191  6458 layer_factory.hpp:77] Creating layer dl_x1
I0530 15:45:37.767207  6458 net.cpp:106] Creating Layer dl_x1
I0530 15:45:37.767217  6458 net.cpp:454] dl_x1 <- pool_x4
I0530 15:45:37.767231  6458 net.cpp:411] dl_x1 -> dl_x1
I0530 15:45:37.783644  6458 net.cpp:150] Setting up dl_x1
I0530 15:45:37.783668  6458 net.cpp:157] Top shape: 100 196 (19600)
I0530 15:45:37.783689  6458 net.cpp:165] Memory required for data: 162675600
I0530 15:45:37.783717  6458 layer_factory.hpp:77] Creating layer relu_x5
I0530 15:45:37.783732  6458 net.cpp:106] Creating Layer relu_x5
I0530 15:45:37.783742  6458 net.cpp:454] relu_x5 <- dl_x1
I0530 15:45:37.783756  6458 net.cpp:397] relu_x5 -> dl_x1 (in-place)
I0530 15:45:37.784117  6458 net.cpp:150] Setting up relu_x5
I0530 15:45:37.784132  6458 net.cpp:157] Top shape: 100 196 (19600)
I0530 15:45:37.784142  6458 net.cpp:165] Memory required for data: 162754000
I0530 15:45:37.784152  6458 layer_factory.hpp:77] Creating layer drop_x1
I0530 15:45:37.784173  6458 net.cpp:106] Creating Layer drop_x1
I0530 15:45:37.784183  6458 net.cpp:454] drop_x1 <- dl_x1
I0530 15:45:37.784195  6458 net.cpp:397] drop_x1 -> dl_x1 (in-place)
I0530 15:45:37.784243  6458 net.cpp:150] Setting up drop_x1
I0530 15:45:37.784257  6458 net.cpp:157] Top shape: 100 196 (19600)
I0530 15:45:37.784267  6458 net.cpp:165] Memory required for data: 162832400
I0530 15:45:37.784277  6458 layer_factory.hpp:77] Creating layer conv_u1
I0530 15:45:37.784296  6458 net.cpp:106] Creating Layer conv_u1
I0530 15:45:37.784320  6458 net.cpp:454] conv_u1 <- hits-u
I0530 15:45:37.784335  6458 net.cpp:411] conv_u1 -> conv_u1
I0530 15:45:37.786301  6458 net.cpp:150] Setting up conv_u1
I0530 15:45:37.786324  6458 net.cpp:157] Top shape: 100 12 120 48 (6912000)
I0530 15:45:37.786335  6458 net.cpp:165] Memory required for data: 190480400
I0530 15:45:37.786351  6458 layer_factory.hpp:77] Creating layer relu_u1
I0530 15:45:37.786365  6458 net.cpp:106] Creating Layer relu_u1
I0530 15:45:37.786375  6458 net.cpp:454] relu_u1 <- conv_u1
I0530 15:45:37.786389  6458 net.cpp:397] relu_u1 -> conv_u1 (in-place)
I0530 15:45:37.786720  6458 net.cpp:150] Setting up relu_u1
I0530 15:45:37.786733  6458 net.cpp:157] Top shape: 100 12 120 48 (6912000)
I0530 15:45:37.786743  6458 net.cpp:165] Memory required for data: 218128400
I0530 15:45:37.786752  6458 layer_factory.hpp:77] Creating layer pool_u1
I0530 15:45:37.786767  6458 net.cpp:106] Creating Layer pool_u1
I0530 15:45:37.786777  6458 net.cpp:454] pool_u1 <- conv_u1
I0530 15:45:37.786790  6458 net.cpp:411] pool_u1 -> pool_u1
I0530 15:45:37.786875  6458 net.cpp:150] Setting up pool_u1
I0530 15:45:37.786888  6458 net.cpp:157] Top shape: 100 12 60 48 (3456000)
I0530 15:45:37.786897  6458 net.cpp:165] Memory required for data: 231952400
I0530 15:45:37.786906  6458 layer_factory.hpp:77] Creating layer conv_u2
I0530 15:45:37.786923  6458 net.cpp:106] Creating Layer conv_u2
I0530 15:45:37.786934  6458 net.cpp:454] conv_u2 <- pool_u1
I0530 15:45:37.786949  6458 net.cpp:411] conv_u2 -> conv_u2
I0530 15:45:37.788908  6458 net.cpp:150] Setting up conv_u2
I0530 15:45:37.788931  6458 net.cpp:157] Top shape: 100 20 54 46 (4968000)
I0530 15:45:37.788941  6458 net.cpp:165] Memory required for data: 251824400
I0530 15:45:37.788959  6458 layer_factory.hpp:77] Creating layer relu_u2
I0530 15:45:37.788974  6458 net.cpp:106] Creating Layer relu_u2
I0530 15:45:37.788983  6458 net.cpp:454] relu_u2 <- conv_u2
I0530 15:45:37.788996  6458 net.cpp:397] relu_u2 -> conv_u2 (in-place)
I0530 15:45:37.789487  6458 net.cpp:150] Setting up relu_u2
I0530 15:45:37.789504  6458 net.cpp:157] Top shape: 100 20 54 46 (4968000)
I0530 15:45:37.789513  6458 net.cpp:165] Memory required for data: 271696400
I0530 15:45:37.789523  6458 layer_factory.hpp:77] Creating layer pool_u2
I0530 15:45:37.789537  6458 net.cpp:106] Creating Layer pool_u2
I0530 15:45:37.789547  6458 net.cpp:454] pool_u2 <- conv_u2
I0530 15:45:37.789561  6458 net.cpp:411] pool_u2 -> pool_u2
I0530 15:45:37.789639  6458 net.cpp:150] Setting up pool_u2
I0530 15:45:37.789652  6458 net.cpp:157] Top shape: 100 20 27 46 (2484000)
I0530 15:45:37.789662  6458 net.cpp:165] Memory required for data: 281632400
I0530 15:45:37.789670  6458 layer_factory.hpp:77] Creating layer conv_u3
I0530 15:45:37.789688  6458 net.cpp:106] Creating Layer conv_u3
I0530 15:45:37.789698  6458 net.cpp:454] conv_u3 <- pool_u2
I0530 15:45:37.789712  6458 net.cpp:411] conv_u3 -> conv_u3
I0530 15:45:37.791746  6458 net.cpp:150] Setting up conv_u3
I0530 15:45:37.791769  6458 net.cpp:157] Top shape: 100 28 22 44 (2710400)
I0530 15:45:37.791782  6458 net.cpp:165] Memory required for data: 292474000
I0530 15:45:37.791798  6458 layer_factory.hpp:77] Creating layer relu_u3
I0530 15:45:37.791812  6458 net.cpp:106] Creating Layer relu_u3
I0530 15:45:37.791822  6458 net.cpp:454] relu_u3 <- conv_u3
I0530 15:45:37.791836  6458 net.cpp:397] relu_u3 -> conv_u3 (in-place)
I0530 15:45:37.792162  6458 net.cpp:150] Setting up relu_u3
I0530 15:45:37.792176  6458 net.cpp:157] Top shape: 100 28 22 44 (2710400)
I0530 15:45:37.792187  6458 net.cpp:165] Memory required for data: 303315600
I0530 15:45:37.792197  6458 layer_factory.hpp:77] Creating layer pool_u3
I0530 15:45:37.792210  6458 net.cpp:106] Creating Layer pool_u3
I0530 15:45:37.792220  6458 net.cpp:454] pool_u3 <- conv_u3
I0530 15:45:37.792233  6458 net.cpp:411] pool_u3 -> pool_u3
I0530 15:45:37.792311  6458 net.cpp:150] Setting up pool_u3
I0530 15:45:37.792325  6458 net.cpp:157] Top shape: 100 28 11 44 (1355200)
I0530 15:45:37.792335  6458 net.cpp:165] Memory required for data: 308736400
I0530 15:45:37.792356  6458 layer_factory.hpp:77] Creating layer conv_u4
I0530 15:45:37.792374  6458 net.cpp:106] Creating Layer conv_u4
I0530 15:45:37.792385  6458 net.cpp:454] conv_u4 <- pool_u3
I0530 15:45:37.792400  6458 net.cpp:411] conv_u4 -> conv_u4
I0530 15:45:37.794580  6458 net.cpp:150] Setting up conv_u4
I0530 15:45:37.794603  6458 net.cpp:157] Top shape: 100 36 6 42 (907200)
I0530 15:45:37.794615  6458 net.cpp:165] Memory required for data: 312365200
I0530 15:45:37.794639  6458 layer_factory.hpp:77] Creating layer relu_u4
I0530 15:45:37.794653  6458 net.cpp:106] Creating Layer relu_u4
I0530 15:45:37.794663  6458 net.cpp:454] relu_u4 <- conv_u4
I0530 15:45:37.794677  6458 net.cpp:397] relu_u4 -> conv_u4 (in-place)
I0530 15:45:37.795007  6458 net.cpp:150] Setting up relu_u4
I0530 15:45:37.795022  6458 net.cpp:157] Top shape: 100 36 6 42 (907200)
I0530 15:45:37.795032  6458 net.cpp:165] Memory required for data: 315994000
I0530 15:45:37.795042  6458 layer_factory.hpp:77] Creating layer pool_u4
I0530 15:45:37.795055  6458 net.cpp:106] Creating Layer pool_u4
I0530 15:45:37.795064  6458 net.cpp:454] pool_u4 <- conv_u4
I0530 15:45:37.795078  6458 net.cpp:411] pool_u4 -> pool_u4
I0530 15:45:37.795156  6458 net.cpp:150] Setting up pool_u4
I0530 15:45:37.795169  6458 net.cpp:157] Top shape: 100 36 3 42 (453600)
I0530 15:45:37.795179  6458 net.cpp:165] Memory required for data: 317808400
I0530 15:45:37.795191  6458 layer_factory.hpp:77] Creating layer dl_u1
I0530 15:45:37.795203  6458 net.cpp:106] Creating Layer dl_u1
I0530 15:45:37.795214  6458 net.cpp:454] dl_u1 <- pool_u4
I0530 15:45:37.795228  6458 net.cpp:411] dl_u1 -> dl_u1
I0530 15:45:37.811700  6458 net.cpp:150] Setting up dl_u1
I0530 15:45:37.811728  6458 net.cpp:157] Top shape: 100 196 (19600)
I0530 15:45:37.811739  6458 net.cpp:165] Memory required for data: 317886800
I0530 15:45:37.811756  6458 layer_factory.hpp:77] Creating layer relu_u5
I0530 15:45:37.811772  6458 net.cpp:106] Creating Layer relu_u5
I0530 15:45:37.811782  6458 net.cpp:454] relu_u5 <- dl_u1
I0530 15:45:37.811797  6458 net.cpp:397] relu_u5 -> dl_u1 (in-place)
I0530 15:45:37.812374  6458 net.cpp:150] Setting up relu_u5
I0530 15:45:37.812397  6458 net.cpp:157] Top shape: 100 196 (19600)
I0530 15:45:37.812408  6458 net.cpp:165] Memory required for data: 317965200
I0530 15:45:37.812418  6458 layer_factory.hpp:77] Creating layer drop_u1
I0530 15:45:37.812433  6458 net.cpp:106] Creating Layer drop_u1
I0530 15:45:37.812443  6458 net.cpp:454] drop_u1 <- dl_u1
I0530 15:45:37.812455  6458 net.cpp:397] drop_u1 -> dl_u1 (in-place)
I0530 15:45:37.812505  6458 net.cpp:150] Setting up drop_u1
I0530 15:45:37.812517  6458 net.cpp:157] Top shape: 100 196 (19600)
I0530 15:45:37.812527  6458 net.cpp:165] Memory required for data: 318043600
I0530 15:45:37.812537  6458 layer_factory.hpp:77] Creating layer conv_v1
I0530 15:45:37.812566  6458 net.cpp:106] Creating Layer conv_v1
I0530 15:45:37.812575  6458 net.cpp:454] conv_v1 <- hits-v
I0530 15:45:37.812588  6458 net.cpp:411] conv_v1 -> conv_v1
I0530 15:45:37.814522  6458 net.cpp:150] Setting up conv_v1
I0530 15:45:37.814544  6458 net.cpp:157] Top shape: 100 12 120 48 (6912000)
I0530 15:45:37.814556  6458 net.cpp:165] Memory required for data: 345691600
I0530 15:45:37.814571  6458 layer_factory.hpp:77] Creating layer relu_v1
I0530 15:45:37.814585  6458 net.cpp:106] Creating Layer relu_v1
I0530 15:45:37.814595  6458 net.cpp:454] relu_v1 <- conv_v1
I0530 15:45:37.814610  6458 net.cpp:397] relu_v1 -> conv_v1 (in-place)
I0530 15:45:37.814942  6458 net.cpp:150] Setting up relu_v1
I0530 15:45:37.814956  6458 net.cpp:157] Top shape: 100 12 120 48 (6912000)
I0530 15:45:37.814966  6458 net.cpp:165] Memory required for data: 373339600
I0530 15:45:37.814976  6458 layer_factory.hpp:77] Creating layer pool_v1
I0530 15:45:37.814990  6458 net.cpp:106] Creating Layer pool_v1
I0530 15:45:37.814999  6458 net.cpp:454] pool_v1 <- conv_v1
I0530 15:45:37.815013  6458 net.cpp:411] pool_v1 -> pool_v1
I0530 15:45:37.815093  6458 net.cpp:150] Setting up pool_v1
I0530 15:45:37.815120  6458 net.cpp:157] Top shape: 100 12 60 48 (3456000)
I0530 15:45:37.815130  6458 net.cpp:165] Memory required for data: 387163600
I0530 15:45:37.815138  6458 layer_factory.hpp:77] Creating layer conv_v2
I0530 15:45:37.815156  6458 net.cpp:106] Creating Layer conv_v2
I0530 15:45:37.815170  6458 net.cpp:454] conv_v2 <- pool_v1
I0530 15:45:37.815183  6458 net.cpp:411] conv_v2 -> conv_v2
I0530 15:45:37.817204  6458 net.cpp:150] Setting up conv_v2
I0530 15:45:37.817227  6458 net.cpp:157] Top shape: 100 20 54 46 (4968000)
I0530 15:45:37.817237  6458 net.cpp:165] Memory required for data: 407035600
I0530 15:45:37.817253  6458 layer_factory.hpp:77] Creating layer relu_v2
I0530 15:45:37.817267  6458 net.cpp:106] Creating Layer relu_v2
I0530 15:45:37.817277  6458 net.cpp:454] relu_v2 <- conv_v2
I0530 15:45:37.817291  6458 net.cpp:397] relu_v2 -> conv_v2 (in-place)
I0530 15:45:37.817781  6458 net.cpp:150] Setting up relu_v2
I0530 15:45:37.817797  6458 net.cpp:157] Top shape: 100 20 54 46 (4968000)
I0530 15:45:37.817807  6458 net.cpp:165] Memory required for data: 426907600
I0530 15:45:37.817817  6458 layer_factory.hpp:77] Creating layer pool_v2
I0530 15:45:37.817831  6458 net.cpp:106] Creating Layer pool_v2
I0530 15:45:37.817842  6458 net.cpp:454] pool_v2 <- conv_v2
I0530 15:45:37.817855  6458 net.cpp:411] pool_v2 -> pool_v2
I0530 15:45:37.817935  6458 net.cpp:150] Setting up pool_v2
I0530 15:45:37.817948  6458 net.cpp:157] Top shape: 100 20 27 46 (2484000)
I0530 15:45:37.817960  6458 net.cpp:165] Memory required for data: 436843600
I0530 15:45:37.817970  6458 layer_factory.hpp:77] Creating layer conv_v3
I0530 15:45:37.817989  6458 net.cpp:106] Creating Layer conv_v3
I0530 15:45:37.817999  6458 net.cpp:454] conv_v3 <- pool_v2
I0530 15:45:37.818013  6458 net.cpp:411] conv_v3 -> conv_v3
I0530 15:45:37.820091  6458 net.cpp:150] Setting up conv_v3
I0530 15:45:37.820113  6458 net.cpp:157] Top shape: 100 28 22 44 (2710400)
I0530 15:45:37.820125  6458 net.cpp:165] Memory required for data: 447685200
I0530 15:45:37.820140  6458 layer_factory.hpp:77] Creating layer relu_v3
I0530 15:45:37.820154  6458 net.cpp:106] Creating Layer relu_v3
I0530 15:45:37.820164  6458 net.cpp:454] relu_v3 <- conv_v3
I0530 15:45:37.820178  6458 net.cpp:397] relu_v3 -> conv_v3 (in-place)
I0530 15:45:37.820672  6458 net.cpp:150] Setting up relu_v3
I0530 15:45:37.820688  6458 net.cpp:157] Top shape: 100 28 22 44 (2710400)
I0530 15:45:37.820698  6458 net.cpp:165] Memory required for data: 458526800
I0530 15:45:37.820708  6458 layer_factory.hpp:77] Creating layer pool_v3
I0530 15:45:37.820721  6458 net.cpp:106] Creating Layer pool_v3
I0530 15:45:37.820731  6458 net.cpp:454] pool_v3 <- conv_v3
I0530 15:45:37.820745  6458 net.cpp:411] pool_v3 -> pool_v3
I0530 15:45:37.820825  6458 net.cpp:150] Setting up pool_v3
I0530 15:45:37.820838  6458 net.cpp:157] Top shape: 100 28 11 44 (1355200)
I0530 15:45:37.820848  6458 net.cpp:165] Memory required for data: 463947600
I0530 15:45:37.820858  6458 layer_factory.hpp:77] Creating layer conv_v4
I0530 15:45:37.820876  6458 net.cpp:106] Creating Layer conv_v4
I0530 15:45:37.820888  6458 net.cpp:454] conv_v4 <- pool_v3
I0530 15:45:37.820901  6458 net.cpp:411] conv_v4 -> conv_v4
I0530 15:45:37.823078  6458 net.cpp:150] Setting up conv_v4
I0530 15:45:37.823101  6458 net.cpp:157] Top shape: 100 36 6 42 (907200)
I0530 15:45:37.823113  6458 net.cpp:165] Memory required for data: 467576400
I0530 15:45:37.823128  6458 layer_factory.hpp:77] Creating layer relu_v4
I0530 15:45:37.823142  6458 net.cpp:106] Creating Layer relu_v4
I0530 15:45:37.823151  6458 net.cpp:454] relu_v4 <- conv_v4
I0530 15:45:37.823164  6458 net.cpp:397] relu_v4 -> conv_v4 (in-place)
I0530 15:45:37.823503  6458 net.cpp:150] Setting up relu_v4
I0530 15:45:37.823518  6458 net.cpp:157] Top shape: 100 36 6 42 (907200)
I0530 15:45:37.823528  6458 net.cpp:165] Memory required for data: 471205200
I0530 15:45:37.823537  6458 layer_factory.hpp:77] Creating layer pool_v4
I0530 15:45:37.823550  6458 net.cpp:106] Creating Layer pool_v4
I0530 15:45:37.823571  6458 net.cpp:454] pool_v4 <- conv_v4
I0530 15:45:37.823585  6458 net.cpp:411] pool_v4 -> pool_v4
I0530 15:45:37.823664  6458 net.cpp:150] Setting up pool_v4
I0530 15:45:37.823678  6458 net.cpp:157] Top shape: 100 36 3 42 (453600)
I0530 15:45:37.823688  6458 net.cpp:165] Memory required for data: 473019600
I0530 15:45:37.823698  6458 layer_factory.hpp:77] Creating layer dl_v1
I0530 15:45:37.823714  6458 net.cpp:106] Creating Layer dl_v1
I0530 15:45:37.823724  6458 net.cpp:454] dl_v1 <- pool_v4
I0530 15:45:37.823739  6458 net.cpp:411] dl_v1 -> dl_v1
I0530 15:45:37.840150  6458 net.cpp:150] Setting up dl_v1
I0530 15:45:37.840178  6458 net.cpp:157] Top shape: 100 196 (19600)
I0530 15:45:37.840189  6458 net.cpp:165] Memory required for data: 473098000
I0530 15:45:37.840204  6458 layer_factory.hpp:77] Creating layer relu_v5
I0530 15:45:37.840219  6458 net.cpp:106] Creating Layer relu_v5
I0530 15:45:37.840230  6458 net.cpp:454] relu_v5 <- dl_v1
I0530 15:45:37.840243  6458 net.cpp:397] relu_v5 -> dl_v1 (in-place)
I0530 15:45:37.840829  6458 net.cpp:150] Setting up relu_v5
I0530 15:45:37.840850  6458 net.cpp:157] Top shape: 100 196 (19600)
I0530 15:45:37.840862  6458 net.cpp:165] Memory required for data: 473176400
I0530 15:45:37.840872  6458 layer_factory.hpp:77] Creating layer drop_v1
I0530 15:45:37.840886  6458 net.cpp:106] Creating Layer drop_v1
I0530 15:45:37.840898  6458 net.cpp:454] drop_v1 <- dl_v1
I0530 15:45:37.840912  6458 net.cpp:397] drop_v1 -> dl_v1 (in-place)
I0530 15:45:37.840961  6458 net.cpp:150] Setting up drop_v1
I0530 15:45:37.840975  6458 net.cpp:157] Top shape: 100 196 (19600)
I0530 15:45:37.840986  6458 net.cpp:165] Memory required for data: 473254800
I0530 15:45:37.840996  6458 layer_factory.hpp:77] Creating layer concat_xuv
I0530 15:45:37.841011  6458 net.cpp:106] Creating Layer concat_xuv
I0530 15:45:37.841020  6458 net.cpp:454] concat_xuv <- dl_x1
I0530 15:45:37.841032  6458 net.cpp:454] concat_xuv <- dl_u1
I0530 15:45:37.841043  6458 net.cpp:454] concat_xuv <- dl_v1
I0530 15:45:37.841058  6458 net.cpp:411] concat_xuv -> concat_xuv
I0530 15:45:37.841106  6458 net.cpp:150] Setting up concat_xuv
I0530 15:45:37.841120  6458 net.cpp:157] Top shape: 100 588 (58800)
I0530 15:45:37.841130  6458 net.cpp:165] Memory required for data: 473490000
I0530 15:45:37.841140  6458 layer_factory.hpp:77] Creating layer dl_xuv
I0530 15:45:37.841155  6458 net.cpp:106] Creating Layer dl_xuv
I0530 15:45:37.841163  6458 net.cpp:454] dl_xuv <- concat_xuv
I0530 15:45:37.841177  6458 net.cpp:411] dl_xuv -> dl_xuv
I0530 15:45:37.842223  6458 net.cpp:150] Setting up dl_xuv
I0530 15:45:37.842242  6458 net.cpp:157] Top shape: 100 98 (9800)
I0530 15:45:37.842255  6458 net.cpp:165] Memory required for data: 473529200
I0530 15:45:37.842272  6458 layer_factory.hpp:77] Creating layer relu_xuv
I0530 15:45:37.842284  6458 net.cpp:106] Creating Layer relu_xuv
I0530 15:45:37.842294  6458 net.cpp:454] relu_xuv <- dl_xuv
I0530 15:45:37.842308  6458 net.cpp:397] relu_xuv -> dl_xuv (in-place)
I0530 15:45:37.842638  6458 net.cpp:150] Setting up relu_xuv
I0530 15:45:37.842653  6458 net.cpp:157] Top shape: 100 98 (9800)
I0530 15:45:37.842663  6458 net.cpp:165] Memory required for data: 473568400
I0530 15:45:37.842672  6458 layer_factory.hpp:77] Creating layer drop_xuv
I0530 15:45:37.842685  6458 net.cpp:106] Creating Layer drop_xuv
I0530 15:45:37.842695  6458 net.cpp:454] drop_xuv <- dl_xuv
I0530 15:45:37.842710  6458 net.cpp:397] drop_xuv -> dl_xuv (in-place)
I0530 15:45:37.842756  6458 net.cpp:150] Setting up drop_xuv
I0530 15:45:37.842769  6458 net.cpp:157] Top shape: 100 98 (9800)
I0530 15:45:37.842778  6458 net.cpp:165] Memory required for data: 473607600
I0530 15:45:37.842788  6458 layer_factory.hpp:77] Creating layer output
I0530 15:45:37.842803  6458 net.cpp:106] Creating Layer output
I0530 15:45:37.842811  6458 net.cpp:454] output <- dl_xuv
I0530 15:45:37.842824  6458 net.cpp:411] output -> output
I0530 15:45:37.843071  6458 net.cpp:150] Setting up output
I0530 15:45:37.843085  6458 net.cpp:157] Top shape: 100 11 (1100)
I0530 15:45:37.843107  6458 net.cpp:165] Memory required for data: 473612000
I0530 15:45:37.843139  6458 layer_factory.hpp:77] Creating layer drop_output
I0530 15:45:37.843153  6458 net.cpp:106] Creating Layer drop_output
I0530 15:45:37.843164  6458 net.cpp:454] drop_output <- output
I0530 15:45:37.843178  6458 net.cpp:397] drop_output -> output (in-place)
I0530 15:45:37.843225  6458 net.cpp:150] Setting up drop_output
I0530 15:45:37.843237  6458 net.cpp:157] Top shape: 100 11 (1100)
I0530 15:45:37.843247  6458 net.cpp:165] Memory required for data: 473616400
I0530 15:45:37.843257  6458 layer_factory.hpp:77] Creating layer output_drop_output_0_split
I0530 15:45:37.843271  6458 net.cpp:106] Creating Layer output_drop_output_0_split
I0530 15:45:37.843281  6458 net.cpp:454] output_drop_output_0_split <- output
I0530 15:45:37.843294  6458 net.cpp:411] output_drop_output_0_split -> output_drop_output_0_split_0
I0530 15:45:37.843310  6458 net.cpp:411] output_drop_output_0_split -> output_drop_output_0_split_1
I0530 15:45:37.843394  6458 net.cpp:150] Setting up output_drop_output_0_split
I0530 15:45:37.843406  6458 net.cpp:157] Top shape: 100 11 (1100)
I0530 15:45:37.843418  6458 net.cpp:157] Top shape: 100 11 (1100)
I0530 15:45:37.843428  6458 net.cpp:165] Memory required for data: 473625200
I0530 15:45:37.843438  6458 layer_factory.hpp:77] Creating layer accuracy
I0530 15:45:37.843458  6458 net.cpp:106] Creating Layer accuracy
I0530 15:45:37.843468  6458 net.cpp:454] accuracy <- output_drop_output_0_split_0
I0530 15:45:37.843480  6458 net.cpp:454] accuracy <- segments_data_3_split_0
I0530 15:45:37.843495  6458 net.cpp:411] accuracy -> accuracy
…
