…
I0529 18:25:06.389246 23517 net.cpp:322] The NetState phase (0) differed from the phase (1) specified by a rule in layer data
I0529 18:25:06.389328 23517 net.cpp:322] The NetState phase (0) differed from the phase (1) specified by a rule in layer accuracy
I0529 18:25:06.390055 23517 net.cpp:49] Initializing net from parameters: 
name: "epsilon_127x50_xuv"
state {
  phase: TRAIN
}
layer {
  name: "data"
  type: "HDF5Data"
  top: "hits-x"
  top: "hits-u"
  top: "hits-v"
  top: "segments"
  include {
    phase: TRAIN
  }
  hdf5_data_param {
    source: "/lustre/atlas/proj-shared/hep105/caffe_titan/xuv/epsilon_127x50_xuv.trainlist"
    batch_size: 100
  }
}
layer {
  name: "conv_x1"
  type: "Convolution"
  bottom: "hits-x"
  top: "conv_x1"
  convolution_param {
    num_output: 12
    pad: 0
    stride: 1
    weight_filler {
      type: "xavier"
    }
    bias_filler {
      type: "constant"
    }
    kernel_h: 8
    kernel_w: 3
  }
}
layer {
  name: "relu_x1"
  type: "ReLU"
  bottom: "conv_x1"
  top: "conv_x1"
}
layer {
  name: "pool_x1"
  type: "Pooling"
  bottom: "conv_x1"
  top: "pool_x1"
  pooling_param {
    pool: MAX
    kernel_h: 2
    kernel_w: 1
    stride_h: 2
    stride_w: 1
  }
}
layer {
  name: "conv_x2"
  type: "Convolution"
  bottom: "pool_x1"
  top: "conv_x2"
  convolution_param {
    num_output: 20
    pad: 0
    stride: 1
    weight_filler {
      type: "xavier"
    }
    bias_filler {
      type: "constant"
    }
    kernel_h: 7
    kernel_w: 3
  }
}
layer {
  name: "relu_x2"
  type: "ReLU"
  bottom: "conv_x2"
  top: "conv_x2"
}
layer {
  name: "pool_x2"
  type: "Pooling"
  bottom: "conv_x2"
  top: "pool_x2"
  pooling_param {
    pool: MAX
    kernel_h: 2
    kernel_w: 1
    stride_h: 2
    stride_w: 1
  }
}
layer {
  name: "conv_x3"
  type: "Convolution"
  bottom: "pool_x2"
  top: "conv_x3"
  convolution_param {
    num_output: 28
    pad: 0
    stride: 1
    weight_filler {
      type: "xavier"
    }
    bias_filler {
      type: "constant"
    }
    kernel_h: 6
    kernel_w: 3
  }
}
layer {
  name: "relu_x3"
  type: "ReLU"
  bottom: "conv_x3"
  top: "conv_x3"
}
layer {
  name: "pool_x3"
  type: "Pooling"
  bottom: "conv_x3"
  top: "pool_x3"
  pooling_param {
    pool: MAX
    kernel_h: 2
    kernel_w: 1
    stride_h: 2
    stride_w: 1
  }
}
layer {
  name: "conv_x4"
  type: "Convolution"
  bottom: "pool_x3"
  top: "conv_x4"
  convolution_param {
    num_output: 36
    pad: 0
    stride: 1
    weight_filler {
      type: "xavier"
    }
    bias_filler {
      type: "constant"
    }
    kernel_h: 6
    kernel_w: 3
  }
}
layer {
  name: "relu_x4"
  type: "ReLU"
  bottom: "conv_x4"
  top: "conv_x4"
}
layer {
  name: "pool_x4"
  type: "Pooling"
  bottom: "conv_x4"
  top: "pool_x4"
  pooling_param {
    pool: MAX
    kernel_h: 2
    kernel_w: 1
    stride_h: 2
    stride_w: 1
  }
}
layer {
  name: "dl_x1"
  type: "InnerProduct"
  bottom: "pool_x4"
  top: "dl_x1"
  inner_product_param {
    num_output: 196
    weight_filler {
      type: "xavier"
    }
    bias_filler {
      type: "constant"
    }
  }
}
layer {
  name: "relu_x5"
  type: "ReLU"
  bottom: "dl_x1"
  top: "dl_x1"
}
layer {
  name: "drop_x1"
  type: "Dropout"
  bottom: "dl_x1"
  top: "dl_x1"
  dropout_param {
    dropout_ratio: 0.5
  }
}
layer {
  name: "conv_u1"
  type: "Convolution"
  bottom: "hits-u"
  top: "conv_u1"
  convolution_param {
    num_output: 12
    pad: 0
    stride: 1
    weight_filler {
      type: "xavier"
    }
    bias_filler {
      type: "constant"
    }
    kernel_h: 8
    kernel_w: 3
  }
}
layer {
  name: "relu_u1"
  type: "ReLU"
  bottom: "conv_u1"
  top: "conv_u1"
}
layer {
  name: "pool_u1"
  type: "Pooling"
  bottom: "conv_u1"
  top: "pool_u1"
  pooling_param {
    pool: MAX
    kernel_h: 2
    kernel_w: 1
    stride_h: 2
    stride_w: 1
  }
}
layer {
  name: "conv_u2"
  type: "Convolution"
  bottom: "pool_u1"
  top: "conv_u2"
  convolution_param {
    num_output: 20
    pad: 0
    stride: 1
    weight_filler {
      type: "xavier"
    }
    bias_filler {
      type: "constant"
    }
    kernel_h: 7
    kernel_w: 3
  }
}
layer {
  name: "relu_u2"
  type: "ReLU"
  bottom: "conv_u2"
  top: "conv_u2"
}
layer {
  name: "pool_u2"
  type: "Pooling"
  bottom: "conv_u2"
  top: "pool_u2"
  pooling_param {
    pool: MAX
    kernel_h: 2
    kernel_w: 1
    stride_h: 2
    stride_w: 1
  }
}
layer {
  name: "conv_u3"
  type: "Convolution"
  bottom: "pool_u2"
  top: "conv_u3"
  convolution_param {
    num_output: 28
    pad: 0
    stride: 1
    weight_filler {
      type: "xavier"
    }
    bias_filler {
      type: "constant"
    }
    kernel_h: 6
    kernel_w: 3
  }
}
layer {
  name: "relu_u3"
  type: "ReLU"
  bottom: "conv_u3"
  top: "conv_u3"
}
layer {
  name: "pool_u3"
  type: "Pooling"
  bottom: "conv_u3"
  top: "pool_u3"
  pooling_param {
    pool: MAX
    kernel_h: 2
    kernel_w: 1
    stride_h: 2
    stride_w: 1
  }
}
layer {
  name: "conv_u4"
  type: "Convolution"
  bottom: "pool_u3"
  top: "conv_u4"
  convolution_param {
    num_output: 36
    pad: 0
    stride: 1
    weight_filler {
      type: "xavier"
    }
    bias_filler {
      type: "constant"
    }
    kernel_h: 6
    kernel_w: 3
  }
}
layer {
  name: "relu_u4"
  type: "ReLU"
  bottom: "conv_u4"
  top: "conv_u4"
}
layer {
  name: "pool_u4"
  type: "Pooling"
  bottom: "conv_u4"
  top: "pool_u4"
  pooling_param {
    pool: MAX
    kernel_h: 2
    kernel_w: 1
    stride_h: 2
    stride_w: 1
  }
}
layer {
  name: "dl_u1"
  type: "InnerProduct"
  bottom: "pool_u4"
  top: "dl_u1"
  inner_product_param {
    num_output: 196
    weight_filler {
      type: "xavier"
    }
    bias_filler {
      type: "constant"
    }
  }
}
layer {
  name: "relu_u5"
  type: "ReLU"
  bottom: "dl_u1"
  top: "dl_u1"
}
layer {
  name: "drop_u1"
  type: "Dropout"
  bottom: "dl_u1"
  top: "dl_u1"
  dropout_param {
    dropout_ratio: 0.5
  }
}
layer {
  name: "conv_v1"
  type: "Convolution"
  bottom: "hits-v"
  top: "conv_v1"
  convolution_param {
    num_output: 12
    pad: 0
    stride: 1
    weight_filler {
      type: "xavier"
    }
    bias_filler {
      type: "constant"
    }
    kernel_h: 8
    kernel_w: 3
  }
}
layer {
  name: "relu_v1"
  type: "ReLU"
  bottom: "conv_v1"
  top: "conv_v1"
}
layer {
  name: "pool_v1"
  type: "Pooling"
  bottom: "conv_v1"
  top: "pool_v1"
  pooling_param {
    pool: MAX
    kernel_h: 2
    kernel_w: 1
    stride_h: 2
    stride_w: 1
  }
}
layer {
  name: "conv_v2"
  type: "Convolution"
  bottom: "pool_v1"
  top: "conv_v2"
  convolution_param {
    num_output: 20
    pad: 0
    stride: 1
    weight_filler {
      type: "xavier"
    }
    bias_filler {
      type: "constant"
    }
    kernel_h: 7
    kernel_w: 3
  }
}
layer {
  name: "relu_v2"
  type: "ReLU"
  bottom: "conv_v2"
  top: "conv_v2"
}
layer {
  name: "pool_v2"
  type: "Pooling"
  bottom: "conv_v2"
  top: "pool_v2"
  pooling_param {
    pool: MAX
    kernel_h: 2
    kernel_w: 1
    stride_h: 2
    stride_w: 1
  }
}
layer {
  name: "conv_v3"
  type: "Convolution"
  bottom: "pool_v2"
  top: "conv_v3"
  convolution_param {
    num_output: 28
    pad: 0
    stride: 1
    weight_filler {
      type: "xavier"
    }
    bias_filler {
      type: "constant"
    }
    kernel_h: 6
    kernel_w: 3
  }
}
layer {
  name: "relu_v3"
  type: "ReLU"
  bottom: "conv_v3"
  top: "conv_v3"
}
layer {
  name: "pool_v3"
  type: "Pooling"
  bottom: "conv_v3"
  top: "pool_v3"
  pooling_param {
    pool: MAX
    kernel_h: 2
    kernel_w: 1
    stride_h: 2
    stride_w: 1
  }
}
layer {
  name: "conv_v4"
  type: "Convolution"
  bottom: "pool_v3"
  top: "conv_v4"
  convolution_param {
    num_output: 36
    pad: 0
    stride: 1
    weight_filler {
      type: "xavier"
    }
    bias_filler {
      type: "constant"
    }
    kernel_h: 6
    kernel_w: 3
  }
}
layer {
  name: "relu_v4"
  type: "ReLU"
  bottom: "conv_v4"
  top: "conv_v4"
}
layer {
  name: "pool_v4"
  type: "Pooling"
  bottom: "conv_v4"
  top: "pool_v4"
  pooling_param {
    pool: MAX
    kernel_h: 2
    kernel_w: 1
    stride_h: 2
    stride_w: 1
  }
}
layer {
  name: "dl_v1"
  type: "InnerProduct"
  bottom: "pool_v4"
  top: "dl_v1"
  inner_product_param {
    num_output: 196
    weight_filler {
      type: "xavier"
    }
    bias_filler {
      type: "constant"
    }
  }
}
layer {
  name: "relu_v5"
  type: "ReLU"
  bottom: "dl_v1"
  top: "dl_v1"
}
layer {
  name: "drop_v1"
  type: "Dropout"
  bottom: "dl_v1"
  top: "dl_v1"
  dropout_param {
    dropout_ratio: 0.5
  }
}
layer {
  name: "concat_xuv"
  type: "Concat"
  bottom: "dl_x1"
  bottom: "dl_u1"
  bottom: "dl_v1"
  top: "concat_xuv"
  concat_param {
    axis: 1
  }
}
layer {
  name: "dl_xuv"
  type: "InnerProduct"
  bottom: "concat_xuv"
  top: "dl_xuv"
  inner_product_param {
    num_output: 98
    weight_filler {
      type: "xavier"
    }
    bias_filler {
      type: "constant"
    }
  }
}
layer {
  name: "relu_xuv"
  type: "ReLU"
  bottom: "dl_xuv"
  top: "dl_xuv"
}
layer {
  name: "drop_xuv"
  type: "Dropout"
  bottom: "dl_xuv"
  top: "dl_xuv"
  dropout_param {
    dropout_ratio: 0.5
  }
}
layer {
  name: "output"
  type: "InnerProduct"
  bottom: "dl_xuv"
  top: "output"
  inner_product_param {
    num_output: 11
    weight_filler {
      type: "xavier"
    }
    bias_filler {
      type: "constant"
    }
  }
}
layer {
  name: "drop_output"
  type: "Dropout"
  bottom: "output"
  top: "output"
  dropout_param {
    dropout_ratio: 0.5
  }
}
layer {
  name: "loss"
  type: "SoftmaxWithLoss"
  bottom: "output"
  bottom: "segments"
  top: "loss"
}
I0529 18:25:06.390424 23517 layer_factory.hpp:77] Creating layer data
I0529 18:25:06.390450 23517 net.cpp:106] Creating Layer data
I0529 18:25:06.390465 23517 net.cpp:411] data -> hits-x
I0529 18:25:06.390499 23517 net.cpp:411] data -> hits-u
I0529 18:25:06.390522 23517 net.cpp:411] data -> hits-v
I0529 18:25:06.390537 23517 net.cpp:411] data -> segments
I0529 18:25:06.390560 23517 hdf5_data_layer.cpp:79] Loading list of HDF5 filenames from: /lustre/atlas/proj-shared/hep105/caffe_titan/xuv/epsilon_127x50_xuv.trainlist
I0529 18:25:06.392256 23517 hdf5_data_layer.cpp:93] Number of HDF5 files: 15
I0529 18:25:06.395300 23517 hdf5.cpp:32] Datatype class: H5T_FLOAT
I0529 18:26:10.603364 23517 hdf5.cpp:35] Datatype class: H5T_INTEGER
I0529 18:26:10.608919 23517 net.cpp:150] Setting up data
I0529 18:26:10.608960 23517 net.cpp:157] Top shape: 100 1 127 50 (635000)
I0529 18:26:10.608974 23517 net.cpp:157] Top shape: 100 1 127 50 (635000)
I0529 18:26:10.608989 23517 net.cpp:157] Top shape: 100 1 127 50 (635000)
I0529 18:26:10.609001 23517 net.cpp:157] Top shape: 100 (100)
I0529 18:26:10.609010 23517 net.cpp:165] Memory required for data: 7620400
I0529 18:26:10.609025 23517 layer_factory.hpp:77] Creating layer conv_x1
I0529 18:26:10.609058 23517 net.cpp:106] Creating Layer conv_x1
I0529 18:26:10.609071 23517 net.cpp:454] conv_x1 <- hits-x
I0529 18:26:10.609093 23517 net.cpp:411] conv_x1 -> conv_x1
I0529 18:26:11.000650 23517 net.cpp:150] Setting up conv_x1
I0529 18:26:11.000694 23517 net.cpp:157] Top shape: 100 12 120 48 (6912000)
I0529 18:26:11.000705 23517 net.cpp:165] Memory required for data: 35268400
I0529 18:26:11.000736 23517 layer_factory.hpp:77] Creating layer relu_x1
I0529 18:26:11.000758 23517 net.cpp:106] Creating Layer relu_x1
I0529 18:26:11.000769 23517 net.cpp:454] relu_x1 <- conv_x1
I0529 18:26:11.000783 23517 net.cpp:397] relu_x1 -> conv_x1 (in-place)
I0529 18:26:11.001298 23517 net.cpp:150] Setting up relu_x1
I0529 18:26:11.001314 23517 net.cpp:157] Top shape: 100 12 120 48 (6912000)
I0529 18:26:11.001325 23517 net.cpp:165] Memory required for data: 62916400
I0529 18:26:11.001335 23517 layer_factory.hpp:77] Creating layer pool_x1
I0529 18:26:11.001353 23517 net.cpp:106] Creating Layer pool_x1
I0529 18:26:11.001363 23517 net.cpp:454] pool_x1 <- conv_x1
I0529 18:26:11.001375 23517 net.cpp:411] pool_x1 -> pool_x1
I0529 18:26:11.001456 23517 net.cpp:150] Setting up pool_x1
I0529 18:26:11.001471 23517 net.cpp:157] Top shape: 100 12 60 48 (3456000)
I0529 18:26:11.001480 23517 net.cpp:165] Memory required for data: 76740400
I0529 18:26:11.001490 23517 layer_factory.hpp:77] Creating layer conv_x2
I0529 18:26:11.001513 23517 net.cpp:106] Creating Layer conv_x2
I0529 18:26:11.001523 23517 net.cpp:454] conv_x2 <- pool_x1
I0529 18:26:11.001538 23517 net.cpp:411] conv_x2 -> conv_x2
I0529 18:26:11.004215 23517 net.cpp:150] Setting up conv_x2
I0529 18:26:11.004237 23517 net.cpp:157] Top shape: 100 20 54 46 (4968000)
I0529 18:26:11.004250 23517 net.cpp:165] Memory required for data: 96612400
I0529 18:26:11.004269 23517 layer_factory.hpp:77] Creating layer relu_x2
I0529 18:26:11.004283 23517 net.cpp:106] Creating Layer relu_x2
I0529 18:26:11.004293 23517 net.cpp:454] relu_x2 <- conv_x2
I0529 18:26:11.004307 23517 net.cpp:397] relu_x2 -> conv_x2 (in-place)
I0529 18:26:11.004637 23517 net.cpp:150] Setting up relu_x2
I0529 18:26:11.004650 23517 net.cpp:157] Top shape: 100 20 54 46 (4968000)
I0529 18:26:11.004660 23517 net.cpp:165] Memory required for data: 116484400
I0529 18:26:11.004670 23517 layer_factory.hpp:77] Creating layer pool_x2
I0529 18:26:11.004683 23517 net.cpp:106] Creating Layer pool_x2
I0529 18:26:11.004693 23517 net.cpp:454] pool_x2 <- conv_x2
I0529 18:26:11.004705 23517 net.cpp:411] pool_x2 -> pool_x2
I0529 18:26:11.004773 23517 net.cpp:150] Setting up pool_x2
I0529 18:26:11.004787 23517 net.cpp:157] Top shape: 100 20 27 46 (2484000)
I0529 18:26:11.004796 23517 net.cpp:165] Memory required for data: 126420400
I0529 18:26:11.004807 23517 layer_factory.hpp:77] Creating layer conv_x3
I0529 18:26:11.004825 23517 net.cpp:106] Creating Layer conv_x3
I0529 18:26:11.004835 23517 net.cpp:454] conv_x3 <- pool_x2
I0529 18:26:11.004849 23517 net.cpp:411] conv_x3 -> conv_x3
I0529 18:26:11.006779 23517 net.cpp:150] Setting up conv_x3
I0529 18:26:11.006803 23517 net.cpp:157] Top shape: 100 28 22 44 (2710400)
I0529 18:26:11.006815 23517 net.cpp:165] Memory required for data: 137262000
I0529 18:26:11.006834 23517 layer_factory.hpp:77] Creating layer relu_x3
I0529 18:26:11.006850 23517 net.cpp:106] Creating Layer relu_x3
I0529 18:26:11.006860 23517 net.cpp:454] relu_x3 <- conv_x3
I0529 18:26:11.006872 23517 net.cpp:397] relu_x3 -> conv_x3 (in-place)
I0529 18:26:11.007341 23517 net.cpp:150] Setting up relu_x3
I0529 18:26:11.007357 23517 net.cpp:157] Top shape: 100 28 22 44 (2710400)
I0529 18:26:11.007380 23517 net.cpp:165] Memory required for data: 148103600
I0529 18:26:11.007390 23517 layer_factory.hpp:77] Creating layer pool_x3
I0529 18:26:11.007402 23517 net.cpp:106] Creating Layer pool_x3
I0529 18:26:11.007413 23517 net.cpp:454] pool_x3 <- conv_x3
I0529 18:26:11.007426 23517 net.cpp:411] pool_x3 -> pool_x3
I0529 18:26:11.007496 23517 net.cpp:150] Setting up pool_x3
I0529 18:26:11.007508 23517 net.cpp:157] Top shape: 100 28 11 44 (1355200)
I0529 18:26:11.007519 23517 net.cpp:165] Memory required for data: 153524400
I0529 18:26:11.007529 23517 layer_factory.hpp:77] Creating layer conv_x4
I0529 18:26:11.007546 23517 net.cpp:106] Creating Layer conv_x4
I0529 18:26:11.007556 23517 net.cpp:454] conv_x4 <- pool_x3
I0529 18:26:11.007570 23517 net.cpp:411] conv_x4 -> conv_x4
I0529 18:26:11.010527 23517 net.cpp:150] Setting up conv_x4
I0529 18:26:11.010555 23517 net.cpp:157] Top shape: 100 36 6 42 (907200)
I0529 18:26:11.010566 23517 net.cpp:165] Memory required for data: 157153200
I0529 18:26:11.010582 23517 layer_factory.hpp:77] Creating layer relu_x4
I0529 18:26:11.010596 23517 net.cpp:106] Creating Layer relu_x4
I0529 18:26:11.010607 23517 net.cpp:454] relu_x4 <- conv_x4
I0529 18:26:11.010620 23517 net.cpp:397] relu_x4 -> conv_x4 (in-place)
I0529 18:26:11.011086 23517 net.cpp:150] Setting up relu_x4
I0529 18:26:11.011102 23517 net.cpp:157] Top shape: 100 36 6 42 (907200)
I0529 18:26:11.011113 23517 net.cpp:165] Memory required for data: 160782000
I0529 18:26:11.011123 23517 layer_factory.hpp:77] Creating layer pool_x4
I0529 18:26:11.011135 23517 net.cpp:106] Creating Layer pool_x4
I0529 18:26:11.011145 23517 net.cpp:454] pool_x4 <- conv_x4
I0529 18:26:11.011158 23517 net.cpp:411] pool_x4 -> pool_x4
I0529 18:26:11.011229 23517 net.cpp:150] Setting up pool_x4
I0529 18:26:11.011241 23517 net.cpp:157] Top shape: 100 36 3 42 (453600)
I0529 18:26:11.011250 23517 net.cpp:165] Memory required for data: 162596400
I0529 18:26:11.011261 23517 layer_factory.hpp:77] Creating layer dl_x1
I0529 18:26:11.011281 23517 net.cpp:106] Creating Layer dl_x1
I0529 18:26:11.011291 23517 net.cpp:454] dl_x1 <- pool_x4
I0529 18:26:11.011304 23517 net.cpp:411] dl_x1 -> dl_x1
I0529 18:26:11.026680 23517 net.cpp:150] Setting up dl_x1
I0529 18:26:11.026708 23517 net.cpp:157] Top shape: 100 196 (19600)
I0529 18:26:11.026721 23517 net.cpp:165] Memory required for data: 162674800
I0529 18:26:11.026744 23517 layer_factory.hpp:77] Creating layer relu_x5
I0529 18:26:11.026758 23517 net.cpp:106] Creating Layer relu_x5
I0529 18:26:11.026769 23517 net.cpp:454] relu_x5 <- dl_x1
I0529 18:26:11.026782 23517 net.cpp:397] relu_x5 -> dl_x1 (in-place)
I0529 18:26:11.027125 23517 net.cpp:150] Setting up relu_x5
I0529 18:26:11.027139 23517 net.cpp:157] Top shape: 100 196 (19600)
I0529 18:26:11.027148 23517 net.cpp:165] Memory required for data: 162753200
I0529 18:26:11.027158 23517 layer_factory.hpp:77] Creating layer drop_x1
I0529 18:26:11.027180 23517 net.cpp:106] Creating Layer drop_x1
I0529 18:26:11.027190 23517 net.cpp:454] drop_x1 <- dl_x1
I0529 18:26:11.027204 23517 net.cpp:397] drop_x1 -> dl_x1 (in-place)
I0529 18:26:11.027250 23517 net.cpp:150] Setting up drop_x1
I0529 18:26:11.027262 23517 net.cpp:157] Top shape: 100 196 (19600)
I0529 18:26:11.027272 23517 net.cpp:165] Memory required for data: 162831600
I0529 18:26:11.027282 23517 layer_factory.hpp:77] Creating layer conv_u1
I0529 18:26:11.027305 23517 net.cpp:106] Creating Layer conv_u1
I0529 18:26:11.027315 23517 net.cpp:454] conv_u1 <- hits-u
I0529 18:26:11.027328 23517 net.cpp:411] conv_u1 -> conv_u1
I0529 18:26:11.029177 23517 net.cpp:150] Setting up conv_u1
I0529 18:26:11.029199 23517 net.cpp:157] Top shape: 100 12 120 48 (6912000)
I0529 18:26:11.029211 23517 net.cpp:165] Memory required for data: 190479600
I0529 18:26:11.029227 23517 layer_factory.hpp:77] Creating layer relu_u1
I0529 18:26:11.029240 23517 net.cpp:106] Creating Layer relu_u1
I0529 18:26:11.029250 23517 net.cpp:454] relu_u1 <- conv_u1
I0529 18:26:11.029263 23517 net.cpp:397] relu_u1 -> conv_u1 (in-place)
I0529 18:26:11.029748 23517 net.cpp:150] Setting up relu_u1
I0529 18:26:11.029767 23517 net.cpp:157] Top shape: 100 12 120 48 (6912000)
I0529 18:26:11.029777 23517 net.cpp:165] Memory required for data: 218127600
I0529 18:26:11.029788 23517 layer_factory.hpp:77] Creating layer pool_u1
I0529 18:26:11.029800 23517 net.cpp:106] Creating Layer pool_u1
I0529 18:26:11.029810 23517 net.cpp:454] pool_u1 <- conv_u1
I0529 18:26:11.029824 23517 net.cpp:411] pool_u1 -> pool_u1
I0529 18:26:11.029896 23517 net.cpp:150] Setting up pool_u1
I0529 18:26:11.029908 23517 net.cpp:157] Top shape: 100 12 60 48 (3456000)
I0529 18:26:11.029918 23517 net.cpp:165] Memory required for data: 231951600
I0529 18:26:11.029929 23517 layer_factory.hpp:77] Creating layer conv_u2
I0529 18:26:11.029947 23517 net.cpp:106] Creating Layer conv_u2
I0529 18:26:11.029958 23517 net.cpp:454] conv_u2 <- pool_u1
I0529 18:26:11.029969 23517 net.cpp:411] conv_u2 -> conv_u2
I0529 18:26:11.031800 23517 net.cpp:150] Setting up conv_u2
I0529 18:26:11.031822 23517 net.cpp:157] Top shape: 100 20 54 46 (4968000)
I0529 18:26:11.031832 23517 net.cpp:165] Memory required for data: 251823600
I0529 18:26:11.031848 23517 layer_factory.hpp:77] Creating layer relu_u2
I0529 18:26:11.031862 23517 net.cpp:106] Creating Layer relu_u2
I0529 18:26:11.031872 23517 net.cpp:454] relu_u2 <- conv_u2
I0529 18:26:11.031884 23517 net.cpp:397] relu_u2 -> conv_u2 (in-place)
I0529 18:26:11.032205 23517 net.cpp:150] Setting up relu_u2
I0529 18:26:11.032219 23517 net.cpp:157] Top shape: 100 20 54 46 (4968000)
I0529 18:26:11.032229 23517 net.cpp:165] Memory required for data: 271695600
I0529 18:26:11.032238 23517 layer_factory.hpp:77] Creating layer pool_u2
I0529 18:26:11.032251 23517 net.cpp:106] Creating Layer pool_u2
I0529 18:26:11.032261 23517 net.cpp:454] pool_u2 <- conv_u2
I0529 18:26:11.032274 23517 net.cpp:411] pool_u2 -> pool_u2
I0529 18:26:11.032346 23517 net.cpp:150] Setting up pool_u2
I0529 18:26:11.032361 23517 net.cpp:157] Top shape: 100 20 27 46 (2484000)
I0529 18:26:11.032371 23517 net.cpp:165] Memory required for data: 281631600
I0529 18:26:11.032382 23517 layer_factory.hpp:77] Creating layer conv_u3
I0529 18:26:11.032397 23517 net.cpp:106] Creating Layer conv_u3
I0529 18:26:11.032409 23517 net.cpp:454] conv_u3 <- pool_u2
I0529 18:26:11.032423 23517 net.cpp:411] conv_u3 -> conv_u3
I0529 18:26:11.034351 23517 net.cpp:150] Setting up conv_u3
I0529 18:26:11.034373 23517 net.cpp:157] Top shape: 100 28 22 44 (2710400)
I0529 18:26:11.034386 23517 net.cpp:165] Memory required for data: 292473200
I0529 18:26:11.034402 23517 layer_factory.hpp:77] Creating layer relu_u3
I0529 18:26:11.034415 23517 net.cpp:106] Creating Layer relu_u3
I0529 18:26:11.034425 23517 net.cpp:454] relu_u3 <- conv_u3
I0529 18:26:11.034438 23517 net.cpp:397] relu_u3 -> conv_u3 (in-place)
I0529 18:26:11.034771 23517 net.cpp:150] Setting up relu_u3
I0529 18:26:11.034785 23517 net.cpp:157] Top shape: 100 28 22 44 (2710400)
I0529 18:26:11.034795 23517 net.cpp:165] Memory required for data: 303314800
I0529 18:26:11.034806 23517 layer_factory.hpp:77] Creating layer pool_u3
I0529 18:26:11.034817 23517 net.cpp:106] Creating Layer pool_u3
I0529 18:26:11.034827 23517 net.cpp:454] pool_u3 <- conv_u3
I0529 18:26:11.034840 23517 net.cpp:411] pool_u3 -> pool_u3
I0529 18:26:11.034909 23517 net.cpp:150] Setting up pool_u3
I0529 18:26:11.034922 23517 net.cpp:157] Top shape: 100 28 11 44 (1355200)
I0529 18:26:11.034932 23517 net.cpp:165] Memory required for data: 308735600
I0529 18:26:11.034942 23517 layer_factory.hpp:77] Creating layer conv_u4
I0529 18:26:11.034958 23517 net.cpp:106] Creating Layer conv_u4
I0529 18:26:11.034970 23517 net.cpp:454] conv_u4 <- pool_u3
I0529 18:26:11.034983 23517 net.cpp:411] conv_u4 -> conv_u4
I0529 18:26:11.037184 23517 net.cpp:150] Setting up conv_u4
I0529 18:26:11.037207 23517 net.cpp:157] Top shape: 100 36 6 42 (907200)
I0529 18:26:11.037220 23517 net.cpp:165] Memory required for data: 312364400
I0529 18:26:11.037242 23517 layer_factory.hpp:77] Creating layer relu_u4
I0529 18:26:11.037256 23517 net.cpp:106] Creating Layer relu_u4
I0529 18:26:11.037276 23517 net.cpp:454] relu_u4 <- conv_u4
I0529 18:26:11.037288 23517 net.cpp:397] relu_u4 -> conv_u4 (in-place)
I0529 18:26:11.037761 23517 net.cpp:150] Setting up relu_u4
I0529 18:26:11.037778 23517 net.cpp:157] Top shape: 100 36 6 42 (907200)
I0529 18:26:11.037789 23517 net.cpp:165] Memory required for data: 315993200
I0529 18:26:11.037799 23517 layer_factory.hpp:77] Creating layer pool_u4
I0529 18:26:11.037812 23517 net.cpp:106] Creating Layer pool_u4
I0529 18:26:11.037822 23517 net.cpp:454] pool_u4 <- conv_u4
I0529 18:26:11.037834 23517 net.cpp:411] pool_u4 -> pool_u4
I0529 18:26:11.037904 23517 net.cpp:150] Setting up pool_u4
I0529 18:26:11.037917 23517 net.cpp:157] Top shape: 100 36 3 42 (453600)
I0529 18:26:11.037928 23517 net.cpp:165] Memory required for data: 317807600
I0529 18:26:11.037940 23517 layer_factory.hpp:77] Creating layer dl_u1
I0529 18:26:11.037953 23517 net.cpp:106] Creating Layer dl_u1
I0529 18:26:11.037964 23517 net.cpp:454] dl_u1 <- pool_u4
I0529 18:26:11.037977 23517 net.cpp:411] dl_u1 -> dl_u1
I0529 18:26:11.053357 23517 net.cpp:150] Setting up dl_u1
I0529 18:26:11.053385 23517 net.cpp:157] Top shape: 100 196 (19600)
I0529 18:26:11.053396 23517 net.cpp:165] Memory required for data: 317886000
I0529 18:26:11.053412 23517 layer_factory.hpp:77] Creating layer relu_u5
I0529 18:26:11.053427 23517 net.cpp:106] Creating Layer relu_u5
I0529 18:26:11.053437 23517 net.cpp:454] relu_u5 <- dl_u1
I0529 18:26:11.053450 23517 net.cpp:397] relu_u5 -> dl_u1 (in-place)
I0529 18:26:11.053796 23517 net.cpp:150] Setting up relu_u5
I0529 18:26:11.053808 23517 net.cpp:157] Top shape: 100 196 (19600)
I0529 18:26:11.053818 23517 net.cpp:165] Memory required for data: 317964400
I0529 18:26:11.053828 23517 layer_factory.hpp:77] Creating layer drop_u1
I0529 18:26:11.053841 23517 net.cpp:106] Creating Layer drop_u1
I0529 18:26:11.053851 23517 net.cpp:454] drop_u1 <- dl_u1
I0529 18:26:11.053864 23517 net.cpp:397] drop_u1 -> dl_u1 (in-place)
I0529 18:26:11.053905 23517 net.cpp:150] Setting up drop_u1
I0529 18:26:11.053918 23517 net.cpp:157] Top shape: 100 196 (19600)
I0529 18:26:11.053928 23517 net.cpp:165] Memory required for data: 318042800
I0529 18:26:11.053939 23517 layer_factory.hpp:77] Creating layer conv_v1
I0529 18:26:11.053956 23517 net.cpp:106] Creating Layer conv_v1
I0529 18:26:11.053966 23517 net.cpp:454] conv_v1 <- hits-v
I0529 18:26:11.053980 23517 net.cpp:411] conv_v1 -> conv_v1
I0529 18:26:11.055860 23517 net.cpp:150] Setting up conv_v1
I0529 18:26:11.055882 23517 net.cpp:157] Top shape: 100 12 120 48 (6912000)
I0529 18:26:11.055892 23517 net.cpp:165] Memory required for data: 345690800
I0529 18:26:11.055908 23517 layer_factory.hpp:77] Creating layer relu_v1
I0529 18:26:11.055930 23517 net.cpp:106] Creating Layer relu_v1
I0529 18:26:11.055941 23517 net.cpp:454] relu_v1 <- conv_v1
I0529 18:26:11.055953 23517 net.cpp:397] relu_v1 -> conv_v1 (in-place)
I0529 18:26:11.056460 23517 net.cpp:150] Setting up relu_v1
I0529 18:26:11.056478 23517 net.cpp:157] Top shape: 100 12 120 48 (6912000)
I0529 18:26:11.056488 23517 net.cpp:165] Memory required for data: 373338800
I0529 18:26:11.056499 23517 layer_factory.hpp:77] Creating layer pool_v1
I0529 18:26:11.056512 23517 net.cpp:106] Creating Layer pool_v1
I0529 18:26:11.056522 23517 net.cpp:454] pool_v1 <- conv_v1
I0529 18:26:11.056535 23517 net.cpp:411] pool_v1 -> pool_v1
I0529 18:26:11.056608 23517 net.cpp:150] Setting up pool_v1
I0529 18:26:11.056622 23517 net.cpp:157] Top shape: 100 12 60 48 (3456000)
I0529 18:26:11.056632 23517 net.cpp:165] Memory required for data: 387162800
I0529 18:26:11.056643 23517 layer_factory.hpp:77] Creating layer conv_v2
I0529 18:26:11.056658 23517 net.cpp:106] Creating Layer conv_v2
I0529 18:26:11.056669 23517 net.cpp:454] conv_v2 <- pool_v1
I0529 18:26:11.056684 23517 net.cpp:411] conv_v2 -> conv_v2
I0529 18:26:11.058387 23517 net.cpp:150] Setting up conv_v2
I0529 18:26:11.058409 23517 net.cpp:157] Top shape: 100 20 54 46 (4968000)
I0529 18:26:11.058421 23517 net.cpp:165] Memory required for data: 407034800
I0529 18:26:11.058450 23517 layer_factory.hpp:77] Creating layer relu_v2
I0529 18:26:11.058464 23517 net.cpp:106] Creating Layer relu_v2
I0529 18:26:11.058473 23517 net.cpp:454] relu_v2 <- conv_v2
I0529 18:26:11.058487 23517 net.cpp:397] relu_v2 -> conv_v2 (in-place)
I0529 18:26:11.058970 23517 net.cpp:150] Setting up relu_v2
I0529 18:26:11.058987 23517 net.cpp:157] Top shape: 100 20 54 46 (4968000)
I0529 18:26:11.058997 23517 net.cpp:165] Memory required for data: 426906800
I0529 18:26:11.059008 23517 layer_factory.hpp:77] Creating layer pool_v2
I0529 18:26:11.059020 23517 net.cpp:106] Creating Layer pool_v2
I0529 18:26:11.059031 23517 net.cpp:454] pool_v2 <- conv_v2
I0529 18:26:11.059043 23517 net.cpp:411] pool_v2 -> pool_v2
I0529 18:26:11.059114 23517 net.cpp:150] Setting up pool_v2
I0529 18:26:11.059128 23517 net.cpp:157] Top shape: 100 20 27 46 (2484000)
I0529 18:26:11.059137 23517 net.cpp:165] Memory required for data: 436842800
I0529 18:26:11.059147 23517 layer_factory.hpp:77] Creating layer conv_v3
I0529 18:26:11.059164 23517 net.cpp:106] Creating Layer conv_v3
I0529 18:26:11.059173 23517 net.cpp:454] conv_v3 <- pool_v2
I0529 18:26:11.059187 23517 net.cpp:411] conv_v3 -> conv_v3
I0529 18:26:11.061121 23517 net.cpp:150] Setting up conv_v3
I0529 18:26:11.061143 23517 net.cpp:157] Top shape: 100 28 22 44 (2710400)
I0529 18:26:11.061156 23517 net.cpp:165] Memory required for data: 447684400
I0529 18:26:11.061170 23517 layer_factory.hpp:77] Creating layer relu_v3
I0529 18:26:11.061183 23517 net.cpp:106] Creating Layer relu_v3
I0529 18:26:11.061193 23517 net.cpp:454] relu_v3 <- conv_v3
I0529 18:26:11.061206 23517 net.cpp:397] relu_v3 -> conv_v3 (in-place)
I0529 18:26:11.061527 23517 net.cpp:150] Setting up relu_v3
I0529 18:26:11.061540 23517 net.cpp:157] Top shape: 100 28 22 44 (2710400)
I0529 18:26:11.061552 23517 net.cpp:165] Memory required for data: 458526000
I0529 18:26:11.061561 23517 layer_factory.hpp:77] Creating layer pool_v3
I0529 18:26:11.061573 23517 net.cpp:106] Creating Layer pool_v3
I0529 18:26:11.061583 23517 net.cpp:454] pool_v3 <- conv_v3
I0529 18:26:11.061596 23517 net.cpp:411] pool_v3 -> pool_v3
I0529 18:26:11.061664 23517 net.cpp:150] Setting up pool_v3
I0529 18:26:11.061678 23517 net.cpp:157] Top shape: 100 28 11 44 (1355200)
I0529 18:26:11.061688 23517 net.cpp:165] Memory required for data: 463946800
I0529 18:26:11.061698 23517 layer_factory.hpp:77] Creating layer conv_v4
I0529 18:26:11.061713 23517 net.cpp:106] Creating Layer conv_v4
I0529 18:26:11.061723 23517 net.cpp:454] conv_v4 <- pool_v3
I0529 18:26:11.061738 23517 net.cpp:411] conv_v4 -> conv_v4
I0529 18:26:11.063827 23517 net.cpp:150] Setting up conv_v4
I0529 18:26:11.063849 23517 net.cpp:157] Top shape: 100 36 6 42 (907200)
I0529 18:26:11.063859 23517 net.cpp:165] Memory required for data: 467575600
I0529 18:26:11.063875 23517 layer_factory.hpp:77] Creating layer relu_v4
I0529 18:26:11.063889 23517 net.cpp:106] Creating Layer relu_v4
I0529 18:26:11.063899 23517 net.cpp:454] relu_v4 <- conv_v4
I0529 18:26:11.063910 23517 net.cpp:397] relu_v4 -> conv_v4 (in-place)
I0529 18:26:11.064388 23517 net.cpp:150] Setting up relu_v4
I0529 18:26:11.064404 23517 net.cpp:157] Top shape: 100 36 6 42 (907200)
I0529 18:26:11.064415 23517 net.cpp:165] Memory required for data: 471204400
I0529 18:26:11.064425 23517 layer_factory.hpp:77] Creating layer pool_v4
I0529 18:26:11.064437 23517 net.cpp:106] Creating Layer pool_v4
I0529 18:26:11.064447 23517 net.cpp:454] pool_v4 <- conv_v4
I0529 18:26:11.064461 23517 net.cpp:411] pool_v4 -> pool_v4
I0529 18:26:11.064533 23517 net.cpp:150] Setting up pool_v4
I0529 18:26:11.064546 23517 net.cpp:157] Top shape: 100 36 3 42 (453600)
I0529 18:26:11.064556 23517 net.cpp:165] Memory required for data: 473018800
I0529 18:26:11.064568 23517 layer_factory.hpp:77] Creating layer dl_v1
I0529 18:26:11.064581 23517 net.cpp:106] Creating Layer dl_v1
I0529 18:26:11.064591 23517 net.cpp:454] dl_v1 <- pool_v4
I0529 18:26:11.064605 23517 net.cpp:411] dl_v1 -> dl_v1
I0529 18:26:11.079998 23517 net.cpp:150] Setting up dl_v1
I0529 18:26:11.080037 23517 net.cpp:157] Top shape: 100 196 (19600)
I0529 18:26:11.080050 23517 net.cpp:165] Memory required for data: 473097200
I0529 18:26:11.080072 23517 layer_factory.hpp:77] Creating layer relu_v5
I0529 18:26:11.080086 23517 net.cpp:106] Creating Layer relu_v5
I0529 18:26:11.080096 23517 net.cpp:454] relu_v5 <- dl_v1
I0529 18:26:11.080114 23517 net.cpp:397] relu_v5 -> dl_v1 (in-place)
I0529 18:26:11.080467 23517 net.cpp:150] Setting up relu_v5
I0529 18:26:11.080482 23517 net.cpp:157] Top shape: 100 196 (19600)
I0529 18:26:11.080493 23517 net.cpp:165] Memory required for data: 473175600
I0529 18:26:11.080504 23517 layer_factory.hpp:77] Creating layer drop_v1
I0529 18:26:11.080518 23517 net.cpp:106] Creating Layer drop_v1
I0529 18:26:11.080528 23517 net.cpp:454] drop_v1 <- dl_v1
I0529 18:26:11.080539 23517 net.cpp:397] drop_v1 -> dl_v1 (in-place)
I0529 18:26:11.080584 23517 net.cpp:150] Setting up drop_v1
I0529 18:26:11.080596 23517 net.cpp:157] Top shape: 100 196 (19600)
I0529 18:26:11.080606 23517 net.cpp:165] Memory required for data: 473254000
I0529 18:26:11.080616 23517 layer_factory.hpp:77] Creating layer concat_xuv
I0529 18:26:11.080637 23517 net.cpp:106] Creating Layer concat_xuv
I0529 18:26:11.080647 23517 net.cpp:454] concat_xuv <- dl_x1
I0529 18:26:11.080660 23517 net.cpp:454] concat_xuv <- dl_u1
I0529 18:26:11.080672 23517 net.cpp:454] concat_xuv <- dl_v1
I0529 18:26:11.080684 23517 net.cpp:411] concat_xuv -> concat_xuv
I0529 18:26:11.080737 23517 net.cpp:150] Setting up concat_xuv
I0529 18:26:11.080749 23517 net.cpp:157] Top shape: 100 588 (58800)
I0529 18:26:11.080760 23517 net.cpp:165] Memory required for data: 473489200
I0529 18:26:11.080770 23517 layer_factory.hpp:77] Creating layer dl_xuv
I0529 18:26:11.080785 23517 net.cpp:106] Creating Layer dl_xuv
I0529 18:26:11.080796 23517 net.cpp:454] dl_xuv <- concat_xuv
I0529 18:26:11.080808 23517 net.cpp:411] dl_xuv -> dl_xuv
I0529 18:26:11.081843 23517 net.cpp:150] Setting up dl_xuv
I0529 18:26:11.081863 23517 net.cpp:157] Top shape: 100 98 (9800)
I0529 18:26:11.081876 23517 net.cpp:165] Memory required for data: 473528400
I0529 18:26:11.081890 23517 layer_factory.hpp:77] Creating layer relu_xuv
I0529 18:26:11.081902 23517 net.cpp:106] Creating Layer relu_xuv
I0529 18:26:11.081912 23517 net.cpp:454] relu_xuv <- dl_xuv
I0529 18:26:11.081924 23517 net.cpp:397] relu_xuv -> dl_xuv (in-place)
I0529 18:26:11.082475 23517 net.cpp:150] Setting up relu_xuv
I0529 18:26:11.082491 23517 net.cpp:157] Top shape: 100 98 (9800)
I0529 18:26:11.082505 23517 net.cpp:165] Memory required for data: 473567600
I0529 18:26:11.082515 23517 layer_factory.hpp:77] Creating layer drop_xuv
I0529 18:26:11.082528 23517 net.cpp:106] Creating Layer drop_xuv
I0529 18:26:11.082538 23517 net.cpp:454] drop_xuv <- dl_xuv
I0529 18:26:11.082551 23517 net.cpp:397] drop_xuv -> dl_xuv (in-place)
I0529 18:26:11.082595 23517 net.cpp:150] Setting up drop_xuv
I0529 18:26:11.082608 23517 net.cpp:157] Top shape: 100 98 (9800)
I0529 18:26:11.082619 23517 net.cpp:165] Memory required for data: 473606800
I0529 18:26:11.082628 23517 layer_factory.hpp:77] Creating layer output
I0529 18:26:11.082643 23517 net.cpp:106] Creating Layer output
I0529 18:26:11.082651 23517 net.cpp:454] output <- dl_xuv
I0529 18:26:11.082664 23517 net.cpp:411] output -> output
I0529 18:26:11.082892 23517 net.cpp:150] Setting up output
I0529 18:26:11.082906 23517 net.cpp:157] Top shape: 100 11 (1100)
I0529 18:26:11.082916 23517 net.cpp:165] Memory required for data: 473611200
I0529 18:26:11.082945 23517 layer_factory.hpp:77] Creating layer drop_output
I0529 18:26:11.082958 23517 net.cpp:106] Creating Layer drop_output
I0529 18:26:11.082968 23517 net.cpp:454] drop_output <- output
I0529 18:26:11.082980 23517 net.cpp:397] drop_output -> output (in-place)
I0529 18:26:11.083024 23517 net.cpp:150] Setting up drop_output
I0529 18:26:11.083036 23517 net.cpp:157] Top shape: 100 11 (1100)
I0529 18:26:11.083046 23517 net.cpp:165] Memory required for data: 473615600
I0529 18:26:11.083056 23517 layer_factory.hpp:77] Creating layer loss
I0529 18:26:11.083086 23517 net.cpp:106] Creating Layer loss
I0529 18:26:11.083096 23517 net.cpp:454] loss <- output
I0529 18:26:11.083107 23517 net.cpp:454] loss <- segments
I0529 18:26:11.083119 23517 net.cpp:411] loss -> loss
I0529 18:26:11.083137 23517 layer_factory.hpp:77] Creating layer loss
…
I0529 18:26:11.087262 23517 solver.cpp:181] Creating test net (#0) specified by net file: /lustre/atlas/proj-shared/hep105/caffe_titan/caffe_workflow/xuv/logs/epsilon_lr001_2016-05-29T18.24.51.314592.prototxt
I0529 18:26:11.087395 23517 net.cpp:322] The NetState phase (1) differed from the phase (0) specified by a rule in layer data
I0529 18:26:11.088182 23517 net.cpp:49] Initializing net from parameters: 
name: "epsilon_127x50_xuv"
state {
  phase: TEST
}
layer {
  name: "data"
  type: "HDF5Data"
  top: "hits-x"
  top: "hits-u"
  top: "hits-v"
  top: "segments"
  include {
    phase: TEST
  }
  hdf5_data_param {
    source: "/lustre/atlas/proj-shared/hep105/caffe_titan/xuv/epsilon_127x50_xuv.testlist"
    batch_size: 100
  }
}
layer {
  name: "conv_x1"
  type: "Convolution"
  bottom: "hits-x"
  top: "conv_x1"
  convolution_param {
    num_output: 12
    pad: 0
    stride: 1
    weight_filler {
      type: "xavier"
    }
    bias_filler {
      type: "constant"
    }
    kernel_h: 8
    kernel_w: 3
  }
}
layer {
  name: "relu_x1"
  type: "ReLU"
  bottom: "conv_x1"
  top: "conv_x1"
}
layer {
  name: "pool_x1"
  type: "Pooling"
  bottom: "conv_x1"
  top: "pool_x1"
  pooling_param {
    pool: MAX
    kernel_h: 2
    kernel_w: 1
    stride_h: 2
    stride_w: 1
  }
}
layer {
  name: "conv_x2"
  type: "Convolution"
  bottom: "pool_x1"
  top: "conv_x2"
  convolution_param {
    num_output: 20
    pad: 0
    stride: 1
    weight_filler {
      type: "xavier"
    }
    bias_filler {
      type: "constant"
    }
    kernel_h: 7
    kernel_w: 3
  }
}
layer {
  name: "relu_x2"
  type: "ReLU"
  bottom: "conv_x2"
  top: "conv_x2"
}
layer {
  name: "pool_x2"
  type: "Pooling"
  bottom: "conv_x2"
  top: "pool_x2"
  pooling_param {
    pool: MAX
    kernel_h: 2
    kernel_w: 1
    stride_h: 2
    stride_w: 1
  }
}
layer {
  name: "conv_x3"
  type: "Convolution"
  bottom: "pool_x2"
  top: "conv_x3"
  convolution_param {
    num_output: 28
    pad: 0
    stride: 1
    weight_filler {
      type: "xavier"
    }
    bias_filler {
      type: "constant"
    }
    kernel_h: 6
    kernel_w: 3
  }
}
layer {
  name: "relu_x3"
  type: "ReLU"
  bottom: "conv_x3"
  top: "conv_x3"
}
layer {
  name: "pool_x3"
  type: "Pooling"
  bottom: "conv_x3"
  top: "pool_x3"
  pooling_param {
    pool: MAX
    kernel_h: 2
    kernel_w: 1
    stride_h: 2
    stride_w: 1
  }
}
layer {
  name: "conv_x4"
  type: "Convolution"
  bottom: "pool_x3"
  top: "conv_x4"
  convolution_param {
    num_output: 36
    pad: 0
    stride: 1
    weight_filler {
      type: "xavier"
    }
    bias_filler {
      type: "constant"
    }
    kernel_h: 6
    kernel_w: 3
  }
}
layer {
  name: "relu_x4"
  type: "ReLU"
  bottom: "conv_x4"
  top: "conv_x4"
}
layer {
  name: "pool_x4"
  type: "Pooling"
  bottom: "conv_x4"
  top: "pool_x4"
  pooling_param {
    pool: MAX
    kernel_h: 2
    kernel_w: 1
    stride_h: 2
    stride_w: 1
  }
}
layer {
  name: "dl_x1"
  type: "InnerProduct"
  bottom: "pool_x4"
  top: "dl_x1"
  inner_product_param {
    num_output: 196
    weight_filler {
      type: "xavier"
    }
    bias_filler {
      type: "constant"
    }
  }
}
layer {
  name: "relu_x5"
  type: "ReLU"
  bottom: "dl_x1"
  top: "dl_x1"
}
layer {
  name: "drop_x1"
  type: "Dropout"
  bottom: "dl_x1"
  top: "dl_x1"
  dropout_param {
    dropout_ratio: 0.5
  }
}
layer {
  name: "conv_u1"
  type: "Convolution"
  bottom: "hits-u"
  top: "conv_u1"
  convolution_param {
    num_output: 12
    pad: 0
    stride: 1
    weight_filler {
      type: "xavier"
    }
    bias_filler {
      type: "constant"
    }
    kernel_h: 8
    kernel_w: 3
  }
}
layer {
  name: "relu_u1"
  type: "ReLU"
  bottom: "conv_u1"
  top: "conv_u1"
}
layer {
  name: "pool_u1"
  type: "Pooling"
  bottom: "conv_u1"
  top: "pool_u1"
  pooling_param {
    pool: MAX
    kernel_h: 2
    kernel_w: 1
    stride_h: 2
    stride_w: 1
  }
}
layer {
  name: "conv_u2"
  type: "Convolution"
  bottom: "pool_u1"
  top: "conv_u2"
  convolution_param {
    num_output: 20
    pad: 0
    stride: 1
    weight_filler {
      type: "xavier"
    }
    bias_filler {
      type: "constant"
    }
    kernel_h: 7
    kernel_w: 3
  }
}
layer {
  name: "relu_u2"
  type: "ReLU"
  bottom: "conv_u2"
  top: "conv_u2"
}
layer {
  name: "pool_u2"
  type: "Pooling"
  bottom: "conv_u2"
  top: "pool_u2"
  pooling_param {
    pool: MAX
    kernel_h: 2
    kernel_w: 1
    stride_h: 2
    stride_w: 1
  }
}
layer {
  name: "conv_u3"
  type: "Convolution"
  bottom: "pool_u2"
  top: "conv_u3"
  convolution_param {
    num_output: 28
    pad: 0
    stride: 1
    weight_filler {
      type: "xavier"
    }
    bias_filler {
      type: "constant"
    }
    kernel_h: 6
    kernel_w: 3
  }
}
layer {
  name: "relu_u3"
  type: "ReLU"
  bottom: "conv_u3"
  top: "conv_u3"
}
layer {
  name: "pool_u3"
  type: "Pooling"
  bottom: "conv_u3"
  top: "pool_u3"
  pooling_param {
    pool: MAX
    kernel_h: 2
    kernel_w: 1
    stride_h: 2
    stride_w: 1
  }
}
layer {
  name: "conv_u4"
  type: "Convolution"
  bottom: "pool_u3"
  top: "conv_u4"
  convolution_param {
    num_output: 36
    pad: 0
    stride: 1
    weight_filler {
      type: "xavier"
    }
    bias_filler {
      type: "constant"
    }
    kernel_h: 6
    kernel_w: 3
  }
}
layer {
  name: "relu_u4"
  type: "ReLU"
  bottom: "conv_u4"
  top: "conv_u4"
}
layer {
  name: "pool_u4"
  type: "Pooling"
  bottom: "conv_u4"
  top: "pool_u4"
  pooling_param {
    pool: MAX
    kernel_h: 2
    kernel_w: 1
    stride_h: 2
    stride_w: 1
  }
}
layer {
  name: "dl_u1"
  type: "InnerProduct"
  bottom: "pool_u4"
  top: "dl_u1"
  inner_product_param {
    num_output: 196
    weight_filler {
      type: "xavier"
    }
    bias_filler {
      type: "constant"
    }
  }
}
layer {
  name: "relu_u5"
  type: "ReLU"
  bottom: "dl_u1"
  top: "dl_u1"
}
layer {
  name: "drop_u1"
  type: "Dropout"
  bottom: "dl_u1"
  top: "dl_u1"
  dropout_param {
    dropout_ratio: 0.5
  }
}
layer {
  name: "conv_v1"
  type: "Convolution"
  bottom: "hits-v"
  top: "conv_v1"
  convolution_param {
    num_output: 12
    pad: 0
    stride: 1
    weight_filler {
      type: "xavier"
    }
    bias_filler {
      type: "constant"
    }
    kernel_h: 8
    kernel_w: 3
  }
}
layer {
  name: "relu_v1"
  type: "ReLU"
  bottom: "conv_v1"
  top: "conv_v1"
}
layer {
  name: "pool_v1"
  type: "Pooling"
  bottom: "conv_v1"
  top: "pool_v1"
  pooling_param {
    pool: MAX
    kernel_h: 2
    kernel_w: 1
    stride_h: 2
    stride_w: 1
  }
}
layer {
  name: "conv_v2"
  type: "Convolution"
  bottom: "pool_v1"
  top: "conv_v2"
  convolution_param {
    num_output: 20
    pad: 0
    stride: 1
    weight_filler {
      type: "xavier"
    }
    bias_filler {
      type: "constant"
    }
    kernel_h: 7
    kernel_w: 3
  }
}
layer {
  name: "relu_v2"
  type: "ReLU"
  bottom: "conv_v2"
  top: "conv_v2"
}
layer {
  name: "pool_v2"
  type: "Pooling"
  bottom: "conv_v2"
  top: "pool_v2"
  pooling_param {
    pool: MAX
    kernel_h: 2
    kernel_w: 1
    stride_h: 2
    stride_w: 1
  }
}
layer {
  name: "conv_v3"
  type: "Convolution"
  bottom: "pool_v2"
  top: "conv_v3"
  convolution_param {
    num_output: 28
    pad: 0
    stride: 1
    weight_filler {
      type: "xavier"
    }
    bias_filler {
      type: "constant"
    }
    kernel_h: 6
    kernel_w: 3
  }
}
layer {
  name: "relu_v3"
  type: "ReLU"
  bottom: "conv_v3"
  top: "conv_v3"
}
layer {
  name: "pool_v3"
  type: "Pooling"
  bottom: "conv_v3"
  top: "pool_v3"
  pooling_param {
    pool: MAX
    kernel_h: 2
    kernel_w: 1
    stride_h: 2
    stride_w: 1
  }
}
layer {
  name: "conv_v4"
  type: "Convolution"
  bottom: "pool_v3"
  top: "conv_v4"
  convolution_param {
    num_output: 36
    pad: 0
    stride: 1
    weight_filler {
      type: "xavier"
    }
    bias_filler {
      type: "constant"
    }
    kernel_h: 6
    kernel_w: 3
  }
}
layer {
  name: "relu_v4"
  type: "ReLU"
  bottom: "conv_v4"
  top: "conv_v4"
}
layer {
  name: "pool_v4"
  type: "Pooling"
  bottom: "conv_v4"
  top: "pool_v4"
  pooling_param {
    pool: MAX
    kernel_h: 2
    kernel_w: 1
    stride_h: 2
    stride_w: 1
  }
}
layer {
  name: "dl_v1"
  type: "InnerProduct"
  bottom: "pool_v4"
  top: "dl_v1"
  inner_product_param {
    num_output: 196
    weight_filler {
      type: "xavier"
    }
    bias_filler {
      type: "constant"
    }
  }
}
layer {
  name: "relu_v5"
  type: "ReLU"
  bottom: "dl_v1"
  top: "dl_v1"
}
layer {
  name: "drop_v1"
  type: "Dropout"
  bottom: "dl_v1"
  top: "dl_v1"
  dropout_param {
    dropout_ratio: 0.5
  }
}
layer {
  name: "concat_xuv"
  type: "Concat"
  bottom: "dl_x1"
  bottom: "dl_u1"
  bottom: "dl_v1"
  top: "concat_xuv"
  concat_param {
    axis: 1
  }
}
layer {
  name: "dl_xuv"
  type: "InnerProduct"
  bottom: "concat_xuv"
  top: "dl_xuv"
  inner_product_param {
    num_output: 98
    weight_filler {
      type: "xavier"
    }
    bias_filler {
      type: "constant"
    }
  }
}
layer {
  name: "relu_xuv"
  type: "ReLU"
  bottom: "dl_xuv"
  top: "dl_xuv"
}
layer {
  name: "drop_xuv"
  type: "Dropout"
  bottom: "dl_xuv"
  top: "dl_xuv"
  dropout_param {
    dropout_ratio: 0.5
  }
}
layer {
  name: "output"
  type: "InnerProduct"
  bottom: "dl_xuv"
  top: "output"
  inner_product_param {
    num_output: 11
    weight_filler {
      type: "xavier"
    }
    bias_filler {
      type: "constant"
    }
  }
}
layer {
  name: "drop_output"
  type: "Dropout"
  bottom: "output"
  top: "output"
  dropout_param {
    dropout_ratio: 0.5
  }
}
layer {
  name: "accuracy"
  type: "Accuracy"
  bottom: "output"
  bottom: "segments"
  top: "accuracy"
  include {
    phase: TEST
  }
}
layer {
  name: "loss"
  type: "SoftmaxWithLoss"
  bottom: "output"
  bottom: "segments"
  top: "loss"
}
I0529 18:26:11.088559 23517 layer_factory.hpp:77] Creating layer data
I0529 18:26:11.088575 23517 net.cpp:106] Creating Layer data
I0529 18:26:11.088587 23517 net.cpp:411] data -> hits-x
I0529 18:26:11.088604 23517 net.cpp:411] data -> hits-u
I0529 18:26:11.088619 23517 net.cpp:411] data -> hits-v
I0529 18:26:11.088635 23517 net.cpp:411] data -> segments
I0529 18:26:11.088650 23517 hdf5_data_layer.cpp:79] Loading list of HDF5 filenames from: /lustre/atlas/proj-shared/hep105/caffe_titan/xuv/epsilon_127x50_xuv.testlist
I0529 18:26:11.090127 23517 hdf5_data_layer.cpp:93] Number of HDF5 files: 3
I0529 18:27:15.164024 23517 net.cpp:150] Setting up data
I0529 18:27:15.164183 23517 net.cpp:157] Top shape: 100 1 127 50 (635000)
I0529 18:27:15.164198 23517 net.cpp:157] Top shape: 100 1 127 50 (635000)
I0529 18:27:15.164212 23517 net.cpp:157] Top shape: 100 1 127 50 (635000)
I0529 18:27:15.164224 23517 net.cpp:157] Top shape: 100 (100)
I0529 18:27:15.164234 23517 net.cpp:165] Memory required for data: 7620400
I0529 18:27:15.164247 23517 layer_factory.hpp:77] Creating layer segments_data_3_split
I0529 18:27:15.164274 23517 net.cpp:106] Creating Layer segments_data_3_split
I0529 18:27:15.164284 23517 net.cpp:454] segments_data_3_split <- segments
I0529 18:27:15.164299 23517 net.cpp:411] segments_data_3_split -> segments_data_3_split_0
I0529 18:27:15.164319 23517 net.cpp:411] segments_data_3_split -> segments_data_3_split_1
I0529 18:27:15.164397 23517 net.cpp:150] Setting up segments_data_3_split
I0529 18:27:15.164410 23517 net.cpp:157] Top shape: 100 (100)
I0529 18:27:15.164422 23517 net.cpp:157] Top shape: 100 (100)
I0529 18:27:15.164430 23517 net.cpp:165] Memory required for data: 7621200
I0529 18:27:15.164440 23517 layer_factory.hpp:77] Creating layer conv_x1
I0529 18:27:15.164464 23517 net.cpp:106] Creating Layer conv_x1
I0529 18:27:15.164474 23517 net.cpp:454] conv_x1 <- hits-x
I0529 18:27:15.164489 23517 net.cpp:411] conv_x1 -> conv_x1
I0529 18:27:15.166687 23517 net.cpp:150] Setting up conv_x1
I0529 18:27:15.166712 23517 net.cpp:157] Top shape: 100 12 120 48 (6912000)
I0529 18:27:15.166723 23517 net.cpp:165] Memory required for data: 35269200
I0529 18:27:15.166744 23517 layer_factory.hpp:77] Creating layer relu_x1
I0529 18:27:15.166759 23517 net.cpp:106] Creating Layer relu_x1
I0529 18:27:15.166769 23517 net.cpp:454] relu_x1 <- conv_x1
I0529 18:27:15.166781 23517 net.cpp:397] relu_x1 -> conv_x1 (in-place)
I0529 18:27:15.167295 23517 net.cpp:150] Setting up relu_x1
I0529 18:27:15.167312 23517 net.cpp:157] Top shape: 100 12 120 48 (6912000)
I0529 18:27:15.167322 23517 net.cpp:165] Memory required for data: 62917200
I0529 18:27:15.167333 23517 layer_factory.hpp:77] Creating layer pool_x1
I0529 18:27:15.167349 23517 net.cpp:106] Creating Layer pool_x1
I0529 18:27:15.167359 23517 net.cpp:454] pool_x1 <- conv_x1
I0529 18:27:15.167372 23517 net.cpp:411] pool_x1 -> pool_x1
I0529 18:27:15.167454 23517 net.cpp:150] Setting up pool_x1
I0529 18:27:15.167467 23517 net.cpp:157] Top shape: 100 12 60 48 (3456000)
I0529 18:27:15.167477 23517 net.cpp:165] Memory required for data: 76741200
I0529 18:27:15.167487 23517 layer_factory.hpp:77] Creating layer conv_x2
I0529 18:27:15.167505 23517 net.cpp:106] Creating Layer conv_x2
I0529 18:27:15.167515 23517 net.cpp:454] conv_x2 <- pool_x1
I0529 18:27:15.167531 23517 net.cpp:411] conv_x2 -> conv_x2
I0529 18:27:15.169405 23517 net.cpp:150] Setting up conv_x2
I0529 18:27:15.169428 23517 net.cpp:157] Top shape: 100 20 54 46 (4968000)
I0529 18:27:15.169440 23517 net.cpp:165] Memory required for data: 96613200
I0529 18:27:15.169458 23517 layer_factory.hpp:77] Creating layer relu_x2
I0529 18:27:15.169472 23517 net.cpp:106] Creating Layer relu_x2
I0529 18:27:15.169482 23517 net.cpp:454] relu_x2 <- conv_x2
I0529 18:27:15.169495 23517 net.cpp:397] relu_x2 -> conv_x2 (in-place)
I0529 18:27:15.170001 23517 net.cpp:150] Setting up relu_x2
I0529 18:27:15.170017 23517 net.cpp:157] Top shape: 100 20 54 46 (4968000)
I0529 18:27:15.170027 23517 net.cpp:165] Memory required for data: 116485200
I0529 18:27:15.170038 23517 layer_factory.hpp:77] Creating layer pool_x2
I0529 18:27:15.170052 23517 net.cpp:106] Creating Layer pool_x2
I0529 18:27:15.170061 23517 net.cpp:454] pool_x2 <- conv_x2
I0529 18:27:15.170075 23517 net.cpp:411] pool_x2 -> pool_x2
I0529 18:27:15.170153 23517 net.cpp:150] Setting up pool_x2
I0529 18:27:15.170166 23517 net.cpp:157] Top shape: 100 20 27 46 (2484000)
I0529 18:27:15.170176 23517 net.cpp:165] Memory required for data: 126421200
I0529 18:27:15.170187 23517 layer_factory.hpp:77] Creating layer conv_x3
I0529 18:27:15.170207 23517 net.cpp:106] Creating Layer conv_x3
I0529 18:27:15.170217 23517 net.cpp:454] conv_x3 <- pool_x2
I0529 18:27:15.170240 23517 net.cpp:411] conv_x3 -> conv_x3
I0529 18:27:15.172485 23517 net.cpp:150] Setting up conv_x3
I0529 18:27:15.172503 23517 net.cpp:157] Top shape: 100 28 22 44 (2710400)
I0529 18:27:15.172514 23517 net.cpp:165] Memory required for data: 137262800
I0529 18:27:15.172533 23517 layer_factory.hpp:77] Creating layer relu_x3
I0529 18:27:15.172546 23517 net.cpp:106] Creating Layer relu_x3
I0529 18:27:15.172556 23517 net.cpp:454] relu_x3 <- conv_x3
I0529 18:27:15.172569 23517 net.cpp:397] relu_x3 -> conv_x3 (in-place)
I0529 18:27:15.172916 23517 net.cpp:150] Setting up relu_x3
I0529 18:27:15.172930 23517 net.cpp:157] Top shape: 100 28 22 44 (2710400)
I0529 18:27:15.172941 23517 net.cpp:165] Memory required for data: 148104400
I0529 18:27:15.172951 23517 layer_factory.hpp:77] Creating layer pool_x3
I0529 18:27:15.172965 23517 net.cpp:106] Creating Layer pool_x3
I0529 18:27:15.172973 23517 net.cpp:454] pool_x3 <- conv_x3
I0529 18:27:15.172987 23517 net.cpp:411] pool_x3 -> pool_x3
I0529 18:27:15.173066 23517 net.cpp:150] Setting up pool_x3
I0529 18:27:15.173080 23517 net.cpp:157] Top shape: 100 28 11 44 (1355200)
I0529 18:27:15.173089 23517 net.cpp:165] Memory required for data: 153525200
I0529 18:27:15.173099 23517 layer_factory.hpp:77] Creating layer conv_x4
I0529 18:27:15.173117 23517 net.cpp:106] Creating Layer conv_x4
I0529 18:27:15.173127 23517 net.cpp:454] conv_x4 <- pool_x3
I0529 18:27:15.173142 23517 net.cpp:411] conv_x4 -> conv_x4
I0529 18:27:15.175320 23517 net.cpp:150] Setting up conv_x4
I0529 18:27:15.175343 23517 net.cpp:157] Top shape: 100 36 6 42 (907200)
I0529 18:27:15.175355 23517 net.cpp:165] Memory required for data: 157154000
I0529 18:27:15.175370 23517 layer_factory.hpp:77] Creating layer relu_x4
I0529 18:27:15.175384 23517 net.cpp:106] Creating Layer relu_x4
I0529 18:27:15.175395 23517 net.cpp:454] relu_x4 <- conv_x4
I0529 18:27:15.175407 23517 net.cpp:397] relu_x4 -> conv_x4 (in-place)
I0529 18:27:15.175899 23517 net.cpp:150] Setting up relu_x4
I0529 18:27:15.175915 23517 net.cpp:157] Top shape: 100 36 6 42 (907200)
I0529 18:27:15.175925 23517 net.cpp:165] Memory required for data: 160782800
I0529 18:27:15.175935 23517 layer_factory.hpp:77] Creating layer pool_x4
I0529 18:27:15.175948 23517 net.cpp:106] Creating Layer pool_x4
I0529 18:27:15.175958 23517 net.cpp:454] pool_x4 <- conv_x4
I0529 18:27:15.175971 23517 net.cpp:411] pool_x4 -> pool_x4
I0529 18:27:15.176049 23517 net.cpp:150] Setting up pool_x4
I0529 18:27:15.176062 23517 net.cpp:157] Top shape: 100 36 3 42 (453600)
I0529 18:27:15.176071 23517 net.cpp:165] Memory required for data: 162597200
I0529 18:27:15.176081 23517 layer_factory.hpp:77] Creating layer dl_x1
I0529 18:27:15.176097 23517 net.cpp:106] Creating Layer dl_x1
I0529 18:27:15.176107 23517 net.cpp:454] dl_x1 <- pool_x4
I0529 18:27:15.176121 23517 net.cpp:411] dl_x1 -> dl_x1
I0529 18:27:15.192402 23517 net.cpp:150] Setting up dl_x1
I0529 18:27:15.192425 23517 net.cpp:157] Top shape: 100 196 (19600)
I0529 18:27:15.192435 23517 net.cpp:165] Memory required for data: 162675600
I0529 18:27:15.192459 23517 layer_factory.hpp:77] Creating layer relu_x5
I0529 18:27:15.192474 23517 net.cpp:106] Creating Layer relu_x5
I0529 18:27:15.192484 23517 net.cpp:454] relu_x5 <- dl_x1
I0529 18:27:15.192498 23517 net.cpp:397] relu_x5 -> dl_x1 (in-place)
I0529 18:27:15.192860 23517 net.cpp:150] Setting up relu_x5
I0529 18:27:15.192874 23517 net.cpp:157] Top shape: 100 196 (19600)
I0529 18:27:15.192884 23517 net.cpp:165] Memory required for data: 162754000
I0529 18:27:15.192894 23517 layer_factory.hpp:77] Creating layer drop_x1
I0529 18:27:15.192914 23517 net.cpp:106] Creating Layer drop_x1
I0529 18:27:15.192924 23517 net.cpp:454] drop_x1 <- dl_x1
I0529 18:27:15.192936 23517 net.cpp:397] drop_x1 -> dl_x1 (in-place)
I0529 18:27:15.192984 23517 net.cpp:150] Setting up drop_x1
I0529 18:27:15.192998 23517 net.cpp:157] Top shape: 100 196 (19600)
I0529 18:27:15.193008 23517 net.cpp:165] Memory required for data: 162832400
I0529 18:27:15.193018 23517 layer_factory.hpp:77] Creating layer conv_u1
I0529 18:27:15.193037 23517 net.cpp:106] Creating Layer conv_u1
I0529 18:27:15.193059 23517 net.cpp:454] conv_u1 <- hits-u
I0529 18:27:15.193073 23517 net.cpp:411] conv_u1 -> conv_u1
I0529 18:27:15.195070 23517 net.cpp:150] Setting up conv_u1
I0529 18:27:15.195093 23517 net.cpp:157] Top shape: 100 12 120 48 (6912000)
I0529 18:27:15.195106 23517 net.cpp:165] Memory required for data: 190480400
I0529 18:27:15.195122 23517 layer_factory.hpp:77] Creating layer relu_u1
I0529 18:27:15.195135 23517 net.cpp:106] Creating Layer relu_u1
I0529 18:27:15.195145 23517 net.cpp:454] relu_u1 <- conv_u1
I0529 18:27:15.195158 23517 net.cpp:397] relu_u1 -> conv_u1 (in-place)
I0529 18:27:15.195492 23517 net.cpp:150] Setting up relu_u1
I0529 18:27:15.195507 23517 net.cpp:157] Top shape: 100 12 120 48 (6912000)
I0529 18:27:15.195516 23517 net.cpp:165] Memory required for data: 218128400
I0529 18:27:15.195526 23517 layer_factory.hpp:77] Creating layer pool_u1
I0529 18:27:15.195540 23517 net.cpp:106] Creating Layer pool_u1
I0529 18:27:15.195550 23517 net.cpp:454] pool_u1 <- conv_u1
I0529 18:27:15.195564 23517 net.cpp:411] pool_u1 -> pool_u1
I0529 18:27:15.195648 23517 net.cpp:150] Setting up pool_u1
I0529 18:27:15.195662 23517 net.cpp:157] Top shape: 100 12 60 48 (3456000)
I0529 18:27:15.195672 23517 net.cpp:165] Memory required for data: 231952400
I0529 18:27:15.195679 23517 layer_factory.hpp:77] Creating layer conv_u2
I0529 18:27:15.195698 23517 net.cpp:106] Creating Layer conv_u2
I0529 18:27:15.195708 23517 net.cpp:454] conv_u2 <- pool_u1
I0529 18:27:15.195724 23517 net.cpp:411] conv_u2 -> conv_u2
I0529 18:27:15.197676 23517 net.cpp:150] Setting up conv_u2
I0529 18:27:15.197698 23517 net.cpp:157] Top shape: 100 20 54 46 (4968000)
I0529 18:27:15.197710 23517 net.cpp:165] Memory required for data: 251824400
I0529 18:27:15.197726 23517 layer_factory.hpp:77] Creating layer relu_u2
I0529 18:27:15.197739 23517 net.cpp:106] Creating Layer relu_u2
I0529 18:27:15.197749 23517 net.cpp:454] relu_u2 <- conv_u2
I0529 18:27:15.197762 23517 net.cpp:397] relu_u2 -> conv_u2 (in-place)
I0529 18:27:15.198266 23517 net.cpp:150] Setting up relu_u2
I0529 18:27:15.198282 23517 net.cpp:157] Top shape: 100 20 54 46 (4968000)
I0529 18:27:15.198292 23517 net.cpp:165] Memory required for data: 271696400
I0529 18:27:15.198302 23517 layer_factory.hpp:77] Creating layer pool_u2
I0529 18:27:15.198317 23517 net.cpp:106] Creating Layer pool_u2
I0529 18:27:15.198326 23517 net.cpp:454] pool_u2 <- conv_u2
I0529 18:27:15.198340 23517 net.cpp:411] pool_u2 -> pool_u2
I0529 18:27:15.198418 23517 net.cpp:150] Setting up pool_u2
I0529 18:27:15.198432 23517 net.cpp:157] Top shape: 100 20 27 46 (2484000)
I0529 18:27:15.198441 23517 net.cpp:165] Memory required for data: 281632400
I0529 18:27:15.198449 23517 layer_factory.hpp:77] Creating layer conv_u3
I0529 18:27:15.198468 23517 net.cpp:106] Creating Layer conv_u3
I0529 18:27:15.198479 23517 net.cpp:454] conv_u3 <- pool_u2
I0529 18:27:15.198494 23517 net.cpp:411] conv_u3 -> conv_u3
I0529 18:27:15.200523 23517 net.cpp:150] Setting up conv_u3
I0529 18:27:15.200541 23517 net.cpp:157] Top shape: 100 28 22 44 (2710400)
I0529 18:27:15.200553 23517 net.cpp:165] Memory required for data: 292474000
I0529 18:27:15.200569 23517 layer_factory.hpp:77] Creating layer relu_u3
I0529 18:27:15.200582 23517 net.cpp:106] Creating Layer relu_u3
I0529 18:27:15.200592 23517 net.cpp:454] relu_u3 <- conv_u3
I0529 18:27:15.200605 23517 net.cpp:397] relu_u3 -> conv_u3 (in-place)
I0529 18:27:15.200935 23517 net.cpp:150] Setting up relu_u3
I0529 18:27:15.200949 23517 net.cpp:157] Top shape: 100 28 22 44 (2710400)
I0529 18:27:15.200959 23517 net.cpp:165] Memory required for data: 303315600
I0529 18:27:15.200969 23517 layer_factory.hpp:77] Creating layer pool_u3
I0529 18:27:15.200983 23517 net.cpp:106] Creating Layer pool_u3
I0529 18:27:15.200992 23517 net.cpp:454] pool_u3 <- conv_u3
I0529 18:27:15.201005 23517 net.cpp:411] pool_u3 -> pool_u3
I0529 18:27:15.201082 23517 net.cpp:150] Setting up pool_u3
I0529 18:27:15.201095 23517 net.cpp:157] Top shape: 100 28 11 44 (1355200)
I0529 18:27:15.201104 23517 net.cpp:165] Memory required for data: 308736400
I0529 18:27:15.201125 23517 layer_factory.hpp:77] Creating layer conv_u4
I0529 18:27:15.201144 23517 net.cpp:106] Creating Layer conv_u4
I0529 18:27:15.201154 23517 net.cpp:454] conv_u4 <- pool_u3
I0529 18:27:15.201169 23517 net.cpp:411] conv_u4 -> conv_u4
I0529 18:27:15.203351 23517 net.cpp:150] Setting up conv_u4
I0529 18:27:15.203373 23517 net.cpp:157] Top shape: 100 36 6 42 (907200)
I0529 18:27:15.203387 23517 net.cpp:165] Memory required for data: 312365200
I0529 18:27:15.203410 23517 layer_factory.hpp:77] Creating layer relu_u4
I0529 18:27:15.203423 23517 net.cpp:106] Creating Layer relu_u4
I0529 18:27:15.203433 23517 net.cpp:454] relu_u4 <- conv_u4
I0529 18:27:15.203447 23517 net.cpp:397] relu_u4 -> conv_u4 (in-place)
I0529 18:27:15.203781 23517 net.cpp:150] Setting up relu_u4
I0529 18:27:15.203795 23517 net.cpp:157] Top shape: 100 36 6 42 (907200)
I0529 18:27:15.203805 23517 net.cpp:165] Memory required for data: 315994000
I0529 18:27:15.203815 23517 layer_factory.hpp:77] Creating layer pool_u4
I0529 18:27:15.203829 23517 net.cpp:106] Creating Layer pool_u4
I0529 18:27:15.203838 23517 net.cpp:454] pool_u4 <- conv_u4
I0529 18:27:15.203851 23517 net.cpp:411] pool_u4 -> pool_u4
I0529 18:27:15.203927 23517 net.cpp:150] Setting up pool_u4
I0529 18:27:15.203941 23517 net.cpp:157] Top shape: 100 36 3 42 (453600)
I0529 18:27:15.203950 23517 net.cpp:165] Memory required for data: 317808400
I0529 18:27:15.203960 23517 layer_factory.hpp:77] Creating layer dl_u1
I0529 18:27:15.203976 23517 net.cpp:106] Creating Layer dl_u1
I0529 18:27:15.203987 23517 net.cpp:454] dl_u1 <- pool_u4
I0529 18:27:15.204000 23517 net.cpp:411] dl_u1 -> dl_u1
I0529 18:27:15.220301 23517 net.cpp:150] Setting up dl_u1
I0529 18:27:15.220324 23517 net.cpp:157] Top shape: 100 196 (19600)
I0529 18:27:15.220335 23517 net.cpp:165] Memory required for data: 317886800
I0529 18:27:15.220350 23517 layer_factory.hpp:77] Creating layer relu_u5
I0529 18:27:15.220366 23517 net.cpp:106] Creating Layer relu_u5
I0529 18:27:15.220376 23517 net.cpp:454] relu_u5 <- dl_u1
I0529 18:27:15.220389 23517 net.cpp:397] relu_u5 -> dl_u1 (in-place)
I0529 18:27:15.220968 23517 net.cpp:150] Setting up relu_u5
I0529 18:27:15.220990 23517 net.cpp:157] Top shape: 100 196 (19600)
I0529 18:27:15.221002 23517 net.cpp:165] Memory required for data: 317965200
I0529 18:27:15.221012 23517 layer_factory.hpp:77] Creating layer drop_u1
I0529 18:27:15.221026 23517 net.cpp:106] Creating Layer drop_u1
I0529 18:27:15.221037 23517 net.cpp:454] drop_u1 <- dl_u1
I0529 18:27:15.221050 23517 net.cpp:397] drop_u1 -> dl_u1 (in-place)
I0529 18:27:15.221098 23517 net.cpp:150] Setting up drop_u1
I0529 18:27:15.221112 23517 net.cpp:157] Top shape: 100 196 (19600)
I0529 18:27:15.221122 23517 net.cpp:165] Memory required for data: 318043600
I0529 18:27:15.221132 23517 layer_factory.hpp:77] Creating layer conv_v1
I0529 18:27:15.221160 23517 net.cpp:106] Creating Layer conv_v1
I0529 18:27:15.221171 23517 net.cpp:454] conv_v1 <- hits-v
I0529 18:27:15.221185 23517 net.cpp:411] conv_v1 -> conv_v1
I0529 18:27:15.223132 23517 net.cpp:150] Setting up conv_v1
I0529 18:27:15.223155 23517 net.cpp:157] Top shape: 100 12 120 48 (6912000)
I0529 18:27:15.223167 23517 net.cpp:165] Memory required for data: 345691600
I0529 18:27:15.223183 23517 layer_factory.hpp:77] Creating layer relu_v1
I0529 18:27:15.223196 23517 net.cpp:106] Creating Layer relu_v1
I0529 18:27:15.223206 23517 net.cpp:454] relu_v1 <- conv_v1
I0529 18:27:15.223219 23517 net.cpp:397] relu_v1 -> conv_v1 (in-place)
I0529 18:27:15.223556 23517 net.cpp:150] Setting up relu_v1
I0529 18:27:15.223570 23517 net.cpp:157] Top shape: 100 12 120 48 (6912000)
I0529 18:27:15.223580 23517 net.cpp:165] Memory required for data: 373339600
I0529 18:27:15.223590 23517 layer_factory.hpp:77] Creating layer pool_v1
I0529 18:27:15.223604 23517 net.cpp:106] Creating Layer pool_v1
I0529 18:27:15.223613 23517 net.cpp:454] pool_v1 <- conv_v1
I0529 18:27:15.223628 23517 net.cpp:411] pool_v1 -> pool_v1
I0529 18:27:15.223707 23517 net.cpp:150] Setting up pool_v1
I0529 18:27:15.223737 23517 net.cpp:157] Top shape: 100 12 60 48 (3456000)
I0529 18:27:15.223747 23517 net.cpp:165] Memory required for data: 387163600
I0529 18:27:15.223758 23517 layer_factory.hpp:77] Creating layer conv_v2
I0529 18:27:15.223776 23517 net.cpp:106] Creating Layer conv_v2
I0529 18:27:15.223788 23517 net.cpp:454] conv_v2 <- pool_v1
I0529 18:27:15.223801 23517 net.cpp:411] conv_v2 -> conv_v2
I0529 18:27:15.225805 23517 net.cpp:150] Setting up conv_v2
I0529 18:27:15.225828 23517 net.cpp:157] Top shape: 100 20 54 46 (4968000)
I0529 18:27:15.225841 23517 net.cpp:165] Memory required for data: 407035600
I0529 18:27:15.225855 23517 layer_factory.hpp:77] Creating layer relu_v2
I0529 18:27:15.225869 23517 net.cpp:106] Creating Layer relu_v2
I0529 18:27:15.225879 23517 net.cpp:454] relu_v2 <- conv_v2
I0529 18:27:15.225893 23517 net.cpp:397] relu_v2 -> conv_v2 (in-place)
I0529 18:27:15.226395 23517 net.cpp:150] Setting up relu_v2
I0529 18:27:15.226411 23517 net.cpp:157] Top shape: 100 20 54 46 (4968000)
I0529 18:27:15.226421 23517 net.cpp:165] Memory required for data: 426907600
I0529 18:27:15.226431 23517 layer_factory.hpp:77] Creating layer pool_v2
I0529 18:27:15.226445 23517 net.cpp:106] Creating Layer pool_v2
I0529 18:27:15.226455 23517 net.cpp:454] pool_v2 <- conv_v2
I0529 18:27:15.226469 23517 net.cpp:411] pool_v2 -> pool_v2
I0529 18:27:15.226548 23517 net.cpp:150] Setting up pool_v2
I0529 18:27:15.226562 23517 net.cpp:157] Top shape: 100 20 27 46 (2484000)
I0529 18:27:15.226573 23517 net.cpp:165] Memory required for data: 436843600
I0529 18:27:15.226583 23517 layer_factory.hpp:77] Creating layer conv_v3
I0529 18:27:15.226601 23517 net.cpp:106] Creating Layer conv_v3
I0529 18:27:15.226611 23517 net.cpp:454] conv_v3 <- pool_v2
I0529 18:27:15.226626 23517 net.cpp:411] conv_v3 -> conv_v3
I0529 18:27:15.228710 23517 net.cpp:150] Setting up conv_v3
I0529 18:27:15.228732 23517 net.cpp:157] Top shape: 100 28 22 44 (2710400)
I0529 18:27:15.228745 23517 net.cpp:165] Memory required for data: 447685200
I0529 18:27:15.228761 23517 layer_factory.hpp:77] Creating layer relu_v3
I0529 18:27:15.228775 23517 net.cpp:106] Creating Layer relu_v3
I0529 18:27:15.228785 23517 net.cpp:454] relu_v3 <- conv_v3
I0529 18:27:15.228798 23517 net.cpp:397] relu_v3 -> conv_v3 (in-place)
I0529 18:27:15.229292 23517 net.cpp:150] Setting up relu_v3
I0529 18:27:15.229308 23517 net.cpp:157] Top shape: 100 28 22 44 (2710400)
I0529 18:27:15.229318 23517 net.cpp:165] Memory required for data: 458526800
I0529 18:27:15.229328 23517 layer_factory.hpp:77] Creating layer pool_v3
I0529 18:27:15.229341 23517 net.cpp:106] Creating Layer pool_v3
I0529 18:27:15.229351 23517 net.cpp:454] pool_v3 <- conv_v3
I0529 18:27:15.229365 23517 net.cpp:411] pool_v3 -> pool_v3
I0529 18:27:15.229444 23517 net.cpp:150] Setting up pool_v3
I0529 18:27:15.229457 23517 net.cpp:157] Top shape: 100 28 11 44 (1355200)
I0529 18:27:15.229468 23517 net.cpp:165] Memory required for data: 463947600
I0529 18:27:15.229480 23517 layer_factory.hpp:77] Creating layer conv_v4
I0529 18:27:15.229499 23517 net.cpp:106] Creating Layer conv_v4
I0529 18:27:15.229509 23517 net.cpp:454] conv_v4 <- pool_v3
I0529 18:27:15.229523 23517 net.cpp:411] conv_v4 -> conv_v4
I0529 18:27:15.231703 23517 net.cpp:150] Setting up conv_v4
I0529 18:27:15.231731 23517 net.cpp:157] Top shape: 100 36 6 42 (907200)
I0529 18:27:15.231741 23517 net.cpp:165] Memory required for data: 467576400
I0529 18:27:15.231757 23517 layer_factory.hpp:77] Creating layer relu_v4
I0529 18:27:15.231771 23517 net.cpp:106] Creating Layer relu_v4
I0529 18:27:15.231781 23517 net.cpp:454] relu_v4 <- conv_v4
I0529 18:27:15.231794 23517 net.cpp:397] relu_v4 -> conv_v4 (in-place)
I0529 18:27:15.232125 23517 net.cpp:150] Setting up relu_v4
I0529 18:27:15.232138 23517 net.cpp:157] Top shape: 100 36 6 42 (907200)
I0529 18:27:15.232148 23517 net.cpp:165] Memory required for data: 471205200
I0529 18:27:15.232158 23517 layer_factory.hpp:77] Creating layer pool_v4
I0529 18:27:15.232170 23517 net.cpp:106] Creating Layer pool_v4
I0529 18:27:15.232192 23517 net.cpp:454] pool_v4 <- conv_v4
I0529 18:27:15.232205 23517 net.cpp:411] pool_v4 -> pool_v4
I0529 18:27:15.232285 23517 net.cpp:150] Setting up pool_v4
I0529 18:27:15.232297 23517 net.cpp:157] Top shape: 100 36 3 42 (453600)
I0529 18:27:15.232307 23517 net.cpp:165] Memory required for data: 473019600
I0529 18:27:15.232316 23517 layer_factory.hpp:77] Creating layer dl_v1
I0529 18:27:15.232329 23517 net.cpp:106] Creating Layer dl_v1
I0529 18:27:15.232341 23517 net.cpp:454] dl_v1 <- pool_v4
I0529 18:27:15.232354 23517 net.cpp:411] dl_v1 -> dl_v1
I0529 18:27:15.248674 23517 net.cpp:150] Setting up dl_v1
I0529 18:27:15.248703 23517 net.cpp:157] Top shape: 100 196 (19600)
I0529 18:27:15.248716 23517 net.cpp:165] Memory required for data: 473098000
I0529 18:27:15.248733 23517 layer_factory.hpp:77] Creating layer relu_v5
I0529 18:27:15.248747 23517 net.cpp:106] Creating Layer relu_v5
I0529 18:27:15.248759 23517 net.cpp:454] relu_v5 <- dl_v1
I0529 18:27:15.248771 23517 net.cpp:397] relu_v5 -> dl_v1 (in-place)
I0529 18:27:15.249358 23517 net.cpp:150] Setting up relu_v5
I0529 18:27:15.249380 23517 net.cpp:157] Top shape: 100 196 (19600)
I0529 18:27:15.249392 23517 net.cpp:165] Memory required for data: 473176400
I0529 18:27:15.249402 23517 layer_factory.hpp:77] Creating layer drop_v1
I0529 18:27:15.249416 23517 net.cpp:106] Creating Layer drop_v1
I0529 18:27:15.249428 23517 net.cpp:454] drop_v1 <- dl_v1
I0529 18:27:15.249440 23517 net.cpp:397] drop_v1 -> dl_v1 (in-place)
I0529 18:27:15.249490 23517 net.cpp:150] Setting up drop_v1
I0529 18:27:15.249502 23517 net.cpp:157] Top shape: 100 196 (19600)
I0529 18:27:15.249513 23517 net.cpp:165] Memory required for data: 473254800
I0529 18:27:15.249523 23517 layer_factory.hpp:77] Creating layer concat_xuv
I0529 18:27:15.249537 23517 net.cpp:106] Creating Layer concat_xuv
I0529 18:27:15.249547 23517 net.cpp:454] concat_xuv <- dl_x1
I0529 18:27:15.249559 23517 net.cpp:454] concat_xuv <- dl_u1
I0529 18:27:15.249570 23517 net.cpp:454] concat_xuv <- dl_v1
I0529 18:27:15.249583 23517 net.cpp:411] concat_xuv -> concat_xuv
I0529 18:27:15.249634 23517 net.cpp:150] Setting up concat_xuv
I0529 18:27:15.249647 23517 net.cpp:157] Top shape: 100 588 (58800)
I0529 18:27:15.249656 23517 net.cpp:165] Memory required for data: 473490000
I0529 18:27:15.249666 23517 layer_factory.hpp:77] Creating layer dl_xuv
I0529 18:27:15.249681 23517 net.cpp:106] Creating Layer dl_xuv
I0529 18:27:15.249691 23517 net.cpp:454] dl_xuv <- concat_xuv
I0529 18:27:15.249706 23517 net.cpp:411] dl_xuv -> dl_xuv
I0529 18:27:15.250756 23517 net.cpp:150] Setting up dl_xuv
I0529 18:27:15.250774 23517 net.cpp:157] Top shape: 100 98 (9800)
I0529 18:27:15.250788 23517 net.cpp:165] Memory required for data: 473529200
I0529 18:27:15.250803 23517 layer_factory.hpp:77] Creating layer relu_xuv
I0529 18:27:15.250816 23517 net.cpp:106] Creating Layer relu_xuv
I0529 18:27:15.250825 23517 net.cpp:454] relu_xuv <- dl_xuv
I0529 18:27:15.250838 23517 net.cpp:397] relu_xuv -> dl_xuv (in-place)
I0529 18:27:15.251169 23517 net.cpp:150] Setting up relu_xuv
I0529 18:27:15.251183 23517 net.cpp:157] Top shape: 100 98 (9800)
I0529 18:27:15.251194 23517 net.cpp:165] Memory required for data: 473568400
I0529 18:27:15.251204 23517 layer_factory.hpp:77] Creating layer drop_xuv
I0529 18:27:15.251216 23517 net.cpp:106] Creating Layer drop_xuv
I0529 18:27:15.251226 23517 net.cpp:454] drop_xuv <- dl_xuv
I0529 18:27:15.251240 23517 net.cpp:397] drop_xuv -> dl_xuv (in-place)
I0529 18:27:15.251286 23517 net.cpp:150] Setting up drop_xuv
I0529 18:27:15.251299 23517 net.cpp:157] Top shape: 100 98 (9800)
I0529 18:27:15.251309 23517 net.cpp:165] Memory required for data: 473607600
I0529 18:27:15.251318 23517 layer_factory.hpp:77] Creating layer output
I0529 18:27:15.251332 23517 net.cpp:106] Creating Layer output
I0529 18:27:15.251341 23517 net.cpp:454] output <- dl_xuv
I0529 18:27:15.251355 23517 net.cpp:411] output -> output
I0529 18:27:15.251600 23517 net.cpp:150] Setting up output
I0529 18:27:15.251615 23517 net.cpp:157] Top shape: 100 11 (1100)
I0529 18:27:15.251636 23517 net.cpp:165] Memory required for data: 473612000
I0529 18:27:15.251668 23517 layer_factory.hpp:77] Creating layer drop_output
I0529 18:27:15.251682 23517 net.cpp:106] Creating Layer drop_output
I0529 18:27:15.251693 23517 net.cpp:454] drop_output <- output
I0529 18:27:15.251706 23517 net.cpp:397] drop_output -> output (in-place)
I0529 18:27:15.251752 23517 net.cpp:150] Setting up drop_output
I0529 18:27:15.251765 23517 net.cpp:157] Top shape: 100 11 (1100)
I0529 18:27:15.251775 23517 net.cpp:165] Memory required for data: 473616400
I0529 18:27:15.251785 23517 layer_factory.hpp:77] Creating layer output_drop_output_0_split
I0529 18:27:15.251798 23517 net.cpp:106] Creating Layer output_drop_output_0_split
I0529 18:27:15.251808 23517 net.cpp:454] output_drop_output_0_split <- output
I0529 18:27:15.251822 23517 net.cpp:411] output_drop_output_0_split -> output_drop_output_0_split_0
I0529 18:27:15.251837 23517 net.cpp:411] output_drop_output_0_split -> output_drop_output_0_split_1
I0529 18:27:15.251914 23517 net.cpp:150] Setting up output_drop_output_0_split
I0529 18:27:15.251926 23517 net.cpp:157] Top shape: 100 11 (1100)
I0529 18:27:15.251938 23517 net.cpp:157] Top shape: 100 11 (1100)
I0529 18:27:15.251948 23517 net.cpp:165] Memory required for data: 473625200
I0529 18:27:15.251957 23517 layer_factory.hpp:77] Creating layer accuracy
I0529 18:27:15.251978 23517 net.cpp:106] Creating Layer accuracy
I0529 18:27:15.251988 23517 net.cpp:454] accuracy <- output_drop_output_0_split_0
I0529 18:27:15.252001 23517 net.cpp:454] accuracy <- segments_data_3_split_0
I0529 18:27:15.252014 23517 net.cpp:411] accuracy -> accuracy
…
