…
I0531 17:26:29.726815 27722 net.cpp:322] The NetState phase (0) differed from the phase (1) specified by a rule in layer data
I0531 17:26:29.726903 27722 net.cpp:322] The NetState phase (0) differed from the phase (1) specified by a rule in layer accuracy
I0531 17:26:29.727653 27722 net.cpp:49] Initializing net from parameters: 
name: "epsilon_127x50_xuv"
state {
  phase: TRAIN
}
layer {
  name: "data"
  type: "HDF5Data"
  top: "hits-x"
  top: "hits-u"
  top: "hits-v"
  top: "segments"
  include {
    phase: TRAIN
  }
  hdf5_data_param {
    source: "/lustre/atlas/proj-shared/hep105/caffe_titan/xuv/epsilon_127x50_xuv.trainlist"
    batch_size: 100
  }
}
layer {
  name: "conv_x1"
  type: "Convolution"
  bottom: "hits-x"
  top: "conv_x1"
  convolution_param {
    num_output: 12
    pad: 0
    stride: 1
    weight_filler {
      type: "xavier"
    }
    bias_filler {
      type: "constant"
    }
    kernel_h: 8
    kernel_w: 3
  }
}
layer {
  name: "relu_x1"
  type: "ReLU"
  bottom: "conv_x1"
  top: "conv_x1"
}
layer {
  name: "pool_x1"
  type: "Pooling"
  bottom: "conv_x1"
  top: "pool_x1"
  pooling_param {
    pool: MAX
    kernel_h: 2
    kernel_w: 1
    stride_h: 2
    stride_w: 1
  }
}
layer {
  name: "conv_x2"
  type: "Convolution"
  bottom: "pool_x1"
  top: "conv_x2"
  convolution_param {
    num_output: 20
    pad: 0
    stride: 1
    weight_filler {
      type: "xavier"
    }
    bias_filler {
      type: "constant"
    }
    kernel_h: 7
    kernel_w: 3
  }
}
layer {
  name: "relu_x2"
  type: "ReLU"
  bottom: "conv_x2"
  top: "conv_x2"
}
layer {
  name: "pool_x2"
  type: "Pooling"
  bottom: "conv_x2"
  top: "pool_x2"
  pooling_param {
    pool: MAX
    kernel_h: 2
    kernel_w: 1
    stride_h: 2
    stride_w: 1
  }
}
layer {
  name: "conv_x3"
  type: "Convolution"
  bottom: "pool_x2"
  top: "conv_x3"
  convolution_param {
    num_output: 28
    pad: 0
    stride: 1
    weight_filler {
      type: "xavier"
    }
    bias_filler {
      type: "constant"
    }
    kernel_h: 6
    kernel_w: 3
  }
}
layer {
  name: "relu_x3"
  type: "ReLU"
  bottom: "conv_x3"
  top: "conv_x3"
}
layer {
  name: "pool_x3"
  type: "Pooling"
  bottom: "conv_x3"
  top: "pool_x3"
  pooling_param {
    pool: MAX
    kernel_h: 2
    kernel_w: 1
    stride_h: 2
    stride_w: 1
  }
}
layer {
  name: "conv_x4"
  type: "Convolution"
  bottom: "pool_x3"
  top: "conv_x4"
  convolution_param {
    num_output: 36
    pad: 0
    stride: 1
    weight_filler {
      type: "xavier"
    }
    bias_filler {
      type: "constant"
    }
    kernel_h: 6
    kernel_w: 3
  }
}
layer {
  name: "relu_x4"
  type: "ReLU"
  bottom: "conv_x4"
  top: "conv_x4"
}
layer {
  name: "pool_x4"
  type: "Pooling"
  bottom: "conv_x4"
  top: "pool_x4"
  pooling_param {
    pool: MAX
    kernel_h: 2
    kernel_w: 1
    stride_h: 2
    stride_w: 1
  }
}
layer {
  name: "dl_x1"
  type: "InnerProduct"
  bottom: "pool_x4"
  top: "dl_x1"
  inner_product_param {
    num_output: 196
    weight_filler {
      type: "xavier"
    }
    bias_filler {
      type: "constant"
    }
  }
}
layer {
  name: "relu_x5"
  type: "ReLU"
  bottom: "dl_x1"
  top: "dl_x1"
}
layer {
  name: "drop_x1"
  type: "Dropout"
  bottom: "dl_x1"
  top: "dl_x1"
  dropout_param {
    dropout_ratio: 0.5
  }
}
layer {
  name: "conv_u1"
  type: "Convolution"
  bottom: "hits-u"
  top: "conv_u1"
  convolution_param {
    num_output: 12
    pad: 0
    stride: 1
    weight_filler {
      type: "xavier"
    }
    bias_filler {
      type: "constant"
    }
    kernel_h: 8
    kernel_w: 3
  }
}
layer {
  name: "relu_u1"
  type: "ReLU"
  bottom: "conv_u1"
  top: "conv_u1"
}
layer {
  name: "pool_u1"
  type: "Pooling"
  bottom: "conv_u1"
  top: "pool_u1"
  pooling_param {
    pool: MAX
    kernel_h: 2
    kernel_w: 1
    stride_h: 2
    stride_w: 1
  }
}
layer {
  name: "conv_u2"
  type: "Convolution"
  bottom: "pool_u1"
  top: "conv_u2"
  convolution_param {
    num_output: 20
    pad: 0
    stride: 1
    weight_filler {
      type: "xavier"
    }
    bias_filler {
      type: "constant"
    }
    kernel_h: 7
    kernel_w: 3
  }
}
layer {
  name: "relu_u2"
  type: "ReLU"
  bottom: "conv_u2"
  top: "conv_u2"
}
layer {
  name: "pool_u2"
  type: "Pooling"
  bottom: "conv_u2"
  top: "pool_u2"
  pooling_param {
    pool: MAX
    kernel_h: 2
    kernel_w: 1
    stride_h: 2
    stride_w: 1
  }
}
layer {
  name: "conv_u3"
  type: "Convolution"
  bottom: "pool_u2"
  top: "conv_u3"
  convolution_param {
    num_output: 28
    pad: 0
    stride: 1
    weight_filler {
      type: "xavier"
    }
    bias_filler {
      type: "constant"
    }
    kernel_h: 6
    kernel_w: 3
  }
}
layer {
  name: "relu_u3"
  type: "ReLU"
  bottom: "conv_u3"
  top: "conv_u3"
}
layer {
  name: "pool_u3"
  type: "Pooling"
  bottom: "conv_u3"
  top: "pool_u3"
  pooling_param {
    pool: MAX
    kernel_h: 2
    kernel_w: 1
    stride_h: 2
    stride_w: 1
  }
}
layer {
  name: "conv_u4"
  type: "Convolution"
  bottom: "pool_u3"
  top: "conv_u4"
  convolution_param {
    num_output: 36
    pad: 0
    stride: 1
    weight_filler {
      type: "xavier"
    }
    bias_filler {
      type: "constant"
    }
    kernel_h: 6
    kernel_w: 3
  }
}
layer {
  name: "relu_u4"
  type: "ReLU"
  bottom: "conv_u4"
  top: "conv_u4"
}
layer {
  name: "pool_u4"
  type: "Pooling"
  bottom: "conv_u4"
  top: "pool_u4"
  pooling_param {
    pool: MAX
    kernel_h: 2
    kernel_w: 1
    stride_h: 2
    stride_w: 1
  }
}
layer {
  name: "dl_u1"
  type: "InnerProduct"
  bottom: "pool_u4"
  top: "dl_u1"
  inner_product_param {
    num_output: 196
    weight_filler {
      type: "xavier"
    }
    bias_filler {
      type: "constant"
    }
  }
}
layer {
  name: "relu_u5"
  type: "ReLU"
  bottom: "dl_u1"
  top: "dl_u1"
}
layer {
  name: "drop_u1"
  type: "Dropout"
  bottom: "dl_u1"
  top: "dl_u1"
  dropout_param {
    dropout_ratio: 0.5
  }
}
layer {
  name: "conv_v1"
  type: "Convolution"
  bottom: "hits-v"
  top: "conv_v1"
  convolution_param {
    num_output: 12
    pad: 0
    stride: 1
    weight_filler {
      type: "xavier"
    }
    bias_filler {
      type: "constant"
    }
    kernel_h: 8
    kernel_w: 3
  }
}
layer {
  name: "relu_v1"
  type: "ReLU"
  bottom: "conv_v1"
  top: "conv_v1"
}
layer {
  name: "pool_v1"
  type: "Pooling"
  bottom: "conv_v1"
  top: "pool_v1"
  pooling_param {
    pool: MAX
    kernel_h: 2
    kernel_w: 1
    stride_h: 2
    stride_w: 1
  }
}
layer {
  name: "conv_v2"
  type: "Convolution"
  bottom: "pool_v1"
  top: "conv_v2"
  convolution_param {
    num_output: 20
    pad: 0
    stride: 1
    weight_filler {
      type: "xavier"
    }
    bias_filler {
      type: "constant"
    }
    kernel_h: 7
    kernel_w: 3
  }
}
layer {
  name: "relu_v2"
  type: "ReLU"
  bottom: "conv_v2"
  top: "conv_v2"
}
layer {
  name: "pool_v2"
  type: "Pooling"
  bottom: "conv_v2"
  top: "pool_v2"
  pooling_param {
    pool: MAX
    kernel_h: 2
    kernel_w: 1
    stride_h: 2
    stride_w: 1
  }
}
layer {
  name: "conv_v3"
  type: "Convolution"
  bottom: "pool_v2"
  top: "conv_v3"
  convolution_param {
    num_output: 28
    pad: 0
    stride: 1
    weight_filler {
      type: "xavier"
    }
    bias_filler {
      type: "constant"
    }
    kernel_h: 6
    kernel_w: 3
  }
}
layer {
  name: "relu_v3"
  type: "ReLU"
  bottom: "conv_v3"
  top: "conv_v3"
}
layer {
  name: "pool_v3"
  type: "Pooling"
  bottom: "conv_v3"
  top: "pool_v3"
  pooling_param {
    pool: MAX
    kernel_h: 2
    kernel_w: 1
    stride_h: 2
    stride_w: 1
  }
}
layer {
  name: "conv_v4"
  type: "Convolution"
  bottom: "pool_v3"
  top: "conv_v4"
  convolution_param {
    num_output: 36
    pad: 0
    stride: 1
    weight_filler {
      type: "xavier"
    }
    bias_filler {
      type: "constant"
    }
    kernel_h: 6
    kernel_w: 3
  }
}
layer {
  name: "relu_v4"
  type: "ReLU"
  bottom: "conv_v4"
  top: "conv_v4"
}
layer {
  name: "pool_v4"
  type: "Pooling"
  bottom: "conv_v4"
  top: "pool_v4"
  pooling_param {
    pool: MAX
    kernel_h: 2
    kernel_w: 1
    stride_h: 2
    stride_w: 1
  }
}
layer {
  name: "dl_v1"
  type: "InnerProduct"
  bottom: "pool_v4"
  top: "dl_v1"
  inner_product_param {
    num_output: 196
    weight_filler {
      type: "xavier"
    }
    bias_filler {
      type: "constant"
    }
  }
}
layer {
  name: "relu_v5"
  type: "ReLU"
  bottom: "dl_v1"
  top: "dl_v1"
}
layer {
  name: "drop_v1"
  type: "Dropout"
  bottom: "dl_v1"
  top: "dl_v1"
  dropout_param {
    dropout_ratio: 0.5
  }
}
layer {
  name: "concat_xuv"
  type: "Concat"
  bottom: "dl_x1"
  bottom: "dl_u1"
  bottom: "dl_v1"
  top: "concat_xuv"
  concat_param {
    axis: 1
  }
}
layer {
  name: "dl_xuv"
  type: "InnerProduct"
  bottom: "concat_xuv"
  top: "dl_xuv"
  inner_product_param {
    num_output: 98
    weight_filler {
      type: "xavier"
    }
    bias_filler {
      type: "constant"
    }
  }
}
layer {
  name: "relu_xuv"
  type: "ReLU"
  bottom: "dl_xuv"
  top: "dl_xuv"
}
layer {
  name: "drop_xuv"
  type: "Dropout"
  bottom: "dl_xuv"
  top: "dl_xuv"
  dropout_param {
    dropout_ratio: 0.5
  }
}
layer {
  name: "output"
  type: "InnerProduct"
  bottom: "dl_xuv"
  top: "output"
  inner_product_param {
    num_output: 11
    weight_filler {
      type: "xavier"
    }
    bias_filler {
      type: "constant"
    }
  }
}
layer {
  name: "drop_output"
  type: "Dropout"
  bottom: "output"
  top: "output"
  dropout_param {
    dropout_ratio: 0.5
  }
}
layer {
  name: "loss"
  type: "SoftmaxWithLoss"
  bottom: "output"
  bottom: "segments"
  top: "loss"
}
I0531 17:26:29.728005 27722 layer_factory.hpp:77] Creating layer data
I0531 17:26:29.728029 27722 net.cpp:106] Creating Layer data
I0531 17:26:29.728044 27722 net.cpp:411] data -> hits-x
I0531 17:26:29.728078 27722 net.cpp:411] data -> hits-u
I0531 17:26:29.728101 27722 net.cpp:411] data -> hits-v
I0531 17:26:29.728116 27722 net.cpp:411] data -> segments
I0531 17:26:29.728147 27722 hdf5_data_layer.cpp:79] Loading list of HDF5 filenames from: /lustre/atlas/proj-shared/hep105/caffe_titan/xuv/epsilon_127x50_xuv.trainlist
I0531 17:26:29.737443 27722 hdf5_data_layer.cpp:93] Number of HDF5 files: 15
I0531 17:26:29.784533 27722 hdf5.cpp:32] Datatype class: H5T_FLOAT
I0531 17:27:33.952280 27722 hdf5.cpp:35] Datatype class: H5T_INTEGER
I0531 17:27:33.957901 27722 net.cpp:150] Setting up data
I0531 17:27:33.957942 27722 net.cpp:157] Top shape: 100 1 127 50 (635000)
I0531 17:27:33.957957 27722 net.cpp:157] Top shape: 100 1 127 50 (635000)
I0531 17:27:33.957973 27722 net.cpp:157] Top shape: 100 1 127 50 (635000)
I0531 17:27:33.957984 27722 net.cpp:157] Top shape: 100 (100)
I0531 17:27:33.957994 27722 net.cpp:165] Memory required for data: 7620400
I0531 17:27:33.958008 27722 layer_factory.hpp:77] Creating layer conv_x1
I0531 17:27:33.958041 27722 net.cpp:106] Creating Layer conv_x1
I0531 17:27:33.958052 27722 net.cpp:454] conv_x1 <- hits-x
I0531 17:27:33.958075 27722 net.cpp:411] conv_x1 -> conv_x1
I0531 17:27:37.154485 27722 net.cpp:150] Setting up conv_x1
I0531 17:27:37.154531 27722 net.cpp:157] Top shape: 100 12 120 48 (6912000)
I0531 17:27:37.154542 27722 net.cpp:165] Memory required for data: 35268400
I0531 17:27:37.154573 27722 layer_factory.hpp:77] Creating layer relu_x1
I0531 17:27:37.154595 27722 net.cpp:106] Creating Layer relu_x1
I0531 17:27:37.154606 27722 net.cpp:454] relu_x1 <- conv_x1
I0531 17:27:37.154620 27722 net.cpp:397] relu_x1 -> conv_x1 (in-place)
I0531 17:27:37.155141 27722 net.cpp:150] Setting up relu_x1
I0531 17:27:37.155158 27722 net.cpp:157] Top shape: 100 12 120 48 (6912000)
I0531 17:27:37.155169 27722 net.cpp:165] Memory required for data: 62916400
I0531 17:27:37.155179 27722 layer_factory.hpp:77] Creating layer pool_x1
I0531 17:27:37.155196 27722 net.cpp:106] Creating Layer pool_x1
I0531 17:27:37.155206 27722 net.cpp:454] pool_x1 <- conv_x1
I0531 17:27:37.155220 27722 net.cpp:411] pool_x1 -> pool_x1
I0531 17:27:37.155303 27722 net.cpp:150] Setting up pool_x1
I0531 17:27:37.155318 27722 net.cpp:157] Top shape: 100 12 60 48 (3456000)
I0531 17:27:37.155328 27722 net.cpp:165] Memory required for data: 76740400
I0531 17:27:37.155335 27722 layer_factory.hpp:77] Creating layer conv_x2
I0531 17:27:37.155357 27722 net.cpp:106] Creating Layer conv_x2
I0531 17:27:37.155369 27722 net.cpp:454] conv_x2 <- pool_x1
I0531 17:27:37.155382 27722 net.cpp:411] conv_x2 -> conv_x2
I0531 17:27:37.158078 27722 net.cpp:150] Setting up conv_x2
I0531 17:27:37.158107 27722 net.cpp:157] Top shape: 100 20 54 46 (4968000)
I0531 17:27:37.158119 27722 net.cpp:165] Memory required for data: 96612400
I0531 17:27:37.158138 27722 layer_factory.hpp:77] Creating layer relu_x2
I0531 17:27:37.158154 27722 net.cpp:106] Creating Layer relu_x2
I0531 17:27:37.158164 27722 net.cpp:454] relu_x2 <- conv_x2
I0531 17:27:37.158177 27722 net.cpp:397] relu_x2 -> conv_x2 (in-place)
I0531 17:27:37.158507 27722 net.cpp:150] Setting up relu_x2
I0531 17:27:37.158522 27722 net.cpp:157] Top shape: 100 20 54 46 (4968000)
I0531 17:27:37.158534 27722 net.cpp:165] Memory required for data: 116484400
I0531 17:27:37.158543 27722 layer_factory.hpp:77] Creating layer pool_x2
I0531 17:27:37.158557 27722 net.cpp:106] Creating Layer pool_x2
I0531 17:27:37.158566 27722 net.cpp:454] pool_x2 <- conv_x2
I0531 17:27:37.158581 27722 net.cpp:411] pool_x2 -> pool_x2
I0531 17:27:37.158650 27722 net.cpp:150] Setting up pool_x2
I0531 17:27:37.158663 27722 net.cpp:157] Top shape: 100 20 27 46 (2484000)
I0531 17:27:37.158674 27722 net.cpp:165] Memory required for data: 126420400
I0531 17:27:37.158681 27722 layer_factory.hpp:77] Creating layer conv_x3
I0531 17:27:37.158700 27722 net.cpp:106] Creating Layer conv_x3
I0531 17:27:37.158710 27722 net.cpp:454] conv_x3 <- pool_x2
I0531 17:27:37.158725 27722 net.cpp:411] conv_x3 -> conv_x3
I0531 17:27:37.160645 27722 net.cpp:150] Setting up conv_x3
I0531 17:27:37.160668 27722 net.cpp:157] Top shape: 100 28 22 44 (2710400)
I0531 17:27:37.160679 27722 net.cpp:165] Memory required for data: 137262000
I0531 17:27:37.160697 27722 layer_factory.hpp:77] Creating layer relu_x3
I0531 17:27:37.160714 27722 net.cpp:106] Creating Layer relu_x3
I0531 17:27:37.160724 27722 net.cpp:454] relu_x3 <- conv_x3
I0531 17:27:37.160737 27722 net.cpp:397] relu_x3 -> conv_x3 (in-place)
I0531 17:27:37.161206 27722 net.cpp:150] Setting up relu_x3
I0531 17:27:37.161221 27722 net.cpp:157] Top shape: 100 28 22 44 (2710400)
I0531 17:27:37.161243 27722 net.cpp:165] Memory required for data: 148103600
I0531 17:27:37.161254 27722 layer_factory.hpp:77] Creating layer pool_x3
I0531 17:27:37.161267 27722 net.cpp:106] Creating Layer pool_x3
I0531 17:27:37.161278 27722 net.cpp:454] pool_x3 <- conv_x3
I0531 17:27:37.161293 27722 net.cpp:411] pool_x3 -> pool_x3
I0531 17:27:37.161361 27722 net.cpp:150] Setting up pool_x3
I0531 17:27:37.161375 27722 net.cpp:157] Top shape: 100 28 11 44 (1355200)
I0531 17:27:37.161386 27722 net.cpp:165] Memory required for data: 153524400
I0531 17:27:37.161394 27722 layer_factory.hpp:77] Creating layer conv_x4
I0531 17:27:37.161412 27722 net.cpp:106] Creating Layer conv_x4
I0531 17:27:37.161422 27722 net.cpp:454] conv_x4 <- pool_x3
I0531 17:27:37.161435 27722 net.cpp:411] conv_x4 -> conv_x4
I0531 17:27:37.164386 27722 net.cpp:150] Setting up conv_x4
I0531 17:27:37.164413 27722 net.cpp:157] Top shape: 100 36 6 42 (907200)
I0531 17:27:37.164424 27722 net.cpp:165] Memory required for data: 157153200
I0531 17:27:37.164439 27722 layer_factory.hpp:77] Creating layer relu_x4
I0531 17:27:37.164454 27722 net.cpp:106] Creating Layer relu_x4
I0531 17:27:37.164464 27722 net.cpp:454] relu_x4 <- conv_x4
I0531 17:27:37.164479 27722 net.cpp:397] relu_x4 -> conv_x4 (in-place)
I0531 17:27:37.164939 27722 net.cpp:150] Setting up relu_x4
I0531 17:27:37.164955 27722 net.cpp:157] Top shape: 100 36 6 42 (907200)
I0531 17:27:37.164966 27722 net.cpp:165] Memory required for data: 160782000
I0531 17:27:37.164976 27722 layer_factory.hpp:77] Creating layer pool_x4
I0531 17:27:37.164989 27722 net.cpp:106] Creating Layer pool_x4
I0531 17:27:37.164999 27722 net.cpp:454] pool_x4 <- conv_x4
I0531 17:27:37.165014 27722 net.cpp:411] pool_x4 -> pool_x4
I0531 17:27:37.165083 27722 net.cpp:150] Setting up pool_x4
I0531 17:27:37.165096 27722 net.cpp:157] Top shape: 100 36 3 42 (453600)
I0531 17:27:37.165107 27722 net.cpp:165] Memory required for data: 162596400
I0531 17:27:37.165117 27722 layer_factory.hpp:77] Creating layer dl_x1
I0531 17:27:37.165138 27722 net.cpp:106] Creating Layer dl_x1
I0531 17:27:37.165148 27722 net.cpp:454] dl_x1 <- pool_x4
I0531 17:27:37.165160 27722 net.cpp:411] dl_x1 -> dl_x1
I0531 17:27:37.180676 27722 net.cpp:150] Setting up dl_x1
I0531 17:27:37.180706 27722 net.cpp:157] Top shape: 100 196 (19600)
I0531 17:27:37.180721 27722 net.cpp:165] Memory required for data: 162674800
I0531 17:27:37.180747 27722 layer_factory.hpp:77] Creating layer relu_x5
I0531 17:27:37.180763 27722 net.cpp:106] Creating Layer relu_x5
I0531 17:27:37.180773 27722 net.cpp:454] relu_x5 <- dl_x1
I0531 17:27:37.180788 27722 net.cpp:397] relu_x5 -> dl_x1 (in-place)
I0531 17:27:37.181133 27722 net.cpp:150] Setting up relu_x5
I0531 17:27:37.181148 27722 net.cpp:157] Top shape: 100 196 (19600)
I0531 17:27:37.181157 27722 net.cpp:165] Memory required for data: 162753200
I0531 17:27:37.181169 27722 layer_factory.hpp:77] Creating layer drop_x1
I0531 17:27:37.181190 27722 net.cpp:106] Creating Layer drop_x1
I0531 17:27:37.181200 27722 net.cpp:454] drop_x1 <- dl_x1
I0531 17:27:37.181213 27722 net.cpp:397] drop_x1 -> dl_x1 (in-place)
I0531 17:27:37.181258 27722 net.cpp:150] Setting up drop_x1
I0531 17:27:37.181272 27722 net.cpp:157] Top shape: 100 196 (19600)
I0531 17:27:37.181283 27722 net.cpp:165] Memory required for data: 162831600
I0531 17:27:37.181293 27722 layer_factory.hpp:77] Creating layer conv_u1
I0531 17:27:37.181316 27722 net.cpp:106] Creating Layer conv_u1
I0531 17:27:37.181326 27722 net.cpp:454] conv_u1 <- hits-u
I0531 17:27:37.181340 27722 net.cpp:411] conv_u1 -> conv_u1
I0531 17:27:37.183174 27722 net.cpp:150] Setting up conv_u1
I0531 17:27:37.183197 27722 net.cpp:157] Top shape: 100 12 120 48 (6912000)
I0531 17:27:37.183209 27722 net.cpp:165] Memory required for data: 190479600
I0531 17:27:37.183224 27722 layer_factory.hpp:77] Creating layer relu_u1
I0531 17:27:37.183238 27722 net.cpp:106] Creating Layer relu_u1
I0531 17:27:37.183253 27722 net.cpp:454] relu_u1 <- conv_u1
I0531 17:27:37.183264 27722 net.cpp:397] relu_u1 -> conv_u1 (in-place)
I0531 17:27:37.183751 27722 net.cpp:150] Setting up relu_u1
I0531 17:27:37.183770 27722 net.cpp:157] Top shape: 100 12 120 48 (6912000)
I0531 17:27:37.183781 27722 net.cpp:165] Memory required for data: 218127600
I0531 17:27:37.183791 27722 layer_factory.hpp:77] Creating layer pool_u1
I0531 17:27:37.183805 27722 net.cpp:106] Creating Layer pool_u1
I0531 17:27:37.183815 27722 net.cpp:454] pool_u1 <- conv_u1
I0531 17:27:37.183828 27722 net.cpp:411] pool_u1 -> pool_u1
I0531 17:27:37.183899 27722 net.cpp:150] Setting up pool_u1
I0531 17:27:37.183912 27722 net.cpp:157] Top shape: 100 12 60 48 (3456000)
I0531 17:27:37.183923 27722 net.cpp:165] Memory required for data: 231951600
I0531 17:27:37.183933 27722 layer_factory.hpp:77] Creating layer conv_u2
I0531 17:27:37.183950 27722 net.cpp:106] Creating Layer conv_u2
I0531 17:27:37.183961 27722 net.cpp:454] conv_u2 <- pool_u1
I0531 17:27:37.183975 27722 net.cpp:411] conv_u2 -> conv_u2
I0531 17:27:37.185799 27722 net.cpp:150] Setting up conv_u2
I0531 17:27:37.185822 27722 net.cpp:157] Top shape: 100 20 54 46 (4968000)
I0531 17:27:37.185834 27722 net.cpp:165] Memory required for data: 251823600
I0531 17:27:37.185849 27722 layer_factory.hpp:77] Creating layer relu_u2
I0531 17:27:37.185863 27722 net.cpp:106] Creating Layer relu_u2
I0531 17:27:37.185873 27722 net.cpp:454] relu_u2 <- conv_u2
I0531 17:27:37.185885 27722 net.cpp:397] relu_u2 -> conv_u2 (in-place)
I0531 17:27:37.186208 27722 net.cpp:150] Setting up relu_u2
I0531 17:27:37.186221 27722 net.cpp:157] Top shape: 100 20 54 46 (4968000)
I0531 17:27:37.186233 27722 net.cpp:165] Memory required for data: 271695600
I0531 17:27:37.186242 27722 layer_factory.hpp:77] Creating layer pool_u2
I0531 17:27:37.186255 27722 net.cpp:106] Creating Layer pool_u2
I0531 17:27:37.186265 27722 net.cpp:454] pool_u2 <- conv_u2
I0531 17:27:37.186278 27722 net.cpp:411] pool_u2 -> pool_u2
I0531 17:27:37.186352 27722 net.cpp:150] Setting up pool_u2
I0531 17:27:37.186365 27722 net.cpp:157] Top shape: 100 20 27 46 (2484000)
I0531 17:27:37.186377 27722 net.cpp:165] Memory required for data: 281631600
I0531 17:27:37.186386 27722 layer_factory.hpp:77] Creating layer conv_u3
I0531 17:27:37.186400 27722 net.cpp:106] Creating Layer conv_u3
I0531 17:27:37.186411 27722 net.cpp:454] conv_u3 <- pool_u2
I0531 17:27:37.186425 27722 net.cpp:411] conv_u3 -> conv_u3
I0531 17:27:37.188335 27722 net.cpp:150] Setting up conv_u3
I0531 17:27:37.188357 27722 net.cpp:157] Top shape: 100 28 22 44 (2710400)
I0531 17:27:37.188370 27722 net.cpp:165] Memory required for data: 292473200
I0531 17:27:37.188385 27722 layer_factory.hpp:77] Creating layer relu_u3
I0531 17:27:37.188398 27722 net.cpp:106] Creating Layer relu_u3
I0531 17:27:37.188408 27722 net.cpp:454] relu_u3 <- conv_u3
I0531 17:27:37.188421 27722 net.cpp:397] relu_u3 -> conv_u3 (in-place)
I0531 17:27:37.188753 27722 net.cpp:150] Setting up relu_u3
I0531 17:27:37.188767 27722 net.cpp:157] Top shape: 100 28 22 44 (2710400)
I0531 17:27:37.188777 27722 net.cpp:165] Memory required for data: 303314800
I0531 17:27:37.188787 27722 layer_factory.hpp:77] Creating layer pool_u3
I0531 17:27:37.188802 27722 net.cpp:106] Creating Layer pool_u3
I0531 17:27:37.188810 27722 net.cpp:454] pool_u3 <- conv_u3
I0531 17:27:37.188824 27722 net.cpp:411] pool_u3 -> pool_u3
I0531 17:27:37.188892 27722 net.cpp:150] Setting up pool_u3
I0531 17:27:37.188906 27722 net.cpp:157] Top shape: 100 28 11 44 (1355200)
I0531 17:27:37.188916 27722 net.cpp:165] Memory required for data: 308735600
I0531 17:27:37.188926 27722 layer_factory.hpp:77] Creating layer conv_u4
I0531 17:27:37.188942 27722 net.cpp:106] Creating Layer conv_u4
I0531 17:27:37.188953 27722 net.cpp:454] conv_u4 <- pool_u3
I0531 17:27:37.188967 27722 net.cpp:411] conv_u4 -> conv_u4
I0531 17:27:37.191162 27722 net.cpp:150] Setting up conv_u4
I0531 17:27:37.191185 27722 net.cpp:157] Top shape: 100 36 6 42 (907200)
I0531 17:27:37.191198 27722 net.cpp:165] Memory required for data: 312364400
I0531 17:27:37.191220 27722 layer_factory.hpp:77] Creating layer relu_u4
I0531 17:27:37.191233 27722 net.cpp:106] Creating Layer relu_u4
I0531 17:27:37.191253 27722 net.cpp:454] relu_u4 <- conv_u4
I0531 17:27:37.191267 27722 net.cpp:397] relu_u4 -> conv_u4 (in-place)
I0531 17:27:37.191742 27722 net.cpp:150] Setting up relu_u4
I0531 17:27:37.191759 27722 net.cpp:157] Top shape: 100 36 6 42 (907200)
I0531 17:27:37.191771 27722 net.cpp:165] Memory required for data: 315993200
I0531 17:27:37.191781 27722 layer_factory.hpp:77] Creating layer pool_u4
I0531 17:27:37.191793 27722 net.cpp:106] Creating Layer pool_u4
I0531 17:27:37.191804 27722 net.cpp:454] pool_u4 <- conv_u4
I0531 17:27:37.191817 27722 net.cpp:411] pool_u4 -> pool_u4
I0531 17:27:37.191887 27722 net.cpp:150] Setting up pool_u4
I0531 17:27:37.191901 27722 net.cpp:157] Top shape: 100 36 3 42 (453600)
I0531 17:27:37.191911 27722 net.cpp:165] Memory required for data: 317807600
I0531 17:27:37.191922 27722 layer_factory.hpp:77] Creating layer dl_u1
I0531 17:27:37.191937 27722 net.cpp:106] Creating Layer dl_u1
I0531 17:27:37.191948 27722 net.cpp:454] dl_u1 <- pool_u4
I0531 17:27:37.191962 27722 net.cpp:411] dl_u1 -> dl_u1
I0531 17:27:37.207418 27722 net.cpp:150] Setting up dl_u1
I0531 17:27:37.207445 27722 net.cpp:157] Top shape: 100 196 (19600)
I0531 17:27:37.207458 27722 net.cpp:165] Memory required for data: 317886000
I0531 17:27:37.207473 27722 layer_factory.hpp:77] Creating layer relu_u5
I0531 17:27:37.207489 27722 net.cpp:106] Creating Layer relu_u5
I0531 17:27:37.207499 27722 net.cpp:454] relu_u5 <- dl_u1
I0531 17:27:37.207514 27722 net.cpp:397] relu_u5 -> dl_u1 (in-place)
I0531 17:27:37.207859 27722 net.cpp:150] Setting up relu_u5
I0531 17:27:37.207872 27722 net.cpp:157] Top shape: 100 196 (19600)
I0531 17:27:37.207883 27722 net.cpp:165] Memory required for data: 317964400
I0531 17:27:37.207893 27722 layer_factory.hpp:77] Creating layer drop_u1
I0531 17:27:37.207906 27722 net.cpp:106] Creating Layer drop_u1
I0531 17:27:37.207916 27722 net.cpp:454] drop_u1 <- dl_u1
I0531 17:27:37.207928 27722 net.cpp:397] drop_u1 -> dl_u1 (in-place)
I0531 17:27:37.207973 27722 net.cpp:150] Setting up drop_u1
I0531 17:27:37.207985 27722 net.cpp:157] Top shape: 100 196 (19600)
I0531 17:27:37.207995 27722 net.cpp:165] Memory required for data: 318042800
I0531 17:27:37.208005 27722 layer_factory.hpp:77] Creating layer conv_v1
I0531 17:27:37.208022 27722 net.cpp:106] Creating Layer conv_v1
I0531 17:27:37.208032 27722 net.cpp:454] conv_v1 <- hits-v
I0531 17:27:37.208047 27722 net.cpp:411] conv_v1 -> conv_v1
I0531 17:27:37.209903 27722 net.cpp:150] Setting up conv_v1
I0531 17:27:37.209926 27722 net.cpp:157] Top shape: 100 12 120 48 (6912000)
I0531 17:27:37.209939 27722 net.cpp:165] Memory required for data: 345690800
I0531 17:27:37.209954 27722 layer_factory.hpp:77] Creating layer relu_v1
I0531 17:27:37.209977 27722 net.cpp:106] Creating Layer relu_v1
I0531 17:27:37.209987 27722 net.cpp:454] relu_v1 <- conv_v1
I0531 17:27:37.210000 27722 net.cpp:397] relu_v1 -> conv_v1 (in-place)
I0531 17:27:37.210472 27722 net.cpp:150] Setting up relu_v1
I0531 17:27:37.210490 27722 net.cpp:157] Top shape: 100 12 120 48 (6912000)
I0531 17:27:37.210500 27722 net.cpp:165] Memory required for data: 373338800
I0531 17:27:37.210511 27722 layer_factory.hpp:77] Creating layer pool_v1
I0531 17:27:37.210525 27722 net.cpp:106] Creating Layer pool_v1
I0531 17:27:37.210536 27722 net.cpp:454] pool_v1 <- conv_v1
I0531 17:27:37.210548 27722 net.cpp:411] pool_v1 -> pool_v1
I0531 17:27:37.210621 27722 net.cpp:150] Setting up pool_v1
I0531 17:27:37.210635 27722 net.cpp:157] Top shape: 100 12 60 48 (3456000)
I0531 17:27:37.210645 27722 net.cpp:165] Memory required for data: 387162800
I0531 17:27:37.210654 27722 layer_factory.hpp:77] Creating layer conv_v2
I0531 17:27:37.210671 27722 net.cpp:106] Creating Layer conv_v2
I0531 17:27:37.210682 27722 net.cpp:454] conv_v2 <- pool_v1
I0531 17:27:37.210696 27722 net.cpp:411] conv_v2 -> conv_v2
I0531 17:27:37.212388 27722 net.cpp:150] Setting up conv_v2
I0531 17:27:37.212410 27722 net.cpp:157] Top shape: 100 20 54 46 (4968000)
I0531 17:27:37.212422 27722 net.cpp:165] Memory required for data: 407034800
I0531 17:27:37.212452 27722 layer_factory.hpp:77] Creating layer relu_v2
I0531 17:27:37.212466 27722 net.cpp:106] Creating Layer relu_v2
I0531 17:27:37.212476 27722 net.cpp:454] relu_v2 <- conv_v2
I0531 17:27:37.212488 27722 net.cpp:397] relu_v2 -> conv_v2 (in-place)
I0531 17:27:37.212965 27722 net.cpp:150] Setting up relu_v2
I0531 17:27:37.212981 27722 net.cpp:157] Top shape: 100 20 54 46 (4968000)
I0531 17:27:37.212992 27722 net.cpp:165] Memory required for data: 426906800
I0531 17:27:37.213002 27722 layer_factory.hpp:77] Creating layer pool_v2
I0531 17:27:37.213016 27722 net.cpp:106] Creating Layer pool_v2
I0531 17:27:37.213027 27722 net.cpp:454] pool_v2 <- conv_v2
I0531 17:27:37.213039 27722 net.cpp:411] pool_v2 -> pool_v2
I0531 17:27:37.213110 27722 net.cpp:150] Setting up pool_v2
I0531 17:27:37.213124 27722 net.cpp:157] Top shape: 100 20 27 46 (2484000)
I0531 17:27:37.213134 27722 net.cpp:165] Memory required for data: 436842800
I0531 17:27:37.213143 27722 layer_factory.hpp:77] Creating layer conv_v3
I0531 17:27:37.213160 27722 net.cpp:106] Creating Layer conv_v3
I0531 17:27:37.213171 27722 net.cpp:454] conv_v3 <- pool_v2
I0531 17:27:37.213186 27722 net.cpp:411] conv_v3 -> conv_v3
I0531 17:27:37.215116 27722 net.cpp:150] Setting up conv_v3
I0531 17:27:37.215137 27722 net.cpp:157] Top shape: 100 28 22 44 (2710400)
I0531 17:27:37.215150 27722 net.cpp:165] Memory required for data: 447684400
I0531 17:27:37.215167 27722 layer_factory.hpp:77] Creating layer relu_v3
I0531 17:27:37.215179 27722 net.cpp:106] Creating Layer relu_v3
I0531 17:27:37.215190 27722 net.cpp:454] relu_v3 <- conv_v3
I0531 17:27:37.215204 27722 net.cpp:397] relu_v3 -> conv_v3 (in-place)
I0531 17:27:37.215522 27722 net.cpp:150] Setting up relu_v3
I0531 17:27:37.215535 27722 net.cpp:157] Top shape: 100 28 22 44 (2710400)
I0531 17:27:37.215546 27722 net.cpp:165] Memory required for data: 458526000
I0531 17:27:37.215556 27722 layer_factory.hpp:77] Creating layer pool_v3
I0531 17:27:37.215569 27722 net.cpp:106] Creating Layer pool_v3
I0531 17:27:37.215579 27722 net.cpp:454] pool_v3 <- conv_v3
I0531 17:27:37.215591 27722 net.cpp:411] pool_v3 -> pool_v3
I0531 17:27:37.215661 27722 net.cpp:150] Setting up pool_v3
I0531 17:27:37.215674 27722 net.cpp:157] Top shape: 100 28 11 44 (1355200)
I0531 17:27:37.215684 27722 net.cpp:165] Memory required for data: 463946800
I0531 17:27:37.215695 27722 layer_factory.hpp:77] Creating layer conv_v4
I0531 17:27:37.215711 27722 net.cpp:106] Creating Layer conv_v4
I0531 17:27:37.215723 27722 net.cpp:454] conv_v4 <- pool_v3
I0531 17:27:37.215737 27722 net.cpp:411] conv_v4 -> conv_v4
I0531 17:27:37.217820 27722 net.cpp:150] Setting up conv_v4
I0531 17:27:37.217841 27722 net.cpp:157] Top shape: 100 36 6 42 (907200)
I0531 17:27:37.217855 27722 net.cpp:165] Memory required for data: 467575600
I0531 17:27:37.217870 27722 layer_factory.hpp:77] Creating layer relu_v4
I0531 17:27:37.217883 27722 net.cpp:106] Creating Layer relu_v4
I0531 17:27:37.217895 27722 net.cpp:454] relu_v4 <- conv_v4
I0531 17:27:37.217906 27722 net.cpp:397] relu_v4 -> conv_v4 (in-place)
I0531 17:27:37.218382 27722 net.cpp:150] Setting up relu_v4
I0531 17:27:37.218400 27722 net.cpp:157] Top shape: 100 36 6 42 (907200)
I0531 17:27:37.218410 27722 net.cpp:165] Memory required for data: 471204400
I0531 17:27:37.218420 27722 layer_factory.hpp:77] Creating layer pool_v4
I0531 17:27:37.218433 27722 net.cpp:106] Creating Layer pool_v4
I0531 17:27:37.218443 27722 net.cpp:454] pool_v4 <- conv_v4
I0531 17:27:37.218457 27722 net.cpp:411] pool_v4 -> pool_v4
I0531 17:27:37.218531 27722 net.cpp:150] Setting up pool_v4
I0531 17:27:37.218544 27722 net.cpp:157] Top shape: 100 36 3 42 (453600)
I0531 17:27:37.218554 27722 net.cpp:165] Memory required for data: 473018800
I0531 17:27:37.218564 27722 layer_factory.hpp:77] Creating layer dl_v1
I0531 17:27:37.218578 27722 net.cpp:106] Creating Layer dl_v1
I0531 17:27:37.218590 27722 net.cpp:454] dl_v1 <- pool_v4
I0531 17:27:37.218603 27722 net.cpp:411] dl_v1 -> dl_v1
I0531 17:27:37.234081 27722 net.cpp:150] Setting up dl_v1
I0531 17:27:37.234118 27722 net.cpp:157] Top shape: 100 196 (19600)
I0531 17:27:37.234133 27722 net.cpp:165] Memory required for data: 473097200
I0531 17:27:37.234148 27722 layer_factory.hpp:77] Creating layer relu_v5
I0531 17:27:37.234163 27722 net.cpp:106] Creating Layer relu_v5
I0531 17:27:37.234174 27722 net.cpp:454] relu_v5 <- dl_v1
I0531 17:27:37.234187 27722 net.cpp:397] relu_v5 -> dl_v1 (in-place)
I0531 17:27:37.234541 27722 net.cpp:150] Setting up relu_v5
I0531 17:27:37.234555 27722 net.cpp:157] Top shape: 100 196 (19600)
I0531 17:27:37.234566 27722 net.cpp:165] Memory required for data: 473175600
I0531 17:27:37.234577 27722 layer_factory.hpp:77] Creating layer drop_v1
I0531 17:27:37.234591 27722 net.cpp:106] Creating Layer drop_v1
I0531 17:27:37.234601 27722 net.cpp:454] drop_v1 <- dl_v1
I0531 17:27:37.234613 27722 net.cpp:397] drop_v1 -> dl_v1 (in-place)
I0531 17:27:37.234658 27722 net.cpp:150] Setting up drop_v1
I0531 17:27:37.234671 27722 net.cpp:157] Top shape: 100 196 (19600)
I0531 17:27:37.234681 27722 net.cpp:165] Memory required for data: 473254000
I0531 17:27:37.234691 27722 layer_factory.hpp:77] Creating layer concat_xuv
I0531 17:27:37.234712 27722 net.cpp:106] Creating Layer concat_xuv
I0531 17:27:37.234722 27722 net.cpp:454] concat_xuv <- dl_x1
I0531 17:27:37.234735 27722 net.cpp:454] concat_xuv <- dl_u1
I0531 17:27:37.234745 27722 net.cpp:454] concat_xuv <- dl_v1
I0531 17:27:37.234760 27722 net.cpp:411] concat_xuv -> concat_xuv
I0531 17:27:37.234812 27722 net.cpp:150] Setting up concat_xuv
I0531 17:27:37.234824 27722 net.cpp:157] Top shape: 100 588 (58800)
I0531 17:27:37.234834 27722 net.cpp:165] Memory required for data: 473489200
I0531 17:27:37.234845 27722 layer_factory.hpp:77] Creating layer dl_xuv
I0531 17:27:37.234859 27722 net.cpp:106] Creating Layer dl_xuv
I0531 17:27:37.234869 27722 net.cpp:454] dl_xuv <- concat_xuv
I0531 17:27:37.234882 27722 net.cpp:411] dl_xuv -> dl_xuv
I0531 17:27:37.235918 27722 net.cpp:150] Setting up dl_xuv
I0531 17:27:37.235932 27722 net.cpp:157] Top shape: 100 98 (9800)
I0531 17:27:37.235944 27722 net.cpp:165] Memory required for data: 473528400
I0531 17:27:37.235958 27722 layer_factory.hpp:77] Creating layer relu_xuv
I0531 17:27:37.235972 27722 net.cpp:106] Creating Layer relu_xuv
I0531 17:27:37.235982 27722 net.cpp:454] relu_xuv <- dl_xuv
I0531 17:27:37.235994 27722 net.cpp:397] relu_xuv -> dl_xuv (in-place)
I0531 17:27:37.236536 27722 net.cpp:150] Setting up relu_xuv
I0531 17:27:37.236552 27722 net.cpp:157] Top shape: 100 98 (9800)
I0531 17:27:37.236563 27722 net.cpp:165] Memory required for data: 473567600
I0531 17:27:37.236574 27722 layer_factory.hpp:77] Creating layer drop_xuv
I0531 17:27:37.236588 27722 net.cpp:106] Creating Layer drop_xuv
I0531 17:27:37.236598 27722 net.cpp:454] drop_xuv <- dl_xuv
I0531 17:27:37.236610 27722 net.cpp:397] drop_xuv -> dl_xuv (in-place)
I0531 17:27:37.236655 27722 net.cpp:150] Setting up drop_xuv
I0531 17:27:37.236668 27722 net.cpp:157] Top shape: 100 98 (9800)
I0531 17:27:37.236678 27722 net.cpp:165] Memory required for data: 473606800
I0531 17:27:37.236688 27722 layer_factory.hpp:77] Creating layer output
I0531 17:27:37.236702 27722 net.cpp:106] Creating Layer output
I0531 17:27:37.236712 27722 net.cpp:454] output <- dl_xuv
I0531 17:27:37.236724 27722 net.cpp:411] output -> output
I0531 17:27:37.236953 27722 net.cpp:150] Setting up output
I0531 17:27:37.236966 27722 net.cpp:157] Top shape: 100 11 (1100)
I0531 17:27:37.236976 27722 net.cpp:165] Memory required for data: 473611200
I0531 17:27:37.237006 27722 layer_factory.hpp:77] Creating layer drop_output
I0531 17:27:37.237020 27722 net.cpp:106] Creating Layer drop_output
I0531 17:27:37.237030 27722 net.cpp:454] drop_output <- output
I0531 17:27:37.237042 27722 net.cpp:397] drop_output -> output (in-place)
I0531 17:27:37.237087 27722 net.cpp:150] Setting up drop_output
I0531 17:27:37.237099 27722 net.cpp:157] Top shape: 100 11 (1100)
I0531 17:27:37.237109 27722 net.cpp:165] Memory required for data: 473615600
I0531 17:27:37.237119 27722 layer_factory.hpp:77] Creating layer loss
I0531 17:27:37.237148 27722 net.cpp:106] Creating Layer loss
I0531 17:27:37.237159 27722 net.cpp:454] loss <- output
I0531 17:27:37.237170 27722 net.cpp:454] loss <- segments
I0531 17:27:37.237184 27722 net.cpp:411] loss -> loss
I0531 17:27:37.237201 27722 layer_factory.hpp:77] Creating layer loss
…
I0531 17:27:37.241394 27722 solver.cpp:181] Creating test net (#0) specified by net file: /lustre/atlas/proj-shared/hep105/caffe_titan/caffe_workflow/xuv/logs/epsilon_noada_2016-05-30T07.36.54.892099.prototxt
I0531 17:27:37.241526 27722 net.cpp:322] The NetState phase (1) differed from the phase (0) specified by a rule in layer data
I0531 17:27:37.242321 27722 net.cpp:49] Initializing net from parameters: 
name: "epsilon_127x50_xuv"
state {
  phase: TEST
}
layer {
  name: "data"
  type: "HDF5Data"
  top: "hits-x"
  top: "hits-u"
  top: "hits-v"
  top: "segments"
  include {
    phase: TEST
  }
  hdf5_data_param {
    source: "/lustre/atlas/proj-shared/hep105/caffe_titan/xuv/epsilon_127x50_xuv.testlist"
    batch_size: 100
  }
}
layer {
  name: "conv_x1"
  type: "Convolution"
  bottom: "hits-x"
  top: "conv_x1"
  convolution_param {
    num_output: 12
    pad: 0
    stride: 1
    weight_filler {
      type: "xavier"
    }
    bias_filler {
      type: "constant"
    }
    kernel_h: 8
    kernel_w: 3
  }
}
layer {
  name: "relu_x1"
  type: "ReLU"
  bottom: "conv_x1"
  top: "conv_x1"
}
layer {
  name: "pool_x1"
  type: "Pooling"
  bottom: "conv_x1"
  top: "pool_x1"
  pooling_param {
    pool: MAX
    kernel_h: 2
    kernel_w: 1
    stride_h: 2
    stride_w: 1
  }
}
layer {
  name: "conv_x2"
  type: "Convolution"
  bottom: "pool_x1"
  top: "conv_x2"
  convolution_param {
    num_output: 20
    pad: 0
    stride: 1
    weight_filler {
      type: "xavier"
    }
    bias_filler {
      type: "constant"
    }
    kernel_h: 7
    kernel_w: 3
  }
}
layer {
  name: "relu_x2"
  type: "ReLU"
  bottom: "conv_x2"
  top: "conv_x2"
}
layer {
  name: "pool_x2"
  type: "Pooling"
  bottom: "conv_x2"
  top: "pool_x2"
  pooling_param {
    pool: MAX
    kernel_h: 2
    kernel_w: 1
    stride_h: 2
    stride_w: 1
  }
}
layer {
  name: "conv_x3"
  type: "Convolution"
  bottom: "pool_x2"
  top: "conv_x3"
  convolution_param {
    num_output: 28
    pad: 0
    stride: 1
    weight_filler {
      type: "xavier"
    }
    bias_filler {
      type: "constant"
    }
    kernel_h: 6
    kernel_w: 3
  }
}
layer {
  name: "relu_x3"
  type: "ReLU"
  bottom: "conv_x3"
  top: "conv_x3"
}
layer {
  name: "pool_x3"
  type: "Pooling"
  bottom: "conv_x3"
  top: "pool_x3"
  pooling_param {
    pool: MAX
    kernel_h: 2
    kernel_w: 1
    stride_h: 2
    stride_w: 1
  }
}
layer {
  name: "conv_x4"
  type: "Convolution"
  bottom: "pool_x3"
  top: "conv_x4"
  convolution_param {
    num_output: 36
    pad: 0
    stride: 1
    weight_filler {
      type: "xavier"
    }
    bias_filler {
      type: "constant"
    }
    kernel_h: 6
    kernel_w: 3
  }
}
layer {
  name: "relu_x4"
  type: "ReLU"
  bottom: "conv_x4"
  top: "conv_x4"
}
layer {
  name: "pool_x4"
  type: "Pooling"
  bottom: "conv_x4"
  top: "pool_x4"
  pooling_param {
    pool: MAX
    kernel_h: 2
    kernel_w: 1
    stride_h: 2
    stride_w: 1
  }
}
layer {
  name: "dl_x1"
  type: "InnerProduct"
  bottom: "pool_x4"
  top: "dl_x1"
  inner_product_param {
    num_output: 196
    weight_filler {
      type: "xavier"
    }
    bias_filler {
      type: "constant"
    }
  }
}
layer {
  name: "relu_x5"
  type: "ReLU"
  bottom: "dl_x1"
  top: "dl_x1"
}
layer {
  name: "drop_x1"
  type: "Dropout"
  bottom: "dl_x1"
  top: "dl_x1"
  dropout_param {
    dropout_ratio: 0.5
  }
}
layer {
  name: "conv_u1"
  type: "Convolution"
  bottom: "hits-u"
  top: "conv_u1"
  convolution_param {
    num_output: 12
    pad: 0
    stride: 1
    weight_filler {
      type: "xavier"
    }
    bias_filler {
      type: "constant"
    }
    kernel_h: 8
    kernel_w: 3
  }
}
layer {
  name: "relu_u1"
  type: "ReLU"
  bottom: "conv_u1"
  top: "conv_u1"
}
layer {
  name: "pool_u1"
  type: "Pooling"
  bottom: "conv_u1"
  top: "pool_u1"
  pooling_param {
    pool: MAX
    kernel_h: 2
    kernel_w: 1
    stride_h: 2
    stride_w: 1
  }
}
layer {
  name: "conv_u2"
  type: "Convolution"
  bottom: "pool_u1"
  top: "conv_u2"
  convolution_param {
    num_output: 20
    pad: 0
    stride: 1
    weight_filler {
      type: "xavier"
    }
    bias_filler {
      type: "constant"
    }
    kernel_h: 7
    kernel_w: 3
  }
}
layer {
  name: "relu_u2"
  type: "ReLU"
  bottom: "conv_u2"
  top: "conv_u2"
}
layer {
  name: "pool_u2"
  type: "Pooling"
  bottom: "conv_u2"
  top: "pool_u2"
  pooling_param {
    pool: MAX
    kernel_h: 2
    kernel_w: 1
    stride_h: 2
    stride_w: 1
  }
}
layer {
  name: "conv_u3"
  type: "Convolution"
  bottom: "pool_u2"
  top: "conv_u3"
  convolution_param {
    num_output: 28
    pad: 0
    stride: 1
    weight_filler {
      type: "xavier"
    }
    bias_filler {
      type: "constant"
    }
    kernel_h: 6
    kernel_w: 3
  }
}
layer {
  name: "relu_u3"
  type: "ReLU"
  bottom: "conv_u3"
  top: "conv_u3"
}
layer {
  name: "pool_u3"
  type: "Pooling"
  bottom: "conv_u3"
  top: "pool_u3"
  pooling_param {
    pool: MAX
    kernel_h: 2
    kernel_w: 1
    stride_h: 2
    stride_w: 1
  }
}
layer {
  name: "conv_u4"
  type: "Convolution"
  bottom: "pool_u3"
  top: "conv_u4"
  convolution_param {
    num_output: 36
    pad: 0
    stride: 1
    weight_filler {
      type: "xavier"
    }
    bias_filler {
      type: "constant"
    }
    kernel_h: 6
    kernel_w: 3
  }
}
layer {
  name: "relu_u4"
  type: "ReLU"
  bottom: "conv_u4"
  top: "conv_u4"
}
layer {
  name: "pool_u4"
  type: "Pooling"
  bottom: "conv_u4"
  top: "pool_u4"
  pooling_param {
    pool: MAX
    kernel_h: 2
    kernel_w: 1
    stride_h: 2
    stride_w: 1
  }
}
layer {
  name: "dl_u1"
  type: "InnerProduct"
  bottom: "pool_u4"
  top: "dl_u1"
  inner_product_param {
    num_output: 196
    weight_filler {
      type: "xavier"
    }
    bias_filler {
      type: "constant"
    }
  }
}
layer {
  name: "relu_u5"
  type: "ReLU"
  bottom: "dl_u1"
  top: "dl_u1"
}
layer {
  name: "drop_u1"
  type: "Dropout"
  bottom: "dl_u1"
  top: "dl_u1"
  dropout_param {
    dropout_ratio: 0.5
  }
}
layer {
  name: "conv_v1"
  type: "Convolution"
  bottom: "hits-v"
  top: "conv_v1"
  convolution_param {
    num_output: 12
    pad: 0
    stride: 1
    weight_filler {
      type: "xavier"
    }
    bias_filler {
      type: "constant"
    }
    kernel_h: 8
    kernel_w: 3
  }
}
layer {
  name: "relu_v1"
  type: "ReLU"
  bottom: "conv_v1"
  top: "conv_v1"
}
layer {
  name: "pool_v1"
  type: "Pooling"
  bottom: "conv_v1"
  top: "pool_v1"
  pooling_param {
    pool: MAX
    kernel_h: 2
    kernel_w: 1
    stride_h: 2
    stride_w: 1
  }
}
layer {
  name: "conv_v2"
  type: "Convolution"
  bottom: "pool_v1"
  top: "conv_v2"
  convolution_param {
    num_output: 20
    pad: 0
    stride: 1
    weight_filler {
      type: "xavier"
    }
    bias_filler {
      type: "constant"
    }
    kernel_h: 7
    kernel_w: 3
  }
}
layer {
  name: "relu_v2"
  type: "ReLU"
  bottom: "conv_v2"
  top: "conv_v2"
}
layer {
  name: "pool_v2"
  type: "Pooling"
  bottom: "conv_v2"
  top: "pool_v2"
  pooling_param {
    pool: MAX
    kernel_h: 2
    kernel_w: 1
    stride_h: 2
    stride_w: 1
  }
}
layer {
  name: "conv_v3"
  type: "Convolution"
  bottom: "pool_v2"
  top: "conv_v3"
  convolution_param {
    num_output: 28
    pad: 0
    stride: 1
    weight_filler {
      type: "xavier"
    }
    bias_filler {
      type: "constant"
    }
    kernel_h: 6
    kernel_w: 3
  }
}
layer {
  name: "relu_v3"
  type: "ReLU"
  bottom: "conv_v3"
  top: "conv_v3"
}
layer {
  name: "pool_v3"
  type: "Pooling"
  bottom: "conv_v3"
  top: "pool_v3"
  pooling_param {
    pool: MAX
    kernel_h: 2
    kernel_w: 1
    stride_h: 2
    stride_w: 1
  }
}
layer {
  name: "conv_v4"
  type: "Convolution"
  bottom: "pool_v3"
  top: "conv_v4"
  convolution_param {
    num_output: 36
    pad: 0
    stride: 1
    weight_filler {
      type: "xavier"
    }
    bias_filler {
      type: "constant"
    }
    kernel_h: 6
    kernel_w: 3
  }
}
layer {
  name: "relu_v4"
  type: "ReLU"
  bottom: "conv_v4"
  top: "conv_v4"
}
layer {
  name: "pool_v4"
  type: "Pooling"
  bottom: "conv_v4"
  top: "pool_v4"
  pooling_param {
    pool: MAX
    kernel_h: 2
    kernel_w: 1
    stride_h: 2
    stride_w: 1
  }
}
layer {
  name: "dl_v1"
  type: "InnerProduct"
  bottom: "pool_v4"
  top: "dl_v1"
  inner_product_param {
    num_output: 196
    weight_filler {
      type: "xavier"
    }
    bias_filler {
      type: "constant"
    }
  }
}
layer {
  name: "relu_v5"
  type: "ReLU"
  bottom: "dl_v1"
  top: "dl_v1"
}
layer {
  name: "drop_v1"
  type: "Dropout"
  bottom: "dl_v1"
  top: "dl_v1"
  dropout_param {
    dropout_ratio: 0.5
  }
}
layer {
  name: "concat_xuv"
  type: "Concat"
  bottom: "dl_x1"
  bottom: "dl_u1"
  bottom: "dl_v1"
  top: "concat_xuv"
  concat_param {
    axis: 1
  }
}
layer {
  name: "dl_xuv"
  type: "InnerProduct"
  bottom: "concat_xuv"
  top: "dl_xuv"
  inner_product_param {
    num_output: 98
    weight_filler {
      type: "xavier"
    }
    bias_filler {
      type: "constant"
    }
  }
}
layer {
  name: "relu_xuv"
  type: "ReLU"
  bottom: "dl_xuv"
  top: "dl_xuv"
}
layer {
  name: "drop_xuv"
  type: "Dropout"
  bottom: "dl_xuv"
  top: "dl_xuv"
  dropout_param {
    dropout_ratio: 0.5
  }
}
layer {
  name: "output"
  type: "InnerProduct"
  bottom: "dl_xuv"
  top: "output"
  inner_product_param {
    num_output: 11
    weight_filler {
      type: "xavier"
    }
    bias_filler {
      type: "constant"
    }
  }
}
layer {
  name: "drop_output"
  type: "Dropout"
  bottom: "output"
  top: "output"
  dropout_param {
    dropout_ratio: 0.5
  }
}
layer {
  name: "accuracy"
  type: "Accuracy"
  bottom: "output"
  bottom: "segments"
  top: "accuracy"
  include {
    phase: TEST
  }
}
layer {
  name: "loss"
  type: "SoftmaxWithLoss"
  bottom: "output"
  bottom: "segments"
  top: "loss"
}
I0531 17:27:37.242697 27722 layer_factory.hpp:77] Creating layer data
I0531 17:27:37.242712 27722 net.cpp:106] Creating Layer data
I0531 17:27:37.242724 27722 net.cpp:411] data -> hits-x
I0531 17:27:37.242741 27722 net.cpp:411] data -> hits-u
I0531 17:27:37.242756 27722 net.cpp:411] data -> hits-v
I0531 17:27:37.242772 27722 net.cpp:411] data -> segments
I0531 17:27:37.242786 27722 hdf5_data_layer.cpp:79] Loading list of HDF5 filenames from: /lustre/atlas/proj-shared/hep105/caffe_titan/xuv/epsilon_127x50_xuv.testlist
I0531 17:27:37.258296 27722 hdf5_data_layer.cpp:93] Number of HDF5 files: 3
I0531 17:28:44.438972 27722 net.cpp:150] Setting up data
I0531 17:28:44.439133 27722 net.cpp:157] Top shape: 100 1 127 50 (635000)
I0531 17:28:44.439149 27722 net.cpp:157] Top shape: 100 1 127 50 (635000)
I0531 17:28:44.439162 27722 net.cpp:157] Top shape: 100 1 127 50 (635000)
I0531 17:28:44.439174 27722 net.cpp:157] Top shape: 100 (100)
I0531 17:28:44.439184 27722 net.cpp:165] Memory required for data: 7620400
I0531 17:28:44.439198 27722 layer_factory.hpp:77] Creating layer segments_data_3_split
I0531 17:28:44.439224 27722 net.cpp:106] Creating Layer segments_data_3_split
I0531 17:28:44.439236 27722 net.cpp:454] segments_data_3_split <- segments
I0531 17:28:44.439251 27722 net.cpp:411] segments_data_3_split -> segments_data_3_split_0
I0531 17:28:44.439272 27722 net.cpp:411] segments_data_3_split -> segments_data_3_split_1
I0531 17:28:44.439349 27722 net.cpp:150] Setting up segments_data_3_split
I0531 17:28:44.439363 27722 net.cpp:157] Top shape: 100 (100)
I0531 17:28:44.439375 27722 net.cpp:157] Top shape: 100 (100)
I0531 17:28:44.439384 27722 net.cpp:165] Memory required for data: 7621200
I0531 17:28:44.439394 27722 layer_factory.hpp:77] Creating layer conv_x1
I0531 17:28:44.439417 27722 net.cpp:106] Creating Layer conv_x1
I0531 17:28:44.439427 27722 net.cpp:454] conv_x1 <- hits-x
I0531 17:28:44.439443 27722 net.cpp:411] conv_x1 -> conv_x1
I0531 17:28:44.441632 27722 net.cpp:150] Setting up conv_x1
I0531 17:28:44.441655 27722 net.cpp:157] Top shape: 100 12 120 48 (6912000)
I0531 17:28:44.441668 27722 net.cpp:165] Memory required for data: 35269200
I0531 17:28:44.441689 27722 layer_factory.hpp:77] Creating layer relu_x1
I0531 17:28:44.441704 27722 net.cpp:106] Creating Layer relu_x1
I0531 17:28:44.441714 27722 net.cpp:454] relu_x1 <- conv_x1
I0531 17:28:44.441726 27722 net.cpp:397] relu_x1 -> conv_x1 (in-place)
I0531 17:28:44.442245 27722 net.cpp:150] Setting up relu_x1
I0531 17:28:44.442261 27722 net.cpp:157] Top shape: 100 12 120 48 (6912000)
I0531 17:28:44.442271 27722 net.cpp:165] Memory required for data: 62917200
I0531 17:28:44.442281 27722 layer_factory.hpp:77] Creating layer pool_x1
I0531 17:28:44.442297 27722 net.cpp:106] Creating Layer pool_x1
I0531 17:28:44.442307 27722 net.cpp:454] pool_x1 <- conv_x1
I0531 17:28:44.442320 27722 net.cpp:411] pool_x1 -> pool_x1
I0531 17:28:44.442404 27722 net.cpp:150] Setting up pool_x1
I0531 17:28:44.442416 27722 net.cpp:157] Top shape: 100 12 60 48 (3456000)
I0531 17:28:44.442426 27722 net.cpp:165] Memory required for data: 76741200
I0531 17:28:44.442433 27722 layer_factory.hpp:77] Creating layer conv_x2
I0531 17:28:44.442452 27722 net.cpp:106] Creating Layer conv_x2
I0531 17:28:44.442463 27722 net.cpp:454] conv_x2 <- pool_x1
I0531 17:28:44.442477 27722 net.cpp:411] conv_x2 -> conv_x2
I0531 17:28:44.444355 27722 net.cpp:150] Setting up conv_x2
I0531 17:28:44.444377 27722 net.cpp:157] Top shape: 100 20 54 46 (4968000)
I0531 17:28:44.444389 27722 net.cpp:165] Memory required for data: 96613200
I0531 17:28:44.444407 27722 layer_factory.hpp:77] Creating layer relu_x2
I0531 17:28:44.444422 27722 net.cpp:106] Creating Layer relu_x2
I0531 17:28:44.444432 27722 net.cpp:454] relu_x2 <- conv_x2
I0531 17:28:44.444444 27722 net.cpp:397] relu_x2 -> conv_x2 (in-place)
I0531 17:28:44.444950 27722 net.cpp:150] Setting up relu_x2
I0531 17:28:44.444967 27722 net.cpp:157] Top shape: 100 20 54 46 (4968000)
I0531 17:28:44.444978 27722 net.cpp:165] Memory required for data: 116485200
I0531 17:28:44.444988 27722 layer_factory.hpp:77] Creating layer pool_x2
I0531 17:28:44.445003 27722 net.cpp:106] Creating Layer pool_x2
I0531 17:28:44.445011 27722 net.cpp:454] pool_x2 <- conv_x2
I0531 17:28:44.445024 27722 net.cpp:411] pool_x2 -> pool_x2
I0531 17:28:44.445106 27722 net.cpp:150] Setting up pool_x2
I0531 17:28:44.445118 27722 net.cpp:157] Top shape: 100 20 27 46 (2484000)
I0531 17:28:44.445128 27722 net.cpp:165] Memory required for data: 126421200
I0531 17:28:44.445138 27722 layer_factory.hpp:77] Creating layer conv_x3
I0531 17:28:44.445158 27722 net.cpp:106] Creating Layer conv_x3
I0531 17:28:44.445168 27722 net.cpp:454] conv_x3 <- pool_x2
I0531 17:28:44.445183 27722 net.cpp:411] conv_x3 -> conv_x3
I0531 17:28:44.447445 27722 net.cpp:150] Setting up conv_x3
I0531 17:28:44.447468 27722 net.cpp:157] Top shape: 100 28 22 44 (2710400)
I0531 17:28:44.447479 27722 net.cpp:165] Memory required for data: 137262800
I0531 17:28:44.447499 27722 layer_factory.hpp:77] Creating layer relu_x3
I0531 17:28:44.447512 27722 net.cpp:106] Creating Layer relu_x3
I0531 17:28:44.447522 27722 net.cpp:454] relu_x3 <- conv_x3
I0531 17:28:44.447535 27722 net.cpp:397] relu_x3 -> conv_x3 (in-place)
I0531 17:28:44.447883 27722 net.cpp:150] Setting up relu_x3
I0531 17:28:44.447897 27722 net.cpp:157] Top shape: 100 28 22 44 (2710400)
I0531 17:28:44.447907 27722 net.cpp:165] Memory required for data: 148104400
I0531 17:28:44.447918 27722 layer_factory.hpp:77] Creating layer pool_x3
I0531 17:28:44.447932 27722 net.cpp:106] Creating Layer pool_x3
I0531 17:28:44.447942 27722 net.cpp:454] pool_x3 <- conv_x3
I0531 17:28:44.447954 27722 net.cpp:411] pool_x3 -> pool_x3
I0531 17:28:44.448032 27722 net.cpp:150] Setting up pool_x3
I0531 17:28:44.448046 27722 net.cpp:157] Top shape: 100 28 11 44 (1355200)
I0531 17:28:44.448056 27722 net.cpp:165] Memory required for data: 153525200
I0531 17:28:44.448066 27722 layer_factory.hpp:77] Creating layer conv_x4
I0531 17:28:44.448082 27722 net.cpp:106] Creating Layer conv_x4
I0531 17:28:44.448092 27722 net.cpp:454] conv_x4 <- pool_x3
I0531 17:28:44.448107 27722 net.cpp:411] conv_x4 -> conv_x4
I0531 17:28:44.450284 27722 net.cpp:150] Setting up conv_x4
I0531 17:28:44.450306 27722 net.cpp:157] Top shape: 100 36 6 42 (907200)
I0531 17:28:44.450320 27722 net.cpp:165] Memory required for data: 157154000
I0531 17:28:44.450335 27722 layer_factory.hpp:77] Creating layer relu_x4
I0531 17:28:44.450350 27722 net.cpp:106] Creating Layer relu_x4
I0531 17:28:44.450359 27722 net.cpp:454] relu_x4 <- conv_x4
I0531 17:28:44.450372 27722 net.cpp:397] relu_x4 -> conv_x4 (in-place)
I0531 17:28:44.450865 27722 net.cpp:150] Setting up relu_x4
I0531 17:28:44.450882 27722 net.cpp:157] Top shape: 100 36 6 42 (907200)
I0531 17:28:44.450892 27722 net.cpp:165] Memory required for data: 160782800
I0531 17:28:44.450902 27722 layer_factory.hpp:77] Creating layer pool_x4
I0531 17:28:44.450917 27722 net.cpp:106] Creating Layer pool_x4
I0531 17:28:44.450927 27722 net.cpp:454] pool_x4 <- conv_x4
I0531 17:28:44.450939 27722 net.cpp:411] pool_x4 -> pool_x4
I0531 17:28:44.451017 27722 net.cpp:150] Setting up pool_x4
I0531 17:28:44.451031 27722 net.cpp:157] Top shape: 100 36 3 42 (453600)
I0531 17:28:44.451041 27722 net.cpp:165] Memory required for data: 162597200
I0531 17:28:44.451051 27722 layer_factory.hpp:77] Creating layer dl_x1
I0531 17:28:44.451067 27722 net.cpp:106] Creating Layer dl_x1
I0531 17:28:44.451077 27722 net.cpp:454] dl_x1 <- pool_x4
I0531 17:28:44.451092 27722 net.cpp:411] dl_x1 -> dl_x1
I0531 17:28:44.467150 27722 net.cpp:150] Setting up dl_x1
I0531 17:28:44.467180 27722 net.cpp:157] Top shape: 100 196 (19600)
I0531 17:28:44.467191 27722 net.cpp:165] Memory required for data: 162675600
I0531 17:28:44.467214 27722 layer_factory.hpp:77] Creating layer relu_x5
I0531 17:28:44.467229 27722 net.cpp:106] Creating Layer relu_x5
I0531 17:28:44.467239 27722 net.cpp:454] relu_x5 <- dl_x1
I0531 17:28:44.467257 27722 net.cpp:397] relu_x5 -> dl_x1 (in-place)
I0531 17:28:44.467618 27722 net.cpp:150] Setting up relu_x5
I0531 17:28:44.467633 27722 net.cpp:157] Top shape: 100 196 (19600)
I0531 17:28:44.467643 27722 net.cpp:165] Memory required for data: 162754000
I0531 17:28:44.467653 27722 layer_factory.hpp:77] Creating layer drop_x1
I0531 17:28:44.467672 27722 net.cpp:106] Creating Layer drop_x1
I0531 17:28:44.467682 27722 net.cpp:454] drop_x1 <- dl_x1
I0531 17:28:44.467695 27722 net.cpp:397] drop_x1 -> dl_x1 (in-place)
I0531 17:28:44.467744 27722 net.cpp:150] Setting up drop_x1
I0531 17:28:44.467757 27722 net.cpp:157] Top shape: 100 196 (19600)
I0531 17:28:44.467768 27722 net.cpp:165] Memory required for data: 162832400
I0531 17:28:44.467777 27722 layer_factory.hpp:77] Creating layer conv_u1
I0531 17:28:44.467797 27722 net.cpp:106] Creating Layer conv_u1
I0531 17:28:44.467820 27722 net.cpp:454] conv_u1 <- hits-u
I0531 17:28:44.467835 27722 net.cpp:411] conv_u1 -> conv_u1
I0531 17:28:44.469826 27722 net.cpp:150] Setting up conv_u1
I0531 17:28:44.469847 27722 net.cpp:157] Top shape: 100 12 120 48 (6912000)
I0531 17:28:44.469861 27722 net.cpp:165] Memory required for data: 190480400
I0531 17:28:44.469876 27722 layer_factory.hpp:77] Creating layer relu_u1
I0531 17:28:44.469890 27722 net.cpp:106] Creating Layer relu_u1
I0531 17:28:44.469899 27722 net.cpp:454] relu_u1 <- conv_u1
I0531 17:28:44.469913 27722 net.cpp:397] relu_u1 -> conv_u1 (in-place)
I0531 17:28:44.470247 27722 net.cpp:150] Setting up relu_u1
I0531 17:28:44.470263 27722 net.cpp:157] Top shape: 100 12 120 48 (6912000)
I0531 17:28:44.470271 27722 net.cpp:165] Memory required for data: 218128400
I0531 17:28:44.470283 27722 layer_factory.hpp:77] Creating layer pool_u1
I0531 17:28:44.470296 27722 net.cpp:106] Creating Layer pool_u1
I0531 17:28:44.470305 27722 net.cpp:454] pool_u1 <- conv_u1
I0531 17:28:44.470319 27722 net.cpp:411] pool_u1 -> pool_u1
I0531 17:28:44.470403 27722 net.cpp:150] Setting up pool_u1
I0531 17:28:44.470417 27722 net.cpp:157] Top shape: 100 12 60 48 (3456000)
I0531 17:28:44.470427 27722 net.cpp:165] Memory required for data: 231952400
I0531 17:28:44.470438 27722 layer_factory.hpp:77] Creating layer conv_u2
I0531 17:28:44.470455 27722 net.cpp:106] Creating Layer conv_u2
I0531 17:28:44.470466 27722 net.cpp:454] conv_u2 <- pool_u1
I0531 17:28:44.470480 27722 net.cpp:411] conv_u2 -> conv_u2
I0531 17:28:44.472425 27722 net.cpp:150] Setting up conv_u2
I0531 17:28:44.472447 27722 net.cpp:157] Top shape: 100 20 54 46 (4968000)
I0531 17:28:44.472460 27722 net.cpp:165] Memory required for data: 251824400
I0531 17:28:44.472477 27722 layer_factory.hpp:77] Creating layer relu_u2
I0531 17:28:44.472491 27722 net.cpp:106] Creating Layer relu_u2
I0531 17:28:44.472501 27722 net.cpp:454] relu_u2 <- conv_u2
I0531 17:28:44.472513 27722 net.cpp:397] relu_u2 -> conv_u2 (in-place)
I0531 17:28:44.473011 27722 net.cpp:150] Setting up relu_u2
I0531 17:28:44.473028 27722 net.cpp:157] Top shape: 100 20 54 46 (4968000)
I0531 17:28:44.473038 27722 net.cpp:165] Memory required for data: 271696400
I0531 17:28:44.473048 27722 layer_factory.hpp:77] Creating layer pool_u2
I0531 17:28:44.473062 27722 net.cpp:106] Creating Layer pool_u2
I0531 17:28:44.473072 27722 net.cpp:454] pool_u2 <- conv_u2
I0531 17:28:44.473084 27722 net.cpp:411] pool_u2 -> pool_u2
I0531 17:28:44.473163 27722 net.cpp:150] Setting up pool_u2
I0531 17:28:44.473177 27722 net.cpp:157] Top shape: 100 20 27 46 (2484000)
I0531 17:28:44.473187 27722 net.cpp:165] Memory required for data: 281632400
I0531 17:28:44.473197 27722 layer_factory.hpp:77] Creating layer conv_u3
I0531 17:28:44.473217 27722 net.cpp:106] Creating Layer conv_u3
I0531 17:28:44.473227 27722 net.cpp:454] conv_u3 <- pool_u2
I0531 17:28:44.473242 27722 net.cpp:411] conv_u3 -> conv_u3
I0531 17:28:44.475288 27722 net.cpp:150] Setting up conv_u3
I0531 17:28:44.475311 27722 net.cpp:157] Top shape: 100 28 22 44 (2710400)
I0531 17:28:44.475322 27722 net.cpp:165] Memory required for data: 292474000
I0531 17:28:44.475337 27722 layer_factory.hpp:77] Creating layer relu_u3
I0531 17:28:44.475350 27722 net.cpp:106] Creating Layer relu_u3
I0531 17:28:44.475361 27722 net.cpp:454] relu_u3 <- conv_u3
I0531 17:28:44.475374 27722 net.cpp:397] relu_u3 -> conv_u3 (in-place)
I0531 17:28:44.475704 27722 net.cpp:150] Setting up relu_u3
I0531 17:28:44.475718 27722 net.cpp:157] Top shape: 100 28 22 44 (2710400)
I0531 17:28:44.475729 27722 net.cpp:165] Memory required for data: 303315600
I0531 17:28:44.475739 27722 layer_factory.hpp:77] Creating layer pool_u3
I0531 17:28:44.475752 27722 net.cpp:106] Creating Layer pool_u3
I0531 17:28:44.475762 27722 net.cpp:454] pool_u3 <- conv_u3
I0531 17:28:44.475775 27722 net.cpp:411] pool_u3 -> pool_u3
I0531 17:28:44.475853 27722 net.cpp:150] Setting up pool_u3
I0531 17:28:44.475867 27722 net.cpp:157] Top shape: 100 28 11 44 (1355200)
I0531 17:28:44.475877 27722 net.cpp:165] Memory required for data: 308736400
I0531 17:28:44.475898 27722 layer_factory.hpp:77] Creating layer conv_u4
I0531 17:28:44.475915 27722 net.cpp:106] Creating Layer conv_u4
I0531 17:28:44.475925 27722 net.cpp:454] conv_u4 <- pool_u3
I0531 17:28:44.475940 27722 net.cpp:411] conv_u4 -> conv_u4
I0531 17:28:44.478138 27722 net.cpp:150] Setting up conv_u4
I0531 17:28:44.478162 27722 net.cpp:157] Top shape: 100 36 6 42 (907200)
I0531 17:28:44.478173 27722 net.cpp:165] Memory required for data: 312365200
I0531 17:28:44.478196 27722 layer_factory.hpp:77] Creating layer relu_u4
I0531 17:28:44.478209 27722 net.cpp:106] Creating Layer relu_u4
I0531 17:28:44.478219 27722 net.cpp:454] relu_u4 <- conv_u4
I0531 17:28:44.478234 27722 net.cpp:397] relu_u4 -> conv_u4 (in-place)
I0531 17:28:44.478566 27722 net.cpp:150] Setting up relu_u4
I0531 17:28:44.478580 27722 net.cpp:157] Top shape: 100 36 6 42 (907200)
I0531 17:28:44.478590 27722 net.cpp:165] Memory required for data: 315994000
I0531 17:28:44.478600 27722 layer_factory.hpp:77] Creating layer pool_u4
I0531 17:28:44.478612 27722 net.cpp:106] Creating Layer pool_u4
I0531 17:28:44.478622 27722 net.cpp:454] pool_u4 <- conv_u4
I0531 17:28:44.478636 27722 net.cpp:411] pool_u4 -> pool_u4
I0531 17:28:44.478713 27722 net.cpp:150] Setting up pool_u4
I0531 17:28:44.478725 27722 net.cpp:157] Top shape: 100 36 3 42 (453600)
I0531 17:28:44.478735 27722 net.cpp:165] Memory required for data: 317808400
I0531 17:28:44.478745 27722 layer_factory.hpp:77] Creating layer dl_u1
I0531 17:28:44.478760 27722 net.cpp:106] Creating Layer dl_u1
I0531 17:28:44.478770 27722 net.cpp:454] dl_u1 <- pool_u4
I0531 17:28:44.478785 27722 net.cpp:411] dl_u1 -> dl_u1
I0531 17:28:44.495260 27722 net.cpp:150] Setting up dl_u1
I0531 17:28:44.495290 27722 net.cpp:157] Top shape: 100 196 (19600)
I0531 17:28:44.495299 27722 net.cpp:165] Memory required for data: 317886800
I0531 17:28:44.495316 27722 layer_factory.hpp:77] Creating layer relu_u5
I0531 17:28:44.495331 27722 net.cpp:106] Creating Layer relu_u5
I0531 17:28:44.495342 27722 net.cpp:454] relu_u5 <- dl_u1
I0531 17:28:44.495354 27722 net.cpp:397] relu_u5 -> dl_u1 (in-place)
I0531 17:28:44.495939 27722 net.cpp:150] Setting up relu_u5
I0531 17:28:44.495956 27722 net.cpp:157] Top shape: 100 196 (19600)
I0531 17:28:44.495966 27722 net.cpp:165] Memory required for data: 317965200
I0531 17:28:44.495976 27722 layer_factory.hpp:77] Creating layer drop_u1
I0531 17:28:44.495990 27722 net.cpp:106] Creating Layer drop_u1
I0531 17:28:44.496001 27722 net.cpp:454] drop_u1 <- dl_u1
I0531 17:28:44.496014 27722 net.cpp:397] drop_u1 -> dl_u1 (in-place)
I0531 17:28:44.496062 27722 net.cpp:150] Setting up drop_u1
I0531 17:28:44.496075 27722 net.cpp:157] Top shape: 100 196 (19600)
I0531 17:28:44.496085 27722 net.cpp:165] Memory required for data: 318043600
I0531 17:28:44.496094 27722 layer_factory.hpp:77] Creating layer conv_v1
I0531 17:28:44.496124 27722 net.cpp:106] Creating Layer conv_v1
I0531 17:28:44.496134 27722 net.cpp:454] conv_v1 <- hits-v
I0531 17:28:44.496148 27722 net.cpp:411] conv_v1 -> conv_v1
I0531 17:28:44.498100 27722 net.cpp:150] Setting up conv_v1
I0531 17:28:44.498123 27722 net.cpp:157] Top shape: 100 12 120 48 (6912000)
I0531 17:28:44.498136 27722 net.cpp:165] Memory required for data: 345691600
I0531 17:28:44.498150 27722 layer_factory.hpp:77] Creating layer relu_v1
I0531 17:28:44.498164 27722 net.cpp:106] Creating Layer relu_v1
I0531 17:28:44.498174 27722 net.cpp:454] relu_v1 <- conv_v1
I0531 17:28:44.498188 27722 net.cpp:397] relu_v1 -> conv_v1 (in-place)
I0531 17:28:44.498523 27722 net.cpp:150] Setting up relu_v1
I0531 17:28:44.498538 27722 net.cpp:157] Top shape: 100 12 120 48 (6912000)
I0531 17:28:44.498548 27722 net.cpp:165] Memory required for data: 373339600
I0531 17:28:44.498558 27722 layer_factory.hpp:77] Creating layer pool_v1
I0531 17:28:44.498570 27722 net.cpp:106] Creating Layer pool_v1
I0531 17:28:44.498580 27722 net.cpp:454] pool_v1 <- conv_v1
I0531 17:28:44.498594 27722 net.cpp:411] pool_v1 -> pool_v1
I0531 17:28:44.498674 27722 net.cpp:150] Setting up pool_v1
I0531 17:28:44.498702 27722 net.cpp:157] Top shape: 100 12 60 48 (3456000)
I0531 17:28:44.498713 27722 net.cpp:165] Memory required for data: 387163600
I0531 17:28:44.498723 27722 layer_factory.hpp:77] Creating layer conv_v2
I0531 17:28:44.498740 27722 net.cpp:106] Creating Layer conv_v2
I0531 17:28:44.498751 27722 net.cpp:454] conv_v2 <- pool_v1
I0531 17:28:44.498764 27722 net.cpp:411] conv_v2 -> conv_v2
I0531 17:28:44.500795 27722 net.cpp:150] Setting up conv_v2
I0531 17:28:44.500818 27722 net.cpp:157] Top shape: 100 20 54 46 (4968000)
I0531 17:28:44.500831 27722 net.cpp:165] Memory required for data: 407035600
I0531 17:28:44.500846 27722 layer_factory.hpp:77] Creating layer relu_v2
I0531 17:28:44.500859 27722 net.cpp:106] Creating Layer relu_v2
I0531 17:28:44.500869 27722 net.cpp:454] relu_v2 <- conv_v2
I0531 17:28:44.500883 27722 net.cpp:397] relu_v2 -> conv_v2 (in-place)
I0531 17:28:44.501384 27722 net.cpp:150] Setting up relu_v2
I0531 17:28:44.501400 27722 net.cpp:157] Top shape: 100 20 54 46 (4968000)
I0531 17:28:44.501410 27722 net.cpp:165] Memory required for data: 426907600
I0531 17:28:44.501420 27722 layer_factory.hpp:77] Creating layer pool_v2
I0531 17:28:44.501433 27722 net.cpp:106] Creating Layer pool_v2
I0531 17:28:44.501444 27722 net.cpp:454] pool_v2 <- conv_v2
I0531 17:28:44.501457 27722 net.cpp:411] pool_v2 -> pool_v2
I0531 17:28:44.501538 27722 net.cpp:150] Setting up pool_v2
I0531 17:28:44.501552 27722 net.cpp:157] Top shape: 100 20 27 46 (2484000)
I0531 17:28:44.501562 27722 net.cpp:165] Memory required for data: 436843600
I0531 17:28:44.501572 27722 layer_factory.hpp:77] Creating layer conv_v3
I0531 17:28:44.501590 27722 net.cpp:106] Creating Layer conv_v3
I0531 17:28:44.501600 27722 net.cpp:454] conv_v3 <- pool_v2
I0531 17:28:44.501613 27722 net.cpp:411] conv_v3 -> conv_v3
I0531 17:28:44.503695 27722 net.cpp:150] Setting up conv_v3
I0531 17:28:44.503713 27722 net.cpp:157] Top shape: 100 28 22 44 (2710400)
I0531 17:28:44.503723 27722 net.cpp:165] Memory required for data: 447685200
I0531 17:28:44.503737 27722 layer_factory.hpp:77] Creating layer relu_v3
I0531 17:28:44.503751 27722 net.cpp:106] Creating Layer relu_v3
I0531 17:28:44.503762 27722 net.cpp:454] relu_v3 <- conv_v3
I0531 17:28:44.503774 27722 net.cpp:397] relu_v3 -> conv_v3 (in-place)
I0531 17:28:44.504273 27722 net.cpp:150] Setting up relu_v3
I0531 17:28:44.504289 27722 net.cpp:157] Top shape: 100 28 22 44 (2710400)
I0531 17:28:44.504300 27722 net.cpp:165] Memory required for data: 458526800
I0531 17:28:44.504310 27722 layer_factory.hpp:77] Creating layer pool_v3
I0531 17:28:44.504323 27722 net.cpp:106] Creating Layer pool_v3
I0531 17:28:44.504333 27722 net.cpp:454] pool_v3 <- conv_v3
I0531 17:28:44.504346 27722 net.cpp:411] pool_v3 -> pool_v3
I0531 17:28:44.504426 27722 net.cpp:150] Setting up pool_v3
I0531 17:28:44.504441 27722 net.cpp:157] Top shape: 100 28 11 44 (1355200)
I0531 17:28:44.504451 27722 net.cpp:165] Memory required for data: 463947600
I0531 17:28:44.504461 27722 layer_factory.hpp:77] Creating layer conv_v4
I0531 17:28:44.504478 27722 net.cpp:106] Creating Layer conv_v4
I0531 17:28:44.504488 27722 net.cpp:454] conv_v4 <- pool_v3
I0531 17:28:44.504503 27722 net.cpp:411] conv_v4 -> conv_v4
I0531 17:28:44.506692 27722 net.cpp:150] Setting up conv_v4
I0531 17:28:44.506714 27722 net.cpp:157] Top shape: 100 36 6 42 (907200)
I0531 17:28:44.506727 27722 net.cpp:165] Memory required for data: 467576400
I0531 17:28:44.506742 27722 layer_factory.hpp:77] Creating layer relu_v4
I0531 17:28:44.506757 27722 net.cpp:106] Creating Layer relu_v4
I0531 17:28:44.506767 27722 net.cpp:454] relu_v4 <- conv_v4
I0531 17:28:44.506779 27722 net.cpp:397] relu_v4 -> conv_v4 (in-place)
I0531 17:28:44.507112 27722 net.cpp:150] Setting up relu_v4
I0531 17:28:44.507127 27722 net.cpp:157] Top shape: 100 36 6 42 (907200)
I0531 17:28:44.507136 27722 net.cpp:165] Memory required for data: 471205200
I0531 17:28:44.507145 27722 layer_factory.hpp:77] Creating layer pool_v4
I0531 17:28:44.507159 27722 net.cpp:106] Creating Layer pool_v4
I0531 17:28:44.507179 27722 net.cpp:454] pool_v4 <- conv_v4
I0531 17:28:44.507194 27722 net.cpp:411] pool_v4 -> pool_v4
I0531 17:28:44.507277 27722 net.cpp:150] Setting up pool_v4
I0531 17:28:44.507292 27722 net.cpp:157] Top shape: 100 36 3 42 (453600)
I0531 17:28:44.507300 27722 net.cpp:165] Memory required for data: 473019600
I0531 17:28:44.507311 27722 layer_factory.hpp:77] Creating layer dl_v1
I0531 17:28:44.507326 27722 net.cpp:106] Creating Layer dl_v1
I0531 17:28:44.507339 27722 net.cpp:454] dl_v1 <- pool_v4
I0531 17:28:44.507352 27722 net.cpp:411] dl_v1 -> dl_v1
I0531 17:28:44.523756 27722 net.cpp:150] Setting up dl_v1
I0531 17:28:44.523782 27722 net.cpp:157] Top shape: 100 196 (19600)
I0531 17:28:44.523792 27722 net.cpp:165] Memory required for data: 473098000
I0531 17:28:44.523808 27722 layer_factory.hpp:77] Creating layer relu_v5
I0531 17:28:44.523823 27722 net.cpp:106] Creating Layer relu_v5
I0531 17:28:44.523833 27722 net.cpp:454] relu_v5 <- dl_v1
I0531 17:28:44.523847 27722 net.cpp:397] relu_v5 -> dl_v1 (in-place)
I0531 17:28:44.524440 27722 net.cpp:150] Setting up relu_v5
I0531 17:28:44.524461 27722 net.cpp:157] Top shape: 100 196 (19600)
I0531 17:28:44.524476 27722 net.cpp:165] Memory required for data: 473176400
I0531 17:28:44.524484 27722 layer_factory.hpp:77] Creating layer drop_v1
I0531 17:28:44.524498 27722 net.cpp:106] Creating Layer drop_v1
I0531 17:28:44.524509 27722 net.cpp:454] drop_v1 <- dl_v1
I0531 17:28:44.524523 27722 net.cpp:397] drop_v1 -> dl_v1 (in-place)
I0531 17:28:44.524574 27722 net.cpp:150] Setting up drop_v1
I0531 17:28:44.524586 27722 net.cpp:157] Top shape: 100 196 (19600)
I0531 17:28:44.524596 27722 net.cpp:165] Memory required for data: 473254800
I0531 17:28:44.524605 27722 layer_factory.hpp:77] Creating layer concat_xuv
I0531 17:28:44.524619 27722 net.cpp:106] Creating Layer concat_xuv
I0531 17:28:44.524629 27722 net.cpp:454] concat_xuv <- dl_x1
I0531 17:28:44.524641 27722 net.cpp:454] concat_xuv <- dl_u1
I0531 17:28:44.524652 27722 net.cpp:454] concat_xuv <- dl_v1
I0531 17:28:44.524665 27722 net.cpp:411] concat_xuv -> concat_xuv
I0531 17:28:44.524715 27722 net.cpp:150] Setting up concat_xuv
I0531 17:28:44.524729 27722 net.cpp:157] Top shape: 100 588 (58800)
I0531 17:28:44.524739 27722 net.cpp:165] Memory required for data: 473490000
I0531 17:28:44.524749 27722 layer_factory.hpp:77] Creating layer dl_xuv
I0531 17:28:44.524762 27722 net.cpp:106] Creating Layer dl_xuv
I0531 17:28:44.524773 27722 net.cpp:454] dl_xuv <- concat_xuv
I0531 17:28:44.524786 27722 net.cpp:411] dl_xuv -> dl_xuv
I0531 17:28:44.525837 27722 net.cpp:150] Setting up dl_xuv
I0531 17:28:44.525851 27722 net.cpp:157] Top shape: 100 98 (9800)
I0531 17:28:44.525857 27722 net.cpp:165] Memory required for data: 473529200
I0531 17:28:44.525876 27722 layer_factory.hpp:77] Creating layer relu_xuv
I0531 17:28:44.525888 27722 net.cpp:106] Creating Layer relu_xuv
I0531 17:28:44.525898 27722 net.cpp:454] relu_xuv <- dl_xuv
I0531 17:28:44.525912 27722 net.cpp:397] relu_xuv -> dl_xuv (in-place)
I0531 17:28:44.526242 27722 net.cpp:150] Setting up relu_xuv
I0531 17:28:44.526257 27722 net.cpp:157] Top shape: 100 98 (9800)
I0531 17:28:44.526267 27722 net.cpp:165] Memory required for data: 473568400
I0531 17:28:44.526276 27722 layer_factory.hpp:77] Creating layer drop_xuv
I0531 17:28:44.526289 27722 net.cpp:106] Creating Layer drop_xuv
I0531 17:28:44.526299 27722 net.cpp:454] drop_xuv <- dl_xuv
I0531 17:28:44.526312 27722 net.cpp:397] drop_xuv -> dl_xuv (in-place)
I0531 17:28:44.526360 27722 net.cpp:150] Setting up drop_xuv
I0531 17:28:44.526372 27722 net.cpp:157] Top shape: 100 98 (9800)
I0531 17:28:44.526382 27722 net.cpp:165] Memory required for data: 473607600
I0531 17:28:44.526392 27722 layer_factory.hpp:77] Creating layer output
I0531 17:28:44.526406 27722 net.cpp:106] Creating Layer output
I0531 17:28:44.526415 27722 net.cpp:454] output <- dl_xuv
I0531 17:28:44.526429 27722 net.cpp:411] output -> output
I0531 17:28:44.526674 27722 net.cpp:150] Setting up output
I0531 17:28:44.526689 27722 net.cpp:157] Top shape: 100 11 (1100)
I0531 17:28:44.526710 27722 net.cpp:165] Memory required for data: 473612000
I0531 17:28:44.526742 27722 layer_factory.hpp:77] Creating layer drop_output
I0531 17:28:44.526757 27722 net.cpp:106] Creating Layer drop_output
I0531 17:28:44.526767 27722 net.cpp:454] drop_output <- output
I0531 17:28:44.526780 27722 net.cpp:397] drop_output -> output (in-place)
I0531 17:28:44.526826 27722 net.cpp:150] Setting up drop_output
I0531 17:28:44.526839 27722 net.cpp:157] Top shape: 100 11 (1100)
I0531 17:28:44.526849 27722 net.cpp:165] Memory required for data: 473616400
I0531 17:28:44.526859 27722 layer_factory.hpp:77] Creating layer output_drop_output_0_split
I0531 17:28:44.526873 27722 net.cpp:106] Creating Layer output_drop_output_0_split
I0531 17:28:44.526883 27722 net.cpp:454] output_drop_output_0_split <- output
I0531 17:28:44.526896 27722 net.cpp:411] output_drop_output_0_split -> output_drop_output_0_split_0
I0531 17:28:44.526911 27722 net.cpp:411] output_drop_output_0_split -> output_drop_output_0_split_1
I0531 17:28:44.526988 27722 net.cpp:150] Setting up output_drop_output_0_split
I0531 17:28:44.527000 27722 net.cpp:157] Top shape: 100 11 (1100)
I0531 17:28:44.527012 27722 net.cpp:157] Top shape: 100 11 (1100)
I0531 17:28:44.527021 27722 net.cpp:165] Memory required for data: 473625200
I0531 17:28:44.527031 27722 layer_factory.hpp:77] Creating layer accuracy
I0531 17:28:44.527055 27722 net.cpp:106] Creating Layer accuracy
I0531 17:28:44.527065 27722 net.cpp:454] accuracy <- output_drop_output_0_split_0
I0531 17:28:44.527076 27722 net.cpp:454] accuracy <- segments_data_3_split_0
I0531 17:28:44.527091 27722 net.cpp:411] accuracy -> accuracy
…
