…
I0520 12:27:19.886001 25059 net.cpp:322] The NetState phase (0) differed from the phase (1) specified by a rule in layer data_hdf5
I0520 12:27:19.886059 25059 net.cpp:322] The NetState phase (0) differed from the phase (1) specified by a rule in layer accuracy
I0520 12:27:19.886406 25059 net.cpp:49] Initializing net from parameters: 
name: "caffe_test_127x50_x_unshifted"
state {
  phase: TRAIN
}
layer {
  name: "data_hdf5"
  type: "HDF5Data"
  top: "data"
  top: "label"
  include {
    phase: TRAIN
  }
  hdf5_data_param {
    source: "/lustre/atlas/proj-shared/hep105/caffe_titan/minosmatch_nukecczdefs_127x50_x_unshifted_me1Bmc.trainlist"
    batch_size: 40
  }
}
layer {
  name: "conv1"
  type: "Convolution"
  bottom: "data"
  top: "conv1"
  convolution_param {
    num_output: 12
    pad: 0
    stride: 1
    weight_filler {
      type: "xavier"
    }
    bias_filler {
      type: "constant"
    }
    kernel_h: 8
    kernel_w: 3
  }
}
layer {
  name: "relu1"
  type: "ReLU"
  bottom: "conv1"
  top: "conv1"
}
layer {
  name: "pool1"
  type: "Pooling"
  bottom: "conv1"
  top: "pool1"
  pooling_param {
    pool: MAX
    kernel_h: 2
    kernel_w: 1
    stride_h: 2
    stride_w: 1
  }
}
layer {
  name: "conv2"
  type: "Convolution"
  bottom: "pool1"
  top: "conv2"
  convolution_param {
    num_output: 20
    pad: 0
    stride: 1
    weight_filler {
      type: "xavier"
    }
    bias_filler {
      type: "constant"
    }
    kernel_h: 7
    kernel_w: 3
  }
}
layer {
  name: "relu2"
  type: "ReLU"
  bottom: "conv2"
  top: "conv2"
}
layer {
  name: "pool2"
  type: "Pooling"
  bottom: "conv2"
  top: "pool2"
  pooling_param {
    pool: MAX
    kernel_h: 2
    kernel_w: 1
    stride_h: 2
    stride_w: 1
  }
}
layer {
  name: "conv3"
  type: "Convolution"
  bottom: "pool2"
  top: "conv3"
  convolution_param {
    num_output: 28
    pad: 0
    stride: 1
    weight_filler {
      type: "xavier"
    }
    bias_filler {
      type: "constant"
    }
    kernel_h: 6
    kernel_w: 3
  }
}
layer {
  name: "relu3"
  type: "ReLU"
  bottom: "conv3"
  top: "conv3"
}
layer {
  name: "pool3"
  type: "Pooling"
  bottom: "conv3"
  top: "pool3"
  pooling_param {
    pool: MAX
    kernel_h: 2
    kernel_w: 1
    stride_h: 2
    stride_w: 1
  }
}
layer {
  name: "conv4"
  type: "Convolution"
  bottom: "pool3"
  top: "conv4"
  convolution_param {
    num_output: 36
    pad: 0
    stride: 1
    weight_filler {
      type: "xavier"
    }
    bias_filler {
      type: "constant"
    }
    kernel_h: 6
    kernel_w: 3
  }
}
layer {
  name: "relu4"
  type: "ReLU"
  bottom: "conv4"
  top: "conv4"
}
layer {
  name: "pool4"
  type: "Pooling"
  bottom: "conv4"
  top: "pool4"
  pooling_param {
    pool: MAX
    kernel_h: 2
    kernel_w: 1
    stride_h: 2
    stride_w: 1
  }
}
layer {
  name: "ip1"
  type: "InnerProduct"
  bottom: "pool4"
  top: "ip1"
  inner_product_param {
    num_output: 196
    weight_filler {
      type: "xavier"
    }
    bias_filler {
      type: "constant"
    }
  }
}
layer {
  name: "relu5"
  type: "ReLU"
  bottom: "ip1"
  top: "ip1"
}
layer {
  name: "drop1"
  type: "Dropout"
  bottom: "ip1"
  top: "ip1"
  dropout_param {
    dropout_ratio: 0.5
  }
}
layer {
  name: "ip2"
  type: "InnerProduct"
  bottom: "ip1"
  top: "ip2"
  inner_product_param {
    num_output: 98
    weight_filler {
      type: "xavier"
    }
    bias_filler {
      type: "constant"
    }
  }
}
layer {
  name: "relu6"
  type: "ReLU"
  bottom: "ip2"
  top: "ip2"
}
layer {
  name: "drop2"
  type: "Dropout"
  bottom: "ip2"
  top: "ip2"
  dropout_param {
    dropout_ratio: 0.5
  }
}
layer {
  name: "ip3"
  type: "InnerProduct"
  bottom: "ip2"
  top: "ip3"
  inner_product_param {
    num_output: 11
    weight_filler {
      type: "xavier"
    }
    bias_filler {
      type: "constant"
    }
  }
}
layer {
  name: "drop3"
  type: "Dropout"
  bottom: "ip3"
  top: "ip3"
  dropout_param {
    dropout_ratio: 0.5
  }
}
layer {
  name: "loss"
  type: "SoftmaxWithLoss"
  bottom: "ip3"
  bottom: "label"
  top: "loss"
}
I0520 12:27:19.886587 25059 layer_factory.hpp:77] Creating layer data_hdf5
I0520 12:27:19.886611 25059 net.cpp:106] Creating Layer data_hdf5
I0520 12:27:19.886626 25059 net.cpp:411] data_hdf5 -> data
I0520 12:27:19.886659 25059 net.cpp:411] data_hdf5 -> label
I0520 12:27:19.886693 25059 hdf5_data_layer.cpp:79] Loading list of HDF5 filenames from: /lustre/atlas/proj-shared/hep105/caffe_titan/minosmatch_nukecczdefs_127x50_x_unshifted_me1Bmc.trainlist
I0520 12:27:19.888036 25059 hdf5_data_layer.cpp:93] Number of HDF5 files: 15
I0520 12:27:19.890270 25059 hdf5.cpp:32] Datatype class: H5T_FLOAT
I0520 12:27:41.410823 25059 hdf5.cpp:35] Datatype class: H5T_INTEGER
I0520 12:27:41.415920 25059 net.cpp:150] Setting up data_hdf5
I0520 12:27:41.415959 25059 net.cpp:157] Top shape: 40 1 127 50 (254000)
I0520 12:27:41.415973 25059 net.cpp:157] Top shape: 40 (40)
I0520 12:27:41.415987 25059 net.cpp:165] Memory required for data: 1016160
I0520 12:27:41.415999 25059 layer_factory.hpp:77] Creating layer conv1
I0520 12:27:41.416033 25059 net.cpp:106] Creating Layer conv1
I0520 12:27:41.416043 25059 net.cpp:454] conv1 <- data
I0520 12:27:41.416064 25059 net.cpp:411] conv1 -> conv1
I0520 12:27:41.790956 25059 net.cpp:150] Setting up conv1
I0520 12:27:41.791002 25059 net.cpp:157] Top shape: 40 12 120 48 (2764800)
I0520 12:27:41.791013 25059 net.cpp:165] Memory required for data: 12075360
I0520 12:27:41.791043 25059 layer_factory.hpp:77] Creating layer relu1
I0520 12:27:41.791064 25059 net.cpp:106] Creating Layer relu1
I0520 12:27:41.791075 25059 net.cpp:454] relu1 <- conv1
I0520 12:27:41.791088 25059 net.cpp:397] relu1 -> conv1 (in-place)
I0520 12:27:41.791611 25059 net.cpp:150] Setting up relu1
I0520 12:27:41.791627 25059 net.cpp:157] Top shape: 40 12 120 48 (2764800)
I0520 12:27:41.791638 25059 net.cpp:165] Memory required for data: 23134560
I0520 12:27:41.791648 25059 layer_factory.hpp:77] Creating layer pool1
I0520 12:27:41.791666 25059 net.cpp:106] Creating Layer pool1
I0520 12:27:41.791676 25059 net.cpp:454] pool1 <- conv1
I0520 12:27:41.791689 25059 net.cpp:411] pool1 -> pool1
I0520 12:27:41.791770 25059 net.cpp:150] Setting up pool1
I0520 12:27:41.791785 25059 net.cpp:157] Top shape: 40 12 60 48 (1382400)
I0520 12:27:41.791795 25059 net.cpp:165] Memory required for data: 28664160
I0520 12:27:41.791805 25059 layer_factory.hpp:77] Creating layer conv2
I0520 12:27:41.791826 25059 net.cpp:106] Creating Layer conv2
I0520 12:27:41.791837 25059 net.cpp:454] conv2 <- pool1
I0520 12:27:41.791851 25059 net.cpp:411] conv2 -> conv2
I0520 12:27:41.794538 25059 net.cpp:150] Setting up conv2
I0520 12:27:41.794566 25059 net.cpp:157] Top shape: 40 20 54 46 (1987200)
I0520 12:27:41.794576 25059 net.cpp:165] Memory required for data: 36612960
I0520 12:27:41.794596 25059 layer_factory.hpp:77] Creating layer relu2
I0520 12:27:41.794610 25059 net.cpp:106] Creating Layer relu2
I0520 12:27:41.794620 25059 net.cpp:454] relu2 <- conv2
I0520 12:27:41.794632 25059 net.cpp:397] relu2 -> conv2 (in-place)
I0520 12:27:41.794962 25059 net.cpp:150] Setting up relu2
I0520 12:27:41.794977 25059 net.cpp:157] Top shape: 40 20 54 46 (1987200)
I0520 12:27:41.794992 25059 net.cpp:165] Memory required for data: 44561760
I0520 12:27:41.795002 25059 layer_factory.hpp:77] Creating layer pool2
I0520 12:27:41.795014 25059 net.cpp:106] Creating Layer pool2
I0520 12:27:41.795024 25059 net.cpp:454] pool2 <- conv2
I0520 12:27:41.795049 25059 net.cpp:411] pool2 -> pool2
I0520 12:27:41.795119 25059 net.cpp:150] Setting up pool2
I0520 12:27:41.795131 25059 net.cpp:157] Top shape: 40 20 27 46 (993600)
I0520 12:27:41.795141 25059 net.cpp:165] Memory required for data: 48536160
I0520 12:27:41.795151 25059 layer_factory.hpp:77] Creating layer conv3
I0520 12:27:41.795171 25059 net.cpp:106] Creating Layer conv3
I0520 12:27:41.795181 25059 net.cpp:454] conv3 <- pool2
I0520 12:27:41.795195 25059 net.cpp:411] conv3 -> conv3
I0520 12:27:41.797132 25059 net.cpp:150] Setting up conv3
I0520 12:27:41.797155 25059 net.cpp:157] Top shape: 40 28 22 44 (1084160)
I0520 12:27:41.797168 25059 net.cpp:165] Memory required for data: 52872800
I0520 12:27:41.797188 25059 layer_factory.hpp:77] Creating layer relu3
I0520 12:27:41.797204 25059 net.cpp:106] Creating Layer relu3
I0520 12:27:41.797214 25059 net.cpp:454] relu3 <- conv3
I0520 12:27:41.797225 25059 net.cpp:397] relu3 -> conv3 (in-place)
I0520 12:27:41.797695 25059 net.cpp:150] Setting up relu3
I0520 12:27:41.797713 25059 net.cpp:157] Top shape: 40 28 22 44 (1084160)
I0520 12:27:41.797724 25059 net.cpp:165] Memory required for data: 57209440
I0520 12:27:41.797734 25059 layer_factory.hpp:77] Creating layer pool3
I0520 12:27:41.797746 25059 net.cpp:106] Creating Layer pool3
I0520 12:27:41.797756 25059 net.cpp:454] pool3 <- conv3
I0520 12:27:41.797770 25059 net.cpp:411] pool3 -> pool3
I0520 12:27:41.797837 25059 net.cpp:150] Setting up pool3
I0520 12:27:41.797850 25059 net.cpp:157] Top shape: 40 28 11 44 (542080)
I0520 12:27:41.797860 25059 net.cpp:165] Memory required for data: 59377760
I0520 12:27:41.797868 25059 layer_factory.hpp:77] Creating layer conv4
I0520 12:27:41.797886 25059 net.cpp:106] Creating Layer conv4
I0520 12:27:41.797896 25059 net.cpp:454] conv4 <- pool3
I0520 12:27:41.797910 25059 net.cpp:411] conv4 -> conv4
I0520 12:27:41.800676 25059 net.cpp:150] Setting up conv4
I0520 12:27:41.800704 25059 net.cpp:157] Top shape: 40 36 6 42 (362880)
I0520 12:27:41.800715 25059 net.cpp:165] Memory required for data: 60829280
I0520 12:27:41.800730 25059 layer_factory.hpp:77] Creating layer relu4
I0520 12:27:41.800745 25059 net.cpp:106] Creating Layer relu4
I0520 12:27:41.800755 25059 net.cpp:454] relu4 <- conv4
I0520 12:27:41.800767 25059 net.cpp:397] relu4 -> conv4 (in-place)
I0520 12:27:41.801254 25059 net.cpp:150] Setting up relu4
I0520 12:27:41.801270 25059 net.cpp:157] Top shape: 40 36 6 42 (362880)
I0520 12:27:41.801280 25059 net.cpp:165] Memory required for data: 62280800
I0520 12:27:41.801291 25059 layer_factory.hpp:77] Creating layer pool4
I0520 12:27:41.801304 25059 net.cpp:106] Creating Layer pool4
I0520 12:27:41.801314 25059 net.cpp:454] pool4 <- conv4
I0520 12:27:41.801327 25059 net.cpp:411] pool4 -> pool4
I0520 12:27:41.801395 25059 net.cpp:150] Setting up pool4
I0520 12:27:41.801409 25059 net.cpp:157] Top shape: 40 36 3 42 (181440)
I0520 12:27:41.801419 25059 net.cpp:165] Memory required for data: 63006560
I0520 12:27:41.801429 25059 layer_factory.hpp:77] Creating layer ip1
I0520 12:27:41.801450 25059 net.cpp:106] Creating Layer ip1
I0520 12:27:41.801460 25059 net.cpp:454] ip1 <- pool4
I0520 12:27:41.801472 25059 net.cpp:411] ip1 -> ip1
I0520 12:27:41.816953 25059 net.cpp:150] Setting up ip1
I0520 12:27:41.816983 25059 net.cpp:157] Top shape: 40 196 (7840)
I0520 12:27:41.816999 25059 net.cpp:165] Memory required for data: 63037920
I0520 12:27:41.817028 25059 layer_factory.hpp:77] Creating layer relu5
I0520 12:27:41.817042 25059 net.cpp:106] Creating Layer relu5
I0520 12:27:41.817052 25059 net.cpp:454] relu5 <- ip1
I0520 12:27:41.817066 25059 net.cpp:397] relu5 -> ip1 (in-place)
I0520 12:27:41.817414 25059 net.cpp:150] Setting up relu5
I0520 12:27:41.817430 25059 net.cpp:157] Top shape: 40 196 (7840)
I0520 12:27:41.817440 25059 net.cpp:165] Memory required for data: 63069280
I0520 12:27:41.817451 25059 layer_factory.hpp:77] Creating layer drop1
I0520 12:27:41.817471 25059 net.cpp:106] Creating Layer drop1
I0520 12:27:41.817481 25059 net.cpp:454] drop1 <- ip1
I0520 12:27:41.817493 25059 net.cpp:397] drop1 -> ip1 (in-place)
I0520 12:27:41.817551 25059 net.cpp:150] Setting up drop1
I0520 12:27:41.817565 25059 net.cpp:157] Top shape: 40 196 (7840)
I0520 12:27:41.817575 25059 net.cpp:165] Memory required for data: 63100640
I0520 12:27:41.817585 25059 layer_factory.hpp:77] Creating layer ip2
I0520 12:27:41.817603 25059 net.cpp:106] Creating Layer ip2
I0520 12:27:41.817613 25059 net.cpp:454] ip2 <- ip1
I0520 12:27:41.817626 25059 net.cpp:411] ip2 -> ip2
I0520 12:27:41.818089 25059 net.cpp:150] Setting up ip2
I0520 12:27:41.818102 25059 net.cpp:157] Top shape: 40 98 (3920)
I0520 12:27:41.818111 25059 net.cpp:165] Memory required for data: 63116320
I0520 12:27:41.818127 25059 layer_factory.hpp:77] Creating layer relu6
I0520 12:27:41.818140 25059 net.cpp:106] Creating Layer relu6
I0520 12:27:41.818150 25059 net.cpp:454] relu6 <- ip2
I0520 12:27:41.818161 25059 net.cpp:397] relu6 -> ip2 (in-place)
I0520 12:27:41.818681 25059 net.cpp:150] Setting up relu6
I0520 12:27:41.818696 25059 net.cpp:157] Top shape: 40 98 (3920)
I0520 12:27:41.818707 25059 net.cpp:165] Memory required for data: 63132000
I0520 12:27:41.818717 25059 layer_factory.hpp:77] Creating layer drop2
I0520 12:27:41.818730 25059 net.cpp:106] Creating Layer drop2
I0520 12:27:41.818740 25059 net.cpp:454] drop2 <- ip2
I0520 12:27:41.818753 25059 net.cpp:397] drop2 -> ip2 (in-place)
I0520 12:27:41.818795 25059 net.cpp:150] Setting up drop2
I0520 12:27:41.818809 25059 net.cpp:157] Top shape: 40 98 (3920)
I0520 12:27:41.818819 25059 net.cpp:165] Memory required for data: 63147680
I0520 12:27:41.818830 25059 layer_factory.hpp:77] Creating layer ip3
I0520 12:27:41.818843 25059 net.cpp:106] Creating Layer ip3
I0520 12:27:41.818852 25059 net.cpp:454] ip3 <- ip2
I0520 12:27:41.818866 25059 net.cpp:411] ip3 -> ip3
I0520 12:27:41.819074 25059 net.cpp:150] Setting up ip3
I0520 12:27:41.819088 25059 net.cpp:157] Top shape: 40 11 (440)
I0520 12:27:41.819098 25059 net.cpp:165] Memory required for data: 63149440
I0520 12:27:41.819113 25059 layer_factory.hpp:77] Creating layer drop3
I0520 12:27:41.819125 25059 net.cpp:106] Creating Layer drop3
I0520 12:27:41.819135 25059 net.cpp:454] drop3 <- ip3
I0520 12:27:41.819147 25059 net.cpp:397] drop3 -> ip3 (in-place)
I0520 12:27:41.819186 25059 net.cpp:150] Setting up drop3
I0520 12:27:41.819198 25059 net.cpp:157] Top shape: 40 11 (440)
I0520 12:27:41.819210 25059 net.cpp:165] Memory required for data: 63151200
I0520 12:27:41.819219 25059 layer_factory.hpp:77] Creating layer loss
I0520 12:27:41.819238 25059 net.cpp:106] Creating Layer loss
I0520 12:27:41.819247 25059 net.cpp:454] loss <- ip3
I0520 12:27:41.819258 25059 net.cpp:454] loss <- label
I0520 12:27:41.819272 25059 net.cpp:411] loss -> loss
I0520 12:27:41.819289 25059 layer_factory.hpp:77] Creating layer loss
…
I0520 12:27:41.821846 25059 solver.cpp:181] Creating test net (#0) specified by net file: /lustre/atlas/proj-shared/hep105/caffe_titan/caffe_workflow/logs_batch_size_test/batch_size_40_2016-05-20T11.20.34.161583.prototxt
I0520 12:27:41.821920 25059 net.cpp:322] The NetState phase (1) differed from the phase (0) specified by a rule in layer data_hdf5
I0520 12:27:41.822278 25059 net.cpp:49] Initializing net from parameters: 
name: "caffe_test_127x50_x_unshifted"
state {
  phase: TEST
}
layer {
  name: "data_hdf5"
  type: "HDF5Data"
  top: "data"
  top: "label"
  include {
    phase: TEST
  }
  hdf5_data_param {
    source: "/lustre/atlas/proj-shared/hep105/caffe_titan/minosmatch_nukecczdefs_127x50_x_unshifted_me1Bmc.testlist"
    batch_size: 40
  }
}
layer {
  name: "conv1"
  type: "Convolution"
  bottom: "data"
  top: "conv1"
  convolution_param {
    num_output: 12
    pad: 0
    stride: 1
    weight_filler {
      type: "xavier"
    }
    bias_filler {
      type: "constant"
    }
    kernel_h: 8
    kernel_w: 3
  }
}
layer {
  name: "relu1"
  type: "ReLU"
  bottom: "conv1"
  top: "conv1"
}
layer {
  name: "pool1"
  type: "Pooling"
  bottom: "conv1"
  top: "pool1"
  pooling_param {
    pool: MAX
    kernel_h: 2
    kernel_w: 1
    stride_h: 2
    stride_w: 1
  }
}
layer {
  name: "conv2"
  type: "Convolution"
  bottom: "pool1"
  top: "conv2"
  convolution_param {
    num_output: 20
    pad: 0
    stride: 1
    weight_filler {
      type: "xavier"
    }
    bias_filler {
      type: "constant"
    }
    kernel_h: 7
    kernel_w: 3
  }
}
layer {
  name: "relu2"
  type: "ReLU"
  bottom: "conv2"
  top: "conv2"
}
layer {
  name: "pool2"
  type: "Pooling"
  bottom: "conv2"
  top: "pool2"
  pooling_param {
    pool: MAX
    kernel_h: 2
    kernel_w: 1
    stride_h: 2
    stride_w: 1
  }
}
layer {
  name: "conv3"
  type: "Convolution"
  bottom: "pool2"
  top: "conv3"
  convolution_param {
    num_output: 28
    pad: 0
    stride: 1
    weight_filler {
      type: "xavier"
    }
    bias_filler {
      type: "constant"
    }
    kernel_h: 6
    kernel_w: 3
  }
}
layer {
  name: "relu3"
  type: "ReLU"
  bottom: "conv3"
  top: "conv3"
}
layer {
  name: "pool3"
  type: "Pooling"
  bottom: "conv3"
  top: "pool3"
  pooling_param {
    pool: MAX
    kernel_h: 2
    kernel_w: 1
    stride_h: 2
    stride_w: 1
  }
}
layer {
  name: "conv4"
  type: "Convolution"
  bottom: "pool3"
  top: "conv4"
  convolution_param {
    num_output: 36
    pad: 0
    stride: 1
    weight_filler {
      type: "xavier"
    }
    bias_filler {
      type: "constant"
    }
    kernel_h: 6
    kernel_w: 3
  }
}
layer {
  name: "relu4"
  type: "ReLU"
  bottom: "conv4"
  top: "conv4"
}
layer {
  name: "pool4"
  type: "Pooling"
  bottom: "conv4"
  top: "pool4"
  pooling_param {
    pool: MAX
    kernel_h: 2
    kernel_w: 1
    stride_h: 2
    stride_w: 1
  }
}
layer {
  name: "ip1"
  type: "InnerProduct"
  bottom: "pool4"
  top: "ip1"
  inner_product_param {
    num_output: 196
    weight_filler {
      type: "xavier"
    }
    bias_filler {
      type: "constant"
    }
  }
}
layer {
  name: "relu5"
  type: "ReLU"
  bottom: "ip1"
  top: "ip1"
}
layer {
  name: "drop1"
  type: "Dropout"
  bottom: "ip1"
  top: "ip1"
  dropout_param {
    dropout_ratio: 0.5
  }
}
layer {
  name: "ip2"
  type: "InnerProduct"
  bottom: "ip1"
  top: "ip2"
  inner_product_param {
    num_output: 98
    weight_filler {
      type: "xavier"
    }
    bias_filler {
      type: "constant"
    }
  }
}
layer {
  name: "relu6"
  type: "ReLU"
  bottom: "ip2"
  top: "ip2"
}
layer {
  name: "drop2"
  type: "Dropout"
  bottom: "ip2"
  top: "ip2"
  dropout_param {
    dropout_ratio: 0.5
  }
}
layer {
  name: "ip3"
  type: "InnerProduct"
  bottom: "ip2"
  top: "ip3"
  inner_product_param {
    num_output: 11
    weight_filler {
      type: "xavier"
    }
    bias_filler {
      type: "constant"
    }
  }
}
layer {
  name: "drop3"
  type: "Dropout"
  bottom: "ip3"
  top: "ip3"
  dropout_param {
    dropout_ratio: 0.5
  }
}
layer {
  name: "accuracy"
  type: "Accuracy"
  bottom: "ip3"
  bottom: "label"
  top: "accuracy"
  include {
    phase: TEST
  }
}
layer {
  name: "loss"
  type: "SoftmaxWithLoss"
  bottom: "ip3"
  bottom: "label"
  top: "loss"
}
I0520 12:27:41.822468 25059 layer_factory.hpp:77] Creating layer data_hdf5
I0520 12:27:41.822481 25059 net.cpp:106] Creating Layer data_hdf5
I0520 12:27:41.822494 25059 net.cpp:411] data_hdf5 -> data
I0520 12:27:41.822511 25059 net.cpp:411] data_hdf5 -> label
I0520 12:27:41.822527 25059 hdf5_data_layer.cpp:79] Loading list of HDF5 filenames from: /lustre/atlas/proj-shared/hep105/caffe_titan/minosmatch_nukecczdefs_127x50_x_unshifted_me1Bmc.testlist
I0520 12:27:41.823886 25059 hdf5_data_layer.cpp:93] Number of HDF5 files: 3
I0520 12:28:03.108777 25059 net.cpp:150] Setting up data_hdf5
I0520 12:28:03.108944 25059 net.cpp:157] Top shape: 40 1 127 50 (254000)
I0520 12:28:03.108958 25059 net.cpp:157] Top shape: 40 (40)
I0520 12:28:03.108971 25059 net.cpp:165] Memory required for data: 1016160
I0520 12:28:03.108984 25059 layer_factory.hpp:77] Creating layer label_data_hdf5_1_split
I0520 12:28:03.109012 25059 net.cpp:106] Creating Layer label_data_hdf5_1_split
I0520 12:28:03.109024 25059 net.cpp:454] label_data_hdf5_1_split <- label
I0520 12:28:03.109038 25059 net.cpp:411] label_data_hdf5_1_split -> label_data_hdf5_1_split_0
I0520 12:28:03.109060 25059 net.cpp:411] label_data_hdf5_1_split -> label_data_hdf5_1_split_1
I0520 12:28:03.109143 25059 net.cpp:150] Setting up label_data_hdf5_1_split
I0520 12:28:03.109155 25059 net.cpp:157] Top shape: 40 (40)
I0520 12:28:03.109168 25059 net.cpp:157] Top shape: 40 (40)
I0520 12:28:03.109177 25059 net.cpp:165] Memory required for data: 1016480
I0520 12:28:03.109187 25059 layer_factory.hpp:77] Creating layer conv1
I0520 12:28:03.109210 25059 net.cpp:106] Creating Layer conv1
I0520 12:28:03.109221 25059 net.cpp:454] conv1 <- data
I0520 12:28:03.109236 25059 net.cpp:411] conv1 -> conv1
I0520 12:28:03.111179 25059 net.cpp:150] Setting up conv1
I0520 12:28:03.111198 25059 net.cpp:157] Top shape: 40 12 120 48 (2764800)
I0520 12:28:03.111208 25059 net.cpp:165] Memory required for data: 12075680
I0520 12:28:03.111228 25059 layer_factory.hpp:77] Creating layer relu1
I0520 12:28:03.111243 25059 net.cpp:106] Creating Layer relu1
I0520 12:28:03.111253 25059 net.cpp:454] relu1 <- conv1
I0520 12:28:03.111266 25059 net.cpp:397] relu1 -> conv1 (in-place)
I0520 12:28:03.111764 25059 net.cpp:150] Setting up relu1
I0520 12:28:03.111780 25059 net.cpp:157] Top shape: 40 12 120 48 (2764800)
I0520 12:28:03.111790 25059 net.cpp:165] Memory required for data: 23134880
I0520 12:28:03.111801 25059 layer_factory.hpp:77] Creating layer pool1
I0520 12:28:03.111817 25059 net.cpp:106] Creating Layer pool1
I0520 12:28:03.111827 25059 net.cpp:454] pool1 <- conv1
I0520 12:28:03.111840 25059 net.cpp:411] pool1 -> pool1
I0520 12:28:03.111915 25059 net.cpp:150] Setting up pool1
I0520 12:28:03.111928 25059 net.cpp:157] Top shape: 40 12 60 48 (1382400)
I0520 12:28:03.111938 25059 net.cpp:165] Memory required for data: 28664480
I0520 12:28:03.111949 25059 layer_factory.hpp:77] Creating layer conv2
I0520 12:28:03.111966 25059 net.cpp:106] Creating Layer conv2
I0520 12:28:03.111976 25059 net.cpp:454] conv2 <- pool1
I0520 12:28:03.111990 25059 net.cpp:411] conv2 -> conv2
I0520 12:28:03.113904 25059 net.cpp:150] Setting up conv2
I0520 12:28:03.113926 25059 net.cpp:157] Top shape: 40 20 54 46 (1987200)
I0520 12:28:03.113940 25059 net.cpp:165] Memory required for data: 36613280
I0520 12:28:03.113957 25059 layer_factory.hpp:77] Creating layer relu2
I0520 12:28:03.113971 25059 net.cpp:106] Creating Layer relu2
I0520 12:28:03.113981 25059 net.cpp:454] relu2 <- conv2
I0520 12:28:03.113994 25059 net.cpp:397] relu2 -> conv2 (in-place)
I0520 12:28:03.114326 25059 net.cpp:150] Setting up relu2
I0520 12:28:03.114341 25059 net.cpp:157] Top shape: 40 20 54 46 (1987200)
I0520 12:28:03.114351 25059 net.cpp:165] Memory required for data: 44562080
I0520 12:28:03.114361 25059 layer_factory.hpp:77] Creating layer pool2
I0520 12:28:03.114373 25059 net.cpp:106] Creating Layer pool2
I0520 12:28:03.114383 25059 net.cpp:454] pool2 <- conv2
I0520 12:28:03.114395 25059 net.cpp:411] pool2 -> pool2
I0520 12:28:03.114466 25059 net.cpp:150] Setting up pool2
I0520 12:28:03.114480 25059 net.cpp:157] Top shape: 40 20 27 46 (993600)
I0520 12:28:03.114490 25059 net.cpp:165] Memory required for data: 48536480
I0520 12:28:03.114500 25059 layer_factory.hpp:77] Creating layer conv3
I0520 12:28:03.114517 25059 net.cpp:106] Creating Layer conv3
I0520 12:28:03.114528 25059 net.cpp:454] conv3 <- pool2
I0520 12:28:03.114542 25059 net.cpp:411] conv3 -> conv3
I0520 12:28:03.116502 25059 net.cpp:150] Setting up conv3
I0520 12:28:03.116524 25059 net.cpp:157] Top shape: 40 28 22 44 (1084160)
I0520 12:28:03.116538 25059 net.cpp:165] Memory required for data: 52873120
I0520 12:28:03.116569 25059 layer_factory.hpp:77] Creating layer relu3
I0520 12:28:03.116583 25059 net.cpp:106] Creating Layer relu3
I0520 12:28:03.116593 25059 net.cpp:454] relu3 <- conv3
I0520 12:28:03.116606 25059 net.cpp:397] relu3 -> conv3 (in-place)
I0520 12:28:03.117076 25059 net.cpp:150] Setting up relu3
I0520 12:28:03.117094 25059 net.cpp:157] Top shape: 40 28 22 44 (1084160)
I0520 12:28:03.117111 25059 net.cpp:165] Memory required for data: 57209760
I0520 12:28:03.117121 25059 layer_factory.hpp:77] Creating layer pool3
I0520 12:28:03.117135 25059 net.cpp:106] Creating Layer pool3
I0520 12:28:03.117144 25059 net.cpp:454] pool3 <- conv3
I0520 12:28:03.117157 25059 net.cpp:411] pool3 -> pool3
I0520 12:28:03.117230 25059 net.cpp:150] Setting up pool3
I0520 12:28:03.117244 25059 net.cpp:157] Top shape: 40 28 11 44 (542080)
I0520 12:28:03.117254 25059 net.cpp:165] Memory required for data: 59378080
I0520 12:28:03.117265 25059 layer_factory.hpp:77] Creating layer conv4
I0520 12:28:03.117282 25059 net.cpp:106] Creating Layer conv4
I0520 12:28:03.117293 25059 net.cpp:454] conv4 <- pool3
I0520 12:28:03.117307 25059 net.cpp:411] conv4 -> conv4
I0520 12:28:03.119362 25059 net.cpp:150] Setting up conv4
I0520 12:28:03.119380 25059 net.cpp:157] Top shape: 40 36 6 42 (362880)
I0520 12:28:03.119391 25059 net.cpp:165] Memory required for data: 60829600
I0520 12:28:03.119406 25059 layer_factory.hpp:77] Creating layer relu4
I0520 12:28:03.119420 25059 net.cpp:106] Creating Layer relu4
I0520 12:28:03.119429 25059 net.cpp:454] relu4 <- conv4
I0520 12:28:03.119442 25059 net.cpp:397] relu4 -> conv4 (in-place)
I0520 12:28:03.119912 25059 net.cpp:150] Setting up relu4
I0520 12:28:03.119928 25059 net.cpp:157] Top shape: 40 36 6 42 (362880)
I0520 12:28:03.119940 25059 net.cpp:165] Memory required for data: 62281120
I0520 12:28:03.119949 25059 layer_factory.hpp:77] Creating layer pool4
I0520 12:28:03.119962 25059 net.cpp:106] Creating Layer pool4
I0520 12:28:03.119972 25059 net.cpp:454] pool4 <- conv4
I0520 12:28:03.119985 25059 net.cpp:411] pool4 -> pool4
I0520 12:28:03.120056 25059 net.cpp:150] Setting up pool4
I0520 12:28:03.120070 25059 net.cpp:157] Top shape: 40 36 3 42 (181440)
I0520 12:28:03.120079 25059 net.cpp:165] Memory required for data: 63006880
I0520 12:28:03.120090 25059 layer_factory.hpp:77] Creating layer ip1
I0520 12:28:03.120102 25059 net.cpp:106] Creating Layer ip1
I0520 12:28:03.120113 25059 net.cpp:454] ip1 <- pool4
I0520 12:28:03.120126 25059 net.cpp:411] ip1 -> ip1
I0520 12:28:03.135637 25059 net.cpp:150] Setting up ip1
I0520 12:28:03.135664 25059 net.cpp:157] Top shape: 40 196 (7840)
I0520 12:28:03.135680 25059 net.cpp:165] Memory required for data: 63038240
I0520 12:28:03.135709 25059 layer_factory.hpp:77] Creating layer relu5
I0520 12:28:03.135723 25059 net.cpp:106] Creating Layer relu5
I0520 12:28:03.135735 25059 net.cpp:454] relu5 <- ip1
I0520 12:28:03.135747 25059 net.cpp:397] relu5 -> ip1 (in-place)
I0520 12:28:03.136093 25059 net.cpp:150] Setting up relu5
I0520 12:28:03.136107 25059 net.cpp:157] Top shape: 40 196 (7840)
I0520 12:28:03.136117 25059 net.cpp:165] Memory required for data: 63069600
I0520 12:28:03.136127 25059 layer_factory.hpp:77] Creating layer drop1
I0520 12:28:03.136147 25059 net.cpp:106] Creating Layer drop1
I0520 12:28:03.136157 25059 net.cpp:454] drop1 <- ip1
I0520 12:28:03.136169 25059 net.cpp:397] drop1 -> ip1 (in-place)
I0520 12:28:03.136215 25059 net.cpp:150] Setting up drop1
I0520 12:28:03.136229 25059 net.cpp:157] Top shape: 40 196 (7840)
I0520 12:28:03.136239 25059 net.cpp:165] Memory required for data: 63100960
I0520 12:28:03.136248 25059 layer_factory.hpp:77] Creating layer ip2
I0520 12:28:03.136262 25059 net.cpp:106] Creating Layer ip2
I0520 12:28:03.136272 25059 net.cpp:454] ip2 <- ip1
I0520 12:28:03.136286 25059 net.cpp:411] ip2 -> ip2
I0520 12:28:03.136764 25059 net.cpp:150] Setting up ip2
I0520 12:28:03.136777 25059 net.cpp:157] Top shape: 40 98 (3920)
I0520 12:28:03.136787 25059 net.cpp:165] Memory required for data: 63116640
I0520 12:28:03.136803 25059 layer_factory.hpp:77] Creating layer relu6
I0520 12:28:03.136828 25059 net.cpp:106] Creating Layer relu6
I0520 12:28:03.136837 25059 net.cpp:454] relu6 <- ip2
I0520 12:28:03.136850 25059 net.cpp:397] relu6 -> ip2 (in-place)
I0520 12:28:03.137401 25059 net.cpp:150] Setting up relu6
I0520 12:28:03.137423 25059 net.cpp:157] Top shape: 40 98 (3920)
I0520 12:28:03.137433 25059 net.cpp:165] Memory required for data: 63132320
I0520 12:28:03.137444 25059 layer_factory.hpp:77] Creating layer drop2
I0520 12:28:03.137459 25059 net.cpp:106] Creating Layer drop2
I0520 12:28:03.137468 25059 net.cpp:454] drop2 <- ip2
I0520 12:28:03.137481 25059 net.cpp:397] drop2 -> ip2 (in-place)
I0520 12:28:03.137526 25059 net.cpp:150] Setting up drop2
I0520 12:28:03.137538 25059 net.cpp:157] Top shape: 40 98 (3920)
I0520 12:28:03.137547 25059 net.cpp:165] Memory required for data: 63148000
I0520 12:28:03.137557 25059 layer_factory.hpp:77] Creating layer ip3
I0520 12:28:03.137570 25059 net.cpp:106] Creating Layer ip3
I0520 12:28:03.137580 25059 net.cpp:454] ip3 <- ip2
I0520 12:28:03.137594 25059 net.cpp:411] ip3 -> ip3
I0520 12:28:03.137815 25059 net.cpp:150] Setting up ip3
I0520 12:28:03.137830 25059 net.cpp:157] Top shape: 40 11 (440)
I0520 12:28:03.137840 25059 net.cpp:165] Memory required for data: 63149760
I0520 12:28:03.137855 25059 layer_factory.hpp:77] Creating layer drop3
I0520 12:28:03.137867 25059 net.cpp:106] Creating Layer drop3
I0520 12:28:03.137877 25059 net.cpp:454] drop3 <- ip3
I0520 12:28:03.137889 25059 net.cpp:397] drop3 -> ip3 (in-place)
I0520 12:28:03.137930 25059 net.cpp:150] Setting up drop3
I0520 12:28:03.137943 25059 net.cpp:157] Top shape: 40 11 (440)
I0520 12:28:03.137953 25059 net.cpp:165] Memory required for data: 63151520
I0520 12:28:03.137962 25059 layer_factory.hpp:77] Creating layer ip3_drop3_0_split
I0520 12:28:03.137975 25059 net.cpp:106] Creating Layer ip3_drop3_0_split
I0520 12:28:03.137985 25059 net.cpp:454] ip3_drop3_0_split <- ip3
I0520 12:28:03.137998 25059 net.cpp:411] ip3_drop3_0_split -> ip3_drop3_0_split_0
I0520 12:28:03.138013 25059 net.cpp:411] ip3_drop3_0_split -> ip3_drop3_0_split_1
I0520 12:28:03.138087 25059 net.cpp:150] Setting up ip3_drop3_0_split
I0520 12:28:03.138100 25059 net.cpp:157] Top shape: 40 11 (440)
I0520 12:28:03.138113 25059 net.cpp:157] Top shape: 40 11 (440)
I0520 12:28:03.138123 25059 net.cpp:165] Memory required for data: 63155040
I0520 12:28:03.138131 25059 layer_factory.hpp:77] Creating layer accuracy
I0520 12:28:03.138154 25059 net.cpp:106] Creating Layer accuracy
I0520 12:28:03.138164 25059 net.cpp:454] accuracy <- ip3_drop3_0_split_0
I0520 12:28:03.138175 25059 net.cpp:454] accuracy <- label_data_hdf5_1_split_0
I0520 12:28:03.138188 25059 net.cpp:411] accuracy -> accuracy
…
