…
I0521 09:07:21.177209  6389 net.cpp:322] The NetState phase (0) differed from the phase (1) specified by a rule in layer data_hdf5
I0521 09:07:21.177269  6389 net.cpp:322] The NetState phase (0) differed from the phase (1) specified by a rule in layer accuracy
I0521 09:07:21.177614  6389 net.cpp:49] Initializing net from parameters: 
name: "caffe_test_127x50_x_unshifted"
state {
  phase: TRAIN
}
layer {
  name: "data_hdf5"
  type: "HDF5Data"
  top: "data"
  top: "label"
  include {
    phase: TRAIN
  }
  hdf5_data_param {
    source: "/lustre/atlas/proj-shared/hep105/caffe_titan/minosmatch_nukecczdefs_127x50_x_unshifted_me1Bmc.trainlist"
    batch_size: 890
  }
}
layer {
  name: "conv1"
  type: "Convolution"
  bottom: "data"
  top: "conv1"
  convolution_param {
    num_output: 12
    pad: 0
    stride: 1
    weight_filler {
      type: "xavier"
    }
    bias_filler {
      type: "constant"
    }
    kernel_h: 8
    kernel_w: 3
  }
}
layer {
  name: "relu1"
  type: "ReLU"
  bottom: "conv1"
  top: "conv1"
}
layer {
  name: "pool1"
  type: "Pooling"
  bottom: "conv1"
  top: "pool1"
  pooling_param {
    pool: MAX
    kernel_h: 2
    kernel_w: 1
    stride_h: 2
    stride_w: 1
  }
}
layer {
  name: "conv2"
  type: "Convolution"
  bottom: "pool1"
  top: "conv2"
  convolution_param {
    num_output: 20
    pad: 0
    stride: 1
    weight_filler {
      type: "xavier"
    }
    bias_filler {
      type: "constant"
    }
    kernel_h: 7
    kernel_w: 3
  }
}
layer {
  name: "relu2"
  type: "ReLU"
  bottom: "conv2"
  top: "conv2"
}
layer {
  name: "pool2"
  type: "Pooling"
  bottom: "conv2"
  top: "pool2"
  pooling_param {
    pool: MAX
    kernel_h: 2
    kernel_w: 1
    stride_h: 2
    stride_w: 1
  }
}
layer {
  name: "conv3"
  type: "Convolution"
  bottom: "pool2"
  top: "conv3"
  convolution_param {
    num_output: 28
    pad: 0
    stride: 1
    weight_filler {
      type: "xavier"
    }
    bias_filler {
      type: "constant"
    }
    kernel_h: 6
    kernel_w: 3
  }
}
layer {
  name: "relu3"
  type: "ReLU"
  bottom: "conv3"
  top: "conv3"
}
layer {
  name: "pool3"
  type: "Pooling"
  bottom: "conv3"
  top: "pool3"
  pooling_param {
    pool: MAX
    kernel_h: 2
    kernel_w: 1
    stride_h: 2
    stride_w: 1
  }
}
layer {
  name: "conv4"
  type: "Convolution"
  bottom: "pool3"
  top: "conv4"
  convolution_param {
    num_output: 36
    pad: 0
    stride: 1
    weight_filler {
      type: "xavier"
    }
    bias_filler {
      type: "constant"
    }
    kernel_h: 6
    kernel_w: 3
  }
}
layer {
  name: "relu4"
  type: "ReLU"
  bottom: "conv4"
  top: "conv4"
}
layer {
  name: "pool4"
  type: "Pooling"
  bottom: "conv4"
  top: "pool4"
  pooling_param {
    pool: MAX
    kernel_h: 2
    kernel_w: 1
    stride_h: 2
    stride_w: 1
  }
}
layer {
  name: "ip1"
  type: "InnerProduct"
  bottom: "pool4"
  top: "ip1"
  inner_product_param {
    num_output: 196
    weight_filler {
      type: "xavier"
    }
    bias_filler {
      type: "constant"
    }
  }
}
layer {
  name: "relu5"
  type: "ReLU"
  bottom: "ip1"
  top: "ip1"
}
layer {
  name: "drop1"
  type: "Dropout"
  bottom: "ip1"
  top: "ip1"
  dropout_param {
    dropout_ratio: 0.5
  }
}
layer {
  name: "ip2"
  type: "InnerProduct"
  bottom: "ip1"
  top: "ip2"
  inner_product_param {
    num_output: 98
    weight_filler {
      type: "xavier"
    }
    bias_filler {
      type: "constant"
    }
  }
}
layer {
  name: "relu6"
  type: "ReLU"
  bottom: "ip2"
  top: "ip2"
}
layer {
  name: "drop2"
  type: "Dropout"
  bottom: "ip2"
  top: "ip2"
  dropout_param {
    dropout_ratio: 0.5
  }
}
layer {
  name: "ip3"
  type: "InnerProduct"
  bottom: "ip2"
  top: "ip3"
  inner_product_param {
    num_output: 11
    weight_filler {
      type: "xavier"
    }
    bias_filler {
      type: "constant"
    }
  }
}
layer {
  name: "drop3"
  type: "Dropout"
  bottom: "ip3"
  top: "ip3"
  dropout_param {
    dropout_ratio: 0.5
  }
}
layer {
  name: "loss"
  type: "SoftmaxWithLoss"
  bottom: "ip3"
  bottom: "label"
  top: "loss"
}
I0521 09:07:21.177824  6389 layer_factory.hpp:77] Creating layer data_hdf5
I0521 09:07:21.177850  6389 net.cpp:106] Creating Layer data_hdf5
I0521 09:07:21.177865  6389 net.cpp:411] data_hdf5 -> data
I0521 09:07:21.177898  6389 net.cpp:411] data_hdf5 -> label
I0521 09:07:21.177930  6389 hdf5_data_layer.cpp:79] Loading list of HDF5 filenames from: /lustre/atlas/proj-shared/hep105/caffe_titan/minosmatch_nukecczdefs_127x50_x_unshifted_me1Bmc.trainlist
I0521 09:07:21.179230  6389 hdf5_data_layer.cpp:93] Number of HDF5 files: 15
I0521 09:07:21.181430  6389 hdf5.cpp:32] Datatype class: H5T_FLOAT
I0521 09:07:42.787538  6389 hdf5.cpp:35] Datatype class: H5T_INTEGER
I0521 09:07:42.792620  6389 net.cpp:150] Setting up data_hdf5
I0521 09:07:42.792660  6389 net.cpp:157] Top shape: 890 1 127 50 (5651500)
I0521 09:07:42.792675  6389 net.cpp:157] Top shape: 890 (890)
I0521 09:07:42.792686  6389 net.cpp:165] Memory required for data: 22609560
I0521 09:07:42.792701  6389 layer_factory.hpp:77] Creating layer conv1
I0521 09:07:42.792734  6389 net.cpp:106] Creating Layer conv1
I0521 09:07:42.792745  6389 net.cpp:454] conv1 <- data
I0521 09:07:42.792768  6389 net.cpp:411] conv1 -> conv1
I0521 09:07:43.163066  6389 net.cpp:150] Setting up conv1
I0521 09:07:43.163113  6389 net.cpp:157] Top shape: 890 12 120 48 (61516800)
I0521 09:07:43.163125  6389 net.cpp:165] Memory required for data: 268676760
I0521 09:07:43.163154  6389 layer_factory.hpp:77] Creating layer relu1
I0521 09:07:43.163177  6389 net.cpp:106] Creating Layer relu1
I0521 09:07:43.163187  6389 net.cpp:454] relu1 <- conv1
I0521 09:07:43.163200  6389 net.cpp:397] relu1 -> conv1 (in-place)
I0521 09:07:43.163714  6389 net.cpp:150] Setting up relu1
I0521 09:07:43.163730  6389 net.cpp:157] Top shape: 890 12 120 48 (61516800)
I0521 09:07:43.163741  6389 net.cpp:165] Memory required for data: 514743960
I0521 09:07:43.163753  6389 layer_factory.hpp:77] Creating layer pool1
I0521 09:07:43.163769  6389 net.cpp:106] Creating Layer pool1
I0521 09:07:43.163779  6389 net.cpp:454] pool1 <- conv1
I0521 09:07:43.163794  6389 net.cpp:411] pool1 -> pool1
I0521 09:07:43.163875  6389 net.cpp:150] Setting up pool1
I0521 09:07:43.163889  6389 net.cpp:157] Top shape: 890 12 60 48 (30758400)
I0521 09:07:43.163899  6389 net.cpp:165] Memory required for data: 637777560
I0521 09:07:43.163910  6389 layer_factory.hpp:77] Creating layer conv2
I0521 09:07:43.163933  6389 net.cpp:106] Creating Layer conv2
I0521 09:07:43.163943  6389 net.cpp:454] conv2 <- pool1
I0521 09:07:43.163955  6389 net.cpp:411] conv2 -> conv2
I0521 09:07:43.166620  6389 net.cpp:150] Setting up conv2
I0521 09:07:43.166648  6389 net.cpp:157] Top shape: 890 20 54 46 (44215200)
I0521 09:07:43.166659  6389 net.cpp:165] Memory required for data: 814638360
I0521 09:07:43.166678  6389 layer_factory.hpp:77] Creating layer relu2
I0521 09:07:43.166693  6389 net.cpp:106] Creating Layer relu2
I0521 09:07:43.166703  6389 net.cpp:454] relu2 <- conv2
I0521 09:07:43.166717  6389 net.cpp:397] relu2 -> conv2 (in-place)
I0521 09:07:43.167045  6389 net.cpp:150] Setting up relu2
I0521 09:07:43.167060  6389 net.cpp:157] Top shape: 890 20 54 46 (44215200)
I0521 09:07:43.167070  6389 net.cpp:165] Memory required for data: 991499160
I0521 09:07:43.167080  6389 layer_factory.hpp:77] Creating layer pool2
I0521 09:07:43.167093  6389 net.cpp:106] Creating Layer pool2
I0521 09:07:43.167103  6389 net.cpp:454] pool2 <- conv2
I0521 09:07:43.167129  6389 net.cpp:411] pool2 -> pool2
I0521 09:07:43.167197  6389 net.cpp:150] Setting up pool2
I0521 09:07:43.167212  6389 net.cpp:157] Top shape: 890 20 27 46 (22107600)
I0521 09:07:43.167222  6389 net.cpp:165] Memory required for data: 1079929560
I0521 09:07:43.167229  6389 layer_factory.hpp:77] Creating layer conv3
I0521 09:07:43.167248  6389 net.cpp:106] Creating Layer conv3
I0521 09:07:43.167258  6389 net.cpp:454] conv3 <- pool2
I0521 09:07:43.167271  6389 net.cpp:411] conv3 -> conv3
I0521 09:07:43.169181  6389 net.cpp:150] Setting up conv3
I0521 09:07:43.169205  6389 net.cpp:157] Top shape: 890 28 22 44 (24122560)
I0521 09:07:43.169217  6389 net.cpp:165] Memory required for data: 1176419800
I0521 09:07:43.169235  6389 layer_factory.hpp:77] Creating layer relu3
I0521 09:07:43.169251  6389 net.cpp:106] Creating Layer relu3
I0521 09:07:43.169261  6389 net.cpp:454] relu3 <- conv3
I0521 09:07:43.169275  6389 net.cpp:397] relu3 -> conv3 (in-place)
I0521 09:07:43.169752  6389 net.cpp:150] Setting up relu3
I0521 09:07:43.169770  6389 net.cpp:157] Top shape: 890 28 22 44 (24122560)
I0521 09:07:43.169780  6389 net.cpp:165] Memory required for data: 1272910040
I0521 09:07:43.169790  6389 layer_factory.hpp:77] Creating layer pool3
I0521 09:07:43.169803  6389 net.cpp:106] Creating Layer pool3
I0521 09:07:43.169813  6389 net.cpp:454] pool3 <- conv3
I0521 09:07:43.169826  6389 net.cpp:411] pool3 -> pool3
I0521 09:07:43.169893  6389 net.cpp:150] Setting up pool3
I0521 09:07:43.169908  6389 net.cpp:157] Top shape: 890 28 11 44 (12061280)
I0521 09:07:43.169917  6389 net.cpp:165] Memory required for data: 1321155160
I0521 09:07:43.169925  6389 layer_factory.hpp:77] Creating layer conv4
I0521 09:07:43.169944  6389 net.cpp:106] Creating Layer conv4
I0521 09:07:43.169953  6389 net.cpp:454] conv4 <- pool3
I0521 09:07:43.169966  6389 net.cpp:411] conv4 -> conv4
I0521 09:07:43.172689  6389 net.cpp:150] Setting up conv4
I0521 09:07:43.172718  6389 net.cpp:157] Top shape: 890 36 6 42 (8074080)
I0521 09:07:43.172727  6389 net.cpp:165] Memory required for data: 1353451480
I0521 09:07:43.172744  6389 layer_factory.hpp:77] Creating layer relu4
I0521 09:07:43.172758  6389 net.cpp:106] Creating Layer relu4
I0521 09:07:43.172768  6389 net.cpp:454] relu4 <- conv4
I0521 09:07:43.172780  6389 net.cpp:397] relu4 -> conv4 (in-place)
I0521 09:07:43.173243  6389 net.cpp:150] Setting up relu4
I0521 09:07:43.173259  6389 net.cpp:157] Top shape: 890 36 6 42 (8074080)
I0521 09:07:43.173269  6389 net.cpp:165] Memory required for data: 1385747800
I0521 09:07:43.173280  6389 layer_factory.hpp:77] Creating layer pool4
I0521 09:07:43.173291  6389 net.cpp:106] Creating Layer pool4
I0521 09:07:43.173301  6389 net.cpp:454] pool4 <- conv4
I0521 09:07:43.173315  6389 net.cpp:411] pool4 -> pool4
I0521 09:07:43.173382  6389 net.cpp:150] Setting up pool4
I0521 09:07:43.173395  6389 net.cpp:157] Top shape: 890 36 3 42 (4037040)
I0521 09:07:43.173406  6389 net.cpp:165] Memory required for data: 1401895960
I0521 09:07:43.173416  6389 layer_factory.hpp:77] Creating layer ip1
I0521 09:07:43.173436  6389 net.cpp:106] Creating Layer ip1
I0521 09:07:43.173447  6389 net.cpp:454] ip1 <- pool4
I0521 09:07:43.173460  6389 net.cpp:411] ip1 -> ip1
I0521 09:07:43.188905  6389 net.cpp:150] Setting up ip1
I0521 09:07:43.188932  6389 net.cpp:157] Top shape: 890 196 (174440)
I0521 09:07:43.188947  6389 net.cpp:165] Memory required for data: 1402593720
I0521 09:07:43.188969  6389 layer_factory.hpp:77] Creating layer relu5
I0521 09:07:43.188984  6389 net.cpp:106] Creating Layer relu5
I0521 09:07:43.188995  6389 net.cpp:454] relu5 <- ip1
I0521 09:07:43.189008  6389 net.cpp:397] relu5 -> ip1 (in-place)
I0521 09:07:43.189352  6389 net.cpp:150] Setting up relu5
I0521 09:07:43.189368  6389 net.cpp:157] Top shape: 890 196 (174440)
I0521 09:07:43.189376  6389 net.cpp:165] Memory required for data: 1403291480
I0521 09:07:43.189386  6389 layer_factory.hpp:77] Creating layer drop1
I0521 09:07:43.189407  6389 net.cpp:106] Creating Layer drop1
I0521 09:07:43.189417  6389 net.cpp:454] drop1 <- ip1
I0521 09:07:43.189443  6389 net.cpp:397] drop1 -> ip1 (in-place)
I0521 09:07:43.189489  6389 net.cpp:150] Setting up drop1
I0521 09:07:43.189502  6389 net.cpp:157] Top shape: 890 196 (174440)
I0521 09:07:43.189513  6389 net.cpp:165] Memory required for data: 1403989240
I0521 09:07:43.189523  6389 layer_factory.hpp:77] Creating layer ip2
I0521 09:07:43.189541  6389 net.cpp:106] Creating Layer ip2
I0521 09:07:43.189551  6389 net.cpp:454] ip2 <- ip1
I0521 09:07:43.189564  6389 net.cpp:411] ip2 -> ip2
I0521 09:07:43.190037  6389 net.cpp:150] Setting up ip2
I0521 09:07:43.190050  6389 net.cpp:157] Top shape: 890 98 (87220)
I0521 09:07:43.190060  6389 net.cpp:165] Memory required for data: 1404338120
I0521 09:07:43.190075  6389 layer_factory.hpp:77] Creating layer relu6
I0521 09:07:43.190088  6389 net.cpp:106] Creating Layer relu6
I0521 09:07:43.190098  6389 net.cpp:454] relu6 <- ip2
I0521 09:07:43.190109  6389 net.cpp:397] relu6 -> ip2 (in-place)
I0521 09:07:43.190628  6389 net.cpp:150] Setting up relu6
I0521 09:07:43.190644  6389 net.cpp:157] Top shape: 890 98 (87220)
I0521 09:07:43.190654  6389 net.cpp:165] Memory required for data: 1404687000
I0521 09:07:43.190665  6389 layer_factory.hpp:77] Creating layer drop2
I0521 09:07:43.190676  6389 net.cpp:106] Creating Layer drop2
I0521 09:07:43.190686  6389 net.cpp:454] drop2 <- ip2
I0521 09:07:43.190698  6389 net.cpp:397] drop2 -> ip2 (in-place)
I0521 09:07:43.190740  6389 net.cpp:150] Setting up drop2
I0521 09:07:43.190753  6389 net.cpp:157] Top shape: 890 98 (87220)
I0521 09:07:43.190764  6389 net.cpp:165] Memory required for data: 1405035880
I0521 09:07:43.190774  6389 layer_factory.hpp:77] Creating layer ip3
I0521 09:07:43.190788  6389 net.cpp:106] Creating Layer ip3
I0521 09:07:43.190798  6389 net.cpp:454] ip3 <- ip2
I0521 09:07:43.190810  6389 net.cpp:411] ip3 -> ip3
I0521 09:07:43.191023  6389 net.cpp:150] Setting up ip3
I0521 09:07:43.191036  6389 net.cpp:157] Top shape: 890 11 (9790)
I0521 09:07:43.191045  6389 net.cpp:165] Memory required for data: 1405075040
I0521 09:07:43.191061  6389 layer_factory.hpp:77] Creating layer drop3
I0521 09:07:43.191072  6389 net.cpp:106] Creating Layer drop3
I0521 09:07:43.191082  6389 net.cpp:454] drop3 <- ip3
I0521 09:07:43.191094  6389 net.cpp:397] drop3 -> ip3 (in-place)
I0521 09:07:43.191133  6389 net.cpp:150] Setting up drop3
I0521 09:07:43.191146  6389 net.cpp:157] Top shape: 890 11 (9790)
I0521 09:07:43.191155  6389 net.cpp:165] Memory required for data: 1405114200
I0521 09:07:43.191165  6389 layer_factory.hpp:77] Creating layer loss
I0521 09:07:43.191184  6389 net.cpp:106] Creating Layer loss
I0521 09:07:43.191193  6389 net.cpp:454] loss <- ip3
I0521 09:07:43.191205  6389 net.cpp:454] loss <- label
I0521 09:07:43.191216  6389 net.cpp:411] loss -> loss
I0521 09:07:43.191233  6389 layer_factory.hpp:77] Creating layer loss
…
I0521 09:07:43.193842  6389 solver.cpp:181] Creating test net (#0) specified by net file: /lustre/atlas/proj-shared/hep105/caffe_titan/caffe_workflow/logs_batch_size_test/batch_size_890_2016-05-20T11.21.05.166758.prototxt
I0521 09:07:43.193913  6389 net.cpp:322] The NetState phase (1) differed from the phase (0) specified by a rule in layer data_hdf5
I0521 09:07:43.194267  6389 net.cpp:49] Initializing net from parameters: 
name: "caffe_test_127x50_x_unshifted"
state {
  phase: TEST
}
layer {
  name: "data_hdf5"
  type: "HDF5Data"
  top: "data"
  top: "label"
  include {
    phase: TEST
  }
  hdf5_data_param {
    source: "/lustre/atlas/proj-shared/hep105/caffe_titan/minosmatch_nukecczdefs_127x50_x_unshifted_me1Bmc.testlist"
    batch_size: 890
  }
}
layer {
  name: "conv1"
  type: "Convolution"
  bottom: "data"
  top: "conv1"
  convolution_param {
    num_output: 12
    pad: 0
    stride: 1
    weight_filler {
      type: "xavier"
    }
    bias_filler {
      type: "constant"
    }
    kernel_h: 8
    kernel_w: 3
  }
}
layer {
  name: "relu1"
  type: "ReLU"
  bottom: "conv1"
  top: "conv1"
}
layer {
  name: "pool1"
  type: "Pooling"
  bottom: "conv1"
  top: "pool1"
  pooling_param {
    pool: MAX
    kernel_h: 2
    kernel_w: 1
    stride_h: 2
    stride_w: 1
  }
}
layer {
  name: "conv2"
  type: "Convolution"
  bottom: "pool1"
  top: "conv2"
  convolution_param {
    num_output: 20
    pad: 0
    stride: 1
    weight_filler {
      type: "xavier"
    }
    bias_filler {
      type: "constant"
    }
    kernel_h: 7
    kernel_w: 3
  }
}
layer {
  name: "relu2"
  type: "ReLU"
  bottom: "conv2"
  top: "conv2"
}
layer {
  name: "pool2"
  type: "Pooling"
  bottom: "conv2"
  top: "pool2"
  pooling_param {
    pool: MAX
    kernel_h: 2
    kernel_w: 1
    stride_h: 2
    stride_w: 1
  }
}
layer {
  name: "conv3"
  type: "Convolution"
  bottom: "pool2"
  top: "conv3"
  convolution_param {
    num_output: 28
    pad: 0
    stride: 1
    weight_filler {
      type: "xavier"
    }
    bias_filler {
      type: "constant"
    }
    kernel_h: 6
    kernel_w: 3
  }
}
layer {
  name: "relu3"
  type: "ReLU"
  bottom: "conv3"
  top: "conv3"
}
layer {
  name: "pool3"
  type: "Pooling"
  bottom: "conv3"
  top: "pool3"
  pooling_param {
    pool: MAX
    kernel_h: 2
    kernel_w: 1
    stride_h: 2
    stride_w: 1
  }
}
layer {
  name: "conv4"
  type: "Convolution"
  bottom: "pool3"
  top: "conv4"
  convolution_param {
    num_output: 36
    pad: 0
    stride: 1
    weight_filler {
      type: "xavier"
    }
    bias_filler {
      type: "constant"
    }
    kernel_h: 6
    kernel_w: 3
  }
}
layer {
  name: "relu4"
  type: "ReLU"
  bottom: "conv4"
  top: "conv4"
}
layer {
  name: "pool4"
  type: "Pooling"
  bottom: "conv4"
  top: "pool4"
  pooling_param {
    pool: MAX
    kernel_h: 2
    kernel_w: 1
    stride_h: 2
    stride_w: 1
  }
}
layer {
  name: "ip1"
  type: "InnerProduct"
  bottom: "pool4"
  top: "ip1"
  inner_product_param {
    num_output: 196
    weight_filler {
      type: "xavier"
    }
    bias_filler {
      type: "constant"
    }
  }
}
layer {
  name: "relu5"
  type: "ReLU"
  bottom: "ip1"
  top: "ip1"
}
layer {
  name: "drop1"
  type: "Dropout"
  bottom: "ip1"
  top: "ip1"
  dropout_param {
    dropout_ratio: 0.5
  }
}
layer {
  name: "ip2"
  type: "InnerProduct"
  bottom: "ip1"
  top: "ip2"
  inner_product_param {
    num_output: 98
    weight_filler {
      type: "xavier"
    }
    bias_filler {
      type: "constant"
    }
  }
}
layer {
  name: "relu6"
  type: "ReLU"
  bottom: "ip2"
  top: "ip2"
}
layer {
  name: "drop2"
  type: "Dropout"
  bottom: "ip2"
  top: "ip2"
  dropout_param {
    dropout_ratio: 0.5
  }
}
layer {
  name: "ip3"
  type: "InnerProduct"
  bottom: "ip2"
  top: "ip3"
  inner_product_param {
    num_output: 11
    weight_filler {
      type: "xavier"
    }
    bias_filler {
      type: "constant"
    }
  }
}
layer {
  name: "drop3"
  type: "Dropout"
  bottom: "ip3"
  top: "ip3"
  dropout_param {
    dropout_ratio: 0.5
  }
}
layer {
  name: "accuracy"
  type: "Accuracy"
  bottom: "ip3"
  bottom: "label"
  top: "accuracy"
  include {
    phase: TEST
  }
}
layer {
  name: "loss"
  type: "SoftmaxWithLoss"
  bottom: "ip3"
  bottom: "label"
  top: "loss"
}
I0521 09:07:43.194456  6389 layer_factory.hpp:77] Creating layer data_hdf5
I0521 09:07:43.194471  6389 net.cpp:106] Creating Layer data_hdf5
I0521 09:07:43.194484  6389 net.cpp:411] data_hdf5 -> data
I0521 09:07:43.194500  6389 net.cpp:411] data_hdf5 -> label
I0521 09:07:43.194517  6389 hdf5_data_layer.cpp:79] Loading list of HDF5 filenames from: /lustre/atlas/proj-shared/hep105/caffe_titan/minosmatch_nukecczdefs_127x50_x_unshifted_me1Bmc.testlist
I0521 09:07:43.196241  6389 hdf5_data_layer.cpp:93] Number of HDF5 files: 3
I0521 09:08:04.579347  6389 net.cpp:150] Setting up data_hdf5
I0521 09:08:04.579514  6389 net.cpp:157] Top shape: 890 1 127 50 (5651500)
I0521 09:08:04.579529  6389 net.cpp:157] Top shape: 890 (890)
I0521 09:08:04.579541  6389 net.cpp:165] Memory required for data: 22609560
I0521 09:08:04.579555  6389 layer_factory.hpp:77] Creating layer label_data_hdf5_1_split
I0521 09:08:04.579583  6389 net.cpp:106] Creating Layer label_data_hdf5_1_split
I0521 09:08:04.579594  6389 net.cpp:454] label_data_hdf5_1_split <- label
I0521 09:08:04.579608  6389 net.cpp:411] label_data_hdf5_1_split -> label_data_hdf5_1_split_0
I0521 09:08:04.579630  6389 net.cpp:411] label_data_hdf5_1_split -> label_data_hdf5_1_split_1
I0521 09:08:04.579704  6389 net.cpp:150] Setting up label_data_hdf5_1_split
I0521 09:08:04.579718  6389 net.cpp:157] Top shape: 890 (890)
I0521 09:08:04.579730  6389 net.cpp:157] Top shape: 890 (890)
I0521 09:08:04.579740  6389 net.cpp:165] Memory required for data: 22616680
I0521 09:08:04.579749  6389 layer_factory.hpp:77] Creating layer conv1
I0521 09:08:04.579771  6389 net.cpp:106] Creating Layer conv1
I0521 09:08:04.579780  6389 net.cpp:454] conv1 <- data
I0521 09:08:04.579795  6389 net.cpp:411] conv1 -> conv1
I0521 09:08:04.581708  6389 net.cpp:150] Setting up conv1
I0521 09:08:04.581745  6389 net.cpp:157] Top shape: 890 12 120 48 (61516800)
I0521 09:08:04.581756  6389 net.cpp:165] Memory required for data: 268683880
I0521 09:08:04.581778  6389 layer_factory.hpp:77] Creating layer relu1
I0521 09:08:04.581792  6389 net.cpp:106] Creating Layer relu1
I0521 09:08:04.581802  6389 net.cpp:454] relu1 <- conv1
I0521 09:08:04.581815  6389 net.cpp:397] relu1 -> conv1 (in-place)
I0521 09:08:04.582314  6389 net.cpp:150] Setting up relu1
I0521 09:08:04.582330  6389 net.cpp:157] Top shape: 890 12 120 48 (61516800)
I0521 09:08:04.582340  6389 net.cpp:165] Memory required for data: 514751080
I0521 09:08:04.582350  6389 layer_factory.hpp:77] Creating layer pool1
I0521 09:08:04.582366  6389 net.cpp:106] Creating Layer pool1
I0521 09:08:04.582376  6389 net.cpp:454] pool1 <- conv1
I0521 09:08:04.582389  6389 net.cpp:411] pool1 -> pool1
I0521 09:08:04.582464  6389 net.cpp:150] Setting up pool1
I0521 09:08:04.582478  6389 net.cpp:157] Top shape: 890 12 60 48 (30758400)
I0521 09:08:04.582487  6389 net.cpp:165] Memory required for data: 637784680
I0521 09:08:04.582495  6389 layer_factory.hpp:77] Creating layer conv2
I0521 09:08:04.582514  6389 net.cpp:106] Creating Layer conv2
I0521 09:08:04.582523  6389 net.cpp:454] conv2 <- pool1
I0521 09:08:04.582538  6389 net.cpp:411] conv2 -> conv2
I0521 09:08:04.584451  6389 net.cpp:150] Setting up conv2
I0521 09:08:04.584475  6389 net.cpp:157] Top shape: 890 20 54 46 (44215200)
I0521 09:08:04.584486  6389 net.cpp:165] Memory required for data: 814645480
I0521 09:08:04.584504  6389 layer_factory.hpp:77] Creating layer relu2
I0521 09:08:04.584518  6389 net.cpp:106] Creating Layer relu2
I0521 09:08:04.584528  6389 net.cpp:454] relu2 <- conv2
I0521 09:08:04.584540  6389 net.cpp:397] relu2 -> conv2 (in-place)
I0521 09:08:04.584877  6389 net.cpp:150] Setting up relu2
I0521 09:08:04.584890  6389 net.cpp:157] Top shape: 890 20 54 46 (44215200)
I0521 09:08:04.584900  6389 net.cpp:165] Memory required for data: 991506280
I0521 09:08:04.584910  6389 layer_factory.hpp:77] Creating layer pool2
I0521 09:08:04.584923  6389 net.cpp:106] Creating Layer pool2
I0521 09:08:04.584933  6389 net.cpp:454] pool2 <- conv2
I0521 09:08:04.584945  6389 net.cpp:411] pool2 -> pool2
I0521 09:08:04.585017  6389 net.cpp:150] Setting up pool2
I0521 09:08:04.585031  6389 net.cpp:157] Top shape: 890 20 27 46 (22107600)
I0521 09:08:04.585041  6389 net.cpp:165] Memory required for data: 1079936680
I0521 09:08:04.585050  6389 layer_factory.hpp:77] Creating layer conv3
I0521 09:08:04.585070  6389 net.cpp:106] Creating Layer conv3
I0521 09:08:04.585080  6389 net.cpp:454] conv3 <- pool2
I0521 09:08:04.585094  6389 net.cpp:411] conv3 -> conv3
I0521 09:08:04.587067  6389 net.cpp:150] Setting up conv3
I0521 09:08:04.587091  6389 net.cpp:157] Top shape: 890 28 22 44 (24122560)
I0521 09:08:04.587103  6389 net.cpp:165] Memory required for data: 1176426920
I0521 09:08:04.587136  6389 layer_factory.hpp:77] Creating layer relu3
I0521 09:08:04.587149  6389 net.cpp:106] Creating Layer relu3
I0521 09:08:04.587159  6389 net.cpp:454] relu3 <- conv3
I0521 09:08:04.587172  6389 net.cpp:397] relu3 -> conv3 (in-place)
I0521 09:08:04.587641  6389 net.cpp:150] Setting up relu3
I0521 09:08:04.587656  6389 net.cpp:157] Top shape: 890 28 22 44 (24122560)
I0521 09:08:04.587667  6389 net.cpp:165] Memory required for data: 1272917160
I0521 09:08:04.587677  6389 layer_factory.hpp:77] Creating layer pool3
I0521 09:08:04.587690  6389 net.cpp:106] Creating Layer pool3
I0521 09:08:04.587699  6389 net.cpp:454] pool3 <- conv3
I0521 09:08:04.587713  6389 net.cpp:411] pool3 -> pool3
I0521 09:08:04.587785  6389 net.cpp:150] Setting up pool3
I0521 09:08:04.587797  6389 net.cpp:157] Top shape: 890 28 11 44 (12061280)
I0521 09:08:04.587807  6389 net.cpp:165] Memory required for data: 1321162280
I0521 09:08:04.587816  6389 layer_factory.hpp:77] Creating layer conv4
I0521 09:08:04.587832  6389 net.cpp:106] Creating Layer conv4
I0521 09:08:04.587842  6389 net.cpp:454] conv4 <- pool3
I0521 09:08:04.587857  6389 net.cpp:411] conv4 -> conv4
I0521 09:08:04.589920  6389 net.cpp:150] Setting up conv4
I0521 09:08:04.589943  6389 net.cpp:157] Top shape: 890 36 6 42 (8074080)
I0521 09:08:04.589956  6389 net.cpp:165] Memory required for data: 1353458600
I0521 09:08:04.589972  6389 layer_factory.hpp:77] Creating layer relu4
I0521 09:08:04.589984  6389 net.cpp:106] Creating Layer relu4
I0521 09:08:04.589994  6389 net.cpp:454] relu4 <- conv4
I0521 09:08:04.590008  6389 net.cpp:397] relu4 -> conv4 (in-place)
I0521 09:08:04.590477  6389 net.cpp:150] Setting up relu4
I0521 09:08:04.590493  6389 net.cpp:157] Top shape: 890 36 6 42 (8074080)
I0521 09:08:04.590503  6389 net.cpp:165] Memory required for data: 1385754920
I0521 09:08:04.590513  6389 layer_factory.hpp:77] Creating layer pool4
I0521 09:08:04.590526  6389 net.cpp:106] Creating Layer pool4
I0521 09:08:04.590536  6389 net.cpp:454] pool4 <- conv4
I0521 09:08:04.590549  6389 net.cpp:411] pool4 -> pool4
I0521 09:08:04.590621  6389 net.cpp:150] Setting up pool4
I0521 09:08:04.590634  6389 net.cpp:157] Top shape: 890 36 3 42 (4037040)
I0521 09:08:04.590644  6389 net.cpp:165] Memory required for data: 1401903080
I0521 09:08:04.590654  6389 layer_factory.hpp:77] Creating layer ip1
I0521 09:08:04.590667  6389 net.cpp:106] Creating Layer ip1
I0521 09:08:04.590678  6389 net.cpp:454] ip1 <- pool4
I0521 09:08:04.590692  6389 net.cpp:411] ip1 -> ip1
I0521 09:08:04.606161  6389 net.cpp:150] Setting up ip1
I0521 09:08:04.606189  6389 net.cpp:157] Top shape: 890 196 (174440)
I0521 09:08:04.606201  6389 net.cpp:165] Memory required for data: 1402600840
I0521 09:08:04.606223  6389 layer_factory.hpp:77] Creating layer relu5
I0521 09:08:04.606238  6389 net.cpp:106] Creating Layer relu5
I0521 09:08:04.606248  6389 net.cpp:454] relu5 <- ip1
I0521 09:08:04.606262  6389 net.cpp:397] relu5 -> ip1 (in-place)
I0521 09:08:04.606606  6389 net.cpp:150] Setting up relu5
I0521 09:08:04.606621  6389 net.cpp:157] Top shape: 890 196 (174440)
I0521 09:08:04.606631  6389 net.cpp:165] Memory required for data: 1403298600
I0521 09:08:04.606640  6389 layer_factory.hpp:77] Creating layer drop1
I0521 09:08:04.606659  6389 net.cpp:106] Creating Layer drop1
I0521 09:08:04.606669  6389 net.cpp:454] drop1 <- ip1
I0521 09:08:04.606683  6389 net.cpp:397] drop1 -> ip1 (in-place)
I0521 09:08:04.606726  6389 net.cpp:150] Setting up drop1
I0521 09:08:04.606739  6389 net.cpp:157] Top shape: 890 196 (174440)
I0521 09:08:04.606748  6389 net.cpp:165] Memory required for data: 1403996360
I0521 09:08:04.606758  6389 layer_factory.hpp:77] Creating layer ip2
I0521 09:08:04.606773  6389 net.cpp:106] Creating Layer ip2
I0521 09:08:04.606783  6389 net.cpp:454] ip2 <- ip1
I0521 09:08:04.606797  6389 net.cpp:411] ip2 -> ip2
I0521 09:08:04.607276  6389 net.cpp:150] Setting up ip2
I0521 09:08:04.607290  6389 net.cpp:157] Top shape: 890 98 (87220)
I0521 09:08:04.607300  6389 net.cpp:165] Memory required for data: 1404345240
I0521 09:08:04.607327  6389 layer_factory.hpp:77] Creating layer relu6
I0521 09:08:04.607341  6389 net.cpp:106] Creating Layer relu6
I0521 09:08:04.607350  6389 net.cpp:454] relu6 <- ip2
I0521 09:08:04.607362  6389 net.cpp:397] relu6 -> ip2 (in-place)
I0521 09:08:04.607890  6389 net.cpp:150] Setting up relu6
I0521 09:08:04.607908  6389 net.cpp:157] Top shape: 890 98 (87220)
I0521 09:08:04.607918  6389 net.cpp:165] Memory required for data: 1404694120
I0521 09:08:04.607928  6389 layer_factory.hpp:77] Creating layer drop2
I0521 09:08:04.607941  6389 net.cpp:106] Creating Layer drop2
I0521 09:08:04.607950  6389 net.cpp:454] drop2 <- ip2
I0521 09:08:04.607964  6389 net.cpp:397] drop2 -> ip2 (in-place)
I0521 09:08:04.608007  6389 net.cpp:150] Setting up drop2
I0521 09:08:04.608021  6389 net.cpp:157] Top shape: 890 98 (87220)
I0521 09:08:04.608031  6389 net.cpp:165] Memory required for data: 1405043000
I0521 09:08:04.608041  6389 layer_factory.hpp:77] Creating layer ip3
I0521 09:08:04.608054  6389 net.cpp:106] Creating Layer ip3
I0521 09:08:04.608064  6389 net.cpp:454] ip3 <- ip2
I0521 09:08:04.608078  6389 net.cpp:411] ip3 -> ip3
I0521 09:08:04.608299  6389 net.cpp:150] Setting up ip3
I0521 09:08:04.608314  6389 net.cpp:157] Top shape: 890 11 (9790)
I0521 09:08:04.608322  6389 net.cpp:165] Memory required for data: 1405082160
I0521 09:08:04.608337  6389 layer_factory.hpp:77] Creating layer drop3
I0521 09:08:04.608350  6389 net.cpp:106] Creating Layer drop3
I0521 09:08:04.608361  6389 net.cpp:454] drop3 <- ip3
I0521 09:08:04.608373  6389 net.cpp:397] drop3 -> ip3 (in-place)
I0521 09:08:04.608414  6389 net.cpp:150] Setting up drop3
I0521 09:08:04.608427  6389 net.cpp:157] Top shape: 890 11 (9790)
I0521 09:08:04.608436  6389 net.cpp:165] Memory required for data: 1405121320
I0521 09:08:04.608445  6389 layer_factory.hpp:77] Creating layer ip3_drop3_0_split
I0521 09:08:04.608458  6389 net.cpp:106] Creating Layer ip3_drop3_0_split
I0521 09:08:04.608467  6389 net.cpp:454] ip3_drop3_0_split <- ip3
I0521 09:08:04.608480  6389 net.cpp:411] ip3_drop3_0_split -> ip3_drop3_0_split_0
I0521 09:08:04.608495  6389 net.cpp:411] ip3_drop3_0_split -> ip3_drop3_0_split_1
I0521 09:08:04.608567  6389 net.cpp:150] Setting up ip3_drop3_0_split
I0521 09:08:04.608580  6389 net.cpp:157] Top shape: 890 11 (9790)
I0521 09:08:04.608593  6389 net.cpp:157] Top shape: 890 11 (9790)
I0521 09:08:04.608603  6389 net.cpp:165] Memory required for data: 1405199640
I0521 09:08:04.608610  6389 layer_factory.hpp:77] Creating layer accuracy
I0521 09:08:04.608633  6389 net.cpp:106] Creating Layer accuracy
I0521 09:08:04.608644  6389 net.cpp:454] accuracy <- ip3_drop3_0_split_0
I0521 09:08:04.608654  6389 net.cpp:454] accuracy <- label_data_hdf5_1_split_0
I0521 09:08:04.608667  6389 net.cpp:411] accuracy -> accuracy
…
