…
I0520 14:10:34.856205 26180 net.cpp:322] The NetState phase (0) differed from the phase (1) specified by a rule in layer data_hdf5
I0520 14:10:34.856264 26180 net.cpp:322] The NetState phase (0) differed from the phase (1) specified by a rule in layer accuracy
I0520 14:10:34.856607 26180 net.cpp:49] Initializing net from parameters: 
name: "caffe_test_127x50_x_unshifted"
state {
  phase: TRAIN
}
layer {
  name: "data_hdf5"
  type: "HDF5Data"
  top: "data"
  top: "label"
  include {
    phase: TRAIN
  }
  hdf5_data_param {
    source: "/lustre/atlas/proj-shared/hep105/caffe_titan/minosmatch_nukecczdefs_127x50_x_unshifted_me1Bmc.trainlist"
    batch_size: 110
  }
}
layer {
  name: "conv1"
  type: "Convolution"
  bottom: "data"
  top: "conv1"
  convolution_param {
    num_output: 12
    pad: 0
    stride: 1
    weight_filler {
      type: "xavier"
    }
    bias_filler {
      type: "constant"
    }
    kernel_h: 8
    kernel_w: 3
  }
}
layer {
  name: "relu1"
  type: "ReLU"
  bottom: "conv1"
  top: "conv1"
}
layer {
  name: "pool1"
  type: "Pooling"
  bottom: "conv1"
  top: "pool1"
  pooling_param {
    pool: MAX
    kernel_h: 2
    kernel_w: 1
    stride_h: 2
    stride_w: 1
  }
}
layer {
  name: "conv2"
  type: "Convolution"
  bottom: "pool1"
  top: "conv2"
  convolution_param {
    num_output: 20
    pad: 0
    stride: 1
    weight_filler {
      type: "xavier"
    }
    bias_filler {
      type: "constant"
    }
    kernel_h: 7
    kernel_w: 3
  }
}
layer {
  name: "relu2"
  type: "ReLU"
  bottom: "conv2"
  top: "conv2"
}
layer {
  name: "pool2"
  type: "Pooling"
  bottom: "conv2"
  top: "pool2"
  pooling_param {
    pool: MAX
    kernel_h: 2
    kernel_w: 1
    stride_h: 2
    stride_w: 1
  }
}
layer {
  name: "conv3"
  type: "Convolution"
  bottom: "pool2"
  top: "conv3"
  convolution_param {
    num_output: 28
    pad: 0
    stride: 1
    weight_filler {
      type: "xavier"
    }
    bias_filler {
      type: "constant"
    }
    kernel_h: 6
    kernel_w: 3
  }
}
layer {
  name: "relu3"
  type: "ReLU"
  bottom: "conv3"
  top: "conv3"
}
layer {
  name: "pool3"
  type: "Pooling"
  bottom: "conv3"
  top: "pool3"
  pooling_param {
    pool: MAX
    kernel_h: 2
    kernel_w: 1
    stride_h: 2
    stride_w: 1
  }
}
layer {
  name: "conv4"
  type: "Convolution"
  bottom: "pool3"
  top: "conv4"
  convolution_param {
    num_output: 36
    pad: 0
    stride: 1
    weight_filler {
      type: "xavier"
    }
    bias_filler {
      type: "constant"
    }
    kernel_h: 6
    kernel_w: 3
  }
}
layer {
  name: "relu4"
  type: "ReLU"
  bottom: "conv4"
  top: "conv4"
}
layer {
  name: "pool4"
  type: "Pooling"
  bottom: "conv4"
  top: "pool4"
  pooling_param {
    pool: MAX
    kernel_h: 2
    kernel_w: 1
    stride_h: 2
    stride_w: 1
  }
}
layer {
  name: "ip1"
  type: "InnerProduct"
  bottom: "pool4"
  top: "ip1"
  inner_product_param {
    num_output: 196
    weight_filler {
      type: "xavier"
    }
    bias_filler {
      type: "constant"
    }
  }
}
layer {
  name: "relu5"
  type: "ReLU"
  bottom: "ip1"
  top: "ip1"
}
layer {
  name: "drop1"
  type: "Dropout"
  bottom: "ip1"
  top: "ip1"
  dropout_param {
    dropout_ratio: 0.5
  }
}
layer {
  name: "ip2"
  type: "InnerProduct"
  bottom: "ip1"
  top: "ip2"
  inner_product_param {
    num_output: 98
    weight_filler {
      type: "xavier"
    }
    bias_filler {
      type: "constant"
    }
  }
}
layer {
  name: "relu6"
  type: "ReLU"
  bottom: "ip2"
  top: "ip2"
}
layer {
  name: "drop2"
  type: "Dropout"
  bottom: "ip2"
  top: "ip2"
  dropout_param {
    dropout_ratio: 0.5
  }
}
layer {
  name: "ip3"
  type: "InnerProduct"
  bottom: "ip2"
  top: "ip3"
  inner_product_param {
    num_output: 11
    weight_filler {
      type: "xavier"
    }
    bias_filler {
      type: "constant"
    }
  }
}
layer {
  name: "drop3"
  type: "Dropout"
  bottom: "ip3"
  top: "ip3"
  dropout_param {
    dropout_ratio: 0.5
  }
}
layer {
  name: "loss"
  type: "SoftmaxWithLoss"
  bottom: "ip3"
  bottom: "label"
  top: "loss"
}
I0520 14:10:34.856788 26180 layer_factory.hpp:77] Creating layer data_hdf5
I0520 14:10:34.856812 26180 net.cpp:106] Creating Layer data_hdf5
I0520 14:10:34.856827 26180 net.cpp:411] data_hdf5 -> data
I0520 14:10:34.856860 26180 net.cpp:411] data_hdf5 -> label
I0520 14:10:34.856892 26180 hdf5_data_layer.cpp:79] Loading list of HDF5 filenames from: /lustre/atlas/proj-shared/hep105/caffe_titan/minosmatch_nukecczdefs_127x50_x_unshifted_me1Bmc.trainlist
I0520 14:10:34.858067 26180 hdf5_data_layer.cpp:93] Number of HDF5 files: 15
I0520 14:10:34.860286 26180 hdf5.cpp:32] Datatype class: H5T_FLOAT
I0520 14:10:56.348991 26180 hdf5.cpp:35] Datatype class: H5T_INTEGER
I0520 14:10:56.354053 26180 net.cpp:150] Setting up data_hdf5
I0520 14:10:56.354094 26180 net.cpp:157] Top shape: 110 1 127 50 (698500)
I0520 14:10:56.354109 26180 net.cpp:157] Top shape: 110 (110)
I0520 14:10:56.354120 26180 net.cpp:165] Memory required for data: 2794440
I0520 14:10:56.354135 26180 layer_factory.hpp:77] Creating layer conv1
I0520 14:10:56.354167 26180 net.cpp:106] Creating Layer conv1
I0520 14:10:56.354178 26180 net.cpp:454] conv1 <- data
I0520 14:10:56.354199 26180 net.cpp:411] conv1 -> conv1
I0520 14:10:56.917989 26180 net.cpp:150] Setting up conv1
I0520 14:10:56.918036 26180 net.cpp:157] Top shape: 110 12 120 48 (7603200)
I0520 14:10:56.918046 26180 net.cpp:165] Memory required for data: 33207240
I0520 14:10:56.918076 26180 layer_factory.hpp:77] Creating layer relu1
I0520 14:10:56.918097 26180 net.cpp:106] Creating Layer relu1
I0520 14:10:56.918107 26180 net.cpp:454] relu1 <- conv1
I0520 14:10:56.918120 26180 net.cpp:397] relu1 -> conv1 (in-place)
I0520 14:10:56.918632 26180 net.cpp:150] Setting up relu1
I0520 14:10:56.918649 26180 net.cpp:157] Top shape: 110 12 120 48 (7603200)
I0520 14:10:56.918660 26180 net.cpp:165] Memory required for data: 63620040
I0520 14:10:56.918670 26180 layer_factory.hpp:77] Creating layer pool1
I0520 14:10:56.918686 26180 net.cpp:106] Creating Layer pool1
I0520 14:10:56.918696 26180 net.cpp:454] pool1 <- conv1
I0520 14:10:56.918710 26180 net.cpp:411] pool1 -> pool1
I0520 14:10:56.918789 26180 net.cpp:150] Setting up pool1
I0520 14:10:56.918803 26180 net.cpp:157] Top shape: 110 12 60 48 (3801600)
I0520 14:10:56.918813 26180 net.cpp:165] Memory required for data: 78826440
I0520 14:10:56.918824 26180 layer_factory.hpp:77] Creating layer conv2
I0520 14:10:56.918846 26180 net.cpp:106] Creating Layer conv2
I0520 14:10:56.918858 26180 net.cpp:454] conv2 <- pool1
I0520 14:10:56.918870 26180 net.cpp:411] conv2 -> conv2
I0520 14:10:56.921608 26180 net.cpp:150] Setting up conv2
I0520 14:10:56.921632 26180 net.cpp:157] Top shape: 110 20 54 46 (5464800)
I0520 14:10:56.921641 26180 net.cpp:165] Memory required for data: 100685640
I0520 14:10:56.921660 26180 layer_factory.hpp:77] Creating layer relu2
I0520 14:10:56.921675 26180 net.cpp:106] Creating Layer relu2
I0520 14:10:56.921685 26180 net.cpp:454] relu2 <- conv2
I0520 14:10:56.921699 26180 net.cpp:397] relu2 -> conv2 (in-place)
I0520 14:10:56.922029 26180 net.cpp:150] Setting up relu2
I0520 14:10:56.922044 26180 net.cpp:157] Top shape: 110 20 54 46 (5464800)
I0520 14:10:56.922055 26180 net.cpp:165] Memory required for data: 122544840
I0520 14:10:56.922065 26180 layer_factory.hpp:77] Creating layer pool2
I0520 14:10:56.922076 26180 net.cpp:106] Creating Layer pool2
I0520 14:10:56.922086 26180 net.cpp:454] pool2 <- conv2
I0520 14:10:56.922111 26180 net.cpp:411] pool2 -> pool2
I0520 14:10:56.922180 26180 net.cpp:150] Setting up pool2
I0520 14:10:56.922194 26180 net.cpp:157] Top shape: 110 20 27 46 (2732400)
I0520 14:10:56.922202 26180 net.cpp:165] Memory required for data: 133474440
I0520 14:10:56.922212 26180 layer_factory.hpp:77] Creating layer conv3
I0520 14:10:56.922230 26180 net.cpp:106] Creating Layer conv3
I0520 14:10:56.922240 26180 net.cpp:454] conv3 <- pool2
I0520 14:10:56.922253 26180 net.cpp:411] conv3 -> conv3
I0520 14:10:56.924173 26180 net.cpp:150] Setting up conv3
I0520 14:10:56.924196 26180 net.cpp:157] Top shape: 110 28 22 44 (2981440)
I0520 14:10:56.924209 26180 net.cpp:165] Memory required for data: 145400200
I0520 14:10:56.924227 26180 layer_factory.hpp:77] Creating layer relu3
I0520 14:10:56.924243 26180 net.cpp:106] Creating Layer relu3
I0520 14:10:56.924253 26180 net.cpp:454] relu3 <- conv3
I0520 14:10:56.924266 26180 net.cpp:397] relu3 -> conv3 (in-place)
I0520 14:10:56.924736 26180 net.cpp:150] Setting up relu3
I0520 14:10:56.924752 26180 net.cpp:157] Top shape: 110 28 22 44 (2981440)
I0520 14:10:56.924763 26180 net.cpp:165] Memory required for data: 157325960
I0520 14:10:56.924773 26180 layer_factory.hpp:77] Creating layer pool3
I0520 14:10:56.924787 26180 net.cpp:106] Creating Layer pool3
I0520 14:10:56.924796 26180 net.cpp:454] pool3 <- conv3
I0520 14:10:56.924809 26180 net.cpp:411] pool3 -> pool3
I0520 14:10:56.924876 26180 net.cpp:150] Setting up pool3
I0520 14:10:56.924890 26180 net.cpp:157] Top shape: 110 28 11 44 (1490720)
I0520 14:10:56.924899 26180 net.cpp:165] Memory required for data: 163288840
I0520 14:10:56.924908 26180 layer_factory.hpp:77] Creating layer conv4
I0520 14:10:56.924926 26180 net.cpp:106] Creating Layer conv4
I0520 14:10:56.924937 26180 net.cpp:454] conv4 <- pool3
I0520 14:10:56.924950 26180 net.cpp:411] conv4 -> conv4
I0520 14:10:56.927894 26180 net.cpp:150] Setting up conv4
I0520 14:10:56.927923 26180 net.cpp:157] Top shape: 110 36 6 42 (997920)
I0520 14:10:56.927933 26180 net.cpp:165] Memory required for data: 167280520
I0520 14:10:56.927949 26180 layer_factory.hpp:77] Creating layer relu4
I0520 14:10:56.927963 26180 net.cpp:106] Creating Layer relu4
I0520 14:10:56.927973 26180 net.cpp:454] relu4 <- conv4
I0520 14:10:56.927986 26180 net.cpp:397] relu4 -> conv4 (in-place)
I0520 14:10:56.928452 26180 net.cpp:150] Setting up relu4
I0520 14:10:56.928468 26180 net.cpp:157] Top shape: 110 36 6 42 (997920)
I0520 14:10:56.928479 26180 net.cpp:165] Memory required for data: 171272200
I0520 14:10:56.928489 26180 layer_factory.hpp:77] Creating layer pool4
I0520 14:10:56.928503 26180 net.cpp:106] Creating Layer pool4
I0520 14:10:56.928513 26180 net.cpp:454] pool4 <- conv4
I0520 14:10:56.928525 26180 net.cpp:411] pool4 -> pool4
I0520 14:10:56.928593 26180 net.cpp:150] Setting up pool4
I0520 14:10:56.928606 26180 net.cpp:157] Top shape: 110 36 3 42 (498960)
I0520 14:10:56.928617 26180 net.cpp:165] Memory required for data: 173268040
I0520 14:10:56.928627 26180 layer_factory.hpp:77] Creating layer ip1
I0520 14:10:56.928647 26180 net.cpp:106] Creating Layer ip1
I0520 14:10:56.928656 26180 net.cpp:454] ip1 <- pool4
I0520 14:10:56.928670 26180 net.cpp:411] ip1 -> ip1
I0520 14:10:56.944097 26180 net.cpp:150] Setting up ip1
I0520 14:10:56.944124 26180 net.cpp:157] Top shape: 110 196 (21560)
I0520 14:10:56.944139 26180 net.cpp:165] Memory required for data: 173354280
I0520 14:10:56.944160 26180 layer_factory.hpp:77] Creating layer relu5
I0520 14:10:56.944175 26180 net.cpp:106] Creating Layer relu5
I0520 14:10:56.944185 26180 net.cpp:454] relu5 <- ip1
I0520 14:10:56.944198 26180 net.cpp:397] relu5 -> ip1 (in-place)
I0520 14:10:56.944541 26180 net.cpp:150] Setting up relu5
I0520 14:10:56.944555 26180 net.cpp:157] Top shape: 110 196 (21560)
I0520 14:10:56.944566 26180 net.cpp:165] Memory required for data: 173440520
I0520 14:10:56.944573 26180 layer_factory.hpp:77] Creating layer drop1
I0520 14:10:56.944597 26180 net.cpp:106] Creating Layer drop1
I0520 14:10:56.944607 26180 net.cpp:454] drop1 <- ip1
I0520 14:10:56.944631 26180 net.cpp:397] drop1 -> ip1 (in-place)
I0520 14:10:56.944680 26180 net.cpp:150] Setting up drop1
I0520 14:10:56.944694 26180 net.cpp:157] Top shape: 110 196 (21560)
I0520 14:10:56.944703 26180 net.cpp:165] Memory required for data: 173526760
I0520 14:10:56.944713 26180 layer_factory.hpp:77] Creating layer ip2
I0520 14:10:56.944732 26180 net.cpp:106] Creating Layer ip2
I0520 14:10:56.944742 26180 net.cpp:454] ip2 <- ip1
I0520 14:10:56.944756 26180 net.cpp:411] ip2 -> ip2
I0520 14:10:56.945221 26180 net.cpp:150] Setting up ip2
I0520 14:10:56.945235 26180 net.cpp:157] Top shape: 110 98 (10780)
I0520 14:10:56.945245 26180 net.cpp:165] Memory required for data: 173569880
I0520 14:10:56.945261 26180 layer_factory.hpp:77] Creating layer relu6
I0520 14:10:56.945272 26180 net.cpp:106] Creating Layer relu6
I0520 14:10:56.945282 26180 net.cpp:454] relu6 <- ip2
I0520 14:10:56.945294 26180 net.cpp:397] relu6 -> ip2 (in-place)
I0520 14:10:56.945891 26180 net.cpp:150] Setting up relu6
I0520 14:10:56.945914 26180 net.cpp:157] Top shape: 110 98 (10780)
I0520 14:10:56.945927 26180 net.cpp:165] Memory required for data: 173613000
I0520 14:10:56.945936 26180 layer_factory.hpp:77] Creating layer drop2
I0520 14:10:56.945950 26180 net.cpp:106] Creating Layer drop2
I0520 14:10:56.945961 26180 net.cpp:454] drop2 <- ip2
I0520 14:10:56.945974 26180 net.cpp:397] drop2 -> ip2 (in-place)
I0520 14:10:56.946017 26180 net.cpp:150] Setting up drop2
I0520 14:10:56.946030 26180 net.cpp:157] Top shape: 110 98 (10780)
I0520 14:10:56.946040 26180 net.cpp:165] Memory required for data: 173656120
I0520 14:10:56.946051 26180 layer_factory.hpp:77] Creating layer ip3
I0520 14:10:56.946065 26180 net.cpp:106] Creating Layer ip3
I0520 14:10:56.946075 26180 net.cpp:454] ip3 <- ip2
I0520 14:10:56.946089 26180 net.cpp:411] ip3 -> ip3
I0520 14:10:56.946298 26180 net.cpp:150] Setting up ip3
I0520 14:10:56.946311 26180 net.cpp:157] Top shape: 110 11 (1210)
I0520 14:10:56.946321 26180 net.cpp:165] Memory required for data: 173660960
I0520 14:10:56.946336 26180 layer_factory.hpp:77] Creating layer drop3
I0520 14:10:56.946348 26180 net.cpp:106] Creating Layer drop3
I0520 14:10:56.946358 26180 net.cpp:454] drop3 <- ip3
I0520 14:10:56.946370 26180 net.cpp:397] drop3 -> ip3 (in-place)
I0520 14:10:56.946409 26180 net.cpp:150] Setting up drop3
I0520 14:10:56.946422 26180 net.cpp:157] Top shape: 110 11 (1210)
I0520 14:10:56.946434 26180 net.cpp:165] Memory required for data: 173665800
I0520 14:10:56.946444 26180 layer_factory.hpp:77] Creating layer loss
I0520 14:10:56.946462 26180 net.cpp:106] Creating Layer loss
I0520 14:10:56.946472 26180 net.cpp:454] loss <- ip3
I0520 14:10:56.946483 26180 net.cpp:454] loss <- label
I0520 14:10:56.946496 26180 net.cpp:411] loss -> loss
I0520 14:10:56.946513 26180 layer_factory.hpp:77] Creating layer loss
…
I0520 14:10:56.949077 26180 solver.cpp:181] Creating test net (#0) specified by net file: /lustre/atlas/proj-shared/hep105/caffe_titan/caffe_workflow/logs_batch_size_test/batch_size_110_2016-05-20T11.20.36.681879.prototxt
I0520 14:10:56.949148 26180 net.cpp:322] The NetState phase (1) differed from the phase (0) specified by a rule in layer data_hdf5
I0520 14:10:56.949502 26180 net.cpp:49] Initializing net from parameters: 
name: "caffe_test_127x50_x_unshifted"
state {
  phase: TEST
}
layer {
  name: "data_hdf5"
  type: "HDF5Data"
  top: "data"
  top: "label"
  include {
    phase: TEST
  }
  hdf5_data_param {
    source: "/lustre/atlas/proj-shared/hep105/caffe_titan/minosmatch_nukecczdefs_127x50_x_unshifted_me1Bmc.testlist"
    batch_size: 110
  }
}
layer {
  name: "conv1"
  type: "Convolution"
  bottom: "data"
  top: "conv1"
  convolution_param {
    num_output: 12
    pad: 0
    stride: 1
    weight_filler {
      type: "xavier"
    }
    bias_filler {
      type: "constant"
    }
    kernel_h: 8
    kernel_w: 3
  }
}
layer {
  name: "relu1"
  type: "ReLU"
  bottom: "conv1"
  top: "conv1"
}
layer {
  name: "pool1"
  type: "Pooling"
  bottom: "conv1"
  top: "pool1"
  pooling_param {
    pool: MAX
    kernel_h: 2
    kernel_w: 1
    stride_h: 2
    stride_w: 1
  }
}
layer {
  name: "conv2"
  type: "Convolution"
  bottom: "pool1"
  top: "conv2"
  convolution_param {
    num_output: 20
    pad: 0
    stride: 1
    weight_filler {
      type: "xavier"
    }
    bias_filler {
      type: "constant"
    }
    kernel_h: 7
    kernel_w: 3
  }
}
layer {
  name: "relu2"
  type: "ReLU"
  bottom: "conv2"
  top: "conv2"
}
layer {
  name: "pool2"
  type: "Pooling"
  bottom: "conv2"
  top: "pool2"
  pooling_param {
    pool: MAX
    kernel_h: 2
    kernel_w: 1
    stride_h: 2
    stride_w: 1
  }
}
layer {
  name: "conv3"
  type: "Convolution"
  bottom: "pool2"
  top: "conv3"
  convolution_param {
    num_output: 28
    pad: 0
    stride: 1
    weight_filler {
      type: "xavier"
    }
    bias_filler {
      type: "constant"
    }
    kernel_h: 6
    kernel_w: 3
  }
}
layer {
  name: "relu3"
  type: "ReLU"
  bottom: "conv3"
  top: "conv3"
}
layer {
  name: "pool3"
  type: "Pooling"
  bottom: "conv3"
  top: "pool3"
  pooling_param {
    pool: MAX
    kernel_h: 2
    kernel_w: 1
    stride_h: 2
    stride_w: 1
  }
}
layer {
  name: "conv4"
  type: "Convolution"
  bottom: "pool3"
  top: "conv4"
  convolution_param {
    num_output: 36
    pad: 0
    stride: 1
    weight_filler {
      type: "xavier"
    }
    bias_filler {
      type: "constant"
    }
    kernel_h: 6
    kernel_w: 3
  }
}
layer {
  name: "relu4"
  type: "ReLU"
  bottom: "conv4"
  top: "conv4"
}
layer {
  name: "pool4"
  type: "Pooling"
  bottom: "conv4"
  top: "pool4"
  pooling_param {
    pool: MAX
    kernel_h: 2
    kernel_w: 1
    stride_h: 2
    stride_w: 1
  }
}
layer {
  name: "ip1"
  type: "InnerProduct"
  bottom: "pool4"
  top: "ip1"
  inner_product_param {
    num_output: 196
    weight_filler {
      type: "xavier"
    }
    bias_filler {
      type: "constant"
    }
  }
}
layer {
  name: "relu5"
  type: "ReLU"
  bottom: "ip1"
  top: "ip1"
}
layer {
  name: "drop1"
  type: "Dropout"
  bottom: "ip1"
  top: "ip1"
  dropout_param {
    dropout_ratio: 0.5
  }
}
layer {
  name: "ip2"
  type: "InnerProduct"
  bottom: "ip1"
  top: "ip2"
  inner_product_param {
    num_output: 98
    weight_filler {
      type: "xavier"
    }
    bias_filler {
      type: "constant"
    }
  }
}
layer {
  name: "relu6"
  type: "ReLU"
  bottom: "ip2"
  top: "ip2"
}
layer {
  name: "drop2"
  type: "Dropout"
  bottom: "ip2"
  top: "ip2"
  dropout_param {
    dropout_ratio: 0.5
  }
}
layer {
  name: "ip3"
  type: "InnerProduct"
  bottom: "ip2"
  top: "ip3"
  inner_product_param {
    num_output: 11
    weight_filler {
      type: "xavier"
    }
    bias_filler {
      type: "constant"
    }
  }
}
layer {
  name: "drop3"
  type: "Dropout"
  bottom: "ip3"
  top: "ip3"
  dropout_param {
    dropout_ratio: 0.5
  }
}
layer {
  name: "accuracy"
  type: "Accuracy"
  bottom: "ip3"
  bottom: "label"
  top: "accuracy"
  include {
    phase: TEST
  }
}
layer {
  name: "loss"
  type: "SoftmaxWithLoss"
  bottom: "ip3"
  bottom: "label"
  top: "loss"
}
I0520 14:10:56.949690 26180 layer_factory.hpp:77] Creating layer data_hdf5
I0520 14:10:56.949705 26180 net.cpp:106] Creating Layer data_hdf5
I0520 14:10:56.949718 26180 net.cpp:411] data_hdf5 -> data
I0520 14:10:56.949734 26180 net.cpp:411] data_hdf5 -> label
I0520 14:10:56.949751 26180 hdf5_data_layer.cpp:79] Loading list of HDF5 filenames from: /lustre/atlas/proj-shared/hep105/caffe_titan/minosmatch_nukecczdefs_127x50_x_unshifted_me1Bmc.testlist
I0520 14:10:56.951019 26180 hdf5_data_layer.cpp:93] Number of HDF5 files: 3
I0520 14:11:18.251652 26180 net.cpp:150] Setting up data_hdf5
I0520 14:11:18.251827 26180 net.cpp:157] Top shape: 110 1 127 50 (698500)
I0520 14:11:18.251842 26180 net.cpp:157] Top shape: 110 (110)
I0520 14:11:18.251853 26180 net.cpp:165] Memory required for data: 2794440
I0520 14:11:18.251866 26180 layer_factory.hpp:77] Creating layer label_data_hdf5_1_split
I0520 14:11:18.251895 26180 net.cpp:106] Creating Layer label_data_hdf5_1_split
I0520 14:11:18.251906 26180 net.cpp:454] label_data_hdf5_1_split <- label
I0520 14:11:18.251921 26180 net.cpp:411] label_data_hdf5_1_split -> label_data_hdf5_1_split_0
I0520 14:11:18.251942 26180 net.cpp:411] label_data_hdf5_1_split -> label_data_hdf5_1_split_1
I0520 14:11:18.252015 26180 net.cpp:150] Setting up label_data_hdf5_1_split
I0520 14:11:18.252029 26180 net.cpp:157] Top shape: 110 (110)
I0520 14:11:18.252041 26180 net.cpp:157] Top shape: 110 (110)
I0520 14:11:18.252051 26180 net.cpp:165] Memory required for data: 2795320
I0520 14:11:18.252060 26180 layer_factory.hpp:77] Creating layer conv1
I0520 14:11:18.252086 26180 net.cpp:106] Creating Layer conv1
I0520 14:11:18.252097 26180 net.cpp:454] conv1 <- data
I0520 14:11:18.252110 26180 net.cpp:411] conv1 -> conv1
I0520 14:11:18.254055 26180 net.cpp:150] Setting up conv1
I0520 14:11:18.254078 26180 net.cpp:157] Top shape: 110 12 120 48 (7603200)
I0520 14:11:18.254089 26180 net.cpp:165] Memory required for data: 33208120
I0520 14:11:18.254109 26180 layer_factory.hpp:77] Creating layer relu1
I0520 14:11:18.254124 26180 net.cpp:106] Creating Layer relu1
I0520 14:11:18.254134 26180 net.cpp:454] relu1 <- conv1
I0520 14:11:18.254147 26180 net.cpp:397] relu1 -> conv1 (in-place)
I0520 14:11:18.254639 26180 net.cpp:150] Setting up relu1
I0520 14:11:18.254655 26180 net.cpp:157] Top shape: 110 12 120 48 (7603200)
I0520 14:11:18.254667 26180 net.cpp:165] Memory required for data: 63620920
I0520 14:11:18.254678 26180 layer_factory.hpp:77] Creating layer pool1
I0520 14:11:18.254693 26180 net.cpp:106] Creating Layer pool1
I0520 14:11:18.254703 26180 net.cpp:454] pool1 <- conv1
I0520 14:11:18.254717 26180 net.cpp:411] pool1 -> pool1
I0520 14:11:18.254793 26180 net.cpp:150] Setting up pool1
I0520 14:11:18.254806 26180 net.cpp:157] Top shape: 110 12 60 48 (3801600)
I0520 14:11:18.254815 26180 net.cpp:165] Memory required for data: 78827320
I0520 14:11:18.254827 26180 layer_factory.hpp:77] Creating layer conv2
I0520 14:11:18.254843 26180 net.cpp:106] Creating Layer conv2
I0520 14:11:18.254854 26180 net.cpp:454] conv2 <- pool1
I0520 14:11:18.254868 26180 net.cpp:411] conv2 -> conv2
I0520 14:11:18.256796 26180 net.cpp:150] Setting up conv2
I0520 14:11:18.256819 26180 net.cpp:157] Top shape: 110 20 54 46 (5464800)
I0520 14:11:18.256831 26180 net.cpp:165] Memory required for data: 100686520
I0520 14:11:18.256850 26180 layer_factory.hpp:77] Creating layer relu2
I0520 14:11:18.256862 26180 net.cpp:106] Creating Layer relu2
I0520 14:11:18.256872 26180 net.cpp:454] relu2 <- conv2
I0520 14:11:18.256886 26180 net.cpp:397] relu2 -> conv2 (in-place)
I0520 14:11:18.257220 26180 net.cpp:150] Setting up relu2
I0520 14:11:18.257233 26180 net.cpp:157] Top shape: 110 20 54 46 (5464800)
I0520 14:11:18.257243 26180 net.cpp:165] Memory required for data: 122545720
I0520 14:11:18.257253 26180 layer_factory.hpp:77] Creating layer pool2
I0520 14:11:18.257267 26180 net.cpp:106] Creating Layer pool2
I0520 14:11:18.257277 26180 net.cpp:454] pool2 <- conv2
I0520 14:11:18.257289 26180 net.cpp:411] pool2 -> pool2
I0520 14:11:18.257361 26180 net.cpp:150] Setting up pool2
I0520 14:11:18.257375 26180 net.cpp:157] Top shape: 110 20 27 46 (2732400)
I0520 14:11:18.257385 26180 net.cpp:165] Memory required for data: 133475320
I0520 14:11:18.257395 26180 layer_factory.hpp:77] Creating layer conv3
I0520 14:11:18.257411 26180 net.cpp:106] Creating Layer conv3
I0520 14:11:18.257422 26180 net.cpp:454] conv3 <- pool2
I0520 14:11:18.257436 26180 net.cpp:411] conv3 -> conv3
I0520 14:11:18.259426 26180 net.cpp:150] Setting up conv3
I0520 14:11:18.259449 26180 net.cpp:157] Top shape: 110 28 22 44 (2981440)
I0520 14:11:18.259461 26180 net.cpp:165] Memory required for data: 145401080
I0520 14:11:18.259501 26180 layer_factory.hpp:77] Creating layer relu3
I0520 14:11:18.259516 26180 net.cpp:106] Creating Layer relu3
I0520 14:11:18.259526 26180 net.cpp:454] relu3 <- conv3
I0520 14:11:18.259538 26180 net.cpp:397] relu3 -> conv3 (in-place)
I0520 14:11:18.260010 26180 net.cpp:150] Setting up relu3
I0520 14:11:18.260027 26180 net.cpp:157] Top shape: 110 28 22 44 (2981440)
I0520 14:11:18.260037 26180 net.cpp:165] Memory required for data: 157326840
I0520 14:11:18.260047 26180 layer_factory.hpp:77] Creating layer pool3
I0520 14:11:18.260061 26180 net.cpp:106] Creating Layer pool3
I0520 14:11:18.260071 26180 net.cpp:454] pool3 <- conv3
I0520 14:11:18.260084 26180 net.cpp:411] pool3 -> pool3
I0520 14:11:18.260155 26180 net.cpp:150] Setting up pool3
I0520 14:11:18.260169 26180 net.cpp:157] Top shape: 110 28 11 44 (1490720)
I0520 14:11:18.260179 26180 net.cpp:165] Memory required for data: 163289720
I0520 14:11:18.260186 26180 layer_factory.hpp:77] Creating layer conv4
I0520 14:11:18.260205 26180 net.cpp:106] Creating Layer conv4
I0520 14:11:18.260215 26180 net.cpp:454] conv4 <- pool3
I0520 14:11:18.260231 26180 net.cpp:411] conv4 -> conv4
I0520 14:11:18.262305 26180 net.cpp:150] Setting up conv4
I0520 14:11:18.262326 26180 net.cpp:157] Top shape: 110 36 6 42 (997920)
I0520 14:11:18.262339 26180 net.cpp:165] Memory required for data: 167281400
I0520 14:11:18.262353 26180 layer_factory.hpp:77] Creating layer relu4
I0520 14:11:18.262367 26180 net.cpp:106] Creating Layer relu4
I0520 14:11:18.262377 26180 net.cpp:454] relu4 <- conv4
I0520 14:11:18.262390 26180 net.cpp:397] relu4 -> conv4 (in-place)
I0520 14:11:18.262859 26180 net.cpp:150] Setting up relu4
I0520 14:11:18.262876 26180 net.cpp:157] Top shape: 110 36 6 42 (997920)
I0520 14:11:18.262887 26180 net.cpp:165] Memory required for data: 171273080
I0520 14:11:18.262897 26180 layer_factory.hpp:77] Creating layer pool4
I0520 14:11:18.262910 26180 net.cpp:106] Creating Layer pool4
I0520 14:11:18.262920 26180 net.cpp:454] pool4 <- conv4
I0520 14:11:18.262934 26180 net.cpp:411] pool4 -> pool4
I0520 14:11:18.263005 26180 net.cpp:150] Setting up pool4
I0520 14:11:18.263020 26180 net.cpp:157] Top shape: 110 36 3 42 (498960)
I0520 14:11:18.263028 26180 net.cpp:165] Memory required for data: 173268920
I0520 14:11:18.263036 26180 layer_factory.hpp:77] Creating layer ip1
I0520 14:11:18.263052 26180 net.cpp:106] Creating Layer ip1
I0520 14:11:18.263063 26180 net.cpp:454] ip1 <- pool4
I0520 14:11:18.263077 26180 net.cpp:411] ip1 -> ip1
I0520 14:11:18.278535 26180 net.cpp:150] Setting up ip1
I0520 14:11:18.278563 26180 net.cpp:157] Top shape: 110 196 (21560)
I0520 14:11:18.278574 26180 net.cpp:165] Memory required for data: 173355160
I0520 14:11:18.278596 26180 layer_factory.hpp:77] Creating layer relu5
I0520 14:11:18.278611 26180 net.cpp:106] Creating Layer relu5
I0520 14:11:18.278622 26180 net.cpp:454] relu5 <- ip1
I0520 14:11:18.278635 26180 net.cpp:397] relu5 -> ip1 (in-place)
I0520 14:11:18.278982 26180 net.cpp:150] Setting up relu5
I0520 14:11:18.278996 26180 net.cpp:157] Top shape: 110 196 (21560)
I0520 14:11:18.279006 26180 net.cpp:165] Memory required for data: 173441400
I0520 14:11:18.279016 26180 layer_factory.hpp:77] Creating layer drop1
I0520 14:11:18.279034 26180 net.cpp:106] Creating Layer drop1
I0520 14:11:18.279044 26180 net.cpp:454] drop1 <- ip1
I0520 14:11:18.279057 26180 net.cpp:397] drop1 -> ip1 (in-place)
I0520 14:11:18.279104 26180 net.cpp:150] Setting up drop1
I0520 14:11:18.279116 26180 net.cpp:157] Top shape: 110 196 (21560)
I0520 14:11:18.279126 26180 net.cpp:165] Memory required for data: 173527640
I0520 14:11:18.279135 26180 layer_factory.hpp:77] Creating layer ip2
I0520 14:11:18.279150 26180 net.cpp:106] Creating Layer ip2
I0520 14:11:18.279160 26180 net.cpp:454] ip2 <- ip1
I0520 14:11:18.279173 26180 net.cpp:411] ip2 -> ip2
I0520 14:11:18.279659 26180 net.cpp:150] Setting up ip2
I0520 14:11:18.279671 26180 net.cpp:157] Top shape: 110 98 (10780)
I0520 14:11:18.279682 26180 net.cpp:165] Memory required for data: 173570760
I0520 14:11:18.279698 26180 layer_factory.hpp:77] Creating layer relu6
I0520 14:11:18.279723 26180 net.cpp:106] Creating Layer relu6
I0520 14:11:18.279733 26180 net.cpp:454] relu6 <- ip2
I0520 14:11:18.279747 26180 net.cpp:397] relu6 -> ip2 (in-place)
I0520 14:11:18.280282 26180 net.cpp:150] Setting up relu6
I0520 14:11:18.280305 26180 net.cpp:157] Top shape: 110 98 (10780)
I0520 14:11:18.280315 26180 net.cpp:165] Memory required for data: 173613880
I0520 14:11:18.280325 26180 layer_factory.hpp:77] Creating layer drop2
I0520 14:11:18.280339 26180 net.cpp:106] Creating Layer drop2
I0520 14:11:18.280349 26180 net.cpp:454] drop2 <- ip2
I0520 14:11:18.280362 26180 net.cpp:397] drop2 -> ip2 (in-place)
I0520 14:11:18.280406 26180 net.cpp:150] Setting up drop2
I0520 14:11:18.280419 26180 net.cpp:157] Top shape: 110 98 (10780)
I0520 14:11:18.280429 26180 net.cpp:165] Memory required for data: 173657000
I0520 14:11:18.280439 26180 layer_factory.hpp:77] Creating layer ip3
I0520 14:11:18.280453 26180 net.cpp:106] Creating Layer ip3
I0520 14:11:18.280462 26180 net.cpp:454] ip3 <- ip2
I0520 14:11:18.280477 26180 net.cpp:411] ip3 -> ip3
I0520 14:11:18.280699 26180 net.cpp:150] Setting up ip3
I0520 14:11:18.280711 26180 net.cpp:157] Top shape: 110 11 (1210)
I0520 14:11:18.280721 26180 net.cpp:165] Memory required for data: 173661840
I0520 14:11:18.280737 26180 layer_factory.hpp:77] Creating layer drop3
I0520 14:11:18.280750 26180 net.cpp:106] Creating Layer drop3
I0520 14:11:18.280761 26180 net.cpp:454] drop3 <- ip3
I0520 14:11:18.280773 26180 net.cpp:397] drop3 -> ip3 (in-place)
I0520 14:11:18.280813 26180 net.cpp:150] Setting up drop3
I0520 14:11:18.280827 26180 net.cpp:157] Top shape: 110 11 (1210)
I0520 14:11:18.280836 26180 net.cpp:165] Memory required for data: 173666680
I0520 14:11:18.280845 26180 layer_factory.hpp:77] Creating layer ip3_drop3_0_split
I0520 14:11:18.280858 26180 net.cpp:106] Creating Layer ip3_drop3_0_split
I0520 14:11:18.280869 26180 net.cpp:454] ip3_drop3_0_split <- ip3
I0520 14:11:18.280881 26180 net.cpp:411] ip3_drop3_0_split -> ip3_drop3_0_split_0
I0520 14:11:18.280896 26180 net.cpp:411] ip3_drop3_0_split -> ip3_drop3_0_split_1
I0520 14:11:18.280971 26180 net.cpp:150] Setting up ip3_drop3_0_split
I0520 14:11:18.280983 26180 net.cpp:157] Top shape: 110 11 (1210)
I0520 14:11:18.280997 26180 net.cpp:157] Top shape: 110 11 (1210)
I0520 14:11:18.281009 26180 net.cpp:165] Memory required for data: 173676360
I0520 14:11:18.281021 26180 layer_factory.hpp:77] Creating layer accuracy
I0520 14:11:18.281046 26180 net.cpp:106] Creating Layer accuracy
I0520 14:11:18.281056 26180 net.cpp:454] accuracy <- ip3_drop3_0_split_0
I0520 14:11:18.281067 26180 net.cpp:454] accuracy <- label_data_hdf5_1_split_0
I0520 14:11:18.281081 26180 net.cpp:411] accuracy -> accuracy
…
