…
I0521 02:39:50.554762  9476 net.cpp:322] The NetState phase (0) differed from the phase (1) specified by a rule in layer data_hdf5
I0521 02:39:50.554822  9476 net.cpp:322] The NetState phase (0) differed from the phase (1) specified by a rule in layer accuracy
I0521 02:39:50.555169  9476 net.cpp:49] Initializing net from parameters: 
name: "caffe_test_127x50_x_unshifted"
state {
  phase: TRAIN
}
layer {
  name: "data_hdf5"
  type: "HDF5Data"
  top: "data"
  top: "label"
  include {
    phase: TRAIN
  }
  hdf5_data_param {
    source: "/lustre/atlas/proj-shared/hep105/caffe_titan/minosmatch_nukecczdefs_127x50_x_unshifted_me1Bmc.trainlist"
    batch_size: 580
  }
}
layer {
  name: "conv1"
  type: "Convolution"
  bottom: "data"
  top: "conv1"
  convolution_param {
    num_output: 12
    pad: 0
    stride: 1
    weight_filler {
      type: "xavier"
    }
    bias_filler {
      type: "constant"
    }
    kernel_h: 8
    kernel_w: 3
  }
}
layer {
  name: "relu1"
  type: "ReLU"
  bottom: "conv1"
  top: "conv1"
}
layer {
  name: "pool1"
  type: "Pooling"
  bottom: "conv1"
  top: "pool1"
  pooling_param {
    pool: MAX
    kernel_h: 2
    kernel_w: 1
    stride_h: 2
    stride_w: 1
  }
}
layer {
  name: "conv2"
  type: "Convolution"
  bottom: "pool1"
  top: "conv2"
  convolution_param {
    num_output: 20
    pad: 0
    stride: 1
    weight_filler {
      type: "xavier"
    }
    bias_filler {
      type: "constant"
    }
    kernel_h: 7
    kernel_w: 3
  }
}
layer {
  name: "relu2"
  type: "ReLU"
  bottom: "conv2"
  top: "conv2"
}
layer {
  name: "pool2"
  type: "Pooling"
  bottom: "conv2"
  top: "pool2"
  pooling_param {
    pool: MAX
    kernel_h: 2
    kernel_w: 1
    stride_h: 2
    stride_w: 1
  }
}
layer {
  name: "conv3"
  type: "Convolution"
  bottom: "pool2"
  top: "conv3"
  convolution_param {
    num_output: 28
    pad: 0
    stride: 1
    weight_filler {
      type: "xavier"
    }
    bias_filler {
      type: "constant"
    }
    kernel_h: 6
    kernel_w: 3
  }
}
layer {
  name: "relu3"
  type: "ReLU"
  bottom: "conv3"
  top: "conv3"
}
layer {
  name: "pool3"
  type: "Pooling"
  bottom: "conv3"
  top: "pool3"
  pooling_param {
    pool: MAX
    kernel_h: 2
    kernel_w: 1
    stride_h: 2
    stride_w: 1
  }
}
layer {
  name: "conv4"
  type: "Convolution"
  bottom: "pool3"
  top: "conv4"
  convolution_param {
    num_output: 36
    pad: 0
    stride: 1
    weight_filler {
      type: "xavier"
    }
    bias_filler {
      type: "constant"
    }
    kernel_h: 6
    kernel_w: 3
  }
}
layer {
  name: "relu4"
  type: "ReLU"
  bottom: "conv4"
  top: "conv4"
}
layer {
  name: "pool4"
  type: "Pooling"
  bottom: "conv4"
  top: "pool4"
  pooling_param {
    pool: MAX
    kernel_h: 2
    kernel_w: 1
    stride_h: 2
    stride_w: 1
  }
}
layer {
  name: "ip1"
  type: "InnerProduct"
  bottom: "pool4"
  top: "ip1"
  inner_product_param {
    num_output: 196
    weight_filler {
      type: "xavier"
    }
    bias_filler {
      type: "constant"
    }
  }
}
layer {
  name: "relu5"
  type: "ReLU"
  bottom: "ip1"
  top: "ip1"
}
layer {
  name: "drop1"
  type: "Dropout"
  bottom: "ip1"
  top: "ip1"
  dropout_param {
    dropout_ratio: 0.5
  }
}
layer {
  name: "ip2"
  type: "InnerProduct"
  bottom: "ip1"
  top: "ip2"
  inner_product_param {
    num_output: 98
    weight_filler {
      type: "xavier"
    }
    bias_filler {
      type: "constant"
    }
  }
}
layer {
  name: "relu6"
  type: "ReLU"
  bottom: "ip2"
  top: "ip2"
}
layer {
  name: "drop2"
  type: "Dropout"
  bottom: "ip2"
  top: "ip2"
  dropout_param {
    dropout_ratio: 0.5
  }
}
layer {
  name: "ip3"
  type: "InnerProduct"
  bottom: "ip2"
  top: "ip3"
  inner_product_param {
    num_output: 11
    weight_filler {
      type: "xavier"
    }
    bias_filler {
      type: "constant"
    }
  }
}
layer {
  name: "drop3"
  type: "Dropout"
  bottom: "ip3"
  top: "ip3"
  dropout_param {
    dropout_ratio: 0.5
  }
}
layer {
  name: "loss"
  type: "SoftmaxWithLoss"
  bottom: "ip3"
  bottom: "label"
  top: "loss"
}
I0521 02:39:50.555351  9476 layer_factory.hpp:77] Creating layer data_hdf5
I0521 02:39:50.555376  9476 net.cpp:106] Creating Layer data_hdf5
I0521 02:39:50.555389  9476 net.cpp:411] data_hdf5 -> data
I0521 02:39:50.555423  9476 net.cpp:411] data_hdf5 -> label
I0521 02:39:50.555456  9476 hdf5_data_layer.cpp:79] Loading list of HDF5 filenames from: /lustre/atlas/proj-shared/hep105/caffe_titan/minosmatch_nukecczdefs_127x50_x_unshifted_me1Bmc.trainlist
I0521 02:39:50.556707  9476 hdf5_data_layer.cpp:93] Number of HDF5 files: 15
I0521 02:39:50.558928  9476 hdf5.cpp:32] Datatype class: H5T_FLOAT
I0521 02:40:12.115376  9476 hdf5.cpp:35] Datatype class: H5T_INTEGER
I0521 02:40:12.120473  9476 net.cpp:150] Setting up data_hdf5
I0521 02:40:12.120513  9476 net.cpp:157] Top shape: 580 1 127 50 (3683000)
I0521 02:40:12.120528  9476 net.cpp:157] Top shape: 580 (580)
I0521 02:40:12.120540  9476 net.cpp:165] Memory required for data: 14734320
I0521 02:40:12.120553  9476 layer_factory.hpp:77] Creating layer conv1
I0521 02:40:12.120587  9476 net.cpp:106] Creating Layer conv1
I0521 02:40:12.120599  9476 net.cpp:454] conv1 <- data
I0521 02:40:12.120620  9476 net.cpp:411] conv1 -> conv1
I0521 02:40:13.017328  9476 net.cpp:150] Setting up conv1
I0521 02:40:13.017371  9476 net.cpp:157] Top shape: 580 12 120 48 (40089600)
I0521 02:40:13.017382  9476 net.cpp:165] Memory required for data: 175092720
I0521 02:40:13.017410  9476 layer_factory.hpp:77] Creating layer relu1
I0521 02:40:13.017432  9476 net.cpp:106] Creating Layer relu1
I0521 02:40:13.017443  9476 net.cpp:454] relu1 <- conv1
I0521 02:40:13.017457  9476 net.cpp:397] relu1 -> conv1 (in-place)
I0521 02:40:13.017972  9476 net.cpp:150] Setting up relu1
I0521 02:40:13.017989  9476 net.cpp:157] Top shape: 580 12 120 48 (40089600)
I0521 02:40:13.018000  9476 net.cpp:165] Memory required for data: 335451120
I0521 02:40:13.018013  9476 layer_factory.hpp:77] Creating layer pool1
I0521 02:40:13.018028  9476 net.cpp:106] Creating Layer pool1
I0521 02:40:13.018038  9476 net.cpp:454] pool1 <- conv1
I0521 02:40:13.018051  9476 net.cpp:411] pool1 -> pool1
I0521 02:40:13.018133  9476 net.cpp:150] Setting up pool1
I0521 02:40:13.018147  9476 net.cpp:157] Top shape: 580 12 60 48 (20044800)
I0521 02:40:13.018158  9476 net.cpp:165] Memory required for data: 415630320
I0521 02:40:13.018168  9476 layer_factory.hpp:77] Creating layer conv2
I0521 02:40:13.018190  9476 net.cpp:106] Creating Layer conv2
I0521 02:40:13.018200  9476 net.cpp:454] conv2 <- pool1
I0521 02:40:13.018214  9476 net.cpp:411] conv2 -> conv2
I0521 02:40:13.020890  9476 net.cpp:150] Setting up conv2
I0521 02:40:13.020912  9476 net.cpp:157] Top shape: 580 20 54 46 (28814400)
I0521 02:40:13.020928  9476 net.cpp:165] Memory required for data: 530887920
I0521 02:40:13.020946  9476 layer_factory.hpp:77] Creating layer relu2
I0521 02:40:13.020961  9476 net.cpp:106] Creating Layer relu2
I0521 02:40:13.020972  9476 net.cpp:454] relu2 <- conv2
I0521 02:40:13.020984  9476 net.cpp:397] relu2 -> conv2 (in-place)
I0521 02:40:13.021314  9476 net.cpp:150] Setting up relu2
I0521 02:40:13.021328  9476 net.cpp:157] Top shape: 580 20 54 46 (28814400)
I0521 02:40:13.021339  9476 net.cpp:165] Memory required for data: 646145520
I0521 02:40:13.021353  9476 layer_factory.hpp:77] Creating layer pool2
I0521 02:40:13.021366  9476 net.cpp:106] Creating Layer pool2
I0521 02:40:13.021376  9476 net.cpp:454] pool2 <- conv2
I0521 02:40:13.021401  9476 net.cpp:411] pool2 -> pool2
I0521 02:40:13.021469  9476 net.cpp:150] Setting up pool2
I0521 02:40:13.021482  9476 net.cpp:157] Top shape: 580 20 27 46 (14407200)
I0521 02:40:13.021492  9476 net.cpp:165] Memory required for data: 703774320
I0521 02:40:13.021503  9476 layer_factory.hpp:77] Creating layer conv3
I0521 02:40:13.021519  9476 net.cpp:106] Creating Layer conv3
I0521 02:40:13.021529  9476 net.cpp:454] conv3 <- pool2
I0521 02:40:13.021543  9476 net.cpp:411] conv3 -> conv3
I0521 02:40:13.023448  9476 net.cpp:150] Setting up conv3
I0521 02:40:13.023485  9476 net.cpp:157] Top shape: 580 28 22 44 (15720320)
I0521 02:40:13.023495  9476 net.cpp:165] Memory required for data: 766655600
I0521 02:40:13.023515  9476 layer_factory.hpp:77] Creating layer relu3
I0521 02:40:13.023531  9476 net.cpp:106] Creating Layer relu3
I0521 02:40:13.023541  9476 net.cpp:454] relu3 <- conv3
I0521 02:40:13.023555  9476 net.cpp:397] relu3 -> conv3 (in-place)
I0521 02:40:13.024024  9476 net.cpp:150] Setting up relu3
I0521 02:40:13.024041  9476 net.cpp:157] Top shape: 580 28 22 44 (15720320)
I0521 02:40:13.024052  9476 net.cpp:165] Memory required for data: 829536880
I0521 02:40:13.024062  9476 layer_factory.hpp:77] Creating layer pool3
I0521 02:40:13.024075  9476 net.cpp:106] Creating Layer pool3
I0521 02:40:13.024085  9476 net.cpp:454] pool3 <- conv3
I0521 02:40:13.024097  9476 net.cpp:411] pool3 -> pool3
I0521 02:40:13.024165  9476 net.cpp:150] Setting up pool3
I0521 02:40:13.024178  9476 net.cpp:157] Top shape: 580 28 11 44 (7860160)
I0521 02:40:13.024188  9476 net.cpp:165] Memory required for data: 860977520
I0521 02:40:13.024197  9476 layer_factory.hpp:77] Creating layer conv4
I0521 02:40:13.024215  9476 net.cpp:106] Creating Layer conv4
I0521 02:40:13.024226  9476 net.cpp:454] conv4 <- pool3
I0521 02:40:13.024240  9476 net.cpp:411] conv4 -> conv4
I0521 02:40:13.027005  9476 net.cpp:150] Setting up conv4
I0521 02:40:13.027034  9476 net.cpp:157] Top shape: 580 36 6 42 (5261760)
I0521 02:40:13.027047  9476 net.cpp:165] Memory required for data: 882024560
I0521 02:40:13.027063  9476 layer_factory.hpp:77] Creating layer relu4
I0521 02:40:13.027077  9476 net.cpp:106] Creating Layer relu4
I0521 02:40:13.027087  9476 net.cpp:454] relu4 <- conv4
I0521 02:40:13.027101  9476 net.cpp:397] relu4 -> conv4 (in-place)
I0521 02:40:13.027580  9476 net.cpp:150] Setting up relu4
I0521 02:40:13.027597  9476 net.cpp:157] Top shape: 580 36 6 42 (5261760)
I0521 02:40:13.027608  9476 net.cpp:165] Memory required for data: 903071600
I0521 02:40:13.027618  9476 layer_factory.hpp:77] Creating layer pool4
I0521 02:40:13.027631  9476 net.cpp:106] Creating Layer pool4
I0521 02:40:13.027642  9476 net.cpp:454] pool4 <- conv4
I0521 02:40:13.027654  9476 net.cpp:411] pool4 -> pool4
I0521 02:40:13.027722  9476 net.cpp:150] Setting up pool4
I0521 02:40:13.027735  9476 net.cpp:157] Top shape: 580 36 3 42 (2630880)
I0521 02:40:13.027746  9476 net.cpp:165] Memory required for data: 913595120
I0521 02:40:13.027756  9476 layer_factory.hpp:77] Creating layer ip1
I0521 02:40:13.027776  9476 net.cpp:106] Creating Layer ip1
I0521 02:40:13.027786  9476 net.cpp:454] ip1 <- pool4
I0521 02:40:13.027798  9476 net.cpp:411] ip1 -> ip1
I0521 02:40:13.043198  9476 net.cpp:150] Setting up ip1
I0521 02:40:13.043226  9476 net.cpp:157] Top shape: 580 196 (113680)
I0521 02:40:13.043238  9476 net.cpp:165] Memory required for data: 914049840
I0521 02:40:13.043261  9476 layer_factory.hpp:77] Creating layer relu5
I0521 02:40:13.043275  9476 net.cpp:106] Creating Layer relu5
I0521 02:40:13.043285  9476 net.cpp:454] relu5 <- ip1
I0521 02:40:13.043299  9476 net.cpp:397] relu5 -> ip1 (in-place)
I0521 02:40:13.043647  9476 net.cpp:150] Setting up relu5
I0521 02:40:13.043660  9476 net.cpp:157] Top shape: 580 196 (113680)
I0521 02:40:13.043671  9476 net.cpp:165] Memory required for data: 914504560
I0521 02:40:13.043681  9476 layer_factory.hpp:77] Creating layer drop1
I0521 02:40:13.043702  9476 net.cpp:106] Creating Layer drop1
I0521 02:40:13.043714  9476 net.cpp:454] drop1 <- ip1
I0521 02:40:13.043738  9476 net.cpp:397] drop1 -> ip1 (in-place)
I0521 02:40:13.043787  9476 net.cpp:150] Setting up drop1
I0521 02:40:13.043799  9476 net.cpp:157] Top shape: 580 196 (113680)
I0521 02:40:13.043809  9476 net.cpp:165] Memory required for data: 914959280
I0521 02:40:13.043819  9476 layer_factory.hpp:77] Creating layer ip2
I0521 02:40:13.043838  9476 net.cpp:106] Creating Layer ip2
I0521 02:40:13.043848  9476 net.cpp:454] ip2 <- ip1
I0521 02:40:13.043861  9476 net.cpp:411] ip2 -> ip2
I0521 02:40:13.044327  9476 net.cpp:150] Setting up ip2
I0521 02:40:13.044340  9476 net.cpp:157] Top shape: 580 98 (56840)
I0521 02:40:13.044351  9476 net.cpp:165] Memory required for data: 915186640
I0521 02:40:13.044366  9476 layer_factory.hpp:77] Creating layer relu6
I0521 02:40:13.044378  9476 net.cpp:106] Creating Layer relu6
I0521 02:40:13.044389  9476 net.cpp:454] relu6 <- ip2
I0521 02:40:13.044400  9476 net.cpp:397] relu6 -> ip2 (in-place)
I0521 02:40:13.044914  9476 net.cpp:150] Setting up relu6
I0521 02:40:13.044930  9476 net.cpp:157] Top shape: 580 98 (56840)
I0521 02:40:13.044941  9476 net.cpp:165] Memory required for data: 915414000
I0521 02:40:13.044951  9476 layer_factory.hpp:77] Creating layer drop2
I0521 02:40:13.044963  9476 net.cpp:106] Creating Layer drop2
I0521 02:40:13.044973  9476 net.cpp:454] drop2 <- ip2
I0521 02:40:13.044986  9476 net.cpp:397] drop2 -> ip2 (in-place)
I0521 02:40:13.045028  9476 net.cpp:150] Setting up drop2
I0521 02:40:13.045042  9476 net.cpp:157] Top shape: 580 98 (56840)
I0521 02:40:13.045052  9476 net.cpp:165] Memory required for data: 915641360
I0521 02:40:13.045061  9476 layer_factory.hpp:77] Creating layer ip3
I0521 02:40:13.045074  9476 net.cpp:106] Creating Layer ip3
I0521 02:40:13.045084  9476 net.cpp:454] ip3 <- ip2
I0521 02:40:13.045096  9476 net.cpp:411] ip3 -> ip3
I0521 02:40:13.045306  9476 net.cpp:150] Setting up ip3
I0521 02:40:13.045320  9476 net.cpp:157] Top shape: 580 11 (6380)
I0521 02:40:13.045331  9476 net.cpp:165] Memory required for data: 915666880
I0521 02:40:13.045348  9476 layer_factory.hpp:77] Creating layer drop3
I0521 02:40:13.045361  9476 net.cpp:106] Creating Layer drop3
I0521 02:40:13.045370  9476 net.cpp:454] drop3 <- ip3
I0521 02:40:13.045382  9476 net.cpp:397] drop3 -> ip3 (in-place)
I0521 02:40:13.045421  9476 net.cpp:150] Setting up drop3
I0521 02:40:13.045433  9476 net.cpp:157] Top shape: 580 11 (6380)
I0521 02:40:13.045444  9476 net.cpp:165] Memory required for data: 915692400
I0521 02:40:13.045452  9476 layer_factory.hpp:77] Creating layer loss
I0521 02:40:13.045474  9476 net.cpp:106] Creating Layer loss
I0521 02:40:13.045482  9476 net.cpp:454] loss <- ip3
I0521 02:40:13.045495  9476 net.cpp:454] loss <- label
I0521 02:40:13.045506  9476 net.cpp:411] loss -> loss
I0521 02:40:13.045522  9476 layer_factory.hpp:77] Creating layer loss
…
I0521 02:40:13.048117  9476 solver.cpp:181] Creating test net (#0) specified by net file: /lustre/atlas/proj-shared/hep105/caffe_titan/caffe_workflow/logs_batch_size_test/batch_size_580_2016-05-20T11.20.53.689664.prototxt
I0521 02:40:13.048188  9476 net.cpp:322] The NetState phase (1) differed from the phase (0) specified by a rule in layer data_hdf5
I0521 02:40:13.048544  9476 net.cpp:49] Initializing net from parameters: 
name: "caffe_test_127x50_x_unshifted"
state {
  phase: TEST
}
layer {
  name: "data_hdf5"
  type: "HDF5Data"
  top: "data"
  top: "label"
  include {
    phase: TEST
  }
  hdf5_data_param {
    source: "/lustre/atlas/proj-shared/hep105/caffe_titan/minosmatch_nukecczdefs_127x50_x_unshifted_me1Bmc.testlist"
    batch_size: 580
  }
}
layer {
  name: "conv1"
  type: "Convolution"
  bottom: "data"
  top: "conv1"
  convolution_param {
    num_output: 12
    pad: 0
    stride: 1
    weight_filler {
      type: "xavier"
    }
    bias_filler {
      type: "constant"
    }
    kernel_h: 8
    kernel_w: 3
  }
}
layer {
  name: "relu1"
  type: "ReLU"
  bottom: "conv1"
  top: "conv1"
}
layer {
  name: "pool1"
  type: "Pooling"
  bottom: "conv1"
  top: "pool1"
  pooling_param {
    pool: MAX
    kernel_h: 2
    kernel_w: 1
    stride_h: 2
    stride_w: 1
  }
}
layer {
  name: "conv2"
  type: "Convolution"
  bottom: "pool1"
  top: "conv2"
  convolution_param {
    num_output: 20
    pad: 0
    stride: 1
    weight_filler {
      type: "xavier"
    }
    bias_filler {
      type: "constant"
    }
    kernel_h: 7
    kernel_w: 3
  }
}
layer {
  name: "relu2"
  type: "ReLU"
  bottom: "conv2"
  top: "conv2"
}
layer {
  name: "pool2"
  type: "Pooling"
  bottom: "conv2"
  top: "pool2"
  pooling_param {
    pool: MAX
    kernel_h: 2
    kernel_w: 1
    stride_h: 2
    stride_w: 1
  }
}
layer {
  name: "conv3"
  type: "Convolution"
  bottom: "pool2"
  top: "conv3"
  convolution_param {
    num_output: 28
    pad: 0
    stride: 1
    weight_filler {
      type: "xavier"
    }
    bias_filler {
      type: "constant"
    }
    kernel_h: 6
    kernel_w: 3
  }
}
layer {
  name: "relu3"
  type: "ReLU"
  bottom: "conv3"
  top: "conv3"
}
layer {
  name: "pool3"
  type: "Pooling"
  bottom: "conv3"
  top: "pool3"
  pooling_param {
    pool: MAX
    kernel_h: 2
    kernel_w: 1
    stride_h: 2
    stride_w: 1
  }
}
layer {
  name: "conv4"
  type: "Convolution"
  bottom: "pool3"
  top: "conv4"
  convolution_param {
    num_output: 36
    pad: 0
    stride: 1
    weight_filler {
      type: "xavier"
    }
    bias_filler {
      type: "constant"
    }
    kernel_h: 6
    kernel_w: 3
  }
}
layer {
  name: "relu4"
  type: "ReLU"
  bottom: "conv4"
  top: "conv4"
}
layer {
  name: "pool4"
  type: "Pooling"
  bottom: "conv4"
  top: "pool4"
  pooling_param {
    pool: MAX
    kernel_h: 2
    kernel_w: 1
    stride_h: 2
    stride_w: 1
  }
}
layer {
  name: "ip1"
  type: "InnerProduct"
  bottom: "pool4"
  top: "ip1"
  inner_product_param {
    num_output: 196
    weight_filler {
      type: "xavier"
    }
    bias_filler {
      type: "constant"
    }
  }
}
layer {
  name: "relu5"
  type: "ReLU"
  bottom: "ip1"
  top: "ip1"
}
layer {
  name: "drop1"
  type: "Dropout"
  bottom: "ip1"
  top: "ip1"
  dropout_param {
    dropout_ratio: 0.5
  }
}
layer {
  name: "ip2"
  type: "InnerProduct"
  bottom: "ip1"
  top: "ip2"
  inner_product_param {
    num_output: 98
    weight_filler {
      type: "xavier"
    }
    bias_filler {
      type: "constant"
    }
  }
}
layer {
  name: "relu6"
  type: "ReLU"
  bottom: "ip2"
  top: "ip2"
}
layer {
  name: "drop2"
  type: "Dropout"
  bottom: "ip2"
  top: "ip2"
  dropout_param {
    dropout_ratio: 0.5
  }
}
layer {
  name: "ip3"
  type: "InnerProduct"
  bottom: "ip2"
  top: "ip3"
  inner_product_param {
    num_output: 11
    weight_filler {
      type: "xavier"
    }
    bias_filler {
      type: "constant"
    }
  }
}
layer {
  name: "drop3"
  type: "Dropout"
  bottom: "ip3"
  top: "ip3"
  dropout_param {
    dropout_ratio: 0.5
  }
}
layer {
  name: "accuracy"
  type: "Accuracy"
  bottom: "ip3"
  bottom: "label"
  top: "accuracy"
  include {
    phase: TEST
  }
}
layer {
  name: "loss"
  type: "SoftmaxWithLoss"
  bottom: "ip3"
  bottom: "label"
  top: "loss"
}
I0521 02:40:13.048733  9476 layer_factory.hpp:77] Creating layer data_hdf5
I0521 02:40:13.048748  9476 net.cpp:106] Creating Layer data_hdf5
I0521 02:40:13.048760  9476 net.cpp:411] data_hdf5 -> data
I0521 02:40:13.048777  9476 net.cpp:411] data_hdf5 -> label
I0521 02:40:13.048794  9476 hdf5_data_layer.cpp:79] Loading list of HDF5 filenames from: /lustre/atlas/proj-shared/hep105/caffe_titan/minosmatch_nukecczdefs_127x50_x_unshifted_me1Bmc.testlist
I0521 02:40:13.050132  9476 hdf5_data_layer.cpp:93] Number of HDF5 files: 3
I0521 02:40:34.364779  9476 net.cpp:150] Setting up data_hdf5
I0521 02:40:34.364948  9476 net.cpp:157] Top shape: 580 1 127 50 (3683000)
I0521 02:40:34.364962  9476 net.cpp:157] Top shape: 580 (580)
I0521 02:40:34.364974  9476 net.cpp:165] Memory required for data: 14734320
I0521 02:40:34.364989  9476 layer_factory.hpp:77] Creating layer label_data_hdf5_1_split
I0521 02:40:34.365016  9476 net.cpp:106] Creating Layer label_data_hdf5_1_split
I0521 02:40:34.365027  9476 net.cpp:454] label_data_hdf5_1_split <- label
I0521 02:40:34.365042  9476 net.cpp:411] label_data_hdf5_1_split -> label_data_hdf5_1_split_0
I0521 02:40:34.365063  9476 net.cpp:411] label_data_hdf5_1_split -> label_data_hdf5_1_split_1
I0521 02:40:34.365136  9476 net.cpp:150] Setting up label_data_hdf5_1_split
I0521 02:40:34.365150  9476 net.cpp:157] Top shape: 580 (580)
I0521 02:40:34.365161  9476 net.cpp:157] Top shape: 580 (580)
I0521 02:40:34.365171  9476 net.cpp:165] Memory required for data: 14738960
I0521 02:40:34.365181  9476 layer_factory.hpp:77] Creating layer conv1
I0521 02:40:34.365203  9476 net.cpp:106] Creating Layer conv1
I0521 02:40:34.365214  9476 net.cpp:454] conv1 <- data
I0521 02:40:34.365226  9476 net.cpp:411] conv1 -> conv1
I0521 02:40:34.367195  9476 net.cpp:150] Setting up conv1
I0521 02:40:34.367220  9476 net.cpp:157] Top shape: 580 12 120 48 (40089600)
I0521 02:40:34.367231  9476 net.cpp:165] Memory required for data: 175097360
I0521 02:40:34.367251  9476 layer_factory.hpp:77] Creating layer relu1
I0521 02:40:34.367266  9476 net.cpp:106] Creating Layer relu1
I0521 02:40:34.367276  9476 net.cpp:454] relu1 <- conv1
I0521 02:40:34.367290  9476 net.cpp:397] relu1 -> conv1 (in-place)
I0521 02:40:34.367796  9476 net.cpp:150] Setting up relu1
I0521 02:40:34.367812  9476 net.cpp:157] Top shape: 580 12 120 48 (40089600)
I0521 02:40:34.367823  9476 net.cpp:165] Memory required for data: 335455760
I0521 02:40:34.367835  9476 layer_factory.hpp:77] Creating layer pool1
I0521 02:40:34.367849  9476 net.cpp:106] Creating Layer pool1
I0521 02:40:34.367859  9476 net.cpp:454] pool1 <- conv1
I0521 02:40:34.367872  9476 net.cpp:411] pool1 -> pool1
I0521 02:40:34.367949  9476 net.cpp:150] Setting up pool1
I0521 02:40:34.367961  9476 net.cpp:157] Top shape: 580 12 60 48 (20044800)
I0521 02:40:34.367971  9476 net.cpp:165] Memory required for data: 415634960
I0521 02:40:34.367981  9476 layer_factory.hpp:77] Creating layer conv2
I0521 02:40:34.368000  9476 net.cpp:106] Creating Layer conv2
I0521 02:40:34.368010  9476 net.cpp:454] conv2 <- pool1
I0521 02:40:34.368023  9476 net.cpp:411] conv2 -> conv2
I0521 02:40:34.369937  9476 net.cpp:150] Setting up conv2
I0521 02:40:34.369961  9476 net.cpp:157] Top shape: 580 20 54 46 (28814400)
I0521 02:40:34.369972  9476 net.cpp:165] Memory required for data: 530892560
I0521 02:40:34.369990  9476 layer_factory.hpp:77] Creating layer relu2
I0521 02:40:34.370003  9476 net.cpp:106] Creating Layer relu2
I0521 02:40:34.370013  9476 net.cpp:454] relu2 <- conv2
I0521 02:40:34.370025  9476 net.cpp:397] relu2 -> conv2 (in-place)
I0521 02:40:34.370358  9476 net.cpp:150] Setting up relu2
I0521 02:40:34.370373  9476 net.cpp:157] Top shape: 580 20 54 46 (28814400)
I0521 02:40:34.370383  9476 net.cpp:165] Memory required for data: 646150160
I0521 02:40:34.370393  9476 layer_factory.hpp:77] Creating layer pool2
I0521 02:40:34.370406  9476 net.cpp:106] Creating Layer pool2
I0521 02:40:34.370415  9476 net.cpp:454] pool2 <- conv2
I0521 02:40:34.370427  9476 net.cpp:411] pool2 -> pool2
I0521 02:40:34.370498  9476 net.cpp:150] Setting up pool2
I0521 02:40:34.370512  9476 net.cpp:157] Top shape: 580 20 27 46 (14407200)
I0521 02:40:34.370520  9476 net.cpp:165] Memory required for data: 703778960
I0521 02:40:34.370530  9476 layer_factory.hpp:77] Creating layer conv3
I0521 02:40:34.370548  9476 net.cpp:106] Creating Layer conv3
I0521 02:40:34.370559  9476 net.cpp:454] conv3 <- pool2
I0521 02:40:34.370573  9476 net.cpp:411] conv3 -> conv3
I0521 02:40:34.372545  9476 net.cpp:150] Setting up conv3
I0521 02:40:34.372567  9476 net.cpp:157] Top shape: 580 28 22 44 (15720320)
I0521 02:40:34.372581  9476 net.cpp:165] Memory required for data: 766660240
I0521 02:40:34.372613  9476 layer_factory.hpp:77] Creating layer relu3
I0521 02:40:34.372627  9476 net.cpp:106] Creating Layer relu3
I0521 02:40:34.372637  9476 net.cpp:454] relu3 <- conv3
I0521 02:40:34.372650  9476 net.cpp:397] relu3 -> conv3 (in-place)
I0521 02:40:34.373124  9476 net.cpp:150] Setting up relu3
I0521 02:40:34.373141  9476 net.cpp:157] Top shape: 580 28 22 44 (15720320)
I0521 02:40:34.373152  9476 net.cpp:165] Memory required for data: 829541520
I0521 02:40:34.373162  9476 layer_factory.hpp:77] Creating layer pool3
I0521 02:40:34.373174  9476 net.cpp:106] Creating Layer pool3
I0521 02:40:34.373184  9476 net.cpp:454] pool3 <- conv3
I0521 02:40:34.373196  9476 net.cpp:411] pool3 -> pool3
I0521 02:40:34.373270  9476 net.cpp:150] Setting up pool3
I0521 02:40:34.373282  9476 net.cpp:157] Top shape: 580 28 11 44 (7860160)
I0521 02:40:34.373292  9476 net.cpp:165] Memory required for data: 860982160
I0521 02:40:34.373302  9476 layer_factory.hpp:77] Creating layer conv4
I0521 02:40:34.373319  9476 net.cpp:106] Creating Layer conv4
I0521 02:40:34.373329  9476 net.cpp:454] conv4 <- pool3
I0521 02:40:34.373343  9476 net.cpp:411] conv4 -> conv4
I0521 02:40:34.375391  9476 net.cpp:150] Setting up conv4
I0521 02:40:34.375412  9476 net.cpp:157] Top shape: 580 36 6 42 (5261760)
I0521 02:40:34.375425  9476 net.cpp:165] Memory required for data: 882029200
I0521 02:40:34.375442  9476 layer_factory.hpp:77] Creating layer relu4
I0521 02:40:34.375455  9476 net.cpp:106] Creating Layer relu4
I0521 02:40:34.375473  9476 net.cpp:454] relu4 <- conv4
I0521 02:40:34.375486  9476 net.cpp:397] relu4 -> conv4 (in-place)
I0521 02:40:34.375960  9476 net.cpp:150] Setting up relu4
I0521 02:40:34.375977  9476 net.cpp:157] Top shape: 580 36 6 42 (5261760)
I0521 02:40:34.375988  9476 net.cpp:165] Memory required for data: 903076240
I0521 02:40:34.375998  9476 layer_factory.hpp:77] Creating layer pool4
I0521 02:40:34.376010  9476 net.cpp:106] Creating Layer pool4
I0521 02:40:34.376020  9476 net.cpp:454] pool4 <- conv4
I0521 02:40:34.376034  9476 net.cpp:411] pool4 -> pool4
I0521 02:40:34.376106  9476 net.cpp:150] Setting up pool4
I0521 02:40:34.376118  9476 net.cpp:157] Top shape: 580 36 3 42 (2630880)
I0521 02:40:34.376128  9476 net.cpp:165] Memory required for data: 913599760
I0521 02:40:34.376138  9476 layer_factory.hpp:77] Creating layer ip1
I0521 02:40:34.376153  9476 net.cpp:106] Creating Layer ip1
I0521 02:40:34.376163  9476 net.cpp:454] ip1 <- pool4
I0521 02:40:34.376178  9476 net.cpp:411] ip1 -> ip1
I0521 02:40:34.391626  9476 net.cpp:150] Setting up ip1
I0521 02:40:34.391655  9476 net.cpp:157] Top shape: 580 196 (113680)
I0521 02:40:34.391669  9476 net.cpp:165] Memory required for data: 914054480
I0521 02:40:34.391691  9476 layer_factory.hpp:77] Creating layer relu5
I0521 02:40:34.391706  9476 net.cpp:106] Creating Layer relu5
I0521 02:40:34.391717  9476 net.cpp:454] relu5 <- ip1
I0521 02:40:34.391731  9476 net.cpp:397] relu5 -> ip1 (in-place)
I0521 02:40:34.392077  9476 net.cpp:150] Setting up relu5
I0521 02:40:34.392091  9476 net.cpp:157] Top shape: 580 196 (113680)
I0521 02:40:34.392102  9476 net.cpp:165] Memory required for data: 914509200
I0521 02:40:34.392112  9476 layer_factory.hpp:77] Creating layer drop1
I0521 02:40:34.392129  9476 net.cpp:106] Creating Layer drop1
I0521 02:40:34.392139  9476 net.cpp:454] drop1 <- ip1
I0521 02:40:34.392153  9476 net.cpp:397] drop1 -> ip1 (in-place)
I0521 02:40:34.392197  9476 net.cpp:150] Setting up drop1
I0521 02:40:34.392210  9476 net.cpp:157] Top shape: 580 196 (113680)
I0521 02:40:34.392218  9476 net.cpp:165] Memory required for data: 914963920
I0521 02:40:34.392230  9476 layer_factory.hpp:77] Creating layer ip2
I0521 02:40:34.392244  9476 net.cpp:106] Creating Layer ip2
I0521 02:40:34.392254  9476 net.cpp:454] ip2 <- ip1
I0521 02:40:34.392267  9476 net.cpp:411] ip2 -> ip2
I0521 02:40:34.392750  9476 net.cpp:150] Setting up ip2
I0521 02:40:34.392762  9476 net.cpp:157] Top shape: 580 98 (56840)
I0521 02:40:34.392772  9476 net.cpp:165] Memory required for data: 915191280
I0521 02:40:34.392802  9476 layer_factory.hpp:77] Creating layer relu6
I0521 02:40:34.392814  9476 net.cpp:106] Creating Layer relu6
I0521 02:40:34.392824  9476 net.cpp:454] relu6 <- ip2
I0521 02:40:34.392837  9476 net.cpp:397] relu6 -> ip2 (in-place)
I0521 02:40:34.393374  9476 net.cpp:150] Setting up relu6
I0521 02:40:34.393390  9476 net.cpp:157] Top shape: 580 98 (56840)
I0521 02:40:34.393400  9476 net.cpp:165] Memory required for data: 915418640
I0521 02:40:34.393410  9476 layer_factory.hpp:77] Creating layer drop2
I0521 02:40:34.393424  9476 net.cpp:106] Creating Layer drop2
I0521 02:40:34.393435  9476 net.cpp:454] drop2 <- ip2
I0521 02:40:34.393446  9476 net.cpp:397] drop2 -> ip2 (in-place)
I0521 02:40:34.393491  9476 net.cpp:150] Setting up drop2
I0521 02:40:34.393503  9476 net.cpp:157] Top shape: 580 98 (56840)
I0521 02:40:34.393513  9476 net.cpp:165] Memory required for data: 915646000
I0521 02:40:34.393523  9476 layer_factory.hpp:77] Creating layer ip3
I0521 02:40:34.393537  9476 net.cpp:106] Creating Layer ip3
I0521 02:40:34.393548  9476 net.cpp:454] ip3 <- ip2
I0521 02:40:34.393561  9476 net.cpp:411] ip3 -> ip3
I0521 02:40:34.393785  9476 net.cpp:150] Setting up ip3
I0521 02:40:34.393798  9476 net.cpp:157] Top shape: 580 11 (6380)
I0521 02:40:34.393808  9476 net.cpp:165] Memory required for data: 915671520
I0521 02:40:34.393823  9476 layer_factory.hpp:77] Creating layer drop3
I0521 02:40:34.393836  9476 net.cpp:106] Creating Layer drop3
I0521 02:40:34.393846  9476 net.cpp:454] drop3 <- ip3
I0521 02:40:34.393859  9476 net.cpp:397] drop3 -> ip3 (in-place)
I0521 02:40:34.393900  9476 net.cpp:150] Setting up drop3
I0521 02:40:34.393913  9476 net.cpp:157] Top shape: 580 11 (6380)
I0521 02:40:34.393923  9476 net.cpp:165] Memory required for data: 915697040
I0521 02:40:34.393932  9476 layer_factory.hpp:77] Creating layer ip3_drop3_0_split
I0521 02:40:34.393945  9476 net.cpp:106] Creating Layer ip3_drop3_0_split
I0521 02:40:34.393955  9476 net.cpp:454] ip3_drop3_0_split <- ip3
I0521 02:40:34.393968  9476 net.cpp:411] ip3_drop3_0_split -> ip3_drop3_0_split_0
I0521 02:40:34.393982  9476 net.cpp:411] ip3_drop3_0_split -> ip3_drop3_0_split_1
I0521 02:40:34.394057  9476 net.cpp:150] Setting up ip3_drop3_0_split
I0521 02:40:34.394069  9476 net.cpp:157] Top shape: 580 11 (6380)
I0521 02:40:34.394081  9476 net.cpp:157] Top shape: 580 11 (6380)
I0521 02:40:34.394091  9476 net.cpp:165] Memory required for data: 915748080
I0521 02:40:34.394101  9476 layer_factory.hpp:77] Creating layer accuracy
I0521 02:40:34.394124  9476 net.cpp:106] Creating Layer accuracy
I0521 02:40:34.394134  9476 net.cpp:454] accuracy <- ip3_drop3_0_split_0
I0521 02:40:34.394145  9476 net.cpp:454] accuracy <- label_data_hdf5_1_split_0
I0521 02:40:34.394158  9476 net.cpp:411] accuracy -> accuracy
…
