…
I0521 10:20:00.703228 18395 net.cpp:322] The NetState phase (0) differed from the phase (1) specified by a rule in layer data_hdf5
I0521 10:20:00.703289 18395 net.cpp:322] The NetState phase (0) differed from the phase (1) specified by a rule in layer accuracy
I0521 10:20:00.703631 18395 net.cpp:49] Initializing net from parameters: 
name: "caffe_test_127x50_x_unshifted"
state {
  phase: TRAIN
}
layer {
  name: "data_hdf5"
  type: "HDF5Data"
  top: "data"
  top: "label"
  include {
    phase: TRAIN
  }
  hdf5_data_param {
    source: "/lustre/atlas/proj-shared/hep105/caffe_titan/minosmatch_nukecczdefs_127x50_x_unshifted_me1Bmc.trainlist"
    batch_size: 940
  }
}
layer {
  name: "conv1"
  type: "Convolution"
  bottom: "data"
  top: "conv1"
  convolution_param {
    num_output: 12
    pad: 0
    stride: 1
    weight_filler {
      type: "xavier"
    }
    bias_filler {
      type: "constant"
    }
    kernel_h: 8
    kernel_w: 3
  }
}
layer {
  name: "relu1"
  type: "ReLU"
  bottom: "conv1"
  top: "conv1"
}
layer {
  name: "pool1"
  type: "Pooling"
  bottom: "conv1"
  top: "pool1"
  pooling_param {
    pool: MAX
    kernel_h: 2
    kernel_w: 1
    stride_h: 2
    stride_w: 1
  }
}
layer {
  name: "conv2"
  type: "Convolution"
  bottom: "pool1"
  top: "conv2"
  convolution_param {
    num_output: 20
    pad: 0
    stride: 1
    weight_filler {
      type: "xavier"
    }
    bias_filler {
      type: "constant"
    }
    kernel_h: 7
    kernel_w: 3
  }
}
layer {
  name: "relu2"
  type: "ReLU"
  bottom: "conv2"
  top: "conv2"
}
layer {
  name: "pool2"
  type: "Pooling"
  bottom: "conv2"
  top: "pool2"
  pooling_param {
    pool: MAX
    kernel_h: 2
    kernel_w: 1
    stride_h: 2
    stride_w: 1
  }
}
layer {
  name: "conv3"
  type: "Convolution"
  bottom: "pool2"
  top: "conv3"
  convolution_param {
    num_output: 28
    pad: 0
    stride: 1
    weight_filler {
      type: "xavier"
    }
    bias_filler {
      type: "constant"
    }
    kernel_h: 6
    kernel_w: 3
  }
}
layer {
  name: "relu3"
  type: "ReLU"
  bottom: "conv3"
  top: "conv3"
}
layer {
  name: "pool3"
  type: "Pooling"
  bottom: "conv3"
  top: "pool3"
  pooling_param {
    pool: MAX
    kernel_h: 2
    kernel_w: 1
    stride_h: 2
    stride_w: 1
  }
}
layer {
  name: "conv4"
  type: "Convolution"
  bottom: "pool3"
  top: "conv4"
  convolution_param {
    num_output: 36
    pad: 0
    stride: 1
    weight_filler {
      type: "xavier"
    }
    bias_filler {
      type: "constant"
    }
    kernel_h: 6
    kernel_w: 3
  }
}
layer {
  name: "relu4"
  type: "ReLU"
  bottom: "conv4"
  top: "conv4"
}
layer {
  name: "pool4"
  type: "Pooling"
  bottom: "conv4"
  top: "pool4"
  pooling_param {
    pool: MAX
    kernel_h: 2
    kernel_w: 1
    stride_h: 2
    stride_w: 1
  }
}
layer {
  name: "ip1"
  type: "InnerProduct"
  bottom: "pool4"
  top: "ip1"
  inner_product_param {
    num_output: 196
    weight_filler {
      type: "xavier"
    }
    bias_filler {
      type: "constant"
    }
  }
}
layer {
  name: "relu5"
  type: "ReLU"
  bottom: "ip1"
  top: "ip1"
}
layer {
  name: "drop1"
  type: "Dropout"
  bottom: "ip1"
  top: "ip1"
  dropout_param {
    dropout_ratio: 0.5
  }
}
layer {
  name: "ip2"
  type: "InnerProduct"
  bottom: "ip1"
  top: "ip2"
  inner_product_param {
    num_output: 98
    weight_filler {
      type: "xavier"
    }
    bias_filler {
      type: "constant"
    }
  }
}
layer {
  name: "relu6"
  type: "ReLU"
  bottom: "ip2"
  top: "ip2"
}
layer {
  name: "drop2"
  type: "Dropout"
  bottom: "ip2"
  top: "ip2"
  dropout_param {
    dropout_ratio: 0.5
  }
}
layer {
  name: "ip3"
  type: "InnerProduct"
  bottom: "ip2"
  top: "ip3"
  inner_product_param {
    num_output: 11
    weight_filler {
      type: "xavier"
    }
    bias_filler {
      type: "constant"
    }
  }
}
layer {
  name: "drop3"
  type: "Dropout"
  bottom: "ip3"
  top: "ip3"
  dropout_param {
    dropout_ratio: 0.5
  }
}
layer {
  name: "loss"
  type: "SoftmaxWithLoss"
  bottom: "ip3"
  bottom: "label"
  top: "loss"
}
I0521 10:20:00.703806 18395 layer_factory.hpp:77] Creating layer data_hdf5
I0521 10:20:00.703830 18395 net.cpp:106] Creating Layer data_hdf5
I0521 10:20:00.703845 18395 net.cpp:411] data_hdf5 -> data
I0521 10:20:00.703877 18395 net.cpp:411] data_hdf5 -> label
I0521 10:20:00.703910 18395 hdf5_data_layer.cpp:79] Loading list of HDF5 filenames from: /lustre/atlas/proj-shared/hep105/caffe_titan/minosmatch_nukecczdefs_127x50_x_unshifted_me1Bmc.trainlist
I0521 10:20:00.705127 18395 hdf5_data_layer.cpp:93] Number of HDF5 files: 15
I0521 10:20:00.707329 18395 hdf5.cpp:32] Datatype class: H5T_FLOAT
I0521 10:20:22.200443 18395 hdf5.cpp:35] Datatype class: H5T_INTEGER
I0521 10:20:22.205535 18395 net.cpp:150] Setting up data_hdf5
I0521 10:20:22.205586 18395 net.cpp:157] Top shape: 940 1 127 50 (5969000)
I0521 10:20:22.205601 18395 net.cpp:157] Top shape: 940 (940)
I0521 10:20:22.205613 18395 net.cpp:165] Memory required for data: 23879760
I0521 10:20:22.205627 18395 layer_factory.hpp:77] Creating layer conv1
I0521 10:20:22.205662 18395 net.cpp:106] Creating Layer conv1
I0521 10:20:22.205672 18395 net.cpp:454] conv1 <- data
I0521 10:20:22.205695 18395 net.cpp:411] conv1 -> conv1
I0521 10:20:22.564853 18395 net.cpp:150] Setting up conv1
I0521 10:20:22.564899 18395 net.cpp:157] Top shape: 940 12 120 48 (64972800)
I0521 10:20:22.564910 18395 net.cpp:165] Memory required for data: 283770960
I0521 10:20:22.564940 18395 layer_factory.hpp:77] Creating layer relu1
I0521 10:20:22.564962 18395 net.cpp:106] Creating Layer relu1
I0521 10:20:22.564973 18395 net.cpp:454] relu1 <- conv1
I0521 10:20:22.564986 18395 net.cpp:397] relu1 -> conv1 (in-place)
I0521 10:20:22.565500 18395 net.cpp:150] Setting up relu1
I0521 10:20:22.565517 18395 net.cpp:157] Top shape: 940 12 120 48 (64972800)
I0521 10:20:22.565527 18395 net.cpp:165] Memory required for data: 543662160
I0521 10:20:22.565536 18395 layer_factory.hpp:77] Creating layer pool1
I0521 10:20:22.565562 18395 net.cpp:106] Creating Layer pool1
I0521 10:20:22.565572 18395 net.cpp:454] pool1 <- conv1
I0521 10:20:22.565585 18395 net.cpp:411] pool1 -> pool1
I0521 10:20:22.565667 18395 net.cpp:150] Setting up pool1
I0521 10:20:22.565681 18395 net.cpp:157] Top shape: 940 12 60 48 (32486400)
I0521 10:20:22.565692 18395 net.cpp:165] Memory required for data: 673607760
I0521 10:20:22.565702 18395 layer_factory.hpp:77] Creating layer conv2
I0521 10:20:22.565724 18395 net.cpp:106] Creating Layer conv2
I0521 10:20:22.565735 18395 net.cpp:454] conv2 <- pool1
I0521 10:20:22.565748 18395 net.cpp:411] conv2 -> conv2
I0521 10:20:22.568392 18395 net.cpp:150] Setting up conv2
I0521 10:20:22.568419 18395 net.cpp:157] Top shape: 940 20 54 46 (46699200)
I0521 10:20:22.568430 18395 net.cpp:165] Memory required for data: 860404560
I0521 10:20:22.568449 18395 layer_factory.hpp:77] Creating layer relu2
I0521 10:20:22.568464 18395 net.cpp:106] Creating Layer relu2
I0521 10:20:22.568475 18395 net.cpp:454] relu2 <- conv2
I0521 10:20:22.568486 18395 net.cpp:397] relu2 -> conv2 (in-place)
I0521 10:20:22.568816 18395 net.cpp:150] Setting up relu2
I0521 10:20:22.568830 18395 net.cpp:157] Top shape: 940 20 54 46 (46699200)
I0521 10:20:22.568840 18395 net.cpp:165] Memory required for data: 1047201360
I0521 10:20:22.568850 18395 layer_factory.hpp:77] Creating layer pool2
I0521 10:20:22.568863 18395 net.cpp:106] Creating Layer pool2
I0521 10:20:22.568873 18395 net.cpp:454] pool2 <- conv2
I0521 10:20:22.568897 18395 net.cpp:411] pool2 -> pool2
I0521 10:20:22.568966 18395 net.cpp:150] Setting up pool2
I0521 10:20:22.568979 18395 net.cpp:157] Top shape: 940 20 27 46 (23349600)
I0521 10:20:22.568989 18395 net.cpp:165] Memory required for data: 1140599760
I0521 10:20:22.569000 18395 layer_factory.hpp:77] Creating layer conv3
I0521 10:20:22.569017 18395 net.cpp:106] Creating Layer conv3
I0521 10:20:22.569028 18395 net.cpp:454] conv3 <- pool2
I0521 10:20:22.569041 18395 net.cpp:411] conv3 -> conv3
I0521 10:20:22.570960 18395 net.cpp:150] Setting up conv3
I0521 10:20:22.570983 18395 net.cpp:157] Top shape: 940 28 22 44 (25477760)
I0521 10:20:22.570996 18395 net.cpp:165] Memory required for data: 1242510800
I0521 10:20:22.571014 18395 layer_factory.hpp:77] Creating layer relu3
I0521 10:20:22.571032 18395 net.cpp:106] Creating Layer relu3
I0521 10:20:22.571040 18395 net.cpp:454] relu3 <- conv3
I0521 10:20:22.571053 18395 net.cpp:397] relu3 -> conv3 (in-place)
I0521 10:20:22.571522 18395 net.cpp:150] Setting up relu3
I0521 10:20:22.571539 18395 net.cpp:157] Top shape: 940 28 22 44 (25477760)
I0521 10:20:22.571549 18395 net.cpp:165] Memory required for data: 1344421840
I0521 10:20:22.571559 18395 layer_factory.hpp:77] Creating layer pool3
I0521 10:20:22.571573 18395 net.cpp:106] Creating Layer pool3
I0521 10:20:22.571583 18395 net.cpp:454] pool3 <- conv3
I0521 10:20:22.571595 18395 net.cpp:411] pool3 -> pool3
I0521 10:20:22.571662 18395 net.cpp:150] Setting up pool3
I0521 10:20:22.571676 18395 net.cpp:157] Top shape: 940 28 11 44 (12738880)
I0521 10:20:22.571686 18395 net.cpp:165] Memory required for data: 1395377360
I0521 10:20:22.571694 18395 layer_factory.hpp:77] Creating layer conv4
I0521 10:20:22.571712 18395 net.cpp:106] Creating Layer conv4
I0521 10:20:22.571722 18395 net.cpp:454] conv4 <- pool3
I0521 10:20:22.571735 18395 net.cpp:411] conv4 -> conv4
I0521 10:20:22.574437 18395 net.cpp:150] Setting up conv4
I0521 10:20:22.574465 18395 net.cpp:157] Top shape: 940 36 6 42 (8527680)
I0521 10:20:22.574476 18395 net.cpp:165] Memory required for data: 1429488080
I0521 10:20:22.574491 18395 layer_factory.hpp:77] Creating layer relu4
I0521 10:20:22.574506 18395 net.cpp:106] Creating Layer relu4
I0521 10:20:22.574517 18395 net.cpp:454] relu4 <- conv4
I0521 10:20:22.574528 18395 net.cpp:397] relu4 -> conv4 (in-place)
I0521 10:20:22.574991 18395 net.cpp:150] Setting up relu4
I0521 10:20:22.575007 18395 net.cpp:157] Top shape: 940 36 6 42 (8527680)
I0521 10:20:22.575018 18395 net.cpp:165] Memory required for data: 1463598800
I0521 10:20:22.575028 18395 layer_factory.hpp:77] Creating layer pool4
I0521 10:20:22.575042 18395 net.cpp:106] Creating Layer pool4
I0521 10:20:22.575052 18395 net.cpp:454] pool4 <- conv4
I0521 10:20:22.575064 18395 net.cpp:411] pool4 -> pool4
I0521 10:20:22.575132 18395 net.cpp:150] Setting up pool4
I0521 10:20:22.575146 18395 net.cpp:157] Top shape: 940 36 3 42 (4263840)
I0521 10:20:22.575157 18395 net.cpp:165] Memory required for data: 1480654160
I0521 10:20:22.575166 18395 layer_factory.hpp:77] Creating layer ip1
I0521 10:20:22.575187 18395 net.cpp:106] Creating Layer ip1
I0521 10:20:22.575197 18395 net.cpp:454] ip1 <- pool4
I0521 10:20:22.575211 18395 net.cpp:411] ip1 -> ip1
I0521 10:20:22.590622 18395 net.cpp:150] Setting up ip1
I0521 10:20:22.590651 18395 net.cpp:157] Top shape: 940 196 (184240)
I0521 10:20:22.590668 18395 net.cpp:165] Memory required for data: 1481391120
I0521 10:20:22.590694 18395 layer_factory.hpp:77] Creating layer relu5
I0521 10:20:22.590709 18395 net.cpp:106] Creating Layer relu5
I0521 10:20:22.590719 18395 net.cpp:454] relu5 <- ip1
I0521 10:20:22.590734 18395 net.cpp:397] relu5 -> ip1 (in-place)
I0521 10:20:22.591078 18395 net.cpp:150] Setting up relu5
I0521 10:20:22.591092 18395 net.cpp:157] Top shape: 940 196 (184240)
I0521 10:20:22.591104 18395 net.cpp:165] Memory required for data: 1482128080
I0521 10:20:22.591114 18395 layer_factory.hpp:77] Creating layer drop1
I0521 10:20:22.591135 18395 net.cpp:106] Creating Layer drop1
I0521 10:20:22.591145 18395 net.cpp:454] drop1 <- ip1
I0521 10:20:22.591171 18395 net.cpp:397] drop1 -> ip1 (in-place)
I0521 10:20:22.591217 18395 net.cpp:150] Setting up drop1
I0521 10:20:22.591231 18395 net.cpp:157] Top shape: 940 196 (184240)
I0521 10:20:22.591241 18395 net.cpp:165] Memory required for data: 1482865040
I0521 10:20:22.591251 18395 layer_factory.hpp:77] Creating layer ip2
I0521 10:20:22.591270 18395 net.cpp:106] Creating Layer ip2
I0521 10:20:22.591280 18395 net.cpp:454] ip2 <- ip1
I0521 10:20:22.591292 18395 net.cpp:411] ip2 -> ip2
I0521 10:20:22.591758 18395 net.cpp:150] Setting up ip2
I0521 10:20:22.591771 18395 net.cpp:157] Top shape: 940 98 (92120)
I0521 10:20:22.591781 18395 net.cpp:165] Memory required for data: 1483233520
I0521 10:20:22.591796 18395 layer_factory.hpp:77] Creating layer relu6
I0521 10:20:22.591809 18395 net.cpp:106] Creating Layer relu6
I0521 10:20:22.591819 18395 net.cpp:454] relu6 <- ip2
I0521 10:20:22.591830 18395 net.cpp:397] relu6 -> ip2 (in-place)
I0521 10:20:22.592350 18395 net.cpp:150] Setting up relu6
I0521 10:20:22.592366 18395 net.cpp:157] Top shape: 940 98 (92120)
I0521 10:20:22.592377 18395 net.cpp:165] Memory required for data: 1483602000
I0521 10:20:22.592389 18395 layer_factory.hpp:77] Creating layer drop2
I0521 10:20:22.592402 18395 net.cpp:106] Creating Layer drop2
I0521 10:20:22.592412 18395 net.cpp:454] drop2 <- ip2
I0521 10:20:22.592424 18395 net.cpp:397] drop2 -> ip2 (in-place)
I0521 10:20:22.592466 18395 net.cpp:150] Setting up drop2
I0521 10:20:22.592480 18395 net.cpp:157] Top shape: 940 98 (92120)
I0521 10:20:22.592490 18395 net.cpp:165] Memory required for data: 1483970480
I0521 10:20:22.592499 18395 layer_factory.hpp:77] Creating layer ip3
I0521 10:20:22.592512 18395 net.cpp:106] Creating Layer ip3
I0521 10:20:22.592525 18395 net.cpp:454] ip3 <- ip2
I0521 10:20:22.592536 18395 net.cpp:411] ip3 -> ip3
I0521 10:20:22.592747 18395 net.cpp:150] Setting up ip3
I0521 10:20:22.592761 18395 net.cpp:157] Top shape: 940 11 (10340)
I0521 10:20:22.592772 18395 net.cpp:165] Memory required for data: 1484011840
I0521 10:20:22.592787 18395 layer_factory.hpp:77] Creating layer drop3
I0521 10:20:22.592798 18395 net.cpp:106] Creating Layer drop3
I0521 10:20:22.592808 18395 net.cpp:454] drop3 <- ip3
I0521 10:20:22.592820 18395 net.cpp:397] drop3 -> ip3 (in-place)
I0521 10:20:22.592859 18395 net.cpp:150] Setting up drop3
I0521 10:20:22.592872 18395 net.cpp:157] Top shape: 940 11 (10340)
I0521 10:20:22.592882 18395 net.cpp:165] Memory required for data: 1484053200
I0521 10:20:22.592891 18395 layer_factory.hpp:77] Creating layer loss
I0521 10:20:22.592911 18395 net.cpp:106] Creating Layer loss
I0521 10:20:22.592921 18395 net.cpp:454] loss <- ip3
I0521 10:20:22.592931 18395 net.cpp:454] loss <- label
I0521 10:20:22.592941 18395 net.cpp:411] loss -> loss
I0521 10:20:22.592958 18395 layer_factory.hpp:77] Creating layer loss
…
I0521 10:20:22.595552 18395 solver.cpp:181] Creating test net (#0) specified by net file: /lustre/atlas/proj-shared/hep105/caffe_titan/caffe_workflow/logs_batch_size_test/batch_size_940_2016-05-20T11.21.06.988352.prototxt
I0521 10:20:22.595623 18395 net.cpp:322] The NetState phase (1) differed from the phase (0) specified by a rule in layer data_hdf5
I0521 10:20:22.595976 18395 net.cpp:49] Initializing net from parameters: 
name: "caffe_test_127x50_x_unshifted"
state {
  phase: TEST
}
layer {
  name: "data_hdf5"
  type: "HDF5Data"
  top: "data"
  top: "label"
  include {
    phase: TEST
  }
  hdf5_data_param {
    source: "/lustre/atlas/proj-shared/hep105/caffe_titan/minosmatch_nukecczdefs_127x50_x_unshifted_me1Bmc.testlist"
    batch_size: 940
  }
}
layer {
  name: "conv1"
  type: "Convolution"
  bottom: "data"
  top: "conv1"
  convolution_param {
    num_output: 12
    pad: 0
    stride: 1
    weight_filler {
      type: "xavier"
    }
    bias_filler {
      type: "constant"
    }
    kernel_h: 8
    kernel_w: 3
  }
}
layer {
  name: "relu1"
  type: "ReLU"
  bottom: "conv1"
  top: "conv1"
}
layer {
  name: "pool1"
  type: "Pooling"
  bottom: "conv1"
  top: "pool1"
  pooling_param {
    pool: MAX
    kernel_h: 2
    kernel_w: 1
    stride_h: 2
    stride_w: 1
  }
}
layer {
  name: "conv2"
  type: "Convolution"
  bottom: "pool1"
  top: "conv2"
  convolution_param {
    num_output: 20
    pad: 0
    stride: 1
    weight_filler {
      type: "xavier"
    }
    bias_filler {
      type: "constant"
    }
    kernel_h: 7
    kernel_w: 3
  }
}
layer {
  name: "relu2"
  type: "ReLU"
  bottom: "conv2"
  top: "conv2"
}
layer {
  name: "pool2"
  type: "Pooling"
  bottom: "conv2"
  top: "pool2"
  pooling_param {
    pool: MAX
    kernel_h: 2
    kernel_w: 1
    stride_h: 2
    stride_w: 1
  }
}
layer {
  name: "conv3"
  type: "Convolution"
  bottom: "pool2"
  top: "conv3"
  convolution_param {
    num_output: 28
    pad: 0
    stride: 1
    weight_filler {
      type: "xavier"
    }
    bias_filler {
      type: "constant"
    }
    kernel_h: 6
    kernel_w: 3
  }
}
layer {
  name: "relu3"
  type: "ReLU"
  bottom: "conv3"
  top: "conv3"
}
layer {
  name: "pool3"
  type: "Pooling"
  bottom: "conv3"
  top: "pool3"
  pooling_param {
    pool: MAX
    kernel_h: 2
    kernel_w: 1
    stride_h: 2
    stride_w: 1
  }
}
layer {
  name: "conv4"
  type: "Convolution"
  bottom: "pool3"
  top: "conv4"
  convolution_param {
    num_output: 36
    pad: 0
    stride: 1
    weight_filler {
      type: "xavier"
    }
    bias_filler {
      type: "constant"
    }
    kernel_h: 6
    kernel_w: 3
  }
}
layer {
  name: "relu4"
  type: "ReLU"
  bottom: "conv4"
  top: "conv4"
}
layer {
  name: "pool4"
  type: "Pooling"
  bottom: "conv4"
  top: "pool4"
  pooling_param {
    pool: MAX
    kernel_h: 2
    kernel_w: 1
    stride_h: 2
    stride_w: 1
  }
}
layer {
  name: "ip1"
  type: "InnerProduct"
  bottom: "pool4"
  top: "ip1"
  inner_product_param {
    num_output: 196
    weight_filler {
      type: "xavier"
    }
    bias_filler {
      type: "constant"
    }
  }
}
layer {
  name: "relu5"
  type: "ReLU"
  bottom: "ip1"
  top: "ip1"
}
layer {
  name: "drop1"
  type: "Dropout"
  bottom: "ip1"
  top: "ip1"
  dropout_param {
    dropout_ratio: 0.5
  }
}
layer {
  name: "ip2"
  type: "InnerProduct"
  bottom: "ip1"
  top: "ip2"
  inner_product_param {
    num_output: 98
    weight_filler {
      type: "xavier"
    }
    bias_filler {
      type: "constant"
    }
  }
}
layer {
  name: "relu6"
  type: "ReLU"
  bottom: "ip2"
  top: "ip2"
}
layer {
  name: "drop2"
  type: "Dropout"
  bottom: "ip2"
  top: "ip2"
  dropout_param {
    dropout_ratio: 0.5
  }
}
layer {
  name: "ip3"
  type: "InnerProduct"
  bottom: "ip2"
  top: "ip3"
  inner_product_param {
    num_output: 11
    weight_filler {
      type: "xavier"
    }
    bias_filler {
      type: "constant"
    }
  }
}
layer {
  name: "drop3"
  type: "Dropout"
  bottom: "ip3"
  top: "ip3"
  dropout_param {
    dropout_ratio: 0.5
  }
}
layer {
  name: "accuracy"
  type: "Accuracy"
  bottom: "ip3"
  bottom: "label"
  top: "accuracy"
  include {
    phase: TEST
  }
}
layer {
  name: "loss"
  type: "SoftmaxWithLoss"
  bottom: "ip3"
  bottom: "label"
  top: "loss"
}
I0521 10:20:22.596165 18395 layer_factory.hpp:77] Creating layer data_hdf5
I0521 10:20:22.596180 18395 net.cpp:106] Creating Layer data_hdf5
I0521 10:20:22.596191 18395 net.cpp:411] data_hdf5 -> data
I0521 10:20:22.596209 18395 net.cpp:411] data_hdf5 -> label
I0521 10:20:22.596225 18395 hdf5_data_layer.cpp:79] Loading list of HDF5 filenames from: /lustre/atlas/proj-shared/hep105/caffe_titan/minosmatch_nukecczdefs_127x50_x_unshifted_me1Bmc.testlist
I0521 10:20:22.597399 18395 hdf5_data_layer.cpp:93] Number of HDF5 files: 3
I0521 10:20:43.854851 18395 net.cpp:150] Setting up data_hdf5
I0521 10:20:43.855013 18395 net.cpp:157] Top shape: 940 1 127 50 (5969000)
I0521 10:20:43.855027 18395 net.cpp:157] Top shape: 940 (940)
I0521 10:20:43.855037 18395 net.cpp:165] Memory required for data: 23879760
I0521 10:20:43.855051 18395 layer_factory.hpp:77] Creating layer label_data_hdf5_1_split
I0521 10:20:43.855079 18395 net.cpp:106] Creating Layer label_data_hdf5_1_split
I0521 10:20:43.855090 18395 net.cpp:454] label_data_hdf5_1_split <- label
I0521 10:20:43.855105 18395 net.cpp:411] label_data_hdf5_1_split -> label_data_hdf5_1_split_0
I0521 10:20:43.855126 18395 net.cpp:411] label_data_hdf5_1_split -> label_data_hdf5_1_split_1
I0521 10:20:43.855200 18395 net.cpp:150] Setting up label_data_hdf5_1_split
I0521 10:20:43.855212 18395 net.cpp:157] Top shape: 940 (940)
I0521 10:20:43.855224 18395 net.cpp:157] Top shape: 940 (940)
I0521 10:20:43.855234 18395 net.cpp:165] Memory required for data: 23887280
I0521 10:20:43.855243 18395 layer_factory.hpp:77] Creating layer conv1
I0521 10:20:43.855265 18395 net.cpp:106] Creating Layer conv1
I0521 10:20:43.855276 18395 net.cpp:454] conv1 <- data
I0521 10:20:43.855291 18395 net.cpp:411] conv1 -> conv1
I0521 10:20:43.857213 18395 net.cpp:150] Setting up conv1
I0521 10:20:43.857236 18395 net.cpp:157] Top shape: 940 12 120 48 (64972800)
I0521 10:20:43.857249 18395 net.cpp:165] Memory required for data: 283778480
I0521 10:20:43.857269 18395 layer_factory.hpp:77] Creating layer relu1
I0521 10:20:43.857283 18395 net.cpp:106] Creating Layer relu1
I0521 10:20:43.857293 18395 net.cpp:454] relu1 <- conv1
I0521 10:20:43.857306 18395 net.cpp:397] relu1 -> conv1 (in-place)
I0521 10:20:43.857811 18395 net.cpp:150] Setting up relu1
I0521 10:20:43.857827 18395 net.cpp:157] Top shape: 940 12 120 48 (64972800)
I0521 10:20:43.857838 18395 net.cpp:165] Memory required for data: 543669680
I0521 10:20:43.857849 18395 layer_factory.hpp:77] Creating layer pool1
I0521 10:20:43.857866 18395 net.cpp:106] Creating Layer pool1
I0521 10:20:43.857875 18395 net.cpp:454] pool1 <- conv1
I0521 10:20:43.857888 18395 net.cpp:411] pool1 -> pool1
I0521 10:20:43.857964 18395 net.cpp:150] Setting up pool1
I0521 10:20:43.857977 18395 net.cpp:157] Top shape: 940 12 60 48 (32486400)
I0521 10:20:43.857987 18395 net.cpp:165] Memory required for data: 673615280
I0521 10:20:43.857997 18395 layer_factory.hpp:77] Creating layer conv2
I0521 10:20:43.858016 18395 net.cpp:106] Creating Layer conv2
I0521 10:20:43.858026 18395 net.cpp:454] conv2 <- pool1
I0521 10:20:43.858041 18395 net.cpp:411] conv2 -> conv2
I0521 10:20:43.859956 18395 net.cpp:150] Setting up conv2
I0521 10:20:43.859978 18395 net.cpp:157] Top shape: 940 20 54 46 (46699200)
I0521 10:20:43.859990 18395 net.cpp:165] Memory required for data: 860412080
I0521 10:20:43.860008 18395 layer_factory.hpp:77] Creating layer relu2
I0521 10:20:43.860023 18395 net.cpp:106] Creating Layer relu2
I0521 10:20:43.860031 18395 net.cpp:454] relu2 <- conv2
I0521 10:20:43.860044 18395 net.cpp:397] relu2 -> conv2 (in-place)
I0521 10:20:43.860379 18395 net.cpp:150] Setting up relu2
I0521 10:20:43.860394 18395 net.cpp:157] Top shape: 940 20 54 46 (46699200)
I0521 10:20:43.860404 18395 net.cpp:165] Memory required for data: 1047208880
I0521 10:20:43.860414 18395 layer_factory.hpp:77] Creating layer pool2
I0521 10:20:43.860427 18395 net.cpp:106] Creating Layer pool2
I0521 10:20:43.860437 18395 net.cpp:454] pool2 <- conv2
I0521 10:20:43.860450 18395 net.cpp:411] pool2 -> pool2
I0521 10:20:43.860522 18395 net.cpp:150] Setting up pool2
I0521 10:20:43.860535 18395 net.cpp:157] Top shape: 940 20 27 46 (23349600)
I0521 10:20:43.860544 18395 net.cpp:165] Memory required for data: 1140607280
I0521 10:20:43.860554 18395 layer_factory.hpp:77] Creating layer conv3
I0521 10:20:43.860574 18395 net.cpp:106] Creating Layer conv3
I0521 10:20:43.860585 18395 net.cpp:454] conv3 <- pool2
I0521 10:20:43.860599 18395 net.cpp:411] conv3 -> conv3
I0521 10:20:43.862579 18395 net.cpp:150] Setting up conv3
I0521 10:20:43.862603 18395 net.cpp:157] Top shape: 940 28 22 44 (25477760)
I0521 10:20:43.862614 18395 net.cpp:165] Memory required for data: 1242518320
I0521 10:20:43.862646 18395 layer_factory.hpp:77] Creating layer relu3
I0521 10:20:43.862660 18395 net.cpp:106] Creating Layer relu3
I0521 10:20:43.862670 18395 net.cpp:454] relu3 <- conv3
I0521 10:20:43.862684 18395 net.cpp:397] relu3 -> conv3 (in-place)
I0521 10:20:43.863157 18395 net.cpp:150] Setting up relu3
I0521 10:20:43.863173 18395 net.cpp:157] Top shape: 940 28 22 44 (25477760)
I0521 10:20:43.863181 18395 net.cpp:165] Memory required for data: 1344429360
I0521 10:20:43.863191 18395 layer_factory.hpp:77] Creating layer pool3
I0521 10:20:43.863204 18395 net.cpp:106] Creating Layer pool3
I0521 10:20:43.863214 18395 net.cpp:454] pool3 <- conv3
I0521 10:20:43.863227 18395 net.cpp:411] pool3 -> pool3
I0521 10:20:43.863301 18395 net.cpp:150] Setting up pool3
I0521 10:20:43.863313 18395 net.cpp:157] Top shape: 940 28 11 44 (12738880)
I0521 10:20:43.863323 18395 net.cpp:165] Memory required for data: 1395384880
I0521 10:20:43.863333 18395 layer_factory.hpp:77] Creating layer conv4
I0521 10:20:43.863348 18395 net.cpp:106] Creating Layer conv4
I0521 10:20:43.863359 18395 net.cpp:454] conv4 <- pool3
I0521 10:20:43.863373 18395 net.cpp:411] conv4 -> conv4
I0521 10:20:43.865429 18395 net.cpp:150] Setting up conv4
I0521 10:20:43.865452 18395 net.cpp:157] Top shape: 940 36 6 42 (8527680)
I0521 10:20:43.865463 18395 net.cpp:165] Memory required for data: 1429495600
I0521 10:20:43.865478 18395 layer_factory.hpp:77] Creating layer relu4
I0521 10:20:43.865492 18395 net.cpp:106] Creating Layer relu4
I0521 10:20:43.865502 18395 net.cpp:454] relu4 <- conv4
I0521 10:20:43.865515 18395 net.cpp:397] relu4 -> conv4 (in-place)
I0521 10:20:43.865998 18395 net.cpp:150] Setting up relu4
I0521 10:20:43.866015 18395 net.cpp:157] Top shape: 940 36 6 42 (8527680)
I0521 10:20:43.866025 18395 net.cpp:165] Memory required for data: 1463606320
I0521 10:20:43.866035 18395 layer_factory.hpp:77] Creating layer pool4
I0521 10:20:43.866049 18395 net.cpp:106] Creating Layer pool4
I0521 10:20:43.866057 18395 net.cpp:454] pool4 <- conv4
I0521 10:20:43.866072 18395 net.cpp:411] pool4 -> pool4
I0521 10:20:43.866143 18395 net.cpp:150] Setting up pool4
I0521 10:20:43.866156 18395 net.cpp:157] Top shape: 940 36 3 42 (4263840)
I0521 10:20:43.866166 18395 net.cpp:165] Memory required for data: 1480661680
I0521 10:20:43.866174 18395 layer_factory.hpp:77] Creating layer ip1
I0521 10:20:43.866190 18395 net.cpp:106] Creating Layer ip1
I0521 10:20:43.866200 18395 net.cpp:454] ip1 <- pool4
I0521 10:20:43.866215 18395 net.cpp:411] ip1 -> ip1
I0521 10:20:43.881587 18395 net.cpp:150] Setting up ip1
I0521 10:20:43.881616 18395 net.cpp:157] Top shape: 940 196 (184240)
I0521 10:20:43.881628 18395 net.cpp:165] Memory required for data: 1481398640
I0521 10:20:43.881649 18395 layer_factory.hpp:77] Creating layer relu5
I0521 10:20:43.881664 18395 net.cpp:106] Creating Layer relu5
I0521 10:20:43.881675 18395 net.cpp:454] relu5 <- ip1
I0521 10:20:43.881690 18395 net.cpp:397] relu5 -> ip1 (in-place)
I0521 10:20:43.882033 18395 net.cpp:150] Setting up relu5
I0521 10:20:43.882047 18395 net.cpp:157] Top shape: 940 196 (184240)
I0521 10:20:43.882056 18395 net.cpp:165] Memory required for data: 1482135600
I0521 10:20:43.882066 18395 layer_factory.hpp:77] Creating layer drop1
I0521 10:20:43.882086 18395 net.cpp:106] Creating Layer drop1
I0521 10:20:43.882097 18395 net.cpp:454] drop1 <- ip1
I0521 10:20:43.882109 18395 net.cpp:397] drop1 -> ip1 (in-place)
I0521 10:20:43.882153 18395 net.cpp:150] Setting up drop1
I0521 10:20:43.882165 18395 net.cpp:157] Top shape: 940 196 (184240)
I0521 10:20:43.882174 18395 net.cpp:165] Memory required for data: 1482872560
I0521 10:20:43.882185 18395 layer_factory.hpp:77] Creating layer ip2
I0521 10:20:43.882200 18395 net.cpp:106] Creating Layer ip2
I0521 10:20:43.882208 18395 net.cpp:454] ip2 <- ip1
I0521 10:20:43.882222 18395 net.cpp:411] ip2 -> ip2
I0521 10:20:43.882699 18395 net.cpp:150] Setting up ip2
I0521 10:20:43.882712 18395 net.cpp:157] Top shape: 940 98 (92120)
I0521 10:20:43.882722 18395 net.cpp:165] Memory required for data: 1483241040
I0521 10:20:43.882750 18395 layer_factory.hpp:77] Creating layer relu6
I0521 10:20:43.882763 18395 net.cpp:106] Creating Layer relu6
I0521 10:20:43.882772 18395 net.cpp:454] relu6 <- ip2
I0521 10:20:43.882786 18395 net.cpp:397] relu6 -> ip2 (in-place)
I0521 10:20:43.883317 18395 net.cpp:150] Setting up relu6
I0521 10:20:43.883340 18395 net.cpp:157] Top shape: 940 98 (92120)
I0521 10:20:43.883350 18395 net.cpp:165] Memory required for data: 1483609520
I0521 10:20:43.883360 18395 layer_factory.hpp:77] Creating layer drop2
I0521 10:20:43.883374 18395 net.cpp:106] Creating Layer drop2
I0521 10:20:43.883384 18395 net.cpp:454] drop2 <- ip2
I0521 10:20:43.883396 18395 net.cpp:397] drop2 -> ip2 (in-place)
I0521 10:20:43.883440 18395 net.cpp:150] Setting up drop2
I0521 10:20:43.883453 18395 net.cpp:157] Top shape: 940 98 (92120)
I0521 10:20:43.883463 18395 net.cpp:165] Memory required for data: 1483978000
I0521 10:20:43.883472 18395 layer_factory.hpp:77] Creating layer ip3
I0521 10:20:43.883486 18395 net.cpp:106] Creating Layer ip3
I0521 10:20:43.883496 18395 net.cpp:454] ip3 <- ip2
I0521 10:20:43.883510 18395 net.cpp:411] ip3 -> ip3
I0521 10:20:43.883734 18395 net.cpp:150] Setting up ip3
I0521 10:20:43.883749 18395 net.cpp:157] Top shape: 940 11 (10340)
I0521 10:20:43.883759 18395 net.cpp:165] Memory required for data: 1484019360
I0521 10:20:43.883774 18395 layer_factory.hpp:77] Creating layer drop3
I0521 10:20:43.883787 18395 net.cpp:106] Creating Layer drop3
I0521 10:20:43.883796 18395 net.cpp:454] drop3 <- ip3
I0521 10:20:43.883810 18395 net.cpp:397] drop3 -> ip3 (in-place)
I0521 10:20:43.883852 18395 net.cpp:150] Setting up drop3
I0521 10:20:43.883863 18395 net.cpp:157] Top shape: 940 11 (10340)
I0521 10:20:43.883873 18395 net.cpp:165] Memory required for data: 1484060720
I0521 10:20:43.883882 18395 layer_factory.hpp:77] Creating layer ip3_drop3_0_split
I0521 10:20:43.883895 18395 net.cpp:106] Creating Layer ip3_drop3_0_split
I0521 10:20:43.883905 18395 net.cpp:454] ip3_drop3_0_split <- ip3
I0521 10:20:43.883919 18395 net.cpp:411] ip3_drop3_0_split -> ip3_drop3_0_split_0
I0521 10:20:43.883934 18395 net.cpp:411] ip3_drop3_0_split -> ip3_drop3_0_split_1
I0521 10:20:43.884006 18395 net.cpp:150] Setting up ip3_drop3_0_split
I0521 10:20:43.884019 18395 net.cpp:157] Top shape: 940 11 (10340)
I0521 10:20:43.884032 18395 net.cpp:157] Top shape: 940 11 (10340)
I0521 10:20:43.884042 18395 net.cpp:165] Memory required for data: 1484143440
I0521 10:20:43.884050 18395 layer_factory.hpp:77] Creating layer accuracy
I0521 10:20:43.884073 18395 net.cpp:106] Creating Layer accuracy
I0521 10:20:43.884083 18395 net.cpp:454] accuracy <- ip3_drop3_0_split_0
I0521 10:20:43.884093 18395 net.cpp:454] accuracy <- label_data_hdf5_1_split_0
I0521 10:20:43.884107 18395 net.cpp:411] accuracy -> accuracy
…
