…
I0520 19:30:26.552126 20884 net.cpp:322] The NetState phase (0) differed from the phase (1) specified by a rule in layer data_hdf5
I0520 19:30:26.552186 20884 net.cpp:322] The NetState phase (0) differed from the phase (1) specified by a rule in layer accuracy
I0520 19:30:26.552532 20884 net.cpp:49] Initializing net from parameters: 
name: "caffe_test_127x50_x_unshifted"
state {
  phase: TRAIN
}
layer {
  name: "data_hdf5"
  type: "HDF5Data"
  top: "data"
  top: "label"
  include {
    phase: TRAIN
  }
  hdf5_data_param {
    source: "/lustre/atlas/proj-shared/hep105/caffe_titan/minosmatch_nukecczdefs_127x50_x_unshifted_me1Bmc.trainlist"
    batch_size: 240
  }
}
layer {
  name: "conv1"
  type: "Convolution"
  bottom: "data"
  top: "conv1"
  convolution_param {
    num_output: 12
    pad: 0
    stride: 1
    weight_filler {
      type: "xavier"
    }
    bias_filler {
      type: "constant"
    }
    kernel_h: 8
    kernel_w: 3
  }
}
layer {
  name: "relu1"
  type: "ReLU"
  bottom: "conv1"
  top: "conv1"
}
layer {
  name: "pool1"
  type: "Pooling"
  bottom: "conv1"
  top: "pool1"
  pooling_param {
    pool: MAX
    kernel_h: 2
    kernel_w: 1
    stride_h: 2
    stride_w: 1
  }
}
layer {
  name: "conv2"
  type: "Convolution"
  bottom: "pool1"
  top: "conv2"
  convolution_param {
    num_output: 20
    pad: 0
    stride: 1
    weight_filler {
      type: "xavier"
    }
    bias_filler {
      type: "constant"
    }
    kernel_h: 7
    kernel_w: 3
  }
}
layer {
  name: "relu2"
  type: "ReLU"
  bottom: "conv2"
  top: "conv2"
}
layer {
  name: "pool2"
  type: "Pooling"
  bottom: "conv2"
  top: "pool2"
  pooling_param {
    pool: MAX
    kernel_h: 2
    kernel_w: 1
    stride_h: 2
    stride_w: 1
  }
}
layer {
  name: "conv3"
  type: "Convolution"
  bottom: "pool2"
  top: "conv3"
  convolution_param {
    num_output: 28
    pad: 0
    stride: 1
    weight_filler {
      type: "xavier"
    }
    bias_filler {
      type: "constant"
    }
    kernel_h: 6
    kernel_w: 3
  }
}
layer {
  name: "relu3"
  type: "ReLU"
  bottom: "conv3"
  top: "conv3"
}
layer {
  name: "pool3"
  type: "Pooling"
  bottom: "conv3"
  top: "pool3"
  pooling_param {
    pool: MAX
    kernel_h: 2
    kernel_w: 1
    stride_h: 2
    stride_w: 1
  }
}
layer {
  name: "conv4"
  type: "Convolution"
  bottom: "pool3"
  top: "conv4"
  convolution_param {
    num_output: 36
    pad: 0
    stride: 1
    weight_filler {
      type: "xavier"
    }
    bias_filler {
      type: "constant"
    }
    kernel_h: 6
    kernel_w: 3
  }
}
layer {
  name: "relu4"
  type: "ReLU"
  bottom: "conv4"
  top: "conv4"
}
layer {
  name: "pool4"
  type: "Pooling"
  bottom: "conv4"
  top: "pool4"
  pooling_param {
    pool: MAX
    kernel_h: 2
    kernel_w: 1
    stride_h: 2
    stride_w: 1
  }
}
layer {
  name: "ip1"
  type: "InnerProduct"
  bottom: "pool4"
  top: "ip1"
  inner_product_param {
    num_output: 196
    weight_filler {
      type: "xavier"
    }
    bias_filler {
      type: "constant"
    }
  }
}
layer {
  name: "relu5"
  type: "ReLU"
  bottom: "ip1"
  top: "ip1"
}
layer {
  name: "drop1"
  type: "Dropout"
  bottom: "ip1"
  top: "ip1"
  dropout_param {
    dropout_ratio: 0.5
  }
}
layer {
  name: "ip2"
  type: "InnerProduct"
  bottom: "ip1"
  top: "ip2"
  inner_product_param {
    num_output: 98
    weight_filler {
      type: "xavier"
    }
    bias_filler {
      type: "constant"
    }
  }
}
layer {
  name: "relu6"
  type: "ReLU"
  bottom: "ip2"
  top: "ip2"
}
layer {
  name: "drop2"
  type: "Dropout"
  bottom: "ip2"
  top: "ip2"
  dropout_param {
    dropout_ratio: 0.5
  }
}
layer {
  name: "ip3"
  type: "InnerProduct"
  bottom: "ip2"
  top: "ip3"
  inner_product_param {
    num_output: 11
    weight_filler {
      type: "xavier"
    }
    bias_filler {
      type: "constant"
    }
  }
}
layer {
  name: "drop3"
  type: "Dropout"
  bottom: "ip3"
  top: "ip3"
  dropout_param {
    dropout_ratio: 0.5
  }
}
layer {
  name: "loss"
  type: "SoftmaxWithLoss"
  bottom: "ip3"
  bottom: "label"
  top: "loss"
}
I0520 19:30:26.552712 20884 layer_factory.hpp:77] Creating layer data_hdf5
I0520 19:30:26.552736 20884 net.cpp:106] Creating Layer data_hdf5
I0520 19:30:26.552752 20884 net.cpp:411] data_hdf5 -> data
I0520 19:30:26.552783 20884 net.cpp:411] data_hdf5 -> label
I0520 19:30:26.552815 20884 hdf5_data_layer.cpp:79] Loading list of HDF5 filenames from: /lustre/atlas/proj-shared/hep105/caffe_titan/minosmatch_nukecczdefs_127x50_x_unshifted_me1Bmc.trainlist
I0520 19:30:26.553939 20884 hdf5_data_layer.cpp:93] Number of HDF5 files: 15
I0520 19:30:26.556138 20884 hdf5.cpp:32] Datatype class: H5T_FLOAT
I0520 19:30:48.098613 20884 hdf5.cpp:35] Datatype class: H5T_INTEGER
I0520 19:30:48.103699 20884 net.cpp:150] Setting up data_hdf5
I0520 19:30:48.103744 20884 net.cpp:157] Top shape: 240 1 127 50 (1524000)
I0520 19:30:48.103759 20884 net.cpp:157] Top shape: 240 (240)
I0520 19:30:48.103768 20884 net.cpp:165] Memory required for data: 6096960
I0520 19:30:48.103782 20884 layer_factory.hpp:77] Creating layer conv1
I0520 19:30:48.103816 20884 net.cpp:106] Creating Layer conv1
I0520 19:30:48.103827 20884 net.cpp:454] conv1 <- data
I0520 19:30:48.103849 20884 net.cpp:411] conv1 -> conv1
I0520 19:30:48.469182 20884 net.cpp:150] Setting up conv1
I0520 19:30:48.469228 20884 net.cpp:157] Top shape: 240 12 120 48 (16588800)
I0520 19:30:48.469239 20884 net.cpp:165] Memory required for data: 72452160
I0520 19:30:48.469270 20884 layer_factory.hpp:77] Creating layer relu1
I0520 19:30:48.469290 20884 net.cpp:106] Creating Layer relu1
I0520 19:30:48.469301 20884 net.cpp:454] relu1 <- conv1
I0520 19:30:48.469316 20884 net.cpp:397] relu1 -> conv1 (in-place)
I0520 19:30:48.469842 20884 net.cpp:150] Setting up relu1
I0520 19:30:48.469859 20884 net.cpp:157] Top shape: 240 12 120 48 (16588800)
I0520 19:30:48.469869 20884 net.cpp:165] Memory required for data: 138807360
I0520 19:30:48.469879 20884 layer_factory.hpp:77] Creating layer pool1
I0520 19:30:48.469897 20884 net.cpp:106] Creating Layer pool1
I0520 19:30:48.469907 20884 net.cpp:454] pool1 <- conv1
I0520 19:30:48.469920 20884 net.cpp:411] pool1 -> pool1
I0520 19:30:48.470000 20884 net.cpp:150] Setting up pool1
I0520 19:30:48.470015 20884 net.cpp:157] Top shape: 240 12 60 48 (8294400)
I0520 19:30:48.470023 20884 net.cpp:165] Memory required for data: 171984960
I0520 19:30:48.470034 20884 layer_factory.hpp:77] Creating layer conv2
I0520 19:30:48.470057 20884 net.cpp:106] Creating Layer conv2
I0520 19:30:48.470067 20884 net.cpp:454] conv2 <- pool1
I0520 19:30:48.470082 20884 net.cpp:411] conv2 -> conv2
I0520 19:30:48.472757 20884 net.cpp:150] Setting up conv2
I0520 19:30:48.472784 20884 net.cpp:157] Top shape: 240 20 54 46 (11923200)
I0520 19:30:48.472795 20884 net.cpp:165] Memory required for data: 219677760
I0520 19:30:48.472815 20884 layer_factory.hpp:77] Creating layer relu2
I0520 19:30:48.472829 20884 net.cpp:106] Creating Layer relu2
I0520 19:30:48.472839 20884 net.cpp:454] relu2 <- conv2
I0520 19:30:48.472851 20884 net.cpp:397] relu2 -> conv2 (in-place)
I0520 19:30:48.473181 20884 net.cpp:150] Setting up relu2
I0520 19:30:48.473196 20884 net.cpp:157] Top shape: 240 20 54 46 (11923200)
I0520 19:30:48.473206 20884 net.cpp:165] Memory required for data: 267370560
I0520 19:30:48.473215 20884 layer_factory.hpp:77] Creating layer pool2
I0520 19:30:48.473228 20884 net.cpp:106] Creating Layer pool2
I0520 19:30:48.473238 20884 net.cpp:454] pool2 <- conv2
I0520 19:30:48.473263 20884 net.cpp:411] pool2 -> pool2
I0520 19:30:48.473333 20884 net.cpp:150] Setting up pool2
I0520 19:30:48.473346 20884 net.cpp:157] Top shape: 240 20 27 46 (5961600)
I0520 19:30:48.473356 20884 net.cpp:165] Memory required for data: 291216960
I0520 19:30:48.473364 20884 layer_factory.hpp:77] Creating layer conv3
I0520 19:30:48.473382 20884 net.cpp:106] Creating Layer conv3
I0520 19:30:48.473392 20884 net.cpp:454] conv3 <- pool2
I0520 19:30:48.473407 20884 net.cpp:411] conv3 -> conv3
I0520 19:30:48.475358 20884 net.cpp:150] Setting up conv3
I0520 19:30:48.475383 20884 net.cpp:157] Top shape: 240 28 22 44 (6504960)
I0520 19:30:48.475392 20884 net.cpp:165] Memory required for data: 317236800
I0520 19:30:48.475412 20884 layer_factory.hpp:77] Creating layer relu3
I0520 19:30:48.475428 20884 net.cpp:106] Creating Layer relu3
I0520 19:30:48.475438 20884 net.cpp:454] relu3 <- conv3
I0520 19:30:48.475450 20884 net.cpp:397] relu3 -> conv3 (in-place)
I0520 19:30:48.475919 20884 net.cpp:150] Setting up relu3
I0520 19:30:48.475936 20884 net.cpp:157] Top shape: 240 28 22 44 (6504960)
I0520 19:30:48.475946 20884 net.cpp:165] Memory required for data: 343256640
I0520 19:30:48.475957 20884 layer_factory.hpp:77] Creating layer pool3
I0520 19:30:48.475970 20884 net.cpp:106] Creating Layer pool3
I0520 19:30:48.475980 20884 net.cpp:454] pool3 <- conv3
I0520 19:30:48.475992 20884 net.cpp:411] pool3 -> pool3
I0520 19:30:48.476061 20884 net.cpp:150] Setting up pool3
I0520 19:30:48.476074 20884 net.cpp:157] Top shape: 240 28 11 44 (3252480)
I0520 19:30:48.476084 20884 net.cpp:165] Memory required for data: 356266560
I0520 19:30:48.476092 20884 layer_factory.hpp:77] Creating layer conv4
I0520 19:30:48.476110 20884 net.cpp:106] Creating Layer conv4
I0520 19:30:48.476120 20884 net.cpp:454] conv4 <- pool3
I0520 19:30:48.476135 20884 net.cpp:411] conv4 -> conv4
I0520 19:30:48.478885 20884 net.cpp:150] Setting up conv4
I0520 19:30:48.478914 20884 net.cpp:157] Top shape: 240 36 6 42 (2177280)
I0520 19:30:48.478924 20884 net.cpp:165] Memory required for data: 364975680
I0520 19:30:48.478938 20884 layer_factory.hpp:77] Creating layer relu4
I0520 19:30:48.478952 20884 net.cpp:106] Creating Layer relu4
I0520 19:30:48.478963 20884 net.cpp:454] relu4 <- conv4
I0520 19:30:48.478976 20884 net.cpp:397] relu4 -> conv4 (in-place)
I0520 19:30:48.479439 20884 net.cpp:150] Setting up relu4
I0520 19:30:48.479455 20884 net.cpp:157] Top shape: 240 36 6 42 (2177280)
I0520 19:30:48.479465 20884 net.cpp:165] Memory required for data: 373684800
I0520 19:30:48.479475 20884 layer_factory.hpp:77] Creating layer pool4
I0520 19:30:48.479488 20884 net.cpp:106] Creating Layer pool4
I0520 19:30:48.479498 20884 net.cpp:454] pool4 <- conv4
I0520 19:30:48.479511 20884 net.cpp:411] pool4 -> pool4
I0520 19:30:48.479579 20884 net.cpp:150] Setting up pool4
I0520 19:30:48.479593 20884 net.cpp:157] Top shape: 240 36 3 42 (1088640)
I0520 19:30:48.479604 20884 net.cpp:165] Memory required for data: 378039360
I0520 19:30:48.479614 20884 layer_factory.hpp:77] Creating layer ip1
I0520 19:30:48.479635 20884 net.cpp:106] Creating Layer ip1
I0520 19:30:48.479645 20884 net.cpp:454] ip1 <- pool4
I0520 19:30:48.479657 20884 net.cpp:411] ip1 -> ip1
I0520 19:30:48.495057 20884 net.cpp:150] Setting up ip1
I0520 19:30:48.495085 20884 net.cpp:157] Top shape: 240 196 (47040)
I0520 19:30:48.495098 20884 net.cpp:165] Memory required for data: 378227520
I0520 19:30:48.495120 20884 layer_factory.hpp:77] Creating layer relu5
I0520 19:30:48.495134 20884 net.cpp:106] Creating Layer relu5
I0520 19:30:48.495144 20884 net.cpp:454] relu5 <- ip1
I0520 19:30:48.495157 20884 net.cpp:397] relu5 -> ip1 (in-place)
I0520 19:30:48.495499 20884 net.cpp:150] Setting up relu5
I0520 19:30:48.495513 20884 net.cpp:157] Top shape: 240 196 (47040)
I0520 19:30:48.495524 20884 net.cpp:165] Memory required for data: 378415680
I0520 19:30:48.495534 20884 layer_factory.hpp:77] Creating layer drop1
I0520 19:30:48.495556 20884 net.cpp:106] Creating Layer drop1
I0520 19:30:48.495568 20884 net.cpp:454] drop1 <- ip1
I0520 19:30:48.495591 20884 net.cpp:397] drop1 -> ip1 (in-place)
I0520 19:30:48.495641 20884 net.cpp:150] Setting up drop1
I0520 19:30:48.495654 20884 net.cpp:157] Top shape: 240 196 (47040)
I0520 19:30:48.495666 20884 net.cpp:165] Memory required for data: 378603840
I0520 19:30:48.495674 20884 layer_factory.hpp:77] Creating layer ip2
I0520 19:30:48.495692 20884 net.cpp:106] Creating Layer ip2
I0520 19:30:48.495702 20884 net.cpp:454] ip2 <- ip1
I0520 19:30:48.495714 20884 net.cpp:411] ip2 -> ip2
I0520 19:30:48.496177 20884 net.cpp:150] Setting up ip2
I0520 19:30:48.496191 20884 net.cpp:157] Top shape: 240 98 (23520)
I0520 19:30:48.496201 20884 net.cpp:165] Memory required for data: 378697920
I0520 19:30:48.496215 20884 layer_factory.hpp:77] Creating layer relu6
I0520 19:30:48.496227 20884 net.cpp:106] Creating Layer relu6
I0520 19:30:48.496237 20884 net.cpp:454] relu6 <- ip2
I0520 19:30:48.496249 20884 net.cpp:397] relu6 -> ip2 (in-place)
I0520 19:30:48.496770 20884 net.cpp:150] Setting up relu6
I0520 19:30:48.496786 20884 net.cpp:157] Top shape: 240 98 (23520)
I0520 19:30:48.496796 20884 net.cpp:165] Memory required for data: 378792000
I0520 19:30:48.496808 20884 layer_factory.hpp:77] Creating layer drop2
I0520 19:30:48.496819 20884 net.cpp:106] Creating Layer drop2
I0520 19:30:48.496829 20884 net.cpp:454] drop2 <- ip2
I0520 19:30:48.496841 20884 net.cpp:397] drop2 -> ip2 (in-place)
I0520 19:30:48.496884 20884 net.cpp:150] Setting up drop2
I0520 19:30:48.496897 20884 net.cpp:157] Top shape: 240 98 (23520)
I0520 19:30:48.496909 20884 net.cpp:165] Memory required for data: 378886080
I0520 19:30:48.496919 20884 layer_factory.hpp:77] Creating layer ip3
I0520 19:30:48.496932 20884 net.cpp:106] Creating Layer ip3
I0520 19:30:48.496942 20884 net.cpp:454] ip3 <- ip2
I0520 19:30:48.496954 20884 net.cpp:411] ip3 -> ip3
I0520 19:30:48.497165 20884 net.cpp:150] Setting up ip3
I0520 19:30:48.497179 20884 net.cpp:157] Top shape: 240 11 (2640)
I0520 19:30:48.497189 20884 net.cpp:165] Memory required for data: 378896640
I0520 19:30:48.497203 20884 layer_factory.hpp:77] Creating layer drop3
I0520 19:30:48.497215 20884 net.cpp:106] Creating Layer drop3
I0520 19:30:48.497225 20884 net.cpp:454] drop3 <- ip3
I0520 19:30:48.497236 20884 net.cpp:397] drop3 -> ip3 (in-place)
I0520 19:30:48.497277 20884 net.cpp:150] Setting up drop3
I0520 19:30:48.497289 20884 net.cpp:157] Top shape: 240 11 (2640)
I0520 19:30:48.497300 20884 net.cpp:165] Memory required for data: 378907200
I0520 19:30:48.497310 20884 layer_factory.hpp:77] Creating layer loss
I0520 19:30:48.497329 20884 net.cpp:106] Creating Layer loss
I0520 19:30:48.497339 20884 net.cpp:454] loss <- ip3
I0520 19:30:48.497349 20884 net.cpp:454] loss <- label
I0520 19:30:48.497362 20884 net.cpp:411] loss -> loss
I0520 19:30:48.497380 20884 layer_factory.hpp:77] Creating layer loss
…
I0520 19:30:48.499932 20884 solver.cpp:181] Creating test net (#0) specified by net file: /lustre/atlas/proj-shared/hep105/caffe_titan/caffe_workflow/logs_batch_size_test/batch_size_240_2016-05-20T11.20.41.530673.prototxt
I0520 19:30:48.500003 20884 net.cpp:322] The NetState phase (1) differed from the phase (0) specified by a rule in layer data_hdf5
I0520 19:30:48.500360 20884 net.cpp:49] Initializing net from parameters: 
name: "caffe_test_127x50_x_unshifted"
state {
  phase: TEST
}
layer {
  name: "data_hdf5"
  type: "HDF5Data"
  top: "data"
  top: "label"
  include {
    phase: TEST
  }
  hdf5_data_param {
    source: "/lustre/atlas/proj-shared/hep105/caffe_titan/minosmatch_nukecczdefs_127x50_x_unshifted_me1Bmc.testlist"
    batch_size: 240
  }
}
layer {
  name: "conv1"
  type: "Convolution"
  bottom: "data"
  top: "conv1"
  convolution_param {
    num_output: 12
    pad: 0
    stride: 1
    weight_filler {
      type: "xavier"
    }
    bias_filler {
      type: "constant"
    }
    kernel_h: 8
    kernel_w: 3
  }
}
layer {
  name: "relu1"
  type: "ReLU"
  bottom: "conv1"
  top: "conv1"
}
layer {
  name: "pool1"
  type: "Pooling"
  bottom: "conv1"
  top: "pool1"
  pooling_param {
    pool: MAX
    kernel_h: 2
    kernel_w: 1
    stride_h: 2
    stride_w: 1
  }
}
layer {
  name: "conv2"
  type: "Convolution"
  bottom: "pool1"
  top: "conv2"
  convolution_param {
    num_output: 20
    pad: 0
    stride: 1
    weight_filler {
      type: "xavier"
    }
    bias_filler {
      type: "constant"
    }
    kernel_h: 7
    kernel_w: 3
  }
}
layer {
  name: "relu2"
  type: "ReLU"
  bottom: "conv2"
  top: "conv2"
}
layer {
  name: "pool2"
  type: "Pooling"
  bottom: "conv2"
  top: "pool2"
  pooling_param {
    pool: MAX
    kernel_h: 2
    kernel_w: 1
    stride_h: 2
    stride_w: 1
  }
}
layer {
  name: "conv3"
  type: "Convolution"
  bottom: "pool2"
  top: "conv3"
  convolution_param {
    num_output: 28
    pad: 0
    stride: 1
    weight_filler {
      type: "xavier"
    }
    bias_filler {
      type: "constant"
    }
    kernel_h: 6
    kernel_w: 3
  }
}
layer {
  name: "relu3"
  type: "ReLU"
  bottom: "conv3"
  top: "conv3"
}
layer {
  name: "pool3"
  type: "Pooling"
  bottom: "conv3"
  top: "pool3"
  pooling_param {
    pool: MAX
    kernel_h: 2
    kernel_w: 1
    stride_h: 2
    stride_w: 1
  }
}
layer {
  name: "conv4"
  type: "Convolution"
  bottom: "pool3"
  top: "conv4"
  convolution_param {
    num_output: 36
    pad: 0
    stride: 1
    weight_filler {
      type: "xavier"
    }
    bias_filler {
      type: "constant"
    }
    kernel_h: 6
    kernel_w: 3
  }
}
layer {
  name: "relu4"
  type: "ReLU"
  bottom: "conv4"
  top: "conv4"
}
layer {
  name: "pool4"
  type: "Pooling"
  bottom: "conv4"
  top: "pool4"
  pooling_param {
    pool: MAX
    kernel_h: 2
    kernel_w: 1
    stride_h: 2
    stride_w: 1
  }
}
layer {
  name: "ip1"
  type: "InnerProduct"
  bottom: "pool4"
  top: "ip1"
  inner_product_param {
    num_output: 196
    weight_filler {
      type: "xavier"
    }
    bias_filler {
      type: "constant"
    }
  }
}
layer {
  name: "relu5"
  type: "ReLU"
  bottom: "ip1"
  top: "ip1"
}
layer {
  name: "drop1"
  type: "Dropout"
  bottom: "ip1"
  top: "ip1"
  dropout_param {
    dropout_ratio: 0.5
  }
}
layer {
  name: "ip2"
  type: "InnerProduct"
  bottom: "ip1"
  top: "ip2"
  inner_product_param {
    num_output: 98
    weight_filler {
      type: "xavier"
    }
    bias_filler {
      type: "constant"
    }
  }
}
layer {
  name: "relu6"
  type: "ReLU"
  bottom: "ip2"
  top: "ip2"
}
layer {
  name: "drop2"
  type: "Dropout"
  bottom: "ip2"
  top: "ip2"
  dropout_param {
    dropout_ratio: 0.5
  }
}
layer {
  name: "ip3"
  type: "InnerProduct"
  bottom: "ip2"
  top: "ip3"
  inner_product_param {
    num_output: 11
    weight_filler {
      type: "xavier"
    }
    bias_filler {
      type: "constant"
    }
  }
}
layer {
  name: "drop3"
  type: "Dropout"
  bottom: "ip3"
  top: "ip3"
  dropout_param {
    dropout_ratio: 0.5
  }
}
layer {
  name: "accuracy"
  type: "Accuracy"
  bottom: "ip3"
  bottom: "label"
  top: "accuracy"
  include {
    phase: TEST
  }
}
layer {
  name: "loss"
  type: "SoftmaxWithLoss"
  bottom: "ip3"
  bottom: "label"
  top: "loss"
}
I0520 19:30:48.500547 20884 layer_factory.hpp:77] Creating layer data_hdf5
I0520 19:30:48.500562 20884 net.cpp:106] Creating Layer data_hdf5
I0520 19:30:48.500574 20884 net.cpp:411] data_hdf5 -> data
I0520 19:30:48.500591 20884 net.cpp:411] data_hdf5 -> label
I0520 19:30:48.500607 20884 hdf5_data_layer.cpp:79] Loading list of HDF5 filenames from: /lustre/atlas/proj-shared/hep105/caffe_titan/minosmatch_nukecczdefs_127x50_x_unshifted_me1Bmc.testlist
I0520 19:30:48.501785 20884 hdf5_data_layer.cpp:93] Number of HDF5 files: 3
I0520 19:31:09.791151 20884 net.cpp:150] Setting up data_hdf5
I0520 19:31:09.791326 20884 net.cpp:157] Top shape: 240 1 127 50 (1524000)
I0520 19:31:09.791340 20884 net.cpp:157] Top shape: 240 (240)
I0520 19:31:09.791350 20884 net.cpp:165] Memory required for data: 6096960
I0520 19:31:09.791364 20884 layer_factory.hpp:77] Creating layer label_data_hdf5_1_split
I0520 19:31:09.791393 20884 net.cpp:106] Creating Layer label_data_hdf5_1_split
I0520 19:31:09.791404 20884 net.cpp:454] label_data_hdf5_1_split <- label
I0520 19:31:09.791419 20884 net.cpp:411] label_data_hdf5_1_split -> label_data_hdf5_1_split_0
I0520 19:31:09.791440 20884 net.cpp:411] label_data_hdf5_1_split -> label_data_hdf5_1_split_1
I0520 19:31:09.791512 20884 net.cpp:150] Setting up label_data_hdf5_1_split
I0520 19:31:09.791525 20884 net.cpp:157] Top shape: 240 (240)
I0520 19:31:09.791537 20884 net.cpp:157] Top shape: 240 (240)
I0520 19:31:09.791546 20884 net.cpp:165] Memory required for data: 6098880
I0520 19:31:09.791556 20884 layer_factory.hpp:77] Creating layer conv1
I0520 19:31:09.791576 20884 net.cpp:106] Creating Layer conv1
I0520 19:31:09.791587 20884 net.cpp:454] conv1 <- data
I0520 19:31:09.791602 20884 net.cpp:411] conv1 -> conv1
I0520 19:31:09.793550 20884 net.cpp:150] Setting up conv1
I0520 19:31:09.793575 20884 net.cpp:157] Top shape: 240 12 120 48 (16588800)
I0520 19:31:09.793586 20884 net.cpp:165] Memory required for data: 72454080
I0520 19:31:09.793606 20884 layer_factory.hpp:77] Creating layer relu1
I0520 19:31:09.793622 20884 net.cpp:106] Creating Layer relu1
I0520 19:31:09.793632 20884 net.cpp:454] relu1 <- conv1
I0520 19:31:09.793645 20884 net.cpp:397] relu1 -> conv1 (in-place)
I0520 19:31:09.794145 20884 net.cpp:150] Setting up relu1
I0520 19:31:09.794162 20884 net.cpp:157] Top shape: 240 12 120 48 (16588800)
I0520 19:31:09.794172 20884 net.cpp:165] Memory required for data: 138809280
I0520 19:31:09.794181 20884 layer_factory.hpp:77] Creating layer pool1
I0520 19:31:09.794198 20884 net.cpp:106] Creating Layer pool1
I0520 19:31:09.794209 20884 net.cpp:454] pool1 <- conv1
I0520 19:31:09.794221 20884 net.cpp:411] pool1 -> pool1
I0520 19:31:09.794296 20884 net.cpp:150] Setting up pool1
I0520 19:31:09.794311 20884 net.cpp:157] Top shape: 240 12 60 48 (8294400)
I0520 19:31:09.794322 20884 net.cpp:165] Memory required for data: 171986880
I0520 19:31:09.794332 20884 layer_factory.hpp:77] Creating layer conv2
I0520 19:31:09.794349 20884 net.cpp:106] Creating Layer conv2
I0520 19:31:09.794361 20884 net.cpp:454] conv2 <- pool1
I0520 19:31:09.794375 20884 net.cpp:411] conv2 -> conv2
I0520 19:31:09.796290 20884 net.cpp:150] Setting up conv2
I0520 19:31:09.796314 20884 net.cpp:157] Top shape: 240 20 54 46 (11923200)
I0520 19:31:09.796325 20884 net.cpp:165] Memory required for data: 219679680
I0520 19:31:09.796342 20884 layer_factory.hpp:77] Creating layer relu2
I0520 19:31:09.796356 20884 net.cpp:106] Creating Layer relu2
I0520 19:31:09.796366 20884 net.cpp:454] relu2 <- conv2
I0520 19:31:09.796380 20884 net.cpp:397] relu2 -> conv2 (in-place)
I0520 19:31:09.796712 20884 net.cpp:150] Setting up relu2
I0520 19:31:09.796725 20884 net.cpp:157] Top shape: 240 20 54 46 (11923200)
I0520 19:31:09.796736 20884 net.cpp:165] Memory required for data: 267372480
I0520 19:31:09.796746 20884 layer_factory.hpp:77] Creating layer pool2
I0520 19:31:09.796758 20884 net.cpp:106] Creating Layer pool2
I0520 19:31:09.796768 20884 net.cpp:454] pool2 <- conv2
I0520 19:31:09.796780 20884 net.cpp:411] pool2 -> pool2
I0520 19:31:09.796854 20884 net.cpp:150] Setting up pool2
I0520 19:31:09.796866 20884 net.cpp:157] Top shape: 240 20 27 46 (5961600)
I0520 19:31:09.796876 20884 net.cpp:165] Memory required for data: 291218880
I0520 19:31:09.796886 20884 layer_factory.hpp:77] Creating layer conv3
I0520 19:31:09.796903 20884 net.cpp:106] Creating Layer conv3
I0520 19:31:09.796914 20884 net.cpp:454] conv3 <- pool2
I0520 19:31:09.796928 20884 net.cpp:411] conv3 -> conv3
I0520 19:31:09.798898 20884 net.cpp:150] Setting up conv3
I0520 19:31:09.798921 20884 net.cpp:157] Top shape: 240 28 22 44 (6504960)
I0520 19:31:09.798934 20884 net.cpp:165] Memory required for data: 317238720
I0520 19:31:09.798967 20884 layer_factory.hpp:77] Creating layer relu3
I0520 19:31:09.798980 20884 net.cpp:106] Creating Layer relu3
I0520 19:31:09.798991 20884 net.cpp:454] relu3 <- conv3
I0520 19:31:09.799005 20884 net.cpp:397] relu3 -> conv3 (in-place)
I0520 19:31:09.799474 20884 net.cpp:150] Setting up relu3
I0520 19:31:09.799490 20884 net.cpp:157] Top shape: 240 28 22 44 (6504960)
I0520 19:31:09.799500 20884 net.cpp:165] Memory required for data: 343258560
I0520 19:31:09.799511 20884 layer_factory.hpp:77] Creating layer pool3
I0520 19:31:09.799525 20884 net.cpp:106] Creating Layer pool3
I0520 19:31:09.799535 20884 net.cpp:454] pool3 <- conv3
I0520 19:31:09.799546 20884 net.cpp:411] pool3 -> pool3
I0520 19:31:09.799618 20884 net.cpp:150] Setting up pool3
I0520 19:31:09.799631 20884 net.cpp:157] Top shape: 240 28 11 44 (3252480)
I0520 19:31:09.799641 20884 net.cpp:165] Memory required for data: 356268480
I0520 19:31:09.799649 20884 layer_factory.hpp:77] Creating layer conv4
I0520 19:31:09.799666 20884 net.cpp:106] Creating Layer conv4
I0520 19:31:09.799677 20884 net.cpp:454] conv4 <- pool3
I0520 19:31:09.799691 20884 net.cpp:411] conv4 -> conv4
I0520 19:31:09.801754 20884 net.cpp:150] Setting up conv4
I0520 19:31:09.801776 20884 net.cpp:157] Top shape: 240 36 6 42 (2177280)
I0520 19:31:09.801789 20884 net.cpp:165] Memory required for data: 364977600
I0520 19:31:09.801803 20884 layer_factory.hpp:77] Creating layer relu4
I0520 19:31:09.801817 20884 net.cpp:106] Creating Layer relu4
I0520 19:31:09.801827 20884 net.cpp:454] relu4 <- conv4
I0520 19:31:09.801841 20884 net.cpp:397] relu4 -> conv4 (in-place)
I0520 19:31:09.802320 20884 net.cpp:150] Setting up relu4
I0520 19:31:09.802336 20884 net.cpp:157] Top shape: 240 36 6 42 (2177280)
I0520 19:31:09.802346 20884 net.cpp:165] Memory required for data: 373686720
I0520 19:31:09.802356 20884 layer_factory.hpp:77] Creating layer pool4
I0520 19:31:09.802369 20884 net.cpp:106] Creating Layer pool4
I0520 19:31:09.802381 20884 net.cpp:454] pool4 <- conv4
I0520 19:31:09.802393 20884 net.cpp:411] pool4 -> pool4
I0520 19:31:09.802464 20884 net.cpp:150] Setting up pool4
I0520 19:31:09.802479 20884 net.cpp:157] Top shape: 240 36 3 42 (1088640)
I0520 19:31:09.802487 20884 net.cpp:165] Memory required for data: 378041280
I0520 19:31:09.802496 20884 layer_factory.hpp:77] Creating layer ip1
I0520 19:31:09.802512 20884 net.cpp:106] Creating Layer ip1
I0520 19:31:09.802522 20884 net.cpp:454] ip1 <- pool4
I0520 19:31:09.802536 20884 net.cpp:411] ip1 -> ip1
I0520 19:31:09.817930 20884 net.cpp:150] Setting up ip1
I0520 19:31:09.817958 20884 net.cpp:157] Top shape: 240 196 (47040)
I0520 19:31:09.817970 20884 net.cpp:165] Memory required for data: 378229440
I0520 19:31:09.817992 20884 layer_factory.hpp:77] Creating layer relu5
I0520 19:31:09.818007 20884 net.cpp:106] Creating Layer relu5
I0520 19:31:09.818017 20884 net.cpp:454] relu5 <- ip1
I0520 19:31:09.818032 20884 net.cpp:397] relu5 -> ip1 (in-place)
I0520 19:31:09.818377 20884 net.cpp:150] Setting up relu5
I0520 19:31:09.818392 20884 net.cpp:157] Top shape: 240 196 (47040)
I0520 19:31:09.818400 20884 net.cpp:165] Memory required for data: 378417600
I0520 19:31:09.818410 20884 layer_factory.hpp:77] Creating layer drop1
I0520 19:31:09.818429 20884 net.cpp:106] Creating Layer drop1
I0520 19:31:09.818439 20884 net.cpp:454] drop1 <- ip1
I0520 19:31:09.818452 20884 net.cpp:397] drop1 -> ip1 (in-place)
I0520 19:31:09.818500 20884 net.cpp:150] Setting up drop1
I0520 19:31:09.818512 20884 net.cpp:157] Top shape: 240 196 (47040)
I0520 19:31:09.818522 20884 net.cpp:165] Memory required for data: 378605760
I0520 19:31:09.818532 20884 layer_factory.hpp:77] Creating layer ip2
I0520 19:31:09.818547 20884 net.cpp:106] Creating Layer ip2
I0520 19:31:09.818557 20884 net.cpp:454] ip2 <- ip1
I0520 19:31:09.818569 20884 net.cpp:411] ip2 -> ip2
I0520 19:31:09.819049 20884 net.cpp:150] Setting up ip2
I0520 19:31:09.819062 20884 net.cpp:157] Top shape: 240 98 (23520)
I0520 19:31:09.819072 20884 net.cpp:165] Memory required for data: 378699840
I0520 19:31:09.819099 20884 layer_factory.hpp:77] Creating layer relu6
I0520 19:31:09.819113 20884 net.cpp:106] Creating Layer relu6
I0520 19:31:09.819123 20884 net.cpp:454] relu6 <- ip2
I0520 19:31:09.819135 20884 net.cpp:397] relu6 -> ip2 (in-place)
I0520 19:31:09.819666 20884 net.cpp:150] Setting up relu6
I0520 19:31:09.819682 20884 net.cpp:157] Top shape: 240 98 (23520)
I0520 19:31:09.819692 20884 net.cpp:165] Memory required for data: 378793920
I0520 19:31:09.819702 20884 layer_factory.hpp:77] Creating layer drop2
I0520 19:31:09.819716 20884 net.cpp:106] Creating Layer drop2
I0520 19:31:09.819726 20884 net.cpp:454] drop2 <- ip2
I0520 19:31:09.819739 20884 net.cpp:397] drop2 -> ip2 (in-place)
I0520 19:31:09.819784 20884 net.cpp:150] Setting up drop2
I0520 19:31:09.819797 20884 net.cpp:157] Top shape: 240 98 (23520)
I0520 19:31:09.819808 20884 net.cpp:165] Memory required for data: 378888000
I0520 19:31:09.819818 20884 layer_factory.hpp:77] Creating layer ip3
I0520 19:31:09.819831 20884 net.cpp:106] Creating Layer ip3
I0520 19:31:09.819841 20884 net.cpp:454] ip3 <- ip2
I0520 19:31:09.819855 20884 net.cpp:411] ip3 -> ip3
I0520 19:31:09.820080 20884 net.cpp:150] Setting up ip3
I0520 19:31:09.820093 20884 net.cpp:157] Top shape: 240 11 (2640)
I0520 19:31:09.820103 20884 net.cpp:165] Memory required for data: 378898560
I0520 19:31:09.820118 20884 layer_factory.hpp:77] Creating layer drop3
I0520 19:31:09.820132 20884 net.cpp:106] Creating Layer drop3
I0520 19:31:09.820142 20884 net.cpp:454] drop3 <- ip3
I0520 19:31:09.820155 20884 net.cpp:397] drop3 -> ip3 (in-place)
I0520 19:31:09.820196 20884 net.cpp:150] Setting up drop3
I0520 19:31:09.820209 20884 net.cpp:157] Top shape: 240 11 (2640)
I0520 19:31:09.820219 20884 net.cpp:165] Memory required for data: 378909120
I0520 19:31:09.820228 20884 layer_factory.hpp:77] Creating layer ip3_drop3_0_split
I0520 19:31:09.820241 20884 net.cpp:106] Creating Layer ip3_drop3_0_split
I0520 19:31:09.820251 20884 net.cpp:454] ip3_drop3_0_split <- ip3
I0520 19:31:09.820264 20884 net.cpp:411] ip3_drop3_0_split -> ip3_drop3_0_split_0
I0520 19:31:09.820279 20884 net.cpp:411] ip3_drop3_0_split -> ip3_drop3_0_split_1
I0520 19:31:09.820353 20884 net.cpp:150] Setting up ip3_drop3_0_split
I0520 19:31:09.820365 20884 net.cpp:157] Top shape: 240 11 (2640)
I0520 19:31:09.820379 20884 net.cpp:157] Top shape: 240 11 (2640)
I0520 19:31:09.820389 20884 net.cpp:165] Memory required for data: 378930240
I0520 19:31:09.820399 20884 layer_factory.hpp:77] Creating layer accuracy
I0520 19:31:09.820420 20884 net.cpp:106] Creating Layer accuracy
I0520 19:31:09.820430 20884 net.cpp:454] accuracy <- ip3_drop3_0_split_0
I0520 19:31:09.820441 20884 net.cpp:454] accuracy <- label_data_hdf5_1_split_0
I0520 19:31:09.820456 20884 net.cpp:411] accuracy -> accuracy
…
