…
I0521 00:02:04.699350  9747 net.cpp:322] The NetState phase (0) differed from the phase (1) specified by a rule in layer data_hdf5
I0521 00:02:04.699410  9747 net.cpp:322] The NetState phase (0) differed from the phase (1) specified by a rule in layer accuracy
I0521 00:02:04.699755  9747 net.cpp:49] Initializing net from parameters: 
name: "caffe_test_127x50_x_unshifted"
state {
  phase: TRAIN
}
layer {
  name: "data_hdf5"
  type: "HDF5Data"
  top: "data"
  top: "label"
  include {
    phase: TRAIN
  }
  hdf5_data_param {
    source: "/lustre/atlas/proj-shared/hep105/caffe_titan/minosmatch_nukecczdefs_127x50_x_unshifted_me1Bmc.trainlist"
    batch_size: 450
  }
}
layer {
  name: "conv1"
  type: "Convolution"
  bottom: "data"
  top: "conv1"
  convolution_param {
    num_output: 12
    pad: 0
    stride: 1
    weight_filler {
      type: "xavier"
    }
    bias_filler {
      type: "constant"
    }
    kernel_h: 8
    kernel_w: 3
  }
}
layer {
  name: "relu1"
  type: "ReLU"
  bottom: "conv1"
  top: "conv1"
}
layer {
  name: "pool1"
  type: "Pooling"
  bottom: "conv1"
  top: "pool1"
  pooling_param {
    pool: MAX
    kernel_h: 2
    kernel_w: 1
    stride_h: 2
    stride_w: 1
  }
}
layer {
  name: "conv2"
  type: "Convolution"
  bottom: "pool1"
  top: "conv2"
  convolution_param {
    num_output: 20
    pad: 0
    stride: 1
    weight_filler {
      type: "xavier"
    }
    bias_filler {
      type: "constant"
    }
    kernel_h: 7
    kernel_w: 3
  }
}
layer {
  name: "relu2"
  type: "ReLU"
  bottom: "conv2"
  top: "conv2"
}
layer {
  name: "pool2"
  type: "Pooling"
  bottom: "conv2"
  top: "pool2"
  pooling_param {
    pool: MAX
    kernel_h: 2
    kernel_w: 1
    stride_h: 2
    stride_w: 1
  }
}
layer {
  name: "conv3"
  type: "Convolution"
  bottom: "pool2"
  top: "conv3"
  convolution_param {
    num_output: 28
    pad: 0
    stride: 1
    weight_filler {
      type: "xavier"
    }
    bias_filler {
      type: "constant"
    }
    kernel_h: 6
    kernel_w: 3
  }
}
layer {
  name: "relu3"
  type: "ReLU"
  bottom: "conv3"
  top: "conv3"
}
layer {
  name: "pool3"
  type: "Pooling"
  bottom: "conv3"
  top: "pool3"
  pooling_param {
    pool: MAX
    kernel_h: 2
    kernel_w: 1
    stride_h: 2
    stride_w: 1
  }
}
layer {
  name: "conv4"
  type: "Convolution"
  bottom: "pool3"
  top: "conv4"
  convolution_param {
    num_output: 36
    pad: 0
    stride: 1
    weight_filler {
      type: "xavier"
    }
    bias_filler {
      type: "constant"
    }
    kernel_h: 6
    kernel_w: 3
  }
}
layer {
  name: "relu4"
  type: "ReLU"
  bottom: "conv4"
  top: "conv4"
}
layer {
  name: "pool4"
  type: "Pooling"
  bottom: "conv4"
  top: "pool4"
  pooling_param {
    pool: MAX
    kernel_h: 2
    kernel_w: 1
    stride_h: 2
    stride_w: 1
  }
}
layer {
  name: "ip1"
  type: "InnerProduct"
  bottom: "pool4"
  top: "ip1"
  inner_product_param {
    num_output: 196
    weight_filler {
      type: "xavier"
    }
    bias_filler {
      type: "constant"
    }
  }
}
layer {
  name: "relu5"
  type: "ReLU"
  bottom: "ip1"
  top: "ip1"
}
layer {
  name: "drop1"
  type: "Dropout"
  bottom: "ip1"
  top: "ip1"
  dropout_param {
    dropout_ratio: 0.5
  }
}
layer {
  name: "ip2"
  type: "InnerProduct"
  bottom: "ip1"
  top: "ip2"
  inner_product_param {
    num_output: 98
    weight_filler {
      type: "xavier"
    }
    bias_filler {
      type: "constant"
    }
  }
}
layer {
  name: "relu6"
  type: "ReLU"
  bottom: "ip2"
  top: "ip2"
}
layer {
  name: "drop2"
  type: "Dropout"
  bottom: "ip2"
  top: "ip2"
  dropout_param {
    dropout_ratio: 0.5
  }
}
layer {
  name: "ip3"
  type: "InnerProduct"
  bottom: "ip2"
  top: "ip3"
  inner_product_param {
    num_output: 11
    weight_filler {
      type: "xavier"
    }
    bias_filler {
      type: "constant"
    }
  }
}
layer {
  name: "drop3"
  type: "Dropout"
  bottom: "ip3"
  top: "ip3"
  dropout_param {
    dropout_ratio: 0.5
  }
}
layer {
  name: "loss"
  type: "SoftmaxWithLoss"
  bottom: "ip3"
  bottom: "label"
  top: "loss"
}
I0521 00:02:04.699934  9747 layer_factory.hpp:77] Creating layer data_hdf5
I0521 00:02:04.699959  9747 net.cpp:106] Creating Layer data_hdf5
I0521 00:02:04.699973  9747 net.cpp:411] data_hdf5 -> data
I0521 00:02:04.700006  9747 net.cpp:411] data_hdf5 -> label
I0521 00:02:04.700038  9747 hdf5_data_layer.cpp:79] Loading list of HDF5 filenames from: /lustre/atlas/proj-shared/hep105/caffe_titan/minosmatch_nukecczdefs_127x50_x_unshifted_me1Bmc.trainlist
I0521 00:02:04.701261  9747 hdf5_data_layer.cpp:93] Number of HDF5 files: 15
I0521 00:02:04.703445  9747 hdf5.cpp:32] Datatype class: H5T_FLOAT
I0521 00:02:26.257730  9747 hdf5.cpp:35] Datatype class: H5T_INTEGER
I0521 00:02:26.262832  9747 net.cpp:150] Setting up data_hdf5
I0521 00:02:26.262873  9747 net.cpp:157] Top shape: 450 1 127 50 (2857500)
I0521 00:02:26.262888  9747 net.cpp:157] Top shape: 450 (450)
I0521 00:02:26.262900  9747 net.cpp:165] Memory required for data: 11431800
I0521 00:02:26.262914  9747 layer_factory.hpp:77] Creating layer conv1
I0521 00:02:26.262948  9747 net.cpp:106] Creating Layer conv1
I0521 00:02:26.262959  9747 net.cpp:454] conv1 <- data
I0521 00:02:26.262982  9747 net.cpp:411] conv1 -> conv1
I0521 00:02:26.628368  9747 net.cpp:150] Setting up conv1
I0521 00:02:26.628413  9747 net.cpp:157] Top shape: 450 12 120 48 (31104000)
I0521 00:02:26.628424  9747 net.cpp:165] Memory required for data: 135847800
I0521 00:02:26.628456  9747 layer_factory.hpp:77] Creating layer relu1
I0521 00:02:26.628479  9747 net.cpp:106] Creating Layer relu1
I0521 00:02:26.628489  9747 net.cpp:454] relu1 <- conv1
I0521 00:02:26.628502  9747 net.cpp:397] relu1 -> conv1 (in-place)
I0521 00:02:26.629030  9747 net.cpp:150] Setting up relu1
I0521 00:02:26.629047  9747 net.cpp:157] Top shape: 450 12 120 48 (31104000)
I0521 00:02:26.629058  9747 net.cpp:165] Memory required for data: 260263800
I0521 00:02:26.629068  9747 layer_factory.hpp:77] Creating layer pool1
I0521 00:02:26.629086  9747 net.cpp:106] Creating Layer pool1
I0521 00:02:26.629096  9747 net.cpp:454] pool1 <- conv1
I0521 00:02:26.629109  9747 net.cpp:411] pool1 -> pool1
I0521 00:02:26.629190  9747 net.cpp:150] Setting up pool1
I0521 00:02:26.629204  9747 net.cpp:157] Top shape: 450 12 60 48 (15552000)
I0521 00:02:26.629215  9747 net.cpp:165] Memory required for data: 322471800
I0521 00:02:26.629226  9747 layer_factory.hpp:77] Creating layer conv2
I0521 00:02:26.629248  9747 net.cpp:106] Creating Layer conv2
I0521 00:02:26.629258  9747 net.cpp:454] conv2 <- pool1
I0521 00:02:26.629271  9747 net.cpp:411] conv2 -> conv2
I0521 00:02:26.631947  9747 net.cpp:150] Setting up conv2
I0521 00:02:26.631974  9747 net.cpp:157] Top shape: 450 20 54 46 (22356000)
I0521 00:02:26.631985  9747 net.cpp:165] Memory required for data: 411895800
I0521 00:02:26.632005  9747 layer_factory.hpp:77] Creating layer relu2
I0521 00:02:26.632020  9747 net.cpp:106] Creating Layer relu2
I0521 00:02:26.632030  9747 net.cpp:454] relu2 <- conv2
I0521 00:02:26.632042  9747 net.cpp:397] relu2 -> conv2 (in-place)
I0521 00:02:26.632372  9747 net.cpp:150] Setting up relu2
I0521 00:02:26.632387  9747 net.cpp:157] Top shape: 450 20 54 46 (22356000)
I0521 00:02:26.632398  9747 net.cpp:165] Memory required for data: 501319800
I0521 00:02:26.632408  9747 layer_factory.hpp:77] Creating layer pool2
I0521 00:02:26.632421  9747 net.cpp:106] Creating Layer pool2
I0521 00:02:26.632431  9747 net.cpp:454] pool2 <- conv2
I0521 00:02:26.632457  9747 net.cpp:411] pool2 -> pool2
I0521 00:02:26.632536  9747 net.cpp:150] Setting up pool2
I0521 00:02:26.632550  9747 net.cpp:157] Top shape: 450 20 27 46 (11178000)
I0521 00:02:26.632560  9747 net.cpp:165] Memory required for data: 546031800
I0521 00:02:26.632570  9747 layer_factory.hpp:77] Creating layer conv3
I0521 00:02:26.632589  9747 net.cpp:106] Creating Layer conv3
I0521 00:02:26.632601  9747 net.cpp:454] conv3 <- pool2
I0521 00:02:26.632614  9747 net.cpp:411] conv3 -> conv3
I0521 00:02:26.634533  9747 net.cpp:150] Setting up conv3
I0521 00:02:26.634552  9747 net.cpp:157] Top shape: 450 28 22 44 (12196800)
I0521 00:02:26.634563  9747 net.cpp:165] Memory required for data: 594819000
I0521 00:02:26.634582  9747 layer_factory.hpp:77] Creating layer relu3
I0521 00:02:26.634598  9747 net.cpp:106] Creating Layer relu3
I0521 00:02:26.634608  9747 net.cpp:454] relu3 <- conv3
I0521 00:02:26.634619  9747 net.cpp:397] relu3 -> conv3 (in-place)
I0521 00:02:26.635092  9747 net.cpp:150] Setting up relu3
I0521 00:02:26.635110  9747 net.cpp:157] Top shape: 450 28 22 44 (12196800)
I0521 00:02:26.635120  9747 net.cpp:165] Memory required for data: 643606200
I0521 00:02:26.635131  9747 layer_factory.hpp:77] Creating layer pool3
I0521 00:02:26.635144  9747 net.cpp:106] Creating Layer pool3
I0521 00:02:26.635154  9747 net.cpp:454] pool3 <- conv3
I0521 00:02:26.635166  9747 net.cpp:411] pool3 -> pool3
I0521 00:02:26.635234  9747 net.cpp:150] Setting up pool3
I0521 00:02:26.635247  9747 net.cpp:157] Top shape: 450 28 11 44 (6098400)
I0521 00:02:26.635257  9747 net.cpp:165] Memory required for data: 667999800
I0521 00:02:26.635265  9747 layer_factory.hpp:77] Creating layer conv4
I0521 00:02:26.635282  9747 net.cpp:106] Creating Layer conv4
I0521 00:02:26.635293  9747 net.cpp:454] conv4 <- pool3
I0521 00:02:26.635306  9747 net.cpp:411] conv4 -> conv4
I0521 00:02:26.638082  9747 net.cpp:150] Setting up conv4
I0521 00:02:26.638110  9747 net.cpp:157] Top shape: 450 36 6 42 (4082400)
I0521 00:02:26.638121  9747 net.cpp:165] Memory required for data: 684329400
I0521 00:02:26.638139  9747 layer_factory.hpp:77] Creating layer relu4
I0521 00:02:26.638152  9747 net.cpp:106] Creating Layer relu4
I0521 00:02:26.638164  9747 net.cpp:454] relu4 <- conv4
I0521 00:02:26.638176  9747 net.cpp:397] relu4 -> conv4 (in-place)
I0521 00:02:26.638648  9747 net.cpp:150] Setting up relu4
I0521 00:02:26.638664  9747 net.cpp:157] Top shape: 450 36 6 42 (4082400)
I0521 00:02:26.638674  9747 net.cpp:165] Memory required for data: 700659000
I0521 00:02:26.638684  9747 layer_factory.hpp:77] Creating layer pool4
I0521 00:02:26.638697  9747 net.cpp:106] Creating Layer pool4
I0521 00:02:26.638707  9747 net.cpp:454] pool4 <- conv4
I0521 00:02:26.638720  9747 net.cpp:411] pool4 -> pool4
I0521 00:02:26.638788  9747 net.cpp:150] Setting up pool4
I0521 00:02:26.638803  9747 net.cpp:157] Top shape: 450 36 3 42 (2041200)
I0521 00:02:26.638813  9747 net.cpp:165] Memory required for data: 708823800
I0521 00:02:26.638823  9747 layer_factory.hpp:77] Creating layer ip1
I0521 00:02:26.638844  9747 net.cpp:106] Creating Layer ip1
I0521 00:02:26.638854  9747 net.cpp:454] ip1 <- pool4
I0521 00:02:26.638867  9747 net.cpp:411] ip1 -> ip1
I0521 00:02:26.654289  9747 net.cpp:150] Setting up ip1
I0521 00:02:26.654316  9747 net.cpp:157] Top shape: 450 196 (88200)
I0521 00:02:26.654330  9747 net.cpp:165] Memory required for data: 709176600
I0521 00:02:26.654353  9747 layer_factory.hpp:77] Creating layer relu5
I0521 00:02:26.654368  9747 net.cpp:106] Creating Layer relu5
I0521 00:02:26.654378  9747 net.cpp:454] relu5 <- ip1
I0521 00:02:26.654392  9747 net.cpp:397] relu5 -> ip1 (in-place)
I0521 00:02:26.654733  9747 net.cpp:150] Setting up relu5
I0521 00:02:26.654747  9747 net.cpp:157] Top shape: 450 196 (88200)
I0521 00:02:26.654758  9747 net.cpp:165] Memory required for data: 709529400
I0521 00:02:26.654769  9747 layer_factory.hpp:77] Creating layer drop1
I0521 00:02:26.654790  9747 net.cpp:106] Creating Layer drop1
I0521 00:02:26.654800  9747 net.cpp:454] drop1 <- ip1
I0521 00:02:26.654825  9747 net.cpp:397] drop1 -> ip1 (in-place)
I0521 00:02:26.654872  9747 net.cpp:150] Setting up drop1
I0521 00:02:26.654886  9747 net.cpp:157] Top shape: 450 196 (88200)
I0521 00:02:26.654896  9747 net.cpp:165] Memory required for data: 709882200
I0521 00:02:26.654906  9747 layer_factory.hpp:77] Creating layer ip2
I0521 00:02:26.654924  9747 net.cpp:106] Creating Layer ip2
I0521 00:02:26.654934  9747 net.cpp:454] ip2 <- ip1
I0521 00:02:26.654947  9747 net.cpp:411] ip2 -> ip2
I0521 00:02:26.655416  9747 net.cpp:150] Setting up ip2
I0521 00:02:26.655428  9747 net.cpp:157] Top shape: 450 98 (44100)
I0521 00:02:26.655438  9747 net.cpp:165] Memory required for data: 710058600
I0521 00:02:26.655453  9747 layer_factory.hpp:77] Creating layer relu6
I0521 00:02:26.655467  9747 net.cpp:106] Creating Layer relu6
I0521 00:02:26.655475  9747 net.cpp:454] relu6 <- ip2
I0521 00:02:26.655488  9747 net.cpp:397] relu6 -> ip2 (in-place)
I0521 00:02:26.656008  9747 net.cpp:150] Setting up relu6
I0521 00:02:26.656024  9747 net.cpp:157] Top shape: 450 98 (44100)
I0521 00:02:26.656034  9747 net.cpp:165] Memory required for data: 710235000
I0521 00:02:26.656045  9747 layer_factory.hpp:77] Creating layer drop2
I0521 00:02:26.656059  9747 net.cpp:106] Creating Layer drop2
I0521 00:02:26.656069  9747 net.cpp:454] drop2 <- ip2
I0521 00:02:26.656080  9747 net.cpp:397] drop2 -> ip2 (in-place)
I0521 00:02:26.656122  9747 net.cpp:150] Setting up drop2
I0521 00:02:26.656136  9747 net.cpp:157] Top shape: 450 98 (44100)
I0521 00:02:26.656147  9747 net.cpp:165] Memory required for data: 710411400
I0521 00:02:26.656157  9747 layer_factory.hpp:77] Creating layer ip3
I0521 00:02:26.656169  9747 net.cpp:106] Creating Layer ip3
I0521 00:02:26.656180  9747 net.cpp:454] ip3 <- ip2
I0521 00:02:26.656193  9747 net.cpp:411] ip3 -> ip3
I0521 00:02:26.656404  9747 net.cpp:150] Setting up ip3
I0521 00:02:26.656417  9747 net.cpp:157] Top shape: 450 11 (4950)
I0521 00:02:26.656427  9747 net.cpp:165] Memory required for data: 710431200
I0521 00:02:26.656442  9747 layer_factory.hpp:77] Creating layer drop3
I0521 00:02:26.656455  9747 net.cpp:106] Creating Layer drop3
I0521 00:02:26.656464  9747 net.cpp:454] drop3 <- ip3
I0521 00:02:26.656476  9747 net.cpp:397] drop3 -> ip3 (in-place)
I0521 00:02:26.656522  9747 net.cpp:150] Setting up drop3
I0521 00:02:26.656535  9747 net.cpp:157] Top shape: 450 11 (4950)
I0521 00:02:26.656545  9747 net.cpp:165] Memory required for data: 710451000
I0521 00:02:26.656555  9747 layer_factory.hpp:77] Creating layer loss
I0521 00:02:26.656574  9747 net.cpp:106] Creating Layer loss
I0521 00:02:26.656584  9747 net.cpp:454] loss <- ip3
I0521 00:02:26.656595  9747 net.cpp:454] loss <- label
I0521 00:02:26.656607  9747 net.cpp:411] loss -> loss
I0521 00:02:26.656625  9747 layer_factory.hpp:77] Creating layer loss
…
I0521 00:02:26.659169  9747 solver.cpp:181] Creating test net (#0) specified by net file: /lustre/atlas/proj-shared/hep105/caffe_titan/caffe_workflow/logs_batch_size_test/batch_size_450_2016-05-20T11.20.48.986868.prototxt
I0521 00:02:26.659241  9747 net.cpp:322] The NetState phase (1) differed from the phase (0) specified by a rule in layer data_hdf5
I0521 00:02:26.659600  9747 net.cpp:49] Initializing net from parameters: 
name: "caffe_test_127x50_x_unshifted"
state {
  phase: TEST
}
layer {
  name: "data_hdf5"
  type: "HDF5Data"
  top: "data"
  top: "label"
  include {
    phase: TEST
  }
  hdf5_data_param {
    source: "/lustre/atlas/proj-shared/hep105/caffe_titan/minosmatch_nukecczdefs_127x50_x_unshifted_me1Bmc.testlist"
    batch_size: 450
  }
}
layer {
  name: "conv1"
  type: "Convolution"
  bottom: "data"
  top: "conv1"
  convolution_param {
    num_output: 12
    pad: 0
    stride: 1
    weight_filler {
      type: "xavier"
    }
    bias_filler {
      type: "constant"
    }
    kernel_h: 8
    kernel_w: 3
  }
}
layer {
  name: "relu1"
  type: "ReLU"
  bottom: "conv1"
  top: "conv1"
}
layer {
  name: "pool1"
  type: "Pooling"
  bottom: "conv1"
  top: "pool1"
  pooling_param {
    pool: MAX
    kernel_h: 2
    kernel_w: 1
    stride_h: 2
    stride_w: 1
  }
}
layer {
  name: "conv2"
  type: "Convolution"
  bottom: "pool1"
  top: "conv2"
  convolution_param {
    num_output: 20
    pad: 0
    stride: 1
    weight_filler {
      type: "xavier"
    }
    bias_filler {
      type: "constant"
    }
    kernel_h: 7
    kernel_w: 3
  }
}
layer {
  name: "relu2"
  type: "ReLU"
  bottom: "conv2"
  top: "conv2"
}
layer {
  name: "pool2"
  type: "Pooling"
  bottom: "conv2"
  top: "pool2"
  pooling_param {
    pool: MAX
    kernel_h: 2
    kernel_w: 1
    stride_h: 2
    stride_w: 1
  }
}
layer {
  name: "conv3"
  type: "Convolution"
  bottom: "pool2"
  top: "conv3"
  convolution_param {
    num_output: 28
    pad: 0
    stride: 1
    weight_filler {
      type: "xavier"
    }
    bias_filler {
      type: "constant"
    }
    kernel_h: 6
    kernel_w: 3
  }
}
layer {
  name: "relu3"
  type: "ReLU"
  bottom: "conv3"
  top: "conv3"
}
layer {
  name: "pool3"
  type: "Pooling"
  bottom: "conv3"
  top: "pool3"
  pooling_param {
    pool: MAX
    kernel_h: 2
    kernel_w: 1
    stride_h: 2
    stride_w: 1
  }
}
layer {
  name: "conv4"
  type: "Convolution"
  bottom: "pool3"
  top: "conv4"
  convolution_param {
    num_output: 36
    pad: 0
    stride: 1
    weight_filler {
      type: "xavier"
    }
    bias_filler {
      type: "constant"
    }
    kernel_h: 6
    kernel_w: 3
  }
}
layer {
  name: "relu4"
  type: "ReLU"
  bottom: "conv4"
  top: "conv4"
}
layer {
  name: "pool4"
  type: "Pooling"
  bottom: "conv4"
  top: "pool4"
  pooling_param {
    pool: MAX
    kernel_h: 2
    kernel_w: 1
    stride_h: 2
    stride_w: 1
  }
}
layer {
  name: "ip1"
  type: "InnerProduct"
  bottom: "pool4"
  top: "ip1"
  inner_product_param {
    num_output: 196
    weight_filler {
      type: "xavier"
    }
    bias_filler {
      type: "constant"
    }
  }
}
layer {
  name: "relu5"
  type: "ReLU"
  bottom: "ip1"
  top: "ip1"
}
layer {
  name: "drop1"
  type: "Dropout"
  bottom: "ip1"
  top: "ip1"
  dropout_param {
    dropout_ratio: 0.5
  }
}
layer {
  name: "ip2"
  type: "InnerProduct"
  bottom: "ip1"
  top: "ip2"
  inner_product_param {
    num_output: 98
    weight_filler {
      type: "xavier"
    }
    bias_filler {
      type: "constant"
    }
  }
}
layer {
  name: "relu6"
  type: "ReLU"
  bottom: "ip2"
  top: "ip2"
}
layer {
  name: "drop2"
  type: "Dropout"
  bottom: "ip2"
  top: "ip2"
  dropout_param {
    dropout_ratio: 0.5
  }
}
layer {
  name: "ip3"
  type: "InnerProduct"
  bottom: "ip2"
  top: "ip3"
  inner_product_param {
    num_output: 11
    weight_filler {
      type: "xavier"
    }
    bias_filler {
      type: "constant"
    }
  }
}
layer {
  name: "drop3"
  type: "Dropout"
  bottom: "ip3"
  top: "ip3"
  dropout_param {
    dropout_ratio: 0.5
  }
}
layer {
  name: "accuracy"
  type: "Accuracy"
  bottom: "ip3"
  bottom: "label"
  top: "accuracy"
  include {
    phase: TEST
  }
}
layer {
  name: "loss"
  type: "SoftmaxWithLoss"
  bottom: "ip3"
  bottom: "label"
  top: "loss"
}
I0521 00:02:26.659788  9747 layer_factory.hpp:77] Creating layer data_hdf5
I0521 00:02:26.659804  9747 net.cpp:106] Creating Layer data_hdf5
I0521 00:02:26.659816  9747 net.cpp:411] data_hdf5 -> data
I0521 00:02:26.659832  9747 net.cpp:411] data_hdf5 -> label
I0521 00:02:26.659848  9747 hdf5_data_layer.cpp:79] Loading list of HDF5 filenames from: /lustre/atlas/proj-shared/hep105/caffe_titan/minosmatch_nukecczdefs_127x50_x_unshifted_me1Bmc.testlist
I0521 00:02:26.661129  9747 hdf5_data_layer.cpp:93] Number of HDF5 files: 3
I0521 00:02:48.014529  9747 net.cpp:150] Setting up data_hdf5
I0521 00:02:48.014693  9747 net.cpp:157] Top shape: 450 1 127 50 (2857500)
I0521 00:02:48.014708  9747 net.cpp:157] Top shape: 450 (450)
I0521 00:02:48.014719  9747 net.cpp:165] Memory required for data: 11431800
I0521 00:02:48.014731  9747 layer_factory.hpp:77] Creating layer label_data_hdf5_1_split
I0521 00:02:48.014760  9747 net.cpp:106] Creating Layer label_data_hdf5_1_split
I0521 00:02:48.014770  9747 net.cpp:454] label_data_hdf5_1_split <- label
I0521 00:02:48.014786  9747 net.cpp:411] label_data_hdf5_1_split -> label_data_hdf5_1_split_0
I0521 00:02:48.014807  9747 net.cpp:411] label_data_hdf5_1_split -> label_data_hdf5_1_split_1
I0521 00:02:48.014881  9747 net.cpp:150] Setting up label_data_hdf5_1_split
I0521 00:02:48.014895  9747 net.cpp:157] Top shape: 450 (450)
I0521 00:02:48.014907  9747 net.cpp:157] Top shape: 450 (450)
I0521 00:02:48.014916  9747 net.cpp:165] Memory required for data: 11435400
I0521 00:02:48.014927  9747 layer_factory.hpp:77] Creating layer conv1
I0521 00:02:48.014950  9747 net.cpp:106] Creating Layer conv1
I0521 00:02:48.014960  9747 net.cpp:454] conv1 <- data
I0521 00:02:48.014974  9747 net.cpp:411] conv1 -> conv1
I0521 00:02:48.016939  9747 net.cpp:150] Setting up conv1
I0521 00:02:48.016963  9747 net.cpp:157] Top shape: 450 12 120 48 (31104000)
I0521 00:02:48.016975  9747 net.cpp:165] Memory required for data: 135851400
I0521 00:02:48.016998  9747 layer_factory.hpp:77] Creating layer relu1
I0521 00:02:48.017012  9747 net.cpp:106] Creating Layer relu1
I0521 00:02:48.017022  9747 net.cpp:454] relu1 <- conv1
I0521 00:02:48.017035  9747 net.cpp:397] relu1 -> conv1 (in-place)
I0521 00:02:48.017535  9747 net.cpp:150] Setting up relu1
I0521 00:02:48.017551  9747 net.cpp:157] Top shape: 450 12 120 48 (31104000)
I0521 00:02:48.017561  9747 net.cpp:165] Memory required for data: 260267400
I0521 00:02:48.017571  9747 layer_factory.hpp:77] Creating layer pool1
I0521 00:02:48.017588  9747 net.cpp:106] Creating Layer pool1
I0521 00:02:48.017598  9747 net.cpp:454] pool1 <- conv1
I0521 00:02:48.017611  9747 net.cpp:411] pool1 -> pool1
I0521 00:02:48.017686  9747 net.cpp:150] Setting up pool1
I0521 00:02:48.017700  9747 net.cpp:157] Top shape: 450 12 60 48 (15552000)
I0521 00:02:48.017709  9747 net.cpp:165] Memory required for data: 322475400
I0521 00:02:48.017720  9747 layer_factory.hpp:77] Creating layer conv2
I0521 00:02:48.017737  9747 net.cpp:106] Creating Layer conv2
I0521 00:02:48.017748  9747 net.cpp:454] conv2 <- pool1
I0521 00:02:48.017762  9747 net.cpp:411] conv2 -> conv2
I0521 00:02:48.019676  9747 net.cpp:150] Setting up conv2
I0521 00:02:48.019698  9747 net.cpp:157] Top shape: 450 20 54 46 (22356000)
I0521 00:02:48.019711  9747 net.cpp:165] Memory required for data: 411899400
I0521 00:02:48.019729  9747 layer_factory.hpp:77] Creating layer relu2
I0521 00:02:48.019743  9747 net.cpp:106] Creating Layer relu2
I0521 00:02:48.019753  9747 net.cpp:454] relu2 <- conv2
I0521 00:02:48.019765  9747 net.cpp:397] relu2 -> conv2 (in-place)
I0521 00:02:48.020097  9747 net.cpp:150] Setting up relu2
I0521 00:02:48.020110  9747 net.cpp:157] Top shape: 450 20 54 46 (22356000)
I0521 00:02:48.020120  9747 net.cpp:165] Memory required for data: 501323400
I0521 00:02:48.020130  9747 layer_factory.hpp:77] Creating layer pool2
I0521 00:02:48.020144  9747 net.cpp:106] Creating Layer pool2
I0521 00:02:48.020154  9747 net.cpp:454] pool2 <- conv2
I0521 00:02:48.020166  9747 net.cpp:411] pool2 -> pool2
I0521 00:02:48.020238  9747 net.cpp:150] Setting up pool2
I0521 00:02:48.020251  9747 net.cpp:157] Top shape: 450 20 27 46 (11178000)
I0521 00:02:48.020262  9747 net.cpp:165] Memory required for data: 546035400
I0521 00:02:48.020270  9747 layer_factory.hpp:77] Creating layer conv3
I0521 00:02:48.020290  9747 net.cpp:106] Creating Layer conv3
I0521 00:02:48.020300  9747 net.cpp:454] conv3 <- pool2
I0521 00:02:48.020314  9747 net.cpp:411] conv3 -> conv3
I0521 00:02:48.022292  9747 net.cpp:150] Setting up conv3
I0521 00:02:48.022315  9747 net.cpp:157] Top shape: 450 28 22 44 (12196800)
I0521 00:02:48.022326  9747 net.cpp:165] Memory required for data: 594822600
I0521 00:02:48.022358  9747 layer_factory.hpp:77] Creating layer relu3
I0521 00:02:48.022372  9747 net.cpp:106] Creating Layer relu3
I0521 00:02:48.022382  9747 net.cpp:454] relu3 <- conv3
I0521 00:02:48.022395  9747 net.cpp:397] relu3 -> conv3 (in-place)
I0521 00:02:48.022867  9747 net.cpp:150] Setting up relu3
I0521 00:02:48.022883  9747 net.cpp:157] Top shape: 450 28 22 44 (12196800)
I0521 00:02:48.022893  9747 net.cpp:165] Memory required for data: 643609800
I0521 00:02:48.022903  9747 layer_factory.hpp:77] Creating layer pool3
I0521 00:02:48.022917  9747 net.cpp:106] Creating Layer pool3
I0521 00:02:48.022927  9747 net.cpp:454] pool3 <- conv3
I0521 00:02:48.022939  9747 net.cpp:411] pool3 -> pool3
I0521 00:02:48.023011  9747 net.cpp:150] Setting up pool3
I0521 00:02:48.023025  9747 net.cpp:157] Top shape: 450 28 11 44 (6098400)
I0521 00:02:48.023035  9747 net.cpp:165] Memory required for data: 668003400
I0521 00:02:48.023042  9747 layer_factory.hpp:77] Creating layer conv4
I0521 00:02:48.023061  9747 net.cpp:106] Creating Layer conv4
I0521 00:02:48.023071  9747 net.cpp:454] conv4 <- pool3
I0521 00:02:48.023085  9747 net.cpp:411] conv4 -> conv4
I0521 00:02:48.025148  9747 net.cpp:150] Setting up conv4
I0521 00:02:48.025171  9747 net.cpp:157] Top shape: 450 36 6 42 (4082400)
I0521 00:02:48.025183  9747 net.cpp:165] Memory required for data: 684333000
I0521 00:02:48.025199  9747 layer_factory.hpp:77] Creating layer relu4
I0521 00:02:48.025213  9747 net.cpp:106] Creating Layer relu4
I0521 00:02:48.025223  9747 net.cpp:454] relu4 <- conv4
I0521 00:02:48.025235  9747 net.cpp:397] relu4 -> conv4 (in-place)
I0521 00:02:48.025706  9747 net.cpp:150] Setting up relu4
I0521 00:02:48.025722  9747 net.cpp:157] Top shape: 450 36 6 42 (4082400)
I0521 00:02:48.025732  9747 net.cpp:165] Memory required for data: 700662600
I0521 00:02:48.025743  9747 layer_factory.hpp:77] Creating layer pool4
I0521 00:02:48.025755  9747 net.cpp:106] Creating Layer pool4
I0521 00:02:48.025765  9747 net.cpp:454] pool4 <- conv4
I0521 00:02:48.025779  9747 net.cpp:411] pool4 -> pool4
I0521 00:02:48.025851  9747 net.cpp:150] Setting up pool4
I0521 00:02:48.025863  9747 net.cpp:157] Top shape: 450 36 3 42 (2041200)
I0521 00:02:48.025873  9747 net.cpp:165] Memory required for data: 708827400
I0521 00:02:48.025884  9747 layer_factory.hpp:77] Creating layer ip1
I0521 00:02:48.025899  9747 net.cpp:106] Creating Layer ip1
I0521 00:02:48.025910  9747 net.cpp:454] ip1 <- pool4
I0521 00:02:48.025923  9747 net.cpp:411] ip1 -> ip1
I0521 00:02:48.041398  9747 net.cpp:150] Setting up ip1
I0521 00:02:48.041426  9747 net.cpp:157] Top shape: 450 196 (88200)
I0521 00:02:48.041437  9747 net.cpp:165] Memory required for data: 709180200
I0521 00:02:48.041460  9747 layer_factory.hpp:77] Creating layer relu5
I0521 00:02:48.041474  9747 net.cpp:106] Creating Layer relu5
I0521 00:02:48.041484  9747 net.cpp:454] relu5 <- ip1
I0521 00:02:48.041498  9747 net.cpp:397] relu5 -> ip1 (in-place)
I0521 00:02:48.041846  9747 net.cpp:150] Setting up relu5
I0521 00:02:48.041859  9747 net.cpp:157] Top shape: 450 196 (88200)
I0521 00:02:48.041870  9747 net.cpp:165] Memory required for data: 709533000
I0521 00:02:48.041880  9747 layer_factory.hpp:77] Creating layer drop1
I0521 00:02:48.041899  9747 net.cpp:106] Creating Layer drop1
I0521 00:02:48.041909  9747 net.cpp:454] drop1 <- ip1
I0521 00:02:48.041923  9747 net.cpp:397] drop1 -> ip1 (in-place)
I0521 00:02:48.041967  9747 net.cpp:150] Setting up drop1
I0521 00:02:48.041980  9747 net.cpp:157] Top shape: 450 196 (88200)
I0521 00:02:48.041988  9747 net.cpp:165] Memory required for data: 709885800
I0521 00:02:48.041999  9747 layer_factory.hpp:77] Creating layer ip2
I0521 00:02:48.042013  9747 net.cpp:106] Creating Layer ip2
I0521 00:02:48.042027  9747 net.cpp:454] ip2 <- ip1
I0521 00:02:48.042042  9747 net.cpp:411] ip2 -> ip2
I0521 00:02:48.042524  9747 net.cpp:150] Setting up ip2
I0521 00:02:48.042538  9747 net.cpp:157] Top shape: 450 98 (44100)
I0521 00:02:48.042548  9747 net.cpp:165] Memory required for data: 710062200
I0521 00:02:48.042577  9747 layer_factory.hpp:77] Creating layer relu6
I0521 00:02:48.042590  9747 net.cpp:106] Creating Layer relu6
I0521 00:02:48.042600  9747 net.cpp:454] relu6 <- ip2
I0521 00:02:48.042613  9747 net.cpp:397] relu6 -> ip2 (in-place)
I0521 00:02:48.043149  9747 net.cpp:150] Setting up relu6
I0521 00:02:48.043170  9747 net.cpp:157] Top shape: 450 98 (44100)
I0521 00:02:48.043180  9747 net.cpp:165] Memory required for data: 710238600
I0521 00:02:48.043191  9747 layer_factory.hpp:77] Creating layer drop2
I0521 00:02:48.043205  9747 net.cpp:106] Creating Layer drop2
I0521 00:02:48.043215  9747 net.cpp:454] drop2 <- ip2
I0521 00:02:48.043228  9747 net.cpp:397] drop2 -> ip2 (in-place)
I0521 00:02:48.043272  9747 net.cpp:150] Setting up drop2
I0521 00:02:48.043285  9747 net.cpp:157] Top shape: 450 98 (44100)
I0521 00:02:48.043297  9747 net.cpp:165] Memory required for data: 710415000
I0521 00:02:48.043305  9747 layer_factory.hpp:77] Creating layer ip3
I0521 00:02:48.043320  9747 net.cpp:106] Creating Layer ip3
I0521 00:02:48.043330  9747 net.cpp:454] ip3 <- ip2
I0521 00:02:48.043344  9747 net.cpp:411] ip3 -> ip3
I0521 00:02:48.043566  9747 net.cpp:150] Setting up ip3
I0521 00:02:48.043579  9747 net.cpp:157] Top shape: 450 11 (4950)
I0521 00:02:48.043589  9747 net.cpp:165] Memory required for data: 710434800
I0521 00:02:48.043606  9747 layer_factory.hpp:77] Creating layer drop3
I0521 00:02:48.043618  9747 net.cpp:106] Creating Layer drop3
I0521 00:02:48.043628  9747 net.cpp:454] drop3 <- ip3
I0521 00:02:48.043642  9747 net.cpp:397] drop3 -> ip3 (in-place)
I0521 00:02:48.043683  9747 net.cpp:150] Setting up drop3
I0521 00:02:48.043695  9747 net.cpp:157] Top shape: 450 11 (4950)
I0521 00:02:48.043705  9747 net.cpp:165] Memory required for data: 710454600
I0521 00:02:48.043715  9747 layer_factory.hpp:77] Creating layer ip3_drop3_0_split
I0521 00:02:48.043728  9747 net.cpp:106] Creating Layer ip3_drop3_0_split
I0521 00:02:48.043738  9747 net.cpp:454] ip3_drop3_0_split <- ip3
I0521 00:02:48.043751  9747 net.cpp:411] ip3_drop3_0_split -> ip3_drop3_0_split_0
I0521 00:02:48.043766  9747 net.cpp:411] ip3_drop3_0_split -> ip3_drop3_0_split_1
I0521 00:02:48.043839  9747 net.cpp:150] Setting up ip3_drop3_0_split
I0521 00:02:48.043853  9747 net.cpp:157] Top shape: 450 11 (4950)
I0521 00:02:48.043864  9747 net.cpp:157] Top shape: 450 11 (4950)
I0521 00:02:48.043874  9747 net.cpp:165] Memory required for data: 710494200
I0521 00:02:48.043885  9747 layer_factory.hpp:77] Creating layer accuracy
I0521 00:02:48.043906  9747 net.cpp:106] Creating Layer accuracy
I0521 00:02:48.043917  9747 net.cpp:454] accuracy <- ip3_drop3_0_split_0
I0521 00:02:48.043928  9747 net.cpp:454] accuracy <- label_data_hdf5_1_split_0
I0521 00:02:48.043942  9747 net.cpp:411] accuracy -> accuracy
…
