…
I0520 12:19:00.441854 26709 net.cpp:322] The NetState phase (0) differed from the phase (1) specified by a rule in layer data_hdf5
I0520 12:19:00.441913 26709 net.cpp:322] The NetState phase (0) differed from the phase (1) specified by a rule in layer accuracy
I0520 12:19:00.442261 26709 net.cpp:49] Initializing net from parameters: 
name: "caffe_test_127x50_x_unshifted"
state {
  phase: TRAIN
}
layer {
  name: "data_hdf5"
  type: "HDF5Data"
  top: "data"
  top: "label"
  include {
    phase: TRAIN
  }
  hdf5_data_param {
    source: "/lustre/atlas/proj-shared/hep105/caffe_titan/minosmatch_nukecczdefs_127x50_x_unshifted_me1Bmc.trainlist"
    batch_size: 30
  }
}
layer {
  name: "conv1"
  type: "Convolution"
  bottom: "data"
  top: "conv1"
  convolution_param {
    num_output: 12
    pad: 0
    stride: 1
    weight_filler {
      type: "xavier"
    }
    bias_filler {
      type: "constant"
    }
    kernel_h: 8
    kernel_w: 3
  }
}
layer {
  name: "relu1"
  type: "ReLU"
  bottom: "conv1"
  top: "conv1"
}
layer {
  name: "pool1"
  type: "Pooling"
  bottom: "conv1"
  top: "pool1"
  pooling_param {
    pool: MAX
    kernel_h: 2
    kernel_w: 1
    stride_h: 2
    stride_w: 1
  }
}
layer {
  name: "conv2"
  type: "Convolution"
  bottom: "pool1"
  top: "conv2"
  convolution_param {
    num_output: 20
    pad: 0
    stride: 1
    weight_filler {
      type: "xavier"
    }
    bias_filler {
      type: "constant"
    }
    kernel_h: 7
    kernel_w: 3
  }
}
layer {
  name: "relu2"
  type: "ReLU"
  bottom: "conv2"
  top: "conv2"
}
layer {
  name: "pool2"
  type: "Pooling"
  bottom: "conv2"
  top: "pool2"
  pooling_param {
    pool: MAX
    kernel_h: 2
    kernel_w: 1
    stride_h: 2
    stride_w: 1
  }
}
layer {
  name: "conv3"
  type: "Convolution"
  bottom: "pool2"
  top: "conv3"
  convolution_param {
    num_output: 28
    pad: 0
    stride: 1
    weight_filler {
      type: "xavier"
    }
    bias_filler {
      type: "constant"
    }
    kernel_h: 6
    kernel_w: 3
  }
}
layer {
  name: "relu3"
  type: "ReLU"
  bottom: "conv3"
  top: "conv3"
}
layer {
  name: "pool3"
  type: "Pooling"
  bottom: "conv3"
  top: "pool3"
  pooling_param {
    pool: MAX
    kernel_h: 2
    kernel_w: 1
    stride_h: 2
    stride_w: 1
  }
}
layer {
  name: "conv4"
  type: "Convolution"
  bottom: "pool3"
  top: "conv4"
  convolution_param {
    num_output: 36
    pad: 0
    stride: 1
    weight_filler {
      type: "xavier"
    }
    bias_filler {
      type: "constant"
    }
    kernel_h: 6
    kernel_w: 3
  }
}
layer {
  name: "relu4"
  type: "ReLU"
  bottom: "conv4"
  top: "conv4"
}
layer {
  name: "pool4"
  type: "Pooling"
  bottom: "conv4"
  top: "pool4"
  pooling_param {
    pool: MAX
    kernel_h: 2
    kernel_w: 1
    stride_h: 2
    stride_w: 1
  }
}
layer {
  name: "ip1"
  type: "InnerProduct"
  bottom: "pool4"
  top: "ip1"
  inner_product_param {
    num_output: 196
    weight_filler {
      type: "xavier"
    }
    bias_filler {
      type: "constant"
    }
  }
}
layer {
  name: "relu5"
  type: "ReLU"
  bottom: "ip1"
  top: "ip1"
}
layer {
  name: "drop1"
  type: "Dropout"
  bottom: "ip1"
  top: "ip1"
  dropout_param {
    dropout_ratio: 0.5
  }
}
layer {
  name: "ip2"
  type: "InnerProduct"
  bottom: "ip1"
  top: "ip2"
  inner_product_param {
    num_output: 98
    weight_filler {
      type: "xavier"
    }
    bias_filler {
      type: "constant"
    }
  }
}
layer {
  name: "relu6"
  type: "ReLU"
  bottom: "ip2"
  top: "ip2"
}
layer {
  name: "drop2"
  type: "Dropout"
  bottom: "ip2"
  top: "ip2"
  dropout_param {
    dropout_ratio: 0.5
  }
}
layer {
  name: "ip3"
  type: "InnerProduct"
  bottom: "ip2"
  top: "ip3"
  inner_product_param {
    num_output: 11
    weight_filler {
      type: "xavier"
    }
    bias_filler {
      type: "constant"
    }
  }
}
layer {
  name: "drop3"
  type: "Dropout"
  bottom: "ip3"
  top: "ip3"
  dropout_param {
    dropout_ratio: 0.5
  }
}
layer {
  name: "loss"
  type: "SoftmaxWithLoss"
  bottom: "ip3"
  bottom: "label"
  top: "loss"
}
I0520 12:19:00.442440 26709 layer_factory.hpp:77] Creating layer data_hdf5
I0520 12:19:00.442463 26709 net.cpp:106] Creating Layer data_hdf5
I0520 12:19:00.442477 26709 net.cpp:411] data_hdf5 -> data
I0520 12:19:00.442512 26709 net.cpp:411] data_hdf5 -> label
I0520 12:19:00.442544 26709 hdf5_data_layer.cpp:79] Loading list of HDF5 filenames from: /lustre/atlas/proj-shared/hep105/caffe_titan/minosmatch_nukecczdefs_127x50_x_unshifted_me1Bmc.trainlist
I0520 12:19:00.443821 26709 hdf5_data_layer.cpp:93] Number of HDF5 files: 15
I0520 12:19:00.446027 26709 hdf5.cpp:32] Datatype class: H5T_FLOAT
I0520 12:19:21.947618 26709 hdf5.cpp:35] Datatype class: H5T_INTEGER
I0520 12:19:21.952718 26709 net.cpp:150] Setting up data_hdf5
I0520 12:19:21.952756 26709 net.cpp:157] Top shape: 30 1 127 50 (190500)
I0520 12:19:21.952771 26709 net.cpp:157] Top shape: 30 (30)
I0520 12:19:21.952782 26709 net.cpp:165] Memory required for data: 762120
I0520 12:19:21.952796 26709 layer_factory.hpp:77] Creating layer conv1
I0520 12:19:21.952829 26709 net.cpp:106] Creating Layer conv1
I0520 12:19:21.952841 26709 net.cpp:454] conv1 <- data
I0520 12:19:21.952859 26709 net.cpp:411] conv1 -> conv1
I0520 12:19:22.332799 26709 net.cpp:150] Setting up conv1
I0520 12:19:22.332844 26709 net.cpp:157] Top shape: 30 12 120 48 (2073600)
I0520 12:19:22.332859 26709 net.cpp:165] Memory required for data: 9056520
I0520 12:19:22.332887 26709 layer_factory.hpp:77] Creating layer relu1
I0520 12:19:22.332908 26709 net.cpp:106] Creating Layer relu1
I0520 12:19:22.332919 26709 net.cpp:454] relu1 <- conv1
I0520 12:19:22.332933 26709 net.cpp:397] relu1 -> conv1 (in-place)
I0520 12:19:22.333448 26709 net.cpp:150] Setting up relu1
I0520 12:19:22.333464 26709 net.cpp:157] Top shape: 30 12 120 48 (2073600)
I0520 12:19:22.333475 26709 net.cpp:165] Memory required for data: 17350920
I0520 12:19:22.333484 26709 layer_factory.hpp:77] Creating layer pool1
I0520 12:19:22.333501 26709 net.cpp:106] Creating Layer pool1
I0520 12:19:22.333510 26709 net.cpp:454] pool1 <- conv1
I0520 12:19:22.333523 26709 net.cpp:411] pool1 -> pool1
I0520 12:19:22.333603 26709 net.cpp:150] Setting up pool1
I0520 12:19:22.333617 26709 net.cpp:157] Top shape: 30 12 60 48 (1036800)
I0520 12:19:22.333627 26709 net.cpp:165] Memory required for data: 21498120
I0520 12:19:22.333638 26709 layer_factory.hpp:77] Creating layer conv2
I0520 12:19:22.333659 26709 net.cpp:106] Creating Layer conv2
I0520 12:19:22.333670 26709 net.cpp:454] conv2 <- pool1
I0520 12:19:22.333683 26709 net.cpp:411] conv2 -> conv2
I0520 12:19:22.336372 26709 net.cpp:150] Setting up conv2
I0520 12:19:22.336400 26709 net.cpp:157] Top shape: 30 20 54 46 (1490400)
I0520 12:19:22.336410 26709 net.cpp:165] Memory required for data: 27459720
I0520 12:19:22.336429 26709 layer_factory.hpp:77] Creating layer relu2
I0520 12:19:22.336443 26709 net.cpp:106] Creating Layer relu2
I0520 12:19:22.336452 26709 net.cpp:454] relu2 <- conv2
I0520 12:19:22.336465 26709 net.cpp:397] relu2 -> conv2 (in-place)
I0520 12:19:22.336796 26709 net.cpp:150] Setting up relu2
I0520 12:19:22.336809 26709 net.cpp:157] Top shape: 30 20 54 46 (1490400)
I0520 12:19:22.336819 26709 net.cpp:165] Memory required for data: 33421320
I0520 12:19:22.336829 26709 layer_factory.hpp:77] Creating layer pool2
I0520 12:19:22.336843 26709 net.cpp:106] Creating Layer pool2
I0520 12:19:22.336853 26709 net.cpp:454] pool2 <- conv2
I0520 12:19:22.336877 26709 net.cpp:411] pool2 -> pool2
I0520 12:19:22.336946 26709 net.cpp:150] Setting up pool2
I0520 12:19:22.336958 26709 net.cpp:157] Top shape: 30 20 27 46 (745200)
I0520 12:19:22.336968 26709 net.cpp:165] Memory required for data: 36402120
I0520 12:19:22.336978 26709 layer_factory.hpp:77] Creating layer conv3
I0520 12:19:22.336997 26709 net.cpp:106] Creating Layer conv3
I0520 12:19:22.337007 26709 net.cpp:454] conv3 <- pool2
I0520 12:19:22.337020 26709 net.cpp:411] conv3 -> conv3
I0520 12:19:22.338976 26709 net.cpp:150] Setting up conv3
I0520 12:19:22.339000 26709 net.cpp:157] Top shape: 30 28 22 44 (813120)
I0520 12:19:22.339012 26709 net.cpp:165] Memory required for data: 39654600
I0520 12:19:22.339030 26709 layer_factory.hpp:77] Creating layer relu3
I0520 12:19:22.339046 26709 net.cpp:106] Creating Layer relu3
I0520 12:19:22.339056 26709 net.cpp:454] relu3 <- conv3
I0520 12:19:22.339068 26709 net.cpp:397] relu3 -> conv3 (in-place)
I0520 12:19:22.339556 26709 net.cpp:150] Setting up relu3
I0520 12:19:22.339573 26709 net.cpp:157] Top shape: 30 28 22 44 (813120)
I0520 12:19:22.339584 26709 net.cpp:165] Memory required for data: 42907080
I0520 12:19:22.339594 26709 layer_factory.hpp:77] Creating layer pool3
I0520 12:19:22.339607 26709 net.cpp:106] Creating Layer pool3
I0520 12:19:22.339617 26709 net.cpp:454] pool3 <- conv3
I0520 12:19:22.339630 26709 net.cpp:411] pool3 -> pool3
I0520 12:19:22.339699 26709 net.cpp:150] Setting up pool3
I0520 12:19:22.339711 26709 net.cpp:157] Top shape: 30 28 11 44 (406560)
I0520 12:19:22.339721 26709 net.cpp:165] Memory required for data: 44533320
I0520 12:19:22.339730 26709 layer_factory.hpp:77] Creating layer conv4
I0520 12:19:22.339747 26709 net.cpp:106] Creating Layer conv4
I0520 12:19:22.339757 26709 net.cpp:454] conv4 <- pool3
I0520 12:19:22.339771 26709 net.cpp:411] conv4 -> conv4
I0520 12:19:22.342489 26709 net.cpp:150] Setting up conv4
I0520 12:19:22.342515 26709 net.cpp:157] Top shape: 30 36 6 42 (272160)
I0520 12:19:22.342525 26709 net.cpp:165] Memory required for data: 45621960
I0520 12:19:22.342541 26709 layer_factory.hpp:77] Creating layer relu4
I0520 12:19:22.342555 26709 net.cpp:106] Creating Layer relu4
I0520 12:19:22.342566 26709 net.cpp:454] relu4 <- conv4
I0520 12:19:22.342578 26709 net.cpp:397] relu4 -> conv4 (in-place)
I0520 12:19:22.343040 26709 net.cpp:150] Setting up relu4
I0520 12:19:22.343056 26709 net.cpp:157] Top shape: 30 36 6 42 (272160)
I0520 12:19:22.343067 26709 net.cpp:165] Memory required for data: 46710600
I0520 12:19:22.343077 26709 layer_factory.hpp:77] Creating layer pool4
I0520 12:19:22.343091 26709 net.cpp:106] Creating Layer pool4
I0520 12:19:22.343099 26709 net.cpp:454] pool4 <- conv4
I0520 12:19:22.343112 26709 net.cpp:411] pool4 -> pool4
I0520 12:19:22.343180 26709 net.cpp:150] Setting up pool4
I0520 12:19:22.343194 26709 net.cpp:157] Top shape: 30 36 3 42 (136080)
I0520 12:19:22.343204 26709 net.cpp:165] Memory required for data: 47254920
I0520 12:19:22.343214 26709 layer_factory.hpp:77] Creating layer ip1
I0520 12:19:22.343233 26709 net.cpp:106] Creating Layer ip1
I0520 12:19:22.343243 26709 net.cpp:454] ip1 <- pool4
I0520 12:19:22.343256 26709 net.cpp:411] ip1 -> ip1
I0520 12:19:22.358710 26709 net.cpp:150] Setting up ip1
I0520 12:19:22.358738 26709 net.cpp:157] Top shape: 30 196 (5880)
I0520 12:19:22.358750 26709 net.cpp:165] Memory required for data: 47278440
I0520 12:19:22.358772 26709 layer_factory.hpp:77] Creating layer relu5
I0520 12:19:22.358788 26709 net.cpp:106] Creating Layer relu5
I0520 12:19:22.358798 26709 net.cpp:454] relu5 <- ip1
I0520 12:19:22.358810 26709 net.cpp:397] relu5 -> ip1 (in-place)
I0520 12:19:22.359149 26709 net.cpp:150] Setting up relu5
I0520 12:19:22.359164 26709 net.cpp:157] Top shape: 30 196 (5880)
I0520 12:19:22.359174 26709 net.cpp:165] Memory required for data: 47301960
I0520 12:19:22.359185 26709 layer_factory.hpp:77] Creating layer drop1
I0520 12:19:22.359206 26709 net.cpp:106] Creating Layer drop1
I0520 12:19:22.359215 26709 net.cpp:454] drop1 <- ip1
I0520 12:19:22.359228 26709 net.cpp:397] drop1 -> ip1 (in-place)
I0520 12:19:22.359294 26709 net.cpp:150] Setting up drop1
I0520 12:19:22.359308 26709 net.cpp:157] Top shape: 30 196 (5880)
I0520 12:19:22.359318 26709 net.cpp:165] Memory required for data: 47325480
I0520 12:19:22.359328 26709 layer_factory.hpp:77] Creating layer ip2
I0520 12:19:22.359345 26709 net.cpp:106] Creating Layer ip2
I0520 12:19:22.359356 26709 net.cpp:454] ip2 <- ip1
I0520 12:19:22.359369 26709 net.cpp:411] ip2 -> ip2
I0520 12:19:22.359829 26709 net.cpp:150] Setting up ip2
I0520 12:19:22.359843 26709 net.cpp:157] Top shape: 30 98 (2940)
I0520 12:19:22.359853 26709 net.cpp:165] Memory required for data: 47337240
I0520 12:19:22.359868 26709 layer_factory.hpp:77] Creating layer relu6
I0520 12:19:22.359880 26709 net.cpp:106] Creating Layer relu6
I0520 12:19:22.359889 26709 net.cpp:454] relu6 <- ip2
I0520 12:19:22.359901 26709 net.cpp:397] relu6 -> ip2 (in-place)
I0520 12:19:22.360416 26709 net.cpp:150] Setting up relu6
I0520 12:19:22.360432 26709 net.cpp:157] Top shape: 30 98 (2940)
I0520 12:19:22.360443 26709 net.cpp:165] Memory required for data: 47349000
I0520 12:19:22.360455 26709 layer_factory.hpp:77] Creating layer drop2
I0520 12:19:22.360467 26709 net.cpp:106] Creating Layer drop2
I0520 12:19:22.360477 26709 net.cpp:454] drop2 <- ip2
I0520 12:19:22.360491 26709 net.cpp:397] drop2 -> ip2 (in-place)
I0520 12:19:22.360532 26709 net.cpp:150] Setting up drop2
I0520 12:19:22.360545 26709 net.cpp:157] Top shape: 30 98 (2940)
I0520 12:19:22.360555 26709 net.cpp:165] Memory required for data: 47360760
I0520 12:19:22.360564 26709 layer_factory.hpp:77] Creating layer ip3
I0520 12:19:22.360579 26709 net.cpp:106] Creating Layer ip3
I0520 12:19:22.360587 26709 net.cpp:454] ip3 <- ip2
I0520 12:19:22.360601 26709 net.cpp:411] ip3 -> ip3
I0520 12:19:22.360811 26709 net.cpp:150] Setting up ip3
I0520 12:19:22.360824 26709 net.cpp:157] Top shape: 30 11 (330)
I0520 12:19:22.360834 26709 net.cpp:165] Memory required for data: 47362080
I0520 12:19:22.360849 26709 layer_factory.hpp:77] Creating layer drop3
I0520 12:19:22.360862 26709 net.cpp:106] Creating Layer drop3
I0520 12:19:22.360872 26709 net.cpp:454] drop3 <- ip3
I0520 12:19:22.360883 26709 net.cpp:397] drop3 -> ip3 (in-place)
I0520 12:19:22.360923 26709 net.cpp:150] Setting up drop3
I0520 12:19:22.360935 26709 net.cpp:157] Top shape: 30 11 (330)
I0520 12:19:22.360945 26709 net.cpp:165] Memory required for data: 47363400
I0520 12:19:22.360954 26709 layer_factory.hpp:77] Creating layer loss
I0520 12:19:22.360973 26709 net.cpp:106] Creating Layer loss
I0520 12:19:22.360983 26709 net.cpp:454] loss <- ip3
I0520 12:19:22.360994 26709 net.cpp:454] loss <- label
I0520 12:19:22.361007 26709 net.cpp:411] loss -> loss
I0520 12:19:22.361024 26709 layer_factory.hpp:77] Creating layer loss
…
I0520 12:19:22.363605 26709 solver.cpp:181] Creating test net (#0) specified by net file: /lustre/atlas/proj-shared/hep105/caffe_titan/caffe_workflow/logs_batch_size_test/batch_size_30_2016-05-20T11.20.33.810543.prototxt
I0520 12:19:22.363674 26709 net.cpp:322] The NetState phase (1) differed from the phase (0) specified by a rule in layer data_hdf5
I0520 12:19:22.364029 26709 net.cpp:49] Initializing net from parameters: 
name: "caffe_test_127x50_x_unshifted"
state {
  phase: TEST
}
layer {
  name: "data_hdf5"
  type: "HDF5Data"
  top: "data"
  top: "label"
  include {
    phase: TEST
  }
  hdf5_data_param {
    source: "/lustre/atlas/proj-shared/hep105/caffe_titan/minosmatch_nukecczdefs_127x50_x_unshifted_me1Bmc.testlist"
    batch_size: 30
  }
}
layer {
  name: "conv1"
  type: "Convolution"
  bottom: "data"
  top: "conv1"
  convolution_param {
    num_output: 12
    pad: 0
    stride: 1
    weight_filler {
      type: "xavier"
    }
    bias_filler {
      type: "constant"
    }
    kernel_h: 8
    kernel_w: 3
  }
}
layer {
  name: "relu1"
  type: "ReLU"
  bottom: "conv1"
  top: "conv1"
}
layer {
  name: "pool1"
  type: "Pooling"
  bottom: "conv1"
  top: "pool1"
  pooling_param {
    pool: MAX
    kernel_h: 2
    kernel_w: 1
    stride_h: 2
    stride_w: 1
  }
}
layer {
  name: "conv2"
  type: "Convolution"
  bottom: "pool1"
  top: "conv2"
  convolution_param {
    num_output: 20
    pad: 0
    stride: 1
    weight_filler {
      type: "xavier"
    }
    bias_filler {
      type: "constant"
    }
    kernel_h: 7
    kernel_w: 3
  }
}
layer {
  name: "relu2"
  type: "ReLU"
  bottom: "conv2"
  top: "conv2"
}
layer {
  name: "pool2"
  type: "Pooling"
  bottom: "conv2"
  top: "pool2"
  pooling_param {
    pool: MAX
    kernel_h: 2
    kernel_w: 1
    stride_h: 2
    stride_w: 1
  }
}
layer {
  name: "conv3"
  type: "Convolution"
  bottom: "pool2"
  top: "conv3"
  convolution_param {
    num_output: 28
    pad: 0
    stride: 1
    weight_filler {
      type: "xavier"
    }
    bias_filler {
      type: "constant"
    }
    kernel_h: 6
    kernel_w: 3
  }
}
layer {
  name: "relu3"
  type: "ReLU"
  bottom: "conv3"
  top: "conv3"
}
layer {
  name: "pool3"
  type: "Pooling"
  bottom: "conv3"
  top: "pool3"
  pooling_param {
    pool: MAX
    kernel_h: 2
    kernel_w: 1
    stride_h: 2
    stride_w: 1
  }
}
layer {
  name: "conv4"
  type: "Convolution"
  bottom: "pool3"
  top: "conv4"
  convolution_param {
    num_output: 36
    pad: 0
    stride: 1
    weight_filler {
      type: "xavier"
    }
    bias_filler {
      type: "constant"
    }
    kernel_h: 6
    kernel_w: 3
  }
}
layer {
  name: "relu4"
  type: "ReLU"
  bottom: "conv4"
  top: "conv4"
}
layer {
  name: "pool4"
  type: "Pooling"
  bottom: "conv4"
  top: "pool4"
  pooling_param {
    pool: MAX
    kernel_h: 2
    kernel_w: 1
    stride_h: 2
    stride_w: 1
  }
}
layer {
  name: "ip1"
  type: "InnerProduct"
  bottom: "pool4"
  top: "ip1"
  inner_product_param {
    num_output: 196
    weight_filler {
      type: "xavier"
    }
    bias_filler {
      type: "constant"
    }
  }
}
layer {
  name: "relu5"
  type: "ReLU"
  bottom: "ip1"
  top: "ip1"
}
layer {
  name: "drop1"
  type: "Dropout"
  bottom: "ip1"
  top: "ip1"
  dropout_param {
    dropout_ratio: 0.5
  }
}
layer {
  name: "ip2"
  type: "InnerProduct"
  bottom: "ip1"
  top: "ip2"
  inner_product_param {
    num_output: 98
    weight_filler {
      type: "xavier"
    }
    bias_filler {
      type: "constant"
    }
  }
}
layer {
  name: "relu6"
  type: "ReLU"
  bottom: "ip2"
  top: "ip2"
}
layer {
  name: "drop2"
  type: "Dropout"
  bottom: "ip2"
  top: "ip2"
  dropout_param {
    dropout_ratio: 0.5
  }
}
layer {
  name: "ip3"
  type: "InnerProduct"
  bottom: "ip2"
  top: "ip3"
  inner_product_param {
    num_output: 11
    weight_filler {
      type: "xavier"
    }
    bias_filler {
      type: "constant"
    }
  }
}
layer {
  name: "drop3"
  type: "Dropout"
  bottom: "ip3"
  top: "ip3"
  dropout_param {
    dropout_ratio: 0.5
  }
}
layer {
  name: "accuracy"
  type: "Accuracy"
  bottom: "ip3"
  bottom: "label"
  top: "accuracy"
  include {
    phase: TEST
  }
}
layer {
  name: "loss"
  type: "SoftmaxWithLoss"
  bottom: "ip3"
  bottom: "label"
  top: "loss"
}
I0520 12:19:22.364218 26709 layer_factory.hpp:77] Creating layer data_hdf5
I0520 12:19:22.364233 26709 net.cpp:106] Creating Layer data_hdf5
I0520 12:19:22.364245 26709 net.cpp:411] data_hdf5 -> data
I0520 12:19:22.364262 26709 net.cpp:411] data_hdf5 -> label
I0520 12:19:22.364279 26709 hdf5_data_layer.cpp:79] Loading list of HDF5 filenames from: /lustre/atlas/proj-shared/hep105/caffe_titan/minosmatch_nukecczdefs_127x50_x_unshifted_me1Bmc.testlist
I0520 12:19:22.365571 26709 hdf5_data_layer.cpp:93] Number of HDF5 files: 3
I0520 12:19:43.667089 26709 net.cpp:150] Setting up data_hdf5
I0520 12:19:43.667254 26709 net.cpp:157] Top shape: 30 1 127 50 (190500)
I0520 12:19:43.667268 26709 net.cpp:157] Top shape: 30 (30)
I0520 12:19:43.667289 26709 net.cpp:165] Memory required for data: 762120
I0520 12:19:43.667302 26709 layer_factory.hpp:77] Creating layer label_data_hdf5_1_split
I0520 12:19:43.667331 26709 net.cpp:106] Creating Layer label_data_hdf5_1_split
I0520 12:19:43.667341 26709 net.cpp:454] label_data_hdf5_1_split <- label
I0520 12:19:43.667356 26709 net.cpp:411] label_data_hdf5_1_split -> label_data_hdf5_1_split_0
I0520 12:19:43.667378 26709 net.cpp:411] label_data_hdf5_1_split -> label_data_hdf5_1_split_1
I0520 12:19:43.667451 26709 net.cpp:150] Setting up label_data_hdf5_1_split
I0520 12:19:43.667464 26709 net.cpp:157] Top shape: 30 (30)
I0520 12:19:43.667476 26709 net.cpp:157] Top shape: 30 (30)
I0520 12:19:43.667486 26709 net.cpp:165] Memory required for data: 762360
I0520 12:19:43.667495 26709 layer_factory.hpp:77] Creating layer conv1
I0520 12:19:43.667516 26709 net.cpp:106] Creating Layer conv1
I0520 12:19:43.667526 26709 net.cpp:454] conv1 <- data
I0520 12:19:43.667541 26709 net.cpp:411] conv1 -> conv1
I0520 12:19:43.669464 26709 net.cpp:150] Setting up conv1
I0520 12:19:43.669483 26709 net.cpp:157] Top shape: 30 12 120 48 (2073600)
I0520 12:19:43.669493 26709 net.cpp:165] Memory required for data: 9056760
I0520 12:19:43.669514 26709 layer_factory.hpp:77] Creating layer relu1
I0520 12:19:43.669529 26709 net.cpp:106] Creating Layer relu1
I0520 12:19:43.669539 26709 net.cpp:454] relu1 <- conv1
I0520 12:19:43.669553 26709 net.cpp:397] relu1 -> conv1 (in-place)
I0520 12:19:43.670049 26709 net.cpp:150] Setting up relu1
I0520 12:19:43.670065 26709 net.cpp:157] Top shape: 30 12 120 48 (2073600)
I0520 12:19:43.670076 26709 net.cpp:165] Memory required for data: 17351160
I0520 12:19:43.670086 26709 layer_factory.hpp:77] Creating layer pool1
I0520 12:19:43.670102 26709 net.cpp:106] Creating Layer pool1
I0520 12:19:43.670112 26709 net.cpp:454] pool1 <- conv1
I0520 12:19:43.670125 26709 net.cpp:411] pool1 -> pool1
I0520 12:19:43.670200 26709 net.cpp:150] Setting up pool1
I0520 12:19:43.670213 26709 net.cpp:157] Top shape: 30 12 60 48 (1036800)
I0520 12:19:43.670223 26709 net.cpp:165] Memory required for data: 21498360
I0520 12:19:43.670233 26709 layer_factory.hpp:77] Creating layer conv2
I0520 12:19:43.670250 26709 net.cpp:106] Creating Layer conv2
I0520 12:19:43.670261 26709 net.cpp:454] conv2 <- pool1
I0520 12:19:43.670275 26709 net.cpp:411] conv2 -> conv2
I0520 12:19:43.672196 26709 net.cpp:150] Setting up conv2
I0520 12:19:43.672214 26709 net.cpp:157] Top shape: 30 20 54 46 (1490400)
I0520 12:19:43.672230 26709 net.cpp:165] Memory required for data: 27459960
I0520 12:19:43.672248 26709 layer_factory.hpp:77] Creating layer relu2
I0520 12:19:43.672261 26709 net.cpp:106] Creating Layer relu2
I0520 12:19:43.672272 26709 net.cpp:454] relu2 <- conv2
I0520 12:19:43.672284 26709 net.cpp:397] relu2 -> conv2 (in-place)
I0520 12:19:43.672616 26709 net.cpp:150] Setting up relu2
I0520 12:19:43.672629 26709 net.cpp:157] Top shape: 30 20 54 46 (1490400)
I0520 12:19:43.672639 26709 net.cpp:165] Memory required for data: 33421560
I0520 12:19:43.672649 26709 layer_factory.hpp:77] Creating layer pool2
I0520 12:19:43.672662 26709 net.cpp:106] Creating Layer pool2
I0520 12:19:43.672672 26709 net.cpp:454] pool2 <- conv2
I0520 12:19:43.672684 26709 net.cpp:411] pool2 -> pool2
I0520 12:19:43.672755 26709 net.cpp:150] Setting up pool2
I0520 12:19:43.672768 26709 net.cpp:157] Top shape: 30 20 27 46 (745200)
I0520 12:19:43.672777 26709 net.cpp:165] Memory required for data: 36402360
I0520 12:19:43.672787 26709 layer_factory.hpp:77] Creating layer conv3
I0520 12:19:43.672806 26709 net.cpp:106] Creating Layer conv3
I0520 12:19:43.672817 26709 net.cpp:454] conv3 <- pool2
I0520 12:19:43.672832 26709 net.cpp:411] conv3 -> conv3
I0520 12:19:43.674794 26709 net.cpp:150] Setting up conv3
I0520 12:19:43.674818 26709 net.cpp:157] Top shape: 30 28 22 44 (813120)
I0520 12:19:43.674829 26709 net.cpp:165] Memory required for data: 39654840
I0520 12:19:43.674861 26709 layer_factory.hpp:77] Creating layer relu3
I0520 12:19:43.674875 26709 net.cpp:106] Creating Layer relu3
I0520 12:19:43.674885 26709 net.cpp:454] relu3 <- conv3
I0520 12:19:43.674898 26709 net.cpp:397] relu3 -> conv3 (in-place)
I0520 12:19:43.675375 26709 net.cpp:150] Setting up relu3
I0520 12:19:43.675391 26709 net.cpp:157] Top shape: 30 28 22 44 (813120)
I0520 12:19:43.675402 26709 net.cpp:165] Memory required for data: 42907320
I0520 12:19:43.675412 26709 layer_factory.hpp:77] Creating layer pool3
I0520 12:19:43.675426 26709 net.cpp:106] Creating Layer pool3
I0520 12:19:43.675436 26709 net.cpp:454] pool3 <- conv3
I0520 12:19:43.675448 26709 net.cpp:411] pool3 -> pool3
I0520 12:19:43.675520 26709 net.cpp:150] Setting up pool3
I0520 12:19:43.675534 26709 net.cpp:157] Top shape: 30 28 11 44 (406560)
I0520 12:19:43.675544 26709 net.cpp:165] Memory required for data: 44533560
I0520 12:19:43.675550 26709 layer_factory.hpp:77] Creating layer conv4
I0520 12:19:43.675568 26709 net.cpp:106] Creating Layer conv4
I0520 12:19:43.675580 26709 net.cpp:454] conv4 <- pool3
I0520 12:19:43.675591 26709 net.cpp:411] conv4 -> conv4
I0520 12:19:43.677649 26709 net.cpp:150] Setting up conv4
I0520 12:19:43.677670 26709 net.cpp:157] Top shape: 30 36 6 42 (272160)
I0520 12:19:43.677683 26709 net.cpp:165] Memory required for data: 45622200
I0520 12:19:43.677698 26709 layer_factory.hpp:77] Creating layer relu4
I0520 12:19:43.677711 26709 net.cpp:106] Creating Layer relu4
I0520 12:19:43.677721 26709 net.cpp:454] relu4 <- conv4
I0520 12:19:43.677734 26709 net.cpp:397] relu4 -> conv4 (in-place)
I0520 12:19:43.678202 26709 net.cpp:150] Setting up relu4
I0520 12:19:43.678218 26709 net.cpp:157] Top shape: 30 36 6 42 (272160)
I0520 12:19:43.678228 26709 net.cpp:165] Memory required for data: 46710840
I0520 12:19:43.678238 26709 layer_factory.hpp:77] Creating layer pool4
I0520 12:19:43.678251 26709 net.cpp:106] Creating Layer pool4
I0520 12:19:43.678261 26709 net.cpp:454] pool4 <- conv4
I0520 12:19:43.678273 26709 net.cpp:411] pool4 -> pool4
I0520 12:19:43.678345 26709 net.cpp:150] Setting up pool4
I0520 12:19:43.678359 26709 net.cpp:157] Top shape: 30 36 3 42 (136080)
I0520 12:19:43.678369 26709 net.cpp:165] Memory required for data: 47255160
I0520 12:19:43.678378 26709 layer_factory.hpp:77] Creating layer ip1
I0520 12:19:43.678393 26709 net.cpp:106] Creating Layer ip1
I0520 12:19:43.678403 26709 net.cpp:454] ip1 <- pool4
I0520 12:19:43.678417 26709 net.cpp:411] ip1 -> ip1
I0520 12:19:43.693955 26709 net.cpp:150] Setting up ip1
I0520 12:19:43.693984 26709 net.cpp:157] Top shape: 30 196 (5880)
I0520 12:19:43.694000 26709 net.cpp:165] Memory required for data: 47278680
I0520 12:19:43.694026 26709 layer_factory.hpp:77] Creating layer relu5
I0520 12:19:43.694041 26709 net.cpp:106] Creating Layer relu5
I0520 12:19:43.694051 26709 net.cpp:454] relu5 <- ip1
I0520 12:19:43.694064 26709 net.cpp:397] relu5 -> ip1 (in-place)
I0520 12:19:43.694412 26709 net.cpp:150] Setting up relu5
I0520 12:19:43.694427 26709 net.cpp:157] Top shape: 30 196 (5880)
I0520 12:19:43.694437 26709 net.cpp:165] Memory required for data: 47302200
I0520 12:19:43.694447 26709 layer_factory.hpp:77] Creating layer drop1
I0520 12:19:43.694464 26709 net.cpp:106] Creating Layer drop1
I0520 12:19:43.694474 26709 net.cpp:454] drop1 <- ip1
I0520 12:19:43.694488 26709 net.cpp:397] drop1 -> ip1 (in-place)
I0520 12:19:43.694533 26709 net.cpp:150] Setting up drop1
I0520 12:19:43.694546 26709 net.cpp:157] Top shape: 30 196 (5880)
I0520 12:19:43.694556 26709 net.cpp:165] Memory required for data: 47325720
I0520 12:19:43.694566 26709 layer_factory.hpp:77] Creating layer ip2
I0520 12:19:43.694581 26709 net.cpp:106] Creating Layer ip2
I0520 12:19:43.694591 26709 net.cpp:454] ip2 <- ip1
I0520 12:19:43.694603 26709 net.cpp:411] ip2 -> ip2
I0520 12:19:43.695080 26709 net.cpp:150] Setting up ip2
I0520 12:19:43.695093 26709 net.cpp:157] Top shape: 30 98 (2940)
I0520 12:19:43.695103 26709 net.cpp:165] Memory required for data: 47337480
I0520 12:19:43.695119 26709 layer_factory.hpp:77] Creating layer relu6
I0520 12:19:43.695144 26709 net.cpp:106] Creating Layer relu6
I0520 12:19:43.695155 26709 net.cpp:454] relu6 <- ip2
I0520 12:19:43.695168 26709 net.cpp:397] relu6 -> ip2 (in-place)
I0520 12:19:43.695705 26709 net.cpp:150] Setting up relu6
I0520 12:19:43.695729 26709 net.cpp:157] Top shape: 30 98 (2940)
I0520 12:19:43.695739 26709 net.cpp:165] Memory required for data: 47349240
I0520 12:19:43.695749 26709 layer_factory.hpp:77] Creating layer drop2
I0520 12:19:43.695762 26709 net.cpp:106] Creating Layer drop2
I0520 12:19:43.695772 26709 net.cpp:454] drop2 <- ip2
I0520 12:19:43.695785 26709 net.cpp:397] drop2 -> ip2 (in-place)
I0520 12:19:43.695829 26709 net.cpp:150] Setting up drop2
I0520 12:19:43.695842 26709 net.cpp:157] Top shape: 30 98 (2940)
I0520 12:19:43.695852 26709 net.cpp:165] Memory required for data: 47361000
I0520 12:19:43.695863 26709 layer_factory.hpp:77] Creating layer ip3
I0520 12:19:43.695876 26709 net.cpp:106] Creating Layer ip3
I0520 12:19:43.695886 26709 net.cpp:454] ip3 <- ip2
I0520 12:19:43.695900 26709 net.cpp:411] ip3 -> ip3
I0520 12:19:43.696125 26709 net.cpp:150] Setting up ip3
I0520 12:19:43.696138 26709 net.cpp:157] Top shape: 30 11 (330)
I0520 12:19:43.696148 26709 net.cpp:165] Memory required for data: 47362320
I0520 12:19:43.696163 26709 layer_factory.hpp:77] Creating layer drop3
I0520 12:19:43.696177 26709 net.cpp:106] Creating Layer drop3
I0520 12:19:43.696185 26709 net.cpp:454] drop3 <- ip3
I0520 12:19:43.696198 26709 net.cpp:397] drop3 -> ip3 (in-place)
I0520 12:19:43.696240 26709 net.cpp:150] Setting up drop3
I0520 12:19:43.696252 26709 net.cpp:157] Top shape: 30 11 (330)
I0520 12:19:43.696262 26709 net.cpp:165] Memory required for data: 47363640
I0520 12:19:43.696271 26709 layer_factory.hpp:77] Creating layer ip3_drop3_0_split
I0520 12:19:43.696285 26709 net.cpp:106] Creating Layer ip3_drop3_0_split
I0520 12:19:43.696295 26709 net.cpp:454] ip3_drop3_0_split <- ip3
I0520 12:19:43.696307 26709 net.cpp:411] ip3_drop3_0_split -> ip3_drop3_0_split_0
I0520 12:19:43.696322 26709 net.cpp:411] ip3_drop3_0_split -> ip3_drop3_0_split_1
I0520 12:19:43.696396 26709 net.cpp:150] Setting up ip3_drop3_0_split
I0520 12:19:43.696409 26709 net.cpp:157] Top shape: 30 11 (330)
I0520 12:19:43.696421 26709 net.cpp:157] Top shape: 30 11 (330)
I0520 12:19:43.696432 26709 net.cpp:165] Memory required for data: 47366280
I0520 12:19:43.696442 26709 layer_factory.hpp:77] Creating layer accuracy
I0520 12:19:43.696465 26709 net.cpp:106] Creating Layer accuracy
I0520 12:19:43.696475 26709 net.cpp:454] accuracy <- ip3_drop3_0_split_0
I0520 12:19:43.696485 26709 net.cpp:454] accuracy <- label_data_hdf5_1_split_0
I0520 12:19:43.696498 26709 net.cpp:411] accuracy -> accuracy
…
