…
I0521 02:07:26.706274 18536 net.cpp:322] The NetState phase (0) differed from the phase (1) specified by a rule in layer data_hdf5
I0521 02:07:26.706334 18536 net.cpp:322] The NetState phase (0) differed from the phase (1) specified by a rule in layer accuracy
I0521 02:07:26.706678 18536 net.cpp:49] Initializing net from parameters: 
name: "caffe_test_127x50_x_unshifted"
state {
  phase: TRAIN
}
layer {
  name: "data_hdf5"
  type: "HDF5Data"
  top: "data"
  top: "label"
  include {
    phase: TRAIN
  }
  hdf5_data_param {
    source: "/lustre/atlas/proj-shared/hep105/caffe_titan/minosmatch_nukecczdefs_127x50_x_unshifted_me1Bmc.trainlist"
    batch_size: 550
  }
}
layer {
  name: "conv1"
  type: "Convolution"
  bottom: "data"
  top: "conv1"
  convolution_param {
    num_output: 12
    pad: 0
    stride: 1
    weight_filler {
      type: "xavier"
    }
    bias_filler {
      type: "constant"
    }
    kernel_h: 8
    kernel_w: 3
  }
}
layer {
  name: "relu1"
  type: "ReLU"
  bottom: "conv1"
  top: "conv1"
}
layer {
  name: "pool1"
  type: "Pooling"
  bottom: "conv1"
  top: "pool1"
  pooling_param {
    pool: MAX
    kernel_h: 2
    kernel_w: 1
    stride_h: 2
    stride_w: 1
  }
}
layer {
  name: "conv2"
  type: "Convolution"
  bottom: "pool1"
  top: "conv2"
  convolution_param {
    num_output: 20
    pad: 0
    stride: 1
    weight_filler {
      type: "xavier"
    }
    bias_filler {
      type: "constant"
    }
    kernel_h: 7
    kernel_w: 3
  }
}
layer {
  name: "relu2"
  type: "ReLU"
  bottom: "conv2"
  top: "conv2"
}
layer {
  name: "pool2"
  type: "Pooling"
  bottom: "conv2"
  top: "pool2"
  pooling_param {
    pool: MAX
    kernel_h: 2
    kernel_w: 1
    stride_h: 2
    stride_w: 1
  }
}
layer {
  name: "conv3"
  type: "Convolution"
  bottom: "pool2"
  top: "conv3"
  convolution_param {
    num_output: 28
    pad: 0
    stride: 1
    weight_filler {
      type: "xavier"
    }
    bias_filler {
      type: "constant"
    }
    kernel_h: 6
    kernel_w: 3
  }
}
layer {
  name: "relu3"
  type: "ReLU"
  bottom: "conv3"
  top: "conv3"
}
layer {
  name: "pool3"
  type: "Pooling"
  bottom: "conv3"
  top: "pool3"
  pooling_param {
    pool: MAX
    kernel_h: 2
    kernel_w: 1
    stride_h: 2
    stride_w: 1
  }
}
layer {
  name: "conv4"
  type: "Convolution"
  bottom: "pool3"
  top: "conv4"
  convolution_param {
    num_output: 36
    pad: 0
    stride: 1
    weight_filler {
      type: "xavier"
    }
    bias_filler {
      type: "constant"
    }
    kernel_h: 6
    kernel_w: 3
  }
}
layer {
  name: "relu4"
  type: "ReLU"
  bottom: "conv4"
  top: "conv4"
}
layer {
  name: "pool4"
  type: "Pooling"
  bottom: "conv4"
  top: "pool4"
  pooling_param {
    pool: MAX
    kernel_h: 2
    kernel_w: 1
    stride_h: 2
    stride_w: 1
  }
}
layer {
  name: "ip1"
  type: "InnerProduct"
  bottom: "pool4"
  top: "ip1"
  inner_product_param {
    num_output: 196
    weight_filler {
      type: "xavier"
    }
    bias_filler {
      type: "constant"
    }
  }
}
layer {
  name: "relu5"
  type: "ReLU"
  bottom: "ip1"
  top: "ip1"
}
layer {
  name: "drop1"
  type: "Dropout"
  bottom: "ip1"
  top: "ip1"
  dropout_param {
    dropout_ratio: 0.5
  }
}
layer {
  name: "ip2"
  type: "InnerProduct"
  bottom: "ip1"
  top: "ip2"
  inner_product_param {
    num_output: 98
    weight_filler {
      type: "xavier"
    }
    bias_filler {
      type: "constant"
    }
  }
}
layer {
  name: "relu6"
  type: "ReLU"
  bottom: "ip2"
  top: "ip2"
}
layer {
  name: "drop2"
  type: "Dropout"
  bottom: "ip2"
  top: "ip2"
  dropout_param {
    dropout_ratio: 0.5
  }
}
layer {
  name: "ip3"
  type: "InnerProduct"
  bottom: "ip2"
  top: "ip3"
  inner_product_param {
    num_output: 11
    weight_filler {
      type: "xavier"
    }
    bias_filler {
      type: "constant"
    }
  }
}
layer {
  name: "drop3"
  type: "Dropout"
  bottom: "ip3"
  top: "ip3"
  dropout_param {
    dropout_ratio: 0.5
  }
}
layer {
  name: "loss"
  type: "SoftmaxWithLoss"
  bottom: "ip3"
  bottom: "label"
  top: "loss"
}
I0521 02:07:26.706862 18536 layer_factory.hpp:77] Creating layer data_hdf5
I0521 02:07:26.706887 18536 net.cpp:106] Creating Layer data_hdf5
I0521 02:07:26.706900 18536 net.cpp:411] data_hdf5 -> data
I0521 02:07:26.706933 18536 net.cpp:411] data_hdf5 -> label
I0521 02:07:26.706965 18536 hdf5_data_layer.cpp:79] Loading list of HDF5 filenames from: /lustre/atlas/proj-shared/hep105/caffe_titan/minosmatch_nukecczdefs_127x50_x_unshifted_me1Bmc.trainlist
I0521 02:07:26.708354 18536 hdf5_data_layer.cpp:93] Number of HDF5 files: 15
I0521 02:07:26.710549 18536 hdf5.cpp:32] Datatype class: H5T_FLOAT
I0521 02:07:48.277362 18536 hdf5.cpp:35] Datatype class: H5T_INTEGER
I0521 02:07:48.282521 18536 net.cpp:150] Setting up data_hdf5
I0521 02:07:48.282562 18536 net.cpp:157] Top shape: 550 1 127 50 (3492500)
I0521 02:07:48.282577 18536 net.cpp:157] Top shape: 550 (550)
I0521 02:07:48.282587 18536 net.cpp:165] Memory required for data: 13972200
I0521 02:07:48.282601 18536 layer_factory.hpp:77] Creating layer conv1
I0521 02:07:48.282635 18536 net.cpp:106] Creating Layer conv1
I0521 02:07:48.282646 18536 net.cpp:454] conv1 <- data
I0521 02:07:48.282668 18536 net.cpp:411] conv1 -> conv1
I0521 02:07:48.715986 18536 net.cpp:150] Setting up conv1
I0521 02:07:48.716030 18536 net.cpp:157] Top shape: 550 12 120 48 (38016000)
I0521 02:07:48.716043 18536 net.cpp:165] Memory required for data: 166036200
I0521 02:07:48.716071 18536 layer_factory.hpp:77] Creating layer relu1
I0521 02:07:48.716092 18536 net.cpp:106] Creating Layer relu1
I0521 02:07:48.716104 18536 net.cpp:454] relu1 <- conv1
I0521 02:07:48.716119 18536 net.cpp:397] relu1 -> conv1 (in-place)
I0521 02:07:48.716636 18536 net.cpp:150] Setting up relu1
I0521 02:07:48.716652 18536 net.cpp:157] Top shape: 550 12 120 48 (38016000)
I0521 02:07:48.716666 18536 net.cpp:165] Memory required for data: 318100200
I0521 02:07:48.716675 18536 layer_factory.hpp:77] Creating layer pool1
I0521 02:07:48.716692 18536 net.cpp:106] Creating Layer pool1
I0521 02:07:48.716702 18536 net.cpp:454] pool1 <- conv1
I0521 02:07:48.716716 18536 net.cpp:411] pool1 -> pool1
I0521 02:07:48.716795 18536 net.cpp:150] Setting up pool1
I0521 02:07:48.716809 18536 net.cpp:157] Top shape: 550 12 60 48 (19008000)
I0521 02:07:48.716819 18536 net.cpp:165] Memory required for data: 394132200
I0521 02:07:48.716830 18536 layer_factory.hpp:77] Creating layer conv2
I0521 02:07:48.716850 18536 net.cpp:106] Creating Layer conv2
I0521 02:07:48.716861 18536 net.cpp:454] conv2 <- pool1
I0521 02:07:48.716874 18536 net.cpp:411] conv2 -> conv2
I0521 02:07:48.719550 18536 net.cpp:150] Setting up conv2
I0521 02:07:48.719578 18536 net.cpp:157] Top shape: 550 20 54 46 (27324000)
I0521 02:07:48.719588 18536 net.cpp:165] Memory required for data: 503428200
I0521 02:07:48.719607 18536 layer_factory.hpp:77] Creating layer relu2
I0521 02:07:48.719621 18536 net.cpp:106] Creating Layer relu2
I0521 02:07:48.719631 18536 net.cpp:454] relu2 <- conv2
I0521 02:07:48.719645 18536 net.cpp:397] relu2 -> conv2 (in-place)
I0521 02:07:48.719985 18536 net.cpp:150] Setting up relu2
I0521 02:07:48.719998 18536 net.cpp:157] Top shape: 550 20 54 46 (27324000)
I0521 02:07:48.720010 18536 net.cpp:165] Memory required for data: 612724200
I0521 02:07:48.720018 18536 layer_factory.hpp:77] Creating layer pool2
I0521 02:07:48.720031 18536 net.cpp:106] Creating Layer pool2
I0521 02:07:48.720041 18536 net.cpp:454] pool2 <- conv2
I0521 02:07:48.720067 18536 net.cpp:411] pool2 -> pool2
I0521 02:07:48.720135 18536 net.cpp:150] Setting up pool2
I0521 02:07:48.720149 18536 net.cpp:157] Top shape: 550 20 27 46 (13662000)
I0521 02:07:48.720158 18536 net.cpp:165] Memory required for data: 667372200
I0521 02:07:48.720168 18536 layer_factory.hpp:77] Creating layer conv3
I0521 02:07:48.720186 18536 net.cpp:106] Creating Layer conv3
I0521 02:07:48.720196 18536 net.cpp:454] conv3 <- pool2
I0521 02:07:48.720209 18536 net.cpp:411] conv3 -> conv3
I0521 02:07:48.722129 18536 net.cpp:150] Setting up conv3
I0521 02:07:48.722152 18536 net.cpp:157] Top shape: 550 28 22 44 (14907200)
I0521 02:07:48.722163 18536 net.cpp:165] Memory required for data: 727001000
I0521 02:07:48.722182 18536 layer_factory.hpp:77] Creating layer relu3
I0521 02:07:48.722196 18536 net.cpp:106] Creating Layer relu3
I0521 02:07:48.722206 18536 net.cpp:454] relu3 <- conv3
I0521 02:07:48.722219 18536 net.cpp:397] relu3 -> conv3 (in-place)
I0521 02:07:48.722688 18536 net.cpp:150] Setting up relu3
I0521 02:07:48.722705 18536 net.cpp:157] Top shape: 550 28 22 44 (14907200)
I0521 02:07:48.722717 18536 net.cpp:165] Memory required for data: 786629800
I0521 02:07:48.722725 18536 layer_factory.hpp:77] Creating layer pool3
I0521 02:07:48.722738 18536 net.cpp:106] Creating Layer pool3
I0521 02:07:48.722748 18536 net.cpp:454] pool3 <- conv3
I0521 02:07:48.722760 18536 net.cpp:411] pool3 -> pool3
I0521 02:07:48.722828 18536 net.cpp:150] Setting up pool3
I0521 02:07:48.722841 18536 net.cpp:157] Top shape: 550 28 11 44 (7453600)
I0521 02:07:48.722851 18536 net.cpp:165] Memory required for data: 816444200
I0521 02:07:48.722861 18536 layer_factory.hpp:77] Creating layer conv4
I0521 02:07:48.722877 18536 net.cpp:106] Creating Layer conv4
I0521 02:07:48.722887 18536 net.cpp:454] conv4 <- pool3
I0521 02:07:48.722900 18536 net.cpp:411] conv4 -> conv4
I0521 02:07:48.725703 18536 net.cpp:150] Setting up conv4
I0521 02:07:48.725726 18536 net.cpp:157] Top shape: 550 36 6 42 (4989600)
I0521 02:07:48.725738 18536 net.cpp:165] Memory required for data: 836402600
I0521 02:07:48.725752 18536 layer_factory.hpp:77] Creating layer relu4
I0521 02:07:48.725766 18536 net.cpp:106] Creating Layer relu4
I0521 02:07:48.725777 18536 net.cpp:454] relu4 <- conv4
I0521 02:07:48.725790 18536 net.cpp:397] relu4 -> conv4 (in-place)
I0521 02:07:48.726266 18536 net.cpp:150] Setting up relu4
I0521 02:07:48.726284 18536 net.cpp:157] Top shape: 550 36 6 42 (4989600)
I0521 02:07:48.726294 18536 net.cpp:165] Memory required for data: 856361000
I0521 02:07:48.726303 18536 layer_factory.hpp:77] Creating layer pool4
I0521 02:07:48.726315 18536 net.cpp:106] Creating Layer pool4
I0521 02:07:48.726325 18536 net.cpp:454] pool4 <- conv4
I0521 02:07:48.726338 18536 net.cpp:411] pool4 -> pool4
I0521 02:07:48.726407 18536 net.cpp:150] Setting up pool4
I0521 02:07:48.726420 18536 net.cpp:157] Top shape: 550 36 3 42 (2494800)
I0521 02:07:48.726430 18536 net.cpp:165] Memory required for data: 866340200
I0521 02:07:48.726440 18536 layer_factory.hpp:77] Creating layer ip1
I0521 02:07:48.726460 18536 net.cpp:106] Creating Layer ip1
I0521 02:07:48.726470 18536 net.cpp:454] ip1 <- pool4
I0521 02:07:48.726483 18536 net.cpp:411] ip1 -> ip1
I0521 02:07:48.741940 18536 net.cpp:150] Setting up ip1
I0521 02:07:48.741964 18536 net.cpp:157] Top shape: 550 196 (107800)
I0521 02:07:48.741977 18536 net.cpp:165] Memory required for data: 866771400
I0521 02:07:48.741999 18536 layer_factory.hpp:77] Creating layer relu5
I0521 02:07:48.742013 18536 net.cpp:106] Creating Layer relu5
I0521 02:07:48.742024 18536 net.cpp:454] relu5 <- ip1
I0521 02:07:48.742039 18536 net.cpp:397] relu5 -> ip1 (in-place)
I0521 02:07:48.742383 18536 net.cpp:150] Setting up relu5
I0521 02:07:48.742398 18536 net.cpp:157] Top shape: 550 196 (107800)
I0521 02:07:48.742408 18536 net.cpp:165] Memory required for data: 867202600
I0521 02:07:48.742416 18536 layer_factory.hpp:77] Creating layer drop1
I0521 02:07:48.742439 18536 net.cpp:106] Creating Layer drop1
I0521 02:07:48.742449 18536 net.cpp:454] drop1 <- ip1
I0521 02:07:48.742473 18536 net.cpp:397] drop1 -> ip1 (in-place)
I0521 02:07:48.742519 18536 net.cpp:150] Setting up drop1
I0521 02:07:48.742532 18536 net.cpp:157] Top shape: 550 196 (107800)
I0521 02:07:48.742542 18536 net.cpp:165] Memory required for data: 867633800
I0521 02:07:48.742552 18536 layer_factory.hpp:77] Creating layer ip2
I0521 02:07:48.742570 18536 net.cpp:106] Creating Layer ip2
I0521 02:07:48.742579 18536 net.cpp:454] ip2 <- ip1
I0521 02:07:48.742594 18536 net.cpp:411] ip2 -> ip2
I0521 02:07:48.743057 18536 net.cpp:150] Setting up ip2
I0521 02:07:48.743070 18536 net.cpp:157] Top shape: 550 98 (53900)
I0521 02:07:48.743080 18536 net.cpp:165] Memory required for data: 867849400
I0521 02:07:48.743094 18536 layer_factory.hpp:77] Creating layer relu6
I0521 02:07:48.743108 18536 net.cpp:106] Creating Layer relu6
I0521 02:07:48.743118 18536 net.cpp:454] relu6 <- ip2
I0521 02:07:48.743129 18536 net.cpp:397] relu6 -> ip2 (in-place)
I0521 02:07:48.743649 18536 net.cpp:150] Setting up relu6
I0521 02:07:48.743665 18536 net.cpp:157] Top shape: 550 98 (53900)
I0521 02:07:48.743677 18536 net.cpp:165] Memory required for data: 868065000
I0521 02:07:48.743685 18536 layer_factory.hpp:77] Creating layer drop2
I0521 02:07:48.743698 18536 net.cpp:106] Creating Layer drop2
I0521 02:07:48.743708 18536 net.cpp:454] drop2 <- ip2
I0521 02:07:48.743721 18536 net.cpp:397] drop2 -> ip2 (in-place)
I0521 02:07:48.743762 18536 net.cpp:150] Setting up drop2
I0521 02:07:48.743775 18536 net.cpp:157] Top shape: 550 98 (53900)
I0521 02:07:48.743785 18536 net.cpp:165] Memory required for data: 868280600
I0521 02:07:48.743794 18536 layer_factory.hpp:77] Creating layer ip3
I0521 02:07:48.743806 18536 net.cpp:106] Creating Layer ip3
I0521 02:07:48.743824 18536 net.cpp:454] ip3 <- ip2
I0521 02:07:48.743837 18536 net.cpp:411] ip3 -> ip3
I0521 02:07:48.744047 18536 net.cpp:150] Setting up ip3
I0521 02:07:48.744060 18536 net.cpp:157] Top shape: 550 11 (6050)
I0521 02:07:48.744069 18536 net.cpp:165] Memory required for data: 868304800
I0521 02:07:48.744086 18536 layer_factory.hpp:77] Creating layer drop3
I0521 02:07:48.744098 18536 net.cpp:106] Creating Layer drop3
I0521 02:07:48.744108 18536 net.cpp:454] drop3 <- ip3
I0521 02:07:48.744120 18536 net.cpp:397] drop3 -> ip3 (in-place)
I0521 02:07:48.744159 18536 net.cpp:150] Setting up drop3
I0521 02:07:48.744171 18536 net.cpp:157] Top shape: 550 11 (6050)
I0521 02:07:48.744181 18536 net.cpp:165] Memory required for data: 868329000
I0521 02:07:48.744190 18536 layer_factory.hpp:77] Creating layer loss
I0521 02:07:48.744210 18536 net.cpp:106] Creating Layer loss
I0521 02:07:48.744220 18536 net.cpp:454] loss <- ip3
I0521 02:07:48.744230 18536 net.cpp:454] loss <- label
I0521 02:07:48.744242 18536 net.cpp:411] loss -> loss
I0521 02:07:48.744258 18536 layer_factory.hpp:77] Creating layer loss
…
I0521 02:07:48.746843 18536 solver.cpp:181] Creating test net (#0) specified by net file: /lustre/atlas/proj-shared/hep105/caffe_titan/caffe_workflow/logs_batch_size_test/batch_size_550_2016-05-20T11.20.52.582481.prototxt
I0521 02:07:48.746914 18536 net.cpp:322] The NetState phase (1) differed from the phase (0) specified by a rule in layer data_hdf5
I0521 02:07:48.747269 18536 net.cpp:49] Initializing net from parameters: 
name: "caffe_test_127x50_x_unshifted"
state {
  phase: TEST
}
layer {
  name: "data_hdf5"
  type: "HDF5Data"
  top: "data"
  top: "label"
  include {
    phase: TEST
  }
  hdf5_data_param {
    source: "/lustre/atlas/proj-shared/hep105/caffe_titan/minosmatch_nukecczdefs_127x50_x_unshifted_me1Bmc.testlist"
    batch_size: 550
  }
}
layer {
  name: "conv1"
  type: "Convolution"
  bottom: "data"
  top: "conv1"
  convolution_param {
    num_output: 12
    pad: 0
    stride: 1
    weight_filler {
      type: "xavier"
    }
    bias_filler {
      type: "constant"
    }
    kernel_h: 8
    kernel_w: 3
  }
}
layer {
  name: "relu1"
  type: "ReLU"
  bottom: "conv1"
  top: "conv1"
}
layer {
  name: "pool1"
  type: "Pooling"
  bottom: "conv1"
  top: "pool1"
  pooling_param {
    pool: MAX
    kernel_h: 2
    kernel_w: 1
    stride_h: 2
    stride_w: 1
  }
}
layer {
  name: "conv2"
  type: "Convolution"
  bottom: "pool1"
  top: "conv2"
  convolution_param {
    num_output: 20
    pad: 0
    stride: 1
    weight_filler {
      type: "xavier"
    }
    bias_filler {
      type: "constant"
    }
    kernel_h: 7
    kernel_w: 3
  }
}
layer {
  name: "relu2"
  type: "ReLU"
  bottom: "conv2"
  top: "conv2"
}
layer {
  name: "pool2"
  type: "Pooling"
  bottom: "conv2"
  top: "pool2"
  pooling_param {
    pool: MAX
    kernel_h: 2
    kernel_w: 1
    stride_h: 2
    stride_w: 1
  }
}
layer {
  name: "conv3"
  type: "Convolution"
  bottom: "pool2"
  top: "conv3"
  convolution_param {
    num_output: 28
    pad: 0
    stride: 1
    weight_filler {
      type: "xavier"
    }
    bias_filler {
      type: "constant"
    }
    kernel_h: 6
    kernel_w: 3
  }
}
layer {
  name: "relu3"
  type: "ReLU"
  bottom: "conv3"
  top: "conv3"
}
layer {
  name: "pool3"
  type: "Pooling"
  bottom: "conv3"
  top: "pool3"
  pooling_param {
    pool: MAX
    kernel_h: 2
    kernel_w: 1
    stride_h: 2
    stride_w: 1
  }
}
layer {
  name: "conv4"
  type: "Convolution"
  bottom: "pool3"
  top: "conv4"
  convolution_param {
    num_output: 36
    pad: 0
    stride: 1
    weight_filler {
      type: "xavier"
    }
    bias_filler {
      type: "constant"
    }
    kernel_h: 6
    kernel_w: 3
  }
}
layer {
  name: "relu4"
  type: "ReLU"
  bottom: "conv4"
  top: "conv4"
}
layer {
  name: "pool4"
  type: "Pooling"
  bottom: "conv4"
  top: "pool4"
  pooling_param {
    pool: MAX
    kernel_h: 2
    kernel_w: 1
    stride_h: 2
    stride_w: 1
  }
}
layer {
  name: "ip1"
  type: "InnerProduct"
  bottom: "pool4"
  top: "ip1"
  inner_product_param {
    num_output: 196
    weight_filler {
      type: "xavier"
    }
    bias_filler {
      type: "constant"
    }
  }
}
layer {
  name: "relu5"
  type: "ReLU"
  bottom: "ip1"
  top: "ip1"
}
layer {
  name: "drop1"
  type: "Dropout"
  bottom: "ip1"
  top: "ip1"
  dropout_param {
    dropout_ratio: 0.5
  }
}
layer {
  name: "ip2"
  type: "InnerProduct"
  bottom: "ip1"
  top: "ip2"
  inner_product_param {
    num_output: 98
    weight_filler {
      type: "xavier"
    }
    bias_filler {
      type: "constant"
    }
  }
}
layer {
  name: "relu6"
  type: "ReLU"
  bottom: "ip2"
  top: "ip2"
}
layer {
  name: "drop2"
  type: "Dropout"
  bottom: "ip2"
  top: "ip2"
  dropout_param {
    dropout_ratio: 0.5
  }
}
layer {
  name: "ip3"
  type: "InnerProduct"
  bottom: "ip2"
  top: "ip3"
  inner_product_param {
    num_output: 11
    weight_filler {
      type: "xavier"
    }
    bias_filler {
      type: "constant"
    }
  }
}
layer {
  name: "drop3"
  type: "Dropout"
  bottom: "ip3"
  top: "ip3"
  dropout_param {
    dropout_ratio: 0.5
  }
}
layer {
  name: "accuracy"
  type: "Accuracy"
  bottom: "ip3"
  bottom: "label"
  top: "accuracy"
  include {
    phase: TEST
  }
}
layer {
  name: "loss"
  type: "SoftmaxWithLoss"
  bottom: "ip3"
  bottom: "label"
  top: "loss"
}
I0521 02:07:48.747459 18536 layer_factory.hpp:77] Creating layer data_hdf5
I0521 02:07:48.747474 18536 net.cpp:106] Creating Layer data_hdf5
I0521 02:07:48.747486 18536 net.cpp:411] data_hdf5 -> data
I0521 02:07:48.747503 18536 net.cpp:411] data_hdf5 -> label
I0521 02:07:48.747519 18536 hdf5_data_layer.cpp:79] Loading list of HDF5 filenames from: /lustre/atlas/proj-shared/hep105/caffe_titan/minosmatch_nukecczdefs_127x50_x_unshifted_me1Bmc.testlist
I0521 02:07:48.748795 18536 hdf5_data_layer.cpp:93] Number of HDF5 files: 3
I0521 02:08:10.161326 18536 net.cpp:150] Setting up data_hdf5
I0521 02:08:10.161494 18536 net.cpp:157] Top shape: 550 1 127 50 (3492500)
I0521 02:08:10.161509 18536 net.cpp:157] Top shape: 550 (550)
I0521 02:08:10.161521 18536 net.cpp:165] Memory required for data: 13972200
I0521 02:08:10.161537 18536 layer_factory.hpp:77] Creating layer label_data_hdf5_1_split
I0521 02:08:10.161566 18536 net.cpp:106] Creating Layer label_data_hdf5_1_split
I0521 02:08:10.161576 18536 net.cpp:454] label_data_hdf5_1_split <- label
I0521 02:08:10.161590 18536 net.cpp:411] label_data_hdf5_1_split -> label_data_hdf5_1_split_0
I0521 02:08:10.161612 18536 net.cpp:411] label_data_hdf5_1_split -> label_data_hdf5_1_split_1
I0521 02:08:10.161684 18536 net.cpp:150] Setting up label_data_hdf5_1_split
I0521 02:08:10.161698 18536 net.cpp:157] Top shape: 550 (550)
I0521 02:08:10.161710 18536 net.cpp:157] Top shape: 550 (550)
I0521 02:08:10.161720 18536 net.cpp:165] Memory required for data: 13976600
I0521 02:08:10.161730 18536 layer_factory.hpp:77] Creating layer conv1
I0521 02:08:10.161751 18536 net.cpp:106] Creating Layer conv1
I0521 02:08:10.161761 18536 net.cpp:454] conv1 <- data
I0521 02:08:10.161777 18536 net.cpp:411] conv1 -> conv1
I0521 02:08:10.163727 18536 net.cpp:150] Setting up conv1
I0521 02:08:10.163751 18536 net.cpp:157] Top shape: 550 12 120 48 (38016000)
I0521 02:08:10.163763 18536 net.cpp:165] Memory required for data: 166040600
I0521 02:08:10.163782 18536 layer_factory.hpp:77] Creating layer relu1
I0521 02:08:10.163797 18536 net.cpp:106] Creating Layer relu1
I0521 02:08:10.163807 18536 net.cpp:454] relu1 <- conv1
I0521 02:08:10.163828 18536 net.cpp:397] relu1 -> conv1 (in-place)
I0521 02:08:10.164330 18536 net.cpp:150] Setting up relu1
I0521 02:08:10.164346 18536 net.cpp:157] Top shape: 550 12 120 48 (38016000)
I0521 02:08:10.164356 18536 net.cpp:165] Memory required for data: 318104600
I0521 02:08:10.164366 18536 layer_factory.hpp:77] Creating layer pool1
I0521 02:08:10.164382 18536 net.cpp:106] Creating Layer pool1
I0521 02:08:10.164392 18536 net.cpp:454] pool1 <- conv1
I0521 02:08:10.164404 18536 net.cpp:411] pool1 -> pool1
I0521 02:08:10.164479 18536 net.cpp:150] Setting up pool1
I0521 02:08:10.164492 18536 net.cpp:157] Top shape: 550 12 60 48 (19008000)
I0521 02:08:10.164502 18536 net.cpp:165] Memory required for data: 394136600
I0521 02:08:10.164511 18536 layer_factory.hpp:77] Creating layer conv2
I0521 02:08:10.164528 18536 net.cpp:106] Creating Layer conv2
I0521 02:08:10.164541 18536 net.cpp:454] conv2 <- pool1
I0521 02:08:10.164556 18536 net.cpp:411] conv2 -> conv2
I0521 02:08:10.166481 18536 net.cpp:150] Setting up conv2
I0521 02:08:10.166504 18536 net.cpp:157] Top shape: 550 20 54 46 (27324000)
I0521 02:08:10.166514 18536 net.cpp:165] Memory required for data: 503432600
I0521 02:08:10.166532 18536 layer_factory.hpp:77] Creating layer relu2
I0521 02:08:10.166545 18536 net.cpp:106] Creating Layer relu2
I0521 02:08:10.166555 18536 net.cpp:454] relu2 <- conv2
I0521 02:08:10.166568 18536 net.cpp:397] relu2 -> conv2 (in-place)
I0521 02:08:10.166901 18536 net.cpp:150] Setting up relu2
I0521 02:08:10.166915 18536 net.cpp:157] Top shape: 550 20 54 46 (27324000)
I0521 02:08:10.166925 18536 net.cpp:165] Memory required for data: 612728600
I0521 02:08:10.166934 18536 layer_factory.hpp:77] Creating layer pool2
I0521 02:08:10.166947 18536 net.cpp:106] Creating Layer pool2
I0521 02:08:10.166957 18536 net.cpp:454] pool2 <- conv2
I0521 02:08:10.166970 18536 net.cpp:411] pool2 -> pool2
I0521 02:08:10.167042 18536 net.cpp:150] Setting up pool2
I0521 02:08:10.167054 18536 net.cpp:157] Top shape: 550 20 27 46 (13662000)
I0521 02:08:10.167063 18536 net.cpp:165] Memory required for data: 667376600
I0521 02:08:10.167073 18536 layer_factory.hpp:77] Creating layer conv3
I0521 02:08:10.167093 18536 net.cpp:106] Creating Layer conv3
I0521 02:08:10.167103 18536 net.cpp:454] conv3 <- pool2
I0521 02:08:10.167115 18536 net.cpp:411] conv3 -> conv3
I0521 02:08:10.169087 18536 net.cpp:150] Setting up conv3
I0521 02:08:10.169106 18536 net.cpp:157] Top shape: 550 28 22 44 (14907200)
I0521 02:08:10.169116 18536 net.cpp:165] Memory required for data: 727005400
I0521 02:08:10.169147 18536 layer_factory.hpp:77] Creating layer relu3
I0521 02:08:10.169162 18536 net.cpp:106] Creating Layer relu3
I0521 02:08:10.169172 18536 net.cpp:454] relu3 <- conv3
I0521 02:08:10.169184 18536 net.cpp:397] relu3 -> conv3 (in-place)
I0521 02:08:10.169661 18536 net.cpp:150] Setting up relu3
I0521 02:08:10.169677 18536 net.cpp:157] Top shape: 550 28 22 44 (14907200)
I0521 02:08:10.169687 18536 net.cpp:165] Memory required for data: 786634200
I0521 02:08:10.169695 18536 layer_factory.hpp:77] Creating layer pool3
I0521 02:08:10.169711 18536 net.cpp:106] Creating Layer pool3
I0521 02:08:10.169721 18536 net.cpp:454] pool3 <- conv3
I0521 02:08:10.169734 18536 net.cpp:411] pool3 -> pool3
I0521 02:08:10.169806 18536 net.cpp:150] Setting up pool3
I0521 02:08:10.169821 18536 net.cpp:157] Top shape: 550 28 11 44 (7453600)
I0521 02:08:10.169831 18536 net.cpp:165] Memory required for data: 816448600
I0521 02:08:10.169841 18536 layer_factory.hpp:77] Creating layer conv4
I0521 02:08:10.169857 18536 net.cpp:106] Creating Layer conv4
I0521 02:08:10.169867 18536 net.cpp:454] conv4 <- pool3
I0521 02:08:10.169883 18536 net.cpp:411] conv4 -> conv4
I0521 02:08:10.171943 18536 net.cpp:150] Setting up conv4
I0521 02:08:10.171965 18536 net.cpp:157] Top shape: 550 36 6 42 (4989600)
I0521 02:08:10.171977 18536 net.cpp:165] Memory required for data: 836407000
I0521 02:08:10.171991 18536 layer_factory.hpp:77] Creating layer relu4
I0521 02:08:10.172005 18536 net.cpp:106] Creating Layer relu4
I0521 02:08:10.172015 18536 net.cpp:454] relu4 <- conv4
I0521 02:08:10.172029 18536 net.cpp:397] relu4 -> conv4 (in-place)
I0521 02:08:10.172499 18536 net.cpp:150] Setting up relu4
I0521 02:08:10.172514 18536 net.cpp:157] Top shape: 550 36 6 42 (4989600)
I0521 02:08:10.172524 18536 net.cpp:165] Memory required for data: 856365400
I0521 02:08:10.172534 18536 layer_factory.hpp:77] Creating layer pool4
I0521 02:08:10.172547 18536 net.cpp:106] Creating Layer pool4
I0521 02:08:10.172557 18536 net.cpp:454] pool4 <- conv4
I0521 02:08:10.172569 18536 net.cpp:411] pool4 -> pool4
I0521 02:08:10.172641 18536 net.cpp:150] Setting up pool4
I0521 02:08:10.172654 18536 net.cpp:157] Top shape: 550 36 3 42 (2494800)
I0521 02:08:10.172663 18536 net.cpp:165] Memory required for data: 866344600
I0521 02:08:10.172673 18536 layer_factory.hpp:77] Creating layer ip1
I0521 02:08:10.172688 18536 net.cpp:106] Creating Layer ip1
I0521 02:08:10.172698 18536 net.cpp:454] ip1 <- pool4
I0521 02:08:10.172710 18536 net.cpp:411] ip1 -> ip1
I0521 02:08:10.188201 18536 net.cpp:150] Setting up ip1
I0521 02:08:10.188225 18536 net.cpp:157] Top shape: 550 196 (107800)
I0521 02:08:10.188235 18536 net.cpp:165] Memory required for data: 866775800
I0521 02:08:10.188259 18536 layer_factory.hpp:77] Creating layer relu5
I0521 02:08:10.188274 18536 net.cpp:106] Creating Layer relu5
I0521 02:08:10.188284 18536 net.cpp:454] relu5 <- ip1
I0521 02:08:10.188300 18536 net.cpp:397] relu5 -> ip1 (in-place)
I0521 02:08:10.188647 18536 net.cpp:150] Setting up relu5
I0521 02:08:10.188662 18536 net.cpp:157] Top shape: 550 196 (107800)
I0521 02:08:10.188670 18536 net.cpp:165] Memory required for data: 867207000
I0521 02:08:10.188679 18536 layer_factory.hpp:77] Creating layer drop1
I0521 02:08:10.188699 18536 net.cpp:106] Creating Layer drop1
I0521 02:08:10.188709 18536 net.cpp:454] drop1 <- ip1
I0521 02:08:10.188724 18536 net.cpp:397] drop1 -> ip1 (in-place)
I0521 02:08:10.188766 18536 net.cpp:150] Setting up drop1
I0521 02:08:10.188779 18536 net.cpp:157] Top shape: 550 196 (107800)
I0521 02:08:10.188788 18536 net.cpp:165] Memory required for data: 867638200
I0521 02:08:10.188799 18536 layer_factory.hpp:77] Creating layer ip2
I0521 02:08:10.188813 18536 net.cpp:106] Creating Layer ip2
I0521 02:08:10.188823 18536 net.cpp:454] ip2 <- ip1
I0521 02:08:10.188837 18536 net.cpp:411] ip2 -> ip2
I0521 02:08:10.189314 18536 net.cpp:150] Setting up ip2
I0521 02:08:10.189327 18536 net.cpp:157] Top shape: 550 98 (53900)
I0521 02:08:10.189337 18536 net.cpp:165] Memory required for data: 867853800
I0521 02:08:10.189365 18536 layer_factory.hpp:77] Creating layer relu6
I0521 02:08:10.189378 18536 net.cpp:106] Creating Layer relu6
I0521 02:08:10.189388 18536 net.cpp:454] relu6 <- ip2
I0521 02:08:10.189404 18536 net.cpp:397] relu6 -> ip2 (in-place)
I0521 02:08:10.189937 18536 net.cpp:150] Setting up relu6
I0521 02:08:10.189954 18536 net.cpp:157] Top shape: 550 98 (53900)
I0521 02:08:10.189965 18536 net.cpp:165] Memory required for data: 868069400
I0521 02:08:10.189973 18536 layer_factory.hpp:77] Creating layer drop2
I0521 02:08:10.189986 18536 net.cpp:106] Creating Layer drop2
I0521 02:08:10.189996 18536 net.cpp:454] drop2 <- ip2
I0521 02:08:10.190009 18536 net.cpp:397] drop2 -> ip2 (in-place)
I0521 02:08:10.190053 18536 net.cpp:150] Setting up drop2
I0521 02:08:10.190065 18536 net.cpp:157] Top shape: 550 98 (53900)
I0521 02:08:10.190075 18536 net.cpp:165] Memory required for data: 868285000
I0521 02:08:10.190086 18536 layer_factory.hpp:77] Creating layer ip3
I0521 02:08:10.190099 18536 net.cpp:106] Creating Layer ip3
I0521 02:08:10.190109 18536 net.cpp:454] ip3 <- ip2
I0521 02:08:10.190124 18536 net.cpp:411] ip3 -> ip3
I0521 02:08:10.190346 18536 net.cpp:150] Setting up ip3
I0521 02:08:10.190358 18536 net.cpp:157] Top shape: 550 11 (6050)
I0521 02:08:10.190366 18536 net.cpp:165] Memory required for data: 868309200
I0521 02:08:10.190383 18536 layer_factory.hpp:77] Creating layer drop3
I0521 02:08:10.190397 18536 net.cpp:106] Creating Layer drop3
I0521 02:08:10.190405 18536 net.cpp:454] drop3 <- ip3
I0521 02:08:10.190418 18536 net.cpp:397] drop3 -> ip3 (in-place)
I0521 02:08:10.190459 18536 net.cpp:150] Setting up drop3
I0521 02:08:10.190472 18536 net.cpp:157] Top shape: 550 11 (6050)
I0521 02:08:10.190482 18536 net.cpp:165] Memory required for data: 868333400
I0521 02:08:10.190490 18536 layer_factory.hpp:77] Creating layer ip3_drop3_0_split
I0521 02:08:10.190503 18536 net.cpp:106] Creating Layer ip3_drop3_0_split
I0521 02:08:10.190513 18536 net.cpp:454] ip3_drop3_0_split <- ip3
I0521 02:08:10.190526 18536 net.cpp:411] ip3_drop3_0_split -> ip3_drop3_0_split_0
I0521 02:08:10.190541 18536 net.cpp:411] ip3_drop3_0_split -> ip3_drop3_0_split_1
I0521 02:08:10.190613 18536 net.cpp:150] Setting up ip3_drop3_0_split
I0521 02:08:10.190626 18536 net.cpp:157] Top shape: 550 11 (6050)
I0521 02:08:10.190639 18536 net.cpp:157] Top shape: 550 11 (6050)
I0521 02:08:10.190706 18536 net.cpp:165] Memory required for data: 868381800
I0521 02:08:10.190716 18536 layer_factory.hpp:77] Creating layer accuracy
I0521 02:08:10.190738 18536 net.cpp:106] Creating Layer accuracy
I0521 02:08:10.190748 18536 net.cpp:454] accuracy <- ip3_drop3_0_split_0
I0521 02:08:10.190759 18536 net.cpp:454] accuracy <- label_data_hdf5_1_split_0
I0521 02:08:10.190773 18536 net.cpp:411] accuracy -> accuracy
…
