…
I0520 12:48:50.129199 12233 net.cpp:322] The NetState phase (0) differed from the phase (1) specified by a rule in layer data_hdf5
I0520 12:48:50.129257 12233 net.cpp:322] The NetState phase (0) differed from the phase (1) specified by a rule in layer accuracy
I0520 12:48:50.129603 12233 net.cpp:49] Initializing net from parameters: 
name: "caffe_test_127x50_x_unshifted"
state {
  phase: TRAIN
}
layer {
  name: "data_hdf5"
  type: "HDF5Data"
  top: "data"
  top: "label"
  include {
    phase: TRAIN
  }
  hdf5_data_param {
    source: "/lustre/atlas/proj-shared/hep105/caffe_titan/minosmatch_nukecczdefs_127x50_x_unshifted_me1Bmc.trainlist"
    batch_size: 50
  }
}
layer {
  name: "conv1"
  type: "Convolution"
  bottom: "data"
  top: "conv1"
  convolution_param {
    num_output: 12
    pad: 0
    stride: 1
    weight_filler {
      type: "xavier"
    }
    bias_filler {
      type: "constant"
    }
    kernel_h: 8
    kernel_w: 3
  }
}
layer {
  name: "relu1"
  type: "ReLU"
  bottom: "conv1"
  top: "conv1"
}
layer {
  name: "pool1"
  type: "Pooling"
  bottom: "conv1"
  top: "pool1"
  pooling_param {
    pool: MAX
    kernel_h: 2
    kernel_w: 1
    stride_h: 2
    stride_w: 1
  }
}
layer {
  name: "conv2"
  type: "Convolution"
  bottom: "pool1"
  top: "conv2"
  convolution_param {
    num_output: 20
    pad: 0
    stride: 1
    weight_filler {
      type: "xavier"
    }
    bias_filler {
      type: "constant"
    }
    kernel_h: 7
    kernel_w: 3
  }
}
layer {
  name: "relu2"
  type: "ReLU"
  bottom: "conv2"
  top: "conv2"
}
layer {
  name: "pool2"
  type: "Pooling"
  bottom: "conv2"
  top: "pool2"
  pooling_param {
    pool: MAX
    kernel_h: 2
    kernel_w: 1
    stride_h: 2
    stride_w: 1
  }
}
layer {
  name: "conv3"
  type: "Convolution"
  bottom: "pool2"
  top: "conv3"
  convolution_param {
    num_output: 28
    pad: 0
    stride: 1
    weight_filler {
      type: "xavier"
    }
    bias_filler {
      type: "constant"
    }
    kernel_h: 6
    kernel_w: 3
  }
}
layer {
  name: "relu3"
  type: "ReLU"
  bottom: "conv3"
  top: "conv3"
}
layer {
  name: "pool3"
  type: "Pooling"
  bottom: "conv3"
  top: "pool3"
  pooling_param {
    pool: MAX
    kernel_h: 2
    kernel_w: 1
    stride_h: 2
    stride_w: 1
  }
}
layer {
  name: "conv4"
  type: "Convolution"
  bottom: "pool3"
  top: "conv4"
  convolution_param {
    num_output: 36
    pad: 0
    stride: 1
    weight_filler {
      type: "xavier"
    }
    bias_filler {
      type: "constant"
    }
    kernel_h: 6
    kernel_w: 3
  }
}
layer {
  name: "relu4"
  type: "ReLU"
  bottom: "conv4"
  top: "conv4"
}
layer {
  name: "pool4"
  type: "Pooling"
  bottom: "conv4"
  top: "pool4"
  pooling_param {
    pool: MAX
    kernel_h: 2
    kernel_w: 1
    stride_h: 2
    stride_w: 1
  }
}
layer {
  name: "ip1"
  type: "InnerProduct"
  bottom: "pool4"
  top: "ip1"
  inner_product_param {
    num_output: 196
    weight_filler {
      type: "xavier"
    }
    bias_filler {
      type: "constant"
    }
  }
}
layer {
  name: "relu5"
  type: "ReLU"
  bottom: "ip1"
  top: "ip1"
}
layer {
  name: "drop1"
  type: "Dropout"
  bottom: "ip1"
  top: "ip1"
  dropout_param {
    dropout_ratio: 0.5
  }
}
layer {
  name: "ip2"
  type: "InnerProduct"
  bottom: "ip1"
  top: "ip2"
  inner_product_param {
    num_output: 98
    weight_filler {
      type: "xavier"
    }
    bias_filler {
      type: "constant"
    }
  }
}
layer {
  name: "relu6"
  type: "ReLU"
  bottom: "ip2"
  top: "ip2"
}
layer {
  name: "drop2"
  type: "Dropout"
  bottom: "ip2"
  top: "ip2"
  dropout_param {
    dropout_ratio: 0.5
  }
}
layer {
  name: "ip3"
  type: "InnerProduct"
  bottom: "ip2"
  top: "ip3"
  inner_product_param {
    num_output: 11
    weight_filler {
      type: "xavier"
    }
    bias_filler {
      type: "constant"
    }
  }
}
layer {
  name: "drop3"
  type: "Dropout"
  bottom: "ip3"
  top: "ip3"
  dropout_param {
    dropout_ratio: 0.5
  }
}
layer {
  name: "loss"
  type: "SoftmaxWithLoss"
  bottom: "ip3"
  bottom: "label"
  top: "loss"
}
I0520 12:48:50.129782 12233 layer_factory.hpp:77] Creating layer data_hdf5
I0520 12:48:50.129806 12233 net.cpp:106] Creating Layer data_hdf5
I0520 12:48:50.129820 12233 net.cpp:411] data_hdf5 -> data
I0520 12:48:50.129854 12233 net.cpp:411] data_hdf5 -> label
I0520 12:48:50.129886 12233 hdf5_data_layer.cpp:79] Loading list of HDF5 filenames from: /lustre/atlas/proj-shared/hep105/caffe_titan/minosmatch_nukecczdefs_127x50_x_unshifted_me1Bmc.trainlist
I0520 12:48:50.131041 12233 hdf5_data_layer.cpp:93] Number of HDF5 files: 15
I0520 12:48:50.133158 12233 hdf5.cpp:32] Datatype class: H5T_FLOAT
I0520 12:49:11.634228 12233 hdf5.cpp:35] Datatype class: H5T_INTEGER
I0520 12:49:11.639291 12233 net.cpp:150] Setting up data_hdf5
I0520 12:49:11.639334 12233 net.cpp:157] Top shape: 50 1 127 50 (317500)
I0520 12:49:11.639358 12233 net.cpp:157] Top shape: 50 (50)
I0520 12:49:11.639369 12233 net.cpp:165] Memory required for data: 1270200
I0520 12:49:11.639381 12233 layer_factory.hpp:77] Creating layer conv1
I0520 12:49:11.639415 12233 net.cpp:106] Creating Layer conv1
I0520 12:49:11.639427 12233 net.cpp:454] conv1 <- data
I0520 12:49:11.639449 12233 net.cpp:411] conv1 -> conv1
I0520 12:49:12.001031 12233 net.cpp:150] Setting up conv1
I0520 12:49:12.001080 12233 net.cpp:157] Top shape: 50 12 120 48 (3456000)
I0520 12:49:12.001091 12233 net.cpp:165] Memory required for data: 15094200
I0520 12:49:12.001121 12233 layer_factory.hpp:77] Creating layer relu1
I0520 12:49:12.001142 12233 net.cpp:106] Creating Layer relu1
I0520 12:49:12.001153 12233 net.cpp:454] relu1 <- conv1
I0520 12:49:12.001166 12233 net.cpp:397] relu1 -> conv1 (in-place)
I0520 12:49:12.001683 12233 net.cpp:150] Setting up relu1
I0520 12:49:12.001699 12233 net.cpp:157] Top shape: 50 12 120 48 (3456000)
I0520 12:49:12.001710 12233 net.cpp:165] Memory required for data: 28918200
I0520 12:49:12.001720 12233 layer_factory.hpp:77] Creating layer pool1
I0520 12:49:12.001736 12233 net.cpp:106] Creating Layer pool1
I0520 12:49:12.001746 12233 net.cpp:454] pool1 <- conv1
I0520 12:49:12.001760 12233 net.cpp:411] pool1 -> pool1
I0520 12:49:12.001838 12233 net.cpp:150] Setting up pool1
I0520 12:49:12.001852 12233 net.cpp:157] Top shape: 50 12 60 48 (1728000)
I0520 12:49:12.001863 12233 net.cpp:165] Memory required for data: 35830200
I0520 12:49:12.001873 12233 layer_factory.hpp:77] Creating layer conv2
I0520 12:49:12.001895 12233 net.cpp:106] Creating Layer conv2
I0520 12:49:12.001905 12233 net.cpp:454] conv2 <- pool1
I0520 12:49:12.001919 12233 net.cpp:411] conv2 -> conv2
I0520 12:49:12.004580 12233 net.cpp:150] Setting up conv2
I0520 12:49:12.004608 12233 net.cpp:157] Top shape: 50 20 54 46 (2484000)
I0520 12:49:12.004619 12233 net.cpp:165] Memory required for data: 45766200
I0520 12:49:12.004638 12233 layer_factory.hpp:77] Creating layer relu2
I0520 12:49:12.004653 12233 net.cpp:106] Creating Layer relu2
I0520 12:49:12.004663 12233 net.cpp:454] relu2 <- conv2
I0520 12:49:12.004676 12233 net.cpp:397] relu2 -> conv2 (in-place)
I0520 12:49:12.005004 12233 net.cpp:150] Setting up relu2
I0520 12:49:12.005018 12233 net.cpp:157] Top shape: 50 20 54 46 (2484000)
I0520 12:49:12.005029 12233 net.cpp:165] Memory required for data: 55702200
I0520 12:49:12.005039 12233 layer_factory.hpp:77] Creating layer pool2
I0520 12:49:12.005051 12233 net.cpp:106] Creating Layer pool2
I0520 12:49:12.005061 12233 net.cpp:454] pool2 <- conv2
I0520 12:49:12.005086 12233 net.cpp:411] pool2 -> pool2
I0520 12:49:12.005156 12233 net.cpp:150] Setting up pool2
I0520 12:49:12.005169 12233 net.cpp:157] Top shape: 50 20 27 46 (1242000)
I0520 12:49:12.005179 12233 net.cpp:165] Memory required for data: 60670200
I0520 12:49:12.005188 12233 layer_factory.hpp:77] Creating layer conv3
I0520 12:49:12.005208 12233 net.cpp:106] Creating Layer conv3
I0520 12:49:12.005218 12233 net.cpp:454] conv3 <- pool2
I0520 12:49:12.005233 12233 net.cpp:411] conv3 -> conv3
I0520 12:49:12.007161 12233 net.cpp:150] Setting up conv3
I0520 12:49:12.007185 12233 net.cpp:157] Top shape: 50 28 22 44 (1355200)
I0520 12:49:12.007197 12233 net.cpp:165] Memory required for data: 66091000
I0520 12:49:12.007215 12233 layer_factory.hpp:77] Creating layer relu3
I0520 12:49:12.007231 12233 net.cpp:106] Creating Layer relu3
I0520 12:49:12.007241 12233 net.cpp:454] relu3 <- conv3
I0520 12:49:12.007253 12233 net.cpp:397] relu3 -> conv3 (in-place)
I0520 12:49:12.007732 12233 net.cpp:150] Setting up relu3
I0520 12:49:12.007750 12233 net.cpp:157] Top shape: 50 28 22 44 (1355200)
I0520 12:49:12.007761 12233 net.cpp:165] Memory required for data: 71511800
I0520 12:49:12.007771 12233 layer_factory.hpp:77] Creating layer pool3
I0520 12:49:12.007783 12233 net.cpp:106] Creating Layer pool3
I0520 12:49:12.007793 12233 net.cpp:454] pool3 <- conv3
I0520 12:49:12.007807 12233 net.cpp:411] pool3 -> pool3
I0520 12:49:12.007874 12233 net.cpp:150] Setting up pool3
I0520 12:49:12.007886 12233 net.cpp:157] Top shape: 50 28 11 44 (677600)
I0520 12:49:12.007896 12233 net.cpp:165] Memory required for data: 74222200
I0520 12:49:12.007906 12233 layer_factory.hpp:77] Creating layer conv4
I0520 12:49:12.007923 12233 net.cpp:106] Creating Layer conv4
I0520 12:49:12.007935 12233 net.cpp:454] conv4 <- pool3
I0520 12:49:12.007947 12233 net.cpp:411] conv4 -> conv4
I0520 12:49:12.010717 12233 net.cpp:150] Setting up conv4
I0520 12:49:12.010746 12233 net.cpp:157] Top shape: 50 36 6 42 (453600)
I0520 12:49:12.010756 12233 net.cpp:165] Memory required for data: 76036600
I0520 12:49:12.010772 12233 layer_factory.hpp:77] Creating layer relu4
I0520 12:49:12.010787 12233 net.cpp:106] Creating Layer relu4
I0520 12:49:12.010797 12233 net.cpp:454] relu4 <- conv4
I0520 12:49:12.010809 12233 net.cpp:397] relu4 -> conv4 (in-place)
I0520 12:49:12.011283 12233 net.cpp:150] Setting up relu4
I0520 12:49:12.011304 12233 net.cpp:157] Top shape: 50 36 6 42 (453600)
I0520 12:49:12.011314 12233 net.cpp:165] Memory required for data: 77851000
I0520 12:49:12.011324 12233 layer_factory.hpp:77] Creating layer pool4
I0520 12:49:12.011338 12233 net.cpp:106] Creating Layer pool4
I0520 12:49:12.011356 12233 net.cpp:454] pool4 <- conv4
I0520 12:49:12.011369 12233 net.cpp:411] pool4 -> pool4
I0520 12:49:12.011437 12233 net.cpp:150] Setting up pool4
I0520 12:49:12.011451 12233 net.cpp:157] Top shape: 50 36 3 42 (226800)
I0520 12:49:12.011462 12233 net.cpp:165] Memory required for data: 78758200
I0520 12:49:12.011472 12233 layer_factory.hpp:77] Creating layer ip1
I0520 12:49:12.011492 12233 net.cpp:106] Creating Layer ip1
I0520 12:49:12.011503 12233 net.cpp:454] ip1 <- pool4
I0520 12:49:12.011517 12233 net.cpp:411] ip1 -> ip1
I0520 12:49:12.026958 12233 net.cpp:150] Setting up ip1
I0520 12:49:12.026988 12233 net.cpp:157] Top shape: 50 196 (9800)
I0520 12:49:12.027004 12233 net.cpp:165] Memory required for data: 78797400
I0520 12:49:12.027029 12233 layer_factory.hpp:77] Creating layer relu5
I0520 12:49:12.027045 12233 net.cpp:106] Creating Layer relu5
I0520 12:49:12.027055 12233 net.cpp:454] relu5 <- ip1
I0520 12:49:12.027067 12233 net.cpp:397] relu5 -> ip1 (in-place)
I0520 12:49:12.027415 12233 net.cpp:150] Setting up relu5
I0520 12:49:12.027428 12233 net.cpp:157] Top shape: 50 196 (9800)
I0520 12:49:12.027439 12233 net.cpp:165] Memory required for data: 78836600
I0520 12:49:12.027449 12233 layer_factory.hpp:77] Creating layer drop1
I0520 12:49:12.027470 12233 net.cpp:106] Creating Layer drop1
I0520 12:49:12.027480 12233 net.cpp:454] drop1 <- ip1
I0520 12:49:12.027493 12233 net.cpp:397] drop1 -> ip1 (in-place)
I0520 12:49:12.027552 12233 net.cpp:150] Setting up drop1
I0520 12:49:12.027565 12233 net.cpp:157] Top shape: 50 196 (9800)
I0520 12:49:12.027575 12233 net.cpp:165] Memory required for data: 78875800
I0520 12:49:12.027585 12233 layer_factory.hpp:77] Creating layer ip2
I0520 12:49:12.027603 12233 net.cpp:106] Creating Layer ip2
I0520 12:49:12.027614 12233 net.cpp:454] ip2 <- ip1
I0520 12:49:12.027627 12233 net.cpp:411] ip2 -> ip2
I0520 12:49:12.028090 12233 net.cpp:150] Setting up ip2
I0520 12:49:12.028103 12233 net.cpp:157] Top shape: 50 98 (4900)
I0520 12:49:12.028112 12233 net.cpp:165] Memory required for data: 78895400
I0520 12:49:12.028127 12233 layer_factory.hpp:77] Creating layer relu6
I0520 12:49:12.028141 12233 net.cpp:106] Creating Layer relu6
I0520 12:49:12.028149 12233 net.cpp:454] relu6 <- ip2
I0520 12:49:12.028162 12233 net.cpp:397] relu6 -> ip2 (in-place)
I0520 12:49:12.028676 12233 net.cpp:150] Setting up relu6
I0520 12:49:12.028692 12233 net.cpp:157] Top shape: 50 98 (4900)
I0520 12:49:12.028702 12233 net.cpp:165] Memory required for data: 78915000
I0520 12:49:12.028714 12233 layer_factory.hpp:77] Creating layer drop2
I0520 12:49:12.028728 12233 net.cpp:106] Creating Layer drop2
I0520 12:49:12.028738 12233 net.cpp:454] drop2 <- ip2
I0520 12:49:12.028750 12233 net.cpp:397] drop2 -> ip2 (in-place)
I0520 12:49:12.028792 12233 net.cpp:150] Setting up drop2
I0520 12:49:12.028805 12233 net.cpp:157] Top shape: 50 98 (4900)
I0520 12:49:12.028815 12233 net.cpp:165] Memory required for data: 78934600
I0520 12:49:12.028825 12233 layer_factory.hpp:77] Creating layer ip3
I0520 12:49:12.028839 12233 net.cpp:106] Creating Layer ip3
I0520 12:49:12.028848 12233 net.cpp:454] ip3 <- ip2
I0520 12:49:12.028861 12233 net.cpp:411] ip3 -> ip3
I0520 12:49:12.029072 12233 net.cpp:150] Setting up ip3
I0520 12:49:12.029084 12233 net.cpp:157] Top shape: 50 11 (550)
I0520 12:49:12.029094 12233 net.cpp:165] Memory required for data: 78936800
I0520 12:49:12.029110 12233 layer_factory.hpp:77] Creating layer drop3
I0520 12:49:12.029122 12233 net.cpp:106] Creating Layer drop3
I0520 12:49:12.029132 12233 net.cpp:454] drop3 <- ip3
I0520 12:49:12.029145 12233 net.cpp:397] drop3 -> ip3 (in-place)
I0520 12:49:12.029183 12233 net.cpp:150] Setting up drop3
I0520 12:49:12.029196 12233 net.cpp:157] Top shape: 50 11 (550)
I0520 12:49:12.029206 12233 net.cpp:165] Memory required for data: 78939000
I0520 12:49:12.029216 12233 layer_factory.hpp:77] Creating layer loss
I0520 12:49:12.029233 12233 net.cpp:106] Creating Layer loss
I0520 12:49:12.029243 12233 net.cpp:454] loss <- ip3
I0520 12:49:12.029254 12233 net.cpp:454] loss <- label
I0520 12:49:12.029265 12233 net.cpp:411] loss -> loss
I0520 12:49:12.029283 12233 layer_factory.hpp:77] Creating layer loss
…
I0520 12:49:12.058763 12233 solver.cpp:181] Creating test net (#0) specified by net file: /lustre/atlas/proj-shared/hep105/caffe_titan/caffe_workflow/logs_batch_size_test/batch_size_50_2016-05-20T11.20.34.501098.prototxt
I0520 12:49:12.058837 12233 net.cpp:322] The NetState phase (1) differed from the phase (0) specified by a rule in layer data_hdf5
I0520 12:49:12.059195 12233 net.cpp:49] Initializing net from parameters: 
name: "caffe_test_127x50_x_unshifted"
state {
  phase: TEST
}
layer {
  name: "data_hdf5"
  type: "HDF5Data"
  top: "data"
  top: "label"
  include {
    phase: TEST
  }
  hdf5_data_param {
    source: "/lustre/atlas/proj-shared/hep105/caffe_titan/minosmatch_nukecczdefs_127x50_x_unshifted_me1Bmc.testlist"
    batch_size: 50
  }
}
layer {
  name: "conv1"
  type: "Convolution"
  bottom: "data"
  top: "conv1"
  convolution_param {
    num_output: 12
    pad: 0
    stride: 1
    weight_filler {
      type: "xavier"
    }
    bias_filler {
      type: "constant"
    }
    kernel_h: 8
    kernel_w: 3
  }
}
layer {
  name: "relu1"
  type: "ReLU"
  bottom: "conv1"
  top: "conv1"
}
layer {
  name: "pool1"
  type: "Pooling"
  bottom: "conv1"
  top: "pool1"
  pooling_param {
    pool: MAX
    kernel_h: 2
    kernel_w: 1
    stride_h: 2
    stride_w: 1
  }
}
layer {
  name: "conv2"
  type: "Convolution"
  bottom: "pool1"
  top: "conv2"
  convolution_param {
    num_output: 20
    pad: 0
    stride: 1
    weight_filler {
      type: "xavier"
    }
    bias_filler {
      type: "constant"
    }
    kernel_h: 7
    kernel_w: 3
  }
}
layer {
  name: "relu2"
  type: "ReLU"
  bottom: "conv2"
  top: "conv2"
}
layer {
  name: "pool2"
  type: "Pooling"
  bottom: "conv2"
  top: "pool2"
  pooling_param {
    pool: MAX
    kernel_h: 2
    kernel_w: 1
    stride_h: 2
    stride_w: 1
  }
}
layer {
  name: "conv3"
  type: "Convolution"
  bottom: "pool2"
  top: "conv3"
  convolution_param {
    num_output: 28
    pad: 0
    stride: 1
    weight_filler {
      type: "xavier"
    }
    bias_filler {
      type: "constant"
    }
    kernel_h: 6
    kernel_w: 3
  }
}
layer {
  name: "relu3"
  type: "ReLU"
  bottom: "conv3"
  top: "conv3"
}
layer {
  name: "pool3"
  type: "Pooling"
  bottom: "conv3"
  top: "pool3"
  pooling_param {
    pool: MAX
    kernel_h: 2
    kernel_w: 1
    stride_h: 2
    stride_w: 1
  }
}
layer {
  name: "conv4"
  type: "Convolution"
  bottom: "pool3"
  top: "conv4"
  convolution_param {
    num_output: 36
    pad: 0
    stride: 1
    weight_filler {
      type: "xavier"
    }
    bias_filler {
      type: "constant"
    }
    kernel_h: 6
    kernel_w: 3
  }
}
layer {
  name: "relu4"
  type: "ReLU"
  bottom: "conv4"
  top: "conv4"
}
layer {
  name: "pool4"
  type: "Pooling"
  bottom: "conv4"
  top: "pool4"
  pooling_param {
    pool: MAX
    kernel_h: 2
    kernel_w: 1
    stride_h: 2
    stride_w: 1
  }
}
layer {
  name: "ip1"
  type: "InnerProduct"
  bottom: "pool4"
  top: "ip1"
  inner_product_param {
    num_output: 196
    weight_filler {
      type: "xavier"
    }
    bias_filler {
      type: "constant"
    }
  }
}
layer {
  name: "relu5"
  type: "ReLU"
  bottom: "ip1"
  top: "ip1"
}
layer {
  name: "drop1"
  type: "Dropout"
  bottom: "ip1"
  top: "ip1"
  dropout_param {
    dropout_ratio: 0.5
  }
}
layer {
  name: "ip2"
  type: "InnerProduct"
  bottom: "ip1"
  top: "ip2"
  inner_product_param {
    num_output: 98
    weight_filler {
      type: "xavier"
    }
    bias_filler {
      type: "constant"
    }
  }
}
layer {
  name: "relu6"
  type: "ReLU"
  bottom: "ip2"
  top: "ip2"
}
layer {
  name: "drop2"
  type: "Dropout"
  bottom: "ip2"
  top: "ip2"
  dropout_param {
    dropout_ratio: 0.5
  }
}
layer {
  name: "ip3"
  type: "InnerProduct"
  bottom: "ip2"
  top: "ip3"
  inner_product_param {
    num_output: 11
    weight_filler {
      type: "xavier"
    }
    bias_filler {
      type: "constant"
    }
  }
}
layer {
  name: "drop3"
  type: "Dropout"
  bottom: "ip3"
  top: "ip3"
  dropout_param {
    dropout_ratio: 0.5
  }
}
layer {
  name: "accuracy"
  type: "Accuracy"
  bottom: "ip3"
  bottom: "label"
  top: "accuracy"
  include {
    phase: TEST
  }
}
layer {
  name: "loss"
  type: "SoftmaxWithLoss"
  bottom: "ip3"
  bottom: "label"
  top: "loss"
}
I0520 12:49:12.059393 12233 layer_factory.hpp:77] Creating layer data_hdf5
I0520 12:49:12.059409 12233 net.cpp:106] Creating Layer data_hdf5
I0520 12:49:12.059422 12233 net.cpp:411] data_hdf5 -> data
I0520 12:49:12.059440 12233 net.cpp:411] data_hdf5 -> label
I0520 12:49:12.059455 12233 hdf5_data_layer.cpp:79] Loading list of HDF5 filenames from: /lustre/atlas/proj-shared/hep105/caffe_titan/minosmatch_nukecczdefs_127x50_x_unshifted_me1Bmc.testlist
I0520 12:49:12.078430 12233 hdf5_data_layer.cpp:93] Number of HDF5 files: 3
I0520 12:49:33.357976 12233 net.cpp:150] Setting up data_hdf5
I0520 12:49:33.358142 12233 net.cpp:157] Top shape: 50 1 127 50 (317500)
I0520 12:49:33.358156 12233 net.cpp:157] Top shape: 50 (50)
I0520 12:49:33.358168 12233 net.cpp:165] Memory required for data: 1270200
I0520 12:49:33.358181 12233 layer_factory.hpp:77] Creating layer label_data_hdf5_1_split
I0520 12:49:33.358211 12233 net.cpp:106] Creating Layer label_data_hdf5_1_split
I0520 12:49:33.358222 12233 net.cpp:454] label_data_hdf5_1_split <- label
I0520 12:49:33.358237 12233 net.cpp:411] label_data_hdf5_1_split -> label_data_hdf5_1_split_0
I0520 12:49:33.358258 12233 net.cpp:411] label_data_hdf5_1_split -> label_data_hdf5_1_split_1
I0520 12:49:33.358330 12233 net.cpp:150] Setting up label_data_hdf5_1_split
I0520 12:49:33.358345 12233 net.cpp:157] Top shape: 50 (50)
I0520 12:49:33.358356 12233 net.cpp:157] Top shape: 50 (50)
I0520 12:49:33.358366 12233 net.cpp:165] Memory required for data: 1270600
I0520 12:49:33.358376 12233 layer_factory.hpp:77] Creating layer conv1
I0520 12:49:33.358397 12233 net.cpp:106] Creating Layer conv1
I0520 12:49:33.358407 12233 net.cpp:454] conv1 <- data
I0520 12:49:33.358422 12233 net.cpp:411] conv1 -> conv1
I0520 12:49:33.360343 12233 net.cpp:150] Setting up conv1
I0520 12:49:33.360368 12233 net.cpp:157] Top shape: 50 12 120 48 (3456000)
I0520 12:49:33.360378 12233 net.cpp:165] Memory required for data: 15094600
I0520 12:49:33.360399 12233 layer_factory.hpp:77] Creating layer relu1
I0520 12:49:33.360414 12233 net.cpp:106] Creating Layer relu1
I0520 12:49:33.360424 12233 net.cpp:454] relu1 <- conv1
I0520 12:49:33.360437 12233 net.cpp:397] relu1 -> conv1 (in-place)
I0520 12:49:33.360934 12233 net.cpp:150] Setting up relu1
I0520 12:49:33.360950 12233 net.cpp:157] Top shape: 50 12 120 48 (3456000)
I0520 12:49:33.360960 12233 net.cpp:165] Memory required for data: 28918600
I0520 12:49:33.360970 12233 layer_factory.hpp:77] Creating layer pool1
I0520 12:49:33.360987 12233 net.cpp:106] Creating Layer pool1
I0520 12:49:33.360997 12233 net.cpp:454] pool1 <- conv1
I0520 12:49:33.361011 12233 net.cpp:411] pool1 -> pool1
I0520 12:49:33.361084 12233 net.cpp:150] Setting up pool1
I0520 12:49:33.361098 12233 net.cpp:157] Top shape: 50 12 60 48 (1728000)
I0520 12:49:33.361107 12233 net.cpp:165] Memory required for data: 35830600
I0520 12:49:33.361117 12233 layer_factory.hpp:77] Creating layer conv2
I0520 12:49:33.361135 12233 net.cpp:106] Creating Layer conv2
I0520 12:49:33.361145 12233 net.cpp:454] conv2 <- pool1
I0520 12:49:33.361160 12233 net.cpp:411] conv2 -> conv2
I0520 12:49:33.363065 12233 net.cpp:150] Setting up conv2
I0520 12:49:33.363086 12233 net.cpp:157] Top shape: 50 20 54 46 (2484000)
I0520 12:49:33.363100 12233 net.cpp:165] Memory required for data: 45766600
I0520 12:49:33.363116 12233 layer_factory.hpp:77] Creating layer relu2
I0520 12:49:33.363131 12233 net.cpp:106] Creating Layer relu2
I0520 12:49:33.363140 12233 net.cpp:454] relu2 <- conv2
I0520 12:49:33.363153 12233 net.cpp:397] relu2 -> conv2 (in-place)
I0520 12:49:33.363492 12233 net.cpp:150] Setting up relu2
I0520 12:49:33.363507 12233 net.cpp:157] Top shape: 50 20 54 46 (2484000)
I0520 12:49:33.363517 12233 net.cpp:165] Memory required for data: 55702600
I0520 12:49:33.363528 12233 layer_factory.hpp:77] Creating layer pool2
I0520 12:49:33.363540 12233 net.cpp:106] Creating Layer pool2
I0520 12:49:33.363550 12233 net.cpp:454] pool2 <- conv2
I0520 12:49:33.363562 12233 net.cpp:411] pool2 -> pool2
I0520 12:49:33.363634 12233 net.cpp:150] Setting up pool2
I0520 12:49:33.363648 12233 net.cpp:157] Top shape: 50 20 27 46 (1242000)
I0520 12:49:33.363658 12233 net.cpp:165] Memory required for data: 60670600
I0520 12:49:33.363668 12233 layer_factory.hpp:77] Creating layer conv3
I0520 12:49:33.363687 12233 net.cpp:106] Creating Layer conv3
I0520 12:49:33.363698 12233 net.cpp:454] conv3 <- pool2
I0520 12:49:33.363711 12233 net.cpp:411] conv3 -> conv3
I0520 12:49:33.365676 12233 net.cpp:150] Setting up conv3
I0520 12:49:33.365700 12233 net.cpp:157] Top shape: 50 28 22 44 (1355200)
I0520 12:49:33.365711 12233 net.cpp:165] Memory required for data: 66091400
I0520 12:49:33.365742 12233 layer_factory.hpp:77] Creating layer relu3
I0520 12:49:33.365756 12233 net.cpp:106] Creating Layer relu3
I0520 12:49:33.365767 12233 net.cpp:454] relu3 <- conv3
I0520 12:49:33.365779 12233 net.cpp:397] relu3 -> conv3 (in-place)
I0520 12:49:33.366250 12233 net.cpp:150] Setting up relu3
I0520 12:49:33.366266 12233 net.cpp:157] Top shape: 50 28 22 44 (1355200)
I0520 12:49:33.366277 12233 net.cpp:165] Memory required for data: 71512200
I0520 12:49:33.366287 12233 layer_factory.hpp:77] Creating layer pool3
I0520 12:49:33.366300 12233 net.cpp:106] Creating Layer pool3
I0520 12:49:33.366310 12233 net.cpp:454] pool3 <- conv3
I0520 12:49:33.366323 12233 net.cpp:411] pool3 -> pool3
I0520 12:49:33.366395 12233 net.cpp:150] Setting up pool3
I0520 12:49:33.366410 12233 net.cpp:157] Top shape: 50 28 11 44 (677600)
I0520 12:49:33.366418 12233 net.cpp:165] Memory required for data: 74222600
I0520 12:49:33.366427 12233 layer_factory.hpp:77] Creating layer conv4
I0520 12:49:33.366444 12233 net.cpp:106] Creating Layer conv4
I0520 12:49:33.366454 12233 net.cpp:454] conv4 <- pool3
I0520 12:49:33.366469 12233 net.cpp:411] conv4 -> conv4
I0520 12:49:33.368558 12233 net.cpp:150] Setting up conv4
I0520 12:49:33.368580 12233 net.cpp:157] Top shape: 50 36 6 42 (453600)
I0520 12:49:33.368594 12233 net.cpp:165] Memory required for data: 76037000
I0520 12:49:33.368609 12233 layer_factory.hpp:77] Creating layer relu4
I0520 12:49:33.368623 12233 net.cpp:106] Creating Layer relu4
I0520 12:49:33.368633 12233 net.cpp:454] relu4 <- conv4
I0520 12:49:33.368645 12233 net.cpp:397] relu4 -> conv4 (in-place)
I0520 12:49:33.369114 12233 net.cpp:150] Setting up relu4
I0520 12:49:33.369130 12233 net.cpp:157] Top shape: 50 36 6 42 (453600)
I0520 12:49:33.369140 12233 net.cpp:165] Memory required for data: 77851400
I0520 12:49:33.369150 12233 layer_factory.hpp:77] Creating layer pool4
I0520 12:49:33.369163 12233 net.cpp:106] Creating Layer pool4
I0520 12:49:33.369173 12233 net.cpp:454] pool4 <- conv4
I0520 12:49:33.369185 12233 net.cpp:411] pool4 -> pool4
I0520 12:49:33.369256 12233 net.cpp:150] Setting up pool4
I0520 12:49:33.369271 12233 net.cpp:157] Top shape: 50 36 3 42 (226800)
I0520 12:49:33.369279 12233 net.cpp:165] Memory required for data: 78758600
I0520 12:49:33.369289 12233 layer_factory.hpp:77] Creating layer ip1
I0520 12:49:33.369304 12233 net.cpp:106] Creating Layer ip1
I0520 12:49:33.369315 12233 net.cpp:454] ip1 <- pool4
I0520 12:49:33.369328 12233 net.cpp:411] ip1 -> ip1
I0520 12:49:33.384737 12233 net.cpp:150] Setting up ip1
I0520 12:49:33.384764 12233 net.cpp:157] Top shape: 50 196 (9800)
I0520 12:49:33.384775 12233 net.cpp:165] Memory required for data: 78797800
I0520 12:49:33.384796 12233 layer_factory.hpp:77] Creating layer relu5
I0520 12:49:33.384812 12233 net.cpp:106] Creating Layer relu5
I0520 12:49:33.384822 12233 net.cpp:454] relu5 <- ip1
I0520 12:49:33.384836 12233 net.cpp:397] relu5 -> ip1 (in-place)
I0520 12:49:33.385184 12233 net.cpp:150] Setting up relu5
I0520 12:49:33.385197 12233 net.cpp:157] Top shape: 50 196 (9800)
I0520 12:49:33.385207 12233 net.cpp:165] Memory required for data: 78837000
I0520 12:49:33.385217 12233 layer_factory.hpp:77] Creating layer drop1
I0520 12:49:33.385236 12233 net.cpp:106] Creating Layer drop1
I0520 12:49:33.385246 12233 net.cpp:454] drop1 <- ip1
I0520 12:49:33.385258 12233 net.cpp:397] drop1 -> ip1 (in-place)
I0520 12:49:33.385304 12233 net.cpp:150] Setting up drop1
I0520 12:49:33.385316 12233 net.cpp:157] Top shape: 50 196 (9800)
I0520 12:49:33.385326 12233 net.cpp:165] Memory required for data: 78876200
I0520 12:49:33.385336 12233 layer_factory.hpp:77] Creating layer ip2
I0520 12:49:33.385350 12233 net.cpp:106] Creating Layer ip2
I0520 12:49:33.385361 12233 net.cpp:454] ip2 <- ip1
I0520 12:49:33.385375 12233 net.cpp:411] ip2 -> ip2
I0520 12:49:33.385851 12233 net.cpp:150] Setting up ip2
I0520 12:49:33.385864 12233 net.cpp:157] Top shape: 50 98 (4900)
I0520 12:49:33.385874 12233 net.cpp:165] Memory required for data: 78895800
I0520 12:49:33.385890 12233 layer_factory.hpp:77] Creating layer relu6
I0520 12:49:33.385915 12233 net.cpp:106] Creating Layer relu6
I0520 12:49:33.385926 12233 net.cpp:454] relu6 <- ip2
I0520 12:49:33.385938 12233 net.cpp:397] relu6 -> ip2 (in-place)
I0520 12:49:33.386466 12233 net.cpp:150] Setting up relu6
I0520 12:49:33.386482 12233 net.cpp:157] Top shape: 50 98 (4900)
I0520 12:49:33.386492 12233 net.cpp:165] Memory required for data: 78915400
I0520 12:49:33.386503 12233 layer_factory.hpp:77] Creating layer drop2
I0520 12:49:33.386517 12233 net.cpp:106] Creating Layer drop2
I0520 12:49:33.386528 12233 net.cpp:454] drop2 <- ip2
I0520 12:49:33.386540 12233 net.cpp:397] drop2 -> ip2 (in-place)
I0520 12:49:33.386585 12233 net.cpp:150] Setting up drop2
I0520 12:49:33.386597 12233 net.cpp:157] Top shape: 50 98 (4900)
I0520 12:49:33.386607 12233 net.cpp:165] Memory required for data: 78935000
I0520 12:49:33.386617 12233 layer_factory.hpp:77] Creating layer ip3
I0520 12:49:33.386632 12233 net.cpp:106] Creating Layer ip3
I0520 12:49:33.386642 12233 net.cpp:454] ip3 <- ip2
I0520 12:49:33.386656 12233 net.cpp:411] ip3 -> ip3
I0520 12:49:33.386879 12233 net.cpp:150] Setting up ip3
I0520 12:49:33.386893 12233 net.cpp:157] Top shape: 50 11 (550)
I0520 12:49:33.386901 12233 net.cpp:165] Memory required for data: 78937200
I0520 12:49:33.386917 12233 layer_factory.hpp:77] Creating layer drop3
I0520 12:49:33.386930 12233 net.cpp:106] Creating Layer drop3
I0520 12:49:33.386940 12233 net.cpp:454] drop3 <- ip3
I0520 12:49:33.386953 12233 net.cpp:397] drop3 -> ip3 (in-place)
I0520 12:49:33.386994 12233 net.cpp:150] Setting up drop3
I0520 12:49:33.387007 12233 net.cpp:157] Top shape: 50 11 (550)
I0520 12:49:33.387017 12233 net.cpp:165] Memory required for data: 78939400
I0520 12:49:33.387027 12233 layer_factory.hpp:77] Creating layer ip3_drop3_0_split
I0520 12:49:33.387039 12233 net.cpp:106] Creating Layer ip3_drop3_0_split
I0520 12:49:33.387049 12233 net.cpp:454] ip3_drop3_0_split <- ip3
I0520 12:49:33.387063 12233 net.cpp:411] ip3_drop3_0_split -> ip3_drop3_0_split_0
I0520 12:49:33.387076 12233 net.cpp:411] ip3_drop3_0_split -> ip3_drop3_0_split_1
I0520 12:49:33.387151 12233 net.cpp:150] Setting up ip3_drop3_0_split
I0520 12:49:33.387163 12233 net.cpp:157] Top shape: 50 11 (550)
I0520 12:49:33.387176 12233 net.cpp:157] Top shape: 50 11 (550)
I0520 12:49:33.387187 12233 net.cpp:165] Memory required for data: 78943800
I0520 12:49:33.387197 12233 layer_factory.hpp:77] Creating layer accuracy
I0520 12:49:33.387217 12233 net.cpp:106] Creating Layer accuracy
I0520 12:49:33.387228 12233 net.cpp:454] accuracy <- ip3_drop3_0_split_0
I0520 12:49:33.387238 12233 net.cpp:454] accuracy <- label_data_hdf5_1_split_0
I0520 12:49:33.387253 12233 net.cpp:411] accuracy -> accuracy
…
