…
I0520 21:56:02.218338 24185 net.cpp:322] The NetState phase (0) differed from the phase (1) specified by a rule in layer data_hdf5
I0520 21:56:02.218397 24185 net.cpp:322] The NetState phase (0) differed from the phase (1) specified by a rule in layer accuracy
I0520 21:56:02.218741 24185 net.cpp:49] Initializing net from parameters: 
name: "caffe_test_127x50_x_unshifted"
state {
  phase: TRAIN
}
layer {
  name: "data_hdf5"
  type: "HDF5Data"
  top: "data"
  top: "label"
  include {
    phase: TRAIN
  }
  hdf5_data_param {
    source: "/lustre/atlas/proj-shared/hep105/caffe_titan/minosmatch_nukecczdefs_127x50_x_unshifted_me1Bmc.trainlist"
    batch_size: 350
  }
}
layer {
  name: "conv1"
  type: "Convolution"
  bottom: "data"
  top: "conv1"
  convolution_param {
    num_output: 12
    pad: 0
    stride: 1
    weight_filler {
      type: "xavier"
    }
    bias_filler {
      type: "constant"
    }
    kernel_h: 8
    kernel_w: 3
  }
}
layer {
  name: "relu1"
  type: "ReLU"
  bottom: "conv1"
  top: "conv1"
}
layer {
  name: "pool1"
  type: "Pooling"
  bottom: "conv1"
  top: "pool1"
  pooling_param {
    pool: MAX
    kernel_h: 2
    kernel_w: 1
    stride_h: 2
    stride_w: 1
  }
}
layer {
  name: "conv2"
  type: "Convolution"
  bottom: "pool1"
  top: "conv2"
  convolution_param {
    num_output: 20
    pad: 0
    stride: 1
    weight_filler {
      type: "xavier"
    }
    bias_filler {
      type: "constant"
    }
    kernel_h: 7
    kernel_w: 3
  }
}
layer {
  name: "relu2"
  type: "ReLU"
  bottom: "conv2"
  top: "conv2"
}
layer {
  name: "pool2"
  type: "Pooling"
  bottom: "conv2"
  top: "pool2"
  pooling_param {
    pool: MAX
    kernel_h: 2
    kernel_w: 1
    stride_h: 2
    stride_w: 1
  }
}
layer {
  name: "conv3"
  type: "Convolution"
  bottom: "pool2"
  top: "conv3"
  convolution_param {
    num_output: 28
    pad: 0
    stride: 1
    weight_filler {
      type: "xavier"
    }
    bias_filler {
      type: "constant"
    }
    kernel_h: 6
    kernel_w: 3
  }
}
layer {
  name: "relu3"
  type: "ReLU"
  bottom: "conv3"
  top: "conv3"
}
layer {
  name: "pool3"
  type: "Pooling"
  bottom: "conv3"
  top: "pool3"
  pooling_param {
    pool: MAX
    kernel_h: 2
    kernel_w: 1
    stride_h: 2
    stride_w: 1
  }
}
layer {
  name: "conv4"
  type: "Convolution"
  bottom: "pool3"
  top: "conv4"
  convolution_param {
    num_output: 36
    pad: 0
    stride: 1
    weight_filler {
      type: "xavier"
    }
    bias_filler {
      type: "constant"
    }
    kernel_h: 6
    kernel_w: 3
  }
}
layer {
  name: "relu4"
  type: "ReLU"
  bottom: "conv4"
  top: "conv4"
}
layer {
  name: "pool4"
  type: "Pooling"
  bottom: "conv4"
  top: "pool4"
  pooling_param {
    pool: MAX
    kernel_h: 2
    kernel_w: 1
    stride_h: 2
    stride_w: 1
  }
}
layer {
  name: "ip1"
  type: "InnerProduct"
  bottom: "pool4"
  top: "ip1"
  inner_product_param {
    num_output: 196
    weight_filler {
      type: "xavier"
    }
    bias_filler {
      type: "constant"
    }
  }
}
layer {
  name: "relu5"
  type: "ReLU"
  bottom: "ip1"
  top: "ip1"
}
layer {
  name: "drop1"
  type: "Dropout"
  bottom: "ip1"
  top: "ip1"
  dropout_param {
    dropout_ratio: 0.5
  }
}
layer {
  name: "ip2"
  type: "InnerProduct"
  bottom: "ip1"
  top: "ip2"
  inner_product_param {
    num_output: 98
    weight_filler {
      type: "xavier"
    }
    bias_filler {
      type: "constant"
    }
  }
}
layer {
  name: "relu6"
  type: "ReLU"
  bottom: "ip2"
  top: "ip2"
}
layer {
  name: "drop2"
  type: "Dropout"
  bottom: "ip2"
  top: "ip2"
  dropout_param {
    dropout_ratio: 0.5
  }
}
layer {
  name: "ip3"
  type: "InnerProduct"
  bottom: "ip2"
  top: "ip3"
  inner_product_param {
    num_output: 11
    weight_filler {
      type: "xavier"
    }
    bias_filler {
      type: "constant"
    }
  }
}
layer {
  name: "drop3"
  type: "Dropout"
  bottom: "ip3"
  top: "ip3"
  dropout_param {
    dropout_ratio: 0.5
  }
}
layer {
  name: "loss"
  type: "SoftmaxWithLoss"
  bottom: "ip3"
  bottom: "label"
  top: "loss"
}
I0520 21:56:02.218919 24185 layer_factory.hpp:77] Creating layer data_hdf5
I0520 21:56:02.218943 24185 net.cpp:106] Creating Layer data_hdf5
I0520 21:56:02.218957 24185 net.cpp:411] data_hdf5 -> data
I0520 21:56:02.218994 24185 net.cpp:411] data_hdf5 -> label
I0520 21:56:02.219029 24185 hdf5_data_layer.cpp:79] Loading list of HDF5 filenames from: /lustre/atlas/proj-shared/hep105/caffe_titan/minosmatch_nukecczdefs_127x50_x_unshifted_me1Bmc.trainlist
I0520 21:56:02.220499 24185 hdf5_data_layer.cpp:93] Number of HDF5 files: 15
I0520 21:56:02.233533 24185 hdf5.cpp:32] Datatype class: H5T_FLOAT
I0520 21:56:23.894260 24185 hdf5.cpp:35] Datatype class: H5T_INTEGER
I0520 21:56:23.899353 24185 net.cpp:150] Setting up data_hdf5
I0520 21:56:23.899389 24185 net.cpp:157] Top shape: 350 1 127 50 (2222500)
I0520 21:56:23.899405 24185 net.cpp:157] Top shape: 350 (350)
I0520 21:56:23.899415 24185 net.cpp:165] Memory required for data: 8891400
I0520 21:56:23.899428 24185 layer_factory.hpp:77] Creating layer conv1
I0520 21:56:23.899462 24185 net.cpp:106] Creating Layer conv1
I0520 21:56:23.899474 24185 net.cpp:454] conv1 <- data
I0520 21:56:23.899497 24185 net.cpp:411] conv1 -> conv1
I0520 21:56:24.263273 24185 net.cpp:150] Setting up conv1
I0520 21:56:24.263315 24185 net.cpp:157] Top shape: 350 12 120 48 (24192000)
I0520 21:56:24.263326 24185 net.cpp:165] Memory required for data: 105659400
I0520 21:56:24.263355 24185 layer_factory.hpp:77] Creating layer relu1
I0520 21:56:24.263376 24185 net.cpp:106] Creating Layer relu1
I0520 21:56:24.263387 24185 net.cpp:454] relu1 <- conv1
I0520 21:56:24.263401 24185 net.cpp:397] relu1 -> conv1 (in-place)
I0520 21:56:24.263916 24185 net.cpp:150] Setting up relu1
I0520 21:56:24.263933 24185 net.cpp:157] Top shape: 350 12 120 48 (24192000)
I0520 21:56:24.263944 24185 net.cpp:165] Memory required for data: 202427400
I0520 21:56:24.263955 24185 layer_factory.hpp:77] Creating layer pool1
I0520 21:56:24.263972 24185 net.cpp:106] Creating Layer pool1
I0520 21:56:24.263983 24185 net.cpp:454] pool1 <- conv1
I0520 21:56:24.263996 24185 net.cpp:411] pool1 -> pool1
I0520 21:56:24.264075 24185 net.cpp:150] Setting up pool1
I0520 21:56:24.264089 24185 net.cpp:157] Top shape: 350 12 60 48 (12096000)
I0520 21:56:24.264099 24185 net.cpp:165] Memory required for data: 250811400
I0520 21:56:24.264111 24185 layer_factory.hpp:77] Creating layer conv2
I0520 21:56:24.264132 24185 net.cpp:106] Creating Layer conv2
I0520 21:56:24.264142 24185 net.cpp:454] conv2 <- pool1
I0520 21:56:24.264155 24185 net.cpp:411] conv2 -> conv2
I0520 21:56:24.266834 24185 net.cpp:150] Setting up conv2
I0520 21:56:24.266861 24185 net.cpp:157] Top shape: 350 20 54 46 (17388000)
I0520 21:56:24.266872 24185 net.cpp:165] Memory required for data: 320363400
I0520 21:56:24.266892 24185 layer_factory.hpp:77] Creating layer relu2
I0520 21:56:24.266906 24185 net.cpp:106] Creating Layer relu2
I0520 21:56:24.266916 24185 net.cpp:454] relu2 <- conv2
I0520 21:56:24.266932 24185 net.cpp:397] relu2 -> conv2 (in-place)
I0520 21:56:24.267258 24185 net.cpp:150] Setting up relu2
I0520 21:56:24.267273 24185 net.cpp:157] Top shape: 350 20 54 46 (17388000)
I0520 21:56:24.267284 24185 net.cpp:165] Memory required for data: 389915400
I0520 21:56:24.267294 24185 layer_factory.hpp:77] Creating layer pool2
I0520 21:56:24.267307 24185 net.cpp:106] Creating Layer pool2
I0520 21:56:24.267316 24185 net.cpp:454] pool2 <- conv2
I0520 21:56:24.267341 24185 net.cpp:411] pool2 -> pool2
I0520 21:56:24.267410 24185 net.cpp:150] Setting up pool2
I0520 21:56:24.267422 24185 net.cpp:157] Top shape: 350 20 27 46 (8694000)
I0520 21:56:24.267432 24185 net.cpp:165] Memory required for data: 424691400
I0520 21:56:24.267443 24185 layer_factory.hpp:77] Creating layer conv3
I0520 21:56:24.267462 24185 net.cpp:106] Creating Layer conv3
I0520 21:56:24.267472 24185 net.cpp:454] conv3 <- pool2
I0520 21:56:24.267487 24185 net.cpp:411] conv3 -> conv3
I0520 21:56:24.269433 24185 net.cpp:150] Setting up conv3
I0520 21:56:24.269456 24185 net.cpp:157] Top shape: 350 28 22 44 (9486400)
I0520 21:56:24.269469 24185 net.cpp:165] Memory required for data: 462637000
I0520 21:56:24.269489 24185 layer_factory.hpp:77] Creating layer relu3
I0520 21:56:24.269505 24185 net.cpp:106] Creating Layer relu3
I0520 21:56:24.269515 24185 net.cpp:454] relu3 <- conv3
I0520 21:56:24.269526 24185 net.cpp:397] relu3 -> conv3 (in-place)
I0520 21:56:24.269997 24185 net.cpp:150] Setting up relu3
I0520 21:56:24.270015 24185 net.cpp:157] Top shape: 350 28 22 44 (9486400)
I0520 21:56:24.270025 24185 net.cpp:165] Memory required for data: 500582600
I0520 21:56:24.270035 24185 layer_factory.hpp:77] Creating layer pool3
I0520 21:56:24.270048 24185 net.cpp:106] Creating Layer pool3
I0520 21:56:24.270058 24185 net.cpp:454] pool3 <- conv3
I0520 21:56:24.270071 24185 net.cpp:411] pool3 -> pool3
I0520 21:56:24.270138 24185 net.cpp:150] Setting up pool3
I0520 21:56:24.270151 24185 net.cpp:157] Top shape: 350 28 11 44 (4743200)
I0520 21:56:24.270161 24185 net.cpp:165] Memory required for data: 519555400
I0520 21:56:24.270170 24185 layer_factory.hpp:77] Creating layer conv4
I0520 21:56:24.270189 24185 net.cpp:106] Creating Layer conv4
I0520 21:56:24.270200 24185 net.cpp:454] conv4 <- pool3
I0520 21:56:24.270213 24185 net.cpp:411] conv4 -> conv4
I0520 21:56:24.272982 24185 net.cpp:150] Setting up conv4
I0520 21:56:24.273011 24185 net.cpp:157] Top shape: 350 36 6 42 (3175200)
I0520 21:56:24.273023 24185 net.cpp:165] Memory required for data: 532256200
I0520 21:56:24.273041 24185 layer_factory.hpp:77] Creating layer relu4
I0520 21:56:24.273054 24185 net.cpp:106] Creating Layer relu4
I0520 21:56:24.273064 24185 net.cpp:454] relu4 <- conv4
I0520 21:56:24.273077 24185 net.cpp:397] relu4 -> conv4 (in-place)
I0520 21:56:24.273560 24185 net.cpp:150] Setting up relu4
I0520 21:56:24.273576 24185 net.cpp:157] Top shape: 350 36 6 42 (3175200)
I0520 21:56:24.273587 24185 net.cpp:165] Memory required for data: 544957000
I0520 21:56:24.273597 24185 layer_factory.hpp:77] Creating layer pool4
I0520 21:56:24.273610 24185 net.cpp:106] Creating Layer pool4
I0520 21:56:24.273620 24185 net.cpp:454] pool4 <- conv4
I0520 21:56:24.273633 24185 net.cpp:411] pool4 -> pool4
I0520 21:56:24.273701 24185 net.cpp:150] Setting up pool4
I0520 21:56:24.273715 24185 net.cpp:157] Top shape: 350 36 3 42 (1587600)
I0520 21:56:24.273725 24185 net.cpp:165] Memory required for data: 551307400
I0520 21:56:24.273736 24185 layer_factory.hpp:77] Creating layer ip1
I0520 21:56:24.273756 24185 net.cpp:106] Creating Layer ip1
I0520 21:56:24.273766 24185 net.cpp:454] ip1 <- pool4
I0520 21:56:24.273778 24185 net.cpp:411] ip1 -> ip1
I0520 21:56:24.289189 24185 net.cpp:150] Setting up ip1
I0520 21:56:24.289217 24185 net.cpp:157] Top shape: 350 196 (68600)
I0520 21:56:24.289230 24185 net.cpp:165] Memory required for data: 551581800
I0520 21:56:24.289252 24185 layer_factory.hpp:77] Creating layer relu5
I0520 21:56:24.289266 24185 net.cpp:106] Creating Layer relu5
I0520 21:56:24.289276 24185 net.cpp:454] relu5 <- ip1
I0520 21:56:24.289290 24185 net.cpp:397] relu5 -> ip1 (in-place)
I0520 21:56:24.289633 24185 net.cpp:150] Setting up relu5
I0520 21:56:24.289646 24185 net.cpp:157] Top shape: 350 196 (68600)
I0520 21:56:24.289657 24185 net.cpp:165] Memory required for data: 551856200
I0520 21:56:24.289667 24185 layer_factory.hpp:77] Creating layer drop1
I0520 21:56:24.289688 24185 net.cpp:106] Creating Layer drop1
I0520 21:56:24.289698 24185 net.cpp:454] drop1 <- ip1
I0520 21:56:24.289723 24185 net.cpp:397] drop1 -> ip1 (in-place)
I0520 21:56:24.289770 24185 net.cpp:150] Setting up drop1
I0520 21:56:24.289783 24185 net.cpp:157] Top shape: 350 196 (68600)
I0520 21:56:24.289793 24185 net.cpp:165] Memory required for data: 552130600
I0520 21:56:24.289803 24185 layer_factory.hpp:77] Creating layer ip2
I0520 21:56:24.289822 24185 net.cpp:106] Creating Layer ip2
I0520 21:56:24.289832 24185 net.cpp:454] ip2 <- ip1
I0520 21:56:24.289845 24185 net.cpp:411] ip2 -> ip2
I0520 21:56:24.290313 24185 net.cpp:150] Setting up ip2
I0520 21:56:24.290326 24185 net.cpp:157] Top shape: 350 98 (34300)
I0520 21:56:24.290336 24185 net.cpp:165] Memory required for data: 552267800
I0520 21:56:24.290351 24185 layer_factory.hpp:77] Creating layer relu6
I0520 21:56:24.290364 24185 net.cpp:106] Creating Layer relu6
I0520 21:56:24.290374 24185 net.cpp:454] relu6 <- ip2
I0520 21:56:24.290385 24185 net.cpp:397] relu6 -> ip2 (in-place)
I0520 21:56:24.290904 24185 net.cpp:150] Setting up relu6
I0520 21:56:24.290920 24185 net.cpp:157] Top shape: 350 98 (34300)
I0520 21:56:24.290930 24185 net.cpp:165] Memory required for data: 552405000
I0520 21:56:24.290940 24185 layer_factory.hpp:77] Creating layer drop2
I0520 21:56:24.290953 24185 net.cpp:106] Creating Layer drop2
I0520 21:56:24.290963 24185 net.cpp:454] drop2 <- ip2
I0520 21:56:24.290976 24185 net.cpp:397] drop2 -> ip2 (in-place)
I0520 21:56:24.291018 24185 net.cpp:150] Setting up drop2
I0520 21:56:24.291031 24185 net.cpp:157] Top shape: 350 98 (34300)
I0520 21:56:24.291043 24185 net.cpp:165] Memory required for data: 552542200
I0520 21:56:24.291052 24185 layer_factory.hpp:77] Creating layer ip3
I0520 21:56:24.291065 24185 net.cpp:106] Creating Layer ip3
I0520 21:56:24.291075 24185 net.cpp:454] ip3 <- ip2
I0520 21:56:24.291088 24185 net.cpp:411] ip3 -> ip3
I0520 21:56:24.291297 24185 net.cpp:150] Setting up ip3
I0520 21:56:24.291311 24185 net.cpp:157] Top shape: 350 11 (3850)
I0520 21:56:24.291321 24185 net.cpp:165] Memory required for data: 552557600
I0520 21:56:24.291337 24185 layer_factory.hpp:77] Creating layer drop3
I0520 21:56:24.291349 24185 net.cpp:106] Creating Layer drop3
I0520 21:56:24.291358 24185 net.cpp:454] drop3 <- ip3
I0520 21:56:24.291370 24185 net.cpp:397] drop3 -> ip3 (in-place)
I0520 21:56:24.291409 24185 net.cpp:150] Setting up drop3
I0520 21:56:24.291422 24185 net.cpp:157] Top shape: 350 11 (3850)
I0520 21:56:24.291432 24185 net.cpp:165] Memory required for data: 552573000
I0520 21:56:24.291442 24185 layer_factory.hpp:77] Creating layer loss
I0520 21:56:24.291461 24185 net.cpp:106] Creating Layer loss
I0520 21:56:24.291471 24185 net.cpp:454] loss <- ip3
I0520 21:56:24.291482 24185 net.cpp:454] loss <- label
I0520 21:56:24.291496 24185 net.cpp:411] loss -> loss
I0520 21:56:24.291512 24185 layer_factory.hpp:77] Creating layer loss
…
I0520 21:56:24.294095 24185 solver.cpp:181] Creating test net (#0) specified by net file: /lustre/atlas/proj-shared/hep105/caffe_titan/caffe_workflow/logs_batch_size_test/batch_size_350_2016-05-20T11.20.45.470552.prototxt
I0520 21:56:24.294165 24185 net.cpp:322] The NetState phase (1) differed from the phase (0) specified by a rule in layer data_hdf5
I0520 21:56:24.294522 24185 net.cpp:49] Initializing net from parameters: 
name: "caffe_test_127x50_x_unshifted"
state {
  phase: TEST
}
layer {
  name: "data_hdf5"
  type: "HDF5Data"
  top: "data"
  top: "label"
  include {
    phase: TEST
  }
  hdf5_data_param {
    source: "/lustre/atlas/proj-shared/hep105/caffe_titan/minosmatch_nukecczdefs_127x50_x_unshifted_me1Bmc.testlist"
    batch_size: 350
  }
}
layer {
  name: "conv1"
  type: "Convolution"
  bottom: "data"
  top: "conv1"
  convolution_param {
    num_output: 12
    pad: 0
    stride: 1
    weight_filler {
      type: "xavier"
    }
    bias_filler {
      type: "constant"
    }
    kernel_h: 8
    kernel_w: 3
  }
}
layer {
  name: "relu1"
  type: "ReLU"
  bottom: "conv1"
  top: "conv1"
}
layer {
  name: "pool1"
  type: "Pooling"
  bottom: "conv1"
  top: "pool1"
  pooling_param {
    pool: MAX
    kernel_h: 2
    kernel_w: 1
    stride_h: 2
    stride_w: 1
  }
}
layer {
  name: "conv2"
  type: "Convolution"
  bottom: "pool1"
  top: "conv2"
  convolution_param {
    num_output: 20
    pad: 0
    stride: 1
    weight_filler {
      type: "xavier"
    }
    bias_filler {
      type: "constant"
    }
    kernel_h: 7
    kernel_w: 3
  }
}
layer {
  name: "relu2"
  type: "ReLU"
  bottom: "conv2"
  top: "conv2"
}
layer {
  name: "pool2"
  type: "Pooling"
  bottom: "conv2"
  top: "pool2"
  pooling_param {
    pool: MAX
    kernel_h: 2
    kernel_w: 1
    stride_h: 2
    stride_w: 1
  }
}
layer {
  name: "conv3"
  type: "Convolution"
  bottom: "pool2"
  top: "conv3"
  convolution_param {
    num_output: 28
    pad: 0
    stride: 1
    weight_filler {
      type: "xavier"
    }
    bias_filler {
      type: "constant"
    }
    kernel_h: 6
    kernel_w: 3
  }
}
layer {
  name: "relu3"
  type: "ReLU"
  bottom: "conv3"
  top: "conv3"
}
layer {
  name: "pool3"
  type: "Pooling"
  bottom: "conv3"
  top: "pool3"
  pooling_param {
    pool: MAX
    kernel_h: 2
    kernel_w: 1
    stride_h: 2
    stride_w: 1
  }
}
layer {
  name: "conv4"
  type: "Convolution"
  bottom: "pool3"
  top: "conv4"
  convolution_param {
    num_output: 36
    pad: 0
    stride: 1
    weight_filler {
      type: "xavier"
    }
    bias_filler {
      type: "constant"
    }
    kernel_h: 6
    kernel_w: 3
  }
}
layer {
  name: "relu4"
  type: "ReLU"
  bottom: "conv4"
  top: "conv4"
}
layer {
  name: "pool4"
  type: "Pooling"
  bottom: "conv4"
  top: "pool4"
  pooling_param {
    pool: MAX
    kernel_h: 2
    kernel_w: 1
    stride_h: 2
    stride_w: 1
  }
}
layer {
  name: "ip1"
  type: "InnerProduct"
  bottom: "pool4"
  top: "ip1"
  inner_product_param {
    num_output: 196
    weight_filler {
      type: "xavier"
    }
    bias_filler {
      type: "constant"
    }
  }
}
layer {
  name: "relu5"
  type: "ReLU"
  bottom: "ip1"
  top: "ip1"
}
layer {
  name: "drop1"
  type: "Dropout"
  bottom: "ip1"
  top: "ip1"
  dropout_param {
    dropout_ratio: 0.5
  }
}
layer {
  name: "ip2"
  type: "InnerProduct"
  bottom: "ip1"
  top: "ip2"
  inner_product_param {
    num_output: 98
    weight_filler {
      type: "xavier"
    }
    bias_filler {
      type: "constant"
    }
  }
}
layer {
  name: "relu6"
  type: "ReLU"
  bottom: "ip2"
  top: "ip2"
}
layer {
  name: "drop2"
  type: "Dropout"
  bottom: "ip2"
  top: "ip2"
  dropout_param {
    dropout_ratio: 0.5
  }
}
layer {
  name: "ip3"
  type: "InnerProduct"
  bottom: "ip2"
  top: "ip3"
  inner_product_param {
    num_output: 11
    weight_filler {
      type: "xavier"
    }
    bias_filler {
      type: "constant"
    }
  }
}
layer {
  name: "drop3"
  type: "Dropout"
  bottom: "ip3"
  top: "ip3"
  dropout_param {
    dropout_ratio: 0.5
  }
}
layer {
  name: "accuracy"
  type: "Accuracy"
  bottom: "ip3"
  bottom: "label"
  top: "accuracy"
  include {
    phase: TEST
  }
}
layer {
  name: "loss"
  type: "SoftmaxWithLoss"
  bottom: "ip3"
  bottom: "label"
  top: "loss"
}
I0520 21:56:24.294710 24185 layer_factory.hpp:77] Creating layer data_hdf5
I0520 21:56:24.294725 24185 net.cpp:106] Creating Layer data_hdf5
I0520 21:56:24.294737 24185 net.cpp:411] data_hdf5 -> data
I0520 21:56:24.294754 24185 net.cpp:411] data_hdf5 -> label
I0520 21:56:24.294770 24185 hdf5_data_layer.cpp:79] Loading list of HDF5 filenames from: /lustre/atlas/proj-shared/hep105/caffe_titan/minosmatch_nukecczdefs_127x50_x_unshifted_me1Bmc.testlist
I0520 21:56:24.296120 24185 hdf5_data_layer.cpp:93] Number of HDF5 files: 3
I0520 21:56:45.576128 24185 net.cpp:150] Setting up data_hdf5
I0520 21:56:45.576288 24185 net.cpp:157] Top shape: 350 1 127 50 (2222500)
I0520 21:56:45.576303 24185 net.cpp:157] Top shape: 350 (350)
I0520 21:56:45.576315 24185 net.cpp:165] Memory required for data: 8891400
I0520 21:56:45.576329 24185 layer_factory.hpp:77] Creating layer label_data_hdf5_1_split
I0520 21:56:45.576356 24185 net.cpp:106] Creating Layer label_data_hdf5_1_split
I0520 21:56:45.576367 24185 net.cpp:454] label_data_hdf5_1_split <- label
I0520 21:56:45.576382 24185 net.cpp:411] label_data_hdf5_1_split -> label_data_hdf5_1_split_0
I0520 21:56:45.576405 24185 net.cpp:411] label_data_hdf5_1_split -> label_data_hdf5_1_split_1
I0520 21:56:45.576477 24185 net.cpp:150] Setting up label_data_hdf5_1_split
I0520 21:56:45.576490 24185 net.cpp:157] Top shape: 350 (350)
I0520 21:56:45.576501 24185 net.cpp:157] Top shape: 350 (350)
I0520 21:56:45.576511 24185 net.cpp:165] Memory required for data: 8894200
I0520 21:56:45.576521 24185 layer_factory.hpp:77] Creating layer conv1
I0520 21:56:45.576541 24185 net.cpp:106] Creating Layer conv1
I0520 21:56:45.576551 24185 net.cpp:454] conv1 <- data
I0520 21:56:45.576565 24185 net.cpp:411] conv1 -> conv1
I0520 21:56:45.578526 24185 net.cpp:150] Setting up conv1
I0520 21:56:45.578550 24185 net.cpp:157] Top shape: 350 12 120 48 (24192000)
I0520 21:56:45.578562 24185 net.cpp:165] Memory required for data: 105662200
I0520 21:56:45.578583 24185 layer_factory.hpp:77] Creating layer relu1
I0520 21:56:45.578598 24185 net.cpp:106] Creating Layer relu1
I0520 21:56:45.578608 24185 net.cpp:454] relu1 <- conv1
I0520 21:56:45.578621 24185 net.cpp:397] relu1 -> conv1 (in-place)
I0520 21:56:45.579118 24185 net.cpp:150] Setting up relu1
I0520 21:56:45.579133 24185 net.cpp:157] Top shape: 350 12 120 48 (24192000)
I0520 21:56:45.579144 24185 net.cpp:165] Memory required for data: 202430200
I0520 21:56:45.579154 24185 layer_factory.hpp:77] Creating layer pool1
I0520 21:56:45.579170 24185 net.cpp:106] Creating Layer pool1
I0520 21:56:45.579180 24185 net.cpp:454] pool1 <- conv1
I0520 21:56:45.579193 24185 net.cpp:411] pool1 -> pool1
I0520 21:56:45.579269 24185 net.cpp:150] Setting up pool1
I0520 21:56:45.579282 24185 net.cpp:157] Top shape: 350 12 60 48 (12096000)
I0520 21:56:45.579291 24185 net.cpp:165] Memory required for data: 250814200
I0520 21:56:45.579299 24185 layer_factory.hpp:77] Creating layer conv2
I0520 21:56:45.579318 24185 net.cpp:106] Creating Layer conv2
I0520 21:56:45.579329 24185 net.cpp:454] conv2 <- pool1
I0520 21:56:45.579341 24185 net.cpp:411] conv2 -> conv2
I0520 21:56:45.581264 24185 net.cpp:150] Setting up conv2
I0520 21:56:45.581285 24185 net.cpp:157] Top shape: 350 20 54 46 (17388000)
I0520 21:56:45.581298 24185 net.cpp:165] Memory required for data: 320366200
I0520 21:56:45.581316 24185 layer_factory.hpp:77] Creating layer relu2
I0520 21:56:45.581331 24185 net.cpp:106] Creating Layer relu2
I0520 21:56:45.581341 24185 net.cpp:454] relu2 <- conv2
I0520 21:56:45.581352 24185 net.cpp:397] relu2 -> conv2 (in-place)
I0520 21:56:45.581687 24185 net.cpp:150] Setting up relu2
I0520 21:56:45.581701 24185 net.cpp:157] Top shape: 350 20 54 46 (17388000)
I0520 21:56:45.581710 24185 net.cpp:165] Memory required for data: 389918200
I0520 21:56:45.581720 24185 layer_factory.hpp:77] Creating layer pool2
I0520 21:56:45.581734 24185 net.cpp:106] Creating Layer pool2
I0520 21:56:45.581744 24185 net.cpp:454] pool2 <- conv2
I0520 21:56:45.581758 24185 net.cpp:411] pool2 -> pool2
I0520 21:56:45.581828 24185 net.cpp:150] Setting up pool2
I0520 21:56:45.581842 24185 net.cpp:157] Top shape: 350 20 27 46 (8694000)
I0520 21:56:45.581851 24185 net.cpp:165] Memory required for data: 424694200
I0520 21:56:45.581861 24185 layer_factory.hpp:77] Creating layer conv3
I0520 21:56:45.581879 24185 net.cpp:106] Creating Layer conv3
I0520 21:56:45.581890 24185 net.cpp:454] conv3 <- pool2
I0520 21:56:45.581903 24185 net.cpp:411] conv3 -> conv3
I0520 21:56:45.583874 24185 net.cpp:150] Setting up conv3
I0520 21:56:45.583897 24185 net.cpp:157] Top shape: 350 28 22 44 (9486400)
I0520 21:56:45.583909 24185 net.cpp:165] Memory required for data: 462639800
I0520 21:56:45.583940 24185 layer_factory.hpp:77] Creating layer relu3
I0520 21:56:45.583955 24185 net.cpp:106] Creating Layer relu3
I0520 21:56:45.583964 24185 net.cpp:454] relu3 <- conv3
I0520 21:56:45.583977 24185 net.cpp:397] relu3 -> conv3 (in-place)
I0520 21:56:45.584506 24185 net.cpp:150] Setting up relu3
I0520 21:56:45.584522 24185 net.cpp:157] Top shape: 350 28 22 44 (9486400)
I0520 21:56:45.584530 24185 net.cpp:165] Memory required for data: 500585400
I0520 21:56:45.584542 24185 layer_factory.hpp:77] Creating layer pool3
I0520 21:56:45.584554 24185 net.cpp:106] Creating Layer pool3
I0520 21:56:45.584565 24185 net.cpp:454] pool3 <- conv3
I0520 21:56:45.584578 24185 net.cpp:411] pool3 -> pool3
I0520 21:56:45.584650 24185 net.cpp:150] Setting up pool3
I0520 21:56:45.584662 24185 net.cpp:157] Top shape: 350 28 11 44 (4743200)
I0520 21:56:45.584672 24185 net.cpp:165] Memory required for data: 519558200
I0520 21:56:45.584682 24185 layer_factory.hpp:77] Creating layer conv4
I0520 21:56:45.584699 24185 net.cpp:106] Creating Layer conv4
I0520 21:56:45.584710 24185 net.cpp:454] conv4 <- pool3
I0520 21:56:45.584724 24185 net.cpp:411] conv4 -> conv4
I0520 21:56:45.586791 24185 net.cpp:150] Setting up conv4
I0520 21:56:45.586814 24185 net.cpp:157] Top shape: 350 36 6 42 (3175200)
I0520 21:56:45.586824 24185 net.cpp:165] Memory required for data: 532259000
I0520 21:56:45.586839 24185 layer_factory.hpp:77] Creating layer relu4
I0520 21:56:45.586853 24185 net.cpp:106] Creating Layer relu4
I0520 21:56:45.586863 24185 net.cpp:454] relu4 <- conv4
I0520 21:56:45.586875 24185 net.cpp:397] relu4 -> conv4 (in-place)
I0520 21:56:45.587345 24185 net.cpp:150] Setting up relu4
I0520 21:56:45.587362 24185 net.cpp:157] Top shape: 350 36 6 42 (3175200)
I0520 21:56:45.587371 24185 net.cpp:165] Memory required for data: 544959800
I0520 21:56:45.587381 24185 layer_factory.hpp:77] Creating layer pool4
I0520 21:56:45.587394 24185 net.cpp:106] Creating Layer pool4
I0520 21:56:45.587404 24185 net.cpp:454] pool4 <- conv4
I0520 21:56:45.587419 24185 net.cpp:411] pool4 -> pool4
I0520 21:56:45.587489 24185 net.cpp:150] Setting up pool4
I0520 21:56:45.587503 24185 net.cpp:157] Top shape: 350 36 3 42 (1587600)
I0520 21:56:45.587512 24185 net.cpp:165] Memory required for data: 551310200
I0520 21:56:45.587523 24185 layer_factory.hpp:77] Creating layer ip1
I0520 21:56:45.587538 24185 net.cpp:106] Creating Layer ip1
I0520 21:56:45.587548 24185 net.cpp:454] ip1 <- pool4
I0520 21:56:45.587563 24185 net.cpp:411] ip1 -> ip1
I0520 21:56:45.603142 24185 net.cpp:150] Setting up ip1
I0520 21:56:45.603170 24185 net.cpp:157] Top shape: 350 196 (68600)
I0520 21:56:45.603188 24185 net.cpp:165] Memory required for data: 551584600
I0520 21:56:45.603209 24185 layer_factory.hpp:77] Creating layer relu5
I0520 21:56:45.603224 24185 net.cpp:106] Creating Layer relu5
I0520 21:56:45.603235 24185 net.cpp:454] relu5 <- ip1
I0520 21:56:45.603252 24185 net.cpp:397] relu5 -> ip1 (in-place)
I0520 21:56:45.603598 24185 net.cpp:150] Setting up relu5
I0520 21:56:45.603612 24185 net.cpp:157] Top shape: 350 196 (68600)
I0520 21:56:45.603622 24185 net.cpp:165] Memory required for data: 551859000
I0520 21:56:45.603632 24185 layer_factory.hpp:77] Creating layer drop1
I0520 21:56:45.603652 24185 net.cpp:106] Creating Layer drop1
I0520 21:56:45.603662 24185 net.cpp:454] drop1 <- ip1
I0520 21:56:45.603674 24185 net.cpp:397] drop1 -> ip1 (in-place)
I0520 21:56:45.603718 24185 net.cpp:150] Setting up drop1
I0520 21:56:45.603731 24185 net.cpp:157] Top shape: 350 196 (68600)
I0520 21:56:45.603740 24185 net.cpp:165] Memory required for data: 552133400
I0520 21:56:45.603751 24185 layer_factory.hpp:77] Creating layer ip2
I0520 21:56:45.603766 24185 net.cpp:106] Creating Layer ip2
I0520 21:56:45.603775 24185 net.cpp:454] ip2 <- ip1
I0520 21:56:45.603790 24185 net.cpp:411] ip2 -> ip2
I0520 21:56:45.604272 24185 net.cpp:150] Setting up ip2
I0520 21:56:45.604286 24185 net.cpp:157] Top shape: 350 98 (34300)
I0520 21:56:45.604296 24185 net.cpp:165] Memory required for data: 552270600
I0520 21:56:45.604324 24185 layer_factory.hpp:77] Creating layer relu6
I0520 21:56:45.604337 24185 net.cpp:106] Creating Layer relu6
I0520 21:56:45.604347 24185 net.cpp:454] relu6 <- ip2
I0520 21:56:45.604359 24185 net.cpp:397] relu6 -> ip2 (in-place)
I0520 21:56:45.604897 24185 net.cpp:150] Setting up relu6
I0520 21:56:45.604919 24185 net.cpp:157] Top shape: 350 98 (34300)
I0520 21:56:45.604928 24185 net.cpp:165] Memory required for data: 552407800
I0520 21:56:45.604939 24185 layer_factory.hpp:77] Creating layer drop2
I0520 21:56:45.604954 24185 net.cpp:106] Creating Layer drop2
I0520 21:56:45.604964 24185 net.cpp:454] drop2 <- ip2
I0520 21:56:45.604976 24185 net.cpp:397] drop2 -> ip2 (in-place)
I0520 21:56:45.605020 24185 net.cpp:150] Setting up drop2
I0520 21:56:45.605032 24185 net.cpp:157] Top shape: 350 98 (34300)
I0520 21:56:45.605042 24185 net.cpp:165] Memory required for data: 552545000
I0520 21:56:45.605052 24185 layer_factory.hpp:77] Creating layer ip3
I0520 21:56:45.605067 24185 net.cpp:106] Creating Layer ip3
I0520 21:56:45.605077 24185 net.cpp:454] ip3 <- ip2
I0520 21:56:45.605090 24185 net.cpp:411] ip3 -> ip3
I0520 21:56:45.605322 24185 net.cpp:150] Setting up ip3
I0520 21:56:45.605335 24185 net.cpp:157] Top shape: 350 11 (3850)
I0520 21:56:45.605345 24185 net.cpp:165] Memory required for data: 552560400
I0520 21:56:45.605361 24185 layer_factory.hpp:77] Creating layer drop3
I0520 21:56:45.605375 24185 net.cpp:106] Creating Layer drop3
I0520 21:56:45.605383 24185 net.cpp:454] drop3 <- ip3
I0520 21:56:45.605396 24185 net.cpp:397] drop3 -> ip3 (in-place)
I0520 21:56:45.605437 24185 net.cpp:150] Setting up drop3
I0520 21:56:45.605450 24185 net.cpp:157] Top shape: 350 11 (3850)
I0520 21:56:45.605460 24185 net.cpp:165] Memory required for data: 552575800
I0520 21:56:45.605469 24185 layer_factory.hpp:77] Creating layer ip3_drop3_0_split
I0520 21:56:45.605482 24185 net.cpp:106] Creating Layer ip3_drop3_0_split
I0520 21:56:45.605492 24185 net.cpp:454] ip3_drop3_0_split <- ip3
I0520 21:56:45.605505 24185 net.cpp:411] ip3_drop3_0_split -> ip3_drop3_0_split_0
I0520 21:56:45.605520 24185 net.cpp:411] ip3_drop3_0_split -> ip3_drop3_0_split_1
I0520 21:56:45.605593 24185 net.cpp:150] Setting up ip3_drop3_0_split
I0520 21:56:45.605607 24185 net.cpp:157] Top shape: 350 11 (3850)
I0520 21:56:45.605618 24185 net.cpp:157] Top shape: 350 11 (3850)
I0520 21:56:45.605628 24185 net.cpp:165] Memory required for data: 552606600
I0520 21:56:45.605639 24185 layer_factory.hpp:77] Creating layer accuracy
I0520 21:56:45.605660 24185 net.cpp:106] Creating Layer accuracy
I0520 21:56:45.605670 24185 net.cpp:454] accuracy <- ip3_drop3_0_split_0
I0520 21:56:45.605681 24185 net.cpp:454] accuracy <- label_data_hdf5_1_split_0
I0520 21:56:45.605695 24185 net.cpp:411] accuracy -> accuracy
…
