…
I0520 15:47:18.484869 22354 net.cpp:322] The NetState phase (0) differed from the phase (1) specified by a rule in layer data_hdf5
I0520 15:47:18.484935 22354 net.cpp:322] The NetState phase (0) differed from the phase (1) specified by a rule in layer accuracy
I0520 15:47:18.485278 22354 net.cpp:49] Initializing net from parameters: 
name: "caffe_test_127x50_x_unshifted"
state {
  phase: TRAIN
}
layer {
  name: "data_hdf5"
  type: "HDF5Data"
  top: "data"
  top: "label"
  include {
    phase: TRAIN
  }
  hdf5_data_param {
    source: "/lustre/atlas/proj-shared/hep105/caffe_titan/minosmatch_nukecczdefs_127x50_x_unshifted_me1Bmc.trainlist"
    batch_size: 200
  }
}
layer {
  name: "conv1"
  type: "Convolution"
  bottom: "data"
  top: "conv1"
  convolution_param {
    num_output: 12
    pad: 0
    stride: 1
    weight_filler {
      type: "xavier"
    }
    bias_filler {
      type: "constant"
    }
    kernel_h: 8
    kernel_w: 3
  }
}
layer {
  name: "relu1"
  type: "ReLU"
  bottom: "conv1"
  top: "conv1"
}
layer {
  name: "pool1"
  type: "Pooling"
  bottom: "conv1"
  top: "pool1"
  pooling_param {
    pool: MAX
    kernel_h: 2
    kernel_w: 1
    stride_h: 2
    stride_w: 1
  }
}
layer {
  name: "conv2"
  type: "Convolution"
  bottom: "pool1"
  top: "conv2"
  convolution_param {
    num_output: 20
    pad: 0
    stride: 1
    weight_filler {
      type: "xavier"
    }
    bias_filler {
      type: "constant"
    }
    kernel_h: 7
    kernel_w: 3
  }
}
layer {
  name: "relu2"
  type: "ReLU"
  bottom: "conv2"
  top: "conv2"
}
layer {
  name: "pool2"
  type: "Pooling"
  bottom: "conv2"
  top: "pool2"
  pooling_param {
    pool: MAX
    kernel_h: 2
    kernel_w: 1
    stride_h: 2
    stride_w: 1
  }
}
layer {
  name: "conv3"
  type: "Convolution"
  bottom: "pool2"
  top: "conv3"
  convolution_param {
    num_output: 28
    pad: 0
    stride: 1
    weight_filler {
      type: "xavier"
    }
    bias_filler {
      type: "constant"
    }
    kernel_h: 6
    kernel_w: 3
  }
}
layer {
  name: "relu3"
  type: "ReLU"
  bottom: "conv3"
  top: "conv3"
}
layer {
  name: "pool3"
  type: "Pooling"
  bottom: "conv3"
  top: "pool3"
  pooling_param {
    pool: MAX
    kernel_h: 2
    kernel_w: 1
    stride_h: 2
    stride_w: 1
  }
}
layer {
  name: "conv4"
  type: "Convolution"
  bottom: "pool3"
  top: "conv4"
  convolution_param {
    num_output: 36
    pad: 0
    stride: 1
    weight_filler {
      type: "xavier"
    }
    bias_filler {
      type: "constant"
    }
    kernel_h: 6
    kernel_w: 3
  }
}
layer {
  name: "relu4"
  type: "ReLU"
  bottom: "conv4"
  top: "conv4"
}
layer {
  name: "pool4"
  type: "Pooling"
  bottom: "conv4"
  top: "pool4"
  pooling_param {
    pool: MAX
    kernel_h: 2
    kernel_w: 1
    stride_h: 2
    stride_w: 1
  }
}
layer {
  name: "ip1"
  type: "InnerProduct"
  bottom: "pool4"
  top: "ip1"
  inner_product_param {
    num_output: 196
    weight_filler {
      type: "xavier"
    }
    bias_filler {
      type: "constant"
    }
  }
}
layer {
  name: "relu5"
  type: "ReLU"
  bottom: "ip1"
  top: "ip1"
}
layer {
  name: "drop1"
  type: "Dropout"
  bottom: "ip1"
  top: "ip1"
  dropout_param {
    dropout_ratio: 0.5
  }
}
layer {
  name: "ip2"
  type: "InnerProduct"
  bottom: "ip1"
  top: "ip2"
  inner_product_param {
    num_output: 98
    weight_filler {
      type: "xavier"
    }
    bias_filler {
      type: "constant"
    }
  }
}
layer {
  name: "relu6"
  type: "ReLU"
  bottom: "ip2"
  top: "ip2"
}
layer {
  name: "drop2"
  type: "Dropout"
  bottom: "ip2"
  top: "ip2"
  dropout_param {
    dropout_ratio: 0.5
  }
}
layer {
  name: "ip3"
  type: "InnerProduct"
  bottom: "ip2"
  top: "ip3"
  inner_product_param {
    num_output: 11
    weight_filler {
      type: "xavier"
    }
    bias_filler {
      type: "constant"
    }
  }
}
layer {
  name: "drop3"
  type: "Dropout"
  bottom: "ip3"
  top: "ip3"
  dropout_param {
    dropout_ratio: 0.5
  }
}
layer {
  name: "loss"
  type: "SoftmaxWithLoss"
  bottom: "ip3"
  bottom: "label"
  top: "loss"
}
I0520 15:47:18.485455 22354 layer_factory.hpp:77] Creating layer data_hdf5
I0520 15:47:18.485479 22354 net.cpp:106] Creating Layer data_hdf5
I0520 15:47:18.485494 22354 net.cpp:411] data_hdf5 -> data
I0520 15:47:18.485528 22354 net.cpp:411] data_hdf5 -> label
I0520 15:47:18.485560 22354 hdf5_data_layer.cpp:79] Loading list of HDF5 filenames from: /lustre/atlas/proj-shared/hep105/caffe_titan/minosmatch_nukecczdefs_127x50_x_unshifted_me1Bmc.trainlist
I0520 15:47:18.486835 22354 hdf5_data_layer.cpp:93] Number of HDF5 files: 15
I0520 15:47:18.489198 22354 hdf5.cpp:32] Datatype class: H5T_FLOAT
I0520 15:47:39.998343 22354 hdf5.cpp:35] Datatype class: H5T_INTEGER
I0520 15:47:40.003437 22354 net.cpp:150] Setting up data_hdf5
I0520 15:47:40.003478 22354 net.cpp:157] Top shape: 200 1 127 50 (1270000)
I0520 15:47:40.003491 22354 net.cpp:157] Top shape: 200 (200)
I0520 15:47:40.003504 22354 net.cpp:165] Memory required for data: 5080800
I0520 15:47:40.003517 22354 layer_factory.hpp:77] Creating layer conv1
I0520 15:47:40.003551 22354 net.cpp:106] Creating Layer conv1
I0520 15:47:40.003561 22354 net.cpp:454] conv1 <- data
I0520 15:47:40.003582 22354 net.cpp:411] conv1 -> conv1
I0520 15:47:40.370609 22354 net.cpp:150] Setting up conv1
I0520 15:47:40.370656 22354 net.cpp:157] Top shape: 200 12 120 48 (13824000)
I0520 15:47:40.370666 22354 net.cpp:165] Memory required for data: 60376800
I0520 15:47:40.370694 22354 layer_factory.hpp:77] Creating layer relu1
I0520 15:47:40.370715 22354 net.cpp:106] Creating Layer relu1
I0520 15:47:40.370726 22354 net.cpp:454] relu1 <- conv1
I0520 15:47:40.370739 22354 net.cpp:397] relu1 -> conv1 (in-place)
I0520 15:47:40.371253 22354 net.cpp:150] Setting up relu1
I0520 15:47:40.371269 22354 net.cpp:157] Top shape: 200 12 120 48 (13824000)
I0520 15:47:40.371280 22354 net.cpp:165] Memory required for data: 115672800
I0520 15:47:40.371290 22354 layer_factory.hpp:77] Creating layer pool1
I0520 15:47:40.371306 22354 net.cpp:106] Creating Layer pool1
I0520 15:47:40.371317 22354 net.cpp:454] pool1 <- conv1
I0520 15:47:40.371330 22354 net.cpp:411] pool1 -> pool1
I0520 15:47:40.371409 22354 net.cpp:150] Setting up pool1
I0520 15:47:40.371423 22354 net.cpp:157] Top shape: 200 12 60 48 (6912000)
I0520 15:47:40.371433 22354 net.cpp:165] Memory required for data: 143320800
I0520 15:47:40.371443 22354 layer_factory.hpp:77] Creating layer conv2
I0520 15:47:40.371465 22354 net.cpp:106] Creating Layer conv2
I0520 15:47:40.371475 22354 net.cpp:454] conv2 <- pool1
I0520 15:47:40.371487 22354 net.cpp:411] conv2 -> conv2
I0520 15:47:40.374194 22354 net.cpp:150] Setting up conv2
I0520 15:47:40.374217 22354 net.cpp:157] Top shape: 200 20 54 46 (9936000)
I0520 15:47:40.374233 22354 net.cpp:165] Memory required for data: 183064800
I0520 15:47:40.374251 22354 layer_factory.hpp:77] Creating layer relu2
I0520 15:47:40.374266 22354 net.cpp:106] Creating Layer relu2
I0520 15:47:40.374276 22354 net.cpp:454] relu2 <- conv2
I0520 15:47:40.374289 22354 net.cpp:397] relu2 -> conv2 (in-place)
I0520 15:47:40.374619 22354 net.cpp:150] Setting up relu2
I0520 15:47:40.374632 22354 net.cpp:157] Top shape: 200 20 54 46 (9936000)
I0520 15:47:40.374642 22354 net.cpp:165] Memory required for data: 222808800
I0520 15:47:40.374653 22354 layer_factory.hpp:77] Creating layer pool2
I0520 15:47:40.374665 22354 net.cpp:106] Creating Layer pool2
I0520 15:47:40.374675 22354 net.cpp:454] pool2 <- conv2
I0520 15:47:40.374701 22354 net.cpp:411] pool2 -> pool2
I0520 15:47:40.374769 22354 net.cpp:150] Setting up pool2
I0520 15:47:40.374783 22354 net.cpp:157] Top shape: 200 20 27 46 (4968000)
I0520 15:47:40.374794 22354 net.cpp:165] Memory required for data: 242680800
I0520 15:47:40.374801 22354 layer_factory.hpp:77] Creating layer conv3
I0520 15:47:40.374820 22354 net.cpp:106] Creating Layer conv3
I0520 15:47:40.374830 22354 net.cpp:454] conv3 <- pool2
I0520 15:47:40.374845 22354 net.cpp:411] conv3 -> conv3
I0520 15:47:40.376791 22354 net.cpp:150] Setting up conv3
I0520 15:47:40.376816 22354 net.cpp:157] Top shape: 200 28 22 44 (5420800)
I0520 15:47:40.376827 22354 net.cpp:165] Memory required for data: 264364000
I0520 15:47:40.376845 22354 layer_factory.hpp:77] Creating layer relu3
I0520 15:47:40.376862 22354 net.cpp:106] Creating Layer relu3
I0520 15:47:40.376871 22354 net.cpp:454] relu3 <- conv3
I0520 15:47:40.376894 22354 net.cpp:397] relu3 -> conv3 (in-place)
I0520 15:47:40.377365 22354 net.cpp:150] Setting up relu3
I0520 15:47:40.377382 22354 net.cpp:157] Top shape: 200 28 22 44 (5420800)
I0520 15:47:40.377393 22354 net.cpp:165] Memory required for data: 286047200
I0520 15:47:40.377403 22354 layer_factory.hpp:77] Creating layer pool3
I0520 15:47:40.377416 22354 net.cpp:106] Creating Layer pool3
I0520 15:47:40.377426 22354 net.cpp:454] pool3 <- conv3
I0520 15:47:40.377439 22354 net.cpp:411] pool3 -> pool3
I0520 15:47:40.377506 22354 net.cpp:150] Setting up pool3
I0520 15:47:40.377518 22354 net.cpp:157] Top shape: 200 28 11 44 (2710400)
I0520 15:47:40.377528 22354 net.cpp:165] Memory required for data: 296888800
I0520 15:47:40.377538 22354 layer_factory.hpp:77] Creating layer conv4
I0520 15:47:40.377555 22354 net.cpp:106] Creating Layer conv4
I0520 15:47:40.377567 22354 net.cpp:454] conv4 <- pool3
I0520 15:47:40.377579 22354 net.cpp:411] conv4 -> conv4
I0520 15:47:40.380311 22354 net.cpp:150] Setting up conv4
I0520 15:47:40.380339 22354 net.cpp:157] Top shape: 200 36 6 42 (1814400)
I0520 15:47:40.380349 22354 net.cpp:165] Memory required for data: 304146400
I0520 15:47:40.380365 22354 layer_factory.hpp:77] Creating layer relu4
I0520 15:47:40.380379 22354 net.cpp:106] Creating Layer relu4
I0520 15:47:40.380389 22354 net.cpp:454] relu4 <- conv4
I0520 15:47:40.380403 22354 net.cpp:397] relu4 -> conv4 (in-place)
I0520 15:47:40.380866 22354 net.cpp:150] Setting up relu4
I0520 15:47:40.380890 22354 net.cpp:157] Top shape: 200 36 6 42 (1814400)
I0520 15:47:40.380900 22354 net.cpp:165] Memory required for data: 311404000
I0520 15:47:40.380910 22354 layer_factory.hpp:77] Creating layer pool4
I0520 15:47:40.380923 22354 net.cpp:106] Creating Layer pool4
I0520 15:47:40.380933 22354 net.cpp:454] pool4 <- conv4
I0520 15:47:40.380945 22354 net.cpp:411] pool4 -> pool4
I0520 15:47:40.381013 22354 net.cpp:150] Setting up pool4
I0520 15:47:40.381027 22354 net.cpp:157] Top shape: 200 36 3 42 (907200)
I0520 15:47:40.381038 22354 net.cpp:165] Memory required for data: 315032800
I0520 15:47:40.381049 22354 layer_factory.hpp:77] Creating layer ip1
I0520 15:47:40.381069 22354 net.cpp:106] Creating Layer ip1
I0520 15:47:40.381080 22354 net.cpp:454] ip1 <- pool4
I0520 15:47:40.381093 22354 net.cpp:411] ip1 -> ip1
I0520 15:47:40.396469 22354 net.cpp:150] Setting up ip1
I0520 15:47:40.396497 22354 net.cpp:157] Top shape: 200 196 (39200)
I0520 15:47:40.396509 22354 net.cpp:165] Memory required for data: 315189600
I0520 15:47:40.396533 22354 layer_factory.hpp:77] Creating layer relu5
I0520 15:47:40.396546 22354 net.cpp:106] Creating Layer relu5
I0520 15:47:40.396558 22354 net.cpp:454] relu5 <- ip1
I0520 15:47:40.396570 22354 net.cpp:397] relu5 -> ip1 (in-place)
I0520 15:47:40.396919 22354 net.cpp:150] Setting up relu5
I0520 15:47:40.396932 22354 net.cpp:157] Top shape: 200 196 (39200)
I0520 15:47:40.396944 22354 net.cpp:165] Memory required for data: 315346400
I0520 15:47:40.396953 22354 layer_factory.hpp:77] Creating layer drop1
I0520 15:47:40.396975 22354 net.cpp:106] Creating Layer drop1
I0520 15:47:40.396986 22354 net.cpp:454] drop1 <- ip1
I0520 15:47:40.397011 22354 net.cpp:397] drop1 -> ip1 (in-place)
I0520 15:47:40.397060 22354 net.cpp:150] Setting up drop1
I0520 15:47:40.397073 22354 net.cpp:157] Top shape: 200 196 (39200)
I0520 15:47:40.397084 22354 net.cpp:165] Memory required for data: 315503200
I0520 15:47:40.397094 22354 layer_factory.hpp:77] Creating layer ip2
I0520 15:47:40.397112 22354 net.cpp:106] Creating Layer ip2
I0520 15:47:40.397122 22354 net.cpp:454] ip2 <- ip1
I0520 15:47:40.397135 22354 net.cpp:411] ip2 -> ip2
I0520 15:47:40.397596 22354 net.cpp:150] Setting up ip2
I0520 15:47:40.397610 22354 net.cpp:157] Top shape: 200 98 (19600)
I0520 15:47:40.397620 22354 net.cpp:165] Memory required for data: 315581600
I0520 15:47:40.397635 22354 layer_factory.hpp:77] Creating layer relu6
I0520 15:47:40.397649 22354 net.cpp:106] Creating Layer relu6
I0520 15:47:40.397660 22354 net.cpp:454] relu6 <- ip2
I0520 15:47:40.397670 22354 net.cpp:397] relu6 -> ip2 (in-place)
I0520 15:47:40.398191 22354 net.cpp:150] Setting up relu6
I0520 15:47:40.398207 22354 net.cpp:157] Top shape: 200 98 (19600)
I0520 15:47:40.398217 22354 net.cpp:165] Memory required for data: 315660000
I0520 15:47:40.398227 22354 layer_factory.hpp:77] Creating layer drop2
I0520 15:47:40.398241 22354 net.cpp:106] Creating Layer drop2
I0520 15:47:40.398250 22354 net.cpp:454] drop2 <- ip2
I0520 15:47:40.398262 22354 net.cpp:397] drop2 -> ip2 (in-place)
I0520 15:47:40.398304 22354 net.cpp:150] Setting up drop2
I0520 15:47:40.398319 22354 net.cpp:157] Top shape: 200 98 (19600)
I0520 15:47:40.398329 22354 net.cpp:165] Memory required for data: 315738400
I0520 15:47:40.398339 22354 layer_factory.hpp:77] Creating layer ip3
I0520 15:47:40.398351 22354 net.cpp:106] Creating Layer ip3
I0520 15:47:40.398361 22354 net.cpp:454] ip3 <- ip2
I0520 15:47:40.398375 22354 net.cpp:411] ip3 -> ip3
I0520 15:47:40.398584 22354 net.cpp:150] Setting up ip3
I0520 15:47:40.398597 22354 net.cpp:157] Top shape: 200 11 (2200)
I0520 15:47:40.398607 22354 net.cpp:165] Memory required for data: 315747200
I0520 15:47:40.398622 22354 layer_factory.hpp:77] Creating layer drop3
I0520 15:47:40.398634 22354 net.cpp:106] Creating Layer drop3
I0520 15:47:40.398644 22354 net.cpp:454] drop3 <- ip3
I0520 15:47:40.398656 22354 net.cpp:397] drop3 -> ip3 (in-place)
I0520 15:47:40.398695 22354 net.cpp:150] Setting up drop3
I0520 15:47:40.398708 22354 net.cpp:157] Top shape: 200 11 (2200)
I0520 15:47:40.398718 22354 net.cpp:165] Memory required for data: 315756000
I0520 15:47:40.398728 22354 layer_factory.hpp:77] Creating layer loss
I0520 15:47:40.398747 22354 net.cpp:106] Creating Layer loss
I0520 15:47:40.398758 22354 net.cpp:454] loss <- ip3
I0520 15:47:40.398769 22354 net.cpp:454] loss <- label
I0520 15:47:40.398782 22354 net.cpp:411] loss -> loss
I0520 15:47:40.398798 22354 layer_factory.hpp:77] Creating layer loss
…
I0520 15:47:40.401392 22354 solver.cpp:181] Creating test net (#0) specified by net file: /lustre/atlas/proj-shared/hep105/caffe_titan/caffe_workflow/logs_batch_size_test/batch_size_200_2016-05-20T11.20.40.104766.prototxt
I0520 15:47:40.401463 22354 net.cpp:322] The NetState phase (1) differed from the phase (0) specified by a rule in layer data_hdf5
I0520 15:47:40.401821 22354 net.cpp:49] Initializing net from parameters: 
name: "caffe_test_127x50_x_unshifted"
state {
  phase: TEST
}
layer {
  name: "data_hdf5"
  type: "HDF5Data"
  top: "data"
  top: "label"
  include {
    phase: TEST
  }
  hdf5_data_param {
    source: "/lustre/atlas/proj-shared/hep105/caffe_titan/minosmatch_nukecczdefs_127x50_x_unshifted_me1Bmc.testlist"
    batch_size: 200
  }
}
layer {
  name: "conv1"
  type: "Convolution"
  bottom: "data"
  top: "conv1"
  convolution_param {
    num_output: 12
    pad: 0
    stride: 1
    weight_filler {
      type: "xavier"
    }
    bias_filler {
      type: "constant"
    }
    kernel_h: 8
    kernel_w: 3
  }
}
layer {
  name: "relu1"
  type: "ReLU"
  bottom: "conv1"
  top: "conv1"
}
layer {
  name: "pool1"
  type: "Pooling"
  bottom: "conv1"
  top: "pool1"
  pooling_param {
    pool: MAX
    kernel_h: 2
    kernel_w: 1
    stride_h: 2
    stride_w: 1
  }
}
layer {
  name: "conv2"
  type: "Convolution"
  bottom: "pool1"
  top: "conv2"
  convolution_param {
    num_output: 20
    pad: 0
    stride: 1
    weight_filler {
      type: "xavier"
    }
    bias_filler {
      type: "constant"
    }
    kernel_h: 7
    kernel_w: 3
  }
}
layer {
  name: "relu2"
  type: "ReLU"
  bottom: "conv2"
  top: "conv2"
}
layer {
  name: "pool2"
  type: "Pooling"
  bottom: "conv2"
  top: "pool2"
  pooling_param {
    pool: MAX
    kernel_h: 2
    kernel_w: 1
    stride_h: 2
    stride_w: 1
  }
}
layer {
  name: "conv3"
  type: "Convolution"
  bottom: "pool2"
  top: "conv3"
  convolution_param {
    num_output: 28
    pad: 0
    stride: 1
    weight_filler {
      type: "xavier"
    }
    bias_filler {
      type: "constant"
    }
    kernel_h: 6
    kernel_w: 3
  }
}
layer {
  name: "relu3"
  type: "ReLU"
  bottom: "conv3"
  top: "conv3"
}
layer {
  name: "pool3"
  type: "Pooling"
  bottom: "conv3"
  top: "pool3"
  pooling_param {
    pool: MAX
    kernel_h: 2
    kernel_w: 1
    stride_h: 2
    stride_w: 1
  }
}
layer {
  name: "conv4"
  type: "Convolution"
  bottom: "pool3"
  top: "conv4"
  convolution_param {
    num_output: 36
    pad: 0
    stride: 1
    weight_filler {
      type: "xavier"
    }
    bias_filler {
      type: "constant"
    }
    kernel_h: 6
    kernel_w: 3
  }
}
layer {
  name: "relu4"
  type: "ReLU"
  bottom: "conv4"
  top: "conv4"
}
layer {
  name: "pool4"
  type: "Pooling"
  bottom: "conv4"
  top: "pool4"
  pooling_param {
    pool: MAX
    kernel_h: 2
    kernel_w: 1
    stride_h: 2
    stride_w: 1
  }
}
layer {
  name: "ip1"
  type: "InnerProduct"
  bottom: "pool4"
  top: "ip1"
  inner_product_param {
    num_output: 196
    weight_filler {
      type: "xavier"
    }
    bias_filler {
      type: "constant"
    }
  }
}
layer {
  name: "relu5"
  type: "ReLU"
  bottom: "ip1"
  top: "ip1"
}
layer {
  name: "drop1"
  type: "Dropout"
  bottom: "ip1"
  top: "ip1"
  dropout_param {
    dropout_ratio: 0.5
  }
}
layer {
  name: "ip2"
  type: "InnerProduct"
  bottom: "ip1"
  top: "ip2"
  inner_product_param {
    num_output: 98
    weight_filler {
      type: "xavier"
    }
    bias_filler {
      type: "constant"
    }
  }
}
layer {
  name: "relu6"
  type: "ReLU"
  bottom: "ip2"
  top: "ip2"
}
layer {
  name: "drop2"
  type: "Dropout"
  bottom: "ip2"
  top: "ip2"
  dropout_param {
    dropout_ratio: 0.5
  }
}
layer {
  name: "ip3"
  type: "InnerProduct"
  bottom: "ip2"
  top: "ip3"
  inner_product_param {
    num_output: 11
    weight_filler {
      type: "xavier"
    }
    bias_filler {
      type: "constant"
    }
  }
}
layer {
  name: "drop3"
  type: "Dropout"
  bottom: "ip3"
  top: "ip3"
  dropout_param {
    dropout_ratio: 0.5
  }
}
layer {
  name: "accuracy"
  type: "Accuracy"
  bottom: "ip3"
  bottom: "label"
  top: "accuracy"
  include {
    phase: TEST
  }
}
layer {
  name: "loss"
  type: "SoftmaxWithLoss"
  bottom: "ip3"
  bottom: "label"
  top: "loss"
}
I0520 15:47:40.402010 22354 layer_factory.hpp:77] Creating layer data_hdf5
I0520 15:47:40.402025 22354 net.cpp:106] Creating Layer data_hdf5
I0520 15:47:40.402039 22354 net.cpp:411] data_hdf5 -> data
I0520 15:47:40.402055 22354 net.cpp:411] data_hdf5 -> label
I0520 15:47:40.402070 22354 hdf5_data_layer.cpp:79] Loading list of HDF5 filenames from: /lustre/atlas/proj-shared/hep105/caffe_titan/minosmatch_nukecczdefs_127x50_x_unshifted_me1Bmc.testlist
I0520 15:47:40.403358 22354 hdf5_data_layer.cpp:93] Number of HDF5 files: 3
I0520 15:48:01.720592 22354 net.cpp:150] Setting up data_hdf5
I0520 15:48:01.720757 22354 net.cpp:157] Top shape: 200 1 127 50 (1270000)
I0520 15:48:01.720772 22354 net.cpp:157] Top shape: 200 (200)
I0520 15:48:01.720782 22354 net.cpp:165] Memory required for data: 5080800
I0520 15:48:01.720796 22354 layer_factory.hpp:77] Creating layer label_data_hdf5_1_split
I0520 15:48:01.720825 22354 net.cpp:106] Creating Layer label_data_hdf5_1_split
I0520 15:48:01.720836 22354 net.cpp:454] label_data_hdf5_1_split <- label
I0520 15:48:01.720850 22354 net.cpp:411] label_data_hdf5_1_split -> label_data_hdf5_1_split_0
I0520 15:48:01.720871 22354 net.cpp:411] label_data_hdf5_1_split -> label_data_hdf5_1_split_1
I0520 15:48:01.720952 22354 net.cpp:150] Setting up label_data_hdf5_1_split
I0520 15:48:01.720966 22354 net.cpp:157] Top shape: 200 (200)
I0520 15:48:01.720978 22354 net.cpp:157] Top shape: 200 (200)
I0520 15:48:01.720988 22354 net.cpp:165] Memory required for data: 5082400
I0520 15:48:01.720996 22354 layer_factory.hpp:77] Creating layer conv1
I0520 15:48:01.721019 22354 net.cpp:106] Creating Layer conv1
I0520 15:48:01.721029 22354 net.cpp:454] conv1 <- data
I0520 15:48:01.721045 22354 net.cpp:411] conv1 -> conv1
I0520 15:48:01.722990 22354 net.cpp:150] Setting up conv1
I0520 15:48:01.723009 22354 net.cpp:157] Top shape: 200 12 120 48 (13824000)
I0520 15:48:01.723019 22354 net.cpp:165] Memory required for data: 60378400
I0520 15:48:01.723040 22354 layer_factory.hpp:77] Creating layer relu1
I0520 15:48:01.723054 22354 net.cpp:106] Creating Layer relu1
I0520 15:48:01.723064 22354 net.cpp:454] relu1 <- conv1
I0520 15:48:01.723078 22354 net.cpp:397] relu1 -> conv1 (in-place)
I0520 15:48:01.723577 22354 net.cpp:150] Setting up relu1
I0520 15:48:01.723594 22354 net.cpp:157] Top shape: 200 12 120 48 (13824000)
I0520 15:48:01.723604 22354 net.cpp:165] Memory required for data: 115674400
I0520 15:48:01.723615 22354 layer_factory.hpp:77] Creating layer pool1
I0520 15:48:01.723631 22354 net.cpp:106] Creating Layer pool1
I0520 15:48:01.723641 22354 net.cpp:454] pool1 <- conv1
I0520 15:48:01.723654 22354 net.cpp:411] pool1 -> pool1
I0520 15:48:01.723728 22354 net.cpp:150] Setting up pool1
I0520 15:48:01.723742 22354 net.cpp:157] Top shape: 200 12 60 48 (6912000)
I0520 15:48:01.723752 22354 net.cpp:165] Memory required for data: 143322400
I0520 15:48:01.723759 22354 layer_factory.hpp:77] Creating layer conv2
I0520 15:48:01.723778 22354 net.cpp:106] Creating Layer conv2
I0520 15:48:01.723788 22354 net.cpp:454] conv2 <- pool1
I0520 15:48:01.723800 22354 net.cpp:411] conv2 -> conv2
I0520 15:48:01.725728 22354 net.cpp:150] Setting up conv2
I0520 15:48:01.725750 22354 net.cpp:157] Top shape: 200 20 54 46 (9936000)
I0520 15:48:01.725764 22354 net.cpp:165] Memory required for data: 183066400
I0520 15:48:01.725781 22354 layer_factory.hpp:77] Creating layer relu2
I0520 15:48:01.725795 22354 net.cpp:106] Creating Layer relu2
I0520 15:48:01.725805 22354 net.cpp:454] relu2 <- conv2
I0520 15:48:01.725817 22354 net.cpp:397] relu2 -> conv2 (in-place)
I0520 15:48:01.726151 22354 net.cpp:150] Setting up relu2
I0520 15:48:01.726166 22354 net.cpp:157] Top shape: 200 20 54 46 (9936000)
I0520 15:48:01.726176 22354 net.cpp:165] Memory required for data: 222810400
I0520 15:48:01.726186 22354 layer_factory.hpp:77] Creating layer pool2
I0520 15:48:01.726198 22354 net.cpp:106] Creating Layer pool2
I0520 15:48:01.726208 22354 net.cpp:454] pool2 <- conv2
I0520 15:48:01.726220 22354 net.cpp:411] pool2 -> pool2
I0520 15:48:01.726292 22354 net.cpp:150] Setting up pool2
I0520 15:48:01.726305 22354 net.cpp:157] Top shape: 200 20 27 46 (4968000)
I0520 15:48:01.726315 22354 net.cpp:165] Memory required for data: 242682400
I0520 15:48:01.726325 22354 layer_factory.hpp:77] Creating layer conv3
I0520 15:48:01.726341 22354 net.cpp:106] Creating Layer conv3
I0520 15:48:01.726353 22354 net.cpp:454] conv3 <- pool2
I0520 15:48:01.726366 22354 net.cpp:411] conv3 -> conv3
I0520 15:48:01.728337 22354 net.cpp:150] Setting up conv3
I0520 15:48:01.728359 22354 net.cpp:157] Top shape: 200 28 22 44 (5420800)
I0520 15:48:01.728370 22354 net.cpp:165] Memory required for data: 264365600
I0520 15:48:01.728404 22354 layer_factory.hpp:77] Creating layer relu3
I0520 15:48:01.728417 22354 net.cpp:106] Creating Layer relu3
I0520 15:48:01.728427 22354 net.cpp:454] relu3 <- conv3
I0520 15:48:01.728440 22354 net.cpp:397] relu3 -> conv3 (in-place)
I0520 15:48:01.728919 22354 net.cpp:150] Setting up relu3
I0520 15:48:01.728935 22354 net.cpp:157] Top shape: 200 28 22 44 (5420800)
I0520 15:48:01.728946 22354 net.cpp:165] Memory required for data: 286048800
I0520 15:48:01.728956 22354 layer_factory.hpp:77] Creating layer pool3
I0520 15:48:01.728970 22354 net.cpp:106] Creating Layer pool3
I0520 15:48:01.728979 22354 net.cpp:454] pool3 <- conv3
I0520 15:48:01.728992 22354 net.cpp:411] pool3 -> pool3
I0520 15:48:01.729063 22354 net.cpp:150] Setting up pool3
I0520 15:48:01.729076 22354 net.cpp:157] Top shape: 200 28 11 44 (2710400)
I0520 15:48:01.729086 22354 net.cpp:165] Memory required for data: 296890400
I0520 15:48:01.729096 22354 layer_factory.hpp:77] Creating layer conv4
I0520 15:48:01.729113 22354 net.cpp:106] Creating Layer conv4
I0520 15:48:01.729125 22354 net.cpp:454] conv4 <- pool3
I0520 15:48:01.729138 22354 net.cpp:411] conv4 -> conv4
I0520 15:48:01.731272 22354 net.cpp:150] Setting up conv4
I0520 15:48:01.731294 22354 net.cpp:157] Top shape: 200 36 6 42 (1814400)
I0520 15:48:01.731307 22354 net.cpp:165] Memory required for data: 304148000
I0520 15:48:01.731323 22354 layer_factory.hpp:77] Creating layer relu4
I0520 15:48:01.731336 22354 net.cpp:106] Creating Layer relu4
I0520 15:48:01.731346 22354 net.cpp:454] relu4 <- conv4
I0520 15:48:01.731359 22354 net.cpp:397] relu4 -> conv4 (in-place)
I0520 15:48:01.731832 22354 net.cpp:150] Setting up relu4
I0520 15:48:01.731848 22354 net.cpp:157] Top shape: 200 36 6 42 (1814400)
I0520 15:48:01.731858 22354 net.cpp:165] Memory required for data: 311405600
I0520 15:48:01.731868 22354 layer_factory.hpp:77] Creating layer pool4
I0520 15:48:01.731881 22354 net.cpp:106] Creating Layer pool4
I0520 15:48:01.731891 22354 net.cpp:454] pool4 <- conv4
I0520 15:48:01.731904 22354 net.cpp:411] pool4 -> pool4
I0520 15:48:01.731974 22354 net.cpp:150] Setting up pool4
I0520 15:48:01.731987 22354 net.cpp:157] Top shape: 200 36 3 42 (907200)
I0520 15:48:01.731997 22354 net.cpp:165] Memory required for data: 315034400
I0520 15:48:01.732007 22354 layer_factory.hpp:77] Creating layer ip1
I0520 15:48:01.732023 22354 net.cpp:106] Creating Layer ip1
I0520 15:48:01.732033 22354 net.cpp:454] ip1 <- pool4
I0520 15:48:01.732046 22354 net.cpp:411] ip1 -> ip1
I0520 15:48:01.747540 22354 net.cpp:150] Setting up ip1
I0520 15:48:01.747570 22354 net.cpp:157] Top shape: 200 196 (39200)
I0520 15:48:01.747581 22354 net.cpp:165] Memory required for data: 315191200
I0520 15:48:01.747601 22354 layer_factory.hpp:77] Creating layer relu5
I0520 15:48:01.747617 22354 net.cpp:106] Creating Layer relu5
I0520 15:48:01.747627 22354 net.cpp:454] relu5 <- ip1
I0520 15:48:01.747642 22354 net.cpp:397] relu5 -> ip1 (in-place)
I0520 15:48:01.747989 22354 net.cpp:150] Setting up relu5
I0520 15:48:01.748003 22354 net.cpp:157] Top shape: 200 196 (39200)
I0520 15:48:01.748013 22354 net.cpp:165] Memory required for data: 315348000
I0520 15:48:01.748024 22354 layer_factory.hpp:77] Creating layer drop1
I0520 15:48:01.748044 22354 net.cpp:106] Creating Layer drop1
I0520 15:48:01.748054 22354 net.cpp:454] drop1 <- ip1
I0520 15:48:01.748066 22354 net.cpp:397] drop1 -> ip1 (in-place)
I0520 15:48:01.748114 22354 net.cpp:150] Setting up drop1
I0520 15:48:01.748126 22354 net.cpp:157] Top shape: 200 196 (39200)
I0520 15:48:01.748136 22354 net.cpp:165] Memory required for data: 315504800
I0520 15:48:01.748147 22354 layer_factory.hpp:77] Creating layer ip2
I0520 15:48:01.748160 22354 net.cpp:106] Creating Layer ip2
I0520 15:48:01.748172 22354 net.cpp:454] ip2 <- ip1
I0520 15:48:01.748185 22354 net.cpp:411] ip2 -> ip2
I0520 15:48:01.748662 22354 net.cpp:150] Setting up ip2
I0520 15:48:01.748675 22354 net.cpp:157] Top shape: 200 98 (19600)
I0520 15:48:01.748687 22354 net.cpp:165] Memory required for data: 315583200
I0520 15:48:01.748714 22354 layer_factory.hpp:77] Creating layer relu6
I0520 15:48:01.748728 22354 net.cpp:106] Creating Layer relu6
I0520 15:48:01.748738 22354 net.cpp:454] relu6 <- ip2
I0520 15:48:01.748749 22354 net.cpp:397] relu6 -> ip2 (in-place)
I0520 15:48:01.749297 22354 net.cpp:150] Setting up relu6
I0520 15:48:01.749320 22354 net.cpp:157] Top shape: 200 98 (19600)
I0520 15:48:01.749330 22354 net.cpp:165] Memory required for data: 315661600
I0520 15:48:01.749338 22354 layer_factory.hpp:77] Creating layer drop2
I0520 15:48:01.749351 22354 net.cpp:106] Creating Layer drop2
I0520 15:48:01.749362 22354 net.cpp:454] drop2 <- ip2
I0520 15:48:01.749375 22354 net.cpp:397] drop2 -> ip2 (in-place)
I0520 15:48:01.749421 22354 net.cpp:150] Setting up drop2
I0520 15:48:01.749435 22354 net.cpp:157] Top shape: 200 98 (19600)
I0520 15:48:01.749445 22354 net.cpp:165] Memory required for data: 315740000
I0520 15:48:01.749454 22354 layer_factory.hpp:77] Creating layer ip3
I0520 15:48:01.749469 22354 net.cpp:106] Creating Layer ip3
I0520 15:48:01.749480 22354 net.cpp:454] ip3 <- ip2
I0520 15:48:01.749493 22354 net.cpp:411] ip3 -> ip3
I0520 15:48:01.749717 22354 net.cpp:150] Setting up ip3
I0520 15:48:01.749730 22354 net.cpp:157] Top shape: 200 11 (2200)
I0520 15:48:01.749742 22354 net.cpp:165] Memory required for data: 315748800
I0520 15:48:01.749758 22354 layer_factory.hpp:77] Creating layer drop3
I0520 15:48:01.749770 22354 net.cpp:106] Creating Layer drop3
I0520 15:48:01.749780 22354 net.cpp:454] drop3 <- ip3
I0520 15:48:01.749794 22354 net.cpp:397] drop3 -> ip3 (in-place)
I0520 15:48:01.749835 22354 net.cpp:150] Setting up drop3
I0520 15:48:01.749847 22354 net.cpp:157] Top shape: 200 11 (2200)
I0520 15:48:01.749857 22354 net.cpp:165] Memory required for data: 315757600
I0520 15:48:01.749867 22354 layer_factory.hpp:77] Creating layer ip3_drop3_0_split
I0520 15:48:01.749881 22354 net.cpp:106] Creating Layer ip3_drop3_0_split
I0520 15:48:01.749889 22354 net.cpp:454] ip3_drop3_0_split <- ip3
I0520 15:48:01.749903 22354 net.cpp:411] ip3_drop3_0_split -> ip3_drop3_0_split_0
I0520 15:48:01.749918 22354 net.cpp:411] ip3_drop3_0_split -> ip3_drop3_0_split_1
I0520 15:48:01.749991 22354 net.cpp:150] Setting up ip3_drop3_0_split
I0520 15:48:01.750005 22354 net.cpp:157] Top shape: 200 11 (2200)
I0520 15:48:01.750017 22354 net.cpp:157] Top shape: 200 11 (2200)
I0520 15:48:01.750027 22354 net.cpp:165] Memory required for data: 315775200
I0520 15:48:01.750038 22354 layer_factory.hpp:77] Creating layer accuracy
I0520 15:48:01.750059 22354 net.cpp:106] Creating Layer accuracy
I0520 15:48:01.750069 22354 net.cpp:454] accuracy <- ip3_drop3_0_split_0
I0520 15:48:01.750080 22354 net.cpp:454] accuracy <- label_data_hdf5_1_split_0
I0520 15:48:01.750094 22354 net.cpp:411] accuracy -> accuracy
…
