…
I0521 10:22:48.538063 11110 net.cpp:322] The NetState phase (0) differed from the phase (1) specified by a rule in layer data_hdf5
I0521 10:22:48.538121 11110 net.cpp:322] The NetState phase (0) differed from the phase (1) specified by a rule in layer accuracy
I0521 10:22:48.538466 11110 net.cpp:49] Initializing net from parameters: 
name: "caffe_test_127x50_x_unshifted"
state {
  phase: TRAIN
}
layer {
  name: "data_hdf5"
  type: "HDF5Data"
  top: "data"
  top: "label"
  include {
    phase: TRAIN
  }
  hdf5_data_param {
    source: "/lustre/atlas/proj-shared/hep105/caffe_titan/minosmatch_nukecczdefs_127x50_x_unshifted_me1Bmc.trainlist"
    batch_size: 950
  }
}
layer {
  name: "conv1"
  type: "Convolution"
  bottom: "data"
  top: "conv1"
  convolution_param {
    num_output: 12
    pad: 0
    stride: 1
    weight_filler {
      type: "xavier"
    }
    bias_filler {
      type: "constant"
    }
    kernel_h: 8
    kernel_w: 3
  }
}
layer {
  name: "relu1"
  type: "ReLU"
  bottom: "conv1"
  top: "conv1"
}
layer {
  name: "pool1"
  type: "Pooling"
  bottom: "conv1"
  top: "pool1"
  pooling_param {
    pool: MAX
    kernel_h: 2
    kernel_w: 1
    stride_h: 2
    stride_w: 1
  }
}
layer {
  name: "conv2"
  type: "Convolution"
  bottom: "pool1"
  top: "conv2"
  convolution_param {
    num_output: 20
    pad: 0
    stride: 1
    weight_filler {
      type: "xavier"
    }
    bias_filler {
      type: "constant"
    }
    kernel_h: 7
    kernel_w: 3
  }
}
layer {
  name: "relu2"
  type: "ReLU"
  bottom: "conv2"
  top: "conv2"
}
layer {
  name: "pool2"
  type: "Pooling"
  bottom: "conv2"
  top: "pool2"
  pooling_param {
    pool: MAX
    kernel_h: 2
    kernel_w: 1
    stride_h: 2
    stride_w: 1
  }
}
layer {
  name: "conv3"
  type: "Convolution"
  bottom: "pool2"
  top: "conv3"
  convolution_param {
    num_output: 28
    pad: 0
    stride: 1
    weight_filler {
      type: "xavier"
    }
    bias_filler {
      type: "constant"
    }
    kernel_h: 6
    kernel_w: 3
  }
}
layer {
  name: "relu3"
  type: "ReLU"
  bottom: "conv3"
  top: "conv3"
}
layer {
  name: "pool3"
  type: "Pooling"
  bottom: "conv3"
  top: "pool3"
  pooling_param {
    pool: MAX
    kernel_h: 2
    kernel_w: 1
    stride_h: 2
    stride_w: 1
  }
}
layer {
  name: "conv4"
  type: "Convolution"
  bottom: "pool3"
  top: "conv4"
  convolution_param {
    num_output: 36
    pad: 0
    stride: 1
    weight_filler {
      type: "xavier"
    }
    bias_filler {
      type: "constant"
    }
    kernel_h: 6
    kernel_w: 3
  }
}
layer {
  name: "relu4"
  type: "ReLU"
  bottom: "conv4"
  top: "conv4"
}
layer {
  name: "pool4"
  type: "Pooling"
  bottom: "conv4"
  top: "pool4"
  pooling_param {
    pool: MAX
    kernel_h: 2
    kernel_w: 1
    stride_h: 2
    stride_w: 1
  }
}
layer {
  name: "ip1"
  type: "InnerProduct"
  bottom: "pool4"
  top: "ip1"
  inner_product_param {
    num_output: 196
    weight_filler {
      type: "xavier"
    }
    bias_filler {
      type: "constant"
    }
  }
}
layer {
  name: "relu5"
  type: "ReLU"
  bottom: "ip1"
  top: "ip1"
}
layer {
  name: "drop1"
  type: "Dropout"
  bottom: "ip1"
  top: "ip1"
  dropout_param {
    dropout_ratio: 0.5
  }
}
layer {
  name: "ip2"
  type: "InnerProduct"
  bottom: "ip1"
  top: "ip2"
  inner_product_param {
    num_output: 98
    weight_filler {
      type: "xavier"
    }
    bias_filler {
      type: "constant"
    }
  }
}
layer {
  name: "relu6"
  type: "ReLU"
  bottom: "ip2"
  top: "ip2"
}
layer {
  name: "drop2"
  type: "Dropout"
  bottom: "ip2"
  top: "ip2"
  dropout_param {
    dropout_ratio: 0.5
  }
}
layer {
  name: "ip3"
  type: "InnerProduct"
  bottom: "ip2"
  top: "ip3"
  inner_product_param {
    num_output: 11
    weight_filler {
      type: "xavier"
    }
    bias_filler {
      type: "constant"
    }
  }
}
layer {
  name: "drop3"
  type: "Dropout"
  bottom: "ip3"
  top: "ip3"
  dropout_param {
    dropout_ratio: 0.5
  }
}
layer {
  name: "loss"
  type: "SoftmaxWithLoss"
  bottom: "ip3"
  bottom: "label"
  top: "loss"
}
I0521 10:22:48.538643 11110 layer_factory.hpp:77] Creating layer data_hdf5
I0521 10:22:48.538667 11110 net.cpp:106] Creating Layer data_hdf5
I0521 10:22:48.538681 11110 net.cpp:411] data_hdf5 -> data
I0521 10:22:48.538715 11110 net.cpp:411] data_hdf5 -> label
I0521 10:22:48.538748 11110 hdf5_data_layer.cpp:79] Loading list of HDF5 filenames from: /lustre/atlas/proj-shared/hep105/caffe_titan/minosmatch_nukecczdefs_127x50_x_unshifted_me1Bmc.trainlist
I0521 10:22:48.540024 11110 hdf5_data_layer.cpp:93] Number of HDF5 files: 15
I0521 10:22:48.542259 11110 hdf5.cpp:32] Datatype class: H5T_FLOAT
I0521 10:23:10.031934 11110 hdf5.cpp:35] Datatype class: H5T_INTEGER
I0521 10:23:10.037086 11110 net.cpp:150] Setting up data_hdf5
I0521 10:23:10.037125 11110 net.cpp:157] Top shape: 950 1 127 50 (6032500)
I0521 10:23:10.037140 11110 net.cpp:157] Top shape: 950 (950)
I0521 10:23:10.037153 11110 net.cpp:165] Memory required for data: 24133800
I0521 10:23:10.037165 11110 layer_factory.hpp:77] Creating layer conv1
I0521 10:23:10.037199 11110 net.cpp:106] Creating Layer conv1
I0521 10:23:10.037210 11110 net.cpp:454] conv1 <- data
I0521 10:23:10.037232 11110 net.cpp:411] conv1 -> conv1
I0521 10:23:10.401049 11110 net.cpp:150] Setting up conv1
I0521 10:23:10.401096 11110 net.cpp:157] Top shape: 950 12 120 48 (65664000)
I0521 10:23:10.401108 11110 net.cpp:165] Memory required for data: 286789800
I0521 10:23:10.401136 11110 layer_factory.hpp:77] Creating layer relu1
I0521 10:23:10.401157 11110 net.cpp:106] Creating Layer relu1
I0521 10:23:10.401168 11110 net.cpp:454] relu1 <- conv1
I0521 10:23:10.401181 11110 net.cpp:397] relu1 -> conv1 (in-place)
I0521 10:23:10.401695 11110 net.cpp:150] Setting up relu1
I0521 10:23:10.401712 11110 net.cpp:157] Top shape: 950 12 120 48 (65664000)
I0521 10:23:10.401722 11110 net.cpp:165] Memory required for data: 549445800
I0521 10:23:10.401733 11110 layer_factory.hpp:77] Creating layer pool1
I0521 10:23:10.401749 11110 net.cpp:106] Creating Layer pool1
I0521 10:23:10.401759 11110 net.cpp:454] pool1 <- conv1
I0521 10:23:10.401772 11110 net.cpp:411] pool1 -> pool1
I0521 10:23:10.401852 11110 net.cpp:150] Setting up pool1
I0521 10:23:10.401866 11110 net.cpp:157] Top shape: 950 12 60 48 (32832000)
I0521 10:23:10.401876 11110 net.cpp:165] Memory required for data: 680773800
I0521 10:23:10.401886 11110 layer_factory.hpp:77] Creating layer conv2
I0521 10:23:10.401907 11110 net.cpp:106] Creating Layer conv2
I0521 10:23:10.401917 11110 net.cpp:454] conv2 <- pool1
I0521 10:23:10.401931 11110 net.cpp:411] conv2 -> conv2
I0521 10:23:10.404597 11110 net.cpp:150] Setting up conv2
I0521 10:23:10.404624 11110 net.cpp:157] Top shape: 950 20 54 46 (47196000)
I0521 10:23:10.404635 11110 net.cpp:165] Memory required for data: 869557800
I0521 10:23:10.404655 11110 layer_factory.hpp:77] Creating layer relu2
I0521 10:23:10.404670 11110 net.cpp:106] Creating Layer relu2
I0521 10:23:10.404680 11110 net.cpp:454] relu2 <- conv2
I0521 10:23:10.404692 11110 net.cpp:397] relu2 -> conv2 (in-place)
I0521 10:23:10.405021 11110 net.cpp:150] Setting up relu2
I0521 10:23:10.405035 11110 net.cpp:157] Top shape: 950 20 54 46 (47196000)
I0521 10:23:10.405045 11110 net.cpp:165] Memory required for data: 1058341800
I0521 10:23:10.405056 11110 layer_factory.hpp:77] Creating layer pool2
I0521 10:23:10.405068 11110 net.cpp:106] Creating Layer pool2
I0521 10:23:10.405079 11110 net.cpp:454] pool2 <- conv2
I0521 10:23:10.405103 11110 net.cpp:411] pool2 -> pool2
I0521 10:23:10.405172 11110 net.cpp:150] Setting up pool2
I0521 10:23:10.405185 11110 net.cpp:157] Top shape: 950 20 27 46 (23598000)
I0521 10:23:10.405195 11110 net.cpp:165] Memory required for data: 1152733800
I0521 10:23:10.405205 11110 layer_factory.hpp:77] Creating layer conv3
I0521 10:23:10.405220 11110 net.cpp:106] Creating Layer conv3
I0521 10:23:10.405231 11110 net.cpp:454] conv3 <- pool2
I0521 10:23:10.405244 11110 net.cpp:411] conv3 -> conv3
I0521 10:23:10.407155 11110 net.cpp:150] Setting up conv3
I0521 10:23:10.407178 11110 net.cpp:157] Top shape: 950 28 22 44 (25748800)
I0521 10:23:10.407199 11110 net.cpp:165] Memory required for data: 1255729000
I0521 10:23:10.407218 11110 layer_factory.hpp:77] Creating layer relu3
I0521 10:23:10.407234 11110 net.cpp:106] Creating Layer relu3
I0521 10:23:10.407244 11110 net.cpp:454] relu3 <- conv3
I0521 10:23:10.407258 11110 net.cpp:397] relu3 -> conv3 (in-place)
I0521 10:23:10.407726 11110 net.cpp:150] Setting up relu3
I0521 10:23:10.407742 11110 net.cpp:157] Top shape: 950 28 22 44 (25748800)
I0521 10:23:10.407753 11110 net.cpp:165] Memory required for data: 1358724200
I0521 10:23:10.407763 11110 layer_factory.hpp:77] Creating layer pool3
I0521 10:23:10.407776 11110 net.cpp:106] Creating Layer pool3
I0521 10:23:10.407786 11110 net.cpp:454] pool3 <- conv3
I0521 10:23:10.407799 11110 net.cpp:411] pool3 -> pool3
I0521 10:23:10.407866 11110 net.cpp:150] Setting up pool3
I0521 10:23:10.407879 11110 net.cpp:157] Top shape: 950 28 11 44 (12874400)
I0521 10:23:10.407889 11110 net.cpp:165] Memory required for data: 1410221800
I0521 10:23:10.407899 11110 layer_factory.hpp:77] Creating layer conv4
I0521 10:23:10.407914 11110 net.cpp:106] Creating Layer conv4
I0521 10:23:10.407925 11110 net.cpp:454] conv4 <- pool3
I0521 10:23:10.407938 11110 net.cpp:411] conv4 -> conv4
I0521 10:23:10.410645 11110 net.cpp:150] Setting up conv4
I0521 10:23:10.410672 11110 net.cpp:157] Top shape: 950 36 6 42 (8618400)
I0521 10:23:10.410682 11110 net.cpp:165] Memory required for data: 1444695400
I0521 10:23:10.410697 11110 layer_factory.hpp:77] Creating layer relu4
I0521 10:23:10.410712 11110 net.cpp:106] Creating Layer relu4
I0521 10:23:10.410722 11110 net.cpp:454] relu4 <- conv4
I0521 10:23:10.410735 11110 net.cpp:397] relu4 -> conv4 (in-place)
I0521 10:23:10.411209 11110 net.cpp:150] Setting up relu4
I0521 10:23:10.411226 11110 net.cpp:157] Top shape: 950 36 6 42 (8618400)
I0521 10:23:10.411237 11110 net.cpp:165] Memory required for data: 1479169000
I0521 10:23:10.411247 11110 layer_factory.hpp:77] Creating layer pool4
I0521 10:23:10.411259 11110 net.cpp:106] Creating Layer pool4
I0521 10:23:10.411269 11110 net.cpp:454] pool4 <- conv4
I0521 10:23:10.411283 11110 net.cpp:411] pool4 -> pool4
I0521 10:23:10.411350 11110 net.cpp:150] Setting up pool4
I0521 10:23:10.411365 11110 net.cpp:157] Top shape: 950 36 3 42 (4309200)
I0521 10:23:10.411375 11110 net.cpp:165] Memory required for data: 1496405800
I0521 10:23:10.411386 11110 layer_factory.hpp:77] Creating layer ip1
I0521 10:23:10.411403 11110 net.cpp:106] Creating Layer ip1
I0521 10:23:10.411413 11110 net.cpp:454] ip1 <- pool4
I0521 10:23:10.411427 11110 net.cpp:411] ip1 -> ip1
I0521 10:23:10.426805 11110 net.cpp:150] Setting up ip1
I0521 10:23:10.426834 11110 net.cpp:157] Top shape: 950 196 (186200)
I0521 10:23:10.426846 11110 net.cpp:165] Memory required for data: 1497150600
I0521 10:23:10.426868 11110 layer_factory.hpp:77] Creating layer relu5
I0521 10:23:10.426882 11110 net.cpp:106] Creating Layer relu5
I0521 10:23:10.426893 11110 net.cpp:454] relu5 <- ip1
I0521 10:23:10.426906 11110 net.cpp:397] relu5 -> ip1 (in-place)
I0521 10:23:10.427256 11110 net.cpp:150] Setting up relu5
I0521 10:23:10.427270 11110 net.cpp:157] Top shape: 950 196 (186200)
I0521 10:23:10.427280 11110 net.cpp:165] Memory required for data: 1497895400
I0521 10:23:10.427290 11110 layer_factory.hpp:77] Creating layer drop1
I0521 10:23:10.427311 11110 net.cpp:106] Creating Layer drop1
I0521 10:23:10.427322 11110 net.cpp:454] drop1 <- ip1
I0521 10:23:10.427347 11110 net.cpp:397] drop1 -> ip1 (in-place)
I0521 10:23:10.427393 11110 net.cpp:150] Setting up drop1
I0521 10:23:10.427407 11110 net.cpp:157] Top shape: 950 196 (186200)
I0521 10:23:10.427417 11110 net.cpp:165] Memory required for data: 1498640200
I0521 10:23:10.427428 11110 layer_factory.hpp:77] Creating layer ip2
I0521 10:23:10.427445 11110 net.cpp:106] Creating Layer ip2
I0521 10:23:10.427456 11110 net.cpp:454] ip2 <- ip1
I0521 10:23:10.427469 11110 net.cpp:411] ip2 -> ip2
I0521 10:23:10.427934 11110 net.cpp:150] Setting up ip2
I0521 10:23:10.427948 11110 net.cpp:157] Top shape: 950 98 (93100)
I0521 10:23:10.427958 11110 net.cpp:165] Memory required for data: 1499012600
I0521 10:23:10.427973 11110 layer_factory.hpp:77] Creating layer relu6
I0521 10:23:10.427985 11110 net.cpp:106] Creating Layer relu6
I0521 10:23:10.427995 11110 net.cpp:454] relu6 <- ip2
I0521 10:23:10.428007 11110 net.cpp:397] relu6 -> ip2 (in-place)
I0521 10:23:10.428522 11110 net.cpp:150] Setting up relu6
I0521 10:23:10.428539 11110 net.cpp:157] Top shape: 950 98 (93100)
I0521 10:23:10.428550 11110 net.cpp:165] Memory required for data: 1499385000
I0521 10:23:10.428560 11110 layer_factory.hpp:77] Creating layer drop2
I0521 10:23:10.428572 11110 net.cpp:106] Creating Layer drop2
I0521 10:23:10.428581 11110 net.cpp:454] drop2 <- ip2
I0521 10:23:10.428594 11110 net.cpp:397] drop2 -> ip2 (in-place)
I0521 10:23:10.428635 11110 net.cpp:150] Setting up drop2
I0521 10:23:10.428648 11110 net.cpp:157] Top shape: 950 98 (93100)
I0521 10:23:10.428659 11110 net.cpp:165] Memory required for data: 1499757400
I0521 10:23:10.428669 11110 layer_factory.hpp:77] Creating layer ip3
I0521 10:23:10.428683 11110 net.cpp:106] Creating Layer ip3
I0521 10:23:10.428692 11110 net.cpp:454] ip3 <- ip2
I0521 10:23:10.428705 11110 net.cpp:411] ip3 -> ip3
I0521 10:23:10.428915 11110 net.cpp:150] Setting up ip3
I0521 10:23:10.428928 11110 net.cpp:157] Top shape: 950 11 (10450)
I0521 10:23:10.428939 11110 net.cpp:165] Memory required for data: 1499799200
I0521 10:23:10.428954 11110 layer_factory.hpp:77] Creating layer drop3
I0521 10:23:10.428966 11110 net.cpp:106] Creating Layer drop3
I0521 10:23:10.428977 11110 net.cpp:454] drop3 <- ip3
I0521 10:23:10.428988 11110 net.cpp:397] drop3 -> ip3 (in-place)
I0521 10:23:10.429028 11110 net.cpp:150] Setting up drop3
I0521 10:23:10.429039 11110 net.cpp:157] Top shape: 950 11 (10450)
I0521 10:23:10.429050 11110 net.cpp:165] Memory required for data: 1499841000
I0521 10:23:10.429059 11110 layer_factory.hpp:77] Creating layer loss
I0521 10:23:10.429080 11110 net.cpp:106] Creating Layer loss
I0521 10:23:10.429090 11110 net.cpp:454] loss <- ip3
I0521 10:23:10.429101 11110 net.cpp:454] loss <- label
I0521 10:23:10.429113 11110 net.cpp:411] loss -> loss
I0521 10:23:10.429131 11110 layer_factory.hpp:77] Creating layer loss
…
I0521 10:23:10.431759 11110 solver.cpp:181] Creating test net (#0) specified by net file: /lustre/atlas/proj-shared/hep105/caffe_titan/caffe_workflow/logs_batch_size_test/batch_size_950_2016-05-20T11.21.07.347951.prototxt
I0521 10:23:10.431831 11110 net.cpp:322] The NetState phase (1) differed from the phase (0) specified by a rule in layer data_hdf5
I0521 10:23:10.432190 11110 net.cpp:49] Initializing net from parameters: 
name: "caffe_test_127x50_x_unshifted"
state {
  phase: TEST
}
layer {
  name: "data_hdf5"
  type: "HDF5Data"
  top: "data"
  top: "label"
  include {
    phase: TEST
  }
  hdf5_data_param {
    source: "/lustre/atlas/proj-shared/hep105/caffe_titan/minosmatch_nukecczdefs_127x50_x_unshifted_me1Bmc.testlist"
    batch_size: 950
  }
}
layer {
  name: "conv1"
  type: "Convolution"
  bottom: "data"
  top: "conv1"
  convolution_param {
    num_output: 12
    pad: 0
    stride: 1
    weight_filler {
      type: "xavier"
    }
    bias_filler {
      type: "constant"
    }
    kernel_h: 8
    kernel_w: 3
  }
}
layer {
  name: "relu1"
  type: "ReLU"
  bottom: "conv1"
  top: "conv1"
}
layer {
  name: "pool1"
  type: "Pooling"
  bottom: "conv1"
  top: "pool1"
  pooling_param {
    pool: MAX
    kernel_h: 2
    kernel_w: 1
    stride_h: 2
    stride_w: 1
  }
}
layer {
  name: "conv2"
  type: "Convolution"
  bottom: "pool1"
  top: "conv2"
  convolution_param {
    num_output: 20
    pad: 0
    stride: 1
    weight_filler {
      type: "xavier"
    }
    bias_filler {
      type: "constant"
    }
    kernel_h: 7
    kernel_w: 3
  }
}
layer {
  name: "relu2"
  type: "ReLU"
  bottom: "conv2"
  top: "conv2"
}
layer {
  name: "pool2"
  type: "Pooling"
  bottom: "conv2"
  top: "pool2"
  pooling_param {
    pool: MAX
    kernel_h: 2
    kernel_w: 1
    stride_h: 2
    stride_w: 1
  }
}
layer {
  name: "conv3"
  type: "Convolution"
  bottom: "pool2"
  top: "conv3"
  convolution_param {
    num_output: 28
    pad: 0
    stride: 1
    weight_filler {
      type: "xavier"
    }
    bias_filler {
      type: "constant"
    }
    kernel_h: 6
    kernel_w: 3
  }
}
layer {
  name: "relu3"
  type: "ReLU"
  bottom: "conv3"
  top: "conv3"
}
layer {
  name: "pool3"
  type: "Pooling"
  bottom: "conv3"
  top: "pool3"
  pooling_param {
    pool: MAX
    kernel_h: 2
    kernel_w: 1
    stride_h: 2
    stride_w: 1
  }
}
layer {
  name: "conv4"
  type: "Convolution"
  bottom: "pool3"
  top: "conv4"
  convolution_param {
    num_output: 36
    pad: 0
    stride: 1
    weight_filler {
      type: "xavier"
    }
    bias_filler {
      type: "constant"
    }
    kernel_h: 6
    kernel_w: 3
  }
}
layer {
  name: "relu4"
  type: "ReLU"
  bottom: "conv4"
  top: "conv4"
}
layer {
  name: "pool4"
  type: "Pooling"
  bottom: "conv4"
  top: "pool4"
  pooling_param {
    pool: MAX
    kernel_h: 2
    kernel_w: 1
    stride_h: 2
    stride_w: 1
  }
}
layer {
  name: "ip1"
  type: "InnerProduct"
  bottom: "pool4"
  top: "ip1"
  inner_product_param {
    num_output: 196
    weight_filler {
      type: "xavier"
    }
    bias_filler {
      type: "constant"
    }
  }
}
layer {
  name: "relu5"
  type: "ReLU"
  bottom: "ip1"
  top: "ip1"
}
layer {
  name: "drop1"
  type: "Dropout"
  bottom: "ip1"
  top: "ip1"
  dropout_param {
    dropout_ratio: 0.5
  }
}
layer {
  name: "ip2"
  type: "InnerProduct"
  bottom: "ip1"
  top: "ip2"
  inner_product_param {
    num_output: 98
    weight_filler {
      type: "xavier"
    }
    bias_filler {
      type: "constant"
    }
  }
}
layer {
  name: "relu6"
  type: "ReLU"
  bottom: "ip2"
  top: "ip2"
}
layer {
  name: "drop2"
  type: "Dropout"
  bottom: "ip2"
  top: "ip2"
  dropout_param {
    dropout_ratio: 0.5
  }
}
layer {
  name: "ip3"
  type: "InnerProduct"
  bottom: "ip2"
  top: "ip3"
  inner_product_param {
    num_output: 11
    weight_filler {
      type: "xavier"
    }
    bias_filler {
      type: "constant"
    }
  }
}
layer {
  name: "drop3"
  type: "Dropout"
  bottom: "ip3"
  top: "ip3"
  dropout_param {
    dropout_ratio: 0.5
  }
}
layer {
  name: "accuracy"
  type: "Accuracy"
  bottom: "ip3"
  bottom: "label"
  top: "accuracy"
  include {
    phase: TEST
  }
}
layer {
  name: "loss"
  type: "SoftmaxWithLoss"
  bottom: "ip3"
  bottom: "label"
  top: "loss"
}
I0521 10:23:10.432379 11110 layer_factory.hpp:77] Creating layer data_hdf5
I0521 10:23:10.432394 11110 net.cpp:106] Creating Layer data_hdf5
I0521 10:23:10.432407 11110 net.cpp:411] data_hdf5 -> data
I0521 10:23:10.432423 11110 net.cpp:411] data_hdf5 -> label
I0521 10:23:10.432440 11110 hdf5_data_layer.cpp:79] Loading list of HDF5 filenames from: /lustre/atlas/proj-shared/hep105/caffe_titan/minosmatch_nukecczdefs_127x50_x_unshifted_me1Bmc.testlist
I0521 10:23:10.433624 11110 hdf5_data_layer.cpp:93] Number of HDF5 files: 3
I0521 10:23:31.765667 11110 net.cpp:150] Setting up data_hdf5
I0521 10:23:31.765835 11110 net.cpp:157] Top shape: 950 1 127 50 (6032500)
I0521 10:23:31.765849 11110 net.cpp:157] Top shape: 950 (950)
I0521 10:23:31.765861 11110 net.cpp:165] Memory required for data: 24133800
I0521 10:23:31.765874 11110 layer_factory.hpp:77] Creating layer label_data_hdf5_1_split
I0521 10:23:31.765902 11110 net.cpp:106] Creating Layer label_data_hdf5_1_split
I0521 10:23:31.765913 11110 net.cpp:454] label_data_hdf5_1_split <- label
I0521 10:23:31.765928 11110 net.cpp:411] label_data_hdf5_1_split -> label_data_hdf5_1_split_0
I0521 10:23:31.765949 11110 net.cpp:411] label_data_hdf5_1_split -> label_data_hdf5_1_split_1
I0521 10:23:31.766021 11110 net.cpp:150] Setting up label_data_hdf5_1_split
I0521 10:23:31.766036 11110 net.cpp:157] Top shape: 950 (950)
I0521 10:23:31.766047 11110 net.cpp:157] Top shape: 950 (950)
I0521 10:23:31.766057 11110 net.cpp:165] Memory required for data: 24141400
I0521 10:23:31.766067 11110 layer_factory.hpp:77] Creating layer conv1
I0521 10:23:31.766088 11110 net.cpp:106] Creating Layer conv1
I0521 10:23:31.766099 11110 net.cpp:454] conv1 <- data
I0521 10:23:31.766113 11110 net.cpp:411] conv1 -> conv1
I0521 10:23:31.768059 11110 net.cpp:150] Setting up conv1
I0521 10:23:31.768084 11110 net.cpp:157] Top shape: 950 12 120 48 (65664000)
I0521 10:23:31.768095 11110 net.cpp:165] Memory required for data: 286797400
I0521 10:23:31.768116 11110 layer_factory.hpp:77] Creating layer relu1
I0521 10:23:31.768131 11110 net.cpp:106] Creating Layer relu1
I0521 10:23:31.768141 11110 net.cpp:454] relu1 <- conv1
I0521 10:23:31.768153 11110 net.cpp:397] relu1 -> conv1 (in-place)
I0521 10:23:31.768654 11110 net.cpp:150] Setting up relu1
I0521 10:23:31.768671 11110 net.cpp:157] Top shape: 950 12 120 48 (65664000)
I0521 10:23:31.768682 11110 net.cpp:165] Memory required for data: 549453400
I0521 10:23:31.768692 11110 layer_factory.hpp:77] Creating layer pool1
I0521 10:23:31.768707 11110 net.cpp:106] Creating Layer pool1
I0521 10:23:31.768718 11110 net.cpp:454] pool1 <- conv1
I0521 10:23:31.768730 11110 net.cpp:411] pool1 -> pool1
I0521 10:23:31.768806 11110 net.cpp:150] Setting up pool1
I0521 10:23:31.768820 11110 net.cpp:157] Top shape: 950 12 60 48 (32832000)
I0521 10:23:31.768828 11110 net.cpp:165] Memory required for data: 680781400
I0521 10:23:31.768838 11110 layer_factory.hpp:77] Creating layer conv2
I0521 10:23:31.768857 11110 net.cpp:106] Creating Layer conv2
I0521 10:23:31.768867 11110 net.cpp:454] conv2 <- pool1
I0521 10:23:31.768882 11110 net.cpp:411] conv2 -> conv2
I0521 10:23:31.770782 11110 net.cpp:150] Setting up conv2
I0521 10:23:31.770804 11110 net.cpp:157] Top shape: 950 20 54 46 (47196000)
I0521 10:23:31.770817 11110 net.cpp:165] Memory required for data: 869565400
I0521 10:23:31.770834 11110 layer_factory.hpp:77] Creating layer relu2
I0521 10:23:31.770848 11110 net.cpp:106] Creating Layer relu2
I0521 10:23:31.770858 11110 net.cpp:454] relu2 <- conv2
I0521 10:23:31.770870 11110 net.cpp:397] relu2 -> conv2 (in-place)
I0521 10:23:31.771210 11110 net.cpp:150] Setting up relu2
I0521 10:23:31.771224 11110 net.cpp:157] Top shape: 950 20 54 46 (47196000)
I0521 10:23:31.771234 11110 net.cpp:165] Memory required for data: 1058349400
I0521 10:23:31.771245 11110 layer_factory.hpp:77] Creating layer pool2
I0521 10:23:31.771257 11110 net.cpp:106] Creating Layer pool2
I0521 10:23:31.771267 11110 net.cpp:454] pool2 <- conv2
I0521 10:23:31.771281 11110 net.cpp:411] pool2 -> pool2
I0521 10:23:31.771352 11110 net.cpp:150] Setting up pool2
I0521 10:23:31.771364 11110 net.cpp:157] Top shape: 950 20 27 46 (23598000)
I0521 10:23:31.771373 11110 net.cpp:165] Memory required for data: 1152741400
I0521 10:23:31.771384 11110 layer_factory.hpp:77] Creating layer conv3
I0521 10:23:31.771401 11110 net.cpp:106] Creating Layer conv3
I0521 10:23:31.771411 11110 net.cpp:454] conv3 <- pool2
I0521 10:23:31.771425 11110 net.cpp:411] conv3 -> conv3
I0521 10:23:31.773397 11110 net.cpp:150] Setting up conv3
I0521 10:23:31.773416 11110 net.cpp:157] Top shape: 950 28 22 44 (25748800)
I0521 10:23:31.773425 11110 net.cpp:165] Memory required for data: 1255736600
I0521 10:23:31.773458 11110 layer_factory.hpp:77] Creating layer relu3
I0521 10:23:31.773471 11110 net.cpp:106] Creating Layer relu3
I0521 10:23:31.773481 11110 net.cpp:454] relu3 <- conv3
I0521 10:23:31.773495 11110 net.cpp:397] relu3 -> conv3 (in-place)
I0521 10:23:31.773967 11110 net.cpp:150] Setting up relu3
I0521 10:23:31.773983 11110 net.cpp:157] Top shape: 950 28 22 44 (25748800)
I0521 10:23:31.773993 11110 net.cpp:165] Memory required for data: 1358731800
I0521 10:23:31.774003 11110 layer_factory.hpp:77] Creating layer pool3
I0521 10:23:31.774015 11110 net.cpp:106] Creating Layer pool3
I0521 10:23:31.774025 11110 net.cpp:454] pool3 <- conv3
I0521 10:23:31.774039 11110 net.cpp:411] pool3 -> pool3
I0521 10:23:31.774109 11110 net.cpp:150] Setting up pool3
I0521 10:23:31.774123 11110 net.cpp:157] Top shape: 950 28 11 44 (12874400)
I0521 10:23:31.774133 11110 net.cpp:165] Memory required for data: 1410229400
I0521 10:23:31.774143 11110 layer_factory.hpp:77] Creating layer conv4
I0521 10:23:31.774160 11110 net.cpp:106] Creating Layer conv4
I0521 10:23:31.774171 11110 net.cpp:454] conv4 <- pool3
I0521 10:23:31.774186 11110 net.cpp:411] conv4 -> conv4
I0521 10:23:31.776242 11110 net.cpp:150] Setting up conv4
I0521 10:23:31.776264 11110 net.cpp:157] Top shape: 950 36 6 42 (8618400)
I0521 10:23:31.776276 11110 net.cpp:165] Memory required for data: 1444703000
I0521 10:23:31.776291 11110 layer_factory.hpp:77] Creating layer relu4
I0521 10:23:31.776305 11110 net.cpp:106] Creating Layer relu4
I0521 10:23:31.776315 11110 net.cpp:454] relu4 <- conv4
I0521 10:23:31.776327 11110 net.cpp:397] relu4 -> conv4 (in-place)
I0521 10:23:31.776798 11110 net.cpp:150] Setting up relu4
I0521 10:23:31.776814 11110 net.cpp:157] Top shape: 950 36 6 42 (8618400)
I0521 10:23:31.776824 11110 net.cpp:165] Memory required for data: 1479176600
I0521 10:23:31.776834 11110 layer_factory.hpp:77] Creating layer pool4
I0521 10:23:31.776847 11110 net.cpp:106] Creating Layer pool4
I0521 10:23:31.776857 11110 net.cpp:454] pool4 <- conv4
I0521 10:23:31.776870 11110 net.cpp:411] pool4 -> pool4
I0521 10:23:31.776942 11110 net.cpp:150] Setting up pool4
I0521 10:23:31.776955 11110 net.cpp:157] Top shape: 950 36 3 42 (4309200)
I0521 10:23:31.776964 11110 net.cpp:165] Memory required for data: 1496413400
I0521 10:23:31.776974 11110 layer_factory.hpp:77] Creating layer ip1
I0521 10:23:31.776990 11110 net.cpp:106] Creating Layer ip1
I0521 10:23:31.777000 11110 net.cpp:454] ip1 <- pool4
I0521 10:23:31.777014 11110 net.cpp:411] ip1 -> ip1
I0521 10:23:31.792454 11110 net.cpp:150] Setting up ip1
I0521 10:23:31.792481 11110 net.cpp:157] Top shape: 950 196 (186200)
I0521 10:23:31.792492 11110 net.cpp:165] Memory required for data: 1497158200
I0521 10:23:31.792515 11110 layer_factory.hpp:77] Creating layer relu5
I0521 10:23:31.792529 11110 net.cpp:106] Creating Layer relu5
I0521 10:23:31.792541 11110 net.cpp:454] relu5 <- ip1
I0521 10:23:31.792553 11110 net.cpp:397] relu5 -> ip1 (in-place)
I0521 10:23:31.792898 11110 net.cpp:150] Setting up relu5
I0521 10:23:31.792912 11110 net.cpp:157] Top shape: 950 196 (186200)
I0521 10:23:31.792922 11110 net.cpp:165] Memory required for data: 1497903000
I0521 10:23:31.792934 11110 layer_factory.hpp:77] Creating layer drop1
I0521 10:23:31.792953 11110 net.cpp:106] Creating Layer drop1
I0521 10:23:31.792963 11110 net.cpp:454] drop1 <- ip1
I0521 10:23:31.792975 11110 net.cpp:397] drop1 -> ip1 (in-place)
I0521 10:23:31.793020 11110 net.cpp:150] Setting up drop1
I0521 10:23:31.793032 11110 net.cpp:157] Top shape: 950 196 (186200)
I0521 10:23:31.793043 11110 net.cpp:165] Memory required for data: 1498647800
I0521 10:23:31.793052 11110 layer_factory.hpp:77] Creating layer ip2
I0521 10:23:31.793067 11110 net.cpp:106] Creating Layer ip2
I0521 10:23:31.793076 11110 net.cpp:454] ip2 <- ip1
I0521 10:23:31.793090 11110 net.cpp:411] ip2 -> ip2
I0521 10:23:31.793571 11110 net.cpp:150] Setting up ip2
I0521 10:23:31.793584 11110 net.cpp:157] Top shape: 950 98 (93100)
I0521 10:23:31.793594 11110 net.cpp:165] Memory required for data: 1499020200
I0521 10:23:31.793622 11110 layer_factory.hpp:77] Creating layer relu6
I0521 10:23:31.793635 11110 net.cpp:106] Creating Layer relu6
I0521 10:23:31.793645 11110 net.cpp:454] relu6 <- ip2
I0521 10:23:31.793658 11110 net.cpp:397] relu6 -> ip2 (in-place)
I0521 10:23:31.794186 11110 net.cpp:150] Setting up relu6
I0521 10:23:31.794203 11110 net.cpp:157] Top shape: 950 98 (93100)
I0521 10:23:31.794212 11110 net.cpp:165] Memory required for data: 1499392600
I0521 10:23:31.794222 11110 layer_factory.hpp:77] Creating layer drop2
I0521 10:23:31.794236 11110 net.cpp:106] Creating Layer drop2
I0521 10:23:31.794246 11110 net.cpp:454] drop2 <- ip2
I0521 10:23:31.794260 11110 net.cpp:397] drop2 -> ip2 (in-place)
I0521 10:23:31.794303 11110 net.cpp:150] Setting up drop2
I0521 10:23:31.794315 11110 net.cpp:157] Top shape: 950 98 (93100)
I0521 10:23:31.794325 11110 net.cpp:165] Memory required for data: 1499765000
I0521 10:23:31.794335 11110 layer_factory.hpp:77] Creating layer ip3
I0521 10:23:31.794350 11110 net.cpp:106] Creating Layer ip3
I0521 10:23:31.794360 11110 net.cpp:454] ip3 <- ip2
I0521 10:23:31.794374 11110 net.cpp:411] ip3 -> ip3
I0521 10:23:31.794596 11110 net.cpp:150] Setting up ip3
I0521 10:23:31.794610 11110 net.cpp:157] Top shape: 950 11 (10450)
I0521 10:23:31.794620 11110 net.cpp:165] Memory required for data: 1499806800
I0521 10:23:31.794634 11110 layer_factory.hpp:77] Creating layer drop3
I0521 10:23:31.794647 11110 net.cpp:106] Creating Layer drop3
I0521 10:23:31.794657 11110 net.cpp:454] drop3 <- ip3
I0521 10:23:31.794670 11110 net.cpp:397] drop3 -> ip3 (in-place)
I0521 10:23:31.794713 11110 net.cpp:150] Setting up drop3
I0521 10:23:31.794725 11110 net.cpp:157] Top shape: 950 11 (10450)
I0521 10:23:31.794734 11110 net.cpp:165] Memory required for data: 1499848600
I0521 10:23:31.794744 11110 layer_factory.hpp:77] Creating layer ip3_drop3_0_split
I0521 10:23:31.794757 11110 net.cpp:106] Creating Layer ip3_drop3_0_split
I0521 10:23:31.794767 11110 net.cpp:454] ip3_drop3_0_split <- ip3
I0521 10:23:31.794780 11110 net.cpp:411] ip3_drop3_0_split -> ip3_drop3_0_split_0
I0521 10:23:31.794795 11110 net.cpp:411] ip3_drop3_0_split -> ip3_drop3_0_split_1
I0521 10:23:31.794869 11110 net.cpp:150] Setting up ip3_drop3_0_split
I0521 10:23:31.794883 11110 net.cpp:157] Top shape: 950 11 (10450)
I0521 10:23:31.794894 11110 net.cpp:157] Top shape: 950 11 (10450)
I0521 10:23:31.794904 11110 net.cpp:165] Memory required for data: 1499932200
I0521 10:23:31.794914 11110 layer_factory.hpp:77] Creating layer accuracy
I0521 10:23:31.794934 11110 net.cpp:106] Creating Layer accuracy
I0521 10:23:31.794945 11110 net.cpp:454] accuracy <- ip3_drop3_0_split_0
I0521 10:23:31.794956 11110 net.cpp:454] accuracy <- label_data_hdf5_1_split_0
I0521 10:23:31.794970 11110 net.cpp:411] accuracy -> accuracy
…
