…
I0520 15:09:04.765079 31241 net.cpp:322] The NetState phase (0) differed from the phase (1) specified by a rule in layer data_hdf5
I0520 15:09:04.765144 31241 net.cpp:322] The NetState phase (0) differed from the phase (1) specified by a rule in layer accuracy
I0520 15:09:04.765521 31241 net.cpp:49] Initializing net from parameters: 
name: "caffe_test_127x50_x_unshifted"
state {
  phase: TRAIN
}
layer {
  name: "data_hdf5"
  type: "HDF5Data"
  top: "data"
  top: "label"
  include {
    phase: TRAIN
  }
  hdf5_data_param {
    source: "/lustre/atlas/proj-shared/hep105/caffe_titan/minosmatch_nukecczdefs_127x50_x_unshifted_me1Bmc.trainlist"
    batch_size: 160
  }
}
layer {
  name: "conv1"
  type: "Convolution"
  bottom: "data"
  top: "conv1"
  convolution_param {
    num_output: 12
    pad: 0
    stride: 1
    weight_filler {
      type: "xavier"
    }
    bias_filler {
      type: "constant"
    }
    kernel_h: 8
    kernel_w: 3
  }
}
layer {
  name: "relu1"
  type: "ReLU"
  bottom: "conv1"
  top: "conv1"
}
layer {
  name: "pool1"
  type: "Pooling"
  bottom: "conv1"
  top: "pool1"
  pooling_param {
    pool: MAX
    kernel_h: 2
    kernel_w: 1
    stride_h: 2
    stride_w: 1
  }
}
layer {
  name: "conv2"
  type: "Convolution"
  bottom: "pool1"
  top: "conv2"
  convolution_param {
    num_output: 20
    pad: 0
    stride: 1
    weight_filler {
      type: "xavier"
    }
    bias_filler {
      type: "constant"
    }
    kernel_h: 7
    kernel_w: 3
  }
}
layer {
  name: "relu2"
  type: "ReLU"
  bottom: "conv2"
  top: "conv2"
}
layer {
  name: "pool2"
  type: "Pooling"
  bottom: "conv2"
  top: "pool2"
  pooling_param {
    pool: MAX
    kernel_h: 2
    kernel_w: 1
    stride_h: 2
    stride_w: 1
  }
}
layer {
  name: "conv3"
  type: "Convolution"
  bottom: "pool2"
  top: "conv3"
  convolution_param {
    num_output: 28
    pad: 0
    stride: 1
    weight_filler {
      type: "xavier"
    }
    bias_filler {
      type: "constant"
    }
    kernel_h: 6
    kernel_w: 3
  }
}
layer {
  name: "relu3"
  type: "ReLU"
  bottom: "conv3"
  top: "conv3"
}
layer {
  name: "pool3"
  type: "Pooling"
  bottom: "conv3"
  top: "pool3"
  pooling_param {
    pool: MAX
    kernel_h: 2
    kernel_w: 1
    stride_h: 2
    stride_w: 1
  }
}
layer {
  name: "conv4"
  type: "Convolution"
  bottom: "pool3"
  top: "conv4"
  convolution_param {
    num_output: 36
    pad: 0
    stride: 1
    weight_filler {
      type: "xavier"
    }
    bias_filler {
      type: "constant"
    }
    kernel_h: 6
    kernel_w: 3
  }
}
layer {
  name: "relu4"
  type: "ReLU"
  bottom: "conv4"
  top: "conv4"
}
layer {
  name: "pool4"
  type: "Pooling"
  bottom: "conv4"
  top: "pool4"
  pooling_param {
    pool: MAX
    kernel_h: 2
    kernel_w: 1
    stride_h: 2
    stride_w: 1
  }
}
layer {
  name: "ip1"
  type: "InnerProduct"
  bottom: "pool4"
  top: "ip1"
  inner_product_param {
    num_output: 196
    weight_filler {
      type: "xavier"
    }
    bias_filler {
      type: "constant"
    }
  }
}
layer {
  name: "relu5"
  type: "ReLU"
  bottom: "ip1"
  top: "ip1"
}
layer {
  name: "drop1"
  type: "Dropout"
  bottom: "ip1"
  top: "ip1"
  dropout_param {
    dropout_ratio: 0.5
  }
}
layer {
  name: "ip2"
  type: "InnerProduct"
  bottom: "ip1"
  top: "ip2"
  inner_product_param {
    num_output: 98
    weight_filler {
      type: "xavier"
    }
    bias_filler {
      type: "constant"
    }
  }
}
layer {
  name: "relu6"
  type: "ReLU"
  bottom: "ip2"
  top: "ip2"
}
layer {
  name: "drop2"
  type: "Dropout"
  bottom: "ip2"
  top: "ip2"
  dropout_param {
    dropout_ratio: 0.5
  }
}
layer {
  name: "ip3"
  type: "InnerProduct"
  bottom: "ip2"
  top: "ip3"
  inner_product_param {
    num_output: 11
    weight_filler {
      type: "xavier"
    }
    bias_filler {
      type: "constant"
    }
  }
}
layer {
  name: "drop3"
  type: "Dropout"
  bottom: "ip3"
  top: "ip3"
  dropout_param {
    dropout_ratio: 0.5
  }
}
layer {
  name: "loss"
  type: "SoftmaxWithLoss"
  bottom: "ip3"
  bottom: "label"
  top: "loss"
}
I0520 15:09:04.765723 31241 layer_factory.hpp:77] Creating layer data_hdf5
I0520 15:09:04.765753 31241 net.cpp:106] Creating Layer data_hdf5
I0520 15:09:04.765777 31241 net.cpp:411] data_hdf5 -> data
I0520 15:09:04.765810 31241 net.cpp:411] data_hdf5 -> label
I0520 15:09:04.765847 31241 hdf5_data_layer.cpp:79] Loading list of HDF5 filenames from: /lustre/atlas/proj-shared/hep105/caffe_titan/minosmatch_nukecczdefs_127x50_x_unshifted_me1Bmc.trainlist
I0520 15:09:04.780733 31241 hdf5_data_layer.cpp:93] Number of HDF5 files: 15
I0520 15:09:04.782941 31241 hdf5.cpp:32] Datatype class: H5T_FLOAT
I0520 15:09:26.295913 31241 hdf5.cpp:35] Datatype class: H5T_INTEGER
I0520 15:09:26.301067 31241 net.cpp:150] Setting up data_hdf5
I0520 15:09:26.301108 31241 net.cpp:157] Top shape: 160 1 127 50 (1016000)
I0520 15:09:26.301126 31241 net.cpp:157] Top shape: 160 (160)
I0520 15:09:26.301139 31241 net.cpp:165] Memory required for data: 4064640
I0520 15:09:26.301159 31241 layer_factory.hpp:77] Creating layer conv1
I0520 15:09:26.301208 31241 net.cpp:106] Creating Layer conv1
I0520 15:09:26.301234 31241 net.cpp:454] conv1 <- data
I0520 15:09:26.301259 31241 net.cpp:411] conv1 -> conv1
I0520 15:09:27.026021 31241 net.cpp:150] Setting up conv1
I0520 15:09:27.026077 31241 net.cpp:157] Top shape: 160 12 120 48 (11059200)
I0520 15:09:27.026100 31241 net.cpp:165] Memory required for data: 48301440
I0520 15:09:27.026131 31241 layer_factory.hpp:77] Creating layer relu1
I0520 15:09:27.026154 31241 net.cpp:106] Creating Layer relu1
I0520 15:09:27.026173 31241 net.cpp:454] relu1 <- conv1
I0520 15:09:27.026209 31241 net.cpp:397] relu1 -> conv1 (in-place)
I0520 15:09:27.026739 31241 net.cpp:150] Setting up relu1
I0520 15:09:27.026762 31241 net.cpp:157] Top shape: 160 12 120 48 (11059200)
I0520 15:09:27.026777 31241 net.cpp:165] Memory required for data: 92538240
I0520 15:09:27.026793 31241 layer_factory.hpp:77] Creating layer pool1
I0520 15:09:27.026818 31241 net.cpp:106] Creating Layer pool1
I0520 15:09:27.026832 31241 net.cpp:454] pool1 <- conv1
I0520 15:09:27.026849 31241 net.cpp:411] pool1 -> pool1
I0520 15:09:27.026940 31241 net.cpp:150] Setting up pool1
I0520 15:09:27.026958 31241 net.cpp:157] Top shape: 160 12 60 48 (5529600)
I0520 15:09:27.026973 31241 net.cpp:165] Memory required for data: 114656640
I0520 15:09:27.026993 31241 layer_factory.hpp:77] Creating layer conv2
I0520 15:09:27.027017 31241 net.cpp:106] Creating Layer conv2
I0520 15:09:27.027031 31241 net.cpp:454] conv2 <- pool1
I0520 15:09:27.027047 31241 net.cpp:411] conv2 -> conv2
I0520 15:09:27.029759 31241 net.cpp:150] Setting up conv2
I0520 15:09:27.029789 31241 net.cpp:157] Top shape: 160 20 54 46 (7948800)
I0520 15:09:27.029805 31241 net.cpp:165] Memory required for data: 146451840
I0520 15:09:27.029834 31241 layer_factory.hpp:77] Creating layer relu2
I0520 15:09:27.029850 31241 net.cpp:106] Creating Layer relu2
I0520 15:09:27.029875 31241 net.cpp:454] relu2 <- conv2
I0520 15:09:27.029891 31241 net.cpp:397] relu2 -> conv2 (in-place)
I0520 15:09:27.030246 31241 net.cpp:150] Setting up relu2
I0520 15:09:27.030266 31241 net.cpp:157] Top shape: 160 20 54 46 (7948800)
I0520 15:09:27.030279 31241 net.cpp:165] Memory required for data: 178247040
I0520 15:09:27.030294 31241 layer_factory.hpp:77] Creating layer pool2
I0520 15:09:27.030316 31241 net.cpp:106] Creating Layer pool2
I0520 15:09:27.030330 31241 net.cpp:454] pool2 <- conv2
I0520 15:09:27.030364 31241 net.cpp:411] pool2 -> pool2
I0520 15:09:27.030448 31241 net.cpp:150] Setting up pool2
I0520 15:09:27.030470 31241 net.cpp:157] Top shape: 160 20 27 46 (3974400)
I0520 15:09:27.030483 31241 net.cpp:165] Memory required for data: 194144640
I0520 15:09:27.030495 31241 layer_factory.hpp:77] Creating layer conv3
I0520 15:09:27.030524 31241 net.cpp:106] Creating Layer conv3
I0520 15:09:27.030539 31241 net.cpp:454] conv3 <- pool2
I0520 15:09:27.030555 31241 net.cpp:411] conv3 -> conv3
I0520 15:09:27.032555 31241 net.cpp:150] Setting up conv3
I0520 15:09:27.032580 31241 net.cpp:157] Top shape: 160 28 22 44 (4336640)
I0520 15:09:27.032600 31241 net.cpp:165] Memory required for data: 211491200
I0520 15:09:27.032624 31241 layer_factory.hpp:77] Creating layer relu3
I0520 15:09:27.032645 31241 net.cpp:106] Creating Layer relu3
I0520 15:09:27.032668 31241 net.cpp:454] relu3 <- conv3
I0520 15:09:27.032685 31241 net.cpp:397] relu3 -> conv3 (in-place)
I0520 15:09:27.033171 31241 net.cpp:150] Setting up relu3
I0520 15:09:27.033195 31241 net.cpp:157] Top shape: 160 28 22 44 (4336640)
I0520 15:09:27.033208 31241 net.cpp:165] Memory required for data: 228837760
I0520 15:09:27.033224 31241 layer_factory.hpp:77] Creating layer pool3
I0520 15:09:27.033239 31241 net.cpp:106] Creating Layer pool3
I0520 15:09:27.033262 31241 net.cpp:454] pool3 <- conv3
I0520 15:09:27.033278 31241 net.cpp:411] pool3 -> pool3
I0520 15:09:27.033360 31241 net.cpp:150] Setting up pool3
I0520 15:09:27.033385 31241 net.cpp:157] Top shape: 160 28 11 44 (2168320)
I0520 15:09:27.033397 31241 net.cpp:165] Memory required for data: 237511040
I0520 15:09:27.033411 31241 layer_factory.hpp:77] Creating layer conv4
I0520 15:09:27.033432 31241 net.cpp:106] Creating Layer conv4
I0520 15:09:27.033452 31241 net.cpp:454] conv4 <- pool3
I0520 15:09:27.033468 31241 net.cpp:411] conv4 -> conv4
I0520 15:09:27.036459 31241 net.cpp:150] Setting up conv4
I0520 15:09:27.036495 31241 net.cpp:157] Top shape: 160 36 6 42 (1451520)
I0520 15:09:27.036509 31241 net.cpp:165] Memory required for data: 243317120
I0520 15:09:27.036535 31241 layer_factory.hpp:77] Creating layer relu4
I0520 15:09:27.036562 31241 net.cpp:106] Creating Layer relu4
I0520 15:09:27.036576 31241 net.cpp:454] relu4 <- conv4
I0520 15:09:27.036592 31241 net.cpp:397] relu4 -> conv4 (in-place)
I0520 15:09:27.037087 31241 net.cpp:150] Setting up relu4
I0520 15:09:27.037111 31241 net.cpp:157] Top shape: 160 36 6 42 (1451520)
I0520 15:09:27.037124 31241 net.cpp:165] Memory required for data: 249123200
I0520 15:09:27.037140 31241 layer_factory.hpp:77] Creating layer pool4
I0520 15:09:27.037156 31241 net.cpp:106] Creating Layer pool4
I0520 15:09:27.037178 31241 net.cpp:454] pool4 <- conv4
I0520 15:09:27.037194 31241 net.cpp:411] pool4 -> pool4
I0520 15:09:27.037276 31241 net.cpp:150] Setting up pool4
I0520 15:09:27.037299 31241 net.cpp:157] Top shape: 160 36 3 42 (725760)
I0520 15:09:27.037312 31241 net.cpp:165] Memory required for data: 252026240
I0520 15:09:27.037328 31241 layer_factory.hpp:77] Creating layer ip1
I0520 15:09:27.037355 31241 net.cpp:106] Creating Layer ip1
I0520 15:09:27.037369 31241 net.cpp:454] ip1 <- pool4
I0520 15:09:27.037386 31241 net.cpp:411] ip1 -> ip1
I0520 15:09:27.052834 31241 net.cpp:150] Setting up ip1
I0520 15:09:27.052867 31241 net.cpp:157] Top shape: 160 196 (31360)
I0520 15:09:27.052888 31241 net.cpp:165] Memory required for data: 252151680
I0520 15:09:27.052913 31241 layer_factory.hpp:77] Creating layer relu5
I0520 15:09:27.052932 31241 net.cpp:106] Creating Layer relu5
I0520 15:09:27.052948 31241 net.cpp:454] relu5 <- ip1
I0520 15:09:27.052978 31241 net.cpp:397] relu5 -> ip1 (in-place)
I0520 15:09:27.053335 31241 net.cpp:150] Setting up relu5
I0520 15:09:27.053356 31241 net.cpp:157] Top shape: 160 196 (31360)
I0520 15:09:27.053369 31241 net.cpp:165] Memory required for data: 252277120
I0520 15:09:27.053385 31241 layer_factory.hpp:77] Creating layer drop1
I0520 15:09:27.053416 31241 net.cpp:106] Creating Layer drop1
I0520 15:09:27.053429 31241 net.cpp:454] drop1 <- ip1
I0520 15:09:27.053458 31241 net.cpp:397] drop1 -> ip1 (in-place)
I0520 15:09:27.053519 31241 net.cpp:150] Setting up drop1
I0520 15:09:27.053544 31241 net.cpp:157] Top shape: 160 196 (31360)
I0520 15:09:27.053556 31241 net.cpp:165] Memory required for data: 252402560
I0520 15:09:27.053567 31241 layer_factory.hpp:77] Creating layer ip2
I0520 15:09:27.053591 31241 net.cpp:106] Creating Layer ip2
I0520 15:09:27.053611 31241 net.cpp:454] ip2 <- ip1
I0520 15:09:27.053627 31241 net.cpp:411] ip2 -> ip2
I0520 15:09:27.054116 31241 net.cpp:150] Setting up ip2
I0520 15:09:27.054136 31241 net.cpp:157] Top shape: 160 98 (15680)
I0520 15:09:27.054148 31241 net.cpp:165] Memory required for data: 252465280
I0520 15:09:27.054169 31241 layer_factory.hpp:77] Creating layer relu6
I0520 15:09:27.054184 31241 net.cpp:106] Creating Layer relu6
I0520 15:09:27.054204 31241 net.cpp:454] relu6 <- ip2
I0520 15:09:27.054220 31241 net.cpp:397] relu6 -> ip2 (in-place)
I0520 15:09:27.054774 31241 net.cpp:150] Setting up relu6
I0520 15:09:27.054796 31241 net.cpp:157] Top shape: 160 98 (15680)
I0520 15:09:27.054811 31241 net.cpp:165] Memory required for data: 252528000
I0520 15:09:27.054826 31241 layer_factory.hpp:77] Creating layer drop2
I0520 15:09:27.054842 31241 net.cpp:106] Creating Layer drop2
I0520 15:09:27.054863 31241 net.cpp:454] drop2 <- ip2
I0520 15:09:27.054879 31241 net.cpp:397] drop2 -> ip2 (in-place)
I0520 15:09:27.054929 31241 net.cpp:150] Setting up drop2
I0520 15:09:27.054952 31241 net.cpp:157] Top shape: 160 98 (15680)
I0520 15:09:27.054965 31241 net.cpp:165] Memory required for data: 252590720
I0520 15:09:27.054980 31241 layer_factory.hpp:77] Creating layer ip3
I0520 15:09:27.054996 31241 net.cpp:106] Creating Layer ip3
I0520 15:09:27.055011 31241 net.cpp:454] ip3 <- ip2
I0520 15:09:27.055032 31241 net.cpp:411] ip3 -> ip3
I0520 15:09:27.055256 31241 net.cpp:150] Setting up ip3
I0520 15:09:27.055275 31241 net.cpp:157] Top shape: 160 11 (1760)
I0520 15:09:27.055289 31241 net.cpp:165] Memory required for data: 252597760
I0520 15:09:27.055308 31241 layer_factory.hpp:77] Creating layer drop3
I0520 15:09:27.055330 31241 net.cpp:106] Creating Layer drop3
I0520 15:09:27.055343 31241 net.cpp:454] drop3 <- ip3
I0520 15:09:27.055358 31241 net.cpp:397] drop3 -> ip3 (in-place)
I0520 15:09:27.055407 31241 net.cpp:150] Setting up drop3
I0520 15:09:27.055435 31241 net.cpp:157] Top shape: 160 11 (1760)
I0520 15:09:27.055447 31241 net.cpp:165] Memory required for data: 252604800
I0520 15:09:27.055460 31241 layer_factory.hpp:77] Creating layer loss
I0520 15:09:27.055485 31241 net.cpp:106] Creating Layer loss
I0520 15:09:27.055497 31241 net.cpp:454] loss <- ip3
I0520 15:09:27.055517 31241 net.cpp:454] loss <- label
I0520 15:09:27.055533 31241 net.cpp:411] loss -> loss
I0520 15:09:27.055552 31241 layer_factory.hpp:77] Creating layer loss
…
I0520 15:09:27.058248 31241 solver.cpp:181] Creating test net (#0) specified by net file: /lustre/atlas/proj-shared/hep105/caffe_titan/caffe_workflow/logs_batch_size_test/batch_size_160_2016-05-20T11.20.38.479760.prototxt
I0520 15:09:27.058322 31241 net.cpp:322] The NetState phase (1) differed from the phase (0) specified by a rule in layer data_hdf5
I0520 15:09:27.058679 31241 net.cpp:49] Initializing net from parameters: 
name: "caffe_test_127x50_x_unshifted"
state {
  phase: TEST
}
layer {
  name: "data_hdf5"
  type: "HDF5Data"
  top: "data"
  top: "label"
  include {
    phase: TEST
  }
  hdf5_data_param {
    source: "/lustre/atlas/proj-shared/hep105/caffe_titan/minosmatch_nukecczdefs_127x50_x_unshifted_me1Bmc.testlist"
    batch_size: 160
  }
}
layer {
  name: "conv1"
  type: "Convolution"
  bottom: "data"
  top: "conv1"
  convolution_param {
    num_output: 12
    pad: 0
    stride: 1
    weight_filler {
      type: "xavier"
    }
    bias_filler {
      type: "constant"
    }
    kernel_h: 8
    kernel_w: 3
  }
}
layer {
  name: "relu1"
  type: "ReLU"
  bottom: "conv1"
  top: "conv1"
}
layer {
  name: "pool1"
  type: "Pooling"
  bottom: "conv1"
  top: "pool1"
  pooling_param {
    pool: MAX
    kernel_h: 2
    kernel_w: 1
    stride_h: 2
    stride_w: 1
  }
}
layer {
  name: "conv2"
  type: "Convolution"
  bottom: "pool1"
  top: "conv2"
  convolution_param {
    num_output: 20
    pad: 0
    stride: 1
    weight_filler {
      type: "xavier"
    }
    bias_filler {
      type: "constant"
    }
    kernel_h: 7
    kernel_w: 3
  }
}
layer {
  name: "relu2"
  type: "ReLU"
  bottom: "conv2"
  top: "conv2"
}
layer {
  name: "pool2"
  type: "Pooling"
  bottom: "conv2"
  top: "pool2"
  pooling_param {
    pool: MAX
    kernel_h: 2
    kernel_w: 1
    stride_h: 2
    stride_w: 1
  }
}
layer {
  name: "conv3"
  type: "Convolution"
  bottom: "pool2"
  top: "conv3"
  convolution_param {
    num_output: 28
    pad: 0
    stride: 1
    weight_filler {
      type: "xavier"
    }
    bias_filler {
      type: "constant"
    }
    kernel_h: 6
    kernel_w: 3
  }
}
layer {
  name: "relu3"
  type: "ReLU"
  bottom: "conv3"
  top: "conv3"
}
layer {
  name: "pool3"
  type: "Pooling"
  bottom: "conv3"
  top: "pool3"
  pooling_param {
    pool: MAX
    kernel_h: 2
    kernel_w: 1
    stride_h: 2
    stride_w: 1
  }
}
layer {
  name: "conv4"
  type: "Convolution"
  bottom: "pool3"
  top: "conv4"
  convolution_param {
    num_output: 36
    pad: 0
    stride: 1
    weight_filler {
      type: "xavier"
    }
    bias_filler {
      type: "constant"
    }
    kernel_h: 6
    kernel_w: 3
  }
}
layer {
  name: "relu4"
  type: "ReLU"
  bottom: "conv4"
  top: "conv4"
}
layer {
  name: "pool4"
  type: "Pooling"
  bottom: "conv4"
  top: "pool4"
  pooling_param {
    pool: MAX
    kernel_h: 2
    kernel_w: 1
    stride_h: 2
    stride_w: 1
  }
}
layer {
  name: "ip1"
  type: "InnerProduct"
  bottom: "pool4"
  top: "ip1"
  inner_product_param {
    num_output: 196
    weight_filler {
      type: "xavier"
    }
    bias_filler {
      type: "constant"
    }
  }
}
layer {
  name: "relu5"
  type: "ReLU"
  bottom: "ip1"
  top: "ip1"
}
layer {
  name: "drop1"
  type: "Dropout"
  bottom: "ip1"
  top: "ip1"
  dropout_param {
    dropout_ratio: 0.5
  }
}
layer {
  name: "ip2"
  type: "InnerProduct"
  bottom: "ip1"
  top: "ip2"
  inner_product_param {
    num_output: 98
    weight_filler {
      type: "xavier"
    }
    bias_filler {
      type: "constant"
    }
  }
}
layer {
  name: "relu6"
  type: "ReLU"
  bottom: "ip2"
  top: "ip2"
}
layer {
  name: "drop2"
  type: "Dropout"
  bottom: "ip2"
  top: "ip2"
  dropout_param {
    dropout_ratio: 0.5
  }
}
layer {
  name: "ip3"
  type: "InnerProduct"
  bottom: "ip2"
  top: "ip3"
  inner_product_param {
    num_output: 11
    weight_filler {
      type: "xavier"
    }
    bias_filler {
      type: "constant"
    }
  }
}
layer {
  name: "drop3"
  type: "Dropout"
  bottom: "ip3"
  top: "ip3"
  dropout_param {
    dropout_ratio: 0.5
  }
}
layer {
  name: "accuracy"
  type: "Accuracy"
  bottom: "ip3"
  bottom: "label"
  top: "accuracy"
  include {
    phase: TEST
  }
}
layer {
  name: "loss"
  type: "SoftmaxWithLoss"
  bottom: "ip3"
  bottom: "label"
  top: "loss"
}
I0520 15:09:27.058878 31241 layer_factory.hpp:77] Creating layer data_hdf5
I0520 15:09:27.058898 31241 net.cpp:106] Creating Layer data_hdf5
I0520 15:09:27.058914 31241 net.cpp:411] data_hdf5 -> data
I0520 15:09:27.058935 31241 net.cpp:411] data_hdf5 -> label
I0520 15:09:27.058954 31241 hdf5_data_layer.cpp:79] Loading list of HDF5 filenames from: /lustre/atlas/proj-shared/hep105/caffe_titan/minosmatch_nukecczdefs_127x50_x_unshifted_me1Bmc.testlist
I0520 15:09:27.060122 31241 hdf5_data_layer.cpp:93] Number of HDF5 files: 3
I0520 15:09:48.398319 31241 net.cpp:150] Setting up data_hdf5
I0520 15:09:48.398488 31241 net.cpp:157] Top shape: 160 1 127 50 (1016000)
I0520 15:09:48.398507 31241 net.cpp:157] Top shape: 160 (160)
I0520 15:09:48.398520 31241 net.cpp:165] Memory required for data: 4064640
I0520 15:09:48.398535 31241 layer_factory.hpp:77] Creating layer label_data_hdf5_1_split
I0520 15:09:48.398564 31241 net.cpp:106] Creating Layer label_data_hdf5_1_split
I0520 15:09:48.398582 31241 net.cpp:454] label_data_hdf5_1_split <- label
I0520 15:09:48.398599 31241 net.cpp:411] label_data_hdf5_1_split -> label_data_hdf5_1_split_0
I0520 15:09:48.398641 31241 net.cpp:411] label_data_hdf5_1_split -> label_data_hdf5_1_split_1
I0520 15:09:48.398721 31241 net.cpp:150] Setting up label_data_hdf5_1_split
I0520 15:09:48.398746 31241 net.cpp:157] Top shape: 160 (160)
I0520 15:09:48.398761 31241 net.cpp:157] Top shape: 160 (160)
I0520 15:09:48.398783 31241 net.cpp:165] Memory required for data: 4065920
I0520 15:09:48.398795 31241 layer_factory.hpp:77] Creating layer conv1
I0520 15:09:48.398821 31241 net.cpp:106] Creating Layer conv1
I0520 15:09:48.398834 31241 net.cpp:454] conv1 <- data
I0520 15:09:48.398859 31241 net.cpp:411] conv1 -> conv1
I0520 15:09:48.400842 31241 net.cpp:150] Setting up conv1
I0520 15:09:48.400868 31241 net.cpp:157] Top shape: 160 12 120 48 (11059200)
I0520 15:09:48.400888 31241 net.cpp:165] Memory required for data: 48302720
I0520 15:09:48.400913 31241 layer_factory.hpp:77] Creating layer relu1
I0520 15:09:48.400933 31241 net.cpp:106] Creating Layer relu1
I0520 15:09:48.400955 31241 net.cpp:454] relu1 <- conv1
I0520 15:09:48.400971 31241 net.cpp:397] relu1 -> conv1 (in-place)
I0520 15:09:48.401486 31241 net.cpp:150] Setting up relu1
I0520 15:09:48.401509 31241 net.cpp:157] Top shape: 160 12 120 48 (11059200)
I0520 15:09:48.401522 31241 net.cpp:165] Memory required for data: 92539520
I0520 15:09:48.401535 31241 layer_factory.hpp:77] Creating layer pool1
I0520 15:09:48.401564 31241 net.cpp:106] Creating Layer pool1
I0520 15:09:48.401578 31241 net.cpp:454] pool1 <- conv1
I0520 15:09:48.401594 31241 net.cpp:411] pool1 -> pool1
I0520 15:09:48.401684 31241 net.cpp:150] Setting up pool1
I0520 15:09:48.401701 31241 net.cpp:157] Top shape: 160 12 60 48 (5529600)
I0520 15:09:48.401716 31241 net.cpp:165] Memory required for data: 114657920
I0520 15:09:48.401728 31241 layer_factory.hpp:77] Creating layer conv2
I0520 15:09:48.401748 31241 net.cpp:106] Creating Layer conv2
I0520 15:09:48.401770 31241 net.cpp:454] conv2 <- pool1
I0520 15:09:48.401788 31241 net.cpp:411] conv2 -> conv2
I0520 15:09:48.403748 31241 net.cpp:150] Setting up conv2
I0520 15:09:48.403774 31241 net.cpp:157] Top shape: 160 20 54 46 (7948800)
I0520 15:09:48.403786 31241 net.cpp:165] Memory required for data: 146453120
I0520 15:09:48.403811 31241 layer_factory.hpp:77] Creating layer relu2
I0520 15:09:48.403827 31241 net.cpp:106] Creating Layer relu2
I0520 15:09:48.403851 31241 net.cpp:454] relu2 <- conv2
I0520 15:09:48.403867 31241 net.cpp:397] relu2 -> conv2 (in-place)
I0520 15:09:48.404225 31241 net.cpp:150] Setting up relu2
I0520 15:09:48.404245 31241 net.cpp:157] Top shape: 160 20 54 46 (7948800)
I0520 15:09:48.404258 31241 net.cpp:165] Memory required for data: 178248320
I0520 15:09:48.404270 31241 layer_factory.hpp:77] Creating layer pool2
I0520 15:09:48.404290 31241 net.cpp:106] Creating Layer pool2
I0520 15:09:48.404310 31241 net.cpp:454] pool2 <- conv2
I0520 15:09:48.404326 31241 net.cpp:411] pool2 -> pool2
I0520 15:09:48.404418 31241 net.cpp:150] Setting up pool2
I0520 15:09:48.404435 31241 net.cpp:157] Top shape: 160 20 27 46 (3974400)
I0520 15:09:48.404453 31241 net.cpp:165] Memory required for data: 194145920
I0520 15:09:48.404466 31241 layer_factory.hpp:77] Creating layer conv3
I0520 15:09:48.404491 31241 net.cpp:106] Creating Layer conv3
I0520 15:09:48.404510 31241 net.cpp:454] conv3 <- pool2
I0520 15:09:48.404527 31241 net.cpp:411] conv3 -> conv3
I0520 15:09:48.406539 31241 net.cpp:150] Setting up conv3
I0520 15:09:48.406569 31241 net.cpp:157] Top shape: 160 28 22 44 (4336640)
I0520 15:09:48.406581 31241 net.cpp:165] Memory required for data: 211492480
I0520 15:09:48.406620 31241 layer_factory.hpp:77] Creating layer relu3
I0520 15:09:48.406647 31241 net.cpp:106] Creating Layer relu3
I0520 15:09:48.406661 31241 net.cpp:454] relu3 <- conv3
I0520 15:09:48.406687 31241 net.cpp:397] relu3 -> conv3 (in-place)
I0520 15:09:48.407182 31241 net.cpp:150] Setting up relu3
I0520 15:09:48.407205 31241 net.cpp:157] Top shape: 160 28 22 44 (4336640)
I0520 15:09:48.407218 31241 net.cpp:165] Memory required for data: 228839040
I0520 15:09:48.407233 31241 layer_factory.hpp:77] Creating layer pool3
I0520 15:09:48.407249 31241 net.cpp:106] Creating Layer pool3
I0520 15:09:48.407271 31241 net.cpp:454] pool3 <- conv3
I0520 15:09:48.407287 31241 net.cpp:411] pool3 -> pool3
I0520 15:09:48.407372 31241 net.cpp:150] Setting up pool3
I0520 15:09:48.407394 31241 net.cpp:157] Top shape: 160 28 11 44 (2168320)
I0520 15:09:48.407407 31241 net.cpp:165] Memory required for data: 237512320
I0520 15:09:48.407421 31241 layer_factory.hpp:77] Creating layer conv4
I0520 15:09:48.407454 31241 net.cpp:106] Creating Layer conv4
I0520 15:09:48.407469 31241 net.cpp:454] conv4 <- pool3
I0520 15:09:48.407496 31241 net.cpp:411] conv4 -> conv4
I0520 15:09:48.409611 31241 net.cpp:150] Setting up conv4
I0520 15:09:48.409636 31241 net.cpp:157] Top shape: 160 36 6 42 (1451520)
I0520 15:09:48.409657 31241 net.cpp:165] Memory required for data: 243318400
I0520 15:09:48.409675 31241 layer_factory.hpp:77] Creating layer relu4
I0520 15:09:48.409696 31241 net.cpp:106] Creating Layer relu4
I0520 15:09:48.409708 31241 net.cpp:454] relu4 <- conv4
I0520 15:09:48.409734 31241 net.cpp:397] relu4 -> conv4 (in-place)
I0520 15:09:48.410228 31241 net.cpp:150] Setting up relu4
I0520 15:09:48.410250 31241 net.cpp:157] Top shape: 160 36 6 42 (1451520)
I0520 15:09:48.410264 31241 net.cpp:165] Memory required for data: 249124480
I0520 15:09:48.410279 31241 layer_factory.hpp:77] Creating layer pool4
I0520 15:09:48.410296 31241 net.cpp:106] Creating Layer pool4
I0520 15:09:48.410317 31241 net.cpp:454] pool4 <- conv4
I0520 15:09:48.410333 31241 net.cpp:411] pool4 -> pool4
I0520 15:09:48.410419 31241 net.cpp:150] Setting up pool4
I0520 15:09:48.410436 31241 net.cpp:157] Top shape: 160 36 3 42 (725760)
I0520 15:09:48.410449 31241 net.cpp:165] Memory required for data: 252027520
I0520 15:09:48.410464 31241 layer_factory.hpp:77] Creating layer ip1
I0520 15:09:48.410480 31241 net.cpp:106] Creating Layer ip1
I0520 15:09:48.410501 31241 net.cpp:454] ip1 <- pool4
I0520 15:09:48.410523 31241 net.cpp:411] ip1 -> ip1
I0520 15:09:48.425989 31241 net.cpp:150] Setting up ip1
I0520 15:09:48.426023 31241 net.cpp:157] Top shape: 160 196 (31360)
I0520 15:09:48.426043 31241 net.cpp:165] Memory required for data: 252152960
I0520 15:09:48.426070 31241 layer_factory.hpp:77] Creating layer relu5
I0520 15:09:48.426091 31241 net.cpp:106] Creating Layer relu5
I0520 15:09:48.426105 31241 net.cpp:454] relu5 <- ip1
I0520 15:09:48.426120 31241 net.cpp:397] relu5 -> ip1 (in-place)
I0520 15:09:48.426497 31241 net.cpp:150] Setting up relu5
I0520 15:09:48.426518 31241 net.cpp:157] Top shape: 160 196 (31360)
I0520 15:09:48.426530 31241 net.cpp:165] Memory required for data: 252278400
I0520 15:09:48.426545 31241 layer_factory.hpp:77] Creating layer drop1
I0520 15:09:48.426566 31241 net.cpp:106] Creating Layer drop1
I0520 15:09:48.426586 31241 net.cpp:454] drop1 <- ip1
I0520 15:09:48.426602 31241 net.cpp:397] drop1 -> ip1 (in-place)
I0520 15:09:48.426654 31241 net.cpp:150] Setting up drop1
I0520 15:09:48.426671 31241 net.cpp:157] Top shape: 160 196 (31360)
I0520 15:09:48.426683 31241 net.cpp:165] Memory required for data: 252403840
I0520 15:09:48.426702 31241 layer_factory.hpp:77] Creating layer ip2
I0520 15:09:48.426726 31241 net.cpp:106] Creating Layer ip2
I0520 15:09:48.426743 31241 net.cpp:454] ip2 <- ip1
I0520 15:09:48.426760 31241 net.cpp:411] ip2 -> ip2
I0520 15:09:48.427258 31241 net.cpp:150] Setting up ip2
I0520 15:09:48.427276 31241 net.cpp:157] Top shape: 160 98 (15680)
I0520 15:09:48.427289 31241 net.cpp:165] Memory required for data: 252466560
I0520 15:09:48.427323 31241 layer_factory.hpp:77] Creating layer relu6
I0520 15:09:48.427346 31241 net.cpp:106] Creating Layer relu6
I0520 15:09:48.427359 31241 net.cpp:454] relu6 <- ip2
I0520 15:09:48.427376 31241 net.cpp:397] relu6 -> ip2 (in-place)
I0520 15:09:48.427947 31241 net.cpp:150] Setting up relu6
I0520 15:09:48.427970 31241 net.cpp:157] Top shape: 160 98 (15680)
I0520 15:09:48.427983 31241 net.cpp:165] Memory required for data: 252529280
I0520 15:09:48.427999 31241 layer_factory.hpp:77] Creating layer drop2
I0520 15:09:48.428016 31241 net.cpp:106] Creating Layer drop2
I0520 15:09:48.428037 31241 net.cpp:454] drop2 <- ip2
I0520 15:09:48.428055 31241 net.cpp:397] drop2 -> ip2 (in-place)
I0520 15:09:48.428107 31241 net.cpp:150] Setting up drop2
I0520 15:09:48.428123 31241 net.cpp:157] Top shape: 160 98 (15680)
I0520 15:09:48.428136 31241 net.cpp:165] Memory required for data: 252592000
I0520 15:09:48.428148 31241 layer_factory.hpp:77] Creating layer ip3
I0520 15:09:48.428166 31241 net.cpp:106] Creating Layer ip3
I0520 15:09:48.428179 31241 net.cpp:454] ip3 <- ip2
I0520 15:09:48.428215 31241 net.cpp:411] ip3 -> ip3
I0520 15:09:48.428464 31241 net.cpp:150] Setting up ip3
I0520 15:09:48.428484 31241 net.cpp:157] Top shape: 160 11 (1760)
I0520 15:09:48.428498 31241 net.cpp:165] Memory required for data: 252599040
I0520 15:09:48.428519 31241 layer_factory.hpp:77] Creating layer drop3
I0520 15:09:48.428541 31241 net.cpp:106] Creating Layer drop3
I0520 15:09:48.428555 31241 net.cpp:454] drop3 <- ip3
I0520 15:09:48.428570 31241 net.cpp:397] drop3 -> ip3 (in-place)
I0520 15:09:48.428619 31241 net.cpp:150] Setting up drop3
I0520 15:09:48.428642 31241 net.cpp:157] Top shape: 160 11 (1760)
I0520 15:09:48.428654 31241 net.cpp:165] Memory required for data: 252606080
I0520 15:09:48.428666 31241 layer_factory.hpp:77] Creating layer ip3_drop3_0_split
I0520 15:09:48.428683 31241 net.cpp:106] Creating Layer ip3_drop3_0_split
I0520 15:09:48.428697 31241 net.cpp:454] ip3_drop3_0_split <- ip3
I0520 15:09:48.428719 31241 net.cpp:411] ip3_drop3_0_split -> ip3_drop3_0_split_0
I0520 15:09:48.428737 31241 net.cpp:411] ip3_drop3_0_split -> ip3_drop3_0_split_1
I0520 15:09:48.428830 31241 net.cpp:150] Setting up ip3_drop3_0_split
I0520 15:09:48.428848 31241 net.cpp:157] Top shape: 160 11 (1760)
I0520 15:09:48.428864 31241 net.cpp:157] Top shape: 160 11 (1760)
I0520 15:09:48.428877 31241 net.cpp:165] Memory required for data: 252620160
I0520 15:09:48.428889 31241 layer_factory.hpp:77] Creating layer accuracy
I0520 15:09:48.428918 31241 net.cpp:106] Creating Layer accuracy
I0520 15:09:48.428931 31241 net.cpp:454] accuracy <- ip3_drop3_0_split_0
I0520 15:09:48.428946 31241 net.cpp:454] accuracy <- label_data_hdf5_1_split_0
I0520 15:09:48.428961 31241 net.cpp:411] accuracy -> accuracy
…
