…
I0520 22:52:59.040747  9280 net.cpp:322] The NetState phase (0) differed from the phase (1) specified by a rule in layer data_hdf5
I0520 22:52:59.040807  9280 net.cpp:322] The NetState phase (0) differed from the phase (1) specified by a rule in layer accuracy
I0520 22:52:59.041153  9280 net.cpp:49] Initializing net from parameters: 
name: "caffe_test_127x50_x_unshifted"
state {
  phase: TRAIN
}
layer {
  name: "data_hdf5"
  type: "HDF5Data"
  top: "data"
  top: "label"
  include {
    phase: TRAIN
  }
  hdf5_data_param {
    source: "/lustre/atlas/proj-shared/hep105/caffe_titan/minosmatch_nukecczdefs_127x50_x_unshifted_me1Bmc.trainlist"
    batch_size: 400
  }
}
layer {
  name: "conv1"
  type: "Convolution"
  bottom: "data"
  top: "conv1"
  convolution_param {
    num_output: 12
    pad: 0
    stride: 1
    weight_filler {
      type: "xavier"
    }
    bias_filler {
      type: "constant"
    }
    kernel_h: 8
    kernel_w: 3
  }
}
layer {
  name: "relu1"
  type: "ReLU"
  bottom: "conv1"
  top: "conv1"
}
layer {
  name: "pool1"
  type: "Pooling"
  bottom: "conv1"
  top: "pool1"
  pooling_param {
    pool: MAX
    kernel_h: 2
    kernel_w: 1
    stride_h: 2
    stride_w: 1
  }
}
layer {
  name: "conv2"
  type: "Convolution"
  bottom: "pool1"
  top: "conv2"
  convolution_param {
    num_output: 20
    pad: 0
    stride: 1
    weight_filler {
      type: "xavier"
    }
    bias_filler {
      type: "constant"
    }
    kernel_h: 7
    kernel_w: 3
  }
}
layer {
  name: "relu2"
  type: "ReLU"
  bottom: "conv2"
  top: "conv2"
}
layer {
  name: "pool2"
  type: "Pooling"
  bottom: "conv2"
  top: "pool2"
  pooling_param {
    pool: MAX
    kernel_h: 2
    kernel_w: 1
    stride_h: 2
    stride_w: 1
  }
}
layer {
  name: "conv3"
  type: "Convolution"
  bottom: "pool2"
  top: "conv3"
  convolution_param {
    num_output: 28
    pad: 0
    stride: 1
    weight_filler {
      type: "xavier"
    }
    bias_filler {
      type: "constant"
    }
    kernel_h: 6
    kernel_w: 3
  }
}
layer {
  name: "relu3"
  type: "ReLU"
  bottom: "conv3"
  top: "conv3"
}
layer {
  name: "pool3"
  type: "Pooling"
  bottom: "conv3"
  top: "pool3"
  pooling_param {
    pool: MAX
    kernel_h: 2
    kernel_w: 1
    stride_h: 2
    stride_w: 1
  }
}
layer {
  name: "conv4"
  type: "Convolution"
  bottom: "pool3"
  top: "conv4"
  convolution_param {
    num_output: 36
    pad: 0
    stride: 1
    weight_filler {
      type: "xavier"
    }
    bias_filler {
      type: "constant"
    }
    kernel_h: 6
    kernel_w: 3
  }
}
layer {
  name: "relu4"
  type: "ReLU"
  bottom: "conv4"
  top: "conv4"
}
layer {
  name: "pool4"
  type: "Pooling"
  bottom: "conv4"
  top: "pool4"
  pooling_param {
    pool: MAX
    kernel_h: 2
    kernel_w: 1
    stride_h: 2
    stride_w: 1
  }
}
layer {
  name: "ip1"
  type: "InnerProduct"
  bottom: "pool4"
  top: "ip1"
  inner_product_param {
    num_output: 196
    weight_filler {
      type: "xavier"
    }
    bias_filler {
      type: "constant"
    }
  }
}
layer {
  name: "relu5"
  type: "ReLU"
  bottom: "ip1"
  top: "ip1"
}
layer {
  name: "drop1"
  type: "Dropout"
  bottom: "ip1"
  top: "ip1"
  dropout_param {
    dropout_ratio: 0.5
  }
}
layer {
  name: "ip2"
  type: "InnerProduct"
  bottom: "ip1"
  top: "ip2"
  inner_product_param {
    num_output: 98
    weight_filler {
      type: "xavier"
    }
    bias_filler {
      type: "constant"
    }
  }
}
layer {
  name: "relu6"
  type: "ReLU"
  bottom: "ip2"
  top: "ip2"
}
layer {
  name: "drop2"
  type: "Dropout"
  bottom: "ip2"
  top: "ip2"
  dropout_param {
    dropout_ratio: 0.5
  }
}
layer {
  name: "ip3"
  type: "InnerProduct"
  bottom: "ip2"
  top: "ip3"
  inner_product_param {
    num_output: 11
    weight_filler {
      type: "xavier"
    }
    bias_filler {
      type: "constant"
    }
  }
}
layer {
  name: "drop3"
  type: "Dropout"
  bottom: "ip3"
  top: "ip3"
  dropout_param {
    dropout_ratio: 0.5
  }
}
layer {
  name: "loss"
  type: "SoftmaxWithLoss"
  bottom: "ip3"
  bottom: "label"
  top: "loss"
}
I0520 22:52:59.041332  9280 layer_factory.hpp:77] Creating layer data_hdf5
I0520 22:52:59.041357  9280 net.cpp:106] Creating Layer data_hdf5
I0520 22:52:59.041370  9280 net.cpp:411] data_hdf5 -> data
I0520 22:52:59.041404  9280 net.cpp:411] data_hdf5 -> label
I0520 22:52:59.041436  9280 hdf5_data_layer.cpp:79] Loading list of HDF5 filenames from: /lustre/atlas/proj-shared/hep105/caffe_titan/minosmatch_nukecczdefs_127x50_x_unshifted_me1Bmc.trainlist
I0520 22:52:59.042618  9280 hdf5_data_layer.cpp:93] Number of HDF5 files: 15
I0520 22:52:59.044822  9280 hdf5.cpp:32] Datatype class: H5T_FLOAT
I0520 22:53:20.586084  9280 hdf5.cpp:35] Datatype class: H5T_INTEGER
I0520 22:53:20.591219  9280 net.cpp:150] Setting up data_hdf5
I0520 22:53:20.591259  9280 net.cpp:157] Top shape: 400 1 127 50 (2540000)
I0520 22:53:20.591274  9280 net.cpp:157] Top shape: 400 (400)
I0520 22:53:20.591287  9280 net.cpp:165] Memory required for data: 10161600
I0520 22:53:20.591301  9280 layer_factory.hpp:77] Creating layer conv1
I0520 22:53:20.591336  9280 net.cpp:106] Creating Layer conv1
I0520 22:53:20.591346  9280 net.cpp:454] conv1 <- data
I0520 22:53:20.591369  9280 net.cpp:411] conv1 -> conv1
I0520 22:53:20.953815  9280 net.cpp:150] Setting up conv1
I0520 22:53:20.953863  9280 net.cpp:157] Top shape: 400 12 120 48 (27648000)
I0520 22:53:20.953874  9280 net.cpp:165] Memory required for data: 120753600
I0520 22:53:20.953902  9280 layer_factory.hpp:77] Creating layer relu1
I0520 22:53:20.953923  9280 net.cpp:106] Creating Layer relu1
I0520 22:53:20.953934  9280 net.cpp:454] relu1 <- conv1
I0520 22:53:20.953948  9280 net.cpp:397] relu1 -> conv1 (in-place)
I0520 22:53:20.954465  9280 net.cpp:150] Setting up relu1
I0520 22:53:20.954483  9280 net.cpp:157] Top shape: 400 12 120 48 (27648000)
I0520 22:53:20.954493  9280 net.cpp:165] Memory required for data: 231345600
I0520 22:53:20.954504  9280 layer_factory.hpp:77] Creating layer pool1
I0520 22:53:20.954521  9280 net.cpp:106] Creating Layer pool1
I0520 22:53:20.954530  9280 net.cpp:454] pool1 <- conv1
I0520 22:53:20.954545  9280 net.cpp:411] pool1 -> pool1
I0520 22:53:20.954625  9280 net.cpp:150] Setting up pool1
I0520 22:53:20.954639  9280 net.cpp:157] Top shape: 400 12 60 48 (13824000)
I0520 22:53:20.954650  9280 net.cpp:165] Memory required for data: 286641600
I0520 22:53:20.954660  9280 layer_factory.hpp:77] Creating layer conv2
I0520 22:53:20.954684  9280 net.cpp:106] Creating Layer conv2
I0520 22:53:20.954694  9280 net.cpp:454] conv2 <- pool1
I0520 22:53:20.954706  9280 net.cpp:411] conv2 -> conv2
I0520 22:53:20.957399  9280 net.cpp:150] Setting up conv2
I0520 22:53:20.957422  9280 net.cpp:157] Top shape: 400 20 54 46 (19872000)
I0520 22:53:20.957432  9280 net.cpp:165] Memory required for data: 366129600
I0520 22:53:20.957453  9280 layer_factory.hpp:77] Creating layer relu2
I0520 22:53:20.957466  9280 net.cpp:106] Creating Layer relu2
I0520 22:53:20.957476  9280 net.cpp:454] relu2 <- conv2
I0520 22:53:20.957489  9280 net.cpp:397] relu2 -> conv2 (in-place)
I0520 22:53:20.957820  9280 net.cpp:150] Setting up relu2
I0520 22:53:20.957834  9280 net.cpp:157] Top shape: 400 20 54 46 (19872000)
I0520 22:53:20.957844  9280 net.cpp:165] Memory required for data: 445617600
I0520 22:53:20.957854  9280 layer_factory.hpp:77] Creating layer pool2
I0520 22:53:20.957867  9280 net.cpp:106] Creating Layer pool2
I0520 22:53:20.957877  9280 net.cpp:454] pool2 <- conv2
I0520 22:53:20.957902  9280 net.cpp:411] pool2 -> pool2
I0520 22:53:20.957972  9280 net.cpp:150] Setting up pool2
I0520 22:53:20.957985  9280 net.cpp:157] Top shape: 400 20 27 46 (9936000)
I0520 22:53:20.957994  9280 net.cpp:165] Memory required for data: 485361600
I0520 22:53:20.958003  9280 layer_factory.hpp:77] Creating layer conv3
I0520 22:53:20.958020  9280 net.cpp:106] Creating Layer conv3
I0520 22:53:20.958031  9280 net.cpp:454] conv3 <- pool2
I0520 22:53:20.958045  9280 net.cpp:411] conv3 -> conv3
I0520 22:53:20.959975  9280 net.cpp:150] Setting up conv3
I0520 22:53:20.959998  9280 net.cpp:157] Top shape: 400 28 22 44 (10841600)
I0520 22:53:20.960011  9280 net.cpp:165] Memory required for data: 528728000
I0520 22:53:20.960029  9280 layer_factory.hpp:77] Creating layer relu3
I0520 22:53:20.960046  9280 net.cpp:106] Creating Layer relu3
I0520 22:53:20.960055  9280 net.cpp:454] relu3 <- conv3
I0520 22:53:20.960067  9280 net.cpp:397] relu3 -> conv3 (in-place)
I0520 22:53:20.960536  9280 net.cpp:150] Setting up relu3
I0520 22:53:20.960553  9280 net.cpp:157] Top shape: 400 28 22 44 (10841600)
I0520 22:53:20.960563  9280 net.cpp:165] Memory required for data: 572094400
I0520 22:53:20.960573  9280 layer_factory.hpp:77] Creating layer pool3
I0520 22:53:20.960587  9280 net.cpp:106] Creating Layer pool3
I0520 22:53:20.960597  9280 net.cpp:454] pool3 <- conv3
I0520 22:53:20.960608  9280 net.cpp:411] pool3 -> pool3
I0520 22:53:20.960676  9280 net.cpp:150] Setting up pool3
I0520 22:53:20.960690  9280 net.cpp:157] Top shape: 400 28 11 44 (5420800)
I0520 22:53:20.960700  9280 net.cpp:165] Memory required for data: 593777600
I0520 22:53:20.960710  9280 layer_factory.hpp:77] Creating layer conv4
I0520 22:53:20.960724  9280 net.cpp:106] Creating Layer conv4
I0520 22:53:20.960734  9280 net.cpp:454] conv4 <- pool3
I0520 22:53:20.960748  9280 net.cpp:411] conv4 -> conv4
I0520 22:53:20.963531  9280 net.cpp:150] Setting up conv4
I0520 22:53:20.963558  9280 net.cpp:157] Top shape: 400 36 6 42 (3628800)
I0520 22:53:20.963570  9280 net.cpp:165] Memory required for data: 608292800
I0520 22:53:20.963585  9280 layer_factory.hpp:77] Creating layer relu4
I0520 22:53:20.963600  9280 net.cpp:106] Creating Layer relu4
I0520 22:53:20.963610  9280 net.cpp:454] relu4 <- conv4
I0520 22:53:20.963624  9280 net.cpp:397] relu4 -> conv4 (in-place)
I0520 22:53:20.964095  9280 net.cpp:150] Setting up relu4
I0520 22:53:20.964112  9280 net.cpp:157] Top shape: 400 36 6 42 (3628800)
I0520 22:53:20.964123  9280 net.cpp:165] Memory required for data: 622808000
I0520 22:53:20.964133  9280 layer_factory.hpp:77] Creating layer pool4
I0520 22:53:20.964146  9280 net.cpp:106] Creating Layer pool4
I0520 22:53:20.964155  9280 net.cpp:454] pool4 <- conv4
I0520 22:53:20.964169  9280 net.cpp:411] pool4 -> pool4
I0520 22:53:20.964237  9280 net.cpp:150] Setting up pool4
I0520 22:53:20.964251  9280 net.cpp:157] Top shape: 400 36 3 42 (1814400)
I0520 22:53:20.964262  9280 net.cpp:165] Memory required for data: 630065600
I0520 22:53:20.964272  9280 layer_factory.hpp:77] Creating layer ip1
I0520 22:53:20.964292  9280 net.cpp:106] Creating Layer ip1
I0520 22:53:20.964303  9280 net.cpp:454] ip1 <- pool4
I0520 22:53:20.964314  9280 net.cpp:411] ip1 -> ip1
I0520 22:53:20.979765  9280 net.cpp:150] Setting up ip1
I0520 22:53:20.979792  9280 net.cpp:157] Top shape: 400 196 (78400)
I0520 22:53:20.979806  9280 net.cpp:165] Memory required for data: 630379200
I0520 22:53:20.979828  9280 layer_factory.hpp:77] Creating layer relu5
I0520 22:53:20.979843  9280 net.cpp:106] Creating Layer relu5
I0520 22:53:20.979853  9280 net.cpp:454] relu5 <- ip1
I0520 22:53:20.979866  9280 net.cpp:397] relu5 -> ip1 (in-place)
I0520 22:53:20.980211  9280 net.cpp:150] Setting up relu5
I0520 22:53:20.980226  9280 net.cpp:157] Top shape: 400 196 (78400)
I0520 22:53:20.980235  9280 net.cpp:165] Memory required for data: 630692800
I0520 22:53:20.980245  9280 layer_factory.hpp:77] Creating layer drop1
I0520 22:53:20.980268  9280 net.cpp:106] Creating Layer drop1
I0520 22:53:20.980278  9280 net.cpp:454] drop1 <- ip1
I0520 22:53:20.980303  9280 net.cpp:397] drop1 -> ip1 (in-place)
I0520 22:53:20.980348  9280 net.cpp:150] Setting up drop1
I0520 22:53:20.980362  9280 net.cpp:157] Top shape: 400 196 (78400)
I0520 22:53:20.980372  9280 net.cpp:165] Memory required for data: 631006400
I0520 22:53:20.980381  9280 layer_factory.hpp:77] Creating layer ip2
I0520 22:53:20.980401  9280 net.cpp:106] Creating Layer ip2
I0520 22:53:20.980412  9280 net.cpp:454] ip2 <- ip1
I0520 22:53:20.980423  9280 net.cpp:411] ip2 -> ip2
I0520 22:53:20.980888  9280 net.cpp:150] Setting up ip2
I0520 22:53:20.980901  9280 net.cpp:157] Top shape: 400 98 (39200)
I0520 22:53:20.980911  9280 net.cpp:165] Memory required for data: 631163200
I0520 22:53:20.980926  9280 layer_factory.hpp:77] Creating layer relu6
I0520 22:53:20.980939  9280 net.cpp:106] Creating Layer relu6
I0520 22:53:20.980948  9280 net.cpp:454] relu6 <- ip2
I0520 22:53:20.980960  9280 net.cpp:397] relu6 -> ip2 (in-place)
I0520 22:53:20.981477  9280 net.cpp:150] Setting up relu6
I0520 22:53:20.981493  9280 net.cpp:157] Top shape: 400 98 (39200)
I0520 22:53:20.981503  9280 net.cpp:165] Memory required for data: 631320000
I0520 22:53:20.981514  9280 layer_factory.hpp:77] Creating layer drop2
I0520 22:53:20.981528  9280 net.cpp:106] Creating Layer drop2
I0520 22:53:20.981536  9280 net.cpp:454] drop2 <- ip2
I0520 22:53:20.981549  9280 net.cpp:397] drop2 -> ip2 (in-place)
I0520 22:53:20.981591  9280 net.cpp:150] Setting up drop2
I0520 22:53:20.981603  9280 net.cpp:157] Top shape: 400 98 (39200)
I0520 22:53:20.981614  9280 net.cpp:165] Memory required for data: 631476800
I0520 22:53:20.981624  9280 layer_factory.hpp:77] Creating layer ip3
I0520 22:53:20.981637  9280 net.cpp:106] Creating Layer ip3
I0520 22:53:20.981647  9280 net.cpp:454] ip3 <- ip2
I0520 22:53:20.981659  9280 net.cpp:411] ip3 -> ip3
I0520 22:53:20.981869  9280 net.cpp:150] Setting up ip3
I0520 22:53:20.981883  9280 net.cpp:157] Top shape: 400 11 (4400)
I0520 22:53:20.981892  9280 net.cpp:165] Memory required for data: 631494400
I0520 22:53:20.981907  9280 layer_factory.hpp:77] Creating layer drop3
I0520 22:53:20.981920  9280 net.cpp:106] Creating Layer drop3
I0520 22:53:20.981930  9280 net.cpp:454] drop3 <- ip3
I0520 22:53:20.981940  9280 net.cpp:397] drop3 -> ip3 (in-place)
I0520 22:53:20.981979  9280 net.cpp:150] Setting up drop3
I0520 22:53:20.981992  9280 net.cpp:157] Top shape: 400 11 (4400)
I0520 22:53:20.982002  9280 net.cpp:165] Memory required for data: 631512000
I0520 22:53:20.982012  9280 layer_factory.hpp:77] Creating layer loss
I0520 22:53:20.982031  9280 net.cpp:106] Creating Layer loss
I0520 22:53:20.982041  9280 net.cpp:454] loss <- ip3
I0520 22:53:20.982053  9280 net.cpp:454] loss <- label
I0520 22:53:20.982064  9280 net.cpp:411] loss -> loss
I0520 22:53:20.982082  9280 layer_factory.hpp:77] Creating layer loss
…
I0520 22:53:20.984671  9280 solver.cpp:181] Creating test net (#0) specified by net file: /lustre/atlas/proj-shared/hep105/caffe_titan/caffe_workflow/logs_batch_size_test/batch_size_400_2016-05-20T11.20.47.251525.prototxt
I0520 22:53:20.984742  9280 net.cpp:322] The NetState phase (1) differed from the phase (0) specified by a rule in layer data_hdf5
I0520 22:53:20.985096  9280 net.cpp:49] Initializing net from parameters: 
name: "caffe_test_127x50_x_unshifted"
state {
  phase: TEST
}
layer {
  name: "data_hdf5"
  type: "HDF5Data"
  top: "data"
  top: "label"
  include {
    phase: TEST
  }
  hdf5_data_param {
    source: "/lustre/atlas/proj-shared/hep105/caffe_titan/minosmatch_nukecczdefs_127x50_x_unshifted_me1Bmc.testlist"
    batch_size: 400
  }
}
layer {
  name: "conv1"
  type: "Convolution"
  bottom: "data"
  top: "conv1"
  convolution_param {
    num_output: 12
    pad: 0
    stride: 1
    weight_filler {
      type: "xavier"
    }
    bias_filler {
      type: "constant"
    }
    kernel_h: 8
    kernel_w: 3
  }
}
layer {
  name: "relu1"
  type: "ReLU"
  bottom: "conv1"
  top: "conv1"
}
layer {
  name: "pool1"
  type: "Pooling"
  bottom: "conv1"
  top: "pool1"
  pooling_param {
    pool: MAX
    kernel_h: 2
    kernel_w: 1
    stride_h: 2
    stride_w: 1
  }
}
layer {
  name: "conv2"
  type: "Convolution"
  bottom: "pool1"
  top: "conv2"
  convolution_param {
    num_output: 20
    pad: 0
    stride: 1
    weight_filler {
      type: "xavier"
    }
    bias_filler {
      type: "constant"
    }
    kernel_h: 7
    kernel_w: 3
  }
}
layer {
  name: "relu2"
  type: "ReLU"
  bottom: "conv2"
  top: "conv2"
}
layer {
  name: "pool2"
  type: "Pooling"
  bottom: "conv2"
  top: "pool2"
  pooling_param {
    pool: MAX
    kernel_h: 2
    kernel_w: 1
    stride_h: 2
    stride_w: 1
  }
}
layer {
  name: "conv3"
  type: "Convolution"
  bottom: "pool2"
  top: "conv3"
  convolution_param {
    num_output: 28
    pad: 0
    stride: 1
    weight_filler {
      type: "xavier"
    }
    bias_filler {
      type: "constant"
    }
    kernel_h: 6
    kernel_w: 3
  }
}
layer {
  name: "relu3"
  type: "ReLU"
  bottom: "conv3"
  top: "conv3"
}
layer {
  name: "pool3"
  type: "Pooling"
  bottom: "conv3"
  top: "pool3"
  pooling_param {
    pool: MAX
    kernel_h: 2
    kernel_w: 1
    stride_h: 2
    stride_w: 1
  }
}
layer {
  name: "conv4"
  type: "Convolution"
  bottom: "pool3"
  top: "conv4"
  convolution_param {
    num_output: 36
    pad: 0
    stride: 1
    weight_filler {
      type: "xavier"
    }
    bias_filler {
      type: "constant"
    }
    kernel_h: 6
    kernel_w: 3
  }
}
layer {
  name: "relu4"
  type: "ReLU"
  bottom: "conv4"
  top: "conv4"
}
layer {
  name: "pool4"
  type: "Pooling"
  bottom: "conv4"
  top: "pool4"
  pooling_param {
    pool: MAX
    kernel_h: 2
    kernel_w: 1
    stride_h: 2
    stride_w: 1
  }
}
layer {
  name: "ip1"
  type: "InnerProduct"
  bottom: "pool4"
  top: "ip1"
  inner_product_param {
    num_output: 196
    weight_filler {
      type: "xavier"
    }
    bias_filler {
      type: "constant"
    }
  }
}
layer {
  name: "relu5"
  type: "ReLU"
  bottom: "ip1"
  top: "ip1"
}
layer {
  name: "drop1"
  type: "Dropout"
  bottom: "ip1"
  top: "ip1"
  dropout_param {
    dropout_ratio: 0.5
  }
}
layer {
  name: "ip2"
  type: "InnerProduct"
  bottom: "ip1"
  top: "ip2"
  inner_product_param {
    num_output: 98
    weight_filler {
      type: "xavier"
    }
    bias_filler {
      type: "constant"
    }
  }
}
layer {
  name: "relu6"
  type: "ReLU"
  bottom: "ip2"
  top: "ip2"
}
layer {
  name: "drop2"
  type: "Dropout"
  bottom: "ip2"
  top: "ip2"
  dropout_param {
    dropout_ratio: 0.5
  }
}
layer {
  name: "ip3"
  type: "InnerProduct"
  bottom: "ip2"
  top: "ip3"
  inner_product_param {
    num_output: 11
    weight_filler {
      type: "xavier"
    }
    bias_filler {
      type: "constant"
    }
  }
}
layer {
  name: "drop3"
  type: "Dropout"
  bottom: "ip3"
  top: "ip3"
  dropout_param {
    dropout_ratio: 0.5
  }
}
layer {
  name: "accuracy"
  type: "Accuracy"
  bottom: "ip3"
  bottom: "label"
  top: "accuracy"
  include {
    phase: TEST
  }
}
layer {
  name: "loss"
  type: "SoftmaxWithLoss"
  bottom: "ip3"
  bottom: "label"
  top: "loss"
}
I0520 22:53:20.985285  9280 layer_factory.hpp:77] Creating layer data_hdf5
I0520 22:53:20.985299  9280 net.cpp:106] Creating Layer data_hdf5
I0520 22:53:20.985312  9280 net.cpp:411] data_hdf5 -> data
I0520 22:53:20.985329  9280 net.cpp:411] data_hdf5 -> label
I0520 22:53:20.985344  9280 hdf5_data_layer.cpp:79] Loading list of HDF5 filenames from: /lustre/atlas/proj-shared/hep105/caffe_titan/minosmatch_nukecczdefs_127x50_x_unshifted_me1Bmc.testlist
I0520 22:53:20.986505  9280 hdf5_data_layer.cpp:93] Number of HDF5 files: 3
I0520 22:53:42.325106  9280 net.cpp:150] Setting up data_hdf5
I0520 22:53:42.325273  9280 net.cpp:157] Top shape: 400 1 127 50 (2540000)
I0520 22:53:42.325286  9280 net.cpp:157] Top shape: 400 (400)
I0520 22:53:42.325299  9280 net.cpp:165] Memory required for data: 10161600
I0520 22:53:42.325312  9280 layer_factory.hpp:77] Creating layer label_data_hdf5_1_split
I0520 22:53:42.325340  9280 net.cpp:106] Creating Layer label_data_hdf5_1_split
I0520 22:53:42.325351  9280 net.cpp:454] label_data_hdf5_1_split <- label
I0520 22:53:42.325366  9280 net.cpp:411] label_data_hdf5_1_split -> label_data_hdf5_1_split_0
I0520 22:53:42.325387  9280 net.cpp:411] label_data_hdf5_1_split -> label_data_hdf5_1_split_1
I0520 22:53:42.325461  9280 net.cpp:150] Setting up label_data_hdf5_1_split
I0520 22:53:42.325474  9280 net.cpp:157] Top shape: 400 (400)
I0520 22:53:42.325486  9280 net.cpp:157] Top shape: 400 (400)
I0520 22:53:42.325495  9280 net.cpp:165] Memory required for data: 10164800
I0520 22:53:42.325505  9280 layer_factory.hpp:77] Creating layer conv1
I0520 22:53:42.325526  9280 net.cpp:106] Creating Layer conv1
I0520 22:53:42.325537  9280 net.cpp:454] conv1 <- data
I0520 22:53:42.325551  9280 net.cpp:411] conv1 -> conv1
I0520 22:53:42.327479  9280 net.cpp:150] Setting up conv1
I0520 22:53:42.327503  9280 net.cpp:157] Top shape: 400 12 120 48 (27648000)
I0520 22:53:42.327517  9280 net.cpp:165] Memory required for data: 120756800
I0520 22:53:42.327536  9280 layer_factory.hpp:77] Creating layer relu1
I0520 22:53:42.327551  9280 net.cpp:106] Creating Layer relu1
I0520 22:53:42.327561  9280 net.cpp:454] relu1 <- conv1
I0520 22:53:42.327574  9280 net.cpp:397] relu1 -> conv1 (in-place)
I0520 22:53:42.328078  9280 net.cpp:150] Setting up relu1
I0520 22:53:42.328094  9280 net.cpp:157] Top shape: 400 12 120 48 (27648000)
I0520 22:53:42.328104  9280 net.cpp:165] Memory required for data: 231348800
I0520 22:53:42.328115  9280 layer_factory.hpp:77] Creating layer pool1
I0520 22:53:42.328132  9280 net.cpp:106] Creating Layer pool1
I0520 22:53:42.328141  9280 net.cpp:454] pool1 <- conv1
I0520 22:53:42.328155  9280 net.cpp:411] pool1 -> pool1
I0520 22:53:42.328230  9280 net.cpp:150] Setting up pool1
I0520 22:53:42.328243  9280 net.cpp:157] Top shape: 400 12 60 48 (13824000)
I0520 22:53:42.328253  9280 net.cpp:165] Memory required for data: 286644800
I0520 22:53:42.328263  9280 layer_factory.hpp:77] Creating layer conv2
I0520 22:53:42.328280  9280 net.cpp:106] Creating Layer conv2
I0520 22:53:42.328291  9280 net.cpp:454] conv2 <- pool1
I0520 22:53:42.328305  9280 net.cpp:411] conv2 -> conv2
I0520 22:53:42.330222  9280 net.cpp:150] Setting up conv2
I0520 22:53:42.330245  9280 net.cpp:157] Top shape: 400 20 54 46 (19872000)
I0520 22:53:42.330257  9280 net.cpp:165] Memory required for data: 366132800
I0520 22:53:42.330276  9280 layer_factory.hpp:77] Creating layer relu2
I0520 22:53:42.330288  9280 net.cpp:106] Creating Layer relu2
I0520 22:53:42.330298  9280 net.cpp:454] relu2 <- conv2
I0520 22:53:42.330310  9280 net.cpp:397] relu2 -> conv2 (in-place)
I0520 22:53:42.330643  9280 net.cpp:150] Setting up relu2
I0520 22:53:42.330657  9280 net.cpp:157] Top shape: 400 20 54 46 (19872000)
I0520 22:53:42.330667  9280 net.cpp:165] Memory required for data: 445620800
I0520 22:53:42.330677  9280 layer_factory.hpp:77] Creating layer pool2
I0520 22:53:42.330689  9280 net.cpp:106] Creating Layer pool2
I0520 22:53:42.330699  9280 net.cpp:454] pool2 <- conv2
I0520 22:53:42.330711  9280 net.cpp:411] pool2 -> pool2
I0520 22:53:42.330783  9280 net.cpp:150] Setting up pool2
I0520 22:53:42.330796  9280 net.cpp:157] Top shape: 400 20 27 46 (9936000)
I0520 22:53:42.330806  9280 net.cpp:165] Memory required for data: 485364800
I0520 22:53:42.330816  9280 layer_factory.hpp:77] Creating layer conv3
I0520 22:53:42.330835  9280 net.cpp:106] Creating Layer conv3
I0520 22:53:42.330845  9280 net.cpp:454] conv3 <- pool2
I0520 22:53:42.330859  9280 net.cpp:411] conv3 -> conv3
I0520 22:53:42.332829  9280 net.cpp:150] Setting up conv3
I0520 22:53:42.332854  9280 net.cpp:157] Top shape: 400 28 22 44 (10841600)
I0520 22:53:42.332864  9280 net.cpp:165] Memory required for data: 528731200
I0520 22:53:42.332895  9280 layer_factory.hpp:77] Creating layer relu3
I0520 22:53:42.332908  9280 net.cpp:106] Creating Layer relu3
I0520 22:53:42.332918  9280 net.cpp:454] relu3 <- conv3
I0520 22:53:42.332931  9280 net.cpp:397] relu3 -> conv3 (in-place)
I0520 22:53:42.333402  9280 net.cpp:150] Setting up relu3
I0520 22:53:42.333418  9280 net.cpp:157] Top shape: 400 28 22 44 (10841600)
I0520 22:53:42.333428  9280 net.cpp:165] Memory required for data: 572097600
I0520 22:53:42.333437  9280 layer_factory.hpp:77] Creating layer pool3
I0520 22:53:42.333451  9280 net.cpp:106] Creating Layer pool3
I0520 22:53:42.333461  9280 net.cpp:454] pool3 <- conv3
I0520 22:53:42.333473  9280 net.cpp:411] pool3 -> pool3
I0520 22:53:42.333544  9280 net.cpp:150] Setting up pool3
I0520 22:53:42.333559  9280 net.cpp:157] Top shape: 400 28 11 44 (5420800)
I0520 22:53:42.333567  9280 net.cpp:165] Memory required for data: 593780800
I0520 22:53:42.333575  9280 layer_factory.hpp:77] Creating layer conv4
I0520 22:53:42.333593  9280 net.cpp:106] Creating Layer conv4
I0520 22:53:42.333603  9280 net.cpp:454] conv4 <- pool3
I0520 22:53:42.333617  9280 net.cpp:411] conv4 -> conv4
I0520 22:53:42.335700  9280 net.cpp:150] Setting up conv4
I0520 22:53:42.335723  9280 net.cpp:157] Top shape: 400 36 6 42 (3628800)
I0520 22:53:42.335736  9280 net.cpp:165] Memory required for data: 608296000
I0520 22:53:42.335752  9280 layer_factory.hpp:77] Creating layer relu4
I0520 22:53:42.335764  9280 net.cpp:106] Creating Layer relu4
I0520 22:53:42.335774  9280 net.cpp:454] relu4 <- conv4
I0520 22:53:42.335788  9280 net.cpp:397] relu4 -> conv4 (in-place)
I0520 22:53:42.336262  9280 net.cpp:150] Setting up relu4
I0520 22:53:42.336278  9280 net.cpp:157] Top shape: 400 36 6 42 (3628800)
I0520 22:53:42.336288  9280 net.cpp:165] Memory required for data: 622811200
I0520 22:53:42.336298  9280 layer_factory.hpp:77] Creating layer pool4
I0520 22:53:42.336311  9280 net.cpp:106] Creating Layer pool4
I0520 22:53:42.336321  9280 net.cpp:454] pool4 <- conv4
I0520 22:53:42.336334  9280 net.cpp:411] pool4 -> pool4
I0520 22:53:42.336406  9280 net.cpp:150] Setting up pool4
I0520 22:53:42.336419  9280 net.cpp:157] Top shape: 400 36 3 42 (1814400)
I0520 22:53:42.336428  9280 net.cpp:165] Memory required for data: 630068800
I0520 22:53:42.336436  9280 layer_factory.hpp:77] Creating layer ip1
I0520 22:53:42.336452  9280 net.cpp:106] Creating Layer ip1
I0520 22:53:42.336463  9280 net.cpp:454] ip1 <- pool4
I0520 22:53:42.336477  9280 net.cpp:411] ip1 -> ip1
I0520 22:53:42.352002  9280 net.cpp:150] Setting up ip1
I0520 22:53:42.352030  9280 net.cpp:157] Top shape: 400 196 (78400)
I0520 22:53:42.352043  9280 net.cpp:165] Memory required for data: 630382400
I0520 22:53:42.352066  9280 layer_factory.hpp:77] Creating layer relu5
I0520 22:53:42.352082  9280 net.cpp:106] Creating Layer relu5
I0520 22:53:42.352092  9280 net.cpp:454] relu5 <- ip1
I0520 22:53:42.352105  9280 net.cpp:397] relu5 -> ip1 (in-place)
I0520 22:53:42.352453  9280 net.cpp:150] Setting up relu5
I0520 22:53:42.352468  9280 net.cpp:157] Top shape: 400 196 (78400)
I0520 22:53:42.352478  9280 net.cpp:165] Memory required for data: 630696000
I0520 22:53:42.352488  9280 layer_factory.hpp:77] Creating layer drop1
I0520 22:53:42.352506  9280 net.cpp:106] Creating Layer drop1
I0520 22:53:42.352516  9280 net.cpp:454] drop1 <- ip1
I0520 22:53:42.352530  9280 net.cpp:397] drop1 -> ip1 (in-place)
I0520 22:53:42.352573  9280 net.cpp:150] Setting up drop1
I0520 22:53:42.352586  9280 net.cpp:157] Top shape: 400 196 (78400)
I0520 22:53:42.352597  9280 net.cpp:165] Memory required for data: 631009600
I0520 22:53:42.352607  9280 layer_factory.hpp:77] Creating layer ip2
I0520 22:53:42.352622  9280 net.cpp:106] Creating Layer ip2
I0520 22:53:42.352630  9280 net.cpp:454] ip2 <- ip1
I0520 22:53:42.352644  9280 net.cpp:411] ip2 -> ip2
I0520 22:53:42.353123  9280 net.cpp:150] Setting up ip2
I0520 22:53:42.353137  9280 net.cpp:157] Top shape: 400 98 (39200)
I0520 22:53:42.353147  9280 net.cpp:165] Memory required for data: 631166400
I0520 22:53:42.353174  9280 layer_factory.hpp:77] Creating layer relu6
I0520 22:53:42.353186  9280 net.cpp:106] Creating Layer relu6
I0520 22:53:42.353196  9280 net.cpp:454] relu6 <- ip2
I0520 22:53:42.353209  9280 net.cpp:397] relu6 -> ip2 (in-place)
I0520 22:53:42.353744  9280 net.cpp:150] Setting up relu6
I0520 22:53:42.353765  9280 net.cpp:157] Top shape: 400 98 (39200)
I0520 22:53:42.353775  9280 net.cpp:165] Memory required for data: 631323200
I0520 22:53:42.353785  9280 layer_factory.hpp:77] Creating layer drop2
I0520 22:53:42.353799  9280 net.cpp:106] Creating Layer drop2
I0520 22:53:42.353811  9280 net.cpp:454] drop2 <- ip2
I0520 22:53:42.353822  9280 net.cpp:397] drop2 -> ip2 (in-place)
I0520 22:53:42.353866  9280 net.cpp:150] Setting up drop2
I0520 22:53:42.353879  9280 net.cpp:157] Top shape: 400 98 (39200)
I0520 22:53:42.353889  9280 net.cpp:165] Memory required for data: 631480000
I0520 22:53:42.353899  9280 layer_factory.hpp:77] Creating layer ip3
I0520 22:53:42.353914  9280 net.cpp:106] Creating Layer ip3
I0520 22:53:42.353924  9280 net.cpp:454] ip3 <- ip2
I0520 22:53:42.353937  9280 net.cpp:411] ip3 -> ip3
I0520 22:53:42.354159  9280 net.cpp:150] Setting up ip3
I0520 22:53:42.354172  9280 net.cpp:157] Top shape: 400 11 (4400)
I0520 22:53:42.354182  9280 net.cpp:165] Memory required for data: 631497600
I0520 22:53:42.354197  9280 layer_factory.hpp:77] Creating layer drop3
I0520 22:53:42.354210  9280 net.cpp:106] Creating Layer drop3
I0520 22:53:42.354220  9280 net.cpp:454] drop3 <- ip3
I0520 22:53:42.354233  9280 net.cpp:397] drop3 -> ip3 (in-place)
I0520 22:53:42.354274  9280 net.cpp:150] Setting up drop3
I0520 22:53:42.354286  9280 net.cpp:157] Top shape: 400 11 (4400)
I0520 22:53:42.354295  9280 net.cpp:165] Memory required for data: 631515200
I0520 22:53:42.354305  9280 layer_factory.hpp:77] Creating layer ip3_drop3_0_split
I0520 22:53:42.354318  9280 net.cpp:106] Creating Layer ip3_drop3_0_split
I0520 22:53:42.354328  9280 net.cpp:454] ip3_drop3_0_split <- ip3
I0520 22:53:42.354341  9280 net.cpp:411] ip3_drop3_0_split -> ip3_drop3_0_split_0
I0520 22:53:42.354356  9280 net.cpp:411] ip3_drop3_0_split -> ip3_drop3_0_split_1
I0520 22:53:42.354429  9280 net.cpp:150] Setting up ip3_drop3_0_split
I0520 22:53:42.354440  9280 net.cpp:157] Top shape: 400 11 (4400)
I0520 22:53:42.354452  9280 net.cpp:157] Top shape: 400 11 (4400)
I0520 22:53:42.354463  9280 net.cpp:165] Memory required for data: 631550400
I0520 22:53:42.354473  9280 layer_factory.hpp:77] Creating layer accuracy
I0520 22:53:42.354496  9280 net.cpp:106] Creating Layer accuracy
I0520 22:53:42.354506  9280 net.cpp:454] accuracy <- ip3_drop3_0_split_0
I0520 22:53:42.354516  9280 net.cpp:454] accuracy <- label_data_hdf5_1_split_0
I0520 22:53:42.354529  9280 net.cpp:411] accuracy -> accuracy
…
