…
I0520 20:14:14.173012 27968 net.cpp:322] The NetState phase (0) differed from the phase (1) specified by a rule in layer data_hdf5
I0520 20:14:14.173071 27968 net.cpp:322] The NetState phase (0) differed from the phase (1) specified by a rule in layer accuracy
I0520 20:14:14.173419 27968 net.cpp:49] Initializing net from parameters: 
name: "caffe_test_127x50_x_unshifted"
state {
  phase: TRAIN
}
layer {
  name: "data_hdf5"
  type: "HDF5Data"
  top: "data"
  top: "label"
  include {
    phase: TRAIN
  }
  hdf5_data_param {
    source: "/lustre/atlas/proj-shared/hep105/caffe_titan/minosmatch_nukecczdefs_127x50_x_unshifted_me1Bmc.trainlist"
    batch_size: 260
  }
}
layer {
  name: "conv1"
  type: "Convolution"
  bottom: "data"
  top: "conv1"
  convolution_param {
    num_output: 12
    pad: 0
    stride: 1
    weight_filler {
      type: "xavier"
    }
    bias_filler {
      type: "constant"
    }
    kernel_h: 8
    kernel_w: 3
  }
}
layer {
  name: "relu1"
  type: "ReLU"
  bottom: "conv1"
  top: "conv1"
}
layer {
  name: "pool1"
  type: "Pooling"
  bottom: "conv1"
  top: "pool1"
  pooling_param {
    pool: MAX
    kernel_h: 2
    kernel_w: 1
    stride_h: 2
    stride_w: 1
  }
}
layer {
  name: "conv2"
  type: "Convolution"
  bottom: "pool1"
  top: "conv2"
  convolution_param {
    num_output: 20
    pad: 0
    stride: 1
    weight_filler {
      type: "xavier"
    }
    bias_filler {
      type: "constant"
    }
    kernel_h: 7
    kernel_w: 3
  }
}
layer {
  name: "relu2"
  type: "ReLU"
  bottom: "conv2"
  top: "conv2"
}
layer {
  name: "pool2"
  type: "Pooling"
  bottom: "conv2"
  top: "pool2"
  pooling_param {
    pool: MAX
    kernel_h: 2
    kernel_w: 1
    stride_h: 2
    stride_w: 1
  }
}
layer {
  name: "conv3"
  type: "Convolution"
  bottom: "pool2"
  top: "conv3"
  convolution_param {
    num_output: 28
    pad: 0
    stride: 1
    weight_filler {
      type: "xavier"
    }
    bias_filler {
      type: "constant"
    }
    kernel_h: 6
    kernel_w: 3
  }
}
layer {
  name: "relu3"
  type: "ReLU"
  bottom: "conv3"
  top: "conv3"
}
layer {
  name: "pool3"
  type: "Pooling"
  bottom: "conv3"
  top: "pool3"
  pooling_param {
    pool: MAX
    kernel_h: 2
    kernel_w: 1
    stride_h: 2
    stride_w: 1
  }
}
layer {
  name: "conv4"
  type: "Convolution"
  bottom: "pool3"
  top: "conv4"
  convolution_param {
    num_output: 36
    pad: 0
    stride: 1
    weight_filler {
      type: "xavier"
    }
    bias_filler {
      type: "constant"
    }
    kernel_h: 6
    kernel_w: 3
  }
}
layer {
  name: "relu4"
  type: "ReLU"
  bottom: "conv4"
  top: "conv4"
}
layer {
  name: "pool4"
  type: "Pooling"
  bottom: "conv4"
  top: "pool4"
  pooling_param {
    pool: MAX
    kernel_h: 2
    kernel_w: 1
    stride_h: 2
    stride_w: 1
  }
}
layer {
  name: "ip1"
  type: "InnerProduct"
  bottom: "pool4"
  top: "ip1"
  inner_product_param {
    num_output: 196
    weight_filler {
      type: "xavier"
    }
    bias_filler {
      type: "constant"
    }
  }
}
layer {
  name: "relu5"
  type: "ReLU"
  bottom: "ip1"
  top: "ip1"
}
layer {
  name: "drop1"
  type: "Dropout"
  bottom: "ip1"
  top: "ip1"
  dropout_param {
    dropout_ratio: 0.5
  }
}
layer {
  name: "ip2"
  type: "InnerProduct"
  bottom: "ip1"
  top: "ip2"
  inner_product_param {
    num_output: 98
    weight_filler {
      type: "xavier"
    }
    bias_filler {
      type: "constant"
    }
  }
}
layer {
  name: "relu6"
  type: "ReLU"
  bottom: "ip2"
  top: "ip2"
}
layer {
  name: "drop2"
  type: "Dropout"
  bottom: "ip2"
  top: "ip2"
  dropout_param {
    dropout_ratio: 0.5
  }
}
layer {
  name: "ip3"
  type: "InnerProduct"
  bottom: "ip2"
  top: "ip3"
  inner_product_param {
    num_output: 11
    weight_filler {
      type: "xavier"
    }
    bias_filler {
      type: "constant"
    }
  }
}
layer {
  name: "drop3"
  type: "Dropout"
  bottom: "ip3"
  top: "ip3"
  dropout_param {
    dropout_ratio: 0.5
  }
}
layer {
  name: "loss"
  type: "SoftmaxWithLoss"
  bottom: "ip3"
  bottom: "label"
  top: "loss"
}
I0520 20:14:14.173596 27968 layer_factory.hpp:77] Creating layer data_hdf5
I0520 20:14:14.173620 27968 net.cpp:106] Creating Layer data_hdf5
I0520 20:14:14.173635 27968 net.cpp:411] data_hdf5 -> data
I0520 20:14:14.173667 27968 net.cpp:411] data_hdf5 -> label
I0520 20:14:14.173699 27968 hdf5_data_layer.cpp:79] Loading list of HDF5 filenames from: /lustre/atlas/proj-shared/hep105/caffe_titan/minosmatch_nukecczdefs_127x50_x_unshifted_me1Bmc.trainlist
I0520 20:14:14.174954 27968 hdf5_data_layer.cpp:93] Number of HDF5 files: 15
I0520 20:14:14.177145 27968 hdf5.cpp:32] Datatype class: H5T_FLOAT
I0520 20:14:35.723687 27968 hdf5.cpp:35] Datatype class: H5T_INTEGER
I0520 20:14:35.728801 27968 net.cpp:150] Setting up data_hdf5
I0520 20:14:35.728845 27968 net.cpp:157] Top shape: 260 1 127 50 (1651000)
I0520 20:14:35.728868 27968 net.cpp:157] Top shape: 260 (260)
I0520 20:14:35.728878 27968 net.cpp:165] Memory required for data: 6605040
I0520 20:14:35.728893 27968 layer_factory.hpp:77] Creating layer conv1
I0520 20:14:35.728926 27968 net.cpp:106] Creating Layer conv1
I0520 20:14:35.728937 27968 net.cpp:454] conv1 <- data
I0520 20:14:35.728960 27968 net.cpp:411] conv1 -> conv1
I0520 20:14:36.094319 27968 net.cpp:150] Setting up conv1
I0520 20:14:36.094367 27968 net.cpp:157] Top shape: 260 12 120 48 (17971200)
I0520 20:14:36.094378 27968 net.cpp:165] Memory required for data: 78489840
I0520 20:14:36.094409 27968 layer_factory.hpp:77] Creating layer relu1
I0520 20:14:36.094430 27968 net.cpp:106] Creating Layer relu1
I0520 20:14:36.094441 27968 net.cpp:454] relu1 <- conv1
I0520 20:14:36.094455 27968 net.cpp:397] relu1 -> conv1 (in-place)
I0520 20:14:36.094977 27968 net.cpp:150] Setting up relu1
I0520 20:14:36.094995 27968 net.cpp:157] Top shape: 260 12 120 48 (17971200)
I0520 20:14:36.095005 27968 net.cpp:165] Memory required for data: 150374640
I0520 20:14:36.095015 27968 layer_factory.hpp:77] Creating layer pool1
I0520 20:14:36.095031 27968 net.cpp:106] Creating Layer pool1
I0520 20:14:36.095041 27968 net.cpp:454] pool1 <- conv1
I0520 20:14:36.095053 27968 net.cpp:411] pool1 -> pool1
I0520 20:14:36.095134 27968 net.cpp:150] Setting up pool1
I0520 20:14:36.095149 27968 net.cpp:157] Top shape: 260 12 60 48 (8985600)
I0520 20:14:36.095158 27968 net.cpp:165] Memory required for data: 186317040
I0520 20:14:36.095170 27968 layer_factory.hpp:77] Creating layer conv2
I0520 20:14:36.095191 27968 net.cpp:106] Creating Layer conv2
I0520 20:14:36.095202 27968 net.cpp:454] conv2 <- pool1
I0520 20:14:36.095216 27968 net.cpp:411] conv2 -> conv2
I0520 20:14:36.097892 27968 net.cpp:150] Setting up conv2
I0520 20:14:36.097920 27968 net.cpp:157] Top shape: 260 20 54 46 (12916800)
I0520 20:14:36.097930 27968 net.cpp:165] Memory required for data: 237984240
I0520 20:14:36.097950 27968 layer_factory.hpp:77] Creating layer relu2
I0520 20:14:36.097965 27968 net.cpp:106] Creating Layer relu2
I0520 20:14:36.097975 27968 net.cpp:454] relu2 <- conv2
I0520 20:14:36.097986 27968 net.cpp:397] relu2 -> conv2 (in-place)
I0520 20:14:36.098318 27968 net.cpp:150] Setting up relu2
I0520 20:14:36.098332 27968 net.cpp:157] Top shape: 260 20 54 46 (12916800)
I0520 20:14:36.098342 27968 net.cpp:165] Memory required for data: 289651440
I0520 20:14:36.098352 27968 layer_factory.hpp:77] Creating layer pool2
I0520 20:14:36.098366 27968 net.cpp:106] Creating Layer pool2
I0520 20:14:36.098376 27968 net.cpp:454] pool2 <- conv2
I0520 20:14:36.098400 27968 net.cpp:411] pool2 -> pool2
I0520 20:14:36.098469 27968 net.cpp:150] Setting up pool2
I0520 20:14:36.098484 27968 net.cpp:157] Top shape: 260 20 27 46 (6458400)
I0520 20:14:36.098492 27968 net.cpp:165] Memory required for data: 315485040
I0520 20:14:36.098502 27968 layer_factory.hpp:77] Creating layer conv3
I0520 20:14:36.098520 27968 net.cpp:106] Creating Layer conv3
I0520 20:14:36.098531 27968 net.cpp:454] conv3 <- pool2
I0520 20:14:36.098546 27968 net.cpp:411] conv3 -> conv3
I0520 20:14:36.100484 27968 net.cpp:150] Setting up conv3
I0520 20:14:36.100507 27968 net.cpp:157] Top shape: 260 28 22 44 (7047040)
I0520 20:14:36.100519 27968 net.cpp:165] Memory required for data: 343673200
I0520 20:14:36.100538 27968 layer_factory.hpp:77] Creating layer relu3
I0520 20:14:36.100554 27968 net.cpp:106] Creating Layer relu3
I0520 20:14:36.100564 27968 net.cpp:454] relu3 <- conv3
I0520 20:14:36.100576 27968 net.cpp:397] relu3 -> conv3 (in-place)
I0520 20:14:36.101059 27968 net.cpp:150] Setting up relu3
I0520 20:14:36.101076 27968 net.cpp:157] Top shape: 260 28 22 44 (7047040)
I0520 20:14:36.101088 27968 net.cpp:165] Memory required for data: 371861360
I0520 20:14:36.101097 27968 layer_factory.hpp:77] Creating layer pool3
I0520 20:14:36.101110 27968 net.cpp:106] Creating Layer pool3
I0520 20:14:36.101120 27968 net.cpp:454] pool3 <- conv3
I0520 20:14:36.101133 27968 net.cpp:411] pool3 -> pool3
I0520 20:14:36.101200 27968 net.cpp:150] Setting up pool3
I0520 20:14:36.101214 27968 net.cpp:157] Top shape: 260 28 11 44 (3523520)
I0520 20:14:36.101224 27968 net.cpp:165] Memory required for data: 385955440
I0520 20:14:36.101233 27968 layer_factory.hpp:77] Creating layer conv4
I0520 20:14:36.101249 27968 net.cpp:106] Creating Layer conv4
I0520 20:14:36.101259 27968 net.cpp:454] conv4 <- pool3
I0520 20:14:36.101274 27968 net.cpp:411] conv4 -> conv4
I0520 20:14:36.103996 27968 net.cpp:150] Setting up conv4
I0520 20:14:36.104024 27968 net.cpp:157] Top shape: 260 36 6 42 (2358720)
I0520 20:14:36.104034 27968 net.cpp:165] Memory required for data: 395390320
I0520 20:14:36.104049 27968 layer_factory.hpp:77] Creating layer relu4
I0520 20:14:36.104064 27968 net.cpp:106] Creating Layer relu4
I0520 20:14:36.104074 27968 net.cpp:454] relu4 <- conv4
I0520 20:14:36.104087 27968 net.cpp:397] relu4 -> conv4 (in-place)
I0520 20:14:36.104553 27968 net.cpp:150] Setting up relu4
I0520 20:14:36.104569 27968 net.cpp:157] Top shape: 260 36 6 42 (2358720)
I0520 20:14:36.104580 27968 net.cpp:165] Memory required for data: 404825200
I0520 20:14:36.104590 27968 layer_factory.hpp:77] Creating layer pool4
I0520 20:14:36.104604 27968 net.cpp:106] Creating Layer pool4
I0520 20:14:36.104614 27968 net.cpp:454] pool4 <- conv4
I0520 20:14:36.104626 27968 net.cpp:411] pool4 -> pool4
I0520 20:14:36.104693 27968 net.cpp:150] Setting up pool4
I0520 20:14:36.104707 27968 net.cpp:157] Top shape: 260 36 3 42 (1179360)
I0520 20:14:36.104717 27968 net.cpp:165] Memory required for data: 409542640
I0520 20:14:36.104727 27968 layer_factory.hpp:77] Creating layer ip1
I0520 20:14:36.104748 27968 net.cpp:106] Creating Layer ip1
I0520 20:14:36.104758 27968 net.cpp:454] ip1 <- pool4
I0520 20:14:36.104770 27968 net.cpp:411] ip1 -> ip1
I0520 20:14:36.120213 27968 net.cpp:150] Setting up ip1
I0520 20:14:36.120242 27968 net.cpp:157] Top shape: 260 196 (50960)
I0520 20:14:36.120254 27968 net.cpp:165] Memory required for data: 409746480
I0520 20:14:36.120276 27968 layer_factory.hpp:77] Creating layer relu5
I0520 20:14:36.120291 27968 net.cpp:106] Creating Layer relu5
I0520 20:14:36.120301 27968 net.cpp:454] relu5 <- ip1
I0520 20:14:36.120314 27968 net.cpp:397] relu5 -> ip1 (in-place)
I0520 20:14:36.120656 27968 net.cpp:150] Setting up relu5
I0520 20:14:36.120671 27968 net.cpp:157] Top shape: 260 196 (50960)
I0520 20:14:36.120682 27968 net.cpp:165] Memory required for data: 409950320
I0520 20:14:36.120692 27968 layer_factory.hpp:77] Creating layer drop1
I0520 20:14:36.120712 27968 net.cpp:106] Creating Layer drop1
I0520 20:14:36.120723 27968 net.cpp:454] drop1 <- ip1
I0520 20:14:36.120746 27968 net.cpp:397] drop1 -> ip1 (in-place)
I0520 20:14:36.120792 27968 net.cpp:150] Setting up drop1
I0520 20:14:36.120806 27968 net.cpp:157] Top shape: 260 196 (50960)
I0520 20:14:36.120816 27968 net.cpp:165] Memory required for data: 410154160
I0520 20:14:36.120826 27968 layer_factory.hpp:77] Creating layer ip2
I0520 20:14:36.120844 27968 net.cpp:106] Creating Layer ip2
I0520 20:14:36.120862 27968 net.cpp:454] ip2 <- ip1
I0520 20:14:36.120874 27968 net.cpp:411] ip2 -> ip2
I0520 20:14:36.121340 27968 net.cpp:150] Setting up ip2
I0520 20:14:36.121353 27968 net.cpp:157] Top shape: 260 98 (25480)
I0520 20:14:36.121363 27968 net.cpp:165] Memory required for data: 410256080
I0520 20:14:36.121378 27968 layer_factory.hpp:77] Creating layer relu6
I0520 20:14:36.121392 27968 net.cpp:106] Creating Layer relu6
I0520 20:14:36.121402 27968 net.cpp:454] relu6 <- ip2
I0520 20:14:36.121413 27968 net.cpp:397] relu6 -> ip2 (in-place)
I0520 20:14:36.121934 27968 net.cpp:150] Setting up relu6
I0520 20:14:36.121951 27968 net.cpp:157] Top shape: 260 98 (25480)
I0520 20:14:36.121963 27968 net.cpp:165] Memory required for data: 410358000
I0520 20:14:36.121973 27968 layer_factory.hpp:77] Creating layer drop2
I0520 20:14:36.121984 27968 net.cpp:106] Creating Layer drop2
I0520 20:14:36.121994 27968 net.cpp:454] drop2 <- ip2
I0520 20:14:36.122006 27968 net.cpp:397] drop2 -> ip2 (in-place)
I0520 20:14:36.122050 27968 net.cpp:150] Setting up drop2
I0520 20:14:36.122062 27968 net.cpp:157] Top shape: 260 98 (25480)
I0520 20:14:36.122072 27968 net.cpp:165] Memory required for data: 410459920
I0520 20:14:36.122082 27968 layer_factory.hpp:77] Creating layer ip3
I0520 20:14:36.122095 27968 net.cpp:106] Creating Layer ip3
I0520 20:14:36.122104 27968 net.cpp:454] ip3 <- ip2
I0520 20:14:36.122117 27968 net.cpp:411] ip3 -> ip3
I0520 20:14:36.122328 27968 net.cpp:150] Setting up ip3
I0520 20:14:36.122341 27968 net.cpp:157] Top shape: 260 11 (2860)
I0520 20:14:36.122351 27968 net.cpp:165] Memory required for data: 410471360
I0520 20:14:36.122366 27968 layer_factory.hpp:77] Creating layer drop3
I0520 20:14:36.122378 27968 net.cpp:106] Creating Layer drop3
I0520 20:14:36.122388 27968 net.cpp:454] drop3 <- ip3
I0520 20:14:36.122400 27968 net.cpp:397] drop3 -> ip3 (in-place)
I0520 20:14:36.122440 27968 net.cpp:150] Setting up drop3
I0520 20:14:36.122452 27968 net.cpp:157] Top shape: 260 11 (2860)
I0520 20:14:36.122462 27968 net.cpp:165] Memory required for data: 410482800
I0520 20:14:36.122473 27968 layer_factory.hpp:77] Creating layer loss
I0520 20:14:36.122491 27968 net.cpp:106] Creating Layer loss
I0520 20:14:36.122501 27968 net.cpp:454] loss <- ip3
I0520 20:14:36.122512 27968 net.cpp:454] loss <- label
I0520 20:14:36.122524 27968 net.cpp:411] loss -> loss
I0520 20:14:36.122540 27968 layer_factory.hpp:77] Creating layer loss
…
I0520 20:14:36.125120 27968 solver.cpp:181] Creating test net (#0) specified by net file: /lustre/atlas/proj-shared/hep105/caffe_titan/caffe_workflow/logs_batch_size_test/batch_size_260_2016-05-20T11.20.42.230158.prototxt
I0520 20:14:36.125192 27968 net.cpp:322] The NetState phase (1) differed from the phase (0) specified by a rule in layer data_hdf5
I0520 20:14:36.125546 27968 net.cpp:49] Initializing net from parameters: 
name: "caffe_test_127x50_x_unshifted"
state {
  phase: TEST
}
layer {
  name: "data_hdf5"
  type: "HDF5Data"
  top: "data"
  top: "label"
  include {
    phase: TEST
  }
  hdf5_data_param {
    source: "/lustre/atlas/proj-shared/hep105/caffe_titan/minosmatch_nukecczdefs_127x50_x_unshifted_me1Bmc.testlist"
    batch_size: 260
  }
}
layer {
  name: "conv1"
  type: "Convolution"
  bottom: "data"
  top: "conv1"
  convolution_param {
    num_output: 12
    pad: 0
    stride: 1
    weight_filler {
      type: "xavier"
    }
    bias_filler {
      type: "constant"
    }
    kernel_h: 8
    kernel_w: 3
  }
}
layer {
  name: "relu1"
  type: "ReLU"
  bottom: "conv1"
  top: "conv1"
}
layer {
  name: "pool1"
  type: "Pooling"
  bottom: "conv1"
  top: "pool1"
  pooling_param {
    pool: MAX
    kernel_h: 2
    kernel_w: 1
    stride_h: 2
    stride_w: 1
  }
}
layer {
  name: "conv2"
  type: "Convolution"
  bottom: "pool1"
  top: "conv2"
  convolution_param {
    num_output: 20
    pad: 0
    stride: 1
    weight_filler {
      type: "xavier"
    }
    bias_filler {
      type: "constant"
    }
    kernel_h: 7
    kernel_w: 3
  }
}
layer {
  name: "relu2"
  type: "ReLU"
  bottom: "conv2"
  top: "conv2"
}
layer {
  name: "pool2"
  type: "Pooling"
  bottom: "conv2"
  top: "pool2"
  pooling_param {
    pool: MAX
    kernel_h: 2
    kernel_w: 1
    stride_h: 2
    stride_w: 1
  }
}
layer {
  name: "conv3"
  type: "Convolution"
  bottom: "pool2"
  top: "conv3"
  convolution_param {
    num_output: 28
    pad: 0
    stride: 1
    weight_filler {
      type: "xavier"
    }
    bias_filler {
      type: "constant"
    }
    kernel_h: 6
    kernel_w: 3
  }
}
layer {
  name: "relu3"
  type: "ReLU"
  bottom: "conv3"
  top: "conv3"
}
layer {
  name: "pool3"
  type: "Pooling"
  bottom: "conv3"
  top: "pool3"
  pooling_param {
    pool: MAX
    kernel_h: 2
    kernel_w: 1
    stride_h: 2
    stride_w: 1
  }
}
layer {
  name: "conv4"
  type: "Convolution"
  bottom: "pool3"
  top: "conv4"
  convolution_param {
    num_output: 36
    pad: 0
    stride: 1
    weight_filler {
      type: "xavier"
    }
    bias_filler {
      type: "constant"
    }
    kernel_h: 6
    kernel_w: 3
  }
}
layer {
  name: "relu4"
  type: "ReLU"
  bottom: "conv4"
  top: "conv4"
}
layer {
  name: "pool4"
  type: "Pooling"
  bottom: "conv4"
  top: "pool4"
  pooling_param {
    pool: MAX
    kernel_h: 2
    kernel_w: 1
    stride_h: 2
    stride_w: 1
  }
}
layer {
  name: "ip1"
  type: "InnerProduct"
  bottom: "pool4"
  top: "ip1"
  inner_product_param {
    num_output: 196
    weight_filler {
      type: "xavier"
    }
    bias_filler {
      type: "constant"
    }
  }
}
layer {
  name: "relu5"
  type: "ReLU"
  bottom: "ip1"
  top: "ip1"
}
layer {
  name: "drop1"
  type: "Dropout"
  bottom: "ip1"
  top: "ip1"
  dropout_param {
    dropout_ratio: 0.5
  }
}
layer {
  name: "ip2"
  type: "InnerProduct"
  bottom: "ip1"
  top: "ip2"
  inner_product_param {
    num_output: 98
    weight_filler {
      type: "xavier"
    }
    bias_filler {
      type: "constant"
    }
  }
}
layer {
  name: "relu6"
  type: "ReLU"
  bottom: "ip2"
  top: "ip2"
}
layer {
  name: "drop2"
  type: "Dropout"
  bottom: "ip2"
  top: "ip2"
  dropout_param {
    dropout_ratio: 0.5
  }
}
layer {
  name: "ip3"
  type: "InnerProduct"
  bottom: "ip2"
  top: "ip3"
  inner_product_param {
    num_output: 11
    weight_filler {
      type: "xavier"
    }
    bias_filler {
      type: "constant"
    }
  }
}
layer {
  name: "drop3"
  type: "Dropout"
  bottom: "ip3"
  top: "ip3"
  dropout_param {
    dropout_ratio: 0.5
  }
}
layer {
  name: "accuracy"
  type: "Accuracy"
  bottom: "ip3"
  bottom: "label"
  top: "accuracy"
  include {
    phase: TEST
  }
}
layer {
  name: "loss"
  type: "SoftmaxWithLoss"
  bottom: "ip3"
  bottom: "label"
  top: "loss"
}
I0520 20:14:36.125736 27968 layer_factory.hpp:77] Creating layer data_hdf5
I0520 20:14:36.125751 27968 net.cpp:106] Creating Layer data_hdf5
I0520 20:14:36.125763 27968 net.cpp:411] data_hdf5 -> data
I0520 20:14:36.125780 27968 net.cpp:411] data_hdf5 -> label
I0520 20:14:36.125797 27968 hdf5_data_layer.cpp:79] Loading list of HDF5 filenames from: /lustre/atlas/proj-shared/hep105/caffe_titan/minosmatch_nukecczdefs_127x50_x_unshifted_me1Bmc.testlist
I0520 20:14:36.127035 27968 hdf5_data_layer.cpp:93] Number of HDF5 files: 3
I0520 20:14:57.415611 27968 net.cpp:150] Setting up data_hdf5
I0520 20:14:57.415778 27968 net.cpp:157] Top shape: 260 1 127 50 (1651000)
I0520 20:14:57.415793 27968 net.cpp:157] Top shape: 260 (260)
I0520 20:14:57.415803 27968 net.cpp:165] Memory required for data: 6605040
I0520 20:14:57.415817 27968 layer_factory.hpp:77] Creating layer label_data_hdf5_1_split
I0520 20:14:57.415845 27968 net.cpp:106] Creating Layer label_data_hdf5_1_split
I0520 20:14:57.415856 27968 net.cpp:454] label_data_hdf5_1_split <- label
I0520 20:14:57.415870 27968 net.cpp:411] label_data_hdf5_1_split -> label_data_hdf5_1_split_0
I0520 20:14:57.415892 27968 net.cpp:411] label_data_hdf5_1_split -> label_data_hdf5_1_split_1
I0520 20:14:57.415964 27968 net.cpp:150] Setting up label_data_hdf5_1_split
I0520 20:14:57.415978 27968 net.cpp:157] Top shape: 260 (260)
I0520 20:14:57.415990 27968 net.cpp:157] Top shape: 260 (260)
I0520 20:14:57.415999 27968 net.cpp:165] Memory required for data: 6607120
I0520 20:14:57.416009 27968 layer_factory.hpp:77] Creating layer conv1
I0520 20:14:57.416031 27968 net.cpp:106] Creating Layer conv1
I0520 20:14:57.416043 27968 net.cpp:454] conv1 <- data
I0520 20:14:57.416056 27968 net.cpp:411] conv1 -> conv1
I0520 20:14:57.417994 27968 net.cpp:150] Setting up conv1
I0520 20:14:57.418016 27968 net.cpp:157] Top shape: 260 12 120 48 (17971200)
I0520 20:14:57.418028 27968 net.cpp:165] Memory required for data: 78491920
I0520 20:14:57.418050 27968 layer_factory.hpp:77] Creating layer relu1
I0520 20:14:57.418064 27968 net.cpp:106] Creating Layer relu1
I0520 20:14:57.418074 27968 net.cpp:454] relu1 <- conv1
I0520 20:14:57.418087 27968 net.cpp:397] relu1 -> conv1 (in-place)
I0520 20:14:57.418658 27968 net.cpp:150] Setting up relu1
I0520 20:14:57.418680 27968 net.cpp:157] Top shape: 260 12 120 48 (17971200)
I0520 20:14:57.418690 27968 net.cpp:165] Memory required for data: 150376720
I0520 20:14:57.418700 27968 layer_factory.hpp:77] Creating layer pool1
I0520 20:14:57.418716 27968 net.cpp:106] Creating Layer pool1
I0520 20:14:57.418726 27968 net.cpp:454] pool1 <- conv1
I0520 20:14:57.418740 27968 net.cpp:411] pool1 -> pool1
I0520 20:14:57.418813 27968 net.cpp:150] Setting up pool1
I0520 20:14:57.418826 27968 net.cpp:157] Top shape: 260 12 60 48 (8985600)
I0520 20:14:57.418836 27968 net.cpp:165] Memory required for data: 186319120
I0520 20:14:57.418845 27968 layer_factory.hpp:77] Creating layer conv2
I0520 20:14:57.418860 27968 net.cpp:106] Creating Layer conv2
I0520 20:14:57.418871 27968 net.cpp:454] conv2 <- pool1
I0520 20:14:57.418885 27968 net.cpp:411] conv2 -> conv2
I0520 20:14:57.420799 27968 net.cpp:150] Setting up conv2
I0520 20:14:57.420821 27968 net.cpp:157] Top shape: 260 20 54 46 (12916800)
I0520 20:14:57.420833 27968 net.cpp:165] Memory required for data: 237986320
I0520 20:14:57.420850 27968 layer_factory.hpp:77] Creating layer relu2
I0520 20:14:57.420872 27968 net.cpp:106] Creating Layer relu2
I0520 20:14:57.420882 27968 net.cpp:454] relu2 <- conv2
I0520 20:14:57.420894 27968 net.cpp:397] relu2 -> conv2 (in-place)
I0520 20:14:57.421227 27968 net.cpp:150] Setting up relu2
I0520 20:14:57.421241 27968 net.cpp:157] Top shape: 260 20 54 46 (12916800)
I0520 20:14:57.421252 27968 net.cpp:165] Memory required for data: 289653520
I0520 20:14:57.421262 27968 layer_factory.hpp:77] Creating layer pool2
I0520 20:14:57.421275 27968 net.cpp:106] Creating Layer pool2
I0520 20:14:57.421285 27968 net.cpp:454] pool2 <- conv2
I0520 20:14:57.421298 27968 net.cpp:411] pool2 -> pool2
I0520 20:14:57.421370 27968 net.cpp:150] Setting up pool2
I0520 20:14:57.421383 27968 net.cpp:157] Top shape: 260 20 27 46 (6458400)
I0520 20:14:57.421393 27968 net.cpp:165] Memory required for data: 315487120
I0520 20:14:57.421402 27968 layer_factory.hpp:77] Creating layer conv3
I0520 20:14:57.421421 27968 net.cpp:106] Creating Layer conv3
I0520 20:14:57.421430 27968 net.cpp:454] conv3 <- pool2
I0520 20:14:57.421444 27968 net.cpp:411] conv3 -> conv3
I0520 20:14:57.423413 27968 net.cpp:150] Setting up conv3
I0520 20:14:57.423436 27968 net.cpp:157] Top shape: 260 28 22 44 (7047040)
I0520 20:14:57.423449 27968 net.cpp:165] Memory required for data: 343675280
I0520 20:14:57.423481 27968 layer_factory.hpp:77] Creating layer relu3
I0520 20:14:57.423494 27968 net.cpp:106] Creating Layer relu3
I0520 20:14:57.423504 27968 net.cpp:454] relu3 <- conv3
I0520 20:14:57.423517 27968 net.cpp:397] relu3 -> conv3 (in-place)
I0520 20:14:57.423992 27968 net.cpp:150] Setting up relu3
I0520 20:14:57.424007 27968 net.cpp:157] Top shape: 260 28 22 44 (7047040)
I0520 20:14:57.424018 27968 net.cpp:165] Memory required for data: 371863440
I0520 20:14:57.424028 27968 layer_factory.hpp:77] Creating layer pool3
I0520 20:14:57.424041 27968 net.cpp:106] Creating Layer pool3
I0520 20:14:57.424051 27968 net.cpp:454] pool3 <- conv3
I0520 20:14:57.424063 27968 net.cpp:411] pool3 -> pool3
I0520 20:14:57.424134 27968 net.cpp:150] Setting up pool3
I0520 20:14:57.424147 27968 net.cpp:157] Top shape: 260 28 11 44 (3523520)
I0520 20:14:57.424157 27968 net.cpp:165] Memory required for data: 385957520
I0520 20:14:57.424167 27968 layer_factory.hpp:77] Creating layer conv4
I0520 20:14:57.424185 27968 net.cpp:106] Creating Layer conv4
I0520 20:14:57.424196 27968 net.cpp:454] conv4 <- pool3
I0520 20:14:57.424209 27968 net.cpp:411] conv4 -> conv4
I0520 20:14:57.426267 27968 net.cpp:150] Setting up conv4
I0520 20:14:57.426290 27968 net.cpp:157] Top shape: 260 36 6 42 (2358720)
I0520 20:14:57.426302 27968 net.cpp:165] Memory required for data: 395392400
I0520 20:14:57.426316 27968 layer_factory.hpp:77] Creating layer relu4
I0520 20:14:57.426331 27968 net.cpp:106] Creating Layer relu4
I0520 20:14:57.426340 27968 net.cpp:454] relu4 <- conv4
I0520 20:14:57.426353 27968 net.cpp:397] relu4 -> conv4 (in-place)
I0520 20:14:57.426822 27968 net.cpp:150] Setting up relu4
I0520 20:14:57.426838 27968 net.cpp:157] Top shape: 260 36 6 42 (2358720)
I0520 20:14:57.426849 27968 net.cpp:165] Memory required for data: 404827280
I0520 20:14:57.426859 27968 layer_factory.hpp:77] Creating layer pool4
I0520 20:14:57.426872 27968 net.cpp:106] Creating Layer pool4
I0520 20:14:57.426882 27968 net.cpp:454] pool4 <- conv4
I0520 20:14:57.426895 27968 net.cpp:411] pool4 -> pool4
I0520 20:14:57.426965 27968 net.cpp:150] Setting up pool4
I0520 20:14:57.426978 27968 net.cpp:157] Top shape: 260 36 3 42 (1179360)
I0520 20:14:57.426987 27968 net.cpp:165] Memory required for data: 409544720
I0520 20:14:57.426997 27968 layer_factory.hpp:77] Creating layer ip1
I0520 20:14:57.427012 27968 net.cpp:106] Creating Layer ip1
I0520 20:14:57.427022 27968 net.cpp:454] ip1 <- pool4
I0520 20:14:57.427037 27968 net.cpp:411] ip1 -> ip1
I0520 20:14:57.442498 27968 net.cpp:150] Setting up ip1
I0520 20:14:57.442525 27968 net.cpp:157] Top shape: 260 196 (50960)
I0520 20:14:57.442536 27968 net.cpp:165] Memory required for data: 409748560
I0520 20:14:57.442562 27968 layer_factory.hpp:77] Creating layer relu5
I0520 20:14:57.442577 27968 net.cpp:106] Creating Layer relu5
I0520 20:14:57.442587 27968 net.cpp:454] relu5 <- ip1
I0520 20:14:57.442601 27968 net.cpp:397] relu5 -> ip1 (in-place)
I0520 20:14:57.442946 27968 net.cpp:150] Setting up relu5
I0520 20:14:57.442960 27968 net.cpp:157] Top shape: 260 196 (50960)
I0520 20:14:57.442970 27968 net.cpp:165] Memory required for data: 409952400
I0520 20:14:57.442981 27968 layer_factory.hpp:77] Creating layer drop1
I0520 20:14:57.442999 27968 net.cpp:106] Creating Layer drop1
I0520 20:14:57.443009 27968 net.cpp:454] drop1 <- ip1
I0520 20:14:57.443023 27968 net.cpp:397] drop1 -> ip1 (in-place)
I0520 20:14:57.443066 27968 net.cpp:150] Setting up drop1
I0520 20:14:57.443079 27968 net.cpp:157] Top shape: 260 196 (50960)
I0520 20:14:57.443089 27968 net.cpp:165] Memory required for data: 410156240
I0520 20:14:57.443099 27968 layer_factory.hpp:77] Creating layer ip2
I0520 20:14:57.443114 27968 net.cpp:106] Creating Layer ip2
I0520 20:14:57.443123 27968 net.cpp:454] ip2 <- ip1
I0520 20:14:57.443136 27968 net.cpp:411] ip2 -> ip2
I0520 20:14:57.443614 27968 net.cpp:150] Setting up ip2
I0520 20:14:57.443627 27968 net.cpp:157] Top shape: 260 98 (25480)
I0520 20:14:57.443637 27968 net.cpp:165] Memory required for data: 410258160
I0520 20:14:57.443665 27968 layer_factory.hpp:77] Creating layer relu6
I0520 20:14:57.443678 27968 net.cpp:106] Creating Layer relu6
I0520 20:14:57.443688 27968 net.cpp:454] relu6 <- ip2
I0520 20:14:57.443701 27968 net.cpp:397] relu6 -> ip2 (in-place)
I0520 20:14:57.444234 27968 net.cpp:150] Setting up relu6
I0520 20:14:57.444255 27968 net.cpp:157] Top shape: 260 98 (25480)
I0520 20:14:57.444265 27968 net.cpp:165] Memory required for data: 410360080
I0520 20:14:57.444274 27968 layer_factory.hpp:77] Creating layer drop2
I0520 20:14:57.444289 27968 net.cpp:106] Creating Layer drop2
I0520 20:14:57.444299 27968 net.cpp:454] drop2 <- ip2
I0520 20:14:57.444313 27968 net.cpp:397] drop2 -> ip2 (in-place)
I0520 20:14:57.444355 27968 net.cpp:150] Setting up drop2
I0520 20:14:57.444368 27968 net.cpp:157] Top shape: 260 98 (25480)
I0520 20:14:57.444378 27968 net.cpp:165] Memory required for data: 410462000
I0520 20:14:57.444389 27968 layer_factory.hpp:77] Creating layer ip3
I0520 20:14:57.444402 27968 net.cpp:106] Creating Layer ip3
I0520 20:14:57.444412 27968 net.cpp:454] ip3 <- ip2
I0520 20:14:57.444427 27968 net.cpp:411] ip3 -> ip3
I0520 20:14:57.444650 27968 net.cpp:150] Setting up ip3
I0520 20:14:57.444664 27968 net.cpp:157] Top shape: 260 11 (2860)
I0520 20:14:57.444674 27968 net.cpp:165] Memory required for data: 410473440
I0520 20:14:57.444689 27968 layer_factory.hpp:77] Creating layer drop3
I0520 20:14:57.444701 27968 net.cpp:106] Creating Layer drop3
I0520 20:14:57.444711 27968 net.cpp:454] drop3 <- ip3
I0520 20:14:57.444723 27968 net.cpp:397] drop3 -> ip3 (in-place)
I0520 20:14:57.444766 27968 net.cpp:150] Setting up drop3
I0520 20:14:57.444777 27968 net.cpp:157] Top shape: 260 11 (2860)
I0520 20:14:57.444787 27968 net.cpp:165] Memory required for data: 410484880
I0520 20:14:57.444797 27968 layer_factory.hpp:77] Creating layer ip3_drop3_0_split
I0520 20:14:57.444809 27968 net.cpp:106] Creating Layer ip3_drop3_0_split
I0520 20:14:57.444819 27968 net.cpp:454] ip3_drop3_0_split <- ip3
I0520 20:14:57.444833 27968 net.cpp:411] ip3_drop3_0_split -> ip3_drop3_0_split_0
I0520 20:14:57.444847 27968 net.cpp:411] ip3_drop3_0_split -> ip3_drop3_0_split_1
I0520 20:14:57.444928 27968 net.cpp:150] Setting up ip3_drop3_0_split
I0520 20:14:57.444941 27968 net.cpp:157] Top shape: 260 11 (2860)
I0520 20:14:57.444954 27968 net.cpp:157] Top shape: 260 11 (2860)
I0520 20:14:57.444964 27968 net.cpp:165] Memory required for data: 410507760
I0520 20:14:57.444975 27968 layer_factory.hpp:77] Creating layer accuracy
I0520 20:14:57.444996 27968 net.cpp:106] Creating Layer accuracy
I0520 20:14:57.445006 27968 net.cpp:454] accuracy <- ip3_drop3_0_split_0
I0520 20:14:57.445017 27968 net.cpp:454] accuracy <- label_data_hdf5_1_split_0
I0520 20:14:57.445031 27968 net.cpp:411] accuracy -> accuracy
…
