…
I0521 11:09:44.082468 27022 net.cpp:322] The NetState phase (0) differed from the phase (1) specified by a rule in layer data_hdf5
I0521 11:09:44.082533 27022 net.cpp:322] The NetState phase (0) differed from the phase (1) specified by a rule in layer accuracy
I0521 11:09:44.082911 27022 net.cpp:49] Initializing net from parameters: 
name: "caffe_test_127x50_x_unshifted"
state {
  phase: TRAIN
}
layer {
  name: "data_hdf5"
  type: "HDF5Data"
  top: "data"
  top: "label"
  include {
    phase: TRAIN
  }
  hdf5_data_param {
    source: "/lustre/atlas/proj-shared/hep105/caffe_titan/minosmatch_nukecczdefs_127x50_x_unshifted_me1Bmc.trainlist"
    batch_size: 980
  }
}
layer {
  name: "conv1"
  type: "Convolution"
  bottom: "data"
  top: "conv1"
  convolution_param {
    num_output: 12
    pad: 0
    stride: 1
    weight_filler {
      type: "xavier"
    }
    bias_filler {
      type: "constant"
    }
    kernel_h: 8
    kernel_w: 3
  }
}
layer {
  name: "relu1"
  type: "ReLU"
  bottom: "conv1"
  top: "conv1"
}
layer {
  name: "pool1"
  type: "Pooling"
  bottom: "conv1"
  top: "pool1"
  pooling_param {
    pool: MAX
    kernel_h: 2
    kernel_w: 1
    stride_h: 2
    stride_w: 1
  }
}
layer {
  name: "conv2"
  type: "Convolution"
  bottom: "pool1"
  top: "conv2"
  convolution_param {
    num_output: 20
    pad: 0
    stride: 1
    weight_filler {
      type: "xavier"
    }
    bias_filler {
      type: "constant"
    }
    kernel_h: 7
    kernel_w: 3
  }
}
layer {
  name: "relu2"
  type: "ReLU"
  bottom: "conv2"
  top: "conv2"
}
layer {
  name: "pool2"
  type: "Pooling"
  bottom: "conv2"
  top: "pool2"
  pooling_param {
    pool: MAX
    kernel_h: 2
    kernel_w: 1
    stride_h: 2
    stride_w: 1
  }
}
layer {
  name: "conv3"
  type: "Convolution"
  bottom: "pool2"
  top: "conv3"
  convolution_param {
    num_output: 28
    pad: 0
    stride: 1
    weight_filler {
      type: "xavier"
    }
    bias_filler {
      type: "constant"
    }
    kernel_h: 6
    kernel_w: 3
  }
}
layer {
  name: "relu3"
  type: "ReLU"
  bottom: "conv3"
  top: "conv3"
}
layer {
  name: "pool3"
  type: "Pooling"
  bottom: "conv3"
  top: "pool3"
  pooling_param {
    pool: MAX
    kernel_h: 2
    kernel_w: 1
    stride_h: 2
    stride_w: 1
  }
}
layer {
  name: "conv4"
  type: "Convolution"
  bottom: "pool3"
  top: "conv4"
  convolution_param {
    num_output: 36
    pad: 0
    stride: 1
    weight_filler {
      type: "xavier"
    }
    bias_filler {
      type: "constant"
    }
    kernel_h: 6
    kernel_w: 3
  }
}
layer {
  name: "relu4"
  type: "ReLU"
  bottom: "conv4"
  top: "conv4"
}
layer {
  name: "pool4"
  type: "Pooling"
  bottom: "conv4"
  top: "pool4"
  pooling_param {
    pool: MAX
    kernel_h: 2
    kernel_w: 1
    stride_h: 2
    stride_w: 1
  }
}
layer {
  name: "ip1"
  type: "InnerProduct"
  bottom: "pool4"
  top: "ip1"
  inner_product_param {
    num_output: 196
    weight_filler {
      type: "xavier"
    }
    bias_filler {
      type: "constant"
    }
  }
}
layer {
  name: "relu5"
  type: "ReLU"
  bottom: "ip1"
  top: "ip1"
}
layer {
  name: "drop1"
  type: "Dropout"
  bottom: "ip1"
  top: "ip1"
  dropout_param {
    dropout_ratio: 0.5
  }
}
layer {
  name: "ip2"
  type: "InnerProduct"
  bottom: "ip1"
  top: "ip2"
  inner_product_param {
    num_output: 98
    weight_filler {
      type: "xavier"
    }
    bias_filler {
      type: "constant"
    }
  }
}
layer {
  name: "relu6"
  type: "ReLU"
  bottom: "ip2"
  top: "ip2"
}
layer {
  name: "drop2"
  type: "Dropout"
  bottom: "ip2"
  top: "ip2"
  dropout_param {
    dropout_ratio: 0.5
  }
}
layer {
  name: "ip3"
  type: "InnerProduct"
  bottom: "ip2"
  top: "ip3"
  inner_product_param {
    num_output: 11
    weight_filler {
      type: "xavier"
    }
    bias_filler {
      type: "constant"
    }
  }
}
layer {
  name: "drop3"
  type: "Dropout"
  bottom: "ip3"
  top: "ip3"
  dropout_param {
    dropout_ratio: 0.5
  }
}
layer {
  name: "loss"
  type: "SoftmaxWithLoss"
  bottom: "ip3"
  bottom: "label"
  top: "loss"
}
I0521 11:09:44.083114 27022 layer_factory.hpp:77] Creating layer data_hdf5
I0521 11:09:44.083150 27022 net.cpp:106] Creating Layer data_hdf5
I0521 11:09:44.083168 27022 net.cpp:411] data_hdf5 -> data
I0521 11:09:44.083201 27022 net.cpp:411] data_hdf5 -> label
I0521 11:09:44.083243 27022 hdf5_data_layer.cpp:79] Loading list of HDF5 filenames from: /lustre/atlas/proj-shared/hep105/caffe_titan/minosmatch_nukecczdefs_127x50_x_unshifted_me1Bmc.trainlist
I0521 11:09:44.084486 27022 hdf5_data_layer.cpp:93] Number of HDF5 files: 15
I0521 11:09:44.086736 27022 hdf5.cpp:32] Datatype class: H5T_FLOAT
I0521 11:10:05.594614 27022 hdf5.cpp:35] Datatype class: H5T_INTEGER
I0521 11:10:05.599855 27022 net.cpp:150] Setting up data_hdf5
I0521 11:10:05.599896 27022 net.cpp:157] Top shape: 980 1 127 50 (6223000)
I0521 11:10:05.599915 27022 net.cpp:157] Top shape: 980 (980)
I0521 11:10:05.599927 27022 net.cpp:165] Memory required for data: 24895920
I0521 11:10:05.599946 27022 layer_factory.hpp:77] Creating layer conv1
I0521 11:10:05.599992 27022 net.cpp:106] Creating Layer conv1
I0521 11:10:05.600008 27022 net.cpp:454] conv1 <- data
I0521 11:10:05.600031 27022 net.cpp:411] conv1 -> conv1
I0521 11:10:06.638336 27022 net.cpp:150] Setting up conv1
I0521 11:10:06.638391 27022 net.cpp:157] Top shape: 980 12 120 48 (67737600)
I0521 11:10:06.638417 27022 net.cpp:165] Memory required for data: 295846320
I0521 11:10:06.638447 27022 layer_factory.hpp:77] Creating layer relu1
I0521 11:10:06.638468 27022 net.cpp:106] Creating Layer relu1
I0521 11:10:06.638489 27022 net.cpp:454] relu1 <- conv1
I0521 11:10:06.638525 27022 net.cpp:397] relu1 -> conv1 (in-place)
I0521 11:10:06.639056 27022 net.cpp:150] Setting up relu1
I0521 11:10:06.639080 27022 net.cpp:157] Top shape: 980 12 120 48 (67737600)
I0521 11:10:06.639093 27022 net.cpp:165] Memory required for data: 566796720
I0521 11:10:06.639109 27022 layer_factory.hpp:77] Creating layer pool1
I0521 11:10:06.639137 27022 net.cpp:106] Creating Layer pool1
I0521 11:10:06.639149 27022 net.cpp:454] pool1 <- conv1
I0521 11:10:06.639165 27022 net.cpp:411] pool1 -> pool1
I0521 11:10:06.639340 27022 net.cpp:150] Setting up pool1
I0521 11:10:06.639361 27022 net.cpp:157] Top shape: 980 12 60 48 (33868800)
I0521 11:10:06.639374 27022 net.cpp:165] Memory required for data: 702271920
I0521 11:10:06.639390 27022 layer_factory.hpp:77] Creating layer conv2
I0521 11:10:06.639420 27022 net.cpp:106] Creating Layer conv2
I0521 11:10:06.639435 27022 net.cpp:454] conv2 <- pool1
I0521 11:10:06.639451 27022 net.cpp:411] conv2 -> conv2
I0521 11:10:06.642165 27022 net.cpp:150] Setting up conv2
I0521 11:10:06.642196 27022 net.cpp:157] Top shape: 980 20 54 46 (48686400)
I0521 11:10:06.642210 27022 net.cpp:165] Memory required for data: 897017520
I0521 11:10:06.642238 27022 layer_factory.hpp:77] Creating layer relu2
I0521 11:10:06.642266 27022 net.cpp:106] Creating Layer relu2
I0521 11:10:06.642279 27022 net.cpp:454] relu2 <- conv2
I0521 11:10:06.642295 27022 net.cpp:397] relu2 -> conv2 (in-place)
I0521 11:10:06.642678 27022 net.cpp:150] Setting up relu2
I0521 11:10:06.642698 27022 net.cpp:157] Top shape: 980 20 54 46 (48686400)
I0521 11:10:06.642710 27022 net.cpp:165] Memory required for data: 1091763120
I0521 11:10:06.642725 27022 layer_factory.hpp:77] Creating layer pool2
I0521 11:10:06.642748 27022 net.cpp:106] Creating Layer pool2
I0521 11:10:06.642761 27022 net.cpp:454] pool2 <- conv2
I0521 11:10:06.642796 27022 net.cpp:411] pool2 -> pool2
I0521 11:10:06.642879 27022 net.cpp:150] Setting up pool2
I0521 11:10:06.642897 27022 net.cpp:157] Top shape: 980 20 27 46 (24343200)
I0521 11:10:06.642912 27022 net.cpp:165] Memory required for data: 1189135920
I0521 11:10:06.642931 27022 layer_factory.hpp:77] Creating layer conv3
I0521 11:10:06.642952 27022 net.cpp:106] Creating Layer conv3
I0521 11:10:06.642966 27022 net.cpp:454] conv3 <- pool2
I0521 11:10:06.642982 27022 net.cpp:411] conv3 -> conv3
I0521 11:10:06.644979 27022 net.cpp:150] Setting up conv3
I0521 11:10:06.645005 27022 net.cpp:157] Top shape: 980 28 22 44 (26561920)
I0521 11:10:06.645025 27022 net.cpp:165] Memory required for data: 1295383600
I0521 11:10:06.645047 27022 layer_factory.hpp:77] Creating layer relu3
I0521 11:10:06.645069 27022 net.cpp:106] Creating Layer relu3
I0521 11:10:06.645092 27022 net.cpp:454] relu3 <- conv3
I0521 11:10:06.645107 27022 net.cpp:397] relu3 -> conv3 (in-place)
I0521 11:10:06.645604 27022 net.cpp:150] Setting up relu3
I0521 11:10:06.645629 27022 net.cpp:157] Top shape: 980 28 22 44 (26561920)
I0521 11:10:06.645642 27022 net.cpp:165] Memory required for data: 1401631280
I0521 11:10:06.645658 27022 layer_factory.hpp:77] Creating layer pool3
I0521 11:10:06.645683 27022 net.cpp:106] Creating Layer pool3
I0521 11:10:06.645696 27022 net.cpp:454] pool3 <- conv3
I0521 11:10:06.645711 27022 net.cpp:411] pool3 -> pool3
I0521 11:10:06.645794 27022 net.cpp:150] Setting up pool3
I0521 11:10:06.645819 27022 net.cpp:157] Top shape: 980 28 11 44 (13280960)
I0521 11:10:06.645833 27022 net.cpp:165] Memory required for data: 1454755120
I0521 11:10:06.645848 27022 layer_factory.hpp:77] Creating layer conv4
I0521 11:10:06.645866 27022 net.cpp:106] Creating Layer conv4
I0521 11:10:06.645885 27022 net.cpp:454] conv4 <- pool3
I0521 11:10:06.645902 27022 net.cpp:411] conv4 -> conv4
I0521 11:10:06.648670 27022 net.cpp:150] Setting up conv4
I0521 11:10:06.648700 27022 net.cpp:157] Top shape: 980 36 6 42 (8890560)
I0521 11:10:06.648716 27022 net.cpp:165] Memory required for data: 1490317360
I0521 11:10:06.648736 27022 layer_factory.hpp:77] Creating layer relu4
I0521 11:10:06.648756 27022 net.cpp:106] Creating Layer relu4
I0521 11:10:06.648782 27022 net.cpp:454] relu4 <- conv4
I0521 11:10:06.648798 27022 net.cpp:397] relu4 -> conv4 (in-place)
I0521 11:10:06.649288 27022 net.cpp:150] Setting up relu4
I0521 11:10:06.649312 27022 net.cpp:157] Top shape: 980 36 6 42 (8890560)
I0521 11:10:06.649325 27022 net.cpp:165] Memory required for data: 1525879600
I0521 11:10:06.649341 27022 layer_factory.hpp:77] Creating layer pool4
I0521 11:10:06.649365 27022 net.cpp:106] Creating Layer pool4
I0521 11:10:06.649379 27022 net.cpp:454] pool4 <- conv4
I0521 11:10:06.649395 27022 net.cpp:411] pool4 -> pool4
I0521 11:10:06.649478 27022 net.cpp:150] Setting up pool4
I0521 11:10:06.649508 27022 net.cpp:157] Top shape: 980 36 3 42 (4445280)
I0521 11:10:06.649523 27022 net.cpp:165] Memory required for data: 1543660720
I0521 11:10:06.649538 27022 layer_factory.hpp:77] Creating layer ip1
I0521 11:10:06.649566 27022 net.cpp:106] Creating Layer ip1
I0521 11:10:06.649580 27022 net.cpp:454] ip1 <- pool4
I0521 11:10:06.649601 27022 net.cpp:411] ip1 -> ip1
I0521 11:10:06.665019 27022 net.cpp:150] Setting up ip1
I0521 11:10:06.665050 27022 net.cpp:157] Top shape: 980 196 (192080)
I0521 11:10:06.665074 27022 net.cpp:165] Memory required for data: 1544429040
I0521 11:10:06.665101 27022 layer_factory.hpp:77] Creating layer relu5
I0521 11:10:06.665122 27022 net.cpp:106] Creating Layer relu5
I0521 11:10:06.665148 27022 net.cpp:454] relu5 <- ip1
I0521 11:10:06.665165 27022 net.cpp:397] relu5 -> ip1 (in-place)
I0521 11:10:06.665530 27022 net.cpp:150] Setting up relu5
I0521 11:10:06.665551 27022 net.cpp:157] Top shape: 980 196 (192080)
I0521 11:10:06.665565 27022 net.cpp:165] Memory required for data: 1545197360
I0521 11:10:06.665580 27022 layer_factory.hpp:77] Creating layer drop1
I0521 11:10:06.665611 27022 net.cpp:106] Creating Layer drop1
I0521 11:10:06.665624 27022 net.cpp:454] drop1 <- ip1
I0521 11:10:06.665652 27022 net.cpp:397] drop1 -> ip1 (in-place)
I0521 11:10:06.665710 27022 net.cpp:150] Setting up drop1
I0521 11:10:06.665727 27022 net.cpp:157] Top shape: 980 196 (192080)
I0521 11:10:06.665741 27022 net.cpp:165] Memory required for data: 1545965680
I0521 11:10:06.665753 27022 layer_factory.hpp:77] Creating layer ip2
I0521 11:10:06.665776 27022 net.cpp:106] Creating Layer ip2
I0521 11:10:06.665796 27022 net.cpp:454] ip2 <- ip1
I0521 11:10:06.665812 27022 net.cpp:411] ip2 -> ip2
I0521 11:10:06.666306 27022 net.cpp:150] Setting up ip2
I0521 11:10:06.666324 27022 net.cpp:157] Top shape: 980 98 (96040)
I0521 11:10:06.666337 27022 net.cpp:165] Memory required for data: 1546349840
I0521 11:10:06.666358 27022 layer_factory.hpp:77] Creating layer relu6
I0521 11:10:06.666381 27022 net.cpp:106] Creating Layer relu6
I0521 11:10:06.666394 27022 net.cpp:454] relu6 <- ip2
I0521 11:10:06.666409 27022 net.cpp:397] relu6 -> ip2 (in-place)
I0521 11:10:06.666960 27022 net.cpp:150] Setting up relu6
I0521 11:10:06.666982 27022 net.cpp:157] Top shape: 980 98 (96040)
I0521 11:10:06.666996 27022 net.cpp:165] Memory required for data: 1546734000
I0521 11:10:06.667012 27022 layer_factory.hpp:77] Creating layer drop2
I0521 11:10:06.667037 27022 net.cpp:106] Creating Layer drop2
I0521 11:10:06.667050 27022 net.cpp:454] drop2 <- ip2
I0521 11:10:06.667067 27022 net.cpp:397] drop2 -> ip2 (in-place)
I0521 11:10:06.667115 27022 net.cpp:150] Setting up drop2
I0521 11:10:06.667137 27022 net.cpp:157] Top shape: 980 98 (96040)
I0521 11:10:06.667151 27022 net.cpp:165] Memory required for data: 1547118160
I0521 11:10:06.667163 27022 layer_factory.hpp:77] Creating layer ip3
I0521 11:10:06.667179 27022 net.cpp:106] Creating Layer ip3
I0521 11:10:06.667194 27022 net.cpp:454] ip3 <- ip2
I0521 11:10:06.667217 27022 net.cpp:411] ip3 -> ip3
I0521 11:10:06.667443 27022 net.cpp:150] Setting up ip3
I0521 11:10:06.667461 27022 net.cpp:157] Top shape: 980 11 (10780)
I0521 11:10:06.667474 27022 net.cpp:165] Memory required for data: 1547161280
I0521 11:10:06.667495 27022 layer_factory.hpp:77] Creating layer drop3
I0521 11:10:06.667516 27022 net.cpp:106] Creating Layer drop3
I0521 11:10:06.667529 27022 net.cpp:454] drop3 <- ip3
I0521 11:10:06.667546 27022 net.cpp:397] drop3 -> ip3 (in-place)
I0521 11:10:06.667592 27022 net.cpp:150] Setting up drop3
I0521 11:10:06.667614 27022 net.cpp:157] Top shape: 980 11 (10780)
I0521 11:10:06.667628 27022 net.cpp:165] Memory required for data: 1547204400
I0521 11:10:06.667647 27022 layer_factory.hpp:77] Creating layer loss
I0521 11:10:06.667668 27022 net.cpp:106] Creating Layer loss
I0521 11:10:06.667685 27022 net.cpp:454] loss <- ip3
I0521 11:10:06.667703 27022 net.cpp:454] loss <- label
I0521 11:10:06.667719 27022 net.cpp:411] loss -> loss
I0521 11:10:06.667739 27022 layer_factory.hpp:77] Creating layer loss
…
I0521 11:10:06.670524 27022 solver.cpp:181] Creating test net (#0) specified by net file: /lustre/atlas/proj-shared/hep105/caffe_titan/caffe_workflow/logs_batch_size_test/batch_size_980_2016-05-20T11.21.08.421619.prototxt
I0521 11:10:06.670603 27022 net.cpp:322] The NetState phase (1) differed from the phase (0) specified by a rule in layer data_hdf5
I0521 11:10:06.670980 27022 net.cpp:49] Initializing net from parameters: 
name: "caffe_test_127x50_x_unshifted"
state {
  phase: TEST
}
layer {
  name: "data_hdf5"
  type: "HDF5Data"
  top: "data"
  top: "label"
  include {
    phase: TEST
  }
  hdf5_data_param {
    source: "/lustre/atlas/proj-shared/hep105/caffe_titan/minosmatch_nukecczdefs_127x50_x_unshifted_me1Bmc.testlist"
    batch_size: 980
  }
}
layer {
  name: "conv1"
  type: "Convolution"
  bottom: "data"
  top: "conv1"
  convolution_param {
    num_output: 12
    pad: 0
    stride: 1
    weight_filler {
      type: "xavier"
    }
    bias_filler {
      type: "constant"
    }
    kernel_h: 8
    kernel_w: 3
  }
}
layer {
  name: "relu1"
  type: "ReLU"
  bottom: "conv1"
  top: "conv1"
}
layer {
  name: "pool1"
  type: "Pooling"
  bottom: "conv1"
  top: "pool1"
  pooling_param {
    pool: MAX
    kernel_h: 2
    kernel_w: 1
    stride_h: 2
    stride_w: 1
  }
}
layer {
  name: "conv2"
  type: "Convolution"
  bottom: "pool1"
  top: "conv2"
  convolution_param {
    num_output: 20
    pad: 0
    stride: 1
    weight_filler {
      type: "xavier"
    }
    bias_filler {
      type: "constant"
    }
    kernel_h: 7
    kernel_w: 3
  }
}
layer {
  name: "relu2"
  type: "ReLU"
  bottom: "conv2"
  top: "conv2"
}
layer {
  name: "pool2"
  type: "Pooling"
  bottom: "conv2"
  top: "pool2"
  pooling_param {
    pool: MAX
    kernel_h: 2
    kernel_w: 1
    stride_h: 2
    stride_w: 1
  }
}
layer {
  name: "conv3"
  type: "Convolution"
  bottom: "pool2"
  top: "conv3"
  convolution_param {
    num_output: 28
    pad: 0
    stride: 1
    weight_filler {
      type: "xavier"
    }
    bias_filler {
      type: "constant"
    }
    kernel_h: 6
    kernel_w: 3
  }
}
layer {
  name: "relu3"
  type: "ReLU"
  bottom: "conv3"
  top: "conv3"
}
layer {
  name: "pool3"
  type: "Pooling"
  bottom: "conv3"
  top: "pool3"
  pooling_param {
    pool: MAX
    kernel_h: 2
    kernel_w: 1
    stride_h: 2
    stride_w: 1
  }
}
layer {
  name: "conv4"
  type: "Convolution"
  bottom: "pool3"
  top: "conv4"
  convolution_param {
    num_output: 36
    pad: 0
    stride: 1
    weight_filler {
      type: "xavier"
    }
    bias_filler {
      type: "constant"
    }
    kernel_h: 6
    kernel_w: 3
  }
}
layer {
  name: "relu4"
  type: "ReLU"
  bottom: "conv4"
  top: "conv4"
}
layer {
  name: "pool4"
  type: "Pooling"
  bottom: "conv4"
  top: "pool4"
  pooling_param {
    pool: MAX
    kernel_h: 2
    kernel_w: 1
    stride_h: 2
    stride_w: 1
  }
}
layer {
  name: "ip1"
  type: "InnerProduct"
  bottom: "pool4"
  top: "ip1"
  inner_product_param {
    num_output: 196
    weight_filler {
      type: "xavier"
    }
    bias_filler {
      type: "constant"
    }
  }
}
layer {
  name: "relu5"
  type: "ReLU"
  bottom: "ip1"
  top: "ip1"
}
layer {
  name: "drop1"
  type: "Dropout"
  bottom: "ip1"
  top: "ip1"
  dropout_param {
    dropout_ratio: 0.5
  }
}
layer {
  name: "ip2"
  type: "InnerProduct"
  bottom: "ip1"
  top: "ip2"
  inner_product_param {
    num_output: 98
    weight_filler {
      type: "xavier"
    }
    bias_filler {
      type: "constant"
    }
  }
}
layer {
  name: "relu6"
  type: "ReLU"
  bottom: "ip2"
  top: "ip2"
}
layer {
  name: "drop2"
  type: "Dropout"
  bottom: "ip2"
  top: "ip2"
  dropout_param {
    dropout_ratio: 0.5
  }
}
layer {
  name: "ip3"
  type: "InnerProduct"
  bottom: "ip2"
  top: "ip3"
  inner_product_param {
    num_output: 11
    weight_filler {
      type: "xavier"
    }
    bias_filler {
      type: "constant"
    }
  }
}
layer {
  name: "drop3"
  type: "Dropout"
  bottom: "ip3"
  top: "ip3"
  dropout_param {
    dropout_ratio: 0.5
  }
}
layer {
  name: "accuracy"
  type: "Accuracy"
  bottom: "ip3"
  bottom: "label"
  top: "accuracy"
  include {
    phase: TEST
  }
}
layer {
  name: "loss"
  type: "SoftmaxWithLoss"
  bottom: "ip3"
  bottom: "label"
  top: "loss"
}
I0521 11:10:06.671202 27022 layer_factory.hpp:77] Creating layer data_hdf5
I0521 11:10:06.671222 27022 net.cpp:106] Creating Layer data_hdf5
I0521 11:10:06.671237 27022 net.cpp:411] data_hdf5 -> data
I0521 11:10:06.671259 27022 net.cpp:411] data_hdf5 -> label
I0521 11:10:06.671277 27022 hdf5_data_layer.cpp:79] Loading list of HDF5 filenames from: /lustre/atlas/proj-shared/hep105/caffe_titan/minosmatch_nukecczdefs_127x50_x_unshifted_me1Bmc.testlist
I0521 11:10:06.672469 27022 hdf5_data_layer.cpp:93] Number of HDF5 files: 3
I0521 11:10:27.972915 27022 net.cpp:150] Setting up data_hdf5
I0521 11:10:27.973083 27022 net.cpp:157] Top shape: 980 1 127 50 (6223000)
I0521 11:10:27.973104 27022 net.cpp:157] Top shape: 980 (980)
I0521 11:10:27.973116 27022 net.cpp:165] Memory required for data: 24895920
I0521 11:10:27.973131 27022 layer_factory.hpp:77] Creating layer label_data_hdf5_1_split
I0521 11:10:27.973166 27022 net.cpp:106] Creating Layer label_data_hdf5_1_split
I0521 11:10:27.973179 27022 net.cpp:454] label_data_hdf5_1_split <- label
I0521 11:10:27.973196 27022 net.cpp:411] label_data_hdf5_1_split -> label_data_hdf5_1_split_0
I0521 11:10:27.973239 27022 net.cpp:411] label_data_hdf5_1_split -> label_data_hdf5_1_split_1
I0521 11:10:27.973325 27022 net.cpp:150] Setting up label_data_hdf5_1_split
I0521 11:10:27.973343 27022 net.cpp:157] Top shape: 980 (980)
I0521 11:10:27.973358 27022 net.cpp:157] Top shape: 980 (980)
I0521 11:10:27.973381 27022 net.cpp:165] Memory required for data: 24903760
I0521 11:10:27.973393 27022 layer_factory.hpp:77] Creating layer conv1
I0521 11:10:27.973419 27022 net.cpp:106] Creating Layer conv1
I0521 11:10:27.973438 27022 net.cpp:454] conv1 <- data
I0521 11:10:27.973456 27022 net.cpp:411] conv1 -> conv1
I0521 11:10:27.975426 27022 net.cpp:150] Setting up conv1
I0521 11:10:27.975452 27022 net.cpp:157] Top shape: 980 12 120 48 (67737600)
I0521 11:10:27.975472 27022 net.cpp:165] Memory required for data: 295854160
I0521 11:10:27.975497 27022 layer_factory.hpp:77] Creating layer relu1
I0521 11:10:27.975518 27022 net.cpp:106] Creating Layer relu1
I0521 11:10:27.975541 27022 net.cpp:454] relu1 <- conv1
I0521 11:10:27.975558 27022 net.cpp:397] relu1 -> conv1 (in-place)
I0521 11:10:27.976075 27022 net.cpp:150] Setting up relu1
I0521 11:10:27.976099 27022 net.cpp:157] Top shape: 980 12 120 48 (67737600)
I0521 11:10:27.976112 27022 net.cpp:165] Memory required for data: 566804560
I0521 11:10:27.976125 27022 layer_factory.hpp:77] Creating layer pool1
I0521 11:10:27.976155 27022 net.cpp:106] Creating Layer pool1
I0521 11:10:27.976168 27022 net.cpp:454] pool1 <- conv1
I0521 11:10:27.976184 27022 net.cpp:411] pool1 -> pool1
I0521 11:10:27.976274 27022 net.cpp:150] Setting up pool1
I0521 11:10:27.976290 27022 net.cpp:157] Top shape: 980 12 60 48 (33868800)
I0521 11:10:27.976305 27022 net.cpp:165] Memory required for data: 702279760
I0521 11:10:27.976325 27022 layer_factory.hpp:77] Creating layer conv2
I0521 11:10:27.976346 27022 net.cpp:106] Creating Layer conv2
I0521 11:10:27.976367 27022 net.cpp:454] conv2 <- pool1
I0521 11:10:27.976384 27022 net.cpp:411] conv2 -> conv2
I0521 11:10:27.978332 27022 net.cpp:150] Setting up conv2
I0521 11:10:27.978358 27022 net.cpp:157] Top shape: 980 20 54 46 (48686400)
I0521 11:10:27.978379 27022 net.cpp:165] Memory required for data: 897025360
I0521 11:10:27.978399 27022 layer_factory.hpp:77] Creating layer relu2
I0521 11:10:27.978420 27022 net.cpp:106] Creating Layer relu2
I0521 11:10:27.978441 27022 net.cpp:454] relu2 <- conv2
I0521 11:10:27.978458 27022 net.cpp:397] relu2 -> conv2 (in-place)
I0521 11:10:27.978811 27022 net.cpp:150] Setting up relu2
I0521 11:10:27.978831 27022 net.cpp:157] Top shape: 980 20 54 46 (48686400)
I0521 11:10:27.978843 27022 net.cpp:165] Memory required for data: 1091770960
I0521 11:10:27.978858 27022 layer_factory.hpp:77] Creating layer pool2
I0521 11:10:27.978881 27022 net.cpp:106] Creating Layer pool2
I0521 11:10:27.978894 27022 net.cpp:454] pool2 <- conv2
I0521 11:10:27.978910 27022 net.cpp:411] pool2 -> pool2
I0521 11:10:27.979001 27022 net.cpp:150] Setting up pool2
I0521 11:10:27.979017 27022 net.cpp:157] Top shape: 980 20 27 46 (24343200)
I0521 11:10:27.979030 27022 net.cpp:165] Memory required for data: 1189143760
I0521 11:10:27.979043 27022 layer_factory.hpp:77] Creating layer conv3
I0521 11:10:27.979074 27022 net.cpp:106] Creating Layer conv3
I0521 11:10:27.979087 27022 net.cpp:454] conv3 <- pool2
I0521 11:10:27.979104 27022 net.cpp:411] conv3 -> conv3
I0521 11:10:27.981106 27022 net.cpp:150] Setting up conv3
I0521 11:10:27.981130 27022 net.cpp:157] Top shape: 980 28 22 44 (26561920)
I0521 11:10:27.981149 27022 net.cpp:165] Memory required for data: 1295391440
I0521 11:10:27.981189 27022 layer_factory.hpp:77] Creating layer relu3
I0521 11:10:27.981215 27022 net.cpp:106] Creating Layer relu3
I0521 11:10:27.981228 27022 net.cpp:454] relu3 <- conv3
I0521 11:10:27.981245 27022 net.cpp:397] relu3 -> conv3 (in-place)
I0521 11:10:27.981744 27022 net.cpp:150] Setting up relu3
I0521 11:10:27.981766 27022 net.cpp:157] Top shape: 980 28 22 44 (26561920)
I0521 11:10:27.981780 27022 net.cpp:165] Memory required for data: 1401639120
I0521 11:10:27.981796 27022 layer_factory.hpp:77] Creating layer pool3
I0521 11:10:27.981819 27022 net.cpp:106] Creating Layer pool3
I0521 11:10:27.981833 27022 net.cpp:454] pool3 <- conv3
I0521 11:10:27.981849 27022 net.cpp:411] pool3 -> pool3
I0521 11:10:27.981935 27022 net.cpp:150] Setting up pool3
I0521 11:10:27.981953 27022 net.cpp:157] Top shape: 980 28 11 44 (13280960)
I0521 11:10:27.981968 27022 net.cpp:165] Memory required for data: 1454762960
I0521 11:10:27.981981 27022 layer_factory.hpp:77] Creating layer conv4
I0521 11:10:27.982008 27022 net.cpp:106] Creating Layer conv4
I0521 11:10:27.982022 27022 net.cpp:454] conv4 <- pool3
I0521 11:10:27.982038 27022 net.cpp:411] conv4 -> conv4
I0521 11:10:27.984120 27022 net.cpp:150] Setting up conv4
I0521 11:10:27.984144 27022 net.cpp:157] Top shape: 980 36 6 42 (8890560)
I0521 11:10:27.984164 27022 net.cpp:165] Memory required for data: 1490325200
I0521 11:10:27.984184 27022 layer_factory.hpp:77] Creating layer relu4
I0521 11:10:27.984203 27022 net.cpp:106] Creating Layer relu4
I0521 11:10:27.984216 27022 net.cpp:454] relu4 <- conv4
I0521 11:10:27.984241 27022 net.cpp:397] relu4 -> conv4 (in-place)
I0521 11:10:27.984732 27022 net.cpp:150] Setting up relu4
I0521 11:10:27.984755 27022 net.cpp:157] Top shape: 980 36 6 42 (8890560)
I0521 11:10:27.984768 27022 net.cpp:165] Memory required for data: 1525887440
I0521 11:10:27.984784 27022 layer_factory.hpp:77] Creating layer pool4
I0521 11:10:27.984808 27022 net.cpp:106] Creating Layer pool4
I0521 11:10:27.984822 27022 net.cpp:454] pool4 <- conv4
I0521 11:10:27.984838 27022 net.cpp:411] pool4 -> pool4
I0521 11:10:27.984925 27022 net.cpp:150] Setting up pool4
I0521 11:10:27.984942 27022 net.cpp:157] Top shape: 980 36 3 42 (4445280)
I0521 11:10:27.984956 27022 net.cpp:165] Memory required for data: 1543668560
I0521 11:10:27.984968 27022 layer_factory.hpp:77] Creating layer ip1
I0521 11:10:27.984992 27022 net.cpp:106] Creating Layer ip1
I0521 11:10:27.985005 27022 net.cpp:454] ip1 <- pool4
I0521 11:10:27.985028 27022 net.cpp:411] ip1 -> ip1
I0521 11:10:28.000516 27022 net.cpp:150] Setting up ip1
I0521 11:10:28.000548 27022 net.cpp:157] Top shape: 980 196 (192080)
I0521 11:10:28.000569 27022 net.cpp:165] Memory required for data: 1544436880
I0521 11:10:28.000594 27022 layer_factory.hpp:77] Creating layer relu5
I0521 11:10:28.000617 27022 net.cpp:106] Creating Layer relu5
I0521 11:10:28.000641 27022 net.cpp:454] relu5 <- ip1
I0521 11:10:28.000658 27022 net.cpp:397] relu5 -> ip1 (in-place)
I0521 11:10:28.001019 27022 net.cpp:150] Setting up relu5
I0521 11:10:28.001039 27022 net.cpp:157] Top shape: 980 196 (192080)
I0521 11:10:28.001052 27022 net.cpp:165] Memory required for data: 1545205200
I0521 11:10:28.001068 27022 layer_factory.hpp:77] Creating layer drop1
I0521 11:10:28.001098 27022 net.cpp:106] Creating Layer drop1
I0521 11:10:28.001111 27022 net.cpp:454] drop1 <- ip1
I0521 11:10:28.001127 27022 net.cpp:397] drop1 -> ip1 (in-place)
I0521 11:10:28.001184 27022 net.cpp:150] Setting up drop1
I0521 11:10:28.001201 27022 net.cpp:157] Top shape: 980 196 (192080)
I0521 11:10:28.001214 27022 net.cpp:165] Memory required for data: 1545973520
I0521 11:10:28.001226 27022 layer_factory.hpp:77] Creating layer ip2
I0521 11:10:28.001243 27022 net.cpp:106] Creating Layer ip2
I0521 11:10:28.001258 27022 net.cpp:454] ip2 <- ip1
I0521 11:10:28.001281 27022 net.cpp:411] ip2 -> ip2
I0521 11:10:28.001785 27022 net.cpp:150] Setting up ip2
I0521 11:10:28.001804 27022 net.cpp:157] Top shape: 980 98 (96040)
I0521 11:10:28.001817 27022 net.cpp:165] Memory required for data: 1546357680
I0521 11:10:28.001857 27022 layer_factory.hpp:77] Creating layer relu6
I0521 11:10:28.001874 27022 net.cpp:106] Creating Layer relu6
I0521 11:10:28.001888 27022 net.cpp:454] relu6 <- ip2
I0521 11:10:28.001904 27022 net.cpp:397] relu6 -> ip2 (in-place)
I0521 11:10:28.002465 27022 net.cpp:150] Setting up relu6
I0521 11:10:28.002488 27022 net.cpp:157] Top shape: 980 98 (96040)
I0521 11:10:28.002502 27022 net.cpp:165] Memory required for data: 1546741840
I0521 11:10:28.002514 27022 layer_factory.hpp:77] Creating layer drop2
I0521 11:10:28.002534 27022 net.cpp:106] Creating Layer drop2
I0521 11:10:28.002555 27022 net.cpp:454] drop2 <- ip2
I0521 11:10:28.002573 27022 net.cpp:397] drop2 -> ip2 (in-place)
I0521 11:10:28.002629 27022 net.cpp:150] Setting up drop2
I0521 11:10:28.002652 27022 net.cpp:157] Top shape: 980 98 (96040)
I0521 11:10:28.002665 27022 net.cpp:165] Memory required for data: 1547126000
I0521 11:10:28.002678 27022 layer_factory.hpp:77] Creating layer ip3
I0521 11:10:28.002701 27022 net.cpp:106] Creating Layer ip3
I0521 11:10:28.002714 27022 net.cpp:454] ip3 <- ip2
I0521 11:10:28.002733 27022 net.cpp:411] ip3 -> ip3
I0521 11:10:28.002976 27022 net.cpp:150] Setting up ip3
I0521 11:10:28.002995 27022 net.cpp:157] Top shape: 980 11 (10780)
I0521 11:10:28.003008 27022 net.cpp:165] Memory required for data: 1547169120
I0521 11:10:28.003029 27022 layer_factory.hpp:77] Creating layer drop3
I0521 11:10:28.003051 27022 net.cpp:106] Creating Layer drop3
I0521 11:10:28.003064 27022 net.cpp:454] drop3 <- ip3
I0521 11:10:28.003080 27022 net.cpp:397] drop3 -> ip3 (in-place)
I0521 11:10:28.003134 27022 net.cpp:150] Setting up drop3
I0521 11:10:28.003151 27022 net.cpp:157] Top shape: 980 11 (10780)
I0521 11:10:28.003164 27022 net.cpp:165] Memory required for data: 1547212240
I0521 11:10:28.003177 27022 layer_factory.hpp:77] Creating layer ip3_drop3_0_split
I0521 11:10:28.003193 27022 net.cpp:106] Creating Layer ip3_drop3_0_split
I0521 11:10:28.003208 27022 net.cpp:454] ip3_drop3_0_split <- ip3
I0521 11:10:28.003229 27022 net.cpp:411] ip3_drop3_0_split -> ip3_drop3_0_split_0
I0521 11:10:28.003248 27022 net.cpp:411] ip3_drop3_0_split -> ip3_drop3_0_split_1
I0521 11:10:28.003337 27022 net.cpp:150] Setting up ip3_drop3_0_split
I0521 11:10:28.003357 27022 net.cpp:157] Top shape: 980 11 (10780)
I0521 11:10:28.003373 27022 net.cpp:157] Top shape: 980 11 (10780)
I0521 11:10:28.003386 27022 net.cpp:165] Memory required for data: 1547298480
I0521 11:10:28.003399 27022 layer_factory.hpp:77] Creating layer accuracy
I0521 11:10:28.003429 27022 net.cpp:106] Creating Layer accuracy
I0521 11:10:28.003443 27022 net.cpp:454] accuracy <- ip3_drop3_0_split_0
I0521 11:10:28.003458 27022 net.cpp:454] accuracy <- label_data_hdf5_1_split_0
I0521 11:10:28.003473 27022 net.cpp:411] accuracy -> accuracy
…
