…
I0520 21:37:36.761991 31157 net.cpp:322] The NetState phase (0) differed from the phase (1) specified by a rule in layer data_hdf5
I0520 21:37:36.762049 31157 net.cpp:322] The NetState phase (0) differed from the phase (1) specified by a rule in layer accuracy
I0520 21:37:36.762392 31157 net.cpp:49] Initializing net from parameters: 
name: "caffe_test_127x50_x_unshifted"
state {
  phase: TRAIN
}
layer {
  name: "data_hdf5"
  type: "HDF5Data"
  top: "data"
  top: "label"
  include {
    phase: TRAIN
  }
  hdf5_data_param {
    source: "/lustre/atlas/proj-shared/hep105/caffe_titan/minosmatch_nukecczdefs_127x50_x_unshifted_me1Bmc.trainlist"
    batch_size: 340
  }
}
layer {
  name: "conv1"
  type: "Convolution"
  bottom: "data"
  top: "conv1"
  convolution_param {
    num_output: 12
    pad: 0
    stride: 1
    weight_filler {
      type: "xavier"
    }
    bias_filler {
      type: "constant"
    }
    kernel_h: 8
    kernel_w: 3
  }
}
layer {
  name: "relu1"
  type: "ReLU"
  bottom: "conv1"
  top: "conv1"
}
layer {
  name: "pool1"
  type: "Pooling"
  bottom: "conv1"
  top: "pool1"
  pooling_param {
    pool: MAX
    kernel_h: 2
    kernel_w: 1
    stride_h: 2
    stride_w: 1
  }
}
layer {
  name: "conv2"
  type: "Convolution"
  bottom: "pool1"
  top: "conv2"
  convolution_param {
    num_output: 20
    pad: 0
    stride: 1
    weight_filler {
      type: "xavier"
    }
    bias_filler {
      type: "constant"
    }
    kernel_h: 7
    kernel_w: 3
  }
}
layer {
  name: "relu2"
  type: "ReLU"
  bottom: "conv2"
  top: "conv2"
}
layer {
  name: "pool2"
  type: "Pooling"
  bottom: "conv2"
  top: "pool2"
  pooling_param {
    pool: MAX
    kernel_h: 2
    kernel_w: 1
    stride_h: 2
    stride_w: 1
  }
}
layer {
  name: "conv3"
  type: "Convolution"
  bottom: "pool2"
  top: "conv3"
  convolution_param {
    num_output: 28
    pad: 0
    stride: 1
    weight_filler {
      type: "xavier"
    }
    bias_filler {
      type: "constant"
    }
    kernel_h: 6
    kernel_w: 3
  }
}
layer {
  name: "relu3"
  type: "ReLU"
  bottom: "conv3"
  top: "conv3"
}
layer {
  name: "pool3"
  type: "Pooling"
  bottom: "conv3"
  top: "pool3"
  pooling_param {
    pool: MAX
    kernel_h: 2
    kernel_w: 1
    stride_h: 2
    stride_w: 1
  }
}
layer {
  name: "conv4"
  type: "Convolution"
  bottom: "pool3"
  top: "conv4"
  convolution_param {
    num_output: 36
    pad: 0
    stride: 1
    weight_filler {
      type: "xavier"
    }
    bias_filler {
      type: "constant"
    }
    kernel_h: 6
    kernel_w: 3
  }
}
layer {
  name: "relu4"
  type: "ReLU"
  bottom: "conv4"
  top: "conv4"
}
layer {
  name: "pool4"
  type: "Pooling"
  bottom: "conv4"
  top: "pool4"
  pooling_param {
    pool: MAX
    kernel_h: 2
    kernel_w: 1
    stride_h: 2
    stride_w: 1
  }
}
layer {
  name: "ip1"
  type: "InnerProduct"
  bottom: "pool4"
  top: "ip1"
  inner_product_param {
    num_output: 196
    weight_filler {
      type: "xavier"
    }
    bias_filler {
      type: "constant"
    }
  }
}
layer {
  name: "relu5"
  type: "ReLU"
  bottom: "ip1"
  top: "ip1"
}
layer {
  name: "drop1"
  type: "Dropout"
  bottom: "ip1"
  top: "ip1"
  dropout_param {
    dropout_ratio: 0.5
  }
}
layer {
  name: "ip2"
  type: "InnerProduct"
  bottom: "ip1"
  top: "ip2"
  inner_product_param {
    num_output: 98
    weight_filler {
      type: "xavier"
    }
    bias_filler {
      type: "constant"
    }
  }
}
layer {
  name: "relu6"
  type: "ReLU"
  bottom: "ip2"
  top: "ip2"
}
layer {
  name: "drop2"
  type: "Dropout"
  bottom: "ip2"
  top: "ip2"
  dropout_param {
    dropout_ratio: 0.5
  }
}
layer {
  name: "ip3"
  type: "InnerProduct"
  bottom: "ip2"
  top: "ip3"
  inner_product_param {
    num_output: 11
    weight_filler {
      type: "xavier"
    }
    bias_filler {
      type: "constant"
    }
  }
}
layer {
  name: "drop3"
  type: "Dropout"
  bottom: "ip3"
  top: "ip3"
  dropout_param {
    dropout_ratio: 0.5
  }
}
layer {
  name: "loss"
  type: "SoftmaxWithLoss"
  bottom: "ip3"
  bottom: "label"
  top: "loss"
}
I0520 21:37:36.762572 31157 layer_factory.hpp:77] Creating layer data_hdf5
I0520 21:37:36.762595 31157 net.cpp:106] Creating Layer data_hdf5
I0520 21:37:36.762609 31157 net.cpp:411] data_hdf5 -> data
I0520 21:37:36.762642 31157 net.cpp:411] data_hdf5 -> label
I0520 21:37:36.762673 31157 hdf5_data_layer.cpp:79] Loading list of HDF5 filenames from: /lustre/atlas/proj-shared/hep105/caffe_titan/minosmatch_nukecczdefs_127x50_x_unshifted_me1Bmc.trainlist
I0520 21:37:36.763963 31157 hdf5_data_layer.cpp:93] Number of HDF5 files: 15
I0520 21:37:36.766170 31157 hdf5.cpp:32] Datatype class: H5T_FLOAT
I0520 21:37:58.291708 31157 hdf5.cpp:35] Datatype class: H5T_INTEGER
I0520 21:37:58.296813 31157 net.cpp:150] Setting up data_hdf5
I0520 21:37:58.296854 31157 net.cpp:157] Top shape: 340 1 127 50 (2159000)
I0520 21:37:58.296869 31157 net.cpp:157] Top shape: 340 (340)
I0520 21:37:58.296880 31157 net.cpp:165] Memory required for data: 8637360
I0520 21:37:58.296895 31157 layer_factory.hpp:77] Creating layer conv1
I0520 21:37:58.296927 31157 net.cpp:106] Creating Layer conv1
I0520 21:37:58.296939 31157 net.cpp:454] conv1 <- data
I0520 21:37:58.296959 31157 net.cpp:411] conv1 -> conv1
I0520 21:37:58.684463 31157 net.cpp:150] Setting up conv1
I0520 21:37:58.684505 31157 net.cpp:157] Top shape: 340 12 120 48 (23500800)
I0520 21:37:58.684519 31157 net.cpp:165] Memory required for data: 102640560
I0520 21:37:58.684548 31157 layer_factory.hpp:77] Creating layer relu1
I0520 21:37:58.684569 31157 net.cpp:106] Creating Layer relu1
I0520 21:37:58.684581 31157 net.cpp:454] relu1 <- conv1
I0520 21:37:58.684594 31157 net.cpp:397] relu1 -> conv1 (in-place)
I0520 21:37:58.685111 31157 net.cpp:150] Setting up relu1
I0520 21:37:58.685127 31157 net.cpp:157] Top shape: 340 12 120 48 (23500800)
I0520 21:37:58.685138 31157 net.cpp:165] Memory required for data: 196643760
I0520 21:37:58.685148 31157 layer_factory.hpp:77] Creating layer pool1
I0520 21:37:58.685164 31157 net.cpp:106] Creating Layer pool1
I0520 21:37:58.685174 31157 net.cpp:454] pool1 <- conv1
I0520 21:37:58.685187 31157 net.cpp:411] pool1 -> pool1
I0520 21:37:58.685267 31157 net.cpp:150] Setting up pool1
I0520 21:37:58.685281 31157 net.cpp:157] Top shape: 340 12 60 48 (11750400)
I0520 21:37:58.685292 31157 net.cpp:165] Memory required for data: 243645360
I0520 21:37:58.685302 31157 layer_factory.hpp:77] Creating layer conv2
I0520 21:37:58.685324 31157 net.cpp:106] Creating Layer conv2
I0520 21:37:58.685335 31157 net.cpp:454] conv2 <- pool1
I0520 21:37:58.685348 31157 net.cpp:411] conv2 -> conv2
I0520 21:37:58.688031 31157 net.cpp:150] Setting up conv2
I0520 21:37:58.688058 31157 net.cpp:157] Top shape: 340 20 54 46 (16891200)
I0520 21:37:58.688069 31157 net.cpp:165] Memory required for data: 311210160
I0520 21:37:58.688088 31157 layer_factory.hpp:77] Creating layer relu2
I0520 21:37:58.688103 31157 net.cpp:106] Creating Layer relu2
I0520 21:37:58.688113 31157 net.cpp:454] relu2 <- conv2
I0520 21:37:58.688127 31157 net.cpp:397] relu2 -> conv2 (in-place)
I0520 21:37:58.688457 31157 net.cpp:150] Setting up relu2
I0520 21:37:58.688472 31157 net.cpp:157] Top shape: 340 20 54 46 (16891200)
I0520 21:37:58.688482 31157 net.cpp:165] Memory required for data: 378774960
I0520 21:37:58.688493 31157 layer_factory.hpp:77] Creating layer pool2
I0520 21:37:58.688504 31157 net.cpp:106] Creating Layer pool2
I0520 21:37:58.688514 31157 net.cpp:454] pool2 <- conv2
I0520 21:37:58.688539 31157 net.cpp:411] pool2 -> pool2
I0520 21:37:58.688607 31157 net.cpp:150] Setting up pool2
I0520 21:37:58.688621 31157 net.cpp:157] Top shape: 340 20 27 46 (8445600)
I0520 21:37:58.688630 31157 net.cpp:165] Memory required for data: 412557360
I0520 21:37:58.688639 31157 layer_factory.hpp:77] Creating layer conv3
I0520 21:37:58.688658 31157 net.cpp:106] Creating Layer conv3
I0520 21:37:58.688668 31157 net.cpp:454] conv3 <- pool2
I0520 21:37:58.688681 31157 net.cpp:411] conv3 -> conv3
I0520 21:37:58.690592 31157 net.cpp:150] Setting up conv3
I0520 21:37:58.690614 31157 net.cpp:157] Top shape: 340 28 22 44 (9215360)
I0520 21:37:58.690628 31157 net.cpp:165] Memory required for data: 449418800
I0520 21:37:58.690645 31157 layer_factory.hpp:77] Creating layer relu3
I0520 21:37:58.690661 31157 net.cpp:106] Creating Layer relu3
I0520 21:37:58.690671 31157 net.cpp:454] relu3 <- conv3
I0520 21:37:58.690685 31157 net.cpp:397] relu3 -> conv3 (in-place)
I0520 21:37:58.691155 31157 net.cpp:150] Setting up relu3
I0520 21:37:58.691174 31157 net.cpp:157] Top shape: 340 28 22 44 (9215360)
I0520 21:37:58.691184 31157 net.cpp:165] Memory required for data: 486280240
I0520 21:37:58.691193 31157 layer_factory.hpp:77] Creating layer pool3
I0520 21:37:58.691206 31157 net.cpp:106] Creating Layer pool3
I0520 21:37:58.691216 31157 net.cpp:454] pool3 <- conv3
I0520 21:37:58.691228 31157 net.cpp:411] pool3 -> pool3
I0520 21:37:58.691295 31157 net.cpp:150] Setting up pool3
I0520 21:37:58.691308 31157 net.cpp:157] Top shape: 340 28 11 44 (4607680)
I0520 21:37:58.691318 31157 net.cpp:165] Memory required for data: 504710960
I0520 21:37:58.691329 31157 layer_factory.hpp:77] Creating layer conv4
I0520 21:37:58.691345 31157 net.cpp:106] Creating Layer conv4
I0520 21:37:58.691356 31157 net.cpp:454] conv4 <- pool3
I0520 21:37:58.691370 31157 net.cpp:411] conv4 -> conv4
I0520 21:37:58.694159 31157 net.cpp:150] Setting up conv4
I0520 21:37:58.694186 31157 net.cpp:157] Top shape: 340 36 6 42 (3084480)
I0520 21:37:58.694197 31157 net.cpp:165] Memory required for data: 517048880
I0520 21:37:58.694212 31157 layer_factory.hpp:77] Creating layer relu4
I0520 21:37:58.694226 31157 net.cpp:106] Creating Layer relu4
I0520 21:37:58.694237 31157 net.cpp:454] relu4 <- conv4
I0520 21:37:58.694250 31157 net.cpp:397] relu4 -> conv4 (in-place)
I0520 21:37:58.694721 31157 net.cpp:150] Setting up relu4
I0520 21:37:58.694737 31157 net.cpp:157] Top shape: 340 36 6 42 (3084480)
I0520 21:37:58.694748 31157 net.cpp:165] Memory required for data: 529386800
I0520 21:37:58.694758 31157 layer_factory.hpp:77] Creating layer pool4
I0520 21:37:58.694772 31157 net.cpp:106] Creating Layer pool4
I0520 21:37:58.694782 31157 net.cpp:454] pool4 <- conv4
I0520 21:37:58.694794 31157 net.cpp:411] pool4 -> pool4
I0520 21:37:58.694862 31157 net.cpp:150] Setting up pool4
I0520 21:37:58.694876 31157 net.cpp:157] Top shape: 340 36 3 42 (1542240)
I0520 21:37:58.694886 31157 net.cpp:165] Memory required for data: 535555760
I0520 21:37:58.694896 31157 layer_factory.hpp:77] Creating layer ip1
I0520 21:37:58.694916 31157 net.cpp:106] Creating Layer ip1
I0520 21:37:58.694927 31157 net.cpp:454] ip1 <- pool4
I0520 21:37:58.694939 31157 net.cpp:411] ip1 -> ip1
I0520 21:37:58.710417 31157 net.cpp:150] Setting up ip1
I0520 21:37:58.710445 31157 net.cpp:157] Top shape: 340 196 (66640)
I0520 21:37:58.710458 31157 net.cpp:165] Memory required for data: 535822320
I0520 21:37:58.710479 31157 layer_factory.hpp:77] Creating layer relu5
I0520 21:37:58.710494 31157 net.cpp:106] Creating Layer relu5
I0520 21:37:58.710505 31157 net.cpp:454] relu5 <- ip1
I0520 21:37:58.710517 31157 net.cpp:397] relu5 -> ip1 (in-place)
I0520 21:37:58.710860 31157 net.cpp:150] Setting up relu5
I0520 21:37:58.710873 31157 net.cpp:157] Top shape: 340 196 (66640)
I0520 21:37:58.710883 31157 net.cpp:165] Memory required for data: 536088880
I0520 21:37:58.710894 31157 layer_factory.hpp:77] Creating layer drop1
I0520 21:37:58.710916 31157 net.cpp:106] Creating Layer drop1
I0520 21:37:58.710927 31157 net.cpp:454] drop1 <- ip1
I0520 21:37:58.710952 31157 net.cpp:397] drop1 -> ip1 (in-place)
I0520 21:37:58.710997 31157 net.cpp:150] Setting up drop1
I0520 21:37:58.711010 31157 net.cpp:157] Top shape: 340 196 (66640)
I0520 21:37:58.711021 31157 net.cpp:165] Memory required for data: 536355440
I0520 21:37:58.711030 31157 layer_factory.hpp:77] Creating layer ip2
I0520 21:37:58.711050 31157 net.cpp:106] Creating Layer ip2
I0520 21:37:58.711060 31157 net.cpp:454] ip2 <- ip1
I0520 21:37:58.711072 31157 net.cpp:411] ip2 -> ip2
I0520 21:37:58.711537 31157 net.cpp:150] Setting up ip2
I0520 21:37:58.711550 31157 net.cpp:157] Top shape: 340 98 (33320)
I0520 21:37:58.711560 31157 net.cpp:165] Memory required for data: 536488720
I0520 21:37:58.711575 31157 layer_factory.hpp:77] Creating layer relu6
I0520 21:37:58.711587 31157 net.cpp:106] Creating Layer relu6
I0520 21:37:58.711597 31157 net.cpp:454] relu6 <- ip2
I0520 21:37:58.711609 31157 net.cpp:397] relu6 -> ip2 (in-place)
I0520 21:37:58.712136 31157 net.cpp:150] Setting up relu6
I0520 21:37:58.712152 31157 net.cpp:157] Top shape: 340 98 (33320)
I0520 21:37:58.712162 31157 net.cpp:165] Memory required for data: 536622000
I0520 21:37:58.712172 31157 layer_factory.hpp:77] Creating layer drop2
I0520 21:37:58.712184 31157 net.cpp:106] Creating Layer drop2
I0520 21:37:58.712194 31157 net.cpp:454] drop2 <- ip2
I0520 21:37:58.712208 31157 net.cpp:397] drop2 -> ip2 (in-place)
I0520 21:37:58.712249 31157 net.cpp:150] Setting up drop2
I0520 21:37:58.712262 31157 net.cpp:157] Top shape: 340 98 (33320)
I0520 21:37:58.712272 31157 net.cpp:165] Memory required for data: 536755280
I0520 21:37:58.712282 31157 layer_factory.hpp:77] Creating layer ip3
I0520 21:37:58.712296 31157 net.cpp:106] Creating Layer ip3
I0520 21:37:58.712306 31157 net.cpp:454] ip3 <- ip2
I0520 21:37:58.712318 31157 net.cpp:411] ip3 -> ip3
I0520 21:37:58.712529 31157 net.cpp:150] Setting up ip3
I0520 21:37:58.712543 31157 net.cpp:157] Top shape: 340 11 (3740)
I0520 21:37:58.712553 31157 net.cpp:165] Memory required for data: 536770240
I0520 21:37:58.712568 31157 layer_factory.hpp:77] Creating layer drop3
I0520 21:37:58.712580 31157 net.cpp:106] Creating Layer drop3
I0520 21:37:58.712589 31157 net.cpp:454] drop3 <- ip3
I0520 21:37:58.712601 31157 net.cpp:397] drop3 -> ip3 (in-place)
I0520 21:37:58.712641 31157 net.cpp:150] Setting up drop3
I0520 21:37:58.712653 31157 net.cpp:157] Top shape: 340 11 (3740)
I0520 21:37:58.712663 31157 net.cpp:165] Memory required for data: 536785200
I0520 21:37:58.712673 31157 layer_factory.hpp:77] Creating layer loss
I0520 21:37:58.712692 31157 net.cpp:106] Creating Layer loss
I0520 21:37:58.712702 31157 net.cpp:454] loss <- ip3
I0520 21:37:58.712713 31157 net.cpp:454] loss <- label
I0520 21:37:58.712725 31157 net.cpp:411] loss -> loss
I0520 21:37:58.712743 31157 layer_factory.hpp:77] Creating layer loss
…
I0520 21:37:58.715320 31157 solver.cpp:181] Creating test net (#0) specified by net file: /lustre/atlas/proj-shared/hep105/caffe_titan/caffe_workflow/logs_batch_size_test/batch_size_340_2016-05-20T11.20.45.113022.prototxt
I0520 21:37:58.715391 31157 net.cpp:322] The NetState phase (1) differed from the phase (0) specified by a rule in layer data_hdf5
I0520 21:37:58.715759 31157 net.cpp:49] Initializing net from parameters: 
name: "caffe_test_127x50_x_unshifted"
state {
  phase: TEST
}
layer {
  name: "data_hdf5"
  type: "HDF5Data"
  top: "data"
  top: "label"
  include {
    phase: TEST
  }
  hdf5_data_param {
    source: "/lustre/atlas/proj-shared/hep105/caffe_titan/minosmatch_nukecczdefs_127x50_x_unshifted_me1Bmc.testlist"
    batch_size: 340
  }
}
layer {
  name: "conv1"
  type: "Convolution"
  bottom: "data"
  top: "conv1"
  convolution_param {
    num_output: 12
    pad: 0
    stride: 1
    weight_filler {
      type: "xavier"
    }
    bias_filler {
      type: "constant"
    }
    kernel_h: 8
    kernel_w: 3
  }
}
layer {
  name: "relu1"
  type: "ReLU"
  bottom: "conv1"
  top: "conv1"
}
layer {
  name: "pool1"
  type: "Pooling"
  bottom: "conv1"
  top: "pool1"
  pooling_param {
    pool: MAX
    kernel_h: 2
    kernel_w: 1
    stride_h: 2
    stride_w: 1
  }
}
layer {
  name: "conv2"
  type: "Convolution"
  bottom: "pool1"
  top: "conv2"
  convolution_param {
    num_output: 20
    pad: 0
    stride: 1
    weight_filler {
      type: "xavier"
    }
    bias_filler {
      type: "constant"
    }
    kernel_h: 7
    kernel_w: 3
  }
}
layer {
  name: "relu2"
  type: "ReLU"
  bottom: "conv2"
  top: "conv2"
}
layer {
  name: "pool2"
  type: "Pooling"
  bottom: "conv2"
  top: "pool2"
  pooling_param {
    pool: MAX
    kernel_h: 2
    kernel_w: 1
    stride_h: 2
    stride_w: 1
  }
}
layer {
  name: "conv3"
  type: "Convolution"
  bottom: "pool2"
  top: "conv3"
  convolution_param {
    num_output: 28
    pad: 0
    stride: 1
    weight_filler {
      type: "xavier"
    }
    bias_filler {
      type: "constant"
    }
    kernel_h: 6
    kernel_w: 3
  }
}
layer {
  name: "relu3"
  type: "ReLU"
  bottom: "conv3"
  top: "conv3"
}
layer {
  name: "pool3"
  type: "Pooling"
  bottom: "conv3"
  top: "pool3"
  pooling_param {
    pool: MAX
    kernel_h: 2
    kernel_w: 1
    stride_h: 2
    stride_w: 1
  }
}
layer {
  name: "conv4"
  type: "Convolution"
  bottom: "pool3"
  top: "conv4"
  convolution_param {
    num_output: 36
    pad: 0
    stride: 1
    weight_filler {
      type: "xavier"
    }
    bias_filler {
      type: "constant"
    }
    kernel_h: 6
    kernel_w: 3
  }
}
layer {
  name: "relu4"
  type: "ReLU"
  bottom: "conv4"
  top: "conv4"
}
layer {
  name: "pool4"
  type: "Pooling"
  bottom: "conv4"
  top: "pool4"
  pooling_param {
    pool: MAX
    kernel_h: 2
    kernel_w: 1
    stride_h: 2
    stride_w: 1
  }
}
layer {
  name: "ip1"
  type: "InnerProduct"
  bottom: "pool4"
  top: "ip1"
  inner_product_param {
    num_output: 196
    weight_filler {
      type: "xavier"
    }
    bias_filler {
      type: "constant"
    }
  }
}
layer {
  name: "relu5"
  type: "ReLU"
  bottom: "ip1"
  top: "ip1"
}
layer {
  name: "drop1"
  type: "Dropout"
  bottom: "ip1"
  top: "ip1"
  dropout_param {
    dropout_ratio: 0.5
  }
}
layer {
  name: "ip2"
  type: "InnerProduct"
  bottom: "ip1"
  top: "ip2"
  inner_product_param {
    num_output: 98
    weight_filler {
      type: "xavier"
    }
    bias_filler {
      type: "constant"
    }
  }
}
layer {
  name: "relu6"
  type: "ReLU"
  bottom: "ip2"
  top: "ip2"
}
layer {
  name: "drop2"
  type: "Dropout"
  bottom: "ip2"
  top: "ip2"
  dropout_param {
    dropout_ratio: 0.5
  }
}
layer {
  name: "ip3"
  type: "InnerProduct"
  bottom: "ip2"
  top: "ip3"
  inner_product_param {
    num_output: 11
    weight_filler {
      type: "xavier"
    }
    bias_filler {
      type: "constant"
    }
  }
}
layer {
  name: "drop3"
  type: "Dropout"
  bottom: "ip3"
  top: "ip3"
  dropout_param {
    dropout_ratio: 0.5
  }
}
layer {
  name: "accuracy"
  type: "Accuracy"
  bottom: "ip3"
  bottom: "label"
  top: "accuracy"
  include {
    phase: TEST
  }
}
layer {
  name: "loss"
  type: "SoftmaxWithLoss"
  bottom: "ip3"
  bottom: "label"
  top: "loss"
}
I0520 21:37:58.715948 31157 layer_factory.hpp:77] Creating layer data_hdf5
I0520 21:37:58.715963 31157 net.cpp:106] Creating Layer data_hdf5
I0520 21:37:58.715975 31157 net.cpp:411] data_hdf5 -> data
I0520 21:37:58.715991 31157 net.cpp:411] data_hdf5 -> label
I0520 21:37:58.716007 31157 hdf5_data_layer.cpp:79] Loading list of HDF5 filenames from: /lustre/atlas/proj-shared/hep105/caffe_titan/minosmatch_nukecczdefs_127x50_x_unshifted_me1Bmc.testlist
I0520 21:37:58.717188 31157 hdf5_data_layer.cpp:93] Number of HDF5 files: 3
I0520 21:38:20.031278 31157 net.cpp:150] Setting up data_hdf5
I0520 21:38:20.031445 31157 net.cpp:157] Top shape: 340 1 127 50 (2159000)
I0520 21:38:20.031460 31157 net.cpp:157] Top shape: 340 (340)
I0520 21:38:20.031469 31157 net.cpp:165] Memory required for data: 8637360
I0520 21:38:20.031483 31157 layer_factory.hpp:77] Creating layer label_data_hdf5_1_split
I0520 21:38:20.031512 31157 net.cpp:106] Creating Layer label_data_hdf5_1_split
I0520 21:38:20.031523 31157 net.cpp:454] label_data_hdf5_1_split <- label
I0520 21:38:20.031538 31157 net.cpp:411] label_data_hdf5_1_split -> label_data_hdf5_1_split_0
I0520 21:38:20.031558 31157 net.cpp:411] label_data_hdf5_1_split -> label_data_hdf5_1_split_1
I0520 21:38:20.031631 31157 net.cpp:150] Setting up label_data_hdf5_1_split
I0520 21:38:20.031656 31157 net.cpp:157] Top shape: 340 (340)
I0520 21:38:20.031667 31157 net.cpp:157] Top shape: 340 (340)
I0520 21:38:20.031677 31157 net.cpp:165] Memory required for data: 8640080
I0520 21:38:20.031687 31157 layer_factory.hpp:77] Creating layer conv1
I0520 21:38:20.031708 31157 net.cpp:106] Creating Layer conv1
I0520 21:38:20.031719 31157 net.cpp:454] conv1 <- data
I0520 21:38:20.031734 31157 net.cpp:411] conv1 -> conv1
I0520 21:38:20.033676 31157 net.cpp:150] Setting up conv1
I0520 21:38:20.033696 31157 net.cpp:157] Top shape: 340 12 120 48 (23500800)
I0520 21:38:20.033706 31157 net.cpp:165] Memory required for data: 102643280
I0520 21:38:20.033727 31157 layer_factory.hpp:77] Creating layer relu1
I0520 21:38:20.033741 31157 net.cpp:106] Creating Layer relu1
I0520 21:38:20.033751 31157 net.cpp:454] relu1 <- conv1
I0520 21:38:20.033764 31157 net.cpp:397] relu1 -> conv1 (in-place)
I0520 21:38:20.034266 31157 net.cpp:150] Setting up relu1
I0520 21:38:20.034283 31157 net.cpp:157] Top shape: 340 12 120 48 (23500800)
I0520 21:38:20.034293 31157 net.cpp:165] Memory required for data: 196646480
I0520 21:38:20.034303 31157 layer_factory.hpp:77] Creating layer pool1
I0520 21:38:20.034319 31157 net.cpp:106] Creating Layer pool1
I0520 21:38:20.034329 31157 net.cpp:454] pool1 <- conv1
I0520 21:38:20.034343 31157 net.cpp:411] pool1 -> pool1
I0520 21:38:20.034416 31157 net.cpp:150] Setting up pool1
I0520 21:38:20.034430 31157 net.cpp:157] Top shape: 340 12 60 48 (11750400)
I0520 21:38:20.034440 31157 net.cpp:165] Memory required for data: 243648080
I0520 21:38:20.034451 31157 layer_factory.hpp:77] Creating layer conv2
I0520 21:38:20.034467 31157 net.cpp:106] Creating Layer conv2
I0520 21:38:20.034478 31157 net.cpp:454] conv2 <- pool1
I0520 21:38:20.034493 31157 net.cpp:411] conv2 -> conv2
I0520 21:38:20.036417 31157 net.cpp:150] Setting up conv2
I0520 21:38:20.036439 31157 net.cpp:157] Top shape: 340 20 54 46 (16891200)
I0520 21:38:20.036453 31157 net.cpp:165] Memory required for data: 311212880
I0520 21:38:20.036469 31157 layer_factory.hpp:77] Creating layer relu2
I0520 21:38:20.036484 31157 net.cpp:106] Creating Layer relu2
I0520 21:38:20.036494 31157 net.cpp:454] relu2 <- conv2
I0520 21:38:20.036505 31157 net.cpp:397] relu2 -> conv2 (in-place)
I0520 21:38:20.036839 31157 net.cpp:150] Setting up relu2
I0520 21:38:20.036852 31157 net.cpp:157] Top shape: 340 20 54 46 (16891200)
I0520 21:38:20.036862 31157 net.cpp:165] Memory required for data: 378777680
I0520 21:38:20.036872 31157 layer_factory.hpp:77] Creating layer pool2
I0520 21:38:20.036885 31157 net.cpp:106] Creating Layer pool2
I0520 21:38:20.036895 31157 net.cpp:454] pool2 <- conv2
I0520 21:38:20.036907 31157 net.cpp:411] pool2 -> pool2
I0520 21:38:20.036978 31157 net.cpp:150] Setting up pool2
I0520 21:38:20.036991 31157 net.cpp:157] Top shape: 340 20 27 46 (8445600)
I0520 21:38:20.037001 31157 net.cpp:165] Memory required for data: 412560080
I0520 21:38:20.037010 31157 layer_factory.hpp:77] Creating layer conv3
I0520 21:38:20.037029 31157 net.cpp:106] Creating Layer conv3
I0520 21:38:20.037039 31157 net.cpp:454] conv3 <- pool2
I0520 21:38:20.037052 31157 net.cpp:411] conv3 -> conv3
I0520 21:38:20.039013 31157 net.cpp:150] Setting up conv3
I0520 21:38:20.039036 31157 net.cpp:157] Top shape: 340 28 22 44 (9215360)
I0520 21:38:20.039047 31157 net.cpp:165] Memory required for data: 449421520
I0520 21:38:20.039080 31157 layer_factory.hpp:77] Creating layer relu3
I0520 21:38:20.039094 31157 net.cpp:106] Creating Layer relu3
I0520 21:38:20.039104 31157 net.cpp:454] relu3 <- conv3
I0520 21:38:20.039118 31157 net.cpp:397] relu3 -> conv3 (in-place)
I0520 21:38:20.039587 31157 net.cpp:150] Setting up relu3
I0520 21:38:20.039603 31157 net.cpp:157] Top shape: 340 28 22 44 (9215360)
I0520 21:38:20.039613 31157 net.cpp:165] Memory required for data: 486282960
I0520 21:38:20.039623 31157 layer_factory.hpp:77] Creating layer pool3
I0520 21:38:20.039636 31157 net.cpp:106] Creating Layer pool3
I0520 21:38:20.039654 31157 net.cpp:454] pool3 <- conv3
I0520 21:38:20.039666 31157 net.cpp:411] pool3 -> pool3
I0520 21:38:20.039739 31157 net.cpp:150] Setting up pool3
I0520 21:38:20.039752 31157 net.cpp:157] Top shape: 340 28 11 44 (4607680)
I0520 21:38:20.039762 31157 net.cpp:165] Memory required for data: 504713680
I0520 21:38:20.039770 31157 layer_factory.hpp:77] Creating layer conv4
I0520 21:38:20.039788 31157 net.cpp:106] Creating Layer conv4
I0520 21:38:20.039798 31157 net.cpp:454] conv4 <- pool3
I0520 21:38:20.039813 31157 net.cpp:411] conv4 -> conv4
I0520 21:38:20.041863 31157 net.cpp:150] Setting up conv4
I0520 21:38:20.041880 31157 net.cpp:157] Top shape: 340 36 6 42 (3084480)
I0520 21:38:20.041893 31157 net.cpp:165] Memory required for data: 517051600
I0520 21:38:20.041908 31157 layer_factory.hpp:77] Creating layer relu4
I0520 21:38:20.041921 31157 net.cpp:106] Creating Layer relu4
I0520 21:38:20.041930 31157 net.cpp:454] relu4 <- conv4
I0520 21:38:20.041944 31157 net.cpp:397] relu4 -> conv4 (in-place)
I0520 21:38:20.042413 31157 net.cpp:150] Setting up relu4
I0520 21:38:20.042429 31157 net.cpp:157] Top shape: 340 36 6 42 (3084480)
I0520 21:38:20.042439 31157 net.cpp:165] Memory required for data: 529389520
I0520 21:38:20.042449 31157 layer_factory.hpp:77] Creating layer pool4
I0520 21:38:20.042462 31157 net.cpp:106] Creating Layer pool4
I0520 21:38:20.042472 31157 net.cpp:454] pool4 <- conv4
I0520 21:38:20.042485 31157 net.cpp:411] pool4 -> pool4
I0520 21:38:20.042556 31157 net.cpp:150] Setting up pool4
I0520 21:38:20.042568 31157 net.cpp:157] Top shape: 340 36 3 42 (1542240)
I0520 21:38:20.042577 31157 net.cpp:165] Memory required for data: 535558480
I0520 21:38:20.042587 31157 layer_factory.hpp:77] Creating layer ip1
I0520 21:38:20.042603 31157 net.cpp:106] Creating Layer ip1
I0520 21:38:20.042613 31157 net.cpp:454] ip1 <- pool4
I0520 21:38:20.042628 31157 net.cpp:411] ip1 -> ip1
I0520 21:38:20.058123 31157 net.cpp:150] Setting up ip1
I0520 21:38:20.058151 31157 net.cpp:157] Top shape: 340 196 (66640)
I0520 21:38:20.058167 31157 net.cpp:165] Memory required for data: 535825040
I0520 21:38:20.058188 31157 layer_factory.hpp:77] Creating layer relu5
I0520 21:38:20.058203 31157 net.cpp:106] Creating Layer relu5
I0520 21:38:20.058213 31157 net.cpp:454] relu5 <- ip1
I0520 21:38:20.058228 31157 net.cpp:397] relu5 -> ip1 (in-place)
I0520 21:38:20.058574 31157 net.cpp:150] Setting up relu5
I0520 21:38:20.058588 31157 net.cpp:157] Top shape: 340 196 (66640)
I0520 21:38:20.058598 31157 net.cpp:165] Memory required for data: 536091600
I0520 21:38:20.058607 31157 layer_factory.hpp:77] Creating layer drop1
I0520 21:38:20.058626 31157 net.cpp:106] Creating Layer drop1
I0520 21:38:20.058635 31157 net.cpp:454] drop1 <- ip1
I0520 21:38:20.058648 31157 net.cpp:397] drop1 -> ip1 (in-place)
I0520 21:38:20.058692 31157 net.cpp:150] Setting up drop1
I0520 21:38:20.058706 31157 net.cpp:157] Top shape: 340 196 (66640)
I0520 21:38:20.058715 31157 net.cpp:165] Memory required for data: 536358160
I0520 21:38:20.058725 31157 layer_factory.hpp:77] Creating layer ip2
I0520 21:38:20.058739 31157 net.cpp:106] Creating Layer ip2
I0520 21:38:20.058749 31157 net.cpp:454] ip2 <- ip1
I0520 21:38:20.058763 31157 net.cpp:411] ip2 -> ip2
I0520 21:38:20.059245 31157 net.cpp:150] Setting up ip2
I0520 21:38:20.059258 31157 net.cpp:157] Top shape: 340 98 (33320)
I0520 21:38:20.059268 31157 net.cpp:165] Memory required for data: 536491440
I0520 21:38:20.059296 31157 layer_factory.hpp:77] Creating layer relu6
I0520 21:38:20.059309 31157 net.cpp:106] Creating Layer relu6
I0520 21:38:20.059319 31157 net.cpp:454] relu6 <- ip2
I0520 21:38:20.059331 31157 net.cpp:397] relu6 -> ip2 (in-place)
I0520 21:38:20.059875 31157 net.cpp:150] Setting up relu6
I0520 21:38:20.059896 31157 net.cpp:157] Top shape: 340 98 (33320)
I0520 21:38:20.059906 31157 net.cpp:165] Memory required for data: 536624720
I0520 21:38:20.059916 31157 layer_factory.hpp:77] Creating layer drop2
I0520 21:38:20.059929 31157 net.cpp:106] Creating Layer drop2
I0520 21:38:20.059939 31157 net.cpp:454] drop2 <- ip2
I0520 21:38:20.059952 31157 net.cpp:397] drop2 -> ip2 (in-place)
I0520 21:38:20.059996 31157 net.cpp:150] Setting up drop2
I0520 21:38:20.060009 31157 net.cpp:157] Top shape: 340 98 (33320)
I0520 21:38:20.060019 31157 net.cpp:165] Memory required for data: 536758000
I0520 21:38:20.060029 31157 layer_factory.hpp:77] Creating layer ip3
I0520 21:38:20.060042 31157 net.cpp:106] Creating Layer ip3
I0520 21:38:20.060052 31157 net.cpp:454] ip3 <- ip2
I0520 21:38:20.060065 31157 net.cpp:411] ip3 -> ip3
I0520 21:38:20.060291 31157 net.cpp:150] Setting up ip3
I0520 21:38:20.060304 31157 net.cpp:157] Top shape: 340 11 (3740)
I0520 21:38:20.060313 31157 net.cpp:165] Memory required for data: 536772960
I0520 21:38:20.060328 31157 layer_factory.hpp:77] Creating layer drop3
I0520 21:38:20.060341 31157 net.cpp:106] Creating Layer drop3
I0520 21:38:20.060351 31157 net.cpp:454] drop3 <- ip3
I0520 21:38:20.060364 31157 net.cpp:397] drop3 -> ip3 (in-place)
I0520 21:38:20.060405 31157 net.cpp:150] Setting up drop3
I0520 21:38:20.060417 31157 net.cpp:157] Top shape: 340 11 (3740)
I0520 21:38:20.060427 31157 net.cpp:165] Memory required for data: 536787920
I0520 21:38:20.060436 31157 layer_factory.hpp:77] Creating layer ip3_drop3_0_split
I0520 21:38:20.060449 31157 net.cpp:106] Creating Layer ip3_drop3_0_split
I0520 21:38:20.060459 31157 net.cpp:454] ip3_drop3_0_split <- ip3
I0520 21:38:20.060472 31157 net.cpp:411] ip3_drop3_0_split -> ip3_drop3_0_split_0
I0520 21:38:20.060487 31157 net.cpp:411] ip3_drop3_0_split -> ip3_drop3_0_split_1
I0520 21:38:20.060560 31157 net.cpp:150] Setting up ip3_drop3_0_split
I0520 21:38:20.060573 31157 net.cpp:157] Top shape: 340 11 (3740)
I0520 21:38:20.060585 31157 net.cpp:157] Top shape: 340 11 (3740)
I0520 21:38:20.060595 31157 net.cpp:165] Memory required for data: 536817840
I0520 21:38:20.060603 31157 layer_factory.hpp:77] Creating layer accuracy
I0520 21:38:20.060626 31157 net.cpp:106] Creating Layer accuracy
I0520 21:38:20.060636 31157 net.cpp:454] accuracy <- ip3_drop3_0_split_0
I0520 21:38:20.060647 31157 net.cpp:454] accuracy <- label_data_hdf5_1_split_0
I0520 21:38:20.060662 31157 net.cpp:411] accuracy -> accuracy
…
