…
I0521 01:23:40.238715  6984 net.cpp:322] The NetState phase (0) differed from the phase (1) specified by a rule in layer data_hdf5
I0521 01:23:40.238775  6984 net.cpp:322] The NetState phase (0) differed from the phase (1) specified by a rule in layer accuracy
I0521 01:23:40.239120  6984 net.cpp:49] Initializing net from parameters: 
name: "caffe_test_127x50_x_unshifted"
state {
  phase: TRAIN
}
layer {
  name: "data_hdf5"
  type: "HDF5Data"
  top: "data"
  top: "label"
  include {
    phase: TRAIN
  }
  hdf5_data_param {
    source: "/lustre/atlas/proj-shared/hep105/caffe_titan/minosmatch_nukecczdefs_127x50_x_unshifted_me1Bmc.trainlist"
    batch_size: 520
  }
}
layer {
  name: "conv1"
  type: "Convolution"
  bottom: "data"
  top: "conv1"
  convolution_param {
    num_output: 12
    pad: 0
    stride: 1
    weight_filler {
      type: "xavier"
    }
    bias_filler {
      type: "constant"
    }
    kernel_h: 8
    kernel_w: 3
  }
}
layer {
  name: "relu1"
  type: "ReLU"
  bottom: "conv1"
  top: "conv1"
}
layer {
  name: "pool1"
  type: "Pooling"
  bottom: "conv1"
  top: "pool1"
  pooling_param {
    pool: MAX
    kernel_h: 2
    kernel_w: 1
    stride_h: 2
    stride_w: 1
  }
}
layer {
  name: "conv2"
  type: "Convolution"
  bottom: "pool1"
  top: "conv2"
  convolution_param {
    num_output: 20
    pad: 0
    stride: 1
    weight_filler {
      type: "xavier"
    }
    bias_filler {
      type: "constant"
    }
    kernel_h: 7
    kernel_w: 3
  }
}
layer {
  name: "relu2"
  type: "ReLU"
  bottom: "conv2"
  top: "conv2"
}
layer {
  name: "pool2"
  type: "Pooling"
  bottom: "conv2"
  top: "pool2"
  pooling_param {
    pool: MAX
    kernel_h: 2
    kernel_w: 1
    stride_h: 2
    stride_w: 1
  }
}
layer {
  name: "conv3"
  type: "Convolution"
  bottom: "pool2"
  top: "conv3"
  convolution_param {
    num_output: 28
    pad: 0
    stride: 1
    weight_filler {
      type: "xavier"
    }
    bias_filler {
      type: "constant"
    }
    kernel_h: 6
    kernel_w: 3
  }
}
layer {
  name: "relu3"
  type: "ReLU"
  bottom: "conv3"
  top: "conv3"
}
layer {
  name: "pool3"
  type: "Pooling"
  bottom: "conv3"
  top: "pool3"
  pooling_param {
    pool: MAX
    kernel_h: 2
    kernel_w: 1
    stride_h: 2
    stride_w: 1
  }
}
layer {
  name: "conv4"
  type: "Convolution"
  bottom: "pool3"
  top: "conv4"
  convolution_param {
    num_output: 36
    pad: 0
    stride: 1
    weight_filler {
      type: "xavier"
    }
    bias_filler {
      type: "constant"
    }
    kernel_h: 6
    kernel_w: 3
  }
}
layer {
  name: "relu4"
  type: "ReLU"
  bottom: "conv4"
  top: "conv4"
}
layer {
  name: "pool4"
  type: "Pooling"
  bottom: "conv4"
  top: "pool4"
  pooling_param {
    pool: MAX
    kernel_h: 2
    kernel_w: 1
    stride_h: 2
    stride_w: 1
  }
}
layer {
  name: "ip1"
  type: "InnerProduct"
  bottom: "pool4"
  top: "ip1"
  inner_product_param {
    num_output: 196
    weight_filler {
      type: "xavier"
    }
    bias_filler {
      type: "constant"
    }
  }
}
layer {
  name: "relu5"
  type: "ReLU"
  bottom: "ip1"
  top: "ip1"
}
layer {
  name: "drop1"
  type: "Dropout"
  bottom: "ip1"
  top: "ip1"
  dropout_param {
    dropout_ratio: 0.5
  }
}
layer {
  name: "ip2"
  type: "InnerProduct"
  bottom: "ip1"
  top: "ip2"
  inner_product_param {
    num_output: 98
    weight_filler {
      type: "xavier"
    }
    bias_filler {
      type: "constant"
    }
  }
}
layer {
  name: "relu6"
  type: "ReLU"
  bottom: "ip2"
  top: "ip2"
}
layer {
  name: "drop2"
  type: "Dropout"
  bottom: "ip2"
  top: "ip2"
  dropout_param {
    dropout_ratio: 0.5
  }
}
layer {
  name: "ip3"
  type: "InnerProduct"
  bottom: "ip2"
  top: "ip3"
  inner_product_param {
    num_output: 11
    weight_filler {
      type: "xavier"
    }
    bias_filler {
      type: "constant"
    }
  }
}
layer {
  name: "drop3"
  type: "Dropout"
  bottom: "ip3"
  top: "ip3"
  dropout_param {
    dropout_ratio: 0.5
  }
}
layer {
  name: "loss"
  type: "SoftmaxWithLoss"
  bottom: "ip3"
  bottom: "label"
  top: "loss"
}
I0521 01:23:40.239308  6984 layer_factory.hpp:77] Creating layer data_hdf5
I0521 01:23:40.239332  6984 net.cpp:106] Creating Layer data_hdf5
I0521 01:23:40.239347  6984 net.cpp:411] data_hdf5 -> data
I0521 01:23:40.239382  6984 net.cpp:411] data_hdf5 -> label
I0521 01:23:40.239413  6984 hdf5_data_layer.cpp:79] Loading list of HDF5 filenames from: /lustre/atlas/proj-shared/hep105/caffe_titan/minosmatch_nukecczdefs_127x50_x_unshifted_me1Bmc.trainlist
I0521 01:23:40.252706  6984 hdf5_data_layer.cpp:93] Number of HDF5 files: 15
I0521 01:23:40.276767  6984 hdf5.cpp:32] Datatype class: H5T_FLOAT
I0521 01:24:01.803424  6984 hdf5.cpp:35] Datatype class: H5T_INTEGER
I0521 01:24:01.808506  6984 net.cpp:150] Setting up data_hdf5
I0521 01:24:01.808550  6984 net.cpp:157] Top shape: 520 1 127 50 (3302000)
I0521 01:24:01.808564  6984 net.cpp:157] Top shape: 520 (520)
I0521 01:24:01.808579  6984 net.cpp:165] Memory required for data: 13210080
I0521 01:24:01.808593  6984 layer_factory.hpp:77] Creating layer conv1
I0521 01:24:01.808629  6984 net.cpp:106] Creating Layer conv1
I0521 01:24:01.808640  6984 net.cpp:454] conv1 <- data
I0521 01:24:01.808662  6984 net.cpp:411] conv1 -> conv1
I0521 01:24:02.677018  6984 net.cpp:150] Setting up conv1
I0521 01:24:02.677067  6984 net.cpp:157] Top shape: 520 12 120 48 (35942400)
I0521 01:24:02.677078  6984 net.cpp:165] Memory required for data: 156979680
I0521 01:24:02.677106  6984 layer_factory.hpp:77] Creating layer relu1
I0521 01:24:02.677127  6984 net.cpp:106] Creating Layer relu1
I0521 01:24:02.677139  6984 net.cpp:454] relu1 <- conv1
I0521 01:24:02.677152  6984 net.cpp:397] relu1 -> conv1 (in-place)
I0521 01:24:02.677671  6984 net.cpp:150] Setting up relu1
I0521 01:24:02.677688  6984 net.cpp:157] Top shape: 520 12 120 48 (35942400)
I0521 01:24:02.677698  6984 net.cpp:165] Memory required for data: 300749280
I0521 01:24:02.677709  6984 layer_factory.hpp:77] Creating layer pool1
I0521 01:24:02.677726  6984 net.cpp:106] Creating Layer pool1
I0521 01:24:02.677736  6984 net.cpp:454] pool1 <- conv1
I0521 01:24:02.677748  6984 net.cpp:411] pool1 -> pool1
I0521 01:24:02.677829  6984 net.cpp:150] Setting up pool1
I0521 01:24:02.677842  6984 net.cpp:157] Top shape: 520 12 60 48 (17971200)
I0521 01:24:02.677851  6984 net.cpp:165] Memory required for data: 372634080
I0521 01:24:02.677861  6984 layer_factory.hpp:77] Creating layer conv2
I0521 01:24:02.677886  6984 net.cpp:106] Creating Layer conv2
I0521 01:24:02.677897  6984 net.cpp:454] conv2 <- pool1
I0521 01:24:02.677911  6984 net.cpp:411] conv2 -> conv2
I0521 01:24:02.680596  6984 net.cpp:150] Setting up conv2
I0521 01:24:02.680624  6984 net.cpp:157] Top shape: 520 20 54 46 (25833600)
I0521 01:24:02.680634  6984 net.cpp:165] Memory required for data: 475968480
I0521 01:24:02.680654  6984 layer_factory.hpp:77] Creating layer relu2
I0521 01:24:02.680667  6984 net.cpp:106] Creating Layer relu2
I0521 01:24:02.680678  6984 net.cpp:454] relu2 <- conv2
I0521 01:24:02.680691  6984 net.cpp:397] relu2 -> conv2 (in-place)
I0521 01:24:02.681020  6984 net.cpp:150] Setting up relu2
I0521 01:24:02.681035  6984 net.cpp:157] Top shape: 520 20 54 46 (25833600)
I0521 01:24:02.681046  6984 net.cpp:165] Memory required for data: 579302880
I0521 01:24:02.681056  6984 layer_factory.hpp:77] Creating layer pool2
I0521 01:24:02.681068  6984 net.cpp:106] Creating Layer pool2
I0521 01:24:02.681079  6984 net.cpp:454] pool2 <- conv2
I0521 01:24:02.681104  6984 net.cpp:411] pool2 -> pool2
I0521 01:24:02.681174  6984 net.cpp:150] Setting up pool2
I0521 01:24:02.681187  6984 net.cpp:157] Top shape: 520 20 27 46 (12916800)
I0521 01:24:02.681197  6984 net.cpp:165] Memory required for data: 630970080
I0521 01:24:02.681205  6984 layer_factory.hpp:77] Creating layer conv3
I0521 01:24:02.681224  6984 net.cpp:106] Creating Layer conv3
I0521 01:24:02.681234  6984 net.cpp:454] conv3 <- pool2
I0521 01:24:02.681248  6984 net.cpp:411] conv3 -> conv3
I0521 01:24:02.683163  6984 net.cpp:150] Setting up conv3
I0521 01:24:02.683187  6984 net.cpp:157] Top shape: 520 28 22 44 (14094080)
I0521 01:24:02.683199  6984 net.cpp:165] Memory required for data: 687346400
I0521 01:24:02.683218  6984 layer_factory.hpp:77] Creating layer relu3
I0521 01:24:02.683234  6984 net.cpp:106] Creating Layer relu3
I0521 01:24:02.683244  6984 net.cpp:454] relu3 <- conv3
I0521 01:24:02.683257  6984 net.cpp:397] relu3 -> conv3 (in-place)
I0521 01:24:02.683742  6984 net.cpp:150] Setting up relu3
I0521 01:24:02.683758  6984 net.cpp:157] Top shape: 520 28 22 44 (14094080)
I0521 01:24:02.683769  6984 net.cpp:165] Memory required for data: 743722720
I0521 01:24:02.683779  6984 layer_factory.hpp:77] Creating layer pool3
I0521 01:24:02.683792  6984 net.cpp:106] Creating Layer pool3
I0521 01:24:02.683802  6984 net.cpp:454] pool3 <- conv3
I0521 01:24:02.683815  6984 net.cpp:411] pool3 -> pool3
I0521 01:24:02.683883  6984 net.cpp:150] Setting up pool3
I0521 01:24:02.683897  6984 net.cpp:157] Top shape: 520 28 11 44 (7047040)
I0521 01:24:02.683907  6984 net.cpp:165] Memory required for data: 771910880
I0521 01:24:02.683913  6984 layer_factory.hpp:77] Creating layer conv4
I0521 01:24:02.683931  6984 net.cpp:106] Creating Layer conv4
I0521 01:24:02.683943  6984 net.cpp:454] conv4 <- pool3
I0521 01:24:02.683956  6984 net.cpp:411] conv4 -> conv4
I0521 01:24:02.686734  6984 net.cpp:150] Setting up conv4
I0521 01:24:02.686764  6984 net.cpp:157] Top shape: 520 36 6 42 (4717440)
I0521 01:24:02.686774  6984 net.cpp:165] Memory required for data: 790780640
I0521 01:24:02.686789  6984 layer_factory.hpp:77] Creating layer relu4
I0521 01:24:02.686803  6984 net.cpp:106] Creating Layer relu4
I0521 01:24:02.686813  6984 net.cpp:454] relu4 <- conv4
I0521 01:24:02.686826  6984 net.cpp:397] relu4 -> conv4 (in-place)
I0521 01:24:02.687305  6984 net.cpp:150] Setting up relu4
I0521 01:24:02.687321  6984 net.cpp:157] Top shape: 520 36 6 42 (4717440)
I0521 01:24:02.687332  6984 net.cpp:165] Memory required for data: 809650400
I0521 01:24:02.687342  6984 layer_factory.hpp:77] Creating layer pool4
I0521 01:24:02.687356  6984 net.cpp:106] Creating Layer pool4
I0521 01:24:02.687366  6984 net.cpp:454] pool4 <- conv4
I0521 01:24:02.687379  6984 net.cpp:411] pool4 -> pool4
I0521 01:24:02.687446  6984 net.cpp:150] Setting up pool4
I0521 01:24:02.687460  6984 net.cpp:157] Top shape: 520 36 3 42 (2358720)
I0521 01:24:02.687470  6984 net.cpp:165] Memory required for data: 819085280
I0521 01:24:02.687480  6984 layer_factory.hpp:77] Creating layer ip1
I0521 01:24:02.687500  6984 net.cpp:106] Creating Layer ip1
I0521 01:24:02.687510  6984 net.cpp:454] ip1 <- pool4
I0521 01:24:02.687525  6984 net.cpp:411] ip1 -> ip1
I0521 01:24:02.702957  6984 net.cpp:150] Setting up ip1
I0521 01:24:02.702986  6984 net.cpp:157] Top shape: 520 196 (101920)
I0521 01:24:02.703001  6984 net.cpp:165] Memory required for data: 819492960
I0521 01:24:02.703022  6984 layer_factory.hpp:77] Creating layer relu5
I0521 01:24:02.703037  6984 net.cpp:106] Creating Layer relu5
I0521 01:24:02.703048  6984 net.cpp:454] relu5 <- ip1
I0521 01:24:02.703061  6984 net.cpp:397] relu5 -> ip1 (in-place)
I0521 01:24:02.703408  6984 net.cpp:150] Setting up relu5
I0521 01:24:02.703423  6984 net.cpp:157] Top shape: 520 196 (101920)
I0521 01:24:02.703433  6984 net.cpp:165] Memory required for data: 819900640
I0521 01:24:02.703443  6984 layer_factory.hpp:77] Creating layer drop1
I0521 01:24:02.703464  6984 net.cpp:106] Creating Layer drop1
I0521 01:24:02.703474  6984 net.cpp:454] drop1 <- ip1
I0521 01:24:02.703500  6984 net.cpp:397] drop1 -> ip1 (in-place)
I0521 01:24:02.703546  6984 net.cpp:150] Setting up drop1
I0521 01:24:02.703558  6984 net.cpp:157] Top shape: 520 196 (101920)
I0521 01:24:02.703568  6984 net.cpp:165] Memory required for data: 820308320
I0521 01:24:02.703578  6984 layer_factory.hpp:77] Creating layer ip2
I0521 01:24:02.703596  6984 net.cpp:106] Creating Layer ip2
I0521 01:24:02.703606  6984 net.cpp:454] ip2 <- ip1
I0521 01:24:02.703619  6984 net.cpp:411] ip2 -> ip2
I0521 01:24:02.704083  6984 net.cpp:150] Setting up ip2
I0521 01:24:02.704097  6984 net.cpp:157] Top shape: 520 98 (50960)
I0521 01:24:02.704107  6984 net.cpp:165] Memory required for data: 820512160
I0521 01:24:02.704123  6984 layer_factory.hpp:77] Creating layer relu6
I0521 01:24:02.704135  6984 net.cpp:106] Creating Layer relu6
I0521 01:24:02.704145  6984 net.cpp:454] relu6 <- ip2
I0521 01:24:02.704156  6984 net.cpp:397] relu6 -> ip2 (in-place)
I0521 01:24:02.704675  6984 net.cpp:150] Setting up relu6
I0521 01:24:02.704691  6984 net.cpp:157] Top shape: 520 98 (50960)
I0521 01:24:02.704702  6984 net.cpp:165] Memory required for data: 820716000
I0521 01:24:02.704715  6984 layer_factory.hpp:77] Creating layer drop2
I0521 01:24:02.704726  6984 net.cpp:106] Creating Layer drop2
I0521 01:24:02.704736  6984 net.cpp:454] drop2 <- ip2
I0521 01:24:02.704751  6984 net.cpp:397] drop2 -> ip2 (in-place)
I0521 01:24:02.704792  6984 net.cpp:150] Setting up drop2
I0521 01:24:02.704808  6984 net.cpp:157] Top shape: 520 98 (50960)
I0521 01:24:02.704821  6984 net.cpp:165] Memory required for data: 820919840
I0521 01:24:02.704833  6984 layer_factory.hpp:77] Creating layer ip3
I0521 01:24:02.704849  6984 net.cpp:106] Creating Layer ip3
I0521 01:24:02.704859  6984 net.cpp:454] ip3 <- ip2
I0521 01:24:02.704871  6984 net.cpp:411] ip3 -> ip3
I0521 01:24:02.705080  6984 net.cpp:150] Setting up ip3
I0521 01:24:02.705093  6984 net.cpp:157] Top shape: 520 11 (5720)
I0521 01:24:02.705103  6984 net.cpp:165] Memory required for data: 820942720
I0521 01:24:02.705119  6984 layer_factory.hpp:77] Creating layer drop3
I0521 01:24:02.705132  6984 net.cpp:106] Creating Layer drop3
I0521 01:24:02.705142  6984 net.cpp:454] drop3 <- ip3
I0521 01:24:02.705153  6984 net.cpp:397] drop3 -> ip3 (in-place)
I0521 01:24:02.705193  6984 net.cpp:150] Setting up drop3
I0521 01:24:02.705205  6984 net.cpp:157] Top shape: 520 11 (5720)
I0521 01:24:02.705215  6984 net.cpp:165] Memory required for data: 820965600
I0521 01:24:02.705225  6984 layer_factory.hpp:77] Creating layer loss
I0521 01:24:02.705245  6984 net.cpp:106] Creating Layer loss
I0521 01:24:02.705255  6984 net.cpp:454] loss <- ip3
I0521 01:24:02.705265  6984 net.cpp:454] loss <- label
I0521 01:24:02.705278  6984 net.cpp:411] loss -> loss
I0521 01:24:02.705296  6984 layer_factory.hpp:77] Creating layer loss
…
I0521 01:24:02.707849  6984 solver.cpp:181] Creating test net (#0) specified by net file: /lustre/atlas/proj-shared/hep105/caffe_titan/caffe_workflow/logs_batch_size_test/batch_size_520_2016-05-20T11.20.51.492699.prototxt
I0521 01:24:02.707919  6984 net.cpp:322] The NetState phase (1) differed from the phase (0) specified by a rule in layer data_hdf5
I0521 01:24:02.708273  6984 net.cpp:49] Initializing net from parameters: 
name: "caffe_test_127x50_x_unshifted"
state {
  phase: TEST
}
layer {
  name: "data_hdf5"
  type: "HDF5Data"
  top: "data"
  top: "label"
  include {
    phase: TEST
  }
  hdf5_data_param {
    source: "/lustre/atlas/proj-shared/hep105/caffe_titan/minosmatch_nukecczdefs_127x50_x_unshifted_me1Bmc.testlist"
    batch_size: 520
  }
}
layer {
  name: "conv1"
  type: "Convolution"
  bottom: "data"
  top: "conv1"
  convolution_param {
    num_output: 12
    pad: 0
    stride: 1
    weight_filler {
      type: "xavier"
    }
    bias_filler {
      type: "constant"
    }
    kernel_h: 8
    kernel_w: 3
  }
}
layer {
  name: "relu1"
  type: "ReLU"
  bottom: "conv1"
  top: "conv1"
}
layer {
  name: "pool1"
  type: "Pooling"
  bottom: "conv1"
  top: "pool1"
  pooling_param {
    pool: MAX
    kernel_h: 2
    kernel_w: 1
    stride_h: 2
    stride_w: 1
  }
}
layer {
  name: "conv2"
  type: "Convolution"
  bottom: "pool1"
  top: "conv2"
  convolution_param {
    num_output: 20
    pad: 0
    stride: 1
    weight_filler {
      type: "xavier"
    }
    bias_filler {
      type: "constant"
    }
    kernel_h: 7
    kernel_w: 3
  }
}
layer {
  name: "relu2"
  type: "ReLU"
  bottom: "conv2"
  top: "conv2"
}
layer {
  name: "pool2"
  type: "Pooling"
  bottom: "conv2"
  top: "pool2"
  pooling_param {
    pool: MAX
    kernel_h: 2
    kernel_w: 1
    stride_h: 2
    stride_w: 1
  }
}
layer {
  name: "conv3"
  type: "Convolution"
  bottom: "pool2"
  top: "conv3"
  convolution_param {
    num_output: 28
    pad: 0
    stride: 1
    weight_filler {
      type: "xavier"
    }
    bias_filler {
      type: "constant"
    }
    kernel_h: 6
    kernel_w: 3
  }
}
layer {
  name: "relu3"
  type: "ReLU"
  bottom: "conv3"
  top: "conv3"
}
layer {
  name: "pool3"
  type: "Pooling"
  bottom: "conv3"
  top: "pool3"
  pooling_param {
    pool: MAX
    kernel_h: 2
    kernel_w: 1
    stride_h: 2
    stride_w: 1
  }
}
layer {
  name: "conv4"
  type: "Convolution"
  bottom: "pool3"
  top: "conv4"
  convolution_param {
    num_output: 36
    pad: 0
    stride: 1
    weight_filler {
      type: "xavier"
    }
    bias_filler {
      type: "constant"
    }
    kernel_h: 6
    kernel_w: 3
  }
}
layer {
  name: "relu4"
  type: "ReLU"
  bottom: "conv4"
  top: "conv4"
}
layer {
  name: "pool4"
  type: "Pooling"
  bottom: "conv4"
  top: "pool4"
  pooling_param {
    pool: MAX
    kernel_h: 2
    kernel_w: 1
    stride_h: 2
    stride_w: 1
  }
}
layer {
  name: "ip1"
  type: "InnerProduct"
  bottom: "pool4"
  top: "ip1"
  inner_product_param {
    num_output: 196
    weight_filler {
      type: "xavier"
    }
    bias_filler {
      type: "constant"
    }
  }
}
layer {
  name: "relu5"
  type: "ReLU"
  bottom: "ip1"
  top: "ip1"
}
layer {
  name: "drop1"
  type: "Dropout"
  bottom: "ip1"
  top: "ip1"
  dropout_param {
    dropout_ratio: 0.5
  }
}
layer {
  name: "ip2"
  type: "InnerProduct"
  bottom: "ip1"
  top: "ip2"
  inner_product_param {
    num_output: 98
    weight_filler {
      type: "xavier"
    }
    bias_filler {
      type: "constant"
    }
  }
}
layer {
  name: "relu6"
  type: "ReLU"
  bottom: "ip2"
  top: "ip2"
}
layer {
  name: "drop2"
  type: "Dropout"
  bottom: "ip2"
  top: "ip2"
  dropout_param {
    dropout_ratio: 0.5
  }
}
layer {
  name: "ip3"
  type: "InnerProduct"
  bottom: "ip2"
  top: "ip3"
  inner_product_param {
    num_output: 11
    weight_filler {
      type: "xavier"
    }
    bias_filler {
      type: "constant"
    }
  }
}
layer {
  name: "drop3"
  type: "Dropout"
  bottom: "ip3"
  top: "ip3"
  dropout_param {
    dropout_ratio: 0.5
  }
}
layer {
  name: "accuracy"
  type: "Accuracy"
  bottom: "ip3"
  bottom: "label"
  top: "accuracy"
  include {
    phase: TEST
  }
}
layer {
  name: "loss"
  type: "SoftmaxWithLoss"
  bottom: "ip3"
  bottom: "label"
  top: "loss"
}
I0521 01:24:02.708462  6984 layer_factory.hpp:77] Creating layer data_hdf5
I0521 01:24:02.708477  6984 net.cpp:106] Creating Layer data_hdf5
I0521 01:24:02.708489  6984 net.cpp:411] data_hdf5 -> data
I0521 01:24:02.708506  6984 net.cpp:411] data_hdf5 -> label
I0521 01:24:02.708523  6984 hdf5_data_layer.cpp:79] Loading list of HDF5 filenames from: /lustre/atlas/proj-shared/hep105/caffe_titan/minosmatch_nukecczdefs_127x50_x_unshifted_me1Bmc.testlist
I0521 01:24:02.709767  6984 hdf5_data_layer.cpp:93] Number of HDF5 files: 3
I0521 01:24:24.017379  6984 net.cpp:150] Setting up data_hdf5
I0521 01:24:24.017541  6984 net.cpp:157] Top shape: 520 1 127 50 (3302000)
I0521 01:24:24.017556  6984 net.cpp:157] Top shape: 520 (520)
I0521 01:24:24.017568  6984 net.cpp:165] Memory required for data: 13210080
I0521 01:24:24.017582  6984 layer_factory.hpp:77] Creating layer label_data_hdf5_1_split
I0521 01:24:24.017611  6984 net.cpp:106] Creating Layer label_data_hdf5_1_split
I0521 01:24:24.017621  6984 net.cpp:454] label_data_hdf5_1_split <- label
I0521 01:24:24.017637  6984 net.cpp:411] label_data_hdf5_1_split -> label_data_hdf5_1_split_0
I0521 01:24:24.017657  6984 net.cpp:411] label_data_hdf5_1_split -> label_data_hdf5_1_split_1
I0521 01:24:24.017731  6984 net.cpp:150] Setting up label_data_hdf5_1_split
I0521 01:24:24.017745  6984 net.cpp:157] Top shape: 520 (520)
I0521 01:24:24.017756  6984 net.cpp:157] Top shape: 520 (520)
I0521 01:24:24.017766  6984 net.cpp:165] Memory required for data: 13214240
I0521 01:24:24.017776  6984 layer_factory.hpp:77] Creating layer conv1
I0521 01:24:24.017799  6984 net.cpp:106] Creating Layer conv1
I0521 01:24:24.017809  6984 net.cpp:454] conv1 <- data
I0521 01:24:24.017824  6984 net.cpp:411] conv1 -> conv1
I0521 01:24:24.019773  6984 net.cpp:150] Setting up conv1
I0521 01:24:24.019796  6984 net.cpp:157] Top shape: 520 12 120 48 (35942400)
I0521 01:24:24.019809  6984 net.cpp:165] Memory required for data: 156983840
I0521 01:24:24.019830  6984 layer_factory.hpp:77] Creating layer relu1
I0521 01:24:24.019845  6984 net.cpp:106] Creating Layer relu1
I0521 01:24:24.019855  6984 net.cpp:454] relu1 <- conv1
I0521 01:24:24.019867  6984 net.cpp:397] relu1 -> conv1 (in-place)
I0521 01:24:24.020364  6984 net.cpp:150] Setting up relu1
I0521 01:24:24.020380  6984 net.cpp:157] Top shape: 520 12 120 48 (35942400)
I0521 01:24:24.020391  6984 net.cpp:165] Memory required for data: 300753440
I0521 01:24:24.020401  6984 layer_factory.hpp:77] Creating layer pool1
I0521 01:24:24.020417  6984 net.cpp:106] Creating Layer pool1
I0521 01:24:24.020427  6984 net.cpp:454] pool1 <- conv1
I0521 01:24:24.020442  6984 net.cpp:411] pool1 -> pool1
I0521 01:24:24.020516  6984 net.cpp:150] Setting up pool1
I0521 01:24:24.020529  6984 net.cpp:157] Top shape: 520 12 60 48 (17971200)
I0521 01:24:24.020539  6984 net.cpp:165] Memory required for data: 372638240
I0521 01:24:24.020550  6984 layer_factory.hpp:77] Creating layer conv2
I0521 01:24:24.020567  6984 net.cpp:106] Creating Layer conv2
I0521 01:24:24.020578  6984 net.cpp:454] conv2 <- pool1
I0521 01:24:24.020593  6984 net.cpp:411] conv2 -> conv2
I0521 01:24:24.022503  6984 net.cpp:150] Setting up conv2
I0521 01:24:24.022526  6984 net.cpp:157] Top shape: 520 20 54 46 (25833600)
I0521 01:24:24.022538  6984 net.cpp:165] Memory required for data: 475972640
I0521 01:24:24.022555  6984 layer_factory.hpp:77] Creating layer relu2
I0521 01:24:24.022569  6984 net.cpp:106] Creating Layer relu2
I0521 01:24:24.022579  6984 net.cpp:454] relu2 <- conv2
I0521 01:24:24.022593  6984 net.cpp:397] relu2 -> conv2 (in-place)
I0521 01:24:24.022923  6984 net.cpp:150] Setting up relu2
I0521 01:24:24.022938  6984 net.cpp:157] Top shape: 520 20 54 46 (25833600)
I0521 01:24:24.022948  6984 net.cpp:165] Memory required for data: 579307040
I0521 01:24:24.022959  6984 layer_factory.hpp:77] Creating layer pool2
I0521 01:24:24.022972  6984 net.cpp:106] Creating Layer pool2
I0521 01:24:24.022981  6984 net.cpp:454] pool2 <- conv2
I0521 01:24:24.022994  6984 net.cpp:411] pool2 -> pool2
I0521 01:24:24.023066  6984 net.cpp:150] Setting up pool2
I0521 01:24:24.023078  6984 net.cpp:157] Top shape: 520 20 27 46 (12916800)
I0521 01:24:24.023088  6984 net.cpp:165] Memory required for data: 630974240
I0521 01:24:24.023097  6984 layer_factory.hpp:77] Creating layer conv3
I0521 01:24:24.023116  6984 net.cpp:106] Creating Layer conv3
I0521 01:24:24.023126  6984 net.cpp:454] conv3 <- pool2
I0521 01:24:24.023140  6984 net.cpp:411] conv3 -> conv3
I0521 01:24:24.025112  6984 net.cpp:150] Setting up conv3
I0521 01:24:24.025136  6984 net.cpp:157] Top shape: 520 28 22 44 (14094080)
I0521 01:24:24.025146  6984 net.cpp:165] Memory required for data: 687350560
I0521 01:24:24.025178  6984 layer_factory.hpp:77] Creating layer relu3
I0521 01:24:24.025192  6984 net.cpp:106] Creating Layer relu3
I0521 01:24:24.025202  6984 net.cpp:454] relu3 <- conv3
I0521 01:24:24.025215  6984 net.cpp:397] relu3 -> conv3 (in-place)
I0521 01:24:24.025687  6984 net.cpp:150] Setting up relu3
I0521 01:24:24.025703  6984 net.cpp:157] Top shape: 520 28 22 44 (14094080)
I0521 01:24:24.025713  6984 net.cpp:165] Memory required for data: 743726880
I0521 01:24:24.025723  6984 layer_factory.hpp:77] Creating layer pool3
I0521 01:24:24.025737  6984 net.cpp:106] Creating Layer pool3
I0521 01:24:24.025746  6984 net.cpp:454] pool3 <- conv3
I0521 01:24:24.025759  6984 net.cpp:411] pool3 -> pool3
I0521 01:24:24.025831  6984 net.cpp:150] Setting up pool3
I0521 01:24:24.025845  6984 net.cpp:157] Top shape: 520 28 11 44 (7047040)
I0521 01:24:24.025854  6984 net.cpp:165] Memory required for data: 771915040
I0521 01:24:24.025862  6984 layer_factory.hpp:77] Creating layer conv4
I0521 01:24:24.025879  6984 net.cpp:106] Creating Layer conv4
I0521 01:24:24.025890  6984 net.cpp:454] conv4 <- pool3
I0521 01:24:24.025904  6984 net.cpp:411] conv4 -> conv4
I0521 01:24:24.027963  6984 net.cpp:150] Setting up conv4
I0521 01:24:24.027987  6984 net.cpp:157] Top shape: 520 36 6 42 (4717440)
I0521 01:24:24.027998  6984 net.cpp:165] Memory required for data: 790784800
I0521 01:24:24.028013  6984 layer_factory.hpp:77] Creating layer relu4
I0521 01:24:24.028028  6984 net.cpp:106] Creating Layer relu4
I0521 01:24:24.028038  6984 net.cpp:454] relu4 <- conv4
I0521 01:24:24.028049  6984 net.cpp:397] relu4 -> conv4 (in-place)
I0521 01:24:24.028520  6984 net.cpp:150] Setting up relu4
I0521 01:24:24.028535  6984 net.cpp:157] Top shape: 520 36 6 42 (4717440)
I0521 01:24:24.028545  6984 net.cpp:165] Memory required for data: 809654560
I0521 01:24:24.028556  6984 layer_factory.hpp:77] Creating layer pool4
I0521 01:24:24.028569  6984 net.cpp:106] Creating Layer pool4
I0521 01:24:24.028579  6984 net.cpp:454] pool4 <- conv4
I0521 01:24:24.028594  6984 net.cpp:411] pool4 -> pool4
I0521 01:24:24.028664  6984 net.cpp:150] Setting up pool4
I0521 01:24:24.028678  6984 net.cpp:157] Top shape: 520 36 3 42 (2358720)
I0521 01:24:24.028687  6984 net.cpp:165] Memory required for data: 819089440
I0521 01:24:24.028697  6984 layer_factory.hpp:77] Creating layer ip1
I0521 01:24:24.028712  6984 net.cpp:106] Creating Layer ip1
I0521 01:24:24.028722  6984 net.cpp:454] ip1 <- pool4
I0521 01:24:24.028735  6984 net.cpp:411] ip1 -> ip1
I0521 01:24:24.044205  6984 net.cpp:150] Setting up ip1
I0521 01:24:24.044234  6984 net.cpp:157] Top shape: 520 196 (101920)
I0521 01:24:24.044250  6984 net.cpp:165] Memory required for data: 819497120
I0521 01:24:24.044272  6984 layer_factory.hpp:77] Creating layer relu5
I0521 01:24:24.044287  6984 net.cpp:106] Creating Layer relu5
I0521 01:24:24.044298  6984 net.cpp:454] relu5 <- ip1
I0521 01:24:24.044315  6984 net.cpp:397] relu5 -> ip1 (in-place)
I0521 01:24:24.044662  6984 net.cpp:150] Setting up relu5
I0521 01:24:24.044677  6984 net.cpp:157] Top shape: 520 196 (101920)
I0521 01:24:24.044687  6984 net.cpp:165] Memory required for data: 819904800
I0521 01:24:24.044697  6984 layer_factory.hpp:77] Creating layer drop1
I0521 01:24:24.044714  6984 net.cpp:106] Creating Layer drop1
I0521 01:24:24.044724  6984 net.cpp:454] drop1 <- ip1
I0521 01:24:24.044739  6984 net.cpp:397] drop1 -> ip1 (in-place)
I0521 01:24:24.044782  6984 net.cpp:150] Setting up drop1
I0521 01:24:24.044795  6984 net.cpp:157] Top shape: 520 196 (101920)
I0521 01:24:24.044809  6984 net.cpp:165] Memory required for data: 820312480
I0521 01:24:24.044818  6984 layer_factory.hpp:77] Creating layer ip2
I0521 01:24:24.044833  6984 net.cpp:106] Creating Layer ip2
I0521 01:24:24.044843  6984 net.cpp:454] ip2 <- ip1
I0521 01:24:24.044857  6984 net.cpp:411] ip2 -> ip2
I0521 01:24:24.045336  6984 net.cpp:150] Setting up ip2
I0521 01:24:24.045351  6984 net.cpp:157] Top shape: 520 98 (50960)
I0521 01:24:24.045359  6984 net.cpp:165] Memory required for data: 820516320
I0521 01:24:24.045388  6984 layer_factory.hpp:77] Creating layer relu6
I0521 01:24:24.045402  6984 net.cpp:106] Creating Layer relu6
I0521 01:24:24.045411  6984 net.cpp:454] relu6 <- ip2
I0521 01:24:24.045423  6984 net.cpp:397] relu6 -> ip2 (in-place)
I0521 01:24:24.045955  6984 net.cpp:150] Setting up relu6
I0521 01:24:24.045977  6984 net.cpp:157] Top shape: 520 98 (50960)
I0521 01:24:24.045987  6984 net.cpp:165] Memory required for data: 820720160
I0521 01:24:24.045999  6984 layer_factory.hpp:77] Creating layer drop2
I0521 01:24:24.046012  6984 net.cpp:106] Creating Layer drop2
I0521 01:24:24.046022  6984 net.cpp:454] drop2 <- ip2
I0521 01:24:24.046036  6984 net.cpp:397] drop2 -> ip2 (in-place)
I0521 01:24:24.046079  6984 net.cpp:150] Setting up drop2
I0521 01:24:24.046092  6984 net.cpp:157] Top shape: 520 98 (50960)
I0521 01:24:24.046103  6984 net.cpp:165] Memory required for data: 820924000
I0521 01:24:24.046113  6984 layer_factory.hpp:77] Creating layer ip3
I0521 01:24:24.046126  6984 net.cpp:106] Creating Layer ip3
I0521 01:24:24.046136  6984 net.cpp:454] ip3 <- ip2
I0521 01:24:24.046150  6984 net.cpp:411] ip3 -> ip3
I0521 01:24:24.046372  6984 net.cpp:150] Setting up ip3
I0521 01:24:24.046386  6984 net.cpp:157] Top shape: 520 11 (5720)
I0521 01:24:24.046396  6984 net.cpp:165] Memory required for data: 820946880
I0521 01:24:24.046411  6984 layer_factory.hpp:77] Creating layer drop3
I0521 01:24:24.046423  6984 net.cpp:106] Creating Layer drop3
I0521 01:24:24.046432  6984 net.cpp:454] drop3 <- ip3
I0521 01:24:24.046445  6984 net.cpp:397] drop3 -> ip3 (in-place)
I0521 01:24:24.046486  6984 net.cpp:150] Setting up drop3
I0521 01:24:24.046499  6984 net.cpp:157] Top shape: 520 11 (5720)
I0521 01:24:24.046509  6984 net.cpp:165] Memory required for data: 820969760
I0521 01:24:24.046519  6984 layer_factory.hpp:77] Creating layer ip3_drop3_0_split
I0521 01:24:24.046531  6984 net.cpp:106] Creating Layer ip3_drop3_0_split
I0521 01:24:24.046541  6984 net.cpp:454] ip3_drop3_0_split <- ip3
I0521 01:24:24.046555  6984 net.cpp:411] ip3_drop3_0_split -> ip3_drop3_0_split_0
I0521 01:24:24.046569  6984 net.cpp:411] ip3_drop3_0_split -> ip3_drop3_0_split_1
I0521 01:24:24.046643  6984 net.cpp:150] Setting up ip3_drop3_0_split
I0521 01:24:24.046654  6984 net.cpp:157] Top shape: 520 11 (5720)
I0521 01:24:24.046668  6984 net.cpp:157] Top shape: 520 11 (5720)
I0521 01:24:24.046677  6984 net.cpp:165] Memory required for data: 821015520
I0521 01:24:24.046685  6984 layer_factory.hpp:77] Creating layer accuracy
I0521 01:24:24.046707  6984 net.cpp:106] Creating Layer accuracy
I0521 01:24:24.046717  6984 net.cpp:454] accuracy <- ip3_drop3_0_split_0
I0521 01:24:24.046728  6984 net.cpp:454] accuracy <- label_data_hdf5_1_split_0
I0521 01:24:24.046742  6984 net.cpp:411] accuracy -> accuracy
…
