…
I0520 18:39:31.407259  2537 net.cpp:322] The NetState phase (0) differed from the phase (1) specified by a rule in layer data_hdf5
I0520 18:39:31.407320  2537 net.cpp:322] The NetState phase (0) differed from the phase (1) specified by a rule in layer accuracy
I0520 18:39:31.407665  2537 net.cpp:49] Initializing net from parameters: 
name: "caffe_test_127x50_x_unshifted"
state {
  phase: TRAIN
}
layer {
  name: "data_hdf5"
  type: "HDF5Data"
  top: "data"
  top: "label"
  include {
    phase: TRAIN
  }
  hdf5_data_param {
    source: "/lustre/atlas/proj-shared/hep105/caffe_titan/minosmatch_nukecczdefs_127x50_x_unshifted_me1Bmc.trainlist"
    batch_size: 220
  }
}
layer {
  name: "conv1"
  type: "Convolution"
  bottom: "data"
  top: "conv1"
  convolution_param {
    num_output: 12
    pad: 0
    stride: 1
    weight_filler {
      type: "xavier"
    }
    bias_filler {
      type: "constant"
    }
    kernel_h: 8
    kernel_w: 3
  }
}
layer {
  name: "relu1"
  type: "ReLU"
  bottom: "conv1"
  top: "conv1"
}
layer {
  name: "pool1"
  type: "Pooling"
  bottom: "conv1"
  top: "pool1"
  pooling_param {
    pool: MAX
    kernel_h: 2
    kernel_w: 1
    stride_h: 2
    stride_w: 1
  }
}
layer {
  name: "conv2"
  type: "Convolution"
  bottom: "pool1"
  top: "conv2"
  convolution_param {
    num_output: 20
    pad: 0
    stride: 1
    weight_filler {
      type: "xavier"
    }
    bias_filler {
      type: "constant"
    }
    kernel_h: 7
    kernel_w: 3
  }
}
layer {
  name: "relu2"
  type: "ReLU"
  bottom: "conv2"
  top: "conv2"
}
layer {
  name: "pool2"
  type: "Pooling"
  bottom: "conv2"
  top: "pool2"
  pooling_param {
    pool: MAX
    kernel_h: 2
    kernel_w: 1
    stride_h: 2
    stride_w: 1
  }
}
layer {
  name: "conv3"
  type: "Convolution"
  bottom: "pool2"
  top: "conv3"
  convolution_param {
    num_output: 28
    pad: 0
    stride: 1
    weight_filler {
      type: "xavier"
    }
    bias_filler {
      type: "constant"
    }
    kernel_h: 6
    kernel_w: 3
  }
}
layer {
  name: "relu3"
  type: "ReLU"
  bottom: "conv3"
  top: "conv3"
}
layer {
  name: "pool3"
  type: "Pooling"
  bottom: "conv3"
  top: "pool3"
  pooling_param {
    pool: MAX
    kernel_h: 2
    kernel_w: 1
    stride_h: 2
    stride_w: 1
  }
}
layer {
  name: "conv4"
  type: "Convolution"
  bottom: "pool3"
  top: "conv4"
  convolution_param {
    num_output: 36
    pad: 0
    stride: 1
    weight_filler {
      type: "xavier"
    }
    bias_filler {
      type: "constant"
    }
    kernel_h: 6
    kernel_w: 3
  }
}
layer {
  name: "relu4"
  type: "ReLU"
  bottom: "conv4"
  top: "conv4"
}
layer {
  name: "pool4"
  type: "Pooling"
  bottom: "conv4"
  top: "pool4"
  pooling_param {
    pool: MAX
    kernel_h: 2
    kernel_w: 1
    stride_h: 2
    stride_w: 1
  }
}
layer {
  name: "ip1"
  type: "InnerProduct"
  bottom: "pool4"
  top: "ip1"
  inner_product_param {
    num_output: 196
    weight_filler {
      type: "xavier"
    }
    bias_filler {
      type: "constant"
    }
  }
}
layer {
  name: "relu5"
  type: "ReLU"
  bottom: "ip1"
  top: "ip1"
}
layer {
  name: "drop1"
  type: "Dropout"
  bottom: "ip1"
  top: "ip1"
  dropout_param {
    dropout_ratio: 0.5
  }
}
layer {
  name: "ip2"
  type: "InnerProduct"
  bottom: "ip1"
  top: "ip2"
  inner_product_param {
    num_output: 98
    weight_filler {
      type: "xavier"
    }
    bias_filler {
      type: "constant"
    }
  }
}
layer {
  name: "relu6"
  type: "ReLU"
  bottom: "ip2"
  top: "ip2"
}
layer {
  name: "drop2"
  type: "Dropout"
  bottom: "ip2"
  top: "ip2"
  dropout_param {
    dropout_ratio: 0.5
  }
}
layer {
  name: "ip3"
  type: "InnerProduct"
  bottom: "ip2"
  top: "ip3"
  inner_product_param {
    num_output: 11
    weight_filler {
      type: "xavier"
    }
    bias_filler {
      type: "constant"
    }
  }
}
layer {
  name: "drop3"
  type: "Dropout"
  bottom: "ip3"
  top: "ip3"
  dropout_param {
    dropout_ratio: 0.5
  }
}
layer {
  name: "loss"
  type: "SoftmaxWithLoss"
  bottom: "ip3"
  bottom: "label"
  top: "loss"
}
I0520 18:39:31.407841  2537 layer_factory.hpp:77] Creating layer data_hdf5
I0520 18:39:31.407866  2537 net.cpp:106] Creating Layer data_hdf5
I0520 18:39:31.407879  2537 net.cpp:411] data_hdf5 -> data
I0520 18:39:31.407914  2537 net.cpp:411] data_hdf5 -> label
I0520 18:39:31.407946  2537 hdf5_data_layer.cpp:79] Loading list of HDF5 filenames from: /lustre/atlas/proj-shared/hep105/caffe_titan/minosmatch_nukecczdefs_127x50_x_unshifted_me1Bmc.trainlist
I0520 18:39:31.409127  2537 hdf5_data_layer.cpp:93] Number of HDF5 files: 15
I0520 18:39:31.411401  2537 hdf5.cpp:32] Datatype class: H5T_FLOAT
I0520 18:39:52.954519  2537 hdf5.cpp:35] Datatype class: H5T_INTEGER
I0520 18:39:52.959657  2537 net.cpp:150] Setting up data_hdf5
I0520 18:39:52.959697  2537 net.cpp:157] Top shape: 220 1 127 50 (1397000)
I0520 18:39:52.959712  2537 net.cpp:157] Top shape: 220 (220)
I0520 18:39:52.959722  2537 net.cpp:165] Memory required for data: 5588880
I0520 18:39:52.959736  2537 layer_factory.hpp:77] Creating layer conv1
I0520 18:39:52.959770  2537 net.cpp:106] Creating Layer conv1
I0520 18:39:52.959781  2537 net.cpp:454] conv1 <- data
I0520 18:39:52.959803  2537 net.cpp:411] conv1 -> conv1
I0520 18:39:53.327165  2537 net.cpp:150] Setting up conv1
I0520 18:39:53.327213  2537 net.cpp:157] Top shape: 220 12 120 48 (15206400)
I0520 18:39:53.327224  2537 net.cpp:165] Memory required for data: 66414480
I0520 18:39:53.327251  2537 layer_factory.hpp:77] Creating layer relu1
I0520 18:39:53.327272  2537 net.cpp:106] Creating Layer relu1
I0520 18:39:53.327283  2537 net.cpp:454] relu1 <- conv1
I0520 18:39:53.327297  2537 net.cpp:397] relu1 -> conv1 (in-place)
I0520 18:39:53.327813  2537 net.cpp:150] Setting up relu1
I0520 18:39:53.327831  2537 net.cpp:157] Top shape: 220 12 120 48 (15206400)
I0520 18:39:53.327841  2537 net.cpp:165] Memory required for data: 127240080
I0520 18:39:53.327852  2537 layer_factory.hpp:77] Creating layer pool1
I0520 18:39:53.327867  2537 net.cpp:106] Creating Layer pool1
I0520 18:39:53.327877  2537 net.cpp:454] pool1 <- conv1
I0520 18:39:53.327890  2537 net.cpp:411] pool1 -> pool1
I0520 18:39:53.327970  2537 net.cpp:150] Setting up pool1
I0520 18:39:53.327983  2537 net.cpp:157] Top shape: 220 12 60 48 (7603200)
I0520 18:39:53.327993  2537 net.cpp:165] Memory required for data: 157652880
I0520 18:39:53.328003  2537 layer_factory.hpp:77] Creating layer conv2
I0520 18:39:53.328027  2537 net.cpp:106] Creating Layer conv2
I0520 18:39:53.328037  2537 net.cpp:454] conv2 <- pool1
I0520 18:39:53.328050  2537 net.cpp:411] conv2 -> conv2
I0520 18:39:53.330723  2537 net.cpp:150] Setting up conv2
I0520 18:39:53.330750  2537 net.cpp:157] Top shape: 220 20 54 46 (10929600)
I0520 18:39:53.330761  2537 net.cpp:165] Memory required for data: 201371280
I0520 18:39:53.330780  2537 layer_factory.hpp:77] Creating layer relu2
I0520 18:39:53.330795  2537 net.cpp:106] Creating Layer relu2
I0520 18:39:53.330804  2537 net.cpp:454] relu2 <- conv2
I0520 18:39:53.330817  2537 net.cpp:397] relu2 -> conv2 (in-place)
I0520 18:39:53.331146  2537 net.cpp:150] Setting up relu2
I0520 18:39:53.331161  2537 net.cpp:157] Top shape: 220 20 54 46 (10929600)
I0520 18:39:53.331171  2537 net.cpp:165] Memory required for data: 245089680
I0520 18:39:53.331182  2537 layer_factory.hpp:77] Creating layer pool2
I0520 18:39:53.331194  2537 net.cpp:106] Creating Layer pool2
I0520 18:39:53.331204  2537 net.cpp:454] pool2 <- conv2
I0520 18:39:53.331229  2537 net.cpp:411] pool2 -> pool2
I0520 18:39:53.331298  2537 net.cpp:150] Setting up pool2
I0520 18:39:53.331311  2537 net.cpp:157] Top shape: 220 20 27 46 (5464800)
I0520 18:39:53.331321  2537 net.cpp:165] Memory required for data: 266948880
I0520 18:39:53.331331  2537 layer_factory.hpp:77] Creating layer conv3
I0520 18:39:53.331348  2537 net.cpp:106] Creating Layer conv3
I0520 18:39:53.331359  2537 net.cpp:454] conv3 <- pool2
I0520 18:39:53.331372  2537 net.cpp:411] conv3 -> conv3
I0520 18:39:53.333299  2537 net.cpp:150] Setting up conv3
I0520 18:39:53.333323  2537 net.cpp:157] Top shape: 220 28 22 44 (5962880)
I0520 18:39:53.333334  2537 net.cpp:165] Memory required for data: 290800400
I0520 18:39:53.333353  2537 layer_factory.hpp:77] Creating layer relu3
I0520 18:39:53.333369  2537 net.cpp:106] Creating Layer relu3
I0520 18:39:53.333379  2537 net.cpp:454] relu3 <- conv3
I0520 18:39:53.333391  2537 net.cpp:397] relu3 -> conv3 (in-place)
I0520 18:39:53.333861  2537 net.cpp:150] Setting up relu3
I0520 18:39:53.333878  2537 net.cpp:157] Top shape: 220 28 22 44 (5962880)
I0520 18:39:53.333889  2537 net.cpp:165] Memory required for data: 314651920
I0520 18:39:53.333899  2537 layer_factory.hpp:77] Creating layer pool3
I0520 18:39:53.333911  2537 net.cpp:106] Creating Layer pool3
I0520 18:39:53.333920  2537 net.cpp:454] pool3 <- conv3
I0520 18:39:53.333933  2537 net.cpp:411] pool3 -> pool3
I0520 18:39:53.334000  2537 net.cpp:150] Setting up pool3
I0520 18:39:53.334013  2537 net.cpp:157] Top shape: 220 28 11 44 (2981440)
I0520 18:39:53.334023  2537 net.cpp:165] Memory required for data: 326577680
I0520 18:39:53.334033  2537 layer_factory.hpp:77] Creating layer conv4
I0520 18:39:53.334050  2537 net.cpp:106] Creating Layer conv4
I0520 18:39:53.334060  2537 net.cpp:454] conv4 <- pool3
I0520 18:39:53.334074  2537 net.cpp:411] conv4 -> conv4
I0520 18:39:53.336802  2537 net.cpp:150] Setting up conv4
I0520 18:39:53.336823  2537 net.cpp:157] Top shape: 220 36 6 42 (1995840)
I0520 18:39:53.336834  2537 net.cpp:165] Memory required for data: 334561040
I0520 18:39:53.336849  2537 layer_factory.hpp:77] Creating layer relu4
I0520 18:39:53.336864  2537 net.cpp:106] Creating Layer relu4
I0520 18:39:53.336874  2537 net.cpp:454] relu4 <- conv4
I0520 18:39:53.336887  2537 net.cpp:397] relu4 -> conv4 (in-place)
I0520 18:39:53.337349  2537 net.cpp:150] Setting up relu4
I0520 18:39:53.337365  2537 net.cpp:157] Top shape: 220 36 6 42 (1995840)
I0520 18:39:53.337376  2537 net.cpp:165] Memory required for data: 342544400
I0520 18:39:53.337386  2537 layer_factory.hpp:77] Creating layer pool4
I0520 18:39:53.337399  2537 net.cpp:106] Creating Layer pool4
I0520 18:39:53.337409  2537 net.cpp:454] pool4 <- conv4
I0520 18:39:53.337422  2537 net.cpp:411] pool4 -> pool4
I0520 18:39:53.337489  2537 net.cpp:150] Setting up pool4
I0520 18:39:53.337503  2537 net.cpp:157] Top shape: 220 36 3 42 (997920)
I0520 18:39:53.337513  2537 net.cpp:165] Memory required for data: 346536080
I0520 18:39:53.337523  2537 layer_factory.hpp:77] Creating layer ip1
I0520 18:39:53.337543  2537 net.cpp:106] Creating Layer ip1
I0520 18:39:53.337554  2537 net.cpp:454] ip1 <- pool4
I0520 18:39:53.337566  2537 net.cpp:411] ip1 -> ip1
I0520 18:39:53.353106  2537 net.cpp:150] Setting up ip1
I0520 18:39:53.353135  2537 net.cpp:157] Top shape: 220 196 (43120)
I0520 18:39:53.353152  2537 net.cpp:165] Memory required for data: 346708560
I0520 18:39:53.353178  2537 layer_factory.hpp:77] Creating layer relu5
I0520 18:39:53.353193  2537 net.cpp:106] Creating Layer relu5
I0520 18:39:53.353204  2537 net.cpp:454] relu5 <- ip1
I0520 18:39:53.353216  2537 net.cpp:397] relu5 -> ip1 (in-place)
I0520 18:39:53.353559  2537 net.cpp:150] Setting up relu5
I0520 18:39:53.353574  2537 net.cpp:157] Top shape: 220 196 (43120)
I0520 18:39:53.353585  2537 net.cpp:165] Memory required for data: 346881040
I0520 18:39:53.353595  2537 layer_factory.hpp:77] Creating layer drop1
I0520 18:39:53.353615  2537 net.cpp:106] Creating Layer drop1
I0520 18:39:53.353626  2537 net.cpp:454] drop1 <- ip1
I0520 18:39:53.353651  2537 net.cpp:397] drop1 -> ip1 (in-place)
I0520 18:39:53.353698  2537 net.cpp:150] Setting up drop1
I0520 18:39:53.353713  2537 net.cpp:157] Top shape: 220 196 (43120)
I0520 18:39:53.353723  2537 net.cpp:165] Memory required for data: 347053520
I0520 18:39:53.353732  2537 layer_factory.hpp:77] Creating layer ip2
I0520 18:39:53.353750  2537 net.cpp:106] Creating Layer ip2
I0520 18:39:53.353761  2537 net.cpp:454] ip2 <- ip1
I0520 18:39:53.353775  2537 net.cpp:411] ip2 -> ip2
I0520 18:39:53.354238  2537 net.cpp:150] Setting up ip2
I0520 18:39:53.354251  2537 net.cpp:157] Top shape: 220 98 (21560)
I0520 18:39:53.354261  2537 net.cpp:165] Memory required for data: 347139760
I0520 18:39:53.354276  2537 layer_factory.hpp:77] Creating layer relu6
I0520 18:39:53.354288  2537 net.cpp:106] Creating Layer relu6
I0520 18:39:53.354298  2537 net.cpp:454] relu6 <- ip2
I0520 18:39:53.354310  2537 net.cpp:397] relu6 -> ip2 (in-place)
I0520 18:39:53.354831  2537 net.cpp:150] Setting up relu6
I0520 18:39:53.354847  2537 net.cpp:157] Top shape: 220 98 (21560)
I0520 18:39:53.354857  2537 net.cpp:165] Memory required for data: 347226000
I0520 18:39:53.354867  2537 layer_factory.hpp:77] Creating layer drop2
I0520 18:39:53.354881  2537 net.cpp:106] Creating Layer drop2
I0520 18:39:53.354890  2537 net.cpp:454] drop2 <- ip2
I0520 18:39:53.354902  2537 net.cpp:397] drop2 -> ip2 (in-place)
I0520 18:39:53.354945  2537 net.cpp:150] Setting up drop2
I0520 18:39:53.354959  2537 net.cpp:157] Top shape: 220 98 (21560)
I0520 18:39:53.354969  2537 net.cpp:165] Memory required for data: 347312240
I0520 18:39:53.354979  2537 layer_factory.hpp:77] Creating layer ip3
I0520 18:39:53.354991  2537 net.cpp:106] Creating Layer ip3
I0520 18:39:53.355001  2537 net.cpp:454] ip3 <- ip2
I0520 18:39:53.355015  2537 net.cpp:411] ip3 -> ip3
I0520 18:39:53.355226  2537 net.cpp:150] Setting up ip3
I0520 18:39:53.355238  2537 net.cpp:157] Top shape: 220 11 (2420)
I0520 18:39:53.355248  2537 net.cpp:165] Memory required for data: 347321920
I0520 18:39:53.355263  2537 layer_factory.hpp:77] Creating layer drop3
I0520 18:39:53.355276  2537 net.cpp:106] Creating Layer drop3
I0520 18:39:53.355285  2537 net.cpp:454] drop3 <- ip3
I0520 18:39:53.355298  2537 net.cpp:397] drop3 -> ip3 (in-place)
I0520 18:39:53.355337  2537 net.cpp:150] Setting up drop3
I0520 18:39:53.355350  2537 net.cpp:157] Top shape: 220 11 (2420)
I0520 18:39:53.355360  2537 net.cpp:165] Memory required for data: 347331600
I0520 18:39:53.355370  2537 layer_factory.hpp:77] Creating layer loss
I0520 18:39:53.355388  2537 net.cpp:106] Creating Layer loss
I0520 18:39:53.355398  2537 net.cpp:454] loss <- ip3
I0520 18:39:53.355409  2537 net.cpp:454] loss <- label
I0520 18:39:53.355422  2537 net.cpp:411] loss -> loss
I0520 18:39:53.355438  2537 layer_factory.hpp:77] Creating layer loss
…
I0520 18:39:53.357990  2537 solver.cpp:181] Creating test net (#0) specified by net file: /lustre/atlas/proj-shared/hep105/caffe_titan/caffe_workflow/logs_batch_size_test/batch_size_220_2016-05-20T11.20.40.815743.prototxt
I0520 18:39:53.358060  2537 net.cpp:322] The NetState phase (1) differed from the phase (0) specified by a rule in layer data_hdf5
I0520 18:39:53.358414  2537 net.cpp:49] Initializing net from parameters: 
name: "caffe_test_127x50_x_unshifted"
state {
  phase: TEST
}
layer {
  name: "data_hdf5"
  type: "HDF5Data"
  top: "data"
  top: "label"
  include {
    phase: TEST
  }
  hdf5_data_param {
    source: "/lustre/atlas/proj-shared/hep105/caffe_titan/minosmatch_nukecczdefs_127x50_x_unshifted_me1Bmc.testlist"
    batch_size: 220
  }
}
layer {
  name: "conv1"
  type: "Convolution"
  bottom: "data"
  top: "conv1"
  convolution_param {
    num_output: 12
    pad: 0
    stride: 1
    weight_filler {
      type: "xavier"
    }
    bias_filler {
      type: "constant"
    }
    kernel_h: 8
    kernel_w: 3
  }
}
layer {
  name: "relu1"
  type: "ReLU"
  bottom: "conv1"
  top: "conv1"
}
layer {
  name: "pool1"
  type: "Pooling"
  bottom: "conv1"
  top: "pool1"
  pooling_param {
    pool: MAX
    kernel_h: 2
    kernel_w: 1
    stride_h: 2
    stride_w: 1
  }
}
layer {
  name: "conv2"
  type: "Convolution"
  bottom: "pool1"
  top: "conv2"
  convolution_param {
    num_output: 20
    pad: 0
    stride: 1
    weight_filler {
      type: "xavier"
    }
    bias_filler {
      type: "constant"
    }
    kernel_h: 7
    kernel_w: 3
  }
}
layer {
  name: "relu2"
  type: "ReLU"
  bottom: "conv2"
  top: "conv2"
}
layer {
  name: "pool2"
  type: "Pooling"
  bottom: "conv2"
  top: "pool2"
  pooling_param {
    pool: MAX
    kernel_h: 2
    kernel_w: 1
    stride_h: 2
    stride_w: 1
  }
}
layer {
  name: "conv3"
  type: "Convolution"
  bottom: "pool2"
  top: "conv3"
  convolution_param {
    num_output: 28
    pad: 0
    stride: 1
    weight_filler {
      type: "xavier"
    }
    bias_filler {
      type: "constant"
    }
    kernel_h: 6
    kernel_w: 3
  }
}
layer {
  name: "relu3"
  type: "ReLU"
  bottom: "conv3"
  top: "conv3"
}
layer {
  name: "pool3"
  type: "Pooling"
  bottom: "conv3"
  top: "pool3"
  pooling_param {
    pool: MAX
    kernel_h: 2
    kernel_w: 1
    stride_h: 2
    stride_w: 1
  }
}
layer {
  name: "conv4"
  type: "Convolution"
  bottom: "pool3"
  top: "conv4"
  convolution_param {
    num_output: 36
    pad: 0
    stride: 1
    weight_filler {
      type: "xavier"
    }
    bias_filler {
      type: "constant"
    }
    kernel_h: 6
    kernel_w: 3
  }
}
layer {
  name: "relu4"
  type: "ReLU"
  bottom: "conv4"
  top: "conv4"
}
layer {
  name: "pool4"
  type: "Pooling"
  bottom: "conv4"
  top: "pool4"
  pooling_param {
    pool: MAX
    kernel_h: 2
    kernel_w: 1
    stride_h: 2
    stride_w: 1
  }
}
layer {
  name: "ip1"
  type: "InnerProduct"
  bottom: "pool4"
  top: "ip1"
  inner_product_param {
    num_output: 196
    weight_filler {
      type: "xavier"
    }
    bias_filler {
      type: "constant"
    }
  }
}
layer {
  name: "relu5"
  type: "ReLU"
  bottom: "ip1"
  top: "ip1"
}
layer {
  name: "drop1"
  type: "Dropout"
  bottom: "ip1"
  top: "ip1"
  dropout_param {
    dropout_ratio: 0.5
  }
}
layer {
  name: "ip2"
  type: "InnerProduct"
  bottom: "ip1"
  top: "ip2"
  inner_product_param {
    num_output: 98
    weight_filler {
      type: "xavier"
    }
    bias_filler {
      type: "constant"
    }
  }
}
layer {
  name: "relu6"
  type: "ReLU"
  bottom: "ip2"
  top: "ip2"
}
layer {
  name: "drop2"
  type: "Dropout"
  bottom: "ip2"
  top: "ip2"
  dropout_param {
    dropout_ratio: 0.5
  }
}
layer {
  name: "ip3"
  type: "InnerProduct"
  bottom: "ip2"
  top: "ip3"
  inner_product_param {
    num_output: 11
    weight_filler {
      type: "xavier"
    }
    bias_filler {
      type: "constant"
    }
  }
}
layer {
  name: "drop3"
  type: "Dropout"
  bottom: "ip3"
  top: "ip3"
  dropout_param {
    dropout_ratio: 0.5
  }
}
layer {
  name: "accuracy"
  type: "Accuracy"
  bottom: "ip3"
  bottom: "label"
  top: "accuracy"
  include {
    phase: TEST
  }
}
layer {
  name: "loss"
  type: "SoftmaxWithLoss"
  bottom: "ip3"
  bottom: "label"
  top: "loss"
}
I0520 18:39:53.358603  2537 layer_factory.hpp:77] Creating layer data_hdf5
I0520 18:39:53.358618  2537 net.cpp:106] Creating Layer data_hdf5
I0520 18:39:53.358629  2537 net.cpp:411] data_hdf5 -> data
I0520 18:39:53.358659  2537 net.cpp:411] data_hdf5 -> label
I0520 18:39:53.358675  2537 hdf5_data_layer.cpp:79] Loading list of HDF5 filenames from: /lustre/atlas/proj-shared/hep105/caffe_titan/minosmatch_nukecczdefs_127x50_x_unshifted_me1Bmc.testlist
I0520 18:39:53.359827  2537 hdf5_data_layer.cpp:93] Number of HDF5 files: 3
I0520 18:40:14.683305  2537 net.cpp:150] Setting up data_hdf5
I0520 18:40:14.683470  2537 net.cpp:157] Top shape: 220 1 127 50 (1397000)
I0520 18:40:14.683485  2537 net.cpp:157] Top shape: 220 (220)
I0520 18:40:14.683495  2537 net.cpp:165] Memory required for data: 5588880
I0520 18:40:14.683508  2537 layer_factory.hpp:77] Creating layer label_data_hdf5_1_split
I0520 18:40:14.683537  2537 net.cpp:106] Creating Layer label_data_hdf5_1_split
I0520 18:40:14.683547  2537 net.cpp:454] label_data_hdf5_1_split <- label
I0520 18:40:14.683562  2537 net.cpp:411] label_data_hdf5_1_split -> label_data_hdf5_1_split_0
I0520 18:40:14.683584  2537 net.cpp:411] label_data_hdf5_1_split -> label_data_hdf5_1_split_1
I0520 18:40:14.683656  2537 net.cpp:150] Setting up label_data_hdf5_1_split
I0520 18:40:14.683670  2537 net.cpp:157] Top shape: 220 (220)
I0520 18:40:14.683681  2537 net.cpp:157] Top shape: 220 (220)
I0520 18:40:14.683691  2537 net.cpp:165] Memory required for data: 5590640
I0520 18:40:14.683702  2537 layer_factory.hpp:77] Creating layer conv1
I0520 18:40:14.683724  2537 net.cpp:106] Creating Layer conv1
I0520 18:40:14.683734  2537 net.cpp:454] conv1 <- data
I0520 18:40:14.683749  2537 net.cpp:411] conv1 -> conv1
I0520 18:40:14.685668  2537 net.cpp:150] Setting up conv1
I0520 18:40:14.685693  2537 net.cpp:157] Top shape: 220 12 120 48 (15206400)
I0520 18:40:14.685704  2537 net.cpp:165] Memory required for data: 66416240
I0520 18:40:14.685725  2537 layer_factory.hpp:77] Creating layer relu1
I0520 18:40:14.685741  2537 net.cpp:106] Creating Layer relu1
I0520 18:40:14.685750  2537 net.cpp:454] relu1 <- conv1
I0520 18:40:14.685763  2537 net.cpp:397] relu1 -> conv1 (in-place)
I0520 18:40:14.686262  2537 net.cpp:150] Setting up relu1
I0520 18:40:14.686278  2537 net.cpp:157] Top shape: 220 12 120 48 (15206400)
I0520 18:40:14.686290  2537 net.cpp:165] Memory required for data: 127241840
I0520 18:40:14.686300  2537 layer_factory.hpp:77] Creating layer pool1
I0520 18:40:14.686316  2537 net.cpp:106] Creating Layer pool1
I0520 18:40:14.686326  2537 net.cpp:454] pool1 <- conv1
I0520 18:40:14.686338  2537 net.cpp:411] pool1 -> pool1
I0520 18:40:14.686414  2537 net.cpp:150] Setting up pool1
I0520 18:40:14.686426  2537 net.cpp:157] Top shape: 220 12 60 48 (7603200)
I0520 18:40:14.686436  2537 net.cpp:165] Memory required for data: 157654640
I0520 18:40:14.686446  2537 layer_factory.hpp:77] Creating layer conv2
I0520 18:40:14.686465  2537 net.cpp:106] Creating Layer conv2
I0520 18:40:14.686475  2537 net.cpp:454] conv2 <- pool1
I0520 18:40:14.686488  2537 net.cpp:411] conv2 -> conv2
I0520 18:40:14.688411  2537 net.cpp:150] Setting up conv2
I0520 18:40:14.688434  2537 net.cpp:157] Top shape: 220 20 54 46 (10929600)
I0520 18:40:14.688446  2537 net.cpp:165] Memory required for data: 201373040
I0520 18:40:14.688463  2537 layer_factory.hpp:77] Creating layer relu2
I0520 18:40:14.688477  2537 net.cpp:106] Creating Layer relu2
I0520 18:40:14.688488  2537 net.cpp:454] relu2 <- conv2
I0520 18:40:14.688499  2537 net.cpp:397] relu2 -> conv2 (in-place)
I0520 18:40:14.688832  2537 net.cpp:150] Setting up relu2
I0520 18:40:14.688846  2537 net.cpp:157] Top shape: 220 20 54 46 (10929600)
I0520 18:40:14.688856  2537 net.cpp:165] Memory required for data: 245091440
I0520 18:40:14.688866  2537 layer_factory.hpp:77] Creating layer pool2
I0520 18:40:14.688879  2537 net.cpp:106] Creating Layer pool2
I0520 18:40:14.688889  2537 net.cpp:454] pool2 <- conv2
I0520 18:40:14.688901  2537 net.cpp:411] pool2 -> pool2
I0520 18:40:14.688972  2537 net.cpp:150] Setting up pool2
I0520 18:40:14.688985  2537 net.cpp:157] Top shape: 220 20 27 46 (5464800)
I0520 18:40:14.688995  2537 net.cpp:165] Memory required for data: 266950640
I0520 18:40:14.689005  2537 layer_factory.hpp:77] Creating layer conv3
I0520 18:40:14.689023  2537 net.cpp:106] Creating Layer conv3
I0520 18:40:14.689033  2537 net.cpp:454] conv3 <- pool2
I0520 18:40:14.689046  2537 net.cpp:411] conv3 -> conv3
I0520 18:40:14.691016  2537 net.cpp:150] Setting up conv3
I0520 18:40:14.691040  2537 net.cpp:157] Top shape: 220 28 22 44 (5962880)
I0520 18:40:14.691051  2537 net.cpp:165] Memory required for data: 290802160
I0520 18:40:14.691084  2537 layer_factory.hpp:77] Creating layer relu3
I0520 18:40:14.691098  2537 net.cpp:106] Creating Layer relu3
I0520 18:40:14.691108  2537 net.cpp:454] relu3 <- conv3
I0520 18:40:14.691121  2537 net.cpp:397] relu3 -> conv3 (in-place)
I0520 18:40:14.691593  2537 net.cpp:150] Setting up relu3
I0520 18:40:14.691609  2537 net.cpp:157] Top shape: 220 28 22 44 (5962880)
I0520 18:40:14.691619  2537 net.cpp:165] Memory required for data: 314653680
I0520 18:40:14.691630  2537 layer_factory.hpp:77] Creating layer pool3
I0520 18:40:14.691643  2537 net.cpp:106] Creating Layer pool3
I0520 18:40:14.691653  2537 net.cpp:454] pool3 <- conv3
I0520 18:40:14.691665  2537 net.cpp:411] pool3 -> pool3
I0520 18:40:14.691737  2537 net.cpp:150] Setting up pool3
I0520 18:40:14.691751  2537 net.cpp:157] Top shape: 220 28 11 44 (2981440)
I0520 18:40:14.691761  2537 net.cpp:165] Memory required for data: 326579440
I0520 18:40:14.691768  2537 layer_factory.hpp:77] Creating layer conv4
I0520 18:40:14.691787  2537 net.cpp:106] Creating Layer conv4
I0520 18:40:14.691797  2537 net.cpp:454] conv4 <- pool3
I0520 18:40:14.691812  2537 net.cpp:411] conv4 -> conv4
I0520 18:40:14.693872  2537 net.cpp:150] Setting up conv4
I0520 18:40:14.693895  2537 net.cpp:157] Top shape: 220 36 6 42 (1995840)
I0520 18:40:14.693907  2537 net.cpp:165] Memory required for data: 334562800
I0520 18:40:14.693922  2537 layer_factory.hpp:77] Creating layer relu4
I0520 18:40:14.693936  2537 net.cpp:106] Creating Layer relu4
I0520 18:40:14.693946  2537 net.cpp:454] relu4 <- conv4
I0520 18:40:14.693959  2537 net.cpp:397] relu4 -> conv4 (in-place)
I0520 18:40:14.694427  2537 net.cpp:150] Setting up relu4
I0520 18:40:14.694443  2537 net.cpp:157] Top shape: 220 36 6 42 (1995840)
I0520 18:40:14.694453  2537 net.cpp:165] Memory required for data: 342546160
I0520 18:40:14.694463  2537 layer_factory.hpp:77] Creating layer pool4
I0520 18:40:14.694476  2537 net.cpp:106] Creating Layer pool4
I0520 18:40:14.694486  2537 net.cpp:454] pool4 <- conv4
I0520 18:40:14.694499  2537 net.cpp:411] pool4 -> pool4
I0520 18:40:14.694571  2537 net.cpp:150] Setting up pool4
I0520 18:40:14.694584  2537 net.cpp:157] Top shape: 220 36 3 42 (997920)
I0520 18:40:14.694594  2537 net.cpp:165] Memory required for data: 346537840
I0520 18:40:14.694602  2537 layer_factory.hpp:77] Creating layer ip1
I0520 18:40:14.694617  2537 net.cpp:106] Creating Layer ip1
I0520 18:40:14.694628  2537 net.cpp:454] ip1 <- pool4
I0520 18:40:14.694648  2537 net.cpp:411] ip1 -> ip1
I0520 18:40:14.710108  2537 net.cpp:150] Setting up ip1
I0520 18:40:14.710136  2537 net.cpp:157] Top shape: 220 196 (43120)
I0520 18:40:14.710147  2537 net.cpp:165] Memory required for data: 346710320
I0520 18:40:14.710170  2537 layer_factory.hpp:77] Creating layer relu5
I0520 18:40:14.710185  2537 net.cpp:106] Creating Layer relu5
I0520 18:40:14.710196  2537 net.cpp:454] relu5 <- ip1
I0520 18:40:14.710208  2537 net.cpp:397] relu5 -> ip1 (in-place)
I0520 18:40:14.710556  2537 net.cpp:150] Setting up relu5
I0520 18:40:14.710571  2537 net.cpp:157] Top shape: 220 196 (43120)
I0520 18:40:14.710580  2537 net.cpp:165] Memory required for data: 346882800
I0520 18:40:14.710590  2537 layer_factory.hpp:77] Creating layer drop1
I0520 18:40:14.710609  2537 net.cpp:106] Creating Layer drop1
I0520 18:40:14.710619  2537 net.cpp:454] drop1 <- ip1
I0520 18:40:14.710633  2537 net.cpp:397] drop1 -> ip1 (in-place)
I0520 18:40:14.710685  2537 net.cpp:150] Setting up drop1
I0520 18:40:14.710700  2537 net.cpp:157] Top shape: 220 196 (43120)
I0520 18:40:14.710708  2537 net.cpp:165] Memory required for data: 347055280
I0520 18:40:14.710718  2537 layer_factory.hpp:77] Creating layer ip2
I0520 18:40:14.710733  2537 net.cpp:106] Creating Layer ip2
I0520 18:40:14.710743  2537 net.cpp:454] ip2 <- ip1
I0520 18:40:14.710757  2537 net.cpp:411] ip2 -> ip2
I0520 18:40:14.711237  2537 net.cpp:150] Setting up ip2
I0520 18:40:14.711251  2537 net.cpp:157] Top shape: 220 98 (21560)
I0520 18:40:14.711262  2537 net.cpp:165] Memory required for data: 347141520
I0520 18:40:14.711290  2537 layer_factory.hpp:77] Creating layer relu6
I0520 18:40:14.711303  2537 net.cpp:106] Creating Layer relu6
I0520 18:40:14.711313  2537 net.cpp:454] relu6 <- ip2
I0520 18:40:14.711326  2537 net.cpp:397] relu6 -> ip2 (in-place)
I0520 18:40:14.711858  2537 net.cpp:150] Setting up relu6
I0520 18:40:14.711879  2537 net.cpp:157] Top shape: 220 98 (21560)
I0520 18:40:14.711889  2537 net.cpp:165] Memory required for data: 347227760
I0520 18:40:14.711899  2537 layer_factory.hpp:77] Creating layer drop2
I0520 18:40:14.711913  2537 net.cpp:106] Creating Layer drop2
I0520 18:40:14.711922  2537 net.cpp:454] drop2 <- ip2
I0520 18:40:14.711936  2537 net.cpp:397] drop2 -> ip2 (in-place)
I0520 18:40:14.711980  2537 net.cpp:150] Setting up drop2
I0520 18:40:14.711993  2537 net.cpp:157] Top shape: 220 98 (21560)
I0520 18:40:14.712003  2537 net.cpp:165] Memory required for data: 347314000
I0520 18:40:14.712013  2537 layer_factory.hpp:77] Creating layer ip3
I0520 18:40:14.712028  2537 net.cpp:106] Creating Layer ip3
I0520 18:40:14.712038  2537 net.cpp:454] ip3 <- ip2
I0520 18:40:14.712050  2537 net.cpp:411] ip3 -> ip3
I0520 18:40:14.712275  2537 net.cpp:150] Setting up ip3
I0520 18:40:14.712287  2537 net.cpp:157] Top shape: 220 11 (2420)
I0520 18:40:14.712298  2537 net.cpp:165] Memory required for data: 347323680
I0520 18:40:14.712313  2537 layer_factory.hpp:77] Creating layer drop3
I0520 18:40:14.712327  2537 net.cpp:106] Creating Layer drop3
I0520 18:40:14.712337  2537 net.cpp:454] drop3 <- ip3
I0520 18:40:14.712348  2537 net.cpp:397] drop3 -> ip3 (in-place)
I0520 18:40:14.712390  2537 net.cpp:150] Setting up drop3
I0520 18:40:14.712402  2537 net.cpp:157] Top shape: 220 11 (2420)
I0520 18:40:14.712412  2537 net.cpp:165] Memory required for data: 347333360
I0520 18:40:14.712422  2537 layer_factory.hpp:77] Creating layer ip3_drop3_0_split
I0520 18:40:14.712435  2537 net.cpp:106] Creating Layer ip3_drop3_0_split
I0520 18:40:14.712445  2537 net.cpp:454] ip3_drop3_0_split <- ip3
I0520 18:40:14.712457  2537 net.cpp:411] ip3_drop3_0_split -> ip3_drop3_0_split_0
I0520 18:40:14.712472  2537 net.cpp:411] ip3_drop3_0_split -> ip3_drop3_0_split_1
I0520 18:40:14.712546  2537 net.cpp:150] Setting up ip3_drop3_0_split
I0520 18:40:14.712559  2537 net.cpp:157] Top shape: 220 11 (2420)
I0520 18:40:14.712571  2537 net.cpp:157] Top shape: 220 11 (2420)
I0520 18:40:14.712581  2537 net.cpp:165] Memory required for data: 347352720
I0520 18:40:14.712592  2537 layer_factory.hpp:77] Creating layer accuracy
I0520 18:40:14.712613  2537 net.cpp:106] Creating Layer accuracy
I0520 18:40:14.712623  2537 net.cpp:454] accuracy <- ip3_drop3_0_split_0
I0520 18:40:14.712635  2537 net.cpp:454] accuracy <- label_data_hdf5_1_split_0
I0520 18:40:14.712648  2537 net.cpp:411] accuracy -> accuracy
…
