…
I0521 09:30:16.552386 15410 net.cpp:322] The NetState phase (0) differed from the phase (1) specified by a rule in layer data_hdf5
I0521 09:30:16.552445 15410 net.cpp:322] The NetState phase (0) differed from the phase (1) specified by a rule in layer accuracy
I0521 09:30:16.552799 15410 net.cpp:49] Initializing net from parameters: 
name: "caffe_test_127x50_x_unshifted"
state {
  phase: TRAIN
}
layer {
  name: "data_hdf5"
  type: "HDF5Data"
  top: "data"
  top: "label"
  include {
    phase: TRAIN
  }
  hdf5_data_param {
    source: "/lustre/atlas/proj-shared/hep105/caffe_titan/minosmatch_nukecczdefs_127x50_x_unshifted_me1Bmc.trainlist"
    batch_size: 900
  }
}
layer {
  name: "conv1"
  type: "Convolution"
  bottom: "data"
  top: "conv1"
  convolution_param {
    num_output: 12
    pad: 0
    stride: 1
    weight_filler {
      type: "xavier"
    }
    bias_filler {
      type: "constant"
    }
    kernel_h: 8
    kernel_w: 3
  }
}
layer {
  name: "relu1"
  type: "ReLU"
  bottom: "conv1"
  top: "conv1"
}
layer {
  name: "pool1"
  type: "Pooling"
  bottom: "conv1"
  top: "pool1"
  pooling_param {
    pool: MAX
    kernel_h: 2
    kernel_w: 1
    stride_h: 2
    stride_w: 1
  }
}
layer {
  name: "conv2"
  type: "Convolution"
  bottom: "pool1"
  top: "conv2"
  convolution_param {
    num_output: 20
    pad: 0
    stride: 1
    weight_filler {
      type: "xavier"
    }
    bias_filler {
      type: "constant"
    }
    kernel_h: 7
    kernel_w: 3
  }
}
layer {
  name: "relu2"
  type: "ReLU"
  bottom: "conv2"
  top: "conv2"
}
layer {
  name: "pool2"
  type: "Pooling"
  bottom: "conv2"
  top: "pool2"
  pooling_param {
    pool: MAX
    kernel_h: 2
    kernel_w: 1
    stride_h: 2
    stride_w: 1
  }
}
layer {
  name: "conv3"
  type: "Convolution"
  bottom: "pool2"
  top: "conv3"
  convolution_param {
    num_output: 28
    pad: 0
    stride: 1
    weight_filler {
      type: "xavier"
    }
    bias_filler {
      type: "constant"
    }
    kernel_h: 6
    kernel_w: 3
  }
}
layer {
  name: "relu3"
  type: "ReLU"
  bottom: "conv3"
  top: "conv3"
}
layer {
  name: "pool3"
  type: "Pooling"
  bottom: "conv3"
  top: "pool3"
  pooling_param {
    pool: MAX
    kernel_h: 2
    kernel_w: 1
    stride_h: 2
    stride_w: 1
  }
}
layer {
  name: "conv4"
  type: "Convolution"
  bottom: "pool3"
  top: "conv4"
  convolution_param {
    num_output: 36
    pad: 0
    stride: 1
    weight_filler {
      type: "xavier"
    }
    bias_filler {
      type: "constant"
    }
    kernel_h: 6
    kernel_w: 3
  }
}
layer {
  name: "relu4"
  type: "ReLU"
  bottom: "conv4"
  top: "conv4"
}
layer {
  name: "pool4"
  type: "Pooling"
  bottom: "conv4"
  top: "pool4"
  pooling_param {
    pool: MAX
    kernel_h: 2
    kernel_w: 1
    stride_h: 2
    stride_w: 1
  }
}
layer {
  name: "ip1"
  type: "InnerProduct"
  bottom: "pool4"
  top: "ip1"
  inner_product_param {
    num_output: 196
    weight_filler {
      type: "xavier"
    }
    bias_filler {
      type: "constant"
    }
  }
}
layer {
  name: "relu5"
  type: "ReLU"
  bottom: "ip1"
  top: "ip1"
}
layer {
  name: "drop1"
  type: "Dropout"
  bottom: "ip1"
  top: "ip1"
  dropout_param {
    dropout_ratio: 0.5
  }
}
layer {
  name: "ip2"
  type: "InnerProduct"
  bottom: "ip1"
  top: "ip2"
  inner_product_param {
    num_output: 98
    weight_filler {
      type: "xavier"
    }
    bias_filler {
      type: "constant"
    }
  }
}
layer {
  name: "relu6"
  type: "ReLU"
  bottom: "ip2"
  top: "ip2"
}
layer {
  name: "drop2"
  type: "Dropout"
  bottom: "ip2"
  top: "ip2"
  dropout_param {
    dropout_ratio: 0.5
  }
}
layer {
  name: "ip3"
  type: "InnerProduct"
  bottom: "ip2"
  top: "ip3"
  inner_product_param {
    num_output: 11
    weight_filler {
      type: "xavier"
    }
    bias_filler {
      type: "constant"
    }
  }
}
layer {
  name: "drop3"
  type: "Dropout"
  bottom: "ip3"
  top: "ip3"
  dropout_param {
    dropout_ratio: 0.5
  }
}
layer {
  name: "loss"
  type: "SoftmaxWithLoss"
  bottom: "ip3"
  bottom: "label"
  top: "loss"
}
I0521 09:30:16.552983 15410 layer_factory.hpp:77] Creating layer data_hdf5
I0521 09:30:16.553006 15410 net.cpp:106] Creating Layer data_hdf5
I0521 09:30:16.553020 15410 net.cpp:411] data_hdf5 -> data
I0521 09:30:16.553053 15410 net.cpp:411] data_hdf5 -> label
I0521 09:30:16.553086 15410 hdf5_data_layer.cpp:79] Loading list of HDF5 filenames from: /lustre/atlas/proj-shared/hep105/caffe_titan/minosmatch_nukecczdefs_127x50_x_unshifted_me1Bmc.trainlist
I0521 09:30:16.554261 15410 hdf5_data_layer.cpp:93] Number of HDF5 files: 15
I0521 09:30:16.556483 15410 hdf5.cpp:32] Datatype class: H5T_FLOAT
I0521 09:30:38.055934 15410 hdf5.cpp:35] Datatype class: H5T_INTEGER
I0521 09:30:38.061048 15410 net.cpp:150] Setting up data_hdf5
I0521 09:30:38.061089 15410 net.cpp:157] Top shape: 900 1 127 50 (5715000)
I0521 09:30:38.061102 15410 net.cpp:157] Top shape: 900 (900)
I0521 09:30:38.061116 15410 net.cpp:165] Memory required for data: 22863600
I0521 09:30:38.061130 15410 layer_factory.hpp:77] Creating layer conv1
I0521 09:30:38.061163 15410 net.cpp:106] Creating Layer conv1
I0521 09:30:38.061174 15410 net.cpp:454] conv1 <- data
I0521 09:30:38.061197 15410 net.cpp:411] conv1 -> conv1
I0521 09:30:38.423027 15410 net.cpp:150] Setting up conv1
I0521 09:30:38.423074 15410 net.cpp:157] Top shape: 900 12 120 48 (62208000)
I0521 09:30:38.423084 15410 net.cpp:165] Memory required for data: 271695600
I0521 09:30:38.423113 15410 layer_factory.hpp:77] Creating layer relu1
I0521 09:30:38.423133 15410 net.cpp:106] Creating Layer relu1
I0521 09:30:38.423146 15410 net.cpp:454] relu1 <- conv1
I0521 09:30:38.423158 15410 net.cpp:397] relu1 -> conv1 (in-place)
I0521 09:30:38.423669 15410 net.cpp:150] Setting up relu1
I0521 09:30:38.423686 15410 net.cpp:157] Top shape: 900 12 120 48 (62208000)
I0521 09:30:38.423696 15410 net.cpp:165] Memory required for data: 520527600
I0521 09:30:38.423708 15410 layer_factory.hpp:77] Creating layer pool1
I0521 09:30:38.423724 15410 net.cpp:106] Creating Layer pool1
I0521 09:30:38.423734 15410 net.cpp:454] pool1 <- conv1
I0521 09:30:38.423748 15410 net.cpp:411] pool1 -> pool1
I0521 09:30:38.423827 15410 net.cpp:150] Setting up pool1
I0521 09:30:38.423841 15410 net.cpp:157] Top shape: 900 12 60 48 (31104000)
I0521 09:30:38.423851 15410 net.cpp:165] Memory required for data: 644943600
I0521 09:30:38.423861 15410 layer_factory.hpp:77] Creating layer conv2
I0521 09:30:38.423883 15410 net.cpp:106] Creating Layer conv2
I0521 09:30:38.423894 15410 net.cpp:454] conv2 <- pool1
I0521 09:30:38.423908 15410 net.cpp:411] conv2 -> conv2
I0521 09:30:38.426599 15410 net.cpp:150] Setting up conv2
I0521 09:30:38.426621 15410 net.cpp:157] Top shape: 900 20 54 46 (44712000)
I0521 09:30:38.426631 15410 net.cpp:165] Memory required for data: 823791600
I0521 09:30:38.426651 15410 layer_factory.hpp:77] Creating layer relu2
I0521 09:30:38.426666 15410 net.cpp:106] Creating Layer relu2
I0521 09:30:38.426676 15410 net.cpp:454] relu2 <- conv2
I0521 09:30:38.426688 15410 net.cpp:397] relu2 -> conv2 (in-place)
I0521 09:30:38.427019 15410 net.cpp:150] Setting up relu2
I0521 09:30:38.427034 15410 net.cpp:157] Top shape: 900 20 54 46 (44712000)
I0521 09:30:38.427044 15410 net.cpp:165] Memory required for data: 1002639600
I0521 09:30:38.427054 15410 layer_factory.hpp:77] Creating layer pool2
I0521 09:30:38.427067 15410 net.cpp:106] Creating Layer pool2
I0521 09:30:38.427076 15410 net.cpp:454] pool2 <- conv2
I0521 09:30:38.427103 15410 net.cpp:411] pool2 -> pool2
I0521 09:30:38.427171 15410 net.cpp:150] Setting up pool2
I0521 09:30:38.427186 15410 net.cpp:157] Top shape: 900 20 27 46 (22356000)
I0521 09:30:38.427194 15410 net.cpp:165] Memory required for data: 1092063600
I0521 09:30:38.427204 15410 layer_factory.hpp:77] Creating layer conv3
I0521 09:30:38.427222 15410 net.cpp:106] Creating Layer conv3
I0521 09:30:38.427233 15410 net.cpp:454] conv3 <- pool2
I0521 09:30:38.427248 15410 net.cpp:411] conv3 -> conv3
I0521 09:30:38.429168 15410 net.cpp:150] Setting up conv3
I0521 09:30:38.429191 15410 net.cpp:157] Top shape: 900 28 22 44 (24393600)
I0521 09:30:38.429203 15410 net.cpp:165] Memory required for data: 1189638000
I0521 09:30:38.429222 15410 layer_factory.hpp:77] Creating layer relu3
I0521 09:30:38.429239 15410 net.cpp:106] Creating Layer relu3
I0521 09:30:38.429249 15410 net.cpp:454] relu3 <- conv3
I0521 09:30:38.429261 15410 net.cpp:397] relu3 -> conv3 (in-place)
I0521 09:30:38.429731 15410 net.cpp:150] Setting up relu3
I0521 09:30:38.429749 15410 net.cpp:157] Top shape: 900 28 22 44 (24393600)
I0521 09:30:38.429759 15410 net.cpp:165] Memory required for data: 1287212400
I0521 09:30:38.429769 15410 layer_factory.hpp:77] Creating layer pool3
I0521 09:30:38.429781 15410 net.cpp:106] Creating Layer pool3
I0521 09:30:38.429791 15410 net.cpp:454] pool3 <- conv3
I0521 09:30:38.429803 15410 net.cpp:411] pool3 -> pool3
I0521 09:30:38.429872 15410 net.cpp:150] Setting up pool3
I0521 09:30:38.429884 15410 net.cpp:157] Top shape: 900 28 11 44 (12196800)
I0521 09:30:38.429894 15410 net.cpp:165] Memory required for data: 1335999600
I0521 09:30:38.429903 15410 layer_factory.hpp:77] Creating layer conv4
I0521 09:30:38.429919 15410 net.cpp:106] Creating Layer conv4
I0521 09:30:38.429930 15410 net.cpp:454] conv4 <- pool3
I0521 09:30:38.429944 15410 net.cpp:411] conv4 -> conv4
I0521 09:30:38.432673 15410 net.cpp:150] Setting up conv4
I0521 09:30:38.432701 15410 net.cpp:157] Top shape: 900 36 6 42 (8164800)
I0521 09:30:38.432713 15410 net.cpp:165] Memory required for data: 1368658800
I0521 09:30:38.432728 15410 layer_factory.hpp:77] Creating layer relu4
I0521 09:30:38.432741 15410 net.cpp:106] Creating Layer relu4
I0521 09:30:38.432751 15410 net.cpp:454] relu4 <- conv4
I0521 09:30:38.432765 15410 net.cpp:397] relu4 -> conv4 (in-place)
I0521 09:30:38.433233 15410 net.cpp:150] Setting up relu4
I0521 09:30:38.433249 15410 net.cpp:157] Top shape: 900 36 6 42 (8164800)
I0521 09:30:38.433260 15410 net.cpp:165] Memory required for data: 1401318000
I0521 09:30:38.433270 15410 layer_factory.hpp:77] Creating layer pool4
I0521 09:30:38.433284 15410 net.cpp:106] Creating Layer pool4
I0521 09:30:38.433293 15410 net.cpp:454] pool4 <- conv4
I0521 09:30:38.433306 15410 net.cpp:411] pool4 -> pool4
I0521 09:30:38.433373 15410 net.cpp:150] Setting up pool4
I0521 09:30:38.433387 15410 net.cpp:157] Top shape: 900 36 3 42 (4082400)
I0521 09:30:38.433398 15410 net.cpp:165] Memory required for data: 1417647600
I0521 09:30:38.433408 15410 layer_factory.hpp:77] Creating layer ip1
I0521 09:30:38.433425 15410 net.cpp:106] Creating Layer ip1
I0521 09:30:38.433436 15410 net.cpp:454] ip1 <- pool4
I0521 09:30:38.433449 15410 net.cpp:411] ip1 -> ip1
I0521 09:30:38.448878 15410 net.cpp:150] Setting up ip1
I0521 09:30:38.448906 15410 net.cpp:157] Top shape: 900 196 (176400)
I0521 09:30:38.448918 15410 net.cpp:165] Memory required for data: 1418353200
I0521 09:30:38.448940 15410 layer_factory.hpp:77] Creating layer relu5
I0521 09:30:38.448956 15410 net.cpp:106] Creating Layer relu5
I0521 09:30:38.448966 15410 net.cpp:454] relu5 <- ip1
I0521 09:30:38.448979 15410 net.cpp:397] relu5 -> ip1 (in-place)
I0521 09:30:38.449321 15410 net.cpp:150] Setting up relu5
I0521 09:30:38.449334 15410 net.cpp:157] Top shape: 900 196 (176400)
I0521 09:30:38.449344 15410 net.cpp:165] Memory required for data: 1419058800
I0521 09:30:38.449355 15410 layer_factory.hpp:77] Creating layer drop1
I0521 09:30:38.449376 15410 net.cpp:106] Creating Layer drop1
I0521 09:30:38.449386 15410 net.cpp:454] drop1 <- ip1
I0521 09:30:38.449411 15410 net.cpp:397] drop1 -> ip1 (in-place)
I0521 09:30:38.449457 15410 net.cpp:150] Setting up drop1
I0521 09:30:38.449471 15410 net.cpp:157] Top shape: 900 196 (176400)
I0521 09:30:38.449481 15410 net.cpp:165] Memory required for data: 1419764400
I0521 09:30:38.449491 15410 layer_factory.hpp:77] Creating layer ip2
I0521 09:30:38.449511 15410 net.cpp:106] Creating Layer ip2
I0521 09:30:38.449522 15410 net.cpp:454] ip2 <- ip1
I0521 09:30:38.449534 15410 net.cpp:411] ip2 -> ip2
I0521 09:30:38.449998 15410 net.cpp:150] Setting up ip2
I0521 09:30:38.450011 15410 net.cpp:157] Top shape: 900 98 (88200)
I0521 09:30:38.450021 15410 net.cpp:165] Memory required for data: 1420117200
I0521 09:30:38.450037 15410 layer_factory.hpp:77] Creating layer relu6
I0521 09:30:38.450053 15410 net.cpp:106] Creating Layer relu6
I0521 09:30:38.450063 15410 net.cpp:454] relu6 <- ip2
I0521 09:30:38.450075 15410 net.cpp:397] relu6 -> ip2 (in-place)
I0521 09:30:38.450590 15410 net.cpp:150] Setting up relu6
I0521 09:30:38.450606 15410 net.cpp:157] Top shape: 900 98 (88200)
I0521 09:30:38.450618 15410 net.cpp:165] Memory required for data: 1420470000
I0521 09:30:38.450628 15410 layer_factory.hpp:77] Creating layer drop2
I0521 09:30:38.450640 15410 net.cpp:106] Creating Layer drop2
I0521 09:30:38.450650 15410 net.cpp:454] drop2 <- ip2
I0521 09:30:38.450664 15410 net.cpp:397] drop2 -> ip2 (in-place)
I0521 09:30:38.450705 15410 net.cpp:150] Setting up drop2
I0521 09:30:38.450718 15410 net.cpp:157] Top shape: 900 98 (88200)
I0521 09:30:38.450728 15410 net.cpp:165] Memory required for data: 1420822800
I0521 09:30:38.450738 15410 layer_factory.hpp:77] Creating layer ip3
I0521 09:30:38.450752 15410 net.cpp:106] Creating Layer ip3
I0521 09:30:38.450762 15410 net.cpp:454] ip3 <- ip2
I0521 09:30:38.450774 15410 net.cpp:411] ip3 -> ip3
I0521 09:30:38.450987 15410 net.cpp:150] Setting up ip3
I0521 09:30:38.451000 15410 net.cpp:157] Top shape: 900 11 (9900)
I0521 09:30:38.451010 15410 net.cpp:165] Memory required for data: 1420862400
I0521 09:30:38.451025 15410 layer_factory.hpp:77] Creating layer drop3
I0521 09:30:38.451037 15410 net.cpp:106] Creating Layer drop3
I0521 09:30:38.451047 15410 net.cpp:454] drop3 <- ip3
I0521 09:30:38.451058 15410 net.cpp:397] drop3 -> ip3 (in-place)
I0521 09:30:38.451097 15410 net.cpp:150] Setting up drop3
I0521 09:30:38.451110 15410 net.cpp:157] Top shape: 900 11 (9900)
I0521 09:30:38.451120 15410 net.cpp:165] Memory required for data: 1420902000
I0521 09:30:38.451129 15410 layer_factory.hpp:77] Creating layer loss
I0521 09:30:38.451148 15410 net.cpp:106] Creating Layer loss
I0521 09:30:38.451159 15410 net.cpp:454] loss <- ip3
I0521 09:30:38.451169 15410 net.cpp:454] loss <- label
I0521 09:30:38.451181 15410 net.cpp:411] loss -> loss
I0521 09:30:38.451200 15410 layer_factory.hpp:77] Creating layer loss
…
I0521 09:30:38.453776 15410 solver.cpp:181] Creating test net (#0) specified by net file: /lustre/atlas/proj-shared/hep105/caffe_titan/caffe_workflow/logs_batch_size_test/batch_size_900_2016-05-20T11.21.05.518644.prototxt
I0521 09:30:38.453847 15410 net.cpp:322] The NetState phase (1) differed from the phase (0) specified by a rule in layer data_hdf5
I0521 09:30:38.454200 15410 net.cpp:49] Initializing net from parameters: 
name: "caffe_test_127x50_x_unshifted"
state {
  phase: TEST
}
layer {
  name: "data_hdf5"
  type: "HDF5Data"
  top: "data"
  top: "label"
  include {
    phase: TEST
  }
  hdf5_data_param {
    source: "/lustre/atlas/proj-shared/hep105/caffe_titan/minosmatch_nukecczdefs_127x50_x_unshifted_me1Bmc.testlist"
    batch_size: 900
  }
}
layer {
  name: "conv1"
  type: "Convolution"
  bottom: "data"
  top: "conv1"
  convolution_param {
    num_output: 12
    pad: 0
    stride: 1
    weight_filler {
      type: "xavier"
    }
    bias_filler {
      type: "constant"
    }
    kernel_h: 8
    kernel_w: 3
  }
}
layer {
  name: "relu1"
  type: "ReLU"
  bottom: "conv1"
  top: "conv1"
}
layer {
  name: "pool1"
  type: "Pooling"
  bottom: "conv1"
  top: "pool1"
  pooling_param {
    pool: MAX
    kernel_h: 2
    kernel_w: 1
    stride_h: 2
    stride_w: 1
  }
}
layer {
  name: "conv2"
  type: "Convolution"
  bottom: "pool1"
  top: "conv2"
  convolution_param {
    num_output: 20
    pad: 0
    stride: 1
    weight_filler {
      type: "xavier"
    }
    bias_filler {
      type: "constant"
    }
    kernel_h: 7
    kernel_w: 3
  }
}
layer {
  name: "relu2"
  type: "ReLU"
  bottom: "conv2"
  top: "conv2"
}
layer {
  name: "pool2"
  type: "Pooling"
  bottom: "conv2"
  top: "pool2"
  pooling_param {
    pool: MAX
    kernel_h: 2
    kernel_w: 1
    stride_h: 2
    stride_w: 1
  }
}
layer {
  name: "conv3"
  type: "Convolution"
  bottom: "pool2"
  top: "conv3"
  convolution_param {
    num_output: 28
    pad: 0
    stride: 1
    weight_filler {
      type: "xavier"
    }
    bias_filler {
      type: "constant"
    }
    kernel_h: 6
    kernel_w: 3
  }
}
layer {
  name: "relu3"
  type: "ReLU"
  bottom: "conv3"
  top: "conv3"
}
layer {
  name: "pool3"
  type: "Pooling"
  bottom: "conv3"
  top: "pool3"
  pooling_param {
    pool: MAX
    kernel_h: 2
    kernel_w: 1
    stride_h: 2
    stride_w: 1
  }
}
layer {
  name: "conv4"
  type: "Convolution"
  bottom: "pool3"
  top: "conv4"
  convolution_param {
    num_output: 36
    pad: 0
    stride: 1
    weight_filler {
      type: "xavier"
    }
    bias_filler {
      type: "constant"
    }
    kernel_h: 6
    kernel_w: 3
  }
}
layer {
  name: "relu4"
  type: "ReLU"
  bottom: "conv4"
  top: "conv4"
}
layer {
  name: "pool4"
  type: "Pooling"
  bottom: "conv4"
  top: "pool4"
  pooling_param {
    pool: MAX
    kernel_h: 2
    kernel_w: 1
    stride_h: 2
    stride_w: 1
  }
}
layer {
  name: "ip1"
  type: "InnerProduct"
  bottom: "pool4"
  top: "ip1"
  inner_product_param {
    num_output: 196
    weight_filler {
      type: "xavier"
    }
    bias_filler {
      type: "constant"
    }
  }
}
layer {
  name: "relu5"
  type: "ReLU"
  bottom: "ip1"
  top: "ip1"
}
layer {
  name: "drop1"
  type: "Dropout"
  bottom: "ip1"
  top: "ip1"
  dropout_param {
    dropout_ratio: 0.5
  }
}
layer {
  name: "ip2"
  type: "InnerProduct"
  bottom: "ip1"
  top: "ip2"
  inner_product_param {
    num_output: 98
    weight_filler {
      type: "xavier"
    }
    bias_filler {
      type: "constant"
    }
  }
}
layer {
  name: "relu6"
  type: "ReLU"
  bottom: "ip2"
  top: "ip2"
}
layer {
  name: "drop2"
  type: "Dropout"
  bottom: "ip2"
  top: "ip2"
  dropout_param {
    dropout_ratio: 0.5
  }
}
layer {
  name: "ip3"
  type: "InnerProduct"
  bottom: "ip2"
  top: "ip3"
  inner_product_param {
    num_output: 11
    weight_filler {
      type: "xavier"
    }
    bias_filler {
      type: "constant"
    }
  }
}
layer {
  name: "drop3"
  type: "Dropout"
  bottom: "ip3"
  top: "ip3"
  dropout_param {
    dropout_ratio: 0.5
  }
}
layer {
  name: "accuracy"
  type: "Accuracy"
  bottom: "ip3"
  bottom: "label"
  top: "accuracy"
  include {
    phase: TEST
  }
}
layer {
  name: "loss"
  type: "SoftmaxWithLoss"
  bottom: "ip3"
  bottom: "label"
  top: "loss"
}
I0521 09:30:38.454390 15410 layer_factory.hpp:77] Creating layer data_hdf5
I0521 09:30:38.454404 15410 net.cpp:106] Creating Layer data_hdf5
I0521 09:30:38.454416 15410 net.cpp:411] data_hdf5 -> data
I0521 09:30:38.454432 15410 net.cpp:411] data_hdf5 -> label
I0521 09:30:38.454448 15410 hdf5_data_layer.cpp:79] Loading list of HDF5 filenames from: /lustre/atlas/proj-shared/hep105/caffe_titan/minosmatch_nukecczdefs_127x50_x_unshifted_me1Bmc.testlist
I0521 09:30:38.455793 15410 hdf5_data_layer.cpp:93] Number of HDF5 files: 3
I0521 09:30:59.766726 15410 net.cpp:150] Setting up data_hdf5
I0521 09:30:59.766888 15410 net.cpp:157] Top shape: 900 1 127 50 (5715000)
I0521 09:30:59.766902 15410 net.cpp:157] Top shape: 900 (900)
I0521 09:30:59.766914 15410 net.cpp:165] Memory required for data: 22863600
I0521 09:30:59.766927 15410 layer_factory.hpp:77] Creating layer label_data_hdf5_1_split
I0521 09:30:59.766957 15410 net.cpp:106] Creating Layer label_data_hdf5_1_split
I0521 09:30:59.766968 15410 net.cpp:454] label_data_hdf5_1_split <- label
I0521 09:30:59.766983 15410 net.cpp:411] label_data_hdf5_1_split -> label_data_hdf5_1_split_0
I0521 09:30:59.767004 15410 net.cpp:411] label_data_hdf5_1_split -> label_data_hdf5_1_split_1
I0521 09:30:59.767077 15410 net.cpp:150] Setting up label_data_hdf5_1_split
I0521 09:30:59.767091 15410 net.cpp:157] Top shape: 900 (900)
I0521 09:30:59.767102 15410 net.cpp:157] Top shape: 900 (900)
I0521 09:30:59.767112 15410 net.cpp:165] Memory required for data: 22870800
I0521 09:30:59.767122 15410 layer_factory.hpp:77] Creating layer conv1
I0521 09:30:59.767143 15410 net.cpp:106] Creating Layer conv1
I0521 09:30:59.767154 15410 net.cpp:454] conv1 <- data
I0521 09:30:59.767168 15410 net.cpp:411] conv1 -> conv1
I0521 09:30:59.769098 15410 net.cpp:150] Setting up conv1
I0521 09:30:59.769121 15410 net.cpp:157] Top shape: 900 12 120 48 (62208000)
I0521 09:30:59.769134 15410 net.cpp:165] Memory required for data: 271702800
I0521 09:30:59.769153 15410 layer_factory.hpp:77] Creating layer relu1
I0521 09:30:59.769168 15410 net.cpp:106] Creating Layer relu1
I0521 09:30:59.769178 15410 net.cpp:454] relu1 <- conv1
I0521 09:30:59.769191 15410 net.cpp:397] relu1 -> conv1 (in-place)
I0521 09:30:59.769690 15410 net.cpp:150] Setting up relu1
I0521 09:30:59.769706 15410 net.cpp:157] Top shape: 900 12 120 48 (62208000)
I0521 09:30:59.769717 15410 net.cpp:165] Memory required for data: 520534800
I0521 09:30:59.769727 15410 layer_factory.hpp:77] Creating layer pool1
I0521 09:30:59.769743 15410 net.cpp:106] Creating Layer pool1
I0521 09:30:59.769753 15410 net.cpp:454] pool1 <- conv1
I0521 09:30:59.769767 15410 net.cpp:411] pool1 -> pool1
I0521 09:30:59.769842 15410 net.cpp:150] Setting up pool1
I0521 09:30:59.769855 15410 net.cpp:157] Top shape: 900 12 60 48 (31104000)
I0521 09:30:59.769865 15410 net.cpp:165] Memory required for data: 644950800
I0521 09:30:59.769876 15410 layer_factory.hpp:77] Creating layer conv2
I0521 09:30:59.769893 15410 net.cpp:106] Creating Layer conv2
I0521 09:30:59.769904 15410 net.cpp:454] conv2 <- pool1
I0521 09:30:59.769918 15410 net.cpp:411] conv2 -> conv2
I0521 09:30:59.771816 15410 net.cpp:150] Setting up conv2
I0521 09:30:59.771838 15410 net.cpp:157] Top shape: 900 20 54 46 (44712000)
I0521 09:30:59.771852 15410 net.cpp:165] Memory required for data: 823798800
I0521 09:30:59.771869 15410 layer_factory.hpp:77] Creating layer relu2
I0521 09:30:59.771883 15410 net.cpp:106] Creating Layer relu2
I0521 09:30:59.771893 15410 net.cpp:454] relu2 <- conv2
I0521 09:30:59.771905 15410 net.cpp:397] relu2 -> conv2 (in-place)
I0521 09:30:59.772238 15410 net.cpp:150] Setting up relu2
I0521 09:30:59.772253 15410 net.cpp:157] Top shape: 900 20 54 46 (44712000)
I0521 09:30:59.772263 15410 net.cpp:165] Memory required for data: 1002646800
I0521 09:30:59.772272 15410 layer_factory.hpp:77] Creating layer pool2
I0521 09:30:59.772285 15410 net.cpp:106] Creating Layer pool2
I0521 09:30:59.772295 15410 net.cpp:454] pool2 <- conv2
I0521 09:30:59.772307 15410 net.cpp:411] pool2 -> pool2
I0521 09:30:59.772379 15410 net.cpp:150] Setting up pool2
I0521 09:30:59.772392 15410 net.cpp:157] Top shape: 900 20 27 46 (22356000)
I0521 09:30:59.772402 15410 net.cpp:165] Memory required for data: 1092070800
I0521 09:30:59.772410 15410 layer_factory.hpp:77] Creating layer conv3
I0521 09:30:59.772430 15410 net.cpp:106] Creating Layer conv3
I0521 09:30:59.772440 15410 net.cpp:454] conv3 <- pool2
I0521 09:30:59.772455 15410 net.cpp:411] conv3 -> conv3
I0521 09:30:59.774430 15410 net.cpp:150] Setting up conv3
I0521 09:30:59.774448 15410 net.cpp:157] Top shape: 900 28 22 44 (24393600)
I0521 09:30:59.774458 15410 net.cpp:165] Memory required for data: 1189645200
I0521 09:30:59.774492 15410 layer_factory.hpp:77] Creating layer relu3
I0521 09:30:59.774504 15410 net.cpp:106] Creating Layer relu3
I0521 09:30:59.774515 15410 net.cpp:454] relu3 <- conv3
I0521 09:30:59.774528 15410 net.cpp:397] relu3 -> conv3 (in-place)
I0521 09:30:59.774996 15410 net.cpp:150] Setting up relu3
I0521 09:30:59.775012 15410 net.cpp:157] Top shape: 900 28 22 44 (24393600)
I0521 09:30:59.775022 15410 net.cpp:165] Memory required for data: 1287219600
I0521 09:30:59.775032 15410 layer_factory.hpp:77] Creating layer pool3
I0521 09:30:59.775044 15410 net.cpp:106] Creating Layer pool3
I0521 09:30:59.775054 15410 net.cpp:454] pool3 <- conv3
I0521 09:30:59.775068 15410 net.cpp:411] pool3 -> pool3
I0521 09:30:59.775140 15410 net.cpp:150] Setting up pool3
I0521 09:30:59.775153 15410 net.cpp:157] Top shape: 900 28 11 44 (12196800)
I0521 09:30:59.775162 15410 net.cpp:165] Memory required for data: 1336006800
I0521 09:30:59.775171 15410 layer_factory.hpp:77] Creating layer conv4
I0521 09:30:59.775188 15410 net.cpp:106] Creating Layer conv4
I0521 09:30:59.775199 15410 net.cpp:454] conv4 <- pool3
I0521 09:30:59.775214 15410 net.cpp:411] conv4 -> conv4
I0521 09:30:59.777272 15410 net.cpp:150] Setting up conv4
I0521 09:30:59.777294 15410 net.cpp:157] Top shape: 900 36 6 42 (8164800)
I0521 09:30:59.777307 15410 net.cpp:165] Memory required for data: 1368666000
I0521 09:30:59.777323 15410 layer_factory.hpp:77] Creating layer relu4
I0521 09:30:59.777336 15410 net.cpp:106] Creating Layer relu4
I0521 09:30:59.777345 15410 net.cpp:454] relu4 <- conv4
I0521 09:30:59.777359 15410 net.cpp:397] relu4 -> conv4 (in-place)
I0521 09:30:59.777827 15410 net.cpp:150] Setting up relu4
I0521 09:30:59.777842 15410 net.cpp:157] Top shape: 900 36 6 42 (8164800)
I0521 09:30:59.777853 15410 net.cpp:165] Memory required for data: 1401325200
I0521 09:30:59.777863 15410 layer_factory.hpp:77] Creating layer pool4
I0521 09:30:59.777875 15410 net.cpp:106] Creating Layer pool4
I0521 09:30:59.777885 15410 net.cpp:454] pool4 <- conv4
I0521 09:30:59.777899 15410 net.cpp:411] pool4 -> pool4
I0521 09:30:59.777969 15410 net.cpp:150] Setting up pool4
I0521 09:30:59.777982 15410 net.cpp:157] Top shape: 900 36 3 42 (4082400)
I0521 09:30:59.777992 15410 net.cpp:165] Memory required for data: 1417654800
I0521 09:30:59.778002 15410 layer_factory.hpp:77] Creating layer ip1
I0521 09:30:59.778017 15410 net.cpp:106] Creating Layer ip1
I0521 09:30:59.778028 15410 net.cpp:454] ip1 <- pool4
I0521 09:30:59.778043 15410 net.cpp:411] ip1 -> ip1
I0521 09:30:59.793624 15410 net.cpp:150] Setting up ip1
I0521 09:30:59.793653 15410 net.cpp:157] Top shape: 900 196 (176400)
I0521 09:30:59.793668 15410 net.cpp:165] Memory required for data: 1418360400
I0521 09:30:59.793691 15410 layer_factory.hpp:77] Creating layer relu5
I0521 09:30:59.793706 15410 net.cpp:106] Creating Layer relu5
I0521 09:30:59.793716 15410 net.cpp:454] relu5 <- ip1
I0521 09:30:59.793730 15410 net.cpp:397] relu5 -> ip1 (in-place)
I0521 09:30:59.794076 15410 net.cpp:150] Setting up relu5
I0521 09:30:59.794090 15410 net.cpp:157] Top shape: 900 196 (176400)
I0521 09:30:59.794100 15410 net.cpp:165] Memory required for data: 1419066000
I0521 09:30:59.794111 15410 layer_factory.hpp:77] Creating layer drop1
I0521 09:30:59.794129 15410 net.cpp:106] Creating Layer drop1
I0521 09:30:59.794139 15410 net.cpp:454] drop1 <- ip1
I0521 09:30:59.794152 15410 net.cpp:397] drop1 -> ip1 (in-place)
I0521 09:30:59.794198 15410 net.cpp:150] Setting up drop1
I0521 09:30:59.794209 15410 net.cpp:157] Top shape: 900 196 (176400)
I0521 09:30:59.794219 15410 net.cpp:165] Memory required for data: 1419771600
I0521 09:30:59.794229 15410 layer_factory.hpp:77] Creating layer ip2
I0521 09:30:59.794245 15410 net.cpp:106] Creating Layer ip2
I0521 09:30:59.794255 15410 net.cpp:454] ip2 <- ip1
I0521 09:30:59.794267 15410 net.cpp:411] ip2 -> ip2
I0521 09:30:59.794746 15410 net.cpp:150] Setting up ip2
I0521 09:30:59.794760 15410 net.cpp:157] Top shape: 900 98 (88200)
I0521 09:30:59.794770 15410 net.cpp:165] Memory required for data: 1420124400
I0521 09:30:59.794798 15410 layer_factory.hpp:77] Creating layer relu6
I0521 09:30:59.794811 15410 net.cpp:106] Creating Layer relu6
I0521 09:30:59.794821 15410 net.cpp:454] relu6 <- ip2
I0521 09:30:59.794833 15410 net.cpp:397] relu6 -> ip2 (in-place)
I0521 09:30:59.795367 15410 net.cpp:150] Setting up relu6
I0521 09:30:59.795387 15410 net.cpp:157] Top shape: 900 98 (88200)
I0521 09:30:59.795397 15410 net.cpp:165] Memory required for data: 1420477200
I0521 09:30:59.795408 15410 layer_factory.hpp:77] Creating layer drop2
I0521 09:30:59.795421 15410 net.cpp:106] Creating Layer drop2
I0521 09:30:59.795431 15410 net.cpp:454] drop2 <- ip2
I0521 09:30:59.795444 15410 net.cpp:397] drop2 -> ip2 (in-place)
I0521 09:30:59.795488 15410 net.cpp:150] Setting up drop2
I0521 09:30:59.795501 15410 net.cpp:157] Top shape: 900 98 (88200)
I0521 09:30:59.795511 15410 net.cpp:165] Memory required for data: 1420830000
I0521 09:30:59.795521 15410 layer_factory.hpp:77] Creating layer ip3
I0521 09:30:59.795534 15410 net.cpp:106] Creating Layer ip3
I0521 09:30:59.795544 15410 net.cpp:454] ip3 <- ip2
I0521 09:30:59.795558 15410 net.cpp:411] ip3 -> ip3
I0521 09:30:59.795781 15410 net.cpp:150] Setting up ip3
I0521 09:30:59.795794 15410 net.cpp:157] Top shape: 900 11 (9900)
I0521 09:30:59.795804 15410 net.cpp:165] Memory required for data: 1420869600
I0521 09:30:59.795819 15410 layer_factory.hpp:77] Creating layer drop3
I0521 09:30:59.795832 15410 net.cpp:106] Creating Layer drop3
I0521 09:30:59.795842 15410 net.cpp:454] drop3 <- ip3
I0521 09:30:59.795855 15410 net.cpp:397] drop3 -> ip3 (in-place)
I0521 09:30:59.795897 15410 net.cpp:150] Setting up drop3
I0521 09:30:59.795909 15410 net.cpp:157] Top shape: 900 11 (9900)
I0521 09:30:59.795918 15410 net.cpp:165] Memory required for data: 1420909200
I0521 09:30:59.795928 15410 layer_factory.hpp:77] Creating layer ip3_drop3_0_split
I0521 09:30:59.795941 15410 net.cpp:106] Creating Layer ip3_drop3_0_split
I0521 09:30:59.795950 15410 net.cpp:454] ip3_drop3_0_split <- ip3
I0521 09:30:59.795964 15410 net.cpp:411] ip3_drop3_0_split -> ip3_drop3_0_split_0
I0521 09:30:59.795979 15410 net.cpp:411] ip3_drop3_0_split -> ip3_drop3_0_split_1
I0521 09:30:59.796052 15410 net.cpp:150] Setting up ip3_drop3_0_split
I0521 09:30:59.796064 15410 net.cpp:157] Top shape: 900 11 (9900)
I0521 09:30:59.796077 15410 net.cpp:157] Top shape: 900 11 (9900)
I0521 09:30:59.796087 15410 net.cpp:165] Memory required for data: 1420988400
I0521 09:30:59.796097 15410 layer_factory.hpp:77] Creating layer accuracy
I0521 09:30:59.796118 15410 net.cpp:106] Creating Layer accuracy
I0521 09:30:59.796128 15410 net.cpp:454] accuracy <- ip3_drop3_0_split_0
I0521 09:30:59.796140 15410 net.cpp:454] accuracy <- label_data_hdf5_1_split_0
I0521 09:30:59.796154 15410 net.cpp:411] accuracy -> accuracy
…
