…
I0520 22:46:24.956612  5513 net.cpp:322] The NetState phase (0) differed from the phase (1) specified by a rule in layer data_hdf5
I0520 22:46:24.956671  5513 net.cpp:322] The NetState phase (0) differed from the phase (1) specified by a rule in layer accuracy
I0520 22:46:24.957015  5513 net.cpp:49] Initializing net from parameters: 
name: "caffe_test_127x50_x_unshifted"
state {
  phase: TRAIN
}
layer {
  name: "data_hdf5"
  type: "HDF5Data"
  top: "data"
  top: "label"
  include {
    phase: TRAIN
  }
  hdf5_data_param {
    source: "/lustre/atlas/proj-shared/hep105/caffe_titan/minosmatch_nukecczdefs_127x50_x_unshifted_me1Bmc.trainlist"
    batch_size: 390
  }
}
layer {
  name: "conv1"
  type: "Convolution"
  bottom: "data"
  top: "conv1"
  convolution_param {
    num_output: 12
    pad: 0
    stride: 1
    weight_filler {
      type: "xavier"
    }
    bias_filler {
      type: "constant"
    }
    kernel_h: 8
    kernel_w: 3
  }
}
layer {
  name: "relu1"
  type: "ReLU"
  bottom: "conv1"
  top: "conv1"
}
layer {
  name: "pool1"
  type: "Pooling"
  bottom: "conv1"
  top: "pool1"
  pooling_param {
    pool: MAX
    kernel_h: 2
    kernel_w: 1
    stride_h: 2
    stride_w: 1
  }
}
layer {
  name: "conv2"
  type: "Convolution"
  bottom: "pool1"
  top: "conv2"
  convolution_param {
    num_output: 20
    pad: 0
    stride: 1
    weight_filler {
      type: "xavier"
    }
    bias_filler {
      type: "constant"
    }
    kernel_h: 7
    kernel_w: 3
  }
}
layer {
  name: "relu2"
  type: "ReLU"
  bottom: "conv2"
  top: "conv2"
}
layer {
  name: "pool2"
  type: "Pooling"
  bottom: "conv2"
  top: "pool2"
  pooling_param {
    pool: MAX
    kernel_h: 2
    kernel_w: 1
    stride_h: 2
    stride_w: 1
  }
}
layer {
  name: "conv3"
  type: "Convolution"
  bottom: "pool2"
  top: "conv3"
  convolution_param {
    num_output: 28
    pad: 0
    stride: 1
    weight_filler {
      type: "xavier"
    }
    bias_filler {
      type: "constant"
    }
    kernel_h: 6
    kernel_w: 3
  }
}
layer {
  name: "relu3"
  type: "ReLU"
  bottom: "conv3"
  top: "conv3"
}
layer {
  name: "pool3"
  type: "Pooling"
  bottom: "conv3"
  top: "pool3"
  pooling_param {
    pool: MAX
    kernel_h: 2
    kernel_w: 1
    stride_h: 2
    stride_w: 1
  }
}
layer {
  name: "conv4"
  type: "Convolution"
  bottom: "pool3"
  top: "conv4"
  convolution_param {
    num_output: 36
    pad: 0
    stride: 1
    weight_filler {
      type: "xavier"
    }
    bias_filler {
      type: "constant"
    }
    kernel_h: 6
    kernel_w: 3
  }
}
layer {
  name: "relu4"
  type: "ReLU"
  bottom: "conv4"
  top: "conv4"
}
layer {
  name: "pool4"
  type: "Pooling"
  bottom: "conv4"
  top: "pool4"
  pooling_param {
    pool: MAX
    kernel_h: 2
    kernel_w: 1
    stride_h: 2
    stride_w: 1
  }
}
layer {
  name: "ip1"
  type: "InnerProduct"
  bottom: "pool4"
  top: "ip1"
  inner_product_param {
    num_output: 196
    weight_filler {
      type: "xavier"
    }
    bias_filler {
      type: "constant"
    }
  }
}
layer {
  name: "relu5"
  type: "ReLU"
  bottom: "ip1"
  top: "ip1"
}
layer {
  name: "drop1"
  type: "Dropout"
  bottom: "ip1"
  top: "ip1"
  dropout_param {
    dropout_ratio: 0.5
  }
}
layer {
  name: "ip2"
  type: "InnerProduct"
  bottom: "ip1"
  top: "ip2"
  inner_product_param {
    num_output: 98
    weight_filler {
      type: "xavier"
    }
    bias_filler {
      type: "constant"
    }
  }
}
layer {
  name: "relu6"
  type: "ReLU"
  bottom: "ip2"
  top: "ip2"
}
layer {
  name: "drop2"
  type: "Dropout"
  bottom: "ip2"
  top: "ip2"
  dropout_param {
    dropout_ratio: 0.5
  }
}
layer {
  name: "ip3"
  type: "InnerProduct"
  bottom: "ip2"
  top: "ip3"
  inner_product_param {
    num_output: 11
    weight_filler {
      type: "xavier"
    }
    bias_filler {
      type: "constant"
    }
  }
}
layer {
  name: "drop3"
  type: "Dropout"
  bottom: "ip3"
  top: "ip3"
  dropout_param {
    dropout_ratio: 0.5
  }
}
layer {
  name: "loss"
  type: "SoftmaxWithLoss"
  bottom: "ip3"
  bottom: "label"
  top: "loss"
}
I0520 22:46:24.957195  5513 layer_factory.hpp:77] Creating layer data_hdf5
I0520 22:46:24.957219  5513 net.cpp:106] Creating Layer data_hdf5
I0520 22:46:24.957233  5513 net.cpp:411] data_hdf5 -> data
I0520 22:46:24.957267  5513 net.cpp:411] data_hdf5 -> label
I0520 22:46:24.957299  5513 hdf5_data_layer.cpp:79] Loading list of HDF5 filenames from: /lustre/atlas/proj-shared/hep105/caffe_titan/minosmatch_nukecczdefs_127x50_x_unshifted_me1Bmc.trainlist
I0520 22:46:24.972697  5513 hdf5_data_layer.cpp:93] Number of HDF5 files: 15
I0520 22:46:24.974905  5513 hdf5.cpp:32] Datatype class: H5T_FLOAT
I0520 22:46:46.539042  5513 hdf5.cpp:35] Datatype class: H5T_INTEGER
I0520 22:46:46.544152  5513 net.cpp:150] Setting up data_hdf5
I0520 22:46:46.544191  5513 net.cpp:157] Top shape: 390 1 127 50 (2476500)
I0520 22:46:46.544206  5513 net.cpp:157] Top shape: 390 (390)
I0520 22:46:46.544216  5513 net.cpp:165] Memory required for data: 9907560
I0520 22:46:46.544229  5513 layer_factory.hpp:77] Creating layer conv1
I0520 22:46:46.544265  5513 net.cpp:106] Creating Layer conv1
I0520 22:46:46.544276  5513 net.cpp:454] conv1 <- data
I0520 22:46:46.544299  5513 net.cpp:411] conv1 -> conv1
I0520 22:46:47.614929  5513 net.cpp:150] Setting up conv1
I0520 22:46:47.614976  5513 net.cpp:157] Top shape: 390 12 120 48 (26956800)
I0520 22:46:47.614987  5513 net.cpp:165] Memory required for data: 117734760
I0520 22:46:47.615016  5513 layer_factory.hpp:77] Creating layer relu1
I0520 22:46:47.615037  5513 net.cpp:106] Creating Layer relu1
I0520 22:46:47.615048  5513 net.cpp:454] relu1 <- conv1
I0520 22:46:47.615061  5513 net.cpp:397] relu1 -> conv1 (in-place)
I0520 22:46:47.615578  5513 net.cpp:150] Setting up relu1
I0520 22:46:47.615594  5513 net.cpp:157] Top shape: 390 12 120 48 (26956800)
I0520 22:46:47.615604  5513 net.cpp:165] Memory required for data: 225561960
I0520 22:46:47.615615  5513 layer_factory.hpp:77] Creating layer pool1
I0520 22:46:47.615630  5513 net.cpp:106] Creating Layer pool1
I0520 22:46:47.615640  5513 net.cpp:454] pool1 <- conv1
I0520 22:46:47.615653  5513 net.cpp:411] pool1 -> pool1
I0520 22:46:47.615733  5513 net.cpp:150] Setting up pool1
I0520 22:46:47.615747  5513 net.cpp:157] Top shape: 390 12 60 48 (13478400)
I0520 22:46:47.615758  5513 net.cpp:165] Memory required for data: 279475560
I0520 22:46:47.615768  5513 layer_factory.hpp:77] Creating layer conv2
I0520 22:46:47.615790  5513 net.cpp:106] Creating Layer conv2
I0520 22:46:47.615800  5513 net.cpp:454] conv2 <- pool1
I0520 22:46:47.615815  5513 net.cpp:411] conv2 -> conv2
I0520 22:46:47.618520  5513 net.cpp:150] Setting up conv2
I0520 22:46:47.618547  5513 net.cpp:157] Top shape: 390 20 54 46 (19375200)
I0520 22:46:47.618557  5513 net.cpp:165] Memory required for data: 356976360
I0520 22:46:47.618577  5513 layer_factory.hpp:77] Creating layer relu2
I0520 22:46:47.618592  5513 net.cpp:106] Creating Layer relu2
I0520 22:46:47.618602  5513 net.cpp:454] relu2 <- conv2
I0520 22:46:47.618614  5513 net.cpp:397] relu2 -> conv2 (in-place)
I0520 22:46:47.618945  5513 net.cpp:150] Setting up relu2
I0520 22:46:47.618959  5513 net.cpp:157] Top shape: 390 20 54 46 (19375200)
I0520 22:46:47.618969  5513 net.cpp:165] Memory required for data: 434477160
I0520 22:46:47.618979  5513 layer_factory.hpp:77] Creating layer pool2
I0520 22:46:47.618993  5513 net.cpp:106] Creating Layer pool2
I0520 22:46:47.619002  5513 net.cpp:454] pool2 <- conv2
I0520 22:46:47.619027  5513 net.cpp:411] pool2 -> pool2
I0520 22:46:47.619096  5513 net.cpp:150] Setting up pool2
I0520 22:46:47.619109  5513 net.cpp:157] Top shape: 390 20 27 46 (9687600)
I0520 22:46:47.619119  5513 net.cpp:165] Memory required for data: 473227560
I0520 22:46:47.619128  5513 layer_factory.hpp:77] Creating layer conv3
I0520 22:46:47.619148  5513 net.cpp:106] Creating Layer conv3
I0520 22:46:47.619158  5513 net.cpp:454] conv3 <- pool2
I0520 22:46:47.619171  5513 net.cpp:411] conv3 -> conv3
I0520 22:46:47.621090  5513 net.cpp:150] Setting up conv3
I0520 22:46:47.621114  5513 net.cpp:157] Top shape: 390 28 22 44 (10570560)
I0520 22:46:47.621125  5513 net.cpp:165] Memory required for data: 515509800
I0520 22:46:47.621145  5513 layer_factory.hpp:77] Creating layer relu3
I0520 22:46:47.621160  5513 net.cpp:106] Creating Layer relu3
I0520 22:46:47.621170  5513 net.cpp:454] relu3 <- conv3
I0520 22:46:47.621182  5513 net.cpp:397] relu3 -> conv3 (in-place)
I0520 22:46:47.621650  5513 net.cpp:150] Setting up relu3
I0520 22:46:47.621667  5513 net.cpp:157] Top shape: 390 28 22 44 (10570560)
I0520 22:46:47.621678  5513 net.cpp:165] Memory required for data: 557792040
I0520 22:46:47.621688  5513 layer_factory.hpp:77] Creating layer pool3
I0520 22:46:47.621701  5513 net.cpp:106] Creating Layer pool3
I0520 22:46:47.621711  5513 net.cpp:454] pool3 <- conv3
I0520 22:46:47.621723  5513 net.cpp:411] pool3 -> pool3
I0520 22:46:47.621790  5513 net.cpp:150] Setting up pool3
I0520 22:46:47.621804  5513 net.cpp:157] Top shape: 390 28 11 44 (5285280)
I0520 22:46:47.621814  5513 net.cpp:165] Memory required for data: 578933160
I0520 22:46:47.621824  5513 layer_factory.hpp:77] Creating layer conv4
I0520 22:46:47.621840  5513 net.cpp:106] Creating Layer conv4
I0520 22:46:47.621850  5513 net.cpp:454] conv4 <- pool3
I0520 22:46:47.621862  5513 net.cpp:411] conv4 -> conv4
I0520 22:46:47.624631  5513 net.cpp:150] Setting up conv4
I0520 22:46:47.624655  5513 net.cpp:157] Top shape: 390 36 6 42 (3538080)
I0520 22:46:47.624665  5513 net.cpp:165] Memory required for data: 593085480
I0520 22:46:47.624680  5513 layer_factory.hpp:77] Creating layer relu4
I0520 22:46:47.624696  5513 net.cpp:106] Creating Layer relu4
I0520 22:46:47.624706  5513 net.cpp:454] relu4 <- conv4
I0520 22:46:47.624718  5513 net.cpp:397] relu4 -> conv4 (in-place)
I0520 22:46:47.625186  5513 net.cpp:150] Setting up relu4
I0520 22:46:47.625203  5513 net.cpp:157] Top shape: 390 36 6 42 (3538080)
I0520 22:46:47.625213  5513 net.cpp:165] Memory required for data: 607237800
I0520 22:46:47.625223  5513 layer_factory.hpp:77] Creating layer pool4
I0520 22:46:47.625236  5513 net.cpp:106] Creating Layer pool4
I0520 22:46:47.625247  5513 net.cpp:454] pool4 <- conv4
I0520 22:46:47.625259  5513 net.cpp:411] pool4 -> pool4
I0520 22:46:47.625326  5513 net.cpp:150] Setting up pool4
I0520 22:46:47.625340  5513 net.cpp:157] Top shape: 390 36 3 42 (1769040)
I0520 22:46:47.625351  5513 net.cpp:165] Memory required for data: 614313960
I0520 22:46:47.625361  5513 layer_factory.hpp:77] Creating layer ip1
I0520 22:46:47.625382  5513 net.cpp:106] Creating Layer ip1
I0520 22:46:47.625392  5513 net.cpp:454] ip1 <- pool4
I0520 22:46:47.625406  5513 net.cpp:411] ip1 -> ip1
I0520 22:46:47.640877  5513 net.cpp:150] Setting up ip1
I0520 22:46:47.640904  5513 net.cpp:157] Top shape: 390 196 (76440)
I0520 22:46:47.640918  5513 net.cpp:165] Memory required for data: 614619720
I0520 22:46:47.640939  5513 layer_factory.hpp:77] Creating layer relu5
I0520 22:46:47.640954  5513 net.cpp:106] Creating Layer relu5
I0520 22:46:47.640964  5513 net.cpp:454] relu5 <- ip1
I0520 22:46:47.640976  5513 net.cpp:397] relu5 -> ip1 (in-place)
I0520 22:46:47.641319  5513 net.cpp:150] Setting up relu5
I0520 22:46:47.641332  5513 net.cpp:157] Top shape: 390 196 (76440)
I0520 22:46:47.641342  5513 net.cpp:165] Memory required for data: 614925480
I0520 22:46:47.641352  5513 layer_factory.hpp:77] Creating layer drop1
I0520 22:46:47.641374  5513 net.cpp:106] Creating Layer drop1
I0520 22:46:47.641384  5513 net.cpp:454] drop1 <- ip1
I0520 22:46:47.641409  5513 net.cpp:397] drop1 -> ip1 (in-place)
I0520 22:46:47.641456  5513 net.cpp:150] Setting up drop1
I0520 22:46:47.641470  5513 net.cpp:157] Top shape: 390 196 (76440)
I0520 22:46:47.641480  5513 net.cpp:165] Memory required for data: 615231240
I0520 22:46:47.641489  5513 layer_factory.hpp:77] Creating layer ip2
I0520 22:46:47.641508  5513 net.cpp:106] Creating Layer ip2
I0520 22:46:47.641518  5513 net.cpp:454] ip2 <- ip1
I0520 22:46:47.641532  5513 net.cpp:411] ip2 -> ip2
I0520 22:46:47.641996  5513 net.cpp:150] Setting up ip2
I0520 22:46:47.642009  5513 net.cpp:157] Top shape: 390 98 (38220)
I0520 22:46:47.642019  5513 net.cpp:165] Memory required for data: 615384120
I0520 22:46:47.642035  5513 layer_factory.hpp:77] Creating layer relu6
I0520 22:46:47.642046  5513 net.cpp:106] Creating Layer relu6
I0520 22:46:47.642056  5513 net.cpp:454] relu6 <- ip2
I0520 22:46:47.642068  5513 net.cpp:397] relu6 -> ip2 (in-place)
I0520 22:46:47.642591  5513 net.cpp:150] Setting up relu6
I0520 22:46:47.642607  5513 net.cpp:157] Top shape: 390 98 (38220)
I0520 22:46:47.642617  5513 net.cpp:165] Memory required for data: 615537000
I0520 22:46:47.642627  5513 layer_factory.hpp:77] Creating layer drop2
I0520 22:46:47.642640  5513 net.cpp:106] Creating Layer drop2
I0520 22:46:47.642650  5513 net.cpp:454] drop2 <- ip2
I0520 22:46:47.642663  5513 net.cpp:397] drop2 -> ip2 (in-place)
I0520 22:46:47.642705  5513 net.cpp:150] Setting up drop2
I0520 22:46:47.642719  5513 net.cpp:157] Top shape: 390 98 (38220)
I0520 22:46:47.642729  5513 net.cpp:165] Memory required for data: 615689880
I0520 22:46:47.642738  5513 layer_factory.hpp:77] Creating layer ip3
I0520 22:46:47.642752  5513 net.cpp:106] Creating Layer ip3
I0520 22:46:47.642761  5513 net.cpp:454] ip3 <- ip2
I0520 22:46:47.642774  5513 net.cpp:411] ip3 -> ip3
I0520 22:46:47.642983  5513 net.cpp:150] Setting up ip3
I0520 22:46:47.642997  5513 net.cpp:157] Top shape: 390 11 (4290)
I0520 22:46:47.643007  5513 net.cpp:165] Memory required for data: 615707040
I0520 22:46:47.643021  5513 layer_factory.hpp:77] Creating layer drop3
I0520 22:46:47.643033  5513 net.cpp:106] Creating Layer drop3
I0520 22:46:47.643043  5513 net.cpp:454] drop3 <- ip3
I0520 22:46:47.643055  5513 net.cpp:397] drop3 -> ip3 (in-place)
I0520 22:46:47.643095  5513 net.cpp:150] Setting up drop3
I0520 22:46:47.643107  5513 net.cpp:157] Top shape: 390 11 (4290)
I0520 22:46:47.643118  5513 net.cpp:165] Memory required for data: 615724200
I0520 22:46:47.643127  5513 layer_factory.hpp:77] Creating layer loss
I0520 22:46:47.643146  5513 net.cpp:106] Creating Layer loss
I0520 22:46:47.643157  5513 net.cpp:454] loss <- ip3
I0520 22:46:47.643167  5513 net.cpp:454] loss <- label
I0520 22:46:47.643179  5513 net.cpp:411] loss -> loss
I0520 22:46:47.643198  5513 layer_factory.hpp:77] Creating layer loss
…
I0520 22:46:47.645778  5513 solver.cpp:181] Creating test net (#0) specified by net file: /lustre/atlas/proj-shared/hep105/caffe_titan/caffe_workflow/logs_batch_size_test/batch_size_390_2016-05-20T11.20.46.900451.prototxt
I0520 22:46:47.645849  5513 net.cpp:322] The NetState phase (1) differed from the phase (0) specified by a rule in layer data_hdf5
I0520 22:46:47.646203  5513 net.cpp:49] Initializing net from parameters: 
name: "caffe_test_127x50_x_unshifted"
state {
  phase: TEST
}
layer {
  name: "data_hdf5"
  type: "HDF5Data"
  top: "data"
  top: "label"
  include {
    phase: TEST
  }
  hdf5_data_param {
    source: "/lustre/atlas/proj-shared/hep105/caffe_titan/minosmatch_nukecczdefs_127x50_x_unshifted_me1Bmc.testlist"
    batch_size: 390
  }
}
layer {
  name: "conv1"
  type: "Convolution"
  bottom: "data"
  top: "conv1"
  convolution_param {
    num_output: 12
    pad: 0
    stride: 1
    weight_filler {
      type: "xavier"
    }
    bias_filler {
      type: "constant"
    }
    kernel_h: 8
    kernel_w: 3
  }
}
layer {
  name: "relu1"
  type: "ReLU"
  bottom: "conv1"
  top: "conv1"
}
layer {
  name: "pool1"
  type: "Pooling"
  bottom: "conv1"
  top: "pool1"
  pooling_param {
    pool: MAX
    kernel_h: 2
    kernel_w: 1
    stride_h: 2
    stride_w: 1
  }
}
layer {
  name: "conv2"
  type: "Convolution"
  bottom: "pool1"
  top: "conv2"
  convolution_param {
    num_output: 20
    pad: 0
    stride: 1
    weight_filler {
      type: "xavier"
    }
    bias_filler {
      type: "constant"
    }
    kernel_h: 7
    kernel_w: 3
  }
}
layer {
  name: "relu2"
  type: "ReLU"
  bottom: "conv2"
  top: "conv2"
}
layer {
  name: "pool2"
  type: "Pooling"
  bottom: "conv2"
  top: "pool2"
  pooling_param {
    pool: MAX
    kernel_h: 2
    kernel_w: 1
    stride_h: 2
    stride_w: 1
  }
}
layer {
  name: "conv3"
  type: "Convolution"
  bottom: "pool2"
  top: "conv3"
  convolution_param {
    num_output: 28
    pad: 0
    stride: 1
    weight_filler {
      type: "xavier"
    }
    bias_filler {
      type: "constant"
    }
    kernel_h: 6
    kernel_w: 3
  }
}
layer {
  name: "relu3"
  type: "ReLU"
  bottom: "conv3"
  top: "conv3"
}
layer {
  name: "pool3"
  type: "Pooling"
  bottom: "conv3"
  top: "pool3"
  pooling_param {
    pool: MAX
    kernel_h: 2
    kernel_w: 1
    stride_h: 2
    stride_w: 1
  }
}
layer {
  name: "conv4"
  type: "Convolution"
  bottom: "pool3"
  top: "conv4"
  convolution_param {
    num_output: 36
    pad: 0
    stride: 1
    weight_filler {
      type: "xavier"
    }
    bias_filler {
      type: "constant"
    }
    kernel_h: 6
    kernel_w: 3
  }
}
layer {
  name: "relu4"
  type: "ReLU"
  bottom: "conv4"
  top: "conv4"
}
layer {
  name: "pool4"
  type: "Pooling"
  bottom: "conv4"
  top: "pool4"
  pooling_param {
    pool: MAX
    kernel_h: 2
    kernel_w: 1
    stride_h: 2
    stride_w: 1
  }
}
layer {
  name: "ip1"
  type: "InnerProduct"
  bottom: "pool4"
  top: "ip1"
  inner_product_param {
    num_output: 196
    weight_filler {
      type: "xavier"
    }
    bias_filler {
      type: "constant"
    }
  }
}
layer {
  name: "relu5"
  type: "ReLU"
  bottom: "ip1"
  top: "ip1"
}
layer {
  name: "drop1"
  type: "Dropout"
  bottom: "ip1"
  top: "ip1"
  dropout_param {
    dropout_ratio: 0.5
  }
}
layer {
  name: "ip2"
  type: "InnerProduct"
  bottom: "ip1"
  top: "ip2"
  inner_product_param {
    num_output: 98
    weight_filler {
      type: "xavier"
    }
    bias_filler {
      type: "constant"
    }
  }
}
layer {
  name: "relu6"
  type: "ReLU"
  bottom: "ip2"
  top: "ip2"
}
layer {
  name: "drop2"
  type: "Dropout"
  bottom: "ip2"
  top: "ip2"
  dropout_param {
    dropout_ratio: 0.5
  }
}
layer {
  name: "ip3"
  type: "InnerProduct"
  bottom: "ip2"
  top: "ip3"
  inner_product_param {
    num_output: 11
    weight_filler {
      type: "xavier"
    }
    bias_filler {
      type: "constant"
    }
  }
}
layer {
  name: "drop3"
  type: "Dropout"
  bottom: "ip3"
  top: "ip3"
  dropout_param {
    dropout_ratio: 0.5
  }
}
layer {
  name: "accuracy"
  type: "Accuracy"
  bottom: "ip3"
  bottom: "label"
  top: "accuracy"
  include {
    phase: TEST
  }
}
layer {
  name: "loss"
  type: "SoftmaxWithLoss"
  bottom: "ip3"
  bottom: "label"
  top: "loss"
}
I0520 22:46:47.646392  5513 layer_factory.hpp:77] Creating layer data_hdf5
I0520 22:46:47.646407  5513 net.cpp:106] Creating Layer data_hdf5
I0520 22:46:47.646420  5513 net.cpp:411] data_hdf5 -> data
I0520 22:46:47.646437  5513 net.cpp:411] data_hdf5 -> label
I0520 22:46:47.646452  5513 hdf5_data_layer.cpp:79] Loading list of HDF5 filenames from: /lustre/atlas/proj-shared/hep105/caffe_titan/minosmatch_nukecczdefs_127x50_x_unshifted_me1Bmc.testlist
I0520 22:46:47.647639  5513 hdf5_data_layer.cpp:93] Number of HDF5 files: 3
I0520 22:47:09.070654  5513 net.cpp:150] Setting up data_hdf5
I0520 22:47:09.070817  5513 net.cpp:157] Top shape: 390 1 127 50 (2476500)
I0520 22:47:09.070832  5513 net.cpp:157] Top shape: 390 (390)
I0520 22:47:09.070844  5513 net.cpp:165] Memory required for data: 9907560
I0520 22:47:09.070858  5513 layer_factory.hpp:77] Creating layer label_data_hdf5_1_split
I0520 22:47:09.070886  5513 net.cpp:106] Creating Layer label_data_hdf5_1_split
I0520 22:47:09.070897  5513 net.cpp:454] label_data_hdf5_1_split <- label
I0520 22:47:09.070912  5513 net.cpp:411] label_data_hdf5_1_split -> label_data_hdf5_1_split_0
I0520 22:47:09.070935  5513 net.cpp:411] label_data_hdf5_1_split -> label_data_hdf5_1_split_1
I0520 22:47:09.071007  5513 net.cpp:150] Setting up label_data_hdf5_1_split
I0520 22:47:09.071020  5513 net.cpp:157] Top shape: 390 (390)
I0520 22:47:09.071033  5513 net.cpp:157] Top shape: 390 (390)
I0520 22:47:09.071043  5513 net.cpp:165] Memory required for data: 9910680
I0520 22:47:09.071053  5513 layer_factory.hpp:77] Creating layer conv1
I0520 22:47:09.071074  5513 net.cpp:106] Creating Layer conv1
I0520 22:47:09.071084  5513 net.cpp:454] conv1 <- data
I0520 22:47:09.071099  5513 net.cpp:411] conv1 -> conv1
I0520 22:47:09.073019  5513 net.cpp:150] Setting up conv1
I0520 22:47:09.073043  5513 net.cpp:157] Top shape: 390 12 120 48 (26956800)
I0520 22:47:09.073055  5513 net.cpp:165] Memory required for data: 117737880
I0520 22:47:09.073076  5513 layer_factory.hpp:77] Creating layer relu1
I0520 22:47:09.073091  5513 net.cpp:106] Creating Layer relu1
I0520 22:47:09.073101  5513 net.cpp:454] relu1 <- conv1
I0520 22:47:09.073113  5513 net.cpp:397] relu1 -> conv1 (in-place)
I0520 22:47:09.073611  5513 net.cpp:150] Setting up relu1
I0520 22:47:09.073626  5513 net.cpp:157] Top shape: 390 12 120 48 (26956800)
I0520 22:47:09.073637  5513 net.cpp:165] Memory required for data: 225565080
I0520 22:47:09.073648  5513 layer_factory.hpp:77] Creating layer pool1
I0520 22:47:09.073664  5513 net.cpp:106] Creating Layer pool1
I0520 22:47:09.073675  5513 net.cpp:454] pool1 <- conv1
I0520 22:47:09.073688  5513 net.cpp:411] pool1 -> pool1
I0520 22:47:09.073762  5513 net.cpp:150] Setting up pool1
I0520 22:47:09.073776  5513 net.cpp:157] Top shape: 390 12 60 48 (13478400)
I0520 22:47:09.073786  5513 net.cpp:165] Memory required for data: 279478680
I0520 22:47:09.073796  5513 layer_factory.hpp:77] Creating layer conv2
I0520 22:47:09.073813  5513 net.cpp:106] Creating Layer conv2
I0520 22:47:09.073824  5513 net.cpp:454] conv2 <- pool1
I0520 22:47:09.073838  5513 net.cpp:411] conv2 -> conv2
I0520 22:47:09.075758  5513 net.cpp:150] Setting up conv2
I0520 22:47:09.075780  5513 net.cpp:157] Top shape: 390 20 54 46 (19375200)
I0520 22:47:09.075793  5513 net.cpp:165] Memory required for data: 356979480
I0520 22:47:09.075811  5513 layer_factory.hpp:77] Creating layer relu2
I0520 22:47:09.075825  5513 net.cpp:106] Creating Layer relu2
I0520 22:47:09.075834  5513 net.cpp:454] relu2 <- conv2
I0520 22:47:09.075847  5513 net.cpp:397] relu2 -> conv2 (in-place)
I0520 22:47:09.076179  5513 net.cpp:150] Setting up relu2
I0520 22:47:09.076194  5513 net.cpp:157] Top shape: 390 20 54 46 (19375200)
I0520 22:47:09.076203  5513 net.cpp:165] Memory required for data: 434480280
I0520 22:47:09.076213  5513 layer_factory.hpp:77] Creating layer pool2
I0520 22:47:09.076225  5513 net.cpp:106] Creating Layer pool2
I0520 22:47:09.076236  5513 net.cpp:454] pool2 <- conv2
I0520 22:47:09.076248  5513 net.cpp:411] pool2 -> pool2
I0520 22:47:09.076318  5513 net.cpp:150] Setting up pool2
I0520 22:47:09.076333  5513 net.cpp:157] Top shape: 390 20 27 46 (9687600)
I0520 22:47:09.076342  5513 net.cpp:165] Memory required for data: 473230680
I0520 22:47:09.076352  5513 layer_factory.hpp:77] Creating layer conv3
I0520 22:47:09.076371  5513 net.cpp:106] Creating Layer conv3
I0520 22:47:09.076381  5513 net.cpp:454] conv3 <- pool2
I0520 22:47:09.076395  5513 net.cpp:411] conv3 -> conv3
I0520 22:47:09.078358  5513 net.cpp:150] Setting up conv3
I0520 22:47:09.078382  5513 net.cpp:157] Top shape: 390 28 22 44 (10570560)
I0520 22:47:09.078392  5513 net.cpp:165] Memory required for data: 515512920
I0520 22:47:09.078425  5513 layer_factory.hpp:77] Creating layer relu3
I0520 22:47:09.078439  5513 net.cpp:106] Creating Layer relu3
I0520 22:47:09.078449  5513 net.cpp:454] relu3 <- conv3
I0520 22:47:09.078469  5513 net.cpp:397] relu3 -> conv3 (in-place)
I0520 22:47:09.078943  5513 net.cpp:150] Setting up relu3
I0520 22:47:09.078959  5513 net.cpp:157] Top shape: 390 28 22 44 (10570560)
I0520 22:47:09.078969  5513 net.cpp:165] Memory required for data: 557795160
I0520 22:47:09.078979  5513 layer_factory.hpp:77] Creating layer pool3
I0520 22:47:09.078992  5513 net.cpp:106] Creating Layer pool3
I0520 22:47:09.079002  5513 net.cpp:454] pool3 <- conv3
I0520 22:47:09.079015  5513 net.cpp:411] pool3 -> pool3
I0520 22:47:09.079087  5513 net.cpp:150] Setting up pool3
I0520 22:47:09.079102  5513 net.cpp:157] Top shape: 390 28 11 44 (5285280)
I0520 22:47:09.079112  5513 net.cpp:165] Memory required for data: 578936280
I0520 22:47:09.079120  5513 layer_factory.hpp:77] Creating layer conv4
I0520 22:47:09.079138  5513 net.cpp:106] Creating Layer conv4
I0520 22:47:09.079149  5513 net.cpp:454] conv4 <- pool3
I0520 22:47:09.079162  5513 net.cpp:411] conv4 -> conv4
I0520 22:47:09.081215  5513 net.cpp:150] Setting up conv4
I0520 22:47:09.081238  5513 net.cpp:157] Top shape: 390 36 6 42 (3538080)
I0520 22:47:09.081250  5513 net.cpp:165] Memory required for data: 593088600
I0520 22:47:09.081265  5513 layer_factory.hpp:77] Creating layer relu4
I0520 22:47:09.081279  5513 net.cpp:106] Creating Layer relu4
I0520 22:47:09.081289  5513 net.cpp:454] relu4 <- conv4
I0520 22:47:09.081301  5513 net.cpp:397] relu4 -> conv4 (in-place)
I0520 22:47:09.081770  5513 net.cpp:150] Setting up relu4
I0520 22:47:09.081786  5513 net.cpp:157] Top shape: 390 36 6 42 (3538080)
I0520 22:47:09.081796  5513 net.cpp:165] Memory required for data: 607240920
I0520 22:47:09.081806  5513 layer_factory.hpp:77] Creating layer pool4
I0520 22:47:09.081820  5513 net.cpp:106] Creating Layer pool4
I0520 22:47:09.081830  5513 net.cpp:454] pool4 <- conv4
I0520 22:47:09.081842  5513 net.cpp:411] pool4 -> pool4
I0520 22:47:09.081914  5513 net.cpp:150] Setting up pool4
I0520 22:47:09.081928  5513 net.cpp:157] Top shape: 390 36 3 42 (1769040)
I0520 22:47:09.081938  5513 net.cpp:165] Memory required for data: 614317080
I0520 22:47:09.081948  5513 layer_factory.hpp:77] Creating layer ip1
I0520 22:47:09.081962  5513 net.cpp:106] Creating Layer ip1
I0520 22:47:09.081974  5513 net.cpp:454] ip1 <- pool4
I0520 22:47:09.081989  5513 net.cpp:411] ip1 -> ip1
I0520 22:47:09.097482  5513 net.cpp:150] Setting up ip1
I0520 22:47:09.097510  5513 net.cpp:157] Top shape: 390 196 (76440)
I0520 22:47:09.097522  5513 net.cpp:165] Memory required for data: 614622840
I0520 22:47:09.097543  5513 layer_factory.hpp:77] Creating layer relu5
I0520 22:47:09.097558  5513 net.cpp:106] Creating Layer relu5
I0520 22:47:09.097569  5513 net.cpp:454] relu5 <- ip1
I0520 22:47:09.097584  5513 net.cpp:397] relu5 -> ip1 (in-place)
I0520 22:47:09.097929  5513 net.cpp:150] Setting up relu5
I0520 22:47:09.097942  5513 net.cpp:157] Top shape: 390 196 (76440)
I0520 22:47:09.097952  5513 net.cpp:165] Memory required for data: 614928600
I0520 22:47:09.097964  5513 layer_factory.hpp:77] Creating layer drop1
I0520 22:47:09.097982  5513 net.cpp:106] Creating Layer drop1
I0520 22:47:09.097992  5513 net.cpp:454] drop1 <- ip1
I0520 22:47:09.098006  5513 net.cpp:397] drop1 -> ip1 (in-place)
I0520 22:47:09.098050  5513 net.cpp:150] Setting up drop1
I0520 22:47:09.098062  5513 net.cpp:157] Top shape: 390 196 (76440)
I0520 22:47:09.098073  5513 net.cpp:165] Memory required for data: 615234360
I0520 22:47:09.098083  5513 layer_factory.hpp:77] Creating layer ip2
I0520 22:47:09.098098  5513 net.cpp:106] Creating Layer ip2
I0520 22:47:09.098107  5513 net.cpp:454] ip2 <- ip1
I0520 22:47:09.098121  5513 net.cpp:411] ip2 -> ip2
I0520 22:47:09.098608  5513 net.cpp:150] Setting up ip2
I0520 22:47:09.098623  5513 net.cpp:157] Top shape: 390 98 (38220)
I0520 22:47:09.098633  5513 net.cpp:165] Memory required for data: 615387240
I0520 22:47:09.098659  5513 layer_factory.hpp:77] Creating layer relu6
I0520 22:47:09.098672  5513 net.cpp:106] Creating Layer relu6
I0520 22:47:09.098683  5513 net.cpp:454] relu6 <- ip2
I0520 22:47:09.098695  5513 net.cpp:397] relu6 -> ip2 (in-place)
I0520 22:47:09.099225  5513 net.cpp:150] Setting up relu6
I0520 22:47:09.099248  5513 net.cpp:157] Top shape: 390 98 (38220)
I0520 22:47:09.099258  5513 net.cpp:165] Memory required for data: 615540120
I0520 22:47:09.099269  5513 layer_factory.hpp:77] Creating layer drop2
I0520 22:47:09.099282  5513 net.cpp:106] Creating Layer drop2
I0520 22:47:09.099292  5513 net.cpp:454] drop2 <- ip2
I0520 22:47:09.099304  5513 net.cpp:397] drop2 -> ip2 (in-place)
I0520 22:47:09.099349  5513 net.cpp:150] Setting up drop2
I0520 22:47:09.099361  5513 net.cpp:157] Top shape: 390 98 (38220)
I0520 22:47:09.099372  5513 net.cpp:165] Memory required for data: 615693000
I0520 22:47:09.099382  5513 layer_factory.hpp:77] Creating layer ip3
I0520 22:47:09.099396  5513 net.cpp:106] Creating Layer ip3
I0520 22:47:09.099406  5513 net.cpp:454] ip3 <- ip2
I0520 22:47:09.099421  5513 net.cpp:411] ip3 -> ip3
I0520 22:47:09.099642  5513 net.cpp:150] Setting up ip3
I0520 22:47:09.099655  5513 net.cpp:157] Top shape: 390 11 (4290)
I0520 22:47:09.099665  5513 net.cpp:165] Memory required for data: 615710160
I0520 22:47:09.099680  5513 layer_factory.hpp:77] Creating layer drop3
I0520 22:47:09.099694  5513 net.cpp:106] Creating Layer drop3
I0520 22:47:09.099704  5513 net.cpp:454] drop3 <- ip3
I0520 22:47:09.099716  5513 net.cpp:397] drop3 -> ip3 (in-place)
I0520 22:47:09.099757  5513 net.cpp:150] Setting up drop3
I0520 22:47:09.099769  5513 net.cpp:157] Top shape: 390 11 (4290)
I0520 22:47:09.099779  5513 net.cpp:165] Memory required for data: 615727320
I0520 22:47:09.099789  5513 layer_factory.hpp:77] Creating layer ip3_drop3_0_split
I0520 22:47:09.099802  5513 net.cpp:106] Creating Layer ip3_drop3_0_split
I0520 22:47:09.099812  5513 net.cpp:454] ip3_drop3_0_split <- ip3
I0520 22:47:09.099825  5513 net.cpp:411] ip3_drop3_0_split -> ip3_drop3_0_split_0
I0520 22:47:09.099840  5513 net.cpp:411] ip3_drop3_0_split -> ip3_drop3_0_split_1
I0520 22:47:09.099913  5513 net.cpp:150] Setting up ip3_drop3_0_split
I0520 22:47:09.099927  5513 net.cpp:157] Top shape: 390 11 (4290)
I0520 22:47:09.099939  5513 net.cpp:157] Top shape: 390 11 (4290)
I0520 22:47:09.099949  5513 net.cpp:165] Memory required for data: 615761640
I0520 22:47:09.099957  5513 layer_factory.hpp:77] Creating layer accuracy
I0520 22:47:09.099983  5513 net.cpp:106] Creating Layer accuracy
I0520 22:47:09.099995  5513 net.cpp:454] accuracy <- ip3_drop3_0_split_0
I0520 22:47:09.100009  5513 net.cpp:454] accuracy <- label_data_hdf5_1_split_0
I0520 22:47:09.100023  5513 net.cpp:411] accuracy -> accuracy
…
