…
I0521 06:37:42.473129 19036 net.cpp:322] The NetState phase (0) differed from the phase (1) specified by a rule in layer data_hdf5
I0521 06:37:42.473188 19036 net.cpp:322] The NetState phase (0) differed from the phase (1) specified by a rule in layer accuracy
I0521 06:37:42.473532 19036 net.cpp:49] Initializing net from parameters: 
name: "caffe_test_127x50_x_unshifted"
state {
  phase: TRAIN
}
layer {
  name: "data_hdf5"
  type: "HDF5Data"
  top: "data"
  top: "label"
  include {
    phase: TRAIN
  }
  hdf5_data_param {
    source: "/lustre/atlas/proj-shared/hep105/caffe_titan/minosmatch_nukecczdefs_127x50_x_unshifted_me1Bmc.trainlist"
    batch_size: 770
  }
}
layer {
  name: "conv1"
  type: "Convolution"
  bottom: "data"
  top: "conv1"
  convolution_param {
    num_output: 12
    pad: 0
    stride: 1
    weight_filler {
      type: "xavier"
    }
    bias_filler {
      type: "constant"
    }
    kernel_h: 8
    kernel_w: 3
  }
}
layer {
  name: "relu1"
  type: "ReLU"
  bottom: "conv1"
  top: "conv1"
}
layer {
  name: "pool1"
  type: "Pooling"
  bottom: "conv1"
  top: "pool1"
  pooling_param {
    pool: MAX
    kernel_h: 2
    kernel_w: 1
    stride_h: 2
    stride_w: 1
  }
}
layer {
  name: "conv2"
  type: "Convolution"
  bottom: "pool1"
  top: "conv2"
  convolution_param {
    num_output: 20
    pad: 0
    stride: 1
    weight_filler {
      type: "xavier"
    }
    bias_filler {
      type: "constant"
    }
    kernel_h: 7
    kernel_w: 3
  }
}
layer {
  name: "relu2"
  type: "ReLU"
  bottom: "conv2"
  top: "conv2"
}
layer {
  name: "pool2"
  type: "Pooling"
  bottom: "conv2"
  top: "pool2"
  pooling_param {
    pool: MAX
    kernel_h: 2
    kernel_w: 1
    stride_h: 2
    stride_w: 1
  }
}
layer {
  name: "conv3"
  type: "Convolution"
  bottom: "pool2"
  top: "conv3"
  convolution_param {
    num_output: 28
    pad: 0
    stride: 1
    weight_filler {
      type: "xavier"
    }
    bias_filler {
      type: "constant"
    }
    kernel_h: 6
    kernel_w: 3
  }
}
layer {
  name: "relu3"
  type: "ReLU"
  bottom: "conv3"
  top: "conv3"
}
layer {
  name: "pool3"
  type: "Pooling"
  bottom: "conv3"
  top: "pool3"
  pooling_param {
    pool: MAX
    kernel_h: 2
    kernel_w: 1
    stride_h: 2
    stride_w: 1
  }
}
layer {
  name: "conv4"
  type: "Convolution"
  bottom: "pool3"
  top: "conv4"
  convolution_param {
    num_output: 36
    pad: 0
    stride: 1
    weight_filler {
      type: "xavier"
    }
    bias_filler {
      type: "constant"
    }
    kernel_h: 6
    kernel_w: 3
  }
}
layer {
  name: "relu4"
  type: "ReLU"
  bottom: "conv4"
  top: "conv4"
}
layer {
  name: "pool4"
  type: "Pooling"
  bottom: "conv4"
  top: "pool4"
  pooling_param {
    pool: MAX
    kernel_h: 2
    kernel_w: 1
    stride_h: 2
    stride_w: 1
  }
}
layer {
  name: "ip1"
  type: "InnerProduct"
  bottom: "pool4"
  top: "ip1"
  inner_product_param {
    num_output: 196
    weight_filler {
      type: "xavier"
    }
    bias_filler {
      type: "constant"
    }
  }
}
layer {
  name: "relu5"
  type: "ReLU"
  bottom: "ip1"
  top: "ip1"
}
layer {
  name: "drop1"
  type: "Dropout"
  bottom: "ip1"
  top: "ip1"
  dropout_param {
    dropout_ratio: 0.5
  }
}
layer {
  name: "ip2"
  type: "InnerProduct"
  bottom: "ip1"
  top: "ip2"
  inner_product_param {
    num_output: 98
    weight_filler {
      type: "xavier"
    }
    bias_filler {
      type: "constant"
    }
  }
}
layer {
  name: "relu6"
  type: "ReLU"
  bottom: "ip2"
  top: "ip2"
}
layer {
  name: "drop2"
  type: "Dropout"
  bottom: "ip2"
  top: "ip2"
  dropout_param {
    dropout_ratio: 0.5
  }
}
layer {
  name: "ip3"
  type: "InnerProduct"
  bottom: "ip2"
  top: "ip3"
  inner_product_param {
    num_output: 11
    weight_filler {
      type: "xavier"
    }
    bias_filler {
      type: "constant"
    }
  }
}
layer {
  name: "drop3"
  type: "Dropout"
  bottom: "ip3"
  top: "ip3"
  dropout_param {
    dropout_ratio: 0.5
  }
}
layer {
  name: "loss"
  type: "SoftmaxWithLoss"
  bottom: "ip3"
  bottom: "label"
  top: "loss"
}
I0521 06:37:42.473714 19036 layer_factory.hpp:77] Creating layer data_hdf5
I0521 06:37:42.473738 19036 net.cpp:106] Creating Layer data_hdf5
I0521 06:37:42.473752 19036 net.cpp:411] data_hdf5 -> data
I0521 06:37:42.473786 19036 net.cpp:411] data_hdf5 -> label
I0521 06:37:42.473820 19036 hdf5_data_layer.cpp:79] Loading list of HDF5 filenames from: /lustre/atlas/proj-shared/hep105/caffe_titan/minosmatch_nukecczdefs_127x50_x_unshifted_me1Bmc.trainlist
I0521 06:37:42.475177 19036 hdf5_data_layer.cpp:93] Number of HDF5 files: 15
I0521 06:37:42.477427 19036 hdf5.cpp:32] Datatype class: H5T_FLOAT
I0521 06:38:03.983042 19036 hdf5.cpp:35] Datatype class: H5T_INTEGER
I0521 06:38:03.988158 19036 net.cpp:150] Setting up data_hdf5
I0521 06:38:03.988198 19036 net.cpp:157] Top shape: 770 1 127 50 (4889500)
I0521 06:38:03.988212 19036 net.cpp:157] Top shape: 770 (770)
I0521 06:38:03.988224 19036 net.cpp:165] Memory required for data: 19561080
I0521 06:38:03.988239 19036 layer_factory.hpp:77] Creating layer conv1
I0521 06:38:03.988272 19036 net.cpp:106] Creating Layer conv1
I0521 06:38:03.988283 19036 net.cpp:454] conv1 <- data
I0521 06:38:03.988307 19036 net.cpp:411] conv1 -> conv1
I0521 06:38:04.355200 19036 net.cpp:150] Setting up conv1
I0521 06:38:04.355245 19036 net.cpp:157] Top shape: 770 12 120 48 (53222400)
I0521 06:38:04.355257 19036 net.cpp:165] Memory required for data: 232450680
I0521 06:38:04.355286 19036 layer_factory.hpp:77] Creating layer relu1
I0521 06:38:04.355307 19036 net.cpp:106] Creating Layer relu1
I0521 06:38:04.355319 19036 net.cpp:454] relu1 <- conv1
I0521 06:38:04.355332 19036 net.cpp:397] relu1 -> conv1 (in-place)
I0521 06:38:04.355854 19036 net.cpp:150] Setting up relu1
I0521 06:38:04.355870 19036 net.cpp:157] Top shape: 770 12 120 48 (53222400)
I0521 06:38:04.355881 19036 net.cpp:165] Memory required for data: 445340280
I0521 06:38:04.355891 19036 layer_factory.hpp:77] Creating layer pool1
I0521 06:38:04.355908 19036 net.cpp:106] Creating Layer pool1
I0521 06:38:04.355918 19036 net.cpp:454] pool1 <- conv1
I0521 06:38:04.355933 19036 net.cpp:411] pool1 -> pool1
I0521 06:38:04.356014 19036 net.cpp:150] Setting up pool1
I0521 06:38:04.356029 19036 net.cpp:157] Top shape: 770 12 60 48 (26611200)
I0521 06:38:04.356039 19036 net.cpp:165] Memory required for data: 551785080
I0521 06:38:04.356048 19036 layer_factory.hpp:77] Creating layer conv2
I0521 06:38:04.356071 19036 net.cpp:106] Creating Layer conv2
I0521 06:38:04.356082 19036 net.cpp:454] conv2 <- pool1
I0521 06:38:04.356096 19036 net.cpp:411] conv2 -> conv2
I0521 06:38:04.358773 19036 net.cpp:150] Setting up conv2
I0521 06:38:04.358800 19036 net.cpp:157] Top shape: 770 20 54 46 (38253600)
I0521 06:38:04.358811 19036 net.cpp:165] Memory required for data: 704799480
I0521 06:38:04.358831 19036 layer_factory.hpp:77] Creating layer relu2
I0521 06:38:04.358846 19036 net.cpp:106] Creating Layer relu2
I0521 06:38:04.358856 19036 net.cpp:454] relu2 <- conv2
I0521 06:38:04.358870 19036 net.cpp:397] relu2 -> conv2 (in-place)
I0521 06:38:04.359199 19036 net.cpp:150] Setting up relu2
I0521 06:38:04.359212 19036 net.cpp:157] Top shape: 770 20 54 46 (38253600)
I0521 06:38:04.359223 19036 net.cpp:165] Memory required for data: 857813880
I0521 06:38:04.359233 19036 layer_factory.hpp:77] Creating layer pool2
I0521 06:38:04.359246 19036 net.cpp:106] Creating Layer pool2
I0521 06:38:04.359256 19036 net.cpp:454] pool2 <- conv2
I0521 06:38:04.359282 19036 net.cpp:411] pool2 -> pool2
I0521 06:38:04.359349 19036 net.cpp:150] Setting up pool2
I0521 06:38:04.359362 19036 net.cpp:157] Top shape: 770 20 27 46 (19126800)
I0521 06:38:04.359374 19036 net.cpp:165] Memory required for data: 934321080
I0521 06:38:04.359381 19036 layer_factory.hpp:77] Creating layer conv3
I0521 06:38:04.359400 19036 net.cpp:106] Creating Layer conv3
I0521 06:38:04.359411 19036 net.cpp:454] conv3 <- pool2
I0521 06:38:04.359424 19036 net.cpp:411] conv3 -> conv3
I0521 06:38:04.361352 19036 net.cpp:150] Setting up conv3
I0521 06:38:04.361377 19036 net.cpp:157] Top shape: 770 28 22 44 (20870080)
I0521 06:38:04.361387 19036 net.cpp:165] Memory required for data: 1017801400
I0521 06:38:04.361407 19036 layer_factory.hpp:77] Creating layer relu3
I0521 06:38:04.361423 19036 net.cpp:106] Creating Layer relu3
I0521 06:38:04.361433 19036 net.cpp:454] relu3 <- conv3
I0521 06:38:04.361445 19036 net.cpp:397] relu3 -> conv3 (in-place)
I0521 06:38:04.361914 19036 net.cpp:150] Setting up relu3
I0521 06:38:04.361932 19036 net.cpp:157] Top shape: 770 28 22 44 (20870080)
I0521 06:38:04.361943 19036 net.cpp:165] Memory required for data: 1101281720
I0521 06:38:04.361953 19036 layer_factory.hpp:77] Creating layer pool3
I0521 06:38:04.361966 19036 net.cpp:106] Creating Layer pool3
I0521 06:38:04.361975 19036 net.cpp:454] pool3 <- conv3
I0521 06:38:04.361989 19036 net.cpp:411] pool3 -> pool3
I0521 06:38:04.362056 19036 net.cpp:150] Setting up pool3
I0521 06:38:04.362069 19036 net.cpp:157] Top shape: 770 28 11 44 (10435040)
I0521 06:38:04.362079 19036 net.cpp:165] Memory required for data: 1143021880
I0521 06:38:04.362087 19036 layer_factory.hpp:77] Creating layer conv4
I0521 06:38:04.362105 19036 net.cpp:106] Creating Layer conv4
I0521 06:38:04.362115 19036 net.cpp:454] conv4 <- pool3
I0521 06:38:04.362129 19036 net.cpp:411] conv4 -> conv4
I0521 06:38:04.364935 19036 net.cpp:150] Setting up conv4
I0521 06:38:04.364964 19036 net.cpp:157] Top shape: 770 36 6 42 (6985440)
I0521 06:38:04.364977 19036 net.cpp:165] Memory required for data: 1170963640
I0521 06:38:04.364995 19036 layer_factory.hpp:77] Creating layer relu4
I0521 06:38:04.365008 19036 net.cpp:106] Creating Layer relu4
I0521 06:38:04.365020 19036 net.cpp:454] relu4 <- conv4
I0521 06:38:04.365032 19036 net.cpp:397] relu4 -> conv4 (in-place)
I0521 06:38:04.365507 19036 net.cpp:150] Setting up relu4
I0521 06:38:04.365523 19036 net.cpp:157] Top shape: 770 36 6 42 (6985440)
I0521 06:38:04.365535 19036 net.cpp:165] Memory required for data: 1198905400
I0521 06:38:04.365546 19036 layer_factory.hpp:77] Creating layer pool4
I0521 06:38:04.365559 19036 net.cpp:106] Creating Layer pool4
I0521 06:38:04.365569 19036 net.cpp:454] pool4 <- conv4
I0521 06:38:04.365583 19036 net.cpp:411] pool4 -> pool4
I0521 06:38:04.365651 19036 net.cpp:150] Setting up pool4
I0521 06:38:04.365665 19036 net.cpp:157] Top shape: 770 36 3 42 (3492720)
I0521 06:38:04.365676 19036 net.cpp:165] Memory required for data: 1212876280
I0521 06:38:04.365686 19036 layer_factory.hpp:77] Creating layer ip1
I0521 06:38:04.365706 19036 net.cpp:106] Creating Layer ip1
I0521 06:38:04.365717 19036 net.cpp:454] ip1 <- pool4
I0521 06:38:04.365730 19036 net.cpp:411] ip1 -> ip1
I0521 06:38:04.381199 19036 net.cpp:150] Setting up ip1
I0521 06:38:04.381228 19036 net.cpp:157] Top shape: 770 196 (150920)
I0521 06:38:04.381242 19036 net.cpp:165] Memory required for data: 1213479960
I0521 06:38:04.381263 19036 layer_factory.hpp:77] Creating layer relu5
I0521 06:38:04.381278 19036 net.cpp:106] Creating Layer relu5
I0521 06:38:04.381289 19036 net.cpp:454] relu5 <- ip1
I0521 06:38:04.381301 19036 net.cpp:397] relu5 -> ip1 (in-place)
I0521 06:38:04.381645 19036 net.cpp:150] Setting up relu5
I0521 06:38:04.381660 19036 net.cpp:157] Top shape: 770 196 (150920)
I0521 06:38:04.381670 19036 net.cpp:165] Memory required for data: 1214083640
I0521 06:38:04.381681 19036 layer_factory.hpp:77] Creating layer drop1
I0521 06:38:04.381706 19036 net.cpp:106] Creating Layer drop1
I0521 06:38:04.381716 19036 net.cpp:454] drop1 <- ip1
I0521 06:38:04.381742 19036 net.cpp:397] drop1 -> ip1 (in-place)
I0521 06:38:04.381816 19036 net.cpp:150] Setting up drop1
I0521 06:38:04.381830 19036 net.cpp:157] Top shape: 770 196 (150920)
I0521 06:38:04.381841 19036 net.cpp:165] Memory required for data: 1214687320
I0521 06:38:04.381850 19036 layer_factory.hpp:77] Creating layer ip2
I0521 06:38:04.381870 19036 net.cpp:106] Creating Layer ip2
I0521 06:38:04.381880 19036 net.cpp:454] ip2 <- ip1
I0521 06:38:04.381892 19036 net.cpp:411] ip2 -> ip2
I0521 06:38:04.382359 19036 net.cpp:150] Setting up ip2
I0521 06:38:04.382374 19036 net.cpp:157] Top shape: 770 98 (75460)
I0521 06:38:04.382383 19036 net.cpp:165] Memory required for data: 1214989160
I0521 06:38:04.382398 19036 layer_factory.hpp:77] Creating layer relu6
I0521 06:38:04.382411 19036 net.cpp:106] Creating Layer relu6
I0521 06:38:04.382421 19036 net.cpp:454] relu6 <- ip2
I0521 06:38:04.382432 19036 net.cpp:397] relu6 -> ip2 (in-place)
I0521 06:38:04.382958 19036 net.cpp:150] Setting up relu6
I0521 06:38:04.382974 19036 net.cpp:157] Top shape: 770 98 (75460)
I0521 06:38:04.382987 19036 net.cpp:165] Memory required for data: 1215291000
I0521 06:38:04.382997 19036 layer_factory.hpp:77] Creating layer drop2
I0521 06:38:04.383010 19036 net.cpp:106] Creating Layer drop2
I0521 06:38:04.383020 19036 net.cpp:454] drop2 <- ip2
I0521 06:38:04.383033 19036 net.cpp:397] drop2 -> ip2 (in-place)
I0521 06:38:04.383075 19036 net.cpp:150] Setting up drop2
I0521 06:38:04.383088 19036 net.cpp:157] Top shape: 770 98 (75460)
I0521 06:38:04.383098 19036 net.cpp:165] Memory required for data: 1215592840
I0521 06:38:04.383108 19036 layer_factory.hpp:77] Creating layer ip3
I0521 06:38:04.383121 19036 net.cpp:106] Creating Layer ip3
I0521 06:38:04.383132 19036 net.cpp:454] ip3 <- ip2
I0521 06:38:04.383146 19036 net.cpp:411] ip3 -> ip3
I0521 06:38:04.383355 19036 net.cpp:150] Setting up ip3
I0521 06:38:04.383368 19036 net.cpp:157] Top shape: 770 11 (8470)
I0521 06:38:04.383379 19036 net.cpp:165] Memory required for data: 1215626720
I0521 06:38:04.383394 19036 layer_factory.hpp:77] Creating layer drop3
I0521 06:38:04.383407 19036 net.cpp:106] Creating Layer drop3
I0521 06:38:04.383417 19036 net.cpp:454] drop3 <- ip3
I0521 06:38:04.383430 19036 net.cpp:397] drop3 -> ip3 (in-place)
I0521 06:38:04.383468 19036 net.cpp:150] Setting up drop3
I0521 06:38:04.383481 19036 net.cpp:157] Top shape: 770 11 (8470)
I0521 06:38:04.383491 19036 net.cpp:165] Memory required for data: 1215660600
I0521 06:38:04.383502 19036 layer_factory.hpp:77] Creating layer loss
I0521 06:38:04.383520 19036 net.cpp:106] Creating Layer loss
I0521 06:38:04.383530 19036 net.cpp:454] loss <- ip3
I0521 06:38:04.383540 19036 net.cpp:454] loss <- label
I0521 06:38:04.383553 19036 net.cpp:411] loss -> loss
I0521 06:38:04.383570 19036 layer_factory.hpp:77] Creating layer loss
…
I0521 06:38:04.386173 19036 solver.cpp:181] Creating test net (#0) specified by net file: /lustre/atlas/proj-shared/hep105/caffe_titan/caffe_workflow/logs_batch_size_test/batch_size_770_2016-05-20T11.21.00.751136.prototxt
I0521 06:38:04.386245 19036 net.cpp:322] The NetState phase (1) differed from the phase (0) specified by a rule in layer data_hdf5
I0521 06:38:04.386600 19036 net.cpp:49] Initializing net from parameters: 
name: "caffe_test_127x50_x_unshifted"
state {
  phase: TEST
}
layer {
  name: "data_hdf5"
  type: "HDF5Data"
  top: "data"
  top: "label"
  include {
    phase: TEST
  }
  hdf5_data_param {
    source: "/lustre/atlas/proj-shared/hep105/caffe_titan/minosmatch_nukecczdefs_127x50_x_unshifted_me1Bmc.testlist"
    batch_size: 770
  }
}
layer {
  name: "conv1"
  type: "Convolution"
  bottom: "data"
  top: "conv1"
  convolution_param {
    num_output: 12
    pad: 0
    stride: 1
    weight_filler {
      type: "xavier"
    }
    bias_filler {
      type: "constant"
    }
    kernel_h: 8
    kernel_w: 3
  }
}
layer {
  name: "relu1"
  type: "ReLU"
  bottom: "conv1"
  top: "conv1"
}
layer {
  name: "pool1"
  type: "Pooling"
  bottom: "conv1"
  top: "pool1"
  pooling_param {
    pool: MAX
    kernel_h: 2
    kernel_w: 1
    stride_h: 2
    stride_w: 1
  }
}
layer {
  name: "conv2"
  type: "Convolution"
  bottom: "pool1"
  top: "conv2"
  convolution_param {
    num_output: 20
    pad: 0
    stride: 1
    weight_filler {
      type: "xavier"
    }
    bias_filler {
      type: "constant"
    }
    kernel_h: 7
    kernel_w: 3
  }
}
layer {
  name: "relu2"
  type: "ReLU"
  bottom: "conv2"
  top: "conv2"
}
layer {
  name: "pool2"
  type: "Pooling"
  bottom: "conv2"
  top: "pool2"
  pooling_param {
    pool: MAX
    kernel_h: 2
    kernel_w: 1
    stride_h: 2
    stride_w: 1
  }
}
layer {
  name: "conv3"
  type: "Convolution"
  bottom: "pool2"
  top: "conv3"
  convolution_param {
    num_output: 28
    pad: 0
    stride: 1
    weight_filler {
      type: "xavier"
    }
    bias_filler {
      type: "constant"
    }
    kernel_h: 6
    kernel_w: 3
  }
}
layer {
  name: "relu3"
  type: "ReLU"
  bottom: "conv3"
  top: "conv3"
}
layer {
  name: "pool3"
  type: "Pooling"
  bottom: "conv3"
  top: "pool3"
  pooling_param {
    pool: MAX
    kernel_h: 2
    kernel_w: 1
    stride_h: 2
    stride_w: 1
  }
}
layer {
  name: "conv4"
  type: "Convolution"
  bottom: "pool3"
  top: "conv4"
  convolution_param {
    num_output: 36
    pad: 0
    stride: 1
    weight_filler {
      type: "xavier"
    }
    bias_filler {
      type: "constant"
    }
    kernel_h: 6
    kernel_w: 3
  }
}
layer {
  name: "relu4"
  type: "ReLU"
  bottom: "conv4"
  top: "conv4"
}
layer {
  name: "pool4"
  type: "Pooling"
  bottom: "conv4"
  top: "pool4"
  pooling_param {
    pool: MAX
    kernel_h: 2
    kernel_w: 1
    stride_h: 2
    stride_w: 1
  }
}
layer {
  name: "ip1"
  type: "InnerProduct"
  bottom: "pool4"
  top: "ip1"
  inner_product_param {
    num_output: 196
    weight_filler {
      type: "xavier"
    }
    bias_filler {
      type: "constant"
    }
  }
}
layer {
  name: "relu5"
  type: "ReLU"
  bottom: "ip1"
  top: "ip1"
}
layer {
  name: "drop1"
  type: "Dropout"
  bottom: "ip1"
  top: "ip1"
  dropout_param {
    dropout_ratio: 0.5
  }
}
layer {
  name: "ip2"
  type: "InnerProduct"
  bottom: "ip1"
  top: "ip2"
  inner_product_param {
    num_output: 98
    weight_filler {
      type: "xavier"
    }
    bias_filler {
      type: "constant"
    }
  }
}
layer {
  name: "relu6"
  type: "ReLU"
  bottom: "ip2"
  top: "ip2"
}
layer {
  name: "drop2"
  type: "Dropout"
  bottom: "ip2"
  top: "ip2"
  dropout_param {
    dropout_ratio: 0.5
  }
}
layer {
  name: "ip3"
  type: "InnerProduct"
  bottom: "ip2"
  top: "ip3"
  inner_product_param {
    num_output: 11
    weight_filler {
      type: "xavier"
    }
    bias_filler {
      type: "constant"
    }
  }
}
layer {
  name: "drop3"
  type: "Dropout"
  bottom: "ip3"
  top: "ip3"
  dropout_param {
    dropout_ratio: 0.5
  }
}
layer {
  name: "accuracy"
  type: "Accuracy"
  bottom: "ip3"
  bottom: "label"
  top: "accuracy"
  include {
    phase: TEST
  }
}
layer {
  name: "loss"
  type: "SoftmaxWithLoss"
  bottom: "ip3"
  bottom: "label"
  top: "loss"
}
I0521 06:38:04.386790 19036 layer_factory.hpp:77] Creating layer data_hdf5
I0521 06:38:04.386806 19036 net.cpp:106] Creating Layer data_hdf5
I0521 06:38:04.386818 19036 net.cpp:411] data_hdf5 -> data
I0521 06:38:04.386836 19036 net.cpp:411] data_hdf5 -> label
I0521 06:38:04.386852 19036 hdf5_data_layer.cpp:79] Loading list of HDF5 filenames from: /lustre/atlas/proj-shared/hep105/caffe_titan/minosmatch_nukecczdefs_127x50_x_unshifted_me1Bmc.testlist
I0521 06:38:04.387995 19036 hdf5_data_layer.cpp:93] Number of HDF5 files: 3
I0521 06:38:25.725605 19036 net.cpp:150] Setting up data_hdf5
I0521 06:38:25.725771 19036 net.cpp:157] Top shape: 770 1 127 50 (4889500)
I0521 06:38:25.725786 19036 net.cpp:157] Top shape: 770 (770)
I0521 06:38:25.725798 19036 net.cpp:165] Memory required for data: 19561080
I0521 06:38:25.725811 19036 layer_factory.hpp:77] Creating layer label_data_hdf5_1_split
I0521 06:38:25.725839 19036 net.cpp:106] Creating Layer label_data_hdf5_1_split
I0521 06:38:25.725850 19036 net.cpp:454] label_data_hdf5_1_split <- label
I0521 06:38:25.725865 19036 net.cpp:411] label_data_hdf5_1_split -> label_data_hdf5_1_split_0
I0521 06:38:25.725886 19036 net.cpp:411] label_data_hdf5_1_split -> label_data_hdf5_1_split_1
I0521 06:38:25.725960 19036 net.cpp:150] Setting up label_data_hdf5_1_split
I0521 06:38:25.725973 19036 net.cpp:157] Top shape: 770 (770)
I0521 06:38:25.725986 19036 net.cpp:157] Top shape: 770 (770)
I0521 06:38:25.725996 19036 net.cpp:165] Memory required for data: 19567240
I0521 06:38:25.726006 19036 layer_factory.hpp:77] Creating layer conv1
I0521 06:38:25.726027 19036 net.cpp:106] Creating Layer conv1
I0521 06:38:25.726037 19036 net.cpp:454] conv1 <- data
I0521 06:38:25.726052 19036 net.cpp:411] conv1 -> conv1
I0521 06:38:25.727991 19036 net.cpp:150] Setting up conv1
I0521 06:38:25.728015 19036 net.cpp:157] Top shape: 770 12 120 48 (53222400)
I0521 06:38:25.728027 19036 net.cpp:165] Memory required for data: 232456840
I0521 06:38:25.728049 19036 layer_factory.hpp:77] Creating layer relu1
I0521 06:38:25.728063 19036 net.cpp:106] Creating Layer relu1
I0521 06:38:25.728073 19036 net.cpp:454] relu1 <- conv1
I0521 06:38:25.728086 19036 net.cpp:397] relu1 -> conv1 (in-place)
I0521 06:38:25.728585 19036 net.cpp:150] Setting up relu1
I0521 06:38:25.728601 19036 net.cpp:157] Top shape: 770 12 120 48 (53222400)
I0521 06:38:25.728613 19036 net.cpp:165] Memory required for data: 445346440
I0521 06:38:25.728623 19036 layer_factory.hpp:77] Creating layer pool1
I0521 06:38:25.728639 19036 net.cpp:106] Creating Layer pool1
I0521 06:38:25.728649 19036 net.cpp:454] pool1 <- conv1
I0521 06:38:25.728660 19036 net.cpp:411] pool1 -> pool1
I0521 06:38:25.728735 19036 net.cpp:150] Setting up pool1
I0521 06:38:25.728749 19036 net.cpp:157] Top shape: 770 12 60 48 (26611200)
I0521 06:38:25.728759 19036 net.cpp:165] Memory required for data: 551791240
I0521 06:38:25.728770 19036 layer_factory.hpp:77] Creating layer conv2
I0521 06:38:25.728785 19036 net.cpp:106] Creating Layer conv2
I0521 06:38:25.728796 19036 net.cpp:454] conv2 <- pool1
I0521 06:38:25.728809 19036 net.cpp:411] conv2 -> conv2
I0521 06:38:25.730723 19036 net.cpp:150] Setting up conv2
I0521 06:38:25.730746 19036 net.cpp:157] Top shape: 770 20 54 46 (38253600)
I0521 06:38:25.730759 19036 net.cpp:165] Memory required for data: 704805640
I0521 06:38:25.730777 19036 layer_factory.hpp:77] Creating layer relu2
I0521 06:38:25.730789 19036 net.cpp:106] Creating Layer relu2
I0521 06:38:25.730799 19036 net.cpp:454] relu2 <- conv2
I0521 06:38:25.730813 19036 net.cpp:397] relu2 -> conv2 (in-place)
I0521 06:38:25.731144 19036 net.cpp:150] Setting up relu2
I0521 06:38:25.731158 19036 net.cpp:157] Top shape: 770 20 54 46 (38253600)
I0521 06:38:25.731168 19036 net.cpp:165] Memory required for data: 857820040
I0521 06:38:25.731178 19036 layer_factory.hpp:77] Creating layer pool2
I0521 06:38:25.731192 19036 net.cpp:106] Creating Layer pool2
I0521 06:38:25.731201 19036 net.cpp:454] pool2 <- conv2
I0521 06:38:25.731215 19036 net.cpp:411] pool2 -> pool2
I0521 06:38:25.731286 19036 net.cpp:150] Setting up pool2
I0521 06:38:25.731299 19036 net.cpp:157] Top shape: 770 20 27 46 (19126800)
I0521 06:38:25.731309 19036 net.cpp:165] Memory required for data: 934327240
I0521 06:38:25.731319 19036 layer_factory.hpp:77] Creating layer conv3
I0521 06:38:25.731336 19036 net.cpp:106] Creating Layer conv3
I0521 06:38:25.731346 19036 net.cpp:454] conv3 <- pool2
I0521 06:38:25.731360 19036 net.cpp:411] conv3 -> conv3
I0521 06:38:25.733345 19036 net.cpp:150] Setting up conv3
I0521 06:38:25.733367 19036 net.cpp:157] Top shape: 770 28 22 44 (20870080)
I0521 06:38:25.733377 19036 net.cpp:165] Memory required for data: 1017807560
I0521 06:38:25.733410 19036 layer_factory.hpp:77] Creating layer relu3
I0521 06:38:25.733424 19036 net.cpp:106] Creating Layer relu3
I0521 06:38:25.733434 19036 net.cpp:454] relu3 <- conv3
I0521 06:38:25.733448 19036 net.cpp:397] relu3 -> conv3 (in-place)
I0521 06:38:25.733918 19036 net.cpp:150] Setting up relu3
I0521 06:38:25.733933 19036 net.cpp:157] Top shape: 770 28 22 44 (20870080)
I0521 06:38:25.733944 19036 net.cpp:165] Memory required for data: 1101287880
I0521 06:38:25.733954 19036 layer_factory.hpp:77] Creating layer pool3
I0521 06:38:25.733968 19036 net.cpp:106] Creating Layer pool3
I0521 06:38:25.733978 19036 net.cpp:454] pool3 <- conv3
I0521 06:38:25.733990 19036 net.cpp:411] pool3 -> pool3
I0521 06:38:25.734062 19036 net.cpp:150] Setting up pool3
I0521 06:38:25.734076 19036 net.cpp:157] Top shape: 770 28 11 44 (10435040)
I0521 06:38:25.734086 19036 net.cpp:165] Memory required for data: 1143028040
I0521 06:38:25.734097 19036 layer_factory.hpp:77] Creating layer conv4
I0521 06:38:25.734113 19036 net.cpp:106] Creating Layer conv4
I0521 06:38:25.734124 19036 net.cpp:454] conv4 <- pool3
I0521 06:38:25.734138 19036 net.cpp:411] conv4 -> conv4
I0521 06:38:25.736191 19036 net.cpp:150] Setting up conv4
I0521 06:38:25.736212 19036 net.cpp:157] Top shape: 770 36 6 42 (6985440)
I0521 06:38:25.736225 19036 net.cpp:165] Memory required for data: 1170969800
I0521 06:38:25.736240 19036 layer_factory.hpp:77] Creating layer relu4
I0521 06:38:25.736253 19036 net.cpp:106] Creating Layer relu4
I0521 06:38:25.736263 19036 net.cpp:454] relu4 <- conv4
I0521 06:38:25.736276 19036 net.cpp:397] relu4 -> conv4 (in-place)
I0521 06:38:25.736752 19036 net.cpp:150] Setting up relu4
I0521 06:38:25.736768 19036 net.cpp:157] Top shape: 770 36 6 42 (6985440)
I0521 06:38:25.736779 19036 net.cpp:165] Memory required for data: 1198911560
I0521 06:38:25.736789 19036 layer_factory.hpp:77] Creating layer pool4
I0521 06:38:25.736802 19036 net.cpp:106] Creating Layer pool4
I0521 06:38:25.736812 19036 net.cpp:454] pool4 <- conv4
I0521 06:38:25.736825 19036 net.cpp:411] pool4 -> pool4
I0521 06:38:25.736897 19036 net.cpp:150] Setting up pool4
I0521 06:38:25.736910 19036 net.cpp:157] Top shape: 770 36 3 42 (3492720)
I0521 06:38:25.736920 19036 net.cpp:165] Memory required for data: 1212882440
I0521 06:38:25.736928 19036 layer_factory.hpp:77] Creating layer ip1
I0521 06:38:25.736944 19036 net.cpp:106] Creating Layer ip1
I0521 06:38:25.736954 19036 net.cpp:454] ip1 <- pool4
I0521 06:38:25.736968 19036 net.cpp:411] ip1 -> ip1
I0521 06:38:25.752418 19036 net.cpp:150] Setting up ip1
I0521 06:38:25.752445 19036 net.cpp:157] Top shape: 770 196 (150920)
I0521 06:38:25.752457 19036 net.cpp:165] Memory required for data: 1213486120
I0521 06:38:25.752480 19036 layer_factory.hpp:77] Creating layer relu5
I0521 06:38:25.752495 19036 net.cpp:106] Creating Layer relu5
I0521 06:38:25.752504 19036 net.cpp:454] relu5 <- ip1
I0521 06:38:25.752518 19036 net.cpp:397] relu5 -> ip1 (in-place)
I0521 06:38:25.752863 19036 net.cpp:150] Setting up relu5
I0521 06:38:25.752877 19036 net.cpp:157] Top shape: 770 196 (150920)
I0521 06:38:25.752887 19036 net.cpp:165] Memory required for data: 1214089800
I0521 06:38:25.752897 19036 layer_factory.hpp:77] Creating layer drop1
I0521 06:38:25.752917 19036 net.cpp:106] Creating Layer drop1
I0521 06:38:25.752926 19036 net.cpp:454] drop1 <- ip1
I0521 06:38:25.752939 19036 net.cpp:397] drop1 -> ip1 (in-place)
I0521 06:38:25.752984 19036 net.cpp:150] Setting up drop1
I0521 06:38:25.752996 19036 net.cpp:157] Top shape: 770 196 (150920)
I0521 06:38:25.753006 19036 net.cpp:165] Memory required for data: 1214693480
I0521 06:38:25.753015 19036 layer_factory.hpp:77] Creating layer ip2
I0521 06:38:25.753031 19036 net.cpp:106] Creating Layer ip2
I0521 06:38:25.753041 19036 net.cpp:454] ip2 <- ip1
I0521 06:38:25.753053 19036 net.cpp:411] ip2 -> ip2
I0521 06:38:25.753532 19036 net.cpp:150] Setting up ip2
I0521 06:38:25.753545 19036 net.cpp:157] Top shape: 770 98 (75460)
I0521 06:38:25.753556 19036 net.cpp:165] Memory required for data: 1214995320
I0521 06:38:25.753583 19036 layer_factory.hpp:77] Creating layer relu6
I0521 06:38:25.753597 19036 net.cpp:106] Creating Layer relu6
I0521 06:38:25.753607 19036 net.cpp:454] relu6 <- ip2
I0521 06:38:25.753618 19036 net.cpp:397] relu6 -> ip2 (in-place)
I0521 06:38:25.754154 19036 net.cpp:150] Setting up relu6
I0521 06:38:25.754170 19036 net.cpp:157] Top shape: 770 98 (75460)
I0521 06:38:25.754180 19036 net.cpp:165] Memory required for data: 1215297160
I0521 06:38:25.754190 19036 layer_factory.hpp:77] Creating layer drop2
I0521 06:38:25.754204 19036 net.cpp:106] Creating Layer drop2
I0521 06:38:25.754215 19036 net.cpp:454] drop2 <- ip2
I0521 06:38:25.754227 19036 net.cpp:397] drop2 -> ip2 (in-place)
I0521 06:38:25.754271 19036 net.cpp:150] Setting up drop2
I0521 06:38:25.754284 19036 net.cpp:157] Top shape: 770 98 (75460)
I0521 06:38:25.754294 19036 net.cpp:165] Memory required for data: 1215599000
I0521 06:38:25.754304 19036 layer_factory.hpp:77] Creating layer ip3
I0521 06:38:25.754319 19036 net.cpp:106] Creating Layer ip3
I0521 06:38:25.754329 19036 net.cpp:454] ip3 <- ip2
I0521 06:38:25.754343 19036 net.cpp:411] ip3 -> ip3
I0521 06:38:25.754567 19036 net.cpp:150] Setting up ip3
I0521 06:38:25.754581 19036 net.cpp:157] Top shape: 770 11 (8470)
I0521 06:38:25.754590 19036 net.cpp:165] Memory required for data: 1215632880
I0521 06:38:25.754606 19036 layer_factory.hpp:77] Creating layer drop3
I0521 06:38:25.754621 19036 net.cpp:106] Creating Layer drop3
I0521 06:38:25.754631 19036 net.cpp:454] drop3 <- ip3
I0521 06:38:25.754643 19036 net.cpp:397] drop3 -> ip3 (in-place)
I0521 06:38:25.754685 19036 net.cpp:150] Setting up drop3
I0521 06:38:25.754698 19036 net.cpp:157] Top shape: 770 11 (8470)
I0521 06:38:25.754709 19036 net.cpp:165] Memory required for data: 1215666760
I0521 06:38:25.754719 19036 layer_factory.hpp:77] Creating layer ip3_drop3_0_split
I0521 06:38:25.754730 19036 net.cpp:106] Creating Layer ip3_drop3_0_split
I0521 06:38:25.754740 19036 net.cpp:454] ip3_drop3_0_split <- ip3
I0521 06:38:25.754753 19036 net.cpp:411] ip3_drop3_0_split -> ip3_drop3_0_split_0
I0521 06:38:25.754768 19036 net.cpp:411] ip3_drop3_0_split -> ip3_drop3_0_split_1
I0521 06:38:25.754843 19036 net.cpp:150] Setting up ip3_drop3_0_split
I0521 06:38:25.754855 19036 net.cpp:157] Top shape: 770 11 (8470)
I0521 06:38:25.754868 19036 net.cpp:157] Top shape: 770 11 (8470)
I0521 06:38:25.754878 19036 net.cpp:165] Memory required for data: 1215734520
I0521 06:38:25.754886 19036 layer_factory.hpp:77] Creating layer accuracy
I0521 06:38:25.754909 19036 net.cpp:106] Creating Layer accuracy
I0521 06:38:25.754920 19036 net.cpp:454] accuracy <- ip3_drop3_0_split_0
I0521 06:38:25.754930 19036 net.cpp:454] accuracy <- label_data_hdf5_1_split_0
I0521 06:38:25.754945 19036 net.cpp:411] accuracy -> accuracy
…
