…
I0521 04:57:17.327190 20178 net.cpp:322] The NetState phase (0) differed from the phase (1) specified by a rule in layer data_hdf5
I0521 04:57:17.327250 20178 net.cpp:322] The NetState phase (0) differed from the phase (1) specified by a rule in layer accuracy
I0521 04:57:17.327594 20178 net.cpp:49] Initializing net from parameters: 
name: "caffe_test_127x50_x_unshifted"
state {
  phase: TRAIN
}
layer {
  name: "data_hdf5"
  type: "HDF5Data"
  top: "data"
  top: "label"
  include {
    phase: TRAIN
  }
  hdf5_data_param {
    source: "/lustre/atlas/proj-shared/hep105/caffe_titan/minosmatch_nukecczdefs_127x50_x_unshifted_me1Bmc.trainlist"
    batch_size: 680
  }
}
layer {
  name: "conv1"
  type: "Convolution"
  bottom: "data"
  top: "conv1"
  convolution_param {
    num_output: 12
    pad: 0
    stride: 1
    weight_filler {
      type: "xavier"
    }
    bias_filler {
      type: "constant"
    }
    kernel_h: 8
    kernel_w: 3
  }
}
layer {
  name: "relu1"
  type: "ReLU"
  bottom: "conv1"
  top: "conv1"
}
layer {
  name: "pool1"
  type: "Pooling"
  bottom: "conv1"
  top: "pool1"
  pooling_param {
    pool: MAX
    kernel_h: 2
    kernel_w: 1
    stride_h: 2
    stride_w: 1
  }
}
layer {
  name: "conv2"
  type: "Convolution"
  bottom: "pool1"
  top: "conv2"
  convolution_param {
    num_output: 20
    pad: 0
    stride: 1
    weight_filler {
      type: "xavier"
    }
    bias_filler {
      type: "constant"
    }
    kernel_h: 7
    kernel_w: 3
  }
}
layer {
  name: "relu2"
  type: "ReLU"
  bottom: "conv2"
  top: "conv2"
}
layer {
  name: "pool2"
  type: "Pooling"
  bottom: "conv2"
  top: "pool2"
  pooling_param {
    pool: MAX
    kernel_h: 2
    kernel_w: 1
    stride_h: 2
    stride_w: 1
  }
}
layer {
  name: "conv3"
  type: "Convolution"
  bottom: "pool2"
  top: "conv3"
  convolution_param {
    num_output: 28
    pad: 0
    stride: 1
    weight_filler {
      type: "xavier"
    }
    bias_filler {
      type: "constant"
    }
    kernel_h: 6
    kernel_w: 3
  }
}
layer {
  name: "relu3"
  type: "ReLU"
  bottom: "conv3"
  top: "conv3"
}
layer {
  name: "pool3"
  type: "Pooling"
  bottom: "conv3"
  top: "pool3"
  pooling_param {
    pool: MAX
    kernel_h: 2
    kernel_w: 1
    stride_h: 2
    stride_w: 1
  }
}
layer {
  name: "conv4"
  type: "Convolution"
  bottom: "pool3"
  top: "conv4"
  convolution_param {
    num_output: 36
    pad: 0
    stride: 1
    weight_filler {
      type: "xavier"
    }
    bias_filler {
      type: "constant"
    }
    kernel_h: 6
    kernel_w: 3
  }
}
layer {
  name: "relu4"
  type: "ReLU"
  bottom: "conv4"
  top: "conv4"
}
layer {
  name: "pool4"
  type: "Pooling"
  bottom: "conv4"
  top: "pool4"
  pooling_param {
    pool: MAX
    kernel_h: 2
    kernel_w: 1
    stride_h: 2
    stride_w: 1
  }
}
layer {
  name: "ip1"
  type: "InnerProduct"
  bottom: "pool4"
  top: "ip1"
  inner_product_param {
    num_output: 196
    weight_filler {
      type: "xavier"
    }
    bias_filler {
      type: "constant"
    }
  }
}
layer {
  name: "relu5"
  type: "ReLU"
  bottom: "ip1"
  top: "ip1"
}
layer {
  name: "drop1"
  type: "Dropout"
  bottom: "ip1"
  top: "ip1"
  dropout_param {
    dropout_ratio: 0.5
  }
}
layer {
  name: "ip2"
  type: "InnerProduct"
  bottom: "ip1"
  top: "ip2"
  inner_product_param {
    num_output: 98
    weight_filler {
      type: "xavier"
    }
    bias_filler {
      type: "constant"
    }
  }
}
layer {
  name: "relu6"
  type: "ReLU"
  bottom: "ip2"
  top: "ip2"
}
layer {
  name: "drop2"
  type: "Dropout"
  bottom: "ip2"
  top: "ip2"
  dropout_param {
    dropout_ratio: 0.5
  }
}
layer {
  name: "ip3"
  type: "InnerProduct"
  bottom: "ip2"
  top: "ip3"
  inner_product_param {
    num_output: 11
    weight_filler {
      type: "xavier"
    }
    bias_filler {
      type: "constant"
    }
  }
}
layer {
  name: "drop3"
  type: "Dropout"
  bottom: "ip3"
  top: "ip3"
  dropout_param {
    dropout_ratio: 0.5
  }
}
layer {
  name: "loss"
  type: "SoftmaxWithLoss"
  bottom: "ip3"
  bottom: "label"
  top: "loss"
}
I0521 04:57:17.327776 20178 layer_factory.hpp:77] Creating layer data_hdf5
I0521 04:57:17.327800 20178 net.cpp:106] Creating Layer data_hdf5
I0521 04:57:17.327814 20178 net.cpp:411] data_hdf5 -> data
I0521 04:57:17.327847 20178 net.cpp:411] data_hdf5 -> label
I0521 04:57:17.327879 20178 hdf5_data_layer.cpp:79] Loading list of HDF5 filenames from: /lustre/atlas/proj-shared/hep105/caffe_titan/minosmatch_nukecczdefs_127x50_x_unshifted_me1Bmc.trainlist
I0521 04:57:17.329197 20178 hdf5_data_layer.cpp:93] Number of HDF5 files: 15
I0521 04:57:17.331435 20178 hdf5.cpp:32] Datatype class: H5T_FLOAT
I0521 04:57:38.877797 20178 hdf5.cpp:35] Datatype class: H5T_INTEGER
I0521 04:57:38.882885 20178 net.cpp:150] Setting up data_hdf5
I0521 04:57:38.882925 20178 net.cpp:157] Top shape: 680 1 127 50 (4318000)
I0521 04:57:38.882939 20178 net.cpp:157] Top shape: 680 (680)
I0521 04:57:38.882953 20178 net.cpp:165] Memory required for data: 17274720
I0521 04:57:38.882966 20178 layer_factory.hpp:77] Creating layer conv1
I0521 04:57:38.883000 20178 net.cpp:106] Creating Layer conv1
I0521 04:57:38.883013 20178 net.cpp:454] conv1 <- data
I0521 04:57:38.883034 20178 net.cpp:411] conv1 -> conv1
I0521 04:57:39.251086 20178 net.cpp:150] Setting up conv1
I0521 04:57:39.251132 20178 net.cpp:157] Top shape: 680 12 120 48 (47001600)
I0521 04:57:39.251143 20178 net.cpp:165] Memory required for data: 205281120
I0521 04:57:39.251173 20178 layer_factory.hpp:77] Creating layer relu1
I0521 04:57:39.251194 20178 net.cpp:106] Creating Layer relu1
I0521 04:57:39.251204 20178 net.cpp:454] relu1 <- conv1
I0521 04:57:39.251219 20178 net.cpp:397] relu1 -> conv1 (in-place)
I0521 04:57:39.251734 20178 net.cpp:150] Setting up relu1
I0521 04:57:39.251749 20178 net.cpp:157] Top shape: 680 12 120 48 (47001600)
I0521 04:57:39.251760 20178 net.cpp:165] Memory required for data: 393287520
I0521 04:57:39.251770 20178 layer_factory.hpp:77] Creating layer pool1
I0521 04:57:39.251786 20178 net.cpp:106] Creating Layer pool1
I0521 04:57:39.251796 20178 net.cpp:454] pool1 <- conv1
I0521 04:57:39.251809 20178 net.cpp:411] pool1 -> pool1
I0521 04:57:39.251889 20178 net.cpp:150] Setting up pool1
I0521 04:57:39.251904 20178 net.cpp:157] Top shape: 680 12 60 48 (23500800)
I0521 04:57:39.251914 20178 net.cpp:165] Memory required for data: 487290720
I0521 04:57:39.251924 20178 layer_factory.hpp:77] Creating layer conv2
I0521 04:57:39.251945 20178 net.cpp:106] Creating Layer conv2
I0521 04:57:39.251956 20178 net.cpp:454] conv2 <- pool1
I0521 04:57:39.251971 20178 net.cpp:411] conv2 -> conv2
I0521 04:57:39.254660 20178 net.cpp:150] Setting up conv2
I0521 04:57:39.254688 20178 net.cpp:157] Top shape: 680 20 54 46 (33782400)
I0521 04:57:39.254698 20178 net.cpp:165] Memory required for data: 622420320
I0521 04:57:39.254717 20178 layer_factory.hpp:77] Creating layer relu2
I0521 04:57:39.254731 20178 net.cpp:106] Creating Layer relu2
I0521 04:57:39.254741 20178 net.cpp:454] relu2 <- conv2
I0521 04:57:39.254755 20178 net.cpp:397] relu2 -> conv2 (in-place)
I0521 04:57:39.255084 20178 net.cpp:150] Setting up relu2
I0521 04:57:39.255098 20178 net.cpp:157] Top shape: 680 20 54 46 (33782400)
I0521 04:57:39.255110 20178 net.cpp:165] Memory required for data: 757549920
I0521 04:57:39.255120 20178 layer_factory.hpp:77] Creating layer pool2
I0521 04:57:39.255132 20178 net.cpp:106] Creating Layer pool2
I0521 04:57:39.255142 20178 net.cpp:454] pool2 <- conv2
I0521 04:57:39.255167 20178 net.cpp:411] pool2 -> pool2
I0521 04:57:39.255235 20178 net.cpp:150] Setting up pool2
I0521 04:57:39.255249 20178 net.cpp:157] Top shape: 680 20 27 46 (16891200)
I0521 04:57:39.255259 20178 net.cpp:165] Memory required for data: 825114720
I0521 04:57:39.255270 20178 layer_factory.hpp:77] Creating layer conv3
I0521 04:57:39.255286 20178 net.cpp:106] Creating Layer conv3
I0521 04:57:39.255297 20178 net.cpp:454] conv3 <- pool2
I0521 04:57:39.255311 20178 net.cpp:411] conv3 -> conv3
I0521 04:57:39.257221 20178 net.cpp:150] Setting up conv3
I0521 04:57:39.257244 20178 net.cpp:157] Top shape: 680 28 22 44 (18430720)
I0521 04:57:39.257256 20178 net.cpp:165] Memory required for data: 898837600
I0521 04:57:39.257275 20178 layer_factory.hpp:77] Creating layer relu3
I0521 04:57:39.257292 20178 net.cpp:106] Creating Layer relu3
I0521 04:57:39.257302 20178 net.cpp:454] relu3 <- conv3
I0521 04:57:39.257314 20178 net.cpp:397] relu3 -> conv3 (in-place)
I0521 04:57:39.257793 20178 net.cpp:150] Setting up relu3
I0521 04:57:39.257812 20178 net.cpp:157] Top shape: 680 28 22 44 (18430720)
I0521 04:57:39.257822 20178 net.cpp:165] Memory required for data: 972560480
I0521 04:57:39.257832 20178 layer_factory.hpp:77] Creating layer pool3
I0521 04:57:39.257845 20178 net.cpp:106] Creating Layer pool3
I0521 04:57:39.257855 20178 net.cpp:454] pool3 <- conv3
I0521 04:57:39.257868 20178 net.cpp:411] pool3 -> pool3
I0521 04:57:39.257935 20178 net.cpp:150] Setting up pool3
I0521 04:57:39.257948 20178 net.cpp:157] Top shape: 680 28 11 44 (9215360)
I0521 04:57:39.257958 20178 net.cpp:165] Memory required for data: 1009421920
I0521 04:57:39.257968 20178 layer_factory.hpp:77] Creating layer conv4
I0521 04:57:39.257983 20178 net.cpp:106] Creating Layer conv4
I0521 04:57:39.257994 20178 net.cpp:454] conv4 <- pool3
I0521 04:57:39.258008 20178 net.cpp:411] conv4 -> conv4
I0521 04:57:39.260794 20178 net.cpp:150] Setting up conv4
I0521 04:57:39.260823 20178 net.cpp:157] Top shape: 680 36 6 42 (6168960)
I0521 04:57:39.260833 20178 net.cpp:165] Memory required for data: 1034097760
I0521 04:57:39.260849 20178 layer_factory.hpp:77] Creating layer relu4
I0521 04:57:39.260864 20178 net.cpp:106] Creating Layer relu4
I0521 04:57:39.260874 20178 net.cpp:454] relu4 <- conv4
I0521 04:57:39.260887 20178 net.cpp:397] relu4 -> conv4 (in-place)
I0521 04:57:39.261360 20178 net.cpp:150] Setting up relu4
I0521 04:57:39.261378 20178 net.cpp:157] Top shape: 680 36 6 42 (6168960)
I0521 04:57:39.261387 20178 net.cpp:165] Memory required for data: 1058773600
I0521 04:57:39.261399 20178 layer_factory.hpp:77] Creating layer pool4
I0521 04:57:39.261411 20178 net.cpp:106] Creating Layer pool4
I0521 04:57:39.261420 20178 net.cpp:454] pool4 <- conv4
I0521 04:57:39.261433 20178 net.cpp:411] pool4 -> pool4
I0521 04:57:39.261502 20178 net.cpp:150] Setting up pool4
I0521 04:57:39.261515 20178 net.cpp:157] Top shape: 680 36 3 42 (3084480)
I0521 04:57:39.261525 20178 net.cpp:165] Memory required for data: 1071111520
I0521 04:57:39.261535 20178 layer_factory.hpp:77] Creating layer ip1
I0521 04:57:39.261554 20178 net.cpp:106] Creating Layer ip1
I0521 04:57:39.261565 20178 net.cpp:454] ip1 <- pool4
I0521 04:57:39.261579 20178 net.cpp:411] ip1 -> ip1
I0521 04:57:39.277096 20178 net.cpp:150] Setting up ip1
I0521 04:57:39.277122 20178 net.cpp:157] Top shape: 680 196 (133280)
I0521 04:57:39.277139 20178 net.cpp:165] Memory required for data: 1071644640
I0521 04:57:39.277168 20178 layer_factory.hpp:77] Creating layer relu5
I0521 04:57:39.277182 20178 net.cpp:106] Creating Layer relu5
I0521 04:57:39.277192 20178 net.cpp:454] relu5 <- ip1
I0521 04:57:39.277205 20178 net.cpp:397] relu5 -> ip1 (in-place)
I0521 04:57:39.277545 20178 net.cpp:150] Setting up relu5
I0521 04:57:39.277560 20178 net.cpp:157] Top shape: 680 196 (133280)
I0521 04:57:39.277570 20178 net.cpp:165] Memory required for data: 1072177760
I0521 04:57:39.277580 20178 layer_factory.hpp:77] Creating layer drop1
I0521 04:57:39.277601 20178 net.cpp:106] Creating Layer drop1
I0521 04:57:39.277612 20178 net.cpp:454] drop1 <- ip1
I0521 04:57:39.277637 20178 net.cpp:397] drop1 -> ip1 (in-place)
I0521 04:57:39.277683 20178 net.cpp:150] Setting up drop1
I0521 04:57:39.277696 20178 net.cpp:157] Top shape: 680 196 (133280)
I0521 04:57:39.277706 20178 net.cpp:165] Memory required for data: 1072710880
I0521 04:57:39.277715 20178 layer_factory.hpp:77] Creating layer ip2
I0521 04:57:39.277739 20178 net.cpp:106] Creating Layer ip2
I0521 04:57:39.277750 20178 net.cpp:454] ip2 <- ip1
I0521 04:57:39.277762 20178 net.cpp:411] ip2 -> ip2
I0521 04:57:39.278226 20178 net.cpp:150] Setting up ip2
I0521 04:57:39.278239 20178 net.cpp:157] Top shape: 680 98 (66640)
I0521 04:57:39.278249 20178 net.cpp:165] Memory required for data: 1072977440
I0521 04:57:39.278264 20178 layer_factory.hpp:77] Creating layer relu6
I0521 04:57:39.278276 20178 net.cpp:106] Creating Layer relu6
I0521 04:57:39.278286 20178 net.cpp:454] relu6 <- ip2
I0521 04:57:39.278298 20178 net.cpp:397] relu6 -> ip2 (in-place)
I0521 04:57:39.278815 20178 net.cpp:150] Setting up relu6
I0521 04:57:39.278832 20178 net.cpp:157] Top shape: 680 98 (66640)
I0521 04:57:39.278843 20178 net.cpp:165] Memory required for data: 1073244000
I0521 04:57:39.278852 20178 layer_factory.hpp:77] Creating layer drop2
I0521 04:57:39.278866 20178 net.cpp:106] Creating Layer drop2
I0521 04:57:39.278875 20178 net.cpp:454] drop2 <- ip2
I0521 04:57:39.278887 20178 net.cpp:397] drop2 -> ip2 (in-place)
I0521 04:57:39.278929 20178 net.cpp:150] Setting up drop2
I0521 04:57:39.278942 20178 net.cpp:157] Top shape: 680 98 (66640)
I0521 04:57:39.278952 20178 net.cpp:165] Memory required for data: 1073510560
I0521 04:57:39.278962 20178 layer_factory.hpp:77] Creating layer ip3
I0521 04:57:39.278976 20178 net.cpp:106] Creating Layer ip3
I0521 04:57:39.278985 20178 net.cpp:454] ip3 <- ip2
I0521 04:57:39.278998 20178 net.cpp:411] ip3 -> ip3
I0521 04:57:39.279208 20178 net.cpp:150] Setting up ip3
I0521 04:57:39.279222 20178 net.cpp:157] Top shape: 680 11 (7480)
I0521 04:57:39.279232 20178 net.cpp:165] Memory required for data: 1073540480
I0521 04:57:39.279247 20178 layer_factory.hpp:77] Creating layer drop3
I0521 04:57:39.279260 20178 net.cpp:106] Creating Layer drop3
I0521 04:57:39.279269 20178 net.cpp:454] drop3 <- ip3
I0521 04:57:39.279281 20178 net.cpp:397] drop3 -> ip3 (in-place)
I0521 04:57:39.279320 20178 net.cpp:150] Setting up drop3
I0521 04:57:39.279333 20178 net.cpp:157] Top shape: 680 11 (7480)
I0521 04:57:39.279343 20178 net.cpp:165] Memory required for data: 1073570400
I0521 04:57:39.279353 20178 layer_factory.hpp:77] Creating layer loss
I0521 04:57:39.279372 20178 net.cpp:106] Creating Layer loss
I0521 04:57:39.279382 20178 net.cpp:454] loss <- ip3
I0521 04:57:39.279393 20178 net.cpp:454] loss <- label
I0521 04:57:39.279405 20178 net.cpp:411] loss -> loss
I0521 04:57:39.279422 20178 layer_factory.hpp:77] Creating layer loss
…
I0521 04:57:39.281971 20178 solver.cpp:181] Creating test net (#0) specified by net file: /lustre/atlas/proj-shared/hep105/caffe_titan/caffe_workflow/logs_batch_size_test/batch_size_680_2016-05-20T11.20.57.344635.prototxt
I0521 04:57:39.282042 20178 net.cpp:322] The NetState phase (1) differed from the phase (0) specified by a rule in layer data_hdf5
I0521 04:57:39.282398 20178 net.cpp:49] Initializing net from parameters: 
name: "caffe_test_127x50_x_unshifted"
state {
  phase: TEST
}
layer {
  name: "data_hdf5"
  type: "HDF5Data"
  top: "data"
  top: "label"
  include {
    phase: TEST
  }
  hdf5_data_param {
    source: "/lustre/atlas/proj-shared/hep105/caffe_titan/minosmatch_nukecczdefs_127x50_x_unshifted_me1Bmc.testlist"
    batch_size: 680
  }
}
layer {
  name: "conv1"
  type: "Convolution"
  bottom: "data"
  top: "conv1"
  convolution_param {
    num_output: 12
    pad: 0
    stride: 1
    weight_filler {
      type: "xavier"
    }
    bias_filler {
      type: "constant"
    }
    kernel_h: 8
    kernel_w: 3
  }
}
layer {
  name: "relu1"
  type: "ReLU"
  bottom: "conv1"
  top: "conv1"
}
layer {
  name: "pool1"
  type: "Pooling"
  bottom: "conv1"
  top: "pool1"
  pooling_param {
    pool: MAX
    kernel_h: 2
    kernel_w: 1
    stride_h: 2
    stride_w: 1
  }
}
layer {
  name: "conv2"
  type: "Convolution"
  bottom: "pool1"
  top: "conv2"
  convolution_param {
    num_output: 20
    pad: 0
    stride: 1
    weight_filler {
      type: "xavier"
    }
    bias_filler {
      type: "constant"
    }
    kernel_h: 7
    kernel_w: 3
  }
}
layer {
  name: "relu2"
  type: "ReLU"
  bottom: "conv2"
  top: "conv2"
}
layer {
  name: "pool2"
  type: "Pooling"
  bottom: "conv2"
  top: "pool2"
  pooling_param {
    pool: MAX
    kernel_h: 2
    kernel_w: 1
    stride_h: 2
    stride_w: 1
  }
}
layer {
  name: "conv3"
  type: "Convolution"
  bottom: "pool2"
  top: "conv3"
  convolution_param {
    num_output: 28
    pad: 0
    stride: 1
    weight_filler {
      type: "xavier"
    }
    bias_filler {
      type: "constant"
    }
    kernel_h: 6
    kernel_w: 3
  }
}
layer {
  name: "relu3"
  type: "ReLU"
  bottom: "conv3"
  top: "conv3"
}
layer {
  name: "pool3"
  type: "Pooling"
  bottom: "conv3"
  top: "pool3"
  pooling_param {
    pool: MAX
    kernel_h: 2
    kernel_w: 1
    stride_h: 2
    stride_w: 1
  }
}
layer {
  name: "conv4"
  type: "Convolution"
  bottom: "pool3"
  top: "conv4"
  convolution_param {
    num_output: 36
    pad: 0
    stride: 1
    weight_filler {
      type: "xavier"
    }
    bias_filler {
      type: "constant"
    }
    kernel_h: 6
    kernel_w: 3
  }
}
layer {
  name: "relu4"
  type: "ReLU"
  bottom: "conv4"
  top: "conv4"
}
layer {
  name: "pool4"
  type: "Pooling"
  bottom: "conv4"
  top: "pool4"
  pooling_param {
    pool: MAX
    kernel_h: 2
    kernel_w: 1
    stride_h: 2
    stride_w: 1
  }
}
layer {
  name: "ip1"
  type: "InnerProduct"
  bottom: "pool4"
  top: "ip1"
  inner_product_param {
    num_output: 196
    weight_filler {
      type: "xavier"
    }
    bias_filler {
      type: "constant"
    }
  }
}
layer {
  name: "relu5"
  type: "ReLU"
  bottom: "ip1"
  top: "ip1"
}
layer {
  name: "drop1"
  type: "Dropout"
  bottom: "ip1"
  top: "ip1"
  dropout_param {
    dropout_ratio: 0.5
  }
}
layer {
  name: "ip2"
  type: "InnerProduct"
  bottom: "ip1"
  top: "ip2"
  inner_product_param {
    num_output: 98
    weight_filler {
      type: "xavier"
    }
    bias_filler {
      type: "constant"
    }
  }
}
layer {
  name: "relu6"
  type: "ReLU"
  bottom: "ip2"
  top: "ip2"
}
layer {
  name: "drop2"
  type: "Dropout"
  bottom: "ip2"
  top: "ip2"
  dropout_param {
    dropout_ratio: 0.5
  }
}
layer {
  name: "ip3"
  type: "InnerProduct"
  bottom: "ip2"
  top: "ip3"
  inner_product_param {
    num_output: 11
    weight_filler {
      type: "xavier"
    }
    bias_filler {
      type: "constant"
    }
  }
}
layer {
  name: "drop3"
  type: "Dropout"
  bottom: "ip3"
  top: "ip3"
  dropout_param {
    dropout_ratio: 0.5
  }
}
layer {
  name: "accuracy"
  type: "Accuracy"
  bottom: "ip3"
  bottom: "label"
  top: "accuracy"
  include {
    phase: TEST
  }
}
layer {
  name: "loss"
  type: "SoftmaxWithLoss"
  bottom: "ip3"
  bottom: "label"
  top: "loss"
}
I0521 04:57:39.282588 20178 layer_factory.hpp:77] Creating layer data_hdf5
I0521 04:57:39.282603 20178 net.cpp:106] Creating Layer data_hdf5
I0521 04:57:39.282613 20178 net.cpp:411] data_hdf5 -> data
I0521 04:57:39.282629 20178 net.cpp:411] data_hdf5 -> label
I0521 04:57:39.282645 20178 hdf5_data_layer.cpp:79] Loading list of HDF5 filenames from: /lustre/atlas/proj-shared/hep105/caffe_titan/minosmatch_nukecczdefs_127x50_x_unshifted_me1Bmc.testlist
I0521 04:57:39.283890 20178 hdf5_data_layer.cpp:93] Number of HDF5 files: 3
I0521 04:58:00.580075 20178 net.cpp:150] Setting up data_hdf5
I0521 04:58:00.580240 20178 net.cpp:157] Top shape: 680 1 127 50 (4318000)
I0521 04:58:00.580255 20178 net.cpp:157] Top shape: 680 (680)
I0521 04:58:00.580268 20178 net.cpp:165] Memory required for data: 17274720
I0521 04:58:00.580282 20178 layer_factory.hpp:77] Creating layer label_data_hdf5_1_split
I0521 04:58:00.580310 20178 net.cpp:106] Creating Layer label_data_hdf5_1_split
I0521 04:58:00.580322 20178 net.cpp:454] label_data_hdf5_1_split <- label
I0521 04:58:00.580337 20178 net.cpp:411] label_data_hdf5_1_split -> label_data_hdf5_1_split_0
I0521 04:58:00.580358 20178 net.cpp:411] label_data_hdf5_1_split -> label_data_hdf5_1_split_1
I0521 04:58:00.580431 20178 net.cpp:150] Setting up label_data_hdf5_1_split
I0521 04:58:00.580446 20178 net.cpp:157] Top shape: 680 (680)
I0521 04:58:00.580456 20178 net.cpp:157] Top shape: 680 (680)
I0521 04:58:00.580466 20178 net.cpp:165] Memory required for data: 17280160
I0521 04:58:00.580476 20178 layer_factory.hpp:77] Creating layer conv1
I0521 04:58:00.580497 20178 net.cpp:106] Creating Layer conv1
I0521 04:58:00.580508 20178 net.cpp:454] conv1 <- data
I0521 04:58:00.580523 20178 net.cpp:411] conv1 -> conv1
I0521 04:58:00.582458 20178 net.cpp:150] Setting up conv1
I0521 04:58:00.582482 20178 net.cpp:157] Top shape: 680 12 120 48 (47001600)
I0521 04:58:00.582494 20178 net.cpp:165] Memory required for data: 205286560
I0521 04:58:00.582515 20178 layer_factory.hpp:77] Creating layer relu1
I0521 04:58:00.582530 20178 net.cpp:106] Creating Layer relu1
I0521 04:58:00.582540 20178 net.cpp:454] relu1 <- conv1
I0521 04:58:00.582553 20178 net.cpp:397] relu1 -> conv1 (in-place)
I0521 04:58:00.583051 20178 net.cpp:150] Setting up relu1
I0521 04:58:00.583067 20178 net.cpp:157] Top shape: 680 12 120 48 (47001600)
I0521 04:58:00.583078 20178 net.cpp:165] Memory required for data: 393292960
I0521 04:58:00.583088 20178 layer_factory.hpp:77] Creating layer pool1
I0521 04:58:00.583106 20178 net.cpp:106] Creating Layer pool1
I0521 04:58:00.583115 20178 net.cpp:454] pool1 <- conv1
I0521 04:58:00.583128 20178 net.cpp:411] pool1 -> pool1
I0521 04:58:00.583204 20178 net.cpp:150] Setting up pool1
I0521 04:58:00.583216 20178 net.cpp:157] Top shape: 680 12 60 48 (23500800)
I0521 04:58:00.583228 20178 net.cpp:165] Memory required for data: 487296160
I0521 04:58:00.583238 20178 layer_factory.hpp:77] Creating layer conv2
I0521 04:58:00.583256 20178 net.cpp:106] Creating Layer conv2
I0521 04:58:00.583267 20178 net.cpp:454] conv2 <- pool1
I0521 04:58:00.583281 20178 net.cpp:411] conv2 -> conv2
I0521 04:58:00.585192 20178 net.cpp:150] Setting up conv2
I0521 04:58:00.585214 20178 net.cpp:157] Top shape: 680 20 54 46 (33782400)
I0521 04:58:00.585227 20178 net.cpp:165] Memory required for data: 622425760
I0521 04:58:00.585245 20178 layer_factory.hpp:77] Creating layer relu2
I0521 04:58:00.585258 20178 net.cpp:106] Creating Layer relu2
I0521 04:58:00.585268 20178 net.cpp:454] relu2 <- conv2
I0521 04:58:00.585281 20178 net.cpp:397] relu2 -> conv2 (in-place)
I0521 04:58:00.585615 20178 net.cpp:150] Setting up relu2
I0521 04:58:00.585630 20178 net.cpp:157] Top shape: 680 20 54 46 (33782400)
I0521 04:58:00.585639 20178 net.cpp:165] Memory required for data: 757555360
I0521 04:58:00.585649 20178 layer_factory.hpp:77] Creating layer pool2
I0521 04:58:00.585664 20178 net.cpp:106] Creating Layer pool2
I0521 04:58:00.585674 20178 net.cpp:454] pool2 <- conv2
I0521 04:58:00.585685 20178 net.cpp:411] pool2 -> pool2
I0521 04:58:00.585765 20178 net.cpp:150] Setting up pool2
I0521 04:58:00.585779 20178 net.cpp:157] Top shape: 680 20 27 46 (16891200)
I0521 04:58:00.585789 20178 net.cpp:165] Memory required for data: 825120160
I0521 04:58:00.585796 20178 layer_factory.hpp:77] Creating layer conv3
I0521 04:58:00.585818 20178 net.cpp:106] Creating Layer conv3
I0521 04:58:00.585827 20178 net.cpp:454] conv3 <- pool2
I0521 04:58:00.585841 20178 net.cpp:411] conv3 -> conv3
I0521 04:58:00.587817 20178 net.cpp:150] Setting up conv3
I0521 04:58:00.587836 20178 net.cpp:157] Top shape: 680 28 22 44 (18430720)
I0521 04:58:00.587846 20178 net.cpp:165] Memory required for data: 898843040
I0521 04:58:00.587878 20178 layer_factory.hpp:77] Creating layer relu3
I0521 04:58:00.587893 20178 net.cpp:106] Creating Layer relu3
I0521 04:58:00.587903 20178 net.cpp:454] relu3 <- conv3
I0521 04:58:00.587914 20178 net.cpp:397] relu3 -> conv3 (in-place)
I0521 04:58:00.588392 20178 net.cpp:150] Setting up relu3
I0521 04:58:00.588407 20178 net.cpp:157] Top shape: 680 28 22 44 (18430720)
I0521 04:58:00.588418 20178 net.cpp:165] Memory required for data: 972565920
I0521 04:58:00.588428 20178 layer_factory.hpp:77] Creating layer pool3
I0521 04:58:00.588441 20178 net.cpp:106] Creating Layer pool3
I0521 04:58:00.588451 20178 net.cpp:454] pool3 <- conv3
I0521 04:58:00.588464 20178 net.cpp:411] pool3 -> pool3
I0521 04:58:00.588536 20178 net.cpp:150] Setting up pool3
I0521 04:58:00.588548 20178 net.cpp:157] Top shape: 680 28 11 44 (9215360)
I0521 04:58:00.588558 20178 net.cpp:165] Memory required for data: 1009427360
I0521 04:58:00.588568 20178 layer_factory.hpp:77] Creating layer conv4
I0521 04:58:00.588584 20178 net.cpp:106] Creating Layer conv4
I0521 04:58:00.588595 20178 net.cpp:454] conv4 <- pool3
I0521 04:58:00.588609 20178 net.cpp:411] conv4 -> conv4
I0521 04:58:00.590667 20178 net.cpp:150] Setting up conv4
I0521 04:58:00.590687 20178 net.cpp:157] Top shape: 680 36 6 42 (6168960)
I0521 04:58:00.590701 20178 net.cpp:165] Memory required for data: 1034103200
I0521 04:58:00.590716 20178 layer_factory.hpp:77] Creating layer relu4
I0521 04:58:00.590730 20178 net.cpp:106] Creating Layer relu4
I0521 04:58:00.590740 20178 net.cpp:454] relu4 <- conv4
I0521 04:58:00.590752 20178 net.cpp:397] relu4 -> conv4 (in-place)
I0521 04:58:00.591223 20178 net.cpp:150] Setting up relu4
I0521 04:58:00.591238 20178 net.cpp:157] Top shape: 680 36 6 42 (6168960)
I0521 04:58:00.591248 20178 net.cpp:165] Memory required for data: 1058779040
I0521 04:58:00.591259 20178 layer_factory.hpp:77] Creating layer pool4
I0521 04:58:00.591271 20178 net.cpp:106] Creating Layer pool4
I0521 04:58:00.591281 20178 net.cpp:454] pool4 <- conv4
I0521 04:58:00.591295 20178 net.cpp:411] pool4 -> pool4
I0521 04:58:00.591366 20178 net.cpp:150] Setting up pool4
I0521 04:58:00.591379 20178 net.cpp:157] Top shape: 680 36 3 42 (3084480)
I0521 04:58:00.591388 20178 net.cpp:165] Memory required for data: 1071116960
I0521 04:58:00.591398 20178 layer_factory.hpp:77] Creating layer ip1
I0521 04:58:00.591416 20178 net.cpp:106] Creating Layer ip1
I0521 04:58:00.591426 20178 net.cpp:454] ip1 <- pool4
I0521 04:58:00.591440 20178 net.cpp:411] ip1 -> ip1
I0521 04:58:00.606860 20178 net.cpp:150] Setting up ip1
I0521 04:58:00.606887 20178 net.cpp:157] Top shape: 680 196 (133280)
I0521 04:58:00.606900 20178 net.cpp:165] Memory required for data: 1071650080
I0521 04:58:00.606922 20178 layer_factory.hpp:77] Creating layer relu5
I0521 04:58:00.606937 20178 net.cpp:106] Creating Layer relu5
I0521 04:58:00.606947 20178 net.cpp:454] relu5 <- ip1
I0521 04:58:00.606961 20178 net.cpp:397] relu5 -> ip1 (in-place)
I0521 04:58:00.607308 20178 net.cpp:150] Setting up relu5
I0521 04:58:00.607322 20178 net.cpp:157] Top shape: 680 196 (133280)
I0521 04:58:00.607331 20178 net.cpp:165] Memory required for data: 1072183200
I0521 04:58:00.607342 20178 layer_factory.hpp:77] Creating layer drop1
I0521 04:58:00.607360 20178 net.cpp:106] Creating Layer drop1
I0521 04:58:00.607370 20178 net.cpp:454] drop1 <- ip1
I0521 04:58:00.607383 20178 net.cpp:397] drop1 -> ip1 (in-place)
I0521 04:58:00.607429 20178 net.cpp:150] Setting up drop1
I0521 04:58:00.607441 20178 net.cpp:157] Top shape: 680 196 (133280)
I0521 04:58:00.607450 20178 net.cpp:165] Memory required for data: 1072716320
I0521 04:58:00.607460 20178 layer_factory.hpp:77] Creating layer ip2
I0521 04:58:00.607475 20178 net.cpp:106] Creating Layer ip2
I0521 04:58:00.607486 20178 net.cpp:454] ip2 <- ip1
I0521 04:58:00.607498 20178 net.cpp:411] ip2 -> ip2
I0521 04:58:00.607978 20178 net.cpp:150] Setting up ip2
I0521 04:58:00.607992 20178 net.cpp:157] Top shape: 680 98 (66640)
I0521 04:58:00.608001 20178 net.cpp:165] Memory required for data: 1072982880
I0521 04:58:00.608029 20178 layer_factory.hpp:77] Creating layer relu6
I0521 04:58:00.608043 20178 net.cpp:106] Creating Layer relu6
I0521 04:58:00.608053 20178 net.cpp:454] relu6 <- ip2
I0521 04:58:00.608065 20178 net.cpp:397] relu6 -> ip2 (in-place)
I0521 04:58:00.608603 20178 net.cpp:150] Setting up relu6
I0521 04:58:00.608625 20178 net.cpp:157] Top shape: 680 98 (66640)
I0521 04:58:00.608635 20178 net.cpp:165] Memory required for data: 1073249440
I0521 04:58:00.608645 20178 layer_factory.hpp:77] Creating layer drop2
I0521 04:58:00.608659 20178 net.cpp:106] Creating Layer drop2
I0521 04:58:00.608669 20178 net.cpp:454] drop2 <- ip2
I0521 04:58:00.608682 20178 net.cpp:397] drop2 -> ip2 (in-place)
I0521 04:58:00.608726 20178 net.cpp:150] Setting up drop2
I0521 04:58:00.608739 20178 net.cpp:157] Top shape: 680 98 (66640)
I0521 04:58:00.608749 20178 net.cpp:165] Memory required for data: 1073516000
I0521 04:58:00.608759 20178 layer_factory.hpp:77] Creating layer ip3
I0521 04:58:00.608773 20178 net.cpp:106] Creating Layer ip3
I0521 04:58:00.608783 20178 net.cpp:454] ip3 <- ip2
I0521 04:58:00.608798 20178 net.cpp:411] ip3 -> ip3
I0521 04:58:00.609020 20178 net.cpp:150] Setting up ip3
I0521 04:58:00.609033 20178 net.cpp:157] Top shape: 680 11 (7480)
I0521 04:58:00.609045 20178 net.cpp:165] Memory required for data: 1073545920
I0521 04:58:00.609060 20178 layer_factory.hpp:77] Creating layer drop3
I0521 04:58:00.609072 20178 net.cpp:106] Creating Layer drop3
I0521 04:58:00.609082 20178 net.cpp:454] drop3 <- ip3
I0521 04:58:00.609094 20178 net.cpp:397] drop3 -> ip3 (in-place)
I0521 04:58:00.609135 20178 net.cpp:150] Setting up drop3
I0521 04:58:00.609148 20178 net.cpp:157] Top shape: 680 11 (7480)
I0521 04:58:00.609158 20178 net.cpp:165] Memory required for data: 1073575840
I0521 04:58:00.609169 20178 layer_factory.hpp:77] Creating layer ip3_drop3_0_split
I0521 04:58:00.609180 20178 net.cpp:106] Creating Layer ip3_drop3_0_split
I0521 04:58:00.609190 20178 net.cpp:454] ip3_drop3_0_split <- ip3
I0521 04:58:00.609203 20178 net.cpp:411] ip3_drop3_0_split -> ip3_drop3_0_split_0
I0521 04:58:00.609218 20178 net.cpp:411] ip3_drop3_0_split -> ip3_drop3_0_split_1
I0521 04:58:00.609292 20178 net.cpp:150] Setting up ip3_drop3_0_split
I0521 04:58:00.609305 20178 net.cpp:157] Top shape: 680 11 (7480)
I0521 04:58:00.609318 20178 net.cpp:157] Top shape: 680 11 (7480)
I0521 04:58:00.609328 20178 net.cpp:165] Memory required for data: 1073635680
I0521 04:58:00.609338 20178 layer_factory.hpp:77] Creating layer accuracy
I0521 04:58:00.609359 20178 net.cpp:106] Creating Layer accuracy
I0521 04:58:00.609370 20178 net.cpp:454] accuracy <- ip3_drop3_0_split_0
I0521 04:58:00.609381 20178 net.cpp:454] accuracy <- label_data_hdf5_1_split_0
I0521 04:58:00.609395 20178 net.cpp:411] accuracy -> accuracy
…
