…
I0520 23:43:11.695219  9674 net.cpp:322] The NetState phase (0) differed from the phase (1) specified by a rule in layer data_hdf5
I0520 23:43:11.695281  9674 net.cpp:322] The NetState phase (0) differed from the phase (1) specified by a rule in layer accuracy
I0520 23:43:11.695636  9674 net.cpp:49] Initializing net from parameters: 
name: "caffe_test_127x50_x_unshifted"
state {
  phase: TRAIN
}
layer {
  name: "data_hdf5"
  type: "HDF5Data"
  top: "data"
  top: "label"
  include {
    phase: TRAIN
  }
  hdf5_data_param {
    source: "/lustre/atlas/proj-shared/hep105/caffe_titan/minosmatch_nukecczdefs_127x50_x_unshifted_me1Bmc.trainlist"
    batch_size: 440
  }
}
layer {
  name: "conv1"
  type: "Convolution"
  bottom: "data"
  top: "conv1"
  convolution_param {
    num_output: 12
    pad: 0
    stride: 1
    weight_filler {
      type: "xavier"
    }
    bias_filler {
      type: "constant"
    }
    kernel_h: 8
    kernel_w: 3
  }
}
layer {
  name: "relu1"
  type: "ReLU"
  bottom: "conv1"
  top: "conv1"
}
layer {
  name: "pool1"
  type: "Pooling"
  bottom: "conv1"
  top: "pool1"
  pooling_param {
    pool: MAX
    kernel_h: 2
    kernel_w: 1
    stride_h: 2
    stride_w: 1
  }
}
layer {
  name: "conv2"
  type: "Convolution"
  bottom: "pool1"
  top: "conv2"
  convolution_param {
    num_output: 20
    pad: 0
    stride: 1
    weight_filler {
      type: "xavier"
    }
    bias_filler {
      type: "constant"
    }
    kernel_h: 7
    kernel_w: 3
  }
}
layer {
  name: "relu2"
  type: "ReLU"
  bottom: "conv2"
  top: "conv2"
}
layer {
  name: "pool2"
  type: "Pooling"
  bottom: "conv2"
  top: "pool2"
  pooling_param {
    pool: MAX
    kernel_h: 2
    kernel_w: 1
    stride_h: 2
    stride_w: 1
  }
}
layer {
  name: "conv3"
  type: "Convolution"
  bottom: "pool2"
  top: "conv3"
  convolution_param {
    num_output: 28
    pad: 0
    stride: 1
    weight_filler {
      type: "xavier"
    }
    bias_filler {
      type: "constant"
    }
    kernel_h: 6
    kernel_w: 3
  }
}
layer {
  name: "relu3"
  type: "ReLU"
  bottom: "conv3"
  top: "conv3"
}
layer {
  name: "pool3"
  type: "Pooling"
  bottom: "conv3"
  top: "pool3"
  pooling_param {
    pool: MAX
    kernel_h: 2
    kernel_w: 1
    stride_h: 2
    stride_w: 1
  }
}
layer {
  name: "conv4"
  type: "Convolution"
  bottom: "pool3"
  top: "conv4"
  convolution_param {
    num_output: 36
    pad: 0
    stride: 1
    weight_filler {
      type: "xavier"
    }
    bias_filler {
      type: "constant"
    }
    kernel_h: 6
    kernel_w: 3
  }
}
layer {
  name: "relu4"
  type: "ReLU"
  bottom: "conv4"
  top: "conv4"
}
layer {
  name: "pool4"
  type: "Pooling"
  bottom: "conv4"
  top: "pool4"
  pooling_param {
    pool: MAX
    kernel_h: 2
    kernel_w: 1
    stride_h: 2
    stride_w: 1
  }
}
layer {
  name: "ip1"
  type: "InnerProduct"
  bottom: "pool4"
  top: "ip1"
  inner_product_param {
    num_output: 196
    weight_filler {
      type: "xavier"
    }
    bias_filler {
      type: "constant"
    }
  }
}
layer {
  name: "relu5"
  type: "ReLU"
  bottom: "ip1"
  top: "ip1"
}
layer {
  name: "drop1"
  type: "Dropout"
  bottom: "ip1"
  top: "ip1"
  dropout_param {
    dropout_ratio: 0.5
  }
}
layer {
  name: "ip2"
  type: "InnerProduct"
  bottom: "ip1"
  top: "ip2"
  inner_product_param {
    num_output: 98
    weight_filler {
      type: "xavier"
    }
    bias_filler {
      type: "constant"
    }
  }
}
layer {
  name: "relu6"
  type: "ReLU"
  bottom: "ip2"
  top: "ip2"
}
layer {
  name: "drop2"
  type: "Dropout"
  bottom: "ip2"
  top: "ip2"
  dropout_param {
    dropout_ratio: 0.5
  }
}
layer {
  name: "ip3"
  type: "InnerProduct"
  bottom: "ip2"
  top: "ip3"
  inner_product_param {
    num_output: 11
    weight_filler {
      type: "xavier"
    }
    bias_filler {
      type: "constant"
    }
  }
}
layer {
  name: "drop3"
  type: "Dropout"
  bottom: "ip3"
  top: "ip3"
  dropout_param {
    dropout_ratio: 0.5
  }
}
layer {
  name: "loss"
  type: "SoftmaxWithLoss"
  bottom: "ip3"
  bottom: "label"
  top: "loss"
}
I0520 23:43:11.695814  9674 layer_factory.hpp:77] Creating layer data_hdf5
I0520 23:43:11.695838  9674 net.cpp:106] Creating Layer data_hdf5
I0520 23:43:11.695852  9674 net.cpp:411] data_hdf5 -> data
I0520 23:43:11.695886  9674 net.cpp:411] data_hdf5 -> label
I0520 23:43:11.695919  9674 hdf5_data_layer.cpp:79] Loading list of HDF5 filenames from: /lustre/atlas/proj-shared/hep105/caffe_titan/minosmatch_nukecczdefs_127x50_x_unshifted_me1Bmc.trainlist
I0520 23:43:11.697863  9674 hdf5_data_layer.cpp:93] Number of HDF5 files: 15
I0520 23:43:11.724136  9674 hdf5.cpp:32] Datatype class: H5T_FLOAT
I0520 23:43:33.289260  9674 hdf5.cpp:35] Datatype class: H5T_INTEGER
I0520 23:43:33.296402  9674 net.cpp:150] Setting up data_hdf5
I0520 23:43:33.296443  9674 net.cpp:157] Top shape: 440 1 127 50 (2794000)
I0520 23:43:33.296458  9674 net.cpp:157] Top shape: 440 (440)
I0520 23:43:33.296471  9674 net.cpp:165] Memory required for data: 11177760
I0520 23:43:33.296484  9674 layer_factory.hpp:77] Creating layer conv1
I0520 23:43:33.296517  9674 net.cpp:106] Creating Layer conv1
I0520 23:43:33.296528  9674 net.cpp:454] conv1 <- data
I0520 23:43:33.296551  9674 net.cpp:411] conv1 -> conv1
I0520 23:43:33.665796  9674 net.cpp:150] Setting up conv1
I0520 23:43:33.665844  9674 net.cpp:157] Top shape: 440 12 120 48 (30412800)
I0520 23:43:33.665855  9674 net.cpp:165] Memory required for data: 132828960
I0520 23:43:33.665882  9674 layer_factory.hpp:77] Creating layer relu1
I0520 23:43:33.665904  9674 net.cpp:106] Creating Layer relu1
I0520 23:43:33.665915  9674 net.cpp:454] relu1 <- conv1
I0520 23:43:33.665930  9674 net.cpp:397] relu1 -> conv1 (in-place)
I0520 23:43:33.666443  9674 net.cpp:150] Setting up relu1
I0520 23:43:33.666460  9674 net.cpp:157] Top shape: 440 12 120 48 (30412800)
I0520 23:43:33.666471  9674 net.cpp:165] Memory required for data: 254480160
I0520 23:43:33.666481  9674 layer_factory.hpp:77] Creating layer pool1
I0520 23:43:33.666497  9674 net.cpp:106] Creating Layer pool1
I0520 23:43:33.666507  9674 net.cpp:454] pool1 <- conv1
I0520 23:43:33.666520  9674 net.cpp:411] pool1 -> pool1
I0520 23:43:33.666600  9674 net.cpp:150] Setting up pool1
I0520 23:43:33.666615  9674 net.cpp:157] Top shape: 440 12 60 48 (15206400)
I0520 23:43:33.666625  9674 net.cpp:165] Memory required for data: 315305760
I0520 23:43:33.666632  9674 layer_factory.hpp:77] Creating layer conv2
I0520 23:43:33.666656  9674 net.cpp:106] Creating Layer conv2
I0520 23:43:33.666666  9674 net.cpp:454] conv2 <- pool1
I0520 23:43:33.666681  9674 net.cpp:411] conv2 -> conv2
I0520 23:43:33.669375  9674 net.cpp:150] Setting up conv2
I0520 23:43:33.669397  9674 net.cpp:157] Top shape: 440 20 54 46 (21859200)
I0520 23:43:33.669409  9674 net.cpp:165] Memory required for data: 402742560
I0520 23:43:33.669427  9674 layer_factory.hpp:77] Creating layer relu2
I0520 23:43:33.669441  9674 net.cpp:106] Creating Layer relu2
I0520 23:43:33.669451  9674 net.cpp:454] relu2 <- conv2
I0520 23:43:33.669463  9674 net.cpp:397] relu2 -> conv2 (in-place)
I0520 23:43:33.669793  9674 net.cpp:150] Setting up relu2
I0520 23:43:33.669808  9674 net.cpp:157] Top shape: 440 20 54 46 (21859200)
I0520 23:43:33.669818  9674 net.cpp:165] Memory required for data: 490179360
I0520 23:43:33.669828  9674 layer_factory.hpp:77] Creating layer pool2
I0520 23:43:33.669841  9674 net.cpp:106] Creating Layer pool2
I0520 23:43:33.669850  9674 net.cpp:454] pool2 <- conv2
I0520 23:43:33.669877  9674 net.cpp:411] pool2 -> pool2
I0520 23:43:33.669945  9674 net.cpp:150] Setting up pool2
I0520 23:43:33.669958  9674 net.cpp:157] Top shape: 440 20 27 46 (10929600)
I0520 23:43:33.669968  9674 net.cpp:165] Memory required for data: 533897760
I0520 23:43:33.669978  9674 layer_factory.hpp:77] Creating layer conv3
I0520 23:43:33.669996  9674 net.cpp:106] Creating Layer conv3
I0520 23:43:33.670007  9674 net.cpp:454] conv3 <- pool2
I0520 23:43:33.670020  9674 net.cpp:411] conv3 -> conv3
I0520 23:43:33.671952  9674 net.cpp:150] Setting up conv3
I0520 23:43:33.671974  9674 net.cpp:157] Top shape: 440 28 22 44 (11925760)
I0520 23:43:33.671988  9674 net.cpp:165] Memory required for data: 581600800
I0520 23:43:33.672006  9674 layer_factory.hpp:77] Creating layer relu3
I0520 23:43:33.672022  9674 net.cpp:106] Creating Layer relu3
I0520 23:43:33.672032  9674 net.cpp:454] relu3 <- conv3
I0520 23:43:33.672045  9674 net.cpp:397] relu3 -> conv3 (in-place)
I0520 23:43:33.672513  9674 net.cpp:150] Setting up relu3
I0520 23:43:33.672529  9674 net.cpp:157] Top shape: 440 28 22 44 (11925760)
I0520 23:43:33.672539  9674 net.cpp:165] Memory required for data: 629303840
I0520 23:43:33.672549  9674 layer_factory.hpp:77] Creating layer pool3
I0520 23:43:33.672562  9674 net.cpp:106] Creating Layer pool3
I0520 23:43:33.672572  9674 net.cpp:454] pool3 <- conv3
I0520 23:43:33.672585  9674 net.cpp:411] pool3 -> pool3
I0520 23:43:33.672652  9674 net.cpp:150] Setting up pool3
I0520 23:43:33.672665  9674 net.cpp:157] Top shape: 440 28 11 44 (5962880)
I0520 23:43:33.672675  9674 net.cpp:165] Memory required for data: 653155360
I0520 23:43:33.672685  9674 layer_factory.hpp:77] Creating layer conv4
I0520 23:43:33.672703  9674 net.cpp:106] Creating Layer conv4
I0520 23:43:33.672713  9674 net.cpp:454] conv4 <- pool3
I0520 23:43:33.672726  9674 net.cpp:411] conv4 -> conv4
I0520 23:43:33.675498  9674 net.cpp:150] Setting up conv4
I0520 23:43:33.675524  9674 net.cpp:157] Top shape: 440 36 6 42 (3991680)
I0520 23:43:33.675536  9674 net.cpp:165] Memory required for data: 669122080
I0520 23:43:33.675552  9674 layer_factory.hpp:77] Creating layer relu4
I0520 23:43:33.675566  9674 net.cpp:106] Creating Layer relu4
I0520 23:43:33.675577  9674 net.cpp:454] relu4 <- conv4
I0520 23:43:33.675590  9674 net.cpp:397] relu4 -> conv4 (in-place)
I0520 23:43:33.676064  9674 net.cpp:150] Setting up relu4
I0520 23:43:33.676081  9674 net.cpp:157] Top shape: 440 36 6 42 (3991680)
I0520 23:43:33.676091  9674 net.cpp:165] Memory required for data: 685088800
I0520 23:43:33.676101  9674 layer_factory.hpp:77] Creating layer pool4
I0520 23:43:33.676115  9674 net.cpp:106] Creating Layer pool4
I0520 23:43:33.676125  9674 net.cpp:454] pool4 <- conv4
I0520 23:43:33.676137  9674 net.cpp:411] pool4 -> pool4
I0520 23:43:33.676205  9674 net.cpp:150] Setting up pool4
I0520 23:43:33.676218  9674 net.cpp:157] Top shape: 440 36 3 42 (1995840)
I0520 23:43:33.676229  9674 net.cpp:165] Memory required for data: 693072160
I0520 23:43:33.676239  9674 layer_factory.hpp:77] Creating layer ip1
I0520 23:43:33.676259  9674 net.cpp:106] Creating Layer ip1
I0520 23:43:33.676270  9674 net.cpp:454] ip1 <- pool4
I0520 23:43:33.676283  9674 net.cpp:411] ip1 -> ip1
I0520 23:43:33.691716  9674 net.cpp:150] Setting up ip1
I0520 23:43:33.691745  9674 net.cpp:157] Top shape: 440 196 (86240)
I0520 23:43:33.691759  9674 net.cpp:165] Memory required for data: 693417120
I0520 23:43:33.691781  9674 layer_factory.hpp:77] Creating layer relu5
I0520 23:43:33.691795  9674 net.cpp:106] Creating Layer relu5
I0520 23:43:33.691807  9674 net.cpp:454] relu5 <- ip1
I0520 23:43:33.691819  9674 net.cpp:397] relu5 -> ip1 (in-place)
I0520 23:43:33.692160  9674 net.cpp:150] Setting up relu5
I0520 23:43:33.692174  9674 net.cpp:157] Top shape: 440 196 (86240)
I0520 23:43:33.692185  9674 net.cpp:165] Memory required for data: 693762080
I0520 23:43:33.692195  9674 layer_factory.hpp:77] Creating layer drop1
I0520 23:43:33.692216  9674 net.cpp:106] Creating Layer drop1
I0520 23:43:33.692227  9674 net.cpp:454] drop1 <- ip1
I0520 23:43:33.692252  9674 net.cpp:397] drop1 -> ip1 (in-place)
I0520 23:43:33.692298  9674 net.cpp:150] Setting up drop1
I0520 23:43:33.692312  9674 net.cpp:157] Top shape: 440 196 (86240)
I0520 23:43:33.692322  9674 net.cpp:165] Memory required for data: 694107040
I0520 23:43:33.692332  9674 layer_factory.hpp:77] Creating layer ip2
I0520 23:43:33.692350  9674 net.cpp:106] Creating Layer ip2
I0520 23:43:33.692360  9674 net.cpp:454] ip2 <- ip1
I0520 23:43:33.692373  9674 net.cpp:411] ip2 -> ip2
I0520 23:43:33.692837  9674 net.cpp:150] Setting up ip2
I0520 23:43:33.692850  9674 net.cpp:157] Top shape: 440 98 (43120)
I0520 23:43:33.692860  9674 net.cpp:165] Memory required for data: 694279520
I0520 23:43:33.692875  9674 layer_factory.hpp:77] Creating layer relu6
I0520 23:43:33.692888  9674 net.cpp:106] Creating Layer relu6
I0520 23:43:33.692898  9674 net.cpp:454] relu6 <- ip2
I0520 23:43:33.692909  9674 net.cpp:397] relu6 -> ip2 (in-place)
I0520 23:43:33.693424  9674 net.cpp:150] Setting up relu6
I0520 23:43:33.693440  9674 net.cpp:157] Top shape: 440 98 (43120)
I0520 23:43:33.693451  9674 net.cpp:165] Memory required for data: 694452000
I0520 23:43:33.693461  9674 layer_factory.hpp:77] Creating layer drop2
I0520 23:43:33.693475  9674 net.cpp:106] Creating Layer drop2
I0520 23:43:33.693485  9674 net.cpp:454] drop2 <- ip2
I0520 23:43:33.693496  9674 net.cpp:397] drop2 -> ip2 (in-place)
I0520 23:43:33.693538  9674 net.cpp:150] Setting up drop2
I0520 23:43:33.693552  9674 net.cpp:157] Top shape: 440 98 (43120)
I0520 23:43:33.693562  9674 net.cpp:165] Memory required for data: 694624480
I0520 23:43:33.693572  9674 layer_factory.hpp:77] Creating layer ip3
I0520 23:43:33.693585  9674 net.cpp:106] Creating Layer ip3
I0520 23:43:33.693594  9674 net.cpp:454] ip3 <- ip2
I0520 23:43:33.693608  9674 net.cpp:411] ip3 -> ip3
I0520 23:43:33.693816  9674 net.cpp:150] Setting up ip3
I0520 23:43:33.693830  9674 net.cpp:157] Top shape: 440 11 (4840)
I0520 23:43:33.693840  9674 net.cpp:165] Memory required for data: 694643840
I0520 23:43:33.693855  9674 layer_factory.hpp:77] Creating layer drop3
I0520 23:43:33.693867  9674 net.cpp:106] Creating Layer drop3
I0520 23:43:33.693877  9674 net.cpp:454] drop3 <- ip3
I0520 23:43:33.693889  9674 net.cpp:397] drop3 -> ip3 (in-place)
I0520 23:43:33.693928  9674 net.cpp:150] Setting up drop3
I0520 23:43:33.693941  9674 net.cpp:157] Top shape: 440 11 (4840)
I0520 23:43:33.693950  9674 net.cpp:165] Memory required for data: 694663200
I0520 23:43:33.693960  9674 layer_factory.hpp:77] Creating layer loss
I0520 23:43:33.693979  9674 net.cpp:106] Creating Layer loss
I0520 23:43:33.693989  9674 net.cpp:454] loss <- ip3
I0520 23:43:33.694000  9674 net.cpp:454] loss <- label
I0520 23:43:33.694012  9674 net.cpp:411] loss -> loss
I0520 23:43:33.694030  9674 layer_factory.hpp:77] Creating layer loss
…
I0520 23:43:33.735198  9674 solver.cpp:181] Creating test net (#0) specified by net file: /lustre/atlas/proj-shared/hep105/caffe_titan/caffe_workflow/logs_batch_size_test/batch_size_440_2016-05-20T11.20.48.641710.prototxt
I0520 23:43:33.735276  9674 net.cpp:322] The NetState phase (1) differed from the phase (0) specified by a rule in layer data_hdf5
I0520 23:43:33.735635  9674 net.cpp:49] Initializing net from parameters: 
name: "caffe_test_127x50_x_unshifted"
state {
  phase: TEST
}
layer {
  name: "data_hdf5"
  type: "HDF5Data"
  top: "data"
  top: "label"
  include {
    phase: TEST
  }
  hdf5_data_param {
    source: "/lustre/atlas/proj-shared/hep105/caffe_titan/minosmatch_nukecczdefs_127x50_x_unshifted_me1Bmc.testlist"
    batch_size: 440
  }
}
layer {
  name: "conv1"
  type: "Convolution"
  bottom: "data"
  top: "conv1"
  convolution_param {
    num_output: 12
    pad: 0
    stride: 1
    weight_filler {
      type: "xavier"
    }
    bias_filler {
      type: "constant"
    }
    kernel_h: 8
    kernel_w: 3
  }
}
layer {
  name: "relu1"
  type: "ReLU"
  bottom: "conv1"
  top: "conv1"
}
layer {
  name: "pool1"
  type: "Pooling"
  bottom: "conv1"
  top: "pool1"
  pooling_param {
    pool: MAX
    kernel_h: 2
    kernel_w: 1
    stride_h: 2
    stride_w: 1
  }
}
layer {
  name: "conv2"
  type: "Convolution"
  bottom: "pool1"
  top: "conv2"
  convolution_param {
    num_output: 20
    pad: 0
    stride: 1
    weight_filler {
      type: "xavier"
    }
    bias_filler {
      type: "constant"
    }
    kernel_h: 7
    kernel_w: 3
  }
}
layer {
  name: "relu2"
  type: "ReLU"
  bottom: "conv2"
  top: "conv2"
}
layer {
  name: "pool2"
  type: "Pooling"
  bottom: "conv2"
  top: "pool2"
  pooling_param {
    pool: MAX
    kernel_h: 2
    kernel_w: 1
    stride_h: 2
    stride_w: 1
  }
}
layer {
  name: "conv3"
  type: "Convolution"
  bottom: "pool2"
  top: "conv3"
  convolution_param {
    num_output: 28
    pad: 0
    stride: 1
    weight_filler {
      type: "xavier"
    }
    bias_filler {
      type: "constant"
    }
    kernel_h: 6
    kernel_w: 3
  }
}
layer {
  name: "relu3"
  type: "ReLU"
  bottom: "conv3"
  top: "conv3"
}
layer {
  name: "pool3"
  type: "Pooling"
  bottom: "conv3"
  top: "pool3"
  pooling_param {
    pool: MAX
    kernel_h: 2
    kernel_w: 1
    stride_h: 2
    stride_w: 1
  }
}
layer {
  name: "conv4"
  type: "Convolution"
  bottom: "pool3"
  top: "conv4"
  convolution_param {
    num_output: 36
    pad: 0
    stride: 1
    weight_filler {
      type: "xavier"
    }
    bias_filler {
      type: "constant"
    }
    kernel_h: 6
    kernel_w: 3
  }
}
layer {
  name: "relu4"
  type: "ReLU"
  bottom: "conv4"
  top: "conv4"
}
layer {
  name: "pool4"
  type: "Pooling"
  bottom: "conv4"
  top: "pool4"
  pooling_param {
    pool: MAX
    kernel_h: 2
    kernel_w: 1
    stride_h: 2
    stride_w: 1
  }
}
layer {
  name: "ip1"
  type: "InnerProduct"
  bottom: "pool4"
  top: "ip1"
  inner_product_param {
    num_output: 196
    weight_filler {
      type: "xavier"
    }
    bias_filler {
      type: "constant"
    }
  }
}
layer {
  name: "relu5"
  type: "ReLU"
  bottom: "ip1"
  top: "ip1"
}
layer {
  name: "drop1"
  type: "Dropout"
  bottom: "ip1"
  top: "ip1"
  dropout_param {
    dropout_ratio: 0.5
  }
}
layer {
  name: "ip2"
  type: "InnerProduct"
  bottom: "ip1"
  top: "ip2"
  inner_product_param {
    num_output: 98
    weight_filler {
      type: "xavier"
    }
    bias_filler {
      type: "constant"
    }
  }
}
layer {
  name: "relu6"
  type: "ReLU"
  bottom: "ip2"
  top: "ip2"
}
layer {
  name: "drop2"
  type: "Dropout"
  bottom: "ip2"
  top: "ip2"
  dropout_param {
    dropout_ratio: 0.5
  }
}
layer {
  name: "ip3"
  type: "InnerProduct"
  bottom: "ip2"
  top: "ip3"
  inner_product_param {
    num_output: 11
    weight_filler {
      type: "xavier"
    }
    bias_filler {
      type: "constant"
    }
  }
}
layer {
  name: "drop3"
  type: "Dropout"
  bottom: "ip3"
  top: "ip3"
  dropout_param {
    dropout_ratio: 0.5
  }
}
layer {
  name: "accuracy"
  type: "Accuracy"
  bottom: "ip3"
  bottom: "label"
  top: "accuracy"
  include {
    phase: TEST
  }
}
layer {
  name: "loss"
  type: "SoftmaxWithLoss"
  bottom: "ip3"
  bottom: "label"
  top: "loss"
}
I0520 23:43:33.735827  9674 layer_factory.hpp:77] Creating layer data_hdf5
I0520 23:43:33.735843  9674 net.cpp:106] Creating Layer data_hdf5
I0520 23:43:33.735857  9674 net.cpp:411] data_hdf5 -> data
I0520 23:43:33.735874  9674 net.cpp:411] data_hdf5 -> label
I0520 23:43:33.735891  9674 hdf5_data_layer.cpp:79] Loading list of HDF5 filenames from: /lustre/atlas/proj-shared/hep105/caffe_titan/minosmatch_nukecczdefs_127x50_x_unshifted_me1Bmc.testlist
I0520 23:43:33.763564  9674 hdf5_data_layer.cpp:93] Number of HDF5 files: 3
I0520 23:43:55.094386  9674 net.cpp:150] Setting up data_hdf5
I0520 23:43:55.094552  9674 net.cpp:157] Top shape: 440 1 127 50 (2794000)
I0520 23:43:55.094565  9674 net.cpp:157] Top shape: 440 (440)
I0520 23:43:55.094578  9674 net.cpp:165] Memory required for data: 11177760
I0520 23:43:55.094591  9674 layer_factory.hpp:77] Creating layer label_data_hdf5_1_split
I0520 23:43:55.094619  9674 net.cpp:106] Creating Layer label_data_hdf5_1_split
I0520 23:43:55.094630  9674 net.cpp:454] label_data_hdf5_1_split <- label
I0520 23:43:55.094645  9674 net.cpp:411] label_data_hdf5_1_split -> label_data_hdf5_1_split_0
I0520 23:43:55.094666  9674 net.cpp:411] label_data_hdf5_1_split -> label_data_hdf5_1_split_1
I0520 23:43:55.094739  9674 net.cpp:150] Setting up label_data_hdf5_1_split
I0520 23:43:55.094753  9674 net.cpp:157] Top shape: 440 (440)
I0520 23:43:55.094765  9674 net.cpp:157] Top shape: 440 (440)
I0520 23:43:55.094774  9674 net.cpp:165] Memory required for data: 11181280
I0520 23:43:55.094784  9674 layer_factory.hpp:77] Creating layer conv1
I0520 23:43:55.094805  9674 net.cpp:106] Creating Layer conv1
I0520 23:43:55.094816  9674 net.cpp:454] conv1 <- data
I0520 23:43:55.094830  9674 net.cpp:411] conv1 -> conv1
I0520 23:43:55.096742  9674 net.cpp:150] Setting up conv1
I0520 23:43:55.096766  9674 net.cpp:157] Top shape: 440 12 120 48 (30412800)
I0520 23:43:55.096777  9674 net.cpp:165] Memory required for data: 132832480
I0520 23:43:55.096799  9674 layer_factory.hpp:77] Creating layer relu1
I0520 23:43:55.096813  9674 net.cpp:106] Creating Layer relu1
I0520 23:43:55.096824  9674 net.cpp:454] relu1 <- conv1
I0520 23:43:55.096837  9674 net.cpp:397] relu1 -> conv1 (in-place)
I0520 23:43:55.097335  9674 net.cpp:150] Setting up relu1
I0520 23:43:55.097352  9674 net.cpp:157] Top shape: 440 12 120 48 (30412800)
I0520 23:43:55.097362  9674 net.cpp:165] Memory required for data: 254483680
I0520 23:43:55.097373  9674 layer_factory.hpp:77] Creating layer pool1
I0520 23:43:55.097389  9674 net.cpp:106] Creating Layer pool1
I0520 23:43:55.097398  9674 net.cpp:454] pool1 <- conv1
I0520 23:43:55.097411  9674 net.cpp:411] pool1 -> pool1
I0520 23:43:55.097486  9674 net.cpp:150] Setting up pool1
I0520 23:43:55.097501  9674 net.cpp:157] Top shape: 440 12 60 48 (15206400)
I0520 23:43:55.097510  9674 net.cpp:165] Memory required for data: 315309280
I0520 23:43:55.097520  9674 layer_factory.hpp:77] Creating layer conv2
I0520 23:43:55.097538  9674 net.cpp:106] Creating Layer conv2
I0520 23:43:55.097548  9674 net.cpp:454] conv2 <- pool1
I0520 23:43:55.097561  9674 net.cpp:411] conv2 -> conv2
I0520 23:43:55.099478  9674 net.cpp:150] Setting up conv2
I0520 23:43:55.099500  9674 net.cpp:157] Top shape: 440 20 54 46 (21859200)
I0520 23:43:55.099514  9674 net.cpp:165] Memory required for data: 402746080
I0520 23:43:55.099531  9674 layer_factory.hpp:77] Creating layer relu2
I0520 23:43:55.099545  9674 net.cpp:106] Creating Layer relu2
I0520 23:43:55.099555  9674 net.cpp:454] relu2 <- conv2
I0520 23:43:55.099566  9674 net.cpp:397] relu2 -> conv2 (in-place)
I0520 23:43:55.099898  9674 net.cpp:150] Setting up relu2
I0520 23:43:55.099912  9674 net.cpp:157] Top shape: 440 20 54 46 (21859200)
I0520 23:43:55.099921  9674 net.cpp:165] Memory required for data: 490182880
I0520 23:43:55.099931  9674 layer_factory.hpp:77] Creating layer pool2
I0520 23:43:55.099944  9674 net.cpp:106] Creating Layer pool2
I0520 23:43:55.099954  9674 net.cpp:454] pool2 <- conv2
I0520 23:43:55.099967  9674 net.cpp:411] pool2 -> pool2
I0520 23:43:55.100039  9674 net.cpp:150] Setting up pool2
I0520 23:43:55.100052  9674 net.cpp:157] Top shape: 440 20 27 46 (10929600)
I0520 23:43:55.100062  9674 net.cpp:165] Memory required for data: 533901280
I0520 23:43:55.100072  9674 layer_factory.hpp:77] Creating layer conv3
I0520 23:43:55.100090  9674 net.cpp:106] Creating Layer conv3
I0520 23:43:55.100100  9674 net.cpp:454] conv3 <- pool2
I0520 23:43:55.100114  9674 net.cpp:411] conv3 -> conv3
I0520 23:43:55.102083  9674 net.cpp:150] Setting up conv3
I0520 23:43:55.102107  9674 net.cpp:157] Top shape: 440 28 22 44 (11925760)
I0520 23:43:55.102118  9674 net.cpp:165] Memory required for data: 581604320
I0520 23:43:55.102151  9674 layer_factory.hpp:77] Creating layer relu3
I0520 23:43:55.102164  9674 net.cpp:106] Creating Layer relu3
I0520 23:43:55.102174  9674 net.cpp:454] relu3 <- conv3
I0520 23:43:55.102187  9674 net.cpp:397] relu3 -> conv3 (in-place)
I0520 23:43:55.102658  9674 net.cpp:150] Setting up relu3
I0520 23:43:55.102674  9674 net.cpp:157] Top shape: 440 28 22 44 (11925760)
I0520 23:43:55.102684  9674 net.cpp:165] Memory required for data: 629307360
I0520 23:43:55.102694  9674 layer_factory.hpp:77] Creating layer pool3
I0520 23:43:55.102707  9674 net.cpp:106] Creating Layer pool3
I0520 23:43:55.102718  9674 net.cpp:454] pool3 <- conv3
I0520 23:43:55.102730  9674 net.cpp:411] pool3 -> pool3
I0520 23:43:55.102803  9674 net.cpp:150] Setting up pool3
I0520 23:43:55.102816  9674 net.cpp:157] Top shape: 440 28 11 44 (5962880)
I0520 23:43:55.102826  9674 net.cpp:165] Memory required for data: 653158880
I0520 23:43:55.102834  9674 layer_factory.hpp:77] Creating layer conv4
I0520 23:43:55.102852  9674 net.cpp:106] Creating Layer conv4
I0520 23:43:55.102862  9674 net.cpp:454] conv4 <- pool3
I0520 23:43:55.102877  9674 net.cpp:411] conv4 -> conv4
I0520 23:43:55.104997  9674 net.cpp:150] Setting up conv4
I0520 23:43:55.105015  9674 net.cpp:157] Top shape: 440 36 6 42 (3991680)
I0520 23:43:55.105026  9674 net.cpp:165] Memory required for data: 669125600
I0520 23:43:55.105041  9674 layer_factory.hpp:77] Creating layer relu4
I0520 23:43:55.105056  9674 net.cpp:106] Creating Layer relu4
I0520 23:43:55.105065  9674 net.cpp:454] relu4 <- conv4
I0520 23:43:55.105078  9674 net.cpp:397] relu4 -> conv4 (in-place)
I0520 23:43:55.105548  9674 net.cpp:150] Setting up relu4
I0520 23:43:55.105564  9674 net.cpp:157] Top shape: 440 36 6 42 (3991680)
I0520 23:43:55.105574  9674 net.cpp:165] Memory required for data: 685092320
I0520 23:43:55.105584  9674 layer_factory.hpp:77] Creating layer pool4
I0520 23:43:55.105598  9674 net.cpp:106] Creating Layer pool4
I0520 23:43:55.105608  9674 net.cpp:454] pool4 <- conv4
I0520 23:43:55.105621  9674 net.cpp:411] pool4 -> pool4
I0520 23:43:55.105693  9674 net.cpp:150] Setting up pool4
I0520 23:43:55.105707  9674 net.cpp:157] Top shape: 440 36 3 42 (1995840)
I0520 23:43:55.105716  9674 net.cpp:165] Memory required for data: 693075680
I0520 23:43:55.105725  9674 layer_factory.hpp:77] Creating layer ip1
I0520 23:43:55.105741  9674 net.cpp:106] Creating Layer ip1
I0520 23:43:55.105751  9674 net.cpp:454] ip1 <- pool4
I0520 23:43:55.105765  9674 net.cpp:411] ip1 -> ip1
I0520 23:43:55.121254  9674 net.cpp:150] Setting up ip1
I0520 23:43:55.121278  9674 net.cpp:157] Top shape: 440 196 (86240)
I0520 23:43:55.121289  9674 net.cpp:165] Memory required for data: 693420640
I0520 23:43:55.121310  9674 layer_factory.hpp:77] Creating layer relu5
I0520 23:43:55.121326  9674 net.cpp:106] Creating Layer relu5
I0520 23:43:55.121337  9674 net.cpp:454] relu5 <- ip1
I0520 23:43:55.121353  9674 net.cpp:397] relu5 -> ip1 (in-place)
I0520 23:43:55.121701  9674 net.cpp:150] Setting up relu5
I0520 23:43:55.121714  9674 net.cpp:157] Top shape: 440 196 (86240)
I0520 23:43:55.121724  9674 net.cpp:165] Memory required for data: 693765600
I0520 23:43:55.121734  9674 layer_factory.hpp:77] Creating layer drop1
I0520 23:43:55.121753  9674 net.cpp:106] Creating Layer drop1
I0520 23:43:55.121763  9674 net.cpp:454] drop1 <- ip1
I0520 23:43:55.121778  9674 net.cpp:397] drop1 -> ip1 (in-place)
I0520 23:43:55.121821  9674 net.cpp:150] Setting up drop1
I0520 23:43:55.121834  9674 net.cpp:157] Top shape: 440 196 (86240)
I0520 23:43:55.121845  9674 net.cpp:165] Memory required for data: 694110560
I0520 23:43:55.121855  9674 layer_factory.hpp:77] Creating layer ip2
I0520 23:43:55.121868  9674 net.cpp:106] Creating Layer ip2
I0520 23:43:55.121878  9674 net.cpp:454] ip2 <- ip1
I0520 23:43:55.121892  9674 net.cpp:411] ip2 -> ip2
I0520 23:43:55.122375  9674 net.cpp:150] Setting up ip2
I0520 23:43:55.122387  9674 net.cpp:157] Top shape: 440 98 (43120)
I0520 23:43:55.122397  9674 net.cpp:165] Memory required for data: 694283040
I0520 23:43:55.122426  9674 layer_factory.hpp:77] Creating layer relu6
I0520 23:43:55.122438  9674 net.cpp:106] Creating Layer relu6
I0520 23:43:55.122448  9674 net.cpp:454] relu6 <- ip2
I0520 23:43:55.122460  9674 net.cpp:397] relu6 -> ip2 (in-place)
I0520 23:43:55.122994  9674 net.cpp:150] Setting up relu6
I0520 23:43:55.123015  9674 net.cpp:157] Top shape: 440 98 (43120)
I0520 23:43:55.123025  9674 net.cpp:165] Memory required for data: 694455520
I0520 23:43:55.123036  9674 layer_factory.hpp:77] Creating layer drop2
I0520 23:43:55.123049  9674 net.cpp:106] Creating Layer drop2
I0520 23:43:55.123059  9674 net.cpp:454] drop2 <- ip2
I0520 23:43:55.123073  9674 net.cpp:397] drop2 -> ip2 (in-place)
I0520 23:43:55.123117  9674 net.cpp:150] Setting up drop2
I0520 23:43:55.123137  9674 net.cpp:157] Top shape: 440 98 (43120)
I0520 23:43:55.123147  9674 net.cpp:165] Memory required for data: 694628000
I0520 23:43:55.123157  9674 layer_factory.hpp:77] Creating layer ip3
I0520 23:43:55.123172  9674 net.cpp:106] Creating Layer ip3
I0520 23:43:55.123181  9674 net.cpp:454] ip3 <- ip2
I0520 23:43:55.123194  9674 net.cpp:411] ip3 -> ip3
I0520 23:43:55.123415  9674 net.cpp:150] Setting up ip3
I0520 23:43:55.123430  9674 net.cpp:157] Top shape: 440 11 (4840)
I0520 23:43:55.123440  9674 net.cpp:165] Memory required for data: 694647360
I0520 23:43:55.123455  9674 layer_factory.hpp:77] Creating layer drop3
I0520 23:43:55.123467  9674 net.cpp:106] Creating Layer drop3
I0520 23:43:55.123477  9674 net.cpp:454] drop3 <- ip3
I0520 23:43:55.123489  9674 net.cpp:397] drop3 -> ip3 (in-place)
I0520 23:43:55.123530  9674 net.cpp:150] Setting up drop3
I0520 23:43:55.123543  9674 net.cpp:157] Top shape: 440 11 (4840)
I0520 23:43:55.123553  9674 net.cpp:165] Memory required for data: 694666720
I0520 23:43:55.123564  9674 layer_factory.hpp:77] Creating layer ip3_drop3_0_split
I0520 23:43:55.123576  9674 net.cpp:106] Creating Layer ip3_drop3_0_split
I0520 23:43:55.123586  9674 net.cpp:454] ip3_drop3_0_split <- ip3
I0520 23:43:55.123599  9674 net.cpp:411] ip3_drop3_0_split -> ip3_drop3_0_split_0
I0520 23:43:55.123613  9674 net.cpp:411] ip3_drop3_0_split -> ip3_drop3_0_split_1
I0520 23:43:55.123685  9674 net.cpp:150] Setting up ip3_drop3_0_split
I0520 23:43:55.123698  9674 net.cpp:157] Top shape: 440 11 (4840)
I0520 23:43:55.123711  9674 net.cpp:157] Top shape: 440 11 (4840)
I0520 23:43:55.123721  9674 net.cpp:165] Memory required for data: 694705440
I0520 23:43:55.123731  9674 layer_factory.hpp:77] Creating layer accuracy
I0520 23:43:55.123752  9674 net.cpp:106] Creating Layer accuracy
I0520 23:43:55.123762  9674 net.cpp:454] accuracy <- ip3_drop3_0_split_0
I0520 23:43:55.123774  9674 net.cpp:454] accuracy <- label_data_hdf5_1_split_0
I0520 23:43:55.123786  9674 net.cpp:411] accuracy -> accuracy
…
