…
I0520 12:02:30.400851 26789 net.cpp:322] The NetState phase (0) differed from the phase (1) specified by a rule in layer data_hdf5
I0520 12:02:30.400910 26789 net.cpp:322] The NetState phase (0) differed from the phase (1) specified by a rule in layer accuracy
I0520 12:02:30.401254 26789 net.cpp:49] Initializing net from parameters: 
name: "caffe_test_127x50_x_unshifted"
state {
  phase: TRAIN
}
layer {
  name: "data_hdf5"
  type: "HDF5Data"
  top: "data"
  top: "label"
  include {
    phase: TRAIN
  }
  hdf5_data_param {
    source: "/lustre/atlas/proj-shared/hep105/caffe_titan/minosmatch_nukecczdefs_127x50_x_unshifted_me1Bmc.trainlist"
    batch_size: 720
  }
}
layer {
  name: "conv1"
  type: "Convolution"
  bottom: "data"
  top: "conv1"
  convolution_param {
    num_output: 12
    pad: 0
    stride: 1
    weight_filler {
      type: "xavier"
    }
    bias_filler {
      type: "constant"
    }
    kernel_h: 8
    kernel_w: 3
  }
}
layer {
  name: "relu1"
  type: "ReLU"
  bottom: "conv1"
  top: "conv1"
}
layer {
  name: "pool1"
  type: "Pooling"
  bottom: "conv1"
  top: "pool1"
  pooling_param {
    pool: MAX
    kernel_h: 2
    kernel_w: 1
    stride_h: 2
    stride_w: 1
  }
}
layer {
  name: "conv2"
  type: "Convolution"
  bottom: "pool1"
  top: "conv2"
  convolution_param {
    num_output: 20
    pad: 0
    stride: 1
    weight_filler {
      type: "xavier"
    }
    bias_filler {
      type: "constant"
    }
    kernel_h: 7
    kernel_w: 3
  }
}
layer {
  name: "relu2"
  type: "ReLU"
  bottom: "conv2"
  top: "conv2"
}
layer {
  name: "pool2"
  type: "Pooling"
  bottom: "conv2"
  top: "pool2"
  pooling_param {
    pool: MAX
    kernel_h: 2
    kernel_w: 1
    stride_h: 2
    stride_w: 1
  }
}
layer {
  name: "conv3"
  type: "Convolution"
  bottom: "pool2"
  top: "conv3"
  convolution_param {
    num_output: 28
    pad: 0
    stride: 1
    weight_filler {
      type: "xavier"
    }
    bias_filler {
      type: "constant"
    }
    kernel_h: 6
    kernel_w: 3
  }
}
layer {
  name: "relu3"
  type: "ReLU"
  bottom: "conv3"
  top: "conv3"
}
layer {
  name: "pool3"
  type: "Pooling"
  bottom: "conv3"
  top: "pool3"
  pooling_param {
    pool: MAX
    kernel_h: 2
    kernel_w: 1
    stride_h: 2
    stride_w: 1
  }
}
layer {
  name: "conv4"
  type: "Convolution"
  bottom: "pool3"
  top: "conv4"
  convolution_param {
    num_output: 36
    pad: 0
    stride: 1
    weight_filler {
      type: "xavier"
    }
    bias_filler {
      type: "constant"
    }
    kernel_h: 6
    kernel_w: 3
  }
}
layer {
  name: "relu4"
  type: "ReLU"
  bottom: "conv4"
  top: "conv4"
}
layer {
  name: "pool4"
  type: "Pooling"
  bottom: "conv4"
  top: "pool4"
  pooling_param {
    pool: MAX
    kernel_h: 2
    kernel_w: 1
    stride_h: 2
    stride_w: 1
  }
}
layer {
  name: "ip1"
  type: "InnerProduct"
  bottom: "pool4"
  top: "ip1"
  inner_product_param {
    num_output: 196
    weight_filler {
      type: "xavier"
    }
    bias_filler {
      type: "constant"
    }
  }
}
layer {
  name: "relu5"
  type: "ReLU"
  bottom: "ip1"
  top: "ip1"
}
layer {
  name: "drop1"
  type: "Dropout"
  bottom: "ip1"
  top: "ip1"
  dropout_param {
    dropout_ratio: 0.5
  }
}
layer {
  name: "ip2"
  type: "InnerProduct"
  bottom: "ip1"
  top: "ip2"
  inner_product_param {
    num_output: 98
    weight_filler {
      type: "xavier"
    }
    bias_filler {
      type: "constant"
    }
  }
}
layer {
  name: "relu6"
  type: "ReLU"
  bottom: "ip2"
  top: "ip2"
}
layer {
  name: "drop2"
  type: "Dropout"
  bottom: "ip2"
  top: "ip2"
  dropout_param {
    dropout_ratio: 0.5
  }
}
layer {
  name: "ip3"
  type: "InnerProduct"
  bottom: "ip2"
  top: "ip3"
  inner_product_param {
    num_output: 11
    weight_filler {
      type: "xavier"
    }
    bias_filler {
      type: "constant"
    }
  }
}
layer {
  name: "drop3"
  type: "Dropout"
  bottom: "ip3"
  top: "ip3"
  dropout_param {
    dropout_ratio: 0.5
  }
}
layer {
  name: "loss"
  type: "SoftmaxWithLoss"
  bottom: "ip3"
  bottom: "label"
  top: "loss"
}
I0520 12:02:30.401429 26789 layer_factory.hpp:77] Creating layer data_hdf5
I0520 12:02:30.401453 26789 net.cpp:106] Creating Layer data_hdf5
I0520 12:02:30.401468 26789 net.cpp:411] data_hdf5 -> data
I0520 12:02:30.401502 26789 net.cpp:411] data_hdf5 -> label
I0520 12:02:30.401533 26789 hdf5_data_layer.cpp:79] Loading list of HDF5 filenames from: /lustre/atlas/proj-shared/hep105/caffe_titan/minosmatch_nukecczdefs_127x50_x_unshifted_me1Bmc.trainlist
I0520 12:02:30.402845 26789 hdf5_data_layer.cpp:93] Number of HDF5 files: 15
I0520 12:02:30.405100 26789 hdf5.cpp:32] Datatype class: H5T_FLOAT
I0520 12:02:51.936491 26789 hdf5.cpp:35] Datatype class: H5T_INTEGER
I0520 12:02:51.941700 26789 net.cpp:150] Setting up data_hdf5
I0520 12:02:51.941740 26789 net.cpp:157] Top shape: 720 1 127 50 (4572000)
I0520 12:02:51.941756 26789 net.cpp:157] Top shape: 720 (720)
I0520 12:02:51.941766 26789 net.cpp:165] Memory required for data: 18290880
I0520 12:02:51.941778 26789 layer_factory.hpp:77] Creating layer conv1
I0520 12:02:51.941812 26789 net.cpp:106] Creating Layer conv1
I0520 12:02:51.941824 26789 net.cpp:454] conv1 <- data
I0520 12:02:51.941846 26789 net.cpp:411] conv1 -> conv1
I0520 12:02:52.306046 26789 net.cpp:150] Setting up conv1
I0520 12:02:52.306087 26789 net.cpp:157] Top shape: 720 12 120 48 (49766400)
I0520 12:02:52.306097 26789 net.cpp:165] Memory required for data: 217356480
I0520 12:02:52.306124 26789 layer_factory.hpp:77] Creating layer relu1
I0520 12:02:52.306145 26789 net.cpp:106] Creating Layer relu1
I0520 12:02:52.306156 26789 net.cpp:454] relu1 <- conv1
I0520 12:02:52.306170 26789 net.cpp:397] relu1 -> conv1 (in-place)
I0520 12:02:52.306687 26789 net.cpp:150] Setting up relu1
I0520 12:02:52.306704 26789 net.cpp:157] Top shape: 720 12 120 48 (49766400)
I0520 12:02:52.306715 26789 net.cpp:165] Memory required for data: 416422080
I0520 12:02:52.306725 26789 layer_factory.hpp:77] Creating layer pool1
I0520 12:02:52.306741 26789 net.cpp:106] Creating Layer pool1
I0520 12:02:52.306751 26789 net.cpp:454] pool1 <- conv1
I0520 12:02:52.306766 26789 net.cpp:411] pool1 -> pool1
I0520 12:02:52.306845 26789 net.cpp:150] Setting up pool1
I0520 12:02:52.306859 26789 net.cpp:157] Top shape: 720 12 60 48 (24883200)
I0520 12:02:52.306869 26789 net.cpp:165] Memory required for data: 515954880
I0520 12:02:52.306880 26789 layer_factory.hpp:77] Creating layer conv2
I0520 12:02:52.306902 26789 net.cpp:106] Creating Layer conv2
I0520 12:02:52.306912 26789 net.cpp:454] conv2 <- pool1
I0520 12:02:52.306926 26789 net.cpp:411] conv2 -> conv2
I0520 12:02:52.309617 26789 net.cpp:150] Setting up conv2
I0520 12:02:52.309644 26789 net.cpp:157] Top shape: 720 20 54 46 (35769600)
I0520 12:02:52.309655 26789 net.cpp:165] Memory required for data: 659033280
I0520 12:02:52.309675 26789 layer_factory.hpp:77] Creating layer relu2
I0520 12:02:52.309689 26789 net.cpp:106] Creating Layer relu2
I0520 12:02:52.309700 26789 net.cpp:454] relu2 <- conv2
I0520 12:02:52.309711 26789 net.cpp:397] relu2 -> conv2 (in-place)
I0520 12:02:52.310041 26789 net.cpp:150] Setting up relu2
I0520 12:02:52.310056 26789 net.cpp:157] Top shape: 720 20 54 46 (35769600)
I0520 12:02:52.310066 26789 net.cpp:165] Memory required for data: 802111680
I0520 12:02:52.310076 26789 layer_factory.hpp:77] Creating layer pool2
I0520 12:02:52.310089 26789 net.cpp:106] Creating Layer pool2
I0520 12:02:52.310099 26789 net.cpp:454] pool2 <- conv2
I0520 12:02:52.310124 26789 net.cpp:411] pool2 -> pool2
I0520 12:02:52.310194 26789 net.cpp:150] Setting up pool2
I0520 12:02:52.310207 26789 net.cpp:157] Top shape: 720 20 27 46 (17884800)
I0520 12:02:52.310217 26789 net.cpp:165] Memory required for data: 873650880
I0520 12:02:52.310227 26789 layer_factory.hpp:77] Creating layer conv3
I0520 12:02:52.310246 26789 net.cpp:106] Creating Layer conv3
I0520 12:02:52.310258 26789 net.cpp:454] conv3 <- pool2
I0520 12:02:52.310271 26789 net.cpp:411] conv3 -> conv3
I0520 12:02:52.312199 26789 net.cpp:150] Setting up conv3
I0520 12:02:52.312222 26789 net.cpp:157] Top shape: 720 28 22 44 (19514880)
I0520 12:02:52.312235 26789 net.cpp:165] Memory required for data: 951710400
I0520 12:02:52.312253 26789 layer_factory.hpp:77] Creating layer relu3
I0520 12:02:52.312269 26789 net.cpp:106] Creating Layer relu3
I0520 12:02:52.312279 26789 net.cpp:454] relu3 <- conv3
I0520 12:02:52.312293 26789 net.cpp:397] relu3 -> conv3 (in-place)
I0520 12:02:52.312762 26789 net.cpp:150] Setting up relu3
I0520 12:02:52.312778 26789 net.cpp:157] Top shape: 720 28 22 44 (19514880)
I0520 12:02:52.312789 26789 net.cpp:165] Memory required for data: 1029769920
I0520 12:02:52.312799 26789 layer_factory.hpp:77] Creating layer pool3
I0520 12:02:52.312813 26789 net.cpp:106] Creating Layer pool3
I0520 12:02:52.312821 26789 net.cpp:454] pool3 <- conv3
I0520 12:02:52.312834 26789 net.cpp:411] pool3 -> pool3
I0520 12:02:52.312901 26789 net.cpp:150] Setting up pool3
I0520 12:02:52.312916 26789 net.cpp:157] Top shape: 720 28 11 44 (9757440)
I0520 12:02:52.312924 26789 net.cpp:165] Memory required for data: 1068799680
I0520 12:02:52.312934 26789 layer_factory.hpp:77] Creating layer conv4
I0520 12:02:52.312950 26789 net.cpp:106] Creating Layer conv4
I0520 12:02:52.312960 26789 net.cpp:454] conv4 <- pool3
I0520 12:02:52.312974 26789 net.cpp:411] conv4 -> conv4
I0520 12:02:52.315768 26789 net.cpp:150] Setting up conv4
I0520 12:02:52.315796 26789 net.cpp:157] Top shape: 720 36 6 42 (6531840)
I0520 12:02:52.315806 26789 net.cpp:165] Memory required for data: 1094927040
I0520 12:02:52.315822 26789 layer_factory.hpp:77] Creating layer relu4
I0520 12:02:52.315836 26789 net.cpp:106] Creating Layer relu4
I0520 12:02:52.315846 26789 net.cpp:454] relu4 <- conv4
I0520 12:02:52.315860 26789 net.cpp:397] relu4 -> conv4 (in-place)
I0520 12:02:52.316342 26789 net.cpp:150] Setting up relu4
I0520 12:02:52.316359 26789 net.cpp:157] Top shape: 720 36 6 42 (6531840)
I0520 12:02:52.316370 26789 net.cpp:165] Memory required for data: 1121054400
I0520 12:02:52.316380 26789 layer_factory.hpp:77] Creating layer pool4
I0520 12:02:52.316392 26789 net.cpp:106] Creating Layer pool4
I0520 12:02:52.316402 26789 net.cpp:454] pool4 <- conv4
I0520 12:02:52.316416 26789 net.cpp:411] pool4 -> pool4
I0520 12:02:52.316483 26789 net.cpp:150] Setting up pool4
I0520 12:02:52.316498 26789 net.cpp:157] Top shape: 720 36 3 42 (3265920)
I0520 12:02:52.316509 26789 net.cpp:165] Memory required for data: 1134118080
I0520 12:02:52.316517 26789 layer_factory.hpp:77] Creating layer ip1
I0520 12:02:52.316535 26789 net.cpp:106] Creating Layer ip1
I0520 12:02:52.316546 26789 net.cpp:454] ip1 <- pool4
I0520 12:02:52.316560 26789 net.cpp:411] ip1 -> ip1
I0520 12:02:52.331987 26789 net.cpp:150] Setting up ip1
I0520 12:02:52.332016 26789 net.cpp:157] Top shape: 720 196 (141120)
I0520 12:02:52.332028 26789 net.cpp:165] Memory required for data: 1134682560
I0520 12:02:52.332051 26789 layer_factory.hpp:77] Creating layer relu5
I0520 12:02:52.332067 26789 net.cpp:106] Creating Layer relu5
I0520 12:02:52.332077 26789 net.cpp:454] relu5 <- ip1
I0520 12:02:52.332090 26789 net.cpp:397] relu5 -> ip1 (in-place)
I0520 12:02:52.332439 26789 net.cpp:150] Setting up relu5
I0520 12:02:52.332453 26789 net.cpp:157] Top shape: 720 196 (141120)
I0520 12:02:52.332464 26789 net.cpp:165] Memory required for data: 1135247040
I0520 12:02:52.332474 26789 layer_factory.hpp:77] Creating layer drop1
I0520 12:02:52.332496 26789 net.cpp:106] Creating Layer drop1
I0520 12:02:52.332506 26789 net.cpp:454] drop1 <- ip1
I0520 12:02:52.332533 26789 net.cpp:397] drop1 -> ip1 (in-place)
I0520 12:02:52.332581 26789 net.cpp:150] Setting up drop1
I0520 12:02:52.332592 26789 net.cpp:157] Top shape: 720 196 (141120)
I0520 12:02:52.332603 26789 net.cpp:165] Memory required for data: 1135811520
I0520 12:02:52.332612 26789 layer_factory.hpp:77] Creating layer ip2
I0520 12:02:52.332629 26789 net.cpp:106] Creating Layer ip2
I0520 12:02:52.332640 26789 net.cpp:454] ip2 <- ip1
I0520 12:02:52.332653 26789 net.cpp:411] ip2 -> ip2
I0520 12:02:52.333122 26789 net.cpp:150] Setting up ip2
I0520 12:02:52.333135 26789 net.cpp:157] Top shape: 720 98 (70560)
I0520 12:02:52.333145 26789 net.cpp:165] Memory required for data: 1136093760
I0520 12:02:52.333160 26789 layer_factory.hpp:77] Creating layer relu6
I0520 12:02:52.333173 26789 net.cpp:106] Creating Layer relu6
I0520 12:02:52.333184 26789 net.cpp:454] relu6 <- ip2
I0520 12:02:52.333195 26789 net.cpp:397] relu6 -> ip2 (in-place)
I0520 12:02:52.333714 26789 net.cpp:150] Setting up relu6
I0520 12:02:52.333729 26789 net.cpp:157] Top shape: 720 98 (70560)
I0520 12:02:52.333740 26789 net.cpp:165] Memory required for data: 1136376000
I0520 12:02:52.333750 26789 layer_factory.hpp:77] Creating layer drop2
I0520 12:02:52.333762 26789 net.cpp:106] Creating Layer drop2
I0520 12:02:52.333772 26789 net.cpp:454] drop2 <- ip2
I0520 12:02:52.333786 26789 net.cpp:397] drop2 -> ip2 (in-place)
I0520 12:02:52.333827 26789 net.cpp:150] Setting up drop2
I0520 12:02:52.333840 26789 net.cpp:157] Top shape: 720 98 (70560)
I0520 12:02:52.333852 26789 net.cpp:165] Memory required for data: 1136658240
I0520 12:02:52.333861 26789 layer_factory.hpp:77] Creating layer ip3
I0520 12:02:52.333874 26789 net.cpp:106] Creating Layer ip3
I0520 12:02:52.333884 26789 net.cpp:454] ip3 <- ip2
I0520 12:02:52.333896 26789 net.cpp:411] ip3 -> ip3
I0520 12:02:52.334108 26789 net.cpp:150] Setting up ip3
I0520 12:02:52.334121 26789 net.cpp:157] Top shape: 720 11 (7920)
I0520 12:02:52.334131 26789 net.cpp:165] Memory required for data: 1136689920
I0520 12:02:52.334146 26789 layer_factory.hpp:77] Creating layer drop3
I0520 12:02:52.334158 26789 net.cpp:106] Creating Layer drop3
I0520 12:02:52.334168 26789 net.cpp:454] drop3 <- ip3
I0520 12:02:52.334180 26789 net.cpp:397] drop3 -> ip3 (in-place)
I0520 12:02:52.334219 26789 net.cpp:150] Setting up drop3
I0520 12:02:52.334231 26789 net.cpp:157] Top shape: 720 11 (7920)
I0520 12:02:52.334241 26789 net.cpp:165] Memory required for data: 1136721600
I0520 12:02:52.334251 26789 layer_factory.hpp:77] Creating layer loss
I0520 12:02:52.334270 26789 net.cpp:106] Creating Layer loss
I0520 12:02:52.334280 26789 net.cpp:454] loss <- ip3
I0520 12:02:52.334291 26789 net.cpp:454] loss <- label
I0520 12:02:52.334303 26789 net.cpp:411] loss -> loss
I0520 12:02:52.334321 26789 layer_factory.hpp:77] Creating layer loss
…
I0520 12:02:52.337031 26789 solver.cpp:181] Creating test net (#0) specified by net file: /lustre/atlas/proj-shared/hep105/caffe_titan/caffe_workflow/logs_batch_size_test/batch_size_720_2016-05-20T11.20.58.906135.prototxt
I0520 12:02:52.337102 26789 net.cpp:322] The NetState phase (1) differed from the phase (0) specified by a rule in layer data_hdf5
I0520 12:02:52.337456 26789 net.cpp:49] Initializing net from parameters: 
name: "caffe_test_127x50_x_unshifted"
state {
  phase: TEST
}
layer {
  name: "data_hdf5"
  type: "HDF5Data"
  top: "data"
  top: "label"
  include {
    phase: TEST
  }
  hdf5_data_param {
    source: "/lustre/atlas/proj-shared/hep105/caffe_titan/minosmatch_nukecczdefs_127x50_x_unshifted_me1Bmc.testlist"
    batch_size: 720
  }
}
layer {
  name: "conv1"
  type: "Convolution"
  bottom: "data"
  top: "conv1"
  convolution_param {
    num_output: 12
    pad: 0
    stride: 1
    weight_filler {
      type: "xavier"
    }
    bias_filler {
      type: "constant"
    }
    kernel_h: 8
    kernel_w: 3
  }
}
layer {
  name: "relu1"
  type: "ReLU"
  bottom: "conv1"
  top: "conv1"
}
layer {
  name: "pool1"
  type: "Pooling"
  bottom: "conv1"
  top: "pool1"
  pooling_param {
    pool: MAX
    kernel_h: 2
    kernel_w: 1
    stride_h: 2
    stride_w: 1
  }
}
layer {
  name: "conv2"
  type: "Convolution"
  bottom: "pool1"
  top: "conv2"
  convolution_param {
    num_output: 20
    pad: 0
    stride: 1
    weight_filler {
      type: "xavier"
    }
    bias_filler {
      type: "constant"
    }
    kernel_h: 7
    kernel_w: 3
  }
}
layer {
  name: "relu2"
  type: "ReLU"
  bottom: "conv2"
  top: "conv2"
}
layer {
  name: "pool2"
  type: "Pooling"
  bottom: "conv2"
  top: "pool2"
  pooling_param {
    pool: MAX
    kernel_h: 2
    kernel_w: 1
    stride_h: 2
    stride_w: 1
  }
}
layer {
  name: "conv3"
  type: "Convolution"
  bottom: "pool2"
  top: "conv3"
  convolution_param {
    num_output: 28
    pad: 0
    stride: 1
    weight_filler {
      type: "xavier"
    }
    bias_filler {
      type: "constant"
    }
    kernel_h: 6
    kernel_w: 3
  }
}
layer {
  name: "relu3"
  type: "ReLU"
  bottom: "conv3"
  top: "conv3"
}
layer {
  name: "pool3"
  type: "Pooling"
  bottom: "conv3"
  top: "pool3"
  pooling_param {
    pool: MAX
    kernel_h: 2
    kernel_w: 1
    stride_h: 2
    stride_w: 1
  }
}
layer {
  name: "conv4"
  type: "Convolution"
  bottom: "pool3"
  top: "conv4"
  convolution_param {
    num_output: 36
    pad: 0
    stride: 1
    weight_filler {
      type: "xavier"
    }
    bias_filler {
      type: "constant"
    }
    kernel_h: 6
    kernel_w: 3
  }
}
layer {
  name: "relu4"
  type: "ReLU"
  bottom: "conv4"
  top: "conv4"
}
layer {
  name: "pool4"
  type: "Pooling"
  bottom: "conv4"
  top: "pool4"
  pooling_param {
    pool: MAX
    kernel_h: 2
    kernel_w: 1
    stride_h: 2
    stride_w: 1
  }
}
layer {
  name: "ip1"
  type: "InnerProduct"
  bottom: "pool4"
  top: "ip1"
  inner_product_param {
    num_output: 196
    weight_filler {
      type: "xavier"
    }
    bias_filler {
      type: "constant"
    }
  }
}
layer {
  name: "relu5"
  type: "ReLU"
  bottom: "ip1"
  top: "ip1"
}
layer {
  name: "drop1"
  type: "Dropout"
  bottom: "ip1"
  top: "ip1"
  dropout_param {
    dropout_ratio: 0.5
  }
}
layer {
  name: "ip2"
  type: "InnerProduct"
  bottom: "ip1"
  top: "ip2"
  inner_product_param {
    num_output: 98
    weight_filler {
      type: "xavier"
    }
    bias_filler {
      type: "constant"
    }
  }
}
layer {
  name: "relu6"
  type: "ReLU"
  bottom: "ip2"
  top: "ip2"
}
layer {
  name: "drop2"
  type: "Dropout"
  bottom: "ip2"
  top: "ip2"
  dropout_param {
    dropout_ratio: 0.5
  }
}
layer {
  name: "ip3"
  type: "InnerProduct"
  bottom: "ip2"
  top: "ip3"
  inner_product_param {
    num_output: 11
    weight_filler {
      type: "xavier"
    }
    bias_filler {
      type: "constant"
    }
  }
}
layer {
  name: "drop3"
  type: "Dropout"
  bottom: "ip3"
  top: "ip3"
  dropout_param {
    dropout_ratio: 0.5
  }
}
layer {
  name: "accuracy"
  type: "Accuracy"
  bottom: "ip3"
  bottom: "label"
  top: "accuracy"
  include {
    phase: TEST
  }
}
layer {
  name: "loss"
  type: "SoftmaxWithLoss"
  bottom: "ip3"
  bottom: "label"
  top: "loss"
}
I0520 12:02:52.337644 26789 layer_factory.hpp:77] Creating layer data_hdf5
I0520 12:02:52.337659 26789 net.cpp:106] Creating Layer data_hdf5
I0520 12:02:52.337671 26789 net.cpp:411] data_hdf5 -> data
I0520 12:02:52.337688 26789 net.cpp:411] data_hdf5 -> label
I0520 12:02:52.337704 26789 hdf5_data_layer.cpp:79] Loading list of HDF5 filenames from: /lustre/atlas/proj-shared/hep105/caffe_titan/minosmatch_nukecczdefs_127x50_x_unshifted_me1Bmc.testlist
I0520 12:02:52.339120 26789 hdf5_data_layer.cpp:93] Number of HDF5 files: 3
I0520 12:03:13.647374 26789 net.cpp:150] Setting up data_hdf5
I0520 12:03:13.647537 26789 net.cpp:157] Top shape: 720 1 127 50 (4572000)
I0520 12:03:13.647552 26789 net.cpp:157] Top shape: 720 (720)
I0520 12:03:13.647564 26789 net.cpp:165] Memory required for data: 18290880
I0520 12:03:13.647578 26789 layer_factory.hpp:77] Creating layer label_data_hdf5_1_split
I0520 12:03:13.647606 26789 net.cpp:106] Creating Layer label_data_hdf5_1_split
I0520 12:03:13.647616 26789 net.cpp:454] label_data_hdf5_1_split <- label
I0520 12:03:13.647631 26789 net.cpp:411] label_data_hdf5_1_split -> label_data_hdf5_1_split_0
I0520 12:03:13.647653 26789 net.cpp:411] label_data_hdf5_1_split -> label_data_hdf5_1_split_1
I0520 12:03:13.647727 26789 net.cpp:150] Setting up label_data_hdf5_1_split
I0520 12:03:13.647740 26789 net.cpp:157] Top shape: 720 (720)
I0520 12:03:13.647753 26789 net.cpp:157] Top shape: 720 (720)
I0520 12:03:13.647761 26789 net.cpp:165] Memory required for data: 18296640
I0520 12:03:13.647771 26789 layer_factory.hpp:77] Creating layer conv1
I0520 12:03:13.647791 26789 net.cpp:106] Creating Layer conv1
I0520 12:03:13.647802 26789 net.cpp:454] conv1 <- data
I0520 12:03:13.647816 26789 net.cpp:411] conv1 -> conv1
I0520 12:03:13.649740 26789 net.cpp:150] Setting up conv1
I0520 12:03:13.649765 26789 net.cpp:157] Top shape: 720 12 120 48 (49766400)
I0520 12:03:13.649775 26789 net.cpp:165] Memory required for data: 217362240
I0520 12:03:13.649796 26789 layer_factory.hpp:77] Creating layer relu1
I0520 12:03:13.649811 26789 net.cpp:106] Creating Layer relu1
I0520 12:03:13.649821 26789 net.cpp:454] relu1 <- conv1
I0520 12:03:13.649834 26789 net.cpp:397] relu1 -> conv1 (in-place)
I0520 12:03:13.650331 26789 net.cpp:150] Setting up relu1
I0520 12:03:13.650346 26789 net.cpp:157] Top shape: 720 12 120 48 (49766400)
I0520 12:03:13.650357 26789 net.cpp:165] Memory required for data: 416427840
I0520 12:03:13.650367 26789 layer_factory.hpp:77] Creating layer pool1
I0520 12:03:13.650382 26789 net.cpp:106] Creating Layer pool1
I0520 12:03:13.650393 26789 net.cpp:454] pool1 <- conv1
I0520 12:03:13.650405 26789 net.cpp:411] pool1 -> pool1
I0520 12:03:13.650480 26789 net.cpp:150] Setting up pool1
I0520 12:03:13.650493 26789 net.cpp:157] Top shape: 720 12 60 48 (24883200)
I0520 12:03:13.650503 26789 net.cpp:165] Memory required for data: 515960640
I0520 12:03:13.650513 26789 layer_factory.hpp:77] Creating layer conv2
I0520 12:03:13.650532 26789 net.cpp:106] Creating Layer conv2
I0520 12:03:13.650542 26789 net.cpp:454] conv2 <- pool1
I0520 12:03:13.650557 26789 net.cpp:411] conv2 -> conv2
I0520 12:03:13.652473 26789 net.cpp:150] Setting up conv2
I0520 12:03:13.652496 26789 net.cpp:157] Top shape: 720 20 54 46 (35769600)
I0520 12:03:13.652509 26789 net.cpp:165] Memory required for data: 659039040
I0520 12:03:13.652526 26789 layer_factory.hpp:77] Creating layer relu2
I0520 12:03:13.652540 26789 net.cpp:106] Creating Layer relu2
I0520 12:03:13.652550 26789 net.cpp:454] relu2 <- conv2
I0520 12:03:13.652562 26789 net.cpp:397] relu2 -> conv2 (in-place)
I0520 12:03:13.652899 26789 net.cpp:150] Setting up relu2
I0520 12:03:13.652912 26789 net.cpp:157] Top shape: 720 20 54 46 (35769600)
I0520 12:03:13.652923 26789 net.cpp:165] Memory required for data: 802117440
I0520 12:03:13.652933 26789 layer_factory.hpp:77] Creating layer pool2
I0520 12:03:13.652946 26789 net.cpp:106] Creating Layer pool2
I0520 12:03:13.652956 26789 net.cpp:454] pool2 <- conv2
I0520 12:03:13.652968 26789 net.cpp:411] pool2 -> pool2
I0520 12:03:13.653039 26789 net.cpp:150] Setting up pool2
I0520 12:03:13.653053 26789 net.cpp:157] Top shape: 720 20 27 46 (17884800)
I0520 12:03:13.653062 26789 net.cpp:165] Memory required for data: 873656640
I0520 12:03:13.653070 26789 layer_factory.hpp:77] Creating layer conv3
I0520 12:03:13.653090 26789 net.cpp:106] Creating Layer conv3
I0520 12:03:13.653100 26789 net.cpp:454] conv3 <- pool2
I0520 12:03:13.653113 26789 net.cpp:411] conv3 -> conv3
I0520 12:03:13.655086 26789 net.cpp:150] Setting up conv3
I0520 12:03:13.655110 26789 net.cpp:157] Top shape: 720 28 22 44 (19514880)
I0520 12:03:13.655122 26789 net.cpp:165] Memory required for data: 951716160
I0520 12:03:13.655153 26789 layer_factory.hpp:77] Creating layer relu3
I0520 12:03:13.655167 26789 net.cpp:106] Creating Layer relu3
I0520 12:03:13.655177 26789 net.cpp:454] relu3 <- conv3
I0520 12:03:13.655190 26789 net.cpp:397] relu3 -> conv3 (in-place)
I0520 12:03:13.655665 26789 net.cpp:150] Setting up relu3
I0520 12:03:13.655681 26789 net.cpp:157] Top shape: 720 28 22 44 (19514880)
I0520 12:03:13.655691 26789 net.cpp:165] Memory required for data: 1029775680
I0520 12:03:13.655701 26789 layer_factory.hpp:77] Creating layer pool3
I0520 12:03:13.655714 26789 net.cpp:106] Creating Layer pool3
I0520 12:03:13.655725 26789 net.cpp:454] pool3 <- conv3
I0520 12:03:13.655737 26789 net.cpp:411] pool3 -> pool3
I0520 12:03:13.655809 26789 net.cpp:150] Setting up pool3
I0520 12:03:13.655823 26789 net.cpp:157] Top shape: 720 28 11 44 (9757440)
I0520 12:03:13.655833 26789 net.cpp:165] Memory required for data: 1068805440
I0520 12:03:13.655840 26789 layer_factory.hpp:77] Creating layer conv4
I0520 12:03:13.655858 26789 net.cpp:106] Creating Layer conv4
I0520 12:03:13.655869 26789 net.cpp:454] conv4 <- pool3
I0520 12:03:13.655882 26789 net.cpp:411] conv4 -> conv4
I0520 12:03:13.657948 26789 net.cpp:150] Setting up conv4
I0520 12:03:13.657970 26789 net.cpp:157] Top shape: 720 36 6 42 (6531840)
I0520 12:03:13.657980 26789 net.cpp:165] Memory required for data: 1094932800
I0520 12:03:13.657996 26789 layer_factory.hpp:77] Creating layer relu4
I0520 12:03:13.658010 26789 net.cpp:106] Creating Layer relu4
I0520 12:03:13.658020 26789 net.cpp:454] relu4 <- conv4
I0520 12:03:13.658032 26789 net.cpp:397] relu4 -> conv4 (in-place)
I0520 12:03:13.658509 26789 net.cpp:150] Setting up relu4
I0520 12:03:13.658525 26789 net.cpp:157] Top shape: 720 36 6 42 (6531840)
I0520 12:03:13.658535 26789 net.cpp:165] Memory required for data: 1121060160
I0520 12:03:13.658545 26789 layer_factory.hpp:77] Creating layer pool4
I0520 12:03:13.658560 26789 net.cpp:106] Creating Layer pool4
I0520 12:03:13.658568 26789 net.cpp:454] pool4 <- conv4
I0520 12:03:13.658581 26789 net.cpp:411] pool4 -> pool4
I0520 12:03:13.658653 26789 net.cpp:150] Setting up pool4
I0520 12:03:13.658668 26789 net.cpp:157] Top shape: 720 36 3 42 (3265920)
I0520 12:03:13.658676 26789 net.cpp:165] Memory required for data: 1134123840
I0520 12:03:13.658684 26789 layer_factory.hpp:77] Creating layer ip1
I0520 12:03:13.658700 26789 net.cpp:106] Creating Layer ip1
I0520 12:03:13.658710 26789 net.cpp:454] ip1 <- pool4
I0520 12:03:13.658725 26789 net.cpp:411] ip1 -> ip1
I0520 12:03:13.674163 26789 net.cpp:150] Setting up ip1
I0520 12:03:13.674191 26789 net.cpp:157] Top shape: 720 196 (141120)
I0520 12:03:13.674204 26789 net.cpp:165] Memory required for data: 1134688320
I0520 12:03:13.674226 26789 layer_factory.hpp:77] Creating layer relu5
I0520 12:03:13.674242 26789 net.cpp:106] Creating Layer relu5
I0520 12:03:13.674252 26789 net.cpp:454] relu5 <- ip1
I0520 12:03:13.674265 26789 net.cpp:397] relu5 -> ip1 (in-place)
I0520 12:03:13.674609 26789 net.cpp:150] Setting up relu5
I0520 12:03:13.674623 26789 net.cpp:157] Top shape: 720 196 (141120)
I0520 12:03:13.674633 26789 net.cpp:165] Memory required for data: 1135252800
I0520 12:03:13.674643 26789 layer_factory.hpp:77] Creating layer drop1
I0520 12:03:13.674661 26789 net.cpp:106] Creating Layer drop1
I0520 12:03:13.674671 26789 net.cpp:454] drop1 <- ip1
I0520 12:03:13.674685 26789 net.cpp:397] drop1 -> ip1 (in-place)
I0520 12:03:13.674728 26789 net.cpp:150] Setting up drop1
I0520 12:03:13.674741 26789 net.cpp:157] Top shape: 720 196 (141120)
I0520 12:03:13.674753 26789 net.cpp:165] Memory required for data: 1135817280
I0520 12:03:13.674763 26789 layer_factory.hpp:77] Creating layer ip2
I0520 12:03:13.674778 26789 net.cpp:106] Creating Layer ip2
I0520 12:03:13.674788 26789 net.cpp:454] ip2 <- ip1
I0520 12:03:13.674801 26789 net.cpp:411] ip2 -> ip2
I0520 12:03:13.675283 26789 net.cpp:150] Setting up ip2
I0520 12:03:13.675297 26789 net.cpp:157] Top shape: 720 98 (70560)
I0520 12:03:13.675307 26789 net.cpp:165] Memory required for data: 1136099520
I0520 12:03:13.675334 26789 layer_factory.hpp:77] Creating layer relu6
I0520 12:03:13.675348 26789 net.cpp:106] Creating Layer relu6
I0520 12:03:13.675357 26789 net.cpp:454] relu6 <- ip2
I0520 12:03:13.675369 26789 net.cpp:397] relu6 -> ip2 (in-place)
I0520 12:03:13.675899 26789 net.cpp:150] Setting up relu6
I0520 12:03:13.675921 26789 net.cpp:157] Top shape: 720 98 (70560)
I0520 12:03:13.675931 26789 net.cpp:165] Memory required for data: 1136381760
I0520 12:03:13.675941 26789 layer_factory.hpp:77] Creating layer drop2
I0520 12:03:13.675954 26789 net.cpp:106] Creating Layer drop2
I0520 12:03:13.675964 26789 net.cpp:454] drop2 <- ip2
I0520 12:03:13.675977 26789 net.cpp:397] drop2 -> ip2 (in-place)
I0520 12:03:13.676020 26789 net.cpp:150] Setting up drop2
I0520 12:03:13.676033 26789 net.cpp:157] Top shape: 720 98 (70560)
I0520 12:03:13.676044 26789 net.cpp:165] Memory required for data: 1136664000
I0520 12:03:13.676054 26789 layer_factory.hpp:77] Creating layer ip3
I0520 12:03:13.676069 26789 net.cpp:106] Creating Layer ip3
I0520 12:03:13.676079 26789 net.cpp:454] ip3 <- ip2
I0520 12:03:13.676092 26789 net.cpp:411] ip3 -> ip3
I0520 12:03:13.676324 26789 net.cpp:150] Setting up ip3
I0520 12:03:13.676338 26789 net.cpp:157] Top shape: 720 11 (7920)
I0520 12:03:13.676348 26789 net.cpp:165] Memory required for data: 1136695680
I0520 12:03:13.676363 26789 layer_factory.hpp:77] Creating layer drop3
I0520 12:03:13.676376 26789 net.cpp:106] Creating Layer drop3
I0520 12:03:13.676386 26789 net.cpp:454] drop3 <- ip3
I0520 12:03:13.676398 26789 net.cpp:397] drop3 -> ip3 (in-place)
I0520 12:03:13.676440 26789 net.cpp:150] Setting up drop3
I0520 12:03:13.676452 26789 net.cpp:157] Top shape: 720 11 (7920)
I0520 12:03:13.676462 26789 net.cpp:165] Memory required for data: 1136727360
I0520 12:03:13.676472 26789 layer_factory.hpp:77] Creating layer ip3_drop3_0_split
I0520 12:03:13.676484 26789 net.cpp:106] Creating Layer ip3_drop3_0_split
I0520 12:03:13.676494 26789 net.cpp:454] ip3_drop3_0_split <- ip3
I0520 12:03:13.676507 26789 net.cpp:411] ip3_drop3_0_split -> ip3_drop3_0_split_0
I0520 12:03:13.676522 26789 net.cpp:411] ip3_drop3_0_split -> ip3_drop3_0_split_1
I0520 12:03:13.676594 26789 net.cpp:150] Setting up ip3_drop3_0_split
I0520 12:03:13.676607 26789 net.cpp:157] Top shape: 720 11 (7920)
I0520 12:03:13.676620 26789 net.cpp:157] Top shape: 720 11 (7920)
I0520 12:03:13.676630 26789 net.cpp:165] Memory required for data: 1136790720
I0520 12:03:13.676637 26789 layer_factory.hpp:77] Creating layer accuracy
I0520 12:03:13.676684 26789 net.cpp:106] Creating Layer accuracy
I0520 12:03:13.676694 26789 net.cpp:454] accuracy <- ip3_drop3_0_split_0
I0520 12:03:13.676707 26789 net.cpp:454] accuracy <- label_data_hdf5_1_split_0
I0520 12:03:13.676720 26789 net.cpp:411] accuracy -> accuracy
…
