…
I0521 00:33:26.483309  9906 net.cpp:322] The NetState phase (0) differed from the phase (1) specified by a rule in layer data_hdf5
I0521 00:33:26.483368  9906 net.cpp:322] The NetState phase (0) differed from the phase (1) specified by a rule in layer accuracy
I0521 00:33:26.483712  9906 net.cpp:49] Initializing net from parameters: 
name: "caffe_test_127x50_x_unshifted"
state {
  phase: TRAIN
}
layer {
  name: "data_hdf5"
  type: "HDF5Data"
  top: "data"
  top: "label"
  include {
    phase: TRAIN
  }
  hdf5_data_param {
    source: "/lustre/atlas/proj-shared/hep105/caffe_titan/minosmatch_nukecczdefs_127x50_x_unshifted_me1Bmc.trainlist"
    batch_size: 480
  }
}
layer {
  name: "conv1"
  type: "Convolution"
  bottom: "data"
  top: "conv1"
  convolution_param {
    num_output: 12
    pad: 0
    stride: 1
    weight_filler {
      type: "xavier"
    }
    bias_filler {
      type: "constant"
    }
    kernel_h: 8
    kernel_w: 3
  }
}
layer {
  name: "relu1"
  type: "ReLU"
  bottom: "conv1"
  top: "conv1"
}
layer {
  name: "pool1"
  type: "Pooling"
  bottom: "conv1"
  top: "pool1"
  pooling_param {
    pool: MAX
    kernel_h: 2
    kernel_w: 1
    stride_h: 2
    stride_w: 1
  }
}
layer {
  name: "conv2"
  type: "Convolution"
  bottom: "pool1"
  top: "conv2"
  convolution_param {
    num_output: 20
    pad: 0
    stride: 1
    weight_filler {
      type: "xavier"
    }
    bias_filler {
      type: "constant"
    }
    kernel_h: 7
    kernel_w: 3
  }
}
layer {
  name: "relu2"
  type: "ReLU"
  bottom: "conv2"
  top: "conv2"
}
layer {
  name: "pool2"
  type: "Pooling"
  bottom: "conv2"
  top: "pool2"
  pooling_param {
    pool: MAX
    kernel_h: 2
    kernel_w: 1
    stride_h: 2
    stride_w: 1
  }
}
layer {
  name: "conv3"
  type: "Convolution"
  bottom: "pool2"
  top: "conv3"
  convolution_param {
    num_output: 28
    pad: 0
    stride: 1
    weight_filler {
      type: "xavier"
    }
    bias_filler {
      type: "constant"
    }
    kernel_h: 6
    kernel_w: 3
  }
}
layer {
  name: "relu3"
  type: "ReLU"
  bottom: "conv3"
  top: "conv3"
}
layer {
  name: "pool3"
  type: "Pooling"
  bottom: "conv3"
  top: "pool3"
  pooling_param {
    pool: MAX
    kernel_h: 2
    kernel_w: 1
    stride_h: 2
    stride_w: 1
  }
}
layer {
  name: "conv4"
  type: "Convolution"
  bottom: "pool3"
  top: "conv4"
  convolution_param {
    num_output: 36
    pad: 0
    stride: 1
    weight_filler {
      type: "xavier"
    }
    bias_filler {
      type: "constant"
    }
    kernel_h: 6
    kernel_w: 3
  }
}
layer {
  name: "relu4"
  type: "ReLU"
  bottom: "conv4"
  top: "conv4"
}
layer {
  name: "pool4"
  type: "Pooling"
  bottom: "conv4"
  top: "pool4"
  pooling_param {
    pool: MAX
    kernel_h: 2
    kernel_w: 1
    stride_h: 2
    stride_w: 1
  }
}
layer {
  name: "ip1"
  type: "InnerProduct"
  bottom: "pool4"
  top: "ip1"
  inner_product_param {
    num_output: 196
    weight_filler {
      type: "xavier"
    }
    bias_filler {
      type: "constant"
    }
  }
}
layer {
  name: "relu5"
  type: "ReLU"
  bottom: "ip1"
  top: "ip1"
}
layer {
  name: "drop1"
  type: "Dropout"
  bottom: "ip1"
  top: "ip1"
  dropout_param {
    dropout_ratio: 0.5
  }
}
layer {
  name: "ip2"
  type: "InnerProduct"
  bottom: "ip1"
  top: "ip2"
  inner_product_param {
    num_output: 98
    weight_filler {
      type: "xavier"
    }
    bias_filler {
      type: "constant"
    }
  }
}
layer {
  name: "relu6"
  type: "ReLU"
  bottom: "ip2"
  top: "ip2"
}
layer {
  name: "drop2"
  type: "Dropout"
  bottom: "ip2"
  top: "ip2"
  dropout_param {
    dropout_ratio: 0.5
  }
}
layer {
  name: "ip3"
  type: "InnerProduct"
  bottom: "ip2"
  top: "ip3"
  inner_product_param {
    num_output: 11
    weight_filler {
      type: "xavier"
    }
    bias_filler {
      type: "constant"
    }
  }
}
layer {
  name: "drop3"
  type: "Dropout"
  bottom: "ip3"
  top: "ip3"
  dropout_param {
    dropout_ratio: 0.5
  }
}
layer {
  name: "loss"
  type: "SoftmaxWithLoss"
  bottom: "ip3"
  bottom: "label"
  top: "loss"
}
I0521 00:33:26.483887  9906 layer_factory.hpp:77] Creating layer data_hdf5
I0521 00:33:26.483911  9906 net.cpp:106] Creating Layer data_hdf5
I0521 00:33:26.483927  9906 net.cpp:411] data_hdf5 -> data
I0521 00:33:26.483959  9906 net.cpp:411] data_hdf5 -> label
I0521 00:33:26.483991  9906 hdf5_data_layer.cpp:79] Loading list of HDF5 filenames from: /lustre/atlas/proj-shared/hep105/caffe_titan/minosmatch_nukecczdefs_127x50_x_unshifted_me1Bmc.trainlist
I0521 00:33:26.485151  9906 hdf5_data_layer.cpp:93] Number of HDF5 files: 15
I0521 00:33:26.487864  9906 hdf5.cpp:32] Datatype class: H5T_FLOAT
I0521 00:33:48.036800  9906 hdf5.cpp:35] Datatype class: H5T_INTEGER
I0521 00:33:48.041929  9906 net.cpp:150] Setting up data_hdf5
I0521 00:33:48.041970  9906 net.cpp:157] Top shape: 480 1 127 50 (3048000)
I0521 00:33:48.041985  9906 net.cpp:157] Top shape: 480 (480)
I0521 00:33:48.041996  9906 net.cpp:165] Memory required for data: 12193920
I0521 00:33:48.042009  9906 layer_factory.hpp:77] Creating layer conv1
I0521 00:33:48.042043  9906 net.cpp:106] Creating Layer conv1
I0521 00:33:48.042054  9906 net.cpp:454] conv1 <- data
I0521 00:33:48.042078  9906 net.cpp:411] conv1 -> conv1
I0521 00:33:48.405503  9906 net.cpp:150] Setting up conv1
I0521 00:33:48.405551  9906 net.cpp:157] Top shape: 480 12 120 48 (33177600)
I0521 00:33:48.405563  9906 net.cpp:165] Memory required for data: 144904320
I0521 00:33:48.405591  9906 layer_factory.hpp:77] Creating layer relu1
I0521 00:33:48.405613  9906 net.cpp:106] Creating Layer relu1
I0521 00:33:48.405624  9906 net.cpp:454] relu1 <- conv1
I0521 00:33:48.405637  9906 net.cpp:397] relu1 -> conv1 (in-place)
I0521 00:33:48.406154  9906 net.cpp:150] Setting up relu1
I0521 00:33:48.406172  9906 net.cpp:157] Top shape: 480 12 120 48 (33177600)
I0521 00:33:48.406182  9906 net.cpp:165] Memory required for data: 277614720
I0521 00:33:48.406190  9906 layer_factory.hpp:77] Creating layer pool1
I0521 00:33:48.406208  9906 net.cpp:106] Creating Layer pool1
I0521 00:33:48.406218  9906 net.cpp:454] pool1 <- conv1
I0521 00:33:48.406229  9906 net.cpp:411] pool1 -> pool1
I0521 00:33:48.406308  9906 net.cpp:150] Setting up pool1
I0521 00:33:48.406322  9906 net.cpp:157] Top shape: 480 12 60 48 (16588800)
I0521 00:33:48.406332  9906 net.cpp:165] Memory required for data: 343969920
I0521 00:33:48.406343  9906 layer_factory.hpp:77] Creating layer conv2
I0521 00:33:48.406365  9906 net.cpp:106] Creating Layer conv2
I0521 00:33:48.406376  9906 net.cpp:454] conv2 <- pool1
I0521 00:33:48.406390  9906 net.cpp:411] conv2 -> conv2
I0521 00:33:48.409065  9906 net.cpp:150] Setting up conv2
I0521 00:33:48.409091  9906 net.cpp:157] Top shape: 480 20 54 46 (23846400)
I0521 00:33:48.409102  9906 net.cpp:165] Memory required for data: 439355520
I0521 00:33:48.409122  9906 layer_factory.hpp:77] Creating layer relu2
I0521 00:33:48.409137  9906 net.cpp:106] Creating Layer relu2
I0521 00:33:48.409147  9906 net.cpp:454] relu2 <- conv2
I0521 00:33:48.409159  9906 net.cpp:397] relu2 -> conv2 (in-place)
I0521 00:33:48.409490  9906 net.cpp:150] Setting up relu2
I0521 00:33:48.409505  9906 net.cpp:157] Top shape: 480 20 54 46 (23846400)
I0521 00:33:48.409517  9906 net.cpp:165] Memory required for data: 534741120
I0521 00:33:48.409526  9906 layer_factory.hpp:77] Creating layer pool2
I0521 00:33:48.409539  9906 net.cpp:106] Creating Layer pool2
I0521 00:33:48.409549  9906 net.cpp:454] pool2 <- conv2
I0521 00:33:48.409574  9906 net.cpp:411] pool2 -> pool2
I0521 00:33:48.409643  9906 net.cpp:150] Setting up pool2
I0521 00:33:48.409657  9906 net.cpp:157] Top shape: 480 20 27 46 (11923200)
I0521 00:33:48.409667  9906 net.cpp:165] Memory required for data: 582433920
I0521 00:33:48.409677  9906 layer_factory.hpp:77] Creating layer conv3
I0521 00:33:48.409695  9906 net.cpp:106] Creating Layer conv3
I0521 00:33:48.409705  9906 net.cpp:454] conv3 <- pool2
I0521 00:33:48.409718  9906 net.cpp:411] conv3 -> conv3
I0521 00:33:48.411641  9906 net.cpp:150] Setting up conv3
I0521 00:33:48.411664  9906 net.cpp:157] Top shape: 480 28 22 44 (13009920)
I0521 00:33:48.411676  9906 net.cpp:165] Memory required for data: 634473600
I0521 00:33:48.411695  9906 layer_factory.hpp:77] Creating layer relu3
I0521 00:33:48.411710  9906 net.cpp:106] Creating Layer relu3
I0521 00:33:48.411720  9906 net.cpp:454] relu3 <- conv3
I0521 00:33:48.411733  9906 net.cpp:397] relu3 -> conv3 (in-place)
I0521 00:33:48.412204  9906 net.cpp:150] Setting up relu3
I0521 00:33:48.412220  9906 net.cpp:157] Top shape: 480 28 22 44 (13009920)
I0521 00:33:48.412230  9906 net.cpp:165] Memory required for data: 686513280
I0521 00:33:48.412240  9906 layer_factory.hpp:77] Creating layer pool3
I0521 00:33:48.412253  9906 net.cpp:106] Creating Layer pool3
I0521 00:33:48.412263  9906 net.cpp:454] pool3 <- conv3
I0521 00:33:48.412276  9906 net.cpp:411] pool3 -> pool3
I0521 00:33:48.412343  9906 net.cpp:150] Setting up pool3
I0521 00:33:48.412358  9906 net.cpp:157] Top shape: 480 28 11 44 (6504960)
I0521 00:33:48.412366  9906 net.cpp:165] Memory required for data: 712533120
I0521 00:33:48.412374  9906 layer_factory.hpp:77] Creating layer conv4
I0521 00:33:48.412391  9906 net.cpp:106] Creating Layer conv4
I0521 00:33:48.412402  9906 net.cpp:454] conv4 <- pool3
I0521 00:33:48.412415  9906 net.cpp:411] conv4 -> conv4
I0521 00:33:48.415194  9906 net.cpp:150] Setting up conv4
I0521 00:33:48.415221  9906 net.cpp:157] Top shape: 480 36 6 42 (4354560)
I0521 00:33:48.415235  9906 net.cpp:165] Memory required for data: 729951360
I0521 00:33:48.415252  9906 layer_factory.hpp:77] Creating layer relu4
I0521 00:33:48.415266  9906 net.cpp:106] Creating Layer relu4
I0521 00:33:48.415277  9906 net.cpp:454] relu4 <- conv4
I0521 00:33:48.415290  9906 net.cpp:397] relu4 -> conv4 (in-place)
I0521 00:33:48.415761  9906 net.cpp:150] Setting up relu4
I0521 00:33:48.415777  9906 net.cpp:157] Top shape: 480 36 6 42 (4354560)
I0521 00:33:48.415788  9906 net.cpp:165] Memory required for data: 747369600
I0521 00:33:48.415798  9906 layer_factory.hpp:77] Creating layer pool4
I0521 00:33:48.415812  9906 net.cpp:106] Creating Layer pool4
I0521 00:33:48.415822  9906 net.cpp:454] pool4 <- conv4
I0521 00:33:48.415834  9906 net.cpp:411] pool4 -> pool4
I0521 00:33:48.415902  9906 net.cpp:150] Setting up pool4
I0521 00:33:48.415916  9906 net.cpp:157] Top shape: 480 36 3 42 (2177280)
I0521 00:33:48.415927  9906 net.cpp:165] Memory required for data: 756078720
I0521 00:33:48.415935  9906 layer_factory.hpp:77] Creating layer ip1
I0521 00:33:48.415956  9906 net.cpp:106] Creating Layer ip1
I0521 00:33:48.415966  9906 net.cpp:454] ip1 <- pool4
I0521 00:33:48.415977  9906 net.cpp:411] ip1 -> ip1
I0521 00:33:48.431485  9906 net.cpp:150] Setting up ip1
I0521 00:33:48.431514  9906 net.cpp:157] Top shape: 480 196 (94080)
I0521 00:33:48.431530  9906 net.cpp:165] Memory required for data: 756455040
I0521 00:33:48.431556  9906 layer_factory.hpp:77] Creating layer relu5
I0521 00:33:48.431571  9906 net.cpp:106] Creating Layer relu5
I0521 00:33:48.431582  9906 net.cpp:454] relu5 <- ip1
I0521 00:33:48.431596  9906 net.cpp:397] relu5 -> ip1 (in-place)
I0521 00:33:48.431937  9906 net.cpp:150] Setting up relu5
I0521 00:33:48.431951  9906 net.cpp:157] Top shape: 480 196 (94080)
I0521 00:33:48.431962  9906 net.cpp:165] Memory required for data: 756831360
I0521 00:33:48.431972  9906 layer_factory.hpp:77] Creating layer drop1
I0521 00:33:48.431994  9906 net.cpp:106] Creating Layer drop1
I0521 00:33:48.432004  9906 net.cpp:454] drop1 <- ip1
I0521 00:33:48.432029  9906 net.cpp:397] drop1 -> ip1 (in-place)
I0521 00:33:48.432075  9906 net.cpp:150] Setting up drop1
I0521 00:33:48.432088  9906 net.cpp:157] Top shape: 480 196 (94080)
I0521 00:33:48.432099  9906 net.cpp:165] Memory required for data: 757207680
I0521 00:33:48.432108  9906 layer_factory.hpp:77] Creating layer ip2
I0521 00:33:48.432127  9906 net.cpp:106] Creating Layer ip2
I0521 00:33:48.432137  9906 net.cpp:454] ip2 <- ip1
I0521 00:33:48.432150  9906 net.cpp:411] ip2 -> ip2
I0521 00:33:48.432621  9906 net.cpp:150] Setting up ip2
I0521 00:33:48.432634  9906 net.cpp:157] Top shape: 480 98 (47040)
I0521 00:33:48.432644  9906 net.cpp:165] Memory required for data: 757395840
I0521 00:33:48.432659  9906 layer_factory.hpp:77] Creating layer relu6
I0521 00:33:48.432672  9906 net.cpp:106] Creating Layer relu6
I0521 00:33:48.432682  9906 net.cpp:454] relu6 <- ip2
I0521 00:33:48.432693  9906 net.cpp:397] relu6 -> ip2 (in-place)
I0521 00:33:48.433215  9906 net.cpp:150] Setting up relu6
I0521 00:33:48.433231  9906 net.cpp:157] Top shape: 480 98 (47040)
I0521 00:33:48.433243  9906 net.cpp:165] Memory required for data: 757584000
I0521 00:33:48.433253  9906 layer_factory.hpp:77] Creating layer drop2
I0521 00:33:48.433265  9906 net.cpp:106] Creating Layer drop2
I0521 00:33:48.433275  9906 net.cpp:454] drop2 <- ip2
I0521 00:33:48.433287  9906 net.cpp:397] drop2 -> ip2 (in-place)
I0521 00:33:48.433329  9906 net.cpp:150] Setting up drop2
I0521 00:33:48.433342  9906 net.cpp:157] Top shape: 480 98 (47040)
I0521 00:33:48.433352  9906 net.cpp:165] Memory required for data: 757772160
I0521 00:33:48.433362  9906 layer_factory.hpp:77] Creating layer ip3
I0521 00:33:48.433375  9906 net.cpp:106] Creating Layer ip3
I0521 00:33:48.433385  9906 net.cpp:454] ip3 <- ip2
I0521 00:33:48.433398  9906 net.cpp:411] ip3 -> ip3
I0521 00:33:48.433609  9906 net.cpp:150] Setting up ip3
I0521 00:33:48.433621  9906 net.cpp:157] Top shape: 480 11 (5280)
I0521 00:33:48.433631  9906 net.cpp:165] Memory required for data: 757793280
I0521 00:33:48.433646  9906 layer_factory.hpp:77] Creating layer drop3
I0521 00:33:48.433658  9906 net.cpp:106] Creating Layer drop3
I0521 00:33:48.433668  9906 net.cpp:454] drop3 <- ip3
I0521 00:33:48.433681  9906 net.cpp:397] drop3 -> ip3 (in-place)
I0521 00:33:48.433720  9906 net.cpp:150] Setting up drop3
I0521 00:33:48.433732  9906 net.cpp:157] Top shape: 480 11 (5280)
I0521 00:33:48.433743  9906 net.cpp:165] Memory required for data: 757814400
I0521 00:33:48.433753  9906 layer_factory.hpp:77] Creating layer loss
I0521 00:33:48.433771  9906 net.cpp:106] Creating Layer loss
I0521 00:33:48.433781  9906 net.cpp:454] loss <- ip3
I0521 00:33:48.433792  9906 net.cpp:454] loss <- label
I0521 00:33:48.433804  9906 net.cpp:411] loss -> loss
I0521 00:33:48.433821  9906 layer_factory.hpp:77] Creating layer loss
…
I0521 00:33:48.436503  9906 solver.cpp:181] Creating test net (#0) specified by net file: /lustre/atlas/proj-shared/hep105/caffe_titan/caffe_workflow/logs_batch_size_test/batch_size_480_2016-05-20T11.20.50.040593.prototxt
I0521 00:33:48.436590  9906 net.cpp:322] The NetState phase (1) differed from the phase (0) specified by a rule in layer data_hdf5
I0521 00:33:48.436947  9906 net.cpp:49] Initializing net from parameters: 
name: "caffe_test_127x50_x_unshifted"
state {
  phase: TEST
}
layer {
  name: "data_hdf5"
  type: "HDF5Data"
  top: "data"
  top: "label"
  include {
    phase: TEST
  }
  hdf5_data_param {
    source: "/lustre/atlas/proj-shared/hep105/caffe_titan/minosmatch_nukecczdefs_127x50_x_unshifted_me1Bmc.testlist"
    batch_size: 480
  }
}
layer {
  name: "conv1"
  type: "Convolution"
  bottom: "data"
  top: "conv1"
  convolution_param {
    num_output: 12
    pad: 0
    stride: 1
    weight_filler {
      type: "xavier"
    }
    bias_filler {
      type: "constant"
    }
    kernel_h: 8
    kernel_w: 3
  }
}
layer {
  name: "relu1"
  type: "ReLU"
  bottom: "conv1"
  top: "conv1"
}
layer {
  name: "pool1"
  type: "Pooling"
  bottom: "conv1"
  top: "pool1"
  pooling_param {
    pool: MAX
    kernel_h: 2
    kernel_w: 1
    stride_h: 2
    stride_w: 1
  }
}
layer {
  name: "conv2"
  type: "Convolution"
  bottom: "pool1"
  top: "conv2"
  convolution_param {
    num_output: 20
    pad: 0
    stride: 1
    weight_filler {
      type: "xavier"
    }
    bias_filler {
      type: "constant"
    }
    kernel_h: 7
    kernel_w: 3
  }
}
layer {
  name: "relu2"
  type: "ReLU"
  bottom: "conv2"
  top: "conv2"
}
layer {
  name: "pool2"
  type: "Pooling"
  bottom: "conv2"
  top: "pool2"
  pooling_param {
    pool: MAX
    kernel_h: 2
    kernel_w: 1
    stride_h: 2
    stride_w: 1
  }
}
layer {
  name: "conv3"
  type: "Convolution"
  bottom: "pool2"
  top: "conv3"
  convolution_param {
    num_output: 28
    pad: 0
    stride: 1
    weight_filler {
      type: "xavier"
    }
    bias_filler {
      type: "constant"
    }
    kernel_h: 6
    kernel_w: 3
  }
}
layer {
  name: "relu3"
  type: "ReLU"
  bottom: "conv3"
  top: "conv3"
}
layer {
  name: "pool3"
  type: "Pooling"
  bottom: "conv3"
  top: "pool3"
  pooling_param {
    pool: MAX
    kernel_h: 2
    kernel_w: 1
    stride_h: 2
    stride_w: 1
  }
}
layer {
  name: "conv4"
  type: "Convolution"
  bottom: "pool3"
  top: "conv4"
  convolution_param {
    num_output: 36
    pad: 0
    stride: 1
    weight_filler {
      type: "xavier"
    }
    bias_filler {
      type: "constant"
    }
    kernel_h: 6
    kernel_w: 3
  }
}
layer {
  name: "relu4"
  type: "ReLU"
  bottom: "conv4"
  top: "conv4"
}
layer {
  name: "pool4"
  type: "Pooling"
  bottom: "conv4"
  top: "pool4"
  pooling_param {
    pool: MAX
    kernel_h: 2
    kernel_w: 1
    stride_h: 2
    stride_w: 1
  }
}
layer {
  name: "ip1"
  type: "InnerProduct"
  bottom: "pool4"
  top: "ip1"
  inner_product_param {
    num_output: 196
    weight_filler {
      type: "xavier"
    }
    bias_filler {
      type: "constant"
    }
  }
}
layer {
  name: "relu5"
  type: "ReLU"
  bottom: "ip1"
  top: "ip1"
}
layer {
  name: "drop1"
  type: "Dropout"
  bottom: "ip1"
  top: "ip1"
  dropout_param {
    dropout_ratio: 0.5
  }
}
layer {
  name: "ip2"
  type: "InnerProduct"
  bottom: "ip1"
  top: "ip2"
  inner_product_param {
    num_output: 98
    weight_filler {
      type: "xavier"
    }
    bias_filler {
      type: "constant"
    }
  }
}
layer {
  name: "relu6"
  type: "ReLU"
  bottom: "ip2"
  top: "ip2"
}
layer {
  name: "drop2"
  type: "Dropout"
  bottom: "ip2"
  top: "ip2"
  dropout_param {
    dropout_ratio: 0.5
  }
}
layer {
  name: "ip3"
  type: "InnerProduct"
  bottom: "ip2"
  top: "ip3"
  inner_product_param {
    num_output: 11
    weight_filler {
      type: "xavier"
    }
    bias_filler {
      type: "constant"
    }
  }
}
layer {
  name: "drop3"
  type: "Dropout"
  bottom: "ip3"
  top: "ip3"
  dropout_param {
    dropout_ratio: 0.5
  }
}
layer {
  name: "accuracy"
  type: "Accuracy"
  bottom: "ip3"
  bottom: "label"
  top: "accuracy"
  include {
    phase: TEST
  }
}
layer {
  name: "loss"
  type: "SoftmaxWithLoss"
  bottom: "ip3"
  bottom: "label"
  top: "loss"
}
I0521 00:33:48.437136  9906 layer_factory.hpp:77] Creating layer data_hdf5
I0521 00:33:48.437152  9906 net.cpp:106] Creating Layer data_hdf5
I0521 00:33:48.437165  9906 net.cpp:411] data_hdf5 -> data
I0521 00:33:48.437181  9906 net.cpp:411] data_hdf5 -> label
I0521 00:33:48.437196  9906 hdf5_data_layer.cpp:79] Loading list of HDF5 filenames from: /lustre/atlas/proj-shared/hep105/caffe_titan/minosmatch_nukecczdefs_127x50_x_unshifted_me1Bmc.testlist
I0521 00:33:48.438289  9906 hdf5_data_layer.cpp:93] Number of HDF5 files: 3
I0521 00:34:09.747809  9906 net.cpp:150] Setting up data_hdf5
I0521 00:34:09.747975  9906 net.cpp:157] Top shape: 480 1 127 50 (3048000)
I0521 00:34:09.747990  9906 net.cpp:157] Top shape: 480 (480)
I0521 00:34:09.748000  9906 net.cpp:165] Memory required for data: 12193920
I0521 00:34:09.748014  9906 layer_factory.hpp:77] Creating layer label_data_hdf5_1_split
I0521 00:34:09.748042  9906 net.cpp:106] Creating Layer label_data_hdf5_1_split
I0521 00:34:09.748054  9906 net.cpp:454] label_data_hdf5_1_split <- label
I0521 00:34:09.748069  9906 net.cpp:411] label_data_hdf5_1_split -> label_data_hdf5_1_split_0
I0521 00:34:09.748090  9906 net.cpp:411] label_data_hdf5_1_split -> label_data_hdf5_1_split_1
I0521 00:34:09.748163  9906 net.cpp:150] Setting up label_data_hdf5_1_split
I0521 00:34:09.748178  9906 net.cpp:157] Top shape: 480 (480)
I0521 00:34:09.748189  9906 net.cpp:157] Top shape: 480 (480)
I0521 00:34:09.748198  9906 net.cpp:165] Memory required for data: 12197760
I0521 00:34:09.748208  9906 layer_factory.hpp:77] Creating layer conv1
I0521 00:34:09.748229  9906 net.cpp:106] Creating Layer conv1
I0521 00:34:09.748240  9906 net.cpp:454] conv1 <- data
I0521 00:34:09.748255  9906 net.cpp:411] conv1 -> conv1
I0521 00:34:09.750211  9906 net.cpp:150] Setting up conv1
I0521 00:34:09.750236  9906 net.cpp:157] Top shape: 480 12 120 48 (33177600)
I0521 00:34:09.750246  9906 net.cpp:165] Memory required for data: 144908160
I0521 00:34:09.750267  9906 layer_factory.hpp:77] Creating layer relu1
I0521 00:34:09.750283  9906 net.cpp:106] Creating Layer relu1
I0521 00:34:09.750293  9906 net.cpp:454] relu1 <- conv1
I0521 00:34:09.750305  9906 net.cpp:397] relu1 -> conv1 (in-place)
I0521 00:34:09.750799  9906 net.cpp:150] Setting up relu1
I0521 00:34:09.750816  9906 net.cpp:157] Top shape: 480 12 120 48 (33177600)
I0521 00:34:09.750826  9906 net.cpp:165] Memory required for data: 277618560
I0521 00:34:09.750836  9906 layer_factory.hpp:77] Creating layer pool1
I0521 00:34:09.750852  9906 net.cpp:106] Creating Layer pool1
I0521 00:34:09.750862  9906 net.cpp:454] pool1 <- conv1
I0521 00:34:09.750875  9906 net.cpp:411] pool1 -> pool1
I0521 00:34:09.750952  9906 net.cpp:150] Setting up pool1
I0521 00:34:09.750964  9906 net.cpp:157] Top shape: 480 12 60 48 (16588800)
I0521 00:34:09.750974  9906 net.cpp:165] Memory required for data: 343973760
I0521 00:34:09.750984  9906 layer_factory.hpp:77] Creating layer conv2
I0521 00:34:09.751003  9906 net.cpp:106] Creating Layer conv2
I0521 00:34:09.751013  9906 net.cpp:454] conv2 <- pool1
I0521 00:34:09.751027  9906 net.cpp:411] conv2 -> conv2
I0521 00:34:09.752951  9906 net.cpp:150] Setting up conv2
I0521 00:34:09.752974  9906 net.cpp:157] Top shape: 480 20 54 46 (23846400)
I0521 00:34:09.752986  9906 net.cpp:165] Memory required for data: 439359360
I0521 00:34:09.753005  9906 layer_factory.hpp:77] Creating layer relu2
I0521 00:34:09.753017  9906 net.cpp:106] Creating Layer relu2
I0521 00:34:09.753027  9906 net.cpp:454] relu2 <- conv2
I0521 00:34:09.753039  9906 net.cpp:397] relu2 -> conv2 (in-place)
I0521 00:34:09.753373  9906 net.cpp:150] Setting up relu2
I0521 00:34:09.753387  9906 net.cpp:157] Top shape: 480 20 54 46 (23846400)
I0521 00:34:09.753397  9906 net.cpp:165] Memory required for data: 534744960
I0521 00:34:09.753407  9906 layer_factory.hpp:77] Creating layer pool2
I0521 00:34:09.753420  9906 net.cpp:106] Creating Layer pool2
I0521 00:34:09.753430  9906 net.cpp:454] pool2 <- conv2
I0521 00:34:09.753443  9906 net.cpp:411] pool2 -> pool2
I0521 00:34:09.753515  9906 net.cpp:150] Setting up pool2
I0521 00:34:09.753528  9906 net.cpp:157] Top shape: 480 20 27 46 (11923200)
I0521 00:34:09.753537  9906 net.cpp:165] Memory required for data: 582437760
I0521 00:34:09.753547  9906 layer_factory.hpp:77] Creating layer conv3
I0521 00:34:09.753564  9906 net.cpp:106] Creating Layer conv3
I0521 00:34:09.753576  9906 net.cpp:454] conv3 <- pool2
I0521 00:34:09.753589  9906 net.cpp:411] conv3 -> conv3
I0521 00:34:09.755558  9906 net.cpp:150] Setting up conv3
I0521 00:34:09.755580  9906 net.cpp:157] Top shape: 480 28 22 44 (13009920)
I0521 00:34:09.755592  9906 net.cpp:165] Memory required for data: 634477440
I0521 00:34:09.755625  9906 layer_factory.hpp:77] Creating layer relu3
I0521 00:34:09.755638  9906 net.cpp:106] Creating Layer relu3
I0521 00:34:09.755648  9906 net.cpp:454] relu3 <- conv3
I0521 00:34:09.755661  9906 net.cpp:397] relu3 -> conv3 (in-place)
I0521 00:34:09.756130  9906 net.cpp:150] Setting up relu3
I0521 00:34:09.756147  9906 net.cpp:157] Top shape: 480 28 22 44 (13009920)
I0521 00:34:09.756157  9906 net.cpp:165] Memory required for data: 686517120
I0521 00:34:09.756167  9906 layer_factory.hpp:77] Creating layer pool3
I0521 00:34:09.756181  9906 net.cpp:106] Creating Layer pool3
I0521 00:34:09.756191  9906 net.cpp:454] pool3 <- conv3
I0521 00:34:09.756203  9906 net.cpp:411] pool3 -> pool3
I0521 00:34:09.756275  9906 net.cpp:150] Setting up pool3
I0521 00:34:09.756289  9906 net.cpp:157] Top shape: 480 28 11 44 (6504960)
I0521 00:34:09.756299  9906 net.cpp:165] Memory required for data: 712536960
I0521 00:34:09.756307  9906 layer_factory.hpp:77] Creating layer conv4
I0521 00:34:09.756325  9906 net.cpp:106] Creating Layer conv4
I0521 00:34:09.756335  9906 net.cpp:454] conv4 <- pool3
I0521 00:34:09.756348  9906 net.cpp:411] conv4 -> conv4
I0521 00:34:09.758410  9906 net.cpp:150] Setting up conv4
I0521 00:34:09.758429  9906 net.cpp:157] Top shape: 480 36 6 42 (4354560)
I0521 00:34:09.758438  9906 net.cpp:165] Memory required for data: 729955200
I0521 00:34:09.758455  9906 layer_factory.hpp:77] Creating layer relu4
I0521 00:34:09.758467  9906 net.cpp:106] Creating Layer relu4
I0521 00:34:09.758477  9906 net.cpp:454] relu4 <- conv4
I0521 00:34:09.758491  9906 net.cpp:397] relu4 -> conv4 (in-place)
I0521 00:34:09.758967  9906 net.cpp:150] Setting up relu4
I0521 00:34:09.758983  9906 net.cpp:157] Top shape: 480 36 6 42 (4354560)
I0521 00:34:09.758993  9906 net.cpp:165] Memory required for data: 747373440
I0521 00:34:09.759003  9906 layer_factory.hpp:77] Creating layer pool4
I0521 00:34:09.759016  9906 net.cpp:106] Creating Layer pool4
I0521 00:34:09.759027  9906 net.cpp:454] pool4 <- conv4
I0521 00:34:09.759040  9906 net.cpp:411] pool4 -> pool4
I0521 00:34:09.759112  9906 net.cpp:150] Setting up pool4
I0521 00:34:09.759126  9906 net.cpp:157] Top shape: 480 36 3 42 (2177280)
I0521 00:34:09.759135  9906 net.cpp:165] Memory required for data: 756082560
I0521 00:34:09.759145  9906 layer_factory.hpp:77] Creating layer ip1
I0521 00:34:09.759160  9906 net.cpp:106] Creating Layer ip1
I0521 00:34:09.759171  9906 net.cpp:454] ip1 <- pool4
I0521 00:34:09.759183  9906 net.cpp:411] ip1 -> ip1
I0521 00:34:09.774657  9906 net.cpp:150] Setting up ip1
I0521 00:34:09.774682  9906 net.cpp:157] Top shape: 480 196 (94080)
I0521 00:34:09.774693  9906 net.cpp:165] Memory required for data: 756458880
I0521 00:34:09.774713  9906 layer_factory.hpp:77] Creating layer relu5
I0521 00:34:09.774729  9906 net.cpp:106] Creating Layer relu5
I0521 00:34:09.774739  9906 net.cpp:454] relu5 <- ip1
I0521 00:34:09.774754  9906 net.cpp:397] relu5 -> ip1 (in-place)
I0521 00:34:09.775099  9906 net.cpp:150] Setting up relu5
I0521 00:34:09.775112  9906 net.cpp:157] Top shape: 480 196 (94080)
I0521 00:34:09.775121  9906 net.cpp:165] Memory required for data: 756835200
I0521 00:34:09.775132  9906 layer_factory.hpp:77] Creating layer drop1
I0521 00:34:09.775151  9906 net.cpp:106] Creating Layer drop1
I0521 00:34:09.775161  9906 net.cpp:454] drop1 <- ip1
I0521 00:34:09.775174  9906 net.cpp:397] drop1 -> ip1 (in-place)
I0521 00:34:09.775218  9906 net.cpp:150] Setting up drop1
I0521 00:34:09.775230  9906 net.cpp:157] Top shape: 480 196 (94080)
I0521 00:34:09.775239  9906 net.cpp:165] Memory required for data: 757211520
I0521 00:34:09.775250  9906 layer_factory.hpp:77] Creating layer ip2
I0521 00:34:09.775265  9906 net.cpp:106] Creating Layer ip2
I0521 00:34:09.775275  9906 net.cpp:454] ip2 <- ip1
I0521 00:34:09.775288  9906 net.cpp:411] ip2 -> ip2
I0521 00:34:09.775768  9906 net.cpp:150] Setting up ip2
I0521 00:34:09.775782  9906 net.cpp:157] Top shape: 480 98 (47040)
I0521 00:34:09.775792  9906 net.cpp:165] Memory required for data: 757399680
I0521 00:34:09.775820  9906 layer_factory.hpp:77] Creating layer relu6
I0521 00:34:09.775833  9906 net.cpp:106] Creating Layer relu6
I0521 00:34:09.775845  9906 net.cpp:454] relu6 <- ip2
I0521 00:34:09.775857  9906 net.cpp:397] relu6 -> ip2 (in-place)
I0521 00:34:09.776389  9906 net.cpp:150] Setting up relu6
I0521 00:34:09.776407  9906 net.cpp:157] Top shape: 480 98 (47040)
I0521 00:34:09.776417  9906 net.cpp:165] Memory required for data: 757587840
I0521 00:34:09.776427  9906 layer_factory.hpp:77] Creating layer drop2
I0521 00:34:09.776440  9906 net.cpp:106] Creating Layer drop2
I0521 00:34:09.776450  9906 net.cpp:454] drop2 <- ip2
I0521 00:34:09.776463  9906 net.cpp:397] drop2 -> ip2 (in-place)
I0521 00:34:09.776507  9906 net.cpp:150] Setting up drop2
I0521 00:34:09.776528  9906 net.cpp:157] Top shape: 480 98 (47040)
I0521 00:34:09.776538  9906 net.cpp:165] Memory required for data: 757776000
I0521 00:34:09.776547  9906 layer_factory.hpp:77] Creating layer ip3
I0521 00:34:09.776562  9906 net.cpp:106] Creating Layer ip3
I0521 00:34:09.776572  9906 net.cpp:454] ip3 <- ip2
I0521 00:34:09.776587  9906 net.cpp:411] ip3 -> ip3
I0521 00:34:09.776809  9906 net.cpp:150] Setting up ip3
I0521 00:34:09.776823  9906 net.cpp:157] Top shape: 480 11 (5280)
I0521 00:34:09.776832  9906 net.cpp:165] Memory required for data: 757797120
I0521 00:34:09.776849  9906 layer_factory.hpp:77] Creating layer drop3
I0521 00:34:09.776861  9906 net.cpp:106] Creating Layer drop3
I0521 00:34:09.776871  9906 net.cpp:454] drop3 <- ip3
I0521 00:34:09.776885  9906 net.cpp:397] drop3 -> ip3 (in-place)
I0521 00:34:09.776926  9906 net.cpp:150] Setting up drop3
I0521 00:34:09.776938  9906 net.cpp:157] Top shape: 480 11 (5280)
I0521 00:34:09.776947  9906 net.cpp:165] Memory required for data: 757818240
I0521 00:34:09.776957  9906 layer_factory.hpp:77] Creating layer ip3_drop3_0_split
I0521 00:34:09.776970  9906 net.cpp:106] Creating Layer ip3_drop3_0_split
I0521 00:34:09.776980  9906 net.cpp:454] ip3_drop3_0_split <- ip3
I0521 00:34:09.776993  9906 net.cpp:411] ip3_drop3_0_split -> ip3_drop3_0_split_0
I0521 00:34:09.777009  9906 net.cpp:411] ip3_drop3_0_split -> ip3_drop3_0_split_1
I0521 00:34:09.777081  9906 net.cpp:150] Setting up ip3_drop3_0_split
I0521 00:34:09.777094  9906 net.cpp:157] Top shape: 480 11 (5280)
I0521 00:34:09.777107  9906 net.cpp:157] Top shape: 480 11 (5280)
I0521 00:34:09.777117  9906 net.cpp:165] Memory required for data: 757860480
I0521 00:34:09.777124  9906 layer_factory.hpp:77] Creating layer accuracy
I0521 00:34:09.777146  9906 net.cpp:106] Creating Layer accuracy
I0521 00:34:09.777158  9906 net.cpp:454] accuracy <- ip3_drop3_0_split_0
I0521 00:34:09.777168  9906 net.cpp:454] accuracy <- label_data_hdf5_1_split_0
I0521 00:34:09.777182  9906 net.cpp:411] accuracy -> accuracy
…
