…
I0521 04:07:36.131675 22438 net.cpp:322] The NetState phase (0) differed from the phase (1) specified by a rule in layer data_hdf5
I0521 04:07:36.131734 22438 net.cpp:322] The NetState phase (0) differed from the phase (1) specified by a rule in layer accuracy
I0521 04:07:36.132078 22438 net.cpp:49] Initializing net from parameters: 
name: "caffe_test_127x50_x_unshifted"
state {
  phase: TRAIN
}
layer {
  name: "data_hdf5"
  type: "HDF5Data"
  top: "data"
  top: "label"
  include {
    phase: TRAIN
  }
  hdf5_data_param {
    source: "/lustre/atlas/proj-shared/hep105/caffe_titan/minosmatch_nukecczdefs_127x50_x_unshifted_me1Bmc.trainlist"
    batch_size: 640
  }
}
layer {
  name: "conv1"
  type: "Convolution"
  bottom: "data"
  top: "conv1"
  convolution_param {
    num_output: 12
    pad: 0
    stride: 1
    weight_filler {
      type: "xavier"
    }
    bias_filler {
      type: "constant"
    }
    kernel_h: 8
    kernel_w: 3
  }
}
layer {
  name: "relu1"
  type: "ReLU"
  bottom: "conv1"
  top: "conv1"
}
layer {
  name: "pool1"
  type: "Pooling"
  bottom: "conv1"
  top: "pool1"
  pooling_param {
    pool: MAX
    kernel_h: 2
    kernel_w: 1
    stride_h: 2
    stride_w: 1
  }
}
layer {
  name: "conv2"
  type: "Convolution"
  bottom: "pool1"
  top: "conv2"
  convolution_param {
    num_output: 20
    pad: 0
    stride: 1
    weight_filler {
      type: "xavier"
    }
    bias_filler {
      type: "constant"
    }
    kernel_h: 7
    kernel_w: 3
  }
}
layer {
  name: "relu2"
  type: "ReLU"
  bottom: "conv2"
  top: "conv2"
}
layer {
  name: "pool2"
  type: "Pooling"
  bottom: "conv2"
  top: "pool2"
  pooling_param {
    pool: MAX
    kernel_h: 2
    kernel_w: 1
    stride_h: 2
    stride_w: 1
  }
}
layer {
  name: "conv3"
  type: "Convolution"
  bottom: "pool2"
  top: "conv3"
  convolution_param {
    num_output: 28
    pad: 0
    stride: 1
    weight_filler {
      type: "xavier"
    }
    bias_filler {
      type: "constant"
    }
    kernel_h: 6
    kernel_w: 3
  }
}
layer {
  name: "relu3"
  type: "ReLU"
  bottom: "conv3"
  top: "conv3"
}
layer {
  name: "pool3"
  type: "Pooling"
  bottom: "conv3"
  top: "pool3"
  pooling_param {
    pool: MAX
    kernel_h: 2
    kernel_w: 1
    stride_h: 2
    stride_w: 1
  }
}
layer {
  name: "conv4"
  type: "Convolution"
  bottom: "pool3"
  top: "conv4"
  convolution_param {
    num_output: 36
    pad: 0
    stride: 1
    weight_filler {
      type: "xavier"
    }
    bias_filler {
      type: "constant"
    }
    kernel_h: 6
    kernel_w: 3
  }
}
layer {
  name: "relu4"
  type: "ReLU"
  bottom: "conv4"
  top: "conv4"
}
layer {
  name: "pool4"
  type: "Pooling"
  bottom: "conv4"
  top: "pool4"
  pooling_param {
    pool: MAX
    kernel_h: 2
    kernel_w: 1
    stride_h: 2
    stride_w: 1
  }
}
layer {
  name: "ip1"
  type: "InnerProduct"
  bottom: "pool4"
  top: "ip1"
  inner_product_param {
    num_output: 196
    weight_filler {
      type: "xavier"
    }
    bias_filler {
      type: "constant"
    }
  }
}
layer {
  name: "relu5"
  type: "ReLU"
  bottom: "ip1"
  top: "ip1"
}
layer {
  name: "drop1"
  type: "Dropout"
  bottom: "ip1"
  top: "ip1"
  dropout_param {
    dropout_ratio: 0.5
  }
}
layer {
  name: "ip2"
  type: "InnerProduct"
  bottom: "ip1"
  top: "ip2"
  inner_product_param {
    num_output: 98
    weight_filler {
      type: "xavier"
    }
    bias_filler {
      type: "constant"
    }
  }
}
layer {
  name: "relu6"
  type: "ReLU"
  bottom: "ip2"
  top: "ip2"
}
layer {
  name: "drop2"
  type: "Dropout"
  bottom: "ip2"
  top: "ip2"
  dropout_param {
    dropout_ratio: 0.5
  }
}
layer {
  name: "ip3"
  type: "InnerProduct"
  bottom: "ip2"
  top: "ip3"
  inner_product_param {
    num_output: 11
    weight_filler {
      type: "xavier"
    }
    bias_filler {
      type: "constant"
    }
  }
}
layer {
  name: "drop3"
  type: "Dropout"
  bottom: "ip3"
  top: "ip3"
  dropout_param {
    dropout_ratio: 0.5
  }
}
layer {
  name: "loss"
  type: "SoftmaxWithLoss"
  bottom: "ip3"
  bottom: "label"
  top: "loss"
}
I0521 04:07:36.132268 22438 layer_factory.hpp:77] Creating layer data_hdf5
I0521 04:07:36.132292 22438 net.cpp:106] Creating Layer data_hdf5
I0521 04:07:36.132308 22438 net.cpp:411] data_hdf5 -> data
I0521 04:07:36.132341 22438 net.cpp:411] data_hdf5 -> label
I0521 04:07:36.132375 22438 hdf5_data_layer.cpp:79] Loading list of HDF5 filenames from: /lustre/atlas/proj-shared/hep105/caffe_titan/minosmatch_nukecczdefs_127x50_x_unshifted_me1Bmc.trainlist
I0521 04:07:36.134080 22438 hdf5_data_layer.cpp:93] Number of HDF5 files: 15
I0521 04:07:36.136260 22438 hdf5.cpp:32] Datatype class: H5T_FLOAT
I0521 04:07:57.638609 22438 hdf5.cpp:35] Datatype class: H5T_INTEGER
I0521 04:07:57.643791 22438 net.cpp:150] Setting up data_hdf5
I0521 04:07:57.643836 22438 net.cpp:157] Top shape: 640 1 127 50 (4064000)
I0521 04:07:57.643851 22438 net.cpp:157] Top shape: 640 (640)
I0521 04:07:57.643860 22438 net.cpp:165] Memory required for data: 16258560
I0521 04:07:57.643874 22438 layer_factory.hpp:77] Creating layer conv1
I0521 04:07:57.643909 22438 net.cpp:106] Creating Layer conv1
I0521 04:07:57.643920 22438 net.cpp:454] conv1 <- data
I0521 04:07:57.643942 22438 net.cpp:411] conv1 -> conv1
I0521 04:07:58.004894 22438 net.cpp:150] Setting up conv1
I0521 04:07:58.004937 22438 net.cpp:157] Top shape: 640 12 120 48 (44236800)
I0521 04:07:58.004948 22438 net.cpp:165] Memory required for data: 193205760
I0521 04:07:58.004979 22438 layer_factory.hpp:77] Creating layer relu1
I0521 04:07:58.005002 22438 net.cpp:106] Creating Layer relu1
I0521 04:07:58.005012 22438 net.cpp:454] relu1 <- conv1
I0521 04:07:58.005025 22438 net.cpp:397] relu1 -> conv1 (in-place)
I0521 04:07:58.005540 22438 net.cpp:150] Setting up relu1
I0521 04:07:58.005558 22438 net.cpp:157] Top shape: 640 12 120 48 (44236800)
I0521 04:07:58.005568 22438 net.cpp:165] Memory required for data: 370152960
I0521 04:07:58.005579 22438 layer_factory.hpp:77] Creating layer pool1
I0521 04:07:58.005596 22438 net.cpp:106] Creating Layer pool1
I0521 04:07:58.005606 22438 net.cpp:454] pool1 <- conv1
I0521 04:07:58.005620 22438 net.cpp:411] pool1 -> pool1
I0521 04:07:58.005699 22438 net.cpp:150] Setting up pool1
I0521 04:07:58.005713 22438 net.cpp:157] Top shape: 640 12 60 48 (22118400)
I0521 04:07:58.005723 22438 net.cpp:165] Memory required for data: 458626560
I0521 04:07:58.005733 22438 layer_factory.hpp:77] Creating layer conv2
I0521 04:07:58.005756 22438 net.cpp:106] Creating Layer conv2
I0521 04:07:58.005766 22438 net.cpp:454] conv2 <- pool1
I0521 04:07:58.005777 22438 net.cpp:411] conv2 -> conv2
I0521 04:07:58.008460 22438 net.cpp:150] Setting up conv2
I0521 04:07:58.008488 22438 net.cpp:157] Top shape: 640 20 54 46 (31795200)
I0521 04:07:58.008499 22438 net.cpp:165] Memory required for data: 585807360
I0521 04:07:58.008518 22438 layer_factory.hpp:77] Creating layer relu2
I0521 04:07:58.008533 22438 net.cpp:106] Creating Layer relu2
I0521 04:07:58.008543 22438 net.cpp:454] relu2 <- conv2
I0521 04:07:58.008556 22438 net.cpp:397] relu2 -> conv2 (in-place)
I0521 04:07:58.008888 22438 net.cpp:150] Setting up relu2
I0521 04:07:58.008903 22438 net.cpp:157] Top shape: 640 20 54 46 (31795200)
I0521 04:07:58.008913 22438 net.cpp:165] Memory required for data: 712988160
I0521 04:07:58.008922 22438 layer_factory.hpp:77] Creating layer pool2
I0521 04:07:58.008935 22438 net.cpp:106] Creating Layer pool2
I0521 04:07:58.008945 22438 net.cpp:454] pool2 <- conv2
I0521 04:07:58.008971 22438 net.cpp:411] pool2 -> pool2
I0521 04:07:58.009040 22438 net.cpp:150] Setting up pool2
I0521 04:07:58.009053 22438 net.cpp:157] Top shape: 640 20 27 46 (15897600)
I0521 04:07:58.009063 22438 net.cpp:165] Memory required for data: 776578560
I0521 04:07:58.009073 22438 layer_factory.hpp:77] Creating layer conv3
I0521 04:07:58.009091 22438 net.cpp:106] Creating Layer conv3
I0521 04:07:58.009104 22438 net.cpp:454] conv3 <- pool2
I0521 04:07:58.009116 22438 net.cpp:411] conv3 -> conv3
I0521 04:07:58.011032 22438 net.cpp:150] Setting up conv3
I0521 04:07:58.011056 22438 net.cpp:157] Top shape: 640 28 22 44 (17346560)
I0521 04:07:58.011068 22438 net.cpp:165] Memory required for data: 845964800
I0521 04:07:58.011086 22438 layer_factory.hpp:77] Creating layer relu3
I0521 04:07:58.011102 22438 net.cpp:106] Creating Layer relu3
I0521 04:07:58.011112 22438 net.cpp:454] relu3 <- conv3
I0521 04:07:58.011124 22438 net.cpp:397] relu3 -> conv3 (in-place)
I0521 04:07:58.011600 22438 net.cpp:150] Setting up relu3
I0521 04:07:58.011617 22438 net.cpp:157] Top shape: 640 28 22 44 (17346560)
I0521 04:07:58.011627 22438 net.cpp:165] Memory required for data: 915351040
I0521 04:07:58.011637 22438 layer_factory.hpp:77] Creating layer pool3
I0521 04:07:58.011651 22438 net.cpp:106] Creating Layer pool3
I0521 04:07:58.011661 22438 net.cpp:454] pool3 <- conv3
I0521 04:07:58.011672 22438 net.cpp:411] pool3 -> pool3
I0521 04:07:58.011740 22438 net.cpp:150] Setting up pool3
I0521 04:07:58.011754 22438 net.cpp:157] Top shape: 640 28 11 44 (8673280)
I0521 04:07:58.011764 22438 net.cpp:165] Memory required for data: 950044160
I0521 04:07:58.011771 22438 layer_factory.hpp:77] Creating layer conv4
I0521 04:07:58.011788 22438 net.cpp:106] Creating Layer conv4
I0521 04:07:58.011798 22438 net.cpp:454] conv4 <- pool3
I0521 04:07:58.011812 22438 net.cpp:411] conv4 -> conv4
I0521 04:07:58.014621 22438 net.cpp:150] Setting up conv4
I0521 04:07:58.014650 22438 net.cpp:157] Top shape: 640 36 6 42 (5806080)
I0521 04:07:58.014660 22438 net.cpp:165] Memory required for data: 973268480
I0521 04:07:58.014675 22438 layer_factory.hpp:77] Creating layer relu4
I0521 04:07:58.014690 22438 net.cpp:106] Creating Layer relu4
I0521 04:07:58.014700 22438 net.cpp:454] relu4 <- conv4
I0521 04:07:58.014714 22438 net.cpp:397] relu4 -> conv4 (in-place)
I0521 04:07:58.015192 22438 net.cpp:150] Setting up relu4
I0521 04:07:58.015208 22438 net.cpp:157] Top shape: 640 36 6 42 (5806080)
I0521 04:07:58.015218 22438 net.cpp:165] Memory required for data: 996492800
I0521 04:07:58.015228 22438 layer_factory.hpp:77] Creating layer pool4
I0521 04:07:58.015241 22438 net.cpp:106] Creating Layer pool4
I0521 04:07:58.015251 22438 net.cpp:454] pool4 <- conv4
I0521 04:07:58.015264 22438 net.cpp:411] pool4 -> pool4
I0521 04:07:58.015332 22438 net.cpp:150] Setting up pool4
I0521 04:07:58.015347 22438 net.cpp:157] Top shape: 640 36 3 42 (2903040)
I0521 04:07:58.015357 22438 net.cpp:165] Memory required for data: 1008104960
I0521 04:07:58.015367 22438 layer_factory.hpp:77] Creating layer ip1
I0521 04:07:58.015388 22438 net.cpp:106] Creating Layer ip1
I0521 04:07:58.015398 22438 net.cpp:454] ip1 <- pool4
I0521 04:07:58.015409 22438 net.cpp:411] ip1 -> ip1
I0521 04:07:58.030844 22438 net.cpp:150] Setting up ip1
I0521 04:07:58.030874 22438 net.cpp:157] Top shape: 640 196 (125440)
I0521 04:07:58.030886 22438 net.cpp:165] Memory required for data: 1008606720
I0521 04:07:58.030910 22438 layer_factory.hpp:77] Creating layer relu5
I0521 04:07:58.030925 22438 net.cpp:106] Creating Layer relu5
I0521 04:07:58.030935 22438 net.cpp:454] relu5 <- ip1
I0521 04:07:58.030947 22438 net.cpp:397] relu5 -> ip1 (in-place)
I0521 04:07:58.031292 22438 net.cpp:150] Setting up relu5
I0521 04:07:58.031307 22438 net.cpp:157] Top shape: 640 196 (125440)
I0521 04:07:58.031318 22438 net.cpp:165] Memory required for data: 1009108480
I0521 04:07:58.031328 22438 layer_factory.hpp:77] Creating layer drop1
I0521 04:07:58.031350 22438 net.cpp:106] Creating Layer drop1
I0521 04:07:58.031360 22438 net.cpp:454] drop1 <- ip1
I0521 04:07:58.031386 22438 net.cpp:397] drop1 -> ip1 (in-place)
I0521 04:07:58.031432 22438 net.cpp:150] Setting up drop1
I0521 04:07:58.031445 22438 net.cpp:157] Top shape: 640 196 (125440)
I0521 04:07:58.031455 22438 net.cpp:165] Memory required for data: 1009610240
I0521 04:07:58.031466 22438 layer_factory.hpp:77] Creating layer ip2
I0521 04:07:58.031486 22438 net.cpp:106] Creating Layer ip2
I0521 04:07:58.031496 22438 net.cpp:454] ip2 <- ip1
I0521 04:07:58.031508 22438 net.cpp:411] ip2 -> ip2
I0521 04:07:58.031965 22438 net.cpp:150] Setting up ip2
I0521 04:07:58.031978 22438 net.cpp:157] Top shape: 640 98 (62720)
I0521 04:07:58.031990 22438 net.cpp:165] Memory required for data: 1009861120
I0521 04:07:58.032004 22438 layer_factory.hpp:77] Creating layer relu6
I0521 04:07:58.032016 22438 net.cpp:106] Creating Layer relu6
I0521 04:07:58.032027 22438 net.cpp:454] relu6 <- ip2
I0521 04:07:58.032038 22438 net.cpp:397] relu6 -> ip2 (in-place)
I0521 04:07:58.032568 22438 net.cpp:150] Setting up relu6
I0521 04:07:58.032584 22438 net.cpp:157] Top shape: 640 98 (62720)
I0521 04:07:58.032595 22438 net.cpp:165] Memory required for data: 1010112000
I0521 04:07:58.032605 22438 layer_factory.hpp:77] Creating layer drop2
I0521 04:07:58.032618 22438 net.cpp:106] Creating Layer drop2
I0521 04:07:58.032629 22438 net.cpp:454] drop2 <- ip2
I0521 04:07:58.032641 22438 net.cpp:397] drop2 -> ip2 (in-place)
I0521 04:07:58.032683 22438 net.cpp:150] Setting up drop2
I0521 04:07:58.032696 22438 net.cpp:157] Top shape: 640 98 (62720)
I0521 04:07:58.032706 22438 net.cpp:165] Memory required for data: 1010362880
I0521 04:07:58.032716 22438 layer_factory.hpp:77] Creating layer ip3
I0521 04:07:58.032729 22438 net.cpp:106] Creating Layer ip3
I0521 04:07:58.032739 22438 net.cpp:454] ip3 <- ip2
I0521 04:07:58.032752 22438 net.cpp:411] ip3 -> ip3
I0521 04:07:58.032955 22438 net.cpp:150] Setting up ip3
I0521 04:07:58.032968 22438 net.cpp:157] Top shape: 640 11 (7040)
I0521 04:07:58.032979 22438 net.cpp:165] Memory required for data: 1010391040
I0521 04:07:58.032994 22438 layer_factory.hpp:77] Creating layer drop3
I0521 04:07:58.033007 22438 net.cpp:106] Creating Layer drop3
I0521 04:07:58.033016 22438 net.cpp:454] drop3 <- ip3
I0521 04:07:58.033028 22438 net.cpp:397] drop3 -> ip3 (in-place)
I0521 04:07:58.033067 22438 net.cpp:150] Setting up drop3
I0521 04:07:58.033080 22438 net.cpp:157] Top shape: 640 11 (7040)
I0521 04:07:58.033090 22438 net.cpp:165] Memory required for data: 1010419200
I0521 04:07:58.033100 22438 layer_factory.hpp:77] Creating layer loss
I0521 04:07:58.033120 22438 net.cpp:106] Creating Layer loss
I0521 04:07:58.033130 22438 net.cpp:454] loss <- ip3
I0521 04:07:58.033141 22438 net.cpp:454] loss <- label
I0521 04:07:58.033154 22438 net.cpp:411] loss -> loss
I0521 04:07:58.033170 22438 layer_factory.hpp:77] Creating layer loss
…
I0521 04:07:58.035728 22438 solver.cpp:181] Creating test net (#0) specified by net file: /lustre/atlas/proj-shared/hep105/caffe_titan/caffe_workflow/logs_batch_size_test/batch_size_640_2016-05-20T11.20.55.887784.prototxt
I0521 04:07:58.035799 22438 net.cpp:322] The NetState phase (1) differed from the phase (0) specified by a rule in layer data_hdf5
I0521 04:07:58.036156 22438 net.cpp:49] Initializing net from parameters: 
name: "caffe_test_127x50_x_unshifted"
state {
  phase: TEST
}
layer {
  name: "data_hdf5"
  type: "HDF5Data"
  top: "data"
  top: "label"
  include {
    phase: TEST
  }
  hdf5_data_param {
    source: "/lustre/atlas/proj-shared/hep105/caffe_titan/minosmatch_nukecczdefs_127x50_x_unshifted_me1Bmc.testlist"
    batch_size: 640
  }
}
layer {
  name: "conv1"
  type: "Convolution"
  bottom: "data"
  top: "conv1"
  convolution_param {
    num_output: 12
    pad: 0
    stride: 1
    weight_filler {
      type: "xavier"
    }
    bias_filler {
      type: "constant"
    }
    kernel_h: 8
    kernel_w: 3
  }
}
layer {
  name: "relu1"
  type: "ReLU"
  bottom: "conv1"
  top: "conv1"
}
layer {
  name: "pool1"
  type: "Pooling"
  bottom: "conv1"
  top: "pool1"
  pooling_param {
    pool: MAX
    kernel_h: 2
    kernel_w: 1
    stride_h: 2
    stride_w: 1
  }
}
layer {
  name: "conv2"
  type: "Convolution"
  bottom: "pool1"
  top: "conv2"
  convolution_param {
    num_output: 20
    pad: 0
    stride: 1
    weight_filler {
      type: "xavier"
    }
    bias_filler {
      type: "constant"
    }
    kernel_h: 7
    kernel_w: 3
  }
}
layer {
  name: "relu2"
  type: "ReLU"
  bottom: "conv2"
  top: "conv2"
}
layer {
  name: "pool2"
  type: "Pooling"
  bottom: "conv2"
  top: "pool2"
  pooling_param {
    pool: MAX
    kernel_h: 2
    kernel_w: 1
    stride_h: 2
    stride_w: 1
  }
}
layer {
  name: "conv3"
  type: "Convolution"
  bottom: "pool2"
  top: "conv3"
  convolution_param {
    num_output: 28
    pad: 0
    stride: 1
    weight_filler {
      type: "xavier"
    }
    bias_filler {
      type: "constant"
    }
    kernel_h: 6
    kernel_w: 3
  }
}
layer {
  name: "relu3"
  type: "ReLU"
  bottom: "conv3"
  top: "conv3"
}
layer {
  name: "pool3"
  type: "Pooling"
  bottom: "conv3"
  top: "pool3"
  pooling_param {
    pool: MAX
    kernel_h: 2
    kernel_w: 1
    stride_h: 2
    stride_w: 1
  }
}
layer {
  name: "conv4"
  type: "Convolution"
  bottom: "pool3"
  top: "conv4"
  convolution_param {
    num_output: 36
    pad: 0
    stride: 1
    weight_filler {
      type: "xavier"
    }
    bias_filler {
      type: "constant"
    }
    kernel_h: 6
    kernel_w: 3
  }
}
layer {
  name: "relu4"
  type: "ReLU"
  bottom: "conv4"
  top: "conv4"
}
layer {
  name: "pool4"
  type: "Pooling"
  bottom: "conv4"
  top: "pool4"
  pooling_param {
    pool: MAX
    kernel_h: 2
    kernel_w: 1
    stride_h: 2
    stride_w: 1
  }
}
layer {
  name: "ip1"
  type: "InnerProduct"
  bottom: "pool4"
  top: "ip1"
  inner_product_param {
    num_output: 196
    weight_filler {
      type: "xavier"
    }
    bias_filler {
      type: "constant"
    }
  }
}
layer {
  name: "relu5"
  type: "ReLU"
  bottom: "ip1"
  top: "ip1"
}
layer {
  name: "drop1"
  type: "Dropout"
  bottom: "ip1"
  top: "ip1"
  dropout_param {
    dropout_ratio: 0.5
  }
}
layer {
  name: "ip2"
  type: "InnerProduct"
  bottom: "ip1"
  top: "ip2"
  inner_product_param {
    num_output: 98
    weight_filler {
      type: "xavier"
    }
    bias_filler {
      type: "constant"
    }
  }
}
layer {
  name: "relu6"
  type: "ReLU"
  bottom: "ip2"
  top: "ip2"
}
layer {
  name: "drop2"
  type: "Dropout"
  bottom: "ip2"
  top: "ip2"
  dropout_param {
    dropout_ratio: 0.5
  }
}
layer {
  name: "ip3"
  type: "InnerProduct"
  bottom: "ip2"
  top: "ip3"
  inner_product_param {
    num_output: 11
    weight_filler {
      type: "xavier"
    }
    bias_filler {
      type: "constant"
    }
  }
}
layer {
  name: "drop3"
  type: "Dropout"
  bottom: "ip3"
  top: "ip3"
  dropout_param {
    dropout_ratio: 0.5
  }
}
layer {
  name: "accuracy"
  type: "Accuracy"
  bottom: "ip3"
  bottom: "label"
  top: "accuracy"
  include {
    phase: TEST
  }
}
layer {
  name: "loss"
  type: "SoftmaxWithLoss"
  bottom: "ip3"
  bottom: "label"
  top: "loss"
}
I0521 04:07:58.036346 22438 layer_factory.hpp:77] Creating layer data_hdf5
I0521 04:07:58.036362 22438 net.cpp:106] Creating Layer data_hdf5
I0521 04:07:58.036375 22438 net.cpp:411] data_hdf5 -> data
I0521 04:07:58.036391 22438 net.cpp:411] data_hdf5 -> label
I0521 04:07:58.036407 22438 hdf5_data_layer.cpp:79] Loading list of HDF5 filenames from: /lustre/atlas/proj-shared/hep105/caffe_titan/minosmatch_nukecczdefs_127x50_x_unshifted_me1Bmc.testlist
I0521 04:07:58.037588 22438 hdf5_data_layer.cpp:93] Number of HDF5 files: 3
I0521 04:08:19.356820 22438 net.cpp:150] Setting up data_hdf5
I0521 04:08:19.356983 22438 net.cpp:157] Top shape: 640 1 127 50 (4064000)
I0521 04:08:19.356997 22438 net.cpp:157] Top shape: 640 (640)
I0521 04:08:19.357010 22438 net.cpp:165] Memory required for data: 16258560
I0521 04:08:19.357024 22438 layer_factory.hpp:77] Creating layer label_data_hdf5_1_split
I0521 04:08:19.357053 22438 net.cpp:106] Creating Layer label_data_hdf5_1_split
I0521 04:08:19.357064 22438 net.cpp:454] label_data_hdf5_1_split <- label
I0521 04:08:19.357077 22438 net.cpp:411] label_data_hdf5_1_split -> label_data_hdf5_1_split_0
I0521 04:08:19.357100 22438 net.cpp:411] label_data_hdf5_1_split -> label_data_hdf5_1_split_1
I0521 04:08:19.357173 22438 net.cpp:150] Setting up label_data_hdf5_1_split
I0521 04:08:19.357187 22438 net.cpp:157] Top shape: 640 (640)
I0521 04:08:19.357198 22438 net.cpp:157] Top shape: 640 (640)
I0521 04:08:19.357208 22438 net.cpp:165] Memory required for data: 16263680
I0521 04:08:19.357218 22438 layer_factory.hpp:77] Creating layer conv1
I0521 04:08:19.357240 22438 net.cpp:106] Creating Layer conv1
I0521 04:08:19.357251 22438 net.cpp:454] conv1 <- data
I0521 04:08:19.357265 22438 net.cpp:411] conv1 -> conv1
I0521 04:08:19.359175 22438 net.cpp:150] Setting up conv1
I0521 04:08:19.359200 22438 net.cpp:157] Top shape: 640 12 120 48 (44236800)
I0521 04:08:19.359211 22438 net.cpp:165] Memory required for data: 193210880
I0521 04:08:19.359232 22438 layer_factory.hpp:77] Creating layer relu1
I0521 04:08:19.359246 22438 net.cpp:106] Creating Layer relu1
I0521 04:08:19.359256 22438 net.cpp:454] relu1 <- conv1
I0521 04:08:19.359269 22438 net.cpp:397] relu1 -> conv1 (in-place)
I0521 04:08:19.359766 22438 net.cpp:150] Setting up relu1
I0521 04:08:19.359781 22438 net.cpp:157] Top shape: 640 12 120 48 (44236800)
I0521 04:08:19.359792 22438 net.cpp:165] Memory required for data: 370158080
I0521 04:08:19.359802 22438 layer_factory.hpp:77] Creating layer pool1
I0521 04:08:19.359819 22438 net.cpp:106] Creating Layer pool1
I0521 04:08:19.359828 22438 net.cpp:454] pool1 <- conv1
I0521 04:08:19.359841 22438 net.cpp:411] pool1 -> pool1
I0521 04:08:19.359916 22438 net.cpp:150] Setting up pool1
I0521 04:08:19.359930 22438 net.cpp:157] Top shape: 640 12 60 48 (22118400)
I0521 04:08:19.359938 22438 net.cpp:165] Memory required for data: 458631680
I0521 04:08:19.359949 22438 layer_factory.hpp:77] Creating layer conv2
I0521 04:08:19.359967 22438 net.cpp:106] Creating Layer conv2
I0521 04:08:19.359977 22438 net.cpp:454] conv2 <- pool1
I0521 04:08:19.359992 22438 net.cpp:411] conv2 -> conv2
I0521 04:08:19.361922 22438 net.cpp:150] Setting up conv2
I0521 04:08:19.361944 22438 net.cpp:157] Top shape: 640 20 54 46 (31795200)
I0521 04:08:19.361954 22438 net.cpp:165] Memory required for data: 585812480
I0521 04:08:19.361974 22438 layer_factory.hpp:77] Creating layer relu2
I0521 04:08:19.361986 22438 net.cpp:106] Creating Layer relu2
I0521 04:08:19.361996 22438 net.cpp:454] relu2 <- conv2
I0521 04:08:19.362009 22438 net.cpp:397] relu2 -> conv2 (in-place)
I0521 04:08:19.362342 22438 net.cpp:150] Setting up relu2
I0521 04:08:19.362356 22438 net.cpp:157] Top shape: 640 20 54 46 (31795200)
I0521 04:08:19.362367 22438 net.cpp:165] Memory required for data: 712993280
I0521 04:08:19.362377 22438 layer_factory.hpp:77] Creating layer pool2
I0521 04:08:19.362390 22438 net.cpp:106] Creating Layer pool2
I0521 04:08:19.362401 22438 net.cpp:454] pool2 <- conv2
I0521 04:08:19.362413 22438 net.cpp:411] pool2 -> pool2
I0521 04:08:19.362484 22438 net.cpp:150] Setting up pool2
I0521 04:08:19.362498 22438 net.cpp:157] Top shape: 640 20 27 46 (15897600)
I0521 04:08:19.362506 22438 net.cpp:165] Memory required for data: 776583680
I0521 04:08:19.362516 22438 layer_factory.hpp:77] Creating layer conv3
I0521 04:08:19.362534 22438 net.cpp:106] Creating Layer conv3
I0521 04:08:19.362545 22438 net.cpp:454] conv3 <- pool2
I0521 04:08:19.362558 22438 net.cpp:411] conv3 -> conv3
I0521 04:08:19.364533 22438 net.cpp:150] Setting up conv3
I0521 04:08:19.364557 22438 net.cpp:157] Top shape: 640 28 22 44 (17346560)
I0521 04:08:19.364568 22438 net.cpp:165] Memory required for data: 845969920
I0521 04:08:19.364601 22438 layer_factory.hpp:77] Creating layer relu3
I0521 04:08:19.364615 22438 net.cpp:106] Creating Layer relu3
I0521 04:08:19.364625 22438 net.cpp:454] relu3 <- conv3
I0521 04:08:19.364639 22438 net.cpp:397] relu3 -> conv3 (in-place)
I0521 04:08:19.365113 22438 net.cpp:150] Setting up relu3
I0521 04:08:19.365129 22438 net.cpp:157] Top shape: 640 28 22 44 (17346560)
I0521 04:08:19.365139 22438 net.cpp:165] Memory required for data: 915356160
I0521 04:08:19.365150 22438 layer_factory.hpp:77] Creating layer pool3
I0521 04:08:19.365164 22438 net.cpp:106] Creating Layer pool3
I0521 04:08:19.365173 22438 net.cpp:454] pool3 <- conv3
I0521 04:08:19.365186 22438 net.cpp:411] pool3 -> pool3
I0521 04:08:19.365257 22438 net.cpp:150] Setting up pool3
I0521 04:08:19.365270 22438 net.cpp:157] Top shape: 640 28 11 44 (8673280)
I0521 04:08:19.365280 22438 net.cpp:165] Memory required for data: 950049280
I0521 04:08:19.365290 22438 layer_factory.hpp:77] Creating layer conv4
I0521 04:08:19.365308 22438 net.cpp:106] Creating Layer conv4
I0521 04:08:19.365317 22438 net.cpp:454] conv4 <- pool3
I0521 04:08:19.365331 22438 net.cpp:411] conv4 -> conv4
I0521 04:08:19.367374 22438 net.cpp:150] Setting up conv4
I0521 04:08:19.367398 22438 net.cpp:157] Top shape: 640 36 6 42 (5806080)
I0521 04:08:19.367409 22438 net.cpp:165] Memory required for data: 973273600
I0521 04:08:19.367424 22438 layer_factory.hpp:77] Creating layer relu4
I0521 04:08:19.367439 22438 net.cpp:106] Creating Layer relu4
I0521 04:08:19.367447 22438 net.cpp:454] relu4 <- conv4
I0521 04:08:19.367460 22438 net.cpp:397] relu4 -> conv4 (in-place)
I0521 04:08:19.367931 22438 net.cpp:150] Setting up relu4
I0521 04:08:19.367947 22438 net.cpp:157] Top shape: 640 36 6 42 (5806080)
I0521 04:08:19.367957 22438 net.cpp:165] Memory required for data: 996497920
I0521 04:08:19.367967 22438 layer_factory.hpp:77] Creating layer pool4
I0521 04:08:19.367980 22438 net.cpp:106] Creating Layer pool4
I0521 04:08:19.367990 22438 net.cpp:454] pool4 <- conv4
I0521 04:08:19.368003 22438 net.cpp:411] pool4 -> pool4
I0521 04:08:19.368074 22438 net.cpp:150] Setting up pool4
I0521 04:08:19.368088 22438 net.cpp:157] Top shape: 640 36 3 42 (2903040)
I0521 04:08:19.368098 22438 net.cpp:165] Memory required for data: 1008110080
I0521 04:08:19.368108 22438 layer_factory.hpp:77] Creating layer ip1
I0521 04:08:19.368124 22438 net.cpp:106] Creating Layer ip1
I0521 04:08:19.368134 22438 net.cpp:454] ip1 <- pool4
I0521 04:08:19.368155 22438 net.cpp:411] ip1 -> ip1
I0521 04:08:19.383625 22438 net.cpp:150] Setting up ip1
I0521 04:08:19.383652 22438 net.cpp:157] Top shape: 640 196 (125440)
I0521 04:08:19.383663 22438 net.cpp:165] Memory required for data: 1008611840
I0521 04:08:19.383687 22438 layer_factory.hpp:77] Creating layer relu5
I0521 04:08:19.383702 22438 net.cpp:106] Creating Layer relu5
I0521 04:08:19.383713 22438 net.cpp:454] relu5 <- ip1
I0521 04:08:19.383725 22438 net.cpp:397] relu5 -> ip1 (in-place)
I0521 04:08:19.384073 22438 net.cpp:150] Setting up relu5
I0521 04:08:19.384088 22438 net.cpp:157] Top shape: 640 196 (125440)
I0521 04:08:19.384099 22438 net.cpp:165] Memory required for data: 1009113600
I0521 04:08:19.384109 22438 layer_factory.hpp:77] Creating layer drop1
I0521 04:08:19.384126 22438 net.cpp:106] Creating Layer drop1
I0521 04:08:19.384136 22438 net.cpp:454] drop1 <- ip1
I0521 04:08:19.384156 22438 net.cpp:397] drop1 -> ip1 (in-place)
I0521 04:08:19.384201 22438 net.cpp:150] Setting up drop1
I0521 04:08:19.384212 22438 net.cpp:157] Top shape: 640 196 (125440)
I0521 04:08:19.384222 22438 net.cpp:165] Memory required for data: 1009615360
I0521 04:08:19.384233 22438 layer_factory.hpp:77] Creating layer ip2
I0521 04:08:19.384248 22438 net.cpp:106] Creating Layer ip2
I0521 04:08:19.384258 22438 net.cpp:454] ip2 <- ip1
I0521 04:08:19.384270 22438 net.cpp:411] ip2 -> ip2
I0521 04:08:19.384742 22438 net.cpp:150] Setting up ip2
I0521 04:08:19.384754 22438 net.cpp:157] Top shape: 640 98 (62720)
I0521 04:08:19.384764 22438 net.cpp:165] Memory required for data: 1009866240
I0521 04:08:19.384791 22438 layer_factory.hpp:77] Creating layer relu6
I0521 04:08:19.384804 22438 net.cpp:106] Creating Layer relu6
I0521 04:08:19.384814 22438 net.cpp:454] relu6 <- ip2
I0521 04:08:19.384826 22438 net.cpp:397] relu6 -> ip2 (in-place)
I0521 04:08:19.385362 22438 net.cpp:150] Setting up relu6
I0521 04:08:19.385383 22438 net.cpp:157] Top shape: 640 98 (62720)
I0521 04:08:19.385393 22438 net.cpp:165] Memory required for data: 1010117120
I0521 04:08:19.385403 22438 layer_factory.hpp:77] Creating layer drop2
I0521 04:08:19.385417 22438 net.cpp:106] Creating Layer drop2
I0521 04:08:19.385427 22438 net.cpp:454] drop2 <- ip2
I0521 04:08:19.385440 22438 net.cpp:397] drop2 -> ip2 (in-place)
I0521 04:08:19.385483 22438 net.cpp:150] Setting up drop2
I0521 04:08:19.385496 22438 net.cpp:157] Top shape: 640 98 (62720)
I0521 04:08:19.385507 22438 net.cpp:165] Memory required for data: 1010368000
I0521 04:08:19.385516 22438 layer_factory.hpp:77] Creating layer ip3
I0521 04:08:19.385530 22438 net.cpp:106] Creating Layer ip3
I0521 04:08:19.385540 22438 net.cpp:454] ip3 <- ip2
I0521 04:08:19.385553 22438 net.cpp:411] ip3 -> ip3
I0521 04:08:19.385767 22438 net.cpp:150] Setting up ip3
I0521 04:08:19.385781 22438 net.cpp:157] Top shape: 640 11 (7040)
I0521 04:08:19.385790 22438 net.cpp:165] Memory required for data: 1010396160
I0521 04:08:19.385805 22438 layer_factory.hpp:77] Creating layer drop3
I0521 04:08:19.385818 22438 net.cpp:106] Creating Layer drop3
I0521 04:08:19.385828 22438 net.cpp:454] drop3 <- ip3
I0521 04:08:19.385841 22438 net.cpp:397] drop3 -> ip3 (in-place)
I0521 04:08:19.385882 22438 net.cpp:150] Setting up drop3
I0521 04:08:19.385895 22438 net.cpp:157] Top shape: 640 11 (7040)
I0521 04:08:19.385905 22438 net.cpp:165] Memory required for data: 1010424320
I0521 04:08:19.385915 22438 layer_factory.hpp:77] Creating layer ip3_drop3_0_split
I0521 04:08:19.385927 22438 net.cpp:106] Creating Layer ip3_drop3_0_split
I0521 04:08:19.385937 22438 net.cpp:454] ip3_drop3_0_split <- ip3
I0521 04:08:19.385951 22438 net.cpp:411] ip3_drop3_0_split -> ip3_drop3_0_split_0
I0521 04:08:19.385965 22438 net.cpp:411] ip3_drop3_0_split -> ip3_drop3_0_split_1
I0521 04:08:19.386039 22438 net.cpp:150] Setting up ip3_drop3_0_split
I0521 04:08:19.386051 22438 net.cpp:157] Top shape: 640 11 (7040)
I0521 04:08:19.386064 22438 net.cpp:157] Top shape: 640 11 (7040)
I0521 04:08:19.386073 22438 net.cpp:165] Memory required for data: 1010480640
I0521 04:08:19.386081 22438 layer_factory.hpp:77] Creating layer accuracy
I0521 04:08:19.386104 22438 net.cpp:106] Creating Layer accuracy
I0521 04:08:19.386114 22438 net.cpp:454] accuracy <- ip3_drop3_0_split_0
I0521 04:08:19.386126 22438 net.cpp:454] accuracy <- label_data_hdf5_1_split_0
I0521 04:08:19.386139 22438 net.cpp:411] accuracy -> accuracy
…
