…
I0521 08:17:36.718384 17781 net.cpp:322] The NetState phase (0) differed from the phase (1) specified by a rule in layer data_hdf5
I0521 08:17:36.718443 17781 net.cpp:322] The NetState phase (0) differed from the phase (1) specified by a rule in layer accuracy
I0521 08:17:36.718788 17781 net.cpp:49] Initializing net from parameters: 
name: "caffe_test_127x50_x_unshifted"
state {
  phase: TRAIN
}
layer {
  name: "data_hdf5"
  type: "HDF5Data"
  top: "data"
  top: "label"
  include {
    phase: TRAIN
  }
  hdf5_data_param {
    source: "/lustre/atlas/proj-shared/hep105/caffe_titan/minosmatch_nukecczdefs_127x50_x_unshifted_me1Bmc.trainlist"
    batch_size: 850
  }
}
layer {
  name: "conv1"
  type: "Convolution"
  bottom: "data"
  top: "conv1"
  convolution_param {
    num_output: 12
    pad: 0
    stride: 1
    weight_filler {
      type: "xavier"
    }
    bias_filler {
      type: "constant"
    }
    kernel_h: 8
    kernel_w: 3
  }
}
layer {
  name: "relu1"
  type: "ReLU"
  bottom: "conv1"
  top: "conv1"
}
layer {
  name: "pool1"
  type: "Pooling"
  bottom: "conv1"
  top: "pool1"
  pooling_param {
    pool: MAX
    kernel_h: 2
    kernel_w: 1
    stride_h: 2
    stride_w: 1
  }
}
layer {
  name: "conv2"
  type: "Convolution"
  bottom: "pool1"
  top: "conv2"
  convolution_param {
    num_output: 20
    pad: 0
    stride: 1
    weight_filler {
      type: "xavier"
    }
    bias_filler {
      type: "constant"
    }
    kernel_h: 7
    kernel_w: 3
  }
}
layer {
  name: "relu2"
  type: "ReLU"
  bottom: "conv2"
  top: "conv2"
}
layer {
  name: "pool2"
  type: "Pooling"
  bottom: "conv2"
  top: "pool2"
  pooling_param {
    pool: MAX
    kernel_h: 2
    kernel_w: 1
    stride_h: 2
    stride_w: 1
  }
}
layer {
  name: "conv3"
  type: "Convolution"
  bottom: "pool2"
  top: "conv3"
  convolution_param {
    num_output: 28
    pad: 0
    stride: 1
    weight_filler {
      type: "xavier"
    }
    bias_filler {
      type: "constant"
    }
    kernel_h: 6
    kernel_w: 3
  }
}
layer {
  name: "relu3"
  type: "ReLU"
  bottom: "conv3"
  top: "conv3"
}
layer {
  name: "pool3"
  type: "Pooling"
  bottom: "conv3"
  top: "pool3"
  pooling_param {
    pool: MAX
    kernel_h: 2
    kernel_w: 1
    stride_h: 2
    stride_w: 1
  }
}
layer {
  name: "conv4"
  type: "Convolution"
  bottom: "pool3"
  top: "conv4"
  convolution_param {
    num_output: 36
    pad: 0
    stride: 1
    weight_filler {
      type: "xavier"
    }
    bias_filler {
      type: "constant"
    }
    kernel_h: 6
    kernel_w: 3
  }
}
layer {
  name: "relu4"
  type: "ReLU"
  bottom: "conv4"
  top: "conv4"
}
layer {
  name: "pool4"
  type: "Pooling"
  bottom: "conv4"
  top: "pool4"
  pooling_param {
    pool: MAX
    kernel_h: 2
    kernel_w: 1
    stride_h: 2
    stride_w: 1
  }
}
layer {
  name: "ip1"
  type: "InnerProduct"
  bottom: "pool4"
  top: "ip1"
  inner_product_param {
    num_output: 196
    weight_filler {
      type: "xavier"
    }
    bias_filler {
      type: "constant"
    }
  }
}
layer {
  name: "relu5"
  type: "ReLU"
  bottom: "ip1"
  top: "ip1"
}
layer {
  name: "drop1"
  type: "Dropout"
  bottom: "ip1"
  top: "ip1"
  dropout_param {
    dropout_ratio: 0.5
  }
}
layer {
  name: "ip2"
  type: "InnerProduct"
  bottom: "ip1"
  top: "ip2"
  inner_product_param {
    num_output: 98
    weight_filler {
      type: "xavier"
    }
    bias_filler {
      type: "constant"
    }
  }
}
layer {
  name: "relu6"
  type: "ReLU"
  bottom: "ip2"
  top: "ip2"
}
layer {
  name: "drop2"
  type: "Dropout"
  bottom: "ip2"
  top: "ip2"
  dropout_param {
    dropout_ratio: 0.5
  }
}
layer {
  name: "ip3"
  type: "InnerProduct"
  bottom: "ip2"
  top: "ip3"
  inner_product_param {
    num_output: 11
    weight_filler {
      type: "xavier"
    }
    bias_filler {
      type: "constant"
    }
  }
}
layer {
  name: "drop3"
  type: "Dropout"
  bottom: "ip3"
  top: "ip3"
  dropout_param {
    dropout_ratio: 0.5
  }
}
layer {
  name: "loss"
  type: "SoftmaxWithLoss"
  bottom: "ip3"
  bottom: "label"
  top: "loss"
}
I0521 08:17:36.718971 17781 layer_factory.hpp:77] Creating layer data_hdf5
I0521 08:17:36.718994 17781 net.cpp:106] Creating Layer data_hdf5
I0521 08:17:36.719009 17781 net.cpp:411] data_hdf5 -> data
I0521 08:17:36.719043 17781 net.cpp:411] data_hdf5 -> label
I0521 08:17:36.719079 17781 hdf5_data_layer.cpp:79] Loading list of HDF5 filenames from: /lustre/atlas/proj-shared/hep105/caffe_titan/minosmatch_nukecczdefs_127x50_x_unshifted_me1Bmc.trainlist
I0521 08:17:36.720274 17781 hdf5_data_layer.cpp:93] Number of HDF5 files: 15
I0521 08:17:36.722477 17781 hdf5.cpp:32] Datatype class: H5T_FLOAT
I0521 08:17:58.213510 17781 hdf5.cpp:35] Datatype class: H5T_INTEGER
I0521 08:17:58.218647 17781 net.cpp:150] Setting up data_hdf5
I0521 08:17:58.218688 17781 net.cpp:157] Top shape: 850 1 127 50 (5397500)
I0521 08:17:58.218703 17781 net.cpp:157] Top shape: 850 (850)
I0521 08:17:58.218716 17781 net.cpp:165] Memory required for data: 21593400
I0521 08:17:58.218730 17781 layer_factory.hpp:77] Creating layer conv1
I0521 08:17:58.218763 17781 net.cpp:106] Creating Layer conv1
I0521 08:17:58.218775 17781 net.cpp:454] conv1 <- data
I0521 08:17:58.218797 17781 net.cpp:411] conv1 -> conv1
I0521 08:17:58.578091 17781 net.cpp:150] Setting up conv1
I0521 08:17:58.578133 17781 net.cpp:157] Top shape: 850 12 120 48 (58752000)
I0521 08:17:58.578150 17781 net.cpp:165] Memory required for data: 256601400
I0521 08:17:58.578181 17781 layer_factory.hpp:77] Creating layer relu1
I0521 08:17:58.578202 17781 net.cpp:106] Creating Layer relu1
I0521 08:17:58.578213 17781 net.cpp:454] relu1 <- conv1
I0521 08:17:58.578227 17781 net.cpp:397] relu1 -> conv1 (in-place)
I0521 08:17:58.578742 17781 net.cpp:150] Setting up relu1
I0521 08:17:58.578758 17781 net.cpp:157] Top shape: 850 12 120 48 (58752000)
I0521 08:17:58.578769 17781 net.cpp:165] Memory required for data: 491609400
I0521 08:17:58.578780 17781 layer_factory.hpp:77] Creating layer pool1
I0521 08:17:58.578797 17781 net.cpp:106] Creating Layer pool1
I0521 08:17:58.578807 17781 net.cpp:454] pool1 <- conv1
I0521 08:17:58.578821 17781 net.cpp:411] pool1 -> pool1
I0521 08:17:58.578902 17781 net.cpp:150] Setting up pool1
I0521 08:17:58.578917 17781 net.cpp:157] Top shape: 850 12 60 48 (29376000)
I0521 08:17:58.578927 17781 net.cpp:165] Memory required for data: 609113400
I0521 08:17:58.578938 17781 layer_factory.hpp:77] Creating layer conv2
I0521 08:17:58.578960 17781 net.cpp:106] Creating Layer conv2
I0521 08:17:58.578970 17781 net.cpp:454] conv2 <- pool1
I0521 08:17:58.578984 17781 net.cpp:411] conv2 -> conv2
I0521 08:17:58.581658 17781 net.cpp:150] Setting up conv2
I0521 08:17:58.581686 17781 net.cpp:157] Top shape: 850 20 54 46 (42228000)
I0521 08:17:58.581696 17781 net.cpp:165] Memory required for data: 778025400
I0521 08:17:58.581715 17781 layer_factory.hpp:77] Creating layer relu2
I0521 08:17:58.581730 17781 net.cpp:106] Creating Layer relu2
I0521 08:17:58.581740 17781 net.cpp:454] relu2 <- conv2
I0521 08:17:58.581753 17781 net.cpp:397] relu2 -> conv2 (in-place)
I0521 08:17:58.582084 17781 net.cpp:150] Setting up relu2
I0521 08:17:58.582098 17781 net.cpp:157] Top shape: 850 20 54 46 (42228000)
I0521 08:17:58.582108 17781 net.cpp:165] Memory required for data: 946937400
I0521 08:17:58.582118 17781 layer_factory.hpp:77] Creating layer pool2
I0521 08:17:58.582132 17781 net.cpp:106] Creating Layer pool2
I0521 08:17:58.582142 17781 net.cpp:454] pool2 <- conv2
I0521 08:17:58.582167 17781 net.cpp:411] pool2 -> pool2
I0521 08:17:58.582237 17781 net.cpp:150] Setting up pool2
I0521 08:17:58.582249 17781 net.cpp:157] Top shape: 850 20 27 46 (21114000)
I0521 08:17:58.582259 17781 net.cpp:165] Memory required for data: 1031393400
I0521 08:17:58.582270 17781 layer_factory.hpp:77] Creating layer conv3
I0521 08:17:58.582288 17781 net.cpp:106] Creating Layer conv3
I0521 08:17:58.582298 17781 net.cpp:454] conv3 <- pool2
I0521 08:17:58.582311 17781 net.cpp:411] conv3 -> conv3
I0521 08:17:58.584226 17781 net.cpp:150] Setting up conv3
I0521 08:17:58.584249 17781 net.cpp:157] Top shape: 850 28 22 44 (23038400)
I0521 08:17:58.584261 17781 net.cpp:165] Memory required for data: 1123547000
I0521 08:17:58.584280 17781 layer_factory.hpp:77] Creating layer relu3
I0521 08:17:58.584296 17781 net.cpp:106] Creating Layer relu3
I0521 08:17:58.584306 17781 net.cpp:454] relu3 <- conv3
I0521 08:17:58.584318 17781 net.cpp:397] relu3 -> conv3 (in-place)
I0521 08:17:58.584786 17781 net.cpp:150] Setting up relu3
I0521 08:17:58.584803 17781 net.cpp:157] Top shape: 850 28 22 44 (23038400)
I0521 08:17:58.584813 17781 net.cpp:165] Memory required for data: 1215700600
I0521 08:17:58.584823 17781 layer_factory.hpp:77] Creating layer pool3
I0521 08:17:58.584837 17781 net.cpp:106] Creating Layer pool3
I0521 08:17:58.584846 17781 net.cpp:454] pool3 <- conv3
I0521 08:17:58.584859 17781 net.cpp:411] pool3 -> pool3
I0521 08:17:58.584928 17781 net.cpp:150] Setting up pool3
I0521 08:17:58.584940 17781 net.cpp:157] Top shape: 850 28 11 44 (11519200)
I0521 08:17:58.584950 17781 net.cpp:165] Memory required for data: 1261777400
I0521 08:17:58.584959 17781 layer_factory.hpp:77] Creating layer conv4
I0521 08:17:58.584975 17781 net.cpp:106] Creating Layer conv4
I0521 08:17:58.584985 17781 net.cpp:454] conv4 <- pool3
I0521 08:17:58.585000 17781 net.cpp:411] conv4 -> conv4
I0521 08:17:58.587710 17781 net.cpp:150] Setting up conv4
I0521 08:17:58.587733 17781 net.cpp:157] Top shape: 850 36 6 42 (7711200)
I0521 08:17:58.587743 17781 net.cpp:165] Memory required for data: 1292622200
I0521 08:17:58.587759 17781 layer_factory.hpp:77] Creating layer relu4
I0521 08:17:58.587774 17781 net.cpp:106] Creating Layer relu4
I0521 08:17:58.587784 17781 net.cpp:454] relu4 <- conv4
I0521 08:17:58.587796 17781 net.cpp:397] relu4 -> conv4 (in-place)
I0521 08:17:58.588316 17781 net.cpp:150] Setting up relu4
I0521 08:17:58.588333 17781 net.cpp:157] Top shape: 850 36 6 42 (7711200)
I0521 08:17:58.588343 17781 net.cpp:165] Memory required for data: 1323467000
I0521 08:17:58.588353 17781 layer_factory.hpp:77] Creating layer pool4
I0521 08:17:58.588367 17781 net.cpp:106] Creating Layer pool4
I0521 08:17:58.588376 17781 net.cpp:454] pool4 <- conv4
I0521 08:17:58.588389 17781 net.cpp:411] pool4 -> pool4
I0521 08:17:58.588457 17781 net.cpp:150] Setting up pool4
I0521 08:17:58.588471 17781 net.cpp:157] Top shape: 850 36 3 42 (3855600)
I0521 08:17:58.588482 17781 net.cpp:165] Memory required for data: 1338889400
I0521 08:17:58.588491 17781 layer_factory.hpp:77] Creating layer ip1
I0521 08:17:58.588512 17781 net.cpp:106] Creating Layer ip1
I0521 08:17:58.588523 17781 net.cpp:454] ip1 <- pool4
I0521 08:17:58.588536 17781 net.cpp:411] ip1 -> ip1
I0521 08:17:58.604102 17781 net.cpp:150] Setting up ip1
I0521 08:17:58.604132 17781 net.cpp:157] Top shape: 850 196 (166600)
I0521 08:17:58.604148 17781 net.cpp:165] Memory required for data: 1339555800
I0521 08:17:58.604176 17781 layer_factory.hpp:77] Creating layer relu5
I0521 08:17:58.604190 17781 net.cpp:106] Creating Layer relu5
I0521 08:17:58.604202 17781 net.cpp:454] relu5 <- ip1
I0521 08:17:58.604214 17781 net.cpp:397] relu5 -> ip1 (in-place)
I0521 08:17:58.604557 17781 net.cpp:150] Setting up relu5
I0521 08:17:58.604570 17781 net.cpp:157] Top shape: 850 196 (166600)
I0521 08:17:58.604581 17781 net.cpp:165] Memory required for data: 1340222200
I0521 08:17:58.604590 17781 layer_factory.hpp:77] Creating layer drop1
I0521 08:17:58.604614 17781 net.cpp:106] Creating Layer drop1
I0521 08:17:58.604624 17781 net.cpp:454] drop1 <- ip1
I0521 08:17:58.604650 17781 net.cpp:397] drop1 -> ip1 (in-place)
I0521 08:17:58.604697 17781 net.cpp:150] Setting up drop1
I0521 08:17:58.604710 17781 net.cpp:157] Top shape: 850 196 (166600)
I0521 08:17:58.604720 17781 net.cpp:165] Memory required for data: 1340888600
I0521 08:17:58.604730 17781 layer_factory.hpp:77] Creating layer ip2
I0521 08:17:58.604749 17781 net.cpp:106] Creating Layer ip2
I0521 08:17:58.604760 17781 net.cpp:454] ip2 <- ip1
I0521 08:17:58.604773 17781 net.cpp:411] ip2 -> ip2
I0521 08:17:58.605242 17781 net.cpp:150] Setting up ip2
I0521 08:17:58.605254 17781 net.cpp:157] Top shape: 850 98 (83300)
I0521 08:17:58.605264 17781 net.cpp:165] Memory required for data: 1341221800
I0521 08:17:58.605278 17781 layer_factory.hpp:77] Creating layer relu6
I0521 08:17:58.605291 17781 net.cpp:106] Creating Layer relu6
I0521 08:17:58.605301 17781 net.cpp:454] relu6 <- ip2
I0521 08:17:58.605314 17781 net.cpp:397] relu6 -> ip2 (in-place)
I0521 08:17:58.605840 17781 net.cpp:150] Setting up relu6
I0521 08:17:58.605856 17781 net.cpp:157] Top shape: 850 98 (83300)
I0521 08:17:58.605867 17781 net.cpp:165] Memory required for data: 1341555000
I0521 08:17:58.605880 17781 layer_factory.hpp:77] Creating layer drop2
I0521 08:17:58.605892 17781 net.cpp:106] Creating Layer drop2
I0521 08:17:58.605902 17781 net.cpp:454] drop2 <- ip2
I0521 08:17:58.605916 17781 net.cpp:397] drop2 -> ip2 (in-place)
I0521 08:17:58.605958 17781 net.cpp:150] Setting up drop2
I0521 08:17:58.605972 17781 net.cpp:157] Top shape: 850 98 (83300)
I0521 08:17:58.605981 17781 net.cpp:165] Memory required for data: 1341888200
I0521 08:17:58.605991 17781 layer_factory.hpp:77] Creating layer ip3
I0521 08:17:58.606004 17781 net.cpp:106] Creating Layer ip3
I0521 08:17:58.606015 17781 net.cpp:454] ip3 <- ip2
I0521 08:17:58.606029 17781 net.cpp:411] ip3 -> ip3
I0521 08:17:58.606240 17781 net.cpp:150] Setting up ip3
I0521 08:17:58.606253 17781 net.cpp:157] Top shape: 850 11 (9350)
I0521 08:17:58.606263 17781 net.cpp:165] Memory required for data: 1341925600
I0521 08:17:58.606278 17781 layer_factory.hpp:77] Creating layer drop3
I0521 08:17:58.606290 17781 net.cpp:106] Creating Layer drop3
I0521 08:17:58.606300 17781 net.cpp:454] drop3 <- ip3
I0521 08:17:58.606312 17781 net.cpp:397] drop3 -> ip3 (in-place)
I0521 08:17:58.606350 17781 net.cpp:150] Setting up drop3
I0521 08:17:58.606364 17781 net.cpp:157] Top shape: 850 11 (9350)
I0521 08:17:58.606374 17781 net.cpp:165] Memory required for data: 1341963000
I0521 08:17:58.606382 17781 layer_factory.hpp:77] Creating layer loss
I0521 08:17:58.606401 17781 net.cpp:106] Creating Layer loss
I0521 08:17:58.606412 17781 net.cpp:454] loss <- ip3
I0521 08:17:58.606423 17781 net.cpp:454] loss <- label
I0521 08:17:58.606436 17781 net.cpp:411] loss -> loss
I0521 08:17:58.606452 17781 layer_factory.hpp:77] Creating layer loss
…
I0521 08:17:58.609015 17781 solver.cpp:181] Creating test net (#0) specified by net file: /lustre/atlas/proj-shared/hep105/caffe_titan/caffe_workflow/logs_batch_size_test/batch_size_850_2016-05-20T11.21.03.703055.prototxt
I0521 08:17:58.609086 17781 net.cpp:322] The NetState phase (1) differed from the phase (0) specified by a rule in layer data_hdf5
I0521 08:17:58.609439 17781 net.cpp:49] Initializing net from parameters: 
name: "caffe_test_127x50_x_unshifted"
state {
  phase: TEST
}
layer {
  name: "data_hdf5"
  type: "HDF5Data"
  top: "data"
  top: "label"
  include {
    phase: TEST
  }
  hdf5_data_param {
    source: "/lustre/atlas/proj-shared/hep105/caffe_titan/minosmatch_nukecczdefs_127x50_x_unshifted_me1Bmc.testlist"
    batch_size: 850
  }
}
layer {
  name: "conv1"
  type: "Convolution"
  bottom: "data"
  top: "conv1"
  convolution_param {
    num_output: 12
    pad: 0
    stride: 1
    weight_filler {
      type: "xavier"
    }
    bias_filler {
      type: "constant"
    }
    kernel_h: 8
    kernel_w: 3
  }
}
layer {
  name: "relu1"
  type: "ReLU"
  bottom: "conv1"
  top: "conv1"
}
layer {
  name: "pool1"
  type: "Pooling"
  bottom: "conv1"
  top: "pool1"
  pooling_param {
    pool: MAX
    kernel_h: 2
    kernel_w: 1
    stride_h: 2
    stride_w: 1
  }
}
layer {
  name: "conv2"
  type: "Convolution"
  bottom: "pool1"
  top: "conv2"
  convolution_param {
    num_output: 20
    pad: 0
    stride: 1
    weight_filler {
      type: "xavier"
    }
    bias_filler {
      type: "constant"
    }
    kernel_h: 7
    kernel_w: 3
  }
}
layer {
  name: "relu2"
  type: "ReLU"
  bottom: "conv2"
  top: "conv2"
}
layer {
  name: "pool2"
  type: "Pooling"
  bottom: "conv2"
  top: "pool2"
  pooling_param {
    pool: MAX
    kernel_h: 2
    kernel_w: 1
    stride_h: 2
    stride_w: 1
  }
}
layer {
  name: "conv3"
  type: "Convolution"
  bottom: "pool2"
  top: "conv3"
  convolution_param {
    num_output: 28
    pad: 0
    stride: 1
    weight_filler {
      type: "xavier"
    }
    bias_filler {
      type: "constant"
    }
    kernel_h: 6
    kernel_w: 3
  }
}
layer {
  name: "relu3"
  type: "ReLU"
  bottom: "conv3"
  top: "conv3"
}
layer {
  name: "pool3"
  type: "Pooling"
  bottom: "conv3"
  top: "pool3"
  pooling_param {
    pool: MAX
    kernel_h: 2
    kernel_w: 1
    stride_h: 2
    stride_w: 1
  }
}
layer {
  name: "conv4"
  type: "Convolution"
  bottom: "pool3"
  top: "conv4"
  convolution_param {
    num_output: 36
    pad: 0
    stride: 1
    weight_filler {
      type: "xavier"
    }
    bias_filler {
      type: "constant"
    }
    kernel_h: 6
    kernel_w: 3
  }
}
layer {
  name: "relu4"
  type: "ReLU"
  bottom: "conv4"
  top: "conv4"
}
layer {
  name: "pool4"
  type: "Pooling"
  bottom: "conv4"
  top: "pool4"
  pooling_param {
    pool: MAX
    kernel_h: 2
    kernel_w: 1
    stride_h: 2
    stride_w: 1
  }
}
layer {
  name: "ip1"
  type: "InnerProduct"
  bottom: "pool4"
  top: "ip1"
  inner_product_param {
    num_output: 196
    weight_filler {
      type: "xavier"
    }
    bias_filler {
      type: "constant"
    }
  }
}
layer {
  name: "relu5"
  type: "ReLU"
  bottom: "ip1"
  top: "ip1"
}
layer {
  name: "drop1"
  type: "Dropout"
  bottom: "ip1"
  top: "ip1"
  dropout_param {
    dropout_ratio: 0.5
  }
}
layer {
  name: "ip2"
  type: "InnerProduct"
  bottom: "ip1"
  top: "ip2"
  inner_product_param {
    num_output: 98
    weight_filler {
      type: "xavier"
    }
    bias_filler {
      type: "constant"
    }
  }
}
layer {
  name: "relu6"
  type: "ReLU"
  bottom: "ip2"
  top: "ip2"
}
layer {
  name: "drop2"
  type: "Dropout"
  bottom: "ip2"
  top: "ip2"
  dropout_param {
    dropout_ratio: 0.5
  }
}
layer {
  name: "ip3"
  type: "InnerProduct"
  bottom: "ip2"
  top: "ip3"
  inner_product_param {
    num_output: 11
    weight_filler {
      type: "xavier"
    }
    bias_filler {
      type: "constant"
    }
  }
}
layer {
  name: "drop3"
  type: "Dropout"
  bottom: "ip3"
  top: "ip3"
  dropout_param {
    dropout_ratio: 0.5
  }
}
layer {
  name: "accuracy"
  type: "Accuracy"
  bottom: "ip3"
  bottom: "label"
  top: "accuracy"
  include {
    phase: TEST
  }
}
layer {
  name: "loss"
  type: "SoftmaxWithLoss"
  bottom: "ip3"
  bottom: "label"
  top: "loss"
}
I0521 08:17:58.609637 17781 layer_factory.hpp:77] Creating layer data_hdf5
I0521 08:17:58.609652 17781 net.cpp:106] Creating Layer data_hdf5
I0521 08:17:58.609664 17781 net.cpp:411] data_hdf5 -> data
I0521 08:17:58.609681 17781 net.cpp:411] data_hdf5 -> label
I0521 08:17:58.609697 17781 hdf5_data_layer.cpp:79] Loading list of HDF5 filenames from: /lustre/atlas/proj-shared/hep105/caffe_titan/minosmatch_nukecczdefs_127x50_x_unshifted_me1Bmc.testlist
I0521 08:17:58.610862 17781 hdf5_data_layer.cpp:93] Number of HDF5 files: 3
I0521 08:18:19.878582 17781 net.cpp:150] Setting up data_hdf5
I0521 08:18:19.878747 17781 net.cpp:157] Top shape: 850 1 127 50 (5397500)
I0521 08:18:19.878762 17781 net.cpp:157] Top shape: 850 (850)
I0521 08:18:19.878773 17781 net.cpp:165] Memory required for data: 21593400
I0521 08:18:19.878788 17781 layer_factory.hpp:77] Creating layer label_data_hdf5_1_split
I0521 08:18:19.878816 17781 net.cpp:106] Creating Layer label_data_hdf5_1_split
I0521 08:18:19.878828 17781 net.cpp:454] label_data_hdf5_1_split <- label
I0521 08:18:19.878842 17781 net.cpp:411] label_data_hdf5_1_split -> label_data_hdf5_1_split_0
I0521 08:18:19.878865 17781 net.cpp:411] label_data_hdf5_1_split -> label_data_hdf5_1_split_1
I0521 08:18:19.878937 17781 net.cpp:150] Setting up label_data_hdf5_1_split
I0521 08:18:19.878952 17781 net.cpp:157] Top shape: 850 (850)
I0521 08:18:19.878963 17781 net.cpp:157] Top shape: 850 (850)
I0521 08:18:19.878973 17781 net.cpp:165] Memory required for data: 21600200
I0521 08:18:19.878983 17781 layer_factory.hpp:77] Creating layer conv1
I0521 08:18:19.879004 17781 net.cpp:106] Creating Layer conv1
I0521 08:18:19.879015 17781 net.cpp:454] conv1 <- data
I0521 08:18:19.879030 17781 net.cpp:411] conv1 -> conv1
I0521 08:18:19.880959 17781 net.cpp:150] Setting up conv1
I0521 08:18:19.880983 17781 net.cpp:157] Top shape: 850 12 120 48 (58752000)
I0521 08:18:19.880995 17781 net.cpp:165] Memory required for data: 256608200
I0521 08:18:19.881014 17781 layer_factory.hpp:77] Creating layer relu1
I0521 08:18:19.881029 17781 net.cpp:106] Creating Layer relu1
I0521 08:18:19.881039 17781 net.cpp:454] relu1 <- conv1
I0521 08:18:19.881052 17781 net.cpp:397] relu1 -> conv1 (in-place)
I0521 08:18:19.881556 17781 net.cpp:150] Setting up relu1
I0521 08:18:19.881573 17781 net.cpp:157] Top shape: 850 12 120 48 (58752000)
I0521 08:18:19.881583 17781 net.cpp:165] Memory required for data: 491616200
I0521 08:18:19.881593 17781 layer_factory.hpp:77] Creating layer pool1
I0521 08:18:19.881609 17781 net.cpp:106] Creating Layer pool1
I0521 08:18:19.881619 17781 net.cpp:454] pool1 <- conv1
I0521 08:18:19.881633 17781 net.cpp:411] pool1 -> pool1
I0521 08:18:19.881706 17781 net.cpp:150] Setting up pool1
I0521 08:18:19.881721 17781 net.cpp:157] Top shape: 850 12 60 48 (29376000)
I0521 08:18:19.881731 17781 net.cpp:165] Memory required for data: 609120200
I0521 08:18:19.881742 17781 layer_factory.hpp:77] Creating layer conv2
I0521 08:18:19.881759 17781 net.cpp:106] Creating Layer conv2
I0521 08:18:19.881770 17781 net.cpp:454] conv2 <- pool1
I0521 08:18:19.881784 17781 net.cpp:411] conv2 -> conv2
I0521 08:18:19.883692 17781 net.cpp:150] Setting up conv2
I0521 08:18:19.883709 17781 net.cpp:157] Top shape: 850 20 54 46 (42228000)
I0521 08:18:19.883720 17781 net.cpp:165] Memory required for data: 778032200
I0521 08:18:19.883738 17781 layer_factory.hpp:77] Creating layer relu2
I0521 08:18:19.883751 17781 net.cpp:106] Creating Layer relu2
I0521 08:18:19.883761 17781 net.cpp:454] relu2 <- conv2
I0521 08:18:19.883774 17781 net.cpp:397] relu2 -> conv2 (in-place)
I0521 08:18:19.884105 17781 net.cpp:150] Setting up relu2
I0521 08:18:19.884119 17781 net.cpp:157] Top shape: 850 20 54 46 (42228000)
I0521 08:18:19.884130 17781 net.cpp:165] Memory required for data: 946944200
I0521 08:18:19.884140 17781 layer_factory.hpp:77] Creating layer pool2
I0521 08:18:19.884152 17781 net.cpp:106] Creating Layer pool2
I0521 08:18:19.884162 17781 net.cpp:454] pool2 <- conv2
I0521 08:18:19.884176 17781 net.cpp:411] pool2 -> pool2
I0521 08:18:19.884245 17781 net.cpp:150] Setting up pool2
I0521 08:18:19.884259 17781 net.cpp:157] Top shape: 850 20 27 46 (21114000)
I0521 08:18:19.884268 17781 net.cpp:165] Memory required for data: 1031400200
I0521 08:18:19.884279 17781 layer_factory.hpp:77] Creating layer conv3
I0521 08:18:19.884295 17781 net.cpp:106] Creating Layer conv3
I0521 08:18:19.884306 17781 net.cpp:454] conv3 <- pool2
I0521 08:18:19.884320 17781 net.cpp:411] conv3 -> conv3
I0521 08:18:19.886309 17781 net.cpp:150] Setting up conv3
I0521 08:18:19.886333 17781 net.cpp:157] Top shape: 850 28 22 44 (23038400)
I0521 08:18:19.886344 17781 net.cpp:165] Memory required for data: 1123553800
I0521 08:18:19.886378 17781 layer_factory.hpp:77] Creating layer relu3
I0521 08:18:19.886391 17781 net.cpp:106] Creating Layer relu3
I0521 08:18:19.886401 17781 net.cpp:454] relu3 <- conv3
I0521 08:18:19.886415 17781 net.cpp:397] relu3 -> conv3 (in-place)
I0521 08:18:19.886886 17781 net.cpp:150] Setting up relu3
I0521 08:18:19.886901 17781 net.cpp:157] Top shape: 850 28 22 44 (23038400)
I0521 08:18:19.886912 17781 net.cpp:165] Memory required for data: 1215707400
I0521 08:18:19.886922 17781 layer_factory.hpp:77] Creating layer pool3
I0521 08:18:19.886935 17781 net.cpp:106] Creating Layer pool3
I0521 08:18:19.886945 17781 net.cpp:454] pool3 <- conv3
I0521 08:18:19.886958 17781 net.cpp:411] pool3 -> pool3
I0521 08:18:19.887029 17781 net.cpp:150] Setting up pool3
I0521 08:18:19.887042 17781 net.cpp:157] Top shape: 850 28 11 44 (11519200)
I0521 08:18:19.887058 17781 net.cpp:165] Memory required for data: 1261784200
I0521 08:18:19.887066 17781 layer_factory.hpp:77] Creating layer conv4
I0521 08:18:19.887085 17781 net.cpp:106] Creating Layer conv4
I0521 08:18:19.887095 17781 net.cpp:454] conv4 <- pool3
I0521 08:18:19.887109 17781 net.cpp:411] conv4 -> conv4
I0521 08:18:19.889153 17781 net.cpp:150] Setting up conv4
I0521 08:18:19.889175 17781 net.cpp:157] Top shape: 850 36 6 42 (7711200)
I0521 08:18:19.889189 17781 net.cpp:165] Memory required for data: 1292629000
I0521 08:18:19.889204 17781 layer_factory.hpp:77] Creating layer relu4
I0521 08:18:19.889216 17781 net.cpp:106] Creating Layer relu4
I0521 08:18:19.889226 17781 net.cpp:454] relu4 <- conv4
I0521 08:18:19.889240 17781 net.cpp:397] relu4 -> conv4 (in-place)
I0521 08:18:19.889714 17781 net.cpp:150] Setting up relu4
I0521 08:18:19.889729 17781 net.cpp:157] Top shape: 850 36 6 42 (7711200)
I0521 08:18:19.889740 17781 net.cpp:165] Memory required for data: 1323473800
I0521 08:18:19.889750 17781 layer_factory.hpp:77] Creating layer pool4
I0521 08:18:19.889763 17781 net.cpp:106] Creating Layer pool4
I0521 08:18:19.889772 17781 net.cpp:454] pool4 <- conv4
I0521 08:18:19.889787 17781 net.cpp:411] pool4 -> pool4
I0521 08:18:19.889858 17781 net.cpp:150] Setting up pool4
I0521 08:18:19.889871 17781 net.cpp:157] Top shape: 850 36 3 42 (3855600)
I0521 08:18:19.889880 17781 net.cpp:165] Memory required for data: 1338896200
I0521 08:18:19.889891 17781 layer_factory.hpp:77] Creating layer ip1
I0521 08:18:19.889907 17781 net.cpp:106] Creating Layer ip1
I0521 08:18:19.889917 17781 net.cpp:454] ip1 <- pool4
I0521 08:18:19.889931 17781 net.cpp:411] ip1 -> ip1
I0521 08:18:19.905354 17781 net.cpp:150] Setting up ip1
I0521 08:18:19.905382 17781 net.cpp:157] Top shape: 850 196 (166600)
I0521 08:18:19.905395 17781 net.cpp:165] Memory required for data: 1339562600
I0521 08:18:19.905417 17781 layer_factory.hpp:77] Creating layer relu5
I0521 08:18:19.905432 17781 net.cpp:106] Creating Layer relu5
I0521 08:18:19.905442 17781 net.cpp:454] relu5 <- ip1
I0521 08:18:19.905457 17781 net.cpp:397] relu5 -> ip1 (in-place)
I0521 08:18:19.905804 17781 net.cpp:150] Setting up relu5
I0521 08:18:19.905818 17781 net.cpp:157] Top shape: 850 196 (166600)
I0521 08:18:19.905828 17781 net.cpp:165] Memory required for data: 1340229000
I0521 08:18:19.905838 17781 layer_factory.hpp:77] Creating layer drop1
I0521 08:18:19.905858 17781 net.cpp:106] Creating Layer drop1
I0521 08:18:19.905867 17781 net.cpp:454] drop1 <- ip1
I0521 08:18:19.905881 17781 net.cpp:397] drop1 -> ip1 (in-place)
I0521 08:18:19.905925 17781 net.cpp:150] Setting up drop1
I0521 08:18:19.905938 17781 net.cpp:157] Top shape: 850 196 (166600)
I0521 08:18:19.905948 17781 net.cpp:165] Memory required for data: 1340895400
I0521 08:18:19.905958 17781 layer_factory.hpp:77] Creating layer ip2
I0521 08:18:19.905972 17781 net.cpp:106] Creating Layer ip2
I0521 08:18:19.905982 17781 net.cpp:454] ip2 <- ip1
I0521 08:18:19.905997 17781 net.cpp:411] ip2 -> ip2
I0521 08:18:19.906473 17781 net.cpp:150] Setting up ip2
I0521 08:18:19.906487 17781 net.cpp:157] Top shape: 850 98 (83300)
I0521 08:18:19.906497 17781 net.cpp:165] Memory required for data: 1341228600
I0521 08:18:19.906524 17781 layer_factory.hpp:77] Creating layer relu6
I0521 08:18:19.906538 17781 net.cpp:106] Creating Layer relu6
I0521 08:18:19.906548 17781 net.cpp:454] relu6 <- ip2
I0521 08:18:19.906560 17781 net.cpp:397] relu6 -> ip2 (in-place)
I0521 08:18:19.907091 17781 net.cpp:150] Setting up relu6
I0521 08:18:19.907114 17781 net.cpp:157] Top shape: 850 98 (83300)
I0521 08:18:19.907124 17781 net.cpp:165] Memory required for data: 1341561800
I0521 08:18:19.907133 17781 layer_factory.hpp:77] Creating layer drop2
I0521 08:18:19.907146 17781 net.cpp:106] Creating Layer drop2
I0521 08:18:19.907156 17781 net.cpp:454] drop2 <- ip2
I0521 08:18:19.907169 17781 net.cpp:397] drop2 -> ip2 (in-place)
I0521 08:18:19.907213 17781 net.cpp:150] Setting up drop2
I0521 08:18:19.907225 17781 net.cpp:157] Top shape: 850 98 (83300)
I0521 08:18:19.907235 17781 net.cpp:165] Memory required for data: 1341895000
I0521 08:18:19.907245 17781 layer_factory.hpp:77] Creating layer ip3
I0521 08:18:19.907260 17781 net.cpp:106] Creating Layer ip3
I0521 08:18:19.907269 17781 net.cpp:454] ip3 <- ip2
I0521 08:18:19.907284 17781 net.cpp:411] ip3 -> ip3
I0521 08:18:19.907506 17781 net.cpp:150] Setting up ip3
I0521 08:18:19.907519 17781 net.cpp:157] Top shape: 850 11 (9350)
I0521 08:18:19.907529 17781 net.cpp:165] Memory required for data: 1341932400
I0521 08:18:19.907544 17781 layer_factory.hpp:77] Creating layer drop3
I0521 08:18:19.907557 17781 net.cpp:106] Creating Layer drop3
I0521 08:18:19.907567 17781 net.cpp:454] drop3 <- ip3
I0521 08:18:19.907579 17781 net.cpp:397] drop3 -> ip3 (in-place)
I0521 08:18:19.907620 17781 net.cpp:150] Setting up drop3
I0521 08:18:19.907634 17781 net.cpp:157] Top shape: 850 11 (9350)
I0521 08:18:19.907644 17781 net.cpp:165] Memory required for data: 1341969800
I0521 08:18:19.907651 17781 layer_factory.hpp:77] Creating layer ip3_drop3_0_split
I0521 08:18:19.907665 17781 net.cpp:106] Creating Layer ip3_drop3_0_split
I0521 08:18:19.907675 17781 net.cpp:454] ip3_drop3_0_split <- ip3
I0521 08:18:19.907688 17781 net.cpp:411] ip3_drop3_0_split -> ip3_drop3_0_split_0
I0521 08:18:19.907703 17781 net.cpp:411] ip3_drop3_0_split -> ip3_drop3_0_split_1
I0521 08:18:19.907775 17781 net.cpp:150] Setting up ip3_drop3_0_split
I0521 08:18:19.907789 17781 net.cpp:157] Top shape: 850 11 (9350)
I0521 08:18:19.907801 17781 net.cpp:157] Top shape: 850 11 (9350)
I0521 08:18:19.907810 17781 net.cpp:165] Memory required for data: 1342044600
I0521 08:18:19.907821 17781 layer_factory.hpp:77] Creating layer accuracy
I0521 08:18:19.907843 17781 net.cpp:106] Creating Layer accuracy
I0521 08:18:19.907855 17781 net.cpp:454] accuracy <- ip3_drop3_0_split_0
I0521 08:18:19.907866 17781 net.cpp:454] accuracy <- label_data_hdf5_1_split_0
I0521 08:18:19.907879 17781 net.cpp:411] accuracy -> accuracy
…
