…
I0520 20:21:17.840761 23410 net.cpp:322] The NetState phase (0) differed from the phase (1) specified by a rule in layer data_hdf5
I0520 20:21:17.840829 23410 net.cpp:322] The NetState phase (0) differed from the phase (1) specified by a rule in layer accuracy
I0520 20:21:17.841205 23410 net.cpp:49] Initializing net from parameters: 
name: "caffe_test_127x50_x_unshifted"
state {
  phase: TRAIN
}
layer {
  name: "data_hdf5"
  type: "HDF5Data"
  top: "data"
  top: "label"
  include {
    phase: TRAIN
  }
  hdf5_data_param {
    source: "/lustre/atlas/proj-shared/hep105/caffe_titan/minosmatch_nukecczdefs_127x50_x_unshifted_me1Bmc.trainlist"
    batch_size: 270
  }
}
layer {
  name: "conv1"
  type: "Convolution"
  bottom: "data"
  top: "conv1"
  convolution_param {
    num_output: 12
    pad: 0
    stride: 1
    weight_filler {
      type: "xavier"
    }
    bias_filler {
      type: "constant"
    }
    kernel_h: 8
    kernel_w: 3
  }
}
layer {
  name: "relu1"
  type: "ReLU"
  bottom: "conv1"
  top: "conv1"
}
layer {
  name: "pool1"
  type: "Pooling"
  bottom: "conv1"
  top: "pool1"
  pooling_param {
    pool: MAX
    kernel_h: 2
    kernel_w: 1
    stride_h: 2
    stride_w: 1
  }
}
layer {
  name: "conv2"
  type: "Convolution"
  bottom: "pool1"
  top: "conv2"
  convolution_param {
    num_output: 20
    pad: 0
    stride: 1
    weight_filler {
      type: "xavier"
    }
    bias_filler {
      type: "constant"
    }
    kernel_h: 7
    kernel_w: 3
  }
}
layer {
  name: "relu2"
  type: "ReLU"
  bottom: "conv2"
  top: "conv2"
}
layer {
  name: "pool2"
  type: "Pooling"
  bottom: "conv2"
  top: "pool2"
  pooling_param {
    pool: MAX
    kernel_h: 2
    kernel_w: 1
    stride_h: 2
    stride_w: 1
  }
}
layer {
  name: "conv3"
  type: "Convolution"
  bottom: "pool2"
  top: "conv3"
  convolution_param {
    num_output: 28
    pad: 0
    stride: 1
    weight_filler {
      type: "xavier"
    }
    bias_filler {
      type: "constant"
    }
    kernel_h: 6
    kernel_w: 3
  }
}
layer {
  name: "relu3"
  type: "ReLU"
  bottom: "conv3"
  top: "conv3"
}
layer {
  name: "pool3"
  type: "Pooling"
  bottom: "conv3"
  top: "pool3"
  pooling_param {
    pool: MAX
    kernel_h: 2
    kernel_w: 1
    stride_h: 2
    stride_w: 1
  }
}
layer {
  name: "conv4"
  type: "Convolution"
  bottom: "pool3"
  top: "conv4"
  convolution_param {
    num_output: 36
    pad: 0
    stride: 1
    weight_filler {
      type: "xavier"
    }
    bias_filler {
      type: "constant"
    }
    kernel_h: 6
    kernel_w: 3
  }
}
layer {
  name: "relu4"
  type: "ReLU"
  bottom: "conv4"
  top: "conv4"
}
layer {
  name: "pool4"
  type: "Pooling"
  bottom: "conv4"
  top: "pool4"
  pooling_param {
    pool: MAX
    kernel_h: 2
    kernel_w: 1
    stride_h: 2
    stride_w: 1
  }
}
layer {
  name: "ip1"
  type: "InnerProduct"
  bottom: "pool4"
  top: "ip1"
  inner_product_param {
    num_output: 196
    weight_filler {
      type: "xavier"
    }
    bias_filler {
      type: "constant"
    }
  }
}
layer {
  name: "relu5"
  type: "ReLU"
  bottom: "ip1"
  top: "ip1"
}
layer {
  name: "drop1"
  type: "Dropout"
  bottom: "ip1"
  top: "ip1"
  dropout_param {
    dropout_ratio: 0.5
  }
}
layer {
  name: "ip2"
  type: "InnerProduct"
  bottom: "ip1"
  top: "ip2"
  inner_product_param {
    num_output: 98
    weight_filler {
      type: "xavier"
    }
    bias_filler {
      type: "constant"
    }
  }
}
layer {
  name: "relu6"
  type: "ReLU"
  bottom: "ip2"
  top: "ip2"
}
layer {
  name: "drop2"
  type: "Dropout"
  bottom: "ip2"
  top: "ip2"
  dropout_param {
    dropout_ratio: 0.5
  }
}
layer {
  name: "ip3"
  type: "InnerProduct"
  bottom: "ip2"
  top: "ip3"
  inner_product_param {
    num_output: 11
    weight_filler {
      type: "xavier"
    }
    bias_filler {
      type: "constant"
    }
  }
}
layer {
  name: "drop3"
  type: "Dropout"
  bottom: "ip3"
  top: "ip3"
  dropout_param {
    dropout_ratio: 0.5
  }
}
layer {
  name: "loss"
  type: "SoftmaxWithLoss"
  bottom: "ip3"
  bottom: "label"
  top: "loss"
}
I0520 20:21:17.841409 23410 layer_factory.hpp:77] Creating layer data_hdf5
I0520 20:21:17.841445 23410 net.cpp:106] Creating Layer data_hdf5
I0520 20:21:17.841464 23410 net.cpp:411] data_hdf5 -> data
I0520 20:21:17.841496 23410 net.cpp:411] data_hdf5 -> label
I0520 20:21:17.841539 23410 hdf5_data_layer.cpp:79] Loading list of HDF5 filenames from: /lustre/atlas/proj-shared/hep105/caffe_titan/minosmatch_nukecczdefs_127x50_x_unshifted_me1Bmc.trainlist
I0520 20:21:17.842754 23410 hdf5_data_layer.cpp:93] Number of HDF5 files: 15
I0520 20:21:17.844946 23410 hdf5.cpp:32] Datatype class: H5T_FLOAT
I0520 20:21:39.382979 23410 hdf5.cpp:35] Datatype class: H5T_INTEGER
I0520 20:21:39.388149 23410 net.cpp:150] Setting up data_hdf5
I0520 20:21:39.388190 23410 net.cpp:157] Top shape: 270 1 127 50 (1714500)
I0520 20:21:39.388207 23410 net.cpp:157] Top shape: 270 (270)
I0520 20:21:39.388219 23410 net.cpp:165] Memory required for data: 6859080
I0520 20:21:39.388239 23410 layer_factory.hpp:77] Creating layer conv1
I0520 20:21:39.388285 23410 net.cpp:106] Creating Layer conv1
I0520 20:21:39.388300 23410 net.cpp:454] conv1 <- data
I0520 20:21:39.388325 23410 net.cpp:411] conv1 -> conv1
I0520 20:21:39.755322 23410 net.cpp:150] Setting up conv1
I0520 20:21:39.755374 23410 net.cpp:157] Top shape: 270 12 120 48 (18662400)
I0520 20:21:39.755399 23410 net.cpp:165] Memory required for data: 81508680
I0520 20:21:39.755429 23410 layer_factory.hpp:77] Creating layer relu1
I0520 20:21:39.755452 23410 net.cpp:106] Creating Layer relu1
I0520 20:21:39.755473 23410 net.cpp:454] relu1 <- conv1
I0520 20:21:39.755508 23410 net.cpp:397] relu1 -> conv1 (in-place)
I0520 20:21:39.756042 23410 net.cpp:150] Setting up relu1
I0520 20:21:39.756064 23410 net.cpp:157] Top shape: 270 12 120 48 (18662400)
I0520 20:21:39.756078 23410 net.cpp:165] Memory required for data: 156158280
I0520 20:21:39.756094 23410 layer_factory.hpp:77] Creating layer pool1
I0520 20:21:39.756121 23410 net.cpp:106] Creating Layer pool1
I0520 20:21:39.756135 23410 net.cpp:454] pool1 <- conv1
I0520 20:21:39.756151 23410 net.cpp:411] pool1 -> pool1
I0520 20:21:39.756244 23410 net.cpp:150] Setting up pool1
I0520 20:21:39.756263 23410 net.cpp:157] Top shape: 270 12 60 48 (9331200)
I0520 20:21:39.756284 23410 net.cpp:165] Memory required for data: 193483080
I0520 20:21:39.756299 23410 layer_factory.hpp:77] Creating layer conv2
I0520 20:21:39.756324 23410 net.cpp:106] Creating Layer conv2
I0520 20:21:39.756336 23410 net.cpp:454] conv2 <- pool1
I0520 20:21:39.756352 23410 net.cpp:411] conv2 -> conv2
I0520 20:21:39.759047 23410 net.cpp:150] Setting up conv2
I0520 20:21:39.759078 23410 net.cpp:157] Top shape: 270 20 54 46 (13413600)
I0520 20:21:39.759094 23410 net.cpp:165] Memory required for data: 247137480
I0520 20:21:39.759121 23410 layer_factory.hpp:77] Creating layer relu2
I0520 20:21:39.759150 23410 net.cpp:106] Creating Layer relu2
I0520 20:21:39.759163 23410 net.cpp:454] relu2 <- conv2
I0520 20:21:39.759179 23410 net.cpp:397] relu2 -> conv2 (in-place)
I0520 20:21:39.759538 23410 net.cpp:150] Setting up relu2
I0520 20:21:39.759558 23410 net.cpp:157] Top shape: 270 20 54 46 (13413600)
I0520 20:21:39.759572 23410 net.cpp:165] Memory required for data: 300791880
I0520 20:21:39.759583 23410 layer_factory.hpp:77] Creating layer pool2
I0520 20:21:39.759609 23410 net.cpp:106] Creating Layer pool2
I0520 20:21:39.759623 23410 net.cpp:454] pool2 <- conv2
I0520 20:21:39.759657 23410 net.cpp:411] pool2 -> pool2
I0520 20:21:39.759740 23410 net.cpp:150] Setting up pool2
I0520 20:21:39.759758 23410 net.cpp:157] Top shape: 270 20 27 46 (6706800)
I0520 20:21:39.759769 23410 net.cpp:165] Memory required for data: 327619080
I0520 20:21:39.759791 23410 layer_factory.hpp:77] Creating layer conv3
I0520 20:21:39.759812 23410 net.cpp:106] Creating Layer conv3
I0520 20:21:39.759825 23410 net.cpp:454] conv3 <- pool2
I0520 20:21:39.759842 23410 net.cpp:411] conv3 -> conv3
I0520 20:21:39.761813 23410 net.cpp:150] Setting up conv3
I0520 20:21:39.761838 23410 net.cpp:157] Top shape: 270 28 22 44 (7318080)
I0520 20:21:39.761858 23410 net.cpp:165] Memory required for data: 356891400
I0520 20:21:39.761880 23410 layer_factory.hpp:77] Creating layer relu3
I0520 20:21:39.761903 23410 net.cpp:106] Creating Layer relu3
I0520 20:21:39.761924 23410 net.cpp:454] relu3 <- conv3
I0520 20:21:39.761940 23410 net.cpp:397] relu3 -> conv3 (in-place)
I0520 20:21:39.762437 23410 net.cpp:150] Setting up relu3
I0520 20:21:39.762461 23410 net.cpp:157] Top shape: 270 28 22 44 (7318080)
I0520 20:21:39.762475 23410 net.cpp:165] Memory required for data: 386163720
I0520 20:21:39.762490 23410 layer_factory.hpp:77] Creating layer pool3
I0520 20:21:39.762506 23410 net.cpp:106] Creating Layer pool3
I0520 20:21:39.762528 23410 net.cpp:454] pool3 <- conv3
I0520 20:21:39.762543 23410 net.cpp:411] pool3 -> pool3
I0520 20:21:39.762629 23410 net.cpp:150] Setting up pool3
I0520 20:21:39.762652 23410 net.cpp:157] Top shape: 270 28 11 44 (3659040)
I0520 20:21:39.762665 23410 net.cpp:165] Memory required for data: 400799880
I0520 20:21:39.762679 23410 layer_factory.hpp:77] Creating layer conv4
I0520 20:21:39.762706 23410 net.cpp:106] Creating Layer conv4
I0520 20:21:39.762720 23410 net.cpp:454] conv4 <- pool3
I0520 20:21:39.762737 23410 net.cpp:411] conv4 -> conv4
I0520 20:21:39.765472 23410 net.cpp:150] Setting up conv4
I0520 20:21:39.765502 23410 net.cpp:157] Top shape: 270 36 6 42 (2449440)
I0520 20:21:39.765522 23410 net.cpp:165] Memory required for data: 410597640
I0520 20:21:39.765542 23410 layer_factory.hpp:77] Creating layer relu4
I0520 20:21:39.765563 23410 net.cpp:106] Creating Layer relu4
I0520 20:21:39.765586 23410 net.cpp:454] relu4 <- conv4
I0520 20:21:39.765604 23410 net.cpp:397] relu4 -> conv4 (in-place)
I0520 20:21:39.766090 23410 net.cpp:150] Setting up relu4
I0520 20:21:39.766121 23410 net.cpp:157] Top shape: 270 36 6 42 (2449440)
I0520 20:21:39.766135 23410 net.cpp:165] Memory required for data: 420395400
I0520 20:21:39.766150 23410 layer_factory.hpp:77] Creating layer pool4
I0520 20:21:39.766166 23410 net.cpp:106] Creating Layer pool4
I0520 20:21:39.766188 23410 net.cpp:454] pool4 <- conv4
I0520 20:21:39.766204 23410 net.cpp:411] pool4 -> pool4
I0520 20:21:39.766288 23410 net.cpp:150] Setting up pool4
I0520 20:21:39.766304 23410 net.cpp:157] Top shape: 270 36 3 42 (1224720)
I0520 20:21:39.766320 23410 net.cpp:165] Memory required for data: 425294280
I0520 20:21:39.766332 23410 layer_factory.hpp:77] Creating layer ip1
I0520 20:21:39.766355 23410 net.cpp:106] Creating Layer ip1
I0520 20:21:39.766374 23410 net.cpp:454] ip1 <- pool4
I0520 20:21:39.766392 23410 net.cpp:411] ip1 -> ip1
I0520 20:21:39.781798 23410 net.cpp:150] Setting up ip1
I0520 20:21:39.781831 23410 net.cpp:157] Top shape: 270 196 (52920)
I0520 20:21:39.781852 23410 net.cpp:165] Memory required for data: 425505960
I0520 20:21:39.781879 23410 layer_factory.hpp:77] Creating layer relu5
I0520 20:21:39.781900 23410 net.cpp:106] Creating Layer relu5
I0520 20:21:39.781926 23410 net.cpp:454] relu5 <- ip1
I0520 20:21:39.781944 23410 net.cpp:397] relu5 -> ip1 (in-place)
I0520 20:21:39.782306 23410 net.cpp:150] Setting up relu5
I0520 20:21:39.782326 23410 net.cpp:157] Top shape: 270 196 (52920)
I0520 20:21:39.782340 23410 net.cpp:165] Memory required for data: 425717640
I0520 20:21:39.782352 23410 layer_factory.hpp:77] Creating layer drop1
I0520 20:21:39.782387 23410 net.cpp:106] Creating Layer drop1
I0520 20:21:39.782400 23410 net.cpp:454] drop1 <- ip1
I0520 20:21:39.782438 23410 net.cpp:397] drop1 -> ip1 (in-place)
I0520 20:21:39.782498 23410 net.cpp:150] Setting up drop1
I0520 20:21:39.782516 23410 net.cpp:157] Top shape: 270 196 (52920)
I0520 20:21:39.782536 23410 net.cpp:165] Memory required for data: 425929320
I0520 20:21:39.782548 23410 layer_factory.hpp:77] Creating layer ip2
I0520 20:21:39.782572 23410 net.cpp:106] Creating Layer ip2
I0520 20:21:39.782584 23410 net.cpp:454] ip2 <- ip1
I0520 20:21:39.782613 23410 net.cpp:411] ip2 -> ip2
I0520 20:21:39.783092 23410 net.cpp:150] Setting up ip2
I0520 20:21:39.783112 23410 net.cpp:157] Top shape: 270 98 (26460)
I0520 20:21:39.783124 23410 net.cpp:165] Memory required for data: 426035160
I0520 20:21:39.783144 23410 layer_factory.hpp:77] Creating layer relu6
I0520 20:21:39.783165 23410 net.cpp:106] Creating Layer relu6
I0520 20:21:39.783179 23410 net.cpp:454] relu6 <- ip2
I0520 20:21:39.783195 23410 net.cpp:397] relu6 -> ip2 (in-place)
I0520 20:21:39.783745 23410 net.cpp:150] Setting up relu6
I0520 20:21:39.783767 23410 net.cpp:157] Top shape: 270 98 (26460)
I0520 20:21:39.783781 23410 net.cpp:165] Memory required for data: 426141000
I0520 20:21:39.783797 23410 layer_factory.hpp:77] Creating layer drop2
I0520 20:21:39.783820 23410 net.cpp:106] Creating Layer drop2
I0520 20:21:39.783833 23410 net.cpp:454] drop2 <- ip2
I0520 20:21:39.783849 23410 net.cpp:397] drop2 -> ip2 (in-place)
I0520 20:21:39.783905 23410 net.cpp:150] Setting up drop2
I0520 20:21:39.783921 23410 net.cpp:157] Top shape: 270 98 (26460)
I0520 20:21:39.783933 23410 net.cpp:165] Memory required for data: 426246840
I0520 20:21:39.783946 23410 layer_factory.hpp:77] Creating layer ip3
I0520 20:21:39.783962 23410 net.cpp:106] Creating Layer ip3
I0520 20:21:39.783977 23410 net.cpp:454] ip3 <- ip2
I0520 20:21:39.783998 23410 net.cpp:411] ip3 -> ip3
I0520 20:21:39.784221 23410 net.cpp:150] Setting up ip3
I0520 20:21:39.784240 23410 net.cpp:157] Top shape: 270 11 (2970)
I0520 20:21:39.784252 23410 net.cpp:165] Memory required for data: 426258720
I0520 20:21:39.784272 23410 layer_factory.hpp:77] Creating layer drop3
I0520 20:21:39.784296 23410 net.cpp:106] Creating Layer drop3
I0520 20:21:39.784308 23410 net.cpp:454] drop3 <- ip3
I0520 20:21:39.784323 23410 net.cpp:397] drop3 -> ip3 (in-place)
I0520 20:21:39.784375 23410 net.cpp:150] Setting up drop3
I0520 20:21:39.784391 23410 net.cpp:157] Top shape: 270 11 (2970)
I0520 20:21:39.784404 23410 net.cpp:165] Memory required for data: 426270600
I0520 20:21:39.784423 23410 layer_factory.hpp:77] Creating layer loss
I0520 20:21:39.784445 23410 net.cpp:106] Creating Layer loss
I0520 20:21:39.784459 23410 net.cpp:454] loss <- ip3
I0520 20:21:39.784479 23410 net.cpp:454] loss <- label
I0520 20:21:39.784495 23410 net.cpp:411] loss -> loss
I0520 20:21:39.784515 23410 layer_factory.hpp:77] Creating layer loss
…
I0520 20:21:39.787263 23410 solver.cpp:181] Creating test net (#0) specified by net file: /lustre/atlas/proj-shared/hep105/caffe_titan/caffe_workflow/logs_batch_size_test/batch_size_270_2016-05-20T11.20.42.587797.prototxt
I0520 20:21:39.787343 23410 net.cpp:322] The NetState phase (1) differed from the phase (0) specified by a rule in layer data_hdf5
I0520 20:21:39.787721 23410 net.cpp:49] Initializing net from parameters: 
name: "caffe_test_127x50_x_unshifted"
state {
  phase: TEST
}
layer {
  name: "data_hdf5"
  type: "HDF5Data"
  top: "data"
  top: "label"
  include {
    phase: TEST
  }
  hdf5_data_param {
    source: "/lustre/atlas/proj-shared/hep105/caffe_titan/minosmatch_nukecczdefs_127x50_x_unshifted_me1Bmc.testlist"
    batch_size: 270
  }
}
layer {
  name: "conv1"
  type: "Convolution"
  bottom: "data"
  top: "conv1"
  convolution_param {
    num_output: 12
    pad: 0
    stride: 1
    weight_filler {
      type: "xavier"
    }
    bias_filler {
      type: "constant"
    }
    kernel_h: 8
    kernel_w: 3
  }
}
layer {
  name: "relu1"
  type: "ReLU"
  bottom: "conv1"
  top: "conv1"
}
layer {
  name: "pool1"
  type: "Pooling"
  bottom: "conv1"
  top: "pool1"
  pooling_param {
    pool: MAX
    kernel_h: 2
    kernel_w: 1
    stride_h: 2
    stride_w: 1
  }
}
layer {
  name: "conv2"
  type: "Convolution"
  bottom: "pool1"
  top: "conv2"
  convolution_param {
    num_output: 20
    pad: 0
    stride: 1
    weight_filler {
      type: "xavier"
    }
    bias_filler {
      type: "constant"
    }
    kernel_h: 7
    kernel_w: 3
  }
}
layer {
  name: "relu2"
  type: "ReLU"
  bottom: "conv2"
  top: "conv2"
}
layer {
  name: "pool2"
  type: "Pooling"
  bottom: "conv2"
  top: "pool2"
  pooling_param {
    pool: MAX
    kernel_h: 2
    kernel_w: 1
    stride_h: 2
    stride_w: 1
  }
}
layer {
  name: "conv3"
  type: "Convolution"
  bottom: "pool2"
  top: "conv3"
  convolution_param {
    num_output: 28
    pad: 0
    stride: 1
    weight_filler {
      type: "xavier"
    }
    bias_filler {
      type: "constant"
    }
    kernel_h: 6
    kernel_w: 3
  }
}
layer {
  name: "relu3"
  type: "ReLU"
  bottom: "conv3"
  top: "conv3"
}
layer {
  name: "pool3"
  type: "Pooling"
  bottom: "conv3"
  top: "pool3"
  pooling_param {
    pool: MAX
    kernel_h: 2
    kernel_w: 1
    stride_h: 2
    stride_w: 1
  }
}
layer {
  name: "conv4"
  type: "Convolution"
  bottom: "pool3"
  top: "conv4"
  convolution_param {
    num_output: 36
    pad: 0
    stride: 1
    weight_filler {
      type: "xavier"
    }
    bias_filler {
      type: "constant"
    }
    kernel_h: 6
    kernel_w: 3
  }
}
layer {
  name: "relu4"
  type: "ReLU"
  bottom: "conv4"
  top: "conv4"
}
layer {
  name: "pool4"
  type: "Pooling"
  bottom: "conv4"
  top: "pool4"
  pooling_param {
    pool: MAX
    kernel_h: 2
    kernel_w: 1
    stride_h: 2
    stride_w: 1
  }
}
layer {
  name: "ip1"
  type: "InnerProduct"
  bottom: "pool4"
  top: "ip1"
  inner_product_param {
    num_output: 196
    weight_filler {
      type: "xavier"
    }
    bias_filler {
      type: "constant"
    }
  }
}
layer {
  name: "relu5"
  type: "ReLU"
  bottom: "ip1"
  top: "ip1"
}
layer {
  name: "drop1"
  type: "Dropout"
  bottom: "ip1"
  top: "ip1"
  dropout_param {
    dropout_ratio: 0.5
  }
}
layer {
  name: "ip2"
  type: "InnerProduct"
  bottom: "ip1"
  top: "ip2"
  inner_product_param {
    num_output: 98
    weight_filler {
      type: "xavier"
    }
    bias_filler {
      type: "constant"
    }
  }
}
layer {
  name: "relu6"
  type: "ReLU"
  bottom: "ip2"
  top: "ip2"
}
layer {
  name: "drop2"
  type: "Dropout"
  bottom: "ip2"
  top: "ip2"
  dropout_param {
    dropout_ratio: 0.5
  }
}
layer {
  name: "ip3"
  type: "InnerProduct"
  bottom: "ip2"
  top: "ip3"
  inner_product_param {
    num_output: 11
    weight_filler {
      type: "xavier"
    }
    bias_filler {
      type: "constant"
    }
  }
}
layer {
  name: "drop3"
  type: "Dropout"
  bottom: "ip3"
  top: "ip3"
  dropout_param {
    dropout_ratio: 0.5
  }
}
layer {
  name: "accuracy"
  type: "Accuracy"
  bottom: "ip3"
  bottom: "label"
  top: "accuracy"
  include {
    phase: TEST
  }
}
layer {
  name: "loss"
  type: "SoftmaxWithLoss"
  bottom: "ip3"
  bottom: "label"
  top: "loss"
}
I0520 20:21:39.787943 23410 layer_factory.hpp:77] Creating layer data_hdf5
I0520 20:21:39.787962 23410 net.cpp:106] Creating Layer data_hdf5
I0520 20:21:39.787978 23410 net.cpp:411] data_hdf5 -> data
I0520 20:21:39.788000 23410 net.cpp:411] data_hdf5 -> label
I0520 20:21:39.788017 23410 hdf5_data_layer.cpp:79] Loading list of HDF5 filenames from: /lustre/atlas/proj-shared/hep105/caffe_titan/minosmatch_nukecczdefs_127x50_x_unshifted_me1Bmc.testlist
I0520 20:21:39.789286 23410 hdf5_data_layer.cpp:93] Number of HDF5 files: 3
I0520 20:22:01.115200 23410 net.cpp:150] Setting up data_hdf5
I0520 20:22:01.115370 23410 net.cpp:157] Top shape: 270 1 127 50 (1714500)
I0520 20:22:01.115388 23410 net.cpp:157] Top shape: 270 (270)
I0520 20:22:01.115401 23410 net.cpp:165] Memory required for data: 6859080
I0520 20:22:01.115416 23410 layer_factory.hpp:77] Creating layer label_data_hdf5_1_split
I0520 20:22:01.115449 23410 net.cpp:106] Creating Layer label_data_hdf5_1_split
I0520 20:22:01.115481 23410 net.cpp:454] label_data_hdf5_1_split <- label
I0520 20:22:01.115499 23410 net.cpp:411] label_data_hdf5_1_split -> label_data_hdf5_1_split_0
I0520 20:22:01.115521 23410 net.cpp:411] label_data_hdf5_1_split -> label_data_hdf5_1_split_1
I0520 20:22:01.115607 23410 net.cpp:150] Setting up label_data_hdf5_1_split
I0520 20:22:01.115624 23410 net.cpp:157] Top shape: 270 (270)
I0520 20:22:01.115640 23410 net.cpp:157] Top shape: 270 (270)
I0520 20:22:01.115663 23410 net.cpp:165] Memory required for data: 6861240
I0520 20:22:01.115674 23410 layer_factory.hpp:77] Creating layer conv1
I0520 20:22:01.115701 23410 net.cpp:106] Creating Layer conv1
I0520 20:22:01.115720 23410 net.cpp:454] conv1 <- data
I0520 20:22:01.115738 23410 net.cpp:411] conv1 -> conv1
I0520 20:22:01.117699 23410 net.cpp:150] Setting up conv1
I0520 20:22:01.117725 23410 net.cpp:157] Top shape: 270 12 120 48 (18662400)
I0520 20:22:01.117744 23410 net.cpp:165] Memory required for data: 81510840
I0520 20:22:01.117769 23410 layer_factory.hpp:77] Creating layer relu1
I0520 20:22:01.117789 23410 net.cpp:106] Creating Layer relu1
I0520 20:22:01.117812 23410 net.cpp:454] relu1 <- conv1
I0520 20:22:01.117828 23410 net.cpp:397] relu1 -> conv1 (in-place)
I0520 20:22:01.118357 23410 net.cpp:150] Setting up relu1
I0520 20:22:01.118381 23410 net.cpp:157] Top shape: 270 12 120 48 (18662400)
I0520 20:22:01.118394 23410 net.cpp:165] Memory required for data: 156160440
I0520 20:22:01.118410 23410 layer_factory.hpp:77] Creating layer pool1
I0520 20:22:01.118438 23410 net.cpp:106] Creating Layer pool1
I0520 20:22:01.118450 23410 net.cpp:454] pool1 <- conv1
I0520 20:22:01.118468 23410 net.cpp:411] pool1 -> pool1
I0520 20:22:01.118556 23410 net.cpp:150] Setting up pool1
I0520 20:22:01.118573 23410 net.cpp:157] Top shape: 270 12 60 48 (9331200)
I0520 20:22:01.118588 23410 net.cpp:165] Memory required for data: 193485240
I0520 20:22:01.118608 23410 layer_factory.hpp:77] Creating layer conv2
I0520 20:22:01.118628 23410 net.cpp:106] Creating Layer conv2
I0520 20:22:01.118649 23410 net.cpp:454] conv2 <- pool1
I0520 20:22:01.118665 23410 net.cpp:411] conv2 -> conv2
I0520 20:22:01.120614 23410 net.cpp:150] Setting up conv2
I0520 20:22:01.120638 23410 net.cpp:157] Top shape: 270 20 54 46 (13413600)
I0520 20:22:01.120659 23410 net.cpp:165] Memory required for data: 247139640
I0520 20:22:01.120681 23410 layer_factory.hpp:77] Creating layer relu2
I0520 20:22:01.120700 23410 net.cpp:106] Creating Layer relu2
I0520 20:22:01.120723 23410 net.cpp:454] relu2 <- conv2
I0520 20:22:01.120738 23410 net.cpp:397] relu2 -> conv2 (in-place)
I0520 20:22:01.121088 23410 net.cpp:150] Setting up relu2
I0520 20:22:01.121109 23410 net.cpp:157] Top shape: 270 20 54 46 (13413600)
I0520 20:22:01.121121 23410 net.cpp:165] Memory required for data: 300794040
I0520 20:22:01.121134 23410 layer_factory.hpp:77] Creating layer pool2
I0520 20:22:01.121158 23410 net.cpp:106] Creating Layer pool2
I0520 20:22:01.121171 23410 net.cpp:454] pool2 <- conv2
I0520 20:22:01.121187 23410 net.cpp:411] pool2 -> pool2
I0520 20:22:01.121274 23410 net.cpp:150] Setting up pool2
I0520 20:22:01.121296 23410 net.cpp:157] Top shape: 270 20 27 46 (6706800)
I0520 20:22:01.121309 23410 net.cpp:165] Memory required for data: 327621240
I0520 20:22:01.121323 23410 layer_factory.hpp:77] Creating layer conv3
I0520 20:22:01.121352 23410 net.cpp:106] Creating Layer conv3
I0520 20:22:01.121366 23410 net.cpp:454] conv3 <- pool2
I0520 20:22:01.121382 23410 net.cpp:411] conv3 -> conv3
I0520 20:22:01.123389 23410 net.cpp:150] Setting up conv3
I0520 20:22:01.123415 23410 net.cpp:157] Top shape: 270 28 22 44 (7318080)
I0520 20:22:01.123435 23410 net.cpp:165] Memory required for data: 356893560
I0520 20:22:01.123474 23410 layer_factory.hpp:77] Creating layer relu3
I0520 20:22:01.123499 23410 net.cpp:106] Creating Layer relu3
I0520 20:22:01.123513 23410 net.cpp:454] relu3 <- conv3
I0520 20:22:01.123530 23410 net.cpp:397] relu3 -> conv3 (in-place)
I0520 20:22:01.124027 23410 net.cpp:150] Setting up relu3
I0520 20:22:01.124050 23410 net.cpp:157] Top shape: 270 28 22 44 (7318080)
I0520 20:22:01.124063 23410 net.cpp:165] Memory required for data: 386165880
I0520 20:22:01.124079 23410 layer_factory.hpp:77] Creating layer pool3
I0520 20:22:01.124104 23410 net.cpp:106] Creating Layer pool3
I0520 20:22:01.124117 23410 net.cpp:454] pool3 <- conv3
I0520 20:22:01.124133 23410 net.cpp:411] pool3 -> pool3
I0520 20:22:01.124218 23410 net.cpp:150] Setting up pool3
I0520 20:22:01.124235 23410 net.cpp:157] Top shape: 270 28 11 44 (3659040)
I0520 20:22:01.124250 23410 net.cpp:165] Memory required for data: 400802040
I0520 20:22:01.124263 23410 layer_factory.hpp:77] Creating layer conv4
I0520 20:22:01.124290 23410 net.cpp:106] Creating Layer conv4
I0520 20:22:01.124303 23410 net.cpp:454] conv4 <- pool3
I0520 20:22:01.124320 23410 net.cpp:411] conv4 -> conv4
I0520 20:22:01.126417 23410 net.cpp:150] Setting up conv4
I0520 20:22:01.126442 23410 net.cpp:157] Top shape: 270 36 6 42 (2449440)
I0520 20:22:01.126456 23410 net.cpp:165] Memory required for data: 410599800
I0520 20:22:01.126478 23410 layer_factory.hpp:77] Creating layer relu4
I0520 20:22:01.126503 23410 net.cpp:106] Creating Layer relu4
I0520 20:22:01.126516 23410 net.cpp:454] relu4 <- conv4
I0520 20:22:01.126533 23410 net.cpp:397] relu4 -> conv4 (in-place)
I0520 20:22:01.127029 23410 net.cpp:150] Setting up relu4
I0520 20:22:01.127053 23410 net.cpp:157] Top shape: 270 36 6 42 (2449440)
I0520 20:22:01.127065 23410 net.cpp:165] Memory required for data: 420397560
I0520 20:22:01.127084 23410 layer_factory.hpp:77] Creating layer pool4
I0520 20:22:01.127107 23410 net.cpp:106] Creating Layer pool4
I0520 20:22:01.127120 23410 net.cpp:454] pool4 <- conv4
I0520 20:22:01.127137 23410 net.cpp:411] pool4 -> pool4
I0520 20:22:01.127223 23410 net.cpp:150] Setting up pool4
I0520 20:22:01.127240 23410 net.cpp:157] Top shape: 270 36 3 42 (1224720)
I0520 20:22:01.127255 23410 net.cpp:165] Memory required for data: 425296440
I0520 20:22:01.127266 23410 layer_factory.hpp:77] Creating layer ip1
I0520 20:22:01.127291 23410 net.cpp:106] Creating Layer ip1
I0520 20:22:01.127305 23410 net.cpp:454] ip1 <- pool4
I0520 20:22:01.127321 23410 net.cpp:411] ip1 -> ip1
I0520 20:22:01.142802 23410 net.cpp:150] Setting up ip1
I0520 20:22:01.142835 23410 net.cpp:157] Top shape: 270 196 (52920)
I0520 20:22:01.142856 23410 net.cpp:165] Memory required for data: 425508120
I0520 20:22:01.142882 23410 layer_factory.hpp:77] Creating layer relu5
I0520 20:22:01.142904 23410 net.cpp:106] Creating Layer relu5
I0520 20:22:01.142928 23410 net.cpp:454] relu5 <- ip1
I0520 20:22:01.142945 23410 net.cpp:397] relu5 -> ip1 (in-place)
I0520 20:22:01.143308 23410 net.cpp:150] Setting up relu5
I0520 20:22:01.143329 23410 net.cpp:157] Top shape: 270 196 (52920)
I0520 20:22:01.143342 23410 net.cpp:165] Memory required for data: 425719800
I0520 20:22:01.143357 23410 layer_factory.hpp:77] Creating layer drop1
I0520 20:22:01.143386 23410 net.cpp:106] Creating Layer drop1
I0520 20:22:01.143400 23410 net.cpp:454] drop1 <- ip1
I0520 20:22:01.143416 23410 net.cpp:397] drop1 -> ip1 (in-place)
I0520 20:22:01.143473 23410 net.cpp:150] Setting up drop1
I0520 20:22:01.143491 23410 net.cpp:157] Top shape: 270 196 (52920)
I0520 20:22:01.143502 23410 net.cpp:165] Memory required for data: 425931480
I0520 20:22:01.143515 23410 layer_factory.hpp:77] Creating layer ip2
I0520 20:22:01.143534 23410 net.cpp:106] Creating Layer ip2
I0520 20:22:01.143546 23410 net.cpp:454] ip2 <- ip1
I0520 20:22:01.143570 23410 net.cpp:411] ip2 -> ip2
I0520 20:22:01.144067 23410 net.cpp:150] Setting up ip2
I0520 20:22:01.144085 23410 net.cpp:157] Top shape: 270 98 (26460)
I0520 20:22:01.144098 23410 net.cpp:165] Memory required for data: 426037320
I0520 20:22:01.144141 23410 layer_factory.hpp:77] Creating layer relu6
I0520 20:22:01.144158 23410 net.cpp:106] Creating Layer relu6
I0520 20:22:01.144181 23410 net.cpp:454] relu6 <- ip2
I0520 20:22:01.144196 23410 net.cpp:397] relu6 -> ip2 (in-place)
I0520 20:22:01.144759 23410 net.cpp:150] Setting up relu6
I0520 20:22:01.144783 23410 net.cpp:157] Top shape: 270 98 (26460)
I0520 20:22:01.144795 23410 net.cpp:165] Memory required for data: 426143160
I0520 20:22:01.144809 23410 layer_factory.hpp:77] Creating layer drop2
I0520 20:22:01.144829 23410 net.cpp:106] Creating Layer drop2
I0520 20:22:01.144850 23410 net.cpp:454] drop2 <- ip2
I0520 20:22:01.144866 23410 net.cpp:397] drop2 -> ip2 (in-place)
I0520 20:22:01.144918 23410 net.cpp:150] Setting up drop2
I0520 20:22:01.144942 23410 net.cpp:157] Top shape: 270 98 (26460)
I0520 20:22:01.144954 23410 net.cpp:165] Memory required for data: 426249000
I0520 20:22:01.144968 23410 layer_factory.hpp:77] Creating layer ip3
I0520 20:22:01.144985 23410 net.cpp:106] Creating Layer ip3
I0520 20:22:01.145000 23410 net.cpp:454] ip3 <- ip2
I0520 20:22:01.145023 23410 net.cpp:411] ip3 -> ip3
I0520 20:22:01.145262 23410 net.cpp:150] Setting up ip3
I0520 20:22:01.145282 23410 net.cpp:157] Top shape: 270 11 (2970)
I0520 20:22:01.145294 23410 net.cpp:165] Memory required for data: 426260880
I0520 20:22:01.145315 23410 layer_factory.hpp:77] Creating layer drop3
I0520 20:22:01.145337 23410 net.cpp:106] Creating Layer drop3
I0520 20:22:01.145350 23410 net.cpp:454] drop3 <- ip3
I0520 20:22:01.145366 23410 net.cpp:397] drop3 -> ip3 (in-place)
I0520 20:22:01.145414 23410 net.cpp:150] Setting up drop3
I0520 20:22:01.145437 23410 net.cpp:157] Top shape: 270 11 (2970)
I0520 20:22:01.145449 23410 net.cpp:165] Memory required for data: 426272760
I0520 20:22:01.145463 23410 layer_factory.hpp:77] Creating layer ip3_drop3_0_split
I0520 20:22:01.145479 23410 net.cpp:106] Creating Layer ip3_drop3_0_split
I0520 20:22:01.145494 23410 net.cpp:454] ip3_drop3_0_split <- ip3
I0520 20:22:01.145515 23410 net.cpp:411] ip3_drop3_0_split -> ip3_drop3_0_split_0
I0520 20:22:01.145534 23410 net.cpp:411] ip3_drop3_0_split -> ip3_drop3_0_split_1
I0520 20:22:01.145627 23410 net.cpp:150] Setting up ip3_drop3_0_split
I0520 20:22:01.145644 23410 net.cpp:157] Top shape: 270 11 (2970)
I0520 20:22:01.145661 23410 net.cpp:157] Top shape: 270 11 (2970)
I0520 20:22:01.145673 23410 net.cpp:165] Memory required for data: 426296520
I0520 20:22:01.145689 23410 layer_factory.hpp:77] Creating layer accuracy
I0520 20:22:01.145717 23410 net.cpp:106] Creating Layer accuracy
I0520 20:22:01.145730 23410 net.cpp:454] accuracy <- ip3_drop3_0_split_0
I0520 20:22:01.145746 23410 net.cpp:454] accuracy <- label_data_hdf5_1_split_0
I0520 20:22:01.145762 23410 net.cpp:411] accuracy -> accuracy
…
