…
I0521 07:25:16.642757 19192 net.cpp:322] The NetState phase (0) differed from the phase (1) specified by a rule in layer data_hdf5
I0521 07:25:16.642817 19192 net.cpp:322] The NetState phase (0) differed from the phase (1) specified by a rule in layer accuracy
I0521 07:25:16.643162 19192 net.cpp:49] Initializing net from parameters: 
name: "caffe_test_127x50_x_unshifted"
state {
  phase: TRAIN
}
layer {
  name: "data_hdf5"
  type: "HDF5Data"
  top: "data"
  top: "label"
  include {
    phase: TRAIN
  }
  hdf5_data_param {
    source: "/lustre/atlas/proj-shared/hep105/caffe_titan/minosmatch_nukecczdefs_127x50_x_unshifted_me1Bmc.trainlist"
    batch_size: 800
  }
}
layer {
  name: "conv1"
  type: "Convolution"
  bottom: "data"
  top: "conv1"
  convolution_param {
    num_output: 12
    pad: 0
    stride: 1
    weight_filler {
      type: "xavier"
    }
    bias_filler {
      type: "constant"
    }
    kernel_h: 8
    kernel_w: 3
  }
}
layer {
  name: "relu1"
  type: "ReLU"
  bottom: "conv1"
  top: "conv1"
}
layer {
  name: "pool1"
  type: "Pooling"
  bottom: "conv1"
  top: "pool1"
  pooling_param {
    pool: MAX
    kernel_h: 2
    kernel_w: 1
    stride_h: 2
    stride_w: 1
  }
}
layer {
  name: "conv2"
  type: "Convolution"
  bottom: "pool1"
  top: "conv2"
  convolution_param {
    num_output: 20
    pad: 0
    stride: 1
    weight_filler {
      type: "xavier"
    }
    bias_filler {
      type: "constant"
    }
    kernel_h: 7
    kernel_w: 3
  }
}
layer {
  name: "relu2"
  type: "ReLU"
  bottom: "conv2"
  top: "conv2"
}
layer {
  name: "pool2"
  type: "Pooling"
  bottom: "conv2"
  top: "pool2"
  pooling_param {
    pool: MAX
    kernel_h: 2
    kernel_w: 1
    stride_h: 2
    stride_w: 1
  }
}
layer {
  name: "conv3"
  type: "Convolution"
  bottom: "pool2"
  top: "conv3"
  convolution_param {
    num_output: 28
    pad: 0
    stride: 1
    weight_filler {
      type: "xavier"
    }
    bias_filler {
      type: "constant"
    }
    kernel_h: 6
    kernel_w: 3
  }
}
layer {
  name: "relu3"
  type: "ReLU"
  bottom: "conv3"
  top: "conv3"
}
layer {
  name: "pool3"
  type: "Pooling"
  bottom: "conv3"
  top: "pool3"
  pooling_param {
    pool: MAX
    kernel_h: 2
    kernel_w: 1
    stride_h: 2
    stride_w: 1
  }
}
layer {
  name: "conv4"
  type: "Convolution"
  bottom: "pool3"
  top: "conv4"
  convolution_param {
    num_output: 36
    pad: 0
    stride: 1
    weight_filler {
      type: "xavier"
    }
    bias_filler {
      type: "constant"
    }
    kernel_h: 6
    kernel_w: 3
  }
}
layer {
  name: "relu4"
  type: "ReLU"
  bottom: "conv4"
  top: "conv4"
}
layer {
  name: "pool4"
  type: "Pooling"
  bottom: "conv4"
  top: "pool4"
  pooling_param {
    pool: MAX
    kernel_h: 2
    kernel_w: 1
    stride_h: 2
    stride_w: 1
  }
}
layer {
  name: "ip1"
  type: "InnerProduct"
  bottom: "pool4"
  top: "ip1"
  inner_product_param {
    num_output: 196
    weight_filler {
      type: "xavier"
    }
    bias_filler {
      type: "constant"
    }
  }
}
layer {
  name: "relu5"
  type: "ReLU"
  bottom: "ip1"
  top: "ip1"
}
layer {
  name: "drop1"
  type: "Dropout"
  bottom: "ip1"
  top: "ip1"
  dropout_param {
    dropout_ratio: 0.5
  }
}
layer {
  name: "ip2"
  type: "InnerProduct"
  bottom: "ip1"
  top: "ip2"
  inner_product_param {
    num_output: 98
    weight_filler {
      type: "xavier"
    }
    bias_filler {
      type: "constant"
    }
  }
}
layer {
  name: "relu6"
  type: "ReLU"
  bottom: "ip2"
  top: "ip2"
}
layer {
  name: "drop2"
  type: "Dropout"
  bottom: "ip2"
  top: "ip2"
  dropout_param {
    dropout_ratio: 0.5
  }
}
layer {
  name: "ip3"
  type: "InnerProduct"
  bottom: "ip2"
  top: "ip3"
  inner_product_param {
    num_output: 11
    weight_filler {
      type: "xavier"
    }
    bias_filler {
      type: "constant"
    }
  }
}
layer {
  name: "drop3"
  type: "Dropout"
  bottom: "ip3"
  top: "ip3"
  dropout_param {
    dropout_ratio: 0.5
  }
}
layer {
  name: "loss"
  type: "SoftmaxWithLoss"
  bottom: "ip3"
  bottom: "label"
  top: "loss"
}
I0521 07:25:16.643344 19192 layer_factory.hpp:77] Creating layer data_hdf5
I0521 07:25:16.643368 19192 net.cpp:106] Creating Layer data_hdf5
I0521 07:25:16.643383 19192 net.cpp:411] data_hdf5 -> data
I0521 07:25:16.643416 19192 net.cpp:411] data_hdf5 -> label
I0521 07:25:16.643448 19192 hdf5_data_layer.cpp:79] Loading list of HDF5 filenames from: /lustre/atlas/proj-shared/hep105/caffe_titan/minosmatch_nukecczdefs_127x50_x_unshifted_me1Bmc.trainlist
I0521 07:25:16.644958 19192 hdf5_data_layer.cpp:93] Number of HDF5 files: 15
I0521 07:25:16.647130 19192 hdf5.cpp:32] Datatype class: H5T_FLOAT
I0521 07:25:38.185999 19192 hdf5.cpp:35] Datatype class: H5T_INTEGER
I0521 07:25:38.191143 19192 net.cpp:150] Setting up data_hdf5
I0521 07:25:38.191184 19192 net.cpp:157] Top shape: 800 1 127 50 (5080000)
I0521 07:25:38.191198 19192 net.cpp:157] Top shape: 800 (800)
I0521 07:25:38.191210 19192 net.cpp:165] Memory required for data: 20323200
I0521 07:25:38.191222 19192 layer_factory.hpp:77] Creating layer conv1
I0521 07:25:38.191257 19192 net.cpp:106] Creating Layer conv1
I0521 07:25:38.191268 19192 net.cpp:454] conv1 <- data
I0521 07:25:38.191289 19192 net.cpp:411] conv1 -> conv1
I0521 07:25:38.697312 19192 net.cpp:150] Setting up conv1
I0521 07:25:38.697360 19192 net.cpp:157] Top shape: 800 12 120 48 (55296000)
I0521 07:25:38.697371 19192 net.cpp:165] Memory required for data: 241507200
I0521 07:25:38.697398 19192 layer_factory.hpp:77] Creating layer relu1
I0521 07:25:38.697420 19192 net.cpp:106] Creating Layer relu1
I0521 07:25:38.697432 19192 net.cpp:454] relu1 <- conv1
I0521 07:25:38.697445 19192 net.cpp:397] relu1 -> conv1 (in-place)
I0521 07:25:38.697963 19192 net.cpp:150] Setting up relu1
I0521 07:25:38.697980 19192 net.cpp:157] Top shape: 800 12 120 48 (55296000)
I0521 07:25:38.697991 19192 net.cpp:165] Memory required for data: 462691200
I0521 07:25:38.698002 19192 layer_factory.hpp:77] Creating layer pool1
I0521 07:25:38.698019 19192 net.cpp:106] Creating Layer pool1
I0521 07:25:38.698029 19192 net.cpp:454] pool1 <- conv1
I0521 07:25:38.698041 19192 net.cpp:411] pool1 -> pool1
I0521 07:25:38.698122 19192 net.cpp:150] Setting up pool1
I0521 07:25:38.698135 19192 net.cpp:157] Top shape: 800 12 60 48 (27648000)
I0521 07:25:38.698145 19192 net.cpp:165] Memory required for data: 573283200
I0521 07:25:38.698153 19192 layer_factory.hpp:77] Creating layer conv2
I0521 07:25:38.698176 19192 net.cpp:106] Creating Layer conv2
I0521 07:25:38.698186 19192 net.cpp:454] conv2 <- pool1
I0521 07:25:38.698199 19192 net.cpp:411] conv2 -> conv2
I0521 07:25:38.700882 19192 net.cpp:150] Setting up conv2
I0521 07:25:38.700911 19192 net.cpp:157] Top shape: 800 20 54 46 (39744000)
I0521 07:25:38.700922 19192 net.cpp:165] Memory required for data: 732259200
I0521 07:25:38.700940 19192 layer_factory.hpp:77] Creating layer relu2
I0521 07:25:38.700954 19192 net.cpp:106] Creating Layer relu2
I0521 07:25:38.700964 19192 net.cpp:454] relu2 <- conv2
I0521 07:25:38.700976 19192 net.cpp:397] relu2 -> conv2 (in-place)
I0521 07:25:38.701308 19192 net.cpp:150] Setting up relu2
I0521 07:25:38.701321 19192 net.cpp:157] Top shape: 800 20 54 46 (39744000)
I0521 07:25:38.701333 19192 net.cpp:165] Memory required for data: 891235200
I0521 07:25:38.701342 19192 layer_factory.hpp:77] Creating layer pool2
I0521 07:25:38.701355 19192 net.cpp:106] Creating Layer pool2
I0521 07:25:38.701365 19192 net.cpp:454] pool2 <- conv2
I0521 07:25:38.701390 19192 net.cpp:411] pool2 -> pool2
I0521 07:25:38.701458 19192 net.cpp:150] Setting up pool2
I0521 07:25:38.701472 19192 net.cpp:157] Top shape: 800 20 27 46 (19872000)
I0521 07:25:38.701481 19192 net.cpp:165] Memory required for data: 970723200
I0521 07:25:38.701491 19192 layer_factory.hpp:77] Creating layer conv3
I0521 07:25:38.701509 19192 net.cpp:106] Creating Layer conv3
I0521 07:25:38.701520 19192 net.cpp:454] conv3 <- pool2
I0521 07:25:38.701534 19192 net.cpp:411] conv3 -> conv3
I0521 07:25:38.703443 19192 net.cpp:150] Setting up conv3
I0521 07:25:38.703466 19192 net.cpp:157] Top shape: 800 28 22 44 (21683200)
I0521 07:25:38.703479 19192 net.cpp:165] Memory required for data: 1057456000
I0521 07:25:38.703496 19192 layer_factory.hpp:77] Creating layer relu3
I0521 07:25:38.703512 19192 net.cpp:106] Creating Layer relu3
I0521 07:25:38.703522 19192 net.cpp:454] relu3 <- conv3
I0521 07:25:38.703536 19192 net.cpp:397] relu3 -> conv3 (in-place)
I0521 07:25:38.704015 19192 net.cpp:150] Setting up relu3
I0521 07:25:38.704031 19192 net.cpp:157] Top shape: 800 28 22 44 (21683200)
I0521 07:25:38.704041 19192 net.cpp:165] Memory required for data: 1144188800
I0521 07:25:38.704052 19192 layer_factory.hpp:77] Creating layer pool3
I0521 07:25:38.704066 19192 net.cpp:106] Creating Layer pool3
I0521 07:25:38.704076 19192 net.cpp:454] pool3 <- conv3
I0521 07:25:38.704088 19192 net.cpp:411] pool3 -> pool3
I0521 07:25:38.704155 19192 net.cpp:150] Setting up pool3
I0521 07:25:38.704169 19192 net.cpp:157] Top shape: 800 28 11 44 (10841600)
I0521 07:25:38.704179 19192 net.cpp:165] Memory required for data: 1187555200
I0521 07:25:38.704188 19192 layer_factory.hpp:77] Creating layer conv4
I0521 07:25:38.704205 19192 net.cpp:106] Creating Layer conv4
I0521 07:25:38.704216 19192 net.cpp:454] conv4 <- pool3
I0521 07:25:38.704231 19192 net.cpp:411] conv4 -> conv4
I0521 07:25:38.706956 19192 net.cpp:150] Setting up conv4
I0521 07:25:38.706984 19192 net.cpp:157] Top shape: 800 36 6 42 (7257600)
I0521 07:25:38.706995 19192 net.cpp:165] Memory required for data: 1216585600
I0521 07:25:38.707010 19192 layer_factory.hpp:77] Creating layer relu4
I0521 07:25:38.707023 19192 net.cpp:106] Creating Layer relu4
I0521 07:25:38.707033 19192 net.cpp:454] relu4 <- conv4
I0521 07:25:38.707046 19192 net.cpp:397] relu4 -> conv4 (in-place)
I0521 07:25:38.707507 19192 net.cpp:150] Setting up relu4
I0521 07:25:38.707523 19192 net.cpp:157] Top shape: 800 36 6 42 (7257600)
I0521 07:25:38.707535 19192 net.cpp:165] Memory required for data: 1245616000
I0521 07:25:38.707545 19192 layer_factory.hpp:77] Creating layer pool4
I0521 07:25:38.707557 19192 net.cpp:106] Creating Layer pool4
I0521 07:25:38.707567 19192 net.cpp:454] pool4 <- conv4
I0521 07:25:38.707581 19192 net.cpp:411] pool4 -> pool4
I0521 07:25:38.707648 19192 net.cpp:150] Setting up pool4
I0521 07:25:38.707661 19192 net.cpp:157] Top shape: 800 36 3 42 (3628800)
I0521 07:25:38.707672 19192 net.cpp:165] Memory required for data: 1260131200
I0521 07:25:38.707682 19192 layer_factory.hpp:77] Creating layer ip1
I0521 07:25:38.707702 19192 net.cpp:106] Creating Layer ip1
I0521 07:25:38.707713 19192 net.cpp:454] ip1 <- pool4
I0521 07:25:38.707726 19192 net.cpp:411] ip1 -> ip1
I0521 07:25:38.723183 19192 net.cpp:150] Setting up ip1
I0521 07:25:38.723213 19192 net.cpp:157] Top shape: 800 196 (156800)
I0521 07:25:38.723225 19192 net.cpp:165] Memory required for data: 1260758400
I0521 07:25:38.723248 19192 layer_factory.hpp:77] Creating layer relu5
I0521 07:25:38.723263 19192 net.cpp:106] Creating Layer relu5
I0521 07:25:38.723273 19192 net.cpp:454] relu5 <- ip1
I0521 07:25:38.723286 19192 net.cpp:397] relu5 -> ip1 (in-place)
I0521 07:25:38.723629 19192 net.cpp:150] Setting up relu5
I0521 07:25:38.723644 19192 net.cpp:157] Top shape: 800 196 (156800)
I0521 07:25:38.723654 19192 net.cpp:165] Memory required for data: 1261385600
I0521 07:25:38.723664 19192 layer_factory.hpp:77] Creating layer drop1
I0521 07:25:38.723685 19192 net.cpp:106] Creating Layer drop1
I0521 07:25:38.723696 19192 net.cpp:454] drop1 <- ip1
I0521 07:25:38.723721 19192 net.cpp:397] drop1 -> ip1 (in-place)
I0521 07:25:38.723768 19192 net.cpp:150] Setting up drop1
I0521 07:25:38.723781 19192 net.cpp:157] Top shape: 800 196 (156800)
I0521 07:25:38.723791 19192 net.cpp:165] Memory required for data: 1262012800
I0521 07:25:38.723801 19192 layer_factory.hpp:77] Creating layer ip2
I0521 07:25:38.723826 19192 net.cpp:106] Creating Layer ip2
I0521 07:25:38.723837 19192 net.cpp:454] ip2 <- ip1
I0521 07:25:38.723850 19192 net.cpp:411] ip2 -> ip2
I0521 07:25:38.724315 19192 net.cpp:150] Setting up ip2
I0521 07:25:38.724328 19192 net.cpp:157] Top shape: 800 98 (78400)
I0521 07:25:38.724339 19192 net.cpp:165] Memory required for data: 1262326400
I0521 07:25:38.724354 19192 layer_factory.hpp:77] Creating layer relu6
I0521 07:25:38.724366 19192 net.cpp:106] Creating Layer relu6
I0521 07:25:38.724376 19192 net.cpp:454] relu6 <- ip2
I0521 07:25:38.724387 19192 net.cpp:397] relu6 -> ip2 (in-place)
I0521 07:25:38.724908 19192 net.cpp:150] Setting up relu6
I0521 07:25:38.724925 19192 net.cpp:157] Top shape: 800 98 (78400)
I0521 07:25:38.724934 19192 net.cpp:165] Memory required for data: 1262640000
I0521 07:25:38.724946 19192 layer_factory.hpp:77] Creating layer drop2
I0521 07:25:38.724957 19192 net.cpp:106] Creating Layer drop2
I0521 07:25:38.724967 19192 net.cpp:454] drop2 <- ip2
I0521 07:25:38.724980 19192 net.cpp:397] drop2 -> ip2 (in-place)
I0521 07:25:38.725023 19192 net.cpp:150] Setting up drop2
I0521 07:25:38.725035 19192 net.cpp:157] Top shape: 800 98 (78400)
I0521 07:25:38.725046 19192 net.cpp:165] Memory required for data: 1262953600
I0521 07:25:38.725055 19192 layer_factory.hpp:77] Creating layer ip3
I0521 07:25:38.725069 19192 net.cpp:106] Creating Layer ip3
I0521 07:25:38.725080 19192 net.cpp:454] ip3 <- ip2
I0521 07:25:38.725092 19192 net.cpp:411] ip3 -> ip3
I0521 07:25:38.725302 19192 net.cpp:150] Setting up ip3
I0521 07:25:38.725316 19192 net.cpp:157] Top shape: 800 11 (8800)
I0521 07:25:38.725325 19192 net.cpp:165] Memory required for data: 1262988800
I0521 07:25:38.725342 19192 layer_factory.hpp:77] Creating layer drop3
I0521 07:25:38.725353 19192 net.cpp:106] Creating Layer drop3
I0521 07:25:38.725363 19192 net.cpp:454] drop3 <- ip3
I0521 07:25:38.725374 19192 net.cpp:397] drop3 -> ip3 (in-place)
I0521 07:25:38.725414 19192 net.cpp:150] Setting up drop3
I0521 07:25:38.725427 19192 net.cpp:157] Top shape: 800 11 (8800)
I0521 07:25:38.725437 19192 net.cpp:165] Memory required for data: 1263024000
I0521 07:25:38.725447 19192 layer_factory.hpp:77] Creating layer loss
I0521 07:25:38.725466 19192 net.cpp:106] Creating Layer loss
I0521 07:25:38.725476 19192 net.cpp:454] loss <- ip3
I0521 07:25:38.725487 19192 net.cpp:454] loss <- label
I0521 07:25:38.725499 19192 net.cpp:411] loss -> loss
I0521 07:25:38.725517 19192 layer_factory.hpp:77] Creating layer loss
…
I0521 07:25:38.728088 19192 solver.cpp:181] Creating test net (#0) specified by net file: /lustre/atlas/proj-shared/hep105/caffe_titan/caffe_workflow/logs_batch_size_test/batch_size_800_2016-05-20T11.21.01.844006.prototxt
I0521 07:25:38.728160 19192 net.cpp:322] The NetState phase (1) differed from the phase (0) specified by a rule in layer data_hdf5
I0521 07:25:38.728515 19192 net.cpp:49] Initializing net from parameters: 
name: "caffe_test_127x50_x_unshifted"
state {
  phase: TEST
}
layer {
  name: "data_hdf5"
  type: "HDF5Data"
  top: "data"
  top: "label"
  include {
    phase: TEST
  }
  hdf5_data_param {
    source: "/lustre/atlas/proj-shared/hep105/caffe_titan/minosmatch_nukecczdefs_127x50_x_unshifted_me1Bmc.testlist"
    batch_size: 800
  }
}
layer {
  name: "conv1"
  type: "Convolution"
  bottom: "data"
  top: "conv1"
  convolution_param {
    num_output: 12
    pad: 0
    stride: 1
    weight_filler {
      type: "xavier"
    }
    bias_filler {
      type: "constant"
    }
    kernel_h: 8
    kernel_w: 3
  }
}
layer {
  name: "relu1"
  type: "ReLU"
  bottom: "conv1"
  top: "conv1"
}
layer {
  name: "pool1"
  type: "Pooling"
  bottom: "conv1"
  top: "pool1"
  pooling_param {
    pool: MAX
    kernel_h: 2
    kernel_w: 1
    stride_h: 2
    stride_w: 1
  }
}
layer {
  name: "conv2"
  type: "Convolution"
  bottom: "pool1"
  top: "conv2"
  convolution_param {
    num_output: 20
    pad: 0
    stride: 1
    weight_filler {
      type: "xavier"
    }
    bias_filler {
      type: "constant"
    }
    kernel_h: 7
    kernel_w: 3
  }
}
layer {
  name: "relu2"
  type: "ReLU"
  bottom: "conv2"
  top: "conv2"
}
layer {
  name: "pool2"
  type: "Pooling"
  bottom: "conv2"
  top: "pool2"
  pooling_param {
    pool: MAX
    kernel_h: 2
    kernel_w: 1
    stride_h: 2
    stride_w: 1
  }
}
layer {
  name: "conv3"
  type: "Convolution"
  bottom: "pool2"
  top: "conv3"
  convolution_param {
    num_output: 28
    pad: 0
    stride: 1
    weight_filler {
      type: "xavier"
    }
    bias_filler {
      type: "constant"
    }
    kernel_h: 6
    kernel_w: 3
  }
}
layer {
  name: "relu3"
  type: "ReLU"
  bottom: "conv3"
  top: "conv3"
}
layer {
  name: "pool3"
  type: "Pooling"
  bottom: "conv3"
  top: "pool3"
  pooling_param {
    pool: MAX
    kernel_h: 2
    kernel_w: 1
    stride_h: 2
    stride_w: 1
  }
}
layer {
  name: "conv4"
  type: "Convolution"
  bottom: "pool3"
  top: "conv4"
  convolution_param {
    num_output: 36
    pad: 0
    stride: 1
    weight_filler {
      type: "xavier"
    }
    bias_filler {
      type: "constant"
    }
    kernel_h: 6
    kernel_w: 3
  }
}
layer {
  name: "relu4"
  type: "ReLU"
  bottom: "conv4"
  top: "conv4"
}
layer {
  name: "pool4"
  type: "Pooling"
  bottom: "conv4"
  top: "pool4"
  pooling_param {
    pool: MAX
    kernel_h: 2
    kernel_w: 1
    stride_h: 2
    stride_w: 1
  }
}
layer {
  name: "ip1"
  type: "InnerProduct"
  bottom: "pool4"
  top: "ip1"
  inner_product_param {
    num_output: 196
    weight_filler {
      type: "xavier"
    }
    bias_filler {
      type: "constant"
    }
  }
}
layer {
  name: "relu5"
  type: "ReLU"
  bottom: "ip1"
  top: "ip1"
}
layer {
  name: "drop1"
  type: "Dropout"
  bottom: "ip1"
  top: "ip1"
  dropout_param {
    dropout_ratio: 0.5
  }
}
layer {
  name: "ip2"
  type: "InnerProduct"
  bottom: "ip1"
  top: "ip2"
  inner_product_param {
    num_output: 98
    weight_filler {
      type: "xavier"
    }
    bias_filler {
      type: "constant"
    }
  }
}
layer {
  name: "relu6"
  type: "ReLU"
  bottom: "ip2"
  top: "ip2"
}
layer {
  name: "drop2"
  type: "Dropout"
  bottom: "ip2"
  top: "ip2"
  dropout_param {
    dropout_ratio: 0.5
  }
}
layer {
  name: "ip3"
  type: "InnerProduct"
  bottom: "ip2"
  top: "ip3"
  inner_product_param {
    num_output: 11
    weight_filler {
      type: "xavier"
    }
    bias_filler {
      type: "constant"
    }
  }
}
layer {
  name: "drop3"
  type: "Dropout"
  bottom: "ip3"
  top: "ip3"
  dropout_param {
    dropout_ratio: 0.5
  }
}
layer {
  name: "accuracy"
  type: "Accuracy"
  bottom: "ip3"
  bottom: "label"
  top: "accuracy"
  include {
    phase: TEST
  }
}
layer {
  name: "loss"
  type: "SoftmaxWithLoss"
  bottom: "ip3"
  bottom: "label"
  top: "loss"
}
I0521 07:25:38.728704 19192 layer_factory.hpp:77] Creating layer data_hdf5
I0521 07:25:38.728719 19192 net.cpp:106] Creating Layer data_hdf5
I0521 07:25:38.728731 19192 net.cpp:411] data_hdf5 -> data
I0521 07:25:38.728747 19192 net.cpp:411] data_hdf5 -> label
I0521 07:25:38.728763 19192 hdf5_data_layer.cpp:79] Loading list of HDF5 filenames from: /lustre/atlas/proj-shared/hep105/caffe_titan/minosmatch_nukecczdefs_127x50_x_unshifted_me1Bmc.testlist
I0521 07:25:38.730120 19192 hdf5_data_layer.cpp:93] Number of HDF5 files: 3
I0521 07:26:00.065970 19192 net.cpp:150] Setting up data_hdf5
I0521 07:26:00.066107 19192 net.cpp:157] Top shape: 800 1 127 50 (5080000)
I0521 07:26:00.066121 19192 net.cpp:157] Top shape: 800 (800)
I0521 07:26:00.066133 19192 net.cpp:165] Memory required for data: 20323200
I0521 07:26:00.066148 19192 layer_factory.hpp:77] Creating layer label_data_hdf5_1_split
I0521 07:26:00.066175 19192 net.cpp:106] Creating Layer label_data_hdf5_1_split
I0521 07:26:00.066186 19192 net.cpp:454] label_data_hdf5_1_split <- label
I0521 07:26:00.066200 19192 net.cpp:411] label_data_hdf5_1_split -> label_data_hdf5_1_split_0
I0521 07:26:00.066222 19192 net.cpp:411] label_data_hdf5_1_split -> label_data_hdf5_1_split_1
I0521 07:26:00.066295 19192 net.cpp:150] Setting up label_data_hdf5_1_split
I0521 07:26:00.066309 19192 net.cpp:157] Top shape: 800 (800)
I0521 07:26:00.066321 19192 net.cpp:157] Top shape: 800 (800)
I0521 07:26:00.066329 19192 net.cpp:165] Memory required for data: 20329600
I0521 07:26:00.066336 19192 layer_factory.hpp:77] Creating layer conv1
I0521 07:26:00.066356 19192 net.cpp:106] Creating Layer conv1
I0521 07:26:00.066367 19192 net.cpp:454] conv1 <- data
I0521 07:26:00.066382 19192 net.cpp:411] conv1 -> conv1
I0521 07:26:00.068326 19192 net.cpp:150] Setting up conv1
I0521 07:26:00.068351 19192 net.cpp:157] Top shape: 800 12 120 48 (55296000)
I0521 07:26:00.068363 19192 net.cpp:165] Memory required for data: 241513600
I0521 07:26:00.068382 19192 layer_factory.hpp:77] Creating layer relu1
I0521 07:26:00.068397 19192 net.cpp:106] Creating Layer relu1
I0521 07:26:00.068408 19192 net.cpp:454] relu1 <- conv1
I0521 07:26:00.068420 19192 net.cpp:397] relu1 -> conv1 (in-place)
I0521 07:26:00.068918 19192 net.cpp:150] Setting up relu1
I0521 07:26:00.068935 19192 net.cpp:157] Top shape: 800 12 120 48 (55296000)
I0521 07:26:00.068945 19192 net.cpp:165] Memory required for data: 462697600
I0521 07:26:00.068956 19192 layer_factory.hpp:77] Creating layer pool1
I0521 07:26:00.068972 19192 net.cpp:106] Creating Layer pool1
I0521 07:26:00.068982 19192 net.cpp:454] pool1 <- conv1
I0521 07:26:00.068995 19192 net.cpp:411] pool1 -> pool1
I0521 07:26:00.069070 19192 net.cpp:150] Setting up pool1
I0521 07:26:00.069083 19192 net.cpp:157] Top shape: 800 12 60 48 (27648000)
I0521 07:26:00.069093 19192 net.cpp:165] Memory required for data: 573289600
I0521 07:26:00.069103 19192 layer_factory.hpp:77] Creating layer conv2
I0521 07:26:00.069121 19192 net.cpp:106] Creating Layer conv2
I0521 07:26:00.069131 19192 net.cpp:454] conv2 <- pool1
I0521 07:26:00.069146 19192 net.cpp:411] conv2 -> conv2
I0521 07:26:00.071045 19192 net.cpp:150] Setting up conv2
I0521 07:26:00.071069 19192 net.cpp:157] Top shape: 800 20 54 46 (39744000)
I0521 07:26:00.071080 19192 net.cpp:165] Memory required for data: 732265600
I0521 07:26:00.071099 19192 layer_factory.hpp:77] Creating layer relu2
I0521 07:26:00.071112 19192 net.cpp:106] Creating Layer relu2
I0521 07:26:00.071122 19192 net.cpp:454] relu2 <- conv2
I0521 07:26:00.071135 19192 net.cpp:397] relu2 -> conv2 (in-place)
I0521 07:26:00.071467 19192 net.cpp:150] Setting up relu2
I0521 07:26:00.071481 19192 net.cpp:157] Top shape: 800 20 54 46 (39744000)
I0521 07:26:00.071491 19192 net.cpp:165] Memory required for data: 891241600
I0521 07:26:00.071502 19192 layer_factory.hpp:77] Creating layer pool2
I0521 07:26:00.071516 19192 net.cpp:106] Creating Layer pool2
I0521 07:26:00.071526 19192 net.cpp:454] pool2 <- conv2
I0521 07:26:00.071537 19192 net.cpp:411] pool2 -> pool2
I0521 07:26:00.071609 19192 net.cpp:150] Setting up pool2
I0521 07:26:00.071621 19192 net.cpp:157] Top shape: 800 20 27 46 (19872000)
I0521 07:26:00.071631 19192 net.cpp:165] Memory required for data: 970729600
I0521 07:26:00.071641 19192 layer_factory.hpp:77] Creating layer conv3
I0521 07:26:00.071658 19192 net.cpp:106] Creating Layer conv3
I0521 07:26:00.071668 19192 net.cpp:454] conv3 <- pool2
I0521 07:26:00.071683 19192 net.cpp:411] conv3 -> conv3
I0521 07:26:00.073670 19192 net.cpp:150] Setting up conv3
I0521 07:26:00.073694 19192 net.cpp:157] Top shape: 800 28 22 44 (21683200)
I0521 07:26:00.073704 19192 net.cpp:165] Memory required for data: 1057462400
I0521 07:26:00.073736 19192 layer_factory.hpp:77] Creating layer relu3
I0521 07:26:00.073750 19192 net.cpp:106] Creating Layer relu3
I0521 07:26:00.073760 19192 net.cpp:454] relu3 <- conv3
I0521 07:26:00.073773 19192 net.cpp:397] relu3 -> conv3 (in-place)
I0521 07:26:00.074246 19192 net.cpp:150] Setting up relu3
I0521 07:26:00.074262 19192 net.cpp:157] Top shape: 800 28 22 44 (21683200)
I0521 07:26:00.074273 19192 net.cpp:165] Memory required for data: 1144195200
I0521 07:26:00.074285 19192 layer_factory.hpp:77] Creating layer pool3
I0521 07:26:00.074297 19192 net.cpp:106] Creating Layer pool3
I0521 07:26:00.074307 19192 net.cpp:454] pool3 <- conv3
I0521 07:26:00.074321 19192 net.cpp:411] pool3 -> pool3
I0521 07:26:00.074391 19192 net.cpp:150] Setting up pool3
I0521 07:26:00.074405 19192 net.cpp:157] Top shape: 800 28 11 44 (10841600)
I0521 07:26:00.074414 19192 net.cpp:165] Memory required for data: 1187561600
I0521 07:26:00.074425 19192 layer_factory.hpp:77] Creating layer conv4
I0521 07:26:00.074442 19192 net.cpp:106] Creating Layer conv4
I0521 07:26:00.074453 19192 net.cpp:454] conv4 <- pool3
I0521 07:26:00.074467 19192 net.cpp:411] conv4 -> conv4
I0521 07:26:00.076529 19192 net.cpp:150] Setting up conv4
I0521 07:26:00.076551 19192 net.cpp:157] Top shape: 800 36 6 42 (7257600)
I0521 07:26:00.076565 19192 net.cpp:165] Memory required for data: 1216592000
I0521 07:26:00.076580 19192 layer_factory.hpp:77] Creating layer relu4
I0521 07:26:00.076593 19192 net.cpp:106] Creating Layer relu4
I0521 07:26:00.076602 19192 net.cpp:454] relu4 <- conv4
I0521 07:26:00.076616 19192 net.cpp:397] relu4 -> conv4 (in-place)
I0521 07:26:00.077086 19192 net.cpp:150] Setting up relu4
I0521 07:26:00.077102 19192 net.cpp:157] Top shape: 800 36 6 42 (7257600)
I0521 07:26:00.077112 19192 net.cpp:165] Memory required for data: 1245622400
I0521 07:26:00.077123 19192 layer_factory.hpp:77] Creating layer pool4
I0521 07:26:00.077136 19192 net.cpp:106] Creating Layer pool4
I0521 07:26:00.077145 19192 net.cpp:454] pool4 <- conv4
I0521 07:26:00.077159 19192 net.cpp:411] pool4 -> pool4
I0521 07:26:00.077230 19192 net.cpp:150] Setting up pool4
I0521 07:26:00.077244 19192 net.cpp:157] Top shape: 800 36 3 42 (3628800)
I0521 07:26:00.077255 19192 net.cpp:165] Memory required for data: 1260137600
I0521 07:26:00.077265 19192 layer_factory.hpp:77] Creating layer ip1
I0521 07:26:00.077280 19192 net.cpp:106] Creating Layer ip1
I0521 07:26:00.077291 19192 net.cpp:454] ip1 <- pool4
I0521 07:26:00.077303 19192 net.cpp:411] ip1 -> ip1
I0521 07:26:00.092803 19192 net.cpp:150] Setting up ip1
I0521 07:26:00.092831 19192 net.cpp:157] Top shape: 800 196 (156800)
I0521 07:26:00.092844 19192 net.cpp:165] Memory required for data: 1260764800
I0521 07:26:00.092865 19192 layer_factory.hpp:77] Creating layer relu5
I0521 07:26:00.092880 19192 net.cpp:106] Creating Layer relu5
I0521 07:26:00.092891 19192 net.cpp:454] relu5 <- ip1
I0521 07:26:00.092905 19192 net.cpp:397] relu5 -> ip1 (in-place)
I0521 07:26:00.093250 19192 net.cpp:150] Setting up relu5
I0521 07:26:00.093266 19192 net.cpp:157] Top shape: 800 196 (156800)
I0521 07:26:00.093276 19192 net.cpp:165] Memory required for data: 1261392000
I0521 07:26:00.093286 19192 layer_factory.hpp:77] Creating layer drop1
I0521 07:26:00.093304 19192 net.cpp:106] Creating Layer drop1
I0521 07:26:00.093314 19192 net.cpp:454] drop1 <- ip1
I0521 07:26:00.093330 19192 net.cpp:397] drop1 -> ip1 (in-place)
I0521 07:26:00.093375 19192 net.cpp:150] Setting up drop1
I0521 07:26:00.093389 19192 net.cpp:157] Top shape: 800 196 (156800)
I0521 07:26:00.093399 19192 net.cpp:165] Memory required for data: 1262019200
I0521 07:26:00.093407 19192 layer_factory.hpp:77] Creating layer ip2
I0521 07:26:00.093423 19192 net.cpp:106] Creating Layer ip2
I0521 07:26:00.093433 19192 net.cpp:454] ip2 <- ip1
I0521 07:26:00.093446 19192 net.cpp:411] ip2 -> ip2
I0521 07:26:00.093924 19192 net.cpp:150] Setting up ip2
I0521 07:26:00.093938 19192 net.cpp:157] Top shape: 800 98 (78400)
I0521 07:26:00.093948 19192 net.cpp:165] Memory required for data: 1262332800
I0521 07:26:00.093976 19192 layer_factory.hpp:77] Creating layer relu6
I0521 07:26:00.093989 19192 net.cpp:106] Creating Layer relu6
I0521 07:26:00.093999 19192 net.cpp:454] relu6 <- ip2
I0521 07:26:00.094012 19192 net.cpp:397] relu6 -> ip2 (in-place)
I0521 07:26:00.094542 19192 net.cpp:150] Setting up relu6
I0521 07:26:00.094558 19192 net.cpp:157] Top shape: 800 98 (78400)
I0521 07:26:00.094568 19192 net.cpp:165] Memory required for data: 1262646400
I0521 07:26:00.094578 19192 layer_factory.hpp:77] Creating layer drop2
I0521 07:26:00.094593 19192 net.cpp:106] Creating Layer drop2
I0521 07:26:00.094602 19192 net.cpp:454] drop2 <- ip2
I0521 07:26:00.094616 19192 net.cpp:397] drop2 -> ip2 (in-place)
I0521 07:26:00.094660 19192 net.cpp:150] Setting up drop2
I0521 07:26:00.094672 19192 net.cpp:157] Top shape: 800 98 (78400)
I0521 07:26:00.094682 19192 net.cpp:165] Memory required for data: 1262960000
I0521 07:26:00.094693 19192 layer_factory.hpp:77] Creating layer ip3
I0521 07:26:00.094707 19192 net.cpp:106] Creating Layer ip3
I0521 07:26:00.094717 19192 net.cpp:454] ip3 <- ip2
I0521 07:26:00.094732 19192 net.cpp:411] ip3 -> ip3
I0521 07:26:00.094954 19192 net.cpp:150] Setting up ip3
I0521 07:26:00.094966 19192 net.cpp:157] Top shape: 800 11 (8800)
I0521 07:26:00.094976 19192 net.cpp:165] Memory required for data: 1262995200
I0521 07:26:00.094991 19192 layer_factory.hpp:77] Creating layer drop3
I0521 07:26:00.095005 19192 net.cpp:106] Creating Layer drop3
I0521 07:26:00.095015 19192 net.cpp:454] drop3 <- ip3
I0521 07:26:00.095026 19192 net.cpp:397] drop3 -> ip3 (in-place)
I0521 07:26:00.095067 19192 net.cpp:150] Setting up drop3
I0521 07:26:00.095078 19192 net.cpp:157] Top shape: 800 11 (8800)
I0521 07:26:00.095088 19192 net.cpp:165] Memory required for data: 1263030400
I0521 07:26:00.095098 19192 layer_factory.hpp:77] Creating layer ip3_drop3_0_split
I0521 07:26:00.095111 19192 net.cpp:106] Creating Layer ip3_drop3_0_split
I0521 07:26:00.095121 19192 net.cpp:454] ip3_drop3_0_split <- ip3
I0521 07:26:00.095134 19192 net.cpp:411] ip3_drop3_0_split -> ip3_drop3_0_split_0
I0521 07:26:00.095149 19192 net.cpp:411] ip3_drop3_0_split -> ip3_drop3_0_split_1
I0521 07:26:00.095222 19192 net.cpp:150] Setting up ip3_drop3_0_split
I0521 07:26:00.095235 19192 net.cpp:157] Top shape: 800 11 (8800)
I0521 07:26:00.095247 19192 net.cpp:157] Top shape: 800 11 (8800)
I0521 07:26:00.095257 19192 net.cpp:165] Memory required for data: 1263100800
I0521 07:26:00.095266 19192 layer_factory.hpp:77] Creating layer accuracy
I0521 07:26:00.095288 19192 net.cpp:106] Creating Layer accuracy
I0521 07:26:00.095299 19192 net.cpp:454] accuracy <- ip3_drop3_0_split_0
I0521 07:26:00.095310 19192 net.cpp:454] accuracy <- label_data_hdf5_1_split_0
I0521 07:26:00.095324 19192 net.cpp:411] accuracy -> accuracy
…
