…
I0521 10:47:43.947422 19762 net.cpp:322] The NetState phase (0) differed from the phase (1) specified by a rule in layer data_hdf5
I0521 10:47:43.947482 19762 net.cpp:322] The NetState phase (0) differed from the phase (1) specified by a rule in layer accuracy
I0521 10:47:43.947835 19762 net.cpp:49] Initializing net from parameters: 
name: "caffe_test_127x50_x_unshifted"
state {
  phase: TRAIN
}
layer {
  name: "data_hdf5"
  type: "HDF5Data"
  top: "data"
  top: "label"
  include {
    phase: TRAIN
  }
  hdf5_data_param {
    source: "/lustre/atlas/proj-shared/hep105/caffe_titan/minosmatch_nukecczdefs_127x50_x_unshifted_me1Bmc.trainlist"
    batch_size: 970
  }
}
layer {
  name: "conv1"
  type: "Convolution"
  bottom: "data"
  top: "conv1"
  convolution_param {
    num_output: 12
    pad: 0
    stride: 1
    weight_filler {
      type: "xavier"
    }
    bias_filler {
      type: "constant"
    }
    kernel_h: 8
    kernel_w: 3
  }
}
layer {
  name: "relu1"
  type: "ReLU"
  bottom: "conv1"
  top: "conv1"
}
layer {
  name: "pool1"
  type: "Pooling"
  bottom: "conv1"
  top: "pool1"
  pooling_param {
    pool: MAX
    kernel_h: 2
    kernel_w: 1
    stride_h: 2
    stride_w: 1
  }
}
layer {
  name: "conv2"
  type: "Convolution"
  bottom: "pool1"
  top: "conv2"
  convolution_param {
    num_output: 20
    pad: 0
    stride: 1
    weight_filler {
      type: "xavier"
    }
    bias_filler {
      type: "constant"
    }
    kernel_h: 7
    kernel_w: 3
  }
}
layer {
  name: "relu2"
  type: "ReLU"
  bottom: "conv2"
  top: "conv2"
}
layer {
  name: "pool2"
  type: "Pooling"
  bottom: "conv2"
  top: "pool2"
  pooling_param {
    pool: MAX
    kernel_h: 2
    kernel_w: 1
    stride_h: 2
    stride_w: 1
  }
}
layer {
  name: "conv3"
  type: "Convolution"
  bottom: "pool2"
  top: "conv3"
  convolution_param {
    num_output: 28
    pad: 0
    stride: 1
    weight_filler {
      type: "xavier"
    }
    bias_filler {
      type: "constant"
    }
    kernel_h: 6
    kernel_w: 3
  }
}
layer {
  name: "relu3"
  type: "ReLU"
  bottom: "conv3"
  top: "conv3"
}
layer {
  name: "pool3"
  type: "Pooling"
  bottom: "conv3"
  top: "pool3"
  pooling_param {
    pool: MAX
    kernel_h: 2
    kernel_w: 1
    stride_h: 2
    stride_w: 1
  }
}
layer {
  name: "conv4"
  type: "Convolution"
  bottom: "pool3"
  top: "conv4"
  convolution_param {
    num_output: 36
    pad: 0
    stride: 1
    weight_filler {
      type: "xavier"
    }
    bias_filler {
      type: "constant"
    }
    kernel_h: 6
    kernel_w: 3
  }
}
layer {
  name: "relu4"
  type: "ReLU"
  bottom: "conv4"
  top: "conv4"
}
layer {
  name: "pool4"
  type: "Pooling"
  bottom: "conv4"
  top: "pool4"
  pooling_param {
    pool: MAX
    kernel_h: 2
    kernel_w: 1
    stride_h: 2
    stride_w: 1
  }
}
layer {
  name: "ip1"
  type: "InnerProduct"
  bottom: "pool4"
  top: "ip1"
  inner_product_param {
    num_output: 196
    weight_filler {
      type: "xavier"
    }
    bias_filler {
      type: "constant"
    }
  }
}
layer {
  name: "relu5"
  type: "ReLU"
  bottom: "ip1"
  top: "ip1"
}
layer {
  name: "drop1"
  type: "Dropout"
  bottom: "ip1"
  top: "ip1"
  dropout_param {
    dropout_ratio: 0.5
  }
}
layer {
  name: "ip2"
  type: "InnerProduct"
  bottom: "ip1"
  top: "ip2"
  inner_product_param {
    num_output: 98
    weight_filler {
      type: "xavier"
    }
    bias_filler {
      type: "constant"
    }
  }
}
layer {
  name: "relu6"
  type: "ReLU"
  bottom: "ip2"
  top: "ip2"
}
layer {
  name: "drop2"
  type: "Dropout"
  bottom: "ip2"
  top: "ip2"
  dropout_param {
    dropout_ratio: 0.5
  }
}
layer {
  name: "ip3"
  type: "InnerProduct"
  bottom: "ip2"
  top: "ip3"
  inner_product_param {
    num_output: 11
    weight_filler {
      type: "xavier"
    }
    bias_filler {
      type: "constant"
    }
  }
}
layer {
  name: "drop3"
  type: "Dropout"
  bottom: "ip3"
  top: "ip3"
  dropout_param {
    dropout_ratio: 0.5
  }
}
layer {
  name: "loss"
  type: "SoftmaxWithLoss"
  bottom: "ip3"
  bottom: "label"
  top: "loss"
}
I0521 10:47:43.948017 19762 layer_factory.hpp:77] Creating layer data_hdf5
I0521 10:47:43.948041 19762 net.cpp:106] Creating Layer data_hdf5
I0521 10:47:43.948056 19762 net.cpp:411] data_hdf5 -> data
I0521 10:47:43.948089 19762 net.cpp:411] data_hdf5 -> label
I0521 10:47:43.948123 19762 hdf5_data_layer.cpp:79] Loading list of HDF5 filenames from: /lustre/atlas/proj-shared/hep105/caffe_titan/minosmatch_nukecczdefs_127x50_x_unshifted_me1Bmc.trainlist
I0521 10:47:43.949512 19762 hdf5_data_layer.cpp:93] Number of HDF5 files: 15
I0521 10:47:43.951746 19762 hdf5.cpp:32] Datatype class: H5T_FLOAT
I0521 10:48:05.499980 19762 hdf5.cpp:35] Datatype class: H5T_INTEGER
I0521 10:48:05.505091 19762 net.cpp:150] Setting up data_hdf5
I0521 10:48:05.505132 19762 net.cpp:157] Top shape: 970 1 127 50 (6159500)
I0521 10:48:05.505147 19762 net.cpp:157] Top shape: 970 (970)
I0521 10:48:05.505159 19762 net.cpp:165] Memory required for data: 24641880
I0521 10:48:05.505172 19762 layer_factory.hpp:77] Creating layer conv1
I0521 10:48:05.505208 19762 net.cpp:106] Creating Layer conv1
I0521 10:48:05.505218 19762 net.cpp:454] conv1 <- data
I0521 10:48:05.505240 19762 net.cpp:411] conv1 -> conv1
I0521 10:48:05.871984 19762 net.cpp:150] Setting up conv1
I0521 10:48:05.872030 19762 net.cpp:157] Top shape: 970 12 120 48 (67046400)
I0521 10:48:05.872042 19762 net.cpp:165] Memory required for data: 292827480
I0521 10:48:05.872072 19762 layer_factory.hpp:77] Creating layer relu1
I0521 10:48:05.872094 19762 net.cpp:106] Creating Layer relu1
I0521 10:48:05.872105 19762 net.cpp:454] relu1 <- conv1
I0521 10:48:05.872119 19762 net.cpp:397] relu1 -> conv1 (in-place)
I0521 10:48:05.872639 19762 net.cpp:150] Setting up relu1
I0521 10:48:05.872656 19762 net.cpp:157] Top shape: 970 12 120 48 (67046400)
I0521 10:48:05.872666 19762 net.cpp:165] Memory required for data: 561013080
I0521 10:48:05.872678 19762 layer_factory.hpp:77] Creating layer pool1
I0521 10:48:05.872694 19762 net.cpp:106] Creating Layer pool1
I0521 10:48:05.872704 19762 net.cpp:454] pool1 <- conv1
I0521 10:48:05.872716 19762 net.cpp:411] pool1 -> pool1
I0521 10:48:05.872797 19762 net.cpp:150] Setting up pool1
I0521 10:48:05.872812 19762 net.cpp:157] Top shape: 970 12 60 48 (33523200)
I0521 10:48:05.872822 19762 net.cpp:165] Memory required for data: 695105880
I0521 10:48:05.872833 19762 layer_factory.hpp:77] Creating layer conv2
I0521 10:48:05.872855 19762 net.cpp:106] Creating Layer conv2
I0521 10:48:05.872865 19762 net.cpp:454] conv2 <- pool1
I0521 10:48:05.872879 19762 net.cpp:411] conv2 -> conv2
I0521 10:48:05.875542 19762 net.cpp:150] Setting up conv2
I0521 10:48:05.875571 19762 net.cpp:157] Top shape: 970 20 54 46 (48189600)
I0521 10:48:05.875581 19762 net.cpp:165] Memory required for data: 887864280
I0521 10:48:05.875599 19762 layer_factory.hpp:77] Creating layer relu2
I0521 10:48:05.875614 19762 net.cpp:106] Creating Layer relu2
I0521 10:48:05.875624 19762 net.cpp:454] relu2 <- conv2
I0521 10:48:05.875638 19762 net.cpp:397] relu2 -> conv2 (in-place)
I0521 10:48:05.875974 19762 net.cpp:150] Setting up relu2
I0521 10:48:05.875989 19762 net.cpp:157] Top shape: 970 20 54 46 (48189600)
I0521 10:48:05.875999 19762 net.cpp:165] Memory required for data: 1080622680
I0521 10:48:05.876009 19762 layer_factory.hpp:77] Creating layer pool2
I0521 10:48:05.876021 19762 net.cpp:106] Creating Layer pool2
I0521 10:48:05.876031 19762 net.cpp:454] pool2 <- conv2
I0521 10:48:05.876057 19762 net.cpp:411] pool2 -> pool2
I0521 10:48:05.876126 19762 net.cpp:150] Setting up pool2
I0521 10:48:05.876139 19762 net.cpp:157] Top shape: 970 20 27 46 (24094800)
I0521 10:48:05.876149 19762 net.cpp:165] Memory required for data: 1177001880
I0521 10:48:05.876157 19762 layer_factory.hpp:77] Creating layer conv3
I0521 10:48:05.876175 19762 net.cpp:106] Creating Layer conv3
I0521 10:48:05.876185 19762 net.cpp:454] conv3 <- pool2
I0521 10:48:05.876199 19762 net.cpp:411] conv3 -> conv3
I0521 10:48:05.878110 19762 net.cpp:150] Setting up conv3
I0521 10:48:05.878129 19762 net.cpp:157] Top shape: 970 28 22 44 (26290880)
I0521 10:48:05.878144 19762 net.cpp:165] Memory required for data: 1282165400
I0521 10:48:05.878161 19762 layer_factory.hpp:77] Creating layer relu3
I0521 10:48:05.878177 19762 net.cpp:106] Creating Layer relu3
I0521 10:48:05.878187 19762 net.cpp:454] relu3 <- conv3
I0521 10:48:05.878201 19762 net.cpp:397] relu3 -> conv3 (in-place)
I0521 10:48:05.878670 19762 net.cpp:150] Setting up relu3
I0521 10:48:05.878689 19762 net.cpp:157] Top shape: 970 28 22 44 (26290880)
I0521 10:48:05.878698 19762 net.cpp:165] Memory required for data: 1387328920
I0521 10:48:05.878710 19762 layer_factory.hpp:77] Creating layer pool3
I0521 10:48:05.878722 19762 net.cpp:106] Creating Layer pool3
I0521 10:48:05.878732 19762 net.cpp:454] pool3 <- conv3
I0521 10:48:05.878746 19762 net.cpp:411] pool3 -> pool3
I0521 10:48:05.878813 19762 net.cpp:150] Setting up pool3
I0521 10:48:05.878825 19762 net.cpp:157] Top shape: 970 28 11 44 (13145440)
I0521 10:48:05.878836 19762 net.cpp:165] Memory required for data: 1439910680
I0521 10:48:05.878844 19762 layer_factory.hpp:77] Creating layer conv4
I0521 10:48:05.878861 19762 net.cpp:106] Creating Layer conv4
I0521 10:48:05.878872 19762 net.cpp:454] conv4 <- pool3
I0521 10:48:05.878885 19762 net.cpp:411] conv4 -> conv4
I0521 10:48:05.881623 19762 net.cpp:150] Setting up conv4
I0521 10:48:05.881645 19762 net.cpp:157] Top shape: 970 36 6 42 (8799840)
I0521 10:48:05.881656 19762 net.cpp:165] Memory required for data: 1475110040
I0521 10:48:05.881674 19762 layer_factory.hpp:77] Creating layer relu4
I0521 10:48:05.881687 19762 net.cpp:106] Creating Layer relu4
I0521 10:48:05.881697 19762 net.cpp:454] relu4 <- conv4
I0521 10:48:05.881711 19762 net.cpp:397] relu4 -> conv4 (in-place)
I0521 10:48:05.882174 19762 net.cpp:150] Setting up relu4
I0521 10:48:05.882189 19762 net.cpp:157] Top shape: 970 36 6 42 (8799840)
I0521 10:48:05.882200 19762 net.cpp:165] Memory required for data: 1510309400
I0521 10:48:05.882210 19762 layer_factory.hpp:77] Creating layer pool4
I0521 10:48:05.882225 19762 net.cpp:106] Creating Layer pool4
I0521 10:48:05.882235 19762 net.cpp:454] pool4 <- conv4
I0521 10:48:05.882247 19762 net.cpp:411] pool4 -> pool4
I0521 10:48:05.882315 19762 net.cpp:150] Setting up pool4
I0521 10:48:05.882328 19762 net.cpp:157] Top shape: 970 36 3 42 (4399920)
I0521 10:48:05.882339 19762 net.cpp:165] Memory required for data: 1527909080
I0521 10:48:05.882349 19762 layer_factory.hpp:77] Creating layer ip1
I0521 10:48:05.882370 19762 net.cpp:106] Creating Layer ip1
I0521 10:48:05.882380 19762 net.cpp:454] ip1 <- pool4
I0521 10:48:05.882395 19762 net.cpp:411] ip1 -> ip1
I0521 10:48:05.897815 19762 net.cpp:150] Setting up ip1
I0521 10:48:05.897840 19762 net.cpp:157] Top shape: 970 196 (190120)
I0521 10:48:05.897852 19762 net.cpp:165] Memory required for data: 1528669560
I0521 10:48:05.897879 19762 layer_factory.hpp:77] Creating layer relu5
I0521 10:48:05.897894 19762 net.cpp:106] Creating Layer relu5
I0521 10:48:05.897905 19762 net.cpp:454] relu5 <- ip1
I0521 10:48:05.897919 19762 net.cpp:397] relu5 -> ip1 (in-place)
I0521 10:48:05.898262 19762 net.cpp:150] Setting up relu5
I0521 10:48:05.898275 19762 net.cpp:157] Top shape: 970 196 (190120)
I0521 10:48:05.898286 19762 net.cpp:165] Memory required for data: 1529430040
I0521 10:48:05.898296 19762 layer_factory.hpp:77] Creating layer drop1
I0521 10:48:05.898319 19762 net.cpp:106] Creating Layer drop1
I0521 10:48:05.898329 19762 net.cpp:454] drop1 <- ip1
I0521 10:48:05.898355 19762 net.cpp:397] drop1 -> ip1 (in-place)
I0521 10:48:05.898401 19762 net.cpp:150] Setting up drop1
I0521 10:48:05.898413 19762 net.cpp:157] Top shape: 970 196 (190120)
I0521 10:48:05.898424 19762 net.cpp:165] Memory required for data: 1530190520
I0521 10:48:05.898434 19762 layer_factory.hpp:77] Creating layer ip2
I0521 10:48:05.898453 19762 net.cpp:106] Creating Layer ip2
I0521 10:48:05.898464 19762 net.cpp:454] ip2 <- ip1
I0521 10:48:05.898478 19762 net.cpp:411] ip2 -> ip2
I0521 10:48:05.898973 19762 net.cpp:150] Setting up ip2
I0521 10:48:05.898986 19762 net.cpp:157] Top shape: 970 98 (95060)
I0521 10:48:05.898998 19762 net.cpp:165] Memory required for data: 1530570760
I0521 10:48:05.899013 19762 layer_factory.hpp:77] Creating layer relu6
I0521 10:48:05.899024 19762 net.cpp:106] Creating Layer relu6
I0521 10:48:05.899034 19762 net.cpp:454] relu6 <- ip2
I0521 10:48:05.899046 19762 net.cpp:397] relu6 -> ip2 (in-place)
I0521 10:48:05.899567 19762 net.cpp:150] Setting up relu6
I0521 10:48:05.899583 19762 net.cpp:157] Top shape: 970 98 (95060)
I0521 10:48:05.899595 19762 net.cpp:165] Memory required for data: 1530951000
I0521 10:48:05.899605 19762 layer_factory.hpp:77] Creating layer drop2
I0521 10:48:05.899617 19762 net.cpp:106] Creating Layer drop2
I0521 10:48:05.899627 19762 net.cpp:454] drop2 <- ip2
I0521 10:48:05.899641 19762 net.cpp:397] drop2 -> ip2 (in-place)
I0521 10:48:05.899682 19762 net.cpp:150] Setting up drop2
I0521 10:48:05.899694 19762 net.cpp:157] Top shape: 970 98 (95060)
I0521 10:48:05.899705 19762 net.cpp:165] Memory required for data: 1531331240
I0521 10:48:05.899715 19762 layer_factory.hpp:77] Creating layer ip3
I0521 10:48:05.899729 19762 net.cpp:106] Creating Layer ip3
I0521 10:48:05.899739 19762 net.cpp:454] ip3 <- ip2
I0521 10:48:05.899750 19762 net.cpp:411] ip3 -> ip3
I0521 10:48:05.899969 19762 net.cpp:150] Setting up ip3
I0521 10:48:05.899982 19762 net.cpp:157] Top shape: 970 11 (10670)
I0521 10:48:05.899992 19762 net.cpp:165] Memory required for data: 1531373920
I0521 10:48:05.900007 19762 layer_factory.hpp:77] Creating layer drop3
I0521 10:48:05.900020 19762 net.cpp:106] Creating Layer drop3
I0521 10:48:05.900030 19762 net.cpp:454] drop3 <- ip3
I0521 10:48:05.900043 19762 net.cpp:397] drop3 -> ip3 (in-place)
I0521 10:48:05.900081 19762 net.cpp:150] Setting up drop3
I0521 10:48:05.900094 19762 net.cpp:157] Top shape: 970 11 (10670)
I0521 10:48:05.900105 19762 net.cpp:165] Memory required for data: 1531416600
I0521 10:48:05.900115 19762 layer_factory.hpp:77] Creating layer loss
I0521 10:48:05.900135 19762 net.cpp:106] Creating Layer loss
I0521 10:48:05.900144 19762 net.cpp:454] loss <- ip3
I0521 10:48:05.900156 19762 net.cpp:454] loss <- label
I0521 10:48:05.900168 19762 net.cpp:411] loss -> loss
I0521 10:48:05.900185 19762 layer_factory.hpp:77] Creating layer loss
…
I0521 10:48:05.902820 19762 solver.cpp:181] Creating test net (#0) specified by net file: /lustre/atlas/proj-shared/hep105/caffe_titan/caffe_workflow/logs_batch_size_test/batch_size_970_2016-05-20T11.21.08.067487.prototxt
I0521 10:48:05.902890 19762 net.cpp:322] The NetState phase (1) differed from the phase (0) specified by a rule in layer data_hdf5
I0521 10:48:05.903246 19762 net.cpp:49] Initializing net from parameters: 
name: "caffe_test_127x50_x_unshifted"
state {
  phase: TEST
}
layer {
  name: "data_hdf5"
  type: "HDF5Data"
  top: "data"
  top: "label"
  include {
    phase: TEST
  }
  hdf5_data_param {
    source: "/lustre/atlas/proj-shared/hep105/caffe_titan/minosmatch_nukecczdefs_127x50_x_unshifted_me1Bmc.testlist"
    batch_size: 970
  }
}
layer {
  name: "conv1"
  type: "Convolution"
  bottom: "data"
  top: "conv1"
  convolution_param {
    num_output: 12
    pad: 0
    stride: 1
    weight_filler {
      type: "xavier"
    }
    bias_filler {
      type: "constant"
    }
    kernel_h: 8
    kernel_w: 3
  }
}
layer {
  name: "relu1"
  type: "ReLU"
  bottom: "conv1"
  top: "conv1"
}
layer {
  name: "pool1"
  type: "Pooling"
  bottom: "conv1"
  top: "pool1"
  pooling_param {
    pool: MAX
    kernel_h: 2
    kernel_w: 1
    stride_h: 2
    stride_w: 1
  }
}
layer {
  name: "conv2"
  type: "Convolution"
  bottom: "pool1"
  top: "conv2"
  convolution_param {
    num_output: 20
    pad: 0
    stride: 1
    weight_filler {
      type: "xavier"
    }
    bias_filler {
      type: "constant"
    }
    kernel_h: 7
    kernel_w: 3
  }
}
layer {
  name: "relu2"
  type: "ReLU"
  bottom: "conv2"
  top: "conv2"
}
layer {
  name: "pool2"
  type: "Pooling"
  bottom: "conv2"
  top: "pool2"
  pooling_param {
    pool: MAX
    kernel_h: 2
    kernel_w: 1
    stride_h: 2
    stride_w: 1
  }
}
layer {
  name: "conv3"
  type: "Convolution"
  bottom: "pool2"
  top: "conv3"
  convolution_param {
    num_output: 28
    pad: 0
    stride: 1
    weight_filler {
      type: "xavier"
    }
    bias_filler {
      type: "constant"
    }
    kernel_h: 6
    kernel_w: 3
  }
}
layer {
  name: "relu3"
  type: "ReLU"
  bottom: "conv3"
  top: "conv3"
}
layer {
  name: "pool3"
  type: "Pooling"
  bottom: "conv3"
  top: "pool3"
  pooling_param {
    pool: MAX
    kernel_h: 2
    kernel_w: 1
    stride_h: 2
    stride_w: 1
  }
}
layer {
  name: "conv4"
  type: "Convolution"
  bottom: "pool3"
  top: "conv4"
  convolution_param {
    num_output: 36
    pad: 0
    stride: 1
    weight_filler {
      type: "xavier"
    }
    bias_filler {
      type: "constant"
    }
    kernel_h: 6
    kernel_w: 3
  }
}
layer {
  name: "relu4"
  type: "ReLU"
  bottom: "conv4"
  top: "conv4"
}
layer {
  name: "pool4"
  type: "Pooling"
  bottom: "conv4"
  top: "pool4"
  pooling_param {
    pool: MAX
    kernel_h: 2
    kernel_w: 1
    stride_h: 2
    stride_w: 1
  }
}
layer {
  name: "ip1"
  type: "InnerProduct"
  bottom: "pool4"
  top: "ip1"
  inner_product_param {
    num_output: 196
    weight_filler {
      type: "xavier"
    }
    bias_filler {
      type: "constant"
    }
  }
}
layer {
  name: "relu5"
  type: "ReLU"
  bottom: "ip1"
  top: "ip1"
}
layer {
  name: "drop1"
  type: "Dropout"
  bottom: "ip1"
  top: "ip1"
  dropout_param {
    dropout_ratio: 0.5
  }
}
layer {
  name: "ip2"
  type: "InnerProduct"
  bottom: "ip1"
  top: "ip2"
  inner_product_param {
    num_output: 98
    weight_filler {
      type: "xavier"
    }
    bias_filler {
      type: "constant"
    }
  }
}
layer {
  name: "relu6"
  type: "ReLU"
  bottom: "ip2"
  top: "ip2"
}
layer {
  name: "drop2"
  type: "Dropout"
  bottom: "ip2"
  top: "ip2"
  dropout_param {
    dropout_ratio: 0.5
  }
}
layer {
  name: "ip3"
  type: "InnerProduct"
  bottom: "ip2"
  top: "ip3"
  inner_product_param {
    num_output: 11
    weight_filler {
      type: "xavier"
    }
    bias_filler {
      type: "constant"
    }
  }
}
layer {
  name: "drop3"
  type: "Dropout"
  bottom: "ip3"
  top: "ip3"
  dropout_param {
    dropout_ratio: 0.5
  }
}
layer {
  name: "accuracy"
  type: "Accuracy"
  bottom: "ip3"
  bottom: "label"
  top: "accuracy"
  include {
    phase: TEST
  }
}
layer {
  name: "loss"
  type: "SoftmaxWithLoss"
  bottom: "ip3"
  bottom: "label"
  top: "loss"
}
I0521 10:48:05.903434 19762 layer_factory.hpp:77] Creating layer data_hdf5
I0521 10:48:05.903450 19762 net.cpp:106] Creating Layer data_hdf5
I0521 10:48:05.903460 19762 net.cpp:411] data_hdf5 -> data
I0521 10:48:05.903477 19762 net.cpp:411] data_hdf5 -> label
I0521 10:48:05.903493 19762 hdf5_data_layer.cpp:79] Loading list of HDF5 filenames from: /lustre/atlas/proj-shared/hep105/caffe_titan/minosmatch_nukecczdefs_127x50_x_unshifted_me1Bmc.testlist
I0521 10:48:05.904809 19762 hdf5_data_layer.cpp:93] Number of HDF5 files: 3
I0521 10:48:27.249950 19762 net.cpp:150] Setting up data_hdf5
I0521 10:48:27.250119 19762 net.cpp:157] Top shape: 970 1 127 50 (6159500)
I0521 10:48:27.250134 19762 net.cpp:157] Top shape: 970 (970)
I0521 10:48:27.250145 19762 net.cpp:165] Memory required for data: 24641880
I0521 10:48:27.250159 19762 layer_factory.hpp:77] Creating layer label_data_hdf5_1_split
I0521 10:48:27.250188 19762 net.cpp:106] Creating Layer label_data_hdf5_1_split
I0521 10:48:27.250200 19762 net.cpp:454] label_data_hdf5_1_split <- label
I0521 10:48:27.250214 19762 net.cpp:411] label_data_hdf5_1_split -> label_data_hdf5_1_split_0
I0521 10:48:27.250236 19762 net.cpp:411] label_data_hdf5_1_split -> label_data_hdf5_1_split_1
I0521 10:48:27.250309 19762 net.cpp:150] Setting up label_data_hdf5_1_split
I0521 10:48:27.250324 19762 net.cpp:157] Top shape: 970 (970)
I0521 10:48:27.250335 19762 net.cpp:157] Top shape: 970 (970)
I0521 10:48:27.250344 19762 net.cpp:165] Memory required for data: 24649640
I0521 10:48:27.250355 19762 layer_factory.hpp:77] Creating layer conv1
I0521 10:48:27.250375 19762 net.cpp:106] Creating Layer conv1
I0521 10:48:27.250386 19762 net.cpp:454] conv1 <- data
I0521 10:48:27.250401 19762 net.cpp:411] conv1 -> conv1
I0521 10:48:27.252349 19762 net.cpp:150] Setting up conv1
I0521 10:48:27.252373 19762 net.cpp:157] Top shape: 970 12 120 48 (67046400)
I0521 10:48:27.252385 19762 net.cpp:165] Memory required for data: 292835240
I0521 10:48:27.252405 19762 layer_factory.hpp:77] Creating layer relu1
I0521 10:48:27.252420 19762 net.cpp:106] Creating Layer relu1
I0521 10:48:27.252430 19762 net.cpp:454] relu1 <- conv1
I0521 10:48:27.252444 19762 net.cpp:397] relu1 -> conv1 (in-place)
I0521 10:48:27.252941 19762 net.cpp:150] Setting up relu1
I0521 10:48:27.252959 19762 net.cpp:157] Top shape: 970 12 120 48 (67046400)
I0521 10:48:27.252969 19762 net.cpp:165] Memory required for data: 561020840
I0521 10:48:27.252979 19762 layer_factory.hpp:77] Creating layer pool1
I0521 10:48:27.252995 19762 net.cpp:106] Creating Layer pool1
I0521 10:48:27.253005 19762 net.cpp:454] pool1 <- conv1
I0521 10:48:27.253017 19762 net.cpp:411] pool1 -> pool1
I0521 10:48:27.253092 19762 net.cpp:150] Setting up pool1
I0521 10:48:27.253105 19762 net.cpp:157] Top shape: 970 12 60 48 (33523200)
I0521 10:48:27.253114 19762 net.cpp:165] Memory required for data: 695113640
I0521 10:48:27.253125 19762 layer_factory.hpp:77] Creating layer conv2
I0521 10:48:27.253144 19762 net.cpp:106] Creating Layer conv2
I0521 10:48:27.253154 19762 net.cpp:454] conv2 <- pool1
I0521 10:48:27.253167 19762 net.cpp:411] conv2 -> conv2
I0521 10:48:27.255074 19762 net.cpp:150] Setting up conv2
I0521 10:48:27.255096 19762 net.cpp:157] Top shape: 970 20 54 46 (48189600)
I0521 10:48:27.255110 19762 net.cpp:165] Memory required for data: 887872040
I0521 10:48:27.255126 19762 layer_factory.hpp:77] Creating layer relu2
I0521 10:48:27.255141 19762 net.cpp:106] Creating Layer relu2
I0521 10:48:27.255149 19762 net.cpp:454] relu2 <- conv2
I0521 10:48:27.255162 19762 net.cpp:397] relu2 -> conv2 (in-place)
I0521 10:48:27.255496 19762 net.cpp:150] Setting up relu2
I0521 10:48:27.255509 19762 net.cpp:157] Top shape: 970 20 54 46 (48189600)
I0521 10:48:27.255519 19762 net.cpp:165] Memory required for data: 1080630440
I0521 10:48:27.255529 19762 layer_factory.hpp:77] Creating layer pool2
I0521 10:48:27.255542 19762 net.cpp:106] Creating Layer pool2
I0521 10:48:27.255553 19762 net.cpp:454] pool2 <- conv2
I0521 10:48:27.255565 19762 net.cpp:411] pool2 -> pool2
I0521 10:48:27.255636 19762 net.cpp:150] Setting up pool2
I0521 10:48:27.255650 19762 net.cpp:157] Top shape: 970 20 27 46 (24094800)
I0521 10:48:27.255659 19762 net.cpp:165] Memory required for data: 1177009640
I0521 10:48:27.255669 19762 layer_factory.hpp:77] Creating layer conv3
I0521 10:48:27.255686 19762 net.cpp:106] Creating Layer conv3
I0521 10:48:27.255697 19762 net.cpp:454] conv3 <- pool2
I0521 10:48:27.255712 19762 net.cpp:411] conv3 -> conv3
I0521 10:48:27.257690 19762 net.cpp:150] Setting up conv3
I0521 10:48:27.257709 19762 net.cpp:157] Top shape: 970 28 22 44 (26290880)
I0521 10:48:27.257719 19762 net.cpp:165] Memory required for data: 1282173160
I0521 10:48:27.257751 19762 layer_factory.hpp:77] Creating layer relu3
I0521 10:48:27.257766 19762 net.cpp:106] Creating Layer relu3
I0521 10:48:27.257776 19762 net.cpp:454] relu3 <- conv3
I0521 10:48:27.257788 19762 net.cpp:397] relu3 -> conv3 (in-place)
I0521 10:48:27.258261 19762 net.cpp:150] Setting up relu3
I0521 10:48:27.258277 19762 net.cpp:157] Top shape: 970 28 22 44 (26290880)
I0521 10:48:27.258288 19762 net.cpp:165] Memory required for data: 1387336680
I0521 10:48:27.258298 19762 layer_factory.hpp:77] Creating layer pool3
I0521 10:48:27.258311 19762 net.cpp:106] Creating Layer pool3
I0521 10:48:27.258322 19762 net.cpp:454] pool3 <- conv3
I0521 10:48:27.258335 19762 net.cpp:411] pool3 -> pool3
I0521 10:48:27.258406 19762 net.cpp:150] Setting up pool3
I0521 10:48:27.258420 19762 net.cpp:157] Top shape: 970 28 11 44 (13145440)
I0521 10:48:27.258430 19762 net.cpp:165] Memory required for data: 1439918440
I0521 10:48:27.258440 19762 layer_factory.hpp:77] Creating layer conv4
I0521 10:48:27.258458 19762 net.cpp:106] Creating Layer conv4
I0521 10:48:27.258468 19762 net.cpp:454] conv4 <- pool3
I0521 10:48:27.258483 19762 net.cpp:411] conv4 -> conv4
I0521 10:48:27.260546 19762 net.cpp:150] Setting up conv4
I0521 10:48:27.260570 19762 net.cpp:157] Top shape: 970 36 6 42 (8799840)
I0521 10:48:27.260581 19762 net.cpp:165] Memory required for data: 1475117800
I0521 10:48:27.260596 19762 layer_factory.hpp:77] Creating layer relu4
I0521 10:48:27.260610 19762 net.cpp:106] Creating Layer relu4
I0521 10:48:27.260620 19762 net.cpp:454] relu4 <- conv4
I0521 10:48:27.260633 19762 net.cpp:397] relu4 -> conv4 (in-place)
I0521 10:48:27.261103 19762 net.cpp:150] Setting up relu4
I0521 10:48:27.261119 19762 net.cpp:157] Top shape: 970 36 6 42 (8799840)
I0521 10:48:27.261131 19762 net.cpp:165] Memory required for data: 1510317160
I0521 10:48:27.261140 19762 layer_factory.hpp:77] Creating layer pool4
I0521 10:48:27.261153 19762 net.cpp:106] Creating Layer pool4
I0521 10:48:27.261163 19762 net.cpp:454] pool4 <- conv4
I0521 10:48:27.261178 19762 net.cpp:411] pool4 -> pool4
I0521 10:48:27.261248 19762 net.cpp:150] Setting up pool4
I0521 10:48:27.261261 19762 net.cpp:157] Top shape: 970 36 3 42 (4399920)
I0521 10:48:27.261271 19762 net.cpp:165] Memory required for data: 1527916840
I0521 10:48:27.261281 19762 layer_factory.hpp:77] Creating layer ip1
I0521 10:48:27.261297 19762 net.cpp:106] Creating Layer ip1
I0521 10:48:27.261307 19762 net.cpp:454] ip1 <- pool4
I0521 10:48:27.261324 19762 net.cpp:411] ip1 -> ip1
I0521 10:48:27.276816 19762 net.cpp:150] Setting up ip1
I0521 10:48:27.276846 19762 net.cpp:157] Top shape: 970 196 (190120)
I0521 10:48:27.276857 19762 net.cpp:165] Memory required for data: 1528677320
I0521 10:48:27.276880 19762 layer_factory.hpp:77] Creating layer relu5
I0521 10:48:27.276895 19762 net.cpp:106] Creating Layer relu5
I0521 10:48:27.276906 19762 net.cpp:454] relu5 <- ip1
I0521 10:48:27.276918 19762 net.cpp:397] relu5 -> ip1 (in-place)
I0521 10:48:27.277263 19762 net.cpp:150] Setting up relu5
I0521 10:48:27.277277 19762 net.cpp:157] Top shape: 970 196 (190120)
I0521 10:48:27.277287 19762 net.cpp:165] Memory required for data: 1529437800
I0521 10:48:27.277297 19762 layer_factory.hpp:77] Creating layer drop1
I0521 10:48:27.277318 19762 net.cpp:106] Creating Layer drop1
I0521 10:48:27.277329 19762 net.cpp:454] drop1 <- ip1
I0521 10:48:27.277345 19762 net.cpp:397] drop1 -> ip1 (in-place)
I0521 10:48:27.277391 19762 net.cpp:150] Setting up drop1
I0521 10:48:27.277405 19762 net.cpp:157] Top shape: 970 196 (190120)
I0521 10:48:27.277413 19762 net.cpp:165] Memory required for data: 1530198280
I0521 10:48:27.277425 19762 layer_factory.hpp:77] Creating layer ip2
I0521 10:48:27.277439 19762 net.cpp:106] Creating Layer ip2
I0521 10:48:27.277449 19762 net.cpp:454] ip2 <- ip1
I0521 10:48:27.277462 19762 net.cpp:411] ip2 -> ip2
I0521 10:48:27.277942 19762 net.cpp:150] Setting up ip2
I0521 10:48:27.277956 19762 net.cpp:157] Top shape: 970 98 (95060)
I0521 10:48:27.277966 19762 net.cpp:165] Memory required for data: 1530578520
I0521 10:48:27.277993 19762 layer_factory.hpp:77] Creating layer relu6
I0521 10:48:27.278007 19762 net.cpp:106] Creating Layer relu6
I0521 10:48:27.278017 19762 net.cpp:454] relu6 <- ip2
I0521 10:48:27.278029 19762 net.cpp:397] relu6 -> ip2 (in-place)
I0521 10:48:27.278564 19762 net.cpp:150] Setting up relu6
I0521 10:48:27.278585 19762 net.cpp:157] Top shape: 970 98 (95060)
I0521 10:48:27.278595 19762 net.cpp:165] Memory required for data: 1530958760
I0521 10:48:27.278606 19762 layer_factory.hpp:77] Creating layer drop2
I0521 10:48:27.278620 19762 net.cpp:106] Creating Layer drop2
I0521 10:48:27.278630 19762 net.cpp:454] drop2 <- ip2
I0521 10:48:27.278642 19762 net.cpp:397] drop2 -> ip2 (in-place)
I0521 10:48:27.278686 19762 net.cpp:150] Setting up drop2
I0521 10:48:27.278698 19762 net.cpp:157] Top shape: 970 98 (95060)
I0521 10:48:27.278708 19762 net.cpp:165] Memory required for data: 1531339000
I0521 10:48:27.278718 19762 layer_factory.hpp:77] Creating layer ip3
I0521 10:48:27.278733 19762 net.cpp:106] Creating Layer ip3
I0521 10:48:27.278741 19762 net.cpp:454] ip3 <- ip2
I0521 10:48:27.278755 19762 net.cpp:411] ip3 -> ip3
I0521 10:48:27.278977 19762 net.cpp:150] Setting up ip3
I0521 10:48:27.278990 19762 net.cpp:157] Top shape: 970 11 (10670)
I0521 10:48:27.279000 19762 net.cpp:165] Memory required for data: 1531381680
I0521 10:48:27.279016 19762 layer_factory.hpp:77] Creating layer drop3
I0521 10:48:27.279028 19762 net.cpp:106] Creating Layer drop3
I0521 10:48:27.279038 19762 net.cpp:454] drop3 <- ip3
I0521 10:48:27.279050 19762 net.cpp:397] drop3 -> ip3 (in-place)
I0521 10:48:27.279093 19762 net.cpp:150] Setting up drop3
I0521 10:48:27.279105 19762 net.cpp:157] Top shape: 970 11 (10670)
I0521 10:48:27.279115 19762 net.cpp:165] Memory required for data: 1531424360
I0521 10:48:27.279124 19762 layer_factory.hpp:77] Creating layer ip3_drop3_0_split
I0521 10:48:27.279139 19762 net.cpp:106] Creating Layer ip3_drop3_0_split
I0521 10:48:27.279147 19762 net.cpp:454] ip3_drop3_0_split <- ip3
I0521 10:48:27.279160 19762 net.cpp:411] ip3_drop3_0_split -> ip3_drop3_0_split_0
I0521 10:48:27.279175 19762 net.cpp:411] ip3_drop3_0_split -> ip3_drop3_0_split_1
I0521 10:48:27.279248 19762 net.cpp:150] Setting up ip3_drop3_0_split
I0521 10:48:27.279261 19762 net.cpp:157] Top shape: 970 11 (10670)
I0521 10:48:27.279273 19762 net.cpp:157] Top shape: 970 11 (10670)
I0521 10:48:27.279284 19762 net.cpp:165] Memory required for data: 1531509720
I0521 10:48:27.279294 19762 layer_factory.hpp:77] Creating layer accuracy
I0521 10:48:27.279315 19762 net.cpp:106] Creating Layer accuracy
I0521 10:48:27.279325 19762 net.cpp:454] accuracy <- ip3_drop3_0_split_0
I0521 10:48:27.279336 19762 net.cpp:454] accuracy <- label_data_hdf5_1_split_0
I0521 10:48:27.279350 19762 net.cpp:411] accuracy -> accuracy
…
