…
I0520 19:05:01.198523 30346 net.cpp:322] The NetState phase (0) differed from the phase (1) specified by a rule in layer data_hdf5
I0520 19:05:01.198582 30346 net.cpp:322] The NetState phase (0) differed from the phase (1) specified by a rule in layer accuracy
I0520 19:05:01.198926 30346 net.cpp:49] Initializing net from parameters: 
name: "caffe_test_127x50_x_unshifted"
state {
  phase: TRAIN
}
layer {
  name: "data_hdf5"
  type: "HDF5Data"
  top: "data"
  top: "label"
  include {
    phase: TRAIN
  }
  hdf5_data_param {
    source: "/lustre/atlas/proj-shared/hep105/caffe_titan/minosmatch_nukecczdefs_127x50_x_unshifted_me1Bmc.trainlist"
    batch_size: 230
  }
}
layer {
  name: "conv1"
  type: "Convolution"
  bottom: "data"
  top: "conv1"
  convolution_param {
    num_output: 12
    pad: 0
    stride: 1
    weight_filler {
      type: "xavier"
    }
    bias_filler {
      type: "constant"
    }
    kernel_h: 8
    kernel_w: 3
  }
}
layer {
  name: "relu1"
  type: "ReLU"
  bottom: "conv1"
  top: "conv1"
}
layer {
  name: "pool1"
  type: "Pooling"
  bottom: "conv1"
  top: "pool1"
  pooling_param {
    pool: MAX
    kernel_h: 2
    kernel_w: 1
    stride_h: 2
    stride_w: 1
  }
}
layer {
  name: "conv2"
  type: "Convolution"
  bottom: "pool1"
  top: "conv2"
  convolution_param {
    num_output: 20
    pad: 0
    stride: 1
    weight_filler {
      type: "xavier"
    }
    bias_filler {
      type: "constant"
    }
    kernel_h: 7
    kernel_w: 3
  }
}
layer {
  name: "relu2"
  type: "ReLU"
  bottom: "conv2"
  top: "conv2"
}
layer {
  name: "pool2"
  type: "Pooling"
  bottom: "conv2"
  top: "pool2"
  pooling_param {
    pool: MAX
    kernel_h: 2
    kernel_w: 1
    stride_h: 2
    stride_w: 1
  }
}
layer {
  name: "conv3"
  type: "Convolution"
  bottom: "pool2"
  top: "conv3"
  convolution_param {
    num_output: 28
    pad: 0
    stride: 1
    weight_filler {
      type: "xavier"
    }
    bias_filler {
      type: "constant"
    }
    kernel_h: 6
    kernel_w: 3
  }
}
layer {
  name: "relu3"
  type: "ReLU"
  bottom: "conv3"
  top: "conv3"
}
layer {
  name: "pool3"
  type: "Pooling"
  bottom: "conv3"
  top: "pool3"
  pooling_param {
    pool: MAX
    kernel_h: 2
    kernel_w: 1
    stride_h: 2
    stride_w: 1
  }
}
layer {
  name: "conv4"
  type: "Convolution"
  bottom: "pool3"
  top: "conv4"
  convolution_param {
    num_output: 36
    pad: 0
    stride: 1
    weight_filler {
      type: "xavier"
    }
    bias_filler {
      type: "constant"
    }
    kernel_h: 6
    kernel_w: 3
  }
}
layer {
  name: "relu4"
  type: "ReLU"
  bottom: "conv4"
  top: "conv4"
}
layer {
  name: "pool4"
  type: "Pooling"
  bottom: "conv4"
  top: "pool4"
  pooling_param {
    pool: MAX
    kernel_h: 2
    kernel_w: 1
    stride_h: 2
    stride_w: 1
  }
}
layer {
  name: "ip1"
  type: "InnerProduct"
  bottom: "pool4"
  top: "ip1"
  inner_product_param {
    num_output: 196
    weight_filler {
      type: "xavier"
    }
    bias_filler {
      type: "constant"
    }
  }
}
layer {
  name: "relu5"
  type: "ReLU"
  bottom: "ip1"
  top: "ip1"
}
layer {
  name: "drop1"
  type: "Dropout"
  bottom: "ip1"
  top: "ip1"
  dropout_param {
    dropout_ratio: 0.5
  }
}
layer {
  name: "ip2"
  type: "InnerProduct"
  bottom: "ip1"
  top: "ip2"
  inner_product_param {
    num_output: 98
    weight_filler {
      type: "xavier"
    }
    bias_filler {
      type: "constant"
    }
  }
}
layer {
  name: "relu6"
  type: "ReLU"
  bottom: "ip2"
  top: "ip2"
}
layer {
  name: "drop2"
  type: "Dropout"
  bottom: "ip2"
  top: "ip2"
  dropout_param {
    dropout_ratio: 0.5
  }
}
layer {
  name: "ip3"
  type: "InnerProduct"
  bottom: "ip2"
  top: "ip3"
  inner_product_param {
    num_output: 11
    weight_filler {
      type: "xavier"
    }
    bias_filler {
      type: "constant"
    }
  }
}
layer {
  name: "drop3"
  type: "Dropout"
  bottom: "ip3"
  top: "ip3"
  dropout_param {
    dropout_ratio: 0.5
  }
}
layer {
  name: "loss"
  type: "SoftmaxWithLoss"
  bottom: "ip3"
  bottom: "label"
  top: "loss"
}
I0520 19:05:01.199105 30346 layer_factory.hpp:77] Creating layer data_hdf5
I0520 19:05:01.199128 30346 net.cpp:106] Creating Layer data_hdf5
I0520 19:05:01.199143 30346 net.cpp:411] data_hdf5 -> data
I0520 19:05:01.199177 30346 net.cpp:411] data_hdf5 -> label
I0520 19:05:01.199210 30346 hdf5_data_layer.cpp:79] Loading list of HDF5 filenames from: /lustre/atlas/proj-shared/hep105/caffe_titan/minosmatch_nukecczdefs_127x50_x_unshifted_me1Bmc.trainlist
I0520 19:05:01.200433 30346 hdf5_data_layer.cpp:93] Number of HDF5 files: 15
I0520 19:05:01.202620 30346 hdf5.cpp:32] Datatype class: H5T_FLOAT
I0520 19:05:22.710480 30346 hdf5.cpp:35] Datatype class: H5T_INTEGER
I0520 19:05:22.715556 30346 net.cpp:150] Setting up data_hdf5
I0520 19:05:22.715597 30346 net.cpp:157] Top shape: 230 1 127 50 (1460500)
I0520 19:05:22.715612 30346 net.cpp:157] Top shape: 230 (230)
I0520 19:05:22.715622 30346 net.cpp:165] Memory required for data: 5842920
I0520 19:05:22.715636 30346 layer_factory.hpp:77] Creating layer conv1
I0520 19:05:22.715669 30346 net.cpp:106] Creating Layer conv1
I0520 19:05:22.715682 30346 net.cpp:454] conv1 <- data
I0520 19:05:22.715704 30346 net.cpp:411] conv1 -> conv1
I0520 19:05:23.817095 30346 net.cpp:150] Setting up conv1
I0520 19:05:23.817144 30346 net.cpp:157] Top shape: 230 12 120 48 (15897600)
I0520 19:05:23.817155 30346 net.cpp:165] Memory required for data: 69433320
I0520 19:05:23.817183 30346 layer_factory.hpp:77] Creating layer relu1
I0520 19:05:23.817204 30346 net.cpp:106] Creating Layer relu1
I0520 19:05:23.817215 30346 net.cpp:454] relu1 <- conv1
I0520 19:05:23.817229 30346 net.cpp:397] relu1 -> conv1 (in-place)
I0520 19:05:23.817746 30346 net.cpp:150] Setting up relu1
I0520 19:05:23.817762 30346 net.cpp:157] Top shape: 230 12 120 48 (15897600)
I0520 19:05:23.817772 30346 net.cpp:165] Memory required for data: 133023720
I0520 19:05:23.817782 30346 layer_factory.hpp:77] Creating layer pool1
I0520 19:05:23.817800 30346 net.cpp:106] Creating Layer pool1
I0520 19:05:23.817809 30346 net.cpp:454] pool1 <- conv1
I0520 19:05:23.817822 30346 net.cpp:411] pool1 -> pool1
I0520 19:05:23.817914 30346 net.cpp:150] Setting up pool1
I0520 19:05:23.817929 30346 net.cpp:157] Top shape: 230 12 60 48 (7948800)
I0520 19:05:23.817937 30346 net.cpp:165] Memory required for data: 164818920
I0520 19:05:23.817947 30346 layer_factory.hpp:77] Creating layer conv2
I0520 19:05:23.817970 30346 net.cpp:106] Creating Layer conv2
I0520 19:05:23.817981 30346 net.cpp:454] conv2 <- pool1
I0520 19:05:23.817993 30346 net.cpp:411] conv2 -> conv2
I0520 19:05:23.820677 30346 net.cpp:150] Setting up conv2
I0520 19:05:23.820703 30346 net.cpp:157] Top shape: 230 20 54 46 (11426400)
I0520 19:05:23.820714 30346 net.cpp:165] Memory required for data: 210524520
I0520 19:05:23.820734 30346 layer_factory.hpp:77] Creating layer relu2
I0520 19:05:23.820747 30346 net.cpp:106] Creating Layer relu2
I0520 19:05:23.820757 30346 net.cpp:454] relu2 <- conv2
I0520 19:05:23.820770 30346 net.cpp:397] relu2 -> conv2 (in-place)
I0520 19:05:23.821099 30346 net.cpp:150] Setting up relu2
I0520 19:05:23.821113 30346 net.cpp:157] Top shape: 230 20 54 46 (11426400)
I0520 19:05:23.821125 30346 net.cpp:165] Memory required for data: 256230120
I0520 19:05:23.821135 30346 layer_factory.hpp:77] Creating layer pool2
I0520 19:05:23.821147 30346 net.cpp:106] Creating Layer pool2
I0520 19:05:23.821157 30346 net.cpp:454] pool2 <- conv2
I0520 19:05:23.821182 30346 net.cpp:411] pool2 -> pool2
I0520 19:05:23.821251 30346 net.cpp:150] Setting up pool2
I0520 19:05:23.821264 30346 net.cpp:157] Top shape: 230 20 27 46 (5713200)
I0520 19:05:23.821274 30346 net.cpp:165] Memory required for data: 279082920
I0520 19:05:23.821285 30346 layer_factory.hpp:77] Creating layer conv3
I0520 19:05:23.821302 30346 net.cpp:106] Creating Layer conv3
I0520 19:05:23.821315 30346 net.cpp:454] conv3 <- pool2
I0520 19:05:23.821327 30346 net.cpp:411] conv3 -> conv3
I0520 19:05:23.823269 30346 net.cpp:150] Setting up conv3
I0520 19:05:23.823292 30346 net.cpp:157] Top shape: 230 28 22 44 (6233920)
I0520 19:05:23.823304 30346 net.cpp:165] Memory required for data: 304018600
I0520 19:05:23.823323 30346 layer_factory.hpp:77] Creating layer relu3
I0520 19:05:23.823339 30346 net.cpp:106] Creating Layer relu3
I0520 19:05:23.823349 30346 net.cpp:454] relu3 <- conv3
I0520 19:05:23.823361 30346 net.cpp:397] relu3 -> conv3 (in-place)
I0520 19:05:23.823829 30346 net.cpp:150] Setting up relu3
I0520 19:05:23.823846 30346 net.cpp:157] Top shape: 230 28 22 44 (6233920)
I0520 19:05:23.823858 30346 net.cpp:165] Memory required for data: 328954280
I0520 19:05:23.823868 30346 layer_factory.hpp:77] Creating layer pool3
I0520 19:05:23.823880 30346 net.cpp:106] Creating Layer pool3
I0520 19:05:23.823890 30346 net.cpp:454] pool3 <- conv3
I0520 19:05:23.823902 30346 net.cpp:411] pool3 -> pool3
I0520 19:05:23.823971 30346 net.cpp:150] Setting up pool3
I0520 19:05:23.823983 30346 net.cpp:157] Top shape: 230 28 11 44 (3116960)
I0520 19:05:23.823993 30346 net.cpp:165] Memory required for data: 341422120
I0520 19:05:23.824002 30346 layer_factory.hpp:77] Creating layer conv4
I0520 19:05:23.824020 30346 net.cpp:106] Creating Layer conv4
I0520 19:05:23.824031 30346 net.cpp:454] conv4 <- pool3
I0520 19:05:23.824044 30346 net.cpp:411] conv4 -> conv4
I0520 19:05:23.826761 30346 net.cpp:150] Setting up conv4
I0520 19:05:23.826789 30346 net.cpp:157] Top shape: 230 36 6 42 (2086560)
I0520 19:05:23.826800 30346 net.cpp:165] Memory required for data: 349768360
I0520 19:05:23.826815 30346 layer_factory.hpp:77] Creating layer relu4
I0520 19:05:23.826830 30346 net.cpp:106] Creating Layer relu4
I0520 19:05:23.826840 30346 net.cpp:454] relu4 <- conv4
I0520 19:05:23.826853 30346 net.cpp:397] relu4 -> conv4 (in-place)
I0520 19:05:23.827316 30346 net.cpp:150] Setting up relu4
I0520 19:05:23.827332 30346 net.cpp:157] Top shape: 230 36 6 42 (2086560)
I0520 19:05:23.827342 30346 net.cpp:165] Memory required for data: 358114600
I0520 19:05:23.827353 30346 layer_factory.hpp:77] Creating layer pool4
I0520 19:05:23.827363 30346 net.cpp:106] Creating Layer pool4
I0520 19:05:23.827373 30346 net.cpp:454] pool4 <- conv4
I0520 19:05:23.827386 30346 net.cpp:411] pool4 -> pool4
I0520 19:05:23.827455 30346 net.cpp:150] Setting up pool4
I0520 19:05:23.827468 30346 net.cpp:157] Top shape: 230 36 3 42 (1043280)
I0520 19:05:23.827478 30346 net.cpp:165] Memory required for data: 362287720
I0520 19:05:23.827488 30346 layer_factory.hpp:77] Creating layer ip1
I0520 19:05:23.827508 30346 net.cpp:106] Creating Layer ip1
I0520 19:05:23.827519 30346 net.cpp:454] ip1 <- pool4
I0520 19:05:23.827533 30346 net.cpp:411] ip1 -> ip1
I0520 19:05:23.842962 30346 net.cpp:150] Setting up ip1
I0520 19:05:23.842991 30346 net.cpp:157] Top shape: 230 196 (45080)
I0520 19:05:23.843003 30346 net.cpp:165] Memory required for data: 362468040
I0520 19:05:23.843025 30346 layer_factory.hpp:77] Creating layer relu5
I0520 19:05:23.843040 30346 net.cpp:106] Creating Layer relu5
I0520 19:05:23.843051 30346 net.cpp:454] relu5 <- ip1
I0520 19:05:23.843065 30346 net.cpp:397] relu5 -> ip1 (in-place)
I0520 19:05:23.843407 30346 net.cpp:150] Setting up relu5
I0520 19:05:23.843421 30346 net.cpp:157] Top shape: 230 196 (45080)
I0520 19:05:23.843432 30346 net.cpp:165] Memory required for data: 362648360
I0520 19:05:23.843442 30346 layer_factory.hpp:77] Creating layer drop1
I0520 19:05:23.843463 30346 net.cpp:106] Creating Layer drop1
I0520 19:05:23.843474 30346 net.cpp:454] drop1 <- ip1
I0520 19:05:23.843500 30346 net.cpp:397] drop1 -> ip1 (in-place)
I0520 19:05:23.843549 30346 net.cpp:150] Setting up drop1
I0520 19:05:23.843562 30346 net.cpp:157] Top shape: 230 196 (45080)
I0520 19:05:23.843572 30346 net.cpp:165] Memory required for data: 362828680
I0520 19:05:23.843582 30346 layer_factory.hpp:77] Creating layer ip2
I0520 19:05:23.843601 30346 net.cpp:106] Creating Layer ip2
I0520 19:05:23.843611 30346 net.cpp:454] ip2 <- ip1
I0520 19:05:23.843624 30346 net.cpp:411] ip2 -> ip2
I0520 19:05:23.844089 30346 net.cpp:150] Setting up ip2
I0520 19:05:23.844102 30346 net.cpp:157] Top shape: 230 98 (22540)
I0520 19:05:23.844112 30346 net.cpp:165] Memory required for data: 362918840
I0520 19:05:23.844127 30346 layer_factory.hpp:77] Creating layer relu6
I0520 19:05:23.844140 30346 net.cpp:106] Creating Layer relu6
I0520 19:05:23.844149 30346 net.cpp:454] relu6 <- ip2
I0520 19:05:23.844161 30346 net.cpp:397] relu6 -> ip2 (in-place)
I0520 19:05:23.844677 30346 net.cpp:150] Setting up relu6
I0520 19:05:23.844693 30346 net.cpp:157] Top shape: 230 98 (22540)
I0520 19:05:23.844704 30346 net.cpp:165] Memory required for data: 363009000
I0520 19:05:23.844714 30346 layer_factory.hpp:77] Creating layer drop2
I0520 19:05:23.844727 30346 net.cpp:106] Creating Layer drop2
I0520 19:05:23.844738 30346 net.cpp:454] drop2 <- ip2
I0520 19:05:23.844749 30346 net.cpp:397] drop2 -> ip2 (in-place)
I0520 19:05:23.844791 30346 net.cpp:150] Setting up drop2
I0520 19:05:23.844805 30346 net.cpp:157] Top shape: 230 98 (22540)
I0520 19:05:23.844815 30346 net.cpp:165] Memory required for data: 363099160
I0520 19:05:23.844825 30346 layer_factory.hpp:77] Creating layer ip3
I0520 19:05:23.844838 30346 net.cpp:106] Creating Layer ip3
I0520 19:05:23.844848 30346 net.cpp:454] ip3 <- ip2
I0520 19:05:23.844861 30346 net.cpp:411] ip3 -> ip3
I0520 19:05:23.845072 30346 net.cpp:150] Setting up ip3
I0520 19:05:23.845084 30346 net.cpp:157] Top shape: 230 11 (2530)
I0520 19:05:23.845094 30346 net.cpp:165] Memory required for data: 363109280
I0520 19:05:23.845109 30346 layer_factory.hpp:77] Creating layer drop3
I0520 19:05:23.845121 30346 net.cpp:106] Creating Layer drop3
I0520 19:05:23.845131 30346 net.cpp:454] drop3 <- ip3
I0520 19:05:23.845144 30346 net.cpp:397] drop3 -> ip3 (in-place)
I0520 19:05:23.845182 30346 net.cpp:150] Setting up drop3
I0520 19:05:23.845194 30346 net.cpp:157] Top shape: 230 11 (2530)
I0520 19:05:23.845206 30346 net.cpp:165] Memory required for data: 363119400
I0520 19:05:23.845214 30346 layer_factory.hpp:77] Creating layer loss
I0520 19:05:23.845233 30346 net.cpp:106] Creating Layer loss
I0520 19:05:23.845243 30346 net.cpp:454] loss <- ip3
I0520 19:05:23.845254 30346 net.cpp:454] loss <- label
I0520 19:05:23.845268 30346 net.cpp:411] loss -> loss
I0520 19:05:23.845284 30346 layer_factory.hpp:77] Creating layer loss
…
I0520 19:05:23.847878 30346 solver.cpp:181] Creating test net (#0) specified by net file: /lustre/atlas/proj-shared/hep105/caffe_titan/caffe_workflow/logs_batch_size_test/batch_size_230_2016-05-20T11.20.41.171138.prototxt
I0520 19:05:23.847949 30346 net.cpp:322] The NetState phase (1) differed from the phase (0) specified by a rule in layer data_hdf5
I0520 19:05:23.848304 30346 net.cpp:49] Initializing net from parameters: 
name: "caffe_test_127x50_x_unshifted"
state {
  phase: TEST
}
layer {
  name: "data_hdf5"
  type: "HDF5Data"
  top: "data"
  top: "label"
  include {
    phase: TEST
  }
  hdf5_data_param {
    source: "/lustre/atlas/proj-shared/hep105/caffe_titan/minosmatch_nukecczdefs_127x50_x_unshifted_me1Bmc.testlist"
    batch_size: 230
  }
}
layer {
  name: "conv1"
  type: "Convolution"
  bottom: "data"
  top: "conv1"
  convolution_param {
    num_output: 12
    pad: 0
    stride: 1
    weight_filler {
      type: "xavier"
    }
    bias_filler {
      type: "constant"
    }
    kernel_h: 8
    kernel_w: 3
  }
}
layer {
  name: "relu1"
  type: "ReLU"
  bottom: "conv1"
  top: "conv1"
}
layer {
  name: "pool1"
  type: "Pooling"
  bottom: "conv1"
  top: "pool1"
  pooling_param {
    pool: MAX
    kernel_h: 2
    kernel_w: 1
    stride_h: 2
    stride_w: 1
  }
}
layer {
  name: "conv2"
  type: "Convolution"
  bottom: "pool1"
  top: "conv2"
  convolution_param {
    num_output: 20
    pad: 0
    stride: 1
    weight_filler {
      type: "xavier"
    }
    bias_filler {
      type: "constant"
    }
    kernel_h: 7
    kernel_w: 3
  }
}
layer {
  name: "relu2"
  type: "ReLU"
  bottom: "conv2"
  top: "conv2"
}
layer {
  name: "pool2"
  type: "Pooling"
  bottom: "conv2"
  top: "pool2"
  pooling_param {
    pool: MAX
    kernel_h: 2
    kernel_w: 1
    stride_h: 2
    stride_w: 1
  }
}
layer {
  name: "conv3"
  type: "Convolution"
  bottom: "pool2"
  top: "conv3"
  convolution_param {
    num_output: 28
    pad: 0
    stride: 1
    weight_filler {
      type: "xavier"
    }
    bias_filler {
      type: "constant"
    }
    kernel_h: 6
    kernel_w: 3
  }
}
layer {
  name: "relu3"
  type: "ReLU"
  bottom: "conv3"
  top: "conv3"
}
layer {
  name: "pool3"
  type: "Pooling"
  bottom: "conv3"
  top: "pool3"
  pooling_param {
    pool: MAX
    kernel_h: 2
    kernel_w: 1
    stride_h: 2
    stride_w: 1
  }
}
layer {
  name: "conv4"
  type: "Convolution"
  bottom: "pool3"
  top: "conv4"
  convolution_param {
    num_output: 36
    pad: 0
    stride: 1
    weight_filler {
      type: "xavier"
    }
    bias_filler {
      type: "constant"
    }
    kernel_h: 6
    kernel_w: 3
  }
}
layer {
  name: "relu4"
  type: "ReLU"
  bottom: "conv4"
  top: "conv4"
}
layer {
  name: "pool4"
  type: "Pooling"
  bottom: "conv4"
  top: "pool4"
  pooling_param {
    pool: MAX
    kernel_h: 2
    kernel_w: 1
    stride_h: 2
    stride_w: 1
  }
}
layer {
  name: "ip1"
  type: "InnerProduct"
  bottom: "pool4"
  top: "ip1"
  inner_product_param {
    num_output: 196
    weight_filler {
      type: "xavier"
    }
    bias_filler {
      type: "constant"
    }
  }
}
layer {
  name: "relu5"
  type: "ReLU"
  bottom: "ip1"
  top: "ip1"
}
layer {
  name: "drop1"
  type: "Dropout"
  bottom: "ip1"
  top: "ip1"
  dropout_param {
    dropout_ratio: 0.5
  }
}
layer {
  name: "ip2"
  type: "InnerProduct"
  bottom: "ip1"
  top: "ip2"
  inner_product_param {
    num_output: 98
    weight_filler {
      type: "xavier"
    }
    bias_filler {
      type: "constant"
    }
  }
}
layer {
  name: "relu6"
  type: "ReLU"
  bottom: "ip2"
  top: "ip2"
}
layer {
  name: "drop2"
  type: "Dropout"
  bottom: "ip2"
  top: "ip2"
  dropout_param {
    dropout_ratio: 0.5
  }
}
layer {
  name: "ip3"
  type: "InnerProduct"
  bottom: "ip2"
  top: "ip3"
  inner_product_param {
    num_output: 11
    weight_filler {
      type: "xavier"
    }
    bias_filler {
      type: "constant"
    }
  }
}
layer {
  name: "drop3"
  type: "Dropout"
  bottom: "ip3"
  top: "ip3"
  dropout_param {
    dropout_ratio: 0.5
  }
}
layer {
  name: "accuracy"
  type: "Accuracy"
  bottom: "ip3"
  bottom: "label"
  top: "accuracy"
  include {
    phase: TEST
  }
}
layer {
  name: "loss"
  type: "SoftmaxWithLoss"
  bottom: "ip3"
  bottom: "label"
  top: "loss"
}
I0520 19:05:23.848491 30346 layer_factory.hpp:77] Creating layer data_hdf5
I0520 19:05:23.848507 30346 net.cpp:106] Creating Layer data_hdf5
I0520 19:05:23.848520 30346 net.cpp:411] data_hdf5 -> data
I0520 19:05:23.848536 30346 net.cpp:411] data_hdf5 -> label
I0520 19:05:23.848552 30346 hdf5_data_layer.cpp:79] Loading list of HDF5 filenames from: /lustre/atlas/proj-shared/hep105/caffe_titan/minosmatch_nukecczdefs_127x50_x_unshifted_me1Bmc.testlist
I0520 19:05:23.849748 30346 hdf5_data_layer.cpp:93] Number of HDF5 files: 3
I0520 19:05:45.150058 30346 net.cpp:150] Setting up data_hdf5
I0520 19:05:45.150225 30346 net.cpp:157] Top shape: 230 1 127 50 (1460500)
I0520 19:05:45.150240 30346 net.cpp:157] Top shape: 230 (230)
I0520 19:05:45.150252 30346 net.cpp:165] Memory required for data: 5842920
I0520 19:05:45.150265 30346 layer_factory.hpp:77] Creating layer label_data_hdf5_1_split
I0520 19:05:45.150293 30346 net.cpp:106] Creating Layer label_data_hdf5_1_split
I0520 19:05:45.150305 30346 net.cpp:454] label_data_hdf5_1_split <- label
I0520 19:05:45.150319 30346 net.cpp:411] label_data_hdf5_1_split -> label_data_hdf5_1_split_0
I0520 19:05:45.150341 30346 net.cpp:411] label_data_hdf5_1_split -> label_data_hdf5_1_split_1
I0520 19:05:45.150413 30346 net.cpp:150] Setting up label_data_hdf5_1_split
I0520 19:05:45.150427 30346 net.cpp:157] Top shape: 230 (230)
I0520 19:05:45.150439 30346 net.cpp:157] Top shape: 230 (230)
I0520 19:05:45.150447 30346 net.cpp:165] Memory required for data: 5844760
I0520 19:05:45.150457 30346 layer_factory.hpp:77] Creating layer conv1
I0520 19:05:45.150480 30346 net.cpp:106] Creating Layer conv1
I0520 19:05:45.150490 30346 net.cpp:454] conv1 <- data
I0520 19:05:45.150504 30346 net.cpp:411] conv1 -> conv1
I0520 19:05:45.152443 30346 net.cpp:150] Setting up conv1
I0520 19:05:45.152467 30346 net.cpp:157] Top shape: 230 12 120 48 (15897600)
I0520 19:05:45.152478 30346 net.cpp:165] Memory required for data: 69435160
I0520 19:05:45.152499 30346 layer_factory.hpp:77] Creating layer relu1
I0520 19:05:45.152514 30346 net.cpp:106] Creating Layer relu1
I0520 19:05:45.152524 30346 net.cpp:454] relu1 <- conv1
I0520 19:05:45.152537 30346 net.cpp:397] relu1 -> conv1 (in-place)
I0520 19:05:45.153033 30346 net.cpp:150] Setting up relu1
I0520 19:05:45.153049 30346 net.cpp:157] Top shape: 230 12 120 48 (15897600)
I0520 19:05:45.153060 30346 net.cpp:165] Memory required for data: 133025560
I0520 19:05:45.153070 30346 layer_factory.hpp:77] Creating layer pool1
I0520 19:05:45.153086 30346 net.cpp:106] Creating Layer pool1
I0520 19:05:45.153096 30346 net.cpp:454] pool1 <- conv1
I0520 19:05:45.153108 30346 net.cpp:411] pool1 -> pool1
I0520 19:05:45.153183 30346 net.cpp:150] Setting up pool1
I0520 19:05:45.153197 30346 net.cpp:157] Top shape: 230 12 60 48 (7948800)
I0520 19:05:45.153206 30346 net.cpp:165] Memory required for data: 164820760
I0520 19:05:45.153216 30346 layer_factory.hpp:77] Creating layer conv2
I0520 19:05:45.153234 30346 net.cpp:106] Creating Layer conv2
I0520 19:05:45.153245 30346 net.cpp:454] conv2 <- pool1
I0520 19:05:45.153259 30346 net.cpp:411] conv2 -> conv2
I0520 19:05:45.155195 30346 net.cpp:150] Setting up conv2
I0520 19:05:45.155217 30346 net.cpp:157] Top shape: 230 20 54 46 (11426400)
I0520 19:05:45.155230 30346 net.cpp:165] Memory required for data: 210526360
I0520 19:05:45.155247 30346 layer_factory.hpp:77] Creating layer relu2
I0520 19:05:45.155261 30346 net.cpp:106] Creating Layer relu2
I0520 19:05:45.155270 30346 net.cpp:454] relu2 <- conv2
I0520 19:05:45.155283 30346 net.cpp:397] relu2 -> conv2 (in-place)
I0520 19:05:45.155616 30346 net.cpp:150] Setting up relu2
I0520 19:05:45.155630 30346 net.cpp:157] Top shape: 230 20 54 46 (11426400)
I0520 19:05:45.155640 30346 net.cpp:165] Memory required for data: 256231960
I0520 19:05:45.155650 30346 layer_factory.hpp:77] Creating layer pool2
I0520 19:05:45.155663 30346 net.cpp:106] Creating Layer pool2
I0520 19:05:45.155673 30346 net.cpp:454] pool2 <- conv2
I0520 19:05:45.155685 30346 net.cpp:411] pool2 -> pool2
I0520 19:05:45.155757 30346 net.cpp:150] Setting up pool2
I0520 19:05:45.155771 30346 net.cpp:157] Top shape: 230 20 27 46 (5713200)
I0520 19:05:45.155781 30346 net.cpp:165] Memory required for data: 279084760
I0520 19:05:45.155791 30346 layer_factory.hpp:77] Creating layer conv3
I0520 19:05:45.155807 30346 net.cpp:106] Creating Layer conv3
I0520 19:05:45.155818 30346 net.cpp:454] conv3 <- pool2
I0520 19:05:45.155832 30346 net.cpp:411] conv3 -> conv3
I0520 19:05:45.157799 30346 net.cpp:150] Setting up conv3
I0520 19:05:45.157822 30346 net.cpp:157] Top shape: 230 28 22 44 (6233920)
I0520 19:05:45.157833 30346 net.cpp:165] Memory required for data: 304020440
I0520 19:05:45.157873 30346 layer_factory.hpp:77] Creating layer relu3
I0520 19:05:45.157887 30346 net.cpp:106] Creating Layer relu3
I0520 19:05:45.157897 30346 net.cpp:454] relu3 <- conv3
I0520 19:05:45.157908 30346 net.cpp:397] relu3 -> conv3 (in-place)
I0520 19:05:45.158382 30346 net.cpp:150] Setting up relu3
I0520 19:05:45.158398 30346 net.cpp:157] Top shape: 230 28 22 44 (6233920)
I0520 19:05:45.158409 30346 net.cpp:165] Memory required for data: 328956120
I0520 19:05:45.158419 30346 layer_factory.hpp:77] Creating layer pool3
I0520 19:05:45.158432 30346 net.cpp:106] Creating Layer pool3
I0520 19:05:45.158442 30346 net.cpp:454] pool3 <- conv3
I0520 19:05:45.158455 30346 net.cpp:411] pool3 -> pool3
I0520 19:05:45.158526 30346 net.cpp:150] Setting up pool3
I0520 19:05:45.158540 30346 net.cpp:157] Top shape: 230 28 11 44 (3116960)
I0520 19:05:45.158550 30346 net.cpp:165] Memory required for data: 341423960
I0520 19:05:45.158560 30346 layer_factory.hpp:77] Creating layer conv4
I0520 19:05:45.158577 30346 net.cpp:106] Creating Layer conv4
I0520 19:05:45.158587 30346 net.cpp:454] conv4 <- pool3
I0520 19:05:45.158601 30346 net.cpp:411] conv4 -> conv4
I0520 19:05:45.160650 30346 net.cpp:150] Setting up conv4
I0520 19:05:45.160673 30346 net.cpp:157] Top shape: 230 36 6 42 (2086560)
I0520 19:05:45.160686 30346 net.cpp:165] Memory required for data: 349770200
I0520 19:05:45.160701 30346 layer_factory.hpp:77] Creating layer relu4
I0520 19:05:45.160714 30346 net.cpp:106] Creating Layer relu4
I0520 19:05:45.160724 30346 net.cpp:454] relu4 <- conv4
I0520 19:05:45.160737 30346 net.cpp:397] relu4 -> conv4 (in-place)
I0520 19:05:45.161203 30346 net.cpp:150] Setting up relu4
I0520 19:05:45.161219 30346 net.cpp:157] Top shape: 230 36 6 42 (2086560)
I0520 19:05:45.161229 30346 net.cpp:165] Memory required for data: 358116440
I0520 19:05:45.161239 30346 layer_factory.hpp:77] Creating layer pool4
I0520 19:05:45.161252 30346 net.cpp:106] Creating Layer pool4
I0520 19:05:45.161262 30346 net.cpp:454] pool4 <- conv4
I0520 19:05:45.161275 30346 net.cpp:411] pool4 -> pool4
I0520 19:05:45.161347 30346 net.cpp:150] Setting up pool4
I0520 19:05:45.161361 30346 net.cpp:157] Top shape: 230 36 3 42 (1043280)
I0520 19:05:45.161370 30346 net.cpp:165] Memory required for data: 362289560
I0520 19:05:45.161381 30346 layer_factory.hpp:77] Creating layer ip1
I0520 19:05:45.161396 30346 net.cpp:106] Creating Layer ip1
I0520 19:05:45.161406 30346 net.cpp:454] ip1 <- pool4
I0520 19:05:45.161418 30346 net.cpp:411] ip1 -> ip1
I0520 19:05:45.176908 30346 net.cpp:150] Setting up ip1
I0520 19:05:45.176936 30346 net.cpp:157] Top shape: 230 196 (45080)
I0520 19:05:45.176949 30346 net.cpp:165] Memory required for data: 362469880
I0520 19:05:45.176971 30346 layer_factory.hpp:77] Creating layer relu5
I0520 19:05:45.176987 30346 net.cpp:106] Creating Layer relu5
I0520 19:05:45.176998 30346 net.cpp:454] relu5 <- ip1
I0520 19:05:45.177011 30346 net.cpp:397] relu5 -> ip1 (in-place)
I0520 19:05:45.177356 30346 net.cpp:150] Setting up relu5
I0520 19:05:45.177371 30346 net.cpp:157] Top shape: 230 196 (45080)
I0520 19:05:45.177381 30346 net.cpp:165] Memory required for data: 362650200
I0520 19:05:45.177392 30346 layer_factory.hpp:77] Creating layer drop1
I0520 19:05:45.177410 30346 net.cpp:106] Creating Layer drop1
I0520 19:05:45.177420 30346 net.cpp:454] drop1 <- ip1
I0520 19:05:45.177433 30346 net.cpp:397] drop1 -> ip1 (in-place)
I0520 19:05:45.177480 30346 net.cpp:150] Setting up drop1
I0520 19:05:45.177494 30346 net.cpp:157] Top shape: 230 196 (45080)
I0520 19:05:45.177503 30346 net.cpp:165] Memory required for data: 362830520
I0520 19:05:45.177513 30346 layer_factory.hpp:77] Creating layer ip2
I0520 19:05:45.177527 30346 net.cpp:106] Creating Layer ip2
I0520 19:05:45.177537 30346 net.cpp:454] ip2 <- ip1
I0520 19:05:45.177551 30346 net.cpp:411] ip2 -> ip2
I0520 19:05:45.178037 30346 net.cpp:150] Setting up ip2
I0520 19:05:45.178050 30346 net.cpp:157] Top shape: 230 98 (22540)
I0520 19:05:45.178061 30346 net.cpp:165] Memory required for data: 362920680
I0520 19:05:45.178088 30346 layer_factory.hpp:77] Creating layer relu6
I0520 19:05:45.178102 30346 net.cpp:106] Creating Layer relu6
I0520 19:05:45.178112 30346 net.cpp:454] relu6 <- ip2
I0520 19:05:45.178123 30346 net.cpp:397] relu6 -> ip2 (in-place)
I0520 19:05:45.178660 30346 net.cpp:150] Setting up relu6
I0520 19:05:45.178683 30346 net.cpp:157] Top shape: 230 98 (22540)
I0520 19:05:45.178691 30346 net.cpp:165] Memory required for data: 363010840
I0520 19:05:45.178701 30346 layer_factory.hpp:77] Creating layer drop2
I0520 19:05:45.178716 30346 net.cpp:106] Creating Layer drop2
I0520 19:05:45.178726 30346 net.cpp:454] drop2 <- ip2
I0520 19:05:45.178740 30346 net.cpp:397] drop2 -> ip2 (in-place)
I0520 19:05:45.178783 30346 net.cpp:150] Setting up drop2
I0520 19:05:45.178797 30346 net.cpp:157] Top shape: 230 98 (22540)
I0520 19:05:45.178807 30346 net.cpp:165] Memory required for data: 363101000
I0520 19:05:45.178817 30346 layer_factory.hpp:77] Creating layer ip3
I0520 19:05:45.178831 30346 net.cpp:106] Creating Layer ip3
I0520 19:05:45.178841 30346 net.cpp:454] ip3 <- ip2
I0520 19:05:45.178855 30346 net.cpp:411] ip3 -> ip3
I0520 19:05:45.179077 30346 net.cpp:150] Setting up ip3
I0520 19:05:45.179090 30346 net.cpp:157] Top shape: 230 11 (2530)
I0520 19:05:45.179100 30346 net.cpp:165] Memory required for data: 363111120
I0520 19:05:45.179116 30346 layer_factory.hpp:77] Creating layer drop3
I0520 19:05:45.179128 30346 net.cpp:106] Creating Layer drop3
I0520 19:05:45.179138 30346 net.cpp:454] drop3 <- ip3
I0520 19:05:45.179152 30346 net.cpp:397] drop3 -> ip3 (in-place)
I0520 19:05:45.179193 30346 net.cpp:150] Setting up drop3
I0520 19:05:45.179205 30346 net.cpp:157] Top shape: 230 11 (2530)
I0520 19:05:45.179215 30346 net.cpp:165] Memory required for data: 363121240
I0520 19:05:45.179224 30346 layer_factory.hpp:77] Creating layer ip3_drop3_0_split
I0520 19:05:45.179237 30346 net.cpp:106] Creating Layer ip3_drop3_0_split
I0520 19:05:45.179247 30346 net.cpp:454] ip3_drop3_0_split <- ip3
I0520 19:05:45.179260 30346 net.cpp:411] ip3_drop3_0_split -> ip3_drop3_0_split_0
I0520 19:05:45.179275 30346 net.cpp:411] ip3_drop3_0_split -> ip3_drop3_0_split_1
I0520 19:05:45.179349 30346 net.cpp:150] Setting up ip3_drop3_0_split
I0520 19:05:45.179363 30346 net.cpp:157] Top shape: 230 11 (2530)
I0520 19:05:45.179375 30346 net.cpp:157] Top shape: 230 11 (2530)
I0520 19:05:45.179385 30346 net.cpp:165] Memory required for data: 363141480
I0520 19:05:45.179396 30346 layer_factory.hpp:77] Creating layer accuracy
I0520 19:05:45.179419 30346 net.cpp:106] Creating Layer accuracy
I0520 19:05:45.179428 30346 net.cpp:454] accuracy <- ip3_drop3_0_split_0
I0520 19:05:45.179440 30346 net.cpp:454] accuracy <- label_data_hdf5_1_split_0
I0520 19:05:45.179453 30346 net.cpp:411] accuracy -> accuracy
…
