…
I0521 06:35:24.884039  2420 net.cpp:322] The NetState phase (0) differed from the phase (1) specified by a rule in layer data_hdf5
I0521 06:35:24.884099  2420 net.cpp:322] The NetState phase (0) differed from the phase (1) specified by a rule in layer accuracy
I0521 06:35:24.884443  2420 net.cpp:49] Initializing net from parameters: 
name: "caffe_test_127x50_x_unshifted"
state {
  phase: TRAIN
}
layer {
  name: "data_hdf5"
  type: "HDF5Data"
  top: "data"
  top: "label"
  include {
    phase: TRAIN
  }
  hdf5_data_param {
    source: "/lustre/atlas/proj-shared/hep105/caffe_titan/minosmatch_nukecczdefs_127x50_x_unshifted_me1Bmc.trainlist"
    batch_size: 760
  }
}
layer {
  name: "conv1"
  type: "Convolution"
  bottom: "data"
  top: "conv1"
  convolution_param {
    num_output: 12
    pad: 0
    stride: 1
    weight_filler {
      type: "xavier"
    }
    bias_filler {
      type: "constant"
    }
    kernel_h: 8
    kernel_w: 3
  }
}
layer {
  name: "relu1"
  type: "ReLU"
  bottom: "conv1"
  top: "conv1"
}
layer {
  name: "pool1"
  type: "Pooling"
  bottom: "conv1"
  top: "pool1"
  pooling_param {
    pool: MAX
    kernel_h: 2
    kernel_w: 1
    stride_h: 2
    stride_w: 1
  }
}
layer {
  name: "conv2"
  type: "Convolution"
  bottom: "pool1"
  top: "conv2"
  convolution_param {
    num_output: 20
    pad: 0
    stride: 1
    weight_filler {
      type: "xavier"
    }
    bias_filler {
      type: "constant"
    }
    kernel_h: 7
    kernel_w: 3
  }
}
layer {
  name: "relu2"
  type: "ReLU"
  bottom: "conv2"
  top: "conv2"
}
layer {
  name: "pool2"
  type: "Pooling"
  bottom: "conv2"
  top: "pool2"
  pooling_param {
    pool: MAX
    kernel_h: 2
    kernel_w: 1
    stride_h: 2
    stride_w: 1
  }
}
layer {
  name: "conv3"
  type: "Convolution"
  bottom: "pool2"
  top: "conv3"
  convolution_param {
    num_output: 28
    pad: 0
    stride: 1
    weight_filler {
      type: "xavier"
    }
    bias_filler {
      type: "constant"
    }
    kernel_h: 6
    kernel_w: 3
  }
}
layer {
  name: "relu3"
  type: "ReLU"
  bottom: "conv3"
  top: "conv3"
}
layer {
  name: "pool3"
  type: "Pooling"
  bottom: "conv3"
  top: "pool3"
  pooling_param {
    pool: MAX
    kernel_h: 2
    kernel_w: 1
    stride_h: 2
    stride_w: 1
  }
}
layer {
  name: "conv4"
  type: "Convolution"
  bottom: "pool3"
  top: "conv4"
  convolution_param {
    num_output: 36
    pad: 0
    stride: 1
    weight_filler {
      type: "xavier"
    }
    bias_filler {
      type: "constant"
    }
    kernel_h: 6
    kernel_w: 3
  }
}
layer {
  name: "relu4"
  type: "ReLU"
  bottom: "conv4"
  top: "conv4"
}
layer {
  name: "pool4"
  type: "Pooling"
  bottom: "conv4"
  top: "pool4"
  pooling_param {
    pool: MAX
    kernel_h: 2
    kernel_w: 1
    stride_h: 2
    stride_w: 1
  }
}
layer {
  name: "ip1"
  type: "InnerProduct"
  bottom: "pool4"
  top: "ip1"
  inner_product_param {
    num_output: 196
    weight_filler {
      type: "xavier"
    }
    bias_filler {
      type: "constant"
    }
  }
}
layer {
  name: "relu5"
  type: "ReLU"
  bottom: "ip1"
  top: "ip1"
}
layer {
  name: "drop1"
  type: "Dropout"
  bottom: "ip1"
  top: "ip1"
  dropout_param {
    dropout_ratio: 0.5
  }
}
layer {
  name: "ip2"
  type: "InnerProduct"
  bottom: "ip1"
  top: "ip2"
  inner_product_param {
    num_output: 98
    weight_filler {
      type: "xavier"
    }
    bias_filler {
      type: "constant"
    }
  }
}
layer {
  name: "relu6"
  type: "ReLU"
  bottom: "ip2"
  top: "ip2"
}
layer {
  name: "drop2"
  type: "Dropout"
  bottom: "ip2"
  top: "ip2"
  dropout_param {
    dropout_ratio: 0.5
  }
}
layer {
  name: "ip3"
  type: "InnerProduct"
  bottom: "ip2"
  top: "ip3"
  inner_product_param {
    num_output: 11
    weight_filler {
      type: "xavier"
    }
    bias_filler {
      type: "constant"
    }
  }
}
layer {
  name: "drop3"
  type: "Dropout"
  bottom: "ip3"
  top: "ip3"
  dropout_param {
    dropout_ratio: 0.5
  }
}
layer {
  name: "loss"
  type: "SoftmaxWithLoss"
  bottom: "ip3"
  bottom: "label"
  top: "loss"
}
I0521 06:35:24.884625  2420 layer_factory.hpp:77] Creating layer data_hdf5
I0521 06:35:24.884649  2420 net.cpp:106] Creating Layer data_hdf5
I0521 06:35:24.884665  2420 net.cpp:411] data_hdf5 -> data
I0521 06:35:24.884697  2420 net.cpp:411] data_hdf5 -> label
I0521 06:35:24.884729  2420 hdf5_data_layer.cpp:79] Loading list of HDF5 filenames from: /lustre/atlas/proj-shared/hep105/caffe_titan/minosmatch_nukecczdefs_127x50_x_unshifted_me1Bmc.trainlist
I0521 06:35:24.885946  2420 hdf5_data_layer.cpp:93] Number of HDF5 files: 15
I0521 06:35:24.888125  2420 hdf5.cpp:32] Datatype class: H5T_FLOAT
I0521 06:35:46.425783  2420 hdf5.cpp:35] Datatype class: H5T_INTEGER
I0521 06:35:46.430918  2420 net.cpp:150] Setting up data_hdf5
I0521 06:35:46.430965  2420 net.cpp:157] Top shape: 760 1 127 50 (4826000)
I0521 06:35:46.430979  2420 net.cpp:157] Top shape: 760 (760)
I0521 06:35:46.430989  2420 net.cpp:165] Memory required for data: 19307040
I0521 06:35:46.431002  2420 layer_factory.hpp:77] Creating layer conv1
I0521 06:35:46.431035  2420 net.cpp:106] Creating Layer conv1
I0521 06:35:46.431047  2420 net.cpp:454] conv1 <- data
I0521 06:35:46.431071  2420 net.cpp:411] conv1 -> conv1
I0521 06:35:46.795680  2420 net.cpp:150] Setting up conv1
I0521 06:35:46.795727  2420 net.cpp:157] Top shape: 760 12 120 48 (52531200)
I0521 06:35:46.795738  2420 net.cpp:165] Memory required for data: 229431840
I0521 06:35:46.795770  2420 layer_factory.hpp:77] Creating layer relu1
I0521 06:35:46.795791  2420 net.cpp:106] Creating Layer relu1
I0521 06:35:46.795802  2420 net.cpp:454] relu1 <- conv1
I0521 06:35:46.795815  2420 net.cpp:397] relu1 -> conv1 (in-place)
I0521 06:35:46.796334  2420 net.cpp:150] Setting up relu1
I0521 06:35:46.796350  2420 net.cpp:157] Top shape: 760 12 120 48 (52531200)
I0521 06:35:46.796361  2420 net.cpp:165] Memory required for data: 439556640
I0521 06:35:46.796372  2420 layer_factory.hpp:77] Creating layer pool1
I0521 06:35:46.796388  2420 net.cpp:106] Creating Layer pool1
I0521 06:35:46.796399  2420 net.cpp:454] pool1 <- conv1
I0521 06:35:46.796413  2420 net.cpp:411] pool1 -> pool1
I0521 06:35:46.796492  2420 net.cpp:150] Setting up pool1
I0521 06:35:46.796507  2420 net.cpp:157] Top shape: 760 12 60 48 (26265600)
I0521 06:35:46.796517  2420 net.cpp:165] Memory required for data: 544619040
I0521 06:35:46.796527  2420 layer_factory.hpp:77] Creating layer conv2
I0521 06:35:46.796550  2420 net.cpp:106] Creating Layer conv2
I0521 06:35:46.796561  2420 net.cpp:454] conv2 <- pool1
I0521 06:35:46.796573  2420 net.cpp:411] conv2 -> conv2
I0521 06:35:46.799340  2420 net.cpp:150] Setting up conv2
I0521 06:35:46.799367  2420 net.cpp:157] Top shape: 760 20 54 46 (37756800)
I0521 06:35:46.799378  2420 net.cpp:165] Memory required for data: 695646240
I0521 06:35:46.799397  2420 layer_factory.hpp:77] Creating layer relu2
I0521 06:35:46.799412  2420 net.cpp:106] Creating Layer relu2
I0521 06:35:46.799422  2420 net.cpp:454] relu2 <- conv2
I0521 06:35:46.799435  2420 net.cpp:397] relu2 -> conv2 (in-place)
I0521 06:35:46.799767  2420 net.cpp:150] Setting up relu2
I0521 06:35:46.799780  2420 net.cpp:157] Top shape: 760 20 54 46 (37756800)
I0521 06:35:46.799790  2420 net.cpp:165] Memory required for data: 846673440
I0521 06:35:46.799801  2420 layer_factory.hpp:77] Creating layer pool2
I0521 06:35:46.799813  2420 net.cpp:106] Creating Layer pool2
I0521 06:35:46.799823  2420 net.cpp:454] pool2 <- conv2
I0521 06:35:46.799849  2420 net.cpp:411] pool2 -> pool2
I0521 06:35:46.799917  2420 net.cpp:150] Setting up pool2
I0521 06:35:46.799931  2420 net.cpp:157] Top shape: 760 20 27 46 (18878400)
I0521 06:35:46.799940  2420 net.cpp:165] Memory required for data: 922187040
I0521 06:35:46.799947  2420 layer_factory.hpp:77] Creating layer conv3
I0521 06:35:46.799964  2420 net.cpp:106] Creating Layer conv3
I0521 06:35:46.799975  2420 net.cpp:454] conv3 <- pool2
I0521 06:35:46.799988  2420 net.cpp:411] conv3 -> conv3
I0521 06:35:46.801909  2420 net.cpp:150] Setting up conv3
I0521 06:35:46.801933  2420 net.cpp:157] Top shape: 760 28 22 44 (20599040)
I0521 06:35:46.801945  2420 net.cpp:165] Memory required for data: 1004583200
I0521 06:35:46.801964  2420 layer_factory.hpp:77] Creating layer relu3
I0521 06:35:46.801980  2420 net.cpp:106] Creating Layer relu3
I0521 06:35:46.801990  2420 net.cpp:454] relu3 <- conv3
I0521 06:35:46.802002  2420 net.cpp:397] relu3 -> conv3 (in-place)
I0521 06:35:46.802489  2420 net.cpp:150] Setting up relu3
I0521 06:35:46.802507  2420 net.cpp:157] Top shape: 760 28 22 44 (20599040)
I0521 06:35:46.802518  2420 net.cpp:165] Memory required for data: 1086979360
I0521 06:35:46.802528  2420 layer_factory.hpp:77] Creating layer pool3
I0521 06:35:46.802541  2420 net.cpp:106] Creating Layer pool3
I0521 06:35:46.802551  2420 net.cpp:454] pool3 <- conv3
I0521 06:35:46.802564  2420 net.cpp:411] pool3 -> pool3
I0521 06:35:46.802633  2420 net.cpp:150] Setting up pool3
I0521 06:35:46.802645  2420 net.cpp:157] Top shape: 760 28 11 44 (10299520)
I0521 06:35:46.802655  2420 net.cpp:165] Memory required for data: 1128177440
I0521 06:35:46.802665  2420 layer_factory.hpp:77] Creating layer conv4
I0521 06:35:46.802682  2420 net.cpp:106] Creating Layer conv4
I0521 06:35:46.802693  2420 net.cpp:454] conv4 <- pool3
I0521 06:35:46.802707  2420 net.cpp:411] conv4 -> conv4
I0521 06:35:46.805474  2420 net.cpp:150] Setting up conv4
I0521 06:35:46.805502  2420 net.cpp:157] Top shape: 760 36 6 42 (6894720)
I0521 06:35:46.805512  2420 net.cpp:165] Memory required for data: 1155756320
I0521 06:35:46.805527  2420 layer_factory.hpp:77] Creating layer relu4
I0521 06:35:46.805541  2420 net.cpp:106] Creating Layer relu4
I0521 06:35:46.805552  2420 net.cpp:454] relu4 <- conv4
I0521 06:35:46.805565  2420 net.cpp:397] relu4 -> conv4 (in-place)
I0521 06:35:46.806035  2420 net.cpp:150] Setting up relu4
I0521 06:35:46.806051  2420 net.cpp:157] Top shape: 760 36 6 42 (6894720)
I0521 06:35:46.806062  2420 net.cpp:165] Memory required for data: 1183335200
I0521 06:35:46.806073  2420 layer_factory.hpp:77] Creating layer pool4
I0521 06:35:46.806087  2420 net.cpp:106] Creating Layer pool4
I0521 06:35:46.806097  2420 net.cpp:454] pool4 <- conv4
I0521 06:35:46.806108  2420 net.cpp:411] pool4 -> pool4
I0521 06:35:46.806176  2420 net.cpp:150] Setting up pool4
I0521 06:35:46.806190  2420 net.cpp:157] Top shape: 760 36 3 42 (3447360)
I0521 06:35:46.806201  2420 net.cpp:165] Memory required for data: 1197124640
I0521 06:35:46.806210  2420 layer_factory.hpp:77] Creating layer ip1
I0521 06:35:46.806231  2420 net.cpp:106] Creating Layer ip1
I0521 06:35:46.806241  2420 net.cpp:454] ip1 <- pool4
I0521 06:35:46.806255  2420 net.cpp:411] ip1 -> ip1
I0521 06:35:46.821689  2420 net.cpp:150] Setting up ip1
I0521 06:35:46.821718  2420 net.cpp:157] Top shape: 760 196 (148960)
I0521 06:35:46.821730  2420 net.cpp:165] Memory required for data: 1197720480
I0521 06:35:46.821753  2420 layer_factory.hpp:77] Creating layer relu5
I0521 06:35:46.821768  2420 net.cpp:106] Creating Layer relu5
I0521 06:35:46.821777  2420 net.cpp:454] relu5 <- ip1
I0521 06:35:46.821790  2420 net.cpp:397] relu5 -> ip1 (in-place)
I0521 06:35:46.822131  2420 net.cpp:150] Setting up relu5
I0521 06:35:46.822146  2420 net.cpp:157] Top shape: 760 196 (148960)
I0521 06:35:46.822156  2420 net.cpp:165] Memory required for data: 1198316320
I0521 06:35:46.822166  2420 layer_factory.hpp:77] Creating layer drop1
I0521 06:35:46.822187  2420 net.cpp:106] Creating Layer drop1
I0521 06:35:46.822197  2420 net.cpp:454] drop1 <- ip1
I0521 06:35:46.822223  2420 net.cpp:397] drop1 -> ip1 (in-place)
I0521 06:35:46.822278  2420 net.cpp:150] Setting up drop1
I0521 06:35:46.822290  2420 net.cpp:157] Top shape: 760 196 (148960)
I0521 06:35:46.822301  2420 net.cpp:165] Memory required for data: 1198912160
I0521 06:35:46.822310  2420 layer_factory.hpp:77] Creating layer ip2
I0521 06:35:46.822329  2420 net.cpp:106] Creating Layer ip2
I0521 06:35:46.822340  2420 net.cpp:454] ip2 <- ip1
I0521 06:35:46.822352  2420 net.cpp:411] ip2 -> ip2
I0521 06:35:46.822818  2420 net.cpp:150] Setting up ip2
I0521 06:35:46.822830  2420 net.cpp:157] Top shape: 760 98 (74480)
I0521 06:35:46.822840  2420 net.cpp:165] Memory required for data: 1199210080
I0521 06:35:46.822855  2420 layer_factory.hpp:77] Creating layer relu6
I0521 06:35:46.822868  2420 net.cpp:106] Creating Layer relu6
I0521 06:35:46.822877  2420 net.cpp:454] relu6 <- ip2
I0521 06:35:46.822890  2420 net.cpp:397] relu6 -> ip2 (in-place)
I0521 06:35:46.823407  2420 net.cpp:150] Setting up relu6
I0521 06:35:46.823423  2420 net.cpp:157] Top shape: 760 98 (74480)
I0521 06:35:46.823434  2420 net.cpp:165] Memory required for data: 1199508000
I0521 06:35:46.823444  2420 layer_factory.hpp:77] Creating layer drop2
I0521 06:35:46.823457  2420 net.cpp:106] Creating Layer drop2
I0521 06:35:46.823467  2420 net.cpp:454] drop2 <- ip2
I0521 06:35:46.823479  2420 net.cpp:397] drop2 -> ip2 (in-place)
I0521 06:35:46.823521  2420 net.cpp:150] Setting up drop2
I0521 06:35:46.823534  2420 net.cpp:157] Top shape: 760 98 (74480)
I0521 06:35:46.823544  2420 net.cpp:165] Memory required for data: 1199805920
I0521 06:35:46.823554  2420 layer_factory.hpp:77] Creating layer ip3
I0521 06:35:46.823567  2420 net.cpp:106] Creating Layer ip3
I0521 06:35:46.823577  2420 net.cpp:454] ip3 <- ip2
I0521 06:35:46.823591  2420 net.cpp:411] ip3 -> ip3
I0521 06:35:46.823801  2420 net.cpp:150] Setting up ip3
I0521 06:35:46.823813  2420 net.cpp:157] Top shape: 760 11 (8360)
I0521 06:35:46.823823  2420 net.cpp:165] Memory required for data: 1199839360
I0521 06:35:46.823838  2420 layer_factory.hpp:77] Creating layer drop3
I0521 06:35:46.823850  2420 net.cpp:106] Creating Layer drop3
I0521 06:35:46.823860  2420 net.cpp:454] drop3 <- ip3
I0521 06:35:46.823873  2420 net.cpp:397] drop3 -> ip3 (in-place)
I0521 06:35:46.823911  2420 net.cpp:150] Setting up drop3
I0521 06:35:46.823923  2420 net.cpp:157] Top shape: 760 11 (8360)
I0521 06:35:46.823931  2420 net.cpp:165] Memory required for data: 1199872800
I0521 06:35:46.823941  2420 layer_factory.hpp:77] Creating layer loss
I0521 06:35:46.823961  2420 net.cpp:106] Creating Layer loss
I0521 06:35:46.823971  2420 net.cpp:454] loss <- ip3
I0521 06:35:46.823982  2420 net.cpp:454] loss <- label
I0521 06:35:46.823994  2420 net.cpp:411] loss -> loss
I0521 06:35:46.824012  2420 layer_factory.hpp:77] Creating layer loss
…
I0521 06:35:46.826649  2420 solver.cpp:181] Creating test net (#0) specified by net file: /lustre/atlas/proj-shared/hep105/caffe_titan/caffe_workflow/logs_batch_size_test/batch_size_760_2016-05-20T11.21.00.373915.prototxt
I0521 06:35:46.826720  2420 net.cpp:322] The NetState phase (1) differed from the phase (0) specified by a rule in layer data_hdf5
I0521 06:35:46.827075  2420 net.cpp:49] Initializing net from parameters: 
name: "caffe_test_127x50_x_unshifted"
state {
  phase: TEST
}
layer {
  name: "data_hdf5"
  type: "HDF5Data"
  top: "data"
  top: "label"
  include {
    phase: TEST
  }
  hdf5_data_param {
    source: "/lustre/atlas/proj-shared/hep105/caffe_titan/minosmatch_nukecczdefs_127x50_x_unshifted_me1Bmc.testlist"
    batch_size: 760
  }
}
layer {
  name: "conv1"
  type: "Convolution"
  bottom: "data"
  top: "conv1"
  convolution_param {
    num_output: 12
    pad: 0
    stride: 1
    weight_filler {
      type: "xavier"
    }
    bias_filler {
      type: "constant"
    }
    kernel_h: 8
    kernel_w: 3
  }
}
layer {
  name: "relu1"
  type: "ReLU"
  bottom: "conv1"
  top: "conv1"
}
layer {
  name: "pool1"
  type: "Pooling"
  bottom: "conv1"
  top: "pool1"
  pooling_param {
    pool: MAX
    kernel_h: 2
    kernel_w: 1
    stride_h: 2
    stride_w: 1
  }
}
layer {
  name: "conv2"
  type: "Convolution"
  bottom: "pool1"
  top: "conv2"
  convolution_param {
    num_output: 20
    pad: 0
    stride: 1
    weight_filler {
      type: "xavier"
    }
    bias_filler {
      type: "constant"
    }
    kernel_h: 7
    kernel_w: 3
  }
}
layer {
  name: "relu2"
  type: "ReLU"
  bottom: "conv2"
  top: "conv2"
}
layer {
  name: "pool2"
  type: "Pooling"
  bottom: "conv2"
  top: "pool2"
  pooling_param {
    pool: MAX
    kernel_h: 2
    kernel_w: 1
    stride_h: 2
    stride_w: 1
  }
}
layer {
  name: "conv3"
  type: "Convolution"
  bottom: "pool2"
  top: "conv3"
  convolution_param {
    num_output: 28
    pad: 0
    stride: 1
    weight_filler {
      type: "xavier"
    }
    bias_filler {
      type: "constant"
    }
    kernel_h: 6
    kernel_w: 3
  }
}
layer {
  name: "relu3"
  type: "ReLU"
  bottom: "conv3"
  top: "conv3"
}
layer {
  name: "pool3"
  type: "Pooling"
  bottom: "conv3"
  top: "pool3"
  pooling_param {
    pool: MAX
    kernel_h: 2
    kernel_w: 1
    stride_h: 2
    stride_w: 1
  }
}
layer {
  name: "conv4"
  type: "Convolution"
  bottom: "pool3"
  top: "conv4"
  convolution_param {
    num_output: 36
    pad: 0
    stride: 1
    weight_filler {
      type: "xavier"
    }
    bias_filler {
      type: "constant"
    }
    kernel_h: 6
    kernel_w: 3
  }
}
layer {
  name: "relu4"
  type: "ReLU"
  bottom: "conv4"
  top: "conv4"
}
layer {
  name: "pool4"
  type: "Pooling"
  bottom: "conv4"
  top: "pool4"
  pooling_param {
    pool: MAX
    kernel_h: 2
    kernel_w: 1
    stride_h: 2
    stride_w: 1
  }
}
layer {
  name: "ip1"
  type: "InnerProduct"
  bottom: "pool4"
  top: "ip1"
  inner_product_param {
    num_output: 196
    weight_filler {
      type: "xavier"
    }
    bias_filler {
      type: "constant"
    }
  }
}
layer {
  name: "relu5"
  type: "ReLU"
  bottom: "ip1"
  top: "ip1"
}
layer {
  name: "drop1"
  type: "Dropout"
  bottom: "ip1"
  top: "ip1"
  dropout_param {
    dropout_ratio: 0.5
  }
}
layer {
  name: "ip2"
  type: "InnerProduct"
  bottom: "ip1"
  top: "ip2"
  inner_product_param {
    num_output: 98
    weight_filler {
      type: "xavier"
    }
    bias_filler {
      type: "constant"
    }
  }
}
layer {
  name: "relu6"
  type: "ReLU"
  bottom: "ip2"
  top: "ip2"
}
layer {
  name: "drop2"
  type: "Dropout"
  bottom: "ip2"
  top: "ip2"
  dropout_param {
    dropout_ratio: 0.5
  }
}
layer {
  name: "ip3"
  type: "InnerProduct"
  bottom: "ip2"
  top: "ip3"
  inner_product_param {
    num_output: 11
    weight_filler {
      type: "xavier"
    }
    bias_filler {
      type: "constant"
    }
  }
}
layer {
  name: "drop3"
  type: "Dropout"
  bottom: "ip3"
  top: "ip3"
  dropout_param {
    dropout_ratio: 0.5
  }
}
layer {
  name: "accuracy"
  type: "Accuracy"
  bottom: "ip3"
  bottom: "label"
  top: "accuracy"
  include {
    phase: TEST
  }
}
layer {
  name: "loss"
  type: "SoftmaxWithLoss"
  bottom: "ip3"
  bottom: "label"
  top: "loss"
}
I0521 06:35:46.827265  2420 layer_factory.hpp:77] Creating layer data_hdf5
I0521 06:35:46.827280  2420 net.cpp:106] Creating Layer data_hdf5
I0521 06:35:46.827292  2420 net.cpp:411] data_hdf5 -> data
I0521 06:35:46.827308  2420 net.cpp:411] data_hdf5 -> label
I0521 06:35:46.827324  2420 hdf5_data_layer.cpp:79] Loading list of HDF5 filenames from: /lustre/atlas/proj-shared/hep105/caffe_titan/minosmatch_nukecczdefs_127x50_x_unshifted_me1Bmc.testlist
I0521 06:35:46.828522  2420 hdf5_data_layer.cpp:93] Number of HDF5 files: 3
I0521 06:36:08.164464  2420 net.cpp:150] Setting up data_hdf5
I0521 06:36:08.164630  2420 net.cpp:157] Top shape: 760 1 127 50 (4826000)
I0521 06:36:08.164645  2420 net.cpp:157] Top shape: 760 (760)
I0521 06:36:08.164657  2420 net.cpp:165] Memory required for data: 19307040
I0521 06:36:08.164671  2420 layer_factory.hpp:77] Creating layer label_data_hdf5_1_split
I0521 06:36:08.164700  2420 net.cpp:106] Creating Layer label_data_hdf5_1_split
I0521 06:36:08.164711  2420 net.cpp:454] label_data_hdf5_1_split <- label
I0521 06:36:08.164726  2420 net.cpp:411] label_data_hdf5_1_split -> label_data_hdf5_1_split_0
I0521 06:36:08.164748  2420 net.cpp:411] label_data_hdf5_1_split -> label_data_hdf5_1_split_1
I0521 06:36:08.164821  2420 net.cpp:150] Setting up label_data_hdf5_1_split
I0521 06:36:08.164835  2420 net.cpp:157] Top shape: 760 (760)
I0521 06:36:08.164846  2420 net.cpp:157] Top shape: 760 (760)
I0521 06:36:08.164856  2420 net.cpp:165] Memory required for data: 19313120
I0521 06:36:08.164866  2420 layer_factory.hpp:77] Creating layer conv1
I0521 06:36:08.164888  2420 net.cpp:106] Creating Layer conv1
I0521 06:36:08.164898  2420 net.cpp:454] conv1 <- data
I0521 06:36:08.164913  2420 net.cpp:411] conv1 -> conv1
I0521 06:36:08.166856  2420 net.cpp:150] Setting up conv1
I0521 06:36:08.166879  2420 net.cpp:157] Top shape: 760 12 120 48 (52531200)
I0521 06:36:08.166892  2420 net.cpp:165] Memory required for data: 229437920
I0521 06:36:08.166913  2420 layer_factory.hpp:77] Creating layer relu1
I0521 06:36:08.166928  2420 net.cpp:106] Creating Layer relu1
I0521 06:36:08.166937  2420 net.cpp:454] relu1 <- conv1
I0521 06:36:08.166950  2420 net.cpp:397] relu1 -> conv1 (in-place)
I0521 06:36:08.167450  2420 net.cpp:150] Setting up relu1
I0521 06:36:08.167466  2420 net.cpp:157] Top shape: 760 12 120 48 (52531200)
I0521 06:36:08.167476  2420 net.cpp:165] Memory required for data: 439562720
I0521 06:36:08.167487  2420 layer_factory.hpp:77] Creating layer pool1
I0521 06:36:08.167503  2420 net.cpp:106] Creating Layer pool1
I0521 06:36:08.167513  2420 net.cpp:454] pool1 <- conv1
I0521 06:36:08.167526  2420 net.cpp:411] pool1 -> pool1
I0521 06:36:08.167601  2420 net.cpp:150] Setting up pool1
I0521 06:36:08.167614  2420 net.cpp:157] Top shape: 760 12 60 48 (26265600)
I0521 06:36:08.167624  2420 net.cpp:165] Memory required for data: 544625120
I0521 06:36:08.167634  2420 layer_factory.hpp:77] Creating layer conv2
I0521 06:36:08.167650  2420 net.cpp:106] Creating Layer conv2
I0521 06:36:08.167661  2420 net.cpp:454] conv2 <- pool1
I0521 06:36:08.167675  2420 net.cpp:411] conv2 -> conv2
I0521 06:36:08.169597  2420 net.cpp:150] Setting up conv2
I0521 06:36:08.169615  2420 net.cpp:157] Top shape: 760 20 54 46 (37756800)
I0521 06:36:08.169630  2420 net.cpp:165] Memory required for data: 695652320
I0521 06:36:08.169648  2420 layer_factory.hpp:77] Creating layer relu2
I0521 06:36:08.169663  2420 net.cpp:106] Creating Layer relu2
I0521 06:36:08.169672  2420 net.cpp:454] relu2 <- conv2
I0521 06:36:08.169685  2420 net.cpp:397] relu2 -> conv2 (in-place)
I0521 06:36:08.170019  2420 net.cpp:150] Setting up relu2
I0521 06:36:08.170033  2420 net.cpp:157] Top shape: 760 20 54 46 (37756800)
I0521 06:36:08.170043  2420 net.cpp:165] Memory required for data: 846679520
I0521 06:36:08.170053  2420 layer_factory.hpp:77] Creating layer pool2
I0521 06:36:08.170066  2420 net.cpp:106] Creating Layer pool2
I0521 06:36:08.170076  2420 net.cpp:454] pool2 <- conv2
I0521 06:36:08.170089  2420 net.cpp:411] pool2 -> pool2
I0521 06:36:08.170161  2420 net.cpp:150] Setting up pool2
I0521 06:36:08.170173  2420 net.cpp:157] Top shape: 760 20 27 46 (18878400)
I0521 06:36:08.170183  2420 net.cpp:165] Memory required for data: 922193120
I0521 06:36:08.170195  2420 layer_factory.hpp:77] Creating layer conv3
I0521 06:36:08.170212  2420 net.cpp:106] Creating Layer conv3
I0521 06:36:08.170222  2420 net.cpp:454] conv3 <- pool2
I0521 06:36:08.170238  2420 net.cpp:411] conv3 -> conv3
I0521 06:36:08.172219  2420 net.cpp:150] Setting up conv3
I0521 06:36:08.172237  2420 net.cpp:157] Top shape: 760 28 22 44 (20599040)
I0521 06:36:08.172248  2420 net.cpp:165] Memory required for data: 1004589280
I0521 06:36:08.172281  2420 layer_factory.hpp:77] Creating layer relu3
I0521 06:36:08.172294  2420 net.cpp:106] Creating Layer relu3
I0521 06:36:08.172305  2420 net.cpp:454] relu3 <- conv3
I0521 06:36:08.172318  2420 net.cpp:397] relu3 -> conv3 (in-place)
I0521 06:36:08.172791  2420 net.cpp:150] Setting up relu3
I0521 06:36:08.172807  2420 net.cpp:157] Top shape: 760 28 22 44 (20599040)
I0521 06:36:08.172817  2420 net.cpp:165] Memory required for data: 1086985440
I0521 06:36:08.172827  2420 layer_factory.hpp:77] Creating layer pool3
I0521 06:36:08.172840  2420 net.cpp:106] Creating Layer pool3
I0521 06:36:08.172850  2420 net.cpp:454] pool3 <- conv3
I0521 06:36:08.172863  2420 net.cpp:411] pool3 -> pool3
I0521 06:36:08.172935  2420 net.cpp:150] Setting up pool3
I0521 06:36:08.172950  2420 net.cpp:157] Top shape: 760 28 11 44 (10299520)
I0521 06:36:08.172958  2420 net.cpp:165] Memory required for data: 1128183520
I0521 06:36:08.172968  2420 layer_factory.hpp:77] Creating layer conv4
I0521 06:36:08.172986  2420 net.cpp:106] Creating Layer conv4
I0521 06:36:08.172996  2420 net.cpp:454] conv4 <- pool3
I0521 06:36:08.173010  2420 net.cpp:411] conv4 -> conv4
I0521 06:36:08.175097  2420 net.cpp:150] Setting up conv4
I0521 06:36:08.175119  2420 net.cpp:157] Top shape: 760 36 6 42 (6894720)
I0521 06:36:08.175132  2420 net.cpp:165] Memory required for data: 1155762400
I0521 06:36:08.175148  2420 layer_factory.hpp:77] Creating layer relu4
I0521 06:36:08.175161  2420 net.cpp:106] Creating Layer relu4
I0521 06:36:08.175171  2420 net.cpp:454] relu4 <- conv4
I0521 06:36:08.175184  2420 net.cpp:397] relu4 -> conv4 (in-place)
I0521 06:36:08.175660  2420 net.cpp:150] Setting up relu4
I0521 06:36:08.175676  2420 net.cpp:157] Top shape: 760 36 6 42 (6894720)
I0521 06:36:08.175686  2420 net.cpp:165] Memory required for data: 1183341280
I0521 06:36:08.175696  2420 layer_factory.hpp:77] Creating layer pool4
I0521 06:36:08.175709  2420 net.cpp:106] Creating Layer pool4
I0521 06:36:08.175719  2420 net.cpp:454] pool4 <- conv4
I0521 06:36:08.175734  2420 net.cpp:411] pool4 -> pool4
I0521 06:36:08.175806  2420 net.cpp:150] Setting up pool4
I0521 06:36:08.175818  2420 net.cpp:157] Top shape: 760 36 3 42 (3447360)
I0521 06:36:08.175828  2420 net.cpp:165] Memory required for data: 1197130720
I0521 06:36:08.175838  2420 layer_factory.hpp:77] Creating layer ip1
I0521 06:36:08.175853  2420 net.cpp:106] Creating Layer ip1
I0521 06:36:08.175863  2420 net.cpp:454] ip1 <- pool4
I0521 06:36:08.175878  2420 net.cpp:411] ip1 -> ip1
I0521 06:36:08.191412  2420 net.cpp:150] Setting up ip1
I0521 06:36:08.191442  2420 net.cpp:157] Top shape: 760 196 (148960)
I0521 06:36:08.191452  2420 net.cpp:165] Memory required for data: 1197726560
I0521 06:36:08.191475  2420 layer_factory.hpp:77] Creating layer relu5
I0521 06:36:08.191490  2420 net.cpp:106] Creating Layer relu5
I0521 06:36:08.191501  2420 net.cpp:454] relu5 <- ip1
I0521 06:36:08.191514  2420 net.cpp:397] relu5 -> ip1 (in-place)
I0521 06:36:08.191864  2420 net.cpp:150] Setting up relu5
I0521 06:36:08.191877  2420 net.cpp:157] Top shape: 760 196 (148960)
I0521 06:36:08.191886  2420 net.cpp:165] Memory required for data: 1198322400
I0521 06:36:08.191896  2420 layer_factory.hpp:77] Creating layer drop1
I0521 06:36:08.191915  2420 net.cpp:106] Creating Layer drop1
I0521 06:36:08.191926  2420 net.cpp:454] drop1 <- ip1
I0521 06:36:08.191938  2420 net.cpp:397] drop1 -> ip1 (in-place)
I0521 06:36:08.191982  2420 net.cpp:150] Setting up drop1
I0521 06:36:08.191995  2420 net.cpp:157] Top shape: 760 196 (148960)
I0521 06:36:08.192005  2420 net.cpp:165] Memory required for data: 1198918240
I0521 06:36:08.192014  2420 layer_factory.hpp:77] Creating layer ip2
I0521 06:36:08.192029  2420 net.cpp:106] Creating Layer ip2
I0521 06:36:08.192039  2420 net.cpp:454] ip2 <- ip1
I0521 06:36:08.192052  2420 net.cpp:411] ip2 -> ip2
I0521 06:36:08.192534  2420 net.cpp:150] Setting up ip2
I0521 06:36:08.192548  2420 net.cpp:157] Top shape: 760 98 (74480)
I0521 06:36:08.192558  2420 net.cpp:165] Memory required for data: 1199216160
I0521 06:36:08.192586  2420 layer_factory.hpp:77] Creating layer relu6
I0521 06:36:08.192598  2420 net.cpp:106] Creating Layer relu6
I0521 06:36:08.192610  2420 net.cpp:454] relu6 <- ip2
I0521 06:36:08.192621  2420 net.cpp:397] relu6 -> ip2 (in-place)
I0521 06:36:08.193156  2420 net.cpp:150] Setting up relu6
I0521 06:36:08.193171  2420 net.cpp:157] Top shape: 760 98 (74480)
I0521 06:36:08.193181  2420 net.cpp:165] Memory required for data: 1199514080
I0521 06:36:08.193192  2420 layer_factory.hpp:77] Creating layer drop2
I0521 06:36:08.193204  2420 net.cpp:106] Creating Layer drop2
I0521 06:36:08.193214  2420 net.cpp:454] drop2 <- ip2
I0521 06:36:08.193228  2420 net.cpp:397] drop2 -> ip2 (in-place)
I0521 06:36:08.193271  2420 net.cpp:150] Setting up drop2
I0521 06:36:08.193284  2420 net.cpp:157] Top shape: 760 98 (74480)
I0521 06:36:08.193295  2420 net.cpp:165] Memory required for data: 1199812000
I0521 06:36:08.193305  2420 layer_factory.hpp:77] Creating layer ip3
I0521 06:36:08.193318  2420 net.cpp:106] Creating Layer ip3
I0521 06:36:08.193328  2420 net.cpp:454] ip3 <- ip2
I0521 06:36:08.193342  2420 net.cpp:411] ip3 -> ip3
I0521 06:36:08.193563  2420 net.cpp:150] Setting up ip3
I0521 06:36:08.193578  2420 net.cpp:157] Top shape: 760 11 (8360)
I0521 06:36:08.193588  2420 net.cpp:165] Memory required for data: 1199845440
I0521 06:36:08.193603  2420 layer_factory.hpp:77] Creating layer drop3
I0521 06:36:08.193615  2420 net.cpp:106] Creating Layer drop3
I0521 06:36:08.193625  2420 net.cpp:454] drop3 <- ip3
I0521 06:36:08.193637  2420 net.cpp:397] drop3 -> ip3 (in-place)
I0521 06:36:08.193678  2420 net.cpp:150] Setting up drop3
I0521 06:36:08.193691  2420 net.cpp:157] Top shape: 760 11 (8360)
I0521 06:36:08.193701  2420 net.cpp:165] Memory required for data: 1199878880
I0521 06:36:08.193711  2420 layer_factory.hpp:77] Creating layer ip3_drop3_0_split
I0521 06:36:08.193723  2420 net.cpp:106] Creating Layer ip3_drop3_0_split
I0521 06:36:08.193732  2420 net.cpp:454] ip3_drop3_0_split <- ip3
I0521 06:36:08.193745  2420 net.cpp:411] ip3_drop3_0_split -> ip3_drop3_0_split_0
I0521 06:36:08.193759  2420 net.cpp:411] ip3_drop3_0_split -> ip3_drop3_0_split_1
I0521 06:36:08.193832  2420 net.cpp:150] Setting up ip3_drop3_0_split
I0521 06:36:08.193845  2420 net.cpp:157] Top shape: 760 11 (8360)
I0521 06:36:08.193857  2420 net.cpp:157] Top shape: 760 11 (8360)
I0521 06:36:08.193867  2420 net.cpp:165] Memory required for data: 1199945760
I0521 06:36:08.193876  2420 layer_factory.hpp:77] Creating layer accuracy
I0521 06:36:08.193897  2420 net.cpp:106] Creating Layer accuracy
I0521 06:36:08.193908  2420 net.cpp:454] accuracy <- ip3_drop3_0_split_0
I0521 06:36:08.193919  2420 net.cpp:454] accuracy <- label_data_hdf5_1_split_0
I0521 06:36:08.193933  2420 net.cpp:411] accuracy -> accuracy
…
