…
I0521 02:14:26.882586 20569 net.cpp:322] The NetState phase (0) differed from the phase (1) specified by a rule in layer data_hdf5
I0521 02:14:26.882647 20569 net.cpp:322] The NetState phase (0) differed from the phase (1) specified by a rule in layer accuracy
I0521 02:14:26.882989 20569 net.cpp:49] Initializing net from parameters: 
name: "caffe_test_127x50_x_unshifted"
state {
  phase: TRAIN
}
layer {
  name: "data_hdf5"
  type: "HDF5Data"
  top: "data"
  top: "label"
  include {
    phase: TRAIN
  }
  hdf5_data_param {
    source: "/lustre/atlas/proj-shared/hep105/caffe_titan/minosmatch_nukecczdefs_127x50_x_unshifted_me1Bmc.trainlist"
    batch_size: 560
  }
}
layer {
  name: "conv1"
  type: "Convolution"
  bottom: "data"
  top: "conv1"
  convolution_param {
    num_output: 12
    pad: 0
    stride: 1
    weight_filler {
      type: "xavier"
    }
    bias_filler {
      type: "constant"
    }
    kernel_h: 8
    kernel_w: 3
  }
}
layer {
  name: "relu1"
  type: "ReLU"
  bottom: "conv1"
  top: "conv1"
}
layer {
  name: "pool1"
  type: "Pooling"
  bottom: "conv1"
  top: "pool1"
  pooling_param {
    pool: MAX
    kernel_h: 2
    kernel_w: 1
    stride_h: 2
    stride_w: 1
  }
}
layer {
  name: "conv2"
  type: "Convolution"
  bottom: "pool1"
  top: "conv2"
  convolution_param {
    num_output: 20
    pad: 0
    stride: 1
    weight_filler {
      type: "xavier"
    }
    bias_filler {
      type: "constant"
    }
    kernel_h: 7
    kernel_w: 3
  }
}
layer {
  name: "relu2"
  type: "ReLU"
  bottom: "conv2"
  top: "conv2"
}
layer {
  name: "pool2"
  type: "Pooling"
  bottom: "conv2"
  top: "pool2"
  pooling_param {
    pool: MAX
    kernel_h: 2
    kernel_w: 1
    stride_h: 2
    stride_w: 1
  }
}
layer {
  name: "conv3"
  type: "Convolution"
  bottom: "pool2"
  top: "conv3"
  convolution_param {
    num_output: 28
    pad: 0
    stride: 1
    weight_filler {
      type: "xavier"
    }
    bias_filler {
      type: "constant"
    }
    kernel_h: 6
    kernel_w: 3
  }
}
layer {
  name: "relu3"
  type: "ReLU"
  bottom: "conv3"
  top: "conv3"
}
layer {
  name: "pool3"
  type: "Pooling"
  bottom: "conv3"
  top: "pool3"
  pooling_param {
    pool: MAX
    kernel_h: 2
    kernel_w: 1
    stride_h: 2
    stride_w: 1
  }
}
layer {
  name: "conv4"
  type: "Convolution"
  bottom: "pool3"
  top: "conv4"
  convolution_param {
    num_output: 36
    pad: 0
    stride: 1
    weight_filler {
      type: "xavier"
    }
    bias_filler {
      type: "constant"
    }
    kernel_h: 6
    kernel_w: 3
  }
}
layer {
  name: "relu4"
  type: "ReLU"
  bottom: "conv4"
  top: "conv4"
}
layer {
  name: "pool4"
  type: "Pooling"
  bottom: "conv4"
  top: "pool4"
  pooling_param {
    pool: MAX
    kernel_h: 2
    kernel_w: 1
    stride_h: 2
    stride_w: 1
  }
}
layer {
  name: "ip1"
  type: "InnerProduct"
  bottom: "pool4"
  top: "ip1"
  inner_product_param {
    num_output: 196
    weight_filler {
      type: "xavier"
    }
    bias_filler {
      type: "constant"
    }
  }
}
layer {
  name: "relu5"
  type: "ReLU"
  bottom: "ip1"
  top: "ip1"
}
layer {
  name: "drop1"
  type: "Dropout"
  bottom: "ip1"
  top: "ip1"
  dropout_param {
    dropout_ratio: 0.5
  }
}
layer {
  name: "ip2"
  type: "InnerProduct"
  bottom: "ip1"
  top: "ip2"
  inner_product_param {
    num_output: 98
    weight_filler {
      type: "xavier"
    }
    bias_filler {
      type: "constant"
    }
  }
}
layer {
  name: "relu6"
  type: "ReLU"
  bottom: "ip2"
  top: "ip2"
}
layer {
  name: "drop2"
  type: "Dropout"
  bottom: "ip2"
  top: "ip2"
  dropout_param {
    dropout_ratio: 0.5
  }
}
layer {
  name: "ip3"
  type: "InnerProduct"
  bottom: "ip2"
  top: "ip3"
  inner_product_param {
    num_output: 11
    weight_filler {
      type: "xavier"
    }
    bias_filler {
      type: "constant"
    }
  }
}
layer {
  name: "drop3"
  type: "Dropout"
  bottom: "ip3"
  top: "ip3"
  dropout_param {
    dropout_ratio: 0.5
  }
}
layer {
  name: "loss"
  type: "SoftmaxWithLoss"
  bottom: "ip3"
  bottom: "label"
  top: "loss"
}
I0521 02:14:26.883167 20569 layer_factory.hpp:77] Creating layer data_hdf5
I0521 02:14:26.883190 20569 net.cpp:106] Creating Layer data_hdf5
I0521 02:14:26.883204 20569 net.cpp:411] data_hdf5 -> data
I0521 02:14:26.883239 20569 net.cpp:411] data_hdf5 -> label
I0521 02:14:26.883270 20569 hdf5_data_layer.cpp:79] Loading list of HDF5 filenames from: /lustre/atlas/proj-shared/hep105/caffe_titan/minosmatch_nukecczdefs_127x50_x_unshifted_me1Bmc.trainlist
I0521 02:14:26.884580 20569 hdf5_data_layer.cpp:93] Number of HDF5 files: 15
I0521 02:14:26.886884 20569 hdf5.cpp:32] Datatype class: H5T_FLOAT
I0521 02:14:48.430234 20569 hdf5.cpp:35] Datatype class: H5T_INTEGER
I0521 02:14:48.435339 20569 net.cpp:150] Setting up data_hdf5
I0521 02:14:48.435379 20569 net.cpp:157] Top shape: 560 1 127 50 (3556000)
I0521 02:14:48.435395 20569 net.cpp:157] Top shape: 560 (560)
I0521 02:14:48.435406 20569 net.cpp:165] Memory required for data: 14226240
I0521 02:14:48.435420 20569 layer_factory.hpp:77] Creating layer conv1
I0521 02:14:48.435453 20569 net.cpp:106] Creating Layer conv1
I0521 02:14:48.435464 20569 net.cpp:454] conv1 <- data
I0521 02:14:48.435487 20569 net.cpp:411] conv1 -> conv1
I0521 02:14:48.815965 20569 net.cpp:150] Setting up conv1
I0521 02:14:48.816012 20569 net.cpp:157] Top shape: 560 12 120 48 (38707200)
I0521 02:14:48.816023 20569 net.cpp:165] Memory required for data: 169055040
I0521 02:14:48.816051 20569 layer_factory.hpp:77] Creating layer relu1
I0521 02:14:48.816072 20569 net.cpp:106] Creating Layer relu1
I0521 02:14:48.816082 20569 net.cpp:454] relu1 <- conv1
I0521 02:14:48.816097 20569 net.cpp:397] relu1 -> conv1 (in-place)
I0521 02:14:48.816627 20569 net.cpp:150] Setting up relu1
I0521 02:14:48.816643 20569 net.cpp:157] Top shape: 560 12 120 48 (38707200)
I0521 02:14:48.816654 20569 net.cpp:165] Memory required for data: 323883840
I0521 02:14:48.816664 20569 layer_factory.hpp:77] Creating layer pool1
I0521 02:14:48.816682 20569 net.cpp:106] Creating Layer pool1
I0521 02:14:48.816692 20569 net.cpp:454] pool1 <- conv1
I0521 02:14:48.816705 20569 net.cpp:411] pool1 -> pool1
I0521 02:14:48.816786 20569 net.cpp:150] Setting up pool1
I0521 02:14:48.816799 20569 net.cpp:157] Top shape: 560 12 60 48 (19353600)
I0521 02:14:48.816809 20569 net.cpp:165] Memory required for data: 401298240
I0521 02:14:48.816818 20569 layer_factory.hpp:77] Creating layer conv2
I0521 02:14:48.816839 20569 net.cpp:106] Creating Layer conv2
I0521 02:14:48.816850 20569 net.cpp:454] conv2 <- pool1
I0521 02:14:48.816862 20569 net.cpp:411] conv2 -> conv2
I0521 02:14:48.819526 20569 net.cpp:150] Setting up conv2
I0521 02:14:48.819553 20569 net.cpp:157] Top shape: 560 20 54 46 (27820800)
I0521 02:14:48.819564 20569 net.cpp:165] Memory required for data: 512581440
I0521 02:14:48.819582 20569 layer_factory.hpp:77] Creating layer relu2
I0521 02:14:48.819597 20569 net.cpp:106] Creating Layer relu2
I0521 02:14:48.819607 20569 net.cpp:454] relu2 <- conv2
I0521 02:14:48.819619 20569 net.cpp:397] relu2 -> conv2 (in-place)
I0521 02:14:48.819950 20569 net.cpp:150] Setting up relu2
I0521 02:14:48.819964 20569 net.cpp:157] Top shape: 560 20 54 46 (27820800)
I0521 02:14:48.819974 20569 net.cpp:165] Memory required for data: 623864640
I0521 02:14:48.819984 20569 layer_factory.hpp:77] Creating layer pool2
I0521 02:14:48.819998 20569 net.cpp:106] Creating Layer pool2
I0521 02:14:48.820008 20569 net.cpp:454] pool2 <- conv2
I0521 02:14:48.820031 20569 net.cpp:411] pool2 -> pool2
I0521 02:14:48.820101 20569 net.cpp:150] Setting up pool2
I0521 02:14:48.820113 20569 net.cpp:157] Top shape: 560 20 27 46 (13910400)
I0521 02:14:48.820123 20569 net.cpp:165] Memory required for data: 679506240
I0521 02:14:48.820132 20569 layer_factory.hpp:77] Creating layer conv3
I0521 02:14:48.820149 20569 net.cpp:106] Creating Layer conv3
I0521 02:14:48.820160 20569 net.cpp:454] conv3 <- pool2
I0521 02:14:48.820174 20569 net.cpp:411] conv3 -> conv3
I0521 02:14:48.822103 20569 net.cpp:150] Setting up conv3
I0521 02:14:48.822127 20569 net.cpp:157] Top shape: 560 28 22 44 (15178240)
I0521 02:14:48.822137 20569 net.cpp:165] Memory required for data: 740219200
I0521 02:14:48.822156 20569 layer_factory.hpp:77] Creating layer relu3
I0521 02:14:48.822172 20569 net.cpp:106] Creating Layer relu3
I0521 02:14:48.822182 20569 net.cpp:454] relu3 <- conv3
I0521 02:14:48.822196 20569 net.cpp:397] relu3 -> conv3 (in-place)
I0521 02:14:48.822666 20569 net.cpp:150] Setting up relu3
I0521 02:14:48.822685 20569 net.cpp:157] Top shape: 560 28 22 44 (15178240)
I0521 02:14:48.822695 20569 net.cpp:165] Memory required for data: 800932160
I0521 02:14:48.822705 20569 layer_factory.hpp:77] Creating layer pool3
I0521 02:14:48.822717 20569 net.cpp:106] Creating Layer pool3
I0521 02:14:48.822727 20569 net.cpp:454] pool3 <- conv3
I0521 02:14:48.822739 20569 net.cpp:411] pool3 -> pool3
I0521 02:14:48.822808 20569 net.cpp:150] Setting up pool3
I0521 02:14:48.822820 20569 net.cpp:157] Top shape: 560 28 11 44 (7589120)
I0521 02:14:48.822830 20569 net.cpp:165] Memory required for data: 831288640
I0521 02:14:48.822840 20569 layer_factory.hpp:77] Creating layer conv4
I0521 02:14:48.822857 20569 net.cpp:106] Creating Layer conv4
I0521 02:14:48.822867 20569 net.cpp:454] conv4 <- pool3
I0521 02:14:48.822880 20569 net.cpp:411] conv4 -> conv4
I0521 02:14:48.825647 20569 net.cpp:150] Setting up conv4
I0521 02:14:48.825675 20569 net.cpp:157] Top shape: 560 36 6 42 (5080320)
I0521 02:14:48.825686 20569 net.cpp:165] Memory required for data: 851609920
I0521 02:14:48.825702 20569 layer_factory.hpp:77] Creating layer relu4
I0521 02:14:48.825716 20569 net.cpp:106] Creating Layer relu4
I0521 02:14:48.825726 20569 net.cpp:454] relu4 <- conv4
I0521 02:14:48.825739 20569 net.cpp:397] relu4 -> conv4 (in-place)
I0521 02:14:48.826210 20569 net.cpp:150] Setting up relu4
I0521 02:14:48.826225 20569 net.cpp:157] Top shape: 560 36 6 42 (5080320)
I0521 02:14:48.826236 20569 net.cpp:165] Memory required for data: 871931200
I0521 02:14:48.826246 20569 layer_factory.hpp:77] Creating layer pool4
I0521 02:14:48.826259 20569 net.cpp:106] Creating Layer pool4
I0521 02:14:48.826269 20569 net.cpp:454] pool4 <- conv4
I0521 02:14:48.826282 20569 net.cpp:411] pool4 -> pool4
I0521 02:14:48.826350 20569 net.cpp:150] Setting up pool4
I0521 02:14:48.826364 20569 net.cpp:157] Top shape: 560 36 3 42 (2540160)
I0521 02:14:48.826375 20569 net.cpp:165] Memory required for data: 882091840
I0521 02:14:48.826385 20569 layer_factory.hpp:77] Creating layer ip1
I0521 02:14:48.826405 20569 net.cpp:106] Creating Layer ip1
I0521 02:14:48.826414 20569 net.cpp:454] ip1 <- pool4
I0521 02:14:48.826428 20569 net.cpp:411] ip1 -> ip1
I0521 02:14:48.841835 20569 net.cpp:150] Setting up ip1
I0521 02:14:48.841864 20569 net.cpp:157] Top shape: 560 196 (109760)
I0521 02:14:48.841876 20569 net.cpp:165] Memory required for data: 882530880
I0521 02:14:48.841898 20569 layer_factory.hpp:77] Creating layer relu5
I0521 02:14:48.841912 20569 net.cpp:106] Creating Layer relu5
I0521 02:14:48.841922 20569 net.cpp:454] relu5 <- ip1
I0521 02:14:48.841936 20569 net.cpp:397] relu5 -> ip1 (in-place)
I0521 02:14:48.842279 20569 net.cpp:150] Setting up relu5
I0521 02:14:48.842294 20569 net.cpp:157] Top shape: 560 196 (109760)
I0521 02:14:48.842304 20569 net.cpp:165] Memory required for data: 882969920
I0521 02:14:48.842315 20569 layer_factory.hpp:77] Creating layer drop1
I0521 02:14:48.842339 20569 net.cpp:106] Creating Layer drop1
I0521 02:14:48.842349 20569 net.cpp:454] drop1 <- ip1
I0521 02:14:48.842373 20569 net.cpp:397] drop1 -> ip1 (in-place)
I0521 02:14:48.842419 20569 net.cpp:150] Setting up drop1
I0521 02:14:48.842432 20569 net.cpp:157] Top shape: 560 196 (109760)
I0521 02:14:48.842443 20569 net.cpp:165] Memory required for data: 883408960
I0521 02:14:48.842453 20569 layer_factory.hpp:77] Creating layer ip2
I0521 02:14:48.842471 20569 net.cpp:106] Creating Layer ip2
I0521 02:14:48.842481 20569 net.cpp:454] ip2 <- ip1
I0521 02:14:48.842494 20569 net.cpp:411] ip2 -> ip2
I0521 02:14:48.842958 20569 net.cpp:150] Setting up ip2
I0521 02:14:48.842972 20569 net.cpp:157] Top shape: 560 98 (54880)
I0521 02:14:48.842981 20569 net.cpp:165] Memory required for data: 883628480
I0521 02:14:48.842996 20569 layer_factory.hpp:77] Creating layer relu6
I0521 02:14:48.843009 20569 net.cpp:106] Creating Layer relu6
I0521 02:14:48.843019 20569 net.cpp:454] relu6 <- ip2
I0521 02:14:48.843031 20569 net.cpp:397] relu6 -> ip2 (in-place)
I0521 02:14:48.843545 20569 net.cpp:150] Setting up relu6
I0521 02:14:48.843561 20569 net.cpp:157] Top shape: 560 98 (54880)
I0521 02:14:48.843572 20569 net.cpp:165] Memory required for data: 883848000
I0521 02:14:48.843583 20569 layer_factory.hpp:77] Creating layer drop2
I0521 02:14:48.843597 20569 net.cpp:106] Creating Layer drop2
I0521 02:14:48.843607 20569 net.cpp:454] drop2 <- ip2
I0521 02:14:48.843619 20569 net.cpp:397] drop2 -> ip2 (in-place)
I0521 02:14:48.843662 20569 net.cpp:150] Setting up drop2
I0521 02:14:48.843675 20569 net.cpp:157] Top shape: 560 98 (54880)
I0521 02:14:48.843685 20569 net.cpp:165] Memory required for data: 884067520
I0521 02:14:48.843695 20569 layer_factory.hpp:77] Creating layer ip3
I0521 02:14:48.843709 20569 net.cpp:106] Creating Layer ip3
I0521 02:14:48.843719 20569 net.cpp:454] ip3 <- ip2
I0521 02:14:48.843730 20569 net.cpp:411] ip3 -> ip3
I0521 02:14:48.843940 20569 net.cpp:150] Setting up ip3
I0521 02:14:48.843952 20569 net.cpp:157] Top shape: 560 11 (6160)
I0521 02:14:48.843963 20569 net.cpp:165] Memory required for data: 884092160
I0521 02:14:48.843978 20569 layer_factory.hpp:77] Creating layer drop3
I0521 02:14:48.843991 20569 net.cpp:106] Creating Layer drop3
I0521 02:14:48.844000 20569 net.cpp:454] drop3 <- ip3
I0521 02:14:48.844012 20569 net.cpp:397] drop3 -> ip3 (in-place)
I0521 02:14:48.844051 20569 net.cpp:150] Setting up drop3
I0521 02:14:48.844064 20569 net.cpp:157] Top shape: 560 11 (6160)
I0521 02:14:48.844074 20569 net.cpp:165] Memory required for data: 884116800
I0521 02:14:48.844084 20569 layer_factory.hpp:77] Creating layer loss
I0521 02:14:48.844102 20569 net.cpp:106] Creating Layer loss
I0521 02:14:48.844112 20569 net.cpp:454] loss <- ip3
I0521 02:14:48.844125 20569 net.cpp:454] loss <- label
I0521 02:14:48.844137 20569 net.cpp:411] loss -> loss
I0521 02:14:48.844154 20569 layer_factory.hpp:77] Creating layer loss
…
I0521 02:14:48.846796 20569 solver.cpp:181] Creating test net (#0) specified by net file: /lustre/atlas/proj-shared/hep105/caffe_titan/caffe_workflow/logs_batch_size_test/batch_size_560_2016-05-20T11.20.52.954419.prototxt
I0521 02:14:48.846868 20569 net.cpp:322] The NetState phase (1) differed from the phase (0) specified by a rule in layer data_hdf5
I0521 02:14:48.847221 20569 net.cpp:49] Initializing net from parameters: 
name: "caffe_test_127x50_x_unshifted"
state {
  phase: TEST
}
layer {
  name: "data_hdf5"
  type: "HDF5Data"
  top: "data"
  top: "label"
  include {
    phase: TEST
  }
  hdf5_data_param {
    source: "/lustre/atlas/proj-shared/hep105/caffe_titan/minosmatch_nukecczdefs_127x50_x_unshifted_me1Bmc.testlist"
    batch_size: 560
  }
}
layer {
  name: "conv1"
  type: "Convolution"
  bottom: "data"
  top: "conv1"
  convolution_param {
    num_output: 12
    pad: 0
    stride: 1
    weight_filler {
      type: "xavier"
    }
    bias_filler {
      type: "constant"
    }
    kernel_h: 8
    kernel_w: 3
  }
}
layer {
  name: "relu1"
  type: "ReLU"
  bottom: "conv1"
  top: "conv1"
}
layer {
  name: "pool1"
  type: "Pooling"
  bottom: "conv1"
  top: "pool1"
  pooling_param {
    pool: MAX
    kernel_h: 2
    kernel_w: 1
    stride_h: 2
    stride_w: 1
  }
}
layer {
  name: "conv2"
  type: "Convolution"
  bottom: "pool1"
  top: "conv2"
  convolution_param {
    num_output: 20
    pad: 0
    stride: 1
    weight_filler {
      type: "xavier"
    }
    bias_filler {
      type: "constant"
    }
    kernel_h: 7
    kernel_w: 3
  }
}
layer {
  name: "relu2"
  type: "ReLU"
  bottom: "conv2"
  top: "conv2"
}
layer {
  name: "pool2"
  type: "Pooling"
  bottom: "conv2"
  top: "pool2"
  pooling_param {
    pool: MAX
    kernel_h: 2
    kernel_w: 1
    stride_h: 2
    stride_w: 1
  }
}
layer {
  name: "conv3"
  type: "Convolution"
  bottom: "pool2"
  top: "conv3"
  convolution_param {
    num_output: 28
    pad: 0
    stride: 1
    weight_filler {
      type: "xavier"
    }
    bias_filler {
      type: "constant"
    }
    kernel_h: 6
    kernel_w: 3
  }
}
layer {
  name: "relu3"
  type: "ReLU"
  bottom: "conv3"
  top: "conv3"
}
layer {
  name: "pool3"
  type: "Pooling"
  bottom: "conv3"
  top: "pool3"
  pooling_param {
    pool: MAX
    kernel_h: 2
    kernel_w: 1
    stride_h: 2
    stride_w: 1
  }
}
layer {
  name: "conv4"
  type: "Convolution"
  bottom: "pool3"
  top: "conv4"
  convolution_param {
    num_output: 36
    pad: 0
    stride: 1
    weight_filler {
      type: "xavier"
    }
    bias_filler {
      type: "constant"
    }
    kernel_h: 6
    kernel_w: 3
  }
}
layer {
  name: "relu4"
  type: "ReLU"
  bottom: "conv4"
  top: "conv4"
}
layer {
  name: "pool4"
  type: "Pooling"
  bottom: "conv4"
  top: "pool4"
  pooling_param {
    pool: MAX
    kernel_h: 2
    kernel_w: 1
    stride_h: 2
    stride_w: 1
  }
}
layer {
  name: "ip1"
  type: "InnerProduct"
  bottom: "pool4"
  top: "ip1"
  inner_product_param {
    num_output: 196
    weight_filler {
      type: "xavier"
    }
    bias_filler {
      type: "constant"
    }
  }
}
layer {
  name: "relu5"
  type: "ReLU"
  bottom: "ip1"
  top: "ip1"
}
layer {
  name: "drop1"
  type: "Dropout"
  bottom: "ip1"
  top: "ip1"
  dropout_param {
    dropout_ratio: 0.5
  }
}
layer {
  name: "ip2"
  type: "InnerProduct"
  bottom: "ip1"
  top: "ip2"
  inner_product_param {
    num_output: 98
    weight_filler {
      type: "xavier"
    }
    bias_filler {
      type: "constant"
    }
  }
}
layer {
  name: "relu6"
  type: "ReLU"
  bottom: "ip2"
  top: "ip2"
}
layer {
  name: "drop2"
  type: "Dropout"
  bottom: "ip2"
  top: "ip2"
  dropout_param {
    dropout_ratio: 0.5
  }
}
layer {
  name: "ip3"
  type: "InnerProduct"
  bottom: "ip2"
  top: "ip3"
  inner_product_param {
    num_output: 11
    weight_filler {
      type: "xavier"
    }
    bias_filler {
      type: "constant"
    }
  }
}
layer {
  name: "drop3"
  type: "Dropout"
  bottom: "ip3"
  top: "ip3"
  dropout_param {
    dropout_ratio: 0.5
  }
}
layer {
  name: "accuracy"
  type: "Accuracy"
  bottom: "ip3"
  bottom: "label"
  top: "accuracy"
  include {
    phase: TEST
  }
}
layer {
  name: "loss"
  type: "SoftmaxWithLoss"
  bottom: "ip3"
  bottom: "label"
  top: "loss"
}
I0521 02:14:48.847409 20569 layer_factory.hpp:77] Creating layer data_hdf5
I0521 02:14:48.847424 20569 net.cpp:106] Creating Layer data_hdf5
I0521 02:14:48.847436 20569 net.cpp:411] data_hdf5 -> data
I0521 02:14:48.847453 20569 net.cpp:411] data_hdf5 -> label
I0521 02:14:48.847470 20569 hdf5_data_layer.cpp:79] Loading list of HDF5 filenames from: /lustre/atlas/proj-shared/hep105/caffe_titan/minosmatch_nukecczdefs_127x50_x_unshifted_me1Bmc.testlist
I0521 02:14:48.848762 20569 hdf5_data_layer.cpp:93] Number of HDF5 files: 3
I0521 02:15:10.247764 20569 net.cpp:150] Setting up data_hdf5
I0521 02:15:10.247927 20569 net.cpp:157] Top shape: 560 1 127 50 (3556000)
I0521 02:15:10.247942 20569 net.cpp:157] Top shape: 560 (560)
I0521 02:15:10.247954 20569 net.cpp:165] Memory required for data: 14226240
I0521 02:15:10.247968 20569 layer_factory.hpp:77] Creating layer label_data_hdf5_1_split
I0521 02:15:10.247995 20569 net.cpp:106] Creating Layer label_data_hdf5_1_split
I0521 02:15:10.248006 20569 net.cpp:454] label_data_hdf5_1_split <- label
I0521 02:15:10.248023 20569 net.cpp:411] label_data_hdf5_1_split -> label_data_hdf5_1_split_0
I0521 02:15:10.248044 20569 net.cpp:411] label_data_hdf5_1_split -> label_data_hdf5_1_split_1
I0521 02:15:10.248116 20569 net.cpp:150] Setting up label_data_hdf5_1_split
I0521 02:15:10.248131 20569 net.cpp:157] Top shape: 560 (560)
I0521 02:15:10.248142 20569 net.cpp:157] Top shape: 560 (560)
I0521 02:15:10.248152 20569 net.cpp:165] Memory required for data: 14230720
I0521 02:15:10.248159 20569 layer_factory.hpp:77] Creating layer conv1
I0521 02:15:10.248183 20569 net.cpp:106] Creating Layer conv1
I0521 02:15:10.248193 20569 net.cpp:454] conv1 <- data
I0521 02:15:10.248208 20569 net.cpp:411] conv1 -> conv1
I0521 02:15:10.250147 20569 net.cpp:150] Setting up conv1
I0521 02:15:10.250171 20569 net.cpp:157] Top shape: 560 12 120 48 (38707200)
I0521 02:15:10.250181 20569 net.cpp:165] Memory required for data: 169059520
I0521 02:15:10.250203 20569 layer_factory.hpp:77] Creating layer relu1
I0521 02:15:10.250218 20569 net.cpp:106] Creating Layer relu1
I0521 02:15:10.250228 20569 net.cpp:454] relu1 <- conv1
I0521 02:15:10.250241 20569 net.cpp:397] relu1 -> conv1 (in-place)
I0521 02:15:10.250738 20569 net.cpp:150] Setting up relu1
I0521 02:15:10.250754 20569 net.cpp:157] Top shape: 560 12 120 48 (38707200)
I0521 02:15:10.250764 20569 net.cpp:165] Memory required for data: 323888320
I0521 02:15:10.250774 20569 layer_factory.hpp:77] Creating layer pool1
I0521 02:15:10.250792 20569 net.cpp:106] Creating Layer pool1
I0521 02:15:10.250800 20569 net.cpp:454] pool1 <- conv1
I0521 02:15:10.250813 20569 net.cpp:411] pool1 -> pool1
I0521 02:15:10.250888 20569 net.cpp:150] Setting up pool1
I0521 02:15:10.250901 20569 net.cpp:157] Top shape: 560 12 60 48 (19353600)
I0521 02:15:10.250911 20569 net.cpp:165] Memory required for data: 401302720
I0521 02:15:10.250921 20569 layer_factory.hpp:77] Creating layer conv2
I0521 02:15:10.250939 20569 net.cpp:106] Creating Layer conv2
I0521 02:15:10.250949 20569 net.cpp:454] conv2 <- pool1
I0521 02:15:10.250963 20569 net.cpp:411] conv2 -> conv2
I0521 02:15:10.252885 20569 net.cpp:150] Setting up conv2
I0521 02:15:10.252907 20569 net.cpp:157] Top shape: 560 20 54 46 (27820800)
I0521 02:15:10.252920 20569 net.cpp:165] Memory required for data: 512585920
I0521 02:15:10.252938 20569 layer_factory.hpp:77] Creating layer relu2
I0521 02:15:10.252951 20569 net.cpp:106] Creating Layer relu2
I0521 02:15:10.252961 20569 net.cpp:454] relu2 <- conv2
I0521 02:15:10.252974 20569 net.cpp:397] relu2 -> conv2 (in-place)
I0521 02:15:10.253307 20569 net.cpp:150] Setting up relu2
I0521 02:15:10.253321 20569 net.cpp:157] Top shape: 560 20 54 46 (27820800)
I0521 02:15:10.253331 20569 net.cpp:165] Memory required for data: 623869120
I0521 02:15:10.253341 20569 layer_factory.hpp:77] Creating layer pool2
I0521 02:15:10.253355 20569 net.cpp:106] Creating Layer pool2
I0521 02:15:10.253365 20569 net.cpp:454] pool2 <- conv2
I0521 02:15:10.253377 20569 net.cpp:411] pool2 -> pool2
I0521 02:15:10.253448 20569 net.cpp:150] Setting up pool2
I0521 02:15:10.253460 20569 net.cpp:157] Top shape: 560 20 27 46 (13910400)
I0521 02:15:10.253470 20569 net.cpp:165] Memory required for data: 679510720
I0521 02:15:10.253479 20569 layer_factory.hpp:77] Creating layer conv3
I0521 02:15:10.253497 20569 net.cpp:106] Creating Layer conv3
I0521 02:15:10.253509 20569 net.cpp:454] conv3 <- pool2
I0521 02:15:10.253521 20569 net.cpp:411] conv3 -> conv3
I0521 02:15:10.255484 20569 net.cpp:150] Setting up conv3
I0521 02:15:10.255507 20569 net.cpp:157] Top shape: 560 28 22 44 (15178240)
I0521 02:15:10.255518 20569 net.cpp:165] Memory required for data: 740223680
I0521 02:15:10.255551 20569 layer_factory.hpp:77] Creating layer relu3
I0521 02:15:10.255564 20569 net.cpp:106] Creating Layer relu3
I0521 02:15:10.255574 20569 net.cpp:454] relu3 <- conv3
I0521 02:15:10.255587 20569 net.cpp:397] relu3 -> conv3 (in-place)
I0521 02:15:10.256062 20569 net.cpp:150] Setting up relu3
I0521 02:15:10.256078 20569 net.cpp:157] Top shape: 560 28 22 44 (15178240)
I0521 02:15:10.256088 20569 net.cpp:165] Memory required for data: 800936640
I0521 02:15:10.256098 20569 layer_factory.hpp:77] Creating layer pool3
I0521 02:15:10.256110 20569 net.cpp:106] Creating Layer pool3
I0521 02:15:10.256120 20569 net.cpp:454] pool3 <- conv3
I0521 02:15:10.256134 20569 net.cpp:411] pool3 -> pool3
I0521 02:15:10.256204 20569 net.cpp:150] Setting up pool3
I0521 02:15:10.256217 20569 net.cpp:157] Top shape: 560 28 11 44 (7589120)
I0521 02:15:10.256227 20569 net.cpp:165] Memory required for data: 831293120
I0521 02:15:10.256235 20569 layer_factory.hpp:77] Creating layer conv4
I0521 02:15:10.256253 20569 net.cpp:106] Creating Layer conv4
I0521 02:15:10.256263 20569 net.cpp:454] conv4 <- pool3
I0521 02:15:10.256278 20569 net.cpp:411] conv4 -> conv4
I0521 02:15:10.258339 20569 net.cpp:150] Setting up conv4
I0521 02:15:10.258358 20569 net.cpp:157] Top shape: 560 36 6 42 (5080320)
I0521 02:15:10.258368 20569 net.cpp:165] Memory required for data: 851614400
I0521 02:15:10.258384 20569 layer_factory.hpp:77] Creating layer relu4
I0521 02:15:10.258399 20569 net.cpp:106] Creating Layer relu4
I0521 02:15:10.258409 20569 net.cpp:454] relu4 <- conv4
I0521 02:15:10.258421 20569 net.cpp:397] relu4 -> conv4 (in-place)
I0521 02:15:10.258889 20569 net.cpp:150] Setting up relu4
I0521 02:15:10.258905 20569 net.cpp:157] Top shape: 560 36 6 42 (5080320)
I0521 02:15:10.258916 20569 net.cpp:165] Memory required for data: 871935680
I0521 02:15:10.258926 20569 layer_factory.hpp:77] Creating layer pool4
I0521 02:15:10.258939 20569 net.cpp:106] Creating Layer pool4
I0521 02:15:10.258949 20569 net.cpp:454] pool4 <- conv4
I0521 02:15:10.258962 20569 net.cpp:411] pool4 -> pool4
I0521 02:15:10.259033 20569 net.cpp:150] Setting up pool4
I0521 02:15:10.259047 20569 net.cpp:157] Top shape: 560 36 3 42 (2540160)
I0521 02:15:10.259057 20569 net.cpp:165] Memory required for data: 882096320
I0521 02:15:10.259065 20569 layer_factory.hpp:77] Creating layer ip1
I0521 02:15:10.259080 20569 net.cpp:106] Creating Layer ip1
I0521 02:15:10.259090 20569 net.cpp:454] ip1 <- pool4
I0521 02:15:10.259104 20569 net.cpp:411] ip1 -> ip1
I0521 02:15:10.274616 20569 net.cpp:150] Setting up ip1
I0521 02:15:10.274643 20569 net.cpp:157] Top shape: 560 196 (109760)
I0521 02:15:10.274654 20569 net.cpp:165] Memory required for data: 882535360
I0521 02:15:10.274677 20569 layer_factory.hpp:77] Creating layer relu5
I0521 02:15:10.274691 20569 net.cpp:106] Creating Layer relu5
I0521 02:15:10.274701 20569 net.cpp:454] relu5 <- ip1
I0521 02:15:10.274715 20569 net.cpp:397] relu5 -> ip1 (in-place)
I0521 02:15:10.275063 20569 net.cpp:150] Setting up relu5
I0521 02:15:10.275076 20569 net.cpp:157] Top shape: 560 196 (109760)
I0521 02:15:10.275086 20569 net.cpp:165] Memory required for data: 882974400
I0521 02:15:10.275096 20569 layer_factory.hpp:77] Creating layer drop1
I0521 02:15:10.275117 20569 net.cpp:106] Creating Layer drop1
I0521 02:15:10.275126 20569 net.cpp:454] drop1 <- ip1
I0521 02:15:10.275141 20569 net.cpp:397] drop1 -> ip1 (in-place)
I0521 02:15:10.275184 20569 net.cpp:150] Setting up drop1
I0521 02:15:10.275197 20569 net.cpp:157] Top shape: 560 196 (109760)
I0521 02:15:10.275207 20569 net.cpp:165] Memory required for data: 883413440
I0521 02:15:10.275218 20569 layer_factory.hpp:77] Creating layer ip2
I0521 02:15:10.275231 20569 net.cpp:106] Creating Layer ip2
I0521 02:15:10.275241 20569 net.cpp:454] ip2 <- ip1
I0521 02:15:10.275256 20569 net.cpp:411] ip2 -> ip2
I0521 02:15:10.275735 20569 net.cpp:150] Setting up ip2
I0521 02:15:10.275749 20569 net.cpp:157] Top shape: 560 98 (54880)
I0521 02:15:10.275758 20569 net.cpp:165] Memory required for data: 883632960
I0521 02:15:10.275787 20569 layer_factory.hpp:77] Creating layer relu6
I0521 02:15:10.275800 20569 net.cpp:106] Creating Layer relu6
I0521 02:15:10.275810 20569 net.cpp:454] relu6 <- ip2
I0521 02:15:10.275823 20569 net.cpp:397] relu6 -> ip2 (in-place)
I0521 02:15:10.276360 20569 net.cpp:150] Setting up relu6
I0521 02:15:10.276376 20569 net.cpp:157] Top shape: 560 98 (54880)
I0521 02:15:10.276386 20569 net.cpp:165] Memory required for data: 883852480
I0521 02:15:10.276396 20569 layer_factory.hpp:77] Creating layer drop2
I0521 02:15:10.276412 20569 net.cpp:106] Creating Layer drop2
I0521 02:15:10.276422 20569 net.cpp:454] drop2 <- ip2
I0521 02:15:10.276435 20569 net.cpp:397] drop2 -> ip2 (in-place)
I0521 02:15:10.276479 20569 net.cpp:150] Setting up drop2
I0521 02:15:10.276492 20569 net.cpp:157] Top shape: 560 98 (54880)
I0521 02:15:10.276502 20569 net.cpp:165] Memory required for data: 884072000
I0521 02:15:10.276512 20569 layer_factory.hpp:77] Creating layer ip3
I0521 02:15:10.276526 20569 net.cpp:106] Creating Layer ip3
I0521 02:15:10.276536 20569 net.cpp:454] ip3 <- ip2
I0521 02:15:10.276551 20569 net.cpp:411] ip3 -> ip3
I0521 02:15:10.276772 20569 net.cpp:150] Setting up ip3
I0521 02:15:10.276784 20569 net.cpp:157] Top shape: 560 11 (6160)
I0521 02:15:10.276794 20569 net.cpp:165] Memory required for data: 884096640
I0521 02:15:10.276810 20569 layer_factory.hpp:77] Creating layer drop3
I0521 02:15:10.276823 20569 net.cpp:106] Creating Layer drop3
I0521 02:15:10.276834 20569 net.cpp:454] drop3 <- ip3
I0521 02:15:10.276845 20569 net.cpp:397] drop3 -> ip3 (in-place)
I0521 02:15:10.276887 20569 net.cpp:150] Setting up drop3
I0521 02:15:10.276901 20569 net.cpp:157] Top shape: 560 11 (6160)
I0521 02:15:10.276909 20569 net.cpp:165] Memory required for data: 884121280
I0521 02:15:10.276919 20569 layer_factory.hpp:77] Creating layer ip3_drop3_0_split
I0521 02:15:10.276932 20569 net.cpp:106] Creating Layer ip3_drop3_0_split
I0521 02:15:10.276942 20569 net.cpp:454] ip3_drop3_0_split <- ip3
I0521 02:15:10.276955 20569 net.cpp:411] ip3_drop3_0_split -> ip3_drop3_0_split_0
I0521 02:15:10.276970 20569 net.cpp:411] ip3_drop3_0_split -> ip3_drop3_0_split_1
I0521 02:15:10.277043 20569 net.cpp:150] Setting up ip3_drop3_0_split
I0521 02:15:10.277056 20569 net.cpp:157] Top shape: 560 11 (6160)
I0521 02:15:10.277068 20569 net.cpp:157] Top shape: 560 11 (6160)
I0521 02:15:10.277079 20569 net.cpp:165] Memory required for data: 884170560
I0521 02:15:10.277089 20569 layer_factory.hpp:77] Creating layer accuracy
I0521 02:15:10.277110 20569 net.cpp:106] Creating Layer accuracy
I0521 02:15:10.277120 20569 net.cpp:454] accuracy <- ip3_drop3_0_split_0
I0521 02:15:10.277132 20569 net.cpp:454] accuracy <- label_data_hdf5_1_split_0
I0521 02:15:10.277145 20569 net.cpp:411] accuracy -> accuracy
…
