…
I0520 21:30:28.772009 20835 net.cpp:322] The NetState phase (0) differed from the phase (1) specified by a rule in layer data_hdf5
I0520 21:30:28.772068 20835 net.cpp:322] The NetState phase (0) differed from the phase (1) specified by a rule in layer accuracy
I0520 21:30:28.772413 20835 net.cpp:49] Initializing net from parameters: 
name: "caffe_test_127x50_x_unshifted"
state {
  phase: TRAIN
}
layer {
  name: "data_hdf5"
  type: "HDF5Data"
  top: "data"
  top: "label"
  include {
    phase: TRAIN
  }
  hdf5_data_param {
    source: "/lustre/atlas/proj-shared/hep105/caffe_titan/minosmatch_nukecczdefs_127x50_x_unshifted_me1Bmc.trainlist"
    batch_size: 330
  }
}
layer {
  name: "conv1"
  type: "Convolution"
  bottom: "data"
  top: "conv1"
  convolution_param {
    num_output: 12
    pad: 0
    stride: 1
    weight_filler {
      type: "xavier"
    }
    bias_filler {
      type: "constant"
    }
    kernel_h: 8
    kernel_w: 3
  }
}
layer {
  name: "relu1"
  type: "ReLU"
  bottom: "conv1"
  top: "conv1"
}
layer {
  name: "pool1"
  type: "Pooling"
  bottom: "conv1"
  top: "pool1"
  pooling_param {
    pool: MAX
    kernel_h: 2
    kernel_w: 1
    stride_h: 2
    stride_w: 1
  }
}
layer {
  name: "conv2"
  type: "Convolution"
  bottom: "pool1"
  top: "conv2"
  convolution_param {
    num_output: 20
    pad: 0
    stride: 1
    weight_filler {
      type: "xavier"
    }
    bias_filler {
      type: "constant"
    }
    kernel_h: 7
    kernel_w: 3
  }
}
layer {
  name: "relu2"
  type: "ReLU"
  bottom: "conv2"
  top: "conv2"
}
layer {
  name: "pool2"
  type: "Pooling"
  bottom: "conv2"
  top: "pool2"
  pooling_param {
    pool: MAX
    kernel_h: 2
    kernel_w: 1
    stride_h: 2
    stride_w: 1
  }
}
layer {
  name: "conv3"
  type: "Convolution"
  bottom: "pool2"
  top: "conv3"
  convolution_param {
    num_output: 28
    pad: 0
    stride: 1
    weight_filler {
      type: "xavier"
    }
    bias_filler {
      type: "constant"
    }
    kernel_h: 6
    kernel_w: 3
  }
}
layer {
  name: "relu3"
  type: "ReLU"
  bottom: "conv3"
  top: "conv3"
}
layer {
  name: "pool3"
  type: "Pooling"
  bottom: "conv3"
  top: "pool3"
  pooling_param {
    pool: MAX
    kernel_h: 2
    kernel_w: 1
    stride_h: 2
    stride_w: 1
  }
}
layer {
  name: "conv4"
  type: "Convolution"
  bottom: "pool3"
  top: "conv4"
  convolution_param {
    num_output: 36
    pad: 0
    stride: 1
    weight_filler {
      type: "xavier"
    }
    bias_filler {
      type: "constant"
    }
    kernel_h: 6
    kernel_w: 3
  }
}
layer {
  name: "relu4"
  type: "ReLU"
  bottom: "conv4"
  top: "conv4"
}
layer {
  name: "pool4"
  type: "Pooling"
  bottom: "conv4"
  top: "pool4"
  pooling_param {
    pool: MAX
    kernel_h: 2
    kernel_w: 1
    stride_h: 2
    stride_w: 1
  }
}
layer {
  name: "ip1"
  type: "InnerProduct"
  bottom: "pool4"
  top: "ip1"
  inner_product_param {
    num_output: 196
    weight_filler {
      type: "xavier"
    }
    bias_filler {
      type: "constant"
    }
  }
}
layer {
  name: "relu5"
  type: "ReLU"
  bottom: "ip1"
  top: "ip1"
}
layer {
  name: "drop1"
  type: "Dropout"
  bottom: "ip1"
  top: "ip1"
  dropout_param {
    dropout_ratio: 0.5
  }
}
layer {
  name: "ip2"
  type: "InnerProduct"
  bottom: "ip1"
  top: "ip2"
  inner_product_param {
    num_output: 98
    weight_filler {
      type: "xavier"
    }
    bias_filler {
      type: "constant"
    }
  }
}
layer {
  name: "relu6"
  type: "ReLU"
  bottom: "ip2"
  top: "ip2"
}
layer {
  name: "drop2"
  type: "Dropout"
  bottom: "ip2"
  top: "ip2"
  dropout_param {
    dropout_ratio: 0.5
  }
}
layer {
  name: "ip3"
  type: "InnerProduct"
  bottom: "ip2"
  top: "ip3"
  inner_product_param {
    num_output: 11
    weight_filler {
      type: "xavier"
    }
    bias_filler {
      type: "constant"
    }
  }
}
layer {
  name: "drop3"
  type: "Dropout"
  bottom: "ip3"
  top: "ip3"
  dropout_param {
    dropout_ratio: 0.5
  }
}
layer {
  name: "loss"
  type: "SoftmaxWithLoss"
  bottom: "ip3"
  bottom: "label"
  top: "loss"
}
I0520 21:30:28.772593 20835 layer_factory.hpp:77] Creating layer data_hdf5
I0520 21:30:28.772617 20835 net.cpp:106] Creating Layer data_hdf5
I0520 21:30:28.772631 20835 net.cpp:411] data_hdf5 -> data
I0520 21:30:28.772665 20835 net.cpp:411] data_hdf5 -> label
I0520 21:30:28.772696 20835 hdf5_data_layer.cpp:79] Loading list of HDF5 filenames from: /lustre/atlas/proj-shared/hep105/caffe_titan/minosmatch_nukecczdefs_127x50_x_unshifted_me1Bmc.trainlist
I0520 21:30:28.788795 20835 hdf5_data_layer.cpp:93] Number of HDF5 files: 15
I0520 21:30:28.790967 20835 hdf5.cpp:32] Datatype class: H5T_FLOAT
I0520 21:30:50.341680 20835 hdf5.cpp:35] Datatype class: H5T_INTEGER
I0520 21:30:50.346752 20835 net.cpp:150] Setting up data_hdf5
I0520 21:30:50.346792 20835 net.cpp:157] Top shape: 330 1 127 50 (2095500)
I0520 21:30:50.346807 20835 net.cpp:157] Top shape: 330 (330)
I0520 21:30:50.346818 20835 net.cpp:165] Memory required for data: 8383320
I0520 21:30:50.346832 20835 layer_factory.hpp:77] Creating layer conv1
I0520 21:30:50.346866 20835 net.cpp:106] Creating Layer conv1
I0520 21:30:50.346879 20835 net.cpp:454] conv1 <- data
I0520 21:30:50.346899 20835 net.cpp:411] conv1 -> conv1
I0520 21:30:52.713712 20835 net.cpp:150] Setting up conv1
I0520 21:30:52.713758 20835 net.cpp:157] Top shape: 330 12 120 48 (22809600)
I0520 21:30:52.713769 20835 net.cpp:165] Memory required for data: 99621720
I0520 21:30:52.713799 20835 layer_factory.hpp:77] Creating layer relu1
I0520 21:30:52.713820 20835 net.cpp:106] Creating Layer relu1
I0520 21:30:52.713831 20835 net.cpp:454] relu1 <- conv1
I0520 21:30:52.713845 20835 net.cpp:397] relu1 -> conv1 (in-place)
I0520 21:30:52.714361 20835 net.cpp:150] Setting up relu1
I0520 21:30:52.714378 20835 net.cpp:157] Top shape: 330 12 120 48 (22809600)
I0520 21:30:52.714390 20835 net.cpp:165] Memory required for data: 190860120
I0520 21:30:52.714398 20835 layer_factory.hpp:77] Creating layer pool1
I0520 21:30:52.714414 20835 net.cpp:106] Creating Layer pool1
I0520 21:30:52.714424 20835 net.cpp:454] pool1 <- conv1
I0520 21:30:52.714437 20835 net.cpp:411] pool1 -> pool1
I0520 21:30:52.714517 20835 net.cpp:150] Setting up pool1
I0520 21:30:52.714531 20835 net.cpp:157] Top shape: 330 12 60 48 (11404800)
I0520 21:30:52.714541 20835 net.cpp:165] Memory required for data: 236479320
I0520 21:30:52.714552 20835 layer_factory.hpp:77] Creating layer conv2
I0520 21:30:52.714575 20835 net.cpp:106] Creating Layer conv2
I0520 21:30:52.714586 20835 net.cpp:454] conv2 <- pool1
I0520 21:30:52.714599 20835 net.cpp:411] conv2 -> conv2
I0520 21:30:52.717283 20835 net.cpp:150] Setting up conv2
I0520 21:30:52.717310 20835 net.cpp:157] Top shape: 330 20 54 46 (16394400)
I0520 21:30:52.717321 20835 net.cpp:165] Memory required for data: 302056920
I0520 21:30:52.717340 20835 layer_factory.hpp:77] Creating layer relu2
I0520 21:30:52.717355 20835 net.cpp:106] Creating Layer relu2
I0520 21:30:52.717365 20835 net.cpp:454] relu2 <- conv2
I0520 21:30:52.717376 20835 net.cpp:397] relu2 -> conv2 (in-place)
I0520 21:30:52.717707 20835 net.cpp:150] Setting up relu2
I0520 21:30:52.717722 20835 net.cpp:157] Top shape: 330 20 54 46 (16394400)
I0520 21:30:52.717732 20835 net.cpp:165] Memory required for data: 367634520
I0520 21:30:52.717742 20835 layer_factory.hpp:77] Creating layer pool2
I0520 21:30:52.717756 20835 net.cpp:106] Creating Layer pool2
I0520 21:30:52.717764 20835 net.cpp:454] pool2 <- conv2
I0520 21:30:52.717789 20835 net.cpp:411] pool2 -> pool2
I0520 21:30:52.717859 20835 net.cpp:150] Setting up pool2
I0520 21:30:52.717871 20835 net.cpp:157] Top shape: 330 20 27 46 (8197200)
I0520 21:30:52.717881 20835 net.cpp:165] Memory required for data: 400423320
I0520 21:30:52.717892 20835 layer_factory.hpp:77] Creating layer conv3
I0520 21:30:52.717910 20835 net.cpp:106] Creating Layer conv3
I0520 21:30:52.717921 20835 net.cpp:454] conv3 <- pool2
I0520 21:30:52.717934 20835 net.cpp:411] conv3 -> conv3
I0520 21:30:52.719856 20835 net.cpp:150] Setting up conv3
I0520 21:30:52.719879 20835 net.cpp:157] Top shape: 330 28 22 44 (8944320)
I0520 21:30:52.719892 20835 net.cpp:165] Memory required for data: 436200600
I0520 21:30:52.719909 20835 layer_factory.hpp:77] Creating layer relu3
I0520 21:30:52.719925 20835 net.cpp:106] Creating Layer relu3
I0520 21:30:52.719935 20835 net.cpp:454] relu3 <- conv3
I0520 21:30:52.719949 20835 net.cpp:397] relu3 -> conv3 (in-place)
I0520 21:30:52.720417 20835 net.cpp:150] Setting up relu3
I0520 21:30:52.720435 20835 net.cpp:157] Top shape: 330 28 22 44 (8944320)
I0520 21:30:52.720445 20835 net.cpp:165] Memory required for data: 471977880
I0520 21:30:52.720455 20835 layer_factory.hpp:77] Creating layer pool3
I0520 21:30:52.720468 20835 net.cpp:106] Creating Layer pool3
I0520 21:30:52.720477 20835 net.cpp:454] pool3 <- conv3
I0520 21:30:52.720490 20835 net.cpp:411] pool3 -> pool3
I0520 21:30:52.720557 20835 net.cpp:150] Setting up pool3
I0520 21:30:52.720571 20835 net.cpp:157] Top shape: 330 28 11 44 (4472160)
I0520 21:30:52.720580 20835 net.cpp:165] Memory required for data: 489866520
I0520 21:30:52.720589 20835 layer_factory.hpp:77] Creating layer conv4
I0520 21:30:52.720607 20835 net.cpp:106] Creating Layer conv4
I0520 21:30:52.720618 20835 net.cpp:454] conv4 <- pool3
I0520 21:30:52.720631 20835 net.cpp:411] conv4 -> conv4
I0520 21:30:52.723381 20835 net.cpp:150] Setting up conv4
I0520 21:30:52.723409 20835 net.cpp:157] Top shape: 330 36 6 42 (2993760)
I0520 21:30:52.723419 20835 net.cpp:165] Memory required for data: 501841560
I0520 21:30:52.723434 20835 layer_factory.hpp:77] Creating layer relu4
I0520 21:30:52.723448 20835 net.cpp:106] Creating Layer relu4
I0520 21:30:52.723459 20835 net.cpp:454] relu4 <- conv4
I0520 21:30:52.723471 20835 net.cpp:397] relu4 -> conv4 (in-place)
I0520 21:30:52.723956 20835 net.cpp:150] Setting up relu4
I0520 21:30:52.723973 20835 net.cpp:157] Top shape: 330 36 6 42 (2993760)
I0520 21:30:52.723984 20835 net.cpp:165] Memory required for data: 513816600
I0520 21:30:52.723994 20835 layer_factory.hpp:77] Creating layer pool4
I0520 21:30:52.724007 20835 net.cpp:106] Creating Layer pool4
I0520 21:30:52.724017 20835 net.cpp:454] pool4 <- conv4
I0520 21:30:52.724030 20835 net.cpp:411] pool4 -> pool4
I0520 21:30:52.724098 20835 net.cpp:150] Setting up pool4
I0520 21:30:52.724112 20835 net.cpp:157] Top shape: 330 36 3 42 (1496880)
I0520 21:30:52.724123 20835 net.cpp:165] Memory required for data: 519804120
I0520 21:30:52.724133 20835 layer_factory.hpp:77] Creating layer ip1
I0520 21:30:52.724151 20835 net.cpp:106] Creating Layer ip1
I0520 21:30:52.724161 20835 net.cpp:454] ip1 <- pool4
I0520 21:30:52.724174 20835 net.cpp:411] ip1 -> ip1
I0520 21:30:52.739562 20835 net.cpp:150] Setting up ip1
I0520 21:30:52.739590 20835 net.cpp:157] Top shape: 330 196 (64680)
I0520 21:30:52.739604 20835 net.cpp:165] Memory required for data: 520062840
I0520 21:30:52.739631 20835 layer_factory.hpp:77] Creating layer relu5
I0520 21:30:52.739646 20835 net.cpp:106] Creating Layer relu5
I0520 21:30:52.739656 20835 net.cpp:454] relu5 <- ip1
I0520 21:30:52.739670 20835 net.cpp:397] relu5 -> ip1 (in-place)
I0520 21:30:52.740018 20835 net.cpp:150] Setting up relu5
I0520 21:30:52.740032 20835 net.cpp:157] Top shape: 330 196 (64680)
I0520 21:30:52.740043 20835 net.cpp:165] Memory required for data: 520321560
I0520 21:30:52.740053 20835 layer_factory.hpp:77] Creating layer drop1
I0520 21:30:52.740074 20835 net.cpp:106] Creating Layer drop1
I0520 21:30:52.740085 20835 net.cpp:454] drop1 <- ip1
I0520 21:30:52.740110 20835 net.cpp:397] drop1 -> ip1 (in-place)
I0520 21:30:52.740157 20835 net.cpp:150] Setting up drop1
I0520 21:30:52.740170 20835 net.cpp:157] Top shape: 330 196 (64680)
I0520 21:30:52.740180 20835 net.cpp:165] Memory required for data: 520580280
I0520 21:30:52.740190 20835 layer_factory.hpp:77] Creating layer ip2
I0520 21:30:52.740208 20835 net.cpp:106] Creating Layer ip2
I0520 21:30:52.740218 20835 net.cpp:454] ip2 <- ip1
I0520 21:30:52.740229 20835 net.cpp:411] ip2 -> ip2
I0520 21:30:52.740695 20835 net.cpp:150] Setting up ip2
I0520 21:30:52.740708 20835 net.cpp:157] Top shape: 330 98 (32340)
I0520 21:30:52.740718 20835 net.cpp:165] Memory required for data: 520709640
I0520 21:30:52.740733 20835 layer_factory.hpp:77] Creating layer relu6
I0520 21:30:52.740746 20835 net.cpp:106] Creating Layer relu6
I0520 21:30:52.740756 20835 net.cpp:454] relu6 <- ip2
I0520 21:30:52.740767 20835 net.cpp:397] relu6 -> ip2 (in-place)
I0520 21:30:52.741286 20835 net.cpp:150] Setting up relu6
I0520 21:30:52.741302 20835 net.cpp:157] Top shape: 330 98 (32340)
I0520 21:30:52.741312 20835 net.cpp:165] Memory required for data: 520839000
I0520 21:30:52.741323 20835 layer_factory.hpp:77] Creating layer drop2
I0520 21:30:52.741336 20835 net.cpp:106] Creating Layer drop2
I0520 21:30:52.741346 20835 net.cpp:454] drop2 <- ip2
I0520 21:30:52.741358 20835 net.cpp:397] drop2 -> ip2 (in-place)
I0520 21:30:52.741400 20835 net.cpp:150] Setting up drop2
I0520 21:30:52.741412 20835 net.cpp:157] Top shape: 330 98 (32340)
I0520 21:30:52.741423 20835 net.cpp:165] Memory required for data: 520968360
I0520 21:30:52.741432 20835 layer_factory.hpp:77] Creating layer ip3
I0520 21:30:52.741446 20835 net.cpp:106] Creating Layer ip3
I0520 21:30:52.741456 20835 net.cpp:454] ip3 <- ip2
I0520 21:30:52.741468 20835 net.cpp:411] ip3 -> ip3
I0520 21:30:52.741677 20835 net.cpp:150] Setting up ip3
I0520 21:30:52.741690 20835 net.cpp:157] Top shape: 330 11 (3630)
I0520 21:30:52.741699 20835 net.cpp:165] Memory required for data: 520982880
I0520 21:30:52.741715 20835 layer_factory.hpp:77] Creating layer drop3
I0520 21:30:52.741727 20835 net.cpp:106] Creating Layer drop3
I0520 21:30:52.741737 20835 net.cpp:454] drop3 <- ip3
I0520 21:30:52.741750 20835 net.cpp:397] drop3 -> ip3 (in-place)
I0520 21:30:52.741788 20835 net.cpp:150] Setting up drop3
I0520 21:30:52.741801 20835 net.cpp:157] Top shape: 330 11 (3630)
I0520 21:30:52.741811 20835 net.cpp:165] Memory required for data: 520997400
I0520 21:30:52.741821 20835 layer_factory.hpp:77] Creating layer loss
I0520 21:30:52.741839 20835 net.cpp:106] Creating Layer loss
I0520 21:30:52.741849 20835 net.cpp:454] loss <- ip3
I0520 21:30:52.741860 20835 net.cpp:454] loss <- label
I0520 21:30:52.741873 20835 net.cpp:411] loss -> loss
I0520 21:30:52.741889 20835 layer_factory.hpp:77] Creating layer loss
…
I0520 21:30:52.744459 20835 solver.cpp:181] Creating test net (#0) specified by net file: /lustre/atlas/proj-shared/hep105/caffe_titan/caffe_workflow/logs_batch_size_test/batch_size_330_2016-05-20T11.20.44.760450.prototxt
I0520 21:30:52.744529 20835 net.cpp:322] The NetState phase (1) differed from the phase (0) specified by a rule in layer data_hdf5
I0520 21:30:52.744885 20835 net.cpp:49] Initializing net from parameters: 
name: "caffe_test_127x50_x_unshifted"
state {
  phase: TEST
}
layer {
  name: "data_hdf5"
  type: "HDF5Data"
  top: "data"
  top: "label"
  include {
    phase: TEST
  }
  hdf5_data_param {
    source: "/lustre/atlas/proj-shared/hep105/caffe_titan/minosmatch_nukecczdefs_127x50_x_unshifted_me1Bmc.testlist"
    batch_size: 330
  }
}
layer {
  name: "conv1"
  type: "Convolution"
  bottom: "data"
  top: "conv1"
  convolution_param {
    num_output: 12
    pad: 0
    stride: 1
    weight_filler {
      type: "xavier"
    }
    bias_filler {
      type: "constant"
    }
    kernel_h: 8
    kernel_w: 3
  }
}
layer {
  name: "relu1"
  type: "ReLU"
  bottom: "conv1"
  top: "conv1"
}
layer {
  name: "pool1"
  type: "Pooling"
  bottom: "conv1"
  top: "pool1"
  pooling_param {
    pool: MAX
    kernel_h: 2
    kernel_w: 1
    stride_h: 2
    stride_w: 1
  }
}
layer {
  name: "conv2"
  type: "Convolution"
  bottom: "pool1"
  top: "conv2"
  convolution_param {
    num_output: 20
    pad: 0
    stride: 1
    weight_filler {
      type: "xavier"
    }
    bias_filler {
      type: "constant"
    }
    kernel_h: 7
    kernel_w: 3
  }
}
layer {
  name: "relu2"
  type: "ReLU"
  bottom: "conv2"
  top: "conv2"
}
layer {
  name: "pool2"
  type: "Pooling"
  bottom: "conv2"
  top: "pool2"
  pooling_param {
    pool: MAX
    kernel_h: 2
    kernel_w: 1
    stride_h: 2
    stride_w: 1
  }
}
layer {
  name: "conv3"
  type: "Convolution"
  bottom: "pool2"
  top: "conv3"
  convolution_param {
    num_output: 28
    pad: 0
    stride: 1
    weight_filler {
      type: "xavier"
    }
    bias_filler {
      type: "constant"
    }
    kernel_h: 6
    kernel_w: 3
  }
}
layer {
  name: "relu3"
  type: "ReLU"
  bottom: "conv3"
  top: "conv3"
}
layer {
  name: "pool3"
  type: "Pooling"
  bottom: "conv3"
  top: "pool3"
  pooling_param {
    pool: MAX
    kernel_h: 2
    kernel_w: 1
    stride_h: 2
    stride_w: 1
  }
}
layer {
  name: "conv4"
  type: "Convolution"
  bottom: "pool3"
  top: "conv4"
  convolution_param {
    num_output: 36
    pad: 0
    stride: 1
    weight_filler {
      type: "xavier"
    }
    bias_filler {
      type: "constant"
    }
    kernel_h: 6
    kernel_w: 3
  }
}
layer {
  name: "relu4"
  type: "ReLU"
  bottom: "conv4"
  top: "conv4"
}
layer {
  name: "pool4"
  type: "Pooling"
  bottom: "conv4"
  top: "pool4"
  pooling_param {
    pool: MAX
    kernel_h: 2
    kernel_w: 1
    stride_h: 2
    stride_w: 1
  }
}
layer {
  name: "ip1"
  type: "InnerProduct"
  bottom: "pool4"
  top: "ip1"
  inner_product_param {
    num_output: 196
    weight_filler {
      type: "xavier"
    }
    bias_filler {
      type: "constant"
    }
  }
}
layer {
  name: "relu5"
  type: "ReLU"
  bottom: "ip1"
  top: "ip1"
}
layer {
  name: "drop1"
  type: "Dropout"
  bottom: "ip1"
  top: "ip1"
  dropout_param {
    dropout_ratio: 0.5
  }
}
layer {
  name: "ip2"
  type: "InnerProduct"
  bottom: "ip1"
  top: "ip2"
  inner_product_param {
    num_output: 98
    weight_filler {
      type: "xavier"
    }
    bias_filler {
      type: "constant"
    }
  }
}
layer {
  name: "relu6"
  type: "ReLU"
  bottom: "ip2"
  top: "ip2"
}
layer {
  name: "drop2"
  type: "Dropout"
  bottom: "ip2"
  top: "ip2"
  dropout_param {
    dropout_ratio: 0.5
  }
}
layer {
  name: "ip3"
  type: "InnerProduct"
  bottom: "ip2"
  top: "ip3"
  inner_product_param {
    num_output: 11
    weight_filler {
      type: "xavier"
    }
    bias_filler {
      type: "constant"
    }
  }
}
layer {
  name: "drop3"
  type: "Dropout"
  bottom: "ip3"
  top: "ip3"
  dropout_param {
    dropout_ratio: 0.5
  }
}
layer {
  name: "accuracy"
  type: "Accuracy"
  bottom: "ip3"
  bottom: "label"
  top: "accuracy"
  include {
    phase: TEST
  }
}
layer {
  name: "loss"
  type: "SoftmaxWithLoss"
  bottom: "ip3"
  bottom: "label"
  top: "loss"
}
I0520 21:30:52.745074 20835 layer_factory.hpp:77] Creating layer data_hdf5
I0520 21:30:52.745090 20835 net.cpp:106] Creating Layer data_hdf5
I0520 21:30:52.745102 20835 net.cpp:411] data_hdf5 -> data
I0520 21:30:52.745120 20835 net.cpp:411] data_hdf5 -> label
I0520 21:30:52.745136 20835 hdf5_data_layer.cpp:79] Loading list of HDF5 filenames from: /lustre/atlas/proj-shared/hep105/caffe_titan/minosmatch_nukecczdefs_127x50_x_unshifted_me1Bmc.testlist
I0520 21:30:52.746284 20835 hdf5_data_layer.cpp:93] Number of HDF5 files: 3
I0520 21:31:14.093498 20835 net.cpp:150] Setting up data_hdf5
I0520 21:31:14.093667 20835 net.cpp:157] Top shape: 330 1 127 50 (2095500)
I0520 21:31:14.093680 20835 net.cpp:157] Top shape: 330 (330)
I0520 21:31:14.093690 20835 net.cpp:165] Memory required for data: 8383320
I0520 21:31:14.093704 20835 layer_factory.hpp:77] Creating layer label_data_hdf5_1_split
I0520 21:31:14.093732 20835 net.cpp:106] Creating Layer label_data_hdf5_1_split
I0520 21:31:14.093744 20835 net.cpp:454] label_data_hdf5_1_split <- label
I0520 21:31:14.093757 20835 net.cpp:411] label_data_hdf5_1_split -> label_data_hdf5_1_split_0
I0520 21:31:14.093780 20835 net.cpp:411] label_data_hdf5_1_split -> label_data_hdf5_1_split_1
I0520 21:31:14.093852 20835 net.cpp:150] Setting up label_data_hdf5_1_split
I0520 21:31:14.093866 20835 net.cpp:157] Top shape: 330 (330)
I0520 21:31:14.093878 20835 net.cpp:157] Top shape: 330 (330)
I0520 21:31:14.093888 20835 net.cpp:165] Memory required for data: 8385960
I0520 21:31:14.093897 20835 layer_factory.hpp:77] Creating layer conv1
I0520 21:31:14.093919 20835 net.cpp:106] Creating Layer conv1
I0520 21:31:14.093930 20835 net.cpp:454] conv1 <- data
I0520 21:31:14.093945 20835 net.cpp:411] conv1 -> conv1
I0520 21:31:14.095899 20835 net.cpp:150] Setting up conv1
I0520 21:31:14.095923 20835 net.cpp:157] Top shape: 330 12 120 48 (22809600)
I0520 21:31:14.095934 20835 net.cpp:165] Memory required for data: 99624360
I0520 21:31:14.095955 20835 layer_factory.hpp:77] Creating layer relu1
I0520 21:31:14.095970 20835 net.cpp:106] Creating Layer relu1
I0520 21:31:14.095980 20835 net.cpp:454] relu1 <- conv1
I0520 21:31:14.095993 20835 net.cpp:397] relu1 -> conv1 (in-place)
I0520 21:31:14.096490 20835 net.cpp:150] Setting up relu1
I0520 21:31:14.096506 20835 net.cpp:157] Top shape: 330 12 120 48 (22809600)
I0520 21:31:14.096516 20835 net.cpp:165] Memory required for data: 190862760
I0520 21:31:14.096527 20835 layer_factory.hpp:77] Creating layer pool1
I0520 21:31:14.096544 20835 net.cpp:106] Creating Layer pool1
I0520 21:31:14.096554 20835 net.cpp:454] pool1 <- conv1
I0520 21:31:14.096566 20835 net.cpp:411] pool1 -> pool1
I0520 21:31:14.096640 20835 net.cpp:150] Setting up pool1
I0520 21:31:14.096654 20835 net.cpp:157] Top shape: 330 12 60 48 (11404800)
I0520 21:31:14.096663 20835 net.cpp:165] Memory required for data: 236481960
I0520 21:31:14.096674 20835 layer_factory.hpp:77] Creating layer conv2
I0520 21:31:14.096691 20835 net.cpp:106] Creating Layer conv2
I0520 21:31:14.096701 20835 net.cpp:454] conv2 <- pool1
I0520 21:31:14.096716 20835 net.cpp:411] conv2 -> conv2
I0520 21:31:14.098654 20835 net.cpp:150] Setting up conv2
I0520 21:31:14.098675 20835 net.cpp:157] Top shape: 330 20 54 46 (16394400)
I0520 21:31:14.098688 20835 net.cpp:165] Memory required for data: 302059560
I0520 21:31:14.098706 20835 layer_factory.hpp:77] Creating layer relu2
I0520 21:31:14.098719 20835 net.cpp:106] Creating Layer relu2
I0520 21:31:14.098731 20835 net.cpp:454] relu2 <- conv2
I0520 21:31:14.098742 20835 net.cpp:397] relu2 -> conv2 (in-place)
I0520 21:31:14.099076 20835 net.cpp:150] Setting up relu2
I0520 21:31:14.099089 20835 net.cpp:157] Top shape: 330 20 54 46 (16394400)
I0520 21:31:14.099099 20835 net.cpp:165] Memory required for data: 367637160
I0520 21:31:14.099109 20835 layer_factory.hpp:77] Creating layer pool2
I0520 21:31:14.099123 20835 net.cpp:106] Creating Layer pool2
I0520 21:31:14.099133 20835 net.cpp:454] pool2 <- conv2
I0520 21:31:14.099145 20835 net.cpp:411] pool2 -> pool2
I0520 21:31:14.099217 20835 net.cpp:150] Setting up pool2
I0520 21:31:14.099230 20835 net.cpp:157] Top shape: 330 20 27 46 (8197200)
I0520 21:31:14.099239 20835 net.cpp:165] Memory required for data: 400425960
I0520 21:31:14.099249 20835 layer_factory.hpp:77] Creating layer conv3
I0520 21:31:14.099268 20835 net.cpp:106] Creating Layer conv3
I0520 21:31:14.099279 20835 net.cpp:454] conv3 <- pool2
I0520 21:31:14.099293 20835 net.cpp:411] conv3 -> conv3
I0520 21:31:14.101265 20835 net.cpp:150] Setting up conv3
I0520 21:31:14.101289 20835 net.cpp:157] Top shape: 330 28 22 44 (8944320)
I0520 21:31:14.101299 20835 net.cpp:165] Memory required for data: 436203240
I0520 21:31:14.101330 20835 layer_factory.hpp:77] Creating layer relu3
I0520 21:31:14.101343 20835 net.cpp:106] Creating Layer relu3
I0520 21:31:14.101353 20835 net.cpp:454] relu3 <- conv3
I0520 21:31:14.101366 20835 net.cpp:397] relu3 -> conv3 (in-place)
I0520 21:31:14.101837 20835 net.cpp:150] Setting up relu3
I0520 21:31:14.101853 20835 net.cpp:157] Top shape: 330 28 22 44 (8944320)
I0520 21:31:14.101864 20835 net.cpp:165] Memory required for data: 471980520
I0520 21:31:14.101873 20835 layer_factory.hpp:77] Creating layer pool3
I0520 21:31:14.101886 20835 net.cpp:106] Creating Layer pool3
I0520 21:31:14.101897 20835 net.cpp:454] pool3 <- conv3
I0520 21:31:14.101909 20835 net.cpp:411] pool3 -> pool3
I0520 21:31:14.101981 20835 net.cpp:150] Setting up pool3
I0520 21:31:14.101994 20835 net.cpp:157] Top shape: 330 28 11 44 (4472160)
I0520 21:31:14.102004 20835 net.cpp:165] Memory required for data: 489869160
I0520 21:31:14.102013 20835 layer_factory.hpp:77] Creating layer conv4
I0520 21:31:14.102031 20835 net.cpp:106] Creating Layer conv4
I0520 21:31:14.102041 20835 net.cpp:454] conv4 <- pool3
I0520 21:31:14.102057 20835 net.cpp:411] conv4 -> conv4
I0520 21:31:14.104113 20835 net.cpp:150] Setting up conv4
I0520 21:31:14.104135 20835 net.cpp:157] Top shape: 330 36 6 42 (2993760)
I0520 21:31:14.104148 20835 net.cpp:165] Memory required for data: 501844200
I0520 21:31:14.104163 20835 layer_factory.hpp:77] Creating layer relu4
I0520 21:31:14.104176 20835 net.cpp:106] Creating Layer relu4
I0520 21:31:14.104187 20835 net.cpp:454] relu4 <- conv4
I0520 21:31:14.104199 20835 net.cpp:397] relu4 -> conv4 (in-place)
I0520 21:31:14.104671 20835 net.cpp:150] Setting up relu4
I0520 21:31:14.104686 20835 net.cpp:157] Top shape: 330 36 6 42 (2993760)
I0520 21:31:14.104696 20835 net.cpp:165] Memory required for data: 513819240
I0520 21:31:14.104707 20835 layer_factory.hpp:77] Creating layer pool4
I0520 21:31:14.104719 20835 net.cpp:106] Creating Layer pool4
I0520 21:31:14.104729 20835 net.cpp:454] pool4 <- conv4
I0520 21:31:14.104742 20835 net.cpp:411] pool4 -> pool4
I0520 21:31:14.104811 20835 net.cpp:150] Setting up pool4
I0520 21:31:14.104825 20835 net.cpp:157] Top shape: 330 36 3 42 (1496880)
I0520 21:31:14.104835 20835 net.cpp:165] Memory required for data: 519806760
I0520 21:31:14.104843 20835 layer_factory.hpp:77] Creating layer ip1
I0520 21:31:14.104856 20835 net.cpp:106] Creating Layer ip1
I0520 21:31:14.104867 20835 net.cpp:454] ip1 <- pool4
I0520 21:31:14.104882 20835 net.cpp:411] ip1 -> ip1
I0520 21:31:14.120342 20835 net.cpp:150] Setting up ip1
I0520 21:31:14.120368 20835 net.cpp:157] Top shape: 330 196 (64680)
I0520 21:31:14.120381 20835 net.cpp:165] Memory required for data: 520065480
I0520 21:31:14.120404 20835 layer_factory.hpp:77] Creating layer relu5
I0520 21:31:14.120419 20835 net.cpp:106] Creating Layer relu5
I0520 21:31:14.120429 20835 net.cpp:454] relu5 <- ip1
I0520 21:31:14.120441 20835 net.cpp:397] relu5 -> ip1 (in-place)
I0520 21:31:14.120786 20835 net.cpp:150] Setting up relu5
I0520 21:31:14.120800 20835 net.cpp:157] Top shape: 330 196 (64680)
I0520 21:31:14.120810 20835 net.cpp:165] Memory required for data: 520324200
I0520 21:31:14.120820 20835 layer_factory.hpp:77] Creating layer drop1
I0520 21:31:14.120838 20835 net.cpp:106] Creating Layer drop1
I0520 21:31:14.120848 20835 net.cpp:454] drop1 <- ip1
I0520 21:31:14.120862 20835 net.cpp:397] drop1 -> ip1 (in-place)
I0520 21:31:14.120905 20835 net.cpp:150] Setting up drop1
I0520 21:31:14.120918 20835 net.cpp:157] Top shape: 330 196 (64680)
I0520 21:31:14.120926 20835 net.cpp:165] Memory required for data: 520582920
I0520 21:31:14.120936 20835 layer_factory.hpp:77] Creating layer ip2
I0520 21:31:14.120950 20835 net.cpp:106] Creating Layer ip2
I0520 21:31:14.120960 20835 net.cpp:454] ip2 <- ip1
I0520 21:31:14.120973 20835 net.cpp:411] ip2 -> ip2
I0520 21:31:14.121453 20835 net.cpp:150] Setting up ip2
I0520 21:31:14.121465 20835 net.cpp:157] Top shape: 330 98 (32340)
I0520 21:31:14.121475 20835 net.cpp:165] Memory required for data: 520712280
I0520 21:31:14.121503 20835 layer_factory.hpp:77] Creating layer relu6
I0520 21:31:14.121516 20835 net.cpp:106] Creating Layer relu6
I0520 21:31:14.121526 20835 net.cpp:454] relu6 <- ip2
I0520 21:31:14.121539 20835 net.cpp:397] relu6 -> ip2 (in-place)
I0520 21:31:14.122071 20835 net.cpp:150] Setting up relu6
I0520 21:31:14.122092 20835 net.cpp:157] Top shape: 330 98 (32340)
I0520 21:31:14.122102 20835 net.cpp:165] Memory required for data: 520841640
I0520 21:31:14.122112 20835 layer_factory.hpp:77] Creating layer drop2
I0520 21:31:14.122125 20835 net.cpp:106] Creating Layer drop2
I0520 21:31:14.122135 20835 net.cpp:454] drop2 <- ip2
I0520 21:31:14.122148 20835 net.cpp:397] drop2 -> ip2 (in-place)
I0520 21:31:14.122192 20835 net.cpp:150] Setting up drop2
I0520 21:31:14.122205 20835 net.cpp:157] Top shape: 330 98 (32340)
I0520 21:31:14.122215 20835 net.cpp:165] Memory required for data: 520971000
I0520 21:31:14.122225 20835 layer_factory.hpp:77] Creating layer ip3
I0520 21:31:14.122238 20835 net.cpp:106] Creating Layer ip3
I0520 21:31:14.122248 20835 net.cpp:454] ip3 <- ip2
I0520 21:31:14.122262 20835 net.cpp:411] ip3 -> ip3
I0520 21:31:14.122485 20835 net.cpp:150] Setting up ip3
I0520 21:31:14.122498 20835 net.cpp:157] Top shape: 330 11 (3630)
I0520 21:31:14.122509 20835 net.cpp:165] Memory required for data: 520985520
I0520 21:31:14.122524 20835 layer_factory.hpp:77] Creating layer drop3
I0520 21:31:14.122536 20835 net.cpp:106] Creating Layer drop3
I0520 21:31:14.122546 20835 net.cpp:454] drop3 <- ip3
I0520 21:31:14.122560 20835 net.cpp:397] drop3 -> ip3 (in-place)
I0520 21:31:14.122599 20835 net.cpp:150] Setting up drop3
I0520 21:31:14.122612 20835 net.cpp:157] Top shape: 330 11 (3630)
I0520 21:31:14.122622 20835 net.cpp:165] Memory required for data: 521000040
I0520 21:31:14.122632 20835 layer_factory.hpp:77] Creating layer ip3_drop3_0_split
I0520 21:31:14.122644 20835 net.cpp:106] Creating Layer ip3_drop3_0_split
I0520 21:31:14.122654 20835 net.cpp:454] ip3_drop3_0_split <- ip3
I0520 21:31:14.122666 20835 net.cpp:411] ip3_drop3_0_split -> ip3_drop3_0_split_0
I0520 21:31:14.122681 20835 net.cpp:411] ip3_drop3_0_split -> ip3_drop3_0_split_1
I0520 21:31:14.122753 20835 net.cpp:150] Setting up ip3_drop3_0_split
I0520 21:31:14.122766 20835 net.cpp:157] Top shape: 330 11 (3630)
I0520 21:31:14.122779 20835 net.cpp:157] Top shape: 330 11 (3630)
I0520 21:31:14.122789 20835 net.cpp:165] Memory required for data: 521029080
I0520 21:31:14.122800 20835 layer_factory.hpp:77] Creating layer accuracy
I0520 21:31:14.122822 20835 net.cpp:106] Creating Layer accuracy
I0520 21:31:14.122833 20835 net.cpp:454] accuracy <- ip3_drop3_0_split_0
I0520 21:31:14.122843 20835 net.cpp:454] accuracy <- label_data_hdf5_1_split_0
I0520 21:31:14.122856 20835 net.cpp:411] accuracy -> accuracy
…
