…
I0520 13:17:14.161177 12390 net.cpp:322] The NetState phase (0) differed from the phase (1) specified by a rule in layer data_hdf5
I0520 13:17:14.161237 12390 net.cpp:322] The NetState phase (0) differed from the phase (1) specified by a rule in layer accuracy
I0520 13:17:14.161582 12390 net.cpp:49] Initializing net from parameters: 
name: "caffe_test_127x50_x_unshifted"
state {
  phase: TRAIN
}
layer {
  name: "data_hdf5"
  type: "HDF5Data"
  top: "data"
  top: "label"
  include {
    phase: TRAIN
  }
  hdf5_data_param {
    source: "/lustre/atlas/proj-shared/hep105/caffe_titan/minosmatch_nukecczdefs_127x50_x_unshifted_me1Bmc.trainlist"
    batch_size: 70
  }
}
layer {
  name: "conv1"
  type: "Convolution"
  bottom: "data"
  top: "conv1"
  convolution_param {
    num_output: 12
    pad: 0
    stride: 1
    weight_filler {
      type: "xavier"
    }
    bias_filler {
      type: "constant"
    }
    kernel_h: 8
    kernel_w: 3
  }
}
layer {
  name: "relu1"
  type: "ReLU"
  bottom: "conv1"
  top: "conv1"
}
layer {
  name: "pool1"
  type: "Pooling"
  bottom: "conv1"
  top: "pool1"
  pooling_param {
    pool: MAX
    kernel_h: 2
    kernel_w: 1
    stride_h: 2
    stride_w: 1
  }
}
layer {
  name: "conv2"
  type: "Convolution"
  bottom: "pool1"
  top: "conv2"
  convolution_param {
    num_output: 20
    pad: 0
    stride: 1
    weight_filler {
      type: "xavier"
    }
    bias_filler {
      type: "constant"
    }
    kernel_h: 7
    kernel_w: 3
  }
}
layer {
  name: "relu2"
  type: "ReLU"
  bottom: "conv2"
  top: "conv2"
}
layer {
  name: "pool2"
  type: "Pooling"
  bottom: "conv2"
  top: "pool2"
  pooling_param {
    pool: MAX
    kernel_h: 2
    kernel_w: 1
    stride_h: 2
    stride_w: 1
  }
}
layer {
  name: "conv3"
  type: "Convolution"
  bottom: "pool2"
  top: "conv3"
  convolution_param {
    num_output: 28
    pad: 0
    stride: 1
    weight_filler {
      type: "xavier"
    }
    bias_filler {
      type: "constant"
    }
    kernel_h: 6
    kernel_w: 3
  }
}
layer {
  name: "relu3"
  type: "ReLU"
  bottom: "conv3"
  top: "conv3"
}
layer {
  name: "pool3"
  type: "Pooling"
  bottom: "conv3"
  top: "pool3"
  pooling_param {
    pool: MAX
    kernel_h: 2
    kernel_w: 1
    stride_h: 2
    stride_w: 1
  }
}
layer {
  name: "conv4"
  type: "Convolution"
  bottom: "pool3"
  top: "conv4"
  convolution_param {
    num_output: 36
    pad: 0
    stride: 1
    weight_filler {
      type: "xavier"
    }
    bias_filler {
      type: "constant"
    }
    kernel_h: 6
    kernel_w: 3
  }
}
layer {
  name: "relu4"
  type: "ReLU"
  bottom: "conv4"
  top: "conv4"
}
layer {
  name: "pool4"
  type: "Pooling"
  bottom: "conv4"
  top: "pool4"
  pooling_param {
    pool: MAX
    kernel_h: 2
    kernel_w: 1
    stride_h: 2
    stride_w: 1
  }
}
layer {
  name: "ip1"
  type: "InnerProduct"
  bottom: "pool4"
  top: "ip1"
  inner_product_param {
    num_output: 196
    weight_filler {
      type: "xavier"
    }
    bias_filler {
      type: "constant"
    }
  }
}
layer {
  name: "relu5"
  type: "ReLU"
  bottom: "ip1"
  top: "ip1"
}
layer {
  name: "drop1"
  type: "Dropout"
  bottom: "ip1"
  top: "ip1"
  dropout_param {
    dropout_ratio: 0.5
  }
}
layer {
  name: "ip2"
  type: "InnerProduct"
  bottom: "ip1"
  top: "ip2"
  inner_product_param {
    num_output: 98
    weight_filler {
      type: "xavier"
    }
    bias_filler {
      type: "constant"
    }
  }
}
layer {
  name: "relu6"
  type: "ReLU"
  bottom: "ip2"
  top: "ip2"
}
layer {
  name: "drop2"
  type: "Dropout"
  bottom: "ip2"
  top: "ip2"
  dropout_param {
    dropout_ratio: 0.5
  }
}
layer {
  name: "ip3"
  type: "InnerProduct"
  bottom: "ip2"
  top: "ip3"
  inner_product_param {
    num_output: 11
    weight_filler {
      type: "xavier"
    }
    bias_filler {
      type: "constant"
    }
  }
}
layer {
  name: "drop3"
  type: "Dropout"
  bottom: "ip3"
  top: "ip3"
  dropout_param {
    dropout_ratio: 0.5
  }
}
layer {
  name: "loss"
  type: "SoftmaxWithLoss"
  bottom: "ip3"
  bottom: "label"
  top: "loss"
}
I0520 13:17:14.161761 12390 layer_factory.hpp:77] Creating layer data_hdf5
I0520 13:17:14.161785 12390 net.cpp:106] Creating Layer data_hdf5
I0520 13:17:14.161800 12390 net.cpp:411] data_hdf5 -> data
I0520 13:17:14.161834 12390 net.cpp:411] data_hdf5 -> label
I0520 13:17:14.161866 12390 hdf5_data_layer.cpp:79] Loading list of HDF5 filenames from: /lustre/atlas/proj-shared/hep105/caffe_titan/minosmatch_nukecczdefs_127x50_x_unshifted_me1Bmc.trainlist
I0520 13:17:14.163048 12390 hdf5_data_layer.cpp:93] Number of HDF5 files: 15
I0520 13:17:14.165192 12390 hdf5.cpp:32] Datatype class: H5T_FLOAT
I0520 13:17:35.731528 12390 hdf5.cpp:35] Datatype class: H5T_INTEGER
I0520 13:17:35.736625 12390 net.cpp:150] Setting up data_hdf5
I0520 13:17:35.736670 12390 net.cpp:157] Top shape: 70 1 127 50 (444500)
I0520 13:17:35.736685 12390 net.cpp:157] Top shape: 70 (70)
I0520 13:17:35.736695 12390 net.cpp:165] Memory required for data: 1778280
I0520 13:17:35.736708 12390 layer_factory.hpp:77] Creating layer conv1
I0520 13:17:35.736742 12390 net.cpp:106] Creating Layer conv1
I0520 13:17:35.736753 12390 net.cpp:454] conv1 <- data
I0520 13:17:35.736778 12390 net.cpp:411] conv1 -> conv1
I0520 13:17:36.098496 12390 net.cpp:150] Setting up conv1
I0520 13:17:36.098543 12390 net.cpp:157] Top shape: 70 12 120 48 (4838400)
I0520 13:17:36.098554 12390 net.cpp:165] Memory required for data: 21131880
I0520 13:17:36.098585 12390 layer_factory.hpp:77] Creating layer relu1
I0520 13:17:36.098606 12390 net.cpp:106] Creating Layer relu1
I0520 13:17:36.098618 12390 net.cpp:454] relu1 <- conv1
I0520 13:17:36.098630 12390 net.cpp:397] relu1 -> conv1 (in-place)
I0520 13:17:36.099148 12390 net.cpp:150] Setting up relu1
I0520 13:17:36.099164 12390 net.cpp:157] Top shape: 70 12 120 48 (4838400)
I0520 13:17:36.099175 12390 net.cpp:165] Memory required for data: 40485480
I0520 13:17:36.099185 12390 layer_factory.hpp:77] Creating layer pool1
I0520 13:17:36.099201 12390 net.cpp:106] Creating Layer pool1
I0520 13:17:36.099211 12390 net.cpp:454] pool1 <- conv1
I0520 13:17:36.099225 12390 net.cpp:411] pool1 -> pool1
I0520 13:17:36.099304 12390 net.cpp:150] Setting up pool1
I0520 13:17:36.099319 12390 net.cpp:157] Top shape: 70 12 60 48 (2419200)
I0520 13:17:36.099329 12390 net.cpp:165] Memory required for data: 50162280
I0520 13:17:36.099339 12390 layer_factory.hpp:77] Creating layer conv2
I0520 13:17:36.099370 12390 net.cpp:106] Creating Layer conv2
I0520 13:17:36.099380 12390 net.cpp:454] conv2 <- pool1
I0520 13:17:36.099393 12390 net.cpp:411] conv2 -> conv2
I0520 13:17:36.102141 12390 net.cpp:150] Setting up conv2
I0520 13:17:36.102169 12390 net.cpp:157] Top shape: 70 20 54 46 (3477600)
I0520 13:17:36.102180 12390 net.cpp:165] Memory required for data: 64072680
I0520 13:17:36.102200 12390 layer_factory.hpp:77] Creating layer relu2
I0520 13:17:36.102213 12390 net.cpp:106] Creating Layer relu2
I0520 13:17:36.102223 12390 net.cpp:454] relu2 <- conv2
I0520 13:17:36.102236 12390 net.cpp:397] relu2 -> conv2 (in-place)
I0520 13:17:36.102568 12390 net.cpp:150] Setting up relu2
I0520 13:17:36.102582 12390 net.cpp:157] Top shape: 70 20 54 46 (3477600)
I0520 13:17:36.102592 12390 net.cpp:165] Memory required for data: 77983080
I0520 13:17:36.102603 12390 layer_factory.hpp:77] Creating layer pool2
I0520 13:17:36.102615 12390 net.cpp:106] Creating Layer pool2
I0520 13:17:36.102625 12390 net.cpp:454] pool2 <- conv2
I0520 13:17:36.102650 12390 net.cpp:411] pool2 -> pool2
I0520 13:17:36.102720 12390 net.cpp:150] Setting up pool2
I0520 13:17:36.102733 12390 net.cpp:157] Top shape: 70 20 27 46 (1738800)
I0520 13:17:36.102743 12390 net.cpp:165] Memory required for data: 84938280
I0520 13:17:36.102751 12390 layer_factory.hpp:77] Creating layer conv3
I0520 13:17:36.102769 12390 net.cpp:106] Creating Layer conv3
I0520 13:17:36.102779 12390 net.cpp:454] conv3 <- pool2
I0520 13:17:36.102793 12390 net.cpp:411] conv3 -> conv3
I0520 13:17:36.104722 12390 net.cpp:150] Setting up conv3
I0520 13:17:36.104745 12390 net.cpp:157] Top shape: 70 28 22 44 (1897280)
I0520 13:17:36.104758 12390 net.cpp:165] Memory required for data: 92527400
I0520 13:17:36.104776 12390 layer_factory.hpp:77] Creating layer relu3
I0520 13:17:36.104794 12390 net.cpp:106] Creating Layer relu3
I0520 13:17:36.104804 12390 net.cpp:454] relu3 <- conv3
I0520 13:17:36.104816 12390 net.cpp:397] relu3 -> conv3 (in-place)
I0520 13:17:36.105283 12390 net.cpp:150] Setting up relu3
I0520 13:17:36.105300 12390 net.cpp:157] Top shape: 70 28 22 44 (1897280)
I0520 13:17:36.105310 12390 net.cpp:165] Memory required for data: 100116520
I0520 13:17:36.105320 12390 layer_factory.hpp:77] Creating layer pool3
I0520 13:17:36.105334 12390 net.cpp:106] Creating Layer pool3
I0520 13:17:36.105343 12390 net.cpp:454] pool3 <- conv3
I0520 13:17:36.105355 12390 net.cpp:411] pool3 -> pool3
I0520 13:17:36.105423 12390 net.cpp:150] Setting up pool3
I0520 13:17:36.105437 12390 net.cpp:157] Top shape: 70 28 11 44 (948640)
I0520 13:17:36.105446 12390 net.cpp:165] Memory required for data: 103911080
I0520 13:17:36.105454 12390 layer_factory.hpp:77] Creating layer conv4
I0520 13:17:36.105471 12390 net.cpp:106] Creating Layer conv4
I0520 13:17:36.105481 12390 net.cpp:454] conv4 <- pool3
I0520 13:17:36.105495 12390 net.cpp:411] conv4 -> conv4
I0520 13:17:36.108292 12390 net.cpp:150] Setting up conv4
I0520 13:17:36.108321 12390 net.cpp:157] Top shape: 70 36 6 42 (635040)
I0520 13:17:36.108331 12390 net.cpp:165] Memory required for data: 106451240
I0520 13:17:36.108347 12390 layer_factory.hpp:77] Creating layer relu4
I0520 13:17:36.108361 12390 net.cpp:106] Creating Layer relu4
I0520 13:17:36.108371 12390 net.cpp:454] relu4 <- conv4
I0520 13:17:36.108384 12390 net.cpp:397] relu4 -> conv4 (in-place)
I0520 13:17:36.108855 12390 net.cpp:150] Setting up relu4
I0520 13:17:36.108871 12390 net.cpp:157] Top shape: 70 36 6 42 (635040)
I0520 13:17:36.108881 12390 net.cpp:165] Memory required for data: 108991400
I0520 13:17:36.108892 12390 layer_factory.hpp:77] Creating layer pool4
I0520 13:17:36.108906 12390 net.cpp:106] Creating Layer pool4
I0520 13:17:36.108916 12390 net.cpp:454] pool4 <- conv4
I0520 13:17:36.108928 12390 net.cpp:411] pool4 -> pool4
I0520 13:17:36.108996 12390 net.cpp:150] Setting up pool4
I0520 13:17:36.109009 12390 net.cpp:157] Top shape: 70 36 3 42 (317520)
I0520 13:17:36.109020 12390 net.cpp:165] Memory required for data: 110261480
I0520 13:17:36.109030 12390 layer_factory.hpp:77] Creating layer ip1
I0520 13:17:36.109050 12390 net.cpp:106] Creating Layer ip1
I0520 13:17:36.109061 12390 net.cpp:454] ip1 <- pool4
I0520 13:17:36.109073 12390 net.cpp:411] ip1 -> ip1
I0520 13:17:36.124531 12390 net.cpp:150] Setting up ip1
I0520 13:17:36.124560 12390 net.cpp:157] Top shape: 70 196 (13720)
I0520 13:17:36.124573 12390 net.cpp:165] Memory required for data: 110316360
I0520 13:17:36.124595 12390 layer_factory.hpp:77] Creating layer relu5
I0520 13:17:36.124610 12390 net.cpp:106] Creating Layer relu5
I0520 13:17:36.124620 12390 net.cpp:454] relu5 <- ip1
I0520 13:17:36.124634 12390 net.cpp:397] relu5 -> ip1 (in-place)
I0520 13:17:36.124979 12390 net.cpp:150] Setting up relu5
I0520 13:17:36.124994 12390 net.cpp:157] Top shape: 70 196 (13720)
I0520 13:17:36.125005 12390 net.cpp:165] Memory required for data: 110371240
I0520 13:17:36.125015 12390 layer_factory.hpp:77] Creating layer drop1
I0520 13:17:36.125036 12390 net.cpp:106] Creating Layer drop1
I0520 13:17:36.125046 12390 net.cpp:454] drop1 <- ip1
I0520 13:17:36.125058 12390 net.cpp:397] drop1 -> ip1 (in-place)
I0520 13:17:36.125119 12390 net.cpp:150] Setting up drop1
I0520 13:17:36.125133 12390 net.cpp:157] Top shape: 70 196 (13720)
I0520 13:17:36.125144 12390 net.cpp:165] Memory required for data: 110426120
I0520 13:17:36.125154 12390 layer_factory.hpp:77] Creating layer ip2
I0520 13:17:36.125172 12390 net.cpp:106] Creating Layer ip2
I0520 13:17:36.125182 12390 net.cpp:454] ip2 <- ip1
I0520 13:17:36.125195 12390 net.cpp:411] ip2 -> ip2
I0520 13:17:36.125658 12390 net.cpp:150] Setting up ip2
I0520 13:17:36.125671 12390 net.cpp:157] Top shape: 70 98 (6860)
I0520 13:17:36.125680 12390 net.cpp:165] Memory required for data: 110453560
I0520 13:17:36.125696 12390 layer_factory.hpp:77] Creating layer relu6
I0520 13:17:36.125710 12390 net.cpp:106] Creating Layer relu6
I0520 13:17:36.125718 12390 net.cpp:454] relu6 <- ip2
I0520 13:17:36.125730 12390 net.cpp:397] relu6 -> ip2 (in-place)
I0520 13:17:36.126245 12390 net.cpp:150] Setting up relu6
I0520 13:17:36.126261 12390 net.cpp:157] Top shape: 70 98 (6860)
I0520 13:17:36.126271 12390 net.cpp:165] Memory required for data: 110481000
I0520 13:17:36.126281 12390 layer_factory.hpp:77] Creating layer drop2
I0520 13:17:36.126296 12390 net.cpp:106] Creating Layer drop2
I0520 13:17:36.126304 12390 net.cpp:454] drop2 <- ip2
I0520 13:17:36.126317 12390 net.cpp:397] drop2 -> ip2 (in-place)
I0520 13:17:36.126360 12390 net.cpp:150] Setting up drop2
I0520 13:17:36.126374 12390 net.cpp:157] Top shape: 70 98 (6860)
I0520 13:17:36.126384 12390 net.cpp:165] Memory required for data: 110508440
I0520 13:17:36.126394 12390 layer_factory.hpp:77] Creating layer ip3
I0520 13:17:36.126406 12390 net.cpp:106] Creating Layer ip3
I0520 13:17:36.126415 12390 net.cpp:454] ip3 <- ip2
I0520 13:17:36.126428 12390 net.cpp:411] ip3 -> ip3
I0520 13:17:36.126637 12390 net.cpp:150] Setting up ip3
I0520 13:17:36.126651 12390 net.cpp:157] Top shape: 70 11 (770)
I0520 13:17:36.126660 12390 net.cpp:165] Memory required for data: 110511520
I0520 13:17:36.126675 12390 layer_factory.hpp:77] Creating layer drop3
I0520 13:17:36.126688 12390 net.cpp:106] Creating Layer drop3
I0520 13:17:36.126698 12390 net.cpp:454] drop3 <- ip3
I0520 13:17:36.126709 12390 net.cpp:397] drop3 -> ip3 (in-place)
I0520 13:17:36.126749 12390 net.cpp:150] Setting up drop3
I0520 13:17:36.126762 12390 net.cpp:157] Top shape: 70 11 (770)
I0520 13:17:36.126771 12390 net.cpp:165] Memory required for data: 110514600
I0520 13:17:36.126781 12390 layer_factory.hpp:77] Creating layer loss
I0520 13:17:36.126801 12390 net.cpp:106] Creating Layer loss
I0520 13:17:36.126811 12390 net.cpp:454] loss <- ip3
I0520 13:17:36.126821 12390 net.cpp:454] loss <- label
I0520 13:17:36.126834 12390 net.cpp:411] loss -> loss
I0520 13:17:36.126850 12390 layer_factory.hpp:77] Creating layer loss
…
I0520 13:17:36.129405 12390 solver.cpp:181] Creating test net (#0) specified by net file: /lustre/atlas/proj-shared/hep105/caffe_titan/caffe_workflow/logs_batch_size_test/batch_size_70_2016-05-20T11.20.35.233777.prototxt
I0520 13:17:36.129475 12390 net.cpp:322] The NetState phase (1) differed from the phase (0) specified by a rule in layer data_hdf5
I0520 13:17:36.129832 12390 net.cpp:49] Initializing net from parameters: 
name: "caffe_test_127x50_x_unshifted"
state {
  phase: TEST
}
layer {
  name: "data_hdf5"
  type: "HDF5Data"
  top: "data"
  top: "label"
  include {
    phase: TEST
  }
  hdf5_data_param {
    source: "/lustre/atlas/proj-shared/hep105/caffe_titan/minosmatch_nukecczdefs_127x50_x_unshifted_me1Bmc.testlist"
    batch_size: 70
  }
}
layer {
  name: "conv1"
  type: "Convolution"
  bottom: "data"
  top: "conv1"
  convolution_param {
    num_output: 12
    pad: 0
    stride: 1
    weight_filler {
      type: "xavier"
    }
    bias_filler {
      type: "constant"
    }
    kernel_h: 8
    kernel_w: 3
  }
}
layer {
  name: "relu1"
  type: "ReLU"
  bottom: "conv1"
  top: "conv1"
}
layer {
  name: "pool1"
  type: "Pooling"
  bottom: "conv1"
  top: "pool1"
  pooling_param {
    pool: MAX
    kernel_h: 2
    kernel_w: 1
    stride_h: 2
    stride_w: 1
  }
}
layer {
  name: "conv2"
  type: "Convolution"
  bottom: "pool1"
  top: "conv2"
  convolution_param {
    num_output: 20
    pad: 0
    stride: 1
    weight_filler {
      type: "xavier"
    }
    bias_filler {
      type: "constant"
    }
    kernel_h: 7
    kernel_w: 3
  }
}
layer {
  name: "relu2"
  type: "ReLU"
  bottom: "conv2"
  top: "conv2"
}
layer {
  name: "pool2"
  type: "Pooling"
  bottom: "conv2"
  top: "pool2"
  pooling_param {
    pool: MAX
    kernel_h: 2
    kernel_w: 1
    stride_h: 2
    stride_w: 1
  }
}
layer {
  name: "conv3"
  type: "Convolution"
  bottom: "pool2"
  top: "conv3"
  convolution_param {
    num_output: 28
    pad: 0
    stride: 1
    weight_filler {
      type: "xavier"
    }
    bias_filler {
      type: "constant"
    }
    kernel_h: 6
    kernel_w: 3
  }
}
layer {
  name: "relu3"
  type: "ReLU"
  bottom: "conv3"
  top: "conv3"
}
layer {
  name: "pool3"
  type: "Pooling"
  bottom: "conv3"
  top: "pool3"
  pooling_param {
    pool: MAX
    kernel_h: 2
    kernel_w: 1
    stride_h: 2
    stride_w: 1
  }
}
layer {
  name: "conv4"
  type: "Convolution"
  bottom: "pool3"
  top: "conv4"
  convolution_param {
    num_output: 36
    pad: 0
    stride: 1
    weight_filler {
      type: "xavier"
    }
    bias_filler {
      type: "constant"
    }
    kernel_h: 6
    kernel_w: 3
  }
}
layer {
  name: "relu4"
  type: "ReLU"
  bottom: "conv4"
  top: "conv4"
}
layer {
  name: "pool4"
  type: "Pooling"
  bottom: "conv4"
  top: "pool4"
  pooling_param {
    pool: MAX
    kernel_h: 2
    kernel_w: 1
    stride_h: 2
    stride_w: 1
  }
}
layer {
  name: "ip1"
  type: "InnerProduct"
  bottom: "pool4"
  top: "ip1"
  inner_product_param {
    num_output: 196
    weight_filler {
      type: "xavier"
    }
    bias_filler {
      type: "constant"
    }
  }
}
layer {
  name: "relu5"
  type: "ReLU"
  bottom: "ip1"
  top: "ip1"
}
layer {
  name: "drop1"
  type: "Dropout"
  bottom: "ip1"
  top: "ip1"
  dropout_param {
    dropout_ratio: 0.5
  }
}
layer {
  name: "ip2"
  type: "InnerProduct"
  bottom: "ip1"
  top: "ip2"
  inner_product_param {
    num_output: 98
    weight_filler {
      type: "xavier"
    }
    bias_filler {
      type: "constant"
    }
  }
}
layer {
  name: "relu6"
  type: "ReLU"
  bottom: "ip2"
  top: "ip2"
}
layer {
  name: "drop2"
  type: "Dropout"
  bottom: "ip2"
  top: "ip2"
  dropout_param {
    dropout_ratio: 0.5
  }
}
layer {
  name: "ip3"
  type: "InnerProduct"
  bottom: "ip2"
  top: "ip3"
  inner_product_param {
    num_output: 11
    weight_filler {
      type: "xavier"
    }
    bias_filler {
      type: "constant"
    }
  }
}
layer {
  name: "drop3"
  type: "Dropout"
  bottom: "ip3"
  top: "ip3"
  dropout_param {
    dropout_ratio: 0.5
  }
}
layer {
  name: "accuracy"
  type: "Accuracy"
  bottom: "ip3"
  bottom: "label"
  top: "accuracy"
  include {
    phase: TEST
  }
}
layer {
  name: "loss"
  type: "SoftmaxWithLoss"
  bottom: "ip3"
  bottom: "label"
  top: "loss"
}
I0520 13:17:36.130022 12390 layer_factory.hpp:77] Creating layer data_hdf5
I0520 13:17:36.130036 12390 net.cpp:106] Creating Layer data_hdf5
I0520 13:17:36.130048 12390 net.cpp:411] data_hdf5 -> data
I0520 13:17:36.130064 12390 net.cpp:411] data_hdf5 -> label
I0520 13:17:36.130080 12390 hdf5_data_layer.cpp:79] Loading list of HDF5 filenames from: /lustre/atlas/proj-shared/hep105/caffe_titan/minosmatch_nukecczdefs_127x50_x_unshifted_me1Bmc.testlist
I0520 13:17:36.149190 12390 hdf5_data_layer.cpp:93] Number of HDF5 files: 3
I0520 13:17:57.553493 12390 net.cpp:150] Setting up data_hdf5
I0520 13:17:57.553658 12390 net.cpp:157] Top shape: 70 1 127 50 (444500)
I0520 13:17:57.553671 12390 net.cpp:157] Top shape: 70 (70)
I0520 13:17:57.553683 12390 net.cpp:165] Memory required for data: 1778280
I0520 13:17:57.553696 12390 layer_factory.hpp:77] Creating layer label_data_hdf5_1_split
I0520 13:17:57.553725 12390 net.cpp:106] Creating Layer label_data_hdf5_1_split
I0520 13:17:57.553735 12390 net.cpp:454] label_data_hdf5_1_split <- label
I0520 13:17:57.553751 12390 net.cpp:411] label_data_hdf5_1_split -> label_data_hdf5_1_split_0
I0520 13:17:57.553772 12390 net.cpp:411] label_data_hdf5_1_split -> label_data_hdf5_1_split_1
I0520 13:17:57.553844 12390 net.cpp:150] Setting up label_data_hdf5_1_split
I0520 13:17:57.553858 12390 net.cpp:157] Top shape: 70 (70)
I0520 13:17:57.553870 12390 net.cpp:157] Top shape: 70 (70)
I0520 13:17:57.553879 12390 net.cpp:165] Memory required for data: 1778840
I0520 13:17:57.553891 12390 layer_factory.hpp:77] Creating layer conv1
I0520 13:17:57.553911 12390 net.cpp:106] Creating Layer conv1
I0520 13:17:57.553922 12390 net.cpp:454] conv1 <- data
I0520 13:17:57.553936 12390 net.cpp:411] conv1 -> conv1
I0520 13:17:57.555865 12390 net.cpp:150] Setting up conv1
I0520 13:17:57.555888 12390 net.cpp:157] Top shape: 70 12 120 48 (4838400)
I0520 13:17:57.555902 12390 net.cpp:165] Memory required for data: 21132440
I0520 13:17:57.555922 12390 layer_factory.hpp:77] Creating layer relu1
I0520 13:17:57.555937 12390 net.cpp:106] Creating Layer relu1
I0520 13:17:57.555946 12390 net.cpp:454] relu1 <- conv1
I0520 13:17:57.555959 12390 net.cpp:397] relu1 -> conv1 (in-place)
I0520 13:17:57.556458 12390 net.cpp:150] Setting up relu1
I0520 13:17:57.556474 12390 net.cpp:157] Top shape: 70 12 120 48 (4838400)
I0520 13:17:57.556485 12390 net.cpp:165] Memory required for data: 40486040
I0520 13:17:57.556495 12390 layer_factory.hpp:77] Creating layer pool1
I0520 13:17:57.556512 12390 net.cpp:106] Creating Layer pool1
I0520 13:17:57.556521 12390 net.cpp:454] pool1 <- conv1
I0520 13:17:57.556535 12390 net.cpp:411] pool1 -> pool1
I0520 13:17:57.556609 12390 net.cpp:150] Setting up pool1
I0520 13:17:57.556623 12390 net.cpp:157] Top shape: 70 12 60 48 (2419200)
I0520 13:17:57.556632 12390 net.cpp:165] Memory required for data: 50162840
I0520 13:17:57.556643 12390 layer_factory.hpp:77] Creating layer conv2
I0520 13:17:57.556660 12390 net.cpp:106] Creating Layer conv2
I0520 13:17:57.556670 12390 net.cpp:454] conv2 <- pool1
I0520 13:17:57.556684 12390 net.cpp:411] conv2 -> conv2
I0520 13:17:57.558593 12390 net.cpp:150] Setting up conv2
I0520 13:17:57.558614 12390 net.cpp:157] Top shape: 70 20 54 46 (3477600)
I0520 13:17:57.558627 12390 net.cpp:165] Memory required for data: 64073240
I0520 13:17:57.558645 12390 layer_factory.hpp:77] Creating layer relu2
I0520 13:17:57.558658 12390 net.cpp:106] Creating Layer relu2
I0520 13:17:57.558668 12390 net.cpp:454] relu2 <- conv2
I0520 13:17:57.558681 12390 net.cpp:397] relu2 -> conv2 (in-place)
I0520 13:17:57.559012 12390 net.cpp:150] Setting up relu2
I0520 13:17:57.559026 12390 net.cpp:157] Top shape: 70 20 54 46 (3477600)
I0520 13:17:57.559036 12390 net.cpp:165] Memory required for data: 77983640
I0520 13:17:57.559047 12390 layer_factory.hpp:77] Creating layer pool2
I0520 13:17:57.559061 12390 net.cpp:106] Creating Layer pool2
I0520 13:17:57.559070 12390 net.cpp:454] pool2 <- conv2
I0520 13:17:57.559082 12390 net.cpp:411] pool2 -> pool2
I0520 13:17:57.559154 12390 net.cpp:150] Setting up pool2
I0520 13:17:57.559168 12390 net.cpp:157] Top shape: 70 20 27 46 (1738800)
I0520 13:17:57.559178 12390 net.cpp:165] Memory required for data: 84938840
I0520 13:17:57.559188 12390 layer_factory.hpp:77] Creating layer conv3
I0520 13:17:57.559206 12390 net.cpp:106] Creating Layer conv3
I0520 13:17:57.559216 12390 net.cpp:454] conv3 <- pool2
I0520 13:17:57.559231 12390 net.cpp:411] conv3 -> conv3
I0520 13:17:57.561209 12390 net.cpp:150] Setting up conv3
I0520 13:17:57.561233 12390 net.cpp:157] Top shape: 70 28 22 44 (1897280)
I0520 13:17:57.561242 12390 net.cpp:165] Memory required for data: 92527960
I0520 13:17:57.561275 12390 layer_factory.hpp:77] Creating layer relu3
I0520 13:17:57.561288 12390 net.cpp:106] Creating Layer relu3
I0520 13:17:57.561298 12390 net.cpp:454] relu3 <- conv3
I0520 13:17:57.561311 12390 net.cpp:397] relu3 -> conv3 (in-place)
I0520 13:17:57.561784 12390 net.cpp:150] Setting up relu3
I0520 13:17:57.561800 12390 net.cpp:157] Top shape: 70 28 22 44 (1897280)
I0520 13:17:57.561810 12390 net.cpp:165] Memory required for data: 100117080
I0520 13:17:57.561820 12390 layer_factory.hpp:77] Creating layer pool3
I0520 13:17:57.561833 12390 net.cpp:106] Creating Layer pool3
I0520 13:17:57.561843 12390 net.cpp:454] pool3 <- conv3
I0520 13:17:57.561856 12390 net.cpp:411] pool3 -> pool3
I0520 13:17:57.561928 12390 net.cpp:150] Setting up pool3
I0520 13:17:57.561942 12390 net.cpp:157] Top shape: 70 28 11 44 (948640)
I0520 13:17:57.561951 12390 net.cpp:165] Memory required for data: 103911640
I0520 13:17:57.561962 12390 layer_factory.hpp:77] Creating layer conv4
I0520 13:17:57.561978 12390 net.cpp:106] Creating Layer conv4
I0520 13:17:57.561988 12390 net.cpp:454] conv4 <- pool3
I0520 13:17:57.562003 12390 net.cpp:411] conv4 -> conv4
I0520 13:17:57.564069 12390 net.cpp:150] Setting up conv4
I0520 13:17:57.564090 12390 net.cpp:157] Top shape: 70 36 6 42 (635040)
I0520 13:17:57.564105 12390 net.cpp:165] Memory required for data: 106451800
I0520 13:17:57.564119 12390 layer_factory.hpp:77] Creating layer relu4
I0520 13:17:57.564133 12390 net.cpp:106] Creating Layer relu4
I0520 13:17:57.564143 12390 net.cpp:454] relu4 <- conv4
I0520 13:17:57.564155 12390 net.cpp:397] relu4 -> conv4 (in-place)
I0520 13:17:57.564630 12390 net.cpp:150] Setting up relu4
I0520 13:17:57.564646 12390 net.cpp:157] Top shape: 70 36 6 42 (635040)
I0520 13:17:57.564656 12390 net.cpp:165] Memory required for data: 108991960
I0520 13:17:57.564666 12390 layer_factory.hpp:77] Creating layer pool4
I0520 13:17:57.564679 12390 net.cpp:106] Creating Layer pool4
I0520 13:17:57.564689 12390 net.cpp:454] pool4 <- conv4
I0520 13:17:57.564703 12390 net.cpp:411] pool4 -> pool4
I0520 13:17:57.564774 12390 net.cpp:150] Setting up pool4
I0520 13:17:57.564787 12390 net.cpp:157] Top shape: 70 36 3 42 (317520)
I0520 13:17:57.564797 12390 net.cpp:165] Memory required for data: 110262040
I0520 13:17:57.564807 12390 layer_factory.hpp:77] Creating layer ip1
I0520 13:17:57.564823 12390 net.cpp:106] Creating Layer ip1
I0520 13:17:57.564834 12390 net.cpp:454] ip1 <- pool4
I0520 13:17:57.564846 12390 net.cpp:411] ip1 -> ip1
I0520 13:17:57.580387 12390 net.cpp:150] Setting up ip1
I0520 13:17:57.580415 12390 net.cpp:157] Top shape: 70 196 (13720)
I0520 13:17:57.580433 12390 net.cpp:165] Memory required for data: 110316920
I0520 13:17:57.580454 12390 layer_factory.hpp:77] Creating layer relu5
I0520 13:17:57.580471 12390 net.cpp:106] Creating Layer relu5
I0520 13:17:57.580481 12390 net.cpp:454] relu5 <- ip1
I0520 13:17:57.580494 12390 net.cpp:397] relu5 -> ip1 (in-place)
I0520 13:17:57.580839 12390 net.cpp:150] Setting up relu5
I0520 13:17:57.580853 12390 net.cpp:157] Top shape: 70 196 (13720)
I0520 13:17:57.580863 12390 net.cpp:165] Memory required for data: 110371800
I0520 13:17:57.580873 12390 layer_factory.hpp:77] Creating layer drop1
I0520 13:17:57.580893 12390 net.cpp:106] Creating Layer drop1
I0520 13:17:57.580902 12390 net.cpp:454] drop1 <- ip1
I0520 13:17:57.580915 12390 net.cpp:397] drop1 -> ip1 (in-place)
I0520 13:17:57.580963 12390 net.cpp:150] Setting up drop1
I0520 13:17:57.580976 12390 net.cpp:157] Top shape: 70 196 (13720)
I0520 13:17:57.580986 12390 net.cpp:165] Memory required for data: 110426680
I0520 13:17:57.580996 12390 layer_factory.hpp:77] Creating layer ip2
I0520 13:17:57.581012 12390 net.cpp:106] Creating Layer ip2
I0520 13:17:57.581022 12390 net.cpp:454] ip2 <- ip1
I0520 13:17:57.581034 12390 net.cpp:411] ip2 -> ip2
I0520 13:17:57.581513 12390 net.cpp:150] Setting up ip2
I0520 13:17:57.581526 12390 net.cpp:157] Top shape: 70 98 (6860)
I0520 13:17:57.581537 12390 net.cpp:165] Memory required for data: 110454120
I0520 13:17:57.581552 12390 layer_factory.hpp:77] Creating layer relu6
I0520 13:17:57.581578 12390 net.cpp:106] Creating Layer relu6
I0520 13:17:57.581586 12390 net.cpp:454] relu6 <- ip2
I0520 13:17:57.581599 12390 net.cpp:397] relu6 -> ip2 (in-place)
I0520 13:17:57.582129 12390 net.cpp:150] Setting up relu6
I0520 13:17:57.582145 12390 net.cpp:157] Top shape: 70 98 (6860)
I0520 13:17:57.582159 12390 net.cpp:165] Memory required for data: 110481560
I0520 13:17:57.582170 12390 layer_factory.hpp:77] Creating layer drop2
I0520 13:17:57.582182 12390 net.cpp:106] Creating Layer drop2
I0520 13:17:57.582192 12390 net.cpp:454] drop2 <- ip2
I0520 13:17:57.582206 12390 net.cpp:397] drop2 -> ip2 (in-place)
I0520 13:17:57.582250 12390 net.cpp:150] Setting up drop2
I0520 13:17:57.582263 12390 net.cpp:157] Top shape: 70 98 (6860)
I0520 13:17:57.582273 12390 net.cpp:165] Memory required for data: 110509000
I0520 13:17:57.582283 12390 layer_factory.hpp:77] Creating layer ip3
I0520 13:17:57.582298 12390 net.cpp:106] Creating Layer ip3
I0520 13:17:57.582307 12390 net.cpp:454] ip3 <- ip2
I0520 13:17:57.582321 12390 net.cpp:411] ip3 -> ip3
I0520 13:17:57.582545 12390 net.cpp:150] Setting up ip3
I0520 13:17:57.582557 12390 net.cpp:157] Top shape: 70 11 (770)
I0520 13:17:57.582567 12390 net.cpp:165] Memory required for data: 110512080
I0520 13:17:57.582582 12390 layer_factory.hpp:77] Creating layer drop3
I0520 13:17:57.582597 12390 net.cpp:106] Creating Layer drop3
I0520 13:17:57.582605 12390 net.cpp:454] drop3 <- ip3
I0520 13:17:57.582618 12390 net.cpp:397] drop3 -> ip3 (in-place)
I0520 13:17:57.582660 12390 net.cpp:150] Setting up drop3
I0520 13:17:57.582674 12390 net.cpp:157] Top shape: 70 11 (770)
I0520 13:17:57.582682 12390 net.cpp:165] Memory required for data: 110515160
I0520 13:17:57.582692 12390 layer_factory.hpp:77] Creating layer ip3_drop3_0_split
I0520 13:17:57.582705 12390 net.cpp:106] Creating Layer ip3_drop3_0_split
I0520 13:17:57.582715 12390 net.cpp:454] ip3_drop3_0_split <- ip3
I0520 13:17:57.582728 12390 net.cpp:411] ip3_drop3_0_split -> ip3_drop3_0_split_0
I0520 13:17:57.582743 12390 net.cpp:411] ip3_drop3_0_split -> ip3_drop3_0_split_1
I0520 13:17:57.582818 12390 net.cpp:150] Setting up ip3_drop3_0_split
I0520 13:17:57.582830 12390 net.cpp:157] Top shape: 70 11 (770)
I0520 13:17:57.582844 12390 net.cpp:157] Top shape: 70 11 (770)
I0520 13:17:57.582854 12390 net.cpp:165] Memory required for data: 110521320
I0520 13:17:57.582864 12390 layer_factory.hpp:77] Creating layer accuracy
I0520 13:17:57.582885 12390 net.cpp:106] Creating Layer accuracy
I0520 13:17:57.582895 12390 net.cpp:454] accuracy <- ip3_drop3_0_split_0
I0520 13:17:57.582906 12390 net.cpp:454] accuracy <- label_data_hdf5_1_split_0
I0520 13:17:57.582921 12390 net.cpp:411] accuracy -> accuracy
…
