…
I0520 23:36:43.554267  1727 net.cpp:322] The NetState phase (0) differed from the phase (1) specified by a rule in layer data_hdf5
I0520 23:36:43.554327  1727 net.cpp:322] The NetState phase (0) differed from the phase (1) specified by a rule in layer accuracy
I0520 23:36:43.554675  1727 net.cpp:49] Initializing net from parameters: 
name: "caffe_test_127x50_x_unshifted"
state {
  phase: TRAIN
}
layer {
  name: "data_hdf5"
  type: "HDF5Data"
  top: "data"
  top: "label"
  include {
    phase: TRAIN
  }
  hdf5_data_param {
    source: "/lustre/atlas/proj-shared/hep105/caffe_titan/minosmatch_nukecczdefs_127x50_x_unshifted_me1Bmc.trainlist"
    batch_size: 430
  }
}
layer {
  name: "conv1"
  type: "Convolution"
  bottom: "data"
  top: "conv1"
  convolution_param {
    num_output: 12
    pad: 0
    stride: 1
    weight_filler {
      type: "xavier"
    }
    bias_filler {
      type: "constant"
    }
    kernel_h: 8
    kernel_w: 3
  }
}
layer {
  name: "relu1"
  type: "ReLU"
  bottom: "conv1"
  top: "conv1"
}
layer {
  name: "pool1"
  type: "Pooling"
  bottom: "conv1"
  top: "pool1"
  pooling_param {
    pool: MAX
    kernel_h: 2
    kernel_w: 1
    stride_h: 2
    stride_w: 1
  }
}
layer {
  name: "conv2"
  type: "Convolution"
  bottom: "pool1"
  top: "conv2"
  convolution_param {
    num_output: 20
    pad: 0
    stride: 1
    weight_filler {
      type: "xavier"
    }
    bias_filler {
      type: "constant"
    }
    kernel_h: 7
    kernel_w: 3
  }
}
layer {
  name: "relu2"
  type: "ReLU"
  bottom: "conv2"
  top: "conv2"
}
layer {
  name: "pool2"
  type: "Pooling"
  bottom: "conv2"
  top: "pool2"
  pooling_param {
    pool: MAX
    kernel_h: 2
    kernel_w: 1
    stride_h: 2
    stride_w: 1
  }
}
layer {
  name: "conv3"
  type: "Convolution"
  bottom: "pool2"
  top: "conv3"
  convolution_param {
    num_output: 28
    pad: 0
    stride: 1
    weight_filler {
      type: "xavier"
    }
    bias_filler {
      type: "constant"
    }
    kernel_h: 6
    kernel_w: 3
  }
}
layer {
  name: "relu3"
  type: "ReLU"
  bottom: "conv3"
  top: "conv3"
}
layer {
  name: "pool3"
  type: "Pooling"
  bottom: "conv3"
  top: "pool3"
  pooling_param {
    pool: MAX
    kernel_h: 2
    kernel_w: 1
    stride_h: 2
    stride_w: 1
  }
}
layer {
  name: "conv4"
  type: "Convolution"
  bottom: "pool3"
  top: "conv4"
  convolution_param {
    num_output: 36
    pad: 0
    stride: 1
    weight_filler {
      type: "xavier"
    }
    bias_filler {
      type: "constant"
    }
    kernel_h: 6
    kernel_w: 3
  }
}
layer {
  name: "relu4"
  type: "ReLU"
  bottom: "conv4"
  top: "conv4"
}
layer {
  name: "pool4"
  type: "Pooling"
  bottom: "conv4"
  top: "pool4"
  pooling_param {
    pool: MAX
    kernel_h: 2
    kernel_w: 1
    stride_h: 2
    stride_w: 1
  }
}
layer {
  name: "ip1"
  type: "InnerProduct"
  bottom: "pool4"
  top: "ip1"
  inner_product_param {
    num_output: 196
    weight_filler {
      type: "xavier"
    }
    bias_filler {
      type: "constant"
    }
  }
}
layer {
  name: "relu5"
  type: "ReLU"
  bottom: "ip1"
  top: "ip1"
}
layer {
  name: "drop1"
  type: "Dropout"
  bottom: "ip1"
  top: "ip1"
  dropout_param {
    dropout_ratio: 0.5
  }
}
layer {
  name: "ip2"
  type: "InnerProduct"
  bottom: "ip1"
  top: "ip2"
  inner_product_param {
    num_output: 98
    weight_filler {
      type: "xavier"
    }
    bias_filler {
      type: "constant"
    }
  }
}
layer {
  name: "relu6"
  type: "ReLU"
  bottom: "ip2"
  top: "ip2"
}
layer {
  name: "drop2"
  type: "Dropout"
  bottom: "ip2"
  top: "ip2"
  dropout_param {
    dropout_ratio: 0.5
  }
}
layer {
  name: "ip3"
  type: "InnerProduct"
  bottom: "ip2"
  top: "ip3"
  inner_product_param {
    num_output: 11
    weight_filler {
      type: "xavier"
    }
    bias_filler {
      type: "constant"
    }
  }
}
layer {
  name: "drop3"
  type: "Dropout"
  bottom: "ip3"
  top: "ip3"
  dropout_param {
    dropout_ratio: 0.5
  }
}
layer {
  name: "loss"
  type: "SoftmaxWithLoss"
  bottom: "ip3"
  bottom: "label"
  top: "loss"
}
I0520 23:36:43.554853  1727 layer_factory.hpp:77] Creating layer data_hdf5
I0520 23:36:43.554877  1727 net.cpp:106] Creating Layer data_hdf5
I0520 23:36:43.554891  1727 net.cpp:411] data_hdf5 -> data
I0520 23:36:43.554925  1727 net.cpp:411] data_hdf5 -> label
I0520 23:36:43.554960  1727 hdf5_data_layer.cpp:79] Loading list of HDF5 filenames from: /lustre/atlas/proj-shared/hep105/caffe_titan/minosmatch_nukecczdefs_127x50_x_unshifted_me1Bmc.trainlist
I0520 23:36:43.584698  1727 hdf5_data_layer.cpp:93] Number of HDF5 files: 15
I0520 23:36:43.613198  1727 hdf5.cpp:32] Datatype class: H5T_FLOAT
I0520 23:37:05.111857  1727 hdf5.cpp:35] Datatype class: H5T_INTEGER
I0520 23:37:06.152571  1727 net.cpp:150] Setting up data_hdf5
I0520 23:37:06.152613  1727 net.cpp:157] Top shape: 430 1 127 50 (2730500)
I0520 23:37:06.152628  1727 net.cpp:157] Top shape: 430 (430)
I0520 23:37:06.152642  1727 net.cpp:165] Memory required for data: 10923720
I0520 23:37:06.152655  1727 layer_factory.hpp:77] Creating layer conv1
I0520 23:37:06.152689  1727 net.cpp:106] Creating Layer conv1
I0520 23:37:06.152701  1727 net.cpp:454] conv1 <- data
I0520 23:37:06.152722  1727 net.cpp:411] conv1 -> conv1
I0520 23:37:06.515064  1727 net.cpp:150] Setting up conv1
I0520 23:37:06.515105  1727 net.cpp:157] Top shape: 430 12 120 48 (29721600)
I0520 23:37:06.515116  1727 net.cpp:165] Memory required for data: 129810120
I0520 23:37:06.515144  1727 layer_factory.hpp:77] Creating layer relu1
I0520 23:37:06.515166  1727 net.cpp:106] Creating Layer relu1
I0520 23:37:06.515177  1727 net.cpp:454] relu1 <- conv1
I0520 23:37:06.515190  1727 net.cpp:397] relu1 -> conv1 (in-place)
I0520 23:37:06.515705  1727 net.cpp:150] Setting up relu1
I0520 23:37:06.515722  1727 net.cpp:157] Top shape: 430 12 120 48 (29721600)
I0520 23:37:06.515733  1727 net.cpp:165] Memory required for data: 248696520
I0520 23:37:06.515743  1727 layer_factory.hpp:77] Creating layer pool1
I0520 23:37:06.515758  1727 net.cpp:106] Creating Layer pool1
I0520 23:37:06.515769  1727 net.cpp:454] pool1 <- conv1
I0520 23:37:06.515781  1727 net.cpp:411] pool1 -> pool1
I0520 23:37:06.515861  1727 net.cpp:150] Setting up pool1
I0520 23:37:06.515875  1727 net.cpp:157] Top shape: 430 12 60 48 (14860800)
I0520 23:37:06.515885  1727 net.cpp:165] Memory required for data: 308139720
I0520 23:37:06.515895  1727 layer_factory.hpp:77] Creating layer conv2
I0520 23:37:06.515918  1727 net.cpp:106] Creating Layer conv2
I0520 23:37:06.515928  1727 net.cpp:454] conv2 <- pool1
I0520 23:37:06.515941  1727 net.cpp:411] conv2 -> conv2
I0520 23:37:06.518661  1727 net.cpp:150] Setting up conv2
I0520 23:37:06.518689  1727 net.cpp:157] Top shape: 430 20 54 46 (21362400)
I0520 23:37:06.518700  1727 net.cpp:165] Memory required for data: 393589320
I0520 23:37:06.518719  1727 layer_factory.hpp:77] Creating layer relu2
I0520 23:37:06.518734  1727 net.cpp:106] Creating Layer relu2
I0520 23:37:06.518744  1727 net.cpp:454] relu2 <- conv2
I0520 23:37:06.518759  1727 net.cpp:397] relu2 -> conv2 (in-place)
I0520 23:37:06.519091  1727 net.cpp:150] Setting up relu2
I0520 23:37:06.519105  1727 net.cpp:157] Top shape: 430 20 54 46 (21362400)
I0520 23:37:06.519115  1727 net.cpp:165] Memory required for data: 479038920
I0520 23:37:06.519125  1727 layer_factory.hpp:77] Creating layer pool2
I0520 23:37:06.519137  1727 net.cpp:106] Creating Layer pool2
I0520 23:37:06.519148  1727 net.cpp:454] pool2 <- conv2
I0520 23:37:06.519172  1727 net.cpp:411] pool2 -> pool2
I0520 23:37:06.519243  1727 net.cpp:150] Setting up pool2
I0520 23:37:06.519255  1727 net.cpp:157] Top shape: 430 20 27 46 (10681200)
I0520 23:37:06.519265  1727 net.cpp:165] Memory required for data: 521763720
I0520 23:37:06.519275  1727 layer_factory.hpp:77] Creating layer conv3
I0520 23:37:06.519294  1727 net.cpp:106] Creating Layer conv3
I0520 23:37:06.519304  1727 net.cpp:454] conv3 <- pool2
I0520 23:37:06.519316  1727 net.cpp:411] conv3 -> conv3
I0520 23:37:06.521248  1727 net.cpp:150] Setting up conv3
I0520 23:37:06.521271  1727 net.cpp:157] Top shape: 430 28 22 44 (11654720)
I0520 23:37:06.521284  1727 net.cpp:165] Memory required for data: 568382600
I0520 23:37:06.521302  1727 layer_factory.hpp:77] Creating layer relu3
I0520 23:37:06.521318  1727 net.cpp:106] Creating Layer relu3
I0520 23:37:06.521328  1727 net.cpp:454] relu3 <- conv3
I0520 23:37:06.521342  1727 net.cpp:397] relu3 -> conv3 (in-place)
I0520 23:37:06.521811  1727 net.cpp:150] Setting up relu3
I0520 23:37:06.521828  1727 net.cpp:157] Top shape: 430 28 22 44 (11654720)
I0520 23:37:06.521839  1727 net.cpp:165] Memory required for data: 615001480
I0520 23:37:06.521849  1727 layer_factory.hpp:77] Creating layer pool3
I0520 23:37:06.521862  1727 net.cpp:106] Creating Layer pool3
I0520 23:37:06.521872  1727 net.cpp:454] pool3 <- conv3
I0520 23:37:06.521885  1727 net.cpp:411] pool3 -> pool3
I0520 23:37:06.521952  1727 net.cpp:150] Setting up pool3
I0520 23:37:06.521965  1727 net.cpp:157] Top shape: 430 28 11 44 (5827360)
I0520 23:37:06.521975  1727 net.cpp:165] Memory required for data: 638310920
I0520 23:37:06.521984  1727 layer_factory.hpp:77] Creating layer conv4
I0520 23:37:06.522002  1727 net.cpp:106] Creating Layer conv4
I0520 23:37:06.522013  1727 net.cpp:454] conv4 <- pool3
I0520 23:37:06.522027  1727 net.cpp:411] conv4 -> conv4
I0520 23:37:06.524782  1727 net.cpp:150] Setting up conv4
I0520 23:37:06.524811  1727 net.cpp:157] Top shape: 430 36 6 42 (3900960)
I0520 23:37:06.524822  1727 net.cpp:165] Memory required for data: 653914760
I0520 23:37:06.524838  1727 layer_factory.hpp:77] Creating layer relu4
I0520 23:37:06.524852  1727 net.cpp:106] Creating Layer relu4
I0520 23:37:06.524863  1727 net.cpp:454] relu4 <- conv4
I0520 23:37:06.524875  1727 net.cpp:397] relu4 -> conv4 (in-place)
I0520 23:37:06.525358  1727 net.cpp:150] Setting up relu4
I0520 23:37:06.525374  1727 net.cpp:157] Top shape: 430 36 6 42 (3900960)
I0520 23:37:06.525385  1727 net.cpp:165] Memory required for data: 669518600
I0520 23:37:06.525395  1727 layer_factory.hpp:77] Creating layer pool4
I0520 23:37:06.525408  1727 net.cpp:106] Creating Layer pool4
I0520 23:37:06.525418  1727 net.cpp:454] pool4 <- conv4
I0520 23:37:06.525431  1727 net.cpp:411] pool4 -> pool4
I0520 23:37:06.525499  1727 net.cpp:150] Setting up pool4
I0520 23:37:06.525513  1727 net.cpp:157] Top shape: 430 36 3 42 (1950480)
I0520 23:37:06.525524  1727 net.cpp:165] Memory required for data: 677320520
I0520 23:37:06.525534  1727 layer_factory.hpp:77] Creating layer ip1
I0520 23:37:06.525552  1727 net.cpp:106] Creating Layer ip1
I0520 23:37:06.525563  1727 net.cpp:454] ip1 <- pool4
I0520 23:37:06.525576  1727 net.cpp:411] ip1 -> ip1
I0520 23:37:06.540998  1727 net.cpp:150] Setting up ip1
I0520 23:37:06.541026  1727 net.cpp:157] Top shape: 430 196 (84280)
I0520 23:37:06.541039  1727 net.cpp:165] Memory required for data: 677657640
I0520 23:37:06.541060  1727 layer_factory.hpp:77] Creating layer relu5
I0520 23:37:06.541075  1727 net.cpp:106] Creating Layer relu5
I0520 23:37:06.541085  1727 net.cpp:454] relu5 <- ip1
I0520 23:37:06.541100  1727 net.cpp:397] relu5 -> ip1 (in-place)
I0520 23:37:06.541443  1727 net.cpp:150] Setting up relu5
I0520 23:37:06.541457  1727 net.cpp:157] Top shape: 430 196 (84280)
I0520 23:37:06.541468  1727 net.cpp:165] Memory required for data: 677994760
I0520 23:37:06.541478  1727 layer_factory.hpp:77] Creating layer drop1
I0520 23:37:06.541499  1727 net.cpp:106] Creating Layer drop1
I0520 23:37:06.541509  1727 net.cpp:454] drop1 <- ip1
I0520 23:37:06.541533  1727 net.cpp:397] drop1 -> ip1 (in-place)
I0520 23:37:06.541579  1727 net.cpp:150] Setting up drop1
I0520 23:37:06.541594  1727 net.cpp:157] Top shape: 430 196 (84280)
I0520 23:37:06.541604  1727 net.cpp:165] Memory required for data: 678331880
I0520 23:37:06.541613  1727 layer_factory.hpp:77] Creating layer ip2
I0520 23:37:06.541631  1727 net.cpp:106] Creating Layer ip2
I0520 23:37:06.541641  1727 net.cpp:454] ip2 <- ip1
I0520 23:37:06.541654  1727 net.cpp:411] ip2 -> ip2
I0520 23:37:06.542117  1727 net.cpp:150] Setting up ip2
I0520 23:37:06.542131  1727 net.cpp:157] Top shape: 430 98 (42140)
I0520 23:37:06.542141  1727 net.cpp:165] Memory required for data: 678500440
I0520 23:37:06.542156  1727 layer_factory.hpp:77] Creating layer relu6
I0520 23:37:06.542168  1727 net.cpp:106] Creating Layer relu6
I0520 23:37:06.542178  1727 net.cpp:454] relu6 <- ip2
I0520 23:37:06.542189  1727 net.cpp:397] relu6 -> ip2 (in-place)
I0520 23:37:06.542711  1727 net.cpp:150] Setting up relu6
I0520 23:37:06.542727  1727 net.cpp:157] Top shape: 430 98 (42140)
I0520 23:37:06.542737  1727 net.cpp:165] Memory required for data: 678669000
I0520 23:37:06.542748  1727 layer_factory.hpp:77] Creating layer drop2
I0520 23:37:06.542762  1727 net.cpp:106] Creating Layer drop2
I0520 23:37:06.542770  1727 net.cpp:454] drop2 <- ip2
I0520 23:37:06.542783  1727 net.cpp:397] drop2 -> ip2 (in-place)
I0520 23:37:06.542824  1727 net.cpp:150] Setting up drop2
I0520 23:37:06.542839  1727 net.cpp:157] Top shape: 430 98 (42140)
I0520 23:37:06.542850  1727 net.cpp:165] Memory required for data: 678837560
I0520 23:37:06.542860  1727 layer_factory.hpp:77] Creating layer ip3
I0520 23:37:06.542872  1727 net.cpp:106] Creating Layer ip3
I0520 23:37:06.542882  1727 net.cpp:454] ip3 <- ip2
I0520 23:37:06.542894  1727 net.cpp:411] ip3 -> ip3
I0520 23:37:06.543104  1727 net.cpp:150] Setting up ip3
I0520 23:37:06.543118  1727 net.cpp:157] Top shape: 430 11 (4730)
I0520 23:37:06.543128  1727 net.cpp:165] Memory required for data: 678856480
I0520 23:37:06.543143  1727 layer_factory.hpp:77] Creating layer drop3
I0520 23:37:06.543155  1727 net.cpp:106] Creating Layer drop3
I0520 23:37:06.543164  1727 net.cpp:454] drop3 <- ip3
I0520 23:37:06.543176  1727 net.cpp:397] drop3 -> ip3 (in-place)
I0520 23:37:06.543216  1727 net.cpp:150] Setting up drop3
I0520 23:37:06.543229  1727 net.cpp:157] Top shape: 430 11 (4730)
I0520 23:37:06.543239  1727 net.cpp:165] Memory required for data: 678875400
I0520 23:37:06.543249  1727 layer_factory.hpp:77] Creating layer loss
I0520 23:37:06.543267  1727 net.cpp:106] Creating Layer loss
I0520 23:37:06.543277  1727 net.cpp:454] loss <- ip3
I0520 23:37:06.543288  1727 net.cpp:454] loss <- label
I0520 23:37:06.543301  1727 net.cpp:411] loss -> loss
I0520 23:37:06.543318  1727 layer_factory.hpp:77] Creating layer loss
…
I0520 23:37:06.584576  1727 solver.cpp:181] Creating test net (#0) specified by net file: /lustre/atlas/proj-shared/hep105/caffe_titan/caffe_workflow/logs_batch_size_test/batch_size_430_2016-05-20T11.20.48.294973.prototxt
I0520 23:37:06.584656  1727 net.cpp:322] The NetState phase (1) differed from the phase (0) specified by a rule in layer data_hdf5
I0520 23:37:06.585023  1727 net.cpp:49] Initializing net from parameters: 
name: "caffe_test_127x50_x_unshifted"
state {
  phase: TEST
}
layer {
  name: "data_hdf5"
  type: "HDF5Data"
  top: "data"
  top: "label"
  include {
    phase: TEST
  }
  hdf5_data_param {
    source: "/lustre/atlas/proj-shared/hep105/caffe_titan/minosmatch_nukecczdefs_127x50_x_unshifted_me1Bmc.testlist"
    batch_size: 430
  }
}
layer {
  name: "conv1"
  type: "Convolution"
  bottom: "data"
  top: "conv1"
  convolution_param {
    num_output: 12
    pad: 0
    stride: 1
    weight_filler {
      type: "xavier"
    }
    bias_filler {
      type: "constant"
    }
    kernel_h: 8
    kernel_w: 3
  }
}
layer {
  name: "relu1"
  type: "ReLU"
  bottom: "conv1"
  top: "conv1"
}
layer {
  name: "pool1"
  type: "Pooling"
  bottom: "conv1"
  top: "pool1"
  pooling_param {
    pool: MAX
    kernel_h: 2
    kernel_w: 1
    stride_h: 2
    stride_w: 1
  }
}
layer {
  name: "conv2"
  type: "Convolution"
  bottom: "pool1"
  top: "conv2"
  convolution_param {
    num_output: 20
    pad: 0
    stride: 1
    weight_filler {
      type: "xavier"
    }
    bias_filler {
      type: "constant"
    }
    kernel_h: 7
    kernel_w: 3
  }
}
layer {
  name: "relu2"
  type: "ReLU"
  bottom: "conv2"
  top: "conv2"
}
layer {
  name: "pool2"
  type: "Pooling"
  bottom: "conv2"
  top: "pool2"
  pooling_param {
    pool: MAX
    kernel_h: 2
    kernel_w: 1
    stride_h: 2
    stride_w: 1
  }
}
layer {
  name: "conv3"
  type: "Convolution"
  bottom: "pool2"
  top: "conv3"
  convolution_param {
    num_output: 28
    pad: 0
    stride: 1
    weight_filler {
      type: "xavier"
    }
    bias_filler {
      type: "constant"
    }
    kernel_h: 6
    kernel_w: 3
  }
}
layer {
  name: "relu3"
  type: "ReLU"
  bottom: "conv3"
  top: "conv3"
}
layer {
  name: "pool3"
  type: "Pooling"
  bottom: "conv3"
  top: "pool3"
  pooling_param {
    pool: MAX
    kernel_h: 2
    kernel_w: 1
    stride_h: 2
    stride_w: 1
  }
}
layer {
  name: "conv4"
  type: "Convolution"
  bottom: "pool3"
  top: "conv4"
  convolution_param {
    num_output: 36
    pad: 0
    stride: 1
    weight_filler {
      type: "xavier"
    }
    bias_filler {
      type: "constant"
    }
    kernel_h: 6
    kernel_w: 3
  }
}
layer {
  name: "relu4"
  type: "ReLU"
  bottom: "conv4"
  top: "conv4"
}
layer {
  name: "pool4"
  type: "Pooling"
  bottom: "conv4"
  top: "pool4"
  pooling_param {
    pool: MAX
    kernel_h: 2
    kernel_w: 1
    stride_h: 2
    stride_w: 1
  }
}
layer {
  name: "ip1"
  type: "InnerProduct"
  bottom: "pool4"
  top: "ip1"
  inner_product_param {
    num_output: 196
    weight_filler {
      type: "xavier"
    }
    bias_filler {
      type: "constant"
    }
  }
}
layer {
  name: "relu5"
  type: "ReLU"
  bottom: "ip1"
  top: "ip1"
}
layer {
  name: "drop1"
  type: "Dropout"
  bottom: "ip1"
  top: "ip1"
  dropout_param {
    dropout_ratio: 0.5
  }
}
layer {
  name: "ip2"
  type: "InnerProduct"
  bottom: "ip1"
  top: "ip2"
  inner_product_param {
    num_output: 98
    weight_filler {
      type: "xavier"
    }
    bias_filler {
      type: "constant"
    }
  }
}
layer {
  name: "relu6"
  type: "ReLU"
  bottom: "ip2"
  top: "ip2"
}
layer {
  name: "drop2"
  type: "Dropout"
  bottom: "ip2"
  top: "ip2"
  dropout_param {
    dropout_ratio: 0.5
  }
}
layer {
  name: "ip3"
  type: "InnerProduct"
  bottom: "ip2"
  top: "ip3"
  inner_product_param {
    num_output: 11
    weight_filler {
      type: "xavier"
    }
    bias_filler {
      type: "constant"
    }
  }
}
layer {
  name: "drop3"
  type: "Dropout"
  bottom: "ip3"
  top: "ip3"
  dropout_param {
    dropout_ratio: 0.5
  }
}
layer {
  name: "accuracy"
  type: "Accuracy"
  bottom: "ip3"
  bottom: "label"
  top: "accuracy"
  include {
    phase: TEST
  }
}
layer {
  name: "loss"
  type: "SoftmaxWithLoss"
  bottom: "ip3"
  bottom: "label"
  top: "loss"
}
I0520 23:37:06.585218  1727 layer_factory.hpp:77] Creating layer data_hdf5
I0520 23:37:06.585233  1727 net.cpp:106] Creating Layer data_hdf5
I0520 23:37:06.585249  1727 net.cpp:411] data_hdf5 -> data
I0520 23:37:06.585268  1727 net.cpp:411] data_hdf5 -> label
I0520 23:37:06.585283  1727 hdf5_data_layer.cpp:79] Loading list of HDF5 filenames from: /lustre/atlas/proj-shared/hep105/caffe_titan/minosmatch_nukecczdefs_127x50_x_unshifted_me1Bmc.testlist
I0520 23:37:06.619602  1727 hdf5_data_layer.cpp:93] Number of HDF5 files: 3
I0520 23:37:27.949187  1727 net.cpp:150] Setting up data_hdf5
I0520 23:37:27.949347  1727 net.cpp:157] Top shape: 430 1 127 50 (2730500)
I0520 23:37:27.949362  1727 net.cpp:157] Top shape: 430 (430)
I0520 23:37:27.949374  1727 net.cpp:165] Memory required for data: 10923720
I0520 23:37:27.949388  1727 layer_factory.hpp:77] Creating layer label_data_hdf5_1_split
I0520 23:37:27.949416  1727 net.cpp:106] Creating Layer label_data_hdf5_1_split
I0520 23:37:27.949427  1727 net.cpp:454] label_data_hdf5_1_split <- label
I0520 23:37:27.949442  1727 net.cpp:411] label_data_hdf5_1_split -> label_data_hdf5_1_split_0
I0520 23:37:27.949465  1727 net.cpp:411] label_data_hdf5_1_split -> label_data_hdf5_1_split_1
I0520 23:37:27.949537  1727 net.cpp:150] Setting up label_data_hdf5_1_split
I0520 23:37:27.949551  1727 net.cpp:157] Top shape: 430 (430)
I0520 23:37:27.949563  1727 net.cpp:157] Top shape: 430 (430)
I0520 23:37:27.949573  1727 net.cpp:165] Memory required for data: 10927160
I0520 23:37:27.949582  1727 layer_factory.hpp:77] Creating layer conv1
I0520 23:37:27.949604  1727 net.cpp:106] Creating Layer conv1
I0520 23:37:27.949615  1727 net.cpp:454] conv1 <- data
I0520 23:37:27.949630  1727 net.cpp:411] conv1 -> conv1
I0520 23:37:27.951539  1727 net.cpp:150] Setting up conv1
I0520 23:37:27.951562  1727 net.cpp:157] Top shape: 430 12 120 48 (29721600)
I0520 23:37:27.951575  1727 net.cpp:165] Memory required for data: 129813560
I0520 23:37:27.951596  1727 layer_factory.hpp:77] Creating layer relu1
I0520 23:37:27.951611  1727 net.cpp:106] Creating Layer relu1
I0520 23:37:27.951620  1727 net.cpp:454] relu1 <- conv1
I0520 23:37:27.951633  1727 net.cpp:397] relu1 -> conv1 (in-place)
I0520 23:37:27.952131  1727 net.cpp:150] Setting up relu1
I0520 23:37:27.952147  1727 net.cpp:157] Top shape: 430 12 120 48 (29721600)
I0520 23:37:27.952157  1727 net.cpp:165] Memory required for data: 248699960
I0520 23:37:27.952168  1727 layer_factory.hpp:77] Creating layer pool1
I0520 23:37:27.952184  1727 net.cpp:106] Creating Layer pool1
I0520 23:37:27.952194  1727 net.cpp:454] pool1 <- conv1
I0520 23:37:27.952208  1727 net.cpp:411] pool1 -> pool1
I0520 23:37:27.952282  1727 net.cpp:150] Setting up pool1
I0520 23:37:27.952296  1727 net.cpp:157] Top shape: 430 12 60 48 (14860800)
I0520 23:37:27.952306  1727 net.cpp:165] Memory required for data: 308143160
I0520 23:37:27.952316  1727 layer_factory.hpp:77] Creating layer conv2
I0520 23:37:27.952334  1727 net.cpp:106] Creating Layer conv2
I0520 23:37:27.952344  1727 net.cpp:454] conv2 <- pool1
I0520 23:37:27.952358  1727 net.cpp:411] conv2 -> conv2
I0520 23:37:27.954282  1727 net.cpp:150] Setting up conv2
I0520 23:37:27.954303  1727 net.cpp:157] Top shape: 430 20 54 46 (21362400)
I0520 23:37:27.954316  1727 net.cpp:165] Memory required for data: 393592760
I0520 23:37:27.954334  1727 layer_factory.hpp:77] Creating layer relu2
I0520 23:37:27.954347  1727 net.cpp:106] Creating Layer relu2
I0520 23:37:27.954357  1727 net.cpp:454] relu2 <- conv2
I0520 23:37:27.954370  1727 net.cpp:397] relu2 -> conv2 (in-place)
I0520 23:37:27.954704  1727 net.cpp:150] Setting up relu2
I0520 23:37:27.954717  1727 net.cpp:157] Top shape: 430 20 54 46 (21362400)
I0520 23:37:27.954727  1727 net.cpp:165] Memory required for data: 479042360
I0520 23:37:27.954737  1727 layer_factory.hpp:77] Creating layer pool2
I0520 23:37:27.954751  1727 net.cpp:106] Creating Layer pool2
I0520 23:37:27.954761  1727 net.cpp:454] pool2 <- conv2
I0520 23:37:27.954773  1727 net.cpp:411] pool2 -> pool2
I0520 23:37:27.954845  1727 net.cpp:150] Setting up pool2
I0520 23:37:27.954859  1727 net.cpp:157] Top shape: 430 20 27 46 (10681200)
I0520 23:37:27.954869  1727 net.cpp:165] Memory required for data: 521767160
I0520 23:37:27.954879  1727 layer_factory.hpp:77] Creating layer conv3
I0520 23:37:27.954895  1727 net.cpp:106] Creating Layer conv3
I0520 23:37:27.954907  1727 net.cpp:454] conv3 <- pool2
I0520 23:37:27.954921  1727 net.cpp:411] conv3 -> conv3
I0520 23:37:27.956882  1727 net.cpp:150] Setting up conv3
I0520 23:37:27.956905  1727 net.cpp:157] Top shape: 430 28 22 44 (11654720)
I0520 23:37:27.956918  1727 net.cpp:165] Memory required for data: 568386040
I0520 23:37:27.956950  1727 layer_factory.hpp:77] Creating layer relu3
I0520 23:37:27.956971  1727 net.cpp:106] Creating Layer relu3
I0520 23:37:27.956981  1727 net.cpp:454] relu3 <- conv3
I0520 23:37:27.956995  1727 net.cpp:397] relu3 -> conv3 (in-place)
I0520 23:37:27.957468  1727 net.cpp:150] Setting up relu3
I0520 23:37:27.957484  1727 net.cpp:157] Top shape: 430 28 22 44 (11654720)
I0520 23:37:27.957494  1727 net.cpp:165] Memory required for data: 615004920
I0520 23:37:27.957504  1727 layer_factory.hpp:77] Creating layer pool3
I0520 23:37:27.957517  1727 net.cpp:106] Creating Layer pool3
I0520 23:37:27.957526  1727 net.cpp:454] pool3 <- conv3
I0520 23:37:27.957540  1727 net.cpp:411] pool3 -> pool3
I0520 23:37:27.957610  1727 net.cpp:150] Setting up pool3
I0520 23:37:27.957623  1727 net.cpp:157] Top shape: 430 28 11 44 (5827360)
I0520 23:37:27.957633  1727 net.cpp:165] Memory required for data: 638314360
I0520 23:37:27.957643  1727 layer_factory.hpp:77] Creating layer conv4
I0520 23:37:27.957661  1727 net.cpp:106] Creating Layer conv4
I0520 23:37:27.957671  1727 net.cpp:454] conv4 <- pool3
I0520 23:37:27.957685  1727 net.cpp:411] conv4 -> conv4
I0520 23:37:27.959736  1727 net.cpp:150] Setting up conv4
I0520 23:37:27.959758  1727 net.cpp:157] Top shape: 430 36 6 42 (3900960)
I0520 23:37:27.959771  1727 net.cpp:165] Memory required for data: 653918200
I0520 23:37:27.959786  1727 layer_factory.hpp:77] Creating layer relu4
I0520 23:37:27.959800  1727 net.cpp:106] Creating Layer relu4
I0520 23:37:27.959810  1727 net.cpp:454] relu4 <- conv4
I0520 23:37:27.959822  1727 net.cpp:397] relu4 -> conv4 (in-place)
I0520 23:37:27.960290  1727 net.cpp:150] Setting up relu4
I0520 23:37:27.960306  1727 net.cpp:157] Top shape: 430 36 6 42 (3900960)
I0520 23:37:27.960315  1727 net.cpp:165] Memory required for data: 669522040
I0520 23:37:27.960325  1727 layer_factory.hpp:77] Creating layer pool4
I0520 23:37:27.960338  1727 net.cpp:106] Creating Layer pool4
I0520 23:37:27.960348  1727 net.cpp:454] pool4 <- conv4
I0520 23:37:27.960362  1727 net.cpp:411] pool4 -> pool4
I0520 23:37:27.960433  1727 net.cpp:150] Setting up pool4
I0520 23:37:27.960446  1727 net.cpp:157] Top shape: 430 36 3 42 (1950480)
I0520 23:37:27.960456  1727 net.cpp:165] Memory required for data: 677323960
I0520 23:37:27.960466  1727 layer_factory.hpp:77] Creating layer ip1
I0520 23:37:27.960482  1727 net.cpp:106] Creating Layer ip1
I0520 23:37:27.960492  1727 net.cpp:454] ip1 <- pool4
I0520 23:37:27.960506  1727 net.cpp:411] ip1 -> ip1
I0520 23:37:27.976001  1727 net.cpp:150] Setting up ip1
I0520 23:37:27.976028  1727 net.cpp:157] Top shape: 430 196 (84280)
I0520 23:37:27.976045  1727 net.cpp:165] Memory required for data: 677661080
I0520 23:37:27.976073  1727 layer_factory.hpp:77] Creating layer relu5
I0520 23:37:27.976088  1727 net.cpp:106] Creating Layer relu5
I0520 23:37:27.976097  1727 net.cpp:454] relu5 <- ip1
I0520 23:37:27.976110  1727 net.cpp:397] relu5 -> ip1 (in-place)
I0520 23:37:27.976456  1727 net.cpp:150] Setting up relu5
I0520 23:37:27.976470  1727 net.cpp:157] Top shape: 430 196 (84280)
I0520 23:37:27.976480  1727 net.cpp:165] Memory required for data: 677998200
I0520 23:37:27.976490  1727 layer_factory.hpp:77] Creating layer drop1
I0520 23:37:27.976510  1727 net.cpp:106] Creating Layer drop1
I0520 23:37:27.976519  1727 net.cpp:454] drop1 <- ip1
I0520 23:37:27.976532  1727 net.cpp:397] drop1 -> ip1 (in-place)
I0520 23:37:27.976577  1727 net.cpp:150] Setting up drop1
I0520 23:37:27.976588  1727 net.cpp:157] Top shape: 430 196 (84280)
I0520 23:37:27.976599  1727 net.cpp:165] Memory required for data: 678335320
I0520 23:37:27.976609  1727 layer_factory.hpp:77] Creating layer ip2
I0520 23:37:27.976624  1727 net.cpp:106] Creating Layer ip2
I0520 23:37:27.976634  1727 net.cpp:454] ip2 <- ip1
I0520 23:37:27.976646  1727 net.cpp:411] ip2 -> ip2
I0520 23:37:27.977133  1727 net.cpp:150] Setting up ip2
I0520 23:37:27.977146  1727 net.cpp:157] Top shape: 430 98 (42140)
I0520 23:37:27.977156  1727 net.cpp:165] Memory required for data: 678503880
I0520 23:37:27.977185  1727 layer_factory.hpp:77] Creating layer relu6
I0520 23:37:27.977197  1727 net.cpp:106] Creating Layer relu6
I0520 23:37:27.977207  1727 net.cpp:454] relu6 <- ip2
I0520 23:37:27.977219  1727 net.cpp:397] relu6 -> ip2 (in-place)
I0520 23:37:27.977753  1727 net.cpp:150] Setting up relu6
I0520 23:37:27.977776  1727 net.cpp:157] Top shape: 430 98 (42140)
I0520 23:37:27.977785  1727 net.cpp:165] Memory required for data: 678672440
I0520 23:37:27.977795  1727 layer_factory.hpp:77] Creating layer drop2
I0520 23:37:27.977810  1727 net.cpp:106] Creating Layer drop2
I0520 23:37:27.977820  1727 net.cpp:454] drop2 <- ip2
I0520 23:37:27.977833  1727 net.cpp:397] drop2 -> ip2 (in-place)
I0520 23:37:27.977876  1727 net.cpp:150] Setting up drop2
I0520 23:37:27.977890  1727 net.cpp:157] Top shape: 430 98 (42140)
I0520 23:37:27.977898  1727 net.cpp:165] Memory required for data: 678841000
I0520 23:37:27.977908  1727 layer_factory.hpp:77] Creating layer ip3
I0520 23:37:27.977922  1727 net.cpp:106] Creating Layer ip3
I0520 23:37:27.977932  1727 net.cpp:454] ip3 <- ip2
I0520 23:37:27.977946  1727 net.cpp:411] ip3 -> ip3
I0520 23:37:27.978168  1727 net.cpp:150] Setting up ip3
I0520 23:37:27.978181  1727 net.cpp:157] Top shape: 430 11 (4730)
I0520 23:37:27.978191  1727 net.cpp:165] Memory required for data: 678859920
I0520 23:37:27.978206  1727 layer_factory.hpp:77] Creating layer drop3
I0520 23:37:27.978219  1727 net.cpp:106] Creating Layer drop3
I0520 23:37:27.978229  1727 net.cpp:454] drop3 <- ip3
I0520 23:37:27.978242  1727 net.cpp:397] drop3 -> ip3 (in-place)
I0520 23:37:27.978283  1727 net.cpp:150] Setting up drop3
I0520 23:37:27.978296  1727 net.cpp:157] Top shape: 430 11 (4730)
I0520 23:37:27.978305  1727 net.cpp:165] Memory required for data: 678878840
I0520 23:37:27.978315  1727 layer_factory.hpp:77] Creating layer ip3_drop3_0_split
I0520 23:37:27.978327  1727 net.cpp:106] Creating Layer ip3_drop3_0_split
I0520 23:37:27.978338  1727 net.cpp:454] ip3_drop3_0_split <- ip3
I0520 23:37:27.978350  1727 net.cpp:411] ip3_drop3_0_split -> ip3_drop3_0_split_0
I0520 23:37:27.978366  1727 net.cpp:411] ip3_drop3_0_split -> ip3_drop3_0_split_1
I0520 23:37:27.978438  1727 net.cpp:150] Setting up ip3_drop3_0_split
I0520 23:37:27.978451  1727 net.cpp:157] Top shape: 430 11 (4730)
I0520 23:37:27.978471  1727 net.cpp:157] Top shape: 430 11 (4730)
I0520 23:37:27.978480  1727 net.cpp:165] Memory required for data: 678916680
I0520 23:37:27.978490  1727 layer_factory.hpp:77] Creating layer accuracy
I0520 23:37:27.978509  1727 net.cpp:106] Creating Layer accuracy
I0520 23:37:27.978519  1727 net.cpp:454] accuracy <- ip3_drop3_0_split_0
I0520 23:37:27.978530  1727 net.cpp:454] accuracy <- label_data_hdf5_1_split_0
I0520 23:37:27.978544  1727 net.cpp:411] accuracy -> accuracy
…
