…
I0520 15:28:45.833281 22173 net.cpp:322] The NetState phase (0) differed from the phase (1) specified by a rule in layer data_hdf5
I0520 15:28:45.833343 22173 net.cpp:322] The NetState phase (0) differed from the phase (1) specified by a rule in layer accuracy
I0520 15:28:45.833686 22173 net.cpp:49] Initializing net from parameters: 
name: "caffe_test_127x50_x_unshifted"
state {
  phase: TRAIN
}
layer {
  name: "data_hdf5"
  type: "HDF5Data"
  top: "data"
  top: "label"
  include {
    phase: TRAIN
  }
  hdf5_data_param {
    source: "/lustre/atlas/proj-shared/hep105/caffe_titan/minosmatch_nukecczdefs_127x50_x_unshifted_me1Bmc.trainlist"
    batch_size: 170
  }
}
layer {
  name: "conv1"
  type: "Convolution"
  bottom: "data"
  top: "conv1"
  convolution_param {
    num_output: 12
    pad: 0
    stride: 1
    weight_filler {
      type: "xavier"
    }
    bias_filler {
      type: "constant"
    }
    kernel_h: 8
    kernel_w: 3
  }
}
layer {
  name: "relu1"
  type: "ReLU"
  bottom: "conv1"
  top: "conv1"
}
layer {
  name: "pool1"
  type: "Pooling"
  bottom: "conv1"
  top: "pool1"
  pooling_param {
    pool: MAX
    kernel_h: 2
    kernel_w: 1
    stride_h: 2
    stride_w: 1
  }
}
layer {
  name: "conv2"
  type: "Convolution"
  bottom: "pool1"
  top: "conv2"
  convolution_param {
    num_output: 20
    pad: 0
    stride: 1
    weight_filler {
      type: "xavier"
    }
    bias_filler {
      type: "constant"
    }
    kernel_h: 7
    kernel_w: 3
  }
}
layer {
  name: "relu2"
  type: "ReLU"
  bottom: "conv2"
  top: "conv2"
}
layer {
  name: "pool2"
  type: "Pooling"
  bottom: "conv2"
  top: "pool2"
  pooling_param {
    pool: MAX
    kernel_h: 2
    kernel_w: 1
    stride_h: 2
    stride_w: 1
  }
}
layer {
  name: "conv3"
  type: "Convolution"
  bottom: "pool2"
  top: "conv3"
  convolution_param {
    num_output: 28
    pad: 0
    stride: 1
    weight_filler {
      type: "xavier"
    }
    bias_filler {
      type: "constant"
    }
    kernel_h: 6
    kernel_w: 3
  }
}
layer {
  name: "relu3"
  type: "ReLU"
  bottom: "conv3"
  top: "conv3"
}
layer {
  name: "pool3"
  type: "Pooling"
  bottom: "conv3"
  top: "pool3"
  pooling_param {
    pool: MAX
    kernel_h: 2
    kernel_w: 1
    stride_h: 2
    stride_w: 1
  }
}
layer {
  name: "conv4"
  type: "Convolution"
  bottom: "pool3"
  top: "conv4"
  convolution_param {
    num_output: 36
    pad: 0
    stride: 1
    weight_filler {
      type: "xavier"
    }
    bias_filler {
      type: "constant"
    }
    kernel_h: 6
    kernel_w: 3
  }
}
layer {
  name: "relu4"
  type: "ReLU"
  bottom: "conv4"
  top: "conv4"
}
layer {
  name: "pool4"
  type: "Pooling"
  bottom: "conv4"
  top: "pool4"
  pooling_param {
    pool: MAX
    kernel_h: 2
    kernel_w: 1
    stride_h: 2
    stride_w: 1
  }
}
layer {
  name: "ip1"
  type: "InnerProduct"
  bottom: "pool4"
  top: "ip1"
  inner_product_param {
    num_output: 196
    weight_filler {
      type: "xavier"
    }
    bias_filler {
      type: "constant"
    }
  }
}
layer {
  name: "relu5"
  type: "ReLU"
  bottom: "ip1"
  top: "ip1"
}
layer {
  name: "drop1"
  type: "Dropout"
  bottom: "ip1"
  top: "ip1"
  dropout_param {
    dropout_ratio: 0.5
  }
}
layer {
  name: "ip2"
  type: "InnerProduct"
  bottom: "ip1"
  top: "ip2"
  inner_product_param {
    num_output: 98
    weight_filler {
      type: "xavier"
    }
    bias_filler {
      type: "constant"
    }
  }
}
layer {
  name: "relu6"
  type: "ReLU"
  bottom: "ip2"
  top: "ip2"
}
layer {
  name: "drop2"
  type: "Dropout"
  bottom: "ip2"
  top: "ip2"
  dropout_param {
    dropout_ratio: 0.5
  }
}
layer {
  name: "ip3"
  type: "InnerProduct"
  bottom: "ip2"
  top: "ip3"
  inner_product_param {
    num_output: 11
    weight_filler {
      type: "xavier"
    }
    bias_filler {
      type: "constant"
    }
  }
}
layer {
  name: "drop3"
  type: "Dropout"
  bottom: "ip3"
  top: "ip3"
  dropout_param {
    dropout_ratio: 0.5
  }
}
layer {
  name: "loss"
  type: "SoftmaxWithLoss"
  bottom: "ip3"
  bottom: "label"
  top: "loss"
}
I0520 15:28:45.833863 22173 layer_factory.hpp:77] Creating layer data_hdf5
I0520 15:28:45.833886 22173 net.cpp:106] Creating Layer data_hdf5
I0520 15:28:45.833900 22173 net.cpp:411] data_hdf5 -> data
I0520 15:28:45.833935 22173 net.cpp:411] data_hdf5 -> label
I0520 15:28:45.833966 22173 hdf5_data_layer.cpp:79] Loading list of HDF5 filenames from: /lustre/atlas/proj-shared/hep105/caffe_titan/minosmatch_nukecczdefs_127x50_x_unshifted_me1Bmc.trainlist
I0520 15:28:45.835188 22173 hdf5_data_layer.cpp:93] Number of HDF5 files: 15
I0520 15:28:45.837355 22173 hdf5.cpp:32] Datatype class: H5T_FLOAT
I0520 15:29:07.346627 22173 hdf5.cpp:35] Datatype class: H5T_INTEGER
I0520 15:29:07.351796 22173 net.cpp:150] Setting up data_hdf5
I0520 15:29:07.351836 22173 net.cpp:157] Top shape: 170 1 127 50 (1079500)
I0520 15:29:07.351851 22173 net.cpp:157] Top shape: 170 (170)
I0520 15:29:07.351863 22173 net.cpp:165] Memory required for data: 4318680
I0520 15:29:07.351877 22173 layer_factory.hpp:77] Creating layer conv1
I0520 15:29:07.351912 22173 net.cpp:106] Creating Layer conv1
I0520 15:29:07.351922 22173 net.cpp:454] conv1 <- data
I0520 15:29:07.351944 22173 net.cpp:411] conv1 -> conv1
I0520 15:29:09.160297 22173 net.cpp:150] Setting up conv1
I0520 15:29:09.160344 22173 net.cpp:157] Top shape: 170 12 120 48 (11750400)
I0520 15:29:09.160356 22173 net.cpp:165] Memory required for data: 51320280
I0520 15:29:09.160384 22173 layer_factory.hpp:77] Creating layer relu1
I0520 15:29:09.160405 22173 net.cpp:106] Creating Layer relu1
I0520 15:29:09.160416 22173 net.cpp:454] relu1 <- conv1
I0520 15:29:09.160429 22173 net.cpp:397] relu1 -> conv1 (in-place)
I0520 15:29:09.160954 22173 net.cpp:150] Setting up relu1
I0520 15:29:09.160971 22173 net.cpp:157] Top shape: 170 12 120 48 (11750400)
I0520 15:29:09.160982 22173 net.cpp:165] Memory required for data: 98321880
I0520 15:29:09.160992 22173 layer_factory.hpp:77] Creating layer pool1
I0520 15:29:09.161008 22173 net.cpp:106] Creating Layer pool1
I0520 15:29:09.161020 22173 net.cpp:454] pool1 <- conv1
I0520 15:29:09.161032 22173 net.cpp:411] pool1 -> pool1
I0520 15:29:09.161113 22173 net.cpp:150] Setting up pool1
I0520 15:29:09.161128 22173 net.cpp:157] Top shape: 170 12 60 48 (5875200)
I0520 15:29:09.161136 22173 net.cpp:165] Memory required for data: 121822680
I0520 15:29:09.161146 22173 layer_factory.hpp:77] Creating layer conv2
I0520 15:29:09.161169 22173 net.cpp:106] Creating Layer conv2
I0520 15:29:09.161180 22173 net.cpp:454] conv2 <- pool1
I0520 15:29:09.161192 22173 net.cpp:411] conv2 -> conv2
I0520 15:29:09.163889 22173 net.cpp:150] Setting up conv2
I0520 15:29:09.163916 22173 net.cpp:157] Top shape: 170 20 54 46 (8445600)
I0520 15:29:09.163930 22173 net.cpp:165] Memory required for data: 155605080
I0520 15:29:09.163951 22173 layer_factory.hpp:77] Creating layer relu2
I0520 15:29:09.163965 22173 net.cpp:106] Creating Layer relu2
I0520 15:29:09.163975 22173 net.cpp:454] relu2 <- conv2
I0520 15:29:09.163988 22173 net.cpp:397] relu2 -> conv2 (in-place)
I0520 15:29:09.164317 22173 net.cpp:150] Setting up relu2
I0520 15:29:09.164331 22173 net.cpp:157] Top shape: 170 20 54 46 (8445600)
I0520 15:29:09.164342 22173 net.cpp:165] Memory required for data: 189387480
I0520 15:29:09.164352 22173 layer_factory.hpp:77] Creating layer pool2
I0520 15:29:09.164364 22173 net.cpp:106] Creating Layer pool2
I0520 15:29:09.164374 22173 net.cpp:454] pool2 <- conv2
I0520 15:29:09.164399 22173 net.cpp:411] pool2 -> pool2
I0520 15:29:09.164468 22173 net.cpp:150] Setting up pool2
I0520 15:29:09.164481 22173 net.cpp:157] Top shape: 170 20 27 46 (4222800)
I0520 15:29:09.164490 22173 net.cpp:165] Memory required for data: 206278680
I0520 15:29:09.164500 22173 layer_factory.hpp:77] Creating layer conv3
I0520 15:29:09.164517 22173 net.cpp:106] Creating Layer conv3
I0520 15:29:09.164528 22173 net.cpp:454] conv3 <- pool2
I0520 15:29:09.164541 22173 net.cpp:411] conv3 -> conv3
I0520 15:29:09.166515 22173 net.cpp:150] Setting up conv3
I0520 15:29:09.166539 22173 net.cpp:157] Top shape: 170 28 22 44 (4607680)
I0520 15:29:09.166550 22173 net.cpp:165] Memory required for data: 224709400
I0520 15:29:09.166570 22173 layer_factory.hpp:77] Creating layer relu3
I0520 15:29:09.166586 22173 net.cpp:106] Creating Layer relu3
I0520 15:29:09.166596 22173 net.cpp:454] relu3 <- conv3
I0520 15:29:09.166609 22173 net.cpp:397] relu3 -> conv3 (in-place)
I0520 15:29:09.167079 22173 net.cpp:150] Setting up relu3
I0520 15:29:09.167098 22173 net.cpp:157] Top shape: 170 28 22 44 (4607680)
I0520 15:29:09.167107 22173 net.cpp:165] Memory required for data: 243140120
I0520 15:29:09.167117 22173 layer_factory.hpp:77] Creating layer pool3
I0520 15:29:09.167130 22173 net.cpp:106] Creating Layer pool3
I0520 15:29:09.167140 22173 net.cpp:454] pool3 <- conv3
I0520 15:29:09.167153 22173 net.cpp:411] pool3 -> pool3
I0520 15:29:09.167222 22173 net.cpp:150] Setting up pool3
I0520 15:29:09.167234 22173 net.cpp:157] Top shape: 170 28 11 44 (2303840)
I0520 15:29:09.167244 22173 net.cpp:165] Memory required for data: 252355480
I0520 15:29:09.167253 22173 layer_factory.hpp:77] Creating layer conv4
I0520 15:29:09.167269 22173 net.cpp:106] Creating Layer conv4
I0520 15:29:09.167280 22173 net.cpp:454] conv4 <- pool3
I0520 15:29:09.167294 22173 net.cpp:411] conv4 -> conv4
I0520 15:29:09.170264 22173 net.cpp:150] Setting up conv4
I0520 15:29:09.170291 22173 net.cpp:157] Top shape: 170 36 6 42 (1542240)
I0520 15:29:09.170302 22173 net.cpp:165] Memory required for data: 258524440
I0520 15:29:09.170317 22173 layer_factory.hpp:77] Creating layer relu4
I0520 15:29:09.170332 22173 net.cpp:106] Creating Layer relu4
I0520 15:29:09.170342 22173 net.cpp:454] relu4 <- conv4
I0520 15:29:09.170356 22173 net.cpp:397] relu4 -> conv4 (in-place)
I0520 15:29:09.170816 22173 net.cpp:150] Setting up relu4
I0520 15:29:09.170832 22173 net.cpp:157] Top shape: 170 36 6 42 (1542240)
I0520 15:29:09.170843 22173 net.cpp:165] Memory required for data: 264693400
I0520 15:29:09.170852 22173 layer_factory.hpp:77] Creating layer pool4
I0520 15:29:09.170866 22173 net.cpp:106] Creating Layer pool4
I0520 15:29:09.170876 22173 net.cpp:454] pool4 <- conv4
I0520 15:29:09.170888 22173 net.cpp:411] pool4 -> pool4
I0520 15:29:09.170956 22173 net.cpp:150] Setting up pool4
I0520 15:29:09.170970 22173 net.cpp:157] Top shape: 170 36 3 42 (771120)
I0520 15:29:09.170980 22173 net.cpp:165] Memory required for data: 267777880
I0520 15:29:09.170989 22173 layer_factory.hpp:77] Creating layer ip1
I0520 15:29:09.171010 22173 net.cpp:106] Creating Layer ip1
I0520 15:29:09.171020 22173 net.cpp:454] ip1 <- pool4
I0520 15:29:09.171033 22173 net.cpp:411] ip1 -> ip1
I0520 15:29:09.186456 22173 net.cpp:150] Setting up ip1
I0520 15:29:09.186486 22173 net.cpp:157] Top shape: 170 196 (33320)
I0520 15:29:09.186496 22173 net.cpp:165] Memory required for data: 267911160
I0520 15:29:09.186517 22173 layer_factory.hpp:77] Creating layer relu5
I0520 15:29:09.186532 22173 net.cpp:106] Creating Layer relu5
I0520 15:29:09.186543 22173 net.cpp:454] relu5 <- ip1
I0520 15:29:09.186560 22173 net.cpp:397] relu5 -> ip1 (in-place)
I0520 15:29:09.186902 22173 net.cpp:150] Setting up relu5
I0520 15:29:09.186914 22173 net.cpp:157] Top shape: 170 196 (33320)
I0520 15:29:09.186924 22173 net.cpp:165] Memory required for data: 268044440
I0520 15:29:09.186934 22173 layer_factory.hpp:77] Creating layer drop1
I0520 15:29:09.186956 22173 net.cpp:106] Creating Layer drop1
I0520 15:29:09.186966 22173 net.cpp:454] drop1 <- ip1
I0520 15:29:09.186990 22173 net.cpp:397] drop1 -> ip1 (in-place)
I0520 15:29:09.187038 22173 net.cpp:150] Setting up drop1
I0520 15:29:09.187052 22173 net.cpp:157] Top shape: 170 196 (33320)
I0520 15:29:09.187062 22173 net.cpp:165] Memory required for data: 268177720
I0520 15:29:09.187072 22173 layer_factory.hpp:77] Creating layer ip2
I0520 15:29:09.187090 22173 net.cpp:106] Creating Layer ip2
I0520 15:29:09.187100 22173 net.cpp:454] ip2 <- ip1
I0520 15:29:09.187114 22173 net.cpp:411] ip2 -> ip2
I0520 15:29:09.187579 22173 net.cpp:150] Setting up ip2
I0520 15:29:09.187592 22173 net.cpp:157] Top shape: 170 98 (16660)
I0520 15:29:09.187603 22173 net.cpp:165] Memory required for data: 268244360
I0520 15:29:09.187618 22173 layer_factory.hpp:77] Creating layer relu6
I0520 15:29:09.187630 22173 net.cpp:106] Creating Layer relu6
I0520 15:29:09.187640 22173 net.cpp:454] relu6 <- ip2
I0520 15:29:09.187652 22173 net.cpp:397] relu6 -> ip2 (in-place)
I0520 15:29:09.188172 22173 net.cpp:150] Setting up relu6
I0520 15:29:09.188189 22173 net.cpp:157] Top shape: 170 98 (16660)
I0520 15:29:09.188199 22173 net.cpp:165] Memory required for data: 268311000
I0520 15:29:09.188210 22173 layer_factory.hpp:77] Creating layer drop2
I0520 15:29:09.188221 22173 net.cpp:106] Creating Layer drop2
I0520 15:29:09.188231 22173 net.cpp:454] drop2 <- ip2
I0520 15:29:09.188244 22173 net.cpp:397] drop2 -> ip2 (in-place)
I0520 15:29:09.188287 22173 net.cpp:150] Setting up drop2
I0520 15:29:09.188299 22173 net.cpp:157] Top shape: 170 98 (16660)
I0520 15:29:09.188309 22173 net.cpp:165] Memory required for data: 268377640
I0520 15:29:09.188319 22173 layer_factory.hpp:77] Creating layer ip3
I0520 15:29:09.188333 22173 net.cpp:106] Creating Layer ip3
I0520 15:29:09.188343 22173 net.cpp:454] ip3 <- ip2
I0520 15:29:09.188354 22173 net.cpp:411] ip3 -> ip3
I0520 15:29:09.188565 22173 net.cpp:150] Setting up ip3
I0520 15:29:09.188577 22173 net.cpp:157] Top shape: 170 11 (1870)
I0520 15:29:09.188587 22173 net.cpp:165] Memory required for data: 268385120
I0520 15:29:09.188602 22173 layer_factory.hpp:77] Creating layer drop3
I0520 15:29:09.188616 22173 net.cpp:106] Creating Layer drop3
I0520 15:29:09.188624 22173 net.cpp:454] drop3 <- ip3
I0520 15:29:09.188637 22173 net.cpp:397] drop3 -> ip3 (in-place)
I0520 15:29:09.188675 22173 net.cpp:150] Setting up drop3
I0520 15:29:09.188688 22173 net.cpp:157] Top shape: 170 11 (1870)
I0520 15:29:09.188699 22173 net.cpp:165] Memory required for data: 268392600
I0520 15:29:09.188709 22173 layer_factory.hpp:77] Creating layer loss
I0520 15:29:09.188726 22173 net.cpp:106] Creating Layer loss
I0520 15:29:09.188737 22173 net.cpp:454] loss <- ip3
I0520 15:29:09.188747 22173 net.cpp:454] loss <- label
I0520 15:29:09.188760 22173 net.cpp:411] loss -> loss
I0520 15:29:09.188776 22173 layer_factory.hpp:77] Creating layer loss
…
I0520 15:29:09.191403 22173 solver.cpp:181] Creating test net (#0) specified by net file: /lustre/atlas/proj-shared/hep105/caffe_titan/caffe_workflow/logs_batch_size_test/batch_size_170_2016-05-20T11.20.39.039113.prototxt
I0520 15:29:09.191474 22173 net.cpp:322] The NetState phase (1) differed from the phase (0) specified by a rule in layer data_hdf5
I0520 15:29:09.191828 22173 net.cpp:49] Initializing net from parameters: 
name: "caffe_test_127x50_x_unshifted"
state {
  phase: TEST
}
layer {
  name: "data_hdf5"
  type: "HDF5Data"
  top: "data"
  top: "label"
  include {
    phase: TEST
  }
  hdf5_data_param {
    source: "/lustre/atlas/proj-shared/hep105/caffe_titan/minosmatch_nukecczdefs_127x50_x_unshifted_me1Bmc.testlist"
    batch_size: 170
  }
}
layer {
  name: "conv1"
  type: "Convolution"
  bottom: "data"
  top: "conv1"
  convolution_param {
    num_output: 12
    pad: 0
    stride: 1
    weight_filler {
      type: "xavier"
    }
    bias_filler {
      type: "constant"
    }
    kernel_h: 8
    kernel_w: 3
  }
}
layer {
  name: "relu1"
  type: "ReLU"
  bottom: "conv1"
  top: "conv1"
}
layer {
  name: "pool1"
  type: "Pooling"
  bottom: "conv1"
  top: "pool1"
  pooling_param {
    pool: MAX
    kernel_h: 2
    kernel_w: 1
    stride_h: 2
    stride_w: 1
  }
}
layer {
  name: "conv2"
  type: "Convolution"
  bottom: "pool1"
  top: "conv2"
  convolution_param {
    num_output: 20
    pad: 0
    stride: 1
    weight_filler {
      type: "xavier"
    }
    bias_filler {
      type: "constant"
    }
    kernel_h: 7
    kernel_w: 3
  }
}
layer {
  name: "relu2"
  type: "ReLU"
  bottom: "conv2"
  top: "conv2"
}
layer {
  name: "pool2"
  type: "Pooling"
  bottom: "conv2"
  top: "pool2"
  pooling_param {
    pool: MAX
    kernel_h: 2
    kernel_w: 1
    stride_h: 2
    stride_w: 1
  }
}
layer {
  name: "conv3"
  type: "Convolution"
  bottom: "pool2"
  top: "conv3"
  convolution_param {
    num_output: 28
    pad: 0
    stride: 1
    weight_filler {
      type: "xavier"
    }
    bias_filler {
      type: "constant"
    }
    kernel_h: 6
    kernel_w: 3
  }
}
layer {
  name: "relu3"
  type: "ReLU"
  bottom: "conv3"
  top: "conv3"
}
layer {
  name: "pool3"
  type: "Pooling"
  bottom: "conv3"
  top: "pool3"
  pooling_param {
    pool: MAX
    kernel_h: 2
    kernel_w: 1
    stride_h: 2
    stride_w: 1
  }
}
layer {
  name: "conv4"
  type: "Convolution"
  bottom: "pool3"
  top: "conv4"
  convolution_param {
    num_output: 36
    pad: 0
    stride: 1
    weight_filler {
      type: "xavier"
    }
    bias_filler {
      type: "constant"
    }
    kernel_h: 6
    kernel_w: 3
  }
}
layer {
  name: "relu4"
  type: "ReLU"
  bottom: "conv4"
  top: "conv4"
}
layer {
  name: "pool4"
  type: "Pooling"
  bottom: "conv4"
  top: "pool4"
  pooling_param {
    pool: MAX
    kernel_h: 2
    kernel_w: 1
    stride_h: 2
    stride_w: 1
  }
}
layer {
  name: "ip1"
  type: "InnerProduct"
  bottom: "pool4"
  top: "ip1"
  inner_product_param {
    num_output: 196
    weight_filler {
      type: "xavier"
    }
    bias_filler {
      type: "constant"
    }
  }
}
layer {
  name: "relu5"
  type: "ReLU"
  bottom: "ip1"
  top: "ip1"
}
layer {
  name: "drop1"
  type: "Dropout"
  bottom: "ip1"
  top: "ip1"
  dropout_param {
    dropout_ratio: 0.5
  }
}
layer {
  name: "ip2"
  type: "InnerProduct"
  bottom: "ip1"
  top: "ip2"
  inner_product_param {
    num_output: 98
    weight_filler {
      type: "xavier"
    }
    bias_filler {
      type: "constant"
    }
  }
}
layer {
  name: "relu6"
  type: "ReLU"
  bottom: "ip2"
  top: "ip2"
}
layer {
  name: "drop2"
  type: "Dropout"
  bottom: "ip2"
  top: "ip2"
  dropout_param {
    dropout_ratio: 0.5
  }
}
layer {
  name: "ip3"
  type: "InnerProduct"
  bottom: "ip2"
  top: "ip3"
  inner_product_param {
    num_output: 11
    weight_filler {
      type: "xavier"
    }
    bias_filler {
      type: "constant"
    }
  }
}
layer {
  name: "drop3"
  type: "Dropout"
  bottom: "ip3"
  top: "ip3"
  dropout_param {
    dropout_ratio: 0.5
  }
}
layer {
  name: "accuracy"
  type: "Accuracy"
  bottom: "ip3"
  bottom: "label"
  top: "accuracy"
  include {
    phase: TEST
  }
}
layer {
  name: "loss"
  type: "SoftmaxWithLoss"
  bottom: "ip3"
  bottom: "label"
  top: "loss"
}
I0520 15:29:09.192018 22173 layer_factory.hpp:77] Creating layer data_hdf5
I0520 15:29:09.192033 22173 net.cpp:106] Creating Layer data_hdf5
I0520 15:29:09.192045 22173 net.cpp:411] data_hdf5 -> data
I0520 15:29:09.192062 22173 net.cpp:411] data_hdf5 -> label
I0520 15:29:09.192078 22173 hdf5_data_layer.cpp:79] Loading list of HDF5 filenames from: /lustre/atlas/proj-shared/hep105/caffe_titan/minosmatch_nukecczdefs_127x50_x_unshifted_me1Bmc.testlist
I0520 15:29:09.193202 22173 hdf5_data_layer.cpp:93] Number of HDF5 files: 3
I0520 15:29:30.495689 22173 net.cpp:150] Setting up data_hdf5
I0520 15:29:30.495857 22173 net.cpp:157] Top shape: 170 1 127 50 (1079500)
I0520 15:29:30.495872 22173 net.cpp:157] Top shape: 170 (170)
I0520 15:29:30.495882 22173 net.cpp:165] Memory required for data: 4318680
I0520 15:29:30.495896 22173 layer_factory.hpp:77] Creating layer label_data_hdf5_1_split
I0520 15:29:30.495924 22173 net.cpp:106] Creating Layer label_data_hdf5_1_split
I0520 15:29:30.495934 22173 net.cpp:454] label_data_hdf5_1_split <- label
I0520 15:29:30.495950 22173 net.cpp:411] label_data_hdf5_1_split -> label_data_hdf5_1_split_0
I0520 15:29:30.495971 22173 net.cpp:411] label_data_hdf5_1_split -> label_data_hdf5_1_split_1
I0520 15:29:30.496044 22173 net.cpp:150] Setting up label_data_hdf5_1_split
I0520 15:29:30.496058 22173 net.cpp:157] Top shape: 170 (170)
I0520 15:29:30.496070 22173 net.cpp:157] Top shape: 170 (170)
I0520 15:29:30.496079 22173 net.cpp:165] Memory required for data: 4320040
I0520 15:29:30.496089 22173 layer_factory.hpp:77] Creating layer conv1
I0520 15:29:30.496111 22173 net.cpp:106] Creating Layer conv1
I0520 15:29:30.496121 22173 net.cpp:454] conv1 <- data
I0520 15:29:30.496136 22173 net.cpp:411] conv1 -> conv1
I0520 15:29:30.498088 22173 net.cpp:150] Setting up conv1
I0520 15:29:30.498108 22173 net.cpp:157] Top shape: 170 12 120 48 (11750400)
I0520 15:29:30.498118 22173 net.cpp:165] Memory required for data: 51321640
I0520 15:29:30.498138 22173 layer_factory.hpp:77] Creating layer relu1
I0520 15:29:30.498152 22173 net.cpp:106] Creating Layer relu1
I0520 15:29:30.498162 22173 net.cpp:454] relu1 <- conv1
I0520 15:29:30.498175 22173 net.cpp:397] relu1 -> conv1 (in-place)
I0520 15:29:30.498670 22173 net.cpp:150] Setting up relu1
I0520 15:29:30.498687 22173 net.cpp:157] Top shape: 170 12 120 48 (11750400)
I0520 15:29:30.498697 22173 net.cpp:165] Memory required for data: 98323240
I0520 15:29:30.498708 22173 layer_factory.hpp:77] Creating layer pool1
I0520 15:29:30.498723 22173 net.cpp:106] Creating Layer pool1
I0520 15:29:30.498733 22173 net.cpp:454] pool1 <- conv1
I0520 15:29:30.498745 22173 net.cpp:411] pool1 -> pool1
I0520 15:29:30.498821 22173 net.cpp:150] Setting up pool1
I0520 15:29:30.498834 22173 net.cpp:157] Top shape: 170 12 60 48 (5875200)
I0520 15:29:30.498844 22173 net.cpp:165] Memory required for data: 121824040
I0520 15:29:30.498854 22173 layer_factory.hpp:77] Creating layer conv2
I0520 15:29:30.498869 22173 net.cpp:106] Creating Layer conv2
I0520 15:29:30.498880 22173 net.cpp:454] conv2 <- pool1
I0520 15:29:30.498894 22173 net.cpp:411] conv2 -> conv2
I0520 15:29:30.500810 22173 net.cpp:150] Setting up conv2
I0520 15:29:30.500833 22173 net.cpp:157] Top shape: 170 20 54 46 (8445600)
I0520 15:29:30.500845 22173 net.cpp:165] Memory required for data: 155606440
I0520 15:29:30.500864 22173 layer_factory.hpp:77] Creating layer relu2
I0520 15:29:30.500876 22173 net.cpp:106] Creating Layer relu2
I0520 15:29:30.500895 22173 net.cpp:454] relu2 <- conv2
I0520 15:29:30.500907 22173 net.cpp:397] relu2 -> conv2 (in-place)
I0520 15:29:30.501242 22173 net.cpp:150] Setting up relu2
I0520 15:29:30.501256 22173 net.cpp:157] Top shape: 170 20 54 46 (8445600)
I0520 15:29:30.501266 22173 net.cpp:165] Memory required for data: 189388840
I0520 15:29:30.501276 22173 layer_factory.hpp:77] Creating layer pool2
I0520 15:29:30.501289 22173 net.cpp:106] Creating Layer pool2
I0520 15:29:30.501299 22173 net.cpp:454] pool2 <- conv2
I0520 15:29:30.501312 22173 net.cpp:411] pool2 -> pool2
I0520 15:29:30.501384 22173 net.cpp:150] Setting up pool2
I0520 15:29:30.501397 22173 net.cpp:157] Top shape: 170 20 27 46 (4222800)
I0520 15:29:30.501406 22173 net.cpp:165] Memory required for data: 206280040
I0520 15:29:30.501417 22173 layer_factory.hpp:77] Creating layer conv3
I0520 15:29:30.501436 22173 net.cpp:106] Creating Layer conv3
I0520 15:29:30.501446 22173 net.cpp:454] conv3 <- pool2
I0520 15:29:30.501461 22173 net.cpp:411] conv3 -> conv3
I0520 15:29:30.503453 22173 net.cpp:150] Setting up conv3
I0520 15:29:30.503476 22173 net.cpp:157] Top shape: 170 28 22 44 (4607680)
I0520 15:29:30.503487 22173 net.cpp:165] Memory required for data: 224710760
I0520 15:29:30.503520 22173 layer_factory.hpp:77] Creating layer relu3
I0520 15:29:30.503535 22173 net.cpp:106] Creating Layer relu3
I0520 15:29:30.503545 22173 net.cpp:454] relu3 <- conv3
I0520 15:29:30.503557 22173 net.cpp:397] relu3 -> conv3 (in-place)
I0520 15:29:30.504027 22173 net.cpp:150] Setting up relu3
I0520 15:29:30.504043 22173 net.cpp:157] Top shape: 170 28 22 44 (4607680)
I0520 15:29:30.504055 22173 net.cpp:165] Memory required for data: 243141480
I0520 15:29:30.504065 22173 layer_factory.hpp:77] Creating layer pool3
I0520 15:29:30.504077 22173 net.cpp:106] Creating Layer pool3
I0520 15:29:30.504087 22173 net.cpp:454] pool3 <- conv3
I0520 15:29:30.504101 22173 net.cpp:411] pool3 -> pool3
I0520 15:29:30.504170 22173 net.cpp:150] Setting up pool3
I0520 15:29:30.504184 22173 net.cpp:157] Top shape: 170 28 11 44 (2303840)
I0520 15:29:30.504194 22173 net.cpp:165] Memory required for data: 252356840
I0520 15:29:30.504204 22173 layer_factory.hpp:77] Creating layer conv4
I0520 15:29:30.504218 22173 net.cpp:106] Creating Layer conv4
I0520 15:29:30.504228 22173 net.cpp:454] conv4 <- pool3
I0520 15:29:30.504243 22173 net.cpp:411] conv4 -> conv4
I0520 15:29:30.506330 22173 net.cpp:150] Setting up conv4
I0520 15:29:30.506351 22173 net.cpp:157] Top shape: 170 36 6 42 (1542240)
I0520 15:29:30.506364 22173 net.cpp:165] Memory required for data: 258525800
I0520 15:29:30.506379 22173 layer_factory.hpp:77] Creating layer relu4
I0520 15:29:30.506393 22173 net.cpp:106] Creating Layer relu4
I0520 15:29:30.506403 22173 net.cpp:454] relu4 <- conv4
I0520 15:29:30.506417 22173 net.cpp:397] relu4 -> conv4 (in-place)
I0520 15:29:30.506888 22173 net.cpp:150] Setting up relu4
I0520 15:29:30.506904 22173 net.cpp:157] Top shape: 170 36 6 42 (1542240)
I0520 15:29:30.506914 22173 net.cpp:165] Memory required for data: 264694760
I0520 15:29:30.506924 22173 layer_factory.hpp:77] Creating layer pool4
I0520 15:29:30.506937 22173 net.cpp:106] Creating Layer pool4
I0520 15:29:30.506947 22173 net.cpp:454] pool4 <- conv4
I0520 15:29:30.506960 22173 net.cpp:411] pool4 -> pool4
I0520 15:29:30.507031 22173 net.cpp:150] Setting up pool4
I0520 15:29:30.507045 22173 net.cpp:157] Top shape: 170 36 3 42 (771120)
I0520 15:29:30.507055 22173 net.cpp:165] Memory required for data: 267779240
I0520 15:29:30.507064 22173 layer_factory.hpp:77] Creating layer ip1
I0520 15:29:30.507078 22173 net.cpp:106] Creating Layer ip1
I0520 15:29:30.507088 22173 net.cpp:454] ip1 <- pool4
I0520 15:29:30.507102 22173 net.cpp:411] ip1 -> ip1
I0520 15:29:30.522596 22173 net.cpp:150] Setting up ip1
I0520 15:29:30.522624 22173 net.cpp:157] Top shape: 170 196 (33320)
I0520 15:29:30.522636 22173 net.cpp:165] Memory required for data: 267912520
I0520 15:29:30.522658 22173 layer_factory.hpp:77] Creating layer relu5
I0520 15:29:30.522673 22173 net.cpp:106] Creating Layer relu5
I0520 15:29:30.522685 22173 net.cpp:454] relu5 <- ip1
I0520 15:29:30.522697 22173 net.cpp:397] relu5 -> ip1 (in-place)
I0520 15:29:30.523046 22173 net.cpp:150] Setting up relu5
I0520 15:29:30.523061 22173 net.cpp:157] Top shape: 170 196 (33320)
I0520 15:29:30.523071 22173 net.cpp:165] Memory required for data: 268045800
I0520 15:29:30.523082 22173 layer_factory.hpp:77] Creating layer drop1
I0520 15:29:30.523100 22173 net.cpp:106] Creating Layer drop1
I0520 15:29:30.523110 22173 net.cpp:454] drop1 <- ip1
I0520 15:29:30.523123 22173 net.cpp:397] drop1 -> ip1 (in-place)
I0520 15:29:30.523169 22173 net.cpp:150] Setting up drop1
I0520 15:29:30.523181 22173 net.cpp:157] Top shape: 170 196 (33320)
I0520 15:29:30.523192 22173 net.cpp:165] Memory required for data: 268179080
I0520 15:29:30.523201 22173 layer_factory.hpp:77] Creating layer ip2
I0520 15:29:30.523216 22173 net.cpp:106] Creating Layer ip2
I0520 15:29:30.523226 22173 net.cpp:454] ip2 <- ip1
I0520 15:29:30.523239 22173 net.cpp:411] ip2 -> ip2
I0520 15:29:30.523715 22173 net.cpp:150] Setting up ip2
I0520 15:29:30.523730 22173 net.cpp:157] Top shape: 170 98 (16660)
I0520 15:29:30.523739 22173 net.cpp:165] Memory required for data: 268245720
I0520 15:29:30.523768 22173 layer_factory.hpp:77] Creating layer relu6
I0520 15:29:30.523782 22173 net.cpp:106] Creating Layer relu6
I0520 15:29:30.523792 22173 net.cpp:454] relu6 <- ip2
I0520 15:29:30.523803 22173 net.cpp:397] relu6 -> ip2 (in-place)
I0520 15:29:30.524345 22173 net.cpp:150] Setting up relu6
I0520 15:29:30.524365 22173 net.cpp:157] Top shape: 170 98 (16660)
I0520 15:29:30.524375 22173 net.cpp:165] Memory required for data: 268312360
I0520 15:29:30.524387 22173 layer_factory.hpp:77] Creating layer drop2
I0520 15:29:30.524401 22173 net.cpp:106] Creating Layer drop2
I0520 15:29:30.524410 22173 net.cpp:454] drop2 <- ip2
I0520 15:29:30.524423 22173 net.cpp:397] drop2 -> ip2 (in-place)
I0520 15:29:30.524467 22173 net.cpp:150] Setting up drop2
I0520 15:29:30.524480 22173 net.cpp:157] Top shape: 170 98 (16660)
I0520 15:29:30.524490 22173 net.cpp:165] Memory required for data: 268379000
I0520 15:29:30.524500 22173 layer_factory.hpp:77] Creating layer ip3
I0520 15:29:30.524514 22173 net.cpp:106] Creating Layer ip3
I0520 15:29:30.524523 22173 net.cpp:454] ip3 <- ip2
I0520 15:29:30.524538 22173 net.cpp:411] ip3 -> ip3
I0520 15:29:30.524761 22173 net.cpp:150] Setting up ip3
I0520 15:29:30.524775 22173 net.cpp:157] Top shape: 170 11 (1870)
I0520 15:29:30.524785 22173 net.cpp:165] Memory required for data: 268386480
I0520 15:29:30.524801 22173 layer_factory.hpp:77] Creating layer drop3
I0520 15:29:30.524813 22173 net.cpp:106] Creating Layer drop3
I0520 15:29:30.524823 22173 net.cpp:454] drop3 <- ip3
I0520 15:29:30.524837 22173 net.cpp:397] drop3 -> ip3 (in-place)
I0520 15:29:30.524878 22173 net.cpp:150] Setting up drop3
I0520 15:29:30.524899 22173 net.cpp:157] Top shape: 170 11 (1870)
I0520 15:29:30.524909 22173 net.cpp:165] Memory required for data: 268393960
I0520 15:29:30.524917 22173 layer_factory.hpp:77] Creating layer ip3_drop3_0_split
I0520 15:29:30.524931 22173 net.cpp:106] Creating Layer ip3_drop3_0_split
I0520 15:29:30.524940 22173 net.cpp:454] ip3_drop3_0_split <- ip3
I0520 15:29:30.524952 22173 net.cpp:411] ip3_drop3_0_split -> ip3_drop3_0_split_0
I0520 15:29:30.524967 22173 net.cpp:411] ip3_drop3_0_split -> ip3_drop3_0_split_1
I0520 15:29:30.525043 22173 net.cpp:150] Setting up ip3_drop3_0_split
I0520 15:29:30.525054 22173 net.cpp:157] Top shape: 170 11 (1870)
I0520 15:29:30.525068 22173 net.cpp:157] Top shape: 170 11 (1870)
I0520 15:29:30.525079 22173 net.cpp:165] Memory required for data: 268408920
I0520 15:29:30.525089 22173 layer_factory.hpp:77] Creating layer accuracy
I0520 15:29:30.525110 22173 net.cpp:106] Creating Layer accuracy
I0520 15:29:30.525120 22173 net.cpp:454] accuracy <- ip3_drop3_0_split_0
I0520 15:29:30.525130 22173 net.cpp:454] accuracy <- label_data_hdf5_1_split_0
I0520 15:29:30.525144 22173 net.cpp:411] accuracy -> accuracy
…
