…
I0520 11:53:53.604756 23075 net.cpp:322] The NetState phase (0) differed from the phase (1) specified by a rule in layer data_hdf5
I0520 11:53:53.604823 23075 net.cpp:322] The NetState phase (0) differed from the phase (1) specified by a rule in layer accuracy
I0520 11:53:53.605203 23075 net.cpp:49] Initializing net from parameters: 
name: "caffe_test_127x50_x_unshifted"
state {
  phase: TRAIN
}
layer {
  name: "data_hdf5"
  type: "HDF5Data"
  top: "data"
  top: "label"
  include {
    phase: TRAIN
  }
  hdf5_data_param {
    source: "/lustre/atlas/proj-shared/hep105/caffe_titan/minosmatch_nukecczdefs_127x50_x_unshifted_me1Bmc.trainlist"
    batch_size: 280
  }
}
layer {
  name: "conv1"
  type: "Convolution"
  bottom: "data"
  top: "conv1"
  convolution_param {
    num_output: 12
    pad: 0
    stride: 1
    weight_filler {
      type: "xavier"
    }
    bias_filler {
      type: "constant"
    }
    kernel_h: 8
    kernel_w: 3
  }
}
layer {
  name: "relu1"
  type: "ReLU"
  bottom: "conv1"
  top: "conv1"
}
layer {
  name: "pool1"
  type: "Pooling"
  bottom: "conv1"
  top: "pool1"
  pooling_param {
    pool: MAX
    kernel_h: 2
    kernel_w: 1
    stride_h: 2
    stride_w: 1
  }
}
layer {
  name: "conv2"
  type: "Convolution"
  bottom: "pool1"
  top: "conv2"
  convolution_param {
    num_output: 20
    pad: 0
    stride: 1
    weight_filler {
      type: "xavier"
    }
    bias_filler {
      type: "constant"
    }
    kernel_h: 7
    kernel_w: 3
  }
}
layer {
  name: "relu2"
  type: "ReLU"
  bottom: "conv2"
  top: "conv2"
}
layer {
  name: "pool2"
  type: "Pooling"
  bottom: "conv2"
  top: "pool2"
  pooling_param {
    pool: MAX
    kernel_h: 2
    kernel_w: 1
    stride_h: 2
    stride_w: 1
  }
}
layer {
  name: "conv3"
  type: "Convolution"
  bottom: "pool2"
  top: "conv3"
  convolution_param {
    num_output: 28
    pad: 0
    stride: 1
    weight_filler {
      type: "xavier"
    }
    bias_filler {
      type: "constant"
    }
    kernel_h: 6
    kernel_w: 3
  }
}
layer {
  name: "relu3"
  type: "ReLU"
  bottom: "conv3"
  top: "conv3"
}
layer {
  name: "pool3"
  type: "Pooling"
  bottom: "conv3"
  top: "pool3"
  pooling_param {
    pool: MAX
    kernel_h: 2
    kernel_w: 1
    stride_h: 2
    stride_w: 1
  }
}
layer {
  name: "conv4"
  type: "Convolution"
  bottom: "pool3"
  top: "conv4"
  convolution_param {
    num_output: 36
    pad: 0
    stride: 1
    weight_filler {
      type: "xavier"
    }
    bias_filler {
      type: "constant"
    }
    kernel_h: 6
    kernel_w: 3
  }
}
layer {
  name: "relu4"
  type: "ReLU"
  bottom: "conv4"
  top: "conv4"
}
layer {
  name: "pool4"
  type: "Pooling"
  bottom: "conv4"
  top: "pool4"
  pooling_param {
    pool: MAX
    kernel_h: 2
    kernel_w: 1
    stride_h: 2
    stride_w: 1
  }
}
layer {
  name: "ip1"
  type: "InnerProduct"
  bottom: "pool4"
  top: "ip1"
  inner_product_param {
    num_output: 196
    weight_filler {
      type: "xavier"
    }
    bias_filler {
      type: "constant"
    }
  }
}
layer {
  name: "relu5"
  type: "ReLU"
  bottom: "ip1"
  top: "ip1"
}
layer {
  name: "drop1"
  type: "Dropout"
  bottom: "ip1"
  top: "ip1"
  dropout_param {
    dropout_ratio: 0.5
  }
}
layer {
  name: "ip2"
  type: "InnerProduct"
  bottom: "ip1"
  top: "ip2"
  inner_product_param {
    num_output: 98
    weight_filler {
      type: "xavier"
    }
    bias_filler {
      type: "constant"
    }
  }
}
layer {
  name: "relu6"
  type: "ReLU"
  bottom: "ip2"
  top: "ip2"
}
layer {
  name: "drop2"
  type: "Dropout"
  bottom: "ip2"
  top: "ip2"
  dropout_param {
    dropout_ratio: 0.5
  }
}
layer {
  name: "ip3"
  type: "InnerProduct"
  bottom: "ip2"
  top: "ip3"
  inner_product_param {
    num_output: 11
    weight_filler {
      type: "xavier"
    }
    bias_filler {
      type: "constant"
    }
  }
}
layer {
  name: "drop3"
  type: "Dropout"
  bottom: "ip3"
  top: "ip3"
  dropout_param {
    dropout_ratio: 0.5
  }
}
layer {
  name: "loss"
  type: "SoftmaxWithLoss"
  bottom: "ip3"
  bottom: "label"
  top: "loss"
}
I0520 11:53:53.605412 23075 layer_factory.hpp:77] Creating layer data_hdf5
I0520 11:53:53.605448 23075 net.cpp:106] Creating Layer data_hdf5
I0520 11:53:53.605466 23075 net.cpp:411] data_hdf5 -> data
I0520 11:53:53.605500 23075 net.cpp:411] data_hdf5 -> label
I0520 11:53:53.605543 23075 hdf5_data_layer.cpp:79] Loading list of HDF5 filenames from: /lustre/atlas/proj-shared/hep105/caffe_titan/minosmatch_nukecczdefs_127x50_x_unshifted_me1Bmc.trainlist
I0520 11:53:53.606887 23075 hdf5_data_layer.cpp:93] Number of HDF5 files: 15
I0520 11:53:53.609177 23075 hdf5.cpp:32] Datatype class: H5T_FLOAT
I0520 11:54:15.160588 23075 hdf5.cpp:35] Datatype class: H5T_INTEGER
I0520 11:54:15.165778 23075 net.cpp:150] Setting up data_hdf5
I0520 11:54:15.165818 23075 net.cpp:157] Top shape: 280 1 127 50 (1778000)
I0520 11:54:15.165837 23075 net.cpp:157] Top shape: 280 (280)
I0520 11:54:15.165849 23075 net.cpp:165] Memory required for data: 7113120
I0520 11:54:15.165868 23075 layer_factory.hpp:77] Creating layer conv1
I0520 11:54:15.165915 23075 net.cpp:106] Creating Layer conv1
I0520 11:54:15.165928 23075 net.cpp:454] conv1 <- data
I0520 11:54:15.165953 23075 net.cpp:411] conv1 -> conv1
I0520 11:54:15.540383 23075 net.cpp:150] Setting up conv1
I0520 11:54:15.540437 23075 net.cpp:157] Top shape: 280 12 120 48 (19353600)
I0520 11:54:15.540460 23075 net.cpp:165] Memory required for data: 84527520
I0520 11:54:15.540490 23075 layer_factory.hpp:77] Creating layer relu1
I0520 11:54:15.540513 23075 net.cpp:106] Creating Layer relu1
I0520 11:54:15.540534 23075 net.cpp:454] relu1 <- conv1
I0520 11:54:15.540570 23075 net.cpp:397] relu1 -> conv1 (in-place)
I0520 11:54:15.541100 23075 net.cpp:150] Setting up relu1
I0520 11:54:15.541124 23075 net.cpp:157] Top shape: 280 12 120 48 (19353600)
I0520 11:54:15.541137 23075 net.cpp:165] Memory required for data: 161941920
I0520 11:54:15.541153 23075 layer_factory.hpp:77] Creating layer pool1
I0520 11:54:15.541180 23075 net.cpp:106] Creating Layer pool1
I0520 11:54:15.541193 23075 net.cpp:454] pool1 <- conv1
I0520 11:54:15.541209 23075 net.cpp:411] pool1 -> pool1
I0520 11:54:15.541302 23075 net.cpp:150] Setting up pool1
I0520 11:54:15.541321 23075 net.cpp:157] Top shape: 280 12 60 48 (9676800)
I0520 11:54:15.541335 23075 net.cpp:165] Memory required for data: 200649120
I0520 11:54:15.541354 23075 layer_factory.hpp:77] Creating layer conv2
I0520 11:54:15.541378 23075 net.cpp:106] Creating Layer conv2
I0520 11:54:15.541399 23075 net.cpp:454] conv2 <- pool1
I0520 11:54:15.541414 23075 net.cpp:411] conv2 -> conv2
I0520 11:54:15.544137 23075 net.cpp:150] Setting up conv2
I0520 11:54:15.544170 23075 net.cpp:157] Top shape: 280 20 54 46 (13910400)
I0520 11:54:15.544184 23075 net.cpp:165] Memory required for data: 256290720
I0520 11:54:15.544211 23075 layer_factory.hpp:77] Creating layer relu2
I0520 11:54:15.544239 23075 net.cpp:106] Creating Layer relu2
I0520 11:54:15.544253 23075 net.cpp:454] relu2 <- conv2
I0520 11:54:15.544270 23075 net.cpp:397] relu2 -> conv2 (in-place)
I0520 11:54:15.544626 23075 net.cpp:150] Setting up relu2
I0520 11:54:15.544647 23075 net.cpp:157] Top shape: 280 20 54 46 (13910400)
I0520 11:54:15.544661 23075 net.cpp:165] Memory required for data: 311932320
I0520 11:54:15.544672 23075 layer_factory.hpp:77] Creating layer pool2
I0520 11:54:15.544698 23075 net.cpp:106] Creating Layer pool2
I0520 11:54:15.544711 23075 net.cpp:454] pool2 <- conv2
I0520 11:54:15.544747 23075 net.cpp:411] pool2 -> pool2
I0520 11:54:15.544831 23075 net.cpp:150] Setting up pool2
I0520 11:54:15.544848 23075 net.cpp:157] Top shape: 280 20 27 46 (6955200)
I0520 11:54:15.544863 23075 net.cpp:165] Memory required for data: 339753120
I0520 11:54:15.544881 23075 layer_factory.hpp:77] Creating layer conv3
I0520 11:54:15.544903 23075 net.cpp:106] Creating Layer conv3
I0520 11:54:15.544916 23075 net.cpp:454] conv3 <- pool2
I0520 11:54:15.544932 23075 net.cpp:411] conv3 -> conv3
I0520 11:54:15.546898 23075 net.cpp:150] Setting up conv3
I0520 11:54:15.546923 23075 net.cpp:157] Top shape: 280 28 22 44 (7589120)
I0520 11:54:15.546943 23075 net.cpp:165] Memory required for data: 370109600
I0520 11:54:15.546965 23075 layer_factory.hpp:77] Creating layer relu3
I0520 11:54:15.546988 23075 net.cpp:106] Creating Layer relu3
I0520 11:54:15.547009 23075 net.cpp:454] relu3 <- conv3
I0520 11:54:15.547025 23075 net.cpp:397] relu3 -> conv3 (in-place)
I0520 11:54:15.547520 23075 net.cpp:150] Setting up relu3
I0520 11:54:15.547545 23075 net.cpp:157] Top shape: 280 28 22 44 (7589120)
I0520 11:54:15.547559 23075 net.cpp:165] Memory required for data: 400466080
I0520 11:54:15.547574 23075 layer_factory.hpp:77] Creating layer pool3
I0520 11:54:15.547590 23075 net.cpp:106] Creating Layer pool3
I0520 11:54:15.547611 23075 net.cpp:454] pool3 <- conv3
I0520 11:54:15.547627 23075 net.cpp:411] pool3 -> pool3
I0520 11:54:15.547709 23075 net.cpp:150] Setting up pool3
I0520 11:54:15.547732 23075 net.cpp:157] Top shape: 280 28 11 44 (3794560)
I0520 11:54:15.547745 23075 net.cpp:165] Memory required for data: 415644320
I0520 11:54:15.547757 23075 layer_factory.hpp:77] Creating layer conv4
I0520 11:54:15.547780 23075 net.cpp:106] Creating Layer conv4
I0520 11:54:15.547799 23075 net.cpp:454] conv4 <- pool3
I0520 11:54:15.547816 23075 net.cpp:411] conv4 -> conv4
I0520 11:54:15.550559 23075 net.cpp:150] Setting up conv4
I0520 11:54:15.550591 23075 net.cpp:157] Top shape: 280 36 6 42 (2540160)
I0520 11:54:15.550606 23075 net.cpp:165] Memory required for data: 425804960
I0520 11:54:15.550626 23075 layer_factory.hpp:77] Creating layer relu4
I0520 11:54:15.550647 23075 net.cpp:106] Creating Layer relu4
I0520 11:54:15.550673 23075 net.cpp:454] relu4 <- conv4
I0520 11:54:15.550688 23075 net.cpp:397] relu4 -> conv4 (in-place)
I0520 11:54:15.551179 23075 net.cpp:150] Setting up relu4
I0520 11:54:15.551203 23075 net.cpp:157] Top shape: 280 36 6 42 (2540160)
I0520 11:54:15.551232 23075 net.cpp:165] Memory required for data: 435965600
I0520 11:54:15.551247 23075 layer_factory.hpp:77] Creating layer pool4
I0520 11:54:15.551272 23075 net.cpp:106] Creating Layer pool4
I0520 11:54:15.551286 23075 net.cpp:454] pool4 <- conv4
I0520 11:54:15.551302 23075 net.cpp:411] pool4 -> pool4
I0520 11:54:15.551384 23075 net.cpp:150] Setting up pool4
I0520 11:54:15.551405 23075 net.cpp:157] Top shape: 280 36 3 42 (1270080)
I0520 11:54:15.551419 23075 net.cpp:165] Memory required for data: 441045920
I0520 11:54:15.551437 23075 layer_factory.hpp:77] Creating layer ip1
I0520 11:54:15.551460 23075 net.cpp:106] Creating Layer ip1
I0520 11:54:15.551472 23075 net.cpp:454] ip1 <- pool4
I0520 11:54:15.551487 23075 net.cpp:411] ip1 -> ip1
I0520 11:54:15.566906 23075 net.cpp:150] Setting up ip1
I0520 11:54:15.566943 23075 net.cpp:157] Top shape: 280 196 (54880)
I0520 11:54:15.566958 23075 net.cpp:165] Memory required for data: 441265440
I0520 11:54:15.566988 23075 layer_factory.hpp:77] Creating layer relu5
I0520 11:54:15.567018 23075 net.cpp:106] Creating Layer relu5
I0520 11:54:15.567033 23075 net.cpp:454] relu5 <- ip1
I0520 11:54:15.567047 23075 net.cpp:397] relu5 -> ip1 (in-place)
I0520 11:54:15.567425 23075 net.cpp:150] Setting up relu5
I0520 11:54:15.567445 23075 net.cpp:157] Top shape: 280 196 (54880)
I0520 11:54:15.567459 23075 net.cpp:165] Memory required for data: 441484960
I0520 11:54:15.567471 23075 layer_factory.hpp:77] Creating layer drop1
I0520 11:54:15.567507 23075 net.cpp:106] Creating Layer drop1
I0520 11:54:15.567520 23075 net.cpp:454] drop1 <- ip1
I0520 11:54:15.567549 23075 net.cpp:397] drop1 -> ip1 (in-place)
I0520 11:54:15.567608 23075 net.cpp:150] Setting up drop1
I0520 11:54:15.567625 23075 net.cpp:157] Top shape: 280 196 (54880)
I0520 11:54:15.567638 23075 net.cpp:165] Memory required for data: 441704480
I0520 11:54:15.567653 23075 layer_factory.hpp:77] Creating layer ip2
I0520 11:54:15.567674 23075 net.cpp:106] Creating Layer ip2
I0520 11:54:15.567687 23075 net.cpp:454] ip2 <- ip1
I0520 11:54:15.567703 23075 net.cpp:411] ip2 -> ip2
I0520 11:54:15.568195 23075 net.cpp:150] Setting up ip2
I0520 11:54:15.568215 23075 net.cpp:157] Top shape: 280 98 (27440)
I0520 11:54:15.568228 23075 net.cpp:165] Memory required for data: 441814240
I0520 11:54:15.568248 23075 layer_factory.hpp:77] Creating layer relu6
I0520 11:54:15.568270 23075 net.cpp:106] Creating Layer relu6
I0520 11:54:15.568284 23075 net.cpp:454] relu6 <- ip2
I0520 11:54:15.568300 23075 net.cpp:397] relu6 -> ip2 (in-place)
I0520 11:54:15.568845 23075 net.cpp:150] Setting up relu6
I0520 11:54:15.568868 23075 net.cpp:157] Top shape: 280 98 (27440)
I0520 11:54:15.568882 23075 net.cpp:165] Memory required for data: 441924000
I0520 11:54:15.568898 23075 layer_factory.hpp:77] Creating layer drop2
I0520 11:54:15.568922 23075 net.cpp:106] Creating Layer drop2
I0520 11:54:15.568935 23075 net.cpp:454] drop2 <- ip2
I0520 11:54:15.568950 23075 net.cpp:397] drop2 -> ip2 (in-place)
I0520 11:54:15.569000 23075 net.cpp:150] Setting up drop2
I0520 11:54:15.569022 23075 net.cpp:157] Top shape: 280 98 (27440)
I0520 11:54:15.569036 23075 net.cpp:165] Memory required for data: 442033760
I0520 11:54:15.569048 23075 layer_factory.hpp:77] Creating layer ip3
I0520 11:54:15.569064 23075 net.cpp:106] Creating Layer ip3
I0520 11:54:15.569078 23075 net.cpp:454] ip3 <- ip2
I0520 11:54:15.569100 23075 net.cpp:411] ip3 -> ip3
I0520 11:54:15.569325 23075 net.cpp:150] Setting up ip3
I0520 11:54:15.569345 23075 net.cpp:157] Top shape: 280 11 (3080)
I0520 11:54:15.569357 23075 net.cpp:165] Memory required for data: 442046080
I0520 11:54:15.569378 23075 layer_factory.hpp:77] Creating layer drop3
I0520 11:54:15.569399 23075 net.cpp:106] Creating Layer drop3
I0520 11:54:15.569412 23075 net.cpp:454] drop3 <- ip3
I0520 11:54:15.569428 23075 net.cpp:397] drop3 -> ip3 (in-place)
I0520 11:54:15.569476 23075 net.cpp:150] Setting up drop3
I0520 11:54:15.569499 23075 net.cpp:157] Top shape: 280 11 (3080)
I0520 11:54:15.569511 23075 net.cpp:165] Memory required for data: 442058400
I0520 11:54:15.569532 23075 layer_factory.hpp:77] Creating layer loss
I0520 11:54:15.569555 23075 net.cpp:106] Creating Layer loss
I0520 11:54:15.569569 23075 net.cpp:454] loss <- ip3
I0520 11:54:15.569582 23075 net.cpp:454] loss <- label
I0520 11:54:15.569605 23075 net.cpp:411] loss -> loss
I0520 11:54:15.569624 23075 layer_factory.hpp:77] Creating layer loss
…
I0520 11:54:15.572464 23075 solver.cpp:181] Creating test net (#0) specified by net file: /lustre/atlas/proj-shared/hep105/caffe_titan/caffe_workflow/logs_batch_size_test/batch_size_280_2016-05-20T11.20.42.939096.prototxt
I0520 11:54:15.572543 23075 net.cpp:322] The NetState phase (1) differed from the phase (0) specified by a rule in layer data_hdf5
I0520 11:54:15.572924 23075 net.cpp:49] Initializing net from parameters: 
name: "caffe_test_127x50_x_unshifted"
state {
  phase: TEST
}
layer {
  name: "data_hdf5"
  type: "HDF5Data"
  top: "data"
  top: "label"
  include {
    phase: TEST
  }
  hdf5_data_param {
    source: "/lustre/atlas/proj-shared/hep105/caffe_titan/minosmatch_nukecczdefs_127x50_x_unshifted_me1Bmc.testlist"
    batch_size: 280
  }
}
layer {
  name: "conv1"
  type: "Convolution"
  bottom: "data"
  top: "conv1"
  convolution_param {
    num_output: 12
    pad: 0
    stride: 1
    weight_filler {
      type: "xavier"
    }
    bias_filler {
      type: "constant"
    }
    kernel_h: 8
    kernel_w: 3
  }
}
layer {
  name: "relu1"
  type: "ReLU"
  bottom: "conv1"
  top: "conv1"
}
layer {
  name: "pool1"
  type: "Pooling"
  bottom: "conv1"
  top: "pool1"
  pooling_param {
    pool: MAX
    kernel_h: 2
    kernel_w: 1
    stride_h: 2
    stride_w: 1
  }
}
layer {
  name: "conv2"
  type: "Convolution"
  bottom: "pool1"
  top: "conv2"
  convolution_param {
    num_output: 20
    pad: 0
    stride: 1
    weight_filler {
      type: "xavier"
    }
    bias_filler {
      type: "constant"
    }
    kernel_h: 7
    kernel_w: 3
  }
}
layer {
  name: "relu2"
  type: "ReLU"
  bottom: "conv2"
  top: "conv2"
}
layer {
  name: "pool2"
  type: "Pooling"
  bottom: "conv2"
  top: "pool2"
  pooling_param {
    pool: MAX
    kernel_h: 2
    kernel_w: 1
    stride_h: 2
    stride_w: 1
  }
}
layer {
  name: "conv3"
  type: "Convolution"
  bottom: "pool2"
  top: "conv3"
  convolution_param {
    num_output: 28
    pad: 0
    stride: 1
    weight_filler {
      type: "xavier"
    }
    bias_filler {
      type: "constant"
    }
    kernel_h: 6
    kernel_w: 3
  }
}
layer {
  name: "relu3"
  type: "ReLU"
  bottom: "conv3"
  top: "conv3"
}
layer {
  name: "pool3"
  type: "Pooling"
  bottom: "conv3"
  top: "pool3"
  pooling_param {
    pool: MAX
    kernel_h: 2
    kernel_w: 1
    stride_h: 2
    stride_w: 1
  }
}
layer {
  name: "conv4"
  type: "Convolution"
  bottom: "pool3"
  top: "conv4"
  convolution_param {
    num_output: 36
    pad: 0
    stride: 1
    weight_filler {
      type: "xavier"
    }
    bias_filler {
      type: "constant"
    }
    kernel_h: 6
    kernel_w: 3
  }
}
layer {
  name: "relu4"
  type: "ReLU"
  bottom: "conv4"
  top: "conv4"
}
layer {
  name: "pool4"
  type: "Pooling"
  bottom: "conv4"
  top: "pool4"
  pooling_param {
    pool: MAX
    kernel_h: 2
    kernel_w: 1
    stride_h: 2
    stride_w: 1
  }
}
layer {
  name: "ip1"
  type: "InnerProduct"
  bottom: "pool4"
  top: "ip1"
  inner_product_param {
    num_output: 196
    weight_filler {
      type: "xavier"
    }
    bias_filler {
      type: "constant"
    }
  }
}
layer {
  name: "relu5"
  type: "ReLU"
  bottom: "ip1"
  top: "ip1"
}
layer {
  name: "drop1"
  type: "Dropout"
  bottom: "ip1"
  top: "ip1"
  dropout_param {
    dropout_ratio: 0.5
  }
}
layer {
  name: "ip2"
  type: "InnerProduct"
  bottom: "ip1"
  top: "ip2"
  inner_product_param {
    num_output: 98
    weight_filler {
      type: "xavier"
    }
    bias_filler {
      type: "constant"
    }
  }
}
layer {
  name: "relu6"
  type: "ReLU"
  bottom: "ip2"
  top: "ip2"
}
layer {
  name: "drop2"
  type: "Dropout"
  bottom: "ip2"
  top: "ip2"
  dropout_param {
    dropout_ratio: 0.5
  }
}
layer {
  name: "ip3"
  type: "InnerProduct"
  bottom: "ip2"
  top: "ip3"
  inner_product_param {
    num_output: 11
    weight_filler {
      type: "xavier"
    }
    bias_filler {
      type: "constant"
    }
  }
}
layer {
  name: "drop3"
  type: "Dropout"
  bottom: "ip3"
  top: "ip3"
  dropout_param {
    dropout_ratio: 0.5
  }
}
layer {
  name: "accuracy"
  type: "Accuracy"
  bottom: "ip3"
  bottom: "label"
  top: "accuracy"
  include {
    phase: TEST
  }
}
layer {
  name: "loss"
  type: "SoftmaxWithLoss"
  bottom: "ip3"
  bottom: "label"
  top: "loss"
}
I0520 11:54:15.573146 23075 layer_factory.hpp:77] Creating layer data_hdf5
I0520 11:54:15.573166 23075 net.cpp:106] Creating Layer data_hdf5
I0520 11:54:15.573184 23075 net.cpp:411] data_hdf5 -> data
I0520 11:54:15.573204 23075 net.cpp:411] data_hdf5 -> label
I0520 11:54:15.573225 23075 hdf5_data_layer.cpp:79] Loading list of HDF5 filenames from: /lustre/atlas/proj-shared/hep105/caffe_titan/minosmatch_nukecczdefs_127x50_x_unshifted_me1Bmc.testlist
I0520 11:54:15.574640 23075 hdf5_data_layer.cpp:93] Number of HDF5 files: 3
I0520 11:54:36.884445 23075 net.cpp:150] Setting up data_hdf5
I0520 11:54:36.884616 23075 net.cpp:157] Top shape: 280 1 127 50 (1778000)
I0520 11:54:36.884634 23075 net.cpp:157] Top shape: 280 (280)
I0520 11:54:36.884647 23075 net.cpp:165] Memory required for data: 7113120
I0520 11:54:36.884662 23075 layer_factory.hpp:77] Creating layer label_data_hdf5_1_split
I0520 11:54:36.884696 23075 net.cpp:106] Creating Layer label_data_hdf5_1_split
I0520 11:54:36.884728 23075 net.cpp:454] label_data_hdf5_1_split <- label
I0520 11:54:36.884747 23075 net.cpp:411] label_data_hdf5_1_split -> label_data_hdf5_1_split_0
I0520 11:54:36.884769 23075 net.cpp:411] label_data_hdf5_1_split -> label_data_hdf5_1_split_1
I0520 11:54:36.884855 23075 net.cpp:150] Setting up label_data_hdf5_1_split
I0520 11:54:36.884873 23075 net.cpp:157] Top shape: 280 (280)
I0520 11:54:36.884888 23075 net.cpp:157] Top shape: 280 (280)
I0520 11:54:36.884912 23075 net.cpp:165] Memory required for data: 7115360
I0520 11:54:36.884924 23075 layer_factory.hpp:77] Creating layer conv1
I0520 11:54:36.884950 23075 net.cpp:106] Creating Layer conv1
I0520 11:54:36.884969 23075 net.cpp:454] conv1 <- data
I0520 11:54:36.884987 23075 net.cpp:411] conv1 -> conv1
I0520 11:54:36.886934 23075 net.cpp:150] Setting up conv1
I0520 11:54:36.886960 23075 net.cpp:157] Top shape: 280 12 120 48 (19353600)
I0520 11:54:36.886981 23075 net.cpp:165] Memory required for data: 84529760
I0520 11:54:36.887003 23075 layer_factory.hpp:77] Creating layer relu1
I0520 11:54:36.887025 23075 net.cpp:106] Creating Layer relu1
I0520 11:54:36.887048 23075 net.cpp:454] relu1 <- conv1
I0520 11:54:36.887063 23075 net.cpp:397] relu1 -> conv1 (in-place)
I0520 11:54:36.887588 23075 net.cpp:150] Setting up relu1
I0520 11:54:36.887611 23075 net.cpp:157] Top shape: 280 12 120 48 (19353600)
I0520 11:54:36.887624 23075 net.cpp:165] Memory required for data: 161944160
I0520 11:54:36.887640 23075 layer_factory.hpp:77] Creating layer pool1
I0520 11:54:36.887666 23075 net.cpp:106] Creating Layer pool1
I0520 11:54:36.887679 23075 net.cpp:454] pool1 <- conv1
I0520 11:54:36.887696 23075 net.cpp:411] pool1 -> pool1
I0520 11:54:36.887784 23075 net.cpp:150] Setting up pool1
I0520 11:54:36.887800 23075 net.cpp:157] Top shape: 280 12 60 48 (9676800)
I0520 11:54:36.887815 23075 net.cpp:165] Memory required for data: 200651360
I0520 11:54:36.887833 23075 layer_factory.hpp:77] Creating layer conv2
I0520 11:54:36.887855 23075 net.cpp:106] Creating Layer conv2
I0520 11:54:36.887867 23075 net.cpp:454] conv2 <- pool1
I0520 11:54:36.887884 23075 net.cpp:411] conv2 -> conv2
I0520 11:54:36.889825 23075 net.cpp:150] Setting up conv2
I0520 11:54:36.889853 23075 net.cpp:157] Top shape: 280 20 54 46 (13910400)
I0520 11:54:36.889868 23075 net.cpp:165] Memory required for data: 256292960
I0520 11:54:36.889892 23075 layer_factory.hpp:77] Creating layer relu2
I0520 11:54:36.889919 23075 net.cpp:106] Creating Layer relu2
I0520 11:54:36.889931 23075 net.cpp:454] relu2 <- conv2
I0520 11:54:36.889948 23075 net.cpp:397] relu2 -> conv2 (in-place)
I0520 11:54:36.890306 23075 net.cpp:150] Setting up relu2
I0520 11:54:36.890326 23075 net.cpp:157] Top shape: 280 20 54 46 (13910400)
I0520 11:54:36.890339 23075 net.cpp:165] Memory required for data: 311934560
I0520 11:54:36.890354 23075 layer_factory.hpp:77] Creating layer pool2
I0520 11:54:36.890377 23075 net.cpp:106] Creating Layer pool2
I0520 11:54:36.890390 23075 net.cpp:454] pool2 <- conv2
I0520 11:54:36.890406 23075 net.cpp:411] pool2 -> pool2
I0520 11:54:36.890498 23075 net.cpp:150] Setting up pool2
I0520 11:54:36.890516 23075 net.cpp:157] Top shape: 280 20 27 46 (6955200)
I0520 11:54:36.890528 23075 net.cpp:165] Memory required for data: 339755360
I0520 11:54:36.890543 23075 layer_factory.hpp:77] Creating layer conv3
I0520 11:54:36.890570 23075 net.cpp:106] Creating Layer conv3
I0520 11:54:36.890584 23075 net.cpp:454] conv3 <- pool2
I0520 11:54:36.890601 23075 net.cpp:411] conv3 -> conv3
I0520 11:54:36.892613 23075 net.cpp:150] Setting up conv3
I0520 11:54:36.892638 23075 net.cpp:157] Top shape: 280 28 22 44 (7589120)
I0520 11:54:36.892658 23075 net.cpp:165] Memory required for data: 370111840
I0520 11:54:36.892698 23075 layer_factory.hpp:77] Creating layer relu3
I0520 11:54:36.892722 23075 net.cpp:106] Creating Layer relu3
I0520 11:54:36.892736 23075 net.cpp:454] relu3 <- conv3
I0520 11:54:36.892753 23075 net.cpp:397] relu3 -> conv3 (in-place)
I0520 11:54:36.893249 23075 net.cpp:150] Setting up relu3
I0520 11:54:36.893271 23075 net.cpp:157] Top shape: 280 28 22 44 (7589120)
I0520 11:54:36.893285 23075 net.cpp:165] Memory required for data: 400468320
I0520 11:54:36.893301 23075 layer_factory.hpp:77] Creating layer pool3
I0520 11:54:36.893324 23075 net.cpp:106] Creating Layer pool3
I0520 11:54:36.893338 23075 net.cpp:454] pool3 <- conv3
I0520 11:54:36.893353 23075 net.cpp:411] pool3 -> pool3
I0520 11:54:36.893440 23075 net.cpp:150] Setting up pool3
I0520 11:54:36.893456 23075 net.cpp:157] Top shape: 280 28 11 44 (3794560)
I0520 11:54:36.893471 23075 net.cpp:165] Memory required for data: 415646560
I0520 11:54:36.893483 23075 layer_factory.hpp:77] Creating layer conv4
I0520 11:54:36.893510 23075 net.cpp:106] Creating Layer conv4
I0520 11:54:36.893523 23075 net.cpp:454] conv4 <- pool3
I0520 11:54:36.893540 23075 net.cpp:411] conv4 -> conv4
I0520 11:54:36.895632 23075 net.cpp:150] Setting up conv4
I0520 11:54:36.895655 23075 net.cpp:157] Top shape: 280 36 6 42 (2540160)
I0520 11:54:36.895669 23075 net.cpp:165] Memory required for data: 425807200
I0520 11:54:36.895691 23075 layer_factory.hpp:77] Creating layer relu4
I0520 11:54:36.895715 23075 net.cpp:106] Creating Layer relu4
I0520 11:54:36.895730 23075 net.cpp:454] relu4 <- conv4
I0520 11:54:36.895746 23075 net.cpp:397] relu4 -> conv4 (in-place)
I0520 11:54:36.896245 23075 net.cpp:150] Setting up relu4
I0520 11:54:36.896267 23075 net.cpp:157] Top shape: 280 36 6 42 (2540160)
I0520 11:54:36.896281 23075 net.cpp:165] Memory required for data: 435967840
I0520 11:54:36.896292 23075 layer_factory.hpp:77] Creating layer pool4
I0520 11:54:36.896312 23075 net.cpp:106] Creating Layer pool4
I0520 11:54:36.896333 23075 net.cpp:454] pool4 <- conv4
I0520 11:54:36.896350 23075 net.cpp:411] pool4 -> pool4
I0520 11:54:36.896435 23075 net.cpp:150] Setting up pool4
I0520 11:54:36.896457 23075 net.cpp:157] Top shape: 280 36 3 42 (1270080)
I0520 11:54:36.896471 23075 net.cpp:165] Memory required for data: 441048160
I0520 11:54:36.896484 23075 layer_factory.hpp:77] Creating layer ip1
I0520 11:54:36.896502 23075 net.cpp:106] Creating Layer ip1
I0520 11:54:36.896522 23075 net.cpp:454] ip1 <- pool4
I0520 11:54:36.896538 23075 net.cpp:411] ip1 -> ip1
I0520 11:54:36.912052 23075 net.cpp:150] Setting up ip1
I0520 11:54:36.912082 23075 net.cpp:157] Top shape: 280 196 (54880)
I0520 11:54:36.912103 23075 net.cpp:165] Memory required for data: 441267680
I0520 11:54:36.912129 23075 layer_factory.hpp:77] Creating layer relu5
I0520 11:54:36.912152 23075 net.cpp:106] Creating Layer relu5
I0520 11:54:36.912176 23075 net.cpp:454] relu5 <- ip1
I0520 11:54:36.912194 23075 net.cpp:397] relu5 -> ip1 (in-place)
I0520 11:54:36.912555 23075 net.cpp:150] Setting up relu5
I0520 11:54:36.912576 23075 net.cpp:157] Top shape: 280 196 (54880)
I0520 11:54:36.912590 23075 net.cpp:165] Memory required for data: 441487200
I0520 11:54:36.912605 23075 layer_factory.hpp:77] Creating layer drop1
I0520 11:54:36.912632 23075 net.cpp:106] Creating Layer drop1
I0520 11:54:36.912647 23075 net.cpp:454] drop1 <- ip1
I0520 11:54:36.912663 23075 net.cpp:397] drop1 -> ip1 (in-place)
I0520 11:54:36.912722 23075 net.cpp:150] Setting up drop1
I0520 11:54:36.912739 23075 net.cpp:157] Top shape: 280 196 (54880)
I0520 11:54:36.912751 23075 net.cpp:165] Memory required for data: 441706720
I0520 11:54:36.912765 23075 layer_factory.hpp:77] Creating layer ip2
I0520 11:54:36.912783 23075 net.cpp:106] Creating Layer ip2
I0520 11:54:36.912796 23075 net.cpp:454] ip2 <- ip1
I0520 11:54:36.912817 23075 net.cpp:411] ip2 -> ip2
I0520 11:54:36.913311 23075 net.cpp:150] Setting up ip2
I0520 11:54:36.913331 23075 net.cpp:157] Top shape: 280 98 (27440)
I0520 11:54:36.913343 23075 net.cpp:165] Memory required for data: 441816480
I0520 11:54:36.913383 23075 layer_factory.hpp:77] Creating layer relu6
I0520 11:54:36.913399 23075 net.cpp:106] Creating Layer relu6
I0520 11:54:36.913411 23075 net.cpp:454] relu6 <- ip2
I0520 11:54:36.913429 23075 net.cpp:397] relu6 -> ip2 (in-place)
I0520 11:54:36.913987 23075 net.cpp:150] Setting up relu6
I0520 11:54:36.914011 23075 net.cpp:157] Top shape: 280 98 (27440)
I0520 11:54:36.914024 23075 net.cpp:165] Memory required for data: 441926240
I0520 11:54:36.914036 23075 layer_factory.hpp:77] Creating layer drop2
I0520 11:54:36.914055 23075 net.cpp:106] Creating Layer drop2
I0520 11:54:36.914077 23075 net.cpp:454] drop2 <- ip2
I0520 11:54:36.914093 23075 net.cpp:397] drop2 -> ip2 (in-place)
I0520 11:54:36.914146 23075 net.cpp:150] Setting up drop2
I0520 11:54:36.914170 23075 net.cpp:157] Top shape: 280 98 (27440)
I0520 11:54:36.914182 23075 net.cpp:165] Memory required for data: 442036000
I0520 11:54:36.914201 23075 layer_factory.hpp:77] Creating layer ip3
I0520 11:54:36.914217 23075 net.cpp:106] Creating Layer ip3
I0520 11:54:36.914229 23075 net.cpp:454] ip3 <- ip2
I0520 11:54:36.914248 23075 net.cpp:411] ip3 -> ip3
I0520 11:54:36.914494 23075 net.cpp:150] Setting up ip3
I0520 11:54:36.914512 23075 net.cpp:157] Top shape: 280 11 (3080)
I0520 11:54:36.914525 23075 net.cpp:165] Memory required for data: 442048320
I0520 11:54:36.914546 23075 layer_factory.hpp:77] Creating layer drop3
I0520 11:54:36.914568 23075 net.cpp:106] Creating Layer drop3
I0520 11:54:36.914582 23075 net.cpp:454] drop3 <- ip3
I0520 11:54:36.914597 23075 net.cpp:397] drop3 -> ip3 (in-place)
I0520 11:54:36.914645 23075 net.cpp:150] Setting up drop3
I0520 11:54:36.914667 23075 net.cpp:157] Top shape: 280 11 (3080)
I0520 11:54:36.914680 23075 net.cpp:165] Memory required for data: 442060640
I0520 11:54:36.914697 23075 layer_factory.hpp:77] Creating layer ip3_drop3_0_split
I0520 11:54:36.914713 23075 net.cpp:106] Creating Layer ip3_drop3_0_split
I0520 11:54:36.914726 23075 net.cpp:454] ip3_drop3_0_split <- ip3
I0520 11:54:36.914743 23075 net.cpp:411] ip3_drop3_0_split -> ip3_drop3_0_split_0
I0520 11:54:36.914768 23075 net.cpp:411] ip3_drop3_0_split -> ip3_drop3_0_split_1
I0520 11:54:36.914855 23075 net.cpp:150] Setting up ip3_drop3_0_split
I0520 11:54:36.914871 23075 net.cpp:157] Top shape: 280 11 (3080)
I0520 11:54:36.914887 23075 net.cpp:157] Top shape: 280 11 (3080)
I0520 11:54:36.914898 23075 net.cpp:165] Memory required for data: 442085280
I0520 11:54:36.914913 23075 layer_factory.hpp:77] Creating layer accuracy
I0520 11:54:36.914943 23075 net.cpp:106] Creating Layer accuracy
I0520 11:54:36.914957 23075 net.cpp:454] accuracy <- ip3_drop3_0_split_0
I0520 11:54:36.914970 23075 net.cpp:454] accuracy <- label_data_hdf5_1_split_0
I0520 11:54:36.914986 23075 net.cpp:411] accuracy -> accuracy
…
