…
I0520 21:05:03.201935 31010 net.cpp:322] The NetState phase (0) differed from the phase (1) specified by a rule in layer data_hdf5
I0520 21:05:03.201994 31010 net.cpp:322] The NetState phase (0) differed from the phase (1) specified by a rule in layer accuracy
I0520 21:05:03.202340 31010 net.cpp:49] Initializing net from parameters: 
name: "caffe_test_127x50_x_unshifted"
state {
  phase: TRAIN
}
layer {
  name: "data_hdf5"
  type: "HDF5Data"
  top: "data"
  top: "label"
  include {
    phase: TRAIN
  }
  hdf5_data_param {
    source: "/lustre/atlas/proj-shared/hep105/caffe_titan/minosmatch_nukecczdefs_127x50_x_unshifted_me1Bmc.trainlist"
    batch_size: 310
  }
}
layer {
  name: "conv1"
  type: "Convolution"
  bottom: "data"
  top: "conv1"
  convolution_param {
    num_output: 12
    pad: 0
    stride: 1
    weight_filler {
      type: "xavier"
    }
    bias_filler {
      type: "constant"
    }
    kernel_h: 8
    kernel_w: 3
  }
}
layer {
  name: "relu1"
  type: "ReLU"
  bottom: "conv1"
  top: "conv1"
}
layer {
  name: "pool1"
  type: "Pooling"
  bottom: "conv1"
  top: "pool1"
  pooling_param {
    pool: MAX
    kernel_h: 2
    kernel_w: 1
    stride_h: 2
    stride_w: 1
  }
}
layer {
  name: "conv2"
  type: "Convolution"
  bottom: "pool1"
  top: "conv2"
  convolution_param {
    num_output: 20
    pad: 0
    stride: 1
    weight_filler {
      type: "xavier"
    }
    bias_filler {
      type: "constant"
    }
    kernel_h: 7
    kernel_w: 3
  }
}
layer {
  name: "relu2"
  type: "ReLU"
  bottom: "conv2"
  top: "conv2"
}
layer {
  name: "pool2"
  type: "Pooling"
  bottom: "conv2"
  top: "pool2"
  pooling_param {
    pool: MAX
    kernel_h: 2
    kernel_w: 1
    stride_h: 2
    stride_w: 1
  }
}
layer {
  name: "conv3"
  type: "Convolution"
  bottom: "pool2"
  top: "conv3"
  convolution_param {
    num_output: 28
    pad: 0
    stride: 1
    weight_filler {
      type: "xavier"
    }
    bias_filler {
      type: "constant"
    }
    kernel_h: 6
    kernel_w: 3
  }
}
layer {
  name: "relu3"
  type: "ReLU"
  bottom: "conv3"
  top: "conv3"
}
layer {
  name: "pool3"
  type: "Pooling"
  bottom: "conv3"
  top: "pool3"
  pooling_param {
    pool: MAX
    kernel_h: 2
    kernel_w: 1
    stride_h: 2
    stride_w: 1
  }
}
layer {
  name: "conv4"
  type: "Convolution"
  bottom: "pool3"
  top: "conv4"
  convolution_param {
    num_output: 36
    pad: 0
    stride: 1
    weight_filler {
      type: "xavier"
    }
    bias_filler {
      type: "constant"
    }
    kernel_h: 6
    kernel_w: 3
  }
}
layer {
  name: "relu4"
  type: "ReLU"
  bottom: "conv4"
  top: "conv4"
}
layer {
  name: "pool4"
  type: "Pooling"
  bottom: "conv4"
  top: "pool4"
  pooling_param {
    pool: MAX
    kernel_h: 2
    kernel_w: 1
    stride_h: 2
    stride_w: 1
  }
}
layer {
  name: "ip1"
  type: "InnerProduct"
  bottom: "pool4"
  top: "ip1"
  inner_product_param {
    num_output: 196
    weight_filler {
      type: "xavier"
    }
    bias_filler {
      type: "constant"
    }
  }
}
layer {
  name: "relu5"
  type: "ReLU"
  bottom: "ip1"
  top: "ip1"
}
layer {
  name: "drop1"
  type: "Dropout"
  bottom: "ip1"
  top: "ip1"
  dropout_param {
    dropout_ratio: 0.5
  }
}
layer {
  name: "ip2"
  type: "InnerProduct"
  bottom: "ip1"
  top: "ip2"
  inner_product_param {
    num_output: 98
    weight_filler {
      type: "xavier"
    }
    bias_filler {
      type: "constant"
    }
  }
}
layer {
  name: "relu6"
  type: "ReLU"
  bottom: "ip2"
  top: "ip2"
}
layer {
  name: "drop2"
  type: "Dropout"
  bottom: "ip2"
  top: "ip2"
  dropout_param {
    dropout_ratio: 0.5
  }
}
layer {
  name: "ip3"
  type: "InnerProduct"
  bottom: "ip2"
  top: "ip3"
  inner_product_param {
    num_output: 11
    weight_filler {
      type: "xavier"
    }
    bias_filler {
      type: "constant"
    }
  }
}
layer {
  name: "drop3"
  type: "Dropout"
  bottom: "ip3"
  top: "ip3"
  dropout_param {
    dropout_ratio: 0.5
  }
}
layer {
  name: "loss"
  type: "SoftmaxWithLoss"
  bottom: "ip3"
  bottom: "label"
  top: "loss"
}
I0520 21:05:03.202522 31010 layer_factory.hpp:77] Creating layer data_hdf5
I0520 21:05:03.202546 31010 net.cpp:106] Creating Layer data_hdf5
I0520 21:05:03.202561 31010 net.cpp:411] data_hdf5 -> data
I0520 21:05:03.202594 31010 net.cpp:411] data_hdf5 -> label
I0520 21:05:03.202625 31010 hdf5_data_layer.cpp:79] Loading list of HDF5 filenames from: /lustre/atlas/proj-shared/hep105/caffe_titan/minosmatch_nukecczdefs_127x50_x_unshifted_me1Bmc.trainlist
I0520 21:05:03.212779 31010 hdf5_data_layer.cpp:93] Number of HDF5 files: 15
I0520 21:05:03.238582 31010 hdf5.cpp:32] Datatype class: H5T_FLOAT
I0520 21:05:24.876137 31010 hdf5.cpp:35] Datatype class: H5T_INTEGER
I0520 21:05:24.881285 31010 net.cpp:150] Setting up data_hdf5
I0520 21:05:24.881326 31010 net.cpp:157] Top shape: 310 1 127 50 (1968500)
I0520 21:05:24.881340 31010 net.cpp:157] Top shape: 310 (310)
I0520 21:05:24.881350 31010 net.cpp:165] Memory required for data: 7875240
I0520 21:05:24.881364 31010 layer_factory.hpp:77] Creating layer conv1
I0520 21:05:24.881398 31010 net.cpp:106] Creating Layer conv1
I0520 21:05:24.881409 31010 net.cpp:454] conv1 <- data
I0520 21:05:24.881433 31010 net.cpp:411] conv1 -> conv1
I0520 21:05:26.052783 31010 net.cpp:150] Setting up conv1
I0520 21:05:26.052830 31010 net.cpp:157] Top shape: 310 12 120 48 (21427200)
I0520 21:05:26.052841 31010 net.cpp:165] Memory required for data: 93584040
I0520 21:05:26.052870 31010 layer_factory.hpp:77] Creating layer relu1
I0520 21:05:26.052891 31010 net.cpp:106] Creating Layer relu1
I0520 21:05:26.052901 31010 net.cpp:454] relu1 <- conv1
I0520 21:05:26.052916 31010 net.cpp:397] relu1 -> conv1 (in-place)
I0520 21:05:26.053437 31010 net.cpp:150] Setting up relu1
I0520 21:05:26.053454 31010 net.cpp:157] Top shape: 310 12 120 48 (21427200)
I0520 21:05:26.053465 31010 net.cpp:165] Memory required for data: 179292840
I0520 21:05:26.053477 31010 layer_factory.hpp:77] Creating layer pool1
I0520 21:05:26.053493 31010 net.cpp:106] Creating Layer pool1
I0520 21:05:26.053503 31010 net.cpp:454] pool1 <- conv1
I0520 21:05:26.053516 31010 net.cpp:411] pool1 -> pool1
I0520 21:05:26.053597 31010 net.cpp:150] Setting up pool1
I0520 21:05:26.053611 31010 net.cpp:157] Top shape: 310 12 60 48 (10713600)
I0520 21:05:26.053622 31010 net.cpp:165] Memory required for data: 222147240
I0520 21:05:26.053630 31010 layer_factory.hpp:77] Creating layer conv2
I0520 21:05:26.053652 31010 net.cpp:106] Creating Layer conv2
I0520 21:05:26.053663 31010 net.cpp:454] conv2 <- pool1
I0520 21:05:26.053675 31010 net.cpp:411] conv2 -> conv2
I0520 21:05:26.056408 31010 net.cpp:150] Setting up conv2
I0520 21:05:26.056437 31010 net.cpp:157] Top shape: 310 20 54 46 (15400800)
I0520 21:05:26.056447 31010 net.cpp:165] Memory required for data: 283750440
I0520 21:05:26.056466 31010 layer_factory.hpp:77] Creating layer relu2
I0520 21:05:26.056480 31010 net.cpp:106] Creating Layer relu2
I0520 21:05:26.056490 31010 net.cpp:454] relu2 <- conv2
I0520 21:05:26.056504 31010 net.cpp:397] relu2 -> conv2 (in-place)
I0520 21:05:26.056833 31010 net.cpp:150] Setting up relu2
I0520 21:05:26.056848 31010 net.cpp:157] Top shape: 310 20 54 46 (15400800)
I0520 21:05:26.056857 31010 net.cpp:165] Memory required for data: 345353640
I0520 21:05:26.056867 31010 layer_factory.hpp:77] Creating layer pool2
I0520 21:05:26.056880 31010 net.cpp:106] Creating Layer pool2
I0520 21:05:26.056890 31010 net.cpp:454] pool2 <- conv2
I0520 21:05:26.056915 31010 net.cpp:411] pool2 -> pool2
I0520 21:05:26.056983 31010 net.cpp:150] Setting up pool2
I0520 21:05:26.056996 31010 net.cpp:157] Top shape: 310 20 27 46 (7700400)
I0520 21:05:26.057006 31010 net.cpp:165] Memory required for data: 376155240
I0520 21:05:26.057015 31010 layer_factory.hpp:77] Creating layer conv3
I0520 21:05:26.057034 31010 net.cpp:106] Creating Layer conv3
I0520 21:05:26.057044 31010 net.cpp:454] conv3 <- pool2
I0520 21:05:26.057057 31010 net.cpp:411] conv3 -> conv3
I0520 21:05:26.058972 31010 net.cpp:150] Setting up conv3
I0520 21:05:26.058995 31010 net.cpp:157] Top shape: 310 28 22 44 (8402240)
I0520 21:05:26.059008 31010 net.cpp:165] Memory required for data: 409764200
I0520 21:05:26.059026 31010 layer_factory.hpp:77] Creating layer relu3
I0520 21:05:26.059042 31010 net.cpp:106] Creating Layer relu3
I0520 21:05:26.059052 31010 net.cpp:454] relu3 <- conv3
I0520 21:05:26.059064 31010 net.cpp:397] relu3 -> conv3 (in-place)
I0520 21:05:26.059538 31010 net.cpp:150] Setting up relu3
I0520 21:05:26.059556 31010 net.cpp:157] Top shape: 310 28 22 44 (8402240)
I0520 21:05:26.059566 31010 net.cpp:165] Memory required for data: 443373160
I0520 21:05:26.059576 31010 layer_factory.hpp:77] Creating layer pool3
I0520 21:05:26.059589 31010 net.cpp:106] Creating Layer pool3
I0520 21:05:26.059599 31010 net.cpp:454] pool3 <- conv3
I0520 21:05:26.059612 31010 net.cpp:411] pool3 -> pool3
I0520 21:05:26.059691 31010 net.cpp:150] Setting up pool3
I0520 21:05:26.059705 31010 net.cpp:157] Top shape: 310 28 11 44 (4201120)
I0520 21:05:26.059715 31010 net.cpp:165] Memory required for data: 460177640
I0520 21:05:26.059727 31010 layer_factory.hpp:77] Creating layer conv4
I0520 21:05:26.059744 31010 net.cpp:106] Creating Layer conv4
I0520 21:05:26.059756 31010 net.cpp:454] conv4 <- pool3
I0520 21:05:26.059769 31010 net.cpp:411] conv4 -> conv4
I0520 21:05:26.062541 31010 net.cpp:150] Setting up conv4
I0520 21:05:26.062571 31010 net.cpp:157] Top shape: 310 36 6 42 (2812320)
I0520 21:05:26.062580 31010 net.cpp:165] Memory required for data: 471426920
I0520 21:05:26.062597 31010 layer_factory.hpp:77] Creating layer relu4
I0520 21:05:26.062610 31010 net.cpp:106] Creating Layer relu4
I0520 21:05:26.062620 31010 net.cpp:454] relu4 <- conv4
I0520 21:05:26.062633 31010 net.cpp:397] relu4 -> conv4 (in-place)
I0520 21:05:26.063108 31010 net.cpp:150] Setting up relu4
I0520 21:05:26.063124 31010 net.cpp:157] Top shape: 310 36 6 42 (2812320)
I0520 21:05:26.063135 31010 net.cpp:165] Memory required for data: 482676200
I0520 21:05:26.063145 31010 layer_factory.hpp:77] Creating layer pool4
I0520 21:05:26.063158 31010 net.cpp:106] Creating Layer pool4
I0520 21:05:26.063169 31010 net.cpp:454] pool4 <- conv4
I0520 21:05:26.063181 31010 net.cpp:411] pool4 -> pool4
I0520 21:05:26.063249 31010 net.cpp:150] Setting up pool4
I0520 21:05:26.063262 31010 net.cpp:157] Top shape: 310 36 3 42 (1406160)
I0520 21:05:26.063273 31010 net.cpp:165] Memory required for data: 488300840
I0520 21:05:26.063283 31010 layer_factory.hpp:77] Creating layer ip1
I0520 21:05:26.063302 31010 net.cpp:106] Creating Layer ip1
I0520 21:05:26.063313 31010 net.cpp:454] ip1 <- pool4
I0520 21:05:26.063325 31010 net.cpp:411] ip1 -> ip1
I0520 21:05:26.078778 31010 net.cpp:150] Setting up ip1
I0520 21:05:26.078809 31010 net.cpp:157] Top shape: 310 196 (60760)
I0520 21:05:26.078820 31010 net.cpp:165] Memory required for data: 488543880
I0520 21:05:26.078843 31010 layer_factory.hpp:77] Creating layer relu5
I0520 21:05:26.078858 31010 net.cpp:106] Creating Layer relu5
I0520 21:05:26.078868 31010 net.cpp:454] relu5 <- ip1
I0520 21:05:26.078881 31010 net.cpp:397] relu5 -> ip1 (in-place)
I0520 21:05:26.079226 31010 net.cpp:150] Setting up relu5
I0520 21:05:26.079239 31010 net.cpp:157] Top shape: 310 196 (60760)
I0520 21:05:26.079249 31010 net.cpp:165] Memory required for data: 488786920
I0520 21:05:26.079259 31010 layer_factory.hpp:77] Creating layer drop1
I0520 21:05:26.079282 31010 net.cpp:106] Creating Layer drop1
I0520 21:05:26.079291 31010 net.cpp:454] drop1 <- ip1
I0520 21:05:26.079316 31010 net.cpp:397] drop1 -> ip1 (in-place)
I0520 21:05:26.079363 31010 net.cpp:150] Setting up drop1
I0520 21:05:26.079376 31010 net.cpp:157] Top shape: 310 196 (60760)
I0520 21:05:26.079386 31010 net.cpp:165] Memory required for data: 489029960
I0520 21:05:26.079396 31010 layer_factory.hpp:77] Creating layer ip2
I0520 21:05:26.079414 31010 net.cpp:106] Creating Layer ip2
I0520 21:05:26.079424 31010 net.cpp:454] ip2 <- ip1
I0520 21:05:26.079437 31010 net.cpp:411] ip2 -> ip2
I0520 21:05:26.079906 31010 net.cpp:150] Setting up ip2
I0520 21:05:26.079921 31010 net.cpp:157] Top shape: 310 98 (30380)
I0520 21:05:26.079931 31010 net.cpp:165] Memory required for data: 489151480
I0520 21:05:26.079946 31010 layer_factory.hpp:77] Creating layer relu6
I0520 21:05:26.079957 31010 net.cpp:106] Creating Layer relu6
I0520 21:05:26.079967 31010 net.cpp:454] relu6 <- ip2
I0520 21:05:26.079979 31010 net.cpp:397] relu6 -> ip2 (in-place)
I0520 21:05:26.080499 31010 net.cpp:150] Setting up relu6
I0520 21:05:26.080516 31010 net.cpp:157] Top shape: 310 98 (30380)
I0520 21:05:26.080526 31010 net.cpp:165] Memory required for data: 489273000
I0520 21:05:26.080536 31010 layer_factory.hpp:77] Creating layer drop2
I0520 21:05:26.080549 31010 net.cpp:106] Creating Layer drop2
I0520 21:05:26.080559 31010 net.cpp:454] drop2 <- ip2
I0520 21:05:26.080571 31010 net.cpp:397] drop2 -> ip2 (in-place)
I0520 21:05:26.080613 31010 net.cpp:150] Setting up drop2
I0520 21:05:26.080626 31010 net.cpp:157] Top shape: 310 98 (30380)
I0520 21:05:26.080636 31010 net.cpp:165] Memory required for data: 489394520
I0520 21:05:26.080646 31010 layer_factory.hpp:77] Creating layer ip3
I0520 21:05:26.080659 31010 net.cpp:106] Creating Layer ip3
I0520 21:05:26.080669 31010 net.cpp:454] ip3 <- ip2
I0520 21:05:26.080682 31010 net.cpp:411] ip3 -> ip3
I0520 21:05:26.080893 31010 net.cpp:150] Setting up ip3
I0520 21:05:26.080906 31010 net.cpp:157] Top shape: 310 11 (3410)
I0520 21:05:26.080916 31010 net.cpp:165] Memory required for data: 489408160
I0520 21:05:26.080931 31010 layer_factory.hpp:77] Creating layer drop3
I0520 21:05:26.080943 31010 net.cpp:106] Creating Layer drop3
I0520 21:05:26.080953 31010 net.cpp:454] drop3 <- ip3
I0520 21:05:26.080965 31010 net.cpp:397] drop3 -> ip3 (in-place)
I0520 21:05:26.081004 31010 net.cpp:150] Setting up drop3
I0520 21:05:26.081017 31010 net.cpp:157] Top shape: 310 11 (3410)
I0520 21:05:26.081027 31010 net.cpp:165] Memory required for data: 489421800
I0520 21:05:26.081037 31010 layer_factory.hpp:77] Creating layer loss
I0520 21:05:26.081056 31010 net.cpp:106] Creating Layer loss
I0520 21:05:26.081066 31010 net.cpp:454] loss <- ip3
I0520 21:05:26.081078 31010 net.cpp:454] loss <- label
I0520 21:05:26.081089 31010 net.cpp:411] loss -> loss
I0520 21:05:26.081107 31010 layer_factory.hpp:77] Creating layer loss
…
I0520 21:05:26.083691 31010 solver.cpp:181] Creating test net (#0) specified by net file: /lustre/atlas/proj-shared/hep105/caffe_titan/caffe_workflow/logs_batch_size_test/batch_size_310_2016-05-20T11.20.44.001468.prototxt
I0520 21:05:26.083763 31010 net.cpp:322] The NetState phase (1) differed from the phase (0) specified by a rule in layer data_hdf5
I0520 21:05:26.084120 31010 net.cpp:49] Initializing net from parameters: 
name: "caffe_test_127x50_x_unshifted"
state {
  phase: TEST
}
layer {
  name: "data_hdf5"
  type: "HDF5Data"
  top: "data"
  top: "label"
  include {
    phase: TEST
  }
  hdf5_data_param {
    source: "/lustre/atlas/proj-shared/hep105/caffe_titan/minosmatch_nukecczdefs_127x50_x_unshifted_me1Bmc.testlist"
    batch_size: 310
  }
}
layer {
  name: "conv1"
  type: "Convolution"
  bottom: "data"
  top: "conv1"
  convolution_param {
    num_output: 12
    pad: 0
    stride: 1
    weight_filler {
      type: "xavier"
    }
    bias_filler {
      type: "constant"
    }
    kernel_h: 8
    kernel_w: 3
  }
}
layer {
  name: "relu1"
  type: "ReLU"
  bottom: "conv1"
  top: "conv1"
}
layer {
  name: "pool1"
  type: "Pooling"
  bottom: "conv1"
  top: "pool1"
  pooling_param {
    pool: MAX
    kernel_h: 2
    kernel_w: 1
    stride_h: 2
    stride_w: 1
  }
}
layer {
  name: "conv2"
  type: "Convolution"
  bottom: "pool1"
  top: "conv2"
  convolution_param {
    num_output: 20
    pad: 0
    stride: 1
    weight_filler {
      type: "xavier"
    }
    bias_filler {
      type: "constant"
    }
    kernel_h: 7
    kernel_w: 3
  }
}
layer {
  name: "relu2"
  type: "ReLU"
  bottom: "conv2"
  top: "conv2"
}
layer {
  name: "pool2"
  type: "Pooling"
  bottom: "conv2"
  top: "pool2"
  pooling_param {
    pool: MAX
    kernel_h: 2
    kernel_w: 1
    stride_h: 2
    stride_w: 1
  }
}
layer {
  name: "conv3"
  type: "Convolution"
  bottom: "pool2"
  top: "conv3"
  convolution_param {
    num_output: 28
    pad: 0
    stride: 1
    weight_filler {
      type: "xavier"
    }
    bias_filler {
      type: "constant"
    }
    kernel_h: 6
    kernel_w: 3
  }
}
layer {
  name: "relu3"
  type: "ReLU"
  bottom: "conv3"
  top: "conv3"
}
layer {
  name: "pool3"
  type: "Pooling"
  bottom: "conv3"
  top: "pool3"
  pooling_param {
    pool: MAX
    kernel_h: 2
    kernel_w: 1
    stride_h: 2
    stride_w: 1
  }
}
layer {
  name: "conv4"
  type: "Convolution"
  bottom: "pool3"
  top: "conv4"
  convolution_param {
    num_output: 36
    pad: 0
    stride: 1
    weight_filler {
      type: "xavier"
    }
    bias_filler {
      type: "constant"
    }
    kernel_h: 6
    kernel_w: 3
  }
}
layer {
  name: "relu4"
  type: "ReLU"
  bottom: "conv4"
  top: "conv4"
}
layer {
  name: "pool4"
  type: "Pooling"
  bottom: "conv4"
  top: "pool4"
  pooling_param {
    pool: MAX
    kernel_h: 2
    kernel_w: 1
    stride_h: 2
    stride_w: 1
  }
}
layer {
  name: "ip1"
  type: "InnerProduct"
  bottom: "pool4"
  top: "ip1"
  inner_product_param {
    num_output: 196
    weight_filler {
      type: "xavier"
    }
    bias_filler {
      type: "constant"
    }
  }
}
layer {
  name: "relu5"
  type: "ReLU"
  bottom: "ip1"
  top: "ip1"
}
layer {
  name: "drop1"
  type: "Dropout"
  bottom: "ip1"
  top: "ip1"
  dropout_param {
    dropout_ratio: 0.5
  }
}
layer {
  name: "ip2"
  type: "InnerProduct"
  bottom: "ip1"
  top: "ip2"
  inner_product_param {
    num_output: 98
    weight_filler {
      type: "xavier"
    }
    bias_filler {
      type: "constant"
    }
  }
}
layer {
  name: "relu6"
  type: "ReLU"
  bottom: "ip2"
  top: "ip2"
}
layer {
  name: "drop2"
  type: "Dropout"
  bottom: "ip2"
  top: "ip2"
  dropout_param {
    dropout_ratio: 0.5
  }
}
layer {
  name: "ip3"
  type: "InnerProduct"
  bottom: "ip2"
  top: "ip3"
  inner_product_param {
    num_output: 11
    weight_filler {
      type: "xavier"
    }
    bias_filler {
      type: "constant"
    }
  }
}
layer {
  name: "drop3"
  type: "Dropout"
  bottom: "ip3"
  top: "ip3"
  dropout_param {
    dropout_ratio: 0.5
  }
}
layer {
  name: "accuracy"
  type: "Accuracy"
  bottom: "ip3"
  bottom: "label"
  top: "accuracy"
  include {
    phase: TEST
  }
}
layer {
  name: "loss"
  type: "SoftmaxWithLoss"
  bottom: "ip3"
  bottom: "label"
  top: "loss"
}
I0520 21:05:26.084309 31010 layer_factory.hpp:77] Creating layer data_hdf5
I0520 21:05:26.084324 31010 net.cpp:106] Creating Layer data_hdf5
I0520 21:05:26.084337 31010 net.cpp:411] data_hdf5 -> data
I0520 21:05:26.084353 31010 net.cpp:411] data_hdf5 -> label
I0520 21:05:26.084369 31010 hdf5_data_layer.cpp:79] Loading list of HDF5 filenames from: /lustre/atlas/proj-shared/hep105/caffe_titan/minosmatch_nukecczdefs_127x50_x_unshifted_me1Bmc.testlist
I0520 21:05:26.085541 31010 hdf5_data_layer.cpp:93] Number of HDF5 files: 3
I0520 21:05:47.420066 31010 net.cpp:150] Setting up data_hdf5
I0520 21:05:47.420234 31010 net.cpp:157] Top shape: 310 1 127 50 (1968500)
I0520 21:05:47.420248 31010 net.cpp:157] Top shape: 310 (310)
I0520 21:05:47.420259 31010 net.cpp:165] Memory required for data: 7875240
I0520 21:05:47.420298 31010 layer_factory.hpp:77] Creating layer label_data_hdf5_1_split
I0520 21:05:47.420327 31010 net.cpp:106] Creating Layer label_data_hdf5_1_split
I0520 21:05:47.420337 31010 net.cpp:454] label_data_hdf5_1_split <- label
I0520 21:05:47.420351 31010 net.cpp:411] label_data_hdf5_1_split -> label_data_hdf5_1_split_0
I0520 21:05:47.420372 31010 net.cpp:411] label_data_hdf5_1_split -> label_data_hdf5_1_split_1
I0520 21:05:47.420444 31010 net.cpp:150] Setting up label_data_hdf5_1_split
I0520 21:05:47.420457 31010 net.cpp:157] Top shape: 310 (310)
I0520 21:05:47.420469 31010 net.cpp:157] Top shape: 310 (310)
I0520 21:05:47.420478 31010 net.cpp:165] Memory required for data: 7877720
I0520 21:05:47.420487 31010 layer_factory.hpp:77] Creating layer conv1
I0520 21:05:47.420507 31010 net.cpp:106] Creating Layer conv1
I0520 21:05:47.420518 31010 net.cpp:454] conv1 <- data
I0520 21:05:47.420532 31010 net.cpp:411] conv1 -> conv1
I0520 21:05:47.422466 31010 net.cpp:150] Setting up conv1
I0520 21:05:47.422490 31010 net.cpp:157] Top shape: 310 12 120 48 (21427200)
I0520 21:05:47.422502 31010 net.cpp:165] Memory required for data: 93586520
I0520 21:05:47.422523 31010 layer_factory.hpp:77] Creating layer relu1
I0520 21:05:47.422538 31010 net.cpp:106] Creating Layer relu1
I0520 21:05:47.422547 31010 net.cpp:454] relu1 <- conv1
I0520 21:05:47.422560 31010 net.cpp:397] relu1 -> conv1 (in-place)
I0520 21:05:47.423058 31010 net.cpp:150] Setting up relu1
I0520 21:05:47.423074 31010 net.cpp:157] Top shape: 310 12 120 48 (21427200)
I0520 21:05:47.423084 31010 net.cpp:165] Memory required for data: 179295320
I0520 21:05:47.423094 31010 layer_factory.hpp:77] Creating layer pool1
I0520 21:05:47.423111 31010 net.cpp:106] Creating Layer pool1
I0520 21:05:47.423120 31010 net.cpp:454] pool1 <- conv1
I0520 21:05:47.423135 31010 net.cpp:411] pool1 -> pool1
I0520 21:05:47.423209 31010 net.cpp:150] Setting up pool1
I0520 21:05:47.423223 31010 net.cpp:157] Top shape: 310 12 60 48 (10713600)
I0520 21:05:47.423233 31010 net.cpp:165] Memory required for data: 222149720
I0520 21:05:47.423241 31010 layer_factory.hpp:77] Creating layer conv2
I0520 21:05:47.423259 31010 net.cpp:106] Creating Layer conv2
I0520 21:05:47.423269 31010 net.cpp:454] conv2 <- pool1
I0520 21:05:47.423282 31010 net.cpp:411] conv2 -> conv2
I0520 21:05:47.425215 31010 net.cpp:150] Setting up conv2
I0520 21:05:47.425237 31010 net.cpp:157] Top shape: 310 20 54 46 (15400800)
I0520 21:05:47.425247 31010 net.cpp:165] Memory required for data: 283752920
I0520 21:05:47.425266 31010 layer_factory.hpp:77] Creating layer relu2
I0520 21:05:47.425279 31010 net.cpp:106] Creating Layer relu2
I0520 21:05:47.425290 31010 net.cpp:454] relu2 <- conv2
I0520 21:05:47.425302 31010 net.cpp:397] relu2 -> conv2 (in-place)
I0520 21:05:47.425635 31010 net.cpp:150] Setting up relu2
I0520 21:05:47.425649 31010 net.cpp:157] Top shape: 310 20 54 46 (15400800)
I0520 21:05:47.425659 31010 net.cpp:165] Memory required for data: 345356120
I0520 21:05:47.425669 31010 layer_factory.hpp:77] Creating layer pool2
I0520 21:05:47.425683 31010 net.cpp:106] Creating Layer pool2
I0520 21:05:47.425693 31010 net.cpp:454] pool2 <- conv2
I0520 21:05:47.425704 31010 net.cpp:411] pool2 -> pool2
I0520 21:05:47.425776 31010 net.cpp:150] Setting up pool2
I0520 21:05:47.425791 31010 net.cpp:157] Top shape: 310 20 27 46 (7700400)
I0520 21:05:47.425799 31010 net.cpp:165] Memory required for data: 376157720
I0520 21:05:47.425809 31010 layer_factory.hpp:77] Creating layer conv3
I0520 21:05:47.425828 31010 net.cpp:106] Creating Layer conv3
I0520 21:05:47.425839 31010 net.cpp:454] conv3 <- pool2
I0520 21:05:47.425853 31010 net.cpp:411] conv3 -> conv3
I0520 21:05:47.427832 31010 net.cpp:150] Setting up conv3
I0520 21:05:47.427855 31010 net.cpp:157] Top shape: 310 28 22 44 (8402240)
I0520 21:05:47.427867 31010 net.cpp:165] Memory required for data: 409766680
I0520 21:05:47.427901 31010 layer_factory.hpp:77] Creating layer relu3
I0520 21:05:47.427913 31010 net.cpp:106] Creating Layer relu3
I0520 21:05:47.427923 31010 net.cpp:454] relu3 <- conv3
I0520 21:05:47.427937 31010 net.cpp:397] relu3 -> conv3 (in-place)
I0520 21:05:47.428411 31010 net.cpp:150] Setting up relu3
I0520 21:05:47.428426 31010 net.cpp:157] Top shape: 310 28 22 44 (8402240)
I0520 21:05:47.428437 31010 net.cpp:165] Memory required for data: 443375640
I0520 21:05:47.428447 31010 layer_factory.hpp:77] Creating layer pool3
I0520 21:05:47.428460 31010 net.cpp:106] Creating Layer pool3
I0520 21:05:47.428470 31010 net.cpp:454] pool3 <- conv3
I0520 21:05:47.428483 31010 net.cpp:411] pool3 -> pool3
I0520 21:05:47.428555 31010 net.cpp:150] Setting up pool3
I0520 21:05:47.428568 31010 net.cpp:157] Top shape: 310 28 11 44 (4201120)
I0520 21:05:47.428578 31010 net.cpp:165] Memory required for data: 460180120
I0520 21:05:47.428588 31010 layer_factory.hpp:77] Creating layer conv4
I0520 21:05:47.428603 31010 net.cpp:106] Creating Layer conv4
I0520 21:05:47.428614 31010 net.cpp:454] conv4 <- pool3
I0520 21:05:47.428628 31010 net.cpp:411] conv4 -> conv4
I0520 21:05:47.430682 31010 net.cpp:150] Setting up conv4
I0520 21:05:47.430704 31010 net.cpp:157] Top shape: 310 36 6 42 (2812320)
I0520 21:05:47.430717 31010 net.cpp:165] Memory required for data: 471429400
I0520 21:05:47.430732 31010 layer_factory.hpp:77] Creating layer relu4
I0520 21:05:47.430747 31010 net.cpp:106] Creating Layer relu4
I0520 21:05:47.430757 31010 net.cpp:454] relu4 <- conv4
I0520 21:05:47.430768 31010 net.cpp:397] relu4 -> conv4 (in-place)
I0520 21:05:47.431241 31010 net.cpp:150] Setting up relu4
I0520 21:05:47.431255 31010 net.cpp:157] Top shape: 310 36 6 42 (2812320)
I0520 21:05:47.431267 31010 net.cpp:165] Memory required for data: 482678680
I0520 21:05:47.431277 31010 layer_factory.hpp:77] Creating layer pool4
I0520 21:05:47.431289 31010 net.cpp:106] Creating Layer pool4
I0520 21:05:47.431299 31010 net.cpp:454] pool4 <- conv4
I0520 21:05:47.431313 31010 net.cpp:411] pool4 -> pool4
I0520 21:05:47.431383 31010 net.cpp:150] Setting up pool4
I0520 21:05:47.431396 31010 net.cpp:157] Top shape: 310 36 3 42 (1406160)
I0520 21:05:47.431406 31010 net.cpp:165] Memory required for data: 488303320
I0520 21:05:47.431416 31010 layer_factory.hpp:77] Creating layer ip1
I0520 21:05:47.431432 31010 net.cpp:106] Creating Layer ip1
I0520 21:05:47.431442 31010 net.cpp:454] ip1 <- pool4
I0520 21:05:47.431457 31010 net.cpp:411] ip1 -> ip1
I0520 21:05:47.446915 31010 net.cpp:150] Setting up ip1
I0520 21:05:47.446945 31010 net.cpp:157] Top shape: 310 196 (60760)
I0520 21:05:47.446957 31010 net.cpp:165] Memory required for data: 488546360
I0520 21:05:47.446979 31010 layer_factory.hpp:77] Creating layer relu5
I0520 21:05:47.446995 31010 net.cpp:106] Creating Layer relu5
I0520 21:05:47.447005 31010 net.cpp:454] relu5 <- ip1
I0520 21:05:47.447018 31010 net.cpp:397] relu5 -> ip1 (in-place)
I0520 21:05:47.447365 31010 net.cpp:150] Setting up relu5
I0520 21:05:47.447379 31010 net.cpp:157] Top shape: 310 196 (60760)
I0520 21:05:47.447389 31010 net.cpp:165] Memory required for data: 488789400
I0520 21:05:47.447399 31010 layer_factory.hpp:77] Creating layer drop1
I0520 21:05:47.447418 31010 net.cpp:106] Creating Layer drop1
I0520 21:05:47.447428 31010 net.cpp:454] drop1 <- ip1
I0520 21:05:47.447441 31010 net.cpp:397] drop1 -> ip1 (in-place)
I0520 21:05:47.447485 31010 net.cpp:150] Setting up drop1
I0520 21:05:47.447499 31010 net.cpp:157] Top shape: 310 196 (60760)
I0520 21:05:47.447510 31010 net.cpp:165] Memory required for data: 489032440
I0520 21:05:47.447520 31010 layer_factory.hpp:77] Creating layer ip2
I0520 21:05:47.447535 31010 net.cpp:106] Creating Layer ip2
I0520 21:05:47.447543 31010 net.cpp:454] ip2 <- ip1
I0520 21:05:47.447557 31010 net.cpp:411] ip2 -> ip2
I0520 21:05:47.448043 31010 net.cpp:150] Setting up ip2
I0520 21:05:47.448057 31010 net.cpp:157] Top shape: 310 98 (30380)
I0520 21:05:47.448066 31010 net.cpp:165] Memory required for data: 489153960
I0520 21:05:47.448096 31010 layer_factory.hpp:77] Creating layer relu6
I0520 21:05:47.448108 31010 net.cpp:106] Creating Layer relu6
I0520 21:05:47.448118 31010 net.cpp:454] relu6 <- ip2
I0520 21:05:47.448130 31010 net.cpp:397] relu6 -> ip2 (in-place)
I0520 21:05:47.448669 31010 net.cpp:150] Setting up relu6
I0520 21:05:47.448690 31010 net.cpp:157] Top shape: 310 98 (30380)
I0520 21:05:47.448700 31010 net.cpp:165] Memory required for data: 489275480
I0520 21:05:47.448710 31010 layer_factory.hpp:77] Creating layer drop2
I0520 21:05:47.448724 31010 net.cpp:106] Creating Layer drop2
I0520 21:05:47.448734 31010 net.cpp:454] drop2 <- ip2
I0520 21:05:47.448747 31010 net.cpp:397] drop2 -> ip2 (in-place)
I0520 21:05:47.448791 31010 net.cpp:150] Setting up drop2
I0520 21:05:47.448804 31010 net.cpp:157] Top shape: 310 98 (30380)
I0520 21:05:47.448814 31010 net.cpp:165] Memory required for data: 489397000
I0520 21:05:47.448824 31010 layer_factory.hpp:77] Creating layer ip3
I0520 21:05:47.448838 31010 net.cpp:106] Creating Layer ip3
I0520 21:05:47.448848 31010 net.cpp:454] ip3 <- ip2
I0520 21:05:47.448863 31010 net.cpp:411] ip3 -> ip3
I0520 21:05:47.449086 31010 net.cpp:150] Setting up ip3
I0520 21:05:47.449100 31010 net.cpp:157] Top shape: 310 11 (3410)
I0520 21:05:47.449110 31010 net.cpp:165] Memory required for data: 489410640
I0520 21:05:47.449126 31010 layer_factory.hpp:77] Creating layer drop3
I0520 21:05:47.449138 31010 net.cpp:106] Creating Layer drop3
I0520 21:05:47.449148 31010 net.cpp:454] drop3 <- ip3
I0520 21:05:47.449162 31010 net.cpp:397] drop3 -> ip3 (in-place)
I0520 21:05:47.449203 31010 net.cpp:150] Setting up drop3
I0520 21:05:47.449214 31010 net.cpp:157] Top shape: 310 11 (3410)
I0520 21:05:47.449224 31010 net.cpp:165] Memory required for data: 489424280
I0520 21:05:47.449234 31010 layer_factory.hpp:77] Creating layer ip3_drop3_0_split
I0520 21:05:47.449247 31010 net.cpp:106] Creating Layer ip3_drop3_0_split
I0520 21:05:47.449257 31010 net.cpp:454] ip3_drop3_0_split <- ip3
I0520 21:05:47.449270 31010 net.cpp:411] ip3_drop3_0_split -> ip3_drop3_0_split_0
I0520 21:05:47.449285 31010 net.cpp:411] ip3_drop3_0_split -> ip3_drop3_0_split_1
I0520 21:05:47.449358 31010 net.cpp:150] Setting up ip3_drop3_0_split
I0520 21:05:47.449371 31010 net.cpp:157] Top shape: 310 11 (3410)
I0520 21:05:47.449383 31010 net.cpp:157] Top shape: 310 11 (3410)
I0520 21:05:47.449393 31010 net.cpp:165] Memory required for data: 489451560
I0520 21:05:47.449405 31010 layer_factory.hpp:77] Creating layer accuracy
I0520 21:05:47.449427 31010 net.cpp:106] Creating Layer accuracy
I0520 21:05:47.449437 31010 net.cpp:454] accuracy <- ip3_drop3_0_split_0
I0520 21:05:47.449448 31010 net.cpp:454] accuracy <- label_data_hdf5_1_split_0
I0520 21:05:47.449462 31010 net.cpp:411] accuracy -> accuracy
…
