…
I0521 08:15:07.894413 15047 net.cpp:322] The NetState phase (0) differed from the phase (1) specified by a rule in layer data_hdf5
I0521 08:15:07.894474 15047 net.cpp:322] The NetState phase (0) differed from the phase (1) specified by a rule in layer accuracy
I0521 08:15:07.894817 15047 net.cpp:49] Initializing net from parameters: 
name: "caffe_test_127x50_x_unshifted"
state {
  phase: TRAIN
}
layer {
  name: "data_hdf5"
  type: "HDF5Data"
  top: "data"
  top: "label"
  include {
    phase: TRAIN
  }
  hdf5_data_param {
    source: "/lustre/atlas/proj-shared/hep105/caffe_titan/minosmatch_nukecczdefs_127x50_x_unshifted_me1Bmc.trainlist"
    batch_size: 840
  }
}
layer {
  name: "conv1"
  type: "Convolution"
  bottom: "data"
  top: "conv1"
  convolution_param {
    num_output: 12
    pad: 0
    stride: 1
    weight_filler {
      type: "xavier"
    }
    bias_filler {
      type: "constant"
    }
    kernel_h: 8
    kernel_w: 3
  }
}
layer {
  name: "relu1"
  type: "ReLU"
  bottom: "conv1"
  top: "conv1"
}
layer {
  name: "pool1"
  type: "Pooling"
  bottom: "conv1"
  top: "pool1"
  pooling_param {
    pool: MAX
    kernel_h: 2
    kernel_w: 1
    stride_h: 2
    stride_w: 1
  }
}
layer {
  name: "conv2"
  type: "Convolution"
  bottom: "pool1"
  top: "conv2"
  convolution_param {
    num_output: 20
    pad: 0
    stride: 1
    weight_filler {
      type: "xavier"
    }
    bias_filler {
      type: "constant"
    }
    kernel_h: 7
    kernel_w: 3
  }
}
layer {
  name: "relu2"
  type: "ReLU"
  bottom: "conv2"
  top: "conv2"
}
layer {
  name: "pool2"
  type: "Pooling"
  bottom: "conv2"
  top: "pool2"
  pooling_param {
    pool: MAX
    kernel_h: 2
    kernel_w: 1
    stride_h: 2
    stride_w: 1
  }
}
layer {
  name: "conv3"
  type: "Convolution"
  bottom: "pool2"
  top: "conv3"
  convolution_param {
    num_output: 28
    pad: 0
    stride: 1
    weight_filler {
      type: "xavier"
    }
    bias_filler {
      type: "constant"
    }
    kernel_h: 6
    kernel_w: 3
  }
}
layer {
  name: "relu3"
  type: "ReLU"
  bottom: "conv3"
  top: "conv3"
}
layer {
  name: "pool3"
  type: "Pooling"
  bottom: "conv3"
  top: "pool3"
  pooling_param {
    pool: MAX
    kernel_h: 2
    kernel_w: 1
    stride_h: 2
    stride_w: 1
  }
}
layer {
  name: "conv4"
  type: "Convolution"
  bottom: "pool3"
  top: "conv4"
  convolution_param {
    num_output: 36
    pad: 0
    stride: 1
    weight_filler {
      type: "xavier"
    }
    bias_filler {
      type: "constant"
    }
    kernel_h: 6
    kernel_w: 3
  }
}
layer {
  name: "relu4"
  type: "ReLU"
  bottom: "conv4"
  top: "conv4"
}
layer {
  name: "pool4"
  type: "Pooling"
  bottom: "conv4"
  top: "pool4"
  pooling_param {
    pool: MAX
    kernel_h: 2
    kernel_w: 1
    stride_h: 2
    stride_w: 1
  }
}
layer {
  name: "ip1"
  type: "InnerProduct"
  bottom: "pool4"
  top: "ip1"
  inner_product_param {
    num_output: 196
    weight_filler {
      type: "xavier"
    }
    bias_filler {
      type: "constant"
    }
  }
}
layer {
  name: "relu5"
  type: "ReLU"
  bottom: "ip1"
  top: "ip1"
}
layer {
  name: "drop1"
  type: "Dropout"
  bottom: "ip1"
  top: "ip1"
  dropout_param {
    dropout_ratio: 0.5
  }
}
layer {
  name: "ip2"
  type: "InnerProduct"
  bottom: "ip1"
  top: "ip2"
  inner_product_param {
    num_output: 98
    weight_filler {
      type: "xavier"
    }
    bias_filler {
      type: "constant"
    }
  }
}
layer {
  name: "relu6"
  type: "ReLU"
  bottom: "ip2"
  top: "ip2"
}
layer {
  name: "drop2"
  type: "Dropout"
  bottom: "ip2"
  top: "ip2"
  dropout_param {
    dropout_ratio: 0.5
  }
}
layer {
  name: "ip3"
  type: "InnerProduct"
  bottom: "ip2"
  top: "ip3"
  inner_product_param {
    num_output: 11
    weight_filler {
      type: "xavier"
    }
    bias_filler {
      type: "constant"
    }
  }
}
layer {
  name: "drop3"
  type: "Dropout"
  bottom: "ip3"
  top: "ip3"
  dropout_param {
    dropout_ratio: 0.5
  }
}
layer {
  name: "loss"
  type: "SoftmaxWithLoss"
  bottom: "ip3"
  bottom: "label"
  top: "loss"
}
I0521 08:15:07.894994 15047 layer_factory.hpp:77] Creating layer data_hdf5
I0521 08:15:07.895018 15047 net.cpp:106] Creating Layer data_hdf5
I0521 08:15:07.895032 15047 net.cpp:411] data_hdf5 -> data
I0521 08:15:07.895066 15047 net.cpp:411] data_hdf5 -> label
I0521 08:15:07.895097 15047 hdf5_data_layer.cpp:79] Loading list of HDF5 filenames from: /lustre/atlas/proj-shared/hep105/caffe_titan/minosmatch_nukecczdefs_127x50_x_unshifted_me1Bmc.trainlist
I0521 08:15:07.896252 15047 hdf5_data_layer.cpp:93] Number of HDF5 files: 15
I0521 08:15:07.898468 15047 hdf5.cpp:32] Datatype class: H5T_FLOAT
I0521 08:15:29.495138 15047 hdf5.cpp:35] Datatype class: H5T_INTEGER
I0521 08:15:29.500257 15047 net.cpp:150] Setting up data_hdf5
I0521 08:15:29.500298 15047 net.cpp:157] Top shape: 840 1 127 50 (5334000)
I0521 08:15:29.500311 15047 net.cpp:157] Top shape: 840 (840)
I0521 08:15:29.500324 15047 net.cpp:165] Memory required for data: 21339360
I0521 08:15:29.500337 15047 layer_factory.hpp:77] Creating layer conv1
I0521 08:15:29.500371 15047 net.cpp:106] Creating Layer conv1
I0521 08:15:29.500382 15047 net.cpp:454] conv1 <- data
I0521 08:15:29.500403 15047 net.cpp:411] conv1 -> conv1
I0521 08:15:29.862093 15047 net.cpp:150] Setting up conv1
I0521 08:15:29.862138 15047 net.cpp:157] Top shape: 840 12 120 48 (58060800)
I0521 08:15:29.862149 15047 net.cpp:165] Memory required for data: 253582560
I0521 08:15:29.862179 15047 layer_factory.hpp:77] Creating layer relu1
I0521 08:15:29.862202 15047 net.cpp:106] Creating Layer relu1
I0521 08:15:29.862213 15047 net.cpp:454] relu1 <- conv1
I0521 08:15:29.862226 15047 net.cpp:397] relu1 -> conv1 (in-place)
I0521 08:15:29.862737 15047 net.cpp:150] Setting up relu1
I0521 08:15:29.862754 15047 net.cpp:157] Top shape: 840 12 120 48 (58060800)
I0521 08:15:29.862766 15047 net.cpp:165] Memory required for data: 485825760
I0521 08:15:29.862776 15047 layer_factory.hpp:77] Creating layer pool1
I0521 08:15:29.862792 15047 net.cpp:106] Creating Layer pool1
I0521 08:15:29.862802 15047 net.cpp:454] pool1 <- conv1
I0521 08:15:29.862815 15047 net.cpp:411] pool1 -> pool1
I0521 08:15:29.862895 15047 net.cpp:150] Setting up pool1
I0521 08:15:29.862908 15047 net.cpp:157] Top shape: 840 12 60 48 (29030400)
I0521 08:15:29.862920 15047 net.cpp:165] Memory required for data: 601947360
I0521 08:15:29.862929 15047 layer_factory.hpp:77] Creating layer conv2
I0521 08:15:29.862952 15047 net.cpp:106] Creating Layer conv2
I0521 08:15:29.862962 15047 net.cpp:454] conv2 <- pool1
I0521 08:15:29.862975 15047 net.cpp:411] conv2 -> conv2
I0521 08:15:29.865650 15047 net.cpp:150] Setting up conv2
I0521 08:15:29.865679 15047 net.cpp:157] Top shape: 840 20 54 46 (41731200)
I0521 08:15:29.865689 15047 net.cpp:165] Memory required for data: 768872160
I0521 08:15:29.865708 15047 layer_factory.hpp:77] Creating layer relu2
I0521 08:15:29.865722 15047 net.cpp:106] Creating Layer relu2
I0521 08:15:29.865733 15047 net.cpp:454] relu2 <- conv2
I0521 08:15:29.865746 15047 net.cpp:397] relu2 -> conv2 (in-place)
I0521 08:15:29.866075 15047 net.cpp:150] Setting up relu2
I0521 08:15:29.866089 15047 net.cpp:157] Top shape: 840 20 54 46 (41731200)
I0521 08:15:29.866101 15047 net.cpp:165] Memory required for data: 935796960
I0521 08:15:29.866111 15047 layer_factory.hpp:77] Creating layer pool2
I0521 08:15:29.866124 15047 net.cpp:106] Creating Layer pool2
I0521 08:15:29.866134 15047 net.cpp:454] pool2 <- conv2
I0521 08:15:29.866159 15047 net.cpp:411] pool2 -> pool2
I0521 08:15:29.866226 15047 net.cpp:150] Setting up pool2
I0521 08:15:29.866240 15047 net.cpp:157] Top shape: 840 20 27 46 (20865600)
I0521 08:15:29.866250 15047 net.cpp:165] Memory required for data: 1019259360
I0521 08:15:29.866261 15047 layer_factory.hpp:77] Creating layer conv3
I0521 08:15:29.866278 15047 net.cpp:106] Creating Layer conv3
I0521 08:15:29.866289 15047 net.cpp:454] conv3 <- pool2
I0521 08:15:29.866302 15047 net.cpp:411] conv3 -> conv3
I0521 08:15:29.868207 15047 net.cpp:150] Setting up conv3
I0521 08:15:29.868232 15047 net.cpp:157] Top shape: 840 28 22 44 (22767360)
I0521 08:15:29.868243 15047 net.cpp:165] Memory required for data: 1110328800
I0521 08:15:29.868260 15047 layer_factory.hpp:77] Creating layer relu3
I0521 08:15:29.868278 15047 net.cpp:106] Creating Layer relu3
I0521 08:15:29.868288 15047 net.cpp:454] relu3 <- conv3
I0521 08:15:29.868299 15047 net.cpp:397] relu3 -> conv3 (in-place)
I0521 08:15:29.868780 15047 net.cpp:150] Setting up relu3
I0521 08:15:29.868798 15047 net.cpp:157] Top shape: 840 28 22 44 (22767360)
I0521 08:15:29.868808 15047 net.cpp:165] Memory required for data: 1201398240
I0521 08:15:29.868818 15047 layer_factory.hpp:77] Creating layer pool3
I0521 08:15:29.868830 15047 net.cpp:106] Creating Layer pool3
I0521 08:15:29.868840 15047 net.cpp:454] pool3 <- conv3
I0521 08:15:29.868854 15047 net.cpp:411] pool3 -> pool3
I0521 08:15:29.868922 15047 net.cpp:150] Setting up pool3
I0521 08:15:29.868935 15047 net.cpp:157] Top shape: 840 28 11 44 (11383680)
I0521 08:15:29.868945 15047 net.cpp:165] Memory required for data: 1246932960
I0521 08:15:29.868953 15047 layer_factory.hpp:77] Creating layer conv4
I0521 08:15:29.868971 15047 net.cpp:106] Creating Layer conv4
I0521 08:15:29.868983 15047 net.cpp:454] conv4 <- pool3
I0521 08:15:29.868995 15047 net.cpp:411] conv4 -> conv4
I0521 08:15:29.871727 15047 net.cpp:150] Setting up conv4
I0521 08:15:29.871754 15047 net.cpp:157] Top shape: 840 36 6 42 (7620480)
I0521 08:15:29.871765 15047 net.cpp:165] Memory required for data: 1277414880
I0521 08:15:29.871781 15047 layer_factory.hpp:77] Creating layer relu4
I0521 08:15:29.871795 15047 net.cpp:106] Creating Layer relu4
I0521 08:15:29.871805 15047 net.cpp:454] relu4 <- conv4
I0521 08:15:29.871819 15047 net.cpp:397] relu4 -> conv4 (in-place)
I0521 08:15:29.872284 15047 net.cpp:150] Setting up relu4
I0521 08:15:29.872301 15047 net.cpp:157] Top shape: 840 36 6 42 (7620480)
I0521 08:15:29.872311 15047 net.cpp:165] Memory required for data: 1307896800
I0521 08:15:29.872321 15047 layer_factory.hpp:77] Creating layer pool4
I0521 08:15:29.872334 15047 net.cpp:106] Creating Layer pool4
I0521 08:15:29.872344 15047 net.cpp:454] pool4 <- conv4
I0521 08:15:29.872357 15047 net.cpp:411] pool4 -> pool4
I0521 08:15:29.872426 15047 net.cpp:150] Setting up pool4
I0521 08:15:29.872438 15047 net.cpp:157] Top shape: 840 36 3 42 (3810240)
I0521 08:15:29.872449 15047 net.cpp:165] Memory required for data: 1323137760
I0521 08:15:29.872458 15047 layer_factory.hpp:77] Creating layer ip1
I0521 08:15:29.872480 15047 net.cpp:106] Creating Layer ip1
I0521 08:15:29.872490 15047 net.cpp:454] ip1 <- pool4
I0521 08:15:29.872504 15047 net.cpp:411] ip1 -> ip1
I0521 08:15:29.887929 15047 net.cpp:150] Setting up ip1
I0521 08:15:29.887959 15047 net.cpp:157] Top shape: 840 196 (164640)
I0521 08:15:29.887970 15047 net.cpp:165] Memory required for data: 1323796320
I0521 08:15:29.887994 15047 layer_factory.hpp:77] Creating layer relu5
I0521 08:15:29.888007 15047 net.cpp:106] Creating Layer relu5
I0521 08:15:29.888017 15047 net.cpp:454] relu5 <- ip1
I0521 08:15:29.888031 15047 net.cpp:397] relu5 -> ip1 (in-place)
I0521 08:15:29.888370 15047 net.cpp:150] Setting up relu5
I0521 08:15:29.888386 15047 net.cpp:157] Top shape: 840 196 (164640)
I0521 08:15:29.888396 15047 net.cpp:165] Memory required for data: 1324454880
I0521 08:15:29.888406 15047 layer_factory.hpp:77] Creating layer drop1
I0521 08:15:29.888427 15047 net.cpp:106] Creating Layer drop1
I0521 08:15:29.888437 15047 net.cpp:454] drop1 <- ip1
I0521 08:15:29.888463 15047 net.cpp:397] drop1 -> ip1 (in-place)
I0521 08:15:29.888510 15047 net.cpp:150] Setting up drop1
I0521 08:15:29.888523 15047 net.cpp:157] Top shape: 840 196 (164640)
I0521 08:15:29.888533 15047 net.cpp:165] Memory required for data: 1325113440
I0521 08:15:29.888550 15047 layer_factory.hpp:77] Creating layer ip2
I0521 08:15:29.888569 15047 net.cpp:106] Creating Layer ip2
I0521 08:15:29.888581 15047 net.cpp:454] ip2 <- ip1
I0521 08:15:29.888593 15047 net.cpp:411] ip2 -> ip2
I0521 08:15:29.889057 15047 net.cpp:150] Setting up ip2
I0521 08:15:29.889071 15047 net.cpp:157] Top shape: 840 98 (82320)
I0521 08:15:29.889081 15047 net.cpp:165] Memory required for data: 1325442720
I0521 08:15:29.889096 15047 layer_factory.hpp:77] Creating layer relu6
I0521 08:15:29.889108 15047 net.cpp:106] Creating Layer relu6
I0521 08:15:29.889118 15047 net.cpp:454] relu6 <- ip2
I0521 08:15:29.889130 15047 net.cpp:397] relu6 -> ip2 (in-place)
I0521 08:15:29.889652 15047 net.cpp:150] Setting up relu6
I0521 08:15:29.889668 15047 net.cpp:157] Top shape: 840 98 (82320)
I0521 08:15:29.889679 15047 net.cpp:165] Memory required for data: 1325772000
I0521 08:15:29.889689 15047 layer_factory.hpp:77] Creating layer drop2
I0521 08:15:29.889703 15047 net.cpp:106] Creating Layer drop2
I0521 08:15:29.889713 15047 net.cpp:454] drop2 <- ip2
I0521 08:15:29.889724 15047 net.cpp:397] drop2 -> ip2 (in-place)
I0521 08:15:29.889766 15047 net.cpp:150] Setting up drop2
I0521 08:15:29.889780 15047 net.cpp:157] Top shape: 840 98 (82320)
I0521 08:15:29.889789 15047 net.cpp:165] Memory required for data: 1326101280
I0521 08:15:29.889799 15047 layer_factory.hpp:77] Creating layer ip3
I0521 08:15:29.889813 15047 net.cpp:106] Creating Layer ip3
I0521 08:15:29.889823 15047 net.cpp:454] ip3 <- ip2
I0521 08:15:29.889835 15047 net.cpp:411] ip3 -> ip3
I0521 08:15:29.890048 15047 net.cpp:150] Setting up ip3
I0521 08:15:29.890060 15047 net.cpp:157] Top shape: 840 11 (9240)
I0521 08:15:29.890070 15047 net.cpp:165] Memory required for data: 1326138240
I0521 08:15:29.890085 15047 layer_factory.hpp:77] Creating layer drop3
I0521 08:15:29.890099 15047 net.cpp:106] Creating Layer drop3
I0521 08:15:29.890108 15047 net.cpp:454] drop3 <- ip3
I0521 08:15:29.890120 15047 net.cpp:397] drop3 -> ip3 (in-place)
I0521 08:15:29.890159 15047 net.cpp:150] Setting up drop3
I0521 08:15:29.890172 15047 net.cpp:157] Top shape: 840 11 (9240)
I0521 08:15:29.890182 15047 net.cpp:165] Memory required for data: 1326175200
I0521 08:15:29.890192 15047 layer_factory.hpp:77] Creating layer loss
I0521 08:15:29.890211 15047 net.cpp:106] Creating Layer loss
I0521 08:15:29.890221 15047 net.cpp:454] loss <- ip3
I0521 08:15:29.890233 15047 net.cpp:454] loss <- label
I0521 08:15:29.890244 15047 net.cpp:411] loss -> loss
I0521 08:15:29.890260 15047 layer_factory.hpp:77] Creating layer loss
…
I0521 08:15:29.892843 15047 solver.cpp:181] Creating test net (#0) specified by net file: /lustre/atlas/proj-shared/hep105/caffe_titan/caffe_workflow/logs_batch_size_test/batch_size_840_2016-05-20T11.21.03.337444.prototxt
I0521 08:15:29.892915 15047 net.cpp:322] The NetState phase (1) differed from the phase (0) specified by a rule in layer data_hdf5
I0521 08:15:29.893270 15047 net.cpp:49] Initializing net from parameters: 
name: "caffe_test_127x50_x_unshifted"
state {
  phase: TEST
}
layer {
  name: "data_hdf5"
  type: "HDF5Data"
  top: "data"
  top: "label"
  include {
    phase: TEST
  }
  hdf5_data_param {
    source: "/lustre/atlas/proj-shared/hep105/caffe_titan/minosmatch_nukecczdefs_127x50_x_unshifted_me1Bmc.testlist"
    batch_size: 840
  }
}
layer {
  name: "conv1"
  type: "Convolution"
  bottom: "data"
  top: "conv1"
  convolution_param {
    num_output: 12
    pad: 0
    stride: 1
    weight_filler {
      type: "xavier"
    }
    bias_filler {
      type: "constant"
    }
    kernel_h: 8
    kernel_w: 3
  }
}
layer {
  name: "relu1"
  type: "ReLU"
  bottom: "conv1"
  top: "conv1"
}
layer {
  name: "pool1"
  type: "Pooling"
  bottom: "conv1"
  top: "pool1"
  pooling_param {
    pool: MAX
    kernel_h: 2
    kernel_w: 1
    stride_h: 2
    stride_w: 1
  }
}
layer {
  name: "conv2"
  type: "Convolution"
  bottom: "pool1"
  top: "conv2"
  convolution_param {
    num_output: 20
    pad: 0
    stride: 1
    weight_filler {
      type: "xavier"
    }
    bias_filler {
      type: "constant"
    }
    kernel_h: 7
    kernel_w: 3
  }
}
layer {
  name: "relu2"
  type: "ReLU"
  bottom: "conv2"
  top: "conv2"
}
layer {
  name: "pool2"
  type: "Pooling"
  bottom: "conv2"
  top: "pool2"
  pooling_param {
    pool: MAX
    kernel_h: 2
    kernel_w: 1
    stride_h: 2
    stride_w: 1
  }
}
layer {
  name: "conv3"
  type: "Convolution"
  bottom: "pool2"
  top: "conv3"
  convolution_param {
    num_output: 28
    pad: 0
    stride: 1
    weight_filler {
      type: "xavier"
    }
    bias_filler {
      type: "constant"
    }
    kernel_h: 6
    kernel_w: 3
  }
}
layer {
  name: "relu3"
  type: "ReLU"
  bottom: "conv3"
  top: "conv3"
}
layer {
  name: "pool3"
  type: "Pooling"
  bottom: "conv3"
  top: "pool3"
  pooling_param {
    pool: MAX
    kernel_h: 2
    kernel_w: 1
    stride_h: 2
    stride_w: 1
  }
}
layer {
  name: "conv4"
  type: "Convolution"
  bottom: "pool3"
  top: "conv4"
  convolution_param {
    num_output: 36
    pad: 0
    stride: 1
    weight_filler {
      type: "xavier"
    }
    bias_filler {
      type: "constant"
    }
    kernel_h: 6
    kernel_w: 3
  }
}
layer {
  name: "relu4"
  type: "ReLU"
  bottom: "conv4"
  top: "conv4"
}
layer {
  name: "pool4"
  type: "Pooling"
  bottom: "conv4"
  top: "pool4"
  pooling_param {
    pool: MAX
    kernel_h: 2
    kernel_w: 1
    stride_h: 2
    stride_w: 1
  }
}
layer {
  name: "ip1"
  type: "InnerProduct"
  bottom: "pool4"
  top: "ip1"
  inner_product_param {
    num_output: 196
    weight_filler {
      type: "xavier"
    }
    bias_filler {
      type: "constant"
    }
  }
}
layer {
  name: "relu5"
  type: "ReLU"
  bottom: "ip1"
  top: "ip1"
}
layer {
  name: "drop1"
  type: "Dropout"
  bottom: "ip1"
  top: "ip1"
  dropout_param {
    dropout_ratio: 0.5
  }
}
layer {
  name: "ip2"
  type: "InnerProduct"
  bottom: "ip1"
  top: "ip2"
  inner_product_param {
    num_output: 98
    weight_filler {
      type: "xavier"
    }
    bias_filler {
      type: "constant"
    }
  }
}
layer {
  name: "relu6"
  type: "ReLU"
  bottom: "ip2"
  top: "ip2"
}
layer {
  name: "drop2"
  type: "Dropout"
  bottom: "ip2"
  top: "ip2"
  dropout_param {
    dropout_ratio: 0.5
  }
}
layer {
  name: "ip3"
  type: "InnerProduct"
  bottom: "ip2"
  top: "ip3"
  inner_product_param {
    num_output: 11
    weight_filler {
      type: "xavier"
    }
    bias_filler {
      type: "constant"
    }
  }
}
layer {
  name: "drop3"
  type: "Dropout"
  bottom: "ip3"
  top: "ip3"
  dropout_param {
    dropout_ratio: 0.5
  }
}
layer {
  name: "accuracy"
  type: "Accuracy"
  bottom: "ip3"
  bottom: "label"
  top: "accuracy"
  include {
    phase: TEST
  }
}
layer {
  name: "loss"
  type: "SoftmaxWithLoss"
  bottom: "ip3"
  bottom: "label"
  top: "loss"
}
I0521 08:15:29.893458 15047 layer_factory.hpp:77] Creating layer data_hdf5
I0521 08:15:29.893473 15047 net.cpp:106] Creating Layer data_hdf5
I0521 08:15:29.893486 15047 net.cpp:411] data_hdf5 -> data
I0521 08:15:29.893502 15047 net.cpp:411] data_hdf5 -> label
I0521 08:15:29.893518 15047 hdf5_data_layer.cpp:79] Loading list of HDF5 filenames from: /lustre/atlas/proj-shared/hep105/caffe_titan/minosmatch_nukecczdefs_127x50_x_unshifted_me1Bmc.testlist
I0521 08:15:29.894724 15047 hdf5_data_layer.cpp:93] Number of HDF5 files: 3
I0521 08:15:51.233206 15047 net.cpp:150] Setting up data_hdf5
I0521 08:15:51.233371 15047 net.cpp:157] Top shape: 840 1 127 50 (5334000)
I0521 08:15:51.233386 15047 net.cpp:157] Top shape: 840 (840)
I0521 08:15:51.233398 15047 net.cpp:165] Memory required for data: 21339360
I0521 08:15:51.233412 15047 layer_factory.hpp:77] Creating layer label_data_hdf5_1_split
I0521 08:15:51.233439 15047 net.cpp:106] Creating Layer label_data_hdf5_1_split
I0521 08:15:51.233450 15047 net.cpp:454] label_data_hdf5_1_split <- label
I0521 08:15:51.233465 15047 net.cpp:411] label_data_hdf5_1_split -> label_data_hdf5_1_split_0
I0521 08:15:51.233486 15047 net.cpp:411] label_data_hdf5_1_split -> label_data_hdf5_1_split_1
I0521 08:15:51.233559 15047 net.cpp:150] Setting up label_data_hdf5_1_split
I0521 08:15:51.233572 15047 net.cpp:157] Top shape: 840 (840)
I0521 08:15:51.233584 15047 net.cpp:157] Top shape: 840 (840)
I0521 08:15:51.233594 15047 net.cpp:165] Memory required for data: 21346080
I0521 08:15:51.233604 15047 layer_factory.hpp:77] Creating layer conv1
I0521 08:15:51.233625 15047 net.cpp:106] Creating Layer conv1
I0521 08:15:51.233636 15047 net.cpp:454] conv1 <- data
I0521 08:15:51.233651 15047 net.cpp:411] conv1 -> conv1
I0521 08:15:51.235574 15047 net.cpp:150] Setting up conv1
I0521 08:15:51.235599 15047 net.cpp:157] Top shape: 840 12 120 48 (58060800)
I0521 08:15:51.235610 15047 net.cpp:165] Memory required for data: 253589280
I0521 08:15:51.235630 15047 layer_factory.hpp:77] Creating layer relu1
I0521 08:15:51.235644 15047 net.cpp:106] Creating Layer relu1
I0521 08:15:51.235654 15047 net.cpp:454] relu1 <- conv1
I0521 08:15:51.235667 15047 net.cpp:397] relu1 -> conv1 (in-place)
I0521 08:15:51.236163 15047 net.cpp:150] Setting up relu1
I0521 08:15:51.236179 15047 net.cpp:157] Top shape: 840 12 120 48 (58060800)
I0521 08:15:51.236189 15047 net.cpp:165] Memory required for data: 485832480
I0521 08:15:51.236201 15047 layer_factory.hpp:77] Creating layer pool1
I0521 08:15:51.236215 15047 net.cpp:106] Creating Layer pool1
I0521 08:15:51.236225 15047 net.cpp:454] pool1 <- conv1
I0521 08:15:51.236239 15047 net.cpp:411] pool1 -> pool1
I0521 08:15:51.236315 15047 net.cpp:150] Setting up pool1
I0521 08:15:51.236327 15047 net.cpp:157] Top shape: 840 12 60 48 (29030400)
I0521 08:15:51.236337 15047 net.cpp:165] Memory required for data: 601954080
I0521 08:15:51.236348 15047 layer_factory.hpp:77] Creating layer conv2
I0521 08:15:51.236366 15047 net.cpp:106] Creating Layer conv2
I0521 08:15:51.236377 15047 net.cpp:454] conv2 <- pool1
I0521 08:15:51.236390 15047 net.cpp:411] conv2 -> conv2
I0521 08:15:51.238312 15047 net.cpp:150] Setting up conv2
I0521 08:15:51.238334 15047 net.cpp:157] Top shape: 840 20 54 46 (41731200)
I0521 08:15:51.238344 15047 net.cpp:165] Memory required for data: 768878880
I0521 08:15:51.238363 15047 layer_factory.hpp:77] Creating layer relu2
I0521 08:15:51.238378 15047 net.cpp:106] Creating Layer relu2
I0521 08:15:51.238387 15047 net.cpp:454] relu2 <- conv2
I0521 08:15:51.238400 15047 net.cpp:397] relu2 -> conv2 (in-place)
I0521 08:15:51.238822 15047 net.cpp:150] Setting up relu2
I0521 08:15:51.238837 15047 net.cpp:157] Top shape: 840 20 54 46 (41731200)
I0521 08:15:51.238847 15047 net.cpp:165] Memory required for data: 935803680
I0521 08:15:51.238857 15047 layer_factory.hpp:77] Creating layer pool2
I0521 08:15:51.238872 15047 net.cpp:106] Creating Layer pool2
I0521 08:15:51.238880 15047 net.cpp:454] pool2 <- conv2
I0521 08:15:51.238893 15047 net.cpp:411] pool2 -> pool2
I0521 08:15:51.238965 15047 net.cpp:150] Setting up pool2
I0521 08:15:51.238979 15047 net.cpp:157] Top shape: 840 20 27 46 (20865600)
I0521 08:15:51.238989 15047 net.cpp:165] Memory required for data: 1019266080
I0521 08:15:51.238999 15047 layer_factory.hpp:77] Creating layer conv3
I0521 08:15:51.239019 15047 net.cpp:106] Creating Layer conv3
I0521 08:15:51.239030 15047 net.cpp:454] conv3 <- pool2
I0521 08:15:51.239043 15047 net.cpp:411] conv3 -> conv3
I0521 08:15:51.241027 15047 net.cpp:150] Setting up conv3
I0521 08:15:51.241050 15047 net.cpp:157] Top shape: 840 28 22 44 (22767360)
I0521 08:15:51.241062 15047 net.cpp:165] Memory required for data: 1110335520
I0521 08:15:51.241094 15047 layer_factory.hpp:77] Creating layer relu3
I0521 08:15:51.241108 15047 net.cpp:106] Creating Layer relu3
I0521 08:15:51.241118 15047 net.cpp:454] relu3 <- conv3
I0521 08:15:51.241132 15047 net.cpp:397] relu3 -> conv3 (in-place)
I0521 08:15:51.241600 15047 net.cpp:150] Setting up relu3
I0521 08:15:51.241616 15047 net.cpp:157] Top shape: 840 28 22 44 (22767360)
I0521 08:15:51.241626 15047 net.cpp:165] Memory required for data: 1201404960
I0521 08:15:51.241637 15047 layer_factory.hpp:77] Creating layer pool3
I0521 08:15:51.241650 15047 net.cpp:106] Creating Layer pool3
I0521 08:15:51.241660 15047 net.cpp:454] pool3 <- conv3
I0521 08:15:51.241673 15047 net.cpp:411] pool3 -> pool3
I0521 08:15:51.241745 15047 net.cpp:150] Setting up pool3
I0521 08:15:51.241760 15047 net.cpp:157] Top shape: 840 28 11 44 (11383680)
I0521 08:15:51.241768 15047 net.cpp:165] Memory required for data: 1246939680
I0521 08:15:51.241780 15047 layer_factory.hpp:77] Creating layer conv4
I0521 08:15:51.241796 15047 net.cpp:106] Creating Layer conv4
I0521 08:15:51.241806 15047 net.cpp:454] conv4 <- pool3
I0521 08:15:51.241819 15047 net.cpp:411] conv4 -> conv4
I0521 08:15:51.243873 15047 net.cpp:150] Setting up conv4
I0521 08:15:51.243896 15047 net.cpp:157] Top shape: 840 36 6 42 (7620480)
I0521 08:15:51.243908 15047 net.cpp:165] Memory required for data: 1277421600
I0521 08:15:51.243923 15047 layer_factory.hpp:77] Creating layer relu4
I0521 08:15:51.243937 15047 net.cpp:106] Creating Layer relu4
I0521 08:15:51.243947 15047 net.cpp:454] relu4 <- conv4
I0521 08:15:51.243960 15047 net.cpp:397] relu4 -> conv4 (in-place)
I0521 08:15:51.244429 15047 net.cpp:150] Setting up relu4
I0521 08:15:51.244446 15047 net.cpp:157] Top shape: 840 36 6 42 (7620480)
I0521 08:15:51.244456 15047 net.cpp:165] Memory required for data: 1307903520
I0521 08:15:51.244465 15047 layer_factory.hpp:77] Creating layer pool4
I0521 08:15:51.244478 15047 net.cpp:106] Creating Layer pool4
I0521 08:15:51.244488 15047 net.cpp:454] pool4 <- conv4
I0521 08:15:51.244501 15047 net.cpp:411] pool4 -> pool4
I0521 08:15:51.244581 15047 net.cpp:150] Setting up pool4
I0521 08:15:51.244596 15047 net.cpp:157] Top shape: 840 36 3 42 (3810240)
I0521 08:15:51.244606 15047 net.cpp:165] Memory required for data: 1323144480
I0521 08:15:51.244616 15047 layer_factory.hpp:77] Creating layer ip1
I0521 08:15:51.244631 15047 net.cpp:106] Creating Layer ip1
I0521 08:15:51.244642 15047 net.cpp:454] ip1 <- pool4
I0521 08:15:51.244654 15047 net.cpp:411] ip1 -> ip1
I0521 08:15:51.260120 15047 net.cpp:150] Setting up ip1
I0521 08:15:51.260149 15047 net.cpp:157] Top shape: 840 196 (164640)
I0521 08:15:51.260159 15047 net.cpp:165] Memory required for data: 1323803040
I0521 08:15:51.260180 15047 layer_factory.hpp:77] Creating layer relu5
I0521 08:15:51.260195 15047 net.cpp:106] Creating Layer relu5
I0521 08:15:51.260206 15047 net.cpp:454] relu5 <- ip1
I0521 08:15:51.260221 15047 net.cpp:397] relu5 -> ip1 (in-place)
I0521 08:15:51.260570 15047 net.cpp:150] Setting up relu5
I0521 08:15:51.260583 15047 net.cpp:157] Top shape: 840 196 (164640)
I0521 08:15:51.260593 15047 net.cpp:165] Memory required for data: 1324461600
I0521 08:15:51.260603 15047 layer_factory.hpp:77] Creating layer drop1
I0521 08:15:51.260622 15047 net.cpp:106] Creating Layer drop1
I0521 08:15:51.260632 15047 net.cpp:454] drop1 <- ip1
I0521 08:15:51.260645 15047 net.cpp:397] drop1 -> ip1 (in-place)
I0521 08:15:51.260689 15047 net.cpp:150] Setting up drop1
I0521 08:15:51.260701 15047 net.cpp:157] Top shape: 840 196 (164640)
I0521 08:15:51.260710 15047 net.cpp:165] Memory required for data: 1325120160
I0521 08:15:51.260722 15047 layer_factory.hpp:77] Creating layer ip2
I0521 08:15:51.260736 15047 net.cpp:106] Creating Layer ip2
I0521 08:15:51.260746 15047 net.cpp:454] ip2 <- ip1
I0521 08:15:51.260761 15047 net.cpp:411] ip2 -> ip2
I0521 08:15:51.261240 15047 net.cpp:150] Setting up ip2
I0521 08:15:51.261252 15047 net.cpp:157] Top shape: 840 98 (82320)
I0521 08:15:51.261262 15047 net.cpp:165] Memory required for data: 1325449440
I0521 08:15:51.261291 15047 layer_factory.hpp:77] Creating layer relu6
I0521 08:15:51.261304 15047 net.cpp:106] Creating Layer relu6
I0521 08:15:51.261314 15047 net.cpp:454] relu6 <- ip2
I0521 08:15:51.261327 15047 net.cpp:397] relu6 -> ip2 (in-place)
I0521 08:15:51.261858 15047 net.cpp:150] Setting up relu6
I0521 08:15:51.261879 15047 net.cpp:157] Top shape: 840 98 (82320)
I0521 08:15:51.261889 15047 net.cpp:165] Memory required for data: 1325778720
I0521 08:15:51.261899 15047 layer_factory.hpp:77] Creating layer drop2
I0521 08:15:51.261914 15047 net.cpp:106] Creating Layer drop2
I0521 08:15:51.261924 15047 net.cpp:454] drop2 <- ip2
I0521 08:15:51.261936 15047 net.cpp:397] drop2 -> ip2 (in-place)
I0521 08:15:51.261979 15047 net.cpp:150] Setting up drop2
I0521 08:15:51.261992 15047 net.cpp:157] Top shape: 840 98 (82320)
I0521 08:15:51.262003 15047 net.cpp:165] Memory required for data: 1326108000
I0521 08:15:51.262013 15047 layer_factory.hpp:77] Creating layer ip3
I0521 08:15:51.262027 15047 net.cpp:106] Creating Layer ip3
I0521 08:15:51.262037 15047 net.cpp:454] ip3 <- ip2
I0521 08:15:51.262051 15047 net.cpp:411] ip3 -> ip3
I0521 08:15:51.262274 15047 net.cpp:150] Setting up ip3
I0521 08:15:51.262286 15047 net.cpp:157] Top shape: 840 11 (9240)
I0521 08:15:51.262296 15047 net.cpp:165] Memory required for data: 1326144960
I0521 08:15:51.262311 15047 layer_factory.hpp:77] Creating layer drop3
I0521 08:15:51.262326 15047 net.cpp:106] Creating Layer drop3
I0521 08:15:51.262334 15047 net.cpp:454] drop3 <- ip3
I0521 08:15:51.262347 15047 net.cpp:397] drop3 -> ip3 (in-place)
I0521 08:15:51.262388 15047 net.cpp:150] Setting up drop3
I0521 08:15:51.262401 15047 net.cpp:157] Top shape: 840 11 (9240)
I0521 08:15:51.262411 15047 net.cpp:165] Memory required for data: 1326181920
I0521 08:15:51.262419 15047 layer_factory.hpp:77] Creating layer ip3_drop3_0_split
I0521 08:15:51.262433 15047 net.cpp:106] Creating Layer ip3_drop3_0_split
I0521 08:15:51.262444 15047 net.cpp:454] ip3_drop3_0_split <- ip3
I0521 08:15:51.262456 15047 net.cpp:411] ip3_drop3_0_split -> ip3_drop3_0_split_0
I0521 08:15:51.262471 15047 net.cpp:411] ip3_drop3_0_split -> ip3_drop3_0_split_1
I0521 08:15:51.262544 15047 net.cpp:150] Setting up ip3_drop3_0_split
I0521 08:15:51.262557 15047 net.cpp:157] Top shape: 840 11 (9240)
I0521 08:15:51.262569 15047 net.cpp:157] Top shape: 840 11 (9240)
I0521 08:15:51.262579 15047 net.cpp:165] Memory required for data: 1326255840
I0521 08:15:51.262589 15047 layer_factory.hpp:77] Creating layer accuracy
I0521 08:15:51.262612 15047 net.cpp:106] Creating Layer accuracy
I0521 08:15:51.262624 15047 net.cpp:454] accuracy <- ip3_drop3_0_split_0
I0521 08:15:51.262634 15047 net.cpp:454] accuracy <- label_data_hdf5_1_split_0
I0521 08:15:51.262647 15047 net.cpp:411] accuracy -> accuracy
…
