…
I0521 04:30:04.635313 20020 net.cpp:322] The NetState phase (0) differed from the phase (1) specified by a rule in layer data_hdf5
I0521 04:30:04.635372 20020 net.cpp:322] The NetState phase (0) differed from the phase (1) specified by a rule in layer accuracy
I0521 04:30:04.635716 20020 net.cpp:49] Initializing net from parameters: 
name: "caffe_test_127x50_x_unshifted"
state {
  phase: TRAIN
}
layer {
  name: "data_hdf5"
  type: "HDF5Data"
  top: "data"
  top: "label"
  include {
    phase: TRAIN
  }
  hdf5_data_param {
    source: "/lustre/atlas/proj-shared/hep105/caffe_titan/minosmatch_nukecczdefs_127x50_x_unshifted_me1Bmc.trainlist"
    batch_size: 650
  }
}
layer {
  name: "conv1"
  type: "Convolution"
  bottom: "data"
  top: "conv1"
  convolution_param {
    num_output: 12
    pad: 0
    stride: 1
    weight_filler {
      type: "xavier"
    }
    bias_filler {
      type: "constant"
    }
    kernel_h: 8
    kernel_w: 3
  }
}
layer {
  name: "relu1"
  type: "ReLU"
  bottom: "conv1"
  top: "conv1"
}
layer {
  name: "pool1"
  type: "Pooling"
  bottom: "conv1"
  top: "pool1"
  pooling_param {
    pool: MAX
    kernel_h: 2
    kernel_w: 1
    stride_h: 2
    stride_w: 1
  }
}
layer {
  name: "conv2"
  type: "Convolution"
  bottom: "pool1"
  top: "conv2"
  convolution_param {
    num_output: 20
    pad: 0
    stride: 1
    weight_filler {
      type: "xavier"
    }
    bias_filler {
      type: "constant"
    }
    kernel_h: 7
    kernel_w: 3
  }
}
layer {
  name: "relu2"
  type: "ReLU"
  bottom: "conv2"
  top: "conv2"
}
layer {
  name: "pool2"
  type: "Pooling"
  bottom: "conv2"
  top: "pool2"
  pooling_param {
    pool: MAX
    kernel_h: 2
    kernel_w: 1
    stride_h: 2
    stride_w: 1
  }
}
layer {
  name: "conv3"
  type: "Convolution"
  bottom: "pool2"
  top: "conv3"
  convolution_param {
    num_output: 28
    pad: 0
    stride: 1
    weight_filler {
      type: "xavier"
    }
    bias_filler {
      type: "constant"
    }
    kernel_h: 6
    kernel_w: 3
  }
}
layer {
  name: "relu3"
  type: "ReLU"
  bottom: "conv3"
  top: "conv3"
}
layer {
  name: "pool3"
  type: "Pooling"
  bottom: "conv3"
  top: "pool3"
  pooling_param {
    pool: MAX
    kernel_h: 2
    kernel_w: 1
    stride_h: 2
    stride_w: 1
  }
}
layer {
  name: "conv4"
  type: "Convolution"
  bottom: "pool3"
  top: "conv4"
  convolution_param {
    num_output: 36
    pad: 0
    stride: 1
    weight_filler {
      type: "xavier"
    }
    bias_filler {
      type: "constant"
    }
    kernel_h: 6
    kernel_w: 3
  }
}
layer {
  name: "relu4"
  type: "ReLU"
  bottom: "conv4"
  top: "conv4"
}
layer {
  name: "pool4"
  type: "Pooling"
  bottom: "conv4"
  top: "pool4"
  pooling_param {
    pool: MAX
    kernel_h: 2
    kernel_w: 1
    stride_h: 2
    stride_w: 1
  }
}
layer {
  name: "ip1"
  type: "InnerProduct"
  bottom: "pool4"
  top: "ip1"
  inner_product_param {
    num_output: 196
    weight_filler {
      type: "xavier"
    }
    bias_filler {
      type: "constant"
    }
  }
}
layer {
  name: "relu5"
  type: "ReLU"
  bottom: "ip1"
  top: "ip1"
}
layer {
  name: "drop1"
  type: "Dropout"
  bottom: "ip1"
  top: "ip1"
  dropout_param {
    dropout_ratio: 0.5
  }
}
layer {
  name: "ip2"
  type: "InnerProduct"
  bottom: "ip1"
  top: "ip2"
  inner_product_param {
    num_output: 98
    weight_filler {
      type: "xavier"
    }
    bias_filler {
      type: "constant"
    }
  }
}
layer {
  name: "relu6"
  type: "ReLU"
  bottom: "ip2"
  top: "ip2"
}
layer {
  name: "drop2"
  type: "Dropout"
  bottom: "ip2"
  top: "ip2"
  dropout_param {
    dropout_ratio: 0.5
  }
}
layer {
  name: "ip3"
  type: "InnerProduct"
  bottom: "ip2"
  top: "ip3"
  inner_product_param {
    num_output: 11
    weight_filler {
      type: "xavier"
    }
    bias_filler {
      type: "constant"
    }
  }
}
layer {
  name: "drop3"
  type: "Dropout"
  bottom: "ip3"
  top: "ip3"
  dropout_param {
    dropout_ratio: 0.5
  }
}
layer {
  name: "loss"
  type: "SoftmaxWithLoss"
  bottom: "ip3"
  bottom: "label"
  top: "loss"
}
I0521 04:30:04.635895 20020 layer_factory.hpp:77] Creating layer data_hdf5
I0521 04:30:04.635918 20020 net.cpp:106] Creating Layer data_hdf5
I0521 04:30:04.635933 20020 net.cpp:411] data_hdf5 -> data
I0521 04:30:04.635967 20020 net.cpp:411] data_hdf5 -> label
I0521 04:30:04.635998 20020 hdf5_data_layer.cpp:79] Loading list of HDF5 filenames from: /lustre/atlas/proj-shared/hep105/caffe_titan/minosmatch_nukecczdefs_127x50_x_unshifted_me1Bmc.trainlist
I0521 04:30:04.637259 20020 hdf5_data_layer.cpp:93] Number of HDF5 files: 15
I0521 04:30:04.639456 20020 hdf5.cpp:32] Datatype class: H5T_FLOAT
I0521 04:30:26.216017 20020 hdf5.cpp:35] Datatype class: H5T_INTEGER
I0521 04:30:26.221134 20020 net.cpp:150] Setting up data_hdf5
I0521 04:30:26.221179 20020 net.cpp:157] Top shape: 650 1 127 50 (4127500)
I0521 04:30:26.221194 20020 net.cpp:157] Top shape: 650 (650)
I0521 04:30:26.221204 20020 net.cpp:165] Memory required for data: 16512600
I0521 04:30:26.221217 20020 layer_factory.hpp:77] Creating layer conv1
I0521 04:30:26.221251 20020 net.cpp:106] Creating Layer conv1
I0521 04:30:26.221263 20020 net.cpp:454] conv1 <- data
I0521 04:30:26.221285 20020 net.cpp:411] conv1 -> conv1
I0521 04:30:26.588284 20020 net.cpp:150] Setting up conv1
I0521 04:30:26.588330 20020 net.cpp:157] Top shape: 650 12 120 48 (44928000)
I0521 04:30:26.588341 20020 net.cpp:165] Memory required for data: 196224600
I0521 04:30:26.588369 20020 layer_factory.hpp:77] Creating layer relu1
I0521 04:30:26.588392 20020 net.cpp:106] Creating Layer relu1
I0521 04:30:26.588402 20020 net.cpp:454] relu1 <- conv1
I0521 04:30:26.588415 20020 net.cpp:397] relu1 -> conv1 (in-place)
I0521 04:30:26.588930 20020 net.cpp:150] Setting up relu1
I0521 04:30:26.588948 20020 net.cpp:157] Top shape: 650 12 120 48 (44928000)
I0521 04:30:26.588958 20020 net.cpp:165] Memory required for data: 375936600
I0521 04:30:26.588966 20020 layer_factory.hpp:77] Creating layer pool1
I0521 04:30:26.588984 20020 net.cpp:106] Creating Layer pool1
I0521 04:30:26.588994 20020 net.cpp:454] pool1 <- conv1
I0521 04:30:26.589006 20020 net.cpp:411] pool1 -> pool1
I0521 04:30:26.589087 20020 net.cpp:150] Setting up pool1
I0521 04:30:26.589102 20020 net.cpp:157] Top shape: 650 12 60 48 (22464000)
I0521 04:30:26.589112 20020 net.cpp:165] Memory required for data: 465792600
I0521 04:30:26.589119 20020 layer_factory.hpp:77] Creating layer conv2
I0521 04:30:26.589143 20020 net.cpp:106] Creating Layer conv2
I0521 04:30:26.589154 20020 net.cpp:454] conv2 <- pool1
I0521 04:30:26.589166 20020 net.cpp:411] conv2 -> conv2
I0521 04:30:26.591856 20020 net.cpp:150] Setting up conv2
I0521 04:30:26.591877 20020 net.cpp:157] Top shape: 650 20 54 46 (32292000)
I0521 04:30:26.591888 20020 net.cpp:165] Memory required for data: 594960600
I0521 04:30:26.591907 20020 layer_factory.hpp:77] Creating layer relu2
I0521 04:30:26.591922 20020 net.cpp:106] Creating Layer relu2
I0521 04:30:26.591933 20020 net.cpp:454] relu2 <- conv2
I0521 04:30:26.591945 20020 net.cpp:397] relu2 -> conv2 (in-place)
I0521 04:30:26.592275 20020 net.cpp:150] Setting up relu2
I0521 04:30:26.592290 20020 net.cpp:157] Top shape: 650 20 54 46 (32292000)
I0521 04:30:26.592300 20020 net.cpp:165] Memory required for data: 724128600
I0521 04:30:26.592310 20020 layer_factory.hpp:77] Creating layer pool2
I0521 04:30:26.592322 20020 net.cpp:106] Creating Layer pool2
I0521 04:30:26.592332 20020 net.cpp:454] pool2 <- conv2
I0521 04:30:26.592357 20020 net.cpp:411] pool2 -> pool2
I0521 04:30:26.592427 20020 net.cpp:150] Setting up pool2
I0521 04:30:26.592440 20020 net.cpp:157] Top shape: 650 20 27 46 (16146000)
I0521 04:30:26.592450 20020 net.cpp:165] Memory required for data: 788712600
I0521 04:30:26.592459 20020 layer_factory.hpp:77] Creating layer conv3
I0521 04:30:26.592478 20020 net.cpp:106] Creating Layer conv3
I0521 04:30:26.592489 20020 net.cpp:454] conv3 <- pool2
I0521 04:30:26.592501 20020 net.cpp:411] conv3 -> conv3
I0521 04:30:26.594434 20020 net.cpp:150] Setting up conv3
I0521 04:30:26.594457 20020 net.cpp:157] Top shape: 650 28 22 44 (17617600)
I0521 04:30:26.594470 20020 net.cpp:165] Memory required for data: 859183000
I0521 04:30:26.594488 20020 layer_factory.hpp:77] Creating layer relu3
I0521 04:30:26.594504 20020 net.cpp:106] Creating Layer relu3
I0521 04:30:26.594514 20020 net.cpp:454] relu3 <- conv3
I0521 04:30:26.594527 20020 net.cpp:397] relu3 -> conv3 (in-place)
I0521 04:30:26.594995 20020 net.cpp:150] Setting up relu3
I0521 04:30:26.595012 20020 net.cpp:157] Top shape: 650 28 22 44 (17617600)
I0521 04:30:26.595022 20020 net.cpp:165] Memory required for data: 929653400
I0521 04:30:26.595032 20020 layer_factory.hpp:77] Creating layer pool3
I0521 04:30:26.595046 20020 net.cpp:106] Creating Layer pool3
I0521 04:30:26.595055 20020 net.cpp:454] pool3 <- conv3
I0521 04:30:26.595068 20020 net.cpp:411] pool3 -> pool3
I0521 04:30:26.595136 20020 net.cpp:150] Setting up pool3
I0521 04:30:26.595149 20020 net.cpp:157] Top shape: 650 28 11 44 (8808800)
I0521 04:30:26.595160 20020 net.cpp:165] Memory required for data: 964888600
I0521 04:30:26.595168 20020 layer_factory.hpp:77] Creating layer conv4
I0521 04:30:26.595186 20020 net.cpp:106] Creating Layer conv4
I0521 04:30:26.595197 20020 net.cpp:454] conv4 <- pool3
I0521 04:30:26.595211 20020 net.cpp:411] conv4 -> conv4
I0521 04:30:26.598003 20020 net.cpp:150] Setting up conv4
I0521 04:30:26.598027 20020 net.cpp:157] Top shape: 650 36 6 42 (5896800)
I0521 04:30:26.598042 20020 net.cpp:165] Memory required for data: 988475800
I0521 04:30:26.598058 20020 layer_factory.hpp:77] Creating layer relu4
I0521 04:30:26.598073 20020 net.cpp:106] Creating Layer relu4
I0521 04:30:26.598083 20020 net.cpp:454] relu4 <- conv4
I0521 04:30:26.598095 20020 net.cpp:397] relu4 -> conv4 (in-place)
I0521 04:30:26.598568 20020 net.cpp:150] Setting up relu4
I0521 04:30:26.598584 20020 net.cpp:157] Top shape: 650 36 6 42 (5896800)
I0521 04:30:26.598594 20020 net.cpp:165] Memory required for data: 1012063000
I0521 04:30:26.598605 20020 layer_factory.hpp:77] Creating layer pool4
I0521 04:30:26.598618 20020 net.cpp:106] Creating Layer pool4
I0521 04:30:26.598628 20020 net.cpp:454] pool4 <- conv4
I0521 04:30:26.598640 20020 net.cpp:411] pool4 -> pool4
I0521 04:30:26.598709 20020 net.cpp:150] Setting up pool4
I0521 04:30:26.598722 20020 net.cpp:157] Top shape: 650 36 3 42 (2948400)
I0521 04:30:26.598733 20020 net.cpp:165] Memory required for data: 1023856600
I0521 04:30:26.598743 20020 layer_factory.hpp:77] Creating layer ip1
I0521 04:30:26.598763 20020 net.cpp:106] Creating Layer ip1
I0521 04:30:26.598773 20020 net.cpp:454] ip1 <- pool4
I0521 04:30:26.598786 20020 net.cpp:411] ip1 -> ip1
I0521 04:30:26.614202 20020 net.cpp:150] Setting up ip1
I0521 04:30:26.614230 20020 net.cpp:157] Top shape: 650 196 (127400)
I0521 04:30:26.614243 20020 net.cpp:165] Memory required for data: 1024366200
I0521 04:30:26.614265 20020 layer_factory.hpp:77] Creating layer relu5
I0521 04:30:26.614280 20020 net.cpp:106] Creating Layer relu5
I0521 04:30:26.614290 20020 net.cpp:454] relu5 <- ip1
I0521 04:30:26.614305 20020 net.cpp:397] relu5 -> ip1 (in-place)
I0521 04:30:26.614646 20020 net.cpp:150] Setting up relu5
I0521 04:30:26.614660 20020 net.cpp:157] Top shape: 650 196 (127400)
I0521 04:30:26.614670 20020 net.cpp:165] Memory required for data: 1024875800
I0521 04:30:26.614681 20020 layer_factory.hpp:77] Creating layer drop1
I0521 04:30:26.614703 20020 net.cpp:106] Creating Layer drop1
I0521 04:30:26.614713 20020 net.cpp:454] drop1 <- ip1
I0521 04:30:26.614738 20020 net.cpp:397] drop1 -> ip1 (in-place)
I0521 04:30:26.614814 20020 net.cpp:150] Setting up drop1
I0521 04:30:26.614827 20020 net.cpp:157] Top shape: 650 196 (127400)
I0521 04:30:26.614840 20020 net.cpp:165] Memory required for data: 1025385400
I0521 04:30:26.614850 20020 layer_factory.hpp:77] Creating layer ip2
I0521 04:30:26.614869 20020 net.cpp:106] Creating Layer ip2
I0521 04:30:26.614878 20020 net.cpp:454] ip2 <- ip1
I0521 04:30:26.614892 20020 net.cpp:411] ip2 -> ip2
I0521 04:30:26.615355 20020 net.cpp:150] Setting up ip2
I0521 04:30:26.615368 20020 net.cpp:157] Top shape: 650 98 (63700)
I0521 04:30:26.615378 20020 net.cpp:165] Memory required for data: 1025640200
I0521 04:30:26.615393 20020 layer_factory.hpp:77] Creating layer relu6
I0521 04:30:26.615406 20020 net.cpp:106] Creating Layer relu6
I0521 04:30:26.615417 20020 net.cpp:454] relu6 <- ip2
I0521 04:30:26.615428 20020 net.cpp:397] relu6 -> ip2 (in-place)
I0521 04:30:26.615949 20020 net.cpp:150] Setting up relu6
I0521 04:30:26.615965 20020 net.cpp:157] Top shape: 650 98 (63700)
I0521 04:30:26.615977 20020 net.cpp:165] Memory required for data: 1025895000
I0521 04:30:26.615986 20020 layer_factory.hpp:77] Creating layer drop2
I0521 04:30:26.615999 20020 net.cpp:106] Creating Layer drop2
I0521 04:30:26.616009 20020 net.cpp:454] drop2 <- ip2
I0521 04:30:26.616021 20020 net.cpp:397] drop2 -> ip2 (in-place)
I0521 04:30:26.616065 20020 net.cpp:150] Setting up drop2
I0521 04:30:26.616078 20020 net.cpp:157] Top shape: 650 98 (63700)
I0521 04:30:26.616088 20020 net.cpp:165] Memory required for data: 1026149800
I0521 04:30:26.616098 20020 layer_factory.hpp:77] Creating layer ip3
I0521 04:30:26.616111 20020 net.cpp:106] Creating Layer ip3
I0521 04:30:26.616122 20020 net.cpp:454] ip3 <- ip2
I0521 04:30:26.616133 20020 net.cpp:411] ip3 -> ip3
I0521 04:30:26.616341 20020 net.cpp:150] Setting up ip3
I0521 04:30:26.616354 20020 net.cpp:157] Top shape: 650 11 (7150)
I0521 04:30:26.616364 20020 net.cpp:165] Memory required for data: 1026178400
I0521 04:30:26.616379 20020 layer_factory.hpp:77] Creating layer drop3
I0521 04:30:26.616391 20020 net.cpp:106] Creating Layer drop3
I0521 04:30:26.616401 20020 net.cpp:454] drop3 <- ip3
I0521 04:30:26.616413 20020 net.cpp:397] drop3 -> ip3 (in-place)
I0521 04:30:26.616451 20020 net.cpp:150] Setting up drop3
I0521 04:30:26.616464 20020 net.cpp:157] Top shape: 650 11 (7150)
I0521 04:30:26.616474 20020 net.cpp:165] Memory required for data: 1026207000
I0521 04:30:26.616484 20020 layer_factory.hpp:77] Creating layer loss
I0521 04:30:26.616503 20020 net.cpp:106] Creating Layer loss
I0521 04:30:26.616513 20020 net.cpp:454] loss <- ip3
I0521 04:30:26.616524 20020 net.cpp:454] loss <- label
I0521 04:30:26.616538 20020 net.cpp:411] loss -> loss
I0521 04:30:26.616554 20020 layer_factory.hpp:77] Creating layer loss
…
I0521 04:30:26.619134 20020 solver.cpp:181] Creating test net (#0) specified by net file: /lustre/atlas/proj-shared/hep105/caffe_titan/caffe_workflow/logs_batch_size_test/batch_size_650_2016-05-20T11.20.56.254407.prototxt
I0521 04:30:26.619204 20020 net.cpp:322] The NetState phase (1) differed from the phase (0) specified by a rule in layer data_hdf5
I0521 04:30:26.619560 20020 net.cpp:49] Initializing net from parameters: 
name: "caffe_test_127x50_x_unshifted"
state {
  phase: TEST
}
layer {
  name: "data_hdf5"
  type: "HDF5Data"
  top: "data"
  top: "label"
  include {
    phase: TEST
  }
  hdf5_data_param {
    source: "/lustre/atlas/proj-shared/hep105/caffe_titan/minosmatch_nukecczdefs_127x50_x_unshifted_me1Bmc.testlist"
    batch_size: 650
  }
}
layer {
  name: "conv1"
  type: "Convolution"
  bottom: "data"
  top: "conv1"
  convolution_param {
    num_output: 12
    pad: 0
    stride: 1
    weight_filler {
      type: "xavier"
    }
    bias_filler {
      type: "constant"
    }
    kernel_h: 8
    kernel_w: 3
  }
}
layer {
  name: "relu1"
  type: "ReLU"
  bottom: "conv1"
  top: "conv1"
}
layer {
  name: "pool1"
  type: "Pooling"
  bottom: "conv1"
  top: "pool1"
  pooling_param {
    pool: MAX
    kernel_h: 2
    kernel_w: 1
    stride_h: 2
    stride_w: 1
  }
}
layer {
  name: "conv2"
  type: "Convolution"
  bottom: "pool1"
  top: "conv2"
  convolution_param {
    num_output: 20
    pad: 0
    stride: 1
    weight_filler {
      type: "xavier"
    }
    bias_filler {
      type: "constant"
    }
    kernel_h: 7
    kernel_w: 3
  }
}
layer {
  name: "relu2"
  type: "ReLU"
  bottom: "conv2"
  top: "conv2"
}
layer {
  name: "pool2"
  type: "Pooling"
  bottom: "conv2"
  top: "pool2"
  pooling_param {
    pool: MAX
    kernel_h: 2
    kernel_w: 1
    stride_h: 2
    stride_w: 1
  }
}
layer {
  name: "conv3"
  type: "Convolution"
  bottom: "pool2"
  top: "conv3"
  convolution_param {
    num_output: 28
    pad: 0
    stride: 1
    weight_filler {
      type: "xavier"
    }
    bias_filler {
      type: "constant"
    }
    kernel_h: 6
    kernel_w: 3
  }
}
layer {
  name: "relu3"
  type: "ReLU"
  bottom: "conv3"
  top: "conv3"
}
layer {
  name: "pool3"
  type: "Pooling"
  bottom: "conv3"
  top: "pool3"
  pooling_param {
    pool: MAX
    kernel_h: 2
    kernel_w: 1
    stride_h: 2
    stride_w: 1
  }
}
layer {
  name: "conv4"
  type: "Convolution"
  bottom: "pool3"
  top: "conv4"
  convolution_param {
    num_output: 36
    pad: 0
    stride: 1
    weight_filler {
      type: "xavier"
    }
    bias_filler {
      type: "constant"
    }
    kernel_h: 6
    kernel_w: 3
  }
}
layer {
  name: "relu4"
  type: "ReLU"
  bottom: "conv4"
  top: "conv4"
}
layer {
  name: "pool4"
  type: "Pooling"
  bottom: "conv4"
  top: "pool4"
  pooling_param {
    pool: MAX
    kernel_h: 2
    kernel_w: 1
    stride_h: 2
    stride_w: 1
  }
}
layer {
  name: "ip1"
  type: "InnerProduct"
  bottom: "pool4"
  top: "ip1"
  inner_product_param {
    num_output: 196
    weight_filler {
      type: "xavier"
    }
    bias_filler {
      type: "constant"
    }
  }
}
layer {
  name: "relu5"
  type: "ReLU"
  bottom: "ip1"
  top: "ip1"
}
layer {
  name: "drop1"
  type: "Dropout"
  bottom: "ip1"
  top: "ip1"
  dropout_param {
    dropout_ratio: 0.5
  }
}
layer {
  name: "ip2"
  type: "InnerProduct"
  bottom: "ip1"
  top: "ip2"
  inner_product_param {
    num_output: 98
    weight_filler {
      type: "xavier"
    }
    bias_filler {
      type: "constant"
    }
  }
}
layer {
  name: "relu6"
  type: "ReLU"
  bottom: "ip2"
  top: "ip2"
}
layer {
  name: "drop2"
  type: "Dropout"
  bottom: "ip2"
  top: "ip2"
  dropout_param {
    dropout_ratio: 0.5
  }
}
layer {
  name: "ip3"
  type: "InnerProduct"
  bottom: "ip2"
  top: "ip3"
  inner_product_param {
    num_output: 11
    weight_filler {
      type: "xavier"
    }
    bias_filler {
      type: "constant"
    }
  }
}
layer {
  name: "drop3"
  type: "Dropout"
  bottom: "ip3"
  top: "ip3"
  dropout_param {
    dropout_ratio: 0.5
  }
}
layer {
  name: "accuracy"
  type: "Accuracy"
  bottom: "ip3"
  bottom: "label"
  top: "accuracy"
  include {
    phase: TEST
  }
}
layer {
  name: "loss"
  type: "SoftmaxWithLoss"
  bottom: "ip3"
  bottom: "label"
  top: "loss"
}
I0521 04:30:26.619753 20020 layer_factory.hpp:77] Creating layer data_hdf5
I0521 04:30:26.619768 20020 net.cpp:106] Creating Layer data_hdf5
I0521 04:30:26.619781 20020 net.cpp:411] data_hdf5 -> data
I0521 04:30:26.619797 20020 net.cpp:411] data_hdf5 -> label
I0521 04:30:26.619813 20020 hdf5_data_layer.cpp:79] Loading list of HDF5 filenames from: /lustre/atlas/proj-shared/hep105/caffe_titan/minosmatch_nukecczdefs_127x50_x_unshifted_me1Bmc.testlist
I0521 04:30:26.637751 20020 hdf5_data_layer.cpp:93] Number of HDF5 files: 3
I0521 04:30:47.954077 20020 net.cpp:150] Setting up data_hdf5
I0521 04:30:47.954241 20020 net.cpp:157] Top shape: 650 1 127 50 (4127500)
I0521 04:30:47.954255 20020 net.cpp:157] Top shape: 650 (650)
I0521 04:30:47.954267 20020 net.cpp:165] Memory required for data: 16512600
I0521 04:30:47.954282 20020 layer_factory.hpp:77] Creating layer label_data_hdf5_1_split
I0521 04:30:47.954309 20020 net.cpp:106] Creating Layer label_data_hdf5_1_split
I0521 04:30:47.954319 20020 net.cpp:454] label_data_hdf5_1_split <- label
I0521 04:30:47.954334 20020 net.cpp:411] label_data_hdf5_1_split -> label_data_hdf5_1_split_0
I0521 04:30:47.954355 20020 net.cpp:411] label_data_hdf5_1_split -> label_data_hdf5_1_split_1
I0521 04:30:47.954428 20020 net.cpp:150] Setting up label_data_hdf5_1_split
I0521 04:30:47.954442 20020 net.cpp:157] Top shape: 650 (650)
I0521 04:30:47.954453 20020 net.cpp:157] Top shape: 650 (650)
I0521 04:30:47.954463 20020 net.cpp:165] Memory required for data: 16517800
I0521 04:30:47.954473 20020 layer_factory.hpp:77] Creating layer conv1
I0521 04:30:47.954495 20020 net.cpp:106] Creating Layer conv1
I0521 04:30:47.954505 20020 net.cpp:454] conv1 <- data
I0521 04:30:47.954519 20020 net.cpp:411] conv1 -> conv1
I0521 04:30:47.956461 20020 net.cpp:150] Setting up conv1
I0521 04:30:47.956485 20020 net.cpp:157] Top shape: 650 12 120 48 (44928000)
I0521 04:30:47.956496 20020 net.cpp:165] Memory required for data: 196229800
I0521 04:30:47.956517 20020 layer_factory.hpp:77] Creating layer relu1
I0521 04:30:47.956532 20020 net.cpp:106] Creating Layer relu1
I0521 04:30:47.956542 20020 net.cpp:454] relu1 <- conv1
I0521 04:30:47.956555 20020 net.cpp:397] relu1 -> conv1 (in-place)
I0521 04:30:47.957052 20020 net.cpp:150] Setting up relu1
I0521 04:30:47.957069 20020 net.cpp:157] Top shape: 650 12 120 48 (44928000)
I0521 04:30:47.957079 20020 net.cpp:165] Memory required for data: 375941800
I0521 04:30:47.957089 20020 layer_factory.hpp:77] Creating layer pool1
I0521 04:30:47.957105 20020 net.cpp:106] Creating Layer pool1
I0521 04:30:47.957115 20020 net.cpp:454] pool1 <- conv1
I0521 04:30:47.957129 20020 net.cpp:411] pool1 -> pool1
I0521 04:30:47.957203 20020 net.cpp:150] Setting up pool1
I0521 04:30:47.957217 20020 net.cpp:157] Top shape: 650 12 60 48 (22464000)
I0521 04:30:47.957227 20020 net.cpp:165] Memory required for data: 465797800
I0521 04:30:47.957237 20020 layer_factory.hpp:77] Creating layer conv2
I0521 04:30:47.957254 20020 net.cpp:106] Creating Layer conv2
I0521 04:30:47.957265 20020 net.cpp:454] conv2 <- pool1
I0521 04:30:47.957278 20020 net.cpp:411] conv2 -> conv2
I0521 04:30:47.959197 20020 net.cpp:150] Setting up conv2
I0521 04:30:47.959218 20020 net.cpp:157] Top shape: 650 20 54 46 (32292000)
I0521 04:30:47.959233 20020 net.cpp:165] Memory required for data: 594965800
I0521 04:30:47.959250 20020 layer_factory.hpp:77] Creating layer relu2
I0521 04:30:47.959265 20020 net.cpp:106] Creating Layer relu2
I0521 04:30:47.959275 20020 net.cpp:454] relu2 <- conv2
I0521 04:30:47.959287 20020 net.cpp:397] relu2 -> conv2 (in-place)
I0521 04:30:47.959624 20020 net.cpp:150] Setting up relu2
I0521 04:30:47.959636 20020 net.cpp:157] Top shape: 650 20 54 46 (32292000)
I0521 04:30:47.959647 20020 net.cpp:165] Memory required for data: 724133800
I0521 04:30:47.959657 20020 layer_factory.hpp:77] Creating layer pool2
I0521 04:30:47.959672 20020 net.cpp:106] Creating Layer pool2
I0521 04:30:47.959682 20020 net.cpp:454] pool2 <- conv2
I0521 04:30:47.959694 20020 net.cpp:411] pool2 -> pool2
I0521 04:30:47.959765 20020 net.cpp:150] Setting up pool2
I0521 04:30:47.959779 20020 net.cpp:157] Top shape: 650 20 27 46 (16146000)
I0521 04:30:47.959789 20020 net.cpp:165] Memory required for data: 788717800
I0521 04:30:47.959800 20020 layer_factory.hpp:77] Creating layer conv3
I0521 04:30:47.959817 20020 net.cpp:106] Creating Layer conv3
I0521 04:30:47.959828 20020 net.cpp:454] conv3 <- pool2
I0521 04:30:47.959842 20020 net.cpp:411] conv3 -> conv3
I0521 04:30:47.961824 20020 net.cpp:150] Setting up conv3
I0521 04:30:47.961846 20020 net.cpp:157] Top shape: 650 28 22 44 (17617600)
I0521 04:30:47.961859 20020 net.cpp:165] Memory required for data: 859188200
I0521 04:30:47.961891 20020 layer_factory.hpp:77] Creating layer relu3
I0521 04:30:47.961905 20020 net.cpp:106] Creating Layer relu3
I0521 04:30:47.961915 20020 net.cpp:454] relu3 <- conv3
I0521 04:30:47.961927 20020 net.cpp:397] relu3 -> conv3 (in-place)
I0521 04:30:47.962399 20020 net.cpp:150] Setting up relu3
I0521 04:30:47.962414 20020 net.cpp:157] Top shape: 650 28 22 44 (17617600)
I0521 04:30:47.962425 20020 net.cpp:165] Memory required for data: 929658600
I0521 04:30:47.962435 20020 layer_factory.hpp:77] Creating layer pool3
I0521 04:30:47.962448 20020 net.cpp:106] Creating Layer pool3
I0521 04:30:47.962458 20020 net.cpp:454] pool3 <- conv3
I0521 04:30:47.962471 20020 net.cpp:411] pool3 -> pool3
I0521 04:30:47.962543 20020 net.cpp:150] Setting up pool3
I0521 04:30:47.962555 20020 net.cpp:157] Top shape: 650 28 11 44 (8808800)
I0521 04:30:47.962565 20020 net.cpp:165] Memory required for data: 964893800
I0521 04:30:47.962574 20020 layer_factory.hpp:77] Creating layer conv4
I0521 04:30:47.962591 20020 net.cpp:106] Creating Layer conv4
I0521 04:30:47.962602 20020 net.cpp:454] conv4 <- pool3
I0521 04:30:47.962616 20020 net.cpp:411] conv4 -> conv4
I0521 04:30:47.964669 20020 net.cpp:150] Setting up conv4
I0521 04:30:47.964692 20020 net.cpp:157] Top shape: 650 36 6 42 (5896800)
I0521 04:30:47.964704 20020 net.cpp:165] Memory required for data: 988481000
I0521 04:30:47.964720 20020 layer_factory.hpp:77] Creating layer relu4
I0521 04:30:47.964733 20020 net.cpp:106] Creating Layer relu4
I0521 04:30:47.964743 20020 net.cpp:454] relu4 <- conv4
I0521 04:30:47.964756 20020 net.cpp:397] relu4 -> conv4 (in-place)
I0521 04:30:47.965227 20020 net.cpp:150] Setting up relu4
I0521 04:30:47.965243 20020 net.cpp:157] Top shape: 650 36 6 42 (5896800)
I0521 04:30:47.965253 20020 net.cpp:165] Memory required for data: 1012068200
I0521 04:30:47.965263 20020 layer_factory.hpp:77] Creating layer pool4
I0521 04:30:47.965276 20020 net.cpp:106] Creating Layer pool4
I0521 04:30:47.965286 20020 net.cpp:454] pool4 <- conv4
I0521 04:30:47.965299 20020 net.cpp:411] pool4 -> pool4
I0521 04:30:47.965370 20020 net.cpp:150] Setting up pool4
I0521 04:30:47.965384 20020 net.cpp:157] Top shape: 650 36 3 42 (2948400)
I0521 04:30:47.965394 20020 net.cpp:165] Memory required for data: 1023861800
I0521 04:30:47.965400 20020 layer_factory.hpp:77] Creating layer ip1
I0521 04:30:47.965416 20020 net.cpp:106] Creating Layer ip1
I0521 04:30:47.965426 20020 net.cpp:454] ip1 <- pool4
I0521 04:30:47.965440 20020 net.cpp:411] ip1 -> ip1
I0521 04:30:47.980921 20020 net.cpp:150] Setting up ip1
I0521 04:30:47.980949 20020 net.cpp:157] Top shape: 650 196 (127400)
I0521 04:30:47.980964 20020 net.cpp:165] Memory required for data: 1024371400
I0521 04:30:47.980986 20020 layer_factory.hpp:77] Creating layer relu5
I0521 04:30:47.981003 20020 net.cpp:106] Creating Layer relu5
I0521 04:30:47.981012 20020 net.cpp:454] relu5 <- ip1
I0521 04:30:47.981026 20020 net.cpp:397] relu5 -> ip1 (in-place)
I0521 04:30:47.981374 20020 net.cpp:150] Setting up relu5
I0521 04:30:47.981387 20020 net.cpp:157] Top shape: 650 196 (127400)
I0521 04:30:47.981397 20020 net.cpp:165] Memory required for data: 1024881000
I0521 04:30:47.981407 20020 layer_factory.hpp:77] Creating layer drop1
I0521 04:30:47.981426 20020 net.cpp:106] Creating Layer drop1
I0521 04:30:47.981436 20020 net.cpp:454] drop1 <- ip1
I0521 04:30:47.981449 20020 net.cpp:397] drop1 -> ip1 (in-place)
I0521 04:30:47.981494 20020 net.cpp:150] Setting up drop1
I0521 04:30:47.981508 20020 net.cpp:157] Top shape: 650 196 (127400)
I0521 04:30:47.981518 20020 net.cpp:165] Memory required for data: 1025390600
I0521 04:30:47.981528 20020 layer_factory.hpp:77] Creating layer ip2
I0521 04:30:47.981542 20020 net.cpp:106] Creating Layer ip2
I0521 04:30:47.981551 20020 net.cpp:454] ip2 <- ip1
I0521 04:30:47.981565 20020 net.cpp:411] ip2 -> ip2
I0521 04:30:47.982053 20020 net.cpp:150] Setting up ip2
I0521 04:30:47.982066 20020 net.cpp:157] Top shape: 650 98 (63700)
I0521 04:30:47.982076 20020 net.cpp:165] Memory required for data: 1025645400
I0521 04:30:47.982105 20020 layer_factory.hpp:77] Creating layer relu6
I0521 04:30:47.982118 20020 net.cpp:106] Creating Layer relu6
I0521 04:30:47.982127 20020 net.cpp:454] relu6 <- ip2
I0521 04:30:47.982141 20020 net.cpp:397] relu6 -> ip2 (in-place)
I0521 04:30:47.982673 20020 net.cpp:150] Setting up relu6
I0521 04:30:47.982695 20020 net.cpp:157] Top shape: 650 98 (63700)
I0521 04:30:47.982704 20020 net.cpp:165] Memory required for data: 1025900200
I0521 04:30:47.982715 20020 layer_factory.hpp:77] Creating layer drop2
I0521 04:30:47.982729 20020 net.cpp:106] Creating Layer drop2
I0521 04:30:47.982739 20020 net.cpp:454] drop2 <- ip2
I0521 04:30:47.982753 20020 net.cpp:397] drop2 -> ip2 (in-place)
I0521 04:30:47.982796 20020 net.cpp:150] Setting up drop2
I0521 04:30:47.982810 20020 net.cpp:157] Top shape: 650 98 (63700)
I0521 04:30:47.982820 20020 net.cpp:165] Memory required for data: 1026155000
I0521 04:30:47.982830 20020 layer_factory.hpp:77] Creating layer ip3
I0521 04:30:47.982843 20020 net.cpp:106] Creating Layer ip3
I0521 04:30:47.982853 20020 net.cpp:454] ip3 <- ip2
I0521 04:30:47.982867 20020 net.cpp:411] ip3 -> ip3
I0521 04:30:47.983090 20020 net.cpp:150] Setting up ip3
I0521 04:30:47.983103 20020 net.cpp:157] Top shape: 650 11 (7150)
I0521 04:30:47.983114 20020 net.cpp:165] Memory required for data: 1026183600
I0521 04:30:47.983129 20020 layer_factory.hpp:77] Creating layer drop3
I0521 04:30:47.983141 20020 net.cpp:106] Creating Layer drop3
I0521 04:30:47.983151 20020 net.cpp:454] drop3 <- ip3
I0521 04:30:47.983165 20020 net.cpp:397] drop3 -> ip3 (in-place)
I0521 04:30:47.983206 20020 net.cpp:150] Setting up drop3
I0521 04:30:47.983218 20020 net.cpp:157] Top shape: 650 11 (7150)
I0521 04:30:47.983227 20020 net.cpp:165] Memory required for data: 1026212200
I0521 04:30:47.983244 20020 layer_factory.hpp:77] Creating layer ip3_drop3_0_split
I0521 04:30:47.983258 20020 net.cpp:106] Creating Layer ip3_drop3_0_split
I0521 04:30:47.983268 20020 net.cpp:454] ip3_drop3_0_split <- ip3
I0521 04:30:47.983280 20020 net.cpp:411] ip3_drop3_0_split -> ip3_drop3_0_split_0
I0521 04:30:47.983295 20020 net.cpp:411] ip3_drop3_0_split -> ip3_drop3_0_split_1
I0521 04:30:47.983369 20020 net.cpp:150] Setting up ip3_drop3_0_split
I0521 04:30:47.983382 20020 net.cpp:157] Top shape: 650 11 (7150)
I0521 04:30:47.983394 20020 net.cpp:157] Top shape: 650 11 (7150)
I0521 04:30:47.983404 20020 net.cpp:165] Memory required for data: 1026269400
I0521 04:30:47.983414 20020 layer_factory.hpp:77] Creating layer accuracy
I0521 04:30:47.983436 20020 net.cpp:106] Creating Layer accuracy
I0521 04:30:47.983446 20020 net.cpp:454] accuracy <- ip3_drop3_0_split_0
I0521 04:30:47.983458 20020 net.cpp:454] accuracy <- label_data_hdf5_1_split_0
I0521 04:30:47.983471 20020 net.cpp:411] accuracy -> accuracy
…
