…
I0521 06:12:26.254654 30806 net.cpp:322] The NetState phase (0) differed from the phase (1) specified by a rule in layer data_hdf5
I0521 06:12:26.254719 30806 net.cpp:322] The NetState phase (0) differed from the phase (1) specified by a rule in layer accuracy
I0521 06:12:26.255095 30806 net.cpp:49] Initializing net from parameters: 
name: "caffe_test_127x50_x_unshifted"
state {
  phase: TRAIN
}
layer {
  name: "data_hdf5"
  type: "HDF5Data"
  top: "data"
  top: "label"
  include {
    phase: TRAIN
  }
  hdf5_data_param {
    source: "/lustre/atlas/proj-shared/hep105/caffe_titan/minosmatch_nukecczdefs_127x50_x_unshifted_me1Bmc.trainlist"
    batch_size: 750
  }
}
layer {
  name: "conv1"
  type: "Convolution"
  bottom: "data"
  top: "conv1"
  convolution_param {
    num_output: 12
    pad: 0
    stride: 1
    weight_filler {
      type: "xavier"
    }
    bias_filler {
      type: "constant"
    }
    kernel_h: 8
    kernel_w: 3
  }
}
layer {
  name: "relu1"
  type: "ReLU"
  bottom: "conv1"
  top: "conv1"
}
layer {
  name: "pool1"
  type: "Pooling"
  bottom: "conv1"
  top: "pool1"
  pooling_param {
    pool: MAX
    kernel_h: 2
    kernel_w: 1
    stride_h: 2
    stride_w: 1
  }
}
layer {
  name: "conv2"
  type: "Convolution"
  bottom: "pool1"
  top: "conv2"
  convolution_param {
    num_output: 20
    pad: 0
    stride: 1
    weight_filler {
      type: "xavier"
    }
    bias_filler {
      type: "constant"
    }
    kernel_h: 7
    kernel_w: 3
  }
}
layer {
  name: "relu2"
  type: "ReLU"
  bottom: "conv2"
  top: "conv2"
}
layer {
  name: "pool2"
  type: "Pooling"
  bottom: "conv2"
  top: "pool2"
  pooling_param {
    pool: MAX
    kernel_h: 2
    kernel_w: 1
    stride_h: 2
    stride_w: 1
  }
}
layer {
  name: "conv3"
  type: "Convolution"
  bottom: "pool2"
  top: "conv3"
  convolution_param {
    num_output: 28
    pad: 0
    stride: 1
    weight_filler {
      type: "xavier"
    }
    bias_filler {
      type: "constant"
    }
    kernel_h: 6
    kernel_w: 3
  }
}
layer {
  name: "relu3"
  type: "ReLU"
  bottom: "conv3"
  top: "conv3"
}
layer {
  name: "pool3"
  type: "Pooling"
  bottom: "conv3"
  top: "pool3"
  pooling_param {
    pool: MAX
    kernel_h: 2
    kernel_w: 1
    stride_h: 2
    stride_w: 1
  }
}
layer {
  name: "conv4"
  type: "Convolution"
  bottom: "pool3"
  top: "conv4"
  convolution_param {
    num_output: 36
    pad: 0
    stride: 1
    weight_filler {
      type: "xavier"
    }
    bias_filler {
      type: "constant"
    }
    kernel_h: 6
    kernel_w: 3
  }
}
layer {
  name: "relu4"
  type: "ReLU"
  bottom: "conv4"
  top: "conv4"
}
layer {
  name: "pool4"
  type: "Pooling"
  bottom: "conv4"
  top: "pool4"
  pooling_param {
    pool: MAX
    kernel_h: 2
    kernel_w: 1
    stride_h: 2
    stride_w: 1
  }
}
layer {
  name: "ip1"
  type: "InnerProduct"
  bottom: "pool4"
  top: "ip1"
  inner_product_param {
    num_output: 196
    weight_filler {
      type: "xavier"
    }
    bias_filler {
      type: "constant"
    }
  }
}
layer {
  name: "relu5"
  type: "ReLU"
  bottom: "ip1"
  top: "ip1"
}
layer {
  name: "drop1"
  type: "Dropout"
  bottom: "ip1"
  top: "ip1"
  dropout_param {
    dropout_ratio: 0.5
  }
}
layer {
  name: "ip2"
  type: "InnerProduct"
  bottom: "ip1"
  top: "ip2"
  inner_product_param {
    num_output: 98
    weight_filler {
      type: "xavier"
    }
    bias_filler {
      type: "constant"
    }
  }
}
layer {
  name: "relu6"
  type: "ReLU"
  bottom: "ip2"
  top: "ip2"
}
layer {
  name: "drop2"
  type: "Dropout"
  bottom: "ip2"
  top: "ip2"
  dropout_param {
    dropout_ratio: 0.5
  }
}
layer {
  name: "ip3"
  type: "InnerProduct"
  bottom: "ip2"
  top: "ip3"
  inner_product_param {
    num_output: 11
    weight_filler {
      type: "xavier"
    }
    bias_filler {
      type: "constant"
    }
  }
}
layer {
  name: "drop3"
  type: "Dropout"
  bottom: "ip3"
  top: "ip3"
  dropout_param {
    dropout_ratio: 0.5
  }
}
layer {
  name: "loss"
  type: "SoftmaxWithLoss"
  bottom: "ip3"
  bottom: "label"
  top: "loss"
}
I0521 06:12:26.255298 30806 layer_factory.hpp:77] Creating layer data_hdf5
I0521 06:12:26.255328 30806 net.cpp:106] Creating Layer data_hdf5
I0521 06:12:26.255352 30806 net.cpp:411] data_hdf5 -> data
I0521 06:12:26.255386 30806 net.cpp:411] data_hdf5 -> label
I0521 06:12:26.255429 30806 hdf5_data_layer.cpp:79] Loading list of HDF5 filenames from: /lustre/atlas/proj-shared/hep105/caffe_titan/minosmatch_nukecczdefs_127x50_x_unshifted_me1Bmc.trainlist
I0521 06:12:26.256674 30806 hdf5_data_layer.cpp:93] Number of HDF5 files: 15
I0521 06:12:26.258988 30806 hdf5.cpp:32] Datatype class: H5T_FLOAT
I0521 06:12:47.839045 30806 hdf5.cpp:35] Datatype class: H5T_INTEGER
I0521 06:12:47.844208 30806 net.cpp:150] Setting up data_hdf5
I0521 06:12:47.844247 30806 net.cpp:157] Top shape: 750 1 127 50 (4762500)
I0521 06:12:47.844265 30806 net.cpp:157] Top shape: 750 (750)
I0521 06:12:47.844277 30806 net.cpp:165] Memory required for data: 19053000
I0521 06:12:47.844297 30806 layer_factory.hpp:77] Creating layer conv1
I0521 06:12:47.844347 30806 net.cpp:106] Creating Layer conv1
I0521 06:12:47.844360 30806 net.cpp:454] conv1 <- data
I0521 06:12:47.844384 30806 net.cpp:411] conv1 -> conv1
I0521 06:12:48.213527 30806 net.cpp:150] Setting up conv1
I0521 06:12:48.213580 30806 net.cpp:157] Top shape: 750 12 120 48 (51840000)
I0521 06:12:48.213608 30806 net.cpp:165] Memory required for data: 226413000
I0521 06:12:48.213639 30806 layer_factory.hpp:77] Creating layer relu1
I0521 06:12:48.213661 30806 net.cpp:106] Creating Layer relu1
I0521 06:12:48.213681 30806 net.cpp:454] relu1 <- conv1
I0521 06:12:48.213718 30806 net.cpp:397] relu1 -> conv1 (in-place)
I0521 06:12:48.214252 30806 net.cpp:150] Setting up relu1
I0521 06:12:48.214275 30806 net.cpp:157] Top shape: 750 12 120 48 (51840000)
I0521 06:12:48.214289 30806 net.cpp:165] Memory required for data: 433773000
I0521 06:12:48.214305 30806 layer_factory.hpp:77] Creating layer pool1
I0521 06:12:48.214332 30806 net.cpp:106] Creating Layer pool1
I0521 06:12:48.214346 30806 net.cpp:454] pool1 <- conv1
I0521 06:12:48.214364 30806 net.cpp:411] pool1 -> pool1
I0521 06:12:48.214457 30806 net.cpp:150] Setting up pool1
I0521 06:12:48.214474 30806 net.cpp:157] Top shape: 750 12 60 48 (25920000)
I0521 06:12:48.214496 30806 net.cpp:165] Memory required for data: 537453000
I0521 06:12:48.214511 30806 layer_factory.hpp:77] Creating layer conv2
I0521 06:12:48.214535 30806 net.cpp:106] Creating Layer conv2
I0521 06:12:48.214550 30806 net.cpp:454] conv2 <- pool1
I0521 06:12:48.214565 30806 net.cpp:411] conv2 -> conv2
I0521 06:12:48.217257 30806 net.cpp:150] Setting up conv2
I0521 06:12:48.217288 30806 net.cpp:157] Top shape: 750 20 54 46 (37260000)
I0521 06:12:48.217301 30806 net.cpp:165] Memory required for data: 686493000
I0521 06:12:48.217329 30806 layer_factory.hpp:77] Creating layer relu2
I0521 06:12:48.217357 30806 net.cpp:106] Creating Layer relu2
I0521 06:12:48.217371 30806 net.cpp:454] relu2 <- conv2
I0521 06:12:48.217387 30806 net.cpp:397] relu2 -> conv2 (in-place)
I0521 06:12:48.217744 30806 net.cpp:150] Setting up relu2
I0521 06:12:48.217764 30806 net.cpp:157] Top shape: 750 20 54 46 (37260000)
I0521 06:12:48.217778 30806 net.cpp:165] Memory required for data: 835533000
I0521 06:12:48.217793 30806 layer_factory.hpp:77] Creating layer pool2
I0521 06:12:48.217816 30806 net.cpp:106] Creating Layer pool2
I0521 06:12:48.217829 30806 net.cpp:454] pool2 <- conv2
I0521 06:12:48.217864 30806 net.cpp:411] pool2 -> pool2
I0521 06:12:48.217947 30806 net.cpp:150] Setting up pool2
I0521 06:12:48.217964 30806 net.cpp:157] Top shape: 750 20 27 46 (18630000)
I0521 06:12:48.217979 30806 net.cpp:165] Memory required for data: 910053000
I0521 06:12:48.217998 30806 layer_factory.hpp:77] Creating layer conv3
I0521 06:12:48.218019 30806 net.cpp:106] Creating Layer conv3
I0521 06:12:48.218032 30806 net.cpp:454] conv3 <- pool2
I0521 06:12:48.218049 30806 net.cpp:411] conv3 -> conv3
I0521 06:12:48.219995 30806 net.cpp:150] Setting up conv3
I0521 06:12:48.220019 30806 net.cpp:157] Top shape: 750 28 22 44 (20328000)
I0521 06:12:48.220041 30806 net.cpp:165] Memory required for data: 991365000
I0521 06:12:48.220062 30806 layer_factory.hpp:77] Creating layer relu3
I0521 06:12:48.220084 30806 net.cpp:106] Creating Layer relu3
I0521 06:12:48.220106 30806 net.cpp:454] relu3 <- conv3
I0521 06:12:48.220123 30806 net.cpp:397] relu3 -> conv3 (in-place)
I0521 06:12:48.220613 30806 net.cpp:150] Setting up relu3
I0521 06:12:48.220644 30806 net.cpp:157] Top shape: 750 28 22 44 (20328000)
I0521 06:12:48.220657 30806 net.cpp:165] Memory required for data: 1072677000
I0521 06:12:48.220674 30806 layer_factory.hpp:77] Creating layer pool3
I0521 06:12:48.220690 30806 net.cpp:106] Creating Layer pool3
I0521 06:12:48.220710 30806 net.cpp:454] pool3 <- conv3
I0521 06:12:48.220726 30806 net.cpp:411] pool3 -> pool3
I0521 06:12:48.220809 30806 net.cpp:150] Setting up pool3
I0521 06:12:48.220827 30806 net.cpp:157] Top shape: 750 28 11 44 (10164000)
I0521 06:12:48.220844 30806 net.cpp:165] Memory required for data: 1113333000
I0521 06:12:48.220855 30806 layer_factory.hpp:77] Creating layer conv4
I0521 06:12:48.220875 30806 net.cpp:106] Creating Layer conv4
I0521 06:12:48.220896 30806 net.cpp:454] conv4 <- pool3
I0521 06:12:48.220919 30806 net.cpp:411] conv4 -> conv4
I0521 06:12:48.223716 30806 net.cpp:150] Setting up conv4
I0521 06:12:48.223752 30806 net.cpp:157] Top shape: 750 36 6 42 (6804000)
I0521 06:12:48.223765 30806 net.cpp:165] Memory required for data: 1140549000
I0521 06:12:48.223789 30806 layer_factory.hpp:77] Creating layer relu4
I0521 06:12:48.223817 30806 net.cpp:106] Creating Layer relu4
I0521 06:12:48.223832 30806 net.cpp:454] relu4 <- conv4
I0521 06:12:48.223848 30806 net.cpp:397] relu4 -> conv4 (in-place)
I0521 06:12:48.224349 30806 net.cpp:150] Setting up relu4
I0521 06:12:48.224372 30806 net.cpp:157] Top shape: 750 36 6 42 (6804000)
I0521 06:12:48.224385 30806 net.cpp:165] Memory required for data: 1167765000
I0521 06:12:48.224401 30806 layer_factory.hpp:77] Creating layer pool4
I0521 06:12:48.224426 30806 net.cpp:106] Creating Layer pool4
I0521 06:12:48.224438 30806 net.cpp:454] pool4 <- conv4
I0521 06:12:48.224454 30806 net.cpp:411] pool4 -> pool4
I0521 06:12:48.224536 30806 net.cpp:150] Setting up pool4
I0521 06:12:48.224555 30806 net.cpp:157] Top shape: 750 36 3 42 (3402000)
I0521 06:12:48.224571 30806 net.cpp:165] Memory required for data: 1181373000
I0521 06:12:48.224583 30806 layer_factory.hpp:77] Creating layer ip1
I0521 06:12:48.224611 30806 net.cpp:106] Creating Layer ip1
I0521 06:12:48.224638 30806 net.cpp:454] ip1 <- pool4
I0521 06:12:48.224654 30806 net.cpp:411] ip1 -> ip1
I0521 06:12:48.240095 30806 net.cpp:150] Setting up ip1
I0521 06:12:48.240128 30806 net.cpp:157] Top shape: 750 196 (147000)
I0521 06:12:48.240149 30806 net.cpp:165] Memory required for data: 1181961000
I0521 06:12:48.240176 30806 layer_factory.hpp:77] Creating layer relu5
I0521 06:12:48.240198 30806 net.cpp:106] Creating Layer relu5
I0521 06:12:48.240226 30806 net.cpp:454] relu5 <- ip1
I0521 06:12:48.240242 30806 net.cpp:397] relu5 -> ip1 (in-place)
I0521 06:12:48.240602 30806 net.cpp:150] Setting up relu5
I0521 06:12:48.240628 30806 net.cpp:157] Top shape: 750 196 (147000)
I0521 06:12:48.240643 30806 net.cpp:165] Memory required for data: 1182549000
I0521 06:12:48.240660 30806 layer_factory.hpp:77] Creating layer drop1
I0521 06:12:48.240691 30806 net.cpp:106] Creating Layer drop1
I0521 06:12:48.240705 30806 net.cpp:454] drop1 <- ip1
I0521 06:12:48.240732 30806 net.cpp:397] drop1 -> ip1 (in-place)
I0521 06:12:48.240792 30806 net.cpp:150] Setting up drop1
I0521 06:12:48.240810 30806 net.cpp:157] Top shape: 750 196 (147000)
I0521 06:12:48.240823 30806 net.cpp:165] Memory required for data: 1183137000
I0521 06:12:48.240839 30806 layer_factory.hpp:77] Creating layer ip2
I0521 06:12:48.240867 30806 net.cpp:106] Creating Layer ip2
I0521 06:12:48.240880 30806 net.cpp:454] ip2 <- ip1
I0521 06:12:48.240906 30806 net.cpp:411] ip2 -> ip2
I0521 06:12:48.241399 30806 net.cpp:150] Setting up ip2
I0521 06:12:48.241417 30806 net.cpp:157] Top shape: 750 98 (73500)
I0521 06:12:48.241430 30806 net.cpp:165] Memory required for data: 1183431000
I0521 06:12:48.241451 30806 layer_factory.hpp:77] Creating layer relu6
I0521 06:12:48.241472 30806 net.cpp:106] Creating Layer relu6
I0521 06:12:48.241487 30806 net.cpp:454] relu6 <- ip2
I0521 06:12:48.241502 30806 net.cpp:397] relu6 -> ip2 (in-place)
I0521 06:12:48.242046 30806 net.cpp:150] Setting up relu6
I0521 06:12:48.242069 30806 net.cpp:157] Top shape: 750 98 (73500)
I0521 06:12:48.242082 30806 net.cpp:165] Memory required for data: 1183725000
I0521 06:12:48.242099 30806 layer_factory.hpp:77] Creating layer drop2
I0521 06:12:48.242122 30806 net.cpp:106] Creating Layer drop2
I0521 06:12:48.242136 30806 net.cpp:454] drop2 <- ip2
I0521 06:12:48.242151 30806 net.cpp:397] drop2 -> ip2 (in-place)
I0521 06:12:48.242207 30806 net.cpp:150] Setting up drop2
I0521 06:12:48.242223 30806 net.cpp:157] Top shape: 750 98 (73500)
I0521 06:12:48.242235 30806 net.cpp:165] Memory required for data: 1184019000
I0521 06:12:48.242249 30806 layer_factory.hpp:77] Creating layer ip3
I0521 06:12:48.242264 30806 net.cpp:106] Creating Layer ip3
I0521 06:12:48.242280 30806 net.cpp:454] ip3 <- ip2
I0521 06:12:48.242301 30806 net.cpp:411] ip3 -> ip3
I0521 06:12:48.242527 30806 net.cpp:150] Setting up ip3
I0521 06:12:48.242547 30806 net.cpp:157] Top shape: 750 11 (8250)
I0521 06:12:48.242559 30806 net.cpp:165] Memory required for data: 1184052000
I0521 06:12:48.242580 30806 layer_factory.hpp:77] Creating layer drop3
I0521 06:12:48.242602 30806 net.cpp:106] Creating Layer drop3
I0521 06:12:48.242615 30806 net.cpp:454] drop3 <- ip3
I0521 06:12:48.242630 30806 net.cpp:397] drop3 -> ip3 (in-place)
I0521 06:12:48.242676 30806 net.cpp:150] Setting up drop3
I0521 06:12:48.242699 30806 net.cpp:157] Top shape: 750 11 (8250)
I0521 06:12:48.242712 30806 net.cpp:165] Memory required for data: 1184085000
I0521 06:12:48.242733 30806 layer_factory.hpp:77] Creating layer loss
I0521 06:12:48.242754 30806 net.cpp:106] Creating Layer loss
I0521 06:12:48.242770 30806 net.cpp:454] loss <- ip3
I0521 06:12:48.242789 30806 net.cpp:454] loss <- label
I0521 06:12:48.242805 30806 net.cpp:411] loss -> loss
I0521 06:12:48.242825 30806 layer_factory.hpp:77] Creating layer loss
…
I0521 06:12:48.245632 30806 solver.cpp:181] Creating test net (#0) specified by net file: /lustre/atlas/proj-shared/hep105/caffe_titan/caffe_workflow/logs_batch_size_test/batch_size_750_2016-05-20T11.21.00.010579.prototxt
I0521 06:12:48.245712 30806 net.cpp:322] The NetState phase (1) differed from the phase (0) specified by a rule in layer data_hdf5
I0521 06:12:48.246093 30806 net.cpp:49] Initializing net from parameters: 
name: "caffe_test_127x50_x_unshifted"
state {
  phase: TEST
}
layer {
  name: "data_hdf5"
  type: "HDF5Data"
  top: "data"
  top: "label"
  include {
    phase: TEST
  }
  hdf5_data_param {
    source: "/lustre/atlas/proj-shared/hep105/caffe_titan/minosmatch_nukecczdefs_127x50_x_unshifted_me1Bmc.testlist"
    batch_size: 750
  }
}
layer {
  name: "conv1"
  type: "Convolution"
  bottom: "data"
  top: "conv1"
  convolution_param {
    num_output: 12
    pad: 0
    stride: 1
    weight_filler {
      type: "xavier"
    }
    bias_filler {
      type: "constant"
    }
    kernel_h: 8
    kernel_w: 3
  }
}
layer {
  name: "relu1"
  type: "ReLU"
  bottom: "conv1"
  top: "conv1"
}
layer {
  name: "pool1"
  type: "Pooling"
  bottom: "conv1"
  top: "pool1"
  pooling_param {
    pool: MAX
    kernel_h: 2
    kernel_w: 1
    stride_h: 2
    stride_w: 1
  }
}
layer {
  name: "conv2"
  type: "Convolution"
  bottom: "pool1"
  top: "conv2"
  convolution_param {
    num_output: 20
    pad: 0
    stride: 1
    weight_filler {
      type: "xavier"
    }
    bias_filler {
      type: "constant"
    }
    kernel_h: 7
    kernel_w: 3
  }
}
layer {
  name: "relu2"
  type: "ReLU"
  bottom: "conv2"
  top: "conv2"
}
layer {
  name: "pool2"
  type: "Pooling"
  bottom: "conv2"
  top: "pool2"
  pooling_param {
    pool: MAX
    kernel_h: 2
    kernel_w: 1
    stride_h: 2
    stride_w: 1
  }
}
layer {
  name: "conv3"
  type: "Convolution"
  bottom: "pool2"
  top: "conv3"
  convolution_param {
    num_output: 28
    pad: 0
    stride: 1
    weight_filler {
      type: "xavier"
    }
    bias_filler {
      type: "constant"
    }
    kernel_h: 6
    kernel_w: 3
  }
}
layer {
  name: "relu3"
  type: "ReLU"
  bottom: "conv3"
  top: "conv3"
}
layer {
  name: "pool3"
  type: "Pooling"
  bottom: "conv3"
  top: "pool3"
  pooling_param {
    pool: MAX
    kernel_h: 2
    kernel_w: 1
    stride_h: 2
    stride_w: 1
  }
}
layer {
  name: "conv4"
  type: "Convolution"
  bottom: "pool3"
  top: "conv4"
  convolution_param {
    num_output: 36
    pad: 0
    stride: 1
    weight_filler {
      type: "xavier"
    }
    bias_filler {
      type: "constant"
    }
    kernel_h: 6
    kernel_w: 3
  }
}
layer {
  name: "relu4"
  type: "ReLU"
  bottom: "conv4"
  top: "conv4"
}
layer {
  name: "pool4"
  type: "Pooling"
  bottom: "conv4"
  top: "pool4"
  pooling_param {
    pool: MAX
    kernel_h: 2
    kernel_w: 1
    stride_h: 2
    stride_w: 1
  }
}
layer {
  name: "ip1"
  type: "InnerProduct"
  bottom: "pool4"
  top: "ip1"
  inner_product_param {
    num_output: 196
    weight_filler {
      type: "xavier"
    }
    bias_filler {
      type: "constant"
    }
  }
}
layer {
  name: "relu5"
  type: "ReLU"
  bottom: "ip1"
  top: "ip1"
}
layer {
  name: "drop1"
  type: "Dropout"
  bottom: "ip1"
  top: "ip1"
  dropout_param {
    dropout_ratio: 0.5
  }
}
layer {
  name: "ip2"
  type: "InnerProduct"
  bottom: "ip1"
  top: "ip2"
  inner_product_param {
    num_output: 98
    weight_filler {
      type: "xavier"
    }
    bias_filler {
      type: "constant"
    }
  }
}
layer {
  name: "relu6"
  type: "ReLU"
  bottom: "ip2"
  top: "ip2"
}
layer {
  name: "drop2"
  type: "Dropout"
  bottom: "ip2"
  top: "ip2"
  dropout_param {
    dropout_ratio: 0.5
  }
}
layer {
  name: "ip3"
  type: "InnerProduct"
  bottom: "ip2"
  top: "ip3"
  inner_product_param {
    num_output: 11
    weight_filler {
      type: "xavier"
    }
    bias_filler {
      type: "constant"
    }
  }
}
layer {
  name: "drop3"
  type: "Dropout"
  bottom: "ip3"
  top: "ip3"
  dropout_param {
    dropout_ratio: 0.5
  }
}
layer {
  name: "accuracy"
  type: "Accuracy"
  bottom: "ip3"
  bottom: "label"
  top: "accuracy"
  include {
    phase: TEST
  }
}
layer {
  name: "loss"
  type: "SoftmaxWithLoss"
  bottom: "ip3"
  bottom: "label"
  top: "loss"
}
I0521 06:12:48.246315 30806 layer_factory.hpp:77] Creating layer data_hdf5
I0521 06:12:48.246336 30806 net.cpp:106] Creating Layer data_hdf5
I0521 06:12:48.246356 30806 net.cpp:411] data_hdf5 -> data
I0521 06:12:48.246376 30806 net.cpp:411] data_hdf5 -> label
I0521 06:12:48.246397 30806 hdf5_data_layer.cpp:79] Loading list of HDF5 filenames from: /lustre/atlas/proj-shared/hep105/caffe_titan/minosmatch_nukecczdefs_127x50_x_unshifted_me1Bmc.testlist
I0521 06:12:48.247750 30806 hdf5_data_layer.cpp:93] Number of HDF5 files: 3
I0521 06:13:09.589802 30806 net.cpp:150] Setting up data_hdf5
I0521 06:13:09.589968 30806 net.cpp:157] Top shape: 750 1 127 50 (4762500)
I0521 06:13:09.589988 30806 net.cpp:157] Top shape: 750 (750)
I0521 06:13:09.590000 30806 net.cpp:165] Memory required for data: 19053000
I0521 06:13:09.590015 30806 layer_factory.hpp:77] Creating layer label_data_hdf5_1_split
I0521 06:13:09.590049 30806 net.cpp:106] Creating Layer label_data_hdf5_1_split
I0521 06:13:09.590062 30806 net.cpp:454] label_data_hdf5_1_split <- label
I0521 06:13:09.590080 30806 net.cpp:411] label_data_hdf5_1_split -> label_data_hdf5_1_split_0
I0521 06:13:09.590121 30806 net.cpp:411] label_data_hdf5_1_split -> label_data_hdf5_1_split_1
I0521 06:13:09.590207 30806 net.cpp:150] Setting up label_data_hdf5_1_split
I0521 06:13:09.590225 30806 net.cpp:157] Top shape: 750 (750)
I0521 06:13:09.590240 30806 net.cpp:157] Top shape: 750 (750)
I0521 06:13:09.590263 30806 net.cpp:165] Memory required for data: 19059000
I0521 06:13:09.590276 30806 layer_factory.hpp:77] Creating layer conv1
I0521 06:13:09.590302 30806 net.cpp:106] Creating Layer conv1
I0521 06:13:09.590314 30806 net.cpp:454] conv1 <- data
I0521 06:13:09.590339 30806 net.cpp:411] conv1 -> conv1
I0521 06:13:09.592283 30806 net.cpp:150] Setting up conv1
I0521 06:13:09.592310 30806 net.cpp:157] Top shape: 750 12 120 48 (51840000)
I0521 06:13:09.592330 30806 net.cpp:165] Memory required for data: 226419000
I0521 06:13:09.592355 30806 layer_factory.hpp:77] Creating layer relu1
I0521 06:13:09.592375 30806 net.cpp:106] Creating Layer relu1
I0521 06:13:09.592397 30806 net.cpp:454] relu1 <- conv1
I0521 06:13:09.592414 30806 net.cpp:397] relu1 -> conv1 (in-place)
I0521 06:13:09.592941 30806 net.cpp:150] Setting up relu1
I0521 06:13:09.592963 30806 net.cpp:157] Top shape: 750 12 120 48 (51840000)
I0521 06:13:09.592978 30806 net.cpp:165] Memory required for data: 433779000
I0521 06:13:09.592993 30806 layer_factory.hpp:77] Creating layer pool1
I0521 06:13:09.593019 30806 net.cpp:106] Creating Layer pool1
I0521 06:13:09.593034 30806 net.cpp:454] pool1 <- conv1
I0521 06:13:09.593050 30806 net.cpp:411] pool1 -> pool1
I0521 06:13:09.593140 30806 net.cpp:150] Setting up pool1
I0521 06:13:09.593158 30806 net.cpp:157] Top shape: 750 12 60 48 (25920000)
I0521 06:13:09.593178 30806 net.cpp:165] Memory required for data: 537459000
I0521 06:13:09.593194 30806 layer_factory.hpp:77] Creating layer conv2
I0521 06:13:09.593214 30806 net.cpp:106] Creating Layer conv2
I0521 06:13:09.593233 30806 net.cpp:454] conv2 <- pool1
I0521 06:13:09.593250 30806 net.cpp:411] conv2 -> conv2
I0521 06:13:09.595198 30806 net.cpp:150] Setting up conv2
I0521 06:13:09.595227 30806 net.cpp:157] Top shape: 750 20 54 46 (37260000)
I0521 06:13:09.595240 30806 net.cpp:165] Memory required for data: 686499000
I0521 06:13:09.595266 30806 layer_factory.hpp:77] Creating layer relu2
I0521 06:13:09.595291 30806 net.cpp:106] Creating Layer relu2
I0521 06:13:09.595305 30806 net.cpp:454] relu2 <- conv2
I0521 06:13:09.595321 30806 net.cpp:397] relu2 -> conv2 (in-place)
I0521 06:13:09.595679 30806 net.cpp:150] Setting up relu2
I0521 06:13:09.595700 30806 net.cpp:157] Top shape: 750 20 54 46 (37260000)
I0521 06:13:09.595711 30806 net.cpp:165] Memory required for data: 835539000
I0521 06:13:09.595726 30806 layer_factory.hpp:77] Creating layer pool2
I0521 06:13:09.595748 30806 net.cpp:106] Creating Layer pool2
I0521 06:13:09.595762 30806 net.cpp:454] pool2 <- conv2
I0521 06:13:09.595777 30806 net.cpp:411] pool2 -> pool2
I0521 06:13:09.595865 30806 net.cpp:150] Setting up pool2
I0521 06:13:09.595887 30806 net.cpp:157] Top shape: 750 20 27 46 (18630000)
I0521 06:13:09.595899 30806 net.cpp:165] Memory required for data: 910059000
I0521 06:13:09.595914 30806 layer_factory.hpp:77] Creating layer conv3
I0521 06:13:09.595943 30806 net.cpp:106] Creating Layer conv3
I0521 06:13:09.595957 30806 net.cpp:454] conv3 <- pool2
I0521 06:13:09.595973 30806 net.cpp:411] conv3 -> conv3
I0521 06:13:09.597988 30806 net.cpp:150] Setting up conv3
I0521 06:13:09.598014 30806 net.cpp:157] Top shape: 750 28 22 44 (20328000)
I0521 06:13:09.598033 30806 net.cpp:165] Memory required for data: 991371000
I0521 06:13:09.598073 30806 layer_factory.hpp:77] Creating layer relu3
I0521 06:13:09.598098 30806 net.cpp:106] Creating Layer relu3
I0521 06:13:09.598112 30806 net.cpp:454] relu3 <- conv3
I0521 06:13:09.598129 30806 net.cpp:397] relu3 -> conv3 (in-place)
I0521 06:13:09.598628 30806 net.cpp:150] Setting up relu3
I0521 06:13:09.598650 30806 net.cpp:157] Top shape: 750 28 22 44 (20328000)
I0521 06:13:09.598664 30806 net.cpp:165] Memory required for data: 1072683000
I0521 06:13:09.598680 30806 layer_factory.hpp:77] Creating layer pool3
I0521 06:13:09.598703 30806 net.cpp:106] Creating Layer pool3
I0521 06:13:09.598717 30806 net.cpp:454] pool3 <- conv3
I0521 06:13:09.598733 30806 net.cpp:411] pool3 -> pool3
I0521 06:13:09.598819 30806 net.cpp:150] Setting up pool3
I0521 06:13:09.598836 30806 net.cpp:157] Top shape: 750 28 11 44 (10164000)
I0521 06:13:09.598851 30806 net.cpp:165] Memory required for data: 1113339000
I0521 06:13:09.598863 30806 layer_factory.hpp:77] Creating layer conv4
I0521 06:13:09.598889 30806 net.cpp:106] Creating Layer conv4
I0521 06:13:09.598902 30806 net.cpp:454] conv4 <- pool3
I0521 06:13:09.598919 30806 net.cpp:411] conv4 -> conv4
I0521 06:13:09.601011 30806 net.cpp:150] Setting up conv4
I0521 06:13:09.601035 30806 net.cpp:157] Top shape: 750 36 6 42 (6804000)
I0521 06:13:09.601048 30806 net.cpp:165] Memory required for data: 1140555000
I0521 06:13:09.601071 30806 layer_factory.hpp:77] Creating layer relu4
I0521 06:13:09.601095 30806 net.cpp:106] Creating Layer relu4
I0521 06:13:09.601110 30806 net.cpp:454] relu4 <- conv4
I0521 06:13:09.601125 30806 net.cpp:397] relu4 -> conv4 (in-place)
I0521 06:13:09.601621 30806 net.cpp:150] Setting up relu4
I0521 06:13:09.601644 30806 net.cpp:157] Top shape: 750 36 6 42 (6804000)
I0521 06:13:09.601657 30806 net.cpp:165] Memory required for data: 1167771000
I0521 06:13:09.601673 30806 layer_factory.hpp:77] Creating layer pool4
I0521 06:13:09.601697 30806 net.cpp:106] Creating Layer pool4
I0521 06:13:09.601711 30806 net.cpp:454] pool4 <- conv4
I0521 06:13:09.601727 30806 net.cpp:411] pool4 -> pool4
I0521 06:13:09.601814 30806 net.cpp:150] Setting up pool4
I0521 06:13:09.601830 30806 net.cpp:157] Top shape: 750 36 3 42 (3402000)
I0521 06:13:09.601845 30806 net.cpp:165] Memory required for data: 1181379000
I0521 06:13:09.601857 30806 layer_factory.hpp:77] Creating layer ip1
I0521 06:13:09.601882 30806 net.cpp:106] Creating Layer ip1
I0521 06:13:09.601896 30806 net.cpp:454] ip1 <- pool4
I0521 06:13:09.601917 30806 net.cpp:411] ip1 -> ip1
I0521 06:13:09.617386 30806 net.cpp:150] Setting up ip1
I0521 06:13:09.617419 30806 net.cpp:157] Top shape: 750 196 (147000)
I0521 06:13:09.617439 30806 net.cpp:165] Memory required for data: 1181967000
I0521 06:13:09.617466 30806 layer_factory.hpp:77] Creating layer relu5
I0521 06:13:09.617488 30806 net.cpp:106] Creating Layer relu5
I0521 06:13:09.617513 30806 net.cpp:454] relu5 <- ip1
I0521 06:13:09.617532 30806 net.cpp:397] relu5 -> ip1 (in-place)
I0521 06:13:09.617897 30806 net.cpp:150] Setting up relu5
I0521 06:13:09.617916 30806 net.cpp:157] Top shape: 750 196 (147000)
I0521 06:13:09.617929 30806 net.cpp:165] Memory required for data: 1182555000
I0521 06:13:09.617941 30806 layer_factory.hpp:77] Creating layer drop1
I0521 06:13:09.617966 30806 net.cpp:106] Creating Layer drop1
I0521 06:13:09.617980 30806 net.cpp:454] drop1 <- ip1
I0521 06:13:09.618003 30806 net.cpp:397] drop1 -> ip1 (in-place)
I0521 06:13:09.618054 30806 net.cpp:150] Setting up drop1
I0521 06:13:09.618070 30806 net.cpp:157] Top shape: 750 196 (147000)
I0521 06:13:09.618083 30806 net.cpp:165] Memory required for data: 1183143000
I0521 06:13:09.618103 30806 layer_factory.hpp:77] Creating layer ip2
I0521 06:13:09.618120 30806 net.cpp:106] Creating Layer ip2
I0521 06:13:09.618132 30806 net.cpp:454] ip2 <- ip1
I0521 06:13:09.618149 30806 net.cpp:411] ip2 -> ip2
I0521 06:13:09.618670 30806 net.cpp:150] Setting up ip2
I0521 06:13:09.618690 30806 net.cpp:157] Top shape: 750 98 (73500)
I0521 06:13:09.618705 30806 net.cpp:165] Memory required for data: 1183437000
I0521 06:13:09.618738 30806 layer_factory.hpp:77] Creating layer relu6
I0521 06:13:09.618762 30806 net.cpp:106] Creating Layer relu6
I0521 06:13:09.618775 30806 net.cpp:454] relu6 <- ip2
I0521 06:13:09.618798 30806 net.cpp:397] relu6 -> ip2 (in-place)
I0521 06:13:09.619361 30806 net.cpp:150] Setting up relu6
I0521 06:13:09.619385 30806 net.cpp:157] Top shape: 750 98 (73500)
I0521 06:13:09.619398 30806 net.cpp:165] Memory required for data: 1183731000
I0521 06:13:09.619410 30806 layer_factory.hpp:77] Creating layer drop2
I0521 06:13:09.619431 30806 net.cpp:106] Creating Layer drop2
I0521 06:13:09.619452 30806 net.cpp:454] drop2 <- ip2
I0521 06:13:09.619469 30806 net.cpp:397] drop2 -> ip2 (in-place)
I0521 06:13:09.619520 30806 net.cpp:150] Setting up drop2
I0521 06:13:09.619544 30806 net.cpp:157] Top shape: 750 98 (73500)
I0521 06:13:09.619556 30806 net.cpp:165] Memory required for data: 1184025000
I0521 06:13:09.619575 30806 layer_factory.hpp:77] Creating layer ip3
I0521 06:13:09.619591 30806 net.cpp:106] Creating Layer ip3
I0521 06:13:09.619606 30806 net.cpp:454] ip3 <- ip2
I0521 06:13:09.619629 30806 net.cpp:411] ip3 -> ip3
I0521 06:13:09.619865 30806 net.cpp:150] Setting up ip3
I0521 06:13:09.619884 30806 net.cpp:157] Top shape: 750 11 (8250)
I0521 06:13:09.619897 30806 net.cpp:165] Memory required for data: 1184058000
I0521 06:13:09.619918 30806 layer_factory.hpp:77] Creating layer drop3
I0521 06:13:09.619941 30806 net.cpp:106] Creating Layer drop3
I0521 06:13:09.619954 30806 net.cpp:454] drop3 <- ip3
I0521 06:13:09.619971 30806 net.cpp:397] drop3 -> ip3 (in-place)
I0521 06:13:09.620018 30806 net.cpp:150] Setting up drop3
I0521 06:13:09.620040 30806 net.cpp:157] Top shape: 750 11 (8250)
I0521 06:13:09.620054 30806 net.cpp:165] Memory required for data: 1184091000
I0521 06:13:09.620069 30806 layer_factory.hpp:77] Creating layer ip3_drop3_0_split
I0521 06:13:09.620085 30806 net.cpp:106] Creating Layer ip3_drop3_0_split
I0521 06:13:09.620096 30806 net.cpp:454] ip3_drop3_0_split <- ip3
I0521 06:13:09.620115 30806 net.cpp:411] ip3_drop3_0_split -> ip3_drop3_0_split_0
I0521 06:13:09.620141 30806 net.cpp:411] ip3_drop3_0_split -> ip3_drop3_0_split_1
I0521 06:13:09.620228 30806 net.cpp:150] Setting up ip3_drop3_0_split
I0521 06:13:09.620244 30806 net.cpp:157] Top shape: 750 11 (8250)
I0521 06:13:09.620260 30806 net.cpp:157] Top shape: 750 11 (8250)
I0521 06:13:09.620273 30806 net.cpp:165] Memory required for data: 1184157000
I0521 06:13:09.620285 30806 layer_factory.hpp:77] Creating layer accuracy
I0521 06:13:09.620316 30806 net.cpp:106] Creating Layer accuracy
I0521 06:13:09.620332 30806 net.cpp:454] accuracy <- ip3_drop3_0_split_0
I0521 06:13:09.620347 30806 net.cpp:454] accuracy <- label_data_hdf5_1_split_0
I0521 06:13:09.620362 30806 net.cpp:411] accuracy -> accuracy
…
