…
I0521 02:57:59.681036 29613 net.cpp:322] The NetState phase (0) differed from the phase (1) specified by a rule in layer data_hdf5
I0521 02:57:59.681097 29613 net.cpp:322] The NetState phase (0) differed from the phase (1) specified by a rule in layer accuracy
I0521 02:57:59.681443 29613 net.cpp:49] Initializing net from parameters: 
name: "caffe_test_127x50_x_unshifted"
state {
  phase: TRAIN
}
layer {
  name: "data_hdf5"
  type: "HDF5Data"
  top: "data"
  top: "label"
  include {
    phase: TRAIN
  }
  hdf5_data_param {
    source: "/lustre/atlas/proj-shared/hep105/caffe_titan/minosmatch_nukecczdefs_127x50_x_unshifted_me1Bmc.trainlist"
    batch_size: 590
  }
}
layer {
  name: "conv1"
  type: "Convolution"
  bottom: "data"
  top: "conv1"
  convolution_param {
    num_output: 12
    pad: 0
    stride: 1
    weight_filler {
      type: "xavier"
    }
    bias_filler {
      type: "constant"
    }
    kernel_h: 8
    kernel_w: 3
  }
}
layer {
  name: "relu1"
  type: "ReLU"
  bottom: "conv1"
  top: "conv1"
}
layer {
  name: "pool1"
  type: "Pooling"
  bottom: "conv1"
  top: "pool1"
  pooling_param {
    pool: MAX
    kernel_h: 2
    kernel_w: 1
    stride_h: 2
    stride_w: 1
  }
}
layer {
  name: "conv2"
  type: "Convolution"
  bottom: "pool1"
  top: "conv2"
  convolution_param {
    num_output: 20
    pad: 0
    stride: 1
    weight_filler {
      type: "xavier"
    }
    bias_filler {
      type: "constant"
    }
    kernel_h: 7
    kernel_w: 3
  }
}
layer {
  name: "relu2"
  type: "ReLU"
  bottom: "conv2"
  top: "conv2"
}
layer {
  name: "pool2"
  type: "Pooling"
  bottom: "conv2"
  top: "pool2"
  pooling_param {
    pool: MAX
    kernel_h: 2
    kernel_w: 1
    stride_h: 2
    stride_w: 1
  }
}
layer {
  name: "conv3"
  type: "Convolution"
  bottom: "pool2"
  top: "conv3"
  convolution_param {
    num_output: 28
    pad: 0
    stride: 1
    weight_filler {
      type: "xavier"
    }
    bias_filler {
      type: "constant"
    }
    kernel_h: 6
    kernel_w: 3
  }
}
layer {
  name: "relu3"
  type: "ReLU"
  bottom: "conv3"
  top: "conv3"
}
layer {
  name: "pool3"
  type: "Pooling"
  bottom: "conv3"
  top: "pool3"
  pooling_param {
    pool: MAX
    kernel_h: 2
    kernel_w: 1
    stride_h: 2
    stride_w: 1
  }
}
layer {
  name: "conv4"
  type: "Convolution"
  bottom: "pool3"
  top: "conv4"
  convolution_param {
    num_output: 36
    pad: 0
    stride: 1
    weight_filler {
      type: "xavier"
    }
    bias_filler {
      type: "constant"
    }
    kernel_h: 6
    kernel_w: 3
  }
}
layer {
  name: "relu4"
  type: "ReLU"
  bottom: "conv4"
  top: "conv4"
}
layer {
  name: "pool4"
  type: "Pooling"
  bottom: "conv4"
  top: "pool4"
  pooling_param {
    pool: MAX
    kernel_h: 2
    kernel_w: 1
    stride_h: 2
    stride_w: 1
  }
}
layer {
  name: "ip1"
  type: "InnerProduct"
  bottom: "pool4"
  top: "ip1"
  inner_product_param {
    num_output: 196
    weight_filler {
      type: "xavier"
    }
    bias_filler {
      type: "constant"
    }
  }
}
layer {
  name: "relu5"
  type: "ReLU"
  bottom: "ip1"
  top: "ip1"
}
layer {
  name: "drop1"
  type: "Dropout"
  bottom: "ip1"
  top: "ip1"
  dropout_param {
    dropout_ratio: 0.5
  }
}
layer {
  name: "ip2"
  type: "InnerProduct"
  bottom: "ip1"
  top: "ip2"
  inner_product_param {
    num_output: 98
    weight_filler {
      type: "xavier"
    }
    bias_filler {
      type: "constant"
    }
  }
}
layer {
  name: "relu6"
  type: "ReLU"
  bottom: "ip2"
  top: "ip2"
}
layer {
  name: "drop2"
  type: "Dropout"
  bottom: "ip2"
  top: "ip2"
  dropout_param {
    dropout_ratio: 0.5
  }
}
layer {
  name: "ip3"
  type: "InnerProduct"
  bottom: "ip2"
  top: "ip3"
  inner_product_param {
    num_output: 11
    weight_filler {
      type: "xavier"
    }
    bias_filler {
      type: "constant"
    }
  }
}
layer {
  name: "drop3"
  type: "Dropout"
  bottom: "ip3"
  top: "ip3"
  dropout_param {
    dropout_ratio: 0.5
  }
}
layer {
  name: "loss"
  type: "SoftmaxWithLoss"
  bottom: "ip3"
  bottom: "label"
  top: "loss"
}
I0521 02:57:59.681622 29613 layer_factory.hpp:77] Creating layer data_hdf5
I0521 02:57:59.681645 29613 net.cpp:106] Creating Layer data_hdf5
I0521 02:57:59.681659 29613 net.cpp:411] data_hdf5 -> data
I0521 02:57:59.681694 29613 net.cpp:411] data_hdf5 -> label
I0521 02:57:59.681726 29613 hdf5_data_layer.cpp:79] Loading list of HDF5 filenames from: /lustre/atlas/proj-shared/hep105/caffe_titan/minosmatch_nukecczdefs_127x50_x_unshifted_me1Bmc.trainlist
I0521 02:57:59.682916 29613 hdf5_data_layer.cpp:93] Number of HDF5 files: 15
I0521 02:57:59.685057 29613 hdf5.cpp:32] Datatype class: H5T_FLOAT
I0521 02:58:21.204646 29613 hdf5.cpp:35] Datatype class: H5T_INTEGER
I0521 02:58:21.209756 29613 net.cpp:150] Setting up data_hdf5
I0521 02:58:21.209796 29613 net.cpp:157] Top shape: 590 1 127 50 (3746500)
I0521 02:58:21.209811 29613 net.cpp:157] Top shape: 590 (590)
I0521 02:58:21.209821 29613 net.cpp:165] Memory required for data: 14988360
I0521 02:58:21.209835 29613 layer_factory.hpp:77] Creating layer conv1
I0521 02:58:21.209867 29613 net.cpp:106] Creating Layer conv1
I0521 02:58:21.209879 29613 net.cpp:454] conv1 <- data
I0521 02:58:21.209903 29613 net.cpp:411] conv1 -> conv1
I0521 02:58:22.457074 29613 net.cpp:150] Setting up conv1
I0521 02:58:22.457120 29613 net.cpp:157] Top shape: 590 12 120 48 (40780800)
I0521 02:58:22.457134 29613 net.cpp:165] Memory required for data: 178111560
I0521 02:58:22.457166 29613 layer_factory.hpp:77] Creating layer relu1
I0521 02:58:22.457188 29613 net.cpp:106] Creating Layer relu1
I0521 02:58:22.457200 29613 net.cpp:454] relu1 <- conv1
I0521 02:58:22.457213 29613 net.cpp:397] relu1 -> conv1 (in-place)
I0521 02:58:22.457726 29613 net.cpp:150] Setting up relu1
I0521 02:58:22.457742 29613 net.cpp:157] Top shape: 590 12 120 48 (40780800)
I0521 02:58:22.457753 29613 net.cpp:165] Memory required for data: 341234760
I0521 02:58:22.457764 29613 layer_factory.hpp:77] Creating layer pool1
I0521 02:58:22.457780 29613 net.cpp:106] Creating Layer pool1
I0521 02:58:22.457790 29613 net.cpp:454] pool1 <- conv1
I0521 02:58:22.457804 29613 net.cpp:411] pool1 -> pool1
I0521 02:58:22.457885 29613 net.cpp:150] Setting up pool1
I0521 02:58:22.457900 29613 net.cpp:157] Top shape: 590 12 60 48 (20390400)
I0521 02:58:22.457908 29613 net.cpp:165] Memory required for data: 422796360
I0521 02:58:22.457919 29613 layer_factory.hpp:77] Creating layer conv2
I0521 02:58:22.457942 29613 net.cpp:106] Creating Layer conv2
I0521 02:58:22.457952 29613 net.cpp:454] conv2 <- pool1
I0521 02:58:22.457964 29613 net.cpp:411] conv2 -> conv2
I0521 02:58:22.460635 29613 net.cpp:150] Setting up conv2
I0521 02:58:22.460664 29613 net.cpp:157] Top shape: 590 20 54 46 (29311200)
I0521 02:58:22.460675 29613 net.cpp:165] Memory required for data: 540041160
I0521 02:58:22.460693 29613 layer_factory.hpp:77] Creating layer relu2
I0521 02:58:22.460707 29613 net.cpp:106] Creating Layer relu2
I0521 02:58:22.460717 29613 net.cpp:454] relu2 <- conv2
I0521 02:58:22.460731 29613 net.cpp:397] relu2 -> conv2 (in-place)
I0521 02:58:22.461062 29613 net.cpp:150] Setting up relu2
I0521 02:58:22.461076 29613 net.cpp:157] Top shape: 590 20 54 46 (29311200)
I0521 02:58:22.461087 29613 net.cpp:165] Memory required for data: 657285960
I0521 02:58:22.461097 29613 layer_factory.hpp:77] Creating layer pool2
I0521 02:58:22.461112 29613 net.cpp:106] Creating Layer pool2
I0521 02:58:22.461122 29613 net.cpp:454] pool2 <- conv2
I0521 02:58:22.461146 29613 net.cpp:411] pool2 -> pool2
I0521 02:58:22.461215 29613 net.cpp:150] Setting up pool2
I0521 02:58:22.461230 29613 net.cpp:157] Top shape: 590 20 27 46 (14655600)
I0521 02:58:22.461239 29613 net.cpp:165] Memory required for data: 715908360
I0521 02:58:22.461248 29613 layer_factory.hpp:77] Creating layer conv3
I0521 02:58:22.461267 29613 net.cpp:106] Creating Layer conv3
I0521 02:58:22.461277 29613 net.cpp:454] conv3 <- pool2
I0521 02:58:22.461290 29613 net.cpp:411] conv3 -> conv3
I0521 02:58:22.463207 29613 net.cpp:150] Setting up conv3
I0521 02:58:22.463229 29613 net.cpp:157] Top shape: 590 28 22 44 (15991360)
I0521 02:58:22.463243 29613 net.cpp:165] Memory required for data: 779873800
I0521 02:58:22.463260 29613 layer_factory.hpp:77] Creating layer relu3
I0521 02:58:22.463276 29613 net.cpp:106] Creating Layer relu3
I0521 02:58:22.463286 29613 net.cpp:454] relu3 <- conv3
I0521 02:58:22.463299 29613 net.cpp:397] relu3 -> conv3 (in-place)
I0521 02:58:22.463768 29613 net.cpp:150] Setting up relu3
I0521 02:58:22.463784 29613 net.cpp:157] Top shape: 590 28 22 44 (15991360)
I0521 02:58:22.463794 29613 net.cpp:165] Memory required for data: 843839240
I0521 02:58:22.463805 29613 layer_factory.hpp:77] Creating layer pool3
I0521 02:58:22.463819 29613 net.cpp:106] Creating Layer pool3
I0521 02:58:22.463827 29613 net.cpp:454] pool3 <- conv3
I0521 02:58:22.463841 29613 net.cpp:411] pool3 -> pool3
I0521 02:58:22.463909 29613 net.cpp:150] Setting up pool3
I0521 02:58:22.463922 29613 net.cpp:157] Top shape: 590 28 11 44 (7995680)
I0521 02:58:22.463932 29613 net.cpp:165] Memory required for data: 875821960
I0521 02:58:22.463939 29613 layer_factory.hpp:77] Creating layer conv4
I0521 02:58:22.463958 29613 net.cpp:106] Creating Layer conv4
I0521 02:58:22.463975 29613 net.cpp:454] conv4 <- pool3
I0521 02:58:22.463989 29613 net.cpp:411] conv4 -> conv4
I0521 02:58:22.466749 29613 net.cpp:150] Setting up conv4
I0521 02:58:22.466779 29613 net.cpp:157] Top shape: 590 36 6 42 (5352480)
I0521 02:58:22.466789 29613 net.cpp:165] Memory required for data: 897231880
I0521 02:58:22.466805 29613 layer_factory.hpp:77] Creating layer relu4
I0521 02:58:22.466820 29613 net.cpp:106] Creating Layer relu4
I0521 02:58:22.466830 29613 net.cpp:454] relu4 <- conv4
I0521 02:58:22.466842 29613 net.cpp:397] relu4 -> conv4 (in-place)
I0521 02:58:22.467313 29613 net.cpp:150] Setting up relu4
I0521 02:58:22.467329 29613 net.cpp:157] Top shape: 590 36 6 42 (5352480)
I0521 02:58:22.467339 29613 net.cpp:165] Memory required for data: 918641800
I0521 02:58:22.467350 29613 layer_factory.hpp:77] Creating layer pool4
I0521 02:58:22.467362 29613 net.cpp:106] Creating Layer pool4
I0521 02:58:22.467372 29613 net.cpp:454] pool4 <- conv4
I0521 02:58:22.467384 29613 net.cpp:411] pool4 -> pool4
I0521 02:58:22.467453 29613 net.cpp:150] Setting up pool4
I0521 02:58:22.467468 29613 net.cpp:157] Top shape: 590 36 3 42 (2676240)
I0521 02:58:22.467478 29613 net.cpp:165] Memory required for data: 929346760
I0521 02:58:22.467489 29613 layer_factory.hpp:77] Creating layer ip1
I0521 02:58:22.467509 29613 net.cpp:106] Creating Layer ip1
I0521 02:58:22.467519 29613 net.cpp:454] ip1 <- pool4
I0521 02:58:22.467531 29613 net.cpp:411] ip1 -> ip1
I0521 02:58:22.482929 29613 net.cpp:150] Setting up ip1
I0521 02:58:22.482959 29613 net.cpp:157] Top shape: 590 196 (115640)
I0521 02:58:22.482972 29613 net.cpp:165] Memory required for data: 929809320
I0521 02:58:22.482993 29613 layer_factory.hpp:77] Creating layer relu5
I0521 02:58:22.483009 29613 net.cpp:106] Creating Layer relu5
I0521 02:58:22.483019 29613 net.cpp:454] relu5 <- ip1
I0521 02:58:22.483033 29613 net.cpp:397] relu5 -> ip1 (in-place)
I0521 02:58:22.483372 29613 net.cpp:150] Setting up relu5
I0521 02:58:22.483387 29613 net.cpp:157] Top shape: 590 196 (115640)
I0521 02:58:22.483397 29613 net.cpp:165] Memory required for data: 930271880
I0521 02:58:22.483408 29613 layer_factory.hpp:77] Creating layer drop1
I0521 02:58:22.483429 29613 net.cpp:106] Creating Layer drop1
I0521 02:58:22.483440 29613 net.cpp:454] drop1 <- ip1
I0521 02:58:22.483467 29613 net.cpp:397] drop1 -> ip1 (in-place)
I0521 02:58:22.483515 29613 net.cpp:150] Setting up drop1
I0521 02:58:22.483530 29613 net.cpp:157] Top shape: 590 196 (115640)
I0521 02:58:22.483539 29613 net.cpp:165] Memory required for data: 930734440
I0521 02:58:22.483549 29613 layer_factory.hpp:77] Creating layer ip2
I0521 02:58:22.483567 29613 net.cpp:106] Creating Layer ip2
I0521 02:58:22.483578 29613 net.cpp:454] ip2 <- ip1
I0521 02:58:22.483592 29613 net.cpp:411] ip2 -> ip2
I0521 02:58:22.484066 29613 net.cpp:150] Setting up ip2
I0521 02:58:22.484078 29613 net.cpp:157] Top shape: 590 98 (57820)
I0521 02:58:22.484088 29613 net.cpp:165] Memory required for data: 930965720
I0521 02:58:22.484104 29613 layer_factory.hpp:77] Creating layer relu6
I0521 02:58:22.484117 29613 net.cpp:106] Creating Layer relu6
I0521 02:58:22.484127 29613 net.cpp:454] relu6 <- ip2
I0521 02:58:22.484138 29613 net.cpp:397] relu6 -> ip2 (in-place)
I0521 02:58:22.484661 29613 net.cpp:150] Setting up relu6
I0521 02:58:22.484678 29613 net.cpp:157] Top shape: 590 98 (57820)
I0521 02:58:22.484688 29613 net.cpp:165] Memory required for data: 931197000
I0521 02:58:22.484699 29613 layer_factory.hpp:77] Creating layer drop2
I0521 02:58:22.484711 29613 net.cpp:106] Creating Layer drop2
I0521 02:58:22.484721 29613 net.cpp:454] drop2 <- ip2
I0521 02:58:22.484733 29613 net.cpp:397] drop2 -> ip2 (in-place)
I0521 02:58:22.484776 29613 net.cpp:150] Setting up drop2
I0521 02:58:22.484788 29613 net.cpp:157] Top shape: 590 98 (57820)
I0521 02:58:22.484799 29613 net.cpp:165] Memory required for data: 931428280
I0521 02:58:22.484809 29613 layer_factory.hpp:77] Creating layer ip3
I0521 02:58:22.484823 29613 net.cpp:106] Creating Layer ip3
I0521 02:58:22.484833 29613 net.cpp:454] ip3 <- ip2
I0521 02:58:22.484845 29613 net.cpp:411] ip3 -> ip3
I0521 02:58:22.485055 29613 net.cpp:150] Setting up ip3
I0521 02:58:22.485069 29613 net.cpp:157] Top shape: 590 11 (6490)
I0521 02:58:22.485079 29613 net.cpp:165] Memory required for data: 931454240
I0521 02:58:22.485093 29613 layer_factory.hpp:77] Creating layer drop3
I0521 02:58:22.485106 29613 net.cpp:106] Creating Layer drop3
I0521 02:58:22.485116 29613 net.cpp:454] drop3 <- ip3
I0521 02:58:22.485128 29613 net.cpp:397] drop3 -> ip3 (in-place)
I0521 02:58:22.485167 29613 net.cpp:150] Setting up drop3
I0521 02:58:22.485180 29613 net.cpp:157] Top shape: 590 11 (6490)
I0521 02:58:22.485190 29613 net.cpp:165] Memory required for data: 931480200
I0521 02:58:22.485200 29613 layer_factory.hpp:77] Creating layer loss
I0521 02:58:22.485219 29613 net.cpp:106] Creating Layer loss
I0521 02:58:22.485229 29613 net.cpp:454] loss <- ip3
I0521 02:58:22.485240 29613 net.cpp:454] loss <- label
I0521 02:58:22.485254 29613 net.cpp:411] loss -> loss
I0521 02:58:22.485270 29613 layer_factory.hpp:77] Creating layer loss
…
I0521 02:58:22.487902 29613 solver.cpp:181] Creating test net (#0) specified by net file: /lustre/atlas/proj-shared/hep105/caffe_titan/caffe_workflow/logs_batch_size_test/batch_size_590_2016-05-20T11.20.54.049944.prototxt
I0521 02:58:22.487984 29613 net.cpp:322] The NetState phase (1) differed from the phase (0) specified by a rule in layer data_hdf5
I0521 02:58:22.488340 29613 net.cpp:49] Initializing net from parameters: 
name: "caffe_test_127x50_x_unshifted"
state {
  phase: TEST
}
layer {
  name: "data_hdf5"
  type: "HDF5Data"
  top: "data"
  top: "label"
  include {
    phase: TEST
  }
  hdf5_data_param {
    source: "/lustre/atlas/proj-shared/hep105/caffe_titan/minosmatch_nukecczdefs_127x50_x_unshifted_me1Bmc.testlist"
    batch_size: 590
  }
}
layer {
  name: "conv1"
  type: "Convolution"
  bottom: "data"
  top: "conv1"
  convolution_param {
    num_output: 12
    pad: 0
    stride: 1
    weight_filler {
      type: "xavier"
    }
    bias_filler {
      type: "constant"
    }
    kernel_h: 8
    kernel_w: 3
  }
}
layer {
  name: "relu1"
  type: "ReLU"
  bottom: "conv1"
  top: "conv1"
}
layer {
  name: "pool1"
  type: "Pooling"
  bottom: "conv1"
  top: "pool1"
  pooling_param {
    pool: MAX
    kernel_h: 2
    kernel_w: 1
    stride_h: 2
    stride_w: 1
  }
}
layer {
  name: "conv2"
  type: "Convolution"
  bottom: "pool1"
  top: "conv2"
  convolution_param {
    num_output: 20
    pad: 0
    stride: 1
    weight_filler {
      type: "xavier"
    }
    bias_filler {
      type: "constant"
    }
    kernel_h: 7
    kernel_w: 3
  }
}
layer {
  name: "relu2"
  type: "ReLU"
  bottom: "conv2"
  top: "conv2"
}
layer {
  name: "pool2"
  type: "Pooling"
  bottom: "conv2"
  top: "pool2"
  pooling_param {
    pool: MAX
    kernel_h: 2
    kernel_w: 1
    stride_h: 2
    stride_w: 1
  }
}
layer {
  name: "conv3"
  type: "Convolution"
  bottom: "pool2"
  top: "conv3"
  convolution_param {
    num_output: 28
    pad: 0
    stride: 1
    weight_filler {
      type: "xavier"
    }
    bias_filler {
      type: "constant"
    }
    kernel_h: 6
    kernel_w: 3
  }
}
layer {
  name: "relu3"
  type: "ReLU"
  bottom: "conv3"
  top: "conv3"
}
layer {
  name: "pool3"
  type: "Pooling"
  bottom: "conv3"
  top: "pool3"
  pooling_param {
    pool: MAX
    kernel_h: 2
    kernel_w: 1
    stride_h: 2
    stride_w: 1
  }
}
layer {
  name: "conv4"
  type: "Convolution"
  bottom: "pool3"
  top: "conv4"
  convolution_param {
    num_output: 36
    pad: 0
    stride: 1
    weight_filler {
      type: "xavier"
    }
    bias_filler {
      type: "constant"
    }
    kernel_h: 6
    kernel_w: 3
  }
}
layer {
  name: "relu4"
  type: "ReLU"
  bottom: "conv4"
  top: "conv4"
}
layer {
  name: "pool4"
  type: "Pooling"
  bottom: "conv4"
  top: "pool4"
  pooling_param {
    pool: MAX
    kernel_h: 2
    kernel_w: 1
    stride_h: 2
    stride_w: 1
  }
}
layer {
  name: "ip1"
  type: "InnerProduct"
  bottom: "pool4"
  top: "ip1"
  inner_product_param {
    num_output: 196
    weight_filler {
      type: "xavier"
    }
    bias_filler {
      type: "constant"
    }
  }
}
layer {
  name: "relu5"
  type: "ReLU"
  bottom: "ip1"
  top: "ip1"
}
layer {
  name: "drop1"
  type: "Dropout"
  bottom: "ip1"
  top: "ip1"
  dropout_param {
    dropout_ratio: 0.5
  }
}
layer {
  name: "ip2"
  type: "InnerProduct"
  bottom: "ip1"
  top: "ip2"
  inner_product_param {
    num_output: 98
    weight_filler {
      type: "xavier"
    }
    bias_filler {
      type: "constant"
    }
  }
}
layer {
  name: "relu6"
  type: "ReLU"
  bottom: "ip2"
  top: "ip2"
}
layer {
  name: "drop2"
  type: "Dropout"
  bottom: "ip2"
  top: "ip2"
  dropout_param {
    dropout_ratio: 0.5
  }
}
layer {
  name: "ip3"
  type: "InnerProduct"
  bottom: "ip2"
  top: "ip3"
  inner_product_param {
    num_output: 11
    weight_filler {
      type: "xavier"
    }
    bias_filler {
      type: "constant"
    }
  }
}
layer {
  name: "drop3"
  type: "Dropout"
  bottom: "ip3"
  top: "ip3"
  dropout_param {
    dropout_ratio: 0.5
  }
}
layer {
  name: "accuracy"
  type: "Accuracy"
  bottom: "ip3"
  bottom: "label"
  top: "accuracy"
  include {
    phase: TEST
  }
}
layer {
  name: "loss"
  type: "SoftmaxWithLoss"
  bottom: "ip3"
  bottom: "label"
  top: "loss"
}
I0521 02:58:22.488530 29613 layer_factory.hpp:77] Creating layer data_hdf5
I0521 02:58:22.488545 29613 net.cpp:106] Creating Layer data_hdf5
I0521 02:58:22.488559 29613 net.cpp:411] data_hdf5 -> data
I0521 02:58:22.488575 29613 net.cpp:411] data_hdf5 -> label
I0521 02:58:22.488591 29613 hdf5_data_layer.cpp:79] Loading list of HDF5 filenames from: /lustre/atlas/proj-shared/hep105/caffe_titan/minosmatch_nukecczdefs_127x50_x_unshifted_me1Bmc.testlist
I0521 02:58:22.489820 29613 hdf5_data_layer.cpp:93] Number of HDF5 files: 3
I0521 02:58:43.788561 29613 net.cpp:150] Setting up data_hdf5
I0521 02:58:43.788728 29613 net.cpp:157] Top shape: 590 1 127 50 (3746500)
I0521 02:58:43.788743 29613 net.cpp:157] Top shape: 590 (590)
I0521 02:58:43.788754 29613 net.cpp:165] Memory required for data: 14988360
I0521 02:58:43.788767 29613 layer_factory.hpp:77] Creating layer label_data_hdf5_1_split
I0521 02:58:43.788795 29613 net.cpp:106] Creating Layer label_data_hdf5_1_split
I0521 02:58:43.788806 29613 net.cpp:454] label_data_hdf5_1_split <- label
I0521 02:58:43.788821 29613 net.cpp:411] label_data_hdf5_1_split -> label_data_hdf5_1_split_0
I0521 02:58:43.788842 29613 net.cpp:411] label_data_hdf5_1_split -> label_data_hdf5_1_split_1
I0521 02:58:43.788915 29613 net.cpp:150] Setting up label_data_hdf5_1_split
I0521 02:58:43.788929 29613 net.cpp:157] Top shape: 590 (590)
I0521 02:58:43.788940 29613 net.cpp:157] Top shape: 590 (590)
I0521 02:58:43.788950 29613 net.cpp:165] Memory required for data: 14993080
I0521 02:58:43.788960 29613 layer_factory.hpp:77] Creating layer conv1
I0521 02:58:43.788983 29613 net.cpp:106] Creating Layer conv1
I0521 02:58:43.788995 29613 net.cpp:454] conv1 <- data
I0521 02:58:43.789010 29613 net.cpp:411] conv1 -> conv1
I0521 02:58:43.790946 29613 net.cpp:150] Setting up conv1
I0521 02:58:43.790971 29613 net.cpp:157] Top shape: 590 12 120 48 (40780800)
I0521 02:58:43.790982 29613 net.cpp:165] Memory required for data: 178116280
I0521 02:58:43.791002 29613 layer_factory.hpp:77] Creating layer relu1
I0521 02:58:43.791018 29613 net.cpp:106] Creating Layer relu1
I0521 02:58:43.791028 29613 net.cpp:454] relu1 <- conv1
I0521 02:58:43.791040 29613 net.cpp:397] relu1 -> conv1 (in-place)
I0521 02:58:43.791538 29613 net.cpp:150] Setting up relu1
I0521 02:58:43.791553 29613 net.cpp:157] Top shape: 590 12 120 48 (40780800)
I0521 02:58:43.791564 29613 net.cpp:165] Memory required for data: 341239480
I0521 02:58:43.791575 29613 layer_factory.hpp:77] Creating layer pool1
I0521 02:58:43.791591 29613 net.cpp:106] Creating Layer pool1
I0521 02:58:43.791601 29613 net.cpp:454] pool1 <- conv1
I0521 02:58:43.791615 29613 net.cpp:411] pool1 -> pool1
I0521 02:58:43.791689 29613 net.cpp:150] Setting up pool1
I0521 02:58:43.791702 29613 net.cpp:157] Top shape: 590 12 60 48 (20390400)
I0521 02:58:43.791713 29613 net.cpp:165] Memory required for data: 422801080
I0521 02:58:43.791724 29613 layer_factory.hpp:77] Creating layer conv2
I0521 02:58:43.791741 29613 net.cpp:106] Creating Layer conv2
I0521 02:58:43.791754 29613 net.cpp:454] conv2 <- pool1
I0521 02:58:43.791767 29613 net.cpp:411] conv2 -> conv2
I0521 02:58:43.793694 29613 net.cpp:150] Setting up conv2
I0521 02:58:43.793717 29613 net.cpp:157] Top shape: 590 20 54 46 (29311200)
I0521 02:58:43.793726 29613 net.cpp:165] Memory required for data: 540045880
I0521 02:58:43.793745 29613 layer_factory.hpp:77] Creating layer relu2
I0521 02:58:43.793759 29613 net.cpp:106] Creating Layer relu2
I0521 02:58:43.793769 29613 net.cpp:454] relu2 <- conv2
I0521 02:58:43.793781 29613 net.cpp:397] relu2 -> conv2 (in-place)
I0521 02:58:43.794113 29613 net.cpp:150] Setting up relu2
I0521 02:58:43.794127 29613 net.cpp:157] Top shape: 590 20 54 46 (29311200)
I0521 02:58:43.794137 29613 net.cpp:165] Memory required for data: 657290680
I0521 02:58:43.794147 29613 layer_factory.hpp:77] Creating layer pool2
I0521 02:58:43.794162 29613 net.cpp:106] Creating Layer pool2
I0521 02:58:43.794172 29613 net.cpp:454] pool2 <- conv2
I0521 02:58:43.794183 29613 net.cpp:411] pool2 -> pool2
I0521 02:58:43.794255 29613 net.cpp:150] Setting up pool2
I0521 02:58:43.794267 29613 net.cpp:157] Top shape: 590 20 27 46 (14655600)
I0521 02:58:43.794278 29613 net.cpp:165] Memory required for data: 715913080
I0521 02:58:43.794288 29613 layer_factory.hpp:77] Creating layer conv3
I0521 02:58:43.794306 29613 net.cpp:106] Creating Layer conv3
I0521 02:58:43.794317 29613 net.cpp:454] conv3 <- pool2
I0521 02:58:43.794332 29613 net.cpp:411] conv3 -> conv3
I0521 02:58:43.796306 29613 net.cpp:150] Setting up conv3
I0521 02:58:43.796329 29613 net.cpp:157] Top shape: 590 28 22 44 (15991360)
I0521 02:58:43.796341 29613 net.cpp:165] Memory required for data: 779878520
I0521 02:58:43.796375 29613 layer_factory.hpp:77] Creating layer relu3
I0521 02:58:43.796388 29613 net.cpp:106] Creating Layer relu3
I0521 02:58:43.796399 29613 net.cpp:454] relu3 <- conv3
I0521 02:58:43.796411 29613 net.cpp:397] relu3 -> conv3 (in-place)
I0521 02:58:43.796883 29613 net.cpp:150] Setting up relu3
I0521 02:58:43.796900 29613 net.cpp:157] Top shape: 590 28 22 44 (15991360)
I0521 02:58:43.796911 29613 net.cpp:165] Memory required for data: 843843960
I0521 02:58:43.796921 29613 layer_factory.hpp:77] Creating layer pool3
I0521 02:58:43.796933 29613 net.cpp:106] Creating Layer pool3
I0521 02:58:43.796943 29613 net.cpp:454] pool3 <- conv3
I0521 02:58:43.796957 29613 net.cpp:411] pool3 -> pool3
I0521 02:58:43.797027 29613 net.cpp:150] Setting up pool3
I0521 02:58:43.797041 29613 net.cpp:157] Top shape: 590 28 11 44 (7995680)
I0521 02:58:43.797051 29613 net.cpp:165] Memory required for data: 875826680
I0521 02:58:43.797060 29613 layer_factory.hpp:77] Creating layer conv4
I0521 02:58:43.797077 29613 net.cpp:106] Creating Layer conv4
I0521 02:58:43.797087 29613 net.cpp:454] conv4 <- pool3
I0521 02:58:43.797102 29613 net.cpp:411] conv4 -> conv4
I0521 02:58:43.799154 29613 net.cpp:150] Setting up conv4
I0521 02:58:43.799176 29613 net.cpp:157] Top shape: 590 36 6 42 (5352480)
I0521 02:58:43.799190 29613 net.cpp:165] Memory required for data: 897236600
I0521 02:58:43.799204 29613 layer_factory.hpp:77] Creating layer relu4
I0521 02:58:43.799218 29613 net.cpp:106] Creating Layer relu4
I0521 02:58:43.799228 29613 net.cpp:454] relu4 <- conv4
I0521 02:58:43.799242 29613 net.cpp:397] relu4 -> conv4 (in-place)
I0521 02:58:43.799710 29613 net.cpp:150] Setting up relu4
I0521 02:58:43.799724 29613 net.cpp:157] Top shape: 590 36 6 42 (5352480)
I0521 02:58:43.799736 29613 net.cpp:165] Memory required for data: 918646520
I0521 02:58:43.799746 29613 layer_factory.hpp:77] Creating layer pool4
I0521 02:58:43.799758 29613 net.cpp:106] Creating Layer pool4
I0521 02:58:43.799768 29613 net.cpp:454] pool4 <- conv4
I0521 02:58:43.799782 29613 net.cpp:411] pool4 -> pool4
I0521 02:58:43.799854 29613 net.cpp:150] Setting up pool4
I0521 02:58:43.799867 29613 net.cpp:157] Top shape: 590 36 3 42 (2676240)
I0521 02:58:43.799877 29613 net.cpp:165] Memory required for data: 929351480
I0521 02:58:43.799885 29613 layer_factory.hpp:77] Creating layer ip1
I0521 02:58:43.799901 29613 net.cpp:106] Creating Layer ip1
I0521 02:58:43.799911 29613 net.cpp:454] ip1 <- pool4
I0521 02:58:43.799926 29613 net.cpp:411] ip1 -> ip1
I0521 02:58:43.815484 29613 net.cpp:150] Setting up ip1
I0521 02:58:43.815511 29613 net.cpp:157] Top shape: 590 196 (115640)
I0521 02:58:43.815526 29613 net.cpp:165] Memory required for data: 929814040
I0521 02:58:43.815549 29613 layer_factory.hpp:77] Creating layer relu5
I0521 02:58:43.815564 29613 net.cpp:106] Creating Layer relu5
I0521 02:58:43.815575 29613 net.cpp:454] relu5 <- ip1
I0521 02:58:43.815589 29613 net.cpp:397] relu5 -> ip1 (in-place)
I0521 02:58:43.815935 29613 net.cpp:150] Setting up relu5
I0521 02:58:43.815949 29613 net.cpp:157] Top shape: 590 196 (115640)
I0521 02:58:43.815966 29613 net.cpp:165] Memory required for data: 930276600
I0521 02:58:43.815978 29613 layer_factory.hpp:77] Creating layer drop1
I0521 02:58:43.815996 29613 net.cpp:106] Creating Layer drop1
I0521 02:58:43.816007 29613 net.cpp:454] drop1 <- ip1
I0521 02:58:43.816020 29613 net.cpp:397] drop1 -> ip1 (in-place)
I0521 02:58:43.816064 29613 net.cpp:150] Setting up drop1
I0521 02:58:43.816077 29613 net.cpp:157] Top shape: 590 196 (115640)
I0521 02:58:43.816087 29613 net.cpp:165] Memory required for data: 930739160
I0521 02:58:43.816097 29613 layer_factory.hpp:77] Creating layer ip2
I0521 02:58:43.816112 29613 net.cpp:106] Creating Layer ip2
I0521 02:58:43.816121 29613 net.cpp:454] ip2 <- ip1
I0521 02:58:43.816135 29613 net.cpp:411] ip2 -> ip2
I0521 02:58:43.816617 29613 net.cpp:150] Setting up ip2
I0521 02:58:43.816632 29613 net.cpp:157] Top shape: 590 98 (57820)
I0521 02:58:43.816642 29613 net.cpp:165] Memory required for data: 930970440
I0521 02:58:43.816669 29613 layer_factory.hpp:77] Creating layer relu6
I0521 02:58:43.816682 29613 net.cpp:106] Creating Layer relu6
I0521 02:58:43.816692 29613 net.cpp:454] relu6 <- ip2
I0521 02:58:43.816705 29613 net.cpp:397] relu6 -> ip2 (in-place)
I0521 02:58:43.817242 29613 net.cpp:150] Setting up relu6
I0521 02:58:43.817263 29613 net.cpp:157] Top shape: 590 98 (57820)
I0521 02:58:43.817273 29613 net.cpp:165] Memory required for data: 931201720
I0521 02:58:43.817284 29613 layer_factory.hpp:77] Creating layer drop2
I0521 02:58:43.817298 29613 net.cpp:106] Creating Layer drop2
I0521 02:58:43.817308 29613 net.cpp:454] drop2 <- ip2
I0521 02:58:43.817322 29613 net.cpp:397] drop2 -> ip2 (in-place)
I0521 02:58:43.817366 29613 net.cpp:150] Setting up drop2
I0521 02:58:43.817379 29613 net.cpp:157] Top shape: 590 98 (57820)
I0521 02:58:43.817389 29613 net.cpp:165] Memory required for data: 931433000
I0521 02:58:43.817399 29613 layer_factory.hpp:77] Creating layer ip3
I0521 02:58:43.817414 29613 net.cpp:106] Creating Layer ip3
I0521 02:58:43.817425 29613 net.cpp:454] ip3 <- ip2
I0521 02:58:43.817438 29613 net.cpp:411] ip3 -> ip3
I0521 02:58:43.817662 29613 net.cpp:150] Setting up ip3
I0521 02:58:43.817677 29613 net.cpp:157] Top shape: 590 11 (6490)
I0521 02:58:43.817687 29613 net.cpp:165] Memory required for data: 931458960
I0521 02:58:43.817703 29613 layer_factory.hpp:77] Creating layer drop3
I0521 02:58:43.817715 29613 net.cpp:106] Creating Layer drop3
I0521 02:58:43.817725 29613 net.cpp:454] drop3 <- ip3
I0521 02:58:43.817739 29613 net.cpp:397] drop3 -> ip3 (in-place)
I0521 02:58:43.817780 29613 net.cpp:150] Setting up drop3
I0521 02:58:43.817793 29613 net.cpp:157] Top shape: 590 11 (6490)
I0521 02:58:43.817802 29613 net.cpp:165] Memory required for data: 931484920
I0521 02:58:43.817812 29613 layer_factory.hpp:77] Creating layer ip3_drop3_0_split
I0521 02:58:43.817826 29613 net.cpp:106] Creating Layer ip3_drop3_0_split
I0521 02:58:43.817836 29613 net.cpp:454] ip3_drop3_0_split <- ip3
I0521 02:58:43.817847 29613 net.cpp:411] ip3_drop3_0_split -> ip3_drop3_0_split_0
I0521 02:58:43.817863 29613 net.cpp:411] ip3_drop3_0_split -> ip3_drop3_0_split_1
I0521 02:58:43.817936 29613 net.cpp:150] Setting up ip3_drop3_0_split
I0521 02:58:43.817950 29613 net.cpp:157] Top shape: 590 11 (6490)
I0521 02:58:43.817965 29613 net.cpp:157] Top shape: 590 11 (6490)
I0521 02:58:43.817975 29613 net.cpp:165] Memory required for data: 931536840
I0521 02:58:43.817986 29613 layer_factory.hpp:77] Creating layer accuracy
I0521 02:58:43.818006 29613 net.cpp:106] Creating Layer accuracy
I0521 02:58:43.818017 29613 net.cpp:454] accuracy <- ip3_drop3_0_split_0
I0521 02:58:43.818027 29613 net.cpp:454] accuracy <- label_data_hdf5_1_split_0
I0521 02:58:43.818042 29613 net.cpp:411] accuracy -> accuracy
…
