…
I0520 18:13:52.031772 24478 net.cpp:322] The NetState phase (0) differed from the phase (1) specified by a rule in layer data_hdf5
I0520 18:13:52.031831 24478 net.cpp:322] The NetState phase (0) differed from the phase (1) specified by a rule in layer accuracy
I0520 18:13:52.032176 24478 net.cpp:49] Initializing net from parameters: 
name: "caffe_test_127x50_x_unshifted"
state {
  phase: TRAIN
}
layer {
  name: "data_hdf5"
  type: "HDF5Data"
  top: "data"
  top: "label"
  include {
    phase: TRAIN
  }
  hdf5_data_param {
    source: "/lustre/atlas/proj-shared/hep105/caffe_titan/minosmatch_nukecczdefs_127x50_x_unshifted_me1Bmc.trainlist"
    batch_size: 210
  }
}
layer {
  name: "conv1"
  type: "Convolution"
  bottom: "data"
  top: "conv1"
  convolution_param {
    num_output: 12
    pad: 0
    stride: 1
    weight_filler {
      type: "xavier"
    }
    bias_filler {
      type: "constant"
    }
    kernel_h: 8
    kernel_w: 3
  }
}
layer {
  name: "relu1"
  type: "ReLU"
  bottom: "conv1"
  top: "conv1"
}
layer {
  name: "pool1"
  type: "Pooling"
  bottom: "conv1"
  top: "pool1"
  pooling_param {
    pool: MAX
    kernel_h: 2
    kernel_w: 1
    stride_h: 2
    stride_w: 1
  }
}
layer {
  name: "conv2"
  type: "Convolution"
  bottom: "pool1"
  top: "conv2"
  convolution_param {
    num_output: 20
    pad: 0
    stride: 1
    weight_filler {
      type: "xavier"
    }
    bias_filler {
      type: "constant"
    }
    kernel_h: 7
    kernel_w: 3
  }
}
layer {
  name: "relu2"
  type: "ReLU"
  bottom: "conv2"
  top: "conv2"
}
layer {
  name: "pool2"
  type: "Pooling"
  bottom: "conv2"
  top: "pool2"
  pooling_param {
    pool: MAX
    kernel_h: 2
    kernel_w: 1
    stride_h: 2
    stride_w: 1
  }
}
layer {
  name: "conv3"
  type: "Convolution"
  bottom: "pool2"
  top: "conv3"
  convolution_param {
    num_output: 28
    pad: 0
    stride: 1
    weight_filler {
      type: "xavier"
    }
    bias_filler {
      type: "constant"
    }
    kernel_h: 6
    kernel_w: 3
  }
}
layer {
  name: "relu3"
  type: "ReLU"
  bottom: "conv3"
  top: "conv3"
}
layer {
  name: "pool3"
  type: "Pooling"
  bottom: "conv3"
  top: "pool3"
  pooling_param {
    pool: MAX
    kernel_h: 2
    kernel_w: 1
    stride_h: 2
    stride_w: 1
  }
}
layer {
  name: "conv4"
  type: "Convolution"
  bottom: "pool3"
  top: "conv4"
  convolution_param {
    num_output: 36
    pad: 0
    stride: 1
    weight_filler {
      type: "xavier"
    }
    bias_filler {
      type: "constant"
    }
    kernel_h: 6
    kernel_w: 3
  }
}
layer {
  name: "relu4"
  type: "ReLU"
  bottom: "conv4"
  top: "conv4"
}
layer {
  name: "pool4"
  type: "Pooling"
  bottom: "conv4"
  top: "pool4"
  pooling_param {
    pool: MAX
    kernel_h: 2
    kernel_w: 1
    stride_h: 2
    stride_w: 1
  }
}
layer {
  name: "ip1"
  type: "InnerProduct"
  bottom: "pool4"
  top: "ip1"
  inner_product_param {
    num_output: 196
    weight_filler {
      type: "xavier"
    }
    bias_filler {
      type: "constant"
    }
  }
}
layer {
  name: "relu5"
  type: "ReLU"
  bottom: "ip1"
  top: "ip1"
}
layer {
  name: "drop1"
  type: "Dropout"
  bottom: "ip1"
  top: "ip1"
  dropout_param {
    dropout_ratio: 0.5
  }
}
layer {
  name: "ip2"
  type: "InnerProduct"
  bottom: "ip1"
  top: "ip2"
  inner_product_param {
    num_output: 98
    weight_filler {
      type: "xavier"
    }
    bias_filler {
      type: "constant"
    }
  }
}
layer {
  name: "relu6"
  type: "ReLU"
  bottom: "ip2"
  top: "ip2"
}
layer {
  name: "drop2"
  type: "Dropout"
  bottom: "ip2"
  top: "ip2"
  dropout_param {
    dropout_ratio: 0.5
  }
}
layer {
  name: "ip3"
  type: "InnerProduct"
  bottom: "ip2"
  top: "ip3"
  inner_product_param {
    num_output: 11
    weight_filler {
      type: "xavier"
    }
    bias_filler {
      type: "constant"
    }
  }
}
layer {
  name: "drop3"
  type: "Dropout"
  bottom: "ip3"
  top: "ip3"
  dropout_param {
    dropout_ratio: 0.5
  }
}
layer {
  name: "loss"
  type: "SoftmaxWithLoss"
  bottom: "ip3"
  bottom: "label"
  top: "loss"
}
I0520 18:13:52.032353 24478 layer_factory.hpp:77] Creating layer data_hdf5
I0520 18:13:52.032377 24478 net.cpp:106] Creating Layer data_hdf5
I0520 18:13:52.032392 24478 net.cpp:411] data_hdf5 -> data
I0520 18:13:52.032425 24478 net.cpp:411] data_hdf5 -> label
I0520 18:13:52.032456 24478 hdf5_data_layer.cpp:79] Loading list of HDF5 filenames from: /lustre/atlas/proj-shared/hep105/caffe_titan/minosmatch_nukecczdefs_127x50_x_unshifted_me1Bmc.trainlist
I0520 18:13:52.033599 24478 hdf5_data_layer.cpp:93] Number of HDF5 files: 15
I0520 18:13:52.035773 24478 hdf5.cpp:32] Datatype class: H5T_FLOAT
I0520 18:14:13.582720 24478 hdf5.cpp:35] Datatype class: H5T_INTEGER
I0520 18:14:13.587767 24478 net.cpp:150] Setting up data_hdf5
I0520 18:14:13.587807 24478 net.cpp:157] Top shape: 210 1 127 50 (1333500)
I0520 18:14:13.587822 24478 net.cpp:157] Top shape: 210 (210)
I0520 18:14:13.587836 24478 net.cpp:165] Memory required for data: 5334840
I0520 18:14:13.587849 24478 layer_factory.hpp:77] Creating layer conv1
I0520 18:14:13.587883 24478 net.cpp:106] Creating Layer conv1
I0520 18:14:13.587894 24478 net.cpp:454] conv1 <- data
I0520 18:14:13.587916 24478 net.cpp:411] conv1 -> conv1
I0520 18:14:13.952936 24478 net.cpp:150] Setting up conv1
I0520 18:14:13.952983 24478 net.cpp:157] Top shape: 210 12 120 48 (14515200)
I0520 18:14:13.952994 24478 net.cpp:165] Memory required for data: 63395640
I0520 18:14:13.953025 24478 layer_factory.hpp:77] Creating layer relu1
I0520 18:14:13.953047 24478 net.cpp:106] Creating Layer relu1
I0520 18:14:13.953058 24478 net.cpp:454] relu1 <- conv1
I0520 18:14:13.953071 24478 net.cpp:397] relu1 -> conv1 (in-place)
I0520 18:14:13.953586 24478 net.cpp:150] Setting up relu1
I0520 18:14:13.953603 24478 net.cpp:157] Top shape: 210 12 120 48 (14515200)
I0520 18:14:13.953613 24478 net.cpp:165] Memory required for data: 121456440
I0520 18:14:13.953622 24478 layer_factory.hpp:77] Creating layer pool1
I0520 18:14:13.953639 24478 net.cpp:106] Creating Layer pool1
I0520 18:14:13.953649 24478 net.cpp:454] pool1 <- conv1
I0520 18:14:13.953662 24478 net.cpp:411] pool1 -> pool1
I0520 18:14:13.953742 24478 net.cpp:150] Setting up pool1
I0520 18:14:13.953757 24478 net.cpp:157] Top shape: 210 12 60 48 (7257600)
I0520 18:14:13.953766 24478 net.cpp:165] Memory required for data: 150486840
I0520 18:14:13.953776 24478 layer_factory.hpp:77] Creating layer conv2
I0520 18:14:13.953799 24478 net.cpp:106] Creating Layer conv2
I0520 18:14:13.953809 24478 net.cpp:454] conv2 <- pool1
I0520 18:14:13.953822 24478 net.cpp:411] conv2 -> conv2
I0520 18:14:13.956523 24478 net.cpp:150] Setting up conv2
I0520 18:14:13.956552 24478 net.cpp:157] Top shape: 210 20 54 46 (10432800)
I0520 18:14:13.956563 24478 net.cpp:165] Memory required for data: 192218040
I0520 18:14:13.956583 24478 layer_factory.hpp:77] Creating layer relu2
I0520 18:14:13.956598 24478 net.cpp:106] Creating Layer relu2
I0520 18:14:13.956607 24478 net.cpp:454] relu2 <- conv2
I0520 18:14:13.956620 24478 net.cpp:397] relu2 -> conv2 (in-place)
I0520 18:14:13.956949 24478 net.cpp:150] Setting up relu2
I0520 18:14:13.956964 24478 net.cpp:157] Top shape: 210 20 54 46 (10432800)
I0520 18:14:13.956974 24478 net.cpp:165] Memory required for data: 233949240
I0520 18:14:13.956984 24478 layer_factory.hpp:77] Creating layer pool2
I0520 18:14:13.956996 24478 net.cpp:106] Creating Layer pool2
I0520 18:14:13.957006 24478 net.cpp:454] pool2 <- conv2
I0520 18:14:13.957031 24478 net.cpp:411] pool2 -> pool2
I0520 18:14:13.957100 24478 net.cpp:150] Setting up pool2
I0520 18:14:13.957114 24478 net.cpp:157] Top shape: 210 20 27 46 (5216400)
I0520 18:14:13.957124 24478 net.cpp:165] Memory required for data: 254814840
I0520 18:14:13.957135 24478 layer_factory.hpp:77] Creating layer conv3
I0520 18:14:13.957151 24478 net.cpp:106] Creating Layer conv3
I0520 18:14:13.957162 24478 net.cpp:454] conv3 <- pool2
I0520 18:14:13.957176 24478 net.cpp:411] conv3 -> conv3
I0520 18:14:13.959133 24478 net.cpp:150] Setting up conv3
I0520 18:14:13.959156 24478 net.cpp:157] Top shape: 210 28 22 44 (5691840)
I0520 18:14:13.959172 24478 net.cpp:165] Memory required for data: 277582200
I0520 18:14:13.959189 24478 layer_factory.hpp:77] Creating layer relu3
I0520 18:14:13.959205 24478 net.cpp:106] Creating Layer relu3
I0520 18:14:13.959215 24478 net.cpp:454] relu3 <- conv3
I0520 18:14:13.959228 24478 net.cpp:397] relu3 -> conv3 (in-place)
I0520 18:14:13.959712 24478 net.cpp:150] Setting up relu3
I0520 18:14:13.959728 24478 net.cpp:157] Top shape: 210 28 22 44 (5691840)
I0520 18:14:13.959739 24478 net.cpp:165] Memory required for data: 300349560
I0520 18:14:13.959749 24478 layer_factory.hpp:77] Creating layer pool3
I0520 18:14:13.959763 24478 net.cpp:106] Creating Layer pool3
I0520 18:14:13.959772 24478 net.cpp:454] pool3 <- conv3
I0520 18:14:13.959785 24478 net.cpp:411] pool3 -> pool3
I0520 18:14:13.959853 24478 net.cpp:150] Setting up pool3
I0520 18:14:13.959867 24478 net.cpp:157] Top shape: 210 28 11 44 (2845920)
I0520 18:14:13.959875 24478 net.cpp:165] Memory required for data: 311733240
I0520 18:14:13.959883 24478 layer_factory.hpp:77] Creating layer conv4
I0520 18:14:13.959900 24478 net.cpp:106] Creating Layer conv4
I0520 18:14:13.959911 24478 net.cpp:454] conv4 <- pool3
I0520 18:14:13.959924 24478 net.cpp:411] conv4 -> conv4
I0520 18:14:13.962638 24478 net.cpp:150] Setting up conv4
I0520 18:14:13.962666 24478 net.cpp:157] Top shape: 210 36 6 42 (1905120)
I0520 18:14:13.962677 24478 net.cpp:165] Memory required for data: 319353720
I0520 18:14:13.962692 24478 layer_factory.hpp:77] Creating layer relu4
I0520 18:14:13.962705 24478 net.cpp:106] Creating Layer relu4
I0520 18:14:13.962715 24478 net.cpp:454] relu4 <- conv4
I0520 18:14:13.962728 24478 net.cpp:397] relu4 -> conv4 (in-place)
I0520 18:14:13.963193 24478 net.cpp:150] Setting up relu4
I0520 18:14:13.963210 24478 net.cpp:157] Top shape: 210 36 6 42 (1905120)
I0520 18:14:13.963220 24478 net.cpp:165] Memory required for data: 326974200
I0520 18:14:13.963230 24478 layer_factory.hpp:77] Creating layer pool4
I0520 18:14:13.963243 24478 net.cpp:106] Creating Layer pool4
I0520 18:14:13.963253 24478 net.cpp:454] pool4 <- conv4
I0520 18:14:13.963266 24478 net.cpp:411] pool4 -> pool4
I0520 18:14:13.963335 24478 net.cpp:150] Setting up pool4
I0520 18:14:13.963349 24478 net.cpp:157] Top shape: 210 36 3 42 (952560)
I0520 18:14:13.963359 24478 net.cpp:165] Memory required for data: 330784440
I0520 18:14:13.963369 24478 layer_factory.hpp:77] Creating layer ip1
I0520 18:14:13.963389 24478 net.cpp:106] Creating Layer ip1
I0520 18:14:13.963400 24478 net.cpp:454] ip1 <- pool4
I0520 18:14:13.963413 24478 net.cpp:411] ip1 -> ip1
I0520 18:14:13.978821 24478 net.cpp:150] Setting up ip1
I0520 18:14:13.978848 24478 net.cpp:157] Top shape: 210 196 (41160)
I0520 18:14:13.978860 24478 net.cpp:165] Memory required for data: 330949080
I0520 18:14:13.978883 24478 layer_factory.hpp:77] Creating layer relu5
I0520 18:14:13.978899 24478 net.cpp:106] Creating Layer relu5
I0520 18:14:13.978909 24478 net.cpp:454] relu5 <- ip1
I0520 18:14:13.978921 24478 net.cpp:397] relu5 -> ip1 (in-place)
I0520 18:14:13.979264 24478 net.cpp:150] Setting up relu5
I0520 18:14:13.979279 24478 net.cpp:157] Top shape: 210 196 (41160)
I0520 18:14:13.979288 24478 net.cpp:165] Memory required for data: 331113720
I0520 18:14:13.979298 24478 layer_factory.hpp:77] Creating layer drop1
I0520 18:14:13.979320 24478 net.cpp:106] Creating Layer drop1
I0520 18:14:13.979329 24478 net.cpp:454] drop1 <- ip1
I0520 18:14:13.979354 24478 net.cpp:397] drop1 -> ip1 (in-place)
I0520 18:14:13.979403 24478 net.cpp:150] Setting up drop1
I0520 18:14:13.979416 24478 net.cpp:157] Top shape: 210 196 (41160)
I0520 18:14:13.979426 24478 net.cpp:165] Memory required for data: 331278360
I0520 18:14:13.979436 24478 layer_factory.hpp:77] Creating layer ip2
I0520 18:14:13.979454 24478 net.cpp:106] Creating Layer ip2
I0520 18:14:13.979465 24478 net.cpp:454] ip2 <- ip1
I0520 18:14:13.979478 24478 net.cpp:411] ip2 -> ip2
I0520 18:14:13.979948 24478 net.cpp:150] Setting up ip2
I0520 18:14:13.979961 24478 net.cpp:157] Top shape: 210 98 (20580)
I0520 18:14:13.979971 24478 net.cpp:165] Memory required for data: 331360680
I0520 18:14:13.979986 24478 layer_factory.hpp:77] Creating layer relu6
I0520 18:14:13.980000 24478 net.cpp:106] Creating Layer relu6
I0520 18:14:13.980010 24478 net.cpp:454] relu6 <- ip2
I0520 18:14:13.980021 24478 net.cpp:397] relu6 -> ip2 (in-place)
I0520 18:14:13.980533 24478 net.cpp:150] Setting up relu6
I0520 18:14:13.980550 24478 net.cpp:157] Top shape: 210 98 (20580)
I0520 18:14:13.980559 24478 net.cpp:165] Memory required for data: 331443000
I0520 18:14:13.980569 24478 layer_factory.hpp:77] Creating layer drop2
I0520 18:14:13.980582 24478 net.cpp:106] Creating Layer drop2
I0520 18:14:13.980592 24478 net.cpp:454] drop2 <- ip2
I0520 18:14:13.980604 24478 net.cpp:397] drop2 -> ip2 (in-place)
I0520 18:14:13.980648 24478 net.cpp:150] Setting up drop2
I0520 18:14:13.980660 24478 net.cpp:157] Top shape: 210 98 (20580)
I0520 18:14:13.980670 24478 net.cpp:165] Memory required for data: 331525320
I0520 18:14:13.980680 24478 layer_factory.hpp:77] Creating layer ip3
I0520 18:14:13.980693 24478 net.cpp:106] Creating Layer ip3
I0520 18:14:13.980703 24478 net.cpp:454] ip3 <- ip2
I0520 18:14:13.980716 24478 net.cpp:411] ip3 -> ip3
I0520 18:14:13.980927 24478 net.cpp:150] Setting up ip3
I0520 18:14:13.980940 24478 net.cpp:157] Top shape: 210 11 (2310)
I0520 18:14:13.980950 24478 net.cpp:165] Memory required for data: 331534560
I0520 18:14:13.980965 24478 layer_factory.hpp:77] Creating layer drop3
I0520 18:14:13.980978 24478 net.cpp:106] Creating Layer drop3
I0520 18:14:13.980988 24478 net.cpp:454] drop3 <- ip3
I0520 18:14:13.980999 24478 net.cpp:397] drop3 -> ip3 (in-place)
I0520 18:14:13.981040 24478 net.cpp:150] Setting up drop3
I0520 18:14:13.981052 24478 net.cpp:157] Top shape: 210 11 (2310)
I0520 18:14:13.981062 24478 net.cpp:165] Memory required for data: 331543800
I0520 18:14:13.981072 24478 layer_factory.hpp:77] Creating layer loss
I0520 18:14:13.981091 24478 net.cpp:106] Creating Layer loss
I0520 18:14:13.981101 24478 net.cpp:454] loss <- ip3
I0520 18:14:13.981112 24478 net.cpp:454] loss <- label
I0520 18:14:13.981124 24478 net.cpp:411] loss -> loss
I0520 18:14:13.981142 24478 layer_factory.hpp:77] Creating layer loss
…
I0520 18:14:13.983678 24478 solver.cpp:181] Creating test net (#0) specified by net file: /lustre/atlas/proj-shared/hep105/caffe_titan/caffe_workflow/logs_batch_size_test/batch_size_210_2016-05-20T11.20.40.463075.prototxt
I0520 18:14:13.983749 24478 net.cpp:322] The NetState phase (1) differed from the phase (0) specified by a rule in layer data_hdf5
I0520 18:14:13.984103 24478 net.cpp:49] Initializing net from parameters: 
name: "caffe_test_127x50_x_unshifted"
state {
  phase: TEST
}
layer {
  name: "data_hdf5"
  type: "HDF5Data"
  top: "data"
  top: "label"
  include {
    phase: TEST
  }
  hdf5_data_param {
    source: "/lustre/atlas/proj-shared/hep105/caffe_titan/minosmatch_nukecczdefs_127x50_x_unshifted_me1Bmc.testlist"
    batch_size: 210
  }
}
layer {
  name: "conv1"
  type: "Convolution"
  bottom: "data"
  top: "conv1"
  convolution_param {
    num_output: 12
    pad: 0
    stride: 1
    weight_filler {
      type: "xavier"
    }
    bias_filler {
      type: "constant"
    }
    kernel_h: 8
    kernel_w: 3
  }
}
layer {
  name: "relu1"
  type: "ReLU"
  bottom: "conv1"
  top: "conv1"
}
layer {
  name: "pool1"
  type: "Pooling"
  bottom: "conv1"
  top: "pool1"
  pooling_param {
    pool: MAX
    kernel_h: 2
    kernel_w: 1
    stride_h: 2
    stride_w: 1
  }
}
layer {
  name: "conv2"
  type: "Convolution"
  bottom: "pool1"
  top: "conv2"
  convolution_param {
    num_output: 20
    pad: 0
    stride: 1
    weight_filler {
      type: "xavier"
    }
    bias_filler {
      type: "constant"
    }
    kernel_h: 7
    kernel_w: 3
  }
}
layer {
  name: "relu2"
  type: "ReLU"
  bottom: "conv2"
  top: "conv2"
}
layer {
  name: "pool2"
  type: "Pooling"
  bottom: "conv2"
  top: "pool2"
  pooling_param {
    pool: MAX
    kernel_h: 2
    kernel_w: 1
    stride_h: 2
    stride_w: 1
  }
}
layer {
  name: "conv3"
  type: "Convolution"
  bottom: "pool2"
  top: "conv3"
  convolution_param {
    num_output: 28
    pad: 0
    stride: 1
    weight_filler {
      type: "xavier"
    }
    bias_filler {
      type: "constant"
    }
    kernel_h: 6
    kernel_w: 3
  }
}
layer {
  name: "relu3"
  type: "ReLU"
  bottom: "conv3"
  top: "conv3"
}
layer {
  name: "pool3"
  type: "Pooling"
  bottom: "conv3"
  top: "pool3"
  pooling_param {
    pool: MAX
    kernel_h: 2
    kernel_w: 1
    stride_h: 2
    stride_w: 1
  }
}
layer {
  name: "conv4"
  type: "Convolution"
  bottom: "pool3"
  top: "conv4"
  convolution_param {
    num_output: 36
    pad: 0
    stride: 1
    weight_filler {
      type: "xavier"
    }
    bias_filler {
      type: "constant"
    }
    kernel_h: 6
    kernel_w: 3
  }
}
layer {
  name: "relu4"
  type: "ReLU"
  bottom: "conv4"
  top: "conv4"
}
layer {
  name: "pool4"
  type: "Pooling"
  bottom: "conv4"
  top: "pool4"
  pooling_param {
    pool: MAX
    kernel_h: 2
    kernel_w: 1
    stride_h: 2
    stride_w: 1
  }
}
layer {
  name: "ip1"
  type: "InnerProduct"
  bottom: "pool4"
  top: "ip1"
  inner_product_param {
    num_output: 196
    weight_filler {
      type: "xavier"
    }
    bias_filler {
      type: "constant"
    }
  }
}
layer {
  name: "relu5"
  type: "ReLU"
  bottom: "ip1"
  top: "ip1"
}
layer {
  name: "drop1"
  type: "Dropout"
  bottom: "ip1"
  top: "ip1"
  dropout_param {
    dropout_ratio: 0.5
  }
}
layer {
  name: "ip2"
  type: "InnerProduct"
  bottom: "ip1"
  top: "ip2"
  inner_product_param {
    num_output: 98
    weight_filler {
      type: "xavier"
    }
    bias_filler {
      type: "constant"
    }
  }
}
layer {
  name: "relu6"
  type: "ReLU"
  bottom: "ip2"
  top: "ip2"
}
layer {
  name: "drop2"
  type: "Dropout"
  bottom: "ip2"
  top: "ip2"
  dropout_param {
    dropout_ratio: 0.5
  }
}
layer {
  name: "ip3"
  type: "InnerProduct"
  bottom: "ip2"
  top: "ip3"
  inner_product_param {
    num_output: 11
    weight_filler {
      type: "xavier"
    }
    bias_filler {
      type: "constant"
    }
  }
}
layer {
  name: "drop3"
  type: "Dropout"
  bottom: "ip3"
  top: "ip3"
  dropout_param {
    dropout_ratio: 0.5
  }
}
layer {
  name: "accuracy"
  type: "Accuracy"
  bottom: "ip3"
  bottom: "label"
  top: "accuracy"
  include {
    phase: TEST
  }
}
layer {
  name: "loss"
  type: "SoftmaxWithLoss"
  bottom: "ip3"
  bottom: "label"
  top: "loss"
}
I0520 18:14:13.984292 24478 layer_factory.hpp:77] Creating layer data_hdf5
I0520 18:14:13.984308 24478 net.cpp:106] Creating Layer data_hdf5
I0520 18:14:13.984320 24478 net.cpp:411] data_hdf5 -> data
I0520 18:14:13.984338 24478 net.cpp:411] data_hdf5 -> label
I0520 18:14:13.984352 24478 hdf5_data_layer.cpp:79] Loading list of HDF5 filenames from: /lustre/atlas/proj-shared/hep105/caffe_titan/minosmatch_nukecczdefs_127x50_x_unshifted_me1Bmc.testlist
I0520 18:14:13.985519 24478 hdf5_data_layer.cpp:93] Number of HDF5 files: 3
I0520 18:14:35.365684 24478 net.cpp:150] Setting up data_hdf5
I0520 18:14:35.365849 24478 net.cpp:157] Top shape: 210 1 127 50 (1333500)
I0520 18:14:35.365864 24478 net.cpp:157] Top shape: 210 (210)
I0520 18:14:35.365876 24478 net.cpp:165] Memory required for data: 5334840
I0520 18:14:35.365890 24478 layer_factory.hpp:77] Creating layer label_data_hdf5_1_split
I0520 18:14:35.365919 24478 net.cpp:106] Creating Layer label_data_hdf5_1_split
I0520 18:14:35.365931 24478 net.cpp:454] label_data_hdf5_1_split <- label
I0520 18:14:35.365945 24478 net.cpp:411] label_data_hdf5_1_split -> label_data_hdf5_1_split_0
I0520 18:14:35.365967 24478 net.cpp:411] label_data_hdf5_1_split -> label_data_hdf5_1_split_1
I0520 18:14:35.366039 24478 net.cpp:150] Setting up label_data_hdf5_1_split
I0520 18:14:35.366052 24478 net.cpp:157] Top shape: 210 (210)
I0520 18:14:35.366065 24478 net.cpp:157] Top shape: 210 (210)
I0520 18:14:35.366073 24478 net.cpp:165] Memory required for data: 5336520
I0520 18:14:35.366085 24478 layer_factory.hpp:77] Creating layer conv1
I0520 18:14:35.366107 24478 net.cpp:106] Creating Layer conv1
I0520 18:14:35.366117 24478 net.cpp:454] conv1 <- data
I0520 18:14:35.366132 24478 net.cpp:411] conv1 -> conv1
I0520 18:14:35.368058 24478 net.cpp:150] Setting up conv1
I0520 18:14:35.368083 24478 net.cpp:157] Top shape: 210 12 120 48 (14515200)
I0520 18:14:35.368094 24478 net.cpp:165] Memory required for data: 63397320
I0520 18:14:35.368115 24478 layer_factory.hpp:77] Creating layer relu1
I0520 18:14:35.368130 24478 net.cpp:106] Creating Layer relu1
I0520 18:14:35.368139 24478 net.cpp:454] relu1 <- conv1
I0520 18:14:35.368152 24478 net.cpp:397] relu1 -> conv1 (in-place)
I0520 18:14:35.368649 24478 net.cpp:150] Setting up relu1
I0520 18:14:35.368664 24478 net.cpp:157] Top shape: 210 12 120 48 (14515200)
I0520 18:14:35.368675 24478 net.cpp:165] Memory required for data: 121458120
I0520 18:14:35.368685 24478 layer_factory.hpp:77] Creating layer pool1
I0520 18:14:35.368702 24478 net.cpp:106] Creating Layer pool1
I0520 18:14:35.368712 24478 net.cpp:454] pool1 <- conv1
I0520 18:14:35.368726 24478 net.cpp:411] pool1 -> pool1
I0520 18:14:35.368800 24478 net.cpp:150] Setting up pool1
I0520 18:14:35.368814 24478 net.cpp:157] Top shape: 210 12 60 48 (7257600)
I0520 18:14:35.368824 24478 net.cpp:165] Memory required for data: 150488520
I0520 18:14:35.368834 24478 layer_factory.hpp:77] Creating layer conv2
I0520 18:14:35.368852 24478 net.cpp:106] Creating Layer conv2
I0520 18:14:35.368863 24478 net.cpp:454] conv2 <- pool1
I0520 18:14:35.368877 24478 net.cpp:411] conv2 -> conv2
I0520 18:14:35.370791 24478 net.cpp:150] Setting up conv2
I0520 18:14:35.370813 24478 net.cpp:157] Top shape: 210 20 54 46 (10432800)
I0520 18:14:35.370826 24478 net.cpp:165] Memory required for data: 192219720
I0520 18:14:35.370843 24478 layer_factory.hpp:77] Creating layer relu2
I0520 18:14:35.370857 24478 net.cpp:106] Creating Layer relu2
I0520 18:14:35.370867 24478 net.cpp:454] relu2 <- conv2
I0520 18:14:35.370879 24478 net.cpp:397] relu2 -> conv2 (in-place)
I0520 18:14:35.371211 24478 net.cpp:150] Setting up relu2
I0520 18:14:35.371225 24478 net.cpp:157] Top shape: 210 20 54 46 (10432800)
I0520 18:14:35.371234 24478 net.cpp:165] Memory required for data: 233950920
I0520 18:14:35.371245 24478 layer_factory.hpp:77] Creating layer pool2
I0520 18:14:35.371258 24478 net.cpp:106] Creating Layer pool2
I0520 18:14:35.371268 24478 net.cpp:454] pool2 <- conv2
I0520 18:14:35.371279 24478 net.cpp:411] pool2 -> pool2
I0520 18:14:35.371351 24478 net.cpp:150] Setting up pool2
I0520 18:14:35.371364 24478 net.cpp:157] Top shape: 210 20 27 46 (5216400)
I0520 18:14:35.371374 24478 net.cpp:165] Memory required for data: 254816520
I0520 18:14:35.371384 24478 layer_factory.hpp:77] Creating layer conv3
I0520 18:14:35.371402 24478 net.cpp:106] Creating Layer conv3
I0520 18:14:35.371412 24478 net.cpp:454] conv3 <- pool2
I0520 18:14:35.371425 24478 net.cpp:411] conv3 -> conv3
I0520 18:14:35.373404 24478 net.cpp:150] Setting up conv3
I0520 18:14:35.373426 24478 net.cpp:157] Top shape: 210 28 22 44 (5691840)
I0520 18:14:35.373437 24478 net.cpp:165] Memory required for data: 277583880
I0520 18:14:35.373471 24478 layer_factory.hpp:77] Creating layer relu3
I0520 18:14:35.373484 24478 net.cpp:106] Creating Layer relu3
I0520 18:14:35.373494 24478 net.cpp:454] relu3 <- conv3
I0520 18:14:35.373507 24478 net.cpp:397] relu3 -> conv3 (in-place)
I0520 18:14:35.373980 24478 net.cpp:150] Setting up relu3
I0520 18:14:35.373996 24478 net.cpp:157] Top shape: 210 28 22 44 (5691840)
I0520 18:14:35.374006 24478 net.cpp:165] Memory required for data: 300351240
I0520 18:14:35.374017 24478 layer_factory.hpp:77] Creating layer pool3
I0520 18:14:35.374030 24478 net.cpp:106] Creating Layer pool3
I0520 18:14:35.374040 24478 net.cpp:454] pool3 <- conv3
I0520 18:14:35.374053 24478 net.cpp:411] pool3 -> pool3
I0520 18:14:35.374125 24478 net.cpp:150] Setting up pool3
I0520 18:14:35.374138 24478 net.cpp:157] Top shape: 210 28 11 44 (2845920)
I0520 18:14:35.374148 24478 net.cpp:165] Memory required for data: 311734920
I0520 18:14:35.374156 24478 layer_factory.hpp:77] Creating layer conv4
I0520 18:14:35.374174 24478 net.cpp:106] Creating Layer conv4
I0520 18:14:35.374184 24478 net.cpp:454] conv4 <- pool3
I0520 18:14:35.374199 24478 net.cpp:411] conv4 -> conv4
I0520 18:14:35.376256 24478 net.cpp:150] Setting up conv4
I0520 18:14:35.376278 24478 net.cpp:157] Top shape: 210 36 6 42 (1905120)
I0520 18:14:35.376291 24478 net.cpp:165] Memory required for data: 319355400
I0520 18:14:35.376307 24478 layer_factory.hpp:77] Creating layer relu4
I0520 18:14:35.376320 24478 net.cpp:106] Creating Layer relu4
I0520 18:14:35.376330 24478 net.cpp:454] relu4 <- conv4
I0520 18:14:35.376343 24478 net.cpp:397] relu4 -> conv4 (in-place)
I0520 18:14:35.376811 24478 net.cpp:150] Setting up relu4
I0520 18:14:35.376827 24478 net.cpp:157] Top shape: 210 36 6 42 (1905120)
I0520 18:14:35.376838 24478 net.cpp:165] Memory required for data: 326975880
I0520 18:14:35.376848 24478 layer_factory.hpp:77] Creating layer pool4
I0520 18:14:35.376862 24478 net.cpp:106] Creating Layer pool4
I0520 18:14:35.376870 24478 net.cpp:454] pool4 <- conv4
I0520 18:14:35.376884 24478 net.cpp:411] pool4 -> pool4
I0520 18:14:35.376955 24478 net.cpp:150] Setting up pool4
I0520 18:14:35.376970 24478 net.cpp:157] Top shape: 210 36 3 42 (952560)
I0520 18:14:35.376978 24478 net.cpp:165] Memory required for data: 330786120
I0520 18:14:35.376986 24478 layer_factory.hpp:77] Creating layer ip1
I0520 18:14:35.377002 24478 net.cpp:106] Creating Layer ip1
I0520 18:14:35.377012 24478 net.cpp:454] ip1 <- pool4
I0520 18:14:35.377027 24478 net.cpp:411] ip1 -> ip1
I0520 18:14:35.392534 24478 net.cpp:150] Setting up ip1
I0520 18:14:35.392563 24478 net.cpp:157] Top shape: 210 196 (41160)
I0520 18:14:35.392575 24478 net.cpp:165] Memory required for data: 330950760
I0520 18:14:35.392596 24478 layer_factory.hpp:77] Creating layer relu5
I0520 18:14:35.392611 24478 net.cpp:106] Creating Layer relu5
I0520 18:14:35.392622 24478 net.cpp:454] relu5 <- ip1
I0520 18:14:35.392637 24478 net.cpp:397] relu5 -> ip1 (in-place)
I0520 18:14:35.392982 24478 net.cpp:150] Setting up relu5
I0520 18:14:35.392997 24478 net.cpp:157] Top shape: 210 196 (41160)
I0520 18:14:35.393007 24478 net.cpp:165] Memory required for data: 331115400
I0520 18:14:35.393016 24478 layer_factory.hpp:77] Creating layer drop1
I0520 18:14:35.393035 24478 net.cpp:106] Creating Layer drop1
I0520 18:14:35.393046 24478 net.cpp:454] drop1 <- ip1
I0520 18:14:35.393059 24478 net.cpp:397] drop1 -> ip1 (in-place)
I0520 18:14:35.393107 24478 net.cpp:150] Setting up drop1
I0520 18:14:35.393121 24478 net.cpp:157] Top shape: 210 196 (41160)
I0520 18:14:35.393131 24478 net.cpp:165] Memory required for data: 331280040
I0520 18:14:35.393139 24478 layer_factory.hpp:77] Creating layer ip2
I0520 18:14:35.393154 24478 net.cpp:106] Creating Layer ip2
I0520 18:14:35.393163 24478 net.cpp:454] ip2 <- ip1
I0520 18:14:35.393177 24478 net.cpp:411] ip2 -> ip2
I0520 18:14:35.393658 24478 net.cpp:150] Setting up ip2
I0520 18:14:35.393671 24478 net.cpp:157] Top shape: 210 98 (20580)
I0520 18:14:35.393682 24478 net.cpp:165] Memory required for data: 331362360
I0520 18:14:35.393709 24478 layer_factory.hpp:77] Creating layer relu6
I0520 18:14:35.393723 24478 net.cpp:106] Creating Layer relu6
I0520 18:14:35.393733 24478 net.cpp:454] relu6 <- ip2
I0520 18:14:35.393745 24478 net.cpp:397] relu6 -> ip2 (in-place)
I0520 18:14:35.394274 24478 net.cpp:150] Setting up relu6
I0520 18:14:35.394295 24478 net.cpp:157] Top shape: 210 98 (20580)
I0520 18:14:35.394305 24478 net.cpp:165] Memory required for data: 331444680
I0520 18:14:35.394315 24478 layer_factory.hpp:77] Creating layer drop2
I0520 18:14:35.394330 24478 net.cpp:106] Creating Layer drop2
I0520 18:14:35.394340 24478 net.cpp:454] drop2 <- ip2
I0520 18:14:35.394352 24478 net.cpp:397] drop2 -> ip2 (in-place)
I0520 18:14:35.394397 24478 net.cpp:150] Setting up drop2
I0520 18:14:35.394410 24478 net.cpp:157] Top shape: 210 98 (20580)
I0520 18:14:35.394420 24478 net.cpp:165] Memory required for data: 331527000
I0520 18:14:35.394430 24478 layer_factory.hpp:77] Creating layer ip3
I0520 18:14:35.394444 24478 net.cpp:106] Creating Layer ip3
I0520 18:14:35.394454 24478 net.cpp:454] ip3 <- ip2
I0520 18:14:35.394469 24478 net.cpp:411] ip3 -> ip3
I0520 18:14:35.394692 24478 net.cpp:150] Setting up ip3
I0520 18:14:35.394706 24478 net.cpp:157] Top shape: 210 11 (2310)
I0520 18:14:35.394716 24478 net.cpp:165] Memory required for data: 331536240
I0520 18:14:35.394731 24478 layer_factory.hpp:77] Creating layer drop3
I0520 18:14:35.394744 24478 net.cpp:106] Creating Layer drop3
I0520 18:14:35.394753 24478 net.cpp:454] drop3 <- ip3
I0520 18:14:35.394767 24478 net.cpp:397] drop3 -> ip3 (in-place)
I0520 18:14:35.394809 24478 net.cpp:150] Setting up drop3
I0520 18:14:35.394820 24478 net.cpp:157] Top shape: 210 11 (2310)
I0520 18:14:35.394830 24478 net.cpp:165] Memory required for data: 331545480
I0520 18:14:35.394840 24478 layer_factory.hpp:77] Creating layer ip3_drop3_0_split
I0520 18:14:35.394853 24478 net.cpp:106] Creating Layer ip3_drop3_0_split
I0520 18:14:35.394863 24478 net.cpp:454] ip3_drop3_0_split <- ip3
I0520 18:14:35.394876 24478 net.cpp:411] ip3_drop3_0_split -> ip3_drop3_0_split_0
I0520 18:14:35.394891 24478 net.cpp:411] ip3_drop3_0_split -> ip3_drop3_0_split_1
I0520 18:14:35.394965 24478 net.cpp:150] Setting up ip3_drop3_0_split
I0520 18:14:35.394979 24478 net.cpp:157] Top shape: 210 11 (2310)
I0520 18:14:35.394989 24478 net.cpp:157] Top shape: 210 11 (2310)
I0520 18:14:35.395002 24478 net.cpp:165] Memory required for data: 331563960
I0520 18:14:35.395012 24478 layer_factory.hpp:77] Creating layer accuracy
I0520 18:14:35.395035 24478 net.cpp:106] Creating Layer accuracy
I0520 18:14:35.395045 24478 net.cpp:454] accuracy <- ip3_drop3_0_split_0
I0520 18:14:35.395056 24478 net.cpp:454] accuracy <- label_data_hdf5_1_split_0
I0520 18:14:35.395069 24478 net.cpp:411] accuracy -> accuracy
…
