…
I0520 22:21:19.229820 25338 net.cpp:322] The NetState phase (0) differed from the phase (1) specified by a rule in layer data_hdf5
I0520 22:21:19.229888 25338 net.cpp:322] The NetState phase (0) differed from the phase (1) specified by a rule in layer accuracy
I0520 22:21:19.230248 25338 net.cpp:49] Initializing net from parameters: 
name: "caffe_test_127x50_x_unshifted"
state {
  phase: TRAIN
}
layer {
  name: "data_hdf5"
  type: "HDF5Data"
  top: "data"
  top: "label"
  include {
    phase: TRAIN
  }
  hdf5_data_param {
    source: "/lustre/atlas/proj-shared/hep105/caffe_titan/minosmatch_nukecczdefs_127x50_x_unshifted_me1Bmc.trainlist"
    batch_size: 370
  }
}
layer {
  name: "conv1"
  type: "Convolution"
  bottom: "data"
  top: "conv1"
  convolution_param {
    num_output: 12
    pad: 0
    stride: 1
    weight_filler {
      type: "xavier"
    }
    bias_filler {
      type: "constant"
    }
    kernel_h: 8
    kernel_w: 3
  }
}
layer {
  name: "relu1"
  type: "ReLU"
  bottom: "conv1"
  top: "conv1"
}
layer {
  name: "pool1"
  type: "Pooling"
  bottom: "conv1"
  top: "pool1"
  pooling_param {
    pool: MAX
    kernel_h: 2
    kernel_w: 1
    stride_h: 2
    stride_w: 1
  }
}
layer {
  name: "conv2"
  type: "Convolution"
  bottom: "pool1"
  top: "conv2"
  convolution_param {
    num_output: 20
    pad: 0
    stride: 1
    weight_filler {
      type: "xavier"
    }
    bias_filler {
      type: "constant"
    }
    kernel_h: 7
    kernel_w: 3
  }
}
layer {
  name: "relu2"
  type: "ReLU"
  bottom: "conv2"
  top: "conv2"
}
layer {
  name: "pool2"
  type: "Pooling"
  bottom: "conv2"
  top: "pool2"
  pooling_param {
    pool: MAX
    kernel_h: 2
    kernel_w: 1
    stride_h: 2
    stride_w: 1
  }
}
layer {
  name: "conv3"
  type: "Convolution"
  bottom: "pool2"
  top: "conv3"
  convolution_param {
    num_output: 28
    pad: 0
    stride: 1
    weight_filler {
      type: "xavier"
    }
    bias_filler {
      type: "constant"
    }
    kernel_h: 6
    kernel_w: 3
  }
}
layer {
  name: "relu3"
  type: "ReLU"
  bottom: "conv3"
  top: "conv3"
}
layer {
  name: "pool3"
  type: "Pooling"
  bottom: "conv3"
  top: "pool3"
  pooling_param {
    pool: MAX
    kernel_h: 2
    kernel_w: 1
    stride_h: 2
    stride_w: 1
  }
}
layer {
  name: "conv4"
  type: "Convolution"
  bottom: "pool3"
  top: "conv4"
  convolution_param {
    num_output: 36
    pad: 0
    stride: 1
    weight_filler {
      type: "xavier"
    }
    bias_filler {
      type: "constant"
    }
    kernel_h: 6
    kernel_w: 3
  }
}
layer {
  name: "relu4"
  type: "ReLU"
  bottom: "conv4"
  top: "conv4"
}
layer {
  name: "pool4"
  type: "Pooling"
  bottom: "conv4"
  top: "pool4"
  pooling_param {
    pool: MAX
    kernel_h: 2
    kernel_w: 1
    stride_h: 2
    stride_w: 1
  }
}
layer {
  name: "ip1"
  type: "InnerProduct"
  bottom: "pool4"
  top: "ip1"
  inner_product_param {
    num_output: 196
    weight_filler {
      type: "xavier"
    }
    bias_filler {
      type: "constant"
    }
  }
}
layer {
  name: "relu5"
  type: "ReLU"
  bottom: "ip1"
  top: "ip1"
}
layer {
  name: "drop1"
  type: "Dropout"
  bottom: "ip1"
  top: "ip1"
  dropout_param {
    dropout_ratio: 0.5
  }
}
layer {
  name: "ip2"
  type: "InnerProduct"
  bottom: "ip1"
  top: "ip2"
  inner_product_param {
    num_output: 98
    weight_filler {
      type: "xavier"
    }
    bias_filler {
      type: "constant"
    }
  }
}
layer {
  name: "relu6"
  type: "ReLU"
  bottom: "ip2"
  top: "ip2"
}
layer {
  name: "drop2"
  type: "Dropout"
  bottom: "ip2"
  top: "ip2"
  dropout_param {
    dropout_ratio: 0.5
  }
}
layer {
  name: "ip3"
  type: "InnerProduct"
  bottom: "ip2"
  top: "ip3"
  inner_product_param {
    num_output: 11
    weight_filler {
      type: "xavier"
    }
    bias_filler {
      type: "constant"
    }
  }
}
layer {
  name: "drop3"
  type: "Dropout"
  bottom: "ip3"
  top: "ip3"
  dropout_param {
    dropout_ratio: 0.5
  }
}
layer {
  name: "loss"
  type: "SoftmaxWithLoss"
  bottom: "ip3"
  bottom: "label"
  top: "loss"
}
I0520 22:21:19.230429 25338 layer_factory.hpp:77] Creating layer data_hdf5
I0520 22:21:19.230453 25338 net.cpp:106] Creating Layer data_hdf5
I0520 22:21:19.230466 25338 net.cpp:411] data_hdf5 -> data
I0520 22:21:19.230500 25338 net.cpp:411] data_hdf5 -> label
I0520 22:21:19.230532 25338 hdf5_data_layer.cpp:79] Loading list of HDF5 filenames from: /lustre/atlas/proj-shared/hep105/caffe_titan/minosmatch_nukecczdefs_127x50_x_unshifted_me1Bmc.trainlist
I0520 22:21:19.239418 25338 hdf5_data_layer.cpp:93] Number of HDF5 files: 15
I0520 22:21:19.252276 25338 hdf5.cpp:32] Datatype class: H5T_FLOAT
I0520 22:21:40.807377 25338 hdf5.cpp:35] Datatype class: H5T_INTEGER
I0520 22:21:40.821544 25338 net.cpp:150] Setting up data_hdf5
I0520 22:21:40.821590 25338 net.cpp:157] Top shape: 370 1 127 50 (2349500)
I0520 22:21:40.821605 25338 net.cpp:157] Top shape: 370 (370)
I0520 22:21:40.821615 25338 net.cpp:165] Memory required for data: 9399480
I0520 22:21:40.821630 25338 layer_factory.hpp:77] Creating layer conv1
I0520 22:21:40.821663 25338 net.cpp:106] Creating Layer conv1
I0520 22:21:40.821674 25338 net.cpp:454] conv1 <- data
I0520 22:21:40.821698 25338 net.cpp:411] conv1 -> conv1
I0520 22:21:41.542287 25338 net.cpp:150] Setting up conv1
I0520 22:21:41.542335 25338 net.cpp:157] Top shape: 370 12 120 48 (25574400)
I0520 22:21:41.542346 25338 net.cpp:165] Memory required for data: 111697080
I0520 22:21:41.542374 25338 layer_factory.hpp:77] Creating layer relu1
I0520 22:21:41.542395 25338 net.cpp:106] Creating Layer relu1
I0520 22:21:41.542407 25338 net.cpp:454] relu1 <- conv1
I0520 22:21:41.542420 25338 net.cpp:397] relu1 -> conv1 (in-place)
I0520 22:21:41.542937 25338 net.cpp:150] Setting up relu1
I0520 22:21:41.542953 25338 net.cpp:157] Top shape: 370 12 120 48 (25574400)
I0520 22:21:41.542964 25338 net.cpp:165] Memory required for data: 213994680
I0520 22:21:41.542974 25338 layer_factory.hpp:77] Creating layer pool1
I0520 22:21:41.542991 25338 net.cpp:106] Creating Layer pool1
I0520 22:21:41.543001 25338 net.cpp:454] pool1 <- conv1
I0520 22:21:41.543015 25338 net.cpp:411] pool1 -> pool1
I0520 22:21:41.543093 25338 net.cpp:150] Setting up pool1
I0520 22:21:41.543108 25338 net.cpp:157] Top shape: 370 12 60 48 (12787200)
I0520 22:21:41.543118 25338 net.cpp:165] Memory required for data: 265143480
I0520 22:21:41.543128 25338 layer_factory.hpp:77] Creating layer conv2
I0520 22:21:41.543150 25338 net.cpp:106] Creating Layer conv2
I0520 22:21:41.543161 25338 net.cpp:454] conv2 <- pool1
I0520 22:21:41.543174 25338 net.cpp:411] conv2 -> conv2
I0520 22:21:41.545821 25338 net.cpp:150] Setting up conv2
I0520 22:21:41.545848 25338 net.cpp:157] Top shape: 370 20 54 46 (18381600)
I0520 22:21:41.545860 25338 net.cpp:165] Memory required for data: 338669880
I0520 22:21:41.545891 25338 layer_factory.hpp:77] Creating layer relu2
I0520 22:21:41.545905 25338 net.cpp:106] Creating Layer relu2
I0520 22:21:41.545915 25338 net.cpp:454] relu2 <- conv2
I0520 22:21:41.545928 25338 net.cpp:397] relu2 -> conv2 (in-place)
I0520 22:21:41.546258 25338 net.cpp:150] Setting up relu2
I0520 22:21:41.546272 25338 net.cpp:157] Top shape: 370 20 54 46 (18381600)
I0520 22:21:41.546283 25338 net.cpp:165] Memory required for data: 412196280
I0520 22:21:41.546293 25338 layer_factory.hpp:77] Creating layer pool2
I0520 22:21:41.546305 25338 net.cpp:106] Creating Layer pool2
I0520 22:21:41.546314 25338 net.cpp:454] pool2 <- conv2
I0520 22:21:41.546339 25338 net.cpp:411] pool2 -> pool2
I0520 22:21:41.546408 25338 net.cpp:150] Setting up pool2
I0520 22:21:41.546422 25338 net.cpp:157] Top shape: 370 20 27 46 (9190800)
I0520 22:21:41.546432 25338 net.cpp:165] Memory required for data: 448959480
I0520 22:21:41.546439 25338 layer_factory.hpp:77] Creating layer conv3
I0520 22:21:41.546458 25338 net.cpp:106] Creating Layer conv3
I0520 22:21:41.546469 25338 net.cpp:454] conv3 <- pool2
I0520 22:21:41.546483 25338 net.cpp:411] conv3 -> conv3
I0520 22:21:41.548396 25338 net.cpp:150] Setting up conv3
I0520 22:21:41.548419 25338 net.cpp:157] Top shape: 370 28 22 44 (10028480)
I0520 22:21:41.548431 25338 net.cpp:165] Memory required for data: 489073400
I0520 22:21:41.548450 25338 layer_factory.hpp:77] Creating layer relu3
I0520 22:21:41.548466 25338 net.cpp:106] Creating Layer relu3
I0520 22:21:41.548477 25338 net.cpp:454] relu3 <- conv3
I0520 22:21:41.548490 25338 net.cpp:397] relu3 -> conv3 (in-place)
I0520 22:21:41.548956 25338 net.cpp:150] Setting up relu3
I0520 22:21:41.548974 25338 net.cpp:157] Top shape: 370 28 22 44 (10028480)
I0520 22:21:41.548985 25338 net.cpp:165] Memory required for data: 529187320
I0520 22:21:41.548993 25338 layer_factory.hpp:77] Creating layer pool3
I0520 22:21:41.549007 25338 net.cpp:106] Creating Layer pool3
I0520 22:21:41.549016 25338 net.cpp:454] pool3 <- conv3
I0520 22:21:41.549029 25338 net.cpp:411] pool3 -> pool3
I0520 22:21:41.549095 25338 net.cpp:150] Setting up pool3
I0520 22:21:41.549108 25338 net.cpp:157] Top shape: 370 28 11 44 (5014240)
I0520 22:21:41.549118 25338 net.cpp:165] Memory required for data: 549244280
I0520 22:21:41.549129 25338 layer_factory.hpp:77] Creating layer conv4
I0520 22:21:41.549145 25338 net.cpp:106] Creating Layer conv4
I0520 22:21:41.549156 25338 net.cpp:454] conv4 <- pool3
I0520 22:21:41.549170 25338 net.cpp:411] conv4 -> conv4
I0520 22:21:41.551920 25338 net.cpp:150] Setting up conv4
I0520 22:21:41.551944 25338 net.cpp:157] Top shape: 370 36 6 42 (3356640)
I0520 22:21:41.551954 25338 net.cpp:165] Memory required for data: 562670840
I0520 22:21:41.551970 25338 layer_factory.hpp:77] Creating layer relu4
I0520 22:21:41.551983 25338 net.cpp:106] Creating Layer relu4
I0520 22:21:41.551993 25338 net.cpp:454] relu4 <- conv4
I0520 22:21:41.552006 25338 net.cpp:397] relu4 -> conv4 (in-place)
I0520 22:21:41.552475 25338 net.cpp:150] Setting up relu4
I0520 22:21:41.552491 25338 net.cpp:157] Top shape: 370 36 6 42 (3356640)
I0520 22:21:41.552502 25338 net.cpp:165] Memory required for data: 576097400
I0520 22:21:41.552511 25338 layer_factory.hpp:77] Creating layer pool4
I0520 22:21:41.552525 25338 net.cpp:106] Creating Layer pool4
I0520 22:21:41.552534 25338 net.cpp:454] pool4 <- conv4
I0520 22:21:41.552547 25338 net.cpp:411] pool4 -> pool4
I0520 22:21:41.552614 25338 net.cpp:150] Setting up pool4
I0520 22:21:41.552628 25338 net.cpp:157] Top shape: 370 36 3 42 (1678320)
I0520 22:21:41.552639 25338 net.cpp:165] Memory required for data: 582810680
I0520 22:21:41.552649 25338 layer_factory.hpp:77] Creating layer ip1
I0520 22:21:41.552666 25338 net.cpp:106] Creating Layer ip1
I0520 22:21:41.552677 25338 net.cpp:454] ip1 <- pool4
I0520 22:21:41.552691 25338 net.cpp:411] ip1 -> ip1
I0520 22:21:41.568069 25338 net.cpp:150] Setting up ip1
I0520 22:21:41.568094 25338 net.cpp:157] Top shape: 370 196 (72520)
I0520 22:21:41.568106 25338 net.cpp:165] Memory required for data: 583100760
I0520 22:21:41.568132 25338 layer_factory.hpp:77] Creating layer relu5
I0520 22:21:41.568147 25338 net.cpp:106] Creating Layer relu5
I0520 22:21:41.568158 25338 net.cpp:454] relu5 <- ip1
I0520 22:21:41.568171 25338 net.cpp:397] relu5 -> ip1 (in-place)
I0520 22:21:41.568513 25338 net.cpp:150] Setting up relu5
I0520 22:21:41.568527 25338 net.cpp:157] Top shape: 370 196 (72520)
I0520 22:21:41.568538 25338 net.cpp:165] Memory required for data: 583390840
I0520 22:21:41.568548 25338 layer_factory.hpp:77] Creating layer drop1
I0520 22:21:41.568568 25338 net.cpp:106] Creating Layer drop1
I0520 22:21:41.568579 25338 net.cpp:454] drop1 <- ip1
I0520 22:21:41.568604 25338 net.cpp:397] drop1 -> ip1 (in-place)
I0520 22:21:41.568651 25338 net.cpp:150] Setting up drop1
I0520 22:21:41.568665 25338 net.cpp:157] Top shape: 370 196 (72520)
I0520 22:21:41.568675 25338 net.cpp:165] Memory required for data: 583680920
I0520 22:21:41.568684 25338 layer_factory.hpp:77] Creating layer ip2
I0520 22:21:41.568702 25338 net.cpp:106] Creating Layer ip2
I0520 22:21:41.568712 25338 net.cpp:454] ip2 <- ip1
I0520 22:21:41.568724 25338 net.cpp:411] ip2 -> ip2
I0520 22:21:41.569190 25338 net.cpp:150] Setting up ip2
I0520 22:21:41.569205 25338 net.cpp:157] Top shape: 370 98 (36260)
I0520 22:21:41.569213 25338 net.cpp:165] Memory required for data: 583825960
I0520 22:21:41.569228 25338 layer_factory.hpp:77] Creating layer relu6
I0520 22:21:41.569241 25338 net.cpp:106] Creating Layer relu6
I0520 22:21:41.569250 25338 net.cpp:454] relu6 <- ip2
I0520 22:21:41.569262 25338 net.cpp:397] relu6 -> ip2 (in-place)
I0520 22:21:41.569782 25338 net.cpp:150] Setting up relu6
I0520 22:21:41.569798 25338 net.cpp:157] Top shape: 370 98 (36260)
I0520 22:21:41.569809 25338 net.cpp:165] Memory required for data: 583971000
I0520 22:21:41.569819 25338 layer_factory.hpp:77] Creating layer drop2
I0520 22:21:41.569833 25338 net.cpp:106] Creating Layer drop2
I0520 22:21:41.569842 25338 net.cpp:454] drop2 <- ip2
I0520 22:21:41.569854 25338 net.cpp:397] drop2 -> ip2 (in-place)
I0520 22:21:41.569905 25338 net.cpp:150] Setting up drop2
I0520 22:21:41.569917 25338 net.cpp:157] Top shape: 370 98 (36260)
I0520 22:21:41.569927 25338 net.cpp:165] Memory required for data: 584116040
I0520 22:21:41.569937 25338 layer_factory.hpp:77] Creating layer ip3
I0520 22:21:41.569950 25338 net.cpp:106] Creating Layer ip3
I0520 22:21:41.569960 25338 net.cpp:454] ip3 <- ip2
I0520 22:21:41.569973 25338 net.cpp:411] ip3 -> ip3
I0520 22:21:41.570181 25338 net.cpp:150] Setting up ip3
I0520 22:21:41.570195 25338 net.cpp:157] Top shape: 370 11 (4070)
I0520 22:21:41.570205 25338 net.cpp:165] Memory required for data: 584132320
I0520 22:21:41.570220 25338 layer_factory.hpp:77] Creating layer drop3
I0520 22:21:41.570232 25338 net.cpp:106] Creating Layer drop3
I0520 22:21:41.570242 25338 net.cpp:454] drop3 <- ip3
I0520 22:21:41.570255 25338 net.cpp:397] drop3 -> ip3 (in-place)
I0520 22:21:41.570291 25338 net.cpp:150] Setting up drop3
I0520 22:21:41.570304 25338 net.cpp:157] Top shape: 370 11 (4070)
I0520 22:21:41.570313 25338 net.cpp:165] Memory required for data: 584148600
I0520 22:21:41.570323 25338 layer_factory.hpp:77] Creating layer loss
I0520 22:21:41.570343 25338 net.cpp:106] Creating Layer loss
I0520 22:21:41.570353 25338 net.cpp:454] loss <- ip3
I0520 22:21:41.570363 25338 net.cpp:454] loss <- label
I0520 22:21:41.570375 25338 net.cpp:411] loss -> loss
I0520 22:21:41.570392 25338 layer_factory.hpp:77] Creating layer loss
…
I0520 22:21:41.580018 25338 solver.cpp:181] Creating test net (#0) specified by net file: /lustre/atlas/proj-shared/hep105/caffe_titan/caffe_workflow/logs_batch_size_test/batch_size_370_2016-05-20T11.20.46.176403.prototxt
I0520 22:21:41.580096 25338 net.cpp:322] The NetState phase (1) differed from the phase (0) specified by a rule in layer data_hdf5
I0520 22:21:41.580454 25338 net.cpp:49] Initializing net from parameters: 
name: "caffe_test_127x50_x_unshifted"
state {
  phase: TEST
}
layer {
  name: "data_hdf5"
  type: "HDF5Data"
  top: "data"
  top: "label"
  include {
    phase: TEST
  }
  hdf5_data_param {
    source: "/lustre/atlas/proj-shared/hep105/caffe_titan/minosmatch_nukecczdefs_127x50_x_unshifted_me1Bmc.testlist"
    batch_size: 370
  }
}
layer {
  name: "conv1"
  type: "Convolution"
  bottom: "data"
  top: "conv1"
  convolution_param {
    num_output: 12
    pad: 0
    stride: 1
    weight_filler {
      type: "xavier"
    }
    bias_filler {
      type: "constant"
    }
    kernel_h: 8
    kernel_w: 3
  }
}
layer {
  name: "relu1"
  type: "ReLU"
  bottom: "conv1"
  top: "conv1"
}
layer {
  name: "pool1"
  type: "Pooling"
  bottom: "conv1"
  top: "pool1"
  pooling_param {
    pool: MAX
    kernel_h: 2
    kernel_w: 1
    stride_h: 2
    stride_w: 1
  }
}
layer {
  name: "conv2"
  type: "Convolution"
  bottom: "pool1"
  top: "conv2"
  convolution_param {
    num_output: 20
    pad: 0
    stride: 1
    weight_filler {
      type: "xavier"
    }
    bias_filler {
      type: "constant"
    }
    kernel_h: 7
    kernel_w: 3
  }
}
layer {
  name: "relu2"
  type: "ReLU"
  bottom: "conv2"
  top: "conv2"
}
layer {
  name: "pool2"
  type: "Pooling"
  bottom: "conv2"
  top: "pool2"
  pooling_param {
    pool: MAX
    kernel_h: 2
    kernel_w: 1
    stride_h: 2
    stride_w: 1
  }
}
layer {
  name: "conv3"
  type: "Convolution"
  bottom: "pool2"
  top: "conv3"
  convolution_param {
    num_output: 28
    pad: 0
    stride: 1
    weight_filler {
      type: "xavier"
    }
    bias_filler {
      type: "constant"
    }
    kernel_h: 6
    kernel_w: 3
  }
}
layer {
  name: "relu3"
  type: "ReLU"
  bottom: "conv3"
  top: "conv3"
}
layer {
  name: "pool3"
  type: "Pooling"
  bottom: "conv3"
  top: "pool3"
  pooling_param {
    pool: MAX
    kernel_h: 2
    kernel_w: 1
    stride_h: 2
    stride_w: 1
  }
}
layer {
  name: "conv4"
  type: "Convolution"
  bottom: "pool3"
  top: "conv4"
  convolution_param {
    num_output: 36
    pad: 0
    stride: 1
    weight_filler {
      type: "xavier"
    }
    bias_filler {
      type: "constant"
    }
    kernel_h: 6
    kernel_w: 3
  }
}
layer {
  name: "relu4"
  type: "ReLU"
  bottom: "conv4"
  top: "conv4"
}
layer {
  name: "pool4"
  type: "Pooling"
  bottom: "conv4"
  top: "pool4"
  pooling_param {
    pool: MAX
    kernel_h: 2
    kernel_w: 1
    stride_h: 2
    stride_w: 1
  }
}
layer {
  name: "ip1"
  type: "InnerProduct"
  bottom: "pool4"
  top: "ip1"
  inner_product_param {
    num_output: 196
    weight_filler {
      type: "xavier"
    }
    bias_filler {
      type: "constant"
    }
  }
}
layer {
  name: "relu5"
  type: "ReLU"
  bottom: "ip1"
  top: "ip1"
}
layer {
  name: "drop1"
  type: "Dropout"
  bottom: "ip1"
  top: "ip1"
  dropout_param {
    dropout_ratio: 0.5
  }
}
layer {
  name: "ip2"
  type: "InnerProduct"
  bottom: "ip1"
  top: "ip2"
  inner_product_param {
    num_output: 98
    weight_filler {
      type: "xavier"
    }
    bias_filler {
      type: "constant"
    }
  }
}
layer {
  name: "relu6"
  type: "ReLU"
  bottom: "ip2"
  top: "ip2"
}
layer {
  name: "drop2"
  type: "Dropout"
  bottom: "ip2"
  top: "ip2"
  dropout_param {
    dropout_ratio: 0.5
  }
}
layer {
  name: "ip3"
  type: "InnerProduct"
  bottom: "ip2"
  top: "ip3"
  inner_product_param {
    num_output: 11
    weight_filler {
      type: "xavier"
    }
    bias_filler {
      type: "constant"
    }
  }
}
layer {
  name: "drop3"
  type: "Dropout"
  bottom: "ip3"
  top: "ip3"
  dropout_param {
    dropout_ratio: 0.5
  }
}
layer {
  name: "accuracy"
  type: "Accuracy"
  bottom: "ip3"
  bottom: "label"
  top: "accuracy"
  include {
    phase: TEST
  }
}
layer {
  name: "loss"
  type: "SoftmaxWithLoss"
  bottom: "ip3"
  bottom: "label"
  top: "loss"
}
I0520 22:21:41.580647 25338 layer_factory.hpp:77] Creating layer data_hdf5
I0520 22:21:41.580663 25338 net.cpp:106] Creating Layer data_hdf5
I0520 22:21:41.580677 25338 net.cpp:411] data_hdf5 -> data
I0520 22:21:41.580693 25338 net.cpp:411] data_hdf5 -> label
I0520 22:21:41.580709 25338 hdf5_data_layer.cpp:79] Loading list of HDF5 filenames from: /lustre/atlas/proj-shared/hep105/caffe_titan/minosmatch_nukecczdefs_127x50_x_unshifted_me1Bmc.testlist
I0520 22:21:41.611199 25338 hdf5_data_layer.cpp:93] Number of HDF5 files: 3
I0520 22:22:02.913332 25338 net.cpp:150] Setting up data_hdf5
I0520 22:22:02.913497 25338 net.cpp:157] Top shape: 370 1 127 50 (2349500)
I0520 22:22:02.913512 25338 net.cpp:157] Top shape: 370 (370)
I0520 22:22:02.913523 25338 net.cpp:165] Memory required for data: 9399480
I0520 22:22:02.913537 25338 layer_factory.hpp:77] Creating layer label_data_hdf5_1_split
I0520 22:22:02.913564 25338 net.cpp:106] Creating Layer label_data_hdf5_1_split
I0520 22:22:02.913575 25338 net.cpp:454] label_data_hdf5_1_split <- label
I0520 22:22:02.913590 25338 net.cpp:411] label_data_hdf5_1_split -> label_data_hdf5_1_split_0
I0520 22:22:02.913612 25338 net.cpp:411] label_data_hdf5_1_split -> label_data_hdf5_1_split_1
I0520 22:22:02.913684 25338 net.cpp:150] Setting up label_data_hdf5_1_split
I0520 22:22:02.913698 25338 net.cpp:157] Top shape: 370 (370)
I0520 22:22:02.913710 25338 net.cpp:157] Top shape: 370 (370)
I0520 22:22:02.913720 25338 net.cpp:165] Memory required for data: 9402440
I0520 22:22:02.913730 25338 layer_factory.hpp:77] Creating layer conv1
I0520 22:22:02.913753 25338 net.cpp:106] Creating Layer conv1
I0520 22:22:02.913763 25338 net.cpp:454] conv1 <- data
I0520 22:22:02.913777 25338 net.cpp:411] conv1 -> conv1
I0520 22:22:02.915726 25338 net.cpp:150] Setting up conv1
I0520 22:22:02.915750 25338 net.cpp:157] Top shape: 370 12 120 48 (25574400)
I0520 22:22:02.915761 25338 net.cpp:165] Memory required for data: 111700040
I0520 22:22:02.915783 25338 layer_factory.hpp:77] Creating layer relu1
I0520 22:22:02.915798 25338 net.cpp:106] Creating Layer relu1
I0520 22:22:02.915808 25338 net.cpp:454] relu1 <- conv1
I0520 22:22:02.915822 25338 net.cpp:397] relu1 -> conv1 (in-place)
I0520 22:22:02.916316 25338 net.cpp:150] Setting up relu1
I0520 22:22:02.916332 25338 net.cpp:157] Top shape: 370 12 120 48 (25574400)
I0520 22:22:02.916342 25338 net.cpp:165] Memory required for data: 213997640
I0520 22:22:02.916352 25338 layer_factory.hpp:77] Creating layer pool1
I0520 22:22:02.916368 25338 net.cpp:106] Creating Layer pool1
I0520 22:22:02.916378 25338 net.cpp:454] pool1 <- conv1
I0520 22:22:02.916391 25338 net.cpp:411] pool1 -> pool1
I0520 22:22:02.916466 25338 net.cpp:150] Setting up pool1
I0520 22:22:02.916479 25338 net.cpp:157] Top shape: 370 12 60 48 (12787200)
I0520 22:22:02.916489 25338 net.cpp:165] Memory required for data: 265146440
I0520 22:22:02.916498 25338 layer_factory.hpp:77] Creating layer conv2
I0520 22:22:02.916518 25338 net.cpp:106] Creating Layer conv2
I0520 22:22:02.916528 25338 net.cpp:454] conv2 <- pool1
I0520 22:22:02.916543 25338 net.cpp:411] conv2 -> conv2
I0520 22:22:02.918503 25338 net.cpp:150] Setting up conv2
I0520 22:22:02.918526 25338 net.cpp:157] Top shape: 370 20 54 46 (18381600)
I0520 22:22:02.918539 25338 net.cpp:165] Memory required for data: 338672840
I0520 22:22:02.918556 25338 layer_factory.hpp:77] Creating layer relu2
I0520 22:22:02.918570 25338 net.cpp:106] Creating Layer relu2
I0520 22:22:02.918579 25338 net.cpp:454] relu2 <- conv2
I0520 22:22:02.918591 25338 net.cpp:397] relu2 -> conv2 (in-place)
I0520 22:22:02.918925 25338 net.cpp:150] Setting up relu2
I0520 22:22:02.918938 25338 net.cpp:157] Top shape: 370 20 54 46 (18381600)
I0520 22:22:02.918947 25338 net.cpp:165] Memory required for data: 412199240
I0520 22:22:02.918957 25338 layer_factory.hpp:77] Creating layer pool2
I0520 22:22:02.918970 25338 net.cpp:106] Creating Layer pool2
I0520 22:22:02.918979 25338 net.cpp:454] pool2 <- conv2
I0520 22:22:02.918992 25338 net.cpp:411] pool2 -> pool2
I0520 22:22:02.919064 25338 net.cpp:150] Setting up pool2
I0520 22:22:02.919076 25338 net.cpp:157] Top shape: 370 20 27 46 (9190800)
I0520 22:22:02.919086 25338 net.cpp:165] Memory required for data: 448962440
I0520 22:22:02.919095 25338 layer_factory.hpp:77] Creating layer conv3
I0520 22:22:02.919114 25338 net.cpp:106] Creating Layer conv3
I0520 22:22:02.919124 25338 net.cpp:454] conv3 <- pool2
I0520 22:22:02.919137 25338 net.cpp:411] conv3 -> conv3
I0520 22:22:02.921113 25338 net.cpp:150] Setting up conv3
I0520 22:22:02.921136 25338 net.cpp:157] Top shape: 370 28 22 44 (10028480)
I0520 22:22:02.921146 25338 net.cpp:165] Memory required for data: 489076360
I0520 22:22:02.921178 25338 layer_factory.hpp:77] Creating layer relu3
I0520 22:22:02.921192 25338 net.cpp:106] Creating Layer relu3
I0520 22:22:02.921202 25338 net.cpp:454] relu3 <- conv3
I0520 22:22:02.921216 25338 net.cpp:397] relu3 -> conv3 (in-place)
I0520 22:22:02.921687 25338 net.cpp:150] Setting up relu3
I0520 22:22:02.921703 25338 net.cpp:157] Top shape: 370 28 22 44 (10028480)
I0520 22:22:02.921713 25338 net.cpp:165] Memory required for data: 529190280
I0520 22:22:02.921722 25338 layer_factory.hpp:77] Creating layer pool3
I0520 22:22:02.921736 25338 net.cpp:106] Creating Layer pool3
I0520 22:22:02.921746 25338 net.cpp:454] pool3 <- conv3
I0520 22:22:02.921757 25338 net.cpp:411] pool3 -> pool3
I0520 22:22:02.921829 25338 net.cpp:150] Setting up pool3
I0520 22:22:02.921843 25338 net.cpp:157] Top shape: 370 28 11 44 (5014240)
I0520 22:22:02.921852 25338 net.cpp:165] Memory required for data: 549247240
I0520 22:22:02.921869 25338 layer_factory.hpp:77] Creating layer conv4
I0520 22:22:02.921887 25338 net.cpp:106] Creating Layer conv4
I0520 22:22:02.921897 25338 net.cpp:454] conv4 <- pool3
I0520 22:22:02.921912 25338 net.cpp:411] conv4 -> conv4
I0520 22:22:02.923964 25338 net.cpp:150] Setting up conv4
I0520 22:22:02.923982 25338 net.cpp:157] Top shape: 370 36 6 42 (3356640)
I0520 22:22:02.923992 25338 net.cpp:165] Memory required for data: 562673800
I0520 22:22:02.924007 25338 layer_factory.hpp:77] Creating layer relu4
I0520 22:22:02.924021 25338 net.cpp:106] Creating Layer relu4
I0520 22:22:02.924031 25338 net.cpp:454] relu4 <- conv4
I0520 22:22:02.924043 25338 net.cpp:397] relu4 -> conv4 (in-place)
I0520 22:22:02.924511 25338 net.cpp:150] Setting up relu4
I0520 22:22:02.924527 25338 net.cpp:157] Top shape: 370 36 6 42 (3356640)
I0520 22:22:02.924537 25338 net.cpp:165] Memory required for data: 576100360
I0520 22:22:02.924546 25338 layer_factory.hpp:77] Creating layer pool4
I0520 22:22:02.924559 25338 net.cpp:106] Creating Layer pool4
I0520 22:22:02.924568 25338 net.cpp:454] pool4 <- conv4
I0520 22:22:02.924582 25338 net.cpp:411] pool4 -> pool4
I0520 22:22:02.924654 25338 net.cpp:150] Setting up pool4
I0520 22:22:02.924666 25338 net.cpp:157] Top shape: 370 36 3 42 (1678320)
I0520 22:22:02.924676 25338 net.cpp:165] Memory required for data: 582813640
I0520 22:22:02.924686 25338 layer_factory.hpp:77] Creating layer ip1
I0520 22:22:02.924702 25338 net.cpp:106] Creating Layer ip1
I0520 22:22:02.924713 25338 net.cpp:454] ip1 <- pool4
I0520 22:22:02.924724 25338 net.cpp:411] ip1 -> ip1
I0520 22:22:02.940281 25338 net.cpp:150] Setting up ip1
I0520 22:22:02.940310 25338 net.cpp:157] Top shape: 370 196 (72520)
I0520 22:22:02.940325 25338 net.cpp:165] Memory required for data: 583103720
I0520 22:22:02.940348 25338 layer_factory.hpp:77] Creating layer relu5
I0520 22:22:02.940363 25338 net.cpp:106] Creating Layer relu5
I0520 22:22:02.940373 25338 net.cpp:454] relu5 <- ip1
I0520 22:22:02.940387 25338 net.cpp:397] relu5 -> ip1 (in-place)
I0520 22:22:02.940734 25338 net.cpp:150] Setting up relu5
I0520 22:22:02.940748 25338 net.cpp:157] Top shape: 370 196 (72520)
I0520 22:22:02.940758 25338 net.cpp:165] Memory required for data: 583393800
I0520 22:22:02.940768 25338 layer_factory.hpp:77] Creating layer drop1
I0520 22:22:02.940786 25338 net.cpp:106] Creating Layer drop1
I0520 22:22:02.940796 25338 net.cpp:454] drop1 <- ip1
I0520 22:22:02.940809 25338 net.cpp:397] drop1 -> ip1 (in-place)
I0520 22:22:02.940853 25338 net.cpp:150] Setting up drop1
I0520 22:22:02.940866 25338 net.cpp:157] Top shape: 370 196 (72520)
I0520 22:22:02.940876 25338 net.cpp:165] Memory required for data: 583683880
I0520 22:22:02.940886 25338 layer_factory.hpp:77] Creating layer ip2
I0520 22:22:02.940901 25338 net.cpp:106] Creating Layer ip2
I0520 22:22:02.940910 25338 net.cpp:454] ip2 <- ip1
I0520 22:22:02.940923 25338 net.cpp:411] ip2 -> ip2
I0520 22:22:02.941406 25338 net.cpp:150] Setting up ip2
I0520 22:22:02.941419 25338 net.cpp:157] Top shape: 370 98 (36260)
I0520 22:22:02.941429 25338 net.cpp:165] Memory required for data: 583828920
I0520 22:22:02.941457 25338 layer_factory.hpp:77] Creating layer relu6
I0520 22:22:02.941469 25338 net.cpp:106] Creating Layer relu6
I0520 22:22:02.941479 25338 net.cpp:454] relu6 <- ip2
I0520 22:22:02.941493 25338 net.cpp:397] relu6 -> ip2 (in-place)
I0520 22:22:02.942039 25338 net.cpp:150] Setting up relu6
I0520 22:22:02.942055 25338 net.cpp:157] Top shape: 370 98 (36260)
I0520 22:22:02.942066 25338 net.cpp:165] Memory required for data: 583973960
I0520 22:22:02.942076 25338 layer_factory.hpp:77] Creating layer drop2
I0520 22:22:02.942090 25338 net.cpp:106] Creating Layer drop2
I0520 22:22:02.942100 25338 net.cpp:454] drop2 <- ip2
I0520 22:22:02.942112 25338 net.cpp:397] drop2 -> ip2 (in-place)
I0520 22:22:02.942157 25338 net.cpp:150] Setting up drop2
I0520 22:22:02.942169 25338 net.cpp:157] Top shape: 370 98 (36260)
I0520 22:22:02.942179 25338 net.cpp:165] Memory required for data: 584119000
I0520 22:22:02.942188 25338 layer_factory.hpp:77] Creating layer ip3
I0520 22:22:02.942201 25338 net.cpp:106] Creating Layer ip3
I0520 22:22:02.942211 25338 net.cpp:454] ip3 <- ip2
I0520 22:22:02.942225 25338 net.cpp:411] ip3 -> ip3
I0520 22:22:02.942451 25338 net.cpp:150] Setting up ip3
I0520 22:22:02.942463 25338 net.cpp:157] Top shape: 370 11 (4070)
I0520 22:22:02.942472 25338 net.cpp:165] Memory required for data: 584135280
I0520 22:22:02.942489 25338 layer_factory.hpp:77] Creating layer drop3
I0520 22:22:02.942502 25338 net.cpp:106] Creating Layer drop3
I0520 22:22:02.942512 25338 net.cpp:454] drop3 <- ip3
I0520 22:22:02.942525 25338 net.cpp:397] drop3 -> ip3 (in-place)
I0520 22:22:02.942566 25338 net.cpp:150] Setting up drop3
I0520 22:22:02.942579 25338 net.cpp:157] Top shape: 370 11 (4070)
I0520 22:22:02.942589 25338 net.cpp:165] Memory required for data: 584151560
I0520 22:22:02.942598 25338 layer_factory.hpp:77] Creating layer ip3_drop3_0_split
I0520 22:22:02.942611 25338 net.cpp:106] Creating Layer ip3_drop3_0_split
I0520 22:22:02.942622 25338 net.cpp:454] ip3_drop3_0_split <- ip3
I0520 22:22:02.942636 25338 net.cpp:411] ip3_drop3_0_split -> ip3_drop3_0_split_0
I0520 22:22:02.942651 25338 net.cpp:411] ip3_drop3_0_split -> ip3_drop3_0_split_1
I0520 22:22:02.942723 25338 net.cpp:150] Setting up ip3_drop3_0_split
I0520 22:22:02.942737 25338 net.cpp:157] Top shape: 370 11 (4070)
I0520 22:22:02.942751 25338 net.cpp:157] Top shape: 370 11 (4070)
I0520 22:22:02.942761 25338 net.cpp:165] Memory required for data: 584184120
I0520 22:22:02.942770 25338 layer_factory.hpp:77] Creating layer accuracy
I0520 22:22:02.942791 25338 net.cpp:106] Creating Layer accuracy
I0520 22:22:02.942801 25338 net.cpp:454] accuracy <- ip3_drop3_0_split_0
I0520 22:22:02.942812 25338 net.cpp:454] accuracy <- label_data_hdf5_1_split_0
I0520 22:22:02.942824 25338 net.cpp:411] accuracy -> accuracy
…
