…
I0520 11:21:00.413126 21902 net.cpp:322] The NetState phase (0) differed from the phase (1) specified by a rule in layer data_hdf5
I0520 11:21:00.413187 21902 net.cpp:322] The NetState phase (0) differed from the phase (1) specified by a rule in layer accuracy
I0520 11:21:00.413535 21902 net.cpp:49] Initializing net from parameters: 
name: "caffe_test_127x50_x_unshifted"
state {
  phase: TRAIN
}
layer {
  name: "data_hdf5"
  type: "HDF5Data"
  top: "data"
  top: "label"
  include {
    phase: TRAIN
  }
  hdf5_data_param {
    source: "/lustre/atlas/proj-shared/hep105/caffe_titan/minosmatch_nukecczdefs_127x50_x_unshifted_me1Bmc.trainlist"
    batch_size: 10
  }
}
layer {
  name: "conv1"
  type: "Convolution"
  bottom: "data"
  top: "conv1"
  convolution_param {
    num_output: 12
    pad: 0
    stride: 1
    weight_filler {
      type: "xavier"
    }
    bias_filler {
      type: "constant"
    }
    kernel_h: 8
    kernel_w: 3
  }
}
layer {
  name: "relu1"
  type: "ReLU"
  bottom: "conv1"
  top: "conv1"
}
layer {
  name: "pool1"
  type: "Pooling"
  bottom: "conv1"
  top: "pool1"
  pooling_param {
    pool: MAX
    kernel_h: 2
    kernel_w: 1
    stride_h: 2
    stride_w: 1
  }
}
layer {
  name: "conv2"
  type: "Convolution"
  bottom: "pool1"
  top: "conv2"
  convolution_param {
    num_output: 20
    pad: 0
    stride: 1
    weight_filler {
      type: "xavier"
    }
    bias_filler {
      type: "constant"
    }
    kernel_h: 7
    kernel_w: 3
  }
}
layer {
  name: "relu2"
  type: "ReLU"
  bottom: "conv2"
  top: "conv2"
}
layer {
  name: "pool2"
  type: "Pooling"
  bottom: "conv2"
  top: "pool2"
  pooling_param {
    pool: MAX
    kernel_h: 2
    kernel_w: 1
    stride_h: 2
    stride_w: 1
  }
}
layer {
  name: "conv3"
  type: "Convolution"
  bottom: "pool2"
  top: "conv3"
  convolution_param {
    num_output: 28
    pad: 0
    stride: 1
    weight_filler {
      type: "xavier"
    }
    bias_filler {
      type: "constant"
    }
    kernel_h: 6
    kernel_w: 3
  }
}
layer {
  name: "relu3"
  type: "ReLU"
  bottom: "conv3"
  top: "conv3"
}
layer {
  name: "pool3"
  type: "Pooling"
  bottom: "conv3"
  top: "pool3"
  pooling_param {
    pool: MAX
    kernel_h: 2
    kernel_w: 1
    stride_h: 2
    stride_w: 1
  }
}
layer {
  name: "conv4"
  type: "Convolution"
  bottom: "pool3"
  top: "conv4"
  convolution_param {
    num_output: 36
    pad: 0
    stride: 1
    weight_filler {
      type: "xavier"
    }
    bias_filler {
      type: "constant"
    }
    kernel_h: 6
    kernel_w: 3
  }
}
layer {
  name: "relu4"
  type: "ReLU"
  bottom: "conv4"
  top: "conv4"
}
layer {
  name: "pool4"
  type: "Pooling"
  bottom: "conv4"
  top: "pool4"
  pooling_param {
    pool: MAX
    kernel_h: 2
    kernel_w: 1
    stride_h: 2
    stride_w: 1
  }
}
layer {
  name: "ip1"
  type: "InnerProduct"
  bottom: "pool4"
  top: "ip1"
  inner_product_param {
    num_output: 196
    weight_filler {
      type: "xavier"
    }
    bias_filler {
      type: "constant"
    }
  }
}
layer {
  name: "relu5"
  type: "ReLU"
  bottom: "ip1"
  top: "ip1"
}
layer {
  name: "drop1"
  type: "Dropout"
  bottom: "ip1"
  top: "ip1"
  dropout_param {
    dropout_ratio: 0.5
  }
}
layer {
  name: "ip2"
  type: "InnerProduct"
  bottom: "ip1"
  top: "ip2"
  inner_product_param {
    num_output: 98
    weight_filler {
      type: "xavier"
    }
    bias_filler {
      type: "constant"
    }
  }
}
layer {
  name: "relu6"
  type: "ReLU"
  bottom: "ip2"
  top: "ip2"
}
layer {
  name: "drop2"
  type: "Dropout"
  bottom: "ip2"
  top: "ip2"
  dropout_param {
    dropout_ratio: 0.5
  }
}
layer {
  name: "ip3"
  type: "InnerProduct"
  bottom: "ip2"
  top: "ip3"
  inner_product_param {
    num_output: 11
    weight_filler {
      type: "xavier"
    }
    bias_filler {
      type: "constant"
    }
  }
}
layer {
  name: "drop3"
  type: "Dropout"
  bottom: "ip3"
  top: "ip3"
  dropout_param {
    dropout_ratio: 0.5
  }
}
layer {
  name: "loss"
  type: "SoftmaxWithLoss"
  bottom: "ip3"
  bottom: "label"
  top: "loss"
}
I0520 11:21:00.413714 21902 layer_factory.hpp:77] Creating layer data_hdf5
I0520 11:21:00.413738 21902 net.cpp:106] Creating Layer data_hdf5
I0520 11:21:00.413753 21902 net.cpp:411] data_hdf5 -> data
I0520 11:21:00.413784 21902 net.cpp:411] data_hdf5 -> label
I0520 11:21:00.413816 21902 hdf5_data_layer.cpp:79] Loading list of HDF5 filenames from: /lustre/atlas/proj-shared/hep105/caffe_titan/minosmatch_nukecczdefs_127x50_x_unshifted_me1Bmc.trainlist
I0520 11:21:00.415298 21902 hdf5_data_layer.cpp:93] Number of HDF5 files: 15
I0520 11:21:00.417595 21902 hdf5.cpp:32] Datatype class: H5T_FLOAT
I0520 11:21:21.976408 21902 hdf5.cpp:35] Datatype class: H5T_INTEGER
I0520 11:21:21.981770 21902 net.cpp:150] Setting up data_hdf5
I0520 11:21:21.981811 21902 net.cpp:157] Top shape: 10 1 127 50 (63500)
I0520 11:21:21.981825 21902 net.cpp:157] Top shape: 10 (10)
I0520 11:21:21.981838 21902 net.cpp:165] Memory required for data: 254040
I0520 11:21:21.981851 21902 layer_factory.hpp:77] Creating layer conv1
I0520 11:21:21.981885 21902 net.cpp:106] Creating Layer conv1
I0520 11:21:21.981896 21902 net.cpp:454] conv1 <- data
I0520 11:21:21.981917 21902 net.cpp:411] conv1 -> conv1
I0520 11:21:23.979869 21902 net.cpp:150] Setting up conv1
I0520 11:21:23.979915 21902 net.cpp:157] Top shape: 10 12 120 48 (691200)
I0520 11:21:23.979926 21902 net.cpp:165] Memory required for data: 3018840
I0520 11:21:23.979954 21902 layer_factory.hpp:77] Creating layer relu1
I0520 11:21:23.979975 21902 net.cpp:106] Creating Layer relu1
I0520 11:21:23.979986 21902 net.cpp:454] relu1 <- conv1
I0520 11:21:23.980000 21902 net.cpp:397] relu1 -> conv1 (in-place)
I0520 11:21:23.980523 21902 net.cpp:150] Setting up relu1
I0520 11:21:23.980540 21902 net.cpp:157] Top shape: 10 12 120 48 (691200)
I0520 11:21:23.980551 21902 net.cpp:165] Memory required for data: 5783640
I0520 11:21:23.980561 21902 layer_factory.hpp:77] Creating layer pool1
I0520 11:21:23.980577 21902 net.cpp:106] Creating Layer pool1
I0520 11:21:23.980587 21902 net.cpp:454] pool1 <- conv1
I0520 11:21:23.980600 21902 net.cpp:411] pool1 -> pool1
I0520 11:21:23.980680 21902 net.cpp:150] Setting up pool1
I0520 11:21:23.980693 21902 net.cpp:157] Top shape: 10 12 60 48 (345600)
I0520 11:21:23.980703 21902 net.cpp:165] Memory required for data: 7166040
I0520 11:21:23.980711 21902 layer_factory.hpp:77] Creating layer conv2
I0520 11:21:23.980733 21902 net.cpp:106] Creating Layer conv2
I0520 11:21:23.980743 21902 net.cpp:454] conv2 <- pool1
I0520 11:21:23.980757 21902 net.cpp:411] conv2 -> conv2
I0520 11:21:23.983458 21902 net.cpp:150] Setting up conv2
I0520 11:21:23.983485 21902 net.cpp:157] Top shape: 10 20 54 46 (496800)
I0520 11:21:23.983495 21902 net.cpp:165] Memory required for data: 9153240
I0520 11:21:23.983515 21902 layer_factory.hpp:77] Creating layer relu2
I0520 11:21:23.983530 21902 net.cpp:106] Creating Layer relu2
I0520 11:21:23.983538 21902 net.cpp:454] relu2 <- conv2
I0520 11:21:23.983551 21902 net.cpp:397] relu2 -> conv2 (in-place)
I0520 11:21:23.983883 21902 net.cpp:150] Setting up relu2
I0520 11:21:23.983898 21902 net.cpp:157] Top shape: 10 20 54 46 (496800)
I0520 11:21:23.983907 21902 net.cpp:165] Memory required for data: 11140440
I0520 11:21:23.983918 21902 layer_factory.hpp:77] Creating layer pool2
I0520 11:21:23.983930 21902 net.cpp:106] Creating Layer pool2
I0520 11:21:23.983939 21902 net.cpp:454] pool2 <- conv2
I0520 11:21:23.983952 21902 net.cpp:411] pool2 -> pool2
I0520 11:21:23.984033 21902 net.cpp:150] Setting up pool2
I0520 11:21:23.984047 21902 net.cpp:157] Top shape: 10 20 27 46 (248400)
I0520 11:21:23.984056 21902 net.cpp:165] Memory required for data: 12134040
I0520 11:21:23.984066 21902 layer_factory.hpp:77] Creating layer conv3
I0520 11:21:23.984084 21902 net.cpp:106] Creating Layer conv3
I0520 11:21:23.984096 21902 net.cpp:454] conv3 <- pool2
I0520 11:21:23.984108 21902 net.cpp:411] conv3 -> conv3
I0520 11:21:23.986222 21902 net.cpp:150] Setting up conv3
I0520 11:21:23.986245 21902 net.cpp:157] Top shape: 10 28 22 44 (271040)
I0520 11:21:23.986258 21902 net.cpp:165] Memory required for data: 13218200
I0520 11:21:23.986276 21902 layer_factory.hpp:77] Creating layer relu3
I0520 11:21:23.986292 21902 net.cpp:106] Creating Layer relu3
I0520 11:21:23.986302 21902 net.cpp:454] relu3 <- conv3
I0520 11:21:23.986315 21902 net.cpp:397] relu3 -> conv3 (in-place)
I0520 11:21:23.986785 21902 net.cpp:150] Setting up relu3
I0520 11:21:23.986804 21902 net.cpp:157] Top shape: 10 28 22 44 (271040)
I0520 11:21:23.986814 21902 net.cpp:165] Memory required for data: 14302360
I0520 11:21:23.986824 21902 layer_factory.hpp:77] Creating layer pool3
I0520 11:21:23.986837 21902 net.cpp:106] Creating Layer pool3
I0520 11:21:23.986847 21902 net.cpp:454] pool3 <- conv3
I0520 11:21:23.986861 21902 net.cpp:411] pool3 -> pool3
I0520 11:21:23.986928 21902 net.cpp:150] Setting up pool3
I0520 11:21:23.986942 21902 net.cpp:157] Top shape: 10 28 11 44 (135520)
I0520 11:21:23.986950 21902 net.cpp:165] Memory required for data: 14844440
I0520 11:21:23.986958 21902 layer_factory.hpp:77] Creating layer conv4
I0520 11:21:23.986976 21902 net.cpp:106] Creating Layer conv4
I0520 11:21:23.986986 21902 net.cpp:454] conv4 <- pool3
I0520 11:21:23.986999 21902 net.cpp:411] conv4 -> conv4
I0520 11:21:23.989735 21902 net.cpp:150] Setting up conv4
I0520 11:21:23.989763 21902 net.cpp:157] Top shape: 10 36 6 42 (90720)
I0520 11:21:23.989773 21902 net.cpp:165] Memory required for data: 15207320
I0520 11:21:23.989789 21902 layer_factory.hpp:77] Creating layer relu4
I0520 11:21:23.989804 21902 net.cpp:106] Creating Layer relu4
I0520 11:21:23.989814 21902 net.cpp:454] relu4 <- conv4
I0520 11:21:23.989826 21902 net.cpp:397] relu4 -> conv4 (in-place)
I0520 11:21:23.990293 21902 net.cpp:150] Setting up relu4
I0520 11:21:23.990309 21902 net.cpp:157] Top shape: 10 36 6 42 (90720)
I0520 11:21:23.990319 21902 net.cpp:165] Memory required for data: 15570200
I0520 11:21:23.990329 21902 layer_factory.hpp:77] Creating layer pool4
I0520 11:21:23.990342 21902 net.cpp:106] Creating Layer pool4
I0520 11:21:23.990352 21902 net.cpp:454] pool4 <- conv4
I0520 11:21:23.990370 21902 net.cpp:411] pool4 -> pool4
I0520 11:21:23.990438 21902 net.cpp:150] Setting up pool4
I0520 11:21:23.990453 21902 net.cpp:157] Top shape: 10 36 3 42 (45360)
I0520 11:21:23.990461 21902 net.cpp:165] Memory required for data: 15751640
I0520 11:21:23.990471 21902 layer_factory.hpp:77] Creating layer ip1
I0520 11:21:23.990491 21902 net.cpp:106] Creating Layer ip1
I0520 11:21:23.990501 21902 net.cpp:454] ip1 <- pool4
I0520 11:21:23.990514 21902 net.cpp:411] ip1 -> ip1
I0520 11:21:24.005971 21902 net.cpp:150] Setting up ip1
I0520 11:21:24.006000 21902 net.cpp:157] Top shape: 10 196 (1960)
I0520 11:21:24.006011 21902 net.cpp:165] Memory required for data: 15759480
I0520 11:21:24.006033 21902 layer_factory.hpp:77] Creating layer relu5
I0520 11:21:24.006047 21902 net.cpp:106] Creating Layer relu5
I0520 11:21:24.006057 21902 net.cpp:454] relu5 <- ip1
I0520 11:21:24.006070 21902 net.cpp:397] relu5 -> ip1 (in-place)
I0520 11:21:24.006413 21902 net.cpp:150] Setting up relu5
I0520 11:21:24.006428 21902 net.cpp:157] Top shape: 10 196 (1960)
I0520 11:21:24.006438 21902 net.cpp:165] Memory required for data: 15767320
I0520 11:21:24.006448 21902 layer_factory.hpp:77] Creating layer drop1
I0520 11:21:24.006469 21902 net.cpp:106] Creating Layer drop1
I0520 11:21:24.006479 21902 net.cpp:454] drop1 <- ip1
I0520 11:21:24.006490 21902 net.cpp:397] drop1 -> ip1 (in-place)
I0520 11:21:24.006552 21902 net.cpp:150] Setting up drop1
I0520 11:21:24.006566 21902 net.cpp:157] Top shape: 10 196 (1960)
I0520 11:21:24.006575 21902 net.cpp:165] Memory required for data: 15775160
I0520 11:21:24.006585 21902 layer_factory.hpp:77] Creating layer ip2
I0520 11:21:24.006603 21902 net.cpp:106] Creating Layer ip2
I0520 11:21:24.006614 21902 net.cpp:454] ip2 <- ip1
I0520 11:21:24.006628 21902 net.cpp:411] ip2 -> ip2
I0520 11:21:24.007091 21902 net.cpp:150] Setting up ip2
I0520 11:21:24.007104 21902 net.cpp:157] Top shape: 10 98 (980)
I0520 11:21:24.007113 21902 net.cpp:165] Memory required for data: 15779080
I0520 11:21:24.007128 21902 layer_factory.hpp:77] Creating layer relu6
I0520 11:21:24.007141 21902 net.cpp:106] Creating Layer relu6
I0520 11:21:24.007150 21902 net.cpp:454] relu6 <- ip2
I0520 11:21:24.007163 21902 net.cpp:397] relu6 -> ip2 (in-place)
I0520 11:21:24.007688 21902 net.cpp:150] Setting up relu6
I0520 11:21:24.007702 21902 net.cpp:157] Top shape: 10 98 (980)
I0520 11:21:24.007712 21902 net.cpp:165] Memory required for data: 15783000
I0520 11:21:24.007722 21902 layer_factory.hpp:77] Creating layer drop2
I0520 11:21:24.007735 21902 net.cpp:106] Creating Layer drop2
I0520 11:21:24.007745 21902 net.cpp:454] drop2 <- ip2
I0520 11:21:24.007756 21902 net.cpp:397] drop2 -> ip2 (in-place)
I0520 11:21:24.007799 21902 net.cpp:150] Setting up drop2
I0520 11:21:24.007812 21902 net.cpp:157] Top shape: 10 98 (980)
I0520 11:21:24.007822 21902 net.cpp:165] Memory required for data: 15786920
I0520 11:21:24.007833 21902 layer_factory.hpp:77] Creating layer ip3
I0520 11:21:24.007845 21902 net.cpp:106] Creating Layer ip3
I0520 11:21:24.007854 21902 net.cpp:454] ip3 <- ip2
I0520 11:21:24.007868 21902 net.cpp:411] ip3 -> ip3
I0520 11:21:24.008074 21902 net.cpp:150] Setting up ip3
I0520 11:21:24.008087 21902 net.cpp:157] Top shape: 10 11 (110)
I0520 11:21:24.008097 21902 net.cpp:165] Memory required for data: 15787360
I0520 11:21:24.008111 21902 layer_factory.hpp:77] Creating layer drop3
I0520 11:21:24.008124 21902 net.cpp:106] Creating Layer drop3
I0520 11:21:24.008133 21902 net.cpp:454] drop3 <- ip3
I0520 11:21:24.008147 21902 net.cpp:397] drop3 -> ip3 (in-place)
I0520 11:21:24.008184 21902 net.cpp:150] Setting up drop3
I0520 11:21:24.008198 21902 net.cpp:157] Top shape: 10 11 (110)
I0520 11:21:24.008208 21902 net.cpp:165] Memory required for data: 15787800
I0520 11:21:24.008218 21902 layer_factory.hpp:77] Creating layer loss
I0520 11:21:24.008236 21902 net.cpp:106] Creating Layer loss
I0520 11:21:24.008246 21902 net.cpp:454] loss <- ip3
I0520 11:21:24.008257 21902 net.cpp:454] loss <- label
I0520 11:21:24.008270 21902 net.cpp:411] loss -> loss
I0520 11:21:24.008287 21902 layer_factory.hpp:77] Creating layer loss
…
I0520 11:21:24.011064 21902 solver.cpp:181] Creating test net (#0) specified by net file: /lustre/atlas/proj-shared/hep105/caffe_titan/caffe_workflow/logs_batch_size_test/batch_size_10_2016-05-20T11.20.32.846720.prototxt
I0520 11:21:24.011135 21902 net.cpp:322] The NetState phase (1) differed from the phase (0) specified by a rule in layer data_hdf5
I0520 11:21:24.011487 21902 net.cpp:49] Initializing net from parameters: 
name: "caffe_test_127x50_x_unshifted"
state {
  phase: TEST
}
layer {
  name: "data_hdf5"
  type: "HDF5Data"
  top: "data"
  top: "label"
  include {
    phase: TEST
  }
  hdf5_data_param {
    source: "/lustre/atlas/proj-shared/hep105/caffe_titan/minosmatch_nukecczdefs_127x50_x_unshifted_me1Bmc.testlist"
    batch_size: 10
  }
}
layer {
  name: "conv1"
  type: "Convolution"
  bottom: "data"
  top: "conv1"
  convolution_param {
    num_output: 12
    pad: 0
    stride: 1
    weight_filler {
      type: "xavier"
    }
    bias_filler {
      type: "constant"
    }
    kernel_h: 8
    kernel_w: 3
  }
}
layer {
  name: "relu1"
  type: "ReLU"
  bottom: "conv1"
  top: "conv1"
}
layer {
  name: "pool1"
  type: "Pooling"
  bottom: "conv1"
  top: "pool1"
  pooling_param {
    pool: MAX
    kernel_h: 2
    kernel_w: 1
    stride_h: 2
    stride_w: 1
  }
}
layer {
  name: "conv2"
  type: "Convolution"
  bottom: "pool1"
  top: "conv2"
  convolution_param {
    num_output: 20
    pad: 0
    stride: 1
    weight_filler {
      type: "xavier"
    }
    bias_filler {
      type: "constant"
    }
    kernel_h: 7
    kernel_w: 3
  }
}
layer {
  name: "relu2"
  type: "ReLU"
  bottom: "conv2"
  top: "conv2"
}
layer {
  name: "pool2"
  type: "Pooling"
  bottom: "conv2"
  top: "pool2"
  pooling_param {
    pool: MAX
    kernel_h: 2
    kernel_w: 1
    stride_h: 2
    stride_w: 1
  }
}
layer {
  name: "conv3"
  type: "Convolution"
  bottom: "pool2"
  top: "conv3"
  convolution_param {
    num_output: 28
    pad: 0
    stride: 1
    weight_filler {
      type: "xavier"
    }
    bias_filler {
      type: "constant"
    }
    kernel_h: 6
    kernel_w: 3
  }
}
layer {
  name: "relu3"
  type: "ReLU"
  bottom: "conv3"
  top: "conv3"
}
layer {
  name: "pool3"
  type: "Pooling"
  bottom: "conv3"
  top: "pool3"
  pooling_param {
    pool: MAX
    kernel_h: 2
    kernel_w: 1
    stride_h: 2
    stride_w: 1
  }
}
layer {
  name: "conv4"
  type: "Convolution"
  bottom: "pool3"
  top: "conv4"
  convolution_param {
    num_output: 36
    pad: 0
    stride: 1
    weight_filler {
      type: "xavier"
    }
    bias_filler {
      type: "constant"
    }
    kernel_h: 6
    kernel_w: 3
  }
}
layer {
  name: "relu4"
  type: "ReLU"
  bottom: "conv4"
  top: "conv4"
}
layer {
  name: "pool4"
  type: "Pooling"
  bottom: "conv4"
  top: "pool4"
  pooling_param {
    pool: MAX
    kernel_h: 2
    kernel_w: 1
    stride_h: 2
    stride_w: 1
  }
}
layer {
  name: "ip1"
  type: "InnerProduct"
  bottom: "pool4"
  top: "ip1"
  inner_product_param {
    num_output: 196
    weight_filler {
      type: "xavier"
    }
    bias_filler {
      type: "constant"
    }
  }
}
layer {
  name: "relu5"
  type: "ReLU"
  bottom: "ip1"
  top: "ip1"
}
layer {
  name: "drop1"
  type: "Dropout"
  bottom: "ip1"
  top: "ip1"
  dropout_param {
    dropout_ratio: 0.5
  }
}
layer {
  name: "ip2"
  type: "InnerProduct"
  bottom: "ip1"
  top: "ip2"
  inner_product_param {
    num_output: 98
    weight_filler {
      type: "xavier"
    }
    bias_filler {
      type: "constant"
    }
  }
}
layer {
  name: "relu6"
  type: "ReLU"
  bottom: "ip2"
  top: "ip2"
}
layer {
  name: "drop2"
  type: "Dropout"
  bottom: "ip2"
  top: "ip2"
  dropout_param {
    dropout_ratio: 0.5
  }
}
layer {
  name: "ip3"
  type: "InnerProduct"
  bottom: "ip2"
  top: "ip3"
  inner_product_param {
    num_output: 11
    weight_filler {
      type: "xavier"
    }
    bias_filler {
      type: "constant"
    }
  }
}
layer {
  name: "drop3"
  type: "Dropout"
  bottom: "ip3"
  top: "ip3"
  dropout_param {
    dropout_ratio: 0.5
  }
}
layer {
  name: "accuracy"
  type: "Accuracy"
  bottom: "ip3"
  bottom: "label"
  top: "accuracy"
  include {
    phase: TEST
  }
}
layer {
  name: "loss"
  type: "SoftmaxWithLoss"
  bottom: "ip3"
  bottom: "label"
  top: "loss"
}
I0520 11:21:24.011677 21902 layer_factory.hpp:77] Creating layer data_hdf5
I0520 11:21:24.011693 21902 net.cpp:106] Creating Layer data_hdf5
I0520 11:21:24.011705 21902 net.cpp:411] data_hdf5 -> data
I0520 11:21:24.011723 21902 net.cpp:411] data_hdf5 -> label
I0520 11:21:24.011737 21902 hdf5_data_layer.cpp:79] Loading list of HDF5 filenames from: /lustre/atlas/proj-shared/hep105/caffe_titan/minosmatch_nukecczdefs_127x50_x_unshifted_me1Bmc.testlist
I0520 11:21:24.035194 21902 hdf5_data_layer.cpp:93] Number of HDF5 files: 3
I0520 11:21:45.379366 21902 net.cpp:150] Setting up data_hdf5
I0520 11:21:45.379531 21902 net.cpp:157] Top shape: 10 1 127 50 (63500)
I0520 11:21:45.379545 21902 net.cpp:157] Top shape: 10 (10)
I0520 11:21:45.379559 21902 net.cpp:165] Memory required for data: 254040
I0520 11:21:45.379572 21902 layer_factory.hpp:77] Creating layer label_data_hdf5_1_split
I0520 11:21:45.379601 21902 net.cpp:106] Creating Layer label_data_hdf5_1_split
I0520 11:21:45.379611 21902 net.cpp:454] label_data_hdf5_1_split <- label
I0520 11:21:45.379626 21902 net.cpp:411] label_data_hdf5_1_split -> label_data_hdf5_1_split_0
I0520 11:21:45.379647 21902 net.cpp:411] label_data_hdf5_1_split -> label_data_hdf5_1_split_1
I0520 11:21:45.379720 21902 net.cpp:150] Setting up label_data_hdf5_1_split
I0520 11:21:45.379734 21902 net.cpp:157] Top shape: 10 (10)
I0520 11:21:45.379745 21902 net.cpp:157] Top shape: 10 (10)
I0520 11:21:45.379755 21902 net.cpp:165] Memory required for data: 254120
I0520 11:21:45.379766 21902 layer_factory.hpp:77] Creating layer conv1
I0520 11:21:45.379787 21902 net.cpp:106] Creating Layer conv1
I0520 11:21:45.379798 21902 net.cpp:454] conv1 <- data
I0520 11:21:45.379813 21902 net.cpp:411] conv1 -> conv1
I0520 11:21:45.381772 21902 net.cpp:150] Setting up conv1
I0520 11:21:45.381795 21902 net.cpp:157] Top shape: 10 12 120 48 (691200)
I0520 11:21:45.381808 21902 net.cpp:165] Memory required for data: 3018920
I0520 11:21:45.381829 21902 layer_factory.hpp:77] Creating layer relu1
I0520 11:21:45.381842 21902 net.cpp:106] Creating Layer relu1
I0520 11:21:45.381852 21902 net.cpp:454] relu1 <- conv1
I0520 11:21:45.381865 21902 net.cpp:397] relu1 -> conv1 (in-place)
I0520 11:21:45.382374 21902 net.cpp:150] Setting up relu1
I0520 11:21:45.382390 21902 net.cpp:157] Top shape: 10 12 120 48 (691200)
I0520 11:21:45.382400 21902 net.cpp:165] Memory required for data: 5783720
I0520 11:21:45.382411 21902 layer_factory.hpp:77] Creating layer pool1
I0520 11:21:45.382426 21902 net.cpp:106] Creating Layer pool1
I0520 11:21:45.382436 21902 net.cpp:454] pool1 <- conv1
I0520 11:21:45.382449 21902 net.cpp:411] pool1 -> pool1
I0520 11:21:45.382524 21902 net.cpp:150] Setting up pool1
I0520 11:21:45.382537 21902 net.cpp:157] Top shape: 10 12 60 48 (345600)
I0520 11:21:45.382547 21902 net.cpp:165] Memory required for data: 7166120
I0520 11:21:45.382560 21902 layer_factory.hpp:77] Creating layer conv2
I0520 11:21:45.382576 21902 net.cpp:106] Creating Layer conv2
I0520 11:21:45.382586 21902 net.cpp:454] conv2 <- pool1
I0520 11:21:45.382599 21902 net.cpp:411] conv2 -> conv2
I0520 11:21:45.384519 21902 net.cpp:150] Setting up conv2
I0520 11:21:45.384541 21902 net.cpp:157] Top shape: 10 20 54 46 (496800)
I0520 11:21:45.384553 21902 net.cpp:165] Memory required for data: 9153320
I0520 11:21:45.384570 21902 layer_factory.hpp:77] Creating layer relu2
I0520 11:21:45.384584 21902 net.cpp:106] Creating Layer relu2
I0520 11:21:45.384594 21902 net.cpp:454] relu2 <- conv2
I0520 11:21:45.384606 21902 net.cpp:397] relu2 -> conv2 (in-place)
I0520 11:21:45.384950 21902 net.cpp:150] Setting up relu2
I0520 11:21:45.384964 21902 net.cpp:157] Top shape: 10 20 54 46 (496800)
I0520 11:21:45.384974 21902 net.cpp:165] Memory required for data: 11140520
I0520 11:21:45.384985 21902 layer_factory.hpp:77] Creating layer pool2
I0520 11:21:45.384999 21902 net.cpp:106] Creating Layer pool2
I0520 11:21:45.385009 21902 net.cpp:454] pool2 <- conv2
I0520 11:21:45.385020 21902 net.cpp:411] pool2 -> pool2
I0520 11:21:45.385092 21902 net.cpp:150] Setting up pool2
I0520 11:21:45.385105 21902 net.cpp:157] Top shape: 10 20 27 46 (248400)
I0520 11:21:45.385115 21902 net.cpp:165] Memory required for data: 12134120
I0520 11:21:45.385125 21902 layer_factory.hpp:77] Creating layer conv3
I0520 11:21:45.385144 21902 net.cpp:106] Creating Layer conv3
I0520 11:21:45.385155 21902 net.cpp:454] conv3 <- pool2
I0520 11:21:45.385169 21902 net.cpp:411] conv3 -> conv3
I0520 11:21:45.387181 21902 net.cpp:150] Setting up conv3
I0520 11:21:45.387205 21902 net.cpp:157] Top shape: 10 28 22 44 (271040)
I0520 11:21:45.387217 21902 net.cpp:165] Memory required for data: 13218280
I0520 11:21:45.387233 21902 layer_factory.hpp:77] Creating layer relu3
I0520 11:21:45.387259 21902 net.cpp:106] Creating Layer relu3
I0520 11:21:45.387270 21902 net.cpp:454] relu3 <- conv3
I0520 11:21:45.387284 21902 net.cpp:397] relu3 -> conv3 (in-place)
I0520 11:21:45.387758 21902 net.cpp:150] Setting up relu3
I0520 11:21:45.387774 21902 net.cpp:157] Top shape: 10 28 22 44 (271040)
I0520 11:21:45.387784 21902 net.cpp:165] Memory required for data: 14302440
I0520 11:21:45.387794 21902 layer_factory.hpp:77] Creating layer pool3
I0520 11:21:45.387807 21902 net.cpp:106] Creating Layer pool3
I0520 11:21:45.387817 21902 net.cpp:454] pool3 <- conv3
I0520 11:21:45.387830 21902 net.cpp:411] pool3 -> pool3
I0520 11:21:45.387903 21902 net.cpp:150] Setting up pool3
I0520 11:21:45.387917 21902 net.cpp:157] Top shape: 10 28 11 44 (135520)
I0520 11:21:45.387926 21902 net.cpp:165] Memory required for data: 14844520
I0520 11:21:45.387934 21902 layer_factory.hpp:77] Creating layer conv4
I0520 11:21:45.387953 21902 net.cpp:106] Creating Layer conv4
I0520 11:21:45.387964 21902 net.cpp:454] conv4 <- pool3
I0520 11:21:45.387977 21902 net.cpp:411] conv4 -> conv4
I0520 11:21:45.390053 21902 net.cpp:150] Setting up conv4
I0520 11:21:45.390074 21902 net.cpp:157] Top shape: 10 36 6 42 (90720)
I0520 11:21:45.390087 21902 net.cpp:165] Memory required for data: 15207400
I0520 11:21:45.390101 21902 layer_factory.hpp:77] Creating layer relu4
I0520 11:21:45.390115 21902 net.cpp:106] Creating Layer relu4
I0520 11:21:45.390125 21902 net.cpp:454] relu4 <- conv4
I0520 11:21:45.390137 21902 net.cpp:397] relu4 -> conv4 (in-place)
I0520 11:21:45.390604 21902 net.cpp:150] Setting up relu4
I0520 11:21:45.390620 21902 net.cpp:157] Top shape: 10 36 6 42 (90720)
I0520 11:21:45.390631 21902 net.cpp:165] Memory required for data: 15570280
I0520 11:21:45.390641 21902 layer_factory.hpp:77] Creating layer pool4
I0520 11:21:45.390655 21902 net.cpp:106] Creating Layer pool4
I0520 11:21:45.390664 21902 net.cpp:454] pool4 <- conv4
I0520 11:21:45.390676 21902 net.cpp:411] pool4 -> pool4
I0520 11:21:45.390748 21902 net.cpp:150] Setting up pool4
I0520 11:21:45.390763 21902 net.cpp:157] Top shape: 10 36 3 42 (45360)
I0520 11:21:45.390771 21902 net.cpp:165] Memory required for data: 15751720
I0520 11:21:45.390780 21902 layer_factory.hpp:77] Creating layer ip1
I0520 11:21:45.390794 21902 net.cpp:106] Creating Layer ip1
I0520 11:21:45.390805 21902 net.cpp:454] ip1 <- pool4
I0520 11:21:45.390817 21902 net.cpp:411] ip1 -> ip1
I0520 11:21:45.406306 21902 net.cpp:150] Setting up ip1
I0520 11:21:45.406333 21902 net.cpp:157] Top shape: 10 196 (1960)
I0520 11:21:45.406350 21902 net.cpp:165] Memory required for data: 15759560
I0520 11:21:45.406373 21902 layer_factory.hpp:77] Creating layer relu5
I0520 11:21:45.406388 21902 net.cpp:106] Creating Layer relu5
I0520 11:21:45.406399 21902 net.cpp:454] relu5 <- ip1
I0520 11:21:45.406411 21902 net.cpp:397] relu5 -> ip1 (in-place)
I0520 11:21:45.406760 21902 net.cpp:150] Setting up relu5
I0520 11:21:45.406774 21902 net.cpp:157] Top shape: 10 196 (1960)
I0520 11:21:45.406785 21902 net.cpp:165] Memory required for data: 15767400
I0520 11:21:45.406795 21902 layer_factory.hpp:77] Creating layer drop1
I0520 11:21:45.406812 21902 net.cpp:106] Creating Layer drop1
I0520 11:21:45.406822 21902 net.cpp:454] drop1 <- ip1
I0520 11:21:45.406836 21902 net.cpp:397] drop1 -> ip1 (in-place)
I0520 11:21:45.406880 21902 net.cpp:150] Setting up drop1
I0520 11:21:45.406893 21902 net.cpp:157] Top shape: 10 196 (1960)
I0520 11:21:45.406901 21902 net.cpp:165] Memory required for data: 15775240
I0520 11:21:45.406911 21902 layer_factory.hpp:77] Creating layer ip2
I0520 11:21:45.406926 21902 net.cpp:106] Creating Layer ip2
I0520 11:21:45.406936 21902 net.cpp:454] ip2 <- ip1
I0520 11:21:45.406950 21902 net.cpp:411] ip2 -> ip2
I0520 11:21:45.407428 21902 net.cpp:150] Setting up ip2
I0520 11:21:45.407441 21902 net.cpp:157] Top shape: 10 98 (980)
I0520 11:21:45.407451 21902 net.cpp:165] Memory required for data: 15779160
I0520 11:21:45.407466 21902 layer_factory.hpp:77] Creating layer relu6
I0520 11:21:45.407492 21902 net.cpp:106] Creating Layer relu6
I0520 11:21:45.407502 21902 net.cpp:454] relu6 <- ip2
I0520 11:21:45.407515 21902 net.cpp:397] relu6 -> ip2 (in-place)
I0520 11:21:45.408052 21902 net.cpp:150] Setting up relu6
I0520 11:21:45.408074 21902 net.cpp:157] Top shape: 10 98 (980)
I0520 11:21:45.408083 21902 net.cpp:165] Memory required for data: 15783080
I0520 11:21:45.408093 21902 layer_factory.hpp:77] Creating layer drop2
I0520 11:21:45.408107 21902 net.cpp:106] Creating Layer drop2
I0520 11:21:45.408116 21902 net.cpp:454] drop2 <- ip2
I0520 11:21:45.408129 21902 net.cpp:397] drop2 -> ip2 (in-place)
I0520 11:21:45.408172 21902 net.cpp:150] Setting up drop2
I0520 11:21:45.408185 21902 net.cpp:157] Top shape: 10 98 (980)
I0520 11:21:45.408195 21902 net.cpp:165] Memory required for data: 15787000
I0520 11:21:45.408205 21902 layer_factory.hpp:77] Creating layer ip3
I0520 11:21:45.408220 21902 net.cpp:106] Creating Layer ip3
I0520 11:21:45.408229 21902 net.cpp:454] ip3 <- ip2
I0520 11:21:45.408242 21902 net.cpp:411] ip3 -> ip3
I0520 11:21:45.408462 21902 net.cpp:150] Setting up ip3
I0520 11:21:45.408474 21902 net.cpp:157] Top shape: 10 11 (110)
I0520 11:21:45.408484 21902 net.cpp:165] Memory required for data: 15787440
I0520 11:21:45.408499 21902 layer_factory.hpp:77] Creating layer drop3
I0520 11:21:45.408512 21902 net.cpp:106] Creating Layer drop3
I0520 11:21:45.408522 21902 net.cpp:454] drop3 <- ip3
I0520 11:21:45.408535 21902 net.cpp:397] drop3 -> ip3 (in-place)
I0520 11:21:45.408576 21902 net.cpp:150] Setting up drop3
I0520 11:21:45.408588 21902 net.cpp:157] Top shape: 10 11 (110)
I0520 11:21:45.408598 21902 net.cpp:165] Memory required for data: 15787880
I0520 11:21:45.408608 21902 layer_factory.hpp:77] Creating layer ip3_drop3_0_split
I0520 11:21:45.408622 21902 net.cpp:106] Creating Layer ip3_drop3_0_split
I0520 11:21:45.408630 21902 net.cpp:454] ip3_drop3_0_split <- ip3
I0520 11:21:45.408643 21902 net.cpp:411] ip3_drop3_0_split -> ip3_drop3_0_split_0
I0520 11:21:45.408658 21902 net.cpp:411] ip3_drop3_0_split -> ip3_drop3_0_split_1
I0520 11:21:45.408731 21902 net.cpp:150] Setting up ip3_drop3_0_split
I0520 11:21:45.408745 21902 net.cpp:157] Top shape: 10 11 (110)
I0520 11:21:45.408756 21902 net.cpp:157] Top shape: 10 11 (110)
I0520 11:21:45.408766 21902 net.cpp:165] Memory required for data: 15788760
I0520 11:21:45.408773 21902 layer_factory.hpp:77] Creating layer accuracy
I0520 11:21:45.408795 21902 net.cpp:106] Creating Layer accuracy
I0520 11:21:45.408804 21902 net.cpp:454] accuracy <- ip3_drop3_0_split_0
I0520 11:21:45.408817 21902 net.cpp:454] accuracy <- label_data_hdf5_1_split_0
I0520 11:21:45.408829 21902 net.cpp:411] accuracy -> accuracy
…
