…
I0521 05:20:05.853965  7203 net.cpp:322] The NetState phase (0) differed from the phase (1) specified by a rule in layer data_hdf5
I0521 05:20:05.854025  7203 net.cpp:322] The NetState phase (0) differed from the phase (1) specified by a rule in layer accuracy
I0521 05:20:05.854369  7203 net.cpp:49] Initializing net from parameters: 
name: "caffe_test_127x50_x_unshifted"
state {
  phase: TRAIN
}
layer {
  name: "data_hdf5"
  type: "HDF5Data"
  top: "data"
  top: "label"
  include {
    phase: TRAIN
  }
  hdf5_data_param {
    source: "/lustre/atlas/proj-shared/hep105/caffe_titan/minosmatch_nukecczdefs_127x50_x_unshifted_me1Bmc.trainlist"
    batch_size: 690
  }
}
layer {
  name: "conv1"
  type: "Convolution"
  bottom: "data"
  top: "conv1"
  convolution_param {
    num_output: 12
    pad: 0
    stride: 1
    weight_filler {
      type: "xavier"
    }
    bias_filler {
      type: "constant"
    }
    kernel_h: 8
    kernel_w: 3
  }
}
layer {
  name: "relu1"
  type: "ReLU"
  bottom: "conv1"
  top: "conv1"
}
layer {
  name: "pool1"
  type: "Pooling"
  bottom: "conv1"
  top: "pool1"
  pooling_param {
    pool: MAX
    kernel_h: 2
    kernel_w: 1
    stride_h: 2
    stride_w: 1
  }
}
layer {
  name: "conv2"
  type: "Convolution"
  bottom: "pool1"
  top: "conv2"
  convolution_param {
    num_output: 20
    pad: 0
    stride: 1
    weight_filler {
      type: "xavier"
    }
    bias_filler {
      type: "constant"
    }
    kernel_h: 7
    kernel_w: 3
  }
}
layer {
  name: "relu2"
  type: "ReLU"
  bottom: "conv2"
  top: "conv2"
}
layer {
  name: "pool2"
  type: "Pooling"
  bottom: "conv2"
  top: "pool2"
  pooling_param {
    pool: MAX
    kernel_h: 2
    kernel_w: 1
    stride_h: 2
    stride_w: 1
  }
}
layer {
  name: "conv3"
  type: "Convolution"
  bottom: "pool2"
  top: "conv3"
  convolution_param {
    num_output: 28
    pad: 0
    stride: 1
    weight_filler {
      type: "xavier"
    }
    bias_filler {
      type: "constant"
    }
    kernel_h: 6
    kernel_w: 3
  }
}
layer {
  name: "relu3"
  type: "ReLU"
  bottom: "conv3"
  top: "conv3"
}
layer {
  name: "pool3"
  type: "Pooling"
  bottom: "conv3"
  top: "pool3"
  pooling_param {
    pool: MAX
    kernel_h: 2
    kernel_w: 1
    stride_h: 2
    stride_w: 1
  }
}
layer {
  name: "conv4"
  type: "Convolution"
  bottom: "pool3"
  top: "conv4"
  convolution_param {
    num_output: 36
    pad: 0
    stride: 1
    weight_filler {
      type: "xavier"
    }
    bias_filler {
      type: "constant"
    }
    kernel_h: 6
    kernel_w: 3
  }
}
layer {
  name: "relu4"
  type: "ReLU"
  bottom: "conv4"
  top: "conv4"
}
layer {
  name: "pool4"
  type: "Pooling"
  bottom: "conv4"
  top: "pool4"
  pooling_param {
    pool: MAX
    kernel_h: 2
    kernel_w: 1
    stride_h: 2
    stride_w: 1
  }
}
layer {
  name: "ip1"
  type: "InnerProduct"
  bottom: "pool4"
  top: "ip1"
  inner_product_param {
    num_output: 196
    weight_filler {
      type: "xavier"
    }
    bias_filler {
      type: "constant"
    }
  }
}
layer {
  name: "relu5"
  type: "ReLU"
  bottom: "ip1"
  top: "ip1"
}
layer {
  name: "drop1"
  type: "Dropout"
  bottom: "ip1"
  top: "ip1"
  dropout_param {
    dropout_ratio: 0.5
  }
}
layer {
  name: "ip2"
  type: "InnerProduct"
  bottom: "ip1"
  top: "ip2"
  inner_product_param {
    num_output: 98
    weight_filler {
      type: "xavier"
    }
    bias_filler {
      type: "constant"
    }
  }
}
layer {
  name: "relu6"
  type: "ReLU"
  bottom: "ip2"
  top: "ip2"
}
layer {
  name: "drop2"
  type: "Dropout"
  bottom: "ip2"
  top: "ip2"
  dropout_param {
    dropout_ratio: 0.5
  }
}
layer {
  name: "ip3"
  type: "InnerProduct"
  bottom: "ip2"
  top: "ip3"
  inner_product_param {
    num_output: 11
    weight_filler {
      type: "xavier"
    }
    bias_filler {
      type: "constant"
    }
  }
}
layer {
  name: "drop3"
  type: "Dropout"
  bottom: "ip3"
  top: "ip3"
  dropout_param {
    dropout_ratio: 0.5
  }
}
layer {
  name: "loss"
  type: "SoftmaxWithLoss"
  bottom: "ip3"
  bottom: "label"
  top: "loss"
}
I0521 05:20:05.854547  7203 layer_factory.hpp:77] Creating layer data_hdf5
I0521 05:20:05.854575  7203 net.cpp:106] Creating Layer data_hdf5
I0521 05:20:05.854590  7203 net.cpp:411] data_hdf5 -> data
I0521 05:20:05.854624  7203 net.cpp:411] data_hdf5 -> label
I0521 05:20:05.854655  7203 hdf5_data_layer.cpp:79] Loading list of HDF5 filenames from: /lustre/atlas/proj-shared/hep105/caffe_titan/minosmatch_nukecczdefs_127x50_x_unshifted_me1Bmc.trainlist
I0521 05:20:05.855865  7203 hdf5_data_layer.cpp:93] Number of HDF5 files: 15
I0521 05:20:05.858037  7203 hdf5.cpp:32] Datatype class: H5T_FLOAT
I0521 05:20:27.343511  7203 hdf5.cpp:35] Datatype class: H5T_INTEGER
I0521 05:20:27.348666  7203 net.cpp:150] Setting up data_hdf5
I0521 05:20:27.348707  7203 net.cpp:157] Top shape: 690 1 127 50 (4381500)
I0521 05:20:27.348721  7203 net.cpp:157] Top shape: 690 (690)
I0521 05:20:27.348733  7203 net.cpp:165] Memory required for data: 17528760
I0521 05:20:27.348747  7203 layer_factory.hpp:77] Creating layer conv1
I0521 05:20:27.348781  7203 net.cpp:106] Creating Layer conv1
I0521 05:20:27.348793  7203 net.cpp:454] conv1 <- data
I0521 05:20:27.348817  7203 net.cpp:411] conv1 -> conv1
I0521 05:20:27.711973  7203 net.cpp:150] Setting up conv1
I0521 05:20:27.712018  7203 net.cpp:157] Top shape: 690 12 120 48 (47692800)
I0521 05:20:27.712029  7203 net.cpp:165] Memory required for data: 208299960
I0521 05:20:27.712059  7203 layer_factory.hpp:77] Creating layer relu1
I0521 05:20:27.712080  7203 net.cpp:106] Creating Layer relu1
I0521 05:20:27.712090  7203 net.cpp:454] relu1 <- conv1
I0521 05:20:27.712105  7203 net.cpp:397] relu1 -> conv1 (in-place)
I0521 05:20:27.712620  7203 net.cpp:150] Setting up relu1
I0521 05:20:27.712636  7203 net.cpp:157] Top shape: 690 12 120 48 (47692800)
I0521 05:20:27.712647  7203 net.cpp:165] Memory required for data: 399071160
I0521 05:20:27.712657  7203 layer_factory.hpp:77] Creating layer pool1
I0521 05:20:27.712673  7203 net.cpp:106] Creating Layer pool1
I0521 05:20:27.712683  7203 net.cpp:454] pool1 <- conv1
I0521 05:20:27.712697  7203 net.cpp:411] pool1 -> pool1
I0521 05:20:27.712779  7203 net.cpp:150] Setting up pool1
I0521 05:20:27.712792  7203 net.cpp:157] Top shape: 690 12 60 48 (23846400)
I0521 05:20:27.712802  7203 net.cpp:165] Memory required for data: 494456760
I0521 05:20:27.712812  7203 layer_factory.hpp:77] Creating layer conv2
I0521 05:20:27.712836  7203 net.cpp:106] Creating Layer conv2
I0521 05:20:27.712846  7203 net.cpp:454] conv2 <- pool1
I0521 05:20:27.712859  7203 net.cpp:411] conv2 -> conv2
I0521 05:20:27.715559  7203 net.cpp:150] Setting up conv2
I0521 05:20:27.715586  7203 net.cpp:157] Top shape: 690 20 54 46 (34279200)
I0521 05:20:27.715597  7203 net.cpp:165] Memory required for data: 631573560
I0521 05:20:27.715616  7203 layer_factory.hpp:77] Creating layer relu2
I0521 05:20:27.715631  7203 net.cpp:106] Creating Layer relu2
I0521 05:20:27.715641  7203 net.cpp:454] relu2 <- conv2
I0521 05:20:27.715653  7203 net.cpp:397] relu2 -> conv2 (in-place)
I0521 05:20:27.715986  7203 net.cpp:150] Setting up relu2
I0521 05:20:27.715999  7203 net.cpp:157] Top shape: 690 20 54 46 (34279200)
I0521 05:20:27.716011  7203 net.cpp:165] Memory required for data: 768690360
I0521 05:20:27.716020  7203 layer_factory.hpp:77] Creating layer pool2
I0521 05:20:27.716033  7203 net.cpp:106] Creating Layer pool2
I0521 05:20:27.716043  7203 net.cpp:454] pool2 <- conv2
I0521 05:20:27.716068  7203 net.cpp:411] pool2 -> pool2
I0521 05:20:27.716137  7203 net.cpp:150] Setting up pool2
I0521 05:20:27.716150  7203 net.cpp:157] Top shape: 690 20 27 46 (17139600)
I0521 05:20:27.716161  7203 net.cpp:165] Memory required for data: 837248760
I0521 05:20:27.716171  7203 layer_factory.hpp:77] Creating layer conv3
I0521 05:20:27.716188  7203 net.cpp:106] Creating Layer conv3
I0521 05:20:27.716199  7203 net.cpp:454] conv3 <- pool2
I0521 05:20:27.716212  7203 net.cpp:411] conv3 -> conv3
I0521 05:20:27.718156  7203 net.cpp:150] Setting up conv3
I0521 05:20:27.718179  7203 net.cpp:157] Top shape: 690 28 22 44 (18701760)
I0521 05:20:27.718192  7203 net.cpp:165] Memory required for data: 912055800
I0521 05:20:27.718211  7203 layer_factory.hpp:77] Creating layer relu3
I0521 05:20:27.718227  7203 net.cpp:106] Creating Layer relu3
I0521 05:20:27.718237  7203 net.cpp:454] relu3 <- conv3
I0521 05:20:27.718250  7203 net.cpp:397] relu3 -> conv3 (in-place)
I0521 05:20:27.718720  7203 net.cpp:150] Setting up relu3
I0521 05:20:27.718737  7203 net.cpp:157] Top shape: 690 28 22 44 (18701760)
I0521 05:20:27.718747  7203 net.cpp:165] Memory required for data: 986862840
I0521 05:20:27.718757  7203 layer_factory.hpp:77] Creating layer pool3
I0521 05:20:27.718770  7203 net.cpp:106] Creating Layer pool3
I0521 05:20:27.718780  7203 net.cpp:454] pool3 <- conv3
I0521 05:20:27.718792  7203 net.cpp:411] pool3 -> pool3
I0521 05:20:27.718860  7203 net.cpp:150] Setting up pool3
I0521 05:20:27.718873  7203 net.cpp:157] Top shape: 690 28 11 44 (9350880)
I0521 05:20:27.718883  7203 net.cpp:165] Memory required for data: 1024266360
I0521 05:20:27.718894  7203 layer_factory.hpp:77] Creating layer conv4
I0521 05:20:27.718910  7203 net.cpp:106] Creating Layer conv4
I0521 05:20:27.718921  7203 net.cpp:454] conv4 <- pool3
I0521 05:20:27.718938  7203 net.cpp:411] conv4 -> conv4
I0521 05:20:27.721746  7203 net.cpp:150] Setting up conv4
I0521 05:20:27.721774  7203 net.cpp:157] Top shape: 690 36 6 42 (6259680)
I0521 05:20:27.721786  7203 net.cpp:165] Memory required for data: 1049305080
I0521 05:20:27.721801  7203 layer_factory.hpp:77] Creating layer relu4
I0521 05:20:27.721815  7203 net.cpp:106] Creating Layer relu4
I0521 05:20:27.721825  7203 net.cpp:454] relu4 <- conv4
I0521 05:20:27.721838  7203 net.cpp:397] relu4 -> conv4 (in-place)
I0521 05:20:27.722316  7203 net.cpp:150] Setting up relu4
I0521 05:20:27.722332  7203 net.cpp:157] Top shape: 690 36 6 42 (6259680)
I0521 05:20:27.722343  7203 net.cpp:165] Memory required for data: 1074343800
I0521 05:20:27.722353  7203 layer_factory.hpp:77] Creating layer pool4
I0521 05:20:27.722367  7203 net.cpp:106] Creating Layer pool4
I0521 05:20:27.722376  7203 net.cpp:454] pool4 <- conv4
I0521 05:20:27.722389  7203 net.cpp:411] pool4 -> pool4
I0521 05:20:27.722458  7203 net.cpp:150] Setting up pool4
I0521 05:20:27.722472  7203 net.cpp:157] Top shape: 690 36 3 42 (3129840)
I0521 05:20:27.722482  7203 net.cpp:165] Memory required for data: 1086863160
I0521 05:20:27.722492  7203 layer_factory.hpp:77] Creating layer ip1
I0521 05:20:27.722512  7203 net.cpp:106] Creating Layer ip1
I0521 05:20:27.722522  7203 net.cpp:454] ip1 <- pool4
I0521 05:20:27.722534  7203 net.cpp:411] ip1 -> ip1
I0521 05:20:27.738031  7203 net.cpp:150] Setting up ip1
I0521 05:20:27.738060  7203 net.cpp:157] Top shape: 690 196 (135240)
I0521 05:20:27.738075  7203 net.cpp:165] Memory required for data: 1087404120
I0521 05:20:27.738096  7203 layer_factory.hpp:77] Creating layer relu5
I0521 05:20:27.738111  7203 net.cpp:106] Creating Layer relu5
I0521 05:20:27.738121  7203 net.cpp:454] relu5 <- ip1
I0521 05:20:27.738135  7203 net.cpp:397] relu5 -> ip1 (in-place)
I0521 05:20:27.738476  7203 net.cpp:150] Setting up relu5
I0521 05:20:27.738489  7203 net.cpp:157] Top shape: 690 196 (135240)
I0521 05:20:27.738500  7203 net.cpp:165] Memory required for data: 1087945080
I0521 05:20:27.738510  7203 layer_factory.hpp:77] Creating layer drop1
I0521 05:20:27.738531  7203 net.cpp:106] Creating Layer drop1
I0521 05:20:27.738541  7203 net.cpp:454] drop1 <- ip1
I0521 05:20:27.738566  7203 net.cpp:397] drop1 -> ip1 (in-place)
I0521 05:20:27.738612  7203 net.cpp:150] Setting up drop1
I0521 05:20:27.738626  7203 net.cpp:157] Top shape: 690 196 (135240)
I0521 05:20:27.738636  7203 net.cpp:165] Memory required for data: 1088486040
I0521 05:20:27.738646  7203 layer_factory.hpp:77] Creating layer ip2
I0521 05:20:27.738664  7203 net.cpp:106] Creating Layer ip2
I0521 05:20:27.738674  7203 net.cpp:454] ip2 <- ip1
I0521 05:20:27.738687  7203 net.cpp:411] ip2 -> ip2
I0521 05:20:27.739151  7203 net.cpp:150] Setting up ip2
I0521 05:20:27.739164  7203 net.cpp:157] Top shape: 690 98 (67620)
I0521 05:20:27.739174  7203 net.cpp:165] Memory required for data: 1088756520
I0521 05:20:27.739189  7203 layer_factory.hpp:77] Creating layer relu6
I0521 05:20:27.739202  7203 net.cpp:106] Creating Layer relu6
I0521 05:20:27.739212  7203 net.cpp:454] relu6 <- ip2
I0521 05:20:27.739223  7203 net.cpp:397] relu6 -> ip2 (in-place)
I0521 05:20:27.739744  7203 net.cpp:150] Setting up relu6
I0521 05:20:27.739760  7203 net.cpp:157] Top shape: 690 98 (67620)
I0521 05:20:27.739771  7203 net.cpp:165] Memory required for data: 1089027000
I0521 05:20:27.739781  7203 layer_factory.hpp:77] Creating layer drop2
I0521 05:20:27.739794  7203 net.cpp:106] Creating Layer drop2
I0521 05:20:27.739804  7203 net.cpp:454] drop2 <- ip2
I0521 05:20:27.739816  7203 net.cpp:397] drop2 -> ip2 (in-place)
I0521 05:20:27.739858  7203 net.cpp:150] Setting up drop2
I0521 05:20:27.739871  7203 net.cpp:157] Top shape: 690 98 (67620)
I0521 05:20:27.739881  7203 net.cpp:165] Memory required for data: 1089297480
I0521 05:20:27.739892  7203 layer_factory.hpp:77] Creating layer ip3
I0521 05:20:27.739905  7203 net.cpp:106] Creating Layer ip3
I0521 05:20:27.739915  7203 net.cpp:454] ip3 <- ip2
I0521 05:20:27.739928  7203 net.cpp:411] ip3 -> ip3
I0521 05:20:27.740139  7203 net.cpp:150] Setting up ip3
I0521 05:20:27.740151  7203 net.cpp:157] Top shape: 690 11 (7590)
I0521 05:20:27.740161  7203 net.cpp:165] Memory required for data: 1089327840
I0521 05:20:27.740176  7203 layer_factory.hpp:77] Creating layer drop3
I0521 05:20:27.740190  7203 net.cpp:106] Creating Layer drop3
I0521 05:20:27.740200  7203 net.cpp:454] drop3 <- ip3
I0521 05:20:27.740211  7203 net.cpp:397] drop3 -> ip3 (in-place)
I0521 05:20:27.740250  7203 net.cpp:150] Setting up drop3
I0521 05:20:27.740262  7203 net.cpp:157] Top shape: 690 11 (7590)
I0521 05:20:27.740273  7203 net.cpp:165] Memory required for data: 1089358200
I0521 05:20:27.740283  7203 layer_factory.hpp:77] Creating layer loss
I0521 05:20:27.740301  7203 net.cpp:106] Creating Layer loss
I0521 05:20:27.740311  7203 net.cpp:454] loss <- ip3
I0521 05:20:27.740322  7203 net.cpp:454] loss <- label
I0521 05:20:27.740335  7203 net.cpp:411] loss -> loss
I0521 05:20:27.740353  7203 layer_factory.hpp:77] Creating layer loss
…
I0521 05:20:27.742959  7203 solver.cpp:181] Creating test net (#0) specified by net file: /lustre/atlas/proj-shared/hep105/caffe_titan/caffe_workflow/logs_batch_size_test/batch_size_690_2016-05-20T11.20.57.709289.prototxt
I0521 05:20:27.743031  7203 net.cpp:322] The NetState phase (1) differed from the phase (0) specified by a rule in layer data_hdf5
I0521 05:20:27.743386  7203 net.cpp:49] Initializing net from parameters: 
name: "caffe_test_127x50_x_unshifted"
state {
  phase: TEST
}
layer {
  name: "data_hdf5"
  type: "HDF5Data"
  top: "data"
  top: "label"
  include {
    phase: TEST
  }
  hdf5_data_param {
    source: "/lustre/atlas/proj-shared/hep105/caffe_titan/minosmatch_nukecczdefs_127x50_x_unshifted_me1Bmc.testlist"
    batch_size: 690
  }
}
layer {
  name: "conv1"
  type: "Convolution"
  bottom: "data"
  top: "conv1"
  convolution_param {
    num_output: 12
    pad: 0
    stride: 1
    weight_filler {
      type: "xavier"
    }
    bias_filler {
      type: "constant"
    }
    kernel_h: 8
    kernel_w: 3
  }
}
layer {
  name: "relu1"
  type: "ReLU"
  bottom: "conv1"
  top: "conv1"
}
layer {
  name: "pool1"
  type: "Pooling"
  bottom: "conv1"
  top: "pool1"
  pooling_param {
    pool: MAX
    kernel_h: 2
    kernel_w: 1
    stride_h: 2
    stride_w: 1
  }
}
layer {
  name: "conv2"
  type: "Convolution"
  bottom: "pool1"
  top: "conv2"
  convolution_param {
    num_output: 20
    pad: 0
    stride: 1
    weight_filler {
      type: "xavier"
    }
    bias_filler {
      type: "constant"
    }
    kernel_h: 7
    kernel_w: 3
  }
}
layer {
  name: "relu2"
  type: "ReLU"
  bottom: "conv2"
  top: "conv2"
}
layer {
  name: "pool2"
  type: "Pooling"
  bottom: "conv2"
  top: "pool2"
  pooling_param {
    pool: MAX
    kernel_h: 2
    kernel_w: 1
    stride_h: 2
    stride_w: 1
  }
}
layer {
  name: "conv3"
  type: "Convolution"
  bottom: "pool2"
  top: "conv3"
  convolution_param {
    num_output: 28
    pad: 0
    stride: 1
    weight_filler {
      type: "xavier"
    }
    bias_filler {
      type: "constant"
    }
    kernel_h: 6
    kernel_w: 3
  }
}
layer {
  name: "relu3"
  type: "ReLU"
  bottom: "conv3"
  top: "conv3"
}
layer {
  name: "pool3"
  type: "Pooling"
  bottom: "conv3"
  top: "pool3"
  pooling_param {
    pool: MAX
    kernel_h: 2
    kernel_w: 1
    stride_h: 2
    stride_w: 1
  }
}
layer {
  name: "conv4"
  type: "Convolution"
  bottom: "pool3"
  top: "conv4"
  convolution_param {
    num_output: 36
    pad: 0
    stride: 1
    weight_filler {
      type: "xavier"
    }
    bias_filler {
      type: "constant"
    }
    kernel_h: 6
    kernel_w: 3
  }
}
layer {
  name: "relu4"
  type: "ReLU"
  bottom: "conv4"
  top: "conv4"
}
layer {
  name: "pool4"
  type: "Pooling"
  bottom: "conv4"
  top: "pool4"
  pooling_param {
    pool: MAX
    kernel_h: 2
    kernel_w: 1
    stride_h: 2
    stride_w: 1
  }
}
layer {
  name: "ip1"
  type: "InnerProduct"
  bottom: "pool4"
  top: "ip1"
  inner_product_param {
    num_output: 196
    weight_filler {
      type: "xavier"
    }
    bias_filler {
      type: "constant"
    }
  }
}
layer {
  name: "relu5"
  type: "ReLU"
  bottom: "ip1"
  top: "ip1"
}
layer {
  name: "drop1"
  type: "Dropout"
  bottom: "ip1"
  top: "ip1"
  dropout_param {
    dropout_ratio: 0.5
  }
}
layer {
  name: "ip2"
  type: "InnerProduct"
  bottom: "ip1"
  top: "ip2"
  inner_product_param {
    num_output: 98
    weight_filler {
      type: "xavier"
    }
    bias_filler {
      type: "constant"
    }
  }
}
layer {
  name: "relu6"
  type: "ReLU"
  bottom: "ip2"
  top: "ip2"
}
layer {
  name: "drop2"
  type: "Dropout"
  bottom: "ip2"
  top: "ip2"
  dropout_param {
    dropout_ratio: 0.5
  }
}
layer {
  name: "ip3"
  type: "InnerProduct"
  bottom: "ip2"
  top: "ip3"
  inner_product_param {
    num_output: 11
    weight_filler {
      type: "xavier"
    }
    bias_filler {
      type: "constant"
    }
  }
}
layer {
  name: "drop3"
  type: "Dropout"
  bottom: "ip3"
  top: "ip3"
  dropout_param {
    dropout_ratio: 0.5
  }
}
layer {
  name: "accuracy"
  type: "Accuracy"
  bottom: "ip3"
  bottom: "label"
  top: "accuracy"
  include {
    phase: TEST
  }
}
layer {
  name: "loss"
  type: "SoftmaxWithLoss"
  bottom: "ip3"
  bottom: "label"
  top: "loss"
}
I0521 05:20:27.743573  7203 layer_factory.hpp:77] Creating layer data_hdf5
I0521 05:20:27.743589  7203 net.cpp:106] Creating Layer data_hdf5
I0521 05:20:27.743602  7203 net.cpp:411] data_hdf5 -> data
I0521 05:20:27.743618  7203 net.cpp:411] data_hdf5 -> label
I0521 05:20:27.743633  7203 hdf5_data_layer.cpp:79] Loading list of HDF5 filenames from: /lustre/atlas/proj-shared/hep105/caffe_titan/minosmatch_nukecczdefs_127x50_x_unshifted_me1Bmc.testlist
I0521 05:20:27.744868  7203 hdf5_data_layer.cpp:93] Number of HDF5 files: 3
I0521 05:20:49.080727  7203 net.cpp:150] Setting up data_hdf5
I0521 05:20:49.080893  7203 net.cpp:157] Top shape: 690 1 127 50 (4381500)
I0521 05:20:49.080907  7203 net.cpp:157] Top shape: 690 (690)
I0521 05:20:49.080919  7203 net.cpp:165] Memory required for data: 17528760
I0521 05:20:49.080932  7203 layer_factory.hpp:77] Creating layer label_data_hdf5_1_split
I0521 05:20:49.080960  7203 net.cpp:106] Creating Layer label_data_hdf5_1_split
I0521 05:20:49.080971  7203 net.cpp:454] label_data_hdf5_1_split <- label
I0521 05:20:49.080986  7203 net.cpp:411] label_data_hdf5_1_split -> label_data_hdf5_1_split_0
I0521 05:20:49.081007  7203 net.cpp:411] label_data_hdf5_1_split -> label_data_hdf5_1_split_1
I0521 05:20:49.081091  7203 net.cpp:150] Setting up label_data_hdf5_1_split
I0521 05:20:49.081105  7203 net.cpp:157] Top shape: 690 (690)
I0521 05:20:49.081117  7203 net.cpp:157] Top shape: 690 (690)
I0521 05:20:49.081126  7203 net.cpp:165] Memory required for data: 17534280
I0521 05:20:49.081136  7203 layer_factory.hpp:77] Creating layer conv1
I0521 05:20:49.081156  7203 net.cpp:106] Creating Layer conv1
I0521 05:20:49.081167  7203 net.cpp:454] conv1 <- data
I0521 05:20:49.081182  7203 net.cpp:411] conv1 -> conv1
I0521 05:20:49.083148  7203 net.cpp:150] Setting up conv1
I0521 05:20:49.083166  7203 net.cpp:157] Top shape: 690 12 120 48 (47692800)
I0521 05:20:49.083176  7203 net.cpp:165] Memory required for data: 208305480
I0521 05:20:49.083197  7203 layer_factory.hpp:77] Creating layer relu1
I0521 05:20:49.083212  7203 net.cpp:106] Creating Layer relu1
I0521 05:20:49.083222  7203 net.cpp:454] relu1 <- conv1
I0521 05:20:49.083236  7203 net.cpp:397] relu1 -> conv1 (in-place)
I0521 05:20:49.083732  7203 net.cpp:150] Setting up relu1
I0521 05:20:49.083748  7203 net.cpp:157] Top shape: 690 12 120 48 (47692800)
I0521 05:20:49.083760  7203 net.cpp:165] Memory required for data: 399076680
I0521 05:20:49.083770  7203 layer_factory.hpp:77] Creating layer pool1
I0521 05:20:49.083786  7203 net.cpp:106] Creating Layer pool1
I0521 05:20:49.083796  7203 net.cpp:454] pool1 <- conv1
I0521 05:20:49.083808  7203 net.cpp:411] pool1 -> pool1
I0521 05:20:49.083884  7203 net.cpp:150] Setting up pool1
I0521 05:20:49.083897  7203 net.cpp:157] Top shape: 690 12 60 48 (23846400)
I0521 05:20:49.083906  7203 net.cpp:165] Memory required for data: 494462280
I0521 05:20:49.083917  7203 layer_factory.hpp:77] Creating layer conv2
I0521 05:20:49.083935  7203 net.cpp:106] Creating Layer conv2
I0521 05:20:49.083945  7203 net.cpp:454] conv2 <- pool1
I0521 05:20:49.083959  7203 net.cpp:411] conv2 -> conv2
I0521 05:20:49.085885  7203 net.cpp:150] Setting up conv2
I0521 05:20:49.085906  7203 net.cpp:157] Top shape: 690 20 54 46 (34279200)
I0521 05:20:49.085919  7203 net.cpp:165] Memory required for data: 631579080
I0521 05:20:49.085937  7203 layer_factory.hpp:77] Creating layer relu2
I0521 05:20:49.085952  7203 net.cpp:106] Creating Layer relu2
I0521 05:20:49.085961  7203 net.cpp:454] relu2 <- conv2
I0521 05:20:49.085973  7203 net.cpp:397] relu2 -> conv2 (in-place)
I0521 05:20:49.086308  7203 net.cpp:150] Setting up relu2
I0521 05:20:49.086323  7203 net.cpp:157] Top shape: 690 20 54 46 (34279200)
I0521 05:20:49.086333  7203 net.cpp:165] Memory required for data: 768695880
I0521 05:20:49.086343  7203 layer_factory.hpp:77] Creating layer pool2
I0521 05:20:49.086356  7203 net.cpp:106] Creating Layer pool2
I0521 05:20:49.086366  7203 net.cpp:454] pool2 <- conv2
I0521 05:20:49.086379  7203 net.cpp:411] pool2 -> pool2
I0521 05:20:49.086449  7203 net.cpp:150] Setting up pool2
I0521 05:20:49.086463  7203 net.cpp:157] Top shape: 690 20 27 46 (17139600)
I0521 05:20:49.086473  7203 net.cpp:165] Memory required for data: 837254280
I0521 05:20:49.086483  7203 layer_factory.hpp:77] Creating layer conv3
I0521 05:20:49.086501  7203 net.cpp:106] Creating Layer conv3
I0521 05:20:49.086511  7203 net.cpp:454] conv3 <- pool2
I0521 05:20:49.086525  7203 net.cpp:411] conv3 -> conv3
I0521 05:20:49.088500  7203 net.cpp:150] Setting up conv3
I0521 05:20:49.088522  7203 net.cpp:157] Top shape: 690 28 22 44 (18701760)
I0521 05:20:49.088533  7203 net.cpp:165] Memory required for data: 912061320
I0521 05:20:49.088565  7203 layer_factory.hpp:77] Creating layer relu3
I0521 05:20:49.088579  7203 net.cpp:106] Creating Layer relu3
I0521 05:20:49.088589  7203 net.cpp:454] relu3 <- conv3
I0521 05:20:49.088603  7203 net.cpp:397] relu3 -> conv3 (in-place)
I0521 05:20:49.089081  7203 net.cpp:150] Setting up relu3
I0521 05:20:49.089097  7203 net.cpp:157] Top shape: 690 28 22 44 (18701760)
I0521 05:20:49.089107  7203 net.cpp:165] Memory required for data: 986868360
I0521 05:20:49.089118  7203 layer_factory.hpp:77] Creating layer pool3
I0521 05:20:49.089130  7203 net.cpp:106] Creating Layer pool3
I0521 05:20:49.089140  7203 net.cpp:454] pool3 <- conv3
I0521 05:20:49.089154  7203 net.cpp:411] pool3 -> pool3
I0521 05:20:49.089226  7203 net.cpp:150] Setting up pool3
I0521 05:20:49.089239  7203 net.cpp:157] Top shape: 690 28 11 44 (9350880)
I0521 05:20:49.089249  7203 net.cpp:165] Memory required for data: 1024271880
I0521 05:20:49.089259  7203 layer_factory.hpp:77] Creating layer conv4
I0521 05:20:49.089277  7203 net.cpp:106] Creating Layer conv4
I0521 05:20:49.089287  7203 net.cpp:454] conv4 <- pool3
I0521 05:20:49.089301  7203 net.cpp:411] conv4 -> conv4
I0521 05:20:49.091353  7203 net.cpp:150] Setting up conv4
I0521 05:20:49.091370  7203 net.cpp:157] Top shape: 690 36 6 42 (6259680)
I0521 05:20:49.091383  7203 net.cpp:165] Memory required for data: 1049310600
I0521 05:20:49.091401  7203 layer_factory.hpp:77] Creating layer relu4
I0521 05:20:49.091414  7203 net.cpp:106] Creating Layer relu4
I0521 05:20:49.091424  7203 net.cpp:454] relu4 <- conv4
I0521 05:20:49.091437  7203 net.cpp:397] relu4 -> conv4 (in-place)
I0521 05:20:49.091907  7203 net.cpp:150] Setting up relu4
I0521 05:20:49.091922  7203 net.cpp:157] Top shape: 690 36 6 42 (6259680)
I0521 05:20:49.091933  7203 net.cpp:165] Memory required for data: 1074349320
I0521 05:20:49.091943  7203 layer_factory.hpp:77] Creating layer pool4
I0521 05:20:49.091955  7203 net.cpp:106] Creating Layer pool4
I0521 05:20:49.091965  7203 net.cpp:454] pool4 <- conv4
I0521 05:20:49.091979  7203 net.cpp:411] pool4 -> pool4
I0521 05:20:49.092051  7203 net.cpp:150] Setting up pool4
I0521 05:20:49.092064  7203 net.cpp:157] Top shape: 690 36 3 42 (3129840)
I0521 05:20:49.092074  7203 net.cpp:165] Memory required for data: 1086868680
I0521 05:20:49.092082  7203 layer_factory.hpp:77] Creating layer ip1
I0521 05:20:49.092097  7203 net.cpp:106] Creating Layer ip1
I0521 05:20:49.092108  7203 net.cpp:454] ip1 <- pool4
I0521 05:20:49.092121  7203 net.cpp:411] ip1 -> ip1
I0521 05:20:49.107607  7203 net.cpp:150] Setting up ip1
I0521 05:20:49.107635  7203 net.cpp:157] Top shape: 690 196 (135240)
I0521 05:20:49.107646  7203 net.cpp:165] Memory required for data: 1087409640
I0521 05:20:49.107669  7203 layer_factory.hpp:77] Creating layer relu5
I0521 05:20:49.107684  7203 net.cpp:106] Creating Layer relu5
I0521 05:20:49.107694  7203 net.cpp:454] relu5 <- ip1
I0521 05:20:49.107708  7203 net.cpp:397] relu5 -> ip1 (in-place)
I0521 05:20:49.108052  7203 net.cpp:150] Setting up relu5
I0521 05:20:49.108067  7203 net.cpp:157] Top shape: 690 196 (135240)
I0521 05:20:49.108077  7203 net.cpp:165] Memory required for data: 1087950600
I0521 05:20:49.108088  7203 layer_factory.hpp:77] Creating layer drop1
I0521 05:20:49.108106  7203 net.cpp:106] Creating Layer drop1
I0521 05:20:49.108116  7203 net.cpp:454] drop1 <- ip1
I0521 05:20:49.108129  7203 net.cpp:397] drop1 -> ip1 (in-place)
I0521 05:20:49.108172  7203 net.cpp:150] Setting up drop1
I0521 05:20:49.108186  7203 net.cpp:157] Top shape: 690 196 (135240)
I0521 05:20:49.108196  7203 net.cpp:165] Memory required for data: 1088491560
I0521 05:20:49.108204  7203 layer_factory.hpp:77] Creating layer ip2
I0521 05:20:49.108222  7203 net.cpp:106] Creating Layer ip2
I0521 05:20:49.108232  7203 net.cpp:454] ip2 <- ip1
I0521 05:20:49.108245  7203 net.cpp:411] ip2 -> ip2
I0521 05:20:49.108726  7203 net.cpp:150] Setting up ip2
I0521 05:20:49.108739  7203 net.cpp:157] Top shape: 690 98 (67620)
I0521 05:20:49.108749  7203 net.cpp:165] Memory required for data: 1088762040
I0521 05:20:49.108777  7203 layer_factory.hpp:77] Creating layer relu6
I0521 05:20:49.108790  7203 net.cpp:106] Creating Layer relu6
I0521 05:20:49.108800  7203 net.cpp:454] relu6 <- ip2
I0521 05:20:49.108814  7203 net.cpp:397] relu6 -> ip2 (in-place)
I0521 05:20:49.109356  7203 net.cpp:150] Setting up relu6
I0521 05:20:49.109377  7203 net.cpp:157] Top shape: 690 98 (67620)
I0521 05:20:49.109388  7203 net.cpp:165] Memory required for data: 1089032520
I0521 05:20:49.109398  7203 layer_factory.hpp:77] Creating layer drop2
I0521 05:20:49.109412  7203 net.cpp:106] Creating Layer drop2
I0521 05:20:49.109422  7203 net.cpp:454] drop2 <- ip2
I0521 05:20:49.109436  7203 net.cpp:397] drop2 -> ip2 (in-place)
I0521 05:20:49.109479  7203 net.cpp:150] Setting up drop2
I0521 05:20:49.109493  7203 net.cpp:157] Top shape: 690 98 (67620)
I0521 05:20:49.109504  7203 net.cpp:165] Memory required for data: 1089303000
I0521 05:20:49.109515  7203 layer_factory.hpp:77] Creating layer ip3
I0521 05:20:49.109530  7203 net.cpp:106] Creating Layer ip3
I0521 05:20:49.109539  7203 net.cpp:454] ip3 <- ip2
I0521 05:20:49.109554  7203 net.cpp:411] ip3 -> ip3
I0521 05:20:49.109776  7203 net.cpp:150] Setting up ip3
I0521 05:20:49.109788  7203 net.cpp:157] Top shape: 690 11 (7590)
I0521 05:20:49.109798  7203 net.cpp:165] Memory required for data: 1089333360
I0521 05:20:49.109813  7203 layer_factory.hpp:77] Creating layer drop3
I0521 05:20:49.109827  7203 net.cpp:106] Creating Layer drop3
I0521 05:20:49.109836  7203 net.cpp:454] drop3 <- ip3
I0521 05:20:49.109849  7203 net.cpp:397] drop3 -> ip3 (in-place)
I0521 05:20:49.109890  7203 net.cpp:150] Setting up drop3
I0521 05:20:49.109902  7203 net.cpp:157] Top shape: 690 11 (7590)
I0521 05:20:49.109912  7203 net.cpp:165] Memory required for data: 1089363720
I0521 05:20:49.109922  7203 layer_factory.hpp:77] Creating layer ip3_drop3_0_split
I0521 05:20:49.109935  7203 net.cpp:106] Creating Layer ip3_drop3_0_split
I0521 05:20:49.109946  7203 net.cpp:454] ip3_drop3_0_split <- ip3
I0521 05:20:49.109957  7203 net.cpp:411] ip3_drop3_0_split -> ip3_drop3_0_split_0
I0521 05:20:49.109973  7203 net.cpp:411] ip3_drop3_0_split -> ip3_drop3_0_split_1
I0521 05:20:49.110045  7203 net.cpp:150] Setting up ip3_drop3_0_split
I0521 05:20:49.110059  7203 net.cpp:157] Top shape: 690 11 (7590)
I0521 05:20:49.110071  7203 net.cpp:157] Top shape: 690 11 (7590)
I0521 05:20:49.110081  7203 net.cpp:165] Memory required for data: 1089424440
I0521 05:20:49.110090  7203 layer_factory.hpp:77] Creating layer accuracy
I0521 05:20:49.110112  7203 net.cpp:106] Creating Layer accuracy
I0521 05:20:49.110123  7203 net.cpp:454] accuracy <- ip3_drop3_0_split_0
I0521 05:20:49.110134  7203 net.cpp:454] accuracy <- label_data_hdf5_1_split_0
I0521 05:20:49.110148  7203 net.cpp:411] accuracy -> accuracy
…
