…
I0520 22:02:45.393232 20989 net.cpp:322] The NetState phase (0) differed from the phase (1) specified by a rule in layer data_hdf5
I0520 22:02:45.393292 20989 net.cpp:322] The NetState phase (0) differed from the phase (1) specified by a rule in layer accuracy
I0520 22:02:45.393647 20989 net.cpp:49] Initializing net from parameters: 
name: "caffe_test_127x50_x_unshifted"
state {
  phase: TRAIN
}
layer {
  name: "data_hdf5"
  type: "HDF5Data"
  top: "data"
  top: "label"
  include {
    phase: TRAIN
  }
  hdf5_data_param {
    source: "/lustre/atlas/proj-shared/hep105/caffe_titan/minosmatch_nukecczdefs_127x50_x_unshifted_me1Bmc.trainlist"
    batch_size: 360
  }
}
layer {
  name: "conv1"
  type: "Convolution"
  bottom: "data"
  top: "conv1"
  convolution_param {
    num_output: 12
    pad: 0
    stride: 1
    weight_filler {
      type: "xavier"
    }
    bias_filler {
      type: "constant"
    }
    kernel_h: 8
    kernel_w: 3
  }
}
layer {
  name: "relu1"
  type: "ReLU"
  bottom: "conv1"
  top: "conv1"
}
layer {
  name: "pool1"
  type: "Pooling"
  bottom: "conv1"
  top: "pool1"
  pooling_param {
    pool: MAX
    kernel_h: 2
    kernel_w: 1
    stride_h: 2
    stride_w: 1
  }
}
layer {
  name: "conv2"
  type: "Convolution"
  bottom: "pool1"
  top: "conv2"
  convolution_param {
    num_output: 20
    pad: 0
    stride: 1
    weight_filler {
      type: "xavier"
    }
    bias_filler {
      type: "constant"
    }
    kernel_h: 7
    kernel_w: 3
  }
}
layer {
  name: "relu2"
  type: "ReLU"
  bottom: "conv2"
  top: "conv2"
}
layer {
  name: "pool2"
  type: "Pooling"
  bottom: "conv2"
  top: "pool2"
  pooling_param {
    pool: MAX
    kernel_h: 2
    kernel_w: 1
    stride_h: 2
    stride_w: 1
  }
}
layer {
  name: "conv3"
  type: "Convolution"
  bottom: "pool2"
  top: "conv3"
  convolution_param {
    num_output: 28
    pad: 0
    stride: 1
    weight_filler {
      type: "xavier"
    }
    bias_filler {
      type: "constant"
    }
    kernel_h: 6
    kernel_w: 3
  }
}
layer {
  name: "relu3"
  type: "ReLU"
  bottom: "conv3"
  top: "conv3"
}
layer {
  name: "pool3"
  type: "Pooling"
  bottom: "conv3"
  top: "pool3"
  pooling_param {
    pool: MAX
    kernel_h: 2
    kernel_w: 1
    stride_h: 2
    stride_w: 1
  }
}
layer {
  name: "conv4"
  type: "Convolution"
  bottom: "pool3"
  top: "conv4"
  convolution_param {
    num_output: 36
    pad: 0
    stride: 1
    weight_filler {
      type: "xavier"
    }
    bias_filler {
      type: "constant"
    }
    kernel_h: 6
    kernel_w: 3
  }
}
layer {
  name: "relu4"
  type: "ReLU"
  bottom: "conv4"
  top: "conv4"
}
layer {
  name: "pool4"
  type: "Pooling"
  bottom: "conv4"
  top: "pool4"
  pooling_param {
    pool: MAX
    kernel_h: 2
    kernel_w: 1
    stride_h: 2
    stride_w: 1
  }
}
layer {
  name: "ip1"
  type: "InnerProduct"
  bottom: "pool4"
  top: "ip1"
  inner_product_param {
    num_output: 196
    weight_filler {
      type: "xavier"
    }
    bias_filler {
      type: "constant"
    }
  }
}
layer {
  name: "relu5"
  type: "ReLU"
  bottom: "ip1"
  top: "ip1"
}
layer {
  name: "drop1"
  type: "Dropout"
  bottom: "ip1"
  top: "ip1"
  dropout_param {
    dropout_ratio: 0.5
  }
}
layer {
  name: "ip2"
  type: "InnerProduct"
  bottom: "ip1"
  top: "ip2"
  inner_product_param {
    num_output: 98
    weight_filler {
      type: "xavier"
    }
    bias_filler {
      type: "constant"
    }
  }
}
layer {
  name: "relu6"
  type: "ReLU"
  bottom: "ip2"
  top: "ip2"
}
layer {
  name: "drop2"
  type: "Dropout"
  bottom: "ip2"
  top: "ip2"
  dropout_param {
    dropout_ratio: 0.5
  }
}
layer {
  name: "ip3"
  type: "InnerProduct"
  bottom: "ip2"
  top: "ip3"
  inner_product_param {
    num_output: 11
    weight_filler {
      type: "xavier"
    }
    bias_filler {
      type: "constant"
    }
  }
}
layer {
  name: "drop3"
  type: "Dropout"
  bottom: "ip3"
  top: "ip3"
  dropout_param {
    dropout_ratio: 0.5
  }
}
layer {
  name: "loss"
  type: "SoftmaxWithLoss"
  bottom: "ip3"
  bottom: "label"
  top: "loss"
}
I0520 22:02:45.393828 20989 layer_factory.hpp:77] Creating layer data_hdf5
I0520 22:02:45.393851 20989 net.cpp:106] Creating Layer data_hdf5
I0520 22:02:45.393867 20989 net.cpp:411] data_hdf5 -> data
I0520 22:02:45.393898 20989 net.cpp:411] data_hdf5 -> label
I0520 22:02:45.393930 20989 hdf5_data_layer.cpp:79] Loading list of HDF5 filenames from: /lustre/atlas/proj-shared/hep105/caffe_titan/minosmatch_nukecczdefs_127x50_x_unshifted_me1Bmc.trainlist
I0520 22:02:45.407788 20989 hdf5_data_layer.cpp:93] Number of HDF5 files: 15
I0520 22:02:45.412346 20989 hdf5.cpp:32] Datatype class: H5T_FLOAT
I0520 22:03:06.934597 20989 hdf5.cpp:35] Datatype class: H5T_INTEGER
I0520 22:03:06.946127 20989 net.cpp:150] Setting up data_hdf5
I0520 22:03:06.946173 20989 net.cpp:157] Top shape: 360 1 127 50 (2286000)
I0520 22:03:06.946188 20989 net.cpp:157] Top shape: 360 (360)
I0520 22:03:06.946198 20989 net.cpp:165] Memory required for data: 9145440
I0520 22:03:06.946213 20989 layer_factory.hpp:77] Creating layer conv1
I0520 22:03:06.946245 20989 net.cpp:106] Creating Layer conv1
I0520 22:03:06.946257 20989 net.cpp:454] conv1 <- data
I0520 22:03:06.946280 20989 net.cpp:411] conv1 -> conv1
I0520 22:03:07.529316 20989 net.cpp:150] Setting up conv1
I0520 22:03:07.529364 20989 net.cpp:157] Top shape: 360 12 120 48 (24883200)
I0520 22:03:07.529376 20989 net.cpp:165] Memory required for data: 108678240
I0520 22:03:07.529404 20989 layer_factory.hpp:77] Creating layer relu1
I0520 22:03:07.529425 20989 net.cpp:106] Creating Layer relu1
I0520 22:03:07.529436 20989 net.cpp:454] relu1 <- conv1
I0520 22:03:07.529450 20989 net.cpp:397] relu1 -> conv1 (in-place)
I0520 22:03:07.529968 20989 net.cpp:150] Setting up relu1
I0520 22:03:07.529984 20989 net.cpp:157] Top shape: 360 12 120 48 (24883200)
I0520 22:03:07.529995 20989 net.cpp:165] Memory required for data: 208211040
I0520 22:03:07.530005 20989 layer_factory.hpp:77] Creating layer pool1
I0520 22:03:07.530021 20989 net.cpp:106] Creating Layer pool1
I0520 22:03:07.530031 20989 net.cpp:454] pool1 <- conv1
I0520 22:03:07.530045 20989 net.cpp:411] pool1 -> pool1
I0520 22:03:07.530125 20989 net.cpp:150] Setting up pool1
I0520 22:03:07.530139 20989 net.cpp:157] Top shape: 360 12 60 48 (12441600)
I0520 22:03:07.530149 20989 net.cpp:165] Memory required for data: 257977440
I0520 22:03:07.530158 20989 layer_factory.hpp:77] Creating layer conv2
I0520 22:03:07.530181 20989 net.cpp:106] Creating Layer conv2
I0520 22:03:07.530192 20989 net.cpp:454] conv2 <- pool1
I0520 22:03:07.530205 20989 net.cpp:411] conv2 -> conv2
I0520 22:03:07.532888 20989 net.cpp:150] Setting up conv2
I0520 22:03:07.532917 20989 net.cpp:157] Top shape: 360 20 54 46 (17884800)
I0520 22:03:07.532927 20989 net.cpp:165] Memory required for data: 329516640
I0520 22:03:07.532945 20989 layer_factory.hpp:77] Creating layer relu2
I0520 22:03:07.532960 20989 net.cpp:106] Creating Layer relu2
I0520 22:03:07.532970 20989 net.cpp:454] relu2 <- conv2
I0520 22:03:07.532984 20989 net.cpp:397] relu2 -> conv2 (in-place)
I0520 22:03:07.533311 20989 net.cpp:150] Setting up relu2
I0520 22:03:07.533326 20989 net.cpp:157] Top shape: 360 20 54 46 (17884800)
I0520 22:03:07.533335 20989 net.cpp:165] Memory required for data: 401055840
I0520 22:03:07.533346 20989 layer_factory.hpp:77] Creating layer pool2
I0520 22:03:07.533359 20989 net.cpp:106] Creating Layer pool2
I0520 22:03:07.533368 20989 net.cpp:454] pool2 <- conv2
I0520 22:03:07.533393 20989 net.cpp:411] pool2 -> pool2
I0520 22:03:07.533463 20989 net.cpp:150] Setting up pool2
I0520 22:03:07.533476 20989 net.cpp:157] Top shape: 360 20 27 46 (8942400)
I0520 22:03:07.533486 20989 net.cpp:165] Memory required for data: 436825440
I0520 22:03:07.533493 20989 layer_factory.hpp:77] Creating layer conv3
I0520 22:03:07.533512 20989 net.cpp:106] Creating Layer conv3
I0520 22:03:07.533522 20989 net.cpp:454] conv3 <- pool2
I0520 22:03:07.533536 20989 net.cpp:411] conv3 -> conv3
I0520 22:03:07.535450 20989 net.cpp:150] Setting up conv3
I0520 22:03:07.535475 20989 net.cpp:157] Top shape: 360 28 22 44 (9757440)
I0520 22:03:07.535486 20989 net.cpp:165] Memory required for data: 475855200
I0520 22:03:07.535504 20989 layer_factory.hpp:77] Creating layer relu3
I0520 22:03:07.535521 20989 net.cpp:106] Creating Layer relu3
I0520 22:03:07.535531 20989 net.cpp:454] relu3 <- conv3
I0520 22:03:07.535543 20989 net.cpp:397] relu3 -> conv3 (in-place)
I0520 22:03:07.536026 20989 net.cpp:150] Setting up relu3
I0520 22:03:07.536042 20989 net.cpp:157] Top shape: 360 28 22 44 (9757440)
I0520 22:03:07.536053 20989 net.cpp:165] Memory required for data: 514884960
I0520 22:03:07.536063 20989 layer_factory.hpp:77] Creating layer pool3
I0520 22:03:07.536077 20989 net.cpp:106] Creating Layer pool3
I0520 22:03:07.536087 20989 net.cpp:454] pool3 <- conv3
I0520 22:03:07.536099 20989 net.cpp:411] pool3 -> pool3
I0520 22:03:07.536167 20989 net.cpp:150] Setting up pool3
I0520 22:03:07.536180 20989 net.cpp:157] Top shape: 360 28 11 44 (4878720)
I0520 22:03:07.536190 20989 net.cpp:165] Memory required for data: 534399840
I0520 22:03:07.536201 20989 layer_factory.hpp:77] Creating layer conv4
I0520 22:03:07.536217 20989 net.cpp:106] Creating Layer conv4
I0520 22:03:07.536228 20989 net.cpp:454] conv4 <- pool3
I0520 22:03:07.536242 20989 net.cpp:411] conv4 -> conv4
I0520 22:03:07.539011 20989 net.cpp:150] Setting up conv4
I0520 22:03:07.539039 20989 net.cpp:157] Top shape: 360 36 6 42 (3265920)
I0520 22:03:07.539049 20989 net.cpp:165] Memory required for data: 547463520
I0520 22:03:07.539065 20989 layer_factory.hpp:77] Creating layer relu4
I0520 22:03:07.539079 20989 net.cpp:106] Creating Layer relu4
I0520 22:03:07.539089 20989 net.cpp:454] relu4 <- conv4
I0520 22:03:07.539103 20989 net.cpp:397] relu4 -> conv4 (in-place)
I0520 22:03:07.539574 20989 net.cpp:150] Setting up relu4
I0520 22:03:07.539590 20989 net.cpp:157] Top shape: 360 36 6 42 (3265920)
I0520 22:03:07.539628 20989 net.cpp:165] Memory required for data: 560527200
I0520 22:03:07.539639 20989 layer_factory.hpp:77] Creating layer pool4
I0520 22:03:07.539652 20989 net.cpp:106] Creating Layer pool4
I0520 22:03:07.539662 20989 net.cpp:454] pool4 <- conv4
I0520 22:03:07.539676 20989 net.cpp:411] pool4 -> pool4
I0520 22:03:07.539754 20989 net.cpp:150] Setting up pool4
I0520 22:03:07.539768 20989 net.cpp:157] Top shape: 360 36 3 42 (1632960)
I0520 22:03:07.539780 20989 net.cpp:165] Memory required for data: 567059040
I0520 22:03:07.539791 20989 layer_factory.hpp:77] Creating layer ip1
I0520 22:03:07.539810 20989 net.cpp:106] Creating Layer ip1
I0520 22:03:07.539820 20989 net.cpp:454] ip1 <- pool4
I0520 22:03:07.539834 20989 net.cpp:411] ip1 -> ip1
I0520 22:03:07.555312 20989 net.cpp:150] Setting up ip1
I0520 22:03:07.555341 20989 net.cpp:157] Top shape: 360 196 (70560)
I0520 22:03:07.555353 20989 net.cpp:165] Memory required for data: 567341280
I0520 22:03:07.555376 20989 layer_factory.hpp:77] Creating layer relu5
I0520 22:03:07.555390 20989 net.cpp:106] Creating Layer relu5
I0520 22:03:07.555400 20989 net.cpp:454] relu5 <- ip1
I0520 22:03:07.555413 20989 net.cpp:397] relu5 -> ip1 (in-place)
I0520 22:03:07.555764 20989 net.cpp:150] Setting up relu5
I0520 22:03:07.555778 20989 net.cpp:157] Top shape: 360 196 (70560)
I0520 22:03:07.555789 20989 net.cpp:165] Memory required for data: 567623520
I0520 22:03:07.555799 20989 layer_factory.hpp:77] Creating layer drop1
I0520 22:03:07.555820 20989 net.cpp:106] Creating Layer drop1
I0520 22:03:07.555831 20989 net.cpp:454] drop1 <- ip1
I0520 22:03:07.555856 20989 net.cpp:397] drop1 -> ip1 (in-place)
I0520 22:03:07.555902 20989 net.cpp:150] Setting up drop1
I0520 22:03:07.555914 20989 net.cpp:157] Top shape: 360 196 (70560)
I0520 22:03:07.555925 20989 net.cpp:165] Memory required for data: 567905760
I0520 22:03:07.555934 20989 layer_factory.hpp:77] Creating layer ip2
I0520 22:03:07.555953 20989 net.cpp:106] Creating Layer ip2
I0520 22:03:07.555964 20989 net.cpp:454] ip2 <- ip1
I0520 22:03:07.555976 20989 net.cpp:411] ip2 -> ip2
I0520 22:03:07.556442 20989 net.cpp:150] Setting up ip2
I0520 22:03:07.556455 20989 net.cpp:157] Top shape: 360 98 (35280)
I0520 22:03:07.556465 20989 net.cpp:165] Memory required for data: 568046880
I0520 22:03:07.556480 20989 layer_factory.hpp:77] Creating layer relu6
I0520 22:03:07.556493 20989 net.cpp:106] Creating Layer relu6
I0520 22:03:07.556502 20989 net.cpp:454] relu6 <- ip2
I0520 22:03:07.556514 20989 net.cpp:397] relu6 -> ip2 (in-place)
I0520 22:03:07.557039 20989 net.cpp:150] Setting up relu6
I0520 22:03:07.557055 20989 net.cpp:157] Top shape: 360 98 (35280)
I0520 22:03:07.557065 20989 net.cpp:165] Memory required for data: 568188000
I0520 22:03:07.557075 20989 layer_factory.hpp:77] Creating layer drop2
I0520 22:03:07.557088 20989 net.cpp:106] Creating Layer drop2
I0520 22:03:07.557099 20989 net.cpp:454] drop2 <- ip2
I0520 22:03:07.557111 20989 net.cpp:397] drop2 -> ip2 (in-place)
I0520 22:03:07.557153 20989 net.cpp:150] Setting up drop2
I0520 22:03:07.557166 20989 net.cpp:157] Top shape: 360 98 (35280)
I0520 22:03:07.557178 20989 net.cpp:165] Memory required for data: 568329120
I0520 22:03:07.557188 20989 layer_factory.hpp:77] Creating layer ip3
I0520 22:03:07.557199 20989 net.cpp:106] Creating Layer ip3
I0520 22:03:07.557209 20989 net.cpp:454] ip3 <- ip2
I0520 22:03:07.557221 20989 net.cpp:411] ip3 -> ip3
I0520 22:03:07.557432 20989 net.cpp:150] Setting up ip3
I0520 22:03:07.557446 20989 net.cpp:157] Top shape: 360 11 (3960)
I0520 22:03:07.557456 20989 net.cpp:165] Memory required for data: 568344960
I0520 22:03:07.557471 20989 layer_factory.hpp:77] Creating layer drop3
I0520 22:03:07.557483 20989 net.cpp:106] Creating Layer drop3
I0520 22:03:07.557492 20989 net.cpp:454] drop3 <- ip3
I0520 22:03:07.557504 20989 net.cpp:397] drop3 -> ip3 (in-place)
I0520 22:03:07.557543 20989 net.cpp:150] Setting up drop3
I0520 22:03:07.557556 20989 net.cpp:157] Top shape: 360 11 (3960)
I0520 22:03:07.557566 20989 net.cpp:165] Memory required for data: 568360800
I0520 22:03:07.557576 20989 layer_factory.hpp:77] Creating layer loss
I0520 22:03:07.557595 20989 net.cpp:106] Creating Layer loss
I0520 22:03:07.557605 20989 net.cpp:454] loss <- ip3
I0520 22:03:07.557617 20989 net.cpp:454] loss <- label
I0520 22:03:07.557629 20989 net.cpp:411] loss -> loss
I0520 22:03:07.557646 20989 layer_factory.hpp:77] Creating layer loss
…
I0520 22:03:07.568634 20989 solver.cpp:181] Creating test net (#0) specified by net file: /lustre/atlas/proj-shared/hep105/caffe_titan/caffe_workflow/logs_batch_size_test/batch_size_360_2016-05-20T11.20.45.815822.prototxt
I0520 22:03:07.568713 20989 net.cpp:322] The NetState phase (1) differed from the phase (0) specified by a rule in layer data_hdf5
I0520 22:03:07.569072 20989 net.cpp:49] Initializing net from parameters: 
name: "caffe_test_127x50_x_unshifted"
state {
  phase: TEST
}
layer {
  name: "data_hdf5"
  type: "HDF5Data"
  top: "data"
  top: "label"
  include {
    phase: TEST
  }
  hdf5_data_param {
    source: "/lustre/atlas/proj-shared/hep105/caffe_titan/minosmatch_nukecczdefs_127x50_x_unshifted_me1Bmc.testlist"
    batch_size: 360
  }
}
layer {
  name: "conv1"
  type: "Convolution"
  bottom: "data"
  top: "conv1"
  convolution_param {
    num_output: 12
    pad: 0
    stride: 1
    weight_filler {
      type: "xavier"
    }
    bias_filler {
      type: "constant"
    }
    kernel_h: 8
    kernel_w: 3
  }
}
layer {
  name: "relu1"
  type: "ReLU"
  bottom: "conv1"
  top: "conv1"
}
layer {
  name: "pool1"
  type: "Pooling"
  bottom: "conv1"
  top: "pool1"
  pooling_param {
    pool: MAX
    kernel_h: 2
    kernel_w: 1
    stride_h: 2
    stride_w: 1
  }
}
layer {
  name: "conv2"
  type: "Convolution"
  bottom: "pool1"
  top: "conv2"
  convolution_param {
    num_output: 20
    pad: 0
    stride: 1
    weight_filler {
      type: "xavier"
    }
    bias_filler {
      type: "constant"
    }
    kernel_h: 7
    kernel_w: 3
  }
}
layer {
  name: "relu2"
  type: "ReLU"
  bottom: "conv2"
  top: "conv2"
}
layer {
  name: "pool2"
  type: "Pooling"
  bottom: "conv2"
  top: "pool2"
  pooling_param {
    pool: MAX
    kernel_h: 2
    kernel_w: 1
    stride_h: 2
    stride_w: 1
  }
}
layer {
  name: "conv3"
  type: "Convolution"
  bottom: "pool2"
  top: "conv3"
  convolution_param {
    num_output: 28
    pad: 0
    stride: 1
    weight_filler {
      type: "xavier"
    }
    bias_filler {
      type: "constant"
    }
    kernel_h: 6
    kernel_w: 3
  }
}
layer {
  name: "relu3"
  type: "ReLU"
  bottom: "conv3"
  top: "conv3"
}
layer {
  name: "pool3"
  type: "Pooling"
  bottom: "conv3"
  top: "pool3"
  pooling_param {
    pool: MAX
    kernel_h: 2
    kernel_w: 1
    stride_h: 2
    stride_w: 1
  }
}
layer {
  name: "conv4"
  type: "Convolution"
  bottom: "pool3"
  top: "conv4"
  convolution_param {
    num_output: 36
    pad: 0
    stride: 1
    weight_filler {
      type: "xavier"
    }
    bias_filler {
      type: "constant"
    }
    kernel_h: 6
    kernel_w: 3
  }
}
layer {
  name: "relu4"
  type: "ReLU"
  bottom: "conv4"
  top: "conv4"
}
layer {
  name: "pool4"
  type: "Pooling"
  bottom: "conv4"
  top: "pool4"
  pooling_param {
    pool: MAX
    kernel_h: 2
    kernel_w: 1
    stride_h: 2
    stride_w: 1
  }
}
layer {
  name: "ip1"
  type: "InnerProduct"
  bottom: "pool4"
  top: "ip1"
  inner_product_param {
    num_output: 196
    weight_filler {
      type: "xavier"
    }
    bias_filler {
      type: "constant"
    }
  }
}
layer {
  name: "relu5"
  type: "ReLU"
  bottom: "ip1"
  top: "ip1"
}
layer {
  name: "drop1"
  type: "Dropout"
  bottom: "ip1"
  top: "ip1"
  dropout_param {
    dropout_ratio: 0.5
  }
}
layer {
  name: "ip2"
  type: "InnerProduct"
  bottom: "ip1"
  top: "ip2"
  inner_product_param {
    num_output: 98
    weight_filler {
      type: "xavier"
    }
    bias_filler {
      type: "constant"
    }
  }
}
layer {
  name: "relu6"
  type: "ReLU"
  bottom: "ip2"
  top: "ip2"
}
layer {
  name: "drop2"
  type: "Dropout"
  bottom: "ip2"
  top: "ip2"
  dropout_param {
    dropout_ratio: 0.5
  }
}
layer {
  name: "ip3"
  type: "InnerProduct"
  bottom: "ip2"
  top: "ip3"
  inner_product_param {
    num_output: 11
    weight_filler {
      type: "xavier"
    }
    bias_filler {
      type: "constant"
    }
  }
}
layer {
  name: "drop3"
  type: "Dropout"
  bottom: "ip3"
  top: "ip3"
  dropout_param {
    dropout_ratio: 0.5
  }
}
layer {
  name: "accuracy"
  type: "Accuracy"
  bottom: "ip3"
  bottom: "label"
  top: "accuracy"
  include {
    phase: TEST
  }
}
layer {
  name: "loss"
  type: "SoftmaxWithLoss"
  bottom: "ip3"
  bottom: "label"
  top: "loss"
}
I0520 22:03:07.569264 20989 layer_factory.hpp:77] Creating layer data_hdf5
I0520 22:03:07.569280 20989 net.cpp:106] Creating Layer data_hdf5
I0520 22:03:07.569294 20989 net.cpp:411] data_hdf5 -> data
I0520 22:03:07.569311 20989 net.cpp:411] data_hdf5 -> label
I0520 22:03:07.569327 20989 hdf5_data_layer.cpp:79] Loading list of HDF5 filenames from: /lustre/atlas/proj-shared/hep105/caffe_titan/minosmatch_nukecczdefs_127x50_x_unshifted_me1Bmc.testlist
I0520 22:03:07.577008 20989 hdf5_data_layer.cpp:93] Number of HDF5 files: 3
I0520 22:03:28.881290 20989 net.cpp:150] Setting up data_hdf5
I0520 22:03:28.881454 20989 net.cpp:157] Top shape: 360 1 127 50 (2286000)
I0520 22:03:28.881469 20989 net.cpp:157] Top shape: 360 (360)
I0520 22:03:28.881482 20989 net.cpp:165] Memory required for data: 9145440
I0520 22:03:28.881496 20989 layer_factory.hpp:77] Creating layer label_data_hdf5_1_split
I0520 22:03:28.881525 20989 net.cpp:106] Creating Layer label_data_hdf5_1_split
I0520 22:03:28.881534 20989 net.cpp:454] label_data_hdf5_1_split <- label
I0520 22:03:28.881549 20989 net.cpp:411] label_data_hdf5_1_split -> label_data_hdf5_1_split_0
I0520 22:03:28.881570 20989 net.cpp:411] label_data_hdf5_1_split -> label_data_hdf5_1_split_1
I0520 22:03:28.881642 20989 net.cpp:150] Setting up label_data_hdf5_1_split
I0520 22:03:28.881655 20989 net.cpp:157] Top shape: 360 (360)
I0520 22:03:28.881667 20989 net.cpp:157] Top shape: 360 (360)
I0520 22:03:28.881677 20989 net.cpp:165] Memory required for data: 9148320
I0520 22:03:28.881686 20989 layer_factory.hpp:77] Creating layer conv1
I0520 22:03:28.881710 20989 net.cpp:106] Creating Layer conv1
I0520 22:03:28.881721 20989 net.cpp:454] conv1 <- data
I0520 22:03:28.881734 20989 net.cpp:411] conv1 -> conv1
I0520 22:03:28.883692 20989 net.cpp:150] Setting up conv1
I0520 22:03:28.883715 20989 net.cpp:157] Top shape: 360 12 120 48 (24883200)
I0520 22:03:28.883728 20989 net.cpp:165] Memory required for data: 108681120
I0520 22:03:28.883747 20989 layer_factory.hpp:77] Creating layer relu1
I0520 22:03:28.883762 20989 net.cpp:106] Creating Layer relu1
I0520 22:03:28.883772 20989 net.cpp:454] relu1 <- conv1
I0520 22:03:28.883785 20989 net.cpp:397] relu1 -> conv1 (in-place)
I0520 22:03:28.884289 20989 net.cpp:150] Setting up relu1
I0520 22:03:28.884305 20989 net.cpp:157] Top shape: 360 12 120 48 (24883200)
I0520 22:03:28.884315 20989 net.cpp:165] Memory required for data: 208213920
I0520 22:03:28.884325 20989 layer_factory.hpp:77] Creating layer pool1
I0520 22:03:28.884341 20989 net.cpp:106] Creating Layer pool1
I0520 22:03:28.884352 20989 net.cpp:454] pool1 <- conv1
I0520 22:03:28.884364 20989 net.cpp:411] pool1 -> pool1
I0520 22:03:28.884439 20989 net.cpp:150] Setting up pool1
I0520 22:03:28.884452 20989 net.cpp:157] Top shape: 360 12 60 48 (12441600)
I0520 22:03:28.884462 20989 net.cpp:165] Memory required for data: 257980320
I0520 22:03:28.884470 20989 layer_factory.hpp:77] Creating layer conv2
I0520 22:03:28.884490 20989 net.cpp:106] Creating Layer conv2
I0520 22:03:28.884500 20989 net.cpp:454] conv2 <- pool1
I0520 22:03:28.884515 20989 net.cpp:411] conv2 -> conv2
I0520 22:03:28.886426 20989 net.cpp:150] Setting up conv2
I0520 22:03:28.886448 20989 net.cpp:157] Top shape: 360 20 54 46 (17884800)
I0520 22:03:28.886461 20989 net.cpp:165] Memory required for data: 329519520
I0520 22:03:28.886479 20989 layer_factory.hpp:77] Creating layer relu2
I0520 22:03:28.886492 20989 net.cpp:106] Creating Layer relu2
I0520 22:03:28.886502 20989 net.cpp:454] relu2 <- conv2
I0520 22:03:28.886514 20989 net.cpp:397] relu2 -> conv2 (in-place)
I0520 22:03:28.886847 20989 net.cpp:150] Setting up relu2
I0520 22:03:28.886860 20989 net.cpp:157] Top shape: 360 20 54 46 (17884800)
I0520 22:03:28.886870 20989 net.cpp:165] Memory required for data: 401058720
I0520 22:03:28.886880 20989 layer_factory.hpp:77] Creating layer pool2
I0520 22:03:28.886893 20989 net.cpp:106] Creating Layer pool2
I0520 22:03:28.886904 20989 net.cpp:454] pool2 <- conv2
I0520 22:03:28.886916 20989 net.cpp:411] pool2 -> pool2
I0520 22:03:28.886987 20989 net.cpp:150] Setting up pool2
I0520 22:03:28.887001 20989 net.cpp:157] Top shape: 360 20 27 46 (8942400)
I0520 22:03:28.887009 20989 net.cpp:165] Memory required for data: 436828320
I0520 22:03:28.887020 20989 layer_factory.hpp:77] Creating layer conv3
I0520 22:03:28.887039 20989 net.cpp:106] Creating Layer conv3
I0520 22:03:28.887049 20989 net.cpp:454] conv3 <- pool2
I0520 22:03:28.887063 20989 net.cpp:411] conv3 -> conv3
I0520 22:03:28.889076 20989 net.cpp:150] Setting up conv3
I0520 22:03:28.889099 20989 net.cpp:157] Top shape: 360 28 22 44 (9757440)
I0520 22:03:28.889112 20989 net.cpp:165] Memory required for data: 475858080
I0520 22:03:28.889144 20989 layer_factory.hpp:77] Creating layer relu3
I0520 22:03:28.889158 20989 net.cpp:106] Creating Layer relu3
I0520 22:03:28.889168 20989 net.cpp:454] relu3 <- conv3
I0520 22:03:28.889183 20989 net.cpp:397] relu3 -> conv3 (in-place)
I0520 22:03:28.889658 20989 net.cpp:150] Setting up relu3
I0520 22:03:28.889674 20989 net.cpp:157] Top shape: 360 28 22 44 (9757440)
I0520 22:03:28.889684 20989 net.cpp:165] Memory required for data: 514887840
I0520 22:03:28.889694 20989 layer_factory.hpp:77] Creating layer pool3
I0520 22:03:28.889708 20989 net.cpp:106] Creating Layer pool3
I0520 22:03:28.889719 20989 net.cpp:454] pool3 <- conv3
I0520 22:03:28.889730 20989 net.cpp:411] pool3 -> pool3
I0520 22:03:28.889802 20989 net.cpp:150] Setting up pool3
I0520 22:03:28.889816 20989 net.cpp:157] Top shape: 360 28 11 44 (4878720)
I0520 22:03:28.889825 20989 net.cpp:165] Memory required for data: 534402720
I0520 22:03:28.889834 20989 layer_factory.hpp:77] Creating layer conv4
I0520 22:03:28.889853 20989 net.cpp:106] Creating Layer conv4
I0520 22:03:28.889863 20989 net.cpp:454] conv4 <- pool3
I0520 22:03:28.889878 20989 net.cpp:411] conv4 -> conv4
I0520 22:03:28.891933 20989 net.cpp:150] Setting up conv4
I0520 22:03:28.891955 20989 net.cpp:157] Top shape: 360 36 6 42 (3265920)
I0520 22:03:28.891968 20989 net.cpp:165] Memory required for data: 547466400
I0520 22:03:28.891983 20989 layer_factory.hpp:77] Creating layer relu4
I0520 22:03:28.891996 20989 net.cpp:106] Creating Layer relu4
I0520 22:03:28.892006 20989 net.cpp:454] relu4 <- conv4
I0520 22:03:28.892019 20989 net.cpp:397] relu4 -> conv4 (in-place)
I0520 22:03:28.892493 20989 net.cpp:150] Setting up relu4
I0520 22:03:28.892508 20989 net.cpp:157] Top shape: 360 36 6 42 (3265920)
I0520 22:03:28.892518 20989 net.cpp:165] Memory required for data: 560530080
I0520 22:03:28.892529 20989 layer_factory.hpp:77] Creating layer pool4
I0520 22:03:28.892541 20989 net.cpp:106] Creating Layer pool4
I0520 22:03:28.892551 20989 net.cpp:454] pool4 <- conv4
I0520 22:03:28.892565 20989 net.cpp:411] pool4 -> pool4
I0520 22:03:28.892637 20989 net.cpp:150] Setting up pool4
I0520 22:03:28.892649 20989 net.cpp:157] Top shape: 360 36 3 42 (1632960)
I0520 22:03:28.892659 20989 net.cpp:165] Memory required for data: 567061920
I0520 22:03:28.892669 20989 layer_factory.hpp:77] Creating layer ip1
I0520 22:03:28.892684 20989 net.cpp:106] Creating Layer ip1
I0520 22:03:28.892695 20989 net.cpp:454] ip1 <- pool4
I0520 22:03:28.892709 20989 net.cpp:411] ip1 -> ip1
I0520 22:03:28.908241 20989 net.cpp:150] Setting up ip1
I0520 22:03:28.908269 20989 net.cpp:157] Top shape: 360 196 (70560)
I0520 22:03:28.908282 20989 net.cpp:165] Memory required for data: 567344160
I0520 22:03:28.908303 20989 layer_factory.hpp:77] Creating layer relu5
I0520 22:03:28.908318 20989 net.cpp:106] Creating Layer relu5
I0520 22:03:28.908329 20989 net.cpp:454] relu5 <- ip1
I0520 22:03:28.908344 20989 net.cpp:397] relu5 -> ip1 (in-place)
I0520 22:03:28.908689 20989 net.cpp:150] Setting up relu5
I0520 22:03:28.908704 20989 net.cpp:157] Top shape: 360 196 (70560)
I0520 22:03:28.908713 20989 net.cpp:165] Memory required for data: 567626400
I0520 22:03:28.908725 20989 layer_factory.hpp:77] Creating layer drop1
I0520 22:03:28.908742 20989 net.cpp:106] Creating Layer drop1
I0520 22:03:28.908752 20989 net.cpp:454] drop1 <- ip1
I0520 22:03:28.908766 20989 net.cpp:397] drop1 -> ip1 (in-place)
I0520 22:03:28.908810 20989 net.cpp:150] Setting up drop1
I0520 22:03:28.908823 20989 net.cpp:157] Top shape: 360 196 (70560)
I0520 22:03:28.908833 20989 net.cpp:165] Memory required for data: 567908640
I0520 22:03:28.908845 20989 layer_factory.hpp:77] Creating layer ip2
I0520 22:03:28.908859 20989 net.cpp:106] Creating Layer ip2
I0520 22:03:28.908869 20989 net.cpp:454] ip2 <- ip1
I0520 22:03:28.908884 20989 net.cpp:411] ip2 -> ip2
I0520 22:03:28.909365 20989 net.cpp:150] Setting up ip2
I0520 22:03:28.909379 20989 net.cpp:157] Top shape: 360 98 (35280)
I0520 22:03:28.909389 20989 net.cpp:165] Memory required for data: 568049760
I0520 22:03:28.909416 20989 layer_factory.hpp:77] Creating layer relu6
I0520 22:03:28.909430 20989 net.cpp:106] Creating Layer relu6
I0520 22:03:28.909440 20989 net.cpp:454] relu6 <- ip2
I0520 22:03:28.909451 20989 net.cpp:397] relu6 -> ip2 (in-place)
I0520 22:03:28.909989 20989 net.cpp:150] Setting up relu6
I0520 22:03:28.910006 20989 net.cpp:157] Top shape: 360 98 (35280)
I0520 22:03:28.910015 20989 net.cpp:165] Memory required for data: 568190880
I0520 22:03:28.910025 20989 layer_factory.hpp:77] Creating layer drop2
I0520 22:03:28.910038 20989 net.cpp:106] Creating Layer drop2
I0520 22:03:28.910049 20989 net.cpp:454] drop2 <- ip2
I0520 22:03:28.910063 20989 net.cpp:397] drop2 -> ip2 (in-place)
I0520 22:03:28.910106 20989 net.cpp:150] Setting up drop2
I0520 22:03:28.910120 20989 net.cpp:157] Top shape: 360 98 (35280)
I0520 22:03:28.910130 20989 net.cpp:165] Memory required for data: 568332000
I0520 22:03:28.910140 20989 layer_factory.hpp:77] Creating layer ip3
I0520 22:03:28.910153 20989 net.cpp:106] Creating Layer ip3
I0520 22:03:28.910163 20989 net.cpp:454] ip3 <- ip2
I0520 22:03:28.910177 20989 net.cpp:411] ip3 -> ip3
I0520 22:03:28.910400 20989 net.cpp:150] Setting up ip3
I0520 22:03:28.910413 20989 net.cpp:157] Top shape: 360 11 (3960)
I0520 22:03:28.910423 20989 net.cpp:165] Memory required for data: 568347840
I0520 22:03:28.910439 20989 layer_factory.hpp:77] Creating layer drop3
I0520 22:03:28.910451 20989 net.cpp:106] Creating Layer drop3
I0520 22:03:28.910461 20989 net.cpp:454] drop3 <- ip3
I0520 22:03:28.910475 20989 net.cpp:397] drop3 -> ip3 (in-place)
I0520 22:03:28.910516 20989 net.cpp:150] Setting up drop3
I0520 22:03:28.910528 20989 net.cpp:157] Top shape: 360 11 (3960)
I0520 22:03:28.910538 20989 net.cpp:165] Memory required for data: 568363680
I0520 22:03:28.910548 20989 layer_factory.hpp:77] Creating layer ip3_drop3_0_split
I0520 22:03:28.910562 20989 net.cpp:106] Creating Layer ip3_drop3_0_split
I0520 22:03:28.910570 20989 net.cpp:454] ip3_drop3_0_split <- ip3
I0520 22:03:28.910583 20989 net.cpp:411] ip3_drop3_0_split -> ip3_drop3_0_split_0
I0520 22:03:28.910599 20989 net.cpp:411] ip3_drop3_0_split -> ip3_drop3_0_split_1
I0520 22:03:28.910672 20989 net.cpp:150] Setting up ip3_drop3_0_split
I0520 22:03:28.910686 20989 net.cpp:157] Top shape: 360 11 (3960)
I0520 22:03:28.910698 20989 net.cpp:157] Top shape: 360 11 (3960)
I0520 22:03:28.910708 20989 net.cpp:165] Memory required for data: 568395360
I0520 22:03:28.910717 20989 layer_factory.hpp:77] Creating layer accuracy
I0520 22:03:28.910739 20989 net.cpp:106] Creating Layer accuracy
I0520 22:03:28.910749 20989 net.cpp:454] accuracy <- ip3_drop3_0_split_0
I0520 22:03:28.910760 20989 net.cpp:454] accuracy <- label_data_hdf5_1_split_0
I0520 22:03:28.910774 20989 net.cpp:411] accuracy -> accuracy
…
