…
I0521 10:44:55.172590  3334 net.cpp:322] The NetState phase (0) differed from the phase (1) specified by a rule in layer data_hdf5
I0521 10:44:55.172651  3334 net.cpp:322] The NetState phase (0) differed from the phase (1) specified by a rule in layer accuracy
I0521 10:44:55.173007  3334 net.cpp:49] Initializing net from parameters: 
name: "caffe_test_127x50_x_unshifted"
state {
  phase: TRAIN
}
layer {
  name: "data_hdf5"
  type: "HDF5Data"
  top: "data"
  top: "label"
  include {
    phase: TRAIN
  }
  hdf5_data_param {
    source: "/lustre/atlas/proj-shared/hep105/caffe_titan/minosmatch_nukecczdefs_127x50_x_unshifted_me1Bmc.trainlist"
    batch_size: 960
  }
}
layer {
  name: "conv1"
  type: "Convolution"
  bottom: "data"
  top: "conv1"
  convolution_param {
    num_output: 12
    pad: 0
    stride: 1
    weight_filler {
      type: "xavier"
    }
    bias_filler {
      type: "constant"
    }
    kernel_h: 8
    kernel_w: 3
  }
}
layer {
  name: "relu1"
  type: "ReLU"
  bottom: "conv1"
  top: "conv1"
}
layer {
  name: "pool1"
  type: "Pooling"
  bottom: "conv1"
  top: "pool1"
  pooling_param {
    pool: MAX
    kernel_h: 2
    kernel_w: 1
    stride_h: 2
    stride_w: 1
  }
}
layer {
  name: "conv2"
  type: "Convolution"
  bottom: "pool1"
  top: "conv2"
  convolution_param {
    num_output: 20
    pad: 0
    stride: 1
    weight_filler {
      type: "xavier"
    }
    bias_filler {
      type: "constant"
    }
    kernel_h: 7
    kernel_w: 3
  }
}
layer {
  name: "relu2"
  type: "ReLU"
  bottom: "conv2"
  top: "conv2"
}
layer {
  name: "pool2"
  type: "Pooling"
  bottom: "conv2"
  top: "pool2"
  pooling_param {
    pool: MAX
    kernel_h: 2
    kernel_w: 1
    stride_h: 2
    stride_w: 1
  }
}
layer {
  name: "conv3"
  type: "Convolution"
  bottom: "pool2"
  top: "conv3"
  convolution_param {
    num_output: 28
    pad: 0
    stride: 1
    weight_filler {
      type: "xavier"
    }
    bias_filler {
      type: "constant"
    }
    kernel_h: 6
    kernel_w: 3
  }
}
layer {
  name: "relu3"
  type: "ReLU"
  bottom: "conv3"
  top: "conv3"
}
layer {
  name: "pool3"
  type: "Pooling"
  bottom: "conv3"
  top: "pool3"
  pooling_param {
    pool: MAX
    kernel_h: 2
    kernel_w: 1
    stride_h: 2
    stride_w: 1
  }
}
layer {
  name: "conv4"
  type: "Convolution"
  bottom: "pool3"
  top: "conv4"
  convolution_param {
    num_output: 36
    pad: 0
    stride: 1
    weight_filler {
      type: "xavier"
    }
    bias_filler {
      type: "constant"
    }
    kernel_h: 6
    kernel_w: 3
  }
}
layer {
  name: "relu4"
  type: "ReLU"
  bottom: "conv4"
  top: "conv4"
}
layer {
  name: "pool4"
  type: "Pooling"
  bottom: "conv4"
  top: "pool4"
  pooling_param {
    pool: MAX
    kernel_h: 2
    kernel_w: 1
    stride_h: 2
    stride_w: 1
  }
}
layer {
  name: "ip1"
  type: "InnerProduct"
  bottom: "pool4"
  top: "ip1"
  inner_product_param {
    num_output: 196
    weight_filler {
      type: "xavier"
    }
    bias_filler {
      type: "constant"
    }
  }
}
layer {
  name: "relu5"
  type: "ReLU"
  bottom: "ip1"
  top: "ip1"
}
layer {
  name: "drop1"
  type: "Dropout"
  bottom: "ip1"
  top: "ip1"
  dropout_param {
    dropout_ratio: 0.5
  }
}
layer {
  name: "ip2"
  type: "InnerProduct"
  bottom: "ip1"
  top: "ip2"
  inner_product_param {
    num_output: 98
    weight_filler {
      type: "xavier"
    }
    bias_filler {
      type: "constant"
    }
  }
}
layer {
  name: "relu6"
  type: "ReLU"
  bottom: "ip2"
  top: "ip2"
}
layer {
  name: "drop2"
  type: "Dropout"
  bottom: "ip2"
  top: "ip2"
  dropout_param {
    dropout_ratio: 0.5
  }
}
layer {
  name: "ip3"
  type: "InnerProduct"
  bottom: "ip2"
  top: "ip3"
  inner_product_param {
    num_output: 11
    weight_filler {
      type: "xavier"
    }
    bias_filler {
      type: "constant"
    }
  }
}
layer {
  name: "drop3"
  type: "Dropout"
  bottom: "ip3"
  top: "ip3"
  dropout_param {
    dropout_ratio: 0.5
  }
}
layer {
  name: "loss"
  type: "SoftmaxWithLoss"
  bottom: "ip3"
  bottom: "label"
  top: "loss"
}
I0521 10:44:55.173183  3334 layer_factory.hpp:77] Creating layer data_hdf5
I0521 10:44:55.173207  3334 net.cpp:106] Creating Layer data_hdf5
I0521 10:44:55.173221  3334 net.cpp:411] data_hdf5 -> data
I0521 10:44:55.173254  3334 net.cpp:411] data_hdf5 -> label
I0521 10:44:55.173287  3334 hdf5_data_layer.cpp:79] Loading list of HDF5 filenames from: /lustre/atlas/proj-shared/hep105/caffe_titan/minosmatch_nukecczdefs_127x50_x_unshifted_me1Bmc.trainlist
I0521 10:44:55.174485  3334 hdf5_data_layer.cpp:93] Number of HDF5 files: 15
I0521 10:44:55.176666  3334 hdf5.cpp:32] Datatype class: H5T_FLOAT
I0521 10:45:16.702231  3334 hdf5.cpp:35] Datatype class: H5T_INTEGER
I0521 10:45:16.707321  3334 net.cpp:150] Setting up data_hdf5
I0521 10:45:16.707366  3334 net.cpp:157] Top shape: 960 1 127 50 (6096000)
I0521 10:45:16.707381  3334 net.cpp:157] Top shape: 960 (960)
I0521 10:45:16.707391  3334 net.cpp:165] Memory required for data: 24387840
I0521 10:45:16.707406  3334 layer_factory.hpp:77] Creating layer conv1
I0521 10:45:16.707439  3334 net.cpp:106] Creating Layer conv1
I0521 10:45:16.707451  3334 net.cpp:454] conv1 <- data
I0521 10:45:16.707474  3334 net.cpp:411] conv1 -> conv1
I0521 10:45:17.068613  3334 net.cpp:150] Setting up conv1
I0521 10:45:17.068658  3334 net.cpp:157] Top shape: 960 12 120 48 (66355200)
I0521 10:45:17.068670  3334 net.cpp:165] Memory required for data: 289808640
I0521 10:45:17.068701  3334 layer_factory.hpp:77] Creating layer relu1
I0521 10:45:17.068722  3334 net.cpp:106] Creating Layer relu1
I0521 10:45:17.068733  3334 net.cpp:454] relu1 <- conv1
I0521 10:45:17.068747  3334 net.cpp:397] relu1 -> conv1 (in-place)
I0521 10:45:17.069272  3334 net.cpp:150] Setting up relu1
I0521 10:45:17.069288  3334 net.cpp:157] Top shape: 960 12 120 48 (66355200)
I0521 10:45:17.069299  3334 net.cpp:165] Memory required for data: 555229440
I0521 10:45:17.069311  3334 layer_factory.hpp:77] Creating layer pool1
I0521 10:45:17.069327  3334 net.cpp:106] Creating Layer pool1
I0521 10:45:17.069337  3334 net.cpp:454] pool1 <- conv1
I0521 10:45:17.069352  3334 net.cpp:411] pool1 -> pool1
I0521 10:45:17.069433  3334 net.cpp:150] Setting up pool1
I0521 10:45:17.069447  3334 net.cpp:157] Top shape: 960 12 60 48 (33177600)
I0521 10:45:17.069458  3334 net.cpp:165] Memory required for data: 687939840
I0521 10:45:17.069468  3334 layer_factory.hpp:77] Creating layer conv2
I0521 10:45:17.069491  3334 net.cpp:106] Creating Layer conv2
I0521 10:45:17.069501  3334 net.cpp:454] conv2 <- pool1
I0521 10:45:17.069514  3334 net.cpp:411] conv2 -> conv2
I0521 10:45:17.072170  3334 net.cpp:150] Setting up conv2
I0521 10:45:17.072198  3334 net.cpp:157] Top shape: 960 20 54 46 (47692800)
I0521 10:45:17.072208  3334 net.cpp:165] Memory required for data: 878711040
I0521 10:45:17.072227  3334 layer_factory.hpp:77] Creating layer relu2
I0521 10:45:17.072242  3334 net.cpp:106] Creating Layer relu2
I0521 10:45:17.072252  3334 net.cpp:454] relu2 <- conv2
I0521 10:45:17.072265  3334 net.cpp:397] relu2 -> conv2 (in-place)
I0521 10:45:17.072594  3334 net.cpp:150] Setting up relu2
I0521 10:45:17.072608  3334 net.cpp:157] Top shape: 960 20 54 46 (47692800)
I0521 10:45:17.072619  3334 net.cpp:165] Memory required for data: 1069482240
I0521 10:45:17.072630  3334 layer_factory.hpp:77] Creating layer pool2
I0521 10:45:17.072643  3334 net.cpp:106] Creating Layer pool2
I0521 10:45:17.072652  3334 net.cpp:454] pool2 <- conv2
I0521 10:45:17.072679  3334 net.cpp:411] pool2 -> pool2
I0521 10:45:17.072746  3334 net.cpp:150] Setting up pool2
I0521 10:45:17.072759  3334 net.cpp:157] Top shape: 960 20 27 46 (23846400)
I0521 10:45:17.072769  3334 net.cpp:165] Memory required for data: 1164867840
I0521 10:45:17.072777  3334 layer_factory.hpp:77] Creating layer conv3
I0521 10:45:17.072796  3334 net.cpp:106] Creating Layer conv3
I0521 10:45:17.072806  3334 net.cpp:454] conv3 <- pool2
I0521 10:45:17.072821  3334 net.cpp:411] conv3 -> conv3
I0521 10:45:17.074743  3334 net.cpp:150] Setting up conv3
I0521 10:45:17.074766  3334 net.cpp:157] Top shape: 960 28 22 44 (26019840)
I0521 10:45:17.074776  3334 net.cpp:165] Memory required for data: 1268947200
I0521 10:45:17.074796  3334 layer_factory.hpp:77] Creating layer relu3
I0521 10:45:17.074813  3334 net.cpp:106] Creating Layer relu3
I0521 10:45:17.074823  3334 net.cpp:454] relu3 <- conv3
I0521 10:45:17.074836  3334 net.cpp:397] relu3 -> conv3 (in-place)
I0521 10:45:17.075301  3334 net.cpp:150] Setting up relu3
I0521 10:45:17.075320  3334 net.cpp:157] Top shape: 960 28 22 44 (26019840)
I0521 10:45:17.075330  3334 net.cpp:165] Memory required for data: 1373026560
I0521 10:45:17.075340  3334 layer_factory.hpp:77] Creating layer pool3
I0521 10:45:17.075353  3334 net.cpp:106] Creating Layer pool3
I0521 10:45:17.075363  3334 net.cpp:454] pool3 <- conv3
I0521 10:45:17.075376  3334 net.cpp:411] pool3 -> pool3
I0521 10:45:17.075443  3334 net.cpp:150] Setting up pool3
I0521 10:45:17.075456  3334 net.cpp:157] Top shape: 960 28 11 44 (13009920)
I0521 10:45:17.075466  3334 net.cpp:165] Memory required for data: 1425066240
I0521 10:45:17.075474  3334 layer_factory.hpp:77] Creating layer conv4
I0521 10:45:17.075491  3334 net.cpp:106] Creating Layer conv4
I0521 10:45:17.075501  3334 net.cpp:454] conv4 <- pool3
I0521 10:45:17.075515  3334 net.cpp:411] conv4 -> conv4
I0521 10:45:17.078235  3334 net.cpp:150] Setting up conv4
I0521 10:45:17.078263  3334 net.cpp:157] Top shape: 960 36 6 42 (8709120)
I0521 10:45:17.078274  3334 net.cpp:165] Memory required for data: 1459902720
I0521 10:45:17.078289  3334 layer_factory.hpp:77] Creating layer relu4
I0521 10:45:17.078305  3334 net.cpp:106] Creating Layer relu4
I0521 10:45:17.078315  3334 net.cpp:454] relu4 <- conv4
I0521 10:45:17.078327  3334 net.cpp:397] relu4 -> conv4 (in-place)
I0521 10:45:17.078789  3334 net.cpp:150] Setting up relu4
I0521 10:45:17.078805  3334 net.cpp:157] Top shape: 960 36 6 42 (8709120)
I0521 10:45:17.078816  3334 net.cpp:165] Memory required for data: 1494739200
I0521 10:45:17.078826  3334 layer_factory.hpp:77] Creating layer pool4
I0521 10:45:17.078840  3334 net.cpp:106] Creating Layer pool4
I0521 10:45:17.078850  3334 net.cpp:454] pool4 <- conv4
I0521 10:45:17.078862  3334 net.cpp:411] pool4 -> pool4
I0521 10:45:17.078930  3334 net.cpp:150] Setting up pool4
I0521 10:45:17.078943  3334 net.cpp:157] Top shape: 960 36 3 42 (4354560)
I0521 10:45:17.078954  3334 net.cpp:165] Memory required for data: 1512157440
I0521 10:45:17.078963  3334 layer_factory.hpp:77] Creating layer ip1
I0521 10:45:17.078984  3334 net.cpp:106] Creating Layer ip1
I0521 10:45:17.078995  3334 net.cpp:454] ip1 <- pool4
I0521 10:45:17.079010  3334 net.cpp:411] ip1 -> ip1
I0521 10:45:17.094491  3334 net.cpp:150] Setting up ip1
I0521 10:45:17.094521  3334 net.cpp:157] Top shape: 960 196 (188160)
I0521 10:45:17.094532  3334 net.cpp:165] Memory required for data: 1512910080
I0521 10:45:17.094560  3334 layer_factory.hpp:77] Creating layer relu5
I0521 10:45:17.094575  3334 net.cpp:106] Creating Layer relu5
I0521 10:45:17.094586  3334 net.cpp:454] relu5 <- ip1
I0521 10:45:17.094599  3334 net.cpp:397] relu5 -> ip1 (in-place)
I0521 10:45:17.094941  3334 net.cpp:150] Setting up relu5
I0521 10:45:17.094955  3334 net.cpp:157] Top shape: 960 196 (188160)
I0521 10:45:17.094965  3334 net.cpp:165] Memory required for data: 1513662720
I0521 10:45:17.094976  3334 layer_factory.hpp:77] Creating layer drop1
I0521 10:45:17.094997  3334 net.cpp:106] Creating Layer drop1
I0521 10:45:17.095007  3334 net.cpp:454] drop1 <- ip1
I0521 10:45:17.095033  3334 net.cpp:397] drop1 -> ip1 (in-place)
I0521 10:45:17.095079  3334 net.cpp:150] Setting up drop1
I0521 10:45:17.095093  3334 net.cpp:157] Top shape: 960 196 (188160)
I0521 10:45:17.095103  3334 net.cpp:165] Memory required for data: 1514415360
I0521 10:45:17.095113  3334 layer_factory.hpp:77] Creating layer ip2
I0521 10:45:17.095130  3334 net.cpp:106] Creating Layer ip2
I0521 10:45:17.095141  3334 net.cpp:454] ip2 <- ip1
I0521 10:45:17.095155  3334 net.cpp:411] ip2 -> ip2
I0521 10:45:17.095618  3334 net.cpp:150] Setting up ip2
I0521 10:45:17.095631  3334 net.cpp:157] Top shape: 960 98 (94080)
I0521 10:45:17.095641  3334 net.cpp:165] Memory required for data: 1514791680
I0521 10:45:17.095656  3334 layer_factory.hpp:77] Creating layer relu6
I0521 10:45:17.095669  3334 net.cpp:106] Creating Layer relu6
I0521 10:45:17.095679  3334 net.cpp:454] relu6 <- ip2
I0521 10:45:17.095690  3334 net.cpp:397] relu6 -> ip2 (in-place)
I0521 10:45:17.096207  3334 net.cpp:150] Setting up relu6
I0521 10:45:17.096223  3334 net.cpp:157] Top shape: 960 98 (94080)
I0521 10:45:17.096235  3334 net.cpp:165] Memory required for data: 1515168000
I0521 10:45:17.096245  3334 layer_factory.hpp:77] Creating layer drop2
I0521 10:45:17.096258  3334 net.cpp:106] Creating Layer drop2
I0521 10:45:17.096268  3334 net.cpp:454] drop2 <- ip2
I0521 10:45:17.096281  3334 net.cpp:397] drop2 -> ip2 (in-place)
I0521 10:45:17.096323  3334 net.cpp:150] Setting up drop2
I0521 10:45:17.096336  3334 net.cpp:157] Top shape: 960 98 (94080)
I0521 10:45:17.096346  3334 net.cpp:165] Memory required for data: 1515544320
I0521 10:45:17.096356  3334 layer_factory.hpp:77] Creating layer ip3
I0521 10:45:17.096370  3334 net.cpp:106] Creating Layer ip3
I0521 10:45:17.096380  3334 net.cpp:454] ip3 <- ip2
I0521 10:45:17.096393  3334 net.cpp:411] ip3 -> ip3
I0521 10:45:17.096606  3334 net.cpp:150] Setting up ip3
I0521 10:45:17.096619  3334 net.cpp:157] Top shape: 960 11 (10560)
I0521 10:45:17.096629  3334 net.cpp:165] Memory required for data: 1515586560
I0521 10:45:17.096644  3334 layer_factory.hpp:77] Creating layer drop3
I0521 10:45:17.096657  3334 net.cpp:106] Creating Layer drop3
I0521 10:45:17.096667  3334 net.cpp:454] drop3 <- ip3
I0521 10:45:17.096678  3334 net.cpp:397] drop3 -> ip3 (in-place)
I0521 10:45:17.096717  3334 net.cpp:150] Setting up drop3
I0521 10:45:17.096730  3334 net.cpp:157] Top shape: 960 11 (10560)
I0521 10:45:17.096740  3334 net.cpp:165] Memory required for data: 1515628800
I0521 10:45:17.096750  3334 layer_factory.hpp:77] Creating layer loss
I0521 10:45:17.096770  3334 net.cpp:106] Creating Layer loss
I0521 10:45:17.096779  3334 net.cpp:454] loss <- ip3
I0521 10:45:17.096791  3334 net.cpp:454] loss <- label
I0521 10:45:17.096803  3334 net.cpp:411] loss -> loss
I0521 10:45:17.096820  3334 layer_factory.hpp:77] Creating layer loss
…
I0521 10:45:17.099424  3334 solver.cpp:181] Creating test net (#0) specified by net file: /lustre/atlas/proj-shared/hep105/caffe_titan/caffe_workflow/logs_batch_size_test/batch_size_960_2016-05-20T11.21.07.708850.prototxt
I0521 10:45:17.099496  3334 net.cpp:322] The NetState phase (1) differed from the phase (0) specified by a rule in layer data_hdf5
I0521 10:45:17.099853  3334 net.cpp:49] Initializing net from parameters: 
name: "caffe_test_127x50_x_unshifted"
state {
  phase: TEST
}
layer {
  name: "data_hdf5"
  type: "HDF5Data"
  top: "data"
  top: "label"
  include {
    phase: TEST
  }
  hdf5_data_param {
    source: "/lustre/atlas/proj-shared/hep105/caffe_titan/minosmatch_nukecczdefs_127x50_x_unshifted_me1Bmc.testlist"
    batch_size: 960
  }
}
layer {
  name: "conv1"
  type: "Convolution"
  bottom: "data"
  top: "conv1"
  convolution_param {
    num_output: 12
    pad: 0
    stride: 1
    weight_filler {
      type: "xavier"
    }
    bias_filler {
      type: "constant"
    }
    kernel_h: 8
    kernel_w: 3
  }
}
layer {
  name: "relu1"
  type: "ReLU"
  bottom: "conv1"
  top: "conv1"
}
layer {
  name: "pool1"
  type: "Pooling"
  bottom: "conv1"
  top: "pool1"
  pooling_param {
    pool: MAX
    kernel_h: 2
    kernel_w: 1
    stride_h: 2
    stride_w: 1
  }
}
layer {
  name: "conv2"
  type: "Convolution"
  bottom: "pool1"
  top: "conv2"
  convolution_param {
    num_output: 20
    pad: 0
    stride: 1
    weight_filler {
      type: "xavier"
    }
    bias_filler {
      type: "constant"
    }
    kernel_h: 7
    kernel_w: 3
  }
}
layer {
  name: "relu2"
  type: "ReLU"
  bottom: "conv2"
  top: "conv2"
}
layer {
  name: "pool2"
  type: "Pooling"
  bottom: "conv2"
  top: "pool2"
  pooling_param {
    pool: MAX
    kernel_h: 2
    kernel_w: 1
    stride_h: 2
    stride_w: 1
  }
}
layer {
  name: "conv3"
  type: "Convolution"
  bottom: "pool2"
  top: "conv3"
  convolution_param {
    num_output: 28
    pad: 0
    stride: 1
    weight_filler {
      type: "xavier"
    }
    bias_filler {
      type: "constant"
    }
    kernel_h: 6
    kernel_w: 3
  }
}
layer {
  name: "relu3"
  type: "ReLU"
  bottom: "conv3"
  top: "conv3"
}
layer {
  name: "pool3"
  type: "Pooling"
  bottom: "conv3"
  top: "pool3"
  pooling_param {
    pool: MAX
    kernel_h: 2
    kernel_w: 1
    stride_h: 2
    stride_w: 1
  }
}
layer {
  name: "conv4"
  type: "Convolution"
  bottom: "pool3"
  top: "conv4"
  convolution_param {
    num_output: 36
    pad: 0
    stride: 1
    weight_filler {
      type: "xavier"
    }
    bias_filler {
      type: "constant"
    }
    kernel_h: 6
    kernel_w: 3
  }
}
layer {
  name: "relu4"
  type: "ReLU"
  bottom: "conv4"
  top: "conv4"
}
layer {
  name: "pool4"
  type: "Pooling"
  bottom: "conv4"
  top: "pool4"
  pooling_param {
    pool: MAX
    kernel_h: 2
    kernel_w: 1
    stride_h: 2
    stride_w: 1
  }
}
layer {
  name: "ip1"
  type: "InnerProduct"
  bottom: "pool4"
  top: "ip1"
  inner_product_param {
    num_output: 196
    weight_filler {
      type: "xavier"
    }
    bias_filler {
      type: "constant"
    }
  }
}
layer {
  name: "relu5"
  type: "ReLU"
  bottom: "ip1"
  top: "ip1"
}
layer {
  name: "drop1"
  type: "Dropout"
  bottom: "ip1"
  top: "ip1"
  dropout_param {
    dropout_ratio: 0.5
  }
}
layer {
  name: "ip2"
  type: "InnerProduct"
  bottom: "ip1"
  top: "ip2"
  inner_product_param {
    num_output: 98
    weight_filler {
      type: "xavier"
    }
    bias_filler {
      type: "constant"
    }
  }
}
layer {
  name: "relu6"
  type: "ReLU"
  bottom: "ip2"
  top: "ip2"
}
layer {
  name: "drop2"
  type: "Dropout"
  bottom: "ip2"
  top: "ip2"
  dropout_param {
    dropout_ratio: 0.5
  }
}
layer {
  name: "ip3"
  type: "InnerProduct"
  bottom: "ip2"
  top: "ip3"
  inner_product_param {
    num_output: 11
    weight_filler {
      type: "xavier"
    }
    bias_filler {
      type: "constant"
    }
  }
}
layer {
  name: "drop3"
  type: "Dropout"
  bottom: "ip3"
  top: "ip3"
  dropout_param {
    dropout_ratio: 0.5
  }
}
layer {
  name: "accuracy"
  type: "Accuracy"
  bottom: "ip3"
  bottom: "label"
  top: "accuracy"
  include {
    phase: TEST
  }
}
layer {
  name: "loss"
  type: "SoftmaxWithLoss"
  bottom: "ip3"
  bottom: "label"
  top: "loss"
}
I0521 10:45:17.100041  3334 layer_factory.hpp:77] Creating layer data_hdf5
I0521 10:45:17.100056  3334 net.cpp:106] Creating Layer data_hdf5
I0521 10:45:17.100069  3334 net.cpp:411] data_hdf5 -> data
I0521 10:45:17.100086  3334 net.cpp:411] data_hdf5 -> label
I0521 10:45:17.100102  3334 hdf5_data_layer.cpp:79] Loading list of HDF5 filenames from: /lustre/atlas/proj-shared/hep105/caffe_titan/minosmatch_nukecczdefs_127x50_x_unshifted_me1Bmc.testlist
I0521 10:45:17.101358  3334 hdf5_data_layer.cpp:93] Number of HDF5 files: 3
I0521 10:45:38.419637  3334 net.cpp:150] Setting up data_hdf5
I0521 10:45:38.419806  3334 net.cpp:157] Top shape: 960 1 127 50 (6096000)
I0521 10:45:38.419821  3334 net.cpp:157] Top shape: 960 (960)
I0521 10:45:38.419832  3334 net.cpp:165] Memory required for data: 24387840
I0521 10:45:38.419847  3334 layer_factory.hpp:77] Creating layer label_data_hdf5_1_split
I0521 10:45:38.419874  3334 net.cpp:106] Creating Layer label_data_hdf5_1_split
I0521 10:45:38.419885  3334 net.cpp:454] label_data_hdf5_1_split <- label
I0521 10:45:38.419900  3334 net.cpp:411] label_data_hdf5_1_split -> label_data_hdf5_1_split_0
I0521 10:45:38.419922  3334 net.cpp:411] label_data_hdf5_1_split -> label_data_hdf5_1_split_1
I0521 10:45:38.419996  3334 net.cpp:150] Setting up label_data_hdf5_1_split
I0521 10:45:38.420011  3334 net.cpp:157] Top shape: 960 (960)
I0521 10:45:38.420022  3334 net.cpp:157] Top shape: 960 (960)
I0521 10:45:38.420032  3334 net.cpp:165] Memory required for data: 24395520
I0521 10:45:38.420042  3334 layer_factory.hpp:77] Creating layer conv1
I0521 10:45:38.420064  3334 net.cpp:106] Creating Layer conv1
I0521 10:45:38.420074  3334 net.cpp:454] conv1 <- data
I0521 10:45:38.420089  3334 net.cpp:411] conv1 -> conv1
I0521 10:45:38.422011  3334 net.cpp:150] Setting up conv1
I0521 10:45:38.422035  3334 net.cpp:157] Top shape: 960 12 120 48 (66355200)
I0521 10:45:38.422049  3334 net.cpp:165] Memory required for data: 289816320
I0521 10:45:38.422070  3334 layer_factory.hpp:77] Creating layer relu1
I0521 10:45:38.422085  3334 net.cpp:106] Creating Layer relu1
I0521 10:45:38.422094  3334 net.cpp:454] relu1 <- conv1
I0521 10:45:38.422107  3334 net.cpp:397] relu1 -> conv1 (in-place)
I0521 10:45:38.422600  3334 net.cpp:150] Setting up relu1
I0521 10:45:38.422616  3334 net.cpp:157] Top shape: 960 12 120 48 (66355200)
I0521 10:45:38.422626  3334 net.cpp:165] Memory required for data: 555237120
I0521 10:45:38.422636  3334 layer_factory.hpp:77] Creating layer pool1
I0521 10:45:38.422653  3334 net.cpp:106] Creating Layer pool1
I0521 10:45:38.422663  3334 net.cpp:454] pool1 <- conv1
I0521 10:45:38.422677  3334 net.cpp:411] pool1 -> pool1
I0521 10:45:38.422754  3334 net.cpp:150] Setting up pool1
I0521 10:45:38.422766  3334 net.cpp:157] Top shape: 960 12 60 48 (33177600)
I0521 10:45:38.422776  3334 net.cpp:165] Memory required for data: 687947520
I0521 10:45:38.422786  3334 layer_factory.hpp:77] Creating layer conv2
I0521 10:45:38.422804  3334 net.cpp:106] Creating Layer conv2
I0521 10:45:38.422814  3334 net.cpp:454] conv2 <- pool1
I0521 10:45:38.422829  3334 net.cpp:411] conv2 -> conv2
I0521 10:45:38.424736  3334 net.cpp:150] Setting up conv2
I0521 10:45:38.424759  3334 net.cpp:157] Top shape: 960 20 54 46 (47692800)
I0521 10:45:38.424772  3334 net.cpp:165] Memory required for data: 878718720
I0521 10:45:38.424789  3334 layer_factory.hpp:77] Creating layer relu2
I0521 10:45:38.424803  3334 net.cpp:106] Creating Layer relu2
I0521 10:45:38.424813  3334 net.cpp:454] relu2 <- conv2
I0521 10:45:38.424825  3334 net.cpp:397] relu2 -> conv2 (in-place)
I0521 10:45:38.425170  3334 net.cpp:150] Setting up relu2
I0521 10:45:38.425184  3334 net.cpp:157] Top shape: 960 20 54 46 (47692800)
I0521 10:45:38.425194  3334 net.cpp:165] Memory required for data: 1069489920
I0521 10:45:38.425204  3334 layer_factory.hpp:77] Creating layer pool2
I0521 10:45:38.425217  3334 net.cpp:106] Creating Layer pool2
I0521 10:45:38.425227  3334 net.cpp:454] pool2 <- conv2
I0521 10:45:38.425240  3334 net.cpp:411] pool2 -> pool2
I0521 10:45:38.425312  3334 net.cpp:150] Setting up pool2
I0521 10:45:38.425324  3334 net.cpp:157] Top shape: 960 20 27 46 (23846400)
I0521 10:45:38.425334  3334 net.cpp:165] Memory required for data: 1164875520
I0521 10:45:38.425344  3334 layer_factory.hpp:77] Creating layer conv3
I0521 10:45:38.425361  3334 net.cpp:106] Creating Layer conv3
I0521 10:45:38.425372  3334 net.cpp:454] conv3 <- pool2
I0521 10:45:38.425386  3334 net.cpp:411] conv3 -> conv3
I0521 10:45:38.427351  3334 net.cpp:150] Setting up conv3
I0521 10:45:38.427376  3334 net.cpp:157] Top shape: 960 28 22 44 (26019840)
I0521 10:45:38.427387  3334 net.cpp:165] Memory required for data: 1268954880
I0521 10:45:38.427419  3334 layer_factory.hpp:77] Creating layer relu3
I0521 10:45:38.427433  3334 net.cpp:106] Creating Layer relu3
I0521 10:45:38.427443  3334 net.cpp:454] relu3 <- conv3
I0521 10:45:38.427456  3334 net.cpp:397] relu3 -> conv3 (in-place)
I0521 10:45:38.427927  3334 net.cpp:150] Setting up relu3
I0521 10:45:38.427942  3334 net.cpp:157] Top shape: 960 28 22 44 (26019840)
I0521 10:45:38.427953  3334 net.cpp:165] Memory required for data: 1373034240
I0521 10:45:38.427963  3334 layer_factory.hpp:77] Creating layer pool3
I0521 10:45:38.427978  3334 net.cpp:106] Creating Layer pool3
I0521 10:45:38.427986  3334 net.cpp:454] pool3 <- conv3
I0521 10:45:38.427999  3334 net.cpp:411] pool3 -> pool3
I0521 10:45:38.428071  3334 net.cpp:150] Setting up pool3
I0521 10:45:38.428086  3334 net.cpp:157] Top shape: 960 28 11 44 (13009920)
I0521 10:45:38.428094  3334 net.cpp:165] Memory required for data: 1425073920
I0521 10:45:38.428103  3334 layer_factory.hpp:77] Creating layer conv4
I0521 10:45:38.428122  3334 net.cpp:106] Creating Layer conv4
I0521 10:45:38.428133  3334 net.cpp:454] conv4 <- pool3
I0521 10:45:38.428148  3334 net.cpp:411] conv4 -> conv4
I0521 10:45:38.430210  3334 net.cpp:150] Setting up conv4
I0521 10:45:38.430233  3334 net.cpp:157] Top shape: 960 36 6 42 (8709120)
I0521 10:45:38.430246  3334 net.cpp:165] Memory required for data: 1459910400
I0521 10:45:38.430261  3334 layer_factory.hpp:77] Creating layer relu4
I0521 10:45:38.430275  3334 net.cpp:106] Creating Layer relu4
I0521 10:45:38.430285  3334 net.cpp:454] relu4 <- conv4
I0521 10:45:38.430299  3334 net.cpp:397] relu4 -> conv4 (in-place)
I0521 10:45:38.430771  3334 net.cpp:150] Setting up relu4
I0521 10:45:38.430788  3334 net.cpp:157] Top shape: 960 36 6 42 (8709120)
I0521 10:45:38.430797  3334 net.cpp:165] Memory required for data: 1494746880
I0521 10:45:38.430807  3334 layer_factory.hpp:77] Creating layer pool4
I0521 10:45:38.430820  3334 net.cpp:106] Creating Layer pool4
I0521 10:45:38.430830  3334 net.cpp:454] pool4 <- conv4
I0521 10:45:38.430841  3334 net.cpp:411] pool4 -> pool4
I0521 10:45:38.430912  3334 net.cpp:150] Setting up pool4
I0521 10:45:38.430924  3334 net.cpp:157] Top shape: 960 36 3 42 (4354560)
I0521 10:45:38.430934  3334 net.cpp:165] Memory required for data: 1512165120
I0521 10:45:38.430944  3334 layer_factory.hpp:77] Creating layer ip1
I0521 10:45:38.430959  3334 net.cpp:106] Creating Layer ip1
I0521 10:45:38.430970  3334 net.cpp:454] ip1 <- pool4
I0521 10:45:38.430984  3334 net.cpp:411] ip1 -> ip1
I0521 10:45:38.446470  3334 net.cpp:150] Setting up ip1
I0521 10:45:38.446499  3334 net.cpp:157] Top shape: 960 196 (188160)
I0521 10:45:38.446511  3334 net.cpp:165] Memory required for data: 1512917760
I0521 10:45:38.446533  3334 layer_factory.hpp:77] Creating layer relu5
I0521 10:45:38.446548  3334 net.cpp:106] Creating Layer relu5
I0521 10:45:38.446558  3334 net.cpp:454] relu5 <- ip1
I0521 10:45:38.446571  3334 net.cpp:397] relu5 -> ip1 (in-place)
I0521 10:45:38.446918  3334 net.cpp:150] Setting up relu5
I0521 10:45:38.446933  3334 net.cpp:157] Top shape: 960 196 (188160)
I0521 10:45:38.446943  3334 net.cpp:165] Memory required for data: 1513670400
I0521 10:45:38.446954  3334 layer_factory.hpp:77] Creating layer drop1
I0521 10:45:38.446972  3334 net.cpp:106] Creating Layer drop1
I0521 10:45:38.446982  3334 net.cpp:454] drop1 <- ip1
I0521 10:45:38.446996  3334 net.cpp:397] drop1 -> ip1 (in-place)
I0521 10:45:38.447041  3334 net.cpp:150] Setting up drop1
I0521 10:45:38.447052  3334 net.cpp:157] Top shape: 960 196 (188160)
I0521 10:45:38.447063  3334 net.cpp:165] Memory required for data: 1514423040
I0521 10:45:38.447072  3334 layer_factory.hpp:77] Creating layer ip2
I0521 10:45:38.447088  3334 net.cpp:106] Creating Layer ip2
I0521 10:45:38.447098  3334 net.cpp:454] ip2 <- ip1
I0521 10:45:38.447110  3334 net.cpp:411] ip2 -> ip2
I0521 10:45:38.447590  3334 net.cpp:150] Setting up ip2
I0521 10:45:38.447604  3334 net.cpp:157] Top shape: 960 98 (94080)
I0521 10:45:38.447614  3334 net.cpp:165] Memory required for data: 1514799360
I0521 10:45:38.447643  3334 layer_factory.hpp:77] Creating layer relu6
I0521 10:45:38.447656  3334 net.cpp:106] Creating Layer relu6
I0521 10:45:38.447666  3334 net.cpp:454] relu6 <- ip2
I0521 10:45:38.447679  3334 net.cpp:397] relu6 -> ip2 (in-place)
I0521 10:45:38.448204  3334 net.cpp:150] Setting up relu6
I0521 10:45:38.448225  3334 net.cpp:157] Top shape: 960 98 (94080)
I0521 10:45:38.448235  3334 net.cpp:165] Memory required for data: 1515175680
I0521 10:45:38.448246  3334 layer_factory.hpp:77] Creating layer drop2
I0521 10:45:38.448261  3334 net.cpp:106] Creating Layer drop2
I0521 10:45:38.448271  3334 net.cpp:454] drop2 <- ip2
I0521 10:45:38.448283  3334 net.cpp:397] drop2 -> ip2 (in-place)
I0521 10:45:38.448328  3334 net.cpp:150] Setting up drop2
I0521 10:45:38.448340  3334 net.cpp:157] Top shape: 960 98 (94080)
I0521 10:45:38.448350  3334 net.cpp:165] Memory required for data: 1515552000
I0521 10:45:38.448360  3334 layer_factory.hpp:77] Creating layer ip3
I0521 10:45:38.448375  3334 net.cpp:106] Creating Layer ip3
I0521 10:45:38.448385  3334 net.cpp:454] ip3 <- ip2
I0521 10:45:38.448400  3334 net.cpp:411] ip3 -> ip3
I0521 10:45:38.448621  3334 net.cpp:150] Setting up ip3
I0521 10:45:38.448634  3334 net.cpp:157] Top shape: 960 11 (10560)
I0521 10:45:38.448645  3334 net.cpp:165] Memory required for data: 1515594240
I0521 10:45:38.448660  3334 layer_factory.hpp:77] Creating layer drop3
I0521 10:45:38.448673  3334 net.cpp:106] Creating Layer drop3
I0521 10:45:38.448683  3334 net.cpp:454] drop3 <- ip3
I0521 10:45:38.448695  3334 net.cpp:397] drop3 -> ip3 (in-place)
I0521 10:45:38.448737  3334 net.cpp:150] Setting up drop3
I0521 10:45:38.448750  3334 net.cpp:157] Top shape: 960 11 (10560)
I0521 10:45:38.448760  3334 net.cpp:165] Memory required for data: 1515636480
I0521 10:45:38.448770  3334 layer_factory.hpp:77] Creating layer ip3_drop3_0_split
I0521 10:45:38.448783  3334 net.cpp:106] Creating Layer ip3_drop3_0_split
I0521 10:45:38.448792  3334 net.cpp:454] ip3_drop3_0_split <- ip3
I0521 10:45:38.448806  3334 net.cpp:411] ip3_drop3_0_split -> ip3_drop3_0_split_0
I0521 10:45:38.448820  3334 net.cpp:411] ip3_drop3_0_split -> ip3_drop3_0_split_1
I0521 10:45:38.448894  3334 net.cpp:150] Setting up ip3_drop3_0_split
I0521 10:45:38.448909  3334 net.cpp:157] Top shape: 960 11 (10560)
I0521 10:45:38.448920  3334 net.cpp:157] Top shape: 960 11 (10560)
I0521 10:45:38.448931  3334 net.cpp:165] Memory required for data: 1515720960
I0521 10:45:38.448941  3334 layer_factory.hpp:77] Creating layer accuracy
I0521 10:45:38.448969  3334 net.cpp:106] Creating Layer accuracy
I0521 10:45:38.448979  3334 net.cpp:454] accuracy <- ip3_drop3_0_split_0
I0521 10:45:38.448992  3334 net.cpp:454] accuracy <- label_data_hdf5_1_split_0
I0521 10:45:38.449004  3334 net.cpp:411] accuracy -> accuracy
…
