…
I0520 14:16:53.923120 24538 net.cpp:322] The NetState phase (0) differed from the phase (1) specified by a rule in layer data_hdf5
I0520 14:16:53.923179 24538 net.cpp:322] The NetState phase (0) differed from the phase (1) specified by a rule in layer accuracy
I0520 14:16:53.923522 24538 net.cpp:49] Initializing net from parameters: 
name: "caffe_test_127x50_x_unshifted"
state {
  phase: TRAIN
}
layer {
  name: "data_hdf5"
  type: "HDF5Data"
  top: "data"
  top: "label"
  include {
    phase: TRAIN
  }
  hdf5_data_param {
    source: "/lustre/atlas/proj-shared/hep105/caffe_titan/minosmatch_nukecczdefs_127x50_x_unshifted_me1Bmc.trainlist"
    batch_size: 120
  }
}
layer {
  name: "conv1"
  type: "Convolution"
  bottom: "data"
  top: "conv1"
  convolution_param {
    num_output: 12
    pad: 0
    stride: 1
    weight_filler {
      type: "xavier"
    }
    bias_filler {
      type: "constant"
    }
    kernel_h: 8
    kernel_w: 3
  }
}
layer {
  name: "relu1"
  type: "ReLU"
  bottom: "conv1"
  top: "conv1"
}
layer {
  name: "pool1"
  type: "Pooling"
  bottom: "conv1"
  top: "pool1"
  pooling_param {
    pool: MAX
    kernel_h: 2
    kernel_w: 1
    stride_h: 2
    stride_w: 1
  }
}
layer {
  name: "conv2"
  type: "Convolution"
  bottom: "pool1"
  top: "conv2"
  convolution_param {
    num_output: 20
    pad: 0
    stride: 1
    weight_filler {
      type: "xavier"
    }
    bias_filler {
      type: "constant"
    }
    kernel_h: 7
    kernel_w: 3
  }
}
layer {
  name: "relu2"
  type: "ReLU"
  bottom: "conv2"
  top: "conv2"
}
layer {
  name: "pool2"
  type: "Pooling"
  bottom: "conv2"
  top: "pool2"
  pooling_param {
    pool: MAX
    kernel_h: 2
    kernel_w: 1
    stride_h: 2
    stride_w: 1
  }
}
layer {
  name: "conv3"
  type: "Convolution"
  bottom: "pool2"
  top: "conv3"
  convolution_param {
    num_output: 28
    pad: 0
    stride: 1
    weight_filler {
      type: "xavier"
    }
    bias_filler {
      type: "constant"
    }
    kernel_h: 6
    kernel_w: 3
  }
}
layer {
  name: "relu3"
  type: "ReLU"
  bottom: "conv3"
  top: "conv3"
}
layer {
  name: "pool3"
  type: "Pooling"
  bottom: "conv3"
  top: "pool3"
  pooling_param {
    pool: MAX
    kernel_h: 2
    kernel_w: 1
    stride_h: 2
    stride_w: 1
  }
}
layer {
  name: "conv4"
  type: "Convolution"
  bottom: "pool3"
  top: "conv4"
  convolution_param {
    num_output: 36
    pad: 0
    stride: 1
    weight_filler {
      type: "xavier"
    }
    bias_filler {
      type: "constant"
    }
    kernel_h: 6
    kernel_w: 3
  }
}
layer {
  name: "relu4"
  type: "ReLU"
  bottom: "conv4"
  top: "conv4"
}
layer {
  name: "pool4"
  type: "Pooling"
  bottom: "conv4"
  top: "pool4"
  pooling_param {
    pool: MAX
    kernel_h: 2
    kernel_w: 1
    stride_h: 2
    stride_w: 1
  }
}
layer {
  name: "ip1"
  type: "InnerProduct"
  bottom: "pool4"
  top: "ip1"
  inner_product_param {
    num_output: 196
    weight_filler {
      type: "xavier"
    }
    bias_filler {
      type: "constant"
    }
  }
}
layer {
  name: "relu5"
  type: "ReLU"
  bottom: "ip1"
  top: "ip1"
}
layer {
  name: "drop1"
  type: "Dropout"
  bottom: "ip1"
  top: "ip1"
  dropout_param {
    dropout_ratio: 0.5
  }
}
layer {
  name: "ip2"
  type: "InnerProduct"
  bottom: "ip1"
  top: "ip2"
  inner_product_param {
    num_output: 98
    weight_filler {
      type: "xavier"
    }
    bias_filler {
      type: "constant"
    }
  }
}
layer {
  name: "relu6"
  type: "ReLU"
  bottom: "ip2"
  top: "ip2"
}
layer {
  name: "drop2"
  type: "Dropout"
  bottom: "ip2"
  top: "ip2"
  dropout_param {
    dropout_ratio: 0.5
  }
}
layer {
  name: "ip3"
  type: "InnerProduct"
  bottom: "ip2"
  top: "ip3"
  inner_product_param {
    num_output: 11
    weight_filler {
      type: "xavier"
    }
    bias_filler {
      type: "constant"
    }
  }
}
layer {
  name: "drop3"
  type: "Dropout"
  bottom: "ip3"
  top: "ip3"
  dropout_param {
    dropout_ratio: 0.5
  }
}
layer {
  name: "loss"
  type: "SoftmaxWithLoss"
  bottom: "ip3"
  bottom: "label"
  top: "loss"
}
I0520 14:16:53.923699 24538 layer_factory.hpp:77] Creating layer data_hdf5
I0520 14:16:53.923723 24538 net.cpp:106] Creating Layer data_hdf5
I0520 14:16:53.923738 24538 net.cpp:411] data_hdf5 -> data
I0520 14:16:53.923771 24538 net.cpp:411] data_hdf5 -> label
I0520 14:16:53.923804 24538 hdf5_data_layer.cpp:79] Loading list of HDF5 filenames from: /lustre/atlas/proj-shared/hep105/caffe_titan/minosmatch_nukecczdefs_127x50_x_unshifted_me1Bmc.trainlist
I0520 14:16:53.925218 24538 hdf5_data_layer.cpp:93] Number of HDF5 files: 15
I0520 14:16:53.927438 24538 hdf5.cpp:32] Datatype class: H5T_FLOAT
I0520 14:17:15.517673 24538 hdf5.cpp:35] Datatype class: H5T_INTEGER
I0520 14:17:15.522835 24538 net.cpp:150] Setting up data_hdf5
I0520 14:17:15.522874 24538 net.cpp:157] Top shape: 120 1 127 50 (762000)
I0520 14:17:15.522888 24538 net.cpp:157] Top shape: 120 (120)
I0520 14:17:15.522902 24538 net.cpp:165] Memory required for data: 3048480
I0520 14:17:15.522915 24538 layer_factory.hpp:77] Creating layer conv1
I0520 14:17:15.522948 24538 net.cpp:106] Creating Layer conv1
I0520 14:17:15.522959 24538 net.cpp:454] conv1 <- data
I0520 14:17:15.522979 24538 net.cpp:411] conv1 -> conv1
I0520 14:17:15.893064 24538 net.cpp:150] Setting up conv1
I0520 14:17:15.893111 24538 net.cpp:157] Top shape: 120 12 120 48 (8294400)
I0520 14:17:15.893122 24538 net.cpp:165] Memory required for data: 36226080
I0520 14:17:15.893151 24538 layer_factory.hpp:77] Creating layer relu1
I0520 14:17:15.893172 24538 net.cpp:106] Creating Layer relu1
I0520 14:17:15.893183 24538 net.cpp:454] relu1 <- conv1
I0520 14:17:15.893198 24538 net.cpp:397] relu1 -> conv1 (in-place)
I0520 14:17:15.893717 24538 net.cpp:150] Setting up relu1
I0520 14:17:15.893733 24538 net.cpp:157] Top shape: 120 12 120 48 (8294400)
I0520 14:17:15.893743 24538 net.cpp:165] Memory required for data: 69403680
I0520 14:17:15.893754 24538 layer_factory.hpp:77] Creating layer pool1
I0520 14:17:15.893770 24538 net.cpp:106] Creating Layer pool1
I0520 14:17:15.893780 24538 net.cpp:454] pool1 <- conv1
I0520 14:17:15.893795 24538 net.cpp:411] pool1 -> pool1
I0520 14:17:15.893874 24538 net.cpp:150] Setting up pool1
I0520 14:17:15.893888 24538 net.cpp:157] Top shape: 120 12 60 48 (4147200)
I0520 14:17:15.893899 24538 net.cpp:165] Memory required for data: 85992480
I0520 14:17:15.893910 24538 layer_factory.hpp:77] Creating layer conv2
I0520 14:17:15.893932 24538 net.cpp:106] Creating Layer conv2
I0520 14:17:15.893942 24538 net.cpp:454] conv2 <- pool1
I0520 14:17:15.893955 24538 net.cpp:411] conv2 -> conv2
I0520 14:17:15.896697 24538 net.cpp:150] Setting up conv2
I0520 14:17:15.896720 24538 net.cpp:157] Top shape: 120 20 54 46 (5961600)
I0520 14:17:15.896735 24538 net.cpp:165] Memory required for data: 109838880
I0520 14:17:15.896755 24538 layer_factory.hpp:77] Creating layer relu2
I0520 14:17:15.896770 24538 net.cpp:106] Creating Layer relu2
I0520 14:17:15.896780 24538 net.cpp:454] relu2 <- conv2
I0520 14:17:15.896792 24538 net.cpp:397] relu2 -> conv2 (in-place)
I0520 14:17:15.897135 24538 net.cpp:150] Setting up relu2
I0520 14:17:15.897148 24538 net.cpp:157] Top shape: 120 20 54 46 (5961600)
I0520 14:17:15.897159 24538 net.cpp:165] Memory required for data: 133685280
I0520 14:17:15.897169 24538 layer_factory.hpp:77] Creating layer pool2
I0520 14:17:15.897181 24538 net.cpp:106] Creating Layer pool2
I0520 14:17:15.897192 24538 net.cpp:454] pool2 <- conv2
I0520 14:17:15.897217 24538 net.cpp:411] pool2 -> pool2
I0520 14:17:15.897286 24538 net.cpp:150] Setting up pool2
I0520 14:17:15.897300 24538 net.cpp:157] Top shape: 120 20 27 46 (2980800)
I0520 14:17:15.897310 24538 net.cpp:165] Memory required for data: 145608480
I0520 14:17:15.897318 24538 layer_factory.hpp:77] Creating layer conv3
I0520 14:17:15.897337 24538 net.cpp:106] Creating Layer conv3
I0520 14:17:15.897347 24538 net.cpp:454] conv3 <- pool2
I0520 14:17:15.897361 24538 net.cpp:411] conv3 -> conv3
I0520 14:17:15.899289 24538 net.cpp:150] Setting up conv3
I0520 14:17:15.899313 24538 net.cpp:157] Top shape: 120 28 22 44 (3252480)
I0520 14:17:15.899325 24538 net.cpp:165] Memory required for data: 158618400
I0520 14:17:15.899343 24538 layer_factory.hpp:77] Creating layer relu3
I0520 14:17:15.899359 24538 net.cpp:106] Creating Layer relu3
I0520 14:17:15.899369 24538 net.cpp:454] relu3 <- conv3
I0520 14:17:15.899382 24538 net.cpp:397] relu3 -> conv3 (in-place)
I0520 14:17:15.899852 24538 net.cpp:150] Setting up relu3
I0520 14:17:15.899869 24538 net.cpp:157] Top shape: 120 28 22 44 (3252480)
I0520 14:17:15.899879 24538 net.cpp:165] Memory required for data: 171628320
I0520 14:17:15.899889 24538 layer_factory.hpp:77] Creating layer pool3
I0520 14:17:15.899904 24538 net.cpp:106] Creating Layer pool3
I0520 14:17:15.899912 24538 net.cpp:454] pool3 <- conv3
I0520 14:17:15.899925 24538 net.cpp:411] pool3 -> pool3
I0520 14:17:15.899993 24538 net.cpp:150] Setting up pool3
I0520 14:17:15.900007 24538 net.cpp:157] Top shape: 120 28 11 44 (1626240)
I0520 14:17:15.900017 24538 net.cpp:165] Memory required for data: 178133280
I0520 14:17:15.900024 24538 layer_factory.hpp:77] Creating layer conv4
I0520 14:17:15.900043 24538 net.cpp:106] Creating Layer conv4
I0520 14:17:15.900053 24538 net.cpp:454] conv4 <- pool3
I0520 14:17:15.900065 24538 net.cpp:411] conv4 -> conv4
I0520 14:17:15.903046 24538 net.cpp:150] Setting up conv4
I0520 14:17:15.903070 24538 net.cpp:157] Top shape: 120 36 6 42 (1088640)
I0520 14:17:15.903080 24538 net.cpp:165] Memory required for data: 182487840
I0520 14:17:15.903096 24538 layer_factory.hpp:77] Creating layer relu4
I0520 14:17:15.903110 24538 net.cpp:106] Creating Layer relu4
I0520 14:17:15.903121 24538 net.cpp:454] relu4 <- conv4
I0520 14:17:15.903133 24538 net.cpp:397] relu4 -> conv4 (in-place)
I0520 14:17:15.903600 24538 net.cpp:150] Setting up relu4
I0520 14:17:15.903616 24538 net.cpp:157] Top shape: 120 36 6 42 (1088640)
I0520 14:17:15.903627 24538 net.cpp:165] Memory required for data: 186842400
I0520 14:17:15.903637 24538 layer_factory.hpp:77] Creating layer pool4
I0520 14:17:15.903650 24538 net.cpp:106] Creating Layer pool4
I0520 14:17:15.903661 24538 net.cpp:454] pool4 <- conv4
I0520 14:17:15.903672 24538 net.cpp:411] pool4 -> pool4
I0520 14:17:15.903741 24538 net.cpp:150] Setting up pool4
I0520 14:17:15.903754 24538 net.cpp:157] Top shape: 120 36 3 42 (544320)
I0520 14:17:15.903764 24538 net.cpp:165] Memory required for data: 189019680
I0520 14:17:15.903774 24538 layer_factory.hpp:77] Creating layer ip1
I0520 14:17:15.903794 24538 net.cpp:106] Creating Layer ip1
I0520 14:17:15.903805 24538 net.cpp:454] ip1 <- pool4
I0520 14:17:15.903817 24538 net.cpp:411] ip1 -> ip1
I0520 14:17:15.919281 24538 net.cpp:150] Setting up ip1
I0520 14:17:15.919309 24538 net.cpp:157] Top shape: 120 196 (23520)
I0520 14:17:15.919322 24538 net.cpp:165] Memory required for data: 189113760
I0520 14:17:15.919343 24538 layer_factory.hpp:77] Creating layer relu5
I0520 14:17:15.919358 24538 net.cpp:106] Creating Layer relu5
I0520 14:17:15.919368 24538 net.cpp:454] relu5 <- ip1
I0520 14:17:15.919381 24538 net.cpp:397] relu5 -> ip1 (in-place)
I0520 14:17:15.919723 24538 net.cpp:150] Setting up relu5
I0520 14:17:15.919736 24538 net.cpp:157] Top shape: 120 196 (23520)
I0520 14:17:15.919746 24538 net.cpp:165] Memory required for data: 189207840
I0520 14:17:15.919756 24538 layer_factory.hpp:77] Creating layer drop1
I0520 14:17:15.919777 24538 net.cpp:106] Creating Layer drop1
I0520 14:17:15.919787 24538 net.cpp:454] drop1 <- ip1
I0520 14:17:15.919812 24538 net.cpp:397] drop1 -> ip1 (in-place)
I0520 14:17:15.919859 24538 net.cpp:150] Setting up drop1
I0520 14:17:15.919872 24538 net.cpp:157] Top shape: 120 196 (23520)
I0520 14:17:15.919883 24538 net.cpp:165] Memory required for data: 189301920
I0520 14:17:15.919891 24538 layer_factory.hpp:77] Creating layer ip2
I0520 14:17:15.919910 24538 net.cpp:106] Creating Layer ip2
I0520 14:17:15.919920 24538 net.cpp:454] ip2 <- ip1
I0520 14:17:15.919934 24538 net.cpp:411] ip2 -> ip2
I0520 14:17:15.920398 24538 net.cpp:150] Setting up ip2
I0520 14:17:15.920413 24538 net.cpp:157] Top shape: 120 98 (11760)
I0520 14:17:15.920423 24538 net.cpp:165] Memory required for data: 189348960
I0520 14:17:15.920438 24538 layer_factory.hpp:77] Creating layer relu6
I0520 14:17:15.920450 24538 net.cpp:106] Creating Layer relu6
I0520 14:17:15.920459 24538 net.cpp:454] relu6 <- ip2
I0520 14:17:15.920471 24538 net.cpp:397] relu6 -> ip2 (in-place)
I0520 14:17:15.921003 24538 net.cpp:150] Setting up relu6
I0520 14:17:15.921020 24538 net.cpp:157] Top shape: 120 98 (11760)
I0520 14:17:15.921030 24538 net.cpp:165] Memory required for data: 189396000
I0520 14:17:15.921039 24538 layer_factory.hpp:77] Creating layer drop2
I0520 14:17:15.921052 24538 net.cpp:106] Creating Layer drop2
I0520 14:17:15.921062 24538 net.cpp:454] drop2 <- ip2
I0520 14:17:15.921074 24538 net.cpp:397] drop2 -> ip2 (in-place)
I0520 14:17:15.921116 24538 net.cpp:150] Setting up drop2
I0520 14:17:15.921129 24538 net.cpp:157] Top shape: 120 98 (11760)
I0520 14:17:15.921140 24538 net.cpp:165] Memory required for data: 189443040
I0520 14:17:15.921150 24538 layer_factory.hpp:77] Creating layer ip3
I0520 14:17:15.921164 24538 net.cpp:106] Creating Layer ip3
I0520 14:17:15.921174 24538 net.cpp:454] ip3 <- ip2
I0520 14:17:15.921186 24538 net.cpp:411] ip3 -> ip3
I0520 14:17:15.921396 24538 net.cpp:150] Setting up ip3
I0520 14:17:15.921409 24538 net.cpp:157] Top shape: 120 11 (1320)
I0520 14:17:15.921419 24538 net.cpp:165] Memory required for data: 189448320
I0520 14:17:15.921434 24538 layer_factory.hpp:77] Creating layer drop3
I0520 14:17:15.921447 24538 net.cpp:106] Creating Layer drop3
I0520 14:17:15.921457 24538 net.cpp:454] drop3 <- ip3
I0520 14:17:15.921468 24538 net.cpp:397] drop3 -> ip3 (in-place)
I0520 14:17:15.921507 24538 net.cpp:150] Setting up drop3
I0520 14:17:15.921520 24538 net.cpp:157] Top shape: 120 11 (1320)
I0520 14:17:15.921530 24538 net.cpp:165] Memory required for data: 189453600
I0520 14:17:15.921540 24538 layer_factory.hpp:77] Creating layer loss
I0520 14:17:15.921560 24538 net.cpp:106] Creating Layer loss
I0520 14:17:15.921569 24538 net.cpp:454] loss <- ip3
I0520 14:17:15.921581 24538 net.cpp:454] loss <- label
I0520 14:17:15.921592 24538 net.cpp:411] loss -> loss
I0520 14:17:15.921608 24538 layer_factory.hpp:77] Creating layer loss
…
I0520 14:17:15.924477 24538 solver.cpp:181] Creating test net (#0) specified by net file: /lustre/atlas/proj-shared/hep105/caffe_titan/caffe_workflow/logs_batch_size_test/batch_size_120_2016-05-20T11.20.37.036866.prototxt
I0520 14:17:15.924549 24538 net.cpp:322] The NetState phase (1) differed from the phase (0) specified by a rule in layer data_hdf5
I0520 14:17:15.924913 24538 net.cpp:49] Initializing net from parameters: 
name: "caffe_test_127x50_x_unshifted"
state {
  phase: TEST
}
layer {
  name: "data_hdf5"
  type: "HDF5Data"
  top: "data"
  top: "label"
  include {
    phase: TEST
  }
  hdf5_data_param {
    source: "/lustre/atlas/proj-shared/hep105/caffe_titan/minosmatch_nukecczdefs_127x50_x_unshifted_me1Bmc.testlist"
    batch_size: 120
  }
}
layer {
  name: "conv1"
  type: "Convolution"
  bottom: "data"
  top: "conv1"
  convolution_param {
    num_output: 12
    pad: 0
    stride: 1
    weight_filler {
      type: "xavier"
    }
    bias_filler {
      type: "constant"
    }
    kernel_h: 8
    kernel_w: 3
  }
}
layer {
  name: "relu1"
  type: "ReLU"
  bottom: "conv1"
  top: "conv1"
}
layer {
  name: "pool1"
  type: "Pooling"
  bottom: "conv1"
  top: "pool1"
  pooling_param {
    pool: MAX
    kernel_h: 2
    kernel_w: 1
    stride_h: 2
    stride_w: 1
  }
}
layer {
  name: "conv2"
  type: "Convolution"
  bottom: "pool1"
  top: "conv2"
  convolution_param {
    num_output: 20
    pad: 0
    stride: 1
    weight_filler {
      type: "xavier"
    }
    bias_filler {
      type: "constant"
    }
    kernel_h: 7
    kernel_w: 3
  }
}
layer {
  name: "relu2"
  type: "ReLU"
  bottom: "conv2"
  top: "conv2"
}
layer {
  name: "pool2"
  type: "Pooling"
  bottom: "conv2"
  top: "pool2"
  pooling_param {
    pool: MAX
    kernel_h: 2
    kernel_w: 1
    stride_h: 2
    stride_w: 1
  }
}
layer {
  name: "conv3"
  type: "Convolution"
  bottom: "pool2"
  top: "conv3"
  convolution_param {
    num_output: 28
    pad: 0
    stride: 1
    weight_filler {
      type: "xavier"
    }
    bias_filler {
      type: "constant"
    }
    kernel_h: 6
    kernel_w: 3
  }
}
layer {
  name: "relu3"
  type: "ReLU"
  bottom: "conv3"
  top: "conv3"
}
layer {
  name: "pool3"
  type: "Pooling"
  bottom: "conv3"
  top: "pool3"
  pooling_param {
    pool: MAX
    kernel_h: 2
    kernel_w: 1
    stride_h: 2
    stride_w: 1
  }
}
layer {
  name: "conv4"
  type: "Convolution"
  bottom: "pool3"
  top: "conv4"
  convolution_param {
    num_output: 36
    pad: 0
    stride: 1
    weight_filler {
      type: "xavier"
    }
    bias_filler {
      type: "constant"
    }
    kernel_h: 6
    kernel_w: 3
  }
}
layer {
  name: "relu4"
  type: "ReLU"
  bottom: "conv4"
  top: "conv4"
}
layer {
  name: "pool4"
  type: "Pooling"
  bottom: "conv4"
  top: "pool4"
  pooling_param {
    pool: MAX
    kernel_h: 2
    kernel_w: 1
    stride_h: 2
    stride_w: 1
  }
}
layer {
  name: "ip1"
  type: "InnerProduct"
  bottom: "pool4"
  top: "ip1"
  inner_product_param {
    num_output: 196
    weight_filler {
      type: "xavier"
    }
    bias_filler {
      type: "constant"
    }
  }
}
layer {
  name: "relu5"
  type: "ReLU"
  bottom: "ip1"
  top: "ip1"
}
layer {
  name: "drop1"
  type: "Dropout"
  bottom: "ip1"
  top: "ip1"
  dropout_param {
    dropout_ratio: 0.5
  }
}
layer {
  name: "ip2"
  type: "InnerProduct"
  bottom: "ip1"
  top: "ip2"
  inner_product_param {
    num_output: 98
    weight_filler {
      type: "xavier"
    }
    bias_filler {
      type: "constant"
    }
  }
}
layer {
  name: "relu6"
  type: "ReLU"
  bottom: "ip2"
  top: "ip2"
}
layer {
  name: "drop2"
  type: "Dropout"
  bottom: "ip2"
  top: "ip2"
  dropout_param {
    dropout_ratio: 0.5
  }
}
layer {
  name: "ip3"
  type: "InnerProduct"
  bottom: "ip2"
  top: "ip3"
  inner_product_param {
    num_output: 11
    weight_filler {
      type: "xavier"
    }
    bias_filler {
      type: "constant"
    }
  }
}
layer {
  name: "drop3"
  type: "Dropout"
  bottom: "ip3"
  top: "ip3"
  dropout_param {
    dropout_ratio: 0.5
  }
}
layer {
  name: "accuracy"
  type: "Accuracy"
  bottom: "ip3"
  bottom: "label"
  top: "accuracy"
  include {
    phase: TEST
  }
}
layer {
  name: "loss"
  type: "SoftmaxWithLoss"
  bottom: "ip3"
  bottom: "label"
  top: "loss"
}
I0520 14:17:15.925104 24538 layer_factory.hpp:77] Creating layer data_hdf5
I0520 14:17:15.925119 24538 net.cpp:106] Creating Layer data_hdf5
I0520 14:17:15.925132 24538 net.cpp:411] data_hdf5 -> data
I0520 14:17:15.925148 24538 net.cpp:411] data_hdf5 -> label
I0520 14:17:15.925164 24538 hdf5_data_layer.cpp:79] Loading list of HDF5 filenames from: /lustre/atlas/proj-shared/hep105/caffe_titan/minosmatch_nukecczdefs_127x50_x_unshifted_me1Bmc.testlist
I0520 14:17:15.926411 24538 hdf5_data_layer.cpp:93] Number of HDF5 files: 3
I0520 14:17:37.304813 24538 net.cpp:150] Setting up data_hdf5
I0520 14:17:37.304987 24538 net.cpp:157] Top shape: 120 1 127 50 (762000)
I0520 14:17:37.305002 24538 net.cpp:157] Top shape: 120 (120)
I0520 14:17:37.305014 24538 net.cpp:165] Memory required for data: 3048480
I0520 14:17:37.305028 24538 layer_factory.hpp:77] Creating layer label_data_hdf5_1_split
I0520 14:17:37.305057 24538 net.cpp:106] Creating Layer label_data_hdf5_1_split
I0520 14:17:37.305068 24538 net.cpp:454] label_data_hdf5_1_split <- label
I0520 14:17:37.305083 24538 net.cpp:411] label_data_hdf5_1_split -> label_data_hdf5_1_split_0
I0520 14:17:37.305104 24538 net.cpp:411] label_data_hdf5_1_split -> label_data_hdf5_1_split_1
I0520 14:17:37.305177 24538 net.cpp:150] Setting up label_data_hdf5_1_split
I0520 14:17:37.305191 24538 net.cpp:157] Top shape: 120 (120)
I0520 14:17:37.305202 24538 net.cpp:157] Top shape: 120 (120)
I0520 14:17:37.305212 24538 net.cpp:165] Memory required for data: 3049440
I0520 14:17:37.305222 24538 layer_factory.hpp:77] Creating layer conv1
I0520 14:17:37.305243 24538 net.cpp:106] Creating Layer conv1
I0520 14:17:37.305253 24538 net.cpp:454] conv1 <- data
I0520 14:17:37.305269 24538 net.cpp:411] conv1 -> conv1
I0520 14:17:37.307194 24538 net.cpp:150] Setting up conv1
I0520 14:17:37.307219 24538 net.cpp:157] Top shape: 120 12 120 48 (8294400)
I0520 14:17:37.307230 24538 net.cpp:165] Memory required for data: 36227040
I0520 14:17:37.307250 24538 layer_factory.hpp:77] Creating layer relu1
I0520 14:17:37.307265 24538 net.cpp:106] Creating Layer relu1
I0520 14:17:37.307276 24538 net.cpp:454] relu1 <- conv1
I0520 14:17:37.307288 24538 net.cpp:397] relu1 -> conv1 (in-place)
I0520 14:17:37.307785 24538 net.cpp:150] Setting up relu1
I0520 14:17:37.307799 24538 net.cpp:157] Top shape: 120 12 120 48 (8294400)
I0520 14:17:37.307811 24538 net.cpp:165] Memory required for data: 69404640
I0520 14:17:37.307821 24538 layer_factory.hpp:77] Creating layer pool1
I0520 14:17:37.307835 24538 net.cpp:106] Creating Layer pool1
I0520 14:17:37.307845 24538 net.cpp:454] pool1 <- conv1
I0520 14:17:37.307858 24538 net.cpp:411] pool1 -> pool1
I0520 14:17:37.307934 24538 net.cpp:150] Setting up pool1
I0520 14:17:37.307947 24538 net.cpp:157] Top shape: 120 12 60 48 (4147200)
I0520 14:17:37.307957 24538 net.cpp:165] Memory required for data: 85993440
I0520 14:17:37.307967 24538 layer_factory.hpp:77] Creating layer conv2
I0520 14:17:37.307986 24538 net.cpp:106] Creating Layer conv2
I0520 14:17:37.307996 24538 net.cpp:454] conv2 <- pool1
I0520 14:17:37.308009 24538 net.cpp:411] conv2 -> conv2
I0520 14:17:37.309937 24538 net.cpp:150] Setting up conv2
I0520 14:17:37.309959 24538 net.cpp:157] Top shape: 120 20 54 46 (5961600)
I0520 14:17:37.309973 24538 net.cpp:165] Memory required for data: 109839840
I0520 14:17:37.309989 24538 layer_factory.hpp:77] Creating layer relu2
I0520 14:17:37.310003 24538 net.cpp:106] Creating Layer relu2
I0520 14:17:37.310014 24538 net.cpp:454] relu2 <- conv2
I0520 14:17:37.310025 24538 net.cpp:397] relu2 -> conv2 (in-place)
I0520 14:17:37.310361 24538 net.cpp:150] Setting up relu2
I0520 14:17:37.310375 24538 net.cpp:157] Top shape: 120 20 54 46 (5961600)
I0520 14:17:37.310385 24538 net.cpp:165] Memory required for data: 133686240
I0520 14:17:37.310395 24538 layer_factory.hpp:77] Creating layer pool2
I0520 14:17:37.310408 24538 net.cpp:106] Creating Layer pool2
I0520 14:17:37.310418 24538 net.cpp:454] pool2 <- conv2
I0520 14:17:37.310431 24538 net.cpp:411] pool2 -> pool2
I0520 14:17:37.310503 24538 net.cpp:150] Setting up pool2
I0520 14:17:37.310515 24538 net.cpp:157] Top shape: 120 20 27 46 (2980800)
I0520 14:17:37.310525 24538 net.cpp:165] Memory required for data: 145609440
I0520 14:17:37.310535 24538 layer_factory.hpp:77] Creating layer conv3
I0520 14:17:37.310554 24538 net.cpp:106] Creating Layer conv3
I0520 14:17:37.310564 24538 net.cpp:454] conv3 <- pool2
I0520 14:17:37.310577 24538 net.cpp:411] conv3 -> conv3
I0520 14:17:37.312572 24538 net.cpp:150] Setting up conv3
I0520 14:17:37.312595 24538 net.cpp:157] Top shape: 120 28 22 44 (3252480)
I0520 14:17:37.312608 24538 net.cpp:165] Memory required for data: 158619360
I0520 14:17:37.312640 24538 layer_factory.hpp:77] Creating layer relu3
I0520 14:17:37.312654 24538 net.cpp:106] Creating Layer relu3
I0520 14:17:37.312664 24538 net.cpp:454] relu3 <- conv3
I0520 14:17:37.312677 24538 net.cpp:397] relu3 -> conv3 (in-place)
I0520 14:17:37.313160 24538 net.cpp:150] Setting up relu3
I0520 14:17:37.313176 24538 net.cpp:157] Top shape: 120 28 22 44 (3252480)
I0520 14:17:37.313187 24538 net.cpp:165] Memory required for data: 171629280
I0520 14:17:37.313197 24538 layer_factory.hpp:77] Creating layer pool3
I0520 14:17:37.313210 24538 net.cpp:106] Creating Layer pool3
I0520 14:17:37.313220 24538 net.cpp:454] pool3 <- conv3
I0520 14:17:37.313233 24538 net.cpp:411] pool3 -> pool3
I0520 14:17:37.313304 24538 net.cpp:150] Setting up pool3
I0520 14:17:37.313318 24538 net.cpp:157] Top shape: 120 28 11 44 (1626240)
I0520 14:17:37.313328 24538 net.cpp:165] Memory required for data: 178134240
I0520 14:17:37.313335 24538 layer_factory.hpp:77] Creating layer conv4
I0520 14:17:37.313354 24538 net.cpp:106] Creating Layer conv4
I0520 14:17:37.313364 24538 net.cpp:454] conv4 <- pool3
I0520 14:17:37.313379 24538 net.cpp:411] conv4 -> conv4
I0520 14:17:37.315462 24538 net.cpp:150] Setting up conv4
I0520 14:17:37.315485 24538 net.cpp:157] Top shape: 120 36 6 42 (1088640)
I0520 14:17:37.315497 24538 net.cpp:165] Memory required for data: 182488800
I0520 14:17:37.315512 24538 layer_factory.hpp:77] Creating layer relu4
I0520 14:17:37.315526 24538 net.cpp:106] Creating Layer relu4
I0520 14:17:37.315536 24538 net.cpp:454] relu4 <- conv4
I0520 14:17:37.315549 24538 net.cpp:397] relu4 -> conv4 (in-place)
I0520 14:17:37.316021 24538 net.cpp:150] Setting up relu4
I0520 14:17:37.316037 24538 net.cpp:157] Top shape: 120 36 6 42 (1088640)
I0520 14:17:37.316047 24538 net.cpp:165] Memory required for data: 186843360
I0520 14:17:37.316057 24538 layer_factory.hpp:77] Creating layer pool4
I0520 14:17:37.316071 24538 net.cpp:106] Creating Layer pool4
I0520 14:17:37.316081 24538 net.cpp:454] pool4 <- conv4
I0520 14:17:37.316093 24538 net.cpp:411] pool4 -> pool4
I0520 14:17:37.316165 24538 net.cpp:150] Setting up pool4
I0520 14:17:37.316179 24538 net.cpp:157] Top shape: 120 36 3 42 (544320)
I0520 14:17:37.316189 24538 net.cpp:165] Memory required for data: 189020640
I0520 14:17:37.316196 24538 layer_factory.hpp:77] Creating layer ip1
I0520 14:17:37.316212 24538 net.cpp:106] Creating Layer ip1
I0520 14:17:37.316223 24538 net.cpp:454] ip1 <- pool4
I0520 14:17:37.316237 24538 net.cpp:411] ip1 -> ip1
I0520 14:17:37.331768 24538 net.cpp:150] Setting up ip1
I0520 14:17:37.331797 24538 net.cpp:157] Top shape: 120 196 (23520)
I0520 14:17:37.331807 24538 net.cpp:165] Memory required for data: 189114720
I0520 14:17:37.331830 24538 layer_factory.hpp:77] Creating layer relu5
I0520 14:17:37.331845 24538 net.cpp:106] Creating Layer relu5
I0520 14:17:37.331856 24538 net.cpp:454] relu5 <- ip1
I0520 14:17:37.331869 24538 net.cpp:397] relu5 -> ip1 (in-place)
I0520 14:17:37.332216 24538 net.cpp:150] Setting up relu5
I0520 14:17:37.332231 24538 net.cpp:157] Top shape: 120 196 (23520)
I0520 14:17:37.332240 24538 net.cpp:165] Memory required for data: 189208800
I0520 14:17:37.332250 24538 layer_factory.hpp:77] Creating layer drop1
I0520 14:17:37.332269 24538 net.cpp:106] Creating Layer drop1
I0520 14:17:37.332279 24538 net.cpp:454] drop1 <- ip1
I0520 14:17:37.332293 24538 net.cpp:397] drop1 -> ip1 (in-place)
I0520 14:17:37.332337 24538 net.cpp:150] Setting up drop1
I0520 14:17:37.332350 24538 net.cpp:157] Top shape: 120 196 (23520)
I0520 14:17:37.332360 24538 net.cpp:165] Memory required for data: 189302880
I0520 14:17:37.332370 24538 layer_factory.hpp:77] Creating layer ip2
I0520 14:17:37.332384 24538 net.cpp:106] Creating Layer ip2
I0520 14:17:37.332393 24538 net.cpp:454] ip2 <- ip1
I0520 14:17:37.332407 24538 net.cpp:411] ip2 -> ip2
I0520 14:17:37.332892 24538 net.cpp:150] Setting up ip2
I0520 14:17:37.332906 24538 net.cpp:157] Top shape: 120 98 (11760)
I0520 14:17:37.332916 24538 net.cpp:165] Memory required for data: 189349920
I0520 14:17:37.332943 24538 layer_factory.hpp:77] Creating layer relu6
I0520 14:17:37.332957 24538 net.cpp:106] Creating Layer relu6
I0520 14:17:37.332967 24538 net.cpp:454] relu6 <- ip2
I0520 14:17:37.332978 24538 net.cpp:397] relu6 -> ip2 (in-place)
I0520 14:17:37.333513 24538 net.cpp:150] Setting up relu6
I0520 14:17:37.333534 24538 net.cpp:157] Top shape: 120 98 (11760)
I0520 14:17:37.333544 24538 net.cpp:165] Memory required for data: 189396960
I0520 14:17:37.333554 24538 layer_factory.hpp:77] Creating layer drop2
I0520 14:17:37.333567 24538 net.cpp:106] Creating Layer drop2
I0520 14:17:37.333577 24538 net.cpp:454] drop2 <- ip2
I0520 14:17:37.333590 24538 net.cpp:397] drop2 -> ip2 (in-place)
I0520 14:17:37.333634 24538 net.cpp:150] Setting up drop2
I0520 14:17:37.333647 24538 net.cpp:157] Top shape: 120 98 (11760)
I0520 14:17:37.333657 24538 net.cpp:165] Memory required for data: 189444000
I0520 14:17:37.333667 24538 layer_factory.hpp:77] Creating layer ip3
I0520 14:17:37.333681 24538 net.cpp:106] Creating Layer ip3
I0520 14:17:37.333691 24538 net.cpp:454] ip3 <- ip2
I0520 14:17:37.333705 24538 net.cpp:411] ip3 -> ip3
I0520 14:17:37.333930 24538 net.cpp:150] Setting up ip3
I0520 14:17:37.333942 24538 net.cpp:157] Top shape: 120 11 (1320)
I0520 14:17:37.333952 24538 net.cpp:165] Memory required for data: 189449280
I0520 14:17:37.333967 24538 layer_factory.hpp:77] Creating layer drop3
I0520 14:17:37.333981 24538 net.cpp:106] Creating Layer drop3
I0520 14:17:37.333991 24538 net.cpp:454] drop3 <- ip3
I0520 14:17:37.334003 24538 net.cpp:397] drop3 -> ip3 (in-place)
I0520 14:17:37.334044 24538 net.cpp:150] Setting up drop3
I0520 14:17:37.334056 24538 net.cpp:157] Top shape: 120 11 (1320)
I0520 14:17:37.334066 24538 net.cpp:165] Memory required for data: 189454560
I0520 14:17:37.334075 24538 layer_factory.hpp:77] Creating layer ip3_drop3_0_split
I0520 14:17:37.334089 24538 net.cpp:106] Creating Layer ip3_drop3_0_split
I0520 14:17:37.334098 24538 net.cpp:454] ip3_drop3_0_split <- ip3
I0520 14:17:37.334111 24538 net.cpp:411] ip3_drop3_0_split -> ip3_drop3_0_split_0
I0520 14:17:37.334126 24538 net.cpp:411] ip3_drop3_0_split -> ip3_drop3_0_split_1
I0520 14:17:37.334200 24538 net.cpp:150] Setting up ip3_drop3_0_split
I0520 14:17:37.334213 24538 net.cpp:157] Top shape: 120 11 (1320)
I0520 14:17:37.334225 24538 net.cpp:157] Top shape: 120 11 (1320)
I0520 14:17:37.334235 24538 net.cpp:165] Memory required for data: 189465120
I0520 14:17:37.334245 24538 layer_factory.hpp:77] Creating layer accuracy
I0520 14:17:37.334267 24538 net.cpp:106] Creating Layer accuracy
I0520 14:17:37.334277 24538 net.cpp:454] accuracy <- ip3_drop3_0_split_0
I0520 14:17:37.334290 24538 net.cpp:454] accuracy <- label_data_hdf5_1_split_0
I0520 14:17:37.334302 24538 net.cpp:411] accuracy -> accuracy
…
