…
I0521 11:12:43.225615  3494 net.cpp:322] The NetState phase (0) differed from the phase (1) specified by a rule in layer data_hdf5
I0521 11:12:43.225675  3494 net.cpp:322] The NetState phase (0) differed from the phase (1) specified by a rule in layer accuracy
I0521 11:12:43.226019  3494 net.cpp:49] Initializing net from parameters: 
name: "caffe_test_127x50_x_unshifted"
state {
  phase: TRAIN
}
layer {
  name: "data_hdf5"
  type: "HDF5Data"
  top: "data"
  top: "label"
  include {
    phase: TRAIN
  }
  hdf5_data_param {
    source: "/lustre/atlas/proj-shared/hep105/caffe_titan/minosmatch_nukecczdefs_127x50_x_unshifted_me1Bmc.trainlist"
    batch_size: 990
  }
}
layer {
  name: "conv1"
  type: "Convolution"
  bottom: "data"
  top: "conv1"
  convolution_param {
    num_output: 12
    pad: 0
    stride: 1
    weight_filler {
      type: "xavier"
    }
    bias_filler {
      type: "constant"
    }
    kernel_h: 8
    kernel_w: 3
  }
}
layer {
  name: "relu1"
  type: "ReLU"
  bottom: "conv1"
  top: "conv1"
}
layer {
  name: "pool1"
  type: "Pooling"
  bottom: "conv1"
  top: "pool1"
  pooling_param {
    pool: MAX
    kernel_h: 2
    kernel_w: 1
    stride_h: 2
    stride_w: 1
  }
}
layer {
  name: "conv2"
  type: "Convolution"
  bottom: "pool1"
  top: "conv2"
  convolution_param {
    num_output: 20
    pad: 0
    stride: 1
    weight_filler {
      type: "xavier"
    }
    bias_filler {
      type: "constant"
    }
    kernel_h: 7
    kernel_w: 3
  }
}
layer {
  name: "relu2"
  type: "ReLU"
  bottom: "conv2"
  top: "conv2"
}
layer {
  name: "pool2"
  type: "Pooling"
  bottom: "conv2"
  top: "pool2"
  pooling_param {
    pool: MAX
    kernel_h: 2
    kernel_w: 1
    stride_h: 2
    stride_w: 1
  }
}
layer {
  name: "conv3"
  type: "Convolution"
  bottom: "pool2"
  top: "conv3"
  convolution_param {
    num_output: 28
    pad: 0
    stride: 1
    weight_filler {
      type: "xavier"
    }
    bias_filler {
      type: "constant"
    }
    kernel_h: 6
    kernel_w: 3
  }
}
layer {
  name: "relu3"
  type: "ReLU"
  bottom: "conv3"
  top: "conv3"
}
layer {
  name: "pool3"
  type: "Pooling"
  bottom: "conv3"
  top: "pool3"
  pooling_param {
    pool: MAX
    kernel_h: 2
    kernel_w: 1
    stride_h: 2
    stride_w: 1
  }
}
layer {
  name: "conv4"
  type: "Convolution"
  bottom: "pool3"
  top: "conv4"
  convolution_param {
    num_output: 36
    pad: 0
    stride: 1
    weight_filler {
      type: "xavier"
    }
    bias_filler {
      type: "constant"
    }
    kernel_h: 6
    kernel_w: 3
  }
}
layer {
  name: "relu4"
  type: "ReLU"
  bottom: "conv4"
  top: "conv4"
}
layer {
  name: "pool4"
  type: "Pooling"
  bottom: "conv4"
  top: "pool4"
  pooling_param {
    pool: MAX
    kernel_h: 2
    kernel_w: 1
    stride_h: 2
    stride_w: 1
  }
}
layer {
  name: "ip1"
  type: "InnerProduct"
  bottom: "pool4"
  top: "ip1"
  inner_product_param {
    num_output: 196
    weight_filler {
      type: "xavier"
    }
    bias_filler {
      type: "constant"
    }
  }
}
layer {
  name: "relu5"
  type: "ReLU"
  bottom: "ip1"
  top: "ip1"
}
layer {
  name: "drop1"
  type: "Dropout"
  bottom: "ip1"
  top: "ip1"
  dropout_param {
    dropout_ratio: 0.5
  }
}
layer {
  name: "ip2"
  type: "InnerProduct"
  bottom: "ip1"
  top: "ip2"
  inner_product_param {
    num_output: 98
    weight_filler {
      type: "xavier"
    }
    bias_filler {
      type: "constant"
    }
  }
}
layer {
  name: "relu6"
  type: "ReLU"
  bottom: "ip2"
  top: "ip2"
}
layer {
  name: "drop2"
  type: "Dropout"
  bottom: "ip2"
  top: "ip2"
  dropout_param {
    dropout_ratio: 0.5
  }
}
layer {
  name: "ip3"
  type: "InnerProduct"
  bottom: "ip2"
  top: "ip3"
  inner_product_param {
    num_output: 11
    weight_filler {
      type: "xavier"
    }
    bias_filler {
      type: "constant"
    }
  }
}
layer {
  name: "drop3"
  type: "Dropout"
  bottom: "ip3"
  top: "ip3"
  dropout_param {
    dropout_ratio: 0.5
  }
}
layer {
  name: "loss"
  type: "SoftmaxWithLoss"
  bottom: "ip3"
  bottom: "label"
  top: "loss"
}
I0521 11:12:43.226197  3494 layer_factory.hpp:77] Creating layer data_hdf5
I0521 11:12:43.226220  3494 net.cpp:106] Creating Layer data_hdf5
I0521 11:12:43.226235  3494 net.cpp:411] data_hdf5 -> data
I0521 11:12:43.226269  3494 net.cpp:411] data_hdf5 -> label
I0521 11:12:43.226327  3494 hdf5_data_layer.cpp:79] Loading list of HDF5 filenames from: /lustre/atlas/proj-shared/hep105/caffe_titan/minosmatch_nukecczdefs_127x50_x_unshifted_me1Bmc.trainlist
I0521 11:12:43.227794  3494 hdf5_data_layer.cpp:93] Number of HDF5 files: 15
I0521 11:12:43.230140  3494 hdf5.cpp:32] Datatype class: H5T_FLOAT
I0521 11:13:04.758335  3494 hdf5.cpp:35] Datatype class: H5T_INTEGER
I0521 11:13:04.763461  3494 net.cpp:150] Setting up data_hdf5
I0521 11:13:04.763501  3494 net.cpp:157] Top shape: 990 1 127 50 (6286500)
I0521 11:13:04.763515  3494 net.cpp:157] Top shape: 990 (990)
I0521 11:13:04.763527  3494 net.cpp:165] Memory required for data: 25149960
I0521 11:13:04.763540  3494 layer_factory.hpp:77] Creating layer conv1
I0521 11:13:04.763574  3494 net.cpp:106] Creating Layer conv1
I0521 11:13:04.763586  3494 net.cpp:454] conv1 <- data
I0521 11:13:04.763607  3494 net.cpp:411] conv1 -> conv1
I0521 11:13:05.130190  3494 net.cpp:150] Setting up conv1
I0521 11:13:05.130236  3494 net.cpp:157] Top shape: 990 12 120 48 (68428800)
I0521 11:13:05.130247  3494 net.cpp:165] Memory required for data: 298865160
I0521 11:13:05.130278  3494 layer_factory.hpp:77] Creating layer relu1
I0521 11:13:05.130300  3494 net.cpp:106] Creating Layer relu1
I0521 11:13:05.130311  3494 net.cpp:454] relu1 <- conv1
I0521 11:13:05.130323  3494 net.cpp:397] relu1 -> conv1 (in-place)
I0521 11:13:05.130910  3494 net.cpp:150] Setting up relu1
I0521 11:13:05.130928  3494 net.cpp:157] Top shape: 990 12 120 48 (68428800)
I0521 11:13:05.130939  3494 net.cpp:165] Memory required for data: 572580360
I0521 11:13:05.130949  3494 layer_factory.hpp:77] Creating layer pool1
I0521 11:13:05.130965  3494 net.cpp:106] Creating Layer pool1
I0521 11:13:05.130975  3494 net.cpp:454] pool1 <- conv1
I0521 11:13:05.130990  3494 net.cpp:411] pool1 -> pool1
I0521 11:13:05.131069  3494 net.cpp:150] Setting up pool1
I0521 11:13:05.131083  3494 net.cpp:157] Top shape: 990 12 60 48 (34214400)
I0521 11:13:05.131093  3494 net.cpp:165] Memory required for data: 709437960
I0521 11:13:05.131103  3494 layer_factory.hpp:77] Creating layer conv2
I0521 11:13:05.131125  3494 net.cpp:106] Creating Layer conv2
I0521 11:13:05.131136  3494 net.cpp:454] conv2 <- pool1
I0521 11:13:05.131150  3494 net.cpp:411] conv2 -> conv2
I0521 11:13:05.133821  3494 net.cpp:150] Setting up conv2
I0521 11:13:05.133848  3494 net.cpp:157] Top shape: 990 20 54 46 (49183200)
I0521 11:13:05.133859  3494 net.cpp:165] Memory required for data: 906170760
I0521 11:13:05.133878  3494 layer_factory.hpp:77] Creating layer relu2
I0521 11:13:05.133893  3494 net.cpp:106] Creating Layer relu2
I0521 11:13:05.133903  3494 net.cpp:454] relu2 <- conv2
I0521 11:13:05.133916  3494 net.cpp:397] relu2 -> conv2 (in-place)
I0521 11:13:05.134245  3494 net.cpp:150] Setting up relu2
I0521 11:13:05.134260  3494 net.cpp:157] Top shape: 990 20 54 46 (49183200)
I0521 11:13:05.134271  3494 net.cpp:165] Memory required for data: 1102903560
I0521 11:13:05.134281  3494 layer_factory.hpp:77] Creating layer pool2
I0521 11:13:05.134294  3494 net.cpp:106] Creating Layer pool2
I0521 11:13:05.134305  3494 net.cpp:454] pool2 <- conv2
I0521 11:13:05.134330  3494 net.cpp:411] pool2 -> pool2
I0521 11:13:05.134398  3494 net.cpp:150] Setting up pool2
I0521 11:13:05.134412  3494 net.cpp:157] Top shape: 990 20 27 46 (24591600)
I0521 11:13:05.134419  3494 net.cpp:165] Memory required for data: 1201269960
I0521 11:13:05.134429  3494 layer_factory.hpp:77] Creating layer conv3
I0521 11:13:05.134446  3494 net.cpp:106] Creating Layer conv3
I0521 11:13:05.134457  3494 net.cpp:454] conv3 <- pool2
I0521 11:13:05.134474  3494 net.cpp:411] conv3 -> conv3
I0521 11:13:05.136384  3494 net.cpp:150] Setting up conv3
I0521 11:13:05.136407  3494 net.cpp:157] Top shape: 990 28 22 44 (26832960)
I0521 11:13:05.136420  3494 net.cpp:165] Memory required for data: 1308601800
I0521 11:13:05.136437  3494 layer_factory.hpp:77] Creating layer relu3
I0521 11:13:05.136454  3494 net.cpp:106] Creating Layer relu3
I0521 11:13:05.136464  3494 net.cpp:454] relu3 <- conv3
I0521 11:13:05.136477  3494 net.cpp:397] relu3 -> conv3 (in-place)
I0521 11:13:05.136946  3494 net.cpp:150] Setting up relu3
I0521 11:13:05.136970  3494 net.cpp:157] Top shape: 990 28 22 44 (26832960)
I0521 11:13:05.136981  3494 net.cpp:165] Memory required for data: 1415933640
I0521 11:13:05.136991  3494 layer_factory.hpp:77] Creating layer pool3
I0521 11:13:05.137003  3494 net.cpp:106] Creating Layer pool3
I0521 11:13:05.137013  3494 net.cpp:454] pool3 <- conv3
I0521 11:13:05.137024  3494 net.cpp:411] pool3 -> pool3
I0521 11:13:05.137092  3494 net.cpp:150] Setting up pool3
I0521 11:13:05.137106  3494 net.cpp:157] Top shape: 990 28 11 44 (13416480)
I0521 11:13:05.137116  3494 net.cpp:165] Memory required for data: 1469599560
I0521 11:13:05.137125  3494 layer_factory.hpp:77] Creating layer conv4
I0521 11:13:05.137141  3494 net.cpp:106] Creating Layer conv4
I0521 11:13:05.137151  3494 net.cpp:454] conv4 <- pool3
I0521 11:13:05.137166  3494 net.cpp:411] conv4 -> conv4
I0521 11:13:05.139886  3494 net.cpp:150] Setting up conv4
I0521 11:13:05.139914  3494 net.cpp:157] Top shape: 990 36 6 42 (8981280)
I0521 11:13:05.139925  3494 net.cpp:165] Memory required for data: 1505524680
I0521 11:13:05.139940  3494 layer_factory.hpp:77] Creating layer relu4
I0521 11:13:05.139953  3494 net.cpp:106] Creating Layer relu4
I0521 11:13:05.139964  3494 net.cpp:454] relu4 <- conv4
I0521 11:13:05.139976  3494 net.cpp:397] relu4 -> conv4 (in-place)
I0521 11:13:05.140439  3494 net.cpp:150] Setting up relu4
I0521 11:13:05.140455  3494 net.cpp:157] Top shape: 990 36 6 42 (8981280)
I0521 11:13:05.140466  3494 net.cpp:165] Memory required for data: 1541449800
I0521 11:13:05.140476  3494 layer_factory.hpp:77] Creating layer pool4
I0521 11:13:05.140489  3494 net.cpp:106] Creating Layer pool4
I0521 11:13:05.140499  3494 net.cpp:454] pool4 <- conv4
I0521 11:13:05.140511  3494 net.cpp:411] pool4 -> pool4
I0521 11:13:05.140580  3494 net.cpp:150] Setting up pool4
I0521 11:13:05.140594  3494 net.cpp:157] Top shape: 990 36 3 42 (4490640)
I0521 11:13:05.140604  3494 net.cpp:165] Memory required for data: 1559412360
I0521 11:13:05.140614  3494 layer_factory.hpp:77] Creating layer ip1
I0521 11:13:05.140635  3494 net.cpp:106] Creating Layer ip1
I0521 11:13:05.140645  3494 net.cpp:454] ip1 <- pool4
I0521 11:13:05.140656  3494 net.cpp:411] ip1 -> ip1
I0521 11:13:05.156075  3494 net.cpp:150] Setting up ip1
I0521 11:13:05.156102  3494 net.cpp:157] Top shape: 990 196 (194040)
I0521 11:13:05.156116  3494 net.cpp:165] Memory required for data: 1560188520
I0521 11:13:05.156137  3494 layer_factory.hpp:77] Creating layer relu5
I0521 11:13:05.156152  3494 net.cpp:106] Creating Layer relu5
I0521 11:13:05.156163  3494 net.cpp:454] relu5 <- ip1
I0521 11:13:05.156177  3494 net.cpp:397] relu5 -> ip1 (in-place)
I0521 11:13:05.156515  3494 net.cpp:150] Setting up relu5
I0521 11:13:05.156530  3494 net.cpp:157] Top shape: 990 196 (194040)
I0521 11:13:05.156540  3494 net.cpp:165] Memory required for data: 1560964680
I0521 11:13:05.156550  3494 layer_factory.hpp:77] Creating layer drop1
I0521 11:13:05.156571  3494 net.cpp:106] Creating Layer drop1
I0521 11:13:05.156581  3494 net.cpp:454] drop1 <- ip1
I0521 11:13:05.156607  3494 net.cpp:397] drop1 -> ip1 (in-place)
I0521 11:13:05.156652  3494 net.cpp:150] Setting up drop1
I0521 11:13:05.156666  3494 net.cpp:157] Top shape: 990 196 (194040)
I0521 11:13:05.156677  3494 net.cpp:165] Memory required for data: 1561740840
I0521 11:13:05.156687  3494 layer_factory.hpp:77] Creating layer ip2
I0521 11:13:05.156704  3494 net.cpp:106] Creating Layer ip2
I0521 11:13:05.156715  3494 net.cpp:454] ip2 <- ip1
I0521 11:13:05.156725  3494 net.cpp:411] ip2 -> ip2
I0521 11:13:05.157199  3494 net.cpp:150] Setting up ip2
I0521 11:13:05.157212  3494 net.cpp:157] Top shape: 990 98 (97020)
I0521 11:13:05.157222  3494 net.cpp:165] Memory required for data: 1562128920
I0521 11:13:05.157238  3494 layer_factory.hpp:77] Creating layer relu6
I0521 11:13:05.157250  3494 net.cpp:106] Creating Layer relu6
I0521 11:13:05.157260  3494 net.cpp:454] relu6 <- ip2
I0521 11:13:05.157272  3494 net.cpp:397] relu6 -> ip2 (in-place)
I0521 11:13:05.157784  3494 net.cpp:150] Setting up relu6
I0521 11:13:05.157800  3494 net.cpp:157] Top shape: 990 98 (97020)
I0521 11:13:05.157810  3494 net.cpp:165] Memory required for data: 1562517000
I0521 11:13:05.157820  3494 layer_factory.hpp:77] Creating layer drop2
I0521 11:13:05.157833  3494 net.cpp:106] Creating Layer drop2
I0521 11:13:05.157843  3494 net.cpp:454] drop2 <- ip2
I0521 11:13:05.157856  3494 net.cpp:397] drop2 -> ip2 (in-place)
I0521 11:13:05.157898  3494 net.cpp:150] Setting up drop2
I0521 11:13:05.157912  3494 net.cpp:157] Top shape: 990 98 (97020)
I0521 11:13:05.157922  3494 net.cpp:165] Memory required for data: 1562905080
I0521 11:13:05.157932  3494 layer_factory.hpp:77] Creating layer ip3
I0521 11:13:05.157944  3494 net.cpp:106] Creating Layer ip3
I0521 11:13:05.157954  3494 net.cpp:454] ip3 <- ip2
I0521 11:13:05.157970  3494 net.cpp:411] ip3 -> ip3
I0521 11:13:05.158181  3494 net.cpp:150] Setting up ip3
I0521 11:13:05.158195  3494 net.cpp:157] Top shape: 990 11 (10890)
I0521 11:13:05.158203  3494 net.cpp:165] Memory required for data: 1562948640
I0521 11:13:05.158218  3494 layer_factory.hpp:77] Creating layer drop3
I0521 11:13:05.158231  3494 net.cpp:106] Creating Layer drop3
I0521 11:13:05.158241  3494 net.cpp:454] drop3 <- ip3
I0521 11:13:05.158252  3494 net.cpp:397] drop3 -> ip3 (in-place)
I0521 11:13:05.158293  3494 net.cpp:150] Setting up drop3
I0521 11:13:05.158304  3494 net.cpp:157] Top shape: 990 11 (10890)
I0521 11:13:05.158315  3494 net.cpp:165] Memory required for data: 1562992200
I0521 11:13:05.158324  3494 layer_factory.hpp:77] Creating layer loss
I0521 11:13:05.158344  3494 net.cpp:106] Creating Layer loss
I0521 11:13:05.158354  3494 net.cpp:454] loss <- ip3
I0521 11:13:05.158365  3494 net.cpp:454] loss <- label
I0521 11:13:05.158377  3494 net.cpp:411] loss -> loss
I0521 11:13:05.158395  3494 layer_factory.hpp:77] Creating layer loss
…
I0521 11:13:05.161010  3494 solver.cpp:181] Creating test net (#0) specified by net file: /lustre/atlas/proj-shared/hep105/caffe_titan/caffe_workflow/logs_batch_size_test/batch_size_990_2016-05-20T11.21.08.786002.prototxt
I0521 11:13:05.161080  3494 net.cpp:322] The NetState phase (1) differed from the phase (0) specified by a rule in layer data_hdf5
I0521 11:13:05.161433  3494 net.cpp:49] Initializing net from parameters: 
name: "caffe_test_127x50_x_unshifted"
state {
  phase: TEST
}
layer {
  name: "data_hdf5"
  type: "HDF5Data"
  top: "data"
  top: "label"
  include {
    phase: TEST
  }
  hdf5_data_param {
    source: "/lustre/atlas/proj-shared/hep105/caffe_titan/minosmatch_nukecczdefs_127x50_x_unshifted_me1Bmc.testlist"
    batch_size: 990
  }
}
layer {
  name: "conv1"
  type: "Convolution"
  bottom: "data"
  top: "conv1"
  convolution_param {
    num_output: 12
    pad: 0
    stride: 1
    weight_filler {
      type: "xavier"
    }
    bias_filler {
      type: "constant"
    }
    kernel_h: 8
    kernel_w: 3
  }
}
layer {
  name: "relu1"
  type: "ReLU"
  bottom: "conv1"
  top: "conv1"
}
layer {
  name: "pool1"
  type: "Pooling"
  bottom: "conv1"
  top: "pool1"
  pooling_param {
    pool: MAX
    kernel_h: 2
    kernel_w: 1
    stride_h: 2
    stride_w: 1
  }
}
layer {
  name: "conv2"
  type: "Convolution"
  bottom: "pool1"
  top: "conv2"
  convolution_param {
    num_output: 20
    pad: 0
    stride: 1
    weight_filler {
      type: "xavier"
    }
    bias_filler {
      type: "constant"
    }
    kernel_h: 7
    kernel_w: 3
  }
}
layer {
  name: "relu2"
  type: "ReLU"
  bottom: "conv2"
  top: "conv2"
}
layer {
  name: "pool2"
  type: "Pooling"
  bottom: "conv2"
  top: "pool2"
  pooling_param {
    pool: MAX
    kernel_h: 2
    kernel_w: 1
    stride_h: 2
    stride_w: 1
  }
}
layer {
  name: "conv3"
  type: "Convolution"
  bottom: "pool2"
  top: "conv3"
  convolution_param {
    num_output: 28
    pad: 0
    stride: 1
    weight_filler {
      type: "xavier"
    }
    bias_filler {
      type: "constant"
    }
    kernel_h: 6
    kernel_w: 3
  }
}
layer {
  name: "relu3"
  type: "ReLU"
  bottom: "conv3"
  top: "conv3"
}
layer {
  name: "pool3"
  type: "Pooling"
  bottom: "conv3"
  top: "pool3"
  pooling_param {
    pool: MAX
    kernel_h: 2
    kernel_w: 1
    stride_h: 2
    stride_w: 1
  }
}
layer {
  name: "conv4"
  type: "Convolution"
  bottom: "pool3"
  top: "conv4"
  convolution_param {
    num_output: 36
    pad: 0
    stride: 1
    weight_filler {
      type: "xavier"
    }
    bias_filler {
      type: "constant"
    }
    kernel_h: 6
    kernel_w: 3
  }
}
layer {
  name: "relu4"
  type: "ReLU"
  bottom: "conv4"
  top: "conv4"
}
layer {
  name: "pool4"
  type: "Pooling"
  bottom: "conv4"
  top: "pool4"
  pooling_param {
    pool: MAX
    kernel_h: 2
    kernel_w: 1
    stride_h: 2
    stride_w: 1
  }
}
layer {
  name: "ip1"
  type: "InnerProduct"
  bottom: "pool4"
  top: "ip1"
  inner_product_param {
    num_output: 196
    weight_filler {
      type: "xavier"
    }
    bias_filler {
      type: "constant"
    }
  }
}
layer {
  name: "relu5"
  type: "ReLU"
  bottom: "ip1"
  top: "ip1"
}
layer {
  name: "drop1"
  type: "Dropout"
  bottom: "ip1"
  top: "ip1"
  dropout_param {
    dropout_ratio: 0.5
  }
}
layer {
  name: "ip2"
  type: "InnerProduct"
  bottom: "ip1"
  top: "ip2"
  inner_product_param {
    num_output: 98
    weight_filler {
      type: "xavier"
    }
    bias_filler {
      type: "constant"
    }
  }
}
layer {
  name: "relu6"
  type: "ReLU"
  bottom: "ip2"
  top: "ip2"
}
layer {
  name: "drop2"
  type: "Dropout"
  bottom: "ip2"
  top: "ip2"
  dropout_param {
    dropout_ratio: 0.5
  }
}
layer {
  name: "ip3"
  type: "InnerProduct"
  bottom: "ip2"
  top: "ip3"
  inner_product_param {
    num_output: 11
    weight_filler {
      type: "xavier"
    }
    bias_filler {
      type: "constant"
    }
  }
}
layer {
  name: "drop3"
  type: "Dropout"
  bottom: "ip3"
  top: "ip3"
  dropout_param {
    dropout_ratio: 0.5
  }
}
layer {
  name: "accuracy"
  type: "Accuracy"
  bottom: "ip3"
  bottom: "label"
  top: "accuracy"
  include {
    phase: TEST
  }
}
layer {
  name: "loss"
  type: "SoftmaxWithLoss"
  bottom: "ip3"
  bottom: "label"
  top: "loss"
}
I0521 11:13:05.161623  3494 layer_factory.hpp:77] Creating layer data_hdf5
I0521 11:13:05.161638  3494 net.cpp:106] Creating Layer data_hdf5
I0521 11:13:05.161650  3494 net.cpp:411] data_hdf5 -> data
I0521 11:13:05.161667  3494 net.cpp:411] data_hdf5 -> label
I0521 11:13:05.161684  3494 hdf5_data_layer.cpp:79] Loading list of HDF5 filenames from: /lustre/atlas/proj-shared/hep105/caffe_titan/minosmatch_nukecczdefs_127x50_x_unshifted_me1Bmc.testlist
I0521 11:13:05.163105  3494 hdf5_data_layer.cpp:93] Number of HDF5 files: 3
I0521 11:13:26.450700  3494 net.cpp:150] Setting up data_hdf5
I0521 11:13:26.450865  3494 net.cpp:157] Top shape: 990 1 127 50 (6286500)
I0521 11:13:26.450881  3494 net.cpp:157] Top shape: 990 (990)
I0521 11:13:26.450891  3494 net.cpp:165] Memory required for data: 25149960
I0521 11:13:26.450904  3494 layer_factory.hpp:77] Creating layer label_data_hdf5_1_split
I0521 11:13:26.450932  3494 net.cpp:106] Creating Layer label_data_hdf5_1_split
I0521 11:13:26.450943  3494 net.cpp:454] label_data_hdf5_1_split <- label
I0521 11:13:26.450958  3494 net.cpp:411] label_data_hdf5_1_split -> label_data_hdf5_1_split_0
I0521 11:13:26.450980  3494 net.cpp:411] label_data_hdf5_1_split -> label_data_hdf5_1_split_1
I0521 11:13:26.451053  3494 net.cpp:150] Setting up label_data_hdf5_1_split
I0521 11:13:26.451067  3494 net.cpp:157] Top shape: 990 (990)
I0521 11:13:26.451079  3494 net.cpp:157] Top shape: 990 (990)
I0521 11:13:26.451088  3494 net.cpp:165] Memory required for data: 25157880
I0521 11:13:26.451099  3494 layer_factory.hpp:77] Creating layer conv1
I0521 11:13:26.451120  3494 net.cpp:106] Creating Layer conv1
I0521 11:13:26.451131  3494 net.cpp:454] conv1 <- data
I0521 11:13:26.451145  3494 net.cpp:411] conv1 -> conv1
I0521 11:13:26.453064  3494 net.cpp:150] Setting up conv1
I0521 11:13:26.453089  3494 net.cpp:157] Top shape: 990 12 120 48 (68428800)
I0521 11:13:26.453101  3494 net.cpp:165] Memory required for data: 298873080
I0521 11:13:26.453121  3494 layer_factory.hpp:77] Creating layer relu1
I0521 11:13:26.453136  3494 net.cpp:106] Creating Layer relu1
I0521 11:13:26.453146  3494 net.cpp:454] relu1 <- conv1
I0521 11:13:26.453160  3494 net.cpp:397] relu1 -> conv1 (in-place)
I0521 11:13:26.453655  3494 net.cpp:150] Setting up relu1
I0521 11:13:26.453671  3494 net.cpp:157] Top shape: 990 12 120 48 (68428800)
I0521 11:13:26.453681  3494 net.cpp:165] Memory required for data: 572588280
I0521 11:13:26.453692  3494 layer_factory.hpp:77] Creating layer pool1
I0521 11:13:26.453708  3494 net.cpp:106] Creating Layer pool1
I0521 11:13:26.453718  3494 net.cpp:454] pool1 <- conv1
I0521 11:13:26.453732  3494 net.cpp:411] pool1 -> pool1
I0521 11:13:26.453805  3494 net.cpp:150] Setting up pool1
I0521 11:13:26.453819  3494 net.cpp:157] Top shape: 990 12 60 48 (34214400)
I0521 11:13:26.453829  3494 net.cpp:165] Memory required for data: 709445880
I0521 11:13:26.453838  3494 layer_factory.hpp:77] Creating layer conv2
I0521 11:13:26.453855  3494 net.cpp:106] Creating Layer conv2
I0521 11:13:26.453866  3494 net.cpp:454] conv2 <- pool1
I0521 11:13:26.453881  3494 net.cpp:411] conv2 -> conv2
I0521 11:13:26.455782  3494 net.cpp:150] Setting up conv2
I0521 11:13:26.455806  3494 net.cpp:157] Top shape: 990 20 54 46 (49183200)
I0521 11:13:26.455817  3494 net.cpp:165] Memory required for data: 906178680
I0521 11:13:26.455835  3494 layer_factory.hpp:77] Creating layer relu2
I0521 11:13:26.455848  3494 net.cpp:106] Creating Layer relu2
I0521 11:13:26.455858  3494 net.cpp:454] relu2 <- conv2
I0521 11:13:26.455870  3494 net.cpp:397] relu2 -> conv2 (in-place)
I0521 11:13:26.456204  3494 net.cpp:150] Setting up relu2
I0521 11:13:26.456218  3494 net.cpp:157] Top shape: 990 20 54 46 (49183200)
I0521 11:13:26.456228  3494 net.cpp:165] Memory required for data: 1102911480
I0521 11:13:26.456239  3494 layer_factory.hpp:77] Creating layer pool2
I0521 11:13:26.456253  3494 net.cpp:106] Creating Layer pool2
I0521 11:13:26.456262  3494 net.cpp:454] pool2 <- conv2
I0521 11:13:26.456275  3494 net.cpp:411] pool2 -> pool2
I0521 11:13:26.456346  3494 net.cpp:150] Setting up pool2
I0521 11:13:26.456358  3494 net.cpp:157] Top shape: 990 20 27 46 (24591600)
I0521 11:13:26.456368  3494 net.cpp:165] Memory required for data: 1201277880
I0521 11:13:26.456377  3494 layer_factory.hpp:77] Creating layer conv3
I0521 11:13:26.456395  3494 net.cpp:106] Creating Layer conv3
I0521 11:13:26.456405  3494 net.cpp:454] conv3 <- pool2
I0521 11:13:26.456419  3494 net.cpp:411] conv3 -> conv3
I0521 11:13:26.458397  3494 net.cpp:150] Setting up conv3
I0521 11:13:26.458420  3494 net.cpp:157] Top shape: 990 28 22 44 (26832960)
I0521 11:13:26.458431  3494 net.cpp:165] Memory required for data: 1308609720
I0521 11:13:26.458464  3494 layer_factory.hpp:77] Creating layer relu3
I0521 11:13:26.458477  3494 net.cpp:106] Creating Layer relu3
I0521 11:13:26.458487  3494 net.cpp:454] relu3 <- conv3
I0521 11:13:26.458500  3494 net.cpp:397] relu3 -> conv3 (in-place)
I0521 11:13:26.458968  3494 net.cpp:150] Setting up relu3
I0521 11:13:26.458984  3494 net.cpp:157] Top shape: 990 28 22 44 (26832960)
I0521 11:13:26.458994  3494 net.cpp:165] Memory required for data: 1415941560
I0521 11:13:26.459005  3494 layer_factory.hpp:77] Creating layer pool3
I0521 11:13:26.459017  3494 net.cpp:106] Creating Layer pool3
I0521 11:13:26.459028  3494 net.cpp:454] pool3 <- conv3
I0521 11:13:26.459040  3494 net.cpp:411] pool3 -> pool3
I0521 11:13:26.459112  3494 net.cpp:150] Setting up pool3
I0521 11:13:26.459125  3494 net.cpp:157] Top shape: 990 28 11 44 (13416480)
I0521 11:13:26.459136  3494 net.cpp:165] Memory required for data: 1469607480
I0521 11:13:26.459144  3494 layer_factory.hpp:77] Creating layer conv4
I0521 11:13:26.459162  3494 net.cpp:106] Creating Layer conv4
I0521 11:13:26.459172  3494 net.cpp:454] conv4 <- pool3
I0521 11:13:26.459187  3494 net.cpp:411] conv4 -> conv4
I0521 11:13:26.461241  3494 net.cpp:150] Setting up conv4
I0521 11:13:26.461264  3494 net.cpp:157] Top shape: 990 36 6 42 (8981280)
I0521 11:13:26.461277  3494 net.cpp:165] Memory required for data: 1505532600
I0521 11:13:26.461292  3494 layer_factory.hpp:77] Creating layer relu4
I0521 11:13:26.461304  3494 net.cpp:106] Creating Layer relu4
I0521 11:13:26.461314  3494 net.cpp:454] relu4 <- conv4
I0521 11:13:26.461328  3494 net.cpp:397] relu4 -> conv4 (in-place)
I0521 11:13:26.461802  3494 net.cpp:150] Setting up relu4
I0521 11:13:26.461817  3494 net.cpp:157] Top shape: 990 36 6 42 (8981280)
I0521 11:13:26.461827  3494 net.cpp:165] Memory required for data: 1541457720
I0521 11:13:26.461838  3494 layer_factory.hpp:77] Creating layer pool4
I0521 11:13:26.461850  3494 net.cpp:106] Creating Layer pool4
I0521 11:13:26.461860  3494 net.cpp:454] pool4 <- conv4
I0521 11:13:26.461874  3494 net.cpp:411] pool4 -> pool4
I0521 11:13:26.461944  3494 net.cpp:150] Setting up pool4
I0521 11:13:26.461957  3494 net.cpp:157] Top shape: 990 36 3 42 (4490640)
I0521 11:13:26.461966  3494 net.cpp:165] Memory required for data: 1559420280
I0521 11:13:26.461977  3494 layer_factory.hpp:77] Creating layer ip1
I0521 11:13:26.461992  3494 net.cpp:106] Creating Layer ip1
I0521 11:13:26.462002  3494 net.cpp:454] ip1 <- pool4
I0521 11:13:26.462016  3494 net.cpp:411] ip1 -> ip1
I0521 11:13:26.477486  3494 net.cpp:150] Setting up ip1
I0521 11:13:26.477514  3494 net.cpp:157] Top shape: 990 196 (194040)
I0521 11:13:26.477530  3494 net.cpp:165] Memory required for data: 1560196440
I0521 11:13:26.477557  3494 layer_factory.hpp:77] Creating layer relu5
I0521 11:13:26.477572  3494 net.cpp:106] Creating Layer relu5
I0521 11:13:26.477582  3494 net.cpp:454] relu5 <- ip1
I0521 11:13:26.477596  3494 net.cpp:397] relu5 -> ip1 (in-place)
I0521 11:13:26.477941  3494 net.cpp:150] Setting up relu5
I0521 11:13:26.477955  3494 net.cpp:157] Top shape: 990 196 (194040)
I0521 11:13:26.477965  3494 net.cpp:165] Memory required for data: 1560972600
I0521 11:13:26.477975  3494 layer_factory.hpp:77] Creating layer drop1
I0521 11:13:26.477994  3494 net.cpp:106] Creating Layer drop1
I0521 11:13:26.478004  3494 net.cpp:454] drop1 <- ip1
I0521 11:13:26.478018  3494 net.cpp:397] drop1 -> ip1 (in-place)
I0521 11:13:26.478061  3494 net.cpp:150] Setting up drop1
I0521 11:13:26.478073  3494 net.cpp:157] Top shape: 990 196 (194040)
I0521 11:13:26.478083  3494 net.cpp:165] Memory required for data: 1561748760
I0521 11:13:26.478093  3494 layer_factory.hpp:77] Creating layer ip2
I0521 11:13:26.478108  3494 net.cpp:106] Creating Layer ip2
I0521 11:13:26.478118  3494 net.cpp:454] ip2 <- ip1
I0521 11:13:26.478132  3494 net.cpp:411] ip2 -> ip2
I0521 11:13:26.478611  3494 net.cpp:150] Setting up ip2
I0521 11:13:26.478624  3494 net.cpp:157] Top shape: 990 98 (97020)
I0521 11:13:26.478634  3494 net.cpp:165] Memory required for data: 1562136840
I0521 11:13:26.478662  3494 layer_factory.hpp:77] Creating layer relu6
I0521 11:13:26.478675  3494 net.cpp:106] Creating Layer relu6
I0521 11:13:26.478685  3494 net.cpp:454] relu6 <- ip2
I0521 11:13:26.478698  3494 net.cpp:397] relu6 -> ip2 (in-place)
I0521 11:13:26.479228  3494 net.cpp:150] Setting up relu6
I0521 11:13:26.479243  3494 net.cpp:157] Top shape: 990 98 (97020)
I0521 11:13:26.479252  3494 net.cpp:165] Memory required for data: 1562524920
I0521 11:13:26.479264  3494 layer_factory.hpp:77] Creating layer drop2
I0521 11:13:26.479276  3494 net.cpp:106] Creating Layer drop2
I0521 11:13:26.479286  3494 net.cpp:454] drop2 <- ip2
I0521 11:13:26.479298  3494 net.cpp:397] drop2 -> ip2 (in-place)
I0521 11:13:26.479341  3494 net.cpp:150] Setting up drop2
I0521 11:13:26.479354  3494 net.cpp:157] Top shape: 990 98 (97020)
I0521 11:13:26.479364  3494 net.cpp:165] Memory required for data: 1562913000
I0521 11:13:26.479373  3494 layer_factory.hpp:77] Creating layer ip3
I0521 11:13:26.479387  3494 net.cpp:106] Creating Layer ip3
I0521 11:13:26.479398  3494 net.cpp:454] ip3 <- ip2
I0521 11:13:26.479411  3494 net.cpp:411] ip3 -> ip3
I0521 11:13:26.479635  3494 net.cpp:150] Setting up ip3
I0521 11:13:26.479647  3494 net.cpp:157] Top shape: 990 11 (10890)
I0521 11:13:26.479656  3494 net.cpp:165] Memory required for data: 1562956560
I0521 11:13:26.479672  3494 layer_factory.hpp:77] Creating layer drop3
I0521 11:13:26.479684  3494 net.cpp:106] Creating Layer drop3
I0521 11:13:26.479694  3494 net.cpp:454] drop3 <- ip3
I0521 11:13:26.479707  3494 net.cpp:397] drop3 -> ip3 (in-place)
I0521 11:13:26.479748  3494 net.cpp:150] Setting up drop3
I0521 11:13:26.479760  3494 net.cpp:157] Top shape: 990 11 (10890)
I0521 11:13:26.479770  3494 net.cpp:165] Memory required for data: 1563000120
I0521 11:13:26.479780  3494 layer_factory.hpp:77] Creating layer ip3_drop3_0_split
I0521 11:13:26.479792  3494 net.cpp:106] Creating Layer ip3_drop3_0_split
I0521 11:13:26.479802  3494 net.cpp:454] ip3_drop3_0_split <- ip3
I0521 11:13:26.479815  3494 net.cpp:411] ip3_drop3_0_split -> ip3_drop3_0_split_0
I0521 11:13:26.479830  3494 net.cpp:411] ip3_drop3_0_split -> ip3_drop3_0_split_1
I0521 11:13:26.479902  3494 net.cpp:150] Setting up ip3_drop3_0_split
I0521 11:13:26.479915  3494 net.cpp:157] Top shape: 990 11 (10890)
I0521 11:13:26.479928  3494 net.cpp:157] Top shape: 990 11 (10890)
I0521 11:13:26.479938  3494 net.cpp:165] Memory required for data: 1563087240
I0521 11:13:26.479948  3494 layer_factory.hpp:77] Creating layer accuracy
I0521 11:13:26.479969  3494 net.cpp:106] Creating Layer accuracy
I0521 11:13:26.479979  3494 net.cpp:454] accuracy <- ip3_drop3_0_split_0
I0521 11:13:26.479990  3494 net.cpp:454] accuracy <- label_data_hdf5_1_split_0
I0521 11:13:26.480005  3494 net.cpp:411] accuracy -> accuracy
…
