…
I0521 00:08:26.982017  9137 net.cpp:322] The NetState phase (0) differed from the phase (1) specified by a rule in layer data_hdf5
I0521 00:08:26.982076  9137 net.cpp:322] The NetState phase (0) differed from the phase (1) specified by a rule in layer accuracy
I0521 00:08:26.982419  9137 net.cpp:49] Initializing net from parameters: 
name: "caffe_test_127x50_x_unshifted"
state {
  phase: TRAIN
}
layer {
  name: "data_hdf5"
  type: "HDF5Data"
  top: "data"
  top: "label"
  include {
    phase: TRAIN
  }
  hdf5_data_param {
    source: "/lustre/atlas/proj-shared/hep105/caffe_titan/minosmatch_nukecczdefs_127x50_x_unshifted_me1Bmc.trainlist"
    batch_size: 460
  }
}
layer {
  name: "conv1"
  type: "Convolution"
  bottom: "data"
  top: "conv1"
  convolution_param {
    num_output: 12
    pad: 0
    stride: 1
    weight_filler {
      type: "xavier"
    }
    bias_filler {
      type: "constant"
    }
    kernel_h: 8
    kernel_w: 3
  }
}
layer {
  name: "relu1"
  type: "ReLU"
  bottom: "conv1"
  top: "conv1"
}
layer {
  name: "pool1"
  type: "Pooling"
  bottom: "conv1"
  top: "pool1"
  pooling_param {
    pool: MAX
    kernel_h: 2
    kernel_w: 1
    stride_h: 2
    stride_w: 1
  }
}
layer {
  name: "conv2"
  type: "Convolution"
  bottom: "pool1"
  top: "conv2"
  convolution_param {
    num_output: 20
    pad: 0
    stride: 1
    weight_filler {
      type: "xavier"
    }
    bias_filler {
      type: "constant"
    }
    kernel_h: 7
    kernel_w: 3
  }
}
layer {
  name: "relu2"
  type: "ReLU"
  bottom: "conv2"
  top: "conv2"
}
layer {
  name: "pool2"
  type: "Pooling"
  bottom: "conv2"
  top: "pool2"
  pooling_param {
    pool: MAX
    kernel_h: 2
    kernel_w: 1
    stride_h: 2
    stride_w: 1
  }
}
layer {
  name: "conv3"
  type: "Convolution"
  bottom: "pool2"
  top: "conv3"
  convolution_param {
    num_output: 28
    pad: 0
    stride: 1
    weight_filler {
      type: "xavier"
    }
    bias_filler {
      type: "constant"
    }
    kernel_h: 6
    kernel_w: 3
  }
}
layer {
  name: "relu3"
  type: "ReLU"
  bottom: "conv3"
  top: "conv3"
}
layer {
  name: "pool3"
  type: "Pooling"
  bottom: "conv3"
  top: "pool3"
  pooling_param {
    pool: MAX
    kernel_h: 2
    kernel_w: 1
    stride_h: 2
    stride_w: 1
  }
}
layer {
  name: "conv4"
  type: "Convolution"
  bottom: "pool3"
  top: "conv4"
  convolution_param {
    num_output: 36
    pad: 0
    stride: 1
    weight_filler {
      type: "xavier"
    }
    bias_filler {
      type: "constant"
    }
    kernel_h: 6
    kernel_w: 3
  }
}
layer {
  name: "relu4"
  type: "ReLU"
  bottom: "conv4"
  top: "conv4"
}
layer {
  name: "pool4"
  type: "Pooling"
  bottom: "conv4"
  top: "pool4"
  pooling_param {
    pool: MAX
    kernel_h: 2
    kernel_w: 1
    stride_h: 2
    stride_w: 1
  }
}
layer {
  name: "ip1"
  type: "InnerProduct"
  bottom: "pool4"
  top: "ip1"
  inner_product_param {
    num_output: 196
    weight_filler {
      type: "xavier"
    }
    bias_filler {
      type: "constant"
    }
  }
}
layer {
  name: "relu5"
  type: "ReLU"
  bottom: "ip1"
  top: "ip1"
}
layer {
  name: "drop1"
  type: "Dropout"
  bottom: "ip1"
  top: "ip1"
  dropout_param {
    dropout_ratio: 0.5
  }
}
layer {
  name: "ip2"
  type: "InnerProduct"
  bottom: "ip1"
  top: "ip2"
  inner_product_param {
    num_output: 98
    weight_filler {
      type: "xavier"
    }
    bias_filler {
      type: "constant"
    }
  }
}
layer {
  name: "relu6"
  type: "ReLU"
  bottom: "ip2"
  top: "ip2"
}
layer {
  name: "drop2"
  type: "Dropout"
  bottom: "ip2"
  top: "ip2"
  dropout_param {
    dropout_ratio: 0.5
  }
}
layer {
  name: "ip3"
  type: "InnerProduct"
  bottom: "ip2"
  top: "ip3"
  inner_product_param {
    num_output: 11
    weight_filler {
      type: "xavier"
    }
    bias_filler {
      type: "constant"
    }
  }
}
layer {
  name: "drop3"
  type: "Dropout"
  bottom: "ip3"
  top: "ip3"
  dropout_param {
    dropout_ratio: 0.5
  }
}
layer {
  name: "loss"
  type: "SoftmaxWithLoss"
  bottom: "ip3"
  bottom: "label"
  top: "loss"
}
I0521 00:08:26.982599  9137 layer_factory.hpp:77] Creating layer data_hdf5
I0521 00:08:26.982623  9137 net.cpp:106] Creating Layer data_hdf5
I0521 00:08:26.982638  9137 net.cpp:411] data_hdf5 -> data
I0521 00:08:26.982671  9137 net.cpp:411] data_hdf5 -> label
I0521 00:08:26.982703  9137 hdf5_data_layer.cpp:79] Loading list of HDF5 filenames from: /lustre/atlas/proj-shared/hep105/caffe_titan/minosmatch_nukecczdefs_127x50_x_unshifted_me1Bmc.trainlist
I0521 00:08:26.984040  9137 hdf5_data_layer.cpp:93] Number of HDF5 files: 15
I0521 00:08:26.986289  9137 hdf5.cpp:32] Datatype class: H5T_FLOAT
I0521 00:08:48.530920  9137 hdf5.cpp:35] Datatype class: H5T_INTEGER
I0521 00:08:48.536093  9137 net.cpp:150] Setting up data_hdf5
I0521 00:08:48.536139  9137 net.cpp:157] Top shape: 460 1 127 50 (2921000)
I0521 00:08:48.536154  9137 net.cpp:157] Top shape: 460 (460)
I0521 00:08:48.536164  9137 net.cpp:165] Memory required for data: 11685840
I0521 00:08:48.536176  9137 layer_factory.hpp:77] Creating layer conv1
I0521 00:08:48.536211  9137 net.cpp:106] Creating Layer conv1
I0521 00:08:48.536222  9137 net.cpp:454] conv1 <- data
I0521 00:08:48.536247  9137 net.cpp:411] conv1 -> conv1
I0521 00:08:48.903818  9137 net.cpp:150] Setting up conv1
I0521 00:08:48.903864  9137 net.cpp:157] Top shape: 460 12 120 48 (31795200)
I0521 00:08:48.903877  9137 net.cpp:165] Memory required for data: 138866640
I0521 00:08:48.903904  9137 layer_factory.hpp:77] Creating layer relu1
I0521 00:08:48.903925  9137 net.cpp:106] Creating Layer relu1
I0521 00:08:48.903936  9137 net.cpp:454] relu1 <- conv1
I0521 00:08:48.903950  9137 net.cpp:397] relu1 -> conv1 (in-place)
I0521 00:08:48.904465  9137 net.cpp:150] Setting up relu1
I0521 00:08:48.904481  9137 net.cpp:157] Top shape: 460 12 120 48 (31795200)
I0521 00:08:48.904492  9137 net.cpp:165] Memory required for data: 266047440
I0521 00:08:48.904502  9137 layer_factory.hpp:77] Creating layer pool1
I0521 00:08:48.904518  9137 net.cpp:106] Creating Layer pool1
I0521 00:08:48.904528  9137 net.cpp:454] pool1 <- conv1
I0521 00:08:48.904541  9137 net.cpp:411] pool1 -> pool1
I0521 00:08:48.904621  9137 net.cpp:150] Setting up pool1
I0521 00:08:48.904635  9137 net.cpp:157] Top shape: 460 12 60 48 (15897600)
I0521 00:08:48.904644  9137 net.cpp:165] Memory required for data: 329637840
I0521 00:08:48.904655  9137 layer_factory.hpp:77] Creating layer conv2
I0521 00:08:48.904678  9137 net.cpp:106] Creating Layer conv2
I0521 00:08:48.904688  9137 net.cpp:454] conv2 <- pool1
I0521 00:08:48.904701  9137 net.cpp:411] conv2 -> conv2
I0521 00:08:48.907376  9137 net.cpp:150] Setting up conv2
I0521 00:08:48.907403  9137 net.cpp:157] Top shape: 460 20 54 46 (22852800)
I0521 00:08:48.907413  9137 net.cpp:165] Memory required for data: 421049040
I0521 00:08:48.907433  9137 layer_factory.hpp:77] Creating layer relu2
I0521 00:08:48.907447  9137 net.cpp:106] Creating Layer relu2
I0521 00:08:48.907457  9137 net.cpp:454] relu2 <- conv2
I0521 00:08:48.907483  9137 net.cpp:397] relu2 -> conv2 (in-place)
I0521 00:08:48.907815  9137 net.cpp:150] Setting up relu2
I0521 00:08:48.907829  9137 net.cpp:157] Top shape: 460 20 54 46 (22852800)
I0521 00:08:48.907840  9137 net.cpp:165] Memory required for data: 512460240
I0521 00:08:48.907850  9137 layer_factory.hpp:77] Creating layer pool2
I0521 00:08:48.907863  9137 net.cpp:106] Creating Layer pool2
I0521 00:08:48.907873  9137 net.cpp:454] pool2 <- conv2
I0521 00:08:48.907898  9137 net.cpp:411] pool2 -> pool2
I0521 00:08:48.907968  9137 net.cpp:150] Setting up pool2
I0521 00:08:48.907980  9137 net.cpp:157] Top shape: 460 20 27 46 (11426400)
I0521 00:08:48.907990  9137 net.cpp:165] Memory required for data: 558165840
I0521 00:08:48.908001  9137 layer_factory.hpp:77] Creating layer conv3
I0521 00:08:48.908018  9137 net.cpp:106] Creating Layer conv3
I0521 00:08:48.908030  9137 net.cpp:454] conv3 <- pool2
I0521 00:08:48.908042  9137 net.cpp:411] conv3 -> conv3
I0521 00:08:48.909955  9137 net.cpp:150] Setting up conv3
I0521 00:08:48.909979  9137 net.cpp:157] Top shape: 460 28 22 44 (12467840)
I0521 00:08:48.909991  9137 net.cpp:165] Memory required for data: 608037200
I0521 00:08:48.910009  9137 layer_factory.hpp:77] Creating layer relu3
I0521 00:08:48.910025  9137 net.cpp:106] Creating Layer relu3
I0521 00:08:48.910035  9137 net.cpp:454] relu3 <- conv3
I0521 00:08:48.910048  9137 net.cpp:397] relu3 -> conv3 (in-place)
I0521 00:08:48.910517  9137 net.cpp:150] Setting up relu3
I0521 00:08:48.910534  9137 net.cpp:157] Top shape: 460 28 22 44 (12467840)
I0521 00:08:48.910544  9137 net.cpp:165] Memory required for data: 657908560
I0521 00:08:48.910554  9137 layer_factory.hpp:77] Creating layer pool3
I0521 00:08:48.910567  9137 net.cpp:106] Creating Layer pool3
I0521 00:08:48.910578  9137 net.cpp:454] pool3 <- conv3
I0521 00:08:48.910589  9137 net.cpp:411] pool3 -> pool3
I0521 00:08:48.910657  9137 net.cpp:150] Setting up pool3
I0521 00:08:48.910670  9137 net.cpp:157] Top shape: 460 28 11 44 (6233920)
I0521 00:08:48.910681  9137 net.cpp:165] Memory required for data: 682844240
I0521 00:08:48.910688  9137 layer_factory.hpp:77] Creating layer conv4
I0521 00:08:48.910706  9137 net.cpp:106] Creating Layer conv4
I0521 00:08:48.910717  9137 net.cpp:454] conv4 <- pool3
I0521 00:08:48.910730  9137 net.cpp:411] conv4 -> conv4
I0521 00:08:48.913519  9137 net.cpp:150] Setting up conv4
I0521 00:08:48.913543  9137 net.cpp:157] Top shape: 460 36 6 42 (4173120)
I0521 00:08:48.913554  9137 net.cpp:165] Memory required for data: 699536720
I0521 00:08:48.913569  9137 layer_factory.hpp:77] Creating layer relu4
I0521 00:08:48.913583  9137 net.cpp:106] Creating Layer relu4
I0521 00:08:48.913594  9137 net.cpp:454] relu4 <- conv4
I0521 00:08:48.913607  9137 net.cpp:397] relu4 -> conv4 (in-place)
I0521 00:08:48.914077  9137 net.cpp:150] Setting up relu4
I0521 00:08:48.914093  9137 net.cpp:157] Top shape: 460 36 6 42 (4173120)
I0521 00:08:48.914103  9137 net.cpp:165] Memory required for data: 716229200
I0521 00:08:48.914113  9137 layer_factory.hpp:77] Creating layer pool4
I0521 00:08:48.914126  9137 net.cpp:106] Creating Layer pool4
I0521 00:08:48.914136  9137 net.cpp:454] pool4 <- conv4
I0521 00:08:48.914149  9137 net.cpp:411] pool4 -> pool4
I0521 00:08:48.914217  9137 net.cpp:150] Setting up pool4
I0521 00:08:48.914232  9137 net.cpp:157] Top shape: 460 36 3 42 (2086560)
I0521 00:08:48.914242  9137 net.cpp:165] Memory required for data: 724575440
I0521 00:08:48.914252  9137 layer_factory.hpp:77] Creating layer ip1
I0521 00:08:48.914271  9137 net.cpp:106] Creating Layer ip1
I0521 00:08:48.914283  9137 net.cpp:454] ip1 <- pool4
I0521 00:08:48.914294  9137 net.cpp:411] ip1 -> ip1
I0521 00:08:48.929817  9137 net.cpp:150] Setting up ip1
I0521 00:08:48.929846  9137 net.cpp:157] Top shape: 460 196 (90160)
I0521 00:08:48.929862  9137 net.cpp:165] Memory required for data: 724936080
I0521 00:08:48.929889  9137 layer_factory.hpp:77] Creating layer relu5
I0521 00:08:48.929904  9137 net.cpp:106] Creating Layer relu5
I0521 00:08:48.929915  9137 net.cpp:454] relu5 <- ip1
I0521 00:08:48.929929  9137 net.cpp:397] relu5 -> ip1 (in-place)
I0521 00:08:48.930270  9137 net.cpp:150] Setting up relu5
I0521 00:08:48.930284  9137 net.cpp:157] Top shape: 460 196 (90160)
I0521 00:08:48.930294  9137 net.cpp:165] Memory required for data: 725296720
I0521 00:08:48.930305  9137 layer_factory.hpp:77] Creating layer drop1
I0521 00:08:48.930326  9137 net.cpp:106] Creating Layer drop1
I0521 00:08:48.930336  9137 net.cpp:454] drop1 <- ip1
I0521 00:08:48.930363  9137 net.cpp:397] drop1 -> ip1 (in-place)
I0521 00:08:48.930410  9137 net.cpp:150] Setting up drop1
I0521 00:08:48.930424  9137 net.cpp:157] Top shape: 460 196 (90160)
I0521 00:08:48.930434  9137 net.cpp:165] Memory required for data: 725657360
I0521 00:08:48.930444  9137 layer_factory.hpp:77] Creating layer ip2
I0521 00:08:48.930462  9137 net.cpp:106] Creating Layer ip2
I0521 00:08:48.930474  9137 net.cpp:454] ip2 <- ip1
I0521 00:08:48.930485  9137 net.cpp:411] ip2 -> ip2
I0521 00:08:48.930953  9137 net.cpp:150] Setting up ip2
I0521 00:08:48.930966  9137 net.cpp:157] Top shape: 460 98 (45080)
I0521 00:08:48.930976  9137 net.cpp:165] Memory required for data: 725837680
I0521 00:08:48.930991  9137 layer_factory.hpp:77] Creating layer relu6
I0521 00:08:48.931005  9137 net.cpp:106] Creating Layer relu6
I0521 00:08:48.931015  9137 net.cpp:454] relu6 <- ip2
I0521 00:08:48.931026  9137 net.cpp:397] relu6 -> ip2 (in-place)
I0521 00:08:48.931556  9137 net.cpp:150] Setting up relu6
I0521 00:08:48.931572  9137 net.cpp:157] Top shape: 460 98 (45080)
I0521 00:08:48.931583  9137 net.cpp:165] Memory required for data: 726018000
I0521 00:08:48.931593  9137 layer_factory.hpp:77] Creating layer drop2
I0521 00:08:48.931607  9137 net.cpp:106] Creating Layer drop2
I0521 00:08:48.931617  9137 net.cpp:454] drop2 <- ip2
I0521 00:08:48.931628  9137 net.cpp:397] drop2 -> ip2 (in-place)
I0521 00:08:48.931670  9137 net.cpp:150] Setting up drop2
I0521 00:08:48.931684  9137 net.cpp:157] Top shape: 460 98 (45080)
I0521 00:08:48.931694  9137 net.cpp:165] Memory required for data: 726198320
I0521 00:08:48.931704  9137 layer_factory.hpp:77] Creating layer ip3
I0521 00:08:48.931717  9137 net.cpp:106] Creating Layer ip3
I0521 00:08:48.931727  9137 net.cpp:454] ip3 <- ip2
I0521 00:08:48.931740  9137 net.cpp:411] ip3 -> ip3
I0521 00:08:48.931951  9137 net.cpp:150] Setting up ip3
I0521 00:08:48.931965  9137 net.cpp:157] Top shape: 460 11 (5060)
I0521 00:08:48.931974  9137 net.cpp:165] Memory required for data: 726218560
I0521 00:08:48.931990  9137 layer_factory.hpp:77] Creating layer drop3
I0521 00:08:48.932003  9137 net.cpp:106] Creating Layer drop3
I0521 00:08:48.932013  9137 net.cpp:454] drop3 <- ip3
I0521 00:08:48.932024  9137 net.cpp:397] drop3 -> ip3 (in-place)
I0521 00:08:48.932062  9137 net.cpp:150] Setting up drop3
I0521 00:08:48.932075  9137 net.cpp:157] Top shape: 460 11 (5060)
I0521 00:08:48.932085  9137 net.cpp:165] Memory required for data: 726238800
I0521 00:08:48.932096  9137 layer_factory.hpp:77] Creating layer loss
I0521 00:08:48.932114  9137 net.cpp:106] Creating Layer loss
I0521 00:08:48.932126  9137 net.cpp:454] loss <- ip3
I0521 00:08:48.932137  9137 net.cpp:454] loss <- label
I0521 00:08:48.932148  9137 net.cpp:411] loss -> loss
I0521 00:08:48.932165  9137 layer_factory.hpp:77] Creating layer loss
…
I0521 00:08:48.934782  9137 solver.cpp:181] Creating test net (#0) specified by net file: /lustre/atlas/proj-shared/hep105/caffe_titan/caffe_workflow/logs_batch_size_test/batch_size_460_2016-05-20T11.20.49.329925.prototxt
I0521 00:08:48.934854  9137 net.cpp:322] The NetState phase (1) differed from the phase (0) specified by a rule in layer data_hdf5
I0521 00:08:48.935209  9137 net.cpp:49] Initializing net from parameters: 
name: "caffe_test_127x50_x_unshifted"
state {
  phase: TEST
}
layer {
  name: "data_hdf5"
  type: "HDF5Data"
  top: "data"
  top: "label"
  include {
    phase: TEST
  }
  hdf5_data_param {
    source: "/lustre/atlas/proj-shared/hep105/caffe_titan/minosmatch_nukecczdefs_127x50_x_unshifted_me1Bmc.testlist"
    batch_size: 460
  }
}
layer {
  name: "conv1"
  type: "Convolution"
  bottom: "data"
  top: "conv1"
  convolution_param {
    num_output: 12
    pad: 0
    stride: 1
    weight_filler {
      type: "xavier"
    }
    bias_filler {
      type: "constant"
    }
    kernel_h: 8
    kernel_w: 3
  }
}
layer {
  name: "relu1"
  type: "ReLU"
  bottom: "conv1"
  top: "conv1"
}
layer {
  name: "pool1"
  type: "Pooling"
  bottom: "conv1"
  top: "pool1"
  pooling_param {
    pool: MAX
    kernel_h: 2
    kernel_w: 1
    stride_h: 2
    stride_w: 1
  }
}
layer {
  name: "conv2"
  type: "Convolution"
  bottom: "pool1"
  top: "conv2"
  convolution_param {
    num_output: 20
    pad: 0
    stride: 1
    weight_filler {
      type: "xavier"
    }
    bias_filler {
      type: "constant"
    }
    kernel_h: 7
    kernel_w: 3
  }
}
layer {
  name: "relu2"
  type: "ReLU"
  bottom: "conv2"
  top: "conv2"
}
layer {
  name: "pool2"
  type: "Pooling"
  bottom: "conv2"
  top: "pool2"
  pooling_param {
    pool: MAX
    kernel_h: 2
    kernel_w: 1
    stride_h: 2
    stride_w: 1
  }
}
layer {
  name: "conv3"
  type: "Convolution"
  bottom: "pool2"
  top: "conv3"
  convolution_param {
    num_output: 28
    pad: 0
    stride: 1
    weight_filler {
      type: "xavier"
    }
    bias_filler {
      type: "constant"
    }
    kernel_h: 6
    kernel_w: 3
  }
}
layer {
  name: "relu3"
  type: "ReLU"
  bottom: "conv3"
  top: "conv3"
}
layer {
  name: "pool3"
  type: "Pooling"
  bottom: "conv3"
  top: "pool3"
  pooling_param {
    pool: MAX
    kernel_h: 2
    kernel_w: 1
    stride_h: 2
    stride_w: 1
  }
}
layer {
  name: "conv4"
  type: "Convolution"
  bottom: "pool3"
  top: "conv4"
  convolution_param {
    num_output: 36
    pad: 0
    stride: 1
    weight_filler {
      type: "xavier"
    }
    bias_filler {
      type: "constant"
    }
    kernel_h: 6
    kernel_w: 3
  }
}
layer {
  name: "relu4"
  type: "ReLU"
  bottom: "conv4"
  top: "conv4"
}
layer {
  name: "pool4"
  type: "Pooling"
  bottom: "conv4"
  top: "pool4"
  pooling_param {
    pool: MAX
    kernel_h: 2
    kernel_w: 1
    stride_h: 2
    stride_w: 1
  }
}
layer {
  name: "ip1"
  type: "InnerProduct"
  bottom: "pool4"
  top: "ip1"
  inner_product_param {
    num_output: 196
    weight_filler {
      type: "xavier"
    }
    bias_filler {
      type: "constant"
    }
  }
}
layer {
  name: "relu5"
  type: "ReLU"
  bottom: "ip1"
  top: "ip1"
}
layer {
  name: "drop1"
  type: "Dropout"
  bottom: "ip1"
  top: "ip1"
  dropout_param {
    dropout_ratio: 0.5
  }
}
layer {
  name: "ip2"
  type: "InnerProduct"
  bottom: "ip1"
  top: "ip2"
  inner_product_param {
    num_output: 98
    weight_filler {
      type: "xavier"
    }
    bias_filler {
      type: "constant"
    }
  }
}
layer {
  name: "relu6"
  type: "ReLU"
  bottom: "ip2"
  top: "ip2"
}
layer {
  name: "drop2"
  type: "Dropout"
  bottom: "ip2"
  top: "ip2"
  dropout_param {
    dropout_ratio: 0.5
  }
}
layer {
  name: "ip3"
  type: "InnerProduct"
  bottom: "ip2"
  top: "ip3"
  inner_product_param {
    num_output: 11
    weight_filler {
      type: "xavier"
    }
    bias_filler {
      type: "constant"
    }
  }
}
layer {
  name: "drop3"
  type: "Dropout"
  bottom: "ip3"
  top: "ip3"
  dropout_param {
    dropout_ratio: 0.5
  }
}
layer {
  name: "accuracy"
  type: "Accuracy"
  bottom: "ip3"
  bottom: "label"
  top: "accuracy"
  include {
    phase: TEST
  }
}
layer {
  name: "loss"
  type: "SoftmaxWithLoss"
  bottom: "ip3"
  bottom: "label"
  top: "loss"
}
I0521 00:08:48.935400  9137 layer_factory.hpp:77] Creating layer data_hdf5
I0521 00:08:48.935415  9137 net.cpp:106] Creating Layer data_hdf5
I0521 00:08:48.935427  9137 net.cpp:411] data_hdf5 -> data
I0521 00:08:48.935443  9137 net.cpp:411] data_hdf5 -> label
I0521 00:08:48.935461  9137 hdf5_data_layer.cpp:79] Loading list of HDF5 filenames from: /lustre/atlas/proj-shared/hep105/caffe_titan/minosmatch_nukecczdefs_127x50_x_unshifted_me1Bmc.testlist
I0521 00:08:48.936658  9137 hdf5_data_layer.cpp:93] Number of HDF5 files: 3
I0521 00:09:10.257526  9137 net.cpp:150] Setting up data_hdf5
I0521 00:09:10.257691  9137 net.cpp:157] Top shape: 460 1 127 50 (2921000)
I0521 00:09:10.257705  9137 net.cpp:157] Top shape: 460 (460)
I0521 00:09:10.257716  9137 net.cpp:165] Memory required for data: 11685840
I0521 00:09:10.257730  9137 layer_factory.hpp:77] Creating layer label_data_hdf5_1_split
I0521 00:09:10.257758  9137 net.cpp:106] Creating Layer label_data_hdf5_1_split
I0521 00:09:10.257769  9137 net.cpp:454] label_data_hdf5_1_split <- label
I0521 00:09:10.257784  9137 net.cpp:411] label_data_hdf5_1_split -> label_data_hdf5_1_split_0
I0521 00:09:10.257807  9137 net.cpp:411] label_data_hdf5_1_split -> label_data_hdf5_1_split_1
I0521 00:09:10.257879  9137 net.cpp:150] Setting up label_data_hdf5_1_split
I0521 00:09:10.257892  9137 net.cpp:157] Top shape: 460 (460)
I0521 00:09:10.257905  9137 net.cpp:157] Top shape: 460 (460)
I0521 00:09:10.257913  9137 net.cpp:165] Memory required for data: 11689520
I0521 00:09:10.257923  9137 layer_factory.hpp:77] Creating layer conv1
I0521 00:09:10.257946  9137 net.cpp:106] Creating Layer conv1
I0521 00:09:10.257956  9137 net.cpp:454] conv1 <- data
I0521 00:09:10.257971  9137 net.cpp:411] conv1 -> conv1
I0521 00:09:10.259930  9137 net.cpp:150] Setting up conv1
I0521 00:09:10.259954  9137 net.cpp:157] Top shape: 460 12 120 48 (31795200)
I0521 00:09:10.259966  9137 net.cpp:165] Memory required for data: 138870320
I0521 00:09:10.259986  9137 layer_factory.hpp:77] Creating layer relu1
I0521 00:09:10.260001  9137 net.cpp:106] Creating Layer relu1
I0521 00:09:10.260012  9137 net.cpp:454] relu1 <- conv1
I0521 00:09:10.260025  9137 net.cpp:397] relu1 -> conv1 (in-place)
I0521 00:09:10.260524  9137 net.cpp:150] Setting up relu1
I0521 00:09:10.260540  9137 net.cpp:157] Top shape: 460 12 120 48 (31795200)
I0521 00:09:10.260550  9137 net.cpp:165] Memory required for data: 266051120
I0521 00:09:10.260560  9137 layer_factory.hpp:77] Creating layer pool1
I0521 00:09:10.260577  9137 net.cpp:106] Creating Layer pool1
I0521 00:09:10.260587  9137 net.cpp:454] pool1 <- conv1
I0521 00:09:10.260601  9137 net.cpp:411] pool1 -> pool1
I0521 00:09:10.260675  9137 net.cpp:150] Setting up pool1
I0521 00:09:10.260689  9137 net.cpp:157] Top shape: 460 12 60 48 (15897600)
I0521 00:09:10.260699  9137 net.cpp:165] Memory required for data: 329641520
I0521 00:09:10.260710  9137 layer_factory.hpp:77] Creating layer conv2
I0521 00:09:10.260726  9137 net.cpp:106] Creating Layer conv2
I0521 00:09:10.260738  9137 net.cpp:454] conv2 <- pool1
I0521 00:09:10.260752  9137 net.cpp:411] conv2 -> conv2
I0521 00:09:10.262678  9137 net.cpp:150] Setting up conv2
I0521 00:09:10.262701  9137 net.cpp:157] Top shape: 460 20 54 46 (22852800)
I0521 00:09:10.262713  9137 net.cpp:165] Memory required for data: 421052720
I0521 00:09:10.262732  9137 layer_factory.hpp:77] Creating layer relu2
I0521 00:09:10.262745  9137 net.cpp:106] Creating Layer relu2
I0521 00:09:10.262755  9137 net.cpp:454] relu2 <- conv2
I0521 00:09:10.262768  9137 net.cpp:397] relu2 -> conv2 (in-place)
I0521 00:09:10.263103  9137 net.cpp:150] Setting up relu2
I0521 00:09:10.263116  9137 net.cpp:157] Top shape: 460 20 54 46 (22852800)
I0521 00:09:10.263126  9137 net.cpp:165] Memory required for data: 512463920
I0521 00:09:10.263136  9137 layer_factory.hpp:77] Creating layer pool2
I0521 00:09:10.263150  9137 net.cpp:106] Creating Layer pool2
I0521 00:09:10.263160  9137 net.cpp:454] pool2 <- conv2
I0521 00:09:10.263172  9137 net.cpp:411] pool2 -> pool2
I0521 00:09:10.263243  9137 net.cpp:150] Setting up pool2
I0521 00:09:10.263257  9137 net.cpp:157] Top shape: 460 20 27 46 (11426400)
I0521 00:09:10.263267  9137 net.cpp:165] Memory required for data: 558169520
I0521 00:09:10.263275  9137 layer_factory.hpp:77] Creating layer conv3
I0521 00:09:10.263295  9137 net.cpp:106] Creating Layer conv3
I0521 00:09:10.263306  9137 net.cpp:454] conv3 <- pool2
I0521 00:09:10.263319  9137 net.cpp:411] conv3 -> conv3
I0521 00:09:10.265297  9137 net.cpp:150] Setting up conv3
I0521 00:09:10.265321  9137 net.cpp:157] Top shape: 460 28 22 44 (12467840)
I0521 00:09:10.265331  9137 net.cpp:165] Memory required for data: 608040880
I0521 00:09:10.265362  9137 layer_factory.hpp:77] Creating layer relu3
I0521 00:09:10.265377  9137 net.cpp:106] Creating Layer relu3
I0521 00:09:10.265386  9137 net.cpp:454] relu3 <- conv3
I0521 00:09:10.265398  9137 net.cpp:397] relu3 -> conv3 (in-place)
I0521 00:09:10.265873  9137 net.cpp:150] Setting up relu3
I0521 00:09:10.265889  9137 net.cpp:157] Top shape: 460 28 22 44 (12467840)
I0521 00:09:10.265900  9137 net.cpp:165] Memory required for data: 657912240
I0521 00:09:10.265910  9137 layer_factory.hpp:77] Creating layer pool3
I0521 00:09:10.265923  9137 net.cpp:106] Creating Layer pool3
I0521 00:09:10.265933  9137 net.cpp:454] pool3 <- conv3
I0521 00:09:10.265946  9137 net.cpp:411] pool3 -> pool3
I0521 00:09:10.266017  9137 net.cpp:150] Setting up pool3
I0521 00:09:10.266031  9137 net.cpp:157] Top shape: 460 28 11 44 (6233920)
I0521 00:09:10.266041  9137 net.cpp:165] Memory required for data: 682847920
I0521 00:09:10.266049  9137 layer_factory.hpp:77] Creating layer conv4
I0521 00:09:10.266067  9137 net.cpp:106] Creating Layer conv4
I0521 00:09:10.266077  9137 net.cpp:454] conv4 <- pool3
I0521 00:09:10.266093  9137 net.cpp:411] conv4 -> conv4
I0521 00:09:10.268148  9137 net.cpp:150] Setting up conv4
I0521 00:09:10.268170  9137 net.cpp:157] Top shape: 460 36 6 42 (4173120)
I0521 00:09:10.268183  9137 net.cpp:165] Memory required for data: 699540400
I0521 00:09:10.268198  9137 layer_factory.hpp:77] Creating layer relu4
I0521 00:09:10.268213  9137 net.cpp:106] Creating Layer relu4
I0521 00:09:10.268223  9137 net.cpp:454] relu4 <- conv4
I0521 00:09:10.268234  9137 net.cpp:397] relu4 -> conv4 (in-place)
I0521 00:09:10.268708  9137 net.cpp:150] Setting up relu4
I0521 00:09:10.268725  9137 net.cpp:157] Top shape: 460 36 6 42 (4173120)
I0521 00:09:10.268735  9137 net.cpp:165] Memory required for data: 716232880
I0521 00:09:10.268745  9137 layer_factory.hpp:77] Creating layer pool4
I0521 00:09:10.268759  9137 net.cpp:106] Creating Layer pool4
I0521 00:09:10.268769  9137 net.cpp:454] pool4 <- conv4
I0521 00:09:10.268781  9137 net.cpp:411] pool4 -> pool4
I0521 00:09:10.268852  9137 net.cpp:150] Setting up pool4
I0521 00:09:10.268867  9137 net.cpp:157] Top shape: 460 36 3 42 (2086560)
I0521 00:09:10.268877  9137 net.cpp:165] Memory required for data: 724579120
I0521 00:09:10.268887  9137 layer_factory.hpp:77] Creating layer ip1
I0521 00:09:10.268903  9137 net.cpp:106] Creating Layer ip1
I0521 00:09:10.268913  9137 net.cpp:454] ip1 <- pool4
I0521 00:09:10.268928  9137 net.cpp:411] ip1 -> ip1
I0521 00:09:10.284461  9137 net.cpp:150] Setting up ip1
I0521 00:09:10.284488  9137 net.cpp:157] Top shape: 460 196 (90160)
I0521 00:09:10.284504  9137 net.cpp:165] Memory required for data: 724939760
I0521 00:09:10.284526  9137 layer_factory.hpp:77] Creating layer relu5
I0521 00:09:10.284543  9137 net.cpp:106] Creating Layer relu5
I0521 00:09:10.284553  9137 net.cpp:454] relu5 <- ip1
I0521 00:09:10.284565  9137 net.cpp:397] relu5 -> ip1 (in-place)
I0521 00:09:10.284914  9137 net.cpp:150] Setting up relu5
I0521 00:09:10.284927  9137 net.cpp:157] Top shape: 460 196 (90160)
I0521 00:09:10.284936  9137 net.cpp:165] Memory required for data: 725300400
I0521 00:09:10.284947  9137 layer_factory.hpp:77] Creating layer drop1
I0521 00:09:10.284965  9137 net.cpp:106] Creating Layer drop1
I0521 00:09:10.284978  9137 net.cpp:454] drop1 <- ip1
I0521 00:09:10.284991  9137 net.cpp:397] drop1 -> ip1 (in-place)
I0521 00:09:10.285034  9137 net.cpp:150] Setting up drop1
I0521 00:09:10.285048  9137 net.cpp:157] Top shape: 460 196 (90160)
I0521 00:09:10.285058  9137 net.cpp:165] Memory required for data: 725661040
I0521 00:09:10.285066  9137 layer_factory.hpp:77] Creating layer ip2
I0521 00:09:10.285082  9137 net.cpp:106] Creating Layer ip2
I0521 00:09:10.285092  9137 net.cpp:454] ip2 <- ip1
I0521 00:09:10.285105  9137 net.cpp:411] ip2 -> ip2
I0521 00:09:10.285585  9137 net.cpp:150] Setting up ip2
I0521 00:09:10.285598  9137 net.cpp:157] Top shape: 460 98 (45080)
I0521 00:09:10.285609  9137 net.cpp:165] Memory required for data: 725841360
I0521 00:09:10.285639  9137 layer_factory.hpp:77] Creating layer relu6
I0521 00:09:10.285651  9137 net.cpp:106] Creating Layer relu6
I0521 00:09:10.285661  9137 net.cpp:454] relu6 <- ip2
I0521 00:09:10.285673  9137 net.cpp:397] relu6 -> ip2 (in-place)
I0521 00:09:10.286211  9137 net.cpp:150] Setting up relu6
I0521 00:09:10.286231  9137 net.cpp:157] Top shape: 460 98 (45080)
I0521 00:09:10.286242  9137 net.cpp:165] Memory required for data: 726021680
I0521 00:09:10.286252  9137 layer_factory.hpp:77] Creating layer drop2
I0521 00:09:10.286264  9137 net.cpp:106] Creating Layer drop2
I0521 00:09:10.286275  9137 net.cpp:454] drop2 <- ip2
I0521 00:09:10.286288  9137 net.cpp:397] drop2 -> ip2 (in-place)
I0521 00:09:10.286332  9137 net.cpp:150] Setting up drop2
I0521 00:09:10.286345  9137 net.cpp:157] Top shape: 460 98 (45080)
I0521 00:09:10.286355  9137 net.cpp:165] Memory required for data: 726202000
I0521 00:09:10.286365  9137 layer_factory.hpp:77] Creating layer ip3
I0521 00:09:10.286381  9137 net.cpp:106] Creating Layer ip3
I0521 00:09:10.286391  9137 net.cpp:454] ip3 <- ip2
I0521 00:09:10.286403  9137 net.cpp:411] ip3 -> ip3
I0521 00:09:10.286626  9137 net.cpp:150] Setting up ip3
I0521 00:09:10.286639  9137 net.cpp:157] Top shape: 460 11 (5060)
I0521 00:09:10.286649  9137 net.cpp:165] Memory required for data: 726222240
I0521 00:09:10.286665  9137 layer_factory.hpp:77] Creating layer drop3
I0521 00:09:10.286679  9137 net.cpp:106] Creating Layer drop3
I0521 00:09:10.286689  9137 net.cpp:454] drop3 <- ip3
I0521 00:09:10.286700  9137 net.cpp:397] drop3 -> ip3 (in-place)
I0521 00:09:10.286742  9137 net.cpp:150] Setting up drop3
I0521 00:09:10.286754  9137 net.cpp:157] Top shape: 460 11 (5060)
I0521 00:09:10.286763  9137 net.cpp:165] Memory required for data: 726242480
I0521 00:09:10.286773  9137 layer_factory.hpp:77] Creating layer ip3_drop3_0_split
I0521 00:09:10.286787  9137 net.cpp:106] Creating Layer ip3_drop3_0_split
I0521 00:09:10.286797  9137 net.cpp:454] ip3_drop3_0_split <- ip3
I0521 00:09:10.286808  9137 net.cpp:411] ip3_drop3_0_split -> ip3_drop3_0_split_0
I0521 00:09:10.286823  9137 net.cpp:411] ip3_drop3_0_split -> ip3_drop3_0_split_1
I0521 00:09:10.286895  9137 net.cpp:150] Setting up ip3_drop3_0_split
I0521 00:09:10.286909  9137 net.cpp:157] Top shape: 460 11 (5060)
I0521 00:09:10.286921  9137 net.cpp:157] Top shape: 460 11 (5060)
I0521 00:09:10.286931  9137 net.cpp:165] Memory required for data: 726282960
I0521 00:09:10.286942  9137 layer_factory.hpp:77] Creating layer accuracy
I0521 00:09:10.286963  9137 net.cpp:106] Creating Layer accuracy
I0521 00:09:10.286974  9137 net.cpp:454] accuracy <- ip3_drop3_0_split_0
I0521 00:09:10.286985  9137 net.cpp:454] accuracy <- label_data_hdf5_1_split_0
I0521 00:09:10.286998  9137 net.cpp:411] accuracy -> accuracy
…
