…
I0521 04:05:11.836812  7754 net.cpp:322] The NetState phase (0) differed from the phase (1) specified by a rule in layer data_hdf5
I0521 04:05:11.836872  7754 net.cpp:322] The NetState phase (0) differed from the phase (1) specified by a rule in layer accuracy
I0521 04:05:11.837216  7754 net.cpp:49] Initializing net from parameters: 
name: "caffe_test_127x50_x_unshifted"
state {
  phase: TRAIN
}
layer {
  name: "data_hdf5"
  type: "HDF5Data"
  top: "data"
  top: "label"
  include {
    phase: TRAIN
  }
  hdf5_data_param {
    source: "/lustre/atlas/proj-shared/hep105/caffe_titan/minosmatch_nukecczdefs_127x50_x_unshifted_me1Bmc.trainlist"
    batch_size: 630
  }
}
layer {
  name: "conv1"
  type: "Convolution"
  bottom: "data"
  top: "conv1"
  convolution_param {
    num_output: 12
    pad: 0
    stride: 1
    weight_filler {
      type: "xavier"
    }
    bias_filler {
      type: "constant"
    }
    kernel_h: 8
    kernel_w: 3
  }
}
layer {
  name: "relu1"
  type: "ReLU"
  bottom: "conv1"
  top: "conv1"
}
layer {
  name: "pool1"
  type: "Pooling"
  bottom: "conv1"
  top: "pool1"
  pooling_param {
    pool: MAX
    kernel_h: 2
    kernel_w: 1
    stride_h: 2
    stride_w: 1
  }
}
layer {
  name: "conv2"
  type: "Convolution"
  bottom: "pool1"
  top: "conv2"
  convolution_param {
    num_output: 20
    pad: 0
    stride: 1
    weight_filler {
      type: "xavier"
    }
    bias_filler {
      type: "constant"
    }
    kernel_h: 7
    kernel_w: 3
  }
}
layer {
  name: "relu2"
  type: "ReLU"
  bottom: "conv2"
  top: "conv2"
}
layer {
  name: "pool2"
  type: "Pooling"
  bottom: "conv2"
  top: "pool2"
  pooling_param {
    pool: MAX
    kernel_h: 2
    kernel_w: 1
    stride_h: 2
    stride_w: 1
  }
}
layer {
  name: "conv3"
  type: "Convolution"
  bottom: "pool2"
  top: "conv3"
  convolution_param {
    num_output: 28
    pad: 0
    stride: 1
    weight_filler {
      type: "xavier"
    }
    bias_filler {
      type: "constant"
    }
    kernel_h: 6
    kernel_w: 3
  }
}
layer {
  name: "relu3"
  type: "ReLU"
  bottom: "conv3"
  top: "conv3"
}
layer {
  name: "pool3"
  type: "Pooling"
  bottom: "conv3"
  top: "pool3"
  pooling_param {
    pool: MAX
    kernel_h: 2
    kernel_w: 1
    stride_h: 2
    stride_w: 1
  }
}
layer {
  name: "conv4"
  type: "Convolution"
  bottom: "pool3"
  top: "conv4"
  convolution_param {
    num_output: 36
    pad: 0
    stride: 1
    weight_filler {
      type: "xavier"
    }
    bias_filler {
      type: "constant"
    }
    kernel_h: 6
    kernel_w: 3
  }
}
layer {
  name: "relu4"
  type: "ReLU"
  bottom: "conv4"
  top: "conv4"
}
layer {
  name: "pool4"
  type: "Pooling"
  bottom: "conv4"
  top: "pool4"
  pooling_param {
    pool: MAX
    kernel_h: 2
    kernel_w: 1
    stride_h: 2
    stride_w: 1
  }
}
layer {
  name: "ip1"
  type: "InnerProduct"
  bottom: "pool4"
  top: "ip1"
  inner_product_param {
    num_output: 196
    weight_filler {
      type: "xavier"
    }
    bias_filler {
      type: "constant"
    }
  }
}
layer {
  name: "relu5"
  type: "ReLU"
  bottom: "ip1"
  top: "ip1"
}
layer {
  name: "drop1"
  type: "Dropout"
  bottom: "ip1"
  top: "ip1"
  dropout_param {
    dropout_ratio: 0.5
  }
}
layer {
  name: "ip2"
  type: "InnerProduct"
  bottom: "ip1"
  top: "ip2"
  inner_product_param {
    num_output: 98
    weight_filler {
      type: "xavier"
    }
    bias_filler {
      type: "constant"
    }
  }
}
layer {
  name: "relu6"
  type: "ReLU"
  bottom: "ip2"
  top: "ip2"
}
layer {
  name: "drop2"
  type: "Dropout"
  bottom: "ip2"
  top: "ip2"
  dropout_param {
    dropout_ratio: 0.5
  }
}
layer {
  name: "ip3"
  type: "InnerProduct"
  bottom: "ip2"
  top: "ip3"
  inner_product_param {
    num_output: 11
    weight_filler {
      type: "xavier"
    }
    bias_filler {
      type: "constant"
    }
  }
}
layer {
  name: "drop3"
  type: "Dropout"
  bottom: "ip3"
  top: "ip3"
  dropout_param {
    dropout_ratio: 0.5
  }
}
layer {
  name: "loss"
  type: "SoftmaxWithLoss"
  bottom: "ip3"
  bottom: "label"
  top: "loss"
}
I0521 04:05:11.837399  7754 layer_factory.hpp:77] Creating layer data_hdf5
I0521 04:05:11.837422  7754 net.cpp:106] Creating Layer data_hdf5
I0521 04:05:11.837437  7754 net.cpp:411] data_hdf5 -> data
I0521 04:05:11.837472  7754 net.cpp:411] data_hdf5 -> label
I0521 04:05:11.837504  7754 hdf5_data_layer.cpp:79] Loading list of HDF5 filenames from: /lustre/atlas/proj-shared/hep105/caffe_titan/minosmatch_nukecczdefs_127x50_x_unshifted_me1Bmc.trainlist
I0521 04:05:11.838891  7754 hdf5_data_layer.cpp:93] Number of HDF5 files: 15
I0521 04:05:11.841194  7754 hdf5.cpp:32] Datatype class: H5T_FLOAT
I0521 04:05:33.356343  7754 hdf5.cpp:35] Datatype class: H5T_INTEGER
I0521 04:05:33.361487  7754 net.cpp:150] Setting up data_hdf5
I0521 04:05:33.361531  7754 net.cpp:157] Top shape: 630 1 127 50 (4000500)
I0521 04:05:33.361546  7754 net.cpp:157] Top shape: 630 (630)
I0521 04:05:33.361557  7754 net.cpp:165] Memory required for data: 16004520
I0521 04:05:33.361569  7754 layer_factory.hpp:77] Creating layer conv1
I0521 04:05:33.361604  7754 net.cpp:106] Creating Layer conv1
I0521 04:05:33.361615  7754 net.cpp:454] conv1 <- data
I0521 04:05:33.361639  7754 net.cpp:411] conv1 -> conv1
I0521 04:05:33.725380  7754 net.cpp:150] Setting up conv1
I0521 04:05:33.725424  7754 net.cpp:157] Top shape: 630 12 120 48 (43545600)
I0521 04:05:33.725435  7754 net.cpp:165] Memory required for data: 190186920
I0521 04:05:33.725462  7754 layer_factory.hpp:77] Creating layer relu1
I0521 04:05:33.725483  7754 net.cpp:106] Creating Layer relu1
I0521 04:05:33.725494  7754 net.cpp:454] relu1 <- conv1
I0521 04:05:33.725507  7754 net.cpp:397] relu1 -> conv1 (in-place)
I0521 04:05:33.726028  7754 net.cpp:150] Setting up relu1
I0521 04:05:33.726045  7754 net.cpp:157] Top shape: 630 12 120 48 (43545600)
I0521 04:05:33.726057  7754 net.cpp:165] Memory required for data: 364369320
I0521 04:05:33.726066  7754 layer_factory.hpp:77] Creating layer pool1
I0521 04:05:33.726083  7754 net.cpp:106] Creating Layer pool1
I0521 04:05:33.726094  7754 net.cpp:454] pool1 <- conv1
I0521 04:05:33.726106  7754 net.cpp:411] pool1 -> pool1
I0521 04:05:33.726186  7754 net.cpp:150] Setting up pool1
I0521 04:05:33.726200  7754 net.cpp:157] Top shape: 630 12 60 48 (21772800)
I0521 04:05:33.726210  7754 net.cpp:165] Memory required for data: 451460520
I0521 04:05:33.726220  7754 layer_factory.hpp:77] Creating layer conv2
I0521 04:05:33.726243  7754 net.cpp:106] Creating Layer conv2
I0521 04:05:33.726253  7754 net.cpp:454] conv2 <- pool1
I0521 04:05:33.726267  7754 net.cpp:411] conv2 -> conv2
I0521 04:05:33.728958  7754 net.cpp:150] Setting up conv2
I0521 04:05:33.728986  7754 net.cpp:157] Top shape: 630 20 54 46 (31298400)
I0521 04:05:33.728997  7754 net.cpp:165] Memory required for data: 576654120
I0521 04:05:33.729017  7754 layer_factory.hpp:77] Creating layer relu2
I0521 04:05:33.729032  7754 net.cpp:106] Creating Layer relu2
I0521 04:05:33.729041  7754 net.cpp:454] relu2 <- conv2
I0521 04:05:33.729054  7754 net.cpp:397] relu2 -> conv2 (in-place)
I0521 04:05:33.729384  7754 net.cpp:150] Setting up relu2
I0521 04:05:33.729399  7754 net.cpp:157] Top shape: 630 20 54 46 (31298400)
I0521 04:05:33.729409  7754 net.cpp:165] Memory required for data: 701847720
I0521 04:05:33.729420  7754 layer_factory.hpp:77] Creating layer pool2
I0521 04:05:33.729434  7754 net.cpp:106] Creating Layer pool2
I0521 04:05:33.729444  7754 net.cpp:454] pool2 <- conv2
I0521 04:05:33.729468  7754 net.cpp:411] pool2 -> pool2
I0521 04:05:33.729537  7754 net.cpp:150] Setting up pool2
I0521 04:05:33.729550  7754 net.cpp:157] Top shape: 630 20 27 46 (15649200)
I0521 04:05:33.729560  7754 net.cpp:165] Memory required for data: 764444520
I0521 04:05:33.729570  7754 layer_factory.hpp:77] Creating layer conv3
I0521 04:05:33.729588  7754 net.cpp:106] Creating Layer conv3
I0521 04:05:33.729599  7754 net.cpp:454] conv3 <- pool2
I0521 04:05:33.729612  7754 net.cpp:411] conv3 -> conv3
I0521 04:05:33.731530  7754 net.cpp:150] Setting up conv3
I0521 04:05:33.731554  7754 net.cpp:157] Top shape: 630 28 22 44 (17075520)
I0521 04:05:33.731566  7754 net.cpp:165] Memory required for data: 832746600
I0521 04:05:33.731585  7754 layer_factory.hpp:77] Creating layer relu3
I0521 04:05:33.731600  7754 net.cpp:106] Creating Layer relu3
I0521 04:05:33.731611  7754 net.cpp:454] relu3 <- conv3
I0521 04:05:33.731622  7754 net.cpp:397] relu3 -> conv3 (in-place)
I0521 04:05:33.732091  7754 net.cpp:150] Setting up relu3
I0521 04:05:33.732110  7754 net.cpp:157] Top shape: 630 28 22 44 (17075520)
I0521 04:05:33.732120  7754 net.cpp:165] Memory required for data: 901048680
I0521 04:05:33.732130  7754 layer_factory.hpp:77] Creating layer pool3
I0521 04:05:33.732142  7754 net.cpp:106] Creating Layer pool3
I0521 04:05:33.732152  7754 net.cpp:454] pool3 <- conv3
I0521 04:05:33.732166  7754 net.cpp:411] pool3 -> pool3
I0521 04:05:33.732233  7754 net.cpp:150] Setting up pool3
I0521 04:05:33.732246  7754 net.cpp:157] Top shape: 630 28 11 44 (8537760)
I0521 04:05:33.732256  7754 net.cpp:165] Memory required for data: 935199720
I0521 04:05:33.732266  7754 layer_factory.hpp:77] Creating layer conv4
I0521 04:05:33.732283  7754 net.cpp:106] Creating Layer conv4
I0521 04:05:33.732295  7754 net.cpp:454] conv4 <- pool3
I0521 04:05:33.732308  7754 net.cpp:411] conv4 -> conv4
I0521 04:05:33.735096  7754 net.cpp:150] Setting up conv4
I0521 04:05:33.735124  7754 net.cpp:157] Top shape: 630 36 6 42 (5715360)
I0521 04:05:33.735136  7754 net.cpp:165] Memory required for data: 958061160
I0521 04:05:33.735152  7754 layer_factory.hpp:77] Creating layer relu4
I0521 04:05:33.735165  7754 net.cpp:106] Creating Layer relu4
I0521 04:05:33.735177  7754 net.cpp:454] relu4 <- conv4
I0521 04:05:33.735189  7754 net.cpp:397] relu4 -> conv4 (in-place)
I0521 04:05:33.735669  7754 net.cpp:150] Setting up relu4
I0521 04:05:33.735685  7754 net.cpp:157] Top shape: 630 36 6 42 (5715360)
I0521 04:05:33.735697  7754 net.cpp:165] Memory required for data: 980922600
I0521 04:05:33.735707  7754 layer_factory.hpp:77] Creating layer pool4
I0521 04:05:33.735719  7754 net.cpp:106] Creating Layer pool4
I0521 04:05:33.735729  7754 net.cpp:454] pool4 <- conv4
I0521 04:05:33.735743  7754 net.cpp:411] pool4 -> pool4
I0521 04:05:33.735810  7754 net.cpp:150] Setting up pool4
I0521 04:05:33.735824  7754 net.cpp:157] Top shape: 630 36 3 42 (2857680)
I0521 04:05:33.735836  7754 net.cpp:165] Memory required for data: 992353320
I0521 04:05:33.735844  7754 layer_factory.hpp:77] Creating layer ip1
I0521 04:05:33.735862  7754 net.cpp:106] Creating Layer ip1
I0521 04:05:33.735873  7754 net.cpp:454] ip1 <- pool4
I0521 04:05:33.735887  7754 net.cpp:411] ip1 -> ip1
I0521 04:05:33.751457  7754 net.cpp:150] Setting up ip1
I0521 04:05:33.751484  7754 net.cpp:157] Top shape: 630 196 (123480)
I0521 04:05:33.751502  7754 net.cpp:165] Memory required for data: 992847240
I0521 04:05:33.751526  7754 layer_factory.hpp:77] Creating layer relu5
I0521 04:05:33.751541  7754 net.cpp:106] Creating Layer relu5
I0521 04:05:33.751552  7754 net.cpp:454] relu5 <- ip1
I0521 04:05:33.751565  7754 net.cpp:397] relu5 -> ip1 (in-place)
I0521 04:05:33.751909  7754 net.cpp:150] Setting up relu5
I0521 04:05:33.751924  7754 net.cpp:157] Top shape: 630 196 (123480)
I0521 04:05:33.751935  7754 net.cpp:165] Memory required for data: 993341160
I0521 04:05:33.751945  7754 layer_factory.hpp:77] Creating layer drop1
I0521 04:05:33.751966  7754 net.cpp:106] Creating Layer drop1
I0521 04:05:33.751976  7754 net.cpp:454] drop1 <- ip1
I0521 04:05:33.752002  7754 net.cpp:397] drop1 -> ip1 (in-place)
I0521 04:05:33.752048  7754 net.cpp:150] Setting up drop1
I0521 04:05:33.752061  7754 net.cpp:157] Top shape: 630 196 (123480)
I0521 04:05:33.752069  7754 net.cpp:165] Memory required for data: 993835080
I0521 04:05:33.752079  7754 layer_factory.hpp:77] Creating layer ip2
I0521 04:05:33.752097  7754 net.cpp:106] Creating Layer ip2
I0521 04:05:33.752107  7754 net.cpp:454] ip2 <- ip1
I0521 04:05:33.752120  7754 net.cpp:411] ip2 -> ip2
I0521 04:05:33.752586  7754 net.cpp:150] Setting up ip2
I0521 04:05:33.752600  7754 net.cpp:157] Top shape: 630 98 (61740)
I0521 04:05:33.752610  7754 net.cpp:165] Memory required for data: 994082040
I0521 04:05:33.752625  7754 layer_factory.hpp:77] Creating layer relu6
I0521 04:05:33.752637  7754 net.cpp:106] Creating Layer relu6
I0521 04:05:33.752647  7754 net.cpp:454] relu6 <- ip2
I0521 04:05:33.752658  7754 net.cpp:397] relu6 -> ip2 (in-place)
I0521 04:05:33.753172  7754 net.cpp:150] Setting up relu6
I0521 04:05:33.753190  7754 net.cpp:157] Top shape: 630 98 (61740)
I0521 04:05:33.753201  7754 net.cpp:165] Memory required for data: 994329000
I0521 04:05:33.753211  7754 layer_factory.hpp:77] Creating layer drop2
I0521 04:05:33.753223  7754 net.cpp:106] Creating Layer drop2
I0521 04:05:33.753233  7754 net.cpp:454] drop2 <- ip2
I0521 04:05:33.753245  7754 net.cpp:397] drop2 -> ip2 (in-place)
I0521 04:05:33.753286  7754 net.cpp:150] Setting up drop2
I0521 04:05:33.753300  7754 net.cpp:157] Top shape: 630 98 (61740)
I0521 04:05:33.753310  7754 net.cpp:165] Memory required for data: 994575960
I0521 04:05:33.753320  7754 layer_factory.hpp:77] Creating layer ip3
I0521 04:05:33.753334  7754 net.cpp:106] Creating Layer ip3
I0521 04:05:33.753343  7754 net.cpp:454] ip3 <- ip2
I0521 04:05:33.753355  7754 net.cpp:411] ip3 -> ip3
I0521 04:05:33.753564  7754 net.cpp:150] Setting up ip3
I0521 04:05:33.753577  7754 net.cpp:157] Top shape: 630 11 (6930)
I0521 04:05:33.753587  7754 net.cpp:165] Memory required for data: 994603680
I0521 04:05:33.753602  7754 layer_factory.hpp:77] Creating layer drop3
I0521 04:05:33.753613  7754 net.cpp:106] Creating Layer drop3
I0521 04:05:33.753623  7754 net.cpp:454] drop3 <- ip3
I0521 04:05:33.753635  7754 net.cpp:397] drop3 -> ip3 (in-place)
I0521 04:05:33.753674  7754 net.cpp:150] Setting up drop3
I0521 04:05:33.753686  7754 net.cpp:157] Top shape: 630 11 (6930)
I0521 04:05:33.753696  7754 net.cpp:165] Memory required for data: 994631400
I0521 04:05:33.753705  7754 layer_factory.hpp:77] Creating layer loss
I0521 04:05:33.753726  7754 net.cpp:106] Creating Layer loss
I0521 04:05:33.753736  7754 net.cpp:454] loss <- ip3
I0521 04:05:33.753746  7754 net.cpp:454] loss <- label
I0521 04:05:33.753758  7754 net.cpp:411] loss -> loss
I0521 04:05:33.753775  7754 layer_factory.hpp:77] Creating layer loss
…
I0521 04:05:33.756345  7754 solver.cpp:181] Creating test net (#0) specified by net file: /lustre/atlas/proj-shared/hep105/caffe_titan/caffe_workflow/logs_batch_size_test/batch_size_630_2016-05-20T11.20.55.516130.prototxt
I0521 04:05:33.756417  7754 net.cpp:322] The NetState phase (1) differed from the phase (0) specified by a rule in layer data_hdf5
I0521 04:05:33.756769  7754 net.cpp:49] Initializing net from parameters: 
name: "caffe_test_127x50_x_unshifted"
state {
  phase: TEST
}
layer {
  name: "data_hdf5"
  type: "HDF5Data"
  top: "data"
  top: "label"
  include {
    phase: TEST
  }
  hdf5_data_param {
    source: "/lustre/atlas/proj-shared/hep105/caffe_titan/minosmatch_nukecczdefs_127x50_x_unshifted_me1Bmc.testlist"
    batch_size: 630
  }
}
layer {
  name: "conv1"
  type: "Convolution"
  bottom: "data"
  top: "conv1"
  convolution_param {
    num_output: 12
    pad: 0
    stride: 1
    weight_filler {
      type: "xavier"
    }
    bias_filler {
      type: "constant"
    }
    kernel_h: 8
    kernel_w: 3
  }
}
layer {
  name: "relu1"
  type: "ReLU"
  bottom: "conv1"
  top: "conv1"
}
layer {
  name: "pool1"
  type: "Pooling"
  bottom: "conv1"
  top: "pool1"
  pooling_param {
    pool: MAX
    kernel_h: 2
    kernel_w: 1
    stride_h: 2
    stride_w: 1
  }
}
layer {
  name: "conv2"
  type: "Convolution"
  bottom: "pool1"
  top: "conv2"
  convolution_param {
    num_output: 20
    pad: 0
    stride: 1
    weight_filler {
      type: "xavier"
    }
    bias_filler {
      type: "constant"
    }
    kernel_h: 7
    kernel_w: 3
  }
}
layer {
  name: "relu2"
  type: "ReLU"
  bottom: "conv2"
  top: "conv2"
}
layer {
  name: "pool2"
  type: "Pooling"
  bottom: "conv2"
  top: "pool2"
  pooling_param {
    pool: MAX
    kernel_h: 2
    kernel_w: 1
    stride_h: 2
    stride_w: 1
  }
}
layer {
  name: "conv3"
  type: "Convolution"
  bottom: "pool2"
  top: "conv3"
  convolution_param {
    num_output: 28
    pad: 0
    stride: 1
    weight_filler {
      type: "xavier"
    }
    bias_filler {
      type: "constant"
    }
    kernel_h: 6
    kernel_w: 3
  }
}
layer {
  name: "relu3"
  type: "ReLU"
  bottom: "conv3"
  top: "conv3"
}
layer {
  name: "pool3"
  type: "Pooling"
  bottom: "conv3"
  top: "pool3"
  pooling_param {
    pool: MAX
    kernel_h: 2
    kernel_w: 1
    stride_h: 2
    stride_w: 1
  }
}
layer {
  name: "conv4"
  type: "Convolution"
  bottom: "pool3"
  top: "conv4"
  convolution_param {
    num_output: 36
    pad: 0
    stride: 1
    weight_filler {
      type: "xavier"
    }
    bias_filler {
      type: "constant"
    }
    kernel_h: 6
    kernel_w: 3
  }
}
layer {
  name: "relu4"
  type: "ReLU"
  bottom: "conv4"
  top: "conv4"
}
layer {
  name: "pool4"
  type: "Pooling"
  bottom: "conv4"
  top: "pool4"
  pooling_param {
    pool: MAX
    kernel_h: 2
    kernel_w: 1
    stride_h: 2
    stride_w: 1
  }
}
layer {
  name: "ip1"
  type: "InnerProduct"
  bottom: "pool4"
  top: "ip1"
  inner_product_param {
    num_output: 196
    weight_filler {
      type: "xavier"
    }
    bias_filler {
      type: "constant"
    }
  }
}
layer {
  name: "relu5"
  type: "ReLU"
  bottom: "ip1"
  top: "ip1"
}
layer {
  name: "drop1"
  type: "Dropout"
  bottom: "ip1"
  top: "ip1"
  dropout_param {
    dropout_ratio: 0.5
  }
}
layer {
  name: "ip2"
  type: "InnerProduct"
  bottom: "ip1"
  top: "ip2"
  inner_product_param {
    num_output: 98
    weight_filler {
      type: "xavier"
    }
    bias_filler {
      type: "constant"
    }
  }
}
layer {
  name: "relu6"
  type: "ReLU"
  bottom: "ip2"
  top: "ip2"
}
layer {
  name: "drop2"
  type: "Dropout"
  bottom: "ip2"
  top: "ip2"
  dropout_param {
    dropout_ratio: 0.5
  }
}
layer {
  name: "ip3"
  type: "InnerProduct"
  bottom: "ip2"
  top: "ip3"
  inner_product_param {
    num_output: 11
    weight_filler {
      type: "xavier"
    }
    bias_filler {
      type: "constant"
    }
  }
}
layer {
  name: "drop3"
  type: "Dropout"
  bottom: "ip3"
  top: "ip3"
  dropout_param {
    dropout_ratio: 0.5
  }
}
layer {
  name: "accuracy"
  type: "Accuracy"
  bottom: "ip3"
  bottom: "label"
  top: "accuracy"
  include {
    phase: TEST
  }
}
layer {
  name: "loss"
  type: "SoftmaxWithLoss"
  bottom: "ip3"
  bottom: "label"
  top: "loss"
}
I0521 04:05:33.756959  7754 layer_factory.hpp:77] Creating layer data_hdf5
I0521 04:05:33.756974  7754 net.cpp:106] Creating Layer data_hdf5
I0521 04:05:33.756988  7754 net.cpp:411] data_hdf5 -> data
I0521 04:05:33.757004  7754 net.cpp:411] data_hdf5 -> label
I0521 04:05:33.757020  7754 hdf5_data_layer.cpp:79] Loading list of HDF5 filenames from: /lustre/atlas/proj-shared/hep105/caffe_titan/minosmatch_nukecczdefs_127x50_x_unshifted_me1Bmc.testlist
I0521 04:05:33.758218  7754 hdf5_data_layer.cpp:93] Number of HDF5 files: 3
I0521 04:05:55.051326  7754 net.cpp:150] Setting up data_hdf5
I0521 04:05:55.051493  7754 net.cpp:157] Top shape: 630 1 127 50 (4000500)
I0521 04:05:55.051508  7754 net.cpp:157] Top shape: 630 (630)
I0521 04:05:55.051520  7754 net.cpp:165] Memory required for data: 16004520
I0521 04:05:55.051533  7754 layer_factory.hpp:77] Creating layer label_data_hdf5_1_split
I0521 04:05:55.051563  7754 net.cpp:106] Creating Layer label_data_hdf5_1_split
I0521 04:05:55.051573  7754 net.cpp:454] label_data_hdf5_1_split <- label
I0521 04:05:55.051589  7754 net.cpp:411] label_data_hdf5_1_split -> label_data_hdf5_1_split_0
I0521 04:05:55.051610  7754 net.cpp:411] label_data_hdf5_1_split -> label_data_hdf5_1_split_1
I0521 04:05:55.051683  7754 net.cpp:150] Setting up label_data_hdf5_1_split
I0521 04:05:55.051697  7754 net.cpp:157] Top shape: 630 (630)
I0521 04:05:55.051709  7754 net.cpp:157] Top shape: 630 (630)
I0521 04:05:55.051718  7754 net.cpp:165] Memory required for data: 16009560
I0521 04:05:55.051729  7754 layer_factory.hpp:77] Creating layer conv1
I0521 04:05:55.051751  7754 net.cpp:106] Creating Layer conv1
I0521 04:05:55.051762  7754 net.cpp:454] conv1 <- data
I0521 04:05:55.051777  7754 net.cpp:411] conv1 -> conv1
I0521 04:05:55.053737  7754 net.cpp:150] Setting up conv1
I0521 04:05:55.053762  7754 net.cpp:157] Top shape: 630 12 120 48 (43545600)
I0521 04:05:55.053774  7754 net.cpp:165] Memory required for data: 190191960
I0521 04:05:55.053794  7754 layer_factory.hpp:77] Creating layer relu1
I0521 04:05:55.053809  7754 net.cpp:106] Creating Layer relu1
I0521 04:05:55.053820  7754 net.cpp:454] relu1 <- conv1
I0521 04:05:55.053833  7754 net.cpp:397] relu1 -> conv1 (in-place)
I0521 04:05:55.054332  7754 net.cpp:150] Setting up relu1
I0521 04:05:55.054348  7754 net.cpp:157] Top shape: 630 12 120 48 (43545600)
I0521 04:05:55.054359  7754 net.cpp:165] Memory required for data: 364374360
I0521 04:05:55.054369  7754 layer_factory.hpp:77] Creating layer pool1
I0521 04:05:55.054386  7754 net.cpp:106] Creating Layer pool1
I0521 04:05:55.054396  7754 net.cpp:454] pool1 <- conv1
I0521 04:05:55.054409  7754 net.cpp:411] pool1 -> pool1
I0521 04:05:55.054484  7754 net.cpp:150] Setting up pool1
I0521 04:05:55.054498  7754 net.cpp:157] Top shape: 630 12 60 48 (21772800)
I0521 04:05:55.054508  7754 net.cpp:165] Memory required for data: 451465560
I0521 04:05:55.054518  7754 layer_factory.hpp:77] Creating layer conv2
I0521 04:05:55.054536  7754 net.cpp:106] Creating Layer conv2
I0521 04:05:55.054548  7754 net.cpp:454] conv2 <- pool1
I0521 04:05:55.054561  7754 net.cpp:411] conv2 -> conv2
I0521 04:05:55.056485  7754 net.cpp:150] Setting up conv2
I0521 04:05:55.056507  7754 net.cpp:157] Top shape: 630 20 54 46 (31298400)
I0521 04:05:55.056520  7754 net.cpp:165] Memory required for data: 576659160
I0521 04:05:55.056537  7754 layer_factory.hpp:77] Creating layer relu2
I0521 04:05:55.056551  7754 net.cpp:106] Creating Layer relu2
I0521 04:05:55.056561  7754 net.cpp:454] relu2 <- conv2
I0521 04:05:55.056573  7754 net.cpp:397] relu2 -> conv2 (in-place)
I0521 04:05:55.056905  7754 net.cpp:150] Setting up relu2
I0521 04:05:55.056920  7754 net.cpp:157] Top shape: 630 20 54 46 (31298400)
I0521 04:05:55.056929  7754 net.cpp:165] Memory required for data: 701852760
I0521 04:05:55.056939  7754 layer_factory.hpp:77] Creating layer pool2
I0521 04:05:55.056953  7754 net.cpp:106] Creating Layer pool2
I0521 04:05:55.056963  7754 net.cpp:454] pool2 <- conv2
I0521 04:05:55.056975  7754 net.cpp:411] pool2 -> pool2
I0521 04:05:55.057046  7754 net.cpp:150] Setting up pool2
I0521 04:05:55.057060  7754 net.cpp:157] Top shape: 630 20 27 46 (15649200)
I0521 04:05:55.057070  7754 net.cpp:165] Memory required for data: 764449560
I0521 04:05:55.057080  7754 layer_factory.hpp:77] Creating layer conv3
I0521 04:05:55.057097  7754 net.cpp:106] Creating Layer conv3
I0521 04:05:55.057108  7754 net.cpp:454] conv3 <- pool2
I0521 04:05:55.057122  7754 net.cpp:411] conv3 -> conv3
I0521 04:05:55.059080  7754 net.cpp:150] Setting up conv3
I0521 04:05:55.059103  7754 net.cpp:157] Top shape: 630 28 22 44 (17075520)
I0521 04:05:55.059115  7754 net.cpp:165] Memory required for data: 832751640
I0521 04:05:55.059149  7754 layer_factory.hpp:77] Creating layer relu3
I0521 04:05:55.059161  7754 net.cpp:106] Creating Layer relu3
I0521 04:05:55.059172  7754 net.cpp:454] relu3 <- conv3
I0521 04:05:55.059185  7754 net.cpp:397] relu3 -> conv3 (in-place)
I0521 04:05:55.059666  7754 net.cpp:150] Setting up relu3
I0521 04:05:55.059682  7754 net.cpp:157] Top shape: 630 28 22 44 (17075520)
I0521 04:05:55.059694  7754 net.cpp:165] Memory required for data: 901053720
I0521 04:05:55.059703  7754 layer_factory.hpp:77] Creating layer pool3
I0521 04:05:55.059716  7754 net.cpp:106] Creating Layer pool3
I0521 04:05:55.059726  7754 net.cpp:454] pool3 <- conv3
I0521 04:05:55.059739  7754 net.cpp:411] pool3 -> pool3
I0521 04:05:55.059811  7754 net.cpp:150] Setting up pool3
I0521 04:05:55.059825  7754 net.cpp:157] Top shape: 630 28 11 44 (8537760)
I0521 04:05:55.059835  7754 net.cpp:165] Memory required for data: 935204760
I0521 04:05:55.059846  7754 layer_factory.hpp:77] Creating layer conv4
I0521 04:05:55.059864  7754 net.cpp:106] Creating Layer conv4
I0521 04:05:55.059873  7754 net.cpp:454] conv4 <- pool3
I0521 04:05:55.059888  7754 net.cpp:411] conv4 -> conv4
I0521 04:05:55.061939  7754 net.cpp:150] Setting up conv4
I0521 04:05:55.061962  7754 net.cpp:157] Top shape: 630 36 6 42 (5715360)
I0521 04:05:55.061975  7754 net.cpp:165] Memory required for data: 958066200
I0521 04:05:55.061990  7754 layer_factory.hpp:77] Creating layer relu4
I0521 04:05:55.062003  7754 net.cpp:106] Creating Layer relu4
I0521 04:05:55.062013  7754 net.cpp:454] relu4 <- conv4
I0521 04:05:55.062026  7754 net.cpp:397] relu4 -> conv4 (in-place)
I0521 04:05:55.062494  7754 net.cpp:150] Setting up relu4
I0521 04:05:55.062510  7754 net.cpp:157] Top shape: 630 36 6 42 (5715360)
I0521 04:05:55.062521  7754 net.cpp:165] Memory required for data: 980927640
I0521 04:05:55.062531  7754 layer_factory.hpp:77] Creating layer pool4
I0521 04:05:55.062544  7754 net.cpp:106] Creating Layer pool4
I0521 04:05:55.062554  7754 net.cpp:454] pool4 <- conv4
I0521 04:05:55.062567  7754 net.cpp:411] pool4 -> pool4
I0521 04:05:55.062639  7754 net.cpp:150] Setting up pool4
I0521 04:05:55.062652  7754 net.cpp:157] Top shape: 630 36 3 42 (2857680)
I0521 04:05:55.062662  7754 net.cpp:165] Memory required for data: 992358360
I0521 04:05:55.062674  7754 layer_factory.hpp:77] Creating layer ip1
I0521 04:05:55.062688  7754 net.cpp:106] Creating Layer ip1
I0521 04:05:55.062698  7754 net.cpp:454] ip1 <- pool4
I0521 04:05:55.062711  7754 net.cpp:411] ip1 -> ip1
I0521 04:05:55.078222  7754 net.cpp:150] Setting up ip1
I0521 04:05:55.078249  7754 net.cpp:157] Top shape: 630 196 (123480)
I0521 04:05:55.078266  7754 net.cpp:165] Memory required for data: 992852280
I0521 04:05:55.078289  7754 layer_factory.hpp:77] Creating layer relu5
I0521 04:05:55.078304  7754 net.cpp:106] Creating Layer relu5
I0521 04:05:55.078315  7754 net.cpp:454] relu5 <- ip1
I0521 04:05:55.078332  7754 net.cpp:397] relu5 -> ip1 (in-place)
I0521 04:05:55.078678  7754 net.cpp:150] Setting up relu5
I0521 04:05:55.078692  7754 net.cpp:157] Top shape: 630 196 (123480)
I0521 04:05:55.078702  7754 net.cpp:165] Memory required for data: 993346200
I0521 04:05:55.078712  7754 layer_factory.hpp:77] Creating layer drop1
I0521 04:05:55.078732  7754 net.cpp:106] Creating Layer drop1
I0521 04:05:55.078742  7754 net.cpp:454] drop1 <- ip1
I0521 04:05:55.078754  7754 net.cpp:397] drop1 -> ip1 (in-place)
I0521 04:05:55.078799  7754 net.cpp:150] Setting up drop1
I0521 04:05:55.078811  7754 net.cpp:157] Top shape: 630 196 (123480)
I0521 04:05:55.078822  7754 net.cpp:165] Memory required for data: 993840120
I0521 04:05:55.078831  7754 layer_factory.hpp:77] Creating layer ip2
I0521 04:05:55.078846  7754 net.cpp:106] Creating Layer ip2
I0521 04:05:55.078855  7754 net.cpp:454] ip2 <- ip1
I0521 04:05:55.078869  7754 net.cpp:411] ip2 -> ip2
I0521 04:05:55.079357  7754 net.cpp:150] Setting up ip2
I0521 04:05:55.079370  7754 net.cpp:157] Top shape: 630 98 (61740)
I0521 04:05:55.079380  7754 net.cpp:165] Memory required for data: 994087080
I0521 04:05:55.079409  7754 layer_factory.hpp:77] Creating layer relu6
I0521 04:05:55.079422  7754 net.cpp:106] Creating Layer relu6
I0521 04:05:55.079432  7754 net.cpp:454] relu6 <- ip2
I0521 04:05:55.079444  7754 net.cpp:397] relu6 -> ip2 (in-place)
I0521 04:05:55.079980  7754 net.cpp:150] Setting up relu6
I0521 04:05:55.079996  7754 net.cpp:157] Top shape: 630 98 (61740)
I0521 04:05:55.080008  7754 net.cpp:165] Memory required for data: 994334040
I0521 04:05:55.080018  7754 layer_factory.hpp:77] Creating layer drop2
I0521 04:05:55.080030  7754 net.cpp:106] Creating Layer drop2
I0521 04:05:55.080041  7754 net.cpp:454] drop2 <- ip2
I0521 04:05:55.080054  7754 net.cpp:397] drop2 -> ip2 (in-place)
I0521 04:05:55.080097  7754 net.cpp:150] Setting up drop2
I0521 04:05:55.080111  7754 net.cpp:157] Top shape: 630 98 (61740)
I0521 04:05:55.080121  7754 net.cpp:165] Memory required for data: 994581000
I0521 04:05:55.080130  7754 layer_factory.hpp:77] Creating layer ip3
I0521 04:05:55.080145  7754 net.cpp:106] Creating Layer ip3
I0521 04:05:55.080155  7754 net.cpp:454] ip3 <- ip2
I0521 04:05:55.080168  7754 net.cpp:411] ip3 -> ip3
I0521 04:05:55.080391  7754 net.cpp:150] Setting up ip3
I0521 04:05:55.080404  7754 net.cpp:157] Top shape: 630 11 (6930)
I0521 04:05:55.080415  7754 net.cpp:165] Memory required for data: 994608720
I0521 04:05:55.080430  7754 layer_factory.hpp:77] Creating layer drop3
I0521 04:05:55.080443  7754 net.cpp:106] Creating Layer drop3
I0521 04:05:55.080453  7754 net.cpp:454] drop3 <- ip3
I0521 04:05:55.080466  7754 net.cpp:397] drop3 -> ip3 (in-place)
I0521 04:05:55.080507  7754 net.cpp:150] Setting up drop3
I0521 04:05:55.080520  7754 net.cpp:157] Top shape: 630 11 (6930)
I0521 04:05:55.080530  7754 net.cpp:165] Memory required for data: 994636440
I0521 04:05:55.080539  7754 layer_factory.hpp:77] Creating layer ip3_drop3_0_split
I0521 04:05:55.080552  7754 net.cpp:106] Creating Layer ip3_drop3_0_split
I0521 04:05:55.080562  7754 net.cpp:454] ip3_drop3_0_split <- ip3
I0521 04:05:55.080574  7754 net.cpp:411] ip3_drop3_0_split -> ip3_drop3_0_split_0
I0521 04:05:55.080590  7754 net.cpp:411] ip3_drop3_0_split -> ip3_drop3_0_split_1
I0521 04:05:55.080662  7754 net.cpp:150] Setting up ip3_drop3_0_split
I0521 04:05:55.080675  7754 net.cpp:157] Top shape: 630 11 (6930)
I0521 04:05:55.080687  7754 net.cpp:157] Top shape: 630 11 (6930)
I0521 04:05:55.080698  7754 net.cpp:165] Memory required for data: 994691880
I0521 04:05:55.080708  7754 layer_factory.hpp:77] Creating layer accuracy
I0521 04:05:55.080729  7754 net.cpp:106] Creating Layer accuracy
I0521 04:05:55.080739  7754 net.cpp:454] accuracy <- ip3_drop3_0_split_0
I0521 04:05:55.080750  7754 net.cpp:454] accuracy <- label_data_hdf5_1_split_0
I0521 04:05:55.080765  7754 net.cpp:411] accuracy -> accuracy
…
