…
I0521 07:27:40.476250 16945 net.cpp:322] The NetState phase (0) differed from the phase (1) specified by a rule in layer data_hdf5
I0521 07:27:40.476310 16945 net.cpp:322] The NetState phase (0) differed from the phase (1) specified by a rule in layer accuracy
I0521 07:27:40.476652 16945 net.cpp:49] Initializing net from parameters: 
name: "caffe_test_127x50_x_unshifted"
state {
  phase: TRAIN
}
layer {
  name: "data_hdf5"
  type: "HDF5Data"
  top: "data"
  top: "label"
  include {
    phase: TRAIN
  }
  hdf5_data_param {
    source: "/lustre/atlas/proj-shared/hep105/caffe_titan/minosmatch_nukecczdefs_127x50_x_unshifted_me1Bmc.trainlist"
    batch_size: 810
  }
}
layer {
  name: "conv1"
  type: "Convolution"
  bottom: "data"
  top: "conv1"
  convolution_param {
    num_output: 12
    pad: 0
    stride: 1
    weight_filler {
      type: "xavier"
    }
    bias_filler {
      type: "constant"
    }
    kernel_h: 8
    kernel_w: 3
  }
}
layer {
  name: "relu1"
  type: "ReLU"
  bottom: "conv1"
  top: "conv1"
}
layer {
  name: "pool1"
  type: "Pooling"
  bottom: "conv1"
  top: "pool1"
  pooling_param {
    pool: MAX
    kernel_h: 2
    kernel_w: 1
    stride_h: 2
    stride_w: 1
  }
}
layer {
  name: "conv2"
  type: "Convolution"
  bottom: "pool1"
  top: "conv2"
  convolution_param {
    num_output: 20
    pad: 0
    stride: 1
    weight_filler {
      type: "xavier"
    }
    bias_filler {
      type: "constant"
    }
    kernel_h: 7
    kernel_w: 3
  }
}
layer {
  name: "relu2"
  type: "ReLU"
  bottom: "conv2"
  top: "conv2"
}
layer {
  name: "pool2"
  type: "Pooling"
  bottom: "conv2"
  top: "pool2"
  pooling_param {
    pool: MAX
    kernel_h: 2
    kernel_w: 1
    stride_h: 2
    stride_w: 1
  }
}
layer {
  name: "conv3"
  type: "Convolution"
  bottom: "pool2"
  top: "conv3"
  convolution_param {
    num_output: 28
    pad: 0
    stride: 1
    weight_filler {
      type: "xavier"
    }
    bias_filler {
      type: "constant"
    }
    kernel_h: 6
    kernel_w: 3
  }
}
layer {
  name: "relu3"
  type: "ReLU"
  bottom: "conv3"
  top: "conv3"
}
layer {
  name: "pool3"
  type: "Pooling"
  bottom: "conv3"
  top: "pool3"
  pooling_param {
    pool: MAX
    kernel_h: 2
    kernel_w: 1
    stride_h: 2
    stride_w: 1
  }
}
layer {
  name: "conv4"
  type: "Convolution"
  bottom: "pool3"
  top: "conv4"
  convolution_param {
    num_output: 36
    pad: 0
    stride: 1
    weight_filler {
      type: "xavier"
    }
    bias_filler {
      type: "constant"
    }
    kernel_h: 6
    kernel_w: 3
  }
}
layer {
  name: "relu4"
  type: "ReLU"
  bottom: "conv4"
  top: "conv4"
}
layer {
  name: "pool4"
  type: "Pooling"
  bottom: "conv4"
  top: "pool4"
  pooling_param {
    pool: MAX
    kernel_h: 2
    kernel_w: 1
    stride_h: 2
    stride_w: 1
  }
}
layer {
  name: "ip1"
  type: "InnerProduct"
  bottom: "pool4"
  top: "ip1"
  inner_product_param {
    num_output: 196
    weight_filler {
      type: "xavier"
    }
    bias_filler {
      type: "constant"
    }
  }
}
layer {
  name: "relu5"
  type: "ReLU"
  bottom: "ip1"
  top: "ip1"
}
layer {
  name: "drop1"
  type: "Dropout"
  bottom: "ip1"
  top: "ip1"
  dropout_param {
    dropout_ratio: 0.5
  }
}
layer {
  name: "ip2"
  type: "InnerProduct"
  bottom: "ip1"
  top: "ip2"
  inner_product_param {
    num_output: 98
    weight_filler {
      type: "xavier"
    }
    bias_filler {
      type: "constant"
    }
  }
}
layer {
  name: "relu6"
  type: "ReLU"
  bottom: "ip2"
  top: "ip2"
}
layer {
  name: "drop2"
  type: "Dropout"
  bottom: "ip2"
  top: "ip2"
  dropout_param {
    dropout_ratio: 0.5
  }
}
layer {
  name: "ip3"
  type: "InnerProduct"
  bottom: "ip2"
  top: "ip3"
  inner_product_param {
    num_output: 11
    weight_filler {
      type: "xavier"
    }
    bias_filler {
      type: "constant"
    }
  }
}
layer {
  name: "drop3"
  type: "Dropout"
  bottom: "ip3"
  top: "ip3"
  dropout_param {
    dropout_ratio: 0.5
  }
}
layer {
  name: "loss"
  type: "SoftmaxWithLoss"
  bottom: "ip3"
  bottom: "label"
  top: "loss"
}
I0521 07:27:40.476830 16945 layer_factory.hpp:77] Creating layer data_hdf5
I0521 07:27:40.476855 16945 net.cpp:106] Creating Layer data_hdf5
I0521 07:27:40.476869 16945 net.cpp:411] data_hdf5 -> data
I0521 07:27:40.476904 16945 net.cpp:411] data_hdf5 -> label
I0521 07:27:40.476936 16945 hdf5_data_layer.cpp:79] Loading list of HDF5 filenames from: /lustre/atlas/proj-shared/hep105/caffe_titan/minosmatch_nukecczdefs_127x50_x_unshifted_me1Bmc.trainlist
I0521 07:27:40.478266 16945 hdf5_data_layer.cpp:93] Number of HDF5 files: 15
I0521 07:27:40.480533 16945 hdf5.cpp:32] Datatype class: H5T_FLOAT
I0521 07:28:02.094640 16945 hdf5.cpp:35] Datatype class: H5T_INTEGER
I0521 07:28:02.099748 16945 net.cpp:150] Setting up data_hdf5
I0521 07:28:02.099791 16945 net.cpp:157] Top shape: 810 1 127 50 (5143500)
I0521 07:28:02.099805 16945 net.cpp:157] Top shape: 810 (810)
I0521 07:28:02.099815 16945 net.cpp:165] Memory required for data: 20577240
I0521 07:28:02.099829 16945 layer_factory.hpp:77] Creating layer conv1
I0521 07:28:02.099864 16945 net.cpp:106] Creating Layer conv1
I0521 07:28:02.099875 16945 net.cpp:454] conv1 <- data
I0521 07:28:02.099898 16945 net.cpp:411] conv1 -> conv1
I0521 07:28:02.464006 16945 net.cpp:150] Setting up conv1
I0521 07:28:02.464053 16945 net.cpp:157] Top shape: 810 12 120 48 (55987200)
I0521 07:28:02.464064 16945 net.cpp:165] Memory required for data: 244526040
I0521 07:28:02.464092 16945 layer_factory.hpp:77] Creating layer relu1
I0521 07:28:02.464113 16945 net.cpp:106] Creating Layer relu1
I0521 07:28:02.464125 16945 net.cpp:454] relu1 <- conv1
I0521 07:28:02.464138 16945 net.cpp:397] relu1 -> conv1 (in-place)
I0521 07:28:02.464658 16945 net.cpp:150] Setting up relu1
I0521 07:28:02.464675 16945 net.cpp:157] Top shape: 810 12 120 48 (55987200)
I0521 07:28:02.464685 16945 net.cpp:165] Memory required for data: 468474840
I0521 07:28:02.464696 16945 layer_factory.hpp:77] Creating layer pool1
I0521 07:28:02.464712 16945 net.cpp:106] Creating Layer pool1
I0521 07:28:02.464722 16945 net.cpp:454] pool1 <- conv1
I0521 07:28:02.464736 16945 net.cpp:411] pool1 -> pool1
I0521 07:28:02.464815 16945 net.cpp:150] Setting up pool1
I0521 07:28:02.464829 16945 net.cpp:157] Top shape: 810 12 60 48 (27993600)
I0521 07:28:02.464839 16945 net.cpp:165] Memory required for data: 580449240
I0521 07:28:02.464849 16945 layer_factory.hpp:77] Creating layer conv2
I0521 07:28:02.464872 16945 net.cpp:106] Creating Layer conv2
I0521 07:28:02.464882 16945 net.cpp:454] conv2 <- pool1
I0521 07:28:02.464895 16945 net.cpp:411] conv2 -> conv2
I0521 07:28:02.467581 16945 net.cpp:150] Setting up conv2
I0521 07:28:02.467603 16945 net.cpp:157] Top shape: 810 20 54 46 (40240800)
I0521 07:28:02.467614 16945 net.cpp:165] Memory required for data: 741412440
I0521 07:28:02.467634 16945 layer_factory.hpp:77] Creating layer relu2
I0521 07:28:02.467648 16945 net.cpp:106] Creating Layer relu2
I0521 07:28:02.467658 16945 net.cpp:454] relu2 <- conv2
I0521 07:28:02.467671 16945 net.cpp:397] relu2 -> conv2 (in-place)
I0521 07:28:02.468003 16945 net.cpp:150] Setting up relu2
I0521 07:28:02.468017 16945 net.cpp:157] Top shape: 810 20 54 46 (40240800)
I0521 07:28:02.468027 16945 net.cpp:165] Memory required for data: 902375640
I0521 07:28:02.468039 16945 layer_factory.hpp:77] Creating layer pool2
I0521 07:28:02.468050 16945 net.cpp:106] Creating Layer pool2
I0521 07:28:02.468060 16945 net.cpp:454] pool2 <- conv2
I0521 07:28:02.468086 16945 net.cpp:411] pool2 -> pool2
I0521 07:28:02.468154 16945 net.cpp:150] Setting up pool2
I0521 07:28:02.468168 16945 net.cpp:157] Top shape: 810 20 27 46 (20120400)
I0521 07:28:02.468178 16945 net.cpp:165] Memory required for data: 982857240
I0521 07:28:02.468186 16945 layer_factory.hpp:77] Creating layer conv3
I0521 07:28:02.468205 16945 net.cpp:106] Creating Layer conv3
I0521 07:28:02.468215 16945 net.cpp:454] conv3 <- pool2
I0521 07:28:02.468228 16945 net.cpp:411] conv3 -> conv3
I0521 07:28:02.470157 16945 net.cpp:150] Setting up conv3
I0521 07:28:02.470180 16945 net.cpp:157] Top shape: 810 28 22 44 (21954240)
I0521 07:28:02.470192 16945 net.cpp:165] Memory required for data: 1070674200
I0521 07:28:02.470211 16945 layer_factory.hpp:77] Creating layer relu3
I0521 07:28:02.470227 16945 net.cpp:106] Creating Layer relu3
I0521 07:28:02.470237 16945 net.cpp:454] relu3 <- conv3
I0521 07:28:02.470249 16945 net.cpp:397] relu3 -> conv3 (in-place)
I0521 07:28:02.470720 16945 net.cpp:150] Setting up relu3
I0521 07:28:02.470737 16945 net.cpp:157] Top shape: 810 28 22 44 (21954240)
I0521 07:28:02.470747 16945 net.cpp:165] Memory required for data: 1158491160
I0521 07:28:02.470757 16945 layer_factory.hpp:77] Creating layer pool3
I0521 07:28:02.470770 16945 net.cpp:106] Creating Layer pool3
I0521 07:28:02.470779 16945 net.cpp:454] pool3 <- conv3
I0521 07:28:02.470793 16945 net.cpp:411] pool3 -> pool3
I0521 07:28:02.470860 16945 net.cpp:150] Setting up pool3
I0521 07:28:02.470873 16945 net.cpp:157] Top shape: 810 28 11 44 (10977120)
I0521 07:28:02.470883 16945 net.cpp:165] Memory required for data: 1202399640
I0521 07:28:02.470892 16945 layer_factory.hpp:77] Creating layer conv4
I0521 07:28:02.470909 16945 net.cpp:106] Creating Layer conv4
I0521 07:28:02.470919 16945 net.cpp:454] conv4 <- pool3
I0521 07:28:02.470933 16945 net.cpp:411] conv4 -> conv4
I0521 07:28:02.473642 16945 net.cpp:150] Setting up conv4
I0521 07:28:02.473669 16945 net.cpp:157] Top shape: 810 36 6 42 (7348320)
I0521 07:28:02.473680 16945 net.cpp:165] Memory required for data: 1231792920
I0521 07:28:02.473695 16945 layer_factory.hpp:77] Creating layer relu4
I0521 07:28:02.473711 16945 net.cpp:106] Creating Layer relu4
I0521 07:28:02.473721 16945 net.cpp:454] relu4 <- conv4
I0521 07:28:02.473733 16945 net.cpp:397] relu4 -> conv4 (in-place)
I0521 07:28:02.474198 16945 net.cpp:150] Setting up relu4
I0521 07:28:02.474215 16945 net.cpp:157] Top shape: 810 36 6 42 (7348320)
I0521 07:28:02.474225 16945 net.cpp:165] Memory required for data: 1261186200
I0521 07:28:02.474236 16945 layer_factory.hpp:77] Creating layer pool4
I0521 07:28:02.474248 16945 net.cpp:106] Creating Layer pool4
I0521 07:28:02.474258 16945 net.cpp:454] pool4 <- conv4
I0521 07:28:02.474272 16945 net.cpp:411] pool4 -> pool4
I0521 07:28:02.474340 16945 net.cpp:150] Setting up pool4
I0521 07:28:02.474354 16945 net.cpp:157] Top shape: 810 36 3 42 (3674160)
I0521 07:28:02.474364 16945 net.cpp:165] Memory required for data: 1275882840
I0521 07:28:02.474375 16945 layer_factory.hpp:77] Creating layer ip1
I0521 07:28:02.474395 16945 net.cpp:106] Creating Layer ip1
I0521 07:28:02.474406 16945 net.cpp:454] ip1 <- pool4
I0521 07:28:02.474418 16945 net.cpp:411] ip1 -> ip1
I0521 07:28:02.489773 16945 net.cpp:150] Setting up ip1
I0521 07:28:02.489802 16945 net.cpp:157] Top shape: 810 196 (158760)
I0521 07:28:02.489814 16945 net.cpp:165] Memory required for data: 1276517880
I0521 07:28:02.489836 16945 layer_factory.hpp:77] Creating layer relu5
I0521 07:28:02.489851 16945 net.cpp:106] Creating Layer relu5
I0521 07:28:02.489862 16945 net.cpp:454] relu5 <- ip1
I0521 07:28:02.489876 16945 net.cpp:397] relu5 -> ip1 (in-place)
I0521 07:28:02.490218 16945 net.cpp:150] Setting up relu5
I0521 07:28:02.490233 16945 net.cpp:157] Top shape: 810 196 (158760)
I0521 07:28:02.490242 16945 net.cpp:165] Memory required for data: 1277152920
I0521 07:28:02.490252 16945 layer_factory.hpp:77] Creating layer drop1
I0521 07:28:02.490275 16945 net.cpp:106] Creating Layer drop1
I0521 07:28:02.490285 16945 net.cpp:454] drop1 <- ip1
I0521 07:28:02.490311 16945 net.cpp:397] drop1 -> ip1 (in-place)
I0521 07:28:02.490358 16945 net.cpp:150] Setting up drop1
I0521 07:28:02.490371 16945 net.cpp:157] Top shape: 810 196 (158760)
I0521 07:28:02.490383 16945 net.cpp:165] Memory required for data: 1277787960
I0521 07:28:02.490393 16945 layer_factory.hpp:77] Creating layer ip2
I0521 07:28:02.490412 16945 net.cpp:106] Creating Layer ip2
I0521 07:28:02.490422 16945 net.cpp:454] ip2 <- ip1
I0521 07:28:02.490435 16945 net.cpp:411] ip2 -> ip2
I0521 07:28:02.490900 16945 net.cpp:150] Setting up ip2
I0521 07:28:02.490914 16945 net.cpp:157] Top shape: 810 98 (79380)
I0521 07:28:02.490924 16945 net.cpp:165] Memory required for data: 1278105480
I0521 07:28:02.490939 16945 layer_factory.hpp:77] Creating layer relu6
I0521 07:28:02.490952 16945 net.cpp:106] Creating Layer relu6
I0521 07:28:02.490962 16945 net.cpp:454] relu6 <- ip2
I0521 07:28:02.490973 16945 net.cpp:397] relu6 -> ip2 (in-place)
I0521 07:28:02.491488 16945 net.cpp:150] Setting up relu6
I0521 07:28:02.491504 16945 net.cpp:157] Top shape: 810 98 (79380)
I0521 07:28:02.491514 16945 net.cpp:165] Memory required for data: 1278423000
I0521 07:28:02.491526 16945 layer_factory.hpp:77] Creating layer drop2
I0521 07:28:02.491539 16945 net.cpp:106] Creating Layer drop2
I0521 07:28:02.491549 16945 net.cpp:454] drop2 <- ip2
I0521 07:28:02.491562 16945 net.cpp:397] drop2 -> ip2 (in-place)
I0521 07:28:02.491605 16945 net.cpp:150] Setting up drop2
I0521 07:28:02.491618 16945 net.cpp:157] Top shape: 810 98 (79380)
I0521 07:28:02.491628 16945 net.cpp:165] Memory required for data: 1278740520
I0521 07:28:02.491638 16945 layer_factory.hpp:77] Creating layer ip3
I0521 07:28:02.491652 16945 net.cpp:106] Creating Layer ip3
I0521 07:28:02.491662 16945 net.cpp:454] ip3 <- ip2
I0521 07:28:02.491674 16945 net.cpp:411] ip3 -> ip3
I0521 07:28:02.491886 16945 net.cpp:150] Setting up ip3
I0521 07:28:02.491899 16945 net.cpp:157] Top shape: 810 11 (8910)
I0521 07:28:02.491909 16945 net.cpp:165] Memory required for data: 1278776160
I0521 07:28:02.491925 16945 layer_factory.hpp:77] Creating layer drop3
I0521 07:28:02.491936 16945 net.cpp:106] Creating Layer drop3
I0521 07:28:02.491946 16945 net.cpp:454] drop3 <- ip3
I0521 07:28:02.491958 16945 net.cpp:397] drop3 -> ip3 (in-place)
I0521 07:28:02.491998 16945 net.cpp:150] Setting up drop3
I0521 07:28:02.492010 16945 net.cpp:157] Top shape: 810 11 (8910)
I0521 07:28:02.492020 16945 net.cpp:165] Memory required for data: 1278811800
I0521 07:28:02.492028 16945 layer_factory.hpp:77] Creating layer loss
I0521 07:28:02.492048 16945 net.cpp:106] Creating Layer loss
I0521 07:28:02.492059 16945 net.cpp:454] loss <- ip3
I0521 07:28:02.492070 16945 net.cpp:454] loss <- label
I0521 07:28:02.492082 16945 net.cpp:411] loss -> loss
I0521 07:28:02.492099 16945 layer_factory.hpp:77] Creating layer loss
…
I0521 07:28:02.494686 16945 solver.cpp:181] Creating test net (#0) specified by net file: /lustre/atlas/proj-shared/hep105/caffe_titan/caffe_workflow/logs_batch_size_test/batch_size_810_2016-05-20T11.21.02.216442.prototxt
I0521 07:28:02.494757 16945 net.cpp:322] The NetState phase (1) differed from the phase (0) specified by a rule in layer data_hdf5
I0521 07:28:02.495112 16945 net.cpp:49] Initializing net from parameters: 
name: "caffe_test_127x50_x_unshifted"
state {
  phase: TEST
}
layer {
  name: "data_hdf5"
  type: "HDF5Data"
  top: "data"
  top: "label"
  include {
    phase: TEST
  }
  hdf5_data_param {
    source: "/lustre/atlas/proj-shared/hep105/caffe_titan/minosmatch_nukecczdefs_127x50_x_unshifted_me1Bmc.testlist"
    batch_size: 810
  }
}
layer {
  name: "conv1"
  type: "Convolution"
  bottom: "data"
  top: "conv1"
  convolution_param {
    num_output: 12
    pad: 0
    stride: 1
    weight_filler {
      type: "xavier"
    }
    bias_filler {
      type: "constant"
    }
    kernel_h: 8
    kernel_w: 3
  }
}
layer {
  name: "relu1"
  type: "ReLU"
  bottom: "conv1"
  top: "conv1"
}
layer {
  name: "pool1"
  type: "Pooling"
  bottom: "conv1"
  top: "pool1"
  pooling_param {
    pool: MAX
    kernel_h: 2
    kernel_w: 1
    stride_h: 2
    stride_w: 1
  }
}
layer {
  name: "conv2"
  type: "Convolution"
  bottom: "pool1"
  top: "conv2"
  convolution_param {
    num_output: 20
    pad: 0
    stride: 1
    weight_filler {
      type: "xavier"
    }
    bias_filler {
      type: "constant"
    }
    kernel_h: 7
    kernel_w: 3
  }
}
layer {
  name: "relu2"
  type: "ReLU"
  bottom: "conv2"
  top: "conv2"
}
layer {
  name: "pool2"
  type: "Pooling"
  bottom: "conv2"
  top: "pool2"
  pooling_param {
    pool: MAX
    kernel_h: 2
    kernel_w: 1
    stride_h: 2
    stride_w: 1
  }
}
layer {
  name: "conv3"
  type: "Convolution"
  bottom: "pool2"
  top: "conv3"
  convolution_param {
    num_output: 28
    pad: 0
    stride: 1
    weight_filler {
      type: "xavier"
    }
    bias_filler {
      type: "constant"
    }
    kernel_h: 6
    kernel_w: 3
  }
}
layer {
  name: "relu3"
  type: "ReLU"
  bottom: "conv3"
  top: "conv3"
}
layer {
  name: "pool3"
  type: "Pooling"
  bottom: "conv3"
  top: "pool3"
  pooling_param {
    pool: MAX
    kernel_h: 2
    kernel_w: 1
    stride_h: 2
    stride_w: 1
  }
}
layer {
  name: "conv4"
  type: "Convolution"
  bottom: "pool3"
  top: "conv4"
  convolution_param {
    num_output: 36
    pad: 0
    stride: 1
    weight_filler {
      type: "xavier"
    }
    bias_filler {
      type: "constant"
    }
    kernel_h: 6
    kernel_w: 3
  }
}
layer {
  name: "relu4"
  type: "ReLU"
  bottom: "conv4"
  top: "conv4"
}
layer {
  name: "pool4"
  type: "Pooling"
  bottom: "conv4"
  top: "pool4"
  pooling_param {
    pool: MAX
    kernel_h: 2
    kernel_w: 1
    stride_h: 2
    stride_w: 1
  }
}
layer {
  name: "ip1"
  type: "InnerProduct"
  bottom: "pool4"
  top: "ip1"
  inner_product_param {
    num_output: 196
    weight_filler {
      type: "xavier"
    }
    bias_filler {
      type: "constant"
    }
  }
}
layer {
  name: "relu5"
  type: "ReLU"
  bottom: "ip1"
  top: "ip1"
}
layer {
  name: "drop1"
  type: "Dropout"
  bottom: "ip1"
  top: "ip1"
  dropout_param {
    dropout_ratio: 0.5
  }
}
layer {
  name: "ip2"
  type: "InnerProduct"
  bottom: "ip1"
  top: "ip2"
  inner_product_param {
    num_output: 98
    weight_filler {
      type: "xavier"
    }
    bias_filler {
      type: "constant"
    }
  }
}
layer {
  name: "relu6"
  type: "ReLU"
  bottom: "ip2"
  top: "ip2"
}
layer {
  name: "drop2"
  type: "Dropout"
  bottom: "ip2"
  top: "ip2"
  dropout_param {
    dropout_ratio: 0.5
  }
}
layer {
  name: "ip3"
  type: "InnerProduct"
  bottom: "ip2"
  top: "ip3"
  inner_product_param {
    num_output: 11
    weight_filler {
      type: "xavier"
    }
    bias_filler {
      type: "constant"
    }
  }
}
layer {
  name: "drop3"
  type: "Dropout"
  bottom: "ip3"
  top: "ip3"
  dropout_param {
    dropout_ratio: 0.5
  }
}
layer {
  name: "accuracy"
  type: "Accuracy"
  bottom: "ip3"
  bottom: "label"
  top: "accuracy"
  include {
    phase: TEST
  }
}
layer {
  name: "loss"
  type: "SoftmaxWithLoss"
  bottom: "ip3"
  bottom: "label"
  top: "loss"
}
I0521 07:28:02.495301 16945 layer_factory.hpp:77] Creating layer data_hdf5
I0521 07:28:02.495317 16945 net.cpp:106] Creating Layer data_hdf5
I0521 07:28:02.495329 16945 net.cpp:411] data_hdf5 -> data
I0521 07:28:02.495343 16945 net.cpp:411] data_hdf5 -> label
I0521 07:28:02.495359 16945 hdf5_data_layer.cpp:79] Loading list of HDF5 filenames from: /lustre/atlas/proj-shared/hep105/caffe_titan/minosmatch_nukecczdefs_127x50_x_unshifted_me1Bmc.testlist
I0521 07:28:02.496520 16945 hdf5_data_layer.cpp:93] Number of HDF5 files: 3
I0521 07:28:23.862962 16945 net.cpp:150] Setting up data_hdf5
I0521 07:28:23.863128 16945 net.cpp:157] Top shape: 810 1 127 50 (5143500)
I0521 07:28:23.863142 16945 net.cpp:157] Top shape: 810 (810)
I0521 07:28:23.863152 16945 net.cpp:165] Memory required for data: 20577240
I0521 07:28:23.863167 16945 layer_factory.hpp:77] Creating layer label_data_hdf5_1_split
I0521 07:28:23.863195 16945 net.cpp:106] Creating Layer label_data_hdf5_1_split
I0521 07:28:23.863206 16945 net.cpp:454] label_data_hdf5_1_split <- label
I0521 07:28:23.863221 16945 net.cpp:411] label_data_hdf5_1_split -> label_data_hdf5_1_split_0
I0521 07:28:23.863242 16945 net.cpp:411] label_data_hdf5_1_split -> label_data_hdf5_1_split_1
I0521 07:28:23.863317 16945 net.cpp:150] Setting up label_data_hdf5_1_split
I0521 07:28:23.863330 16945 net.cpp:157] Top shape: 810 (810)
I0521 07:28:23.863343 16945 net.cpp:157] Top shape: 810 (810)
I0521 07:28:23.863351 16945 net.cpp:165] Memory required for data: 20583720
I0521 07:28:23.863361 16945 layer_factory.hpp:77] Creating layer conv1
I0521 07:28:23.863384 16945 net.cpp:106] Creating Layer conv1
I0521 07:28:23.863394 16945 net.cpp:454] conv1 <- data
I0521 07:28:23.863409 16945 net.cpp:411] conv1 -> conv1
I0521 07:28:23.865335 16945 net.cpp:150] Setting up conv1
I0521 07:28:23.865360 16945 net.cpp:157] Top shape: 810 12 120 48 (55987200)
I0521 07:28:23.865370 16945 net.cpp:165] Memory required for data: 244532520
I0521 07:28:23.865391 16945 layer_factory.hpp:77] Creating layer relu1
I0521 07:28:23.865406 16945 net.cpp:106] Creating Layer relu1
I0521 07:28:23.865417 16945 net.cpp:454] relu1 <- conv1
I0521 07:28:23.865428 16945 net.cpp:397] relu1 -> conv1 (in-place)
I0521 07:28:23.865927 16945 net.cpp:150] Setting up relu1
I0521 07:28:23.865942 16945 net.cpp:157] Top shape: 810 12 120 48 (55987200)
I0521 07:28:23.865952 16945 net.cpp:165] Memory required for data: 468481320
I0521 07:28:23.865963 16945 layer_factory.hpp:77] Creating layer pool1
I0521 07:28:23.865979 16945 net.cpp:106] Creating Layer pool1
I0521 07:28:23.865988 16945 net.cpp:454] pool1 <- conv1
I0521 07:28:23.866001 16945 net.cpp:411] pool1 -> pool1
I0521 07:28:23.866076 16945 net.cpp:150] Setting up pool1
I0521 07:28:23.866091 16945 net.cpp:157] Top shape: 810 12 60 48 (27993600)
I0521 07:28:23.866099 16945 net.cpp:165] Memory required for data: 580455720
I0521 07:28:23.866109 16945 layer_factory.hpp:77] Creating layer conv2
I0521 07:28:23.866127 16945 net.cpp:106] Creating Layer conv2
I0521 07:28:23.866138 16945 net.cpp:454] conv2 <- pool1
I0521 07:28:23.866152 16945 net.cpp:411] conv2 -> conv2
I0521 07:28:23.868062 16945 net.cpp:150] Setting up conv2
I0521 07:28:23.868083 16945 net.cpp:157] Top shape: 810 20 54 46 (40240800)
I0521 07:28:23.868096 16945 net.cpp:165] Memory required for data: 741418920
I0521 07:28:23.868114 16945 layer_factory.hpp:77] Creating layer relu2
I0521 07:28:23.868127 16945 net.cpp:106] Creating Layer relu2
I0521 07:28:23.868137 16945 net.cpp:454] relu2 <- conv2
I0521 07:28:23.868150 16945 net.cpp:397] relu2 -> conv2 (in-place)
I0521 07:28:23.868484 16945 net.cpp:150] Setting up relu2
I0521 07:28:23.868499 16945 net.cpp:157] Top shape: 810 20 54 46 (40240800)
I0521 07:28:23.868510 16945 net.cpp:165] Memory required for data: 902382120
I0521 07:28:23.868520 16945 layer_factory.hpp:77] Creating layer pool2
I0521 07:28:23.868533 16945 net.cpp:106] Creating Layer pool2
I0521 07:28:23.868543 16945 net.cpp:454] pool2 <- conv2
I0521 07:28:23.868556 16945 net.cpp:411] pool2 -> pool2
I0521 07:28:23.868626 16945 net.cpp:150] Setting up pool2
I0521 07:28:23.868639 16945 net.cpp:157] Top shape: 810 20 27 46 (20120400)
I0521 07:28:23.868649 16945 net.cpp:165] Memory required for data: 982863720
I0521 07:28:23.868659 16945 layer_factory.hpp:77] Creating layer conv3
I0521 07:28:23.868676 16945 net.cpp:106] Creating Layer conv3
I0521 07:28:23.868687 16945 net.cpp:454] conv3 <- pool2
I0521 07:28:23.868701 16945 net.cpp:411] conv3 -> conv3
I0521 07:28:23.870679 16945 net.cpp:150] Setting up conv3
I0521 07:28:23.870703 16945 net.cpp:157] Top shape: 810 28 22 44 (21954240)
I0521 07:28:23.870714 16945 net.cpp:165] Memory required for data: 1070680680
I0521 07:28:23.870748 16945 layer_factory.hpp:77] Creating layer relu3
I0521 07:28:23.870761 16945 net.cpp:106] Creating Layer relu3
I0521 07:28:23.870771 16945 net.cpp:454] relu3 <- conv3
I0521 07:28:23.870784 16945 net.cpp:397] relu3 -> conv3 (in-place)
I0521 07:28:23.871259 16945 net.cpp:150] Setting up relu3
I0521 07:28:23.871275 16945 net.cpp:157] Top shape: 810 28 22 44 (21954240)
I0521 07:28:23.871285 16945 net.cpp:165] Memory required for data: 1158497640
I0521 07:28:23.871295 16945 layer_factory.hpp:77] Creating layer pool3
I0521 07:28:23.871309 16945 net.cpp:106] Creating Layer pool3
I0521 07:28:23.871318 16945 net.cpp:454] pool3 <- conv3
I0521 07:28:23.871331 16945 net.cpp:411] pool3 -> pool3
I0521 07:28:23.871403 16945 net.cpp:150] Setting up pool3
I0521 07:28:23.871417 16945 net.cpp:157] Top shape: 810 28 11 44 (10977120)
I0521 07:28:23.871426 16945 net.cpp:165] Memory required for data: 1202406120
I0521 07:28:23.871436 16945 layer_factory.hpp:77] Creating layer conv4
I0521 07:28:23.871454 16945 net.cpp:106] Creating Layer conv4
I0521 07:28:23.871464 16945 net.cpp:454] conv4 <- pool3
I0521 07:28:23.871477 16945 net.cpp:411] conv4 -> conv4
I0521 07:28:23.873538 16945 net.cpp:150] Setting up conv4
I0521 07:28:23.873559 16945 net.cpp:157] Top shape: 810 36 6 42 (7348320)
I0521 07:28:23.873571 16945 net.cpp:165] Memory required for data: 1231799400
I0521 07:28:23.873586 16945 layer_factory.hpp:77] Creating layer relu4
I0521 07:28:23.873600 16945 net.cpp:106] Creating Layer relu4
I0521 07:28:23.873610 16945 net.cpp:454] relu4 <- conv4
I0521 07:28:23.873622 16945 net.cpp:397] relu4 -> conv4 (in-place)
I0521 07:28:23.874092 16945 net.cpp:150] Setting up relu4
I0521 07:28:23.874109 16945 net.cpp:157] Top shape: 810 36 6 42 (7348320)
I0521 07:28:23.874119 16945 net.cpp:165] Memory required for data: 1261192680
I0521 07:28:23.874130 16945 layer_factory.hpp:77] Creating layer pool4
I0521 07:28:23.874142 16945 net.cpp:106] Creating Layer pool4
I0521 07:28:23.874152 16945 net.cpp:454] pool4 <- conv4
I0521 07:28:23.874166 16945 net.cpp:411] pool4 -> pool4
I0521 07:28:23.874238 16945 net.cpp:150] Setting up pool4
I0521 07:28:23.874250 16945 net.cpp:157] Top shape: 810 36 3 42 (3674160)
I0521 07:28:23.874259 16945 net.cpp:165] Memory required for data: 1275889320
I0521 07:28:23.874270 16945 layer_factory.hpp:77] Creating layer ip1
I0521 07:28:23.874285 16945 net.cpp:106] Creating Layer ip1
I0521 07:28:23.874295 16945 net.cpp:454] ip1 <- pool4
I0521 07:28:23.874308 16945 net.cpp:411] ip1 -> ip1
I0521 07:28:23.889780 16945 net.cpp:150] Setting up ip1
I0521 07:28:23.889807 16945 net.cpp:157] Top shape: 810 196 (158760)
I0521 07:28:23.889823 16945 net.cpp:165] Memory required for data: 1276524360
I0521 07:28:23.889845 16945 layer_factory.hpp:77] Creating layer relu5
I0521 07:28:23.889861 16945 net.cpp:106] Creating Layer relu5
I0521 07:28:23.889871 16945 net.cpp:454] relu5 <- ip1
I0521 07:28:23.889889 16945 net.cpp:397] relu5 -> ip1 (in-place)
I0521 07:28:23.890233 16945 net.cpp:150] Setting up relu5
I0521 07:28:23.890246 16945 net.cpp:157] Top shape: 810 196 (158760)
I0521 07:28:23.890256 16945 net.cpp:165] Memory required for data: 1277159400
I0521 07:28:23.890267 16945 layer_factory.hpp:77] Creating layer drop1
I0521 07:28:23.890285 16945 net.cpp:106] Creating Layer drop1
I0521 07:28:23.890295 16945 net.cpp:454] drop1 <- ip1
I0521 07:28:23.890308 16945 net.cpp:397] drop1 -> ip1 (in-place)
I0521 07:28:23.890352 16945 net.cpp:150] Setting up drop1
I0521 07:28:23.890365 16945 net.cpp:157] Top shape: 810 196 (158760)
I0521 07:28:23.890377 16945 net.cpp:165] Memory required for data: 1277794440
I0521 07:28:23.890385 16945 layer_factory.hpp:77] Creating layer ip2
I0521 07:28:23.890400 16945 net.cpp:106] Creating Layer ip2
I0521 07:28:23.890410 16945 net.cpp:454] ip2 <- ip1
I0521 07:28:23.890424 16945 net.cpp:411] ip2 -> ip2
I0521 07:28:23.890902 16945 net.cpp:150] Setting up ip2
I0521 07:28:23.890915 16945 net.cpp:157] Top shape: 810 98 (79380)
I0521 07:28:23.890925 16945 net.cpp:165] Memory required for data: 1278111960
I0521 07:28:23.890954 16945 layer_factory.hpp:77] Creating layer relu6
I0521 07:28:23.890966 16945 net.cpp:106] Creating Layer relu6
I0521 07:28:23.890976 16945 net.cpp:454] relu6 <- ip2
I0521 07:28:23.890988 16945 net.cpp:397] relu6 -> ip2 (in-place)
I0521 07:28:23.891516 16945 net.cpp:150] Setting up relu6
I0521 07:28:23.891532 16945 net.cpp:157] Top shape: 810 98 (79380)
I0521 07:28:23.891542 16945 net.cpp:165] Memory required for data: 1278429480
I0521 07:28:23.891552 16945 layer_factory.hpp:77] Creating layer drop2
I0521 07:28:23.891566 16945 net.cpp:106] Creating Layer drop2
I0521 07:28:23.891576 16945 net.cpp:454] drop2 <- ip2
I0521 07:28:23.891588 16945 net.cpp:397] drop2 -> ip2 (in-place)
I0521 07:28:23.891631 16945 net.cpp:150] Setting up drop2
I0521 07:28:23.891644 16945 net.cpp:157] Top shape: 810 98 (79380)
I0521 07:28:23.891654 16945 net.cpp:165] Memory required for data: 1278747000
I0521 07:28:23.891664 16945 layer_factory.hpp:77] Creating layer ip3
I0521 07:28:23.891677 16945 net.cpp:106] Creating Layer ip3
I0521 07:28:23.891687 16945 net.cpp:454] ip3 <- ip2
I0521 07:28:23.891701 16945 net.cpp:411] ip3 -> ip3
I0521 07:28:23.891923 16945 net.cpp:150] Setting up ip3
I0521 07:28:23.891937 16945 net.cpp:157] Top shape: 810 11 (8910)
I0521 07:28:23.891947 16945 net.cpp:165] Memory required for data: 1278782640
I0521 07:28:23.891963 16945 layer_factory.hpp:77] Creating layer drop3
I0521 07:28:23.891975 16945 net.cpp:106] Creating Layer drop3
I0521 07:28:23.891984 16945 net.cpp:454] drop3 <- ip3
I0521 07:28:23.891998 16945 net.cpp:397] drop3 -> ip3 (in-place)
I0521 07:28:23.892040 16945 net.cpp:150] Setting up drop3
I0521 07:28:23.892051 16945 net.cpp:157] Top shape: 810 11 (8910)
I0521 07:28:23.892061 16945 net.cpp:165] Memory required for data: 1278818280
I0521 07:28:23.892071 16945 layer_factory.hpp:77] Creating layer ip3_drop3_0_split
I0521 07:28:23.892084 16945 net.cpp:106] Creating Layer ip3_drop3_0_split
I0521 07:28:23.892094 16945 net.cpp:454] ip3_drop3_0_split <- ip3
I0521 07:28:23.892107 16945 net.cpp:411] ip3_drop3_0_split -> ip3_drop3_0_split_0
I0521 07:28:23.892122 16945 net.cpp:411] ip3_drop3_0_split -> ip3_drop3_0_split_1
I0521 07:28:23.892194 16945 net.cpp:150] Setting up ip3_drop3_0_split
I0521 07:28:23.892206 16945 net.cpp:157] Top shape: 810 11 (8910)
I0521 07:28:23.892220 16945 net.cpp:157] Top shape: 810 11 (8910)
I0521 07:28:23.892228 16945 net.cpp:165] Memory required for data: 1278889560
I0521 07:28:23.892238 16945 layer_factory.hpp:77] Creating layer accuracy
I0521 07:28:23.892259 16945 net.cpp:106] Creating Layer accuracy
I0521 07:28:23.892269 16945 net.cpp:454] accuracy <- ip3_drop3_0_split_0
I0521 07:28:23.892280 16945 net.cpp:454] accuracy <- label_data_hdf5_1_split_0
I0521 07:28:23.892294 16945 net.cpp:411] accuracy -> accuracy
…
