…
I0521 11:35:01.033989 18246 net.cpp:322] The NetState phase (0) differed from the phase (1) specified by a rule in layer data_hdf5
I0521 11:35:01.034049 18246 net.cpp:322] The NetState phase (0) differed from the phase (1) specified by a rule in layer accuracy
I0521 11:35:01.034392 18246 net.cpp:49] Initializing net from parameters: 
name: "caffe_test_127x50_x_unshifted"
state {
  phase: TRAIN
}
layer {
  name: "data_hdf5"
  type: "HDF5Data"
  top: "data"
  top: "label"
  include {
    phase: TRAIN
  }
  hdf5_data_param {
    source: "/lustre/atlas/proj-shared/hep105/caffe_titan/minosmatch_nukecczdefs_127x50_x_unshifted_me1Bmc.trainlist"
    batch_size: 1000
  }
}
layer {
  name: "conv1"
  type: "Convolution"
  bottom: "data"
  top: "conv1"
  convolution_param {
    num_output: 12
    pad: 0
    stride: 1
    weight_filler {
      type: "xavier"
    }
    bias_filler {
      type: "constant"
    }
    kernel_h: 8
    kernel_w: 3
  }
}
layer {
  name: "relu1"
  type: "ReLU"
  bottom: "conv1"
  top: "conv1"
}
layer {
  name: "pool1"
  type: "Pooling"
  bottom: "conv1"
  top: "pool1"
  pooling_param {
    pool: MAX
    kernel_h: 2
    kernel_w: 1
    stride_h: 2
    stride_w: 1
  }
}
layer {
  name: "conv2"
  type: "Convolution"
  bottom: "pool1"
  top: "conv2"
  convolution_param {
    num_output: 20
    pad: 0
    stride: 1
    weight_filler {
      type: "xavier"
    }
    bias_filler {
      type: "constant"
    }
    kernel_h: 7
    kernel_w: 3
  }
}
layer {
  name: "relu2"
  type: "ReLU"
  bottom: "conv2"
  top: "conv2"
}
layer {
  name: "pool2"
  type: "Pooling"
  bottom: "conv2"
  top: "pool2"
  pooling_param {
    pool: MAX
    kernel_h: 2
    kernel_w: 1
    stride_h: 2
    stride_w: 1
  }
}
layer {
  name: "conv3"
  type: "Convolution"
  bottom: "pool2"
  top: "conv3"
  convolution_param {
    num_output: 28
    pad: 0
    stride: 1
    weight_filler {
      type: "xavier"
    }
    bias_filler {
      type: "constant"
    }
    kernel_h: 6
    kernel_w: 3
  }
}
layer {
  name: "relu3"
  type: "ReLU"
  bottom: "conv3"
  top: "conv3"
}
layer {
  name: "pool3"
  type: "Pooling"
  bottom: "conv3"
  top: "pool3"
  pooling_param {
    pool: MAX
    kernel_h: 2
    kernel_w: 1
    stride_h: 2
    stride_w: 1
  }
}
layer {
  name: "conv4"
  type: "Convolution"
  bottom: "pool3"
  top: "conv4"
  convolution_param {
    num_output: 36
    pad: 0
    stride: 1
    weight_filler {
      type: "xavier"
    }
    bias_filler {
      type: "constant"
    }
    kernel_h: 6
    kernel_w: 3
  }
}
layer {
  name: "relu4"
  type: "ReLU"
  bottom: "conv4"
  top: "conv4"
}
layer {
  name: "pool4"
  type: "Pooling"
  bottom: "conv4"
  top: "pool4"
  pooling_param {
    pool: MAX
    kernel_h: 2
    kernel_w: 1
    stride_h: 2
    stride_w: 1
  }
}
layer {
  name: "ip1"
  type: "InnerProduct"
  bottom: "pool4"
  top: "ip1"
  inner_product_param {
    num_output: 196
    weight_filler {
      type: "xavier"
    }
    bias_filler {
      type: "constant"
    }
  }
}
layer {
  name: "relu5"
  type: "ReLU"
  bottom: "ip1"
  top: "ip1"
}
layer {
  name: "drop1"
  type: "Dropout"
  bottom: "ip1"
  top: "ip1"
  dropout_param {
    dropout_ratio: 0.5
  }
}
layer {
  name: "ip2"
  type: "InnerProduct"
  bottom: "ip1"
  top: "ip2"
  inner_product_param {
    num_output: 98
    weight_filler {
      type: "xavier"
    }
    bias_filler {
      type: "constant"
    }
  }
}
layer {
  name: "relu6"
  type: "ReLU"
  bottom: "ip2"
  top: "ip2"
}
layer {
  name: "drop2"
  type: "Dropout"
  bottom: "ip2"
  top: "ip2"
  dropout_param {
    dropout_ratio: 0.5
  }
}
layer {
  name: "ip3"
  type: "InnerProduct"
  bottom: "ip2"
  top: "ip3"
  inner_product_param {
    num_output: 11
    weight_filler {
      type: "xavier"
    }
    bias_filler {
      type: "constant"
    }
  }
}
layer {
  name: "drop3"
  type: "Dropout"
  bottom: "ip3"
  top: "ip3"
  dropout_param {
    dropout_ratio: 0.5
  }
}
layer {
  name: "loss"
  type: "SoftmaxWithLoss"
  bottom: "ip3"
  bottom: "label"
  top: "loss"
}
I0521 11:35:01.034572 18246 layer_factory.hpp:77] Creating layer data_hdf5
I0521 11:35:01.034596 18246 net.cpp:106] Creating Layer data_hdf5
I0521 11:35:01.034611 18246 net.cpp:411] data_hdf5 -> data
I0521 11:35:01.034643 18246 net.cpp:411] data_hdf5 -> label
I0521 11:35:01.034677 18246 hdf5_data_layer.cpp:79] Loading list of HDF5 filenames from: /lustre/atlas/proj-shared/hep105/caffe_titan/minosmatch_nukecczdefs_127x50_x_unshifted_me1Bmc.trainlist
I0521 11:35:01.035966 18246 hdf5_data_layer.cpp:93] Number of HDF5 files: 15
I0521 11:35:01.038180 18246 hdf5.cpp:32] Datatype class: H5T_FLOAT
I0521 11:35:22.560822 18246 hdf5.cpp:35] Datatype class: H5T_INTEGER
I0521 11:35:22.565958 18246 net.cpp:150] Setting up data_hdf5
I0521 11:35:22.565999 18246 net.cpp:157] Top shape: 1000 1 127 50 (6350000)
I0521 11:35:22.566012 18246 net.cpp:157] Top shape: 1000 (1000)
I0521 11:35:22.566025 18246 net.cpp:165] Memory required for data: 25404000
I0521 11:35:22.566038 18246 layer_factory.hpp:77] Creating layer conv1
I0521 11:35:22.566071 18246 net.cpp:106] Creating Layer conv1
I0521 11:35:22.566082 18246 net.cpp:454] conv1 <- data
I0521 11:35:22.566103 18246 net.cpp:411] conv1 -> conv1
I0521 11:35:22.927770 18246 net.cpp:150] Setting up conv1
I0521 11:35:22.927819 18246 net.cpp:157] Top shape: 1000 12 120 48 (69120000)
I0521 11:35:22.927829 18246 net.cpp:165] Memory required for data: 301884000
I0521 11:35:22.927857 18246 layer_factory.hpp:77] Creating layer relu1
I0521 11:35:22.927880 18246 net.cpp:106] Creating Layer relu1
I0521 11:35:22.927889 18246 net.cpp:454] relu1 <- conv1
I0521 11:35:22.927903 18246 net.cpp:397] relu1 -> conv1 (in-place)
I0521 11:35:22.928419 18246 net.cpp:150] Setting up relu1
I0521 11:35:22.928436 18246 net.cpp:157] Top shape: 1000 12 120 48 (69120000)
I0521 11:35:22.928447 18246 net.cpp:165] Memory required for data: 578364000
I0521 11:35:22.928457 18246 layer_factory.hpp:77] Creating layer pool1
I0521 11:35:22.928473 18246 net.cpp:106] Creating Layer pool1
I0521 11:35:22.928483 18246 net.cpp:454] pool1 <- conv1
I0521 11:35:22.928496 18246 net.cpp:411] pool1 -> pool1
I0521 11:35:22.928575 18246 net.cpp:150] Setting up pool1
I0521 11:35:22.928591 18246 net.cpp:157] Top shape: 1000 12 60 48 (34560000)
I0521 11:35:22.928601 18246 net.cpp:165] Memory required for data: 716604000
I0521 11:35:22.928611 18246 layer_factory.hpp:77] Creating layer conv2
I0521 11:35:22.928632 18246 net.cpp:106] Creating Layer conv2
I0521 11:35:22.928643 18246 net.cpp:454] conv2 <- pool1
I0521 11:35:22.928656 18246 net.cpp:411] conv2 -> conv2
I0521 11:35:22.931334 18246 net.cpp:150] Setting up conv2
I0521 11:35:22.931361 18246 net.cpp:157] Top shape: 1000 20 54 46 (49680000)
I0521 11:35:22.931372 18246 net.cpp:165] Memory required for data: 915324000
I0521 11:35:22.931391 18246 layer_factory.hpp:77] Creating layer relu2
I0521 11:35:22.931406 18246 net.cpp:106] Creating Layer relu2
I0521 11:35:22.931416 18246 net.cpp:454] relu2 <- conv2
I0521 11:35:22.931428 18246 net.cpp:397] relu2 -> conv2 (in-place)
I0521 11:35:22.931759 18246 net.cpp:150] Setting up relu2
I0521 11:35:22.931773 18246 net.cpp:157] Top shape: 1000 20 54 46 (49680000)
I0521 11:35:22.931783 18246 net.cpp:165] Memory required for data: 1114044000
I0521 11:35:22.931793 18246 layer_factory.hpp:77] Creating layer pool2
I0521 11:35:22.931805 18246 net.cpp:106] Creating Layer pool2
I0521 11:35:22.931815 18246 net.cpp:454] pool2 <- conv2
I0521 11:35:22.931840 18246 net.cpp:411] pool2 -> pool2
I0521 11:35:22.931910 18246 net.cpp:150] Setting up pool2
I0521 11:35:22.931922 18246 net.cpp:157] Top shape: 1000 20 27 46 (24840000)
I0521 11:35:22.931932 18246 net.cpp:165] Memory required for data: 1213404000
I0521 11:35:22.931942 18246 layer_factory.hpp:77] Creating layer conv3
I0521 11:35:22.931960 18246 net.cpp:106] Creating Layer conv3
I0521 11:35:22.931972 18246 net.cpp:454] conv3 <- pool2
I0521 11:35:22.931984 18246 net.cpp:411] conv3 -> conv3
I0521 11:35:22.933907 18246 net.cpp:150] Setting up conv3
I0521 11:35:22.933930 18246 net.cpp:157] Top shape: 1000 28 22 44 (27104000)
I0521 11:35:22.933943 18246 net.cpp:165] Memory required for data: 1321820000
I0521 11:35:22.933959 18246 layer_factory.hpp:77] Creating layer relu3
I0521 11:35:22.933975 18246 net.cpp:106] Creating Layer relu3
I0521 11:35:22.933985 18246 net.cpp:454] relu3 <- conv3
I0521 11:35:22.933998 18246 net.cpp:397] relu3 -> conv3 (in-place)
I0521 11:35:22.934463 18246 net.cpp:150] Setting up relu3
I0521 11:35:22.934481 18246 net.cpp:157] Top shape: 1000 28 22 44 (27104000)
I0521 11:35:22.934491 18246 net.cpp:165] Memory required for data: 1430236000
I0521 11:35:22.934501 18246 layer_factory.hpp:77] Creating layer pool3
I0521 11:35:22.934514 18246 net.cpp:106] Creating Layer pool3
I0521 11:35:22.934523 18246 net.cpp:454] pool3 <- conv3
I0521 11:35:22.934536 18246 net.cpp:411] pool3 -> pool3
I0521 11:35:22.934604 18246 net.cpp:150] Setting up pool3
I0521 11:35:22.934617 18246 net.cpp:157] Top shape: 1000 28 11 44 (13552000)
I0521 11:35:22.934626 18246 net.cpp:165] Memory required for data: 1484444000
I0521 11:35:22.934636 18246 layer_factory.hpp:77] Creating layer conv4
I0521 11:35:22.934651 18246 net.cpp:106] Creating Layer conv4
I0521 11:35:22.934661 18246 net.cpp:454] conv4 <- pool3
I0521 11:35:22.934675 18246 net.cpp:411] conv4 -> conv4
I0521 11:35:22.937402 18246 net.cpp:150] Setting up conv4
I0521 11:35:22.937427 18246 net.cpp:157] Top shape: 1000 36 6 42 (9072000)
I0521 11:35:22.937438 18246 net.cpp:165] Memory required for data: 1520732000
I0521 11:35:22.937453 18246 layer_factory.hpp:77] Creating layer relu4
I0521 11:35:22.937468 18246 net.cpp:106] Creating Layer relu4
I0521 11:35:22.937477 18246 net.cpp:454] relu4 <- conv4
I0521 11:35:22.937490 18246 net.cpp:397] relu4 -> conv4 (in-place)
I0521 11:35:22.937955 18246 net.cpp:150] Setting up relu4
I0521 11:35:22.937971 18246 net.cpp:157] Top shape: 1000 36 6 42 (9072000)
I0521 11:35:22.937983 18246 net.cpp:165] Memory required for data: 1557020000
I0521 11:35:22.937993 18246 layer_factory.hpp:77] Creating layer pool4
I0521 11:35:22.938005 18246 net.cpp:106] Creating Layer pool4
I0521 11:35:22.938015 18246 net.cpp:454] pool4 <- conv4
I0521 11:35:22.938029 18246 net.cpp:411] pool4 -> pool4
I0521 11:35:22.938172 18246 net.cpp:150] Setting up pool4
I0521 11:35:22.938187 18246 net.cpp:157] Top shape: 1000 36 3 42 (4536000)
I0521 11:35:22.938199 18246 net.cpp:165] Memory required for data: 1575164000
I0521 11:35:22.938210 18246 layer_factory.hpp:77] Creating layer ip1
I0521 11:35:22.938230 18246 net.cpp:106] Creating Layer ip1
I0521 11:35:22.938240 18246 net.cpp:454] ip1 <- pool4
I0521 11:35:22.938252 18246 net.cpp:411] ip1 -> ip1
I0521 11:35:22.953707 18246 net.cpp:150] Setting up ip1
I0521 11:35:22.953735 18246 net.cpp:157] Top shape: 1000 196 (196000)
I0521 11:35:22.953748 18246 net.cpp:165] Memory required for data: 1575948000
I0521 11:35:22.953770 18246 layer_factory.hpp:77] Creating layer relu5
I0521 11:35:22.953785 18246 net.cpp:106] Creating Layer relu5
I0521 11:35:22.953795 18246 net.cpp:454] relu5 <- ip1
I0521 11:35:22.953809 18246 net.cpp:397] relu5 -> ip1 (in-place)
I0521 11:35:22.954149 18246 net.cpp:150] Setting up relu5
I0521 11:35:22.954164 18246 net.cpp:157] Top shape: 1000 196 (196000)
I0521 11:35:22.954174 18246 net.cpp:165] Memory required for data: 1576732000
I0521 11:35:22.954183 18246 layer_factory.hpp:77] Creating layer drop1
I0521 11:35:22.954205 18246 net.cpp:106] Creating Layer drop1
I0521 11:35:22.954228 18246 net.cpp:454] drop1 <- ip1
I0521 11:35:22.954241 18246 net.cpp:397] drop1 -> ip1 (in-place)
I0521 11:35:22.954288 18246 net.cpp:150] Setting up drop1
I0521 11:35:22.954300 18246 net.cpp:157] Top shape: 1000 196 (196000)
I0521 11:35:22.954310 18246 net.cpp:165] Memory required for data: 1577516000
I0521 11:35:22.954320 18246 layer_factory.hpp:77] Creating layer ip2
I0521 11:35:22.954339 18246 net.cpp:106] Creating Layer ip2
I0521 11:35:22.954349 18246 net.cpp:454] ip2 <- ip1
I0521 11:35:22.954362 18246 net.cpp:411] ip2 -> ip2
I0521 11:35:22.954829 18246 net.cpp:150] Setting up ip2
I0521 11:35:22.954843 18246 net.cpp:157] Top shape: 1000 98 (98000)
I0521 11:35:22.954852 18246 net.cpp:165] Memory required for data: 1577908000
I0521 11:35:22.954867 18246 layer_factory.hpp:77] Creating layer relu6
I0521 11:35:22.954880 18246 net.cpp:106] Creating Layer relu6
I0521 11:35:22.954890 18246 net.cpp:454] relu6 <- ip2
I0521 11:35:22.954902 18246 net.cpp:397] relu6 -> ip2 (in-place)
I0521 11:35:22.955430 18246 net.cpp:150] Setting up relu6
I0521 11:35:22.955446 18246 net.cpp:157] Top shape: 1000 98 (98000)
I0521 11:35:22.955456 18246 net.cpp:165] Memory required for data: 1578300000
I0521 11:35:22.955466 18246 layer_factory.hpp:77] Creating layer drop2
I0521 11:35:22.955479 18246 net.cpp:106] Creating Layer drop2
I0521 11:35:22.955489 18246 net.cpp:454] drop2 <- ip2
I0521 11:35:22.955502 18246 net.cpp:397] drop2 -> ip2 (in-place)
I0521 11:35:22.955544 18246 net.cpp:150] Setting up drop2
I0521 11:35:22.955557 18246 net.cpp:157] Top shape: 1000 98 (98000)
I0521 11:35:22.955569 18246 net.cpp:165] Memory required for data: 1578692000
I0521 11:35:22.955579 18246 layer_factory.hpp:77] Creating layer ip3
I0521 11:35:22.955591 18246 net.cpp:106] Creating Layer ip3
I0521 11:35:22.955601 18246 net.cpp:454] ip3 <- ip2
I0521 11:35:22.955615 18246 net.cpp:411] ip3 -> ip3
I0521 11:35:22.955826 18246 net.cpp:150] Setting up ip3
I0521 11:35:22.955839 18246 net.cpp:157] Top shape: 1000 11 (11000)
I0521 11:35:22.955849 18246 net.cpp:165] Memory required for data: 1578736000
I0521 11:35:22.955864 18246 layer_factory.hpp:77] Creating layer drop3
I0521 11:35:22.955878 18246 net.cpp:106] Creating Layer drop3
I0521 11:35:22.955886 18246 net.cpp:454] drop3 <- ip3
I0521 11:35:22.955899 18246 net.cpp:397] drop3 -> ip3 (in-place)
I0521 11:35:22.955937 18246 net.cpp:150] Setting up drop3
I0521 11:35:22.955950 18246 net.cpp:157] Top shape: 1000 11 (11000)
I0521 11:35:22.955960 18246 net.cpp:165] Memory required for data: 1578780000
I0521 11:35:22.955970 18246 layer_factory.hpp:77] Creating layer loss
I0521 11:35:22.955988 18246 net.cpp:106] Creating Layer loss
I0521 11:35:22.955998 18246 net.cpp:454] loss <- ip3
I0521 11:35:22.956009 18246 net.cpp:454] loss <- label
I0521 11:35:22.956022 18246 net.cpp:411] loss -> loss
I0521 11:35:22.956037 18246 layer_factory.hpp:77] Creating layer loss
…
I0521 11:35:22.958658 18246 solver.cpp:181] Creating test net (#0) specified by net file: /lustre/atlas/proj-shared/hep105/caffe_titan/caffe_workflow/logs_batch_size_test/batch_size_1000_2016-05-20T11.21.09.150343.prototxt
I0521 11:35:22.958730 18246 net.cpp:322] The NetState phase (1) differed from the phase (0) specified by a rule in layer data_hdf5
I0521 11:35:22.959085 18246 net.cpp:49] Initializing net from parameters: 
name: "caffe_test_127x50_x_unshifted"
state {
  phase: TEST
}
layer {
  name: "data_hdf5"
  type: "HDF5Data"
  top: "data"
  top: "label"
  include {
    phase: TEST
  }
  hdf5_data_param {
    source: "/lustre/atlas/proj-shared/hep105/caffe_titan/minosmatch_nukecczdefs_127x50_x_unshifted_me1Bmc.testlist"
    batch_size: 1000
  }
}
layer {
  name: "conv1"
  type: "Convolution"
  bottom: "data"
  top: "conv1"
  convolution_param {
    num_output: 12
    pad: 0
    stride: 1
    weight_filler {
      type: "xavier"
    }
    bias_filler {
      type: "constant"
    }
    kernel_h: 8
    kernel_w: 3
  }
}
layer {
  name: "relu1"
  type: "ReLU"
  bottom: "conv1"
  top: "conv1"
}
layer {
  name: "pool1"
  type: "Pooling"
  bottom: "conv1"
  top: "pool1"
  pooling_param {
    pool: MAX
    kernel_h: 2
    kernel_w: 1
    stride_h: 2
    stride_w: 1
  }
}
layer {
  name: "conv2"
  type: "Convolution"
  bottom: "pool1"
  top: "conv2"
  convolution_param {
    num_output: 20
    pad: 0
    stride: 1
    weight_filler {
      type: "xavier"
    }
    bias_filler {
      type: "constant"
    }
    kernel_h: 7
    kernel_w: 3
  }
}
layer {
  name: "relu2"
  type: "ReLU"
  bottom: "conv2"
  top: "conv2"
}
layer {
  name: "pool2"
  type: "Pooling"
  bottom: "conv2"
  top: "pool2"
  pooling_param {
    pool: MAX
    kernel_h: 2
    kernel_w: 1
    stride_h: 2
    stride_w: 1
  }
}
layer {
  name: "conv3"
  type: "Convolution"
  bottom: "pool2"
  top: "conv3"
  convolution_param {
    num_output: 28
    pad: 0
    stride: 1
    weight_filler {
      type: "xavier"
    }
    bias_filler {
      type: "constant"
    }
    kernel_h: 6
    kernel_w: 3
  }
}
layer {
  name: "relu3"
  type: "ReLU"
  bottom: "conv3"
  top: "conv3"
}
layer {
  name: "pool3"
  type: "Pooling"
  bottom: "conv3"
  top: "pool3"
  pooling_param {
    pool: MAX
    kernel_h: 2
    kernel_w: 1
    stride_h: 2
    stride_w: 1
  }
}
layer {
  name: "conv4"
  type: "Convolution"
  bottom: "pool3"
  top: "conv4"
  convolution_param {
    num_output: 36
    pad: 0
    stride: 1
    weight_filler {
      type: "xavier"
    }
    bias_filler {
      type: "constant"
    }
    kernel_h: 6
    kernel_w: 3
  }
}
layer {
  name: "relu4"
  type: "ReLU"
  bottom: "conv4"
  top: "conv4"
}
layer {
  name: "pool4"
  type: "Pooling"
  bottom: "conv4"
  top: "pool4"
  pooling_param {
    pool: MAX
    kernel_h: 2
    kernel_w: 1
    stride_h: 2
    stride_w: 1
  }
}
layer {
  name: "ip1"
  type: "InnerProduct"
  bottom: "pool4"
  top: "ip1"
  inner_product_param {
    num_output: 196
    weight_filler {
      type: "xavier"
    }
    bias_filler {
      type: "constant"
    }
  }
}
layer {
  name: "relu5"
  type: "ReLU"
  bottom: "ip1"
  top: "ip1"
}
layer {
  name: "drop1"
  type: "Dropout"
  bottom: "ip1"
  top: "ip1"
  dropout_param {
    dropout_ratio: 0.5
  }
}
layer {
  name: "ip2"
  type: "InnerProduct"
  bottom: "ip1"
  top: "ip2"
  inner_product_param {
    num_output: 98
    weight_filler {
      type: "xavier"
    }
    bias_filler {
      type: "constant"
    }
  }
}
layer {
  name: "relu6"
  type: "ReLU"
  bottom: "ip2"
  top: "ip2"
}
layer {
  name: "drop2"
  type: "Dropout"
  bottom: "ip2"
  top: "ip2"
  dropout_param {
    dropout_ratio: 0.5
  }
}
layer {
  name: "ip3"
  type: "InnerProduct"
  bottom: "ip2"
  top: "ip3"
  inner_product_param {
    num_output: 11
    weight_filler {
      type: "xavier"
    }
    bias_filler {
      type: "constant"
    }
  }
}
layer {
  name: "drop3"
  type: "Dropout"
  bottom: "ip3"
  top: "ip3"
  dropout_param {
    dropout_ratio: 0.5
  }
}
layer {
  name: "accuracy"
  type: "Accuracy"
  bottom: "ip3"
  bottom: "label"
  top: "accuracy"
  include {
    phase: TEST
  }
}
layer {
  name: "loss"
  type: "SoftmaxWithLoss"
  bottom: "ip3"
  bottom: "label"
  top: "loss"
}
I0521 11:35:22.959285 18246 layer_factory.hpp:77] Creating layer data_hdf5
I0521 11:35:22.959300 18246 net.cpp:106] Creating Layer data_hdf5
I0521 11:35:22.959312 18246 net.cpp:411] data_hdf5 -> data
I0521 11:35:22.959329 18246 net.cpp:411] data_hdf5 -> label
I0521 11:35:22.959345 18246 hdf5_data_layer.cpp:79] Loading list of HDF5 filenames from: /lustre/atlas/proj-shared/hep105/caffe_titan/minosmatch_nukecczdefs_127x50_x_unshifted_me1Bmc.testlist
I0521 11:35:22.971382 18246 hdf5_data_layer.cpp:93] Number of HDF5 files: 3
I0521 11:35:44.319515 18246 net.cpp:150] Setting up data_hdf5
I0521 11:35:44.319680 18246 net.cpp:157] Top shape: 1000 1 127 50 (6350000)
I0521 11:35:44.319694 18246 net.cpp:157] Top shape: 1000 (1000)
I0521 11:35:44.319705 18246 net.cpp:165] Memory required for data: 25404000
I0521 11:35:44.319718 18246 layer_factory.hpp:77] Creating layer label_data_hdf5_1_split
I0521 11:35:44.319746 18246 net.cpp:106] Creating Layer label_data_hdf5_1_split
I0521 11:35:44.319756 18246 net.cpp:454] label_data_hdf5_1_split <- label
I0521 11:35:44.319772 18246 net.cpp:411] label_data_hdf5_1_split -> label_data_hdf5_1_split_0
I0521 11:35:44.319792 18246 net.cpp:411] label_data_hdf5_1_split -> label_data_hdf5_1_split_1
I0521 11:35:44.319865 18246 net.cpp:150] Setting up label_data_hdf5_1_split
I0521 11:35:44.319878 18246 net.cpp:157] Top shape: 1000 (1000)
I0521 11:35:44.319890 18246 net.cpp:157] Top shape: 1000 (1000)
I0521 11:35:44.319900 18246 net.cpp:165] Memory required for data: 25412000
I0521 11:35:44.319910 18246 layer_factory.hpp:77] Creating layer conv1
I0521 11:35:44.319931 18246 net.cpp:106] Creating Layer conv1
I0521 11:35:44.319942 18246 net.cpp:454] conv1 <- data
I0521 11:35:44.319957 18246 net.cpp:411] conv1 -> conv1
I0521 11:35:44.321871 18246 net.cpp:150] Setting up conv1
I0521 11:35:44.321895 18246 net.cpp:157] Top shape: 1000 12 120 48 (69120000)
I0521 11:35:44.321907 18246 net.cpp:165] Memory required for data: 301892000
I0521 11:35:44.321926 18246 layer_factory.hpp:77] Creating layer relu1
I0521 11:35:44.321941 18246 net.cpp:106] Creating Layer relu1
I0521 11:35:44.321951 18246 net.cpp:454] relu1 <- conv1
I0521 11:35:44.321964 18246 net.cpp:397] relu1 -> conv1 (in-place)
I0521 11:35:44.322458 18246 net.cpp:150] Setting up relu1
I0521 11:35:44.322475 18246 net.cpp:157] Top shape: 1000 12 120 48 (69120000)
I0521 11:35:44.322485 18246 net.cpp:165] Memory required for data: 578372000
I0521 11:35:44.322495 18246 layer_factory.hpp:77] Creating layer pool1
I0521 11:35:44.322512 18246 net.cpp:106] Creating Layer pool1
I0521 11:35:44.322521 18246 net.cpp:454] pool1 <- conv1
I0521 11:35:44.322535 18246 net.cpp:411] pool1 -> pool1
I0521 11:35:44.322608 18246 net.cpp:150] Setting up pool1
I0521 11:35:44.322623 18246 net.cpp:157] Top shape: 1000 12 60 48 (34560000)
I0521 11:35:44.322631 18246 net.cpp:165] Memory required for data: 716612000
I0521 11:35:44.322639 18246 layer_factory.hpp:77] Creating layer conv2
I0521 11:35:44.322657 18246 net.cpp:106] Creating Layer conv2
I0521 11:35:44.322669 18246 net.cpp:454] conv2 <- pool1
I0521 11:35:44.322682 18246 net.cpp:411] conv2 -> conv2
I0521 11:35:44.324606 18246 net.cpp:150] Setting up conv2
I0521 11:35:44.324635 18246 net.cpp:157] Top shape: 1000 20 54 46 (49680000)
I0521 11:35:44.324645 18246 net.cpp:165] Memory required for data: 915332000
I0521 11:35:44.324663 18246 layer_factory.hpp:77] Creating layer relu2
I0521 11:35:44.324676 18246 net.cpp:106] Creating Layer relu2
I0521 11:35:44.324687 18246 net.cpp:454] relu2 <- conv2
I0521 11:35:44.324699 18246 net.cpp:397] relu2 -> conv2 (in-place)
I0521 11:35:44.325036 18246 net.cpp:150] Setting up relu2
I0521 11:35:44.325049 18246 net.cpp:157] Top shape: 1000 20 54 46 (49680000)
I0521 11:35:44.325060 18246 net.cpp:165] Memory required for data: 1114052000
I0521 11:35:44.325070 18246 layer_factory.hpp:77] Creating layer pool2
I0521 11:35:44.325083 18246 net.cpp:106] Creating Layer pool2
I0521 11:35:44.325093 18246 net.cpp:454] pool2 <- conv2
I0521 11:35:44.325106 18246 net.cpp:411] pool2 -> pool2
I0521 11:35:44.325176 18246 net.cpp:150] Setting up pool2
I0521 11:35:44.325191 18246 net.cpp:157] Top shape: 1000 20 27 46 (24840000)
I0521 11:35:44.325199 18246 net.cpp:165] Memory required for data: 1213412000
I0521 11:35:44.325207 18246 layer_factory.hpp:77] Creating layer conv3
I0521 11:35:44.325227 18246 net.cpp:106] Creating Layer conv3
I0521 11:35:44.325237 18246 net.cpp:454] conv3 <- pool2
I0521 11:35:44.325251 18246 net.cpp:411] conv3 -> conv3
I0521 11:35:44.327231 18246 net.cpp:150] Setting up conv3
I0521 11:35:44.327255 18246 net.cpp:157] Top shape: 1000 28 22 44 (27104000)
I0521 11:35:44.327267 18246 net.cpp:165] Memory required for data: 1321828000
I0521 11:35:44.327301 18246 layer_factory.hpp:77] Creating layer relu3
I0521 11:35:44.327313 18246 net.cpp:106] Creating Layer relu3
I0521 11:35:44.327323 18246 net.cpp:454] relu3 <- conv3
I0521 11:35:44.327337 18246 net.cpp:397] relu3 -> conv3 (in-place)
I0521 11:35:44.327806 18246 net.cpp:150] Setting up relu3
I0521 11:35:44.327823 18246 net.cpp:157] Top shape: 1000 28 22 44 (27104000)
I0521 11:35:44.327833 18246 net.cpp:165] Memory required for data: 1430244000
I0521 11:35:44.327843 18246 layer_factory.hpp:77] Creating layer pool3
I0521 11:35:44.327857 18246 net.cpp:106] Creating Layer pool3
I0521 11:35:44.327867 18246 net.cpp:454] pool3 <- conv3
I0521 11:35:44.327879 18246 net.cpp:411] pool3 -> pool3
I0521 11:35:44.327951 18246 net.cpp:150] Setting up pool3
I0521 11:35:44.327965 18246 net.cpp:157] Top shape: 1000 28 11 44 (13552000)
I0521 11:35:44.327975 18246 net.cpp:165] Memory required for data: 1484452000
I0521 11:35:44.327985 18246 layer_factory.hpp:77] Creating layer conv4
I0521 11:35:44.327999 18246 net.cpp:106] Creating Layer conv4
I0521 11:35:44.328011 18246 net.cpp:454] conv4 <- pool3
I0521 11:35:44.328024 18246 net.cpp:411] conv4 -> conv4
I0521 11:35:44.330078 18246 net.cpp:150] Setting up conv4
I0521 11:35:44.330101 18246 net.cpp:157] Top shape: 1000 36 6 42 (9072000)
I0521 11:35:44.330113 18246 net.cpp:165] Memory required for data: 1520740000
I0521 11:35:44.330128 18246 layer_factory.hpp:77] Creating layer relu4
I0521 11:35:44.330142 18246 net.cpp:106] Creating Layer relu4
I0521 11:35:44.330152 18246 net.cpp:454] relu4 <- conv4
I0521 11:35:44.330164 18246 net.cpp:397] relu4 -> conv4 (in-place)
I0521 11:35:44.330633 18246 net.cpp:150] Setting up relu4
I0521 11:35:44.330651 18246 net.cpp:157] Top shape: 1000 36 6 42 (9072000)
I0521 11:35:44.330660 18246 net.cpp:165] Memory required for data: 1557028000
I0521 11:35:44.330670 18246 layer_factory.hpp:77] Creating layer pool4
I0521 11:35:44.330683 18246 net.cpp:106] Creating Layer pool4
I0521 11:35:44.330693 18246 net.cpp:454] pool4 <- conv4
I0521 11:35:44.330706 18246 net.cpp:411] pool4 -> pool4
I0521 11:35:44.330777 18246 net.cpp:150] Setting up pool4
I0521 11:35:44.330790 18246 net.cpp:157] Top shape: 1000 36 3 42 (4536000)
I0521 11:35:44.330801 18246 net.cpp:165] Memory required for data: 1575172000
I0521 11:35:44.330809 18246 layer_factory.hpp:77] Creating layer ip1
I0521 11:35:44.330823 18246 net.cpp:106] Creating Layer ip1
I0521 11:35:44.330834 18246 net.cpp:454] ip1 <- pool4
I0521 11:35:44.330847 18246 net.cpp:411] ip1 -> ip1
I0521 11:35:44.346436 18246 net.cpp:150] Setting up ip1
I0521 11:35:44.346463 18246 net.cpp:157] Top shape: 1000 196 (196000)
I0521 11:35:44.346478 18246 net.cpp:165] Memory required for data: 1575956000
I0521 11:35:44.346505 18246 layer_factory.hpp:77] Creating layer relu5
I0521 11:35:44.346521 18246 net.cpp:106] Creating Layer relu5
I0521 11:35:44.346531 18246 net.cpp:454] relu5 <- ip1
I0521 11:35:44.346545 18246 net.cpp:397] relu5 -> ip1 (in-place)
I0521 11:35:44.346892 18246 net.cpp:150] Setting up relu5
I0521 11:35:44.346906 18246 net.cpp:157] Top shape: 1000 196 (196000)
I0521 11:35:44.346917 18246 net.cpp:165] Memory required for data: 1576740000
I0521 11:35:44.346927 18246 layer_factory.hpp:77] Creating layer drop1
I0521 11:35:44.346947 18246 net.cpp:106] Creating Layer drop1
I0521 11:35:44.346956 18246 net.cpp:454] drop1 <- ip1
I0521 11:35:44.346969 18246 net.cpp:397] drop1 -> ip1 (in-place)
I0521 11:35:44.347014 18246 net.cpp:150] Setting up drop1
I0521 11:35:44.347028 18246 net.cpp:157] Top shape: 1000 196 (196000)
I0521 11:35:44.347036 18246 net.cpp:165] Memory required for data: 1577524000
I0521 11:35:44.347046 18246 layer_factory.hpp:77] Creating layer ip2
I0521 11:35:44.347061 18246 net.cpp:106] Creating Layer ip2
I0521 11:35:44.347072 18246 net.cpp:454] ip2 <- ip1
I0521 11:35:44.347086 18246 net.cpp:411] ip2 -> ip2
I0521 11:35:44.347573 18246 net.cpp:150] Setting up ip2
I0521 11:35:44.347587 18246 net.cpp:157] Top shape: 1000 98 (98000)
I0521 11:35:44.347597 18246 net.cpp:165] Memory required for data: 1577916000
I0521 11:35:44.347625 18246 layer_factory.hpp:77] Creating layer relu6
I0521 11:35:44.347638 18246 net.cpp:106] Creating Layer relu6
I0521 11:35:44.347648 18246 net.cpp:454] relu6 <- ip2
I0521 11:35:44.347661 18246 net.cpp:397] relu6 -> ip2 (in-place)
I0521 11:35:44.348193 18246 net.cpp:150] Setting up relu6
I0521 11:35:44.348214 18246 net.cpp:157] Top shape: 1000 98 (98000)
I0521 11:35:44.348224 18246 net.cpp:165] Memory required for data: 1578308000
I0521 11:35:44.348234 18246 layer_factory.hpp:77] Creating layer drop2
I0521 11:35:44.348248 18246 net.cpp:106] Creating Layer drop2
I0521 11:35:44.348258 18246 net.cpp:454] drop2 <- ip2
I0521 11:35:44.348270 18246 net.cpp:397] drop2 -> ip2 (in-place)
I0521 11:35:44.348315 18246 net.cpp:150] Setting up drop2
I0521 11:35:44.348327 18246 net.cpp:157] Top shape: 1000 98 (98000)
I0521 11:35:44.348337 18246 net.cpp:165] Memory required for data: 1578700000
I0521 11:35:44.348347 18246 layer_factory.hpp:77] Creating layer ip3
I0521 11:35:44.348361 18246 net.cpp:106] Creating Layer ip3
I0521 11:35:44.348371 18246 net.cpp:454] ip3 <- ip2
I0521 11:35:44.348386 18246 net.cpp:411] ip3 -> ip3
I0521 11:35:44.348608 18246 net.cpp:150] Setting up ip3
I0521 11:35:44.348621 18246 net.cpp:157] Top shape: 1000 11 (11000)
I0521 11:35:44.348633 18246 net.cpp:165] Memory required for data: 1578744000
I0521 11:35:44.348647 18246 layer_factory.hpp:77] Creating layer drop3
I0521 11:35:44.348660 18246 net.cpp:106] Creating Layer drop3
I0521 11:35:44.348670 18246 net.cpp:454] drop3 <- ip3
I0521 11:35:44.348683 18246 net.cpp:397] drop3 -> ip3 (in-place)
I0521 11:35:44.348724 18246 net.cpp:150] Setting up drop3
I0521 11:35:44.348737 18246 net.cpp:157] Top shape: 1000 11 (11000)
I0521 11:35:44.348747 18246 net.cpp:165] Memory required for data: 1578788000
I0521 11:35:44.348757 18246 layer_factory.hpp:77] Creating layer ip3_drop3_0_split
I0521 11:35:44.348769 18246 net.cpp:106] Creating Layer ip3_drop3_0_split
I0521 11:35:44.348779 18246 net.cpp:454] ip3_drop3_0_split <- ip3
I0521 11:35:44.348793 18246 net.cpp:411] ip3_drop3_0_split -> ip3_drop3_0_split_0
I0521 11:35:44.348809 18246 net.cpp:411] ip3_drop3_0_split -> ip3_drop3_0_split_1
I0521 11:35:44.348881 18246 net.cpp:150] Setting up ip3_drop3_0_split
I0521 11:35:44.348893 18246 net.cpp:157] Top shape: 1000 11 (11000)
I0521 11:35:44.348906 18246 net.cpp:157] Top shape: 1000 11 (11000)
I0521 11:35:44.348917 18246 net.cpp:165] Memory required for data: 1578876000
I0521 11:35:44.348927 18246 layer_factory.hpp:77] Creating layer accuracy
I0521 11:35:44.348948 18246 net.cpp:106] Creating Layer accuracy
I0521 11:35:44.348958 18246 net.cpp:454] accuracy <- ip3_drop3_0_split_0
I0521 11:35:44.348968 18246 net.cpp:454] accuracy <- label_data_hdf5_1_split_0
I0521 11:35:44.348983 18246 net.cpp:411] accuracy -> accuracy
…
