…
I0521 07:52:34.327002 19348 net.cpp:322] The NetState phase (0) differed from the phase (1) specified by a rule in layer data_hdf5
I0521 07:52:34.327062 19348 net.cpp:322] The NetState phase (0) differed from the phase (1) specified by a rule in layer accuracy
I0521 07:52:34.327405 19348 net.cpp:49] Initializing net from parameters: 
name: "caffe_test_127x50_x_unshifted"
state {
  phase: TRAIN
}
layer {
  name: "data_hdf5"
  type: "HDF5Data"
  top: "data"
  top: "label"
  include {
    phase: TRAIN
  }
  hdf5_data_param {
    source: "/lustre/atlas/proj-shared/hep105/caffe_titan/minosmatch_nukecczdefs_127x50_x_unshifted_me1Bmc.trainlist"
    batch_size: 830
  }
}
layer {
  name: "conv1"
  type: "Convolution"
  bottom: "data"
  top: "conv1"
  convolution_param {
    num_output: 12
    pad: 0
    stride: 1
    weight_filler {
      type: "xavier"
    }
    bias_filler {
      type: "constant"
    }
    kernel_h: 8
    kernel_w: 3
  }
}
layer {
  name: "relu1"
  type: "ReLU"
  bottom: "conv1"
  top: "conv1"
}
layer {
  name: "pool1"
  type: "Pooling"
  bottom: "conv1"
  top: "pool1"
  pooling_param {
    pool: MAX
    kernel_h: 2
    kernel_w: 1
    stride_h: 2
    stride_w: 1
  }
}
layer {
  name: "conv2"
  type: "Convolution"
  bottom: "pool1"
  top: "conv2"
  convolution_param {
    num_output: 20
    pad: 0
    stride: 1
    weight_filler {
      type: "xavier"
    }
    bias_filler {
      type: "constant"
    }
    kernel_h: 7
    kernel_w: 3
  }
}
layer {
  name: "relu2"
  type: "ReLU"
  bottom: "conv2"
  top: "conv2"
}
layer {
  name: "pool2"
  type: "Pooling"
  bottom: "conv2"
  top: "pool2"
  pooling_param {
    pool: MAX
    kernel_h: 2
    kernel_w: 1
    stride_h: 2
    stride_w: 1
  }
}
layer {
  name: "conv3"
  type: "Convolution"
  bottom: "pool2"
  top: "conv3"
  convolution_param {
    num_output: 28
    pad: 0
    stride: 1
    weight_filler {
      type: "xavier"
    }
    bias_filler {
      type: "constant"
    }
    kernel_h: 6
    kernel_w: 3
  }
}
layer {
  name: "relu3"
  type: "ReLU"
  bottom: "conv3"
  top: "conv3"
}
layer {
  name: "pool3"
  type: "Pooling"
  bottom: "conv3"
  top: "pool3"
  pooling_param {
    pool: MAX
    kernel_h: 2
    kernel_w: 1
    stride_h: 2
    stride_w: 1
  }
}
layer {
  name: "conv4"
  type: "Convolution"
  bottom: "pool3"
  top: "conv4"
  convolution_param {
    num_output: 36
    pad: 0
    stride: 1
    weight_filler {
      type: "xavier"
    }
    bias_filler {
      type: "constant"
    }
    kernel_h: 6
    kernel_w: 3
  }
}
layer {
  name: "relu4"
  type: "ReLU"
  bottom: "conv4"
  top: "conv4"
}
layer {
  name: "pool4"
  type: "Pooling"
  bottom: "conv4"
  top: "pool4"
  pooling_param {
    pool: MAX
    kernel_h: 2
    kernel_w: 1
    stride_h: 2
    stride_w: 1
  }
}
layer {
  name: "ip1"
  type: "InnerProduct"
  bottom: "pool4"
  top: "ip1"
  inner_product_param {
    num_output: 196
    weight_filler {
      type: "xavier"
    }
    bias_filler {
      type: "constant"
    }
  }
}
layer {
  name: "relu5"
  type: "ReLU"
  bottom: "ip1"
  top: "ip1"
}
layer {
  name: "drop1"
  type: "Dropout"
  bottom: "ip1"
  top: "ip1"
  dropout_param {
    dropout_ratio: 0.5
  }
}
layer {
  name: "ip2"
  type: "InnerProduct"
  bottom: "ip1"
  top: "ip2"
  inner_product_param {
    num_output: 98
    weight_filler {
      type: "xavier"
    }
    bias_filler {
      type: "constant"
    }
  }
}
layer {
  name: "relu6"
  type: "ReLU"
  bottom: "ip2"
  top: "ip2"
}
layer {
  name: "drop2"
  type: "Dropout"
  bottom: "ip2"
  top: "ip2"
  dropout_param {
    dropout_ratio: 0.5
  }
}
layer {
  name: "ip3"
  type: "InnerProduct"
  bottom: "ip2"
  top: "ip3"
  inner_product_param {
    num_output: 11
    weight_filler {
      type: "xavier"
    }
    bias_filler {
      type: "constant"
    }
  }
}
layer {
  name: "drop3"
  type: "Dropout"
  bottom: "ip3"
  top: "ip3"
  dropout_param {
    dropout_ratio: 0.5
  }
}
layer {
  name: "loss"
  type: "SoftmaxWithLoss"
  bottom: "ip3"
  bottom: "label"
  top: "loss"
}
I0521 07:52:34.327589 19348 layer_factory.hpp:77] Creating layer data_hdf5
I0521 07:52:34.327613 19348 net.cpp:106] Creating Layer data_hdf5
I0521 07:52:34.327628 19348 net.cpp:411] data_hdf5 -> data
I0521 07:52:34.327662 19348 net.cpp:411] data_hdf5 -> label
I0521 07:52:34.327695 19348 hdf5_data_layer.cpp:79] Loading list of HDF5 filenames from: /lustre/atlas/proj-shared/hep105/caffe_titan/minosmatch_nukecczdefs_127x50_x_unshifted_me1Bmc.trainlist
I0521 07:52:34.328934 19348 hdf5_data_layer.cpp:93] Number of HDF5 files: 15
I0521 07:52:34.331571 19348 hdf5.cpp:32] Datatype class: H5T_FLOAT
I0521 07:52:55.937799 19348 hdf5.cpp:35] Datatype class: H5T_INTEGER
I0521 07:52:55.942948 19348 net.cpp:150] Setting up data_hdf5
I0521 07:52:55.942991 19348 net.cpp:157] Top shape: 830 1 127 50 (5270500)
I0521 07:52:55.943006 19348 net.cpp:157] Top shape: 830 (830)
I0521 07:52:55.943017 19348 net.cpp:165] Memory required for data: 21085320
I0521 07:52:55.943030 19348 layer_factory.hpp:77] Creating layer conv1
I0521 07:52:55.943065 19348 net.cpp:106] Creating Layer conv1
I0521 07:52:55.943076 19348 net.cpp:454] conv1 <- data
I0521 07:52:55.943100 19348 net.cpp:411] conv1 -> conv1
I0521 07:52:56.308672 19348 net.cpp:150] Setting up conv1
I0521 07:52:56.308720 19348 net.cpp:157] Top shape: 830 12 120 48 (57369600)
I0521 07:52:56.308732 19348 net.cpp:165] Memory required for data: 250563720
I0521 07:52:56.308759 19348 layer_factory.hpp:77] Creating layer relu1
I0521 07:52:56.308781 19348 net.cpp:106] Creating Layer relu1
I0521 07:52:56.308792 19348 net.cpp:454] relu1 <- conv1
I0521 07:52:56.308806 19348 net.cpp:397] relu1 -> conv1 (in-place)
I0521 07:52:56.309397 19348 net.cpp:150] Setting up relu1
I0521 07:52:56.309414 19348 net.cpp:157] Top shape: 830 12 120 48 (57369600)
I0521 07:52:56.309427 19348 net.cpp:165] Memory required for data: 480042120
I0521 07:52:56.309437 19348 layer_factory.hpp:77] Creating layer pool1
I0521 07:52:56.309453 19348 net.cpp:106] Creating Layer pool1
I0521 07:52:56.309463 19348 net.cpp:454] pool1 <- conv1
I0521 07:52:56.309476 19348 net.cpp:411] pool1 -> pool1
I0521 07:52:56.309557 19348 net.cpp:150] Setting up pool1
I0521 07:52:56.309571 19348 net.cpp:157] Top shape: 830 12 60 48 (28684800)
I0521 07:52:56.309581 19348 net.cpp:165] Memory required for data: 594781320
I0521 07:52:56.309589 19348 layer_factory.hpp:77] Creating layer conv2
I0521 07:52:56.309612 19348 net.cpp:106] Creating Layer conv2
I0521 07:52:56.309623 19348 net.cpp:454] conv2 <- pool1
I0521 07:52:56.309636 19348 net.cpp:411] conv2 -> conv2
I0521 07:52:56.312333 19348 net.cpp:150] Setting up conv2
I0521 07:52:56.312361 19348 net.cpp:157] Top shape: 830 20 54 46 (41234400)
I0521 07:52:56.312371 19348 net.cpp:165] Memory required for data: 759718920
I0521 07:52:56.312391 19348 layer_factory.hpp:77] Creating layer relu2
I0521 07:52:56.312405 19348 net.cpp:106] Creating Layer relu2
I0521 07:52:56.312417 19348 net.cpp:454] relu2 <- conv2
I0521 07:52:56.312428 19348 net.cpp:397] relu2 -> conv2 (in-place)
I0521 07:52:56.312759 19348 net.cpp:150] Setting up relu2
I0521 07:52:56.312773 19348 net.cpp:157] Top shape: 830 20 54 46 (41234400)
I0521 07:52:56.312784 19348 net.cpp:165] Memory required for data: 924656520
I0521 07:52:56.312794 19348 layer_factory.hpp:77] Creating layer pool2
I0521 07:52:56.312806 19348 net.cpp:106] Creating Layer pool2
I0521 07:52:56.312816 19348 net.cpp:454] pool2 <- conv2
I0521 07:52:56.312842 19348 net.cpp:411] pool2 -> pool2
I0521 07:52:56.312911 19348 net.cpp:150] Setting up pool2
I0521 07:52:56.312924 19348 net.cpp:157] Top shape: 830 20 27 46 (20617200)
I0521 07:52:56.312934 19348 net.cpp:165] Memory required for data: 1007125320
I0521 07:52:56.312944 19348 layer_factory.hpp:77] Creating layer conv3
I0521 07:52:56.312964 19348 net.cpp:106] Creating Layer conv3
I0521 07:52:56.312974 19348 net.cpp:454] conv3 <- pool2
I0521 07:52:56.312988 19348 net.cpp:411] conv3 -> conv3
I0521 07:52:56.314906 19348 net.cpp:150] Setting up conv3
I0521 07:52:56.314929 19348 net.cpp:157] Top shape: 830 28 22 44 (22496320)
I0521 07:52:56.314941 19348 net.cpp:165] Memory required for data: 1097110600
I0521 07:52:56.314960 19348 layer_factory.hpp:77] Creating layer relu3
I0521 07:52:56.314975 19348 net.cpp:106] Creating Layer relu3
I0521 07:52:56.314985 19348 net.cpp:454] relu3 <- conv3
I0521 07:52:56.314998 19348 net.cpp:397] relu3 -> conv3 (in-place)
I0521 07:52:56.315469 19348 net.cpp:150] Setting up relu3
I0521 07:52:56.315485 19348 net.cpp:157] Top shape: 830 28 22 44 (22496320)
I0521 07:52:56.315496 19348 net.cpp:165] Memory required for data: 1187095880
I0521 07:52:56.315506 19348 layer_factory.hpp:77] Creating layer pool3
I0521 07:52:56.315520 19348 net.cpp:106] Creating Layer pool3
I0521 07:52:56.315528 19348 net.cpp:454] pool3 <- conv3
I0521 07:52:56.315541 19348 net.cpp:411] pool3 -> pool3
I0521 07:52:56.315608 19348 net.cpp:150] Setting up pool3
I0521 07:52:56.315621 19348 net.cpp:157] Top shape: 830 28 11 44 (11248160)
I0521 07:52:56.315631 19348 net.cpp:165] Memory required for data: 1232088520
I0521 07:52:56.315639 19348 layer_factory.hpp:77] Creating layer conv4
I0521 07:52:56.315657 19348 net.cpp:106] Creating Layer conv4
I0521 07:52:56.315668 19348 net.cpp:454] conv4 <- pool3
I0521 07:52:56.315682 19348 net.cpp:411] conv4 -> conv4
I0521 07:52:56.318409 19348 net.cpp:150] Setting up conv4
I0521 07:52:56.318437 19348 net.cpp:157] Top shape: 830 36 6 42 (7529760)
I0521 07:52:56.318449 19348 net.cpp:165] Memory required for data: 1262207560
I0521 07:52:56.318464 19348 layer_factory.hpp:77] Creating layer relu4
I0521 07:52:56.318478 19348 net.cpp:106] Creating Layer relu4
I0521 07:52:56.318488 19348 net.cpp:454] relu4 <- conv4
I0521 07:52:56.318501 19348 net.cpp:397] relu4 -> conv4 (in-place)
I0521 07:52:56.318967 19348 net.cpp:150] Setting up relu4
I0521 07:52:56.318984 19348 net.cpp:157] Top shape: 830 36 6 42 (7529760)
I0521 07:52:56.318994 19348 net.cpp:165] Memory required for data: 1292326600
I0521 07:52:56.319003 19348 layer_factory.hpp:77] Creating layer pool4
I0521 07:52:56.319016 19348 net.cpp:106] Creating Layer pool4
I0521 07:52:56.319026 19348 net.cpp:454] pool4 <- conv4
I0521 07:52:56.319039 19348 net.cpp:411] pool4 -> pool4
I0521 07:52:56.319108 19348 net.cpp:150] Setting up pool4
I0521 07:52:56.319120 19348 net.cpp:157] Top shape: 830 36 3 42 (3764880)
I0521 07:52:56.319131 19348 net.cpp:165] Memory required for data: 1307386120
I0521 07:52:56.319141 19348 layer_factory.hpp:77] Creating layer ip1
I0521 07:52:56.319164 19348 net.cpp:106] Creating Layer ip1
I0521 07:52:56.319174 19348 net.cpp:454] ip1 <- pool4
I0521 07:52:56.319187 19348 net.cpp:411] ip1 -> ip1
I0521 07:52:56.334653 19348 net.cpp:150] Setting up ip1
I0521 07:52:56.334682 19348 net.cpp:157] Top shape: 830 196 (162680)
I0521 07:52:56.334697 19348 net.cpp:165] Memory required for data: 1308036840
I0521 07:52:56.334718 19348 layer_factory.hpp:77] Creating layer relu5
I0521 07:52:56.334733 19348 net.cpp:106] Creating Layer relu5
I0521 07:52:56.334743 19348 net.cpp:454] relu5 <- ip1
I0521 07:52:56.334756 19348 net.cpp:397] relu5 -> ip1 (in-place)
I0521 07:52:56.335100 19348 net.cpp:150] Setting up relu5
I0521 07:52:56.335114 19348 net.cpp:157] Top shape: 830 196 (162680)
I0521 07:52:56.335124 19348 net.cpp:165] Memory required for data: 1308687560
I0521 07:52:56.335134 19348 layer_factory.hpp:77] Creating layer drop1
I0521 07:52:56.335156 19348 net.cpp:106] Creating Layer drop1
I0521 07:52:56.335166 19348 net.cpp:454] drop1 <- ip1
I0521 07:52:56.335191 19348 net.cpp:397] drop1 -> ip1 (in-place)
I0521 07:52:56.335237 19348 net.cpp:150] Setting up drop1
I0521 07:52:56.335252 19348 net.cpp:157] Top shape: 830 196 (162680)
I0521 07:52:56.335261 19348 net.cpp:165] Memory required for data: 1309338280
I0521 07:52:56.335271 19348 layer_factory.hpp:77] Creating layer ip2
I0521 07:52:56.335290 19348 net.cpp:106] Creating Layer ip2
I0521 07:52:56.335300 19348 net.cpp:454] ip2 <- ip1
I0521 07:52:56.335312 19348 net.cpp:411] ip2 -> ip2
I0521 07:52:56.335777 19348 net.cpp:150] Setting up ip2
I0521 07:52:56.335790 19348 net.cpp:157] Top shape: 830 98 (81340)
I0521 07:52:56.335800 19348 net.cpp:165] Memory required for data: 1309663640
I0521 07:52:56.335824 19348 layer_factory.hpp:77] Creating layer relu6
I0521 07:52:56.335835 19348 net.cpp:106] Creating Layer relu6
I0521 07:52:56.335845 19348 net.cpp:454] relu6 <- ip2
I0521 07:52:56.335857 19348 net.cpp:397] relu6 -> ip2 (in-place)
I0521 07:52:56.336386 19348 net.cpp:150] Setting up relu6
I0521 07:52:56.336402 19348 net.cpp:157] Top shape: 830 98 (81340)
I0521 07:52:56.336411 19348 net.cpp:165] Memory required for data: 1309989000
I0521 07:52:56.336422 19348 layer_factory.hpp:77] Creating layer drop2
I0521 07:52:56.336436 19348 net.cpp:106] Creating Layer drop2
I0521 07:52:56.336446 19348 net.cpp:454] drop2 <- ip2
I0521 07:52:56.336457 19348 net.cpp:397] drop2 -> ip2 (in-place)
I0521 07:52:56.336499 19348 net.cpp:150] Setting up drop2
I0521 07:52:56.336513 19348 net.cpp:157] Top shape: 830 98 (81340)
I0521 07:52:56.336524 19348 net.cpp:165] Memory required for data: 1310314360
I0521 07:52:56.336534 19348 layer_factory.hpp:77] Creating layer ip3
I0521 07:52:56.336547 19348 net.cpp:106] Creating Layer ip3
I0521 07:52:56.336557 19348 net.cpp:454] ip3 <- ip2
I0521 07:52:56.336570 19348 net.cpp:411] ip3 -> ip3
I0521 07:52:56.336781 19348 net.cpp:150] Setting up ip3
I0521 07:52:56.336793 19348 net.cpp:157] Top shape: 830 11 (9130)
I0521 07:52:56.336803 19348 net.cpp:165] Memory required for data: 1310350880
I0521 07:52:56.336818 19348 layer_factory.hpp:77] Creating layer drop3
I0521 07:52:56.336830 19348 net.cpp:106] Creating Layer drop3
I0521 07:52:56.336840 19348 net.cpp:454] drop3 <- ip3
I0521 07:52:56.336853 19348 net.cpp:397] drop3 -> ip3 (in-place)
I0521 07:52:56.336891 19348 net.cpp:150] Setting up drop3
I0521 07:52:56.336905 19348 net.cpp:157] Top shape: 830 11 (9130)
I0521 07:52:56.336915 19348 net.cpp:165] Memory required for data: 1310387400
I0521 07:52:56.336925 19348 layer_factory.hpp:77] Creating layer loss
I0521 07:52:56.336943 19348 net.cpp:106] Creating Layer loss
I0521 07:52:56.336953 19348 net.cpp:454] loss <- ip3
I0521 07:52:56.336966 19348 net.cpp:454] loss <- label
I0521 07:52:56.336977 19348 net.cpp:411] loss -> loss
I0521 07:52:56.336994 19348 layer_factory.hpp:77] Creating layer loss
…
I0521 07:52:56.339565 19348 solver.cpp:181] Creating test net (#0) specified by net file: /lustre/atlas/proj-shared/hep105/caffe_titan/caffe_workflow/logs_batch_size_test/batch_size_830_2016-05-20T11.21.02.969958.prototxt
I0521 07:52:56.339637 19348 net.cpp:322] The NetState phase (1) differed from the phase (0) specified by a rule in layer data_hdf5
I0521 07:52:56.340003 19348 net.cpp:49] Initializing net from parameters: 
name: "caffe_test_127x50_x_unshifted"
state {
  phase: TEST
}
layer {
  name: "data_hdf5"
  type: "HDF5Data"
  top: "data"
  top: "label"
  include {
    phase: TEST
  }
  hdf5_data_param {
    source: "/lustre/atlas/proj-shared/hep105/caffe_titan/minosmatch_nukecczdefs_127x50_x_unshifted_me1Bmc.testlist"
    batch_size: 830
  }
}
layer {
  name: "conv1"
  type: "Convolution"
  bottom: "data"
  top: "conv1"
  convolution_param {
    num_output: 12
    pad: 0
    stride: 1
    weight_filler {
      type: "xavier"
    }
    bias_filler {
      type: "constant"
    }
    kernel_h: 8
    kernel_w: 3
  }
}
layer {
  name: "relu1"
  type: "ReLU"
  bottom: "conv1"
  top: "conv1"
}
layer {
  name: "pool1"
  type: "Pooling"
  bottom: "conv1"
  top: "pool1"
  pooling_param {
    pool: MAX
    kernel_h: 2
    kernel_w: 1
    stride_h: 2
    stride_w: 1
  }
}
layer {
  name: "conv2"
  type: "Convolution"
  bottom: "pool1"
  top: "conv2"
  convolution_param {
    num_output: 20
    pad: 0
    stride: 1
    weight_filler {
      type: "xavier"
    }
    bias_filler {
      type: "constant"
    }
    kernel_h: 7
    kernel_w: 3
  }
}
layer {
  name: "relu2"
  type: "ReLU"
  bottom: "conv2"
  top: "conv2"
}
layer {
  name: "pool2"
  type: "Pooling"
  bottom: "conv2"
  top: "pool2"
  pooling_param {
    pool: MAX
    kernel_h: 2
    kernel_w: 1
    stride_h: 2
    stride_w: 1
  }
}
layer {
  name: "conv3"
  type: "Convolution"
  bottom: "pool2"
  top: "conv3"
  convolution_param {
    num_output: 28
    pad: 0
    stride: 1
    weight_filler {
      type: "xavier"
    }
    bias_filler {
      type: "constant"
    }
    kernel_h: 6
    kernel_w: 3
  }
}
layer {
  name: "relu3"
  type: "ReLU"
  bottom: "conv3"
  top: "conv3"
}
layer {
  name: "pool3"
  type: "Pooling"
  bottom: "conv3"
  top: "pool3"
  pooling_param {
    pool: MAX
    kernel_h: 2
    kernel_w: 1
    stride_h: 2
    stride_w: 1
  }
}
layer {
  name: "conv4"
  type: "Convolution"
  bottom: "pool3"
  top: "conv4"
  convolution_param {
    num_output: 36
    pad: 0
    stride: 1
    weight_filler {
      type: "xavier"
    }
    bias_filler {
      type: "constant"
    }
    kernel_h: 6
    kernel_w: 3
  }
}
layer {
  name: "relu4"
  type: "ReLU"
  bottom: "conv4"
  top: "conv4"
}
layer {
  name: "pool4"
  type: "Pooling"
  bottom: "conv4"
  top: "pool4"
  pooling_param {
    pool: MAX
    kernel_h: 2
    kernel_w: 1
    stride_h: 2
    stride_w: 1
  }
}
layer {
  name: "ip1"
  type: "InnerProduct"
  bottom: "pool4"
  top: "ip1"
  inner_product_param {
    num_output: 196
    weight_filler {
      type: "xavier"
    }
    bias_filler {
      type: "constant"
    }
  }
}
layer {
  name: "relu5"
  type: "ReLU"
  bottom: "ip1"
  top: "ip1"
}
layer {
  name: "drop1"
  type: "Dropout"
  bottom: "ip1"
  top: "ip1"
  dropout_param {
    dropout_ratio: 0.5
  }
}
layer {
  name: "ip2"
  type: "InnerProduct"
  bottom: "ip1"
  top: "ip2"
  inner_product_param {
    num_output: 98
    weight_filler {
      type: "xavier"
    }
    bias_filler {
      type: "constant"
    }
  }
}
layer {
  name: "relu6"
  type: "ReLU"
  bottom: "ip2"
  top: "ip2"
}
layer {
  name: "drop2"
  type: "Dropout"
  bottom: "ip2"
  top: "ip2"
  dropout_param {
    dropout_ratio: 0.5
  }
}
layer {
  name: "ip3"
  type: "InnerProduct"
  bottom: "ip2"
  top: "ip3"
  inner_product_param {
    num_output: 11
    weight_filler {
      type: "xavier"
    }
    bias_filler {
      type: "constant"
    }
  }
}
layer {
  name: "drop3"
  type: "Dropout"
  bottom: "ip3"
  top: "ip3"
  dropout_param {
    dropout_ratio: 0.5
  }
}
layer {
  name: "accuracy"
  type: "Accuracy"
  bottom: "ip3"
  bottom: "label"
  top: "accuracy"
  include {
    phase: TEST
  }
}
layer {
  name: "loss"
  type: "SoftmaxWithLoss"
  bottom: "ip3"
  bottom: "label"
  top: "loss"
}
I0521 07:52:56.340194 19348 layer_factory.hpp:77] Creating layer data_hdf5
I0521 07:52:56.340209 19348 net.cpp:106] Creating Layer data_hdf5
I0521 07:52:56.340221 19348 net.cpp:411] data_hdf5 -> data
I0521 07:52:56.340239 19348 net.cpp:411] data_hdf5 -> label
I0521 07:52:56.340255 19348 hdf5_data_layer.cpp:79] Loading list of HDF5 filenames from: /lustre/atlas/proj-shared/hep105/caffe_titan/minosmatch_nukecczdefs_127x50_x_unshifted_me1Bmc.testlist
I0521 07:52:56.341415 19348 hdf5_data_layer.cpp:93] Number of HDF5 files: 3
I0521 07:53:17.715383 19348 net.cpp:150] Setting up data_hdf5
I0521 07:53:17.715549 19348 net.cpp:157] Top shape: 830 1 127 50 (5270500)
I0521 07:53:17.715564 19348 net.cpp:157] Top shape: 830 (830)
I0521 07:53:17.715574 19348 net.cpp:165] Memory required for data: 21085320
I0521 07:53:17.715589 19348 layer_factory.hpp:77] Creating layer label_data_hdf5_1_split
I0521 07:53:17.715617 19348 net.cpp:106] Creating Layer label_data_hdf5_1_split
I0521 07:53:17.715628 19348 net.cpp:454] label_data_hdf5_1_split <- label
I0521 07:53:17.715643 19348 net.cpp:411] label_data_hdf5_1_split -> label_data_hdf5_1_split_0
I0521 07:53:17.715665 19348 net.cpp:411] label_data_hdf5_1_split -> label_data_hdf5_1_split_1
I0521 07:53:17.715739 19348 net.cpp:150] Setting up label_data_hdf5_1_split
I0521 07:53:17.715752 19348 net.cpp:157] Top shape: 830 (830)
I0521 07:53:17.715764 19348 net.cpp:157] Top shape: 830 (830)
I0521 07:53:17.715773 19348 net.cpp:165] Memory required for data: 21091960
I0521 07:53:17.715783 19348 layer_factory.hpp:77] Creating layer conv1
I0521 07:53:17.715806 19348 net.cpp:106] Creating Layer conv1
I0521 07:53:17.715826 19348 net.cpp:454] conv1 <- data
I0521 07:53:17.715840 19348 net.cpp:411] conv1 -> conv1
I0521 07:53:17.717782 19348 net.cpp:150] Setting up conv1
I0521 07:53:17.717800 19348 net.cpp:157] Top shape: 830 12 120 48 (57369600)
I0521 07:53:17.717810 19348 net.cpp:165] Memory required for data: 250570360
I0521 07:53:17.717831 19348 layer_factory.hpp:77] Creating layer relu1
I0521 07:53:17.717846 19348 net.cpp:106] Creating Layer relu1
I0521 07:53:17.717856 19348 net.cpp:454] relu1 <- conv1
I0521 07:53:17.717869 19348 net.cpp:397] relu1 -> conv1 (in-place)
I0521 07:53:17.718366 19348 net.cpp:150] Setting up relu1
I0521 07:53:17.718382 19348 net.cpp:157] Top shape: 830 12 120 48 (57369600)
I0521 07:53:17.718392 19348 net.cpp:165] Memory required for data: 480048760
I0521 07:53:17.718403 19348 layer_factory.hpp:77] Creating layer pool1
I0521 07:53:17.718420 19348 net.cpp:106] Creating Layer pool1
I0521 07:53:17.718430 19348 net.cpp:454] pool1 <- conv1
I0521 07:53:17.718442 19348 net.cpp:411] pool1 -> pool1
I0521 07:53:17.718518 19348 net.cpp:150] Setting up pool1
I0521 07:53:17.718531 19348 net.cpp:157] Top shape: 830 12 60 48 (28684800)
I0521 07:53:17.718541 19348 net.cpp:165] Memory required for data: 594787960
I0521 07:53:17.718551 19348 layer_factory.hpp:77] Creating layer conv2
I0521 07:53:17.718569 19348 net.cpp:106] Creating Layer conv2
I0521 07:53:17.718580 19348 net.cpp:454] conv2 <- pool1
I0521 07:53:17.718595 19348 net.cpp:411] conv2 -> conv2
I0521 07:53:17.720521 19348 net.cpp:150] Setting up conv2
I0521 07:53:17.720543 19348 net.cpp:157] Top shape: 830 20 54 46 (41234400)
I0521 07:53:17.720556 19348 net.cpp:165] Memory required for data: 759725560
I0521 07:53:17.720574 19348 layer_factory.hpp:77] Creating layer relu2
I0521 07:53:17.720588 19348 net.cpp:106] Creating Layer relu2
I0521 07:53:17.720598 19348 net.cpp:454] relu2 <- conv2
I0521 07:53:17.720612 19348 net.cpp:397] relu2 -> conv2 (in-place)
I0521 07:53:17.720947 19348 net.cpp:150] Setting up relu2
I0521 07:53:17.720962 19348 net.cpp:157] Top shape: 830 20 54 46 (41234400)
I0521 07:53:17.720971 19348 net.cpp:165] Memory required for data: 924663160
I0521 07:53:17.720981 19348 layer_factory.hpp:77] Creating layer pool2
I0521 07:53:17.720995 19348 net.cpp:106] Creating Layer pool2
I0521 07:53:17.721005 19348 net.cpp:454] pool2 <- conv2
I0521 07:53:17.721019 19348 net.cpp:411] pool2 -> pool2
I0521 07:53:17.721089 19348 net.cpp:150] Setting up pool2
I0521 07:53:17.721102 19348 net.cpp:157] Top shape: 830 20 27 46 (20617200)
I0521 07:53:17.721112 19348 net.cpp:165] Memory required for data: 1007131960
I0521 07:53:17.721122 19348 layer_factory.hpp:77] Creating layer conv3
I0521 07:53:17.721139 19348 net.cpp:106] Creating Layer conv3
I0521 07:53:17.721150 19348 net.cpp:454] conv3 <- pool2
I0521 07:53:17.721164 19348 net.cpp:411] conv3 -> conv3
I0521 07:53:17.723145 19348 net.cpp:150] Setting up conv3
I0521 07:53:17.723168 19348 net.cpp:157] Top shape: 830 28 22 44 (22496320)
I0521 07:53:17.723181 19348 net.cpp:165] Memory required for data: 1097117240
I0521 07:53:17.723213 19348 layer_factory.hpp:77] Creating layer relu3
I0521 07:53:17.723227 19348 net.cpp:106] Creating Layer relu3
I0521 07:53:17.723237 19348 net.cpp:454] relu3 <- conv3
I0521 07:53:17.723250 19348 net.cpp:397] relu3 -> conv3 (in-place)
I0521 07:53:17.723723 19348 net.cpp:150] Setting up relu3
I0521 07:53:17.723739 19348 net.cpp:157] Top shape: 830 28 22 44 (22496320)
I0521 07:53:17.723749 19348 net.cpp:165] Memory required for data: 1187102520
I0521 07:53:17.723759 19348 layer_factory.hpp:77] Creating layer pool3
I0521 07:53:17.723773 19348 net.cpp:106] Creating Layer pool3
I0521 07:53:17.723783 19348 net.cpp:454] pool3 <- conv3
I0521 07:53:17.723798 19348 net.cpp:411] pool3 -> pool3
I0521 07:53:17.723877 19348 net.cpp:150] Setting up pool3
I0521 07:53:17.723891 19348 net.cpp:157] Top shape: 830 28 11 44 (11248160)
I0521 07:53:17.723901 19348 net.cpp:165] Memory required for data: 1232095160
I0521 07:53:17.723912 19348 layer_factory.hpp:77] Creating layer conv4
I0521 07:53:17.723929 19348 net.cpp:106] Creating Layer conv4
I0521 07:53:17.723939 19348 net.cpp:454] conv4 <- pool3
I0521 07:53:17.723953 19348 net.cpp:411] conv4 -> conv4
I0521 07:53:17.726008 19348 net.cpp:150] Setting up conv4
I0521 07:53:17.726025 19348 net.cpp:157] Top shape: 830 36 6 42 (7529760)
I0521 07:53:17.726037 19348 net.cpp:165] Memory required for data: 1262214200
I0521 07:53:17.726052 19348 layer_factory.hpp:77] Creating layer relu4
I0521 07:53:17.726066 19348 net.cpp:106] Creating Layer relu4
I0521 07:53:17.726076 19348 net.cpp:454] relu4 <- conv4
I0521 07:53:17.726089 19348 net.cpp:397] relu4 -> conv4 (in-place)
I0521 07:53:17.726560 19348 net.cpp:150] Setting up relu4
I0521 07:53:17.726577 19348 net.cpp:157] Top shape: 830 36 6 42 (7529760)
I0521 07:53:17.726586 19348 net.cpp:165] Memory required for data: 1292333240
I0521 07:53:17.726598 19348 layer_factory.hpp:77] Creating layer pool4
I0521 07:53:17.726610 19348 net.cpp:106] Creating Layer pool4
I0521 07:53:17.726620 19348 net.cpp:454] pool4 <- conv4
I0521 07:53:17.726634 19348 net.cpp:411] pool4 -> pool4
I0521 07:53:17.726703 19348 net.cpp:150] Setting up pool4
I0521 07:53:17.726717 19348 net.cpp:157] Top shape: 830 36 3 42 (3764880)
I0521 07:53:17.726727 19348 net.cpp:165] Memory required for data: 1307392760
I0521 07:53:17.726734 19348 layer_factory.hpp:77] Creating layer ip1
I0521 07:53:17.726750 19348 net.cpp:106] Creating Layer ip1
I0521 07:53:17.726760 19348 net.cpp:454] ip1 <- pool4
I0521 07:53:17.726774 19348 net.cpp:411] ip1 -> ip1
I0521 07:53:17.742302 19348 net.cpp:150] Setting up ip1
I0521 07:53:17.742331 19348 net.cpp:157] Top shape: 830 196 (162680)
I0521 07:53:17.742344 19348 net.cpp:165] Memory required for data: 1308043480
I0521 07:53:17.742367 19348 layer_factory.hpp:77] Creating layer relu5
I0521 07:53:17.742383 19348 net.cpp:106] Creating Layer relu5
I0521 07:53:17.742393 19348 net.cpp:454] relu5 <- ip1
I0521 07:53:17.742406 19348 net.cpp:397] relu5 -> ip1 (in-place)
I0521 07:53:17.742751 19348 net.cpp:150] Setting up relu5
I0521 07:53:17.742765 19348 net.cpp:157] Top shape: 830 196 (162680)
I0521 07:53:17.742775 19348 net.cpp:165] Memory required for data: 1308694200
I0521 07:53:17.742785 19348 layer_factory.hpp:77] Creating layer drop1
I0521 07:53:17.742805 19348 net.cpp:106] Creating Layer drop1
I0521 07:53:17.742815 19348 net.cpp:454] drop1 <- ip1
I0521 07:53:17.742828 19348 net.cpp:397] drop1 -> ip1 (in-place)
I0521 07:53:17.742872 19348 net.cpp:150] Setting up drop1
I0521 07:53:17.742885 19348 net.cpp:157] Top shape: 830 196 (162680)
I0521 07:53:17.742897 19348 net.cpp:165] Memory required for data: 1309344920
I0521 07:53:17.742905 19348 layer_factory.hpp:77] Creating layer ip2
I0521 07:53:17.742920 19348 net.cpp:106] Creating Layer ip2
I0521 07:53:17.742930 19348 net.cpp:454] ip2 <- ip1
I0521 07:53:17.742944 19348 net.cpp:411] ip2 -> ip2
I0521 07:53:17.743423 19348 net.cpp:150] Setting up ip2
I0521 07:53:17.743437 19348 net.cpp:157] Top shape: 830 98 (81340)
I0521 07:53:17.743446 19348 net.cpp:165] Memory required for data: 1309670280
I0521 07:53:17.743474 19348 layer_factory.hpp:77] Creating layer relu6
I0521 07:53:17.743487 19348 net.cpp:106] Creating Layer relu6
I0521 07:53:17.743497 19348 net.cpp:454] relu6 <- ip2
I0521 07:53:17.743510 19348 net.cpp:397] relu6 -> ip2 (in-place)
I0521 07:53:17.744057 19348 net.cpp:150] Setting up relu6
I0521 07:53:17.744079 19348 net.cpp:157] Top shape: 830 98 (81340)
I0521 07:53:17.744089 19348 net.cpp:165] Memory required for data: 1309995640
I0521 07:53:17.744101 19348 layer_factory.hpp:77] Creating layer drop2
I0521 07:53:17.744114 19348 net.cpp:106] Creating Layer drop2
I0521 07:53:17.744124 19348 net.cpp:454] drop2 <- ip2
I0521 07:53:17.744137 19348 net.cpp:397] drop2 -> ip2 (in-place)
I0521 07:53:17.744181 19348 net.cpp:150] Setting up drop2
I0521 07:53:17.744194 19348 net.cpp:157] Top shape: 830 98 (81340)
I0521 07:53:17.744204 19348 net.cpp:165] Memory required for data: 1310321000
I0521 07:53:17.744213 19348 layer_factory.hpp:77] Creating layer ip3
I0521 07:53:17.744228 19348 net.cpp:106] Creating Layer ip3
I0521 07:53:17.744238 19348 net.cpp:454] ip3 <- ip2
I0521 07:53:17.744252 19348 net.cpp:411] ip3 -> ip3
I0521 07:53:17.744474 19348 net.cpp:150] Setting up ip3
I0521 07:53:17.744488 19348 net.cpp:157] Top shape: 830 11 (9130)
I0521 07:53:17.744498 19348 net.cpp:165] Memory required for data: 1310357520
I0521 07:53:17.744513 19348 layer_factory.hpp:77] Creating layer drop3
I0521 07:53:17.744526 19348 net.cpp:106] Creating Layer drop3
I0521 07:53:17.744535 19348 net.cpp:454] drop3 <- ip3
I0521 07:53:17.744549 19348 net.cpp:397] drop3 -> ip3 (in-place)
I0521 07:53:17.744590 19348 net.cpp:150] Setting up drop3
I0521 07:53:17.744602 19348 net.cpp:157] Top shape: 830 11 (9130)
I0521 07:53:17.744611 19348 net.cpp:165] Memory required for data: 1310394040
I0521 07:53:17.744621 19348 layer_factory.hpp:77] Creating layer ip3_drop3_0_split
I0521 07:53:17.744634 19348 net.cpp:106] Creating Layer ip3_drop3_0_split
I0521 07:53:17.744644 19348 net.cpp:454] ip3_drop3_0_split <- ip3
I0521 07:53:17.744657 19348 net.cpp:411] ip3_drop3_0_split -> ip3_drop3_0_split_0
I0521 07:53:17.744673 19348 net.cpp:411] ip3_drop3_0_split -> ip3_drop3_0_split_1
I0521 07:53:17.744745 19348 net.cpp:150] Setting up ip3_drop3_0_split
I0521 07:53:17.744758 19348 net.cpp:157] Top shape: 830 11 (9130)
I0521 07:53:17.744771 19348 net.cpp:157] Top shape: 830 11 (9130)
I0521 07:53:17.744781 19348 net.cpp:165] Memory required for data: 1310467080
I0521 07:53:17.744791 19348 layer_factory.hpp:77] Creating layer accuracy
I0521 07:53:17.744812 19348 net.cpp:106] Creating Layer accuracy
I0521 07:53:17.744823 19348 net.cpp:454] accuracy <- ip3_drop3_0_split_0
I0521 07:53:17.744834 19348 net.cpp:454] accuracy <- label_data_hdf5_1_split_0
I0521 07:53:17.744848 19348 net.cpp:411] accuracy -> accuracy
…
