…
I0520 19:55:41.673349 32766 net.cpp:322] The NetState phase (0) differed from the phase (1) specified by a rule in layer data_hdf5
I0520 19:55:41.673410 32766 net.cpp:322] The NetState phase (0) differed from the phase (1) specified by a rule in layer accuracy
I0520 19:55:41.673751 32766 net.cpp:49] Initializing net from parameters: 
name: "caffe_test_127x50_x_unshifted"
state {
  phase: TRAIN
}
layer {
  name: "data_hdf5"
  type: "HDF5Data"
  top: "data"
  top: "label"
  include {
    phase: TRAIN
  }
  hdf5_data_param {
    source: "/lustre/atlas/proj-shared/hep105/caffe_titan/minosmatch_nukecczdefs_127x50_x_unshifted_me1Bmc.trainlist"
    batch_size: 250
  }
}
layer {
  name: "conv1"
  type: "Convolution"
  bottom: "data"
  top: "conv1"
  convolution_param {
    num_output: 12
    pad: 0
    stride: 1
    weight_filler {
      type: "xavier"
    }
    bias_filler {
      type: "constant"
    }
    kernel_h: 8
    kernel_w: 3
  }
}
layer {
  name: "relu1"
  type: "ReLU"
  bottom: "conv1"
  top: "conv1"
}
layer {
  name: "pool1"
  type: "Pooling"
  bottom: "conv1"
  top: "pool1"
  pooling_param {
    pool: MAX
    kernel_h: 2
    kernel_w: 1
    stride_h: 2
    stride_w: 1
  }
}
layer {
  name: "conv2"
  type: "Convolution"
  bottom: "pool1"
  top: "conv2"
  convolution_param {
    num_output: 20
    pad: 0
    stride: 1
    weight_filler {
      type: "xavier"
    }
    bias_filler {
      type: "constant"
    }
    kernel_h: 7
    kernel_w: 3
  }
}
layer {
  name: "relu2"
  type: "ReLU"
  bottom: "conv2"
  top: "conv2"
}
layer {
  name: "pool2"
  type: "Pooling"
  bottom: "conv2"
  top: "pool2"
  pooling_param {
    pool: MAX
    kernel_h: 2
    kernel_w: 1
    stride_h: 2
    stride_w: 1
  }
}
layer {
  name: "conv3"
  type: "Convolution"
  bottom: "pool2"
  top: "conv3"
  convolution_param {
    num_output: 28
    pad: 0
    stride: 1
    weight_filler {
      type: "xavier"
    }
    bias_filler {
      type: "constant"
    }
    kernel_h: 6
    kernel_w: 3
  }
}
layer {
  name: "relu3"
  type: "ReLU"
  bottom: "conv3"
  top: "conv3"
}
layer {
  name: "pool3"
  type: "Pooling"
  bottom: "conv3"
  top: "pool3"
  pooling_param {
    pool: MAX
    kernel_h: 2
    kernel_w: 1
    stride_h: 2
    stride_w: 1
  }
}
layer {
  name: "conv4"
  type: "Convolution"
  bottom: "pool3"
  top: "conv4"
  convolution_param {
    num_output: 36
    pad: 0
    stride: 1
    weight_filler {
      type: "xavier"
    }
    bias_filler {
      type: "constant"
    }
    kernel_h: 6
    kernel_w: 3
  }
}
layer {
  name: "relu4"
  type: "ReLU"
  bottom: "conv4"
  top: "conv4"
}
layer {
  name: "pool4"
  type: "Pooling"
  bottom: "conv4"
  top: "pool4"
  pooling_param {
    pool: MAX
    kernel_h: 2
    kernel_w: 1
    stride_h: 2
    stride_w: 1
  }
}
layer {
  name: "ip1"
  type: "InnerProduct"
  bottom: "pool4"
  top: "ip1"
  inner_product_param {
    num_output: 196
    weight_filler {
      type: "xavier"
    }
    bias_filler {
      type: "constant"
    }
  }
}
layer {
  name: "relu5"
  type: "ReLU"
  bottom: "ip1"
  top: "ip1"
}
layer {
  name: "drop1"
  type: "Dropout"
  bottom: "ip1"
  top: "ip1"
  dropout_param {
    dropout_ratio: 0.5
  }
}
layer {
  name: "ip2"
  type: "InnerProduct"
  bottom: "ip1"
  top: "ip2"
  inner_product_param {
    num_output: 98
    weight_filler {
      type: "xavier"
    }
    bias_filler {
      type: "constant"
    }
  }
}
layer {
  name: "relu6"
  type: "ReLU"
  bottom: "ip2"
  top: "ip2"
}
layer {
  name: "drop2"
  type: "Dropout"
  bottom: "ip2"
  top: "ip2"
  dropout_param {
    dropout_ratio: 0.5
  }
}
layer {
  name: "ip3"
  type: "InnerProduct"
  bottom: "ip2"
  top: "ip3"
  inner_product_param {
    num_output: 11
    weight_filler {
      type: "xavier"
    }
    bias_filler {
      type: "constant"
    }
  }
}
layer {
  name: "drop3"
  type: "Dropout"
  bottom: "ip3"
  top: "ip3"
  dropout_param {
    dropout_ratio: 0.5
  }
}
layer {
  name: "loss"
  type: "SoftmaxWithLoss"
  bottom: "ip3"
  bottom: "label"
  top: "loss"
}
I0520 19:55:41.673928 32766 layer_factory.hpp:77] Creating layer data_hdf5
I0520 19:55:41.673951 32766 net.cpp:106] Creating Layer data_hdf5
I0520 19:55:41.673965 32766 net.cpp:411] data_hdf5 -> data
I0520 19:55:41.673998 32766 net.cpp:411] data_hdf5 -> label
I0520 19:55:41.674031 32766 hdf5_data_layer.cpp:79] Loading list of HDF5 filenames from: /lustre/atlas/proj-shared/hep105/caffe_titan/minosmatch_nukecczdefs_127x50_x_unshifted_me1Bmc.trainlist
I0520 19:55:41.688269 32766 hdf5_data_layer.cpp:93] Number of HDF5 files: 15
I0520 19:55:41.707453 32766 hdf5.cpp:32] Datatype class: H5T_FLOAT
I0520 19:56:03.225440 32766 hdf5.cpp:35] Datatype class: H5T_INTEGER
I0520 19:56:03.230533 32766 net.cpp:150] Setting up data_hdf5
I0520 19:56:03.230573 32766 net.cpp:157] Top shape: 250 1 127 50 (1587500)
I0520 19:56:03.230587 32766 net.cpp:157] Top shape: 250 (250)
I0520 19:56:03.230598 32766 net.cpp:165] Memory required for data: 6351000
I0520 19:56:03.230612 32766 layer_factory.hpp:77] Creating layer conv1
I0520 19:56:03.230645 32766 net.cpp:106] Creating Layer conv1
I0520 19:56:03.230657 32766 net.cpp:454] conv1 <- data
I0520 19:56:03.230679 32766 net.cpp:411] conv1 -> conv1
I0520 19:56:05.143604 32766 net.cpp:150] Setting up conv1
I0520 19:56:05.143652 32766 net.cpp:157] Top shape: 250 12 120 48 (17280000)
I0520 19:56:05.143664 32766 net.cpp:165] Memory required for data: 75471000
I0520 19:56:05.143692 32766 layer_factory.hpp:77] Creating layer relu1
I0520 19:56:05.143714 32766 net.cpp:106] Creating Layer relu1
I0520 19:56:05.143725 32766 net.cpp:454] relu1 <- conv1
I0520 19:56:05.143739 32766 net.cpp:397] relu1 -> conv1 (in-place)
I0520 19:56:05.144256 32766 net.cpp:150] Setting up relu1
I0520 19:56:05.144273 32766 net.cpp:157] Top shape: 250 12 120 48 (17280000)
I0520 19:56:05.144284 32766 net.cpp:165] Memory required for data: 144591000
I0520 19:56:05.144294 32766 layer_factory.hpp:77] Creating layer pool1
I0520 19:56:05.144310 32766 net.cpp:106] Creating Layer pool1
I0520 19:56:05.144320 32766 net.cpp:454] pool1 <- conv1
I0520 19:56:05.144332 32766 net.cpp:411] pool1 -> pool1
I0520 19:56:05.144413 32766 net.cpp:150] Setting up pool1
I0520 19:56:05.144428 32766 net.cpp:157] Top shape: 250 12 60 48 (8640000)
I0520 19:56:05.144438 32766 net.cpp:165] Memory required for data: 179151000
I0520 19:56:05.144446 32766 layer_factory.hpp:77] Creating layer conv2
I0520 19:56:05.144469 32766 net.cpp:106] Creating Layer conv2
I0520 19:56:05.144479 32766 net.cpp:454] conv2 <- pool1
I0520 19:56:05.144492 32766 net.cpp:411] conv2 -> conv2
I0520 19:56:05.147192 32766 net.cpp:150] Setting up conv2
I0520 19:56:05.147214 32766 net.cpp:157] Top shape: 250 20 54 46 (12420000)
I0520 19:56:05.147224 32766 net.cpp:165] Memory required for data: 228831000
I0520 19:56:05.147243 32766 layer_factory.hpp:77] Creating layer relu2
I0520 19:56:05.147258 32766 net.cpp:106] Creating Layer relu2
I0520 19:56:05.147269 32766 net.cpp:454] relu2 <- conv2
I0520 19:56:05.147280 32766 net.cpp:397] relu2 -> conv2 (in-place)
I0520 19:56:05.147610 32766 net.cpp:150] Setting up relu2
I0520 19:56:05.147624 32766 net.cpp:157] Top shape: 250 20 54 46 (12420000)
I0520 19:56:05.147635 32766 net.cpp:165] Memory required for data: 278511000
I0520 19:56:05.147645 32766 layer_factory.hpp:77] Creating layer pool2
I0520 19:56:05.147657 32766 net.cpp:106] Creating Layer pool2
I0520 19:56:05.147668 32766 net.cpp:454] pool2 <- conv2
I0520 19:56:05.147692 32766 net.cpp:411] pool2 -> pool2
I0520 19:56:05.147761 32766 net.cpp:150] Setting up pool2
I0520 19:56:05.147774 32766 net.cpp:157] Top shape: 250 20 27 46 (6210000)
I0520 19:56:05.147784 32766 net.cpp:165] Memory required for data: 303351000
I0520 19:56:05.147794 32766 layer_factory.hpp:77] Creating layer conv3
I0520 19:56:05.147810 32766 net.cpp:106] Creating Layer conv3
I0520 19:56:05.147820 32766 net.cpp:454] conv3 <- pool2
I0520 19:56:05.147835 32766 net.cpp:411] conv3 -> conv3
I0520 19:56:05.149812 32766 net.cpp:150] Setting up conv3
I0520 19:56:05.149837 32766 net.cpp:157] Top shape: 250 28 22 44 (6776000)
I0520 19:56:05.149848 32766 net.cpp:165] Memory required for data: 330455000
I0520 19:56:05.149868 32766 layer_factory.hpp:77] Creating layer relu3
I0520 19:56:05.149883 32766 net.cpp:106] Creating Layer relu3
I0520 19:56:05.149893 32766 net.cpp:454] relu3 <- conv3
I0520 19:56:05.149906 32766 net.cpp:397] relu3 -> conv3 (in-place)
I0520 19:56:05.150377 32766 net.cpp:150] Setting up relu3
I0520 19:56:05.150394 32766 net.cpp:157] Top shape: 250 28 22 44 (6776000)
I0520 19:56:05.150404 32766 net.cpp:165] Memory required for data: 357559000
I0520 19:56:05.150415 32766 layer_factory.hpp:77] Creating layer pool3
I0520 19:56:05.150429 32766 net.cpp:106] Creating Layer pool3
I0520 19:56:05.150437 32766 net.cpp:454] pool3 <- conv3
I0520 19:56:05.150450 32766 net.cpp:411] pool3 -> pool3
I0520 19:56:05.150518 32766 net.cpp:150] Setting up pool3
I0520 19:56:05.150532 32766 net.cpp:157] Top shape: 250 28 11 44 (3388000)
I0520 19:56:05.150542 32766 net.cpp:165] Memory required for data: 371111000
I0520 19:56:05.150552 32766 layer_factory.hpp:77] Creating layer conv4
I0520 19:56:05.150566 32766 net.cpp:106] Creating Layer conv4
I0520 19:56:05.150576 32766 net.cpp:454] conv4 <- pool3
I0520 19:56:05.150590 32766 net.cpp:411] conv4 -> conv4
I0520 19:56:05.153318 32766 net.cpp:150] Setting up conv4
I0520 19:56:05.153347 32766 net.cpp:157] Top shape: 250 36 6 42 (2268000)
I0520 19:56:05.153357 32766 net.cpp:165] Memory required for data: 380183000
I0520 19:56:05.153373 32766 layer_factory.hpp:77] Creating layer relu4
I0520 19:56:05.153386 32766 net.cpp:106] Creating Layer relu4
I0520 19:56:05.153396 32766 net.cpp:454] relu4 <- conv4
I0520 19:56:05.153409 32766 net.cpp:397] relu4 -> conv4 (in-place)
I0520 19:56:05.153872 32766 net.cpp:150] Setting up relu4
I0520 19:56:05.153888 32766 net.cpp:157] Top shape: 250 36 6 42 (2268000)
I0520 19:56:05.153899 32766 net.cpp:165] Memory required for data: 389255000
I0520 19:56:05.153909 32766 layer_factory.hpp:77] Creating layer pool4
I0520 19:56:05.153923 32766 net.cpp:106] Creating Layer pool4
I0520 19:56:05.153933 32766 net.cpp:454] pool4 <- conv4
I0520 19:56:05.153949 32766 net.cpp:411] pool4 -> pool4
I0520 19:56:05.154016 32766 net.cpp:150] Setting up pool4
I0520 19:56:05.154031 32766 net.cpp:157] Top shape: 250 36 3 42 (1134000)
I0520 19:56:05.154041 32766 net.cpp:165] Memory required for data: 393791000
I0520 19:56:05.154052 32766 layer_factory.hpp:77] Creating layer ip1
I0520 19:56:05.154070 32766 net.cpp:106] Creating Layer ip1
I0520 19:56:05.154081 32766 net.cpp:454] ip1 <- pool4
I0520 19:56:05.154095 32766 net.cpp:411] ip1 -> ip1
I0520 19:56:05.169514 32766 net.cpp:150] Setting up ip1
I0520 19:56:05.169543 32766 net.cpp:157] Top shape: 250 196 (49000)
I0520 19:56:05.169555 32766 net.cpp:165] Memory required for data: 393987000
I0520 19:56:05.169577 32766 layer_factory.hpp:77] Creating layer relu5
I0520 19:56:05.169592 32766 net.cpp:106] Creating Layer relu5
I0520 19:56:05.169603 32766 net.cpp:454] relu5 <- ip1
I0520 19:56:05.169616 32766 net.cpp:397] relu5 -> ip1 (in-place)
I0520 19:56:05.169956 32766 net.cpp:150] Setting up relu5
I0520 19:56:05.169970 32766 net.cpp:157] Top shape: 250 196 (49000)
I0520 19:56:05.169981 32766 net.cpp:165] Memory required for data: 394183000
I0520 19:56:05.169991 32766 layer_factory.hpp:77] Creating layer drop1
I0520 19:56:05.170012 32766 net.cpp:106] Creating Layer drop1
I0520 19:56:05.170022 32766 net.cpp:454] drop1 <- ip1
I0520 19:56:05.170047 32766 net.cpp:397] drop1 -> ip1 (in-place)
I0520 19:56:05.170094 32766 net.cpp:150] Setting up drop1
I0520 19:56:05.170106 32766 net.cpp:157] Top shape: 250 196 (49000)
I0520 19:56:05.170117 32766 net.cpp:165] Memory required for data: 394379000
I0520 19:56:05.170126 32766 layer_factory.hpp:77] Creating layer ip2
I0520 19:56:05.170145 32766 net.cpp:106] Creating Layer ip2
I0520 19:56:05.170156 32766 net.cpp:454] ip2 <- ip1
I0520 19:56:05.170167 32766 net.cpp:411] ip2 -> ip2
I0520 19:56:05.170630 32766 net.cpp:150] Setting up ip2
I0520 19:56:05.170644 32766 net.cpp:157] Top shape: 250 98 (24500)
I0520 19:56:05.170653 32766 net.cpp:165] Memory required for data: 394477000
I0520 19:56:05.170668 32766 layer_factory.hpp:77] Creating layer relu6
I0520 19:56:05.170680 32766 net.cpp:106] Creating Layer relu6
I0520 19:56:05.170691 32766 net.cpp:454] relu6 <- ip2
I0520 19:56:05.170701 32766 net.cpp:397] relu6 -> ip2 (in-place)
I0520 19:56:05.171221 32766 net.cpp:150] Setting up relu6
I0520 19:56:05.171237 32766 net.cpp:157] Top shape: 250 98 (24500)
I0520 19:56:05.171248 32766 net.cpp:165] Memory required for data: 394575000
I0520 19:56:05.171259 32766 layer_factory.hpp:77] Creating layer drop2
I0520 19:56:05.171272 32766 net.cpp:106] Creating Layer drop2
I0520 19:56:05.171283 32766 net.cpp:454] drop2 <- ip2
I0520 19:56:05.171295 32766 net.cpp:397] drop2 -> ip2 (in-place)
I0520 19:56:05.171336 32766 net.cpp:150] Setting up drop2
I0520 19:56:05.171350 32766 net.cpp:157] Top shape: 250 98 (24500)
I0520 19:56:05.171360 32766 net.cpp:165] Memory required for data: 394673000
I0520 19:56:05.171370 32766 layer_factory.hpp:77] Creating layer ip3
I0520 19:56:05.171383 32766 net.cpp:106] Creating Layer ip3
I0520 19:56:05.171392 32766 net.cpp:454] ip3 <- ip2
I0520 19:56:05.171406 32766 net.cpp:411] ip3 -> ip3
I0520 19:56:05.171617 32766 net.cpp:150] Setting up ip3
I0520 19:56:05.171629 32766 net.cpp:157] Top shape: 250 11 (2750)
I0520 19:56:05.171638 32766 net.cpp:165] Memory required for data: 394684000
I0520 19:56:05.171654 32766 layer_factory.hpp:77] Creating layer drop3
I0520 19:56:05.171666 32766 net.cpp:106] Creating Layer drop3
I0520 19:56:05.171675 32766 net.cpp:454] drop3 <- ip3
I0520 19:56:05.171687 32766 net.cpp:397] drop3 -> ip3 (in-place)
I0520 19:56:05.171727 32766 net.cpp:150] Setting up drop3
I0520 19:56:05.171741 32766 net.cpp:157] Top shape: 250 11 (2750)
I0520 19:56:05.171751 32766 net.cpp:165] Memory required for data: 394695000
I0520 19:56:05.171761 32766 layer_factory.hpp:77] Creating layer loss
I0520 19:56:05.171779 32766 net.cpp:106] Creating Layer loss
I0520 19:56:05.171789 32766 net.cpp:454] loss <- ip3
I0520 19:56:05.171800 32766 net.cpp:454] loss <- label
I0520 19:56:05.171813 32766 net.cpp:411] loss -> loss
I0520 19:56:05.171830 32766 layer_factory.hpp:77] Creating layer loss
…
I0520 19:56:05.174394 32766 solver.cpp:181] Creating test net (#0) specified by net file: /lustre/atlas/proj-shared/hep105/caffe_titan/caffe_workflow/logs_batch_size_test/batch_size_250_2016-05-20T11.20.41.882173.prototxt
I0520 19:56:05.174465 32766 net.cpp:322] The NetState phase (1) differed from the phase (0) specified by a rule in layer data_hdf5
I0520 19:56:05.174819 32766 net.cpp:49] Initializing net from parameters: 
name: "caffe_test_127x50_x_unshifted"
state {
  phase: TEST
}
layer {
  name: "data_hdf5"
  type: "HDF5Data"
  top: "data"
  top: "label"
  include {
    phase: TEST
  }
  hdf5_data_param {
    source: "/lustre/atlas/proj-shared/hep105/caffe_titan/minosmatch_nukecczdefs_127x50_x_unshifted_me1Bmc.testlist"
    batch_size: 250
  }
}
layer {
  name: "conv1"
  type: "Convolution"
  bottom: "data"
  top: "conv1"
  convolution_param {
    num_output: 12
    pad: 0
    stride: 1
    weight_filler {
      type: "xavier"
    }
    bias_filler {
      type: "constant"
    }
    kernel_h: 8
    kernel_w: 3
  }
}
layer {
  name: "relu1"
  type: "ReLU"
  bottom: "conv1"
  top: "conv1"
}
layer {
  name: "pool1"
  type: "Pooling"
  bottom: "conv1"
  top: "pool1"
  pooling_param {
    pool: MAX
    kernel_h: 2
    kernel_w: 1
    stride_h: 2
    stride_w: 1
  }
}
layer {
  name: "conv2"
  type: "Convolution"
  bottom: "pool1"
  top: "conv2"
  convolution_param {
    num_output: 20
    pad: 0
    stride: 1
    weight_filler {
      type: "xavier"
    }
    bias_filler {
      type: "constant"
    }
    kernel_h: 7
    kernel_w: 3
  }
}
layer {
  name: "relu2"
  type: "ReLU"
  bottom: "conv2"
  top: "conv2"
}
layer {
  name: "pool2"
  type: "Pooling"
  bottom: "conv2"
  top: "pool2"
  pooling_param {
    pool: MAX
    kernel_h: 2
    kernel_w: 1
    stride_h: 2
    stride_w: 1
  }
}
layer {
  name: "conv3"
  type: "Convolution"
  bottom: "pool2"
  top: "conv3"
  convolution_param {
    num_output: 28
    pad: 0
    stride: 1
    weight_filler {
      type: "xavier"
    }
    bias_filler {
      type: "constant"
    }
    kernel_h: 6
    kernel_w: 3
  }
}
layer {
  name: "relu3"
  type: "ReLU"
  bottom: "conv3"
  top: "conv3"
}
layer {
  name: "pool3"
  type: "Pooling"
  bottom: "conv3"
  top: "pool3"
  pooling_param {
    pool: MAX
    kernel_h: 2
    kernel_w: 1
    stride_h: 2
    stride_w: 1
  }
}
layer {
  name: "conv4"
  type: "Convolution"
  bottom: "pool3"
  top: "conv4"
  convolution_param {
    num_output: 36
    pad: 0
    stride: 1
    weight_filler {
      type: "xavier"
    }
    bias_filler {
      type: "constant"
    }
    kernel_h: 6
    kernel_w: 3
  }
}
layer {
  name: "relu4"
  type: "ReLU"
  bottom: "conv4"
  top: "conv4"
}
layer {
  name: "pool4"
  type: "Pooling"
  bottom: "conv4"
  top: "pool4"
  pooling_param {
    pool: MAX
    kernel_h: 2
    kernel_w: 1
    stride_h: 2
    stride_w: 1
  }
}
layer {
  name: "ip1"
  type: "InnerProduct"
  bottom: "pool4"
  top: "ip1"
  inner_product_param {
    num_output: 196
    weight_filler {
      type: "xavier"
    }
    bias_filler {
      type: "constant"
    }
  }
}
layer {
  name: "relu5"
  type: "ReLU"
  bottom: "ip1"
  top: "ip1"
}
layer {
  name: "drop1"
  type: "Dropout"
  bottom: "ip1"
  top: "ip1"
  dropout_param {
    dropout_ratio: 0.5
  }
}
layer {
  name: "ip2"
  type: "InnerProduct"
  bottom: "ip1"
  top: "ip2"
  inner_product_param {
    num_output: 98
    weight_filler {
      type: "xavier"
    }
    bias_filler {
      type: "constant"
    }
  }
}
layer {
  name: "relu6"
  type: "ReLU"
  bottom: "ip2"
  top: "ip2"
}
layer {
  name: "drop2"
  type: "Dropout"
  bottom: "ip2"
  top: "ip2"
  dropout_param {
    dropout_ratio: 0.5
  }
}
layer {
  name: "ip3"
  type: "InnerProduct"
  bottom: "ip2"
  top: "ip3"
  inner_product_param {
    num_output: 11
    weight_filler {
      type: "xavier"
    }
    bias_filler {
      type: "constant"
    }
  }
}
layer {
  name: "drop3"
  type: "Dropout"
  bottom: "ip3"
  top: "ip3"
  dropout_param {
    dropout_ratio: 0.5
  }
}
layer {
  name: "accuracy"
  type: "Accuracy"
  bottom: "ip3"
  bottom: "label"
  top: "accuracy"
  include {
    phase: TEST
  }
}
layer {
  name: "loss"
  type: "SoftmaxWithLoss"
  bottom: "ip3"
  bottom: "label"
  top: "loss"
}
I0520 19:56:05.175007 32766 layer_factory.hpp:77] Creating layer data_hdf5
I0520 19:56:05.175024 32766 net.cpp:106] Creating Layer data_hdf5
I0520 19:56:05.175035 32766 net.cpp:411] data_hdf5 -> data
I0520 19:56:05.175052 32766 net.cpp:411] data_hdf5 -> label
I0520 19:56:05.175068 32766 hdf5_data_layer.cpp:79] Loading list of HDF5 filenames from: /lustre/atlas/proj-shared/hep105/caffe_titan/minosmatch_nukecczdefs_127x50_x_unshifted_me1Bmc.testlist
I0520 19:56:05.196763 32766 hdf5_data_layer.cpp:93] Number of HDF5 files: 3
I0520 19:56:26.551419 32766 net.cpp:150] Setting up data_hdf5
I0520 19:56:26.551583 32766 net.cpp:157] Top shape: 250 1 127 50 (1587500)
I0520 19:56:26.551596 32766 net.cpp:157] Top shape: 250 (250)
I0520 19:56:26.551609 32766 net.cpp:165] Memory required for data: 6351000
I0520 19:56:26.551621 32766 layer_factory.hpp:77] Creating layer label_data_hdf5_1_split
I0520 19:56:26.551650 32766 net.cpp:106] Creating Layer label_data_hdf5_1_split
I0520 19:56:26.551661 32766 net.cpp:454] label_data_hdf5_1_split <- label
I0520 19:56:26.551676 32766 net.cpp:411] label_data_hdf5_1_split -> label_data_hdf5_1_split_0
I0520 19:56:26.551697 32766 net.cpp:411] label_data_hdf5_1_split -> label_data_hdf5_1_split_1
I0520 19:56:26.551769 32766 net.cpp:150] Setting up label_data_hdf5_1_split
I0520 19:56:26.551784 32766 net.cpp:157] Top shape: 250 (250)
I0520 19:56:26.551795 32766 net.cpp:157] Top shape: 250 (250)
I0520 19:56:26.551805 32766 net.cpp:165] Memory required for data: 6353000
I0520 19:56:26.551815 32766 layer_factory.hpp:77] Creating layer conv1
I0520 19:56:26.551837 32766 net.cpp:106] Creating Layer conv1
I0520 19:56:26.551848 32766 net.cpp:454] conv1 <- data
I0520 19:56:26.551862 32766 net.cpp:411] conv1 -> conv1
I0520 19:56:26.553784 32766 net.cpp:150] Setting up conv1
I0520 19:56:26.553808 32766 net.cpp:157] Top shape: 250 12 120 48 (17280000)
I0520 19:56:26.553820 32766 net.cpp:165] Memory required for data: 75473000
I0520 19:56:26.553840 32766 layer_factory.hpp:77] Creating layer relu1
I0520 19:56:26.553855 32766 net.cpp:106] Creating Layer relu1
I0520 19:56:26.553865 32766 net.cpp:454] relu1 <- conv1
I0520 19:56:26.553879 32766 net.cpp:397] relu1 -> conv1 (in-place)
I0520 19:56:26.554376 32766 net.cpp:150] Setting up relu1
I0520 19:56:26.554394 32766 net.cpp:157] Top shape: 250 12 120 48 (17280000)
I0520 19:56:26.554404 32766 net.cpp:165] Memory required for data: 144593000
I0520 19:56:26.554414 32766 layer_factory.hpp:77] Creating layer pool1
I0520 19:56:26.554430 32766 net.cpp:106] Creating Layer pool1
I0520 19:56:26.554440 32766 net.cpp:454] pool1 <- conv1
I0520 19:56:26.554453 32766 net.cpp:411] pool1 -> pool1
I0520 19:56:26.554528 32766 net.cpp:150] Setting up pool1
I0520 19:56:26.554543 32766 net.cpp:157] Top shape: 250 12 60 48 (8640000)
I0520 19:56:26.554551 32766 net.cpp:165] Memory required for data: 179153000
I0520 19:56:26.554561 32766 layer_factory.hpp:77] Creating layer conv2
I0520 19:56:26.554579 32766 net.cpp:106] Creating Layer conv2
I0520 19:56:26.554589 32766 net.cpp:454] conv2 <- pool1
I0520 19:56:26.554603 32766 net.cpp:411] conv2 -> conv2
I0520 19:56:26.556512 32766 net.cpp:150] Setting up conv2
I0520 19:56:26.556535 32766 net.cpp:157] Top shape: 250 20 54 46 (12420000)
I0520 19:56:26.556547 32766 net.cpp:165] Memory required for data: 228833000
I0520 19:56:26.556565 32766 layer_factory.hpp:77] Creating layer relu2
I0520 19:56:26.556578 32766 net.cpp:106] Creating Layer relu2
I0520 19:56:26.556588 32766 net.cpp:454] relu2 <- conv2
I0520 19:56:26.556601 32766 net.cpp:397] relu2 -> conv2 (in-place)
I0520 19:56:26.556933 32766 net.cpp:150] Setting up relu2
I0520 19:56:26.556946 32766 net.cpp:157] Top shape: 250 20 54 46 (12420000)
I0520 19:56:26.556964 32766 net.cpp:165] Memory required for data: 278513000
I0520 19:56:26.556974 32766 layer_factory.hpp:77] Creating layer pool2
I0520 19:56:26.556988 32766 net.cpp:106] Creating Layer pool2
I0520 19:56:26.556998 32766 net.cpp:454] pool2 <- conv2
I0520 19:56:26.557010 32766 net.cpp:411] pool2 -> pool2
I0520 19:56:26.557083 32766 net.cpp:150] Setting up pool2
I0520 19:56:26.557096 32766 net.cpp:157] Top shape: 250 20 27 46 (6210000)
I0520 19:56:26.557106 32766 net.cpp:165] Memory required for data: 303353000
I0520 19:56:26.557116 32766 layer_factory.hpp:77] Creating layer conv3
I0520 19:56:26.557135 32766 net.cpp:106] Creating Layer conv3
I0520 19:56:26.557147 32766 net.cpp:454] conv3 <- pool2
I0520 19:56:26.557160 32766 net.cpp:411] conv3 -> conv3
I0520 19:56:26.559134 32766 net.cpp:150] Setting up conv3
I0520 19:56:26.559152 32766 net.cpp:157] Top shape: 250 28 22 44 (6776000)
I0520 19:56:26.559162 32766 net.cpp:165] Memory required for data: 330457000
I0520 19:56:26.559195 32766 layer_factory.hpp:77] Creating layer relu3
I0520 19:56:26.559209 32766 net.cpp:106] Creating Layer relu3
I0520 19:56:26.559219 32766 net.cpp:454] relu3 <- conv3
I0520 19:56:26.559232 32766 net.cpp:397] relu3 -> conv3 (in-place)
I0520 19:56:26.559702 32766 net.cpp:150] Setting up relu3
I0520 19:56:26.559718 32766 net.cpp:157] Top shape: 250 28 22 44 (6776000)
I0520 19:56:26.559728 32766 net.cpp:165] Memory required for data: 357561000
I0520 19:56:26.559738 32766 layer_factory.hpp:77] Creating layer pool3
I0520 19:56:26.559751 32766 net.cpp:106] Creating Layer pool3
I0520 19:56:26.559762 32766 net.cpp:454] pool3 <- conv3
I0520 19:56:26.559773 32766 net.cpp:411] pool3 -> pool3
I0520 19:56:26.559844 32766 net.cpp:150] Setting up pool3
I0520 19:56:26.559857 32766 net.cpp:157] Top shape: 250 28 11 44 (3388000)
I0520 19:56:26.559867 32766 net.cpp:165] Memory required for data: 371113000
I0520 19:56:26.559877 32766 layer_factory.hpp:77] Creating layer conv4
I0520 19:56:26.559895 32766 net.cpp:106] Creating Layer conv4
I0520 19:56:26.559905 32766 net.cpp:454] conv4 <- pool3
I0520 19:56:26.559919 32766 net.cpp:411] conv4 -> conv4
I0520 19:56:26.561977 32766 net.cpp:150] Setting up conv4
I0520 19:56:26.562000 32766 net.cpp:157] Top shape: 250 36 6 42 (2268000)
I0520 19:56:26.562011 32766 net.cpp:165] Memory required for data: 380185000
I0520 19:56:26.562026 32766 layer_factory.hpp:77] Creating layer relu4
I0520 19:56:26.562041 32766 net.cpp:106] Creating Layer relu4
I0520 19:56:26.562050 32766 net.cpp:454] relu4 <- conv4
I0520 19:56:26.562063 32766 net.cpp:397] relu4 -> conv4 (in-place)
I0520 19:56:26.562532 32766 net.cpp:150] Setting up relu4
I0520 19:56:26.562548 32766 net.cpp:157] Top shape: 250 36 6 42 (2268000)
I0520 19:56:26.562558 32766 net.cpp:165] Memory required for data: 389257000
I0520 19:56:26.562568 32766 layer_factory.hpp:77] Creating layer pool4
I0520 19:56:26.562582 32766 net.cpp:106] Creating Layer pool4
I0520 19:56:26.562592 32766 net.cpp:454] pool4 <- conv4
I0520 19:56:26.562605 32766 net.cpp:411] pool4 -> pool4
I0520 19:56:26.562679 32766 net.cpp:150] Setting up pool4
I0520 19:56:26.562691 32766 net.cpp:157] Top shape: 250 36 3 42 (1134000)
I0520 19:56:26.562700 32766 net.cpp:165] Memory required for data: 393793000
I0520 19:56:26.562710 32766 layer_factory.hpp:77] Creating layer ip1
I0520 19:56:26.562724 32766 net.cpp:106] Creating Layer ip1
I0520 19:56:26.562736 32766 net.cpp:454] ip1 <- pool4
I0520 19:56:26.562748 32766 net.cpp:411] ip1 -> ip1
I0520 19:56:26.578210 32766 net.cpp:150] Setting up ip1
I0520 19:56:26.578238 32766 net.cpp:157] Top shape: 250 196 (49000)
I0520 19:56:26.578251 32766 net.cpp:165] Memory required for data: 393989000
I0520 19:56:26.578274 32766 layer_factory.hpp:77] Creating layer relu5
I0520 19:56:26.578289 32766 net.cpp:106] Creating Layer relu5
I0520 19:56:26.578299 32766 net.cpp:454] relu5 <- ip1
I0520 19:56:26.578313 32766 net.cpp:397] relu5 -> ip1 (in-place)
I0520 19:56:26.578661 32766 net.cpp:150] Setting up relu5
I0520 19:56:26.578675 32766 net.cpp:157] Top shape: 250 196 (49000)
I0520 19:56:26.578685 32766 net.cpp:165] Memory required for data: 394185000
I0520 19:56:26.578693 32766 layer_factory.hpp:77] Creating layer drop1
I0520 19:56:26.578713 32766 net.cpp:106] Creating Layer drop1
I0520 19:56:26.578722 32766 net.cpp:454] drop1 <- ip1
I0520 19:56:26.578737 32766 net.cpp:397] drop1 -> ip1 (in-place)
I0520 19:56:26.578783 32766 net.cpp:150] Setting up drop1
I0520 19:56:26.578795 32766 net.cpp:157] Top shape: 250 196 (49000)
I0520 19:56:26.578804 32766 net.cpp:165] Memory required for data: 394381000
I0520 19:56:26.578814 32766 layer_factory.hpp:77] Creating layer ip2
I0520 19:56:26.578830 32766 net.cpp:106] Creating Layer ip2
I0520 19:56:26.578840 32766 net.cpp:454] ip2 <- ip1
I0520 19:56:26.578850 32766 net.cpp:411] ip2 -> ip2
I0520 19:56:26.579331 32766 net.cpp:150] Setting up ip2
I0520 19:56:26.579344 32766 net.cpp:157] Top shape: 250 98 (24500)
I0520 19:56:26.579355 32766 net.cpp:165] Memory required for data: 394479000
I0520 19:56:26.579382 32766 layer_factory.hpp:77] Creating layer relu6
I0520 19:56:26.579396 32766 net.cpp:106] Creating Layer relu6
I0520 19:56:26.579406 32766 net.cpp:454] relu6 <- ip2
I0520 19:56:26.579417 32766 net.cpp:397] relu6 -> ip2 (in-place)
I0520 19:56:26.579953 32766 net.cpp:150] Setting up relu6
I0520 19:56:26.579974 32766 net.cpp:157] Top shape: 250 98 (24500)
I0520 19:56:26.579984 32766 net.cpp:165] Memory required for data: 394577000
I0520 19:56:26.579993 32766 layer_factory.hpp:77] Creating layer drop2
I0520 19:56:26.580008 32766 net.cpp:106] Creating Layer drop2
I0520 19:56:26.580018 32766 net.cpp:454] drop2 <- ip2
I0520 19:56:26.580030 32766 net.cpp:397] drop2 -> ip2 (in-place)
I0520 19:56:26.580075 32766 net.cpp:150] Setting up drop2
I0520 19:56:26.580087 32766 net.cpp:157] Top shape: 250 98 (24500)
I0520 19:56:26.580097 32766 net.cpp:165] Memory required for data: 394675000
I0520 19:56:26.580106 32766 layer_factory.hpp:77] Creating layer ip3
I0520 19:56:26.580121 32766 net.cpp:106] Creating Layer ip3
I0520 19:56:26.580130 32766 net.cpp:454] ip3 <- ip2
I0520 19:56:26.580144 32766 net.cpp:411] ip3 -> ip3
I0520 19:56:26.580368 32766 net.cpp:150] Setting up ip3
I0520 19:56:26.580381 32766 net.cpp:157] Top shape: 250 11 (2750)
I0520 19:56:26.580391 32766 net.cpp:165] Memory required for data: 394686000
I0520 19:56:26.580407 32766 layer_factory.hpp:77] Creating layer drop3
I0520 19:56:26.580420 32766 net.cpp:106] Creating Layer drop3
I0520 19:56:26.580430 32766 net.cpp:454] drop3 <- ip3
I0520 19:56:26.580442 32766 net.cpp:397] drop3 -> ip3 (in-place)
I0520 19:56:26.580483 32766 net.cpp:150] Setting up drop3
I0520 19:56:26.580497 32766 net.cpp:157] Top shape: 250 11 (2750)
I0520 19:56:26.580507 32766 net.cpp:165] Memory required for data: 394697000
I0520 19:56:26.580515 32766 layer_factory.hpp:77] Creating layer ip3_drop3_0_split
I0520 19:56:26.580528 32766 net.cpp:106] Creating Layer ip3_drop3_0_split
I0520 19:56:26.580538 32766 net.cpp:454] ip3_drop3_0_split <- ip3
I0520 19:56:26.580551 32766 net.cpp:411] ip3_drop3_0_split -> ip3_drop3_0_split_0
I0520 19:56:26.580565 32766 net.cpp:411] ip3_drop3_0_split -> ip3_drop3_0_split_1
I0520 19:56:26.580639 32766 net.cpp:150] Setting up ip3_drop3_0_split
I0520 19:56:26.580652 32766 net.cpp:157] Top shape: 250 11 (2750)
I0520 19:56:26.580664 32766 net.cpp:157] Top shape: 250 11 (2750)
I0520 19:56:26.580675 32766 net.cpp:165] Memory required for data: 394719000
I0520 19:56:26.580685 32766 layer_factory.hpp:77] Creating layer accuracy
I0520 19:56:26.580706 32766 net.cpp:106] Creating Layer accuracy
I0520 19:56:26.580716 32766 net.cpp:454] accuracy <- ip3_drop3_0_split_0
I0520 19:56:26.580727 32766 net.cpp:454] accuracy <- label_data_hdf5_1_split_0
I0520 19:56:26.580741 32766 net.cpp:411] accuracy -> accuracy
…
