…
I0521 09:55:06.644165 32608 net.cpp:322] The NetState phase (0) differed from the phase (1) specified by a rule in layer data_hdf5
I0521 09:55:06.644230 32608 net.cpp:322] The NetState phase (0) differed from the phase (1) specified by a rule in layer accuracy
I0521 09:55:06.644608 32608 net.cpp:49] Initializing net from parameters: 
name: "caffe_test_127x50_x_unshifted"
state {
  phase: TRAIN
}
layer {
  name: "data_hdf5"
  type: "HDF5Data"
  top: "data"
  top: "label"
  include {
    phase: TRAIN
  }
  hdf5_data_param {
    source: "/lustre/atlas/proj-shared/hep105/caffe_titan/minosmatch_nukecczdefs_127x50_x_unshifted_me1Bmc.trainlist"
    batch_size: 920
  }
}
layer {
  name: "conv1"
  type: "Convolution"
  bottom: "data"
  top: "conv1"
  convolution_param {
    num_output: 12
    pad: 0
    stride: 1
    weight_filler {
      type: "xavier"
    }
    bias_filler {
      type: "constant"
    }
    kernel_h: 8
    kernel_w: 3
  }
}
layer {
  name: "relu1"
  type: "ReLU"
  bottom: "conv1"
  top: "conv1"
}
layer {
  name: "pool1"
  type: "Pooling"
  bottom: "conv1"
  top: "pool1"
  pooling_param {
    pool: MAX
    kernel_h: 2
    kernel_w: 1
    stride_h: 2
    stride_w: 1
  }
}
layer {
  name: "conv2"
  type: "Convolution"
  bottom: "pool1"
  top: "conv2"
  convolution_param {
    num_output: 20
    pad: 0
    stride: 1
    weight_filler {
      type: "xavier"
    }
    bias_filler {
      type: "constant"
    }
    kernel_h: 7
    kernel_w: 3
  }
}
layer {
  name: "relu2"
  type: "ReLU"
  bottom: "conv2"
  top: "conv2"
}
layer {
  name: "pool2"
  type: "Pooling"
  bottom: "conv2"
  top: "pool2"
  pooling_param {
    pool: MAX
    kernel_h: 2
    kernel_w: 1
    stride_h: 2
    stride_w: 1
  }
}
layer {
  name: "conv3"
  type: "Convolution"
  bottom: "pool2"
  top: "conv3"
  convolution_param {
    num_output: 28
    pad: 0
    stride: 1
    weight_filler {
      type: "xavier"
    }
    bias_filler {
      type: "constant"
    }
    kernel_h: 6
    kernel_w: 3
  }
}
layer {
  name: "relu3"
  type: "ReLU"
  bottom: "conv3"
  top: "conv3"
}
layer {
  name: "pool3"
  type: "Pooling"
  bottom: "conv3"
  top: "pool3"
  pooling_param {
    pool: MAX
    kernel_h: 2
    kernel_w: 1
    stride_h: 2
    stride_w: 1
  }
}
layer {
  name: "conv4"
  type: "Convolution"
  bottom: "pool3"
  top: "conv4"
  convolution_param {
    num_output: 36
    pad: 0
    stride: 1
    weight_filler {
      type: "xavier"
    }
    bias_filler {
      type: "constant"
    }
    kernel_h: 6
    kernel_w: 3
  }
}
layer {
  name: "relu4"
  type: "ReLU"
  bottom: "conv4"
  top: "conv4"
}
layer {
  name: "pool4"
  type: "Pooling"
  bottom: "conv4"
  top: "pool4"
  pooling_param {
    pool: MAX
    kernel_h: 2
    kernel_w: 1
    stride_h: 2
    stride_w: 1
  }
}
layer {
  name: "ip1"
  type: "InnerProduct"
  bottom: "pool4"
  top: "ip1"
  inner_product_param {
    num_output: 196
    weight_filler {
      type: "xavier"
    }
    bias_filler {
      type: "constant"
    }
  }
}
layer {
  name: "relu5"
  type: "ReLU"
  bottom: "ip1"
  top: "ip1"
}
layer {
  name: "drop1"
  type: "Dropout"
  bottom: "ip1"
  top: "ip1"
  dropout_param {
    dropout_ratio: 0.5
  }
}
layer {
  name: "ip2"
  type: "InnerProduct"
  bottom: "ip1"
  top: "ip2"
  inner_product_param {
    num_output: 98
    weight_filler {
      type: "xavier"
    }
    bias_filler {
      type: "constant"
    }
  }
}
layer {
  name: "relu6"
  type: "ReLU"
  bottom: "ip2"
  top: "ip2"
}
layer {
  name: "drop2"
  type: "Dropout"
  bottom: "ip2"
  top: "ip2"
  dropout_param {
    dropout_ratio: 0.5
  }
}
layer {
  name: "ip3"
  type: "InnerProduct"
  bottom: "ip2"
  top: "ip3"
  inner_product_param {
    num_output: 11
    weight_filler {
      type: "xavier"
    }
    bias_filler {
      type: "constant"
    }
  }
}
layer {
  name: "drop3"
  type: "Dropout"
  bottom: "ip3"
  top: "ip3"
  dropout_param {
    dropout_ratio: 0.5
  }
}
layer {
  name: "loss"
  type: "SoftmaxWithLoss"
  bottom: "ip3"
  bottom: "label"
  top: "loss"
}
I0521 09:55:06.644814 32608 layer_factory.hpp:77] Creating layer data_hdf5
I0521 09:55:06.644850 32608 net.cpp:106] Creating Layer data_hdf5
I0521 09:55:06.644870 32608 net.cpp:411] data_hdf5 -> data
I0521 09:55:06.644909 32608 net.cpp:411] data_hdf5 -> label
I0521 09:55:06.644948 32608 hdf5_data_layer.cpp:79] Loading list of HDF5 filenames from: /lustre/atlas/proj-shared/hep105/caffe_titan/minosmatch_nukecczdefs_127x50_x_unshifted_me1Bmc.trainlist
I0521 09:55:06.646153 32608 hdf5_data_layer.cpp:93] Number of HDF5 files: 15
I0521 09:55:06.648401 32608 hdf5.cpp:32] Datatype class: H5T_FLOAT
I0521 09:55:28.197346 32608 hdf5.cpp:35] Datatype class: H5T_INTEGER
I0521 09:55:28.202527 32608 net.cpp:150] Setting up data_hdf5
I0521 09:55:28.202569 32608 net.cpp:157] Top shape: 920 1 127 50 (5842000)
I0521 09:55:28.202585 32608 net.cpp:157] Top shape: 920 (920)
I0521 09:55:28.202599 32608 net.cpp:165] Memory required for data: 23371680
I0521 09:55:28.202617 32608 layer_factory.hpp:77] Creating layer conv1
I0521 09:55:28.202664 32608 net.cpp:106] Creating Layer conv1
I0521 09:55:28.202678 32608 net.cpp:454] conv1 <- data
I0521 09:55:28.202702 32608 net.cpp:411] conv1 -> conv1
I0521 09:55:28.569376 32608 net.cpp:150] Setting up conv1
I0521 09:55:28.569430 32608 net.cpp:157] Top shape: 920 12 120 48 (63590400)
I0521 09:55:28.569445 32608 net.cpp:165] Memory required for data: 277733280
I0521 09:55:28.569475 32608 layer_factory.hpp:77] Creating layer relu1
I0521 09:55:28.569504 32608 net.cpp:106] Creating Layer relu1
I0521 09:55:28.569538 32608 net.cpp:454] relu1 <- conv1
I0521 09:55:28.569555 32608 net.cpp:397] relu1 -> conv1 (in-place)
I0521 09:55:28.570088 32608 net.cpp:150] Setting up relu1
I0521 09:55:28.570112 32608 net.cpp:157] Top shape: 920 12 120 48 (63590400)
I0521 09:55:28.570127 32608 net.cpp:165] Memory required for data: 532094880
I0521 09:55:28.570138 32608 layer_factory.hpp:77] Creating layer pool1
I0521 09:55:28.570169 32608 net.cpp:106] Creating Layer pool1
I0521 09:55:28.570183 32608 net.cpp:454] pool1 <- conv1
I0521 09:55:28.570199 32608 net.cpp:411] pool1 -> pool1
I0521 09:55:28.570291 32608 net.cpp:150] Setting up pool1
I0521 09:55:28.570309 32608 net.cpp:157] Top shape: 920 12 60 48 (31795200)
I0521 09:55:28.570324 32608 net.cpp:165] Memory required for data: 659275680
I0521 09:55:28.570348 32608 layer_factory.hpp:77] Creating layer conv2
I0521 09:55:28.570372 32608 net.cpp:106] Creating Layer conv2
I0521 09:55:28.570394 32608 net.cpp:454] conv2 <- pool1
I0521 09:55:28.570410 32608 net.cpp:411] conv2 -> conv2
I0521 09:55:28.573104 32608 net.cpp:150] Setting up conv2
I0521 09:55:28.573134 32608 net.cpp:157] Top shape: 920 20 54 46 (45705600)
I0521 09:55:28.573148 32608 net.cpp:165] Memory required for data: 842098080
I0521 09:55:28.573176 32608 layer_factory.hpp:77] Creating layer relu2
I0521 09:55:28.573204 32608 net.cpp:106] Creating Layer relu2
I0521 09:55:28.573220 32608 net.cpp:454] relu2 <- conv2
I0521 09:55:28.573235 32608 net.cpp:397] relu2 -> conv2 (in-place)
I0521 09:55:28.573590 32608 net.cpp:150] Setting up relu2
I0521 09:55:28.573611 32608 net.cpp:157] Top shape: 920 20 54 46 (45705600)
I0521 09:55:28.573623 32608 net.cpp:165] Memory required for data: 1024920480
I0521 09:55:28.573637 32608 layer_factory.hpp:77] Creating layer pool2
I0521 09:55:28.573662 32608 net.cpp:106] Creating Layer pool2
I0521 09:55:28.573675 32608 net.cpp:454] pool2 <- conv2
I0521 09:55:28.573710 32608 net.cpp:411] pool2 -> pool2
I0521 09:55:28.573794 32608 net.cpp:150] Setting up pool2
I0521 09:55:28.573812 32608 net.cpp:157] Top shape: 920 20 27 46 (22852800)
I0521 09:55:28.573824 32608 net.cpp:165] Memory required for data: 1116331680
I0521 09:55:28.573845 32608 layer_factory.hpp:77] Creating layer conv3
I0521 09:55:28.573868 32608 net.cpp:106] Creating Layer conv3
I0521 09:55:28.573880 32608 net.cpp:454] conv3 <- pool2
I0521 09:55:28.573897 32608 net.cpp:411] conv3 -> conv3
I0521 09:55:28.575841 32608 net.cpp:150] Setting up conv3
I0521 09:55:28.575866 32608 net.cpp:157] Top shape: 920 28 22 44 (24935680)
I0521 09:55:28.575886 32608 net.cpp:165] Memory required for data: 1216074400
I0521 09:55:28.575909 32608 layer_factory.hpp:77] Creating layer relu3
I0521 09:55:28.575932 32608 net.cpp:106] Creating Layer relu3
I0521 09:55:28.575953 32608 net.cpp:454] relu3 <- conv3
I0521 09:55:28.575969 32608 net.cpp:397] relu3 -> conv3 (in-place)
I0521 09:55:28.576453 32608 net.cpp:150] Setting up relu3
I0521 09:55:28.576478 32608 net.cpp:157] Top shape: 920 28 22 44 (24935680)
I0521 09:55:28.576490 32608 net.cpp:165] Memory required for data: 1315817120
I0521 09:55:28.576506 32608 layer_factory.hpp:77] Creating layer pool3
I0521 09:55:28.576530 32608 net.cpp:106] Creating Layer pool3
I0521 09:55:28.576545 32608 net.cpp:454] pool3 <- conv3
I0521 09:55:28.576560 32608 net.cpp:411] pool3 -> pool3
I0521 09:55:28.576640 32608 net.cpp:150] Setting up pool3
I0521 09:55:28.576663 32608 net.cpp:157] Top shape: 920 28 11 44 (12467840)
I0521 09:55:28.576675 32608 net.cpp:165] Memory required for data: 1365688480
I0521 09:55:28.576690 32608 layer_factory.hpp:77] Creating layer conv4
I0521 09:55:28.576716 32608 net.cpp:106] Creating Layer conv4
I0521 09:55:28.576730 32608 net.cpp:454] conv4 <- pool3
I0521 09:55:28.576747 32608 net.cpp:411] conv4 -> conv4
I0521 09:55:28.579493 32608 net.cpp:150] Setting up conv4
I0521 09:55:28.579524 32608 net.cpp:157] Top shape: 920 36 6 42 (8346240)
I0521 09:55:28.579540 32608 net.cpp:165] Memory required for data: 1399073440
I0521 09:55:28.579560 32608 layer_factory.hpp:77] Creating layer relu4
I0521 09:55:28.579581 32608 net.cpp:106] Creating Layer relu4
I0521 09:55:28.579607 32608 net.cpp:454] relu4 <- conv4
I0521 09:55:28.579623 32608 net.cpp:397] relu4 -> conv4 (in-place)
I0521 09:55:28.580111 32608 net.cpp:150] Setting up relu4
I0521 09:55:28.580134 32608 net.cpp:157] Top shape: 920 36 6 42 (8346240)
I0521 09:55:28.580148 32608 net.cpp:165] Memory required for data: 1432458400
I0521 09:55:28.580164 32608 layer_factory.hpp:77] Creating layer pool4
I0521 09:55:28.580179 32608 net.cpp:106] Creating Layer pool4
I0521 09:55:28.580201 32608 net.cpp:454] pool4 <- conv4
I0521 09:55:28.580217 32608 net.cpp:411] pool4 -> pool4
I0521 09:55:28.580298 32608 net.cpp:150] Setting up pool4
I0521 09:55:28.580322 32608 net.cpp:157] Top shape: 920 36 3 42 (4173120)
I0521 09:55:28.580335 32608 net.cpp:165] Memory required for data: 1449150880
I0521 09:55:28.580350 32608 layer_factory.hpp:77] Creating layer ip1
I0521 09:55:28.580379 32608 net.cpp:106] Creating Layer ip1
I0521 09:55:28.580392 32608 net.cpp:454] ip1 <- pool4
I0521 09:55:28.580409 32608 net.cpp:411] ip1 -> ip1
I0521 09:55:28.595829 32608 net.cpp:150] Setting up ip1
I0521 09:55:28.595860 32608 net.cpp:157] Top shape: 920 196 (180320)
I0521 09:55:28.595882 32608 net.cpp:165] Memory required for data: 1449872160
I0521 09:55:28.595908 32608 layer_factory.hpp:77] Creating layer relu5
I0521 09:55:28.595930 32608 net.cpp:106] Creating Layer relu5
I0521 09:55:28.595957 32608 net.cpp:454] relu5 <- ip1
I0521 09:55:28.595973 32608 net.cpp:397] relu5 -> ip1 (in-place)
I0521 09:55:28.596328 32608 net.cpp:150] Setting up relu5
I0521 09:55:28.596349 32608 net.cpp:157] Top shape: 920 196 (180320)
I0521 09:55:28.596361 32608 net.cpp:165] Memory required for data: 1450593440
I0521 09:55:28.596377 32608 layer_factory.hpp:77] Creating layer drop1
I0521 09:55:28.596407 32608 net.cpp:106] Creating Layer drop1
I0521 09:55:28.596421 32608 net.cpp:454] drop1 <- ip1
I0521 09:55:28.596449 32608 net.cpp:397] drop1 -> ip1 (in-place)
I0521 09:55:28.596508 32608 net.cpp:150] Setting up drop1
I0521 09:55:28.596534 32608 net.cpp:157] Top shape: 920 196 (180320)
I0521 09:55:28.596546 32608 net.cpp:165] Memory required for data: 1451314720
I0521 09:55:28.596559 32608 layer_factory.hpp:77] Creating layer ip2
I0521 09:55:28.596588 32608 net.cpp:106] Creating Layer ip2
I0521 09:55:28.596602 32608 net.cpp:454] ip2 <- ip1
I0521 09:55:28.596619 32608 net.cpp:411] ip2 -> ip2
I0521 09:55:28.597112 32608 net.cpp:150] Setting up ip2
I0521 09:55:28.597131 32608 net.cpp:157] Top shape: 920 98 (90160)
I0521 09:55:28.597144 32608 net.cpp:165] Memory required for data: 1451675360
I0521 09:55:28.597164 32608 layer_factory.hpp:77] Creating layer relu6
I0521 09:55:28.597180 32608 net.cpp:106] Creating Layer relu6
I0521 09:55:28.597201 32608 net.cpp:454] relu6 <- ip2
I0521 09:55:28.597216 32608 net.cpp:397] relu6 -> ip2 (in-place)
I0521 09:55:28.597767 32608 net.cpp:150] Setting up relu6
I0521 09:55:28.597790 32608 net.cpp:157] Top shape: 920 98 (90160)
I0521 09:55:28.597805 32608 net.cpp:165] Memory required for data: 1452036000
I0521 09:55:28.597820 32608 layer_factory.hpp:77] Creating layer drop2
I0521 09:55:28.597842 32608 net.cpp:106] Creating Layer drop2
I0521 09:55:28.597856 32608 net.cpp:454] drop2 <- ip2
I0521 09:55:28.597872 32608 net.cpp:397] drop2 -> ip2 (in-place)
I0521 09:55:28.597920 32608 net.cpp:150] Setting up drop2
I0521 09:55:28.597944 32608 net.cpp:157] Top shape: 920 98 (90160)
I0521 09:55:28.597956 32608 net.cpp:165] Memory required for data: 1452396640
I0521 09:55:28.597975 32608 layer_factory.hpp:77] Creating layer ip3
I0521 09:55:28.597991 32608 net.cpp:106] Creating Layer ip3
I0521 09:55:28.598006 32608 net.cpp:454] ip3 <- ip2
I0521 09:55:28.598022 32608 net.cpp:411] ip3 -> ip3
I0521 09:55:28.598253 32608 net.cpp:150] Setting up ip3
I0521 09:55:28.598271 32608 net.cpp:157] Top shape: 920 11 (10120)
I0521 09:55:28.598284 32608 net.cpp:165] Memory required for data: 1452437120
I0521 09:55:28.598305 32608 layer_factory.hpp:77] Creating layer drop3
I0521 09:55:28.598326 32608 net.cpp:106] Creating Layer drop3
I0521 09:55:28.598346 32608 net.cpp:454] drop3 <- ip3
I0521 09:55:28.598361 32608 net.cpp:397] drop3 -> ip3 (in-place)
I0521 09:55:28.598407 32608 net.cpp:150] Setting up drop3
I0521 09:55:28.598431 32608 net.cpp:157] Top shape: 920 11 (10120)
I0521 09:55:28.598444 32608 net.cpp:165] Memory required for data: 1452477600
I0521 09:55:28.598456 32608 layer_factory.hpp:77] Creating layer loss
I0521 09:55:28.598479 32608 net.cpp:106] Creating Layer loss
I0521 09:55:28.598492 32608 net.cpp:454] loss <- ip3
I0521 09:55:28.598513 32608 net.cpp:454] loss <- label
I0521 09:55:28.598528 32608 net.cpp:411] loss -> loss
I0521 09:55:28.598548 32608 layer_factory.hpp:77] Creating layer loss
…
I0521 09:55:28.601284 32608 solver.cpp:181] Creating test net (#0) specified by net file: /lustre/atlas/proj-shared/hep105/caffe_titan/caffe_workflow/logs_batch_size_test/batch_size_920_2016-05-20T11.21.06.248795.prototxt
I0521 09:55:28.601362 32608 net.cpp:322] The NetState phase (1) differed from the phase (0) specified by a rule in layer data_hdf5
I0521 09:55:28.601744 32608 net.cpp:49] Initializing net from parameters: 
name: "caffe_test_127x50_x_unshifted"
state {
  phase: TEST
}
layer {
  name: "data_hdf5"
  type: "HDF5Data"
  top: "data"
  top: "label"
  include {
    phase: TEST
  }
  hdf5_data_param {
    source: "/lustre/atlas/proj-shared/hep105/caffe_titan/minosmatch_nukecczdefs_127x50_x_unshifted_me1Bmc.testlist"
    batch_size: 920
  }
}
layer {
  name: "conv1"
  type: "Convolution"
  bottom: "data"
  top: "conv1"
  convolution_param {
    num_output: 12
    pad: 0
    stride: 1
    weight_filler {
      type: "xavier"
    }
    bias_filler {
      type: "constant"
    }
    kernel_h: 8
    kernel_w: 3
  }
}
layer {
  name: "relu1"
  type: "ReLU"
  bottom: "conv1"
  top: "conv1"
}
layer {
  name: "pool1"
  type: "Pooling"
  bottom: "conv1"
  top: "pool1"
  pooling_param {
    pool: MAX
    kernel_h: 2
    kernel_w: 1
    stride_h: 2
    stride_w: 1
  }
}
layer {
  name: "conv2"
  type: "Convolution"
  bottom: "pool1"
  top: "conv2"
  convolution_param {
    num_output: 20
    pad: 0
    stride: 1
    weight_filler {
      type: "xavier"
    }
    bias_filler {
      type: "constant"
    }
    kernel_h: 7
    kernel_w: 3
  }
}
layer {
  name: "relu2"
  type: "ReLU"
  bottom: "conv2"
  top: "conv2"
}
layer {
  name: "pool2"
  type: "Pooling"
  bottom: "conv2"
  top: "pool2"
  pooling_param {
    pool: MAX
    kernel_h: 2
    kernel_w: 1
    stride_h: 2
    stride_w: 1
  }
}
layer {
  name: "conv3"
  type: "Convolution"
  bottom: "pool2"
  top: "conv3"
  convolution_param {
    num_output: 28
    pad: 0
    stride: 1
    weight_filler {
      type: "xavier"
    }
    bias_filler {
      type: "constant"
    }
    kernel_h: 6
    kernel_w: 3
  }
}
layer {
  name: "relu3"
  type: "ReLU"
  bottom: "conv3"
  top: "conv3"
}
layer {
  name: "pool3"
  type: "Pooling"
  bottom: "conv3"
  top: "pool3"
  pooling_param {
    pool: MAX
    kernel_h: 2
    kernel_w: 1
    stride_h: 2
    stride_w: 1
  }
}
layer {
  name: "conv4"
  type: "Convolution"
  bottom: "pool3"
  top: "conv4"
  convolution_param {
    num_output: 36
    pad: 0
    stride: 1
    weight_filler {
      type: "xavier"
    }
    bias_filler {
      type: "constant"
    }
    kernel_h: 6
    kernel_w: 3
  }
}
layer {
  name: "relu4"
  type: "ReLU"
  bottom: "conv4"
  top: "conv4"
}
layer {
  name: "pool4"
  type: "Pooling"
  bottom: "conv4"
  top: "pool4"
  pooling_param {
    pool: MAX
    kernel_h: 2
    kernel_w: 1
    stride_h: 2
    stride_w: 1
  }
}
layer {
  name: "ip1"
  type: "InnerProduct"
  bottom: "pool4"
  top: "ip1"
  inner_product_param {
    num_output: 196
    weight_filler {
      type: "xavier"
    }
    bias_filler {
      type: "constant"
    }
  }
}
layer {
  name: "relu5"
  type: "ReLU"
  bottom: "ip1"
  top: "ip1"
}
layer {
  name: "drop1"
  type: "Dropout"
  bottom: "ip1"
  top: "ip1"
  dropout_param {
    dropout_ratio: 0.5
  }
}
layer {
  name: "ip2"
  type: "InnerProduct"
  bottom: "ip1"
  top: "ip2"
  inner_product_param {
    num_output: 98
    weight_filler {
      type: "xavier"
    }
    bias_filler {
      type: "constant"
    }
  }
}
layer {
  name: "relu6"
  type: "ReLU"
  bottom: "ip2"
  top: "ip2"
}
layer {
  name: "drop2"
  type: "Dropout"
  bottom: "ip2"
  top: "ip2"
  dropout_param {
    dropout_ratio: 0.5
  }
}
layer {
  name: "ip3"
  type: "InnerProduct"
  bottom: "ip2"
  top: "ip3"
  inner_product_param {
    num_output: 11
    weight_filler {
      type: "xavier"
    }
    bias_filler {
      type: "constant"
    }
  }
}
layer {
  name: "drop3"
  type: "Dropout"
  bottom: "ip3"
  top: "ip3"
  dropout_param {
    dropout_ratio: 0.5
  }
}
layer {
  name: "accuracy"
  type: "Accuracy"
  bottom: "ip3"
  bottom: "label"
  top: "accuracy"
  include {
    phase: TEST
  }
}
layer {
  name: "loss"
  type: "SoftmaxWithLoss"
  bottom: "ip3"
  bottom: "label"
  top: "loss"
}
I0521 09:55:28.601966 32608 layer_factory.hpp:77] Creating layer data_hdf5
I0521 09:55:28.601986 32608 net.cpp:106] Creating Layer data_hdf5
I0521 09:55:28.602001 32608 net.cpp:411] data_hdf5 -> data
I0521 09:55:28.602020 32608 net.cpp:411] data_hdf5 -> label
I0521 09:55:28.602041 32608 hdf5_data_layer.cpp:79] Loading list of HDF5 filenames from: /lustre/atlas/proj-shared/hep105/caffe_titan/minosmatch_nukecczdefs_127x50_x_unshifted_me1Bmc.testlist
I0521 09:55:28.603189 32608 hdf5_data_layer.cpp:93] Number of HDF5 files: 3
I0521 09:55:49.968348 32608 net.cpp:150] Setting up data_hdf5
I0521 09:55:49.968518 32608 net.cpp:157] Top shape: 920 1 127 50 (5842000)
I0521 09:55:49.968535 32608 net.cpp:157] Top shape: 920 (920)
I0521 09:55:49.968549 32608 net.cpp:165] Memory required for data: 23371680
I0521 09:55:49.968564 32608 layer_factory.hpp:77] Creating layer label_data_hdf5_1_split
I0521 09:55:49.968597 32608 net.cpp:106] Creating Layer label_data_hdf5_1_split
I0521 09:55:49.968611 32608 net.cpp:454] label_data_hdf5_1_split <- label
I0521 09:55:49.968646 32608 net.cpp:411] label_data_hdf5_1_split -> label_data_hdf5_1_split_0
I0521 09:55:49.968668 32608 net.cpp:411] label_data_hdf5_1_split -> label_data_hdf5_1_split_1
I0521 09:55:49.968750 32608 net.cpp:150] Setting up label_data_hdf5_1_split
I0521 09:55:49.968775 32608 net.cpp:157] Top shape: 920 (920)
I0521 09:55:49.968789 32608 net.cpp:157] Top shape: 920 (920)
I0521 09:55:49.968813 32608 net.cpp:165] Memory required for data: 23379040
I0521 09:55:49.968827 32608 layer_factory.hpp:77] Creating layer conv1
I0521 09:55:49.968866 32608 net.cpp:106] Creating Layer conv1
I0521 09:55:49.968881 32608 net.cpp:454] conv1 <- data
I0521 09:55:49.968899 32608 net.cpp:411] conv1 -> conv1
I0521 09:55:49.970861 32608 net.cpp:150] Setting up conv1
I0521 09:55:49.970886 32608 net.cpp:157] Top shape: 920 12 120 48 (63590400)
I0521 09:55:49.970906 32608 net.cpp:165] Memory required for data: 277740640
I0521 09:55:49.970929 32608 layer_factory.hpp:77] Creating layer relu1
I0521 09:55:49.970952 32608 net.cpp:106] Creating Layer relu1
I0521 09:55:49.970974 32608 net.cpp:454] relu1 <- conv1
I0521 09:55:49.970990 32608 net.cpp:397] relu1 -> conv1 (in-place)
I0521 09:55:49.971503 32608 net.cpp:150] Setting up relu1
I0521 09:55:49.971526 32608 net.cpp:157] Top shape: 920 12 120 48 (63590400)
I0521 09:55:49.971540 32608 net.cpp:165] Memory required for data: 532102240
I0521 09:55:49.971554 32608 layer_factory.hpp:77] Creating layer pool1
I0521 09:55:49.971583 32608 net.cpp:106] Creating Layer pool1
I0521 09:55:49.971597 32608 net.cpp:454] pool1 <- conv1
I0521 09:55:49.971613 32608 net.cpp:411] pool1 -> pool1
I0521 09:55:49.971703 32608 net.cpp:150] Setting up pool1
I0521 09:55:49.971719 32608 net.cpp:157] Top shape: 920 12 60 48 (31795200)
I0521 09:55:49.971735 32608 net.cpp:165] Memory required for data: 659283040
I0521 09:55:49.971752 32608 layer_factory.hpp:77] Creating layer conv2
I0521 09:55:49.971773 32608 net.cpp:106] Creating Layer conv2
I0521 09:55:49.971786 32608 net.cpp:454] conv2 <- pool1
I0521 09:55:49.971803 32608 net.cpp:411] conv2 -> conv2
I0521 09:55:49.973762 32608 net.cpp:150] Setting up conv2
I0521 09:55:49.973785 32608 net.cpp:157] Top shape: 920 20 54 46 (45705600)
I0521 09:55:49.973806 32608 net.cpp:165] Memory required for data: 842105440
I0521 09:55:49.973829 32608 layer_factory.hpp:77] Creating layer relu2
I0521 09:55:49.973848 32608 net.cpp:106] Creating Layer relu2
I0521 09:55:49.973870 32608 net.cpp:454] relu2 <- conv2
I0521 09:55:49.973886 32608 net.cpp:397] relu2 -> conv2 (in-place)
I0521 09:55:49.974236 32608 net.cpp:150] Setting up relu2
I0521 09:55:49.974256 32608 net.cpp:157] Top shape: 920 20 54 46 (45705600)
I0521 09:55:49.974268 32608 net.cpp:165] Memory required for data: 1024927840
I0521 09:55:49.974284 32608 layer_factory.hpp:77] Creating layer pool2
I0521 09:55:49.974306 32608 net.cpp:106] Creating Layer pool2
I0521 09:55:49.974320 32608 net.cpp:454] pool2 <- conv2
I0521 09:55:49.974335 32608 net.cpp:411] pool2 -> pool2
I0521 09:55:49.974422 32608 net.cpp:150] Setting up pool2
I0521 09:55:49.974441 32608 net.cpp:157] Top shape: 920 20 27 46 (22852800)
I0521 09:55:49.974455 32608 net.cpp:165] Memory required for data: 1116339040
I0521 09:55:49.974473 32608 layer_factory.hpp:77] Creating layer conv3
I0521 09:55:49.974496 32608 net.cpp:106] Creating Layer conv3
I0521 09:55:49.974509 32608 net.cpp:454] conv3 <- pool2
I0521 09:55:49.974526 32608 net.cpp:411] conv3 -> conv3
I0521 09:55:49.976533 32608 net.cpp:150] Setting up conv3
I0521 09:55:49.976558 32608 net.cpp:157] Top shape: 920 28 22 44 (24935680)
I0521 09:55:49.976577 32608 net.cpp:165] Memory required for data: 1216081760
I0521 09:55:49.976618 32608 layer_factory.hpp:77] Creating layer relu3
I0521 09:55:49.976642 32608 net.cpp:106] Creating Layer relu3
I0521 09:55:49.976656 32608 net.cpp:454] relu3 <- conv3
I0521 09:55:49.976671 32608 net.cpp:397] relu3 -> conv3 (in-place)
I0521 09:55:49.977176 32608 net.cpp:150] Setting up relu3
I0521 09:55:49.977200 32608 net.cpp:157] Top shape: 920 28 22 44 (24935680)
I0521 09:55:49.977215 32608 net.cpp:165] Memory required for data: 1315824480
I0521 09:55:49.977231 32608 layer_factory.hpp:77] Creating layer pool3
I0521 09:55:49.977255 32608 net.cpp:106] Creating Layer pool3
I0521 09:55:49.977269 32608 net.cpp:454] pool3 <- conv3
I0521 09:55:49.977285 32608 net.cpp:411] pool3 -> pool3
I0521 09:55:49.977370 32608 net.cpp:150] Setting up pool3
I0521 09:55:49.977388 32608 net.cpp:157] Top shape: 920 28 11 44 (12467840)
I0521 09:55:49.977402 32608 net.cpp:165] Memory required for data: 1365695840
I0521 09:55:49.977414 32608 layer_factory.hpp:77] Creating layer conv4
I0521 09:55:49.977444 32608 net.cpp:106] Creating Layer conv4
I0521 09:55:49.977458 32608 net.cpp:454] conv4 <- pool3
I0521 09:55:49.977475 32608 net.cpp:411] conv4 -> conv4
I0521 09:55:49.979559 32608 net.cpp:150] Setting up conv4
I0521 09:55:49.979583 32608 net.cpp:157] Top shape: 920 36 6 42 (8346240)
I0521 09:55:49.979604 32608 net.cpp:165] Memory required for data: 1399080800
I0521 09:55:49.979624 32608 layer_factory.hpp:77] Creating layer relu4
I0521 09:55:49.979642 32608 net.cpp:106] Creating Layer relu4
I0521 09:55:49.979655 32608 net.cpp:454] relu4 <- conv4
I0521 09:55:49.979681 32608 net.cpp:397] relu4 -> conv4 (in-place)
I0521 09:55:49.980168 32608 net.cpp:150] Setting up relu4
I0521 09:55:49.980191 32608 net.cpp:157] Top shape: 920 36 6 42 (8346240)
I0521 09:55:49.980204 32608 net.cpp:165] Memory required for data: 1432465760
I0521 09:55:49.980221 32608 layer_factory.hpp:77] Creating layer pool4
I0521 09:55:49.980245 32608 net.cpp:106] Creating Layer pool4
I0521 09:55:49.980258 32608 net.cpp:454] pool4 <- conv4
I0521 09:55:49.980275 32608 net.cpp:411] pool4 -> pool4
I0521 09:55:49.980361 32608 net.cpp:150] Setting up pool4
I0521 09:55:49.980378 32608 net.cpp:157] Top shape: 920 36 3 42 (4173120)
I0521 09:55:49.980393 32608 net.cpp:165] Memory required for data: 1449158240
I0521 09:55:49.980406 32608 layer_factory.hpp:77] Creating layer ip1
I0521 09:55:49.980430 32608 net.cpp:106] Creating Layer ip1
I0521 09:55:49.980443 32608 net.cpp:454] ip1 <- pool4
I0521 09:55:49.980459 32608 net.cpp:411] ip1 -> ip1
I0521 09:55:49.995928 32608 net.cpp:150] Setting up ip1
I0521 09:55:49.995960 32608 net.cpp:157] Top shape: 920 196 (180320)
I0521 09:55:49.995981 32608 net.cpp:165] Memory required for data: 1449879520
I0521 09:55:49.996007 32608 layer_factory.hpp:77] Creating layer relu5
I0521 09:55:49.996029 32608 net.cpp:106] Creating Layer relu5
I0521 09:55:49.996054 32608 net.cpp:454] relu5 <- ip1
I0521 09:55:49.996071 32608 net.cpp:397] relu5 -> ip1 (in-place)
I0521 09:55:49.996434 32608 net.cpp:150] Setting up relu5
I0521 09:55:49.996454 32608 net.cpp:157] Top shape: 920 196 (180320)
I0521 09:55:49.996467 32608 net.cpp:165] Memory required for data: 1450600800
I0521 09:55:49.996482 32608 layer_factory.hpp:77] Creating layer drop1
I0521 09:55:49.996511 32608 net.cpp:106] Creating Layer drop1
I0521 09:55:49.996526 32608 net.cpp:454] drop1 <- ip1
I0521 09:55:49.996541 32608 net.cpp:397] drop1 -> ip1 (in-place)
I0521 09:55:49.996599 32608 net.cpp:150] Setting up drop1
I0521 09:55:49.996615 32608 net.cpp:157] Top shape: 920 196 (180320)
I0521 09:55:49.996628 32608 net.cpp:165] Memory required for data: 1451322080
I0521 09:55:49.996641 32608 layer_factory.hpp:77] Creating layer ip2
I0521 09:55:49.996662 32608 net.cpp:106] Creating Layer ip2
I0521 09:55:49.996675 32608 net.cpp:454] ip2 <- ip1
I0521 09:55:49.996698 32608 net.cpp:411] ip2 -> ip2
I0521 09:55:49.997198 32608 net.cpp:150] Setting up ip2
I0521 09:55:49.997217 32608 net.cpp:157] Top shape: 920 98 (90160)
I0521 09:55:49.997231 32608 net.cpp:165] Memory required for data: 1451682720
I0521 09:55:49.997263 32608 layer_factory.hpp:77] Creating layer relu6
I0521 09:55:49.997287 32608 net.cpp:106] Creating Layer relu6
I0521 09:55:49.997300 32608 net.cpp:454] relu6 <- ip2
I0521 09:55:49.997316 32608 net.cpp:397] relu6 -> ip2 (in-place)
I0521 09:55:49.997881 32608 net.cpp:150] Setting up relu6
I0521 09:55:49.997905 32608 net.cpp:157] Top shape: 920 98 (90160)
I0521 09:55:49.997917 32608 net.cpp:165] Memory required for data: 1452043360
I0521 09:55:49.997930 32608 layer_factory.hpp:77] Creating layer drop2
I0521 09:55:49.997949 32608 net.cpp:106] Creating Layer drop2
I0521 09:55:49.997970 32608 net.cpp:454] drop2 <- ip2
I0521 09:55:49.997987 32608 net.cpp:397] drop2 -> ip2 (in-place)
I0521 09:55:49.998037 32608 net.cpp:150] Setting up drop2
I0521 09:55:49.998060 32608 net.cpp:157] Top shape: 920 98 (90160)
I0521 09:55:49.998073 32608 net.cpp:165] Memory required for data: 1452404000
I0521 09:55:49.998087 32608 layer_factory.hpp:77] Creating layer ip3
I0521 09:55:49.998103 32608 net.cpp:106] Creating Layer ip3
I0521 09:55:49.998118 32608 net.cpp:454] ip3 <- ip2
I0521 09:55:49.998142 32608 net.cpp:411] ip3 -> ip3
I0521 09:55:49.998380 32608 net.cpp:150] Setting up ip3
I0521 09:55:49.998399 32608 net.cpp:157] Top shape: 920 11 (10120)
I0521 09:55:49.998412 32608 net.cpp:165] Memory required for data: 1452444480
I0521 09:55:49.998433 32608 layer_factory.hpp:77] Creating layer drop3
I0521 09:55:49.998456 32608 net.cpp:106] Creating Layer drop3
I0521 09:55:49.998469 32608 net.cpp:454] drop3 <- ip3
I0521 09:55:49.998484 32608 net.cpp:397] drop3 -> ip3 (in-place)
I0521 09:55:49.998539 32608 net.cpp:150] Setting up drop3
I0521 09:55:49.998555 32608 net.cpp:157] Top shape: 920 11 (10120)
I0521 09:55:49.998569 32608 net.cpp:165] Memory required for data: 1452484960
I0521 09:55:49.998580 32608 layer_factory.hpp:77] Creating layer ip3_drop3_0_split
I0521 09:55:49.998595 32608 net.cpp:106] Creating Layer ip3_drop3_0_split
I0521 09:55:49.998611 32608 net.cpp:454] ip3_drop3_0_split <- ip3
I0521 09:55:49.998633 32608 net.cpp:411] ip3_drop3_0_split -> ip3_drop3_0_split_0
I0521 09:55:49.998651 32608 net.cpp:411] ip3_drop3_0_split -> ip3_drop3_0_split_1
I0521 09:55:49.998740 32608 net.cpp:150] Setting up ip3_drop3_0_split
I0521 09:55:49.998757 32608 net.cpp:157] Top shape: 920 11 (10120)
I0521 09:55:49.998772 32608 net.cpp:157] Top shape: 920 11 (10120)
I0521 09:55:49.998787 32608 net.cpp:165] Memory required for data: 1452565920
I0521 09:55:49.998800 32608 layer_factory.hpp:77] Creating layer accuracy
I0521 09:55:49.998828 32608 net.cpp:106] Creating Layer accuracy
I0521 09:55:49.998842 32608 net.cpp:454] accuracy <- ip3_drop3_0_split_0
I0521 09:55:49.998855 32608 net.cpp:454] accuracy <- label_data_hdf5_1_split_0
I0521 09:55:49.998874 32608 net.cpp:411] accuracy -> accuracy
…
