…
I0521 01:17:28.619729 27299 net.cpp:322] The NetState phase (0) differed from the phase (1) specified by a rule in layer data_hdf5
I0521 01:17:28.619788 27299 net.cpp:322] The NetState phase (0) differed from the phase (1) specified by a rule in layer accuracy
I0521 01:17:28.620143 27299 net.cpp:49] Initializing net from parameters: 
name: "caffe_test_127x50_x_unshifted"
state {
  phase: TRAIN
}
layer {
  name: "data_hdf5"
  type: "HDF5Data"
  top: "data"
  top: "label"
  include {
    phase: TRAIN
  }
  hdf5_data_param {
    source: "/lustre/atlas/proj-shared/hep105/caffe_titan/minosmatch_nukecczdefs_127x50_x_unshifted_me1Bmc.trainlist"
    batch_size: 510
  }
}
layer {
  name: "conv1"
  type: "Convolution"
  bottom: "data"
  top: "conv1"
  convolution_param {
    num_output: 12
    pad: 0
    stride: 1
    weight_filler {
      type: "xavier"
    }
    bias_filler {
      type: "constant"
    }
    kernel_h: 8
    kernel_w: 3
  }
}
layer {
  name: "relu1"
  type: "ReLU"
  bottom: "conv1"
  top: "conv1"
}
layer {
  name: "pool1"
  type: "Pooling"
  bottom: "conv1"
  top: "pool1"
  pooling_param {
    pool: MAX
    kernel_h: 2
    kernel_w: 1
    stride_h: 2
    stride_w: 1
  }
}
layer {
  name: "conv2"
  type: "Convolution"
  bottom: "pool1"
  top: "conv2"
  convolution_param {
    num_output: 20
    pad: 0
    stride: 1
    weight_filler {
      type: "xavier"
    }
    bias_filler {
      type: "constant"
    }
    kernel_h: 7
    kernel_w: 3
  }
}
layer {
  name: "relu2"
  type: "ReLU"
  bottom: "conv2"
  top: "conv2"
}
layer {
  name: "pool2"
  type: "Pooling"
  bottom: "conv2"
  top: "pool2"
  pooling_param {
    pool: MAX
    kernel_h: 2
    kernel_w: 1
    stride_h: 2
    stride_w: 1
  }
}
layer {
  name: "conv3"
  type: "Convolution"
  bottom: "pool2"
  top: "conv3"
  convolution_param {
    num_output: 28
    pad: 0
    stride: 1
    weight_filler {
      type: "xavier"
    }
    bias_filler {
      type: "constant"
    }
    kernel_h: 6
    kernel_w: 3
  }
}
layer {
  name: "relu3"
  type: "ReLU"
  bottom: "conv3"
  top: "conv3"
}
layer {
  name: "pool3"
  type: "Pooling"
  bottom: "conv3"
  top: "pool3"
  pooling_param {
    pool: MAX
    kernel_h: 2
    kernel_w: 1
    stride_h: 2
    stride_w: 1
  }
}
layer {
  name: "conv4"
  type: "Convolution"
  bottom: "pool3"
  top: "conv4"
  convolution_param {
    num_output: 36
    pad: 0
    stride: 1
    weight_filler {
      type: "xavier"
    }
    bias_filler {
      type: "constant"
    }
    kernel_h: 6
    kernel_w: 3
  }
}
layer {
  name: "relu4"
  type: "ReLU"
  bottom: "conv4"
  top: "conv4"
}
layer {
  name: "pool4"
  type: "Pooling"
  bottom: "conv4"
  top: "pool4"
  pooling_param {
    pool: MAX
    kernel_h: 2
    kernel_w: 1
    stride_h: 2
    stride_w: 1
  }
}
layer {
  name: "ip1"
  type: "InnerProduct"
  bottom: "pool4"
  top: "ip1"
  inner_product_param {
    num_output: 196
    weight_filler {
      type: "xavier"
    }
    bias_filler {
      type: "constant"
    }
  }
}
layer {
  name: "relu5"
  type: "ReLU"
  bottom: "ip1"
  top: "ip1"
}
layer {
  name: "drop1"
  type: "Dropout"
  bottom: "ip1"
  top: "ip1"
  dropout_param {
    dropout_ratio: 0.5
  }
}
layer {
  name: "ip2"
  type: "InnerProduct"
  bottom: "ip1"
  top: "ip2"
  inner_product_param {
    num_output: 98
    weight_filler {
      type: "xavier"
    }
    bias_filler {
      type: "constant"
    }
  }
}
layer {
  name: "relu6"
  type: "ReLU"
  bottom: "ip2"
  top: "ip2"
}
layer {
  name: "drop2"
  type: "Dropout"
  bottom: "ip2"
  top: "ip2"
  dropout_param {
    dropout_ratio: 0.5
  }
}
layer {
  name: "ip3"
  type: "InnerProduct"
  bottom: "ip2"
  top: "ip3"
  inner_product_param {
    num_output: 11
    weight_filler {
      type: "xavier"
    }
    bias_filler {
      type: "constant"
    }
  }
}
layer {
  name: "drop3"
  type: "Dropout"
  bottom: "ip3"
  top: "ip3"
  dropout_param {
    dropout_ratio: 0.5
  }
}
layer {
  name: "loss"
  type: "SoftmaxWithLoss"
  bottom: "ip3"
  bottom: "label"
  top: "loss"
}
I0521 01:17:28.620321 27299 layer_factory.hpp:77] Creating layer data_hdf5
I0521 01:17:28.620344 27299 net.cpp:106] Creating Layer data_hdf5
I0521 01:17:28.620358 27299 net.cpp:411] data_hdf5 -> data
I0521 01:17:28.620393 27299 net.cpp:411] data_hdf5 -> label
I0521 01:17:28.620424 27299 hdf5_data_layer.cpp:79] Loading list of HDF5 filenames from: /lustre/atlas/proj-shared/hep105/caffe_titan/minosmatch_nukecczdefs_127x50_x_unshifted_me1Bmc.trainlist
I0521 01:17:28.621664 27299 hdf5_data_layer.cpp:93] Number of HDF5 files: 15
I0521 01:17:28.623872 27299 hdf5.cpp:32] Datatype class: H5T_FLOAT
I0521 01:17:50.159505 27299 hdf5.cpp:35] Datatype class: H5T_INTEGER
I0521 01:17:50.164634 27299 net.cpp:150] Setting up data_hdf5
I0521 01:17:50.164680 27299 net.cpp:157] Top shape: 510 1 127 50 (3238500)
I0521 01:17:50.164695 27299 net.cpp:157] Top shape: 510 (510)
I0521 01:17:50.164705 27299 net.cpp:165] Memory required for data: 12956040
I0521 01:17:50.164718 27299 layer_factory.hpp:77] Creating layer conv1
I0521 01:17:50.164752 27299 net.cpp:106] Creating Layer conv1
I0521 01:17:50.164763 27299 net.cpp:454] conv1 <- data
I0521 01:17:50.164785 27299 net.cpp:411] conv1 -> conv1
I0521 01:17:50.535470 27299 net.cpp:150] Setting up conv1
I0521 01:17:50.535518 27299 net.cpp:157] Top shape: 510 12 120 48 (35251200)
I0521 01:17:50.535529 27299 net.cpp:165] Memory required for data: 153960840
I0521 01:17:50.535557 27299 layer_factory.hpp:77] Creating layer relu1
I0521 01:17:50.535579 27299 net.cpp:106] Creating Layer relu1
I0521 01:17:50.535590 27299 net.cpp:454] relu1 <- conv1
I0521 01:17:50.535604 27299 net.cpp:397] relu1 -> conv1 (in-place)
I0521 01:17:50.536123 27299 net.cpp:150] Setting up relu1
I0521 01:17:50.536139 27299 net.cpp:157] Top shape: 510 12 120 48 (35251200)
I0521 01:17:50.536150 27299 net.cpp:165] Memory required for data: 294965640
I0521 01:17:50.536160 27299 layer_factory.hpp:77] Creating layer pool1
I0521 01:17:50.536176 27299 net.cpp:106] Creating Layer pool1
I0521 01:17:50.536186 27299 net.cpp:454] pool1 <- conv1
I0521 01:17:50.536200 27299 net.cpp:411] pool1 -> pool1
I0521 01:17:50.536278 27299 net.cpp:150] Setting up pool1
I0521 01:17:50.536293 27299 net.cpp:157] Top shape: 510 12 60 48 (17625600)
I0521 01:17:50.536303 27299 net.cpp:165] Memory required for data: 365468040
I0521 01:17:50.536312 27299 layer_factory.hpp:77] Creating layer conv2
I0521 01:17:50.536335 27299 net.cpp:106] Creating Layer conv2
I0521 01:17:50.536345 27299 net.cpp:454] conv2 <- pool1
I0521 01:17:50.536360 27299 net.cpp:411] conv2 -> conv2
I0521 01:17:50.539023 27299 net.cpp:150] Setting up conv2
I0521 01:17:50.539050 27299 net.cpp:157] Top shape: 510 20 54 46 (25336800)
I0521 01:17:50.539062 27299 net.cpp:165] Memory required for data: 466815240
I0521 01:17:50.539080 27299 layer_factory.hpp:77] Creating layer relu2
I0521 01:17:50.539095 27299 net.cpp:106] Creating Layer relu2
I0521 01:17:50.539105 27299 net.cpp:454] relu2 <- conv2
I0521 01:17:50.539118 27299 net.cpp:397] relu2 -> conv2 (in-place)
I0521 01:17:50.539448 27299 net.cpp:150] Setting up relu2
I0521 01:17:50.539461 27299 net.cpp:157] Top shape: 510 20 54 46 (25336800)
I0521 01:17:50.539471 27299 net.cpp:165] Memory required for data: 568162440
I0521 01:17:50.539481 27299 layer_factory.hpp:77] Creating layer pool2
I0521 01:17:50.539494 27299 net.cpp:106] Creating Layer pool2
I0521 01:17:50.539504 27299 net.cpp:454] pool2 <- conv2
I0521 01:17:50.539528 27299 net.cpp:411] pool2 -> pool2
I0521 01:17:50.539597 27299 net.cpp:150] Setting up pool2
I0521 01:17:50.539610 27299 net.cpp:157] Top shape: 510 20 27 46 (12668400)
I0521 01:17:50.539619 27299 net.cpp:165] Memory required for data: 618836040
I0521 01:17:50.539629 27299 layer_factory.hpp:77] Creating layer conv3
I0521 01:17:50.539646 27299 net.cpp:106] Creating Layer conv3
I0521 01:17:50.539656 27299 net.cpp:454] conv3 <- pool2
I0521 01:17:50.539669 27299 net.cpp:411] conv3 -> conv3
I0521 01:17:50.541594 27299 net.cpp:150] Setting up conv3
I0521 01:17:50.541617 27299 net.cpp:157] Top shape: 510 28 22 44 (13823040)
I0521 01:17:50.541627 27299 net.cpp:165] Memory required for data: 674128200
I0521 01:17:50.541647 27299 layer_factory.hpp:77] Creating layer relu3
I0521 01:17:50.541663 27299 net.cpp:106] Creating Layer relu3
I0521 01:17:50.541673 27299 net.cpp:454] relu3 <- conv3
I0521 01:17:50.541687 27299 net.cpp:397] relu3 -> conv3 (in-place)
I0521 01:17:50.542152 27299 net.cpp:150] Setting up relu3
I0521 01:17:50.542170 27299 net.cpp:157] Top shape: 510 28 22 44 (13823040)
I0521 01:17:50.542181 27299 net.cpp:165] Memory required for data: 729420360
I0521 01:17:50.542189 27299 layer_factory.hpp:77] Creating layer pool3
I0521 01:17:50.542202 27299 net.cpp:106] Creating Layer pool3
I0521 01:17:50.542212 27299 net.cpp:454] pool3 <- conv3
I0521 01:17:50.542225 27299 net.cpp:411] pool3 -> pool3
I0521 01:17:50.542292 27299 net.cpp:150] Setting up pool3
I0521 01:17:50.542305 27299 net.cpp:157] Top shape: 510 28 11 44 (6911520)
I0521 01:17:50.542315 27299 net.cpp:165] Memory required for data: 757066440
I0521 01:17:50.542325 27299 layer_factory.hpp:77] Creating layer conv4
I0521 01:17:50.542342 27299 net.cpp:106] Creating Layer conv4
I0521 01:17:50.542353 27299 net.cpp:454] conv4 <- pool3
I0521 01:17:50.542366 27299 net.cpp:411] conv4 -> conv4
I0521 01:17:50.545156 27299 net.cpp:150] Setting up conv4
I0521 01:17:50.545182 27299 net.cpp:157] Top shape: 510 36 6 42 (4626720)
I0521 01:17:50.545194 27299 net.cpp:165] Memory required for data: 775573320
I0521 01:17:50.545210 27299 layer_factory.hpp:77] Creating layer relu4
I0521 01:17:50.545224 27299 net.cpp:106] Creating Layer relu4
I0521 01:17:50.545234 27299 net.cpp:454] relu4 <- conv4
I0521 01:17:50.545246 27299 net.cpp:397] relu4 -> conv4 (in-place)
I0521 01:17:50.545717 27299 net.cpp:150] Setting up relu4
I0521 01:17:50.545733 27299 net.cpp:157] Top shape: 510 36 6 42 (4626720)
I0521 01:17:50.545744 27299 net.cpp:165] Memory required for data: 794080200
I0521 01:17:50.545754 27299 layer_factory.hpp:77] Creating layer pool4
I0521 01:17:50.545766 27299 net.cpp:106] Creating Layer pool4
I0521 01:17:50.545776 27299 net.cpp:454] pool4 <- conv4
I0521 01:17:50.545789 27299 net.cpp:411] pool4 -> pool4
I0521 01:17:50.545857 27299 net.cpp:150] Setting up pool4
I0521 01:17:50.545871 27299 net.cpp:157] Top shape: 510 36 3 42 (2313360)
I0521 01:17:50.545881 27299 net.cpp:165] Memory required for data: 803333640
I0521 01:17:50.545892 27299 layer_factory.hpp:77] Creating layer ip1
I0521 01:17:50.545912 27299 net.cpp:106] Creating Layer ip1
I0521 01:17:50.545922 27299 net.cpp:454] ip1 <- pool4
I0521 01:17:50.545933 27299 net.cpp:411] ip1 -> ip1
I0521 01:17:50.561324 27299 net.cpp:150] Setting up ip1
I0521 01:17:50.561353 27299 net.cpp:157] Top shape: 510 196 (99960)
I0521 01:17:50.561365 27299 net.cpp:165] Memory required for data: 803733480
I0521 01:17:50.561391 27299 layer_factory.hpp:77] Creating layer relu5
I0521 01:17:50.561406 27299 net.cpp:106] Creating Layer relu5
I0521 01:17:50.561417 27299 net.cpp:454] relu5 <- ip1
I0521 01:17:50.561429 27299 net.cpp:397] relu5 -> ip1 (in-place)
I0521 01:17:50.561771 27299 net.cpp:150] Setting up relu5
I0521 01:17:50.561785 27299 net.cpp:157] Top shape: 510 196 (99960)
I0521 01:17:50.561796 27299 net.cpp:165] Memory required for data: 804133320
I0521 01:17:50.561806 27299 layer_factory.hpp:77] Creating layer drop1
I0521 01:17:50.561828 27299 net.cpp:106] Creating Layer drop1
I0521 01:17:50.561839 27299 net.cpp:454] drop1 <- ip1
I0521 01:17:50.561863 27299 net.cpp:397] drop1 -> ip1 (in-place)
I0521 01:17:50.561910 27299 net.cpp:150] Setting up drop1
I0521 01:17:50.561923 27299 net.cpp:157] Top shape: 510 196 (99960)
I0521 01:17:50.561933 27299 net.cpp:165] Memory required for data: 804533160
I0521 01:17:50.561944 27299 layer_factory.hpp:77] Creating layer ip2
I0521 01:17:50.561962 27299 net.cpp:106] Creating Layer ip2
I0521 01:17:50.561972 27299 net.cpp:454] ip2 <- ip1
I0521 01:17:50.561985 27299 net.cpp:411] ip2 -> ip2
I0521 01:17:50.562449 27299 net.cpp:150] Setting up ip2
I0521 01:17:50.562463 27299 net.cpp:157] Top shape: 510 98 (49980)
I0521 01:17:50.562472 27299 net.cpp:165] Memory required for data: 804733080
I0521 01:17:50.562487 27299 layer_factory.hpp:77] Creating layer relu6
I0521 01:17:50.562500 27299 net.cpp:106] Creating Layer relu6
I0521 01:17:50.562508 27299 net.cpp:454] relu6 <- ip2
I0521 01:17:50.562520 27299 net.cpp:397] relu6 -> ip2 (in-place)
I0521 01:17:50.563035 27299 net.cpp:150] Setting up relu6
I0521 01:17:50.563051 27299 net.cpp:157] Top shape: 510 98 (49980)
I0521 01:17:50.563062 27299 net.cpp:165] Memory required for data: 804933000
I0521 01:17:50.563074 27299 layer_factory.hpp:77] Creating layer drop2
I0521 01:17:50.563087 27299 net.cpp:106] Creating Layer drop2
I0521 01:17:50.563097 27299 net.cpp:454] drop2 <- ip2
I0521 01:17:50.563109 27299 net.cpp:397] drop2 -> ip2 (in-place)
I0521 01:17:50.563151 27299 net.cpp:150] Setting up drop2
I0521 01:17:50.563164 27299 net.cpp:157] Top shape: 510 98 (49980)
I0521 01:17:50.563175 27299 net.cpp:165] Memory required for data: 805132920
I0521 01:17:50.563184 27299 layer_factory.hpp:77] Creating layer ip3
I0521 01:17:50.563197 27299 net.cpp:106] Creating Layer ip3
I0521 01:17:50.563207 27299 net.cpp:454] ip3 <- ip2
I0521 01:17:50.563220 27299 net.cpp:411] ip3 -> ip3
I0521 01:17:50.563431 27299 net.cpp:150] Setting up ip3
I0521 01:17:50.563444 27299 net.cpp:157] Top shape: 510 11 (5610)
I0521 01:17:50.563454 27299 net.cpp:165] Memory required for data: 805155360
I0521 01:17:50.563469 27299 layer_factory.hpp:77] Creating layer drop3
I0521 01:17:50.563482 27299 net.cpp:106] Creating Layer drop3
I0521 01:17:50.563490 27299 net.cpp:454] drop3 <- ip3
I0521 01:17:50.563503 27299 net.cpp:397] drop3 -> ip3 (in-place)
I0521 01:17:50.563540 27299 net.cpp:150] Setting up drop3
I0521 01:17:50.563554 27299 net.cpp:157] Top shape: 510 11 (5610)
I0521 01:17:50.563565 27299 net.cpp:165] Memory required for data: 805177800
I0521 01:17:50.563573 27299 layer_factory.hpp:77] Creating layer loss
I0521 01:17:50.563592 27299 net.cpp:106] Creating Layer loss
I0521 01:17:50.563602 27299 net.cpp:454] loss <- ip3
I0521 01:17:50.563613 27299 net.cpp:454] loss <- label
I0521 01:17:50.563626 27299 net.cpp:411] loss -> loss
I0521 01:17:50.563642 27299 layer_factory.hpp:77] Creating layer loss
…
I0521 01:17:50.566457 27299 solver.cpp:181] Creating test net (#0) specified by net file: /lustre/atlas/proj-shared/hep105/caffe_titan/caffe_workflow/logs_batch_size_test/batch_size_510_2016-05-20T11.20.51.121332.prototxt
I0521 01:17:50.566529 27299 net.cpp:322] The NetState phase (1) differed from the phase (0) specified by a rule in layer data_hdf5
I0521 01:17:50.566884 27299 net.cpp:49] Initializing net from parameters: 
name: "caffe_test_127x50_x_unshifted"
state {
  phase: TEST
}
layer {
  name: "data_hdf5"
  type: "HDF5Data"
  top: "data"
  top: "label"
  include {
    phase: TEST
  }
  hdf5_data_param {
    source: "/lustre/atlas/proj-shared/hep105/caffe_titan/minosmatch_nukecczdefs_127x50_x_unshifted_me1Bmc.testlist"
    batch_size: 510
  }
}
layer {
  name: "conv1"
  type: "Convolution"
  bottom: "data"
  top: "conv1"
  convolution_param {
    num_output: 12
    pad: 0
    stride: 1
    weight_filler {
      type: "xavier"
    }
    bias_filler {
      type: "constant"
    }
    kernel_h: 8
    kernel_w: 3
  }
}
layer {
  name: "relu1"
  type: "ReLU"
  bottom: "conv1"
  top: "conv1"
}
layer {
  name: "pool1"
  type: "Pooling"
  bottom: "conv1"
  top: "pool1"
  pooling_param {
    pool: MAX
    kernel_h: 2
    kernel_w: 1
    stride_h: 2
    stride_w: 1
  }
}
layer {
  name: "conv2"
  type: "Convolution"
  bottom: "pool1"
  top: "conv2"
  convolution_param {
    num_output: 20
    pad: 0
    stride: 1
    weight_filler {
      type: "xavier"
    }
    bias_filler {
      type: "constant"
    }
    kernel_h: 7
    kernel_w: 3
  }
}
layer {
  name: "relu2"
  type: "ReLU"
  bottom: "conv2"
  top: "conv2"
}
layer {
  name: "pool2"
  type: "Pooling"
  bottom: "conv2"
  top: "pool2"
  pooling_param {
    pool: MAX
    kernel_h: 2
    kernel_w: 1
    stride_h: 2
    stride_w: 1
  }
}
layer {
  name: "conv3"
  type: "Convolution"
  bottom: "pool2"
  top: "conv3"
  convolution_param {
    num_output: 28
    pad: 0
    stride: 1
    weight_filler {
      type: "xavier"
    }
    bias_filler {
      type: "constant"
    }
    kernel_h: 6
    kernel_w: 3
  }
}
layer {
  name: "relu3"
  type: "ReLU"
  bottom: "conv3"
  top: "conv3"
}
layer {
  name: "pool3"
  type: "Pooling"
  bottom: "conv3"
  top: "pool3"
  pooling_param {
    pool: MAX
    kernel_h: 2
    kernel_w: 1
    stride_h: 2
    stride_w: 1
  }
}
layer {
  name: "conv4"
  type: "Convolution"
  bottom: "pool3"
  top: "conv4"
  convolution_param {
    num_output: 36
    pad: 0
    stride: 1
    weight_filler {
      type: "xavier"
    }
    bias_filler {
      type: "constant"
    }
    kernel_h: 6
    kernel_w: 3
  }
}
layer {
  name: "relu4"
  type: "ReLU"
  bottom: "conv4"
  top: "conv4"
}
layer {
  name: "pool4"
  type: "Pooling"
  bottom: "conv4"
  top: "pool4"
  pooling_param {
    pool: MAX
    kernel_h: 2
    kernel_w: 1
    stride_h: 2
    stride_w: 1
  }
}
layer {
  name: "ip1"
  type: "InnerProduct"
  bottom: "pool4"
  top: "ip1"
  inner_product_param {
    num_output: 196
    weight_filler {
      type: "xavier"
    }
    bias_filler {
      type: "constant"
    }
  }
}
layer {
  name: "relu5"
  type: "ReLU"
  bottom: "ip1"
  top: "ip1"
}
layer {
  name: "drop1"
  type: "Dropout"
  bottom: "ip1"
  top: "ip1"
  dropout_param {
    dropout_ratio: 0.5
  }
}
layer {
  name: "ip2"
  type: "InnerProduct"
  bottom: "ip1"
  top: "ip2"
  inner_product_param {
    num_output: 98
    weight_filler {
      type: "xavier"
    }
    bias_filler {
      type: "constant"
    }
  }
}
layer {
  name: "relu6"
  type: "ReLU"
  bottom: "ip2"
  top: "ip2"
}
layer {
  name: "drop2"
  type: "Dropout"
  bottom: "ip2"
  top: "ip2"
  dropout_param {
    dropout_ratio: 0.5
  }
}
layer {
  name: "ip3"
  type: "InnerProduct"
  bottom: "ip2"
  top: "ip3"
  inner_product_param {
    num_output: 11
    weight_filler {
      type: "xavier"
    }
    bias_filler {
      type: "constant"
    }
  }
}
layer {
  name: "drop3"
  type: "Dropout"
  bottom: "ip3"
  top: "ip3"
  dropout_param {
    dropout_ratio: 0.5
  }
}
layer {
  name: "accuracy"
  type: "Accuracy"
  bottom: "ip3"
  bottom: "label"
  top: "accuracy"
  include {
    phase: TEST
  }
}
layer {
  name: "loss"
  type: "SoftmaxWithLoss"
  bottom: "ip3"
  bottom: "label"
  top: "loss"
}
I0521 01:17:50.567101 27299 layer_factory.hpp:77] Creating layer data_hdf5
I0521 01:17:50.567116 27299 net.cpp:106] Creating Layer data_hdf5
I0521 01:17:50.567128 27299 net.cpp:411] data_hdf5 -> data
I0521 01:17:50.567145 27299 net.cpp:411] data_hdf5 -> label
I0521 01:17:50.567160 27299 hdf5_data_layer.cpp:79] Loading list of HDF5 filenames from: /lustre/atlas/proj-shared/hep105/caffe_titan/minosmatch_nukecczdefs_127x50_x_unshifted_me1Bmc.testlist
I0521 01:17:50.568362 27299 hdf5_data_layer.cpp:93] Number of HDF5 files: 3
I0521 01:18:11.922862 27299 net.cpp:150] Setting up data_hdf5
I0521 01:18:11.923028 27299 net.cpp:157] Top shape: 510 1 127 50 (3238500)
I0521 01:18:11.923043 27299 net.cpp:157] Top shape: 510 (510)
I0521 01:18:11.923053 27299 net.cpp:165] Memory required for data: 12956040
I0521 01:18:11.923068 27299 layer_factory.hpp:77] Creating layer label_data_hdf5_1_split
I0521 01:18:11.923095 27299 net.cpp:106] Creating Layer label_data_hdf5_1_split
I0521 01:18:11.923106 27299 net.cpp:454] label_data_hdf5_1_split <- label
I0521 01:18:11.923121 27299 net.cpp:411] label_data_hdf5_1_split -> label_data_hdf5_1_split_0
I0521 01:18:11.923142 27299 net.cpp:411] label_data_hdf5_1_split -> label_data_hdf5_1_split_1
I0521 01:18:11.923215 27299 net.cpp:150] Setting up label_data_hdf5_1_split
I0521 01:18:11.923229 27299 net.cpp:157] Top shape: 510 (510)
I0521 01:18:11.923241 27299 net.cpp:157] Top shape: 510 (510)
I0521 01:18:11.923251 27299 net.cpp:165] Memory required for data: 12960120
I0521 01:18:11.923261 27299 layer_factory.hpp:77] Creating layer conv1
I0521 01:18:11.923283 27299 net.cpp:106] Creating Layer conv1
I0521 01:18:11.923293 27299 net.cpp:454] conv1 <- data
I0521 01:18:11.923307 27299 net.cpp:411] conv1 -> conv1
I0521 01:18:11.925237 27299 net.cpp:150] Setting up conv1
I0521 01:18:11.925261 27299 net.cpp:157] Top shape: 510 12 120 48 (35251200)
I0521 01:18:11.925272 27299 net.cpp:165] Memory required for data: 153964920
I0521 01:18:11.925293 27299 layer_factory.hpp:77] Creating layer relu1
I0521 01:18:11.925308 27299 net.cpp:106] Creating Layer relu1
I0521 01:18:11.925318 27299 net.cpp:454] relu1 <- conv1
I0521 01:18:11.925330 27299 net.cpp:397] relu1 -> conv1 (in-place)
I0521 01:18:11.925827 27299 net.cpp:150] Setting up relu1
I0521 01:18:11.925843 27299 net.cpp:157] Top shape: 510 12 120 48 (35251200)
I0521 01:18:11.925853 27299 net.cpp:165] Memory required for data: 294969720
I0521 01:18:11.925863 27299 layer_factory.hpp:77] Creating layer pool1
I0521 01:18:11.925879 27299 net.cpp:106] Creating Layer pool1
I0521 01:18:11.925889 27299 net.cpp:454] pool1 <- conv1
I0521 01:18:11.925901 27299 net.cpp:411] pool1 -> pool1
I0521 01:18:11.925976 27299 net.cpp:150] Setting up pool1
I0521 01:18:11.925989 27299 net.cpp:157] Top shape: 510 12 60 48 (17625600)
I0521 01:18:11.925999 27299 net.cpp:165] Memory required for data: 365472120
I0521 01:18:11.926007 27299 layer_factory.hpp:77] Creating layer conv2
I0521 01:18:11.926025 27299 net.cpp:106] Creating Layer conv2
I0521 01:18:11.926036 27299 net.cpp:454] conv2 <- pool1
I0521 01:18:11.926051 27299 net.cpp:411] conv2 -> conv2
I0521 01:18:11.927978 27299 net.cpp:150] Setting up conv2
I0521 01:18:11.927999 27299 net.cpp:157] Top shape: 510 20 54 46 (25336800)
I0521 01:18:11.928012 27299 net.cpp:165] Memory required for data: 466819320
I0521 01:18:11.928030 27299 layer_factory.hpp:77] Creating layer relu2
I0521 01:18:11.928043 27299 net.cpp:106] Creating Layer relu2
I0521 01:18:11.928053 27299 net.cpp:454] relu2 <- conv2
I0521 01:18:11.928066 27299 net.cpp:397] relu2 -> conv2 (in-place)
I0521 01:18:11.928400 27299 net.cpp:150] Setting up relu2
I0521 01:18:11.928414 27299 net.cpp:157] Top shape: 510 20 54 46 (25336800)
I0521 01:18:11.928424 27299 net.cpp:165] Memory required for data: 568166520
I0521 01:18:11.928434 27299 layer_factory.hpp:77] Creating layer pool2
I0521 01:18:11.928447 27299 net.cpp:106] Creating Layer pool2
I0521 01:18:11.928457 27299 net.cpp:454] pool2 <- conv2
I0521 01:18:11.928469 27299 net.cpp:411] pool2 -> pool2
I0521 01:18:11.928541 27299 net.cpp:150] Setting up pool2
I0521 01:18:11.928555 27299 net.cpp:157] Top shape: 510 20 27 46 (12668400)
I0521 01:18:11.928565 27299 net.cpp:165] Memory required for data: 618840120
I0521 01:18:11.928575 27299 layer_factory.hpp:77] Creating layer conv3
I0521 01:18:11.928593 27299 net.cpp:106] Creating Layer conv3
I0521 01:18:11.928603 27299 net.cpp:454] conv3 <- pool2
I0521 01:18:11.928617 27299 net.cpp:411] conv3 -> conv3
I0521 01:18:11.930589 27299 net.cpp:150] Setting up conv3
I0521 01:18:11.930613 27299 net.cpp:157] Top shape: 510 28 22 44 (13823040)
I0521 01:18:11.930624 27299 net.cpp:165] Memory required for data: 674132280
I0521 01:18:11.930657 27299 layer_factory.hpp:77] Creating layer relu3
I0521 01:18:11.930670 27299 net.cpp:106] Creating Layer relu3
I0521 01:18:11.930680 27299 net.cpp:454] relu3 <- conv3
I0521 01:18:11.930693 27299 net.cpp:397] relu3 -> conv3 (in-place)
I0521 01:18:11.931164 27299 net.cpp:150] Setting up relu3
I0521 01:18:11.931180 27299 net.cpp:157] Top shape: 510 28 22 44 (13823040)
I0521 01:18:11.931190 27299 net.cpp:165] Memory required for data: 729424440
I0521 01:18:11.931200 27299 layer_factory.hpp:77] Creating layer pool3
I0521 01:18:11.931213 27299 net.cpp:106] Creating Layer pool3
I0521 01:18:11.931223 27299 net.cpp:454] pool3 <- conv3
I0521 01:18:11.931236 27299 net.cpp:411] pool3 -> pool3
I0521 01:18:11.931309 27299 net.cpp:150] Setting up pool3
I0521 01:18:11.931323 27299 net.cpp:157] Top shape: 510 28 11 44 (6911520)
I0521 01:18:11.931331 27299 net.cpp:165] Memory required for data: 757070520
I0521 01:18:11.931341 27299 layer_factory.hpp:77] Creating layer conv4
I0521 01:18:11.931357 27299 net.cpp:106] Creating Layer conv4
I0521 01:18:11.931367 27299 net.cpp:454] conv4 <- pool3
I0521 01:18:11.931381 27299 net.cpp:411] conv4 -> conv4
I0521 01:18:11.933444 27299 net.cpp:150] Setting up conv4
I0521 01:18:11.933467 27299 net.cpp:157] Top shape: 510 36 6 42 (4626720)
I0521 01:18:11.933477 27299 net.cpp:165] Memory required for data: 775577400
I0521 01:18:11.933492 27299 layer_factory.hpp:77] Creating layer relu4
I0521 01:18:11.933506 27299 net.cpp:106] Creating Layer relu4
I0521 01:18:11.933516 27299 net.cpp:454] relu4 <- conv4
I0521 01:18:11.933528 27299 net.cpp:397] relu4 -> conv4 (in-place)
I0521 01:18:11.934000 27299 net.cpp:150] Setting up relu4
I0521 01:18:11.934016 27299 net.cpp:157] Top shape: 510 36 6 42 (4626720)
I0521 01:18:11.934027 27299 net.cpp:165] Memory required for data: 794084280
I0521 01:18:11.934037 27299 layer_factory.hpp:77] Creating layer pool4
I0521 01:18:11.934051 27299 net.cpp:106] Creating Layer pool4
I0521 01:18:11.934061 27299 net.cpp:454] pool4 <- conv4
I0521 01:18:11.934074 27299 net.cpp:411] pool4 -> pool4
I0521 01:18:11.934146 27299 net.cpp:150] Setting up pool4
I0521 01:18:11.934160 27299 net.cpp:157] Top shape: 510 36 3 42 (2313360)
I0521 01:18:11.934170 27299 net.cpp:165] Memory required for data: 803337720
I0521 01:18:11.934180 27299 layer_factory.hpp:77] Creating layer ip1
I0521 01:18:11.934195 27299 net.cpp:106] Creating Layer ip1
I0521 01:18:11.934206 27299 net.cpp:454] ip1 <- pool4
I0521 01:18:11.934221 27299 net.cpp:411] ip1 -> ip1
I0521 01:18:11.949673 27299 net.cpp:150] Setting up ip1
I0521 01:18:11.949702 27299 net.cpp:157] Top shape: 510 196 (99960)
I0521 01:18:11.949717 27299 net.cpp:165] Memory required for data: 803737560
I0521 01:18:11.949738 27299 layer_factory.hpp:77] Creating layer relu5
I0521 01:18:11.949753 27299 net.cpp:106] Creating Layer relu5
I0521 01:18:11.949764 27299 net.cpp:454] relu5 <- ip1
I0521 01:18:11.949781 27299 net.cpp:397] relu5 -> ip1 (in-place)
I0521 01:18:11.950125 27299 net.cpp:150] Setting up relu5
I0521 01:18:11.950139 27299 net.cpp:157] Top shape: 510 196 (99960)
I0521 01:18:11.950150 27299 net.cpp:165] Memory required for data: 804137400
I0521 01:18:11.950160 27299 layer_factory.hpp:77] Creating layer drop1
I0521 01:18:11.950177 27299 net.cpp:106] Creating Layer drop1
I0521 01:18:11.950187 27299 net.cpp:454] drop1 <- ip1
I0521 01:18:11.950201 27299 net.cpp:397] drop1 -> ip1 (in-place)
I0521 01:18:11.950244 27299 net.cpp:150] Setting up drop1
I0521 01:18:11.950258 27299 net.cpp:157] Top shape: 510 196 (99960)
I0521 01:18:11.950266 27299 net.cpp:165] Memory required for data: 804537240
I0521 01:18:11.950278 27299 layer_factory.hpp:77] Creating layer ip2
I0521 01:18:11.950291 27299 net.cpp:106] Creating Layer ip2
I0521 01:18:11.950301 27299 net.cpp:454] ip2 <- ip1
I0521 01:18:11.950314 27299 net.cpp:411] ip2 -> ip2
I0521 01:18:11.950794 27299 net.cpp:150] Setting up ip2
I0521 01:18:11.950808 27299 net.cpp:157] Top shape: 510 98 (49980)
I0521 01:18:11.950817 27299 net.cpp:165] Memory required for data: 804737160
I0521 01:18:11.950845 27299 layer_factory.hpp:77] Creating layer relu6
I0521 01:18:11.950858 27299 net.cpp:106] Creating Layer relu6
I0521 01:18:11.950868 27299 net.cpp:454] relu6 <- ip2
I0521 01:18:11.950881 27299 net.cpp:397] relu6 -> ip2 (in-place)
I0521 01:18:11.951402 27299 net.cpp:150] Setting up relu6
I0521 01:18:11.951419 27299 net.cpp:157] Top shape: 510 98 (49980)
I0521 01:18:11.951426 27299 net.cpp:165] Memory required for data: 804937080
I0521 01:18:11.951436 27299 layer_factory.hpp:77] Creating layer drop2
I0521 01:18:11.951450 27299 net.cpp:106] Creating Layer drop2
I0521 01:18:11.951460 27299 net.cpp:454] drop2 <- ip2
I0521 01:18:11.951473 27299 net.cpp:397] drop2 -> ip2 (in-place)
I0521 01:18:11.951517 27299 net.cpp:150] Setting up drop2
I0521 01:18:11.951530 27299 net.cpp:157] Top shape: 510 98 (49980)
I0521 01:18:11.951539 27299 net.cpp:165] Memory required for data: 805137000
I0521 01:18:11.951550 27299 layer_factory.hpp:77] Creating layer ip3
I0521 01:18:11.951563 27299 net.cpp:106] Creating Layer ip3
I0521 01:18:11.951573 27299 net.cpp:454] ip3 <- ip2
I0521 01:18:11.951587 27299 net.cpp:411] ip3 -> ip3
I0521 01:18:11.951809 27299 net.cpp:150] Setting up ip3
I0521 01:18:11.951830 27299 net.cpp:157] Top shape: 510 11 (5610)
I0521 01:18:11.951840 27299 net.cpp:165] Memory required for data: 805159440
I0521 01:18:11.951855 27299 layer_factory.hpp:77] Creating layer drop3
I0521 01:18:11.951869 27299 net.cpp:106] Creating Layer drop3
I0521 01:18:11.951879 27299 net.cpp:454] drop3 <- ip3
I0521 01:18:11.951889 27299 net.cpp:397] drop3 -> ip3 (in-place)
I0521 01:18:11.951930 27299 net.cpp:150] Setting up drop3
I0521 01:18:11.951943 27299 net.cpp:157] Top shape: 510 11 (5610)
I0521 01:18:11.951953 27299 net.cpp:165] Memory required for data: 805181880
I0521 01:18:11.951962 27299 layer_factory.hpp:77] Creating layer ip3_drop3_0_split
I0521 01:18:11.951977 27299 net.cpp:106] Creating Layer ip3_drop3_0_split
I0521 01:18:11.951987 27299 net.cpp:454] ip3_drop3_0_split <- ip3
I0521 01:18:11.951999 27299 net.cpp:411] ip3_drop3_0_split -> ip3_drop3_0_split_0
I0521 01:18:11.952015 27299 net.cpp:411] ip3_drop3_0_split -> ip3_drop3_0_split_1
I0521 01:18:11.952087 27299 net.cpp:150] Setting up ip3_drop3_0_split
I0521 01:18:11.952100 27299 net.cpp:157] Top shape: 510 11 (5610)
I0521 01:18:11.952113 27299 net.cpp:157] Top shape: 510 11 (5610)
I0521 01:18:11.952122 27299 net.cpp:165] Memory required for data: 805226760
I0521 01:18:11.952132 27299 layer_factory.hpp:77] Creating layer accuracy
I0521 01:18:11.952153 27299 net.cpp:106] Creating Layer accuracy
I0521 01:18:11.952163 27299 net.cpp:454] accuracy <- ip3_drop3_0_split_0
I0521 01:18:11.952174 27299 net.cpp:454] accuracy <- label_data_hdf5_1_split_0
I0521 01:18:11.952188 27299 net.cpp:411] accuracy -> accuracy
…
