…
I0521 03:42:39.620292 30122 net.cpp:322] The NetState phase (0) differed from the phase (1) specified by a rule in layer data_hdf5
I0521 03:42:39.620352 30122 net.cpp:322] The NetState phase (0) differed from the phase (1) specified by a rule in layer accuracy
I0521 03:42:39.620694 30122 net.cpp:49] Initializing net from parameters: 
name: "caffe_test_127x50_x_unshifted"
state {
  phase: TRAIN
}
layer {
  name: "data_hdf5"
  type: "HDF5Data"
  top: "data"
  top: "label"
  include {
    phase: TRAIN
  }
  hdf5_data_param {
    source: "/lustre/atlas/proj-shared/hep105/caffe_titan/minosmatch_nukecczdefs_127x50_x_unshifted_me1Bmc.trainlist"
    batch_size: 620
  }
}
layer {
  name: "conv1"
  type: "Convolution"
  bottom: "data"
  top: "conv1"
  convolution_param {
    num_output: 12
    pad: 0
    stride: 1
    weight_filler {
      type: "xavier"
    }
    bias_filler {
      type: "constant"
    }
    kernel_h: 8
    kernel_w: 3
  }
}
layer {
  name: "relu1"
  type: "ReLU"
  bottom: "conv1"
  top: "conv1"
}
layer {
  name: "pool1"
  type: "Pooling"
  bottom: "conv1"
  top: "pool1"
  pooling_param {
    pool: MAX
    kernel_h: 2
    kernel_w: 1
    stride_h: 2
    stride_w: 1
  }
}
layer {
  name: "conv2"
  type: "Convolution"
  bottom: "pool1"
  top: "conv2"
  convolution_param {
    num_output: 20
    pad: 0
    stride: 1
    weight_filler {
      type: "xavier"
    }
    bias_filler {
      type: "constant"
    }
    kernel_h: 7
    kernel_w: 3
  }
}
layer {
  name: "relu2"
  type: "ReLU"
  bottom: "conv2"
  top: "conv2"
}
layer {
  name: "pool2"
  type: "Pooling"
  bottom: "conv2"
  top: "pool2"
  pooling_param {
    pool: MAX
    kernel_h: 2
    kernel_w: 1
    stride_h: 2
    stride_w: 1
  }
}
layer {
  name: "conv3"
  type: "Convolution"
  bottom: "pool2"
  top: "conv3"
  convolution_param {
    num_output: 28
    pad: 0
    stride: 1
    weight_filler {
      type: "xavier"
    }
    bias_filler {
      type: "constant"
    }
    kernel_h: 6
    kernel_w: 3
  }
}
layer {
  name: "relu3"
  type: "ReLU"
  bottom: "conv3"
  top: "conv3"
}
layer {
  name: "pool3"
  type: "Pooling"
  bottom: "conv3"
  top: "pool3"
  pooling_param {
    pool: MAX
    kernel_h: 2
    kernel_w: 1
    stride_h: 2
    stride_w: 1
  }
}
layer {
  name: "conv4"
  type: "Convolution"
  bottom: "pool3"
  top: "conv4"
  convolution_param {
    num_output: 36
    pad: 0
    stride: 1
    weight_filler {
      type: "xavier"
    }
    bias_filler {
      type: "constant"
    }
    kernel_h: 6
    kernel_w: 3
  }
}
layer {
  name: "relu4"
  type: "ReLU"
  bottom: "conv4"
  top: "conv4"
}
layer {
  name: "pool4"
  type: "Pooling"
  bottom: "conv4"
  top: "pool4"
  pooling_param {
    pool: MAX
    kernel_h: 2
    kernel_w: 1
    stride_h: 2
    stride_w: 1
  }
}
layer {
  name: "ip1"
  type: "InnerProduct"
  bottom: "pool4"
  top: "ip1"
  inner_product_param {
    num_output: 196
    weight_filler {
      type: "xavier"
    }
    bias_filler {
      type: "constant"
    }
  }
}
layer {
  name: "relu5"
  type: "ReLU"
  bottom: "ip1"
  top: "ip1"
}
layer {
  name: "drop1"
  type: "Dropout"
  bottom: "ip1"
  top: "ip1"
  dropout_param {
    dropout_ratio: 0.5
  }
}
layer {
  name: "ip2"
  type: "InnerProduct"
  bottom: "ip1"
  top: "ip2"
  inner_product_param {
    num_output: 98
    weight_filler {
      type: "xavier"
    }
    bias_filler {
      type: "constant"
    }
  }
}
layer {
  name: "relu6"
  type: "ReLU"
  bottom: "ip2"
  top: "ip2"
}
layer {
  name: "drop2"
  type: "Dropout"
  bottom: "ip2"
  top: "ip2"
  dropout_param {
    dropout_ratio: 0.5
  }
}
layer {
  name: "ip3"
  type: "InnerProduct"
  bottom: "ip2"
  top: "ip3"
  inner_product_param {
    num_output: 11
    weight_filler {
      type: "xavier"
    }
    bias_filler {
      type: "constant"
    }
  }
}
layer {
  name: "drop3"
  type: "Dropout"
  bottom: "ip3"
  top: "ip3"
  dropout_param {
    dropout_ratio: 0.5
  }
}
layer {
  name: "loss"
  type: "SoftmaxWithLoss"
  bottom: "ip3"
  bottom: "label"
  top: "loss"
}
I0521 03:42:39.620872 30122 layer_factory.hpp:77] Creating layer data_hdf5
I0521 03:42:39.620895 30122 net.cpp:106] Creating Layer data_hdf5
I0521 03:42:39.620909 30122 net.cpp:411] data_hdf5 -> data
I0521 03:42:39.620942 30122 net.cpp:411] data_hdf5 -> label
I0521 03:42:39.620975 30122 hdf5_data_layer.cpp:79] Loading list of HDF5 filenames from: /lustre/atlas/proj-shared/hep105/caffe_titan/minosmatch_nukecczdefs_127x50_x_unshifted_me1Bmc.trainlist
I0521 03:42:39.622217 30122 hdf5_data_layer.cpp:93] Number of HDF5 files: 15
I0521 03:42:39.624548 30122 hdf5.cpp:32] Datatype class: H5T_FLOAT
I0521 03:43:01.172705 30122 hdf5.cpp:35] Datatype class: H5T_INTEGER
I0521 03:43:01.177903 30122 net.cpp:150] Setting up data_hdf5
I0521 03:43:01.177943 30122 net.cpp:157] Top shape: 620 1 127 50 (3937000)
I0521 03:43:01.177958 30122 net.cpp:157] Top shape: 620 (620)
I0521 03:43:01.177969 30122 net.cpp:165] Memory required for data: 15750480
I0521 03:43:01.177983 30122 layer_factory.hpp:77] Creating layer conv1
I0521 03:43:01.178017 30122 net.cpp:106] Creating Layer conv1
I0521 03:43:01.178028 30122 net.cpp:454] conv1 <- data
I0521 03:43:01.178051 30122 net.cpp:411] conv1 -> conv1
I0521 03:43:01.538179 30122 net.cpp:150] Setting up conv1
I0521 03:43:01.538226 30122 net.cpp:157] Top shape: 620 12 120 48 (42854400)
I0521 03:43:01.538238 30122 net.cpp:165] Memory required for data: 187168080
I0521 03:43:01.538266 30122 layer_factory.hpp:77] Creating layer relu1
I0521 03:43:01.538287 30122 net.cpp:106] Creating Layer relu1
I0521 03:43:01.538298 30122 net.cpp:454] relu1 <- conv1
I0521 03:43:01.538312 30122 net.cpp:397] relu1 -> conv1 (in-place)
I0521 03:43:01.538839 30122 net.cpp:150] Setting up relu1
I0521 03:43:01.538857 30122 net.cpp:157] Top shape: 620 12 120 48 (42854400)
I0521 03:43:01.538867 30122 net.cpp:165] Memory required for data: 358585680
I0521 03:43:01.538877 30122 layer_factory.hpp:77] Creating layer pool1
I0521 03:43:01.538894 30122 net.cpp:106] Creating Layer pool1
I0521 03:43:01.538904 30122 net.cpp:454] pool1 <- conv1
I0521 03:43:01.538918 30122 net.cpp:411] pool1 -> pool1
I0521 03:43:01.538997 30122 net.cpp:150] Setting up pool1
I0521 03:43:01.539011 30122 net.cpp:157] Top shape: 620 12 60 48 (21427200)
I0521 03:43:01.539021 30122 net.cpp:165] Memory required for data: 444294480
I0521 03:43:01.539031 30122 layer_factory.hpp:77] Creating layer conv2
I0521 03:43:01.539055 30122 net.cpp:106] Creating Layer conv2
I0521 03:43:01.539065 30122 net.cpp:454] conv2 <- pool1
I0521 03:43:01.539079 30122 net.cpp:411] conv2 -> conv2
I0521 03:43:01.541744 30122 net.cpp:150] Setting up conv2
I0521 03:43:01.541771 30122 net.cpp:157] Top shape: 620 20 54 46 (30801600)
I0521 03:43:01.541782 30122 net.cpp:165] Memory required for data: 567500880
I0521 03:43:01.541801 30122 layer_factory.hpp:77] Creating layer relu2
I0521 03:43:01.541815 30122 net.cpp:106] Creating Layer relu2
I0521 03:43:01.541826 30122 net.cpp:454] relu2 <- conv2
I0521 03:43:01.541838 30122 net.cpp:397] relu2 -> conv2 (in-place)
I0521 03:43:01.542171 30122 net.cpp:150] Setting up relu2
I0521 03:43:01.542186 30122 net.cpp:157] Top shape: 620 20 54 46 (30801600)
I0521 03:43:01.542196 30122 net.cpp:165] Memory required for data: 690707280
I0521 03:43:01.542206 30122 layer_factory.hpp:77] Creating layer pool2
I0521 03:43:01.542217 30122 net.cpp:106] Creating Layer pool2
I0521 03:43:01.542227 30122 net.cpp:454] pool2 <- conv2
I0521 03:43:01.542251 30122 net.cpp:411] pool2 -> pool2
I0521 03:43:01.542321 30122 net.cpp:150] Setting up pool2
I0521 03:43:01.542335 30122 net.cpp:157] Top shape: 620 20 27 46 (15400800)
I0521 03:43:01.542345 30122 net.cpp:165] Memory required for data: 752310480
I0521 03:43:01.542352 30122 layer_factory.hpp:77] Creating layer conv3
I0521 03:43:01.542371 30122 net.cpp:106] Creating Layer conv3
I0521 03:43:01.542382 30122 net.cpp:454] conv3 <- pool2
I0521 03:43:01.542397 30122 net.cpp:411] conv3 -> conv3
I0521 03:43:01.544328 30122 net.cpp:150] Setting up conv3
I0521 03:43:01.544348 30122 net.cpp:157] Top shape: 620 28 22 44 (16804480)
I0521 03:43:01.544358 30122 net.cpp:165] Memory required for data: 819528400
I0521 03:43:01.544375 30122 layer_factory.hpp:77] Creating layer relu3
I0521 03:43:01.544391 30122 net.cpp:106] Creating Layer relu3
I0521 03:43:01.544401 30122 net.cpp:454] relu3 <- conv3
I0521 03:43:01.544414 30122 net.cpp:397] relu3 -> conv3 (in-place)
I0521 03:43:01.544883 30122 net.cpp:150] Setting up relu3
I0521 03:43:01.544900 30122 net.cpp:157] Top shape: 620 28 22 44 (16804480)
I0521 03:43:01.544910 30122 net.cpp:165] Memory required for data: 886746320
I0521 03:43:01.544920 30122 layer_factory.hpp:77] Creating layer pool3
I0521 03:43:01.544934 30122 net.cpp:106] Creating Layer pool3
I0521 03:43:01.544944 30122 net.cpp:454] pool3 <- conv3
I0521 03:43:01.544956 30122 net.cpp:411] pool3 -> pool3
I0521 03:43:01.545023 30122 net.cpp:150] Setting up pool3
I0521 03:43:01.545037 30122 net.cpp:157] Top shape: 620 28 11 44 (8402240)
I0521 03:43:01.545047 30122 net.cpp:165] Memory required for data: 920355280
I0521 03:43:01.545056 30122 layer_factory.hpp:77] Creating layer conv4
I0521 03:43:01.545073 30122 net.cpp:106] Creating Layer conv4
I0521 03:43:01.545083 30122 net.cpp:454] conv4 <- pool3
I0521 03:43:01.545097 30122 net.cpp:411] conv4 -> conv4
I0521 03:43:01.547951 30122 net.cpp:150] Setting up conv4
I0521 03:43:01.547979 30122 net.cpp:157] Top shape: 620 36 6 42 (5624640)
I0521 03:43:01.547991 30122 net.cpp:165] Memory required for data: 942853840
I0521 03:43:01.548007 30122 layer_factory.hpp:77] Creating layer relu4
I0521 03:43:01.548020 30122 net.cpp:106] Creating Layer relu4
I0521 03:43:01.548032 30122 net.cpp:454] relu4 <- conv4
I0521 03:43:01.548044 30122 net.cpp:397] relu4 -> conv4 (in-place)
I0521 03:43:01.548516 30122 net.cpp:150] Setting up relu4
I0521 03:43:01.548532 30122 net.cpp:157] Top shape: 620 36 6 42 (5624640)
I0521 03:43:01.548542 30122 net.cpp:165] Memory required for data: 965352400
I0521 03:43:01.548552 30122 layer_factory.hpp:77] Creating layer pool4
I0521 03:43:01.548565 30122 net.cpp:106] Creating Layer pool4
I0521 03:43:01.548575 30122 net.cpp:454] pool4 <- conv4
I0521 03:43:01.548589 30122 net.cpp:411] pool4 -> pool4
I0521 03:43:01.548657 30122 net.cpp:150] Setting up pool4
I0521 03:43:01.548671 30122 net.cpp:157] Top shape: 620 36 3 42 (2812320)
I0521 03:43:01.548681 30122 net.cpp:165] Memory required for data: 976601680
I0521 03:43:01.548691 30122 layer_factory.hpp:77] Creating layer ip1
I0521 03:43:01.548710 30122 net.cpp:106] Creating Layer ip1
I0521 03:43:01.548720 30122 net.cpp:454] ip1 <- pool4
I0521 03:43:01.548734 30122 net.cpp:411] ip1 -> ip1
I0521 03:43:01.564160 30122 net.cpp:150] Setting up ip1
I0521 03:43:01.564189 30122 net.cpp:157] Top shape: 620 196 (121520)
I0521 03:43:01.564201 30122 net.cpp:165] Memory required for data: 977087760
I0521 03:43:01.564229 30122 layer_factory.hpp:77] Creating layer relu5
I0521 03:43:01.564244 30122 net.cpp:106] Creating Layer relu5
I0521 03:43:01.564254 30122 net.cpp:454] relu5 <- ip1
I0521 03:43:01.564268 30122 net.cpp:397] relu5 -> ip1 (in-place)
I0521 03:43:01.564612 30122 net.cpp:150] Setting up relu5
I0521 03:43:01.564626 30122 net.cpp:157] Top shape: 620 196 (121520)
I0521 03:43:01.564637 30122 net.cpp:165] Memory required for data: 977573840
I0521 03:43:01.564647 30122 layer_factory.hpp:77] Creating layer drop1
I0521 03:43:01.564668 30122 net.cpp:106] Creating Layer drop1
I0521 03:43:01.564678 30122 net.cpp:454] drop1 <- ip1
I0521 03:43:01.564703 30122 net.cpp:397] drop1 -> ip1 (in-place)
I0521 03:43:01.564749 30122 net.cpp:150] Setting up drop1
I0521 03:43:01.564762 30122 net.cpp:157] Top shape: 620 196 (121520)
I0521 03:43:01.564772 30122 net.cpp:165] Memory required for data: 978059920
I0521 03:43:01.564782 30122 layer_factory.hpp:77] Creating layer ip2
I0521 03:43:01.564800 30122 net.cpp:106] Creating Layer ip2
I0521 03:43:01.564810 30122 net.cpp:454] ip2 <- ip1
I0521 03:43:01.564823 30122 net.cpp:411] ip2 -> ip2
I0521 03:43:01.565289 30122 net.cpp:150] Setting up ip2
I0521 03:43:01.565302 30122 net.cpp:157] Top shape: 620 98 (60760)
I0521 03:43:01.565312 30122 net.cpp:165] Memory required for data: 978302960
I0521 03:43:01.565327 30122 layer_factory.hpp:77] Creating layer relu6
I0521 03:43:01.565340 30122 net.cpp:106] Creating Layer relu6
I0521 03:43:01.565349 30122 net.cpp:454] relu6 <- ip2
I0521 03:43:01.565361 30122 net.cpp:397] relu6 -> ip2 (in-place)
I0521 03:43:01.565872 30122 net.cpp:150] Setting up relu6
I0521 03:43:01.565887 30122 net.cpp:157] Top shape: 620 98 (60760)
I0521 03:43:01.565898 30122 net.cpp:165] Memory required for data: 978546000
I0521 03:43:01.565908 30122 layer_factory.hpp:77] Creating layer drop2
I0521 03:43:01.565922 30122 net.cpp:106] Creating Layer drop2
I0521 03:43:01.565932 30122 net.cpp:454] drop2 <- ip2
I0521 03:43:01.565943 30122 net.cpp:397] drop2 -> ip2 (in-place)
I0521 03:43:01.565985 30122 net.cpp:150] Setting up drop2
I0521 03:43:01.565999 30122 net.cpp:157] Top shape: 620 98 (60760)
I0521 03:43:01.566009 30122 net.cpp:165] Memory required for data: 978789040
I0521 03:43:01.566020 30122 layer_factory.hpp:77] Creating layer ip3
I0521 03:43:01.566032 30122 net.cpp:106] Creating Layer ip3
I0521 03:43:01.566042 30122 net.cpp:454] ip3 <- ip2
I0521 03:43:01.566054 30122 net.cpp:411] ip3 -> ip3
I0521 03:43:01.566265 30122 net.cpp:150] Setting up ip3
I0521 03:43:01.566278 30122 net.cpp:157] Top shape: 620 11 (6820)
I0521 03:43:01.566288 30122 net.cpp:165] Memory required for data: 978816320
I0521 03:43:01.566303 30122 layer_factory.hpp:77] Creating layer drop3
I0521 03:43:01.566315 30122 net.cpp:106] Creating Layer drop3
I0521 03:43:01.566324 30122 net.cpp:454] drop3 <- ip3
I0521 03:43:01.566336 30122 net.cpp:397] drop3 -> ip3 (in-place)
I0521 03:43:01.566375 30122 net.cpp:150] Setting up drop3
I0521 03:43:01.566387 30122 net.cpp:157] Top shape: 620 11 (6820)
I0521 03:43:01.566397 30122 net.cpp:165] Memory required for data: 978843600
I0521 03:43:01.566407 30122 layer_factory.hpp:77] Creating layer loss
I0521 03:43:01.566433 30122 net.cpp:106] Creating Layer loss
I0521 03:43:01.566443 30122 net.cpp:454] loss <- ip3
I0521 03:43:01.566454 30122 net.cpp:454] loss <- label
I0521 03:43:01.566467 30122 net.cpp:411] loss -> loss
I0521 03:43:01.566483 30122 layer_factory.hpp:77] Creating layer loss
…
I0521 03:43:01.569072 30122 solver.cpp:181] Creating test net (#0) specified by net file: /lustre/atlas/proj-shared/hep105/caffe_titan/caffe_workflow/logs_batch_size_test/batch_size_620_2016-05-20T11.20.55.153016.prototxt
I0521 03:43:01.569141 30122 net.cpp:322] The NetState phase (1) differed from the phase (0) specified by a rule in layer data_hdf5
I0521 03:43:01.569497 30122 net.cpp:49] Initializing net from parameters: 
name: "caffe_test_127x50_x_unshifted"
state {
  phase: TEST
}
layer {
  name: "data_hdf5"
  type: "HDF5Data"
  top: "data"
  top: "label"
  include {
    phase: TEST
  }
  hdf5_data_param {
    source: "/lustre/atlas/proj-shared/hep105/caffe_titan/minosmatch_nukecczdefs_127x50_x_unshifted_me1Bmc.testlist"
    batch_size: 620
  }
}
layer {
  name: "conv1"
  type: "Convolution"
  bottom: "data"
  top: "conv1"
  convolution_param {
    num_output: 12
    pad: 0
    stride: 1
    weight_filler {
      type: "xavier"
    }
    bias_filler {
      type: "constant"
    }
    kernel_h: 8
    kernel_w: 3
  }
}
layer {
  name: "relu1"
  type: "ReLU"
  bottom: "conv1"
  top: "conv1"
}
layer {
  name: "pool1"
  type: "Pooling"
  bottom: "conv1"
  top: "pool1"
  pooling_param {
    pool: MAX
    kernel_h: 2
    kernel_w: 1
    stride_h: 2
    stride_w: 1
  }
}
layer {
  name: "conv2"
  type: "Convolution"
  bottom: "pool1"
  top: "conv2"
  convolution_param {
    num_output: 20
    pad: 0
    stride: 1
    weight_filler {
      type: "xavier"
    }
    bias_filler {
      type: "constant"
    }
    kernel_h: 7
    kernel_w: 3
  }
}
layer {
  name: "relu2"
  type: "ReLU"
  bottom: "conv2"
  top: "conv2"
}
layer {
  name: "pool2"
  type: "Pooling"
  bottom: "conv2"
  top: "pool2"
  pooling_param {
    pool: MAX
    kernel_h: 2
    kernel_w: 1
    stride_h: 2
    stride_w: 1
  }
}
layer {
  name: "conv3"
  type: "Convolution"
  bottom: "pool2"
  top: "conv3"
  convolution_param {
    num_output: 28
    pad: 0
    stride: 1
    weight_filler {
      type: "xavier"
    }
    bias_filler {
      type: "constant"
    }
    kernel_h: 6
    kernel_w: 3
  }
}
layer {
  name: "relu3"
  type: "ReLU"
  bottom: "conv3"
  top: "conv3"
}
layer {
  name: "pool3"
  type: "Pooling"
  bottom: "conv3"
  top: "pool3"
  pooling_param {
    pool: MAX
    kernel_h: 2
    kernel_w: 1
    stride_h: 2
    stride_w: 1
  }
}
layer {
  name: "conv4"
  type: "Convolution"
  bottom: "pool3"
  top: "conv4"
  convolution_param {
    num_output: 36
    pad: 0
    stride: 1
    weight_filler {
      type: "xavier"
    }
    bias_filler {
      type: "constant"
    }
    kernel_h: 6
    kernel_w: 3
  }
}
layer {
  name: "relu4"
  type: "ReLU"
  bottom: "conv4"
  top: "conv4"
}
layer {
  name: "pool4"
  type: "Pooling"
  bottom: "conv4"
  top: "pool4"
  pooling_param {
    pool: MAX
    kernel_h: 2
    kernel_w: 1
    stride_h: 2
    stride_w: 1
  }
}
layer {
  name: "ip1"
  type: "InnerProduct"
  bottom: "pool4"
  top: "ip1"
  inner_product_param {
    num_output: 196
    weight_filler {
      type: "xavier"
    }
    bias_filler {
      type: "constant"
    }
  }
}
layer {
  name: "relu5"
  type: "ReLU"
  bottom: "ip1"
  top: "ip1"
}
layer {
  name: "drop1"
  type: "Dropout"
  bottom: "ip1"
  top: "ip1"
  dropout_param {
    dropout_ratio: 0.5
  }
}
layer {
  name: "ip2"
  type: "InnerProduct"
  bottom: "ip1"
  top: "ip2"
  inner_product_param {
    num_output: 98
    weight_filler {
      type: "xavier"
    }
    bias_filler {
      type: "constant"
    }
  }
}
layer {
  name: "relu6"
  type: "ReLU"
  bottom: "ip2"
  top: "ip2"
}
layer {
  name: "drop2"
  type: "Dropout"
  bottom: "ip2"
  top: "ip2"
  dropout_param {
    dropout_ratio: 0.5
  }
}
layer {
  name: "ip3"
  type: "InnerProduct"
  bottom: "ip2"
  top: "ip3"
  inner_product_param {
    num_output: 11
    weight_filler {
      type: "xavier"
    }
    bias_filler {
      type: "constant"
    }
  }
}
layer {
  name: "drop3"
  type: "Dropout"
  bottom: "ip3"
  top: "ip3"
  dropout_param {
    dropout_ratio: 0.5
  }
}
layer {
  name: "accuracy"
  type: "Accuracy"
  bottom: "ip3"
  bottom: "label"
  top: "accuracy"
  include {
    phase: TEST
  }
}
layer {
  name: "loss"
  type: "SoftmaxWithLoss"
  bottom: "ip3"
  bottom: "label"
  top: "loss"
}
I0521 03:43:01.569687 30122 layer_factory.hpp:77] Creating layer data_hdf5
I0521 03:43:01.569702 30122 net.cpp:106] Creating Layer data_hdf5
I0521 03:43:01.569715 30122 net.cpp:411] data_hdf5 -> data
I0521 03:43:01.569730 30122 net.cpp:411] data_hdf5 -> label
I0521 03:43:01.569746 30122 hdf5_data_layer.cpp:79] Loading list of HDF5 filenames from: /lustre/atlas/proj-shared/hep105/caffe_titan/minosmatch_nukecczdefs_127x50_x_unshifted_me1Bmc.testlist
I0521 03:43:01.570910 30122 hdf5_data_layer.cpp:93] Number of HDF5 files: 3
I0521 03:43:22.906378 30122 net.cpp:150] Setting up data_hdf5
I0521 03:43:22.906549 30122 net.cpp:157] Top shape: 620 1 127 50 (3937000)
I0521 03:43:22.906561 30122 net.cpp:157] Top shape: 620 (620)
I0521 03:43:22.906570 30122 net.cpp:165] Memory required for data: 15750480
I0521 03:43:22.906589 30122 layer_factory.hpp:77] Creating layer label_data_hdf5_1_split
I0521 03:43:22.906620 30122 net.cpp:106] Creating Layer label_data_hdf5_1_split
I0521 03:43:22.906631 30122 net.cpp:454] label_data_hdf5_1_split <- label
I0521 03:43:22.906649 30122 net.cpp:411] label_data_hdf5_1_split -> label_data_hdf5_1_split_0
I0521 03:43:22.906671 30122 net.cpp:411] label_data_hdf5_1_split -> label_data_hdf5_1_split_1
I0521 03:43:22.906744 30122 net.cpp:150] Setting up label_data_hdf5_1_split
I0521 03:43:22.906757 30122 net.cpp:157] Top shape: 620 (620)
I0521 03:43:22.906767 30122 net.cpp:157] Top shape: 620 (620)
I0521 03:43:22.906777 30122 net.cpp:165] Memory required for data: 15755440
I0521 03:43:22.906788 30122 layer_factory.hpp:77] Creating layer conv1
I0521 03:43:22.906810 30122 net.cpp:106] Creating Layer conv1
I0521 03:43:22.906821 30122 net.cpp:454] conv1 <- data
I0521 03:43:22.906834 30122 net.cpp:411] conv1 -> conv1
I0521 03:43:22.908754 30122 net.cpp:150] Setting up conv1
I0521 03:43:22.908778 30122 net.cpp:157] Top shape: 620 12 120 48 (42854400)
I0521 03:43:22.908789 30122 net.cpp:165] Memory required for data: 187173040
I0521 03:43:22.908809 30122 layer_factory.hpp:77] Creating layer relu1
I0521 03:43:22.908824 30122 net.cpp:106] Creating Layer relu1
I0521 03:43:22.908834 30122 net.cpp:454] relu1 <- conv1
I0521 03:43:22.908846 30122 net.cpp:397] relu1 -> conv1 (in-place)
I0521 03:43:22.909343 30122 net.cpp:150] Setting up relu1
I0521 03:43:22.909358 30122 net.cpp:157] Top shape: 620 12 120 48 (42854400)
I0521 03:43:22.909368 30122 net.cpp:165] Memory required for data: 358590640
I0521 03:43:22.909378 30122 layer_factory.hpp:77] Creating layer pool1
I0521 03:43:22.909394 30122 net.cpp:106] Creating Layer pool1
I0521 03:43:22.909404 30122 net.cpp:454] pool1 <- conv1
I0521 03:43:22.909416 30122 net.cpp:411] pool1 -> pool1
I0521 03:43:22.909492 30122 net.cpp:150] Setting up pool1
I0521 03:43:22.909504 30122 net.cpp:157] Top shape: 620 12 60 48 (21427200)
I0521 03:43:22.909514 30122 net.cpp:165] Memory required for data: 444299440
I0521 03:43:22.909524 30122 layer_factory.hpp:77] Creating layer conv2
I0521 03:43:22.909544 30122 net.cpp:106] Creating Layer conv2
I0521 03:43:22.909554 30122 net.cpp:454] conv2 <- pool1
I0521 03:43:22.909569 30122 net.cpp:411] conv2 -> conv2
I0521 03:43:22.911484 30122 net.cpp:150] Setting up conv2
I0521 03:43:22.911507 30122 net.cpp:157] Top shape: 620 20 54 46 (30801600)
I0521 03:43:22.911519 30122 net.cpp:165] Memory required for data: 567505840
I0521 03:43:22.911535 30122 layer_factory.hpp:77] Creating layer relu2
I0521 03:43:22.911548 30122 net.cpp:106] Creating Layer relu2
I0521 03:43:22.911558 30122 net.cpp:454] relu2 <- conv2
I0521 03:43:22.911571 30122 net.cpp:397] relu2 -> conv2 (in-place)
I0521 03:43:22.911903 30122 net.cpp:150] Setting up relu2
I0521 03:43:22.911917 30122 net.cpp:157] Top shape: 620 20 54 46 (30801600)
I0521 03:43:22.911928 30122 net.cpp:165] Memory required for data: 690712240
I0521 03:43:22.911937 30122 layer_factory.hpp:77] Creating layer pool2
I0521 03:43:22.911950 30122 net.cpp:106] Creating Layer pool2
I0521 03:43:22.911960 30122 net.cpp:454] pool2 <- conv2
I0521 03:43:22.911972 30122 net.cpp:411] pool2 -> pool2
I0521 03:43:22.912042 30122 net.cpp:150] Setting up pool2
I0521 03:43:22.912056 30122 net.cpp:157] Top shape: 620 20 27 46 (15400800)
I0521 03:43:22.912065 30122 net.cpp:165] Memory required for data: 752315440
I0521 03:43:22.912075 30122 layer_factory.hpp:77] Creating layer conv3
I0521 03:43:22.912094 30122 net.cpp:106] Creating Layer conv3
I0521 03:43:22.912104 30122 net.cpp:454] conv3 <- pool2
I0521 03:43:22.912120 30122 net.cpp:411] conv3 -> conv3
I0521 03:43:22.914078 30122 net.cpp:150] Setting up conv3
I0521 03:43:22.914101 30122 net.cpp:157] Top shape: 620 28 22 44 (16804480)
I0521 03:43:22.914111 30122 net.cpp:165] Memory required for data: 819533360
I0521 03:43:22.914144 30122 layer_factory.hpp:77] Creating layer relu3
I0521 03:43:22.914156 30122 net.cpp:106] Creating Layer relu3
I0521 03:43:22.914166 30122 net.cpp:454] relu3 <- conv3
I0521 03:43:22.914180 30122 net.cpp:397] relu3 -> conv3 (in-place)
I0521 03:43:22.914660 30122 net.cpp:150] Setting up relu3
I0521 03:43:22.914675 30122 net.cpp:157] Top shape: 620 28 22 44 (16804480)
I0521 03:43:22.914686 30122 net.cpp:165] Memory required for data: 886751280
I0521 03:43:22.914695 30122 layer_factory.hpp:77] Creating layer pool3
I0521 03:43:22.914708 30122 net.cpp:106] Creating Layer pool3
I0521 03:43:22.914718 30122 net.cpp:454] pool3 <- conv3
I0521 03:43:22.914731 30122 net.cpp:411] pool3 -> pool3
I0521 03:43:22.914803 30122 net.cpp:150] Setting up pool3
I0521 03:43:22.914816 30122 net.cpp:157] Top shape: 620 28 11 44 (8402240)
I0521 03:43:22.914826 30122 net.cpp:165] Memory required for data: 920360240
I0521 03:43:22.914835 30122 layer_factory.hpp:77] Creating layer conv4
I0521 03:43:22.914854 30122 net.cpp:106] Creating Layer conv4
I0521 03:43:22.914863 30122 net.cpp:454] conv4 <- pool3
I0521 03:43:22.914875 30122 net.cpp:411] conv4 -> conv4
I0521 03:43:22.916921 30122 net.cpp:150] Setting up conv4
I0521 03:43:22.916939 30122 net.cpp:157] Top shape: 620 36 6 42 (5624640)
I0521 03:43:22.916949 30122 net.cpp:165] Memory required for data: 942858800
I0521 03:43:22.916963 30122 layer_factory.hpp:77] Creating layer relu4
I0521 03:43:22.916977 30122 net.cpp:106] Creating Layer relu4
I0521 03:43:22.916987 30122 net.cpp:454] relu4 <- conv4
I0521 03:43:22.916999 30122 net.cpp:397] relu4 -> conv4 (in-place)
I0521 03:43:22.917469 30122 net.cpp:150] Setting up relu4
I0521 03:43:22.917484 30122 net.cpp:157] Top shape: 620 36 6 42 (5624640)
I0521 03:43:22.917493 30122 net.cpp:165] Memory required for data: 965357360
I0521 03:43:22.917503 30122 layer_factory.hpp:77] Creating layer pool4
I0521 03:43:22.917516 30122 net.cpp:106] Creating Layer pool4
I0521 03:43:22.917526 30122 net.cpp:454] pool4 <- conv4
I0521 03:43:22.917539 30122 net.cpp:411] pool4 -> pool4
I0521 03:43:22.917610 30122 net.cpp:150] Setting up pool4
I0521 03:43:22.917623 30122 net.cpp:157] Top shape: 620 36 3 42 (2812320)
I0521 03:43:22.917632 30122 net.cpp:165] Memory required for data: 976606640
I0521 03:43:22.917642 30122 layer_factory.hpp:77] Creating layer ip1
I0521 03:43:22.917657 30122 net.cpp:106] Creating Layer ip1
I0521 03:43:22.917667 30122 net.cpp:454] ip1 <- pool4
I0521 03:43:22.917680 30122 net.cpp:411] ip1 -> ip1
I0521 03:43:22.933177 30122 net.cpp:150] Setting up ip1
I0521 03:43:22.933207 30122 net.cpp:157] Top shape: 620 196 (121520)
I0521 03:43:22.933220 30122 net.cpp:165] Memory required for data: 977092720
I0521 03:43:22.933243 30122 layer_factory.hpp:77] Creating layer relu5
I0521 03:43:22.933259 30122 net.cpp:106] Creating Layer relu5
I0521 03:43:22.933269 30122 net.cpp:454] relu5 <- ip1
I0521 03:43:22.933282 30122 net.cpp:397] relu5 -> ip1 (in-place)
I0521 03:43:22.933629 30122 net.cpp:150] Setting up relu5
I0521 03:43:22.933643 30122 net.cpp:157] Top shape: 620 196 (121520)
I0521 03:43:22.933653 30122 net.cpp:165] Memory required for data: 977578800
I0521 03:43:22.933662 30122 layer_factory.hpp:77] Creating layer drop1
I0521 03:43:22.933682 30122 net.cpp:106] Creating Layer drop1
I0521 03:43:22.933692 30122 net.cpp:454] drop1 <- ip1
I0521 03:43:22.933704 30122 net.cpp:397] drop1 -> ip1 (in-place)
I0521 03:43:22.933748 30122 net.cpp:150] Setting up drop1
I0521 03:43:22.933760 30122 net.cpp:157] Top shape: 620 196 (121520)
I0521 03:43:22.933770 30122 net.cpp:165] Memory required for data: 978064880
I0521 03:43:22.933779 30122 layer_factory.hpp:77] Creating layer ip2
I0521 03:43:22.933794 30122 net.cpp:106] Creating Layer ip2
I0521 03:43:22.933804 30122 net.cpp:454] ip2 <- ip1
I0521 03:43:22.933816 30122 net.cpp:411] ip2 -> ip2
I0521 03:43:22.934296 30122 net.cpp:150] Setting up ip2
I0521 03:43:22.934310 30122 net.cpp:157] Top shape: 620 98 (60760)
I0521 03:43:22.934320 30122 net.cpp:165] Memory required for data: 978307920
I0521 03:43:22.934348 30122 layer_factory.hpp:77] Creating layer relu6
I0521 03:43:22.934361 30122 net.cpp:106] Creating Layer relu6
I0521 03:43:22.934371 30122 net.cpp:454] relu6 <- ip2
I0521 03:43:22.934383 30122 net.cpp:397] relu6 -> ip2 (in-place)
I0521 03:43:22.934919 30122 net.cpp:150] Setting up relu6
I0521 03:43:22.934936 30122 net.cpp:157] Top shape: 620 98 (60760)
I0521 03:43:22.934947 30122 net.cpp:165] Memory required for data: 978550960
I0521 03:43:22.934957 30122 layer_factory.hpp:77] Creating layer drop2
I0521 03:43:22.934970 30122 net.cpp:106] Creating Layer drop2
I0521 03:43:22.934980 30122 net.cpp:454] drop2 <- ip2
I0521 03:43:22.934993 30122 net.cpp:397] drop2 -> ip2 (in-place)
I0521 03:43:22.935037 30122 net.cpp:150] Setting up drop2
I0521 03:43:22.935050 30122 net.cpp:157] Top shape: 620 98 (60760)
I0521 03:43:22.935060 30122 net.cpp:165] Memory required for data: 978794000
I0521 03:43:22.935070 30122 layer_factory.hpp:77] Creating layer ip3
I0521 03:43:22.935083 30122 net.cpp:106] Creating Layer ip3
I0521 03:43:22.935093 30122 net.cpp:454] ip3 <- ip2
I0521 03:43:22.935107 30122 net.cpp:411] ip3 -> ip3
I0521 03:43:22.935330 30122 net.cpp:150] Setting up ip3
I0521 03:43:22.935343 30122 net.cpp:157] Top shape: 620 11 (6820)
I0521 03:43:22.935353 30122 net.cpp:165] Memory required for data: 978821280
I0521 03:43:22.935367 30122 layer_factory.hpp:77] Creating layer drop3
I0521 03:43:22.935381 30122 net.cpp:106] Creating Layer drop3
I0521 03:43:22.935390 30122 net.cpp:454] drop3 <- ip3
I0521 03:43:22.935403 30122 net.cpp:397] drop3 -> ip3 (in-place)
I0521 03:43:22.935444 30122 net.cpp:150] Setting up drop3
I0521 03:43:22.935457 30122 net.cpp:157] Top shape: 620 11 (6820)
I0521 03:43:22.935467 30122 net.cpp:165] Memory required for data: 978848560
I0521 03:43:22.935477 30122 layer_factory.hpp:77] Creating layer ip3_drop3_0_split
I0521 03:43:22.935492 30122 net.cpp:106] Creating Layer ip3_drop3_0_split
I0521 03:43:22.935502 30122 net.cpp:454] ip3_drop3_0_split <- ip3
I0521 03:43:22.935514 30122 net.cpp:411] ip3_drop3_0_split -> ip3_drop3_0_split_0
I0521 03:43:22.935528 30122 net.cpp:411] ip3_drop3_0_split -> ip3_drop3_0_split_1
I0521 03:43:22.935601 30122 net.cpp:150] Setting up ip3_drop3_0_split
I0521 03:43:22.935613 30122 net.cpp:157] Top shape: 620 11 (6820)
I0521 03:43:22.935626 30122 net.cpp:157] Top shape: 620 11 (6820)
I0521 03:43:22.935636 30122 net.cpp:165] Memory required for data: 978903120
I0521 03:43:22.935645 30122 layer_factory.hpp:77] Creating layer accuracy
I0521 03:43:22.935668 30122 net.cpp:106] Creating Layer accuracy
I0521 03:43:22.935678 30122 net.cpp:454] accuracy <- ip3_drop3_0_split_0
I0521 03:43:22.935690 30122 net.cpp:454] accuracy <- label_data_hdf5_1_split_0
I0521 03:43:22.935704 30122 net.cpp:411] accuracy -> accuracy
…
