…
I0520 11:21:00.379767 10675 net.cpp:322] The NetState phase (0) differed from the phase (1) specified by a rule in layer data_hdf5
I0520 11:21:00.379827 10675 net.cpp:322] The NetState phase (0) differed from the phase (1) specified by a rule in layer accuracy
I0520 11:21:00.380174 10675 net.cpp:49] Initializing net from parameters: 
name: "caffe_test_127x50_x_unshifted"
state {
  phase: TRAIN
}
layer {
  name: "data_hdf5"
  type: "HDF5Data"
  top: "data"
  top: "label"
  include {
    phase: TRAIN
  }
  hdf5_data_param {
    source: "/lustre/atlas/proj-shared/hep105/caffe_titan/minosmatch_nukecczdefs_127x50_x_unshifted_me1Bmc.trainlist"
    batch_size: 20
  }
}
layer {
  name: "conv1"
  type: "Convolution"
  bottom: "data"
  top: "conv1"
  convolution_param {
    num_output: 12
    pad: 0
    stride: 1
    weight_filler {
      type: "xavier"
    }
    bias_filler {
      type: "constant"
    }
    kernel_h: 8
    kernel_w: 3
  }
}
layer {
  name: "relu1"
  type: "ReLU"
  bottom: "conv1"
  top: "conv1"
}
layer {
  name: "pool1"
  type: "Pooling"
  bottom: "conv1"
  top: "pool1"
  pooling_param {
    pool: MAX
    kernel_h: 2
    kernel_w: 1
    stride_h: 2
    stride_w: 1
  }
}
layer {
  name: "conv2"
  type: "Convolution"
  bottom: "pool1"
  top: "conv2"
  convolution_param {
    num_output: 20
    pad: 0
    stride: 1
    weight_filler {
      type: "xavier"
    }
    bias_filler {
      type: "constant"
    }
    kernel_h: 7
    kernel_w: 3
  }
}
layer {
  name: "relu2"
  type: "ReLU"
  bottom: "conv2"
  top: "conv2"
}
layer {
  name: "pool2"
  type: "Pooling"
  bottom: "conv2"
  top: "pool2"
  pooling_param {
    pool: MAX
    kernel_h: 2
    kernel_w: 1
    stride_h: 2
    stride_w: 1
  }
}
layer {
  name: "conv3"
  type: "Convolution"
  bottom: "pool2"
  top: "conv3"
  convolution_param {
    num_output: 28
    pad: 0
    stride: 1
    weight_filler {
      type: "xavier"
    }
    bias_filler {
      type: "constant"
    }
    kernel_h: 6
    kernel_w: 3
  }
}
layer {
  name: "relu3"
  type: "ReLU"
  bottom: "conv3"
  top: "conv3"
}
layer {
  name: "pool3"
  type: "Pooling"
  bottom: "conv3"
  top: "pool3"
  pooling_param {
    pool: MAX
    kernel_h: 2
    kernel_w: 1
    stride_h: 2
    stride_w: 1
  }
}
layer {
  name: "conv4"
  type: "Convolution"
  bottom: "pool3"
  top: "conv4"
  convolution_param {
    num_output: 36
    pad: 0
    stride: 1
    weight_filler {
      type: "xavier"
    }
    bias_filler {
      type: "constant"
    }
    kernel_h: 6
    kernel_w: 3
  }
}
layer {
  name: "relu4"
  type: "ReLU"
  bottom: "conv4"
  top: "conv4"
}
layer {
  name: "pool4"
  type: "Pooling"
  bottom: "conv4"
  top: "pool4"
  pooling_param {
    pool: MAX
    kernel_h: 2
    kernel_w: 1
    stride_h: 2
    stride_w: 1
  }
}
layer {
  name: "ip1"
  type: "InnerProduct"
  bottom: "pool4"
  top: "ip1"
  inner_product_param {
    num_output: 196
    weight_filler {
      type: "xavier"
    }
    bias_filler {
      type: "constant"
    }
  }
}
layer {
  name: "relu5"
  type: "ReLU"
  bottom: "ip1"
  top: "ip1"
}
layer {
  name: "drop1"
  type: "Dropout"
  bottom: "ip1"
  top: "ip1"
  dropout_param {
    dropout_ratio: 0.5
  }
}
layer {
  name: "ip2"
  type: "InnerProduct"
  bottom: "ip1"
  top: "ip2"
  inner_product_param {
    num_output: 98
    weight_filler {
      type: "xavier"
    }
    bias_filler {
      type: "constant"
    }
  }
}
layer {
  name: "relu6"
  type: "ReLU"
  bottom: "ip2"
  top: "ip2"
}
layer {
  name: "drop2"
  type: "Dropout"
  bottom: "ip2"
  top: "ip2"
  dropout_param {
    dropout_ratio: 0.5
  }
}
layer {
  name: "ip3"
  type: "InnerProduct"
  bottom: "ip2"
  top: "ip3"
  inner_product_param {
    num_output: 11
    weight_filler {
      type: "xavier"
    }
    bias_filler {
      type: "constant"
    }
  }
}
layer {
  name: "drop3"
  type: "Dropout"
  bottom: "ip3"
  top: "ip3"
  dropout_param {
    dropout_ratio: 0.5
  }
}
layer {
  name: "loss"
  type: "SoftmaxWithLoss"
  bottom: "ip3"
  bottom: "label"
  top: "loss"
}
I0520 11:21:00.380355 10675 layer_factory.hpp:77] Creating layer data_hdf5
I0520 11:21:00.380379 10675 net.cpp:106] Creating Layer data_hdf5
I0520 11:21:00.380394 10675 net.cpp:411] data_hdf5 -> data
I0520 11:21:00.380427 10675 net.cpp:411] data_hdf5 -> label
I0520 11:21:00.380460 10675 hdf5_data_layer.cpp:79] Loading list of HDF5 filenames from: /lustre/atlas/proj-shared/hep105/caffe_titan/minosmatch_nukecczdefs_127x50_x_unshifted_me1Bmc.trainlist
I0520 11:21:00.392042 10675 hdf5_data_layer.cpp:93] Number of HDF5 files: 15
I0520 11:21:00.413316 10675 hdf5.cpp:32] Datatype class: H5T_FLOAT
I0520 11:21:21.946904 10675 hdf5.cpp:35] Datatype class: H5T_INTEGER
I0520 11:21:21.952049 10675 net.cpp:150] Setting up data_hdf5
I0520 11:21:21.952088 10675 net.cpp:157] Top shape: 20 1 127 50 (127000)
I0520 11:21:21.952103 10675 net.cpp:157] Top shape: 20 (20)
I0520 11:21:21.952111 10675 net.cpp:165] Memory required for data: 508080
I0520 11:21:21.952122 10675 layer_factory.hpp:77] Creating layer conv1
I0520 11:21:21.952157 10675 net.cpp:106] Creating Layer conv1
I0520 11:21:21.952168 10675 net.cpp:454] conv1 <- data
I0520 11:21:21.952190 10675 net.cpp:411] conv1 -> conv1
I0520 11:21:23.981091 10675 net.cpp:150] Setting up conv1
I0520 11:21:23.981133 10675 net.cpp:157] Top shape: 20 12 120 48 (1382400)
I0520 11:21:23.981143 10675 net.cpp:165] Memory required for data: 6037680
I0520 11:21:23.981173 10675 layer_factory.hpp:77] Creating layer relu1
I0520 11:21:23.981194 10675 net.cpp:106] Creating Layer relu1
I0520 11:21:23.981204 10675 net.cpp:454] relu1 <- conv1
I0520 11:21:23.981217 10675 net.cpp:397] relu1 -> conv1 (in-place)
I0520 11:21:23.981736 10675 net.cpp:150] Setting up relu1
I0520 11:21:23.981753 10675 net.cpp:157] Top shape: 20 12 120 48 (1382400)
I0520 11:21:23.981763 10675 net.cpp:165] Memory required for data: 11567280
I0520 11:21:23.981775 10675 layer_factory.hpp:77] Creating layer pool1
I0520 11:21:23.981791 10675 net.cpp:106] Creating Layer pool1
I0520 11:21:23.981801 10675 net.cpp:454] pool1 <- conv1
I0520 11:21:23.981813 10675 net.cpp:411] pool1 -> pool1
I0520 11:21:23.981894 10675 net.cpp:150] Setting up pool1
I0520 11:21:23.981909 10675 net.cpp:157] Top shape: 20 12 60 48 (691200)
I0520 11:21:23.981919 10675 net.cpp:165] Memory required for data: 14332080
I0520 11:21:23.981926 10675 layer_factory.hpp:77] Creating layer conv2
I0520 11:21:23.981948 10675 net.cpp:106] Creating Layer conv2
I0520 11:21:23.981958 10675 net.cpp:454] conv2 <- pool1
I0520 11:21:23.981972 10675 net.cpp:411] conv2 -> conv2
I0520 11:21:23.984683 10675 net.cpp:150] Setting up conv2
I0520 11:21:23.984711 10675 net.cpp:157] Top shape: 20 20 54 46 (993600)
I0520 11:21:23.984724 10675 net.cpp:165] Memory required for data: 18306480
I0520 11:21:23.984743 10675 layer_factory.hpp:77] Creating layer relu2
I0520 11:21:23.984757 10675 net.cpp:106] Creating Layer relu2
I0520 11:21:23.984768 10675 net.cpp:454] relu2 <- conv2
I0520 11:21:23.984781 10675 net.cpp:397] relu2 -> conv2 (in-place)
I0520 11:21:23.985111 10675 net.cpp:150] Setting up relu2
I0520 11:21:23.985126 10675 net.cpp:157] Top shape: 20 20 54 46 (993600)
I0520 11:21:23.985136 10675 net.cpp:165] Memory required for data: 22280880
I0520 11:21:23.985146 10675 layer_factory.hpp:77] Creating layer pool2
I0520 11:21:23.985159 10675 net.cpp:106] Creating Layer pool2
I0520 11:21:23.985169 10675 net.cpp:454] pool2 <- conv2
I0520 11:21:23.985194 10675 net.cpp:411] pool2 -> pool2
I0520 11:21:23.985263 10675 net.cpp:150] Setting up pool2
I0520 11:21:23.985277 10675 net.cpp:157] Top shape: 20 20 27 46 (496800)
I0520 11:21:23.985286 10675 net.cpp:165] Memory required for data: 24268080
I0520 11:21:23.985294 10675 layer_factory.hpp:77] Creating layer conv3
I0520 11:21:23.985313 10675 net.cpp:106] Creating Layer conv3
I0520 11:21:23.985323 10675 net.cpp:454] conv3 <- pool2
I0520 11:21:23.985337 10675 net.cpp:411] conv3 -> conv3
I0520 11:21:23.987284 10675 net.cpp:150] Setting up conv3
I0520 11:21:23.987308 10675 net.cpp:157] Top shape: 20 28 22 44 (542080)
I0520 11:21:23.987319 10675 net.cpp:165] Memory required for data: 26436400
I0520 11:21:23.987339 10675 layer_factory.hpp:77] Creating layer relu3
I0520 11:21:23.987354 10675 net.cpp:106] Creating Layer relu3
I0520 11:21:23.987365 10675 net.cpp:454] relu3 <- conv3
I0520 11:21:23.987377 10675 net.cpp:397] relu3 -> conv3 (in-place)
I0520 11:21:23.987848 10675 net.cpp:150] Setting up relu3
I0520 11:21:23.987865 10675 net.cpp:157] Top shape: 20 28 22 44 (542080)
I0520 11:21:23.987876 10675 net.cpp:165] Memory required for data: 28604720
I0520 11:21:23.987887 10675 layer_factory.hpp:77] Creating layer pool3
I0520 11:21:23.987901 10675 net.cpp:106] Creating Layer pool3
I0520 11:21:23.987910 10675 net.cpp:454] pool3 <- conv3
I0520 11:21:23.987923 10675 net.cpp:411] pool3 -> pool3
I0520 11:21:23.987992 10675 net.cpp:150] Setting up pool3
I0520 11:21:23.988004 10675 net.cpp:157] Top shape: 20 28 11 44 (271040)
I0520 11:21:23.988014 10675 net.cpp:165] Memory required for data: 29688880
I0520 11:21:23.988023 10675 layer_factory.hpp:77] Creating layer conv4
I0520 11:21:23.988040 10675 net.cpp:106] Creating Layer conv4
I0520 11:21:23.988050 10675 net.cpp:454] conv4 <- pool3
I0520 11:21:23.988065 10675 net.cpp:411] conv4 -> conv4
I0520 11:21:23.990782 10675 net.cpp:150] Setting up conv4
I0520 11:21:23.990810 10675 net.cpp:157] Top shape: 20 36 6 42 (181440)
I0520 11:21:23.990820 10675 net.cpp:165] Memory required for data: 30414640
I0520 11:21:23.990836 10675 layer_factory.hpp:77] Creating layer relu4
I0520 11:21:23.990850 10675 net.cpp:106] Creating Layer relu4
I0520 11:21:23.990860 10675 net.cpp:454] relu4 <- conv4
I0520 11:21:23.990875 10675 net.cpp:397] relu4 -> conv4 (in-place)
I0520 11:21:23.991344 10675 net.cpp:150] Setting up relu4
I0520 11:21:23.991360 10675 net.cpp:157] Top shape: 20 36 6 42 (181440)
I0520 11:21:23.991371 10675 net.cpp:165] Memory required for data: 31140400
I0520 11:21:23.991381 10675 layer_factory.hpp:77] Creating layer pool4
I0520 11:21:23.991394 10675 net.cpp:106] Creating Layer pool4
I0520 11:21:23.991405 10675 net.cpp:454] pool4 <- conv4
I0520 11:21:23.991417 10675 net.cpp:411] pool4 -> pool4
I0520 11:21:23.991485 10675 net.cpp:150] Setting up pool4
I0520 11:21:23.991499 10675 net.cpp:157] Top shape: 20 36 3 42 (90720)
I0520 11:21:23.991510 10675 net.cpp:165] Memory required for data: 31503280
I0520 11:21:23.991520 10675 layer_factory.hpp:77] Creating layer ip1
I0520 11:21:23.991539 10675 net.cpp:106] Creating Layer ip1
I0520 11:21:23.991549 10675 net.cpp:454] ip1 <- pool4
I0520 11:21:23.991561 10675 net.cpp:411] ip1 -> ip1
I0520 11:21:24.006973 10675 net.cpp:150] Setting up ip1
I0520 11:21:24.007000 10675 net.cpp:157] Top shape: 20 196 (3920)
I0520 11:21:24.007014 10675 net.cpp:165] Memory required for data: 31518960
I0520 11:21:24.007037 10675 layer_factory.hpp:77] Creating layer relu5
I0520 11:21:24.007051 10675 net.cpp:106] Creating Layer relu5
I0520 11:21:24.007062 10675 net.cpp:454] relu5 <- ip1
I0520 11:21:24.007076 10675 net.cpp:397] relu5 -> ip1 (in-place)
I0520 11:21:24.007422 10675 net.cpp:150] Setting up relu5
I0520 11:21:24.007436 10675 net.cpp:157] Top shape: 20 196 (3920)
I0520 11:21:24.007447 10675 net.cpp:165] Memory required for data: 31534640
I0520 11:21:24.007457 10675 layer_factory.hpp:77] Creating layer drop1
I0520 11:21:24.007477 10675 net.cpp:106] Creating Layer drop1
I0520 11:21:24.007488 10675 net.cpp:454] drop1 <- ip1
I0520 11:21:24.007500 10675 net.cpp:397] drop1 -> ip1 (in-place)
I0520 11:21:24.007560 10675 net.cpp:150] Setting up drop1
I0520 11:21:24.007573 10675 net.cpp:157] Top shape: 20 196 (3920)
I0520 11:21:24.007583 10675 net.cpp:165] Memory required for data: 31550320
I0520 11:21:24.007593 10675 layer_factory.hpp:77] Creating layer ip2
I0520 11:21:24.007611 10675 net.cpp:106] Creating Layer ip2
I0520 11:21:24.007622 10675 net.cpp:454] ip2 <- ip1
I0520 11:21:24.007634 10675 net.cpp:411] ip2 -> ip2
I0520 11:21:24.008096 10675 net.cpp:150] Setting up ip2
I0520 11:21:24.008110 10675 net.cpp:157] Top shape: 20 98 (1960)
I0520 11:21:24.008119 10675 net.cpp:165] Memory required for data: 31558160
I0520 11:21:24.008134 10675 layer_factory.hpp:77] Creating layer relu6
I0520 11:21:24.008147 10675 net.cpp:106] Creating Layer relu6
I0520 11:21:24.008157 10675 net.cpp:454] relu6 <- ip2
I0520 11:21:24.008168 10675 net.cpp:397] relu6 -> ip2 (in-place)
I0520 11:21:24.008685 10675 net.cpp:150] Setting up relu6
I0520 11:21:24.008702 10675 net.cpp:157] Top shape: 20 98 (1960)
I0520 11:21:24.008713 10675 net.cpp:165] Memory required for data: 31566000
I0520 11:21:24.008723 10675 layer_factory.hpp:77] Creating layer drop2
I0520 11:21:24.008736 10675 net.cpp:106] Creating Layer drop2
I0520 11:21:24.008745 10675 net.cpp:454] drop2 <- ip2
I0520 11:21:24.008759 10675 net.cpp:397] drop2 -> ip2 (in-place)
I0520 11:21:24.008800 10675 net.cpp:150] Setting up drop2
I0520 11:21:24.008813 10675 net.cpp:157] Top shape: 20 98 (1960)
I0520 11:21:24.008824 10675 net.cpp:165] Memory required for data: 31573840
I0520 11:21:24.008834 10675 layer_factory.hpp:77] Creating layer ip3
I0520 11:21:24.008848 10675 net.cpp:106] Creating Layer ip3
I0520 11:21:24.008857 10675 net.cpp:454] ip3 <- ip2
I0520 11:21:24.008870 10675 net.cpp:411] ip3 -> ip3
I0520 11:21:24.009079 10675 net.cpp:150] Setting up ip3
I0520 11:21:24.009093 10675 net.cpp:157] Top shape: 20 11 (220)
I0520 11:21:24.009102 10675 net.cpp:165] Memory required for data: 31574720
I0520 11:21:24.009117 10675 layer_factory.hpp:77] Creating layer drop3
I0520 11:21:24.009130 10675 net.cpp:106] Creating Layer drop3
I0520 11:21:24.009140 10675 net.cpp:454] drop3 <- ip3
I0520 11:21:24.009151 10675 net.cpp:397] drop3 -> ip3 (in-place)
I0520 11:21:24.009191 10675 net.cpp:150] Setting up drop3
I0520 11:21:24.009203 10675 net.cpp:157] Top shape: 20 11 (220)
I0520 11:21:24.009213 10675 net.cpp:165] Memory required for data: 31575600
I0520 11:21:24.009223 10675 layer_factory.hpp:77] Creating layer loss
I0520 11:21:24.009243 10675 net.cpp:106] Creating Layer loss
I0520 11:21:24.009251 10675 net.cpp:454] loss <- ip3
I0520 11:21:24.009263 10675 net.cpp:454] loss <- label
I0520 11:21:24.009275 10675 net.cpp:411] loss -> loss
I0520 11:21:24.009292 10675 layer_factory.hpp:77] Creating layer loss
…
I0520 11:21:24.011994 10675 solver.cpp:181] Creating test net (#0) specified by net file: /lustre/atlas/proj-shared/hep105/caffe_titan/caffe_workflow/logs_batch_size_test/batch_size_20_2016-05-20T11.20.33.225833.prototxt
I0520 11:21:24.012065 10675 net.cpp:322] The NetState phase (1) differed from the phase (0) specified by a rule in layer data_hdf5
I0520 11:21:24.012421 10675 net.cpp:49] Initializing net from parameters: 
name: "caffe_test_127x50_x_unshifted"
state {
  phase: TEST
}
layer {
  name: "data_hdf5"
  type: "HDF5Data"
  top: "data"
  top: "label"
  include {
    phase: TEST
  }
  hdf5_data_param {
    source: "/lustre/atlas/proj-shared/hep105/caffe_titan/minosmatch_nukecczdefs_127x50_x_unshifted_me1Bmc.testlist"
    batch_size: 20
  }
}
layer {
  name: "conv1"
  type: "Convolution"
  bottom: "data"
  top: "conv1"
  convolution_param {
    num_output: 12
    pad: 0
    stride: 1
    weight_filler {
      type: "xavier"
    }
    bias_filler {
      type: "constant"
    }
    kernel_h: 8
    kernel_w: 3
  }
}
layer {
  name: "relu1"
  type: "ReLU"
  bottom: "conv1"
  top: "conv1"
}
layer {
  name: "pool1"
  type: "Pooling"
  bottom: "conv1"
  top: "pool1"
  pooling_param {
    pool: MAX
    kernel_h: 2
    kernel_w: 1
    stride_h: 2
    stride_w: 1
  }
}
layer {
  name: "conv2"
  type: "Convolution"
  bottom: "pool1"
  top: "conv2"
  convolution_param {
    num_output: 20
    pad: 0
    stride: 1
    weight_filler {
      type: "xavier"
    }
    bias_filler {
      type: "constant"
    }
    kernel_h: 7
    kernel_w: 3
  }
}
layer {
  name: "relu2"
  type: "ReLU"
  bottom: "conv2"
  top: "conv2"
}
layer {
  name: "pool2"
  type: "Pooling"
  bottom: "conv2"
  top: "pool2"
  pooling_param {
    pool: MAX
    kernel_h: 2
    kernel_w: 1
    stride_h: 2
    stride_w: 1
  }
}
layer {
  name: "conv3"
  type: "Convolution"
  bottom: "pool2"
  top: "conv3"
  convolution_param {
    num_output: 28
    pad: 0
    stride: 1
    weight_filler {
      type: "xavier"
    }
    bias_filler {
      type: "constant"
    }
    kernel_h: 6
    kernel_w: 3
  }
}
layer {
  name: "relu3"
  type: "ReLU"
  bottom: "conv3"
  top: "conv3"
}
layer {
  name: "pool3"
  type: "Pooling"
  bottom: "conv3"
  top: "pool3"
  pooling_param {
    pool: MAX
    kernel_h: 2
    kernel_w: 1
    stride_h: 2
    stride_w: 1
  }
}
layer {
  name: "conv4"
  type: "Convolution"
  bottom: "pool3"
  top: "conv4"
  convolution_param {
    num_output: 36
    pad: 0
    stride: 1
    weight_filler {
      type: "xavier"
    }
    bias_filler {
      type: "constant"
    }
    kernel_h: 6
    kernel_w: 3
  }
}
layer {
  name: "relu4"
  type: "ReLU"
  bottom: "conv4"
  top: "conv4"
}
layer {
  name: "pool4"
  type: "Pooling"
  bottom: "conv4"
  top: "pool4"
  pooling_param {
    pool: MAX
    kernel_h: 2
    kernel_w: 1
    stride_h: 2
    stride_w: 1
  }
}
layer {
  name: "ip1"
  type: "InnerProduct"
  bottom: "pool4"
  top: "ip1"
  inner_product_param {
    num_output: 196
    weight_filler {
      type: "xavier"
    }
    bias_filler {
      type: "constant"
    }
  }
}
layer {
  name: "relu5"
  type: "ReLU"
  bottom: "ip1"
  top: "ip1"
}
layer {
  name: "drop1"
  type: "Dropout"
  bottom: "ip1"
  top: "ip1"
  dropout_param {
    dropout_ratio: 0.5
  }
}
layer {
  name: "ip2"
  type: "InnerProduct"
  bottom: "ip1"
  top: "ip2"
  inner_product_param {
    num_output: 98
    weight_filler {
      type: "xavier"
    }
    bias_filler {
      type: "constant"
    }
  }
}
layer {
  name: "relu6"
  type: "ReLU"
  bottom: "ip2"
  top: "ip2"
}
layer {
  name: "drop2"
  type: "Dropout"
  bottom: "ip2"
  top: "ip2"
  dropout_param {
    dropout_ratio: 0.5
  }
}
layer {
  name: "ip3"
  type: "InnerProduct"
  bottom: "ip2"
  top: "ip3"
  inner_product_param {
    num_output: 11
    weight_filler {
      type: "xavier"
    }
    bias_filler {
      type: "constant"
    }
  }
}
layer {
  name: "drop3"
  type: "Dropout"
  bottom: "ip3"
  top: "ip3"
  dropout_param {
    dropout_ratio: 0.5
  }
}
layer {
  name: "accuracy"
  type: "Accuracy"
  bottom: "ip3"
  bottom: "label"
  top: "accuracy"
  include {
    phase: TEST
  }
}
layer {
  name: "loss"
  type: "SoftmaxWithLoss"
  bottom: "ip3"
  bottom: "label"
  top: "loss"
}
I0520 11:21:24.012610 10675 layer_factory.hpp:77] Creating layer data_hdf5
I0520 11:21:24.012625 10675 net.cpp:106] Creating Layer data_hdf5
I0520 11:21:24.012637 10675 net.cpp:411] data_hdf5 -> data
I0520 11:21:24.012655 10675 net.cpp:411] data_hdf5 -> label
I0520 11:21:24.012671 10675 hdf5_data_layer.cpp:79] Loading list of HDF5 filenames from: /lustre/atlas/proj-shared/hep105/caffe_titan/minosmatch_nukecczdefs_127x50_x_unshifted_me1Bmc.testlist
I0520 11:21:24.035322 10675 hdf5_data_layer.cpp:93] Number of HDF5 files: 3
I0520 11:21:45.373410 10675 net.cpp:150] Setting up data_hdf5
I0520 11:21:45.373574 10675 net.cpp:157] Top shape: 20 1 127 50 (127000)
I0520 11:21:45.373589 10675 net.cpp:157] Top shape: 20 (20)
I0520 11:21:45.373599 10675 net.cpp:165] Memory required for data: 508080
I0520 11:21:45.373612 10675 layer_factory.hpp:77] Creating layer label_data_hdf5_1_split
I0520 11:21:45.373641 10675 net.cpp:106] Creating Layer label_data_hdf5_1_split
I0520 11:21:45.373651 10675 net.cpp:454] label_data_hdf5_1_split <- label
I0520 11:21:45.373667 10675 net.cpp:411] label_data_hdf5_1_split -> label_data_hdf5_1_split_0
I0520 11:21:45.373687 10675 net.cpp:411] label_data_hdf5_1_split -> label_data_hdf5_1_split_1
I0520 11:21:45.373760 10675 net.cpp:150] Setting up label_data_hdf5_1_split
I0520 11:21:45.373774 10675 net.cpp:157] Top shape: 20 (20)
I0520 11:21:45.373785 10675 net.cpp:157] Top shape: 20 (20)
I0520 11:21:45.373795 10675 net.cpp:165] Memory required for data: 508240
I0520 11:21:45.373805 10675 layer_factory.hpp:77] Creating layer conv1
I0520 11:21:45.373827 10675 net.cpp:106] Creating Layer conv1
I0520 11:21:45.373838 10675 net.cpp:454] conv1 <- data
I0520 11:21:45.373853 10675 net.cpp:411] conv1 -> conv1
I0520 11:21:45.375784 10675 net.cpp:150] Setting up conv1
I0520 11:21:45.375808 10675 net.cpp:157] Top shape: 20 12 120 48 (1382400)
I0520 11:21:45.375820 10675 net.cpp:165] Memory required for data: 6037840
I0520 11:21:45.375840 10675 layer_factory.hpp:77] Creating layer relu1
I0520 11:21:45.375855 10675 net.cpp:106] Creating Layer relu1
I0520 11:21:45.375865 10675 net.cpp:454] relu1 <- conv1
I0520 11:21:45.375879 10675 net.cpp:397] relu1 -> conv1 (in-place)
I0520 11:21:45.376376 10675 net.cpp:150] Setting up relu1
I0520 11:21:45.376392 10675 net.cpp:157] Top shape: 20 12 120 48 (1382400)
I0520 11:21:45.376404 10675 net.cpp:165] Memory required for data: 11567440
I0520 11:21:45.376413 10675 layer_factory.hpp:77] Creating layer pool1
I0520 11:21:45.376430 10675 net.cpp:106] Creating Layer pool1
I0520 11:21:45.376438 10675 net.cpp:454] pool1 <- conv1
I0520 11:21:45.376451 10675 net.cpp:411] pool1 -> pool1
I0520 11:21:45.376526 10675 net.cpp:150] Setting up pool1
I0520 11:21:45.376540 10675 net.cpp:157] Top shape: 20 12 60 48 (691200)
I0520 11:21:45.376549 10675 net.cpp:165] Memory required for data: 14332240
I0520 11:21:45.376560 10675 layer_factory.hpp:77] Creating layer conv2
I0520 11:21:45.376577 10675 net.cpp:106] Creating Layer conv2
I0520 11:21:45.376588 10675 net.cpp:454] conv2 <- pool1
I0520 11:21:45.376602 10675 net.cpp:411] conv2 -> conv2
I0520 11:21:45.378517 10675 net.cpp:150] Setting up conv2
I0520 11:21:45.378540 10675 net.cpp:157] Top shape: 20 20 54 46 (993600)
I0520 11:21:45.378552 10675 net.cpp:165] Memory required for data: 18306640
I0520 11:21:45.378569 10675 layer_factory.hpp:77] Creating layer relu2
I0520 11:21:45.378583 10675 net.cpp:106] Creating Layer relu2
I0520 11:21:45.378593 10675 net.cpp:454] relu2 <- conv2
I0520 11:21:45.378605 10675 net.cpp:397] relu2 -> conv2 (in-place)
I0520 11:21:45.378939 10675 net.cpp:150] Setting up relu2
I0520 11:21:45.378953 10675 net.cpp:157] Top shape: 20 20 54 46 (993600)
I0520 11:21:45.378963 10675 net.cpp:165] Memory required for data: 22281040
I0520 11:21:45.378973 10675 layer_factory.hpp:77] Creating layer pool2
I0520 11:21:45.378986 10675 net.cpp:106] Creating Layer pool2
I0520 11:21:45.378996 10675 net.cpp:454] pool2 <- conv2
I0520 11:21:45.379009 10675 net.cpp:411] pool2 -> pool2
I0520 11:21:45.379081 10675 net.cpp:150] Setting up pool2
I0520 11:21:45.379096 10675 net.cpp:157] Top shape: 20 20 27 46 (496800)
I0520 11:21:45.379106 10675 net.cpp:165] Memory required for data: 24268240
I0520 11:21:45.379122 10675 layer_factory.hpp:77] Creating layer conv3
I0520 11:21:45.379142 10675 net.cpp:106] Creating Layer conv3
I0520 11:21:45.379153 10675 net.cpp:454] conv3 <- pool2
I0520 11:21:45.379166 10675 net.cpp:411] conv3 -> conv3
I0520 11:21:45.381139 10675 net.cpp:150] Setting up conv3
I0520 11:21:45.381156 10675 net.cpp:157] Top shape: 20 28 22 44 (542080)
I0520 11:21:45.381166 10675 net.cpp:165] Memory required for data: 26436560
I0520 11:21:45.381186 10675 layer_factory.hpp:77] Creating layer relu3
I0520 11:21:45.381211 10675 net.cpp:106] Creating Layer relu3
I0520 11:21:45.381222 10675 net.cpp:454] relu3 <- conv3
I0520 11:21:45.381235 10675 net.cpp:397] relu3 -> conv3 (in-place)
I0520 11:21:45.381710 10675 net.cpp:150] Setting up relu3
I0520 11:21:45.381726 10675 net.cpp:157] Top shape: 20 28 22 44 (542080)
I0520 11:21:45.381736 10675 net.cpp:165] Memory required for data: 28604880
I0520 11:21:45.381745 10675 layer_factory.hpp:77] Creating layer pool3
I0520 11:21:45.381758 10675 net.cpp:106] Creating Layer pool3
I0520 11:21:45.381768 10675 net.cpp:454] pool3 <- conv3
I0520 11:21:45.381780 10675 net.cpp:411] pool3 -> pool3
I0520 11:21:45.381852 10675 net.cpp:150] Setting up pool3
I0520 11:21:45.381865 10675 net.cpp:157] Top shape: 20 28 11 44 (271040)
I0520 11:21:45.381875 10675 net.cpp:165] Memory required for data: 29689040
I0520 11:21:45.381886 10675 layer_factory.hpp:77] Creating layer conv4
I0520 11:21:45.381903 10675 net.cpp:106] Creating Layer conv4
I0520 11:21:45.381913 10675 net.cpp:454] conv4 <- pool3
I0520 11:21:45.381927 10675 net.cpp:411] conv4 -> conv4
I0520 11:21:45.383996 10675 net.cpp:150] Setting up conv4
I0520 11:21:45.384019 10675 net.cpp:157] Top shape: 20 36 6 42 (181440)
I0520 11:21:45.384032 10675 net.cpp:165] Memory required for data: 30414800
I0520 11:21:45.384047 10675 layer_factory.hpp:77] Creating layer relu4
I0520 11:21:45.384060 10675 net.cpp:106] Creating Layer relu4
I0520 11:21:45.384069 10675 net.cpp:454] relu4 <- conv4
I0520 11:21:45.384083 10675 net.cpp:397] relu4 -> conv4 (in-place)
I0520 11:21:45.384552 10675 net.cpp:150] Setting up relu4
I0520 11:21:45.384568 10675 net.cpp:157] Top shape: 20 36 6 42 (181440)
I0520 11:21:45.384578 10675 net.cpp:165] Memory required for data: 31140560
I0520 11:21:45.384588 10675 layer_factory.hpp:77] Creating layer pool4
I0520 11:21:45.384601 10675 net.cpp:106] Creating Layer pool4
I0520 11:21:45.384611 10675 net.cpp:454] pool4 <- conv4
I0520 11:21:45.384629 10675 net.cpp:411] pool4 -> pool4
I0520 11:21:45.384701 10675 net.cpp:150] Setting up pool4
I0520 11:21:45.384714 10675 net.cpp:157] Top shape: 20 36 3 42 (90720)
I0520 11:21:45.384723 10675 net.cpp:165] Memory required for data: 31503440
I0520 11:21:45.384733 10675 layer_factory.hpp:77] Creating layer ip1
I0520 11:21:45.384747 10675 net.cpp:106] Creating Layer ip1
I0520 11:21:45.384758 10675 net.cpp:454] ip1 <- pool4
I0520 11:21:45.384771 10675 net.cpp:411] ip1 -> ip1
I0520 11:21:45.400223 10675 net.cpp:150] Setting up ip1
I0520 11:21:45.400252 10675 net.cpp:157] Top shape: 20 196 (3920)
I0520 11:21:45.400264 10675 net.cpp:165] Memory required for data: 31519120
I0520 11:21:45.400285 10675 layer_factory.hpp:77] Creating layer relu5
I0520 11:21:45.400300 10675 net.cpp:106] Creating Layer relu5
I0520 11:21:45.400310 10675 net.cpp:454] relu5 <- ip1
I0520 11:21:45.400324 10675 net.cpp:397] relu5 -> ip1 (in-place)
I0520 11:21:45.400670 10675 net.cpp:150] Setting up relu5
I0520 11:21:45.400683 10675 net.cpp:157] Top shape: 20 196 (3920)
I0520 11:21:45.400693 10675 net.cpp:165] Memory required for data: 31534800
I0520 11:21:45.400703 10675 layer_factory.hpp:77] Creating layer drop1
I0520 11:21:45.400723 10675 net.cpp:106] Creating Layer drop1
I0520 11:21:45.400733 10675 net.cpp:454] drop1 <- ip1
I0520 11:21:45.400746 10675 net.cpp:397] drop1 -> ip1 (in-place)
I0520 11:21:45.400791 10675 net.cpp:150] Setting up drop1
I0520 11:21:45.400804 10675 net.cpp:157] Top shape: 20 196 (3920)
I0520 11:21:45.400815 10675 net.cpp:165] Memory required for data: 31550480
I0520 11:21:45.400825 10675 layer_factory.hpp:77] Creating layer ip2
I0520 11:21:45.400838 10675 net.cpp:106] Creating Layer ip2
I0520 11:21:45.400848 10675 net.cpp:454] ip2 <- ip1
I0520 11:21:45.400861 10675 net.cpp:411] ip2 -> ip2
I0520 11:21:45.401340 10675 net.cpp:150] Setting up ip2
I0520 11:21:45.401352 10675 net.cpp:157] Top shape: 20 98 (1960)
I0520 11:21:45.401362 10675 net.cpp:165] Memory required for data: 31558320
I0520 11:21:45.401377 10675 layer_factory.hpp:77] Creating layer relu6
I0520 11:21:45.401403 10675 net.cpp:106] Creating Layer relu6
I0520 11:21:45.401413 10675 net.cpp:454] relu6 <- ip2
I0520 11:21:45.401427 10675 net.cpp:397] relu6 -> ip2 (in-place)
I0520 11:21:45.401957 10675 net.cpp:150] Setting up relu6
I0520 11:21:45.401974 10675 net.cpp:157] Top shape: 20 98 (1960)
I0520 11:21:45.401983 10675 net.cpp:165] Memory required for data: 31566160
I0520 11:21:45.401993 10675 layer_factory.hpp:77] Creating layer drop2
I0520 11:21:45.402006 10675 net.cpp:106] Creating Layer drop2
I0520 11:21:45.402016 10675 net.cpp:454] drop2 <- ip2
I0520 11:21:45.402029 10675 net.cpp:397] drop2 -> ip2 (in-place)
I0520 11:21:45.402073 10675 net.cpp:150] Setting up drop2
I0520 11:21:45.402086 10675 net.cpp:157] Top shape: 20 98 (1960)
I0520 11:21:45.402096 10675 net.cpp:165] Memory required for data: 31574000
I0520 11:21:45.402107 10675 layer_factory.hpp:77] Creating layer ip3
I0520 11:21:45.402120 10675 net.cpp:106] Creating Layer ip3
I0520 11:21:45.402130 10675 net.cpp:454] ip3 <- ip2
I0520 11:21:45.402144 10675 net.cpp:411] ip3 -> ip3
I0520 11:21:45.402365 10675 net.cpp:150] Setting up ip3
I0520 11:21:45.402379 10675 net.cpp:157] Top shape: 20 11 (220)
I0520 11:21:45.402389 10675 net.cpp:165] Memory required for data: 31574880
I0520 11:21:45.402405 10675 layer_factory.hpp:77] Creating layer drop3
I0520 11:21:45.402417 10675 net.cpp:106] Creating Layer drop3
I0520 11:21:45.402427 10675 net.cpp:454] drop3 <- ip3
I0520 11:21:45.402439 10675 net.cpp:397] drop3 -> ip3 (in-place)
I0520 11:21:45.402482 10675 net.cpp:150] Setting up drop3
I0520 11:21:45.402493 10675 net.cpp:157] Top shape: 20 11 (220)
I0520 11:21:45.402503 10675 net.cpp:165] Memory required for data: 31575760
I0520 11:21:45.402513 10675 layer_factory.hpp:77] Creating layer ip3_drop3_0_split
I0520 11:21:45.402525 10675 net.cpp:106] Creating Layer ip3_drop3_0_split
I0520 11:21:45.402535 10675 net.cpp:454] ip3_drop3_0_split <- ip3
I0520 11:21:45.402547 10675 net.cpp:411] ip3_drop3_0_split -> ip3_drop3_0_split_0
I0520 11:21:45.402562 10675 net.cpp:411] ip3_drop3_0_split -> ip3_drop3_0_split_1
I0520 11:21:45.402637 10675 net.cpp:150] Setting up ip3_drop3_0_split
I0520 11:21:45.402649 10675 net.cpp:157] Top shape: 20 11 (220)
I0520 11:21:45.402662 10675 net.cpp:157] Top shape: 20 11 (220)
I0520 11:21:45.402670 10675 net.cpp:165] Memory required for data: 31577520
I0520 11:21:45.402680 10675 layer_factory.hpp:77] Creating layer accuracy
I0520 11:21:45.402703 10675 net.cpp:106] Creating Layer accuracy
I0520 11:21:45.402712 10675 net.cpp:454] accuracy <- ip3_drop3_0_split_0
I0520 11:21:45.402724 10675 net.cpp:454] accuracy <- label_data_hdf5_1_split_0
I0520 11:21:45.402737 10675 net.cpp:411] accuracy -> accuracy
…
