…
I0520 12:55:55.184742 31794 net.cpp:322] The NetState phase (0) differed from the phase (1) specified by a rule in layer data_hdf5
I0520 12:55:55.184801 31794 net.cpp:322] The NetState phase (0) differed from the phase (1) specified by a rule in layer accuracy
I0520 12:55:55.185148 31794 net.cpp:49] Initializing net from parameters: 
name: "caffe_test_127x50_x_unshifted"
state {
  phase: TRAIN
}
layer {
  name: "data_hdf5"
  type: "HDF5Data"
  top: "data"
  top: "label"
  include {
    phase: TRAIN
  }
  hdf5_data_param {
    source: "/lustre/atlas/proj-shared/hep105/caffe_titan/minosmatch_nukecczdefs_127x50_x_unshifted_me1Bmc.trainlist"
    batch_size: 60
  }
}
layer {
  name: "conv1"
  type: "Convolution"
  bottom: "data"
  top: "conv1"
  convolution_param {
    num_output: 12
    pad: 0
    stride: 1
    weight_filler {
      type: "xavier"
    }
    bias_filler {
      type: "constant"
    }
    kernel_h: 8
    kernel_w: 3
  }
}
layer {
  name: "relu1"
  type: "ReLU"
  bottom: "conv1"
  top: "conv1"
}
layer {
  name: "pool1"
  type: "Pooling"
  bottom: "conv1"
  top: "pool1"
  pooling_param {
    pool: MAX
    kernel_h: 2
    kernel_w: 1
    stride_h: 2
    stride_w: 1
  }
}
layer {
  name: "conv2"
  type: "Convolution"
  bottom: "pool1"
  top: "conv2"
  convolution_param {
    num_output: 20
    pad: 0
    stride: 1
    weight_filler {
      type: "xavier"
    }
    bias_filler {
      type: "constant"
    }
    kernel_h: 7
    kernel_w: 3
  }
}
layer {
  name: "relu2"
  type: "ReLU"
  bottom: "conv2"
  top: "conv2"
}
layer {
  name: "pool2"
  type: "Pooling"
  bottom: "conv2"
  top: "pool2"
  pooling_param {
    pool: MAX
    kernel_h: 2
    kernel_w: 1
    stride_h: 2
    stride_w: 1
  }
}
layer {
  name: "conv3"
  type: "Convolution"
  bottom: "pool2"
  top: "conv3"
  convolution_param {
    num_output: 28
    pad: 0
    stride: 1
    weight_filler {
      type: "xavier"
    }
    bias_filler {
      type: "constant"
    }
    kernel_h: 6
    kernel_w: 3
  }
}
layer {
  name: "relu3"
  type: "ReLU"
  bottom: "conv3"
  top: "conv3"
}
layer {
  name: "pool3"
  type: "Pooling"
  bottom: "conv3"
  top: "pool3"
  pooling_param {
    pool: MAX
    kernel_h: 2
    kernel_w: 1
    stride_h: 2
    stride_w: 1
  }
}
layer {
  name: "conv4"
  type: "Convolution"
  bottom: "pool3"
  top: "conv4"
  convolution_param {
    num_output: 36
    pad: 0
    stride: 1
    weight_filler {
      type: "xavier"
    }
    bias_filler {
      type: "constant"
    }
    kernel_h: 6
    kernel_w: 3
  }
}
layer {
  name: "relu4"
  type: "ReLU"
  bottom: "conv4"
  top: "conv4"
}
layer {
  name: "pool4"
  type: "Pooling"
  bottom: "conv4"
  top: "pool4"
  pooling_param {
    pool: MAX
    kernel_h: 2
    kernel_w: 1
    stride_h: 2
    stride_w: 1
  }
}
layer {
  name: "ip1"
  type: "InnerProduct"
  bottom: "pool4"
  top: "ip1"
  inner_product_param {
    num_output: 196
    weight_filler {
      type: "xavier"
    }
    bias_filler {
      type: "constant"
    }
  }
}
layer {
  name: "relu5"
  type: "ReLU"
  bottom: "ip1"
  top: "ip1"
}
layer {
  name: "drop1"
  type: "Dropout"
  bottom: "ip1"
  top: "ip1"
  dropout_param {
    dropout_ratio: 0.5
  }
}
layer {
  name: "ip2"
  type: "InnerProduct"
  bottom: "ip1"
  top: "ip2"
  inner_product_param {
    num_output: 98
    weight_filler {
      type: "xavier"
    }
    bias_filler {
      type: "constant"
    }
  }
}
layer {
  name: "relu6"
  type: "ReLU"
  bottom: "ip2"
  top: "ip2"
}
layer {
  name: "drop2"
  type: "Dropout"
  bottom: "ip2"
  top: "ip2"
  dropout_param {
    dropout_ratio: 0.5
  }
}
layer {
  name: "ip3"
  type: "InnerProduct"
  bottom: "ip2"
  top: "ip3"
  inner_product_param {
    num_output: 11
    weight_filler {
      type: "xavier"
    }
    bias_filler {
      type: "constant"
    }
  }
}
layer {
  name: "drop3"
  type: "Dropout"
  bottom: "ip3"
  top: "ip3"
  dropout_param {
    dropout_ratio: 0.5
  }
}
layer {
  name: "loss"
  type: "SoftmaxWithLoss"
  bottom: "ip3"
  bottom: "label"
  top: "loss"
}
I0520 12:55:55.185326 31794 layer_factory.hpp:77] Creating layer data_hdf5
I0520 12:55:55.185349 31794 net.cpp:106] Creating Layer data_hdf5
I0520 12:55:55.185364 31794 net.cpp:411] data_hdf5 -> data
I0520 12:55:55.185397 31794 net.cpp:411] data_hdf5 -> label
I0520 12:55:55.185431 31794 hdf5_data_layer.cpp:79] Loading list of HDF5 filenames from: /lustre/atlas/proj-shared/hep105/caffe_titan/minosmatch_nukecczdefs_127x50_x_unshifted_me1Bmc.trainlist
I0520 12:55:55.186661 31794 hdf5_data_layer.cpp:93] Number of HDF5 files: 15
I0520 12:55:55.188886 31794 hdf5.cpp:32] Datatype class: H5T_FLOAT
I0520 12:56:16.697612 31794 hdf5.cpp:35] Datatype class: H5T_INTEGER
I0520 12:56:16.702755 31794 net.cpp:150] Setting up data_hdf5
I0520 12:56:16.702796 31794 net.cpp:157] Top shape: 60 1 127 50 (381000)
I0520 12:56:16.702811 31794 net.cpp:157] Top shape: 60 (60)
I0520 12:56:16.702823 31794 net.cpp:165] Memory required for data: 1524240
I0520 12:56:16.702836 31794 layer_factory.hpp:77] Creating layer conv1
I0520 12:56:16.702872 31794 net.cpp:106] Creating Layer conv1
I0520 12:56:16.702883 31794 net.cpp:454] conv1 <- data
I0520 12:56:16.702908 31794 net.cpp:411] conv1 -> conv1
I0520 12:56:17.065927 31794 net.cpp:150] Setting up conv1
I0520 12:56:17.065974 31794 net.cpp:157] Top shape: 60 12 120 48 (4147200)
I0520 12:56:17.065985 31794 net.cpp:165] Memory required for data: 18113040
I0520 12:56:17.066016 31794 layer_factory.hpp:77] Creating layer relu1
I0520 12:56:17.066036 31794 net.cpp:106] Creating Layer relu1
I0520 12:56:17.066047 31794 net.cpp:454] relu1 <- conv1
I0520 12:56:17.066061 31794 net.cpp:397] relu1 -> conv1 (in-place)
I0520 12:56:17.066573 31794 net.cpp:150] Setting up relu1
I0520 12:56:17.066591 31794 net.cpp:157] Top shape: 60 12 120 48 (4147200)
I0520 12:56:17.066601 31794 net.cpp:165] Memory required for data: 34701840
I0520 12:56:17.066611 31794 layer_factory.hpp:77] Creating layer pool1
I0520 12:56:17.066627 31794 net.cpp:106] Creating Layer pool1
I0520 12:56:17.066637 31794 net.cpp:454] pool1 <- conv1
I0520 12:56:17.066649 31794 net.cpp:411] pool1 -> pool1
I0520 12:56:17.066730 31794 net.cpp:150] Setting up pool1
I0520 12:56:17.066743 31794 net.cpp:157] Top shape: 60 12 60 48 (2073600)
I0520 12:56:17.066752 31794 net.cpp:165] Memory required for data: 42996240
I0520 12:56:17.066761 31794 layer_factory.hpp:77] Creating layer conv2
I0520 12:56:17.066782 31794 net.cpp:106] Creating Layer conv2
I0520 12:56:17.066794 31794 net.cpp:454] conv2 <- pool1
I0520 12:56:17.066807 31794 net.cpp:411] conv2 -> conv2
I0520 12:56:17.069557 31794 net.cpp:150] Setting up conv2
I0520 12:56:17.069584 31794 net.cpp:157] Top shape: 60 20 54 46 (2980800)
I0520 12:56:17.069594 31794 net.cpp:165] Memory required for data: 54919440
I0520 12:56:17.069613 31794 layer_factory.hpp:77] Creating layer relu2
I0520 12:56:17.069628 31794 net.cpp:106] Creating Layer relu2
I0520 12:56:17.069638 31794 net.cpp:454] relu2 <- conv2
I0520 12:56:17.069650 31794 net.cpp:397] relu2 -> conv2 (in-place)
I0520 12:56:17.069982 31794 net.cpp:150] Setting up relu2
I0520 12:56:17.069995 31794 net.cpp:157] Top shape: 60 20 54 46 (2980800)
I0520 12:56:17.070005 31794 net.cpp:165] Memory required for data: 66842640
I0520 12:56:17.070015 31794 layer_factory.hpp:77] Creating layer pool2
I0520 12:56:17.070027 31794 net.cpp:106] Creating Layer pool2
I0520 12:56:17.070037 31794 net.cpp:454] pool2 <- conv2
I0520 12:56:17.070062 31794 net.cpp:411] pool2 -> pool2
I0520 12:56:17.070132 31794 net.cpp:150] Setting up pool2
I0520 12:56:17.070144 31794 net.cpp:157] Top shape: 60 20 27 46 (1490400)
I0520 12:56:17.070154 31794 net.cpp:165] Memory required for data: 72804240
I0520 12:56:17.070163 31794 layer_factory.hpp:77] Creating layer conv3
I0520 12:56:17.070180 31794 net.cpp:106] Creating Layer conv3
I0520 12:56:17.070190 31794 net.cpp:454] conv3 <- pool2
I0520 12:56:17.070204 31794 net.cpp:411] conv3 -> conv3
I0520 12:56:17.072139 31794 net.cpp:150] Setting up conv3
I0520 12:56:17.072162 31794 net.cpp:157] Top shape: 60 28 22 44 (1626240)
I0520 12:56:17.072175 31794 net.cpp:165] Memory required for data: 79309200
I0520 12:56:17.072193 31794 layer_factory.hpp:77] Creating layer relu3
I0520 12:56:17.072209 31794 net.cpp:106] Creating Layer relu3
I0520 12:56:17.072219 31794 net.cpp:454] relu3 <- conv3
I0520 12:56:17.072232 31794 net.cpp:397] relu3 -> conv3 (in-place)
I0520 12:56:17.072710 31794 net.cpp:150] Setting up relu3
I0520 12:56:17.072727 31794 net.cpp:157] Top shape: 60 28 22 44 (1626240)
I0520 12:56:17.072738 31794 net.cpp:165] Memory required for data: 85814160
I0520 12:56:17.072748 31794 layer_factory.hpp:77] Creating layer pool3
I0520 12:56:17.072762 31794 net.cpp:106] Creating Layer pool3
I0520 12:56:17.072770 31794 net.cpp:454] pool3 <- conv3
I0520 12:56:17.072783 31794 net.cpp:411] pool3 -> pool3
I0520 12:56:17.072851 31794 net.cpp:150] Setting up pool3
I0520 12:56:17.072865 31794 net.cpp:157] Top shape: 60 28 11 44 (813120)
I0520 12:56:17.072875 31794 net.cpp:165] Memory required for data: 89066640
I0520 12:56:17.072882 31794 layer_factory.hpp:77] Creating layer conv4
I0520 12:56:17.072901 31794 net.cpp:106] Creating Layer conv4
I0520 12:56:17.072911 31794 net.cpp:454] conv4 <- pool3
I0520 12:56:17.072924 31794 net.cpp:411] conv4 -> conv4
I0520 12:56:17.075693 31794 net.cpp:150] Setting up conv4
I0520 12:56:17.075722 31794 net.cpp:157] Top shape: 60 36 6 42 (544320)
I0520 12:56:17.075732 31794 net.cpp:165] Memory required for data: 91243920
I0520 12:56:17.075748 31794 layer_factory.hpp:77] Creating layer relu4
I0520 12:56:17.075762 31794 net.cpp:106] Creating Layer relu4
I0520 12:56:17.075773 31794 net.cpp:454] relu4 <- conv4
I0520 12:56:17.075784 31794 net.cpp:397] relu4 -> conv4 (in-place)
I0520 12:56:17.076253 31794 net.cpp:150] Setting up relu4
I0520 12:56:17.076270 31794 net.cpp:157] Top shape: 60 36 6 42 (544320)
I0520 12:56:17.076280 31794 net.cpp:165] Memory required for data: 93421200
I0520 12:56:17.076292 31794 layer_factory.hpp:77] Creating layer pool4
I0520 12:56:17.076304 31794 net.cpp:106] Creating Layer pool4
I0520 12:56:17.076314 31794 net.cpp:454] pool4 <- conv4
I0520 12:56:17.076328 31794 net.cpp:411] pool4 -> pool4
I0520 12:56:17.076396 31794 net.cpp:150] Setting up pool4
I0520 12:56:17.076411 31794 net.cpp:157] Top shape: 60 36 3 42 (272160)
I0520 12:56:17.076421 31794 net.cpp:165] Memory required for data: 94509840
I0520 12:56:17.076431 31794 layer_factory.hpp:77] Creating layer ip1
I0520 12:56:17.076450 31794 net.cpp:106] Creating Layer ip1
I0520 12:56:17.076460 31794 net.cpp:454] ip1 <- pool4
I0520 12:56:17.076473 31794 net.cpp:411] ip1 -> ip1
I0520 12:56:17.091902 31794 net.cpp:150] Setting up ip1
I0520 12:56:17.091930 31794 net.cpp:157] Top shape: 60 196 (11760)
I0520 12:56:17.091943 31794 net.cpp:165] Memory required for data: 94556880
I0520 12:56:17.091965 31794 layer_factory.hpp:77] Creating layer relu5
I0520 12:56:17.091980 31794 net.cpp:106] Creating Layer relu5
I0520 12:56:17.091990 31794 net.cpp:454] relu5 <- ip1
I0520 12:56:17.092005 31794 net.cpp:397] relu5 -> ip1 (in-place)
I0520 12:56:17.092347 31794 net.cpp:150] Setting up relu5
I0520 12:56:17.092361 31794 net.cpp:157] Top shape: 60 196 (11760)
I0520 12:56:17.092371 31794 net.cpp:165] Memory required for data: 94603920
I0520 12:56:17.092382 31794 layer_factory.hpp:77] Creating layer drop1
I0520 12:56:17.092403 31794 net.cpp:106] Creating Layer drop1
I0520 12:56:17.092413 31794 net.cpp:454] drop1 <- ip1
I0520 12:56:17.092427 31794 net.cpp:397] drop1 -> ip1 (in-place)
I0520 12:56:17.092491 31794 net.cpp:150] Setting up drop1
I0520 12:56:17.092504 31794 net.cpp:157] Top shape: 60 196 (11760)
I0520 12:56:17.092515 31794 net.cpp:165] Memory required for data: 94650960
I0520 12:56:17.092525 31794 layer_factory.hpp:77] Creating layer ip2
I0520 12:56:17.092545 31794 net.cpp:106] Creating Layer ip2
I0520 12:56:17.092555 31794 net.cpp:454] ip2 <- ip1
I0520 12:56:17.092567 31794 net.cpp:411] ip2 -> ip2
I0520 12:56:17.093030 31794 net.cpp:150] Setting up ip2
I0520 12:56:17.093044 31794 net.cpp:157] Top shape: 60 98 (5880)
I0520 12:56:17.093053 31794 net.cpp:165] Memory required for data: 94674480
I0520 12:56:17.093068 31794 layer_factory.hpp:77] Creating layer relu6
I0520 12:56:17.093081 31794 net.cpp:106] Creating Layer relu6
I0520 12:56:17.093091 31794 net.cpp:454] relu6 <- ip2
I0520 12:56:17.093102 31794 net.cpp:397] relu6 -> ip2 (in-place)
I0520 12:56:17.093619 31794 net.cpp:150] Setting up relu6
I0520 12:56:17.093636 31794 net.cpp:157] Top shape: 60 98 (5880)
I0520 12:56:17.093647 31794 net.cpp:165] Memory required for data: 94698000
I0520 12:56:17.093657 31794 layer_factory.hpp:77] Creating layer drop2
I0520 12:56:17.093669 31794 net.cpp:106] Creating Layer drop2
I0520 12:56:17.093679 31794 net.cpp:454] drop2 <- ip2
I0520 12:56:17.093691 31794 net.cpp:397] drop2 -> ip2 (in-place)
I0520 12:56:17.093734 31794 net.cpp:150] Setting up drop2
I0520 12:56:17.093746 31794 net.cpp:157] Top shape: 60 98 (5880)
I0520 12:56:17.093757 31794 net.cpp:165] Memory required for data: 94721520
I0520 12:56:17.093767 31794 layer_factory.hpp:77] Creating layer ip3
I0520 12:56:17.093781 31794 net.cpp:106] Creating Layer ip3
I0520 12:56:17.093791 31794 net.cpp:454] ip3 <- ip2
I0520 12:56:17.093803 31794 net.cpp:411] ip3 -> ip3
I0520 12:56:17.094015 31794 net.cpp:150] Setting up ip3
I0520 12:56:17.094028 31794 net.cpp:157] Top shape: 60 11 (660)
I0520 12:56:17.094038 31794 net.cpp:165] Memory required for data: 94724160
I0520 12:56:17.094053 31794 layer_factory.hpp:77] Creating layer drop3
I0520 12:56:17.094066 31794 net.cpp:106] Creating Layer drop3
I0520 12:56:17.094075 31794 net.cpp:454] drop3 <- ip3
I0520 12:56:17.094087 31794 net.cpp:397] drop3 -> ip3 (in-place)
I0520 12:56:17.094127 31794 net.cpp:150] Setting up drop3
I0520 12:56:17.094140 31794 net.cpp:157] Top shape: 60 11 (660)
I0520 12:56:17.094149 31794 net.cpp:165] Memory required for data: 94726800
I0520 12:56:17.094159 31794 layer_factory.hpp:77] Creating layer loss
I0520 12:56:17.094178 31794 net.cpp:106] Creating Layer loss
I0520 12:56:17.094188 31794 net.cpp:454] loss <- ip3
I0520 12:56:17.094199 31794 net.cpp:454] loss <- label
I0520 12:56:17.094211 31794 net.cpp:411] loss -> loss
I0520 12:56:17.094228 31794 layer_factory.hpp:77] Creating layer loss
…
I0520 12:56:17.096802 31794 solver.cpp:181] Creating test net (#0) specified by net file: /lustre/atlas/proj-shared/hep105/caffe_titan/caffe_workflow/logs_batch_size_test/batch_size_60_2016-05-20T11.20.34.866786.prototxt
I0520 12:56:17.096874 31794 net.cpp:322] The NetState phase (1) differed from the phase (0) specified by a rule in layer data_hdf5
I0520 12:56:17.097312 31794 net.cpp:49] Initializing net from parameters: 
name: "caffe_test_127x50_x_unshifted"
state {
  phase: TEST
}
layer {
  name: "data_hdf5"
  type: "HDF5Data"
  top: "data"
  top: "label"
  include {
    phase: TEST
  }
  hdf5_data_param {
    source: "/lustre/atlas/proj-shared/hep105/caffe_titan/minosmatch_nukecczdefs_127x50_x_unshifted_me1Bmc.testlist"
    batch_size: 60
  }
}
layer {
  name: "conv1"
  type: "Convolution"
  bottom: "data"
  top: "conv1"
  convolution_param {
    num_output: 12
    pad: 0
    stride: 1
    weight_filler {
      type: "xavier"
    }
    bias_filler {
      type: "constant"
    }
    kernel_h: 8
    kernel_w: 3
  }
}
layer {
  name: "relu1"
  type: "ReLU"
  bottom: "conv1"
  top: "conv1"
}
layer {
  name: "pool1"
  type: "Pooling"
  bottom: "conv1"
  top: "pool1"
  pooling_param {
    pool: MAX
    kernel_h: 2
    kernel_w: 1
    stride_h: 2
    stride_w: 1
  }
}
layer {
  name: "conv2"
  type: "Convolution"
  bottom: "pool1"
  top: "conv2"
  convolution_param {
    num_output: 20
    pad: 0
    stride: 1
    weight_filler {
      type: "xavier"
    }
    bias_filler {
      type: "constant"
    }
    kernel_h: 7
    kernel_w: 3
  }
}
layer {
  name: "relu2"
  type: "ReLU"
  bottom: "conv2"
  top: "conv2"
}
layer {
  name: "pool2"
  type: "Pooling"
  bottom: "conv2"
  top: "pool2"
  pooling_param {
    pool: MAX
    kernel_h: 2
    kernel_w: 1
    stride_h: 2
    stride_w: 1
  }
}
layer {
  name: "conv3"
  type: "Convolution"
  bottom: "pool2"
  top: "conv3"
  convolution_param {
    num_output: 28
    pad: 0
    stride: 1
    weight_filler {
      type: "xavier"
    }
    bias_filler {
      type: "constant"
    }
    kernel_h: 6
    kernel_w: 3
  }
}
layer {
  name: "relu3"
  type: "ReLU"
  bottom: "conv3"
  top: "conv3"
}
layer {
  name: "pool3"
  type: "Pooling"
  bottom: "conv3"
  top: "pool3"
  pooling_param {
    pool: MAX
    kernel_h: 2
    kernel_w: 1
    stride_h: 2
    stride_w: 1
  }
}
layer {
  name: "conv4"
  type: "Convolution"
  bottom: "pool3"
  top: "conv4"
  convolution_param {
    num_output: 36
    pad: 0
    stride: 1
    weight_filler {
      type: "xavier"
    }
    bias_filler {
      type: "constant"
    }
    kernel_h: 6
    kernel_w: 3
  }
}
layer {
  name: "relu4"
  type: "ReLU"
  bottom: "conv4"
  top: "conv4"
}
layer {
  name: "pool4"
  type: "Pooling"
  bottom: "conv4"
  top: "pool4"
  pooling_param {
    pool: MAX
    kernel_h: 2
    kernel_w: 1
    stride_h: 2
    stride_w: 1
  }
}
layer {
  name: "ip1"
  type: "InnerProduct"
  bottom: "pool4"
  top: "ip1"
  inner_product_param {
    num_output: 196
    weight_filler {
      type: "xavier"
    }
    bias_filler {
      type: "constant"
    }
  }
}
layer {
  name: "relu5"
  type: "ReLU"
  bottom: "ip1"
  top: "ip1"
}
layer {
  name: "drop1"
  type: "Dropout"
  bottom: "ip1"
  top: "ip1"
  dropout_param {
    dropout_ratio: 0.5
  }
}
layer {
  name: "ip2"
  type: "InnerProduct"
  bottom: "ip1"
  top: "ip2"
  inner_product_param {
    num_output: 98
    weight_filler {
      type: "xavier"
    }
    bias_filler {
      type: "constant"
    }
  }
}
layer {
  name: "relu6"
  type: "ReLU"
  bottom: "ip2"
  top: "ip2"
}
layer {
  name: "drop2"
  type: "Dropout"
  bottom: "ip2"
  top: "ip2"
  dropout_param {
    dropout_ratio: 0.5
  }
}
layer {
  name: "ip3"
  type: "InnerProduct"
  bottom: "ip2"
  top: "ip3"
  inner_product_param {
    num_output: 11
    weight_filler {
      type: "xavier"
    }
    bias_filler {
      type: "constant"
    }
  }
}
layer {
  name: "drop3"
  type: "Dropout"
  bottom: "ip3"
  top: "ip3"
  dropout_param {
    dropout_ratio: 0.5
  }
}
layer {
  name: "accuracy"
  type: "Accuracy"
  bottom: "ip3"
  bottom: "label"
  top: "accuracy"
  include {
    phase: TEST
  }
}
layer {
  name: "loss"
  type: "SoftmaxWithLoss"
  bottom: "ip3"
  bottom: "label"
  top: "loss"
}
I0520 12:56:17.097501 31794 layer_factory.hpp:77] Creating layer data_hdf5
I0520 12:56:17.097517 31794 net.cpp:106] Creating Layer data_hdf5
I0520 12:56:17.097528 31794 net.cpp:411] data_hdf5 -> data
I0520 12:56:17.097546 31794 net.cpp:411] data_hdf5 -> label
I0520 12:56:17.097561 31794 hdf5_data_layer.cpp:79] Loading list of HDF5 filenames from: /lustre/atlas/proj-shared/hep105/caffe_titan/minosmatch_nukecczdefs_127x50_x_unshifted_me1Bmc.testlist
I0520 12:56:17.098767 31794 hdf5_data_layer.cpp:93] Number of HDF5 files: 3
I0520 12:56:38.442286 31794 net.cpp:150] Setting up data_hdf5
I0520 12:56:38.442450 31794 net.cpp:157] Top shape: 60 1 127 50 (381000)
I0520 12:56:38.442464 31794 net.cpp:157] Top shape: 60 (60)
I0520 12:56:38.442476 31794 net.cpp:165] Memory required for data: 1524240
I0520 12:56:38.442490 31794 layer_factory.hpp:77] Creating layer label_data_hdf5_1_split
I0520 12:56:38.442518 31794 net.cpp:106] Creating Layer label_data_hdf5_1_split
I0520 12:56:38.442529 31794 net.cpp:454] label_data_hdf5_1_split <- label
I0520 12:56:38.442544 31794 net.cpp:411] label_data_hdf5_1_split -> label_data_hdf5_1_split_0
I0520 12:56:38.442565 31794 net.cpp:411] label_data_hdf5_1_split -> label_data_hdf5_1_split_1
I0520 12:56:38.442637 31794 net.cpp:150] Setting up label_data_hdf5_1_split
I0520 12:56:38.442651 31794 net.cpp:157] Top shape: 60 (60)
I0520 12:56:38.442662 31794 net.cpp:157] Top shape: 60 (60)
I0520 12:56:38.442672 31794 net.cpp:165] Memory required for data: 1524720
I0520 12:56:38.442682 31794 layer_factory.hpp:77] Creating layer conv1
I0520 12:56:38.442704 31794 net.cpp:106] Creating Layer conv1
I0520 12:56:38.442714 31794 net.cpp:454] conv1 <- data
I0520 12:56:38.442729 31794 net.cpp:411] conv1 -> conv1
I0520 12:56:38.444679 31794 net.cpp:150] Setting up conv1
I0520 12:56:38.444703 31794 net.cpp:157] Top shape: 60 12 120 48 (4147200)
I0520 12:56:38.444715 31794 net.cpp:165] Memory required for data: 18113520
I0520 12:56:38.444735 31794 layer_factory.hpp:77] Creating layer relu1
I0520 12:56:38.444749 31794 net.cpp:106] Creating Layer relu1
I0520 12:56:38.444759 31794 net.cpp:454] relu1 <- conv1
I0520 12:56:38.444772 31794 net.cpp:397] relu1 -> conv1 (in-place)
I0520 12:56:38.445271 31794 net.cpp:150] Setting up relu1
I0520 12:56:38.445286 31794 net.cpp:157] Top shape: 60 12 120 48 (4147200)
I0520 12:56:38.445297 31794 net.cpp:165] Memory required for data: 34702320
I0520 12:56:38.445307 31794 layer_factory.hpp:77] Creating layer pool1
I0520 12:56:38.445323 31794 net.cpp:106] Creating Layer pool1
I0520 12:56:38.445333 31794 net.cpp:454] pool1 <- conv1
I0520 12:56:38.445346 31794 net.cpp:411] pool1 -> pool1
I0520 12:56:38.445420 31794 net.cpp:150] Setting up pool1
I0520 12:56:38.445433 31794 net.cpp:157] Top shape: 60 12 60 48 (2073600)
I0520 12:56:38.445443 31794 net.cpp:165] Memory required for data: 42996720
I0520 12:56:38.445452 31794 layer_factory.hpp:77] Creating layer conv2
I0520 12:56:38.445469 31794 net.cpp:106] Creating Layer conv2
I0520 12:56:38.445480 31794 net.cpp:454] conv2 <- pool1
I0520 12:56:38.445493 31794 net.cpp:411] conv2 -> conv2
I0520 12:56:38.447401 31794 net.cpp:150] Setting up conv2
I0520 12:56:38.447423 31794 net.cpp:157] Top shape: 60 20 54 46 (2980800)
I0520 12:56:38.447437 31794 net.cpp:165] Memory required for data: 54919920
I0520 12:56:38.447454 31794 layer_factory.hpp:77] Creating layer relu2
I0520 12:56:38.447468 31794 net.cpp:106] Creating Layer relu2
I0520 12:56:38.447477 31794 net.cpp:454] relu2 <- conv2
I0520 12:56:38.447490 31794 net.cpp:397] relu2 -> conv2 (in-place)
I0520 12:56:38.447824 31794 net.cpp:150] Setting up relu2
I0520 12:56:38.447837 31794 net.cpp:157] Top shape: 60 20 54 46 (2980800)
I0520 12:56:38.447847 31794 net.cpp:165] Memory required for data: 66843120
I0520 12:56:38.447857 31794 layer_factory.hpp:77] Creating layer pool2
I0520 12:56:38.447870 31794 net.cpp:106] Creating Layer pool2
I0520 12:56:38.447880 31794 net.cpp:454] pool2 <- conv2
I0520 12:56:38.447893 31794 net.cpp:411] pool2 -> pool2
I0520 12:56:38.447965 31794 net.cpp:150] Setting up pool2
I0520 12:56:38.447978 31794 net.cpp:157] Top shape: 60 20 27 46 (1490400)
I0520 12:56:38.447988 31794 net.cpp:165] Memory required for data: 72804720
I0520 12:56:38.447999 31794 layer_factory.hpp:77] Creating layer conv3
I0520 12:56:38.448015 31794 net.cpp:106] Creating Layer conv3
I0520 12:56:38.448026 31794 net.cpp:454] conv3 <- pool2
I0520 12:56:38.448040 31794 net.cpp:411] conv3 -> conv3
I0520 12:56:38.450012 31794 net.cpp:150] Setting up conv3
I0520 12:56:38.450036 31794 net.cpp:157] Top shape: 60 28 22 44 (1626240)
I0520 12:56:38.450045 31794 net.cpp:165] Memory required for data: 79309680
I0520 12:56:38.450078 31794 layer_factory.hpp:77] Creating layer relu3
I0520 12:56:38.450091 31794 net.cpp:106] Creating Layer relu3
I0520 12:56:38.450101 31794 net.cpp:454] relu3 <- conv3
I0520 12:56:38.450114 31794 net.cpp:397] relu3 -> conv3 (in-place)
I0520 12:56:38.450584 31794 net.cpp:150] Setting up relu3
I0520 12:56:38.450601 31794 net.cpp:157] Top shape: 60 28 22 44 (1626240)
I0520 12:56:38.450611 31794 net.cpp:165] Memory required for data: 85814640
I0520 12:56:38.450621 31794 layer_factory.hpp:77] Creating layer pool3
I0520 12:56:38.450634 31794 net.cpp:106] Creating Layer pool3
I0520 12:56:38.450644 31794 net.cpp:454] pool3 <- conv3
I0520 12:56:38.450657 31794 net.cpp:411] pool3 -> pool3
I0520 12:56:38.450728 31794 net.cpp:150] Setting up pool3
I0520 12:56:38.450742 31794 net.cpp:157] Top shape: 60 28 11 44 (813120)
I0520 12:56:38.450752 31794 net.cpp:165] Memory required for data: 89067120
I0520 12:56:38.450760 31794 layer_factory.hpp:77] Creating layer conv4
I0520 12:56:38.450778 31794 net.cpp:106] Creating Layer conv4
I0520 12:56:38.450788 31794 net.cpp:454] conv4 <- pool3
I0520 12:56:38.450803 31794 net.cpp:411] conv4 -> conv4
I0520 12:56:38.452857 31794 net.cpp:150] Setting up conv4
I0520 12:56:38.452878 31794 net.cpp:157] Top shape: 60 36 6 42 (544320)
I0520 12:56:38.452891 31794 net.cpp:165] Memory required for data: 91244400
I0520 12:56:38.452906 31794 layer_factory.hpp:77] Creating layer relu4
I0520 12:56:38.452919 31794 net.cpp:106] Creating Layer relu4
I0520 12:56:38.452929 31794 net.cpp:454] relu4 <- conv4
I0520 12:56:38.452942 31794 net.cpp:397] relu4 -> conv4 (in-place)
I0520 12:56:38.453415 31794 net.cpp:150] Setting up relu4
I0520 12:56:38.453431 31794 net.cpp:157] Top shape: 60 36 6 42 (544320)
I0520 12:56:38.453441 31794 net.cpp:165] Memory required for data: 93421680
I0520 12:56:38.453451 31794 layer_factory.hpp:77] Creating layer pool4
I0520 12:56:38.453465 31794 net.cpp:106] Creating Layer pool4
I0520 12:56:38.453475 31794 net.cpp:454] pool4 <- conv4
I0520 12:56:38.453488 31794 net.cpp:411] pool4 -> pool4
I0520 12:56:38.453559 31794 net.cpp:150] Setting up pool4
I0520 12:56:38.453572 31794 net.cpp:157] Top shape: 60 36 3 42 (272160)
I0520 12:56:38.453583 31794 net.cpp:165] Memory required for data: 94510320
I0520 12:56:38.453593 31794 layer_factory.hpp:77] Creating layer ip1
I0520 12:56:38.453608 31794 net.cpp:106] Creating Layer ip1
I0520 12:56:38.453618 31794 net.cpp:454] ip1 <- pool4
I0520 12:56:38.453631 31794 net.cpp:411] ip1 -> ip1
I0520 12:56:38.469238 31794 net.cpp:150] Setting up ip1
I0520 12:56:38.469266 31794 net.cpp:157] Top shape: 60 196 (11760)
I0520 12:56:38.469279 31794 net.cpp:165] Memory required for data: 94557360
I0520 12:56:38.469302 31794 layer_factory.hpp:77] Creating layer relu5
I0520 12:56:38.469317 31794 net.cpp:106] Creating Layer relu5
I0520 12:56:38.469328 31794 net.cpp:454] relu5 <- ip1
I0520 12:56:38.469341 31794 net.cpp:397] relu5 -> ip1 (in-place)
I0520 12:56:38.469691 31794 net.cpp:150] Setting up relu5
I0520 12:56:38.469705 31794 net.cpp:157] Top shape: 60 196 (11760)
I0520 12:56:38.469715 31794 net.cpp:165] Memory required for data: 94604400
I0520 12:56:38.469725 31794 layer_factory.hpp:77] Creating layer drop1
I0520 12:56:38.469744 31794 net.cpp:106] Creating Layer drop1
I0520 12:56:38.469754 31794 net.cpp:454] drop1 <- ip1
I0520 12:56:38.469768 31794 net.cpp:397] drop1 -> ip1 (in-place)
I0520 12:56:38.469812 31794 net.cpp:150] Setting up drop1
I0520 12:56:38.469825 31794 net.cpp:157] Top shape: 60 196 (11760)
I0520 12:56:38.469835 31794 net.cpp:165] Memory required for data: 94651440
I0520 12:56:38.469846 31794 layer_factory.hpp:77] Creating layer ip2
I0520 12:56:38.469859 31794 net.cpp:106] Creating Layer ip2
I0520 12:56:38.469869 31794 net.cpp:454] ip2 <- ip1
I0520 12:56:38.469882 31794 net.cpp:411] ip2 -> ip2
I0520 12:56:38.470363 31794 net.cpp:150] Setting up ip2
I0520 12:56:38.470381 31794 net.cpp:157] Top shape: 60 98 (5880)
I0520 12:56:38.470391 31794 net.cpp:165] Memory required for data: 94674960
I0520 12:56:38.470407 31794 layer_factory.hpp:77] Creating layer relu6
I0520 12:56:38.470433 31794 net.cpp:106] Creating Layer relu6
I0520 12:56:38.470443 31794 net.cpp:454] relu6 <- ip2
I0520 12:56:38.470455 31794 net.cpp:397] relu6 -> ip2 (in-place)
I0520 12:56:38.471001 31794 net.cpp:150] Setting up relu6
I0520 12:56:38.471016 31794 net.cpp:157] Top shape: 60 98 (5880)
I0520 12:56:38.471024 31794 net.cpp:165] Memory required for data: 94698480
I0520 12:56:38.471035 31794 layer_factory.hpp:77] Creating layer drop2
I0520 12:56:38.471048 31794 net.cpp:106] Creating Layer drop2
I0520 12:56:38.471058 31794 net.cpp:454] drop2 <- ip2
I0520 12:56:38.471071 31794 net.cpp:397] drop2 -> ip2 (in-place)
I0520 12:56:38.471114 31794 net.cpp:150] Setting up drop2
I0520 12:56:38.471127 31794 net.cpp:157] Top shape: 60 98 (5880)
I0520 12:56:38.471137 31794 net.cpp:165] Memory required for data: 94722000
I0520 12:56:38.471144 31794 layer_factory.hpp:77] Creating layer ip3
I0520 12:56:38.471158 31794 net.cpp:106] Creating Layer ip3
I0520 12:56:38.471169 31794 net.cpp:454] ip3 <- ip2
I0520 12:56:38.471182 31794 net.cpp:411] ip3 -> ip3
I0520 12:56:38.471405 31794 net.cpp:150] Setting up ip3
I0520 12:56:38.471418 31794 net.cpp:157] Top shape: 60 11 (660)
I0520 12:56:38.471428 31794 net.cpp:165] Memory required for data: 94724640
I0520 12:56:38.471444 31794 layer_factory.hpp:77] Creating layer drop3
I0520 12:56:38.471457 31794 net.cpp:106] Creating Layer drop3
I0520 12:56:38.471467 31794 net.cpp:454] drop3 <- ip3
I0520 12:56:38.471479 31794 net.cpp:397] drop3 -> ip3 (in-place)
I0520 12:56:38.471521 31794 net.cpp:150] Setting up drop3
I0520 12:56:38.471534 31794 net.cpp:157] Top shape: 60 11 (660)
I0520 12:56:38.471544 31794 net.cpp:165] Memory required for data: 94727280
I0520 12:56:38.471554 31794 layer_factory.hpp:77] Creating layer ip3_drop3_0_split
I0520 12:56:38.471566 31794 net.cpp:106] Creating Layer ip3_drop3_0_split
I0520 12:56:38.471575 31794 net.cpp:454] ip3_drop3_0_split <- ip3
I0520 12:56:38.471588 31794 net.cpp:411] ip3_drop3_0_split -> ip3_drop3_0_split_0
I0520 12:56:38.471603 31794 net.cpp:411] ip3_drop3_0_split -> ip3_drop3_0_split_1
I0520 12:56:38.471676 31794 net.cpp:150] Setting up ip3_drop3_0_split
I0520 12:56:38.471688 31794 net.cpp:157] Top shape: 60 11 (660)
I0520 12:56:38.471701 31794 net.cpp:157] Top shape: 60 11 (660)
I0520 12:56:38.471711 31794 net.cpp:165] Memory required for data: 94732560
I0520 12:56:38.471724 31794 layer_factory.hpp:77] Creating layer accuracy
I0520 12:56:38.471743 31794 net.cpp:106] Creating Layer accuracy
I0520 12:56:38.471755 31794 net.cpp:454] accuracy <- ip3_drop3_0_split_0
I0520 12:56:38.471765 31794 net.cpp:454] accuracy <- label_data_hdf5_1_split_0
I0520 12:56:38.471778 31794 net.cpp:411] accuracy -> accuracy
…
