…
I0520 15:02:45.781107 13563 net.cpp:322] The NetState phase (0) differed from the phase (1) specified by a rule in layer data_hdf5
I0520 15:02:45.781167 13563 net.cpp:322] The NetState phase (0) differed from the phase (1) specified by a rule in layer accuracy
I0520 15:02:45.781512 13563 net.cpp:49] Initializing net from parameters: 
name: "caffe_test_127x50_x_unshifted"
state {
  phase: TRAIN
}
layer {
  name: "data_hdf5"
  type: "HDF5Data"
  top: "data"
  top: "label"
  include {
    phase: TRAIN
  }
  hdf5_data_param {
    source: "/lustre/atlas/proj-shared/hep105/caffe_titan/minosmatch_nukecczdefs_127x50_x_unshifted_me1Bmc.trainlist"
    batch_size: 150
  }
}
layer {
  name: "conv1"
  type: "Convolution"
  bottom: "data"
  top: "conv1"
  convolution_param {
    num_output: 12
    pad: 0
    stride: 1
    weight_filler {
      type: "xavier"
    }
    bias_filler {
      type: "constant"
    }
    kernel_h: 8
    kernel_w: 3
  }
}
layer {
  name: "relu1"
  type: "ReLU"
  bottom: "conv1"
  top: "conv1"
}
layer {
  name: "pool1"
  type: "Pooling"
  bottom: "conv1"
  top: "pool1"
  pooling_param {
    pool: MAX
    kernel_h: 2
    kernel_w: 1
    stride_h: 2
    stride_w: 1
  }
}
layer {
  name: "conv2"
  type: "Convolution"
  bottom: "pool1"
  top: "conv2"
  convolution_param {
    num_output: 20
    pad: 0
    stride: 1
    weight_filler {
      type: "xavier"
    }
    bias_filler {
      type: "constant"
    }
    kernel_h: 7
    kernel_w: 3
  }
}
layer {
  name: "relu2"
  type: "ReLU"
  bottom: "conv2"
  top: "conv2"
}
layer {
  name: "pool2"
  type: "Pooling"
  bottom: "conv2"
  top: "pool2"
  pooling_param {
    pool: MAX
    kernel_h: 2
    kernel_w: 1
    stride_h: 2
    stride_w: 1
  }
}
layer {
  name: "conv3"
  type: "Convolution"
  bottom: "pool2"
  top: "conv3"
  convolution_param {
    num_output: 28
    pad: 0
    stride: 1
    weight_filler {
      type: "xavier"
    }
    bias_filler {
      type: "constant"
    }
    kernel_h: 6
    kernel_w: 3
  }
}
layer {
  name: "relu3"
  type: "ReLU"
  bottom: "conv3"
  top: "conv3"
}
layer {
  name: "pool3"
  type: "Pooling"
  bottom: "conv3"
  top: "pool3"
  pooling_param {
    pool: MAX
    kernel_h: 2
    kernel_w: 1
    stride_h: 2
    stride_w: 1
  }
}
layer {
  name: "conv4"
  type: "Convolution"
  bottom: "pool3"
  top: "conv4"
  convolution_param {
    num_output: 36
    pad: 0
    stride: 1
    weight_filler {
      type: "xavier"
    }
    bias_filler {
      type: "constant"
    }
    kernel_h: 6
    kernel_w: 3
  }
}
layer {
  name: "relu4"
  type: "ReLU"
  bottom: "conv4"
  top: "conv4"
}
layer {
  name: "pool4"
  type: "Pooling"
  bottom: "conv4"
  top: "pool4"
  pooling_param {
    pool: MAX
    kernel_h: 2
    kernel_w: 1
    stride_h: 2
    stride_w: 1
  }
}
layer {
  name: "ip1"
  type: "InnerProduct"
  bottom: "pool4"
  top: "ip1"
  inner_product_param {
    num_output: 196
    weight_filler {
      type: "xavier"
    }
    bias_filler {
      type: "constant"
    }
  }
}
layer {
  name: "relu5"
  type: "ReLU"
  bottom: "ip1"
  top: "ip1"
}
layer {
  name: "drop1"
  type: "Dropout"
  bottom: "ip1"
  top: "ip1"
  dropout_param {
    dropout_ratio: 0.5
  }
}
layer {
  name: "ip2"
  type: "InnerProduct"
  bottom: "ip1"
  top: "ip2"
  inner_product_param {
    num_output: 98
    weight_filler {
      type: "xavier"
    }
    bias_filler {
      type: "constant"
    }
  }
}
layer {
  name: "relu6"
  type: "ReLU"
  bottom: "ip2"
  top: "ip2"
}
layer {
  name: "drop2"
  type: "Dropout"
  bottom: "ip2"
  top: "ip2"
  dropout_param {
    dropout_ratio: 0.5
  }
}
layer {
  name: "ip3"
  type: "InnerProduct"
  bottom: "ip2"
  top: "ip3"
  inner_product_param {
    num_output: 11
    weight_filler {
      type: "xavier"
    }
    bias_filler {
      type: "constant"
    }
  }
}
layer {
  name: "drop3"
  type: "Dropout"
  bottom: "ip3"
  top: "ip3"
  dropout_param {
    dropout_ratio: 0.5
  }
}
layer {
  name: "loss"
  type: "SoftmaxWithLoss"
  bottom: "ip3"
  bottom: "label"
  top: "loss"
}
I0520 15:02:45.781693 13563 layer_factory.hpp:77] Creating layer data_hdf5
I0520 15:02:45.781718 13563 net.cpp:106] Creating Layer data_hdf5
I0520 15:02:45.781733 13563 net.cpp:411] data_hdf5 -> data
I0520 15:02:45.781766 13563 net.cpp:411] data_hdf5 -> label
I0520 15:02:45.781798 13563 hdf5_data_layer.cpp:79] Loading list of HDF5 filenames from: /lustre/atlas/proj-shared/hep105/caffe_titan/minosmatch_nukecczdefs_127x50_x_unshifted_me1Bmc.trainlist
I0520 15:02:45.783026 13563 hdf5_data_layer.cpp:93] Number of HDF5 files: 15
I0520 15:02:45.785159 13563 hdf5.cpp:32] Datatype class: H5T_FLOAT
I0520 15:03:07.351069 13563 hdf5.cpp:35] Datatype class: H5T_INTEGER
I0520 15:03:07.356191 13563 net.cpp:150] Setting up data_hdf5
I0520 15:03:07.356231 13563 net.cpp:157] Top shape: 150 1 127 50 (952500)
I0520 15:03:07.356246 13563 net.cpp:157] Top shape: 150 (150)
I0520 15:03:07.356259 13563 net.cpp:165] Memory required for data: 3810600
I0520 15:03:07.356272 13563 layer_factory.hpp:77] Creating layer conv1
I0520 15:03:07.356307 13563 net.cpp:106] Creating Layer conv1
I0520 15:03:07.356318 13563 net.cpp:454] conv1 <- data
I0520 15:03:07.356339 13563 net.cpp:411] conv1 -> conv1
I0520 15:03:08.798861 13563 net.cpp:150] Setting up conv1
I0520 15:03:08.798908 13563 net.cpp:157] Top shape: 150 12 120 48 (10368000)
I0520 15:03:08.798919 13563 net.cpp:165] Memory required for data: 45282600
I0520 15:03:08.798949 13563 layer_factory.hpp:77] Creating layer relu1
I0520 15:03:08.798971 13563 net.cpp:106] Creating Layer relu1
I0520 15:03:08.798981 13563 net.cpp:454] relu1 <- conv1
I0520 15:03:08.798995 13563 net.cpp:397] relu1 -> conv1 (in-place)
I0520 15:03:08.799518 13563 net.cpp:150] Setting up relu1
I0520 15:03:08.799535 13563 net.cpp:157] Top shape: 150 12 120 48 (10368000)
I0520 15:03:08.799546 13563 net.cpp:165] Memory required for data: 86754600
I0520 15:03:08.799556 13563 layer_factory.hpp:77] Creating layer pool1
I0520 15:03:08.799572 13563 net.cpp:106] Creating Layer pool1
I0520 15:03:08.799583 13563 net.cpp:454] pool1 <- conv1
I0520 15:03:08.799595 13563 net.cpp:411] pool1 -> pool1
I0520 15:03:08.799675 13563 net.cpp:150] Setting up pool1
I0520 15:03:08.799690 13563 net.cpp:157] Top shape: 150 12 60 48 (5184000)
I0520 15:03:08.799700 13563 net.cpp:165] Memory required for data: 107490600
I0520 15:03:08.799710 13563 layer_factory.hpp:77] Creating layer conv2
I0520 15:03:08.799731 13563 net.cpp:106] Creating Layer conv2
I0520 15:03:08.799742 13563 net.cpp:454] conv2 <- pool1
I0520 15:03:08.799757 13563 net.cpp:411] conv2 -> conv2
I0520 15:03:08.802435 13563 net.cpp:150] Setting up conv2
I0520 15:03:08.802464 13563 net.cpp:157] Top shape: 150 20 54 46 (7452000)
I0520 15:03:08.802474 13563 net.cpp:165] Memory required for data: 137298600
I0520 15:03:08.802494 13563 layer_factory.hpp:77] Creating layer relu2
I0520 15:03:08.802507 13563 net.cpp:106] Creating Layer relu2
I0520 15:03:08.802517 13563 net.cpp:454] relu2 <- conv2
I0520 15:03:08.802531 13563 net.cpp:397] relu2 -> conv2 (in-place)
I0520 15:03:08.802860 13563 net.cpp:150] Setting up relu2
I0520 15:03:08.802873 13563 net.cpp:157] Top shape: 150 20 54 46 (7452000)
I0520 15:03:08.802883 13563 net.cpp:165] Memory required for data: 167106600
I0520 15:03:08.802893 13563 layer_factory.hpp:77] Creating layer pool2
I0520 15:03:08.802906 13563 net.cpp:106] Creating Layer pool2
I0520 15:03:08.802917 13563 net.cpp:454] pool2 <- conv2
I0520 15:03:08.802942 13563 net.cpp:411] pool2 -> pool2
I0520 15:03:08.803010 13563 net.cpp:150] Setting up pool2
I0520 15:03:08.803023 13563 net.cpp:157] Top shape: 150 20 27 46 (3726000)
I0520 15:03:08.803033 13563 net.cpp:165] Memory required for data: 182010600
I0520 15:03:08.803041 13563 layer_factory.hpp:77] Creating layer conv3
I0520 15:03:08.803061 13563 net.cpp:106] Creating Layer conv3
I0520 15:03:08.803071 13563 net.cpp:454] conv3 <- pool2
I0520 15:03:08.803084 13563 net.cpp:411] conv3 -> conv3
I0520 15:03:08.805047 13563 net.cpp:150] Setting up conv3
I0520 15:03:08.805069 13563 net.cpp:157] Top shape: 150 28 22 44 (4065600)
I0520 15:03:08.805080 13563 net.cpp:165] Memory required for data: 198273000
I0520 15:03:08.805099 13563 layer_factory.hpp:77] Creating layer relu3
I0520 15:03:08.805115 13563 net.cpp:106] Creating Layer relu3
I0520 15:03:08.805125 13563 net.cpp:454] relu3 <- conv3
I0520 15:03:08.805138 13563 net.cpp:397] relu3 -> conv3 (in-place)
I0520 15:03:08.805608 13563 net.cpp:150] Setting up relu3
I0520 15:03:08.805625 13563 net.cpp:157] Top shape: 150 28 22 44 (4065600)
I0520 15:03:08.805635 13563 net.cpp:165] Memory required for data: 214535400
I0520 15:03:08.805645 13563 layer_factory.hpp:77] Creating layer pool3
I0520 15:03:08.805658 13563 net.cpp:106] Creating Layer pool3
I0520 15:03:08.805668 13563 net.cpp:454] pool3 <- conv3
I0520 15:03:08.805681 13563 net.cpp:411] pool3 -> pool3
I0520 15:03:08.805748 13563 net.cpp:150] Setting up pool3
I0520 15:03:08.805763 13563 net.cpp:157] Top shape: 150 28 11 44 (2032800)
I0520 15:03:08.805773 13563 net.cpp:165] Memory required for data: 222666600
I0520 15:03:08.805780 13563 layer_factory.hpp:77] Creating layer conv4
I0520 15:03:08.805799 13563 net.cpp:106] Creating Layer conv4
I0520 15:03:08.805809 13563 net.cpp:454] conv4 <- pool3
I0520 15:03:08.805822 13563 net.cpp:411] conv4 -> conv4
I0520 15:03:08.808771 13563 net.cpp:150] Setting up conv4
I0520 15:03:08.808800 13563 net.cpp:157] Top shape: 150 36 6 42 (1360800)
I0520 15:03:08.808810 13563 net.cpp:165] Memory required for data: 228109800
I0520 15:03:08.808826 13563 layer_factory.hpp:77] Creating layer relu4
I0520 15:03:08.808841 13563 net.cpp:106] Creating Layer relu4
I0520 15:03:08.808851 13563 net.cpp:454] relu4 <- conv4
I0520 15:03:08.808864 13563 net.cpp:397] relu4 -> conv4 (in-place)
I0520 15:03:08.809329 13563 net.cpp:150] Setting up relu4
I0520 15:03:08.809345 13563 net.cpp:157] Top shape: 150 36 6 42 (1360800)
I0520 15:03:08.809355 13563 net.cpp:165] Memory required for data: 233553000
I0520 15:03:08.809365 13563 layer_factory.hpp:77] Creating layer pool4
I0520 15:03:08.809378 13563 net.cpp:106] Creating Layer pool4
I0520 15:03:08.809388 13563 net.cpp:454] pool4 <- conv4
I0520 15:03:08.809401 13563 net.cpp:411] pool4 -> pool4
I0520 15:03:08.809469 13563 net.cpp:150] Setting up pool4
I0520 15:03:08.809484 13563 net.cpp:157] Top shape: 150 36 3 42 (680400)
I0520 15:03:08.809492 13563 net.cpp:165] Memory required for data: 236274600
I0520 15:03:08.809502 13563 layer_factory.hpp:77] Creating layer ip1
I0520 15:03:08.809523 13563 net.cpp:106] Creating Layer ip1
I0520 15:03:08.809535 13563 net.cpp:454] ip1 <- pool4
I0520 15:03:08.809545 13563 net.cpp:411] ip1 -> ip1
I0520 15:03:08.824982 13563 net.cpp:150] Setting up ip1
I0520 15:03:08.825012 13563 net.cpp:157] Top shape: 150 196 (29400)
I0520 15:03:08.825023 13563 net.cpp:165] Memory required for data: 236392200
I0520 15:03:08.825050 13563 layer_factory.hpp:77] Creating layer relu5
I0520 15:03:08.825065 13563 net.cpp:106] Creating Layer relu5
I0520 15:03:08.825075 13563 net.cpp:454] relu5 <- ip1
I0520 15:03:08.825089 13563 net.cpp:397] relu5 -> ip1 (in-place)
I0520 15:03:08.825472 13563 net.cpp:150] Setting up relu5
I0520 15:03:08.825486 13563 net.cpp:157] Top shape: 150 196 (29400)
I0520 15:03:08.825496 13563 net.cpp:165] Memory required for data: 236509800
I0520 15:03:08.825506 13563 layer_factory.hpp:77] Creating layer drop1
I0520 15:03:08.825527 13563 net.cpp:106] Creating Layer drop1
I0520 15:03:08.825538 13563 net.cpp:454] drop1 <- ip1
I0520 15:03:08.825562 13563 net.cpp:397] drop1 -> ip1 (in-place)
I0520 15:03:08.825610 13563 net.cpp:150] Setting up drop1
I0520 15:03:08.825623 13563 net.cpp:157] Top shape: 150 196 (29400)
I0520 15:03:08.825634 13563 net.cpp:165] Memory required for data: 236627400
I0520 15:03:08.825642 13563 layer_factory.hpp:77] Creating layer ip2
I0520 15:03:08.825662 13563 net.cpp:106] Creating Layer ip2
I0520 15:03:08.825672 13563 net.cpp:454] ip2 <- ip1
I0520 15:03:08.825685 13563 net.cpp:411] ip2 -> ip2
I0520 15:03:08.826151 13563 net.cpp:150] Setting up ip2
I0520 15:03:08.826164 13563 net.cpp:157] Top shape: 150 98 (14700)
I0520 15:03:08.826174 13563 net.cpp:165] Memory required for data: 236686200
I0520 15:03:08.826190 13563 layer_factory.hpp:77] Creating layer relu6
I0520 15:03:08.826202 13563 net.cpp:106] Creating Layer relu6
I0520 15:03:08.826212 13563 net.cpp:454] relu6 <- ip2
I0520 15:03:08.826225 13563 net.cpp:397] relu6 -> ip2 (in-place)
I0520 15:03:08.826745 13563 net.cpp:150] Setting up relu6
I0520 15:03:08.826761 13563 net.cpp:157] Top shape: 150 98 (14700)
I0520 15:03:08.826771 13563 net.cpp:165] Memory required for data: 236745000
I0520 15:03:08.826781 13563 layer_factory.hpp:77] Creating layer drop2
I0520 15:03:08.826794 13563 net.cpp:106] Creating Layer drop2
I0520 15:03:08.826804 13563 net.cpp:454] drop2 <- ip2
I0520 15:03:08.826817 13563 net.cpp:397] drop2 -> ip2 (in-place)
I0520 15:03:08.826859 13563 net.cpp:150] Setting up drop2
I0520 15:03:08.826872 13563 net.cpp:157] Top shape: 150 98 (14700)
I0520 15:03:08.826884 13563 net.cpp:165] Memory required for data: 236803800
I0520 15:03:08.826894 13563 layer_factory.hpp:77] Creating layer ip3
I0520 15:03:08.826907 13563 net.cpp:106] Creating Layer ip3
I0520 15:03:08.826917 13563 net.cpp:454] ip3 <- ip2
I0520 15:03:08.826930 13563 net.cpp:411] ip3 -> ip3
I0520 15:03:08.827139 13563 net.cpp:150] Setting up ip3
I0520 15:03:08.827152 13563 net.cpp:157] Top shape: 150 11 (1650)
I0520 15:03:08.827162 13563 net.cpp:165] Memory required for data: 236810400
I0520 15:03:08.827177 13563 layer_factory.hpp:77] Creating layer drop3
I0520 15:03:08.827189 13563 net.cpp:106] Creating Layer drop3
I0520 15:03:08.827198 13563 net.cpp:454] drop3 <- ip3
I0520 15:03:08.827210 13563 net.cpp:397] drop3 -> ip3 (in-place)
I0520 15:03:08.827250 13563 net.cpp:150] Setting up drop3
I0520 15:03:08.827262 13563 net.cpp:157] Top shape: 150 11 (1650)
I0520 15:03:08.827272 13563 net.cpp:165] Memory required for data: 236817000
I0520 15:03:08.827282 13563 layer_factory.hpp:77] Creating layer loss
I0520 15:03:08.827302 13563 net.cpp:106] Creating Layer loss
I0520 15:03:08.827312 13563 net.cpp:454] loss <- ip3
I0520 15:03:08.827323 13563 net.cpp:454] loss <- label
I0520 15:03:08.827335 13563 net.cpp:411] loss -> loss
I0520 15:03:08.827359 13563 layer_factory.hpp:77] Creating layer loss
…
I0520 15:03:08.829905 13563 solver.cpp:181] Creating test net (#0) specified by net file: /lustre/atlas/proj-shared/hep105/caffe_titan/caffe_workflow/logs_batch_size_test/batch_size_150_2016-05-20T11.20.38.121657.prototxt
I0520 15:03:08.829975 13563 net.cpp:322] The NetState phase (1) differed from the phase (0) specified by a rule in layer data_hdf5
I0520 15:03:08.830329 13563 net.cpp:49] Initializing net from parameters: 
name: "caffe_test_127x50_x_unshifted"
state {
  phase: TEST
}
layer {
  name: "data_hdf5"
  type: "HDF5Data"
  top: "data"
  top: "label"
  include {
    phase: TEST
  }
  hdf5_data_param {
    source: "/lustre/atlas/proj-shared/hep105/caffe_titan/minosmatch_nukecczdefs_127x50_x_unshifted_me1Bmc.testlist"
    batch_size: 150
  }
}
layer {
  name: "conv1"
  type: "Convolution"
  bottom: "data"
  top: "conv1"
  convolution_param {
    num_output: 12
    pad: 0
    stride: 1
    weight_filler {
      type: "xavier"
    }
    bias_filler {
      type: "constant"
    }
    kernel_h: 8
    kernel_w: 3
  }
}
layer {
  name: "relu1"
  type: "ReLU"
  bottom: "conv1"
  top: "conv1"
}
layer {
  name: "pool1"
  type: "Pooling"
  bottom: "conv1"
  top: "pool1"
  pooling_param {
    pool: MAX
    kernel_h: 2
    kernel_w: 1
    stride_h: 2
    stride_w: 1
  }
}
layer {
  name: "conv2"
  type: "Convolution"
  bottom: "pool1"
  top: "conv2"
  convolution_param {
    num_output: 20
    pad: 0
    stride: 1
    weight_filler {
      type: "xavier"
    }
    bias_filler {
      type: "constant"
    }
    kernel_h: 7
    kernel_w: 3
  }
}
layer {
  name: "relu2"
  type: "ReLU"
  bottom: "conv2"
  top: "conv2"
}
layer {
  name: "pool2"
  type: "Pooling"
  bottom: "conv2"
  top: "pool2"
  pooling_param {
    pool: MAX
    kernel_h: 2
    kernel_w: 1
    stride_h: 2
    stride_w: 1
  }
}
layer {
  name: "conv3"
  type: "Convolution"
  bottom: "pool2"
  top: "conv3"
  convolution_param {
    num_output: 28
    pad: 0
    stride: 1
    weight_filler {
      type: "xavier"
    }
    bias_filler {
      type: "constant"
    }
    kernel_h: 6
    kernel_w: 3
  }
}
layer {
  name: "relu3"
  type: "ReLU"
  bottom: "conv3"
  top: "conv3"
}
layer {
  name: "pool3"
  type: "Pooling"
  bottom: "conv3"
  top: "pool3"
  pooling_param {
    pool: MAX
    kernel_h: 2
    kernel_w: 1
    stride_h: 2
    stride_w: 1
  }
}
layer {
  name: "conv4"
  type: "Convolution"
  bottom: "pool3"
  top: "conv4"
  convolution_param {
    num_output: 36
    pad: 0
    stride: 1
    weight_filler {
      type: "xavier"
    }
    bias_filler {
      type: "constant"
    }
    kernel_h: 6
    kernel_w: 3
  }
}
layer {
  name: "relu4"
  type: "ReLU"
  bottom: "conv4"
  top: "conv4"
}
layer {
  name: "pool4"
  type: "Pooling"
  bottom: "conv4"
  top: "pool4"
  pooling_param {
    pool: MAX
    kernel_h: 2
    kernel_w: 1
    stride_h: 2
    stride_w: 1
  }
}
layer {
  name: "ip1"
  type: "InnerProduct"
  bottom: "pool4"
  top: "ip1"
  inner_product_param {
    num_output: 196
    weight_filler {
      type: "xavier"
    }
    bias_filler {
      type: "constant"
    }
  }
}
layer {
  name: "relu5"
  type: "ReLU"
  bottom: "ip1"
  top: "ip1"
}
layer {
  name: "drop1"
  type: "Dropout"
  bottom: "ip1"
  top: "ip1"
  dropout_param {
    dropout_ratio: 0.5
  }
}
layer {
  name: "ip2"
  type: "InnerProduct"
  bottom: "ip1"
  top: "ip2"
  inner_product_param {
    num_output: 98
    weight_filler {
      type: "xavier"
    }
    bias_filler {
      type: "constant"
    }
  }
}
layer {
  name: "relu6"
  type: "ReLU"
  bottom: "ip2"
  top: "ip2"
}
layer {
  name: "drop2"
  type: "Dropout"
  bottom: "ip2"
  top: "ip2"
  dropout_param {
    dropout_ratio: 0.5
  }
}
layer {
  name: "ip3"
  type: "InnerProduct"
  bottom: "ip2"
  top: "ip3"
  inner_product_param {
    num_output: 11
    weight_filler {
      type: "xavier"
    }
    bias_filler {
      type: "constant"
    }
  }
}
layer {
  name: "drop3"
  type: "Dropout"
  bottom: "ip3"
  top: "ip3"
  dropout_param {
    dropout_ratio: 0.5
  }
}
layer {
  name: "accuracy"
  type: "Accuracy"
  bottom: "ip3"
  bottom: "label"
  top: "accuracy"
  include {
    phase: TEST
  }
}
layer {
  name: "loss"
  type: "SoftmaxWithLoss"
  bottom: "ip3"
  bottom: "label"
  top: "loss"
}
I0520 15:03:08.830516 13563 layer_factory.hpp:77] Creating layer data_hdf5
I0520 15:03:08.830533 13563 net.cpp:106] Creating Layer data_hdf5
I0520 15:03:08.830544 13563 net.cpp:411] data_hdf5 -> data
I0520 15:03:08.830561 13563 net.cpp:411] data_hdf5 -> label
I0520 15:03:08.830577 13563 hdf5_data_layer.cpp:79] Loading list of HDF5 filenames from: /lustre/atlas/proj-shared/hep105/caffe_titan/minosmatch_nukecczdefs_127x50_x_unshifted_me1Bmc.testlist
I0520 15:03:08.831817 13563 hdf5_data_layer.cpp:93] Number of HDF5 files: 3
I0520 15:03:30.201679 13563 net.cpp:150] Setting up data_hdf5
I0520 15:03:30.201844 13563 net.cpp:157] Top shape: 150 1 127 50 (952500)
I0520 15:03:30.201858 13563 net.cpp:157] Top shape: 150 (150)
I0520 15:03:30.201869 13563 net.cpp:165] Memory required for data: 3810600
I0520 15:03:30.201884 13563 layer_factory.hpp:77] Creating layer label_data_hdf5_1_split
I0520 15:03:30.201910 13563 net.cpp:106] Creating Layer label_data_hdf5_1_split
I0520 15:03:30.201921 13563 net.cpp:454] label_data_hdf5_1_split <- label
I0520 15:03:30.201936 13563 net.cpp:411] label_data_hdf5_1_split -> label_data_hdf5_1_split_0
I0520 15:03:30.201957 13563 net.cpp:411] label_data_hdf5_1_split -> label_data_hdf5_1_split_1
I0520 15:03:30.202030 13563 net.cpp:150] Setting up label_data_hdf5_1_split
I0520 15:03:30.202044 13563 net.cpp:157] Top shape: 150 (150)
I0520 15:03:30.202056 13563 net.cpp:157] Top shape: 150 (150)
I0520 15:03:30.202066 13563 net.cpp:165] Memory required for data: 3811800
I0520 15:03:30.202076 13563 layer_factory.hpp:77] Creating layer conv1
I0520 15:03:30.202098 13563 net.cpp:106] Creating Layer conv1
I0520 15:03:30.202110 13563 net.cpp:454] conv1 <- data
I0520 15:03:30.202123 13563 net.cpp:411] conv1 -> conv1
I0520 15:03:30.204057 13563 net.cpp:150] Setting up conv1
I0520 15:03:30.204082 13563 net.cpp:157] Top shape: 150 12 120 48 (10368000)
I0520 15:03:30.204094 13563 net.cpp:165] Memory required for data: 45283800
I0520 15:03:30.204114 13563 layer_factory.hpp:77] Creating layer relu1
I0520 15:03:30.204128 13563 net.cpp:106] Creating Layer relu1
I0520 15:03:30.204138 13563 net.cpp:454] relu1 <- conv1
I0520 15:03:30.204151 13563 net.cpp:397] relu1 -> conv1 (in-place)
I0520 15:03:30.204650 13563 net.cpp:150] Setting up relu1
I0520 15:03:30.204666 13563 net.cpp:157] Top shape: 150 12 120 48 (10368000)
I0520 15:03:30.204676 13563 net.cpp:165] Memory required for data: 86755800
I0520 15:03:30.204687 13563 layer_factory.hpp:77] Creating layer pool1
I0520 15:03:30.204702 13563 net.cpp:106] Creating Layer pool1
I0520 15:03:30.204712 13563 net.cpp:454] pool1 <- conv1
I0520 15:03:30.204725 13563 net.cpp:411] pool1 -> pool1
I0520 15:03:30.204800 13563 net.cpp:150] Setting up pool1
I0520 15:03:30.204813 13563 net.cpp:157] Top shape: 150 12 60 48 (5184000)
I0520 15:03:30.204823 13563 net.cpp:165] Memory required for data: 107491800
I0520 15:03:30.204833 13563 layer_factory.hpp:77] Creating layer conv2
I0520 15:03:30.204849 13563 net.cpp:106] Creating Layer conv2
I0520 15:03:30.204859 13563 net.cpp:454] conv2 <- pool1
I0520 15:03:30.204874 13563 net.cpp:411] conv2 -> conv2
I0520 15:03:30.206784 13563 net.cpp:150] Setting up conv2
I0520 15:03:30.206805 13563 net.cpp:157] Top shape: 150 20 54 46 (7452000)
I0520 15:03:30.206820 13563 net.cpp:165] Memory required for data: 137299800
I0520 15:03:30.206836 13563 layer_factory.hpp:77] Creating layer relu2
I0520 15:03:30.206850 13563 net.cpp:106] Creating Layer relu2
I0520 15:03:30.206859 13563 net.cpp:454] relu2 <- conv2
I0520 15:03:30.206871 13563 net.cpp:397] relu2 -> conv2 (in-place)
I0520 15:03:30.207206 13563 net.cpp:150] Setting up relu2
I0520 15:03:30.207221 13563 net.cpp:157] Top shape: 150 20 54 46 (7452000)
I0520 15:03:30.207231 13563 net.cpp:165] Memory required for data: 167107800
I0520 15:03:30.207240 13563 layer_factory.hpp:77] Creating layer pool2
I0520 15:03:30.207253 13563 net.cpp:106] Creating Layer pool2
I0520 15:03:30.207263 13563 net.cpp:454] pool2 <- conv2
I0520 15:03:30.207276 13563 net.cpp:411] pool2 -> pool2
I0520 15:03:30.207355 13563 net.cpp:150] Setting up pool2
I0520 15:03:30.207368 13563 net.cpp:157] Top shape: 150 20 27 46 (3726000)
I0520 15:03:30.207378 13563 net.cpp:165] Memory required for data: 182011800
I0520 15:03:30.207388 13563 layer_factory.hpp:77] Creating layer conv3
I0520 15:03:30.207406 13563 net.cpp:106] Creating Layer conv3
I0520 15:03:30.207417 13563 net.cpp:454] conv3 <- pool2
I0520 15:03:30.207430 13563 net.cpp:411] conv3 -> conv3
I0520 15:03:30.209414 13563 net.cpp:150] Setting up conv3
I0520 15:03:30.209434 13563 net.cpp:157] Top shape: 150 28 22 44 (4065600)
I0520 15:03:30.209444 13563 net.cpp:165] Memory required for data: 198274200
I0520 15:03:30.209476 13563 layer_factory.hpp:77] Creating layer relu3
I0520 15:03:30.209491 13563 net.cpp:106] Creating Layer relu3
I0520 15:03:30.209501 13563 net.cpp:454] relu3 <- conv3
I0520 15:03:30.209513 13563 net.cpp:397] relu3 -> conv3 (in-place)
I0520 15:03:30.209981 13563 net.cpp:150] Setting up relu3
I0520 15:03:30.209997 13563 net.cpp:157] Top shape: 150 28 22 44 (4065600)
I0520 15:03:30.210008 13563 net.cpp:165] Memory required for data: 214536600
I0520 15:03:30.210018 13563 layer_factory.hpp:77] Creating layer pool3
I0520 15:03:30.210031 13563 net.cpp:106] Creating Layer pool3
I0520 15:03:30.210041 13563 net.cpp:454] pool3 <- conv3
I0520 15:03:30.210057 13563 net.cpp:411] pool3 -> pool3
I0520 15:03:30.210127 13563 net.cpp:150] Setting up pool3
I0520 15:03:30.210140 13563 net.cpp:157] Top shape: 150 28 11 44 (2032800)
I0520 15:03:30.210150 13563 net.cpp:165] Memory required for data: 222667800
I0520 15:03:30.210160 13563 layer_factory.hpp:77] Creating layer conv4
I0520 15:03:30.210177 13563 net.cpp:106] Creating Layer conv4
I0520 15:03:30.210188 13563 net.cpp:454] conv4 <- pool3
I0520 15:03:30.210202 13563 net.cpp:411] conv4 -> conv4
I0520 15:03:30.212287 13563 net.cpp:150] Setting up conv4
I0520 15:03:30.212309 13563 net.cpp:157] Top shape: 150 36 6 42 (1360800)
I0520 15:03:30.212322 13563 net.cpp:165] Memory required for data: 228111000
I0520 15:03:30.212337 13563 layer_factory.hpp:77] Creating layer relu4
I0520 15:03:30.212350 13563 net.cpp:106] Creating Layer relu4
I0520 15:03:30.212360 13563 net.cpp:454] relu4 <- conv4
I0520 15:03:30.212373 13563 net.cpp:397] relu4 -> conv4 (in-place)
I0520 15:03:30.212847 13563 net.cpp:150] Setting up relu4
I0520 15:03:30.212863 13563 net.cpp:157] Top shape: 150 36 6 42 (1360800)
I0520 15:03:30.212873 13563 net.cpp:165] Memory required for data: 233554200
I0520 15:03:30.212883 13563 layer_factory.hpp:77] Creating layer pool4
I0520 15:03:30.212898 13563 net.cpp:106] Creating Layer pool4
I0520 15:03:30.212906 13563 net.cpp:454] pool4 <- conv4
I0520 15:03:30.212919 13563 net.cpp:411] pool4 -> pool4
I0520 15:03:30.212990 13563 net.cpp:150] Setting up pool4
I0520 15:03:30.213003 13563 net.cpp:157] Top shape: 150 36 3 42 (680400)
I0520 15:03:30.213013 13563 net.cpp:165] Memory required for data: 236275800
I0520 15:03:30.213023 13563 layer_factory.hpp:77] Creating layer ip1
I0520 15:03:30.213039 13563 net.cpp:106] Creating Layer ip1
I0520 15:03:30.213049 13563 net.cpp:454] ip1 <- pool4
I0520 15:03:30.213063 13563 net.cpp:411] ip1 -> ip1
I0520 15:03:30.228479 13563 net.cpp:150] Setting up ip1
I0520 15:03:30.228508 13563 net.cpp:157] Top shape: 150 196 (29400)
I0520 15:03:30.228519 13563 net.cpp:165] Memory required for data: 236393400
I0520 15:03:30.228541 13563 layer_factory.hpp:77] Creating layer relu5
I0520 15:03:30.228556 13563 net.cpp:106] Creating Layer relu5
I0520 15:03:30.228567 13563 net.cpp:454] relu5 <- ip1
I0520 15:03:30.228580 13563 net.cpp:397] relu5 -> ip1 (in-place)
I0520 15:03:30.228929 13563 net.cpp:150] Setting up relu5
I0520 15:03:30.228942 13563 net.cpp:157] Top shape: 150 196 (29400)
I0520 15:03:30.228952 13563 net.cpp:165] Memory required for data: 236511000
I0520 15:03:30.228962 13563 layer_factory.hpp:77] Creating layer drop1
I0520 15:03:30.228982 13563 net.cpp:106] Creating Layer drop1
I0520 15:03:30.228992 13563 net.cpp:454] drop1 <- ip1
I0520 15:03:30.229006 13563 net.cpp:397] drop1 -> ip1 (in-place)
I0520 15:03:30.229050 13563 net.cpp:150] Setting up drop1
I0520 15:03:30.229064 13563 net.cpp:157] Top shape: 150 196 (29400)
I0520 15:03:30.229074 13563 net.cpp:165] Memory required for data: 236628600
I0520 15:03:30.229084 13563 layer_factory.hpp:77] Creating layer ip2
I0520 15:03:30.229099 13563 net.cpp:106] Creating Layer ip2
I0520 15:03:30.229109 13563 net.cpp:454] ip2 <- ip1
I0520 15:03:30.229120 13563 net.cpp:411] ip2 -> ip2
I0520 15:03:30.229599 13563 net.cpp:150] Setting up ip2
I0520 15:03:30.229614 13563 net.cpp:157] Top shape: 150 98 (14700)
I0520 15:03:30.229622 13563 net.cpp:165] Memory required for data: 236687400
I0520 15:03:30.229650 13563 layer_factory.hpp:77] Creating layer relu6
I0520 15:03:30.229665 13563 net.cpp:106] Creating Layer relu6
I0520 15:03:30.229674 13563 net.cpp:454] relu6 <- ip2
I0520 15:03:30.229686 13563 net.cpp:397] relu6 -> ip2 (in-place)
I0520 15:03:30.230222 13563 net.cpp:150] Setting up relu6
I0520 15:03:30.230243 13563 net.cpp:157] Top shape: 150 98 (14700)
I0520 15:03:30.230253 13563 net.cpp:165] Memory required for data: 236746200
I0520 15:03:30.230263 13563 layer_factory.hpp:77] Creating layer drop2
I0520 15:03:30.230278 13563 net.cpp:106] Creating Layer drop2
I0520 15:03:30.230288 13563 net.cpp:454] drop2 <- ip2
I0520 15:03:30.230300 13563 net.cpp:397] drop2 -> ip2 (in-place)
I0520 15:03:30.230345 13563 net.cpp:150] Setting up drop2
I0520 15:03:30.230357 13563 net.cpp:157] Top shape: 150 98 (14700)
I0520 15:03:30.230368 13563 net.cpp:165] Memory required for data: 236805000
I0520 15:03:30.230378 13563 layer_factory.hpp:77] Creating layer ip3
I0520 15:03:30.230391 13563 net.cpp:106] Creating Layer ip3
I0520 15:03:30.230401 13563 net.cpp:454] ip3 <- ip2
I0520 15:03:30.230414 13563 net.cpp:411] ip3 -> ip3
I0520 15:03:30.230635 13563 net.cpp:150] Setting up ip3
I0520 15:03:30.230648 13563 net.cpp:157] Top shape: 150 11 (1650)
I0520 15:03:30.230657 13563 net.cpp:165] Memory required for data: 236811600
I0520 15:03:30.230674 13563 layer_factory.hpp:77] Creating layer drop3
I0520 15:03:30.230687 13563 net.cpp:106] Creating Layer drop3
I0520 15:03:30.230696 13563 net.cpp:454] drop3 <- ip3
I0520 15:03:30.230710 13563 net.cpp:397] drop3 -> ip3 (in-place)
I0520 15:03:30.230751 13563 net.cpp:150] Setting up drop3
I0520 15:03:30.230762 13563 net.cpp:157] Top shape: 150 11 (1650)
I0520 15:03:30.230772 13563 net.cpp:165] Memory required for data: 236818200
I0520 15:03:30.230782 13563 layer_factory.hpp:77] Creating layer ip3_drop3_0_split
I0520 15:03:30.230795 13563 net.cpp:106] Creating Layer ip3_drop3_0_split
I0520 15:03:30.230805 13563 net.cpp:454] ip3_drop3_0_split <- ip3
I0520 15:03:30.230818 13563 net.cpp:411] ip3_drop3_0_split -> ip3_drop3_0_split_0
I0520 15:03:30.230832 13563 net.cpp:411] ip3_drop3_0_split -> ip3_drop3_0_split_1
I0520 15:03:30.230906 13563 net.cpp:150] Setting up ip3_drop3_0_split
I0520 15:03:30.230918 13563 net.cpp:157] Top shape: 150 11 (1650)
I0520 15:03:30.230931 13563 net.cpp:157] Top shape: 150 11 (1650)
I0520 15:03:30.230940 13563 net.cpp:165] Memory required for data: 236831400
I0520 15:03:30.230948 13563 layer_factory.hpp:77] Creating layer accuracy
I0520 15:03:30.230970 13563 net.cpp:106] Creating Layer accuracy
I0520 15:03:30.230981 13563 net.cpp:454] accuracy <- ip3_drop3_0_split_0
I0520 15:03:30.230993 13563 net.cpp:454] accuracy <- label_data_hdf5_1_split_0
I0520 15:03:30.231006 13563 net.cpp:411] accuracy -> accuracy
…
