…
I0520 23:11:32.649600 24002 net.cpp:322] The NetState phase (0) differed from the phase (1) specified by a rule in layer data_hdf5
I0520 23:11:32.649659 24002 net.cpp:322] The NetState phase (0) differed from the phase (1) specified by a rule in layer accuracy
I0520 23:11:32.650003 24002 net.cpp:49] Initializing net from parameters: 
name: "caffe_test_127x50_x_unshifted"
state {
  phase: TRAIN
}
layer {
  name: "data_hdf5"
  type: "HDF5Data"
  top: "data"
  top: "label"
  include {
    phase: TRAIN
  }
  hdf5_data_param {
    source: "/lustre/atlas/proj-shared/hep105/caffe_titan/minosmatch_nukecczdefs_127x50_x_unshifted_me1Bmc.trainlist"
    batch_size: 410
  }
}
layer {
  name: "conv1"
  type: "Convolution"
  bottom: "data"
  top: "conv1"
  convolution_param {
    num_output: 12
    pad: 0
    stride: 1
    weight_filler {
      type: "xavier"
    }
    bias_filler {
      type: "constant"
    }
    kernel_h: 8
    kernel_w: 3
  }
}
layer {
  name: "relu1"
  type: "ReLU"
  bottom: "conv1"
  top: "conv1"
}
layer {
  name: "pool1"
  type: "Pooling"
  bottom: "conv1"
  top: "pool1"
  pooling_param {
    pool: MAX
    kernel_h: 2
    kernel_w: 1
    stride_h: 2
    stride_w: 1
  }
}
layer {
  name: "conv2"
  type: "Convolution"
  bottom: "pool1"
  top: "conv2"
  convolution_param {
    num_output: 20
    pad: 0
    stride: 1
    weight_filler {
      type: "xavier"
    }
    bias_filler {
      type: "constant"
    }
    kernel_h: 7
    kernel_w: 3
  }
}
layer {
  name: "relu2"
  type: "ReLU"
  bottom: "conv2"
  top: "conv2"
}
layer {
  name: "pool2"
  type: "Pooling"
  bottom: "conv2"
  top: "pool2"
  pooling_param {
    pool: MAX
    kernel_h: 2
    kernel_w: 1
    stride_h: 2
    stride_w: 1
  }
}
layer {
  name: "conv3"
  type: "Convolution"
  bottom: "pool2"
  top: "conv3"
  convolution_param {
    num_output: 28
    pad: 0
    stride: 1
    weight_filler {
      type: "xavier"
    }
    bias_filler {
      type: "constant"
    }
    kernel_h: 6
    kernel_w: 3
  }
}
layer {
  name: "relu3"
  type: "ReLU"
  bottom: "conv3"
  top: "conv3"
}
layer {
  name: "pool3"
  type: "Pooling"
  bottom: "conv3"
  top: "pool3"
  pooling_param {
    pool: MAX
    kernel_h: 2
    kernel_w: 1
    stride_h: 2
    stride_w: 1
  }
}
layer {
  name: "conv4"
  type: "Convolution"
  bottom: "pool3"
  top: "conv4"
  convolution_param {
    num_output: 36
    pad: 0
    stride: 1
    weight_filler {
      type: "xavier"
    }
    bias_filler {
      type: "constant"
    }
    kernel_h: 6
    kernel_w: 3
  }
}
layer {
  name: "relu4"
  type: "ReLU"
  bottom: "conv4"
  top: "conv4"
}
layer {
  name: "pool4"
  type: "Pooling"
  bottom: "conv4"
  top: "pool4"
  pooling_param {
    pool: MAX
    kernel_h: 2
    kernel_w: 1
    stride_h: 2
    stride_w: 1
  }
}
layer {
  name: "ip1"
  type: "InnerProduct"
  bottom: "pool4"
  top: "ip1"
  inner_product_param {
    num_output: 196
    weight_filler {
      type: "xavier"
    }
    bias_filler {
      type: "constant"
    }
  }
}
layer {
  name: "relu5"
  type: "ReLU"
  bottom: "ip1"
  top: "ip1"
}
layer {
  name: "drop1"
  type: "Dropout"
  bottom: "ip1"
  top: "ip1"
  dropout_param {
    dropout_ratio: 0.5
  }
}
layer {
  name: "ip2"
  type: "InnerProduct"
  bottom: "ip1"
  top: "ip2"
  inner_product_param {
    num_output: 98
    weight_filler {
      type: "xavier"
    }
    bias_filler {
      type: "constant"
    }
  }
}
layer {
  name: "relu6"
  type: "ReLU"
  bottom: "ip2"
  top: "ip2"
}
layer {
  name: "drop2"
  type: "Dropout"
  bottom: "ip2"
  top: "ip2"
  dropout_param {
    dropout_ratio: 0.5
  }
}
layer {
  name: "ip3"
  type: "InnerProduct"
  bottom: "ip2"
  top: "ip3"
  inner_product_param {
    num_output: 11
    weight_filler {
      type: "xavier"
    }
    bias_filler {
      type: "constant"
    }
  }
}
layer {
  name: "drop3"
  type: "Dropout"
  bottom: "ip3"
  top: "ip3"
  dropout_param {
    dropout_ratio: 0.5
  }
}
layer {
  name: "loss"
  type: "SoftmaxWithLoss"
  bottom: "ip3"
  bottom: "label"
  top: "loss"
}
I0520 23:11:32.650180 24002 layer_factory.hpp:77] Creating layer data_hdf5
I0520 23:11:32.650205 24002 net.cpp:106] Creating Layer data_hdf5
I0520 23:11:32.650219 24002 net.cpp:411] data_hdf5 -> data
I0520 23:11:32.650254 24002 net.cpp:411] data_hdf5 -> label
I0520 23:11:32.650285 24002 hdf5_data_layer.cpp:79] Loading list of HDF5 filenames from: /lustre/atlas/proj-shared/hep105/caffe_titan/minosmatch_nukecczdefs_127x50_x_unshifted_me1Bmc.trainlist
I0520 23:11:32.651564 24002 hdf5_data_layer.cpp:93] Number of HDF5 files: 15
I0520 23:11:32.653758 24002 hdf5.cpp:32] Datatype class: H5T_FLOAT
I0520 23:11:54.195036 24002 hdf5.cpp:35] Datatype class: H5T_INTEGER
I0520 23:11:54.200188 24002 net.cpp:150] Setting up data_hdf5
I0520 23:11:54.200229 24002 net.cpp:157] Top shape: 410 1 127 50 (2603500)
I0520 23:11:54.200244 24002 net.cpp:157] Top shape: 410 (410)
I0520 23:11:54.200256 24002 net.cpp:165] Memory required for data: 10415640
I0520 23:11:54.200269 24002 layer_factory.hpp:77] Creating layer conv1
I0520 23:11:54.200304 24002 net.cpp:106] Creating Layer conv1
I0520 23:11:54.200315 24002 net.cpp:454] conv1 <- data
I0520 23:11:54.200337 24002 net.cpp:411] conv1 -> conv1
I0520 23:11:54.562043 24002 net.cpp:150] Setting up conv1
I0520 23:11:54.562088 24002 net.cpp:157] Top shape: 410 12 120 48 (28339200)
I0520 23:11:54.562099 24002 net.cpp:165] Memory required for data: 123772440
I0520 23:11:54.562131 24002 layer_factory.hpp:77] Creating layer relu1
I0520 23:11:54.562152 24002 net.cpp:106] Creating Layer relu1
I0520 23:11:54.562163 24002 net.cpp:454] relu1 <- conv1
I0520 23:11:54.562177 24002 net.cpp:397] relu1 -> conv1 (in-place)
I0520 23:11:54.562696 24002 net.cpp:150] Setting up relu1
I0520 23:11:54.562713 24002 net.cpp:157] Top shape: 410 12 120 48 (28339200)
I0520 23:11:54.562724 24002 net.cpp:165] Memory required for data: 237129240
I0520 23:11:54.562734 24002 layer_factory.hpp:77] Creating layer pool1
I0520 23:11:54.562750 24002 net.cpp:106] Creating Layer pool1
I0520 23:11:54.562760 24002 net.cpp:454] pool1 <- conv1
I0520 23:11:54.562773 24002 net.cpp:411] pool1 -> pool1
I0520 23:11:54.562855 24002 net.cpp:150] Setting up pool1
I0520 23:11:54.562868 24002 net.cpp:157] Top shape: 410 12 60 48 (14169600)
I0520 23:11:54.562878 24002 net.cpp:165] Memory required for data: 293807640
I0520 23:11:54.562888 24002 layer_factory.hpp:77] Creating layer conv2
I0520 23:11:54.562909 24002 net.cpp:106] Creating Layer conv2
I0520 23:11:54.562919 24002 net.cpp:454] conv2 <- pool1
I0520 23:11:54.562932 24002 net.cpp:411] conv2 -> conv2
I0520 23:11:54.565609 24002 net.cpp:150] Setting up conv2
I0520 23:11:54.565632 24002 net.cpp:157] Top shape: 410 20 54 46 (20368800)
I0520 23:11:54.565644 24002 net.cpp:165] Memory required for data: 375282840
I0520 23:11:54.565662 24002 layer_factory.hpp:77] Creating layer relu2
I0520 23:11:54.565676 24002 net.cpp:106] Creating Layer relu2
I0520 23:11:54.565686 24002 net.cpp:454] relu2 <- conv2
I0520 23:11:54.565699 24002 net.cpp:397] relu2 -> conv2 (in-place)
I0520 23:11:54.566030 24002 net.cpp:150] Setting up relu2
I0520 23:11:54.566045 24002 net.cpp:157] Top shape: 410 20 54 46 (20368800)
I0520 23:11:54.566054 24002 net.cpp:165] Memory required for data: 456758040
I0520 23:11:54.566064 24002 layer_factory.hpp:77] Creating layer pool2
I0520 23:11:54.566077 24002 net.cpp:106] Creating Layer pool2
I0520 23:11:54.566087 24002 net.cpp:454] pool2 <- conv2
I0520 23:11:54.566112 24002 net.cpp:411] pool2 -> pool2
I0520 23:11:54.566181 24002 net.cpp:150] Setting up pool2
I0520 23:11:54.566195 24002 net.cpp:157] Top shape: 410 20 27 46 (10184400)
I0520 23:11:54.566205 24002 net.cpp:165] Memory required for data: 497495640
I0520 23:11:54.566212 24002 layer_factory.hpp:77] Creating layer conv3
I0520 23:11:54.566231 24002 net.cpp:106] Creating Layer conv3
I0520 23:11:54.566241 24002 net.cpp:454] conv3 <- pool2
I0520 23:11:54.566256 24002 net.cpp:411] conv3 -> conv3
I0520 23:11:54.568217 24002 net.cpp:150] Setting up conv3
I0520 23:11:54.568239 24002 net.cpp:157] Top shape: 410 28 22 44 (11112640)
I0520 23:11:54.568253 24002 net.cpp:165] Memory required for data: 541946200
I0520 23:11:54.568271 24002 layer_factory.hpp:77] Creating layer relu3
I0520 23:11:54.568287 24002 net.cpp:106] Creating Layer relu3
I0520 23:11:54.568296 24002 net.cpp:454] relu3 <- conv3
I0520 23:11:54.568310 24002 net.cpp:397] relu3 -> conv3 (in-place)
I0520 23:11:54.568784 24002 net.cpp:150] Setting up relu3
I0520 23:11:54.568801 24002 net.cpp:157] Top shape: 410 28 22 44 (11112640)
I0520 23:11:54.568811 24002 net.cpp:165] Memory required for data: 586396760
I0520 23:11:54.568822 24002 layer_factory.hpp:77] Creating layer pool3
I0520 23:11:54.568835 24002 net.cpp:106] Creating Layer pool3
I0520 23:11:54.568845 24002 net.cpp:454] pool3 <- conv3
I0520 23:11:54.568857 24002 net.cpp:411] pool3 -> pool3
I0520 23:11:54.568925 24002 net.cpp:150] Setting up pool3
I0520 23:11:54.568938 24002 net.cpp:157] Top shape: 410 28 11 44 (5556320)
I0520 23:11:54.568948 24002 net.cpp:165] Memory required for data: 608622040
I0520 23:11:54.568958 24002 layer_factory.hpp:77] Creating layer conv4
I0520 23:11:54.568975 24002 net.cpp:106] Creating Layer conv4
I0520 23:11:54.568986 24002 net.cpp:454] conv4 <- pool3
I0520 23:11:54.569000 24002 net.cpp:411] conv4 -> conv4
I0520 23:11:54.571764 24002 net.cpp:150] Setting up conv4
I0520 23:11:54.571792 24002 net.cpp:157] Top shape: 410 36 6 42 (3719520)
I0520 23:11:54.571804 24002 net.cpp:165] Memory required for data: 623500120
I0520 23:11:54.571820 24002 layer_factory.hpp:77] Creating layer relu4
I0520 23:11:54.571833 24002 net.cpp:106] Creating Layer relu4
I0520 23:11:54.571843 24002 net.cpp:454] relu4 <- conv4
I0520 23:11:54.571857 24002 net.cpp:397] relu4 -> conv4 (in-place)
I0520 23:11:54.572329 24002 net.cpp:150] Setting up relu4
I0520 23:11:54.572345 24002 net.cpp:157] Top shape: 410 36 6 42 (3719520)
I0520 23:11:54.572355 24002 net.cpp:165] Memory required for data: 638378200
I0520 23:11:54.572365 24002 layer_factory.hpp:77] Creating layer pool4
I0520 23:11:54.572378 24002 net.cpp:106] Creating Layer pool4
I0520 23:11:54.572388 24002 net.cpp:454] pool4 <- conv4
I0520 23:11:54.572402 24002 net.cpp:411] pool4 -> pool4
I0520 23:11:54.572469 24002 net.cpp:150] Setting up pool4
I0520 23:11:54.572484 24002 net.cpp:157] Top shape: 410 36 3 42 (1859760)
I0520 23:11:54.572494 24002 net.cpp:165] Memory required for data: 645817240
I0520 23:11:54.572504 24002 layer_factory.hpp:77] Creating layer ip1
I0520 23:11:54.572525 24002 net.cpp:106] Creating Layer ip1
I0520 23:11:54.572535 24002 net.cpp:454] ip1 <- pool4
I0520 23:11:54.572548 24002 net.cpp:411] ip1 -> ip1
I0520 23:11:54.588013 24002 net.cpp:150] Setting up ip1
I0520 23:11:54.588040 24002 net.cpp:157] Top shape: 410 196 (80360)
I0520 23:11:54.588054 24002 net.cpp:165] Memory required for data: 646138680
I0520 23:11:54.588076 24002 layer_factory.hpp:77] Creating layer relu5
I0520 23:11:54.588091 24002 net.cpp:106] Creating Layer relu5
I0520 23:11:54.588101 24002 net.cpp:454] relu5 <- ip1
I0520 23:11:54.588115 24002 net.cpp:397] relu5 -> ip1 (in-place)
I0520 23:11:54.588456 24002 net.cpp:150] Setting up relu5
I0520 23:11:54.588470 24002 net.cpp:157] Top shape: 410 196 (80360)
I0520 23:11:54.588480 24002 net.cpp:165] Memory required for data: 646460120
I0520 23:11:54.588491 24002 layer_factory.hpp:77] Creating layer drop1
I0520 23:11:54.588512 24002 net.cpp:106] Creating Layer drop1
I0520 23:11:54.588522 24002 net.cpp:454] drop1 <- ip1
I0520 23:11:54.588547 24002 net.cpp:397] drop1 -> ip1 (in-place)
I0520 23:11:54.588594 24002 net.cpp:150] Setting up drop1
I0520 23:11:54.588608 24002 net.cpp:157] Top shape: 410 196 (80360)
I0520 23:11:54.588618 24002 net.cpp:165] Memory required for data: 646781560
I0520 23:11:54.588627 24002 layer_factory.hpp:77] Creating layer ip2
I0520 23:11:54.588645 24002 net.cpp:106] Creating Layer ip2
I0520 23:11:54.588655 24002 net.cpp:454] ip2 <- ip1
I0520 23:11:54.588668 24002 net.cpp:411] ip2 -> ip2
I0520 23:11:54.589131 24002 net.cpp:150] Setting up ip2
I0520 23:11:54.589145 24002 net.cpp:157] Top shape: 410 98 (40180)
I0520 23:11:54.589155 24002 net.cpp:165] Memory required for data: 646942280
I0520 23:11:54.589170 24002 layer_factory.hpp:77] Creating layer relu6
I0520 23:11:54.589182 24002 net.cpp:106] Creating Layer relu6
I0520 23:11:54.589192 24002 net.cpp:454] relu6 <- ip2
I0520 23:11:54.589205 24002 net.cpp:397] relu6 -> ip2 (in-place)
I0520 23:11:54.589718 24002 net.cpp:150] Setting up relu6
I0520 23:11:54.589735 24002 net.cpp:157] Top shape: 410 98 (40180)
I0520 23:11:54.589745 24002 net.cpp:165] Memory required for data: 647103000
I0520 23:11:54.589756 24002 layer_factory.hpp:77] Creating layer drop2
I0520 23:11:54.589768 24002 net.cpp:106] Creating Layer drop2
I0520 23:11:54.589778 24002 net.cpp:454] drop2 <- ip2
I0520 23:11:54.589790 24002 net.cpp:397] drop2 -> ip2 (in-place)
I0520 23:11:54.589833 24002 net.cpp:150] Setting up drop2
I0520 23:11:54.589845 24002 net.cpp:157] Top shape: 410 98 (40180)
I0520 23:11:54.589855 24002 net.cpp:165] Memory required for data: 647263720
I0520 23:11:54.589865 24002 layer_factory.hpp:77] Creating layer ip3
I0520 23:11:54.589879 24002 net.cpp:106] Creating Layer ip3
I0520 23:11:54.589890 24002 net.cpp:454] ip3 <- ip2
I0520 23:11:54.589900 24002 net.cpp:411] ip3 -> ip3
I0520 23:11:54.590111 24002 net.cpp:150] Setting up ip3
I0520 23:11:54.590124 24002 net.cpp:157] Top shape: 410 11 (4510)
I0520 23:11:54.590134 24002 net.cpp:165] Memory required for data: 647281760
I0520 23:11:54.590149 24002 layer_factory.hpp:77] Creating layer drop3
I0520 23:11:54.590162 24002 net.cpp:106] Creating Layer drop3
I0520 23:11:54.590172 24002 net.cpp:454] drop3 <- ip3
I0520 23:11:54.590183 24002 net.cpp:397] drop3 -> ip3 (in-place)
I0520 23:11:54.590224 24002 net.cpp:150] Setting up drop3
I0520 23:11:54.590235 24002 net.cpp:157] Top shape: 410 11 (4510)
I0520 23:11:54.590246 24002 net.cpp:165] Memory required for data: 647299800
I0520 23:11:54.590256 24002 layer_factory.hpp:77] Creating layer loss
I0520 23:11:54.590276 24002 net.cpp:106] Creating Layer loss
I0520 23:11:54.590286 24002 net.cpp:454] loss <- ip3
I0520 23:11:54.590296 24002 net.cpp:454] loss <- label
I0520 23:11:54.590309 24002 net.cpp:411] loss -> loss
I0520 23:11:54.590327 24002 layer_factory.hpp:77] Creating layer loss
…
I0520 23:11:54.593231 24002 solver.cpp:181] Creating test net (#0) specified by net file: /lustre/atlas/proj-shared/hep105/caffe_titan/caffe_workflow/logs_batch_size_test/batch_size_410_2016-05-20T11.20.47.617379.prototxt
I0520 23:11:54.593302 24002 net.cpp:322] The NetState phase (1) differed from the phase (0) specified by a rule in layer data_hdf5
I0520 23:11:54.593657 24002 net.cpp:49] Initializing net from parameters: 
name: "caffe_test_127x50_x_unshifted"
state {
  phase: TEST
}
layer {
  name: "data_hdf5"
  type: "HDF5Data"
  top: "data"
  top: "label"
  include {
    phase: TEST
  }
  hdf5_data_param {
    source: "/lustre/atlas/proj-shared/hep105/caffe_titan/minosmatch_nukecczdefs_127x50_x_unshifted_me1Bmc.testlist"
    batch_size: 410
  }
}
layer {
  name: "conv1"
  type: "Convolution"
  bottom: "data"
  top: "conv1"
  convolution_param {
    num_output: 12
    pad: 0
    stride: 1
    weight_filler {
      type: "xavier"
    }
    bias_filler {
      type: "constant"
    }
    kernel_h: 8
    kernel_w: 3
  }
}
layer {
  name: "relu1"
  type: "ReLU"
  bottom: "conv1"
  top: "conv1"
}
layer {
  name: "pool1"
  type: "Pooling"
  bottom: "conv1"
  top: "pool1"
  pooling_param {
    pool: MAX
    kernel_h: 2
    kernel_w: 1
    stride_h: 2
    stride_w: 1
  }
}
layer {
  name: "conv2"
  type: "Convolution"
  bottom: "pool1"
  top: "conv2"
  convolution_param {
    num_output: 20
    pad: 0
    stride: 1
    weight_filler {
      type: "xavier"
    }
    bias_filler {
      type: "constant"
    }
    kernel_h: 7
    kernel_w: 3
  }
}
layer {
  name: "relu2"
  type: "ReLU"
  bottom: "conv2"
  top: "conv2"
}
layer {
  name: "pool2"
  type: "Pooling"
  bottom: "conv2"
  top: "pool2"
  pooling_param {
    pool: MAX
    kernel_h: 2
    kernel_w: 1
    stride_h: 2
    stride_w: 1
  }
}
layer {
  name: "conv3"
  type: "Convolution"
  bottom: "pool2"
  top: "conv3"
  convolution_param {
    num_output: 28
    pad: 0
    stride: 1
    weight_filler {
      type: "xavier"
    }
    bias_filler {
      type: "constant"
    }
    kernel_h: 6
    kernel_w: 3
  }
}
layer {
  name: "relu3"
  type: "ReLU"
  bottom: "conv3"
  top: "conv3"
}
layer {
  name: "pool3"
  type: "Pooling"
  bottom: "conv3"
  top: "pool3"
  pooling_param {
    pool: MAX
    kernel_h: 2
    kernel_w: 1
    stride_h: 2
    stride_w: 1
  }
}
layer {
  name: "conv4"
  type: "Convolution"
  bottom: "pool3"
  top: "conv4"
  convolution_param {
    num_output: 36
    pad: 0
    stride: 1
    weight_filler {
      type: "xavier"
    }
    bias_filler {
      type: "constant"
    }
    kernel_h: 6
    kernel_w: 3
  }
}
layer {
  name: "relu4"
  type: "ReLU"
  bottom: "conv4"
  top: "conv4"
}
layer {
  name: "pool4"
  type: "Pooling"
  bottom: "conv4"
  top: "pool4"
  pooling_param {
    pool: MAX
    kernel_h: 2
    kernel_w: 1
    stride_h: 2
    stride_w: 1
  }
}
layer {
  name: "ip1"
  type: "InnerProduct"
  bottom: "pool4"
  top: "ip1"
  inner_product_param {
    num_output: 196
    weight_filler {
      type: "xavier"
    }
    bias_filler {
      type: "constant"
    }
  }
}
layer {
  name: "relu5"
  type: "ReLU"
  bottom: "ip1"
  top: "ip1"
}
layer {
  name: "drop1"
  type: "Dropout"
  bottom: "ip1"
  top: "ip1"
  dropout_param {
    dropout_ratio: 0.5
  }
}
layer {
  name: "ip2"
  type: "InnerProduct"
  bottom: "ip1"
  top: "ip2"
  inner_product_param {
    num_output: 98
    weight_filler {
      type: "xavier"
    }
    bias_filler {
      type: "constant"
    }
  }
}
layer {
  name: "relu6"
  type: "ReLU"
  bottom: "ip2"
  top: "ip2"
}
layer {
  name: "drop2"
  type: "Dropout"
  bottom: "ip2"
  top: "ip2"
  dropout_param {
    dropout_ratio: 0.5
  }
}
layer {
  name: "ip3"
  type: "InnerProduct"
  bottom: "ip2"
  top: "ip3"
  inner_product_param {
    num_output: 11
    weight_filler {
      type: "xavier"
    }
    bias_filler {
      type: "constant"
    }
  }
}
layer {
  name: "drop3"
  type: "Dropout"
  bottom: "ip3"
  top: "ip3"
  dropout_param {
    dropout_ratio: 0.5
  }
}
layer {
  name: "accuracy"
  type: "Accuracy"
  bottom: "ip3"
  bottom: "label"
  top: "accuracy"
  include {
    phase: TEST
  }
}
layer {
  name: "loss"
  type: "SoftmaxWithLoss"
  bottom: "ip3"
  bottom: "label"
  top: "loss"
}
I0520 23:11:54.593847 24002 layer_factory.hpp:77] Creating layer data_hdf5
I0520 23:11:54.593863 24002 net.cpp:106] Creating Layer data_hdf5
I0520 23:11:54.593874 24002 net.cpp:411] data_hdf5 -> data
I0520 23:11:54.593891 24002 net.cpp:411] data_hdf5 -> label
I0520 23:11:54.593907 24002 hdf5_data_layer.cpp:79] Loading list of HDF5 filenames from: /lustre/atlas/proj-shared/hep105/caffe_titan/minosmatch_nukecczdefs_127x50_x_unshifted_me1Bmc.testlist
I0520 23:11:54.595121 24002 hdf5_data_layer.cpp:93] Number of HDF5 files: 3
I0520 23:12:15.916797 24002 net.cpp:150] Setting up data_hdf5
I0520 23:12:15.916962 24002 net.cpp:157] Top shape: 410 1 127 50 (2603500)
I0520 23:12:15.916977 24002 net.cpp:157] Top shape: 410 (410)
I0520 23:12:15.916990 24002 net.cpp:165] Memory required for data: 10415640
I0520 23:12:15.917002 24002 layer_factory.hpp:77] Creating layer label_data_hdf5_1_split
I0520 23:12:15.917032 24002 net.cpp:106] Creating Layer label_data_hdf5_1_split
I0520 23:12:15.917043 24002 net.cpp:454] label_data_hdf5_1_split <- label
I0520 23:12:15.917058 24002 net.cpp:411] label_data_hdf5_1_split -> label_data_hdf5_1_split_0
I0520 23:12:15.917079 24002 net.cpp:411] label_data_hdf5_1_split -> label_data_hdf5_1_split_1
I0520 23:12:15.917153 24002 net.cpp:150] Setting up label_data_hdf5_1_split
I0520 23:12:15.917167 24002 net.cpp:157] Top shape: 410 (410)
I0520 23:12:15.917178 24002 net.cpp:157] Top shape: 410 (410)
I0520 23:12:15.917188 24002 net.cpp:165] Memory required for data: 10418920
I0520 23:12:15.917199 24002 layer_factory.hpp:77] Creating layer conv1
I0520 23:12:15.917220 24002 net.cpp:106] Creating Layer conv1
I0520 23:12:15.917300 24002 net.cpp:454] conv1 <- data
I0520 23:12:15.917316 24002 net.cpp:411] conv1 -> conv1
I0520 23:12:15.919240 24002 net.cpp:150] Setting up conv1
I0520 23:12:15.919265 24002 net.cpp:157] Top shape: 410 12 120 48 (28339200)
I0520 23:12:15.919276 24002 net.cpp:165] Memory required for data: 123775720
I0520 23:12:15.919297 24002 layer_factory.hpp:77] Creating layer relu1
I0520 23:12:15.919312 24002 net.cpp:106] Creating Layer relu1
I0520 23:12:15.919322 24002 net.cpp:454] relu1 <- conv1
I0520 23:12:15.919337 24002 net.cpp:397] relu1 -> conv1 (in-place)
I0520 23:12:15.919843 24002 net.cpp:150] Setting up relu1
I0520 23:12:15.919860 24002 net.cpp:157] Top shape: 410 12 120 48 (28339200)
I0520 23:12:15.919870 24002 net.cpp:165] Memory required for data: 237132520
I0520 23:12:15.919880 24002 layer_factory.hpp:77] Creating layer pool1
I0520 23:12:15.919898 24002 net.cpp:106] Creating Layer pool1
I0520 23:12:15.919908 24002 net.cpp:454] pool1 <- conv1
I0520 23:12:15.919920 24002 net.cpp:411] pool1 -> pool1
I0520 23:12:15.919996 24002 net.cpp:150] Setting up pool1
I0520 23:12:15.920009 24002 net.cpp:157] Top shape: 410 12 60 48 (14169600)
I0520 23:12:15.920018 24002 net.cpp:165] Memory required for data: 293810920
I0520 23:12:15.920030 24002 layer_factory.hpp:77] Creating layer conv2
I0520 23:12:15.920048 24002 net.cpp:106] Creating Layer conv2
I0520 23:12:15.920059 24002 net.cpp:454] conv2 <- pool1
I0520 23:12:15.920073 24002 net.cpp:411] conv2 -> conv2
I0520 23:12:15.921983 24002 net.cpp:150] Setting up conv2
I0520 23:12:15.922005 24002 net.cpp:157] Top shape: 410 20 54 46 (20368800)
I0520 23:12:15.922018 24002 net.cpp:165] Memory required for data: 375286120
I0520 23:12:15.922035 24002 layer_factory.hpp:77] Creating layer relu2
I0520 23:12:15.922049 24002 net.cpp:106] Creating Layer relu2
I0520 23:12:15.922060 24002 net.cpp:454] relu2 <- conv2
I0520 23:12:15.922071 24002 net.cpp:397] relu2 -> conv2 (in-place)
I0520 23:12:15.922405 24002 net.cpp:150] Setting up relu2
I0520 23:12:15.922418 24002 net.cpp:157] Top shape: 410 20 54 46 (20368800)
I0520 23:12:15.922428 24002 net.cpp:165] Memory required for data: 456761320
I0520 23:12:15.922438 24002 layer_factory.hpp:77] Creating layer pool2
I0520 23:12:15.922451 24002 net.cpp:106] Creating Layer pool2
I0520 23:12:15.922461 24002 net.cpp:454] pool2 <- conv2
I0520 23:12:15.922473 24002 net.cpp:411] pool2 -> pool2
I0520 23:12:15.922544 24002 net.cpp:150] Setting up pool2
I0520 23:12:15.922557 24002 net.cpp:157] Top shape: 410 20 27 46 (10184400)
I0520 23:12:15.922566 24002 net.cpp:165] Memory required for data: 497498920
I0520 23:12:15.922576 24002 layer_factory.hpp:77] Creating layer conv3
I0520 23:12:15.922595 24002 net.cpp:106] Creating Layer conv3
I0520 23:12:15.922606 24002 net.cpp:454] conv3 <- pool2
I0520 23:12:15.922621 24002 net.cpp:411] conv3 -> conv3
I0520 23:12:15.924592 24002 net.cpp:150] Setting up conv3
I0520 23:12:15.924615 24002 net.cpp:157] Top shape: 410 28 22 44 (11112640)
I0520 23:12:15.924628 24002 net.cpp:165] Memory required for data: 541949480
I0520 23:12:15.924661 24002 layer_factory.hpp:77] Creating layer relu3
I0520 23:12:15.924675 24002 net.cpp:106] Creating Layer relu3
I0520 23:12:15.924685 24002 net.cpp:454] relu3 <- conv3
I0520 23:12:15.924698 24002 net.cpp:397] relu3 -> conv3 (in-place)
I0520 23:12:15.925170 24002 net.cpp:150] Setting up relu3
I0520 23:12:15.925187 24002 net.cpp:157] Top shape: 410 28 22 44 (11112640)
I0520 23:12:15.925197 24002 net.cpp:165] Memory required for data: 586400040
I0520 23:12:15.925207 24002 layer_factory.hpp:77] Creating layer pool3
I0520 23:12:15.925220 24002 net.cpp:106] Creating Layer pool3
I0520 23:12:15.925232 24002 net.cpp:454] pool3 <- conv3
I0520 23:12:15.925246 24002 net.cpp:411] pool3 -> pool3
I0520 23:12:15.925318 24002 net.cpp:150] Setting up pool3
I0520 23:12:15.925330 24002 net.cpp:157] Top shape: 410 28 11 44 (5556320)
I0520 23:12:15.925340 24002 net.cpp:165] Memory required for data: 608625320
I0520 23:12:15.925350 24002 layer_factory.hpp:77] Creating layer conv4
I0520 23:12:15.925365 24002 net.cpp:106] Creating Layer conv4
I0520 23:12:15.925376 24002 net.cpp:454] conv4 <- pool3
I0520 23:12:15.925390 24002 net.cpp:411] conv4 -> conv4
I0520 23:12:15.927443 24002 net.cpp:150] Setting up conv4
I0520 23:12:15.927464 24002 net.cpp:157] Top shape: 410 36 6 42 (3719520)
I0520 23:12:15.927479 24002 net.cpp:165] Memory required for data: 623503400
I0520 23:12:15.927494 24002 layer_factory.hpp:77] Creating layer relu4
I0520 23:12:15.927507 24002 net.cpp:106] Creating Layer relu4
I0520 23:12:15.927517 24002 net.cpp:454] relu4 <- conv4
I0520 23:12:15.927530 24002 net.cpp:397] relu4 -> conv4 (in-place)
I0520 23:12:15.928001 24002 net.cpp:150] Setting up relu4
I0520 23:12:15.928017 24002 net.cpp:157] Top shape: 410 36 6 42 (3719520)
I0520 23:12:15.928027 24002 net.cpp:165] Memory required for data: 638381480
I0520 23:12:15.928037 24002 layer_factory.hpp:77] Creating layer pool4
I0520 23:12:15.928050 24002 net.cpp:106] Creating Layer pool4
I0520 23:12:15.928061 24002 net.cpp:454] pool4 <- conv4
I0520 23:12:15.928073 24002 net.cpp:411] pool4 -> pool4
I0520 23:12:15.928179 24002 net.cpp:150] Setting up pool4
I0520 23:12:15.928194 24002 net.cpp:157] Top shape: 410 36 3 42 (1859760)
I0520 23:12:15.928203 24002 net.cpp:165] Memory required for data: 645820520
I0520 23:12:15.928213 24002 layer_factory.hpp:77] Creating layer ip1
I0520 23:12:15.928228 24002 net.cpp:106] Creating Layer ip1
I0520 23:12:15.928238 24002 net.cpp:454] ip1 <- pool4
I0520 23:12:15.928251 24002 net.cpp:411] ip1 -> ip1
I0520 23:12:15.943706 24002 net.cpp:150] Setting up ip1
I0520 23:12:15.943733 24002 net.cpp:157] Top shape: 410 196 (80360)
I0520 23:12:15.943745 24002 net.cpp:165] Memory required for data: 646141960
I0520 23:12:15.943768 24002 layer_factory.hpp:77] Creating layer relu5
I0520 23:12:15.943783 24002 net.cpp:106] Creating Layer relu5
I0520 23:12:15.943794 24002 net.cpp:454] relu5 <- ip1
I0520 23:12:15.943807 24002 net.cpp:397] relu5 -> ip1 (in-place)
I0520 23:12:15.944152 24002 net.cpp:150] Setting up relu5
I0520 23:12:15.944166 24002 net.cpp:157] Top shape: 410 196 (80360)
I0520 23:12:15.944176 24002 net.cpp:165] Memory required for data: 646463400
I0520 23:12:15.944186 24002 layer_factory.hpp:77] Creating layer drop1
I0520 23:12:15.944205 24002 net.cpp:106] Creating Layer drop1
I0520 23:12:15.944214 24002 net.cpp:454] drop1 <- ip1
I0520 23:12:15.944228 24002 net.cpp:397] drop1 -> ip1 (in-place)
I0520 23:12:15.944272 24002 net.cpp:150] Setting up drop1
I0520 23:12:15.944285 24002 net.cpp:157] Top shape: 410 196 (80360)
I0520 23:12:15.944294 24002 net.cpp:165] Memory required for data: 646784840
I0520 23:12:15.944305 24002 layer_factory.hpp:77] Creating layer ip2
I0520 23:12:15.944319 24002 net.cpp:106] Creating Layer ip2
I0520 23:12:15.944329 24002 net.cpp:454] ip2 <- ip1
I0520 23:12:15.944342 24002 net.cpp:411] ip2 -> ip2
I0520 23:12:15.944823 24002 net.cpp:150] Setting up ip2
I0520 23:12:15.944836 24002 net.cpp:157] Top shape: 410 98 (40180)
I0520 23:12:15.944845 24002 net.cpp:165] Memory required for data: 646945560
I0520 23:12:15.944874 24002 layer_factory.hpp:77] Creating layer relu6
I0520 23:12:15.944886 24002 net.cpp:106] Creating Layer relu6
I0520 23:12:15.944896 24002 net.cpp:454] relu6 <- ip2
I0520 23:12:15.944910 24002 net.cpp:397] relu6 -> ip2 (in-place)
I0520 23:12:15.945441 24002 net.cpp:150] Setting up relu6
I0520 23:12:15.945456 24002 net.cpp:157] Top shape: 410 98 (40180)
I0520 23:12:15.945466 24002 net.cpp:165] Memory required for data: 647106280
I0520 23:12:15.945477 24002 layer_factory.hpp:77] Creating layer drop2
I0520 23:12:15.945490 24002 net.cpp:106] Creating Layer drop2
I0520 23:12:15.945500 24002 net.cpp:454] drop2 <- ip2
I0520 23:12:15.945513 24002 net.cpp:397] drop2 -> ip2 (in-place)
I0520 23:12:15.945557 24002 net.cpp:150] Setting up drop2
I0520 23:12:15.945570 24002 net.cpp:157] Top shape: 410 98 (40180)
I0520 23:12:15.945580 24002 net.cpp:165] Memory required for data: 647267000
I0520 23:12:15.945590 24002 layer_factory.hpp:77] Creating layer ip3
I0520 23:12:15.945605 24002 net.cpp:106] Creating Layer ip3
I0520 23:12:15.945614 24002 net.cpp:454] ip3 <- ip2
I0520 23:12:15.945628 24002 net.cpp:411] ip3 -> ip3
I0520 23:12:15.945852 24002 net.cpp:150] Setting up ip3
I0520 23:12:15.945865 24002 net.cpp:157] Top shape: 410 11 (4510)
I0520 23:12:15.945875 24002 net.cpp:165] Memory required for data: 647285040
I0520 23:12:15.945890 24002 layer_factory.hpp:77] Creating layer drop3
I0520 23:12:15.945904 24002 net.cpp:106] Creating Layer drop3
I0520 23:12:15.945914 24002 net.cpp:454] drop3 <- ip3
I0520 23:12:15.945926 24002 net.cpp:397] drop3 -> ip3 (in-place)
I0520 23:12:15.945967 24002 net.cpp:150] Setting up drop3
I0520 23:12:15.945981 24002 net.cpp:157] Top shape: 410 11 (4510)
I0520 23:12:15.945991 24002 net.cpp:165] Memory required for data: 647303080
I0520 23:12:15.946001 24002 layer_factory.hpp:77] Creating layer ip3_drop3_0_split
I0520 23:12:15.946013 24002 net.cpp:106] Creating Layer ip3_drop3_0_split
I0520 23:12:15.946022 24002 net.cpp:454] ip3_drop3_0_split <- ip3
I0520 23:12:15.946035 24002 net.cpp:411] ip3_drop3_0_split -> ip3_drop3_0_split_0
I0520 23:12:15.946050 24002 net.cpp:411] ip3_drop3_0_split -> ip3_drop3_0_split_1
I0520 23:12:15.946125 24002 net.cpp:150] Setting up ip3_drop3_0_split
I0520 23:12:15.946138 24002 net.cpp:157] Top shape: 410 11 (4510)
I0520 23:12:15.946151 24002 net.cpp:157] Top shape: 410 11 (4510)
I0520 23:12:15.946161 24002 net.cpp:165] Memory required for data: 647339160
I0520 23:12:15.946171 24002 layer_factory.hpp:77] Creating layer accuracy
I0520 23:12:15.946193 24002 net.cpp:106] Creating Layer accuracy
I0520 23:12:15.946203 24002 net.cpp:454] accuracy <- ip3_drop3_0_split_0
I0520 23:12:15.946215 24002 net.cpp:454] accuracy <- label_data_hdf5_1_split_0
I0520 23:12:15.946228 24002 net.cpp:411] accuracy -> accuracy
…
