…
I0521 05:22:11.841230 27565 net.cpp:322] The NetState phase (0) differed from the phase (1) specified by a rule in layer data_hdf5
I0521 05:22:11.841300 27565 net.cpp:322] The NetState phase (0) differed from the phase (1) specified by a rule in layer accuracy
I0521 05:22:11.841676 27565 net.cpp:49] Initializing net from parameters: 
name: "caffe_test_127x50_x_unshifted"
state {
  phase: TRAIN
}
layer {
  name: "data_hdf5"
  type: "HDF5Data"
  top: "data"
  top: "label"
  include {
    phase: TRAIN
  }
  hdf5_data_param {
    source: "/lustre/atlas/proj-shared/hep105/caffe_titan/minosmatch_nukecczdefs_127x50_x_unshifted_me1Bmc.trainlist"
    batch_size: 700
  }
}
layer {
  name: "conv1"
  type: "Convolution"
  bottom: "data"
  top: "conv1"
  convolution_param {
    num_output: 12
    pad: 0
    stride: 1
    weight_filler {
      type: "xavier"
    }
    bias_filler {
      type: "constant"
    }
    kernel_h: 8
    kernel_w: 3
  }
}
layer {
  name: "relu1"
  type: "ReLU"
  bottom: "conv1"
  top: "conv1"
}
layer {
  name: "pool1"
  type: "Pooling"
  bottom: "conv1"
  top: "pool1"
  pooling_param {
    pool: MAX
    kernel_h: 2
    kernel_w: 1
    stride_h: 2
    stride_w: 1
  }
}
layer {
  name: "conv2"
  type: "Convolution"
  bottom: "pool1"
  top: "conv2"
  convolution_param {
    num_output: 20
    pad: 0
    stride: 1
    weight_filler {
      type: "xavier"
    }
    bias_filler {
      type: "constant"
    }
    kernel_h: 7
    kernel_w: 3
  }
}
layer {
  name: "relu2"
  type: "ReLU"
  bottom: "conv2"
  top: "conv2"
}
layer {
  name: "pool2"
  type: "Pooling"
  bottom: "conv2"
  top: "pool2"
  pooling_param {
    pool: MAX
    kernel_h: 2
    kernel_w: 1
    stride_h: 2
    stride_w: 1
  }
}
layer {
  name: "conv3"
  type: "Convolution"
  bottom: "pool2"
  top: "conv3"
  convolution_param {
    num_output: 28
    pad: 0
    stride: 1
    weight_filler {
      type: "xavier"
    }
    bias_filler {
      type: "constant"
    }
    kernel_h: 6
    kernel_w: 3
  }
}
layer {
  name: "relu3"
  type: "ReLU"
  bottom: "conv3"
  top: "conv3"
}
layer {
  name: "pool3"
  type: "Pooling"
  bottom: "conv3"
  top: "pool3"
  pooling_param {
    pool: MAX
    kernel_h: 2
    kernel_w: 1
    stride_h: 2
    stride_w: 1
  }
}
layer {
  name: "conv4"
  type: "Convolution"
  bottom: "pool3"
  top: "conv4"
  convolution_param {
    num_output: 36
    pad: 0
    stride: 1
    weight_filler {
      type: "xavier"
    }
    bias_filler {
      type: "constant"
    }
    kernel_h: 6
    kernel_w: 3
  }
}
layer {
  name: "relu4"
  type: "ReLU"
  bottom: "conv4"
  top: "conv4"
}
layer {
  name: "pool4"
  type: "Pooling"
  bottom: "conv4"
  top: "pool4"
  pooling_param {
    pool: MAX
    kernel_h: 2
    kernel_w: 1
    stride_h: 2
    stride_w: 1
  }
}
layer {
  name: "ip1"
  type: "InnerProduct"
  bottom: "pool4"
  top: "ip1"
  inner_product_param {
    num_output: 196
    weight_filler {
      type: "xavier"
    }
    bias_filler {
      type: "constant"
    }
  }
}
layer {
  name: "relu5"
  type: "ReLU"
  bottom: "ip1"
  top: "ip1"
}
layer {
  name: "drop1"
  type: "Dropout"
  bottom: "ip1"
  top: "ip1"
  dropout_param {
    dropout_ratio: 0.5
  }
}
layer {
  name: "ip2"
  type: "InnerProduct"
  bottom: "ip1"
  top: "ip2"
  inner_product_param {
    num_output: 98
    weight_filler {
      type: "xavier"
    }
    bias_filler {
      type: "constant"
    }
  }
}
layer {
  name: "relu6"
  type: "ReLU"
  bottom: "ip2"
  top: "ip2"
}
layer {
  name: "drop2"
  type: "Dropout"
  bottom: "ip2"
  top: "ip2"
  dropout_param {
    dropout_ratio: 0.5
  }
}
layer {
  name: "ip3"
  type: "InnerProduct"
  bottom: "ip2"
  top: "ip3"
  inner_product_param {
    num_output: 11
    weight_filler {
      type: "xavier"
    }
    bias_filler {
      type: "constant"
    }
  }
}
layer {
  name: "drop3"
  type: "Dropout"
  bottom: "ip3"
  top: "ip3"
  dropout_param {
    dropout_ratio: 0.5
  }
}
layer {
  name: "loss"
  type: "SoftmaxWithLoss"
  bottom: "ip3"
  bottom: "label"
  top: "loss"
}
I0521 05:22:11.841879 27565 layer_factory.hpp:77] Creating layer data_hdf5
I0521 05:22:11.841917 27565 net.cpp:106] Creating Layer data_hdf5
I0521 05:22:11.841934 27565 net.cpp:411] data_hdf5 -> data
I0521 05:22:11.841966 27565 net.cpp:411] data_hdf5 -> label
I0521 05:22:11.842010 27565 hdf5_data_layer.cpp:79] Loading list of HDF5 filenames from: /lustre/atlas/proj-shared/hep105/caffe_titan/minosmatch_nukecczdefs_127x50_x_unshifted_me1Bmc.trainlist
I0521 05:22:11.843374 27565 hdf5_data_layer.cpp:93] Number of HDF5 files: 15
I0521 05:22:11.845718 27565 hdf5.cpp:32] Datatype class: H5T_FLOAT
I0521 05:22:33.340952 27565 hdf5.cpp:35] Datatype class: H5T_INTEGER
I0521 05:22:33.346138 27565 net.cpp:150] Setting up data_hdf5
I0521 05:22:33.346184 27565 net.cpp:157] Top shape: 700 1 127 50 (4445000)
I0521 05:22:33.346201 27565 net.cpp:157] Top shape: 700 (700)
I0521 05:22:33.346213 27565 net.cpp:165] Memory required for data: 17782800
I0521 05:22:33.346246 27565 layer_factory.hpp:77] Creating layer conv1
I0521 05:22:33.346279 27565 net.cpp:106] Creating Layer conv1
I0521 05:22:33.346303 27565 net.cpp:454] conv1 <- data
I0521 05:22:33.346328 27565 net.cpp:411] conv1 -> conv1
I0521 05:22:33.714323 27565 net.cpp:150] Setting up conv1
I0521 05:22:33.714378 27565 net.cpp:157] Top shape: 700 12 120 48 (48384000)
I0521 05:22:33.714402 27565 net.cpp:165] Memory required for data: 211318800
I0521 05:22:33.714433 27565 layer_factory.hpp:77] Creating layer relu1
I0521 05:22:33.714455 27565 net.cpp:106] Creating Layer relu1
I0521 05:22:33.714475 27565 net.cpp:454] relu1 <- conv1
I0521 05:22:33.714511 27565 net.cpp:397] relu1 -> conv1 (in-place)
I0521 05:22:33.715041 27565 net.cpp:150] Setting up relu1
I0521 05:22:33.715065 27565 net.cpp:157] Top shape: 700 12 120 48 (48384000)
I0521 05:22:33.715077 27565 net.cpp:165] Memory required for data: 404854800
I0521 05:22:33.715090 27565 layer_factory.hpp:77] Creating layer pool1
I0521 05:22:33.715121 27565 net.cpp:106] Creating Layer pool1
I0521 05:22:33.715134 27565 net.cpp:454] pool1 <- conv1
I0521 05:22:33.715150 27565 net.cpp:411] pool1 -> pool1
I0521 05:22:33.715245 27565 net.cpp:150] Setting up pool1
I0521 05:22:33.715262 27565 net.cpp:157] Top shape: 700 12 60 48 (24192000)
I0521 05:22:33.715284 27565 net.cpp:165] Memory required for data: 501622800
I0521 05:22:33.715297 27565 layer_factory.hpp:77] Creating layer conv2
I0521 05:22:33.715322 27565 net.cpp:106] Creating Layer conv2
I0521 05:22:33.715337 27565 net.cpp:454] conv2 <- pool1
I0521 05:22:33.715355 27565 net.cpp:411] conv2 -> conv2
I0521 05:22:33.718036 27565 net.cpp:150] Setting up conv2
I0521 05:22:33.718067 27565 net.cpp:157] Top shape: 700 20 54 46 (34776000)
I0521 05:22:33.718082 27565 net.cpp:165] Memory required for data: 640726800
I0521 05:22:33.718111 27565 layer_factory.hpp:77] Creating layer relu2
I0521 05:22:33.718128 27565 net.cpp:106] Creating Layer relu2
I0521 05:22:33.718152 27565 net.cpp:454] relu2 <- conv2
I0521 05:22:33.718169 27565 net.cpp:397] relu2 -> conv2 (in-place)
I0521 05:22:33.718528 27565 net.cpp:150] Setting up relu2
I0521 05:22:33.718549 27565 net.cpp:157] Top shape: 700 20 54 46 (34776000)
I0521 05:22:33.718561 27565 net.cpp:165] Memory required for data: 779830800
I0521 05:22:33.718575 27565 layer_factory.hpp:77] Creating layer pool2
I0521 05:22:33.718600 27565 net.cpp:106] Creating Layer pool2
I0521 05:22:33.718613 27565 net.cpp:454] pool2 <- conv2
I0521 05:22:33.718648 27565 net.cpp:411] pool2 -> pool2
I0521 05:22:33.718731 27565 net.cpp:150] Setting up pool2
I0521 05:22:33.718749 27565 net.cpp:157] Top shape: 700 20 27 46 (17388000)
I0521 05:22:33.718763 27565 net.cpp:165] Memory required for data: 849382800
I0521 05:22:33.718782 27565 layer_factory.hpp:77] Creating layer conv3
I0521 05:22:33.718804 27565 net.cpp:106] Creating Layer conv3
I0521 05:22:33.718817 27565 net.cpp:454] conv3 <- pool2
I0521 05:22:33.718839 27565 net.cpp:411] conv3 -> conv3
I0521 05:22:33.720799 27565 net.cpp:150] Setting up conv3
I0521 05:22:33.720824 27565 net.cpp:157] Top shape: 700 28 22 44 (18972800)
I0521 05:22:33.720845 27565 net.cpp:165] Memory required for data: 925274000
I0521 05:22:33.720867 27565 layer_factory.hpp:77] Creating layer relu3
I0521 05:22:33.720890 27565 net.cpp:106] Creating Layer relu3
I0521 05:22:33.720912 27565 net.cpp:454] relu3 <- conv3
I0521 05:22:33.720928 27565 net.cpp:397] relu3 -> conv3 (in-place)
I0521 05:22:33.721415 27565 net.cpp:150] Setting up relu3
I0521 05:22:33.721441 27565 net.cpp:157] Top shape: 700 28 22 44 (18972800)
I0521 05:22:33.721453 27565 net.cpp:165] Memory required for data: 1001165200
I0521 05:22:33.721469 27565 layer_factory.hpp:77] Creating layer pool3
I0521 05:22:33.721493 27565 net.cpp:106] Creating Layer pool3
I0521 05:22:33.721506 27565 net.cpp:454] pool3 <- conv3
I0521 05:22:33.721523 27565 net.cpp:411] pool3 -> pool3
I0521 05:22:33.721606 27565 net.cpp:150] Setting up pool3
I0521 05:22:33.721626 27565 net.cpp:157] Top shape: 700 28 11 44 (9486400)
I0521 05:22:33.721642 27565 net.cpp:165] Memory required for data: 1039110800
I0521 05:22:33.721654 27565 layer_factory.hpp:77] Creating layer conv4
I0521 05:22:33.721681 27565 net.cpp:106] Creating Layer conv4
I0521 05:22:33.721694 27565 net.cpp:454] conv4 <- pool3
I0521 05:22:33.721711 27565 net.cpp:411] conv4 -> conv4
I0521 05:22:33.724504 27565 net.cpp:150] Setting up conv4
I0521 05:22:33.724536 27565 net.cpp:157] Top shape: 700 36 6 42 (6350400)
I0521 05:22:33.724550 27565 net.cpp:165] Memory required for data: 1064512400
I0521 05:22:33.724575 27565 layer_factory.hpp:77] Creating layer relu4
I0521 05:22:33.724603 27565 net.cpp:106] Creating Layer relu4
I0521 05:22:33.724617 27565 net.cpp:454] relu4 <- conv4
I0521 05:22:33.724633 27565 net.cpp:397] relu4 -> conv4 (in-place)
I0521 05:22:33.725133 27565 net.cpp:150] Setting up relu4
I0521 05:22:33.725157 27565 net.cpp:157] Top shape: 700 36 6 42 (6350400)
I0521 05:22:33.725169 27565 net.cpp:165] Memory required for data: 1089914000
I0521 05:22:33.725185 27565 layer_factory.hpp:77] Creating layer pool4
I0521 05:22:33.725209 27565 net.cpp:106] Creating Layer pool4
I0521 05:22:33.725222 27565 net.cpp:454] pool4 <- conv4
I0521 05:22:33.725239 27565 net.cpp:411] pool4 -> pool4
I0521 05:22:33.725320 27565 net.cpp:150] Setting up pool4
I0521 05:22:33.725343 27565 net.cpp:157] Top shape: 700 36 3 42 (3175200)
I0521 05:22:33.725358 27565 net.cpp:165] Memory required for data: 1102614800
I0521 05:22:33.725373 27565 layer_factory.hpp:77] Creating layer ip1
I0521 05:22:33.725399 27565 net.cpp:106] Creating Layer ip1
I0521 05:22:33.725414 27565 net.cpp:454] ip1 <- pool4
I0521 05:22:33.725430 27565 net.cpp:411] ip1 -> ip1
I0521 05:22:33.740901 27565 net.cpp:150] Setting up ip1
I0521 05:22:33.740936 27565 net.cpp:157] Top shape: 700 196 (137200)
I0521 05:22:33.740957 27565 net.cpp:165] Memory required for data: 1103163600
I0521 05:22:33.740983 27565 layer_factory.hpp:77] Creating layer relu5
I0521 05:22:33.741004 27565 net.cpp:106] Creating Layer relu5
I0521 05:22:33.741017 27565 net.cpp:454] relu5 <- ip1
I0521 05:22:33.741049 27565 net.cpp:397] relu5 -> ip1 (in-place)
I0521 05:22:33.741406 27565 net.cpp:150] Setting up relu5
I0521 05:22:33.741426 27565 net.cpp:157] Top shape: 700 196 (137200)
I0521 05:22:33.741439 27565 net.cpp:165] Memory required for data: 1103712400
I0521 05:22:33.741454 27565 layer_factory.hpp:77] Creating layer drop1
I0521 05:22:33.741484 27565 net.cpp:106] Creating Layer drop1
I0521 05:22:33.741499 27565 net.cpp:454] drop1 <- ip1
I0521 05:22:33.741528 27565 net.cpp:397] drop1 -> ip1 (in-place)
I0521 05:22:33.741586 27565 net.cpp:150] Setting up drop1
I0521 05:22:33.741611 27565 net.cpp:157] Top shape: 700 196 (137200)
I0521 05:22:33.741626 27565 net.cpp:165] Memory required for data: 1104261200
I0521 05:22:33.741638 27565 layer_factory.hpp:77] Creating layer ip2
I0521 05:22:33.741662 27565 net.cpp:106] Creating Layer ip2
I0521 05:22:33.741683 27565 net.cpp:454] ip2 <- ip1
I0521 05:22:33.741699 27565 net.cpp:411] ip2 -> ip2
I0521 05:22:33.742184 27565 net.cpp:150] Setting up ip2
I0521 05:22:33.742203 27565 net.cpp:157] Top shape: 700 98 (68600)
I0521 05:22:33.742216 27565 net.cpp:165] Memory required for data: 1104535600
I0521 05:22:33.742236 27565 layer_factory.hpp:77] Creating layer relu6
I0521 05:22:33.742251 27565 net.cpp:106] Creating Layer relu6
I0521 05:22:33.742271 27565 net.cpp:454] relu6 <- ip2
I0521 05:22:33.742287 27565 net.cpp:397] relu6 -> ip2 (in-place)
I0521 05:22:33.742832 27565 net.cpp:150] Setting up relu6
I0521 05:22:33.742856 27565 net.cpp:157] Top shape: 700 98 (68600)
I0521 05:22:33.742869 27565 net.cpp:165] Memory required for data: 1104810000
I0521 05:22:33.742885 27565 layer_factory.hpp:77] Creating layer drop2
I0521 05:22:33.742909 27565 net.cpp:106] Creating Layer drop2
I0521 05:22:33.742923 27565 net.cpp:454] drop2 <- ip2
I0521 05:22:33.742938 27565 net.cpp:397] drop2 -> ip2 (in-place)
I0521 05:22:33.742987 27565 net.cpp:150] Setting up drop2
I0521 05:22:33.743011 27565 net.cpp:157] Top shape: 700 98 (68600)
I0521 05:22:33.743024 27565 net.cpp:165] Memory required for data: 1105084400
I0521 05:22:33.743037 27565 layer_factory.hpp:77] Creating layer ip3
I0521 05:22:33.743053 27565 net.cpp:106] Creating Layer ip3
I0521 05:22:33.743068 27565 net.cpp:454] ip3 <- ip2
I0521 05:22:33.743083 27565 net.cpp:411] ip3 -> ip3
I0521 05:22:33.743315 27565 net.cpp:150] Setting up ip3
I0521 05:22:33.743335 27565 net.cpp:157] Top shape: 700 11 (7700)
I0521 05:22:33.743348 27565 net.cpp:165] Memory required for data: 1105115200
I0521 05:22:33.743368 27565 layer_factory.hpp:77] Creating layer drop3
I0521 05:22:33.743383 27565 net.cpp:106] Creating Layer drop3
I0521 05:22:33.743403 27565 net.cpp:454] drop3 <- ip3
I0521 05:22:33.743418 27565 net.cpp:397] drop3 -> ip3 (in-place)
I0521 05:22:33.743464 27565 net.cpp:150] Setting up drop3
I0521 05:22:33.743487 27565 net.cpp:157] Top shape: 700 11 (7700)
I0521 05:22:33.743500 27565 net.cpp:165] Memory required for data: 1105146000
I0521 05:22:33.743518 27565 layer_factory.hpp:77] Creating layer loss
I0521 05:22:33.743541 27565 net.cpp:106] Creating Layer loss
I0521 05:22:33.743556 27565 net.cpp:454] loss <- ip3
I0521 05:22:33.743576 27565 net.cpp:454] loss <- label
I0521 05:22:33.743592 27565 net.cpp:411] loss -> loss
I0521 05:22:33.743612 27565 layer_factory.hpp:77] Creating layer loss
…
I0521 05:22:33.746377 27565 solver.cpp:181] Creating test net (#0) specified by net file: /lustre/atlas/proj-shared/hep105/caffe_titan/caffe_workflow/logs_batch_size_test/batch_size_700_2016-05-20T11.20.58.083202.prototxt
I0521 05:22:33.746455 27565 net.cpp:322] The NetState phase (1) differed from the phase (0) specified by a rule in layer data_hdf5
I0521 05:22:33.746835 27565 net.cpp:49] Initializing net from parameters: 
name: "caffe_test_127x50_x_unshifted"
state {
  phase: TEST
}
layer {
  name: "data_hdf5"
  type: "HDF5Data"
  top: "data"
  top: "label"
  include {
    phase: TEST
  }
  hdf5_data_param {
    source: "/lustre/atlas/proj-shared/hep105/caffe_titan/minosmatch_nukecczdefs_127x50_x_unshifted_me1Bmc.testlist"
    batch_size: 700
  }
}
layer {
  name: "conv1"
  type: "Convolution"
  bottom: "data"
  top: "conv1"
  convolution_param {
    num_output: 12
    pad: 0
    stride: 1
    weight_filler {
      type: "xavier"
    }
    bias_filler {
      type: "constant"
    }
    kernel_h: 8
    kernel_w: 3
  }
}
layer {
  name: "relu1"
  type: "ReLU"
  bottom: "conv1"
  top: "conv1"
}
layer {
  name: "pool1"
  type: "Pooling"
  bottom: "conv1"
  top: "pool1"
  pooling_param {
    pool: MAX
    kernel_h: 2
    kernel_w: 1
    stride_h: 2
    stride_w: 1
  }
}
layer {
  name: "conv2"
  type: "Convolution"
  bottom: "pool1"
  top: "conv2"
  convolution_param {
    num_output: 20
    pad: 0
    stride: 1
    weight_filler {
      type: "xavier"
    }
    bias_filler {
      type: "constant"
    }
    kernel_h: 7
    kernel_w: 3
  }
}
layer {
  name: "relu2"
  type: "ReLU"
  bottom: "conv2"
  top: "conv2"
}
layer {
  name: "pool2"
  type: "Pooling"
  bottom: "conv2"
  top: "pool2"
  pooling_param {
    pool: MAX
    kernel_h: 2
    kernel_w: 1
    stride_h: 2
    stride_w: 1
  }
}
layer {
  name: "conv3"
  type: "Convolution"
  bottom: "pool2"
  top: "conv3"
  convolution_param {
    num_output: 28
    pad: 0
    stride: 1
    weight_filler {
      type: "xavier"
    }
    bias_filler {
      type: "constant"
    }
    kernel_h: 6
    kernel_w: 3
  }
}
layer {
  name: "relu3"
  type: "ReLU"
  bottom: "conv3"
  top: "conv3"
}
layer {
  name: "pool3"
  type: "Pooling"
  bottom: "conv3"
  top: "pool3"
  pooling_param {
    pool: MAX
    kernel_h: 2
    kernel_w: 1
    stride_h: 2
    stride_w: 1
  }
}
layer {
  name: "conv4"
  type: "Convolution"
  bottom: "pool3"
  top: "conv4"
  convolution_param {
    num_output: 36
    pad: 0
    stride: 1
    weight_filler {
      type: "xavier"
    }
    bias_filler {
      type: "constant"
    }
    kernel_h: 6
    kernel_w: 3
  }
}
layer {
  name: "relu4"
  type: "ReLU"
  bottom: "conv4"
  top: "conv4"
}
layer {
  name: "pool4"
  type: "Pooling"
  bottom: "conv4"
  top: "pool4"
  pooling_param {
    pool: MAX
    kernel_h: 2
    kernel_w: 1
    stride_h: 2
    stride_w: 1
  }
}
layer {
  name: "ip1"
  type: "InnerProduct"
  bottom: "pool4"
  top: "ip1"
  inner_product_param {
    num_output: 196
    weight_filler {
      type: "xavier"
    }
    bias_filler {
      type: "constant"
    }
  }
}
layer {
  name: "relu5"
  type: "ReLU"
  bottom: "ip1"
  top: "ip1"
}
layer {
  name: "drop1"
  type: "Dropout"
  bottom: "ip1"
  top: "ip1"
  dropout_param {
    dropout_ratio: 0.5
  }
}
layer {
  name: "ip2"
  type: "InnerProduct"
  bottom: "ip1"
  top: "ip2"
  inner_product_param {
    num_output: 98
    weight_filler {
      type: "xavier"
    }
    bias_filler {
      type: "constant"
    }
  }
}
layer {
  name: "relu6"
  type: "ReLU"
  bottom: "ip2"
  top: "ip2"
}
layer {
  name: "drop2"
  type: "Dropout"
  bottom: "ip2"
  top: "ip2"
  dropout_param {
    dropout_ratio: 0.5
  }
}
layer {
  name: "ip3"
  type: "InnerProduct"
  bottom: "ip2"
  top: "ip3"
  inner_product_param {
    num_output: 11
    weight_filler {
      type: "xavier"
    }
    bias_filler {
      type: "constant"
    }
  }
}
layer {
  name: "drop3"
  type: "Dropout"
  bottom: "ip3"
  top: "ip3"
  dropout_param {
    dropout_ratio: 0.5
  }
}
layer {
  name: "accuracy"
  type: "Accuracy"
  bottom: "ip3"
  bottom: "label"
  top: "accuracy"
  include {
    phase: TEST
  }
}
layer {
  name: "loss"
  type: "SoftmaxWithLoss"
  bottom: "ip3"
  bottom: "label"
  top: "loss"
}
I0521 05:22:33.747056 27565 layer_factory.hpp:77] Creating layer data_hdf5
I0521 05:22:33.747076 27565 net.cpp:106] Creating Layer data_hdf5
I0521 05:22:33.747095 27565 net.cpp:411] data_hdf5 -> data
I0521 05:22:33.747115 27565 net.cpp:411] data_hdf5 -> label
I0521 05:22:33.747135 27565 hdf5_data_layer.cpp:79] Loading list of HDF5 filenames from: /lustre/atlas/proj-shared/hep105/caffe_titan/minosmatch_nukecczdefs_127x50_x_unshifted_me1Bmc.testlist
I0521 05:22:33.748266 27565 hdf5_data_layer.cpp:93] Number of HDF5 files: 3
I0521 05:22:55.062305 27565 net.cpp:150] Setting up data_hdf5
I0521 05:22:55.062475 27565 net.cpp:157] Top shape: 700 1 127 50 (4445000)
I0521 05:22:55.062494 27565 net.cpp:157] Top shape: 700 (700)
I0521 05:22:55.062507 27565 net.cpp:165] Memory required for data: 17782800
I0521 05:22:55.062523 27565 layer_factory.hpp:77] Creating layer label_data_hdf5_1_split
I0521 05:22:55.062557 27565 net.cpp:106] Creating Layer label_data_hdf5_1_split
I0521 05:22:55.062571 27565 net.cpp:454] label_data_hdf5_1_split <- label
I0521 05:22:55.062607 27565 net.cpp:411] label_data_hdf5_1_split -> label_data_hdf5_1_split_0
I0521 05:22:55.062629 27565 net.cpp:411] label_data_hdf5_1_split -> label_data_hdf5_1_split_1
I0521 05:22:55.062716 27565 net.cpp:150] Setting up label_data_hdf5_1_split
I0521 05:22:55.062733 27565 net.cpp:157] Top shape: 700 (700)
I0521 05:22:55.062748 27565 net.cpp:157] Top shape: 700 (700)
I0521 05:22:55.062772 27565 net.cpp:165] Memory required for data: 17788400
I0521 05:22:55.062783 27565 layer_factory.hpp:77] Creating layer conv1
I0521 05:22:55.062809 27565 net.cpp:106] Creating Layer conv1
I0521 05:22:55.062829 27565 net.cpp:454] conv1 <- data
I0521 05:22:55.062847 27565 net.cpp:411] conv1 -> conv1
I0521 05:22:55.064786 27565 net.cpp:150] Setting up conv1
I0521 05:22:55.064812 27565 net.cpp:157] Top shape: 700 12 120 48 (48384000)
I0521 05:22:55.064832 27565 net.cpp:165] Memory required for data: 211324400
I0521 05:22:55.064856 27565 layer_factory.hpp:77] Creating layer relu1
I0521 05:22:55.064877 27565 net.cpp:106] Creating Layer relu1
I0521 05:22:55.064898 27565 net.cpp:454] relu1 <- conv1
I0521 05:22:55.064914 27565 net.cpp:397] relu1 -> conv1 (in-place)
I0521 05:22:55.065430 27565 net.cpp:150] Setting up relu1
I0521 05:22:55.065454 27565 net.cpp:157] Top shape: 700 12 120 48 (48384000)
I0521 05:22:55.065467 27565 net.cpp:165] Memory required for data: 404860400
I0521 05:22:55.065479 27565 layer_factory.hpp:77] Creating layer pool1
I0521 05:22:55.065510 27565 net.cpp:106] Creating Layer pool1
I0521 05:22:55.065523 27565 net.cpp:454] pool1 <- conv1
I0521 05:22:55.065539 27565 net.cpp:411] pool1 -> pool1
I0521 05:22:55.065628 27565 net.cpp:150] Setting up pool1
I0521 05:22:55.065644 27565 net.cpp:157] Top shape: 700 12 60 48 (24192000)
I0521 05:22:55.065659 27565 net.cpp:165] Memory required for data: 501628400
I0521 05:22:55.065678 27565 layer_factory.hpp:77] Creating layer conv2
I0521 05:22:55.065699 27565 net.cpp:106] Creating Layer conv2
I0521 05:22:55.065712 27565 net.cpp:454] conv2 <- pool1
I0521 05:22:55.065728 27565 net.cpp:411] conv2 -> conv2
I0521 05:22:55.067672 27565 net.cpp:150] Setting up conv2
I0521 05:22:55.067695 27565 net.cpp:157] Top shape: 700 20 54 46 (34776000)
I0521 05:22:55.067716 27565 net.cpp:165] Memory required for data: 640732400
I0521 05:22:55.067737 27565 layer_factory.hpp:77] Creating layer relu2
I0521 05:22:55.067757 27565 net.cpp:106] Creating Layer relu2
I0521 05:22:55.067778 27565 net.cpp:454] relu2 <- conv2
I0521 05:22:55.067795 27565 net.cpp:397] relu2 -> conv2 (in-place)
I0521 05:22:55.068234 27565 net.cpp:150] Setting up relu2
I0521 05:22:55.068255 27565 net.cpp:157] Top shape: 700 20 54 46 (34776000)
I0521 05:22:55.068269 27565 net.cpp:165] Memory required for data: 779836400
I0521 05:22:55.068280 27565 layer_factory.hpp:77] Creating layer pool2
I0521 05:22:55.068300 27565 net.cpp:106] Creating Layer pool2
I0521 05:22:55.068320 27565 net.cpp:454] pool2 <- conv2
I0521 05:22:55.068339 27565 net.cpp:411] pool2 -> pool2
I0521 05:22:55.068428 27565 net.cpp:150] Setting up pool2
I0521 05:22:55.068450 27565 net.cpp:157] Top shape: 700 20 27 46 (17388000)
I0521 05:22:55.068462 27565 net.cpp:165] Memory required for data: 849388400
I0521 05:22:55.068477 27565 layer_factory.hpp:77] Creating layer conv3
I0521 05:22:55.068506 27565 net.cpp:106] Creating Layer conv3
I0521 05:22:55.068521 27565 net.cpp:454] conv3 <- pool2
I0521 05:22:55.068536 27565 net.cpp:411] conv3 -> conv3
I0521 05:22:55.070550 27565 net.cpp:150] Setting up conv3
I0521 05:22:55.070575 27565 net.cpp:157] Top shape: 700 28 22 44 (18972800)
I0521 05:22:55.070595 27565 net.cpp:165] Memory required for data: 925279600
I0521 05:22:55.070636 27565 layer_factory.hpp:77] Creating layer relu3
I0521 05:22:55.070652 27565 net.cpp:106] Creating Layer relu3
I0521 05:22:55.070673 27565 net.cpp:454] relu3 <- conv3
I0521 05:22:55.070689 27565 net.cpp:397] relu3 -> conv3 (in-place)
I0521 05:22:55.071192 27565 net.cpp:150] Setting up relu3
I0521 05:22:55.071214 27565 net.cpp:157] Top shape: 700 28 22 44 (18972800)
I0521 05:22:55.071228 27565 net.cpp:165] Memory required for data: 1001170800
I0521 05:22:55.071244 27565 layer_factory.hpp:77] Creating layer pool3
I0521 05:22:55.071259 27565 net.cpp:106] Creating Layer pool3
I0521 05:22:55.071280 27565 net.cpp:454] pool3 <- conv3
I0521 05:22:55.071296 27565 net.cpp:411] pool3 -> pool3
I0521 05:22:55.071382 27565 net.cpp:150] Setting up pool3
I0521 05:22:55.071400 27565 net.cpp:157] Top shape: 700 28 11 44 (9486400)
I0521 05:22:55.071415 27565 net.cpp:165] Memory required for data: 1039116400
I0521 05:22:55.071427 27565 layer_factory.hpp:77] Creating layer conv4
I0521 05:22:55.071455 27565 net.cpp:106] Creating Layer conv4
I0521 05:22:55.071467 27565 net.cpp:454] conv4 <- pool3
I0521 05:22:55.071485 27565 net.cpp:411] conv4 -> conv4
I0521 05:22:55.073580 27565 net.cpp:150] Setting up conv4
I0521 05:22:55.073603 27565 net.cpp:157] Top shape: 700 36 6 42 (6350400)
I0521 05:22:55.073623 27565 net.cpp:165] Memory required for data: 1064518000
I0521 05:22:55.073643 27565 layer_factory.hpp:77] Creating layer relu4
I0521 05:22:55.073662 27565 net.cpp:106] Creating Layer relu4
I0521 05:22:55.073674 27565 net.cpp:454] relu4 <- conv4
I0521 05:22:55.073701 27565 net.cpp:397] relu4 -> conv4 (in-place)
I0521 05:22:55.074190 27565 net.cpp:150] Setting up relu4
I0521 05:22:55.074213 27565 net.cpp:157] Top shape: 700 36 6 42 (6350400)
I0521 05:22:55.074226 27565 net.cpp:165] Memory required for data: 1089919600
I0521 05:22:55.074242 27565 layer_factory.hpp:77] Creating layer pool4
I0521 05:22:55.074265 27565 net.cpp:106] Creating Layer pool4
I0521 05:22:55.074280 27565 net.cpp:454] pool4 <- conv4
I0521 05:22:55.074295 27565 net.cpp:411] pool4 -> pool4
I0521 05:22:55.074381 27565 net.cpp:150] Setting up pool4
I0521 05:22:55.074400 27565 net.cpp:157] Top shape: 700 36 3 42 (3175200)
I0521 05:22:55.074415 27565 net.cpp:165] Memory required for data: 1102620400
I0521 05:22:55.074427 27565 layer_factory.hpp:77] Creating layer ip1
I0521 05:22:55.074452 27565 net.cpp:106] Creating Layer ip1
I0521 05:22:55.074465 27565 net.cpp:454] ip1 <- pool4
I0521 05:22:55.074488 27565 net.cpp:411] ip1 -> ip1
I0521 05:22:55.090011 27565 net.cpp:150] Setting up ip1
I0521 05:22:55.090044 27565 net.cpp:157] Top shape: 700 196 (137200)
I0521 05:22:55.090065 27565 net.cpp:165] Memory required for data: 1103169200
I0521 05:22:55.090092 27565 layer_factory.hpp:77] Creating layer relu5
I0521 05:22:55.090114 27565 net.cpp:106] Creating Layer relu5
I0521 05:22:55.090138 27565 net.cpp:454] relu5 <- ip1
I0521 05:22:55.090157 27565 net.cpp:397] relu5 -> ip1 (in-place)
I0521 05:22:55.090520 27565 net.cpp:150] Setting up relu5
I0521 05:22:55.090540 27565 net.cpp:157] Top shape: 700 196 (137200)
I0521 05:22:55.090553 27565 net.cpp:165] Memory required for data: 1103718000
I0521 05:22:55.090569 27565 layer_factory.hpp:77] Creating layer drop1
I0521 05:22:55.090598 27565 net.cpp:106] Creating Layer drop1
I0521 05:22:55.090613 27565 net.cpp:454] drop1 <- ip1
I0521 05:22:55.090629 27565 net.cpp:397] drop1 -> ip1 (in-place)
I0521 05:22:55.090687 27565 net.cpp:150] Setting up drop1
I0521 05:22:55.090704 27565 net.cpp:157] Top shape: 700 196 (137200)
I0521 05:22:55.090718 27565 net.cpp:165] Memory required for data: 1104266800
I0521 05:22:55.090730 27565 layer_factory.hpp:77] Creating layer ip2
I0521 05:22:55.090750 27565 net.cpp:106] Creating Layer ip2
I0521 05:22:55.090762 27565 net.cpp:454] ip2 <- ip1
I0521 05:22:55.090786 27565 net.cpp:411] ip2 -> ip2
I0521 05:22:55.091282 27565 net.cpp:150] Setting up ip2
I0521 05:22:55.091302 27565 net.cpp:157] Top shape: 700 98 (68600)
I0521 05:22:55.091315 27565 net.cpp:165] Memory required for data: 1104541200
I0521 05:22:55.091353 27565 layer_factory.hpp:77] Creating layer relu6
I0521 05:22:55.091370 27565 net.cpp:106] Creating Layer relu6
I0521 05:22:55.091383 27565 net.cpp:454] relu6 <- ip2
I0521 05:22:55.091399 27565 net.cpp:397] relu6 -> ip2 (in-place)
I0521 05:22:55.091963 27565 net.cpp:150] Setting up relu6
I0521 05:22:55.091985 27565 net.cpp:157] Top shape: 700 98 (68600)
I0521 05:22:55.091998 27565 net.cpp:165] Memory required for data: 1104815600
I0521 05:22:55.092011 27565 layer_factory.hpp:77] Creating layer drop2
I0521 05:22:55.092031 27565 net.cpp:106] Creating Layer drop2
I0521 05:22:55.092052 27565 net.cpp:454] drop2 <- ip2
I0521 05:22:55.092069 27565 net.cpp:397] drop2 -> ip2 (in-place)
I0521 05:22:55.092123 27565 net.cpp:150] Setting up drop2
I0521 05:22:55.092145 27565 net.cpp:157] Top shape: 700 98 (68600)
I0521 05:22:55.092159 27565 net.cpp:165] Memory required for data: 1105090000
I0521 05:22:55.092170 27565 layer_factory.hpp:77] Creating layer ip3
I0521 05:22:55.092187 27565 net.cpp:106] Creating Layer ip3
I0521 05:22:55.092202 27565 net.cpp:454] ip3 <- ip2
I0521 05:22:55.092226 27565 net.cpp:411] ip3 -> ip3
I0521 05:22:55.092463 27565 net.cpp:150] Setting up ip3
I0521 05:22:55.092481 27565 net.cpp:157] Top shape: 700 11 (7700)
I0521 05:22:55.092494 27565 net.cpp:165] Memory required for data: 1105120800
I0521 05:22:55.092515 27565 layer_factory.hpp:77] Creating layer drop3
I0521 05:22:55.092537 27565 net.cpp:106] Creating Layer drop3
I0521 05:22:55.092551 27565 net.cpp:454] drop3 <- ip3
I0521 05:22:55.092566 27565 net.cpp:397] drop3 -> ip3 (in-place)
I0521 05:22:55.092615 27565 net.cpp:150] Setting up drop3
I0521 05:22:55.092638 27565 net.cpp:157] Top shape: 700 11 (7700)
I0521 05:22:55.092651 27565 net.cpp:165] Memory required for data: 1105151600
I0521 05:22:55.092664 27565 layer_factory.hpp:77] Creating layer ip3_drop3_0_split
I0521 05:22:55.092680 27565 net.cpp:106] Creating Layer ip3_drop3_0_split
I0521 05:22:55.092695 27565 net.cpp:454] ip3_drop3_0_split <- ip3
I0521 05:22:55.092710 27565 net.cpp:411] ip3_drop3_0_split -> ip3_drop3_0_split_0
I0521 05:22:55.092736 27565 net.cpp:411] ip3_drop3_0_split -> ip3_drop3_0_split_1
I0521 05:22:55.092828 27565 net.cpp:150] Setting up ip3_drop3_0_split
I0521 05:22:55.092844 27565 net.cpp:157] Top shape: 700 11 (7700)
I0521 05:22:55.092860 27565 net.cpp:157] Top shape: 700 11 (7700)
I0521 05:22:55.092874 27565 net.cpp:165] Memory required for data: 1105213200
I0521 05:22:55.092887 27565 layer_factory.hpp:77] Creating layer accuracy
I0521 05:22:55.092911 27565 net.cpp:106] Creating Layer accuracy
I0521 05:22:55.092923 27565 net.cpp:454] accuracy <- ip3_drop3_0_split_0
I0521 05:22:55.092943 27565 net.cpp:454] accuracy <- label_data_hdf5_1_split_0
I0521 05:22:55.092960 27565 net.cpp:411] accuracy -> accuracy
…
