…
I0521 01:42:28.800259  7546 net.cpp:322] The NetState phase (0) differed from the phase (1) specified by a rule in layer data_hdf5
I0521 01:42:28.800318  7546 net.cpp:322] The NetState phase (0) differed from the phase (1) specified by a rule in layer accuracy
I0521 01:42:28.800659  7546 net.cpp:49] Initializing net from parameters: 
name: "caffe_test_127x50_x_unshifted"
state {
  phase: TRAIN
}
layer {
  name: "data_hdf5"
  type: "HDF5Data"
  top: "data"
  top: "label"
  include {
    phase: TRAIN
  }
  hdf5_data_param {
    source: "/lustre/atlas/proj-shared/hep105/caffe_titan/minosmatch_nukecczdefs_127x50_x_unshifted_me1Bmc.trainlist"
    batch_size: 530
  }
}
layer {
  name: "conv1"
  type: "Convolution"
  bottom: "data"
  top: "conv1"
  convolution_param {
    num_output: 12
    pad: 0
    stride: 1
    weight_filler {
      type: "xavier"
    }
    bias_filler {
      type: "constant"
    }
    kernel_h: 8
    kernel_w: 3
  }
}
layer {
  name: "relu1"
  type: "ReLU"
  bottom: "conv1"
  top: "conv1"
}
layer {
  name: "pool1"
  type: "Pooling"
  bottom: "conv1"
  top: "pool1"
  pooling_param {
    pool: MAX
    kernel_h: 2
    kernel_w: 1
    stride_h: 2
    stride_w: 1
  }
}
layer {
  name: "conv2"
  type: "Convolution"
  bottom: "pool1"
  top: "conv2"
  convolution_param {
    num_output: 20
    pad: 0
    stride: 1
    weight_filler {
      type: "xavier"
    }
    bias_filler {
      type: "constant"
    }
    kernel_h: 7
    kernel_w: 3
  }
}
layer {
  name: "relu2"
  type: "ReLU"
  bottom: "conv2"
  top: "conv2"
}
layer {
  name: "pool2"
  type: "Pooling"
  bottom: "conv2"
  top: "pool2"
  pooling_param {
    pool: MAX
    kernel_h: 2
    kernel_w: 1
    stride_h: 2
    stride_w: 1
  }
}
layer {
  name: "conv3"
  type: "Convolution"
  bottom: "pool2"
  top: "conv3"
  convolution_param {
    num_output: 28
    pad: 0
    stride: 1
    weight_filler {
      type: "xavier"
    }
    bias_filler {
      type: "constant"
    }
    kernel_h: 6
    kernel_w: 3
  }
}
layer {
  name: "relu3"
  type: "ReLU"
  bottom: "conv3"
  top: "conv3"
}
layer {
  name: "pool3"
  type: "Pooling"
  bottom: "conv3"
  top: "pool3"
  pooling_param {
    pool: MAX
    kernel_h: 2
    kernel_w: 1
    stride_h: 2
    stride_w: 1
  }
}
layer {
  name: "conv4"
  type: "Convolution"
  bottom: "pool3"
  top: "conv4"
  convolution_param {
    num_output: 36
    pad: 0
    stride: 1
    weight_filler {
      type: "xavier"
    }
    bias_filler {
      type: "constant"
    }
    kernel_h: 6
    kernel_w: 3
  }
}
layer {
  name: "relu4"
  type: "ReLU"
  bottom: "conv4"
  top: "conv4"
}
layer {
  name: "pool4"
  type: "Pooling"
  bottom: "conv4"
  top: "pool4"
  pooling_param {
    pool: MAX
    kernel_h: 2
    kernel_w: 1
    stride_h: 2
    stride_w: 1
  }
}
layer {
  name: "ip1"
  type: "InnerProduct"
  bottom: "pool4"
  top: "ip1"
  inner_product_param {
    num_output: 196
    weight_filler {
      type: "xavier"
    }
    bias_filler {
      type: "constant"
    }
  }
}
layer {
  name: "relu5"
  type: "ReLU"
  bottom: "ip1"
  top: "ip1"
}
layer {
  name: "drop1"
  type: "Dropout"
  bottom: "ip1"
  top: "ip1"
  dropout_param {
    dropout_ratio: 0.5
  }
}
layer {
  name: "ip2"
  type: "InnerProduct"
  bottom: "ip1"
  top: "ip2"
  inner_product_param {
    num_output: 98
    weight_filler {
      type: "xavier"
    }
    bias_filler {
      type: "constant"
    }
  }
}
layer {
  name: "relu6"
  type: "ReLU"
  bottom: "ip2"
  top: "ip2"
}
layer {
  name: "drop2"
  type: "Dropout"
  bottom: "ip2"
  top: "ip2"
  dropout_param {
    dropout_ratio: 0.5
  }
}
layer {
  name: "ip3"
  type: "InnerProduct"
  bottom: "ip2"
  top: "ip3"
  inner_product_param {
    num_output: 11
    weight_filler {
      type: "xavier"
    }
    bias_filler {
      type: "constant"
    }
  }
}
layer {
  name: "drop3"
  type: "Dropout"
  bottom: "ip3"
  top: "ip3"
  dropout_param {
    dropout_ratio: 0.5
  }
}
layer {
  name: "loss"
  type: "SoftmaxWithLoss"
  bottom: "ip3"
  bottom: "label"
  top: "loss"
}
I0521 01:42:28.800835  7546 layer_factory.hpp:77] Creating layer data_hdf5
I0521 01:42:28.800859  7546 net.cpp:106] Creating Layer data_hdf5
I0521 01:42:28.800874  7546 net.cpp:411] data_hdf5 -> data
I0521 01:42:28.800907  7546 net.cpp:411] data_hdf5 -> label
I0521 01:42:28.800940  7546 hdf5_data_layer.cpp:79] Loading list of HDF5 filenames from: /lustre/atlas/proj-shared/hep105/caffe_titan/minosmatch_nukecczdefs_127x50_x_unshifted_me1Bmc.trainlist
I0521 01:42:28.805018  7546 hdf5_data_layer.cpp:93] Number of HDF5 files: 15
I0521 01:42:28.807258  7546 hdf5.cpp:32] Datatype class: H5T_FLOAT
I0521 01:42:50.395395  7546 hdf5.cpp:35] Datatype class: H5T_INTEGER
I0521 01:42:50.400646  7546 net.cpp:150] Setting up data_hdf5
I0521 01:42:50.400686  7546 net.cpp:157] Top shape: 530 1 127 50 (3365500)
I0521 01:42:50.400701  7546 net.cpp:157] Top shape: 530 (530)
I0521 01:42:50.400713  7546 net.cpp:165] Memory required for data: 13464120
I0521 01:42:50.400727  7546 layer_factory.hpp:77] Creating layer conv1
I0521 01:42:50.400761  7546 net.cpp:106] Creating Layer conv1
I0521 01:42:50.400773  7546 net.cpp:454] conv1 <- data
I0521 01:42:50.400795  7546 net.cpp:411] conv1 -> conv1
I0521 01:42:50.930605  7546 net.cpp:150] Setting up conv1
I0521 01:42:50.930652  7546 net.cpp:157] Top shape: 530 12 120 48 (36633600)
I0521 01:42:50.930665  7546 net.cpp:165] Memory required for data: 159998520
I0521 01:42:50.930692  7546 layer_factory.hpp:77] Creating layer relu1
I0521 01:42:50.930714  7546 net.cpp:106] Creating Layer relu1
I0521 01:42:50.930726  7546 net.cpp:454] relu1 <- conv1
I0521 01:42:50.930738  7546 net.cpp:397] relu1 -> conv1 (in-place)
I0521 01:42:50.931253  7546 net.cpp:150] Setting up relu1
I0521 01:42:50.931270  7546 net.cpp:157] Top shape: 530 12 120 48 (36633600)
I0521 01:42:50.931282  7546 net.cpp:165] Memory required for data: 306532920
I0521 01:42:50.931291  7546 layer_factory.hpp:77] Creating layer pool1
I0521 01:42:50.931309  7546 net.cpp:106] Creating Layer pool1
I0521 01:42:50.931319  7546 net.cpp:454] pool1 <- conv1
I0521 01:42:50.931332  7546 net.cpp:411] pool1 -> pool1
I0521 01:42:50.931413  7546 net.cpp:150] Setting up pool1
I0521 01:42:50.931427  7546 net.cpp:157] Top shape: 530 12 60 48 (18316800)
I0521 01:42:50.931437  7546 net.cpp:165] Memory required for data: 379800120
I0521 01:42:50.931448  7546 layer_factory.hpp:77] Creating layer conv2
I0521 01:42:50.931470  7546 net.cpp:106] Creating Layer conv2
I0521 01:42:50.931481  7546 net.cpp:454] conv2 <- pool1
I0521 01:42:50.931495  7546 net.cpp:411] conv2 -> conv2
I0521 01:42:50.934188  7546 net.cpp:150] Setting up conv2
I0521 01:42:50.934211  7546 net.cpp:157] Top shape: 530 20 54 46 (26330400)
I0521 01:42:50.934228  7546 net.cpp:165] Memory required for data: 485121720
I0521 01:42:50.934247  7546 layer_factory.hpp:77] Creating layer relu2
I0521 01:42:50.934262  7546 net.cpp:106] Creating Layer relu2
I0521 01:42:50.934272  7546 net.cpp:454] relu2 <- conv2
I0521 01:42:50.934284  7546 net.cpp:397] relu2 -> conv2 (in-place)
I0521 01:42:50.934615  7546 net.cpp:150] Setting up relu2
I0521 01:42:50.934629  7546 net.cpp:157] Top shape: 530 20 54 46 (26330400)
I0521 01:42:50.934639  7546 net.cpp:165] Memory required for data: 590443320
I0521 01:42:50.934649  7546 layer_factory.hpp:77] Creating layer pool2
I0521 01:42:50.934662  7546 net.cpp:106] Creating Layer pool2
I0521 01:42:50.934672  7546 net.cpp:454] pool2 <- conv2
I0521 01:42:50.934696  7546 net.cpp:411] pool2 -> pool2
I0521 01:42:50.934765  7546 net.cpp:150] Setting up pool2
I0521 01:42:50.934779  7546 net.cpp:157] Top shape: 530 20 27 46 (13165200)
I0521 01:42:50.934789  7546 net.cpp:165] Memory required for data: 643104120
I0521 01:42:50.934798  7546 layer_factory.hpp:77] Creating layer conv3
I0521 01:42:50.934818  7546 net.cpp:106] Creating Layer conv3
I0521 01:42:50.934828  7546 net.cpp:454] conv3 <- pool2
I0521 01:42:50.934842  7546 net.cpp:411] conv3 -> conv3
I0521 01:42:50.936755  7546 net.cpp:150] Setting up conv3
I0521 01:42:50.936779  7546 net.cpp:157] Top shape: 530 28 22 44 (14365120)
I0521 01:42:50.936791  7546 net.cpp:165] Memory required for data: 700564600
I0521 01:42:50.936810  7546 layer_factory.hpp:77] Creating layer relu3
I0521 01:42:50.936825  7546 net.cpp:106] Creating Layer relu3
I0521 01:42:50.936835  7546 net.cpp:454] relu3 <- conv3
I0521 01:42:50.936847  7546 net.cpp:397] relu3 -> conv3 (in-place)
I0521 01:42:50.937314  7546 net.cpp:150] Setting up relu3
I0521 01:42:50.937331  7546 net.cpp:157] Top shape: 530 28 22 44 (14365120)
I0521 01:42:50.937341  7546 net.cpp:165] Memory required for data: 758025080
I0521 01:42:50.937351  7546 layer_factory.hpp:77] Creating layer pool3
I0521 01:42:50.937364  7546 net.cpp:106] Creating Layer pool3
I0521 01:42:50.937373  7546 net.cpp:454] pool3 <- conv3
I0521 01:42:50.937386  7546 net.cpp:411] pool3 -> pool3
I0521 01:42:50.937453  7546 net.cpp:150] Setting up pool3
I0521 01:42:50.937466  7546 net.cpp:157] Top shape: 530 28 11 44 (7182560)
I0521 01:42:50.937476  7546 net.cpp:165] Memory required for data: 786755320
I0521 01:42:50.937486  7546 layer_factory.hpp:77] Creating layer conv4
I0521 01:42:50.937500  7546 net.cpp:106] Creating Layer conv4
I0521 01:42:50.937511  7546 net.cpp:454] conv4 <- pool3
I0521 01:42:50.937525  7546 net.cpp:411] conv4 -> conv4
I0521 01:42:50.940366  7546 net.cpp:150] Setting up conv4
I0521 01:42:50.940394  7546 net.cpp:157] Top shape: 530 36 6 42 (4808160)
I0521 01:42:50.940405  7546 net.cpp:165] Memory required for data: 805987960
I0521 01:42:50.940421  7546 layer_factory.hpp:77] Creating layer relu4
I0521 01:42:50.940435  7546 net.cpp:106] Creating Layer relu4
I0521 01:42:50.940446  7546 net.cpp:454] relu4 <- conv4
I0521 01:42:50.940459  7546 net.cpp:397] relu4 -> conv4 (in-place)
I0521 01:42:50.940933  7546 net.cpp:150] Setting up relu4
I0521 01:42:50.940950  7546 net.cpp:157] Top shape: 530 36 6 42 (4808160)
I0521 01:42:50.940960  7546 net.cpp:165] Memory required for data: 825220600
I0521 01:42:50.940970  7546 layer_factory.hpp:77] Creating layer pool4
I0521 01:42:50.940984  7546 net.cpp:106] Creating Layer pool4
I0521 01:42:50.940994  7546 net.cpp:454] pool4 <- conv4
I0521 01:42:50.941006  7546 net.cpp:411] pool4 -> pool4
I0521 01:42:50.941074  7546 net.cpp:150] Setting up pool4
I0521 01:42:50.941088  7546 net.cpp:157] Top shape: 530 36 3 42 (2404080)
I0521 01:42:50.941098  7546 net.cpp:165] Memory required for data: 834836920
I0521 01:42:50.941108  7546 layer_factory.hpp:77] Creating layer ip1
I0521 01:42:50.941126  7546 net.cpp:106] Creating Layer ip1
I0521 01:42:50.941136  7546 net.cpp:454] ip1 <- pool4
I0521 01:42:50.941149  7546 net.cpp:411] ip1 -> ip1
I0521 01:42:50.956616  7546 net.cpp:150] Setting up ip1
I0521 01:42:50.956645  7546 net.cpp:157] Top shape: 530 196 (103880)
I0521 01:42:50.956657  7546 net.cpp:165] Memory required for data: 835252440
I0521 01:42:50.956679  7546 layer_factory.hpp:77] Creating layer relu5
I0521 01:42:50.956694  7546 net.cpp:106] Creating Layer relu5
I0521 01:42:50.956704  7546 net.cpp:454] relu5 <- ip1
I0521 01:42:50.956717  7546 net.cpp:397] relu5 -> ip1 (in-place)
I0521 01:42:50.957059  7546 net.cpp:150] Setting up relu5
I0521 01:42:50.957074  7546 net.cpp:157] Top shape: 530 196 (103880)
I0521 01:42:50.957084  7546 net.cpp:165] Memory required for data: 835667960
I0521 01:42:50.957095  7546 layer_factory.hpp:77] Creating layer drop1
I0521 01:42:50.957116  7546 net.cpp:106] Creating Layer drop1
I0521 01:42:50.957126  7546 net.cpp:454] drop1 <- ip1
I0521 01:42:50.957150  7546 net.cpp:397] drop1 -> ip1 (in-place)
I0521 01:42:50.957197  7546 net.cpp:150] Setting up drop1
I0521 01:42:50.957211  7546 net.cpp:157] Top shape: 530 196 (103880)
I0521 01:42:50.957221  7546 net.cpp:165] Memory required for data: 836083480
I0521 01:42:50.957231  7546 layer_factory.hpp:77] Creating layer ip2
I0521 01:42:50.957248  7546 net.cpp:106] Creating Layer ip2
I0521 01:42:50.957258  7546 net.cpp:454] ip2 <- ip1
I0521 01:42:50.957272  7546 net.cpp:411] ip2 -> ip2
I0521 01:42:50.957742  7546 net.cpp:150] Setting up ip2
I0521 01:42:50.957756  7546 net.cpp:157] Top shape: 530 98 (51940)
I0521 01:42:50.957765  7546 net.cpp:165] Memory required for data: 836291240
I0521 01:42:50.957780  7546 layer_factory.hpp:77] Creating layer relu6
I0521 01:42:50.957793  7546 net.cpp:106] Creating Layer relu6
I0521 01:42:50.957803  7546 net.cpp:454] relu6 <- ip2
I0521 01:42:50.957813  7546 net.cpp:397] relu6 -> ip2 (in-place)
I0521 01:42:50.958333  7546 net.cpp:150] Setting up relu6
I0521 01:42:50.958349  7546 net.cpp:157] Top shape: 530 98 (51940)
I0521 01:42:50.958360  7546 net.cpp:165] Memory required for data: 836499000
I0521 01:42:50.958369  7546 layer_factory.hpp:77] Creating layer drop2
I0521 01:42:50.958382  7546 net.cpp:106] Creating Layer drop2
I0521 01:42:50.958392  7546 net.cpp:454] drop2 <- ip2
I0521 01:42:50.958405  7546 net.cpp:397] drop2 -> ip2 (in-place)
I0521 01:42:50.958447  7546 net.cpp:150] Setting up drop2
I0521 01:42:50.958461  7546 net.cpp:157] Top shape: 530 98 (51940)
I0521 01:42:50.958470  7546 net.cpp:165] Memory required for data: 836706760
I0521 01:42:50.958480  7546 layer_factory.hpp:77] Creating layer ip3
I0521 01:42:50.958493  7546 net.cpp:106] Creating Layer ip3
I0521 01:42:50.958503  7546 net.cpp:454] ip3 <- ip2
I0521 01:42:50.958515  7546 net.cpp:411] ip3 -> ip3
I0521 01:42:50.958724  7546 net.cpp:150] Setting up ip3
I0521 01:42:50.958737  7546 net.cpp:157] Top shape: 530 11 (5830)
I0521 01:42:50.958746  7546 net.cpp:165] Memory required for data: 836730080
I0521 01:42:50.958761  7546 layer_factory.hpp:77] Creating layer drop3
I0521 01:42:50.958775  7546 net.cpp:106] Creating Layer drop3
I0521 01:42:50.958783  7546 net.cpp:454] drop3 <- ip3
I0521 01:42:50.958796  7546 net.cpp:397] drop3 -> ip3 (in-place)
I0521 01:42:50.958833  7546 net.cpp:150] Setting up drop3
I0521 01:42:50.958847  7546 net.cpp:157] Top shape: 530 11 (5830)
I0521 01:42:50.958856  7546 net.cpp:165] Memory required for data: 836753400
I0521 01:42:50.958865  7546 layer_factory.hpp:77] Creating layer loss
I0521 01:42:50.958884  7546 net.cpp:106] Creating Layer loss
I0521 01:42:50.958894  7546 net.cpp:454] loss <- ip3
I0521 01:42:50.958904  7546 net.cpp:454] loss <- label
I0521 01:42:50.958916  7546 net.cpp:411] loss -> loss
I0521 01:42:50.958933  7546 layer_factory.hpp:77] Creating layer loss
…
I0521 01:42:50.961462  7546 solver.cpp:181] Creating test net (#0) specified by net file: /lustre/atlas/proj-shared/hep105/caffe_titan/caffe_workflow/logs_batch_size_test/batch_size_530_2016-05-20T11.20.51.849129.prototxt
I0521 01:42:50.961534  7546 net.cpp:322] The NetState phase (1) differed from the phase (0) specified by a rule in layer data_hdf5
I0521 01:42:50.961905  7546 net.cpp:49] Initializing net from parameters: 
name: "caffe_test_127x50_x_unshifted"
state {
  phase: TEST
}
layer {
  name: "data_hdf5"
  type: "HDF5Data"
  top: "data"
  top: "label"
  include {
    phase: TEST
  }
  hdf5_data_param {
    source: "/lustre/atlas/proj-shared/hep105/caffe_titan/minosmatch_nukecczdefs_127x50_x_unshifted_me1Bmc.testlist"
    batch_size: 530
  }
}
layer {
  name: "conv1"
  type: "Convolution"
  bottom: "data"
  top: "conv1"
  convolution_param {
    num_output: 12
    pad: 0
    stride: 1
    weight_filler {
      type: "xavier"
    }
    bias_filler {
      type: "constant"
    }
    kernel_h: 8
    kernel_w: 3
  }
}
layer {
  name: "relu1"
  type: "ReLU"
  bottom: "conv1"
  top: "conv1"
}
layer {
  name: "pool1"
  type: "Pooling"
  bottom: "conv1"
  top: "pool1"
  pooling_param {
    pool: MAX
    kernel_h: 2
    kernel_w: 1
    stride_h: 2
    stride_w: 1
  }
}
layer {
  name: "conv2"
  type: "Convolution"
  bottom: "pool1"
  top: "conv2"
  convolution_param {
    num_output: 20
    pad: 0
    stride: 1
    weight_filler {
      type: "xavier"
    }
    bias_filler {
      type: "constant"
    }
    kernel_h: 7
    kernel_w: 3
  }
}
layer {
  name: "relu2"
  type: "ReLU"
  bottom: "conv2"
  top: "conv2"
}
layer {
  name: "pool2"
  type: "Pooling"
  bottom: "conv2"
  top: "pool2"
  pooling_param {
    pool: MAX
    kernel_h: 2
    kernel_w: 1
    stride_h: 2
    stride_w: 1
  }
}
layer {
  name: "conv3"
  type: "Convolution"
  bottom: "pool2"
  top: "conv3"
  convolution_param {
    num_output: 28
    pad: 0
    stride: 1
    weight_filler {
      type: "xavier"
    }
    bias_filler {
      type: "constant"
    }
    kernel_h: 6
    kernel_w: 3
  }
}
layer {
  name: "relu3"
  type: "ReLU"
  bottom: "conv3"
  top: "conv3"
}
layer {
  name: "pool3"
  type: "Pooling"
  bottom: "conv3"
  top: "pool3"
  pooling_param {
    pool: MAX
    kernel_h: 2
    kernel_w: 1
    stride_h: 2
    stride_w: 1
  }
}
layer {
  name: "conv4"
  type: "Convolution"
  bottom: "pool3"
  top: "conv4"
  convolution_param {
    num_output: 36
    pad: 0
    stride: 1
    weight_filler {
      type: "xavier"
    }
    bias_filler {
      type: "constant"
    }
    kernel_h: 6
    kernel_w: 3
  }
}
layer {
  name: "relu4"
  type: "ReLU"
  bottom: "conv4"
  top: "conv4"
}
layer {
  name: "pool4"
  type: "Pooling"
  bottom: "conv4"
  top: "pool4"
  pooling_param {
    pool: MAX
    kernel_h: 2
    kernel_w: 1
    stride_h: 2
    stride_w: 1
  }
}
layer {
  name: "ip1"
  type: "InnerProduct"
  bottom: "pool4"
  top: "ip1"
  inner_product_param {
    num_output: 196
    weight_filler {
      type: "xavier"
    }
    bias_filler {
      type: "constant"
    }
  }
}
layer {
  name: "relu5"
  type: "ReLU"
  bottom: "ip1"
  top: "ip1"
}
layer {
  name: "drop1"
  type: "Dropout"
  bottom: "ip1"
  top: "ip1"
  dropout_param {
    dropout_ratio: 0.5
  }
}
layer {
  name: "ip2"
  type: "InnerProduct"
  bottom: "ip1"
  top: "ip2"
  inner_product_param {
    num_output: 98
    weight_filler {
      type: "xavier"
    }
    bias_filler {
      type: "constant"
    }
  }
}
layer {
  name: "relu6"
  type: "ReLU"
  bottom: "ip2"
  top: "ip2"
}
layer {
  name: "drop2"
  type: "Dropout"
  bottom: "ip2"
  top: "ip2"
  dropout_param {
    dropout_ratio: 0.5
  }
}
layer {
  name: "ip3"
  type: "InnerProduct"
  bottom: "ip2"
  top: "ip3"
  inner_product_param {
    num_output: 11
    weight_filler {
      type: "xavier"
    }
    bias_filler {
      type: "constant"
    }
  }
}
layer {
  name: "drop3"
  type: "Dropout"
  bottom: "ip3"
  top: "ip3"
  dropout_param {
    dropout_ratio: 0.5
  }
}
layer {
  name: "accuracy"
  type: "Accuracy"
  bottom: "ip3"
  bottom: "label"
  top: "accuracy"
  include {
    phase: TEST
  }
}
layer {
  name: "loss"
  type: "SoftmaxWithLoss"
  bottom: "ip3"
  bottom: "label"
  top: "loss"
}
I0521 01:42:50.962095  7546 layer_factory.hpp:77] Creating layer data_hdf5
I0521 01:42:50.962110  7546 net.cpp:106] Creating Layer data_hdf5
I0521 01:42:50.962123  7546 net.cpp:411] data_hdf5 -> data
I0521 01:42:50.962139  7546 net.cpp:411] data_hdf5 -> label
I0521 01:42:50.962155  7546 hdf5_data_layer.cpp:79] Loading list of HDF5 filenames from: /lustre/atlas/proj-shared/hep105/caffe_titan/minosmatch_nukecczdefs_127x50_x_unshifted_me1Bmc.testlist
I0521 01:42:50.985630  7546 hdf5_data_layer.cpp:93] Number of HDF5 files: 3
I0521 01:43:12.304528  7546 net.cpp:150] Setting up data_hdf5
I0521 01:43:12.304692  7546 net.cpp:157] Top shape: 530 1 127 50 (3365500)
I0521 01:43:12.304708  7546 net.cpp:157] Top shape: 530 (530)
I0521 01:43:12.304719  7546 net.cpp:165] Memory required for data: 13464120
I0521 01:43:12.304733  7546 layer_factory.hpp:77] Creating layer label_data_hdf5_1_split
I0521 01:43:12.304761  7546 net.cpp:106] Creating Layer label_data_hdf5_1_split
I0521 01:43:12.304772  7546 net.cpp:454] label_data_hdf5_1_split <- label
I0521 01:43:12.304787  7546 net.cpp:411] label_data_hdf5_1_split -> label_data_hdf5_1_split_0
I0521 01:43:12.304808  7546 net.cpp:411] label_data_hdf5_1_split -> label_data_hdf5_1_split_1
I0521 01:43:12.304882  7546 net.cpp:150] Setting up label_data_hdf5_1_split
I0521 01:43:12.304895  7546 net.cpp:157] Top shape: 530 (530)
I0521 01:43:12.304908  7546 net.cpp:157] Top shape: 530 (530)
I0521 01:43:12.304916  7546 net.cpp:165] Memory required for data: 13468360
I0521 01:43:12.304926  7546 layer_factory.hpp:77] Creating layer conv1
I0521 01:43:12.304949  7546 net.cpp:106] Creating Layer conv1
I0521 01:43:12.304958  7546 net.cpp:454] conv1 <- data
I0521 01:43:12.304973  7546 net.cpp:411] conv1 -> conv1
I0521 01:43:12.306926  7546 net.cpp:150] Setting up conv1
I0521 01:43:12.306951  7546 net.cpp:157] Top shape: 530 12 120 48 (36633600)
I0521 01:43:12.306962  7546 net.cpp:165] Memory required for data: 160002760
I0521 01:43:12.306983  7546 layer_factory.hpp:77] Creating layer relu1
I0521 01:43:12.306998  7546 net.cpp:106] Creating Layer relu1
I0521 01:43:12.307008  7546 net.cpp:454] relu1 <- conv1
I0521 01:43:12.307021  7546 net.cpp:397] relu1 -> conv1 (in-place)
I0521 01:43:12.307518  7546 net.cpp:150] Setting up relu1
I0521 01:43:12.307535  7546 net.cpp:157] Top shape: 530 12 120 48 (36633600)
I0521 01:43:12.307545  7546 net.cpp:165] Memory required for data: 306537160
I0521 01:43:12.307555  7546 layer_factory.hpp:77] Creating layer pool1
I0521 01:43:12.307571  7546 net.cpp:106] Creating Layer pool1
I0521 01:43:12.307581  7546 net.cpp:454] pool1 <- conv1
I0521 01:43:12.307591  7546 net.cpp:411] pool1 -> pool1
I0521 01:43:12.307667  7546 net.cpp:150] Setting up pool1
I0521 01:43:12.307680  7546 net.cpp:157] Top shape: 530 12 60 48 (18316800)
I0521 01:43:12.307690  7546 net.cpp:165] Memory required for data: 379804360
I0521 01:43:12.307698  7546 layer_factory.hpp:77] Creating layer conv2
I0521 01:43:12.307715  7546 net.cpp:106] Creating Layer conv2
I0521 01:43:12.307725  7546 net.cpp:454] conv2 <- pool1
I0521 01:43:12.307740  7546 net.cpp:411] conv2 -> conv2
I0521 01:43:12.309653  7546 net.cpp:150] Setting up conv2
I0521 01:43:12.309676  7546 net.cpp:157] Top shape: 530 20 54 46 (26330400)
I0521 01:43:12.309689  7546 net.cpp:165] Memory required for data: 485125960
I0521 01:43:12.309715  7546 layer_factory.hpp:77] Creating layer relu2
I0521 01:43:12.309728  7546 net.cpp:106] Creating Layer relu2
I0521 01:43:12.309738  7546 net.cpp:454] relu2 <- conv2
I0521 01:43:12.309751  7546 net.cpp:397] relu2 -> conv2 (in-place)
I0521 01:43:12.310086  7546 net.cpp:150] Setting up relu2
I0521 01:43:12.310099  7546 net.cpp:157] Top shape: 530 20 54 46 (26330400)
I0521 01:43:12.310109  7546 net.cpp:165] Memory required for data: 590447560
I0521 01:43:12.310119  7546 layer_factory.hpp:77] Creating layer pool2
I0521 01:43:12.310132  7546 net.cpp:106] Creating Layer pool2
I0521 01:43:12.310142  7546 net.cpp:454] pool2 <- conv2
I0521 01:43:12.310154  7546 net.cpp:411] pool2 -> pool2
I0521 01:43:12.310225  7546 net.cpp:150] Setting up pool2
I0521 01:43:12.310238  7546 net.cpp:157] Top shape: 530 20 27 46 (13165200)
I0521 01:43:12.310248  7546 net.cpp:165] Memory required for data: 643108360
I0521 01:43:12.310259  7546 layer_factory.hpp:77] Creating layer conv3
I0521 01:43:12.310278  7546 net.cpp:106] Creating Layer conv3
I0521 01:43:12.310288  7546 net.cpp:454] conv3 <- pool2
I0521 01:43:12.310303  7546 net.cpp:411] conv3 -> conv3
I0521 01:43:12.312264  7546 net.cpp:150] Setting up conv3
I0521 01:43:12.312288  7546 net.cpp:157] Top shape: 530 28 22 44 (14365120)
I0521 01:43:12.312299  7546 net.cpp:165] Memory required for data: 700568840
I0521 01:43:12.312332  7546 layer_factory.hpp:77] Creating layer relu3
I0521 01:43:12.312345  7546 net.cpp:106] Creating Layer relu3
I0521 01:43:12.312356  7546 net.cpp:454] relu3 <- conv3
I0521 01:43:12.312369  7546 net.cpp:397] relu3 -> conv3 (in-place)
I0521 01:43:12.312836  7546 net.cpp:150] Setting up relu3
I0521 01:43:12.312852  7546 net.cpp:157] Top shape: 530 28 22 44 (14365120)
I0521 01:43:12.312863  7546 net.cpp:165] Memory required for data: 758029320
I0521 01:43:12.312873  7546 layer_factory.hpp:77] Creating layer pool3
I0521 01:43:12.312886  7546 net.cpp:106] Creating Layer pool3
I0521 01:43:12.312896  7546 net.cpp:454] pool3 <- conv3
I0521 01:43:12.312909  7546 net.cpp:411] pool3 -> pool3
I0521 01:43:12.312980  7546 net.cpp:150] Setting up pool3
I0521 01:43:12.312994  7546 net.cpp:157] Top shape: 530 28 11 44 (7182560)
I0521 01:43:12.313004  7546 net.cpp:165] Memory required for data: 786759560
I0521 01:43:12.313014  7546 layer_factory.hpp:77] Creating layer conv4
I0521 01:43:12.313031  7546 net.cpp:106] Creating Layer conv4
I0521 01:43:12.313041  7546 net.cpp:454] conv4 <- pool3
I0521 01:43:12.313053  7546 net.cpp:411] conv4 -> conv4
I0521 01:43:12.315124  7546 net.cpp:150] Setting up conv4
I0521 01:43:12.315141  7546 net.cpp:157] Top shape: 530 36 6 42 (4808160)
I0521 01:43:12.315151  7546 net.cpp:165] Memory required for data: 805992200
I0521 01:43:12.315171  7546 layer_factory.hpp:77] Creating layer relu4
I0521 01:43:12.315184  7546 net.cpp:106] Creating Layer relu4
I0521 01:43:12.315194  7546 net.cpp:454] relu4 <- conv4
I0521 01:43:12.315207  7546 net.cpp:397] relu4 -> conv4 (in-place)
I0521 01:43:12.315680  7546 net.cpp:150] Setting up relu4
I0521 01:43:12.315696  7546 net.cpp:157] Top shape: 530 36 6 42 (4808160)
I0521 01:43:12.315706  7546 net.cpp:165] Memory required for data: 825224840
I0521 01:43:12.315716  7546 layer_factory.hpp:77] Creating layer pool4
I0521 01:43:12.315729  7546 net.cpp:106] Creating Layer pool4
I0521 01:43:12.315738  7546 net.cpp:454] pool4 <- conv4
I0521 01:43:12.315752  7546 net.cpp:411] pool4 -> pool4
I0521 01:43:12.315824  7546 net.cpp:150] Setting up pool4
I0521 01:43:12.315837  7546 net.cpp:157] Top shape: 530 36 3 42 (2404080)
I0521 01:43:12.315847  7546 net.cpp:165] Memory required for data: 834841160
I0521 01:43:12.315856  7546 layer_factory.hpp:77] Creating layer ip1
I0521 01:43:12.315870  7546 net.cpp:106] Creating Layer ip1
I0521 01:43:12.315881  7546 net.cpp:454] ip1 <- pool4
I0521 01:43:12.315893  7546 net.cpp:411] ip1 -> ip1
I0521 01:43:12.331337  7546 net.cpp:150] Setting up ip1
I0521 01:43:12.331367  7546 net.cpp:157] Top shape: 530 196 (103880)
I0521 01:43:12.331377  7546 net.cpp:165] Memory required for data: 835256680
I0521 01:43:12.331399  7546 layer_factory.hpp:77] Creating layer relu5
I0521 01:43:12.331414  7546 net.cpp:106] Creating Layer relu5
I0521 01:43:12.331424  7546 net.cpp:454] relu5 <- ip1
I0521 01:43:12.331439  7546 net.cpp:397] relu5 -> ip1 (in-place)
I0521 01:43:12.331784  7546 net.cpp:150] Setting up relu5
I0521 01:43:12.331797  7546 net.cpp:157] Top shape: 530 196 (103880)
I0521 01:43:12.331807  7546 net.cpp:165] Memory required for data: 835672200
I0521 01:43:12.331817  7546 layer_factory.hpp:77] Creating layer drop1
I0521 01:43:12.331837  7546 net.cpp:106] Creating Layer drop1
I0521 01:43:12.331847  7546 net.cpp:454] drop1 <- ip1
I0521 01:43:12.331861  7546 net.cpp:397] drop1 -> ip1 (in-place)
I0521 01:43:12.331904  7546 net.cpp:150] Setting up drop1
I0521 01:43:12.331917  7546 net.cpp:157] Top shape: 530 196 (103880)
I0521 01:43:12.331928  7546 net.cpp:165] Memory required for data: 836087720
I0521 01:43:12.331938  7546 layer_factory.hpp:77] Creating layer ip2
I0521 01:43:12.331951  7546 net.cpp:106] Creating Layer ip2
I0521 01:43:12.331961  7546 net.cpp:454] ip2 <- ip1
I0521 01:43:12.331975  7546 net.cpp:411] ip2 -> ip2
I0521 01:43:12.332458  7546 net.cpp:150] Setting up ip2
I0521 01:43:12.332471  7546 net.cpp:157] Top shape: 530 98 (51940)
I0521 01:43:12.332481  7546 net.cpp:165] Memory required for data: 836295480
I0521 01:43:12.332509  7546 layer_factory.hpp:77] Creating layer relu6
I0521 01:43:12.332521  7546 net.cpp:106] Creating Layer relu6
I0521 01:43:12.332531  7546 net.cpp:454] relu6 <- ip2
I0521 01:43:12.332545  7546 net.cpp:397] relu6 -> ip2 (in-place)
I0521 01:43:12.333078  7546 net.cpp:150] Setting up relu6
I0521 01:43:12.333099  7546 net.cpp:157] Top shape: 530 98 (51940)
I0521 01:43:12.333109  7546 net.cpp:165] Memory required for data: 836503240
I0521 01:43:12.333118  7546 layer_factory.hpp:77] Creating layer drop2
I0521 01:43:12.333132  7546 net.cpp:106] Creating Layer drop2
I0521 01:43:12.333142  7546 net.cpp:454] drop2 <- ip2
I0521 01:43:12.333155  7546 net.cpp:397] drop2 -> ip2 (in-place)
I0521 01:43:12.333199  7546 net.cpp:150] Setting up drop2
I0521 01:43:12.333212  7546 net.cpp:157] Top shape: 530 98 (51940)
I0521 01:43:12.333222  7546 net.cpp:165] Memory required for data: 836711000
I0521 01:43:12.333232  7546 layer_factory.hpp:77] Creating layer ip3
I0521 01:43:12.333246  7546 net.cpp:106] Creating Layer ip3
I0521 01:43:12.333256  7546 net.cpp:454] ip3 <- ip2
I0521 01:43:12.333269  7546 net.cpp:411] ip3 -> ip3
I0521 01:43:12.333493  7546 net.cpp:150] Setting up ip3
I0521 01:43:12.333506  7546 net.cpp:157] Top shape: 530 11 (5830)
I0521 01:43:12.333516  7546 net.cpp:165] Memory required for data: 836734320
I0521 01:43:12.333531  7546 layer_factory.hpp:77] Creating layer drop3
I0521 01:43:12.333544  7546 net.cpp:106] Creating Layer drop3
I0521 01:43:12.333552  7546 net.cpp:454] drop3 <- ip3
I0521 01:43:12.333565  7546 net.cpp:397] drop3 -> ip3 (in-place)
I0521 01:43:12.333606  7546 net.cpp:150] Setting up drop3
I0521 01:43:12.333618  7546 net.cpp:157] Top shape: 530 11 (5830)
I0521 01:43:12.333628  7546 net.cpp:165] Memory required for data: 836757640
I0521 01:43:12.333638  7546 layer_factory.hpp:77] Creating layer ip3_drop3_0_split
I0521 01:43:12.333650  7546 net.cpp:106] Creating Layer ip3_drop3_0_split
I0521 01:43:12.333660  7546 net.cpp:454] ip3_drop3_0_split <- ip3
I0521 01:43:12.333673  7546 net.cpp:411] ip3_drop3_0_split -> ip3_drop3_0_split_0
I0521 01:43:12.333688  7546 net.cpp:411] ip3_drop3_0_split -> ip3_drop3_0_split_1
I0521 01:43:12.333770  7546 net.cpp:150] Setting up ip3_drop3_0_split
I0521 01:43:12.333782  7546 net.cpp:157] Top shape: 530 11 (5830)
I0521 01:43:12.333796  7546 net.cpp:157] Top shape: 530 11 (5830)
I0521 01:43:12.333806  7546 net.cpp:165] Memory required for data: 836804280
I0521 01:43:12.333816  7546 layer_factory.hpp:77] Creating layer accuracy
I0521 01:43:12.333837  7546 net.cpp:106] Creating Layer accuracy
I0521 01:43:12.333847  7546 net.cpp:454] accuracy <- ip3_drop3_0_split_0
I0521 01:43:12.333858  7546 net.cpp:454] accuracy <- label_data_hdf5_1_split_0
I0521 01:43:12.333871  7546 net.cpp:411] accuracy -> accuracy
…
