…
I0520 23:18:00.796707 24041 net.cpp:322] The NetState phase (0) differed from the phase (1) specified by a rule in layer data_hdf5
I0520 23:18:00.796773 24041 net.cpp:322] The NetState phase (0) differed from the phase (1) specified by a rule in layer accuracy
I0520 23:18:00.797150 24041 net.cpp:49] Initializing net from parameters: 
name: "caffe_test_127x50_x_unshifted"
state {
  phase: TRAIN
}
layer {
  name: "data_hdf5"
  type: "HDF5Data"
  top: "data"
  top: "label"
  include {
    phase: TRAIN
  }
  hdf5_data_param {
    source: "/lustre/atlas/proj-shared/hep105/caffe_titan/minosmatch_nukecczdefs_127x50_x_unshifted_me1Bmc.trainlist"
    batch_size: 420
  }
}
layer {
  name: "conv1"
  type: "Convolution"
  bottom: "data"
  top: "conv1"
  convolution_param {
    num_output: 12
    pad: 0
    stride: 1
    weight_filler {
      type: "xavier"
    }
    bias_filler {
      type: "constant"
    }
    kernel_h: 8
    kernel_w: 3
  }
}
layer {
  name: "relu1"
  type: "ReLU"
  bottom: "conv1"
  top: "conv1"
}
layer {
  name: "pool1"
  type: "Pooling"
  bottom: "conv1"
  top: "pool1"
  pooling_param {
    pool: MAX
    kernel_h: 2
    kernel_w: 1
    stride_h: 2
    stride_w: 1
  }
}
layer {
  name: "conv2"
  type: "Convolution"
  bottom: "pool1"
  top: "conv2"
  convolution_param {
    num_output: 20
    pad: 0
    stride: 1
    weight_filler {
      type: "xavier"
    }
    bias_filler {
      type: "constant"
    }
    kernel_h: 7
    kernel_w: 3
  }
}
layer {
  name: "relu2"
  type: "ReLU"
  bottom: "conv2"
  top: "conv2"
}
layer {
  name: "pool2"
  type: "Pooling"
  bottom: "conv2"
  top: "pool2"
  pooling_param {
    pool: MAX
    kernel_h: 2
    kernel_w: 1
    stride_h: 2
    stride_w: 1
  }
}
layer {
  name: "conv3"
  type: "Convolution"
  bottom: "pool2"
  top: "conv3"
  convolution_param {
    num_output: 28
    pad: 0
    stride: 1
    weight_filler {
      type: "xavier"
    }
    bias_filler {
      type: "constant"
    }
    kernel_h: 6
    kernel_w: 3
  }
}
layer {
  name: "relu3"
  type: "ReLU"
  bottom: "conv3"
  top: "conv3"
}
layer {
  name: "pool3"
  type: "Pooling"
  bottom: "conv3"
  top: "pool3"
  pooling_param {
    pool: MAX
    kernel_h: 2
    kernel_w: 1
    stride_h: 2
    stride_w: 1
  }
}
layer {
  name: "conv4"
  type: "Convolution"
  bottom: "pool3"
  top: "conv4"
  convolution_param {
    num_output: 36
    pad: 0
    stride: 1
    weight_filler {
      type: "xavier"
    }
    bias_filler {
      type: "constant"
    }
    kernel_h: 6
    kernel_w: 3
  }
}
layer {
  name: "relu4"
  type: "ReLU"
  bottom: "conv4"
  top: "conv4"
}
layer {
  name: "pool4"
  type: "Pooling"
  bottom: "conv4"
  top: "pool4"
  pooling_param {
    pool: MAX
    kernel_h: 2
    kernel_w: 1
    stride_h: 2
    stride_w: 1
  }
}
layer {
  name: "ip1"
  type: "InnerProduct"
  bottom: "pool4"
  top: "ip1"
  inner_product_param {
    num_output: 196
    weight_filler {
      type: "xavier"
    }
    bias_filler {
      type: "constant"
    }
  }
}
layer {
  name: "relu5"
  type: "ReLU"
  bottom: "ip1"
  top: "ip1"
}
layer {
  name: "drop1"
  type: "Dropout"
  bottom: "ip1"
  top: "ip1"
  dropout_param {
    dropout_ratio: 0.5
  }
}
layer {
  name: "ip2"
  type: "InnerProduct"
  bottom: "ip1"
  top: "ip2"
  inner_product_param {
    num_output: 98
    weight_filler {
      type: "xavier"
    }
    bias_filler {
      type: "constant"
    }
  }
}
layer {
  name: "relu6"
  type: "ReLU"
  bottom: "ip2"
  top: "ip2"
}
layer {
  name: "drop2"
  type: "Dropout"
  bottom: "ip2"
  top: "ip2"
  dropout_param {
    dropout_ratio: 0.5
  }
}
layer {
  name: "ip3"
  type: "InnerProduct"
  bottom: "ip2"
  top: "ip3"
  inner_product_param {
    num_output: 11
    weight_filler {
      type: "xavier"
    }
    bias_filler {
      type: "constant"
    }
  }
}
layer {
  name: "drop3"
  type: "Dropout"
  bottom: "ip3"
  top: "ip3"
  dropout_param {
    dropout_ratio: 0.5
  }
}
layer {
  name: "loss"
  type: "SoftmaxWithLoss"
  bottom: "ip3"
  bottom: "label"
  top: "loss"
}
I0520 23:18:00.797351 24041 layer_factory.hpp:77] Creating layer data_hdf5
I0520 23:18:00.797380 24041 net.cpp:106] Creating Layer data_hdf5
I0520 23:18:00.797397 24041 net.cpp:411] data_hdf5 -> data
I0520 23:18:00.797438 24041 net.cpp:411] data_hdf5 -> label
I0520 23:18:00.797482 24041 hdf5_data_layer.cpp:79] Loading list of HDF5 filenames from: /lustre/atlas/proj-shared/hep105/caffe_titan/minosmatch_nukecczdefs_127x50_x_unshifted_me1Bmc.trainlist
I0520 23:18:00.798707 24041 hdf5_data_layer.cpp:93] Number of HDF5 files: 15
I0520 23:18:00.800954 24041 hdf5.cpp:32] Datatype class: H5T_FLOAT
I0520 23:18:22.398586 24041 hdf5.cpp:35] Datatype class: H5T_INTEGER
I0520 23:18:22.403789 24041 net.cpp:150] Setting up data_hdf5
I0520 23:18:22.403830 24041 net.cpp:157] Top shape: 420 1 127 50 (2667000)
I0520 23:18:22.403847 24041 net.cpp:157] Top shape: 420 (420)
I0520 23:18:22.403861 24041 net.cpp:165] Memory required for data: 10669680
I0520 23:18:22.403879 24041 layer_factory.hpp:77] Creating layer conv1
I0520 23:18:22.403925 24041 net.cpp:106] Creating Layer conv1
I0520 23:18:22.403940 24041 net.cpp:454] conv1 <- data
I0520 23:18:22.403965 24041 net.cpp:411] conv1 -> conv1
I0520 23:18:22.775228 24041 net.cpp:150] Setting up conv1
I0520 23:18:22.775280 24041 net.cpp:157] Top shape: 420 12 120 48 (29030400)
I0520 23:18:22.775297 24041 net.cpp:165] Memory required for data: 126791280
I0520 23:18:22.775327 24041 layer_factory.hpp:77] Creating layer relu1
I0520 23:18:22.775357 24041 net.cpp:106] Creating Layer relu1
I0520 23:18:22.775390 24041 net.cpp:454] relu1 <- conv1
I0520 23:18:22.775406 24041 net.cpp:397] relu1 -> conv1 (in-place)
I0520 23:18:22.775935 24041 net.cpp:150] Setting up relu1
I0520 23:18:22.775959 24041 net.cpp:157] Top shape: 420 12 120 48 (29030400)
I0520 23:18:22.775972 24041 net.cpp:165] Memory required for data: 242912880
I0520 23:18:22.775985 24041 layer_factory.hpp:77] Creating layer pool1
I0520 23:18:22.776007 24041 net.cpp:106] Creating Layer pool1
I0520 23:18:22.776022 24041 net.cpp:454] pool1 <- conv1
I0520 23:18:22.776046 24041 net.cpp:411] pool1 -> pool1
I0520 23:18:22.776132 24041 net.cpp:150] Setting up pool1
I0520 23:18:22.776159 24041 net.cpp:157] Top shape: 420 12 60 48 (14515200)
I0520 23:18:22.776173 24041 net.cpp:165] Memory required for data: 300973680
I0520 23:18:22.776195 24041 layer_factory.hpp:77] Creating layer conv2
I0520 23:18:22.776218 24041 net.cpp:106] Creating Layer conv2
I0520 23:18:22.776232 24041 net.cpp:454] conv2 <- pool1
I0520 23:18:22.776248 24041 net.cpp:411] conv2 -> conv2
I0520 23:18:22.778944 24041 net.cpp:150] Setting up conv2
I0520 23:18:22.778973 24041 net.cpp:157] Top shape: 420 20 54 46 (20865600)
I0520 23:18:22.778990 24041 net.cpp:165] Memory required for data: 384436080
I0520 23:18:22.779016 24041 layer_factory.hpp:77] Creating layer relu2
I0520 23:18:22.779043 24041 net.cpp:106] Creating Layer relu2
I0520 23:18:22.779057 24041 net.cpp:454] relu2 <- conv2
I0520 23:18:22.779073 24041 net.cpp:397] relu2 -> conv2 (in-place)
I0520 23:18:22.779428 24041 net.cpp:150] Setting up relu2
I0520 23:18:22.779448 24041 net.cpp:157] Top shape: 420 20 54 46 (20865600)
I0520 23:18:22.779461 24041 net.cpp:165] Memory required for data: 467898480
I0520 23:18:22.779476 24041 layer_factory.hpp:77] Creating layer pool2
I0520 23:18:22.779498 24041 net.cpp:106] Creating Layer pool2
I0520 23:18:22.779512 24041 net.cpp:454] pool2 <- conv2
I0520 23:18:22.779547 24041 net.cpp:411] pool2 -> pool2
I0520 23:18:22.779631 24041 net.cpp:150] Setting up pool2
I0520 23:18:22.779649 24041 net.cpp:157] Top shape: 420 20 27 46 (10432800)
I0520 23:18:22.779664 24041 net.cpp:165] Memory required for data: 509629680
I0520 23:18:22.779681 24041 layer_factory.hpp:77] Creating layer conv3
I0520 23:18:22.779702 24041 net.cpp:106] Creating Layer conv3
I0520 23:18:22.779716 24041 net.cpp:454] conv3 <- pool2
I0520 23:18:22.779732 24041 net.cpp:411] conv3 -> conv3
I0520 23:18:22.781682 24041 net.cpp:150] Setting up conv3
I0520 23:18:22.781707 24041 net.cpp:157] Top shape: 420 28 22 44 (11383680)
I0520 23:18:22.781726 24041 net.cpp:165] Memory required for data: 555164400
I0520 23:18:22.781749 24041 layer_factory.hpp:77] Creating layer relu3
I0520 23:18:22.781771 24041 net.cpp:106] Creating Layer relu3
I0520 23:18:22.781795 24041 net.cpp:454] relu3 <- conv3
I0520 23:18:22.781811 24041 net.cpp:397] relu3 -> conv3 (in-place)
I0520 23:18:22.782307 24041 net.cpp:150] Setting up relu3
I0520 23:18:22.782331 24041 net.cpp:157] Top shape: 420 28 22 44 (11383680)
I0520 23:18:22.782344 24041 net.cpp:165] Memory required for data: 600699120
I0520 23:18:22.782357 24041 layer_factory.hpp:77] Creating layer pool3
I0520 23:18:22.782377 24041 net.cpp:106] Creating Layer pool3
I0520 23:18:22.782398 24041 net.cpp:454] pool3 <- conv3
I0520 23:18:22.782414 24041 net.cpp:411] pool3 -> pool3
I0520 23:18:22.782497 24041 net.cpp:150] Setting up pool3
I0520 23:18:22.782519 24041 net.cpp:157] Top shape: 420 28 11 44 (5691840)
I0520 23:18:22.782532 24041 net.cpp:165] Memory required for data: 623466480
I0520 23:18:22.782547 24041 layer_factory.hpp:77] Creating layer conv4
I0520 23:18:22.782574 24041 net.cpp:106] Creating Layer conv4
I0520 23:18:22.782588 24041 net.cpp:454] conv4 <- pool3
I0520 23:18:22.782603 24041 net.cpp:411] conv4 -> conv4
I0520 23:18:22.785388 24041 net.cpp:150] Setting up conv4
I0520 23:18:22.785423 24041 net.cpp:157] Top shape: 420 36 6 42 (3810240)
I0520 23:18:22.785437 24041 net.cpp:165] Memory required for data: 638707440
I0520 23:18:22.785461 24041 layer_factory.hpp:77] Creating layer relu4
I0520 23:18:22.785478 24041 net.cpp:106] Creating Layer relu4
I0520 23:18:22.785492 24041 net.cpp:454] relu4 <- conv4
I0520 23:18:22.785507 24041 net.cpp:397] relu4 -> conv4 (in-place)
I0520 23:18:22.786031 24041 net.cpp:150] Setting up relu4
I0520 23:18:22.786054 24041 net.cpp:157] Top shape: 420 36 6 42 (3810240)
I0520 23:18:22.786067 24041 net.cpp:165] Memory required for data: 653948400
I0520 23:18:22.786083 24041 layer_factory.hpp:77] Creating layer pool4
I0520 23:18:22.786099 24041 net.cpp:106] Creating Layer pool4
I0520 23:18:22.786121 24041 net.cpp:454] pool4 <- conv4
I0520 23:18:22.786137 24041 net.cpp:411] pool4 -> pool4
I0520 23:18:22.786219 24041 net.cpp:150] Setting up pool4
I0520 23:18:22.786237 24041 net.cpp:157] Top shape: 420 36 3 42 (1905120)
I0520 23:18:22.786252 24041 net.cpp:165] Memory required for data: 661568880
I0520 23:18:22.786267 24041 layer_factory.hpp:77] Creating layer ip1
I0520 23:18:22.786294 24041 net.cpp:106] Creating Layer ip1
I0520 23:18:22.786308 24041 net.cpp:454] ip1 <- pool4
I0520 23:18:22.786330 24041 net.cpp:411] ip1 -> ip1
I0520 23:18:22.801746 24041 net.cpp:150] Setting up ip1
I0520 23:18:22.801779 24041 net.cpp:157] Top shape: 420 196 (82320)
I0520 23:18:22.801801 24041 net.cpp:165] Memory required for data: 661898160
I0520 23:18:22.801827 24041 layer_factory.hpp:77] Creating layer relu5
I0520 23:18:22.801849 24041 net.cpp:106] Creating Layer relu5
I0520 23:18:22.801874 24041 net.cpp:454] relu5 <- ip1
I0520 23:18:22.801892 24041 net.cpp:397] relu5 -> ip1 (in-place)
I0520 23:18:22.802253 24041 net.cpp:150] Setting up relu5
I0520 23:18:22.802273 24041 net.cpp:157] Top shape: 420 196 (82320)
I0520 23:18:22.802286 24041 net.cpp:165] Memory required for data: 662227440
I0520 23:18:22.802301 24041 layer_factory.hpp:77] Creating layer drop1
I0520 23:18:22.802331 24041 net.cpp:106] Creating Layer drop1
I0520 23:18:22.802345 24041 net.cpp:454] drop1 <- ip1
I0520 23:18:22.802374 24041 net.cpp:397] drop1 -> ip1 (in-place)
I0520 23:18:22.802433 24041 net.cpp:150] Setting up drop1
I0520 23:18:22.802450 24041 net.cpp:157] Top shape: 420 196 (82320)
I0520 23:18:22.802464 24041 net.cpp:165] Memory required for data: 662556720
I0520 23:18:22.802479 24041 layer_factory.hpp:77] Creating layer ip2
I0520 23:18:22.802500 24041 net.cpp:106] Creating Layer ip2
I0520 23:18:22.802518 24041 net.cpp:454] ip2 <- ip1
I0520 23:18:22.802534 24041 net.cpp:411] ip2 -> ip2
I0520 23:18:22.803021 24041 net.cpp:150] Setting up ip2
I0520 23:18:22.803040 24041 net.cpp:157] Top shape: 420 98 (41160)
I0520 23:18:22.803053 24041 net.cpp:165] Memory required for data: 662721360
I0520 23:18:22.803074 24041 layer_factory.hpp:77] Creating layer relu6
I0520 23:18:22.803097 24041 net.cpp:106] Creating Layer relu6
I0520 23:18:22.803110 24041 net.cpp:454] relu6 <- ip2
I0520 23:18:22.803125 24041 net.cpp:397] relu6 -> ip2 (in-place)
I0520 23:18:22.803676 24041 net.cpp:150] Setting up relu6
I0520 23:18:22.803699 24041 net.cpp:157] Top shape: 420 98 (41160)
I0520 23:18:22.803714 24041 net.cpp:165] Memory required for data: 662886000
I0520 23:18:22.803730 24041 layer_factory.hpp:77] Creating layer drop2
I0520 23:18:22.803753 24041 net.cpp:106] Creating Layer drop2
I0520 23:18:22.803767 24041 net.cpp:454] drop2 <- ip2
I0520 23:18:22.803782 24041 net.cpp:397] drop2 -> ip2 (in-place)
I0520 23:18:22.803833 24041 net.cpp:150] Setting up drop2
I0520 23:18:22.803855 24041 net.cpp:157] Top shape: 420 98 (41160)
I0520 23:18:22.803869 24041 net.cpp:165] Memory required for data: 663050640
I0520 23:18:22.803882 24041 layer_factory.hpp:77] Creating layer ip3
I0520 23:18:22.803897 24041 net.cpp:106] Creating Layer ip3
I0520 23:18:22.803912 24041 net.cpp:454] ip3 <- ip2
I0520 23:18:22.803935 24041 net.cpp:411] ip3 -> ip3
I0520 23:18:22.804159 24041 net.cpp:150] Setting up ip3
I0520 23:18:22.804178 24041 net.cpp:157] Top shape: 420 11 (4620)
I0520 23:18:22.804191 24041 net.cpp:165] Memory required for data: 663069120
I0520 23:18:22.804213 24041 layer_factory.hpp:77] Creating layer drop3
I0520 23:18:22.804234 24041 net.cpp:106] Creating Layer drop3
I0520 23:18:22.804247 24041 net.cpp:454] drop3 <- ip3
I0520 23:18:22.804262 24041 net.cpp:397] drop3 -> ip3 (in-place)
I0520 23:18:22.804309 24041 net.cpp:150] Setting up drop3
I0520 23:18:22.804332 24041 net.cpp:157] Top shape: 420 11 (4620)
I0520 23:18:22.804344 24041 net.cpp:165] Memory required for data: 663087600
I0520 23:18:22.804363 24041 layer_factory.hpp:77] Creating layer loss
I0520 23:18:22.804384 24041 net.cpp:106] Creating Layer loss
I0520 23:18:22.804399 24041 net.cpp:454] loss <- ip3
I0520 23:18:22.804414 24041 net.cpp:454] loss <- label
I0520 23:18:22.804435 24041 net.cpp:411] loss -> loss
I0520 23:18:22.804455 24041 layer_factory.hpp:77] Creating layer loss
…
I0520 23:18:22.807250 24041 solver.cpp:181] Creating test net (#0) specified by net file: /lustre/atlas/proj-shared/hep105/caffe_titan/caffe_workflow/logs_batch_size_test/batch_size_420_2016-05-20T11.20.47.957254.prototxt
I0520 23:18:22.807328 24041 net.cpp:322] The NetState phase (1) differed from the phase (0) specified by a rule in layer data_hdf5
I0520 23:18:22.807706 24041 net.cpp:49] Initializing net from parameters: 
name: "caffe_test_127x50_x_unshifted"
state {
  phase: TEST
}
layer {
  name: "data_hdf5"
  type: "HDF5Data"
  top: "data"
  top: "label"
  include {
    phase: TEST
  }
  hdf5_data_param {
    source: "/lustre/atlas/proj-shared/hep105/caffe_titan/minosmatch_nukecczdefs_127x50_x_unshifted_me1Bmc.testlist"
    batch_size: 420
  }
}
layer {
  name: "conv1"
  type: "Convolution"
  bottom: "data"
  top: "conv1"
  convolution_param {
    num_output: 12
    pad: 0
    stride: 1
    weight_filler {
      type: "xavier"
    }
    bias_filler {
      type: "constant"
    }
    kernel_h: 8
    kernel_w: 3
  }
}
layer {
  name: "relu1"
  type: "ReLU"
  bottom: "conv1"
  top: "conv1"
}
layer {
  name: "pool1"
  type: "Pooling"
  bottom: "conv1"
  top: "pool1"
  pooling_param {
    pool: MAX
    kernel_h: 2
    kernel_w: 1
    stride_h: 2
    stride_w: 1
  }
}
layer {
  name: "conv2"
  type: "Convolution"
  bottom: "pool1"
  top: "conv2"
  convolution_param {
    num_output: 20
    pad: 0
    stride: 1
    weight_filler {
      type: "xavier"
    }
    bias_filler {
      type: "constant"
    }
    kernel_h: 7
    kernel_w: 3
  }
}
layer {
  name: "relu2"
  type: "ReLU"
  bottom: "conv2"
  top: "conv2"
}
layer {
  name: "pool2"
  type: "Pooling"
  bottom: "conv2"
  top: "pool2"
  pooling_param {
    pool: MAX
    kernel_h: 2
    kernel_w: 1
    stride_h: 2
    stride_w: 1
  }
}
layer {
  name: "conv3"
  type: "Convolution"
  bottom: "pool2"
  top: "conv3"
  convolution_param {
    num_output: 28
    pad: 0
    stride: 1
    weight_filler {
      type: "xavier"
    }
    bias_filler {
      type: "constant"
    }
    kernel_h: 6
    kernel_w: 3
  }
}
layer {
  name: "relu3"
  type: "ReLU"
  bottom: "conv3"
  top: "conv3"
}
layer {
  name: "pool3"
  type: "Pooling"
  bottom: "conv3"
  top: "pool3"
  pooling_param {
    pool: MAX
    kernel_h: 2
    kernel_w: 1
    stride_h: 2
    stride_w: 1
  }
}
layer {
  name: "conv4"
  type: "Convolution"
  bottom: "pool3"
  top: "conv4"
  convolution_param {
    num_output: 36
    pad: 0
    stride: 1
    weight_filler {
      type: "xavier"
    }
    bias_filler {
      type: "constant"
    }
    kernel_h: 6
    kernel_w: 3
  }
}
layer {
  name: "relu4"
  type: "ReLU"
  bottom: "conv4"
  top: "conv4"
}
layer {
  name: "pool4"
  type: "Pooling"
  bottom: "conv4"
  top: "pool4"
  pooling_param {
    pool: MAX
    kernel_h: 2
    kernel_w: 1
    stride_h: 2
    stride_w: 1
  }
}
layer {
  name: "ip1"
  type: "InnerProduct"
  bottom: "pool4"
  top: "ip1"
  inner_product_param {
    num_output: 196
    weight_filler {
      type: "xavier"
    }
    bias_filler {
      type: "constant"
    }
  }
}
layer {
  name: "relu5"
  type: "ReLU"
  bottom: "ip1"
  top: "ip1"
}
layer {
  name: "drop1"
  type: "Dropout"
  bottom: "ip1"
  top: "ip1"
  dropout_param {
    dropout_ratio: 0.5
  }
}
layer {
  name: "ip2"
  type: "InnerProduct"
  bottom: "ip1"
  top: "ip2"
  inner_product_param {
    num_output: 98
    weight_filler {
      type: "xavier"
    }
    bias_filler {
      type: "constant"
    }
  }
}
layer {
  name: "relu6"
  type: "ReLU"
  bottom: "ip2"
  top: "ip2"
}
layer {
  name: "drop2"
  type: "Dropout"
  bottom: "ip2"
  top: "ip2"
  dropout_param {
    dropout_ratio: 0.5
  }
}
layer {
  name: "ip3"
  type: "InnerProduct"
  bottom: "ip2"
  top: "ip3"
  inner_product_param {
    num_output: 11
    weight_filler {
      type: "xavier"
    }
    bias_filler {
      type: "constant"
    }
  }
}
layer {
  name: "drop3"
  type: "Dropout"
  bottom: "ip3"
  top: "ip3"
  dropout_param {
    dropout_ratio: 0.5
  }
}
layer {
  name: "accuracy"
  type: "Accuracy"
  bottom: "ip3"
  bottom: "label"
  top: "accuracy"
  include {
    phase: TEST
  }
}
layer {
  name: "loss"
  type: "SoftmaxWithLoss"
  bottom: "ip3"
  bottom: "label"
  top: "loss"
}
I0520 23:18:22.807934 24041 layer_factory.hpp:77] Creating layer data_hdf5
I0520 23:18:22.807953 24041 net.cpp:106] Creating Layer data_hdf5
I0520 23:18:22.807973 24041 net.cpp:411] data_hdf5 -> data
I0520 23:18:22.807993 24041 net.cpp:411] data_hdf5 -> label
I0520 23:18:22.808013 24041 hdf5_data_layer.cpp:79] Loading list of HDF5 filenames from: /lustre/atlas/proj-shared/hep105/caffe_titan/minosmatch_nukecczdefs_127x50_x_unshifted_me1Bmc.testlist
I0520 23:18:22.809864 24041 hdf5_data_layer.cpp:93] Number of HDF5 files: 3
I0520 23:18:44.096518 24041 net.cpp:150] Setting up data_hdf5
I0520 23:18:44.096688 24041 net.cpp:157] Top shape: 420 1 127 50 (2667000)
I0520 23:18:44.096709 24041 net.cpp:157] Top shape: 420 (420)
I0520 23:18:44.096720 24041 net.cpp:165] Memory required for data: 10669680
I0520 23:18:44.096735 24041 layer_factory.hpp:77] Creating layer label_data_hdf5_1_split
I0520 23:18:44.096771 24041 net.cpp:106] Creating Layer label_data_hdf5_1_split
I0520 23:18:44.096783 24041 net.cpp:454] label_data_hdf5_1_split <- label
I0520 23:18:44.096801 24041 net.cpp:411] label_data_hdf5_1_split -> label_data_hdf5_1_split_0
I0520 23:18:44.096842 24041 net.cpp:411] label_data_hdf5_1_split -> label_data_hdf5_1_split_1
I0520 23:18:44.096928 24041 net.cpp:150] Setting up label_data_hdf5_1_split
I0520 23:18:44.096946 24041 net.cpp:157] Top shape: 420 (420)
I0520 23:18:44.096961 24041 net.cpp:157] Top shape: 420 (420)
I0520 23:18:44.096974 24041 net.cpp:165] Memory required for data: 10673040
I0520 23:18:44.096987 24041 layer_factory.hpp:77] Creating layer conv1
I0520 23:18:44.097019 24041 net.cpp:106] Creating Layer conv1
I0520 23:18:44.097033 24041 net.cpp:454] conv1 <- data
I0520 23:18:44.097049 24041 net.cpp:411] conv1 -> conv1
I0520 23:18:44.099037 24041 net.cpp:150] Setting up conv1
I0520 23:18:44.099063 24041 net.cpp:157] Top shape: 420 12 120 48 (29030400)
I0520 23:18:44.099084 24041 net.cpp:165] Memory required for data: 126794640
I0520 23:18:44.099108 24041 layer_factory.hpp:77] Creating layer relu1
I0520 23:18:44.099130 24041 net.cpp:106] Creating Layer relu1
I0520 23:18:44.099153 24041 net.cpp:454] relu1 <- conv1
I0520 23:18:44.099169 24041 net.cpp:397] relu1 -> conv1 (in-place)
I0520 23:18:44.099685 24041 net.cpp:150] Setting up relu1
I0520 23:18:44.099709 24041 net.cpp:157] Top shape: 420 12 120 48 (29030400)
I0520 23:18:44.099722 24041 net.cpp:165] Memory required for data: 242916240
I0520 23:18:44.099735 24041 layer_factory.hpp:77] Creating layer pool1
I0520 23:18:44.099766 24041 net.cpp:106] Creating Layer pool1
I0520 23:18:44.099779 24041 net.cpp:454] pool1 <- conv1
I0520 23:18:44.099795 24041 net.cpp:411] pool1 -> pool1
I0520 23:18:44.099884 24041 net.cpp:150] Setting up pool1
I0520 23:18:44.099901 24041 net.cpp:157] Top shape: 420 12 60 48 (14515200)
I0520 23:18:44.099916 24041 net.cpp:165] Memory required for data: 300977040
I0520 23:18:44.099934 24041 layer_factory.hpp:77] Creating layer conv2
I0520 23:18:44.099956 24041 net.cpp:106] Creating Layer conv2
I0520 23:18:44.099968 24041 net.cpp:454] conv2 <- pool1
I0520 23:18:44.099985 24041 net.cpp:411] conv2 -> conv2
I0520 23:18:44.101935 24041 net.cpp:150] Setting up conv2
I0520 23:18:44.101960 24041 net.cpp:157] Top shape: 420 20 54 46 (20865600)
I0520 23:18:44.101990 24041 net.cpp:165] Memory required for data: 384439440
I0520 23:18:44.102022 24041 layer_factory.hpp:77] Creating layer relu2
I0520 23:18:44.102040 24041 net.cpp:106] Creating Layer relu2
I0520 23:18:44.102062 24041 net.cpp:454] relu2 <- conv2
I0520 23:18:44.102079 24041 net.cpp:397] relu2 -> conv2 (in-place)
I0520 23:18:44.102440 24041 net.cpp:150] Setting up relu2
I0520 23:18:44.102460 24041 net.cpp:157] Top shape: 420 20 54 46 (20865600)
I0520 23:18:44.102473 24041 net.cpp:165] Memory required for data: 467901840
I0520 23:18:44.102488 24041 layer_factory.hpp:77] Creating layer pool2
I0520 23:18:44.102510 24041 net.cpp:106] Creating Layer pool2
I0520 23:18:44.102524 24041 net.cpp:454] pool2 <- conv2
I0520 23:18:44.102540 24041 net.cpp:411] pool2 -> pool2
I0520 23:18:44.102629 24041 net.cpp:150] Setting up pool2
I0520 23:18:44.102648 24041 net.cpp:157] Top shape: 420 20 27 46 (10432800)
I0520 23:18:44.102666 24041 net.cpp:165] Memory required for data: 509633040
I0520 23:18:44.102679 24041 layer_factory.hpp:77] Creating layer conv3
I0520 23:18:44.102705 24041 net.cpp:106] Creating Layer conv3
I0520 23:18:44.102725 24041 net.cpp:454] conv3 <- pool2
I0520 23:18:44.102741 24041 net.cpp:411] conv3 -> conv3
I0520 23:18:44.104732 24041 net.cpp:150] Setting up conv3
I0520 23:18:44.104758 24041 net.cpp:157] Top shape: 420 28 22 44 (11383680)
I0520 23:18:44.104778 24041 net.cpp:165] Memory required for data: 555167760
I0520 23:18:44.104816 24041 layer_factory.hpp:77] Creating layer relu3
I0520 23:18:44.104841 24041 net.cpp:106] Creating Layer relu3
I0520 23:18:44.104856 24041 net.cpp:454] relu3 <- conv3
I0520 23:18:44.104871 24041 net.cpp:397] relu3 -> conv3 (in-place)
I0520 23:18:44.105370 24041 net.cpp:150] Setting up relu3
I0520 23:18:44.105393 24041 net.cpp:157] Top shape: 420 28 22 44 (11383680)
I0520 23:18:44.105406 24041 net.cpp:165] Memory required for data: 600702480
I0520 23:18:44.105422 24041 layer_factory.hpp:77] Creating layer pool3
I0520 23:18:44.105437 24041 net.cpp:106] Creating Layer pool3
I0520 23:18:44.105458 24041 net.cpp:454] pool3 <- conv3
I0520 23:18:44.105474 24041 net.cpp:411] pool3 -> pool3
I0520 23:18:44.105561 24041 net.cpp:150] Setting up pool3
I0520 23:18:44.105581 24041 net.cpp:157] Top shape: 420 28 11 44 (5691840)
I0520 23:18:44.105592 24041 net.cpp:165] Memory required for data: 623469840
I0520 23:18:44.105607 24041 layer_factory.hpp:77] Creating layer conv4
I0520 23:18:44.105633 24041 net.cpp:106] Creating Layer conv4
I0520 23:18:44.105648 24041 net.cpp:454] conv4 <- pool3
I0520 23:18:44.105665 24041 net.cpp:411] conv4 -> conv4
I0520 23:18:44.107790 24041 net.cpp:150] Setting up conv4
I0520 23:18:44.107815 24041 net.cpp:157] Top shape: 420 36 6 42 (3810240)
I0520 23:18:44.107836 24041 net.cpp:165] Memory required for data: 638710800
I0520 23:18:44.107854 24041 layer_factory.hpp:77] Creating layer relu4
I0520 23:18:44.107875 24041 net.cpp:106] Creating Layer relu4
I0520 23:18:44.107887 24041 net.cpp:454] relu4 <- conv4
I0520 23:18:44.107913 24041 net.cpp:397] relu4 -> conv4 (in-place)
I0520 23:18:44.108402 24041 net.cpp:150] Setting up relu4
I0520 23:18:44.108425 24041 net.cpp:157] Top shape: 420 36 6 42 (3810240)
I0520 23:18:44.108438 24041 net.cpp:165] Memory required for data: 653951760
I0520 23:18:44.108454 24041 layer_factory.hpp:77] Creating layer pool4
I0520 23:18:44.108469 24041 net.cpp:106] Creating Layer pool4
I0520 23:18:44.108484 24041 net.cpp:454] pool4 <- conv4
I0520 23:18:44.108500 24041 net.cpp:411] pool4 -> pool4
I0520 23:18:44.108594 24041 net.cpp:150] Setting up pool4
I0520 23:18:44.108611 24041 net.cpp:157] Top shape: 420 36 3 42 (1905120)
I0520 23:18:44.108626 24041 net.cpp:165] Memory required for data: 661572240
I0520 23:18:44.108639 24041 layer_factory.hpp:77] Creating layer ip1
I0520 23:18:44.108664 24041 net.cpp:106] Creating Layer ip1
I0520 23:18:44.108676 24041 net.cpp:454] ip1 <- pool4
I0520 23:18:44.108700 24041 net.cpp:411] ip1 -> ip1
I0520 23:18:44.124135 24041 net.cpp:150] Setting up ip1
I0520 23:18:44.124167 24041 net.cpp:157] Top shape: 420 196 (82320)
I0520 23:18:44.124187 24041 net.cpp:165] Memory required for data: 661901520
I0520 23:18:44.124213 24041 layer_factory.hpp:77] Creating layer relu5
I0520 23:18:44.124234 24041 net.cpp:106] Creating Layer relu5
I0520 23:18:44.124259 24041 net.cpp:454] relu5 <- ip1
I0520 23:18:44.124276 24041 net.cpp:397] relu5 -> ip1 (in-place)
I0520 23:18:44.124639 24041 net.cpp:150] Setting up relu5
I0520 23:18:44.124660 24041 net.cpp:157] Top shape: 420 196 (82320)
I0520 23:18:44.124672 24041 net.cpp:165] Memory required for data: 662230800
I0520 23:18:44.124687 24041 layer_factory.hpp:77] Creating layer drop1
I0520 23:18:44.124716 24041 net.cpp:106] Creating Layer drop1
I0520 23:18:44.124732 24041 net.cpp:454] drop1 <- ip1
I0520 23:18:44.124748 24041 net.cpp:397] drop1 -> ip1 (in-place)
I0520 23:18:44.124809 24041 net.cpp:150] Setting up drop1
I0520 23:18:44.124825 24041 net.cpp:157] Top shape: 420 196 (82320)
I0520 23:18:44.124843 24041 net.cpp:165] Memory required for data: 662560080
I0520 23:18:44.124856 24041 layer_factory.hpp:77] Creating layer ip2
I0520 23:18:44.124877 24041 net.cpp:106] Creating Layer ip2
I0520 23:18:44.124889 24041 net.cpp:454] ip2 <- ip1
I0520 23:18:44.124912 24041 net.cpp:411] ip2 -> ip2
I0520 23:18:44.125408 24041 net.cpp:150] Setting up ip2
I0520 23:18:44.125427 24041 net.cpp:157] Top shape: 420 98 (41160)
I0520 23:18:44.125439 24041 net.cpp:165] Memory required for data: 662724720
I0520 23:18:44.125473 24041 layer_factory.hpp:77] Creating layer relu6
I0520 23:18:44.125496 24041 net.cpp:106] Creating Layer relu6
I0520 23:18:44.125509 24041 net.cpp:454] relu6 <- ip2
I0520 23:18:44.125525 24041 net.cpp:397] relu6 -> ip2 (in-place)
I0520 23:18:44.126094 24041 net.cpp:150] Setting up relu6
I0520 23:18:44.126117 24041 net.cpp:157] Top shape: 420 98 (41160)
I0520 23:18:44.126130 24041 net.cpp:165] Memory required for data: 662889360
I0520 23:18:44.126142 24041 layer_factory.hpp:77] Creating layer drop2
I0520 23:18:44.126163 24041 net.cpp:106] Creating Layer drop2
I0520 23:18:44.126184 24041 net.cpp:454] drop2 <- ip2
I0520 23:18:44.126201 24041 net.cpp:397] drop2 -> ip2 (in-place)
I0520 23:18:44.126260 24041 net.cpp:150] Setting up drop2
I0520 23:18:44.126276 24041 net.cpp:157] Top shape: 420 98 (41160)
I0520 23:18:44.126289 24041 net.cpp:165] Memory required for data: 663054000
I0520 23:18:44.126317 24041 layer_factory.hpp:77] Creating layer ip3
I0520 23:18:44.126335 24041 net.cpp:106] Creating Layer ip3
I0520 23:18:44.126348 24041 net.cpp:454] ip3 <- ip2
I0520 23:18:44.126368 24041 net.cpp:411] ip3 -> ip3
I0520 23:18:44.126621 24041 net.cpp:150] Setting up ip3
I0520 23:18:44.126639 24041 net.cpp:157] Top shape: 420 11 (4620)
I0520 23:18:44.126652 24041 net.cpp:165] Memory required for data: 663072480
I0520 23:18:44.126669 24041 layer_factory.hpp:77] Creating layer drop3
I0520 23:18:44.126688 24041 net.cpp:106] Creating Layer drop3
I0520 23:18:44.126708 24041 net.cpp:454] drop3 <- ip3
I0520 23:18:44.126724 24041 net.cpp:397] drop3 -> ip3 (in-place)
I0520 23:18:44.126777 24041 net.cpp:150] Setting up drop3
I0520 23:18:44.126792 24041 net.cpp:157] Top shape: 420 11 (4620)
I0520 23:18:44.126811 24041 net.cpp:165] Memory required for data: 663090960
I0520 23:18:44.126824 24041 layer_factory.hpp:77] Creating layer ip3_drop3_0_split
I0520 23:18:44.126843 24041 net.cpp:106] Creating Layer ip3_drop3_0_split
I0520 23:18:44.126857 24041 net.cpp:454] ip3_drop3_0_split <- ip3
I0520 23:18:44.126871 24041 net.cpp:411] ip3_drop3_0_split -> ip3_drop3_0_split_0
I0520 23:18:44.126893 24041 net.cpp:411] ip3_drop3_0_split -> ip3_drop3_0_split_1
I0520 23:18:44.126979 24041 net.cpp:150] Setting up ip3_drop3_0_split
I0520 23:18:44.127002 24041 net.cpp:157] Top shape: 420 11 (4620)
I0520 23:18:44.127017 24041 net.cpp:157] Top shape: 420 11 (4620)
I0520 23:18:44.127030 24041 net.cpp:165] Memory required for data: 663127920
I0520 23:18:44.127043 24041 layer_factory.hpp:77] Creating layer accuracy
I0520 23:18:44.127066 24041 net.cpp:106] Creating Layer accuracy
I0520 23:18:44.127086 24041 net.cpp:454] accuracy <- ip3_drop3_0_split_0
I0520 23:18:44.127100 24041 net.cpp:454] accuracy <- label_data_hdf5_1_split_0
I0520 23:18:44.127117 24041 net.cpp:411] accuracy -> accuracy
…
