…
I0521 08:40:24.122004 27336 net.cpp:322] The NetState phase (0) differed from the phase (1) specified by a rule in layer data_hdf5
I0521 08:40:24.122063 27336 net.cpp:322] The NetState phase (0) differed from the phase (1) specified by a rule in layer accuracy
I0521 08:40:24.122406 27336 net.cpp:49] Initializing net from parameters: 
name: "caffe_test_127x50_x_unshifted"
state {
  phase: TRAIN
}
layer {
  name: "data_hdf5"
  type: "HDF5Data"
  top: "data"
  top: "label"
  include {
    phase: TRAIN
  }
  hdf5_data_param {
    source: "/lustre/atlas/proj-shared/hep105/caffe_titan/minosmatch_nukecczdefs_127x50_x_unshifted_me1Bmc.trainlist"
    batch_size: 860
  }
}
layer {
  name: "conv1"
  type: "Convolution"
  bottom: "data"
  top: "conv1"
  convolution_param {
    num_output: 12
    pad: 0
    stride: 1
    weight_filler {
      type: "xavier"
    }
    bias_filler {
      type: "constant"
    }
    kernel_h: 8
    kernel_w: 3
  }
}
layer {
  name: "relu1"
  type: "ReLU"
  bottom: "conv1"
  top: "conv1"
}
layer {
  name: "pool1"
  type: "Pooling"
  bottom: "conv1"
  top: "pool1"
  pooling_param {
    pool: MAX
    kernel_h: 2
    kernel_w: 1
    stride_h: 2
    stride_w: 1
  }
}
layer {
  name: "conv2"
  type: "Convolution"
  bottom: "pool1"
  top: "conv2"
  convolution_param {
    num_output: 20
    pad: 0
    stride: 1
    weight_filler {
      type: "xavier"
    }
    bias_filler {
      type: "constant"
    }
    kernel_h: 7
    kernel_w: 3
  }
}
layer {
  name: "relu2"
  type: "ReLU"
  bottom: "conv2"
  top: "conv2"
}
layer {
  name: "pool2"
  type: "Pooling"
  bottom: "conv2"
  top: "pool2"
  pooling_param {
    pool: MAX
    kernel_h: 2
    kernel_w: 1
    stride_h: 2
    stride_w: 1
  }
}
layer {
  name: "conv3"
  type: "Convolution"
  bottom: "pool2"
  top: "conv3"
  convolution_param {
    num_output: 28
    pad: 0
    stride: 1
    weight_filler {
      type: "xavier"
    }
    bias_filler {
      type: "constant"
    }
    kernel_h: 6
    kernel_w: 3
  }
}
layer {
  name: "relu3"
  type: "ReLU"
  bottom: "conv3"
  top: "conv3"
}
layer {
  name: "pool3"
  type: "Pooling"
  bottom: "conv3"
  top: "pool3"
  pooling_param {
    pool: MAX
    kernel_h: 2
    kernel_w: 1
    stride_h: 2
    stride_w: 1
  }
}
layer {
  name: "conv4"
  type: "Convolution"
  bottom: "pool3"
  top: "conv4"
  convolution_param {
    num_output: 36
    pad: 0
    stride: 1
    weight_filler {
      type: "xavier"
    }
    bias_filler {
      type: "constant"
    }
    kernel_h: 6
    kernel_w: 3
  }
}
layer {
  name: "relu4"
  type: "ReLU"
  bottom: "conv4"
  top: "conv4"
}
layer {
  name: "pool4"
  type: "Pooling"
  bottom: "conv4"
  top: "pool4"
  pooling_param {
    pool: MAX
    kernel_h: 2
    kernel_w: 1
    stride_h: 2
    stride_w: 1
  }
}
layer {
  name: "ip1"
  type: "InnerProduct"
  bottom: "pool4"
  top: "ip1"
  inner_product_param {
    num_output: 196
    weight_filler {
      type: "xavier"
    }
    bias_filler {
      type: "constant"
    }
  }
}
layer {
  name: "relu5"
  type: "ReLU"
  bottom: "ip1"
  top: "ip1"
}
layer {
  name: "drop1"
  type: "Dropout"
  bottom: "ip1"
  top: "ip1"
  dropout_param {
    dropout_ratio: 0.5
  }
}
layer {
  name: "ip2"
  type: "InnerProduct"
  bottom: "ip1"
  top: "ip2"
  inner_product_param {
    num_output: 98
    weight_filler {
      type: "xavier"
    }
    bias_filler {
      type: "constant"
    }
  }
}
layer {
  name: "relu6"
  type: "ReLU"
  bottom: "ip2"
  top: "ip2"
}
layer {
  name: "drop2"
  type: "Dropout"
  bottom: "ip2"
  top: "ip2"
  dropout_param {
    dropout_ratio: 0.5
  }
}
layer {
  name: "ip3"
  type: "InnerProduct"
  bottom: "ip2"
  top: "ip3"
  inner_product_param {
    num_output: 11
    weight_filler {
      type: "xavier"
    }
    bias_filler {
      type: "constant"
    }
  }
}
layer {
  name: "drop3"
  type: "Dropout"
  bottom: "ip3"
  top: "ip3"
  dropout_param {
    dropout_ratio: 0.5
  }
}
layer {
  name: "loss"
  type: "SoftmaxWithLoss"
  bottom: "ip3"
  bottom: "label"
  top: "loss"
}
I0521 08:40:24.122586 27336 layer_factory.hpp:77] Creating layer data_hdf5
I0521 08:40:24.122609 27336 net.cpp:106] Creating Layer data_hdf5
I0521 08:40:24.122623 27336 net.cpp:411] data_hdf5 -> data
I0521 08:40:24.122658 27336 net.cpp:411] data_hdf5 -> label
I0521 08:40:24.122690 27336 hdf5_data_layer.cpp:79] Loading list of HDF5 filenames from: /lustre/atlas/proj-shared/hep105/caffe_titan/minosmatch_nukecczdefs_127x50_x_unshifted_me1Bmc.trainlist
I0521 08:40:24.123906 27336 hdf5_data_layer.cpp:93] Number of HDF5 files: 15
I0521 08:40:24.126102 27336 hdf5.cpp:32] Datatype class: H5T_FLOAT
I0521 08:40:45.674990 27336 hdf5.cpp:35] Datatype class: H5T_INTEGER
I0521 08:40:45.680115 27336 net.cpp:150] Setting up data_hdf5
I0521 08:40:45.680160 27336 net.cpp:157] Top shape: 860 1 127 50 (5461000)
I0521 08:40:45.680176 27336 net.cpp:157] Top shape: 860 (860)
I0521 08:40:45.680186 27336 net.cpp:165] Memory required for data: 21847440
I0521 08:40:45.680198 27336 layer_factory.hpp:77] Creating layer conv1
I0521 08:40:45.680233 27336 net.cpp:106] Creating Layer conv1
I0521 08:40:45.680244 27336 net.cpp:454] conv1 <- data
I0521 08:40:45.680268 27336 net.cpp:411] conv1 -> conv1
I0521 08:40:46.040122 27336 net.cpp:150] Setting up conv1
I0521 08:40:46.040171 27336 net.cpp:157] Top shape: 860 12 120 48 (59443200)
I0521 08:40:46.040182 27336 net.cpp:165] Memory required for data: 259620240
I0521 08:40:46.040210 27336 layer_factory.hpp:77] Creating layer relu1
I0521 08:40:46.040232 27336 net.cpp:106] Creating Layer relu1
I0521 08:40:46.040243 27336 net.cpp:454] relu1 <- conv1
I0521 08:40:46.040257 27336 net.cpp:397] relu1 -> conv1 (in-place)
I0521 08:40:46.040777 27336 net.cpp:150] Setting up relu1
I0521 08:40:46.040794 27336 net.cpp:157] Top shape: 860 12 120 48 (59443200)
I0521 08:40:46.040805 27336 net.cpp:165] Memory required for data: 497393040
I0521 08:40:46.040815 27336 layer_factory.hpp:77] Creating layer pool1
I0521 08:40:46.040832 27336 net.cpp:106] Creating Layer pool1
I0521 08:40:46.040841 27336 net.cpp:454] pool1 <- conv1
I0521 08:40:46.040854 27336 net.cpp:411] pool1 -> pool1
I0521 08:40:46.040935 27336 net.cpp:150] Setting up pool1
I0521 08:40:46.040951 27336 net.cpp:157] Top shape: 860 12 60 48 (29721600)
I0521 08:40:46.040961 27336 net.cpp:165] Memory required for data: 616279440
I0521 08:40:46.040971 27336 layer_factory.hpp:77] Creating layer conv2
I0521 08:40:46.040993 27336 net.cpp:106] Creating Layer conv2
I0521 08:40:46.041004 27336 net.cpp:454] conv2 <- pool1
I0521 08:40:46.041018 27336 net.cpp:411] conv2 -> conv2
I0521 08:40:46.043689 27336 net.cpp:150] Setting up conv2
I0521 08:40:46.043718 27336 net.cpp:157] Top shape: 860 20 54 46 (42724800)
I0521 08:40:46.043728 27336 net.cpp:165] Memory required for data: 787178640
I0521 08:40:46.043748 27336 layer_factory.hpp:77] Creating layer relu2
I0521 08:40:46.043762 27336 net.cpp:106] Creating Layer relu2
I0521 08:40:46.043772 27336 net.cpp:454] relu2 <- conv2
I0521 08:40:46.043786 27336 net.cpp:397] relu2 -> conv2 (in-place)
I0521 08:40:46.044126 27336 net.cpp:150] Setting up relu2
I0521 08:40:46.044139 27336 net.cpp:157] Top shape: 860 20 54 46 (42724800)
I0521 08:40:46.044150 27336 net.cpp:165] Memory required for data: 958077840
I0521 08:40:46.044160 27336 layer_factory.hpp:77] Creating layer pool2
I0521 08:40:46.044173 27336 net.cpp:106] Creating Layer pool2
I0521 08:40:46.044183 27336 net.cpp:454] pool2 <- conv2
I0521 08:40:46.044210 27336 net.cpp:411] pool2 -> pool2
I0521 08:40:46.044280 27336 net.cpp:150] Setting up pool2
I0521 08:40:46.044292 27336 net.cpp:157] Top shape: 860 20 27 46 (21362400)
I0521 08:40:46.044303 27336 net.cpp:165] Memory required for data: 1043527440
I0521 08:40:46.044311 27336 layer_factory.hpp:77] Creating layer conv3
I0521 08:40:46.044329 27336 net.cpp:106] Creating Layer conv3
I0521 08:40:46.044340 27336 net.cpp:454] conv3 <- pool2
I0521 08:40:46.044354 27336 net.cpp:411] conv3 -> conv3
I0521 08:40:46.046283 27336 net.cpp:150] Setting up conv3
I0521 08:40:46.046300 27336 net.cpp:157] Top shape: 860 28 22 44 (23309440)
I0521 08:40:46.046313 27336 net.cpp:165] Memory required for data: 1136765200
I0521 08:40:46.046331 27336 layer_factory.hpp:77] Creating layer relu3
I0521 08:40:46.046347 27336 net.cpp:106] Creating Layer relu3
I0521 08:40:46.046357 27336 net.cpp:454] relu3 <- conv3
I0521 08:40:46.046370 27336 net.cpp:397] relu3 -> conv3 (in-place)
I0521 08:40:46.046840 27336 net.cpp:150] Setting up relu3
I0521 08:40:46.046857 27336 net.cpp:157] Top shape: 860 28 22 44 (23309440)
I0521 08:40:46.046867 27336 net.cpp:165] Memory required for data: 1230002960
I0521 08:40:46.046878 27336 layer_factory.hpp:77] Creating layer pool3
I0521 08:40:46.046891 27336 net.cpp:106] Creating Layer pool3
I0521 08:40:46.046900 27336 net.cpp:454] pool3 <- conv3
I0521 08:40:46.046913 27336 net.cpp:411] pool3 -> pool3
I0521 08:40:46.046980 27336 net.cpp:150] Setting up pool3
I0521 08:40:46.046993 27336 net.cpp:157] Top shape: 860 28 11 44 (11654720)
I0521 08:40:46.047003 27336 net.cpp:165] Memory required for data: 1276621840
I0521 08:40:46.047013 27336 layer_factory.hpp:77] Creating layer conv4
I0521 08:40:46.047029 27336 net.cpp:106] Creating Layer conv4
I0521 08:40:46.047039 27336 net.cpp:454] conv4 <- pool3
I0521 08:40:46.047052 27336 net.cpp:411] conv4 -> conv4
I0521 08:40:46.049768 27336 net.cpp:150] Setting up conv4
I0521 08:40:46.049795 27336 net.cpp:157] Top shape: 860 36 6 42 (7801920)
I0521 08:40:46.049806 27336 net.cpp:165] Memory required for data: 1307829520
I0521 08:40:46.049823 27336 layer_factory.hpp:77] Creating layer relu4
I0521 08:40:46.049836 27336 net.cpp:106] Creating Layer relu4
I0521 08:40:46.049846 27336 net.cpp:454] relu4 <- conv4
I0521 08:40:46.049860 27336 net.cpp:397] relu4 -> conv4 (in-place)
I0521 08:40:46.050323 27336 net.cpp:150] Setting up relu4
I0521 08:40:46.050339 27336 net.cpp:157] Top shape: 860 36 6 42 (7801920)
I0521 08:40:46.050349 27336 net.cpp:165] Memory required for data: 1339037200
I0521 08:40:46.050359 27336 layer_factory.hpp:77] Creating layer pool4
I0521 08:40:46.050372 27336 net.cpp:106] Creating Layer pool4
I0521 08:40:46.050382 27336 net.cpp:454] pool4 <- conv4
I0521 08:40:46.050395 27336 net.cpp:411] pool4 -> pool4
I0521 08:40:46.050463 27336 net.cpp:150] Setting up pool4
I0521 08:40:46.050477 27336 net.cpp:157] Top shape: 860 36 3 42 (3900960)
I0521 08:40:46.050488 27336 net.cpp:165] Memory required for data: 1354641040
I0521 08:40:46.050498 27336 layer_factory.hpp:77] Creating layer ip1
I0521 08:40:46.050518 27336 net.cpp:106] Creating Layer ip1
I0521 08:40:46.050529 27336 net.cpp:454] ip1 <- pool4
I0521 08:40:46.050541 27336 net.cpp:411] ip1 -> ip1
I0521 08:40:46.066018 27336 net.cpp:150] Setting up ip1
I0521 08:40:46.066042 27336 net.cpp:157] Top shape: 860 196 (168560)
I0521 08:40:46.066054 27336 net.cpp:165] Memory required for data: 1355315280
I0521 08:40:46.066076 27336 layer_factory.hpp:77] Creating layer relu5
I0521 08:40:46.066092 27336 net.cpp:106] Creating Layer relu5
I0521 08:40:46.066102 27336 net.cpp:454] relu5 <- ip1
I0521 08:40:46.066114 27336 net.cpp:397] relu5 -> ip1 (in-place)
I0521 08:40:46.066457 27336 net.cpp:150] Setting up relu5
I0521 08:40:46.066471 27336 net.cpp:157] Top shape: 860 196 (168560)
I0521 08:40:46.066483 27336 net.cpp:165] Memory required for data: 1355989520
I0521 08:40:46.066493 27336 layer_factory.hpp:77] Creating layer drop1
I0521 08:40:46.066514 27336 net.cpp:106] Creating Layer drop1
I0521 08:40:46.066524 27336 net.cpp:454] drop1 <- ip1
I0521 08:40:46.066548 27336 net.cpp:397] drop1 -> ip1 (in-place)
I0521 08:40:46.066596 27336 net.cpp:150] Setting up drop1
I0521 08:40:46.066608 27336 net.cpp:157] Top shape: 860 196 (168560)
I0521 08:40:46.066618 27336 net.cpp:165] Memory required for data: 1356663760
I0521 08:40:46.066628 27336 layer_factory.hpp:77] Creating layer ip2
I0521 08:40:46.066647 27336 net.cpp:106] Creating Layer ip2
I0521 08:40:46.066658 27336 net.cpp:454] ip2 <- ip1
I0521 08:40:46.066670 27336 net.cpp:411] ip2 -> ip2
I0521 08:40:46.067137 27336 net.cpp:150] Setting up ip2
I0521 08:40:46.067149 27336 net.cpp:157] Top shape: 860 98 (84280)
I0521 08:40:46.067159 27336 net.cpp:165] Memory required for data: 1357000880
I0521 08:40:46.067174 27336 layer_factory.hpp:77] Creating layer relu6
I0521 08:40:46.067186 27336 net.cpp:106] Creating Layer relu6
I0521 08:40:46.067196 27336 net.cpp:454] relu6 <- ip2
I0521 08:40:46.067209 27336 net.cpp:397] relu6 -> ip2 (in-place)
I0521 08:40:46.067723 27336 net.cpp:150] Setting up relu6
I0521 08:40:46.067739 27336 net.cpp:157] Top shape: 860 98 (84280)
I0521 08:40:46.067750 27336 net.cpp:165] Memory required for data: 1357338000
I0521 08:40:46.067760 27336 layer_factory.hpp:77] Creating layer drop2
I0521 08:40:46.067773 27336 net.cpp:106] Creating Layer drop2
I0521 08:40:46.067783 27336 net.cpp:454] drop2 <- ip2
I0521 08:40:46.067795 27336 net.cpp:397] drop2 -> ip2 (in-place)
I0521 08:40:46.067837 27336 net.cpp:150] Setting up drop2
I0521 08:40:46.067850 27336 net.cpp:157] Top shape: 860 98 (84280)
I0521 08:40:46.067860 27336 net.cpp:165] Memory required for data: 1357675120
I0521 08:40:46.067870 27336 layer_factory.hpp:77] Creating layer ip3
I0521 08:40:46.067884 27336 net.cpp:106] Creating Layer ip3
I0521 08:40:46.067894 27336 net.cpp:454] ip3 <- ip2
I0521 08:40:46.067908 27336 net.cpp:411] ip3 -> ip3
I0521 08:40:46.068127 27336 net.cpp:150] Setting up ip3
I0521 08:40:46.068140 27336 net.cpp:157] Top shape: 860 11 (9460)
I0521 08:40:46.068150 27336 net.cpp:165] Memory required for data: 1357712960
I0521 08:40:46.068166 27336 layer_factory.hpp:77] Creating layer drop3
I0521 08:40:46.068178 27336 net.cpp:106] Creating Layer drop3
I0521 08:40:46.068188 27336 net.cpp:454] drop3 <- ip3
I0521 08:40:46.068199 27336 net.cpp:397] drop3 -> ip3 (in-place)
I0521 08:40:46.068238 27336 net.cpp:150] Setting up drop3
I0521 08:40:46.068251 27336 net.cpp:157] Top shape: 860 11 (9460)
I0521 08:40:46.068260 27336 net.cpp:165] Memory required for data: 1357750800
I0521 08:40:46.068271 27336 layer_factory.hpp:77] Creating layer loss
I0521 08:40:46.068289 27336 net.cpp:106] Creating Layer loss
I0521 08:40:46.068300 27336 net.cpp:454] loss <- ip3
I0521 08:40:46.068310 27336 net.cpp:454] loss <- label
I0521 08:40:46.068322 27336 net.cpp:411] loss -> loss
I0521 08:40:46.068339 27336 layer_factory.hpp:77] Creating layer loss
…
I0521 08:40:46.070911 27336 solver.cpp:181] Creating test net (#0) specified by net file: /lustre/atlas/proj-shared/hep105/caffe_titan/caffe_workflow/logs_batch_size_test/batch_size_860_2016-05-20T11.21.04.079492.prototxt
I0521 08:40:46.070983 27336 net.cpp:322] The NetState phase (1) differed from the phase (0) specified by a rule in layer data_hdf5
I0521 08:40:46.071337 27336 net.cpp:49] Initializing net from parameters: 
name: "caffe_test_127x50_x_unshifted"
state {
  phase: TEST
}
layer {
  name: "data_hdf5"
  type: "HDF5Data"
  top: "data"
  top: "label"
  include {
    phase: TEST
  }
  hdf5_data_param {
    source: "/lustre/atlas/proj-shared/hep105/caffe_titan/minosmatch_nukecczdefs_127x50_x_unshifted_me1Bmc.testlist"
    batch_size: 860
  }
}
layer {
  name: "conv1"
  type: "Convolution"
  bottom: "data"
  top: "conv1"
  convolution_param {
    num_output: 12
    pad: 0
    stride: 1
    weight_filler {
      type: "xavier"
    }
    bias_filler {
      type: "constant"
    }
    kernel_h: 8
    kernel_w: 3
  }
}
layer {
  name: "relu1"
  type: "ReLU"
  bottom: "conv1"
  top: "conv1"
}
layer {
  name: "pool1"
  type: "Pooling"
  bottom: "conv1"
  top: "pool1"
  pooling_param {
    pool: MAX
    kernel_h: 2
    kernel_w: 1
    stride_h: 2
    stride_w: 1
  }
}
layer {
  name: "conv2"
  type: "Convolution"
  bottom: "pool1"
  top: "conv2"
  convolution_param {
    num_output: 20
    pad: 0
    stride: 1
    weight_filler {
      type: "xavier"
    }
    bias_filler {
      type: "constant"
    }
    kernel_h: 7
    kernel_w: 3
  }
}
layer {
  name: "relu2"
  type: "ReLU"
  bottom: "conv2"
  top: "conv2"
}
layer {
  name: "pool2"
  type: "Pooling"
  bottom: "conv2"
  top: "pool2"
  pooling_param {
    pool: MAX
    kernel_h: 2
    kernel_w: 1
    stride_h: 2
    stride_w: 1
  }
}
layer {
  name: "conv3"
  type: "Convolution"
  bottom: "pool2"
  top: "conv3"
  convolution_param {
    num_output: 28
    pad: 0
    stride: 1
    weight_filler {
      type: "xavier"
    }
    bias_filler {
      type: "constant"
    }
    kernel_h: 6
    kernel_w: 3
  }
}
layer {
  name: "relu3"
  type: "ReLU"
  bottom: "conv3"
  top: "conv3"
}
layer {
  name: "pool3"
  type: "Pooling"
  bottom: "conv3"
  top: "pool3"
  pooling_param {
    pool: MAX
    kernel_h: 2
    kernel_w: 1
    stride_h: 2
    stride_w: 1
  }
}
layer {
  name: "conv4"
  type: "Convolution"
  bottom: "pool3"
  top: "conv4"
  convolution_param {
    num_output: 36
    pad: 0
    stride: 1
    weight_filler {
      type: "xavier"
    }
    bias_filler {
      type: "constant"
    }
    kernel_h: 6
    kernel_w: 3
  }
}
layer {
  name: "relu4"
  type: "ReLU"
  bottom: "conv4"
  top: "conv4"
}
layer {
  name: "pool4"
  type: "Pooling"
  bottom: "conv4"
  top: "pool4"
  pooling_param {
    pool: MAX
    kernel_h: 2
    kernel_w: 1
    stride_h: 2
    stride_w: 1
  }
}
layer {
  name: "ip1"
  type: "InnerProduct"
  bottom: "pool4"
  top: "ip1"
  inner_product_param {
    num_output: 196
    weight_filler {
      type: "xavier"
    }
    bias_filler {
      type: "constant"
    }
  }
}
layer {
  name: "relu5"
  type: "ReLU"
  bottom: "ip1"
  top: "ip1"
}
layer {
  name: "drop1"
  type: "Dropout"
  bottom: "ip1"
  top: "ip1"
  dropout_param {
    dropout_ratio: 0.5
  }
}
layer {
  name: "ip2"
  type: "InnerProduct"
  bottom: "ip1"
  top: "ip2"
  inner_product_param {
    num_output: 98
    weight_filler {
      type: "xavier"
    }
    bias_filler {
      type: "constant"
    }
  }
}
layer {
  name: "relu6"
  type: "ReLU"
  bottom: "ip2"
  top: "ip2"
}
layer {
  name: "drop2"
  type: "Dropout"
  bottom: "ip2"
  top: "ip2"
  dropout_param {
    dropout_ratio: 0.5
  }
}
layer {
  name: "ip3"
  type: "InnerProduct"
  bottom: "ip2"
  top: "ip3"
  inner_product_param {
    num_output: 11
    weight_filler {
      type: "xavier"
    }
    bias_filler {
      type: "constant"
    }
  }
}
layer {
  name: "drop3"
  type: "Dropout"
  bottom: "ip3"
  top: "ip3"
  dropout_param {
    dropout_ratio: 0.5
  }
}
layer {
  name: "accuracy"
  type: "Accuracy"
  bottom: "ip3"
  bottom: "label"
  top: "accuracy"
  include {
    phase: TEST
  }
}
layer {
  name: "loss"
  type: "SoftmaxWithLoss"
  bottom: "ip3"
  bottom: "label"
  top: "loss"
}
I0521 08:40:46.071527 27336 layer_factory.hpp:77] Creating layer data_hdf5
I0521 08:40:46.071542 27336 net.cpp:106] Creating Layer data_hdf5
I0521 08:40:46.071554 27336 net.cpp:411] data_hdf5 -> data
I0521 08:40:46.071571 27336 net.cpp:411] data_hdf5 -> label
I0521 08:40:46.071586 27336 hdf5_data_layer.cpp:79] Loading list of HDF5 filenames from: /lustre/atlas/proj-shared/hep105/caffe_titan/minosmatch_nukecczdefs_127x50_x_unshifted_me1Bmc.testlist
I0521 08:40:46.072782 27336 hdf5_data_layer.cpp:93] Number of HDF5 files: 3
I0521 08:41:07.382838 27336 net.cpp:150] Setting up data_hdf5
I0521 08:41:07.383004 27336 net.cpp:157] Top shape: 860 1 127 50 (5461000)
I0521 08:41:07.383019 27336 net.cpp:157] Top shape: 860 (860)
I0521 08:41:07.383029 27336 net.cpp:165] Memory required for data: 21847440
I0521 08:41:07.383044 27336 layer_factory.hpp:77] Creating layer label_data_hdf5_1_split
I0521 08:41:07.383072 27336 net.cpp:106] Creating Layer label_data_hdf5_1_split
I0521 08:41:07.383083 27336 net.cpp:454] label_data_hdf5_1_split <- label
I0521 08:41:07.383098 27336 net.cpp:411] label_data_hdf5_1_split -> label_data_hdf5_1_split_0
I0521 08:41:07.383121 27336 net.cpp:411] label_data_hdf5_1_split -> label_data_hdf5_1_split_1
I0521 08:41:07.383193 27336 net.cpp:150] Setting up label_data_hdf5_1_split
I0521 08:41:07.383208 27336 net.cpp:157] Top shape: 860 (860)
I0521 08:41:07.383219 27336 net.cpp:157] Top shape: 860 (860)
I0521 08:41:07.383229 27336 net.cpp:165] Memory required for data: 21854320
I0521 08:41:07.383239 27336 layer_factory.hpp:77] Creating layer conv1
I0521 08:41:07.383260 27336 net.cpp:106] Creating Layer conv1
I0521 08:41:07.383271 27336 net.cpp:454] conv1 <- data
I0521 08:41:07.383286 27336 net.cpp:411] conv1 -> conv1
I0521 08:41:07.385208 27336 net.cpp:150] Setting up conv1
I0521 08:41:07.385232 27336 net.cpp:157] Top shape: 860 12 120 48 (59443200)
I0521 08:41:07.385244 27336 net.cpp:165] Memory required for data: 259627120
I0521 08:41:07.385264 27336 layer_factory.hpp:77] Creating layer relu1
I0521 08:41:07.385279 27336 net.cpp:106] Creating Layer relu1
I0521 08:41:07.385289 27336 net.cpp:454] relu1 <- conv1
I0521 08:41:07.385303 27336 net.cpp:397] relu1 -> conv1 (in-place)
I0521 08:41:07.385797 27336 net.cpp:150] Setting up relu1
I0521 08:41:07.385813 27336 net.cpp:157] Top shape: 860 12 120 48 (59443200)
I0521 08:41:07.385824 27336 net.cpp:165] Memory required for data: 497399920
I0521 08:41:07.385834 27336 layer_factory.hpp:77] Creating layer pool1
I0521 08:41:07.385850 27336 net.cpp:106] Creating Layer pool1
I0521 08:41:07.385860 27336 net.cpp:454] pool1 <- conv1
I0521 08:41:07.385874 27336 net.cpp:411] pool1 -> pool1
I0521 08:41:07.385946 27336 net.cpp:150] Setting up pool1
I0521 08:41:07.385959 27336 net.cpp:157] Top shape: 860 12 60 48 (29721600)
I0521 08:41:07.385968 27336 net.cpp:165] Memory required for data: 616286320
I0521 08:41:07.385979 27336 layer_factory.hpp:77] Creating layer conv2
I0521 08:41:07.385996 27336 net.cpp:106] Creating Layer conv2
I0521 08:41:07.386008 27336 net.cpp:454] conv2 <- pool1
I0521 08:41:07.386021 27336 net.cpp:411] conv2 -> conv2
I0521 08:41:07.387923 27336 net.cpp:150] Setting up conv2
I0521 08:41:07.387944 27336 net.cpp:157] Top shape: 860 20 54 46 (42724800)
I0521 08:41:07.387958 27336 net.cpp:165] Memory required for data: 787185520
I0521 08:41:07.387975 27336 layer_factory.hpp:77] Creating layer relu2
I0521 08:41:07.387989 27336 net.cpp:106] Creating Layer relu2
I0521 08:41:07.388010 27336 net.cpp:454] relu2 <- conv2
I0521 08:41:07.388022 27336 net.cpp:397] relu2 -> conv2 (in-place)
I0521 08:41:07.388356 27336 net.cpp:150] Setting up relu2
I0521 08:41:07.388370 27336 net.cpp:157] Top shape: 860 20 54 46 (42724800)
I0521 08:41:07.388381 27336 net.cpp:165] Memory required for data: 958084720
I0521 08:41:07.388391 27336 layer_factory.hpp:77] Creating layer pool2
I0521 08:41:07.388404 27336 net.cpp:106] Creating Layer pool2
I0521 08:41:07.388414 27336 net.cpp:454] pool2 <- conv2
I0521 08:41:07.388427 27336 net.cpp:411] pool2 -> pool2
I0521 08:41:07.388499 27336 net.cpp:150] Setting up pool2
I0521 08:41:07.388512 27336 net.cpp:157] Top shape: 860 20 27 46 (21362400)
I0521 08:41:07.388521 27336 net.cpp:165] Memory required for data: 1043534320
I0521 08:41:07.388531 27336 layer_factory.hpp:77] Creating layer conv3
I0521 08:41:07.388551 27336 net.cpp:106] Creating Layer conv3
I0521 08:41:07.388561 27336 net.cpp:454] conv3 <- pool2
I0521 08:41:07.388576 27336 net.cpp:411] conv3 -> conv3
I0521 08:41:07.390553 27336 net.cpp:150] Setting up conv3
I0521 08:41:07.390576 27336 net.cpp:157] Top shape: 860 28 22 44 (23309440)
I0521 08:41:07.390588 27336 net.cpp:165] Memory required for data: 1136772080
I0521 08:41:07.390621 27336 layer_factory.hpp:77] Creating layer relu3
I0521 08:41:07.390635 27336 net.cpp:106] Creating Layer relu3
I0521 08:41:07.390645 27336 net.cpp:454] relu3 <- conv3
I0521 08:41:07.390658 27336 net.cpp:397] relu3 -> conv3 (in-place)
I0521 08:41:07.391129 27336 net.cpp:150] Setting up relu3
I0521 08:41:07.391145 27336 net.cpp:157] Top shape: 860 28 22 44 (23309440)
I0521 08:41:07.391155 27336 net.cpp:165] Memory required for data: 1230009840
I0521 08:41:07.391165 27336 layer_factory.hpp:77] Creating layer pool3
I0521 08:41:07.391178 27336 net.cpp:106] Creating Layer pool3
I0521 08:41:07.391188 27336 net.cpp:454] pool3 <- conv3
I0521 08:41:07.391201 27336 net.cpp:411] pool3 -> pool3
I0521 08:41:07.391274 27336 net.cpp:150] Setting up pool3
I0521 08:41:07.391288 27336 net.cpp:157] Top shape: 860 28 11 44 (11654720)
I0521 08:41:07.391297 27336 net.cpp:165] Memory required for data: 1276628720
I0521 08:41:07.391307 27336 layer_factory.hpp:77] Creating layer conv4
I0521 08:41:07.391324 27336 net.cpp:106] Creating Layer conv4
I0521 08:41:07.391335 27336 net.cpp:454] conv4 <- pool3
I0521 08:41:07.391350 27336 net.cpp:411] conv4 -> conv4
I0521 08:41:07.393404 27336 net.cpp:150] Setting up conv4
I0521 08:41:07.393426 27336 net.cpp:157] Top shape: 860 36 6 42 (7801920)
I0521 08:41:07.393438 27336 net.cpp:165] Memory required for data: 1307836400
I0521 08:41:07.393455 27336 layer_factory.hpp:77] Creating layer relu4
I0521 08:41:07.393467 27336 net.cpp:106] Creating Layer relu4
I0521 08:41:07.393477 27336 net.cpp:454] relu4 <- conv4
I0521 08:41:07.393491 27336 net.cpp:397] relu4 -> conv4 (in-place)
I0521 08:41:07.393960 27336 net.cpp:150] Setting up relu4
I0521 08:41:07.393976 27336 net.cpp:157] Top shape: 860 36 6 42 (7801920)
I0521 08:41:07.393986 27336 net.cpp:165] Memory required for data: 1339044080
I0521 08:41:07.393996 27336 layer_factory.hpp:77] Creating layer pool4
I0521 08:41:07.394009 27336 net.cpp:106] Creating Layer pool4
I0521 08:41:07.394018 27336 net.cpp:454] pool4 <- conv4
I0521 08:41:07.394032 27336 net.cpp:411] pool4 -> pool4
I0521 08:41:07.394104 27336 net.cpp:150] Setting up pool4
I0521 08:41:07.394117 27336 net.cpp:157] Top shape: 860 36 3 42 (3900960)
I0521 08:41:07.394126 27336 net.cpp:165] Memory required for data: 1354647920
I0521 08:41:07.394136 27336 layer_factory.hpp:77] Creating layer ip1
I0521 08:41:07.394151 27336 net.cpp:106] Creating Layer ip1
I0521 08:41:07.394162 27336 net.cpp:454] ip1 <- pool4
I0521 08:41:07.394176 27336 net.cpp:411] ip1 -> ip1
I0521 08:41:07.409700 27336 net.cpp:150] Setting up ip1
I0521 08:41:07.409729 27336 net.cpp:157] Top shape: 860 196 (168560)
I0521 08:41:07.409739 27336 net.cpp:165] Memory required for data: 1355322160
I0521 08:41:07.409762 27336 layer_factory.hpp:77] Creating layer relu5
I0521 08:41:07.409777 27336 net.cpp:106] Creating Layer relu5
I0521 08:41:07.409787 27336 net.cpp:454] relu5 <- ip1
I0521 08:41:07.409804 27336 net.cpp:397] relu5 -> ip1 (in-place)
I0521 08:41:07.410148 27336 net.cpp:150] Setting up relu5
I0521 08:41:07.410162 27336 net.cpp:157] Top shape: 860 196 (168560)
I0521 08:41:07.410172 27336 net.cpp:165] Memory required for data: 1355996400
I0521 08:41:07.410182 27336 layer_factory.hpp:77] Creating layer drop1
I0521 08:41:07.410202 27336 net.cpp:106] Creating Layer drop1
I0521 08:41:07.410212 27336 net.cpp:454] drop1 <- ip1
I0521 08:41:07.410224 27336 net.cpp:397] drop1 -> ip1 (in-place)
I0521 08:41:07.410269 27336 net.cpp:150] Setting up drop1
I0521 08:41:07.410281 27336 net.cpp:157] Top shape: 860 196 (168560)
I0521 08:41:07.410292 27336 net.cpp:165] Memory required for data: 1356670640
I0521 08:41:07.410302 27336 layer_factory.hpp:77] Creating layer ip2
I0521 08:41:07.410316 27336 net.cpp:106] Creating Layer ip2
I0521 08:41:07.410326 27336 net.cpp:454] ip2 <- ip1
I0521 08:41:07.410341 27336 net.cpp:411] ip2 -> ip2
I0521 08:41:07.410823 27336 net.cpp:150] Setting up ip2
I0521 08:41:07.410836 27336 net.cpp:157] Top shape: 860 98 (84280)
I0521 08:41:07.410846 27336 net.cpp:165] Memory required for data: 1357007760
I0521 08:41:07.410876 27336 layer_factory.hpp:77] Creating layer relu6
I0521 08:41:07.410888 27336 net.cpp:106] Creating Layer relu6
I0521 08:41:07.410898 27336 net.cpp:454] relu6 <- ip2
I0521 08:41:07.410912 27336 net.cpp:397] relu6 -> ip2 (in-place)
I0521 08:41:07.411437 27336 net.cpp:150] Setting up relu6
I0521 08:41:07.411459 27336 net.cpp:157] Top shape: 860 98 (84280)
I0521 08:41:07.411468 27336 net.cpp:165] Memory required for data: 1357344880
I0521 08:41:07.411479 27336 layer_factory.hpp:77] Creating layer drop2
I0521 08:41:07.411492 27336 net.cpp:106] Creating Layer drop2
I0521 08:41:07.411502 27336 net.cpp:454] drop2 <- ip2
I0521 08:41:07.411515 27336 net.cpp:397] drop2 -> ip2 (in-place)
I0521 08:41:07.411558 27336 net.cpp:150] Setting up drop2
I0521 08:41:07.411571 27336 net.cpp:157] Top shape: 860 98 (84280)
I0521 08:41:07.411581 27336 net.cpp:165] Memory required for data: 1357682000
I0521 08:41:07.411592 27336 layer_factory.hpp:77] Creating layer ip3
I0521 08:41:07.411605 27336 net.cpp:106] Creating Layer ip3
I0521 08:41:07.411615 27336 net.cpp:454] ip3 <- ip2
I0521 08:41:07.411629 27336 net.cpp:411] ip3 -> ip3
I0521 08:41:07.411852 27336 net.cpp:150] Setting up ip3
I0521 08:41:07.411865 27336 net.cpp:157] Top shape: 860 11 (9460)
I0521 08:41:07.411875 27336 net.cpp:165] Memory required for data: 1357719840
I0521 08:41:07.411891 27336 layer_factory.hpp:77] Creating layer drop3
I0521 08:41:07.411905 27336 net.cpp:106] Creating Layer drop3
I0521 08:41:07.411914 27336 net.cpp:454] drop3 <- ip3
I0521 08:41:07.411926 27336 net.cpp:397] drop3 -> ip3 (in-place)
I0521 08:41:07.411968 27336 net.cpp:150] Setting up drop3
I0521 08:41:07.411981 27336 net.cpp:157] Top shape: 860 11 (9460)
I0521 08:41:07.411998 27336 net.cpp:165] Memory required for data: 1357757680
I0521 08:41:07.412009 27336 layer_factory.hpp:77] Creating layer ip3_drop3_0_split
I0521 08:41:07.412022 27336 net.cpp:106] Creating Layer ip3_drop3_0_split
I0521 08:41:07.412032 27336 net.cpp:454] ip3_drop3_0_split <- ip3
I0521 08:41:07.412045 27336 net.cpp:411] ip3_drop3_0_split -> ip3_drop3_0_split_0
I0521 08:41:07.412060 27336 net.cpp:411] ip3_drop3_0_split -> ip3_drop3_0_split_1
I0521 08:41:07.412133 27336 net.cpp:150] Setting up ip3_drop3_0_split
I0521 08:41:07.412147 27336 net.cpp:157] Top shape: 860 11 (9460)
I0521 08:41:07.412159 27336 net.cpp:157] Top shape: 860 11 (9460)
I0521 08:41:07.412169 27336 net.cpp:165] Memory required for data: 1357833360
I0521 08:41:07.412179 27336 layer_factory.hpp:77] Creating layer accuracy
I0521 08:41:07.412202 27336 net.cpp:106] Creating Layer accuracy
I0521 08:41:07.412212 27336 net.cpp:454] accuracy <- ip3_drop3_0_split_0
I0521 08:41:07.412223 27336 net.cpp:454] accuracy <- label_data_hdf5_1_split_0
I0521 08:41:07.412237 27336 net.cpp:411] accuracy -> accuracy
…
