…
I0521 08:42:28.118176 15209 net.cpp:322] The NetState phase (0) differed from the phase (1) specified by a rule in layer data_hdf5
I0521 08:42:28.118235 15209 net.cpp:322] The NetState phase (0) differed from the phase (1) specified by a rule in layer accuracy
I0521 08:42:28.118578 15209 net.cpp:49] Initializing net from parameters: 
name: "caffe_test_127x50_x_unshifted"
state {
  phase: TRAIN
}
layer {
  name: "data_hdf5"
  type: "HDF5Data"
  top: "data"
  top: "label"
  include {
    phase: TRAIN
  }
  hdf5_data_param {
    source: "/lustre/atlas/proj-shared/hep105/caffe_titan/minosmatch_nukecczdefs_127x50_x_unshifted_me1Bmc.trainlist"
    batch_size: 870
  }
}
layer {
  name: "conv1"
  type: "Convolution"
  bottom: "data"
  top: "conv1"
  convolution_param {
    num_output: 12
    pad: 0
    stride: 1
    weight_filler {
      type: "xavier"
    }
    bias_filler {
      type: "constant"
    }
    kernel_h: 8
    kernel_w: 3
  }
}
layer {
  name: "relu1"
  type: "ReLU"
  bottom: "conv1"
  top: "conv1"
}
layer {
  name: "pool1"
  type: "Pooling"
  bottom: "conv1"
  top: "pool1"
  pooling_param {
    pool: MAX
    kernel_h: 2
    kernel_w: 1
    stride_h: 2
    stride_w: 1
  }
}
layer {
  name: "conv2"
  type: "Convolution"
  bottom: "pool1"
  top: "conv2"
  convolution_param {
    num_output: 20
    pad: 0
    stride: 1
    weight_filler {
      type: "xavier"
    }
    bias_filler {
      type: "constant"
    }
    kernel_h: 7
    kernel_w: 3
  }
}
layer {
  name: "relu2"
  type: "ReLU"
  bottom: "conv2"
  top: "conv2"
}
layer {
  name: "pool2"
  type: "Pooling"
  bottom: "conv2"
  top: "pool2"
  pooling_param {
    pool: MAX
    kernel_h: 2
    kernel_w: 1
    stride_h: 2
    stride_w: 1
  }
}
layer {
  name: "conv3"
  type: "Convolution"
  bottom: "pool2"
  top: "conv3"
  convolution_param {
    num_output: 28
    pad: 0
    stride: 1
    weight_filler {
      type: "xavier"
    }
    bias_filler {
      type: "constant"
    }
    kernel_h: 6
    kernel_w: 3
  }
}
layer {
  name: "relu3"
  type: "ReLU"
  bottom: "conv3"
  top: "conv3"
}
layer {
  name: "pool3"
  type: "Pooling"
  bottom: "conv3"
  top: "pool3"
  pooling_param {
    pool: MAX
    kernel_h: 2
    kernel_w: 1
    stride_h: 2
    stride_w: 1
  }
}
layer {
  name: "conv4"
  type: "Convolution"
  bottom: "pool3"
  top: "conv4"
  convolution_param {
    num_output: 36
    pad: 0
    stride: 1
    weight_filler {
      type: "xavier"
    }
    bias_filler {
      type: "constant"
    }
    kernel_h: 6
    kernel_w: 3
  }
}
layer {
  name: "relu4"
  type: "ReLU"
  bottom: "conv4"
  top: "conv4"
}
layer {
  name: "pool4"
  type: "Pooling"
  bottom: "conv4"
  top: "pool4"
  pooling_param {
    pool: MAX
    kernel_h: 2
    kernel_w: 1
    stride_h: 2
    stride_w: 1
  }
}
layer {
  name: "ip1"
  type: "InnerProduct"
  bottom: "pool4"
  top: "ip1"
  inner_product_param {
    num_output: 196
    weight_filler {
      type: "xavier"
    }
    bias_filler {
      type: "constant"
    }
  }
}
layer {
  name: "relu5"
  type: "ReLU"
  bottom: "ip1"
  top: "ip1"
}
layer {
  name: "drop1"
  type: "Dropout"
  bottom: "ip1"
  top: "ip1"
  dropout_param {
    dropout_ratio: 0.5
  }
}
layer {
  name: "ip2"
  type: "InnerProduct"
  bottom: "ip1"
  top: "ip2"
  inner_product_param {
    num_output: 98
    weight_filler {
      type: "xavier"
    }
    bias_filler {
      type: "constant"
    }
  }
}
layer {
  name: "relu6"
  type: "ReLU"
  bottom: "ip2"
  top: "ip2"
}
layer {
  name: "drop2"
  type: "Dropout"
  bottom: "ip2"
  top: "ip2"
  dropout_param {
    dropout_ratio: 0.5
  }
}
layer {
  name: "ip3"
  type: "InnerProduct"
  bottom: "ip2"
  top: "ip3"
  inner_product_param {
    num_output: 11
    weight_filler {
      type: "xavier"
    }
    bias_filler {
      type: "constant"
    }
  }
}
layer {
  name: "drop3"
  type: "Dropout"
  bottom: "ip3"
  top: "ip3"
  dropout_param {
    dropout_ratio: 0.5
  }
}
layer {
  name: "loss"
  type: "SoftmaxWithLoss"
  bottom: "ip3"
  bottom: "label"
  top: "loss"
}
I0521 08:42:28.118762 15209 layer_factory.hpp:77] Creating layer data_hdf5
I0521 08:42:28.118785 15209 net.cpp:106] Creating Layer data_hdf5
I0521 08:42:28.118799 15209 net.cpp:411] data_hdf5 -> data
I0521 08:42:28.118832 15209 net.cpp:411] data_hdf5 -> label
I0521 08:42:28.118865 15209 hdf5_data_layer.cpp:79] Loading list of HDF5 filenames from: /lustre/atlas/proj-shared/hep105/caffe_titan/minosmatch_nukecczdefs_127x50_x_unshifted_me1Bmc.trainlist
I0521 08:42:28.120096 15209 hdf5_data_layer.cpp:93] Number of HDF5 files: 15
I0521 08:42:28.122298 15209 hdf5.cpp:32] Datatype class: H5T_FLOAT
I0521 08:42:49.650499 15209 hdf5.cpp:35] Datatype class: H5T_INTEGER
I0521 08:42:49.655683 15209 net.cpp:150] Setting up data_hdf5
I0521 08:42:49.655722 15209 net.cpp:157] Top shape: 870 1 127 50 (5524500)
I0521 08:42:49.655736 15209 net.cpp:157] Top shape: 870 (870)
I0521 08:42:49.655750 15209 net.cpp:165] Memory required for data: 22101480
I0521 08:42:49.655762 15209 layer_factory.hpp:77] Creating layer conv1
I0521 08:42:49.655797 15209 net.cpp:106] Creating Layer conv1
I0521 08:42:49.655807 15209 net.cpp:454] conv1 <- data
I0521 08:42:49.655829 15209 net.cpp:411] conv1 -> conv1
I0521 08:42:50.016330 15209 net.cpp:150] Setting up conv1
I0521 08:42:50.016377 15209 net.cpp:157] Top shape: 870 12 120 48 (60134400)
I0521 08:42:50.016388 15209 net.cpp:165] Memory required for data: 262639080
I0521 08:42:50.016417 15209 layer_factory.hpp:77] Creating layer relu1
I0521 08:42:50.016438 15209 net.cpp:106] Creating Layer relu1
I0521 08:42:50.016448 15209 net.cpp:454] relu1 <- conv1
I0521 08:42:50.016463 15209 net.cpp:397] relu1 -> conv1 (in-place)
I0521 08:42:50.016986 15209 net.cpp:150] Setting up relu1
I0521 08:42:50.017004 15209 net.cpp:157] Top shape: 870 12 120 48 (60134400)
I0521 08:42:50.017014 15209 net.cpp:165] Memory required for data: 503176680
I0521 08:42:50.017024 15209 layer_factory.hpp:77] Creating layer pool1
I0521 08:42:50.017040 15209 net.cpp:106] Creating Layer pool1
I0521 08:42:50.017050 15209 net.cpp:454] pool1 <- conv1
I0521 08:42:50.017063 15209 net.cpp:411] pool1 -> pool1
I0521 08:42:50.017143 15209 net.cpp:150] Setting up pool1
I0521 08:42:50.017156 15209 net.cpp:157] Top shape: 870 12 60 48 (30067200)
I0521 08:42:50.017166 15209 net.cpp:165] Memory required for data: 623445480
I0521 08:42:50.017176 15209 layer_factory.hpp:77] Creating layer conv2
I0521 08:42:50.017197 15209 net.cpp:106] Creating Layer conv2
I0521 08:42:50.017207 15209 net.cpp:454] conv2 <- pool1
I0521 08:42:50.017220 15209 net.cpp:411] conv2 -> conv2
I0521 08:42:50.019893 15209 net.cpp:150] Setting up conv2
I0521 08:42:50.019922 15209 net.cpp:157] Top shape: 870 20 54 46 (43221600)
I0521 08:42:50.019932 15209 net.cpp:165] Memory required for data: 796331880
I0521 08:42:50.019950 15209 layer_factory.hpp:77] Creating layer relu2
I0521 08:42:50.019964 15209 net.cpp:106] Creating Layer relu2
I0521 08:42:50.019974 15209 net.cpp:454] relu2 <- conv2
I0521 08:42:50.019987 15209 net.cpp:397] relu2 -> conv2 (in-place)
I0521 08:42:50.020318 15209 net.cpp:150] Setting up relu2
I0521 08:42:50.020333 15209 net.cpp:157] Top shape: 870 20 54 46 (43221600)
I0521 08:42:50.020344 15209 net.cpp:165] Memory required for data: 969218280
I0521 08:42:50.020354 15209 layer_factory.hpp:77] Creating layer pool2
I0521 08:42:50.020366 15209 net.cpp:106] Creating Layer pool2
I0521 08:42:50.020376 15209 net.cpp:454] pool2 <- conv2
I0521 08:42:50.020401 15209 net.cpp:411] pool2 -> pool2
I0521 08:42:50.020470 15209 net.cpp:150] Setting up pool2
I0521 08:42:50.020484 15209 net.cpp:157] Top shape: 870 20 27 46 (21610800)
I0521 08:42:50.020493 15209 net.cpp:165] Memory required for data: 1055661480
I0521 08:42:50.020503 15209 layer_factory.hpp:77] Creating layer conv3
I0521 08:42:50.020521 15209 net.cpp:106] Creating Layer conv3
I0521 08:42:50.020534 15209 net.cpp:454] conv3 <- pool2
I0521 08:42:50.020557 15209 net.cpp:411] conv3 -> conv3
I0521 08:42:50.022466 15209 net.cpp:150] Setting up conv3
I0521 08:42:50.022485 15209 net.cpp:157] Top shape: 870 28 22 44 (23580480)
I0521 08:42:50.022495 15209 net.cpp:165] Memory required for data: 1149983400
I0521 08:42:50.022513 15209 layer_factory.hpp:77] Creating layer relu3
I0521 08:42:50.022529 15209 net.cpp:106] Creating Layer relu3
I0521 08:42:50.022539 15209 net.cpp:454] relu3 <- conv3
I0521 08:42:50.022552 15209 net.cpp:397] relu3 -> conv3 (in-place)
I0521 08:42:50.023017 15209 net.cpp:150] Setting up relu3
I0521 08:42:50.023035 15209 net.cpp:157] Top shape: 870 28 22 44 (23580480)
I0521 08:42:50.023046 15209 net.cpp:165] Memory required for data: 1244305320
I0521 08:42:50.023056 15209 layer_factory.hpp:77] Creating layer pool3
I0521 08:42:50.023068 15209 net.cpp:106] Creating Layer pool3
I0521 08:42:50.023078 15209 net.cpp:454] pool3 <- conv3
I0521 08:42:50.023090 15209 net.cpp:411] pool3 -> pool3
I0521 08:42:50.023159 15209 net.cpp:150] Setting up pool3
I0521 08:42:50.023172 15209 net.cpp:157] Top shape: 870 28 11 44 (11790240)
I0521 08:42:50.023182 15209 net.cpp:165] Memory required for data: 1291466280
I0521 08:42:50.023191 15209 layer_factory.hpp:77] Creating layer conv4
I0521 08:42:50.023210 15209 net.cpp:106] Creating Layer conv4
I0521 08:42:50.023219 15209 net.cpp:454] conv4 <- pool3
I0521 08:42:50.023233 15209 net.cpp:411] conv4 -> conv4
I0521 08:42:50.025959 15209 net.cpp:150] Setting up conv4
I0521 08:42:50.025987 15209 net.cpp:157] Top shape: 870 36 6 42 (7892640)
I0521 08:42:50.025998 15209 net.cpp:165] Memory required for data: 1323036840
I0521 08:42:50.026013 15209 layer_factory.hpp:77] Creating layer relu4
I0521 08:42:50.026027 15209 net.cpp:106] Creating Layer relu4
I0521 08:42:50.026037 15209 net.cpp:454] relu4 <- conv4
I0521 08:42:50.026051 15209 net.cpp:397] relu4 -> conv4 (in-place)
I0521 08:42:50.026515 15209 net.cpp:150] Setting up relu4
I0521 08:42:50.026531 15209 net.cpp:157] Top shape: 870 36 6 42 (7892640)
I0521 08:42:50.026542 15209 net.cpp:165] Memory required for data: 1354607400
I0521 08:42:50.026552 15209 layer_factory.hpp:77] Creating layer pool4
I0521 08:42:50.026564 15209 net.cpp:106] Creating Layer pool4
I0521 08:42:50.026574 15209 net.cpp:454] pool4 <- conv4
I0521 08:42:50.026587 15209 net.cpp:411] pool4 -> pool4
I0521 08:42:50.026656 15209 net.cpp:150] Setting up pool4
I0521 08:42:50.026669 15209 net.cpp:157] Top shape: 870 36 3 42 (3946320)
I0521 08:42:50.026680 15209 net.cpp:165] Memory required for data: 1370392680
I0521 08:42:50.026690 15209 layer_factory.hpp:77] Creating layer ip1
I0521 08:42:50.026711 15209 net.cpp:106] Creating Layer ip1
I0521 08:42:50.026722 15209 net.cpp:454] ip1 <- pool4
I0521 08:42:50.026734 15209 net.cpp:411] ip1 -> ip1
I0521 08:42:50.042145 15209 net.cpp:150] Setting up ip1
I0521 08:42:50.042174 15209 net.cpp:157] Top shape: 870 196 (170520)
I0521 08:42:50.042187 15209 net.cpp:165] Memory required for data: 1371074760
I0521 08:42:50.042209 15209 layer_factory.hpp:77] Creating layer relu5
I0521 08:42:50.042223 15209 net.cpp:106] Creating Layer relu5
I0521 08:42:50.042234 15209 net.cpp:454] relu5 <- ip1
I0521 08:42:50.042248 15209 net.cpp:397] relu5 -> ip1 (in-place)
I0521 08:42:50.042589 15209 net.cpp:150] Setting up relu5
I0521 08:42:50.042604 15209 net.cpp:157] Top shape: 870 196 (170520)
I0521 08:42:50.042615 15209 net.cpp:165] Memory required for data: 1371756840
I0521 08:42:50.042625 15209 layer_factory.hpp:77] Creating layer drop1
I0521 08:42:50.042646 15209 net.cpp:106] Creating Layer drop1
I0521 08:42:50.042656 15209 net.cpp:454] drop1 <- ip1
I0521 08:42:50.042681 15209 net.cpp:397] drop1 -> ip1 (in-place)
I0521 08:42:50.042728 15209 net.cpp:150] Setting up drop1
I0521 08:42:50.042742 15209 net.cpp:157] Top shape: 870 196 (170520)
I0521 08:42:50.042752 15209 net.cpp:165] Memory required for data: 1372438920
I0521 08:42:50.042762 15209 layer_factory.hpp:77] Creating layer ip2
I0521 08:42:50.042780 15209 net.cpp:106] Creating Layer ip2
I0521 08:42:50.042791 15209 net.cpp:454] ip2 <- ip1
I0521 08:42:50.042804 15209 net.cpp:411] ip2 -> ip2
I0521 08:42:50.043269 15209 net.cpp:150] Setting up ip2
I0521 08:42:50.043282 15209 net.cpp:157] Top shape: 870 98 (85260)
I0521 08:42:50.043292 15209 net.cpp:165] Memory required for data: 1372779960
I0521 08:42:50.043308 15209 layer_factory.hpp:77] Creating layer relu6
I0521 08:42:50.043320 15209 net.cpp:106] Creating Layer relu6
I0521 08:42:50.043330 15209 net.cpp:454] relu6 <- ip2
I0521 08:42:50.043341 15209 net.cpp:397] relu6 -> ip2 (in-place)
I0521 08:42:50.043859 15209 net.cpp:150] Setting up relu6
I0521 08:42:50.043874 15209 net.cpp:157] Top shape: 870 98 (85260)
I0521 08:42:50.043885 15209 net.cpp:165] Memory required for data: 1373121000
I0521 08:42:50.043895 15209 layer_factory.hpp:77] Creating layer drop2
I0521 08:42:50.043908 15209 net.cpp:106] Creating Layer drop2
I0521 08:42:50.043917 15209 net.cpp:454] drop2 <- ip2
I0521 08:42:50.043931 15209 net.cpp:397] drop2 -> ip2 (in-place)
I0521 08:42:50.043972 15209 net.cpp:150] Setting up drop2
I0521 08:42:50.043987 15209 net.cpp:157] Top shape: 870 98 (85260)
I0521 08:42:50.043997 15209 net.cpp:165] Memory required for data: 1373462040
I0521 08:42:50.044006 15209 layer_factory.hpp:77] Creating layer ip3
I0521 08:42:50.044020 15209 net.cpp:106] Creating Layer ip3
I0521 08:42:50.044029 15209 net.cpp:454] ip3 <- ip2
I0521 08:42:50.044042 15209 net.cpp:411] ip3 -> ip3
I0521 08:42:50.044252 15209 net.cpp:150] Setting up ip3
I0521 08:42:50.044265 15209 net.cpp:157] Top shape: 870 11 (9570)
I0521 08:42:50.044275 15209 net.cpp:165] Memory required for data: 1373500320
I0521 08:42:50.044291 15209 layer_factory.hpp:77] Creating layer drop3
I0521 08:42:50.044303 15209 net.cpp:106] Creating Layer drop3
I0521 08:42:50.044313 15209 net.cpp:454] drop3 <- ip3
I0521 08:42:50.044324 15209 net.cpp:397] drop3 -> ip3 (in-place)
I0521 08:42:50.044363 15209 net.cpp:150] Setting up drop3
I0521 08:42:50.044376 15209 net.cpp:157] Top shape: 870 11 (9570)
I0521 08:42:50.044386 15209 net.cpp:165] Memory required for data: 1373538600
I0521 08:42:50.044396 15209 layer_factory.hpp:77] Creating layer loss
I0521 08:42:50.044415 15209 net.cpp:106] Creating Layer loss
I0521 08:42:50.044425 15209 net.cpp:454] loss <- ip3
I0521 08:42:50.044436 15209 net.cpp:454] loss <- label
I0521 08:42:50.044448 15209 net.cpp:411] loss -> loss
I0521 08:42:50.044466 15209 layer_factory.hpp:77] Creating layer loss
…
I0521 08:42:50.047055 15209 solver.cpp:181] Creating test net (#0) specified by net file: /lustre/atlas/proj-shared/hep105/caffe_titan/caffe_workflow/logs_batch_size_test/batch_size_870_2016-05-20T11.21.04.451556.prototxt
I0521 08:42:50.047124 15209 net.cpp:322] The NetState phase (1) differed from the phase (0) specified by a rule in layer data_hdf5
I0521 08:42:50.047478 15209 net.cpp:49] Initializing net from parameters: 
name: "caffe_test_127x50_x_unshifted"
state {
  phase: TEST
}
layer {
  name: "data_hdf5"
  type: "HDF5Data"
  top: "data"
  top: "label"
  include {
    phase: TEST
  }
  hdf5_data_param {
    source: "/lustre/atlas/proj-shared/hep105/caffe_titan/minosmatch_nukecczdefs_127x50_x_unshifted_me1Bmc.testlist"
    batch_size: 870
  }
}
layer {
  name: "conv1"
  type: "Convolution"
  bottom: "data"
  top: "conv1"
  convolution_param {
    num_output: 12
    pad: 0
    stride: 1
    weight_filler {
      type: "xavier"
    }
    bias_filler {
      type: "constant"
    }
    kernel_h: 8
    kernel_w: 3
  }
}
layer {
  name: "relu1"
  type: "ReLU"
  bottom: "conv1"
  top: "conv1"
}
layer {
  name: "pool1"
  type: "Pooling"
  bottom: "conv1"
  top: "pool1"
  pooling_param {
    pool: MAX
    kernel_h: 2
    kernel_w: 1
    stride_h: 2
    stride_w: 1
  }
}
layer {
  name: "conv2"
  type: "Convolution"
  bottom: "pool1"
  top: "conv2"
  convolution_param {
    num_output: 20
    pad: 0
    stride: 1
    weight_filler {
      type: "xavier"
    }
    bias_filler {
      type: "constant"
    }
    kernel_h: 7
    kernel_w: 3
  }
}
layer {
  name: "relu2"
  type: "ReLU"
  bottom: "conv2"
  top: "conv2"
}
layer {
  name: "pool2"
  type: "Pooling"
  bottom: "conv2"
  top: "pool2"
  pooling_param {
    pool: MAX
    kernel_h: 2
    kernel_w: 1
    stride_h: 2
    stride_w: 1
  }
}
layer {
  name: "conv3"
  type: "Convolution"
  bottom: "pool2"
  top: "conv3"
  convolution_param {
    num_output: 28
    pad: 0
    stride: 1
    weight_filler {
      type: "xavier"
    }
    bias_filler {
      type: "constant"
    }
    kernel_h: 6
    kernel_w: 3
  }
}
layer {
  name: "relu3"
  type: "ReLU"
  bottom: "conv3"
  top: "conv3"
}
layer {
  name: "pool3"
  type: "Pooling"
  bottom: "conv3"
  top: "pool3"
  pooling_param {
    pool: MAX
    kernel_h: 2
    kernel_w: 1
    stride_h: 2
    stride_w: 1
  }
}
layer {
  name: "conv4"
  type: "Convolution"
  bottom: "pool3"
  top: "conv4"
  convolution_param {
    num_output: 36
    pad: 0
    stride: 1
    weight_filler {
      type: "xavier"
    }
    bias_filler {
      type: "constant"
    }
    kernel_h: 6
    kernel_w: 3
  }
}
layer {
  name: "relu4"
  type: "ReLU"
  bottom: "conv4"
  top: "conv4"
}
layer {
  name: "pool4"
  type: "Pooling"
  bottom: "conv4"
  top: "pool4"
  pooling_param {
    pool: MAX
    kernel_h: 2
    kernel_w: 1
    stride_h: 2
    stride_w: 1
  }
}
layer {
  name: "ip1"
  type: "InnerProduct"
  bottom: "pool4"
  top: "ip1"
  inner_product_param {
    num_output: 196
    weight_filler {
      type: "xavier"
    }
    bias_filler {
      type: "constant"
    }
  }
}
layer {
  name: "relu5"
  type: "ReLU"
  bottom: "ip1"
  top: "ip1"
}
layer {
  name: "drop1"
  type: "Dropout"
  bottom: "ip1"
  top: "ip1"
  dropout_param {
    dropout_ratio: 0.5
  }
}
layer {
  name: "ip2"
  type: "InnerProduct"
  bottom: "ip1"
  top: "ip2"
  inner_product_param {
    num_output: 98
    weight_filler {
      type: "xavier"
    }
    bias_filler {
      type: "constant"
    }
  }
}
layer {
  name: "relu6"
  type: "ReLU"
  bottom: "ip2"
  top: "ip2"
}
layer {
  name: "drop2"
  type: "Dropout"
  bottom: "ip2"
  top: "ip2"
  dropout_param {
    dropout_ratio: 0.5
  }
}
layer {
  name: "ip3"
  type: "InnerProduct"
  bottom: "ip2"
  top: "ip3"
  inner_product_param {
    num_output: 11
    weight_filler {
      type: "xavier"
    }
    bias_filler {
      type: "constant"
    }
  }
}
layer {
  name: "drop3"
  type: "Dropout"
  bottom: "ip3"
  top: "ip3"
  dropout_param {
    dropout_ratio: 0.5
  }
}
layer {
  name: "accuracy"
  type: "Accuracy"
  bottom: "ip3"
  bottom: "label"
  top: "accuracy"
  include {
    phase: TEST
  }
}
layer {
  name: "loss"
  type: "SoftmaxWithLoss"
  bottom: "ip3"
  bottom: "label"
  top: "loss"
}
I0521 08:42:50.047667 15209 layer_factory.hpp:77] Creating layer data_hdf5
I0521 08:42:50.047683 15209 net.cpp:106] Creating Layer data_hdf5
I0521 08:42:50.047695 15209 net.cpp:411] data_hdf5 -> data
I0521 08:42:50.047711 15209 net.cpp:411] data_hdf5 -> label
I0521 08:42:50.047727 15209 hdf5_data_layer.cpp:79] Loading list of HDF5 filenames from: /lustre/atlas/proj-shared/hep105/caffe_titan/minosmatch_nukecczdefs_127x50_x_unshifted_me1Bmc.testlist
I0521 08:42:50.049293 15209 hdf5_data_layer.cpp:93] Number of HDF5 files: 3
I0521 08:43:11.321678 15209 net.cpp:150] Setting up data_hdf5
I0521 08:43:11.321844 15209 net.cpp:157] Top shape: 870 1 127 50 (5524500)
I0521 08:43:11.321859 15209 net.cpp:157] Top shape: 870 (870)
I0521 08:43:11.321871 15209 net.cpp:165] Memory required for data: 22101480
I0521 08:43:11.321884 15209 layer_factory.hpp:77] Creating layer label_data_hdf5_1_split
I0521 08:43:11.321913 15209 net.cpp:106] Creating Layer label_data_hdf5_1_split
I0521 08:43:11.321923 15209 net.cpp:454] label_data_hdf5_1_split <- label
I0521 08:43:11.321938 15209 net.cpp:411] label_data_hdf5_1_split -> label_data_hdf5_1_split_0
I0521 08:43:11.321959 15209 net.cpp:411] label_data_hdf5_1_split -> label_data_hdf5_1_split_1
I0521 08:43:11.322032 15209 net.cpp:150] Setting up label_data_hdf5_1_split
I0521 08:43:11.322046 15209 net.cpp:157] Top shape: 870 (870)
I0521 08:43:11.322058 15209 net.cpp:157] Top shape: 870 (870)
I0521 08:43:11.322067 15209 net.cpp:165] Memory required for data: 22108440
I0521 08:43:11.322077 15209 layer_factory.hpp:77] Creating layer conv1
I0521 08:43:11.322099 15209 net.cpp:106] Creating Layer conv1
I0521 08:43:11.322110 15209 net.cpp:454] conv1 <- data
I0521 08:43:11.322124 15209 net.cpp:411] conv1 -> conv1
I0521 08:43:11.324069 15209 net.cpp:150] Setting up conv1
I0521 08:43:11.324092 15209 net.cpp:157] Top shape: 870 12 120 48 (60134400)
I0521 08:43:11.324105 15209 net.cpp:165] Memory required for data: 262646040
I0521 08:43:11.324125 15209 layer_factory.hpp:77] Creating layer relu1
I0521 08:43:11.324139 15209 net.cpp:106] Creating Layer relu1
I0521 08:43:11.324149 15209 net.cpp:454] relu1 <- conv1
I0521 08:43:11.324162 15209 net.cpp:397] relu1 -> conv1 (in-place)
I0521 08:43:11.324669 15209 net.cpp:150] Setting up relu1
I0521 08:43:11.324687 15209 net.cpp:157] Top shape: 870 12 120 48 (60134400)
I0521 08:43:11.324697 15209 net.cpp:165] Memory required for data: 503183640
I0521 08:43:11.324707 15209 layer_factory.hpp:77] Creating layer pool1
I0521 08:43:11.324723 15209 net.cpp:106] Creating Layer pool1
I0521 08:43:11.324733 15209 net.cpp:454] pool1 <- conv1
I0521 08:43:11.324746 15209 net.cpp:411] pool1 -> pool1
I0521 08:43:11.324820 15209 net.cpp:150] Setting up pool1
I0521 08:43:11.324834 15209 net.cpp:157] Top shape: 870 12 60 48 (30067200)
I0521 08:43:11.324844 15209 net.cpp:165] Memory required for data: 623452440
I0521 08:43:11.324852 15209 layer_factory.hpp:77] Creating layer conv2
I0521 08:43:11.324870 15209 net.cpp:106] Creating Layer conv2
I0521 08:43:11.324880 15209 net.cpp:454] conv2 <- pool1
I0521 08:43:11.324893 15209 net.cpp:411] conv2 -> conv2
I0521 08:43:11.326798 15209 net.cpp:150] Setting up conv2
I0521 08:43:11.326815 15209 net.cpp:157] Top shape: 870 20 54 46 (43221600)
I0521 08:43:11.326827 15209 net.cpp:165] Memory required for data: 796338840
I0521 08:43:11.326844 15209 layer_factory.hpp:77] Creating layer relu2
I0521 08:43:11.326858 15209 net.cpp:106] Creating Layer relu2
I0521 08:43:11.326867 15209 net.cpp:454] relu2 <- conv2
I0521 08:43:11.326880 15209 net.cpp:397] relu2 -> conv2 (in-place)
I0521 08:43:11.327217 15209 net.cpp:150] Setting up relu2
I0521 08:43:11.327231 15209 net.cpp:157] Top shape: 870 20 54 46 (43221600)
I0521 08:43:11.327241 15209 net.cpp:165] Memory required for data: 969225240
I0521 08:43:11.327251 15209 layer_factory.hpp:77] Creating layer pool2
I0521 08:43:11.327265 15209 net.cpp:106] Creating Layer pool2
I0521 08:43:11.327275 15209 net.cpp:454] pool2 <- conv2
I0521 08:43:11.327287 15209 net.cpp:411] pool2 -> pool2
I0521 08:43:11.327358 15209 net.cpp:150] Setting up pool2
I0521 08:43:11.327373 15209 net.cpp:157] Top shape: 870 20 27 46 (21610800)
I0521 08:43:11.327383 15209 net.cpp:165] Memory required for data: 1055668440
I0521 08:43:11.327391 15209 layer_factory.hpp:77] Creating layer conv3
I0521 08:43:11.327411 15209 net.cpp:106] Creating Layer conv3
I0521 08:43:11.327422 15209 net.cpp:454] conv3 <- pool2
I0521 08:43:11.327435 15209 net.cpp:411] conv3 -> conv3
I0521 08:43:11.329416 15209 net.cpp:150] Setting up conv3
I0521 08:43:11.329438 15209 net.cpp:157] Top shape: 870 28 22 44 (23580480)
I0521 08:43:11.329450 15209 net.cpp:165] Memory required for data: 1149990360
I0521 08:43:11.329483 15209 layer_factory.hpp:77] Creating layer relu3
I0521 08:43:11.329496 15209 net.cpp:106] Creating Layer relu3
I0521 08:43:11.329506 15209 net.cpp:454] relu3 <- conv3
I0521 08:43:11.329519 15209 net.cpp:397] relu3 -> conv3 (in-place)
I0521 08:43:11.329991 15209 net.cpp:150] Setting up relu3
I0521 08:43:11.330008 15209 net.cpp:157] Top shape: 870 28 22 44 (23580480)
I0521 08:43:11.330018 15209 net.cpp:165] Memory required for data: 1244312280
I0521 08:43:11.330027 15209 layer_factory.hpp:77] Creating layer pool3
I0521 08:43:11.330040 15209 net.cpp:106] Creating Layer pool3
I0521 08:43:11.330052 15209 net.cpp:454] pool3 <- conv3
I0521 08:43:11.330065 15209 net.cpp:411] pool3 -> pool3
I0521 08:43:11.330137 15209 net.cpp:150] Setting up pool3
I0521 08:43:11.330152 15209 net.cpp:157] Top shape: 870 28 11 44 (11790240)
I0521 08:43:11.330162 15209 net.cpp:165] Memory required for data: 1291473240
I0521 08:43:11.330171 15209 layer_factory.hpp:77] Creating layer conv4
I0521 08:43:11.330189 15209 net.cpp:106] Creating Layer conv4
I0521 08:43:11.330199 15209 net.cpp:454] conv4 <- pool3
I0521 08:43:11.330214 15209 net.cpp:411] conv4 -> conv4
I0521 08:43:11.332274 15209 net.cpp:150] Setting up conv4
I0521 08:43:11.332296 15209 net.cpp:157] Top shape: 870 36 6 42 (7892640)
I0521 08:43:11.332309 15209 net.cpp:165] Memory required for data: 1323043800
I0521 08:43:11.332324 15209 layer_factory.hpp:77] Creating layer relu4
I0521 08:43:11.332337 15209 net.cpp:106] Creating Layer relu4
I0521 08:43:11.332347 15209 net.cpp:454] relu4 <- conv4
I0521 08:43:11.332360 15209 net.cpp:397] relu4 -> conv4 (in-place)
I0521 08:43:11.332837 15209 net.cpp:150] Setting up relu4
I0521 08:43:11.332854 15209 net.cpp:157] Top shape: 870 36 6 42 (7892640)
I0521 08:43:11.332864 15209 net.cpp:165] Memory required for data: 1354614360
I0521 08:43:11.332873 15209 layer_factory.hpp:77] Creating layer pool4
I0521 08:43:11.332886 15209 net.cpp:106] Creating Layer pool4
I0521 08:43:11.332896 15209 net.cpp:454] pool4 <- conv4
I0521 08:43:11.332909 15209 net.cpp:411] pool4 -> pool4
I0521 08:43:11.332983 15209 net.cpp:150] Setting up pool4
I0521 08:43:11.332995 15209 net.cpp:157] Top shape: 870 36 3 42 (3946320)
I0521 08:43:11.333004 15209 net.cpp:165] Memory required for data: 1370399640
I0521 08:43:11.333015 15209 layer_factory.hpp:77] Creating layer ip1
I0521 08:43:11.333030 15209 net.cpp:106] Creating Layer ip1
I0521 08:43:11.333040 15209 net.cpp:454] ip1 <- pool4
I0521 08:43:11.333055 15209 net.cpp:411] ip1 -> ip1
I0521 08:43:11.348526 15209 net.cpp:150] Setting up ip1
I0521 08:43:11.348559 15209 net.cpp:157] Top shape: 870 196 (170520)
I0521 08:43:11.348570 15209 net.cpp:165] Memory required for data: 1371081720
I0521 08:43:11.348592 15209 layer_factory.hpp:77] Creating layer relu5
I0521 08:43:11.348608 15209 net.cpp:106] Creating Layer relu5
I0521 08:43:11.348618 15209 net.cpp:454] relu5 <- ip1
I0521 08:43:11.348631 15209 net.cpp:397] relu5 -> ip1 (in-place)
I0521 08:43:11.348978 15209 net.cpp:150] Setting up relu5
I0521 08:43:11.348991 15209 net.cpp:157] Top shape: 870 196 (170520)
I0521 08:43:11.349001 15209 net.cpp:165] Memory required for data: 1371763800
I0521 08:43:11.349011 15209 layer_factory.hpp:77] Creating layer drop1
I0521 08:43:11.349030 15209 net.cpp:106] Creating Layer drop1
I0521 08:43:11.349040 15209 net.cpp:454] drop1 <- ip1
I0521 08:43:11.349053 15209 net.cpp:397] drop1 -> ip1 (in-place)
I0521 08:43:11.349097 15209 net.cpp:150] Setting up drop1
I0521 08:43:11.349110 15209 net.cpp:157] Top shape: 870 196 (170520)
I0521 08:43:11.349120 15209 net.cpp:165] Memory required for data: 1372445880
I0521 08:43:11.349130 15209 layer_factory.hpp:77] Creating layer ip2
I0521 08:43:11.349144 15209 net.cpp:106] Creating Layer ip2
I0521 08:43:11.349154 15209 net.cpp:454] ip2 <- ip1
I0521 08:43:11.349166 15209 net.cpp:411] ip2 -> ip2
I0521 08:43:11.349644 15209 net.cpp:150] Setting up ip2
I0521 08:43:11.349658 15209 net.cpp:157] Top shape: 870 98 (85260)
I0521 08:43:11.349668 15209 net.cpp:165] Memory required for data: 1372786920
I0521 08:43:11.349696 15209 layer_factory.hpp:77] Creating layer relu6
I0521 08:43:11.349709 15209 net.cpp:106] Creating Layer relu6
I0521 08:43:11.349720 15209 net.cpp:454] relu6 <- ip2
I0521 08:43:11.349732 15209 net.cpp:397] relu6 -> ip2 (in-place)
I0521 08:43:11.350263 15209 net.cpp:150] Setting up relu6
I0521 08:43:11.350280 15209 net.cpp:157] Top shape: 870 98 (85260)
I0521 08:43:11.350289 15209 net.cpp:165] Memory required for data: 1373127960
I0521 08:43:11.350299 15209 layer_factory.hpp:77] Creating layer drop2
I0521 08:43:11.350313 15209 net.cpp:106] Creating Layer drop2
I0521 08:43:11.350323 15209 net.cpp:454] drop2 <- ip2
I0521 08:43:11.350337 15209 net.cpp:397] drop2 -> ip2 (in-place)
I0521 08:43:11.350380 15209 net.cpp:150] Setting up drop2
I0521 08:43:11.350394 15209 net.cpp:157] Top shape: 870 98 (85260)
I0521 08:43:11.350404 15209 net.cpp:165] Memory required for data: 1373469000
I0521 08:43:11.350414 15209 layer_factory.hpp:77] Creating layer ip3
I0521 08:43:11.350426 15209 net.cpp:106] Creating Layer ip3
I0521 08:43:11.350437 15209 net.cpp:454] ip3 <- ip2
I0521 08:43:11.350451 15209 net.cpp:411] ip3 -> ip3
I0521 08:43:11.350672 15209 net.cpp:150] Setting up ip3
I0521 08:43:11.350685 15209 net.cpp:157] Top shape: 870 11 (9570)
I0521 08:43:11.350697 15209 net.cpp:165] Memory required for data: 1373507280
I0521 08:43:11.350711 15209 layer_factory.hpp:77] Creating layer drop3
I0521 08:43:11.350724 15209 net.cpp:106] Creating Layer drop3
I0521 08:43:11.350734 15209 net.cpp:454] drop3 <- ip3
I0521 08:43:11.350746 15209 net.cpp:397] drop3 -> ip3 (in-place)
I0521 08:43:11.350788 15209 net.cpp:150] Setting up drop3
I0521 08:43:11.350800 15209 net.cpp:157] Top shape: 870 11 (9570)
I0521 08:43:11.350811 15209 net.cpp:165] Memory required for data: 1373545560
I0521 08:43:11.350819 15209 layer_factory.hpp:77] Creating layer ip3_drop3_0_split
I0521 08:43:11.350832 15209 net.cpp:106] Creating Layer ip3_drop3_0_split
I0521 08:43:11.350842 15209 net.cpp:454] ip3_drop3_0_split <- ip3
I0521 08:43:11.350855 15209 net.cpp:411] ip3_drop3_0_split -> ip3_drop3_0_split_0
I0521 08:43:11.350869 15209 net.cpp:411] ip3_drop3_0_split -> ip3_drop3_0_split_1
I0521 08:43:11.350942 15209 net.cpp:150] Setting up ip3_drop3_0_split
I0521 08:43:11.350955 15209 net.cpp:157] Top shape: 870 11 (9570)
I0521 08:43:11.350967 15209 net.cpp:157] Top shape: 870 11 (9570)
I0521 08:43:11.350977 15209 net.cpp:165] Memory required for data: 1373622120
I0521 08:43:11.350987 15209 layer_factory.hpp:77] Creating layer accuracy
I0521 08:43:11.351008 15209 net.cpp:106] Creating Layer accuracy
I0521 08:43:11.351019 15209 net.cpp:454] accuracy <- ip3_drop3_0_split_0
I0521 08:43:11.351030 15209 net.cpp:454] accuracy <- label_data_hdf5_1_split_0
I0521 08:43:11.351044 15209 net.cpp:411] accuracy -> accuracy
…
