…
I0521 03:40:14.272783 22284 net.cpp:322] The NetState phase (0) differed from the phase (1) specified by a rule in layer data_hdf5
I0521 03:40:14.272843 22284 net.cpp:322] The NetState phase (0) differed from the phase (1) specified by a rule in layer accuracy
I0521 03:40:14.273190 22284 net.cpp:49] Initializing net from parameters: 
name: "caffe_test_127x50_x_unshifted"
state {
  phase: TRAIN
}
layer {
  name: "data_hdf5"
  type: "HDF5Data"
  top: "data"
  top: "label"
  include {
    phase: TRAIN
  }
  hdf5_data_param {
    source: "/lustre/atlas/proj-shared/hep105/caffe_titan/minosmatch_nukecczdefs_127x50_x_unshifted_me1Bmc.trainlist"
    batch_size: 610
  }
}
layer {
  name: "conv1"
  type: "Convolution"
  bottom: "data"
  top: "conv1"
  convolution_param {
    num_output: 12
    pad: 0
    stride: 1
    weight_filler {
      type: "xavier"
    }
    bias_filler {
      type: "constant"
    }
    kernel_h: 8
    kernel_w: 3
  }
}
layer {
  name: "relu1"
  type: "ReLU"
  bottom: "conv1"
  top: "conv1"
}
layer {
  name: "pool1"
  type: "Pooling"
  bottom: "conv1"
  top: "pool1"
  pooling_param {
    pool: MAX
    kernel_h: 2
    kernel_w: 1
    stride_h: 2
    stride_w: 1
  }
}
layer {
  name: "conv2"
  type: "Convolution"
  bottom: "pool1"
  top: "conv2"
  convolution_param {
    num_output: 20
    pad: 0
    stride: 1
    weight_filler {
      type: "xavier"
    }
    bias_filler {
      type: "constant"
    }
    kernel_h: 7
    kernel_w: 3
  }
}
layer {
  name: "relu2"
  type: "ReLU"
  bottom: "conv2"
  top: "conv2"
}
layer {
  name: "pool2"
  type: "Pooling"
  bottom: "conv2"
  top: "pool2"
  pooling_param {
    pool: MAX
    kernel_h: 2
    kernel_w: 1
    stride_h: 2
    stride_w: 1
  }
}
layer {
  name: "conv3"
  type: "Convolution"
  bottom: "pool2"
  top: "conv3"
  convolution_param {
    num_output: 28
    pad: 0
    stride: 1
    weight_filler {
      type: "xavier"
    }
    bias_filler {
      type: "constant"
    }
    kernel_h: 6
    kernel_w: 3
  }
}
layer {
  name: "relu3"
  type: "ReLU"
  bottom: "conv3"
  top: "conv3"
}
layer {
  name: "pool3"
  type: "Pooling"
  bottom: "conv3"
  top: "pool3"
  pooling_param {
    pool: MAX
    kernel_h: 2
    kernel_w: 1
    stride_h: 2
    stride_w: 1
  }
}
layer {
  name: "conv4"
  type: "Convolution"
  bottom: "pool3"
  top: "conv4"
  convolution_param {
    num_output: 36
    pad: 0
    stride: 1
    weight_filler {
      type: "xavier"
    }
    bias_filler {
      type: "constant"
    }
    kernel_h: 6
    kernel_w: 3
  }
}
layer {
  name: "relu4"
  type: "ReLU"
  bottom: "conv4"
  top: "conv4"
}
layer {
  name: "pool4"
  type: "Pooling"
  bottom: "conv4"
  top: "pool4"
  pooling_param {
    pool: MAX
    kernel_h: 2
    kernel_w: 1
    stride_h: 2
    stride_w: 1
  }
}
layer {
  name: "ip1"
  type: "InnerProduct"
  bottom: "pool4"
  top: "ip1"
  inner_product_param {
    num_output: 196
    weight_filler {
      type: "xavier"
    }
    bias_filler {
      type: "constant"
    }
  }
}
layer {
  name: "relu5"
  type: "ReLU"
  bottom: "ip1"
  top: "ip1"
}
layer {
  name: "drop1"
  type: "Dropout"
  bottom: "ip1"
  top: "ip1"
  dropout_param {
    dropout_ratio: 0.5
  }
}
layer {
  name: "ip2"
  type: "InnerProduct"
  bottom: "ip1"
  top: "ip2"
  inner_product_param {
    num_output: 98
    weight_filler {
      type: "xavier"
    }
    bias_filler {
      type: "constant"
    }
  }
}
layer {
  name: "relu6"
  type: "ReLU"
  bottom: "ip2"
  top: "ip2"
}
layer {
  name: "drop2"
  type: "Dropout"
  bottom: "ip2"
  top: "ip2"
  dropout_param {
    dropout_ratio: 0.5
  }
}
layer {
  name: "ip3"
  type: "InnerProduct"
  bottom: "ip2"
  top: "ip3"
  inner_product_param {
    num_output: 11
    weight_filler {
      type: "xavier"
    }
    bias_filler {
      type: "constant"
    }
  }
}
layer {
  name: "drop3"
  type: "Dropout"
  bottom: "ip3"
  top: "ip3"
  dropout_param {
    dropout_ratio: 0.5
  }
}
layer {
  name: "loss"
  type: "SoftmaxWithLoss"
  bottom: "ip3"
  bottom: "label"
  top: "loss"
}
I0521 03:40:14.273370 22284 layer_factory.hpp:77] Creating layer data_hdf5
I0521 03:40:14.273394 22284 net.cpp:106] Creating Layer data_hdf5
I0521 03:40:14.273408 22284 net.cpp:411] data_hdf5 -> data
I0521 03:40:14.273442 22284 net.cpp:411] data_hdf5 -> label
I0521 03:40:14.273475 22284 hdf5_data_layer.cpp:79] Loading list of HDF5 filenames from: /lustre/atlas/proj-shared/hep105/caffe_titan/minosmatch_nukecczdefs_127x50_x_unshifted_me1Bmc.trainlist
I0521 03:40:14.274832 22284 hdf5_data_layer.cpp:93] Number of HDF5 files: 15
I0521 03:40:14.276995 22284 hdf5.cpp:32] Datatype class: H5T_FLOAT
I0521 03:40:35.765497 22284 hdf5.cpp:35] Datatype class: H5T_INTEGER
I0521 03:40:35.770730 22284 net.cpp:150] Setting up data_hdf5
I0521 03:40:35.770769 22284 net.cpp:157] Top shape: 610 1 127 50 (3873500)
I0521 03:40:35.770784 22284 net.cpp:157] Top shape: 610 (610)
I0521 03:40:35.770797 22284 net.cpp:165] Memory required for data: 15496440
I0521 03:40:35.770809 22284 layer_factory.hpp:77] Creating layer conv1
I0521 03:40:35.770844 22284 net.cpp:106] Creating Layer conv1
I0521 03:40:35.770855 22284 net.cpp:454] conv1 <- data
I0521 03:40:35.770877 22284 net.cpp:411] conv1 -> conv1
I0521 03:40:36.136970 22284 net.cpp:150] Setting up conv1
I0521 03:40:36.137017 22284 net.cpp:157] Top shape: 610 12 120 48 (42163200)
I0521 03:40:36.137028 22284 net.cpp:165] Memory required for data: 184149240
I0521 03:40:36.137058 22284 layer_factory.hpp:77] Creating layer relu1
I0521 03:40:36.137079 22284 net.cpp:106] Creating Layer relu1
I0521 03:40:36.137090 22284 net.cpp:454] relu1 <- conv1
I0521 03:40:36.137104 22284 net.cpp:397] relu1 -> conv1 (in-place)
I0521 03:40:36.137619 22284 net.cpp:150] Setting up relu1
I0521 03:40:36.137634 22284 net.cpp:157] Top shape: 610 12 120 48 (42163200)
I0521 03:40:36.137645 22284 net.cpp:165] Memory required for data: 352802040
I0521 03:40:36.137655 22284 layer_factory.hpp:77] Creating layer pool1
I0521 03:40:36.137672 22284 net.cpp:106] Creating Layer pool1
I0521 03:40:36.137682 22284 net.cpp:454] pool1 <- conv1
I0521 03:40:36.137696 22284 net.cpp:411] pool1 -> pool1
I0521 03:40:36.137775 22284 net.cpp:150] Setting up pool1
I0521 03:40:36.137789 22284 net.cpp:157] Top shape: 610 12 60 48 (21081600)
I0521 03:40:36.137799 22284 net.cpp:165] Memory required for data: 437128440
I0521 03:40:36.137809 22284 layer_factory.hpp:77] Creating layer conv2
I0521 03:40:36.137830 22284 net.cpp:106] Creating Layer conv2
I0521 03:40:36.137841 22284 net.cpp:454] conv2 <- pool1
I0521 03:40:36.137856 22284 net.cpp:411] conv2 -> conv2
I0521 03:40:36.140534 22284 net.cpp:150] Setting up conv2
I0521 03:40:36.140563 22284 net.cpp:157] Top shape: 610 20 54 46 (30304800)
I0521 03:40:36.140573 22284 net.cpp:165] Memory required for data: 558347640
I0521 03:40:36.140593 22284 layer_factory.hpp:77] Creating layer relu2
I0521 03:40:36.140606 22284 net.cpp:106] Creating Layer relu2
I0521 03:40:36.140616 22284 net.cpp:454] relu2 <- conv2
I0521 03:40:36.140628 22284 net.cpp:397] relu2 -> conv2 (in-place)
I0521 03:40:36.140959 22284 net.cpp:150] Setting up relu2
I0521 03:40:36.140974 22284 net.cpp:157] Top shape: 610 20 54 46 (30304800)
I0521 03:40:36.140985 22284 net.cpp:165] Memory required for data: 679566840
I0521 03:40:36.140995 22284 layer_factory.hpp:77] Creating layer pool2
I0521 03:40:36.141007 22284 net.cpp:106] Creating Layer pool2
I0521 03:40:36.141017 22284 net.cpp:454] pool2 <- conv2
I0521 03:40:36.141042 22284 net.cpp:411] pool2 -> pool2
I0521 03:40:36.141110 22284 net.cpp:150] Setting up pool2
I0521 03:40:36.141124 22284 net.cpp:157] Top shape: 610 20 27 46 (15152400)
I0521 03:40:36.141134 22284 net.cpp:165] Memory required for data: 740176440
I0521 03:40:36.141144 22284 layer_factory.hpp:77] Creating layer conv3
I0521 03:40:36.141163 22284 net.cpp:106] Creating Layer conv3
I0521 03:40:36.141175 22284 net.cpp:454] conv3 <- pool2
I0521 03:40:36.141187 22284 net.cpp:411] conv3 -> conv3
I0521 03:40:36.143107 22284 net.cpp:150] Setting up conv3
I0521 03:40:36.143131 22284 net.cpp:157] Top shape: 610 28 22 44 (16533440)
I0521 03:40:36.143143 22284 net.cpp:165] Memory required for data: 806310200
I0521 03:40:36.143162 22284 layer_factory.hpp:77] Creating layer relu3
I0521 03:40:36.143177 22284 net.cpp:106] Creating Layer relu3
I0521 03:40:36.143187 22284 net.cpp:454] relu3 <- conv3
I0521 03:40:36.143199 22284 net.cpp:397] relu3 -> conv3 (in-place)
I0521 03:40:36.143667 22284 net.cpp:150] Setting up relu3
I0521 03:40:36.143690 22284 net.cpp:157] Top shape: 610 28 22 44 (16533440)
I0521 03:40:36.143702 22284 net.cpp:165] Memory required for data: 872443960
I0521 03:40:36.143712 22284 layer_factory.hpp:77] Creating layer pool3
I0521 03:40:36.143723 22284 net.cpp:106] Creating Layer pool3
I0521 03:40:36.143733 22284 net.cpp:454] pool3 <- conv3
I0521 03:40:36.143746 22284 net.cpp:411] pool3 -> pool3
I0521 03:40:36.143813 22284 net.cpp:150] Setting up pool3
I0521 03:40:36.143826 22284 net.cpp:157] Top shape: 610 28 11 44 (8266720)
I0521 03:40:36.143834 22284 net.cpp:165] Memory required for data: 905510840
I0521 03:40:36.143846 22284 layer_factory.hpp:77] Creating layer conv4
I0521 03:40:36.143860 22284 net.cpp:106] Creating Layer conv4
I0521 03:40:36.143872 22284 net.cpp:454] conv4 <- pool3
I0521 03:40:36.143887 22284 net.cpp:411] conv4 -> conv4
I0521 03:40:36.146677 22284 net.cpp:150] Setting up conv4
I0521 03:40:36.146705 22284 net.cpp:157] Top shape: 610 36 6 42 (5533920)
I0521 03:40:36.146716 22284 net.cpp:165] Memory required for data: 927646520
I0521 03:40:36.146731 22284 layer_factory.hpp:77] Creating layer relu4
I0521 03:40:36.146746 22284 net.cpp:106] Creating Layer relu4
I0521 03:40:36.146756 22284 net.cpp:454] relu4 <- conv4
I0521 03:40:36.146770 22284 net.cpp:397] relu4 -> conv4 (in-place)
I0521 03:40:36.147241 22284 net.cpp:150] Setting up relu4
I0521 03:40:36.147258 22284 net.cpp:157] Top shape: 610 36 6 42 (5533920)
I0521 03:40:36.147267 22284 net.cpp:165] Memory required for data: 949782200
I0521 03:40:36.147277 22284 layer_factory.hpp:77] Creating layer pool4
I0521 03:40:36.147290 22284 net.cpp:106] Creating Layer pool4
I0521 03:40:36.147300 22284 net.cpp:454] pool4 <- conv4
I0521 03:40:36.147313 22284 net.cpp:411] pool4 -> pool4
I0521 03:40:36.147382 22284 net.cpp:150] Setting up pool4
I0521 03:40:36.147395 22284 net.cpp:157] Top shape: 610 36 3 42 (2766960)
I0521 03:40:36.147405 22284 net.cpp:165] Memory required for data: 960850040
I0521 03:40:36.147415 22284 layer_factory.hpp:77] Creating layer ip1
I0521 03:40:36.147435 22284 net.cpp:106] Creating Layer ip1
I0521 03:40:36.147445 22284 net.cpp:454] ip1 <- pool4
I0521 03:40:36.147459 22284 net.cpp:411] ip1 -> ip1
I0521 03:40:36.162967 22284 net.cpp:150] Setting up ip1
I0521 03:40:36.162995 22284 net.cpp:157] Top shape: 610 196 (119560)
I0521 03:40:36.163012 22284 net.cpp:165] Memory required for data: 961328280
I0521 03:40:36.163038 22284 layer_factory.hpp:77] Creating layer relu5
I0521 03:40:36.163053 22284 net.cpp:106] Creating Layer relu5
I0521 03:40:36.163063 22284 net.cpp:454] relu5 <- ip1
I0521 03:40:36.163075 22284 net.cpp:397] relu5 -> ip1 (in-place)
I0521 03:40:36.163421 22284 net.cpp:150] Setting up relu5
I0521 03:40:36.163435 22284 net.cpp:157] Top shape: 610 196 (119560)
I0521 03:40:36.163445 22284 net.cpp:165] Memory required for data: 961806520
I0521 03:40:36.163455 22284 layer_factory.hpp:77] Creating layer drop1
I0521 03:40:36.163477 22284 net.cpp:106] Creating Layer drop1
I0521 03:40:36.163488 22284 net.cpp:454] drop1 <- ip1
I0521 03:40:36.163513 22284 net.cpp:397] drop1 -> ip1 (in-place)
I0521 03:40:36.163559 22284 net.cpp:150] Setting up drop1
I0521 03:40:36.163573 22284 net.cpp:157] Top shape: 610 196 (119560)
I0521 03:40:36.163583 22284 net.cpp:165] Memory required for data: 962284760
I0521 03:40:36.163592 22284 layer_factory.hpp:77] Creating layer ip2
I0521 03:40:36.163611 22284 net.cpp:106] Creating Layer ip2
I0521 03:40:36.163621 22284 net.cpp:454] ip2 <- ip1
I0521 03:40:36.163635 22284 net.cpp:411] ip2 -> ip2
I0521 03:40:36.164098 22284 net.cpp:150] Setting up ip2
I0521 03:40:36.164111 22284 net.cpp:157] Top shape: 610 98 (59780)
I0521 03:40:36.164121 22284 net.cpp:165] Memory required for data: 962523880
I0521 03:40:36.164136 22284 layer_factory.hpp:77] Creating layer relu6
I0521 03:40:36.164157 22284 net.cpp:106] Creating Layer relu6
I0521 03:40:36.164167 22284 net.cpp:454] relu6 <- ip2
I0521 03:40:36.164178 22284 net.cpp:397] relu6 -> ip2 (in-place)
I0521 03:40:36.164700 22284 net.cpp:150] Setting up relu6
I0521 03:40:36.164716 22284 net.cpp:157] Top shape: 610 98 (59780)
I0521 03:40:36.164726 22284 net.cpp:165] Memory required for data: 962763000
I0521 03:40:36.164736 22284 layer_factory.hpp:77] Creating layer drop2
I0521 03:40:36.164749 22284 net.cpp:106] Creating Layer drop2
I0521 03:40:36.164758 22284 net.cpp:454] drop2 <- ip2
I0521 03:40:36.164770 22284 net.cpp:397] drop2 -> ip2 (in-place)
I0521 03:40:36.164813 22284 net.cpp:150] Setting up drop2
I0521 03:40:36.164826 22284 net.cpp:157] Top shape: 610 98 (59780)
I0521 03:40:36.164837 22284 net.cpp:165] Memory required for data: 963002120
I0521 03:40:36.164847 22284 layer_factory.hpp:77] Creating layer ip3
I0521 03:40:36.164860 22284 net.cpp:106] Creating Layer ip3
I0521 03:40:36.164870 22284 net.cpp:454] ip3 <- ip2
I0521 03:40:36.164883 22284 net.cpp:411] ip3 -> ip3
I0521 03:40:36.165094 22284 net.cpp:150] Setting up ip3
I0521 03:40:36.165107 22284 net.cpp:157] Top shape: 610 11 (6710)
I0521 03:40:36.165117 22284 net.cpp:165] Memory required for data: 963028960
I0521 03:40:36.165132 22284 layer_factory.hpp:77] Creating layer drop3
I0521 03:40:36.165145 22284 net.cpp:106] Creating Layer drop3
I0521 03:40:36.165154 22284 net.cpp:454] drop3 <- ip3
I0521 03:40:36.165166 22284 net.cpp:397] drop3 -> ip3 (in-place)
I0521 03:40:36.165205 22284 net.cpp:150] Setting up drop3
I0521 03:40:36.165218 22284 net.cpp:157] Top shape: 610 11 (6710)
I0521 03:40:36.165228 22284 net.cpp:165] Memory required for data: 963055800
I0521 03:40:36.165238 22284 layer_factory.hpp:77] Creating layer loss
I0521 03:40:36.165257 22284 net.cpp:106] Creating Layer loss
I0521 03:40:36.165267 22284 net.cpp:454] loss <- ip3
I0521 03:40:36.165277 22284 net.cpp:454] loss <- label
I0521 03:40:36.165290 22284 net.cpp:411] loss -> loss
I0521 03:40:36.165307 22284 layer_factory.hpp:77] Creating layer loss
…
I0521 03:40:36.167843 22284 solver.cpp:181] Creating test net (#0) specified by net file: /lustre/atlas/proj-shared/hep105/caffe_titan/caffe_workflow/logs_batch_size_test/batch_size_610_2016-05-20T11.20.54.782767.prototxt
I0521 03:40:36.167914 22284 net.cpp:322] The NetState phase (1) differed from the phase (0) specified by a rule in layer data_hdf5
I0521 03:40:36.168277 22284 net.cpp:49] Initializing net from parameters: 
name: "caffe_test_127x50_x_unshifted"
state {
  phase: TEST
}
layer {
  name: "data_hdf5"
  type: "HDF5Data"
  top: "data"
  top: "label"
  include {
    phase: TEST
  }
  hdf5_data_param {
    source: "/lustre/atlas/proj-shared/hep105/caffe_titan/minosmatch_nukecczdefs_127x50_x_unshifted_me1Bmc.testlist"
    batch_size: 610
  }
}
layer {
  name: "conv1"
  type: "Convolution"
  bottom: "data"
  top: "conv1"
  convolution_param {
    num_output: 12
    pad: 0
    stride: 1
    weight_filler {
      type: "xavier"
    }
    bias_filler {
      type: "constant"
    }
    kernel_h: 8
    kernel_w: 3
  }
}
layer {
  name: "relu1"
  type: "ReLU"
  bottom: "conv1"
  top: "conv1"
}
layer {
  name: "pool1"
  type: "Pooling"
  bottom: "conv1"
  top: "pool1"
  pooling_param {
    pool: MAX
    kernel_h: 2
    kernel_w: 1
    stride_h: 2
    stride_w: 1
  }
}
layer {
  name: "conv2"
  type: "Convolution"
  bottom: "pool1"
  top: "conv2"
  convolution_param {
    num_output: 20
    pad: 0
    stride: 1
    weight_filler {
      type: "xavier"
    }
    bias_filler {
      type: "constant"
    }
    kernel_h: 7
    kernel_w: 3
  }
}
layer {
  name: "relu2"
  type: "ReLU"
  bottom: "conv2"
  top: "conv2"
}
layer {
  name: "pool2"
  type: "Pooling"
  bottom: "conv2"
  top: "pool2"
  pooling_param {
    pool: MAX
    kernel_h: 2
    kernel_w: 1
    stride_h: 2
    stride_w: 1
  }
}
layer {
  name: "conv3"
  type: "Convolution"
  bottom: "pool2"
  top: "conv3"
  convolution_param {
    num_output: 28
    pad: 0
    stride: 1
    weight_filler {
      type: "xavier"
    }
    bias_filler {
      type: "constant"
    }
    kernel_h: 6
    kernel_w: 3
  }
}
layer {
  name: "relu3"
  type: "ReLU"
  bottom: "conv3"
  top: "conv3"
}
layer {
  name: "pool3"
  type: "Pooling"
  bottom: "conv3"
  top: "pool3"
  pooling_param {
    pool: MAX
    kernel_h: 2
    kernel_w: 1
    stride_h: 2
    stride_w: 1
  }
}
layer {
  name: "conv4"
  type: "Convolution"
  bottom: "pool3"
  top: "conv4"
  convolution_param {
    num_output: 36
    pad: 0
    stride: 1
    weight_filler {
      type: "xavier"
    }
    bias_filler {
      type: "constant"
    }
    kernel_h: 6
    kernel_w: 3
  }
}
layer {
  name: "relu4"
  type: "ReLU"
  bottom: "conv4"
  top: "conv4"
}
layer {
  name: "pool4"
  type: "Pooling"
  bottom: "conv4"
  top: "pool4"
  pooling_param {
    pool: MAX
    kernel_h: 2
    kernel_w: 1
    stride_h: 2
    stride_w: 1
  }
}
layer {
  name: "ip1"
  type: "InnerProduct"
  bottom: "pool4"
  top: "ip1"
  inner_product_param {
    num_output: 196
    weight_filler {
      type: "xavier"
    }
    bias_filler {
      type: "constant"
    }
  }
}
layer {
  name: "relu5"
  type: "ReLU"
  bottom: "ip1"
  top: "ip1"
}
layer {
  name: "drop1"
  type: "Dropout"
  bottom: "ip1"
  top: "ip1"
  dropout_param {
    dropout_ratio: 0.5
  }
}
layer {
  name: "ip2"
  type: "InnerProduct"
  bottom: "ip1"
  top: "ip2"
  inner_product_param {
    num_output: 98
    weight_filler {
      type: "xavier"
    }
    bias_filler {
      type: "constant"
    }
  }
}
layer {
  name: "relu6"
  type: "ReLU"
  bottom: "ip2"
  top: "ip2"
}
layer {
  name: "drop2"
  type: "Dropout"
  bottom: "ip2"
  top: "ip2"
  dropout_param {
    dropout_ratio: 0.5
  }
}
layer {
  name: "ip3"
  type: "InnerProduct"
  bottom: "ip2"
  top: "ip3"
  inner_product_param {
    num_output: 11
    weight_filler {
      type: "xavier"
    }
    bias_filler {
      type: "constant"
    }
  }
}
layer {
  name: "drop3"
  type: "Dropout"
  bottom: "ip3"
  top: "ip3"
  dropout_param {
    dropout_ratio: 0.5
  }
}
layer {
  name: "accuracy"
  type: "Accuracy"
  bottom: "ip3"
  bottom: "label"
  top: "accuracy"
  include {
    phase: TEST
  }
}
layer {
  name: "loss"
  type: "SoftmaxWithLoss"
  bottom: "ip3"
  bottom: "label"
  top: "loss"
}
I0521 03:40:36.168472 22284 layer_factory.hpp:77] Creating layer data_hdf5
I0521 03:40:36.168486 22284 net.cpp:106] Creating Layer data_hdf5
I0521 03:40:36.168498 22284 net.cpp:411] data_hdf5 -> data
I0521 03:40:36.168515 22284 net.cpp:411] data_hdf5 -> label
I0521 03:40:36.168531 22284 hdf5_data_layer.cpp:79] Loading list of HDF5 filenames from: /lustre/atlas/proj-shared/hep105/caffe_titan/minosmatch_nukecczdefs_127x50_x_unshifted_me1Bmc.testlist
I0521 03:40:36.169942 22284 hdf5_data_layer.cpp:93] Number of HDF5 files: 3
I0521 03:40:57.434290 22284 net.cpp:150] Setting up data_hdf5
I0521 03:40:57.434458 22284 net.cpp:157] Top shape: 610 1 127 50 (3873500)
I0521 03:40:57.434471 22284 net.cpp:157] Top shape: 610 (610)
I0521 03:40:57.434483 22284 net.cpp:165] Memory required for data: 15496440
I0521 03:40:57.434495 22284 layer_factory.hpp:77] Creating layer label_data_hdf5_1_split
I0521 03:40:57.434525 22284 net.cpp:106] Creating Layer label_data_hdf5_1_split
I0521 03:40:57.434535 22284 net.cpp:454] label_data_hdf5_1_split <- label
I0521 03:40:57.434550 22284 net.cpp:411] label_data_hdf5_1_split -> label_data_hdf5_1_split_0
I0521 03:40:57.434571 22284 net.cpp:411] label_data_hdf5_1_split -> label_data_hdf5_1_split_1
I0521 03:40:57.434644 22284 net.cpp:150] Setting up label_data_hdf5_1_split
I0521 03:40:57.434659 22284 net.cpp:157] Top shape: 610 (610)
I0521 03:40:57.434669 22284 net.cpp:157] Top shape: 610 (610)
I0521 03:40:57.434679 22284 net.cpp:165] Memory required for data: 15501320
I0521 03:40:57.434689 22284 layer_factory.hpp:77] Creating layer conv1
I0521 03:40:57.434711 22284 net.cpp:106] Creating Layer conv1
I0521 03:40:57.434722 22284 net.cpp:454] conv1 <- data
I0521 03:40:57.434737 22284 net.cpp:411] conv1 -> conv1
I0521 03:40:57.436669 22284 net.cpp:150] Setting up conv1
I0521 03:40:57.436694 22284 net.cpp:157] Top shape: 610 12 120 48 (42163200)
I0521 03:40:57.436705 22284 net.cpp:165] Memory required for data: 184154120
I0521 03:40:57.436727 22284 layer_factory.hpp:77] Creating layer relu1
I0521 03:40:57.436741 22284 net.cpp:106] Creating Layer relu1
I0521 03:40:57.436751 22284 net.cpp:454] relu1 <- conv1
I0521 03:40:57.436764 22284 net.cpp:397] relu1 -> conv1 (in-place)
I0521 03:40:57.437259 22284 net.cpp:150] Setting up relu1
I0521 03:40:57.437276 22284 net.cpp:157] Top shape: 610 12 120 48 (42163200)
I0521 03:40:57.437286 22284 net.cpp:165] Memory required for data: 352806920
I0521 03:40:57.437296 22284 layer_factory.hpp:77] Creating layer pool1
I0521 03:40:57.437312 22284 net.cpp:106] Creating Layer pool1
I0521 03:40:57.437322 22284 net.cpp:454] pool1 <- conv1
I0521 03:40:57.437335 22284 net.cpp:411] pool1 -> pool1
I0521 03:40:57.437409 22284 net.cpp:150] Setting up pool1
I0521 03:40:57.437423 22284 net.cpp:157] Top shape: 610 12 60 48 (21081600)
I0521 03:40:57.437433 22284 net.cpp:165] Memory required for data: 437133320
I0521 03:40:57.437443 22284 layer_factory.hpp:77] Creating layer conv2
I0521 03:40:57.437458 22284 net.cpp:106] Creating Layer conv2
I0521 03:40:57.437469 22284 net.cpp:454] conv2 <- pool1
I0521 03:40:57.437484 22284 net.cpp:411] conv2 -> conv2
I0521 03:40:57.439395 22284 net.cpp:150] Setting up conv2
I0521 03:40:57.439417 22284 net.cpp:157] Top shape: 610 20 54 46 (30304800)
I0521 03:40:57.439429 22284 net.cpp:165] Memory required for data: 558352520
I0521 03:40:57.439446 22284 layer_factory.hpp:77] Creating layer relu2
I0521 03:40:57.439460 22284 net.cpp:106] Creating Layer relu2
I0521 03:40:57.439471 22284 net.cpp:454] relu2 <- conv2
I0521 03:40:57.439483 22284 net.cpp:397] relu2 -> conv2 (in-place)
I0521 03:40:57.439815 22284 net.cpp:150] Setting up relu2
I0521 03:40:57.439829 22284 net.cpp:157] Top shape: 610 20 54 46 (30304800)
I0521 03:40:57.439839 22284 net.cpp:165] Memory required for data: 679571720
I0521 03:40:57.439849 22284 layer_factory.hpp:77] Creating layer pool2
I0521 03:40:57.439862 22284 net.cpp:106] Creating Layer pool2
I0521 03:40:57.439872 22284 net.cpp:454] pool2 <- conv2
I0521 03:40:57.439884 22284 net.cpp:411] pool2 -> pool2
I0521 03:40:57.439954 22284 net.cpp:150] Setting up pool2
I0521 03:40:57.439967 22284 net.cpp:157] Top shape: 610 20 27 46 (15152400)
I0521 03:40:57.439977 22284 net.cpp:165] Memory required for data: 740181320
I0521 03:40:57.439987 22284 layer_factory.hpp:77] Creating layer conv3
I0521 03:40:57.440006 22284 net.cpp:106] Creating Layer conv3
I0521 03:40:57.440016 22284 net.cpp:454] conv3 <- pool2
I0521 03:40:57.440031 22284 net.cpp:411] conv3 -> conv3
I0521 03:40:57.442005 22284 net.cpp:150] Setting up conv3
I0521 03:40:57.442028 22284 net.cpp:157] Top shape: 610 28 22 44 (16533440)
I0521 03:40:57.442041 22284 net.cpp:165] Memory required for data: 806315080
I0521 03:40:57.442073 22284 layer_factory.hpp:77] Creating layer relu3
I0521 03:40:57.442086 22284 net.cpp:106] Creating Layer relu3
I0521 03:40:57.442097 22284 net.cpp:454] relu3 <- conv3
I0521 03:40:57.442111 22284 net.cpp:397] relu3 -> conv3 (in-place)
I0521 03:40:57.442589 22284 net.cpp:150] Setting up relu3
I0521 03:40:57.442605 22284 net.cpp:157] Top shape: 610 28 22 44 (16533440)
I0521 03:40:57.442615 22284 net.cpp:165] Memory required for data: 872448840
I0521 03:40:57.442625 22284 layer_factory.hpp:77] Creating layer pool3
I0521 03:40:57.442637 22284 net.cpp:106] Creating Layer pool3
I0521 03:40:57.442647 22284 net.cpp:454] pool3 <- conv3
I0521 03:40:57.442661 22284 net.cpp:411] pool3 -> pool3
I0521 03:40:57.442731 22284 net.cpp:150] Setting up pool3
I0521 03:40:57.442745 22284 net.cpp:157] Top shape: 610 28 11 44 (8266720)
I0521 03:40:57.442755 22284 net.cpp:165] Memory required for data: 905515720
I0521 03:40:57.442764 22284 layer_factory.hpp:77] Creating layer conv4
I0521 03:40:57.442781 22284 net.cpp:106] Creating Layer conv4
I0521 03:40:57.442792 22284 net.cpp:454] conv4 <- pool3
I0521 03:40:57.442807 22284 net.cpp:411] conv4 -> conv4
I0521 03:40:57.444865 22284 net.cpp:150] Setting up conv4
I0521 03:40:57.444887 22284 net.cpp:157] Top shape: 610 36 6 42 (5533920)
I0521 03:40:57.444900 22284 net.cpp:165] Memory required for data: 927651400
I0521 03:40:57.444916 22284 layer_factory.hpp:77] Creating layer relu4
I0521 03:40:57.444928 22284 net.cpp:106] Creating Layer relu4
I0521 03:40:57.444938 22284 net.cpp:454] relu4 <- conv4
I0521 03:40:57.444952 22284 net.cpp:397] relu4 -> conv4 (in-place)
I0521 03:40:57.445426 22284 net.cpp:150] Setting up relu4
I0521 03:40:57.445442 22284 net.cpp:157] Top shape: 610 36 6 42 (5533920)
I0521 03:40:57.445451 22284 net.cpp:165] Memory required for data: 949787080
I0521 03:40:57.445461 22284 layer_factory.hpp:77] Creating layer pool4
I0521 03:40:57.445474 22284 net.cpp:106] Creating Layer pool4
I0521 03:40:57.445484 22284 net.cpp:454] pool4 <- conv4
I0521 03:40:57.445498 22284 net.cpp:411] pool4 -> pool4
I0521 03:40:57.445569 22284 net.cpp:150] Setting up pool4
I0521 03:40:57.445583 22284 net.cpp:157] Top shape: 610 36 3 42 (2766960)
I0521 03:40:57.445592 22284 net.cpp:165] Memory required for data: 960854920
I0521 03:40:57.445602 22284 layer_factory.hpp:77] Creating layer ip1
I0521 03:40:57.445617 22284 net.cpp:106] Creating Layer ip1
I0521 03:40:57.445627 22284 net.cpp:454] ip1 <- pool4
I0521 03:40:57.445642 22284 net.cpp:411] ip1 -> ip1
I0521 03:40:57.461110 22284 net.cpp:150] Setting up ip1
I0521 03:40:57.461138 22284 net.cpp:157] Top shape: 610 196 (119560)
I0521 03:40:57.461153 22284 net.cpp:165] Memory required for data: 961333160
I0521 03:40:57.461175 22284 layer_factory.hpp:77] Creating layer relu5
I0521 03:40:57.461189 22284 net.cpp:106] Creating Layer relu5
I0521 03:40:57.461200 22284 net.cpp:454] relu5 <- ip1
I0521 03:40:57.461213 22284 net.cpp:397] relu5 -> ip1 (in-place)
I0521 03:40:57.461560 22284 net.cpp:150] Setting up relu5
I0521 03:40:57.461575 22284 net.cpp:157] Top shape: 610 196 (119560)
I0521 03:40:57.461585 22284 net.cpp:165] Memory required for data: 961811400
I0521 03:40:57.461594 22284 layer_factory.hpp:77] Creating layer drop1
I0521 03:40:57.461613 22284 net.cpp:106] Creating Layer drop1
I0521 03:40:57.461623 22284 net.cpp:454] drop1 <- ip1
I0521 03:40:57.461637 22284 net.cpp:397] drop1 -> ip1 (in-place)
I0521 03:40:57.461680 22284 net.cpp:150] Setting up drop1
I0521 03:40:57.461694 22284 net.cpp:157] Top shape: 610 196 (119560)
I0521 03:40:57.461702 22284 net.cpp:165] Memory required for data: 962289640
I0521 03:40:57.461711 22284 layer_factory.hpp:77] Creating layer ip2
I0521 03:40:57.461726 22284 net.cpp:106] Creating Layer ip2
I0521 03:40:57.461736 22284 net.cpp:454] ip2 <- ip1
I0521 03:40:57.461750 22284 net.cpp:411] ip2 -> ip2
I0521 03:40:57.462229 22284 net.cpp:150] Setting up ip2
I0521 03:40:57.462242 22284 net.cpp:157] Top shape: 610 98 (59780)
I0521 03:40:57.462252 22284 net.cpp:165] Memory required for data: 962528760
I0521 03:40:57.462280 22284 layer_factory.hpp:77] Creating layer relu6
I0521 03:40:57.462293 22284 net.cpp:106] Creating Layer relu6
I0521 03:40:57.462304 22284 net.cpp:454] relu6 <- ip2
I0521 03:40:57.462317 22284 net.cpp:397] relu6 -> ip2 (in-place)
I0521 03:40:57.462846 22284 net.cpp:150] Setting up relu6
I0521 03:40:57.462862 22284 net.cpp:157] Top shape: 610 98 (59780)
I0521 03:40:57.462872 22284 net.cpp:165] Memory required for data: 962767880
I0521 03:40:57.462882 22284 layer_factory.hpp:77] Creating layer drop2
I0521 03:40:57.462895 22284 net.cpp:106] Creating Layer drop2
I0521 03:40:57.462905 22284 net.cpp:454] drop2 <- ip2
I0521 03:40:57.462918 22284 net.cpp:397] drop2 -> ip2 (in-place)
I0521 03:40:57.462962 22284 net.cpp:150] Setting up drop2
I0521 03:40:57.462975 22284 net.cpp:157] Top shape: 610 98 (59780)
I0521 03:40:57.462985 22284 net.cpp:165] Memory required for data: 963007000
I0521 03:40:57.462996 22284 layer_factory.hpp:77] Creating layer ip3
I0521 03:40:57.463009 22284 net.cpp:106] Creating Layer ip3
I0521 03:40:57.463019 22284 net.cpp:454] ip3 <- ip2
I0521 03:40:57.463032 22284 net.cpp:411] ip3 -> ip3
I0521 03:40:57.463256 22284 net.cpp:150] Setting up ip3
I0521 03:40:57.463269 22284 net.cpp:157] Top shape: 610 11 (6710)
I0521 03:40:57.463279 22284 net.cpp:165] Memory required for data: 963033840
I0521 03:40:57.463295 22284 layer_factory.hpp:77] Creating layer drop3
I0521 03:40:57.463309 22284 net.cpp:106] Creating Layer drop3
I0521 03:40:57.463318 22284 net.cpp:454] drop3 <- ip3
I0521 03:40:57.463331 22284 net.cpp:397] drop3 -> ip3 (in-place)
I0521 03:40:57.463372 22284 net.cpp:150] Setting up drop3
I0521 03:40:57.463385 22284 net.cpp:157] Top shape: 610 11 (6710)
I0521 03:40:57.463395 22284 net.cpp:165] Memory required for data: 963060680
I0521 03:40:57.463405 22284 layer_factory.hpp:77] Creating layer ip3_drop3_0_split
I0521 03:40:57.463418 22284 net.cpp:106] Creating Layer ip3_drop3_0_split
I0521 03:40:57.463428 22284 net.cpp:454] ip3_drop3_0_split <- ip3
I0521 03:40:57.463440 22284 net.cpp:411] ip3_drop3_0_split -> ip3_drop3_0_split_0
I0521 03:40:57.463455 22284 net.cpp:411] ip3_drop3_0_split -> ip3_drop3_0_split_1
I0521 03:40:57.463529 22284 net.cpp:150] Setting up ip3_drop3_0_split
I0521 03:40:57.463542 22284 net.cpp:157] Top shape: 610 11 (6710)
I0521 03:40:57.463554 22284 net.cpp:157] Top shape: 610 11 (6710)
I0521 03:40:57.463564 22284 net.cpp:165] Memory required for data: 963114360
I0521 03:40:57.463574 22284 layer_factory.hpp:77] Creating layer accuracy
I0521 03:40:57.463595 22284 net.cpp:106] Creating Layer accuracy
I0521 03:40:57.463605 22284 net.cpp:454] accuracy <- ip3_drop3_0_split_0
I0521 03:40:57.463618 22284 net.cpp:454] accuracy <- label_data_hdf5_1_split_0
I0521 03:40:57.463630 22284 net.cpp:411] accuracy -> accuracy
…
