…
I0520 20:39:37.177637   534 net.cpp:322] The NetState phase (0) differed from the phase (1) specified by a rule in layer data_hdf5
I0520 20:39:37.177698   534 net.cpp:322] The NetState phase (0) differed from the phase (1) specified by a rule in layer accuracy
I0520 20:39:37.178041   534 net.cpp:49] Initializing net from parameters: 
name: "caffe_test_127x50_x_unshifted"
state {
  phase: TRAIN
}
layer {
  name: "data_hdf5"
  type: "HDF5Data"
  top: "data"
  top: "label"
  include {
    phase: TRAIN
  }
  hdf5_data_param {
    source: "/lustre/atlas/proj-shared/hep105/caffe_titan/minosmatch_nukecczdefs_127x50_x_unshifted_me1Bmc.trainlist"
    batch_size: 290
  }
}
layer {
  name: "conv1"
  type: "Convolution"
  bottom: "data"
  top: "conv1"
  convolution_param {
    num_output: 12
    pad: 0
    stride: 1
    weight_filler {
      type: "xavier"
    }
    bias_filler {
      type: "constant"
    }
    kernel_h: 8
    kernel_w: 3
  }
}
layer {
  name: "relu1"
  type: "ReLU"
  bottom: "conv1"
  top: "conv1"
}
layer {
  name: "pool1"
  type: "Pooling"
  bottom: "conv1"
  top: "pool1"
  pooling_param {
    pool: MAX
    kernel_h: 2
    kernel_w: 1
    stride_h: 2
    stride_w: 1
  }
}
layer {
  name: "conv2"
  type: "Convolution"
  bottom: "pool1"
  top: "conv2"
  convolution_param {
    num_output: 20
    pad: 0
    stride: 1
    weight_filler {
      type: "xavier"
    }
    bias_filler {
      type: "constant"
    }
    kernel_h: 7
    kernel_w: 3
  }
}
layer {
  name: "relu2"
  type: "ReLU"
  bottom: "conv2"
  top: "conv2"
}
layer {
  name: "pool2"
  type: "Pooling"
  bottom: "conv2"
  top: "pool2"
  pooling_param {
    pool: MAX
    kernel_h: 2
    kernel_w: 1
    stride_h: 2
    stride_w: 1
  }
}
layer {
  name: "conv3"
  type: "Convolution"
  bottom: "pool2"
  top: "conv3"
  convolution_param {
    num_output: 28
    pad: 0
    stride: 1
    weight_filler {
      type: "xavier"
    }
    bias_filler {
      type: "constant"
    }
    kernel_h: 6
    kernel_w: 3
  }
}
layer {
  name: "relu3"
  type: "ReLU"
  bottom: "conv3"
  top: "conv3"
}
layer {
  name: "pool3"
  type: "Pooling"
  bottom: "conv3"
  top: "pool3"
  pooling_param {
    pool: MAX
    kernel_h: 2
    kernel_w: 1
    stride_h: 2
    stride_w: 1
  }
}
layer {
  name: "conv4"
  type: "Convolution"
  bottom: "pool3"
  top: "conv4"
  convolution_param {
    num_output: 36
    pad: 0
    stride: 1
    weight_filler {
      type: "xavier"
    }
    bias_filler {
      type: "constant"
    }
    kernel_h: 6
    kernel_w: 3
  }
}
layer {
  name: "relu4"
  type: "ReLU"
  bottom: "conv4"
  top: "conv4"
}
layer {
  name: "pool4"
  type: "Pooling"
  bottom: "conv4"
  top: "pool4"
  pooling_param {
    pool: MAX
    kernel_h: 2
    kernel_w: 1
    stride_h: 2
    stride_w: 1
  }
}
layer {
  name: "ip1"
  type: "InnerProduct"
  bottom: "pool4"
  top: "ip1"
  inner_product_param {
    num_output: 196
    weight_filler {
      type: "xavier"
    }
    bias_filler {
      type: "constant"
    }
  }
}
layer {
  name: "relu5"
  type: "ReLU"
  bottom: "ip1"
  top: "ip1"
}
layer {
  name: "drop1"
  type: "Dropout"
  bottom: "ip1"
  top: "ip1"
  dropout_param {
    dropout_ratio: 0.5
  }
}
layer {
  name: "ip2"
  type: "InnerProduct"
  bottom: "ip1"
  top: "ip2"
  inner_product_param {
    num_output: 98
    weight_filler {
      type: "xavier"
    }
    bias_filler {
      type: "constant"
    }
  }
}
layer {
  name: "relu6"
  type: "ReLU"
  bottom: "ip2"
  top: "ip2"
}
layer {
  name: "drop2"
  type: "Dropout"
  bottom: "ip2"
  top: "ip2"
  dropout_param {
    dropout_ratio: 0.5
  }
}
layer {
  name: "ip3"
  type: "InnerProduct"
  bottom: "ip2"
  top: "ip3"
  inner_product_param {
    num_output: 11
    weight_filler {
      type: "xavier"
    }
    bias_filler {
      type: "constant"
    }
  }
}
layer {
  name: "drop3"
  type: "Dropout"
  bottom: "ip3"
  top: "ip3"
  dropout_param {
    dropout_ratio: 0.5
  }
}
layer {
  name: "loss"
  type: "SoftmaxWithLoss"
  bottom: "ip3"
  bottom: "label"
  top: "loss"
}
I0520 20:39:37.178220   534 layer_factory.hpp:77] Creating layer data_hdf5
I0520 20:39:37.178243   534 net.cpp:106] Creating Layer data_hdf5
I0520 20:39:37.178257   534 net.cpp:411] data_hdf5 -> data
I0520 20:39:37.178299   534 net.cpp:411] data_hdf5 -> label
I0520 20:39:37.178333   534 hdf5_data_layer.cpp:79] Loading list of HDF5 filenames from: /lustre/atlas/proj-shared/hep105/caffe_titan/minosmatch_nukecczdefs_127x50_x_unshifted_me1Bmc.trainlist
I0520 20:39:37.179566   534 hdf5_data_layer.cpp:93] Number of HDF5 files: 15
I0520 20:39:37.181794   534 hdf5.cpp:32] Datatype class: H5T_FLOAT
I0520 20:39:58.734149   534 hdf5.cpp:35] Datatype class: H5T_INTEGER
I0520 20:39:58.739269   534 net.cpp:150] Setting up data_hdf5
I0520 20:39:58.739311   534 net.cpp:157] Top shape: 290 1 127 50 (1841500)
I0520 20:39:58.739326   534 net.cpp:157] Top shape: 290 (290)
I0520 20:39:58.739336   534 net.cpp:165] Memory required for data: 7367160
I0520 20:39:58.739349   534 layer_factory.hpp:77] Creating layer conv1
I0520 20:39:58.739383   534 net.cpp:106] Creating Layer conv1
I0520 20:39:58.739395   534 net.cpp:454] conv1 <- data
I0520 20:39:58.739418   534 net.cpp:411] conv1 -> conv1
I0520 20:39:59.444125   534 net.cpp:150] Setting up conv1
I0520 20:39:59.444169   534 net.cpp:157] Top shape: 290 12 120 48 (20044800)
I0520 20:39:59.444180   534 net.cpp:165] Memory required for data: 87546360
I0520 20:39:59.444211   534 layer_factory.hpp:77] Creating layer relu1
I0520 20:39:59.444232   534 net.cpp:106] Creating Layer relu1
I0520 20:39:59.444242   534 net.cpp:454] relu1 <- conv1
I0520 20:39:59.444257   534 net.cpp:397] relu1 -> conv1 (in-place)
I0520 20:39:59.444773   534 net.cpp:150] Setting up relu1
I0520 20:39:59.444790   534 net.cpp:157] Top shape: 290 12 120 48 (20044800)
I0520 20:39:59.444802   534 net.cpp:165] Memory required for data: 167725560
I0520 20:39:59.444813   534 layer_factory.hpp:77] Creating layer pool1
I0520 20:39:59.444829   534 net.cpp:106] Creating Layer pool1
I0520 20:39:59.444839   534 net.cpp:454] pool1 <- conv1
I0520 20:39:59.444854   534 net.cpp:411] pool1 -> pool1
I0520 20:39:59.444934   534 net.cpp:150] Setting up pool1
I0520 20:39:59.444949   534 net.cpp:157] Top shape: 290 12 60 48 (10022400)
I0520 20:39:59.444962   534 net.cpp:165] Memory required for data: 207815160
I0520 20:39:59.444972   534 layer_factory.hpp:77] Creating layer conv2
I0520 20:39:59.444994   534 net.cpp:106] Creating Layer conv2
I0520 20:39:59.445004   534 net.cpp:454] conv2 <- pool1
I0520 20:39:59.445017   534 net.cpp:411] conv2 -> conv2
I0520 20:39:59.447697   534 net.cpp:150] Setting up conv2
I0520 20:39:59.447726   534 net.cpp:157] Top shape: 290 20 54 46 (14407200)
I0520 20:39:59.447736   534 net.cpp:165] Memory required for data: 265443960
I0520 20:39:59.447756   534 layer_factory.hpp:77] Creating layer relu2
I0520 20:39:59.447769   534 net.cpp:106] Creating Layer relu2
I0520 20:39:59.447779   534 net.cpp:454] relu2 <- conv2
I0520 20:39:59.447793   534 net.cpp:397] relu2 -> conv2 (in-place)
I0520 20:39:59.448123   534 net.cpp:150] Setting up relu2
I0520 20:39:59.448138   534 net.cpp:157] Top shape: 290 20 54 46 (14407200)
I0520 20:39:59.448148   534 net.cpp:165] Memory required for data: 323072760
I0520 20:39:59.448158   534 layer_factory.hpp:77] Creating layer pool2
I0520 20:39:59.448171   534 net.cpp:106] Creating Layer pool2
I0520 20:39:59.448181   534 net.cpp:454] pool2 <- conv2
I0520 20:39:59.448206   534 net.cpp:411] pool2 -> pool2
I0520 20:39:59.448276   534 net.cpp:150] Setting up pool2
I0520 20:39:59.448288   534 net.cpp:157] Top shape: 290 20 27 46 (7203600)
I0520 20:39:59.448300   534 net.cpp:165] Memory required for data: 351887160
I0520 20:39:59.448310   534 layer_factory.hpp:77] Creating layer conv3
I0520 20:39:59.448329   534 net.cpp:106] Creating Layer conv3
I0520 20:39:59.448339   534 net.cpp:454] conv3 <- pool2
I0520 20:39:59.448353   534 net.cpp:411] conv3 -> conv3
I0520 20:39:59.450304   534 net.cpp:150] Setting up conv3
I0520 20:39:59.450328   534 net.cpp:157] Top shape: 290 28 22 44 (7860160)
I0520 20:39:59.450340   534 net.cpp:165] Memory required for data: 383327800
I0520 20:39:59.450358   534 layer_factory.hpp:77] Creating layer relu3
I0520 20:39:59.450374   534 net.cpp:106] Creating Layer relu3
I0520 20:39:59.450384   534 net.cpp:454] relu3 <- conv3
I0520 20:39:59.450397   534 net.cpp:397] relu3 -> conv3 (in-place)
I0520 20:39:59.450868   534 net.cpp:150] Setting up relu3
I0520 20:39:59.450886   534 net.cpp:157] Top shape: 290 28 22 44 (7860160)
I0520 20:39:59.450896   534 net.cpp:165] Memory required for data: 414768440
I0520 20:39:59.450906   534 layer_factory.hpp:77] Creating layer pool3
I0520 20:39:59.450919   534 net.cpp:106] Creating Layer pool3
I0520 20:39:59.450929   534 net.cpp:454] pool3 <- conv3
I0520 20:39:59.450942   534 net.cpp:411] pool3 -> pool3
I0520 20:39:59.451010   534 net.cpp:150] Setting up pool3
I0520 20:39:59.451025   534 net.cpp:157] Top shape: 290 28 11 44 (3930080)
I0520 20:39:59.451035   534 net.cpp:165] Memory required for data: 430488760
I0520 20:39:59.451045   534 layer_factory.hpp:77] Creating layer conv4
I0520 20:39:59.451061   534 net.cpp:106] Creating Layer conv4
I0520 20:39:59.451072   534 net.cpp:454] conv4 <- pool3
I0520 20:39:59.451086   534 net.cpp:411] conv4 -> conv4
I0520 20:39:59.453810   534 net.cpp:150] Setting up conv4
I0520 20:39:59.453840   534 net.cpp:157] Top shape: 290 36 6 42 (2630880)
I0520 20:39:59.453852   534 net.cpp:165] Memory required for data: 441012280
I0520 20:39:59.453868   534 layer_factory.hpp:77] Creating layer relu4
I0520 20:39:59.453881   534 net.cpp:106] Creating Layer relu4
I0520 20:39:59.453891   534 net.cpp:454] relu4 <- conv4
I0520 20:39:59.453905   534 net.cpp:397] relu4 -> conv4 (in-place)
I0520 20:39:59.454382   534 net.cpp:150] Setting up relu4
I0520 20:39:59.454398   534 net.cpp:157] Top shape: 290 36 6 42 (2630880)
I0520 20:39:59.454409   534 net.cpp:165] Memory required for data: 451535800
I0520 20:39:59.454421   534 layer_factory.hpp:77] Creating layer pool4
I0520 20:39:59.454433   534 net.cpp:106] Creating Layer pool4
I0520 20:39:59.454443   534 net.cpp:454] pool4 <- conv4
I0520 20:39:59.454457   534 net.cpp:411] pool4 -> pool4
I0520 20:39:59.454525   534 net.cpp:150] Setting up pool4
I0520 20:39:59.454540   534 net.cpp:157] Top shape: 290 36 3 42 (1315440)
I0520 20:39:59.454550   534 net.cpp:165] Memory required for data: 456797560
I0520 20:39:59.454560   534 layer_factory.hpp:77] Creating layer ip1
I0520 20:39:59.454578   534 net.cpp:106] Creating Layer ip1
I0520 20:39:59.454589   534 net.cpp:454] ip1 <- pool4
I0520 20:39:59.454603   534 net.cpp:411] ip1 -> ip1
I0520 20:39:59.470005   534 net.cpp:150] Setting up ip1
I0520 20:39:59.470033   534 net.cpp:157] Top shape: 290 196 (56840)
I0520 20:39:59.470046   534 net.cpp:165] Memory required for data: 457024920
I0520 20:39:59.470067   534 layer_factory.hpp:77] Creating layer relu5
I0520 20:39:59.470082   534 net.cpp:106] Creating Layer relu5
I0520 20:39:59.470093   534 net.cpp:454] relu5 <- ip1
I0520 20:39:59.470105   534 net.cpp:397] relu5 -> ip1 (in-place)
I0520 20:39:59.470454   534 net.cpp:150] Setting up relu5
I0520 20:39:59.470469   534 net.cpp:157] Top shape: 290 196 (56840)
I0520 20:39:59.470479   534 net.cpp:165] Memory required for data: 457252280
I0520 20:39:59.470489   534 layer_factory.hpp:77] Creating layer drop1
I0520 20:39:59.470511   534 net.cpp:106] Creating Layer drop1
I0520 20:39:59.470521   534 net.cpp:454] drop1 <- ip1
I0520 20:39:59.470547   534 net.cpp:397] drop1 -> ip1 (in-place)
I0520 20:39:59.470595   534 net.cpp:150] Setting up drop1
I0520 20:39:59.470609   534 net.cpp:157] Top shape: 290 196 (56840)
I0520 20:39:59.470619   534 net.cpp:165] Memory required for data: 457479640
I0520 20:39:59.470629   534 layer_factory.hpp:77] Creating layer ip2
I0520 20:39:59.470649   534 net.cpp:106] Creating Layer ip2
I0520 20:39:59.470659   534 net.cpp:454] ip2 <- ip1
I0520 20:39:59.470672   534 net.cpp:411] ip2 -> ip2
I0520 20:39:59.471135   534 net.cpp:150] Setting up ip2
I0520 20:39:59.471149   534 net.cpp:157] Top shape: 290 98 (28420)
I0520 20:39:59.471159   534 net.cpp:165] Memory required for data: 457593320
I0520 20:39:59.471174   534 layer_factory.hpp:77] Creating layer relu6
I0520 20:39:59.471186   534 net.cpp:106] Creating Layer relu6
I0520 20:39:59.471196   534 net.cpp:454] relu6 <- ip2
I0520 20:39:59.471207   534 net.cpp:397] relu6 -> ip2 (in-place)
I0520 20:39:59.471725   534 net.cpp:150] Setting up relu6
I0520 20:39:59.471741   534 net.cpp:157] Top shape: 290 98 (28420)
I0520 20:39:59.471751   534 net.cpp:165] Memory required for data: 457707000
I0520 20:39:59.471762   534 layer_factory.hpp:77] Creating layer drop2
I0520 20:39:59.471779   534 net.cpp:106] Creating Layer drop2
I0520 20:39:59.471789   534 net.cpp:454] drop2 <- ip2
I0520 20:39:59.471802   534 net.cpp:397] drop2 -> ip2 (in-place)
I0520 20:39:59.471844   534 net.cpp:150] Setting up drop2
I0520 20:39:59.471858   534 net.cpp:157] Top shape: 290 98 (28420)
I0520 20:39:59.471868   534 net.cpp:165] Memory required for data: 457820680
I0520 20:39:59.471879   534 layer_factory.hpp:77] Creating layer ip3
I0520 20:39:59.471892   534 net.cpp:106] Creating Layer ip3
I0520 20:39:59.471901   534 net.cpp:454] ip3 <- ip2
I0520 20:39:59.471915   534 net.cpp:411] ip3 -> ip3
I0520 20:39:59.472123   534 net.cpp:150] Setting up ip3
I0520 20:39:59.472136   534 net.cpp:157] Top shape: 290 11 (3190)
I0520 20:39:59.472147   534 net.cpp:165] Memory required for data: 457833440
I0520 20:39:59.472162   534 layer_factory.hpp:77] Creating layer drop3
I0520 20:39:59.472174   534 net.cpp:106] Creating Layer drop3
I0520 20:39:59.472184   534 net.cpp:454] drop3 <- ip3
I0520 20:39:59.472196   534 net.cpp:397] drop3 -> ip3 (in-place)
I0520 20:39:59.472235   534 net.cpp:150] Setting up drop3
I0520 20:39:59.472250   534 net.cpp:157] Top shape: 290 11 (3190)
I0520 20:39:59.472259   534 net.cpp:165] Memory required for data: 457846200
I0520 20:39:59.472270   534 layer_factory.hpp:77] Creating layer loss
I0520 20:39:59.472288   534 net.cpp:106] Creating Layer loss
I0520 20:39:59.472298   534 net.cpp:454] loss <- ip3
I0520 20:39:59.472309   534 net.cpp:454] loss <- label
I0520 20:39:59.472323   534 net.cpp:411] loss -> loss
I0520 20:39:59.472339   534 layer_factory.hpp:77] Creating layer loss
…
I0520 20:39:59.474939   534 solver.cpp:181] Creating test net (#0) specified by net file: /lustre/atlas/proj-shared/hep105/caffe_titan/caffe_workflow/logs_batch_size_test/batch_size_290_2016-05-20T11.20.43.288755.prototxt
I0520 20:39:59.475010   534 net.cpp:322] The NetState phase (1) differed from the phase (0) specified by a rule in layer data_hdf5
I0520 20:39:59.475366   534 net.cpp:49] Initializing net from parameters: 
name: "caffe_test_127x50_x_unshifted"
state {
  phase: TEST
}
layer {
  name: "data_hdf5"
  type: "HDF5Data"
  top: "data"
  top: "label"
  include {
    phase: TEST
  }
  hdf5_data_param {
    source: "/lustre/atlas/proj-shared/hep105/caffe_titan/minosmatch_nukecczdefs_127x50_x_unshifted_me1Bmc.testlist"
    batch_size: 290
  }
}
layer {
  name: "conv1"
  type: "Convolution"
  bottom: "data"
  top: "conv1"
  convolution_param {
    num_output: 12
    pad: 0
    stride: 1
    weight_filler {
      type: "xavier"
    }
    bias_filler {
      type: "constant"
    }
    kernel_h: 8
    kernel_w: 3
  }
}
layer {
  name: "relu1"
  type: "ReLU"
  bottom: "conv1"
  top: "conv1"
}
layer {
  name: "pool1"
  type: "Pooling"
  bottom: "conv1"
  top: "pool1"
  pooling_param {
    pool: MAX
    kernel_h: 2
    kernel_w: 1
    stride_h: 2
    stride_w: 1
  }
}
layer {
  name: "conv2"
  type: "Convolution"
  bottom: "pool1"
  top: "conv2"
  convolution_param {
    num_output: 20
    pad: 0
    stride: 1
    weight_filler {
      type: "xavier"
    }
    bias_filler {
      type: "constant"
    }
    kernel_h: 7
    kernel_w: 3
  }
}
layer {
  name: "relu2"
  type: "ReLU"
  bottom: "conv2"
  top: "conv2"
}
layer {
  name: "pool2"
  type: "Pooling"
  bottom: "conv2"
  top: "pool2"
  pooling_param {
    pool: MAX
    kernel_h: 2
    kernel_w: 1
    stride_h: 2
    stride_w: 1
  }
}
layer {
  name: "conv3"
  type: "Convolution"
  bottom: "pool2"
  top: "conv3"
  convolution_param {
    num_output: 28
    pad: 0
    stride: 1
    weight_filler {
      type: "xavier"
    }
    bias_filler {
      type: "constant"
    }
    kernel_h: 6
    kernel_w: 3
  }
}
layer {
  name: "relu3"
  type: "ReLU"
  bottom: "conv3"
  top: "conv3"
}
layer {
  name: "pool3"
  type: "Pooling"
  bottom: "conv3"
  top: "pool3"
  pooling_param {
    pool: MAX
    kernel_h: 2
    kernel_w: 1
    stride_h: 2
    stride_w: 1
  }
}
layer {
  name: "conv4"
  type: "Convolution"
  bottom: "pool3"
  top: "conv4"
  convolution_param {
    num_output: 36
    pad: 0
    stride: 1
    weight_filler {
      type: "xavier"
    }
    bias_filler {
      type: "constant"
    }
    kernel_h: 6
    kernel_w: 3
  }
}
layer {
  name: "relu4"
  type: "ReLU"
  bottom: "conv4"
  top: "conv4"
}
layer {
  name: "pool4"
  type: "Pooling"
  bottom: "conv4"
  top: "pool4"
  pooling_param {
    pool: MAX
    kernel_h: 2
    kernel_w: 1
    stride_h: 2
    stride_w: 1
  }
}
layer {
  name: "ip1"
  type: "InnerProduct"
  bottom: "pool4"
  top: "ip1"
  inner_product_param {
    num_output: 196
    weight_filler {
      type: "xavier"
    }
    bias_filler {
      type: "constant"
    }
  }
}
layer {
  name: "relu5"
  type: "ReLU"
  bottom: "ip1"
  top: "ip1"
}
layer {
  name: "drop1"
  type: "Dropout"
  bottom: "ip1"
  top: "ip1"
  dropout_param {
    dropout_ratio: 0.5
  }
}
layer {
  name: "ip2"
  type: "InnerProduct"
  bottom: "ip1"
  top: "ip2"
  inner_product_param {
    num_output: 98
    weight_filler {
      type: "xavier"
    }
    bias_filler {
      type: "constant"
    }
  }
}
layer {
  name: "relu6"
  type: "ReLU"
  bottom: "ip2"
  top: "ip2"
}
layer {
  name: "drop2"
  type: "Dropout"
  bottom: "ip2"
  top: "ip2"
  dropout_param {
    dropout_ratio: 0.5
  }
}
layer {
  name: "ip3"
  type: "InnerProduct"
  bottom: "ip2"
  top: "ip3"
  inner_product_param {
    num_output: 11
    weight_filler {
      type: "xavier"
    }
    bias_filler {
      type: "constant"
    }
  }
}
layer {
  name: "drop3"
  type: "Dropout"
  bottom: "ip3"
  top: "ip3"
  dropout_param {
    dropout_ratio: 0.5
  }
}
layer {
  name: "accuracy"
  type: "Accuracy"
  bottom: "ip3"
  bottom: "label"
  top: "accuracy"
  include {
    phase: TEST
  }
}
layer {
  name: "loss"
  type: "SoftmaxWithLoss"
  bottom: "ip3"
  bottom: "label"
  top: "loss"
}
I0520 20:39:59.475556   534 layer_factory.hpp:77] Creating layer data_hdf5
I0520 20:39:59.475572   534 net.cpp:106] Creating Layer data_hdf5
I0520 20:39:59.475585   534 net.cpp:411] data_hdf5 -> data
I0520 20:39:59.475602   534 net.cpp:411] data_hdf5 -> label
I0520 20:39:59.475617   534 hdf5_data_layer.cpp:79] Loading list of HDF5 filenames from: /lustre/atlas/proj-shared/hep105/caffe_titan/minosmatch_nukecczdefs_127x50_x_unshifted_me1Bmc.testlist
I0520 20:39:59.476907   534 hdf5_data_layer.cpp:93] Number of HDF5 files: 3
I0520 20:40:20.809314   534 net.cpp:150] Setting up data_hdf5
I0520 20:40:20.809481   534 net.cpp:157] Top shape: 290 1 127 50 (1841500)
I0520 20:40:20.809495   534 net.cpp:157] Top shape: 290 (290)
I0520 20:40:20.809509   534 net.cpp:165] Memory required for data: 7367160
I0520 20:40:20.809521   534 layer_factory.hpp:77] Creating layer label_data_hdf5_1_split
I0520 20:40:20.809551   534 net.cpp:106] Creating Layer label_data_hdf5_1_split
I0520 20:40:20.809561   534 net.cpp:454] label_data_hdf5_1_split <- label
I0520 20:40:20.809576   534 net.cpp:411] label_data_hdf5_1_split -> label_data_hdf5_1_split_0
I0520 20:40:20.809597   534 net.cpp:411] label_data_hdf5_1_split -> label_data_hdf5_1_split_1
I0520 20:40:20.809670   534 net.cpp:150] Setting up label_data_hdf5_1_split
I0520 20:40:20.809684   534 net.cpp:157] Top shape: 290 (290)
I0520 20:40:20.809695   534 net.cpp:157] Top shape: 290 (290)
I0520 20:40:20.809705   534 net.cpp:165] Memory required for data: 7369480
I0520 20:40:20.809715   534 layer_factory.hpp:77] Creating layer conv1
I0520 20:40:20.809738   534 net.cpp:106] Creating Layer conv1
I0520 20:40:20.809749   534 net.cpp:454] conv1 <- data
I0520 20:40:20.809763   534 net.cpp:411] conv1 -> conv1
I0520 20:40:20.811718   534 net.cpp:150] Setting up conv1
I0520 20:40:20.811743   534 net.cpp:157] Top shape: 290 12 120 48 (20044800)
I0520 20:40:20.811754   534 net.cpp:165] Memory required for data: 87548680
I0520 20:40:20.811775   534 layer_factory.hpp:77] Creating layer relu1
I0520 20:40:20.811790   534 net.cpp:106] Creating Layer relu1
I0520 20:40:20.811800   534 net.cpp:454] relu1 <- conv1
I0520 20:40:20.811813   534 net.cpp:397] relu1 -> conv1 (in-place)
I0520 20:40:20.812314   534 net.cpp:150] Setting up relu1
I0520 20:40:20.812328   534 net.cpp:157] Top shape: 290 12 120 48 (20044800)
I0520 20:40:20.812340   534 net.cpp:165] Memory required for data: 167727880
I0520 20:40:20.812348   534 layer_factory.hpp:77] Creating layer pool1
I0520 20:40:20.812366   534 net.cpp:106] Creating Layer pool1
I0520 20:40:20.812376   534 net.cpp:454] pool1 <- conv1
I0520 20:40:20.812388   534 net.cpp:411] pool1 -> pool1
I0520 20:40:20.812463   534 net.cpp:150] Setting up pool1
I0520 20:40:20.812476   534 net.cpp:157] Top shape: 290 12 60 48 (10022400)
I0520 20:40:20.812486   534 net.cpp:165] Memory required for data: 207817480
I0520 20:40:20.812497   534 layer_factory.hpp:77] Creating layer conv2
I0520 20:40:20.812515   534 net.cpp:106] Creating Layer conv2
I0520 20:40:20.812526   534 net.cpp:454] conv2 <- pool1
I0520 20:40:20.812541   534 net.cpp:411] conv2 -> conv2
I0520 20:40:20.814455   534 net.cpp:150] Setting up conv2
I0520 20:40:20.814476   534 net.cpp:157] Top shape: 290 20 54 46 (14407200)
I0520 20:40:20.814489   534 net.cpp:165] Memory required for data: 265446280
I0520 20:40:20.814507   534 layer_factory.hpp:77] Creating layer relu2
I0520 20:40:20.814520   534 net.cpp:106] Creating Layer relu2
I0520 20:40:20.814530   534 net.cpp:454] relu2 <- conv2
I0520 20:40:20.814543   534 net.cpp:397] relu2 -> conv2 (in-place)
I0520 20:40:20.814873   534 net.cpp:150] Setting up relu2
I0520 20:40:20.814888   534 net.cpp:157] Top shape: 290 20 54 46 (14407200)
I0520 20:40:20.814898   534 net.cpp:165] Memory required for data: 323075080
I0520 20:40:20.814908   534 layer_factory.hpp:77] Creating layer pool2
I0520 20:40:20.814921   534 net.cpp:106] Creating Layer pool2
I0520 20:40:20.814931   534 net.cpp:454] pool2 <- conv2
I0520 20:40:20.814944   534 net.cpp:411] pool2 -> pool2
I0520 20:40:20.815014   534 net.cpp:150] Setting up pool2
I0520 20:40:20.815027   534 net.cpp:157] Top shape: 290 20 27 46 (7203600)
I0520 20:40:20.815038   534 net.cpp:165] Memory required for data: 351889480
I0520 20:40:20.815048   534 layer_factory.hpp:77] Creating layer conv3
I0520 20:40:20.815065   534 net.cpp:106] Creating Layer conv3
I0520 20:40:20.815076   534 net.cpp:454] conv3 <- pool2
I0520 20:40:20.815090   534 net.cpp:411] conv3 -> conv3
I0520 20:40:20.817054   534 net.cpp:150] Setting up conv3
I0520 20:40:20.817077   534 net.cpp:157] Top shape: 290 28 22 44 (7860160)
I0520 20:40:20.817088   534 net.cpp:165] Memory required for data: 383330120
I0520 20:40:20.817122   534 layer_factory.hpp:77] Creating layer relu3
I0520 20:40:20.817136   534 net.cpp:106] Creating Layer relu3
I0520 20:40:20.817145   534 net.cpp:454] relu3 <- conv3
I0520 20:40:20.817159   534 net.cpp:397] relu3 -> conv3 (in-place)
I0520 20:40:20.817628   534 net.cpp:150] Setting up relu3
I0520 20:40:20.817644   534 net.cpp:157] Top shape: 290 28 22 44 (7860160)
I0520 20:40:20.817654   534 net.cpp:165] Memory required for data: 414770760
I0520 20:40:20.817664   534 layer_factory.hpp:77] Creating layer pool3
I0520 20:40:20.817677   534 net.cpp:106] Creating Layer pool3
I0520 20:40:20.817687   534 net.cpp:454] pool3 <- conv3
I0520 20:40:20.817700   534 net.cpp:411] pool3 -> pool3
I0520 20:40:20.817771   534 net.cpp:150] Setting up pool3
I0520 20:40:20.817785   534 net.cpp:157] Top shape: 290 28 11 44 (3930080)
I0520 20:40:20.817795   534 net.cpp:165] Memory required for data: 430491080
I0520 20:40:20.817806   534 layer_factory.hpp:77] Creating layer conv4
I0520 20:40:20.817824   534 net.cpp:106] Creating Layer conv4
I0520 20:40:20.817834   534 net.cpp:454] conv4 <- pool3
I0520 20:40:20.817848   534 net.cpp:411] conv4 -> conv4
I0520 20:40:20.819921   534 net.cpp:150] Setting up conv4
I0520 20:40:20.819944   534 net.cpp:157] Top shape: 290 36 6 42 (2630880)
I0520 20:40:20.819954   534 net.cpp:165] Memory required for data: 441014600
I0520 20:40:20.819970   534 layer_factory.hpp:77] Creating layer relu4
I0520 20:40:20.819983   534 net.cpp:106] Creating Layer relu4
I0520 20:40:20.819993   534 net.cpp:454] relu4 <- conv4
I0520 20:40:20.820006   534 net.cpp:397] relu4 -> conv4 (in-place)
I0520 20:40:20.820479   534 net.cpp:150] Setting up relu4
I0520 20:40:20.820495   534 net.cpp:157] Top shape: 290 36 6 42 (2630880)
I0520 20:40:20.820505   534 net.cpp:165] Memory required for data: 451538120
I0520 20:40:20.820515   534 layer_factory.hpp:77] Creating layer pool4
I0520 20:40:20.820528   534 net.cpp:106] Creating Layer pool4
I0520 20:40:20.820538   534 net.cpp:454] pool4 <- conv4
I0520 20:40:20.820554   534 net.cpp:411] pool4 -> pool4
I0520 20:40:20.820624   534 net.cpp:150] Setting up pool4
I0520 20:40:20.820638   534 net.cpp:157] Top shape: 290 36 3 42 (1315440)
I0520 20:40:20.820648   534 net.cpp:165] Memory required for data: 456799880
I0520 20:40:20.820659   534 layer_factory.hpp:77] Creating layer ip1
I0520 20:40:20.820674   534 net.cpp:106] Creating Layer ip1
I0520 20:40:20.820684   534 net.cpp:454] ip1 <- pool4
I0520 20:40:20.820698   534 net.cpp:411] ip1 -> ip1
I0520 20:40:20.836168   534 net.cpp:150] Setting up ip1
I0520 20:40:20.836196   534 net.cpp:157] Top shape: 290 196 (56840)
I0520 20:40:20.836207   534 net.cpp:165] Memory required for data: 457027240
I0520 20:40:20.836230   534 layer_factory.hpp:77] Creating layer relu5
I0520 20:40:20.836246   534 net.cpp:106] Creating Layer relu5
I0520 20:40:20.836256   534 net.cpp:454] relu5 <- ip1
I0520 20:40:20.836269   534 net.cpp:397] relu5 -> ip1 (in-place)
I0520 20:40:20.836616   534 net.cpp:150] Setting up relu5
I0520 20:40:20.836629   534 net.cpp:157] Top shape: 290 196 (56840)
I0520 20:40:20.836639   534 net.cpp:165] Memory required for data: 457254600
I0520 20:40:20.836649   534 layer_factory.hpp:77] Creating layer drop1
I0520 20:40:20.836668   534 net.cpp:106] Creating Layer drop1
I0520 20:40:20.836679   534 net.cpp:454] drop1 <- ip1
I0520 20:40:20.836693   534 net.cpp:397] drop1 -> ip1 (in-place)
I0520 20:40:20.836736   534 net.cpp:150] Setting up drop1
I0520 20:40:20.836750   534 net.cpp:157] Top shape: 290 196 (56840)
I0520 20:40:20.836760   534 net.cpp:165] Memory required for data: 457481960
I0520 20:40:20.836771   534 layer_factory.hpp:77] Creating layer ip2
I0520 20:40:20.836784   534 net.cpp:106] Creating Layer ip2
I0520 20:40:20.836794   534 net.cpp:454] ip2 <- ip1
I0520 20:40:20.836808   534 net.cpp:411] ip2 -> ip2
I0520 20:40:20.837288   534 net.cpp:150] Setting up ip2
I0520 20:40:20.837301   534 net.cpp:157] Top shape: 290 98 (28420)
I0520 20:40:20.837311   534 net.cpp:165] Memory required for data: 457595640
I0520 20:40:20.837342   534 layer_factory.hpp:77] Creating layer relu6
I0520 20:40:20.837357   534 net.cpp:106] Creating Layer relu6
I0520 20:40:20.837366   534 net.cpp:454] relu6 <- ip2
I0520 20:40:20.837378   534 net.cpp:397] relu6 -> ip2 (in-place)
I0520 20:40:20.837913   534 net.cpp:150] Setting up relu6
I0520 20:40:20.837934   534 net.cpp:157] Top shape: 290 98 (28420)
I0520 20:40:20.837944   534 net.cpp:165] Memory required for data: 457709320
I0520 20:40:20.837954   534 layer_factory.hpp:77] Creating layer drop2
I0520 20:40:20.837970   534 net.cpp:106] Creating Layer drop2
I0520 20:40:20.837980   534 net.cpp:454] drop2 <- ip2
I0520 20:40:20.837992   534 net.cpp:397] drop2 -> ip2 (in-place)
I0520 20:40:20.838037   534 net.cpp:150] Setting up drop2
I0520 20:40:20.838050   534 net.cpp:157] Top shape: 290 98 (28420)
I0520 20:40:20.838060   534 net.cpp:165] Memory required for data: 457823000
I0520 20:40:20.838070   534 layer_factory.hpp:77] Creating layer ip3
I0520 20:40:20.838084   534 net.cpp:106] Creating Layer ip3
I0520 20:40:20.838094   534 net.cpp:454] ip3 <- ip2
I0520 20:40:20.838109   534 net.cpp:411] ip3 -> ip3
I0520 20:40:20.838341   534 net.cpp:150] Setting up ip3
I0520 20:40:20.838354   534 net.cpp:157] Top shape: 290 11 (3190)
I0520 20:40:20.838364   534 net.cpp:165] Memory required for data: 457835760
I0520 20:40:20.838379   534 layer_factory.hpp:77] Creating layer drop3
I0520 20:40:20.838393   534 net.cpp:106] Creating Layer drop3
I0520 20:40:20.838403   534 net.cpp:454] drop3 <- ip3
I0520 20:40:20.838416   534 net.cpp:397] drop3 -> ip3 (in-place)
I0520 20:40:20.838457   534 net.cpp:150] Setting up drop3
I0520 20:40:20.838470   534 net.cpp:157] Top shape: 290 11 (3190)
I0520 20:40:20.838480   534 net.cpp:165] Memory required for data: 457848520
I0520 20:40:20.838490   534 layer_factory.hpp:77] Creating layer ip3_drop3_0_split
I0520 20:40:20.838502   534 net.cpp:106] Creating Layer ip3_drop3_0_split
I0520 20:40:20.838512   534 net.cpp:454] ip3_drop3_0_split <- ip3
I0520 20:40:20.838526   534 net.cpp:411] ip3_drop3_0_split -> ip3_drop3_0_split_0
I0520 20:40:20.838541   534 net.cpp:411] ip3_drop3_0_split -> ip3_drop3_0_split_1
I0520 20:40:20.838614   534 net.cpp:150] Setting up ip3_drop3_0_split
I0520 20:40:20.838627   534 net.cpp:157] Top shape: 290 11 (3190)
I0520 20:40:20.838640   534 net.cpp:157] Top shape: 290 11 (3190)
I0520 20:40:20.838650   534 net.cpp:165] Memory required for data: 457874040
I0520 20:40:20.838661   534 layer_factory.hpp:77] Creating layer accuracy
I0520 20:40:20.838683   534 net.cpp:106] Creating Layer accuracy
I0520 20:40:20.838693   534 net.cpp:454] accuracy <- ip3_drop3_0_split_0
I0520 20:40:20.838704   534 net.cpp:454] accuracy <- label_data_hdf5_1_split_0
I0520 20:40:20.838718   534 net.cpp:411] accuracy -> accuracy
…
