…
I0521 07:02:38.959702  2580 net.cpp:322] The NetState phase (0) differed from the phase (1) specified by a rule in layer data_hdf5
I0521 07:02:38.959763  2580 net.cpp:322] The NetState phase (0) differed from the phase (1) specified by a rule in layer accuracy
I0521 07:02:38.960108  2580 net.cpp:49] Initializing net from parameters: 
name: "caffe_test_127x50_x_unshifted"
state {
  phase: TRAIN
}
layer {
  name: "data_hdf5"
  type: "HDF5Data"
  top: "data"
  top: "label"
  include {
    phase: TRAIN
  }
  hdf5_data_param {
    source: "/lustre/atlas/proj-shared/hep105/caffe_titan/minosmatch_nukecczdefs_127x50_x_unshifted_me1Bmc.trainlist"
    batch_size: 790
  }
}
layer {
  name: "conv1"
  type: "Convolution"
  bottom: "data"
  top: "conv1"
  convolution_param {
    num_output: 12
    pad: 0
    stride: 1
    weight_filler {
      type: "xavier"
    }
    bias_filler {
      type: "constant"
    }
    kernel_h: 8
    kernel_w: 3
  }
}
layer {
  name: "relu1"
  type: "ReLU"
  bottom: "conv1"
  top: "conv1"
}
layer {
  name: "pool1"
  type: "Pooling"
  bottom: "conv1"
  top: "pool1"
  pooling_param {
    pool: MAX
    kernel_h: 2
    kernel_w: 1
    stride_h: 2
    stride_w: 1
  }
}
layer {
  name: "conv2"
  type: "Convolution"
  bottom: "pool1"
  top: "conv2"
  convolution_param {
    num_output: 20
    pad: 0
    stride: 1
    weight_filler {
      type: "xavier"
    }
    bias_filler {
      type: "constant"
    }
    kernel_h: 7
    kernel_w: 3
  }
}
layer {
  name: "relu2"
  type: "ReLU"
  bottom: "conv2"
  top: "conv2"
}
layer {
  name: "pool2"
  type: "Pooling"
  bottom: "conv2"
  top: "pool2"
  pooling_param {
    pool: MAX
    kernel_h: 2
    kernel_w: 1
    stride_h: 2
    stride_w: 1
  }
}
layer {
  name: "conv3"
  type: "Convolution"
  bottom: "pool2"
  top: "conv3"
  convolution_param {
    num_output: 28
    pad: 0
    stride: 1
    weight_filler {
      type: "xavier"
    }
    bias_filler {
      type: "constant"
    }
    kernel_h: 6
    kernel_w: 3
  }
}
layer {
  name: "relu3"
  type: "ReLU"
  bottom: "conv3"
  top: "conv3"
}
layer {
  name: "pool3"
  type: "Pooling"
  bottom: "conv3"
  top: "pool3"
  pooling_param {
    pool: MAX
    kernel_h: 2
    kernel_w: 1
    stride_h: 2
    stride_w: 1
  }
}
layer {
  name: "conv4"
  type: "Convolution"
  bottom: "pool3"
  top: "conv4"
  convolution_param {
    num_output: 36
    pad: 0
    stride: 1
    weight_filler {
      type: "xavier"
    }
    bias_filler {
      type: "constant"
    }
    kernel_h: 6
    kernel_w: 3
  }
}
layer {
  name: "relu4"
  type: "ReLU"
  bottom: "conv4"
  top: "conv4"
}
layer {
  name: "pool4"
  type: "Pooling"
  bottom: "conv4"
  top: "pool4"
  pooling_param {
    pool: MAX
    kernel_h: 2
    kernel_w: 1
    stride_h: 2
    stride_w: 1
  }
}
layer {
  name: "ip1"
  type: "InnerProduct"
  bottom: "pool4"
  top: "ip1"
  inner_product_param {
    num_output: 196
    weight_filler {
      type: "xavier"
    }
    bias_filler {
      type: "constant"
    }
  }
}
layer {
  name: "relu5"
  type: "ReLU"
  bottom: "ip1"
  top: "ip1"
}
layer {
  name: "drop1"
  type: "Dropout"
  bottom: "ip1"
  top: "ip1"
  dropout_param {
    dropout_ratio: 0.5
  }
}
layer {
  name: "ip2"
  type: "InnerProduct"
  bottom: "ip1"
  top: "ip2"
  inner_product_param {
    num_output: 98
    weight_filler {
      type: "xavier"
    }
    bias_filler {
      type: "constant"
    }
  }
}
layer {
  name: "relu6"
  type: "ReLU"
  bottom: "ip2"
  top: "ip2"
}
layer {
  name: "drop2"
  type: "Dropout"
  bottom: "ip2"
  top: "ip2"
  dropout_param {
    dropout_ratio: 0.5
  }
}
layer {
  name: "ip3"
  type: "InnerProduct"
  bottom: "ip2"
  top: "ip3"
  inner_product_param {
    num_output: 11
    weight_filler {
      type: "xavier"
    }
    bias_filler {
      type: "constant"
    }
  }
}
layer {
  name: "drop3"
  type: "Dropout"
  bottom: "ip3"
  top: "ip3"
  dropout_param {
    dropout_ratio: 0.5
  }
}
layer {
  name: "loss"
  type: "SoftmaxWithLoss"
  bottom: "ip3"
  bottom: "label"
  top: "loss"
}
I0521 07:02:38.960289  2580 layer_factory.hpp:77] Creating layer data_hdf5
I0521 07:02:38.960312  2580 net.cpp:106] Creating Layer data_hdf5
I0521 07:02:38.960327  2580 net.cpp:411] data_hdf5 -> data
I0521 07:02:38.960362  2580 net.cpp:411] data_hdf5 -> label
I0521 07:02:38.960394  2580 hdf5_data_layer.cpp:79] Loading list of HDF5 filenames from: /lustre/atlas/proj-shared/hep105/caffe_titan/minosmatch_nukecczdefs_127x50_x_unshifted_me1Bmc.trainlist
I0521 07:02:38.961556  2580 hdf5_data_layer.cpp:93] Number of HDF5 files: 15
I0521 07:02:38.963738  2580 hdf5.cpp:32] Datatype class: H5T_FLOAT
I0521 07:03:00.493396  2580 hdf5.cpp:35] Datatype class: H5T_INTEGER
I0521 07:03:00.498528  2580 net.cpp:150] Setting up data_hdf5
I0521 07:03:00.498569  2580 net.cpp:157] Top shape: 790 1 127 50 (5016500)
I0521 07:03:00.498584  2580 net.cpp:157] Top shape: 790 (790)
I0521 07:03:00.498597  2580 net.cpp:165] Memory required for data: 20069160
I0521 07:03:00.498610  2580 layer_factory.hpp:77] Creating layer conv1
I0521 07:03:00.498643  2580 net.cpp:106] Creating Layer conv1
I0521 07:03:00.498654  2580 net.cpp:454] conv1 <- data
I0521 07:03:00.498674  2580 net.cpp:411] conv1 -> conv1
I0521 07:03:00.860226  2580 net.cpp:150] Setting up conv1
I0521 07:03:00.860268  2580 net.cpp:157] Top shape: 790 12 120 48 (54604800)
I0521 07:03:00.860280  2580 net.cpp:165] Memory required for data: 238488360
I0521 07:03:00.860308  2580 layer_factory.hpp:77] Creating layer relu1
I0521 07:03:00.860330  2580 net.cpp:106] Creating Layer relu1
I0521 07:03:00.860342  2580 net.cpp:454] relu1 <- conv1
I0521 07:03:00.860355  2580 net.cpp:397] relu1 -> conv1 (in-place)
I0521 07:03:00.860868  2580 net.cpp:150] Setting up relu1
I0521 07:03:00.860884  2580 net.cpp:157] Top shape: 790 12 120 48 (54604800)
I0521 07:03:00.860895  2580 net.cpp:165] Memory required for data: 456907560
I0521 07:03:00.860906  2580 layer_factory.hpp:77] Creating layer pool1
I0521 07:03:00.860924  2580 net.cpp:106] Creating Layer pool1
I0521 07:03:00.860934  2580 net.cpp:454] pool1 <- conv1
I0521 07:03:00.860947  2580 net.cpp:411] pool1 -> pool1
I0521 07:03:00.861027  2580 net.cpp:150] Setting up pool1
I0521 07:03:00.861042  2580 net.cpp:157] Top shape: 790 12 60 48 (27302400)
I0521 07:03:00.861052  2580 net.cpp:165] Memory required for data: 566117160
I0521 07:03:00.861059  2580 layer_factory.hpp:77] Creating layer conv2
I0521 07:03:00.861083  2580 net.cpp:106] Creating Layer conv2
I0521 07:03:00.861093  2580 net.cpp:454] conv2 <- pool1
I0521 07:03:00.861105  2580 net.cpp:411] conv2 -> conv2
I0521 07:03:00.863801  2580 net.cpp:150] Setting up conv2
I0521 07:03:00.863828  2580 net.cpp:157] Top shape: 790 20 54 46 (39247200)
I0521 07:03:00.863838  2580 net.cpp:165] Memory required for data: 723105960
I0521 07:03:00.863858  2580 layer_factory.hpp:77] Creating layer relu2
I0521 07:03:00.863873  2580 net.cpp:106] Creating Layer relu2
I0521 07:03:00.863883  2580 net.cpp:454] relu2 <- conv2
I0521 07:03:00.863895  2580 net.cpp:397] relu2 -> conv2 (in-place)
I0521 07:03:00.864224  2580 net.cpp:150] Setting up relu2
I0521 07:03:00.864238  2580 net.cpp:157] Top shape: 790 20 54 46 (39247200)
I0521 07:03:00.864249  2580 net.cpp:165] Memory required for data: 880094760
I0521 07:03:00.864259  2580 layer_factory.hpp:77] Creating layer pool2
I0521 07:03:00.864272  2580 net.cpp:106] Creating Layer pool2
I0521 07:03:00.864282  2580 net.cpp:454] pool2 <- conv2
I0521 07:03:00.864307  2580 net.cpp:411] pool2 -> pool2
I0521 07:03:00.864377  2580 net.cpp:150] Setting up pool2
I0521 07:03:00.864389  2580 net.cpp:157] Top shape: 790 20 27 46 (19623600)
I0521 07:03:00.864399  2580 net.cpp:165] Memory required for data: 958589160
I0521 07:03:00.864409  2580 layer_factory.hpp:77] Creating layer conv3
I0521 07:03:00.864424  2580 net.cpp:106] Creating Layer conv3
I0521 07:03:00.864435  2580 net.cpp:454] conv3 <- pool2
I0521 07:03:00.864449  2580 net.cpp:411] conv3 -> conv3
I0521 07:03:00.866375  2580 net.cpp:150] Setting up conv3
I0521 07:03:00.866399  2580 net.cpp:157] Top shape: 790 28 22 44 (21412160)
I0521 07:03:00.866411  2580 net.cpp:165] Memory required for data: 1044237800
I0521 07:03:00.866430  2580 layer_factory.hpp:77] Creating layer relu3
I0521 07:03:00.866446  2580 net.cpp:106] Creating Layer relu3
I0521 07:03:00.866456  2580 net.cpp:454] relu3 <- conv3
I0521 07:03:00.866468  2580 net.cpp:397] relu3 -> conv3 (in-place)
I0521 07:03:00.866941  2580 net.cpp:150] Setting up relu3
I0521 07:03:00.866958  2580 net.cpp:157] Top shape: 790 28 22 44 (21412160)
I0521 07:03:00.866969  2580 net.cpp:165] Memory required for data: 1129886440
I0521 07:03:00.866979  2580 layer_factory.hpp:77] Creating layer pool3
I0521 07:03:00.866992  2580 net.cpp:106] Creating Layer pool3
I0521 07:03:00.867002  2580 net.cpp:454] pool3 <- conv3
I0521 07:03:00.867015  2580 net.cpp:411] pool3 -> pool3
I0521 07:03:00.867082  2580 net.cpp:150] Setting up pool3
I0521 07:03:00.867095  2580 net.cpp:157] Top shape: 790 28 11 44 (10706080)
I0521 07:03:00.867105  2580 net.cpp:165] Memory required for data: 1172710760
I0521 07:03:00.867115  2580 layer_factory.hpp:77] Creating layer conv4
I0521 07:03:00.867132  2580 net.cpp:106] Creating Layer conv4
I0521 07:03:00.867143  2580 net.cpp:454] conv4 <- pool3
I0521 07:03:00.867157  2580 net.cpp:411] conv4 -> conv4
I0521 07:03:00.869869  2580 net.cpp:150] Setting up conv4
I0521 07:03:00.869897  2580 net.cpp:157] Top shape: 790 36 6 42 (7166880)
I0521 07:03:00.869910  2580 net.cpp:165] Memory required for data: 1201378280
I0521 07:03:00.869928  2580 layer_factory.hpp:77] Creating layer relu4
I0521 07:03:00.869942  2580 net.cpp:106] Creating Layer relu4
I0521 07:03:00.869952  2580 net.cpp:454] relu4 <- conv4
I0521 07:03:00.869966  2580 net.cpp:397] relu4 -> conv4 (in-place)
I0521 07:03:00.870439  2580 net.cpp:150] Setting up relu4
I0521 07:03:00.870455  2580 net.cpp:157] Top shape: 790 36 6 42 (7166880)
I0521 07:03:00.870465  2580 net.cpp:165] Memory required for data: 1230045800
I0521 07:03:00.870476  2580 layer_factory.hpp:77] Creating layer pool4
I0521 07:03:00.870488  2580 net.cpp:106] Creating Layer pool4
I0521 07:03:00.870498  2580 net.cpp:454] pool4 <- conv4
I0521 07:03:00.870512  2580 net.cpp:411] pool4 -> pool4
I0521 07:03:00.870579  2580 net.cpp:150] Setting up pool4
I0521 07:03:00.870594  2580 net.cpp:157] Top shape: 790 36 3 42 (3583440)
I0521 07:03:00.870604  2580 net.cpp:165] Memory required for data: 1244379560
I0521 07:03:00.870615  2580 layer_factory.hpp:77] Creating layer ip1
I0521 07:03:00.870635  2580 net.cpp:106] Creating Layer ip1
I0521 07:03:00.870645  2580 net.cpp:454] ip1 <- pool4
I0521 07:03:00.870657  2580 net.cpp:411] ip1 -> ip1
I0521 07:03:00.886168  2580 net.cpp:150] Setting up ip1
I0521 07:03:00.886198  2580 net.cpp:157] Top shape: 790 196 (154840)
I0521 07:03:00.886212  2580 net.cpp:165] Memory required for data: 1244998920
I0521 07:03:00.886239  2580 layer_factory.hpp:77] Creating layer relu5
I0521 07:03:00.886253  2580 net.cpp:106] Creating Layer relu5
I0521 07:03:00.886271  2580 net.cpp:454] relu5 <- ip1
I0521 07:03:00.886284  2580 net.cpp:397] relu5 -> ip1 (in-place)
I0521 07:03:00.886628  2580 net.cpp:150] Setting up relu5
I0521 07:03:00.886643  2580 net.cpp:157] Top shape: 790 196 (154840)
I0521 07:03:00.886653  2580 net.cpp:165] Memory required for data: 1245618280
I0521 07:03:00.886663  2580 layer_factory.hpp:77] Creating layer drop1
I0521 07:03:00.886685  2580 net.cpp:106] Creating Layer drop1
I0521 07:03:00.886696  2580 net.cpp:454] drop1 <- ip1
I0521 07:03:00.886723  2580 net.cpp:397] drop1 -> ip1 (in-place)
I0521 07:03:00.886770  2580 net.cpp:150] Setting up drop1
I0521 07:03:00.886782  2580 net.cpp:157] Top shape: 790 196 (154840)
I0521 07:03:00.886792  2580 net.cpp:165] Memory required for data: 1246237640
I0521 07:03:00.886802  2580 layer_factory.hpp:77] Creating layer ip2
I0521 07:03:00.886821  2580 net.cpp:106] Creating Layer ip2
I0521 07:03:00.886832  2580 net.cpp:454] ip2 <- ip1
I0521 07:03:00.886845  2580 net.cpp:411] ip2 -> ip2
I0521 07:03:00.887310  2580 net.cpp:150] Setting up ip2
I0521 07:03:00.887325  2580 net.cpp:157] Top shape: 790 98 (77420)
I0521 07:03:00.887333  2580 net.cpp:165] Memory required for data: 1246547320
I0521 07:03:00.887348  2580 layer_factory.hpp:77] Creating layer relu6
I0521 07:03:00.887362  2580 net.cpp:106] Creating Layer relu6
I0521 07:03:00.887372  2580 net.cpp:454] relu6 <- ip2
I0521 07:03:00.887383  2580 net.cpp:397] relu6 -> ip2 (in-place)
I0521 07:03:00.887902  2580 net.cpp:150] Setting up relu6
I0521 07:03:00.887919  2580 net.cpp:157] Top shape: 790 98 (77420)
I0521 07:03:00.887929  2580 net.cpp:165] Memory required for data: 1246857000
I0521 07:03:00.887939  2580 layer_factory.hpp:77] Creating layer drop2
I0521 07:03:00.887953  2580 net.cpp:106] Creating Layer drop2
I0521 07:03:00.887962  2580 net.cpp:454] drop2 <- ip2
I0521 07:03:00.887975  2580 net.cpp:397] drop2 -> ip2 (in-place)
I0521 07:03:00.888017  2580 net.cpp:150] Setting up drop2
I0521 07:03:00.888031  2580 net.cpp:157] Top shape: 790 98 (77420)
I0521 07:03:00.888041  2580 net.cpp:165] Memory required for data: 1247166680
I0521 07:03:00.888051  2580 layer_factory.hpp:77] Creating layer ip3
I0521 07:03:00.888064  2580 net.cpp:106] Creating Layer ip3
I0521 07:03:00.888074  2580 net.cpp:454] ip3 <- ip2
I0521 07:03:00.888087  2580 net.cpp:411] ip3 -> ip3
I0521 07:03:00.888298  2580 net.cpp:150] Setting up ip3
I0521 07:03:00.888311  2580 net.cpp:157] Top shape: 790 11 (8690)
I0521 07:03:00.888321  2580 net.cpp:165] Memory required for data: 1247201440
I0521 07:03:00.888335  2580 layer_factory.hpp:77] Creating layer drop3
I0521 07:03:00.888348  2580 net.cpp:106] Creating Layer drop3
I0521 07:03:00.888358  2580 net.cpp:454] drop3 <- ip3
I0521 07:03:00.888370  2580 net.cpp:397] drop3 -> ip3 (in-place)
I0521 07:03:00.888408  2580 net.cpp:150] Setting up drop3
I0521 07:03:00.888422  2580 net.cpp:157] Top shape: 790 11 (8690)
I0521 07:03:00.888432  2580 net.cpp:165] Memory required for data: 1247236200
I0521 07:03:00.888442  2580 layer_factory.hpp:77] Creating layer loss
I0521 07:03:00.888460  2580 net.cpp:106] Creating Layer loss
I0521 07:03:00.888470  2580 net.cpp:454] loss <- ip3
I0521 07:03:00.888481  2580 net.cpp:454] loss <- label
I0521 07:03:00.888494  2580 net.cpp:411] loss -> loss
I0521 07:03:00.888511  2580 layer_factory.hpp:77] Creating layer loss
…
I0521 07:03:00.891120  2580 solver.cpp:181] Creating test net (#0) specified by net file: /lustre/atlas/proj-shared/hep105/caffe_titan/caffe_workflow/logs_batch_size_test/batch_size_790_2016-05-20T11.21.01.485318.prototxt
I0521 07:03:00.891191  2580 net.cpp:322] The NetState phase (1) differed from the phase (0) specified by a rule in layer data_hdf5
I0521 07:03:00.891546  2580 net.cpp:49] Initializing net from parameters: 
name: "caffe_test_127x50_x_unshifted"
state {
  phase: TEST
}
layer {
  name: "data_hdf5"
  type: "HDF5Data"
  top: "data"
  top: "label"
  include {
    phase: TEST
  }
  hdf5_data_param {
    source: "/lustre/atlas/proj-shared/hep105/caffe_titan/minosmatch_nukecczdefs_127x50_x_unshifted_me1Bmc.testlist"
    batch_size: 790
  }
}
layer {
  name: "conv1"
  type: "Convolution"
  bottom: "data"
  top: "conv1"
  convolution_param {
    num_output: 12
    pad: 0
    stride: 1
    weight_filler {
      type: "xavier"
    }
    bias_filler {
      type: "constant"
    }
    kernel_h: 8
    kernel_w: 3
  }
}
layer {
  name: "relu1"
  type: "ReLU"
  bottom: "conv1"
  top: "conv1"
}
layer {
  name: "pool1"
  type: "Pooling"
  bottom: "conv1"
  top: "pool1"
  pooling_param {
    pool: MAX
    kernel_h: 2
    kernel_w: 1
    stride_h: 2
    stride_w: 1
  }
}
layer {
  name: "conv2"
  type: "Convolution"
  bottom: "pool1"
  top: "conv2"
  convolution_param {
    num_output: 20
    pad: 0
    stride: 1
    weight_filler {
      type: "xavier"
    }
    bias_filler {
      type: "constant"
    }
    kernel_h: 7
    kernel_w: 3
  }
}
layer {
  name: "relu2"
  type: "ReLU"
  bottom: "conv2"
  top: "conv2"
}
layer {
  name: "pool2"
  type: "Pooling"
  bottom: "conv2"
  top: "pool2"
  pooling_param {
    pool: MAX
    kernel_h: 2
    kernel_w: 1
    stride_h: 2
    stride_w: 1
  }
}
layer {
  name: "conv3"
  type: "Convolution"
  bottom: "pool2"
  top: "conv3"
  convolution_param {
    num_output: 28
    pad: 0
    stride: 1
    weight_filler {
      type: "xavier"
    }
    bias_filler {
      type: "constant"
    }
    kernel_h: 6
    kernel_w: 3
  }
}
layer {
  name: "relu3"
  type: "ReLU"
  bottom: "conv3"
  top: "conv3"
}
layer {
  name: "pool3"
  type: "Pooling"
  bottom: "conv3"
  top: "pool3"
  pooling_param {
    pool: MAX
    kernel_h: 2
    kernel_w: 1
    stride_h: 2
    stride_w: 1
  }
}
layer {
  name: "conv4"
  type: "Convolution"
  bottom: "pool3"
  top: "conv4"
  convolution_param {
    num_output: 36
    pad: 0
    stride: 1
    weight_filler {
      type: "xavier"
    }
    bias_filler {
      type: "constant"
    }
    kernel_h: 6
    kernel_w: 3
  }
}
layer {
  name: "relu4"
  type: "ReLU"
  bottom: "conv4"
  top: "conv4"
}
layer {
  name: "pool4"
  type: "Pooling"
  bottom: "conv4"
  top: "pool4"
  pooling_param {
    pool: MAX
    kernel_h: 2
    kernel_w: 1
    stride_h: 2
    stride_w: 1
  }
}
layer {
  name: "ip1"
  type: "InnerProduct"
  bottom: "pool4"
  top: "ip1"
  inner_product_param {
    num_output: 196
    weight_filler {
      type: "xavier"
    }
    bias_filler {
      type: "constant"
    }
  }
}
layer {
  name: "relu5"
  type: "ReLU"
  bottom: "ip1"
  top: "ip1"
}
layer {
  name: "drop1"
  type: "Dropout"
  bottom: "ip1"
  top: "ip1"
  dropout_param {
    dropout_ratio: 0.5
  }
}
layer {
  name: "ip2"
  type: "InnerProduct"
  bottom: "ip1"
  top: "ip2"
  inner_product_param {
    num_output: 98
    weight_filler {
      type: "xavier"
    }
    bias_filler {
      type: "constant"
    }
  }
}
layer {
  name: "relu6"
  type: "ReLU"
  bottom: "ip2"
  top: "ip2"
}
layer {
  name: "drop2"
  type: "Dropout"
  bottom: "ip2"
  top: "ip2"
  dropout_param {
    dropout_ratio: 0.5
  }
}
layer {
  name: "ip3"
  type: "InnerProduct"
  bottom: "ip2"
  top: "ip3"
  inner_product_param {
    num_output: 11
    weight_filler {
      type: "xavier"
    }
    bias_filler {
      type: "constant"
    }
  }
}
layer {
  name: "drop3"
  type: "Dropout"
  bottom: "ip3"
  top: "ip3"
  dropout_param {
    dropout_ratio: 0.5
  }
}
layer {
  name: "accuracy"
  type: "Accuracy"
  bottom: "ip3"
  bottom: "label"
  top: "accuracy"
  include {
    phase: TEST
  }
}
layer {
  name: "loss"
  type: "SoftmaxWithLoss"
  bottom: "ip3"
  bottom: "label"
  top: "loss"
}
I0521 07:03:00.891736  2580 layer_factory.hpp:77] Creating layer data_hdf5
I0521 07:03:00.891752  2580 net.cpp:106] Creating Layer data_hdf5
I0521 07:03:00.891765  2580 net.cpp:411] data_hdf5 -> data
I0521 07:03:00.891782  2580 net.cpp:411] data_hdf5 -> label
I0521 07:03:00.891796  2580 hdf5_data_layer.cpp:79] Loading list of HDF5 filenames from: /lustre/atlas/proj-shared/hep105/caffe_titan/minosmatch_nukecczdefs_127x50_x_unshifted_me1Bmc.testlist
I0521 07:03:00.892961  2580 hdf5_data_layer.cpp:93] Number of HDF5 files: 3
I0521 07:03:22.189015  2580 net.cpp:150] Setting up data_hdf5
I0521 07:03:22.189182  2580 net.cpp:157] Top shape: 790 1 127 50 (5016500)
I0521 07:03:22.189196  2580 net.cpp:157] Top shape: 790 (790)
I0521 07:03:22.189209  2580 net.cpp:165] Memory required for data: 20069160
I0521 07:03:22.189224  2580 layer_factory.hpp:77] Creating layer label_data_hdf5_1_split
I0521 07:03:22.189251  2580 net.cpp:106] Creating Layer label_data_hdf5_1_split
I0521 07:03:22.189262  2580 net.cpp:454] label_data_hdf5_1_split <- label
I0521 07:03:22.189277  2580 net.cpp:411] label_data_hdf5_1_split -> label_data_hdf5_1_split_0
I0521 07:03:22.189298  2580 net.cpp:411] label_data_hdf5_1_split -> label_data_hdf5_1_split_1
I0521 07:03:22.189373  2580 net.cpp:150] Setting up label_data_hdf5_1_split
I0521 07:03:22.189386  2580 net.cpp:157] Top shape: 790 (790)
I0521 07:03:22.189399  2580 net.cpp:157] Top shape: 790 (790)
I0521 07:03:22.189409  2580 net.cpp:165] Memory required for data: 20075480
I0521 07:03:22.189419  2580 layer_factory.hpp:77] Creating layer conv1
I0521 07:03:22.189440  2580 net.cpp:106] Creating Layer conv1
I0521 07:03:22.189451  2580 net.cpp:454] conv1 <- data
I0521 07:03:22.189466  2580 net.cpp:411] conv1 -> conv1
I0521 07:03:22.191418  2580 net.cpp:150] Setting up conv1
I0521 07:03:22.191442  2580 net.cpp:157] Top shape: 790 12 120 48 (54604800)
I0521 07:03:22.191453  2580 net.cpp:165] Memory required for data: 238494680
I0521 07:03:22.191474  2580 layer_factory.hpp:77] Creating layer relu1
I0521 07:03:22.191489  2580 net.cpp:106] Creating Layer relu1
I0521 07:03:22.191499  2580 net.cpp:454] relu1 <- conv1
I0521 07:03:22.191512  2580 net.cpp:397] relu1 -> conv1 (in-place)
I0521 07:03:22.192008  2580 net.cpp:150] Setting up relu1
I0521 07:03:22.192023  2580 net.cpp:157] Top shape: 790 12 120 48 (54604800)
I0521 07:03:22.192034  2580 net.cpp:165] Memory required for data: 456913880
I0521 07:03:22.192044  2580 layer_factory.hpp:77] Creating layer pool1
I0521 07:03:22.192060  2580 net.cpp:106] Creating Layer pool1
I0521 07:03:22.192070  2580 net.cpp:454] pool1 <- conv1
I0521 07:03:22.192083  2580 net.cpp:411] pool1 -> pool1
I0521 07:03:22.192158  2580 net.cpp:150] Setting up pool1
I0521 07:03:22.192173  2580 net.cpp:157] Top shape: 790 12 60 48 (27302400)
I0521 07:03:22.192181  2580 net.cpp:165] Memory required for data: 566123480
I0521 07:03:22.192193  2580 layer_factory.hpp:77] Creating layer conv2
I0521 07:03:22.192209  2580 net.cpp:106] Creating Layer conv2
I0521 07:03:22.192220  2580 net.cpp:454] conv2 <- pool1
I0521 07:03:22.192234  2580 net.cpp:411] conv2 -> conv2
I0521 07:03:22.194145  2580 net.cpp:150] Setting up conv2
I0521 07:03:22.194167  2580 net.cpp:157] Top shape: 790 20 54 46 (39247200)
I0521 07:03:22.194180  2580 net.cpp:165] Memory required for data: 723112280
I0521 07:03:22.194198  2580 layer_factory.hpp:77] Creating layer relu2
I0521 07:03:22.194211  2580 net.cpp:106] Creating Layer relu2
I0521 07:03:22.194221  2580 net.cpp:454] relu2 <- conv2
I0521 07:03:22.194233  2580 net.cpp:397] relu2 -> conv2 (in-place)
I0521 07:03:22.194578  2580 net.cpp:150] Setting up relu2
I0521 07:03:22.194593  2580 net.cpp:157] Top shape: 790 20 54 46 (39247200)
I0521 07:03:22.194603  2580 net.cpp:165] Memory required for data: 880101080
I0521 07:03:22.194613  2580 layer_factory.hpp:77] Creating layer pool2
I0521 07:03:22.194628  2580 net.cpp:106] Creating Layer pool2
I0521 07:03:22.194636  2580 net.cpp:454] pool2 <- conv2
I0521 07:03:22.194649  2580 net.cpp:411] pool2 -> pool2
I0521 07:03:22.194721  2580 net.cpp:150] Setting up pool2
I0521 07:03:22.194735  2580 net.cpp:157] Top shape: 790 20 27 46 (19623600)
I0521 07:03:22.194744  2580 net.cpp:165] Memory required for data: 958595480
I0521 07:03:22.194754  2580 layer_factory.hpp:77] Creating layer conv3
I0521 07:03:22.194772  2580 net.cpp:106] Creating Layer conv3
I0521 07:03:22.194782  2580 net.cpp:454] conv3 <- pool2
I0521 07:03:22.194797  2580 net.cpp:411] conv3 -> conv3
I0521 07:03:22.196768  2580 net.cpp:150] Setting up conv3
I0521 07:03:22.196791  2580 net.cpp:157] Top shape: 790 28 22 44 (21412160)
I0521 07:03:22.196802  2580 net.cpp:165] Memory required for data: 1044244120
I0521 07:03:22.196835  2580 layer_factory.hpp:77] Creating layer relu3
I0521 07:03:22.196848  2580 net.cpp:106] Creating Layer relu3
I0521 07:03:22.196859  2580 net.cpp:454] relu3 <- conv3
I0521 07:03:22.196872  2580 net.cpp:397] relu3 -> conv3 (in-place)
I0521 07:03:22.197343  2580 net.cpp:150] Setting up relu3
I0521 07:03:22.197360  2580 net.cpp:157] Top shape: 790 28 22 44 (21412160)
I0521 07:03:22.197370  2580 net.cpp:165] Memory required for data: 1129892760
I0521 07:03:22.197379  2580 layer_factory.hpp:77] Creating layer pool3
I0521 07:03:22.197392  2580 net.cpp:106] Creating Layer pool3
I0521 07:03:22.197402  2580 net.cpp:454] pool3 <- conv3
I0521 07:03:22.197417  2580 net.cpp:411] pool3 -> pool3
I0521 07:03:22.197489  2580 net.cpp:150] Setting up pool3
I0521 07:03:22.197502  2580 net.cpp:157] Top shape: 790 28 11 44 (10706080)
I0521 07:03:22.197511  2580 net.cpp:165] Memory required for data: 1172717080
I0521 07:03:22.197521  2580 layer_factory.hpp:77] Creating layer conv4
I0521 07:03:22.197540  2580 net.cpp:106] Creating Layer conv4
I0521 07:03:22.197551  2580 net.cpp:454] conv4 <- pool3
I0521 07:03:22.197564  2580 net.cpp:411] conv4 -> conv4
I0521 07:03:22.199631  2580 net.cpp:150] Setting up conv4
I0521 07:03:22.199654  2580 net.cpp:157] Top shape: 790 36 6 42 (7166880)
I0521 07:03:22.199667  2580 net.cpp:165] Memory required for data: 1201384600
I0521 07:03:22.199682  2580 layer_factory.hpp:77] Creating layer relu4
I0521 07:03:22.199695  2580 net.cpp:106] Creating Layer relu4
I0521 07:03:22.199705  2580 net.cpp:454] relu4 <- conv4
I0521 07:03:22.199718  2580 net.cpp:397] relu4 -> conv4 (in-place)
I0521 07:03:22.200189  2580 net.cpp:150] Setting up relu4
I0521 07:03:22.200206  2580 net.cpp:157] Top shape: 790 36 6 42 (7166880)
I0521 07:03:22.200215  2580 net.cpp:165] Memory required for data: 1230052120
I0521 07:03:22.200227  2580 layer_factory.hpp:77] Creating layer pool4
I0521 07:03:22.200239  2580 net.cpp:106] Creating Layer pool4
I0521 07:03:22.200249  2580 net.cpp:454] pool4 <- conv4
I0521 07:03:22.200263  2580 net.cpp:411] pool4 -> pool4
I0521 07:03:22.200335  2580 net.cpp:150] Setting up pool4
I0521 07:03:22.200348  2580 net.cpp:157] Top shape: 790 36 3 42 (3583440)
I0521 07:03:22.200357  2580 net.cpp:165] Memory required for data: 1244385880
I0521 07:03:22.200366  2580 layer_factory.hpp:77] Creating layer ip1
I0521 07:03:22.200381  2580 net.cpp:106] Creating Layer ip1
I0521 07:03:22.200392  2580 net.cpp:454] ip1 <- pool4
I0521 07:03:22.200407  2580 net.cpp:411] ip1 -> ip1
I0521 07:03:22.215843  2580 net.cpp:150] Setting up ip1
I0521 07:03:22.215873  2580 net.cpp:157] Top shape: 790 196 (154840)
I0521 07:03:22.215884  2580 net.cpp:165] Memory required for data: 1245005240
I0521 07:03:22.215912  2580 layer_factory.hpp:77] Creating layer relu5
I0521 07:03:22.215929  2580 net.cpp:106] Creating Layer relu5
I0521 07:03:22.215939  2580 net.cpp:454] relu5 <- ip1
I0521 07:03:22.215951  2580 net.cpp:397] relu5 -> ip1 (in-place)
I0521 07:03:22.216295  2580 net.cpp:150] Setting up relu5
I0521 07:03:22.216310  2580 net.cpp:157] Top shape: 790 196 (154840)
I0521 07:03:22.216320  2580 net.cpp:165] Memory required for data: 1245624600
I0521 07:03:22.216331  2580 layer_factory.hpp:77] Creating layer drop1
I0521 07:03:22.216348  2580 net.cpp:106] Creating Layer drop1
I0521 07:03:22.216358  2580 net.cpp:454] drop1 <- ip1
I0521 07:03:22.216372  2580 net.cpp:397] drop1 -> ip1 (in-place)
I0521 07:03:22.216416  2580 net.cpp:150] Setting up drop1
I0521 07:03:22.216429  2580 net.cpp:157] Top shape: 790 196 (154840)
I0521 07:03:22.216439  2580 net.cpp:165] Memory required for data: 1246243960
I0521 07:03:22.216449  2580 layer_factory.hpp:77] Creating layer ip2
I0521 07:03:22.216464  2580 net.cpp:106] Creating Layer ip2
I0521 07:03:22.216473  2580 net.cpp:454] ip2 <- ip1
I0521 07:03:22.216487  2580 net.cpp:411] ip2 -> ip2
I0521 07:03:22.216967  2580 net.cpp:150] Setting up ip2
I0521 07:03:22.216981  2580 net.cpp:157] Top shape: 790 98 (77420)
I0521 07:03:22.216991  2580 net.cpp:165] Memory required for data: 1246553640
I0521 07:03:22.217020  2580 layer_factory.hpp:77] Creating layer relu6
I0521 07:03:22.217032  2580 net.cpp:106] Creating Layer relu6
I0521 07:03:22.217042  2580 net.cpp:454] relu6 <- ip2
I0521 07:03:22.217056  2580 net.cpp:397] relu6 -> ip2 (in-place)
I0521 07:03:22.217586  2580 net.cpp:150] Setting up relu6
I0521 07:03:22.217607  2580 net.cpp:157] Top shape: 790 98 (77420)
I0521 07:03:22.217617  2580 net.cpp:165] Memory required for data: 1246863320
I0521 07:03:22.217627  2580 layer_factory.hpp:77] Creating layer drop2
I0521 07:03:22.217640  2580 net.cpp:106] Creating Layer drop2
I0521 07:03:22.217650  2580 net.cpp:454] drop2 <- ip2
I0521 07:03:22.217664  2580 net.cpp:397] drop2 -> ip2 (in-place)
I0521 07:03:22.217706  2580 net.cpp:150] Setting up drop2
I0521 07:03:22.217720  2580 net.cpp:157] Top shape: 790 98 (77420)
I0521 07:03:22.217730  2580 net.cpp:165] Memory required for data: 1247173000
I0521 07:03:22.217739  2580 layer_factory.hpp:77] Creating layer ip3
I0521 07:03:22.217753  2580 net.cpp:106] Creating Layer ip3
I0521 07:03:22.217763  2580 net.cpp:454] ip3 <- ip2
I0521 07:03:22.217777  2580 net.cpp:411] ip3 -> ip3
I0521 07:03:22.217996  2580 net.cpp:150] Setting up ip3
I0521 07:03:22.218010  2580 net.cpp:157] Top shape: 790 11 (8690)
I0521 07:03:22.218020  2580 net.cpp:165] Memory required for data: 1247207760
I0521 07:03:22.218035  2580 layer_factory.hpp:77] Creating layer drop3
I0521 07:03:22.218049  2580 net.cpp:106] Creating Layer drop3
I0521 07:03:22.218058  2580 net.cpp:454] drop3 <- ip3
I0521 07:03:22.218071  2580 net.cpp:397] drop3 -> ip3 (in-place)
I0521 07:03:22.218112  2580 net.cpp:150] Setting up drop3
I0521 07:03:22.218124  2580 net.cpp:157] Top shape: 790 11 (8690)
I0521 07:03:22.218134  2580 net.cpp:165] Memory required for data: 1247242520
I0521 07:03:22.218144  2580 layer_factory.hpp:77] Creating layer ip3_drop3_0_split
I0521 07:03:22.218158  2580 net.cpp:106] Creating Layer ip3_drop3_0_split
I0521 07:03:22.218168  2580 net.cpp:454] ip3_drop3_0_split <- ip3
I0521 07:03:22.218180  2580 net.cpp:411] ip3_drop3_0_split -> ip3_drop3_0_split_0
I0521 07:03:22.218195  2580 net.cpp:411] ip3_drop3_0_split -> ip3_drop3_0_split_1
I0521 07:03:22.218276  2580 net.cpp:150] Setting up ip3_drop3_0_split
I0521 07:03:22.218289  2580 net.cpp:157] Top shape: 790 11 (8690)
I0521 07:03:22.218302  2580 net.cpp:157] Top shape: 790 11 (8690)
I0521 07:03:22.218312  2580 net.cpp:165] Memory required for data: 1247312040
I0521 07:03:22.218322  2580 layer_factory.hpp:77] Creating layer accuracy
I0521 07:03:22.218343  2580 net.cpp:106] Creating Layer accuracy
I0521 07:03:22.218353  2580 net.cpp:454] accuracy <- ip3_drop3_0_split_0
I0521 07:03:22.218364  2580 net.cpp:454] accuracy <- label_data_hdf5_1_split_0
I0521 07:03:22.218379  2580 net.cpp:411] accuracy -> accuracy
…
