…
I0520 22:27:49.880031  5881 net.cpp:322] The NetState phase (0) differed from the phase (1) specified by a rule in layer data_hdf5
I0520 22:27:49.880092  5881 net.cpp:322] The NetState phase (0) differed from the phase (1) specified by a rule in layer accuracy
I0520 22:27:49.880448  5881 net.cpp:49] Initializing net from parameters: 
name: "caffe_test_127x50_x_unshifted"
state {
  phase: TRAIN
}
layer {
  name: "data_hdf5"
  type: "HDF5Data"
  top: "data"
  top: "label"
  include {
    phase: TRAIN
  }
  hdf5_data_param {
    source: "/lustre/atlas/proj-shared/hep105/caffe_titan/minosmatch_nukecczdefs_127x50_x_unshifted_me1Bmc.trainlist"
    batch_size: 380
  }
}
layer {
  name: "conv1"
  type: "Convolution"
  bottom: "data"
  top: "conv1"
  convolution_param {
    num_output: 12
    pad: 0
    stride: 1
    weight_filler {
      type: "xavier"
    }
    bias_filler {
      type: "constant"
    }
    kernel_h: 8
    kernel_w: 3
  }
}
layer {
  name: "relu1"
  type: "ReLU"
  bottom: "conv1"
  top: "conv1"
}
layer {
  name: "pool1"
  type: "Pooling"
  bottom: "conv1"
  top: "pool1"
  pooling_param {
    pool: MAX
    kernel_h: 2
    kernel_w: 1
    stride_h: 2
    stride_w: 1
  }
}
layer {
  name: "conv2"
  type: "Convolution"
  bottom: "pool1"
  top: "conv2"
  convolution_param {
    num_output: 20
    pad: 0
    stride: 1
    weight_filler {
      type: "xavier"
    }
    bias_filler {
      type: "constant"
    }
    kernel_h: 7
    kernel_w: 3
  }
}
layer {
  name: "relu2"
  type: "ReLU"
  bottom: "conv2"
  top: "conv2"
}
layer {
  name: "pool2"
  type: "Pooling"
  bottom: "conv2"
  top: "pool2"
  pooling_param {
    pool: MAX
    kernel_h: 2
    kernel_w: 1
    stride_h: 2
    stride_w: 1
  }
}
layer {
  name: "conv3"
  type: "Convolution"
  bottom: "pool2"
  top: "conv3"
  convolution_param {
    num_output: 28
    pad: 0
    stride: 1
    weight_filler {
      type: "xavier"
    }
    bias_filler {
      type: "constant"
    }
    kernel_h: 6
    kernel_w: 3
  }
}
layer {
  name: "relu3"
  type: "ReLU"
  bottom: "conv3"
  top: "conv3"
}
layer {
  name: "pool3"
  type: "Pooling"
  bottom: "conv3"
  top: "pool3"
  pooling_param {
    pool: MAX
    kernel_h: 2
    kernel_w: 1
    stride_h: 2
    stride_w: 1
  }
}
layer {
  name: "conv4"
  type: "Convolution"
  bottom: "pool3"
  top: "conv4"
  convolution_param {
    num_output: 36
    pad: 0
    stride: 1
    weight_filler {
      type: "xavier"
    }
    bias_filler {
      type: "constant"
    }
    kernel_h: 6
    kernel_w: 3
  }
}
layer {
  name: "relu4"
  type: "ReLU"
  bottom: "conv4"
  top: "conv4"
}
layer {
  name: "pool4"
  type: "Pooling"
  bottom: "conv4"
  top: "pool4"
  pooling_param {
    pool: MAX
    kernel_h: 2
    kernel_w: 1
    stride_h: 2
    stride_w: 1
  }
}
layer {
  name: "ip1"
  type: "InnerProduct"
  bottom: "pool4"
  top: "ip1"
  inner_product_param {
    num_output: 196
    weight_filler {
      type: "xavier"
    }
    bias_filler {
      type: "constant"
    }
  }
}
layer {
  name: "relu5"
  type: "ReLU"
  bottom: "ip1"
  top: "ip1"
}
layer {
  name: "drop1"
  type: "Dropout"
  bottom: "ip1"
  top: "ip1"
  dropout_param {
    dropout_ratio: 0.5
  }
}
layer {
  name: "ip2"
  type: "InnerProduct"
  bottom: "ip1"
  top: "ip2"
  inner_product_param {
    num_output: 98
    weight_filler {
      type: "xavier"
    }
    bias_filler {
      type: "constant"
    }
  }
}
layer {
  name: "relu6"
  type: "ReLU"
  bottom: "ip2"
  top: "ip2"
}
layer {
  name: "drop2"
  type: "Dropout"
  bottom: "ip2"
  top: "ip2"
  dropout_param {
    dropout_ratio: 0.5
  }
}
layer {
  name: "ip3"
  type: "InnerProduct"
  bottom: "ip2"
  top: "ip3"
  inner_product_param {
    num_output: 11
    weight_filler {
      type: "xavier"
    }
    bias_filler {
      type: "constant"
    }
  }
}
layer {
  name: "drop3"
  type: "Dropout"
  bottom: "ip3"
  top: "ip3"
  dropout_param {
    dropout_ratio: 0.5
  }
}
layer {
  name: "loss"
  type: "SoftmaxWithLoss"
  bottom: "ip3"
  bottom: "label"
  top: "loss"
}
I0520 22:27:49.880627  5881 layer_factory.hpp:77] Creating layer data_hdf5
I0520 22:27:49.880651  5881 net.cpp:106] Creating Layer data_hdf5
I0520 22:27:49.880666  5881 net.cpp:411] data_hdf5 -> data
I0520 22:27:49.880699  5881 net.cpp:411] data_hdf5 -> label
I0520 22:27:49.880731  5881 hdf5_data_layer.cpp:79] Loading list of HDF5 filenames from: /lustre/atlas/proj-shared/hep105/caffe_titan/minosmatch_nukecczdefs_127x50_x_unshifted_me1Bmc.trainlist
I0520 22:27:49.906082  5881 hdf5_data_layer.cpp:93] Number of HDF5 files: 15
I0520 22:27:49.930321  5881 hdf5.cpp:32] Datatype class: H5T_FLOAT
I0520 22:28:11.474628  5881 hdf5.cpp:35] Datatype class: H5T_INTEGER
I0520 22:28:11.485745  5881 net.cpp:150] Setting up data_hdf5
I0520 22:28:11.485787  5881 net.cpp:157] Top shape: 380 1 127 50 (2413000)
I0520 22:28:11.485802  5881 net.cpp:157] Top shape: 380 (380)
I0520 22:28:11.485816  5881 net.cpp:165] Memory required for data: 9653520
I0520 22:28:11.485831  5881 layer_factory.hpp:77] Creating layer conv1
I0520 22:28:11.485864  5881 net.cpp:106] Creating Layer conv1
I0520 22:28:11.485874  5881 net.cpp:454] conv1 <- data
I0520 22:28:11.485896  5881 net.cpp:411] conv1 -> conv1
I0520 22:28:12.374222  5881 net.cpp:150] Setting up conv1
I0520 22:28:12.374269  5881 net.cpp:157] Top shape: 380 12 120 48 (26265600)
I0520 22:28:12.374280  5881 net.cpp:165] Memory required for data: 114715920
I0520 22:28:12.374308  5881 layer_factory.hpp:77] Creating layer relu1
I0520 22:28:12.374330  5881 net.cpp:106] Creating Layer relu1
I0520 22:28:12.374341  5881 net.cpp:454] relu1 <- conv1
I0520 22:28:12.374356  5881 net.cpp:397] relu1 -> conv1 (in-place)
I0520 22:28:12.374871  5881 net.cpp:150] Setting up relu1
I0520 22:28:12.374888  5881 net.cpp:157] Top shape: 380 12 120 48 (26265600)
I0520 22:28:12.374898  5881 net.cpp:165] Memory required for data: 219778320
I0520 22:28:12.374909  5881 layer_factory.hpp:77] Creating layer pool1
I0520 22:28:12.374927  5881 net.cpp:106] Creating Layer pool1
I0520 22:28:12.374936  5881 net.cpp:454] pool1 <- conv1
I0520 22:28:12.374949  5881 net.cpp:411] pool1 -> pool1
I0520 22:28:12.375028  5881 net.cpp:150] Setting up pool1
I0520 22:28:12.375042  5881 net.cpp:157] Top shape: 380 12 60 48 (13132800)
I0520 22:28:12.375052  5881 net.cpp:165] Memory required for data: 272309520
I0520 22:28:12.375062  5881 layer_factory.hpp:77] Creating layer conv2
I0520 22:28:12.375082  5881 net.cpp:106] Creating Layer conv2
I0520 22:28:12.375093  5881 net.cpp:454] conv2 <- pool1
I0520 22:28:12.375107  5881 net.cpp:411] conv2 -> conv2
I0520 22:28:12.377777  5881 net.cpp:150] Setting up conv2
I0520 22:28:12.377804  5881 net.cpp:157] Top shape: 380 20 54 46 (18878400)
I0520 22:28:12.377815  5881 net.cpp:165] Memory required for data: 347823120
I0520 22:28:12.377835  5881 layer_factory.hpp:77] Creating layer relu2
I0520 22:28:12.377849  5881 net.cpp:106] Creating Layer relu2
I0520 22:28:12.377859  5881 net.cpp:454] relu2 <- conv2
I0520 22:28:12.377872  5881 net.cpp:397] relu2 -> conv2 (in-place)
I0520 22:28:12.378203  5881 net.cpp:150] Setting up relu2
I0520 22:28:12.378218  5881 net.cpp:157] Top shape: 380 20 54 46 (18878400)
I0520 22:28:12.378229  5881 net.cpp:165] Memory required for data: 423336720
I0520 22:28:12.378239  5881 layer_factory.hpp:77] Creating layer pool2
I0520 22:28:12.378252  5881 net.cpp:106] Creating Layer pool2
I0520 22:28:12.378262  5881 net.cpp:454] pool2 <- conv2
I0520 22:28:12.378286  5881 net.cpp:411] pool2 -> pool2
I0520 22:28:12.378356  5881 net.cpp:150] Setting up pool2
I0520 22:28:12.378370  5881 net.cpp:157] Top shape: 380 20 27 46 (9439200)
I0520 22:28:12.378379  5881 net.cpp:165] Memory required for data: 461093520
I0520 22:28:12.378389  5881 layer_factory.hpp:77] Creating layer conv3
I0520 22:28:12.378407  5881 net.cpp:106] Creating Layer conv3
I0520 22:28:12.378419  5881 net.cpp:454] conv3 <- pool2
I0520 22:28:12.378432  5881 net.cpp:411] conv3 -> conv3
I0520 22:28:12.380343  5881 net.cpp:150] Setting up conv3
I0520 22:28:12.380367  5881 net.cpp:157] Top shape: 380 28 22 44 (10299520)
I0520 22:28:12.380379  5881 net.cpp:165] Memory required for data: 502291600
I0520 22:28:12.380398  5881 layer_factory.hpp:77] Creating layer relu3
I0520 22:28:12.380414  5881 net.cpp:106] Creating Layer relu3
I0520 22:28:12.380424  5881 net.cpp:454] relu3 <- conv3
I0520 22:28:12.380436  5881 net.cpp:397] relu3 -> conv3 (in-place)
I0520 22:28:12.380904  5881 net.cpp:150] Setting up relu3
I0520 22:28:12.380923  5881 net.cpp:157] Top shape: 380 28 22 44 (10299520)
I0520 22:28:12.380933  5881 net.cpp:165] Memory required for data: 543489680
I0520 22:28:12.380944  5881 layer_factory.hpp:77] Creating layer pool3
I0520 22:28:12.380956  5881 net.cpp:106] Creating Layer pool3
I0520 22:28:12.380966  5881 net.cpp:454] pool3 <- conv3
I0520 22:28:12.380978  5881 net.cpp:411] pool3 -> pool3
I0520 22:28:12.381047  5881 net.cpp:150] Setting up pool3
I0520 22:28:12.381060  5881 net.cpp:157] Top shape: 380 28 11 44 (5149760)
I0520 22:28:12.381069  5881 net.cpp:165] Memory required for data: 564088720
I0520 22:28:12.381078  5881 layer_factory.hpp:77] Creating layer conv4
I0520 22:28:12.381095  5881 net.cpp:106] Creating Layer conv4
I0520 22:28:12.381106  5881 net.cpp:454] conv4 <- pool3
I0520 22:28:12.381119  5881 net.cpp:411] conv4 -> conv4
I0520 22:28:12.383882  5881 net.cpp:150] Setting up conv4
I0520 22:28:12.383910  5881 net.cpp:157] Top shape: 380 36 6 42 (3447360)
I0520 22:28:12.383920  5881 net.cpp:165] Memory required for data: 577878160
I0520 22:28:12.383936  5881 layer_factory.hpp:77] Creating layer relu4
I0520 22:28:12.383950  5881 net.cpp:106] Creating Layer relu4
I0520 22:28:12.383960  5881 net.cpp:454] relu4 <- conv4
I0520 22:28:12.383973  5881 net.cpp:397] relu4 -> conv4 (in-place)
I0520 22:28:12.384443  5881 net.cpp:150] Setting up relu4
I0520 22:28:12.384459  5881 net.cpp:157] Top shape: 380 36 6 42 (3447360)
I0520 22:28:12.384470  5881 net.cpp:165] Memory required for data: 591667600
I0520 22:28:12.384480  5881 layer_factory.hpp:77] Creating layer pool4
I0520 22:28:12.384493  5881 net.cpp:106] Creating Layer pool4
I0520 22:28:12.384503  5881 net.cpp:454] pool4 <- conv4
I0520 22:28:12.384516  5881 net.cpp:411] pool4 -> pool4
I0520 22:28:12.384583  5881 net.cpp:150] Setting up pool4
I0520 22:28:12.384596  5881 net.cpp:157] Top shape: 380 36 3 42 (1723680)
I0520 22:28:12.384608  5881 net.cpp:165] Memory required for data: 598562320
I0520 22:28:12.384618  5881 layer_factory.hpp:77] Creating layer ip1
I0520 22:28:12.384639  5881 net.cpp:106] Creating Layer ip1
I0520 22:28:12.384649  5881 net.cpp:454] ip1 <- pool4
I0520 22:28:12.384661  5881 net.cpp:411] ip1 -> ip1
I0520 22:28:12.400115  5881 net.cpp:150] Setting up ip1
I0520 22:28:12.400146  5881 net.cpp:157] Top shape: 380 196 (74480)
I0520 22:28:12.400157  5881 net.cpp:165] Memory required for data: 598860240
I0520 22:28:12.400179  5881 layer_factory.hpp:77] Creating layer relu5
I0520 22:28:12.400195  5881 net.cpp:106] Creating Layer relu5
I0520 22:28:12.400205  5881 net.cpp:454] relu5 <- ip1
I0520 22:28:12.400218  5881 net.cpp:397] relu5 -> ip1 (in-place)
I0520 22:28:12.400563  5881 net.cpp:150] Setting up relu5
I0520 22:28:12.400576  5881 net.cpp:157] Top shape: 380 196 (74480)
I0520 22:28:12.400588  5881 net.cpp:165] Memory required for data: 599158160
I0520 22:28:12.400598  5881 layer_factory.hpp:77] Creating layer drop1
I0520 22:28:12.400619  5881 net.cpp:106] Creating Layer drop1
I0520 22:28:12.400629  5881 net.cpp:454] drop1 <- ip1
I0520 22:28:12.400655  5881 net.cpp:397] drop1 -> ip1 (in-place)
I0520 22:28:12.400701  5881 net.cpp:150] Setting up drop1
I0520 22:28:12.400713  5881 net.cpp:157] Top shape: 380 196 (74480)
I0520 22:28:12.400723  5881 net.cpp:165] Memory required for data: 599456080
I0520 22:28:12.400733  5881 layer_factory.hpp:77] Creating layer ip2
I0520 22:28:12.400751  5881 net.cpp:106] Creating Layer ip2
I0520 22:28:12.400763  5881 net.cpp:454] ip2 <- ip1
I0520 22:28:12.400775  5881 net.cpp:411] ip2 -> ip2
I0520 22:28:12.401239  5881 net.cpp:150] Setting up ip2
I0520 22:28:12.401252  5881 net.cpp:157] Top shape: 380 98 (37240)
I0520 22:28:12.401262  5881 net.cpp:165] Memory required for data: 599605040
I0520 22:28:12.401278  5881 layer_factory.hpp:77] Creating layer relu6
I0520 22:28:12.401290  5881 net.cpp:106] Creating Layer relu6
I0520 22:28:12.401300  5881 net.cpp:454] relu6 <- ip2
I0520 22:28:12.401312  5881 net.cpp:397] relu6 -> ip2 (in-place)
I0520 22:28:12.401836  5881 net.cpp:150] Setting up relu6
I0520 22:28:12.401854  5881 net.cpp:157] Top shape: 380 98 (37240)
I0520 22:28:12.401864  5881 net.cpp:165] Memory required for data: 599754000
I0520 22:28:12.401875  5881 layer_factory.hpp:77] Creating layer drop2
I0520 22:28:12.401887  5881 net.cpp:106] Creating Layer drop2
I0520 22:28:12.401897  5881 net.cpp:454] drop2 <- ip2
I0520 22:28:12.401911  5881 net.cpp:397] drop2 -> ip2 (in-place)
I0520 22:28:12.401952  5881 net.cpp:150] Setting up drop2
I0520 22:28:12.401965  5881 net.cpp:157] Top shape: 380 98 (37240)
I0520 22:28:12.401976  5881 net.cpp:165] Memory required for data: 599902960
I0520 22:28:12.401986  5881 layer_factory.hpp:77] Creating layer ip3
I0520 22:28:12.401999  5881 net.cpp:106] Creating Layer ip3
I0520 22:28:12.402009  5881 net.cpp:454] ip3 <- ip2
I0520 22:28:12.402021  5881 net.cpp:411] ip3 -> ip3
I0520 22:28:12.402232  5881 net.cpp:150] Setting up ip3
I0520 22:28:12.402245  5881 net.cpp:157] Top shape: 380 11 (4180)
I0520 22:28:12.402256  5881 net.cpp:165] Memory required for data: 599919680
I0520 22:28:12.402271  5881 layer_factory.hpp:77] Creating layer drop3
I0520 22:28:12.402282  5881 net.cpp:106] Creating Layer drop3
I0520 22:28:12.402292  5881 net.cpp:454] drop3 <- ip3
I0520 22:28:12.402304  5881 net.cpp:397] drop3 -> ip3 (in-place)
I0520 22:28:12.402343  5881 net.cpp:150] Setting up drop3
I0520 22:28:12.402355  5881 net.cpp:157] Top shape: 380 11 (4180)
I0520 22:28:12.402366  5881 net.cpp:165] Memory required for data: 599936400
I0520 22:28:12.402376  5881 layer_factory.hpp:77] Creating layer loss
I0520 22:28:12.402395  5881 net.cpp:106] Creating Layer loss
I0520 22:28:12.402405  5881 net.cpp:454] loss <- ip3
I0520 22:28:12.402415  5881 net.cpp:454] loss <- label
I0520 22:28:12.402429  5881 net.cpp:411] loss -> loss
I0520 22:28:12.402446  5881 layer_factory.hpp:77] Creating layer loss
…
I0520 22:28:12.417587  5881 solver.cpp:181] Creating test net (#0) specified by net file: /lustre/atlas/proj-shared/hep105/caffe_titan/caffe_workflow/logs_batch_size_test/batch_size_380_2016-05-20T11.20.46.530299.prototxt
I0520 22:28:12.417665  5881 net.cpp:322] The NetState phase (1) differed from the phase (0) specified by a rule in layer data_hdf5
I0520 22:28:12.418025  5881 net.cpp:49] Initializing net from parameters: 
name: "caffe_test_127x50_x_unshifted"
state {
  phase: TEST
}
layer {
  name: "data_hdf5"
  type: "HDF5Data"
  top: "data"
  top: "label"
  include {
    phase: TEST
  }
  hdf5_data_param {
    source: "/lustre/atlas/proj-shared/hep105/caffe_titan/minosmatch_nukecczdefs_127x50_x_unshifted_me1Bmc.testlist"
    batch_size: 380
  }
}
layer {
  name: "conv1"
  type: "Convolution"
  bottom: "data"
  top: "conv1"
  convolution_param {
    num_output: 12
    pad: 0
    stride: 1
    weight_filler {
      type: "xavier"
    }
    bias_filler {
      type: "constant"
    }
    kernel_h: 8
    kernel_w: 3
  }
}
layer {
  name: "relu1"
  type: "ReLU"
  bottom: "conv1"
  top: "conv1"
}
layer {
  name: "pool1"
  type: "Pooling"
  bottom: "conv1"
  top: "pool1"
  pooling_param {
    pool: MAX
    kernel_h: 2
    kernel_w: 1
    stride_h: 2
    stride_w: 1
  }
}
layer {
  name: "conv2"
  type: "Convolution"
  bottom: "pool1"
  top: "conv2"
  convolution_param {
    num_output: 20
    pad: 0
    stride: 1
    weight_filler {
      type: "xavier"
    }
    bias_filler {
      type: "constant"
    }
    kernel_h: 7
    kernel_w: 3
  }
}
layer {
  name: "relu2"
  type: "ReLU"
  bottom: "conv2"
  top: "conv2"
}
layer {
  name: "pool2"
  type: "Pooling"
  bottom: "conv2"
  top: "pool2"
  pooling_param {
    pool: MAX
    kernel_h: 2
    kernel_w: 1
    stride_h: 2
    stride_w: 1
  }
}
layer {
  name: "conv3"
  type: "Convolution"
  bottom: "pool2"
  top: "conv3"
  convolution_param {
    num_output: 28
    pad: 0
    stride: 1
    weight_filler {
      type: "xavier"
    }
    bias_filler {
      type: "constant"
    }
    kernel_h: 6
    kernel_w: 3
  }
}
layer {
  name: "relu3"
  type: "ReLU"
  bottom: "conv3"
  top: "conv3"
}
layer {
  name: "pool3"
  type: "Pooling"
  bottom: "conv3"
  top: "pool3"
  pooling_param {
    pool: MAX
    kernel_h: 2
    kernel_w: 1
    stride_h: 2
    stride_w: 1
  }
}
layer {
  name: "conv4"
  type: "Convolution"
  bottom: "pool3"
  top: "conv4"
  convolution_param {
    num_output: 36
    pad: 0
    stride: 1
    weight_filler {
      type: "xavier"
    }
    bias_filler {
      type: "constant"
    }
    kernel_h: 6
    kernel_w: 3
  }
}
layer {
  name: "relu4"
  type: "ReLU"
  bottom: "conv4"
  top: "conv4"
}
layer {
  name: "pool4"
  type: "Pooling"
  bottom: "conv4"
  top: "pool4"
  pooling_param {
    pool: MAX
    kernel_h: 2
    kernel_w: 1
    stride_h: 2
    stride_w: 1
  }
}
layer {
  name: "ip1"
  type: "InnerProduct"
  bottom: "pool4"
  top: "ip1"
  inner_product_param {
    num_output: 196
    weight_filler {
      type: "xavier"
    }
    bias_filler {
      type: "constant"
    }
  }
}
layer {
  name: "relu5"
  type: "ReLU"
  bottom: "ip1"
  top: "ip1"
}
layer {
  name: "drop1"
  type: "Dropout"
  bottom: "ip1"
  top: "ip1"
  dropout_param {
    dropout_ratio: 0.5
  }
}
layer {
  name: "ip2"
  type: "InnerProduct"
  bottom: "ip1"
  top: "ip2"
  inner_product_param {
    num_output: 98
    weight_filler {
      type: "xavier"
    }
    bias_filler {
      type: "constant"
    }
  }
}
layer {
  name: "relu6"
  type: "ReLU"
  bottom: "ip2"
  top: "ip2"
}
layer {
  name: "drop2"
  type: "Dropout"
  bottom: "ip2"
  top: "ip2"
  dropout_param {
    dropout_ratio: 0.5
  }
}
layer {
  name: "ip3"
  type: "InnerProduct"
  bottom: "ip2"
  top: "ip3"
  inner_product_param {
    num_output: 11
    weight_filler {
      type: "xavier"
    }
    bias_filler {
      type: "constant"
    }
  }
}
layer {
  name: "drop3"
  type: "Dropout"
  bottom: "ip3"
  top: "ip3"
  dropout_param {
    dropout_ratio: 0.5
  }
}
layer {
  name: "accuracy"
  type: "Accuracy"
  bottom: "ip3"
  bottom: "label"
  top: "accuracy"
  include {
    phase: TEST
  }
}
layer {
  name: "loss"
  type: "SoftmaxWithLoss"
  bottom: "ip3"
  bottom: "label"
  top: "loss"
}
I0520 22:28:12.418218  5881 layer_factory.hpp:77] Creating layer data_hdf5
I0520 22:28:12.418236  5881 net.cpp:106] Creating Layer data_hdf5
I0520 22:28:12.418247  5881 net.cpp:411] data_hdf5 -> data
I0520 22:28:12.418265  5881 net.cpp:411] data_hdf5 -> label
I0520 22:28:12.418282  5881 hdf5_data_layer.cpp:79] Loading list of HDF5 filenames from: /lustre/atlas/proj-shared/hep105/caffe_titan/minosmatch_nukecczdefs_127x50_x_unshifted_me1Bmc.testlist
I0520 22:28:12.426827  5881 hdf5_data_layer.cpp:93] Number of HDF5 files: 3
I0520 22:28:33.720441  5881 net.cpp:150] Setting up data_hdf5
I0520 22:28:33.720604  5881 net.cpp:157] Top shape: 380 1 127 50 (2413000)
I0520 22:28:33.720619  5881 net.cpp:157] Top shape: 380 (380)
I0520 22:28:33.720631  5881 net.cpp:165] Memory required for data: 9653520
I0520 22:28:33.720644  5881 layer_factory.hpp:77] Creating layer label_data_hdf5_1_split
I0520 22:28:33.720671  5881 net.cpp:106] Creating Layer label_data_hdf5_1_split
I0520 22:28:33.720684  5881 net.cpp:454] label_data_hdf5_1_split <- label
I0520 22:28:33.720698  5881 net.cpp:411] label_data_hdf5_1_split -> label_data_hdf5_1_split_0
I0520 22:28:33.720720  5881 net.cpp:411] label_data_hdf5_1_split -> label_data_hdf5_1_split_1
I0520 22:28:33.720793  5881 net.cpp:150] Setting up label_data_hdf5_1_split
I0520 22:28:33.720808  5881 net.cpp:157] Top shape: 380 (380)
I0520 22:28:33.720818  5881 net.cpp:157] Top shape: 380 (380)
I0520 22:28:33.720829  5881 net.cpp:165] Memory required for data: 9656560
I0520 22:28:33.720839  5881 layer_factory.hpp:77] Creating layer conv1
I0520 22:28:33.720860  5881 net.cpp:106] Creating Layer conv1
I0520 22:28:33.720870  5881 net.cpp:454] conv1 <- data
I0520 22:28:33.720885  5881 net.cpp:411] conv1 -> conv1
I0520 22:28:33.722802  5881 net.cpp:150] Setting up conv1
I0520 22:28:33.722827  5881 net.cpp:157] Top shape: 380 12 120 48 (26265600)
I0520 22:28:33.722838  5881 net.cpp:165] Memory required for data: 114718960
I0520 22:28:33.722861  5881 layer_factory.hpp:77] Creating layer relu1
I0520 22:28:33.722875  5881 net.cpp:106] Creating Layer relu1
I0520 22:28:33.722885  5881 net.cpp:454] relu1 <- conv1
I0520 22:28:33.722898  5881 net.cpp:397] relu1 -> conv1 (in-place)
I0520 22:28:33.723397  5881 net.cpp:150] Setting up relu1
I0520 22:28:33.723413  5881 net.cpp:157] Top shape: 380 12 120 48 (26265600)
I0520 22:28:33.723423  5881 net.cpp:165] Memory required for data: 219781360
I0520 22:28:33.723433  5881 layer_factory.hpp:77] Creating layer pool1
I0520 22:28:33.723450  5881 net.cpp:106] Creating Layer pool1
I0520 22:28:33.723459  5881 net.cpp:454] pool1 <- conv1
I0520 22:28:33.723474  5881 net.cpp:411] pool1 -> pool1
I0520 22:28:33.723548  5881 net.cpp:150] Setting up pool1
I0520 22:28:33.723562  5881 net.cpp:157] Top shape: 380 12 60 48 (13132800)
I0520 22:28:33.723572  5881 net.cpp:165] Memory required for data: 272312560
I0520 22:28:33.723579  5881 layer_factory.hpp:77] Creating layer conv2
I0520 22:28:33.723598  5881 net.cpp:106] Creating Layer conv2
I0520 22:28:33.723608  5881 net.cpp:454] conv2 <- pool1
I0520 22:28:33.723623  5881 net.cpp:411] conv2 -> conv2
I0520 22:28:33.725546  5881 net.cpp:150] Setting up conv2
I0520 22:28:33.725569  5881 net.cpp:157] Top shape: 380 20 54 46 (18878400)
I0520 22:28:33.725581  5881 net.cpp:165] Memory required for data: 347826160
I0520 22:28:33.725600  5881 layer_factory.hpp:77] Creating layer relu2
I0520 22:28:33.725613  5881 net.cpp:106] Creating Layer relu2
I0520 22:28:33.725623  5881 net.cpp:454] relu2 <- conv2
I0520 22:28:33.725636  5881 net.cpp:397] relu2 -> conv2 (in-place)
I0520 22:28:33.725970  5881 net.cpp:150] Setting up relu2
I0520 22:28:33.725983  5881 net.cpp:157] Top shape: 380 20 54 46 (18878400)
I0520 22:28:33.725993  5881 net.cpp:165] Memory required for data: 423339760
I0520 22:28:33.726004  5881 layer_factory.hpp:77] Creating layer pool2
I0520 22:28:33.726018  5881 net.cpp:106] Creating Layer pool2
I0520 22:28:33.726028  5881 net.cpp:454] pool2 <- conv2
I0520 22:28:33.726040  5881 net.cpp:411] pool2 -> pool2
I0520 22:28:33.726111  5881 net.cpp:150] Setting up pool2
I0520 22:28:33.726125  5881 net.cpp:157] Top shape: 380 20 27 46 (9439200)
I0520 22:28:33.726135  5881 net.cpp:165] Memory required for data: 461096560
I0520 22:28:33.726143  5881 layer_factory.hpp:77] Creating layer conv3
I0520 22:28:33.726161  5881 net.cpp:106] Creating Layer conv3
I0520 22:28:33.726172  5881 net.cpp:454] conv3 <- pool2
I0520 22:28:33.726186  5881 net.cpp:411] conv3 -> conv3
I0520 22:28:33.728152  5881 net.cpp:150] Setting up conv3
I0520 22:28:33.728174  5881 net.cpp:157] Top shape: 380 28 22 44 (10299520)
I0520 22:28:33.728186  5881 net.cpp:165] Memory required for data: 502294640
I0520 22:28:33.728219  5881 layer_factory.hpp:77] Creating layer relu3
I0520 22:28:33.728232  5881 net.cpp:106] Creating Layer relu3
I0520 22:28:33.728243  5881 net.cpp:454] relu3 <- conv3
I0520 22:28:33.728256  5881 net.cpp:397] relu3 -> conv3 (in-place)
I0520 22:28:33.728725  5881 net.cpp:150] Setting up relu3
I0520 22:28:33.728741  5881 net.cpp:157] Top shape: 380 28 22 44 (10299520)
I0520 22:28:33.728751  5881 net.cpp:165] Memory required for data: 543492720
I0520 22:28:33.728761  5881 layer_factory.hpp:77] Creating layer pool3
I0520 22:28:33.728775  5881 net.cpp:106] Creating Layer pool3
I0520 22:28:33.728785  5881 net.cpp:454] pool3 <- conv3
I0520 22:28:33.728797  5881 net.cpp:411] pool3 -> pool3
I0520 22:28:33.728869  5881 net.cpp:150] Setting up pool3
I0520 22:28:33.728883  5881 net.cpp:157] Top shape: 380 28 11 44 (5149760)
I0520 22:28:33.728893  5881 net.cpp:165] Memory required for data: 564091760
I0520 22:28:33.728902  5881 layer_factory.hpp:77] Creating layer conv4
I0520 22:28:33.728919  5881 net.cpp:106] Creating Layer conv4
I0520 22:28:33.728929  5881 net.cpp:454] conv4 <- pool3
I0520 22:28:33.728945  5881 net.cpp:411] conv4 -> conv4
I0520 22:28:33.731010  5881 net.cpp:150] Setting up conv4
I0520 22:28:33.731032  5881 net.cpp:157] Top shape: 380 36 6 42 (3447360)
I0520 22:28:33.731042  5881 net.cpp:165] Memory required for data: 577881200
I0520 22:28:33.731058  5881 layer_factory.hpp:77] Creating layer relu4
I0520 22:28:33.731071  5881 net.cpp:106] Creating Layer relu4
I0520 22:28:33.731081  5881 net.cpp:454] relu4 <- conv4
I0520 22:28:33.731094  5881 net.cpp:397] relu4 -> conv4 (in-place)
I0520 22:28:33.731561  5881 net.cpp:150] Setting up relu4
I0520 22:28:33.731577  5881 net.cpp:157] Top shape: 380 36 6 42 (3447360)
I0520 22:28:33.731587  5881 net.cpp:165] Memory required for data: 591670640
I0520 22:28:33.731597  5881 layer_factory.hpp:77] Creating layer pool4
I0520 22:28:33.731611  5881 net.cpp:106] Creating Layer pool4
I0520 22:28:33.731621  5881 net.cpp:454] pool4 <- conv4
I0520 22:28:33.731633  5881 net.cpp:411] pool4 -> pool4
I0520 22:28:33.731705  5881 net.cpp:150] Setting up pool4
I0520 22:28:33.731719  5881 net.cpp:157] Top shape: 380 36 3 42 (1723680)
I0520 22:28:33.731727  5881 net.cpp:165] Memory required for data: 598565360
I0520 22:28:33.731737  5881 layer_factory.hpp:77] Creating layer ip1
I0520 22:28:33.731752  5881 net.cpp:106] Creating Layer ip1
I0520 22:28:33.731763  5881 net.cpp:454] ip1 <- pool4
I0520 22:28:33.731777  5881 net.cpp:411] ip1 -> ip1
I0520 22:28:33.747280  5881 net.cpp:150] Setting up ip1
I0520 22:28:33.747308  5881 net.cpp:157] Top shape: 380 196 (74480)
I0520 22:28:33.747320  5881 net.cpp:165] Memory required for data: 598863280
I0520 22:28:33.747342  5881 layer_factory.hpp:77] Creating layer relu5
I0520 22:28:33.747357  5881 net.cpp:106] Creating Layer relu5
I0520 22:28:33.747369  5881 net.cpp:454] relu5 <- ip1
I0520 22:28:33.747382  5881 net.cpp:397] relu5 -> ip1 (in-place)
I0520 22:28:33.747728  5881 net.cpp:150] Setting up relu5
I0520 22:28:33.747742  5881 net.cpp:157] Top shape: 380 196 (74480)
I0520 22:28:33.747752  5881 net.cpp:165] Memory required for data: 599161200
I0520 22:28:33.747763  5881 layer_factory.hpp:77] Creating layer drop1
I0520 22:28:33.747781  5881 net.cpp:106] Creating Layer drop1
I0520 22:28:33.747792  5881 net.cpp:454] drop1 <- ip1
I0520 22:28:33.747804  5881 net.cpp:397] drop1 -> ip1 (in-place)
I0520 22:28:33.747848  5881 net.cpp:150] Setting up drop1
I0520 22:28:33.747861  5881 net.cpp:157] Top shape: 380 196 (74480)
I0520 22:28:33.747870  5881 net.cpp:165] Memory required for data: 599459120
I0520 22:28:33.747880  5881 layer_factory.hpp:77] Creating layer ip2
I0520 22:28:33.747895  5881 net.cpp:106] Creating Layer ip2
I0520 22:28:33.747905  5881 net.cpp:454] ip2 <- ip1
I0520 22:28:33.747918  5881 net.cpp:411] ip2 -> ip2
I0520 22:28:33.748399  5881 net.cpp:150] Setting up ip2
I0520 22:28:33.748412  5881 net.cpp:157] Top shape: 380 98 (37240)
I0520 22:28:33.748422  5881 net.cpp:165] Memory required for data: 599608080
I0520 22:28:33.748450  5881 layer_factory.hpp:77] Creating layer relu6
I0520 22:28:33.748463  5881 net.cpp:106] Creating Layer relu6
I0520 22:28:33.748472  5881 net.cpp:454] relu6 <- ip2
I0520 22:28:33.748486  5881 net.cpp:397] relu6 -> ip2 (in-place)
I0520 22:28:33.749020  5881 net.cpp:150] Setting up relu6
I0520 22:28:33.749037  5881 net.cpp:157] Top shape: 380 98 (37240)
I0520 22:28:33.749044  5881 net.cpp:165] Memory required for data: 599757040
I0520 22:28:33.749054  5881 layer_factory.hpp:77] Creating layer drop2
I0520 22:28:33.749068  5881 net.cpp:106] Creating Layer drop2
I0520 22:28:33.749078  5881 net.cpp:454] drop2 <- ip2
I0520 22:28:33.749091  5881 net.cpp:397] drop2 -> ip2 (in-place)
I0520 22:28:33.749135  5881 net.cpp:150] Setting up drop2
I0520 22:28:33.749148  5881 net.cpp:157] Top shape: 380 98 (37240)
I0520 22:28:33.749158  5881 net.cpp:165] Memory required for data: 599906000
I0520 22:28:33.749169  5881 layer_factory.hpp:77] Creating layer ip3
I0520 22:28:33.749183  5881 net.cpp:106] Creating Layer ip3
I0520 22:28:33.749193  5881 net.cpp:454] ip3 <- ip2
I0520 22:28:33.749207  5881 net.cpp:411] ip3 -> ip3
I0520 22:28:33.749439  5881 net.cpp:150] Setting up ip3
I0520 22:28:33.749452  5881 net.cpp:157] Top shape: 380 11 (4180)
I0520 22:28:33.749462  5881 net.cpp:165] Memory required for data: 599922720
I0520 22:28:33.749478  5881 layer_factory.hpp:77] Creating layer drop3
I0520 22:28:33.749491  5881 net.cpp:106] Creating Layer drop3
I0520 22:28:33.749501  5881 net.cpp:454] drop3 <- ip3
I0520 22:28:33.749514  5881 net.cpp:397] drop3 -> ip3 (in-place)
I0520 22:28:33.749555  5881 net.cpp:150] Setting up drop3
I0520 22:28:33.749568  5881 net.cpp:157] Top shape: 380 11 (4180)
I0520 22:28:33.749578  5881 net.cpp:165] Memory required for data: 599939440
I0520 22:28:33.749588  5881 layer_factory.hpp:77] Creating layer ip3_drop3_0_split
I0520 22:28:33.749600  5881 net.cpp:106] Creating Layer ip3_drop3_0_split
I0520 22:28:33.749610  5881 net.cpp:454] ip3_drop3_0_split <- ip3
I0520 22:28:33.749624  5881 net.cpp:411] ip3_drop3_0_split -> ip3_drop3_0_split_0
I0520 22:28:33.749639  5881 net.cpp:411] ip3_drop3_0_split -> ip3_drop3_0_split_1
I0520 22:28:33.749712  5881 net.cpp:150] Setting up ip3_drop3_0_split
I0520 22:28:33.749725  5881 net.cpp:157] Top shape: 380 11 (4180)
I0520 22:28:33.749737  5881 net.cpp:157] Top shape: 380 11 (4180)
I0520 22:28:33.749747  5881 net.cpp:165] Memory required for data: 599972880
I0520 22:28:33.749758  5881 layer_factory.hpp:77] Creating layer accuracy
I0520 22:28:33.749779  5881 net.cpp:106] Creating Layer accuracy
I0520 22:28:33.749789  5881 net.cpp:454] accuracy <- ip3_drop3_0_split_0
I0520 22:28:33.749800  5881 net.cpp:454] accuracy <- label_data_hdf5_1_split_0
I0520 22:28:33.749814  5881 net.cpp:411] accuracy -> accuracy
…
