…
I0521 09:05:16.742957 31067 net.cpp:322] The NetState phase (0) differed from the phase (1) specified by a rule in layer data_hdf5
I0521 09:05:16.743017 31067 net.cpp:322] The NetState phase (0) differed from the phase (1) specified by a rule in layer accuracy
I0521 09:05:16.743362 31067 net.cpp:49] Initializing net from parameters: 
name: "caffe_test_127x50_x_unshifted"
state {
  phase: TRAIN
}
layer {
  name: "data_hdf5"
  type: "HDF5Data"
  top: "data"
  top: "label"
  include {
    phase: TRAIN
  }
  hdf5_data_param {
    source: "/lustre/atlas/proj-shared/hep105/caffe_titan/minosmatch_nukecczdefs_127x50_x_unshifted_me1Bmc.trainlist"
    batch_size: 880
  }
}
layer {
  name: "conv1"
  type: "Convolution"
  bottom: "data"
  top: "conv1"
  convolution_param {
    num_output: 12
    pad: 0
    stride: 1
    weight_filler {
      type: "xavier"
    }
    bias_filler {
      type: "constant"
    }
    kernel_h: 8
    kernel_w: 3
  }
}
layer {
  name: "relu1"
  type: "ReLU"
  bottom: "conv1"
  top: "conv1"
}
layer {
  name: "pool1"
  type: "Pooling"
  bottom: "conv1"
  top: "pool1"
  pooling_param {
    pool: MAX
    kernel_h: 2
    kernel_w: 1
    stride_h: 2
    stride_w: 1
  }
}
layer {
  name: "conv2"
  type: "Convolution"
  bottom: "pool1"
  top: "conv2"
  convolution_param {
    num_output: 20
    pad: 0
    stride: 1
    weight_filler {
      type: "xavier"
    }
    bias_filler {
      type: "constant"
    }
    kernel_h: 7
    kernel_w: 3
  }
}
layer {
  name: "relu2"
  type: "ReLU"
  bottom: "conv2"
  top: "conv2"
}
layer {
  name: "pool2"
  type: "Pooling"
  bottom: "conv2"
  top: "pool2"
  pooling_param {
    pool: MAX
    kernel_h: 2
    kernel_w: 1
    stride_h: 2
    stride_w: 1
  }
}
layer {
  name: "conv3"
  type: "Convolution"
  bottom: "pool2"
  top: "conv3"
  convolution_param {
    num_output: 28
    pad: 0
    stride: 1
    weight_filler {
      type: "xavier"
    }
    bias_filler {
      type: "constant"
    }
    kernel_h: 6
    kernel_w: 3
  }
}
layer {
  name: "relu3"
  type: "ReLU"
  bottom: "conv3"
  top: "conv3"
}
layer {
  name: "pool3"
  type: "Pooling"
  bottom: "conv3"
  top: "pool3"
  pooling_param {
    pool: MAX
    kernel_h: 2
    kernel_w: 1
    stride_h: 2
    stride_w: 1
  }
}
layer {
  name: "conv4"
  type: "Convolution"
  bottom: "pool3"
  top: "conv4"
  convolution_param {
    num_output: 36
    pad: 0
    stride: 1
    weight_filler {
      type: "xavier"
    }
    bias_filler {
      type: "constant"
    }
    kernel_h: 6
    kernel_w: 3
  }
}
layer {
  name: "relu4"
  type: "ReLU"
  bottom: "conv4"
  top: "conv4"
}
layer {
  name: "pool4"
  type: "Pooling"
  bottom: "conv4"
  top: "pool4"
  pooling_param {
    pool: MAX
    kernel_h: 2
    kernel_w: 1
    stride_h: 2
    stride_w: 1
  }
}
layer {
  name: "ip1"
  type: "InnerProduct"
  bottom: "pool4"
  top: "ip1"
  inner_product_param {
    num_output: 196
    weight_filler {
      type: "xavier"
    }
    bias_filler {
      type: "constant"
    }
  }
}
layer {
  name: "relu5"
  type: "ReLU"
  bottom: "ip1"
  top: "ip1"
}
layer {
  name: "drop1"
  type: "Dropout"
  bottom: "ip1"
  top: "ip1"
  dropout_param {
    dropout_ratio: 0.5
  }
}
layer {
  name: "ip2"
  type: "InnerProduct"
  bottom: "ip1"
  top: "ip2"
  inner_product_param {
    num_output: 98
    weight_filler {
      type: "xavier"
    }
    bias_filler {
      type: "constant"
    }
  }
}
layer {
  name: "relu6"
  type: "ReLU"
  bottom: "ip2"
  top: "ip2"
}
layer {
  name: "drop2"
  type: "Dropout"
  bottom: "ip2"
  top: "ip2"
  dropout_param {
    dropout_ratio: 0.5
  }
}
layer {
  name: "ip3"
  type: "InnerProduct"
  bottom: "ip2"
  top: "ip3"
  inner_product_param {
    num_output: 11
    weight_filler {
      type: "xavier"
    }
    bias_filler {
      type: "constant"
    }
  }
}
layer {
  name: "drop3"
  type: "Dropout"
  bottom: "ip3"
  top: "ip3"
  dropout_param {
    dropout_ratio: 0.5
  }
}
layer {
  name: "loss"
  type: "SoftmaxWithLoss"
  bottom: "ip3"
  bottom: "label"
  top: "loss"
}
I0521 09:05:16.743540 31067 layer_factory.hpp:77] Creating layer data_hdf5
I0521 09:05:16.743563 31067 net.cpp:106] Creating Layer data_hdf5
I0521 09:05:16.743577 31067 net.cpp:411] data_hdf5 -> data
I0521 09:05:16.743612 31067 net.cpp:411] data_hdf5 -> label
I0521 09:05:16.743644 31067 hdf5_data_layer.cpp:79] Loading list of HDF5 filenames from: /lustre/atlas/proj-shared/hep105/caffe_titan/minosmatch_nukecczdefs_127x50_x_unshifted_me1Bmc.trainlist
I0521 09:05:16.756027 31067 hdf5_data_layer.cpp:93] Number of HDF5 files: 15
I0521 09:05:16.758232 31067 hdf5.cpp:32] Datatype class: H5T_FLOAT
I0521 09:05:38.309048 31067 hdf5.cpp:35] Datatype class: H5T_INTEGER
I0521 09:05:38.314204 31067 net.cpp:150] Setting up data_hdf5
I0521 09:05:38.314249 31067 net.cpp:157] Top shape: 880 1 127 50 (5588000)
I0521 09:05:38.314265 31067 net.cpp:157] Top shape: 880 (880)
I0521 09:05:38.314275 31067 net.cpp:165] Memory required for data: 22355520
I0521 09:05:38.314287 31067 layer_factory.hpp:77] Creating layer conv1
I0521 09:05:38.314321 31067 net.cpp:106] Creating Layer conv1
I0521 09:05:38.314333 31067 net.cpp:454] conv1 <- data
I0521 09:05:38.314355 31067 net.cpp:411] conv1 -> conv1
I0521 09:05:38.682238 31067 net.cpp:150] Setting up conv1
I0521 09:05:38.682287 31067 net.cpp:157] Top shape: 880 12 120 48 (60825600)
I0521 09:05:38.682298 31067 net.cpp:165] Memory required for data: 265657920
I0521 09:05:38.682327 31067 layer_factory.hpp:77] Creating layer relu1
I0521 09:05:38.682348 31067 net.cpp:106] Creating Layer relu1
I0521 09:05:38.682358 31067 net.cpp:454] relu1 <- conv1
I0521 09:05:38.682373 31067 net.cpp:397] relu1 -> conv1 (in-place)
I0521 09:05:38.682891 31067 net.cpp:150] Setting up relu1
I0521 09:05:38.682907 31067 net.cpp:157] Top shape: 880 12 120 48 (60825600)
I0521 09:05:38.682919 31067 net.cpp:165] Memory required for data: 508960320
I0521 09:05:38.682929 31067 layer_factory.hpp:77] Creating layer pool1
I0521 09:05:38.682945 31067 net.cpp:106] Creating Layer pool1
I0521 09:05:38.682956 31067 net.cpp:454] pool1 <- conv1
I0521 09:05:38.682970 31067 net.cpp:411] pool1 -> pool1
I0521 09:05:38.683049 31067 net.cpp:150] Setting up pool1
I0521 09:05:38.683063 31067 net.cpp:157] Top shape: 880 12 60 48 (30412800)
I0521 09:05:38.683073 31067 net.cpp:165] Memory required for data: 630611520
I0521 09:05:38.683084 31067 layer_factory.hpp:77] Creating layer conv2
I0521 09:05:38.683105 31067 net.cpp:106] Creating Layer conv2
I0521 09:05:38.683116 31067 net.cpp:454] conv2 <- pool1
I0521 09:05:38.683128 31067 net.cpp:411] conv2 -> conv2
I0521 09:05:38.685817 31067 net.cpp:150] Setting up conv2
I0521 09:05:38.685845 31067 net.cpp:157] Top shape: 880 20 54 46 (43718400)
I0521 09:05:38.685855 31067 net.cpp:165] Memory required for data: 805485120
I0521 09:05:38.685874 31067 layer_factory.hpp:77] Creating layer relu2
I0521 09:05:38.685889 31067 net.cpp:106] Creating Layer relu2
I0521 09:05:38.685899 31067 net.cpp:454] relu2 <- conv2
I0521 09:05:38.685911 31067 net.cpp:397] relu2 -> conv2 (in-place)
I0521 09:05:38.686241 31067 net.cpp:150] Setting up relu2
I0521 09:05:38.686256 31067 net.cpp:157] Top shape: 880 20 54 46 (43718400)
I0521 09:05:38.686266 31067 net.cpp:165] Memory required for data: 980358720
I0521 09:05:38.686276 31067 layer_factory.hpp:77] Creating layer pool2
I0521 09:05:38.686290 31067 net.cpp:106] Creating Layer pool2
I0521 09:05:38.686300 31067 net.cpp:454] pool2 <- conv2
I0521 09:05:38.686324 31067 net.cpp:411] pool2 -> pool2
I0521 09:05:38.686393 31067 net.cpp:150] Setting up pool2
I0521 09:05:38.686406 31067 net.cpp:157] Top shape: 880 20 27 46 (21859200)
I0521 09:05:38.686416 31067 net.cpp:165] Memory required for data: 1067795520
I0521 09:05:38.686426 31067 layer_factory.hpp:77] Creating layer conv3
I0521 09:05:38.686444 31067 net.cpp:106] Creating Layer conv3
I0521 09:05:38.686455 31067 net.cpp:454] conv3 <- pool2
I0521 09:05:38.686468 31067 net.cpp:411] conv3 -> conv3
I0521 09:05:38.688385 31067 net.cpp:150] Setting up conv3
I0521 09:05:38.688410 31067 net.cpp:157] Top shape: 880 28 22 44 (23851520)
I0521 09:05:38.688421 31067 net.cpp:165] Memory required for data: 1163201600
I0521 09:05:38.688439 31067 layer_factory.hpp:77] Creating layer relu3
I0521 09:05:38.688455 31067 net.cpp:106] Creating Layer relu3
I0521 09:05:38.688465 31067 net.cpp:454] relu3 <- conv3
I0521 09:05:38.688478 31067 net.cpp:397] relu3 -> conv3 (in-place)
I0521 09:05:38.688957 31067 net.cpp:150] Setting up relu3
I0521 09:05:38.688974 31067 net.cpp:157] Top shape: 880 28 22 44 (23851520)
I0521 09:05:38.688984 31067 net.cpp:165] Memory required for data: 1258607680
I0521 09:05:38.688994 31067 layer_factory.hpp:77] Creating layer pool3
I0521 09:05:38.689008 31067 net.cpp:106] Creating Layer pool3
I0521 09:05:38.689018 31067 net.cpp:454] pool3 <- conv3
I0521 09:05:38.689030 31067 net.cpp:411] pool3 -> pool3
I0521 09:05:38.689097 31067 net.cpp:150] Setting up pool3
I0521 09:05:38.689111 31067 net.cpp:157] Top shape: 880 28 11 44 (11925760)
I0521 09:05:38.689121 31067 net.cpp:165] Memory required for data: 1306310720
I0521 09:05:38.689131 31067 layer_factory.hpp:77] Creating layer conv4
I0521 09:05:38.689148 31067 net.cpp:106] Creating Layer conv4
I0521 09:05:38.689159 31067 net.cpp:454] conv4 <- pool3
I0521 09:05:38.689172 31067 net.cpp:411] conv4 -> conv4
I0521 09:05:38.691887 31067 net.cpp:150] Setting up conv4
I0521 09:05:38.691915 31067 net.cpp:157] Top shape: 880 36 6 42 (7983360)
I0521 09:05:38.691926 31067 net.cpp:165] Memory required for data: 1338244160
I0521 09:05:38.691941 31067 layer_factory.hpp:77] Creating layer relu4
I0521 09:05:38.691956 31067 net.cpp:106] Creating Layer relu4
I0521 09:05:38.691965 31067 net.cpp:454] relu4 <- conv4
I0521 09:05:38.691978 31067 net.cpp:397] relu4 -> conv4 (in-place)
I0521 09:05:38.692447 31067 net.cpp:150] Setting up relu4
I0521 09:05:38.692463 31067 net.cpp:157] Top shape: 880 36 6 42 (7983360)
I0521 09:05:38.692474 31067 net.cpp:165] Memory required for data: 1370177600
I0521 09:05:38.692484 31067 layer_factory.hpp:77] Creating layer pool4
I0521 09:05:38.692497 31067 net.cpp:106] Creating Layer pool4
I0521 09:05:38.692507 31067 net.cpp:454] pool4 <- conv4
I0521 09:05:38.692520 31067 net.cpp:411] pool4 -> pool4
I0521 09:05:38.692587 31067 net.cpp:150] Setting up pool4
I0521 09:05:38.692601 31067 net.cpp:157] Top shape: 880 36 3 42 (3991680)
I0521 09:05:38.692611 31067 net.cpp:165] Memory required for data: 1386144320
I0521 09:05:38.692621 31067 layer_factory.hpp:77] Creating layer ip1
I0521 09:05:38.692643 31067 net.cpp:106] Creating Layer ip1
I0521 09:05:38.692653 31067 net.cpp:454] ip1 <- pool4
I0521 09:05:38.692667 31067 net.cpp:411] ip1 -> ip1
I0521 09:05:38.708151 31067 net.cpp:150] Setting up ip1
I0521 09:05:38.708181 31067 net.cpp:157] Top shape: 880 196 (172480)
I0521 09:05:38.708195 31067 net.cpp:165] Memory required for data: 1386834240
I0521 09:05:38.708216 31067 layer_factory.hpp:77] Creating layer relu5
I0521 09:05:38.708231 31067 net.cpp:106] Creating Layer relu5
I0521 09:05:38.708241 31067 net.cpp:454] relu5 <- ip1
I0521 09:05:38.708256 31067 net.cpp:397] relu5 -> ip1 (in-place)
I0521 09:05:38.708598 31067 net.cpp:150] Setting up relu5
I0521 09:05:38.708613 31067 net.cpp:157] Top shape: 880 196 (172480)
I0521 09:05:38.708622 31067 net.cpp:165] Memory required for data: 1387524160
I0521 09:05:38.708633 31067 layer_factory.hpp:77] Creating layer drop1
I0521 09:05:38.708657 31067 net.cpp:106] Creating Layer drop1
I0521 09:05:38.708667 31067 net.cpp:454] drop1 <- ip1
I0521 09:05:38.708693 31067 net.cpp:397] drop1 -> ip1 (in-place)
I0521 09:05:38.708739 31067 net.cpp:150] Setting up drop1
I0521 09:05:38.708752 31067 net.cpp:157] Top shape: 880 196 (172480)
I0521 09:05:38.708762 31067 net.cpp:165] Memory required for data: 1388214080
I0521 09:05:38.708772 31067 layer_factory.hpp:77] Creating layer ip2
I0521 09:05:38.708791 31067 net.cpp:106] Creating Layer ip2
I0521 09:05:38.708801 31067 net.cpp:454] ip2 <- ip1
I0521 09:05:38.708814 31067 net.cpp:411] ip2 -> ip2
I0521 09:05:38.709287 31067 net.cpp:150] Setting up ip2
I0521 09:05:38.709300 31067 net.cpp:157] Top shape: 880 98 (86240)
I0521 09:05:38.709311 31067 net.cpp:165] Memory required for data: 1388559040
I0521 09:05:38.709326 31067 layer_factory.hpp:77] Creating layer relu6
I0521 09:05:38.709338 31067 net.cpp:106] Creating Layer relu6
I0521 09:05:38.709348 31067 net.cpp:454] relu6 <- ip2
I0521 09:05:38.709360 31067 net.cpp:397] relu6 -> ip2 (in-place)
I0521 09:05:38.709880 31067 net.cpp:150] Setting up relu6
I0521 09:05:38.709897 31067 net.cpp:157] Top shape: 880 98 (86240)
I0521 09:05:38.709906 31067 net.cpp:165] Memory required for data: 1388904000
I0521 09:05:38.709918 31067 layer_factory.hpp:77] Creating layer drop2
I0521 09:05:38.709930 31067 net.cpp:106] Creating Layer drop2
I0521 09:05:38.709940 31067 net.cpp:454] drop2 <- ip2
I0521 09:05:38.709952 31067 net.cpp:397] drop2 -> ip2 (in-place)
I0521 09:05:38.709995 31067 net.cpp:150] Setting up drop2
I0521 09:05:38.710007 31067 net.cpp:157] Top shape: 880 98 (86240)
I0521 09:05:38.710018 31067 net.cpp:165] Memory required for data: 1389248960
I0521 09:05:38.710028 31067 layer_factory.hpp:77] Creating layer ip3
I0521 09:05:38.710042 31067 net.cpp:106] Creating Layer ip3
I0521 09:05:38.710052 31067 net.cpp:454] ip3 <- ip2
I0521 09:05:38.710064 31067 net.cpp:411] ip3 -> ip3
I0521 09:05:38.710275 31067 net.cpp:150] Setting up ip3
I0521 09:05:38.710289 31067 net.cpp:157] Top shape: 880 11 (9680)
I0521 09:05:38.710299 31067 net.cpp:165] Memory required for data: 1389287680
I0521 09:05:38.710314 31067 layer_factory.hpp:77] Creating layer drop3
I0521 09:05:38.710325 31067 net.cpp:106] Creating Layer drop3
I0521 09:05:38.710335 31067 net.cpp:454] drop3 <- ip3
I0521 09:05:38.710347 31067 net.cpp:397] drop3 -> ip3 (in-place)
I0521 09:05:38.710386 31067 net.cpp:150] Setting up drop3
I0521 09:05:38.710398 31067 net.cpp:157] Top shape: 880 11 (9680)
I0521 09:05:38.710408 31067 net.cpp:165] Memory required for data: 1389326400
I0521 09:05:38.710419 31067 layer_factory.hpp:77] Creating layer loss
I0521 09:05:38.710438 31067 net.cpp:106] Creating Layer loss
I0521 09:05:38.710448 31067 net.cpp:454] loss <- ip3
I0521 09:05:38.710458 31067 net.cpp:454] loss <- label
I0521 09:05:38.710470 31067 net.cpp:411] loss -> loss
I0521 09:05:38.710487 31067 layer_factory.hpp:77] Creating layer loss
…
I0521 09:05:38.713100 31067 solver.cpp:181] Creating test net (#0) specified by net file: /lustre/atlas/proj-shared/hep105/caffe_titan/caffe_workflow/logs_batch_size_test/batch_size_880_2016-05-20T11.21.04.813475.prototxt
I0521 09:05:38.713172 31067 net.cpp:322] The NetState phase (1) differed from the phase (0) specified by a rule in layer data_hdf5
I0521 09:05:38.713528 31067 net.cpp:49] Initializing net from parameters: 
name: "caffe_test_127x50_x_unshifted"
state {
  phase: TEST
}
layer {
  name: "data_hdf5"
  type: "HDF5Data"
  top: "data"
  top: "label"
  include {
    phase: TEST
  }
  hdf5_data_param {
    source: "/lustre/atlas/proj-shared/hep105/caffe_titan/minosmatch_nukecczdefs_127x50_x_unshifted_me1Bmc.testlist"
    batch_size: 880
  }
}
layer {
  name: "conv1"
  type: "Convolution"
  bottom: "data"
  top: "conv1"
  convolution_param {
    num_output: 12
    pad: 0
    stride: 1
    weight_filler {
      type: "xavier"
    }
    bias_filler {
      type: "constant"
    }
    kernel_h: 8
    kernel_w: 3
  }
}
layer {
  name: "relu1"
  type: "ReLU"
  bottom: "conv1"
  top: "conv1"
}
layer {
  name: "pool1"
  type: "Pooling"
  bottom: "conv1"
  top: "pool1"
  pooling_param {
    pool: MAX
    kernel_h: 2
    kernel_w: 1
    stride_h: 2
    stride_w: 1
  }
}
layer {
  name: "conv2"
  type: "Convolution"
  bottom: "pool1"
  top: "conv2"
  convolution_param {
    num_output: 20
    pad: 0
    stride: 1
    weight_filler {
      type: "xavier"
    }
    bias_filler {
      type: "constant"
    }
    kernel_h: 7
    kernel_w: 3
  }
}
layer {
  name: "relu2"
  type: "ReLU"
  bottom: "conv2"
  top: "conv2"
}
layer {
  name: "pool2"
  type: "Pooling"
  bottom: "conv2"
  top: "pool2"
  pooling_param {
    pool: MAX
    kernel_h: 2
    kernel_w: 1
    stride_h: 2
    stride_w: 1
  }
}
layer {
  name: "conv3"
  type: "Convolution"
  bottom: "pool2"
  top: "conv3"
  convolution_param {
    num_output: 28
    pad: 0
    stride: 1
    weight_filler {
      type: "xavier"
    }
    bias_filler {
      type: "constant"
    }
    kernel_h: 6
    kernel_w: 3
  }
}
layer {
  name: "relu3"
  type: "ReLU"
  bottom: "conv3"
  top: "conv3"
}
layer {
  name: "pool3"
  type: "Pooling"
  bottom: "conv3"
  top: "pool3"
  pooling_param {
    pool: MAX
    kernel_h: 2
    kernel_w: 1
    stride_h: 2
    stride_w: 1
  }
}
layer {
  name: "conv4"
  type: "Convolution"
  bottom: "pool3"
  top: "conv4"
  convolution_param {
    num_output: 36
    pad: 0
    stride: 1
    weight_filler {
      type: "xavier"
    }
    bias_filler {
      type: "constant"
    }
    kernel_h: 6
    kernel_w: 3
  }
}
layer {
  name: "relu4"
  type: "ReLU"
  bottom: "conv4"
  top: "conv4"
}
layer {
  name: "pool4"
  type: "Pooling"
  bottom: "conv4"
  top: "pool4"
  pooling_param {
    pool: MAX
    kernel_h: 2
    kernel_w: 1
    stride_h: 2
    stride_w: 1
  }
}
layer {
  name: "ip1"
  type: "InnerProduct"
  bottom: "pool4"
  top: "ip1"
  inner_product_param {
    num_output: 196
    weight_filler {
      type: "xavier"
    }
    bias_filler {
      type: "constant"
    }
  }
}
layer {
  name: "relu5"
  type: "ReLU"
  bottom: "ip1"
  top: "ip1"
}
layer {
  name: "drop1"
  type: "Dropout"
  bottom: "ip1"
  top: "ip1"
  dropout_param {
    dropout_ratio: 0.5
  }
}
layer {
  name: "ip2"
  type: "InnerProduct"
  bottom: "ip1"
  top: "ip2"
  inner_product_param {
    num_output: 98
    weight_filler {
      type: "xavier"
    }
    bias_filler {
      type: "constant"
    }
  }
}
layer {
  name: "relu6"
  type: "ReLU"
  bottom: "ip2"
  top: "ip2"
}
layer {
  name: "drop2"
  type: "Dropout"
  bottom: "ip2"
  top: "ip2"
  dropout_param {
    dropout_ratio: 0.5
  }
}
layer {
  name: "ip3"
  type: "InnerProduct"
  bottom: "ip2"
  top: "ip3"
  inner_product_param {
    num_output: 11
    weight_filler {
      type: "xavier"
    }
    bias_filler {
      type: "constant"
    }
  }
}
layer {
  name: "drop3"
  type: "Dropout"
  bottom: "ip3"
  top: "ip3"
  dropout_param {
    dropout_ratio: 0.5
  }
}
layer {
  name: "accuracy"
  type: "Accuracy"
  bottom: "ip3"
  bottom: "label"
  top: "accuracy"
  include {
    phase: TEST
  }
}
layer {
  name: "loss"
  type: "SoftmaxWithLoss"
  bottom: "ip3"
  bottom: "label"
  top: "loss"
}
I0521 09:05:38.713719 31067 layer_factory.hpp:77] Creating layer data_hdf5
I0521 09:05:38.713734 31067 net.cpp:106] Creating Layer data_hdf5
I0521 09:05:38.713747 31067 net.cpp:411] data_hdf5 -> data
I0521 09:05:38.713763 31067 net.cpp:411] data_hdf5 -> label
I0521 09:05:38.713779 31067 hdf5_data_layer.cpp:79] Loading list of HDF5 filenames from: /lustre/atlas/proj-shared/hep105/caffe_titan/minosmatch_nukecczdefs_127x50_x_unshifted_me1Bmc.testlist
I0521 09:05:38.715095 31067 hdf5_data_layer.cpp:93] Number of HDF5 files: 3
I0521 09:06:00.050715 31067 net.cpp:150] Setting up data_hdf5
I0521 09:06:00.050884 31067 net.cpp:157] Top shape: 880 1 127 50 (5588000)
I0521 09:06:00.050899 31067 net.cpp:157] Top shape: 880 (880)
I0521 09:06:00.050911 31067 net.cpp:165] Memory required for data: 22355520
I0521 09:06:00.050925 31067 layer_factory.hpp:77] Creating layer label_data_hdf5_1_split
I0521 09:06:00.050953 31067 net.cpp:106] Creating Layer label_data_hdf5_1_split
I0521 09:06:00.050964 31067 net.cpp:454] label_data_hdf5_1_split <- label
I0521 09:06:00.050979 31067 net.cpp:411] label_data_hdf5_1_split -> label_data_hdf5_1_split_0
I0521 09:06:00.051000 31067 net.cpp:411] label_data_hdf5_1_split -> label_data_hdf5_1_split_1
I0521 09:06:00.051074 31067 net.cpp:150] Setting up label_data_hdf5_1_split
I0521 09:06:00.051089 31067 net.cpp:157] Top shape: 880 (880)
I0521 09:06:00.051100 31067 net.cpp:157] Top shape: 880 (880)
I0521 09:06:00.051110 31067 net.cpp:165] Memory required for data: 22362560
I0521 09:06:00.051120 31067 layer_factory.hpp:77] Creating layer conv1
I0521 09:06:00.051141 31067 net.cpp:106] Creating Layer conv1
I0521 09:06:00.051152 31067 net.cpp:454] conv1 <- data
I0521 09:06:00.051167 31067 net.cpp:411] conv1 -> conv1
I0521 09:06:00.053097 31067 net.cpp:150] Setting up conv1
I0521 09:06:00.053122 31067 net.cpp:157] Top shape: 880 12 120 48 (60825600)
I0521 09:06:00.053133 31067 net.cpp:165] Memory required for data: 265664960
I0521 09:06:00.053154 31067 layer_factory.hpp:77] Creating layer relu1
I0521 09:06:00.053169 31067 net.cpp:106] Creating Layer relu1
I0521 09:06:00.053179 31067 net.cpp:454] relu1 <- conv1
I0521 09:06:00.053192 31067 net.cpp:397] relu1 -> conv1 (in-place)
I0521 09:06:00.053694 31067 net.cpp:150] Setting up relu1
I0521 09:06:00.053711 31067 net.cpp:157] Top shape: 880 12 120 48 (60825600)
I0521 09:06:00.053721 31067 net.cpp:165] Memory required for data: 508967360
I0521 09:06:00.053756 31067 layer_factory.hpp:77] Creating layer pool1
I0521 09:06:00.053774 31067 net.cpp:106] Creating Layer pool1
I0521 09:06:00.053784 31067 net.cpp:454] pool1 <- conv1
I0521 09:06:00.053797 31067 net.cpp:411] pool1 -> pool1
I0521 09:06:00.053874 31067 net.cpp:150] Setting up pool1
I0521 09:06:00.053887 31067 net.cpp:157] Top shape: 880 12 60 48 (30412800)
I0521 09:06:00.053897 31067 net.cpp:165] Memory required for data: 630618560
I0521 09:06:00.053907 31067 layer_factory.hpp:77] Creating layer conv2
I0521 09:06:00.053926 31067 net.cpp:106] Creating Layer conv2
I0521 09:06:00.053936 31067 net.cpp:454] conv2 <- pool1
I0521 09:06:00.053951 31067 net.cpp:411] conv2 -> conv2
I0521 09:06:00.055893 31067 net.cpp:150] Setting up conv2
I0521 09:06:00.055915 31067 net.cpp:157] Top shape: 880 20 54 46 (43718400)
I0521 09:06:00.055929 31067 net.cpp:165] Memory required for data: 805492160
I0521 09:06:00.055948 31067 layer_factory.hpp:77] Creating layer relu2
I0521 09:06:00.055961 31067 net.cpp:106] Creating Layer relu2
I0521 09:06:00.055971 31067 net.cpp:454] relu2 <- conv2
I0521 09:06:00.055984 31067 net.cpp:397] relu2 -> conv2 (in-place)
I0521 09:06:00.056319 31067 net.cpp:150] Setting up relu2
I0521 09:06:00.056334 31067 net.cpp:157] Top shape: 880 20 54 46 (43718400)
I0521 09:06:00.056344 31067 net.cpp:165] Memory required for data: 980365760
I0521 09:06:00.056354 31067 layer_factory.hpp:77] Creating layer pool2
I0521 09:06:00.056366 31067 net.cpp:106] Creating Layer pool2
I0521 09:06:00.056377 31067 net.cpp:454] pool2 <- conv2
I0521 09:06:00.056390 31067 net.cpp:411] pool2 -> pool2
I0521 09:06:00.056460 31067 net.cpp:150] Setting up pool2
I0521 09:06:00.056473 31067 net.cpp:157] Top shape: 880 20 27 46 (21859200)
I0521 09:06:00.056483 31067 net.cpp:165] Memory required for data: 1067802560
I0521 09:06:00.056494 31067 layer_factory.hpp:77] Creating layer conv3
I0521 09:06:00.056512 31067 net.cpp:106] Creating Layer conv3
I0521 09:06:00.056524 31067 net.cpp:454] conv3 <- pool2
I0521 09:06:00.056538 31067 net.cpp:411] conv3 -> conv3
I0521 09:06:00.058519 31067 net.cpp:150] Setting up conv3
I0521 09:06:00.058543 31067 net.cpp:157] Top shape: 880 28 22 44 (23851520)
I0521 09:06:00.058553 31067 net.cpp:165] Memory required for data: 1163208640
I0521 09:06:00.058586 31067 layer_factory.hpp:77] Creating layer relu3
I0521 09:06:00.058599 31067 net.cpp:106] Creating Layer relu3
I0521 09:06:00.058610 31067 net.cpp:454] relu3 <- conv3
I0521 09:06:00.058624 31067 net.cpp:397] relu3 -> conv3 (in-place)
I0521 09:06:00.059098 31067 net.cpp:150] Setting up relu3
I0521 09:06:00.059114 31067 net.cpp:157] Top shape: 880 28 22 44 (23851520)
I0521 09:06:00.059124 31067 net.cpp:165] Memory required for data: 1258614720
I0521 09:06:00.059135 31067 layer_factory.hpp:77] Creating layer pool3
I0521 09:06:00.059149 31067 net.cpp:106] Creating Layer pool3
I0521 09:06:00.059159 31067 net.cpp:454] pool3 <- conv3
I0521 09:06:00.059171 31067 net.cpp:411] pool3 -> pool3
I0521 09:06:00.059243 31067 net.cpp:150] Setting up pool3
I0521 09:06:00.059257 31067 net.cpp:157] Top shape: 880 28 11 44 (11925760)
I0521 09:06:00.059267 31067 net.cpp:165] Memory required for data: 1306317760
I0521 09:06:00.059274 31067 layer_factory.hpp:77] Creating layer conv4
I0521 09:06:00.059293 31067 net.cpp:106] Creating Layer conv4
I0521 09:06:00.059303 31067 net.cpp:454] conv4 <- pool3
I0521 09:06:00.059317 31067 net.cpp:411] conv4 -> conv4
I0521 09:06:00.061377 31067 net.cpp:150] Setting up conv4
I0521 09:06:00.061399 31067 net.cpp:157] Top shape: 880 36 6 42 (7983360)
I0521 09:06:00.061413 31067 net.cpp:165] Memory required for data: 1338251200
I0521 09:06:00.061429 31067 layer_factory.hpp:77] Creating layer relu4
I0521 09:06:00.061441 31067 net.cpp:106] Creating Layer relu4
I0521 09:06:00.061451 31067 net.cpp:454] relu4 <- conv4
I0521 09:06:00.061465 31067 net.cpp:397] relu4 -> conv4 (in-place)
I0521 09:06:00.061940 31067 net.cpp:150] Setting up relu4
I0521 09:06:00.061957 31067 net.cpp:157] Top shape: 880 36 6 42 (7983360)
I0521 09:06:00.061969 31067 net.cpp:165] Memory required for data: 1370184640
I0521 09:06:00.061978 31067 layer_factory.hpp:77] Creating layer pool4
I0521 09:06:00.061991 31067 net.cpp:106] Creating Layer pool4
I0521 09:06:00.062001 31067 net.cpp:454] pool4 <- conv4
I0521 09:06:00.062016 31067 net.cpp:411] pool4 -> pool4
I0521 09:06:00.062086 31067 net.cpp:150] Setting up pool4
I0521 09:06:00.062099 31067 net.cpp:157] Top shape: 880 36 3 42 (3991680)
I0521 09:06:00.062109 31067 net.cpp:165] Memory required for data: 1386151360
I0521 09:06:00.062119 31067 layer_factory.hpp:77] Creating layer ip1
I0521 09:06:00.062135 31067 net.cpp:106] Creating Layer ip1
I0521 09:06:00.062146 31067 net.cpp:454] ip1 <- pool4
I0521 09:06:00.062160 31067 net.cpp:411] ip1 -> ip1
I0521 09:06:00.077635 31067 net.cpp:150] Setting up ip1
I0521 09:06:00.077663 31067 net.cpp:157] Top shape: 880 196 (172480)
I0521 09:06:00.077675 31067 net.cpp:165] Memory required for data: 1386841280
I0521 09:06:00.077698 31067 layer_factory.hpp:77] Creating layer relu5
I0521 09:06:00.077713 31067 net.cpp:106] Creating Layer relu5
I0521 09:06:00.077723 31067 net.cpp:454] relu5 <- ip1
I0521 09:06:00.077738 31067 net.cpp:397] relu5 -> ip1 (in-place)
I0521 09:06:00.078081 31067 net.cpp:150] Setting up relu5
I0521 09:06:00.078095 31067 net.cpp:157] Top shape: 880 196 (172480)
I0521 09:06:00.078105 31067 net.cpp:165] Memory required for data: 1387531200
I0521 09:06:00.078116 31067 layer_factory.hpp:77] Creating layer drop1
I0521 09:06:00.078135 31067 net.cpp:106] Creating Layer drop1
I0521 09:06:00.078145 31067 net.cpp:454] drop1 <- ip1
I0521 09:06:00.078158 31067 net.cpp:397] drop1 -> ip1 (in-place)
I0521 09:06:00.078202 31067 net.cpp:150] Setting up drop1
I0521 09:06:00.078215 31067 net.cpp:157] Top shape: 880 196 (172480)
I0521 09:06:00.078224 31067 net.cpp:165] Memory required for data: 1388221120
I0521 09:06:00.078235 31067 layer_factory.hpp:77] Creating layer ip2
I0521 09:06:00.078250 31067 net.cpp:106] Creating Layer ip2
I0521 09:06:00.078259 31067 net.cpp:454] ip2 <- ip1
I0521 09:06:00.078274 31067 net.cpp:411] ip2 -> ip2
I0521 09:06:00.078754 31067 net.cpp:150] Setting up ip2
I0521 09:06:00.078768 31067 net.cpp:157] Top shape: 880 98 (86240)
I0521 09:06:00.078778 31067 net.cpp:165] Memory required for data: 1388566080
I0521 09:06:00.078806 31067 layer_factory.hpp:77] Creating layer relu6
I0521 09:06:00.078819 31067 net.cpp:106] Creating Layer relu6
I0521 09:06:00.078830 31067 net.cpp:454] relu6 <- ip2
I0521 09:06:00.078842 31067 net.cpp:397] relu6 -> ip2 (in-place)
I0521 09:06:00.079372 31067 net.cpp:150] Setting up relu6
I0521 09:06:00.079394 31067 net.cpp:157] Top shape: 880 98 (86240)
I0521 09:06:00.079404 31067 net.cpp:165] Memory required for data: 1388911040
I0521 09:06:00.079416 31067 layer_factory.hpp:77] Creating layer drop2
I0521 09:06:00.079428 31067 net.cpp:106] Creating Layer drop2
I0521 09:06:00.079438 31067 net.cpp:454] drop2 <- ip2
I0521 09:06:00.079452 31067 net.cpp:397] drop2 -> ip2 (in-place)
I0521 09:06:00.079494 31067 net.cpp:150] Setting up drop2
I0521 09:06:00.079507 31067 net.cpp:157] Top shape: 880 98 (86240)
I0521 09:06:00.079519 31067 net.cpp:165] Memory required for data: 1389256000
I0521 09:06:00.079529 31067 layer_factory.hpp:77] Creating layer ip3
I0521 09:06:00.079542 31067 net.cpp:106] Creating Layer ip3
I0521 09:06:00.079552 31067 net.cpp:454] ip3 <- ip2
I0521 09:06:00.079566 31067 net.cpp:411] ip3 -> ip3
I0521 09:06:00.079787 31067 net.cpp:150] Setting up ip3
I0521 09:06:00.079800 31067 net.cpp:157] Top shape: 880 11 (9680)
I0521 09:06:00.079810 31067 net.cpp:165] Memory required for data: 1389294720
I0521 09:06:00.079825 31067 layer_factory.hpp:77] Creating layer drop3
I0521 09:06:00.079838 31067 net.cpp:106] Creating Layer drop3
I0521 09:06:00.079849 31067 net.cpp:454] drop3 <- ip3
I0521 09:06:00.079861 31067 net.cpp:397] drop3 -> ip3 (in-place)
I0521 09:06:00.079902 31067 net.cpp:150] Setting up drop3
I0521 09:06:00.079915 31067 net.cpp:157] Top shape: 880 11 (9680)
I0521 09:06:00.079924 31067 net.cpp:165] Memory required for data: 1389333440
I0521 09:06:00.079934 31067 layer_factory.hpp:77] Creating layer ip3_drop3_0_split
I0521 09:06:00.079947 31067 net.cpp:106] Creating Layer ip3_drop3_0_split
I0521 09:06:00.079957 31067 net.cpp:454] ip3_drop3_0_split <- ip3
I0521 09:06:00.079970 31067 net.cpp:411] ip3_drop3_0_split -> ip3_drop3_0_split_0
I0521 09:06:00.079985 31067 net.cpp:411] ip3_drop3_0_split -> ip3_drop3_0_split_1
I0521 09:06:00.080059 31067 net.cpp:150] Setting up ip3_drop3_0_split
I0521 09:06:00.080071 31067 net.cpp:157] Top shape: 880 11 (9680)
I0521 09:06:00.080083 31067 net.cpp:157] Top shape: 880 11 (9680)
I0521 09:06:00.080095 31067 net.cpp:165] Memory required for data: 1389410880
I0521 09:06:00.080104 31067 layer_factory.hpp:77] Creating layer accuracy
I0521 09:06:00.080127 31067 net.cpp:106] Creating Layer accuracy
I0521 09:06:00.080137 31067 net.cpp:454] accuracy <- ip3_drop3_0_split_0
I0521 09:06:00.080148 31067 net.cpp:454] accuracy <- label_data_hdf5_1_split_0
I0521 09:06:00.080162 31067 net.cpp:411] accuracy -> accuracy
…
