…
I0521 09:32:16.175981 31223 net.cpp:322] The NetState phase (0) differed from the phase (1) specified by a rule in layer data_hdf5
I0521 09:32:16.176041 31223 net.cpp:322] The NetState phase (0) differed from the phase (1) specified by a rule in layer accuracy
I0521 09:32:16.176385 31223 net.cpp:49] Initializing net from parameters: 
name: "caffe_test_127x50_x_unshifted"
state {
  phase: TRAIN
}
layer {
  name: "data_hdf5"
  type: "HDF5Data"
  top: "data"
  top: "label"
  include {
    phase: TRAIN
  }
  hdf5_data_param {
    source: "/lustre/atlas/proj-shared/hep105/caffe_titan/minosmatch_nukecczdefs_127x50_x_unshifted_me1Bmc.trainlist"
    batch_size: 910
  }
}
layer {
  name: "conv1"
  type: "Convolution"
  bottom: "data"
  top: "conv1"
  convolution_param {
    num_output: 12
    pad: 0
    stride: 1
    weight_filler {
      type: "xavier"
    }
    bias_filler {
      type: "constant"
    }
    kernel_h: 8
    kernel_w: 3
  }
}
layer {
  name: "relu1"
  type: "ReLU"
  bottom: "conv1"
  top: "conv1"
}
layer {
  name: "pool1"
  type: "Pooling"
  bottom: "conv1"
  top: "pool1"
  pooling_param {
    pool: MAX
    kernel_h: 2
    kernel_w: 1
    stride_h: 2
    stride_w: 1
  }
}
layer {
  name: "conv2"
  type: "Convolution"
  bottom: "pool1"
  top: "conv2"
  convolution_param {
    num_output: 20
    pad: 0
    stride: 1
    weight_filler {
      type: "xavier"
    }
    bias_filler {
      type: "constant"
    }
    kernel_h: 7
    kernel_w: 3
  }
}
layer {
  name: "relu2"
  type: "ReLU"
  bottom: "conv2"
  top: "conv2"
}
layer {
  name: "pool2"
  type: "Pooling"
  bottom: "conv2"
  top: "pool2"
  pooling_param {
    pool: MAX
    kernel_h: 2
    kernel_w: 1
    stride_h: 2
    stride_w: 1
  }
}
layer {
  name: "conv3"
  type: "Convolution"
  bottom: "pool2"
  top: "conv3"
  convolution_param {
    num_output: 28
    pad: 0
    stride: 1
    weight_filler {
      type: "xavier"
    }
    bias_filler {
      type: "constant"
    }
    kernel_h: 6
    kernel_w: 3
  }
}
layer {
  name: "relu3"
  type: "ReLU"
  bottom: "conv3"
  top: "conv3"
}
layer {
  name: "pool3"
  type: "Pooling"
  bottom: "conv3"
  top: "pool3"
  pooling_param {
    pool: MAX
    kernel_h: 2
    kernel_w: 1
    stride_h: 2
    stride_w: 1
  }
}
layer {
  name: "conv4"
  type: "Convolution"
  bottom: "pool3"
  top: "conv4"
  convolution_param {
    num_output: 36
    pad: 0
    stride: 1
    weight_filler {
      type: "xavier"
    }
    bias_filler {
      type: "constant"
    }
    kernel_h: 6
    kernel_w: 3
  }
}
layer {
  name: "relu4"
  type: "ReLU"
  bottom: "conv4"
  top: "conv4"
}
layer {
  name: "pool4"
  type: "Pooling"
  bottom: "conv4"
  top: "pool4"
  pooling_param {
    pool: MAX
    kernel_h: 2
    kernel_w: 1
    stride_h: 2
    stride_w: 1
  }
}
layer {
  name: "ip1"
  type: "InnerProduct"
  bottom: "pool4"
  top: "ip1"
  inner_product_param {
    num_output: 196
    weight_filler {
      type: "xavier"
    }
    bias_filler {
      type: "constant"
    }
  }
}
layer {
  name: "relu5"
  type: "ReLU"
  bottom: "ip1"
  top: "ip1"
}
layer {
  name: "drop1"
  type: "Dropout"
  bottom: "ip1"
  top: "ip1"
  dropout_param {
    dropout_ratio: 0.5
  }
}
layer {
  name: "ip2"
  type: "InnerProduct"
  bottom: "ip1"
  top: "ip2"
  inner_product_param {
    num_output: 98
    weight_filler {
      type: "xavier"
    }
    bias_filler {
      type: "constant"
    }
  }
}
layer {
  name: "relu6"
  type: "ReLU"
  bottom: "ip2"
  top: "ip2"
}
layer {
  name: "drop2"
  type: "Dropout"
  bottom: "ip2"
  top: "ip2"
  dropout_param {
    dropout_ratio: 0.5
  }
}
layer {
  name: "ip3"
  type: "InnerProduct"
  bottom: "ip2"
  top: "ip3"
  inner_product_param {
    num_output: 11
    weight_filler {
      type: "xavier"
    }
    bias_filler {
      type: "constant"
    }
  }
}
layer {
  name: "drop3"
  type: "Dropout"
  bottom: "ip3"
  top: "ip3"
  dropout_param {
    dropout_ratio: 0.5
  }
}
layer {
  name: "loss"
  type: "SoftmaxWithLoss"
  bottom: "ip3"
  bottom: "label"
  top: "loss"
}
I0521 09:32:16.176568 31223 layer_factory.hpp:77] Creating layer data_hdf5
I0521 09:32:16.176591 31223 net.cpp:106] Creating Layer data_hdf5
I0521 09:32:16.176606 31223 net.cpp:411] data_hdf5 -> data
I0521 09:32:16.176640 31223 net.cpp:411] data_hdf5 -> label
I0521 09:32:16.176672 31223 hdf5_data_layer.cpp:79] Loading list of HDF5 filenames from: /lustre/atlas/proj-shared/hep105/caffe_titan/minosmatch_nukecczdefs_127x50_x_unshifted_me1Bmc.trainlist
I0521 09:32:16.178043 31223 hdf5_data_layer.cpp:93] Number of HDF5 files: 15
I0521 09:32:16.180271 31223 hdf5.cpp:32] Datatype class: H5T_FLOAT
I0521 09:32:37.762953 31223 hdf5.cpp:35] Datatype class: H5T_INTEGER
I0521 09:32:37.768059 31223 net.cpp:150] Setting up data_hdf5
I0521 09:32:37.768103 31223 net.cpp:157] Top shape: 910 1 127 50 (5778500)
I0521 09:32:37.768118 31223 net.cpp:157] Top shape: 910 (910)
I0521 09:32:37.768128 31223 net.cpp:165] Memory required for data: 23117640
I0521 09:32:37.768142 31223 layer_factory.hpp:77] Creating layer conv1
I0521 09:32:37.768177 31223 net.cpp:106] Creating Layer conv1
I0521 09:32:37.768188 31223 net.cpp:454] conv1 <- data
I0521 09:32:37.768213 31223 net.cpp:411] conv1 -> conv1
I0521 09:32:38.131836 31223 net.cpp:150] Setting up conv1
I0521 09:32:38.131883 31223 net.cpp:157] Top shape: 910 12 120 48 (62899200)
I0521 09:32:38.131894 31223 net.cpp:165] Memory required for data: 274714440
I0521 09:32:38.131922 31223 layer_factory.hpp:77] Creating layer relu1
I0521 09:32:38.131943 31223 net.cpp:106] Creating Layer relu1
I0521 09:32:38.131954 31223 net.cpp:454] relu1 <- conv1
I0521 09:32:38.131968 31223 net.cpp:397] relu1 -> conv1 (in-place)
I0521 09:32:38.132488 31223 net.cpp:150] Setting up relu1
I0521 09:32:38.132505 31223 net.cpp:157] Top shape: 910 12 120 48 (62899200)
I0521 09:32:38.132516 31223 net.cpp:165] Memory required for data: 526311240
I0521 09:32:38.132527 31223 layer_factory.hpp:77] Creating layer pool1
I0521 09:32:38.132545 31223 net.cpp:106] Creating Layer pool1
I0521 09:32:38.132555 31223 net.cpp:454] pool1 <- conv1
I0521 09:32:38.132568 31223 net.cpp:411] pool1 -> pool1
I0521 09:32:38.132648 31223 net.cpp:150] Setting up pool1
I0521 09:32:38.132663 31223 net.cpp:157] Top shape: 910 12 60 48 (31449600)
I0521 09:32:38.132673 31223 net.cpp:165] Memory required for data: 652109640
I0521 09:32:38.132680 31223 layer_factory.hpp:77] Creating layer conv2
I0521 09:32:38.132704 31223 net.cpp:106] Creating Layer conv2
I0521 09:32:38.132714 31223 net.cpp:454] conv2 <- pool1
I0521 09:32:38.132725 31223 net.cpp:411] conv2 -> conv2
I0521 09:32:38.135424 31223 net.cpp:150] Setting up conv2
I0521 09:32:38.135453 31223 net.cpp:157] Top shape: 910 20 54 46 (45208800)
I0521 09:32:38.135463 31223 net.cpp:165] Memory required for data: 832944840
I0521 09:32:38.135483 31223 layer_factory.hpp:77] Creating layer relu2
I0521 09:32:38.135498 31223 net.cpp:106] Creating Layer relu2
I0521 09:32:38.135507 31223 net.cpp:454] relu2 <- conv2
I0521 09:32:38.135520 31223 net.cpp:397] relu2 -> conv2 (in-place)
I0521 09:32:38.135850 31223 net.cpp:150] Setting up relu2
I0521 09:32:38.135865 31223 net.cpp:157] Top shape: 910 20 54 46 (45208800)
I0521 09:32:38.135875 31223 net.cpp:165] Memory required for data: 1013780040
I0521 09:32:38.135885 31223 layer_factory.hpp:77] Creating layer pool2
I0521 09:32:38.135898 31223 net.cpp:106] Creating Layer pool2
I0521 09:32:38.135910 31223 net.cpp:454] pool2 <- conv2
I0521 09:32:38.135934 31223 net.cpp:411] pool2 -> pool2
I0521 09:32:38.136004 31223 net.cpp:150] Setting up pool2
I0521 09:32:38.136018 31223 net.cpp:157] Top shape: 910 20 27 46 (22604400)
I0521 09:32:38.136028 31223 net.cpp:165] Memory required for data: 1104197640
I0521 09:32:38.136036 31223 layer_factory.hpp:77] Creating layer conv3
I0521 09:32:38.136055 31223 net.cpp:106] Creating Layer conv3
I0521 09:32:38.136065 31223 net.cpp:454] conv3 <- pool2
I0521 09:32:38.136078 31223 net.cpp:411] conv3 -> conv3
I0521 09:32:38.138015 31223 net.cpp:150] Setting up conv3
I0521 09:32:38.138038 31223 net.cpp:157] Top shape: 910 28 22 44 (24664640)
I0521 09:32:38.138051 31223 net.cpp:165] Memory required for data: 1202856200
I0521 09:32:38.138069 31223 layer_factory.hpp:77] Creating layer relu3
I0521 09:32:38.138085 31223 net.cpp:106] Creating Layer relu3
I0521 09:32:38.138095 31223 net.cpp:454] relu3 <- conv3
I0521 09:32:38.138108 31223 net.cpp:397] relu3 -> conv3 (in-place)
I0521 09:32:38.138586 31223 net.cpp:150] Setting up relu3
I0521 09:32:38.138603 31223 net.cpp:157] Top shape: 910 28 22 44 (24664640)
I0521 09:32:38.138613 31223 net.cpp:165] Memory required for data: 1301514760
I0521 09:32:38.138624 31223 layer_factory.hpp:77] Creating layer pool3
I0521 09:32:38.138636 31223 net.cpp:106] Creating Layer pool3
I0521 09:32:38.138646 31223 net.cpp:454] pool3 <- conv3
I0521 09:32:38.138659 31223 net.cpp:411] pool3 -> pool3
I0521 09:32:38.138726 31223 net.cpp:150] Setting up pool3
I0521 09:32:38.138741 31223 net.cpp:157] Top shape: 910 28 11 44 (12332320)
I0521 09:32:38.138751 31223 net.cpp:165] Memory required for data: 1350844040
I0521 09:32:38.138761 31223 layer_factory.hpp:77] Creating layer conv4
I0521 09:32:38.138777 31223 net.cpp:106] Creating Layer conv4
I0521 09:32:38.138787 31223 net.cpp:454] conv4 <- pool3
I0521 09:32:38.138800 31223 net.cpp:411] conv4 -> conv4
I0521 09:32:38.141527 31223 net.cpp:150] Setting up conv4
I0521 09:32:38.141556 31223 net.cpp:157] Top shape: 910 36 6 42 (8255520)
I0521 09:32:38.141566 31223 net.cpp:165] Memory required for data: 1383866120
I0521 09:32:38.141582 31223 layer_factory.hpp:77] Creating layer relu4
I0521 09:32:38.141597 31223 net.cpp:106] Creating Layer relu4
I0521 09:32:38.141607 31223 net.cpp:454] relu4 <- conv4
I0521 09:32:38.141619 31223 net.cpp:397] relu4 -> conv4 (in-place)
I0521 09:32:38.142082 31223 net.cpp:150] Setting up relu4
I0521 09:32:38.142099 31223 net.cpp:157] Top shape: 910 36 6 42 (8255520)
I0521 09:32:38.142110 31223 net.cpp:165] Memory required for data: 1416888200
I0521 09:32:38.142120 31223 layer_factory.hpp:77] Creating layer pool4
I0521 09:32:38.142133 31223 net.cpp:106] Creating Layer pool4
I0521 09:32:38.142144 31223 net.cpp:454] pool4 <- conv4
I0521 09:32:38.142158 31223 net.cpp:411] pool4 -> pool4
I0521 09:32:38.142225 31223 net.cpp:150] Setting up pool4
I0521 09:32:38.142237 31223 net.cpp:157] Top shape: 910 36 3 42 (4127760)
I0521 09:32:38.142248 31223 net.cpp:165] Memory required for data: 1433399240
I0521 09:32:38.142258 31223 layer_factory.hpp:77] Creating layer ip1
I0521 09:32:38.142279 31223 net.cpp:106] Creating Layer ip1
I0521 09:32:38.142289 31223 net.cpp:454] ip1 <- pool4
I0521 09:32:38.142302 31223 net.cpp:411] ip1 -> ip1
I0521 09:32:38.157749 31223 net.cpp:150] Setting up ip1
I0521 09:32:38.157773 31223 net.cpp:157] Top shape: 910 196 (178360)
I0521 09:32:38.157789 31223 net.cpp:165] Memory required for data: 1434112680
I0521 09:32:38.157812 31223 layer_factory.hpp:77] Creating layer relu5
I0521 09:32:38.157827 31223 net.cpp:106] Creating Layer relu5
I0521 09:32:38.157837 31223 net.cpp:454] relu5 <- ip1
I0521 09:32:38.157851 31223 net.cpp:397] relu5 -> ip1 (in-place)
I0521 09:32:38.158195 31223 net.cpp:150] Setting up relu5
I0521 09:32:38.158210 31223 net.cpp:157] Top shape: 910 196 (178360)
I0521 09:32:38.158220 31223 net.cpp:165] Memory required for data: 1434826120
I0521 09:32:38.158229 31223 layer_factory.hpp:77] Creating layer drop1
I0521 09:32:38.158252 31223 net.cpp:106] Creating Layer drop1
I0521 09:32:38.158262 31223 net.cpp:454] drop1 <- ip1
I0521 09:32:38.158288 31223 net.cpp:397] drop1 -> ip1 (in-place)
I0521 09:32:38.158334 31223 net.cpp:150] Setting up drop1
I0521 09:32:38.158347 31223 net.cpp:157] Top shape: 910 196 (178360)
I0521 09:32:38.158359 31223 net.cpp:165] Memory required for data: 1435539560
I0521 09:32:38.158370 31223 layer_factory.hpp:77] Creating layer ip2
I0521 09:32:38.158390 31223 net.cpp:106] Creating Layer ip2
I0521 09:32:38.158399 31223 net.cpp:454] ip2 <- ip1
I0521 09:32:38.158412 31223 net.cpp:411] ip2 -> ip2
I0521 09:32:38.158879 31223 net.cpp:150] Setting up ip2
I0521 09:32:38.158892 31223 net.cpp:157] Top shape: 910 98 (89180)
I0521 09:32:38.158901 31223 net.cpp:165] Memory required for data: 1435896280
I0521 09:32:38.158917 31223 layer_factory.hpp:77] Creating layer relu6
I0521 09:32:38.158929 31223 net.cpp:106] Creating Layer relu6
I0521 09:32:38.158939 31223 net.cpp:454] relu6 <- ip2
I0521 09:32:38.158951 31223 net.cpp:397] relu6 -> ip2 (in-place)
I0521 09:32:38.159466 31223 net.cpp:150] Setting up relu6
I0521 09:32:38.159482 31223 net.cpp:157] Top shape: 910 98 (89180)
I0521 09:32:38.159492 31223 net.cpp:165] Memory required for data: 1436253000
I0521 09:32:38.159502 31223 layer_factory.hpp:77] Creating layer drop2
I0521 09:32:38.159515 31223 net.cpp:106] Creating Layer drop2
I0521 09:32:38.159525 31223 net.cpp:454] drop2 <- ip2
I0521 09:32:38.159538 31223 net.cpp:397] drop2 -> ip2 (in-place)
I0521 09:32:38.159580 31223 net.cpp:150] Setting up drop2
I0521 09:32:38.159593 31223 net.cpp:157] Top shape: 910 98 (89180)
I0521 09:32:38.159605 31223 net.cpp:165] Memory required for data: 1436609720
I0521 09:32:38.159613 31223 layer_factory.hpp:77] Creating layer ip3
I0521 09:32:38.159627 31223 net.cpp:106] Creating Layer ip3
I0521 09:32:38.159637 31223 net.cpp:454] ip3 <- ip2
I0521 09:32:38.159651 31223 net.cpp:411] ip3 -> ip3
I0521 09:32:38.159860 31223 net.cpp:150] Setting up ip3
I0521 09:32:38.159873 31223 net.cpp:157] Top shape: 910 11 (10010)
I0521 09:32:38.159883 31223 net.cpp:165] Memory required for data: 1436649760
I0521 09:32:38.159898 31223 layer_factory.hpp:77] Creating layer drop3
I0521 09:32:38.159911 31223 net.cpp:106] Creating Layer drop3
I0521 09:32:38.159921 31223 net.cpp:454] drop3 <- ip3
I0521 09:32:38.159932 31223 net.cpp:397] drop3 -> ip3 (in-place)
I0521 09:32:38.159972 31223 net.cpp:150] Setting up drop3
I0521 09:32:38.159984 31223 net.cpp:157] Top shape: 910 11 (10010)
I0521 09:32:38.159996 31223 net.cpp:165] Memory required for data: 1436689800
I0521 09:32:38.160006 31223 layer_factory.hpp:77] Creating layer loss
I0521 09:32:38.160023 31223 net.cpp:106] Creating Layer loss
I0521 09:32:38.160034 31223 net.cpp:454] loss <- ip3
I0521 09:32:38.160045 31223 net.cpp:454] loss <- label
I0521 09:32:38.160058 31223 net.cpp:411] loss -> loss
I0521 09:32:38.160075 31223 layer_factory.hpp:77] Creating layer loss
…
I0521 09:32:38.162703 31223 solver.cpp:181] Creating test net (#0) specified by net file: /lustre/atlas/proj-shared/hep105/caffe_titan/caffe_workflow/logs_batch_size_test/batch_size_910_2016-05-20T11.21.05.881097.prototxt
I0521 09:32:38.162773 31223 net.cpp:322] The NetState phase (1) differed from the phase (0) specified by a rule in layer data_hdf5
I0521 09:32:38.163130 31223 net.cpp:49] Initializing net from parameters: 
name: "caffe_test_127x50_x_unshifted"
state {
  phase: TEST
}
layer {
  name: "data_hdf5"
  type: "HDF5Data"
  top: "data"
  top: "label"
  include {
    phase: TEST
  }
  hdf5_data_param {
    source: "/lustre/atlas/proj-shared/hep105/caffe_titan/minosmatch_nukecczdefs_127x50_x_unshifted_me1Bmc.testlist"
    batch_size: 910
  }
}
layer {
  name: "conv1"
  type: "Convolution"
  bottom: "data"
  top: "conv1"
  convolution_param {
    num_output: 12
    pad: 0
    stride: 1
    weight_filler {
      type: "xavier"
    }
    bias_filler {
      type: "constant"
    }
    kernel_h: 8
    kernel_w: 3
  }
}
layer {
  name: "relu1"
  type: "ReLU"
  bottom: "conv1"
  top: "conv1"
}
layer {
  name: "pool1"
  type: "Pooling"
  bottom: "conv1"
  top: "pool1"
  pooling_param {
    pool: MAX
    kernel_h: 2
    kernel_w: 1
    stride_h: 2
    stride_w: 1
  }
}
layer {
  name: "conv2"
  type: "Convolution"
  bottom: "pool1"
  top: "conv2"
  convolution_param {
    num_output: 20
    pad: 0
    stride: 1
    weight_filler {
      type: "xavier"
    }
    bias_filler {
      type: "constant"
    }
    kernel_h: 7
    kernel_w: 3
  }
}
layer {
  name: "relu2"
  type: "ReLU"
  bottom: "conv2"
  top: "conv2"
}
layer {
  name: "pool2"
  type: "Pooling"
  bottom: "conv2"
  top: "pool2"
  pooling_param {
    pool: MAX
    kernel_h: 2
    kernel_w: 1
    stride_h: 2
    stride_w: 1
  }
}
layer {
  name: "conv3"
  type: "Convolution"
  bottom: "pool2"
  top: "conv3"
  convolution_param {
    num_output: 28
    pad: 0
    stride: 1
    weight_filler {
      type: "xavier"
    }
    bias_filler {
      type: "constant"
    }
    kernel_h: 6
    kernel_w: 3
  }
}
layer {
  name: "relu3"
  type: "ReLU"
  bottom: "conv3"
  top: "conv3"
}
layer {
  name: "pool3"
  type: "Pooling"
  bottom: "conv3"
  top: "pool3"
  pooling_param {
    pool: MAX
    kernel_h: 2
    kernel_w: 1
    stride_h: 2
    stride_w: 1
  }
}
layer {
  name: "conv4"
  type: "Convolution"
  bottom: "pool3"
  top: "conv4"
  convolution_param {
    num_output: 36
    pad: 0
    stride: 1
    weight_filler {
      type: "xavier"
    }
    bias_filler {
      type: "constant"
    }
    kernel_h: 6
    kernel_w: 3
  }
}
layer {
  name: "relu4"
  type: "ReLU"
  bottom: "conv4"
  top: "conv4"
}
layer {
  name: "pool4"
  type: "Pooling"
  bottom: "conv4"
  top: "pool4"
  pooling_param {
    pool: MAX
    kernel_h: 2
    kernel_w: 1
    stride_h: 2
    stride_w: 1
  }
}
layer {
  name: "ip1"
  type: "InnerProduct"
  bottom: "pool4"
  top: "ip1"
  inner_product_param {
    num_output: 196
    weight_filler {
      type: "xavier"
    }
    bias_filler {
      type: "constant"
    }
  }
}
layer {
  name: "relu5"
  type: "ReLU"
  bottom: "ip1"
  top: "ip1"
}
layer {
  name: "drop1"
  type: "Dropout"
  bottom: "ip1"
  top: "ip1"
  dropout_param {
    dropout_ratio: 0.5
  }
}
layer {
  name: "ip2"
  type: "InnerProduct"
  bottom: "ip1"
  top: "ip2"
  inner_product_param {
    num_output: 98
    weight_filler {
      type: "xavier"
    }
    bias_filler {
      type: "constant"
    }
  }
}
layer {
  name: "relu6"
  type: "ReLU"
  bottom: "ip2"
  top: "ip2"
}
layer {
  name: "drop2"
  type: "Dropout"
  bottom: "ip2"
  top: "ip2"
  dropout_param {
    dropout_ratio: 0.5
  }
}
layer {
  name: "ip3"
  type: "InnerProduct"
  bottom: "ip2"
  top: "ip3"
  inner_product_param {
    num_output: 11
    weight_filler {
      type: "xavier"
    }
    bias_filler {
      type: "constant"
    }
  }
}
layer {
  name: "drop3"
  type: "Dropout"
  bottom: "ip3"
  top: "ip3"
  dropout_param {
    dropout_ratio: 0.5
  }
}
layer {
  name: "accuracy"
  type: "Accuracy"
  bottom: "ip3"
  bottom: "label"
  top: "accuracy"
  include {
    phase: TEST
  }
}
layer {
  name: "loss"
  type: "SoftmaxWithLoss"
  bottom: "ip3"
  bottom: "label"
  top: "loss"
}
I0521 09:32:38.163319 31223 layer_factory.hpp:77] Creating layer data_hdf5
I0521 09:32:38.163334 31223 net.cpp:106] Creating Layer data_hdf5
I0521 09:32:38.163347 31223 net.cpp:411] data_hdf5 -> data
I0521 09:32:38.163362 31223 net.cpp:411] data_hdf5 -> label
I0521 09:32:38.163378 31223 hdf5_data_layer.cpp:79] Loading list of HDF5 filenames from: /lustre/atlas/proj-shared/hep105/caffe_titan/minosmatch_nukecczdefs_127x50_x_unshifted_me1Bmc.testlist
I0521 09:32:38.164649 31223 hdf5_data_layer.cpp:93] Number of HDF5 files: 3
I0521 09:32:59.496423 31223 net.cpp:150] Setting up data_hdf5
I0521 09:32:59.496590 31223 net.cpp:157] Top shape: 910 1 127 50 (5778500)
I0521 09:32:59.496605 31223 net.cpp:157] Top shape: 910 (910)
I0521 09:32:59.496618 31223 net.cpp:165] Memory required for data: 23117640
I0521 09:32:59.496630 31223 layer_factory.hpp:77] Creating layer label_data_hdf5_1_split
I0521 09:32:59.496659 31223 net.cpp:106] Creating Layer label_data_hdf5_1_split
I0521 09:32:59.496670 31223 net.cpp:454] label_data_hdf5_1_split <- label
I0521 09:32:59.496685 31223 net.cpp:411] label_data_hdf5_1_split -> label_data_hdf5_1_split_0
I0521 09:32:59.496706 31223 net.cpp:411] label_data_hdf5_1_split -> label_data_hdf5_1_split_1
I0521 09:32:59.496780 31223 net.cpp:150] Setting up label_data_hdf5_1_split
I0521 09:32:59.496794 31223 net.cpp:157] Top shape: 910 (910)
I0521 09:32:59.496806 31223 net.cpp:157] Top shape: 910 (910)
I0521 09:32:59.496815 31223 net.cpp:165] Memory required for data: 23124920
I0521 09:32:59.496825 31223 layer_factory.hpp:77] Creating layer conv1
I0521 09:32:59.496847 31223 net.cpp:106] Creating Layer conv1
I0521 09:32:59.496867 31223 net.cpp:454] conv1 <- data
I0521 09:32:59.496883 31223 net.cpp:411] conv1 -> conv1
I0521 09:32:59.498800 31223 net.cpp:150] Setting up conv1
I0521 09:32:59.498821 31223 net.cpp:157] Top shape: 910 12 120 48 (62899200)
I0521 09:32:59.498831 31223 net.cpp:165] Memory required for data: 274721720
I0521 09:32:59.498850 31223 layer_factory.hpp:77] Creating layer relu1
I0521 09:32:59.498865 31223 net.cpp:106] Creating Layer relu1
I0521 09:32:59.498875 31223 net.cpp:454] relu1 <- conv1
I0521 09:32:59.498888 31223 net.cpp:397] relu1 -> conv1 (in-place)
I0521 09:32:59.499384 31223 net.cpp:150] Setting up relu1
I0521 09:32:59.499402 31223 net.cpp:157] Top shape: 910 12 120 48 (62899200)
I0521 09:32:59.499411 31223 net.cpp:165] Memory required for data: 526318520
I0521 09:32:59.499421 31223 layer_factory.hpp:77] Creating layer pool1
I0521 09:32:59.499439 31223 net.cpp:106] Creating Layer pool1
I0521 09:32:59.499449 31223 net.cpp:454] pool1 <- conv1
I0521 09:32:59.499461 31223 net.cpp:411] pool1 -> pool1
I0521 09:32:59.499536 31223 net.cpp:150] Setting up pool1
I0521 09:32:59.499549 31223 net.cpp:157] Top shape: 910 12 60 48 (31449600)
I0521 09:32:59.499559 31223 net.cpp:165] Memory required for data: 652116920
I0521 09:32:59.499570 31223 layer_factory.hpp:77] Creating layer conv2
I0521 09:32:59.499588 31223 net.cpp:106] Creating Layer conv2
I0521 09:32:59.499598 31223 net.cpp:454] conv2 <- pool1
I0521 09:32:59.499613 31223 net.cpp:411] conv2 -> conv2
I0521 09:32:59.501529 31223 net.cpp:150] Setting up conv2
I0521 09:32:59.501551 31223 net.cpp:157] Top shape: 910 20 54 46 (45208800)
I0521 09:32:59.501564 31223 net.cpp:165] Memory required for data: 832952120
I0521 09:32:59.501581 31223 layer_factory.hpp:77] Creating layer relu2
I0521 09:32:59.501595 31223 net.cpp:106] Creating Layer relu2
I0521 09:32:59.501605 31223 net.cpp:454] relu2 <- conv2
I0521 09:32:59.501617 31223 net.cpp:397] relu2 -> conv2 (in-place)
I0521 09:32:59.501952 31223 net.cpp:150] Setting up relu2
I0521 09:32:59.501966 31223 net.cpp:157] Top shape: 910 20 54 46 (45208800)
I0521 09:32:59.501977 31223 net.cpp:165] Memory required for data: 1013787320
I0521 09:32:59.501987 31223 layer_factory.hpp:77] Creating layer pool2
I0521 09:32:59.502001 31223 net.cpp:106] Creating Layer pool2
I0521 09:32:59.502010 31223 net.cpp:454] pool2 <- conv2
I0521 09:32:59.502023 31223 net.cpp:411] pool2 -> pool2
I0521 09:32:59.502094 31223 net.cpp:150] Setting up pool2
I0521 09:32:59.502107 31223 net.cpp:157] Top shape: 910 20 27 46 (22604400)
I0521 09:32:59.502117 31223 net.cpp:165] Memory required for data: 1104204920
I0521 09:32:59.502127 31223 layer_factory.hpp:77] Creating layer conv3
I0521 09:32:59.502146 31223 net.cpp:106] Creating Layer conv3
I0521 09:32:59.502156 31223 net.cpp:454] conv3 <- pool2
I0521 09:32:59.502171 31223 net.cpp:411] conv3 -> conv3
I0521 09:32:59.504145 31223 net.cpp:150] Setting up conv3
I0521 09:32:59.504169 31223 net.cpp:157] Top shape: 910 28 22 44 (24664640)
I0521 09:32:59.504180 31223 net.cpp:165] Memory required for data: 1202863480
I0521 09:32:59.504214 31223 layer_factory.hpp:77] Creating layer relu3
I0521 09:32:59.504226 31223 net.cpp:106] Creating Layer relu3
I0521 09:32:59.504236 31223 net.cpp:454] relu3 <- conv3
I0521 09:32:59.504250 31223 net.cpp:397] relu3 -> conv3 (in-place)
I0521 09:32:59.504719 31223 net.cpp:150] Setting up relu3
I0521 09:32:59.504735 31223 net.cpp:157] Top shape: 910 28 22 44 (24664640)
I0521 09:32:59.504746 31223 net.cpp:165] Memory required for data: 1301522040
I0521 09:32:59.504756 31223 layer_factory.hpp:77] Creating layer pool3
I0521 09:32:59.504770 31223 net.cpp:106] Creating Layer pool3
I0521 09:32:59.504779 31223 net.cpp:454] pool3 <- conv3
I0521 09:32:59.504792 31223 net.cpp:411] pool3 -> pool3
I0521 09:32:59.504871 31223 net.cpp:150] Setting up pool3
I0521 09:32:59.504884 31223 net.cpp:157] Top shape: 910 28 11 44 (12332320)
I0521 09:32:59.504894 31223 net.cpp:165] Memory required for data: 1350851320
I0521 09:32:59.504907 31223 layer_factory.hpp:77] Creating layer conv4
I0521 09:32:59.504925 31223 net.cpp:106] Creating Layer conv4
I0521 09:32:59.504935 31223 net.cpp:454] conv4 <- pool3
I0521 09:32:59.504950 31223 net.cpp:411] conv4 -> conv4
I0521 09:32:59.507001 31223 net.cpp:150] Setting up conv4
I0521 09:32:59.507019 31223 net.cpp:157] Top shape: 910 36 6 42 (8255520)
I0521 09:32:59.507030 31223 net.cpp:165] Memory required for data: 1383873400
I0521 09:32:59.507046 31223 layer_factory.hpp:77] Creating layer relu4
I0521 09:32:59.507061 31223 net.cpp:106] Creating Layer relu4
I0521 09:32:59.507071 31223 net.cpp:454] relu4 <- conv4
I0521 09:32:59.507083 31223 net.cpp:397] relu4 -> conv4 (in-place)
I0521 09:32:59.507550 31223 net.cpp:150] Setting up relu4
I0521 09:32:59.507566 31223 net.cpp:157] Top shape: 910 36 6 42 (8255520)
I0521 09:32:59.507577 31223 net.cpp:165] Memory required for data: 1416895480
I0521 09:32:59.507587 31223 layer_factory.hpp:77] Creating layer pool4
I0521 09:32:59.507601 31223 net.cpp:106] Creating Layer pool4
I0521 09:32:59.507611 31223 net.cpp:454] pool4 <- conv4
I0521 09:32:59.507624 31223 net.cpp:411] pool4 -> pool4
I0521 09:32:59.507694 31223 net.cpp:150] Setting up pool4
I0521 09:32:59.507707 31223 net.cpp:157] Top shape: 910 36 3 42 (4127760)
I0521 09:32:59.507717 31223 net.cpp:165] Memory required for data: 1433406520
I0521 09:32:59.507727 31223 layer_factory.hpp:77] Creating layer ip1
I0521 09:32:59.507742 31223 net.cpp:106] Creating Layer ip1
I0521 09:32:59.507753 31223 net.cpp:454] ip1 <- pool4
I0521 09:32:59.507767 31223 net.cpp:411] ip1 -> ip1
I0521 09:32:59.523296 31223 net.cpp:150] Setting up ip1
I0521 09:32:59.523325 31223 net.cpp:157] Top shape: 910 196 (178360)
I0521 09:32:59.523337 31223 net.cpp:165] Memory required for data: 1434119960
I0521 09:32:59.523360 31223 layer_factory.hpp:77] Creating layer relu5
I0521 09:32:59.523375 31223 net.cpp:106] Creating Layer relu5
I0521 09:32:59.523386 31223 net.cpp:454] relu5 <- ip1
I0521 09:32:59.523399 31223 net.cpp:397] relu5 -> ip1 (in-place)
I0521 09:32:59.523743 31223 net.cpp:150] Setting up relu5
I0521 09:32:59.523757 31223 net.cpp:157] Top shape: 910 196 (178360)
I0521 09:32:59.523767 31223 net.cpp:165] Memory required for data: 1434833400
I0521 09:32:59.523778 31223 layer_factory.hpp:77] Creating layer drop1
I0521 09:32:59.523797 31223 net.cpp:106] Creating Layer drop1
I0521 09:32:59.523808 31223 net.cpp:454] drop1 <- ip1
I0521 09:32:59.523820 31223 net.cpp:397] drop1 -> ip1 (in-place)
I0521 09:32:59.523864 31223 net.cpp:150] Setting up drop1
I0521 09:32:59.523877 31223 net.cpp:157] Top shape: 910 196 (178360)
I0521 09:32:59.523887 31223 net.cpp:165] Memory required for data: 1435546840
I0521 09:32:59.523897 31223 layer_factory.hpp:77] Creating layer ip2
I0521 09:32:59.523911 31223 net.cpp:106] Creating Layer ip2
I0521 09:32:59.523921 31223 net.cpp:454] ip2 <- ip1
I0521 09:32:59.523936 31223 net.cpp:411] ip2 -> ip2
I0521 09:32:59.524415 31223 net.cpp:150] Setting up ip2
I0521 09:32:59.524427 31223 net.cpp:157] Top shape: 910 98 (89180)
I0521 09:32:59.524438 31223 net.cpp:165] Memory required for data: 1435903560
I0521 09:32:59.524466 31223 layer_factory.hpp:77] Creating layer relu6
I0521 09:32:59.524479 31223 net.cpp:106] Creating Layer relu6
I0521 09:32:59.524489 31223 net.cpp:454] relu6 <- ip2
I0521 09:32:59.524502 31223 net.cpp:397] relu6 -> ip2 (in-place)
I0521 09:32:59.525046 31223 net.cpp:150] Setting up relu6
I0521 09:32:59.525068 31223 net.cpp:157] Top shape: 910 98 (89180)
I0521 09:32:59.525079 31223 net.cpp:165] Memory required for data: 1436260280
I0521 09:32:59.525089 31223 layer_factory.hpp:77] Creating layer drop2
I0521 09:32:59.525102 31223 net.cpp:106] Creating Layer drop2
I0521 09:32:59.525112 31223 net.cpp:454] drop2 <- ip2
I0521 09:32:59.525125 31223 net.cpp:397] drop2 -> ip2 (in-place)
I0521 09:32:59.525169 31223 net.cpp:150] Setting up drop2
I0521 09:32:59.525182 31223 net.cpp:157] Top shape: 910 98 (89180)
I0521 09:32:59.525193 31223 net.cpp:165] Memory required for data: 1436617000
I0521 09:32:59.525202 31223 layer_factory.hpp:77] Creating layer ip3
I0521 09:32:59.525218 31223 net.cpp:106] Creating Layer ip3
I0521 09:32:59.525228 31223 net.cpp:454] ip3 <- ip2
I0521 09:32:59.525241 31223 net.cpp:411] ip3 -> ip3
I0521 09:32:59.525467 31223 net.cpp:150] Setting up ip3
I0521 09:32:59.525480 31223 net.cpp:157] Top shape: 910 11 (10010)
I0521 09:32:59.525490 31223 net.cpp:165] Memory required for data: 1436657040
I0521 09:32:59.525506 31223 layer_factory.hpp:77] Creating layer drop3
I0521 09:32:59.525519 31223 net.cpp:106] Creating Layer drop3
I0521 09:32:59.525529 31223 net.cpp:454] drop3 <- ip3
I0521 09:32:59.525542 31223 net.cpp:397] drop3 -> ip3 (in-place)
I0521 09:32:59.525583 31223 net.cpp:150] Setting up drop3
I0521 09:32:59.525596 31223 net.cpp:157] Top shape: 910 11 (10010)
I0521 09:32:59.525606 31223 net.cpp:165] Memory required for data: 1436697080
I0521 09:32:59.525616 31223 layer_factory.hpp:77] Creating layer ip3_drop3_0_split
I0521 09:32:59.525629 31223 net.cpp:106] Creating Layer ip3_drop3_0_split
I0521 09:32:59.525640 31223 net.cpp:454] ip3_drop3_0_split <- ip3
I0521 09:32:59.525652 31223 net.cpp:411] ip3_drop3_0_split -> ip3_drop3_0_split_0
I0521 09:32:59.525667 31223 net.cpp:411] ip3_drop3_0_split -> ip3_drop3_0_split_1
I0521 09:32:59.525740 31223 net.cpp:150] Setting up ip3_drop3_0_split
I0521 09:32:59.525753 31223 net.cpp:157] Top shape: 910 11 (10010)
I0521 09:32:59.525766 31223 net.cpp:157] Top shape: 910 11 (10010)
I0521 09:32:59.525776 31223 net.cpp:165] Memory required for data: 1436777160
I0521 09:32:59.525784 31223 layer_factory.hpp:77] Creating layer accuracy
I0521 09:32:59.525806 31223 net.cpp:106] Creating Layer accuracy
I0521 09:32:59.525816 31223 net.cpp:454] accuracy <- ip3_drop3_0_split_0
I0521 09:32:59.525827 31223 net.cpp:454] accuracy <- label_data_hdf5_1_split_0
I0521 09:32:59.525841 31223 net.cpp:411] accuracy -> accuracy
…
