…
I0521 04:32:25.802556 13815 net.cpp:322] The NetState phase (0) differed from the phase (1) specified by a rule in layer data_hdf5
I0521 04:32:25.802615 13815 net.cpp:322] The NetState phase (0) differed from the phase (1) specified by a rule in layer accuracy
I0521 04:32:25.802961 13815 net.cpp:49] Initializing net from parameters: 
name: "caffe_test_127x50_x_unshifted"
state {
  phase: TRAIN
}
layer {
  name: "data_hdf5"
  type: "HDF5Data"
  top: "data"
  top: "label"
  include {
    phase: TRAIN
  }
  hdf5_data_param {
    source: "/lustre/atlas/proj-shared/hep105/caffe_titan/minosmatch_nukecczdefs_127x50_x_unshifted_me1Bmc.trainlist"
    batch_size: 660
  }
}
layer {
  name: "conv1"
  type: "Convolution"
  bottom: "data"
  top: "conv1"
  convolution_param {
    num_output: 12
    pad: 0
    stride: 1
    weight_filler {
      type: "xavier"
    }
    bias_filler {
      type: "constant"
    }
    kernel_h: 8
    kernel_w: 3
  }
}
layer {
  name: "relu1"
  type: "ReLU"
  bottom: "conv1"
  top: "conv1"
}
layer {
  name: "pool1"
  type: "Pooling"
  bottom: "conv1"
  top: "pool1"
  pooling_param {
    pool: MAX
    kernel_h: 2
    kernel_w: 1
    stride_h: 2
    stride_w: 1
  }
}
layer {
  name: "conv2"
  type: "Convolution"
  bottom: "pool1"
  top: "conv2"
  convolution_param {
    num_output: 20
    pad: 0
    stride: 1
    weight_filler {
      type: "xavier"
    }
    bias_filler {
      type: "constant"
    }
    kernel_h: 7
    kernel_w: 3
  }
}
layer {
  name: "relu2"
  type: "ReLU"
  bottom: "conv2"
  top: "conv2"
}
layer {
  name: "pool2"
  type: "Pooling"
  bottom: "conv2"
  top: "pool2"
  pooling_param {
    pool: MAX
    kernel_h: 2
    kernel_w: 1
    stride_h: 2
    stride_w: 1
  }
}
layer {
  name: "conv3"
  type: "Convolution"
  bottom: "pool2"
  top: "conv3"
  convolution_param {
    num_output: 28
    pad: 0
    stride: 1
    weight_filler {
      type: "xavier"
    }
    bias_filler {
      type: "constant"
    }
    kernel_h: 6
    kernel_w: 3
  }
}
layer {
  name: "relu3"
  type: "ReLU"
  bottom: "conv3"
  top: "conv3"
}
layer {
  name: "pool3"
  type: "Pooling"
  bottom: "conv3"
  top: "pool3"
  pooling_param {
    pool: MAX
    kernel_h: 2
    kernel_w: 1
    stride_h: 2
    stride_w: 1
  }
}
layer {
  name: "conv4"
  type: "Convolution"
  bottom: "pool3"
  top: "conv4"
  convolution_param {
    num_output: 36
    pad: 0
    stride: 1
    weight_filler {
      type: "xavier"
    }
    bias_filler {
      type: "constant"
    }
    kernel_h: 6
    kernel_w: 3
  }
}
layer {
  name: "relu4"
  type: "ReLU"
  bottom: "conv4"
  top: "conv4"
}
layer {
  name: "pool4"
  type: "Pooling"
  bottom: "conv4"
  top: "pool4"
  pooling_param {
    pool: MAX
    kernel_h: 2
    kernel_w: 1
    stride_h: 2
    stride_w: 1
  }
}
layer {
  name: "ip1"
  type: "InnerProduct"
  bottom: "pool4"
  top: "ip1"
  inner_product_param {
    num_output: 196
    weight_filler {
      type: "xavier"
    }
    bias_filler {
      type: "constant"
    }
  }
}
layer {
  name: "relu5"
  type: "ReLU"
  bottom: "ip1"
  top: "ip1"
}
layer {
  name: "drop1"
  type: "Dropout"
  bottom: "ip1"
  top: "ip1"
  dropout_param {
    dropout_ratio: 0.5
  }
}
layer {
  name: "ip2"
  type: "InnerProduct"
  bottom: "ip1"
  top: "ip2"
  inner_product_param {
    num_output: 98
    weight_filler {
      type: "xavier"
    }
    bias_filler {
      type: "constant"
    }
  }
}
layer {
  name: "relu6"
  type: "ReLU"
  bottom: "ip2"
  top: "ip2"
}
layer {
  name: "drop2"
  type: "Dropout"
  bottom: "ip2"
  top: "ip2"
  dropout_param {
    dropout_ratio: 0.5
  }
}
layer {
  name: "ip3"
  type: "InnerProduct"
  bottom: "ip2"
  top: "ip3"
  inner_product_param {
    num_output: 11
    weight_filler {
      type: "xavier"
    }
    bias_filler {
      type: "constant"
    }
  }
}
layer {
  name: "drop3"
  type: "Dropout"
  bottom: "ip3"
  top: "ip3"
  dropout_param {
    dropout_ratio: 0.5
  }
}
layer {
  name: "loss"
  type: "SoftmaxWithLoss"
  bottom: "ip3"
  bottom: "label"
  top: "loss"
}
I0521 04:32:25.803138 13815 layer_factory.hpp:77] Creating layer data_hdf5
I0521 04:32:25.803160 13815 net.cpp:106] Creating Layer data_hdf5
I0521 04:32:25.803175 13815 net.cpp:411] data_hdf5 -> data
I0521 04:32:25.803208 13815 net.cpp:411] data_hdf5 -> label
I0521 04:32:25.803241 13815 hdf5_data_layer.cpp:79] Loading list of HDF5 filenames from: /lustre/atlas/proj-shared/hep105/caffe_titan/minosmatch_nukecczdefs_127x50_x_unshifted_me1Bmc.trainlist
I0521 04:32:25.804436 13815 hdf5_data_layer.cpp:93] Number of HDF5 files: 15
I0521 04:32:25.806593 13815 hdf5.cpp:32] Datatype class: H5T_FLOAT
I0521 04:32:47.329776 13815 hdf5.cpp:35] Datatype class: H5T_INTEGER
I0521 04:32:47.334916 13815 net.cpp:150] Setting up data_hdf5
I0521 04:32:47.334956 13815 net.cpp:157] Top shape: 660 1 127 50 (4191000)
I0521 04:32:47.334971 13815 net.cpp:157] Top shape: 660 (660)
I0521 04:32:47.334985 13815 net.cpp:165] Memory required for data: 16766640
I0521 04:32:47.334997 13815 layer_factory.hpp:77] Creating layer conv1
I0521 04:32:47.335031 13815 net.cpp:106] Creating Layer conv1
I0521 04:32:47.335042 13815 net.cpp:454] conv1 <- data
I0521 04:32:47.335064 13815 net.cpp:411] conv1 -> conv1
I0521 04:32:47.696430 13815 net.cpp:150] Setting up conv1
I0521 04:32:47.696478 13815 net.cpp:157] Top shape: 660 12 120 48 (45619200)
I0521 04:32:47.696488 13815 net.cpp:165] Memory required for data: 199243440
I0521 04:32:47.696516 13815 layer_factory.hpp:77] Creating layer relu1
I0521 04:32:47.696537 13815 net.cpp:106] Creating Layer relu1
I0521 04:32:47.696557 13815 net.cpp:454] relu1 <- conv1
I0521 04:32:47.696570 13815 net.cpp:397] relu1 -> conv1 (in-place)
I0521 04:32:47.697088 13815 net.cpp:150] Setting up relu1
I0521 04:32:47.697104 13815 net.cpp:157] Top shape: 660 12 120 48 (45619200)
I0521 04:32:47.697115 13815 net.cpp:165] Memory required for data: 381720240
I0521 04:32:47.697125 13815 layer_factory.hpp:77] Creating layer pool1
I0521 04:32:47.697141 13815 net.cpp:106] Creating Layer pool1
I0521 04:32:47.697151 13815 net.cpp:454] pool1 <- conv1
I0521 04:32:47.697165 13815 net.cpp:411] pool1 -> pool1
I0521 04:32:47.697244 13815 net.cpp:150] Setting up pool1
I0521 04:32:47.697258 13815 net.cpp:157] Top shape: 660 12 60 48 (22809600)
I0521 04:32:47.697268 13815 net.cpp:165] Memory required for data: 472958640
I0521 04:32:47.697278 13815 layer_factory.hpp:77] Creating layer conv2
I0521 04:32:47.697301 13815 net.cpp:106] Creating Layer conv2
I0521 04:32:47.697311 13815 net.cpp:454] conv2 <- pool1
I0521 04:32:47.697324 13815 net.cpp:411] conv2 -> conv2
I0521 04:32:47.699992 13815 net.cpp:150] Setting up conv2
I0521 04:32:47.700021 13815 net.cpp:157] Top shape: 660 20 54 46 (32788800)
I0521 04:32:47.700031 13815 net.cpp:165] Memory required for data: 604113840
I0521 04:32:47.700049 13815 layer_factory.hpp:77] Creating layer relu2
I0521 04:32:47.700064 13815 net.cpp:106] Creating Layer relu2
I0521 04:32:47.700074 13815 net.cpp:454] relu2 <- conv2
I0521 04:32:47.700088 13815 net.cpp:397] relu2 -> conv2 (in-place)
I0521 04:32:47.700417 13815 net.cpp:150] Setting up relu2
I0521 04:32:47.700431 13815 net.cpp:157] Top shape: 660 20 54 46 (32788800)
I0521 04:32:47.700441 13815 net.cpp:165] Memory required for data: 735269040
I0521 04:32:47.700453 13815 layer_factory.hpp:77] Creating layer pool2
I0521 04:32:47.700464 13815 net.cpp:106] Creating Layer pool2
I0521 04:32:47.700474 13815 net.cpp:454] pool2 <- conv2
I0521 04:32:47.700498 13815 net.cpp:411] pool2 -> pool2
I0521 04:32:47.700577 13815 net.cpp:150] Setting up pool2
I0521 04:32:47.700590 13815 net.cpp:157] Top shape: 660 20 27 46 (16394400)
I0521 04:32:47.700599 13815 net.cpp:165] Memory required for data: 800846640
I0521 04:32:47.700610 13815 layer_factory.hpp:77] Creating layer conv3
I0521 04:32:47.700628 13815 net.cpp:106] Creating Layer conv3
I0521 04:32:47.700639 13815 net.cpp:454] conv3 <- pool2
I0521 04:32:47.700651 13815 net.cpp:411] conv3 -> conv3
I0521 04:32:47.702560 13815 net.cpp:150] Setting up conv3
I0521 04:32:47.702579 13815 net.cpp:157] Top shape: 660 28 22 44 (17888640)
I0521 04:32:47.702589 13815 net.cpp:165] Memory required for data: 872401200
I0521 04:32:47.702607 13815 layer_factory.hpp:77] Creating layer relu3
I0521 04:32:47.702623 13815 net.cpp:106] Creating Layer relu3
I0521 04:32:47.702633 13815 net.cpp:454] relu3 <- conv3
I0521 04:32:47.702646 13815 net.cpp:397] relu3 -> conv3 (in-place)
I0521 04:32:47.703114 13815 net.cpp:150] Setting up relu3
I0521 04:32:47.703130 13815 net.cpp:157] Top shape: 660 28 22 44 (17888640)
I0521 04:32:47.703140 13815 net.cpp:165] Memory required for data: 943955760
I0521 04:32:47.703150 13815 layer_factory.hpp:77] Creating layer pool3
I0521 04:32:47.703163 13815 net.cpp:106] Creating Layer pool3
I0521 04:32:47.703172 13815 net.cpp:454] pool3 <- conv3
I0521 04:32:47.703186 13815 net.cpp:411] pool3 -> pool3
I0521 04:32:47.703253 13815 net.cpp:150] Setting up pool3
I0521 04:32:47.703265 13815 net.cpp:157] Top shape: 660 28 11 44 (8944320)
I0521 04:32:47.703275 13815 net.cpp:165] Memory required for data: 979733040
I0521 04:32:47.703282 13815 layer_factory.hpp:77] Creating layer conv4
I0521 04:32:47.703300 13815 net.cpp:106] Creating Layer conv4
I0521 04:32:47.703310 13815 net.cpp:454] conv4 <- pool3
I0521 04:32:47.703325 13815 net.cpp:411] conv4 -> conv4
I0521 04:32:47.706126 13815 net.cpp:150] Setting up conv4
I0521 04:32:47.706154 13815 net.cpp:157] Top shape: 660 36 6 42 (5987520)
I0521 04:32:47.706166 13815 net.cpp:165] Memory required for data: 1003683120
I0521 04:32:47.706181 13815 layer_factory.hpp:77] Creating layer relu4
I0521 04:32:47.706195 13815 net.cpp:106] Creating Layer relu4
I0521 04:32:47.706205 13815 net.cpp:454] relu4 <- conv4
I0521 04:32:47.706218 13815 net.cpp:397] relu4 -> conv4 (in-place)
I0521 04:32:47.706691 13815 net.cpp:150] Setting up relu4
I0521 04:32:47.706707 13815 net.cpp:157] Top shape: 660 36 6 42 (5987520)
I0521 04:32:47.706717 13815 net.cpp:165] Memory required for data: 1027633200
I0521 04:32:47.706727 13815 layer_factory.hpp:77] Creating layer pool4
I0521 04:32:47.706739 13815 net.cpp:106] Creating Layer pool4
I0521 04:32:47.706749 13815 net.cpp:454] pool4 <- conv4
I0521 04:32:47.706761 13815 net.cpp:411] pool4 -> pool4
I0521 04:32:47.706830 13815 net.cpp:150] Setting up pool4
I0521 04:32:47.706842 13815 net.cpp:157] Top shape: 660 36 3 42 (2993760)
I0521 04:32:47.706853 13815 net.cpp:165] Memory required for data: 1039608240
I0521 04:32:47.706863 13815 layer_factory.hpp:77] Creating layer ip1
I0521 04:32:47.706883 13815 net.cpp:106] Creating Layer ip1
I0521 04:32:47.706893 13815 net.cpp:454] ip1 <- pool4
I0521 04:32:47.706907 13815 net.cpp:411] ip1 -> ip1
I0521 04:32:47.722353 13815 net.cpp:150] Setting up ip1
I0521 04:32:47.722381 13815 net.cpp:157] Top shape: 660 196 (129360)
I0521 04:32:47.722394 13815 net.cpp:165] Memory required for data: 1040125680
I0521 04:32:47.722420 13815 layer_factory.hpp:77] Creating layer relu5
I0521 04:32:47.722434 13815 net.cpp:106] Creating Layer relu5
I0521 04:32:47.722445 13815 net.cpp:454] relu5 <- ip1
I0521 04:32:47.722457 13815 net.cpp:397] relu5 -> ip1 (in-place)
I0521 04:32:47.722800 13815 net.cpp:150] Setting up relu5
I0521 04:32:47.722813 13815 net.cpp:157] Top shape: 660 196 (129360)
I0521 04:32:47.722825 13815 net.cpp:165] Memory required for data: 1040643120
I0521 04:32:47.722833 13815 layer_factory.hpp:77] Creating layer drop1
I0521 04:32:47.722856 13815 net.cpp:106] Creating Layer drop1
I0521 04:32:47.722865 13815 net.cpp:454] drop1 <- ip1
I0521 04:32:47.722890 13815 net.cpp:397] drop1 -> ip1 (in-place)
I0521 04:32:47.722936 13815 net.cpp:150] Setting up drop1
I0521 04:32:47.722949 13815 net.cpp:157] Top shape: 660 196 (129360)
I0521 04:32:47.722959 13815 net.cpp:165] Memory required for data: 1041160560
I0521 04:32:47.722968 13815 layer_factory.hpp:77] Creating layer ip2
I0521 04:32:47.722988 13815 net.cpp:106] Creating Layer ip2
I0521 04:32:47.722998 13815 net.cpp:454] ip2 <- ip1
I0521 04:32:47.723011 13815 net.cpp:411] ip2 -> ip2
I0521 04:32:47.723474 13815 net.cpp:150] Setting up ip2
I0521 04:32:47.723487 13815 net.cpp:157] Top shape: 660 98 (64680)
I0521 04:32:47.723496 13815 net.cpp:165] Memory required for data: 1041419280
I0521 04:32:47.723511 13815 layer_factory.hpp:77] Creating layer relu6
I0521 04:32:47.723525 13815 net.cpp:106] Creating Layer relu6
I0521 04:32:47.723533 13815 net.cpp:454] relu6 <- ip2
I0521 04:32:47.723546 13815 net.cpp:397] relu6 -> ip2 (in-place)
I0521 04:32:47.724066 13815 net.cpp:150] Setting up relu6
I0521 04:32:47.724081 13815 net.cpp:157] Top shape: 660 98 (64680)
I0521 04:32:47.724092 13815 net.cpp:165] Memory required for data: 1041678000
I0521 04:32:47.724102 13815 layer_factory.hpp:77] Creating layer drop2
I0521 04:32:47.724114 13815 net.cpp:106] Creating Layer drop2
I0521 04:32:47.724124 13815 net.cpp:454] drop2 <- ip2
I0521 04:32:47.724136 13815 net.cpp:397] drop2 -> ip2 (in-place)
I0521 04:32:47.724179 13815 net.cpp:150] Setting up drop2
I0521 04:32:47.724191 13815 net.cpp:157] Top shape: 660 98 (64680)
I0521 04:32:47.724201 13815 net.cpp:165] Memory required for data: 1041936720
I0521 04:32:47.724210 13815 layer_factory.hpp:77] Creating layer ip3
I0521 04:32:47.724223 13815 net.cpp:106] Creating Layer ip3
I0521 04:32:47.724233 13815 net.cpp:454] ip3 <- ip2
I0521 04:32:47.724246 13815 net.cpp:411] ip3 -> ip3
I0521 04:32:47.724455 13815 net.cpp:150] Setting up ip3
I0521 04:32:47.724469 13815 net.cpp:157] Top shape: 660 11 (7260)
I0521 04:32:47.724479 13815 net.cpp:165] Memory required for data: 1041965760
I0521 04:32:47.724493 13815 layer_factory.hpp:77] Creating layer drop3
I0521 04:32:47.724505 13815 net.cpp:106] Creating Layer drop3
I0521 04:32:47.724515 13815 net.cpp:454] drop3 <- ip3
I0521 04:32:47.724527 13815 net.cpp:397] drop3 -> ip3 (in-place)
I0521 04:32:47.724575 13815 net.cpp:150] Setting up drop3
I0521 04:32:47.724588 13815 net.cpp:157] Top shape: 660 11 (7260)
I0521 04:32:47.724598 13815 net.cpp:165] Memory required for data: 1041994800
I0521 04:32:47.724607 13815 layer_factory.hpp:77] Creating layer loss
I0521 04:32:47.724627 13815 net.cpp:106] Creating Layer loss
I0521 04:32:47.724635 13815 net.cpp:454] loss <- ip3
I0521 04:32:47.724647 13815 net.cpp:454] loss <- label
I0521 04:32:47.724658 13815 net.cpp:411] loss -> loss
I0521 04:32:47.724675 13815 layer_factory.hpp:77] Creating layer loss
…
I0521 04:32:47.727246 13815 solver.cpp:181] Creating test net (#0) specified by net file: /lustre/atlas/proj-shared/hep105/caffe_titan/caffe_workflow/logs_batch_size_test/batch_size_660_2016-05-20T11.20.56.615881.prototxt
I0521 04:32:47.727318 13815 net.cpp:322] The NetState phase (1) differed from the phase (0) specified by a rule in layer data_hdf5
I0521 04:32:47.727672 13815 net.cpp:49] Initializing net from parameters: 
name: "caffe_test_127x50_x_unshifted"
state {
  phase: TEST
}
layer {
  name: "data_hdf5"
  type: "HDF5Data"
  top: "data"
  top: "label"
  include {
    phase: TEST
  }
  hdf5_data_param {
    source: "/lustre/atlas/proj-shared/hep105/caffe_titan/minosmatch_nukecczdefs_127x50_x_unshifted_me1Bmc.testlist"
    batch_size: 660
  }
}
layer {
  name: "conv1"
  type: "Convolution"
  bottom: "data"
  top: "conv1"
  convolution_param {
    num_output: 12
    pad: 0
    stride: 1
    weight_filler {
      type: "xavier"
    }
    bias_filler {
      type: "constant"
    }
    kernel_h: 8
    kernel_w: 3
  }
}
layer {
  name: "relu1"
  type: "ReLU"
  bottom: "conv1"
  top: "conv1"
}
layer {
  name: "pool1"
  type: "Pooling"
  bottom: "conv1"
  top: "pool1"
  pooling_param {
    pool: MAX
    kernel_h: 2
    kernel_w: 1
    stride_h: 2
    stride_w: 1
  }
}
layer {
  name: "conv2"
  type: "Convolution"
  bottom: "pool1"
  top: "conv2"
  convolution_param {
    num_output: 20
    pad: 0
    stride: 1
    weight_filler {
      type: "xavier"
    }
    bias_filler {
      type: "constant"
    }
    kernel_h: 7
    kernel_w: 3
  }
}
layer {
  name: "relu2"
  type: "ReLU"
  bottom: "conv2"
  top: "conv2"
}
layer {
  name: "pool2"
  type: "Pooling"
  bottom: "conv2"
  top: "pool2"
  pooling_param {
    pool: MAX
    kernel_h: 2
    kernel_w: 1
    stride_h: 2
    stride_w: 1
  }
}
layer {
  name: "conv3"
  type: "Convolution"
  bottom: "pool2"
  top: "conv3"
  convolution_param {
    num_output: 28
    pad: 0
    stride: 1
    weight_filler {
      type: "xavier"
    }
    bias_filler {
      type: "constant"
    }
    kernel_h: 6
    kernel_w: 3
  }
}
layer {
  name: "relu3"
  type: "ReLU"
  bottom: "conv3"
  top: "conv3"
}
layer {
  name: "pool3"
  type: "Pooling"
  bottom: "conv3"
  top: "pool3"
  pooling_param {
    pool: MAX
    kernel_h: 2
    kernel_w: 1
    stride_h: 2
    stride_w: 1
  }
}
layer {
  name: "conv4"
  type: "Convolution"
  bottom: "pool3"
  top: "conv4"
  convolution_param {
    num_output: 36
    pad: 0
    stride: 1
    weight_filler {
      type: "xavier"
    }
    bias_filler {
      type: "constant"
    }
    kernel_h: 6
    kernel_w: 3
  }
}
layer {
  name: "relu4"
  type: "ReLU"
  bottom: "conv4"
  top: "conv4"
}
layer {
  name: "pool4"
  type: "Pooling"
  bottom: "conv4"
  top: "pool4"
  pooling_param {
    pool: MAX
    kernel_h: 2
    kernel_w: 1
    stride_h: 2
    stride_w: 1
  }
}
layer {
  name: "ip1"
  type: "InnerProduct"
  bottom: "pool4"
  top: "ip1"
  inner_product_param {
    num_output: 196
    weight_filler {
      type: "xavier"
    }
    bias_filler {
      type: "constant"
    }
  }
}
layer {
  name: "relu5"
  type: "ReLU"
  bottom: "ip1"
  top: "ip1"
}
layer {
  name: "drop1"
  type: "Dropout"
  bottom: "ip1"
  top: "ip1"
  dropout_param {
    dropout_ratio: 0.5
  }
}
layer {
  name: "ip2"
  type: "InnerProduct"
  bottom: "ip1"
  top: "ip2"
  inner_product_param {
    num_output: 98
    weight_filler {
      type: "xavier"
    }
    bias_filler {
      type: "constant"
    }
  }
}
layer {
  name: "relu6"
  type: "ReLU"
  bottom: "ip2"
  top: "ip2"
}
layer {
  name: "drop2"
  type: "Dropout"
  bottom: "ip2"
  top: "ip2"
  dropout_param {
    dropout_ratio: 0.5
  }
}
layer {
  name: "ip3"
  type: "InnerProduct"
  bottom: "ip2"
  top: "ip3"
  inner_product_param {
    num_output: 11
    weight_filler {
      type: "xavier"
    }
    bias_filler {
      type: "constant"
    }
  }
}
layer {
  name: "drop3"
  type: "Dropout"
  bottom: "ip3"
  top: "ip3"
  dropout_param {
    dropout_ratio: 0.5
  }
}
layer {
  name: "accuracy"
  type: "Accuracy"
  bottom: "ip3"
  bottom: "label"
  top: "accuracy"
  include {
    phase: TEST
  }
}
layer {
  name: "loss"
  type: "SoftmaxWithLoss"
  bottom: "ip3"
  bottom: "label"
  top: "loss"
}
I0521 04:32:47.727860 13815 layer_factory.hpp:77] Creating layer data_hdf5
I0521 04:32:47.727875 13815 net.cpp:106] Creating Layer data_hdf5
I0521 04:32:47.727888 13815 net.cpp:411] data_hdf5 -> data
I0521 04:32:47.727905 13815 net.cpp:411] data_hdf5 -> label
I0521 04:32:47.727921 13815 hdf5_data_layer.cpp:79] Loading list of HDF5 filenames from: /lustre/atlas/proj-shared/hep105/caffe_titan/minosmatch_nukecczdefs_127x50_x_unshifted_me1Bmc.testlist
I0521 04:32:47.729158 13815 hdf5_data_layer.cpp:93] Number of HDF5 files: 3
I0521 04:33:09.022462 13815 net.cpp:150] Setting up data_hdf5
I0521 04:33:09.022626 13815 net.cpp:157] Top shape: 660 1 127 50 (4191000)
I0521 04:33:09.022641 13815 net.cpp:157] Top shape: 660 (660)
I0521 04:33:09.022652 13815 net.cpp:165] Memory required for data: 16766640
I0521 04:33:09.022666 13815 layer_factory.hpp:77] Creating layer label_data_hdf5_1_split
I0521 04:33:09.022694 13815 net.cpp:106] Creating Layer label_data_hdf5_1_split
I0521 04:33:09.022704 13815 net.cpp:454] label_data_hdf5_1_split <- label
I0521 04:33:09.022719 13815 net.cpp:411] label_data_hdf5_1_split -> label_data_hdf5_1_split_0
I0521 04:33:09.022740 13815 net.cpp:411] label_data_hdf5_1_split -> label_data_hdf5_1_split_1
I0521 04:33:09.022814 13815 net.cpp:150] Setting up label_data_hdf5_1_split
I0521 04:33:09.022827 13815 net.cpp:157] Top shape: 660 (660)
I0521 04:33:09.022840 13815 net.cpp:157] Top shape: 660 (660)
I0521 04:33:09.022848 13815 net.cpp:165] Memory required for data: 16771920
I0521 04:33:09.022858 13815 layer_factory.hpp:77] Creating layer conv1
I0521 04:33:09.022881 13815 net.cpp:106] Creating Layer conv1
I0521 04:33:09.022891 13815 net.cpp:454] conv1 <- data
I0521 04:33:09.022905 13815 net.cpp:411] conv1 -> conv1
I0521 04:33:09.024844 13815 net.cpp:150] Setting up conv1
I0521 04:33:09.024868 13815 net.cpp:157] Top shape: 660 12 120 48 (45619200)
I0521 04:33:09.024880 13815 net.cpp:165] Memory required for data: 199248720
I0521 04:33:09.024900 13815 layer_factory.hpp:77] Creating layer relu1
I0521 04:33:09.024915 13815 net.cpp:106] Creating Layer relu1
I0521 04:33:09.024925 13815 net.cpp:454] relu1 <- conv1
I0521 04:33:09.024938 13815 net.cpp:397] relu1 -> conv1 (in-place)
I0521 04:33:09.025434 13815 net.cpp:150] Setting up relu1
I0521 04:33:09.025449 13815 net.cpp:157] Top shape: 660 12 120 48 (45619200)
I0521 04:33:09.025460 13815 net.cpp:165] Memory required for data: 381725520
I0521 04:33:09.025470 13815 layer_factory.hpp:77] Creating layer pool1
I0521 04:33:09.025486 13815 net.cpp:106] Creating Layer pool1
I0521 04:33:09.025496 13815 net.cpp:454] pool1 <- conv1
I0521 04:33:09.025509 13815 net.cpp:411] pool1 -> pool1
I0521 04:33:09.025583 13815 net.cpp:150] Setting up pool1
I0521 04:33:09.025598 13815 net.cpp:157] Top shape: 660 12 60 48 (22809600)
I0521 04:33:09.025606 13815 net.cpp:165] Memory required for data: 472963920
I0521 04:33:09.025614 13815 layer_factory.hpp:77] Creating layer conv2
I0521 04:33:09.025634 13815 net.cpp:106] Creating Layer conv2
I0521 04:33:09.025643 13815 net.cpp:454] conv2 <- pool1
I0521 04:33:09.025660 13815 net.cpp:411] conv2 -> conv2
I0521 04:33:09.027565 13815 net.cpp:150] Setting up conv2
I0521 04:33:09.027587 13815 net.cpp:157] Top shape: 660 20 54 46 (32788800)
I0521 04:33:09.027601 13815 net.cpp:165] Memory required for data: 604119120
I0521 04:33:09.027617 13815 layer_factory.hpp:77] Creating layer relu2
I0521 04:33:09.027631 13815 net.cpp:106] Creating Layer relu2
I0521 04:33:09.027640 13815 net.cpp:454] relu2 <- conv2
I0521 04:33:09.027653 13815 net.cpp:397] relu2 -> conv2 (in-place)
I0521 04:33:09.027988 13815 net.cpp:150] Setting up relu2
I0521 04:33:09.028002 13815 net.cpp:157] Top shape: 660 20 54 46 (32788800)
I0521 04:33:09.028012 13815 net.cpp:165] Memory required for data: 735274320
I0521 04:33:09.028023 13815 layer_factory.hpp:77] Creating layer pool2
I0521 04:33:09.028035 13815 net.cpp:106] Creating Layer pool2
I0521 04:33:09.028045 13815 net.cpp:454] pool2 <- conv2
I0521 04:33:09.028059 13815 net.cpp:411] pool2 -> pool2
I0521 04:33:09.028128 13815 net.cpp:150] Setting up pool2
I0521 04:33:09.028141 13815 net.cpp:157] Top shape: 660 20 27 46 (16394400)
I0521 04:33:09.028151 13815 net.cpp:165] Memory required for data: 800851920
I0521 04:33:09.028162 13815 layer_factory.hpp:77] Creating layer conv3
I0521 04:33:09.028180 13815 net.cpp:106] Creating Layer conv3
I0521 04:33:09.028190 13815 net.cpp:454] conv3 <- pool2
I0521 04:33:09.028204 13815 net.cpp:411] conv3 -> conv3
I0521 04:33:09.030195 13815 net.cpp:150] Setting up conv3
I0521 04:33:09.030220 13815 net.cpp:157] Top shape: 660 28 22 44 (17888640)
I0521 04:33:09.030230 13815 net.cpp:165] Memory required for data: 872406480
I0521 04:33:09.030261 13815 layer_factory.hpp:77] Creating layer relu3
I0521 04:33:09.030275 13815 net.cpp:106] Creating Layer relu3
I0521 04:33:09.030285 13815 net.cpp:454] relu3 <- conv3
I0521 04:33:09.030298 13815 net.cpp:397] relu3 -> conv3 (in-place)
I0521 04:33:09.030771 13815 net.cpp:150] Setting up relu3
I0521 04:33:09.030786 13815 net.cpp:157] Top shape: 660 28 22 44 (17888640)
I0521 04:33:09.030797 13815 net.cpp:165] Memory required for data: 943961040
I0521 04:33:09.030807 13815 layer_factory.hpp:77] Creating layer pool3
I0521 04:33:09.030819 13815 net.cpp:106] Creating Layer pool3
I0521 04:33:09.030828 13815 net.cpp:454] pool3 <- conv3
I0521 04:33:09.030841 13815 net.cpp:411] pool3 -> pool3
I0521 04:33:09.030913 13815 net.cpp:150] Setting up pool3
I0521 04:33:09.030926 13815 net.cpp:157] Top shape: 660 28 11 44 (8944320)
I0521 04:33:09.030936 13815 net.cpp:165] Memory required for data: 979738320
I0521 04:33:09.030946 13815 layer_factory.hpp:77] Creating layer conv4
I0521 04:33:09.030963 13815 net.cpp:106] Creating Layer conv4
I0521 04:33:09.030973 13815 net.cpp:454] conv4 <- pool3
I0521 04:33:09.030987 13815 net.cpp:411] conv4 -> conv4
I0521 04:33:09.033041 13815 net.cpp:150] Setting up conv4
I0521 04:33:09.033064 13815 net.cpp:157] Top shape: 660 36 6 42 (5987520)
I0521 04:33:09.033077 13815 net.cpp:165] Memory required for data: 1003688400
I0521 04:33:09.033092 13815 layer_factory.hpp:77] Creating layer relu4
I0521 04:33:09.033104 13815 net.cpp:106] Creating Layer relu4
I0521 04:33:09.033114 13815 net.cpp:454] relu4 <- conv4
I0521 04:33:09.033128 13815 net.cpp:397] relu4 -> conv4 (in-place)
I0521 04:33:09.033596 13815 net.cpp:150] Setting up relu4
I0521 04:33:09.033612 13815 net.cpp:157] Top shape: 660 36 6 42 (5987520)
I0521 04:33:09.033622 13815 net.cpp:165] Memory required for data: 1027638480
I0521 04:33:09.033632 13815 layer_factory.hpp:77] Creating layer pool4
I0521 04:33:09.033645 13815 net.cpp:106] Creating Layer pool4
I0521 04:33:09.033655 13815 net.cpp:454] pool4 <- conv4
I0521 04:33:09.033668 13815 net.cpp:411] pool4 -> pool4
I0521 04:33:09.033740 13815 net.cpp:150] Setting up pool4
I0521 04:33:09.033753 13815 net.cpp:157] Top shape: 660 36 3 42 (2993760)
I0521 04:33:09.033762 13815 net.cpp:165] Memory required for data: 1039613520
I0521 04:33:09.033771 13815 layer_factory.hpp:77] Creating layer ip1
I0521 04:33:09.033787 13815 net.cpp:106] Creating Layer ip1
I0521 04:33:09.033797 13815 net.cpp:454] ip1 <- pool4
I0521 04:33:09.033812 13815 net.cpp:411] ip1 -> ip1
I0521 04:33:09.049257 13815 net.cpp:150] Setting up ip1
I0521 04:33:09.049285 13815 net.cpp:157] Top shape: 660 196 (129360)
I0521 04:33:09.049299 13815 net.cpp:165] Memory required for data: 1040130960
I0521 04:33:09.049321 13815 layer_factory.hpp:77] Creating layer relu5
I0521 04:33:09.049337 13815 net.cpp:106] Creating Layer relu5
I0521 04:33:09.049347 13815 net.cpp:454] relu5 <- ip1
I0521 04:33:09.049361 13815 net.cpp:397] relu5 -> ip1 (in-place)
I0521 04:33:09.049707 13815 net.cpp:150] Setting up relu5
I0521 04:33:09.049721 13815 net.cpp:157] Top shape: 660 196 (129360)
I0521 04:33:09.049731 13815 net.cpp:165] Memory required for data: 1040648400
I0521 04:33:09.049741 13815 layer_factory.hpp:77] Creating layer drop1
I0521 04:33:09.049760 13815 net.cpp:106] Creating Layer drop1
I0521 04:33:09.049770 13815 net.cpp:454] drop1 <- ip1
I0521 04:33:09.049783 13815 net.cpp:397] drop1 -> ip1 (in-place)
I0521 04:33:09.049828 13815 net.cpp:150] Setting up drop1
I0521 04:33:09.049840 13815 net.cpp:157] Top shape: 660 196 (129360)
I0521 04:33:09.049849 13815 net.cpp:165] Memory required for data: 1041165840
I0521 04:33:09.049860 13815 layer_factory.hpp:77] Creating layer ip2
I0521 04:33:09.049875 13815 net.cpp:106] Creating Layer ip2
I0521 04:33:09.049885 13815 net.cpp:454] ip2 <- ip1
I0521 04:33:09.049898 13815 net.cpp:411] ip2 -> ip2
I0521 04:33:09.050377 13815 net.cpp:150] Setting up ip2
I0521 04:33:09.050390 13815 net.cpp:157] Top shape: 660 98 (64680)
I0521 04:33:09.050401 13815 net.cpp:165] Memory required for data: 1041424560
I0521 04:33:09.050429 13815 layer_factory.hpp:77] Creating layer relu6
I0521 04:33:09.050442 13815 net.cpp:106] Creating Layer relu6
I0521 04:33:09.050452 13815 net.cpp:454] relu6 <- ip2
I0521 04:33:09.050465 13815 net.cpp:397] relu6 -> ip2 (in-place)
I0521 04:33:09.050992 13815 net.cpp:150] Setting up relu6
I0521 04:33:09.051008 13815 net.cpp:157] Top shape: 660 98 (64680)
I0521 04:33:09.051018 13815 net.cpp:165] Memory required for data: 1041683280
I0521 04:33:09.051028 13815 layer_factory.hpp:77] Creating layer drop2
I0521 04:33:09.051041 13815 net.cpp:106] Creating Layer drop2
I0521 04:33:09.051051 13815 net.cpp:454] drop2 <- ip2
I0521 04:33:09.051064 13815 net.cpp:397] drop2 -> ip2 (in-place)
I0521 04:33:09.051108 13815 net.cpp:150] Setting up drop2
I0521 04:33:09.051121 13815 net.cpp:157] Top shape: 660 98 (64680)
I0521 04:33:09.051132 13815 net.cpp:165] Memory required for data: 1041942000
I0521 04:33:09.051142 13815 layer_factory.hpp:77] Creating layer ip3
I0521 04:33:09.051156 13815 net.cpp:106] Creating Layer ip3
I0521 04:33:09.051167 13815 net.cpp:454] ip3 <- ip2
I0521 04:33:09.051180 13815 net.cpp:411] ip3 -> ip3
I0521 04:33:09.051400 13815 net.cpp:150] Setting up ip3
I0521 04:33:09.051414 13815 net.cpp:157] Top shape: 660 11 (7260)
I0521 04:33:09.051424 13815 net.cpp:165] Memory required for data: 1041971040
I0521 04:33:09.051440 13815 layer_factory.hpp:77] Creating layer drop3
I0521 04:33:09.051452 13815 net.cpp:106] Creating Layer drop3
I0521 04:33:09.051461 13815 net.cpp:454] drop3 <- ip3
I0521 04:33:09.051475 13815 net.cpp:397] drop3 -> ip3 (in-place)
I0521 04:33:09.051517 13815 net.cpp:150] Setting up drop3
I0521 04:33:09.051529 13815 net.cpp:157] Top shape: 660 11 (7260)
I0521 04:33:09.051538 13815 net.cpp:165] Memory required for data: 1042000080
I0521 04:33:09.051548 13815 layer_factory.hpp:77] Creating layer ip3_drop3_0_split
I0521 04:33:09.051561 13815 net.cpp:106] Creating Layer ip3_drop3_0_split
I0521 04:33:09.051571 13815 net.cpp:454] ip3_drop3_0_split <- ip3
I0521 04:33:09.051584 13815 net.cpp:411] ip3_drop3_0_split -> ip3_drop3_0_split_0
I0521 04:33:09.051600 13815 net.cpp:411] ip3_drop3_0_split -> ip3_drop3_0_split_1
I0521 04:33:09.051672 13815 net.cpp:150] Setting up ip3_drop3_0_split
I0521 04:33:09.051686 13815 net.cpp:157] Top shape: 660 11 (7260)
I0521 04:33:09.051698 13815 net.cpp:157] Top shape: 660 11 (7260)
I0521 04:33:09.051707 13815 net.cpp:165] Memory required for data: 1042058160
I0521 04:33:09.051717 13815 layer_factory.hpp:77] Creating layer accuracy
I0521 04:33:09.051738 13815 net.cpp:106] Creating Layer accuracy
I0521 04:33:09.051748 13815 net.cpp:454] accuracy <- ip3_drop3_0_split_0
I0521 04:33:09.051759 13815 net.cpp:454] accuracy <- label_data_hdf5_1_split_0
I0521 04:33:09.051774 13815 net.cpp:411] accuracy -> accuracy
…
