…
I0521 09:57:53.134425 15582 net.cpp:322] The NetState phase (0) differed from the phase (1) specified by a rule in layer data_hdf5
I0521 09:57:53.134485 15582 net.cpp:322] The NetState phase (0) differed from the phase (1) specified by a rule in layer accuracy
I0521 09:57:53.134827 15582 net.cpp:49] Initializing net from parameters: 
name: "caffe_test_127x50_x_unshifted"
state {
  phase: TRAIN
}
layer {
  name: "data_hdf5"
  type: "HDF5Data"
  top: "data"
  top: "label"
  include {
    phase: TRAIN
  }
  hdf5_data_param {
    source: "/lustre/atlas/proj-shared/hep105/caffe_titan/minosmatch_nukecczdefs_127x50_x_unshifted_me1Bmc.trainlist"
    batch_size: 930
  }
}
layer {
  name: "conv1"
  type: "Convolution"
  bottom: "data"
  top: "conv1"
  convolution_param {
    num_output: 12
    pad: 0
    stride: 1
    weight_filler {
      type: "xavier"
    }
    bias_filler {
      type: "constant"
    }
    kernel_h: 8
    kernel_w: 3
  }
}
layer {
  name: "relu1"
  type: "ReLU"
  bottom: "conv1"
  top: "conv1"
}
layer {
  name: "pool1"
  type: "Pooling"
  bottom: "conv1"
  top: "pool1"
  pooling_param {
    pool: MAX
    kernel_h: 2
    kernel_w: 1
    stride_h: 2
    stride_w: 1
  }
}
layer {
  name: "conv2"
  type: "Convolution"
  bottom: "pool1"
  top: "conv2"
  convolution_param {
    num_output: 20
    pad: 0
    stride: 1
    weight_filler {
      type: "xavier"
    }
    bias_filler {
      type: "constant"
    }
    kernel_h: 7
    kernel_w: 3
  }
}
layer {
  name: "relu2"
  type: "ReLU"
  bottom: "conv2"
  top: "conv2"
}
layer {
  name: "pool2"
  type: "Pooling"
  bottom: "conv2"
  top: "pool2"
  pooling_param {
    pool: MAX
    kernel_h: 2
    kernel_w: 1
    stride_h: 2
    stride_w: 1
  }
}
layer {
  name: "conv3"
  type: "Convolution"
  bottom: "pool2"
  top: "conv3"
  convolution_param {
    num_output: 28
    pad: 0
    stride: 1
    weight_filler {
      type: "xavier"
    }
    bias_filler {
      type: "constant"
    }
    kernel_h: 6
    kernel_w: 3
  }
}
layer {
  name: "relu3"
  type: "ReLU"
  bottom: "conv3"
  top: "conv3"
}
layer {
  name: "pool3"
  type: "Pooling"
  bottom: "conv3"
  top: "pool3"
  pooling_param {
    pool: MAX
    kernel_h: 2
    kernel_w: 1
    stride_h: 2
    stride_w: 1
  }
}
layer {
  name: "conv4"
  type: "Convolution"
  bottom: "pool3"
  top: "conv4"
  convolution_param {
    num_output: 36
    pad: 0
    stride: 1
    weight_filler {
      type: "xavier"
    }
    bias_filler {
      type: "constant"
    }
    kernel_h: 6
    kernel_w: 3
  }
}
layer {
  name: "relu4"
  type: "ReLU"
  bottom: "conv4"
  top: "conv4"
}
layer {
  name: "pool4"
  type: "Pooling"
  bottom: "conv4"
  top: "pool4"
  pooling_param {
    pool: MAX
    kernel_h: 2
    kernel_w: 1
    stride_h: 2
    stride_w: 1
  }
}
layer {
  name: "ip1"
  type: "InnerProduct"
  bottom: "pool4"
  top: "ip1"
  inner_product_param {
    num_output: 196
    weight_filler {
      type: "xavier"
    }
    bias_filler {
      type: "constant"
    }
  }
}
layer {
  name: "relu5"
  type: "ReLU"
  bottom: "ip1"
  top: "ip1"
}
layer {
  name: "drop1"
  type: "Dropout"
  bottom: "ip1"
  top: "ip1"
  dropout_param {
    dropout_ratio: 0.5
  }
}
layer {
  name: "ip2"
  type: "InnerProduct"
  bottom: "ip1"
  top: "ip2"
  inner_product_param {
    num_output: 98
    weight_filler {
      type: "xavier"
    }
    bias_filler {
      type: "constant"
    }
  }
}
layer {
  name: "relu6"
  type: "ReLU"
  bottom: "ip2"
  top: "ip2"
}
layer {
  name: "drop2"
  type: "Dropout"
  bottom: "ip2"
  top: "ip2"
  dropout_param {
    dropout_ratio: 0.5
  }
}
layer {
  name: "ip3"
  type: "InnerProduct"
  bottom: "ip2"
  top: "ip3"
  inner_product_param {
    num_output: 11
    weight_filler {
      type: "xavier"
    }
    bias_filler {
      type: "constant"
    }
  }
}
layer {
  name: "drop3"
  type: "Dropout"
  bottom: "ip3"
  top: "ip3"
  dropout_param {
    dropout_ratio: 0.5
  }
}
layer {
  name: "loss"
  type: "SoftmaxWithLoss"
  bottom: "ip3"
  bottom: "label"
  top: "loss"
}
I0521 09:57:53.135010 15582 layer_factory.hpp:77] Creating layer data_hdf5
I0521 09:57:53.135035 15582 net.cpp:106] Creating Layer data_hdf5
I0521 09:57:53.135048 15582 net.cpp:411] data_hdf5 -> data
I0521 09:57:53.135082 15582 net.cpp:411] data_hdf5 -> label
I0521 09:57:53.135114 15582 hdf5_data_layer.cpp:79] Loading list of HDF5 filenames from: /lustre/atlas/proj-shared/hep105/caffe_titan/minosmatch_nukecczdefs_127x50_x_unshifted_me1Bmc.trainlist
I0521 09:57:53.136397 15582 hdf5_data_layer.cpp:93] Number of HDF5 files: 15
I0521 09:57:53.152806 15582 hdf5.cpp:32] Datatype class: H5T_FLOAT
I0521 09:58:14.685571 15582 hdf5.cpp:35] Datatype class: H5T_INTEGER
I0521 09:58:14.690737 15582 net.cpp:150] Setting up data_hdf5
I0521 09:58:14.690776 15582 net.cpp:157] Top shape: 930 1 127 50 (5905500)
I0521 09:58:14.690791 15582 net.cpp:157] Top shape: 930 (930)
I0521 09:58:14.690804 15582 net.cpp:165] Memory required for data: 23625720
I0521 09:58:14.690817 15582 layer_factory.hpp:77] Creating layer conv1
I0521 09:58:14.690850 15582 net.cpp:106] Creating Layer conv1
I0521 09:58:14.690861 15582 net.cpp:454] conv1 <- data
I0521 09:58:14.690882 15582 net.cpp:411] conv1 -> conv1
I0521 09:58:15.052013 15582 net.cpp:150] Setting up conv1
I0521 09:58:15.052057 15582 net.cpp:157] Top shape: 930 12 120 48 (64281600)
I0521 09:58:15.052072 15582 net.cpp:165] Memory required for data: 280752120
I0521 09:58:15.052100 15582 layer_factory.hpp:77] Creating layer relu1
I0521 09:58:15.052121 15582 net.cpp:106] Creating Layer relu1
I0521 09:58:15.052132 15582 net.cpp:454] relu1 <- conv1
I0521 09:58:15.052145 15582 net.cpp:397] relu1 -> conv1 (in-place)
I0521 09:58:15.052671 15582 net.cpp:150] Setting up relu1
I0521 09:58:15.052688 15582 net.cpp:157] Top shape: 930 12 120 48 (64281600)
I0521 09:58:15.052700 15582 net.cpp:165] Memory required for data: 537878520
I0521 09:58:15.052711 15582 layer_factory.hpp:77] Creating layer pool1
I0521 09:58:15.052726 15582 net.cpp:106] Creating Layer pool1
I0521 09:58:15.052736 15582 net.cpp:454] pool1 <- conv1
I0521 09:58:15.052749 15582 net.cpp:411] pool1 -> pool1
I0521 09:58:15.052830 15582 net.cpp:150] Setting up pool1
I0521 09:58:15.052845 15582 net.cpp:157] Top shape: 930 12 60 48 (32140800)
I0521 09:58:15.052855 15582 net.cpp:165] Memory required for data: 666441720
I0521 09:58:15.052865 15582 layer_factory.hpp:77] Creating layer conv2
I0521 09:58:15.052887 15582 net.cpp:106] Creating Layer conv2
I0521 09:58:15.052897 15582 net.cpp:454] conv2 <- pool1
I0521 09:58:15.052911 15582 net.cpp:411] conv2 -> conv2
I0521 09:58:15.055585 15582 net.cpp:150] Setting up conv2
I0521 09:58:15.055613 15582 net.cpp:157] Top shape: 930 20 54 46 (46202400)
I0521 09:58:15.055624 15582 net.cpp:165] Memory required for data: 851251320
I0521 09:58:15.055644 15582 layer_factory.hpp:77] Creating layer relu2
I0521 09:58:15.055657 15582 net.cpp:106] Creating Layer relu2
I0521 09:58:15.055667 15582 net.cpp:454] relu2 <- conv2
I0521 09:58:15.055680 15582 net.cpp:397] relu2 -> conv2 (in-place)
I0521 09:58:15.056010 15582 net.cpp:150] Setting up relu2
I0521 09:58:15.056023 15582 net.cpp:157] Top shape: 930 20 54 46 (46202400)
I0521 09:58:15.056035 15582 net.cpp:165] Memory required for data: 1036060920
I0521 09:58:15.056044 15582 layer_factory.hpp:77] Creating layer pool2
I0521 09:58:15.056057 15582 net.cpp:106] Creating Layer pool2
I0521 09:58:15.056067 15582 net.cpp:454] pool2 <- conv2
I0521 09:58:15.056092 15582 net.cpp:411] pool2 -> pool2
I0521 09:58:15.056161 15582 net.cpp:150] Setting up pool2
I0521 09:58:15.056175 15582 net.cpp:157] Top shape: 930 20 27 46 (23101200)
I0521 09:58:15.056185 15582 net.cpp:165] Memory required for data: 1128465720
I0521 09:58:15.056195 15582 layer_factory.hpp:77] Creating layer conv3
I0521 09:58:15.056213 15582 net.cpp:106] Creating Layer conv3
I0521 09:58:15.056223 15582 net.cpp:454] conv3 <- pool2
I0521 09:58:15.056236 15582 net.cpp:411] conv3 -> conv3
I0521 09:58:15.058162 15582 net.cpp:150] Setting up conv3
I0521 09:58:15.058185 15582 net.cpp:157] Top shape: 930 28 22 44 (25206720)
I0521 09:58:15.058195 15582 net.cpp:165] Memory required for data: 1229292600
I0521 09:58:15.058215 15582 layer_factory.hpp:77] Creating layer relu3
I0521 09:58:15.058231 15582 net.cpp:106] Creating Layer relu3
I0521 09:58:15.058241 15582 net.cpp:454] relu3 <- conv3
I0521 09:58:15.058254 15582 net.cpp:397] relu3 -> conv3 (in-place)
I0521 09:58:15.058722 15582 net.cpp:150] Setting up relu3
I0521 09:58:15.058739 15582 net.cpp:157] Top shape: 930 28 22 44 (25206720)
I0521 09:58:15.058749 15582 net.cpp:165] Memory required for data: 1330119480
I0521 09:58:15.058760 15582 layer_factory.hpp:77] Creating layer pool3
I0521 09:58:15.058773 15582 net.cpp:106] Creating Layer pool3
I0521 09:58:15.058784 15582 net.cpp:454] pool3 <- conv3
I0521 09:58:15.058795 15582 net.cpp:411] pool3 -> pool3
I0521 09:58:15.058863 15582 net.cpp:150] Setting up pool3
I0521 09:58:15.058877 15582 net.cpp:157] Top shape: 930 28 11 44 (12603360)
I0521 09:58:15.058887 15582 net.cpp:165] Memory required for data: 1380532920
I0521 09:58:15.058897 15582 layer_factory.hpp:77] Creating layer conv4
I0521 09:58:15.058915 15582 net.cpp:106] Creating Layer conv4
I0521 09:58:15.058925 15582 net.cpp:454] conv4 <- pool3
I0521 09:58:15.058939 15582 net.cpp:411] conv4 -> conv4
I0521 09:58:15.061682 15582 net.cpp:150] Setting up conv4
I0521 09:58:15.061710 15582 net.cpp:157] Top shape: 930 36 6 42 (8436960)
I0521 09:58:15.061722 15582 net.cpp:165] Memory required for data: 1414280760
I0521 09:58:15.061736 15582 layer_factory.hpp:77] Creating layer relu4
I0521 09:58:15.061750 15582 net.cpp:106] Creating Layer relu4
I0521 09:58:15.061761 15582 net.cpp:454] relu4 <- conv4
I0521 09:58:15.061774 15582 net.cpp:397] relu4 -> conv4 (in-place)
I0521 09:58:15.062237 15582 net.cpp:150] Setting up relu4
I0521 09:58:15.062252 15582 net.cpp:157] Top shape: 930 36 6 42 (8436960)
I0521 09:58:15.062263 15582 net.cpp:165] Memory required for data: 1448028600
I0521 09:58:15.062273 15582 layer_factory.hpp:77] Creating layer pool4
I0521 09:58:15.062286 15582 net.cpp:106] Creating Layer pool4
I0521 09:58:15.062295 15582 net.cpp:454] pool4 <- conv4
I0521 09:58:15.062309 15582 net.cpp:411] pool4 -> pool4
I0521 09:58:15.062376 15582 net.cpp:150] Setting up pool4
I0521 09:58:15.062391 15582 net.cpp:157] Top shape: 930 36 3 42 (4218480)
I0521 09:58:15.062400 15582 net.cpp:165] Memory required for data: 1464902520
I0521 09:58:15.062410 15582 layer_factory.hpp:77] Creating layer ip1
I0521 09:58:15.062433 15582 net.cpp:106] Creating Layer ip1
I0521 09:58:15.062444 15582 net.cpp:454] ip1 <- pool4
I0521 09:58:15.062460 15582 net.cpp:411] ip1 -> ip1
I0521 09:58:15.077879 15582 net.cpp:150] Setting up ip1
I0521 09:58:15.077908 15582 net.cpp:157] Top shape: 930 196 (182280)
I0521 09:58:15.077924 15582 net.cpp:165] Memory required for data: 1465631640
I0521 09:58:15.077951 15582 layer_factory.hpp:77] Creating layer relu5
I0521 09:58:15.077965 15582 net.cpp:106] Creating Layer relu5
I0521 09:58:15.077976 15582 net.cpp:454] relu5 <- ip1
I0521 09:58:15.077989 15582 net.cpp:397] relu5 -> ip1 (in-place)
I0521 09:58:15.078333 15582 net.cpp:150] Setting up relu5
I0521 09:58:15.078347 15582 net.cpp:157] Top shape: 930 196 (182280)
I0521 09:58:15.078357 15582 net.cpp:165] Memory required for data: 1466360760
I0521 09:58:15.078368 15582 layer_factory.hpp:77] Creating layer drop1
I0521 09:58:15.078390 15582 net.cpp:106] Creating Layer drop1
I0521 09:58:15.078400 15582 net.cpp:454] drop1 <- ip1
I0521 09:58:15.078424 15582 net.cpp:397] drop1 -> ip1 (in-place)
I0521 09:58:15.078471 15582 net.cpp:150] Setting up drop1
I0521 09:58:15.078485 15582 net.cpp:157] Top shape: 930 196 (182280)
I0521 09:58:15.078495 15582 net.cpp:165] Memory required for data: 1467089880
I0521 09:58:15.078505 15582 layer_factory.hpp:77] Creating layer ip2
I0521 09:58:15.078523 15582 net.cpp:106] Creating Layer ip2
I0521 09:58:15.078533 15582 net.cpp:454] ip2 <- ip1
I0521 09:58:15.078547 15582 net.cpp:411] ip2 -> ip2
I0521 09:58:15.079011 15582 net.cpp:150] Setting up ip2
I0521 09:58:15.079025 15582 net.cpp:157] Top shape: 930 98 (91140)
I0521 09:58:15.079035 15582 net.cpp:165] Memory required for data: 1467454440
I0521 09:58:15.079049 15582 layer_factory.hpp:77] Creating layer relu6
I0521 09:58:15.079061 15582 net.cpp:106] Creating Layer relu6
I0521 09:58:15.079071 15582 net.cpp:454] relu6 <- ip2
I0521 09:58:15.079083 15582 net.cpp:397] relu6 -> ip2 (in-place)
I0521 09:58:15.079599 15582 net.cpp:150] Setting up relu6
I0521 09:58:15.079615 15582 net.cpp:157] Top shape: 930 98 (91140)
I0521 09:58:15.079625 15582 net.cpp:165] Memory required for data: 1467819000
I0521 09:58:15.079637 15582 layer_factory.hpp:77] Creating layer drop2
I0521 09:58:15.079649 15582 net.cpp:106] Creating Layer drop2
I0521 09:58:15.079659 15582 net.cpp:454] drop2 <- ip2
I0521 09:58:15.079671 15582 net.cpp:397] drop2 -> ip2 (in-place)
I0521 09:58:15.079713 15582 net.cpp:150] Setting up drop2
I0521 09:58:15.079726 15582 net.cpp:157] Top shape: 930 98 (91140)
I0521 09:58:15.079737 15582 net.cpp:165] Memory required for data: 1468183560
I0521 09:58:15.079747 15582 layer_factory.hpp:77] Creating layer ip3
I0521 09:58:15.079761 15582 net.cpp:106] Creating Layer ip3
I0521 09:58:15.079771 15582 net.cpp:454] ip3 <- ip2
I0521 09:58:15.079782 15582 net.cpp:411] ip3 -> ip3
I0521 09:58:15.079991 15582 net.cpp:150] Setting up ip3
I0521 09:58:15.080005 15582 net.cpp:157] Top shape: 930 11 (10230)
I0521 09:58:15.080015 15582 net.cpp:165] Memory required for data: 1468224480
I0521 09:58:15.080030 15582 layer_factory.hpp:77] Creating layer drop3
I0521 09:58:15.080042 15582 net.cpp:106] Creating Layer drop3
I0521 09:58:15.080052 15582 net.cpp:454] drop3 <- ip3
I0521 09:58:15.080065 15582 net.cpp:397] drop3 -> ip3 (in-place)
I0521 09:58:15.080103 15582 net.cpp:150] Setting up drop3
I0521 09:58:15.080116 15582 net.cpp:157] Top shape: 930 11 (10230)
I0521 09:58:15.080127 15582 net.cpp:165] Memory required for data: 1468265400
I0521 09:58:15.080135 15582 layer_factory.hpp:77] Creating layer loss
I0521 09:58:15.080155 15582 net.cpp:106] Creating Layer loss
I0521 09:58:15.080165 15582 net.cpp:454] loss <- ip3
I0521 09:58:15.080176 15582 net.cpp:454] loss <- label
I0521 09:58:15.080188 15582 net.cpp:411] loss -> loss
I0521 09:58:15.080206 15582 layer_factory.hpp:77] Creating layer loss
…
I0521 09:58:15.082866 15582 solver.cpp:181] Creating test net (#0) specified by net file: /lustre/atlas/proj-shared/hep105/caffe_titan/caffe_workflow/logs_batch_size_test/batch_size_930_2016-05-20T11.21.06.614537.prototxt
I0521 09:58:15.082937 15582 net.cpp:322] The NetState phase (1) differed from the phase (0) specified by a rule in layer data_hdf5
I0521 09:58:15.083293 15582 net.cpp:49] Initializing net from parameters: 
name: "caffe_test_127x50_x_unshifted"
state {
  phase: TEST
}
layer {
  name: "data_hdf5"
  type: "HDF5Data"
  top: "data"
  top: "label"
  include {
    phase: TEST
  }
  hdf5_data_param {
    source: "/lustre/atlas/proj-shared/hep105/caffe_titan/minosmatch_nukecczdefs_127x50_x_unshifted_me1Bmc.testlist"
    batch_size: 930
  }
}
layer {
  name: "conv1"
  type: "Convolution"
  bottom: "data"
  top: "conv1"
  convolution_param {
    num_output: 12
    pad: 0
    stride: 1
    weight_filler {
      type: "xavier"
    }
    bias_filler {
      type: "constant"
    }
    kernel_h: 8
    kernel_w: 3
  }
}
layer {
  name: "relu1"
  type: "ReLU"
  bottom: "conv1"
  top: "conv1"
}
layer {
  name: "pool1"
  type: "Pooling"
  bottom: "conv1"
  top: "pool1"
  pooling_param {
    pool: MAX
    kernel_h: 2
    kernel_w: 1
    stride_h: 2
    stride_w: 1
  }
}
layer {
  name: "conv2"
  type: "Convolution"
  bottom: "pool1"
  top: "conv2"
  convolution_param {
    num_output: 20
    pad: 0
    stride: 1
    weight_filler {
      type: "xavier"
    }
    bias_filler {
      type: "constant"
    }
    kernel_h: 7
    kernel_w: 3
  }
}
layer {
  name: "relu2"
  type: "ReLU"
  bottom: "conv2"
  top: "conv2"
}
layer {
  name: "pool2"
  type: "Pooling"
  bottom: "conv2"
  top: "pool2"
  pooling_param {
    pool: MAX
    kernel_h: 2
    kernel_w: 1
    stride_h: 2
    stride_w: 1
  }
}
layer {
  name: "conv3"
  type: "Convolution"
  bottom: "pool2"
  top: "conv3"
  convolution_param {
    num_output: 28
    pad: 0
    stride: 1
    weight_filler {
      type: "xavier"
    }
    bias_filler {
      type: "constant"
    }
    kernel_h: 6
    kernel_w: 3
  }
}
layer {
  name: "relu3"
  type: "ReLU"
  bottom: "conv3"
  top: "conv3"
}
layer {
  name: "pool3"
  type: "Pooling"
  bottom: "conv3"
  top: "pool3"
  pooling_param {
    pool: MAX
    kernel_h: 2
    kernel_w: 1
    stride_h: 2
    stride_w: 1
  }
}
layer {
  name: "conv4"
  type: "Convolution"
  bottom: "pool3"
  top: "conv4"
  convolution_param {
    num_output: 36
    pad: 0
    stride: 1
    weight_filler {
      type: "xavier"
    }
    bias_filler {
      type: "constant"
    }
    kernel_h: 6
    kernel_w: 3
  }
}
layer {
  name: "relu4"
  type: "ReLU"
  bottom: "conv4"
  top: "conv4"
}
layer {
  name: "pool4"
  type: "Pooling"
  bottom: "conv4"
  top: "pool4"
  pooling_param {
    pool: MAX
    kernel_h: 2
    kernel_w: 1
    stride_h: 2
    stride_w: 1
  }
}
layer {
  name: "ip1"
  type: "InnerProduct"
  bottom: "pool4"
  top: "ip1"
  inner_product_param {
    num_output: 196
    weight_filler {
      type: "xavier"
    }
    bias_filler {
      type: "constant"
    }
  }
}
layer {
  name: "relu5"
  type: "ReLU"
  bottom: "ip1"
  top: "ip1"
}
layer {
  name: "drop1"
  type: "Dropout"
  bottom: "ip1"
  top: "ip1"
  dropout_param {
    dropout_ratio: 0.5
  }
}
layer {
  name: "ip2"
  type: "InnerProduct"
  bottom: "ip1"
  top: "ip2"
  inner_product_param {
    num_output: 98
    weight_filler {
      type: "xavier"
    }
    bias_filler {
      type: "constant"
    }
  }
}
layer {
  name: "relu6"
  type: "ReLU"
  bottom: "ip2"
  top: "ip2"
}
layer {
  name: "drop2"
  type: "Dropout"
  bottom: "ip2"
  top: "ip2"
  dropout_param {
    dropout_ratio: 0.5
  }
}
layer {
  name: "ip3"
  type: "InnerProduct"
  bottom: "ip2"
  top: "ip3"
  inner_product_param {
    num_output: 11
    weight_filler {
      type: "xavier"
    }
    bias_filler {
      type: "constant"
    }
  }
}
layer {
  name: "drop3"
  type: "Dropout"
  bottom: "ip3"
  top: "ip3"
  dropout_param {
    dropout_ratio: 0.5
  }
}
layer {
  name: "accuracy"
  type: "Accuracy"
  bottom: "ip3"
  bottom: "label"
  top: "accuracy"
  include {
    phase: TEST
  }
}
layer {
  name: "loss"
  type: "SoftmaxWithLoss"
  bottom: "ip3"
  bottom: "label"
  top: "loss"
}
I0521 09:58:15.083482 15582 layer_factory.hpp:77] Creating layer data_hdf5
I0521 09:58:15.083498 15582 net.cpp:106] Creating Layer data_hdf5
I0521 09:58:15.083510 15582 net.cpp:411] data_hdf5 -> data
I0521 09:58:15.083526 15582 net.cpp:411] data_hdf5 -> label
I0521 09:58:15.083542 15582 hdf5_data_layer.cpp:79] Loading list of HDF5 filenames from: /lustre/atlas/proj-shared/hep105/caffe_titan/minosmatch_nukecczdefs_127x50_x_unshifted_me1Bmc.testlist
I0521 09:58:15.084800 15582 hdf5_data_layer.cpp:93] Number of HDF5 files: 3
I0521 09:58:36.392734 15582 net.cpp:150] Setting up data_hdf5
I0521 09:58:36.392899 15582 net.cpp:157] Top shape: 930 1 127 50 (5905500)
I0521 09:58:36.392913 15582 net.cpp:157] Top shape: 930 (930)
I0521 09:58:36.392925 15582 net.cpp:165] Memory required for data: 23625720
I0521 09:58:36.392938 15582 layer_factory.hpp:77] Creating layer label_data_hdf5_1_split
I0521 09:58:36.392967 15582 net.cpp:106] Creating Layer label_data_hdf5_1_split
I0521 09:58:36.392978 15582 net.cpp:454] label_data_hdf5_1_split <- label
I0521 09:58:36.392993 15582 net.cpp:411] label_data_hdf5_1_split -> label_data_hdf5_1_split_0
I0521 09:58:36.393014 15582 net.cpp:411] label_data_hdf5_1_split -> label_data_hdf5_1_split_1
I0521 09:58:36.393087 15582 net.cpp:150] Setting up label_data_hdf5_1_split
I0521 09:58:36.393101 15582 net.cpp:157] Top shape: 930 (930)
I0521 09:58:36.393113 15582 net.cpp:157] Top shape: 930 (930)
I0521 09:58:36.393123 15582 net.cpp:165] Memory required for data: 23633160
I0521 09:58:36.393132 15582 layer_factory.hpp:77] Creating layer conv1
I0521 09:58:36.393154 15582 net.cpp:106] Creating Layer conv1
I0521 09:58:36.393165 15582 net.cpp:454] conv1 <- data
I0521 09:58:36.393182 15582 net.cpp:411] conv1 -> conv1
I0521 09:58:36.395114 15582 net.cpp:150] Setting up conv1
I0521 09:58:36.395138 15582 net.cpp:157] Top shape: 930 12 120 48 (64281600)
I0521 09:58:36.395149 15582 net.cpp:165] Memory required for data: 280759560
I0521 09:58:36.395171 15582 layer_factory.hpp:77] Creating layer relu1
I0521 09:58:36.395186 15582 net.cpp:106] Creating Layer relu1
I0521 09:58:36.395196 15582 net.cpp:454] relu1 <- conv1
I0521 09:58:36.395210 15582 net.cpp:397] relu1 -> conv1 (in-place)
I0521 09:58:36.395709 15582 net.cpp:150] Setting up relu1
I0521 09:58:36.395723 15582 net.cpp:157] Top shape: 930 12 120 48 (64281600)
I0521 09:58:36.395735 15582 net.cpp:165] Memory required for data: 537885960
I0521 09:58:36.395745 15582 layer_factory.hpp:77] Creating layer pool1
I0521 09:58:36.395761 15582 net.cpp:106] Creating Layer pool1
I0521 09:58:36.395771 15582 net.cpp:454] pool1 <- conv1
I0521 09:58:36.395783 15582 net.cpp:411] pool1 -> pool1
I0521 09:58:36.395859 15582 net.cpp:150] Setting up pool1
I0521 09:58:36.395871 15582 net.cpp:157] Top shape: 930 12 60 48 (32140800)
I0521 09:58:36.395881 15582 net.cpp:165] Memory required for data: 666449160
I0521 09:58:36.395892 15582 layer_factory.hpp:77] Creating layer conv2
I0521 09:58:36.395910 15582 net.cpp:106] Creating Layer conv2
I0521 09:58:36.395920 15582 net.cpp:454] conv2 <- pool1
I0521 09:58:36.395936 15582 net.cpp:411] conv2 -> conv2
I0521 09:58:36.397855 15582 net.cpp:150] Setting up conv2
I0521 09:58:36.397876 15582 net.cpp:157] Top shape: 930 20 54 46 (46202400)
I0521 09:58:36.397889 15582 net.cpp:165] Memory required for data: 851258760
I0521 09:58:36.397907 15582 layer_factory.hpp:77] Creating layer relu2
I0521 09:58:36.397920 15582 net.cpp:106] Creating Layer relu2
I0521 09:58:36.397930 15582 net.cpp:454] relu2 <- conv2
I0521 09:58:36.397943 15582 net.cpp:397] relu2 -> conv2 (in-place)
I0521 09:58:36.398277 15582 net.cpp:150] Setting up relu2
I0521 09:58:36.398290 15582 net.cpp:157] Top shape: 930 20 54 46 (46202400)
I0521 09:58:36.398301 15582 net.cpp:165] Memory required for data: 1036068360
I0521 09:58:36.398311 15582 layer_factory.hpp:77] Creating layer pool2
I0521 09:58:36.398324 15582 net.cpp:106] Creating Layer pool2
I0521 09:58:36.398334 15582 net.cpp:454] pool2 <- conv2
I0521 09:58:36.398346 15582 net.cpp:411] pool2 -> pool2
I0521 09:58:36.398418 15582 net.cpp:150] Setting up pool2
I0521 09:58:36.398432 15582 net.cpp:157] Top shape: 930 20 27 46 (23101200)
I0521 09:58:36.398442 15582 net.cpp:165] Memory required for data: 1128473160
I0521 09:58:36.398449 15582 layer_factory.hpp:77] Creating layer conv3
I0521 09:58:36.398469 15582 net.cpp:106] Creating Layer conv3
I0521 09:58:36.398480 15582 net.cpp:454] conv3 <- pool2
I0521 09:58:36.398494 15582 net.cpp:411] conv3 -> conv3
I0521 09:58:36.400452 15582 net.cpp:150] Setting up conv3
I0521 09:58:36.400475 15582 net.cpp:157] Top shape: 930 28 22 44 (25206720)
I0521 09:58:36.400486 15582 net.cpp:165] Memory required for data: 1229300040
I0521 09:58:36.400519 15582 layer_factory.hpp:77] Creating layer relu3
I0521 09:58:36.400533 15582 net.cpp:106] Creating Layer relu3
I0521 09:58:36.400552 15582 net.cpp:454] relu3 <- conv3
I0521 09:58:36.400564 15582 net.cpp:397] relu3 -> conv3 (in-place)
I0521 09:58:36.401036 15582 net.cpp:150] Setting up relu3
I0521 09:58:36.401051 15582 net.cpp:157] Top shape: 930 28 22 44 (25206720)
I0521 09:58:36.401062 15582 net.cpp:165] Memory required for data: 1330126920
I0521 09:58:36.401072 15582 layer_factory.hpp:77] Creating layer pool3
I0521 09:58:36.401084 15582 net.cpp:106] Creating Layer pool3
I0521 09:58:36.401094 15582 net.cpp:454] pool3 <- conv3
I0521 09:58:36.401108 15582 net.cpp:411] pool3 -> pool3
I0521 09:58:36.401180 15582 net.cpp:150] Setting up pool3
I0521 09:58:36.401193 15582 net.cpp:157] Top shape: 930 28 11 44 (12603360)
I0521 09:58:36.401202 15582 net.cpp:165] Memory required for data: 1380540360
I0521 09:58:36.401211 15582 layer_factory.hpp:77] Creating layer conv4
I0521 09:58:36.401228 15582 net.cpp:106] Creating Layer conv4
I0521 09:58:36.401238 15582 net.cpp:454] conv4 <- pool3
I0521 09:58:36.401253 15582 net.cpp:411] conv4 -> conv4
I0521 09:58:36.403298 15582 net.cpp:150] Setting up conv4
I0521 09:58:36.403321 15582 net.cpp:157] Top shape: 930 36 6 42 (8436960)
I0521 09:58:36.403333 15582 net.cpp:165] Memory required for data: 1414288200
I0521 09:58:36.403348 15582 layer_factory.hpp:77] Creating layer relu4
I0521 09:58:36.403362 15582 net.cpp:106] Creating Layer relu4
I0521 09:58:36.403372 15582 net.cpp:454] relu4 <- conv4
I0521 09:58:36.403383 15582 net.cpp:397] relu4 -> conv4 (in-place)
I0521 09:58:36.403854 15582 net.cpp:150] Setting up relu4
I0521 09:58:36.403870 15582 net.cpp:157] Top shape: 930 36 6 42 (8436960)
I0521 09:58:36.403879 15582 net.cpp:165] Memory required for data: 1448036040
I0521 09:58:36.403890 15582 layer_factory.hpp:77] Creating layer pool4
I0521 09:58:36.403903 15582 net.cpp:106] Creating Layer pool4
I0521 09:58:36.403913 15582 net.cpp:454] pool4 <- conv4
I0521 09:58:36.403926 15582 net.cpp:411] pool4 -> pool4
I0521 09:58:36.403997 15582 net.cpp:150] Setting up pool4
I0521 09:58:36.404011 15582 net.cpp:157] Top shape: 930 36 3 42 (4218480)
I0521 09:58:36.404021 15582 net.cpp:165] Memory required for data: 1464909960
I0521 09:58:36.404028 15582 layer_factory.hpp:77] Creating layer ip1
I0521 09:58:36.404044 15582 net.cpp:106] Creating Layer ip1
I0521 09:58:36.404054 15582 net.cpp:454] ip1 <- pool4
I0521 09:58:36.404069 15582 net.cpp:411] ip1 -> ip1
I0521 09:58:36.419559 15582 net.cpp:150] Setting up ip1
I0521 09:58:36.419587 15582 net.cpp:157] Top shape: 930 196 (182280)
I0521 09:58:36.419598 15582 net.cpp:165] Memory required for data: 1465639080
I0521 09:58:36.419620 15582 layer_factory.hpp:77] Creating layer relu5
I0521 09:58:36.419636 15582 net.cpp:106] Creating Layer relu5
I0521 09:58:36.419646 15582 net.cpp:454] relu5 <- ip1
I0521 09:58:36.419659 15582 net.cpp:397] relu5 -> ip1 (in-place)
I0521 09:58:36.420002 15582 net.cpp:150] Setting up relu5
I0521 09:58:36.420017 15582 net.cpp:157] Top shape: 930 196 (182280)
I0521 09:58:36.420027 15582 net.cpp:165] Memory required for data: 1466368200
I0521 09:58:36.420037 15582 layer_factory.hpp:77] Creating layer drop1
I0521 09:58:36.420055 15582 net.cpp:106] Creating Layer drop1
I0521 09:58:36.420065 15582 net.cpp:454] drop1 <- ip1
I0521 09:58:36.420078 15582 net.cpp:397] drop1 -> ip1 (in-place)
I0521 09:58:36.420121 15582 net.cpp:150] Setting up drop1
I0521 09:58:36.420135 15582 net.cpp:157] Top shape: 930 196 (182280)
I0521 09:58:36.420145 15582 net.cpp:165] Memory required for data: 1467097320
I0521 09:58:36.420153 15582 layer_factory.hpp:77] Creating layer ip2
I0521 09:58:36.420168 15582 net.cpp:106] Creating Layer ip2
I0521 09:58:36.420178 15582 net.cpp:454] ip2 <- ip1
I0521 09:58:36.420192 15582 net.cpp:411] ip2 -> ip2
I0521 09:58:36.420678 15582 net.cpp:150] Setting up ip2
I0521 09:58:36.420691 15582 net.cpp:157] Top shape: 930 98 (91140)
I0521 09:58:36.420701 15582 net.cpp:165] Memory required for data: 1467461880
I0521 09:58:36.420729 15582 layer_factory.hpp:77] Creating layer relu6
I0521 09:58:36.420743 15582 net.cpp:106] Creating Layer relu6
I0521 09:58:36.420753 15582 net.cpp:454] relu6 <- ip2
I0521 09:58:36.420765 15582 net.cpp:397] relu6 -> ip2 (in-place)
I0521 09:58:36.421293 15582 net.cpp:150] Setting up relu6
I0521 09:58:36.421316 15582 net.cpp:157] Top shape: 930 98 (91140)
I0521 09:58:36.421326 15582 net.cpp:165] Memory required for data: 1467826440
I0521 09:58:36.421336 15582 layer_factory.hpp:77] Creating layer drop2
I0521 09:58:36.421350 15582 net.cpp:106] Creating Layer drop2
I0521 09:58:36.421360 15582 net.cpp:454] drop2 <- ip2
I0521 09:58:36.421372 15582 net.cpp:397] drop2 -> ip2 (in-place)
I0521 09:58:36.421416 15582 net.cpp:150] Setting up drop2
I0521 09:58:36.421429 15582 net.cpp:157] Top shape: 930 98 (91140)
I0521 09:58:36.421440 15582 net.cpp:165] Memory required for data: 1468191000
I0521 09:58:36.421450 15582 layer_factory.hpp:77] Creating layer ip3
I0521 09:58:36.421464 15582 net.cpp:106] Creating Layer ip3
I0521 09:58:36.421474 15582 net.cpp:454] ip3 <- ip2
I0521 09:58:36.421489 15582 net.cpp:411] ip3 -> ip3
I0521 09:58:36.421711 15582 net.cpp:150] Setting up ip3
I0521 09:58:36.421725 15582 net.cpp:157] Top shape: 930 11 (10230)
I0521 09:58:36.421735 15582 net.cpp:165] Memory required for data: 1468231920
I0521 09:58:36.421751 15582 layer_factory.hpp:77] Creating layer drop3
I0521 09:58:36.421763 15582 net.cpp:106] Creating Layer drop3
I0521 09:58:36.421773 15582 net.cpp:454] drop3 <- ip3
I0521 09:58:36.421787 15582 net.cpp:397] drop3 -> ip3 (in-place)
I0521 09:58:36.421828 15582 net.cpp:150] Setting up drop3
I0521 09:58:36.421839 15582 net.cpp:157] Top shape: 930 11 (10230)
I0521 09:58:36.421849 15582 net.cpp:165] Memory required for data: 1468272840
I0521 09:58:36.421859 15582 layer_factory.hpp:77] Creating layer ip3_drop3_0_split
I0521 09:58:36.421872 15582 net.cpp:106] Creating Layer ip3_drop3_0_split
I0521 09:58:36.421882 15582 net.cpp:454] ip3_drop3_0_split <- ip3
I0521 09:58:36.421895 15582 net.cpp:411] ip3_drop3_0_split -> ip3_drop3_0_split_0
I0521 09:58:36.421910 15582 net.cpp:411] ip3_drop3_0_split -> ip3_drop3_0_split_1
I0521 09:58:36.421983 15582 net.cpp:150] Setting up ip3_drop3_0_split
I0521 09:58:36.421995 15582 net.cpp:157] Top shape: 930 11 (10230)
I0521 09:58:36.422008 15582 net.cpp:157] Top shape: 930 11 (10230)
I0521 09:58:36.422019 15582 net.cpp:165] Memory required for data: 1468354680
I0521 09:58:36.422030 15582 layer_factory.hpp:77] Creating layer accuracy
I0521 09:58:36.422056 15582 net.cpp:106] Creating Layer accuracy
I0521 09:58:36.422067 15582 net.cpp:454] accuracy <- ip3_drop3_0_split_0
I0521 09:58:36.422080 15582 net.cpp:454] accuracy <- label_data_hdf5_1_split_0
I0521 09:58:36.422093 15582 net.cpp:411] accuracy -> accuracy
…
