…
I0520 13:44:00.121925 27950 net.cpp:322] The NetState phase (0) differed from the phase (1) specified by a rule in layer data_hdf5
I0520 13:44:00.121990 27950 net.cpp:322] The NetState phase (0) differed from the phase (1) specified by a rule in layer accuracy
I0520 13:44:00.122370 27950 net.cpp:49] Initializing net from parameters: 
name: "caffe_test_127x50_x_unshifted"
state {
  phase: TRAIN
}
layer {
  name: "data_hdf5"
  type: "HDF5Data"
  top: "data"
  top: "label"
  include {
    phase: TRAIN
  }
  hdf5_data_param {
    source: "/lustre/atlas/proj-shared/hep105/caffe_titan/minosmatch_nukecczdefs_127x50_x_unshifted_me1Bmc.trainlist"
    batch_size: 90
  }
}
layer {
  name: "conv1"
  type: "Convolution"
  bottom: "data"
  top: "conv1"
  convolution_param {
    num_output: 12
    pad: 0
    stride: 1
    weight_filler {
      type: "xavier"
    }
    bias_filler {
      type: "constant"
    }
    kernel_h: 8
    kernel_w: 3
  }
}
layer {
  name: "relu1"
  type: "ReLU"
  bottom: "conv1"
  top: "conv1"
}
layer {
  name: "pool1"
  type: "Pooling"
  bottom: "conv1"
  top: "pool1"
  pooling_param {
    pool: MAX
    kernel_h: 2
    kernel_w: 1
    stride_h: 2
    stride_w: 1
  }
}
layer {
  name: "conv2"
  type: "Convolution"
  bottom: "pool1"
  top: "conv2"
  convolution_param {
    num_output: 20
    pad: 0
    stride: 1
    weight_filler {
      type: "xavier"
    }
    bias_filler {
      type: "constant"
    }
    kernel_h: 7
    kernel_w: 3
  }
}
layer {
  name: "relu2"
  type: "ReLU"
  bottom: "conv2"
  top: "conv2"
}
layer {
  name: "pool2"
  type: "Pooling"
  bottom: "conv2"
  top: "pool2"
  pooling_param {
    pool: MAX
    kernel_h: 2
    kernel_w: 1
    stride_h: 2
    stride_w: 1
  }
}
layer {
  name: "conv3"
  type: "Convolution"
  bottom: "pool2"
  top: "conv3"
  convolution_param {
    num_output: 28
    pad: 0
    stride: 1
    weight_filler {
      type: "xavier"
    }
    bias_filler {
      type: "constant"
    }
    kernel_h: 6
    kernel_w: 3
  }
}
layer {
  name: "relu3"
  type: "ReLU"
  bottom: "conv3"
  top: "conv3"
}
layer {
  name: "pool3"
  type: "Pooling"
  bottom: "conv3"
  top: "pool3"
  pooling_param {
    pool: MAX
    kernel_h: 2
    kernel_w: 1
    stride_h: 2
    stride_w: 1
  }
}
layer {
  name: "conv4"
  type: "Convolution"
  bottom: "pool3"
  top: "conv4"
  convolution_param {
    num_output: 36
    pad: 0
    stride: 1
    weight_filler {
      type: "xavier"
    }
    bias_filler {
      type: "constant"
    }
    kernel_h: 6
    kernel_w: 3
  }
}
layer {
  name: "relu4"
  type: "ReLU"
  bottom: "conv4"
  top: "conv4"
}
layer {
  name: "pool4"
  type: "Pooling"
  bottom: "conv4"
  top: "pool4"
  pooling_param {
    pool: MAX
    kernel_h: 2
    kernel_w: 1
    stride_h: 2
    stride_w: 1
  }
}
layer {
  name: "ip1"
  type: "InnerProduct"
  bottom: "pool4"
  top: "ip1"
  inner_product_param {
    num_output: 196
    weight_filler {
      type: "xavier"
    }
    bias_filler {
      type: "constant"
    }
  }
}
layer {
  name: "relu5"
  type: "ReLU"
  bottom: "ip1"
  top: "ip1"
}
layer {
  name: "drop1"
  type: "Dropout"
  bottom: "ip1"
  top: "ip1"
  dropout_param {
    dropout_ratio: 0.5
  }
}
layer {
  name: "ip2"
  type: "InnerProduct"
  bottom: "ip1"
  top: "ip2"
  inner_product_param {
    num_output: 98
    weight_filler {
      type: "xavier"
    }
    bias_filler {
      type: "constant"
    }
  }
}
layer {
  name: "relu6"
  type: "ReLU"
  bottom: "ip2"
  top: "ip2"
}
layer {
  name: "drop2"
  type: "Dropout"
  bottom: "ip2"
  top: "ip2"
  dropout_param {
    dropout_ratio: 0.5
  }
}
layer {
  name: "ip3"
  type: "InnerProduct"
  bottom: "ip2"
  top: "ip3"
  inner_product_param {
    num_output: 11
    weight_filler {
      type: "xavier"
    }
    bias_filler {
      type: "constant"
    }
  }
}
layer {
  name: "drop3"
  type: "Dropout"
  bottom: "ip3"
  top: "ip3"
  dropout_param {
    dropout_ratio: 0.5
  }
}
layer {
  name: "loss"
  type: "SoftmaxWithLoss"
  bottom: "ip3"
  bottom: "label"
  top: "loss"
}
I0520 13:44:00.122575 27950 layer_factory.hpp:77] Creating layer data_hdf5
I0520 13:44:00.122601 27950 net.cpp:106] Creating Layer data_hdf5
I0520 13:44:00.122622 27950 net.cpp:411] data_hdf5 -> data
I0520 13:44:00.122661 27950 net.cpp:411] data_hdf5 -> label
I0520 13:44:00.122697 27950 hdf5_data_layer.cpp:79] Loading list of HDF5 filenames from: /lustre/atlas/proj-shared/hep105/caffe_titan/minosmatch_nukecczdefs_127x50_x_unshifted_me1Bmc.trainlist
I0520 13:44:00.123993 27950 hdf5_data_layer.cpp:93] Number of HDF5 files: 15
I0520 13:44:00.148057 27950 hdf5.cpp:32] Datatype class: H5T_FLOAT
I0520 13:44:21.689574 27950 hdf5.cpp:35] Datatype class: H5T_INTEGER
I0520 13:44:21.694874 27950 net.cpp:150] Setting up data_hdf5
I0520 13:44:21.694914 27950 net.cpp:157] Top shape: 90 1 127 50 (571500)
I0520 13:44:21.694931 27950 net.cpp:157] Top shape: 90 (90)
I0520 13:44:21.694944 27950 net.cpp:165] Memory required for data: 2286360
I0520 13:44:21.694963 27950 layer_factory.hpp:77] Creating layer conv1
I0520 13:44:21.695009 27950 net.cpp:106] Creating Layer conv1
I0520 13:44:21.695024 27950 net.cpp:454] conv1 <- data
I0520 13:44:21.695049 27950 net.cpp:411] conv1 -> conv1
I0520 13:44:24.150408 27950 net.cpp:150] Setting up conv1
I0520 13:44:24.150462 27950 net.cpp:157] Top shape: 90 12 120 48 (6220800)
I0520 13:44:24.150486 27950 net.cpp:165] Memory required for data: 27169560
I0520 13:44:24.150516 27950 layer_factory.hpp:77] Creating layer relu1
I0520 13:44:24.150538 27950 net.cpp:106] Creating Layer relu1
I0520 13:44:24.150559 27950 net.cpp:454] relu1 <- conv1
I0520 13:44:24.150595 27950 net.cpp:397] relu1 -> conv1 (in-place)
I0520 13:44:24.151124 27950 net.cpp:150] Setting up relu1
I0520 13:44:24.151149 27950 net.cpp:157] Top shape: 90 12 120 48 (6220800)
I0520 13:44:24.151161 27950 net.cpp:165] Memory required for data: 52052760
I0520 13:44:24.151177 27950 layer_factory.hpp:77] Creating layer pool1
I0520 13:44:24.151206 27950 net.cpp:106] Creating Layer pool1
I0520 13:44:24.151218 27950 net.cpp:454] pool1 <- conv1
I0520 13:44:24.151234 27950 net.cpp:411] pool1 -> pool1
I0520 13:44:24.151329 27950 net.cpp:150] Setting up pool1
I0520 13:44:24.151347 27950 net.cpp:157] Top shape: 90 12 60 48 (3110400)
I0520 13:44:24.151368 27950 net.cpp:165] Memory required for data: 64494360
I0520 13:44:24.151382 27950 layer_factory.hpp:77] Creating layer conv2
I0520 13:44:24.151407 27950 net.cpp:106] Creating Layer conv2
I0520 13:44:24.151420 27950 net.cpp:454] conv2 <- pool1
I0520 13:44:24.151438 27950 net.cpp:411] conv2 -> conv2
I0520 13:44:24.154202 27950 net.cpp:150] Setting up conv2
I0520 13:44:24.154237 27950 net.cpp:157] Top shape: 90 20 54 46 (4471200)
I0520 13:44:24.154250 27950 net.cpp:165] Memory required for data: 82379160
I0520 13:44:24.154278 27950 layer_factory.hpp:77] Creating layer relu2
I0520 13:44:24.154295 27950 net.cpp:106] Creating Layer relu2
I0520 13:44:24.154320 27950 net.cpp:454] relu2 <- conv2
I0520 13:44:24.154336 27950 net.cpp:397] relu2 -> conv2 (in-place)
I0520 13:44:24.154697 27950 net.cpp:150] Setting up relu2
I0520 13:44:24.154717 27950 net.cpp:157] Top shape: 90 20 54 46 (4471200)
I0520 13:44:24.154731 27950 net.cpp:165] Memory required for data: 100263960
I0520 13:44:24.154745 27950 layer_factory.hpp:77] Creating layer pool2
I0520 13:44:24.154769 27950 net.cpp:106] Creating Layer pool2
I0520 13:44:24.154783 27950 net.cpp:454] pool2 <- conv2
I0520 13:44:24.154817 27950 net.cpp:411] pool2 -> pool2
I0520 13:44:24.154902 27950 net.cpp:150] Setting up pool2
I0520 13:44:24.154919 27950 net.cpp:157] Top shape: 90 20 27 46 (2235600)
I0520 13:44:24.154934 27950 net.cpp:165] Memory required for data: 109206360
I0520 13:44:24.154947 27950 layer_factory.hpp:77] Creating layer conv3
I0520 13:44:24.154974 27950 net.cpp:106] Creating Layer conv3
I0520 13:44:24.154988 27950 net.cpp:454] conv3 <- pool2
I0520 13:44:24.155004 27950 net.cpp:411] conv3 -> conv3
I0520 13:44:24.156965 27950 net.cpp:150] Setting up conv3
I0520 13:44:24.156988 27950 net.cpp:157] Top shape: 90 28 22 44 (2439360)
I0520 13:44:24.157009 27950 net.cpp:165] Memory required for data: 118963800
I0520 13:44:24.157032 27950 layer_factory.hpp:77] Creating layer relu3
I0520 13:44:24.157054 27950 net.cpp:106] Creating Layer relu3
I0520 13:44:24.157076 27950 net.cpp:454] relu3 <- conv3
I0520 13:44:24.157093 27950 net.cpp:397] relu3 -> conv3 (in-place)
I0520 13:44:24.157598 27950 net.cpp:150] Setting up relu3
I0520 13:44:24.157621 27950 net.cpp:157] Top shape: 90 28 22 44 (2439360)
I0520 13:44:24.157635 27950 net.cpp:165] Memory required for data: 128721240
I0520 13:44:24.157651 27950 layer_factory.hpp:77] Creating layer pool3
I0520 13:44:24.157675 27950 net.cpp:106] Creating Layer pool3
I0520 13:44:24.157688 27950 net.cpp:454] pool3 <- conv3
I0520 13:44:24.157704 27950 net.cpp:411] pool3 -> pool3
I0520 13:44:24.157788 27950 net.cpp:150] Setting up pool3
I0520 13:44:24.157805 27950 net.cpp:157] Top shape: 90 28 11 44 (1219680)
I0520 13:44:24.157820 27950 net.cpp:165] Memory required for data: 133599960
I0520 13:44:24.157832 27950 layer_factory.hpp:77] Creating layer conv4
I0520 13:44:24.157860 27950 net.cpp:106] Creating Layer conv4
I0520 13:44:24.157872 27950 net.cpp:454] conv4 <- pool3
I0520 13:44:24.157889 27950 net.cpp:411] conv4 -> conv4
I0520 13:44:24.160902 27950 net.cpp:150] Setting up conv4
I0520 13:44:24.160933 27950 net.cpp:157] Top shape: 90 36 6 42 (816480)
I0520 13:44:24.160948 27950 net.cpp:165] Memory required for data: 136865880
I0520 13:44:24.160966 27950 layer_factory.hpp:77] Creating layer relu4
I0520 13:44:24.160989 27950 net.cpp:106] Creating Layer relu4
I0520 13:44:24.161015 27950 net.cpp:454] relu4 <- conv4
I0520 13:44:24.161031 27950 net.cpp:397] relu4 -> conv4 (in-place)
I0520 13:44:24.161537 27950 net.cpp:150] Setting up relu4
I0520 13:44:24.161561 27950 net.cpp:157] Top shape: 90 36 6 42 (816480)
I0520 13:44:24.161573 27950 net.cpp:165] Memory required for data: 140131800
I0520 13:44:24.161590 27950 layer_factory.hpp:77] Creating layer pool4
I0520 13:44:24.161605 27950 net.cpp:106] Creating Layer pool4
I0520 13:44:24.161628 27950 net.cpp:454] pool4 <- conv4
I0520 13:44:24.161643 27950 net.cpp:411] pool4 -> pool4
I0520 13:44:24.161727 27950 net.cpp:150] Setting up pool4
I0520 13:44:24.161751 27950 net.cpp:157] Top shape: 90 36 3 42 (408240)
I0520 13:44:24.161762 27950 net.cpp:165] Memory required for data: 141764760
I0520 13:44:24.161777 27950 layer_factory.hpp:77] Creating layer ip1
I0520 13:44:24.161798 27950 net.cpp:106] Creating Layer ip1
I0520 13:44:24.161818 27950 net.cpp:454] ip1 <- pool4
I0520 13:44:24.161834 27950 net.cpp:411] ip1 -> ip1
I0520 13:44:24.177289 27950 net.cpp:150] Setting up ip1
I0520 13:44:24.177320 27950 net.cpp:157] Top shape: 90 196 (17640)
I0520 13:44:24.177342 27950 net.cpp:165] Memory required for data: 141835320
I0520 13:44:24.177368 27950 layer_factory.hpp:77] Creating layer relu5
I0520 13:44:24.177389 27950 net.cpp:106] Creating Layer relu5
I0520 13:44:24.177414 27950 net.cpp:454] relu5 <- ip1
I0520 13:44:24.177433 27950 net.cpp:397] relu5 -> ip1 (in-place)
I0520 13:44:24.177786 27950 net.cpp:150] Setting up relu5
I0520 13:44:24.177806 27950 net.cpp:157] Top shape: 90 196 (17640)
I0520 13:44:24.177819 27950 net.cpp:165] Memory required for data: 141905880
I0520 13:44:24.177834 27950 layer_factory.hpp:77] Creating layer drop1
I0520 13:44:24.177865 27950 net.cpp:106] Creating Layer drop1
I0520 13:44:24.177880 27950 net.cpp:454] drop1 <- ip1
I0520 13:44:24.177894 27950 net.cpp:397] drop1 -> ip1 (in-place)
I0520 13:44:24.177968 27950 net.cpp:150] Setting up drop1
I0520 13:44:24.177984 27950 net.cpp:157] Top shape: 90 196 (17640)
I0520 13:44:24.177996 27950 net.cpp:165] Memory required for data: 141976440
I0520 13:44:24.178011 27950 layer_factory.hpp:77] Creating layer ip2
I0520 13:44:24.178032 27950 net.cpp:106] Creating Layer ip2
I0520 13:44:24.178052 27950 net.cpp:454] ip2 <- ip1
I0520 13:44:24.178077 27950 net.cpp:411] ip2 -> ip2
I0520 13:44:24.178565 27950 net.cpp:150] Setting up ip2
I0520 13:44:24.178583 27950 net.cpp:157] Top shape: 90 98 (8820)
I0520 13:44:24.178596 27950 net.cpp:165] Memory required for data: 142011720
I0520 13:44:24.178617 27950 layer_factory.hpp:77] Creating layer relu6
I0520 13:44:24.178639 27950 net.cpp:106] Creating Layer relu6
I0520 13:44:24.178653 27950 net.cpp:454] relu6 <- ip2
I0520 13:44:24.178668 27950 net.cpp:397] relu6 -> ip2 (in-place)
I0520 13:44:24.179219 27950 net.cpp:150] Setting up relu6
I0520 13:44:24.179242 27950 net.cpp:157] Top shape: 90 98 (8820)
I0520 13:44:24.179256 27950 net.cpp:165] Memory required for data: 142047000
I0520 13:44:24.179271 27950 layer_factory.hpp:77] Creating layer drop2
I0520 13:44:24.179294 27950 net.cpp:106] Creating Layer drop2
I0520 13:44:24.179308 27950 net.cpp:454] drop2 <- ip2
I0520 13:44:24.179324 27950 net.cpp:397] drop2 -> ip2 (in-place)
I0520 13:44:24.179379 27950 net.cpp:150] Setting up drop2
I0520 13:44:24.179395 27950 net.cpp:157] Top shape: 90 98 (8820)
I0520 13:44:24.179409 27950 net.cpp:165] Memory required for data: 142082280
I0520 13:44:24.179422 27950 layer_factory.hpp:77] Creating layer ip3
I0520 13:44:24.179438 27950 net.cpp:106] Creating Layer ip3
I0520 13:44:24.179453 27950 net.cpp:454] ip3 <- ip2
I0520 13:44:24.179474 27950 net.cpp:411] ip3 -> ip3
I0520 13:44:24.179698 27950 net.cpp:150] Setting up ip3
I0520 13:44:24.179718 27950 net.cpp:157] Top shape: 90 11 (990)
I0520 13:44:24.179730 27950 net.cpp:165] Memory required for data: 142086240
I0520 13:44:24.179751 27950 layer_factory.hpp:77] Creating layer drop3
I0520 13:44:24.179774 27950 net.cpp:106] Creating Layer drop3
I0520 13:44:24.179786 27950 net.cpp:454] drop3 <- ip3
I0520 13:44:24.179801 27950 net.cpp:397] drop3 -> ip3 (in-place)
I0520 13:44:24.179847 27950 net.cpp:150] Setting up drop3
I0520 13:44:24.179870 27950 net.cpp:157] Top shape: 90 11 (990)
I0520 13:44:24.179883 27950 net.cpp:165] Memory required for data: 142090200
I0520 13:44:24.179901 27950 layer_factory.hpp:77] Creating layer loss
I0520 13:44:24.179924 27950 net.cpp:106] Creating Layer loss
I0520 13:44:24.179939 27950 net.cpp:454] loss <- ip3
I0520 13:44:24.179960 27950 net.cpp:454] loss <- label
I0520 13:44:24.179975 27950 net.cpp:411] loss -> loss
I0520 13:44:24.179994 27950 layer_factory.hpp:77] Creating layer loss
…
I0520 13:44:24.182772 27950 solver.cpp:181] Creating test net (#0) specified by net file: /lustre/atlas/proj-shared/hep105/caffe_titan/caffe_workflow/logs_batch_size_test/batch_size_90_2016-05-20T11.20.35.954143.prototxt
I0520 13:44:24.182852 27950 net.cpp:322] The NetState phase (1) differed from the phase (0) specified by a rule in layer data_hdf5
I0520 13:44:24.183228 27950 net.cpp:49] Initializing net from parameters: 
name: "caffe_test_127x50_x_unshifted"
state {
  phase: TEST
}
layer {
  name: "data_hdf5"
  type: "HDF5Data"
  top: "data"
  top: "label"
  include {
    phase: TEST
  }
  hdf5_data_param {
    source: "/lustre/atlas/proj-shared/hep105/caffe_titan/minosmatch_nukecczdefs_127x50_x_unshifted_me1Bmc.testlist"
    batch_size: 90
  }
}
layer {
  name: "conv1"
  type: "Convolution"
  bottom: "data"
  top: "conv1"
  convolution_param {
    num_output: 12
    pad: 0
    stride: 1
    weight_filler {
      type: "xavier"
    }
    bias_filler {
      type: "constant"
    }
    kernel_h: 8
    kernel_w: 3
  }
}
layer {
  name: "relu1"
  type: "ReLU"
  bottom: "conv1"
  top: "conv1"
}
layer {
  name: "pool1"
  type: "Pooling"
  bottom: "conv1"
  top: "pool1"
  pooling_param {
    pool: MAX
    kernel_h: 2
    kernel_w: 1
    stride_h: 2
    stride_w: 1
  }
}
layer {
  name: "conv2"
  type: "Convolution"
  bottom: "pool1"
  top: "conv2"
  convolution_param {
    num_output: 20
    pad: 0
    stride: 1
    weight_filler {
      type: "xavier"
    }
    bias_filler {
      type: "constant"
    }
    kernel_h: 7
    kernel_w: 3
  }
}
layer {
  name: "relu2"
  type: "ReLU"
  bottom: "conv2"
  top: "conv2"
}
layer {
  name: "pool2"
  type: "Pooling"
  bottom: "conv2"
  top: "pool2"
  pooling_param {
    pool: MAX
    kernel_h: 2
    kernel_w: 1
    stride_h: 2
    stride_w: 1
  }
}
layer {
  name: "conv3"
  type: "Convolution"
  bottom: "pool2"
  top: "conv3"
  convolution_param {
    num_output: 28
    pad: 0
    stride: 1
    weight_filler {
      type: "xavier"
    }
    bias_filler {
      type: "constant"
    }
    kernel_h: 6
    kernel_w: 3
  }
}
layer {
  name: "relu3"
  type: "ReLU"
  bottom: "conv3"
  top: "conv3"
}
layer {
  name: "pool3"
  type: "Pooling"
  bottom: "conv3"
  top: "pool3"
  pooling_param {
    pool: MAX
    kernel_h: 2
    kernel_w: 1
    stride_h: 2
    stride_w: 1
  }
}
layer {
  name: "conv4"
  type: "Convolution"
  bottom: "pool3"
  top: "conv4"
  convolution_param {
    num_output: 36
    pad: 0
    stride: 1
    weight_filler {
      type: "xavier"
    }
    bias_filler {
      type: "constant"
    }
    kernel_h: 6
    kernel_w: 3
  }
}
layer {
  name: "relu4"
  type: "ReLU"
  bottom: "conv4"
  top: "conv4"
}
layer {
  name: "pool4"
  type: "Pooling"
  bottom: "conv4"
  top: "pool4"
  pooling_param {
    pool: MAX
    kernel_h: 2
    kernel_w: 1
    stride_h: 2
    stride_w: 1
  }
}
layer {
  name: "ip1"
  type: "InnerProduct"
  bottom: "pool4"
  top: "ip1"
  inner_product_param {
    num_output: 196
    weight_filler {
      type: "xavier"
    }
    bias_filler {
      type: "constant"
    }
  }
}
layer {
  name: "relu5"
  type: "ReLU"
  bottom: "ip1"
  top: "ip1"
}
layer {
  name: "drop1"
  type: "Dropout"
  bottom: "ip1"
  top: "ip1"
  dropout_param {
    dropout_ratio: 0.5
  }
}
layer {
  name: "ip2"
  type: "InnerProduct"
  bottom: "ip1"
  top: "ip2"
  inner_product_param {
    num_output: 98
    weight_filler {
      type: "xavier"
    }
    bias_filler {
      type: "constant"
    }
  }
}
layer {
  name: "relu6"
  type: "ReLU"
  bottom: "ip2"
  top: "ip2"
}
layer {
  name: "drop2"
  type: "Dropout"
  bottom: "ip2"
  top: "ip2"
  dropout_param {
    dropout_ratio: 0.5
  }
}
layer {
  name: "ip3"
  type: "InnerProduct"
  bottom: "ip2"
  top: "ip3"
  inner_product_param {
    num_output: 11
    weight_filler {
      type: "xavier"
    }
    bias_filler {
      type: "constant"
    }
  }
}
layer {
  name: "drop3"
  type: "Dropout"
  bottom: "ip3"
  top: "ip3"
  dropout_param {
    dropout_ratio: 0.5
  }
}
layer {
  name: "accuracy"
  type: "Accuracy"
  bottom: "ip3"
  bottom: "label"
  top: "accuracy"
  include {
    phase: TEST
  }
}
layer {
  name: "loss"
  type: "SoftmaxWithLoss"
  bottom: "ip3"
  bottom: "label"
  top: "loss"
}
I0520 13:44:24.183450 27950 layer_factory.hpp:77] Creating layer data_hdf5
I0520 13:44:24.183470 27950 net.cpp:106] Creating Layer data_hdf5
I0520 13:44:24.183485 27950 net.cpp:411] data_hdf5 -> data
I0520 13:44:24.183506 27950 net.cpp:411] data_hdf5 -> label
I0520 13:44:24.183526 27950 hdf5_data_layer.cpp:79] Loading list of HDF5 filenames from: /lustre/atlas/proj-shared/hep105/caffe_titan/minosmatch_nukecczdefs_127x50_x_unshifted_me1Bmc.testlist
I0520 13:44:24.204542 27950 hdf5_data_layer.cpp:93] Number of HDF5 files: 3
I0520 13:44:45.525076 27950 net.cpp:150] Setting up data_hdf5
I0520 13:44:45.525260 27950 net.cpp:157] Top shape: 90 1 127 50 (571500)
I0520 13:44:45.525280 27950 net.cpp:157] Top shape: 90 (90)
I0520 13:44:45.525293 27950 net.cpp:165] Memory required for data: 2286360
I0520 13:44:45.525308 27950 layer_factory.hpp:77] Creating layer label_data_hdf5_1_split
I0520 13:44:45.525341 27950 net.cpp:106] Creating Layer label_data_hdf5_1_split
I0520 13:44:45.525354 27950 net.cpp:454] label_data_hdf5_1_split <- label
I0520 13:44:45.525372 27950 net.cpp:411] label_data_hdf5_1_split -> label_data_hdf5_1_split_0
I0520 13:44:45.525413 27950 net.cpp:411] label_data_hdf5_1_split -> label_data_hdf5_1_split_1
I0520 13:44:45.525496 27950 net.cpp:150] Setting up label_data_hdf5_1_split
I0520 13:44:45.525521 27950 net.cpp:157] Top shape: 90 (90)
I0520 13:44:45.525537 27950 net.cpp:157] Top shape: 90 (90)
I0520 13:44:45.525558 27950 net.cpp:165] Memory required for data: 2287080
I0520 13:44:45.525571 27950 layer_factory.hpp:77] Creating layer conv1
I0520 13:44:45.525599 27950 net.cpp:106] Creating Layer conv1
I0520 13:44:45.525617 27950 net.cpp:454] conv1 <- data
I0520 13:44:45.525635 27950 net.cpp:411] conv1 -> conv1
I0520 13:44:45.527608 27950 net.cpp:150] Setting up conv1
I0520 13:44:45.527634 27950 net.cpp:157] Top shape: 90 12 120 48 (6220800)
I0520 13:44:45.527654 27950 net.cpp:165] Memory required for data: 27170280
I0520 13:44:45.527678 27950 layer_factory.hpp:77] Creating layer relu1
I0520 13:44:45.527699 27950 net.cpp:106] Creating Layer relu1
I0520 13:44:45.527721 27950 net.cpp:454] relu1 <- conv1
I0520 13:44:45.527737 27950 net.cpp:397] relu1 -> conv1 (in-place)
I0520 13:44:45.528249 27950 net.cpp:150] Setting up relu1
I0520 13:44:45.528271 27950 net.cpp:157] Top shape: 90 12 120 48 (6220800)
I0520 13:44:45.528285 27950 net.cpp:165] Memory required for data: 52053480
I0520 13:44:45.528298 27950 layer_factory.hpp:77] Creating layer pool1
I0520 13:44:45.528328 27950 net.cpp:106] Creating Layer pool1
I0520 13:44:45.528342 27950 net.cpp:454] pool1 <- conv1
I0520 13:44:45.528357 27950 net.cpp:411] pool1 -> pool1
I0520 13:44:45.528446 27950 net.cpp:150] Setting up pool1
I0520 13:44:45.528465 27950 net.cpp:157] Top shape: 90 12 60 48 (3110400)
I0520 13:44:45.528478 27950 net.cpp:165] Memory required for data: 64495080
I0520 13:44:45.528497 27950 layer_factory.hpp:77] Creating layer conv2
I0520 13:44:45.528517 27950 net.cpp:106] Creating Layer conv2
I0520 13:44:45.528530 27950 net.cpp:454] conv2 <- pool1
I0520 13:44:45.528548 27950 net.cpp:411] conv2 -> conv2
I0520 13:44:45.530506 27950 net.cpp:150] Setting up conv2
I0520 13:44:45.530530 27950 net.cpp:157] Top shape: 90 20 54 46 (4471200)
I0520 13:44:45.530551 27950 net.cpp:165] Memory required for data: 82379880
I0520 13:44:45.530573 27950 layer_factory.hpp:77] Creating layer relu2
I0520 13:44:45.530592 27950 net.cpp:106] Creating Layer relu2
I0520 13:44:45.530614 27950 net.cpp:454] relu2 <- conv2
I0520 13:44:45.530630 27950 net.cpp:397] relu2 -> conv2 (in-place)
I0520 13:44:45.530979 27950 net.cpp:150] Setting up relu2
I0520 13:44:45.530999 27950 net.cpp:157] Top shape: 90 20 54 46 (4471200)
I0520 13:44:45.531011 27950 net.cpp:165] Memory required for data: 100264680
I0520 13:44:45.531026 27950 layer_factory.hpp:77] Creating layer pool2
I0520 13:44:45.531044 27950 net.cpp:106] Creating Layer pool2
I0520 13:44:45.531064 27950 net.cpp:454] pool2 <- conv2
I0520 13:44:45.531080 27950 net.cpp:411] pool2 -> pool2
I0520 13:44:45.531168 27950 net.cpp:150] Setting up pool2
I0520 13:44:45.531185 27950 net.cpp:157] Top shape: 90 20 27 46 (2235600)
I0520 13:44:45.531199 27950 net.cpp:165] Memory required for data: 109207080
I0520 13:44:45.531219 27950 layer_factory.hpp:77] Creating layer conv3
I0520 13:44:45.531241 27950 net.cpp:106] Creating Layer conv3
I0520 13:44:45.531255 27950 net.cpp:454] conv3 <- pool2
I0520 13:44:45.531270 27950 net.cpp:411] conv3 -> conv3
I0520 13:44:45.533300 27950 net.cpp:150] Setting up conv3
I0520 13:44:45.533325 27950 net.cpp:157] Top shape: 90 28 22 44 (2439360)
I0520 13:44:45.533345 27950 net.cpp:165] Memory required for data: 118964520
I0520 13:44:45.533385 27950 layer_factory.hpp:77] Creating layer relu3
I0520 13:44:45.533409 27950 net.cpp:106] Creating Layer relu3
I0520 13:44:45.533423 27950 net.cpp:454] relu3 <- conv3
I0520 13:44:45.533439 27950 net.cpp:397] relu3 -> conv3 (in-place)
I0520 13:44:45.533944 27950 net.cpp:150] Setting up relu3
I0520 13:44:45.533967 27950 net.cpp:157] Top shape: 90 28 22 44 (2439360)
I0520 13:44:45.533982 27950 net.cpp:165] Memory required for data: 128721960
I0520 13:44:45.533996 27950 layer_factory.hpp:77] Creating layer pool3
I0520 13:44:45.534020 27950 net.cpp:106] Creating Layer pool3
I0520 13:44:45.534034 27950 net.cpp:454] pool3 <- conv3
I0520 13:44:45.534050 27950 net.cpp:411] pool3 -> pool3
I0520 13:44:45.534137 27950 net.cpp:150] Setting up pool3
I0520 13:44:45.534153 27950 net.cpp:157] Top shape: 90 28 11 44 (1219680)
I0520 13:44:45.534168 27950 net.cpp:165] Memory required for data: 133600680
I0520 13:44:45.534180 27950 layer_factory.hpp:77] Creating layer conv4
I0520 13:44:45.534209 27950 net.cpp:106] Creating Layer conv4
I0520 13:44:45.534221 27950 net.cpp:454] conv4 <- pool3
I0520 13:44:45.534238 27950 net.cpp:411] conv4 -> conv4
I0520 13:44:45.536348 27950 net.cpp:150] Setting up conv4
I0520 13:44:45.536372 27950 net.cpp:157] Top shape: 90 36 6 42 (816480)
I0520 13:44:45.536393 27950 net.cpp:165] Memory required for data: 136866600
I0520 13:44:45.536412 27950 layer_factory.hpp:77] Creating layer relu4
I0520 13:44:45.536432 27950 net.cpp:106] Creating Layer relu4
I0520 13:44:45.536444 27950 net.cpp:454] relu4 <- conv4
I0520 13:44:45.536469 27950 net.cpp:397] relu4 -> conv4 (in-place)
I0520 13:44:45.536964 27950 net.cpp:150] Setting up relu4
I0520 13:44:45.536988 27950 net.cpp:157] Top shape: 90 36 6 42 (816480)
I0520 13:44:45.537000 27950 net.cpp:165] Memory required for data: 140132520
I0520 13:44:45.537016 27950 layer_factory.hpp:77] Creating layer pool4
I0520 13:44:45.537032 27950 net.cpp:106] Creating Layer pool4
I0520 13:44:45.537053 27950 net.cpp:454] pool4 <- conv4
I0520 13:44:45.537070 27950 net.cpp:411] pool4 -> pool4
I0520 13:44:45.537156 27950 net.cpp:150] Setting up pool4
I0520 13:44:45.537173 27950 net.cpp:157] Top shape: 90 36 3 42 (408240)
I0520 13:44:45.537189 27950 net.cpp:165] Memory required for data: 141765480
I0520 13:44:45.537207 27950 layer_factory.hpp:77] Creating layer ip1
I0520 13:44:45.537233 27950 net.cpp:106] Creating Layer ip1
I0520 13:44:45.537256 27950 net.cpp:454] ip1 <- pool4
I0520 13:44:45.537273 27950 net.cpp:411] ip1 -> ip1
I0520 13:44:45.552731 27950 net.cpp:150] Setting up ip1
I0520 13:44:45.552762 27950 net.cpp:157] Top shape: 90 196 (17640)
I0520 13:44:45.552784 27950 net.cpp:165] Memory required for data: 141836040
I0520 13:44:45.552810 27950 layer_factory.hpp:77] Creating layer relu5
I0520 13:44:45.552832 27950 net.cpp:106] Creating Layer relu5
I0520 13:44:45.552857 27950 net.cpp:454] relu5 <- ip1
I0520 13:44:45.552875 27950 net.cpp:397] relu5 -> ip1 (in-place)
I0520 13:44:45.553247 27950 net.cpp:150] Setting up relu5
I0520 13:44:45.553267 27950 net.cpp:157] Top shape: 90 196 (17640)
I0520 13:44:45.553280 27950 net.cpp:165] Memory required for data: 141906600
I0520 13:44:45.553292 27950 layer_factory.hpp:77] Creating layer drop1
I0520 13:44:45.553323 27950 net.cpp:106] Creating Layer drop1
I0520 13:44:45.553339 27950 net.cpp:454] drop1 <- ip1
I0520 13:44:45.553355 27950 net.cpp:397] drop1 -> ip1 (in-place)
I0520 13:44:45.553416 27950 net.cpp:150] Setting up drop1
I0520 13:44:45.553432 27950 net.cpp:157] Top shape: 90 196 (17640)
I0520 13:44:45.553444 27950 net.cpp:165] Memory required for data: 141977160
I0520 13:44:45.553458 27950 layer_factory.hpp:77] Creating layer ip2
I0520 13:44:45.553478 27950 net.cpp:106] Creating Layer ip2
I0520 13:44:45.553493 27950 net.cpp:454] ip2 <- ip1
I0520 13:44:45.553516 27950 net.cpp:411] ip2 -> ip2
I0520 13:44:45.554009 27950 net.cpp:150] Setting up ip2
I0520 13:44:45.554029 27950 net.cpp:157] Top shape: 90 98 (8820)
I0520 13:44:45.554041 27950 net.cpp:165] Memory required for data: 142012440
I0520 13:44:45.554064 27950 layer_factory.hpp:77] Creating layer relu6
I0520 13:44:45.554100 27950 net.cpp:106] Creating Layer relu6
I0520 13:44:45.554113 27950 net.cpp:454] relu6 <- ip2
I0520 13:44:45.554128 27950 net.cpp:397] relu6 -> ip2 (in-place)
I0520 13:44:45.554697 27950 net.cpp:150] Setting up relu6
I0520 13:44:45.554721 27950 net.cpp:157] Top shape: 90 98 (8820)
I0520 13:44:45.554735 27950 net.cpp:165] Memory required for data: 142047720
I0520 13:44:45.554749 27950 layer_factory.hpp:77] Creating layer drop2
I0520 13:44:45.554767 27950 net.cpp:106] Creating Layer drop2
I0520 13:44:45.554788 27950 net.cpp:454] drop2 <- ip2
I0520 13:44:45.554806 27950 net.cpp:397] drop2 -> ip2 (in-place)
I0520 13:44:45.554864 27950 net.cpp:150] Setting up drop2
I0520 13:44:45.554880 27950 net.cpp:157] Top shape: 90 98 (8820)
I0520 13:44:45.554893 27950 net.cpp:165] Memory required for data: 142083000
I0520 13:44:45.554913 27950 layer_factory.hpp:77] Creating layer ip3
I0520 13:44:45.554932 27950 net.cpp:106] Creating Layer ip3
I0520 13:44:45.554944 27950 net.cpp:454] ip3 <- ip2
I0520 13:44:45.554963 27950 net.cpp:411] ip3 -> ip3
I0520 13:44:45.555207 27950 net.cpp:150] Setting up ip3
I0520 13:44:45.555225 27950 net.cpp:157] Top shape: 90 11 (990)
I0520 13:44:45.555238 27950 net.cpp:165] Memory required for data: 142086960
I0520 13:44:45.555259 27950 layer_factory.hpp:77] Creating layer drop3
I0520 13:44:45.555282 27950 net.cpp:106] Creating Layer drop3
I0520 13:44:45.555295 27950 net.cpp:454] drop3 <- ip3
I0520 13:44:45.555310 27950 net.cpp:397] drop3 -> ip3 (in-place)
I0520 13:44:45.555358 27950 net.cpp:150] Setting up drop3
I0520 13:44:45.555382 27950 net.cpp:157] Top shape: 90 11 (990)
I0520 13:44:45.555393 27950 net.cpp:165] Memory required for data: 142090920
I0520 13:44:45.555411 27950 layer_factory.hpp:77] Creating layer ip3_drop3_0_split
I0520 13:44:45.555428 27950 net.cpp:106] Creating Layer ip3_drop3_0_split
I0520 13:44:45.555440 27950 net.cpp:454] ip3_drop3_0_split <- ip3
I0520 13:44:45.555459 27950 net.cpp:411] ip3_drop3_0_split -> ip3_drop3_0_split_0
I0520 13:44:45.555485 27950 net.cpp:411] ip3_drop3_0_split -> ip3_drop3_0_split_1
I0520 13:44:45.555564 27950 net.cpp:150] Setting up ip3_drop3_0_split
I0520 13:44:45.555588 27950 net.cpp:157] Top shape: 90 11 (990)
I0520 13:44:45.555604 27950 net.cpp:157] Top shape: 90 11 (990)
I0520 13:44:45.555616 27950 net.cpp:165] Memory required for data: 142098840
I0520 13:44:45.555631 27950 layer_factory.hpp:77] Creating layer accuracy
I0520 13:44:45.555654 27950 net.cpp:106] Creating Layer accuracy
I0520 13:44:45.555666 27950 net.cpp:454] accuracy <- ip3_drop3_0_split_0
I0520 13:44:45.555691 27950 net.cpp:454] accuracy <- label_data_hdf5_1_split_0
I0520 13:44:45.555707 27950 net.cpp:411] accuracy -> accuracy
…
