…
I0521 07:50:11.081960 17623 net.cpp:322] The NetState phase (0) differed from the phase (1) specified by a rule in layer data_hdf5
I0521 07:50:11.082020 17623 net.cpp:322] The NetState phase (0) differed from the phase (1) specified by a rule in layer accuracy
I0521 07:50:11.082367 17623 net.cpp:49] Initializing net from parameters: 
name: "caffe_test_127x50_x_unshifted"
state {
  phase: TRAIN
}
layer {
  name: "data_hdf5"
  type: "HDF5Data"
  top: "data"
  top: "label"
  include {
    phase: TRAIN
  }
  hdf5_data_param {
    source: "/lustre/atlas/proj-shared/hep105/caffe_titan/minosmatch_nukecczdefs_127x50_x_unshifted_me1Bmc.trainlist"
    batch_size: 820
  }
}
layer {
  name: "conv1"
  type: "Convolution"
  bottom: "data"
  top: "conv1"
  convolution_param {
    num_output: 12
    pad: 0
    stride: 1
    weight_filler {
      type: "xavier"
    }
    bias_filler {
      type: "constant"
    }
    kernel_h: 8
    kernel_w: 3
  }
}
layer {
  name: "relu1"
  type: "ReLU"
  bottom: "conv1"
  top: "conv1"
}
layer {
  name: "pool1"
  type: "Pooling"
  bottom: "conv1"
  top: "pool1"
  pooling_param {
    pool: MAX
    kernel_h: 2
    kernel_w: 1
    stride_h: 2
    stride_w: 1
  }
}
layer {
  name: "conv2"
  type: "Convolution"
  bottom: "pool1"
  top: "conv2"
  convolution_param {
    num_output: 20
    pad: 0
    stride: 1
    weight_filler {
      type: "xavier"
    }
    bias_filler {
      type: "constant"
    }
    kernel_h: 7
    kernel_w: 3
  }
}
layer {
  name: "relu2"
  type: "ReLU"
  bottom: "conv2"
  top: "conv2"
}
layer {
  name: "pool2"
  type: "Pooling"
  bottom: "conv2"
  top: "pool2"
  pooling_param {
    pool: MAX
    kernel_h: 2
    kernel_w: 1
    stride_h: 2
    stride_w: 1
  }
}
layer {
  name: "conv3"
  type: "Convolution"
  bottom: "pool2"
  top: "conv3"
  convolution_param {
    num_output: 28
    pad: 0
    stride: 1
    weight_filler {
      type: "xavier"
    }
    bias_filler {
      type: "constant"
    }
    kernel_h: 6
    kernel_w: 3
  }
}
layer {
  name: "relu3"
  type: "ReLU"
  bottom: "conv3"
  top: "conv3"
}
layer {
  name: "pool3"
  type: "Pooling"
  bottom: "conv3"
  top: "pool3"
  pooling_param {
    pool: MAX
    kernel_h: 2
    kernel_w: 1
    stride_h: 2
    stride_w: 1
  }
}
layer {
  name: "conv4"
  type: "Convolution"
  bottom: "pool3"
  top: "conv4"
  convolution_param {
    num_output: 36
    pad: 0
    stride: 1
    weight_filler {
      type: "xavier"
    }
    bias_filler {
      type: "constant"
    }
    kernel_h: 6
    kernel_w: 3
  }
}
layer {
  name: "relu4"
  type: "ReLU"
  bottom: "conv4"
  top: "conv4"
}
layer {
  name: "pool4"
  type: "Pooling"
  bottom: "conv4"
  top: "pool4"
  pooling_param {
    pool: MAX
    kernel_h: 2
    kernel_w: 1
    stride_h: 2
    stride_w: 1
  }
}
layer {
  name: "ip1"
  type: "InnerProduct"
  bottom: "pool4"
  top: "ip1"
  inner_product_param {
    num_output: 196
    weight_filler {
      type: "xavier"
    }
    bias_filler {
      type: "constant"
    }
  }
}
layer {
  name: "relu5"
  type: "ReLU"
  bottom: "ip1"
  top: "ip1"
}
layer {
  name: "drop1"
  type: "Dropout"
  bottom: "ip1"
  top: "ip1"
  dropout_param {
    dropout_ratio: 0.5
  }
}
layer {
  name: "ip2"
  type: "InnerProduct"
  bottom: "ip1"
  top: "ip2"
  inner_product_param {
    num_output: 98
    weight_filler {
      type: "xavier"
    }
    bias_filler {
      type: "constant"
    }
  }
}
layer {
  name: "relu6"
  type: "ReLU"
  bottom: "ip2"
  top: "ip2"
}
layer {
  name: "drop2"
  type: "Dropout"
  bottom: "ip2"
  top: "ip2"
  dropout_param {
    dropout_ratio: 0.5
  }
}
layer {
  name: "ip3"
  type: "InnerProduct"
  bottom: "ip2"
  top: "ip3"
  inner_product_param {
    num_output: 11
    weight_filler {
      type: "xavier"
    }
    bias_filler {
      type: "constant"
    }
  }
}
layer {
  name: "drop3"
  type: "Dropout"
  bottom: "ip3"
  top: "ip3"
  dropout_param {
    dropout_ratio: 0.5
  }
}
layer {
  name: "loss"
  type: "SoftmaxWithLoss"
  bottom: "ip3"
  bottom: "label"
  top: "loss"
}
I0521 07:50:11.082543 17623 layer_factory.hpp:77] Creating layer data_hdf5
I0521 07:50:11.082567 17623 net.cpp:106] Creating Layer data_hdf5
I0521 07:50:11.082582 17623 net.cpp:411] data_hdf5 -> data
I0521 07:50:11.082617 17623 net.cpp:411] data_hdf5 -> label
I0521 07:50:11.082648 17623 hdf5_data_layer.cpp:79] Loading list of HDF5 filenames from: /lustre/atlas/proj-shared/hep105/caffe_titan/minosmatch_nukecczdefs_127x50_x_unshifted_me1Bmc.trainlist
I0521 07:50:11.083968 17623 hdf5_data_layer.cpp:93] Number of HDF5 files: 15
I0521 07:50:11.086192 17623 hdf5.cpp:32] Datatype class: H5T_FLOAT
I0521 07:50:32.591505 17623 hdf5.cpp:35] Datatype class: H5T_INTEGER
I0521 07:50:32.596711 17623 net.cpp:150] Setting up data_hdf5
I0521 07:50:32.596752 17623 net.cpp:157] Top shape: 820 1 127 50 (5207000)
I0521 07:50:32.596766 17623 net.cpp:157] Top shape: 820 (820)
I0521 07:50:32.596778 17623 net.cpp:165] Memory required for data: 20831280
I0521 07:50:32.596792 17623 layer_factory.hpp:77] Creating layer conv1
I0521 07:50:32.596825 17623 net.cpp:106] Creating Layer conv1
I0521 07:50:32.596837 17623 net.cpp:454] conv1 <- data
I0521 07:50:32.596858 17623 net.cpp:411] conv1 -> conv1
I0521 07:50:33.629634 17623 net.cpp:150] Setting up conv1
I0521 07:50:33.629680 17623 net.cpp:157] Top shape: 820 12 120 48 (56678400)
I0521 07:50:33.629691 17623 net.cpp:165] Memory required for data: 247544880
I0521 07:50:33.629721 17623 layer_factory.hpp:77] Creating layer relu1
I0521 07:50:33.629744 17623 net.cpp:106] Creating Layer relu1
I0521 07:50:33.629755 17623 net.cpp:454] relu1 <- conv1
I0521 07:50:33.629767 17623 net.cpp:397] relu1 -> conv1 (in-place)
I0521 07:50:33.630290 17623 net.cpp:150] Setting up relu1
I0521 07:50:33.630306 17623 net.cpp:157] Top shape: 820 12 120 48 (56678400)
I0521 07:50:33.630317 17623 net.cpp:165] Memory required for data: 474258480
I0521 07:50:33.630327 17623 layer_factory.hpp:77] Creating layer pool1
I0521 07:50:33.630343 17623 net.cpp:106] Creating Layer pool1
I0521 07:50:33.630353 17623 net.cpp:454] pool1 <- conv1
I0521 07:50:33.630367 17623 net.cpp:411] pool1 -> pool1
I0521 07:50:33.630447 17623 net.cpp:150] Setting up pool1
I0521 07:50:33.630461 17623 net.cpp:157] Top shape: 820 12 60 48 (28339200)
I0521 07:50:33.630471 17623 net.cpp:165] Memory required for data: 587615280
I0521 07:50:33.630482 17623 layer_factory.hpp:77] Creating layer conv2
I0521 07:50:33.630504 17623 net.cpp:106] Creating Layer conv2
I0521 07:50:33.630514 17623 net.cpp:454] conv2 <- pool1
I0521 07:50:33.630527 17623 net.cpp:411] conv2 -> conv2
I0521 07:50:33.633195 17623 net.cpp:150] Setting up conv2
I0521 07:50:33.633224 17623 net.cpp:157] Top shape: 820 20 54 46 (40737600)
I0521 07:50:33.633234 17623 net.cpp:165] Memory required for data: 750565680
I0521 07:50:33.633252 17623 layer_factory.hpp:77] Creating layer relu2
I0521 07:50:33.633267 17623 net.cpp:106] Creating Layer relu2
I0521 07:50:33.633277 17623 net.cpp:454] relu2 <- conv2
I0521 07:50:33.633290 17623 net.cpp:397] relu2 -> conv2 (in-place)
I0521 07:50:33.633630 17623 net.cpp:150] Setting up relu2
I0521 07:50:33.633643 17623 net.cpp:157] Top shape: 820 20 54 46 (40737600)
I0521 07:50:33.633654 17623 net.cpp:165] Memory required for data: 913516080
I0521 07:50:33.633664 17623 layer_factory.hpp:77] Creating layer pool2
I0521 07:50:33.633677 17623 net.cpp:106] Creating Layer pool2
I0521 07:50:33.633687 17623 net.cpp:454] pool2 <- conv2
I0521 07:50:33.633711 17623 net.cpp:411] pool2 -> pool2
I0521 07:50:33.633780 17623 net.cpp:150] Setting up pool2
I0521 07:50:33.633793 17623 net.cpp:157] Top shape: 820 20 27 46 (20368800)
I0521 07:50:33.633802 17623 net.cpp:165] Memory required for data: 994991280
I0521 07:50:33.633812 17623 layer_factory.hpp:77] Creating layer conv3
I0521 07:50:33.633831 17623 net.cpp:106] Creating Layer conv3
I0521 07:50:33.633841 17623 net.cpp:454] conv3 <- pool2
I0521 07:50:33.633854 17623 net.cpp:411] conv3 -> conv3
I0521 07:50:33.635767 17623 net.cpp:150] Setting up conv3
I0521 07:50:33.635785 17623 net.cpp:157] Top shape: 820 28 22 44 (22225280)
I0521 07:50:33.635797 17623 net.cpp:165] Memory required for data: 1083892400
I0521 07:50:33.635814 17623 layer_factory.hpp:77] Creating layer relu3
I0521 07:50:33.635830 17623 net.cpp:106] Creating Layer relu3
I0521 07:50:33.635840 17623 net.cpp:454] relu3 <- conv3
I0521 07:50:33.635853 17623 net.cpp:397] relu3 -> conv3 (in-place)
I0521 07:50:33.636322 17623 net.cpp:150] Setting up relu3
I0521 07:50:33.636338 17623 net.cpp:157] Top shape: 820 28 22 44 (22225280)
I0521 07:50:33.636349 17623 net.cpp:165] Memory required for data: 1172793520
I0521 07:50:33.636359 17623 layer_factory.hpp:77] Creating layer pool3
I0521 07:50:33.636373 17623 net.cpp:106] Creating Layer pool3
I0521 07:50:33.636381 17623 net.cpp:454] pool3 <- conv3
I0521 07:50:33.636394 17623 net.cpp:411] pool3 -> pool3
I0521 07:50:33.636461 17623 net.cpp:150] Setting up pool3
I0521 07:50:33.636474 17623 net.cpp:157] Top shape: 820 28 11 44 (11112640)
I0521 07:50:33.636484 17623 net.cpp:165] Memory required for data: 1217244080
I0521 07:50:33.636493 17623 layer_factory.hpp:77] Creating layer conv4
I0521 07:50:33.636512 17623 net.cpp:106] Creating Layer conv4
I0521 07:50:33.636523 17623 net.cpp:454] conv4 <- pool3
I0521 07:50:33.636535 17623 net.cpp:411] conv4 -> conv4
I0521 07:50:33.639253 17623 net.cpp:150] Setting up conv4
I0521 07:50:33.639281 17623 net.cpp:157] Top shape: 820 36 6 42 (7439040)
I0521 07:50:33.639292 17623 net.cpp:165] Memory required for data: 1247000240
I0521 07:50:33.639307 17623 layer_factory.hpp:77] Creating layer relu4
I0521 07:50:33.639322 17623 net.cpp:106] Creating Layer relu4
I0521 07:50:33.639331 17623 net.cpp:454] relu4 <- conv4
I0521 07:50:33.639343 17623 net.cpp:397] relu4 -> conv4 (in-place)
I0521 07:50:33.639816 17623 net.cpp:150] Setting up relu4
I0521 07:50:33.639832 17623 net.cpp:157] Top shape: 820 36 6 42 (7439040)
I0521 07:50:33.639843 17623 net.cpp:165] Memory required for data: 1276756400
I0521 07:50:33.639853 17623 layer_factory.hpp:77] Creating layer pool4
I0521 07:50:33.639866 17623 net.cpp:106] Creating Layer pool4
I0521 07:50:33.639876 17623 net.cpp:454] pool4 <- conv4
I0521 07:50:33.639889 17623 net.cpp:411] pool4 -> pool4
I0521 07:50:33.639957 17623 net.cpp:150] Setting up pool4
I0521 07:50:33.639971 17623 net.cpp:157] Top shape: 820 36 3 42 (3719520)
I0521 07:50:33.639981 17623 net.cpp:165] Memory required for data: 1291634480
I0521 07:50:33.639991 17623 layer_factory.hpp:77] Creating layer ip1
I0521 07:50:33.640012 17623 net.cpp:106] Creating Layer ip1
I0521 07:50:33.640023 17623 net.cpp:454] ip1 <- pool4
I0521 07:50:33.640035 17623 net.cpp:411] ip1 -> ip1
I0521 07:50:33.655408 17623 net.cpp:150] Setting up ip1
I0521 07:50:33.655437 17623 net.cpp:157] Top shape: 820 196 (160720)
I0521 07:50:33.655450 17623 net.cpp:165] Memory required for data: 1292277360
I0521 07:50:33.655477 17623 layer_factory.hpp:77] Creating layer relu5
I0521 07:50:33.655490 17623 net.cpp:106] Creating Layer relu5
I0521 07:50:33.655500 17623 net.cpp:454] relu5 <- ip1
I0521 07:50:33.655514 17623 net.cpp:397] relu5 -> ip1 (in-place)
I0521 07:50:33.655855 17623 net.cpp:150] Setting up relu5
I0521 07:50:33.655869 17623 net.cpp:157] Top shape: 820 196 (160720)
I0521 07:50:33.655880 17623 net.cpp:165] Memory required for data: 1292920240
I0521 07:50:33.655890 17623 layer_factory.hpp:77] Creating layer drop1
I0521 07:50:33.655911 17623 net.cpp:106] Creating Layer drop1
I0521 07:50:33.655921 17623 net.cpp:454] drop1 <- ip1
I0521 07:50:33.655946 17623 net.cpp:397] drop1 -> ip1 (in-place)
I0521 07:50:33.655993 17623 net.cpp:150] Setting up drop1
I0521 07:50:33.656007 17623 net.cpp:157] Top shape: 820 196 (160720)
I0521 07:50:33.656015 17623 net.cpp:165] Memory required for data: 1293563120
I0521 07:50:33.656025 17623 layer_factory.hpp:77] Creating layer ip2
I0521 07:50:33.656044 17623 net.cpp:106] Creating Layer ip2
I0521 07:50:33.656054 17623 net.cpp:454] ip2 <- ip1
I0521 07:50:33.656067 17623 net.cpp:411] ip2 -> ip2
I0521 07:50:33.656530 17623 net.cpp:150] Setting up ip2
I0521 07:50:33.656543 17623 net.cpp:157] Top shape: 820 98 (80360)
I0521 07:50:33.656553 17623 net.cpp:165] Memory required for data: 1293884560
I0521 07:50:33.656569 17623 layer_factory.hpp:77] Creating layer relu6
I0521 07:50:33.656580 17623 net.cpp:106] Creating Layer relu6
I0521 07:50:33.656590 17623 net.cpp:454] relu6 <- ip2
I0521 07:50:33.656602 17623 net.cpp:397] relu6 -> ip2 (in-place)
I0521 07:50:33.657119 17623 net.cpp:150] Setting up relu6
I0521 07:50:33.657135 17623 net.cpp:157] Top shape: 820 98 (80360)
I0521 07:50:33.657145 17623 net.cpp:165] Memory required for data: 1294206000
I0521 07:50:33.657155 17623 layer_factory.hpp:77] Creating layer drop2
I0521 07:50:33.657167 17623 net.cpp:106] Creating Layer drop2
I0521 07:50:33.657178 17623 net.cpp:454] drop2 <- ip2
I0521 07:50:33.657191 17623 net.cpp:397] drop2 -> ip2 (in-place)
I0521 07:50:33.657232 17623 net.cpp:150] Setting up drop2
I0521 07:50:33.657245 17623 net.cpp:157] Top shape: 820 98 (80360)
I0521 07:50:33.657255 17623 net.cpp:165] Memory required for data: 1294527440
I0521 07:50:33.657265 17623 layer_factory.hpp:77] Creating layer ip3
I0521 07:50:33.657279 17623 net.cpp:106] Creating Layer ip3
I0521 07:50:33.657289 17623 net.cpp:454] ip3 <- ip2
I0521 07:50:33.657300 17623 net.cpp:411] ip3 -> ip3
I0521 07:50:33.657512 17623 net.cpp:150] Setting up ip3
I0521 07:50:33.657526 17623 net.cpp:157] Top shape: 820 11 (9020)
I0521 07:50:33.657536 17623 net.cpp:165] Memory required for data: 1294563520
I0521 07:50:33.657559 17623 layer_factory.hpp:77] Creating layer drop3
I0521 07:50:33.657572 17623 net.cpp:106] Creating Layer drop3
I0521 07:50:33.657582 17623 net.cpp:454] drop3 <- ip3
I0521 07:50:33.657593 17623 net.cpp:397] drop3 -> ip3 (in-place)
I0521 07:50:33.657634 17623 net.cpp:150] Setting up drop3
I0521 07:50:33.657647 17623 net.cpp:157] Top shape: 820 11 (9020)
I0521 07:50:33.657657 17623 net.cpp:165] Memory required for data: 1294599600
I0521 07:50:33.657667 17623 layer_factory.hpp:77] Creating layer loss
I0521 07:50:33.657686 17623 net.cpp:106] Creating Layer loss
I0521 07:50:33.657697 17623 net.cpp:454] loss <- ip3
I0521 07:50:33.657708 17623 net.cpp:454] loss <- label
I0521 07:50:33.657721 17623 net.cpp:411] loss -> loss
I0521 07:50:33.657738 17623 layer_factory.hpp:77] Creating layer loss
…
I0521 07:50:33.660398 17623 solver.cpp:181] Creating test net (#0) specified by net file: /lustre/atlas/proj-shared/hep105/caffe_titan/caffe_workflow/logs_batch_size_test/batch_size_820_2016-05-20T11.21.02.583407.prototxt
I0521 07:50:33.660470 17623 net.cpp:322] The NetState phase (1) differed from the phase (0) specified by a rule in layer data_hdf5
I0521 07:50:33.660825 17623 net.cpp:49] Initializing net from parameters: 
name: "caffe_test_127x50_x_unshifted"
state {
  phase: TEST
}
layer {
  name: "data_hdf5"
  type: "HDF5Data"
  top: "data"
  top: "label"
  include {
    phase: TEST
  }
  hdf5_data_param {
    source: "/lustre/atlas/proj-shared/hep105/caffe_titan/minosmatch_nukecczdefs_127x50_x_unshifted_me1Bmc.testlist"
    batch_size: 820
  }
}
layer {
  name: "conv1"
  type: "Convolution"
  bottom: "data"
  top: "conv1"
  convolution_param {
    num_output: 12
    pad: 0
    stride: 1
    weight_filler {
      type: "xavier"
    }
    bias_filler {
      type: "constant"
    }
    kernel_h: 8
    kernel_w: 3
  }
}
layer {
  name: "relu1"
  type: "ReLU"
  bottom: "conv1"
  top: "conv1"
}
layer {
  name: "pool1"
  type: "Pooling"
  bottom: "conv1"
  top: "pool1"
  pooling_param {
    pool: MAX
    kernel_h: 2
    kernel_w: 1
    stride_h: 2
    stride_w: 1
  }
}
layer {
  name: "conv2"
  type: "Convolution"
  bottom: "pool1"
  top: "conv2"
  convolution_param {
    num_output: 20
    pad: 0
    stride: 1
    weight_filler {
      type: "xavier"
    }
    bias_filler {
      type: "constant"
    }
    kernel_h: 7
    kernel_w: 3
  }
}
layer {
  name: "relu2"
  type: "ReLU"
  bottom: "conv2"
  top: "conv2"
}
layer {
  name: "pool2"
  type: "Pooling"
  bottom: "conv2"
  top: "pool2"
  pooling_param {
    pool: MAX
    kernel_h: 2
    kernel_w: 1
    stride_h: 2
    stride_w: 1
  }
}
layer {
  name: "conv3"
  type: "Convolution"
  bottom: "pool2"
  top: "conv3"
  convolution_param {
    num_output: 28
    pad: 0
    stride: 1
    weight_filler {
      type: "xavier"
    }
    bias_filler {
      type: "constant"
    }
    kernel_h: 6
    kernel_w: 3
  }
}
layer {
  name: "relu3"
  type: "ReLU"
  bottom: "conv3"
  top: "conv3"
}
layer {
  name: "pool3"
  type: "Pooling"
  bottom: "conv3"
  top: "pool3"
  pooling_param {
    pool: MAX
    kernel_h: 2
    kernel_w: 1
    stride_h: 2
    stride_w: 1
  }
}
layer {
  name: "conv4"
  type: "Convolution"
  bottom: "pool3"
  top: "conv4"
  convolution_param {
    num_output: 36
    pad: 0
    stride: 1
    weight_filler {
      type: "xavier"
    }
    bias_filler {
      type: "constant"
    }
    kernel_h: 6
    kernel_w: 3
  }
}
layer {
  name: "relu4"
  type: "ReLU"
  bottom: "conv4"
  top: "conv4"
}
layer {
  name: "pool4"
  type: "Pooling"
  bottom: "conv4"
  top: "pool4"
  pooling_param {
    pool: MAX
    kernel_h: 2
    kernel_w: 1
    stride_h: 2
    stride_w: 1
  }
}
layer {
  name: "ip1"
  type: "InnerProduct"
  bottom: "pool4"
  top: "ip1"
  inner_product_param {
    num_output: 196
    weight_filler {
      type: "xavier"
    }
    bias_filler {
      type: "constant"
    }
  }
}
layer {
  name: "relu5"
  type: "ReLU"
  bottom: "ip1"
  top: "ip1"
}
layer {
  name: "drop1"
  type: "Dropout"
  bottom: "ip1"
  top: "ip1"
  dropout_param {
    dropout_ratio: 0.5
  }
}
layer {
  name: "ip2"
  type: "InnerProduct"
  bottom: "ip1"
  top: "ip2"
  inner_product_param {
    num_output: 98
    weight_filler {
      type: "xavier"
    }
    bias_filler {
      type: "constant"
    }
  }
}
layer {
  name: "relu6"
  type: "ReLU"
  bottom: "ip2"
  top: "ip2"
}
layer {
  name: "drop2"
  type: "Dropout"
  bottom: "ip2"
  top: "ip2"
  dropout_param {
    dropout_ratio: 0.5
  }
}
layer {
  name: "ip3"
  type: "InnerProduct"
  bottom: "ip2"
  top: "ip3"
  inner_product_param {
    num_output: 11
    weight_filler {
      type: "xavier"
    }
    bias_filler {
      type: "constant"
    }
  }
}
layer {
  name: "drop3"
  type: "Dropout"
  bottom: "ip3"
  top: "ip3"
  dropout_param {
    dropout_ratio: 0.5
  }
}
layer {
  name: "accuracy"
  type: "Accuracy"
  bottom: "ip3"
  bottom: "label"
  top: "accuracy"
  include {
    phase: TEST
  }
}
layer {
  name: "loss"
  type: "SoftmaxWithLoss"
  bottom: "ip3"
  bottom: "label"
  top: "loss"
}
I0521 07:50:33.661015 17623 layer_factory.hpp:77] Creating layer data_hdf5
I0521 07:50:33.661031 17623 net.cpp:106] Creating Layer data_hdf5
I0521 07:50:33.661042 17623 net.cpp:411] data_hdf5 -> data
I0521 07:50:33.661059 17623 net.cpp:411] data_hdf5 -> label
I0521 07:50:33.661074 17623 hdf5_data_layer.cpp:79] Loading list of HDF5 filenames from: /lustre/atlas/proj-shared/hep105/caffe_titan/minosmatch_nukecczdefs_127x50_x_unshifted_me1Bmc.testlist
I0521 07:50:33.662245 17623 hdf5_data_layer.cpp:93] Number of HDF5 files: 3
I0521 07:50:54.920850 17623 net.cpp:150] Setting up data_hdf5
I0521 07:50:54.921013 17623 net.cpp:157] Top shape: 820 1 127 50 (5207000)
I0521 07:50:54.921028 17623 net.cpp:157] Top shape: 820 (820)
I0521 07:50:54.921041 17623 net.cpp:165] Memory required for data: 20831280
I0521 07:50:54.921056 17623 layer_factory.hpp:77] Creating layer label_data_hdf5_1_split
I0521 07:50:54.921082 17623 net.cpp:106] Creating Layer label_data_hdf5_1_split
I0521 07:50:54.921093 17623 net.cpp:454] label_data_hdf5_1_split <- label
I0521 07:50:54.921108 17623 net.cpp:411] label_data_hdf5_1_split -> label_data_hdf5_1_split_0
I0521 07:50:54.921129 17623 net.cpp:411] label_data_hdf5_1_split -> label_data_hdf5_1_split_1
I0521 07:50:54.921203 17623 net.cpp:150] Setting up label_data_hdf5_1_split
I0521 07:50:54.921217 17623 net.cpp:157] Top shape: 820 (820)
I0521 07:50:54.921229 17623 net.cpp:157] Top shape: 820 (820)
I0521 07:50:54.921238 17623 net.cpp:165] Memory required for data: 20837840
I0521 07:50:54.921249 17623 layer_factory.hpp:77] Creating layer conv1
I0521 07:50:54.921272 17623 net.cpp:106] Creating Layer conv1
I0521 07:50:54.921281 17623 net.cpp:454] conv1 <- data
I0521 07:50:54.921296 17623 net.cpp:411] conv1 -> conv1
I0521 07:50:54.923265 17623 net.cpp:150] Setting up conv1
I0521 07:50:54.923290 17623 net.cpp:157] Top shape: 820 12 120 48 (56678400)
I0521 07:50:54.923300 17623 net.cpp:165] Memory required for data: 247551440
I0521 07:50:54.923321 17623 layer_factory.hpp:77] Creating layer relu1
I0521 07:50:54.923336 17623 net.cpp:106] Creating Layer relu1
I0521 07:50:54.923346 17623 net.cpp:454] relu1 <- conv1
I0521 07:50:54.923359 17623 net.cpp:397] relu1 -> conv1 (in-place)
I0521 07:50:54.923854 17623 net.cpp:150] Setting up relu1
I0521 07:50:54.923871 17623 net.cpp:157] Top shape: 820 12 120 48 (56678400)
I0521 07:50:54.923880 17623 net.cpp:165] Memory required for data: 474265040
I0521 07:50:54.923890 17623 layer_factory.hpp:77] Creating layer pool1
I0521 07:50:54.923907 17623 net.cpp:106] Creating Layer pool1
I0521 07:50:54.923916 17623 net.cpp:454] pool1 <- conv1
I0521 07:50:54.923929 17623 net.cpp:411] pool1 -> pool1
I0521 07:50:54.924005 17623 net.cpp:150] Setting up pool1
I0521 07:50:54.924017 17623 net.cpp:157] Top shape: 820 12 60 48 (28339200)
I0521 07:50:54.924027 17623 net.cpp:165] Memory required for data: 587621840
I0521 07:50:54.924038 17623 layer_factory.hpp:77] Creating layer conv2
I0521 07:50:54.924057 17623 net.cpp:106] Creating Layer conv2
I0521 07:50:54.924067 17623 net.cpp:454] conv2 <- pool1
I0521 07:50:54.924079 17623 net.cpp:411] conv2 -> conv2
I0521 07:50:54.926002 17623 net.cpp:150] Setting up conv2
I0521 07:50:54.926023 17623 net.cpp:157] Top shape: 820 20 54 46 (40737600)
I0521 07:50:54.926036 17623 net.cpp:165] Memory required for data: 750572240
I0521 07:50:54.926054 17623 layer_factory.hpp:77] Creating layer relu2
I0521 07:50:54.926067 17623 net.cpp:106] Creating Layer relu2
I0521 07:50:54.926077 17623 net.cpp:454] relu2 <- conv2
I0521 07:50:54.926090 17623 net.cpp:397] relu2 -> conv2 (in-place)
I0521 07:50:54.926424 17623 net.cpp:150] Setting up relu2
I0521 07:50:54.926439 17623 net.cpp:157] Top shape: 820 20 54 46 (40737600)
I0521 07:50:54.926448 17623 net.cpp:165] Memory required for data: 913522640
I0521 07:50:54.926458 17623 layer_factory.hpp:77] Creating layer pool2
I0521 07:50:54.926471 17623 net.cpp:106] Creating Layer pool2
I0521 07:50:54.926481 17623 net.cpp:454] pool2 <- conv2
I0521 07:50:54.926494 17623 net.cpp:411] pool2 -> pool2
I0521 07:50:54.926564 17623 net.cpp:150] Setting up pool2
I0521 07:50:54.926578 17623 net.cpp:157] Top shape: 820 20 27 46 (20368800)
I0521 07:50:54.926587 17623 net.cpp:165] Memory required for data: 994997840
I0521 07:50:54.926597 17623 layer_factory.hpp:77] Creating layer conv3
I0521 07:50:54.926617 17623 net.cpp:106] Creating Layer conv3
I0521 07:50:54.926628 17623 net.cpp:454] conv3 <- pool2
I0521 07:50:54.926641 17623 net.cpp:411] conv3 -> conv3
I0521 07:50:54.928616 17623 net.cpp:150] Setting up conv3
I0521 07:50:54.928638 17623 net.cpp:157] Top shape: 820 28 22 44 (22225280)
I0521 07:50:54.928649 17623 net.cpp:165] Memory required for data: 1083898960
I0521 07:50:54.928683 17623 layer_factory.hpp:77] Creating layer relu3
I0521 07:50:54.928696 17623 net.cpp:106] Creating Layer relu3
I0521 07:50:54.928706 17623 net.cpp:454] relu3 <- conv3
I0521 07:50:54.928719 17623 net.cpp:397] relu3 -> conv3 (in-place)
I0521 07:50:54.929189 17623 net.cpp:150] Setting up relu3
I0521 07:50:54.929206 17623 net.cpp:157] Top shape: 820 28 22 44 (22225280)
I0521 07:50:54.929215 17623 net.cpp:165] Memory required for data: 1172800080
I0521 07:50:54.929225 17623 layer_factory.hpp:77] Creating layer pool3
I0521 07:50:54.929239 17623 net.cpp:106] Creating Layer pool3
I0521 07:50:54.929250 17623 net.cpp:454] pool3 <- conv3
I0521 07:50:54.929262 17623 net.cpp:411] pool3 -> pool3
I0521 07:50:54.929333 17623 net.cpp:150] Setting up pool3
I0521 07:50:54.929347 17623 net.cpp:157] Top shape: 820 28 11 44 (11112640)
I0521 07:50:54.929357 17623 net.cpp:165] Memory required for data: 1217250640
I0521 07:50:54.929364 17623 layer_factory.hpp:77] Creating layer conv4
I0521 07:50:54.929383 17623 net.cpp:106] Creating Layer conv4
I0521 07:50:54.929394 17623 net.cpp:454] conv4 <- pool3
I0521 07:50:54.929407 17623 net.cpp:411] conv4 -> conv4
I0521 07:50:54.931478 17623 net.cpp:150] Setting up conv4
I0521 07:50:54.931496 17623 net.cpp:157] Top shape: 820 36 6 42 (7439040)
I0521 07:50:54.931506 17623 net.cpp:165] Memory required for data: 1247006800
I0521 07:50:54.931521 17623 layer_factory.hpp:77] Creating layer relu4
I0521 07:50:54.931535 17623 net.cpp:106] Creating Layer relu4
I0521 07:50:54.931545 17623 net.cpp:454] relu4 <- conv4
I0521 07:50:54.931557 17623 net.cpp:397] relu4 -> conv4 (in-place)
I0521 07:50:54.932030 17623 net.cpp:150] Setting up relu4
I0521 07:50:54.932046 17623 net.cpp:157] Top shape: 820 36 6 42 (7439040)
I0521 07:50:54.932056 17623 net.cpp:165] Memory required for data: 1276762960
I0521 07:50:54.932066 17623 layer_factory.hpp:77] Creating layer pool4
I0521 07:50:54.932080 17623 net.cpp:106] Creating Layer pool4
I0521 07:50:54.932090 17623 net.cpp:454] pool4 <- conv4
I0521 07:50:54.932102 17623 net.cpp:411] pool4 -> pool4
I0521 07:50:54.932173 17623 net.cpp:150] Setting up pool4
I0521 07:50:54.932188 17623 net.cpp:157] Top shape: 820 36 3 42 (3719520)
I0521 07:50:54.932198 17623 net.cpp:165] Memory required for data: 1291641040
I0521 07:50:54.932209 17623 layer_factory.hpp:77] Creating layer ip1
I0521 07:50:54.932224 17623 net.cpp:106] Creating Layer ip1
I0521 07:50:54.932234 17623 net.cpp:454] ip1 <- pool4
I0521 07:50:54.932246 17623 net.cpp:411] ip1 -> ip1
I0521 07:50:54.947749 17623 net.cpp:150] Setting up ip1
I0521 07:50:54.947772 17623 net.cpp:157] Top shape: 820 196 (160720)
I0521 07:50:54.947783 17623 net.cpp:165] Memory required for data: 1292283920
I0521 07:50:54.947804 17623 layer_factory.hpp:77] Creating layer relu5
I0521 07:50:54.947819 17623 net.cpp:106] Creating Layer relu5
I0521 07:50:54.947830 17623 net.cpp:454] relu5 <- ip1
I0521 07:50:54.947844 17623 net.cpp:397] relu5 -> ip1 (in-place)
I0521 07:50:54.948189 17623 net.cpp:150] Setting up relu5
I0521 07:50:54.948202 17623 net.cpp:157] Top shape: 820 196 (160720)
I0521 07:50:54.948212 17623 net.cpp:165] Memory required for data: 1292926800
I0521 07:50:54.948222 17623 layer_factory.hpp:77] Creating layer drop1
I0521 07:50:54.948241 17623 net.cpp:106] Creating Layer drop1
I0521 07:50:54.948251 17623 net.cpp:454] drop1 <- ip1
I0521 07:50:54.948264 17623 net.cpp:397] drop1 -> ip1 (in-place)
I0521 07:50:54.948308 17623 net.cpp:150] Setting up drop1
I0521 07:50:54.948321 17623 net.cpp:157] Top shape: 820 196 (160720)
I0521 07:50:54.948331 17623 net.cpp:165] Memory required for data: 1293569680
I0521 07:50:54.948340 17623 layer_factory.hpp:77] Creating layer ip2
I0521 07:50:54.948355 17623 net.cpp:106] Creating Layer ip2
I0521 07:50:54.948365 17623 net.cpp:454] ip2 <- ip1
I0521 07:50:54.948379 17623 net.cpp:411] ip2 -> ip2
I0521 07:50:54.948859 17623 net.cpp:150] Setting up ip2
I0521 07:50:54.948873 17623 net.cpp:157] Top shape: 820 98 (80360)
I0521 07:50:54.948882 17623 net.cpp:165] Memory required for data: 1293891120
I0521 07:50:54.948910 17623 layer_factory.hpp:77] Creating layer relu6
I0521 07:50:54.948923 17623 net.cpp:106] Creating Layer relu6
I0521 07:50:54.948933 17623 net.cpp:454] relu6 <- ip2
I0521 07:50:54.948945 17623 net.cpp:397] relu6 -> ip2 (in-place)
I0521 07:50:54.949483 17623 net.cpp:150] Setting up relu6
I0521 07:50:54.949504 17623 net.cpp:157] Top shape: 820 98 (80360)
I0521 07:50:54.949514 17623 net.cpp:165] Memory required for data: 1294212560
I0521 07:50:54.949523 17623 layer_factory.hpp:77] Creating layer drop2
I0521 07:50:54.949537 17623 net.cpp:106] Creating Layer drop2
I0521 07:50:54.949553 17623 net.cpp:454] drop2 <- ip2
I0521 07:50:54.949568 17623 net.cpp:397] drop2 -> ip2 (in-place)
I0521 07:50:54.949611 17623 net.cpp:150] Setting up drop2
I0521 07:50:54.949625 17623 net.cpp:157] Top shape: 820 98 (80360)
I0521 07:50:54.949635 17623 net.cpp:165] Memory required for data: 1294534000
I0521 07:50:54.949645 17623 layer_factory.hpp:77] Creating layer ip3
I0521 07:50:54.949658 17623 net.cpp:106] Creating Layer ip3
I0521 07:50:54.949668 17623 net.cpp:454] ip3 <- ip2
I0521 07:50:54.949681 17623 net.cpp:411] ip3 -> ip3
I0521 07:50:54.949905 17623 net.cpp:150] Setting up ip3
I0521 07:50:54.949918 17623 net.cpp:157] Top shape: 820 11 (9020)
I0521 07:50:54.949928 17623 net.cpp:165] Memory required for data: 1294570080
I0521 07:50:54.949944 17623 layer_factory.hpp:77] Creating layer drop3
I0521 07:50:54.949956 17623 net.cpp:106] Creating Layer drop3
I0521 07:50:54.949966 17623 net.cpp:454] drop3 <- ip3
I0521 07:50:54.949978 17623 net.cpp:397] drop3 -> ip3 (in-place)
I0521 07:50:54.950021 17623 net.cpp:150] Setting up drop3
I0521 07:50:54.950033 17623 net.cpp:157] Top shape: 820 11 (9020)
I0521 07:50:54.950042 17623 net.cpp:165] Memory required for data: 1294606160
I0521 07:50:54.950052 17623 layer_factory.hpp:77] Creating layer ip3_drop3_0_split
I0521 07:50:54.950065 17623 net.cpp:106] Creating Layer ip3_drop3_0_split
I0521 07:50:54.950075 17623 net.cpp:454] ip3_drop3_0_split <- ip3
I0521 07:50:54.950088 17623 net.cpp:411] ip3_drop3_0_split -> ip3_drop3_0_split_0
I0521 07:50:54.950103 17623 net.cpp:411] ip3_drop3_0_split -> ip3_drop3_0_split_1
I0521 07:50:54.950176 17623 net.cpp:150] Setting up ip3_drop3_0_split
I0521 07:50:54.950189 17623 net.cpp:157] Top shape: 820 11 (9020)
I0521 07:50:54.950201 17623 net.cpp:157] Top shape: 820 11 (9020)
I0521 07:50:54.950211 17623 net.cpp:165] Memory required for data: 1294678320
I0521 07:50:54.950218 17623 layer_factory.hpp:77] Creating layer accuracy
I0521 07:50:54.950239 17623 net.cpp:106] Creating Layer accuracy
I0521 07:50:54.950250 17623 net.cpp:454] accuracy <- ip3_drop3_0_split_0
I0521 07:50:54.950261 17623 net.cpp:454] accuracy <- label_data_hdf5_1_split_0
I0521 07:50:54.950275 17623 net.cpp:411] accuracy -> accuracy
…
