…
I0520 21:12:25.406631  8812 net.cpp:322] The NetState phase (0) differed from the phase (1) specified by a rule in layer data_hdf5
I0520 21:12:25.406692  8812 net.cpp:322] The NetState phase (0) differed from the phase (1) specified by a rule in layer accuracy
I0520 21:12:25.407034  8812 net.cpp:49] Initializing net from parameters: 
name: "caffe_test_127x50_x_unshifted"
state {
  phase: TRAIN
}
layer {
  name: "data_hdf5"
  type: "HDF5Data"
  top: "data"
  top: "label"
  include {
    phase: TRAIN
  }
  hdf5_data_param {
    source: "/lustre/atlas/proj-shared/hep105/caffe_titan/minosmatch_nukecczdefs_127x50_x_unshifted_me1Bmc.trainlist"
    batch_size: 320
  }
}
layer {
  name: "conv1"
  type: "Convolution"
  bottom: "data"
  top: "conv1"
  convolution_param {
    num_output: 12
    pad: 0
    stride: 1
    weight_filler {
      type: "xavier"
    }
    bias_filler {
      type: "constant"
    }
    kernel_h: 8
    kernel_w: 3
  }
}
layer {
  name: "relu1"
  type: "ReLU"
  bottom: "conv1"
  top: "conv1"
}
layer {
  name: "pool1"
  type: "Pooling"
  bottom: "conv1"
  top: "pool1"
  pooling_param {
    pool: MAX
    kernel_h: 2
    kernel_w: 1
    stride_h: 2
    stride_w: 1
  }
}
layer {
  name: "conv2"
  type: "Convolution"
  bottom: "pool1"
  top: "conv2"
  convolution_param {
    num_output: 20
    pad: 0
    stride: 1
    weight_filler {
      type: "xavier"
    }
    bias_filler {
      type: "constant"
    }
    kernel_h: 7
    kernel_w: 3
  }
}
layer {
  name: "relu2"
  type: "ReLU"
  bottom: "conv2"
  top: "conv2"
}
layer {
  name: "pool2"
  type: "Pooling"
  bottom: "conv2"
  top: "pool2"
  pooling_param {
    pool: MAX
    kernel_h: 2
    kernel_w: 1
    stride_h: 2
    stride_w: 1
  }
}
layer {
  name: "conv3"
  type: "Convolution"
  bottom: "pool2"
  top: "conv3"
  convolution_param {
    num_output: 28
    pad: 0
    stride: 1
    weight_filler {
      type: "xavier"
    }
    bias_filler {
      type: "constant"
    }
    kernel_h: 6
    kernel_w: 3
  }
}
layer {
  name: "relu3"
  type: "ReLU"
  bottom: "conv3"
  top: "conv3"
}
layer {
  name: "pool3"
  type: "Pooling"
  bottom: "conv3"
  top: "pool3"
  pooling_param {
    pool: MAX
    kernel_h: 2
    kernel_w: 1
    stride_h: 2
    stride_w: 1
  }
}
layer {
  name: "conv4"
  type: "Convolution"
  bottom: "pool3"
  top: "conv4"
  convolution_param {
    num_output: 36
    pad: 0
    stride: 1
    weight_filler {
      type: "xavier"
    }
    bias_filler {
      type: "constant"
    }
    kernel_h: 6
    kernel_w: 3
  }
}
layer {
  name: "relu4"
  type: "ReLU"
  bottom: "conv4"
  top: "conv4"
}
layer {
  name: "pool4"
  type: "Pooling"
  bottom: "conv4"
  top: "pool4"
  pooling_param {
    pool: MAX
    kernel_h: 2
    kernel_w: 1
    stride_h: 2
    stride_w: 1
  }
}
layer {
  name: "ip1"
  type: "InnerProduct"
  bottom: "pool4"
  top: "ip1"
  inner_product_param {
    num_output: 196
    weight_filler {
      type: "xavier"
    }
    bias_filler {
      type: "constant"
    }
  }
}
layer {
  name: "relu5"
  type: "ReLU"
  bottom: "ip1"
  top: "ip1"
}
layer {
  name: "drop1"
  type: "Dropout"
  bottom: "ip1"
  top: "ip1"
  dropout_param {
    dropout_ratio: 0.5
  }
}
layer {
  name: "ip2"
  type: "InnerProduct"
  bottom: "ip1"
  top: "ip2"
  inner_product_param {
    num_output: 98
    weight_filler {
      type: "xavier"
    }
    bias_filler {
      type: "constant"
    }
  }
}
layer {
  name: "relu6"
  type: "ReLU"
  bottom: "ip2"
  top: "ip2"
}
layer {
  name: "drop2"
  type: "Dropout"
  bottom: "ip2"
  top: "ip2"
  dropout_param {
    dropout_ratio: 0.5
  }
}
layer {
  name: "ip3"
  type: "InnerProduct"
  bottom: "ip2"
  top: "ip3"
  inner_product_param {
    num_output: 11
    weight_filler {
      type: "xavier"
    }
    bias_filler {
      type: "constant"
    }
  }
}
layer {
  name: "drop3"
  type: "Dropout"
  bottom: "ip3"
  top: "ip3"
  dropout_param {
    dropout_ratio: 0.5
  }
}
layer {
  name: "loss"
  type: "SoftmaxWithLoss"
  bottom: "ip3"
  bottom: "label"
  top: "loss"
}
I0520 21:12:25.407217  8812 layer_factory.hpp:77] Creating layer data_hdf5
I0520 21:12:25.407241  8812 net.cpp:106] Creating Layer data_hdf5
I0520 21:12:25.407256  8812 net.cpp:411] data_hdf5 -> data
I0520 21:12:25.407290  8812 net.cpp:411] data_hdf5 -> label
I0520 21:12:25.407322  8812 hdf5_data_layer.cpp:79] Loading list of HDF5 filenames from: /lustre/atlas/proj-shared/hep105/caffe_titan/minosmatch_nukecczdefs_127x50_x_unshifted_me1Bmc.trainlist
I0520 21:12:25.408591  8812 hdf5_data_layer.cpp:93] Number of HDF5 files: 15
I0520 21:12:25.410784  8812 hdf5.cpp:32] Datatype class: H5T_FLOAT
I0520 21:12:46.934432  8812 hdf5.cpp:35] Datatype class: H5T_INTEGER
I0520 21:12:46.939551  8812 net.cpp:150] Setting up data_hdf5
I0520 21:12:46.939591  8812 net.cpp:157] Top shape: 320 1 127 50 (2032000)
I0520 21:12:46.939606  8812 net.cpp:157] Top shape: 320 (320)
I0520 21:12:46.939618  8812 net.cpp:165] Memory required for data: 8129280
I0520 21:12:46.939631  8812 layer_factory.hpp:77] Creating layer conv1
I0520 21:12:46.939664  8812 net.cpp:106] Creating Layer conv1
I0520 21:12:46.939676  8812 net.cpp:454] conv1 <- data
I0520 21:12:46.939695  8812 net.cpp:411] conv1 -> conv1
I0520 21:12:47.657472  8812 net.cpp:150] Setting up conv1
I0520 21:12:47.657518  8812 net.cpp:157] Top shape: 320 12 120 48 (22118400)
I0520 21:12:47.657532  8812 net.cpp:165] Memory required for data: 96602880
I0520 21:12:47.657562  8812 layer_factory.hpp:77] Creating layer relu1
I0520 21:12:47.657582  8812 net.cpp:106] Creating Layer relu1
I0520 21:12:47.657593  8812 net.cpp:454] relu1 <- conv1
I0520 21:12:47.657608  8812 net.cpp:397] relu1 -> conv1 (in-place)
I0520 21:12:47.658131  8812 net.cpp:150] Setting up relu1
I0520 21:12:47.658149  8812 net.cpp:157] Top shape: 320 12 120 48 (22118400)
I0520 21:12:47.658159  8812 net.cpp:165] Memory required for data: 185076480
I0520 21:12:47.658169  8812 layer_factory.hpp:77] Creating layer pool1
I0520 21:12:47.658185  8812 net.cpp:106] Creating Layer pool1
I0520 21:12:47.658195  8812 net.cpp:454] pool1 <- conv1
I0520 21:12:47.658208  8812 net.cpp:411] pool1 -> pool1
I0520 21:12:47.658288  8812 net.cpp:150] Setting up pool1
I0520 21:12:47.658303  8812 net.cpp:157] Top shape: 320 12 60 48 (11059200)
I0520 21:12:47.658313  8812 net.cpp:165] Memory required for data: 229313280
I0520 21:12:47.658321  8812 layer_factory.hpp:77] Creating layer conv2
I0520 21:12:47.658342  8812 net.cpp:106] Creating Layer conv2
I0520 21:12:47.658354  8812 net.cpp:454] conv2 <- pool1
I0520 21:12:47.658366  8812 net.cpp:411] conv2 -> conv2
I0520 21:12:47.661056  8812 net.cpp:150] Setting up conv2
I0520 21:12:47.661082  8812 net.cpp:157] Top shape: 320 20 54 46 (15897600)
I0520 21:12:47.661093  8812 net.cpp:165] Memory required for data: 292903680
I0520 21:12:47.661113  8812 layer_factory.hpp:77] Creating layer relu2
I0520 21:12:47.661128  8812 net.cpp:106] Creating Layer relu2
I0520 21:12:47.661137  8812 net.cpp:454] relu2 <- conv2
I0520 21:12:47.661150  8812 net.cpp:397] relu2 -> conv2 (in-place)
I0520 21:12:47.661481  8812 net.cpp:150] Setting up relu2
I0520 21:12:47.661495  8812 net.cpp:157] Top shape: 320 20 54 46 (15897600)
I0520 21:12:47.661506  8812 net.cpp:165] Memory required for data: 356494080
I0520 21:12:47.661516  8812 layer_factory.hpp:77] Creating layer pool2
I0520 21:12:47.661528  8812 net.cpp:106] Creating Layer pool2
I0520 21:12:47.661538  8812 net.cpp:454] pool2 <- conv2
I0520 21:12:47.661563  8812 net.cpp:411] pool2 -> pool2
I0520 21:12:47.661633  8812 net.cpp:150] Setting up pool2
I0520 21:12:47.661645  8812 net.cpp:157] Top shape: 320 20 27 46 (7948800)
I0520 21:12:47.661655  8812 net.cpp:165] Memory required for data: 388289280
I0520 21:12:47.661664  8812 layer_factory.hpp:77] Creating layer conv3
I0520 21:12:47.661682  8812 net.cpp:106] Creating Layer conv3
I0520 21:12:47.661694  8812 net.cpp:454] conv3 <- pool2
I0520 21:12:47.661706  8812 net.cpp:411] conv3 -> conv3
I0520 21:12:47.663630  8812 net.cpp:150] Setting up conv3
I0520 21:12:47.663653  8812 net.cpp:157] Top shape: 320 28 22 44 (8673280)
I0520 21:12:47.663666  8812 net.cpp:165] Memory required for data: 422982400
I0520 21:12:47.663683  8812 layer_factory.hpp:77] Creating layer relu3
I0520 21:12:47.663699  8812 net.cpp:106] Creating Layer relu3
I0520 21:12:47.663709  8812 net.cpp:454] relu3 <- conv3
I0520 21:12:47.663722  8812 net.cpp:397] relu3 -> conv3 (in-place)
I0520 21:12:47.664192  8812 net.cpp:150] Setting up relu3
I0520 21:12:47.664209  8812 net.cpp:157] Top shape: 320 28 22 44 (8673280)
I0520 21:12:47.664219  8812 net.cpp:165] Memory required for data: 457675520
I0520 21:12:47.664229  8812 layer_factory.hpp:77] Creating layer pool3
I0520 21:12:47.664242  8812 net.cpp:106] Creating Layer pool3
I0520 21:12:47.664252  8812 net.cpp:454] pool3 <- conv3
I0520 21:12:47.664265  8812 net.cpp:411] pool3 -> pool3
I0520 21:12:47.664332  8812 net.cpp:150] Setting up pool3
I0520 21:12:47.664345  8812 net.cpp:157] Top shape: 320 28 11 44 (4336640)
I0520 21:12:47.664355  8812 net.cpp:165] Memory required for data: 475022080
I0520 21:12:47.664366  8812 layer_factory.hpp:77] Creating layer conv4
I0520 21:12:47.664382  8812 net.cpp:106] Creating Layer conv4
I0520 21:12:47.664393  8812 net.cpp:454] conv4 <- pool3
I0520 21:12:47.664407  8812 net.cpp:411] conv4 -> conv4
I0520 21:12:47.667181  8812 net.cpp:150] Setting up conv4
I0520 21:12:47.667203  8812 net.cpp:157] Top shape: 320 36 6 42 (2903040)
I0520 21:12:47.667218  8812 net.cpp:165] Memory required for data: 486634240
I0520 21:12:47.667234  8812 layer_factory.hpp:77] Creating layer relu4
I0520 21:12:47.667248  8812 net.cpp:106] Creating Layer relu4
I0520 21:12:47.667258  8812 net.cpp:454] relu4 <- conv4
I0520 21:12:47.667271  8812 net.cpp:397] relu4 -> conv4 (in-place)
I0520 21:12:47.667744  8812 net.cpp:150] Setting up relu4
I0520 21:12:47.667760  8812 net.cpp:157] Top shape: 320 36 6 42 (2903040)
I0520 21:12:47.667770  8812 net.cpp:165] Memory required for data: 498246400
I0520 21:12:47.667781  8812 layer_factory.hpp:77] Creating layer pool4
I0520 21:12:47.667794  8812 net.cpp:106] Creating Layer pool4
I0520 21:12:47.667804  8812 net.cpp:454] pool4 <- conv4
I0520 21:12:47.667816  8812 net.cpp:411] pool4 -> pool4
I0520 21:12:47.667884  8812 net.cpp:150] Setting up pool4
I0520 21:12:47.667898  8812 net.cpp:157] Top shape: 320 36 3 42 (1451520)
I0520 21:12:47.667909  8812 net.cpp:165] Memory required for data: 504052480
I0520 21:12:47.667919  8812 layer_factory.hpp:77] Creating layer ip1
I0520 21:12:47.667939  8812 net.cpp:106] Creating Layer ip1
I0520 21:12:47.667950  8812 net.cpp:454] ip1 <- pool4
I0520 21:12:47.667963  8812 net.cpp:411] ip1 -> ip1
I0520 21:12:47.683429  8812 net.cpp:150] Setting up ip1
I0520 21:12:47.683459  8812 net.cpp:157] Top shape: 320 196 (62720)
I0520 21:12:47.683471  8812 net.cpp:165] Memory required for data: 504303360
I0520 21:12:47.683493  8812 layer_factory.hpp:77] Creating layer relu5
I0520 21:12:47.683509  8812 net.cpp:106] Creating Layer relu5
I0520 21:12:47.683519  8812 net.cpp:454] relu5 <- ip1
I0520 21:12:47.683532  8812 net.cpp:397] relu5 -> ip1 (in-place)
I0520 21:12:47.683876  8812 net.cpp:150] Setting up relu5
I0520 21:12:47.683890  8812 net.cpp:157] Top shape: 320 196 (62720)
I0520 21:12:47.683902  8812 net.cpp:165] Memory required for data: 504554240
I0520 21:12:47.683912  8812 layer_factory.hpp:77] Creating layer drop1
I0520 21:12:47.683933  8812 net.cpp:106] Creating Layer drop1
I0520 21:12:47.683943  8812 net.cpp:454] drop1 <- ip1
I0520 21:12:47.683969  8812 net.cpp:397] drop1 -> ip1 (in-place)
I0520 21:12:47.684015  8812 net.cpp:150] Setting up drop1
I0520 21:12:47.684028  8812 net.cpp:157] Top shape: 320 196 (62720)
I0520 21:12:47.684038  8812 net.cpp:165] Memory required for data: 504805120
I0520 21:12:47.684048  8812 layer_factory.hpp:77] Creating layer ip2
I0520 21:12:47.684067  8812 net.cpp:106] Creating Layer ip2
I0520 21:12:47.684077  8812 net.cpp:454] ip2 <- ip1
I0520 21:12:47.684090  8812 net.cpp:411] ip2 -> ip2
I0520 21:12:47.684561  8812 net.cpp:150] Setting up ip2
I0520 21:12:47.684574  8812 net.cpp:157] Top shape: 320 98 (31360)
I0520 21:12:47.684586  8812 net.cpp:165] Memory required for data: 504930560
I0520 21:12:47.684600  8812 layer_factory.hpp:77] Creating layer relu6
I0520 21:12:47.684612  8812 net.cpp:106] Creating Layer relu6
I0520 21:12:47.684623  8812 net.cpp:454] relu6 <- ip2
I0520 21:12:47.684634  8812 net.cpp:397] relu6 -> ip2 (in-place)
I0520 21:12:47.685158  8812 net.cpp:150] Setting up relu6
I0520 21:12:47.685173  8812 net.cpp:157] Top shape: 320 98 (31360)
I0520 21:12:47.685184  8812 net.cpp:165] Memory required for data: 505056000
I0520 21:12:47.685194  8812 layer_factory.hpp:77] Creating layer drop2
I0520 21:12:47.685206  8812 net.cpp:106] Creating Layer drop2
I0520 21:12:47.685216  8812 net.cpp:454] drop2 <- ip2
I0520 21:12:47.685228  8812 net.cpp:397] drop2 -> ip2 (in-place)
I0520 21:12:47.685271  8812 net.cpp:150] Setting up drop2
I0520 21:12:47.685284  8812 net.cpp:157] Top shape: 320 98 (31360)
I0520 21:12:47.685294  8812 net.cpp:165] Memory required for data: 505181440
I0520 21:12:47.685304  8812 layer_factory.hpp:77] Creating layer ip3
I0520 21:12:47.685317  8812 net.cpp:106] Creating Layer ip3
I0520 21:12:47.685328  8812 net.cpp:454] ip3 <- ip2
I0520 21:12:47.685340  8812 net.cpp:411] ip3 -> ip3
I0520 21:12:47.685551  8812 net.cpp:150] Setting up ip3
I0520 21:12:47.685565  8812 net.cpp:157] Top shape: 320 11 (3520)
I0520 21:12:47.685575  8812 net.cpp:165] Memory required for data: 505195520
I0520 21:12:47.685590  8812 layer_factory.hpp:77] Creating layer drop3
I0520 21:12:47.685602  8812 net.cpp:106] Creating Layer drop3
I0520 21:12:47.685612  8812 net.cpp:454] drop3 <- ip3
I0520 21:12:47.685623  8812 net.cpp:397] drop3 -> ip3 (in-place)
I0520 21:12:47.685663  8812 net.cpp:150] Setting up drop3
I0520 21:12:47.685675  8812 net.cpp:157] Top shape: 320 11 (3520)
I0520 21:12:47.685685  8812 net.cpp:165] Memory required for data: 505209600
I0520 21:12:47.685695  8812 layer_factory.hpp:77] Creating layer loss
I0520 21:12:47.685714  8812 net.cpp:106] Creating Layer loss
I0520 21:12:47.685724  8812 net.cpp:454] loss <- ip3
I0520 21:12:47.685735  8812 net.cpp:454] loss <- label
I0520 21:12:47.685747  8812 net.cpp:411] loss -> loss
I0520 21:12:47.685765  8812 layer_factory.hpp:77] Creating layer loss
…
I0520 21:12:47.688302  8812 solver.cpp:181] Creating test net (#0) specified by net file: /lustre/atlas/proj-shared/hep105/caffe_titan/caffe_workflow/logs_batch_size_test/batch_size_320_2016-05-20T11.20.44.404853.prototxt
I0520 21:12:47.688374  8812 net.cpp:322] The NetState phase (1) differed from the phase (0) specified by a rule in layer data_hdf5
I0520 21:12:47.688743  8812 net.cpp:49] Initializing net from parameters: 
name: "caffe_test_127x50_x_unshifted"
state {
  phase: TEST
}
layer {
  name: "data_hdf5"
  type: "HDF5Data"
  top: "data"
  top: "label"
  include {
    phase: TEST
  }
  hdf5_data_param {
    source: "/lustre/atlas/proj-shared/hep105/caffe_titan/minosmatch_nukecczdefs_127x50_x_unshifted_me1Bmc.testlist"
    batch_size: 320
  }
}
layer {
  name: "conv1"
  type: "Convolution"
  bottom: "data"
  top: "conv1"
  convolution_param {
    num_output: 12
    pad: 0
    stride: 1
    weight_filler {
      type: "xavier"
    }
    bias_filler {
      type: "constant"
    }
    kernel_h: 8
    kernel_w: 3
  }
}
layer {
  name: "relu1"
  type: "ReLU"
  bottom: "conv1"
  top: "conv1"
}
layer {
  name: "pool1"
  type: "Pooling"
  bottom: "conv1"
  top: "pool1"
  pooling_param {
    pool: MAX
    kernel_h: 2
    kernel_w: 1
    stride_h: 2
    stride_w: 1
  }
}
layer {
  name: "conv2"
  type: "Convolution"
  bottom: "pool1"
  top: "conv2"
  convolution_param {
    num_output: 20
    pad: 0
    stride: 1
    weight_filler {
      type: "xavier"
    }
    bias_filler {
      type: "constant"
    }
    kernel_h: 7
    kernel_w: 3
  }
}
layer {
  name: "relu2"
  type: "ReLU"
  bottom: "conv2"
  top: "conv2"
}
layer {
  name: "pool2"
  type: "Pooling"
  bottom: "conv2"
  top: "pool2"
  pooling_param {
    pool: MAX
    kernel_h: 2
    kernel_w: 1
    stride_h: 2
    stride_w: 1
  }
}
layer {
  name: "conv3"
  type: "Convolution"
  bottom: "pool2"
  top: "conv3"
  convolution_param {
    num_output: 28
    pad: 0
    stride: 1
    weight_filler {
      type: "xavier"
    }
    bias_filler {
      type: "constant"
    }
    kernel_h: 6
    kernel_w: 3
  }
}
layer {
  name: "relu3"
  type: "ReLU"
  bottom: "conv3"
  top: "conv3"
}
layer {
  name: "pool3"
  type: "Pooling"
  bottom: "conv3"
  top: "pool3"
  pooling_param {
    pool: MAX
    kernel_h: 2
    kernel_w: 1
    stride_h: 2
    stride_w: 1
  }
}
layer {
  name: "conv4"
  type: "Convolution"
  bottom: "pool3"
  top: "conv4"
  convolution_param {
    num_output: 36
    pad: 0
    stride: 1
    weight_filler {
      type: "xavier"
    }
    bias_filler {
      type: "constant"
    }
    kernel_h: 6
    kernel_w: 3
  }
}
layer {
  name: "relu4"
  type: "ReLU"
  bottom: "conv4"
  top: "conv4"
}
layer {
  name: "pool4"
  type: "Pooling"
  bottom: "conv4"
  top: "pool4"
  pooling_param {
    pool: MAX
    kernel_h: 2
    kernel_w: 1
    stride_h: 2
    stride_w: 1
  }
}
layer {
  name: "ip1"
  type: "InnerProduct"
  bottom: "pool4"
  top: "ip1"
  inner_product_param {
    num_output: 196
    weight_filler {
      type: "xavier"
    }
    bias_filler {
      type: "constant"
    }
  }
}
layer {
  name: "relu5"
  type: "ReLU"
  bottom: "ip1"
  top: "ip1"
}
layer {
  name: "drop1"
  type: "Dropout"
  bottom: "ip1"
  top: "ip1"
  dropout_param {
    dropout_ratio: 0.5
  }
}
layer {
  name: "ip2"
  type: "InnerProduct"
  bottom: "ip1"
  top: "ip2"
  inner_product_param {
    num_output: 98
    weight_filler {
      type: "xavier"
    }
    bias_filler {
      type: "constant"
    }
  }
}
layer {
  name: "relu6"
  type: "ReLU"
  bottom: "ip2"
  top: "ip2"
}
layer {
  name: "drop2"
  type: "Dropout"
  bottom: "ip2"
  top: "ip2"
  dropout_param {
    dropout_ratio: 0.5
  }
}
layer {
  name: "ip3"
  type: "InnerProduct"
  bottom: "ip2"
  top: "ip3"
  inner_product_param {
    num_output: 11
    weight_filler {
      type: "xavier"
    }
    bias_filler {
      type: "constant"
    }
  }
}
layer {
  name: "drop3"
  type: "Dropout"
  bottom: "ip3"
  top: "ip3"
  dropout_param {
    dropout_ratio: 0.5
  }
}
layer {
  name: "accuracy"
  type: "Accuracy"
  bottom: "ip3"
  bottom: "label"
  top: "accuracy"
  include {
    phase: TEST
  }
}
layer {
  name: "loss"
  type: "SoftmaxWithLoss"
  bottom: "ip3"
  bottom: "label"
  top: "loss"
}
I0520 21:12:47.688932  8812 layer_factory.hpp:77] Creating layer data_hdf5
I0520 21:12:47.688947  8812 net.cpp:106] Creating Layer data_hdf5
I0520 21:12:47.688961  8812 net.cpp:411] data_hdf5 -> data
I0520 21:12:47.688977  8812 net.cpp:411] data_hdf5 -> label
I0520 21:12:47.688993  8812 hdf5_data_layer.cpp:79] Loading list of HDF5 filenames from: /lustre/atlas/proj-shared/hep105/caffe_titan/minosmatch_nukecczdefs_127x50_x_unshifted_me1Bmc.testlist
I0520 21:12:47.799032  8812 hdf5_data_layer.cpp:93] Number of HDF5 files: 3
I0520 21:13:09.195369  8812 net.cpp:150] Setting up data_hdf5
I0520 21:13:09.195525  8812 net.cpp:157] Top shape: 320 1 127 50 (2032000)
I0520 21:13:09.195539  8812 net.cpp:157] Top shape: 320 (320)
I0520 21:13:09.195549  8812 net.cpp:165] Memory required for data: 8129280
I0520 21:13:09.195564  8812 layer_factory.hpp:77] Creating layer label_data_hdf5_1_split
I0520 21:13:09.195590  8812 net.cpp:106] Creating Layer label_data_hdf5_1_split
I0520 21:13:09.195601  8812 net.cpp:454] label_data_hdf5_1_split <- label
I0520 21:13:09.195616  8812 net.cpp:411] label_data_hdf5_1_split -> label_data_hdf5_1_split_0
I0520 21:13:09.195638  8812 net.cpp:411] label_data_hdf5_1_split -> label_data_hdf5_1_split_1
I0520 21:13:09.195711  8812 net.cpp:150] Setting up label_data_hdf5_1_split
I0520 21:13:09.195725  8812 net.cpp:157] Top shape: 320 (320)
I0520 21:13:09.195736  8812 net.cpp:157] Top shape: 320 (320)
I0520 21:13:09.195746  8812 net.cpp:165] Memory required for data: 8131840
I0520 21:13:09.195756  8812 layer_factory.hpp:77] Creating layer conv1
I0520 21:13:09.195778  8812 net.cpp:106] Creating Layer conv1
I0520 21:13:09.195790  8812 net.cpp:454] conv1 <- data
I0520 21:13:09.195803  8812 net.cpp:411] conv1 -> conv1
I0520 21:13:09.197760  8812 net.cpp:150] Setting up conv1
I0520 21:13:09.197779  8812 net.cpp:157] Top shape: 320 12 120 48 (22118400)
I0520 21:13:09.197794  8812 net.cpp:165] Memory required for data: 96605440
I0520 21:13:09.197816  8812 layer_factory.hpp:77] Creating layer relu1
I0520 21:13:09.197831  8812 net.cpp:106] Creating Layer relu1
I0520 21:13:09.197841  8812 net.cpp:454] relu1 <- conv1
I0520 21:13:09.197854  8812 net.cpp:397] relu1 -> conv1 (in-place)
I0520 21:13:09.198354  8812 net.cpp:150] Setting up relu1
I0520 21:13:09.198369  8812 net.cpp:157] Top shape: 320 12 120 48 (22118400)
I0520 21:13:09.198380  8812 net.cpp:165] Memory required for data: 185079040
I0520 21:13:09.198390  8812 layer_factory.hpp:77] Creating layer pool1
I0520 21:13:09.198405  8812 net.cpp:106] Creating Layer pool1
I0520 21:13:09.198415  8812 net.cpp:454] pool1 <- conv1
I0520 21:13:09.198427  8812 net.cpp:411] pool1 -> pool1
I0520 21:13:09.198503  8812 net.cpp:150] Setting up pool1
I0520 21:13:09.198515  8812 net.cpp:157] Top shape: 320 12 60 48 (11059200)
I0520 21:13:09.198525  8812 net.cpp:165] Memory required for data: 229315840
I0520 21:13:09.198534  8812 layer_factory.hpp:77] Creating layer conv2
I0520 21:13:09.198551  8812 net.cpp:106] Creating Layer conv2
I0520 21:13:09.198561  8812 net.cpp:454] conv2 <- pool1
I0520 21:13:09.198576  8812 net.cpp:411] conv2 -> conv2
I0520 21:13:09.200484  8812 net.cpp:150] Setting up conv2
I0520 21:13:09.200506  8812 net.cpp:157] Top shape: 320 20 54 46 (15897600)
I0520 21:13:09.200525  8812 net.cpp:165] Memory required for data: 292906240
I0520 21:13:09.200543  8812 layer_factory.hpp:77] Creating layer relu2
I0520 21:13:09.200557  8812 net.cpp:106] Creating Layer relu2
I0520 21:13:09.200567  8812 net.cpp:454] relu2 <- conv2
I0520 21:13:09.200579  8812 net.cpp:397] relu2 -> conv2 (in-place)
I0520 21:13:09.200909  8812 net.cpp:150] Setting up relu2
I0520 21:13:09.200923  8812 net.cpp:157] Top shape: 320 20 54 46 (15897600)
I0520 21:13:09.200933  8812 net.cpp:165] Memory required for data: 356496640
I0520 21:13:09.200944  8812 layer_factory.hpp:77] Creating layer pool2
I0520 21:13:09.200958  8812 net.cpp:106] Creating Layer pool2
I0520 21:13:09.200968  8812 net.cpp:454] pool2 <- conv2
I0520 21:13:09.200981  8812 net.cpp:411] pool2 -> pool2
I0520 21:13:09.201052  8812 net.cpp:150] Setting up pool2
I0520 21:13:09.201066  8812 net.cpp:157] Top shape: 320 20 27 46 (7948800)
I0520 21:13:09.201076  8812 net.cpp:165] Memory required for data: 388291840
I0520 21:13:09.201086  8812 layer_factory.hpp:77] Creating layer conv3
I0520 21:13:09.201103  8812 net.cpp:106] Creating Layer conv3
I0520 21:13:09.201114  8812 net.cpp:454] conv3 <- pool2
I0520 21:13:09.201128  8812 net.cpp:411] conv3 -> conv3
I0520 21:13:09.203091  8812 net.cpp:150] Setting up conv3
I0520 21:13:09.203114  8812 net.cpp:157] Top shape: 320 28 22 44 (8673280)
I0520 21:13:09.203127  8812 net.cpp:165] Memory required for data: 422984960
I0520 21:13:09.203161  8812 layer_factory.hpp:77] Creating layer relu3
I0520 21:13:09.203173  8812 net.cpp:106] Creating Layer relu3
I0520 21:13:09.203183  8812 net.cpp:454] relu3 <- conv3
I0520 21:13:09.203197  8812 net.cpp:397] relu3 -> conv3 (in-place)
I0520 21:13:09.203670  8812 net.cpp:150] Setting up relu3
I0520 21:13:09.203685  8812 net.cpp:157] Top shape: 320 28 22 44 (8673280)
I0520 21:13:09.203696  8812 net.cpp:165] Memory required for data: 457678080
I0520 21:13:09.203706  8812 layer_factory.hpp:77] Creating layer pool3
I0520 21:13:09.203718  8812 net.cpp:106] Creating Layer pool3
I0520 21:13:09.203728  8812 net.cpp:454] pool3 <- conv3
I0520 21:13:09.203743  8812 net.cpp:411] pool3 -> pool3
I0520 21:13:09.203814  8812 net.cpp:150] Setting up pool3
I0520 21:13:09.203829  8812 net.cpp:157] Top shape: 320 28 11 44 (4336640)
I0520 21:13:09.203837  8812 net.cpp:165] Memory required for data: 475024640
I0520 21:13:09.203848  8812 layer_factory.hpp:77] Creating layer conv4
I0520 21:13:09.203866  8812 net.cpp:106] Creating Layer conv4
I0520 21:13:09.203877  8812 net.cpp:454] conv4 <- pool3
I0520 21:13:09.203891  8812 net.cpp:411] conv4 -> conv4
I0520 21:13:09.205955  8812 net.cpp:150] Setting up conv4
I0520 21:13:09.205972  8812 net.cpp:157] Top shape: 320 36 6 42 (2903040)
I0520 21:13:09.205982  8812 net.cpp:165] Memory required for data: 486636800
I0520 21:13:09.206001  8812 layer_factory.hpp:77] Creating layer relu4
I0520 21:13:09.206014  8812 net.cpp:106] Creating Layer relu4
I0520 21:13:09.206025  8812 net.cpp:454] relu4 <- conv4
I0520 21:13:09.206038  8812 net.cpp:397] relu4 -> conv4 (in-place)
I0520 21:13:09.206509  8812 net.cpp:150] Setting up relu4
I0520 21:13:09.206526  8812 net.cpp:157] Top shape: 320 36 6 42 (2903040)
I0520 21:13:09.206535  8812 net.cpp:165] Memory required for data: 498248960
I0520 21:13:09.206545  8812 layer_factory.hpp:77] Creating layer pool4
I0520 21:13:09.206558  8812 net.cpp:106] Creating Layer pool4
I0520 21:13:09.206568  8812 net.cpp:454] pool4 <- conv4
I0520 21:13:09.206581  8812 net.cpp:411] pool4 -> pool4
I0520 21:13:09.206653  8812 net.cpp:150] Setting up pool4
I0520 21:13:09.206667  8812 net.cpp:157] Top shape: 320 36 3 42 (1451520)
I0520 21:13:09.206676  8812 net.cpp:165] Memory required for data: 504055040
I0520 21:13:09.206686  8812 layer_factory.hpp:77] Creating layer ip1
I0520 21:13:09.206702  8812 net.cpp:106] Creating Layer ip1
I0520 21:13:09.206712  8812 net.cpp:454] ip1 <- pool4
I0520 21:13:09.206727  8812 net.cpp:411] ip1 -> ip1
I0520 21:13:09.222183  8812 net.cpp:150] Setting up ip1
I0520 21:13:09.222211  8812 net.cpp:157] Top shape: 320 196 (62720)
I0520 21:13:09.222223  8812 net.cpp:165] Memory required for data: 504305920
I0520 21:13:09.222249  8812 layer_factory.hpp:77] Creating layer relu5
I0520 21:13:09.222264  8812 net.cpp:106] Creating Layer relu5
I0520 21:13:09.222273  8812 net.cpp:454] relu5 <- ip1
I0520 21:13:09.222287  8812 net.cpp:397] relu5 -> ip1 (in-place)
I0520 21:13:09.222635  8812 net.cpp:150] Setting up relu5
I0520 21:13:09.222648  8812 net.cpp:157] Top shape: 320 196 (62720)
I0520 21:13:09.222658  8812 net.cpp:165] Memory required for data: 504556800
I0520 21:13:09.222668  8812 layer_factory.hpp:77] Creating layer drop1
I0520 21:13:09.222687  8812 net.cpp:106] Creating Layer drop1
I0520 21:13:09.222697  8812 net.cpp:454] drop1 <- ip1
I0520 21:13:09.222709  8812 net.cpp:397] drop1 -> ip1 (in-place)
I0520 21:13:09.222754  8812 net.cpp:150] Setting up drop1
I0520 21:13:09.222766  8812 net.cpp:157] Top shape: 320 196 (62720)
I0520 21:13:09.222775  8812 net.cpp:165] Memory required for data: 504807680
I0520 21:13:09.222785  8812 layer_factory.hpp:77] Creating layer ip2
I0520 21:13:09.222800  8812 net.cpp:106] Creating Layer ip2
I0520 21:13:09.222810  8812 net.cpp:454] ip2 <- ip1
I0520 21:13:09.222822  8812 net.cpp:411] ip2 -> ip2
I0520 21:13:09.223302  8812 net.cpp:150] Setting up ip2
I0520 21:13:09.223316  8812 net.cpp:157] Top shape: 320 98 (31360)
I0520 21:13:09.223326  8812 net.cpp:165] Memory required for data: 504933120
I0520 21:13:09.223353  8812 layer_factory.hpp:77] Creating layer relu6
I0520 21:13:09.223366  8812 net.cpp:106] Creating Layer relu6
I0520 21:13:09.223376  8812 net.cpp:454] relu6 <- ip2
I0520 21:13:09.223389  8812 net.cpp:397] relu6 -> ip2 (in-place)
I0520 21:13:09.223932  8812 net.cpp:150] Setting up relu6
I0520 21:13:09.223954  8812 net.cpp:157] Top shape: 320 98 (31360)
I0520 21:13:09.223964  8812 net.cpp:165] Memory required for data: 505058560
I0520 21:13:09.223974  8812 layer_factory.hpp:77] Creating layer drop2
I0520 21:13:09.223987  8812 net.cpp:106] Creating Layer drop2
I0520 21:13:09.223997  8812 net.cpp:454] drop2 <- ip2
I0520 21:13:09.224011  8812 net.cpp:397] drop2 -> ip2 (in-place)
I0520 21:13:09.224056  8812 net.cpp:150] Setting up drop2
I0520 21:13:09.224068  8812 net.cpp:157] Top shape: 320 98 (31360)
I0520 21:13:09.224078  8812 net.cpp:165] Memory required for data: 505184000
I0520 21:13:09.224087  8812 layer_factory.hpp:77] Creating layer ip3
I0520 21:13:09.224102  8812 net.cpp:106] Creating Layer ip3
I0520 21:13:09.224112  8812 net.cpp:454] ip3 <- ip2
I0520 21:13:09.224125  8812 net.cpp:411] ip3 -> ip3
I0520 21:13:09.224350  8812 net.cpp:150] Setting up ip3
I0520 21:13:09.224364  8812 net.cpp:157] Top shape: 320 11 (3520)
I0520 21:13:09.224373  8812 net.cpp:165] Memory required for data: 505198080
I0520 21:13:09.224388  8812 layer_factory.hpp:77] Creating layer drop3
I0520 21:13:09.224402  8812 net.cpp:106] Creating Layer drop3
I0520 21:13:09.224411  8812 net.cpp:454] drop3 <- ip3
I0520 21:13:09.224424  8812 net.cpp:397] drop3 -> ip3 (in-place)
I0520 21:13:09.224465  8812 net.cpp:150] Setting up drop3
I0520 21:13:09.224478  8812 net.cpp:157] Top shape: 320 11 (3520)
I0520 21:13:09.224488  8812 net.cpp:165] Memory required for data: 505212160
I0520 21:13:09.224498  8812 layer_factory.hpp:77] Creating layer ip3_drop3_0_split
I0520 21:13:09.224510  8812 net.cpp:106] Creating Layer ip3_drop3_0_split
I0520 21:13:09.224526  8812 net.cpp:454] ip3_drop3_0_split <- ip3
I0520 21:13:09.224540  8812 net.cpp:411] ip3_drop3_0_split -> ip3_drop3_0_split_0
I0520 21:13:09.224555  8812 net.cpp:411] ip3_drop3_0_split -> ip3_drop3_0_split_1
I0520 21:13:09.224629  8812 net.cpp:150] Setting up ip3_drop3_0_split
I0520 21:13:09.224642  8812 net.cpp:157] Top shape: 320 11 (3520)
I0520 21:13:09.224654  8812 net.cpp:157] Top shape: 320 11 (3520)
I0520 21:13:09.224665  8812 net.cpp:165] Memory required for data: 505240320
I0520 21:13:09.224675  8812 layer_factory.hpp:77] Creating layer accuracy
I0520 21:13:09.224696  8812 net.cpp:106] Creating Layer accuracy
I0520 21:13:09.224707  8812 net.cpp:454] accuracy <- ip3_drop3_0_split_0
I0520 21:13:09.224720  8812 net.cpp:454] accuracy <- label_data_hdf5_1_split_0
I0520 21:13:09.224732  8812 net.cpp:411] accuracy -> accuracy
…
