…
I0521 05:45:31.318083 30656 net.cpp:322] The NetState phase (0) differed from the phase (1) specified by a rule in layer data_hdf5
I0521 05:45:31.318148 30656 net.cpp:322] The NetState phase (0) differed from the phase (1) specified by a rule in layer accuracy
I0521 05:45:31.318526 30656 net.cpp:49] Initializing net from parameters: 
name: "caffe_test_127x50_x_unshifted"
state {
  phase: TRAIN
}
layer {
  name: "data_hdf5"
  type: "HDF5Data"
  top: "data"
  top: "label"
  include {
    phase: TRAIN
  }
  hdf5_data_param {
    source: "/lustre/atlas/proj-shared/hep105/caffe_titan/minosmatch_nukecczdefs_127x50_x_unshifted_me1Bmc.trainlist"
    batch_size: 710
  }
}
layer {
  name: "conv1"
  type: "Convolution"
  bottom: "data"
  top: "conv1"
  convolution_param {
    num_output: 12
    pad: 0
    stride: 1
    weight_filler {
      type: "xavier"
    }
    bias_filler {
      type: "constant"
    }
    kernel_h: 8
    kernel_w: 3
  }
}
layer {
  name: "relu1"
  type: "ReLU"
  bottom: "conv1"
  top: "conv1"
}
layer {
  name: "pool1"
  type: "Pooling"
  bottom: "conv1"
  top: "pool1"
  pooling_param {
    pool: MAX
    kernel_h: 2
    kernel_w: 1
    stride_h: 2
    stride_w: 1
  }
}
layer {
  name: "conv2"
  type: "Convolution"
  bottom: "pool1"
  top: "conv2"
  convolution_param {
    num_output: 20
    pad: 0
    stride: 1
    weight_filler {
      type: "xavier"
    }
    bias_filler {
      type: "constant"
    }
    kernel_h: 7
    kernel_w: 3
  }
}
layer {
  name: "relu2"
  type: "ReLU"
  bottom: "conv2"
  top: "conv2"
}
layer {
  name: "pool2"
  type: "Pooling"
  bottom: "conv2"
  top: "pool2"
  pooling_param {
    pool: MAX
    kernel_h: 2
    kernel_w: 1
    stride_h: 2
    stride_w: 1
  }
}
layer {
  name: "conv3"
  type: "Convolution"
  bottom: "pool2"
  top: "conv3"
  convolution_param {
    num_output: 28
    pad: 0
    stride: 1
    weight_filler {
      type: "xavier"
    }
    bias_filler {
      type: "constant"
    }
    kernel_h: 6
    kernel_w: 3
  }
}
layer {
  name: "relu3"
  type: "ReLU"
  bottom: "conv3"
  top: "conv3"
}
layer {
  name: "pool3"
  type: "Pooling"
  bottom: "conv3"
  top: "pool3"
  pooling_param {
    pool: MAX
    kernel_h: 2
    kernel_w: 1
    stride_h: 2
    stride_w: 1
  }
}
layer {
  name: "conv4"
  type: "Convolution"
  bottom: "pool3"
  top: "conv4"
  convolution_param {
    num_output: 36
    pad: 0
    stride: 1
    weight_filler {
      type: "xavier"
    }
    bias_filler {
      type: "constant"
    }
    kernel_h: 6
    kernel_w: 3
  }
}
layer {
  name: "relu4"
  type: "ReLU"
  bottom: "conv4"
  top: "conv4"
}
layer {
  name: "pool4"
  type: "Pooling"
  bottom: "conv4"
  top: "pool4"
  pooling_param {
    pool: MAX
    kernel_h: 2
    kernel_w: 1
    stride_h: 2
    stride_w: 1
  }
}
layer {
  name: "ip1"
  type: "InnerProduct"
  bottom: "pool4"
  top: "ip1"
  inner_product_param {
    num_output: 196
    weight_filler {
      type: "xavier"
    }
    bias_filler {
      type: "constant"
    }
  }
}
layer {
  name: "relu5"
  type: "ReLU"
  bottom: "ip1"
  top: "ip1"
}
layer {
  name: "drop1"
  type: "Dropout"
  bottom: "ip1"
  top: "ip1"
  dropout_param {
    dropout_ratio: 0.5
  }
}
layer {
  name: "ip2"
  type: "InnerProduct"
  bottom: "ip1"
  top: "ip2"
  inner_product_param {
    num_output: 98
    weight_filler {
      type: "xavier"
    }
    bias_filler {
      type: "constant"
    }
  }
}
layer {
  name: "relu6"
  type: "ReLU"
  bottom: "ip2"
  top: "ip2"
}
layer {
  name: "drop2"
  type: "Dropout"
  bottom: "ip2"
  top: "ip2"
  dropout_param {
    dropout_ratio: 0.5
  }
}
layer {
  name: "ip3"
  type: "InnerProduct"
  bottom: "ip2"
  top: "ip3"
  inner_product_param {
    num_output: 11
    weight_filler {
      type: "xavier"
    }
    bias_filler {
      type: "constant"
    }
  }
}
layer {
  name: "drop3"
  type: "Dropout"
  bottom: "ip3"
  top: "ip3"
  dropout_param {
    dropout_ratio: 0.5
  }
}
layer {
  name: "loss"
  type: "SoftmaxWithLoss"
  bottom: "ip3"
  bottom: "label"
  top: "loss"
}
I0521 05:45:31.318728 30656 layer_factory.hpp:77] Creating layer data_hdf5
I0521 05:45:31.318758 30656 net.cpp:106] Creating Layer data_hdf5
I0521 05:45:31.318783 30656 net.cpp:411] data_hdf5 -> data
I0521 05:45:31.318817 30656 net.cpp:411] data_hdf5 -> label
I0521 05:45:31.318859 30656 hdf5_data_layer.cpp:79] Loading list of HDF5 filenames from: /lustre/atlas/proj-shared/hep105/caffe_titan/minosmatch_nukecczdefs_127x50_x_unshifted_me1Bmc.trainlist
I0521 05:45:31.320050 30656 hdf5_data_layer.cpp:93] Number of HDF5 files: 15
I0521 05:45:31.322266 30656 hdf5.cpp:32] Datatype class: H5T_FLOAT
I0521 05:45:52.973063 30656 hdf5.cpp:35] Datatype class: H5T_INTEGER
I0521 05:45:52.978245 30656 net.cpp:150] Setting up data_hdf5
I0521 05:45:52.978287 30656 net.cpp:157] Top shape: 710 1 127 50 (4508500)
I0521 05:45:52.978304 30656 net.cpp:157] Top shape: 710 (710)
I0521 05:45:52.978317 30656 net.cpp:165] Memory required for data: 18036840
I0521 05:45:52.978337 30656 layer_factory.hpp:77] Creating layer conv1
I0521 05:45:52.978384 30656 net.cpp:106] Creating Layer conv1
I0521 05:45:52.978397 30656 net.cpp:454] conv1 <- data
I0521 05:45:52.978431 30656 net.cpp:411] conv1 -> conv1
I0521 05:45:53.345405 30656 net.cpp:150] Setting up conv1
I0521 05:45:53.345460 30656 net.cpp:157] Top shape: 710 12 120 48 (49075200)
I0521 05:45:53.345482 30656 net.cpp:165] Memory required for data: 214337640
I0521 05:45:53.345513 30656 layer_factory.hpp:77] Creating layer relu1
I0521 05:45:53.345535 30656 net.cpp:106] Creating Layer relu1
I0521 05:45:53.345554 30656 net.cpp:454] relu1 <- conv1
I0521 05:45:53.345590 30656 net.cpp:397] relu1 -> conv1 (in-place)
I0521 05:45:53.346130 30656 net.cpp:150] Setting up relu1
I0521 05:45:53.346153 30656 net.cpp:157] Top shape: 710 12 120 48 (49075200)
I0521 05:45:53.346168 30656 net.cpp:165] Memory required for data: 410638440
I0521 05:45:53.346184 30656 layer_factory.hpp:77] Creating layer pool1
I0521 05:45:53.346210 30656 net.cpp:106] Creating Layer pool1
I0521 05:45:53.346225 30656 net.cpp:454] pool1 <- conv1
I0521 05:45:53.346240 30656 net.cpp:411] pool1 -> pool1
I0521 05:45:53.346334 30656 net.cpp:150] Setting up pool1
I0521 05:45:53.346352 30656 net.cpp:157] Top shape: 710 12 60 48 (24537600)
I0521 05:45:53.346374 30656 net.cpp:165] Memory required for data: 508788840
I0521 05:45:53.346387 30656 layer_factory.hpp:77] Creating layer conv2
I0521 05:45:53.346411 30656 net.cpp:106] Creating Layer conv2
I0521 05:45:53.346426 30656 net.cpp:454] conv2 <- pool1
I0521 05:45:53.346443 30656 net.cpp:411] conv2 -> conv2
I0521 05:45:53.349124 30656 net.cpp:150] Setting up conv2
I0521 05:45:53.349155 30656 net.cpp:157] Top shape: 710 20 54 46 (35272800)
I0521 05:45:53.349169 30656 net.cpp:165] Memory required for data: 649880040
I0521 05:45:53.349196 30656 layer_factory.hpp:77] Creating layer relu2
I0521 05:45:53.349225 30656 net.cpp:106] Creating Layer relu2
I0521 05:45:53.349238 30656 net.cpp:454] relu2 <- conv2
I0521 05:45:53.349253 30656 net.cpp:397] relu2 -> conv2 (in-place)
I0521 05:45:53.349608 30656 net.cpp:150] Setting up relu2
I0521 05:45:53.349629 30656 net.cpp:157] Top shape: 710 20 54 46 (35272800)
I0521 05:45:53.349642 30656 net.cpp:165] Memory required for data: 790971240
I0521 05:45:53.349654 30656 layer_factory.hpp:77] Creating layer pool2
I0521 05:45:53.349673 30656 net.cpp:106] Creating Layer pool2
I0521 05:45:53.349694 30656 net.cpp:454] pool2 <- conv2
I0521 05:45:53.349731 30656 net.cpp:411] pool2 -> pool2
I0521 05:45:53.349814 30656 net.cpp:150] Setting up pool2
I0521 05:45:53.349831 30656 net.cpp:157] Top shape: 710 20 27 46 (17636400)
I0521 05:45:53.349846 30656 net.cpp:165] Memory required for data: 861516840
I0521 05:45:53.349865 30656 layer_factory.hpp:77] Creating layer conv3
I0521 05:45:53.349886 30656 net.cpp:106] Creating Layer conv3
I0521 05:45:53.349900 30656 net.cpp:454] conv3 <- pool2
I0521 05:45:53.349915 30656 net.cpp:411] conv3 -> conv3
I0521 05:45:53.351866 30656 net.cpp:150] Setting up conv3
I0521 05:45:53.351891 30656 net.cpp:157] Top shape: 710 28 22 44 (19243840)
I0521 05:45:53.351912 30656 net.cpp:165] Memory required for data: 938492200
I0521 05:45:53.351934 30656 layer_factory.hpp:77] Creating layer relu3
I0521 05:45:53.351956 30656 net.cpp:106] Creating Layer relu3
I0521 05:45:53.351979 30656 net.cpp:454] relu3 <- conv3
I0521 05:45:53.351995 30656 net.cpp:397] relu3 -> conv3 (in-place)
I0521 05:45:53.352483 30656 net.cpp:150] Setting up relu3
I0521 05:45:53.352509 30656 net.cpp:157] Top shape: 710 28 22 44 (19243840)
I0521 05:45:53.352521 30656 net.cpp:165] Memory required for data: 1015467560
I0521 05:45:53.352537 30656 layer_factory.hpp:77] Creating layer pool3
I0521 05:45:53.352561 30656 net.cpp:106] Creating Layer pool3
I0521 05:45:53.352576 30656 net.cpp:454] pool3 <- conv3
I0521 05:45:53.352591 30656 net.cpp:411] pool3 -> pool3
I0521 05:45:53.352680 30656 net.cpp:150] Setting up pool3
I0521 05:45:53.352699 30656 net.cpp:157] Top shape: 710 28 11 44 (9621920)
I0521 05:45:53.352713 30656 net.cpp:165] Memory required for data: 1053955240
I0521 05:45:53.352725 30656 layer_factory.hpp:77] Creating layer conv4
I0521 05:45:53.352746 30656 net.cpp:106] Creating Layer conv4
I0521 05:45:53.352758 30656 net.cpp:454] conv4 <- pool3
I0521 05:45:53.352774 30656 net.cpp:411] conv4 -> conv4
I0521 05:45:53.355566 30656 net.cpp:150] Setting up conv4
I0521 05:45:53.355602 30656 net.cpp:157] Top shape: 710 36 6 42 (6441120)
I0521 05:45:53.355615 30656 net.cpp:165] Memory required for data: 1079719720
I0521 05:45:53.355640 30656 layer_factory.hpp:77] Creating layer relu4
I0521 05:45:53.355669 30656 net.cpp:106] Creating Layer relu4
I0521 05:45:53.355682 30656 net.cpp:454] relu4 <- conv4
I0521 05:45:53.355698 30656 net.cpp:397] relu4 -> conv4 (in-place)
I0521 05:45:53.356199 30656 net.cpp:150] Setting up relu4
I0521 05:45:53.356222 30656 net.cpp:157] Top shape: 710 36 6 42 (6441120)
I0521 05:45:53.356236 30656 net.cpp:165] Memory required for data: 1105484200
I0521 05:45:53.356252 30656 layer_factory.hpp:77] Creating layer pool4
I0521 05:45:53.356267 30656 net.cpp:106] Creating Layer pool4
I0521 05:45:53.356281 30656 net.cpp:454] pool4 <- conv4
I0521 05:45:53.356304 30656 net.cpp:411] pool4 -> pool4
I0521 05:45:53.356380 30656 net.cpp:150] Setting up pool4
I0521 05:45:53.356408 30656 net.cpp:157] Top shape: 710 36 3 42 (3220560)
I0521 05:45:53.356422 30656 net.cpp:165] Memory required for data: 1118366440
I0521 05:45:53.356437 30656 layer_factory.hpp:77] Creating layer ip1
I0521 05:45:53.356458 30656 net.cpp:106] Creating Layer ip1
I0521 05:45:53.356472 30656 net.cpp:454] ip1 <- pool4
I0521 05:45:53.356494 30656 net.cpp:411] ip1 -> ip1
I0521 05:45:53.371922 30656 net.cpp:150] Setting up ip1
I0521 05:45:53.371953 30656 net.cpp:157] Top shape: 710 196 (139160)
I0521 05:45:53.371974 30656 net.cpp:165] Memory required for data: 1118923080
I0521 05:45:53.372000 30656 layer_factory.hpp:77] Creating layer relu5
I0521 05:45:53.372022 30656 net.cpp:106] Creating Layer relu5
I0521 05:45:53.372048 30656 net.cpp:454] relu5 <- ip1
I0521 05:45:53.372066 30656 net.cpp:397] relu5 -> ip1 (in-place)
I0521 05:45:53.372422 30656 net.cpp:150] Setting up relu5
I0521 05:45:53.372442 30656 net.cpp:157] Top shape: 710 196 (139160)
I0521 05:45:53.372455 30656 net.cpp:165] Memory required for data: 1119479720
I0521 05:45:53.372470 30656 layer_factory.hpp:77] Creating layer drop1
I0521 05:45:53.372501 30656 net.cpp:106] Creating Layer drop1
I0521 05:45:53.372516 30656 net.cpp:454] drop1 <- ip1
I0521 05:45:53.372544 30656 net.cpp:397] drop1 -> ip1 (in-place)
I0521 05:45:53.372604 30656 net.cpp:150] Setting up drop1
I0521 05:45:53.372642 30656 net.cpp:157] Top shape: 710 196 (139160)
I0521 05:45:53.372658 30656 net.cpp:165] Memory required for data: 1120036360
I0521 05:45:53.372673 30656 layer_factory.hpp:77] Creating layer ip2
I0521 05:45:53.372694 30656 net.cpp:106] Creating Layer ip2
I0521 05:45:53.372712 30656 net.cpp:454] ip2 <- ip1
I0521 05:45:53.372728 30656 net.cpp:411] ip2 -> ip2
I0521 05:45:53.373222 30656 net.cpp:150] Setting up ip2
I0521 05:45:53.373241 30656 net.cpp:157] Top shape: 710 98 (69580)
I0521 05:45:53.373255 30656 net.cpp:165] Memory required for data: 1120314680
I0521 05:45:53.373275 30656 layer_factory.hpp:77] Creating layer relu6
I0521 05:45:53.373297 30656 net.cpp:106] Creating Layer relu6
I0521 05:45:53.373311 30656 net.cpp:454] relu6 <- ip2
I0521 05:45:53.373325 30656 net.cpp:397] relu6 -> ip2 (in-place)
I0521 05:45:53.373873 30656 net.cpp:150] Setting up relu6
I0521 05:45:53.373896 30656 net.cpp:157] Top shape: 710 98 (69580)
I0521 05:45:53.373910 30656 net.cpp:165] Memory required for data: 1120593000
I0521 05:45:53.373926 30656 layer_factory.hpp:77] Creating layer drop2
I0521 05:45:53.373950 30656 net.cpp:106] Creating Layer drop2
I0521 05:45:53.373963 30656 net.cpp:454] drop2 <- ip2
I0521 05:45:53.373980 30656 net.cpp:397] drop2 -> ip2 (in-place)
I0521 05:45:53.374034 30656 net.cpp:150] Setting up drop2
I0521 05:45:53.374050 30656 net.cpp:157] Top shape: 710 98 (69580)
I0521 05:45:53.374063 30656 net.cpp:165] Memory required for data: 1120871320
I0521 05:45:53.374075 30656 layer_factory.hpp:77] Creating layer ip3
I0521 05:45:53.374094 30656 net.cpp:106] Creating Layer ip3
I0521 05:45:53.374107 30656 net.cpp:454] ip3 <- ip2
I0521 05:45:53.374133 30656 net.cpp:411] ip3 -> ip3
I0521 05:45:53.374359 30656 net.cpp:150] Setting up ip3
I0521 05:45:53.374379 30656 net.cpp:157] Top shape: 710 11 (7810)
I0521 05:45:53.374392 30656 net.cpp:165] Memory required for data: 1120902560
I0521 05:45:53.374413 30656 layer_factory.hpp:77] Creating layer drop3
I0521 05:45:53.374434 30656 net.cpp:106] Creating Layer drop3
I0521 05:45:53.374447 30656 net.cpp:454] drop3 <- ip3
I0521 05:45:53.374462 30656 net.cpp:397] drop3 -> ip3 (in-place)
I0521 05:45:53.374516 30656 net.cpp:150] Setting up drop3
I0521 05:45:53.374531 30656 net.cpp:157] Top shape: 710 11 (7810)
I0521 05:45:53.374544 30656 net.cpp:165] Memory required for data: 1120933800
I0521 05:45:53.374558 30656 layer_factory.hpp:77] Creating layer loss
I0521 05:45:53.374583 30656 net.cpp:106] Creating Layer loss
I0521 05:45:53.374595 30656 net.cpp:454] loss <- ip3
I0521 05:45:53.374615 30656 net.cpp:454] loss <- label
I0521 05:45:53.374631 30656 net.cpp:411] loss -> loss
I0521 05:45:53.374650 30656 layer_factory.hpp:77] Creating layer loss
…
I0521 05:45:53.377454 30656 solver.cpp:181] Creating test net (#0) specified by net file: /lustre/atlas/proj-shared/hep105/caffe_titan/caffe_workflow/logs_batch_size_test/batch_size_710_2016-05-20T11.20.58.449384.prototxt
I0521 05:45:53.377532 30656 net.cpp:322] The NetState phase (1) differed from the phase (0) specified by a rule in layer data_hdf5
I0521 05:45:53.377910 30656 net.cpp:49] Initializing net from parameters: 
name: "caffe_test_127x50_x_unshifted"
state {
  phase: TEST
}
layer {
  name: "data_hdf5"
  type: "HDF5Data"
  top: "data"
  top: "label"
  include {
    phase: TEST
  }
  hdf5_data_param {
    source: "/lustre/atlas/proj-shared/hep105/caffe_titan/minosmatch_nukecczdefs_127x50_x_unshifted_me1Bmc.testlist"
    batch_size: 710
  }
}
layer {
  name: "conv1"
  type: "Convolution"
  bottom: "data"
  top: "conv1"
  convolution_param {
    num_output: 12
    pad: 0
    stride: 1
    weight_filler {
      type: "xavier"
    }
    bias_filler {
      type: "constant"
    }
    kernel_h: 8
    kernel_w: 3
  }
}
layer {
  name: "relu1"
  type: "ReLU"
  bottom: "conv1"
  top: "conv1"
}
layer {
  name: "pool1"
  type: "Pooling"
  bottom: "conv1"
  top: "pool1"
  pooling_param {
    pool: MAX
    kernel_h: 2
    kernel_w: 1
    stride_h: 2
    stride_w: 1
  }
}
layer {
  name: "conv2"
  type: "Convolution"
  bottom: "pool1"
  top: "conv2"
  convolution_param {
    num_output: 20
    pad: 0
    stride: 1
    weight_filler {
      type: "xavier"
    }
    bias_filler {
      type: "constant"
    }
    kernel_h: 7
    kernel_w: 3
  }
}
layer {
  name: "relu2"
  type: "ReLU"
  bottom: "conv2"
  top: "conv2"
}
layer {
  name: "pool2"
  type: "Pooling"
  bottom: "conv2"
  top: "pool2"
  pooling_param {
    pool: MAX
    kernel_h: 2
    kernel_w: 1
    stride_h: 2
    stride_w: 1
  }
}
layer {
  name: "conv3"
  type: "Convolution"
  bottom: "pool2"
  top: "conv3"
  convolution_param {
    num_output: 28
    pad: 0
    stride: 1
    weight_filler {
      type: "xavier"
    }
    bias_filler {
      type: "constant"
    }
    kernel_h: 6
    kernel_w: 3
  }
}
layer {
  name: "relu3"
  type: "ReLU"
  bottom: "conv3"
  top: "conv3"
}
layer {
  name: "pool3"
  type: "Pooling"
  bottom: "conv3"
  top: "pool3"
  pooling_param {
    pool: MAX
    kernel_h: 2
    kernel_w: 1
    stride_h: 2
    stride_w: 1
  }
}
layer {
  name: "conv4"
  type: "Convolution"
  bottom: "pool3"
  top: "conv4"
  convolution_param {
    num_output: 36
    pad: 0
    stride: 1
    weight_filler {
      type: "xavier"
    }
    bias_filler {
      type: "constant"
    }
    kernel_h: 6
    kernel_w: 3
  }
}
layer {
  name: "relu4"
  type: "ReLU"
  bottom: "conv4"
  top: "conv4"
}
layer {
  name: "pool4"
  type: "Pooling"
  bottom: "conv4"
  top: "pool4"
  pooling_param {
    pool: MAX
    kernel_h: 2
    kernel_w: 1
    stride_h: 2
    stride_w: 1
  }
}
layer {
  name: "ip1"
  type: "InnerProduct"
  bottom: "pool4"
  top: "ip1"
  inner_product_param {
    num_output: 196
    weight_filler {
      type: "xavier"
    }
    bias_filler {
      type: "constant"
    }
  }
}
layer {
  name: "relu5"
  type: "ReLU"
  bottom: "ip1"
  top: "ip1"
}
layer {
  name: "drop1"
  type: "Dropout"
  bottom: "ip1"
  top: "ip1"
  dropout_param {
    dropout_ratio: 0.5
  }
}
layer {
  name: "ip2"
  type: "InnerProduct"
  bottom: "ip1"
  top: "ip2"
  inner_product_param {
    num_output: 98
    weight_filler {
      type: "xavier"
    }
    bias_filler {
      type: "constant"
    }
  }
}
layer {
  name: "relu6"
  type: "ReLU"
  bottom: "ip2"
  top: "ip2"
}
layer {
  name: "drop2"
  type: "Dropout"
  bottom: "ip2"
  top: "ip2"
  dropout_param {
    dropout_ratio: 0.5
  }
}
layer {
  name: "ip3"
  type: "InnerProduct"
  bottom: "ip2"
  top: "ip3"
  inner_product_param {
    num_output: 11
    weight_filler {
      type: "xavier"
    }
    bias_filler {
      type: "constant"
    }
  }
}
layer {
  name: "drop3"
  type: "Dropout"
  bottom: "ip3"
  top: "ip3"
  dropout_param {
    dropout_ratio: 0.5
  }
}
layer {
  name: "accuracy"
  type: "Accuracy"
  bottom: "ip3"
  bottom: "label"
  top: "accuracy"
  include {
    phase: TEST
  }
}
layer {
  name: "loss"
  type: "SoftmaxWithLoss"
  bottom: "ip3"
  bottom: "label"
  top: "loss"
}
I0521 05:45:53.378135 30656 layer_factory.hpp:77] Creating layer data_hdf5
I0521 05:45:53.378155 30656 net.cpp:106] Creating Layer data_hdf5
I0521 05:45:53.378171 30656 net.cpp:411] data_hdf5 -> data
I0521 05:45:53.378193 30656 net.cpp:411] data_hdf5 -> label
I0521 05:45:53.378211 30656 hdf5_data_layer.cpp:79] Loading list of HDF5 filenames from: /lustre/atlas/proj-shared/hep105/caffe_titan/minosmatch_nukecczdefs_127x50_x_unshifted_me1Bmc.testlist
I0521 05:45:53.379461 30656 hdf5_data_layer.cpp:93] Number of HDF5 files: 3
I0521 05:46:14.683045 30656 net.cpp:150] Setting up data_hdf5
I0521 05:46:14.683214 30656 net.cpp:157] Top shape: 710 1 127 50 (4508500)
I0521 05:46:14.683233 30656 net.cpp:157] Top shape: 710 (710)
I0521 05:46:14.683244 30656 net.cpp:165] Memory required for data: 18036840
I0521 05:46:14.683259 30656 layer_factory.hpp:77] Creating layer label_data_hdf5_1_split
I0521 05:46:14.683295 30656 net.cpp:106] Creating Layer label_data_hdf5_1_split
I0521 05:46:14.683308 30656 net.cpp:454] label_data_hdf5_1_split <- label
I0521 05:46:14.683343 30656 net.cpp:411] label_data_hdf5_1_split -> label_data_hdf5_1_split_0
I0521 05:46:14.683367 30656 net.cpp:411] label_data_hdf5_1_split -> label_data_hdf5_1_split_1
I0521 05:46:14.683454 30656 net.cpp:150] Setting up label_data_hdf5_1_split
I0521 05:46:14.683471 30656 net.cpp:157] Top shape: 710 (710)
I0521 05:46:14.683486 30656 net.cpp:157] Top shape: 710 (710)
I0521 05:46:14.683500 30656 net.cpp:165] Memory required for data: 18042520
I0521 05:46:14.683511 30656 layer_factory.hpp:77] Creating layer conv1
I0521 05:46:14.683544 30656 net.cpp:106] Creating Layer conv1
I0521 05:46:14.683558 30656 net.cpp:454] conv1 <- data
I0521 05:46:14.683575 30656 net.cpp:411] conv1 -> conv1
I0521 05:46:14.685531 30656 net.cpp:150] Setting up conv1
I0521 05:46:14.685557 30656 net.cpp:157] Top shape: 710 12 120 48 (49075200)
I0521 05:46:14.685578 30656 net.cpp:165] Memory required for data: 214343320
I0521 05:46:14.685602 30656 layer_factory.hpp:77] Creating layer relu1
I0521 05:46:14.685623 30656 net.cpp:106] Creating Layer relu1
I0521 05:46:14.685645 30656 net.cpp:454] relu1 <- conv1
I0521 05:46:14.685662 30656 net.cpp:397] relu1 -> conv1 (in-place)
I0521 05:46:14.686174 30656 net.cpp:150] Setting up relu1
I0521 05:46:14.686198 30656 net.cpp:157] Top shape: 710 12 120 48 (49075200)
I0521 05:46:14.686213 30656 net.cpp:165] Memory required for data: 410644120
I0521 05:46:14.686224 30656 layer_factory.hpp:77] Creating layer pool1
I0521 05:46:14.686254 30656 net.cpp:106] Creating Layer pool1
I0521 05:46:14.686269 30656 net.cpp:454] pool1 <- conv1
I0521 05:46:14.686283 30656 net.cpp:411] pool1 -> pool1
I0521 05:46:14.686373 30656 net.cpp:150] Setting up pool1
I0521 05:46:14.686391 30656 net.cpp:157] Top shape: 710 12 60 48 (24537600)
I0521 05:46:14.686403 30656 net.cpp:165] Memory required for data: 508794520
I0521 05:46:14.686424 30656 layer_factory.hpp:77] Creating layer conv2
I0521 05:46:14.686445 30656 net.cpp:106] Creating Layer conv2
I0521 05:46:14.686458 30656 net.cpp:454] conv2 <- pool1
I0521 05:46:14.686476 30656 net.cpp:411] conv2 -> conv2
I0521 05:46:14.688416 30656 net.cpp:150] Setting up conv2
I0521 05:46:14.688443 30656 net.cpp:157] Top shape: 710 20 54 46 (35272800)
I0521 05:46:14.688457 30656 net.cpp:165] Memory required for data: 649885720
I0521 05:46:14.688482 30656 layer_factory.hpp:77] Creating layer relu2
I0521 05:46:14.688506 30656 net.cpp:106] Creating Layer relu2
I0521 05:46:14.688520 30656 net.cpp:454] relu2 <- conv2
I0521 05:46:14.688536 30656 net.cpp:397] relu2 -> conv2 (in-place)
I0521 05:46:14.688904 30656 net.cpp:150] Setting up relu2
I0521 05:46:14.688923 30656 net.cpp:157] Top shape: 710 20 54 46 (35272800)
I0521 05:46:14.688936 30656 net.cpp:165] Memory required for data: 790976920
I0521 05:46:14.688947 30656 layer_factory.hpp:77] Creating layer pool2
I0521 05:46:14.688966 30656 net.cpp:106] Creating Layer pool2
I0521 05:46:14.688987 30656 net.cpp:454] pool2 <- conv2
I0521 05:46:14.689003 30656 net.cpp:411] pool2 -> pool2
I0521 05:46:14.689095 30656 net.cpp:150] Setting up pool2
I0521 05:46:14.689111 30656 net.cpp:157] Top shape: 710 20 27 46 (17636400)
I0521 05:46:14.689124 30656 net.cpp:165] Memory required for data: 861522520
I0521 05:46:14.689139 30656 layer_factory.hpp:77] Creating layer conv3
I0521 05:46:14.689162 30656 net.cpp:106] Creating Layer conv3
I0521 05:46:14.689182 30656 net.cpp:454] conv3 <- pool2
I0521 05:46:14.689198 30656 net.cpp:411] conv3 -> conv3
I0521 05:46:14.691200 30656 net.cpp:150] Setting up conv3
I0521 05:46:14.691229 30656 net.cpp:157] Top shape: 710 28 22 44 (19243840)
I0521 05:46:14.691243 30656 net.cpp:165] Memory required for data: 938497880
I0521 05:46:14.691282 30656 layer_factory.hpp:77] Creating layer relu3
I0521 05:46:14.691298 30656 net.cpp:106] Creating Layer relu3
I0521 05:46:14.691311 30656 net.cpp:454] relu3 <- conv3
I0521 05:46:14.691344 30656 net.cpp:397] relu3 -> conv3 (in-place)
I0521 05:46:14.691844 30656 net.cpp:150] Setting up relu3
I0521 05:46:14.691867 30656 net.cpp:157] Top shape: 710 28 22 44 (19243840)
I0521 05:46:14.691880 30656 net.cpp:165] Memory required for data: 1015473240
I0521 05:46:14.691896 30656 layer_factory.hpp:77] Creating layer pool3
I0521 05:46:14.691911 30656 net.cpp:106] Creating Layer pool3
I0521 05:46:14.691933 30656 net.cpp:454] pool3 <- conv3
I0521 05:46:14.691949 30656 net.cpp:411] pool3 -> pool3
I0521 05:46:14.692035 30656 net.cpp:150] Setting up pool3
I0521 05:46:14.692054 30656 net.cpp:157] Top shape: 710 28 11 44 (9621920)
I0521 05:46:14.692068 30656 net.cpp:165] Memory required for data: 1053960920
I0521 05:46:14.692080 30656 layer_factory.hpp:77] Creating layer conv4
I0521 05:46:14.692100 30656 net.cpp:106] Creating Layer conv4
I0521 05:46:14.692113 30656 net.cpp:454] conv4 <- pool3
I0521 05:46:14.692138 30656 net.cpp:411] conv4 -> conv4
I0521 05:46:14.694244 30656 net.cpp:150] Setting up conv4
I0521 05:46:14.694268 30656 net.cpp:157] Top shape: 710 36 6 42 (6441120)
I0521 05:46:14.694289 30656 net.cpp:165] Memory required for data: 1079725400
I0521 05:46:14.694308 30656 layer_factory.hpp:77] Creating layer relu4
I0521 05:46:14.694329 30656 net.cpp:106] Creating Layer relu4
I0521 05:46:14.694350 30656 net.cpp:454] relu4 <- conv4
I0521 05:46:14.694367 30656 net.cpp:397] relu4 -> conv4 (in-place)
I0521 05:46:14.694860 30656 net.cpp:150] Setting up relu4
I0521 05:46:14.694883 30656 net.cpp:157] Top shape: 710 36 6 42 (6441120)
I0521 05:46:14.694897 30656 net.cpp:165] Memory required for data: 1105489880
I0521 05:46:14.694913 30656 layer_factory.hpp:77] Creating layer pool4
I0521 05:46:14.694929 30656 net.cpp:106] Creating Layer pool4
I0521 05:46:14.694952 30656 net.cpp:454] pool4 <- conv4
I0521 05:46:14.694968 30656 net.cpp:411] pool4 -> pool4
I0521 05:46:14.695055 30656 net.cpp:150] Setting up pool4
I0521 05:46:14.695071 30656 net.cpp:157] Top shape: 710 36 3 42 (3220560)
I0521 05:46:14.695086 30656 net.cpp:165] Memory required for data: 1118372120
I0521 05:46:14.695097 30656 layer_factory.hpp:77] Creating layer ip1
I0521 05:46:14.695122 30656 net.cpp:106] Creating Layer ip1
I0521 05:46:14.695135 30656 net.cpp:454] ip1 <- pool4
I0521 05:46:14.695152 30656 net.cpp:411] ip1 -> ip1
I0521 05:46:14.710635 30656 net.cpp:150] Setting up ip1
I0521 05:46:14.710667 30656 net.cpp:157] Top shape: 710 196 (139160)
I0521 05:46:14.710688 30656 net.cpp:165] Memory required for data: 1118928760
I0521 05:46:14.710714 30656 layer_factory.hpp:77] Creating layer relu5
I0521 05:46:14.710736 30656 net.cpp:106] Creating Layer relu5
I0521 05:46:14.710762 30656 net.cpp:454] relu5 <- ip1
I0521 05:46:14.710777 30656 net.cpp:397] relu5 -> ip1 (in-place)
I0521 05:46:14.711145 30656 net.cpp:150] Setting up relu5
I0521 05:46:14.711165 30656 net.cpp:157] Top shape: 710 196 (139160)
I0521 05:46:14.711179 30656 net.cpp:165] Memory required for data: 1119485400
I0521 05:46:14.711194 30656 layer_factory.hpp:77] Creating layer drop1
I0521 05:46:14.711223 30656 net.cpp:106] Creating Layer drop1
I0521 05:46:14.711238 30656 net.cpp:454] drop1 <- ip1
I0521 05:46:14.711263 30656 net.cpp:397] drop1 -> ip1 (in-place)
I0521 05:46:14.711320 30656 net.cpp:150] Setting up drop1
I0521 05:46:14.711336 30656 net.cpp:157] Top shape: 710 196 (139160)
I0521 05:46:14.711349 30656 net.cpp:165] Memory required for data: 1120042040
I0521 05:46:14.711362 30656 layer_factory.hpp:77] Creating layer ip2
I0521 05:46:14.711379 30656 net.cpp:106] Creating Layer ip2
I0521 05:46:14.711393 30656 net.cpp:454] ip2 <- ip1
I0521 05:46:14.711416 30656 net.cpp:411] ip2 -> ip2
I0521 05:46:14.711915 30656 net.cpp:150] Setting up ip2
I0521 05:46:14.711935 30656 net.cpp:157] Top shape: 710 98 (69580)
I0521 05:46:14.711947 30656 net.cpp:165] Memory required for data: 1120320360
I0521 05:46:14.711987 30656 layer_factory.hpp:77] Creating layer relu6
I0521 05:46:14.712004 30656 net.cpp:106] Creating Layer relu6
I0521 05:46:14.712018 30656 net.cpp:454] relu6 <- ip2
I0521 05:46:14.712033 30656 net.cpp:397] relu6 -> ip2 (in-place)
I0521 05:46:14.712592 30656 net.cpp:150] Setting up relu6
I0521 05:46:14.712621 30656 net.cpp:157] Top shape: 710 98 (69580)
I0521 05:46:14.712635 30656 net.cpp:165] Memory required for data: 1120598680
I0521 05:46:14.712651 30656 layer_factory.hpp:77] Creating layer drop2
I0521 05:46:14.712677 30656 net.cpp:106] Creating Layer drop2
I0521 05:46:14.712690 30656 net.cpp:454] drop2 <- ip2
I0521 05:46:14.712707 30656 net.cpp:397] drop2 -> ip2 (in-place)
I0521 05:46:14.712764 30656 net.cpp:150] Setting up drop2
I0521 05:46:14.712779 30656 net.cpp:157] Top shape: 710 98 (69580)
I0521 05:46:14.712792 30656 net.cpp:165] Memory required for data: 1120877000
I0521 05:46:14.712805 30656 layer_factory.hpp:77] Creating layer ip3
I0521 05:46:14.712824 30656 net.cpp:106] Creating Layer ip3
I0521 05:46:14.712836 30656 net.cpp:454] ip3 <- ip2
I0521 05:46:14.712860 30656 net.cpp:411] ip3 -> ip3
I0521 05:46:14.713099 30656 net.cpp:150] Setting up ip3
I0521 05:46:14.713117 30656 net.cpp:157] Top shape: 710 11 (7810)
I0521 05:46:14.713130 30656 net.cpp:165] Memory required for data: 1120908240
I0521 05:46:14.713150 30656 layer_factory.hpp:77] Creating layer drop3
I0521 05:46:14.713173 30656 net.cpp:106] Creating Layer drop3
I0521 05:46:14.713186 30656 net.cpp:454] drop3 <- ip3
I0521 05:46:14.713202 30656 net.cpp:397] drop3 -> ip3 (in-place)
I0521 05:46:14.713250 30656 net.cpp:150] Setting up drop3
I0521 05:46:14.713274 30656 net.cpp:157] Top shape: 710 11 (7810)
I0521 05:46:14.713285 30656 net.cpp:165] Memory required for data: 1120939480
I0521 05:46:14.713304 30656 layer_factory.hpp:77] Creating layer ip3_drop3_0_split
I0521 05:46:14.713320 30656 net.cpp:106] Creating Layer ip3_drop3_0_split
I0521 05:46:14.713332 30656 net.cpp:454] ip3_drop3_0_split <- ip3
I0521 05:46:14.713351 30656 net.cpp:411] ip3_drop3_0_split -> ip3_drop3_0_split_0
I0521 05:46:14.713376 30656 net.cpp:411] ip3_drop3_0_split -> ip3_drop3_0_split_1
I0521 05:46:14.713464 30656 net.cpp:150] Setting up ip3_drop3_0_split
I0521 05:46:14.713479 30656 net.cpp:157] Top shape: 710 11 (7810)
I0521 05:46:14.713495 30656 net.cpp:157] Top shape: 710 11 (7810)
I0521 05:46:14.713510 30656 net.cpp:165] Memory required for data: 1121001960
I0521 05:46:14.713521 30656 layer_factory.hpp:77] Creating layer accuracy
I0521 05:46:14.713551 30656 net.cpp:106] Creating Layer accuracy
I0521 05:46:14.713564 30656 net.cpp:454] accuracy <- ip3_drop3_0_split_0
I0521 05:46:14.713578 30656 net.cpp:454] accuracy <- label_data_hdf5_1_split_0
I0521 05:46:14.713594 30656 net.cpp:411] accuracy -> accuracy
…
