…
I0520 14:36:43.296020 23205 net.cpp:322] The NetState phase (0) differed from the phase (1) specified by a rule in layer data_hdf5
I0520 14:36:43.296085 23205 net.cpp:322] The NetState phase (0) differed from the phase (1) specified by a rule in layer accuracy
I0520 14:36:43.296461 23205 net.cpp:49] Initializing net from parameters: 
name: "caffe_test_127x50_x_unshifted"
state {
  phase: TRAIN
}
layer {
  name: "data_hdf5"
  type: "HDF5Data"
  top: "data"
  top: "label"
  include {
    phase: TRAIN
  }
  hdf5_data_param {
    source: "/lustre/atlas/proj-shared/hep105/caffe_titan/minosmatch_nukecczdefs_127x50_x_unshifted_me1Bmc.trainlist"
    batch_size: 130
  }
}
layer {
  name: "conv1"
  type: "Convolution"
  bottom: "data"
  top: "conv1"
  convolution_param {
    num_output: 12
    pad: 0
    stride: 1
    weight_filler {
      type: "xavier"
    }
    bias_filler {
      type: "constant"
    }
    kernel_h: 8
    kernel_w: 3
  }
}
layer {
  name: "relu1"
  type: "ReLU"
  bottom: "conv1"
  top: "conv1"
}
layer {
  name: "pool1"
  type: "Pooling"
  bottom: "conv1"
  top: "pool1"
  pooling_param {
    pool: MAX
    kernel_h: 2
    kernel_w: 1
    stride_h: 2
    stride_w: 1
  }
}
layer {
  name: "conv2"
  type: "Convolution"
  bottom: "pool1"
  top: "conv2"
  convolution_param {
    num_output: 20
    pad: 0
    stride: 1
    weight_filler {
      type: "xavier"
    }
    bias_filler {
      type: "constant"
    }
    kernel_h: 7
    kernel_w: 3
  }
}
layer {
  name: "relu2"
  type: "ReLU"
  bottom: "conv2"
  top: "conv2"
}
layer {
  name: "pool2"
  type: "Pooling"
  bottom: "conv2"
  top: "pool2"
  pooling_param {
    pool: MAX
    kernel_h: 2
    kernel_w: 1
    stride_h: 2
    stride_w: 1
  }
}
layer {
  name: "conv3"
  type: "Convolution"
  bottom: "pool2"
  top: "conv3"
  convolution_param {
    num_output: 28
    pad: 0
    stride: 1
    weight_filler {
      type: "xavier"
    }
    bias_filler {
      type: "constant"
    }
    kernel_h: 6
    kernel_w: 3
  }
}
layer {
  name: "relu3"
  type: "ReLU"
  bottom: "conv3"
  top: "conv3"
}
layer {
  name: "pool3"
  type: "Pooling"
  bottom: "conv3"
  top: "pool3"
  pooling_param {
    pool: MAX
    kernel_h: 2
    kernel_w: 1
    stride_h: 2
    stride_w: 1
  }
}
layer {
  name: "conv4"
  type: "Convolution"
  bottom: "pool3"
  top: "conv4"
  convolution_param {
    num_output: 36
    pad: 0
    stride: 1
    weight_filler {
      type: "xavier"
    }
    bias_filler {
      type: "constant"
    }
    kernel_h: 6
    kernel_w: 3
  }
}
layer {
  name: "relu4"
  type: "ReLU"
  bottom: "conv4"
  top: "conv4"
}
layer {
  name: "pool4"
  type: "Pooling"
  bottom: "conv4"
  top: "pool4"
  pooling_param {
    pool: MAX
    kernel_h: 2
    kernel_w: 1
    stride_h: 2
    stride_w: 1
  }
}
layer {
  name: "ip1"
  type: "InnerProduct"
  bottom: "pool4"
  top: "ip1"
  inner_product_param {
    num_output: 196
    weight_filler {
      type: "xavier"
    }
    bias_filler {
      type: "constant"
    }
  }
}
layer {
  name: "relu5"
  type: "ReLU"
  bottom: "ip1"
  top: "ip1"
}
layer {
  name: "drop1"
  type: "Dropout"
  bottom: "ip1"
  top: "ip1"
  dropout_param {
    dropout_ratio: 0.5
  }
}
layer {
  name: "ip2"
  type: "InnerProduct"
  bottom: "ip1"
  top: "ip2"
  inner_product_param {
    num_output: 98
    weight_filler {
      type: "xavier"
    }
    bias_filler {
      type: "constant"
    }
  }
}
layer {
  name: "relu6"
  type: "ReLU"
  bottom: "ip2"
  top: "ip2"
}
layer {
  name: "drop2"
  type: "Dropout"
  bottom: "ip2"
  top: "ip2"
  dropout_param {
    dropout_ratio: 0.5
  }
}
layer {
  name: "ip3"
  type: "InnerProduct"
  bottom: "ip2"
  top: "ip3"
  inner_product_param {
    num_output: 11
    weight_filler {
      type: "xavier"
    }
    bias_filler {
      type: "constant"
    }
  }
}
layer {
  name: "drop3"
  type: "Dropout"
  bottom: "ip3"
  top: "ip3"
  dropout_param {
    dropout_ratio: 0.5
  }
}
layer {
  name: "loss"
  type: "SoftmaxWithLoss"
  bottom: "ip3"
  bottom: "label"
  top: "loss"
}
I0520 14:36:43.296694 23205 layer_factory.hpp:77] Creating layer data_hdf5
I0520 14:36:43.296730 23205 net.cpp:106] Creating Layer data_hdf5
I0520 14:36:43.296746 23205 net.cpp:411] data_hdf5 -> data
I0520 14:36:43.296782 23205 net.cpp:411] data_hdf5 -> label
I0520 14:36:43.296824 23205 hdf5_data_layer.cpp:79] Loading list of HDF5 filenames from: /lustre/atlas/proj-shared/hep105/caffe_titan/minosmatch_nukecczdefs_127x50_x_unshifted_me1Bmc.trainlist
I0520 14:36:43.298068 23205 hdf5_data_layer.cpp:93] Number of HDF5 files: 15
I0520 14:36:43.300247 23205 hdf5.cpp:32] Datatype class: H5T_FLOAT
I0520 14:37:04.843755 23205 hdf5.cpp:35] Datatype class: H5T_INTEGER
I0520 14:37:04.848973 23205 net.cpp:150] Setting up data_hdf5
I0520 14:37:04.849012 23205 net.cpp:157] Top shape: 130 1 127 50 (825500)
I0520 14:37:04.849030 23205 net.cpp:157] Top shape: 130 (130)
I0520 14:37:04.849043 23205 net.cpp:165] Memory required for data: 3302520
I0520 14:37:04.849076 23205 layer_factory.hpp:77] Creating layer conv1
I0520 14:37:04.849110 23205 net.cpp:106] Creating Layer conv1
I0520 14:37:04.849138 23205 net.cpp:454] conv1 <- data
I0520 14:37:04.849162 23205 net.cpp:411] conv1 -> conv1
I0520 14:37:05.249697 23205 net.cpp:150] Setting up conv1
I0520 14:37:05.249749 23205 net.cpp:157] Top shape: 130 12 120 48 (8985600)
I0520 14:37:05.249764 23205 net.cpp:165] Memory required for data: 39244920
I0520 14:37:05.249795 23205 layer_factory.hpp:77] Creating layer relu1
I0520 14:37:05.249817 23205 net.cpp:106] Creating Layer relu1
I0520 14:37:05.249837 23205 net.cpp:454] relu1 <- conv1
I0520 14:37:05.249853 23205 net.cpp:397] relu1 -> conv1 (in-place)
I0520 14:37:05.250407 23205 net.cpp:150] Setting up relu1
I0520 14:37:05.250432 23205 net.cpp:157] Top shape: 130 12 120 48 (8985600)
I0520 14:37:05.250445 23205 net.cpp:165] Memory required for data: 75187320
I0520 14:37:05.250461 23205 layer_factory.hpp:77] Creating layer pool1
I0520 14:37:05.250488 23205 net.cpp:106] Creating Layer pool1
I0520 14:37:05.250502 23205 net.cpp:454] pool1 <- conv1
I0520 14:37:05.250519 23205 net.cpp:411] pool1 -> pool1
I0520 14:37:05.250612 23205 net.cpp:150] Setting up pool1
I0520 14:37:05.250630 23205 net.cpp:157] Top shape: 130 12 60 48 (4492800)
I0520 14:37:05.250645 23205 net.cpp:165] Memory required for data: 93158520
I0520 14:37:05.250668 23205 layer_factory.hpp:77] Creating layer conv2
I0520 14:37:05.250691 23205 net.cpp:106] Creating Layer conv2
I0520 14:37:05.250705 23205 net.cpp:454] conv2 <- pool1
I0520 14:37:05.250723 23205 net.cpp:411] conv2 -> conv2
I0520 14:37:05.253481 23205 net.cpp:150] Setting up conv2
I0520 14:37:05.253512 23205 net.cpp:157] Top shape: 130 20 54 46 (6458400)
I0520 14:37:05.253528 23205 net.cpp:165] Memory required for data: 118992120
I0520 14:37:05.253556 23205 layer_factory.hpp:77] Creating layer relu2
I0520 14:37:05.253583 23205 net.cpp:106] Creating Layer relu2
I0520 14:37:05.253597 23205 net.cpp:454] relu2 <- conv2
I0520 14:37:05.253613 23205 net.cpp:397] relu2 -> conv2 (in-place)
I0520 14:37:05.253968 23205 net.cpp:150] Setting up relu2
I0520 14:37:05.253988 23205 net.cpp:157] Top shape: 130 20 54 46 (6458400)
I0520 14:37:05.254003 23205 net.cpp:165] Memory required for data: 144825720
I0520 14:37:05.254014 23205 layer_factory.hpp:77] Creating layer pool2
I0520 14:37:05.254040 23205 net.cpp:106] Creating Layer pool2
I0520 14:37:05.254053 23205 net.cpp:454] pool2 <- conv2
I0520 14:37:05.254089 23205 net.cpp:411] pool2 -> pool2
I0520 14:37:05.254173 23205 net.cpp:150] Setting up pool2
I0520 14:37:05.254194 23205 net.cpp:157] Top shape: 130 20 27 46 (3229200)
I0520 14:37:05.254209 23205 net.cpp:165] Memory required for data: 157742520
I0520 14:37:05.254220 23205 layer_factory.hpp:77] Creating layer conv3
I0520 14:37:05.254250 23205 net.cpp:106] Creating Layer conv3
I0520 14:37:05.254262 23205 net.cpp:454] conv3 <- pool2
I0520 14:37:05.254281 23205 net.cpp:411] conv3 -> conv3
I0520 14:37:05.256217 23205 net.cpp:150] Setting up conv3
I0520 14:37:05.256242 23205 net.cpp:157] Top shape: 130 28 22 44 (3523520)
I0520 14:37:05.256263 23205 net.cpp:165] Memory required for data: 171836600
I0520 14:37:05.256286 23205 layer_factory.hpp:77] Creating layer relu3
I0520 14:37:05.256309 23205 net.cpp:106] Creating Layer relu3
I0520 14:37:05.256331 23205 net.cpp:454] relu3 <- conv3
I0520 14:37:05.256347 23205 net.cpp:397] relu3 -> conv3 (in-place)
I0520 14:37:05.256840 23205 net.cpp:150] Setting up relu3
I0520 14:37:05.256865 23205 net.cpp:157] Top shape: 130 28 22 44 (3523520)
I0520 14:37:05.256878 23205 net.cpp:165] Memory required for data: 185930680
I0520 14:37:05.256894 23205 layer_factory.hpp:77] Creating layer pool3
I0520 14:37:05.256911 23205 net.cpp:106] Creating Layer pool3
I0520 14:37:05.256933 23205 net.cpp:454] pool3 <- conv3
I0520 14:37:05.256950 23205 net.cpp:411] pool3 -> pool3
I0520 14:37:05.257040 23205 net.cpp:150] Setting up pool3
I0520 14:37:05.257057 23205 net.cpp:157] Top shape: 130 28 11 44 (1761760)
I0520 14:37:05.257071 23205 net.cpp:165] Memory required for data: 192977720
I0520 14:37:05.257083 23205 layer_factory.hpp:77] Creating layer conv4
I0520 14:37:05.257105 23205 net.cpp:106] Creating Layer conv4
I0520 14:37:05.257118 23205 net.cpp:454] conv4 <- pool3
I0520 14:37:05.257141 23205 net.cpp:411] conv4 -> conv4
I0520 14:37:05.260103 23205 net.cpp:150] Setting up conv4
I0520 14:37:05.260135 23205 net.cpp:157] Top shape: 130 36 6 42 (1179360)
I0520 14:37:05.260151 23205 net.cpp:165] Memory required for data: 197695160
I0520 14:37:05.260170 23205 layer_factory.hpp:77] Creating layer relu4
I0520 14:37:05.260192 23205 net.cpp:106] Creating Layer relu4
I0520 14:37:05.260218 23205 net.cpp:454] relu4 <- conv4
I0520 14:37:05.260234 23205 net.cpp:397] relu4 -> conv4 (in-place)
I0520 14:37:05.260735 23205 net.cpp:150] Setting up relu4
I0520 14:37:05.260759 23205 net.cpp:157] Top shape: 130 36 6 42 (1179360)
I0520 14:37:05.260772 23205 net.cpp:165] Memory required for data: 202412600
I0520 14:37:05.260788 23205 layer_factory.hpp:77] Creating layer pool4
I0520 14:37:05.260812 23205 net.cpp:106] Creating Layer pool4
I0520 14:37:05.260825 23205 net.cpp:454] pool4 <- conv4
I0520 14:37:05.260841 23205 net.cpp:411] pool4 -> pool4
I0520 14:37:05.260929 23205 net.cpp:150] Setting up pool4
I0520 14:37:05.260946 23205 net.cpp:157] Top shape: 130 36 3 42 (589680)
I0520 14:37:05.260959 23205 net.cpp:165] Memory required for data: 204771320
I0520 14:37:05.260974 23205 layer_factory.hpp:77] Creating layer ip1
I0520 14:37:05.261001 23205 net.cpp:106] Creating Layer ip1
I0520 14:37:05.261015 23205 net.cpp:454] ip1 <- pool4
I0520 14:37:05.261031 23205 net.cpp:411] ip1 -> ip1
I0520 14:37:05.276481 23205 net.cpp:150] Setting up ip1
I0520 14:37:05.276511 23205 net.cpp:157] Top shape: 130 196 (25480)
I0520 14:37:05.276532 23205 net.cpp:165] Memory required for data: 204873240
I0520 14:37:05.276558 23205 layer_factory.hpp:77] Creating layer relu5
I0520 14:37:05.276579 23205 net.cpp:106] Creating Layer relu5
I0520 14:37:05.276604 23205 net.cpp:454] relu5 <- ip1
I0520 14:37:05.276621 23205 net.cpp:397] relu5 -> ip1 (in-place)
I0520 14:37:05.276983 23205 net.cpp:150] Setting up relu5
I0520 14:37:05.277003 23205 net.cpp:157] Top shape: 130 196 (25480)
I0520 14:37:05.277015 23205 net.cpp:165] Memory required for data: 204975160
I0520 14:37:05.277030 23205 layer_factory.hpp:77] Creating layer drop1
I0520 14:37:05.277061 23205 net.cpp:106] Creating Layer drop1
I0520 14:37:05.277076 23205 net.cpp:454] drop1 <- ip1
I0520 14:37:05.277104 23205 net.cpp:397] drop1 -> ip1 (in-place)
I0520 14:37:05.277164 23205 net.cpp:150] Setting up drop1
I0520 14:37:05.277186 23205 net.cpp:157] Top shape: 130 196 (25480)
I0520 14:37:05.277199 23205 net.cpp:165] Memory required for data: 205077080
I0520 14:37:05.277211 23205 layer_factory.hpp:77] Creating layer ip2
I0520 14:37:05.277242 23205 net.cpp:106] Creating Layer ip2
I0520 14:37:05.277256 23205 net.cpp:454] ip2 <- ip1
I0520 14:37:05.277271 23205 net.cpp:411] ip2 -> ip2
I0520 14:37:05.277760 23205 net.cpp:150] Setting up ip2
I0520 14:37:05.277779 23205 net.cpp:157] Top shape: 130 98 (12740)
I0520 14:37:05.277792 23205 net.cpp:165] Memory required for data: 205128040
I0520 14:37:05.277812 23205 layer_factory.hpp:77] Creating layer relu6
I0520 14:37:05.277834 23205 net.cpp:106] Creating Layer relu6
I0520 14:37:05.277848 23205 net.cpp:454] relu6 <- ip2
I0520 14:37:05.277863 23205 net.cpp:397] relu6 -> ip2 (in-place)
I0520 14:37:05.278408 23205 net.cpp:150] Setting up relu6
I0520 14:37:05.278430 23205 net.cpp:157] Top shape: 130 98 (12740)
I0520 14:37:05.278444 23205 net.cpp:165] Memory required for data: 205179000
I0520 14:37:05.278460 23205 layer_factory.hpp:77] Creating layer drop2
I0520 14:37:05.278483 23205 net.cpp:106] Creating Layer drop2
I0520 14:37:05.278496 23205 net.cpp:454] drop2 <- ip2
I0520 14:37:05.278512 23205 net.cpp:397] drop2 -> ip2 (in-place)
I0520 14:37:05.278568 23205 net.cpp:150] Setting up drop2
I0520 14:37:05.278584 23205 net.cpp:157] Top shape: 130 98 (12740)
I0520 14:37:05.278597 23205 net.cpp:165] Memory required for data: 205229960
I0520 14:37:05.278611 23205 layer_factory.hpp:77] Creating layer ip3
I0520 14:37:05.278627 23205 net.cpp:106] Creating Layer ip3
I0520 14:37:05.278642 23205 net.cpp:454] ip3 <- ip2
I0520 14:37:05.278663 23205 net.cpp:411] ip3 -> ip3
I0520 14:37:05.278888 23205 net.cpp:150] Setting up ip3
I0520 14:37:05.278908 23205 net.cpp:157] Top shape: 130 11 (1430)
I0520 14:37:05.278920 23205 net.cpp:165] Memory required for data: 205235680
I0520 14:37:05.278940 23205 layer_factory.hpp:77] Creating layer drop3
I0520 14:37:05.278962 23205 net.cpp:106] Creating Layer drop3
I0520 14:37:05.278975 23205 net.cpp:454] drop3 <- ip3
I0520 14:37:05.278990 23205 net.cpp:397] drop3 -> ip3 (in-place)
I0520 14:37:05.279036 23205 net.cpp:150] Setting up drop3
I0520 14:37:05.279058 23205 net.cpp:157] Top shape: 130 11 (1430)
I0520 14:37:05.279072 23205 net.cpp:165] Memory required for data: 205241400
I0520 14:37:05.279090 23205 layer_factory.hpp:77] Creating layer loss
I0520 14:37:05.279111 23205 net.cpp:106] Creating Layer loss
I0520 14:37:05.279127 23205 net.cpp:454] loss <- ip3
I0520 14:37:05.279140 23205 net.cpp:454] loss <- label
I0520 14:37:05.279162 23205 net.cpp:411] loss -> loss
I0520 14:37:05.279181 23205 layer_factory.hpp:77] Creating layer loss
…
I0520 14:37:05.281946 23205 solver.cpp:181] Creating test net (#0) specified by net file: /lustre/atlas/proj-shared/hep105/caffe_titan/caffe_workflow/logs_batch_size_test/batch_size_130_2016-05-20T11.20.37.405715.prototxt
I0520 14:37:05.282026 23205 net.cpp:322] The NetState phase (1) differed from the phase (0) specified by a rule in layer data_hdf5
I0520 14:37:05.282407 23205 net.cpp:49] Initializing net from parameters: 
name: "caffe_test_127x50_x_unshifted"
state {
  phase: TEST
}
layer {
  name: "data_hdf5"
  type: "HDF5Data"
  top: "data"
  top: "label"
  include {
    phase: TEST
  }
  hdf5_data_param {
    source: "/lustre/atlas/proj-shared/hep105/caffe_titan/minosmatch_nukecczdefs_127x50_x_unshifted_me1Bmc.testlist"
    batch_size: 130
  }
}
layer {
  name: "conv1"
  type: "Convolution"
  bottom: "data"
  top: "conv1"
  convolution_param {
    num_output: 12
    pad: 0
    stride: 1
    weight_filler {
      type: "xavier"
    }
    bias_filler {
      type: "constant"
    }
    kernel_h: 8
    kernel_w: 3
  }
}
layer {
  name: "relu1"
  type: "ReLU"
  bottom: "conv1"
  top: "conv1"
}
layer {
  name: "pool1"
  type: "Pooling"
  bottom: "conv1"
  top: "pool1"
  pooling_param {
    pool: MAX
    kernel_h: 2
    kernel_w: 1
    stride_h: 2
    stride_w: 1
  }
}
layer {
  name: "conv2"
  type: "Convolution"
  bottom: "pool1"
  top: "conv2"
  convolution_param {
    num_output: 20
    pad: 0
    stride: 1
    weight_filler {
      type: "xavier"
    }
    bias_filler {
      type: "constant"
    }
    kernel_h: 7
    kernel_w: 3
  }
}
layer {
  name: "relu2"
  type: "ReLU"
  bottom: "conv2"
  top: "conv2"
}
layer {
  name: "pool2"
  type: "Pooling"
  bottom: "conv2"
  top: "pool2"
  pooling_param {
    pool: MAX
    kernel_h: 2
    kernel_w: 1
    stride_h: 2
    stride_w: 1
  }
}
layer {
  name: "conv3"
  type: "Convolution"
  bottom: "pool2"
  top: "conv3"
  convolution_param {
    num_output: 28
    pad: 0
    stride: 1
    weight_filler {
      type: "xavier"
    }
    bias_filler {
      type: "constant"
    }
    kernel_h: 6
    kernel_w: 3
  }
}
layer {
  name: "relu3"
  type: "ReLU"
  bottom: "conv3"
  top: "conv3"
}
layer {
  name: "pool3"
  type: "Pooling"
  bottom: "conv3"
  top: "pool3"
  pooling_param {
    pool: MAX
    kernel_h: 2
    kernel_w: 1
    stride_h: 2
    stride_w: 1
  }
}
layer {
  name: "conv4"
  type: "Convolution"
  bottom: "pool3"
  top: "conv4"
  convolution_param {
    num_output: 36
    pad: 0
    stride: 1
    weight_filler {
      type: "xavier"
    }
    bias_filler {
      type: "constant"
    }
    kernel_h: 6
    kernel_w: 3
  }
}
layer {
  name: "relu4"
  type: "ReLU"
  bottom: "conv4"
  top: "conv4"
}
layer {
  name: "pool4"
  type: "Pooling"
  bottom: "conv4"
  top: "pool4"
  pooling_param {
    pool: MAX
    kernel_h: 2
    kernel_w: 1
    stride_h: 2
    stride_w: 1
  }
}
layer {
  name: "ip1"
  type: "InnerProduct"
  bottom: "pool4"
  top: "ip1"
  inner_product_param {
    num_output: 196
    weight_filler {
      type: "xavier"
    }
    bias_filler {
      type: "constant"
    }
  }
}
layer {
  name: "relu5"
  type: "ReLU"
  bottom: "ip1"
  top: "ip1"
}
layer {
  name: "drop1"
  type: "Dropout"
  bottom: "ip1"
  top: "ip1"
  dropout_param {
    dropout_ratio: 0.5
  }
}
layer {
  name: "ip2"
  type: "InnerProduct"
  bottom: "ip1"
  top: "ip2"
  inner_product_param {
    num_output: 98
    weight_filler {
      type: "xavier"
    }
    bias_filler {
      type: "constant"
    }
  }
}
layer {
  name: "relu6"
  type: "ReLU"
  bottom: "ip2"
  top: "ip2"
}
layer {
  name: "drop2"
  type: "Dropout"
  bottom: "ip2"
  top: "ip2"
  dropout_param {
    dropout_ratio: 0.5
  }
}
layer {
  name: "ip3"
  type: "InnerProduct"
  bottom: "ip2"
  top: "ip3"
  inner_product_param {
    num_output: 11
    weight_filler {
      type: "xavier"
    }
    bias_filler {
      type: "constant"
    }
  }
}
layer {
  name: "drop3"
  type: "Dropout"
  bottom: "ip3"
  top: "ip3"
  dropout_param {
    dropout_ratio: 0.5
  }
}
layer {
  name: "accuracy"
  type: "Accuracy"
  bottom: "ip3"
  bottom: "label"
  top: "accuracy"
  include {
    phase: TEST
  }
}
layer {
  name: "loss"
  type: "SoftmaxWithLoss"
  bottom: "ip3"
  bottom: "label"
  top: "loss"
}
I0520 14:37:05.282627 23205 layer_factory.hpp:77] Creating layer data_hdf5
I0520 14:37:05.282649 23205 net.cpp:106] Creating Layer data_hdf5
I0520 14:37:05.282663 23205 net.cpp:411] data_hdf5 -> data
I0520 14:37:05.282686 23205 net.cpp:411] data_hdf5 -> label
I0520 14:37:05.282707 23205 hdf5_data_layer.cpp:79] Loading list of HDF5 filenames from: /lustre/atlas/proj-shared/hep105/caffe_titan/minosmatch_nukecczdefs_127x50_x_unshifted_me1Bmc.testlist
I0520 14:37:05.283897 23205 hdf5_data_layer.cpp:93] Number of HDF5 files: 3
I0520 14:37:26.598644 23205 net.cpp:150] Setting up data_hdf5
I0520 14:37:26.598815 23205 net.cpp:157] Top shape: 130 1 127 50 (825500)
I0520 14:37:26.598835 23205 net.cpp:157] Top shape: 130 (130)
I0520 14:37:26.598847 23205 net.cpp:165] Memory required for data: 3302520
I0520 14:37:26.598862 23205 layer_factory.hpp:77] Creating layer label_data_hdf5_1_split
I0520 14:37:26.598896 23205 net.cpp:106] Creating Layer label_data_hdf5_1_split
I0520 14:37:26.598928 23205 net.cpp:454] label_data_hdf5_1_split <- label
I0520 14:37:26.598947 23205 net.cpp:411] label_data_hdf5_1_split -> label_data_hdf5_1_split_0
I0520 14:37:26.598968 23205 net.cpp:411] label_data_hdf5_1_split -> label_data_hdf5_1_split_1
I0520 14:37:26.599056 23205 net.cpp:150] Setting up label_data_hdf5_1_split
I0520 14:37:26.599072 23205 net.cpp:157] Top shape: 130 (130)
I0520 14:37:26.599087 23205 net.cpp:157] Top shape: 130 (130)
I0520 14:37:26.599100 23205 net.cpp:165] Memory required for data: 3303560
I0520 14:37:26.599112 23205 layer_factory.hpp:77] Creating layer conv1
I0520 14:37:26.599143 23205 net.cpp:106] Creating Layer conv1
I0520 14:37:26.599158 23205 net.cpp:454] conv1 <- data
I0520 14:37:26.599174 23205 net.cpp:411] conv1 -> conv1
I0520 14:37:26.601145 23205 net.cpp:150] Setting up conv1
I0520 14:37:26.601171 23205 net.cpp:157] Top shape: 130 12 120 48 (8985600)
I0520 14:37:26.601184 23205 net.cpp:165] Memory required for data: 39245960
I0520 14:37:26.601212 23205 layer_factory.hpp:77] Creating layer relu1
I0520 14:37:26.601238 23205 net.cpp:106] Creating Layer relu1
I0520 14:37:26.601251 23205 net.cpp:454] relu1 <- conv1
I0520 14:37:26.601267 23205 net.cpp:397] relu1 -> conv1 (in-place)
I0520 14:37:26.601794 23205 net.cpp:150] Setting up relu1
I0520 14:37:26.601816 23205 net.cpp:157] Top shape: 130 12 120 48 (8985600)
I0520 14:37:26.601830 23205 net.cpp:165] Memory required for data: 75188360
I0520 14:37:26.601845 23205 layer_factory.hpp:77] Creating layer pool1
I0520 14:37:26.601871 23205 net.cpp:106] Creating Layer pool1
I0520 14:37:26.601886 23205 net.cpp:454] pool1 <- conv1
I0520 14:37:26.601900 23205 net.cpp:411] pool1 -> pool1
I0520 14:37:26.601990 23205 net.cpp:150] Setting up pool1
I0520 14:37:26.602007 23205 net.cpp:157] Top shape: 130 12 60 48 (4492800)
I0520 14:37:26.602022 23205 net.cpp:165] Memory required for data: 93159560
I0520 14:37:26.602041 23205 layer_factory.hpp:77] Creating layer conv2
I0520 14:37:26.602062 23205 net.cpp:106] Creating Layer conv2
I0520 14:37:26.602083 23205 net.cpp:454] conv2 <- pool1
I0520 14:37:26.602100 23205 net.cpp:411] conv2 -> conv2
I0520 14:37:26.604051 23205 net.cpp:150] Setting up conv2
I0520 14:37:26.604075 23205 net.cpp:157] Top shape: 130 20 54 46 (6458400)
I0520 14:37:26.604096 23205 net.cpp:165] Memory required for data: 118993160
I0520 14:37:26.604117 23205 layer_factory.hpp:77] Creating layer relu2
I0520 14:37:26.604137 23205 net.cpp:106] Creating Layer relu2
I0520 14:37:26.604158 23205 net.cpp:454] relu2 <- conv2
I0520 14:37:26.604176 23205 net.cpp:397] relu2 -> conv2 (in-place)
I0520 14:37:26.604527 23205 net.cpp:150] Setting up relu2
I0520 14:37:26.604547 23205 net.cpp:157] Top shape: 130 20 54 46 (6458400)
I0520 14:37:26.604559 23205 net.cpp:165] Memory required for data: 144826760
I0520 14:37:26.604571 23205 layer_factory.hpp:77] Creating layer pool2
I0520 14:37:26.604598 23205 net.cpp:106] Creating Layer pool2
I0520 14:37:26.604610 23205 net.cpp:454] pool2 <- conv2
I0520 14:37:26.604626 23205 net.cpp:411] pool2 -> pool2
I0520 14:37:26.604732 23205 net.cpp:150] Setting up pool2
I0520 14:37:26.604748 23205 net.cpp:157] Top shape: 130 20 27 46 (3229200)
I0520 14:37:26.604761 23205 net.cpp:165] Memory required for data: 157743560
I0520 14:37:26.604776 23205 layer_factory.hpp:77] Creating layer conv3
I0520 14:37:26.604799 23205 net.cpp:106] Creating Layer conv3
I0520 14:37:26.604818 23205 net.cpp:454] conv3 <- pool2
I0520 14:37:26.604835 23205 net.cpp:411] conv3 -> conv3
I0520 14:37:26.606930 23205 net.cpp:150] Setting up conv3
I0520 14:37:26.606955 23205 net.cpp:157] Top shape: 130 28 22 44 (3523520)
I0520 14:37:26.606976 23205 net.cpp:165] Memory required for data: 171837640
I0520 14:37:26.607014 23205 layer_factory.hpp:77] Creating layer relu3
I0520 14:37:26.607039 23205 net.cpp:106] Creating Layer relu3
I0520 14:37:26.607053 23205 net.cpp:454] relu3 <- conv3
I0520 14:37:26.607070 23205 net.cpp:397] relu3 -> conv3 (in-place)
I0520 14:37:26.607586 23205 net.cpp:150] Setting up relu3
I0520 14:37:26.607609 23205 net.cpp:157] Top shape: 130 28 22 44 (3523520)
I0520 14:37:26.607621 23205 net.cpp:165] Memory required for data: 185931720
I0520 14:37:26.607635 23205 layer_factory.hpp:77] Creating layer pool3
I0520 14:37:26.607653 23205 net.cpp:106] Creating Layer pool3
I0520 14:37:26.607676 23205 net.cpp:454] pool3 <- conv3
I0520 14:37:26.607692 23205 net.cpp:411] pool3 -> pool3
I0520 14:37:26.607780 23205 net.cpp:150] Setting up pool3
I0520 14:37:26.607802 23205 net.cpp:157] Top shape: 130 28 11 44 (1761760)
I0520 14:37:26.607815 23205 net.cpp:165] Memory required for data: 192978760
I0520 14:37:26.607827 23205 layer_factory.hpp:77] Creating layer conv4
I0520 14:37:26.607858 23205 net.cpp:106] Creating Layer conv4
I0520 14:37:26.607872 23205 net.cpp:454] conv4 <- pool3
I0520 14:37:26.607887 23205 net.cpp:411] conv4 -> conv4
I0520 14:37:26.610007 23205 net.cpp:150] Setting up conv4
I0520 14:37:26.610030 23205 net.cpp:157] Top shape: 130 36 6 42 (1179360)
I0520 14:37:26.610051 23205 net.cpp:165] Memory required for data: 197696200
I0520 14:37:26.610070 23205 layer_factory.hpp:77] Creating layer relu4
I0520 14:37:26.610090 23205 net.cpp:106] Creating Layer relu4
I0520 14:37:26.610110 23205 net.cpp:454] relu4 <- conv4
I0520 14:37:26.610128 23205 net.cpp:397] relu4 -> conv4 (in-place)
I0520 14:37:26.610627 23205 net.cpp:150] Setting up relu4
I0520 14:37:26.610651 23205 net.cpp:157] Top shape: 130 36 6 42 (1179360)
I0520 14:37:26.610663 23205 net.cpp:165] Memory required for data: 202413640
I0520 14:37:26.610680 23205 layer_factory.hpp:77] Creating layer pool4
I0520 14:37:26.610704 23205 net.cpp:106] Creating Layer pool4
I0520 14:37:26.610718 23205 net.cpp:454] pool4 <- conv4
I0520 14:37:26.610733 23205 net.cpp:411] pool4 -> pool4
I0520 14:37:26.610819 23205 net.cpp:150] Setting up pool4
I0520 14:37:26.610836 23205 net.cpp:157] Top shape: 130 36 3 42 (589680)
I0520 14:37:26.610852 23205 net.cpp:165] Memory required for data: 204772360
I0520 14:37:26.610863 23205 layer_factory.hpp:77] Creating layer ip1
I0520 14:37:26.610889 23205 net.cpp:106] Creating Layer ip1
I0520 14:37:26.610903 23205 net.cpp:454] ip1 <- pool4
I0520 14:37:26.610919 23205 net.cpp:411] ip1 -> ip1
I0520 14:37:26.626389 23205 net.cpp:150] Setting up ip1
I0520 14:37:26.626420 23205 net.cpp:157] Top shape: 130 196 (25480)
I0520 14:37:26.626442 23205 net.cpp:165] Memory required for data: 204874280
I0520 14:37:26.626468 23205 layer_factory.hpp:77] Creating layer relu5
I0520 14:37:26.626490 23205 net.cpp:106] Creating Layer relu5
I0520 14:37:26.626514 23205 net.cpp:454] relu5 <- ip1
I0520 14:37:26.626531 23205 net.cpp:397] relu5 -> ip1 (in-place)
I0520 14:37:26.626899 23205 net.cpp:150] Setting up relu5
I0520 14:37:26.626919 23205 net.cpp:157] Top shape: 130 196 (25480)
I0520 14:37:26.626934 23205 net.cpp:165] Memory required for data: 204976200
I0520 14:37:26.626950 23205 layer_factory.hpp:77] Creating layer drop1
I0520 14:37:26.626979 23205 net.cpp:106] Creating Layer drop1
I0520 14:37:26.626993 23205 net.cpp:454] drop1 <- ip1
I0520 14:37:26.627017 23205 net.cpp:397] drop1 -> ip1 (in-place)
I0520 14:37:26.627068 23205 net.cpp:150] Setting up drop1
I0520 14:37:26.627092 23205 net.cpp:157] Top shape: 130 196 (25480)
I0520 14:37:26.627104 23205 net.cpp:165] Memory required for data: 205078120
I0520 14:37:26.627118 23205 layer_factory.hpp:77] Creating layer ip2
I0520 14:37:26.627135 23205 net.cpp:106] Creating Layer ip2
I0520 14:37:26.627151 23205 net.cpp:454] ip2 <- ip1
I0520 14:37:26.627174 23205 net.cpp:411] ip2 -> ip2
I0520 14:37:26.627670 23205 net.cpp:150] Setting up ip2
I0520 14:37:26.627688 23205 net.cpp:157] Top shape: 130 98 (12740)
I0520 14:37:26.627701 23205 net.cpp:165] Memory required for data: 205129080
I0520 14:37:26.627740 23205 layer_factory.hpp:77] Creating layer relu6
I0520 14:37:26.627758 23205 net.cpp:106] Creating Layer relu6
I0520 14:37:26.627770 23205 net.cpp:454] relu6 <- ip2
I0520 14:37:26.627785 23205 net.cpp:397] relu6 -> ip2 (in-place)
I0520 14:37:26.628345 23205 net.cpp:150] Setting up relu6
I0520 14:37:26.628368 23205 net.cpp:157] Top shape: 130 98 (12740)
I0520 14:37:26.628381 23205 net.cpp:165] Memory required for data: 205180040
I0520 14:37:26.628393 23205 layer_factory.hpp:77] Creating layer drop2
I0520 14:37:26.628413 23205 net.cpp:106] Creating Layer drop2
I0520 14:37:26.628437 23205 net.cpp:454] drop2 <- ip2
I0520 14:37:26.628453 23205 net.cpp:397] drop2 -> ip2 (in-place)
I0520 14:37:26.628504 23205 net.cpp:150] Setting up drop2
I0520 14:37:26.628526 23205 net.cpp:157] Top shape: 130 98 (12740)
I0520 14:37:26.628538 23205 net.cpp:165] Memory required for data: 205231000
I0520 14:37:26.628557 23205 layer_factory.hpp:77] Creating layer ip3
I0520 14:37:26.628574 23205 net.cpp:106] Creating Layer ip3
I0520 14:37:26.628587 23205 net.cpp:454] ip3 <- ip2
I0520 14:37:26.628605 23205 net.cpp:411] ip3 -> ip3
I0520 14:37:26.628856 23205 net.cpp:150] Setting up ip3
I0520 14:37:26.628875 23205 net.cpp:157] Top shape: 130 11 (1430)
I0520 14:37:26.628888 23205 net.cpp:165] Memory required for data: 205236720
I0520 14:37:26.628906 23205 layer_factory.hpp:77] Creating layer drop3
I0520 14:37:26.628926 23205 net.cpp:106] Creating Layer drop3
I0520 14:37:26.628947 23205 net.cpp:454] drop3 <- ip3
I0520 14:37:26.628963 23205 net.cpp:397] drop3 -> ip3 (in-place)
I0520 14:37:26.629016 23205 net.cpp:150] Setting up drop3
I0520 14:37:26.629034 23205 net.cpp:157] Top shape: 130 11 (1430)
I0520 14:37:26.629053 23205 net.cpp:165] Memory required for data: 205242440
I0520 14:37:26.629066 23205 layer_factory.hpp:77] Creating layer ip3_drop3_0_split
I0520 14:37:26.629082 23205 net.cpp:106] Creating Layer ip3_drop3_0_split
I0520 14:37:26.629096 23205 net.cpp:454] ip3_drop3_0_split <- ip3
I0520 14:37:26.629111 23205 net.cpp:411] ip3_drop3_0_split -> ip3_drop3_0_split_0
I0520 14:37:26.629132 23205 net.cpp:411] ip3_drop3_0_split -> ip3_drop3_0_split_1
I0520 14:37:26.629218 23205 net.cpp:150] Setting up ip3_drop3_0_split
I0520 14:37:26.629243 23205 net.cpp:157] Top shape: 130 11 (1430)
I0520 14:37:26.629259 23205 net.cpp:157] Top shape: 130 11 (1430)
I0520 14:37:26.629271 23205 net.cpp:165] Memory required for data: 205253880
I0520 14:37:26.629283 23205 layer_factory.hpp:77] Creating layer accuracy
I0520 14:37:26.629308 23205 net.cpp:106] Creating Layer accuracy
I0520 14:37:26.629328 23205 net.cpp:454] accuracy <- ip3_drop3_0_split_0
I0520 14:37:26.629343 23205 net.cpp:454] accuracy <- label_data_hdf5_1_split_0
I0520 14:37:26.629359 23205 net.cpp:411] accuracy -> accuracy
…
