…
I0520 13:24:01.411478 31949 net.cpp:322] The NetState phase (0) differed from the phase (1) specified by a rule in layer data_hdf5
I0520 13:24:01.411538 31949 net.cpp:322] The NetState phase (0) differed from the phase (1) specified by a rule in layer accuracy
I0520 13:24:01.411885 31949 net.cpp:49] Initializing net from parameters: 
name: "caffe_test_127x50_x_unshifted"
state {
  phase: TRAIN
}
layer {
  name: "data_hdf5"
  type: "HDF5Data"
  top: "data"
  top: "label"
  include {
    phase: TRAIN
  }
  hdf5_data_param {
    source: "/lustre/atlas/proj-shared/hep105/caffe_titan/minosmatch_nukecczdefs_127x50_x_unshifted_me1Bmc.trainlist"
    batch_size: 80
  }
}
layer {
  name: "conv1"
  type: "Convolution"
  bottom: "data"
  top: "conv1"
  convolution_param {
    num_output: 12
    pad: 0
    stride: 1
    weight_filler {
      type: "xavier"
    }
    bias_filler {
      type: "constant"
    }
    kernel_h: 8
    kernel_w: 3
  }
}
layer {
  name: "relu1"
  type: "ReLU"
  bottom: "conv1"
  top: "conv1"
}
layer {
  name: "pool1"
  type: "Pooling"
  bottom: "conv1"
  top: "pool1"
  pooling_param {
    pool: MAX
    kernel_h: 2
    kernel_w: 1
    stride_h: 2
    stride_w: 1
  }
}
layer {
  name: "conv2"
  type: "Convolution"
  bottom: "pool1"
  top: "conv2"
  convolution_param {
    num_output: 20
    pad: 0
    stride: 1
    weight_filler {
      type: "xavier"
    }
    bias_filler {
      type: "constant"
    }
    kernel_h: 7
    kernel_w: 3
  }
}
layer {
  name: "relu2"
  type: "ReLU"
  bottom: "conv2"
  top: "conv2"
}
layer {
  name: "pool2"
  type: "Pooling"
  bottom: "conv2"
  top: "pool2"
  pooling_param {
    pool: MAX
    kernel_h: 2
    kernel_w: 1
    stride_h: 2
    stride_w: 1
  }
}
layer {
  name: "conv3"
  type: "Convolution"
  bottom: "pool2"
  top: "conv3"
  convolution_param {
    num_output: 28
    pad: 0
    stride: 1
    weight_filler {
      type: "xavier"
    }
    bias_filler {
      type: "constant"
    }
    kernel_h: 6
    kernel_w: 3
  }
}
layer {
  name: "relu3"
  type: "ReLU"
  bottom: "conv3"
  top: "conv3"
}
layer {
  name: "pool3"
  type: "Pooling"
  bottom: "conv3"
  top: "pool3"
  pooling_param {
    pool: MAX
    kernel_h: 2
    kernel_w: 1
    stride_h: 2
    stride_w: 1
  }
}
layer {
  name: "conv4"
  type: "Convolution"
  bottom: "pool3"
  top: "conv4"
  convolution_param {
    num_output: 36
    pad: 0
    stride: 1
    weight_filler {
      type: "xavier"
    }
    bias_filler {
      type: "constant"
    }
    kernel_h: 6
    kernel_w: 3
  }
}
layer {
  name: "relu4"
  type: "ReLU"
  bottom: "conv4"
  top: "conv4"
}
layer {
  name: "pool4"
  type: "Pooling"
  bottom: "conv4"
  top: "pool4"
  pooling_param {
    pool: MAX
    kernel_h: 2
    kernel_w: 1
    stride_h: 2
    stride_w: 1
  }
}
layer {
  name: "ip1"
  type: "InnerProduct"
  bottom: "pool4"
  top: "ip1"
  inner_product_param {
    num_output: 196
    weight_filler {
      type: "xavier"
    }
    bias_filler {
      type: "constant"
    }
  }
}
layer {
  name: "relu5"
  type: "ReLU"
  bottom: "ip1"
  top: "ip1"
}
layer {
  name: "drop1"
  type: "Dropout"
  bottom: "ip1"
  top: "ip1"
  dropout_param {
    dropout_ratio: 0.5
  }
}
layer {
  name: "ip2"
  type: "InnerProduct"
  bottom: "ip1"
  top: "ip2"
  inner_product_param {
    num_output: 98
    weight_filler {
      type: "xavier"
    }
    bias_filler {
      type: "constant"
    }
  }
}
layer {
  name: "relu6"
  type: "ReLU"
  bottom: "ip2"
  top: "ip2"
}
layer {
  name: "drop2"
  type: "Dropout"
  bottom: "ip2"
  top: "ip2"
  dropout_param {
    dropout_ratio: 0.5
  }
}
layer {
  name: "ip3"
  type: "InnerProduct"
  bottom: "ip2"
  top: "ip3"
  inner_product_param {
    num_output: 11
    weight_filler {
      type: "xavier"
    }
    bias_filler {
      type: "constant"
    }
  }
}
layer {
  name: "drop3"
  type: "Dropout"
  bottom: "ip3"
  top: "ip3"
  dropout_param {
    dropout_ratio: 0.5
  }
}
layer {
  name: "loss"
  type: "SoftmaxWithLoss"
  bottom: "ip3"
  bottom: "label"
  top: "loss"
}
I0520 13:24:01.412061 31949 layer_factory.hpp:77] Creating layer data_hdf5
I0520 13:24:01.412086 31949 net.cpp:106] Creating Layer data_hdf5
I0520 13:24:01.412099 31949 net.cpp:411] data_hdf5 -> data
I0520 13:24:01.412132 31949 net.cpp:411] data_hdf5 -> label
I0520 13:24:01.412164 31949 hdf5_data_layer.cpp:79] Loading list of HDF5 filenames from: /lustre/atlas/proj-shared/hep105/caffe_titan/minosmatch_nukecczdefs_127x50_x_unshifted_me1Bmc.trainlist
I0520 13:24:01.413393 31949 hdf5_data_layer.cpp:93] Number of HDF5 files: 15
I0520 13:24:01.415596 31949 hdf5.cpp:32] Datatype class: H5T_FLOAT
I0520 13:24:22.947504 31949 hdf5.cpp:35] Datatype class: H5T_INTEGER
I0520 13:24:22.952625 31949 net.cpp:150] Setting up data_hdf5
I0520 13:24:22.952664 31949 net.cpp:157] Top shape: 80 1 127 50 (508000)
I0520 13:24:22.952679 31949 net.cpp:157] Top shape: 80 (80)
I0520 13:24:22.952692 31949 net.cpp:165] Memory required for data: 2032320
I0520 13:24:22.952705 31949 layer_factory.hpp:77] Creating layer conv1
I0520 13:24:22.952739 31949 net.cpp:106] Creating Layer conv1
I0520 13:24:22.952750 31949 net.cpp:454] conv1 <- data
I0520 13:24:22.952770 31949 net.cpp:411] conv1 -> conv1
I0520 13:24:24.599205 31949 net.cpp:150] Setting up conv1
I0520 13:24:24.599251 31949 net.cpp:157] Top shape: 80 12 120 48 (5529600)
I0520 13:24:24.599262 31949 net.cpp:165] Memory required for data: 24150720
I0520 13:24:24.599292 31949 layer_factory.hpp:77] Creating layer relu1
I0520 13:24:24.599313 31949 net.cpp:106] Creating Layer relu1
I0520 13:24:24.599324 31949 net.cpp:454] relu1 <- conv1
I0520 13:24:24.599337 31949 net.cpp:397] relu1 -> conv1 (in-place)
I0520 13:24:24.599850 31949 net.cpp:150] Setting up relu1
I0520 13:24:24.599866 31949 net.cpp:157] Top shape: 80 12 120 48 (5529600)
I0520 13:24:24.599877 31949 net.cpp:165] Memory required for data: 46269120
I0520 13:24:24.599887 31949 layer_factory.hpp:77] Creating layer pool1
I0520 13:24:24.599905 31949 net.cpp:106] Creating Layer pool1
I0520 13:24:24.599915 31949 net.cpp:454] pool1 <- conv1
I0520 13:24:24.599927 31949 net.cpp:411] pool1 -> pool1
I0520 13:24:24.600008 31949 net.cpp:150] Setting up pool1
I0520 13:24:24.600021 31949 net.cpp:157] Top shape: 80 12 60 48 (2764800)
I0520 13:24:24.600031 31949 net.cpp:165] Memory required for data: 57328320
I0520 13:24:24.600042 31949 layer_factory.hpp:77] Creating layer conv2
I0520 13:24:24.600064 31949 net.cpp:106] Creating Layer conv2
I0520 13:24:24.600075 31949 net.cpp:454] conv2 <- pool1
I0520 13:24:24.600088 31949 net.cpp:411] conv2 -> conv2
I0520 13:24:24.602823 31949 net.cpp:150] Setting up conv2
I0520 13:24:24.602851 31949 net.cpp:157] Top shape: 80 20 54 46 (3974400)
I0520 13:24:24.602861 31949 net.cpp:165] Memory required for data: 73225920
I0520 13:24:24.602881 31949 layer_factory.hpp:77] Creating layer relu2
I0520 13:24:24.602895 31949 net.cpp:106] Creating Layer relu2
I0520 13:24:24.602905 31949 net.cpp:454] relu2 <- conv2
I0520 13:24:24.602917 31949 net.cpp:397] relu2 -> conv2 (in-place)
I0520 13:24:24.603247 31949 net.cpp:150] Setting up relu2
I0520 13:24:24.603261 31949 net.cpp:157] Top shape: 80 20 54 46 (3974400)
I0520 13:24:24.603271 31949 net.cpp:165] Memory required for data: 89123520
I0520 13:24:24.603281 31949 layer_factory.hpp:77] Creating layer pool2
I0520 13:24:24.603293 31949 net.cpp:106] Creating Layer pool2
I0520 13:24:24.603303 31949 net.cpp:454] pool2 <- conv2
I0520 13:24:24.603328 31949 net.cpp:411] pool2 -> pool2
I0520 13:24:24.603397 31949 net.cpp:150] Setting up pool2
I0520 13:24:24.603410 31949 net.cpp:157] Top shape: 80 20 27 46 (1987200)
I0520 13:24:24.603420 31949 net.cpp:165] Memory required for data: 97072320
I0520 13:24:24.603430 31949 layer_factory.hpp:77] Creating layer conv3
I0520 13:24:24.603451 31949 net.cpp:106] Creating Layer conv3
I0520 13:24:24.603461 31949 net.cpp:454] conv3 <- pool2
I0520 13:24:24.603474 31949 net.cpp:411] conv3 -> conv3
I0520 13:24:24.605396 31949 net.cpp:150] Setting up conv3
I0520 13:24:24.605420 31949 net.cpp:157] Top shape: 80 28 22 44 (2168320)
I0520 13:24:24.605432 31949 net.cpp:165] Memory required for data: 105745600
I0520 13:24:24.605450 31949 layer_factory.hpp:77] Creating layer relu3
I0520 13:24:24.605468 31949 net.cpp:106] Creating Layer relu3
I0520 13:24:24.605476 31949 net.cpp:454] relu3 <- conv3
I0520 13:24:24.605489 31949 net.cpp:397] relu3 -> conv3 (in-place)
I0520 13:24:24.605957 31949 net.cpp:150] Setting up relu3
I0520 13:24:24.605973 31949 net.cpp:157] Top shape: 80 28 22 44 (2168320)
I0520 13:24:24.605983 31949 net.cpp:165] Memory required for data: 114418880
I0520 13:24:24.605994 31949 layer_factory.hpp:77] Creating layer pool3
I0520 13:24:24.606006 31949 net.cpp:106] Creating Layer pool3
I0520 13:24:24.606016 31949 net.cpp:454] pool3 <- conv3
I0520 13:24:24.606029 31949 net.cpp:411] pool3 -> pool3
I0520 13:24:24.606097 31949 net.cpp:150] Setting up pool3
I0520 13:24:24.606111 31949 net.cpp:157] Top shape: 80 28 11 44 (1084160)
I0520 13:24:24.606120 31949 net.cpp:165] Memory required for data: 118755520
I0520 13:24:24.606127 31949 layer_factory.hpp:77] Creating layer conv4
I0520 13:24:24.606144 31949 net.cpp:106] Creating Layer conv4
I0520 13:24:24.606155 31949 net.cpp:454] conv4 <- pool3
I0520 13:24:24.606168 31949 net.cpp:411] conv4 -> conv4
I0520 13:24:24.609141 31949 net.cpp:150] Setting up conv4
I0520 13:24:24.609170 31949 net.cpp:157] Top shape: 80 36 6 42 (725760)
I0520 13:24:24.609180 31949 net.cpp:165] Memory required for data: 121658560
I0520 13:24:24.609196 31949 layer_factory.hpp:77] Creating layer relu4
I0520 13:24:24.609210 31949 net.cpp:106] Creating Layer relu4
I0520 13:24:24.609220 31949 net.cpp:454] relu4 <- conv4
I0520 13:24:24.609233 31949 net.cpp:397] relu4 -> conv4 (in-place)
I0520 13:24:24.609695 31949 net.cpp:150] Setting up relu4
I0520 13:24:24.609711 31949 net.cpp:157] Top shape: 80 36 6 42 (725760)
I0520 13:24:24.609721 31949 net.cpp:165] Memory required for data: 124561600
I0520 13:24:24.609732 31949 layer_factory.hpp:77] Creating layer pool4
I0520 13:24:24.609745 31949 net.cpp:106] Creating Layer pool4
I0520 13:24:24.609755 31949 net.cpp:454] pool4 <- conv4
I0520 13:24:24.609768 31949 net.cpp:411] pool4 -> pool4
I0520 13:24:24.609836 31949 net.cpp:150] Setting up pool4
I0520 13:24:24.609850 31949 net.cpp:157] Top shape: 80 36 3 42 (362880)
I0520 13:24:24.609859 31949 net.cpp:165] Memory required for data: 126013120
I0520 13:24:24.609870 31949 layer_factory.hpp:77] Creating layer ip1
I0520 13:24:24.609890 31949 net.cpp:106] Creating Layer ip1
I0520 13:24:24.609900 31949 net.cpp:454] ip1 <- pool4
I0520 13:24:24.609912 31949 net.cpp:411] ip1 -> ip1
I0520 13:24:24.625358 31949 net.cpp:150] Setting up ip1
I0520 13:24:24.625387 31949 net.cpp:157] Top shape: 80 196 (15680)
I0520 13:24:24.625401 31949 net.cpp:165] Memory required for data: 126075840
I0520 13:24:24.625423 31949 layer_factory.hpp:77] Creating layer relu5
I0520 13:24:24.625438 31949 net.cpp:106] Creating Layer relu5
I0520 13:24:24.625448 31949 net.cpp:454] relu5 <- ip1
I0520 13:24:24.625463 31949 net.cpp:397] relu5 -> ip1 (in-place)
I0520 13:24:24.625803 31949 net.cpp:150] Setting up relu5
I0520 13:24:24.625818 31949 net.cpp:157] Top shape: 80 196 (15680)
I0520 13:24:24.625828 31949 net.cpp:165] Memory required for data: 126138560
I0520 13:24:24.625838 31949 layer_factory.hpp:77] Creating layer drop1
I0520 13:24:24.625859 31949 net.cpp:106] Creating Layer drop1
I0520 13:24:24.625869 31949 net.cpp:454] drop1 <- ip1
I0520 13:24:24.625880 31949 net.cpp:397] drop1 -> ip1 (in-place)
I0520 13:24:24.625942 31949 net.cpp:150] Setting up drop1
I0520 13:24:24.625957 31949 net.cpp:157] Top shape: 80 196 (15680)
I0520 13:24:24.625965 31949 net.cpp:165] Memory required for data: 126201280
I0520 13:24:24.625975 31949 layer_factory.hpp:77] Creating layer ip2
I0520 13:24:24.625998 31949 net.cpp:106] Creating Layer ip2
I0520 13:24:24.626008 31949 net.cpp:454] ip2 <- ip1
I0520 13:24:24.626021 31949 net.cpp:411] ip2 -> ip2
I0520 13:24:24.626487 31949 net.cpp:150] Setting up ip2
I0520 13:24:24.626499 31949 net.cpp:157] Top shape: 80 98 (7840)
I0520 13:24:24.626510 31949 net.cpp:165] Memory required for data: 126232640
I0520 13:24:24.626525 31949 layer_factory.hpp:77] Creating layer relu6
I0520 13:24:24.626538 31949 net.cpp:106] Creating Layer relu6
I0520 13:24:24.626548 31949 net.cpp:454] relu6 <- ip2
I0520 13:24:24.626559 31949 net.cpp:397] relu6 -> ip2 (in-place)
I0520 13:24:24.627079 31949 net.cpp:150] Setting up relu6
I0520 13:24:24.627094 31949 net.cpp:157] Top shape: 80 98 (7840)
I0520 13:24:24.627104 31949 net.cpp:165] Memory required for data: 126264000
I0520 13:24:24.627115 31949 layer_factory.hpp:77] Creating layer drop2
I0520 13:24:24.627127 31949 net.cpp:106] Creating Layer drop2
I0520 13:24:24.627137 31949 net.cpp:454] drop2 <- ip2
I0520 13:24:24.627149 31949 net.cpp:397] drop2 -> ip2 (in-place)
I0520 13:24:24.627192 31949 net.cpp:150] Setting up drop2
I0520 13:24:24.627205 31949 net.cpp:157] Top shape: 80 98 (7840)
I0520 13:24:24.627216 31949 net.cpp:165] Memory required for data: 126295360
I0520 13:24:24.627226 31949 layer_factory.hpp:77] Creating layer ip3
I0520 13:24:24.627239 31949 net.cpp:106] Creating Layer ip3
I0520 13:24:24.627249 31949 net.cpp:454] ip3 <- ip2
I0520 13:24:24.627262 31949 net.cpp:411] ip3 -> ip3
I0520 13:24:24.627470 31949 net.cpp:150] Setting up ip3
I0520 13:24:24.627483 31949 net.cpp:157] Top shape: 80 11 (880)
I0520 13:24:24.627492 31949 net.cpp:165] Memory required for data: 126298880
I0520 13:24:24.627508 31949 layer_factory.hpp:77] Creating layer drop3
I0520 13:24:24.627521 31949 net.cpp:106] Creating Layer drop3
I0520 13:24:24.627531 31949 net.cpp:454] drop3 <- ip3
I0520 13:24:24.627542 31949 net.cpp:397] drop3 -> ip3 (in-place)
I0520 13:24:24.627581 31949 net.cpp:150] Setting up drop3
I0520 13:24:24.627594 31949 net.cpp:157] Top shape: 80 11 (880)
I0520 13:24:24.627604 31949 net.cpp:165] Memory required for data: 126302400
I0520 13:24:24.627614 31949 layer_factory.hpp:77] Creating layer loss
I0520 13:24:24.627632 31949 net.cpp:106] Creating Layer loss
I0520 13:24:24.627642 31949 net.cpp:454] loss <- ip3
I0520 13:24:24.627655 31949 net.cpp:454] loss <- label
I0520 13:24:24.627666 31949 net.cpp:411] loss -> loss
I0520 13:24:24.627683 31949 layer_factory.hpp:77] Creating layer loss
…
I0520 13:24:24.630297 31949 solver.cpp:181] Creating test net (#0) specified by net file: /lustre/atlas/proj-shared/hep105/caffe_titan/caffe_workflow/logs_batch_size_test/batch_size_80_2016-05-20T11.20.35.603834.prototxt
I0520 13:24:24.630368 31949 net.cpp:322] The NetState phase (1) differed from the phase (0) specified by a rule in layer data_hdf5
I0520 13:24:24.630720 31949 net.cpp:49] Initializing net from parameters: 
name: "caffe_test_127x50_x_unshifted"
state {
  phase: TEST
}
layer {
  name: "data_hdf5"
  type: "HDF5Data"
  top: "data"
  top: "label"
  include {
    phase: TEST
  }
  hdf5_data_param {
    source: "/lustre/atlas/proj-shared/hep105/caffe_titan/minosmatch_nukecczdefs_127x50_x_unshifted_me1Bmc.testlist"
    batch_size: 80
  }
}
layer {
  name: "conv1"
  type: "Convolution"
  bottom: "data"
  top: "conv1"
  convolution_param {
    num_output: 12
    pad: 0
    stride: 1
    weight_filler {
      type: "xavier"
    }
    bias_filler {
      type: "constant"
    }
    kernel_h: 8
    kernel_w: 3
  }
}
layer {
  name: "relu1"
  type: "ReLU"
  bottom: "conv1"
  top: "conv1"
}
layer {
  name: "pool1"
  type: "Pooling"
  bottom: "conv1"
  top: "pool1"
  pooling_param {
    pool: MAX
    kernel_h: 2
    kernel_w: 1
    stride_h: 2
    stride_w: 1
  }
}
layer {
  name: "conv2"
  type: "Convolution"
  bottom: "pool1"
  top: "conv2"
  convolution_param {
    num_output: 20
    pad: 0
    stride: 1
    weight_filler {
      type: "xavier"
    }
    bias_filler {
      type: "constant"
    }
    kernel_h: 7
    kernel_w: 3
  }
}
layer {
  name: "relu2"
  type: "ReLU"
  bottom: "conv2"
  top: "conv2"
}
layer {
  name: "pool2"
  type: "Pooling"
  bottom: "conv2"
  top: "pool2"
  pooling_param {
    pool: MAX
    kernel_h: 2
    kernel_w: 1
    stride_h: 2
    stride_w: 1
  }
}
layer {
  name: "conv3"
  type: "Convolution"
  bottom: "pool2"
  top: "conv3"
  convolution_param {
    num_output: 28
    pad: 0
    stride: 1
    weight_filler {
      type: "xavier"
    }
    bias_filler {
      type: "constant"
    }
    kernel_h: 6
    kernel_w: 3
  }
}
layer {
  name: "relu3"
  type: "ReLU"
  bottom: "conv3"
  top: "conv3"
}
layer {
  name: "pool3"
  type: "Pooling"
  bottom: "conv3"
  top: "pool3"
  pooling_param {
    pool: MAX
    kernel_h: 2
    kernel_w: 1
    stride_h: 2
    stride_w: 1
  }
}
layer {
  name: "conv4"
  type: "Convolution"
  bottom: "pool3"
  top: "conv4"
  convolution_param {
    num_output: 36
    pad: 0
    stride: 1
    weight_filler {
      type: "xavier"
    }
    bias_filler {
      type: "constant"
    }
    kernel_h: 6
    kernel_w: 3
  }
}
layer {
  name: "relu4"
  type: "ReLU"
  bottom: "conv4"
  top: "conv4"
}
layer {
  name: "pool4"
  type: "Pooling"
  bottom: "conv4"
  top: "pool4"
  pooling_param {
    pool: MAX
    kernel_h: 2
    kernel_w: 1
    stride_h: 2
    stride_w: 1
  }
}
layer {
  name: "ip1"
  type: "InnerProduct"
  bottom: "pool4"
  top: "ip1"
  inner_product_param {
    num_output: 196
    weight_filler {
      type: "xavier"
    }
    bias_filler {
      type: "constant"
    }
  }
}
layer {
  name: "relu5"
  type: "ReLU"
  bottom: "ip1"
  top: "ip1"
}
layer {
  name: "drop1"
  type: "Dropout"
  bottom: "ip1"
  top: "ip1"
  dropout_param {
    dropout_ratio: 0.5
  }
}
layer {
  name: "ip2"
  type: "InnerProduct"
  bottom: "ip1"
  top: "ip2"
  inner_product_param {
    num_output: 98
    weight_filler {
      type: "xavier"
    }
    bias_filler {
      type: "constant"
    }
  }
}
layer {
  name: "relu6"
  type: "ReLU"
  bottom: "ip2"
  top: "ip2"
}
layer {
  name: "drop2"
  type: "Dropout"
  bottom: "ip2"
  top: "ip2"
  dropout_param {
    dropout_ratio: 0.5
  }
}
layer {
  name: "ip3"
  type: "InnerProduct"
  bottom: "ip2"
  top: "ip3"
  inner_product_param {
    num_output: 11
    weight_filler {
      type: "xavier"
    }
    bias_filler {
      type: "constant"
    }
  }
}
layer {
  name: "drop3"
  type: "Dropout"
  bottom: "ip3"
  top: "ip3"
  dropout_param {
    dropout_ratio: 0.5
  }
}
layer {
  name: "accuracy"
  type: "Accuracy"
  bottom: "ip3"
  bottom: "label"
  top: "accuracy"
  include {
    phase: TEST
  }
}
layer {
  name: "loss"
  type: "SoftmaxWithLoss"
  bottom: "ip3"
  bottom: "label"
  top: "loss"
}
I0520 13:24:24.630908 31949 layer_factory.hpp:77] Creating layer data_hdf5
I0520 13:24:24.630923 31949 net.cpp:106] Creating Layer data_hdf5
I0520 13:24:24.630935 31949 net.cpp:411] data_hdf5 -> data
I0520 13:24:24.630954 31949 net.cpp:411] data_hdf5 -> label
I0520 13:24:24.630970 31949 hdf5_data_layer.cpp:79] Loading list of HDF5 filenames from: /lustre/atlas/proj-shared/hep105/caffe_titan/minosmatch_nukecczdefs_127x50_x_unshifted_me1Bmc.testlist
I0520 13:24:24.632349 31949 hdf5_data_layer.cpp:93] Number of HDF5 files: 3
I0520 13:24:45.944254 31949 net.cpp:150] Setting up data_hdf5
I0520 13:24:45.944419 31949 net.cpp:157] Top shape: 80 1 127 50 (508000)
I0520 13:24:45.944434 31949 net.cpp:157] Top shape: 80 (80)
I0520 13:24:45.944445 31949 net.cpp:165] Memory required for data: 2032320
I0520 13:24:45.944459 31949 layer_factory.hpp:77] Creating layer label_data_hdf5_1_split
I0520 13:24:45.944494 31949 net.cpp:106] Creating Layer label_data_hdf5_1_split
I0520 13:24:45.944505 31949 net.cpp:454] label_data_hdf5_1_split <- label
I0520 13:24:45.944520 31949 net.cpp:411] label_data_hdf5_1_split -> label_data_hdf5_1_split_0
I0520 13:24:45.944542 31949 net.cpp:411] label_data_hdf5_1_split -> label_data_hdf5_1_split_1
I0520 13:24:45.944617 31949 net.cpp:150] Setting up label_data_hdf5_1_split
I0520 13:24:45.944629 31949 net.cpp:157] Top shape: 80 (80)
I0520 13:24:45.944641 31949 net.cpp:157] Top shape: 80 (80)
I0520 13:24:45.944650 31949 net.cpp:165] Memory required for data: 2032960
I0520 13:24:45.944658 31949 layer_factory.hpp:77] Creating layer conv1
I0520 13:24:45.944680 31949 net.cpp:106] Creating Layer conv1
I0520 13:24:45.944691 31949 net.cpp:454] conv1 <- data
I0520 13:24:45.944706 31949 net.cpp:411] conv1 -> conv1
I0520 13:24:45.946656 31949 net.cpp:150] Setting up conv1
I0520 13:24:45.946676 31949 net.cpp:157] Top shape: 80 12 120 48 (5529600)
I0520 13:24:45.946686 31949 net.cpp:165] Memory required for data: 24151360
I0520 13:24:45.946707 31949 layer_factory.hpp:77] Creating layer relu1
I0520 13:24:45.946720 31949 net.cpp:106] Creating Layer relu1
I0520 13:24:45.946730 31949 net.cpp:454] relu1 <- conv1
I0520 13:24:45.946743 31949 net.cpp:397] relu1 -> conv1 (in-place)
I0520 13:24:45.947237 31949 net.cpp:150] Setting up relu1
I0520 13:24:45.947252 31949 net.cpp:157] Top shape: 80 12 120 48 (5529600)
I0520 13:24:45.947263 31949 net.cpp:165] Memory required for data: 46269760
I0520 13:24:45.947273 31949 layer_factory.hpp:77] Creating layer pool1
I0520 13:24:45.947288 31949 net.cpp:106] Creating Layer pool1
I0520 13:24:45.947298 31949 net.cpp:454] pool1 <- conv1
I0520 13:24:45.947310 31949 net.cpp:411] pool1 -> pool1
I0520 13:24:45.947386 31949 net.cpp:150] Setting up pool1
I0520 13:24:45.947399 31949 net.cpp:157] Top shape: 80 12 60 48 (2764800)
I0520 13:24:45.947408 31949 net.cpp:165] Memory required for data: 57328960
I0520 13:24:45.947419 31949 layer_factory.hpp:77] Creating layer conv2
I0520 13:24:45.947437 31949 net.cpp:106] Creating Layer conv2
I0520 13:24:45.947446 31949 net.cpp:454] conv2 <- pool1
I0520 13:24:45.947460 31949 net.cpp:411] conv2 -> conv2
I0520 13:24:45.949404 31949 net.cpp:150] Setting up conv2
I0520 13:24:45.949424 31949 net.cpp:157] Top shape: 80 20 54 46 (3974400)
I0520 13:24:45.949440 31949 net.cpp:165] Memory required for data: 73226560
I0520 13:24:45.949456 31949 layer_factory.hpp:77] Creating layer relu2
I0520 13:24:45.949470 31949 net.cpp:106] Creating Layer relu2
I0520 13:24:45.949481 31949 net.cpp:454] relu2 <- conv2
I0520 13:24:45.949492 31949 net.cpp:397] relu2 -> conv2 (in-place)
I0520 13:24:45.949829 31949 net.cpp:150] Setting up relu2
I0520 13:24:45.949843 31949 net.cpp:157] Top shape: 80 20 54 46 (3974400)
I0520 13:24:45.949853 31949 net.cpp:165] Memory required for data: 89124160
I0520 13:24:45.949863 31949 layer_factory.hpp:77] Creating layer pool2
I0520 13:24:45.949877 31949 net.cpp:106] Creating Layer pool2
I0520 13:24:45.949887 31949 net.cpp:454] pool2 <- conv2
I0520 13:24:45.949899 31949 net.cpp:411] pool2 -> pool2
I0520 13:24:45.949970 31949 net.cpp:150] Setting up pool2
I0520 13:24:45.949983 31949 net.cpp:157] Top shape: 80 20 27 46 (1987200)
I0520 13:24:45.949993 31949 net.cpp:165] Memory required for data: 97072960
I0520 13:24:45.950003 31949 layer_factory.hpp:77] Creating layer conv3
I0520 13:24:45.950022 31949 net.cpp:106] Creating Layer conv3
I0520 13:24:45.950033 31949 net.cpp:454] conv3 <- pool2
I0520 13:24:45.950047 31949 net.cpp:411] conv3 -> conv3
I0520 13:24:45.952023 31949 net.cpp:150] Setting up conv3
I0520 13:24:45.952045 31949 net.cpp:157] Top shape: 80 28 22 44 (2168320)
I0520 13:24:45.952057 31949 net.cpp:165] Memory required for data: 105746240
I0520 13:24:45.952090 31949 layer_factory.hpp:77] Creating layer relu3
I0520 13:24:45.952103 31949 net.cpp:106] Creating Layer relu3
I0520 13:24:45.952113 31949 net.cpp:454] relu3 <- conv3
I0520 13:24:45.952126 31949 net.cpp:397] relu3 -> conv3 (in-place)
I0520 13:24:45.952602 31949 net.cpp:150] Setting up relu3
I0520 13:24:45.952618 31949 net.cpp:157] Top shape: 80 28 22 44 (2168320)
I0520 13:24:45.952628 31949 net.cpp:165] Memory required for data: 114419520
I0520 13:24:45.952639 31949 layer_factory.hpp:77] Creating layer pool3
I0520 13:24:45.952653 31949 net.cpp:106] Creating Layer pool3
I0520 13:24:45.952663 31949 net.cpp:454] pool3 <- conv3
I0520 13:24:45.952677 31949 net.cpp:411] pool3 -> pool3
I0520 13:24:45.952747 31949 net.cpp:150] Setting up pool3
I0520 13:24:45.952761 31949 net.cpp:157] Top shape: 80 28 11 44 (1084160)
I0520 13:24:45.952770 31949 net.cpp:165] Memory required for data: 118756160
I0520 13:24:45.952780 31949 layer_factory.hpp:77] Creating layer conv4
I0520 13:24:45.952798 31949 net.cpp:106] Creating Layer conv4
I0520 13:24:45.952808 31949 net.cpp:454] conv4 <- pool3
I0520 13:24:45.952822 31949 net.cpp:411] conv4 -> conv4
I0520 13:24:45.954898 31949 net.cpp:150] Setting up conv4
I0520 13:24:45.954921 31949 net.cpp:157] Top shape: 80 36 6 42 (725760)
I0520 13:24:45.954933 31949 net.cpp:165] Memory required for data: 121659200
I0520 13:24:45.954948 31949 layer_factory.hpp:77] Creating layer relu4
I0520 13:24:45.954962 31949 net.cpp:106] Creating Layer relu4
I0520 13:24:45.954972 31949 net.cpp:454] relu4 <- conv4
I0520 13:24:45.954984 31949 net.cpp:397] relu4 -> conv4 (in-place)
I0520 13:24:45.955456 31949 net.cpp:150] Setting up relu4
I0520 13:24:45.955471 31949 net.cpp:157] Top shape: 80 36 6 42 (725760)
I0520 13:24:45.955482 31949 net.cpp:165] Memory required for data: 124562240
I0520 13:24:45.955492 31949 layer_factory.hpp:77] Creating layer pool4
I0520 13:24:45.955504 31949 net.cpp:106] Creating Layer pool4
I0520 13:24:45.955514 31949 net.cpp:454] pool4 <- conv4
I0520 13:24:45.955528 31949 net.cpp:411] pool4 -> pool4
I0520 13:24:45.955598 31949 net.cpp:150] Setting up pool4
I0520 13:24:45.955611 31949 net.cpp:157] Top shape: 80 36 3 42 (362880)
I0520 13:24:45.955621 31949 net.cpp:165] Memory required for data: 126013760
I0520 13:24:45.955629 31949 layer_factory.hpp:77] Creating layer ip1
I0520 13:24:45.955646 31949 net.cpp:106] Creating Layer ip1
I0520 13:24:45.955657 31949 net.cpp:454] ip1 <- pool4
I0520 13:24:45.955669 31949 net.cpp:411] ip1 -> ip1
I0520 13:24:45.971186 31949 net.cpp:150] Setting up ip1
I0520 13:24:45.971215 31949 net.cpp:157] Top shape: 80 196 (15680)
I0520 13:24:45.971227 31949 net.cpp:165] Memory required for data: 126076480
I0520 13:24:45.971251 31949 layer_factory.hpp:77] Creating layer relu5
I0520 13:24:45.971266 31949 net.cpp:106] Creating Layer relu5
I0520 13:24:45.971276 31949 net.cpp:454] relu5 <- ip1
I0520 13:24:45.971288 31949 net.cpp:397] relu5 -> ip1 (in-place)
I0520 13:24:45.971638 31949 net.cpp:150] Setting up relu5
I0520 13:24:45.971652 31949 net.cpp:157] Top shape: 80 196 (15680)
I0520 13:24:45.971662 31949 net.cpp:165] Memory required for data: 126139200
I0520 13:24:45.971735 31949 layer_factory.hpp:77] Creating layer drop1
I0520 13:24:45.971755 31949 net.cpp:106] Creating Layer drop1
I0520 13:24:45.971766 31949 net.cpp:454] drop1 <- ip1
I0520 13:24:45.971779 31949 net.cpp:397] drop1 -> ip1 (in-place)
I0520 13:24:45.971828 31949 net.cpp:150] Setting up drop1
I0520 13:24:45.971842 31949 net.cpp:157] Top shape: 80 196 (15680)
I0520 13:24:45.971851 31949 net.cpp:165] Memory required for data: 126201920
I0520 13:24:45.971861 31949 layer_factory.hpp:77] Creating layer ip2
I0520 13:24:45.971875 31949 net.cpp:106] Creating Layer ip2
I0520 13:24:45.971885 31949 net.cpp:454] ip2 <- ip1
I0520 13:24:45.971899 31949 net.cpp:411] ip2 -> ip2
I0520 13:24:45.972378 31949 net.cpp:150] Setting up ip2
I0520 13:24:45.972391 31949 net.cpp:157] Top shape: 80 98 (7840)
I0520 13:24:45.972401 31949 net.cpp:165] Memory required for data: 126233280
I0520 13:24:45.972416 31949 layer_factory.hpp:77] Creating layer relu6
I0520 13:24:45.972442 31949 net.cpp:106] Creating Layer relu6
I0520 13:24:45.972452 31949 net.cpp:454] relu6 <- ip2
I0520 13:24:45.972465 31949 net.cpp:397] relu6 -> ip2 (in-place)
I0520 13:24:45.973014 31949 net.cpp:150] Setting up relu6
I0520 13:24:45.973036 31949 net.cpp:157] Top shape: 80 98 (7840)
I0520 13:24:45.973045 31949 net.cpp:165] Memory required for data: 126264640
I0520 13:24:45.973055 31949 layer_factory.hpp:77] Creating layer drop2
I0520 13:24:45.973069 31949 net.cpp:106] Creating Layer drop2
I0520 13:24:45.973079 31949 net.cpp:454] drop2 <- ip2
I0520 13:24:45.973093 31949 net.cpp:397] drop2 -> ip2 (in-place)
I0520 13:24:45.973136 31949 net.cpp:150] Setting up drop2
I0520 13:24:45.973150 31949 net.cpp:157] Top shape: 80 98 (7840)
I0520 13:24:45.973160 31949 net.cpp:165] Memory required for data: 126296000
I0520 13:24:45.973168 31949 layer_factory.hpp:77] Creating layer ip3
I0520 13:24:45.973182 31949 net.cpp:106] Creating Layer ip3
I0520 13:24:45.973192 31949 net.cpp:454] ip3 <- ip2
I0520 13:24:45.973206 31949 net.cpp:411] ip3 -> ip3
I0520 13:24:45.973428 31949 net.cpp:150] Setting up ip3
I0520 13:24:45.973440 31949 net.cpp:157] Top shape: 80 11 (880)
I0520 13:24:45.973449 31949 net.cpp:165] Memory required for data: 126299520
I0520 13:24:45.973464 31949 layer_factory.hpp:77] Creating layer drop3
I0520 13:24:45.973477 31949 net.cpp:106] Creating Layer drop3
I0520 13:24:45.973487 31949 net.cpp:454] drop3 <- ip3
I0520 13:24:45.973500 31949 net.cpp:397] drop3 -> ip3 (in-place)
I0520 13:24:45.973541 31949 net.cpp:150] Setting up drop3
I0520 13:24:45.973553 31949 net.cpp:157] Top shape: 80 11 (880)
I0520 13:24:45.973563 31949 net.cpp:165] Memory required for data: 126303040
I0520 13:24:45.973573 31949 layer_factory.hpp:77] Creating layer ip3_drop3_0_split
I0520 13:24:45.973587 31949 net.cpp:106] Creating Layer ip3_drop3_0_split
I0520 13:24:45.973595 31949 net.cpp:454] ip3_drop3_0_split <- ip3
I0520 13:24:45.973608 31949 net.cpp:411] ip3_drop3_0_split -> ip3_drop3_0_split_0
I0520 13:24:45.973623 31949 net.cpp:411] ip3_drop3_0_split -> ip3_drop3_0_split_1
I0520 13:24:45.973697 31949 net.cpp:150] Setting up ip3_drop3_0_split
I0520 13:24:45.973711 31949 net.cpp:157] Top shape: 80 11 (880)
I0520 13:24:45.973722 31949 net.cpp:157] Top shape: 80 11 (880)
I0520 13:24:45.973732 31949 net.cpp:165] Memory required for data: 126310080
I0520 13:24:45.973742 31949 layer_factory.hpp:77] Creating layer accuracy
I0520 13:24:45.973764 31949 net.cpp:106] Creating Layer accuracy
I0520 13:24:45.973773 31949 net.cpp:454] accuracy <- ip3_drop3_0_split_0
I0520 13:24:45.973784 31949 net.cpp:454] accuracy <- label_data_hdf5_1_split_0
I0520 13:24:45.973798 31949 net.cpp:411] accuracy -> accuracy
…
