…
I0521 07:00:20.340973 29452 net.cpp:322] The NetState phase (0) differed from the phase (1) specified by a rule in layer data_hdf5
I0521 07:00:20.341032 29452 net.cpp:322] The NetState phase (0) differed from the phase (1) specified by a rule in layer accuracy
I0521 07:00:20.341375 29452 net.cpp:49] Initializing net from parameters: 
name: "caffe_test_127x50_x_unshifted"
state {
  phase: TRAIN
}
layer {
  name: "data_hdf5"
  type: "HDF5Data"
  top: "data"
  top: "label"
  include {
    phase: TRAIN
  }
  hdf5_data_param {
    source: "/lustre/atlas/proj-shared/hep105/caffe_titan/minosmatch_nukecczdefs_127x50_x_unshifted_me1Bmc.trainlist"
    batch_size: 780
  }
}
layer {
  name: "conv1"
  type: "Convolution"
  bottom: "data"
  top: "conv1"
  convolution_param {
    num_output: 12
    pad: 0
    stride: 1
    weight_filler {
      type: "xavier"
    }
    bias_filler {
      type: "constant"
    }
    kernel_h: 8
    kernel_w: 3
  }
}
layer {
  name: "relu1"
  type: "ReLU"
  bottom: "conv1"
  top: "conv1"
}
layer {
  name: "pool1"
  type: "Pooling"
  bottom: "conv1"
  top: "pool1"
  pooling_param {
    pool: MAX
    kernel_h: 2
    kernel_w: 1
    stride_h: 2
    stride_w: 1
  }
}
layer {
  name: "conv2"
  type: "Convolution"
  bottom: "pool1"
  top: "conv2"
  convolution_param {
    num_output: 20
    pad: 0
    stride: 1
    weight_filler {
      type: "xavier"
    }
    bias_filler {
      type: "constant"
    }
    kernel_h: 7
    kernel_w: 3
  }
}
layer {
  name: "relu2"
  type: "ReLU"
  bottom: "conv2"
  top: "conv2"
}
layer {
  name: "pool2"
  type: "Pooling"
  bottom: "conv2"
  top: "pool2"
  pooling_param {
    pool: MAX
    kernel_h: 2
    kernel_w: 1
    stride_h: 2
    stride_w: 1
  }
}
layer {
  name: "conv3"
  type: "Convolution"
  bottom: "pool2"
  top: "conv3"
  convolution_param {
    num_output: 28
    pad: 0
    stride: 1
    weight_filler {
      type: "xavier"
    }
    bias_filler {
      type: "constant"
    }
    kernel_h: 6
    kernel_w: 3
  }
}
layer {
  name: "relu3"
  type: "ReLU"
  bottom: "conv3"
  top: "conv3"
}
layer {
  name: "pool3"
  type: "Pooling"
  bottom: "conv3"
  top: "pool3"
  pooling_param {
    pool: MAX
    kernel_h: 2
    kernel_w: 1
    stride_h: 2
    stride_w: 1
  }
}
layer {
  name: "conv4"
  type: "Convolution"
  bottom: "pool3"
  top: "conv4"
  convolution_param {
    num_output: 36
    pad: 0
    stride: 1
    weight_filler {
      type: "xavier"
    }
    bias_filler {
      type: "constant"
    }
    kernel_h: 6
    kernel_w: 3
  }
}
layer {
  name: "relu4"
  type: "ReLU"
  bottom: "conv4"
  top: "conv4"
}
layer {
  name: "pool4"
  type: "Pooling"
  bottom: "conv4"
  top: "pool4"
  pooling_param {
    pool: MAX
    kernel_h: 2
    kernel_w: 1
    stride_h: 2
    stride_w: 1
  }
}
layer {
  name: "ip1"
  type: "InnerProduct"
  bottom: "pool4"
  top: "ip1"
  inner_product_param {
    num_output: 196
    weight_filler {
      type: "xavier"
    }
    bias_filler {
      type: "constant"
    }
  }
}
layer {
  name: "relu5"
  type: "ReLU"
  bottom: "ip1"
  top: "ip1"
}
layer {
  name: "drop1"
  type: "Dropout"
  bottom: "ip1"
  top: "ip1"
  dropout_param {
    dropout_ratio: 0.5
  }
}
layer {
  name: "ip2"
  type: "InnerProduct"
  bottom: "ip1"
  top: "ip2"
  inner_product_param {
    num_output: 98
    weight_filler {
      type: "xavier"
    }
    bias_filler {
      type: "constant"
    }
  }
}
layer {
  name: "relu6"
  type: "ReLU"
  bottom: "ip2"
  top: "ip2"
}
layer {
  name: "drop2"
  type: "Dropout"
  bottom: "ip2"
  top: "ip2"
  dropout_param {
    dropout_ratio: 0.5
  }
}
layer {
  name: "ip3"
  type: "InnerProduct"
  bottom: "ip2"
  top: "ip3"
  inner_product_param {
    num_output: 11
    weight_filler {
      type: "xavier"
    }
    bias_filler {
      type: "constant"
    }
  }
}
layer {
  name: "drop3"
  type: "Dropout"
  bottom: "ip3"
  top: "ip3"
  dropout_param {
    dropout_ratio: 0.5
  }
}
layer {
  name: "loss"
  type: "SoftmaxWithLoss"
  bottom: "ip3"
  bottom: "label"
  top: "loss"
}
I0521 07:00:20.341553 29452 layer_factory.hpp:77] Creating layer data_hdf5
I0521 07:00:20.341578 29452 net.cpp:106] Creating Layer data_hdf5
I0521 07:00:20.341593 29452 net.cpp:411] data_hdf5 -> data
I0521 07:00:20.341625 29452 net.cpp:411] data_hdf5 -> label
I0521 07:00:20.341658 29452 hdf5_data_layer.cpp:79] Loading list of HDF5 filenames from: /lustre/atlas/proj-shared/hep105/caffe_titan/minosmatch_nukecczdefs_127x50_x_unshifted_me1Bmc.trainlist
I0521 07:00:20.342854 29452 hdf5_data_layer.cpp:93] Number of HDF5 files: 15
I0521 07:00:20.345087 29452 hdf5.cpp:32] Datatype class: H5T_FLOAT
I0521 07:00:41.962061 29452 hdf5.cpp:35] Datatype class: H5T_INTEGER
I0521 07:00:41.967119 29452 net.cpp:150] Setting up data_hdf5
I0521 07:00:41.967161 29452 net.cpp:157] Top shape: 780 1 127 50 (4953000)
I0521 07:00:41.967176 29452 net.cpp:157] Top shape: 780 (780)
I0521 07:00:41.967188 29452 net.cpp:165] Memory required for data: 19815120
I0521 07:00:41.967202 29452 layer_factory.hpp:77] Creating layer conv1
I0521 07:00:41.967236 29452 net.cpp:106] Creating Layer conv1
I0521 07:00:41.967247 29452 net.cpp:454] conv1 <- data
I0521 07:00:41.967269 29452 net.cpp:411] conv1 -> conv1
I0521 07:00:42.331874 29452 net.cpp:150] Setting up conv1
I0521 07:00:42.331918 29452 net.cpp:157] Top shape: 780 12 120 48 (53913600)
I0521 07:00:42.331928 29452 net.cpp:165] Memory required for data: 235469520
I0521 07:00:42.331959 29452 layer_factory.hpp:77] Creating layer relu1
I0521 07:00:42.331981 29452 net.cpp:106] Creating Layer relu1
I0521 07:00:42.331992 29452 net.cpp:454] relu1 <- conv1
I0521 07:00:42.332005 29452 net.cpp:397] relu1 -> conv1 (in-place)
I0521 07:00:42.332520 29452 net.cpp:150] Setting up relu1
I0521 07:00:42.332537 29452 net.cpp:157] Top shape: 780 12 120 48 (53913600)
I0521 07:00:42.332548 29452 net.cpp:165] Memory required for data: 451123920
I0521 07:00:42.332558 29452 layer_factory.hpp:77] Creating layer pool1
I0521 07:00:42.332576 29452 net.cpp:106] Creating Layer pool1
I0521 07:00:42.332586 29452 net.cpp:454] pool1 <- conv1
I0521 07:00:42.332600 29452 net.cpp:411] pool1 -> pool1
I0521 07:00:42.332680 29452 net.cpp:150] Setting up pool1
I0521 07:00:42.332695 29452 net.cpp:157] Top shape: 780 12 60 48 (26956800)
I0521 07:00:42.332705 29452 net.cpp:165] Memory required for data: 558951120
I0521 07:00:42.332716 29452 layer_factory.hpp:77] Creating layer conv2
I0521 07:00:42.332738 29452 net.cpp:106] Creating Layer conv2
I0521 07:00:42.332749 29452 net.cpp:454] conv2 <- pool1
I0521 07:00:42.332762 29452 net.cpp:411] conv2 -> conv2
I0521 07:00:42.335449 29452 net.cpp:150] Setting up conv2
I0521 07:00:42.335477 29452 net.cpp:157] Top shape: 780 20 54 46 (38750400)
I0521 07:00:42.335489 29452 net.cpp:165] Memory required for data: 713952720
I0521 07:00:42.335508 29452 layer_factory.hpp:77] Creating layer relu2
I0521 07:00:42.335522 29452 net.cpp:106] Creating Layer relu2
I0521 07:00:42.335533 29452 net.cpp:454] relu2 <- conv2
I0521 07:00:42.335546 29452 net.cpp:397] relu2 -> conv2 (in-place)
I0521 07:00:42.335875 29452 net.cpp:150] Setting up relu2
I0521 07:00:42.335891 29452 net.cpp:157] Top shape: 780 20 54 46 (38750400)
I0521 07:00:42.335901 29452 net.cpp:165] Memory required for data: 868954320
I0521 07:00:42.335911 29452 layer_factory.hpp:77] Creating layer pool2
I0521 07:00:42.335924 29452 net.cpp:106] Creating Layer pool2
I0521 07:00:42.335934 29452 net.cpp:454] pool2 <- conv2
I0521 07:00:42.335959 29452 net.cpp:411] pool2 -> pool2
I0521 07:00:42.336029 29452 net.cpp:150] Setting up pool2
I0521 07:00:42.336041 29452 net.cpp:157] Top shape: 780 20 27 46 (19375200)
I0521 07:00:42.336052 29452 net.cpp:165] Memory required for data: 946455120
I0521 07:00:42.336062 29452 layer_factory.hpp:77] Creating layer conv3
I0521 07:00:42.336081 29452 net.cpp:106] Creating Layer conv3
I0521 07:00:42.336091 29452 net.cpp:454] conv3 <- pool2
I0521 07:00:42.336104 29452 net.cpp:411] conv3 -> conv3
I0521 07:00:42.338030 29452 net.cpp:150] Setting up conv3
I0521 07:00:42.338054 29452 net.cpp:157] Top shape: 780 28 22 44 (21141120)
I0521 07:00:42.338068 29452 net.cpp:165] Memory required for data: 1031019600
I0521 07:00:42.338085 29452 layer_factory.hpp:77] Creating layer relu3
I0521 07:00:42.338101 29452 net.cpp:106] Creating Layer relu3
I0521 07:00:42.338111 29452 net.cpp:454] relu3 <- conv3
I0521 07:00:42.338124 29452 net.cpp:397] relu3 -> conv3 (in-place)
I0521 07:00:42.338596 29452 net.cpp:150] Setting up relu3
I0521 07:00:42.338614 29452 net.cpp:157] Top shape: 780 28 22 44 (21141120)
I0521 07:00:42.338624 29452 net.cpp:165] Memory required for data: 1115584080
I0521 07:00:42.338634 29452 layer_factory.hpp:77] Creating layer pool3
I0521 07:00:42.338647 29452 net.cpp:106] Creating Layer pool3
I0521 07:00:42.338659 29452 net.cpp:454] pool3 <- conv3
I0521 07:00:42.338670 29452 net.cpp:411] pool3 -> pool3
I0521 07:00:42.338738 29452 net.cpp:150] Setting up pool3
I0521 07:00:42.338752 29452 net.cpp:157] Top shape: 780 28 11 44 (10570560)
I0521 07:00:42.338762 29452 net.cpp:165] Memory required for data: 1157866320
I0521 07:00:42.338771 29452 layer_factory.hpp:77] Creating layer conv4
I0521 07:00:42.338786 29452 net.cpp:106] Creating Layer conv4
I0521 07:00:42.338798 29452 net.cpp:454] conv4 <- pool3
I0521 07:00:42.338811 29452 net.cpp:411] conv4 -> conv4
I0521 07:00:42.341584 29452 net.cpp:150] Setting up conv4
I0521 07:00:42.341614 29452 net.cpp:157] Top shape: 780 36 6 42 (7076160)
I0521 07:00:42.341624 29452 net.cpp:165] Memory required for data: 1186170960
I0521 07:00:42.341639 29452 layer_factory.hpp:77] Creating layer relu4
I0521 07:00:42.341653 29452 net.cpp:106] Creating Layer relu4
I0521 07:00:42.341665 29452 net.cpp:454] relu4 <- conv4
I0521 07:00:42.341677 29452 net.cpp:397] relu4 -> conv4 (in-place)
I0521 07:00:42.342160 29452 net.cpp:150] Setting up relu4
I0521 07:00:42.342177 29452 net.cpp:157] Top shape: 780 36 6 42 (7076160)
I0521 07:00:42.342188 29452 net.cpp:165] Memory required for data: 1214475600
I0521 07:00:42.342198 29452 layer_factory.hpp:77] Creating layer pool4
I0521 07:00:42.342211 29452 net.cpp:106] Creating Layer pool4
I0521 07:00:42.342221 29452 net.cpp:454] pool4 <- conv4
I0521 07:00:42.342234 29452 net.cpp:411] pool4 -> pool4
I0521 07:00:42.342303 29452 net.cpp:150] Setting up pool4
I0521 07:00:42.342316 29452 net.cpp:157] Top shape: 780 36 3 42 (3538080)
I0521 07:00:42.342324 29452 net.cpp:165] Memory required for data: 1228627920
I0521 07:00:42.342334 29452 layer_factory.hpp:77] Creating layer ip1
I0521 07:00:42.342355 29452 net.cpp:106] Creating Layer ip1
I0521 07:00:42.342365 29452 net.cpp:454] ip1 <- pool4
I0521 07:00:42.342376 29452 net.cpp:411] ip1 -> ip1
I0521 07:00:42.357805 29452 net.cpp:150] Setting up ip1
I0521 07:00:42.357834 29452 net.cpp:157] Top shape: 780 196 (152880)
I0521 07:00:42.357847 29452 net.cpp:165] Memory required for data: 1229239440
I0521 07:00:42.357870 29452 layer_factory.hpp:77] Creating layer relu5
I0521 07:00:42.357885 29452 net.cpp:106] Creating Layer relu5
I0521 07:00:42.357895 29452 net.cpp:454] relu5 <- ip1
I0521 07:00:42.357908 29452 net.cpp:397] relu5 -> ip1 (in-place)
I0521 07:00:42.358258 29452 net.cpp:150] Setting up relu5
I0521 07:00:42.358273 29452 net.cpp:157] Top shape: 780 196 (152880)
I0521 07:00:42.358283 29452 net.cpp:165] Memory required for data: 1229850960
I0521 07:00:42.358292 29452 layer_factory.hpp:77] Creating layer drop1
I0521 07:00:42.358314 29452 net.cpp:106] Creating Layer drop1
I0521 07:00:42.358324 29452 net.cpp:454] drop1 <- ip1
I0521 07:00:42.358350 29452 net.cpp:397] drop1 -> ip1 (in-place)
I0521 07:00:42.358397 29452 net.cpp:150] Setting up drop1
I0521 07:00:42.358409 29452 net.cpp:157] Top shape: 780 196 (152880)
I0521 07:00:42.358419 29452 net.cpp:165] Memory required for data: 1230462480
I0521 07:00:42.358429 29452 layer_factory.hpp:77] Creating layer ip2
I0521 07:00:42.358448 29452 net.cpp:106] Creating Layer ip2
I0521 07:00:42.358458 29452 net.cpp:454] ip2 <- ip1
I0521 07:00:42.358472 29452 net.cpp:411] ip2 -> ip2
I0521 07:00:42.358937 29452 net.cpp:150] Setting up ip2
I0521 07:00:42.358950 29452 net.cpp:157] Top shape: 780 98 (76440)
I0521 07:00:42.358960 29452 net.cpp:165] Memory required for data: 1230768240
I0521 07:00:42.358975 29452 layer_factory.hpp:77] Creating layer relu6
I0521 07:00:42.358989 29452 net.cpp:106] Creating Layer relu6
I0521 07:00:42.358999 29452 net.cpp:454] relu6 <- ip2
I0521 07:00:42.359010 29452 net.cpp:397] relu6 -> ip2 (in-place)
I0521 07:00:42.359526 29452 net.cpp:150] Setting up relu6
I0521 07:00:42.359542 29452 net.cpp:157] Top shape: 780 98 (76440)
I0521 07:00:42.359554 29452 net.cpp:165] Memory required for data: 1231074000
I0521 07:00:42.359565 29452 layer_factory.hpp:77] Creating layer drop2
I0521 07:00:42.359578 29452 net.cpp:106] Creating Layer drop2
I0521 07:00:42.359588 29452 net.cpp:454] drop2 <- ip2
I0521 07:00:42.359601 29452 net.cpp:397] drop2 -> ip2 (in-place)
I0521 07:00:42.359643 29452 net.cpp:150] Setting up drop2
I0521 07:00:42.359658 29452 net.cpp:157] Top shape: 780 98 (76440)
I0521 07:00:42.359668 29452 net.cpp:165] Memory required for data: 1231379760
I0521 07:00:42.359678 29452 layer_factory.hpp:77] Creating layer ip3
I0521 07:00:42.359691 29452 net.cpp:106] Creating Layer ip3
I0521 07:00:42.359701 29452 net.cpp:454] ip3 <- ip2
I0521 07:00:42.359715 29452 net.cpp:411] ip3 -> ip3
I0521 07:00:42.359925 29452 net.cpp:150] Setting up ip3
I0521 07:00:42.359940 29452 net.cpp:157] Top shape: 780 11 (8580)
I0521 07:00:42.359949 29452 net.cpp:165] Memory required for data: 1231414080
I0521 07:00:42.359964 29452 layer_factory.hpp:77] Creating layer drop3
I0521 07:00:42.359977 29452 net.cpp:106] Creating Layer drop3
I0521 07:00:42.359987 29452 net.cpp:454] drop3 <- ip3
I0521 07:00:42.359998 29452 net.cpp:397] drop3 -> ip3 (in-place)
I0521 07:00:42.360038 29452 net.cpp:150] Setting up drop3
I0521 07:00:42.360051 29452 net.cpp:157] Top shape: 780 11 (8580)
I0521 07:00:42.360061 29452 net.cpp:165] Memory required for data: 1231448400
I0521 07:00:42.360071 29452 layer_factory.hpp:77] Creating layer loss
I0521 07:00:42.360090 29452 net.cpp:106] Creating Layer loss
I0521 07:00:42.360100 29452 net.cpp:454] loss <- ip3
I0521 07:00:42.360111 29452 net.cpp:454] loss <- label
I0521 07:00:42.360124 29452 net.cpp:411] loss -> loss
I0521 07:00:42.360141 29452 layer_factory.hpp:77] Creating layer loss
…
I0521 07:00:42.362962 29452 solver.cpp:181] Creating test net (#0) specified by net file: /lustre/atlas/proj-shared/hep105/caffe_titan/caffe_workflow/logs_batch_size_test/batch_size_780_2016-05-20T11.21.01.117916.prototxt
I0521 07:00:42.363034 29452 net.cpp:322] The NetState phase (1) differed from the phase (0) specified by a rule in layer data_hdf5
I0521 07:00:42.363390 29452 net.cpp:49] Initializing net from parameters: 
name: "caffe_test_127x50_x_unshifted"
state {
  phase: TEST
}
layer {
  name: "data_hdf5"
  type: "HDF5Data"
  top: "data"
  top: "label"
  include {
    phase: TEST
  }
  hdf5_data_param {
    source: "/lustre/atlas/proj-shared/hep105/caffe_titan/minosmatch_nukecczdefs_127x50_x_unshifted_me1Bmc.testlist"
    batch_size: 780
  }
}
layer {
  name: "conv1"
  type: "Convolution"
  bottom: "data"
  top: "conv1"
  convolution_param {
    num_output: 12
    pad: 0
    stride: 1
    weight_filler {
      type: "xavier"
    }
    bias_filler {
      type: "constant"
    }
    kernel_h: 8
    kernel_w: 3
  }
}
layer {
  name: "relu1"
  type: "ReLU"
  bottom: "conv1"
  top: "conv1"
}
layer {
  name: "pool1"
  type: "Pooling"
  bottom: "conv1"
  top: "pool1"
  pooling_param {
    pool: MAX
    kernel_h: 2
    kernel_w: 1
    stride_h: 2
    stride_w: 1
  }
}
layer {
  name: "conv2"
  type: "Convolution"
  bottom: "pool1"
  top: "conv2"
  convolution_param {
    num_output: 20
    pad: 0
    stride: 1
    weight_filler {
      type: "xavier"
    }
    bias_filler {
      type: "constant"
    }
    kernel_h: 7
    kernel_w: 3
  }
}
layer {
  name: "relu2"
  type: "ReLU"
  bottom: "conv2"
  top: "conv2"
}
layer {
  name: "pool2"
  type: "Pooling"
  bottom: "conv2"
  top: "pool2"
  pooling_param {
    pool: MAX
    kernel_h: 2
    kernel_w: 1
    stride_h: 2
    stride_w: 1
  }
}
layer {
  name: "conv3"
  type: "Convolution"
  bottom: "pool2"
  top: "conv3"
  convolution_param {
    num_output: 28
    pad: 0
    stride: 1
    weight_filler {
      type: "xavier"
    }
    bias_filler {
      type: "constant"
    }
    kernel_h: 6
    kernel_w: 3
  }
}
layer {
  name: "relu3"
  type: "ReLU"
  bottom: "conv3"
  top: "conv3"
}
layer {
  name: "pool3"
  type: "Pooling"
  bottom: "conv3"
  top: "pool3"
  pooling_param {
    pool: MAX
    kernel_h: 2
    kernel_w: 1
    stride_h: 2
    stride_w: 1
  }
}
layer {
  name: "conv4"
  type: "Convolution"
  bottom: "pool3"
  top: "conv4"
  convolution_param {
    num_output: 36
    pad: 0
    stride: 1
    weight_filler {
      type: "xavier"
    }
    bias_filler {
      type: "constant"
    }
    kernel_h: 6
    kernel_w: 3
  }
}
layer {
  name: "relu4"
  type: "ReLU"
  bottom: "conv4"
  top: "conv4"
}
layer {
  name: "pool4"
  type: "Pooling"
  bottom: "conv4"
  top: "pool4"
  pooling_param {
    pool: MAX
    kernel_h: 2
    kernel_w: 1
    stride_h: 2
    stride_w: 1
  }
}
layer {
  name: "ip1"
  type: "InnerProduct"
  bottom: "pool4"
  top: "ip1"
  inner_product_param {
    num_output: 196
    weight_filler {
      type: "xavier"
    }
    bias_filler {
      type: "constant"
    }
  }
}
layer {
  name: "relu5"
  type: "ReLU"
  bottom: "ip1"
  top: "ip1"
}
layer {
  name: "drop1"
  type: "Dropout"
  bottom: "ip1"
  top: "ip1"
  dropout_param {
    dropout_ratio: 0.5
  }
}
layer {
  name: "ip2"
  type: "InnerProduct"
  bottom: "ip1"
  top: "ip2"
  inner_product_param {
    num_output: 98
    weight_filler {
      type: "xavier"
    }
    bias_filler {
      type: "constant"
    }
  }
}
layer {
  name: "relu6"
  type: "ReLU"
  bottom: "ip2"
  top: "ip2"
}
layer {
  name: "drop2"
  type: "Dropout"
  bottom: "ip2"
  top: "ip2"
  dropout_param {
    dropout_ratio: 0.5
  }
}
layer {
  name: "ip3"
  type: "InnerProduct"
  bottom: "ip2"
  top: "ip3"
  inner_product_param {
    num_output: 11
    weight_filler {
      type: "xavier"
    }
    bias_filler {
      type: "constant"
    }
  }
}
layer {
  name: "drop3"
  type: "Dropout"
  bottom: "ip3"
  top: "ip3"
  dropout_param {
    dropout_ratio: 0.5
  }
}
layer {
  name: "accuracy"
  type: "Accuracy"
  bottom: "ip3"
  bottom: "label"
  top: "accuracy"
  include {
    phase: TEST
  }
}
layer {
  name: "loss"
  type: "SoftmaxWithLoss"
  bottom: "ip3"
  bottom: "label"
  top: "loss"
}
I0521 07:00:42.363580 29452 layer_factory.hpp:77] Creating layer data_hdf5
I0521 07:00:42.363595 29452 net.cpp:106] Creating Layer data_hdf5
I0521 07:00:42.363607 29452 net.cpp:411] data_hdf5 -> data
I0521 07:00:42.363623 29452 net.cpp:411] data_hdf5 -> label
I0521 07:00:42.363639 29452 hdf5_data_layer.cpp:79] Loading list of HDF5 filenames from: /lustre/atlas/proj-shared/hep105/caffe_titan/minosmatch_nukecczdefs_127x50_x_unshifted_me1Bmc.testlist
I0521 07:00:42.364959 29452 hdf5_data_layer.cpp:93] Number of HDF5 files: 3
I0521 07:01:03.716199 29452 net.cpp:150] Setting up data_hdf5
I0521 07:01:03.716369 29452 net.cpp:157] Top shape: 780 1 127 50 (4953000)
I0521 07:01:03.716384 29452 net.cpp:157] Top shape: 780 (780)
I0521 07:01:03.716395 29452 net.cpp:165] Memory required for data: 19815120
I0521 07:01:03.716408 29452 layer_factory.hpp:77] Creating layer label_data_hdf5_1_split
I0521 07:01:03.716437 29452 net.cpp:106] Creating Layer label_data_hdf5_1_split
I0521 07:01:03.716449 29452 net.cpp:454] label_data_hdf5_1_split <- label
I0521 07:01:03.716464 29452 net.cpp:411] label_data_hdf5_1_split -> label_data_hdf5_1_split_0
I0521 07:01:03.716485 29452 net.cpp:411] label_data_hdf5_1_split -> label_data_hdf5_1_split_1
I0521 07:01:03.716557 29452 net.cpp:150] Setting up label_data_hdf5_1_split
I0521 07:01:03.716572 29452 net.cpp:157] Top shape: 780 (780)
I0521 07:01:03.716583 29452 net.cpp:157] Top shape: 780 (780)
I0521 07:01:03.716593 29452 net.cpp:165] Memory required for data: 19821360
I0521 07:01:03.716603 29452 layer_factory.hpp:77] Creating layer conv1
I0521 07:01:03.716624 29452 net.cpp:106] Creating Layer conv1
I0521 07:01:03.716635 29452 net.cpp:454] conv1 <- data
I0521 07:01:03.716650 29452 net.cpp:411] conv1 -> conv1
I0521 07:01:03.718571 29452 net.cpp:150] Setting up conv1
I0521 07:01:03.718595 29452 net.cpp:157] Top shape: 780 12 120 48 (53913600)
I0521 07:01:03.718607 29452 net.cpp:165] Memory required for data: 235475760
I0521 07:01:03.718628 29452 layer_factory.hpp:77] Creating layer relu1
I0521 07:01:03.718643 29452 net.cpp:106] Creating Layer relu1
I0521 07:01:03.718653 29452 net.cpp:454] relu1 <- conv1
I0521 07:01:03.718667 29452 net.cpp:397] relu1 -> conv1 (in-place)
I0521 07:01:03.719163 29452 net.cpp:150] Setting up relu1
I0521 07:01:03.719180 29452 net.cpp:157] Top shape: 780 12 120 48 (53913600)
I0521 07:01:03.719190 29452 net.cpp:165] Memory required for data: 451130160
I0521 07:01:03.719200 29452 layer_factory.hpp:77] Creating layer pool1
I0521 07:01:03.719218 29452 net.cpp:106] Creating Layer pool1
I0521 07:01:03.719226 29452 net.cpp:454] pool1 <- conv1
I0521 07:01:03.719239 29452 net.cpp:411] pool1 -> pool1
I0521 07:01:03.719316 29452 net.cpp:150] Setting up pool1
I0521 07:01:03.719328 29452 net.cpp:157] Top shape: 780 12 60 48 (26956800)
I0521 07:01:03.719337 29452 net.cpp:165] Memory required for data: 558957360
I0521 07:01:03.719347 29452 layer_factory.hpp:77] Creating layer conv2
I0521 07:01:03.719365 29452 net.cpp:106] Creating Layer conv2
I0521 07:01:03.719377 29452 net.cpp:454] conv2 <- pool1
I0521 07:01:03.719391 29452 net.cpp:411] conv2 -> conv2
I0521 07:01:03.721294 29452 net.cpp:150] Setting up conv2
I0521 07:01:03.721318 29452 net.cpp:157] Top shape: 780 20 54 46 (38750400)
I0521 07:01:03.721330 29452 net.cpp:165] Memory required for data: 713958960
I0521 07:01:03.721348 29452 layer_factory.hpp:77] Creating layer relu2
I0521 07:01:03.721361 29452 net.cpp:106] Creating Layer relu2
I0521 07:01:03.721371 29452 net.cpp:454] relu2 <- conv2
I0521 07:01:03.721384 29452 net.cpp:397] relu2 -> conv2 (in-place)
I0521 07:01:03.721719 29452 net.cpp:150] Setting up relu2
I0521 07:01:03.721734 29452 net.cpp:157] Top shape: 780 20 54 46 (38750400)
I0521 07:01:03.721745 29452 net.cpp:165] Memory required for data: 868960560
I0521 07:01:03.721755 29452 layer_factory.hpp:77] Creating layer pool2
I0521 07:01:03.721767 29452 net.cpp:106] Creating Layer pool2
I0521 07:01:03.721777 29452 net.cpp:454] pool2 <- conv2
I0521 07:01:03.721789 29452 net.cpp:411] pool2 -> pool2
I0521 07:01:03.721860 29452 net.cpp:150] Setting up pool2
I0521 07:01:03.721874 29452 net.cpp:157] Top shape: 780 20 27 46 (19375200)
I0521 07:01:03.721884 29452 net.cpp:165] Memory required for data: 946461360
I0521 07:01:03.721894 29452 layer_factory.hpp:77] Creating layer conv3
I0521 07:01:03.721914 29452 net.cpp:106] Creating Layer conv3
I0521 07:01:03.721925 29452 net.cpp:454] conv3 <- pool2
I0521 07:01:03.721938 29452 net.cpp:411] conv3 -> conv3
I0521 07:01:03.723911 29452 net.cpp:150] Setting up conv3
I0521 07:01:03.723928 29452 net.cpp:157] Top shape: 780 28 22 44 (21141120)
I0521 07:01:03.723938 29452 net.cpp:165] Memory required for data: 1031025840
I0521 07:01:03.723970 29452 layer_factory.hpp:77] Creating layer relu3
I0521 07:01:03.723984 29452 net.cpp:106] Creating Layer relu3
I0521 07:01:03.723995 29452 net.cpp:454] relu3 <- conv3
I0521 07:01:03.724009 29452 net.cpp:397] relu3 -> conv3 (in-place)
I0521 07:01:03.724483 29452 net.cpp:150] Setting up relu3
I0521 07:01:03.724499 29452 net.cpp:157] Top shape: 780 28 22 44 (21141120)
I0521 07:01:03.724510 29452 net.cpp:165] Memory required for data: 1115590320
I0521 07:01:03.724520 29452 layer_factory.hpp:77] Creating layer pool3
I0521 07:01:03.724534 29452 net.cpp:106] Creating Layer pool3
I0521 07:01:03.724544 29452 net.cpp:454] pool3 <- conv3
I0521 07:01:03.724556 29452 net.cpp:411] pool3 -> pool3
I0521 07:01:03.724628 29452 net.cpp:150] Setting up pool3
I0521 07:01:03.724642 29452 net.cpp:157] Top shape: 780 28 11 44 (10570560)
I0521 07:01:03.724652 29452 net.cpp:165] Memory required for data: 1157872560
I0521 07:01:03.724661 29452 layer_factory.hpp:77] Creating layer conv4
I0521 07:01:03.724679 29452 net.cpp:106] Creating Layer conv4
I0521 07:01:03.724689 29452 net.cpp:454] conv4 <- pool3
I0521 07:01:03.724704 29452 net.cpp:411] conv4 -> conv4
I0521 07:01:03.726830 29452 net.cpp:150] Setting up conv4
I0521 07:01:03.726852 29452 net.cpp:157] Top shape: 780 36 6 42 (7076160)
I0521 07:01:03.726866 29452 net.cpp:165] Memory required for data: 1186177200
I0521 07:01:03.726881 29452 layer_factory.hpp:77] Creating layer relu4
I0521 07:01:03.726896 29452 net.cpp:106] Creating Layer relu4
I0521 07:01:03.726905 29452 net.cpp:454] relu4 <- conv4
I0521 07:01:03.726918 29452 net.cpp:397] relu4 -> conv4 (in-place)
I0521 07:01:03.727393 29452 net.cpp:150] Setting up relu4
I0521 07:01:03.727414 29452 net.cpp:157] Top shape: 780 36 6 42 (7076160)
I0521 07:01:03.727424 29452 net.cpp:165] Memory required for data: 1214481840
I0521 07:01:03.727434 29452 layer_factory.hpp:77] Creating layer pool4
I0521 07:01:03.727448 29452 net.cpp:106] Creating Layer pool4
I0521 07:01:03.727458 29452 net.cpp:454] pool4 <- conv4
I0521 07:01:03.727471 29452 net.cpp:411] pool4 -> pool4
I0521 07:01:03.727542 29452 net.cpp:150] Setting up pool4
I0521 07:01:03.727555 29452 net.cpp:157] Top shape: 780 36 3 42 (3538080)
I0521 07:01:03.727566 29452 net.cpp:165] Memory required for data: 1228634160
I0521 07:01:03.727576 29452 layer_factory.hpp:77] Creating layer ip1
I0521 07:01:03.727591 29452 net.cpp:106] Creating Layer ip1
I0521 07:01:03.727602 29452 net.cpp:454] ip1 <- pool4
I0521 07:01:03.727615 29452 net.cpp:411] ip1 -> ip1
I0521 07:01:03.743055 29452 net.cpp:150] Setting up ip1
I0521 07:01:03.743083 29452 net.cpp:157] Top shape: 780 196 (152880)
I0521 07:01:03.743095 29452 net.cpp:165] Memory required for data: 1229245680
I0521 07:01:03.743118 29452 layer_factory.hpp:77] Creating layer relu5
I0521 07:01:03.743132 29452 net.cpp:106] Creating Layer relu5
I0521 07:01:03.743144 29452 net.cpp:454] relu5 <- ip1
I0521 07:01:03.743157 29452 net.cpp:397] relu5 -> ip1 (in-place)
I0521 07:01:03.743500 29452 net.cpp:150] Setting up relu5
I0521 07:01:03.743515 29452 net.cpp:157] Top shape: 780 196 (152880)
I0521 07:01:03.743525 29452 net.cpp:165] Memory required for data: 1229857200
I0521 07:01:03.743535 29452 layer_factory.hpp:77] Creating layer drop1
I0521 07:01:03.743553 29452 net.cpp:106] Creating Layer drop1
I0521 07:01:03.743563 29452 net.cpp:454] drop1 <- ip1
I0521 07:01:03.743577 29452 net.cpp:397] drop1 -> ip1 (in-place)
I0521 07:01:03.743621 29452 net.cpp:150] Setting up drop1
I0521 07:01:03.743633 29452 net.cpp:157] Top shape: 780 196 (152880)
I0521 07:01:03.743643 29452 net.cpp:165] Memory required for data: 1230468720
I0521 07:01:03.743654 29452 layer_factory.hpp:77] Creating layer ip2
I0521 07:01:03.743667 29452 net.cpp:106] Creating Layer ip2
I0521 07:01:03.743677 29452 net.cpp:454] ip2 <- ip1
I0521 07:01:03.743691 29452 net.cpp:411] ip2 -> ip2
I0521 07:01:03.744170 29452 net.cpp:150] Setting up ip2
I0521 07:01:03.744184 29452 net.cpp:157] Top shape: 780 98 (76440)
I0521 07:01:03.744194 29452 net.cpp:165] Memory required for data: 1230774480
I0521 07:01:03.744221 29452 layer_factory.hpp:77] Creating layer relu6
I0521 07:01:03.744235 29452 net.cpp:106] Creating Layer relu6
I0521 07:01:03.744245 29452 net.cpp:454] relu6 <- ip2
I0521 07:01:03.744256 29452 net.cpp:397] relu6 -> ip2 (in-place)
I0521 07:01:03.744784 29452 net.cpp:150] Setting up relu6
I0521 07:01:03.744801 29452 net.cpp:157] Top shape: 780 98 (76440)
I0521 07:01:03.744812 29452 net.cpp:165] Memory required for data: 1231080240
I0521 07:01:03.744822 29452 layer_factory.hpp:77] Creating layer drop2
I0521 07:01:03.744837 29452 net.cpp:106] Creating Layer drop2
I0521 07:01:03.744846 29452 net.cpp:454] drop2 <- ip2
I0521 07:01:03.744858 29452 net.cpp:397] drop2 -> ip2 (in-place)
I0521 07:01:03.744902 29452 net.cpp:150] Setting up drop2
I0521 07:01:03.744915 29452 net.cpp:157] Top shape: 780 98 (76440)
I0521 07:01:03.744925 29452 net.cpp:165] Memory required for data: 1231386000
I0521 07:01:03.744935 29452 layer_factory.hpp:77] Creating layer ip3
I0521 07:01:03.744949 29452 net.cpp:106] Creating Layer ip3
I0521 07:01:03.744958 29452 net.cpp:454] ip3 <- ip2
I0521 07:01:03.744972 29452 net.cpp:411] ip3 -> ip3
I0521 07:01:03.745194 29452 net.cpp:150] Setting up ip3
I0521 07:01:03.745208 29452 net.cpp:157] Top shape: 780 11 (8580)
I0521 07:01:03.745218 29452 net.cpp:165] Memory required for data: 1231420320
I0521 07:01:03.745232 29452 layer_factory.hpp:77] Creating layer drop3
I0521 07:01:03.745246 29452 net.cpp:106] Creating Layer drop3
I0521 07:01:03.745256 29452 net.cpp:454] drop3 <- ip3
I0521 07:01:03.745270 29452 net.cpp:397] drop3 -> ip3 (in-place)
I0521 07:01:03.745311 29452 net.cpp:150] Setting up drop3
I0521 07:01:03.745323 29452 net.cpp:157] Top shape: 780 11 (8580)
I0521 07:01:03.745333 29452 net.cpp:165] Memory required for data: 1231454640
I0521 07:01:03.745342 29452 layer_factory.hpp:77] Creating layer ip3_drop3_0_split
I0521 07:01:03.745355 29452 net.cpp:106] Creating Layer ip3_drop3_0_split
I0521 07:01:03.745365 29452 net.cpp:454] ip3_drop3_0_split <- ip3
I0521 07:01:03.745378 29452 net.cpp:411] ip3_drop3_0_split -> ip3_drop3_0_split_0
I0521 07:01:03.745393 29452 net.cpp:411] ip3_drop3_0_split -> ip3_drop3_0_split_1
I0521 07:01:03.745465 29452 net.cpp:150] Setting up ip3_drop3_0_split
I0521 07:01:03.745479 29452 net.cpp:157] Top shape: 780 11 (8580)
I0521 07:01:03.745491 29452 net.cpp:157] Top shape: 780 11 (8580)
I0521 07:01:03.745501 29452 net.cpp:165] Memory required for data: 1231523280
I0521 07:01:03.745512 29452 layer_factory.hpp:77] Creating layer accuracy
I0521 07:01:03.745533 29452 net.cpp:106] Creating Layer accuracy
I0521 07:01:03.745543 29452 net.cpp:454] accuracy <- ip3_drop3_0_split_0
I0521 07:01:03.745553 29452 net.cpp:454] accuracy <- label_data_hdf5_1_split_0
I0521 07:01:03.745566 29452 net.cpp:411] accuracy -> accuracy
…
