…
I0521 00:52:24.010056  6829 net.cpp:322] The NetState phase (0) differed from the phase (1) specified by a rule in layer data_hdf5
I0521 00:52:24.010120  6829 net.cpp:322] The NetState phase (0) differed from the phase (1) specified by a rule in layer accuracy
I0521 00:52:24.010462  6829 net.cpp:49] Initializing net from parameters: 
name: "caffe_test_127x50_x_unshifted"
state {
  phase: TRAIN
}
layer {
  name: "data_hdf5"
  type: "HDF5Data"
  top: "data"
  top: "label"
  include {
    phase: TRAIN
  }
  hdf5_data_param {
    source: "/lustre/atlas/proj-shared/hep105/caffe_titan/minosmatch_nukecczdefs_127x50_x_unshifted_me1Bmc.trainlist"
    batch_size: 490
  }
}
layer {
  name: "conv1"
  type: "Convolution"
  bottom: "data"
  top: "conv1"
  convolution_param {
    num_output: 12
    pad: 0
    stride: 1
    weight_filler {
      type: "xavier"
    }
    bias_filler {
      type: "constant"
    }
    kernel_h: 8
    kernel_w: 3
  }
}
layer {
  name: "relu1"
  type: "ReLU"
  bottom: "conv1"
  top: "conv1"
}
layer {
  name: "pool1"
  type: "Pooling"
  bottom: "conv1"
  top: "pool1"
  pooling_param {
    pool: MAX
    kernel_h: 2
    kernel_w: 1
    stride_h: 2
    stride_w: 1
  }
}
layer {
  name: "conv2"
  type: "Convolution"
  bottom: "pool1"
  top: "conv2"
  convolution_param {
    num_output: 20
    pad: 0
    stride: 1
    weight_filler {
      type: "xavier"
    }
    bias_filler {
      type: "constant"
    }
    kernel_h: 7
    kernel_w: 3
  }
}
layer {
  name: "relu2"
  type: "ReLU"
  bottom: "conv2"
  top: "conv2"
}
layer {
  name: "pool2"
  type: "Pooling"
  bottom: "conv2"
  top: "pool2"
  pooling_param {
    pool: MAX
    kernel_h: 2
    kernel_w: 1
    stride_h: 2
    stride_w: 1
  }
}
layer {
  name: "conv3"
  type: "Convolution"
  bottom: "pool2"
  top: "conv3"
  convolution_param {
    num_output: 28
    pad: 0
    stride: 1
    weight_filler {
      type: "xavier"
    }
    bias_filler {
      type: "constant"
    }
    kernel_h: 6
    kernel_w: 3
  }
}
layer {
  name: "relu3"
  type: "ReLU"
  bottom: "conv3"
  top: "conv3"
}
layer {
  name: "pool3"
  type: "Pooling"
  bottom: "conv3"
  top: "pool3"
  pooling_param {
    pool: MAX
    kernel_h: 2
    kernel_w: 1
    stride_h: 2
    stride_w: 1
  }
}
layer {
  name: "conv4"
  type: "Convolution"
  bottom: "pool3"
  top: "conv4"
  convolution_param {
    num_output: 36
    pad: 0
    stride: 1
    weight_filler {
      type: "xavier"
    }
    bias_filler {
      type: "constant"
    }
    kernel_h: 6
    kernel_w: 3
  }
}
layer {
  name: "relu4"
  type: "ReLU"
  bottom: "conv4"
  top: "conv4"
}
layer {
  name: "pool4"
  type: "Pooling"
  bottom: "conv4"
  top: "pool4"
  pooling_param {
    pool: MAX
    kernel_h: 2
    kernel_w: 1
    stride_h: 2
    stride_w: 1
  }
}
layer {
  name: "ip1"
  type: "InnerProduct"
  bottom: "pool4"
  top: "ip1"
  inner_product_param {
    num_output: 196
    weight_filler {
      type: "xavier"
    }
    bias_filler {
      type: "constant"
    }
  }
}
layer {
  name: "relu5"
  type: "ReLU"
  bottom: "ip1"
  top: "ip1"
}
layer {
  name: "drop1"
  type: "Dropout"
  bottom: "ip1"
  top: "ip1"
  dropout_param {
    dropout_ratio: 0.5
  }
}
layer {
  name: "ip2"
  type: "InnerProduct"
  bottom: "ip1"
  top: "ip2"
  inner_product_param {
    num_output: 98
    weight_filler {
      type: "xavier"
    }
    bias_filler {
      type: "constant"
    }
  }
}
layer {
  name: "relu6"
  type: "ReLU"
  bottom: "ip2"
  top: "ip2"
}
layer {
  name: "drop2"
  type: "Dropout"
  bottom: "ip2"
  top: "ip2"
  dropout_param {
    dropout_ratio: 0.5
  }
}
layer {
  name: "ip3"
  type: "InnerProduct"
  bottom: "ip2"
  top: "ip3"
  inner_product_param {
    num_output: 11
    weight_filler {
      type: "xavier"
    }
    bias_filler {
      type: "constant"
    }
  }
}
layer {
  name: "drop3"
  type: "Dropout"
  bottom: "ip3"
  top: "ip3"
  dropout_param {
    dropout_ratio: 0.5
  }
}
layer {
  name: "loss"
  type: "SoftmaxWithLoss"
  bottom: "ip3"
  bottom: "label"
  top: "loss"
}
I0521 00:52:24.010640  6829 layer_factory.hpp:77] Creating layer data_hdf5
I0521 00:52:24.010664  6829 net.cpp:106] Creating Layer data_hdf5
I0521 00:52:24.010679  6829 net.cpp:411] data_hdf5 -> data
I0521 00:52:24.010713  6829 net.cpp:411] data_hdf5 -> label
I0521 00:52:24.010746  6829 hdf5_data_layer.cpp:79] Loading list of HDF5 filenames from: /lustre/atlas/proj-shared/hep105/caffe_titan/minosmatch_nukecczdefs_127x50_x_unshifted_me1Bmc.trainlist
I0521 00:52:24.012038  6829 hdf5_data_layer.cpp:93] Number of HDF5 files: 15
I0521 00:52:24.014262  6829 hdf5.cpp:32] Datatype class: H5T_FLOAT
I0521 00:52:45.491724  6829 hdf5.cpp:35] Datatype class: H5T_INTEGER
I0521 00:52:45.496933  6829 net.cpp:150] Setting up data_hdf5
I0521 00:52:45.496973  6829 net.cpp:157] Top shape: 490 1 127 50 (3111500)
I0521 00:52:45.496989  6829 net.cpp:157] Top shape: 490 (490)
I0521 00:52:45.496999  6829 net.cpp:165] Memory required for data: 12447960
I0521 00:52:45.497011  6829 layer_factory.hpp:77] Creating layer conv1
I0521 00:52:45.497046  6829 net.cpp:106] Creating Layer conv1
I0521 00:52:45.497058  6829 net.cpp:454] conv1 <- data
I0521 00:52:45.497081  6829 net.cpp:411] conv1 -> conv1
I0521 00:52:47.328523  6829 net.cpp:150] Setting up conv1
I0521 00:52:47.328570  6829 net.cpp:157] Top shape: 490 12 120 48 (33868800)
I0521 00:52:47.328582  6829 net.cpp:165] Memory required for data: 147923160
I0521 00:52:47.328611  6829 layer_factory.hpp:77] Creating layer relu1
I0521 00:52:47.328632  6829 net.cpp:106] Creating Layer relu1
I0521 00:52:47.328644  6829 net.cpp:454] relu1 <- conv1
I0521 00:52:47.328656  6829 net.cpp:397] relu1 -> conv1 (in-place)
I0521 00:52:47.329174  6829 net.cpp:150] Setting up relu1
I0521 00:52:47.329190  6829 net.cpp:157] Top shape: 490 12 120 48 (33868800)
I0521 00:52:47.329201  6829 net.cpp:165] Memory required for data: 283398360
I0521 00:52:47.329213  6829 layer_factory.hpp:77] Creating layer pool1
I0521 00:52:47.329229  6829 net.cpp:106] Creating Layer pool1
I0521 00:52:47.329239  6829 net.cpp:454] pool1 <- conv1
I0521 00:52:47.329253  6829 net.cpp:411] pool1 -> pool1
I0521 00:52:47.329334  6829 net.cpp:150] Setting up pool1
I0521 00:52:47.329347  6829 net.cpp:157] Top shape: 490 12 60 48 (16934400)
I0521 00:52:47.329357  6829 net.cpp:165] Memory required for data: 351135960
I0521 00:52:47.329368  6829 layer_factory.hpp:77] Creating layer conv2
I0521 00:52:47.329391  6829 net.cpp:106] Creating Layer conv2
I0521 00:52:47.329401  6829 net.cpp:454] conv2 <- pool1
I0521 00:52:47.329414  6829 net.cpp:411] conv2 -> conv2
I0521 00:52:47.332088  6829 net.cpp:150] Setting up conv2
I0521 00:52:47.332115  6829 net.cpp:157] Top shape: 490 20 54 46 (24343200)
I0521 00:52:47.332126  6829 net.cpp:165] Memory required for data: 448508760
I0521 00:52:47.332146  6829 layer_factory.hpp:77] Creating layer relu2
I0521 00:52:47.332160  6829 net.cpp:106] Creating Layer relu2
I0521 00:52:47.332170  6829 net.cpp:454] relu2 <- conv2
I0521 00:52:47.332182  6829 net.cpp:397] relu2 -> conv2 (in-place)
I0521 00:52:47.332514  6829 net.cpp:150] Setting up relu2
I0521 00:52:47.332528  6829 net.cpp:157] Top shape: 490 20 54 46 (24343200)
I0521 00:52:47.332538  6829 net.cpp:165] Memory required for data: 545881560
I0521 00:52:47.332548  6829 layer_factory.hpp:77] Creating layer pool2
I0521 00:52:47.332561  6829 net.cpp:106] Creating Layer pool2
I0521 00:52:47.332571  6829 net.cpp:454] pool2 <- conv2
I0521 00:52:47.332597  6829 net.cpp:411] pool2 -> pool2
I0521 00:52:47.332664  6829 net.cpp:150] Setting up pool2
I0521 00:52:47.332679  6829 net.cpp:157] Top shape: 490 20 27 46 (12171600)
I0521 00:52:47.332689  6829 net.cpp:165] Memory required for data: 594567960
I0521 00:52:47.332697  6829 layer_factory.hpp:77] Creating layer conv3
I0521 00:52:47.332716  6829 net.cpp:106] Creating Layer conv3
I0521 00:52:47.332726  6829 net.cpp:454] conv3 <- pool2
I0521 00:52:47.332741  6829 net.cpp:411] conv3 -> conv3
I0521 00:52:47.334655  6829 net.cpp:150] Setting up conv3
I0521 00:52:47.334678  6829 net.cpp:157] Top shape: 490 28 22 44 (13280960)
I0521 00:52:47.334691  6829 net.cpp:165] Memory required for data: 647691800
I0521 00:52:47.334708  6829 layer_factory.hpp:77] Creating layer relu3
I0521 00:52:47.334724  6829 net.cpp:106] Creating Layer relu3
I0521 00:52:47.334734  6829 net.cpp:454] relu3 <- conv3
I0521 00:52:47.334748  6829 net.cpp:397] relu3 -> conv3 (in-place)
I0521 00:52:47.335216  6829 net.cpp:150] Setting up relu3
I0521 00:52:47.335233  6829 net.cpp:157] Top shape: 490 28 22 44 (13280960)
I0521 00:52:47.335243  6829 net.cpp:165] Memory required for data: 700815640
I0521 00:52:47.335253  6829 layer_factory.hpp:77] Creating layer pool3
I0521 00:52:47.335266  6829 net.cpp:106] Creating Layer pool3
I0521 00:52:47.335276  6829 net.cpp:454] pool3 <- conv3
I0521 00:52:47.335289  6829 net.cpp:411] pool3 -> pool3
I0521 00:52:47.335366  6829 net.cpp:150] Setting up pool3
I0521 00:52:47.335378  6829 net.cpp:157] Top shape: 490 28 11 44 (6640480)
I0521 00:52:47.335388  6829 net.cpp:165] Memory required for data: 727377560
I0521 00:52:47.335397  6829 layer_factory.hpp:77] Creating layer conv4
I0521 00:52:47.335415  6829 net.cpp:106] Creating Layer conv4
I0521 00:52:47.335425  6829 net.cpp:454] conv4 <- pool3
I0521 00:52:47.335440  6829 net.cpp:411] conv4 -> conv4
I0521 00:52:47.338199  6829 net.cpp:150] Setting up conv4
I0521 00:52:47.338228  6829 net.cpp:157] Top shape: 490 36 6 42 (4445280)
I0521 00:52:47.338239  6829 net.cpp:165] Memory required for data: 745158680
I0521 00:52:47.338254  6829 layer_factory.hpp:77] Creating layer relu4
I0521 00:52:47.338269  6829 net.cpp:106] Creating Layer relu4
I0521 00:52:47.338279  6829 net.cpp:454] relu4 <- conv4
I0521 00:52:47.338292  6829 net.cpp:397] relu4 -> conv4 (in-place)
I0521 00:52:47.338763  6829 net.cpp:150] Setting up relu4
I0521 00:52:47.338779  6829 net.cpp:157] Top shape: 490 36 6 42 (4445280)
I0521 00:52:47.338790  6829 net.cpp:165] Memory required for data: 762939800
I0521 00:52:47.338800  6829 layer_factory.hpp:77] Creating layer pool4
I0521 00:52:47.338814  6829 net.cpp:106] Creating Layer pool4
I0521 00:52:47.338824  6829 net.cpp:454] pool4 <- conv4
I0521 00:52:47.338836  6829 net.cpp:411] pool4 -> pool4
I0521 00:52:47.338903  6829 net.cpp:150] Setting up pool4
I0521 00:52:47.338917  6829 net.cpp:157] Top shape: 490 36 3 42 (2222640)
I0521 00:52:47.338928  6829 net.cpp:165] Memory required for data: 771830360
I0521 00:52:47.338937  6829 layer_factory.hpp:77] Creating layer ip1
I0521 00:52:47.338955  6829 net.cpp:106] Creating Layer ip1
I0521 00:52:47.338966  6829 net.cpp:454] ip1 <- pool4
I0521 00:52:47.338979  6829 net.cpp:411] ip1 -> ip1
I0521 00:52:47.354405  6829 net.cpp:150] Setting up ip1
I0521 00:52:47.354434  6829 net.cpp:157] Top shape: 490 196 (96040)
I0521 00:52:47.354446  6829 net.cpp:165] Memory required for data: 772214520
I0521 00:52:47.354467  6829 layer_factory.hpp:77] Creating layer relu5
I0521 00:52:47.354482  6829 net.cpp:106] Creating Layer relu5
I0521 00:52:47.354492  6829 net.cpp:454] relu5 <- ip1
I0521 00:52:47.354506  6829 net.cpp:397] relu5 -> ip1 (in-place)
I0521 00:52:47.354851  6829 net.cpp:150] Setting up relu5
I0521 00:52:47.354866  6829 net.cpp:157] Top shape: 490 196 (96040)
I0521 00:52:47.354876  6829 net.cpp:165] Memory required for data: 772598680
I0521 00:52:47.354885  6829 layer_factory.hpp:77] Creating layer drop1
I0521 00:52:47.354907  6829 net.cpp:106] Creating Layer drop1
I0521 00:52:47.354918  6829 net.cpp:454] drop1 <- ip1
I0521 00:52:47.354943  6829 net.cpp:397] drop1 -> ip1 (in-place)
I0521 00:52:47.354989  6829 net.cpp:150] Setting up drop1
I0521 00:52:47.355002  6829 net.cpp:157] Top shape: 490 196 (96040)
I0521 00:52:47.355012  6829 net.cpp:165] Memory required for data: 772982840
I0521 00:52:47.355022  6829 layer_factory.hpp:77] Creating layer ip2
I0521 00:52:47.355041  6829 net.cpp:106] Creating Layer ip2
I0521 00:52:47.355051  6829 net.cpp:454] ip2 <- ip1
I0521 00:52:47.355064  6829 net.cpp:411] ip2 -> ip2
I0521 00:52:47.355537  6829 net.cpp:150] Setting up ip2
I0521 00:52:47.355551  6829 net.cpp:157] Top shape: 490 98 (48020)
I0521 00:52:47.355561  6829 net.cpp:165] Memory required for data: 773174920
I0521 00:52:47.355576  6829 layer_factory.hpp:77] Creating layer relu6
I0521 00:52:47.355588  6829 net.cpp:106] Creating Layer relu6
I0521 00:52:47.355598  6829 net.cpp:454] relu6 <- ip2
I0521 00:52:47.355610  6829 net.cpp:397] relu6 -> ip2 (in-place)
I0521 00:52:47.356130  6829 net.cpp:150] Setting up relu6
I0521 00:52:47.356147  6829 net.cpp:157] Top shape: 490 98 (48020)
I0521 00:52:47.356158  6829 net.cpp:165] Memory required for data: 773367000
I0521 00:52:47.356168  6829 layer_factory.hpp:77] Creating layer drop2
I0521 00:52:47.356180  6829 net.cpp:106] Creating Layer drop2
I0521 00:52:47.356190  6829 net.cpp:454] drop2 <- ip2
I0521 00:52:47.356204  6829 net.cpp:397] drop2 -> ip2 (in-place)
I0521 00:52:47.356245  6829 net.cpp:150] Setting up drop2
I0521 00:52:47.356258  6829 net.cpp:157] Top shape: 490 98 (48020)
I0521 00:52:47.356269  6829 net.cpp:165] Memory required for data: 773559080
I0521 00:52:47.356278  6829 layer_factory.hpp:77] Creating layer ip3
I0521 00:52:47.356292  6829 net.cpp:106] Creating Layer ip3
I0521 00:52:47.356302  6829 net.cpp:454] ip3 <- ip2
I0521 00:52:47.356315  6829 net.cpp:411] ip3 -> ip3
I0521 00:52:47.356528  6829 net.cpp:150] Setting up ip3
I0521 00:52:47.356540  6829 net.cpp:157] Top shape: 490 11 (5390)
I0521 00:52:47.356550  6829 net.cpp:165] Memory required for data: 773580640
I0521 00:52:47.356565  6829 layer_factory.hpp:77] Creating layer drop3
I0521 00:52:47.356578  6829 net.cpp:106] Creating Layer drop3
I0521 00:52:47.356588  6829 net.cpp:454] drop3 <- ip3
I0521 00:52:47.356600  6829 net.cpp:397] drop3 -> ip3 (in-place)
I0521 00:52:47.356639  6829 net.cpp:150] Setting up drop3
I0521 00:52:47.356652  6829 net.cpp:157] Top shape: 490 11 (5390)
I0521 00:52:47.356662  6829 net.cpp:165] Memory required for data: 773602200
I0521 00:52:47.356673  6829 layer_factory.hpp:77] Creating layer loss
I0521 00:52:47.356693  6829 net.cpp:106] Creating Layer loss
I0521 00:52:47.356703  6829 net.cpp:454] loss <- ip3
I0521 00:52:47.356714  6829 net.cpp:454] loss <- label
I0521 00:52:47.356726  6829 net.cpp:411] loss -> loss
I0521 00:52:47.356744  6829 layer_factory.hpp:77] Creating layer loss
…
I0521 00:52:47.359283  6829 solver.cpp:181] Creating test net (#0) specified by net file: /lustre/atlas/proj-shared/hep105/caffe_titan/caffe_workflow/logs_batch_size_test/batch_size_490_2016-05-20T11.20.50.381011.prototxt
I0521 00:52:47.359367  6829 net.cpp:322] The NetState phase (1) differed from the phase (0) specified by a rule in layer data_hdf5
I0521 00:52:47.359724  6829 net.cpp:49] Initializing net from parameters: 
name: "caffe_test_127x50_x_unshifted"
state {
  phase: TEST
}
layer {
  name: "data_hdf5"
  type: "HDF5Data"
  top: "data"
  top: "label"
  include {
    phase: TEST
  }
  hdf5_data_param {
    source: "/lustre/atlas/proj-shared/hep105/caffe_titan/minosmatch_nukecczdefs_127x50_x_unshifted_me1Bmc.testlist"
    batch_size: 490
  }
}
layer {
  name: "conv1"
  type: "Convolution"
  bottom: "data"
  top: "conv1"
  convolution_param {
    num_output: 12
    pad: 0
    stride: 1
    weight_filler {
      type: "xavier"
    }
    bias_filler {
      type: "constant"
    }
    kernel_h: 8
    kernel_w: 3
  }
}
layer {
  name: "relu1"
  type: "ReLU"
  bottom: "conv1"
  top: "conv1"
}
layer {
  name: "pool1"
  type: "Pooling"
  bottom: "conv1"
  top: "pool1"
  pooling_param {
    pool: MAX
    kernel_h: 2
    kernel_w: 1
    stride_h: 2
    stride_w: 1
  }
}
layer {
  name: "conv2"
  type: "Convolution"
  bottom: "pool1"
  top: "conv2"
  convolution_param {
    num_output: 20
    pad: 0
    stride: 1
    weight_filler {
      type: "xavier"
    }
    bias_filler {
      type: "constant"
    }
    kernel_h: 7
    kernel_w: 3
  }
}
layer {
  name: "relu2"
  type: "ReLU"
  bottom: "conv2"
  top: "conv2"
}
layer {
  name: "pool2"
  type: "Pooling"
  bottom: "conv2"
  top: "pool2"
  pooling_param {
    pool: MAX
    kernel_h: 2
    kernel_w: 1
    stride_h: 2
    stride_w: 1
  }
}
layer {
  name: "conv3"
  type: "Convolution"
  bottom: "pool2"
  top: "conv3"
  convolution_param {
    num_output: 28
    pad: 0
    stride: 1
    weight_filler {
      type: "xavier"
    }
    bias_filler {
      type: "constant"
    }
    kernel_h: 6
    kernel_w: 3
  }
}
layer {
  name: "relu3"
  type: "ReLU"
  bottom: "conv3"
  top: "conv3"
}
layer {
  name: "pool3"
  type: "Pooling"
  bottom: "conv3"
  top: "pool3"
  pooling_param {
    pool: MAX
    kernel_h: 2
    kernel_w: 1
    stride_h: 2
    stride_w: 1
  }
}
layer {
  name: "conv4"
  type: "Convolution"
  bottom: "pool3"
  top: "conv4"
  convolution_param {
    num_output: 36
    pad: 0
    stride: 1
    weight_filler {
      type: "xavier"
    }
    bias_filler {
      type: "constant"
    }
    kernel_h: 6
    kernel_w: 3
  }
}
layer {
  name: "relu4"
  type: "ReLU"
  bottom: "conv4"
  top: "conv4"
}
layer {
  name: "pool4"
  type: "Pooling"
  bottom: "conv4"
  top: "pool4"
  pooling_param {
    pool: MAX
    kernel_h: 2
    kernel_w: 1
    stride_h: 2
    stride_w: 1
  }
}
layer {
  name: "ip1"
  type: "InnerProduct"
  bottom: "pool4"
  top: "ip1"
  inner_product_param {
    num_output: 196
    weight_filler {
      type: "xavier"
    }
    bias_filler {
      type: "constant"
    }
  }
}
layer {
  name: "relu5"
  type: "ReLU"
  bottom: "ip1"
  top: "ip1"
}
layer {
  name: "drop1"
  type: "Dropout"
  bottom: "ip1"
  top: "ip1"
  dropout_param {
    dropout_ratio: 0.5
  }
}
layer {
  name: "ip2"
  type: "InnerProduct"
  bottom: "ip1"
  top: "ip2"
  inner_product_param {
    num_output: 98
    weight_filler {
      type: "xavier"
    }
    bias_filler {
      type: "constant"
    }
  }
}
layer {
  name: "relu6"
  type: "ReLU"
  bottom: "ip2"
  top: "ip2"
}
layer {
  name: "drop2"
  type: "Dropout"
  bottom: "ip2"
  top: "ip2"
  dropout_param {
    dropout_ratio: 0.5
  }
}
layer {
  name: "ip3"
  type: "InnerProduct"
  bottom: "ip2"
  top: "ip3"
  inner_product_param {
    num_output: 11
    weight_filler {
      type: "xavier"
    }
    bias_filler {
      type: "constant"
    }
  }
}
layer {
  name: "drop3"
  type: "Dropout"
  bottom: "ip3"
  top: "ip3"
  dropout_param {
    dropout_ratio: 0.5
  }
}
layer {
  name: "accuracy"
  type: "Accuracy"
  bottom: "ip3"
  bottom: "label"
  top: "accuracy"
  include {
    phase: TEST
  }
}
layer {
  name: "loss"
  type: "SoftmaxWithLoss"
  bottom: "ip3"
  bottom: "label"
  top: "loss"
}
I0521 00:52:47.359913  6829 layer_factory.hpp:77] Creating layer data_hdf5
I0521 00:52:47.359930  6829 net.cpp:106] Creating Layer data_hdf5
I0521 00:52:47.359941  6829 net.cpp:411] data_hdf5 -> data
I0521 00:52:47.359958  6829 net.cpp:411] data_hdf5 -> label
I0521 00:52:47.359974  6829 hdf5_data_layer.cpp:79] Loading list of HDF5 filenames from: /lustre/atlas/proj-shared/hep105/caffe_titan/minosmatch_nukecczdefs_127x50_x_unshifted_me1Bmc.testlist
I0521 00:52:47.361413  6829 hdf5_data_layer.cpp:93] Number of HDF5 files: 3
I0521 00:53:08.638330  6829 net.cpp:150] Setting up data_hdf5
I0521 00:53:08.638494  6829 net.cpp:157] Top shape: 490 1 127 50 (3111500)
I0521 00:53:08.638509  6829 net.cpp:157] Top shape: 490 (490)
I0521 00:53:08.638520  6829 net.cpp:165] Memory required for data: 12447960
I0521 00:53:08.638533  6829 layer_factory.hpp:77] Creating layer label_data_hdf5_1_split
I0521 00:53:08.638562  6829 net.cpp:106] Creating Layer label_data_hdf5_1_split
I0521 00:53:08.638573  6829 net.cpp:454] label_data_hdf5_1_split <- label
I0521 00:53:08.638588  6829 net.cpp:411] label_data_hdf5_1_split -> label_data_hdf5_1_split_0
I0521 00:53:08.638610  6829 net.cpp:411] label_data_hdf5_1_split -> label_data_hdf5_1_split_1
I0521 00:53:08.638684  6829 net.cpp:150] Setting up label_data_hdf5_1_split
I0521 00:53:08.638697  6829 net.cpp:157] Top shape: 490 (490)
I0521 00:53:08.638710  6829 net.cpp:157] Top shape: 490 (490)
I0521 00:53:08.638720  6829 net.cpp:165] Memory required for data: 12451880
I0521 00:53:08.638730  6829 layer_factory.hpp:77] Creating layer conv1
I0521 00:53:08.638749  6829 net.cpp:106] Creating Layer conv1
I0521 00:53:08.638761  6829 net.cpp:454] conv1 <- data
I0521 00:53:08.638774  6829 net.cpp:411] conv1 -> conv1
I0521 00:53:08.640728  6829 net.cpp:150] Setting up conv1
I0521 00:53:08.640753  6829 net.cpp:157] Top shape: 490 12 120 48 (33868800)
I0521 00:53:08.640764  6829 net.cpp:165] Memory required for data: 147927080
I0521 00:53:08.640784  6829 layer_factory.hpp:77] Creating layer relu1
I0521 00:53:08.640799  6829 net.cpp:106] Creating Layer relu1
I0521 00:53:08.640810  6829 net.cpp:454] relu1 <- conv1
I0521 00:53:08.640823  6829 net.cpp:397] relu1 -> conv1 (in-place)
I0521 00:53:08.641320  6829 net.cpp:150] Setting up relu1
I0521 00:53:08.641336  6829 net.cpp:157] Top shape: 490 12 120 48 (33868800)
I0521 00:53:08.641346  6829 net.cpp:165] Memory required for data: 283402280
I0521 00:53:08.641357  6829 layer_factory.hpp:77] Creating layer pool1
I0521 00:53:08.641373  6829 net.cpp:106] Creating Layer pool1
I0521 00:53:08.641383  6829 net.cpp:454] pool1 <- conv1
I0521 00:53:08.641396  6829 net.cpp:411] pool1 -> pool1
I0521 00:53:08.641471  6829 net.cpp:150] Setting up pool1
I0521 00:53:08.641485  6829 net.cpp:157] Top shape: 490 12 60 48 (16934400)
I0521 00:53:08.641494  6829 net.cpp:165] Memory required for data: 351139880
I0521 00:53:08.641505  6829 layer_factory.hpp:77] Creating layer conv2
I0521 00:53:08.641522  6829 net.cpp:106] Creating Layer conv2
I0521 00:53:08.641533  6829 net.cpp:454] conv2 <- pool1
I0521 00:53:08.641547  6829 net.cpp:411] conv2 -> conv2
I0521 00:53:08.643472  6829 net.cpp:150] Setting up conv2
I0521 00:53:08.643496  6829 net.cpp:157] Top shape: 490 20 54 46 (24343200)
I0521 00:53:08.643508  6829 net.cpp:165] Memory required for data: 448512680
I0521 00:53:08.643527  6829 layer_factory.hpp:77] Creating layer relu2
I0521 00:53:08.643540  6829 net.cpp:106] Creating Layer relu2
I0521 00:53:08.643550  6829 net.cpp:454] relu2 <- conv2
I0521 00:53:08.643563  6829 net.cpp:397] relu2 -> conv2 (in-place)
I0521 00:53:08.643895  6829 net.cpp:150] Setting up relu2
I0521 00:53:08.643909  6829 net.cpp:157] Top shape: 490 20 54 46 (24343200)
I0521 00:53:08.643920  6829 net.cpp:165] Memory required for data: 545885480
I0521 00:53:08.643930  6829 layer_factory.hpp:77] Creating layer pool2
I0521 00:53:08.643944  6829 net.cpp:106] Creating Layer pool2
I0521 00:53:08.643954  6829 net.cpp:454] pool2 <- conv2
I0521 00:53:08.643966  6829 net.cpp:411] pool2 -> pool2
I0521 00:53:08.644038  6829 net.cpp:150] Setting up pool2
I0521 00:53:08.644052  6829 net.cpp:157] Top shape: 490 20 27 46 (12171600)
I0521 00:53:08.644062  6829 net.cpp:165] Memory required for data: 594571880
I0521 00:53:08.644069  6829 layer_factory.hpp:77] Creating layer conv3
I0521 00:53:08.644089  6829 net.cpp:106] Creating Layer conv3
I0521 00:53:08.644099  6829 net.cpp:454] conv3 <- pool2
I0521 00:53:08.644114  6829 net.cpp:411] conv3 -> conv3
I0521 00:53:08.646083  6829 net.cpp:150] Setting up conv3
I0521 00:53:08.646106  6829 net.cpp:157] Top shape: 490 28 22 44 (13280960)
I0521 00:53:08.646118  6829 net.cpp:165] Memory required for data: 647695720
I0521 00:53:08.646150  6829 layer_factory.hpp:77] Creating layer relu3
I0521 00:53:08.646164  6829 net.cpp:106] Creating Layer relu3
I0521 00:53:08.646174  6829 net.cpp:454] relu3 <- conv3
I0521 00:53:08.646188  6829 net.cpp:397] relu3 -> conv3 (in-place)
I0521 00:53:08.646659  6829 net.cpp:150] Setting up relu3
I0521 00:53:08.646677  6829 net.cpp:157] Top shape: 490 28 22 44 (13280960)
I0521 00:53:08.646687  6829 net.cpp:165] Memory required for data: 700819560
I0521 00:53:08.646697  6829 layer_factory.hpp:77] Creating layer pool3
I0521 00:53:08.646709  6829 net.cpp:106] Creating Layer pool3
I0521 00:53:08.646719  6829 net.cpp:454] pool3 <- conv3
I0521 00:53:08.646733  6829 net.cpp:411] pool3 -> pool3
I0521 00:53:08.646805  6829 net.cpp:150] Setting up pool3
I0521 00:53:08.646817  6829 net.cpp:157] Top shape: 490 28 11 44 (6640480)
I0521 00:53:08.646827  6829 net.cpp:165] Memory required for data: 727381480
I0521 00:53:08.646834  6829 layer_factory.hpp:77] Creating layer conv4
I0521 00:53:08.646853  6829 net.cpp:106] Creating Layer conv4
I0521 00:53:08.646863  6829 net.cpp:454] conv4 <- pool3
I0521 00:53:08.646878  6829 net.cpp:411] conv4 -> conv4
I0521 00:53:08.648941  6829 net.cpp:150] Setting up conv4
I0521 00:53:08.648963  6829 net.cpp:157] Top shape: 490 36 6 42 (4445280)
I0521 00:53:08.648973  6829 net.cpp:165] Memory required for data: 745162600
I0521 00:53:08.648990  6829 layer_factory.hpp:77] Creating layer relu4
I0521 00:53:08.649005  6829 net.cpp:106] Creating Layer relu4
I0521 00:53:08.649015  6829 net.cpp:454] relu4 <- conv4
I0521 00:53:08.649029  6829 net.cpp:397] relu4 -> conv4 (in-place)
I0521 00:53:08.649499  6829 net.cpp:150] Setting up relu4
I0521 00:53:08.649515  6829 net.cpp:157] Top shape: 490 36 6 42 (4445280)
I0521 00:53:08.649525  6829 net.cpp:165] Memory required for data: 762943720
I0521 00:53:08.649535  6829 layer_factory.hpp:77] Creating layer pool4
I0521 00:53:08.649549  6829 net.cpp:106] Creating Layer pool4
I0521 00:53:08.649559  6829 net.cpp:454] pool4 <- conv4
I0521 00:53:08.649572  6829 net.cpp:411] pool4 -> pool4
I0521 00:53:08.649643  6829 net.cpp:150] Setting up pool4
I0521 00:53:08.649657  6829 net.cpp:157] Top shape: 490 36 3 42 (2222640)
I0521 00:53:08.649667  6829 net.cpp:165] Memory required for data: 771834280
I0521 00:53:08.649674  6829 layer_factory.hpp:77] Creating layer ip1
I0521 00:53:08.649690  6829 net.cpp:106] Creating Layer ip1
I0521 00:53:08.649701  6829 net.cpp:454] ip1 <- pool4
I0521 00:53:08.649716  6829 net.cpp:411] ip1 -> ip1
I0521 00:53:08.665197  6829 net.cpp:150] Setting up ip1
I0521 00:53:08.665220  6829 net.cpp:157] Top shape: 490 196 (96040)
I0521 00:53:08.665231  6829 net.cpp:165] Memory required for data: 772218440
I0521 00:53:08.665253  6829 layer_factory.hpp:77] Creating layer relu5
I0521 00:53:08.665269  6829 net.cpp:106] Creating Layer relu5
I0521 00:53:08.665279  6829 net.cpp:454] relu5 <- ip1
I0521 00:53:08.665297  6829 net.cpp:397] relu5 -> ip1 (in-place)
I0521 00:53:08.665642  6829 net.cpp:150] Setting up relu5
I0521 00:53:08.665657  6829 net.cpp:157] Top shape: 490 196 (96040)
I0521 00:53:08.665665  6829 net.cpp:165] Memory required for data: 772602600
I0521 00:53:08.665676  6829 layer_factory.hpp:77] Creating layer drop1
I0521 00:53:08.665694  6829 net.cpp:106] Creating Layer drop1
I0521 00:53:08.665705  6829 net.cpp:454] drop1 <- ip1
I0521 00:53:08.665719  6829 net.cpp:397] drop1 -> ip1 (in-place)
I0521 00:53:08.665762  6829 net.cpp:150] Setting up drop1
I0521 00:53:08.665776  6829 net.cpp:157] Top shape: 490 196 (96040)
I0521 00:53:08.665786  6829 net.cpp:165] Memory required for data: 772986760
I0521 00:53:08.665796  6829 layer_factory.hpp:77] Creating layer ip2
I0521 00:53:08.665810  6829 net.cpp:106] Creating Layer ip2
I0521 00:53:08.665820  6829 net.cpp:454] ip2 <- ip1
I0521 00:53:08.665834  6829 net.cpp:411] ip2 -> ip2
I0521 00:53:08.666314  6829 net.cpp:150] Setting up ip2
I0521 00:53:08.666327  6829 net.cpp:157] Top shape: 490 98 (48020)
I0521 00:53:08.666338  6829 net.cpp:165] Memory required for data: 773178840
I0521 00:53:08.666366  6829 layer_factory.hpp:77] Creating layer relu6
I0521 00:53:08.666379  6829 net.cpp:106] Creating Layer relu6
I0521 00:53:08.666389  6829 net.cpp:454] relu6 <- ip2
I0521 00:53:08.666402  6829 net.cpp:397] relu6 -> ip2 (in-place)
I0521 00:53:08.666937  6829 net.cpp:150] Setting up relu6
I0521 00:53:08.666960  6829 net.cpp:157] Top shape: 490 98 (48020)
I0521 00:53:08.666968  6829 net.cpp:165] Memory required for data: 773370920
I0521 00:53:08.666978  6829 layer_factory.hpp:77] Creating layer drop2
I0521 00:53:08.666992  6829 net.cpp:106] Creating Layer drop2
I0521 00:53:08.667002  6829 net.cpp:454] drop2 <- ip2
I0521 00:53:08.667016  6829 net.cpp:397] drop2 -> ip2 (in-place)
I0521 00:53:08.667060  6829 net.cpp:150] Setting up drop2
I0521 00:53:08.667073  6829 net.cpp:157] Top shape: 490 98 (48020)
I0521 00:53:08.667083  6829 net.cpp:165] Memory required for data: 773563000
I0521 00:53:08.667093  6829 layer_factory.hpp:77] Creating layer ip3
I0521 00:53:08.667107  6829 net.cpp:106] Creating Layer ip3
I0521 00:53:08.667117  6829 net.cpp:454] ip3 <- ip2
I0521 00:53:08.667131  6829 net.cpp:411] ip3 -> ip3
I0521 00:53:08.667361  6829 net.cpp:150] Setting up ip3
I0521 00:53:08.667374  6829 net.cpp:157] Top shape: 490 11 (5390)
I0521 00:53:08.667384  6829 net.cpp:165] Memory required for data: 773584560
I0521 00:53:08.667400  6829 layer_factory.hpp:77] Creating layer drop3
I0521 00:53:08.667414  6829 net.cpp:106] Creating Layer drop3
I0521 00:53:08.667424  6829 net.cpp:454] drop3 <- ip3
I0521 00:53:08.667438  6829 net.cpp:397] drop3 -> ip3 (in-place)
I0521 00:53:08.667479  6829 net.cpp:150] Setting up drop3
I0521 00:53:08.667492  6829 net.cpp:157] Top shape: 490 11 (5390)
I0521 00:53:08.667502  6829 net.cpp:165] Memory required for data: 773606120
I0521 00:53:08.667511  6829 layer_factory.hpp:77] Creating layer ip3_drop3_0_split
I0521 00:53:08.667524  6829 net.cpp:106] Creating Layer ip3_drop3_0_split
I0521 00:53:08.667534  6829 net.cpp:454] ip3_drop3_0_split <- ip3
I0521 00:53:08.667547  6829 net.cpp:411] ip3_drop3_0_split -> ip3_drop3_0_split_0
I0521 00:53:08.667562  6829 net.cpp:411] ip3_drop3_0_split -> ip3_drop3_0_split_1
I0521 00:53:08.667635  6829 net.cpp:150] Setting up ip3_drop3_0_split
I0521 00:53:08.667649  6829 net.cpp:157] Top shape: 490 11 (5390)
I0521 00:53:08.667661  6829 net.cpp:157] Top shape: 490 11 (5390)
I0521 00:53:08.667671  6829 net.cpp:165] Memory required for data: 773649240
I0521 00:53:08.667680  6829 layer_factory.hpp:77] Creating layer accuracy
I0521 00:53:08.667702  6829 net.cpp:106] Creating Layer accuracy
I0521 00:53:08.667712  6829 net.cpp:454] accuracy <- ip3_drop3_0_split_0
I0521 00:53:08.667724  6829 net.cpp:454] accuracy <- label_data_hdf5_1_split_0
I0521 00:53:08.667738  6829 net.cpp:411] accuracy -> accuracy
…
