…
I0520 14:43:17.820040 23372 net.cpp:322] The NetState phase (0) differed from the phase (1) specified by a rule in layer data_hdf5
I0520 14:43:17.820106 23372 net.cpp:322] The NetState phase (0) differed from the phase (1) specified by a rule in layer accuracy
I0520 14:43:17.820487 23372 net.cpp:49] Initializing net from parameters: 
name: "caffe_test_127x50_x_unshifted"
state {
  phase: TRAIN
}
layer {
  name: "data_hdf5"
  type: "HDF5Data"
  top: "data"
  top: "label"
  include {
    phase: TRAIN
  }
  hdf5_data_param {
    source: "/lustre/atlas/proj-shared/hep105/caffe_titan/minosmatch_nukecczdefs_127x50_x_unshifted_me1Bmc.trainlist"
    batch_size: 140
  }
}
layer {
  name: "conv1"
  type: "Convolution"
  bottom: "data"
  top: "conv1"
  convolution_param {
    num_output: 12
    pad: 0
    stride: 1
    weight_filler {
      type: "xavier"
    }
    bias_filler {
      type: "constant"
    }
    kernel_h: 8
    kernel_w: 3
  }
}
layer {
  name: "relu1"
  type: "ReLU"
  bottom: "conv1"
  top: "conv1"
}
layer {
  name: "pool1"
  type: "Pooling"
  bottom: "conv1"
  top: "pool1"
  pooling_param {
    pool: MAX
    kernel_h: 2
    kernel_w: 1
    stride_h: 2
    stride_w: 1
  }
}
layer {
  name: "conv2"
  type: "Convolution"
  bottom: "pool1"
  top: "conv2"
  convolution_param {
    num_output: 20
    pad: 0
    stride: 1
    weight_filler {
      type: "xavier"
    }
    bias_filler {
      type: "constant"
    }
    kernel_h: 7
    kernel_w: 3
  }
}
layer {
  name: "relu2"
  type: "ReLU"
  bottom: "conv2"
  top: "conv2"
}
layer {
  name: "pool2"
  type: "Pooling"
  bottom: "conv2"
  top: "pool2"
  pooling_param {
    pool: MAX
    kernel_h: 2
    kernel_w: 1
    stride_h: 2
    stride_w: 1
  }
}
layer {
  name: "conv3"
  type: "Convolution"
  bottom: "pool2"
  top: "conv3"
  convolution_param {
    num_output: 28
    pad: 0
    stride: 1
    weight_filler {
      type: "xavier"
    }
    bias_filler {
      type: "constant"
    }
    kernel_h: 6
    kernel_w: 3
  }
}
layer {
  name: "relu3"
  type: "ReLU"
  bottom: "conv3"
  top: "conv3"
}
layer {
  name: "pool3"
  type: "Pooling"
  bottom: "conv3"
  top: "pool3"
  pooling_param {
    pool: MAX
    kernel_h: 2
    kernel_w: 1
    stride_h: 2
    stride_w: 1
  }
}
layer {
  name: "conv4"
  type: "Convolution"
  bottom: "pool3"
  top: "conv4"
  convolution_param {
    num_output: 36
    pad: 0
    stride: 1
    weight_filler {
      type: "xavier"
    }
    bias_filler {
      type: "constant"
    }
    kernel_h: 6
    kernel_w: 3
  }
}
layer {
  name: "relu4"
  type: "ReLU"
  bottom: "conv4"
  top: "conv4"
}
layer {
  name: "pool4"
  type: "Pooling"
  bottom: "conv4"
  top: "pool4"
  pooling_param {
    pool: MAX
    kernel_h: 2
    kernel_w: 1
    stride_h: 2
    stride_w: 1
  }
}
layer {
  name: "ip1"
  type: "InnerProduct"
  bottom: "pool4"
  top: "ip1"
  inner_product_param {
    num_output: 196
    weight_filler {
      type: "xavier"
    }
    bias_filler {
      type: "constant"
    }
  }
}
layer {
  name: "relu5"
  type: "ReLU"
  bottom: "ip1"
  top: "ip1"
}
layer {
  name: "drop1"
  type: "Dropout"
  bottom: "ip1"
  top: "ip1"
  dropout_param {
    dropout_ratio: 0.5
  }
}
layer {
  name: "ip2"
  type: "InnerProduct"
  bottom: "ip1"
  top: "ip2"
  inner_product_param {
    num_output: 98
    weight_filler {
      type: "xavier"
    }
    bias_filler {
      type: "constant"
    }
  }
}
layer {
  name: "relu6"
  type: "ReLU"
  bottom: "ip2"
  top: "ip2"
}
layer {
  name: "drop2"
  type: "Dropout"
  bottom: "ip2"
  top: "ip2"
  dropout_param {
    dropout_ratio: 0.5
  }
}
layer {
  name: "ip3"
  type: "InnerProduct"
  bottom: "ip2"
  top: "ip3"
  inner_product_param {
    num_output: 11
    weight_filler {
      type: "xavier"
    }
    bias_filler {
      type: "constant"
    }
  }
}
layer {
  name: "drop3"
  type: "Dropout"
  bottom: "ip3"
  top: "ip3"
  dropout_param {
    dropout_ratio: 0.5
  }
}
layer {
  name: "loss"
  type: "SoftmaxWithLoss"
  bottom: "ip3"
  bottom: "label"
  top: "loss"
}
I0520 14:43:17.820693 23372 layer_factory.hpp:77] Creating layer data_hdf5
I0520 14:43:17.820729 23372 net.cpp:106] Creating Layer data_hdf5
I0520 14:43:17.820747 23372 net.cpp:411] data_hdf5 -> data
I0520 14:43:17.820780 23372 net.cpp:411] data_hdf5 -> label
I0520 14:43:17.820823 23372 hdf5_data_layer.cpp:79] Loading list of HDF5 filenames from: /lustre/atlas/proj-shared/hep105/caffe_titan/minosmatch_nukecczdefs_127x50_x_unshifted_me1Bmc.trainlist
I0520 14:43:17.822055 23372 hdf5_data_layer.cpp:93] Number of HDF5 files: 15
I0520 14:43:17.846181 23372 hdf5.cpp:32] Datatype class: H5T_FLOAT
I0520 14:43:39.370579 23372 hdf5.cpp:35] Datatype class: H5T_INTEGER
I0520 14:43:39.375792 23372 net.cpp:150] Setting up data_hdf5
I0520 14:43:39.375831 23372 net.cpp:157] Top shape: 140 1 127 50 (889000)
I0520 14:43:39.375849 23372 net.cpp:157] Top shape: 140 (140)
I0520 14:43:39.375862 23372 net.cpp:165] Memory required for data: 3556560
I0520 14:43:39.375881 23372 layer_factory.hpp:77] Creating layer conv1
I0520 14:43:39.375927 23372 net.cpp:106] Creating Layer conv1
I0520 14:43:39.375941 23372 net.cpp:454] conv1 <- data
I0520 14:43:39.375977 23372 net.cpp:411] conv1 -> conv1
I0520 14:43:40.556411 23372 net.cpp:150] Setting up conv1
I0520 14:43:40.556460 23372 net.cpp:157] Top shape: 140 12 120 48 (9676800)
I0520 14:43:40.556475 23372 net.cpp:165] Memory required for data: 42263760
I0520 14:43:40.556504 23372 layer_factory.hpp:77] Creating layer relu1
I0520 14:43:40.556526 23372 net.cpp:106] Creating Layer relu1
I0520 14:43:40.556547 23372 net.cpp:454] relu1 <- conv1
I0520 14:43:40.556583 23372 net.cpp:397] relu1 -> conv1 (in-place)
I0520 14:43:40.557117 23372 net.cpp:150] Setting up relu1
I0520 14:43:40.557142 23372 net.cpp:157] Top shape: 140 12 120 48 (9676800)
I0520 14:43:40.557154 23372 net.cpp:165] Memory required for data: 80970960
I0520 14:43:40.557170 23372 layer_factory.hpp:77] Creating layer pool1
I0520 14:43:40.557199 23372 net.cpp:106] Creating Layer pool1
I0520 14:43:40.557211 23372 net.cpp:454] pool1 <- conv1
I0520 14:43:40.557227 23372 net.cpp:411] pool1 -> pool1
I0520 14:43:40.557322 23372 net.cpp:150] Setting up pool1
I0520 14:43:40.557340 23372 net.cpp:157] Top shape: 140 12 60 48 (4838400)
I0520 14:43:40.557355 23372 net.cpp:165] Memory required for data: 100324560
I0520 14:43:40.557376 23372 layer_factory.hpp:77] Creating layer conv2
I0520 14:43:40.557400 23372 net.cpp:106] Creating Layer conv2
I0520 14:43:40.557413 23372 net.cpp:454] conv2 <- pool1
I0520 14:43:40.557430 23372 net.cpp:411] conv2 -> conv2
I0520 14:43:40.560134 23372 net.cpp:150] Setting up conv2
I0520 14:43:40.560165 23372 net.cpp:157] Top shape: 140 20 54 46 (6955200)
I0520 14:43:40.560180 23372 net.cpp:165] Memory required for data: 128145360
I0520 14:43:40.560209 23372 layer_factory.hpp:77] Creating layer relu2
I0520 14:43:40.560236 23372 net.cpp:106] Creating Layer relu2
I0520 14:43:40.560258 23372 net.cpp:454] relu2 <- conv2
I0520 14:43:40.560287 23372 net.cpp:397] relu2 -> conv2 (in-place)
I0520 14:43:40.560643 23372 net.cpp:150] Setting up relu2
I0520 14:43:40.560664 23372 net.cpp:157] Top shape: 140 20 54 46 (6955200)
I0520 14:43:40.560678 23372 net.cpp:165] Memory required for data: 155966160
I0520 14:43:40.560693 23372 layer_factory.hpp:77] Creating layer pool2
I0520 14:43:40.560716 23372 net.cpp:106] Creating Layer pool2
I0520 14:43:40.560729 23372 net.cpp:454] pool2 <- conv2
I0520 14:43:40.560762 23372 net.cpp:411] pool2 -> pool2
I0520 14:43:40.560847 23372 net.cpp:150] Setting up pool2
I0520 14:43:40.560868 23372 net.cpp:157] Top shape: 140 20 27 46 (3477600)
I0520 14:43:40.560880 23372 net.cpp:165] Memory required for data: 169876560
I0520 14:43:40.560896 23372 layer_factory.hpp:77] Creating layer conv3
I0520 14:43:40.560922 23372 net.cpp:106] Creating Layer conv3
I0520 14:43:40.560937 23372 net.cpp:454] conv3 <- pool2
I0520 14:43:40.560953 23372 net.cpp:411] conv3 -> conv3
I0520 14:43:40.562942 23372 net.cpp:150] Setting up conv3
I0520 14:43:40.562968 23372 net.cpp:157] Top shape: 140 28 22 44 (3794560)
I0520 14:43:40.562988 23372 net.cpp:165] Memory required for data: 185054800
I0520 14:43:40.563009 23372 layer_factory.hpp:77] Creating layer relu3
I0520 14:43:40.563031 23372 net.cpp:106] Creating Layer relu3
I0520 14:43:40.563053 23372 net.cpp:454] relu3 <- conv3
I0520 14:43:40.563069 23372 net.cpp:397] relu3 -> conv3 (in-place)
I0520 14:43:40.563560 23372 net.cpp:150] Setting up relu3
I0520 14:43:40.563583 23372 net.cpp:157] Top shape: 140 28 22 44 (3794560)
I0520 14:43:40.563596 23372 net.cpp:165] Memory required for data: 200233040
I0520 14:43:40.563612 23372 layer_factory.hpp:77] Creating layer pool3
I0520 14:43:40.563637 23372 net.cpp:106] Creating Layer pool3
I0520 14:43:40.563649 23372 net.cpp:454] pool3 <- conv3
I0520 14:43:40.563665 23372 net.cpp:411] pool3 -> pool3
I0520 14:43:40.563747 23372 net.cpp:150] Setting up pool3
I0520 14:43:40.563771 23372 net.cpp:157] Top shape: 140 28 11 44 (1897280)
I0520 14:43:40.563782 23372 net.cpp:165] Memory required for data: 207822160
I0520 14:43:40.563797 23372 layer_factory.hpp:77] Creating layer conv4
I0520 14:43:40.563823 23372 net.cpp:106] Creating Layer conv4
I0520 14:43:40.563837 23372 net.cpp:454] conv4 <- pool3
I0520 14:43:40.563853 23372 net.cpp:411] conv4 -> conv4
I0520 14:43:40.566845 23372 net.cpp:150] Setting up conv4
I0520 14:43:40.566881 23372 net.cpp:157] Top shape: 140 36 6 42 (1270080)
I0520 14:43:40.566895 23372 net.cpp:165] Memory required for data: 212902480
I0520 14:43:40.566920 23372 layer_factory.hpp:77] Creating layer relu4
I0520 14:43:40.566946 23372 net.cpp:106] Creating Layer relu4
I0520 14:43:40.566961 23372 net.cpp:454] relu4 <- conv4
I0520 14:43:40.566977 23372 net.cpp:397] relu4 -> conv4 (in-place)
I0520 14:43:40.567471 23372 net.cpp:150] Setting up relu4
I0520 14:43:40.567494 23372 net.cpp:157] Top shape: 140 36 6 42 (1270080)
I0520 14:43:40.567507 23372 net.cpp:165] Memory required for data: 217982800
I0520 14:43:40.567523 23372 layer_factory.hpp:77] Creating layer pool4
I0520 14:43:40.567546 23372 net.cpp:106] Creating Layer pool4
I0520 14:43:40.567559 23372 net.cpp:454] pool4 <- conv4
I0520 14:43:40.567575 23372 net.cpp:411] pool4 -> pool4
I0520 14:43:40.567657 23372 net.cpp:150] Setting up pool4
I0520 14:43:40.567680 23372 net.cpp:157] Top shape: 140 36 3 42 (635040)
I0520 14:43:40.567693 23372 net.cpp:165] Memory required for data: 220522960
I0520 14:43:40.567708 23372 layer_factory.hpp:77] Creating layer ip1
I0520 14:43:40.567735 23372 net.cpp:106] Creating Layer ip1
I0520 14:43:40.567749 23372 net.cpp:454] ip1 <- pool4
I0520 14:43:40.567764 23372 net.cpp:411] ip1 -> ip1
I0520 14:43:40.583245 23372 net.cpp:150] Setting up ip1
I0520 14:43:40.583276 23372 net.cpp:157] Top shape: 140 196 (27440)
I0520 14:43:40.583297 23372 net.cpp:165] Memory required for data: 220632720
I0520 14:43:40.583322 23372 layer_factory.hpp:77] Creating layer relu5
I0520 14:43:40.583343 23372 net.cpp:106] Creating Layer relu5
I0520 14:43:40.583369 23372 net.cpp:454] relu5 <- ip1
I0520 14:43:40.583385 23372 net.cpp:397] relu5 -> ip1 (in-place)
I0520 14:43:40.583824 23372 net.cpp:150] Setting up relu5
I0520 14:43:40.583844 23372 net.cpp:157] Top shape: 140 196 (27440)
I0520 14:43:40.583858 23372 net.cpp:165] Memory required for data: 220742480
I0520 14:43:40.583873 23372 layer_factory.hpp:77] Creating layer drop1
I0520 14:43:40.583897 23372 net.cpp:106] Creating Layer drop1
I0520 14:43:40.583910 23372 net.cpp:454] drop1 <- ip1
I0520 14:43:40.583945 23372 net.cpp:397] drop1 -> ip1 (in-place)
I0520 14:43:40.583994 23372 net.cpp:150] Setting up drop1
I0520 14:43:40.584010 23372 net.cpp:157] Top shape: 140 196 (27440)
I0520 14:43:40.584023 23372 net.cpp:165] Memory required for data: 220852240
I0520 14:43:40.584035 23372 layer_factory.hpp:77] Creating layer ip2
I0520 14:43:40.584058 23372 net.cpp:106] Creating Layer ip2
I0520 14:43:40.584069 23372 net.cpp:454] ip2 <- ip1
I0520 14:43:40.584086 23372 net.cpp:411] ip2 -> ip2
I0520 14:43:40.584589 23372 net.cpp:150] Setting up ip2
I0520 14:43:40.584609 23372 net.cpp:157] Top shape: 140 98 (13720)
I0520 14:43:40.584621 23372 net.cpp:165] Memory required for data: 220907120
I0520 14:43:40.584642 23372 layer_factory.hpp:77] Creating layer relu6
I0520 14:43:40.584664 23372 net.cpp:106] Creating Layer relu6
I0520 14:43:40.584678 23372 net.cpp:454] relu6 <- ip2
I0520 14:43:40.584693 23372 net.cpp:397] relu6 -> ip2 (in-place)
I0520 14:43:40.585237 23372 net.cpp:150] Setting up relu6
I0520 14:43:40.585259 23372 net.cpp:157] Top shape: 140 98 (13720)
I0520 14:43:40.585273 23372 net.cpp:165] Memory required for data: 220962000
I0520 14:43:40.585289 23372 layer_factory.hpp:77] Creating layer drop2
I0520 14:43:40.585311 23372 net.cpp:106] Creating Layer drop2
I0520 14:43:40.585325 23372 net.cpp:454] drop2 <- ip2
I0520 14:43:40.585340 23372 net.cpp:397] drop2 -> ip2 (in-place)
I0520 14:43:40.585397 23372 net.cpp:150] Setting up drop2
I0520 14:43:40.585412 23372 net.cpp:157] Top shape: 140 98 (13720)
I0520 14:43:40.585425 23372 net.cpp:165] Memory required for data: 221016880
I0520 14:43:40.585440 23372 layer_factory.hpp:77] Creating layer ip3
I0520 14:43:40.585456 23372 net.cpp:106] Creating Layer ip3
I0520 14:43:40.585471 23372 net.cpp:454] ip3 <- ip2
I0520 14:43:40.585494 23372 net.cpp:411] ip3 -> ip3
I0520 14:43:40.585718 23372 net.cpp:150] Setting up ip3
I0520 14:43:40.585737 23372 net.cpp:157] Top shape: 140 11 (1540)
I0520 14:43:40.585750 23372 net.cpp:165] Memory required for data: 221023040
I0520 14:43:40.585770 23372 layer_factory.hpp:77] Creating layer drop3
I0520 14:43:40.585793 23372 net.cpp:106] Creating Layer drop3
I0520 14:43:40.585805 23372 net.cpp:454] drop3 <- ip3
I0520 14:43:40.585820 23372 net.cpp:397] drop3 -> ip3 (in-place)
I0520 14:43:40.585867 23372 net.cpp:150] Setting up drop3
I0520 14:43:40.585889 23372 net.cpp:157] Top shape: 140 11 (1540)
I0520 14:43:40.585901 23372 net.cpp:165] Memory required for data: 221029200
I0520 14:43:40.585921 23372 layer_factory.hpp:77] Creating layer loss
I0520 14:43:40.585942 23372 net.cpp:106] Creating Layer loss
I0520 14:43:40.585957 23372 net.cpp:454] loss <- ip3
I0520 14:43:40.585970 23372 net.cpp:454] loss <- label
I0520 14:43:40.585986 23372 net.cpp:411] loss -> loss
I0520 14:43:40.586004 23372 layer_factory.hpp:77] Creating layer loss
…
I0520 14:43:40.588790 23372 solver.cpp:181] Creating test net (#0) specified by net file: /lustre/atlas/proj-shared/hep105/caffe_titan/caffe_workflow/logs_batch_size_test/batch_size_140_2016-05-20T11.20.37.752920.prototxt
I0520 14:43:40.588870 23372 net.cpp:322] The NetState phase (1) differed from the phase (0) specified by a rule in layer data_hdf5
I0520 14:43:40.589251 23372 net.cpp:49] Initializing net from parameters: 
name: "caffe_test_127x50_x_unshifted"
state {
  phase: TEST
}
layer {
  name: "data_hdf5"
  type: "HDF5Data"
  top: "data"
  top: "label"
  include {
    phase: TEST
  }
  hdf5_data_param {
    source: "/lustre/atlas/proj-shared/hep105/caffe_titan/minosmatch_nukecczdefs_127x50_x_unshifted_me1Bmc.testlist"
    batch_size: 140
  }
}
layer {
  name: "conv1"
  type: "Convolution"
  bottom: "data"
  top: "conv1"
  convolution_param {
    num_output: 12
    pad: 0
    stride: 1
    weight_filler {
      type: "xavier"
    }
    bias_filler {
      type: "constant"
    }
    kernel_h: 8
    kernel_w: 3
  }
}
layer {
  name: "relu1"
  type: "ReLU"
  bottom: "conv1"
  top: "conv1"
}
layer {
  name: "pool1"
  type: "Pooling"
  bottom: "conv1"
  top: "pool1"
  pooling_param {
    pool: MAX
    kernel_h: 2
    kernel_w: 1
    stride_h: 2
    stride_w: 1
  }
}
layer {
  name: "conv2"
  type: "Convolution"
  bottom: "pool1"
  top: "conv2"
  convolution_param {
    num_output: 20
    pad: 0
    stride: 1
    weight_filler {
      type: "xavier"
    }
    bias_filler {
      type: "constant"
    }
    kernel_h: 7
    kernel_w: 3
  }
}
layer {
  name: "relu2"
  type: "ReLU"
  bottom: "conv2"
  top: "conv2"
}
layer {
  name: "pool2"
  type: "Pooling"
  bottom: "conv2"
  top: "pool2"
  pooling_param {
    pool: MAX
    kernel_h: 2
    kernel_w: 1
    stride_h: 2
    stride_w: 1
  }
}
layer {
  name: "conv3"
  type: "Convolution"
  bottom: "pool2"
  top: "conv3"
  convolution_param {
    num_output: 28
    pad: 0
    stride: 1
    weight_filler {
      type: "xavier"
    }
    bias_filler {
      type: "constant"
    }
    kernel_h: 6
    kernel_w: 3
  }
}
layer {
  name: "relu3"
  type: "ReLU"
  bottom: "conv3"
  top: "conv3"
}
layer {
  name: "pool3"
  type: "Pooling"
  bottom: "conv3"
  top: "pool3"
  pooling_param {
    pool: MAX
    kernel_h: 2
    kernel_w: 1
    stride_h: 2
    stride_w: 1
  }
}
layer {
  name: "conv4"
  type: "Convolution"
  bottom: "pool3"
  top: "conv4"
  convolution_param {
    num_output: 36
    pad: 0
    stride: 1
    weight_filler {
      type: "xavier"
    }
    bias_filler {
      type: "constant"
    }
    kernel_h: 6
    kernel_w: 3
  }
}
layer {
  name: "relu4"
  type: "ReLU"
  bottom: "conv4"
  top: "conv4"
}
layer {
  name: "pool4"
  type: "Pooling"
  bottom: "conv4"
  top: "pool4"
  pooling_param {
    pool: MAX
    kernel_h: 2
    kernel_w: 1
    stride_h: 2
    stride_w: 1
  }
}
layer {
  name: "ip1"
  type: "InnerProduct"
  bottom: "pool4"
  top: "ip1"
  inner_product_param {
    num_output: 196
    weight_filler {
      type: "xavier"
    }
    bias_filler {
      type: "constant"
    }
  }
}
layer {
  name: "relu5"
  type: "ReLU"
  bottom: "ip1"
  top: "ip1"
}
layer {
  name: "drop1"
  type: "Dropout"
  bottom: "ip1"
  top: "ip1"
  dropout_param {
    dropout_ratio: 0.5
  }
}
layer {
  name: "ip2"
  type: "InnerProduct"
  bottom: "ip1"
  top: "ip2"
  inner_product_param {
    num_output: 98
    weight_filler {
      type: "xavier"
    }
    bias_filler {
      type: "constant"
    }
  }
}
layer {
  name: "relu6"
  type: "ReLU"
  bottom: "ip2"
  top: "ip2"
}
layer {
  name: "drop2"
  type: "Dropout"
  bottom: "ip2"
  top: "ip2"
  dropout_param {
    dropout_ratio: 0.5
  }
}
layer {
  name: "ip3"
  type: "InnerProduct"
  bottom: "ip2"
  top: "ip3"
  inner_product_param {
    num_output: 11
    weight_filler {
      type: "xavier"
    }
    bias_filler {
      type: "constant"
    }
  }
}
layer {
  name: "drop3"
  type: "Dropout"
  bottom: "ip3"
  top: "ip3"
  dropout_param {
    dropout_ratio: 0.5
  }
}
layer {
  name: "accuracy"
  type: "Accuracy"
  bottom: "ip3"
  bottom: "label"
  top: "accuracy"
  include {
    phase: TEST
  }
}
layer {
  name: "loss"
  type: "SoftmaxWithLoss"
  bottom: "ip3"
  bottom: "label"
  top: "loss"
}
I0520 14:43:40.589469 23372 layer_factory.hpp:77] Creating layer data_hdf5
I0520 14:43:40.589489 23372 net.cpp:106] Creating Layer data_hdf5
I0520 14:43:40.589507 23372 net.cpp:411] data_hdf5 -> data
I0520 14:43:40.589527 23372 net.cpp:411] data_hdf5 -> label
I0520 14:43:40.589548 23372 hdf5_data_layer.cpp:79] Loading list of HDF5 filenames from: /lustre/atlas/proj-shared/hep105/caffe_titan/minosmatch_nukecczdefs_127x50_x_unshifted_me1Bmc.testlist
I0520 14:43:40.612771 23372 hdf5_data_layer.cpp:93] Number of HDF5 files: 3
I0520 14:44:01.931756 23372 net.cpp:150] Setting up data_hdf5
I0520 14:44:01.931927 23372 net.cpp:157] Top shape: 140 1 127 50 (889000)
I0520 14:44:01.931946 23372 net.cpp:157] Top shape: 140 (140)
I0520 14:44:01.931957 23372 net.cpp:165] Memory required for data: 3556560
I0520 14:44:01.931972 23372 layer_factory.hpp:77] Creating layer label_data_hdf5_1_split
I0520 14:44:01.932006 23372 net.cpp:106] Creating Layer label_data_hdf5_1_split
I0520 14:44:01.932020 23372 net.cpp:454] label_data_hdf5_1_split <- label
I0520 14:44:01.932056 23372 net.cpp:411] label_data_hdf5_1_split -> label_data_hdf5_1_split_0
I0520 14:44:01.932080 23372 net.cpp:411] label_data_hdf5_1_split -> label_data_hdf5_1_split_1
I0520 14:44:01.932166 23372 net.cpp:150] Setting up label_data_hdf5_1_split
I0520 14:44:01.932184 23372 net.cpp:157] Top shape: 140 (140)
I0520 14:44:01.932199 23372 net.cpp:157] Top shape: 140 (140)
I0520 14:44:01.932211 23372 net.cpp:165] Memory required for data: 3557680
I0520 14:44:01.932224 23372 layer_factory.hpp:77] Creating layer conv1
I0520 14:44:01.932265 23372 net.cpp:106] Creating Layer conv1
I0520 14:44:01.932279 23372 net.cpp:454] conv1 <- data
I0520 14:44:01.932308 23372 net.cpp:411] conv1 -> conv1
I0520 14:44:01.934273 23372 net.cpp:150] Setting up conv1
I0520 14:44:01.934298 23372 net.cpp:157] Top shape: 140 12 120 48 (9676800)
I0520 14:44:01.934319 23372 net.cpp:165] Memory required for data: 42264880
I0520 14:44:01.934342 23372 layer_factory.hpp:77] Creating layer relu1
I0520 14:44:01.934362 23372 net.cpp:106] Creating Layer relu1
I0520 14:44:01.934384 23372 net.cpp:454] relu1 <- conv1
I0520 14:44:01.934401 23372 net.cpp:397] relu1 -> conv1 (in-place)
I0520 14:44:01.934913 23372 net.cpp:150] Setting up relu1
I0520 14:44:01.934937 23372 net.cpp:157] Top shape: 140 12 120 48 (9676800)
I0520 14:44:01.934949 23372 net.cpp:165] Memory required for data: 80972080
I0520 14:44:01.934962 23372 layer_factory.hpp:77] Creating layer pool1
I0520 14:44:01.934991 23372 net.cpp:106] Creating Layer pool1
I0520 14:44:01.935005 23372 net.cpp:454] pool1 <- conv1
I0520 14:44:01.935022 23372 net.cpp:411] pool1 -> pool1
I0520 14:44:01.935111 23372 net.cpp:150] Setting up pool1
I0520 14:44:01.935128 23372 net.cpp:157] Top shape: 140 12 60 48 (4838400)
I0520 14:44:01.935143 23372 net.cpp:165] Memory required for data: 100325680
I0520 14:44:01.935163 23372 layer_factory.hpp:77] Creating layer conv2
I0520 14:44:01.935184 23372 net.cpp:106] Creating Layer conv2
I0520 14:44:01.935195 23372 net.cpp:454] conv2 <- pool1
I0520 14:44:01.935212 23372 net.cpp:411] conv2 -> conv2
I0520 14:44:01.937177 23372 net.cpp:150] Setting up conv2
I0520 14:44:01.937201 23372 net.cpp:157] Top shape: 140 20 54 46 (6955200)
I0520 14:44:01.937222 23372 net.cpp:165] Memory required for data: 128146480
I0520 14:44:01.937244 23372 layer_factory.hpp:77] Creating layer relu2
I0520 14:44:01.937264 23372 net.cpp:106] Creating Layer relu2
I0520 14:44:01.937286 23372 net.cpp:454] relu2 <- conv2
I0520 14:44:01.937302 23372 net.cpp:397] relu2 -> conv2 (in-place)
I0520 14:44:01.937654 23372 net.cpp:150] Setting up relu2
I0520 14:44:01.937674 23372 net.cpp:157] Top shape: 140 20 54 46 (6955200)
I0520 14:44:01.937686 23372 net.cpp:165] Memory required for data: 155967280
I0520 14:44:01.937702 23372 layer_factory.hpp:77] Creating layer pool2
I0520 14:44:01.937724 23372 net.cpp:106] Creating Layer pool2
I0520 14:44:01.937737 23372 net.cpp:454] pool2 <- conv2
I0520 14:44:01.937753 23372 net.cpp:411] pool2 -> pool2
I0520 14:44:01.937846 23372 net.cpp:150] Setting up pool2
I0520 14:44:01.937862 23372 net.cpp:157] Top shape: 140 20 27 46 (3477600)
I0520 14:44:01.937875 23372 net.cpp:165] Memory required for data: 169877680
I0520 14:44:01.937887 23372 layer_factory.hpp:77] Creating layer conv3
I0520 14:44:01.937912 23372 net.cpp:106] Creating Layer conv3
I0520 14:44:01.937925 23372 net.cpp:454] conv3 <- pool2
I0520 14:44:01.937948 23372 net.cpp:411] conv3 -> conv3
I0520 14:44:01.939965 23372 net.cpp:150] Setting up conv3
I0520 14:44:01.939990 23372 net.cpp:157] Top shape: 140 28 22 44 (3794560)
I0520 14:44:01.940011 23372 net.cpp:165] Memory required for data: 185055920
I0520 14:44:01.940049 23372 layer_factory.hpp:77] Creating layer relu3
I0520 14:44:01.940074 23372 net.cpp:106] Creating Layer relu3
I0520 14:44:01.940088 23372 net.cpp:454] relu3 <- conv3
I0520 14:44:01.940104 23372 net.cpp:397] relu3 -> conv3 (in-place)
I0520 14:44:01.940606 23372 net.cpp:150] Setting up relu3
I0520 14:44:01.940630 23372 net.cpp:157] Top shape: 140 28 22 44 (3794560)
I0520 14:44:01.940644 23372 net.cpp:165] Memory required for data: 200234160
I0520 14:44:01.940659 23372 layer_factory.hpp:77] Creating layer pool3
I0520 14:44:01.940683 23372 net.cpp:106] Creating Layer pool3
I0520 14:44:01.940696 23372 net.cpp:454] pool3 <- conv3
I0520 14:44:01.940713 23372 net.cpp:411] pool3 -> pool3
I0520 14:44:01.940799 23372 net.cpp:150] Setting up pool3
I0520 14:44:01.940816 23372 net.cpp:157] Top shape: 140 28 11 44 (1897280)
I0520 14:44:01.940831 23372 net.cpp:165] Memory required for data: 207823280
I0520 14:44:01.940843 23372 layer_factory.hpp:77] Creating layer conv4
I0520 14:44:01.940871 23372 net.cpp:106] Creating Layer conv4
I0520 14:44:01.940882 23372 net.cpp:454] conv4 <- pool3
I0520 14:44:01.940899 23372 net.cpp:411] conv4 -> conv4
I0520 14:44:01.943011 23372 net.cpp:150] Setting up conv4
I0520 14:44:01.943039 23372 net.cpp:157] Top shape: 140 36 6 42 (1270080)
I0520 14:44:01.943053 23372 net.cpp:165] Memory required for data: 212903600
I0520 14:44:01.943070 23372 layer_factory.hpp:77] Creating layer relu4
I0520 14:44:01.943099 23372 net.cpp:106] Creating Layer relu4
I0520 14:44:01.943115 23372 net.cpp:454] relu4 <- conv4
I0520 14:44:01.943130 23372 net.cpp:397] relu4 -> conv4 (in-place)
I0520 14:44:01.943634 23372 net.cpp:150] Setting up relu4
I0520 14:44:01.943657 23372 net.cpp:157] Top shape: 140 36 6 42 (1270080)
I0520 14:44:01.943670 23372 net.cpp:165] Memory required for data: 217983920
I0520 14:44:01.943686 23372 layer_factory.hpp:77] Creating layer pool4
I0520 14:44:01.943711 23372 net.cpp:106] Creating Layer pool4
I0520 14:44:01.943724 23372 net.cpp:454] pool4 <- conv4
I0520 14:44:01.943740 23372 net.cpp:411] pool4 -> pool4
I0520 14:44:01.943825 23372 net.cpp:150] Setting up pool4
I0520 14:44:01.943841 23372 net.cpp:157] Top shape: 140 36 3 42 (635040)
I0520 14:44:01.943856 23372 net.cpp:165] Memory required for data: 220524080
I0520 14:44:01.943869 23372 layer_factory.hpp:77] Creating layer ip1
I0520 14:44:01.943893 23372 net.cpp:106] Creating Layer ip1
I0520 14:44:01.943907 23372 net.cpp:454] ip1 <- pool4
I0520 14:44:01.943929 23372 net.cpp:411] ip1 -> ip1
I0520 14:44:01.959403 23372 net.cpp:150] Setting up ip1
I0520 14:44:01.959435 23372 net.cpp:157] Top shape: 140 196 (27440)
I0520 14:44:01.959456 23372 net.cpp:165] Memory required for data: 220633840
I0520 14:44:01.959483 23372 layer_factory.hpp:77] Creating layer relu5
I0520 14:44:01.959506 23372 net.cpp:106] Creating Layer relu5
I0520 14:44:01.959530 23372 net.cpp:454] relu5 <- ip1
I0520 14:44:01.959547 23372 net.cpp:397] relu5 -> ip1 (in-place)
I0520 14:44:01.959911 23372 net.cpp:150] Setting up relu5
I0520 14:44:01.959931 23372 net.cpp:157] Top shape: 140 196 (27440)
I0520 14:44:01.959944 23372 net.cpp:165] Memory required for data: 220743600
I0520 14:44:01.959959 23372 layer_factory.hpp:77] Creating layer drop1
I0520 14:44:01.959987 23372 net.cpp:106] Creating Layer drop1
I0520 14:44:01.960001 23372 net.cpp:454] drop1 <- ip1
I0520 14:44:01.960017 23372 net.cpp:397] drop1 -> ip1 (in-place)
I0520 14:44:01.960077 23372 net.cpp:150] Setting up drop1
I0520 14:44:01.960093 23372 net.cpp:157] Top shape: 140 196 (27440)
I0520 14:44:01.960105 23372 net.cpp:165] Memory required for data: 220853360
I0520 14:44:01.960117 23372 layer_factory.hpp:77] Creating layer ip2
I0520 14:44:01.960137 23372 net.cpp:106] Creating Layer ip2
I0520 14:44:01.960150 23372 net.cpp:454] ip2 <- ip1
I0520 14:44:01.960172 23372 net.cpp:411] ip2 -> ip2
I0520 14:44:01.960674 23372 net.cpp:150] Setting up ip2
I0520 14:44:01.960693 23372 net.cpp:157] Top shape: 140 98 (13720)
I0520 14:44:01.960705 23372 net.cpp:165] Memory required for data: 220908240
I0520 14:44:01.960747 23372 layer_factory.hpp:77] Creating layer relu6
I0520 14:44:01.960763 23372 net.cpp:106] Creating Layer relu6
I0520 14:44:01.960777 23372 net.cpp:454] relu6 <- ip2
I0520 14:44:01.960791 23372 net.cpp:397] relu6 -> ip2 (in-place)
I0520 14:44:01.961359 23372 net.cpp:150] Setting up relu6
I0520 14:44:01.961381 23372 net.cpp:157] Top shape: 140 98 (13720)
I0520 14:44:01.961395 23372 net.cpp:165] Memory required for data: 220963120
I0520 14:44:01.961407 23372 layer_factory.hpp:77] Creating layer drop2
I0520 14:44:01.961434 23372 net.cpp:106] Creating Layer drop2
I0520 14:44:01.961448 23372 net.cpp:454] drop2 <- ip2
I0520 14:44:01.961464 23372 net.cpp:397] drop2 -> ip2 (in-place)
I0520 14:44:01.961522 23372 net.cpp:150] Setting up drop2
I0520 14:44:01.961539 23372 net.cpp:157] Top shape: 140 98 (13720)
I0520 14:44:01.961551 23372 net.cpp:165] Memory required for data: 221018000
I0520 14:44:01.961565 23372 layer_factory.hpp:77] Creating layer ip3
I0520 14:44:01.961581 23372 net.cpp:106] Creating Layer ip3
I0520 14:44:01.961597 23372 net.cpp:454] ip3 <- ip2
I0520 14:44:01.961619 23372 net.cpp:411] ip3 -> ip3
I0520 14:44:01.961861 23372 net.cpp:150] Setting up ip3
I0520 14:44:01.961880 23372 net.cpp:157] Top shape: 140 11 (1540)
I0520 14:44:01.961894 23372 net.cpp:165] Memory required for data: 221024160
I0520 14:44:01.961915 23372 layer_factory.hpp:77] Creating layer drop3
I0520 14:44:01.961937 23372 net.cpp:106] Creating Layer drop3
I0520 14:44:01.961951 23372 net.cpp:454] drop3 <- ip3
I0520 14:44:01.961966 23372 net.cpp:397] drop3 -> ip3 (in-place)
I0520 14:44:01.962021 23372 net.cpp:150] Setting up drop3
I0520 14:44:01.962038 23372 net.cpp:157] Top shape: 140 11 (1540)
I0520 14:44:01.962049 23372 net.cpp:165] Memory required for data: 221030320
I0520 14:44:01.962067 23372 layer_factory.hpp:77] Creating layer ip3_drop3_0_split
I0520 14:44:01.962083 23372 net.cpp:106] Creating Layer ip3_drop3_0_split
I0520 14:44:01.962096 23372 net.cpp:454] ip3_drop3_0_split <- ip3
I0520 14:44:01.962121 23372 net.cpp:411] ip3_drop3_0_split -> ip3_drop3_0_split_0
I0520 14:44:01.962139 23372 net.cpp:411] ip3_drop3_0_split -> ip3_drop3_0_split_1
I0520 14:44:01.962227 23372 net.cpp:150] Setting up ip3_drop3_0_split
I0520 14:44:01.962244 23372 net.cpp:157] Top shape: 140 11 (1540)
I0520 14:44:01.962260 23372 net.cpp:157] Top shape: 140 11 (1540)
I0520 14:44:01.962273 23372 net.cpp:165] Memory required for data: 221042640
I0520 14:44:01.962286 23372 layer_factory.hpp:77] Creating layer accuracy
I0520 14:44:01.962316 23372 net.cpp:106] Creating Layer accuracy
I0520 14:44:01.962328 23372 net.cpp:454] accuracy <- ip3_drop3_0_split_0
I0520 14:44:01.962343 23372 net.cpp:454] accuracy <- label_data_hdf5_1_split_0
I0520 14:44:01.962362 23372 net.cpp:411] accuracy -> accuracy
…
