…
I0521 02:32:59.807176  8640 net.cpp:322] The NetState phase (0) differed from the phase (1) specified by a rule in layer data_hdf5
I0521 02:32:59.807242  8640 net.cpp:322] The NetState phase (0) differed from the phase (1) specified by a rule in layer accuracy
I0521 02:32:59.807586  8640 net.cpp:49] Initializing net from parameters: 
name: "caffe_test_127x50_x_unshifted"
state {
  phase: TRAIN
}
layer {
  name: "data_hdf5"
  type: "HDF5Data"
  top: "data"
  top: "label"
  include {
    phase: TRAIN
  }
  hdf5_data_param {
    source: "/lustre/atlas/proj-shared/hep105/caffe_titan/minosmatch_nukecczdefs_127x50_x_unshifted_me1Bmc.trainlist"
    batch_size: 570
  }
}
layer {
  name: "conv1"
  type: "Convolution"
  bottom: "data"
  top: "conv1"
  convolution_param {
    num_output: 12
    pad: 0
    stride: 1
    weight_filler {
      type: "xavier"
    }
    bias_filler {
      type: "constant"
    }
    kernel_h: 8
    kernel_w: 3
  }
}
layer {
  name: "relu1"
  type: "ReLU"
  bottom: "conv1"
  top: "conv1"
}
layer {
  name: "pool1"
  type: "Pooling"
  bottom: "conv1"
  top: "pool1"
  pooling_param {
    pool: MAX
    kernel_h: 2
    kernel_w: 1
    stride_h: 2
    stride_w: 1
  }
}
layer {
  name: "conv2"
  type: "Convolution"
  bottom: "pool1"
  top: "conv2"
  convolution_param {
    num_output: 20
    pad: 0
    stride: 1
    weight_filler {
      type: "xavier"
    }
    bias_filler {
      type: "constant"
    }
    kernel_h: 7
    kernel_w: 3
  }
}
layer {
  name: "relu2"
  type: "ReLU"
  bottom: "conv2"
  top: "conv2"
}
layer {
  name: "pool2"
  type: "Pooling"
  bottom: "conv2"
  top: "pool2"
  pooling_param {
    pool: MAX
    kernel_h: 2
    kernel_w: 1
    stride_h: 2
    stride_w: 1
  }
}
layer {
  name: "conv3"
  type: "Convolution"
  bottom: "pool2"
  top: "conv3"
  convolution_param {
    num_output: 28
    pad: 0
    stride: 1
    weight_filler {
      type: "xavier"
    }
    bias_filler {
      type: "constant"
    }
    kernel_h: 6
    kernel_w: 3
  }
}
layer {
  name: "relu3"
  type: "ReLU"
  bottom: "conv3"
  top: "conv3"
}
layer {
  name: "pool3"
  type: "Pooling"
  bottom: "conv3"
  top: "pool3"
  pooling_param {
    pool: MAX
    kernel_h: 2
    kernel_w: 1
    stride_h: 2
    stride_w: 1
  }
}
layer {
  name: "conv4"
  type: "Convolution"
  bottom: "pool3"
  top: "conv4"
  convolution_param {
    num_output: 36
    pad: 0
    stride: 1
    weight_filler {
      type: "xavier"
    }
    bias_filler {
      type: "constant"
    }
    kernel_h: 6
    kernel_w: 3
  }
}
layer {
  name: "relu4"
  type: "ReLU"
  bottom: "conv4"
  top: "conv4"
}
layer {
  name: "pool4"
  type: "Pooling"
  bottom: "conv4"
  top: "pool4"
  pooling_param {
    pool: MAX
    kernel_h: 2
    kernel_w: 1
    stride_h: 2
    stride_w: 1
  }
}
layer {
  name: "ip1"
  type: "InnerProduct"
  bottom: "pool4"
  top: "ip1"
  inner_product_param {
    num_output: 196
    weight_filler {
      type: "xavier"
    }
    bias_filler {
      type: "constant"
    }
  }
}
layer {
  name: "relu5"
  type: "ReLU"
  bottom: "ip1"
  top: "ip1"
}
layer {
  name: "drop1"
  type: "Dropout"
  bottom: "ip1"
  top: "ip1"
  dropout_param {
    dropout_ratio: 0.5
  }
}
layer {
  name: "ip2"
  type: "InnerProduct"
  bottom: "ip1"
  top: "ip2"
  inner_product_param {
    num_output: 98
    weight_filler {
      type: "xavier"
    }
    bias_filler {
      type: "constant"
    }
  }
}
layer {
  name: "relu6"
  type: "ReLU"
  bottom: "ip2"
  top: "ip2"
}
layer {
  name: "drop2"
  type: "Dropout"
  bottom: "ip2"
  top: "ip2"
  dropout_param {
    dropout_ratio: 0.5
  }
}
layer {
  name: "ip3"
  type: "InnerProduct"
  bottom: "ip2"
  top: "ip3"
  inner_product_param {
    num_output: 11
    weight_filler {
      type: "xavier"
    }
    bias_filler {
      type: "constant"
    }
  }
}
layer {
  name: "drop3"
  type: "Dropout"
  bottom: "ip3"
  top: "ip3"
  dropout_param {
    dropout_ratio: 0.5
  }
}
layer {
  name: "loss"
  type: "SoftmaxWithLoss"
  bottom: "ip3"
  bottom: "label"
  top: "loss"
}
I0521 02:32:59.807767  8640 layer_factory.hpp:77] Creating layer data_hdf5
I0521 02:32:59.807790  8640 net.cpp:106] Creating Layer data_hdf5
I0521 02:32:59.807806  8640 net.cpp:411] data_hdf5 -> data
I0521 02:32:59.807838  8640 net.cpp:411] data_hdf5 -> label
I0521 02:32:59.807871  8640 hdf5_data_layer.cpp:79] Loading list of HDF5 filenames from: /lustre/atlas/proj-shared/hep105/caffe_titan/minosmatch_nukecczdefs_127x50_x_unshifted_me1Bmc.trainlist
I0521 02:32:59.819653  8640 hdf5_data_layer.cpp:93] Number of HDF5 files: 15
I0521 02:32:59.841980  8640 hdf5.cpp:32] Datatype class: H5T_FLOAT
I0521 02:33:21.344358  8640 hdf5.cpp:35] Datatype class: H5T_INTEGER
I0521 02:33:21.349444  8640 net.cpp:150] Setting up data_hdf5
I0521 02:33:21.349488  8640 net.cpp:157] Top shape: 570 1 127 50 (3619500)
I0521 02:33:21.349503  8640 net.cpp:157] Top shape: 570 (570)
I0521 02:33:21.349514  8640 net.cpp:165] Memory required for data: 14480280
I0521 02:33:21.349527  8640 layer_factory.hpp:77] Creating layer conv1
I0521 02:33:21.349561  8640 net.cpp:106] Creating Layer conv1
I0521 02:33:21.349573  8640 net.cpp:454] conv1 <- data
I0521 02:33:21.349596  8640 net.cpp:411] conv1 -> conv1
I0521 02:33:22.243088  8640 net.cpp:150] Setting up conv1
I0521 02:33:22.243131  8640 net.cpp:157] Top shape: 570 12 120 48 (39398400)
I0521 02:33:22.243144  8640 net.cpp:165] Memory required for data: 172073880
I0521 02:33:22.243175  8640 layer_factory.hpp:77] Creating layer relu1
I0521 02:33:22.243204  8640 net.cpp:106] Creating Layer relu1
I0521 02:33:22.243216  8640 net.cpp:454] relu1 <- conv1
I0521 02:33:22.243228  8640 net.cpp:397] relu1 -> conv1 (in-place)
I0521 02:33:22.243744  8640 net.cpp:150] Setting up relu1
I0521 02:33:22.243762  8640 net.cpp:157] Top shape: 570 12 120 48 (39398400)
I0521 02:33:22.243772  8640 net.cpp:165] Memory required for data: 329667480
I0521 02:33:22.243782  8640 layer_factory.hpp:77] Creating layer pool1
I0521 02:33:22.243799  8640 net.cpp:106] Creating Layer pool1
I0521 02:33:22.243809  8640 net.cpp:454] pool1 <- conv1
I0521 02:33:22.243823  8640 net.cpp:411] pool1 -> pool1
I0521 02:33:22.243902  8640 net.cpp:150] Setting up pool1
I0521 02:33:22.243916  8640 net.cpp:157] Top shape: 570 12 60 48 (19699200)
I0521 02:33:22.243927  8640 net.cpp:165] Memory required for data: 408464280
I0521 02:33:22.243937  8640 layer_factory.hpp:77] Creating layer conv2
I0521 02:33:22.243958  8640 net.cpp:106] Creating Layer conv2
I0521 02:33:22.243968  8640 net.cpp:454] conv2 <- pool1
I0521 02:33:22.243981  8640 net.cpp:411] conv2 -> conv2
I0521 02:33:22.246634  8640 net.cpp:150] Setting up conv2
I0521 02:33:22.246662  8640 net.cpp:157] Top shape: 570 20 54 46 (28317600)
I0521 02:33:22.246672  8640 net.cpp:165] Memory required for data: 521734680
I0521 02:33:22.246691  8640 layer_factory.hpp:77] Creating layer relu2
I0521 02:33:22.246706  8640 net.cpp:106] Creating Layer relu2
I0521 02:33:22.246716  8640 net.cpp:454] relu2 <- conv2
I0521 02:33:22.246728  8640 net.cpp:397] relu2 -> conv2 (in-place)
I0521 02:33:22.247058  8640 net.cpp:150] Setting up relu2
I0521 02:33:22.247072  8640 net.cpp:157] Top shape: 570 20 54 46 (28317600)
I0521 02:33:22.247083  8640 net.cpp:165] Memory required for data: 635005080
I0521 02:33:22.247093  8640 layer_factory.hpp:77] Creating layer pool2
I0521 02:33:22.247107  8640 net.cpp:106] Creating Layer pool2
I0521 02:33:22.247117  8640 net.cpp:454] pool2 <- conv2
I0521 02:33:22.247141  8640 net.cpp:411] pool2 -> pool2
I0521 02:33:22.247221  8640 net.cpp:150] Setting up pool2
I0521 02:33:22.247236  8640 net.cpp:157] Top shape: 570 20 27 46 (14158800)
I0521 02:33:22.247246  8640 net.cpp:165] Memory required for data: 691640280
I0521 02:33:22.247256  8640 layer_factory.hpp:77] Creating layer conv3
I0521 02:33:22.247273  8640 net.cpp:106] Creating Layer conv3
I0521 02:33:22.247283  8640 net.cpp:454] conv3 <- pool2
I0521 02:33:22.247298  8640 net.cpp:411] conv3 -> conv3
I0521 02:33:22.249209  8640 net.cpp:150] Setting up conv3
I0521 02:33:22.249228  8640 net.cpp:157] Top shape: 570 28 22 44 (15449280)
I0521 02:33:22.249239  8640 net.cpp:165] Memory required for data: 753437400
I0521 02:33:22.249258  8640 layer_factory.hpp:77] Creating layer relu3
I0521 02:33:22.249274  8640 net.cpp:106] Creating Layer relu3
I0521 02:33:22.249282  8640 net.cpp:454] relu3 <- conv3
I0521 02:33:22.249295  8640 net.cpp:397] relu3 -> conv3 (in-place)
I0521 02:33:22.249761  8640 net.cpp:150] Setting up relu3
I0521 02:33:22.249779  8640 net.cpp:157] Top shape: 570 28 22 44 (15449280)
I0521 02:33:22.249789  8640 net.cpp:165] Memory required for data: 815234520
I0521 02:33:22.249799  8640 layer_factory.hpp:77] Creating layer pool3
I0521 02:33:22.249812  8640 net.cpp:106] Creating Layer pool3
I0521 02:33:22.249822  8640 net.cpp:454] pool3 <- conv3
I0521 02:33:22.249835  8640 net.cpp:411] pool3 -> pool3
I0521 02:33:22.249903  8640 net.cpp:150] Setting up pool3
I0521 02:33:22.249917  8640 net.cpp:157] Top shape: 570 28 11 44 (7724640)
I0521 02:33:22.249927  8640 net.cpp:165] Memory required for data: 846133080
I0521 02:33:22.249935  8640 layer_factory.hpp:77] Creating layer conv4
I0521 02:33:22.249953  8640 net.cpp:106] Creating Layer conv4
I0521 02:33:22.249964  8640 net.cpp:454] conv4 <- pool3
I0521 02:33:22.249977  8640 net.cpp:411] conv4 -> conv4
I0521 02:33:22.252743  8640 net.cpp:150] Setting up conv4
I0521 02:33:22.252771  8640 net.cpp:157] Top shape: 570 36 6 42 (5171040)
I0521 02:33:22.252782  8640 net.cpp:165] Memory required for data: 866817240
I0521 02:33:22.252799  8640 layer_factory.hpp:77] Creating layer relu4
I0521 02:33:22.252812  8640 net.cpp:106] Creating Layer relu4
I0521 02:33:22.252822  8640 net.cpp:454] relu4 <- conv4
I0521 02:33:22.252835  8640 net.cpp:397] relu4 -> conv4 (in-place)
I0521 02:33:22.253309  8640 net.cpp:150] Setting up relu4
I0521 02:33:22.253324  8640 net.cpp:157] Top shape: 570 36 6 42 (5171040)
I0521 02:33:22.253335  8640 net.cpp:165] Memory required for data: 887501400
I0521 02:33:22.253345  8640 layer_factory.hpp:77] Creating layer pool4
I0521 02:33:22.253358  8640 net.cpp:106] Creating Layer pool4
I0521 02:33:22.253368  8640 net.cpp:454] pool4 <- conv4
I0521 02:33:22.253381  8640 net.cpp:411] pool4 -> pool4
I0521 02:33:22.253449  8640 net.cpp:150] Setting up pool4
I0521 02:33:22.253463  8640 net.cpp:157] Top shape: 570 36 3 42 (2585520)
I0521 02:33:22.253473  8640 net.cpp:165] Memory required for data: 897843480
I0521 02:33:22.253484  8640 layer_factory.hpp:77] Creating layer ip1
I0521 02:33:22.253504  8640 net.cpp:106] Creating Layer ip1
I0521 02:33:22.253514  8640 net.cpp:454] ip1 <- pool4
I0521 02:33:22.253525  8640 net.cpp:411] ip1 -> ip1
I0521 02:33:22.268923  8640 net.cpp:150] Setting up ip1
I0521 02:33:22.268952  8640 net.cpp:157] Top shape: 570 196 (111720)
I0521 02:33:22.268965  8640 net.cpp:165] Memory required for data: 898290360
I0521 02:33:22.268992  8640 layer_factory.hpp:77] Creating layer relu5
I0521 02:33:22.269006  8640 net.cpp:106] Creating Layer relu5
I0521 02:33:22.269017  8640 net.cpp:454] relu5 <- ip1
I0521 02:33:22.269032  8640 net.cpp:397] relu5 -> ip1 (in-place)
I0521 02:33:22.269377  8640 net.cpp:150] Setting up relu5
I0521 02:33:22.269392  8640 net.cpp:157] Top shape: 570 196 (111720)
I0521 02:33:22.269402  8640 net.cpp:165] Memory required for data: 898737240
I0521 02:33:22.269412  8640 layer_factory.hpp:77] Creating layer drop1
I0521 02:33:22.269434  8640 net.cpp:106] Creating Layer drop1
I0521 02:33:22.269444  8640 net.cpp:454] drop1 <- ip1
I0521 02:33:22.269470  8640 net.cpp:397] drop1 -> ip1 (in-place)
I0521 02:33:22.269516  8640 net.cpp:150] Setting up drop1
I0521 02:33:22.269529  8640 net.cpp:157] Top shape: 570 196 (111720)
I0521 02:33:22.269541  8640 net.cpp:165] Memory required for data: 899184120
I0521 02:33:22.269551  8640 layer_factory.hpp:77] Creating layer ip2
I0521 02:33:22.269568  8640 net.cpp:106] Creating Layer ip2
I0521 02:33:22.269578  8640 net.cpp:454] ip2 <- ip1
I0521 02:33:22.269593  8640 net.cpp:411] ip2 -> ip2
I0521 02:33:22.270056  8640 net.cpp:150] Setting up ip2
I0521 02:33:22.270069  8640 net.cpp:157] Top shape: 570 98 (55860)
I0521 02:33:22.270079  8640 net.cpp:165] Memory required for data: 899407560
I0521 02:33:22.270094  8640 layer_factory.hpp:77] Creating layer relu6
I0521 02:33:22.270107  8640 net.cpp:106] Creating Layer relu6
I0521 02:33:22.270117  8640 net.cpp:454] relu6 <- ip2
I0521 02:33:22.270128  8640 net.cpp:397] relu6 -> ip2 (in-place)
I0521 02:33:22.270648  8640 net.cpp:150] Setting up relu6
I0521 02:33:22.270665  8640 net.cpp:157] Top shape: 570 98 (55860)
I0521 02:33:22.270675  8640 net.cpp:165] Memory required for data: 899631000
I0521 02:33:22.270685  8640 layer_factory.hpp:77] Creating layer drop2
I0521 02:33:22.270699  8640 net.cpp:106] Creating Layer drop2
I0521 02:33:22.270709  8640 net.cpp:454] drop2 <- ip2
I0521 02:33:22.270721  8640 net.cpp:397] drop2 -> ip2 (in-place)
I0521 02:33:22.270763  8640 net.cpp:150] Setting up drop2
I0521 02:33:22.270776  8640 net.cpp:157] Top shape: 570 98 (55860)
I0521 02:33:22.270787  8640 net.cpp:165] Memory required for data: 899854440
I0521 02:33:22.270797  8640 layer_factory.hpp:77] Creating layer ip3
I0521 02:33:22.270809  8640 net.cpp:106] Creating Layer ip3
I0521 02:33:22.270819  8640 net.cpp:454] ip3 <- ip2
I0521 02:33:22.270833  8640 net.cpp:411] ip3 -> ip3
I0521 02:33:22.271044  8640 net.cpp:150] Setting up ip3
I0521 02:33:22.271056  8640 net.cpp:157] Top shape: 570 11 (6270)
I0521 02:33:22.271066  8640 net.cpp:165] Memory required for data: 899879520
I0521 02:33:22.271081  8640 layer_factory.hpp:77] Creating layer drop3
I0521 02:33:22.271093  8640 net.cpp:106] Creating Layer drop3
I0521 02:33:22.271103  8640 net.cpp:454] drop3 <- ip3
I0521 02:33:22.271114  8640 net.cpp:397] drop3 -> ip3 (in-place)
I0521 02:33:22.271154  8640 net.cpp:150] Setting up drop3
I0521 02:33:22.271167  8640 net.cpp:157] Top shape: 570 11 (6270)
I0521 02:33:22.271178  8640 net.cpp:165] Memory required for data: 899904600
I0521 02:33:22.271194  8640 layer_factory.hpp:77] Creating layer loss
I0521 02:33:22.271214  8640 net.cpp:106] Creating Layer loss
I0521 02:33:22.271224  8640 net.cpp:454] loss <- ip3
I0521 02:33:22.271236  8640 net.cpp:454] loss <- label
I0521 02:33:22.271248  8640 net.cpp:411] loss -> loss
I0521 02:33:22.271265  8640 layer_factory.hpp:77] Creating layer loss
…
I0521 02:33:22.273913  8640 solver.cpp:181] Creating test net (#0) specified by net file: /lustre/atlas/proj-shared/hep105/caffe_titan/caffe_workflow/logs_batch_size_test/batch_size_570_2016-05-20T11.20.53.329623.prototxt
I0521 02:33:22.273984  8640 net.cpp:322] The NetState phase (1) differed from the phase (0) specified by a rule in layer data_hdf5
I0521 02:33:22.274338  8640 net.cpp:49] Initializing net from parameters: 
name: "caffe_test_127x50_x_unshifted"
state {
  phase: TEST
}
layer {
  name: "data_hdf5"
  type: "HDF5Data"
  top: "data"
  top: "label"
  include {
    phase: TEST
  }
  hdf5_data_param {
    source: "/lustre/atlas/proj-shared/hep105/caffe_titan/minosmatch_nukecczdefs_127x50_x_unshifted_me1Bmc.testlist"
    batch_size: 570
  }
}
layer {
  name: "conv1"
  type: "Convolution"
  bottom: "data"
  top: "conv1"
  convolution_param {
    num_output: 12
    pad: 0
    stride: 1
    weight_filler {
      type: "xavier"
    }
    bias_filler {
      type: "constant"
    }
    kernel_h: 8
    kernel_w: 3
  }
}
layer {
  name: "relu1"
  type: "ReLU"
  bottom: "conv1"
  top: "conv1"
}
layer {
  name: "pool1"
  type: "Pooling"
  bottom: "conv1"
  top: "pool1"
  pooling_param {
    pool: MAX
    kernel_h: 2
    kernel_w: 1
    stride_h: 2
    stride_w: 1
  }
}
layer {
  name: "conv2"
  type: "Convolution"
  bottom: "pool1"
  top: "conv2"
  convolution_param {
    num_output: 20
    pad: 0
    stride: 1
    weight_filler {
      type: "xavier"
    }
    bias_filler {
      type: "constant"
    }
    kernel_h: 7
    kernel_w: 3
  }
}
layer {
  name: "relu2"
  type: "ReLU"
  bottom: "conv2"
  top: "conv2"
}
layer {
  name: "pool2"
  type: "Pooling"
  bottom: "conv2"
  top: "pool2"
  pooling_param {
    pool: MAX
    kernel_h: 2
    kernel_w: 1
    stride_h: 2
    stride_w: 1
  }
}
layer {
  name: "conv3"
  type: "Convolution"
  bottom: "pool2"
  top: "conv3"
  convolution_param {
    num_output: 28
    pad: 0
    stride: 1
    weight_filler {
      type: "xavier"
    }
    bias_filler {
      type: "constant"
    }
    kernel_h: 6
    kernel_w: 3
  }
}
layer {
  name: "relu3"
  type: "ReLU"
  bottom: "conv3"
  top: "conv3"
}
layer {
  name: "pool3"
  type: "Pooling"
  bottom: "conv3"
  top: "pool3"
  pooling_param {
    pool: MAX
    kernel_h: 2
    kernel_w: 1
    stride_h: 2
    stride_w: 1
  }
}
layer {
  name: "conv4"
  type: "Convolution"
  bottom: "pool3"
  top: "conv4"
  convolution_param {
    num_output: 36
    pad: 0
    stride: 1
    weight_filler {
      type: "xavier"
    }
    bias_filler {
      type: "constant"
    }
    kernel_h: 6
    kernel_w: 3
  }
}
layer {
  name: "relu4"
  type: "ReLU"
  bottom: "conv4"
  top: "conv4"
}
layer {
  name: "pool4"
  type: "Pooling"
  bottom: "conv4"
  top: "pool4"
  pooling_param {
    pool: MAX
    kernel_h: 2
    kernel_w: 1
    stride_h: 2
    stride_w: 1
  }
}
layer {
  name: "ip1"
  type: "InnerProduct"
  bottom: "pool4"
  top: "ip1"
  inner_product_param {
    num_output: 196
    weight_filler {
      type: "xavier"
    }
    bias_filler {
      type: "constant"
    }
  }
}
layer {
  name: "relu5"
  type: "ReLU"
  bottom: "ip1"
  top: "ip1"
}
layer {
  name: "drop1"
  type: "Dropout"
  bottom: "ip1"
  top: "ip1"
  dropout_param {
    dropout_ratio: 0.5
  }
}
layer {
  name: "ip2"
  type: "InnerProduct"
  bottom: "ip1"
  top: "ip2"
  inner_product_param {
    num_output: 98
    weight_filler {
      type: "xavier"
    }
    bias_filler {
      type: "constant"
    }
  }
}
layer {
  name: "relu6"
  type: "ReLU"
  bottom: "ip2"
  top: "ip2"
}
layer {
  name: "drop2"
  type: "Dropout"
  bottom: "ip2"
  top: "ip2"
  dropout_param {
    dropout_ratio: 0.5
  }
}
layer {
  name: "ip3"
  type: "InnerProduct"
  bottom: "ip2"
  top: "ip3"
  inner_product_param {
    num_output: 11
    weight_filler {
      type: "xavier"
    }
    bias_filler {
      type: "constant"
    }
  }
}
layer {
  name: "drop3"
  type: "Dropout"
  bottom: "ip3"
  top: "ip3"
  dropout_param {
    dropout_ratio: 0.5
  }
}
layer {
  name: "accuracy"
  type: "Accuracy"
  bottom: "ip3"
  bottom: "label"
  top: "accuracy"
  include {
    phase: TEST
  }
}
layer {
  name: "loss"
  type: "SoftmaxWithLoss"
  bottom: "ip3"
  bottom: "label"
  top: "loss"
}
I0521 02:33:22.274525  8640 layer_factory.hpp:77] Creating layer data_hdf5
I0521 02:33:22.274540  8640 net.cpp:106] Creating Layer data_hdf5
I0521 02:33:22.274554  8640 net.cpp:411] data_hdf5 -> data
I0521 02:33:22.274570  8640 net.cpp:411] data_hdf5 -> label
I0521 02:33:22.274586  8640 hdf5_data_layer.cpp:79] Loading list of HDF5 filenames from: /lustre/atlas/proj-shared/hep105/caffe_titan/minosmatch_nukecczdefs_127x50_x_unshifted_me1Bmc.testlist
I0521 02:33:22.275789  8640 hdf5_data_layer.cpp:93] Number of HDF5 files: 3
I0521 02:33:43.546432  8640 net.cpp:150] Setting up data_hdf5
I0521 02:33:43.546593  8640 net.cpp:157] Top shape: 570 1 127 50 (3619500)
I0521 02:33:43.546608  8640 net.cpp:157] Top shape: 570 (570)
I0521 02:33:43.546619  8640 net.cpp:165] Memory required for data: 14480280
I0521 02:33:43.546633  8640 layer_factory.hpp:77] Creating layer label_data_hdf5_1_split
I0521 02:33:43.546661  8640 net.cpp:106] Creating Layer label_data_hdf5_1_split
I0521 02:33:43.546672  8640 net.cpp:454] label_data_hdf5_1_split <- label
I0521 02:33:43.546687  8640 net.cpp:411] label_data_hdf5_1_split -> label_data_hdf5_1_split_0
I0521 02:33:43.546708  8640 net.cpp:411] label_data_hdf5_1_split -> label_data_hdf5_1_split_1
I0521 02:33:43.546782  8640 net.cpp:150] Setting up label_data_hdf5_1_split
I0521 02:33:43.546795  8640 net.cpp:157] Top shape: 570 (570)
I0521 02:33:43.546808  8640 net.cpp:157] Top shape: 570 (570)
I0521 02:33:43.546816  8640 net.cpp:165] Memory required for data: 14484840
I0521 02:33:43.546828  8640 layer_factory.hpp:77] Creating layer conv1
I0521 02:33:43.546849  8640 net.cpp:106] Creating Layer conv1
I0521 02:33:43.546859  8640 net.cpp:454] conv1 <- data
I0521 02:33:43.546875  8640 net.cpp:411] conv1 -> conv1
I0521 02:33:43.548826  8640 net.cpp:150] Setting up conv1
I0521 02:33:43.548849  8640 net.cpp:157] Top shape: 570 12 120 48 (39398400)
I0521 02:33:43.548861  8640 net.cpp:165] Memory required for data: 172078440
I0521 02:33:43.548882  8640 layer_factory.hpp:77] Creating layer relu1
I0521 02:33:43.548897  8640 net.cpp:106] Creating Layer relu1
I0521 02:33:43.548907  8640 net.cpp:454] relu1 <- conv1
I0521 02:33:43.548919  8640 net.cpp:397] relu1 -> conv1 (in-place)
I0521 02:33:43.549420  8640 net.cpp:150] Setting up relu1
I0521 02:33:43.549437  8640 net.cpp:157] Top shape: 570 12 120 48 (39398400)
I0521 02:33:43.549446  8640 net.cpp:165] Memory required for data: 329672040
I0521 02:33:43.549456  8640 layer_factory.hpp:77] Creating layer pool1
I0521 02:33:43.549474  8640 net.cpp:106] Creating Layer pool1
I0521 02:33:43.549482  8640 net.cpp:454] pool1 <- conv1
I0521 02:33:43.549496  8640 net.cpp:411] pool1 -> pool1
I0521 02:33:43.549571  8640 net.cpp:150] Setting up pool1
I0521 02:33:43.549583  8640 net.cpp:157] Top shape: 570 12 60 48 (19699200)
I0521 02:33:43.549593  8640 net.cpp:165] Memory required for data: 408468840
I0521 02:33:43.549604  8640 layer_factory.hpp:77] Creating layer conv2
I0521 02:33:43.549621  8640 net.cpp:106] Creating Layer conv2
I0521 02:33:43.549633  8640 net.cpp:454] conv2 <- pool1
I0521 02:33:43.549646  8640 net.cpp:411] conv2 -> conv2
I0521 02:33:43.551570  8640 net.cpp:150] Setting up conv2
I0521 02:33:43.551592  8640 net.cpp:157] Top shape: 570 20 54 46 (28317600)
I0521 02:33:43.551606  8640 net.cpp:165] Memory required for data: 521739240
I0521 02:33:43.551623  8640 layer_factory.hpp:77] Creating layer relu2
I0521 02:33:43.551636  8640 net.cpp:106] Creating Layer relu2
I0521 02:33:43.551646  8640 net.cpp:454] relu2 <- conv2
I0521 02:33:43.551659  8640 net.cpp:397] relu2 -> conv2 (in-place)
I0521 02:33:43.551993  8640 net.cpp:150] Setting up relu2
I0521 02:33:43.552007  8640 net.cpp:157] Top shape: 570 20 54 46 (28317600)
I0521 02:33:43.552017  8640 net.cpp:165] Memory required for data: 635009640
I0521 02:33:43.552027  8640 layer_factory.hpp:77] Creating layer pool2
I0521 02:33:43.552040  8640 net.cpp:106] Creating Layer pool2
I0521 02:33:43.552050  8640 net.cpp:454] pool2 <- conv2
I0521 02:33:43.552063  8640 net.cpp:411] pool2 -> pool2
I0521 02:33:43.552134  8640 net.cpp:150] Setting up pool2
I0521 02:33:43.552147  8640 net.cpp:157] Top shape: 570 20 27 46 (14158800)
I0521 02:33:43.552157  8640 net.cpp:165] Memory required for data: 691644840
I0521 02:33:43.552166  8640 layer_factory.hpp:77] Creating layer conv3
I0521 02:33:43.552184  8640 net.cpp:106] Creating Layer conv3
I0521 02:33:43.552196  8640 net.cpp:454] conv3 <- pool2
I0521 02:33:43.552209  8640 net.cpp:411] conv3 -> conv3
I0521 02:33:43.554174  8640 net.cpp:150] Setting up conv3
I0521 02:33:43.554198  8640 net.cpp:157] Top shape: 570 28 22 44 (15449280)
I0521 02:33:43.554209  8640 net.cpp:165] Memory required for data: 753441960
I0521 02:33:43.554242  8640 layer_factory.hpp:77] Creating layer relu3
I0521 02:33:43.554255  8640 net.cpp:106] Creating Layer relu3
I0521 02:33:43.554266  8640 net.cpp:454] relu3 <- conv3
I0521 02:33:43.554280  8640 net.cpp:397] relu3 -> conv3 (in-place)
I0521 02:33:43.554749  8640 net.cpp:150] Setting up relu3
I0521 02:33:43.554765  8640 net.cpp:157] Top shape: 570 28 22 44 (15449280)
I0521 02:33:43.554776  8640 net.cpp:165] Memory required for data: 815239080
I0521 02:33:43.554786  8640 layer_factory.hpp:77] Creating layer pool3
I0521 02:33:43.554800  8640 net.cpp:106] Creating Layer pool3
I0521 02:33:43.554810  8640 net.cpp:454] pool3 <- conv3
I0521 02:33:43.554822  8640 net.cpp:411] pool3 -> pool3
I0521 02:33:43.554894  8640 net.cpp:150] Setting up pool3
I0521 02:33:43.554908  8640 net.cpp:157] Top shape: 570 28 11 44 (7724640)
I0521 02:33:43.554918  8640 net.cpp:165] Memory required for data: 846137640
I0521 02:33:43.554927  8640 layer_factory.hpp:77] Creating layer conv4
I0521 02:33:43.554944  8640 net.cpp:106] Creating Layer conv4
I0521 02:33:43.554955  8640 net.cpp:454] conv4 <- pool3
I0521 02:33:43.554968  8640 net.cpp:411] conv4 -> conv4
I0521 02:33:43.557037  8640 net.cpp:150] Setting up conv4
I0521 02:33:43.557060  8640 net.cpp:157] Top shape: 570 36 6 42 (5171040)
I0521 02:33:43.557070  8640 net.cpp:165] Memory required for data: 866821800
I0521 02:33:43.557086  8640 layer_factory.hpp:77] Creating layer relu4
I0521 02:33:43.557101  8640 net.cpp:106] Creating Layer relu4
I0521 02:33:43.557111  8640 net.cpp:454] relu4 <- conv4
I0521 02:33:43.557123  8640 net.cpp:397] relu4 -> conv4 (in-place)
I0521 02:33:43.557591  8640 net.cpp:150] Setting up relu4
I0521 02:33:43.557607  8640 net.cpp:157] Top shape: 570 36 6 42 (5171040)
I0521 02:33:43.557617  8640 net.cpp:165] Memory required for data: 887505960
I0521 02:33:43.557627  8640 layer_factory.hpp:77] Creating layer pool4
I0521 02:33:43.557641  8640 net.cpp:106] Creating Layer pool4
I0521 02:33:43.557651  8640 net.cpp:454] pool4 <- conv4
I0521 02:33:43.557663  8640 net.cpp:411] pool4 -> pool4
I0521 02:33:43.557736  8640 net.cpp:150] Setting up pool4
I0521 02:33:43.557749  8640 net.cpp:157] Top shape: 570 36 3 42 (2585520)
I0521 02:33:43.557760  8640 net.cpp:165] Memory required for data: 897848040
I0521 02:33:43.557767  8640 layer_factory.hpp:77] Creating layer ip1
I0521 02:33:43.557782  8640 net.cpp:106] Creating Layer ip1
I0521 02:33:43.557793  8640 net.cpp:454] ip1 <- pool4
I0521 02:33:43.557806  8640 net.cpp:411] ip1 -> ip1
I0521 02:33:43.573207  8640 net.cpp:150] Setting up ip1
I0521 02:33:43.573230  8640 net.cpp:157] Top shape: 570 196 (111720)
I0521 02:33:43.573241  8640 net.cpp:165] Memory required for data: 898294920
I0521 02:33:43.573263  8640 layer_factory.hpp:77] Creating layer relu5
I0521 02:33:43.573278  8640 net.cpp:106] Creating Layer relu5
I0521 02:33:43.573288  8640 net.cpp:454] relu5 <- ip1
I0521 02:33:43.573302  8640 net.cpp:397] relu5 -> ip1 (in-place)
I0521 02:33:43.573652  8640 net.cpp:150] Setting up relu5
I0521 02:33:43.573665  8640 net.cpp:157] Top shape: 570 196 (111720)
I0521 02:33:43.573676  8640 net.cpp:165] Memory required for data: 898741800
I0521 02:33:43.573686  8640 layer_factory.hpp:77] Creating layer drop1
I0521 02:33:43.573705  8640 net.cpp:106] Creating Layer drop1
I0521 02:33:43.573715  8640 net.cpp:454] drop1 <- ip1
I0521 02:33:43.573727  8640 net.cpp:397] drop1 -> ip1 (in-place)
I0521 02:33:43.573772  8640 net.cpp:150] Setting up drop1
I0521 02:33:43.573784  8640 net.cpp:157] Top shape: 570 196 (111720)
I0521 02:33:43.573794  8640 net.cpp:165] Memory required for data: 899188680
I0521 02:33:43.573803  8640 layer_factory.hpp:77] Creating layer ip2
I0521 02:33:43.573818  8640 net.cpp:106] Creating Layer ip2
I0521 02:33:43.573828  8640 net.cpp:454] ip2 <- ip1
I0521 02:33:43.573842  8640 net.cpp:411] ip2 -> ip2
I0521 02:33:43.574321  8640 net.cpp:150] Setting up ip2
I0521 02:33:43.574334  8640 net.cpp:157] Top shape: 570 98 (55860)
I0521 02:33:43.574344  8640 net.cpp:165] Memory required for data: 899412120
I0521 02:33:43.574373  8640 layer_factory.hpp:77] Creating layer relu6
I0521 02:33:43.574386  8640 net.cpp:106] Creating Layer relu6
I0521 02:33:43.574395  8640 net.cpp:454] relu6 <- ip2
I0521 02:33:43.574409  8640 net.cpp:397] relu6 -> ip2 (in-place)
I0521 02:33:43.574939  8640 net.cpp:150] Setting up relu6
I0521 02:33:43.574955  8640 net.cpp:157] Top shape: 570 98 (55860)
I0521 02:33:43.574965  8640 net.cpp:165] Memory required for data: 899635560
I0521 02:33:43.574975  8640 layer_factory.hpp:77] Creating layer drop2
I0521 02:33:43.574988  8640 net.cpp:106] Creating Layer drop2
I0521 02:33:43.575000  8640 net.cpp:454] drop2 <- ip2
I0521 02:33:43.575012  8640 net.cpp:397] drop2 -> ip2 (in-place)
I0521 02:33:43.575057  8640 net.cpp:150] Setting up drop2
I0521 02:33:43.575069  8640 net.cpp:157] Top shape: 570 98 (55860)
I0521 02:33:43.575079  8640 net.cpp:165] Memory required for data: 899859000
I0521 02:33:43.575089  8640 layer_factory.hpp:77] Creating layer ip3
I0521 02:33:43.575103  8640 net.cpp:106] Creating Layer ip3
I0521 02:33:43.575114  8640 net.cpp:454] ip3 <- ip2
I0521 02:33:43.575127  8640 net.cpp:411] ip3 -> ip3
I0521 02:33:43.575357  8640 net.cpp:150] Setting up ip3
I0521 02:33:43.575371  8640 net.cpp:157] Top shape: 570 11 (6270)
I0521 02:33:43.575381  8640 net.cpp:165] Memory required for data: 899884080
I0521 02:33:43.575395  8640 layer_factory.hpp:77] Creating layer drop3
I0521 02:33:43.575408  8640 net.cpp:106] Creating Layer drop3
I0521 02:33:43.575418  8640 net.cpp:454] drop3 <- ip3
I0521 02:33:43.575431  8640 net.cpp:397] drop3 -> ip3 (in-place)
I0521 02:33:43.575472  8640 net.cpp:150] Setting up drop3
I0521 02:33:43.575485  8640 net.cpp:157] Top shape: 570 11 (6270)
I0521 02:33:43.575495  8640 net.cpp:165] Memory required for data: 899909160
I0521 02:33:43.575505  8640 layer_factory.hpp:77] Creating layer ip3_drop3_0_split
I0521 02:33:43.575517  8640 net.cpp:106] Creating Layer ip3_drop3_0_split
I0521 02:33:43.575527  8640 net.cpp:454] ip3_drop3_0_split <- ip3
I0521 02:33:43.575541  8640 net.cpp:411] ip3_drop3_0_split -> ip3_drop3_0_split_0
I0521 02:33:43.575556  8640 net.cpp:411] ip3_drop3_0_split -> ip3_drop3_0_split_1
I0521 02:33:43.575628  8640 net.cpp:150] Setting up ip3_drop3_0_split
I0521 02:33:43.575640  8640 net.cpp:157] Top shape: 570 11 (6270)
I0521 02:33:43.575652  8640 net.cpp:157] Top shape: 570 11 (6270)
I0521 02:33:43.575662  8640 net.cpp:165] Memory required for data: 899959320
I0521 02:33:43.575670  8640 layer_factory.hpp:77] Creating layer accuracy
I0521 02:33:43.575693  8640 net.cpp:106] Creating Layer accuracy
I0521 02:33:43.575703  8640 net.cpp:454] accuracy <- ip3_drop3_0_split_0
I0521 02:33:43.575714  8640 net.cpp:454] accuracy <- label_data_hdf5_1_split_0
I0521 02:33:43.575728  8640 net.cpp:411] accuracy -> accuracy
…
