…
I0521 04:55:05.582010 25138 net.cpp:322] The NetState phase (0) differed from the phase (1) specified by a rule in layer data_hdf5
I0521 04:55:05.582068 25138 net.cpp:322] The NetState phase (0) differed from the phase (1) specified by a rule in layer accuracy
I0521 04:55:05.582414 25138 net.cpp:49] Initializing net from parameters: 
name: "caffe_test_127x50_x_unshifted"
state {
  phase: TRAIN
}
layer {
  name: "data_hdf5"
  type: "HDF5Data"
  top: "data"
  top: "label"
  include {
    phase: TRAIN
  }
  hdf5_data_param {
    source: "/lustre/atlas/proj-shared/hep105/caffe_titan/minosmatch_nukecczdefs_127x50_x_unshifted_me1Bmc.trainlist"
    batch_size: 670
  }
}
layer {
  name: "conv1"
  type: "Convolution"
  bottom: "data"
  top: "conv1"
  convolution_param {
    num_output: 12
    pad: 0
    stride: 1
    weight_filler {
      type: "xavier"
    }
    bias_filler {
      type: "constant"
    }
    kernel_h: 8
    kernel_w: 3
  }
}
layer {
  name: "relu1"
  type: "ReLU"
  bottom: "conv1"
  top: "conv1"
}
layer {
  name: "pool1"
  type: "Pooling"
  bottom: "conv1"
  top: "pool1"
  pooling_param {
    pool: MAX
    kernel_h: 2
    kernel_w: 1
    stride_h: 2
    stride_w: 1
  }
}
layer {
  name: "conv2"
  type: "Convolution"
  bottom: "pool1"
  top: "conv2"
  convolution_param {
    num_output: 20
    pad: 0
    stride: 1
    weight_filler {
      type: "xavier"
    }
    bias_filler {
      type: "constant"
    }
    kernel_h: 7
    kernel_w: 3
  }
}
layer {
  name: "relu2"
  type: "ReLU"
  bottom: "conv2"
  top: "conv2"
}
layer {
  name: "pool2"
  type: "Pooling"
  bottom: "conv2"
  top: "pool2"
  pooling_param {
    pool: MAX
    kernel_h: 2
    kernel_w: 1
    stride_h: 2
    stride_w: 1
  }
}
layer {
  name: "conv3"
  type: "Convolution"
  bottom: "pool2"
  top: "conv3"
  convolution_param {
    num_output: 28
    pad: 0
    stride: 1
    weight_filler {
      type: "xavier"
    }
    bias_filler {
      type: "constant"
    }
    kernel_h: 6
    kernel_w: 3
  }
}
layer {
  name: "relu3"
  type: "ReLU"
  bottom: "conv3"
  top: "conv3"
}
layer {
  name: "pool3"
  type: "Pooling"
  bottom: "conv3"
  top: "pool3"
  pooling_param {
    pool: MAX
    kernel_h: 2
    kernel_w: 1
    stride_h: 2
    stride_w: 1
  }
}
layer {
  name: "conv4"
  type: "Convolution"
  bottom: "pool3"
  top: "conv4"
  convolution_param {
    num_output: 36
    pad: 0
    stride: 1
    weight_filler {
      type: "xavier"
    }
    bias_filler {
      type: "constant"
    }
    kernel_h: 6
    kernel_w: 3
  }
}
layer {
  name: "relu4"
  type: "ReLU"
  bottom: "conv4"
  top: "conv4"
}
layer {
  name: "pool4"
  type: "Pooling"
  bottom: "conv4"
  top: "pool4"
  pooling_param {
    pool: MAX
    kernel_h: 2
    kernel_w: 1
    stride_h: 2
    stride_w: 1
  }
}
layer {
  name: "ip1"
  type: "InnerProduct"
  bottom: "pool4"
  top: "ip1"
  inner_product_param {
    num_output: 196
    weight_filler {
      type: "xavier"
    }
    bias_filler {
      type: "constant"
    }
  }
}
layer {
  name: "relu5"
  type: "ReLU"
  bottom: "ip1"
  top: "ip1"
}
layer {
  name: "drop1"
  type: "Dropout"
  bottom: "ip1"
  top: "ip1"
  dropout_param {
    dropout_ratio: 0.5
  }
}
layer {
  name: "ip2"
  type: "InnerProduct"
  bottom: "ip1"
  top: "ip2"
  inner_product_param {
    num_output: 98
    weight_filler {
      type: "xavier"
    }
    bias_filler {
      type: "constant"
    }
  }
}
layer {
  name: "relu6"
  type: "ReLU"
  bottom: "ip2"
  top: "ip2"
}
layer {
  name: "drop2"
  type: "Dropout"
  bottom: "ip2"
  top: "ip2"
  dropout_param {
    dropout_ratio: 0.5
  }
}
layer {
  name: "ip3"
  type: "InnerProduct"
  bottom: "ip2"
  top: "ip3"
  inner_product_param {
    num_output: 11
    weight_filler {
      type: "xavier"
    }
    bias_filler {
      type: "constant"
    }
  }
}
layer {
  name: "drop3"
  type: "Dropout"
  bottom: "ip3"
  top: "ip3"
  dropout_param {
    dropout_ratio: 0.5
  }
}
layer {
  name: "loss"
  type: "SoftmaxWithLoss"
  bottom: "ip3"
  bottom: "label"
  top: "loss"
}
I0521 04:55:05.582590 25138 layer_factory.hpp:77] Creating layer data_hdf5
I0521 04:55:05.582614 25138 net.cpp:106] Creating Layer data_hdf5
I0521 04:55:05.582628 25138 net.cpp:411] data_hdf5 -> data
I0521 04:55:05.582662 25138 net.cpp:411] data_hdf5 -> label
I0521 04:55:05.582695 25138 hdf5_data_layer.cpp:79] Loading list of HDF5 filenames from: /lustre/atlas/proj-shared/hep105/caffe_titan/minosmatch_nukecczdefs_127x50_x_unshifted_me1Bmc.trainlist
I0521 04:55:05.584465 25138 hdf5_data_layer.cpp:93] Number of HDF5 files: 15
I0521 04:55:05.586725 25138 hdf5.cpp:32] Datatype class: H5T_FLOAT
I0521 04:55:27.122953 25138 hdf5.cpp:35] Datatype class: H5T_INTEGER
I0521 04:55:27.128070 25138 net.cpp:150] Setting up data_hdf5
I0521 04:55:27.128110 25138 net.cpp:157] Top shape: 670 1 127 50 (4254500)
I0521 04:55:27.128124 25138 net.cpp:157] Top shape: 670 (670)
I0521 04:55:27.128139 25138 net.cpp:165] Memory required for data: 17020680
I0521 04:55:27.128151 25138 layer_factory.hpp:77] Creating layer conv1
I0521 04:55:27.128185 25138 net.cpp:106] Creating Layer conv1
I0521 04:55:27.128196 25138 net.cpp:454] conv1 <- data
I0521 04:55:27.128216 25138 net.cpp:411] conv1 -> conv1
I0521 04:55:27.538431 25138 net.cpp:150] Setting up conv1
I0521 04:55:27.538477 25138 net.cpp:157] Top shape: 670 12 120 48 (46310400)
I0521 04:55:27.538488 25138 net.cpp:165] Memory required for data: 202262280
I0521 04:55:27.538518 25138 layer_factory.hpp:77] Creating layer relu1
I0521 04:55:27.538538 25138 net.cpp:106] Creating Layer relu1
I0521 04:55:27.538550 25138 net.cpp:454] relu1 <- conv1
I0521 04:55:27.538563 25138 net.cpp:397] relu1 -> conv1 (in-place)
I0521 04:55:27.539077 25138 net.cpp:150] Setting up relu1
I0521 04:55:27.539093 25138 net.cpp:157] Top shape: 670 12 120 48 (46310400)
I0521 04:55:27.539103 25138 net.cpp:165] Memory required for data: 387503880
I0521 04:55:27.539114 25138 layer_factory.hpp:77] Creating layer pool1
I0521 04:55:27.539132 25138 net.cpp:106] Creating Layer pool1
I0521 04:55:27.539141 25138 net.cpp:454] pool1 <- conv1
I0521 04:55:27.539155 25138 net.cpp:411] pool1 -> pool1
I0521 04:55:27.539233 25138 net.cpp:150] Setting up pool1
I0521 04:55:27.539247 25138 net.cpp:157] Top shape: 670 12 60 48 (23155200)
I0521 04:55:27.539258 25138 net.cpp:165] Memory required for data: 480124680
I0521 04:55:27.539265 25138 layer_factory.hpp:77] Creating layer conv2
I0521 04:55:27.539288 25138 net.cpp:106] Creating Layer conv2
I0521 04:55:27.539299 25138 net.cpp:454] conv2 <- pool1
I0521 04:55:27.539311 25138 net.cpp:411] conv2 -> conv2
I0521 04:55:27.541986 25138 net.cpp:150] Setting up conv2
I0521 04:55:27.542008 25138 net.cpp:157] Top shape: 670 20 54 46 (33285600)
I0521 04:55:27.542024 25138 net.cpp:165] Memory required for data: 613267080
I0521 04:55:27.542044 25138 layer_factory.hpp:77] Creating layer relu2
I0521 04:55:27.542058 25138 net.cpp:106] Creating Layer relu2
I0521 04:55:27.542068 25138 net.cpp:454] relu2 <- conv2
I0521 04:55:27.542081 25138 net.cpp:397] relu2 -> conv2 (in-place)
I0521 04:55:27.542412 25138 net.cpp:150] Setting up relu2
I0521 04:55:27.542425 25138 net.cpp:157] Top shape: 670 20 54 46 (33285600)
I0521 04:55:27.542435 25138 net.cpp:165] Memory required for data: 746409480
I0521 04:55:27.542445 25138 layer_factory.hpp:77] Creating layer pool2
I0521 04:55:27.542459 25138 net.cpp:106] Creating Layer pool2
I0521 04:55:27.542469 25138 net.cpp:454] pool2 <- conv2
I0521 04:55:27.542493 25138 net.cpp:411] pool2 -> pool2
I0521 04:55:27.542562 25138 net.cpp:150] Setting up pool2
I0521 04:55:27.542575 25138 net.cpp:157] Top shape: 670 20 27 46 (16642800)
I0521 04:55:27.542585 25138 net.cpp:165] Memory required for data: 812980680
I0521 04:55:27.542595 25138 layer_factory.hpp:77] Creating layer conv3
I0521 04:55:27.542613 25138 net.cpp:106] Creating Layer conv3
I0521 04:55:27.542624 25138 net.cpp:454] conv3 <- pool2
I0521 04:55:27.542637 25138 net.cpp:411] conv3 -> conv3
I0521 04:55:27.544546 25138 net.cpp:150] Setting up conv3
I0521 04:55:27.544569 25138 net.cpp:157] Top shape: 670 28 22 44 (18159680)
I0521 04:55:27.544580 25138 net.cpp:165] Memory required for data: 885619400
I0521 04:55:27.544598 25138 layer_factory.hpp:77] Creating layer relu3
I0521 04:55:27.544615 25138 net.cpp:106] Creating Layer relu3
I0521 04:55:27.544625 25138 net.cpp:454] relu3 <- conv3
I0521 04:55:27.544636 25138 net.cpp:397] relu3 -> conv3 (in-place)
I0521 04:55:27.545112 25138 net.cpp:150] Setting up relu3
I0521 04:55:27.545130 25138 net.cpp:157] Top shape: 670 28 22 44 (18159680)
I0521 04:55:27.545140 25138 net.cpp:165] Memory required for data: 958258120
I0521 04:55:27.545150 25138 layer_factory.hpp:77] Creating layer pool3
I0521 04:55:27.545162 25138 net.cpp:106] Creating Layer pool3
I0521 04:55:27.545172 25138 net.cpp:454] pool3 <- conv3
I0521 04:55:27.545186 25138 net.cpp:411] pool3 -> pool3
I0521 04:55:27.545253 25138 net.cpp:150] Setting up pool3
I0521 04:55:27.545266 25138 net.cpp:157] Top shape: 670 28 11 44 (9079840)
I0521 04:55:27.545276 25138 net.cpp:165] Memory required for data: 994577480
I0521 04:55:27.545284 25138 layer_factory.hpp:77] Creating layer conv4
I0521 04:55:27.545301 25138 net.cpp:106] Creating Layer conv4
I0521 04:55:27.545311 25138 net.cpp:454] conv4 <- pool3
I0521 04:55:27.545325 25138 net.cpp:411] conv4 -> conv4
I0521 04:55:27.548116 25138 net.cpp:150] Setting up conv4
I0521 04:55:27.548146 25138 net.cpp:157] Top shape: 670 36 6 42 (6078240)
I0521 04:55:27.548156 25138 net.cpp:165] Memory required for data: 1018890440
I0521 04:55:27.548171 25138 layer_factory.hpp:77] Creating layer relu4
I0521 04:55:27.548185 25138 net.cpp:106] Creating Layer relu4
I0521 04:55:27.548195 25138 net.cpp:454] relu4 <- conv4
I0521 04:55:27.548208 25138 net.cpp:397] relu4 -> conv4 (in-place)
I0521 04:55:27.548678 25138 net.cpp:150] Setting up relu4
I0521 04:55:27.548693 25138 net.cpp:157] Top shape: 670 36 6 42 (6078240)
I0521 04:55:27.548704 25138 net.cpp:165] Memory required for data: 1043203400
I0521 04:55:27.548714 25138 layer_factory.hpp:77] Creating layer pool4
I0521 04:55:27.548727 25138 net.cpp:106] Creating Layer pool4
I0521 04:55:27.548738 25138 net.cpp:454] pool4 <- conv4
I0521 04:55:27.548750 25138 net.cpp:411] pool4 -> pool4
I0521 04:55:27.548820 25138 net.cpp:150] Setting up pool4
I0521 04:55:27.548832 25138 net.cpp:157] Top shape: 670 36 3 42 (3039120)
I0521 04:55:27.548843 25138 net.cpp:165] Memory required for data: 1055359880
I0521 04:55:27.548853 25138 layer_factory.hpp:77] Creating layer ip1
I0521 04:55:27.548873 25138 net.cpp:106] Creating Layer ip1
I0521 04:55:27.548883 25138 net.cpp:454] ip1 <- pool4
I0521 04:55:27.548897 25138 net.cpp:411] ip1 -> ip1
I0521 04:55:27.564265 25138 net.cpp:150] Setting up ip1
I0521 04:55:27.564293 25138 net.cpp:157] Top shape: 670 196 (131320)
I0521 04:55:27.564306 25138 net.cpp:165] Memory required for data: 1055885160
I0521 04:55:27.564327 25138 layer_factory.hpp:77] Creating layer relu5
I0521 04:55:27.564342 25138 net.cpp:106] Creating Layer relu5
I0521 04:55:27.564352 25138 net.cpp:454] relu5 <- ip1
I0521 04:55:27.564364 25138 net.cpp:397] relu5 -> ip1 (in-place)
I0521 04:55:27.564707 25138 net.cpp:150] Setting up relu5
I0521 04:55:27.564720 25138 net.cpp:157] Top shape: 670 196 (131320)
I0521 04:55:27.564730 25138 net.cpp:165] Memory required for data: 1056410440
I0521 04:55:27.564740 25138 layer_factory.hpp:77] Creating layer drop1
I0521 04:55:27.564761 25138 net.cpp:106] Creating Layer drop1
I0521 04:55:27.564771 25138 net.cpp:454] drop1 <- ip1
I0521 04:55:27.564797 25138 net.cpp:397] drop1 -> ip1 (in-place)
I0521 04:55:27.564843 25138 net.cpp:150] Setting up drop1
I0521 04:55:27.564857 25138 net.cpp:157] Top shape: 670 196 (131320)
I0521 04:55:27.564867 25138 net.cpp:165] Memory required for data: 1056935720
I0521 04:55:27.564877 25138 layer_factory.hpp:77] Creating layer ip2
I0521 04:55:27.564895 25138 net.cpp:106] Creating Layer ip2
I0521 04:55:27.564913 25138 net.cpp:454] ip2 <- ip1
I0521 04:55:27.564925 25138 net.cpp:411] ip2 -> ip2
I0521 04:55:27.565389 25138 net.cpp:150] Setting up ip2
I0521 04:55:27.565402 25138 net.cpp:157] Top shape: 670 98 (65660)
I0521 04:55:27.565412 25138 net.cpp:165] Memory required for data: 1057198360
I0521 04:55:27.565428 25138 layer_factory.hpp:77] Creating layer relu6
I0521 04:55:27.565440 25138 net.cpp:106] Creating Layer relu6
I0521 04:55:27.565450 25138 net.cpp:454] relu6 <- ip2
I0521 04:55:27.565462 25138 net.cpp:397] relu6 -> ip2 (in-place)
I0521 04:55:27.565981 25138 net.cpp:150] Setting up relu6
I0521 04:55:27.565997 25138 net.cpp:157] Top shape: 670 98 (65660)
I0521 04:55:27.566007 25138 net.cpp:165] Memory required for data: 1057461000
I0521 04:55:27.566017 25138 layer_factory.hpp:77] Creating layer drop2
I0521 04:55:27.566030 25138 net.cpp:106] Creating Layer drop2
I0521 04:55:27.566040 25138 net.cpp:454] drop2 <- ip2
I0521 04:55:27.566052 25138 net.cpp:397] drop2 -> ip2 (in-place)
I0521 04:55:27.566094 25138 net.cpp:150] Setting up drop2
I0521 04:55:27.566107 25138 net.cpp:157] Top shape: 670 98 (65660)
I0521 04:55:27.566118 25138 net.cpp:165] Memory required for data: 1057723640
I0521 04:55:27.566128 25138 layer_factory.hpp:77] Creating layer ip3
I0521 04:55:27.566140 25138 net.cpp:106] Creating Layer ip3
I0521 04:55:27.566149 25138 net.cpp:454] ip3 <- ip2
I0521 04:55:27.566162 25138 net.cpp:411] ip3 -> ip3
I0521 04:55:27.566371 25138 net.cpp:150] Setting up ip3
I0521 04:55:27.566385 25138 net.cpp:157] Top shape: 670 11 (7370)
I0521 04:55:27.566395 25138 net.cpp:165] Memory required for data: 1057753120
I0521 04:55:27.566409 25138 layer_factory.hpp:77] Creating layer drop3
I0521 04:55:27.566421 25138 net.cpp:106] Creating Layer drop3
I0521 04:55:27.566431 25138 net.cpp:454] drop3 <- ip3
I0521 04:55:27.566442 25138 net.cpp:397] drop3 -> ip3 (in-place)
I0521 04:55:27.566483 25138 net.cpp:150] Setting up drop3
I0521 04:55:27.566494 25138 net.cpp:157] Top shape: 670 11 (7370)
I0521 04:55:27.566504 25138 net.cpp:165] Memory required for data: 1057782600
I0521 04:55:27.566514 25138 layer_factory.hpp:77] Creating layer loss
I0521 04:55:27.566532 25138 net.cpp:106] Creating Layer loss
I0521 04:55:27.566542 25138 net.cpp:454] loss <- ip3
I0521 04:55:27.566553 25138 net.cpp:454] loss <- label
I0521 04:55:27.566566 25138 net.cpp:411] loss -> loss
I0521 04:55:27.566583 25138 layer_factory.hpp:77] Creating layer loss
…
I0521 04:55:27.569165 25138 solver.cpp:181] Creating test net (#0) specified by net file: /lustre/atlas/proj-shared/hep105/caffe_titan/caffe_workflow/logs_batch_size_test/batch_size_670_2016-05-20T11.20.56.982241.prototxt
I0521 04:55:27.569236 25138 net.cpp:322] The NetState phase (1) differed from the phase (0) specified by a rule in layer data_hdf5
I0521 04:55:27.569591 25138 net.cpp:49] Initializing net from parameters: 
name: "caffe_test_127x50_x_unshifted"
state {
  phase: TEST
}
layer {
  name: "data_hdf5"
  type: "HDF5Data"
  top: "data"
  top: "label"
  include {
    phase: TEST
  }
  hdf5_data_param {
    source: "/lustre/atlas/proj-shared/hep105/caffe_titan/minosmatch_nukecczdefs_127x50_x_unshifted_me1Bmc.testlist"
    batch_size: 670
  }
}
layer {
  name: "conv1"
  type: "Convolution"
  bottom: "data"
  top: "conv1"
  convolution_param {
    num_output: 12
    pad: 0
    stride: 1
    weight_filler {
      type: "xavier"
    }
    bias_filler {
      type: "constant"
    }
    kernel_h: 8
    kernel_w: 3
  }
}
layer {
  name: "relu1"
  type: "ReLU"
  bottom: "conv1"
  top: "conv1"
}
layer {
  name: "pool1"
  type: "Pooling"
  bottom: "conv1"
  top: "pool1"
  pooling_param {
    pool: MAX
    kernel_h: 2
    kernel_w: 1
    stride_h: 2
    stride_w: 1
  }
}
layer {
  name: "conv2"
  type: "Convolution"
  bottom: "pool1"
  top: "conv2"
  convolution_param {
    num_output: 20
    pad: 0
    stride: 1
    weight_filler {
      type: "xavier"
    }
    bias_filler {
      type: "constant"
    }
    kernel_h: 7
    kernel_w: 3
  }
}
layer {
  name: "relu2"
  type: "ReLU"
  bottom: "conv2"
  top: "conv2"
}
layer {
  name: "pool2"
  type: "Pooling"
  bottom: "conv2"
  top: "pool2"
  pooling_param {
    pool: MAX
    kernel_h: 2
    kernel_w: 1
    stride_h: 2
    stride_w: 1
  }
}
layer {
  name: "conv3"
  type: "Convolution"
  bottom: "pool2"
  top: "conv3"
  convolution_param {
    num_output: 28
    pad: 0
    stride: 1
    weight_filler {
      type: "xavier"
    }
    bias_filler {
      type: "constant"
    }
    kernel_h: 6
    kernel_w: 3
  }
}
layer {
  name: "relu3"
  type: "ReLU"
  bottom: "conv3"
  top: "conv3"
}
layer {
  name: "pool3"
  type: "Pooling"
  bottom: "conv3"
  top: "pool3"
  pooling_param {
    pool: MAX
    kernel_h: 2
    kernel_w: 1
    stride_h: 2
    stride_w: 1
  }
}
layer {
  name: "conv4"
  type: "Convolution"
  bottom: "pool3"
  top: "conv4"
  convolution_param {
    num_output: 36
    pad: 0
    stride: 1
    weight_filler {
      type: "xavier"
    }
    bias_filler {
      type: "constant"
    }
    kernel_h: 6
    kernel_w: 3
  }
}
layer {
  name: "relu4"
  type: "ReLU"
  bottom: "conv4"
  top: "conv4"
}
layer {
  name: "pool4"
  type: "Pooling"
  bottom: "conv4"
  top: "pool4"
  pooling_param {
    pool: MAX
    kernel_h: 2
    kernel_w: 1
    stride_h: 2
    stride_w: 1
  }
}
layer {
  name: "ip1"
  type: "InnerProduct"
  bottom: "pool4"
  top: "ip1"
  inner_product_param {
    num_output: 196
    weight_filler {
      type: "xavier"
    }
    bias_filler {
      type: "constant"
    }
  }
}
layer {
  name: "relu5"
  type: "ReLU"
  bottom: "ip1"
  top: "ip1"
}
layer {
  name: "drop1"
  type: "Dropout"
  bottom: "ip1"
  top: "ip1"
  dropout_param {
    dropout_ratio: 0.5
  }
}
layer {
  name: "ip2"
  type: "InnerProduct"
  bottom: "ip1"
  top: "ip2"
  inner_product_param {
    num_output: 98
    weight_filler {
      type: "xavier"
    }
    bias_filler {
      type: "constant"
    }
  }
}
layer {
  name: "relu6"
  type: "ReLU"
  bottom: "ip2"
  top: "ip2"
}
layer {
  name: "drop2"
  type: "Dropout"
  bottom: "ip2"
  top: "ip2"
  dropout_param {
    dropout_ratio: 0.5
  }
}
layer {
  name: "ip3"
  type: "InnerProduct"
  bottom: "ip2"
  top: "ip3"
  inner_product_param {
    num_output: 11
    weight_filler {
      type: "xavier"
    }
    bias_filler {
      type: "constant"
    }
  }
}
layer {
  name: "drop3"
  type: "Dropout"
  bottom: "ip3"
  top: "ip3"
  dropout_param {
    dropout_ratio: 0.5
  }
}
layer {
  name: "accuracy"
  type: "Accuracy"
  bottom: "ip3"
  bottom: "label"
  top: "accuracy"
  include {
    phase: TEST
  }
}
layer {
  name: "loss"
  type: "SoftmaxWithLoss"
  bottom: "ip3"
  bottom: "label"
  top: "loss"
}
I0521 04:55:27.569779 25138 layer_factory.hpp:77] Creating layer data_hdf5
I0521 04:55:27.569794 25138 net.cpp:106] Creating Layer data_hdf5
I0521 04:55:27.569807 25138 net.cpp:411] data_hdf5 -> data
I0521 04:55:27.569823 25138 net.cpp:411] data_hdf5 -> label
I0521 04:55:27.569839 25138 hdf5_data_layer.cpp:79] Loading list of HDF5 filenames from: /lustre/atlas/proj-shared/hep105/caffe_titan/minosmatch_nukecczdefs_127x50_x_unshifted_me1Bmc.testlist
I0521 04:55:27.571075 25138 hdf5_data_layer.cpp:93] Number of HDF5 files: 3
I0521 04:55:48.921259 25138 net.cpp:150] Setting up data_hdf5
I0521 04:55:48.921425 25138 net.cpp:157] Top shape: 670 1 127 50 (4254500)
I0521 04:55:48.921440 25138 net.cpp:157] Top shape: 670 (670)
I0521 04:55:48.921452 25138 net.cpp:165] Memory required for data: 17020680
I0521 04:55:48.921466 25138 layer_factory.hpp:77] Creating layer label_data_hdf5_1_split
I0521 04:55:48.921494 25138 net.cpp:106] Creating Layer label_data_hdf5_1_split
I0521 04:55:48.921505 25138 net.cpp:454] label_data_hdf5_1_split <- label
I0521 04:55:48.921519 25138 net.cpp:411] label_data_hdf5_1_split -> label_data_hdf5_1_split_0
I0521 04:55:48.921541 25138 net.cpp:411] label_data_hdf5_1_split -> label_data_hdf5_1_split_1
I0521 04:55:48.921613 25138 net.cpp:150] Setting up label_data_hdf5_1_split
I0521 04:55:48.921627 25138 net.cpp:157] Top shape: 670 (670)
I0521 04:55:48.921638 25138 net.cpp:157] Top shape: 670 (670)
I0521 04:55:48.921648 25138 net.cpp:165] Memory required for data: 17026040
I0521 04:55:48.921658 25138 layer_factory.hpp:77] Creating layer conv1
I0521 04:55:48.921677 25138 net.cpp:106] Creating Layer conv1
I0521 04:55:48.921689 25138 net.cpp:454] conv1 <- data
I0521 04:55:48.921703 25138 net.cpp:411] conv1 -> conv1
I0521 04:55:48.923638 25138 net.cpp:150] Setting up conv1
I0521 04:55:48.923662 25138 net.cpp:157] Top shape: 670 12 120 48 (46310400)
I0521 04:55:48.923674 25138 net.cpp:165] Memory required for data: 202267640
I0521 04:55:48.923694 25138 layer_factory.hpp:77] Creating layer relu1
I0521 04:55:48.923709 25138 net.cpp:106] Creating Layer relu1
I0521 04:55:48.923719 25138 net.cpp:454] relu1 <- conv1
I0521 04:55:48.923732 25138 net.cpp:397] relu1 -> conv1 (in-place)
I0521 04:55:48.924231 25138 net.cpp:150] Setting up relu1
I0521 04:55:48.924247 25138 net.cpp:157] Top shape: 670 12 120 48 (46310400)
I0521 04:55:48.924257 25138 net.cpp:165] Memory required for data: 387509240
I0521 04:55:48.924268 25138 layer_factory.hpp:77] Creating layer pool1
I0521 04:55:48.924283 25138 net.cpp:106] Creating Layer pool1
I0521 04:55:48.924293 25138 net.cpp:454] pool1 <- conv1
I0521 04:55:48.924307 25138 net.cpp:411] pool1 -> pool1
I0521 04:55:48.924381 25138 net.cpp:150] Setting up pool1
I0521 04:55:48.924394 25138 net.cpp:157] Top shape: 670 12 60 48 (23155200)
I0521 04:55:48.924404 25138 net.cpp:165] Memory required for data: 480130040
I0521 04:55:48.924414 25138 layer_factory.hpp:77] Creating layer conv2
I0521 04:55:48.924432 25138 net.cpp:106] Creating Layer conv2
I0521 04:55:48.924443 25138 net.cpp:454] conv2 <- pool1
I0521 04:55:48.924456 25138 net.cpp:411] conv2 -> conv2
I0521 04:55:48.926373 25138 net.cpp:150] Setting up conv2
I0521 04:55:48.926393 25138 net.cpp:157] Top shape: 670 20 54 46 (33285600)
I0521 04:55:48.926408 25138 net.cpp:165] Memory required for data: 613272440
I0521 04:55:48.926427 25138 layer_factory.hpp:77] Creating layer relu2
I0521 04:55:48.926440 25138 net.cpp:106] Creating Layer relu2
I0521 04:55:48.926450 25138 net.cpp:454] relu2 <- conv2
I0521 04:55:48.926462 25138 net.cpp:397] relu2 -> conv2 (in-place)
I0521 04:55:48.926794 25138 net.cpp:150] Setting up relu2
I0521 04:55:48.926806 25138 net.cpp:157] Top shape: 670 20 54 46 (33285600)
I0521 04:55:48.926817 25138 net.cpp:165] Memory required for data: 746414840
I0521 04:55:48.926828 25138 layer_factory.hpp:77] Creating layer pool2
I0521 04:55:48.926841 25138 net.cpp:106] Creating Layer pool2
I0521 04:55:48.926851 25138 net.cpp:454] pool2 <- conv2
I0521 04:55:48.926863 25138 net.cpp:411] pool2 -> pool2
I0521 04:55:48.926934 25138 net.cpp:150] Setting up pool2
I0521 04:55:48.926946 25138 net.cpp:157] Top shape: 670 20 27 46 (16642800)
I0521 04:55:48.926956 25138 net.cpp:165] Memory required for data: 812986040
I0521 04:55:48.926964 25138 layer_factory.hpp:77] Creating layer conv3
I0521 04:55:48.926985 25138 net.cpp:106] Creating Layer conv3
I0521 04:55:48.926995 25138 net.cpp:454] conv3 <- pool2
I0521 04:55:48.927008 25138 net.cpp:411] conv3 -> conv3
I0521 04:55:48.928977 25138 net.cpp:150] Setting up conv3
I0521 04:55:48.929000 25138 net.cpp:157] Top shape: 670 28 22 44 (18159680)
I0521 04:55:48.929013 25138 net.cpp:165] Memory required for data: 885624760
I0521 04:55:48.929044 25138 layer_factory.hpp:77] Creating layer relu3
I0521 04:55:48.929057 25138 net.cpp:106] Creating Layer relu3
I0521 04:55:48.929067 25138 net.cpp:454] relu3 <- conv3
I0521 04:55:48.929081 25138 net.cpp:397] relu3 -> conv3 (in-place)
I0521 04:55:48.929556 25138 net.cpp:150] Setting up relu3
I0521 04:55:48.929572 25138 net.cpp:157] Top shape: 670 28 22 44 (18159680)
I0521 04:55:48.929582 25138 net.cpp:165] Memory required for data: 958263480
I0521 04:55:48.929592 25138 layer_factory.hpp:77] Creating layer pool3
I0521 04:55:48.929605 25138 net.cpp:106] Creating Layer pool3
I0521 04:55:48.929615 25138 net.cpp:454] pool3 <- conv3
I0521 04:55:48.929628 25138 net.cpp:411] pool3 -> pool3
I0521 04:55:48.929700 25138 net.cpp:150] Setting up pool3
I0521 04:55:48.929714 25138 net.cpp:157] Top shape: 670 28 11 44 (9079840)
I0521 04:55:48.929723 25138 net.cpp:165] Memory required for data: 994582840
I0521 04:55:48.929733 25138 layer_factory.hpp:77] Creating layer conv4
I0521 04:55:48.929750 25138 net.cpp:106] Creating Layer conv4
I0521 04:55:48.929760 25138 net.cpp:454] conv4 <- pool3
I0521 04:55:48.929774 25138 net.cpp:411] conv4 -> conv4
I0521 04:55:48.931819 25138 net.cpp:150] Setting up conv4
I0521 04:55:48.931841 25138 net.cpp:157] Top shape: 670 36 6 42 (6078240)
I0521 04:55:48.931854 25138 net.cpp:165] Memory required for data: 1018895800
I0521 04:55:48.931869 25138 layer_factory.hpp:77] Creating layer relu4
I0521 04:55:48.931882 25138 net.cpp:106] Creating Layer relu4
I0521 04:55:48.931892 25138 net.cpp:454] relu4 <- conv4
I0521 04:55:48.931905 25138 net.cpp:397] relu4 -> conv4 (in-place)
I0521 04:55:48.932373 25138 net.cpp:150] Setting up relu4
I0521 04:55:48.932389 25138 net.cpp:157] Top shape: 670 36 6 42 (6078240)
I0521 04:55:48.932399 25138 net.cpp:165] Memory required for data: 1043208760
I0521 04:55:48.932409 25138 layer_factory.hpp:77] Creating layer pool4
I0521 04:55:48.932421 25138 net.cpp:106] Creating Layer pool4
I0521 04:55:48.932431 25138 net.cpp:454] pool4 <- conv4
I0521 04:55:48.932445 25138 net.cpp:411] pool4 -> pool4
I0521 04:55:48.932515 25138 net.cpp:150] Setting up pool4
I0521 04:55:48.932529 25138 net.cpp:157] Top shape: 670 36 3 42 (3039120)
I0521 04:55:48.932539 25138 net.cpp:165] Memory required for data: 1055365240
I0521 04:55:48.932548 25138 layer_factory.hpp:77] Creating layer ip1
I0521 04:55:48.932564 25138 net.cpp:106] Creating Layer ip1
I0521 04:55:48.932574 25138 net.cpp:454] ip1 <- pool4
I0521 04:55:48.932588 25138 net.cpp:411] ip1 -> ip1
I0521 04:55:48.948027 25138 net.cpp:150] Setting up ip1
I0521 04:55:48.948056 25138 net.cpp:157] Top shape: 670 196 (131320)
I0521 04:55:48.948067 25138 net.cpp:165] Memory required for data: 1055890520
I0521 04:55:48.948089 25138 layer_factory.hpp:77] Creating layer relu5
I0521 04:55:48.948104 25138 net.cpp:106] Creating Layer relu5
I0521 04:55:48.948114 25138 net.cpp:454] relu5 <- ip1
I0521 04:55:48.948128 25138 net.cpp:397] relu5 -> ip1 (in-place)
I0521 04:55:48.948475 25138 net.cpp:150] Setting up relu5
I0521 04:55:48.948489 25138 net.cpp:157] Top shape: 670 196 (131320)
I0521 04:55:48.948499 25138 net.cpp:165] Memory required for data: 1056415800
I0521 04:55:48.948510 25138 layer_factory.hpp:77] Creating layer drop1
I0521 04:55:48.948529 25138 net.cpp:106] Creating Layer drop1
I0521 04:55:48.948539 25138 net.cpp:454] drop1 <- ip1
I0521 04:55:48.948552 25138 net.cpp:397] drop1 -> ip1 (in-place)
I0521 04:55:48.948596 25138 net.cpp:150] Setting up drop1
I0521 04:55:48.948609 25138 net.cpp:157] Top shape: 670 196 (131320)
I0521 04:55:48.948618 25138 net.cpp:165] Memory required for data: 1056941080
I0521 04:55:48.948628 25138 layer_factory.hpp:77] Creating layer ip2
I0521 04:55:48.948643 25138 net.cpp:106] Creating Layer ip2
I0521 04:55:48.948652 25138 net.cpp:454] ip2 <- ip1
I0521 04:55:48.948668 25138 net.cpp:411] ip2 -> ip2
I0521 04:55:48.949154 25138 net.cpp:150] Setting up ip2
I0521 04:55:48.949167 25138 net.cpp:157] Top shape: 670 98 (65660)
I0521 04:55:48.949177 25138 net.cpp:165] Memory required for data: 1057203720
I0521 04:55:48.949204 25138 layer_factory.hpp:77] Creating layer relu6
I0521 04:55:48.949218 25138 net.cpp:106] Creating Layer relu6
I0521 04:55:48.949228 25138 net.cpp:454] relu6 <- ip2
I0521 04:55:48.949240 25138 net.cpp:397] relu6 -> ip2 (in-place)
I0521 04:55:48.949769 25138 net.cpp:150] Setting up relu6
I0521 04:55:48.949785 25138 net.cpp:157] Top shape: 670 98 (65660)
I0521 04:55:48.949795 25138 net.cpp:165] Memory required for data: 1057466360
I0521 04:55:48.949805 25138 layer_factory.hpp:77] Creating layer drop2
I0521 04:55:48.949818 25138 net.cpp:106] Creating Layer drop2
I0521 04:55:48.949828 25138 net.cpp:454] drop2 <- ip2
I0521 04:55:48.949841 25138 net.cpp:397] drop2 -> ip2 (in-place)
I0521 04:55:48.949885 25138 net.cpp:150] Setting up drop2
I0521 04:55:48.949898 25138 net.cpp:157] Top shape: 670 98 (65660)
I0521 04:55:48.949908 25138 net.cpp:165] Memory required for data: 1057729000
I0521 04:55:48.949918 25138 layer_factory.hpp:77] Creating layer ip3
I0521 04:55:48.949933 25138 net.cpp:106] Creating Layer ip3
I0521 04:55:48.949942 25138 net.cpp:454] ip3 <- ip2
I0521 04:55:48.949956 25138 net.cpp:411] ip3 -> ip3
I0521 04:55:48.950181 25138 net.cpp:150] Setting up ip3
I0521 04:55:48.950193 25138 net.cpp:157] Top shape: 670 11 (7370)
I0521 04:55:48.950203 25138 net.cpp:165] Memory required for data: 1057758480
I0521 04:55:48.950218 25138 layer_factory.hpp:77] Creating layer drop3
I0521 04:55:48.950232 25138 net.cpp:106] Creating Layer drop3
I0521 04:55:48.950242 25138 net.cpp:454] drop3 <- ip3
I0521 04:55:48.950254 25138 net.cpp:397] drop3 -> ip3 (in-place)
I0521 04:55:48.950295 25138 net.cpp:150] Setting up drop3
I0521 04:55:48.950309 25138 net.cpp:157] Top shape: 670 11 (7370)
I0521 04:55:48.950319 25138 net.cpp:165] Memory required for data: 1057787960
I0521 04:55:48.950328 25138 layer_factory.hpp:77] Creating layer ip3_drop3_0_split
I0521 04:55:48.950340 25138 net.cpp:106] Creating Layer ip3_drop3_0_split
I0521 04:55:48.950350 25138 net.cpp:454] ip3_drop3_0_split <- ip3
I0521 04:55:48.950363 25138 net.cpp:411] ip3_drop3_0_split -> ip3_drop3_0_split_0
I0521 04:55:48.950378 25138 net.cpp:411] ip3_drop3_0_split -> ip3_drop3_0_split_1
I0521 04:55:48.950460 25138 net.cpp:150] Setting up ip3_drop3_0_split
I0521 04:55:48.950474 25138 net.cpp:157] Top shape: 670 11 (7370)
I0521 04:55:48.950485 25138 net.cpp:157] Top shape: 670 11 (7370)
I0521 04:55:48.950495 25138 net.cpp:165] Memory required for data: 1057846920
I0521 04:55:48.950503 25138 layer_factory.hpp:77] Creating layer accuracy
I0521 04:55:48.950525 25138 net.cpp:106] Creating Layer accuracy
I0521 04:55:48.950536 25138 net.cpp:454] accuracy <- ip3_drop3_0_split_0
I0521 04:55:48.950546 25138 net.cpp:454] accuracy <- label_data_hdf5_1_split_0
I0521 04:55:48.950561 25138 net.cpp:411] accuracy -> accuracy
…
