…
I0521 01:48:59.970396  8072 net.cpp:322] The NetState phase (0) differed from the phase (1) specified by a rule in layer data_hdf5
I0521 01:48:59.970455  8072 net.cpp:322] The NetState phase (0) differed from the phase (1) specified by a rule in layer accuracy
I0521 01:48:59.970801  8072 net.cpp:49] Initializing net from parameters: 
name: "caffe_test_127x50_x_unshifted"
state {
  phase: TRAIN
}
layer {
  name: "data_hdf5"
  type: "HDF5Data"
  top: "data"
  top: "label"
  include {
    phase: TRAIN
  }
  hdf5_data_param {
    source: "/lustre/atlas/proj-shared/hep105/caffe_titan/minosmatch_nukecczdefs_127x50_x_unshifted_me1Bmc.trainlist"
    batch_size: 540
  }
}
layer {
  name: "conv1"
  type: "Convolution"
  bottom: "data"
  top: "conv1"
  convolution_param {
    num_output: 12
    pad: 0
    stride: 1
    weight_filler {
      type: "xavier"
    }
    bias_filler {
      type: "constant"
    }
    kernel_h: 8
    kernel_w: 3
  }
}
layer {
  name: "relu1"
  type: "ReLU"
  bottom: "conv1"
  top: "conv1"
}
layer {
  name: "pool1"
  type: "Pooling"
  bottom: "conv1"
  top: "pool1"
  pooling_param {
    pool: MAX
    kernel_h: 2
    kernel_w: 1
    stride_h: 2
    stride_w: 1
  }
}
layer {
  name: "conv2"
  type: "Convolution"
  bottom: "pool1"
  top: "conv2"
  convolution_param {
    num_output: 20
    pad: 0
    stride: 1
    weight_filler {
      type: "xavier"
    }
    bias_filler {
      type: "constant"
    }
    kernel_h: 7
    kernel_w: 3
  }
}
layer {
  name: "relu2"
  type: "ReLU"
  bottom: "conv2"
  top: "conv2"
}
layer {
  name: "pool2"
  type: "Pooling"
  bottom: "conv2"
  top: "pool2"
  pooling_param {
    pool: MAX
    kernel_h: 2
    kernel_w: 1
    stride_h: 2
    stride_w: 1
  }
}
layer {
  name: "conv3"
  type: "Convolution"
  bottom: "pool2"
  top: "conv3"
  convolution_param {
    num_output: 28
    pad: 0
    stride: 1
    weight_filler {
      type: "xavier"
    }
    bias_filler {
      type: "constant"
    }
    kernel_h: 6
    kernel_w: 3
  }
}
layer {
  name: "relu3"
  type: "ReLU"
  bottom: "conv3"
  top: "conv3"
}
layer {
  name: "pool3"
  type: "Pooling"
  bottom: "conv3"
  top: "pool3"
  pooling_param {
    pool: MAX
    kernel_h: 2
    kernel_w: 1
    stride_h: 2
    stride_w: 1
  }
}
layer {
  name: "conv4"
  type: "Convolution"
  bottom: "pool3"
  top: "conv4"
  convolution_param {
    num_output: 36
    pad: 0
    stride: 1
    weight_filler {
      type: "xavier"
    }
    bias_filler {
      type: "constant"
    }
    kernel_h: 6
    kernel_w: 3
  }
}
layer {
  name: "relu4"
  type: "ReLU"
  bottom: "conv4"
  top: "conv4"
}
layer {
  name: "pool4"
  type: "Pooling"
  bottom: "conv4"
  top: "pool4"
  pooling_param {
    pool: MAX
    kernel_h: 2
    kernel_w: 1
    stride_h: 2
    stride_w: 1
  }
}
layer {
  name: "ip1"
  type: "InnerProduct"
  bottom: "pool4"
  top: "ip1"
  inner_product_param {
    num_output: 196
    weight_filler {
      type: "xavier"
    }
    bias_filler {
      type: "constant"
    }
  }
}
layer {
  name: "relu5"
  type: "ReLU"
  bottom: "ip1"
  top: "ip1"
}
layer {
  name: "drop1"
  type: "Dropout"
  bottom: "ip1"
  top: "ip1"
  dropout_param {
    dropout_ratio: 0.5
  }
}
layer {
  name: "ip2"
  type: "InnerProduct"
  bottom: "ip1"
  top: "ip2"
  inner_product_param {
    num_output: 98
    weight_filler {
      type: "xavier"
    }
    bias_filler {
      type: "constant"
    }
  }
}
layer {
  name: "relu6"
  type: "ReLU"
  bottom: "ip2"
  top: "ip2"
}
layer {
  name: "drop2"
  type: "Dropout"
  bottom: "ip2"
  top: "ip2"
  dropout_param {
    dropout_ratio: 0.5
  }
}
layer {
  name: "ip3"
  type: "InnerProduct"
  bottom: "ip2"
  top: "ip3"
  inner_product_param {
    num_output: 11
    weight_filler {
      type: "xavier"
    }
    bias_filler {
      type: "constant"
    }
  }
}
layer {
  name: "drop3"
  type: "Dropout"
  bottom: "ip3"
  top: "ip3"
  dropout_param {
    dropout_ratio: 0.5
  }
}
layer {
  name: "loss"
  type: "SoftmaxWithLoss"
  bottom: "ip3"
  bottom: "label"
  top: "loss"
}
I0521 01:48:59.970983  8072 layer_factory.hpp:77] Creating layer data_hdf5
I0521 01:48:59.971007  8072 net.cpp:106] Creating Layer data_hdf5
I0521 01:48:59.971021  8072 net.cpp:411] data_hdf5 -> data
I0521 01:48:59.971055  8072 net.cpp:411] data_hdf5 -> label
I0521 01:48:59.971086  8072 hdf5_data_layer.cpp:79] Loading list of HDF5 filenames from: /lustre/atlas/proj-shared/hep105/caffe_titan/minosmatch_nukecczdefs_127x50_x_unshifted_me1Bmc.trainlist
I0521 01:48:59.972491  8072 hdf5_data_layer.cpp:93] Number of HDF5 files: 15
I0521 01:48:59.974936  8072 hdf5.cpp:32] Datatype class: H5T_FLOAT
I0521 01:49:21.480592  8072 hdf5.cpp:35] Datatype class: H5T_INTEGER
I0521 01:49:21.485685  8072 net.cpp:150] Setting up data_hdf5
I0521 01:49:21.485725  8072 net.cpp:157] Top shape: 540 1 127 50 (3429000)
I0521 01:49:21.485739  8072 net.cpp:157] Top shape: 540 (540)
I0521 01:49:21.485751  8072 net.cpp:165] Memory required for data: 13718160
I0521 01:49:21.485765  8072 layer_factory.hpp:77] Creating layer conv1
I0521 01:49:21.485800  8072 net.cpp:106] Creating Layer conv1
I0521 01:49:21.485810  8072 net.cpp:454] conv1 <- data
I0521 01:49:21.485831  8072 net.cpp:411] conv1 -> conv1
I0521 01:49:23.008996  8072 net.cpp:150] Setting up conv1
I0521 01:49:23.009043  8072 net.cpp:157] Top shape: 540 12 120 48 (37324800)
I0521 01:49:23.009053  8072 net.cpp:165] Memory required for data: 163017360
I0521 01:49:23.009084  8072 layer_factory.hpp:77] Creating layer relu1
I0521 01:49:23.009104  8072 net.cpp:106] Creating Layer relu1
I0521 01:49:23.009115  8072 net.cpp:454] relu1 <- conv1
I0521 01:49:23.009130  8072 net.cpp:397] relu1 -> conv1 (in-place)
I0521 01:49:23.009644  8072 net.cpp:150] Setting up relu1
I0521 01:49:23.009660  8072 net.cpp:157] Top shape: 540 12 120 48 (37324800)
I0521 01:49:23.009672  8072 net.cpp:165] Memory required for data: 312316560
I0521 01:49:23.009682  8072 layer_factory.hpp:77] Creating layer pool1
I0521 01:49:23.009699  8072 net.cpp:106] Creating Layer pool1
I0521 01:49:23.009709  8072 net.cpp:454] pool1 <- conv1
I0521 01:49:23.009722  8072 net.cpp:411] pool1 -> pool1
I0521 01:49:23.009802  8072 net.cpp:150] Setting up pool1
I0521 01:49:23.009816  8072 net.cpp:157] Top shape: 540 12 60 48 (18662400)
I0521 01:49:23.009826  8072 net.cpp:165] Memory required for data: 386966160
I0521 01:49:23.009837  8072 layer_factory.hpp:77] Creating layer conv2
I0521 01:49:23.009860  8072 net.cpp:106] Creating Layer conv2
I0521 01:49:23.009871  8072 net.cpp:454] conv2 <- pool1
I0521 01:49:23.009883  8072 net.cpp:411] conv2 -> conv2
I0521 01:49:23.012557  8072 net.cpp:150] Setting up conv2
I0521 01:49:23.012584  8072 net.cpp:157] Top shape: 540 20 54 46 (26827200)
I0521 01:49:23.012595  8072 net.cpp:165] Memory required for data: 494274960
I0521 01:49:23.012614  8072 layer_factory.hpp:77] Creating layer relu2
I0521 01:49:23.012629  8072 net.cpp:106] Creating Layer relu2
I0521 01:49:23.012639  8072 net.cpp:454] relu2 <- conv2
I0521 01:49:23.012652  8072 net.cpp:397] relu2 -> conv2 (in-place)
I0521 01:49:23.012981  8072 net.cpp:150] Setting up relu2
I0521 01:49:23.012995  8072 net.cpp:157] Top shape: 540 20 54 46 (26827200)
I0521 01:49:23.013006  8072 net.cpp:165] Memory required for data: 601583760
I0521 01:49:23.013016  8072 layer_factory.hpp:77] Creating layer pool2
I0521 01:49:23.013028  8072 net.cpp:106] Creating Layer pool2
I0521 01:49:23.013038  8072 net.cpp:454] pool2 <- conv2
I0521 01:49:23.013063  8072 net.cpp:411] pool2 -> pool2
I0521 01:49:23.013133  8072 net.cpp:150] Setting up pool2
I0521 01:49:23.013146  8072 net.cpp:157] Top shape: 540 20 27 46 (13413600)
I0521 01:49:23.013156  8072 net.cpp:165] Memory required for data: 655238160
I0521 01:49:23.013166  8072 layer_factory.hpp:77] Creating layer conv3
I0521 01:49:23.013185  8072 net.cpp:106] Creating Layer conv3
I0521 01:49:23.013195  8072 net.cpp:454] conv3 <- pool2
I0521 01:49:23.013209  8072 net.cpp:411] conv3 -> conv3
I0521 01:49:23.015121  8072 net.cpp:150] Setting up conv3
I0521 01:49:23.015144  8072 net.cpp:157] Top shape: 540 28 22 44 (14636160)
I0521 01:49:23.015157  8072 net.cpp:165] Memory required for data: 713782800
I0521 01:49:23.015175  8072 layer_factory.hpp:77] Creating layer relu3
I0521 01:49:23.015192  8072 net.cpp:106] Creating Layer relu3
I0521 01:49:23.015202  8072 net.cpp:454] relu3 <- conv3
I0521 01:49:23.015214  8072 net.cpp:397] relu3 -> conv3 (in-place)
I0521 01:49:23.015692  8072 net.cpp:150] Setting up relu3
I0521 01:49:23.015709  8072 net.cpp:157] Top shape: 540 28 22 44 (14636160)
I0521 01:49:23.015719  8072 net.cpp:165] Memory required for data: 772327440
I0521 01:49:23.015729  8072 layer_factory.hpp:77] Creating layer pool3
I0521 01:49:23.015743  8072 net.cpp:106] Creating Layer pool3
I0521 01:49:23.015753  8072 net.cpp:454] pool3 <- conv3
I0521 01:49:23.015765  8072 net.cpp:411] pool3 -> pool3
I0521 01:49:23.015833  8072 net.cpp:150] Setting up pool3
I0521 01:49:23.015847  8072 net.cpp:157] Top shape: 540 28 11 44 (7318080)
I0521 01:49:23.015856  8072 net.cpp:165] Memory required for data: 801599760
I0521 01:49:23.015866  8072 layer_factory.hpp:77] Creating layer conv4
I0521 01:49:23.015883  8072 net.cpp:106] Creating Layer conv4
I0521 01:49:23.015894  8072 net.cpp:454] conv4 <- pool3
I0521 01:49:23.015908  8072 net.cpp:411] conv4 -> conv4
I0521 01:49:23.018715  8072 net.cpp:150] Setting up conv4
I0521 01:49:23.018743  8072 net.cpp:157] Top shape: 540 36 6 42 (4898880)
I0521 01:49:23.018754  8072 net.cpp:165] Memory required for data: 821195280
I0521 01:49:23.018770  8072 layer_factory.hpp:77] Creating layer relu4
I0521 01:49:23.018784  8072 net.cpp:106] Creating Layer relu4
I0521 01:49:23.018795  8072 net.cpp:454] relu4 <- conv4
I0521 01:49:23.018806  8072 net.cpp:397] relu4 -> conv4 (in-place)
I0521 01:49:23.019279  8072 net.cpp:150] Setting up relu4
I0521 01:49:23.019296  8072 net.cpp:157] Top shape: 540 36 6 42 (4898880)
I0521 01:49:23.019307  8072 net.cpp:165] Memory required for data: 840790800
I0521 01:49:23.019317  8072 layer_factory.hpp:77] Creating layer pool4
I0521 01:49:23.019330  8072 net.cpp:106] Creating Layer pool4
I0521 01:49:23.019340  8072 net.cpp:454] pool4 <- conv4
I0521 01:49:23.019353  8072 net.cpp:411] pool4 -> pool4
I0521 01:49:23.019421  8072 net.cpp:150] Setting up pool4
I0521 01:49:23.019435  8072 net.cpp:157] Top shape: 540 36 3 42 (2449440)
I0521 01:49:23.019446  8072 net.cpp:165] Memory required for data: 850588560
I0521 01:49:23.019455  8072 layer_factory.hpp:77] Creating layer ip1
I0521 01:49:23.019476  8072 net.cpp:106] Creating Layer ip1
I0521 01:49:23.019487  8072 net.cpp:454] ip1 <- pool4
I0521 01:49:23.019500  8072 net.cpp:411] ip1 -> ip1
I0521 01:49:23.034898  8072 net.cpp:150] Setting up ip1
I0521 01:49:23.034926  8072 net.cpp:157] Top shape: 540 196 (105840)
I0521 01:49:23.034939  8072 net.cpp:165] Memory required for data: 851011920
I0521 01:49:23.034960  8072 layer_factory.hpp:77] Creating layer relu5
I0521 01:49:23.034976  8072 net.cpp:106] Creating Layer relu5
I0521 01:49:23.034986  8072 net.cpp:454] relu5 <- ip1
I0521 01:49:23.034998  8072 net.cpp:397] relu5 -> ip1 (in-place)
I0521 01:49:23.035341  8072 net.cpp:150] Setting up relu5
I0521 01:49:23.035354  8072 net.cpp:157] Top shape: 540 196 (105840)
I0521 01:49:23.035364  8072 net.cpp:165] Memory required for data: 851435280
I0521 01:49:23.035374  8072 layer_factory.hpp:77] Creating layer drop1
I0521 01:49:23.035395  8072 net.cpp:106] Creating Layer drop1
I0521 01:49:23.035406  8072 net.cpp:454] drop1 <- ip1
I0521 01:49:23.035431  8072 net.cpp:397] drop1 -> ip1 (in-place)
I0521 01:49:23.035477  8072 net.cpp:150] Setting up drop1
I0521 01:49:23.035490  8072 net.cpp:157] Top shape: 540 196 (105840)
I0521 01:49:23.035501  8072 net.cpp:165] Memory required for data: 851858640
I0521 01:49:23.035509  8072 layer_factory.hpp:77] Creating layer ip2
I0521 01:49:23.035528  8072 net.cpp:106] Creating Layer ip2
I0521 01:49:23.035538  8072 net.cpp:454] ip2 <- ip1
I0521 01:49:23.035552  8072 net.cpp:411] ip2 -> ip2
I0521 01:49:23.036021  8072 net.cpp:150] Setting up ip2
I0521 01:49:23.036034  8072 net.cpp:157] Top shape: 540 98 (52920)
I0521 01:49:23.036044  8072 net.cpp:165] Memory required for data: 852070320
I0521 01:49:23.036061  8072 layer_factory.hpp:77] Creating layer relu6
I0521 01:49:23.036073  8072 net.cpp:106] Creating Layer relu6
I0521 01:49:23.036083  8072 net.cpp:454] relu6 <- ip2
I0521 01:49:23.036094  8072 net.cpp:397] relu6 -> ip2 (in-place)
I0521 01:49:23.036618  8072 net.cpp:150] Setting up relu6
I0521 01:49:23.036634  8072 net.cpp:157] Top shape: 540 98 (52920)
I0521 01:49:23.036644  8072 net.cpp:165] Memory required for data: 852282000
I0521 01:49:23.036654  8072 layer_factory.hpp:77] Creating layer drop2
I0521 01:49:23.036667  8072 net.cpp:106] Creating Layer drop2
I0521 01:49:23.036677  8072 net.cpp:454] drop2 <- ip2
I0521 01:49:23.036690  8072 net.cpp:397] drop2 -> ip2 (in-place)
I0521 01:49:23.036732  8072 net.cpp:150] Setting up drop2
I0521 01:49:23.036746  8072 net.cpp:157] Top shape: 540 98 (52920)
I0521 01:49:23.036756  8072 net.cpp:165] Memory required for data: 852493680
I0521 01:49:23.036766  8072 layer_factory.hpp:77] Creating layer ip3
I0521 01:49:23.036779  8072 net.cpp:106] Creating Layer ip3
I0521 01:49:23.036789  8072 net.cpp:454] ip3 <- ip2
I0521 01:49:23.036801  8072 net.cpp:411] ip3 -> ip3
I0521 01:49:23.037014  8072 net.cpp:150] Setting up ip3
I0521 01:49:23.037027  8072 net.cpp:157] Top shape: 540 11 (5940)
I0521 01:49:23.037037  8072 net.cpp:165] Memory required for data: 852517440
I0521 01:49:23.037052  8072 layer_factory.hpp:77] Creating layer drop3
I0521 01:49:23.037065  8072 net.cpp:106] Creating Layer drop3
I0521 01:49:23.037073  8072 net.cpp:454] drop3 <- ip3
I0521 01:49:23.037086  8072 net.cpp:397] drop3 -> ip3 (in-place)
I0521 01:49:23.037124  8072 net.cpp:150] Setting up drop3
I0521 01:49:23.037137  8072 net.cpp:157] Top shape: 540 11 (5940)
I0521 01:49:23.037147  8072 net.cpp:165] Memory required for data: 852541200
I0521 01:49:23.037158  8072 layer_factory.hpp:77] Creating layer loss
I0521 01:49:23.037176  8072 net.cpp:106] Creating Layer loss
I0521 01:49:23.037186  8072 net.cpp:454] loss <- ip3
I0521 01:49:23.037197  8072 net.cpp:454] loss <- label
I0521 01:49:23.037209  8072 net.cpp:411] loss -> loss
I0521 01:49:23.037225  8072 layer_factory.hpp:77] Creating layer loss
…
I0521 01:49:23.039950  8072 solver.cpp:181] Creating test net (#0) specified by net file: /lustre/atlas/proj-shared/hep105/caffe_titan/caffe_workflow/logs_batch_size_test/batch_size_540_2016-05-20T11.20.52.209277.prototxt
I0521 01:49:23.040022  8072 net.cpp:322] The NetState phase (1) differed from the phase (0) specified by a rule in layer data_hdf5
I0521 01:49:23.040375  8072 net.cpp:49] Initializing net from parameters: 
name: "caffe_test_127x50_x_unshifted"
state {
  phase: TEST
}
layer {
  name: "data_hdf5"
  type: "HDF5Data"
  top: "data"
  top: "label"
  include {
    phase: TEST
  }
  hdf5_data_param {
    source: "/lustre/atlas/proj-shared/hep105/caffe_titan/minosmatch_nukecczdefs_127x50_x_unshifted_me1Bmc.testlist"
    batch_size: 540
  }
}
layer {
  name: "conv1"
  type: "Convolution"
  bottom: "data"
  top: "conv1"
  convolution_param {
    num_output: 12
    pad: 0
    stride: 1
    weight_filler {
      type: "xavier"
    }
    bias_filler {
      type: "constant"
    }
    kernel_h: 8
    kernel_w: 3
  }
}
layer {
  name: "relu1"
  type: "ReLU"
  bottom: "conv1"
  top: "conv1"
}
layer {
  name: "pool1"
  type: "Pooling"
  bottom: "conv1"
  top: "pool1"
  pooling_param {
    pool: MAX
    kernel_h: 2
    kernel_w: 1
    stride_h: 2
    stride_w: 1
  }
}
layer {
  name: "conv2"
  type: "Convolution"
  bottom: "pool1"
  top: "conv2"
  convolution_param {
    num_output: 20
    pad: 0
    stride: 1
    weight_filler {
      type: "xavier"
    }
    bias_filler {
      type: "constant"
    }
    kernel_h: 7
    kernel_w: 3
  }
}
layer {
  name: "relu2"
  type: "ReLU"
  bottom: "conv2"
  top: "conv2"
}
layer {
  name: "pool2"
  type: "Pooling"
  bottom: "conv2"
  top: "pool2"
  pooling_param {
    pool: MAX
    kernel_h: 2
    kernel_w: 1
    stride_h: 2
    stride_w: 1
  }
}
layer {
  name: "conv3"
  type: "Convolution"
  bottom: "pool2"
  top: "conv3"
  convolution_param {
    num_output: 28
    pad: 0
    stride: 1
    weight_filler {
      type: "xavier"
    }
    bias_filler {
      type: "constant"
    }
    kernel_h: 6
    kernel_w: 3
  }
}
layer {
  name: "relu3"
  type: "ReLU"
  bottom: "conv3"
  top: "conv3"
}
layer {
  name: "pool3"
  type: "Pooling"
  bottom: "conv3"
  top: "pool3"
  pooling_param {
    pool: MAX
    kernel_h: 2
    kernel_w: 1
    stride_h: 2
    stride_w: 1
  }
}
layer {
  name: "conv4"
  type: "Convolution"
  bottom: "pool3"
  top: "conv4"
  convolution_param {
    num_output: 36
    pad: 0
    stride: 1
    weight_filler {
      type: "xavier"
    }
    bias_filler {
      type: "constant"
    }
    kernel_h: 6
    kernel_w: 3
  }
}
layer {
  name: "relu4"
  type: "ReLU"
  bottom: "conv4"
  top: "conv4"
}
layer {
  name: "pool4"
  type: "Pooling"
  bottom: "conv4"
  top: "pool4"
  pooling_param {
    pool: MAX
    kernel_h: 2
    kernel_w: 1
    stride_h: 2
    stride_w: 1
  }
}
layer {
  name: "ip1"
  type: "InnerProduct"
  bottom: "pool4"
  top: "ip1"
  inner_product_param {
    num_output: 196
    weight_filler {
      type: "xavier"
    }
    bias_filler {
      type: "constant"
    }
  }
}
layer {
  name: "relu5"
  type: "ReLU"
  bottom: "ip1"
  top: "ip1"
}
layer {
  name: "drop1"
  type: "Dropout"
  bottom: "ip1"
  top: "ip1"
  dropout_param {
    dropout_ratio: 0.5
  }
}
layer {
  name: "ip2"
  type: "InnerProduct"
  bottom: "ip1"
  top: "ip2"
  inner_product_param {
    num_output: 98
    weight_filler {
      type: "xavier"
    }
    bias_filler {
      type: "constant"
    }
  }
}
layer {
  name: "relu6"
  type: "ReLU"
  bottom: "ip2"
  top: "ip2"
}
layer {
  name: "drop2"
  type: "Dropout"
  bottom: "ip2"
  top: "ip2"
  dropout_param {
    dropout_ratio: 0.5
  }
}
layer {
  name: "ip3"
  type: "InnerProduct"
  bottom: "ip2"
  top: "ip3"
  inner_product_param {
    num_output: 11
    weight_filler {
      type: "xavier"
    }
    bias_filler {
      type: "constant"
    }
  }
}
layer {
  name: "drop3"
  type: "Dropout"
  bottom: "ip3"
  top: "ip3"
  dropout_param {
    dropout_ratio: 0.5
  }
}
layer {
  name: "accuracy"
  type: "Accuracy"
  bottom: "ip3"
  bottom: "label"
  top: "accuracy"
  include {
    phase: TEST
  }
}
layer {
  name: "loss"
  type: "SoftmaxWithLoss"
  bottom: "ip3"
  bottom: "label"
  top: "loss"
}
I0521 01:49:23.040565  8072 layer_factory.hpp:77] Creating layer data_hdf5
I0521 01:49:23.040580  8072 net.cpp:106] Creating Layer data_hdf5
I0521 01:49:23.040592  8072 net.cpp:411] data_hdf5 -> data
I0521 01:49:23.040609  8072 net.cpp:411] data_hdf5 -> label
I0521 01:49:23.040624  8072 hdf5_data_layer.cpp:79] Loading list of HDF5 filenames from: /lustre/atlas/proj-shared/hep105/caffe_titan/minosmatch_nukecczdefs_127x50_x_unshifted_me1Bmc.testlist
I0521 01:49:23.041996  8072 hdf5_data_layer.cpp:93] Number of HDF5 files: 3
I0521 01:49:44.343211  8072 net.cpp:150] Setting up data_hdf5
I0521 01:49:44.343379  8072 net.cpp:157] Top shape: 540 1 127 50 (3429000)
I0521 01:49:44.343394  8072 net.cpp:157] Top shape: 540 (540)
I0521 01:49:44.343405  8072 net.cpp:165] Memory required for data: 13718160
I0521 01:49:44.343420  8072 layer_factory.hpp:77] Creating layer label_data_hdf5_1_split
I0521 01:49:44.343447  8072 net.cpp:106] Creating Layer label_data_hdf5_1_split
I0521 01:49:44.343458  8072 net.cpp:454] label_data_hdf5_1_split <- label
I0521 01:49:44.343473  8072 net.cpp:411] label_data_hdf5_1_split -> label_data_hdf5_1_split_0
I0521 01:49:44.343494  8072 net.cpp:411] label_data_hdf5_1_split -> label_data_hdf5_1_split_1
I0521 01:49:44.343567  8072 net.cpp:150] Setting up label_data_hdf5_1_split
I0521 01:49:44.343581  8072 net.cpp:157] Top shape: 540 (540)
I0521 01:49:44.343593  8072 net.cpp:157] Top shape: 540 (540)
I0521 01:49:44.343602  8072 net.cpp:165] Memory required for data: 13722480
I0521 01:49:44.343612  8072 layer_factory.hpp:77] Creating layer conv1
I0521 01:49:44.343634  8072 net.cpp:106] Creating Layer conv1
I0521 01:49:44.343653  8072 net.cpp:454] conv1 <- data
I0521 01:49:44.343668  8072 net.cpp:411] conv1 -> conv1
I0521 01:49:44.345587  8072 net.cpp:150] Setting up conv1
I0521 01:49:44.345607  8072 net.cpp:157] Top shape: 540 12 120 48 (37324800)
I0521 01:49:44.345618  8072 net.cpp:165] Memory required for data: 163021680
I0521 01:49:44.345638  8072 layer_factory.hpp:77] Creating layer relu1
I0521 01:49:44.345654  8072 net.cpp:106] Creating Layer relu1
I0521 01:49:44.345664  8072 net.cpp:454] relu1 <- conv1
I0521 01:49:44.345676  8072 net.cpp:397] relu1 -> conv1 (in-place)
I0521 01:49:44.346174  8072 net.cpp:150] Setting up relu1
I0521 01:49:44.346189  8072 net.cpp:157] Top shape: 540 12 120 48 (37324800)
I0521 01:49:44.346200  8072 net.cpp:165] Memory required for data: 312320880
I0521 01:49:44.346210  8072 layer_factory.hpp:77] Creating layer pool1
I0521 01:49:44.346226  8072 net.cpp:106] Creating Layer pool1
I0521 01:49:44.346236  8072 net.cpp:454] pool1 <- conv1
I0521 01:49:44.346249  8072 net.cpp:411] pool1 -> pool1
I0521 01:49:44.346323  8072 net.cpp:150] Setting up pool1
I0521 01:49:44.346338  8072 net.cpp:157] Top shape: 540 12 60 48 (18662400)
I0521 01:49:44.346346  8072 net.cpp:165] Memory required for data: 386970480
I0521 01:49:44.346355  8072 layer_factory.hpp:77] Creating layer conv2
I0521 01:49:44.346374  8072 net.cpp:106] Creating Layer conv2
I0521 01:49:44.346385  8072 net.cpp:454] conv2 <- pool1
I0521 01:49:44.346400  8072 net.cpp:411] conv2 -> conv2
I0521 01:49:44.348315  8072 net.cpp:150] Setting up conv2
I0521 01:49:44.348336  8072 net.cpp:157] Top shape: 540 20 54 46 (26827200)
I0521 01:49:44.348351  8072 net.cpp:165] Memory required for data: 494279280
I0521 01:49:44.348368  8072 layer_factory.hpp:77] Creating layer relu2
I0521 01:49:44.348381  8072 net.cpp:106] Creating Layer relu2
I0521 01:49:44.348392  8072 net.cpp:454] relu2 <- conv2
I0521 01:49:44.348404  8072 net.cpp:397] relu2 -> conv2 (in-place)
I0521 01:49:44.348737  8072 net.cpp:150] Setting up relu2
I0521 01:49:44.348750  8072 net.cpp:157] Top shape: 540 20 54 46 (26827200)
I0521 01:49:44.348760  8072 net.cpp:165] Memory required for data: 601588080
I0521 01:49:44.348770  8072 layer_factory.hpp:77] Creating layer pool2
I0521 01:49:44.348783  8072 net.cpp:106] Creating Layer pool2
I0521 01:49:44.348793  8072 net.cpp:454] pool2 <- conv2
I0521 01:49:44.348805  8072 net.cpp:411] pool2 -> pool2
I0521 01:49:44.348876  8072 net.cpp:150] Setting up pool2
I0521 01:49:44.348889  8072 net.cpp:157] Top shape: 540 20 27 46 (13413600)
I0521 01:49:44.348898  8072 net.cpp:165] Memory required for data: 655242480
I0521 01:49:44.348908  8072 layer_factory.hpp:77] Creating layer conv3
I0521 01:49:44.348928  8072 net.cpp:106] Creating Layer conv3
I0521 01:49:44.348938  8072 net.cpp:454] conv3 <- pool2
I0521 01:49:44.348953  8072 net.cpp:411] conv3 -> conv3
I0521 01:49:44.350991  8072 net.cpp:150] Setting up conv3
I0521 01:49:44.351014  8072 net.cpp:157] Top shape: 540 28 22 44 (14636160)
I0521 01:49:44.351027  8072 net.cpp:165] Memory required for data: 713787120
I0521 01:49:44.351059  8072 layer_factory.hpp:77] Creating layer relu3
I0521 01:49:44.351073  8072 net.cpp:106] Creating Layer relu3
I0521 01:49:44.351083  8072 net.cpp:454] relu3 <- conv3
I0521 01:49:44.351096  8072 net.cpp:397] relu3 -> conv3 (in-place)
I0521 01:49:44.351568  8072 net.cpp:150] Setting up relu3
I0521 01:49:44.351585  8072 net.cpp:157] Top shape: 540 28 22 44 (14636160)
I0521 01:49:44.351595  8072 net.cpp:165] Memory required for data: 772331760
I0521 01:49:44.351605  8072 layer_factory.hpp:77] Creating layer pool3
I0521 01:49:44.351618  8072 net.cpp:106] Creating Layer pool3
I0521 01:49:44.351627  8072 net.cpp:454] pool3 <- conv3
I0521 01:49:44.351647  8072 net.cpp:411] pool3 -> pool3
I0521 01:49:44.351721  8072 net.cpp:150] Setting up pool3
I0521 01:49:44.351733  8072 net.cpp:157] Top shape: 540 28 11 44 (7318080)
I0521 01:49:44.351742  8072 net.cpp:165] Memory required for data: 801604080
I0521 01:49:44.351752  8072 layer_factory.hpp:77] Creating layer conv4
I0521 01:49:44.351769  8072 net.cpp:106] Creating Layer conv4
I0521 01:49:44.351780  8072 net.cpp:454] conv4 <- pool3
I0521 01:49:44.351794  8072 net.cpp:411] conv4 -> conv4
I0521 01:49:44.353840  8072 net.cpp:150] Setting up conv4
I0521 01:49:44.353858  8072 net.cpp:157] Top shape: 540 36 6 42 (4898880)
I0521 01:49:44.353869  8072 net.cpp:165] Memory required for data: 821199600
I0521 01:49:44.353884  8072 layer_factory.hpp:77] Creating layer relu4
I0521 01:49:44.353899  8072 net.cpp:106] Creating Layer relu4
I0521 01:49:44.353909  8072 net.cpp:454] relu4 <- conv4
I0521 01:49:44.353920  8072 net.cpp:397] relu4 -> conv4 (in-place)
I0521 01:49:44.354393  8072 net.cpp:150] Setting up relu4
I0521 01:49:44.354409  8072 net.cpp:157] Top shape: 540 36 6 42 (4898880)
I0521 01:49:44.354419  8072 net.cpp:165] Memory required for data: 840795120
I0521 01:49:44.354429  8072 layer_factory.hpp:77] Creating layer pool4
I0521 01:49:44.354442  8072 net.cpp:106] Creating Layer pool4
I0521 01:49:44.354452  8072 net.cpp:454] pool4 <- conv4
I0521 01:49:44.354465  8072 net.cpp:411] pool4 -> pool4
I0521 01:49:44.354534  8072 net.cpp:150] Setting up pool4
I0521 01:49:44.354548  8072 net.cpp:157] Top shape: 540 36 3 42 (2449440)
I0521 01:49:44.354557  8072 net.cpp:165] Memory required for data: 850592880
I0521 01:49:44.354568  8072 layer_factory.hpp:77] Creating layer ip1
I0521 01:49:44.354580  8072 net.cpp:106] Creating Layer ip1
I0521 01:49:44.354591  8072 net.cpp:454] ip1 <- pool4
I0521 01:49:44.354604  8072 net.cpp:411] ip1 -> ip1
I0521 01:49:44.370091  8072 net.cpp:150] Setting up ip1
I0521 01:49:44.370120  8072 net.cpp:157] Top shape: 540 196 (105840)
I0521 01:49:44.370131  8072 net.cpp:165] Memory required for data: 851016240
I0521 01:49:44.370153  8072 layer_factory.hpp:77] Creating layer relu5
I0521 01:49:44.370168  8072 net.cpp:106] Creating Layer relu5
I0521 01:49:44.370178  8072 net.cpp:454] relu5 <- ip1
I0521 01:49:44.370192  8072 net.cpp:397] relu5 -> ip1 (in-place)
I0521 01:49:44.370535  8072 net.cpp:150] Setting up relu5
I0521 01:49:44.370549  8072 net.cpp:157] Top shape: 540 196 (105840)
I0521 01:49:44.370559  8072 net.cpp:165] Memory required for data: 851439600
I0521 01:49:44.370569  8072 layer_factory.hpp:77] Creating layer drop1
I0521 01:49:44.370589  8072 net.cpp:106] Creating Layer drop1
I0521 01:49:44.370599  8072 net.cpp:454] drop1 <- ip1
I0521 01:49:44.370611  8072 net.cpp:397] drop1 -> ip1 (in-place)
I0521 01:49:44.370656  8072 net.cpp:150] Setting up drop1
I0521 01:49:44.370668  8072 net.cpp:157] Top shape: 540 196 (105840)
I0521 01:49:44.370676  8072 net.cpp:165] Memory required for data: 851862960
I0521 01:49:44.370688  8072 layer_factory.hpp:77] Creating layer ip2
I0521 01:49:44.370702  8072 net.cpp:106] Creating Layer ip2
I0521 01:49:44.370712  8072 net.cpp:454] ip2 <- ip1
I0521 01:49:44.370726  8072 net.cpp:411] ip2 -> ip2
I0521 01:49:44.371204  8072 net.cpp:150] Setting up ip2
I0521 01:49:44.371218  8072 net.cpp:157] Top shape: 540 98 (52920)
I0521 01:49:44.371228  8072 net.cpp:165] Memory required for data: 852074640
I0521 01:49:44.371256  8072 layer_factory.hpp:77] Creating layer relu6
I0521 01:49:44.371269  8072 net.cpp:106] Creating Layer relu6
I0521 01:49:44.371279  8072 net.cpp:454] relu6 <- ip2
I0521 01:49:44.371291  8072 net.cpp:397] relu6 -> ip2 (in-place)
I0521 01:49:44.371832  8072 net.cpp:150] Setting up relu6
I0521 01:49:44.371853  8072 net.cpp:157] Top shape: 540 98 (52920)
I0521 01:49:44.371863  8072 net.cpp:165] Memory required for data: 852286320
I0521 01:49:44.371875  8072 layer_factory.hpp:77] Creating layer drop2
I0521 01:49:44.371887  8072 net.cpp:106] Creating Layer drop2
I0521 01:49:44.371897  8072 net.cpp:454] drop2 <- ip2
I0521 01:49:44.371911  8072 net.cpp:397] drop2 -> ip2 (in-place)
I0521 01:49:44.371953  8072 net.cpp:150] Setting up drop2
I0521 01:49:44.371968  8072 net.cpp:157] Top shape: 540 98 (52920)
I0521 01:49:44.371976  8072 net.cpp:165] Memory required for data: 852498000
I0521 01:49:44.371986  8072 layer_factory.hpp:77] Creating layer ip3
I0521 01:49:44.372001  8072 net.cpp:106] Creating Layer ip3
I0521 01:49:44.372011  8072 net.cpp:454] ip3 <- ip2
I0521 01:49:44.372025  8072 net.cpp:411] ip3 -> ip3
I0521 01:49:44.372246  8072 net.cpp:150] Setting up ip3
I0521 01:49:44.372258  8072 net.cpp:157] Top shape: 540 11 (5940)
I0521 01:49:44.372268  8072 net.cpp:165] Memory required for data: 852521760
I0521 01:49:44.372283  8072 layer_factory.hpp:77] Creating layer drop3
I0521 01:49:44.372297  8072 net.cpp:106] Creating Layer drop3
I0521 01:49:44.372306  8072 net.cpp:454] drop3 <- ip3
I0521 01:49:44.372318  8072 net.cpp:397] drop3 -> ip3 (in-place)
I0521 01:49:44.372359  8072 net.cpp:150] Setting up drop3
I0521 01:49:44.372372  8072 net.cpp:157] Top shape: 540 11 (5940)
I0521 01:49:44.372381  8072 net.cpp:165] Memory required for data: 852545520
I0521 01:49:44.372391  8072 layer_factory.hpp:77] Creating layer ip3_drop3_0_split
I0521 01:49:44.372405  8072 net.cpp:106] Creating Layer ip3_drop3_0_split
I0521 01:49:44.372414  8072 net.cpp:454] ip3_drop3_0_split <- ip3
I0521 01:49:44.372427  8072 net.cpp:411] ip3_drop3_0_split -> ip3_drop3_0_split_0
I0521 01:49:44.372442  8072 net.cpp:411] ip3_drop3_0_split -> ip3_drop3_0_split_1
I0521 01:49:44.372515  8072 net.cpp:150] Setting up ip3_drop3_0_split
I0521 01:49:44.372529  8072 net.cpp:157] Top shape: 540 11 (5940)
I0521 01:49:44.372540  8072 net.cpp:157] Top shape: 540 11 (5940)
I0521 01:49:44.372550  8072 net.cpp:165] Memory required for data: 852593040
I0521 01:49:44.372557  8072 layer_factory.hpp:77] Creating layer accuracy
I0521 01:49:44.372580  8072 net.cpp:106] Creating Layer accuracy
I0521 01:49:44.372591  8072 net.cpp:454] accuracy <- ip3_drop3_0_split_0
I0521 01:49:44.372602  8072 net.cpp:454] accuracy <- label_data_hdf5_1_split_0
I0521 01:49:44.372616  8072 net.cpp:411] accuracy -> accuracy
…
