…
I0521 05:47:30.501922 26727 net.cpp:322] The NetState phase (0) differed from the phase (1) specified by a rule in layer data_hdf5
I0521 05:47:30.501982 26727 net.cpp:322] The NetState phase (0) differed from the phase (1) specified by a rule in layer accuracy
I0521 05:47:30.502326 26727 net.cpp:49] Initializing net from parameters: 
name: "caffe_test_127x50_x_unshifted"
state {
  phase: TRAIN
}
layer {
  name: "data_hdf5"
  type: "HDF5Data"
  top: "data"
  top: "label"
  include {
    phase: TRAIN
  }
  hdf5_data_param {
    source: "/lustre/atlas/proj-shared/hep105/caffe_titan/minosmatch_nukecczdefs_127x50_x_unshifted_me1Bmc.trainlist"
    batch_size: 730
  }
}
layer {
  name: "conv1"
  type: "Convolution"
  bottom: "data"
  top: "conv1"
  convolution_param {
    num_output: 12
    pad: 0
    stride: 1
    weight_filler {
      type: "xavier"
    }
    bias_filler {
      type: "constant"
    }
    kernel_h: 8
    kernel_w: 3
  }
}
layer {
  name: "relu1"
  type: "ReLU"
  bottom: "conv1"
  top: "conv1"
}
layer {
  name: "pool1"
  type: "Pooling"
  bottom: "conv1"
  top: "pool1"
  pooling_param {
    pool: MAX
    kernel_h: 2
    kernel_w: 1
    stride_h: 2
    stride_w: 1
  }
}
layer {
  name: "conv2"
  type: "Convolution"
  bottom: "pool1"
  top: "conv2"
  convolution_param {
    num_output: 20
    pad: 0
    stride: 1
    weight_filler {
      type: "xavier"
    }
    bias_filler {
      type: "constant"
    }
    kernel_h: 7
    kernel_w: 3
  }
}
layer {
  name: "relu2"
  type: "ReLU"
  bottom: "conv2"
  top: "conv2"
}
layer {
  name: "pool2"
  type: "Pooling"
  bottom: "conv2"
  top: "pool2"
  pooling_param {
    pool: MAX
    kernel_h: 2
    kernel_w: 1
    stride_h: 2
    stride_w: 1
  }
}
layer {
  name: "conv3"
  type: "Convolution"
  bottom: "pool2"
  top: "conv3"
  convolution_param {
    num_output: 28
    pad: 0
    stride: 1
    weight_filler {
      type: "xavier"
    }
    bias_filler {
      type: "constant"
    }
    kernel_h: 6
    kernel_w: 3
  }
}
layer {
  name: "relu3"
  type: "ReLU"
  bottom: "conv3"
  top: "conv3"
}
layer {
  name: "pool3"
  type: "Pooling"
  bottom: "conv3"
  top: "pool3"
  pooling_param {
    pool: MAX
    kernel_h: 2
    kernel_w: 1
    stride_h: 2
    stride_w: 1
  }
}
layer {
  name: "conv4"
  type: "Convolution"
  bottom: "pool3"
  top: "conv4"
  convolution_param {
    num_output: 36
    pad: 0
    stride: 1
    weight_filler {
      type: "xavier"
    }
    bias_filler {
      type: "constant"
    }
    kernel_h: 6
    kernel_w: 3
  }
}
layer {
  name: "relu4"
  type: "ReLU"
  bottom: "conv4"
  top: "conv4"
}
layer {
  name: "pool4"
  type: "Pooling"
  bottom: "conv4"
  top: "pool4"
  pooling_param {
    pool: MAX
    kernel_h: 2
    kernel_w: 1
    stride_h: 2
    stride_w: 1
  }
}
layer {
  name: "ip1"
  type: "InnerProduct"
  bottom: "pool4"
  top: "ip1"
  inner_product_param {
    num_output: 196
    weight_filler {
      type: "xavier"
    }
    bias_filler {
      type: "constant"
    }
  }
}
layer {
  name: "relu5"
  type: "ReLU"
  bottom: "ip1"
  top: "ip1"
}
layer {
  name: "drop1"
  type: "Dropout"
  bottom: "ip1"
  top: "ip1"
  dropout_param {
    dropout_ratio: 0.5
  }
}
layer {
  name: "ip2"
  type: "InnerProduct"
  bottom: "ip1"
  top: "ip2"
  inner_product_param {
    num_output: 98
    weight_filler {
      type: "xavier"
    }
    bias_filler {
      type: "constant"
    }
  }
}
layer {
  name: "relu6"
  type: "ReLU"
  bottom: "ip2"
  top: "ip2"
}
layer {
  name: "drop2"
  type: "Dropout"
  bottom: "ip2"
  top: "ip2"
  dropout_param {
    dropout_ratio: 0.5
  }
}
layer {
  name: "ip3"
  type: "InnerProduct"
  bottom: "ip2"
  top: "ip3"
  inner_product_param {
    num_output: 11
    weight_filler {
      type: "xavier"
    }
    bias_filler {
      type: "constant"
    }
  }
}
layer {
  name: "drop3"
  type: "Dropout"
  bottom: "ip3"
  top: "ip3"
  dropout_param {
    dropout_ratio: 0.5
  }
}
layer {
  name: "loss"
  type: "SoftmaxWithLoss"
  bottom: "ip3"
  bottom: "label"
  top: "loss"
}
I0521 05:47:30.502502 26727 layer_factory.hpp:77] Creating layer data_hdf5
I0521 05:47:30.502526 26727 net.cpp:106] Creating Layer data_hdf5
I0521 05:47:30.502540 26727 net.cpp:411] data_hdf5 -> data
I0521 05:47:30.502573 26727 net.cpp:411] data_hdf5 -> label
I0521 05:47:30.502605 26727 hdf5_data_layer.cpp:79] Loading list of HDF5 filenames from: /lustre/atlas/proj-shared/hep105/caffe_titan/minosmatch_nukecczdefs_127x50_x_unshifted_me1Bmc.trainlist
I0521 05:47:30.503785 26727 hdf5_data_layer.cpp:93] Number of HDF5 files: 15
I0521 05:47:30.505967 26727 hdf5.cpp:32] Datatype class: H5T_FLOAT
I0521 05:47:52.024744 26727 hdf5.cpp:35] Datatype class: H5T_INTEGER
I0521 05:47:52.029853 26727 net.cpp:150] Setting up data_hdf5
I0521 05:47:52.029892 26727 net.cpp:157] Top shape: 730 1 127 50 (4635500)
I0521 05:47:52.029907 26727 net.cpp:157] Top shape: 730 (730)
I0521 05:47:52.029922 26727 net.cpp:165] Memory required for data: 18544920
I0521 05:47:52.029934 26727 layer_factory.hpp:77] Creating layer conv1
I0521 05:47:52.029968 26727 net.cpp:106] Creating Layer conv1
I0521 05:47:52.029979 26727 net.cpp:454] conv1 <- data
I0521 05:47:52.030000 26727 net.cpp:411] conv1 -> conv1
I0521 05:47:52.397760 26727 net.cpp:150] Setting up conv1
I0521 05:47:52.397807 26727 net.cpp:157] Top shape: 730 12 120 48 (50457600)
I0521 05:47:52.397819 26727 net.cpp:165] Memory required for data: 220375320
I0521 05:47:52.397846 26727 layer_factory.hpp:77] Creating layer relu1
I0521 05:47:52.397867 26727 net.cpp:106] Creating Layer relu1
I0521 05:47:52.397878 26727 net.cpp:454] relu1 <- conv1
I0521 05:47:52.397891 26727 net.cpp:397] relu1 -> conv1 (in-place)
I0521 05:47:52.398406 26727 net.cpp:150] Setting up relu1
I0521 05:47:52.398422 26727 net.cpp:157] Top shape: 730 12 120 48 (50457600)
I0521 05:47:52.398433 26727 net.cpp:165] Memory required for data: 422205720
I0521 05:47:52.398444 26727 layer_factory.hpp:77] Creating layer pool1
I0521 05:47:52.398460 26727 net.cpp:106] Creating Layer pool1
I0521 05:47:52.398470 26727 net.cpp:454] pool1 <- conv1
I0521 05:47:52.398483 26727 net.cpp:411] pool1 -> pool1
I0521 05:47:52.398563 26727 net.cpp:150] Setting up pool1
I0521 05:47:52.398576 26727 net.cpp:157] Top shape: 730 12 60 48 (25228800)
I0521 05:47:52.398586 26727 net.cpp:165] Memory required for data: 523120920
I0521 05:47:52.398596 26727 layer_factory.hpp:77] Creating layer conv2
I0521 05:47:52.398619 26727 net.cpp:106] Creating Layer conv2
I0521 05:47:52.398629 26727 net.cpp:454] conv2 <- pool1
I0521 05:47:52.398643 26727 net.cpp:411] conv2 -> conv2
I0521 05:47:52.401324 26727 net.cpp:150] Setting up conv2
I0521 05:47:52.401352 26727 net.cpp:157] Top shape: 730 20 54 46 (36266400)
I0521 05:47:52.401363 26727 net.cpp:165] Memory required for data: 668186520
I0521 05:47:52.401382 26727 layer_factory.hpp:77] Creating layer relu2
I0521 05:47:52.401397 26727 net.cpp:106] Creating Layer relu2
I0521 05:47:52.401407 26727 net.cpp:454] relu2 <- conv2
I0521 05:47:52.401420 26727 net.cpp:397] relu2 -> conv2 (in-place)
I0521 05:47:52.401749 26727 net.cpp:150] Setting up relu2
I0521 05:47:52.401764 26727 net.cpp:157] Top shape: 730 20 54 46 (36266400)
I0521 05:47:52.401774 26727 net.cpp:165] Memory required for data: 813252120
I0521 05:47:52.401784 26727 layer_factory.hpp:77] Creating layer pool2
I0521 05:47:52.401796 26727 net.cpp:106] Creating Layer pool2
I0521 05:47:52.401806 26727 net.cpp:454] pool2 <- conv2
I0521 05:47:52.401831 26727 net.cpp:411] pool2 -> pool2
I0521 05:47:52.401901 26727 net.cpp:150] Setting up pool2
I0521 05:47:52.401914 26727 net.cpp:157] Top shape: 730 20 27 46 (18133200)
I0521 05:47:52.401924 26727 net.cpp:165] Memory required for data: 885784920
I0521 05:47:52.401932 26727 layer_factory.hpp:77] Creating layer conv3
I0521 05:47:52.401950 26727 net.cpp:106] Creating Layer conv3
I0521 05:47:52.401960 26727 net.cpp:454] conv3 <- pool2
I0521 05:47:52.401974 26727 net.cpp:411] conv3 -> conv3
I0521 05:47:52.403889 26727 net.cpp:150] Setting up conv3
I0521 05:47:52.403913 26727 net.cpp:157] Top shape: 730 28 22 44 (19785920)
I0521 05:47:52.403925 26727 net.cpp:165] Memory required for data: 964928600
I0521 05:47:52.403942 26727 layer_factory.hpp:77] Creating layer relu3
I0521 05:47:52.403959 26727 net.cpp:106] Creating Layer relu3
I0521 05:47:52.403969 26727 net.cpp:454] relu3 <- conv3
I0521 05:47:52.403981 26727 net.cpp:397] relu3 -> conv3 (in-place)
I0521 05:47:52.404450 26727 net.cpp:150] Setting up relu3
I0521 05:47:52.404469 26727 net.cpp:157] Top shape: 730 28 22 44 (19785920)
I0521 05:47:52.404479 26727 net.cpp:165] Memory required for data: 1044072280
I0521 05:47:52.404489 26727 layer_factory.hpp:77] Creating layer pool3
I0521 05:47:52.404501 26727 net.cpp:106] Creating Layer pool3
I0521 05:47:52.404511 26727 net.cpp:454] pool3 <- conv3
I0521 05:47:52.404523 26727 net.cpp:411] pool3 -> pool3
I0521 05:47:52.404592 26727 net.cpp:150] Setting up pool3
I0521 05:47:52.404604 26727 net.cpp:157] Top shape: 730 28 11 44 (9892960)
I0521 05:47:52.404614 26727 net.cpp:165] Memory required for data: 1083644120
I0521 05:47:52.404623 26727 layer_factory.hpp:77] Creating layer conv4
I0521 05:47:52.404639 26727 net.cpp:106] Creating Layer conv4
I0521 05:47:52.404649 26727 net.cpp:454] conv4 <- pool3
I0521 05:47:52.404664 26727 net.cpp:411] conv4 -> conv4
I0521 05:47:52.407461 26727 net.cpp:150] Setting up conv4
I0521 05:47:52.407485 26727 net.cpp:157] Top shape: 730 36 6 42 (6622560)
I0521 05:47:52.407495 26727 net.cpp:165] Memory required for data: 1110134360
I0521 05:47:52.407511 26727 layer_factory.hpp:77] Creating layer relu4
I0521 05:47:52.407526 26727 net.cpp:106] Creating Layer relu4
I0521 05:47:52.407536 26727 net.cpp:454] relu4 <- conv4
I0521 05:47:52.407548 26727 net.cpp:397] relu4 -> conv4 (in-place)
I0521 05:47:52.408018 26727 net.cpp:150] Setting up relu4
I0521 05:47:52.408035 26727 net.cpp:157] Top shape: 730 36 6 42 (6622560)
I0521 05:47:52.408046 26727 net.cpp:165] Memory required for data: 1136624600
I0521 05:47:52.408056 26727 layer_factory.hpp:77] Creating layer pool4
I0521 05:47:52.408069 26727 net.cpp:106] Creating Layer pool4
I0521 05:47:52.408079 26727 net.cpp:454] pool4 <- conv4
I0521 05:47:52.408092 26727 net.cpp:411] pool4 -> pool4
I0521 05:47:52.408160 26727 net.cpp:150] Setting up pool4
I0521 05:47:52.408174 26727 net.cpp:157] Top shape: 730 36 3 42 (3311280)
I0521 05:47:52.408185 26727 net.cpp:165] Memory required for data: 1149869720
I0521 05:47:52.408195 26727 layer_factory.hpp:77] Creating layer ip1
I0521 05:47:52.408215 26727 net.cpp:106] Creating Layer ip1
I0521 05:47:52.408226 26727 net.cpp:454] ip1 <- pool4
I0521 05:47:52.408238 26727 net.cpp:411] ip1 -> ip1
I0521 05:47:52.423683 26727 net.cpp:150] Setting up ip1
I0521 05:47:52.423712 26727 net.cpp:157] Top shape: 730 196 (143080)
I0521 05:47:52.423725 26727 net.cpp:165] Memory required for data: 1150442040
I0521 05:47:52.423748 26727 layer_factory.hpp:77] Creating layer relu5
I0521 05:47:52.423763 26727 net.cpp:106] Creating Layer relu5
I0521 05:47:52.423774 26727 net.cpp:454] relu5 <- ip1
I0521 05:47:52.423785 26727 net.cpp:397] relu5 -> ip1 (in-place)
I0521 05:47:52.424129 26727 net.cpp:150] Setting up relu5
I0521 05:47:52.424144 26727 net.cpp:157] Top shape: 730 196 (143080)
I0521 05:47:52.424154 26727 net.cpp:165] Memory required for data: 1151014360
I0521 05:47:52.424165 26727 layer_factory.hpp:77] Creating layer drop1
I0521 05:47:52.424187 26727 net.cpp:106] Creating Layer drop1
I0521 05:47:52.424197 26727 net.cpp:454] drop1 <- ip1
I0521 05:47:52.424222 26727 net.cpp:397] drop1 -> ip1 (in-place)
I0521 05:47:52.424269 26727 net.cpp:150] Setting up drop1
I0521 05:47:52.424283 26727 net.cpp:157] Top shape: 730 196 (143080)
I0521 05:47:52.424293 26727 net.cpp:165] Memory required for data: 1151586680
I0521 05:47:52.424304 26727 layer_factory.hpp:77] Creating layer ip2
I0521 05:47:52.424321 26727 net.cpp:106] Creating Layer ip2
I0521 05:47:52.424331 26727 net.cpp:454] ip2 <- ip1
I0521 05:47:52.424345 26727 net.cpp:411] ip2 -> ip2
I0521 05:47:52.424810 26727 net.cpp:150] Setting up ip2
I0521 05:47:52.424823 26727 net.cpp:157] Top shape: 730 98 (71540)
I0521 05:47:52.424834 26727 net.cpp:165] Memory required for data: 1151872840
I0521 05:47:52.424849 26727 layer_factory.hpp:77] Creating layer relu6
I0521 05:47:52.424861 26727 net.cpp:106] Creating Layer relu6
I0521 05:47:52.424871 26727 net.cpp:454] relu6 <- ip2
I0521 05:47:52.424883 26727 net.cpp:397] relu6 -> ip2 (in-place)
I0521 05:47:52.425403 26727 net.cpp:150] Setting up relu6
I0521 05:47:52.425420 26727 net.cpp:157] Top shape: 730 98 (71540)
I0521 05:47:52.425431 26727 net.cpp:165] Memory required for data: 1152159000
I0521 05:47:52.425441 26727 layer_factory.hpp:77] Creating layer drop2
I0521 05:47:52.425453 26727 net.cpp:106] Creating Layer drop2
I0521 05:47:52.425463 26727 net.cpp:454] drop2 <- ip2
I0521 05:47:52.425477 26727 net.cpp:397] drop2 -> ip2 (in-place)
I0521 05:47:52.425519 26727 net.cpp:150] Setting up drop2
I0521 05:47:52.425532 26727 net.cpp:157] Top shape: 730 98 (71540)
I0521 05:47:52.425542 26727 net.cpp:165] Memory required for data: 1152445160
I0521 05:47:52.425551 26727 layer_factory.hpp:77] Creating layer ip3
I0521 05:47:52.425565 26727 net.cpp:106] Creating Layer ip3
I0521 05:47:52.425575 26727 net.cpp:454] ip3 <- ip2
I0521 05:47:52.425587 26727 net.cpp:411] ip3 -> ip3
I0521 05:47:52.425797 26727 net.cpp:150] Setting up ip3
I0521 05:47:52.425811 26727 net.cpp:157] Top shape: 730 11 (8030)
I0521 05:47:52.425820 26727 net.cpp:165] Memory required for data: 1152477280
I0521 05:47:52.425835 26727 layer_factory.hpp:77] Creating layer drop3
I0521 05:47:52.425848 26727 net.cpp:106] Creating Layer drop3
I0521 05:47:52.425858 26727 net.cpp:454] drop3 <- ip3
I0521 05:47:52.425870 26727 net.cpp:397] drop3 -> ip3 (in-place)
I0521 05:47:52.425909 26727 net.cpp:150] Setting up drop3
I0521 05:47:52.425922 26727 net.cpp:157] Top shape: 730 11 (8030)
I0521 05:47:52.425932 26727 net.cpp:165] Memory required for data: 1152509400
I0521 05:47:52.425941 26727 layer_factory.hpp:77] Creating layer loss
I0521 05:47:52.425961 26727 net.cpp:106] Creating Layer loss
I0521 05:47:52.425971 26727 net.cpp:454] loss <- ip3
I0521 05:47:52.425982 26727 net.cpp:454] loss <- label
I0521 05:47:52.425994 26727 net.cpp:411] loss -> loss
I0521 05:47:52.426012 26727 layer_factory.hpp:77] Creating layer loss
…
I0521 05:47:52.428562 26727 solver.cpp:181] Creating test net (#0) specified by net file: /lustre/atlas/proj-shared/hep105/caffe_titan/caffe_workflow/logs_batch_size_test/batch_size_730_2016-05-20T11.20.59.270620.prototxt
I0521 05:47:52.428632 26727 net.cpp:322] The NetState phase (1) differed from the phase (0) specified by a rule in layer data_hdf5
I0521 05:47:52.428985 26727 net.cpp:49] Initializing net from parameters: 
name: "caffe_test_127x50_x_unshifted"
state {
  phase: TEST
}
layer {
  name: "data_hdf5"
  type: "HDF5Data"
  top: "data"
  top: "label"
  include {
    phase: TEST
  }
  hdf5_data_param {
    source: "/lustre/atlas/proj-shared/hep105/caffe_titan/minosmatch_nukecczdefs_127x50_x_unshifted_me1Bmc.testlist"
    batch_size: 730
  }
}
layer {
  name: "conv1"
  type: "Convolution"
  bottom: "data"
  top: "conv1"
  convolution_param {
    num_output: 12
    pad: 0
    stride: 1
    weight_filler {
      type: "xavier"
    }
    bias_filler {
      type: "constant"
    }
    kernel_h: 8
    kernel_w: 3
  }
}
layer {
  name: "relu1"
  type: "ReLU"
  bottom: "conv1"
  top: "conv1"
}
layer {
  name: "pool1"
  type: "Pooling"
  bottom: "conv1"
  top: "pool1"
  pooling_param {
    pool: MAX
    kernel_h: 2
    kernel_w: 1
    stride_h: 2
    stride_w: 1
  }
}
layer {
  name: "conv2"
  type: "Convolution"
  bottom: "pool1"
  top: "conv2"
  convolution_param {
    num_output: 20
    pad: 0
    stride: 1
    weight_filler {
      type: "xavier"
    }
    bias_filler {
      type: "constant"
    }
    kernel_h: 7
    kernel_w: 3
  }
}
layer {
  name: "relu2"
  type: "ReLU"
  bottom: "conv2"
  top: "conv2"
}
layer {
  name: "pool2"
  type: "Pooling"
  bottom: "conv2"
  top: "pool2"
  pooling_param {
    pool: MAX
    kernel_h: 2
    kernel_w: 1
    stride_h: 2
    stride_w: 1
  }
}
layer {
  name: "conv3"
  type: "Convolution"
  bottom: "pool2"
  top: "conv3"
  convolution_param {
    num_output: 28
    pad: 0
    stride: 1
    weight_filler {
      type: "xavier"
    }
    bias_filler {
      type: "constant"
    }
    kernel_h: 6
    kernel_w: 3
  }
}
layer {
  name: "relu3"
  type: "ReLU"
  bottom: "conv3"
  top: "conv3"
}
layer {
  name: "pool3"
  type: "Pooling"
  bottom: "conv3"
  top: "pool3"
  pooling_param {
    pool: MAX
    kernel_h: 2
    kernel_w: 1
    stride_h: 2
    stride_w: 1
  }
}
layer {
  name: "conv4"
  type: "Convolution"
  bottom: "pool3"
  top: "conv4"
  convolution_param {
    num_output: 36
    pad: 0
    stride: 1
    weight_filler {
      type: "xavier"
    }
    bias_filler {
      type: "constant"
    }
    kernel_h: 6
    kernel_w: 3
  }
}
layer {
  name: "relu4"
  type: "ReLU"
  bottom: "conv4"
  top: "conv4"
}
layer {
  name: "pool4"
  type: "Pooling"
  bottom: "conv4"
  top: "pool4"
  pooling_param {
    pool: MAX
    kernel_h: 2
    kernel_w: 1
    stride_h: 2
    stride_w: 1
  }
}
layer {
  name: "ip1"
  type: "InnerProduct"
  bottom: "pool4"
  top: "ip1"
  inner_product_param {
    num_output: 196
    weight_filler {
      type: "xavier"
    }
    bias_filler {
      type: "constant"
    }
  }
}
layer {
  name: "relu5"
  type: "ReLU"
  bottom: "ip1"
  top: "ip1"
}
layer {
  name: "drop1"
  type: "Dropout"
  bottom: "ip1"
  top: "ip1"
  dropout_param {
    dropout_ratio: 0.5
  }
}
layer {
  name: "ip2"
  type: "InnerProduct"
  bottom: "ip1"
  top: "ip2"
  inner_product_param {
    num_output: 98
    weight_filler {
      type: "xavier"
    }
    bias_filler {
      type: "constant"
    }
  }
}
layer {
  name: "relu6"
  type: "ReLU"
  bottom: "ip2"
  top: "ip2"
}
layer {
  name: "drop2"
  type: "Dropout"
  bottom: "ip2"
  top: "ip2"
  dropout_param {
    dropout_ratio: 0.5
  }
}
layer {
  name: "ip3"
  type: "InnerProduct"
  bottom: "ip2"
  top: "ip3"
  inner_product_param {
    num_output: 11
    weight_filler {
      type: "xavier"
    }
    bias_filler {
      type: "constant"
    }
  }
}
layer {
  name: "drop3"
  type: "Dropout"
  bottom: "ip3"
  top: "ip3"
  dropout_param {
    dropout_ratio: 0.5
  }
}
layer {
  name: "accuracy"
  type: "Accuracy"
  bottom: "ip3"
  bottom: "label"
  top: "accuracy"
  include {
    phase: TEST
  }
}
layer {
  name: "loss"
  type: "SoftmaxWithLoss"
  bottom: "ip3"
  bottom: "label"
  top: "loss"
}
I0521 05:47:52.429173 26727 layer_factory.hpp:77] Creating layer data_hdf5
I0521 05:47:52.429188 26727 net.cpp:106] Creating Layer data_hdf5
I0521 05:47:52.429200 26727 net.cpp:411] data_hdf5 -> data
I0521 05:47:52.429217 26727 net.cpp:411] data_hdf5 -> label
I0521 05:47:52.429244 26727 hdf5_data_layer.cpp:79] Loading list of HDF5 filenames from: /lustre/atlas/proj-shared/hep105/caffe_titan/minosmatch_nukecczdefs_127x50_x_unshifted_me1Bmc.testlist
I0521 05:47:52.430413 26727 hdf5_data_layer.cpp:93] Number of HDF5 files: 3
I0521 05:48:13.729810 26727 net.cpp:150] Setting up data_hdf5
I0521 05:48:13.729986 26727 net.cpp:157] Top shape: 730 1 127 50 (4635500)
I0521 05:48:13.730000 26727 net.cpp:157] Top shape: 730 (730)
I0521 05:48:13.730011 26727 net.cpp:165] Memory required for data: 18544920
I0521 05:48:13.730026 26727 layer_factory.hpp:77] Creating layer label_data_hdf5_1_split
I0521 05:48:13.730053 26727 net.cpp:106] Creating Layer label_data_hdf5_1_split
I0521 05:48:13.730064 26727 net.cpp:454] label_data_hdf5_1_split <- label
I0521 05:48:13.730079 26727 net.cpp:411] label_data_hdf5_1_split -> label_data_hdf5_1_split_0
I0521 05:48:13.730099 26727 net.cpp:411] label_data_hdf5_1_split -> label_data_hdf5_1_split_1
I0521 05:48:13.730172 26727 net.cpp:150] Setting up label_data_hdf5_1_split
I0521 05:48:13.730186 26727 net.cpp:157] Top shape: 730 (730)
I0521 05:48:13.730197 26727 net.cpp:157] Top shape: 730 (730)
I0521 05:48:13.730207 26727 net.cpp:165] Memory required for data: 18550760
I0521 05:48:13.730217 26727 layer_factory.hpp:77] Creating layer conv1
I0521 05:48:13.730239 26727 net.cpp:106] Creating Layer conv1
I0521 05:48:13.730250 26727 net.cpp:454] conv1 <- data
I0521 05:48:13.730265 26727 net.cpp:411] conv1 -> conv1
I0521 05:48:13.732172 26727 net.cpp:150] Setting up conv1
I0521 05:48:13.732195 26727 net.cpp:157] Top shape: 730 12 120 48 (50457600)
I0521 05:48:13.732208 26727 net.cpp:165] Memory required for data: 220381160
I0521 05:48:13.732228 26727 layer_factory.hpp:77] Creating layer relu1
I0521 05:48:13.732244 26727 net.cpp:106] Creating Layer relu1
I0521 05:48:13.732254 26727 net.cpp:454] relu1 <- conv1
I0521 05:48:13.732266 26727 net.cpp:397] relu1 -> conv1 (in-place)
I0521 05:48:13.732760 26727 net.cpp:150] Setting up relu1
I0521 05:48:13.732776 26727 net.cpp:157] Top shape: 730 12 120 48 (50457600)
I0521 05:48:13.732786 26727 net.cpp:165] Memory required for data: 422211560
I0521 05:48:13.732797 26727 layer_factory.hpp:77] Creating layer pool1
I0521 05:48:13.732813 26727 net.cpp:106] Creating Layer pool1
I0521 05:48:13.732823 26727 net.cpp:454] pool1 <- conv1
I0521 05:48:13.732836 26727 net.cpp:411] pool1 -> pool1
I0521 05:48:13.732911 26727 net.cpp:150] Setting up pool1
I0521 05:48:13.732924 26727 net.cpp:157] Top shape: 730 12 60 48 (25228800)
I0521 05:48:13.732935 26727 net.cpp:165] Memory required for data: 523126760
I0521 05:48:13.732946 26727 layer_factory.hpp:77] Creating layer conv2
I0521 05:48:13.732964 26727 net.cpp:106] Creating Layer conv2
I0521 05:48:13.732975 26727 net.cpp:454] conv2 <- pool1
I0521 05:48:13.732988 26727 net.cpp:411] conv2 -> conv2
I0521 05:48:13.734916 26727 net.cpp:150] Setting up conv2
I0521 05:48:13.734940 26727 net.cpp:157] Top shape: 730 20 54 46 (36266400)
I0521 05:48:13.734949 26727 net.cpp:165] Memory required for data: 668192360
I0521 05:48:13.734969 26727 layer_factory.hpp:77] Creating layer relu2
I0521 05:48:13.734982 26727 net.cpp:106] Creating Layer relu2
I0521 05:48:13.734992 26727 net.cpp:454] relu2 <- conv2
I0521 05:48:13.735004 26727 net.cpp:397] relu2 -> conv2 (in-place)
I0521 05:48:13.735340 26727 net.cpp:150] Setting up relu2
I0521 05:48:13.735354 26727 net.cpp:157] Top shape: 730 20 54 46 (36266400)
I0521 05:48:13.735364 26727 net.cpp:165] Memory required for data: 813257960
I0521 05:48:13.735375 26727 layer_factory.hpp:77] Creating layer pool2
I0521 05:48:13.735388 26727 net.cpp:106] Creating Layer pool2
I0521 05:48:13.735399 26727 net.cpp:454] pool2 <- conv2
I0521 05:48:13.735410 26727 net.cpp:411] pool2 -> pool2
I0521 05:48:13.735482 26727 net.cpp:150] Setting up pool2
I0521 05:48:13.735496 26727 net.cpp:157] Top shape: 730 20 27 46 (18133200)
I0521 05:48:13.735507 26727 net.cpp:165] Memory required for data: 885790760
I0521 05:48:13.735517 26727 layer_factory.hpp:77] Creating layer conv3
I0521 05:48:13.735534 26727 net.cpp:106] Creating Layer conv3
I0521 05:48:13.735545 26727 net.cpp:454] conv3 <- pool2
I0521 05:48:13.735559 26727 net.cpp:411] conv3 -> conv3
I0521 05:48:13.737543 26727 net.cpp:150] Setting up conv3
I0521 05:48:13.737567 26727 net.cpp:157] Top shape: 730 28 22 44 (19785920)
I0521 05:48:13.737579 26727 net.cpp:165] Memory required for data: 964934440
I0521 05:48:13.737612 26727 layer_factory.hpp:77] Creating layer relu3
I0521 05:48:13.737625 26727 net.cpp:106] Creating Layer relu3
I0521 05:48:13.737637 26727 net.cpp:454] relu3 <- conv3
I0521 05:48:13.737649 26727 net.cpp:397] relu3 -> conv3 (in-place)
I0521 05:48:13.738119 26727 net.cpp:150] Setting up relu3
I0521 05:48:13.738135 26727 net.cpp:157] Top shape: 730 28 22 44 (19785920)
I0521 05:48:13.738147 26727 net.cpp:165] Memory required for data: 1044078120
I0521 05:48:13.738157 26727 layer_factory.hpp:77] Creating layer pool3
I0521 05:48:13.738169 26727 net.cpp:106] Creating Layer pool3
I0521 05:48:13.738179 26727 net.cpp:454] pool3 <- conv3
I0521 05:48:13.738193 26727 net.cpp:411] pool3 -> pool3
I0521 05:48:13.738265 26727 net.cpp:150] Setting up pool3
I0521 05:48:13.738277 26727 net.cpp:157] Top shape: 730 28 11 44 (9892960)
I0521 05:48:13.738287 26727 net.cpp:165] Memory required for data: 1083649960
I0521 05:48:13.738298 26727 layer_factory.hpp:77] Creating layer conv4
I0521 05:48:13.738314 26727 net.cpp:106] Creating Layer conv4
I0521 05:48:13.738325 26727 net.cpp:454] conv4 <- pool3
I0521 05:48:13.738339 26727 net.cpp:411] conv4 -> conv4
I0521 05:48:13.740393 26727 net.cpp:150] Setting up conv4
I0521 05:48:13.740417 26727 net.cpp:157] Top shape: 730 36 6 42 (6622560)
I0521 05:48:13.740428 26727 net.cpp:165] Memory required for data: 1110140200
I0521 05:48:13.740445 26727 layer_factory.hpp:77] Creating layer relu4
I0521 05:48:13.740458 26727 net.cpp:106] Creating Layer relu4
I0521 05:48:13.740468 26727 net.cpp:454] relu4 <- conv4
I0521 05:48:13.740481 26727 net.cpp:397] relu4 -> conv4 (in-place)
I0521 05:48:13.740950 26727 net.cpp:150] Setting up relu4
I0521 05:48:13.740967 26727 net.cpp:157] Top shape: 730 36 6 42 (6622560)
I0521 05:48:13.740978 26727 net.cpp:165] Memory required for data: 1136630440
I0521 05:48:13.740988 26727 layer_factory.hpp:77] Creating layer pool4
I0521 05:48:13.741000 26727 net.cpp:106] Creating Layer pool4
I0521 05:48:13.741010 26727 net.cpp:454] pool4 <- conv4
I0521 05:48:13.741024 26727 net.cpp:411] pool4 -> pool4
I0521 05:48:13.741094 26727 net.cpp:150] Setting up pool4
I0521 05:48:13.741108 26727 net.cpp:157] Top shape: 730 36 3 42 (3311280)
I0521 05:48:13.741118 26727 net.cpp:165] Memory required for data: 1149875560
I0521 05:48:13.741127 26727 layer_factory.hpp:77] Creating layer ip1
I0521 05:48:13.741142 26727 net.cpp:106] Creating Layer ip1
I0521 05:48:13.741152 26727 net.cpp:454] ip1 <- pool4
I0521 05:48:13.741165 26727 net.cpp:411] ip1 -> ip1
I0521 05:48:13.756634 26727 net.cpp:150] Setting up ip1
I0521 05:48:13.756662 26727 net.cpp:157] Top shape: 730 196 (143080)
I0521 05:48:13.756675 26727 net.cpp:165] Memory required for data: 1150447880
I0521 05:48:13.756696 26727 layer_factory.hpp:77] Creating layer relu5
I0521 05:48:13.756711 26727 net.cpp:106] Creating Layer relu5
I0521 05:48:13.756722 26727 net.cpp:454] relu5 <- ip1
I0521 05:48:13.756736 26727 net.cpp:397] relu5 -> ip1 (in-place)
I0521 05:48:13.757081 26727 net.cpp:150] Setting up relu5
I0521 05:48:13.757096 26727 net.cpp:157] Top shape: 730 196 (143080)
I0521 05:48:13.757105 26727 net.cpp:165] Memory required for data: 1151020200
I0521 05:48:13.757115 26727 layer_factory.hpp:77] Creating layer drop1
I0521 05:48:13.757134 26727 net.cpp:106] Creating Layer drop1
I0521 05:48:13.757144 26727 net.cpp:454] drop1 <- ip1
I0521 05:48:13.757158 26727 net.cpp:397] drop1 -> ip1 (in-place)
I0521 05:48:13.757202 26727 net.cpp:150] Setting up drop1
I0521 05:48:13.757215 26727 net.cpp:157] Top shape: 730 196 (143080)
I0521 05:48:13.757225 26727 net.cpp:165] Memory required for data: 1151592520
I0521 05:48:13.757241 26727 layer_factory.hpp:77] Creating layer ip2
I0521 05:48:13.757256 26727 net.cpp:106] Creating Layer ip2
I0521 05:48:13.757266 26727 net.cpp:454] ip2 <- ip1
I0521 05:48:13.757280 26727 net.cpp:411] ip2 -> ip2
I0521 05:48:13.757764 26727 net.cpp:150] Setting up ip2
I0521 05:48:13.757777 26727 net.cpp:157] Top shape: 730 98 (71540)
I0521 05:48:13.757787 26727 net.cpp:165] Memory required for data: 1151878680
I0521 05:48:13.757814 26727 layer_factory.hpp:77] Creating layer relu6
I0521 05:48:13.757828 26727 net.cpp:106] Creating Layer relu6
I0521 05:48:13.757838 26727 net.cpp:454] relu6 <- ip2
I0521 05:48:13.757851 26727 net.cpp:397] relu6 -> ip2 (in-place)
I0521 05:48:13.758376 26727 net.cpp:150] Setting up relu6
I0521 05:48:13.758394 26727 net.cpp:157] Top shape: 730 98 (71540)
I0521 05:48:13.758402 26727 net.cpp:165] Memory required for data: 1152164840
I0521 05:48:13.758412 26727 layer_factory.hpp:77] Creating layer drop2
I0521 05:48:13.758426 26727 net.cpp:106] Creating Layer drop2
I0521 05:48:13.758436 26727 net.cpp:454] drop2 <- ip2
I0521 05:48:13.758450 26727 net.cpp:397] drop2 -> ip2 (in-place)
I0521 05:48:13.758493 26727 net.cpp:150] Setting up drop2
I0521 05:48:13.758507 26727 net.cpp:157] Top shape: 730 98 (71540)
I0521 05:48:13.758517 26727 net.cpp:165] Memory required for data: 1152451000
I0521 05:48:13.758527 26727 layer_factory.hpp:77] Creating layer ip3
I0521 05:48:13.758541 26727 net.cpp:106] Creating Layer ip3
I0521 05:48:13.758551 26727 net.cpp:454] ip3 <- ip2
I0521 05:48:13.758565 26727 net.cpp:411] ip3 -> ip3
I0521 05:48:13.758787 26727 net.cpp:150] Setting up ip3
I0521 05:48:13.758800 26727 net.cpp:157] Top shape: 730 11 (8030)
I0521 05:48:13.758810 26727 net.cpp:165] Memory required for data: 1152483120
I0521 05:48:13.758826 26727 layer_factory.hpp:77] Creating layer drop3
I0521 05:48:13.758839 26727 net.cpp:106] Creating Layer drop3
I0521 05:48:13.758849 26727 net.cpp:454] drop3 <- ip3
I0521 05:48:13.758862 26727 net.cpp:397] drop3 -> ip3 (in-place)
I0521 05:48:13.758903 26727 net.cpp:150] Setting up drop3
I0521 05:48:13.758916 26727 net.cpp:157] Top shape: 730 11 (8030)
I0521 05:48:13.758926 26727 net.cpp:165] Memory required for data: 1152515240
I0521 05:48:13.758936 26727 layer_factory.hpp:77] Creating layer ip3_drop3_0_split
I0521 05:48:13.758949 26727 net.cpp:106] Creating Layer ip3_drop3_0_split
I0521 05:48:13.758958 26727 net.cpp:454] ip3_drop3_0_split <- ip3
I0521 05:48:13.758971 26727 net.cpp:411] ip3_drop3_0_split -> ip3_drop3_0_split_0
I0521 05:48:13.758986 26727 net.cpp:411] ip3_drop3_0_split -> ip3_drop3_0_split_1
I0521 05:48:13.759059 26727 net.cpp:150] Setting up ip3_drop3_0_split
I0521 05:48:13.759073 26727 net.cpp:157] Top shape: 730 11 (8030)
I0521 05:48:13.759085 26727 net.cpp:157] Top shape: 730 11 (8030)
I0521 05:48:13.759095 26727 net.cpp:165] Memory required for data: 1152579480
I0521 05:48:13.759105 26727 layer_factory.hpp:77] Creating layer accuracy
I0521 05:48:13.759126 26727 net.cpp:106] Creating Layer accuracy
I0521 05:48:13.759136 26727 net.cpp:454] accuracy <- ip3_drop3_0_split_0
I0521 05:48:13.759147 26727 net.cpp:454] accuracy <- label_data_hdf5_1_split_0
I0521 05:48:13.759160 26727 net.cpp:411] accuracy -> accuracy
…
