…
I0520 20:46:47.562408 28826 net.cpp:322] The NetState phase (0) differed from the phase (1) specified by a rule in layer data_hdf5
I0520 20:46:47.562468 28826 net.cpp:322] The NetState phase (0) differed from the phase (1) specified by a rule in layer accuracy
I0520 20:46:47.562813 28826 net.cpp:49] Initializing net from parameters: 
name: "caffe_test_127x50_x_unshifted"
state {
  phase: TRAIN
}
layer {
  name: "data_hdf5"
  type: "HDF5Data"
  top: "data"
  top: "label"
  include {
    phase: TRAIN
  }
  hdf5_data_param {
    source: "/lustre/atlas/proj-shared/hep105/caffe_titan/minosmatch_nukecczdefs_127x50_x_unshifted_me1Bmc.trainlist"
    batch_size: 300
  }
}
layer {
  name: "conv1"
  type: "Convolution"
  bottom: "data"
  top: "conv1"
  convolution_param {
    num_output: 12
    pad: 0
    stride: 1
    weight_filler {
      type: "xavier"
    }
    bias_filler {
      type: "constant"
    }
    kernel_h: 8
    kernel_w: 3
  }
}
layer {
  name: "relu1"
  type: "ReLU"
  bottom: "conv1"
  top: "conv1"
}
layer {
  name: "pool1"
  type: "Pooling"
  bottom: "conv1"
  top: "pool1"
  pooling_param {
    pool: MAX
    kernel_h: 2
    kernel_w: 1
    stride_h: 2
    stride_w: 1
  }
}
layer {
  name: "conv2"
  type: "Convolution"
  bottom: "pool1"
  top: "conv2"
  convolution_param {
    num_output: 20
    pad: 0
    stride: 1
    weight_filler {
      type: "xavier"
    }
    bias_filler {
      type: "constant"
    }
    kernel_h: 7
    kernel_w: 3
  }
}
layer {
  name: "relu2"
  type: "ReLU"
  bottom: "conv2"
  top: "conv2"
}
layer {
  name: "pool2"
  type: "Pooling"
  bottom: "conv2"
  top: "pool2"
  pooling_param {
    pool: MAX
    kernel_h: 2
    kernel_w: 1
    stride_h: 2
    stride_w: 1
  }
}
layer {
  name: "conv3"
  type: "Convolution"
  bottom: "pool2"
  top: "conv3"
  convolution_param {
    num_output: 28
    pad: 0
    stride: 1
    weight_filler {
      type: "xavier"
    }
    bias_filler {
      type: "constant"
    }
    kernel_h: 6
    kernel_w: 3
  }
}
layer {
  name: "relu3"
  type: "ReLU"
  bottom: "conv3"
  top: "conv3"
}
layer {
  name: "pool3"
  type: "Pooling"
  bottom: "conv3"
  top: "pool3"
  pooling_param {
    pool: MAX
    kernel_h: 2
    kernel_w: 1
    stride_h: 2
    stride_w: 1
  }
}
layer {
  name: "conv4"
  type: "Convolution"
  bottom: "pool3"
  top: "conv4"
  convolution_param {
    num_output: 36
    pad: 0
    stride: 1
    weight_filler {
      type: "xavier"
    }
    bias_filler {
      type: "constant"
    }
    kernel_h: 6
    kernel_w: 3
  }
}
layer {
  name: "relu4"
  type: "ReLU"
  bottom: "conv4"
  top: "conv4"
}
layer {
  name: "pool4"
  type: "Pooling"
  bottom: "conv4"
  top: "pool4"
  pooling_param {
    pool: MAX
    kernel_h: 2
    kernel_w: 1
    stride_h: 2
    stride_w: 1
  }
}
layer {
  name: "ip1"
  type: "InnerProduct"
  bottom: "pool4"
  top: "ip1"
  inner_product_param {
    num_output: 196
    weight_filler {
      type: "xavier"
    }
    bias_filler {
      type: "constant"
    }
  }
}
layer {
  name: "relu5"
  type: "ReLU"
  bottom: "ip1"
  top: "ip1"
}
layer {
  name: "drop1"
  type: "Dropout"
  bottom: "ip1"
  top: "ip1"
  dropout_param {
    dropout_ratio: 0.5
  }
}
layer {
  name: "ip2"
  type: "InnerProduct"
  bottom: "ip1"
  top: "ip2"
  inner_product_param {
    num_output: 98
    weight_filler {
      type: "xavier"
    }
    bias_filler {
      type: "constant"
    }
  }
}
layer {
  name: "relu6"
  type: "ReLU"
  bottom: "ip2"
  top: "ip2"
}
layer {
  name: "drop2"
  type: "Dropout"
  bottom: "ip2"
  top: "ip2"
  dropout_param {
    dropout_ratio: 0.5
  }
}
layer {
  name: "ip3"
  type: "InnerProduct"
  bottom: "ip2"
  top: "ip3"
  inner_product_param {
    num_output: 11
    weight_filler {
      type: "xavier"
    }
    bias_filler {
      type: "constant"
    }
  }
}
layer {
  name: "drop3"
  type: "Dropout"
  bottom: "ip3"
  top: "ip3"
  dropout_param {
    dropout_ratio: 0.5
  }
}
layer {
  name: "loss"
  type: "SoftmaxWithLoss"
  bottom: "ip3"
  bottom: "label"
  top: "loss"
}
I0520 20:46:47.562990 28826 layer_factory.hpp:77] Creating layer data_hdf5
I0520 20:46:47.563014 28826 net.cpp:106] Creating Layer data_hdf5
I0520 20:46:47.563029 28826 net.cpp:411] data_hdf5 -> data
I0520 20:46:47.563062 28826 net.cpp:411] data_hdf5 -> label
I0520 20:46:47.563094 28826 hdf5_data_layer.cpp:79] Loading list of HDF5 filenames from: /lustre/atlas/proj-shared/hep105/caffe_titan/minosmatch_nukecczdefs_127x50_x_unshifted_me1Bmc.trainlist
I0520 20:46:47.564251 28826 hdf5_data_layer.cpp:93] Number of HDF5 files: 15
I0520 20:46:47.566422 28826 hdf5.cpp:32] Datatype class: H5T_FLOAT
I0520 20:47:09.120826 28826 hdf5.cpp:35] Datatype class: H5T_INTEGER
I0520 20:47:09.126004 28826 net.cpp:150] Setting up data_hdf5
I0520 20:47:09.126044 28826 net.cpp:157] Top shape: 300 1 127 50 (1905000)
I0520 20:47:09.126060 28826 net.cpp:157] Top shape: 300 (300)
I0520 20:47:09.126072 28826 net.cpp:165] Memory required for data: 7621200
I0520 20:47:09.126085 28826 layer_factory.hpp:77] Creating layer conv1
I0520 20:47:09.126121 28826 net.cpp:106] Creating Layer conv1
I0520 20:47:09.126132 28826 net.cpp:454] conv1 <- data
I0520 20:47:09.126157 28826 net.cpp:411] conv1 -> conv1
I0520 20:47:09.490967 28826 net.cpp:150] Setting up conv1
I0520 20:47:09.491009 28826 net.cpp:157] Top shape: 300 12 120 48 (20736000)
I0520 20:47:09.491020 28826 net.cpp:165] Memory required for data: 90565200
I0520 20:47:09.491050 28826 layer_factory.hpp:77] Creating layer relu1
I0520 20:47:09.491070 28826 net.cpp:106] Creating Layer relu1
I0520 20:47:09.491081 28826 net.cpp:454] relu1 <- conv1
I0520 20:47:09.491096 28826 net.cpp:397] relu1 -> conv1 (in-place)
I0520 20:47:09.491613 28826 net.cpp:150] Setting up relu1
I0520 20:47:09.491631 28826 net.cpp:157] Top shape: 300 12 120 48 (20736000)
I0520 20:47:09.491641 28826 net.cpp:165] Memory required for data: 173509200
I0520 20:47:09.491652 28826 layer_factory.hpp:77] Creating layer pool1
I0520 20:47:09.491667 28826 net.cpp:106] Creating Layer pool1
I0520 20:47:09.491677 28826 net.cpp:454] pool1 <- conv1
I0520 20:47:09.491690 28826 net.cpp:411] pool1 -> pool1
I0520 20:47:09.491770 28826 net.cpp:150] Setting up pool1
I0520 20:47:09.491785 28826 net.cpp:157] Top shape: 300 12 60 48 (10368000)
I0520 20:47:09.491796 28826 net.cpp:165] Memory required for data: 214981200
I0520 20:47:09.491802 28826 layer_factory.hpp:77] Creating layer conv2
I0520 20:47:09.491827 28826 net.cpp:106] Creating Layer conv2
I0520 20:47:09.491837 28826 net.cpp:454] conv2 <- pool1
I0520 20:47:09.491852 28826 net.cpp:411] conv2 -> conv2
I0520 20:47:09.494544 28826 net.cpp:150] Setting up conv2
I0520 20:47:09.494570 28826 net.cpp:157] Top shape: 300 20 54 46 (14904000)
I0520 20:47:09.494582 28826 net.cpp:165] Memory required for data: 274597200
I0520 20:47:09.494602 28826 layer_factory.hpp:77] Creating layer relu2
I0520 20:47:09.494617 28826 net.cpp:106] Creating Layer relu2
I0520 20:47:09.494627 28826 net.cpp:454] relu2 <- conv2
I0520 20:47:09.494639 28826 net.cpp:397] relu2 -> conv2 (in-place)
I0520 20:47:09.494969 28826 net.cpp:150] Setting up relu2
I0520 20:47:09.494983 28826 net.cpp:157] Top shape: 300 20 54 46 (14904000)
I0520 20:47:09.494993 28826 net.cpp:165] Memory required for data: 334213200
I0520 20:47:09.495003 28826 layer_factory.hpp:77] Creating layer pool2
I0520 20:47:09.495017 28826 net.cpp:106] Creating Layer pool2
I0520 20:47:09.495026 28826 net.cpp:454] pool2 <- conv2
I0520 20:47:09.495051 28826 net.cpp:411] pool2 -> pool2
I0520 20:47:09.495121 28826 net.cpp:150] Setting up pool2
I0520 20:47:09.495134 28826 net.cpp:157] Top shape: 300 20 27 46 (7452000)
I0520 20:47:09.495143 28826 net.cpp:165] Memory required for data: 364021200
I0520 20:47:09.495151 28826 layer_factory.hpp:77] Creating layer conv3
I0520 20:47:09.495170 28826 net.cpp:106] Creating Layer conv3
I0520 20:47:09.495180 28826 net.cpp:454] conv3 <- pool2
I0520 20:47:09.495194 28826 net.cpp:411] conv3 -> conv3
I0520 20:47:09.497150 28826 net.cpp:150] Setting up conv3
I0520 20:47:09.497174 28826 net.cpp:157] Top shape: 300 28 22 44 (8131200)
I0520 20:47:09.497186 28826 net.cpp:165] Memory required for data: 396546000
I0520 20:47:09.497205 28826 layer_factory.hpp:77] Creating layer relu3
I0520 20:47:09.497220 28826 net.cpp:106] Creating Layer relu3
I0520 20:47:09.497231 28826 net.cpp:454] relu3 <- conv3
I0520 20:47:09.497242 28826 net.cpp:397] relu3 -> conv3 (in-place)
I0520 20:47:09.497714 28826 net.cpp:150] Setting up relu3
I0520 20:47:09.497730 28826 net.cpp:157] Top shape: 300 28 22 44 (8131200)
I0520 20:47:09.497741 28826 net.cpp:165] Memory required for data: 429070800
I0520 20:47:09.497751 28826 layer_factory.hpp:77] Creating layer pool3
I0520 20:47:09.497764 28826 net.cpp:106] Creating Layer pool3
I0520 20:47:09.497774 28826 net.cpp:454] pool3 <- conv3
I0520 20:47:09.497786 28826 net.cpp:411] pool3 -> pool3
I0520 20:47:09.497854 28826 net.cpp:150] Setting up pool3
I0520 20:47:09.497867 28826 net.cpp:157] Top shape: 300 28 11 44 (4065600)
I0520 20:47:09.497877 28826 net.cpp:165] Memory required for data: 445333200
I0520 20:47:09.497885 28826 layer_factory.hpp:77] Creating layer conv4
I0520 20:47:09.497903 28826 net.cpp:106] Creating Layer conv4
I0520 20:47:09.497913 28826 net.cpp:454] conv4 <- pool3
I0520 20:47:09.497927 28826 net.cpp:411] conv4 -> conv4
I0520 20:47:09.500644 28826 net.cpp:150] Setting up conv4
I0520 20:47:09.500672 28826 net.cpp:157] Top shape: 300 36 6 42 (2721600)
I0520 20:47:09.500682 28826 net.cpp:165] Memory required for data: 456219600
I0520 20:47:09.500699 28826 layer_factory.hpp:77] Creating layer relu4
I0520 20:47:09.500712 28826 net.cpp:106] Creating Layer relu4
I0520 20:47:09.500722 28826 net.cpp:454] relu4 <- conv4
I0520 20:47:09.500735 28826 net.cpp:397] relu4 -> conv4 (in-place)
I0520 20:47:09.501212 28826 net.cpp:150] Setting up relu4
I0520 20:47:09.501229 28826 net.cpp:157] Top shape: 300 36 6 42 (2721600)
I0520 20:47:09.501240 28826 net.cpp:165] Memory required for data: 467106000
I0520 20:47:09.501250 28826 layer_factory.hpp:77] Creating layer pool4
I0520 20:47:09.501262 28826 net.cpp:106] Creating Layer pool4
I0520 20:47:09.501272 28826 net.cpp:454] pool4 <- conv4
I0520 20:47:09.501286 28826 net.cpp:411] pool4 -> pool4
I0520 20:47:09.501353 28826 net.cpp:150] Setting up pool4
I0520 20:47:09.501368 28826 net.cpp:157] Top shape: 300 36 3 42 (1360800)
I0520 20:47:09.501377 28826 net.cpp:165] Memory required for data: 472549200
I0520 20:47:09.501387 28826 layer_factory.hpp:77] Creating layer ip1
I0520 20:47:09.501407 28826 net.cpp:106] Creating Layer ip1
I0520 20:47:09.501418 28826 net.cpp:454] ip1 <- pool4
I0520 20:47:09.501432 28826 net.cpp:411] ip1 -> ip1
I0520 20:47:09.516964 28826 net.cpp:150] Setting up ip1
I0520 20:47:09.516993 28826 net.cpp:157] Top shape: 300 196 (58800)
I0520 20:47:09.517009 28826 net.cpp:165] Memory required for data: 472784400
I0520 20:47:09.517035 28826 layer_factory.hpp:77] Creating layer relu5
I0520 20:47:09.517050 28826 net.cpp:106] Creating Layer relu5
I0520 20:47:09.517060 28826 net.cpp:454] relu5 <- ip1
I0520 20:47:09.517074 28826 net.cpp:397] relu5 -> ip1 (in-place)
I0520 20:47:09.517417 28826 net.cpp:150] Setting up relu5
I0520 20:47:09.517431 28826 net.cpp:157] Top shape: 300 196 (58800)
I0520 20:47:09.517443 28826 net.cpp:165] Memory required for data: 473019600
I0520 20:47:09.517453 28826 layer_factory.hpp:77] Creating layer drop1
I0520 20:47:09.517474 28826 net.cpp:106] Creating Layer drop1
I0520 20:47:09.517484 28826 net.cpp:454] drop1 <- ip1
I0520 20:47:09.517509 28826 net.cpp:397] drop1 -> ip1 (in-place)
I0520 20:47:09.517555 28826 net.cpp:150] Setting up drop1
I0520 20:47:09.517570 28826 net.cpp:157] Top shape: 300 196 (58800)
I0520 20:47:09.517580 28826 net.cpp:165] Memory required for data: 473254800
I0520 20:47:09.517588 28826 layer_factory.hpp:77] Creating layer ip2
I0520 20:47:09.517607 28826 net.cpp:106] Creating Layer ip2
I0520 20:47:09.517617 28826 net.cpp:454] ip2 <- ip1
I0520 20:47:09.517630 28826 net.cpp:411] ip2 -> ip2
I0520 20:47:09.518093 28826 net.cpp:150] Setting up ip2
I0520 20:47:09.518106 28826 net.cpp:157] Top shape: 300 98 (29400)
I0520 20:47:09.518116 28826 net.cpp:165] Memory required for data: 473372400
I0520 20:47:09.518131 28826 layer_factory.hpp:77] Creating layer relu6
I0520 20:47:09.518143 28826 net.cpp:106] Creating Layer relu6
I0520 20:47:09.518153 28826 net.cpp:454] relu6 <- ip2
I0520 20:47:09.518165 28826 net.cpp:397] relu6 -> ip2 (in-place)
I0520 20:47:09.518683 28826 net.cpp:150] Setting up relu6
I0520 20:47:09.518699 28826 net.cpp:157] Top shape: 300 98 (29400)
I0520 20:47:09.518710 28826 net.cpp:165] Memory required for data: 473490000
I0520 20:47:09.518720 28826 layer_factory.hpp:77] Creating layer drop2
I0520 20:47:09.518733 28826 net.cpp:106] Creating Layer drop2
I0520 20:47:09.518743 28826 net.cpp:454] drop2 <- ip2
I0520 20:47:09.518755 28826 net.cpp:397] drop2 -> ip2 (in-place)
I0520 20:47:09.518797 28826 net.cpp:150] Setting up drop2
I0520 20:47:09.518810 28826 net.cpp:157] Top shape: 300 98 (29400)
I0520 20:47:09.518821 28826 net.cpp:165] Memory required for data: 473607600
I0520 20:47:09.518831 28826 layer_factory.hpp:77] Creating layer ip3
I0520 20:47:09.518843 28826 net.cpp:106] Creating Layer ip3
I0520 20:47:09.518853 28826 net.cpp:454] ip3 <- ip2
I0520 20:47:09.518867 28826 net.cpp:411] ip3 -> ip3
I0520 20:47:09.519076 28826 net.cpp:150] Setting up ip3
I0520 20:47:09.519089 28826 net.cpp:157] Top shape: 300 11 (3300)
I0520 20:47:09.519099 28826 net.cpp:165] Memory required for data: 473620800
I0520 20:47:09.519114 28826 layer_factory.hpp:77] Creating layer drop3
I0520 20:47:09.519126 28826 net.cpp:106] Creating Layer drop3
I0520 20:47:09.519136 28826 net.cpp:454] drop3 <- ip3
I0520 20:47:09.519148 28826 net.cpp:397] drop3 -> ip3 (in-place)
I0520 20:47:09.519187 28826 net.cpp:150] Setting up drop3
I0520 20:47:09.519201 28826 net.cpp:157] Top shape: 300 11 (3300)
I0520 20:47:09.519212 28826 net.cpp:165] Memory required for data: 473634000
I0520 20:47:09.519222 28826 layer_factory.hpp:77] Creating layer loss
I0520 20:47:09.519240 28826 net.cpp:106] Creating Layer loss
I0520 20:47:09.519250 28826 net.cpp:454] loss <- ip3
I0520 20:47:09.519263 28826 net.cpp:454] loss <- label
I0520 20:47:09.519275 28826 net.cpp:411] loss -> loss
I0520 20:47:09.519291 28826 layer_factory.hpp:77] Creating layer loss
…
I0520 20:47:09.521920 28826 solver.cpp:181] Creating test net (#0) specified by net file: /lustre/atlas/proj-shared/hep105/caffe_titan/caffe_workflow/logs_batch_size_test/batch_size_300_2016-05-20T11.20.43.641758.prototxt
I0520 20:47:09.521992 28826 net.cpp:322] The NetState phase (1) differed from the phase (0) specified by a rule in layer data_hdf5
I0520 20:47:09.522346 28826 net.cpp:49] Initializing net from parameters: 
name: "caffe_test_127x50_x_unshifted"
state {
  phase: TEST
}
layer {
  name: "data_hdf5"
  type: "HDF5Data"
  top: "data"
  top: "label"
  include {
    phase: TEST
  }
  hdf5_data_param {
    source: "/lustre/atlas/proj-shared/hep105/caffe_titan/minosmatch_nukecczdefs_127x50_x_unshifted_me1Bmc.testlist"
    batch_size: 300
  }
}
layer {
  name: "conv1"
  type: "Convolution"
  bottom: "data"
  top: "conv1"
  convolution_param {
    num_output: 12
    pad: 0
    stride: 1
    weight_filler {
      type: "xavier"
    }
    bias_filler {
      type: "constant"
    }
    kernel_h: 8
    kernel_w: 3
  }
}
layer {
  name: "relu1"
  type: "ReLU"
  bottom: "conv1"
  top: "conv1"
}
layer {
  name: "pool1"
  type: "Pooling"
  bottom: "conv1"
  top: "pool1"
  pooling_param {
    pool: MAX
    kernel_h: 2
    kernel_w: 1
    stride_h: 2
    stride_w: 1
  }
}
layer {
  name: "conv2"
  type: "Convolution"
  bottom: "pool1"
  top: "conv2"
  convolution_param {
    num_output: 20
    pad: 0
    stride: 1
    weight_filler {
      type: "xavier"
    }
    bias_filler {
      type: "constant"
    }
    kernel_h: 7
    kernel_w: 3
  }
}
layer {
  name: "relu2"
  type: "ReLU"
  bottom: "conv2"
  top: "conv2"
}
layer {
  name: "pool2"
  type: "Pooling"
  bottom: "conv2"
  top: "pool2"
  pooling_param {
    pool: MAX
    kernel_h: 2
    kernel_w: 1
    stride_h: 2
    stride_w: 1
  }
}
layer {
  name: "conv3"
  type: "Convolution"
  bottom: "pool2"
  top: "conv3"
  convolution_param {
    num_output: 28
    pad: 0
    stride: 1
    weight_filler {
      type: "xavier"
    }
    bias_filler {
      type: "constant"
    }
    kernel_h: 6
    kernel_w: 3
  }
}
layer {
  name: "relu3"
  type: "ReLU"
  bottom: "conv3"
  top: "conv3"
}
layer {
  name: "pool3"
  type: "Pooling"
  bottom: "conv3"
  top: "pool3"
  pooling_param {
    pool: MAX
    kernel_h: 2
    kernel_w: 1
    stride_h: 2
    stride_w: 1
  }
}
layer {
  name: "conv4"
  type: "Convolution"
  bottom: "pool3"
  top: "conv4"
  convolution_param {
    num_output: 36
    pad: 0
    stride: 1
    weight_filler {
      type: "xavier"
    }
    bias_filler {
      type: "constant"
    }
    kernel_h: 6
    kernel_w: 3
  }
}
layer {
  name: "relu4"
  type: "ReLU"
  bottom: "conv4"
  top: "conv4"
}
layer {
  name: "pool4"
  type: "Pooling"
  bottom: "conv4"
  top: "pool4"
  pooling_param {
    pool: MAX
    kernel_h: 2
    kernel_w: 1
    stride_h: 2
    stride_w: 1
  }
}
layer {
  name: "ip1"
  type: "InnerProduct"
  bottom: "pool4"
  top: "ip1"
  inner_product_param {
    num_output: 196
    weight_filler {
      type: "xavier"
    }
    bias_filler {
      type: "constant"
    }
  }
}
layer {
  name: "relu5"
  type: "ReLU"
  bottom: "ip1"
  top: "ip1"
}
layer {
  name: "drop1"
  type: "Dropout"
  bottom: "ip1"
  top: "ip1"
  dropout_param {
    dropout_ratio: 0.5
  }
}
layer {
  name: "ip2"
  type: "InnerProduct"
  bottom: "ip1"
  top: "ip2"
  inner_product_param {
    num_output: 98
    weight_filler {
      type: "xavier"
    }
    bias_filler {
      type: "constant"
    }
  }
}
layer {
  name: "relu6"
  type: "ReLU"
  bottom: "ip2"
  top: "ip2"
}
layer {
  name: "drop2"
  type: "Dropout"
  bottom: "ip2"
  top: "ip2"
  dropout_param {
    dropout_ratio: 0.5
  }
}
layer {
  name: "ip3"
  type: "InnerProduct"
  bottom: "ip2"
  top: "ip3"
  inner_product_param {
    num_output: 11
    weight_filler {
      type: "xavier"
    }
    bias_filler {
      type: "constant"
    }
  }
}
layer {
  name: "drop3"
  type: "Dropout"
  bottom: "ip3"
  top: "ip3"
  dropout_param {
    dropout_ratio: 0.5
  }
}
layer {
  name: "accuracy"
  type: "Accuracy"
  bottom: "ip3"
  bottom: "label"
  top: "accuracy"
  include {
    phase: TEST
  }
}
layer {
  name: "loss"
  type: "SoftmaxWithLoss"
  bottom: "ip3"
  bottom: "label"
  top: "loss"
}
I0520 20:47:09.522537 28826 layer_factory.hpp:77] Creating layer data_hdf5
I0520 20:47:09.522553 28826 net.cpp:106] Creating Layer data_hdf5
I0520 20:47:09.522565 28826 net.cpp:411] data_hdf5 -> data
I0520 20:47:09.522581 28826 net.cpp:411] data_hdf5 -> label
I0520 20:47:09.522598 28826 hdf5_data_layer.cpp:79] Loading list of HDF5 filenames from: /lustre/atlas/proj-shared/hep105/caffe_titan/minosmatch_nukecczdefs_127x50_x_unshifted_me1Bmc.testlist
I0520 20:47:09.523788 28826 hdf5_data_layer.cpp:93] Number of HDF5 files: 3
I0520 20:47:30.819247 28826 net.cpp:150] Setting up data_hdf5
I0520 20:47:30.819414 28826 net.cpp:157] Top shape: 300 1 127 50 (1905000)
I0520 20:47:30.819428 28826 net.cpp:157] Top shape: 300 (300)
I0520 20:47:30.819438 28826 net.cpp:165] Memory required for data: 7621200
I0520 20:47:30.819453 28826 layer_factory.hpp:77] Creating layer label_data_hdf5_1_split
I0520 20:47:30.819481 28826 net.cpp:106] Creating Layer label_data_hdf5_1_split
I0520 20:47:30.819492 28826 net.cpp:454] label_data_hdf5_1_split <- label
I0520 20:47:30.819507 28826 net.cpp:411] label_data_hdf5_1_split -> label_data_hdf5_1_split_0
I0520 20:47:30.819527 28826 net.cpp:411] label_data_hdf5_1_split -> label_data_hdf5_1_split_1
I0520 20:47:30.819600 28826 net.cpp:150] Setting up label_data_hdf5_1_split
I0520 20:47:30.819614 28826 net.cpp:157] Top shape: 300 (300)
I0520 20:47:30.819627 28826 net.cpp:157] Top shape: 300 (300)
I0520 20:47:30.819636 28826 net.cpp:165] Memory required for data: 7623600
I0520 20:47:30.819646 28826 layer_factory.hpp:77] Creating layer conv1
I0520 20:47:30.819669 28826 net.cpp:106] Creating Layer conv1
I0520 20:47:30.819679 28826 net.cpp:454] conv1 <- data
I0520 20:47:30.819694 28826 net.cpp:411] conv1 -> conv1
I0520 20:47:30.821629 28826 net.cpp:150] Setting up conv1
I0520 20:47:30.821652 28826 net.cpp:157] Top shape: 300 12 120 48 (20736000)
I0520 20:47:30.821665 28826 net.cpp:165] Memory required for data: 90567600
I0520 20:47:30.821686 28826 layer_factory.hpp:77] Creating layer relu1
I0520 20:47:30.821701 28826 net.cpp:106] Creating Layer relu1
I0520 20:47:30.821710 28826 net.cpp:454] relu1 <- conv1
I0520 20:47:30.821722 28826 net.cpp:397] relu1 -> conv1 (in-place)
I0520 20:47:30.822221 28826 net.cpp:150] Setting up relu1
I0520 20:47:30.822237 28826 net.cpp:157] Top shape: 300 12 120 48 (20736000)
I0520 20:47:30.822248 28826 net.cpp:165] Memory required for data: 173511600
I0520 20:47:30.822258 28826 layer_factory.hpp:77] Creating layer pool1
I0520 20:47:30.822274 28826 net.cpp:106] Creating Layer pool1
I0520 20:47:30.822284 28826 net.cpp:454] pool1 <- conv1
I0520 20:47:30.822299 28826 net.cpp:411] pool1 -> pool1
I0520 20:47:30.822373 28826 net.cpp:150] Setting up pool1
I0520 20:47:30.822386 28826 net.cpp:157] Top shape: 300 12 60 48 (10368000)
I0520 20:47:30.822396 28826 net.cpp:165] Memory required for data: 214983600
I0520 20:47:30.822403 28826 layer_factory.hpp:77] Creating layer conv2
I0520 20:47:30.822422 28826 net.cpp:106] Creating Layer conv2
I0520 20:47:30.822432 28826 net.cpp:454] conv2 <- pool1
I0520 20:47:30.822445 28826 net.cpp:411] conv2 -> conv2
I0520 20:47:30.824359 28826 net.cpp:150] Setting up conv2
I0520 20:47:30.824381 28826 net.cpp:157] Top shape: 300 20 54 46 (14904000)
I0520 20:47:30.824394 28826 net.cpp:165] Memory required for data: 274599600
I0520 20:47:30.824411 28826 layer_factory.hpp:77] Creating layer relu2
I0520 20:47:30.824425 28826 net.cpp:106] Creating Layer relu2
I0520 20:47:30.824434 28826 net.cpp:454] relu2 <- conv2
I0520 20:47:30.824447 28826 net.cpp:397] relu2 -> conv2 (in-place)
I0520 20:47:30.824779 28826 net.cpp:150] Setting up relu2
I0520 20:47:30.824793 28826 net.cpp:157] Top shape: 300 20 54 46 (14904000)
I0520 20:47:30.824805 28826 net.cpp:165] Memory required for data: 334215600
I0520 20:47:30.824815 28826 layer_factory.hpp:77] Creating layer pool2
I0520 20:47:30.824827 28826 net.cpp:106] Creating Layer pool2
I0520 20:47:30.824836 28826 net.cpp:454] pool2 <- conv2
I0520 20:47:30.824849 28826 net.cpp:411] pool2 -> pool2
I0520 20:47:30.824928 28826 net.cpp:150] Setting up pool2
I0520 20:47:30.824942 28826 net.cpp:157] Top shape: 300 20 27 46 (7452000)
I0520 20:47:30.824951 28826 net.cpp:165] Memory required for data: 364023600
I0520 20:47:30.824962 28826 layer_factory.hpp:77] Creating layer conv3
I0520 20:47:30.824981 28826 net.cpp:106] Creating Layer conv3
I0520 20:47:30.824992 28826 net.cpp:454] conv3 <- pool2
I0520 20:47:30.825006 28826 net.cpp:411] conv3 -> conv3
I0520 20:47:30.826978 28826 net.cpp:150] Setting up conv3
I0520 20:47:30.826997 28826 net.cpp:157] Top shape: 300 28 22 44 (8131200)
I0520 20:47:30.827006 28826 net.cpp:165] Memory required for data: 396548400
I0520 20:47:30.827039 28826 layer_factory.hpp:77] Creating layer relu3
I0520 20:47:30.827054 28826 net.cpp:106] Creating Layer relu3
I0520 20:47:30.827064 28826 net.cpp:454] relu3 <- conv3
I0520 20:47:30.827076 28826 net.cpp:397] relu3 -> conv3 (in-place)
I0520 20:47:30.827548 28826 net.cpp:150] Setting up relu3
I0520 20:47:30.827564 28826 net.cpp:157] Top shape: 300 28 22 44 (8131200)
I0520 20:47:30.827574 28826 net.cpp:165] Memory required for data: 429073200
I0520 20:47:30.827584 28826 layer_factory.hpp:77] Creating layer pool3
I0520 20:47:30.827596 28826 net.cpp:106] Creating Layer pool3
I0520 20:47:30.827606 28826 net.cpp:454] pool3 <- conv3
I0520 20:47:30.827620 28826 net.cpp:411] pool3 -> pool3
I0520 20:47:30.827690 28826 net.cpp:150] Setting up pool3
I0520 20:47:30.827704 28826 net.cpp:157] Top shape: 300 28 11 44 (4065600)
I0520 20:47:30.827714 28826 net.cpp:165] Memory required for data: 445335600
I0520 20:47:30.827723 28826 layer_factory.hpp:77] Creating layer conv4
I0520 20:47:30.827740 28826 net.cpp:106] Creating Layer conv4
I0520 20:47:30.827750 28826 net.cpp:454] conv4 <- pool3
I0520 20:47:30.827764 28826 net.cpp:411] conv4 -> conv4
I0520 20:47:30.829828 28826 net.cpp:150] Setting up conv4
I0520 20:47:30.829849 28826 net.cpp:157] Top shape: 300 36 6 42 (2721600)
I0520 20:47:30.829862 28826 net.cpp:165] Memory required for data: 456222000
I0520 20:47:30.829877 28826 layer_factory.hpp:77] Creating layer relu4
I0520 20:47:30.829890 28826 net.cpp:106] Creating Layer relu4
I0520 20:47:30.829900 28826 net.cpp:454] relu4 <- conv4
I0520 20:47:30.829913 28826 net.cpp:397] relu4 -> conv4 (in-place)
I0520 20:47:30.830382 28826 net.cpp:150] Setting up relu4
I0520 20:47:30.830399 28826 net.cpp:157] Top shape: 300 36 6 42 (2721600)
I0520 20:47:30.830409 28826 net.cpp:165] Memory required for data: 467108400
I0520 20:47:30.830418 28826 layer_factory.hpp:77] Creating layer pool4
I0520 20:47:30.830431 28826 net.cpp:106] Creating Layer pool4
I0520 20:47:30.830441 28826 net.cpp:454] pool4 <- conv4
I0520 20:47:30.830454 28826 net.cpp:411] pool4 -> pool4
I0520 20:47:30.830525 28826 net.cpp:150] Setting up pool4
I0520 20:47:30.830538 28826 net.cpp:157] Top shape: 300 36 3 42 (1360800)
I0520 20:47:30.830548 28826 net.cpp:165] Memory required for data: 472551600
I0520 20:47:30.830556 28826 layer_factory.hpp:77] Creating layer ip1
I0520 20:47:30.830571 28826 net.cpp:106] Creating Layer ip1
I0520 20:47:30.830581 28826 net.cpp:454] ip1 <- pool4
I0520 20:47:30.830595 28826 net.cpp:411] ip1 -> ip1
I0520 20:47:30.846093 28826 net.cpp:150] Setting up ip1
I0520 20:47:30.846122 28826 net.cpp:157] Top shape: 300 196 (58800)
I0520 20:47:30.846134 28826 net.cpp:165] Memory required for data: 472786800
I0520 20:47:30.846156 28826 layer_factory.hpp:77] Creating layer relu5
I0520 20:47:30.846173 28826 net.cpp:106] Creating Layer relu5
I0520 20:47:30.846182 28826 net.cpp:454] relu5 <- ip1
I0520 20:47:30.846196 28826 net.cpp:397] relu5 -> ip1 (in-place)
I0520 20:47:30.846544 28826 net.cpp:150] Setting up relu5
I0520 20:47:30.846559 28826 net.cpp:157] Top shape: 300 196 (58800)
I0520 20:47:30.846568 28826 net.cpp:165] Memory required for data: 473022000
I0520 20:47:30.846578 28826 layer_factory.hpp:77] Creating layer drop1
I0520 20:47:30.846597 28826 net.cpp:106] Creating Layer drop1
I0520 20:47:30.846607 28826 net.cpp:454] drop1 <- ip1
I0520 20:47:30.846621 28826 net.cpp:397] drop1 -> ip1 (in-place)
I0520 20:47:30.846665 28826 net.cpp:150] Setting up drop1
I0520 20:47:30.846678 28826 net.cpp:157] Top shape: 300 196 (58800)
I0520 20:47:30.846689 28826 net.cpp:165] Memory required for data: 473257200
I0520 20:47:30.846698 28826 layer_factory.hpp:77] Creating layer ip2
I0520 20:47:30.846714 28826 net.cpp:106] Creating Layer ip2
I0520 20:47:30.846722 28826 net.cpp:454] ip2 <- ip1
I0520 20:47:30.846736 28826 net.cpp:411] ip2 -> ip2
I0520 20:47:30.847214 28826 net.cpp:150] Setting up ip2
I0520 20:47:30.847229 28826 net.cpp:157] Top shape: 300 98 (29400)
I0520 20:47:30.847239 28826 net.cpp:165] Memory required for data: 473374800
I0520 20:47:30.847267 28826 layer_factory.hpp:77] Creating layer relu6
I0520 20:47:30.847280 28826 net.cpp:106] Creating Layer relu6
I0520 20:47:30.847290 28826 net.cpp:454] relu6 <- ip2
I0520 20:47:30.847302 28826 net.cpp:397] relu6 -> ip2 (in-place)
I0520 20:47:30.847837 28826 net.cpp:150] Setting up relu6
I0520 20:47:30.847858 28826 net.cpp:157] Top shape: 300 98 (29400)
I0520 20:47:30.847868 28826 net.cpp:165] Memory required for data: 473492400
I0520 20:47:30.847878 28826 layer_factory.hpp:77] Creating layer drop2
I0520 20:47:30.847892 28826 net.cpp:106] Creating Layer drop2
I0520 20:47:30.847901 28826 net.cpp:454] drop2 <- ip2
I0520 20:47:30.847914 28826 net.cpp:397] drop2 -> ip2 (in-place)
I0520 20:47:30.847959 28826 net.cpp:150] Setting up drop2
I0520 20:47:30.847971 28826 net.cpp:157] Top shape: 300 98 (29400)
I0520 20:47:30.847980 28826 net.cpp:165] Memory required for data: 473610000
I0520 20:47:30.847990 28826 layer_factory.hpp:77] Creating layer ip3
I0520 20:47:30.848004 28826 net.cpp:106] Creating Layer ip3
I0520 20:47:30.848014 28826 net.cpp:454] ip3 <- ip2
I0520 20:47:30.848028 28826 net.cpp:411] ip3 -> ip3
I0520 20:47:30.848253 28826 net.cpp:150] Setting up ip3
I0520 20:47:30.848265 28826 net.cpp:157] Top shape: 300 11 (3300)
I0520 20:47:30.848275 28826 net.cpp:165] Memory required for data: 473623200
I0520 20:47:30.848290 28826 layer_factory.hpp:77] Creating layer drop3
I0520 20:47:30.848304 28826 net.cpp:106] Creating Layer drop3
I0520 20:47:30.848314 28826 net.cpp:454] drop3 <- ip3
I0520 20:47:30.848326 28826 net.cpp:397] drop3 -> ip3 (in-place)
I0520 20:47:30.848367 28826 net.cpp:150] Setting up drop3
I0520 20:47:30.848379 28826 net.cpp:157] Top shape: 300 11 (3300)
I0520 20:47:30.848389 28826 net.cpp:165] Memory required for data: 473636400
I0520 20:47:30.848398 28826 layer_factory.hpp:77] Creating layer ip3_drop3_0_split
I0520 20:47:30.848412 28826 net.cpp:106] Creating Layer ip3_drop3_0_split
I0520 20:47:30.848422 28826 net.cpp:454] ip3_drop3_0_split <- ip3
I0520 20:47:30.848434 28826 net.cpp:411] ip3_drop3_0_split -> ip3_drop3_0_split_0
I0520 20:47:30.848449 28826 net.cpp:411] ip3_drop3_0_split -> ip3_drop3_0_split_1
I0520 20:47:30.848521 28826 net.cpp:150] Setting up ip3_drop3_0_split
I0520 20:47:30.848534 28826 net.cpp:157] Top shape: 300 11 (3300)
I0520 20:47:30.848547 28826 net.cpp:157] Top shape: 300 11 (3300)
I0520 20:47:30.848556 28826 net.cpp:165] Memory required for data: 473662800
I0520 20:47:30.848565 28826 layer_factory.hpp:77] Creating layer accuracy
I0520 20:47:30.848587 28826 net.cpp:106] Creating Layer accuracy
I0520 20:47:30.848598 28826 net.cpp:454] accuracy <- ip3_drop3_0_split_0
I0520 20:47:30.848608 28826 net.cpp:454] accuracy <- label_data_hdf5_1_split_0
I0520 20:47:30.848623 28826 net.cpp:411] accuracy -> accuracy
…
