…
I0521 06:10:29.541805  9072 net.cpp:322] The NetState phase (0) differed from the phase (1) specified by a rule in layer data_hdf5
I0521 06:10:29.541865  9072 net.cpp:322] The NetState phase (0) differed from the phase (1) specified by a rule in layer accuracy
I0521 06:10:29.542210  9072 net.cpp:49] Initializing net from parameters: 
name: "caffe_test_127x50_x_unshifted"
state {
  phase: TRAIN
}
layer {
  name: "data_hdf5"
  type: "HDF5Data"
  top: "data"
  top: "label"
  include {
    phase: TRAIN
  }
  hdf5_data_param {
    source: "/lustre/atlas/proj-shared/hep105/caffe_titan/minosmatch_nukecczdefs_127x50_x_unshifted_me1Bmc.trainlist"
    batch_size: 740
  }
}
layer {
  name: "conv1"
  type: "Convolution"
  bottom: "data"
  top: "conv1"
  convolution_param {
    num_output: 12
    pad: 0
    stride: 1
    weight_filler {
      type: "xavier"
    }
    bias_filler {
      type: "constant"
    }
    kernel_h: 8
    kernel_w: 3
  }
}
layer {
  name: "relu1"
  type: "ReLU"
  bottom: "conv1"
  top: "conv1"
}
layer {
  name: "pool1"
  type: "Pooling"
  bottom: "conv1"
  top: "pool1"
  pooling_param {
    pool: MAX
    kernel_h: 2
    kernel_w: 1
    stride_h: 2
    stride_w: 1
  }
}
layer {
  name: "conv2"
  type: "Convolution"
  bottom: "pool1"
  top: "conv2"
  convolution_param {
    num_output: 20
    pad: 0
    stride: 1
    weight_filler {
      type: "xavier"
    }
    bias_filler {
      type: "constant"
    }
    kernel_h: 7
    kernel_w: 3
  }
}
layer {
  name: "relu2"
  type: "ReLU"
  bottom: "conv2"
  top: "conv2"
}
layer {
  name: "pool2"
  type: "Pooling"
  bottom: "conv2"
  top: "pool2"
  pooling_param {
    pool: MAX
    kernel_h: 2
    kernel_w: 1
    stride_h: 2
    stride_w: 1
  }
}
layer {
  name: "conv3"
  type: "Convolution"
  bottom: "pool2"
  top: "conv3"
  convolution_param {
    num_output: 28
    pad: 0
    stride: 1
    weight_filler {
      type: "xavier"
    }
    bias_filler {
      type: "constant"
    }
    kernel_h: 6
    kernel_w: 3
  }
}
layer {
  name: "relu3"
  type: "ReLU"
  bottom: "conv3"
  top: "conv3"
}
layer {
  name: "pool3"
  type: "Pooling"
  bottom: "conv3"
  top: "pool3"
  pooling_param {
    pool: MAX
    kernel_h: 2
    kernel_w: 1
    stride_h: 2
    stride_w: 1
  }
}
layer {
  name: "conv4"
  type: "Convolution"
  bottom: "pool3"
  top: "conv4"
  convolution_param {
    num_output: 36
    pad: 0
    stride: 1
    weight_filler {
      type: "xavier"
    }
    bias_filler {
      type: "constant"
    }
    kernel_h: 6
    kernel_w: 3
  }
}
layer {
  name: "relu4"
  type: "ReLU"
  bottom: "conv4"
  top: "conv4"
}
layer {
  name: "pool4"
  type: "Pooling"
  bottom: "conv4"
  top: "pool4"
  pooling_param {
    pool: MAX
    kernel_h: 2
    kernel_w: 1
    stride_h: 2
    stride_w: 1
  }
}
layer {
  name: "ip1"
  type: "InnerProduct"
  bottom: "pool4"
  top: "ip1"
  inner_product_param {
    num_output: 196
    weight_filler {
      type: "xavier"
    }
    bias_filler {
      type: "constant"
    }
  }
}
layer {
  name: "relu5"
  type: "ReLU"
  bottom: "ip1"
  top: "ip1"
}
layer {
  name: "drop1"
  type: "Dropout"
  bottom: "ip1"
  top: "ip1"
  dropout_param {
    dropout_ratio: 0.5
  }
}
layer {
  name: "ip2"
  type: "InnerProduct"
  bottom: "ip1"
  top: "ip2"
  inner_product_param {
    num_output: 98
    weight_filler {
      type: "xavier"
    }
    bias_filler {
      type: "constant"
    }
  }
}
layer {
  name: "relu6"
  type: "ReLU"
  bottom: "ip2"
  top: "ip2"
}
layer {
  name: "drop2"
  type: "Dropout"
  bottom: "ip2"
  top: "ip2"
  dropout_param {
    dropout_ratio: 0.5
  }
}
layer {
  name: "ip3"
  type: "InnerProduct"
  bottom: "ip2"
  top: "ip3"
  inner_product_param {
    num_output: 11
    weight_filler {
      type: "xavier"
    }
    bias_filler {
      type: "constant"
    }
  }
}
layer {
  name: "drop3"
  type: "Dropout"
  bottom: "ip3"
  top: "ip3"
  dropout_param {
    dropout_ratio: 0.5
  }
}
layer {
  name: "loss"
  type: "SoftmaxWithLoss"
  bottom: "ip3"
  bottom: "label"
  top: "loss"
}
I0521 06:10:29.542388  9072 layer_factory.hpp:77] Creating layer data_hdf5
I0521 06:10:29.542412  9072 net.cpp:106] Creating Layer data_hdf5
I0521 06:10:29.542428  9072 net.cpp:411] data_hdf5 -> data
I0521 06:10:29.542460  9072 net.cpp:411] data_hdf5 -> label
I0521 06:10:29.542492  9072 hdf5_data_layer.cpp:79] Loading list of HDF5 filenames from: /lustre/atlas/proj-shared/hep105/caffe_titan/minosmatch_nukecczdefs_127x50_x_unshifted_me1Bmc.trainlist
I0521 06:10:29.543718  9072 hdf5_data_layer.cpp:93] Number of HDF5 files: 15
I0521 06:10:29.545900  9072 hdf5.cpp:32] Datatype class: H5T_FLOAT
I0521 06:10:51.124228  9072 hdf5.cpp:35] Datatype class: H5T_INTEGER
I0521 06:10:51.129393  9072 net.cpp:150] Setting up data_hdf5
I0521 06:10:51.129434  9072 net.cpp:157] Top shape: 740 1 127 50 (4699000)
I0521 06:10:51.129448  9072 net.cpp:157] Top shape: 740 (740)
I0521 06:10:51.129458  9072 net.cpp:165] Memory required for data: 18798960
I0521 06:10:51.129472  9072 layer_factory.hpp:77] Creating layer conv1
I0521 06:10:51.129508  9072 net.cpp:106] Creating Layer conv1
I0521 06:10:51.129518  9072 net.cpp:454] conv1 <- data
I0521 06:10:51.129541  9072 net.cpp:411] conv1 -> conv1
I0521 06:10:51.960253  9072 net.cpp:150] Setting up conv1
I0521 06:10:51.960299  9072 net.cpp:157] Top shape: 740 12 120 48 (51148800)
I0521 06:10:51.960310  9072 net.cpp:165] Memory required for data: 223394160
I0521 06:10:51.960340  9072 layer_factory.hpp:77] Creating layer relu1
I0521 06:10:51.960361  9072 net.cpp:106] Creating Layer relu1
I0521 06:10:51.960371  9072 net.cpp:454] relu1 <- conv1
I0521 06:10:51.960386  9072 net.cpp:397] relu1 -> conv1 (in-place)
I0521 06:10:51.960901  9072 net.cpp:150] Setting up relu1
I0521 06:10:51.960918  9072 net.cpp:157] Top shape: 740 12 120 48 (51148800)
I0521 06:10:51.960929  9072 net.cpp:165] Memory required for data: 427989360
I0521 06:10:51.960940  9072 layer_factory.hpp:77] Creating layer pool1
I0521 06:10:51.960958  9072 net.cpp:106] Creating Layer pool1
I0521 06:10:51.960968  9072 net.cpp:454] pool1 <- conv1
I0521 06:10:51.960983  9072 net.cpp:411] pool1 -> pool1
I0521 06:10:51.961061  9072 net.cpp:150] Setting up pool1
I0521 06:10:51.961076  9072 net.cpp:157] Top shape: 740 12 60 48 (25574400)
I0521 06:10:51.961086  9072 net.cpp:165] Memory required for data: 530286960
I0521 06:10:51.961096  9072 layer_factory.hpp:77] Creating layer conv2
I0521 06:10:51.961118  9072 net.cpp:106] Creating Layer conv2
I0521 06:10:51.961128  9072 net.cpp:454] conv2 <- pool1
I0521 06:10:51.961141  9072 net.cpp:411] conv2 -> conv2
I0521 06:10:51.963819  9072 net.cpp:150] Setting up conv2
I0521 06:10:51.963845  9072 net.cpp:157] Top shape: 740 20 54 46 (36763200)
I0521 06:10:51.963856  9072 net.cpp:165] Memory required for data: 677339760
I0521 06:10:51.963876  9072 layer_factory.hpp:77] Creating layer relu2
I0521 06:10:51.963891  9072 net.cpp:106] Creating Layer relu2
I0521 06:10:51.963901  9072 net.cpp:454] relu2 <- conv2
I0521 06:10:51.963912  9072 net.cpp:397] relu2 -> conv2 (in-place)
I0521 06:10:51.964244  9072 net.cpp:150] Setting up relu2
I0521 06:10:51.964259  9072 net.cpp:157] Top shape: 740 20 54 46 (36763200)
I0521 06:10:51.964269  9072 net.cpp:165] Memory required for data: 824392560
I0521 06:10:51.964280  9072 layer_factory.hpp:77] Creating layer pool2
I0521 06:10:51.964293  9072 net.cpp:106] Creating Layer pool2
I0521 06:10:51.964303  9072 net.cpp:454] pool2 <- conv2
I0521 06:10:51.964329  9072 net.cpp:411] pool2 -> pool2
I0521 06:10:51.964398  9072 net.cpp:150] Setting up pool2
I0521 06:10:51.964411  9072 net.cpp:157] Top shape: 740 20 27 46 (18381600)
I0521 06:10:51.964421  9072 net.cpp:165] Memory required for data: 897918960
I0521 06:10:51.964432  9072 layer_factory.hpp:77] Creating layer conv3
I0521 06:10:51.964448  9072 net.cpp:106] Creating Layer conv3
I0521 06:10:51.964459  9072 net.cpp:454] conv3 <- pool2
I0521 06:10:51.964473  9072 net.cpp:411] conv3 -> conv3
I0521 06:10:51.966393  9072 net.cpp:150] Setting up conv3
I0521 06:10:51.966416  9072 net.cpp:157] Top shape: 740 28 22 44 (20056960)
I0521 06:10:51.966428  9072 net.cpp:165] Memory required for data: 978146800
I0521 06:10:51.966446  9072 layer_factory.hpp:77] Creating layer relu3
I0521 06:10:51.966462  9072 net.cpp:106] Creating Layer relu3
I0521 06:10:51.966472  9072 net.cpp:454] relu3 <- conv3
I0521 06:10:51.966485  9072 net.cpp:397] relu3 -> conv3 (in-place)
I0521 06:10:51.966956  9072 net.cpp:150] Setting up relu3
I0521 06:10:51.966974  9072 net.cpp:157] Top shape: 740 28 22 44 (20056960)
I0521 06:10:51.966984  9072 net.cpp:165] Memory required for data: 1058374640
I0521 06:10:51.966994  9072 layer_factory.hpp:77] Creating layer pool3
I0521 06:10:51.967007  9072 net.cpp:106] Creating Layer pool3
I0521 06:10:51.967016  9072 net.cpp:454] pool3 <- conv3
I0521 06:10:51.967030  9072 net.cpp:411] pool3 -> pool3
I0521 06:10:51.967097  9072 net.cpp:150] Setting up pool3
I0521 06:10:51.967109  9072 net.cpp:157] Top shape: 740 28 11 44 (10028480)
I0521 06:10:51.967119  9072 net.cpp:165] Memory required for data: 1098488560
I0521 06:10:51.967129  9072 layer_factory.hpp:77] Creating layer conv4
I0521 06:10:51.967146  9072 net.cpp:106] Creating Layer conv4
I0521 06:10:51.967157  9072 net.cpp:454] conv4 <- pool3
I0521 06:10:51.967171  9072 net.cpp:411] conv4 -> conv4
I0521 06:10:51.969975  9072 net.cpp:150] Setting up conv4
I0521 06:10:51.970002  9072 net.cpp:157] Top shape: 740 36 6 42 (6713280)
I0521 06:10:51.970015  9072 net.cpp:165] Memory required for data: 1125341680
I0521 06:10:51.970029  9072 layer_factory.hpp:77] Creating layer relu4
I0521 06:10:51.970043  9072 net.cpp:106] Creating Layer relu4
I0521 06:10:51.970053  9072 net.cpp:454] relu4 <- conv4
I0521 06:10:51.970067  9072 net.cpp:397] relu4 -> conv4 (in-place)
I0521 06:10:51.970537  9072 net.cpp:150] Setting up relu4
I0521 06:10:51.970553  9072 net.cpp:157] Top shape: 740 36 6 42 (6713280)
I0521 06:10:51.970563  9072 net.cpp:165] Memory required for data: 1152194800
I0521 06:10:51.970574  9072 layer_factory.hpp:77] Creating layer pool4
I0521 06:10:51.970587  9072 net.cpp:106] Creating Layer pool4
I0521 06:10:51.970597  9072 net.cpp:454] pool4 <- conv4
I0521 06:10:51.970609  9072 net.cpp:411] pool4 -> pool4
I0521 06:10:51.970677  9072 net.cpp:150] Setting up pool4
I0521 06:10:51.970690  9072 net.cpp:157] Top shape: 740 36 3 42 (3356640)
I0521 06:10:51.970701  9072 net.cpp:165] Memory required for data: 1165621360
I0521 06:10:51.970711  9072 layer_factory.hpp:77] Creating layer ip1
I0521 06:10:51.970731  9072 net.cpp:106] Creating Layer ip1
I0521 06:10:51.970742  9072 net.cpp:454] ip1 <- pool4
I0521 06:10:51.970754  9072 net.cpp:411] ip1 -> ip1
I0521 06:10:51.986248  9072 net.cpp:150] Setting up ip1
I0521 06:10:51.986277  9072 net.cpp:157] Top shape: 740 196 (145040)
I0521 06:10:51.986290  9072 net.cpp:165] Memory required for data: 1166201520
I0521 06:10:51.986313  9072 layer_factory.hpp:77] Creating layer relu5
I0521 06:10:51.986327  9072 net.cpp:106] Creating Layer relu5
I0521 06:10:51.986338  9072 net.cpp:454] relu5 <- ip1
I0521 06:10:51.986351  9072 net.cpp:397] relu5 -> ip1 (in-place)
I0521 06:10:51.986695  9072 net.cpp:150] Setting up relu5
I0521 06:10:51.986709  9072 net.cpp:157] Top shape: 740 196 (145040)
I0521 06:10:51.986719  9072 net.cpp:165] Memory required for data: 1166781680
I0521 06:10:51.986729  9072 layer_factory.hpp:77] Creating layer drop1
I0521 06:10:51.986752  9072 net.cpp:106] Creating Layer drop1
I0521 06:10:51.986763  9072 net.cpp:454] drop1 <- ip1
I0521 06:10:51.986788  9072 net.cpp:397] drop1 -> ip1 (in-place)
I0521 06:10:51.986835  9072 net.cpp:150] Setting up drop1
I0521 06:10:51.986847  9072 net.cpp:157] Top shape: 740 196 (145040)
I0521 06:10:51.986857  9072 net.cpp:165] Memory required for data: 1167361840
I0521 06:10:51.986867  9072 layer_factory.hpp:77] Creating layer ip2
I0521 06:10:51.986886  9072 net.cpp:106] Creating Layer ip2
I0521 06:10:51.986896  9072 net.cpp:454] ip2 <- ip1
I0521 06:10:51.986909  9072 net.cpp:411] ip2 -> ip2
I0521 06:10:51.987373  9072 net.cpp:150] Setting up ip2
I0521 06:10:51.987386  9072 net.cpp:157] Top shape: 740 98 (72520)
I0521 06:10:51.987396  9072 net.cpp:165] Memory required for data: 1167651920
I0521 06:10:51.987411  9072 layer_factory.hpp:77] Creating layer relu6
I0521 06:10:51.987423  9072 net.cpp:106] Creating Layer relu6
I0521 06:10:51.987433  9072 net.cpp:454] relu6 <- ip2
I0521 06:10:51.987445  9072 net.cpp:397] relu6 -> ip2 (in-place)
I0521 06:10:51.987972  9072 net.cpp:150] Setting up relu6
I0521 06:10:51.987987  9072 net.cpp:157] Top shape: 740 98 (72520)
I0521 06:10:51.987998  9072 net.cpp:165] Memory required for data: 1167942000
I0521 06:10:51.988008  9072 layer_factory.hpp:77] Creating layer drop2
I0521 06:10:51.988021  9072 net.cpp:106] Creating Layer drop2
I0521 06:10:51.988031  9072 net.cpp:454] drop2 <- ip2
I0521 06:10:51.988044  9072 net.cpp:397] drop2 -> ip2 (in-place)
I0521 06:10:51.988085  9072 net.cpp:150] Setting up drop2
I0521 06:10:51.988098  9072 net.cpp:157] Top shape: 740 98 (72520)
I0521 06:10:51.988109  9072 net.cpp:165] Memory required for data: 1168232080
I0521 06:10:51.988119  9072 layer_factory.hpp:77] Creating layer ip3
I0521 06:10:51.988132  9072 net.cpp:106] Creating Layer ip3
I0521 06:10:51.988142  9072 net.cpp:454] ip3 <- ip2
I0521 06:10:51.988155  9072 net.cpp:411] ip3 -> ip3
I0521 06:10:51.988364  9072 net.cpp:150] Setting up ip3
I0521 06:10:51.988379  9072 net.cpp:157] Top shape: 740 11 (8140)
I0521 06:10:51.988387  9072 net.cpp:165] Memory required for data: 1168264640
I0521 06:10:51.988402  9072 layer_factory.hpp:77] Creating layer drop3
I0521 06:10:51.988415  9072 net.cpp:106] Creating Layer drop3
I0521 06:10:51.988425  9072 net.cpp:454] drop3 <- ip3
I0521 06:10:51.988436  9072 net.cpp:397] drop3 -> ip3 (in-place)
I0521 06:10:51.988476  9072 net.cpp:150] Setting up drop3
I0521 06:10:51.988488  9072 net.cpp:157] Top shape: 740 11 (8140)
I0521 06:10:51.988499  9072 net.cpp:165] Memory required for data: 1168297200
I0521 06:10:51.988509  9072 layer_factory.hpp:77] Creating layer loss
I0521 06:10:51.988529  9072 net.cpp:106] Creating Layer loss
I0521 06:10:51.988539  9072 net.cpp:454] loss <- ip3
I0521 06:10:51.988550  9072 net.cpp:454] loss <- label
I0521 06:10:51.988562  9072 net.cpp:411] loss -> loss
I0521 06:10:51.988579  9072 layer_factory.hpp:77] Creating layer loss
…
I0521 06:10:51.991168  9072 solver.cpp:181] Creating test net (#0) specified by net file: /lustre/atlas/proj-shared/hep105/caffe_titan/caffe_workflow/logs_batch_size_test/batch_size_740_2016-05-20T11.20.59.642557.prototxt
I0521 06:10:51.991240  9072 net.cpp:322] The NetState phase (1) differed from the phase (0) specified by a rule in layer data_hdf5
I0521 06:10:51.991595  9072 net.cpp:49] Initializing net from parameters: 
name: "caffe_test_127x50_x_unshifted"
state {
  phase: TEST
}
layer {
  name: "data_hdf5"
  type: "HDF5Data"
  top: "data"
  top: "label"
  include {
    phase: TEST
  }
  hdf5_data_param {
    source: "/lustre/atlas/proj-shared/hep105/caffe_titan/minosmatch_nukecczdefs_127x50_x_unshifted_me1Bmc.testlist"
    batch_size: 740
  }
}
layer {
  name: "conv1"
  type: "Convolution"
  bottom: "data"
  top: "conv1"
  convolution_param {
    num_output: 12
    pad: 0
    stride: 1
    weight_filler {
      type: "xavier"
    }
    bias_filler {
      type: "constant"
    }
    kernel_h: 8
    kernel_w: 3
  }
}
layer {
  name: "relu1"
  type: "ReLU"
  bottom: "conv1"
  top: "conv1"
}
layer {
  name: "pool1"
  type: "Pooling"
  bottom: "conv1"
  top: "pool1"
  pooling_param {
    pool: MAX
    kernel_h: 2
    kernel_w: 1
    stride_h: 2
    stride_w: 1
  }
}
layer {
  name: "conv2"
  type: "Convolution"
  bottom: "pool1"
  top: "conv2"
  convolution_param {
    num_output: 20
    pad: 0
    stride: 1
    weight_filler {
      type: "xavier"
    }
    bias_filler {
      type: "constant"
    }
    kernel_h: 7
    kernel_w: 3
  }
}
layer {
  name: "relu2"
  type: "ReLU"
  bottom: "conv2"
  top: "conv2"
}
layer {
  name: "pool2"
  type: "Pooling"
  bottom: "conv2"
  top: "pool2"
  pooling_param {
    pool: MAX
    kernel_h: 2
    kernel_w: 1
    stride_h: 2
    stride_w: 1
  }
}
layer {
  name: "conv3"
  type: "Convolution"
  bottom: "pool2"
  top: "conv3"
  convolution_param {
    num_output: 28
    pad: 0
    stride: 1
    weight_filler {
      type: "xavier"
    }
    bias_filler {
      type: "constant"
    }
    kernel_h: 6
    kernel_w: 3
  }
}
layer {
  name: "relu3"
  type: "ReLU"
  bottom: "conv3"
  top: "conv3"
}
layer {
  name: "pool3"
  type: "Pooling"
  bottom: "conv3"
  top: "pool3"
  pooling_param {
    pool: MAX
    kernel_h: 2
    kernel_w: 1
    stride_h: 2
    stride_w: 1
  }
}
layer {
  name: "conv4"
  type: "Convolution"
  bottom: "pool3"
  top: "conv4"
  convolution_param {
    num_output: 36
    pad: 0
    stride: 1
    weight_filler {
      type: "xavier"
    }
    bias_filler {
      type: "constant"
    }
    kernel_h: 6
    kernel_w: 3
  }
}
layer {
  name: "relu4"
  type: "ReLU"
  bottom: "conv4"
  top: "conv4"
}
layer {
  name: "pool4"
  type: "Pooling"
  bottom: "conv4"
  top: "pool4"
  pooling_param {
    pool: MAX
    kernel_h: 2
    kernel_w: 1
    stride_h: 2
    stride_w: 1
  }
}
layer {
  name: "ip1"
  type: "InnerProduct"
  bottom: "pool4"
  top: "ip1"
  inner_product_param {
    num_output: 196
    weight_filler {
      type: "xavier"
    }
    bias_filler {
      type: "constant"
    }
  }
}
layer {
  name: "relu5"
  type: "ReLU"
  bottom: "ip1"
  top: "ip1"
}
layer {
  name: "drop1"
  type: "Dropout"
  bottom: "ip1"
  top: "ip1"
  dropout_param {
    dropout_ratio: 0.5
  }
}
layer {
  name: "ip2"
  type: "InnerProduct"
  bottom: "ip1"
  top: "ip2"
  inner_product_param {
    num_output: 98
    weight_filler {
      type: "xavier"
    }
    bias_filler {
      type: "constant"
    }
  }
}
layer {
  name: "relu6"
  type: "ReLU"
  bottom: "ip2"
  top: "ip2"
}
layer {
  name: "drop2"
  type: "Dropout"
  bottom: "ip2"
  top: "ip2"
  dropout_param {
    dropout_ratio: 0.5
  }
}
layer {
  name: "ip3"
  type: "InnerProduct"
  bottom: "ip2"
  top: "ip3"
  inner_product_param {
    num_output: 11
    weight_filler {
      type: "xavier"
    }
    bias_filler {
      type: "constant"
    }
  }
}
layer {
  name: "drop3"
  type: "Dropout"
  bottom: "ip3"
  top: "ip3"
  dropout_param {
    dropout_ratio: 0.5
  }
}
layer {
  name: "accuracy"
  type: "Accuracy"
  bottom: "ip3"
  bottom: "label"
  top: "accuracy"
  include {
    phase: TEST
  }
}
layer {
  name: "loss"
  type: "SoftmaxWithLoss"
  bottom: "ip3"
  bottom: "label"
  top: "loss"
}
I0521 06:10:51.991793  9072 layer_factory.hpp:77] Creating layer data_hdf5
I0521 06:10:51.991808  9072 net.cpp:106] Creating Layer data_hdf5
I0521 06:10:51.991821  9072 net.cpp:411] data_hdf5 -> data
I0521 06:10:51.991837  9072 net.cpp:411] data_hdf5 -> label
I0521 06:10:51.991852  9072 hdf5_data_layer.cpp:79] Loading list of HDF5 filenames from: /lustre/atlas/proj-shared/hep105/caffe_titan/minosmatch_nukecczdefs_127x50_x_unshifted_me1Bmc.testlist
I0521 06:10:51.993015  9072 hdf5_data_layer.cpp:93] Number of HDF5 files: 3
I0521 06:11:13.449553  9072 net.cpp:150] Setting up data_hdf5
I0521 06:11:13.449718  9072 net.cpp:157] Top shape: 740 1 127 50 (4699000)
I0521 06:11:13.449733  9072 net.cpp:157] Top shape: 740 (740)
I0521 06:11:13.449744  9072 net.cpp:165] Memory required for data: 18798960
I0521 06:11:13.449759  9072 layer_factory.hpp:77] Creating layer label_data_hdf5_1_split
I0521 06:11:13.449787  9072 net.cpp:106] Creating Layer label_data_hdf5_1_split
I0521 06:11:13.449797  9072 net.cpp:454] label_data_hdf5_1_split <- label
I0521 06:11:13.449812  9072 net.cpp:411] label_data_hdf5_1_split -> label_data_hdf5_1_split_0
I0521 06:11:13.449834  9072 net.cpp:411] label_data_hdf5_1_split -> label_data_hdf5_1_split_1
I0521 06:11:13.449906  9072 net.cpp:150] Setting up label_data_hdf5_1_split
I0521 06:11:13.449920  9072 net.cpp:157] Top shape: 740 (740)
I0521 06:11:13.449933  9072 net.cpp:157] Top shape: 740 (740)
I0521 06:11:13.449941  9072 net.cpp:165] Memory required for data: 18804880
I0521 06:11:13.449951  9072 layer_factory.hpp:77] Creating layer conv1
I0521 06:11:13.449973  9072 net.cpp:106] Creating Layer conv1
I0521 06:11:13.449983  9072 net.cpp:454] conv1 <- data
I0521 06:11:13.449998  9072 net.cpp:411] conv1 -> conv1
I0521 06:11:13.451930  9072 net.cpp:150] Setting up conv1
I0521 06:11:13.451953  9072 net.cpp:157] Top shape: 740 12 120 48 (51148800)
I0521 06:11:13.451966  9072 net.cpp:165] Memory required for data: 223400080
I0521 06:11:13.451985  9072 layer_factory.hpp:77] Creating layer relu1
I0521 06:11:13.452000  9072 net.cpp:106] Creating Layer relu1
I0521 06:11:13.452010  9072 net.cpp:454] relu1 <- conv1
I0521 06:11:13.452023  9072 net.cpp:397] relu1 -> conv1 (in-place)
I0521 06:11:13.452525  9072 net.cpp:150] Setting up relu1
I0521 06:11:13.452541  9072 net.cpp:157] Top shape: 740 12 120 48 (51148800)
I0521 06:11:13.452553  9072 net.cpp:165] Memory required for data: 427995280
I0521 06:11:13.452563  9072 layer_factory.hpp:77] Creating layer pool1
I0521 06:11:13.452579  9072 net.cpp:106] Creating Layer pool1
I0521 06:11:13.452589  9072 net.cpp:454] pool1 <- conv1
I0521 06:11:13.452601  9072 net.cpp:411] pool1 -> pool1
I0521 06:11:13.452677  9072 net.cpp:150] Setting up pool1
I0521 06:11:13.452689  9072 net.cpp:157] Top shape: 740 12 60 48 (25574400)
I0521 06:11:13.452699  9072 net.cpp:165] Memory required for data: 530292880
I0521 06:11:13.452709  9072 layer_factory.hpp:77] Creating layer conv2
I0521 06:11:13.452726  9072 net.cpp:106] Creating Layer conv2
I0521 06:11:13.452738  9072 net.cpp:454] conv2 <- pool1
I0521 06:11:13.452752  9072 net.cpp:411] conv2 -> conv2
I0521 06:11:13.454663  9072 net.cpp:150] Setting up conv2
I0521 06:11:13.454684  9072 net.cpp:157] Top shape: 740 20 54 46 (36763200)
I0521 06:11:13.454696  9072 net.cpp:165] Memory required for data: 677345680
I0521 06:11:13.454715  9072 layer_factory.hpp:77] Creating layer relu2
I0521 06:11:13.454727  9072 net.cpp:106] Creating Layer relu2
I0521 06:11:13.454737  9072 net.cpp:454] relu2 <- conv2
I0521 06:11:13.454751  9072 net.cpp:397] relu2 -> conv2 (in-place)
I0521 06:11:13.455085  9072 net.cpp:150] Setting up relu2
I0521 06:11:13.455099  9072 net.cpp:157] Top shape: 740 20 54 46 (36763200)
I0521 06:11:13.455111  9072 net.cpp:165] Memory required for data: 824398480
I0521 06:11:13.455121  9072 layer_factory.hpp:77] Creating layer pool2
I0521 06:11:13.455133  9072 net.cpp:106] Creating Layer pool2
I0521 06:11:13.455143  9072 net.cpp:454] pool2 <- conv2
I0521 06:11:13.455157  9072 net.cpp:411] pool2 -> pool2
I0521 06:11:13.455226  9072 net.cpp:150] Setting up pool2
I0521 06:11:13.455240  9072 net.cpp:157] Top shape: 740 20 27 46 (18381600)
I0521 06:11:13.455250  9072 net.cpp:165] Memory required for data: 897924880
I0521 06:11:13.455260  9072 layer_factory.hpp:77] Creating layer conv3
I0521 06:11:13.455281  9072 net.cpp:106] Creating Layer conv3
I0521 06:11:13.455291  9072 net.cpp:454] conv3 <- pool2
I0521 06:11:13.455305  9072 net.cpp:411] conv3 -> conv3
I0521 06:11:13.457286  9072 net.cpp:150] Setting up conv3
I0521 06:11:13.457310  9072 net.cpp:157] Top shape: 740 28 22 44 (20056960)
I0521 06:11:13.457320  9072 net.cpp:165] Memory required for data: 978152720
I0521 06:11:13.457352  9072 layer_factory.hpp:77] Creating layer relu3
I0521 06:11:13.457365  9072 net.cpp:106] Creating Layer relu3
I0521 06:11:13.457376  9072 net.cpp:454] relu3 <- conv3
I0521 06:11:13.457388  9072 net.cpp:397] relu3 -> conv3 (in-place)
I0521 06:11:13.457860  9072 net.cpp:150] Setting up relu3
I0521 06:11:13.457877  9072 net.cpp:157] Top shape: 740 28 22 44 (20056960)
I0521 06:11:13.457887  9072 net.cpp:165] Memory required for data: 1058380560
I0521 06:11:13.457897  9072 layer_factory.hpp:77] Creating layer pool3
I0521 06:11:13.457911  9072 net.cpp:106] Creating Layer pool3
I0521 06:11:13.457921  9072 net.cpp:454] pool3 <- conv3
I0521 06:11:13.457933  9072 net.cpp:411] pool3 -> pool3
I0521 06:11:13.458004  9072 net.cpp:150] Setting up pool3
I0521 06:11:13.458017  9072 net.cpp:157] Top shape: 740 28 11 44 (10028480)
I0521 06:11:13.458026  9072 net.cpp:165] Memory required for data: 1098494480
I0521 06:11:13.458036  9072 layer_factory.hpp:77] Creating layer conv4
I0521 06:11:13.458055  9072 net.cpp:106] Creating Layer conv4
I0521 06:11:13.458065  9072 net.cpp:454] conv4 <- pool3
I0521 06:11:13.458078  9072 net.cpp:411] conv4 -> conv4
I0521 06:11:13.460134  9072 net.cpp:150] Setting up conv4
I0521 06:11:13.460157  9072 net.cpp:157] Top shape: 740 36 6 42 (6713280)
I0521 06:11:13.460170  9072 net.cpp:165] Memory required for data: 1125347600
I0521 06:11:13.460186  9072 layer_factory.hpp:77] Creating layer relu4
I0521 06:11:13.460198  9072 net.cpp:106] Creating Layer relu4
I0521 06:11:13.460208  9072 net.cpp:454] relu4 <- conv4
I0521 06:11:13.460222  9072 net.cpp:397] relu4 -> conv4 (in-place)
I0521 06:11:13.460693  9072 net.cpp:150] Setting up relu4
I0521 06:11:13.460710  9072 net.cpp:157] Top shape: 740 36 6 42 (6713280)
I0521 06:11:13.460721  9072 net.cpp:165] Memory required for data: 1152200720
I0521 06:11:13.460731  9072 layer_factory.hpp:77] Creating layer pool4
I0521 06:11:13.460743  9072 net.cpp:106] Creating Layer pool4
I0521 06:11:13.460753  9072 net.cpp:454] pool4 <- conv4
I0521 06:11:13.460767  9072 net.cpp:411] pool4 -> pool4
I0521 06:11:13.460837  9072 net.cpp:150] Setting up pool4
I0521 06:11:13.460851  9072 net.cpp:157] Top shape: 740 36 3 42 (3356640)
I0521 06:11:13.460860  9072 net.cpp:165] Memory required for data: 1165627280
I0521 06:11:13.460870  9072 layer_factory.hpp:77] Creating layer ip1
I0521 06:11:13.460886  9072 net.cpp:106] Creating Layer ip1
I0521 06:11:13.460896  9072 net.cpp:454] ip1 <- pool4
I0521 06:11:13.460911  9072 net.cpp:411] ip1 -> ip1
I0521 06:11:13.476400  9072 net.cpp:150] Setting up ip1
I0521 06:11:13.476429  9072 net.cpp:157] Top shape: 740 196 (145040)
I0521 06:11:13.476440  9072 net.cpp:165] Memory required for data: 1166207440
I0521 06:11:13.476462  9072 layer_factory.hpp:77] Creating layer relu5
I0521 06:11:13.476478  9072 net.cpp:106] Creating Layer relu5
I0521 06:11:13.476488  9072 net.cpp:454] relu5 <- ip1
I0521 06:11:13.476502  9072 net.cpp:397] relu5 -> ip1 (in-place)
I0521 06:11:13.476850  9072 net.cpp:150] Setting up relu5
I0521 06:11:13.476863  9072 net.cpp:157] Top shape: 740 196 (145040)
I0521 06:11:13.476873  9072 net.cpp:165] Memory required for data: 1166787600
I0521 06:11:13.476883  9072 layer_factory.hpp:77] Creating layer drop1
I0521 06:11:13.476902  9072 net.cpp:106] Creating Layer drop1
I0521 06:11:13.476912  9072 net.cpp:454] drop1 <- ip1
I0521 06:11:13.476925  9072 net.cpp:397] drop1 -> ip1 (in-place)
I0521 06:11:13.476969  9072 net.cpp:150] Setting up drop1
I0521 06:11:13.476982  9072 net.cpp:157] Top shape: 740 196 (145040)
I0521 06:11:13.476992  9072 net.cpp:165] Memory required for data: 1167367760
I0521 06:11:13.477002  9072 layer_factory.hpp:77] Creating layer ip2
I0521 06:11:13.477017  9072 net.cpp:106] Creating Layer ip2
I0521 06:11:13.477026  9072 net.cpp:454] ip2 <- ip1
I0521 06:11:13.477041  9072 net.cpp:411] ip2 -> ip2
I0521 06:11:13.477519  9072 net.cpp:150] Setting up ip2
I0521 06:11:13.477532  9072 net.cpp:157] Top shape: 740 98 (72520)
I0521 06:11:13.477542  9072 net.cpp:165] Memory required for data: 1167657840
I0521 06:11:13.477571  9072 layer_factory.hpp:77] Creating layer relu6
I0521 06:11:13.477584  9072 net.cpp:106] Creating Layer relu6
I0521 06:11:13.477594  9072 net.cpp:454] relu6 <- ip2
I0521 06:11:13.477607  9072 net.cpp:397] relu6 -> ip2 (in-place)
I0521 06:11:13.478139  9072 net.cpp:150] Setting up relu6
I0521 06:11:13.478160  9072 net.cpp:157] Top shape: 740 98 (72520)
I0521 06:11:13.478170  9072 net.cpp:165] Memory required for data: 1167947920
I0521 06:11:13.478180  9072 layer_factory.hpp:77] Creating layer drop2
I0521 06:11:13.478195  9072 net.cpp:106] Creating Layer drop2
I0521 06:11:13.478205  9072 net.cpp:454] drop2 <- ip2
I0521 06:11:13.478219  9072 net.cpp:397] drop2 -> ip2 (in-place)
I0521 06:11:13.478261  9072 net.cpp:150] Setting up drop2
I0521 06:11:13.478274  9072 net.cpp:157] Top shape: 740 98 (72520)
I0521 06:11:13.478286  9072 net.cpp:165] Memory required for data: 1168238000
I0521 06:11:13.478294  9072 layer_factory.hpp:77] Creating layer ip3
I0521 06:11:13.478309  9072 net.cpp:106] Creating Layer ip3
I0521 06:11:13.478319  9072 net.cpp:454] ip3 <- ip2
I0521 06:11:13.478333  9072 net.cpp:411] ip3 -> ip3
I0521 06:11:13.478557  9072 net.cpp:150] Setting up ip3
I0521 06:11:13.478570  9072 net.cpp:157] Top shape: 740 11 (8140)
I0521 06:11:13.478580  9072 net.cpp:165] Memory required for data: 1168270560
I0521 06:11:13.478596  9072 layer_factory.hpp:77] Creating layer drop3
I0521 06:11:13.478610  9072 net.cpp:106] Creating Layer drop3
I0521 06:11:13.478620  9072 net.cpp:454] drop3 <- ip3
I0521 06:11:13.478632  9072 net.cpp:397] drop3 -> ip3 (in-place)
I0521 06:11:13.478673  9072 net.cpp:150] Setting up drop3
I0521 06:11:13.478685  9072 net.cpp:157] Top shape: 740 11 (8140)
I0521 06:11:13.478695  9072 net.cpp:165] Memory required for data: 1168303120
I0521 06:11:13.478704  9072 layer_factory.hpp:77] Creating layer ip3_drop3_0_split
I0521 06:11:13.478718  9072 net.cpp:106] Creating Layer ip3_drop3_0_split
I0521 06:11:13.478727  9072 net.cpp:454] ip3_drop3_0_split <- ip3
I0521 06:11:13.478739  9072 net.cpp:411] ip3_drop3_0_split -> ip3_drop3_0_split_0
I0521 06:11:13.478754  9072 net.cpp:411] ip3_drop3_0_split -> ip3_drop3_0_split_1
I0521 06:11:13.478827  9072 net.cpp:150] Setting up ip3_drop3_0_split
I0521 06:11:13.478840  9072 net.cpp:157] Top shape: 740 11 (8140)
I0521 06:11:13.478850  9072 net.cpp:157] Top shape: 740 11 (8140)
I0521 06:11:13.478860  9072 net.cpp:165] Memory required for data: 1168368240
I0521 06:11:13.478870  9072 layer_factory.hpp:77] Creating layer accuracy
I0521 06:11:13.478893  9072 net.cpp:106] Creating Layer accuracy
I0521 06:11:13.478904  9072 net.cpp:454] accuracy <- ip3_drop3_0_split_0
I0521 06:11:13.478914  9072 net.cpp:454] accuracy <- label_data_hdf5_1_split_0
I0521 06:11:13.478927  9072 net.cpp:411] accuracy -> accuracy
…
