…
I0521 03:17:20.723664  7595 net.cpp:322] The NetState phase (0) differed from the phase (1) specified by a rule in layer data_hdf5
I0521 03:17:20.723726  7595 net.cpp:322] The NetState phase (0) differed from the phase (1) specified by a rule in layer accuracy
I0521 03:17:20.724067  7595 net.cpp:49] Initializing net from parameters: 
name: "caffe_test_127x50_x_unshifted"
state {
  phase: TRAIN
}
layer {
  name: "data_hdf5"
  type: "HDF5Data"
  top: "data"
  top: "label"
  include {
    phase: TRAIN
  }
  hdf5_data_param {
    source: "/lustre/atlas/proj-shared/hep105/caffe_titan/minosmatch_nukecczdefs_127x50_x_unshifted_me1Bmc.trainlist"
    batch_size: 600
  }
}
layer {
  name: "conv1"
  type: "Convolution"
  bottom: "data"
  top: "conv1"
  convolution_param {
    num_output: 12
    pad: 0
    stride: 1
    weight_filler {
      type: "xavier"
    }
    bias_filler {
      type: "constant"
    }
    kernel_h: 8
    kernel_w: 3
  }
}
layer {
  name: "relu1"
  type: "ReLU"
  bottom: "conv1"
  top: "conv1"
}
layer {
  name: "pool1"
  type: "Pooling"
  bottom: "conv1"
  top: "pool1"
  pooling_param {
    pool: MAX
    kernel_h: 2
    kernel_w: 1
    stride_h: 2
    stride_w: 1
  }
}
layer {
  name: "conv2"
  type: "Convolution"
  bottom: "pool1"
  top: "conv2"
  convolution_param {
    num_output: 20
    pad: 0
    stride: 1
    weight_filler {
      type: "xavier"
    }
    bias_filler {
      type: "constant"
    }
    kernel_h: 7
    kernel_w: 3
  }
}
layer {
  name: "relu2"
  type: "ReLU"
  bottom: "conv2"
  top: "conv2"
}
layer {
  name: "pool2"
  type: "Pooling"
  bottom: "conv2"
  top: "pool2"
  pooling_param {
    pool: MAX
    kernel_h: 2
    kernel_w: 1
    stride_h: 2
    stride_w: 1
  }
}
layer {
  name: "conv3"
  type: "Convolution"
  bottom: "pool2"
  top: "conv3"
  convolution_param {
    num_output: 28
    pad: 0
    stride: 1
    weight_filler {
      type: "xavier"
    }
    bias_filler {
      type: "constant"
    }
    kernel_h: 6
    kernel_w: 3
  }
}
layer {
  name: "relu3"
  type: "ReLU"
  bottom: "conv3"
  top: "conv3"
}
layer {
  name: "pool3"
  type: "Pooling"
  bottom: "conv3"
  top: "pool3"
  pooling_param {
    pool: MAX
    kernel_h: 2
    kernel_w: 1
    stride_h: 2
    stride_w: 1
  }
}
layer {
  name: "conv4"
  type: "Convolution"
  bottom: "pool3"
  top: "conv4"
  convolution_param {
    num_output: 36
    pad: 0
    stride: 1
    weight_filler {
      type: "xavier"
    }
    bias_filler {
      type: "constant"
    }
    kernel_h: 6
    kernel_w: 3
  }
}
layer {
  name: "relu4"
  type: "ReLU"
  bottom: "conv4"
  top: "conv4"
}
layer {
  name: "pool4"
  type: "Pooling"
  bottom: "conv4"
  top: "pool4"
  pooling_param {
    pool: MAX
    kernel_h: 2
    kernel_w: 1
    stride_h: 2
    stride_w: 1
  }
}
layer {
  name: "ip1"
  type: "InnerProduct"
  bottom: "pool4"
  top: "ip1"
  inner_product_param {
    num_output: 196
    weight_filler {
      type: "xavier"
    }
    bias_filler {
      type: "constant"
    }
  }
}
layer {
  name: "relu5"
  type: "ReLU"
  bottom: "ip1"
  top: "ip1"
}
layer {
  name: "drop1"
  type: "Dropout"
  bottom: "ip1"
  top: "ip1"
  dropout_param {
    dropout_ratio: 0.5
  }
}
layer {
  name: "ip2"
  type: "InnerProduct"
  bottom: "ip1"
  top: "ip2"
  inner_product_param {
    num_output: 98
    weight_filler {
      type: "xavier"
    }
    bias_filler {
      type: "constant"
    }
  }
}
layer {
  name: "relu6"
  type: "ReLU"
  bottom: "ip2"
  top: "ip2"
}
layer {
  name: "drop2"
  type: "Dropout"
  bottom: "ip2"
  top: "ip2"
  dropout_param {
    dropout_ratio: 0.5
  }
}
layer {
  name: "ip3"
  type: "InnerProduct"
  bottom: "ip2"
  top: "ip3"
  inner_product_param {
    num_output: 11
    weight_filler {
      type: "xavier"
    }
    bias_filler {
      type: "constant"
    }
  }
}
layer {
  name: "drop3"
  type: "Dropout"
  bottom: "ip3"
  top: "ip3"
  dropout_param {
    dropout_ratio: 0.5
  }
}
layer {
  name: "loss"
  type: "SoftmaxWithLoss"
  bottom: "ip3"
  bottom: "label"
  top: "loss"
}
I0521 03:17:20.724248  7595 layer_factory.hpp:77] Creating layer data_hdf5
I0521 03:17:20.724272  7595 net.cpp:106] Creating Layer data_hdf5
I0521 03:17:20.724287  7595 net.cpp:411] data_hdf5 -> data
I0521 03:17:20.724320  7595 net.cpp:411] data_hdf5 -> label
I0521 03:17:20.724354  7595 hdf5_data_layer.cpp:79] Loading list of HDF5 filenames from: /lustre/atlas/proj-shared/hep105/caffe_titan/minosmatch_nukecczdefs_127x50_x_unshifted_me1Bmc.trainlist
I0521 03:17:20.725734  7595 hdf5_data_layer.cpp:93] Number of HDF5 files: 15
I0521 03:17:20.727901  7595 hdf5.cpp:32] Datatype class: H5T_FLOAT
I0521 03:17:42.248870  7595 hdf5.cpp:35] Datatype class: H5T_INTEGER
I0521 03:17:42.253975  7595 net.cpp:150] Setting up data_hdf5
I0521 03:17:42.254016  7595 net.cpp:157] Top shape: 600 1 127 50 (3810000)
I0521 03:17:42.254031  7595 net.cpp:157] Top shape: 600 (600)
I0521 03:17:42.254043  7595 net.cpp:165] Memory required for data: 15242400
I0521 03:17:42.254057  7595 layer_factory.hpp:77] Creating layer conv1
I0521 03:17:42.254091  7595 net.cpp:106] Creating Layer conv1
I0521 03:17:42.254102  7595 net.cpp:454] conv1 <- data
I0521 03:17:42.254123  7595 net.cpp:411] conv1 -> conv1
I0521 03:17:42.622375  7595 net.cpp:150] Setting up conv1
I0521 03:17:42.622422  7595 net.cpp:157] Top shape: 600 12 120 48 (41472000)
I0521 03:17:42.622433  7595 net.cpp:165] Memory required for data: 181130400
I0521 03:17:42.622462  7595 layer_factory.hpp:77] Creating layer relu1
I0521 03:17:42.622483  7595 net.cpp:106] Creating Layer relu1
I0521 03:17:42.622495  7595 net.cpp:454] relu1 <- conv1
I0521 03:17:42.622509  7595 net.cpp:397] relu1 -> conv1 (in-place)
I0521 03:17:42.623023  7595 net.cpp:150] Setting up relu1
I0521 03:17:42.623040  7595 net.cpp:157] Top shape: 600 12 120 48 (41472000)
I0521 03:17:42.623050  7595 net.cpp:165] Memory required for data: 347018400
I0521 03:17:42.623060  7595 layer_factory.hpp:77] Creating layer pool1
I0521 03:17:42.623076  7595 net.cpp:106] Creating Layer pool1
I0521 03:17:42.623086  7595 net.cpp:454] pool1 <- conv1
I0521 03:17:42.623100  7595 net.cpp:411] pool1 -> pool1
I0521 03:17:42.623179  7595 net.cpp:150] Setting up pool1
I0521 03:17:42.623193  7595 net.cpp:157] Top shape: 600 12 60 48 (20736000)
I0521 03:17:42.623203  7595 net.cpp:165] Memory required for data: 429962400
I0521 03:17:42.623214  7595 layer_factory.hpp:77] Creating layer conv2
I0521 03:17:42.623237  7595 net.cpp:106] Creating Layer conv2
I0521 03:17:42.623248  7595 net.cpp:454] conv2 <- pool1
I0521 03:17:42.623262  7595 net.cpp:411] conv2 -> conv2
I0521 03:17:42.625936  7595 net.cpp:150] Setting up conv2
I0521 03:17:42.625963  7595 net.cpp:157] Top shape: 600 20 54 46 (29808000)
I0521 03:17:42.625973  7595 net.cpp:165] Memory required for data: 549194400
I0521 03:17:42.625993  7595 layer_factory.hpp:77] Creating layer relu2
I0521 03:17:42.626008  7595 net.cpp:106] Creating Layer relu2
I0521 03:17:42.626018  7595 net.cpp:454] relu2 <- conv2
I0521 03:17:42.626030  7595 net.cpp:397] relu2 -> conv2 (in-place)
I0521 03:17:42.626361  7595 net.cpp:150] Setting up relu2
I0521 03:17:42.626376  7595 net.cpp:157] Top shape: 600 20 54 46 (29808000)
I0521 03:17:42.626387  7595 net.cpp:165] Memory required for data: 668426400
I0521 03:17:42.626397  7595 layer_factory.hpp:77] Creating layer pool2
I0521 03:17:42.626410  7595 net.cpp:106] Creating Layer pool2
I0521 03:17:42.626420  7595 net.cpp:454] pool2 <- conv2
I0521 03:17:42.626446  7595 net.cpp:411] pool2 -> pool2
I0521 03:17:42.626515  7595 net.cpp:150] Setting up pool2
I0521 03:17:42.626528  7595 net.cpp:157] Top shape: 600 20 27 46 (14904000)
I0521 03:17:42.626538  7595 net.cpp:165] Memory required for data: 728042400
I0521 03:17:42.626546  7595 layer_factory.hpp:77] Creating layer conv3
I0521 03:17:42.626564  7595 net.cpp:106] Creating Layer conv3
I0521 03:17:42.626575  7595 net.cpp:454] conv3 <- pool2
I0521 03:17:42.626590  7595 net.cpp:411] conv3 -> conv3
I0521 03:17:42.628516  7595 net.cpp:150] Setting up conv3
I0521 03:17:42.628540  7595 net.cpp:157] Top shape: 600 28 22 44 (16262400)
I0521 03:17:42.628551  7595 net.cpp:165] Memory required for data: 793092000
I0521 03:17:42.628571  7595 layer_factory.hpp:77] Creating layer relu3
I0521 03:17:42.628587  7595 net.cpp:106] Creating Layer relu3
I0521 03:17:42.628597  7595 net.cpp:454] relu3 <- conv3
I0521 03:17:42.628608  7595 net.cpp:397] relu3 -> conv3 (in-place)
I0521 03:17:42.629077  7595 net.cpp:150] Setting up relu3
I0521 03:17:42.629094  7595 net.cpp:157] Top shape: 600 28 22 44 (16262400)
I0521 03:17:42.629106  7595 net.cpp:165] Memory required for data: 858141600
I0521 03:17:42.629115  7595 layer_factory.hpp:77] Creating layer pool3
I0521 03:17:42.629128  7595 net.cpp:106] Creating Layer pool3
I0521 03:17:42.629138  7595 net.cpp:454] pool3 <- conv3
I0521 03:17:42.629151  7595 net.cpp:411] pool3 -> pool3
I0521 03:17:42.629218  7595 net.cpp:150] Setting up pool3
I0521 03:17:42.629232  7595 net.cpp:157] Top shape: 600 28 11 44 (8131200)
I0521 03:17:42.629242  7595 net.cpp:165] Memory required for data: 890666400
I0521 03:17:42.629251  7595 layer_factory.hpp:77] Creating layer conv4
I0521 03:17:42.629268  7595 net.cpp:106] Creating Layer conv4
I0521 03:17:42.629278  7595 net.cpp:454] conv4 <- pool3
I0521 03:17:42.629292  7595 net.cpp:411] conv4 -> conv4
I0521 03:17:42.632076  7595 net.cpp:150] Setting up conv4
I0521 03:17:42.632105  7595 net.cpp:157] Top shape: 600 36 6 42 (5443200)
I0521 03:17:42.632117  7595 net.cpp:165] Memory required for data: 912439200
I0521 03:17:42.632131  7595 layer_factory.hpp:77] Creating layer relu4
I0521 03:17:42.632145  7595 net.cpp:106] Creating Layer relu4
I0521 03:17:42.632155  7595 net.cpp:454] relu4 <- conv4
I0521 03:17:42.632169  7595 net.cpp:397] relu4 -> conv4 (in-place)
I0521 03:17:42.632642  7595 net.cpp:150] Setting up relu4
I0521 03:17:42.632658  7595 net.cpp:157] Top shape: 600 36 6 42 (5443200)
I0521 03:17:42.632669  7595 net.cpp:165] Memory required for data: 934212000
I0521 03:17:42.632679  7595 layer_factory.hpp:77] Creating layer pool4
I0521 03:17:42.632693  7595 net.cpp:106] Creating Layer pool4
I0521 03:17:42.632701  7595 net.cpp:454] pool4 <- conv4
I0521 03:17:42.632714  7595 net.cpp:411] pool4 -> pool4
I0521 03:17:42.632783  7595 net.cpp:150] Setting up pool4
I0521 03:17:42.632797  7595 net.cpp:157] Top shape: 600 36 3 42 (2721600)
I0521 03:17:42.632807  7595 net.cpp:165] Memory required for data: 945098400
I0521 03:17:42.632817  7595 layer_factory.hpp:77] Creating layer ip1
I0521 03:17:42.632838  7595 net.cpp:106] Creating Layer ip1
I0521 03:17:42.632848  7595 net.cpp:454] ip1 <- pool4
I0521 03:17:42.632860  7595 net.cpp:411] ip1 -> ip1
I0521 03:17:42.648313  7595 net.cpp:150] Setting up ip1
I0521 03:17:42.648341  7595 net.cpp:157] Top shape: 600 196 (117600)
I0521 03:17:42.648355  7595 net.cpp:165] Memory required for data: 945568800
I0521 03:17:42.648376  7595 layer_factory.hpp:77] Creating layer relu5
I0521 03:17:42.648391  7595 net.cpp:106] Creating Layer relu5
I0521 03:17:42.648401  7595 net.cpp:454] relu5 <- ip1
I0521 03:17:42.648414  7595 net.cpp:397] relu5 -> ip1 (in-place)
I0521 03:17:42.648844  7595 net.cpp:150] Setting up relu5
I0521 03:17:42.648860  7595 net.cpp:157] Top shape: 600 196 (117600)
I0521 03:17:42.648870  7595 net.cpp:165] Memory required for data: 946039200
I0521 03:17:42.648881  7595 layer_factory.hpp:77] Creating layer drop1
I0521 03:17:42.648902  7595 net.cpp:106] Creating Layer drop1
I0521 03:17:42.648913  7595 net.cpp:454] drop1 <- ip1
I0521 03:17:42.648937  7595 net.cpp:397] drop1 -> ip1 (in-place)
I0521 03:17:42.648984  7595 net.cpp:150] Setting up drop1
I0521 03:17:42.648998  7595 net.cpp:157] Top shape: 600 196 (117600)
I0521 03:17:42.649008  7595 net.cpp:165] Memory required for data: 946509600
I0521 03:17:42.649018  7595 layer_factory.hpp:77] Creating layer ip2
I0521 03:17:42.649036  7595 net.cpp:106] Creating Layer ip2
I0521 03:17:42.649047  7595 net.cpp:454] ip2 <- ip1
I0521 03:17:42.649060  7595 net.cpp:411] ip2 -> ip2
I0521 03:17:42.649529  7595 net.cpp:150] Setting up ip2
I0521 03:17:42.649543  7595 net.cpp:157] Top shape: 600 98 (58800)
I0521 03:17:42.649552  7595 net.cpp:165] Memory required for data: 946744800
I0521 03:17:42.649567  7595 layer_factory.hpp:77] Creating layer relu6
I0521 03:17:42.649580  7595 net.cpp:106] Creating Layer relu6
I0521 03:17:42.649590  7595 net.cpp:454] relu6 <- ip2
I0521 03:17:42.649601  7595 net.cpp:397] relu6 -> ip2 (in-place)
I0521 03:17:42.650120  7595 net.cpp:150] Setting up relu6
I0521 03:17:42.650135  7595 net.cpp:157] Top shape: 600 98 (58800)
I0521 03:17:42.650146  7595 net.cpp:165] Memory required for data: 946980000
I0521 03:17:42.650157  7595 layer_factory.hpp:77] Creating layer drop2
I0521 03:17:42.650171  7595 net.cpp:106] Creating Layer drop2
I0521 03:17:42.650180  7595 net.cpp:454] drop2 <- ip2
I0521 03:17:42.650193  7595 net.cpp:397] drop2 -> ip2 (in-place)
I0521 03:17:42.650235  7595 net.cpp:150] Setting up drop2
I0521 03:17:42.650249  7595 net.cpp:157] Top shape: 600 98 (58800)
I0521 03:17:42.650259  7595 net.cpp:165] Memory required for data: 947215200
I0521 03:17:42.650269  7595 layer_factory.hpp:77] Creating layer ip3
I0521 03:17:42.650282  7595 net.cpp:106] Creating Layer ip3
I0521 03:17:42.650292  7595 net.cpp:454] ip3 <- ip2
I0521 03:17:42.650305  7595 net.cpp:411] ip3 -> ip3
I0521 03:17:42.650517  7595 net.cpp:150] Setting up ip3
I0521 03:17:42.650530  7595 net.cpp:157] Top shape: 600 11 (6600)
I0521 03:17:42.650540  7595 net.cpp:165] Memory required for data: 947241600
I0521 03:17:42.650555  7595 layer_factory.hpp:77] Creating layer drop3
I0521 03:17:42.650568  7595 net.cpp:106] Creating Layer drop3
I0521 03:17:42.650578  7595 net.cpp:454] drop3 <- ip3
I0521 03:17:42.650589  7595 net.cpp:397] drop3 -> ip3 (in-place)
I0521 03:17:42.650629  7595 net.cpp:150] Setting up drop3
I0521 03:17:42.650641  7595 net.cpp:157] Top shape: 600 11 (6600)
I0521 03:17:42.650651  7595 net.cpp:165] Memory required for data: 947268000
I0521 03:17:42.650661  7595 layer_factory.hpp:77] Creating layer loss
I0521 03:17:42.650681  7595 net.cpp:106] Creating Layer loss
I0521 03:17:42.650691  7595 net.cpp:454] loss <- ip3
I0521 03:17:42.650701  7595 net.cpp:454] loss <- label
I0521 03:17:42.650713  7595 net.cpp:411] loss -> loss
I0521 03:17:42.650730  7595 layer_factory.hpp:77] Creating layer loss
…
I0521 03:17:42.653375  7595 solver.cpp:181] Creating test net (#0) specified by net file: /lustre/atlas/proj-shared/hep105/caffe_titan/caffe_workflow/logs_batch_size_test/batch_size_600_2016-05-20T11.20.54.413448.prototxt
I0521 03:17:42.653446  7595 net.cpp:322] The NetState phase (1) differed from the phase (0) specified by a rule in layer data_hdf5
I0521 03:17:42.653802  7595 net.cpp:49] Initializing net from parameters: 
name: "caffe_test_127x50_x_unshifted"
state {
  phase: TEST
}
layer {
  name: "data_hdf5"
  type: "HDF5Data"
  top: "data"
  top: "label"
  include {
    phase: TEST
  }
  hdf5_data_param {
    source: "/lustre/atlas/proj-shared/hep105/caffe_titan/minosmatch_nukecczdefs_127x50_x_unshifted_me1Bmc.testlist"
    batch_size: 600
  }
}
layer {
  name: "conv1"
  type: "Convolution"
  bottom: "data"
  top: "conv1"
  convolution_param {
    num_output: 12
    pad: 0
    stride: 1
    weight_filler {
      type: "xavier"
    }
    bias_filler {
      type: "constant"
    }
    kernel_h: 8
    kernel_w: 3
  }
}
layer {
  name: "relu1"
  type: "ReLU"
  bottom: "conv1"
  top: "conv1"
}
layer {
  name: "pool1"
  type: "Pooling"
  bottom: "conv1"
  top: "pool1"
  pooling_param {
    pool: MAX
    kernel_h: 2
    kernel_w: 1
    stride_h: 2
    stride_w: 1
  }
}
layer {
  name: "conv2"
  type: "Convolution"
  bottom: "pool1"
  top: "conv2"
  convolution_param {
    num_output: 20
    pad: 0
    stride: 1
    weight_filler {
      type: "xavier"
    }
    bias_filler {
      type: "constant"
    }
    kernel_h: 7
    kernel_w: 3
  }
}
layer {
  name: "relu2"
  type: "ReLU"
  bottom: "conv2"
  top: "conv2"
}
layer {
  name: "pool2"
  type: "Pooling"
  bottom: "conv2"
  top: "pool2"
  pooling_param {
    pool: MAX
    kernel_h: 2
    kernel_w: 1
    stride_h: 2
    stride_w: 1
  }
}
layer {
  name: "conv3"
  type: "Convolution"
  bottom: "pool2"
  top: "conv3"
  convolution_param {
    num_output: 28
    pad: 0
    stride: 1
    weight_filler {
      type: "xavier"
    }
    bias_filler {
      type: "constant"
    }
    kernel_h: 6
    kernel_w: 3
  }
}
layer {
  name: "relu3"
  type: "ReLU"
  bottom: "conv3"
  top: "conv3"
}
layer {
  name: "pool3"
  type: "Pooling"
  bottom: "conv3"
  top: "pool3"
  pooling_param {
    pool: MAX
    kernel_h: 2
    kernel_w: 1
    stride_h: 2
    stride_w: 1
  }
}
layer {
  name: "conv4"
  type: "Convolution"
  bottom: "pool3"
  top: "conv4"
  convolution_param {
    num_output: 36
    pad: 0
    stride: 1
    weight_filler {
      type: "xavier"
    }
    bias_filler {
      type: "constant"
    }
    kernel_h: 6
    kernel_w: 3
  }
}
layer {
  name: "relu4"
  type: "ReLU"
  bottom: "conv4"
  top: "conv4"
}
layer {
  name: "pool4"
  type: "Pooling"
  bottom: "conv4"
  top: "pool4"
  pooling_param {
    pool: MAX
    kernel_h: 2
    kernel_w: 1
    stride_h: 2
    stride_w: 1
  }
}
layer {
  name: "ip1"
  type: "InnerProduct"
  bottom: "pool4"
  top: "ip1"
  inner_product_param {
    num_output: 196
    weight_filler {
      type: "xavier"
    }
    bias_filler {
      type: "constant"
    }
  }
}
layer {
  name: "relu5"
  type: "ReLU"
  bottom: "ip1"
  top: "ip1"
}
layer {
  name: "drop1"
  type: "Dropout"
  bottom: "ip1"
  top: "ip1"
  dropout_param {
    dropout_ratio: 0.5
  }
}
layer {
  name: "ip2"
  type: "InnerProduct"
  bottom: "ip1"
  top: "ip2"
  inner_product_param {
    num_output: 98
    weight_filler {
      type: "xavier"
    }
    bias_filler {
      type: "constant"
    }
  }
}
layer {
  name: "relu6"
  type: "ReLU"
  bottom: "ip2"
  top: "ip2"
}
layer {
  name: "drop2"
  type: "Dropout"
  bottom: "ip2"
  top: "ip2"
  dropout_param {
    dropout_ratio: 0.5
  }
}
layer {
  name: "ip3"
  type: "InnerProduct"
  bottom: "ip2"
  top: "ip3"
  inner_product_param {
    num_output: 11
    weight_filler {
      type: "xavier"
    }
    bias_filler {
      type: "constant"
    }
  }
}
layer {
  name: "drop3"
  type: "Dropout"
  bottom: "ip3"
  top: "ip3"
  dropout_param {
    dropout_ratio: 0.5
  }
}
layer {
  name: "accuracy"
  type: "Accuracy"
  bottom: "ip3"
  bottom: "label"
  top: "accuracy"
  include {
    phase: TEST
  }
}
layer {
  name: "loss"
  type: "SoftmaxWithLoss"
  bottom: "ip3"
  bottom: "label"
  top: "loss"
}
I0521 03:17:42.653990  7595 layer_factory.hpp:77] Creating layer data_hdf5
I0521 03:17:42.654006  7595 net.cpp:106] Creating Layer data_hdf5
I0521 03:17:42.654018  7595 net.cpp:411] data_hdf5 -> data
I0521 03:17:42.654034  7595 net.cpp:411] data_hdf5 -> label
I0521 03:17:42.654050  7595 hdf5_data_layer.cpp:79] Loading list of HDF5 filenames from: /lustre/atlas/proj-shared/hep105/caffe_titan/minosmatch_nukecczdefs_127x50_x_unshifted_me1Bmc.testlist
I0521 03:17:42.655371  7595 hdf5_data_layer.cpp:93] Number of HDF5 files: 3
I0521 03:18:03.977805  7595 net.cpp:150] Setting up data_hdf5
I0521 03:18:03.977969  7595 net.cpp:157] Top shape: 600 1 127 50 (3810000)
I0521 03:18:03.977984  7595 net.cpp:157] Top shape: 600 (600)
I0521 03:18:03.977995  7595 net.cpp:165] Memory required for data: 15242400
I0521 03:18:03.978008  7595 layer_factory.hpp:77] Creating layer label_data_hdf5_1_split
I0521 03:18:03.978036  7595 net.cpp:106] Creating Layer label_data_hdf5_1_split
I0521 03:18:03.978047  7595 net.cpp:454] label_data_hdf5_1_split <- label
I0521 03:18:03.978062  7595 net.cpp:411] label_data_hdf5_1_split -> label_data_hdf5_1_split_0
I0521 03:18:03.978083  7595 net.cpp:411] label_data_hdf5_1_split -> label_data_hdf5_1_split_1
I0521 03:18:03.978157  7595 net.cpp:150] Setting up label_data_hdf5_1_split
I0521 03:18:03.978170  7595 net.cpp:157] Top shape: 600 (600)
I0521 03:18:03.978181  7595 net.cpp:157] Top shape: 600 (600)
I0521 03:18:03.978191  7595 net.cpp:165] Memory required for data: 15247200
I0521 03:18:03.978201  7595 layer_factory.hpp:77] Creating layer conv1
I0521 03:18:03.978224  7595 net.cpp:106] Creating Layer conv1
I0521 03:18:03.978234  7595 net.cpp:454] conv1 <- data
I0521 03:18:03.978248  7595 net.cpp:411] conv1 -> conv1
I0521 03:18:03.980204  7595 net.cpp:150] Setting up conv1
I0521 03:18:03.980228  7595 net.cpp:157] Top shape: 600 12 120 48 (41472000)
I0521 03:18:03.980240  7595 net.cpp:165] Memory required for data: 181135200
I0521 03:18:03.980262  7595 layer_factory.hpp:77] Creating layer relu1
I0521 03:18:03.980276  7595 net.cpp:106] Creating Layer relu1
I0521 03:18:03.980288  7595 net.cpp:454] relu1 <- conv1
I0521 03:18:03.980299  7595 net.cpp:397] relu1 -> conv1 (in-place)
I0521 03:18:03.980800  7595 net.cpp:150] Setting up relu1
I0521 03:18:03.980818  7595 net.cpp:157] Top shape: 600 12 120 48 (41472000)
I0521 03:18:03.980828  7595 net.cpp:165] Memory required for data: 347023200
I0521 03:18:03.980837  7595 layer_factory.hpp:77] Creating layer pool1
I0521 03:18:03.980854  7595 net.cpp:106] Creating Layer pool1
I0521 03:18:03.980865  7595 net.cpp:454] pool1 <- conv1
I0521 03:18:03.980877  7595 net.cpp:411] pool1 -> pool1
I0521 03:18:03.980952  7595 net.cpp:150] Setting up pool1
I0521 03:18:03.980965  7595 net.cpp:157] Top shape: 600 12 60 48 (20736000)
I0521 03:18:03.980975  7595 net.cpp:165] Memory required for data: 429967200
I0521 03:18:03.980983  7595 layer_factory.hpp:77] Creating layer conv2
I0521 03:18:03.980999  7595 net.cpp:106] Creating Layer conv2
I0521 03:18:03.981010  7595 net.cpp:454] conv2 <- pool1
I0521 03:18:03.981024  7595 net.cpp:411] conv2 -> conv2
I0521 03:18:03.982938  7595 net.cpp:150] Setting up conv2
I0521 03:18:03.982960  7595 net.cpp:157] Top shape: 600 20 54 46 (29808000)
I0521 03:18:03.982974  7595 net.cpp:165] Memory required for data: 549199200
I0521 03:18:03.982991  7595 layer_factory.hpp:77] Creating layer relu2
I0521 03:18:03.983005  7595 net.cpp:106] Creating Layer relu2
I0521 03:18:03.983014  7595 net.cpp:454] relu2 <- conv2
I0521 03:18:03.983027  7595 net.cpp:397] relu2 -> conv2 (in-place)
I0521 03:18:03.983369  7595 net.cpp:150] Setting up relu2
I0521 03:18:03.983383  7595 net.cpp:157] Top shape: 600 20 54 46 (29808000)
I0521 03:18:03.983393  7595 net.cpp:165] Memory required for data: 668431200
I0521 03:18:03.983403  7595 layer_factory.hpp:77] Creating layer pool2
I0521 03:18:03.983417  7595 net.cpp:106] Creating Layer pool2
I0521 03:18:03.983427  7595 net.cpp:454] pool2 <- conv2
I0521 03:18:03.983439  7595 net.cpp:411] pool2 -> pool2
I0521 03:18:03.983510  7595 net.cpp:150] Setting up pool2
I0521 03:18:03.983523  7595 net.cpp:157] Top shape: 600 20 27 46 (14904000)
I0521 03:18:03.983533  7595 net.cpp:165] Memory required for data: 728047200
I0521 03:18:03.983544  7595 layer_factory.hpp:77] Creating layer conv3
I0521 03:18:03.983563  7595 net.cpp:106] Creating Layer conv3
I0521 03:18:03.983573  7595 net.cpp:454] conv3 <- pool2
I0521 03:18:03.983588  7595 net.cpp:411] conv3 -> conv3
I0521 03:18:03.985563  7595 net.cpp:150] Setting up conv3
I0521 03:18:03.985580  7595 net.cpp:157] Top shape: 600 28 22 44 (16262400)
I0521 03:18:03.985591  7595 net.cpp:165] Memory required for data: 793096800
I0521 03:18:03.985623  7595 layer_factory.hpp:77] Creating layer relu3
I0521 03:18:03.985637  7595 net.cpp:106] Creating Layer relu3
I0521 03:18:03.985647  7595 net.cpp:454] relu3 <- conv3
I0521 03:18:03.985661  7595 net.cpp:397] relu3 -> conv3 (in-place)
I0521 03:18:03.986136  7595 net.cpp:150] Setting up relu3
I0521 03:18:03.986152  7595 net.cpp:157] Top shape: 600 28 22 44 (16262400)
I0521 03:18:03.986163  7595 net.cpp:165] Memory required for data: 858146400
I0521 03:18:03.986173  7595 layer_factory.hpp:77] Creating layer pool3
I0521 03:18:03.986186  7595 net.cpp:106] Creating Layer pool3
I0521 03:18:03.986196  7595 net.cpp:454] pool3 <- conv3
I0521 03:18:03.986209  7595 net.cpp:411] pool3 -> pool3
I0521 03:18:03.986281  7595 net.cpp:150] Setting up pool3
I0521 03:18:03.986294  7595 net.cpp:157] Top shape: 600 28 11 44 (8131200)
I0521 03:18:03.986304  7595 net.cpp:165] Memory required for data: 890671200
I0521 03:18:03.986315  7595 layer_factory.hpp:77] Creating layer conv4
I0521 03:18:03.986332  7595 net.cpp:106] Creating Layer conv4
I0521 03:18:03.986343  7595 net.cpp:454] conv4 <- pool3
I0521 03:18:03.986357  7595 net.cpp:411] conv4 -> conv4
I0521 03:18:03.988414  7595 net.cpp:150] Setting up conv4
I0521 03:18:03.988436  7595 net.cpp:157] Top shape: 600 36 6 42 (5443200)
I0521 03:18:03.988448  7595 net.cpp:165] Memory required for data: 912444000
I0521 03:18:03.988464  7595 layer_factory.hpp:77] Creating layer relu4
I0521 03:18:03.988477  7595 net.cpp:106] Creating Layer relu4
I0521 03:18:03.988487  7595 net.cpp:454] relu4 <- conv4
I0521 03:18:03.988500  7595 net.cpp:397] relu4 -> conv4 (in-place)
I0521 03:18:03.988972  7595 net.cpp:150] Setting up relu4
I0521 03:18:03.988988  7595 net.cpp:157] Top shape: 600 36 6 42 (5443200)
I0521 03:18:03.988998  7595 net.cpp:165] Memory required for data: 934216800
I0521 03:18:03.989008  7595 layer_factory.hpp:77] Creating layer pool4
I0521 03:18:03.989022  7595 net.cpp:106] Creating Layer pool4
I0521 03:18:03.989032  7595 net.cpp:454] pool4 <- conv4
I0521 03:18:03.989045  7595 net.cpp:411] pool4 -> pool4
I0521 03:18:03.989116  7595 net.cpp:150] Setting up pool4
I0521 03:18:03.989130  7595 net.cpp:157] Top shape: 600 36 3 42 (2721600)
I0521 03:18:03.989140  7595 net.cpp:165] Memory required for data: 945103200
I0521 03:18:03.989150  7595 layer_factory.hpp:77] Creating layer ip1
I0521 03:18:03.989166  7595 net.cpp:106] Creating Layer ip1
I0521 03:18:03.989176  7595 net.cpp:454] ip1 <- pool4
I0521 03:18:03.989188  7595 net.cpp:411] ip1 -> ip1
I0521 03:18:04.004637  7595 net.cpp:150] Setting up ip1
I0521 03:18:04.004664  7595 net.cpp:157] Top shape: 600 196 (117600)
I0521 03:18:04.004676  7595 net.cpp:165] Memory required for data: 945573600
I0521 03:18:04.004698  7595 layer_factory.hpp:77] Creating layer relu5
I0521 03:18:04.004714  7595 net.cpp:106] Creating Layer relu5
I0521 03:18:04.004724  7595 net.cpp:454] relu5 <- ip1
I0521 03:18:04.004737  7595 net.cpp:397] relu5 -> ip1 (in-place)
I0521 03:18:04.005084  7595 net.cpp:150] Setting up relu5
I0521 03:18:04.005098  7595 net.cpp:157] Top shape: 600 196 (117600)
I0521 03:18:04.005108  7595 net.cpp:165] Memory required for data: 946044000
I0521 03:18:04.005118  7595 layer_factory.hpp:77] Creating layer drop1
I0521 03:18:04.005137  7595 net.cpp:106] Creating Layer drop1
I0521 03:18:04.005147  7595 net.cpp:454] drop1 <- ip1
I0521 03:18:04.005162  7595 net.cpp:397] drop1 -> ip1 (in-place)
I0521 03:18:04.005205  7595 net.cpp:150] Setting up drop1
I0521 03:18:04.005218  7595 net.cpp:157] Top shape: 600 196 (117600)
I0521 03:18:04.005228  7595 net.cpp:165] Memory required for data: 946514400
I0521 03:18:04.005236  7595 layer_factory.hpp:77] Creating layer ip2
I0521 03:18:04.005252  7595 net.cpp:106] Creating Layer ip2
I0521 03:18:04.005261  7595 net.cpp:454] ip2 <- ip1
I0521 03:18:04.005275  7595 net.cpp:411] ip2 -> ip2
I0521 03:18:04.005756  7595 net.cpp:150] Setting up ip2
I0521 03:18:04.005770  7595 net.cpp:157] Top shape: 600 98 (58800)
I0521 03:18:04.005780  7595 net.cpp:165] Memory required for data: 946749600
I0521 03:18:04.005808  7595 layer_factory.hpp:77] Creating layer relu6
I0521 03:18:04.005821  7595 net.cpp:106] Creating Layer relu6
I0521 03:18:04.005832  7595 net.cpp:454] relu6 <- ip2
I0521 03:18:04.005844  7595 net.cpp:397] relu6 -> ip2 (in-place)
I0521 03:18:04.006381  7595 net.cpp:150] Setting up relu6
I0521 03:18:04.006397  7595 net.cpp:157] Top shape: 600 98 (58800)
I0521 03:18:04.006407  7595 net.cpp:165] Memory required for data: 946984800
I0521 03:18:04.006417  7595 layer_factory.hpp:77] Creating layer drop2
I0521 03:18:04.006430  7595 net.cpp:106] Creating Layer drop2
I0521 03:18:04.006441  7595 net.cpp:454] drop2 <- ip2
I0521 03:18:04.006453  7595 net.cpp:397] drop2 -> ip2 (in-place)
I0521 03:18:04.006499  7595 net.cpp:150] Setting up drop2
I0521 03:18:04.006511  7595 net.cpp:157] Top shape: 600 98 (58800)
I0521 03:18:04.006521  7595 net.cpp:165] Memory required for data: 947220000
I0521 03:18:04.006531  7595 layer_factory.hpp:77] Creating layer ip3
I0521 03:18:04.006546  7595 net.cpp:106] Creating Layer ip3
I0521 03:18:04.006556  7595 net.cpp:454] ip3 <- ip2
I0521 03:18:04.006570  7595 net.cpp:411] ip3 -> ip3
I0521 03:18:04.006793  7595 net.cpp:150] Setting up ip3
I0521 03:18:04.006808  7595 net.cpp:157] Top shape: 600 11 (6600)
I0521 03:18:04.006817  7595 net.cpp:165] Memory required for data: 947246400
I0521 03:18:04.006834  7595 layer_factory.hpp:77] Creating layer drop3
I0521 03:18:04.006846  7595 net.cpp:106] Creating Layer drop3
I0521 03:18:04.006856  7595 net.cpp:454] drop3 <- ip3
I0521 03:18:04.006870  7595 net.cpp:397] drop3 -> ip3 (in-place)
I0521 03:18:04.006911  7595 net.cpp:150] Setting up drop3
I0521 03:18:04.006923  7595 net.cpp:157] Top shape: 600 11 (6600)
I0521 03:18:04.006932  7595 net.cpp:165] Memory required for data: 947272800
I0521 03:18:04.006942  7595 layer_factory.hpp:77] Creating layer ip3_drop3_0_split
I0521 03:18:04.006955  7595 net.cpp:106] Creating Layer ip3_drop3_0_split
I0521 03:18:04.006965  7595 net.cpp:454] ip3_drop3_0_split <- ip3
I0521 03:18:04.006978  7595 net.cpp:411] ip3_drop3_0_split -> ip3_drop3_0_split_0
I0521 03:18:04.006994  7595 net.cpp:411] ip3_drop3_0_split -> ip3_drop3_0_split_1
I0521 03:18:04.007067  7595 net.cpp:150] Setting up ip3_drop3_0_split
I0521 03:18:04.007081  7595 net.cpp:157] Top shape: 600 11 (6600)
I0521 03:18:04.007093  7595 net.cpp:157] Top shape: 600 11 (6600)
I0521 03:18:04.007103  7595 net.cpp:165] Memory required for data: 947325600
I0521 03:18:04.007113  7595 layer_factory.hpp:77] Creating layer accuracy
I0521 03:18:04.007134  7595 net.cpp:106] Creating Layer accuracy
I0521 03:18:04.007145  7595 net.cpp:454] accuracy <- ip3_drop3_0_split_0
I0521 03:18:04.007156  7595 net.cpp:454] accuracy <- label_data_hdf5_1_split_0
I0521 03:18:04.007169  7595 net.cpp:411] accuracy -> accuracy
…
