…
I0520 15:47:16.287902  7516 net.cpp:322] The NetState phase (0) differed from the phase (1) specified by a rule in layer data_hdf5
I0520 15:47:16.287968  7516 net.cpp:322] The NetState phase (0) differed from the phase (1) specified by a rule in layer accuracy
I0520 15:47:16.288312  7516 net.cpp:49] Initializing net from parameters: 
name: "caffe_test_127x50_x_unshifted"
state {
  phase: TRAIN
}
layer {
  name: "data_hdf5"
  type: "HDF5Data"
  top: "data"
  top: "label"
  include {
    phase: TRAIN
  }
  hdf5_data_param {
    source: "/lustre/atlas/proj-shared/hep105/caffe_titan/minosmatch_nukecczdefs_127x50_x_unshifted_me1Bmc.trainlist"
    batch_size: 190
  }
}
layer {
  name: "conv1"
  type: "Convolution"
  bottom: "data"
  top: "conv1"
  convolution_param {
    num_output: 12
    pad: 0
    stride: 1
    weight_filler {
      type: "xavier"
    }
    bias_filler {
      type: "constant"
    }
    kernel_h: 8
    kernel_w: 3
  }
}
layer {
  name: "relu1"
  type: "ReLU"
  bottom: "conv1"
  top: "conv1"
}
layer {
  name: "pool1"
  type: "Pooling"
  bottom: "conv1"
  top: "pool1"
  pooling_param {
    pool: MAX
    kernel_h: 2
    kernel_w: 1
    stride_h: 2
    stride_w: 1
  }
}
layer {
  name: "conv2"
  type: "Convolution"
  bottom: "pool1"
  top: "conv2"
  convolution_param {
    num_output: 20
    pad: 0
    stride: 1
    weight_filler {
      type: "xavier"
    }
    bias_filler {
      type: "constant"
    }
    kernel_h: 7
    kernel_w: 3
  }
}
layer {
  name: "relu2"
  type: "ReLU"
  bottom: "conv2"
  top: "conv2"
}
layer {
  name: "pool2"
  type: "Pooling"
  bottom: "conv2"
  top: "pool2"
  pooling_param {
    pool: MAX
    kernel_h: 2
    kernel_w: 1
    stride_h: 2
    stride_w: 1
  }
}
layer {
  name: "conv3"
  type: "Convolution"
  bottom: "pool2"
  top: "conv3"
  convolution_param {
    num_output: 28
    pad: 0
    stride: 1
    weight_filler {
      type: "xavier"
    }
    bias_filler {
      type: "constant"
    }
    kernel_h: 6
    kernel_w: 3
  }
}
layer {
  name: "relu3"
  type: "ReLU"
  bottom: "conv3"
  top: "conv3"
}
layer {
  name: "pool3"
  type: "Pooling"
  bottom: "conv3"
  top: "pool3"
  pooling_param {
    pool: MAX
    kernel_h: 2
    kernel_w: 1
    stride_h: 2
    stride_w: 1
  }
}
layer {
  name: "conv4"
  type: "Convolution"
  bottom: "pool3"
  top: "conv4"
  convolution_param {
    num_output: 36
    pad: 0
    stride: 1
    weight_filler {
      type: "xavier"
    }
    bias_filler {
      type: "constant"
    }
    kernel_h: 6
    kernel_w: 3
  }
}
layer {
  name: "relu4"
  type: "ReLU"
  bottom: "conv4"
  top: "conv4"
}
layer {
  name: "pool4"
  type: "Pooling"
  bottom: "conv4"
  top: "pool4"
  pooling_param {
    pool: MAX
    kernel_h: 2
    kernel_w: 1
    stride_h: 2
    stride_w: 1
  }
}
layer {
  name: "ip1"
  type: "InnerProduct"
  bottom: "pool4"
  top: "ip1"
  inner_product_param {
    num_output: 196
    weight_filler {
      type: "xavier"
    }
    bias_filler {
      type: "constant"
    }
  }
}
layer {
  name: "relu5"
  type: "ReLU"
  bottom: "ip1"
  top: "ip1"
}
layer {
  name: "drop1"
  type: "Dropout"
  bottom: "ip1"
  top: "ip1"
  dropout_param {
    dropout_ratio: 0.5
  }
}
layer {
  name: "ip2"
  type: "InnerProduct"
  bottom: "ip1"
  top: "ip2"
  inner_product_param {
    num_output: 98
    weight_filler {
      type: "xavier"
    }
    bias_filler {
      type: "constant"
    }
  }
}
layer {
  name: "relu6"
  type: "ReLU"
  bottom: "ip2"
  top: "ip2"
}
layer {
  name: "drop2"
  type: "Dropout"
  bottom: "ip2"
  top: "ip2"
  dropout_param {
    dropout_ratio: 0.5
  }
}
layer {
  name: "ip3"
  type: "InnerProduct"
  bottom: "ip2"
  top: "ip3"
  inner_product_param {
    num_output: 11
    weight_filler {
      type: "xavier"
    }
    bias_filler {
      type: "constant"
    }
  }
}
layer {
  name: "drop3"
  type: "Dropout"
  bottom: "ip3"
  top: "ip3"
  dropout_param {
    dropout_ratio: 0.5
  }
}
layer {
  name: "loss"
  type: "SoftmaxWithLoss"
  bottom: "ip3"
  bottom: "label"
  top: "loss"
}
I0520 15:47:16.288489  7516 layer_factory.hpp:77] Creating layer data_hdf5
I0520 15:47:16.288512  7516 net.cpp:106] Creating Layer data_hdf5
I0520 15:47:16.288527  7516 net.cpp:411] data_hdf5 -> data
I0520 15:47:16.288568  7516 net.cpp:411] data_hdf5 -> label
I0520 15:47:16.288601  7516 hdf5_data_layer.cpp:79] Loading list of HDF5 filenames from: /lustre/atlas/proj-shared/hep105/caffe_titan/minosmatch_nukecczdefs_127x50_x_unshifted_me1Bmc.trainlist
I0520 15:47:16.289991  7516 hdf5_data_layer.cpp:93] Number of HDF5 files: 15
I0520 15:47:16.308789  7516 hdf5.cpp:32] Datatype class: H5T_FLOAT
I0520 15:47:37.839921  7516 hdf5.cpp:35] Datatype class: H5T_INTEGER
I0520 15:47:37.845019  7516 net.cpp:150] Setting up data_hdf5
I0520 15:47:37.845059  7516 net.cpp:157] Top shape: 190 1 127 50 (1206500)
I0520 15:47:37.845074  7516 net.cpp:157] Top shape: 190 (190)
I0520 15:47:37.845088  7516 net.cpp:165] Memory required for data: 4826760
I0520 15:47:37.845100  7516 layer_factory.hpp:77] Creating layer conv1
I0520 15:47:37.845134  7516 net.cpp:106] Creating Layer conv1
I0520 15:47:37.845145  7516 net.cpp:454] conv1 <- data
I0520 15:47:37.845167  7516 net.cpp:411] conv1 -> conv1
I0520 15:47:39.116127  7516 net.cpp:150] Setting up conv1
I0520 15:47:39.116174  7516 net.cpp:157] Top shape: 190 12 120 48 (13132800)
I0520 15:47:39.116185  7516 net.cpp:165] Memory required for data: 57357960
I0520 15:47:39.116215  7516 layer_factory.hpp:77] Creating layer relu1
I0520 15:47:39.116235  7516 net.cpp:106] Creating Layer relu1
I0520 15:47:39.116246  7516 net.cpp:454] relu1 <- conv1
I0520 15:47:39.116261  7516 net.cpp:397] relu1 -> conv1 (in-place)
I0520 15:47:39.116785  7516 net.cpp:150] Setting up relu1
I0520 15:47:39.116801  7516 net.cpp:157] Top shape: 190 12 120 48 (13132800)
I0520 15:47:39.116811  7516 net.cpp:165] Memory required for data: 109889160
I0520 15:47:39.116822  7516 layer_factory.hpp:77] Creating layer pool1
I0520 15:47:39.116838  7516 net.cpp:106] Creating Layer pool1
I0520 15:47:39.116848  7516 net.cpp:454] pool1 <- conv1
I0520 15:47:39.116861  7516 net.cpp:411] pool1 -> pool1
I0520 15:47:39.116942  7516 net.cpp:150] Setting up pool1
I0520 15:47:39.116956  7516 net.cpp:157] Top shape: 190 12 60 48 (6566400)
I0520 15:47:39.116966  7516 net.cpp:165] Memory required for data: 136154760
I0520 15:47:39.116976  7516 layer_factory.hpp:77] Creating layer conv2
I0520 15:47:39.116998  7516 net.cpp:106] Creating Layer conv2
I0520 15:47:39.117009  7516 net.cpp:454] conv2 <- pool1
I0520 15:47:39.117022  7516 net.cpp:411] conv2 -> conv2
I0520 15:47:39.119709  7516 net.cpp:150] Setting up conv2
I0520 15:47:39.119736  7516 net.cpp:157] Top shape: 190 20 54 46 (9439200)
I0520 15:47:39.119747  7516 net.cpp:165] Memory required for data: 173911560
I0520 15:47:39.119766  7516 layer_factory.hpp:77] Creating layer relu2
I0520 15:47:39.119781  7516 net.cpp:106] Creating Layer relu2
I0520 15:47:39.119791  7516 net.cpp:454] relu2 <- conv2
I0520 15:47:39.119803  7516 net.cpp:397] relu2 -> conv2 (in-place)
I0520 15:47:39.120132  7516 net.cpp:150] Setting up relu2
I0520 15:47:39.120147  7516 net.cpp:157] Top shape: 190 20 54 46 (9439200)
I0520 15:47:39.120157  7516 net.cpp:165] Memory required for data: 211668360
I0520 15:47:39.120167  7516 layer_factory.hpp:77] Creating layer pool2
I0520 15:47:39.120179  7516 net.cpp:106] Creating Layer pool2
I0520 15:47:39.120189  7516 net.cpp:454] pool2 <- conv2
I0520 15:47:39.120214  7516 net.cpp:411] pool2 -> pool2
I0520 15:47:39.120283  7516 net.cpp:150] Setting up pool2
I0520 15:47:39.120296  7516 net.cpp:157] Top shape: 190 20 27 46 (4719600)
I0520 15:47:39.120306  7516 net.cpp:165] Memory required for data: 230546760
I0520 15:47:39.120316  7516 layer_factory.hpp:77] Creating layer conv3
I0520 15:47:39.120332  7516 net.cpp:106] Creating Layer conv3
I0520 15:47:39.120342  7516 net.cpp:454] conv3 <- pool2
I0520 15:47:39.120357  7516 net.cpp:411] conv3 -> conv3
I0520 15:47:39.122318  7516 net.cpp:150] Setting up conv3
I0520 15:47:39.122340  7516 net.cpp:157] Top shape: 190 28 22 44 (5149760)
I0520 15:47:39.122351  7516 net.cpp:165] Memory required for data: 251145800
I0520 15:47:39.122370  7516 layer_factory.hpp:77] Creating layer relu3
I0520 15:47:39.122386  7516 net.cpp:106] Creating Layer relu3
I0520 15:47:39.122396  7516 net.cpp:454] relu3 <- conv3
I0520 15:47:39.122408  7516 net.cpp:397] relu3 -> conv3 (in-place)
I0520 15:47:39.122875  7516 net.cpp:150] Setting up relu3
I0520 15:47:39.122892  7516 net.cpp:157] Top shape: 190 28 22 44 (5149760)
I0520 15:47:39.122902  7516 net.cpp:165] Memory required for data: 271744840
I0520 15:47:39.122912  7516 layer_factory.hpp:77] Creating layer pool3
I0520 15:47:39.122925  7516 net.cpp:106] Creating Layer pool3
I0520 15:47:39.122936  7516 net.cpp:454] pool3 <- conv3
I0520 15:47:39.122948  7516 net.cpp:411] pool3 -> pool3
I0520 15:47:39.123015  7516 net.cpp:150] Setting up pool3
I0520 15:47:39.123028  7516 net.cpp:157] Top shape: 190 28 11 44 (2574880)
I0520 15:47:39.123039  7516 net.cpp:165] Memory required for data: 282044360
I0520 15:47:39.123047  7516 layer_factory.hpp:77] Creating layer conv4
I0520 15:47:39.123064  7516 net.cpp:106] Creating Layer conv4
I0520 15:47:39.123075  7516 net.cpp:454] conv4 <- pool3
I0520 15:47:39.123088  7516 net.cpp:411] conv4 -> conv4
I0520 15:47:39.125818  7516 net.cpp:150] Setting up conv4
I0520 15:47:39.125844  7516 net.cpp:157] Top shape: 190 36 6 42 (1723680)
I0520 15:47:39.125855  7516 net.cpp:165] Memory required for data: 288939080
I0520 15:47:39.125871  7516 layer_factory.hpp:77] Creating layer relu4
I0520 15:47:39.125885  7516 net.cpp:106] Creating Layer relu4
I0520 15:47:39.125895  7516 net.cpp:454] relu4 <- conv4
I0520 15:47:39.125908  7516 net.cpp:397] relu4 -> conv4 (in-place)
I0520 15:47:39.126369  7516 net.cpp:150] Setting up relu4
I0520 15:47:39.126386  7516 net.cpp:157] Top shape: 190 36 6 42 (1723680)
I0520 15:47:39.126396  7516 net.cpp:165] Memory required for data: 295833800
I0520 15:47:39.126406  7516 layer_factory.hpp:77] Creating layer pool4
I0520 15:47:39.126420  7516 net.cpp:106] Creating Layer pool4
I0520 15:47:39.126428  7516 net.cpp:454] pool4 <- conv4
I0520 15:47:39.126441  7516 net.cpp:411] pool4 -> pool4
I0520 15:47:39.126509  7516 net.cpp:150] Setting up pool4
I0520 15:47:39.126523  7516 net.cpp:157] Top shape: 190 36 3 42 (861840)
I0520 15:47:39.126533  7516 net.cpp:165] Memory required for data: 299281160
I0520 15:47:39.126543  7516 layer_factory.hpp:77] Creating layer ip1
I0520 15:47:39.126562  7516 net.cpp:106] Creating Layer ip1
I0520 15:47:39.126572  7516 net.cpp:454] ip1 <- pool4
I0520 15:47:39.126585  7516 net.cpp:411] ip1 -> ip1
I0520 15:47:39.142024  7516 net.cpp:150] Setting up ip1
I0520 15:47:39.142050  7516 net.cpp:157] Top shape: 190 196 (37240)
I0520 15:47:39.142067  7516 net.cpp:165] Memory required for data: 299430120
I0520 15:47:39.142094  7516 layer_factory.hpp:77] Creating layer relu5
I0520 15:47:39.142109  7516 net.cpp:106] Creating Layer relu5
I0520 15:47:39.142119  7516 net.cpp:454] relu5 <- ip1
I0520 15:47:39.142132  7516 net.cpp:397] relu5 -> ip1 (in-place)
I0520 15:47:39.142475  7516 net.cpp:150] Setting up relu5
I0520 15:47:39.142488  7516 net.cpp:157] Top shape: 190 196 (37240)
I0520 15:47:39.142499  7516 net.cpp:165] Memory required for data: 299579080
I0520 15:47:39.142509  7516 layer_factory.hpp:77] Creating layer drop1
I0520 15:47:39.142530  7516 net.cpp:106] Creating Layer drop1
I0520 15:47:39.142540  7516 net.cpp:454] drop1 <- ip1
I0520 15:47:39.142565  7516 net.cpp:397] drop1 -> ip1 (in-place)
I0520 15:47:39.142612  7516 net.cpp:150] Setting up drop1
I0520 15:47:39.142627  7516 net.cpp:157] Top shape: 190 196 (37240)
I0520 15:47:39.142637  7516 net.cpp:165] Memory required for data: 299728040
I0520 15:47:39.142647  7516 layer_factory.hpp:77] Creating layer ip2
I0520 15:47:39.142664  7516 net.cpp:106] Creating Layer ip2
I0520 15:47:39.142674  7516 net.cpp:454] ip2 <- ip1
I0520 15:47:39.142688  7516 net.cpp:411] ip2 -> ip2
I0520 15:47:39.143147  7516 net.cpp:150] Setting up ip2
I0520 15:47:39.143162  7516 net.cpp:157] Top shape: 190 98 (18620)
I0520 15:47:39.143170  7516 net.cpp:165] Memory required for data: 299802520
I0520 15:47:39.143185  7516 layer_factory.hpp:77] Creating layer relu6
I0520 15:47:39.143198  7516 net.cpp:106] Creating Layer relu6
I0520 15:47:39.143208  7516 net.cpp:454] relu6 <- ip2
I0520 15:47:39.143219  7516 net.cpp:397] relu6 -> ip2 (in-place)
I0520 15:47:39.143735  7516 net.cpp:150] Setting up relu6
I0520 15:47:39.143751  7516 net.cpp:157] Top shape: 190 98 (18620)
I0520 15:47:39.143762  7516 net.cpp:165] Memory required for data: 299877000
I0520 15:47:39.143772  7516 layer_factory.hpp:77] Creating layer drop2
I0520 15:47:39.143785  7516 net.cpp:106] Creating Layer drop2
I0520 15:47:39.143795  7516 net.cpp:454] drop2 <- ip2
I0520 15:47:39.143807  7516 net.cpp:397] drop2 -> ip2 (in-place)
I0520 15:47:39.143849  7516 net.cpp:150] Setting up drop2
I0520 15:47:39.143862  7516 net.cpp:157] Top shape: 190 98 (18620)
I0520 15:47:39.143873  7516 net.cpp:165] Memory required for data: 299951480
I0520 15:47:39.143882  7516 layer_factory.hpp:77] Creating layer ip3
I0520 15:47:39.143896  7516 net.cpp:106] Creating Layer ip3
I0520 15:47:39.143906  7516 net.cpp:454] ip3 <- ip2
I0520 15:47:39.143918  7516 net.cpp:411] ip3 -> ip3
I0520 15:47:39.144129  7516 net.cpp:150] Setting up ip3
I0520 15:47:39.144142  7516 net.cpp:157] Top shape: 190 11 (2090)
I0520 15:47:39.144152  7516 net.cpp:165] Memory required for data: 299959840
I0520 15:47:39.144166  7516 layer_factory.hpp:77] Creating layer drop3
I0520 15:47:39.144179  7516 net.cpp:106] Creating Layer drop3
I0520 15:47:39.144189  7516 net.cpp:454] drop3 <- ip3
I0520 15:47:39.144201  7516 net.cpp:397] drop3 -> ip3 (in-place)
I0520 15:47:39.144240  7516 net.cpp:150] Setting up drop3
I0520 15:47:39.144253  7516 net.cpp:157] Top shape: 190 11 (2090)
I0520 15:47:39.144263  7516 net.cpp:165] Memory required for data: 299968200
I0520 15:47:39.144273  7516 layer_factory.hpp:77] Creating layer loss
I0520 15:47:39.144292  7516 net.cpp:106] Creating Layer loss
I0520 15:47:39.144301  7516 net.cpp:454] loss <- ip3
I0520 15:47:39.144312  7516 net.cpp:454] loss <- label
I0520 15:47:39.144325  7516 net.cpp:411] loss -> loss
I0520 15:47:39.144341  7516 layer_factory.hpp:77] Creating layer loss
…
I0520 15:47:39.146920  7516 solver.cpp:181] Creating test net (#0) specified by net file: /lustre/atlas/proj-shared/hep105/caffe_titan/caffe_workflow/logs_batch_size_test/batch_size_190_2016-05-20T11.20.39.740100.prototxt
I0520 15:47:39.146991  7516 net.cpp:322] The NetState phase (1) differed from the phase (0) specified by a rule in layer data_hdf5
I0520 15:47:39.147346  7516 net.cpp:49] Initializing net from parameters: 
name: "caffe_test_127x50_x_unshifted"
state {
  phase: TEST
}
layer {
  name: "data_hdf5"
  type: "HDF5Data"
  top: "data"
  top: "label"
  include {
    phase: TEST
  }
  hdf5_data_param {
    source: "/lustre/atlas/proj-shared/hep105/caffe_titan/minosmatch_nukecczdefs_127x50_x_unshifted_me1Bmc.testlist"
    batch_size: 190
  }
}
layer {
  name: "conv1"
  type: "Convolution"
  bottom: "data"
  top: "conv1"
  convolution_param {
    num_output: 12
    pad: 0
    stride: 1
    weight_filler {
      type: "xavier"
    }
    bias_filler {
      type: "constant"
    }
    kernel_h: 8
    kernel_w: 3
  }
}
layer {
  name: "relu1"
  type: "ReLU"
  bottom: "conv1"
  top: "conv1"
}
layer {
  name: "pool1"
  type: "Pooling"
  bottom: "conv1"
  top: "pool1"
  pooling_param {
    pool: MAX
    kernel_h: 2
    kernel_w: 1
    stride_h: 2
    stride_w: 1
  }
}
layer {
  name: "conv2"
  type: "Convolution"
  bottom: "pool1"
  top: "conv2"
  convolution_param {
    num_output: 20
    pad: 0
    stride: 1
    weight_filler {
      type: "xavier"
    }
    bias_filler {
      type: "constant"
    }
    kernel_h: 7
    kernel_w: 3
  }
}
layer {
  name: "relu2"
  type: "ReLU"
  bottom: "conv2"
  top: "conv2"
}
layer {
  name: "pool2"
  type: "Pooling"
  bottom: "conv2"
  top: "pool2"
  pooling_param {
    pool: MAX
    kernel_h: 2
    kernel_w: 1
    stride_h: 2
    stride_w: 1
  }
}
layer {
  name: "conv3"
  type: "Convolution"
  bottom: "pool2"
  top: "conv3"
  convolution_param {
    num_output: 28
    pad: 0
    stride: 1
    weight_filler {
      type: "xavier"
    }
    bias_filler {
      type: "constant"
    }
    kernel_h: 6
    kernel_w: 3
  }
}
layer {
  name: "relu3"
  type: "ReLU"
  bottom: "conv3"
  top: "conv3"
}
layer {
  name: "pool3"
  type: "Pooling"
  bottom: "conv3"
  top: "pool3"
  pooling_param {
    pool: MAX
    kernel_h: 2
    kernel_w: 1
    stride_h: 2
    stride_w: 1
  }
}
layer {
  name: "conv4"
  type: "Convolution"
  bottom: "pool3"
  top: "conv4"
  convolution_param {
    num_output: 36
    pad: 0
    stride: 1
    weight_filler {
      type: "xavier"
    }
    bias_filler {
      type: "constant"
    }
    kernel_h: 6
    kernel_w: 3
  }
}
layer {
  name: "relu4"
  type: "ReLU"
  bottom: "conv4"
  top: "conv4"
}
layer {
  name: "pool4"
  type: "Pooling"
  bottom: "conv4"
  top: "pool4"
  pooling_param {
    pool: MAX
    kernel_h: 2
    kernel_w: 1
    stride_h: 2
    stride_w: 1
  }
}
layer {
  name: "ip1"
  type: "InnerProduct"
  bottom: "pool4"
  top: "ip1"
  inner_product_param {
    num_output: 196
    weight_filler {
      type: "xavier"
    }
    bias_filler {
      type: "constant"
    }
  }
}
layer {
  name: "relu5"
  type: "ReLU"
  bottom: "ip1"
  top: "ip1"
}
layer {
  name: "drop1"
  type: "Dropout"
  bottom: "ip1"
  top: "ip1"
  dropout_param {
    dropout_ratio: 0.5
  }
}
layer {
  name: "ip2"
  type: "InnerProduct"
  bottom: "ip1"
  top: "ip2"
  inner_product_param {
    num_output: 98
    weight_filler {
      type: "xavier"
    }
    bias_filler {
      type: "constant"
    }
  }
}
layer {
  name: "relu6"
  type: "ReLU"
  bottom: "ip2"
  top: "ip2"
}
layer {
  name: "drop2"
  type: "Dropout"
  bottom: "ip2"
  top: "ip2"
  dropout_param {
    dropout_ratio: 0.5
  }
}
layer {
  name: "ip3"
  type: "InnerProduct"
  bottom: "ip2"
  top: "ip3"
  inner_product_param {
    num_output: 11
    weight_filler {
      type: "xavier"
    }
    bias_filler {
      type: "constant"
    }
  }
}
layer {
  name: "drop3"
  type: "Dropout"
  bottom: "ip3"
  top: "ip3"
  dropout_param {
    dropout_ratio: 0.5
  }
}
layer {
  name: "accuracy"
  type: "Accuracy"
  bottom: "ip3"
  bottom: "label"
  top: "accuracy"
  include {
    phase: TEST
  }
}
layer {
  name: "loss"
  type: "SoftmaxWithLoss"
  bottom: "ip3"
  bottom: "label"
  top: "loss"
}
I0520 15:47:39.147534  7516 layer_factory.hpp:77] Creating layer data_hdf5
I0520 15:47:39.147550  7516 net.cpp:106] Creating Layer data_hdf5
I0520 15:47:39.147563  7516 net.cpp:411] data_hdf5 -> data
I0520 15:47:39.147578  7516 net.cpp:411] data_hdf5 -> label
I0520 15:47:39.147594  7516 hdf5_data_layer.cpp:79] Loading list of HDF5 filenames from: /lustre/atlas/proj-shared/hep105/caffe_titan/minosmatch_nukecczdefs_127x50_x_unshifted_me1Bmc.testlist
I0520 15:47:39.168182  7516 hdf5_data_layer.cpp:93] Number of HDF5 files: 3
I0520 15:48:00.434682  7516 net.cpp:150] Setting up data_hdf5
I0520 15:48:00.434849  7516 net.cpp:157] Top shape: 190 1 127 50 (1206500)
I0520 15:48:00.434862  7516 net.cpp:157] Top shape: 190 (190)
I0520 15:48:00.434875  7516 net.cpp:165] Memory required for data: 4826760
I0520 15:48:00.434888  7516 layer_factory.hpp:77] Creating layer label_data_hdf5_1_split
I0520 15:48:00.434916  7516 net.cpp:106] Creating Layer label_data_hdf5_1_split
I0520 15:48:00.434927  7516 net.cpp:454] label_data_hdf5_1_split <- label
I0520 15:48:00.434942  7516 net.cpp:411] label_data_hdf5_1_split -> label_data_hdf5_1_split_0
I0520 15:48:00.434963  7516 net.cpp:411] label_data_hdf5_1_split -> label_data_hdf5_1_split_1
I0520 15:48:00.435036  7516 net.cpp:150] Setting up label_data_hdf5_1_split
I0520 15:48:00.435050  7516 net.cpp:157] Top shape: 190 (190)
I0520 15:48:00.435061  7516 net.cpp:157] Top shape: 190 (190)
I0520 15:48:00.435071  7516 net.cpp:165] Memory required for data: 4828280
I0520 15:48:00.435081  7516 layer_factory.hpp:77] Creating layer conv1
I0520 15:48:00.435101  7516 net.cpp:106] Creating Layer conv1
I0520 15:48:00.435112  7516 net.cpp:454] conv1 <- data
I0520 15:48:00.435127  7516 net.cpp:411] conv1 -> conv1
I0520 15:48:00.437077  7516 net.cpp:150] Setting up conv1
I0520 15:48:00.437099  7516 net.cpp:157] Top shape: 190 12 120 48 (13132800)
I0520 15:48:00.437113  7516 net.cpp:165] Memory required for data: 57359480
I0520 15:48:00.437132  7516 layer_factory.hpp:77] Creating layer relu1
I0520 15:48:00.437149  7516 net.cpp:106] Creating Layer relu1
I0520 15:48:00.437158  7516 net.cpp:454] relu1 <- conv1
I0520 15:48:00.437170  7516 net.cpp:397] relu1 -> conv1 (in-place)
I0520 15:48:00.437671  7516 net.cpp:150] Setting up relu1
I0520 15:48:00.437688  7516 net.cpp:157] Top shape: 190 12 120 48 (13132800)
I0520 15:48:00.437698  7516 net.cpp:165] Memory required for data: 109890680
I0520 15:48:00.437710  7516 layer_factory.hpp:77] Creating layer pool1
I0520 15:48:00.437726  7516 net.cpp:106] Creating Layer pool1
I0520 15:48:00.437734  7516 net.cpp:454] pool1 <- conv1
I0520 15:48:00.437747  7516 net.cpp:411] pool1 -> pool1
I0520 15:48:00.437822  7516 net.cpp:150] Setting up pool1
I0520 15:48:00.437835  7516 net.cpp:157] Top shape: 190 12 60 48 (6566400)
I0520 15:48:00.437845  7516 net.cpp:165] Memory required for data: 136156280
I0520 15:48:00.437857  7516 layer_factory.hpp:77] Creating layer conv2
I0520 15:48:00.437875  7516 net.cpp:106] Creating Layer conv2
I0520 15:48:00.437885  7516 net.cpp:454] conv2 <- pool1
I0520 15:48:00.437901  7516 net.cpp:411] conv2 -> conv2
I0520 15:48:00.439815  7516 net.cpp:150] Setting up conv2
I0520 15:48:00.439837  7516 net.cpp:157] Top shape: 190 20 54 46 (9439200)
I0520 15:48:00.439849  7516 net.cpp:165] Memory required for data: 173913080
I0520 15:48:00.439867  7516 layer_factory.hpp:77] Creating layer relu2
I0520 15:48:00.439880  7516 net.cpp:106] Creating Layer relu2
I0520 15:48:00.439890  7516 net.cpp:454] relu2 <- conv2
I0520 15:48:00.439903  7516 net.cpp:397] relu2 -> conv2 (in-place)
I0520 15:48:00.440234  7516 net.cpp:150] Setting up relu2
I0520 15:48:00.440248  7516 net.cpp:157] Top shape: 190 20 54 46 (9439200)
I0520 15:48:00.440258  7516 net.cpp:165] Memory required for data: 211669880
I0520 15:48:00.440268  7516 layer_factory.hpp:77] Creating layer pool2
I0520 15:48:00.440281  7516 net.cpp:106] Creating Layer pool2
I0520 15:48:00.440291  7516 net.cpp:454] pool2 <- conv2
I0520 15:48:00.440304  7516 net.cpp:411] pool2 -> pool2
I0520 15:48:00.440376  7516 net.cpp:150] Setting up pool2
I0520 15:48:00.440389  7516 net.cpp:157] Top shape: 190 20 27 46 (4719600)
I0520 15:48:00.440398  7516 net.cpp:165] Memory required for data: 230548280
I0520 15:48:00.440408  7516 layer_factory.hpp:77] Creating layer conv3
I0520 15:48:00.440425  7516 net.cpp:106] Creating Layer conv3
I0520 15:48:00.440436  7516 net.cpp:454] conv3 <- pool2
I0520 15:48:00.440450  7516 net.cpp:411] conv3 -> conv3
I0520 15:48:00.442505  7516 net.cpp:150] Setting up conv3
I0520 15:48:00.442524  7516 net.cpp:157] Top shape: 190 28 22 44 (5149760)
I0520 15:48:00.442534  7516 net.cpp:165] Memory required for data: 251147320
I0520 15:48:00.442567  7516 layer_factory.hpp:77] Creating layer relu3
I0520 15:48:00.442581  7516 net.cpp:106] Creating Layer relu3
I0520 15:48:00.442592  7516 net.cpp:454] relu3 <- conv3
I0520 15:48:00.442605  7516 net.cpp:397] relu3 -> conv3 (in-place)
I0520 15:48:00.443078  7516 net.cpp:150] Setting up relu3
I0520 15:48:00.443094  7516 net.cpp:157] Top shape: 190 28 22 44 (5149760)
I0520 15:48:00.443104  7516 net.cpp:165] Memory required for data: 271746360
I0520 15:48:00.443114  7516 layer_factory.hpp:77] Creating layer pool3
I0520 15:48:00.443126  7516 net.cpp:106] Creating Layer pool3
I0520 15:48:00.443136  7516 net.cpp:454] pool3 <- conv3
I0520 15:48:00.443150  7516 net.cpp:411] pool3 -> pool3
I0520 15:48:00.443222  7516 net.cpp:150] Setting up pool3
I0520 15:48:00.443234  7516 net.cpp:157] Top shape: 190 28 11 44 (2574880)
I0520 15:48:00.443244  7516 net.cpp:165] Memory required for data: 282045880
I0520 15:48:00.443254  7516 layer_factory.hpp:77] Creating layer conv4
I0520 15:48:00.443269  7516 net.cpp:106] Creating Layer conv4
I0520 15:48:00.443280  7516 net.cpp:454] conv4 <- pool3
I0520 15:48:00.443295  7516 net.cpp:411] conv4 -> conv4
I0520 15:48:00.445356  7516 net.cpp:150] Setting up conv4
I0520 15:48:00.445377  7516 net.cpp:157] Top shape: 190 36 6 42 (1723680)
I0520 15:48:00.445391  7516 net.cpp:165] Memory required for data: 288940600
I0520 15:48:00.445406  7516 layer_factory.hpp:77] Creating layer relu4
I0520 15:48:00.445420  7516 net.cpp:106] Creating Layer relu4
I0520 15:48:00.445430  7516 net.cpp:454] relu4 <- conv4
I0520 15:48:00.445442  7516 net.cpp:397] relu4 -> conv4 (in-place)
I0520 15:48:00.445912  7516 net.cpp:150] Setting up relu4
I0520 15:48:00.445929  7516 net.cpp:157] Top shape: 190 36 6 42 (1723680)
I0520 15:48:00.445938  7516 net.cpp:165] Memory required for data: 295835320
I0520 15:48:00.445948  7516 layer_factory.hpp:77] Creating layer pool4
I0520 15:48:00.445961  7516 net.cpp:106] Creating Layer pool4
I0520 15:48:00.445971  7516 net.cpp:454] pool4 <- conv4
I0520 15:48:00.445984  7516 net.cpp:411] pool4 -> pool4
I0520 15:48:00.446058  7516 net.cpp:150] Setting up pool4
I0520 15:48:00.446074  7516 net.cpp:157] Top shape: 190 36 3 42 (861840)
I0520 15:48:00.446085  7516 net.cpp:165] Memory required for data: 299282680
I0520 15:48:00.446096  7516 layer_factory.hpp:77] Creating layer ip1
I0520 15:48:00.446111  7516 net.cpp:106] Creating Layer ip1
I0520 15:48:00.446121  7516 net.cpp:454] ip1 <- pool4
I0520 15:48:00.446135  7516 net.cpp:411] ip1 -> ip1
I0520 15:48:00.461573  7516 net.cpp:150] Setting up ip1
I0520 15:48:00.461602  7516 net.cpp:157] Top shape: 190 196 (37240)
I0520 15:48:00.461613  7516 net.cpp:165] Memory required for data: 299431640
I0520 15:48:00.461635  7516 layer_factory.hpp:77] Creating layer relu5
I0520 15:48:00.461650  7516 net.cpp:106] Creating Layer relu5
I0520 15:48:00.461661  7516 net.cpp:454] relu5 <- ip1
I0520 15:48:00.461674  7516 net.cpp:397] relu5 -> ip1 (in-place)
I0520 15:48:00.462019  7516 net.cpp:150] Setting up relu5
I0520 15:48:00.462033  7516 net.cpp:157] Top shape: 190 196 (37240)
I0520 15:48:00.462044  7516 net.cpp:165] Memory required for data: 299580600
I0520 15:48:00.462057  7516 layer_factory.hpp:77] Creating layer drop1
I0520 15:48:00.462080  7516 net.cpp:106] Creating Layer drop1
I0520 15:48:00.462090  7516 net.cpp:454] drop1 <- ip1
I0520 15:48:00.462103  7516 net.cpp:397] drop1 -> ip1 (in-place)
I0520 15:48:00.462148  7516 net.cpp:150] Setting up drop1
I0520 15:48:00.462162  7516 net.cpp:157] Top shape: 190 196 (37240)
I0520 15:48:00.462172  7516 net.cpp:165] Memory required for data: 299729560
I0520 15:48:00.462182  7516 layer_factory.hpp:77] Creating layer ip2
I0520 15:48:00.462195  7516 net.cpp:106] Creating Layer ip2
I0520 15:48:00.462205  7516 net.cpp:454] ip2 <- ip1
I0520 15:48:00.462219  7516 net.cpp:411] ip2 -> ip2
I0520 15:48:00.462695  7516 net.cpp:150] Setting up ip2
I0520 15:48:00.462709  7516 net.cpp:157] Top shape: 190 98 (18620)
I0520 15:48:00.462719  7516 net.cpp:165] Memory required for data: 299804040
I0520 15:48:00.462749  7516 layer_factory.hpp:77] Creating layer relu6
I0520 15:48:00.462761  7516 net.cpp:106] Creating Layer relu6
I0520 15:48:00.462771  7516 net.cpp:454] relu6 <- ip2
I0520 15:48:00.462784  7516 net.cpp:397] relu6 -> ip2 (in-place)
I0520 15:48:00.463316  7516 net.cpp:150] Setting up relu6
I0520 15:48:00.463337  7516 net.cpp:157] Top shape: 190 98 (18620)
I0520 15:48:00.463347  7516 net.cpp:165] Memory required for data: 299878520
I0520 15:48:00.463358  7516 layer_factory.hpp:77] Creating layer drop2
I0520 15:48:00.463371  7516 net.cpp:106] Creating Layer drop2
I0520 15:48:00.463382  7516 net.cpp:454] drop2 <- ip2
I0520 15:48:00.463394  7516 net.cpp:397] drop2 -> ip2 (in-place)
I0520 15:48:00.463438  7516 net.cpp:150] Setting up drop2
I0520 15:48:00.463451  7516 net.cpp:157] Top shape: 190 98 (18620)
I0520 15:48:00.463461  7516 net.cpp:165] Memory required for data: 299953000
I0520 15:48:00.463471  7516 layer_factory.hpp:77] Creating layer ip3
I0520 15:48:00.463485  7516 net.cpp:106] Creating Layer ip3
I0520 15:48:00.463495  7516 net.cpp:454] ip3 <- ip2
I0520 15:48:00.463510  7516 net.cpp:411] ip3 -> ip3
I0520 15:48:00.463729  7516 net.cpp:150] Setting up ip3
I0520 15:48:00.463742  7516 net.cpp:157] Top shape: 190 11 (2090)
I0520 15:48:00.463752  7516 net.cpp:165] Memory required for data: 299961360
I0520 15:48:00.463768  7516 layer_factory.hpp:77] Creating layer drop3
I0520 15:48:00.463781  7516 net.cpp:106] Creating Layer drop3
I0520 15:48:00.463791  7516 net.cpp:454] drop3 <- ip3
I0520 15:48:00.463804  7516 net.cpp:397] drop3 -> ip3 (in-place)
I0520 15:48:00.463845  7516 net.cpp:150] Setting up drop3
I0520 15:48:00.463858  7516 net.cpp:157] Top shape: 190 11 (2090)
I0520 15:48:00.463867  7516 net.cpp:165] Memory required for data: 299969720
I0520 15:48:00.463877  7516 layer_factory.hpp:77] Creating layer ip3_drop3_0_split
I0520 15:48:00.463891  7516 net.cpp:106] Creating Layer ip3_drop3_0_split
I0520 15:48:00.463901  7516 net.cpp:454] ip3_drop3_0_split <- ip3
I0520 15:48:00.463914  7516 net.cpp:411] ip3_drop3_0_split -> ip3_drop3_0_split_0
I0520 15:48:00.463929  7516 net.cpp:411] ip3_drop3_0_split -> ip3_drop3_0_split_1
I0520 15:48:00.464001  7516 net.cpp:150] Setting up ip3_drop3_0_split
I0520 15:48:00.464015  7516 net.cpp:157] Top shape: 190 11 (2090)
I0520 15:48:00.464027  7516 net.cpp:157] Top shape: 190 11 (2090)
I0520 15:48:00.464037  7516 net.cpp:165] Memory required for data: 299986440
I0520 15:48:00.464047  7516 layer_factory.hpp:77] Creating layer accuracy
I0520 15:48:00.464068  7516 net.cpp:106] Creating Layer accuracy
I0520 15:48:00.464078  7516 net.cpp:454] accuracy <- ip3_drop3_0_split_0
I0520 15:48:00.464090  7516 net.cpp:454] accuracy <- label_data_hdf5_1_split_0
I0520 15:48:00.464103  7516 net.cpp:411] accuracy -> accuracy
…
