…
I0521 00:58:21.288141  5356 net.cpp:322] The NetState phase (0) differed from the phase (1) specified by a rule in layer data_hdf5
I0521 00:58:21.288203  5356 net.cpp:322] The NetState phase (0) differed from the phase (1) specified by a rule in layer accuracy
I0521 00:58:21.288547  5356 net.cpp:49] Initializing net from parameters: 
name: "caffe_test_127x50_x_unshifted"
state {
  phase: TRAIN
}
layer {
  name: "data_hdf5"
  type: "HDF5Data"
  top: "data"
  top: "label"
  include {
    phase: TRAIN
  }
  hdf5_data_param {
    source: "/lustre/atlas/proj-shared/hep105/caffe_titan/minosmatch_nukecczdefs_127x50_x_unshifted_me1Bmc.trainlist"
    batch_size: 500
  }
}
layer {
  name: "conv1"
  type: "Convolution"
  bottom: "data"
  top: "conv1"
  convolution_param {
    num_output: 12
    pad: 0
    stride: 1
    weight_filler {
      type: "xavier"
    }
    bias_filler {
      type: "constant"
    }
    kernel_h: 8
    kernel_w: 3
  }
}
layer {
  name: "relu1"
  type: "ReLU"
  bottom: "conv1"
  top: "conv1"
}
layer {
  name: "pool1"
  type: "Pooling"
  bottom: "conv1"
  top: "pool1"
  pooling_param {
    pool: MAX
    kernel_h: 2
    kernel_w: 1
    stride_h: 2
    stride_w: 1
  }
}
layer {
  name: "conv2"
  type: "Convolution"
  bottom: "pool1"
  top: "conv2"
  convolution_param {
    num_output: 20
    pad: 0
    stride: 1
    weight_filler {
      type: "xavier"
    }
    bias_filler {
      type: "constant"
    }
    kernel_h: 7
    kernel_w: 3
  }
}
layer {
  name: "relu2"
  type: "ReLU"
  bottom: "conv2"
  top: "conv2"
}
layer {
  name: "pool2"
  type: "Pooling"
  bottom: "conv2"
  top: "pool2"
  pooling_param {
    pool: MAX
    kernel_h: 2
    kernel_w: 1
    stride_h: 2
    stride_w: 1
  }
}
layer {
  name: "conv3"
  type: "Convolution"
  bottom: "pool2"
  top: "conv3"
  convolution_param {
    num_output: 28
    pad: 0
    stride: 1
    weight_filler {
      type: "xavier"
    }
    bias_filler {
      type: "constant"
    }
    kernel_h: 6
    kernel_w: 3
  }
}
layer {
  name: "relu3"
  type: "ReLU"
  bottom: "conv3"
  top: "conv3"
}
layer {
  name: "pool3"
  type: "Pooling"
  bottom: "conv3"
  top: "pool3"
  pooling_param {
    pool: MAX
    kernel_h: 2
    kernel_w: 1
    stride_h: 2
    stride_w: 1
  }
}
layer {
  name: "conv4"
  type: "Convolution"
  bottom: "pool3"
  top: "conv4"
  convolution_param {
    num_output: 36
    pad: 0
    stride: 1
    weight_filler {
      type: "xavier"
    }
    bias_filler {
      type: "constant"
    }
    kernel_h: 6
    kernel_w: 3
  }
}
layer {
  name: "relu4"
  type: "ReLU"
  bottom: "conv4"
  top: "conv4"
}
layer {
  name: "pool4"
  type: "Pooling"
  bottom: "conv4"
  top: "pool4"
  pooling_param {
    pool: MAX
    kernel_h: 2
    kernel_w: 1
    stride_h: 2
    stride_w: 1
  }
}
layer {
  name: "ip1"
  type: "InnerProduct"
  bottom: "pool4"
  top: "ip1"
  inner_product_param {
    num_output: 196
    weight_filler {
      type: "xavier"
    }
    bias_filler {
      type: "constant"
    }
  }
}
layer {
  name: "relu5"
  type: "ReLU"
  bottom: "ip1"
  top: "ip1"
}
layer {
  name: "drop1"
  type: "Dropout"
  bottom: "ip1"
  top: "ip1"
  dropout_param {
    dropout_ratio: 0.5
  }
}
layer {
  name: "ip2"
  type: "InnerProduct"
  bottom: "ip1"
  top: "ip2"
  inner_product_param {
    num_output: 98
    weight_filler {
      type: "xavier"
    }
    bias_filler {
      type: "constant"
    }
  }
}
layer {
  name: "relu6"
  type: "ReLU"
  bottom: "ip2"
  top: "ip2"
}
layer {
  name: "drop2"
  type: "Dropout"
  bottom: "ip2"
  top: "ip2"
  dropout_param {
    dropout_ratio: 0.5
  }
}
layer {
  name: "ip3"
  type: "InnerProduct"
  bottom: "ip2"
  top: "ip3"
  inner_product_param {
    num_output: 11
    weight_filler {
      type: "xavier"
    }
    bias_filler {
      type: "constant"
    }
  }
}
layer {
  name: "drop3"
  type: "Dropout"
  bottom: "ip3"
  top: "ip3"
  dropout_param {
    dropout_ratio: 0.5
  }
}
layer {
  name: "loss"
  type: "SoftmaxWithLoss"
  bottom: "ip3"
  bottom: "label"
  top: "loss"
}
I0521 00:58:21.288729  5356 layer_factory.hpp:77] Creating layer data_hdf5
I0521 00:58:21.288753  5356 net.cpp:106] Creating Layer data_hdf5
I0521 00:58:21.288767  5356 net.cpp:411] data_hdf5 -> data
I0521 00:58:21.288800  5356 net.cpp:411] data_hdf5 -> label
I0521 00:58:21.288833  5356 hdf5_data_layer.cpp:79] Loading list of HDF5 filenames from: /lustre/atlas/proj-shared/hep105/caffe_titan/minosmatch_nukecczdefs_127x50_x_unshifted_me1Bmc.trainlist
I0521 00:58:21.290000  5356 hdf5_data_layer.cpp:93] Number of HDF5 files: 15
I0521 00:58:21.292248  5356 hdf5.cpp:32] Datatype class: H5T_FLOAT
I0521 00:58:42.856493  5356 hdf5.cpp:35] Datatype class: H5T_INTEGER
I0521 00:58:42.861603  5356 net.cpp:150] Setting up data_hdf5
I0521 00:58:42.861647  5356 net.cpp:157] Top shape: 500 1 127 50 (3175000)
I0521 00:58:42.861662  5356 net.cpp:157] Top shape: 500 (500)
I0521 00:58:42.861672  5356 net.cpp:165] Memory required for data: 12702000
I0521 00:58:42.861685  5356 layer_factory.hpp:77] Creating layer conv1
I0521 00:58:42.861721  5356 net.cpp:106] Creating Layer conv1
I0521 00:58:42.861732  5356 net.cpp:454] conv1 <- data
I0521 00:58:42.861755  5356 net.cpp:411] conv1 -> conv1
I0521 00:58:43.223011  5356 net.cpp:150] Setting up conv1
I0521 00:58:43.223057  5356 net.cpp:157] Top shape: 500 12 120 48 (34560000)
I0521 00:58:43.223068  5356 net.cpp:165] Memory required for data: 150942000
I0521 00:58:43.223096  5356 layer_factory.hpp:77] Creating layer relu1
I0521 00:58:43.223117  5356 net.cpp:106] Creating Layer relu1
I0521 00:58:43.223129  5356 net.cpp:454] relu1 <- conv1
I0521 00:58:43.223142  5356 net.cpp:397] relu1 -> conv1 (in-place)
I0521 00:58:43.223661  5356 net.cpp:150] Setting up relu1
I0521 00:58:43.223686  5356 net.cpp:157] Top shape: 500 12 120 48 (34560000)
I0521 00:58:43.223697  5356 net.cpp:165] Memory required for data: 289182000
I0521 00:58:43.223707  5356 layer_factory.hpp:77] Creating layer pool1
I0521 00:58:43.223724  5356 net.cpp:106] Creating Layer pool1
I0521 00:58:43.223734  5356 net.cpp:454] pool1 <- conv1
I0521 00:58:43.223748  5356 net.cpp:411] pool1 -> pool1
I0521 00:58:43.223829  5356 net.cpp:150] Setting up pool1
I0521 00:58:43.223844  5356 net.cpp:157] Top shape: 500 12 60 48 (17280000)
I0521 00:58:43.223853  5356 net.cpp:165] Memory required for data: 358302000
I0521 00:58:43.223863  5356 layer_factory.hpp:77] Creating layer conv2
I0521 00:58:43.223887  5356 net.cpp:106] Creating Layer conv2
I0521 00:58:43.223897  5356 net.cpp:454] conv2 <- pool1
I0521 00:58:43.223911  5356 net.cpp:411] conv2 -> conv2
I0521 00:58:43.226578  5356 net.cpp:150] Setting up conv2
I0521 00:58:43.226605  5356 net.cpp:157] Top shape: 500 20 54 46 (24840000)
I0521 00:58:43.226616  5356 net.cpp:165] Memory required for data: 457662000
I0521 00:58:43.226635  5356 layer_factory.hpp:77] Creating layer relu2
I0521 00:58:43.226649  5356 net.cpp:106] Creating Layer relu2
I0521 00:58:43.226660  5356 net.cpp:454] relu2 <- conv2
I0521 00:58:43.226672  5356 net.cpp:397] relu2 -> conv2 (in-place)
I0521 00:58:43.227002  5356 net.cpp:150] Setting up relu2
I0521 00:58:43.227016  5356 net.cpp:157] Top shape: 500 20 54 46 (24840000)
I0521 00:58:43.227027  5356 net.cpp:165] Memory required for data: 557022000
I0521 00:58:43.227037  5356 layer_factory.hpp:77] Creating layer pool2
I0521 00:58:43.227051  5356 net.cpp:106] Creating Layer pool2
I0521 00:58:43.227061  5356 net.cpp:454] pool2 <- conv2
I0521 00:58:43.227085  5356 net.cpp:411] pool2 -> pool2
I0521 00:58:43.227154  5356 net.cpp:150] Setting up pool2
I0521 00:58:43.227166  5356 net.cpp:157] Top shape: 500 20 27 46 (12420000)
I0521 00:58:43.227176  5356 net.cpp:165] Memory required for data: 606702000
I0521 00:58:43.227186  5356 layer_factory.hpp:77] Creating layer conv3
I0521 00:58:43.227203  5356 net.cpp:106] Creating Layer conv3
I0521 00:58:43.227213  5356 net.cpp:454] conv3 <- pool2
I0521 00:58:43.227226  5356 net.cpp:411] conv3 -> conv3
I0521 00:58:43.229153  5356 net.cpp:150] Setting up conv3
I0521 00:58:43.229176  5356 net.cpp:157] Top shape: 500 28 22 44 (13552000)
I0521 00:58:43.229185  5356 net.cpp:165] Memory required for data: 660910000
I0521 00:58:43.229204  5356 layer_factory.hpp:77] Creating layer relu3
I0521 00:58:43.229220  5356 net.cpp:106] Creating Layer relu3
I0521 00:58:43.229230  5356 net.cpp:454] relu3 <- conv3
I0521 00:58:43.229243  5356 net.cpp:397] relu3 -> conv3 (in-place)
I0521 00:58:43.229712  5356 net.cpp:150] Setting up relu3
I0521 00:58:43.229730  5356 net.cpp:157] Top shape: 500 28 22 44 (13552000)
I0521 00:58:43.229740  5356 net.cpp:165] Memory required for data: 715118000
I0521 00:58:43.229750  5356 layer_factory.hpp:77] Creating layer pool3
I0521 00:58:43.229764  5356 net.cpp:106] Creating Layer pool3
I0521 00:58:43.229774  5356 net.cpp:454] pool3 <- conv3
I0521 00:58:43.229786  5356 net.cpp:411] pool3 -> pool3
I0521 00:58:43.229854  5356 net.cpp:150] Setting up pool3
I0521 00:58:43.229867  5356 net.cpp:157] Top shape: 500 28 11 44 (6776000)
I0521 00:58:43.229877  5356 net.cpp:165] Memory required for data: 742222000
I0521 00:58:43.229887  5356 layer_factory.hpp:77] Creating layer conv4
I0521 00:58:43.229902  5356 net.cpp:106] Creating Layer conv4
I0521 00:58:43.229912  5356 net.cpp:454] conv4 <- pool3
I0521 00:58:43.229926  5356 net.cpp:411] conv4 -> conv4
I0521 00:58:43.232707  5356 net.cpp:150] Setting up conv4
I0521 00:58:43.232736  5356 net.cpp:157] Top shape: 500 36 6 42 (4536000)
I0521 00:58:43.232746  5356 net.cpp:165] Memory required for data: 760366000
I0521 00:58:43.232763  5356 layer_factory.hpp:77] Creating layer relu4
I0521 00:58:43.232776  5356 net.cpp:106] Creating Layer relu4
I0521 00:58:43.232786  5356 net.cpp:454] relu4 <- conv4
I0521 00:58:43.232800  5356 net.cpp:397] relu4 -> conv4 (in-place)
I0521 00:58:43.233270  5356 net.cpp:150] Setting up relu4
I0521 00:58:43.233286  5356 net.cpp:157] Top shape: 500 36 6 42 (4536000)
I0521 00:58:43.233297  5356 net.cpp:165] Memory required for data: 778510000
I0521 00:58:43.233307  5356 layer_factory.hpp:77] Creating layer pool4
I0521 00:58:43.233320  5356 net.cpp:106] Creating Layer pool4
I0521 00:58:43.233330  5356 net.cpp:454] pool4 <- conv4
I0521 00:58:43.233342  5356 net.cpp:411] pool4 -> pool4
I0521 00:58:43.233412  5356 net.cpp:150] Setting up pool4
I0521 00:58:43.233424  5356 net.cpp:157] Top shape: 500 36 3 42 (2268000)
I0521 00:58:43.233435  5356 net.cpp:165] Memory required for data: 787582000
I0521 00:58:43.233445  5356 layer_factory.hpp:77] Creating layer ip1
I0521 00:58:43.233464  5356 net.cpp:106] Creating Layer ip1
I0521 00:58:43.233475  5356 net.cpp:454] ip1 <- pool4
I0521 00:58:43.233487  5356 net.cpp:411] ip1 -> ip1
I0521 00:58:43.248929  5356 net.cpp:150] Setting up ip1
I0521 00:58:43.248958  5356 net.cpp:157] Top shape: 500 196 (98000)
I0521 00:58:43.248971  5356 net.cpp:165] Memory required for data: 787974000
I0521 00:58:43.248993  5356 layer_factory.hpp:77] Creating layer relu5
I0521 00:58:43.249008  5356 net.cpp:106] Creating Layer relu5
I0521 00:58:43.249018  5356 net.cpp:454] relu5 <- ip1
I0521 00:58:43.249032  5356 net.cpp:397] relu5 -> ip1 (in-place)
I0521 00:58:43.249373  5356 net.cpp:150] Setting up relu5
I0521 00:58:43.249387  5356 net.cpp:157] Top shape: 500 196 (98000)
I0521 00:58:43.249398  5356 net.cpp:165] Memory required for data: 788366000
I0521 00:58:43.249408  5356 layer_factory.hpp:77] Creating layer drop1
I0521 00:58:43.249429  5356 net.cpp:106] Creating Layer drop1
I0521 00:58:43.249439  5356 net.cpp:454] drop1 <- ip1
I0521 00:58:43.249464  5356 net.cpp:397] drop1 -> ip1 (in-place)
I0521 00:58:43.249511  5356 net.cpp:150] Setting up drop1
I0521 00:58:43.249524  5356 net.cpp:157] Top shape: 500 196 (98000)
I0521 00:58:43.249534  5356 net.cpp:165] Memory required for data: 788758000
I0521 00:58:43.249543  5356 layer_factory.hpp:77] Creating layer ip2
I0521 00:58:43.249560  5356 net.cpp:106] Creating Layer ip2
I0521 00:58:43.249570  5356 net.cpp:454] ip2 <- ip1
I0521 00:58:43.249583  5356 net.cpp:411] ip2 -> ip2
I0521 00:58:43.250051  5356 net.cpp:150] Setting up ip2
I0521 00:58:43.250066  5356 net.cpp:157] Top shape: 500 98 (49000)
I0521 00:58:43.250075  5356 net.cpp:165] Memory required for data: 788954000
I0521 00:58:43.250090  5356 layer_factory.hpp:77] Creating layer relu6
I0521 00:58:43.250102  5356 net.cpp:106] Creating Layer relu6
I0521 00:58:43.250113  5356 net.cpp:454] relu6 <- ip2
I0521 00:58:43.250124  5356 net.cpp:397] relu6 -> ip2 (in-place)
I0521 00:58:43.250648  5356 net.cpp:150] Setting up relu6
I0521 00:58:43.250663  5356 net.cpp:157] Top shape: 500 98 (49000)
I0521 00:58:43.250674  5356 net.cpp:165] Memory required for data: 789150000
I0521 00:58:43.250684  5356 layer_factory.hpp:77] Creating layer drop2
I0521 00:58:43.250697  5356 net.cpp:106] Creating Layer drop2
I0521 00:58:43.250707  5356 net.cpp:454] drop2 <- ip2
I0521 00:58:43.250720  5356 net.cpp:397] drop2 -> ip2 (in-place)
I0521 00:58:43.250761  5356 net.cpp:150] Setting up drop2
I0521 00:58:43.250774  5356 net.cpp:157] Top shape: 500 98 (49000)
I0521 00:58:43.250785  5356 net.cpp:165] Memory required for data: 789346000
I0521 00:58:43.250795  5356 layer_factory.hpp:77] Creating layer ip3
I0521 00:58:43.250808  5356 net.cpp:106] Creating Layer ip3
I0521 00:58:43.250818  5356 net.cpp:454] ip3 <- ip2
I0521 00:58:43.250830  5356 net.cpp:411] ip3 -> ip3
I0521 00:58:43.251039  5356 net.cpp:150] Setting up ip3
I0521 00:58:43.251052  5356 net.cpp:157] Top shape: 500 11 (5500)
I0521 00:58:43.251062  5356 net.cpp:165] Memory required for data: 789368000
I0521 00:58:43.251077  5356 layer_factory.hpp:77] Creating layer drop3
I0521 00:58:43.251090  5356 net.cpp:106] Creating Layer drop3
I0521 00:58:43.251099  5356 net.cpp:454] drop3 <- ip3
I0521 00:58:43.251111  5356 net.cpp:397] drop3 -> ip3 (in-place)
I0521 00:58:43.251149  5356 net.cpp:150] Setting up drop3
I0521 00:58:43.251163  5356 net.cpp:157] Top shape: 500 11 (5500)
I0521 00:58:43.251173  5356 net.cpp:165] Memory required for data: 789390000
I0521 00:58:43.251183  5356 layer_factory.hpp:77] Creating layer loss
I0521 00:58:43.251201  5356 net.cpp:106] Creating Layer loss
I0521 00:58:43.251211  5356 net.cpp:454] loss <- ip3
I0521 00:58:43.251222  5356 net.cpp:454] loss <- label
I0521 00:58:43.251235  5356 net.cpp:411] loss -> loss
I0521 00:58:43.251251  5356 layer_factory.hpp:77] Creating layer loss
…
I0521 00:58:43.253829  5356 solver.cpp:181] Creating test net (#0) specified by net file: /lustre/atlas/proj-shared/hep105/caffe_titan/caffe_workflow/logs_batch_size_test/batch_size_500_2016-05-20T11.20.50.744807.prototxt
I0521 00:58:43.253901  5356 net.cpp:322] The NetState phase (1) differed from the phase (0) specified by a rule in layer data_hdf5
I0521 00:58:43.254257  5356 net.cpp:49] Initializing net from parameters: 
name: "caffe_test_127x50_x_unshifted"
state {
  phase: TEST
}
layer {
  name: "data_hdf5"
  type: "HDF5Data"
  top: "data"
  top: "label"
  include {
    phase: TEST
  }
  hdf5_data_param {
    source: "/lustre/atlas/proj-shared/hep105/caffe_titan/minosmatch_nukecczdefs_127x50_x_unshifted_me1Bmc.testlist"
    batch_size: 500
  }
}
layer {
  name: "conv1"
  type: "Convolution"
  bottom: "data"
  top: "conv1"
  convolution_param {
    num_output: 12
    pad: 0
    stride: 1
    weight_filler {
      type: "xavier"
    }
    bias_filler {
      type: "constant"
    }
    kernel_h: 8
    kernel_w: 3
  }
}
layer {
  name: "relu1"
  type: "ReLU"
  bottom: "conv1"
  top: "conv1"
}
layer {
  name: "pool1"
  type: "Pooling"
  bottom: "conv1"
  top: "pool1"
  pooling_param {
    pool: MAX
    kernel_h: 2
    kernel_w: 1
    stride_h: 2
    stride_w: 1
  }
}
layer {
  name: "conv2"
  type: "Convolution"
  bottom: "pool1"
  top: "conv2"
  convolution_param {
    num_output: 20
    pad: 0
    stride: 1
    weight_filler {
      type: "xavier"
    }
    bias_filler {
      type: "constant"
    }
    kernel_h: 7
    kernel_w: 3
  }
}
layer {
  name: "relu2"
  type: "ReLU"
  bottom: "conv2"
  top: "conv2"
}
layer {
  name: "pool2"
  type: "Pooling"
  bottom: "conv2"
  top: "pool2"
  pooling_param {
    pool: MAX
    kernel_h: 2
    kernel_w: 1
    stride_h: 2
    stride_w: 1
  }
}
layer {
  name: "conv3"
  type: "Convolution"
  bottom: "pool2"
  top: "conv3"
  convolution_param {
    num_output: 28
    pad: 0
    stride: 1
    weight_filler {
      type: "xavier"
    }
    bias_filler {
      type: "constant"
    }
    kernel_h: 6
    kernel_w: 3
  }
}
layer {
  name: "relu3"
  type: "ReLU"
  bottom: "conv3"
  top: "conv3"
}
layer {
  name: "pool3"
  type: "Pooling"
  bottom: "conv3"
  top: "pool3"
  pooling_param {
    pool: MAX
    kernel_h: 2
    kernel_w: 1
    stride_h: 2
    stride_w: 1
  }
}
layer {
  name: "conv4"
  type: "Convolution"
  bottom: "pool3"
  top: "conv4"
  convolution_param {
    num_output: 36
    pad: 0
    stride: 1
    weight_filler {
      type: "xavier"
    }
    bias_filler {
      type: "constant"
    }
    kernel_h: 6
    kernel_w: 3
  }
}
layer {
  name: "relu4"
  type: "ReLU"
  bottom: "conv4"
  top: "conv4"
}
layer {
  name: "pool4"
  type: "Pooling"
  bottom: "conv4"
  top: "pool4"
  pooling_param {
    pool: MAX
    kernel_h: 2
    kernel_w: 1
    stride_h: 2
    stride_w: 1
  }
}
layer {
  name: "ip1"
  type: "InnerProduct"
  bottom: "pool4"
  top: "ip1"
  inner_product_param {
    num_output: 196
    weight_filler {
      type: "xavier"
    }
    bias_filler {
      type: "constant"
    }
  }
}
layer {
  name: "relu5"
  type: "ReLU"
  bottom: "ip1"
  top: "ip1"
}
layer {
  name: "drop1"
  type: "Dropout"
  bottom: "ip1"
  top: "ip1"
  dropout_param {
    dropout_ratio: 0.5
  }
}
layer {
  name: "ip2"
  type: "InnerProduct"
  bottom: "ip1"
  top: "ip2"
  inner_product_param {
    num_output: 98
    weight_filler {
      type: "xavier"
    }
    bias_filler {
      type: "constant"
    }
  }
}
layer {
  name: "relu6"
  type: "ReLU"
  bottom: "ip2"
  top: "ip2"
}
layer {
  name: "drop2"
  type: "Dropout"
  bottom: "ip2"
  top: "ip2"
  dropout_param {
    dropout_ratio: 0.5
  }
}
layer {
  name: "ip3"
  type: "InnerProduct"
  bottom: "ip2"
  top: "ip3"
  inner_product_param {
    num_output: 11
    weight_filler {
      type: "xavier"
    }
    bias_filler {
      type: "constant"
    }
  }
}
layer {
  name: "drop3"
  type: "Dropout"
  bottom: "ip3"
  top: "ip3"
  dropout_param {
    dropout_ratio: 0.5
  }
}
layer {
  name: "accuracy"
  type: "Accuracy"
  bottom: "ip3"
  bottom: "label"
  top: "accuracy"
  include {
    phase: TEST
  }
}
layer {
  name: "loss"
  type: "SoftmaxWithLoss"
  bottom: "ip3"
  bottom: "label"
  top: "loss"
}
I0521 00:58:43.254446  5356 layer_factory.hpp:77] Creating layer data_hdf5
I0521 00:58:43.254462  5356 net.cpp:106] Creating Layer data_hdf5
I0521 00:58:43.254473  5356 net.cpp:411] data_hdf5 -> data
I0521 00:58:43.254490  5356 net.cpp:411] data_hdf5 -> label
I0521 00:58:43.254506  5356 hdf5_data_layer.cpp:79] Loading list of HDF5 filenames from: /lustre/atlas/proj-shared/hep105/caffe_titan/minosmatch_nukecczdefs_127x50_x_unshifted_me1Bmc.testlist
I0521 00:58:43.255738  5356 hdf5_data_layer.cpp:93] Number of HDF5 files: 3
I0521 00:59:04.601829  5356 net.cpp:150] Setting up data_hdf5
I0521 00:59:04.601994  5356 net.cpp:157] Top shape: 500 1 127 50 (3175000)
I0521 00:59:04.602007  5356 net.cpp:157] Top shape: 500 (500)
I0521 00:59:04.602020  5356 net.cpp:165] Memory required for data: 12702000
I0521 00:59:04.602033  5356 layer_factory.hpp:77] Creating layer label_data_hdf5_1_split
I0521 00:59:04.602062  5356 net.cpp:106] Creating Layer label_data_hdf5_1_split
I0521 00:59:04.602072  5356 net.cpp:454] label_data_hdf5_1_split <- label
I0521 00:59:04.602087  5356 net.cpp:411] label_data_hdf5_1_split -> label_data_hdf5_1_split_0
I0521 00:59:04.602108  5356 net.cpp:411] label_data_hdf5_1_split -> label_data_hdf5_1_split_1
I0521 00:59:04.602181  5356 net.cpp:150] Setting up label_data_hdf5_1_split
I0521 00:59:04.602195  5356 net.cpp:157] Top shape: 500 (500)
I0521 00:59:04.602207  5356 net.cpp:157] Top shape: 500 (500)
I0521 00:59:04.602216  5356 net.cpp:165] Memory required for data: 12706000
I0521 00:59:04.602228  5356 layer_factory.hpp:77] Creating layer conv1
I0521 00:59:04.602251  5356 net.cpp:106] Creating Layer conv1
I0521 00:59:04.602262  5356 net.cpp:454] conv1 <- data
I0521 00:59:04.602275  5356 net.cpp:411] conv1 -> conv1
I0521 00:59:04.604202  5356 net.cpp:150] Setting up conv1
I0521 00:59:04.604226  5356 net.cpp:157] Top shape: 500 12 120 48 (34560000)
I0521 00:59:04.604238  5356 net.cpp:165] Memory required for data: 150946000
I0521 00:59:04.604259  5356 layer_factory.hpp:77] Creating layer relu1
I0521 00:59:04.604274  5356 net.cpp:106] Creating Layer relu1
I0521 00:59:04.604284  5356 net.cpp:454] relu1 <- conv1
I0521 00:59:04.604296  5356 net.cpp:397] relu1 -> conv1 (in-place)
I0521 00:59:04.604795  5356 net.cpp:150] Setting up relu1
I0521 00:59:04.604811  5356 net.cpp:157] Top shape: 500 12 120 48 (34560000)
I0521 00:59:04.604821  5356 net.cpp:165] Memory required for data: 289186000
I0521 00:59:04.604831  5356 layer_factory.hpp:77] Creating layer pool1
I0521 00:59:04.604848  5356 net.cpp:106] Creating Layer pool1
I0521 00:59:04.604857  5356 net.cpp:454] pool1 <- conv1
I0521 00:59:04.604871  5356 net.cpp:411] pool1 -> pool1
I0521 00:59:04.604945  5356 net.cpp:150] Setting up pool1
I0521 00:59:04.604959  5356 net.cpp:157] Top shape: 500 12 60 48 (17280000)
I0521 00:59:04.604969  5356 net.cpp:165] Memory required for data: 358306000
I0521 00:59:04.604979  5356 layer_factory.hpp:77] Creating layer conv2
I0521 00:59:04.604996  5356 net.cpp:106] Creating Layer conv2
I0521 00:59:04.605006  5356 net.cpp:454] conv2 <- pool1
I0521 00:59:04.605020  5356 net.cpp:411] conv2 -> conv2
I0521 00:59:04.606936  5356 net.cpp:150] Setting up conv2
I0521 00:59:04.606958  5356 net.cpp:157] Top shape: 500 20 54 46 (24840000)
I0521 00:59:04.606971  5356 net.cpp:165] Memory required for data: 457666000
I0521 00:59:04.606988  5356 layer_factory.hpp:77] Creating layer relu2
I0521 00:59:04.607002  5356 net.cpp:106] Creating Layer relu2
I0521 00:59:04.607012  5356 net.cpp:454] relu2 <- conv2
I0521 00:59:04.607024  5356 net.cpp:397] relu2 -> conv2 (in-place)
I0521 00:59:04.607357  5356 net.cpp:150] Setting up relu2
I0521 00:59:04.607370  5356 net.cpp:157] Top shape: 500 20 54 46 (24840000)
I0521 00:59:04.607380  5356 net.cpp:165] Memory required for data: 557026000
I0521 00:59:04.607390  5356 layer_factory.hpp:77] Creating layer pool2
I0521 00:59:04.607403  5356 net.cpp:106] Creating Layer pool2
I0521 00:59:04.607414  5356 net.cpp:454] pool2 <- conv2
I0521 00:59:04.607425  5356 net.cpp:411] pool2 -> pool2
I0521 00:59:04.607496  5356 net.cpp:150] Setting up pool2
I0521 00:59:04.607509  5356 net.cpp:157] Top shape: 500 20 27 46 (12420000)
I0521 00:59:04.607518  5356 net.cpp:165] Memory required for data: 606706000
I0521 00:59:04.607527  5356 layer_factory.hpp:77] Creating layer conv3
I0521 00:59:04.607543  5356 net.cpp:106] Creating Layer conv3
I0521 00:59:04.607554  5356 net.cpp:454] conv3 <- pool2
I0521 00:59:04.607568  5356 net.cpp:411] conv3 -> conv3
I0521 00:59:04.609549  5356 net.cpp:150] Setting up conv3
I0521 00:59:04.609572  5356 net.cpp:157] Top shape: 500 28 22 44 (13552000)
I0521 00:59:04.609582  5356 net.cpp:165] Memory required for data: 660914000
I0521 00:59:04.609614  5356 layer_factory.hpp:77] Creating layer relu3
I0521 00:59:04.609628  5356 net.cpp:106] Creating Layer relu3
I0521 00:59:04.609638  5356 net.cpp:454] relu3 <- conv3
I0521 00:59:04.609652  5356 net.cpp:397] relu3 -> conv3 (in-place)
I0521 00:59:04.610126  5356 net.cpp:150] Setting up relu3
I0521 00:59:04.610141  5356 net.cpp:157] Top shape: 500 28 22 44 (13552000)
I0521 00:59:04.610152  5356 net.cpp:165] Memory required for data: 715122000
I0521 00:59:04.610162  5356 layer_factory.hpp:77] Creating layer pool3
I0521 00:59:04.610174  5356 net.cpp:106] Creating Layer pool3
I0521 00:59:04.610184  5356 net.cpp:454] pool3 <- conv3
I0521 00:59:04.610198  5356 net.cpp:411] pool3 -> pool3
I0521 00:59:04.610268  5356 net.cpp:150] Setting up pool3
I0521 00:59:04.610282  5356 net.cpp:157] Top shape: 500 28 11 44 (6776000)
I0521 00:59:04.610291  5356 net.cpp:165] Memory required for data: 742226000
I0521 00:59:04.610299  5356 layer_factory.hpp:77] Creating layer conv4
I0521 00:59:04.610317  5356 net.cpp:106] Creating Layer conv4
I0521 00:59:04.610328  5356 net.cpp:454] conv4 <- pool3
I0521 00:59:04.610342  5356 net.cpp:411] conv4 -> conv4
I0521 00:59:04.612407  5356 net.cpp:150] Setting up conv4
I0521 00:59:04.612431  5356 net.cpp:157] Top shape: 500 36 6 42 (4536000)
I0521 00:59:04.612442  5356 net.cpp:165] Memory required for data: 760370000
I0521 00:59:04.612458  5356 layer_factory.hpp:77] Creating layer relu4
I0521 00:59:04.612471  5356 net.cpp:106] Creating Layer relu4
I0521 00:59:04.612481  5356 net.cpp:454] relu4 <- conv4
I0521 00:59:04.612494  5356 net.cpp:397] relu4 -> conv4 (in-place)
I0521 00:59:04.612963  5356 net.cpp:150] Setting up relu4
I0521 00:59:04.612979  5356 net.cpp:157] Top shape: 500 36 6 42 (4536000)
I0521 00:59:04.612989  5356 net.cpp:165] Memory required for data: 778514000
I0521 00:59:04.612999  5356 layer_factory.hpp:77] Creating layer pool4
I0521 00:59:04.613013  5356 net.cpp:106] Creating Layer pool4
I0521 00:59:04.613023  5356 net.cpp:454] pool4 <- conv4
I0521 00:59:04.613035  5356 net.cpp:411] pool4 -> pool4
I0521 00:59:04.613107  5356 net.cpp:150] Setting up pool4
I0521 00:59:04.613121  5356 net.cpp:157] Top shape: 500 36 3 42 (2268000)
I0521 00:59:04.613131  5356 net.cpp:165] Memory required for data: 787586000
I0521 00:59:04.613142  5356 layer_factory.hpp:77] Creating layer ip1
I0521 00:59:04.613157  5356 net.cpp:106] Creating Layer ip1
I0521 00:59:04.613168  5356 net.cpp:454] ip1 <- pool4
I0521 00:59:04.613183  5356 net.cpp:411] ip1 -> ip1
I0521 00:59:04.628684  5356 net.cpp:150] Setting up ip1
I0521 00:59:04.628711  5356 net.cpp:157] Top shape: 500 196 (98000)
I0521 00:59:04.628723  5356 net.cpp:165] Memory required for data: 787978000
I0521 00:59:04.628746  5356 layer_factory.hpp:77] Creating layer relu5
I0521 00:59:04.628760  5356 net.cpp:106] Creating Layer relu5
I0521 00:59:04.628772  5356 net.cpp:454] relu5 <- ip1
I0521 00:59:04.628784  5356 net.cpp:397] relu5 -> ip1 (in-place)
I0521 00:59:04.629130  5356 net.cpp:150] Setting up relu5
I0521 00:59:04.629144  5356 net.cpp:157] Top shape: 500 196 (98000)
I0521 00:59:04.629155  5356 net.cpp:165] Memory required for data: 788370000
I0521 00:59:04.629165  5356 layer_factory.hpp:77] Creating layer drop1
I0521 00:59:04.629184  5356 net.cpp:106] Creating Layer drop1
I0521 00:59:04.629194  5356 net.cpp:454] drop1 <- ip1
I0521 00:59:04.629207  5356 net.cpp:397] drop1 -> ip1 (in-place)
I0521 00:59:04.629252  5356 net.cpp:150] Setting up drop1
I0521 00:59:04.629266  5356 net.cpp:157] Top shape: 500 196 (98000)
I0521 00:59:04.629276  5356 net.cpp:165] Memory required for data: 788762000
I0521 00:59:04.629284  5356 layer_factory.hpp:77] Creating layer ip2
I0521 00:59:04.629300  5356 net.cpp:106] Creating Layer ip2
I0521 00:59:04.629310  5356 net.cpp:454] ip2 <- ip1
I0521 00:59:04.629324  5356 net.cpp:411] ip2 -> ip2
I0521 00:59:04.629806  5356 net.cpp:150] Setting up ip2
I0521 00:59:04.629819  5356 net.cpp:157] Top shape: 500 98 (49000)
I0521 00:59:04.629830  5356 net.cpp:165] Memory required for data: 788958000
I0521 00:59:04.629858  5356 layer_factory.hpp:77] Creating layer relu6
I0521 00:59:04.629871  5356 net.cpp:106] Creating Layer relu6
I0521 00:59:04.629881  5356 net.cpp:454] relu6 <- ip2
I0521 00:59:04.629894  5356 net.cpp:397] relu6 -> ip2 (in-place)
I0521 00:59:04.630432  5356 net.cpp:150] Setting up relu6
I0521 00:59:04.630455  5356 net.cpp:157] Top shape: 500 98 (49000)
I0521 00:59:04.630465  5356 net.cpp:165] Memory required for data: 789154000
I0521 00:59:04.630475  5356 layer_factory.hpp:77] Creating layer drop2
I0521 00:59:04.630488  5356 net.cpp:106] Creating Layer drop2
I0521 00:59:04.630498  5356 net.cpp:454] drop2 <- ip2
I0521 00:59:04.630511  5356 net.cpp:397] drop2 -> ip2 (in-place)
I0521 00:59:04.630555  5356 net.cpp:150] Setting up drop2
I0521 00:59:04.630568  5356 net.cpp:157] Top shape: 500 98 (49000)
I0521 00:59:04.630578  5356 net.cpp:165] Memory required for data: 789350000
I0521 00:59:04.630589  5356 layer_factory.hpp:77] Creating layer ip3
I0521 00:59:04.630602  5356 net.cpp:106] Creating Layer ip3
I0521 00:59:04.630612  5356 net.cpp:454] ip3 <- ip2
I0521 00:59:04.630626  5356 net.cpp:411] ip3 -> ip3
I0521 00:59:04.630848  5356 net.cpp:150] Setting up ip3
I0521 00:59:04.630861  5356 net.cpp:157] Top shape: 500 11 (5500)
I0521 00:59:04.630870  5356 net.cpp:165] Memory required for data: 789372000
I0521 00:59:04.630887  5356 layer_factory.hpp:77] Creating layer drop3
I0521 00:59:04.630899  5356 net.cpp:106] Creating Layer drop3
I0521 00:59:04.630909  5356 net.cpp:454] drop3 <- ip3
I0521 00:59:04.630923  5356 net.cpp:397] drop3 -> ip3 (in-place)
I0521 00:59:04.630964  5356 net.cpp:150] Setting up drop3
I0521 00:59:04.630976  5356 net.cpp:157] Top shape: 500 11 (5500)
I0521 00:59:04.630986  5356 net.cpp:165] Memory required for data: 789394000
I0521 00:59:04.630995  5356 layer_factory.hpp:77] Creating layer ip3_drop3_0_split
I0521 00:59:04.631009  5356 net.cpp:106] Creating Layer ip3_drop3_0_split
I0521 00:59:04.631019  5356 net.cpp:454] ip3_drop3_0_split <- ip3
I0521 00:59:04.631031  5356 net.cpp:411] ip3_drop3_0_split -> ip3_drop3_0_split_0
I0521 00:59:04.631047  5356 net.cpp:411] ip3_drop3_0_split -> ip3_drop3_0_split_1
I0521 00:59:04.631120  5356 net.cpp:150] Setting up ip3_drop3_0_split
I0521 00:59:04.631134  5356 net.cpp:157] Top shape: 500 11 (5500)
I0521 00:59:04.631145  5356 net.cpp:157] Top shape: 500 11 (5500)
I0521 00:59:04.631155  5356 net.cpp:165] Memory required for data: 789438000
I0521 00:59:04.631165  5356 layer_factory.hpp:77] Creating layer accuracy
I0521 00:59:04.631186  5356 net.cpp:106] Creating Layer accuracy
I0521 00:59:04.631196  5356 net.cpp:454] accuracy <- ip3_drop3_0_split_0
I0521 00:59:04.631206  5356 net.cpp:454] accuracy <- label_data_hdf5_1_split_0
I0521 00:59:04.631219  5356 net.cpp:411] accuracy -> accuracy
…
