…
I0521 00:27:22.812172  9372 net.cpp:322] The NetState phase (0) differed from the phase (1) specified by a rule in layer data_hdf5
I0521 00:27:22.812233  9372 net.cpp:322] The NetState phase (0) differed from the phase (1) specified by a rule in layer accuracy
I0521 00:27:22.812587  9372 net.cpp:49] Initializing net from parameters: 
name: "caffe_test_127x50_x_unshifted"
state {
  phase: TRAIN
}
layer {
  name: "data_hdf5"
  type: "HDF5Data"
  top: "data"
  top: "label"
  include {
    phase: TRAIN
  }
  hdf5_data_param {
    source: "/lustre/atlas/proj-shared/hep105/caffe_titan/minosmatch_nukecczdefs_127x50_x_unshifted_me1Bmc.trainlist"
    batch_size: 470
  }
}
layer {
  name: "conv1"
  type: "Convolution"
  bottom: "data"
  top: "conv1"
  convolution_param {
    num_output: 12
    pad: 0
    stride: 1
    weight_filler {
      type: "xavier"
    }
    bias_filler {
      type: "constant"
    }
    kernel_h: 8
    kernel_w: 3
  }
}
layer {
  name: "relu1"
  type: "ReLU"
  bottom: "conv1"
  top: "conv1"
}
layer {
  name: "pool1"
  type: "Pooling"
  bottom: "conv1"
  top: "pool1"
  pooling_param {
    pool: MAX
    kernel_h: 2
    kernel_w: 1
    stride_h: 2
    stride_w: 1
  }
}
layer {
  name: "conv2"
  type: "Convolution"
  bottom: "pool1"
  top: "conv2"
  convolution_param {
    num_output: 20
    pad: 0
    stride: 1
    weight_filler {
      type: "xavier"
    }
    bias_filler {
      type: "constant"
    }
    kernel_h: 7
    kernel_w: 3
  }
}
layer {
  name: "relu2"
  type: "ReLU"
  bottom: "conv2"
  top: "conv2"
}
layer {
  name: "pool2"
  type: "Pooling"
  bottom: "conv2"
  top: "pool2"
  pooling_param {
    pool: MAX
    kernel_h: 2
    kernel_w: 1
    stride_h: 2
    stride_w: 1
  }
}
layer {
  name: "conv3"
  type: "Convolution"
  bottom: "pool2"
  top: "conv3"
  convolution_param {
    num_output: 28
    pad: 0
    stride: 1
    weight_filler {
      type: "xavier"
    }
    bias_filler {
      type: "constant"
    }
    kernel_h: 6
    kernel_w: 3
  }
}
layer {
  name: "relu3"
  type: "ReLU"
  bottom: "conv3"
  top: "conv3"
}
layer {
  name: "pool3"
  type: "Pooling"
  bottom: "conv3"
  top: "pool3"
  pooling_param {
    pool: MAX
    kernel_h: 2
    kernel_w: 1
    stride_h: 2
    stride_w: 1
  }
}
layer {
  name: "conv4"
  type: "Convolution"
  bottom: "pool3"
  top: "conv4"
  convolution_param {
    num_output: 36
    pad: 0
    stride: 1
    weight_filler {
      type: "xavier"
    }
    bias_filler {
      type: "constant"
    }
    kernel_h: 6
    kernel_w: 3
  }
}
layer {
  name: "relu4"
  type: "ReLU"
  bottom: "conv4"
  top: "conv4"
}
layer {
  name: "pool4"
  type: "Pooling"
  bottom: "conv4"
  top: "pool4"
  pooling_param {
    pool: MAX
    kernel_h: 2
    kernel_w: 1
    stride_h: 2
    stride_w: 1
  }
}
layer {
  name: "ip1"
  type: "InnerProduct"
  bottom: "pool4"
  top: "ip1"
  inner_product_param {
    num_output: 196
    weight_filler {
      type: "xavier"
    }
    bias_filler {
      type: "constant"
    }
  }
}
layer {
  name: "relu5"
  type: "ReLU"
  bottom: "ip1"
  top: "ip1"
}
layer {
  name: "drop1"
  type: "Dropout"
  bottom: "ip1"
  top: "ip1"
  dropout_param {
    dropout_ratio: 0.5
  }
}
layer {
  name: "ip2"
  type: "InnerProduct"
  bottom: "ip1"
  top: "ip2"
  inner_product_param {
    num_output: 98
    weight_filler {
      type: "xavier"
    }
    bias_filler {
      type: "constant"
    }
  }
}
layer {
  name: "relu6"
  type: "ReLU"
  bottom: "ip2"
  top: "ip2"
}
layer {
  name: "drop2"
  type: "Dropout"
  bottom: "ip2"
  top: "ip2"
  dropout_param {
    dropout_ratio: 0.5
  }
}
layer {
  name: "ip3"
  type: "InnerProduct"
  bottom: "ip2"
  top: "ip3"
  inner_product_param {
    num_output: 11
    weight_filler {
      type: "xavier"
    }
    bias_filler {
      type: "constant"
    }
  }
}
layer {
  name: "drop3"
  type: "Dropout"
  bottom: "ip3"
  top: "ip3"
  dropout_param {
    dropout_ratio: 0.5
  }
}
layer {
  name: "loss"
  type: "SoftmaxWithLoss"
  bottom: "ip3"
  bottom: "label"
  top: "loss"
}
I0521 00:27:22.812762  9372 layer_factory.hpp:77] Creating layer data_hdf5
I0521 00:27:22.812785  9372 net.cpp:106] Creating Layer data_hdf5
I0521 00:27:22.812800  9372 net.cpp:411] data_hdf5 -> data
I0521 00:27:22.812834  9372 net.cpp:411] data_hdf5 -> label
I0521 00:27:22.812865  9372 hdf5_data_layer.cpp:79] Loading list of HDF5 filenames from: /lustre/atlas/proj-shared/hep105/caffe_titan/minosmatch_nukecczdefs_127x50_x_unshifted_me1Bmc.trainlist
I0521 00:27:22.814056  9372 hdf5_data_layer.cpp:93] Number of HDF5 files: 15
I0521 00:27:22.816252  9372 hdf5.cpp:32] Datatype class: H5T_FLOAT
I0521 00:27:44.322484  9372 hdf5.cpp:35] Datatype class: H5T_INTEGER
I0521 00:27:44.327587  9372 net.cpp:150] Setting up data_hdf5
I0521 00:27:44.327630  9372 net.cpp:157] Top shape: 470 1 127 50 (2984500)
I0521 00:27:44.327644  9372 net.cpp:157] Top shape: 470 (470)
I0521 00:27:44.327656  9372 net.cpp:165] Memory required for data: 11939880
I0521 00:27:44.327668  9372 layer_factory.hpp:77] Creating layer conv1
I0521 00:27:44.327702  9372 net.cpp:106] Creating Layer conv1
I0521 00:27:44.327714  9372 net.cpp:454] conv1 <- data
I0521 00:27:44.327738  9372 net.cpp:411] conv1 -> conv1
I0521 00:27:44.697335  9372 net.cpp:150] Setting up conv1
I0521 00:27:44.697381  9372 net.cpp:157] Top shape: 470 12 120 48 (32486400)
I0521 00:27:44.697392  9372 net.cpp:165] Memory required for data: 141885480
I0521 00:27:44.697422  9372 layer_factory.hpp:77] Creating layer relu1
I0521 00:27:44.697443  9372 net.cpp:106] Creating Layer relu1
I0521 00:27:44.697454  9372 net.cpp:454] relu1 <- conv1
I0521 00:27:44.697468  9372 net.cpp:397] relu1 -> conv1 (in-place)
I0521 00:27:44.697991  9372 net.cpp:150] Setting up relu1
I0521 00:27:44.698009  9372 net.cpp:157] Top shape: 470 12 120 48 (32486400)
I0521 00:27:44.698019  9372 net.cpp:165] Memory required for data: 271831080
I0521 00:27:44.698029  9372 layer_factory.hpp:77] Creating layer pool1
I0521 00:27:44.698045  9372 net.cpp:106] Creating Layer pool1
I0521 00:27:44.698056  9372 net.cpp:454] pool1 <- conv1
I0521 00:27:44.698070  9372 net.cpp:411] pool1 -> pool1
I0521 00:27:44.698149  9372 net.cpp:150] Setting up pool1
I0521 00:27:44.698163  9372 net.cpp:157] Top shape: 470 12 60 48 (16243200)
I0521 00:27:44.698173  9372 net.cpp:165] Memory required for data: 336803880
I0521 00:27:44.698182  9372 layer_factory.hpp:77] Creating layer conv2
I0521 00:27:44.698204  9372 net.cpp:106] Creating Layer conv2
I0521 00:27:44.698215  9372 net.cpp:454] conv2 <- pool1
I0521 00:27:44.698228  9372 net.cpp:411] conv2 -> conv2
I0521 00:27:44.700920  9372 net.cpp:150] Setting up conv2
I0521 00:27:44.700948  9372 net.cpp:157] Top shape: 470 20 54 46 (23349600)
I0521 00:27:44.700958  9372 net.cpp:165] Memory required for data: 430202280
I0521 00:27:44.700978  9372 layer_factory.hpp:77] Creating layer relu2
I0521 00:27:44.700991  9372 net.cpp:106] Creating Layer relu2
I0521 00:27:44.701001  9372 net.cpp:454] relu2 <- conv2
I0521 00:27:44.701014  9372 net.cpp:397] relu2 -> conv2 (in-place)
I0521 00:27:44.701346  9372 net.cpp:150] Setting up relu2
I0521 00:27:44.701360  9372 net.cpp:157] Top shape: 470 20 54 46 (23349600)
I0521 00:27:44.701370  9372 net.cpp:165] Memory required for data: 523600680
I0521 00:27:44.701380  9372 layer_factory.hpp:77] Creating layer pool2
I0521 00:27:44.701393  9372 net.cpp:106] Creating Layer pool2
I0521 00:27:44.701403  9372 net.cpp:454] pool2 <- conv2
I0521 00:27:44.701427  9372 net.cpp:411] pool2 -> pool2
I0521 00:27:44.701496  9372 net.cpp:150] Setting up pool2
I0521 00:27:44.701509  9372 net.cpp:157] Top shape: 470 20 27 46 (11674800)
I0521 00:27:44.701519  9372 net.cpp:165] Memory required for data: 570299880
I0521 00:27:44.701529  9372 layer_factory.hpp:77] Creating layer conv3
I0521 00:27:44.701548  9372 net.cpp:106] Creating Layer conv3
I0521 00:27:44.701558  9372 net.cpp:454] conv3 <- pool2
I0521 00:27:44.701571  9372 net.cpp:411] conv3 -> conv3
I0521 00:27:44.703495  9372 net.cpp:150] Setting up conv3
I0521 00:27:44.703518  9372 net.cpp:157] Top shape: 470 28 22 44 (12738880)
I0521 00:27:44.703531  9372 net.cpp:165] Memory required for data: 621255400
I0521 00:27:44.703548  9372 layer_factory.hpp:77] Creating layer relu3
I0521 00:27:44.703564  9372 net.cpp:106] Creating Layer relu3
I0521 00:27:44.703575  9372 net.cpp:454] relu3 <- conv3
I0521 00:27:44.703588  9372 net.cpp:397] relu3 -> conv3 (in-place)
I0521 00:27:44.704058  9372 net.cpp:150] Setting up relu3
I0521 00:27:44.704077  9372 net.cpp:157] Top shape: 470 28 22 44 (12738880)
I0521 00:27:44.704087  9372 net.cpp:165] Memory required for data: 672210920
I0521 00:27:44.704097  9372 layer_factory.hpp:77] Creating layer pool3
I0521 00:27:44.704110  9372 net.cpp:106] Creating Layer pool3
I0521 00:27:44.704119  9372 net.cpp:454] pool3 <- conv3
I0521 00:27:44.704133  9372 net.cpp:411] pool3 -> pool3
I0521 00:27:44.704200  9372 net.cpp:150] Setting up pool3
I0521 00:27:44.704213  9372 net.cpp:157] Top shape: 470 28 11 44 (6369440)
I0521 00:27:44.704223  9372 net.cpp:165] Memory required for data: 697688680
I0521 00:27:44.704232  9372 layer_factory.hpp:77] Creating layer conv4
I0521 00:27:44.704247  9372 net.cpp:106] Creating Layer conv4
I0521 00:27:44.704259  9372 net.cpp:454] conv4 <- pool3
I0521 00:27:44.704272  9372 net.cpp:411] conv4 -> conv4
I0521 00:27:44.707039  9372 net.cpp:150] Setting up conv4
I0521 00:27:44.707067  9372 net.cpp:157] Top shape: 470 36 6 42 (4263840)
I0521 00:27:44.707077  9372 net.cpp:165] Memory required for data: 714744040
I0521 00:27:44.707093  9372 layer_factory.hpp:77] Creating layer relu4
I0521 00:27:44.707108  9372 net.cpp:106] Creating Layer relu4
I0521 00:27:44.707118  9372 net.cpp:454] relu4 <- conv4
I0521 00:27:44.707131  9372 net.cpp:397] relu4 -> conv4 (in-place)
I0521 00:27:44.707607  9372 net.cpp:150] Setting up relu4
I0521 00:27:44.707623  9372 net.cpp:157] Top shape: 470 36 6 42 (4263840)
I0521 00:27:44.707634  9372 net.cpp:165] Memory required for data: 731799400
I0521 00:27:44.707644  9372 layer_factory.hpp:77] Creating layer pool4
I0521 00:27:44.707658  9372 net.cpp:106] Creating Layer pool4
I0521 00:27:44.707667  9372 net.cpp:454] pool4 <- conv4
I0521 00:27:44.707680  9372 net.cpp:411] pool4 -> pool4
I0521 00:27:44.707748  9372 net.cpp:150] Setting up pool4
I0521 00:27:44.707762  9372 net.cpp:157] Top shape: 470 36 3 42 (2131920)
I0521 00:27:44.707772  9372 net.cpp:165] Memory required for data: 740327080
I0521 00:27:44.707782  9372 layer_factory.hpp:77] Creating layer ip1
I0521 00:27:44.707803  9372 net.cpp:106] Creating Layer ip1
I0521 00:27:44.707813  9372 net.cpp:454] ip1 <- pool4
I0521 00:27:44.707826  9372 net.cpp:411] ip1 -> ip1
I0521 00:27:44.723359  9372 net.cpp:150] Setting up ip1
I0521 00:27:44.723388  9372 net.cpp:157] Top shape: 470 196 (92120)
I0521 00:27:44.723404  9372 net.cpp:165] Memory required for data: 740695560
I0521 00:27:44.723430  9372 layer_factory.hpp:77] Creating layer relu5
I0521 00:27:44.723445  9372 net.cpp:106] Creating Layer relu5
I0521 00:27:44.723455  9372 net.cpp:454] relu5 <- ip1
I0521 00:27:44.723469  9372 net.cpp:397] relu5 -> ip1 (in-place)
I0521 00:27:44.723812  9372 net.cpp:150] Setting up relu5
I0521 00:27:44.723827  9372 net.cpp:157] Top shape: 470 196 (92120)
I0521 00:27:44.723837  9372 net.cpp:165] Memory required for data: 741064040
I0521 00:27:44.723847  9372 layer_factory.hpp:77] Creating layer drop1
I0521 00:27:44.723870  9372 net.cpp:106] Creating Layer drop1
I0521 00:27:44.723881  9372 net.cpp:454] drop1 <- ip1
I0521 00:27:44.723906  9372 net.cpp:397] drop1 -> ip1 (in-place)
I0521 00:27:44.723953  9372 net.cpp:150] Setting up drop1
I0521 00:27:44.723965  9372 net.cpp:157] Top shape: 470 196 (92120)
I0521 00:27:44.723976  9372 net.cpp:165] Memory required for data: 741432520
I0521 00:27:44.723984  9372 layer_factory.hpp:77] Creating layer ip2
I0521 00:27:44.724004  9372 net.cpp:106] Creating Layer ip2
I0521 00:27:44.724014  9372 net.cpp:454] ip2 <- ip1
I0521 00:27:44.724028  9372 net.cpp:411] ip2 -> ip2
I0521 00:27:44.724504  9372 net.cpp:150] Setting up ip2
I0521 00:27:44.724517  9372 net.cpp:157] Top shape: 470 98 (46060)
I0521 00:27:44.724526  9372 net.cpp:165] Memory required for data: 741616760
I0521 00:27:44.724542  9372 layer_factory.hpp:77] Creating layer relu6
I0521 00:27:44.724555  9372 net.cpp:106] Creating Layer relu6
I0521 00:27:44.724565  9372 net.cpp:454] relu6 <- ip2
I0521 00:27:44.724577  9372 net.cpp:397] relu6 -> ip2 (in-place)
I0521 00:27:44.725098  9372 net.cpp:150] Setting up relu6
I0521 00:27:44.725114  9372 net.cpp:157] Top shape: 470 98 (46060)
I0521 00:27:44.725126  9372 net.cpp:165] Memory required for data: 741801000
I0521 00:27:44.725134  9372 layer_factory.hpp:77] Creating layer drop2
I0521 00:27:44.725148  9372 net.cpp:106] Creating Layer drop2
I0521 00:27:44.725157  9372 net.cpp:454] drop2 <- ip2
I0521 00:27:44.725170  9372 net.cpp:397] drop2 -> ip2 (in-place)
I0521 00:27:44.725213  9372 net.cpp:150] Setting up drop2
I0521 00:27:44.725226  9372 net.cpp:157] Top shape: 470 98 (46060)
I0521 00:27:44.725236  9372 net.cpp:165] Memory required for data: 741985240
I0521 00:27:44.725246  9372 layer_factory.hpp:77] Creating layer ip3
I0521 00:27:44.725260  9372 net.cpp:106] Creating Layer ip3
I0521 00:27:44.725270  9372 net.cpp:454] ip3 <- ip2
I0521 00:27:44.725281  9372 net.cpp:411] ip3 -> ip3
I0521 00:27:44.725493  9372 net.cpp:150] Setting up ip3
I0521 00:27:44.725507  9372 net.cpp:157] Top shape: 470 11 (5170)
I0521 00:27:44.725517  9372 net.cpp:165] Memory required for data: 742005920
I0521 00:27:44.725533  9372 layer_factory.hpp:77] Creating layer drop3
I0521 00:27:44.725544  9372 net.cpp:106] Creating Layer drop3
I0521 00:27:44.725554  9372 net.cpp:454] drop3 <- ip3
I0521 00:27:44.725566  9372 net.cpp:397] drop3 -> ip3 (in-place)
I0521 00:27:44.725605  9372 net.cpp:150] Setting up drop3
I0521 00:27:44.725618  9372 net.cpp:157] Top shape: 470 11 (5170)
I0521 00:27:44.725628  9372 net.cpp:165] Memory required for data: 742026600
I0521 00:27:44.725638  9372 layer_factory.hpp:77] Creating layer loss
I0521 00:27:44.725657  9372 net.cpp:106] Creating Layer loss
I0521 00:27:44.725667  9372 net.cpp:454] loss <- ip3
I0521 00:27:44.725677  9372 net.cpp:454] loss <- label
I0521 00:27:44.725689  9372 net.cpp:411] loss -> loss
I0521 00:27:44.725708  9372 layer_factory.hpp:77] Creating layer loss
…
I0521 00:27:44.728287  9372 solver.cpp:181] Creating test net (#0) specified by net file: /lustre/atlas/proj-shared/hep105/caffe_titan/caffe_workflow/logs_batch_size_test/batch_size_470_2016-05-20T11.20.49.690464.prototxt
I0521 00:27:44.728358  9372 net.cpp:322] The NetState phase (1) differed from the phase (0) specified by a rule in layer data_hdf5
I0521 00:27:44.728726  9372 net.cpp:49] Initializing net from parameters: 
name: "caffe_test_127x50_x_unshifted"
state {
  phase: TEST
}
layer {
  name: "data_hdf5"
  type: "HDF5Data"
  top: "data"
  top: "label"
  include {
    phase: TEST
  }
  hdf5_data_param {
    source: "/lustre/atlas/proj-shared/hep105/caffe_titan/minosmatch_nukecczdefs_127x50_x_unshifted_me1Bmc.testlist"
    batch_size: 470
  }
}
layer {
  name: "conv1"
  type: "Convolution"
  bottom: "data"
  top: "conv1"
  convolution_param {
    num_output: 12
    pad: 0
    stride: 1
    weight_filler {
      type: "xavier"
    }
    bias_filler {
      type: "constant"
    }
    kernel_h: 8
    kernel_w: 3
  }
}
layer {
  name: "relu1"
  type: "ReLU"
  bottom: "conv1"
  top: "conv1"
}
layer {
  name: "pool1"
  type: "Pooling"
  bottom: "conv1"
  top: "pool1"
  pooling_param {
    pool: MAX
    kernel_h: 2
    kernel_w: 1
    stride_h: 2
    stride_w: 1
  }
}
layer {
  name: "conv2"
  type: "Convolution"
  bottom: "pool1"
  top: "conv2"
  convolution_param {
    num_output: 20
    pad: 0
    stride: 1
    weight_filler {
      type: "xavier"
    }
    bias_filler {
      type: "constant"
    }
    kernel_h: 7
    kernel_w: 3
  }
}
layer {
  name: "relu2"
  type: "ReLU"
  bottom: "conv2"
  top: "conv2"
}
layer {
  name: "pool2"
  type: "Pooling"
  bottom: "conv2"
  top: "pool2"
  pooling_param {
    pool: MAX
    kernel_h: 2
    kernel_w: 1
    stride_h: 2
    stride_w: 1
  }
}
layer {
  name: "conv3"
  type: "Convolution"
  bottom: "pool2"
  top: "conv3"
  convolution_param {
    num_output: 28
    pad: 0
    stride: 1
    weight_filler {
      type: "xavier"
    }
    bias_filler {
      type: "constant"
    }
    kernel_h: 6
    kernel_w: 3
  }
}
layer {
  name: "relu3"
  type: "ReLU"
  bottom: "conv3"
  top: "conv3"
}
layer {
  name: "pool3"
  type: "Pooling"
  bottom: "conv3"
  top: "pool3"
  pooling_param {
    pool: MAX
    kernel_h: 2
    kernel_w: 1
    stride_h: 2
    stride_w: 1
  }
}
layer {
  name: "conv4"
  type: "Convolution"
  bottom: "pool3"
  top: "conv4"
  convolution_param {
    num_output: 36
    pad: 0
    stride: 1
    weight_filler {
      type: "xavier"
    }
    bias_filler {
      type: "constant"
    }
    kernel_h: 6
    kernel_w: 3
  }
}
layer {
  name: "relu4"
  type: "ReLU"
  bottom: "conv4"
  top: "conv4"
}
layer {
  name: "pool4"
  type: "Pooling"
  bottom: "conv4"
  top: "pool4"
  pooling_param {
    pool: MAX
    kernel_h: 2
    kernel_w: 1
    stride_h: 2
    stride_w: 1
  }
}
layer {
  name: "ip1"
  type: "InnerProduct"
  bottom: "pool4"
  top: "ip1"
  inner_product_param {
    num_output: 196
    weight_filler {
      type: "xavier"
    }
    bias_filler {
      type: "constant"
    }
  }
}
layer {
  name: "relu5"
  type: "ReLU"
  bottom: "ip1"
  top: "ip1"
}
layer {
  name: "drop1"
  type: "Dropout"
  bottom: "ip1"
  top: "ip1"
  dropout_param {
    dropout_ratio: 0.5
  }
}
layer {
  name: "ip2"
  type: "InnerProduct"
  bottom: "ip1"
  top: "ip2"
  inner_product_param {
    num_output: 98
    weight_filler {
      type: "xavier"
    }
    bias_filler {
      type: "constant"
    }
  }
}
layer {
  name: "relu6"
  type: "ReLU"
  bottom: "ip2"
  top: "ip2"
}
layer {
  name: "drop2"
  type: "Dropout"
  bottom: "ip2"
  top: "ip2"
  dropout_param {
    dropout_ratio: 0.5
  }
}
layer {
  name: "ip3"
  type: "InnerProduct"
  bottom: "ip2"
  top: "ip3"
  inner_product_param {
    num_output: 11
    weight_filler {
      type: "xavier"
    }
    bias_filler {
      type: "constant"
    }
  }
}
layer {
  name: "drop3"
  type: "Dropout"
  bottom: "ip3"
  top: "ip3"
  dropout_param {
    dropout_ratio: 0.5
  }
}
layer {
  name: "accuracy"
  type: "Accuracy"
  bottom: "ip3"
  bottom: "label"
  top: "accuracy"
  include {
    phase: TEST
  }
}
layer {
  name: "loss"
  type: "SoftmaxWithLoss"
  bottom: "ip3"
  bottom: "label"
  top: "loss"
}
I0521 00:27:44.728914  9372 layer_factory.hpp:77] Creating layer data_hdf5
I0521 00:27:44.728929  9372 net.cpp:106] Creating Layer data_hdf5
I0521 00:27:44.728941  9372 net.cpp:411] data_hdf5 -> data
I0521 00:27:44.728957  9372 net.cpp:411] data_hdf5 -> label
I0521 00:27:44.728972  9372 hdf5_data_layer.cpp:79] Loading list of HDF5 filenames from: /lustre/atlas/proj-shared/hep105/caffe_titan/minosmatch_nukecczdefs_127x50_x_unshifted_me1Bmc.testlist
I0521 00:27:44.730222  9372 hdf5_data_layer.cpp:93] Number of HDF5 files: 3
I0521 00:28:06.018491  9372 net.cpp:150] Setting up data_hdf5
I0521 00:28:06.018656  9372 net.cpp:157] Top shape: 470 1 127 50 (2984500)
I0521 00:28:06.018671  9372 net.cpp:157] Top shape: 470 (470)
I0521 00:28:06.018683  9372 net.cpp:165] Memory required for data: 11939880
I0521 00:28:06.018697  9372 layer_factory.hpp:77] Creating layer label_data_hdf5_1_split
I0521 00:28:06.018726  9372 net.cpp:106] Creating Layer label_data_hdf5_1_split
I0521 00:28:06.018736  9372 net.cpp:454] label_data_hdf5_1_split <- label
I0521 00:28:06.018751  9372 net.cpp:411] label_data_hdf5_1_split -> label_data_hdf5_1_split_0
I0521 00:28:06.018774  9372 net.cpp:411] label_data_hdf5_1_split -> label_data_hdf5_1_split_1
I0521 00:28:06.018847  9372 net.cpp:150] Setting up label_data_hdf5_1_split
I0521 00:28:06.018860  9372 net.cpp:157] Top shape: 470 (470)
I0521 00:28:06.018872  9372 net.cpp:157] Top shape: 470 (470)
I0521 00:28:06.018882  9372 net.cpp:165] Memory required for data: 11943640
I0521 00:28:06.018892  9372 layer_factory.hpp:77] Creating layer conv1
I0521 00:28:06.018911  9372 net.cpp:106] Creating Layer conv1
I0521 00:28:06.018923  9372 net.cpp:454] conv1 <- data
I0521 00:28:06.018937  9372 net.cpp:411] conv1 -> conv1
I0521 00:28:06.020877  9372 net.cpp:150] Setting up conv1
I0521 00:28:06.020901  9372 net.cpp:157] Top shape: 470 12 120 48 (32486400)
I0521 00:28:06.020913  9372 net.cpp:165] Memory required for data: 141889240
I0521 00:28:06.020934  9372 layer_factory.hpp:77] Creating layer relu1
I0521 00:28:06.020951  9372 net.cpp:106] Creating Layer relu1
I0521 00:28:06.020961  9372 net.cpp:454] relu1 <- conv1
I0521 00:28:06.020973  9372 net.cpp:397] relu1 -> conv1 (in-place)
I0521 00:28:06.021476  9372 net.cpp:150] Setting up relu1
I0521 00:28:06.021492  9372 net.cpp:157] Top shape: 470 12 120 48 (32486400)
I0521 00:28:06.021502  9372 net.cpp:165] Memory required for data: 271834840
I0521 00:28:06.021513  9372 layer_factory.hpp:77] Creating layer pool1
I0521 00:28:06.021529  9372 net.cpp:106] Creating Layer pool1
I0521 00:28:06.021539  9372 net.cpp:454] pool1 <- conv1
I0521 00:28:06.021553  9372 net.cpp:411] pool1 -> pool1
I0521 00:28:06.021626  9372 net.cpp:150] Setting up pool1
I0521 00:28:06.021641  9372 net.cpp:157] Top shape: 470 12 60 48 (16243200)
I0521 00:28:06.021651  9372 net.cpp:165] Memory required for data: 336807640
I0521 00:28:06.021661  9372 layer_factory.hpp:77] Creating layer conv2
I0521 00:28:06.021677  9372 net.cpp:106] Creating Layer conv2
I0521 00:28:06.021688  9372 net.cpp:454] conv2 <- pool1
I0521 00:28:06.021703  9372 net.cpp:411] conv2 -> conv2
I0521 00:28:06.023617  9372 net.cpp:150] Setting up conv2
I0521 00:28:06.023639  9372 net.cpp:157] Top shape: 470 20 54 46 (23349600)
I0521 00:28:06.023653  9372 net.cpp:165] Memory required for data: 430206040
I0521 00:28:06.023669  9372 layer_factory.hpp:77] Creating layer relu2
I0521 00:28:06.023684  9372 net.cpp:106] Creating Layer relu2
I0521 00:28:06.023694  9372 net.cpp:454] relu2 <- conv2
I0521 00:28:06.023705  9372 net.cpp:397] relu2 -> conv2 (in-place)
I0521 00:28:06.024039  9372 net.cpp:150] Setting up relu2
I0521 00:28:06.024054  9372 net.cpp:157] Top shape: 470 20 54 46 (23349600)
I0521 00:28:06.024063  9372 net.cpp:165] Memory required for data: 523604440
I0521 00:28:06.024073  9372 layer_factory.hpp:77] Creating layer pool2
I0521 00:28:06.024086  9372 net.cpp:106] Creating Layer pool2
I0521 00:28:06.024096  9372 net.cpp:454] pool2 <- conv2
I0521 00:28:06.024109  9372 net.cpp:411] pool2 -> pool2
I0521 00:28:06.024180  9372 net.cpp:150] Setting up pool2
I0521 00:28:06.024194  9372 net.cpp:157] Top shape: 470 20 27 46 (11674800)
I0521 00:28:06.024204  9372 net.cpp:165] Memory required for data: 570303640
I0521 00:28:06.024214  9372 layer_factory.hpp:77] Creating layer conv3
I0521 00:28:06.024235  9372 net.cpp:106] Creating Layer conv3
I0521 00:28:06.024245  9372 net.cpp:454] conv3 <- pool2
I0521 00:28:06.024260  9372 net.cpp:411] conv3 -> conv3
I0521 00:28:06.026238  9372 net.cpp:150] Setting up conv3
I0521 00:28:06.026262  9372 net.cpp:157] Top shape: 470 28 22 44 (12738880)
I0521 00:28:06.026273  9372 net.cpp:165] Memory required for data: 621259160
I0521 00:28:06.026304  9372 layer_factory.hpp:77] Creating layer relu3
I0521 00:28:06.026317  9372 net.cpp:106] Creating Layer relu3
I0521 00:28:06.026329  9372 net.cpp:454] relu3 <- conv3
I0521 00:28:06.026341  9372 net.cpp:397] relu3 -> conv3 (in-place)
I0521 00:28:06.026813  9372 net.cpp:150] Setting up relu3
I0521 00:28:06.026829  9372 net.cpp:157] Top shape: 470 28 22 44 (12738880)
I0521 00:28:06.026839  9372 net.cpp:165] Memory required for data: 672214680
I0521 00:28:06.026850  9372 layer_factory.hpp:77] Creating layer pool3
I0521 00:28:06.026864  9372 net.cpp:106] Creating Layer pool3
I0521 00:28:06.026873  9372 net.cpp:454] pool3 <- conv3
I0521 00:28:06.026886  9372 net.cpp:411] pool3 -> pool3
I0521 00:28:06.026957  9372 net.cpp:150] Setting up pool3
I0521 00:28:06.026971  9372 net.cpp:157] Top shape: 470 28 11 44 (6369440)
I0521 00:28:06.026981  9372 net.cpp:165] Memory required for data: 697692440
I0521 00:28:06.026989  9372 layer_factory.hpp:77] Creating layer conv4
I0521 00:28:06.027007  9372 net.cpp:106] Creating Layer conv4
I0521 00:28:06.027017  9372 net.cpp:454] conv4 <- pool3
I0521 00:28:06.027031  9372 net.cpp:411] conv4 -> conv4
I0521 00:28:06.029091  9372 net.cpp:150] Setting up conv4
I0521 00:28:06.029114  9372 net.cpp:157] Top shape: 470 36 6 42 (4263840)
I0521 00:28:06.029127  9372 net.cpp:165] Memory required for data: 714747800
I0521 00:28:06.029142  9372 layer_factory.hpp:77] Creating layer relu4
I0521 00:28:06.029155  9372 net.cpp:106] Creating Layer relu4
I0521 00:28:06.029165  9372 net.cpp:454] relu4 <- conv4
I0521 00:28:06.029180  9372 net.cpp:397] relu4 -> conv4 (in-place)
I0521 00:28:06.029654  9372 net.cpp:150] Setting up relu4
I0521 00:28:06.029670  9372 net.cpp:157] Top shape: 470 36 6 42 (4263840)
I0521 00:28:06.029680  9372 net.cpp:165] Memory required for data: 731803160
I0521 00:28:06.029690  9372 layer_factory.hpp:77] Creating layer pool4
I0521 00:28:06.029703  9372 net.cpp:106] Creating Layer pool4
I0521 00:28:06.029713  9372 net.cpp:454] pool4 <- conv4
I0521 00:28:06.029726  9372 net.cpp:411] pool4 -> pool4
I0521 00:28:06.029798  9372 net.cpp:150] Setting up pool4
I0521 00:28:06.029811  9372 net.cpp:157] Top shape: 470 36 3 42 (2131920)
I0521 00:28:06.029820  9372 net.cpp:165] Memory required for data: 740330840
I0521 00:28:06.029829  9372 layer_factory.hpp:77] Creating layer ip1
I0521 00:28:06.029844  9372 net.cpp:106] Creating Layer ip1
I0521 00:28:06.029855  9372 net.cpp:454] ip1 <- pool4
I0521 00:28:06.029868  9372 net.cpp:411] ip1 -> ip1
I0521 00:28:06.045336  9372 net.cpp:150] Setting up ip1
I0521 00:28:06.045367  9372 net.cpp:157] Top shape: 470 196 (92120)
I0521 00:28:06.045382  9372 net.cpp:165] Memory required for data: 740699320
I0521 00:28:06.045403  9372 layer_factory.hpp:77] Creating layer relu5
I0521 00:28:06.045419  9372 net.cpp:106] Creating Layer relu5
I0521 00:28:06.045429  9372 net.cpp:454] relu5 <- ip1
I0521 00:28:06.045442  9372 net.cpp:397] relu5 -> ip1 (in-place)
I0521 00:28:06.045788  9372 net.cpp:150] Setting up relu5
I0521 00:28:06.045801  9372 net.cpp:157] Top shape: 470 196 (92120)
I0521 00:28:06.045811  9372 net.cpp:165] Memory required for data: 741067800
I0521 00:28:06.045821  9372 layer_factory.hpp:77] Creating layer drop1
I0521 00:28:06.045840  9372 net.cpp:106] Creating Layer drop1
I0521 00:28:06.045850  9372 net.cpp:454] drop1 <- ip1
I0521 00:28:06.045864  9372 net.cpp:397] drop1 -> ip1 (in-place)
I0521 00:28:06.045909  9372 net.cpp:150] Setting up drop1
I0521 00:28:06.045922  9372 net.cpp:157] Top shape: 470 196 (92120)
I0521 00:28:06.045931  9372 net.cpp:165] Memory required for data: 741436280
I0521 00:28:06.045941  9372 layer_factory.hpp:77] Creating layer ip2
I0521 00:28:06.045956  9372 net.cpp:106] Creating Layer ip2
I0521 00:28:06.045967  9372 net.cpp:454] ip2 <- ip1
I0521 00:28:06.045981  9372 net.cpp:411] ip2 -> ip2
I0521 00:28:06.046479  9372 net.cpp:150] Setting up ip2
I0521 00:28:06.046492  9372 net.cpp:157] Top shape: 470 98 (46060)
I0521 00:28:06.046502  9372 net.cpp:165] Memory required for data: 741620520
I0521 00:28:06.046530  9372 layer_factory.hpp:77] Creating layer relu6
I0521 00:28:06.046543  9372 net.cpp:106] Creating Layer relu6
I0521 00:28:06.046553  9372 net.cpp:454] relu6 <- ip2
I0521 00:28:06.046566  9372 net.cpp:397] relu6 -> ip2 (in-place)
I0521 00:28:06.047101  9372 net.cpp:150] Setting up relu6
I0521 00:28:06.047122  9372 net.cpp:157] Top shape: 470 98 (46060)
I0521 00:28:06.047132  9372 net.cpp:165] Memory required for data: 741804760
I0521 00:28:06.047142  9372 layer_factory.hpp:77] Creating layer drop2
I0521 00:28:06.047155  9372 net.cpp:106] Creating Layer drop2
I0521 00:28:06.047165  9372 net.cpp:454] drop2 <- ip2
I0521 00:28:06.047178  9372 net.cpp:397] drop2 -> ip2 (in-place)
I0521 00:28:06.047224  9372 net.cpp:150] Setting up drop2
I0521 00:28:06.047236  9372 net.cpp:157] Top shape: 470 98 (46060)
I0521 00:28:06.047246  9372 net.cpp:165] Memory required for data: 741989000
I0521 00:28:06.047255  9372 layer_factory.hpp:77] Creating layer ip3
I0521 00:28:06.047269  9372 net.cpp:106] Creating Layer ip3
I0521 00:28:06.047279  9372 net.cpp:454] ip3 <- ip2
I0521 00:28:06.047293  9372 net.cpp:411] ip3 -> ip3
I0521 00:28:06.047518  9372 net.cpp:150] Setting up ip3
I0521 00:28:06.047531  9372 net.cpp:157] Top shape: 470 11 (5170)
I0521 00:28:06.047541  9372 net.cpp:165] Memory required for data: 742009680
I0521 00:28:06.047556  9372 layer_factory.hpp:77] Creating layer drop3
I0521 00:28:06.047569  9372 net.cpp:106] Creating Layer drop3
I0521 00:28:06.047580  9372 net.cpp:454] drop3 <- ip3
I0521 00:28:06.047591  9372 net.cpp:397] drop3 -> ip3 (in-place)
I0521 00:28:06.047633  9372 net.cpp:150] Setting up drop3
I0521 00:28:06.047646  9372 net.cpp:157] Top shape: 470 11 (5170)
I0521 00:28:06.047655  9372 net.cpp:165] Memory required for data: 742030360
I0521 00:28:06.047665  9372 layer_factory.hpp:77] Creating layer ip3_drop3_0_split
I0521 00:28:06.047678  9372 net.cpp:106] Creating Layer ip3_drop3_0_split
I0521 00:28:06.047688  9372 net.cpp:454] ip3_drop3_0_split <- ip3
I0521 00:28:06.047700  9372 net.cpp:411] ip3_drop3_0_split -> ip3_drop3_0_split_0
I0521 00:28:06.047715  9372 net.cpp:411] ip3_drop3_0_split -> ip3_drop3_0_split_1
I0521 00:28:06.047790  9372 net.cpp:150] Setting up ip3_drop3_0_split
I0521 00:28:06.047802  9372 net.cpp:157] Top shape: 470 11 (5170)
I0521 00:28:06.047814  9372 net.cpp:157] Top shape: 470 11 (5170)
I0521 00:28:06.047824  9372 net.cpp:165] Memory required for data: 742071720
I0521 00:28:06.047835  9372 layer_factory.hpp:77] Creating layer accuracy
I0521 00:28:06.047857  9372 net.cpp:106] Creating Layer accuracy
I0521 00:28:06.047868  9372 net.cpp:454] accuracy <- ip3_drop3_0_split_0
I0521 00:28:06.047878  9372 net.cpp:454] accuracy <- label_data_hdf5_1_split_0
I0521 00:28:06.047891  9372 net.cpp:411] accuracy -> accuracy
…
