…
I0520 13:50:14.887275 26529 net.cpp:322] The NetState phase (0) differed from the phase (1) specified by a rule in layer data_hdf5
I0520 13:50:14.887341 26529 net.cpp:322] The NetState phase (0) differed from the phase (1) specified by a rule in layer accuracy
I0520 13:50:14.887714 26529 net.cpp:49] Initializing net from parameters: 
name: "caffe_test_127x50_x_unshifted"
state {
  phase: TRAIN
}
layer {
  name: "data_hdf5"
  type: "HDF5Data"
  top: "data"
  top: "label"
  include {
    phase: TRAIN
  }
  hdf5_data_param {
    source: "/lustre/atlas/proj-shared/hep105/caffe_titan/minosmatch_nukecczdefs_127x50_x_unshifted_me1Bmc.trainlist"
    batch_size: 100
  }
}
layer {
  name: "conv1"
  type: "Convolution"
  bottom: "data"
  top: "conv1"
  convolution_param {
    num_output: 12
    pad: 0
    stride: 1
    weight_filler {
      type: "xavier"
    }
    bias_filler {
      type: "constant"
    }
    kernel_h: 8
    kernel_w: 3
  }
}
layer {
  name: "relu1"
  type: "ReLU"
  bottom: "conv1"
  top: "conv1"
}
layer {
  name: "pool1"
  type: "Pooling"
  bottom: "conv1"
  top: "pool1"
  pooling_param {
    pool: MAX
    kernel_h: 2
    kernel_w: 1
    stride_h: 2
    stride_w: 1
  }
}
layer {
  name: "conv2"
  type: "Convolution"
  bottom: "pool1"
  top: "conv2"
  convolution_param {
    num_output: 20
    pad: 0
    stride: 1
    weight_filler {
      type: "xavier"
    }
    bias_filler {
      type: "constant"
    }
    kernel_h: 7
    kernel_w: 3
  }
}
layer {
  name: "relu2"
  type: "ReLU"
  bottom: "conv2"
  top: "conv2"
}
layer {
  name: "pool2"
  type: "Pooling"
  bottom: "conv2"
  top: "pool2"
  pooling_param {
    pool: MAX
    kernel_h: 2
    kernel_w: 1
    stride_h: 2
    stride_w: 1
  }
}
layer {
  name: "conv3"
  type: "Convolution"
  bottom: "pool2"
  top: "conv3"
  convolution_param {
    num_output: 28
    pad: 0
    stride: 1
    weight_filler {
      type: "xavier"
    }
    bias_filler {
      type: "constant"
    }
    kernel_h: 6
    kernel_w: 3
  }
}
layer {
  name: "relu3"
  type: "ReLU"
  bottom: "conv3"
  top: "conv3"
}
layer {
  name: "pool3"
  type: "Pooling"
  bottom: "conv3"
  top: "pool3"
  pooling_param {
    pool: MAX
    kernel_h: 2
    kernel_w: 1
    stride_h: 2
    stride_w: 1
  }
}
layer {
  name: "conv4"
  type: "Convolution"
  bottom: "pool3"
  top: "conv4"
  convolution_param {
    num_output: 36
    pad: 0
    stride: 1
    weight_filler {
      type: "xavier"
    }
    bias_filler {
      type: "constant"
    }
    kernel_h: 6
    kernel_w: 3
  }
}
layer {
  name: "relu4"
  type: "ReLU"
  bottom: "conv4"
  top: "conv4"
}
layer {
  name: "pool4"
  type: "Pooling"
  bottom: "conv4"
  top: "pool4"
  pooling_param {
    pool: MAX
    kernel_h: 2
    kernel_w: 1
    stride_h: 2
    stride_w: 1
  }
}
layer {
  name: "ip1"
  type: "InnerProduct"
  bottom: "pool4"
  top: "ip1"
  inner_product_param {
    num_output: 196
    weight_filler {
      type: "xavier"
    }
    bias_filler {
      type: "constant"
    }
  }
}
layer {
  name: "relu5"
  type: "ReLU"
  bottom: "ip1"
  top: "ip1"
}
layer {
  name: "drop1"
  type: "Dropout"
  bottom: "ip1"
  top: "ip1"
  dropout_param {
    dropout_ratio: 0.5
  }
}
layer {
  name: "ip2"
  type: "InnerProduct"
  bottom: "ip1"
  top: "ip2"
  inner_product_param {
    num_output: 98
    weight_filler {
      type: "xavier"
    }
    bias_filler {
      type: "constant"
    }
  }
}
layer {
  name: "relu6"
  type: "ReLU"
  bottom: "ip2"
  top: "ip2"
}
layer {
  name: "drop2"
  type: "Dropout"
  bottom: "ip2"
  top: "ip2"
  dropout_param {
    dropout_ratio: 0.5
  }
}
layer {
  name: "ip3"
  type: "InnerProduct"
  bottom: "ip2"
  top: "ip3"
  inner_product_param {
    num_output: 11
    weight_filler {
      type: "xavier"
    }
    bias_filler {
      type: "constant"
    }
  }
}
layer {
  name: "drop3"
  type: "Dropout"
  bottom: "ip3"
  top: "ip3"
  dropout_param {
    dropout_ratio: 0.5
  }
}
layer {
  name: "loss"
  type: "SoftmaxWithLoss"
  bottom: "ip3"
  bottom: "label"
  top: "loss"
}
I0520 13:50:14.887915 26529 layer_factory.hpp:77] Creating layer data_hdf5
I0520 13:50:14.887945 26529 net.cpp:106] Creating Layer data_hdf5
I0520 13:50:14.887970 26529 net.cpp:411] data_hdf5 -> data
I0520 13:50:14.888003 26529 net.cpp:411] data_hdf5 -> label
I0520 13:50:14.888046 26529 hdf5_data_layer.cpp:79] Loading list of HDF5 filenames from: /lustre/atlas/proj-shared/hep105/caffe_titan/minosmatch_nukecczdefs_127x50_x_unshifted_me1Bmc.trainlist
I0520 13:50:14.902586 26529 hdf5_data_layer.cpp:93] Number of HDF5 files: 15
I0520 13:50:14.904789 26529 hdf5.cpp:32] Datatype class: H5T_FLOAT
I0520 13:50:36.390321 26529 hdf5.cpp:35] Datatype class: H5T_INTEGER
I0520 13:50:36.395447 26529 net.cpp:150] Setting up data_hdf5
I0520 13:50:36.395486 26529 net.cpp:157] Top shape: 100 1 127 50 (635000)
I0520 13:50:36.395504 26529 net.cpp:157] Top shape: 100 (100)
I0520 13:50:36.395517 26529 net.cpp:165] Memory required for data: 2540400
I0520 13:50:36.395536 26529 layer_factory.hpp:77] Creating layer conv1
I0520 13:50:36.395582 26529 net.cpp:106] Creating Layer conv1
I0520 13:50:36.395596 26529 net.cpp:454] conv1 <- data
I0520 13:50:36.395622 26529 net.cpp:411] conv1 -> conv1
I0520 13:50:37.112918 26529 net.cpp:150] Setting up conv1
I0520 13:50:37.112974 26529 net.cpp:157] Top shape: 100 12 120 48 (6912000)
I0520 13:50:37.112998 26529 net.cpp:165] Memory required for data: 30188400
I0520 13:50:37.113029 26529 layer_factory.hpp:77] Creating layer relu1
I0520 13:50:37.113050 26529 net.cpp:106] Creating Layer relu1
I0520 13:50:37.113070 26529 net.cpp:454] relu1 <- conv1
I0520 13:50:37.113106 26529 net.cpp:397] relu1 -> conv1 (in-place)
I0520 13:50:37.113643 26529 net.cpp:150] Setting up relu1
I0520 13:50:37.113667 26529 net.cpp:157] Top shape: 100 12 120 48 (6912000)
I0520 13:50:37.113679 26529 net.cpp:165] Memory required for data: 57836400
I0520 13:50:37.113697 26529 layer_factory.hpp:77] Creating layer pool1
I0520 13:50:37.113724 26529 net.cpp:106] Creating Layer pool1
I0520 13:50:37.113739 26529 net.cpp:454] pool1 <- conv1
I0520 13:50:37.113754 26529 net.cpp:411] pool1 -> pool1
I0520 13:50:37.113848 26529 net.cpp:150] Setting up pool1
I0520 13:50:37.113867 26529 net.cpp:157] Top shape: 100 12 60 48 (3456000)
I0520 13:50:37.113888 26529 net.cpp:165] Memory required for data: 71660400
I0520 13:50:37.113903 26529 layer_factory.hpp:77] Creating layer conv2
I0520 13:50:37.113927 26529 net.cpp:106] Creating Layer conv2
I0520 13:50:37.113940 26529 net.cpp:454] conv2 <- pool1
I0520 13:50:37.113955 26529 net.cpp:411] conv2 -> conv2
I0520 13:50:37.116708 26529 net.cpp:150] Setting up conv2
I0520 13:50:37.116742 26529 net.cpp:157] Top shape: 100 20 54 46 (4968000)
I0520 13:50:37.116756 26529 net.cpp:165] Memory required for data: 91532400
I0520 13:50:37.116785 26529 layer_factory.hpp:77] Creating layer relu2
I0520 13:50:37.116812 26529 net.cpp:106] Creating Layer relu2
I0520 13:50:37.116827 26529 net.cpp:454] relu2 <- conv2
I0520 13:50:37.116842 26529 net.cpp:397] relu2 -> conv2 (in-place)
I0520 13:50:37.117207 26529 net.cpp:150] Setting up relu2
I0520 13:50:37.117226 26529 net.cpp:157] Top shape: 100 20 54 46 (4968000)
I0520 13:50:37.117239 26529 net.cpp:165] Memory required for data: 111404400
I0520 13:50:37.117255 26529 layer_factory.hpp:77] Creating layer pool2
I0520 13:50:37.117277 26529 net.cpp:106] Creating Layer pool2
I0520 13:50:37.117291 26529 net.cpp:454] pool2 <- conv2
I0520 13:50:37.117326 26529 net.cpp:411] pool2 -> pool2
I0520 13:50:37.117409 26529 net.cpp:150] Setting up pool2
I0520 13:50:37.117434 26529 net.cpp:157] Top shape: 100 20 27 46 (2484000)
I0520 13:50:37.117446 26529 net.cpp:165] Memory required for data: 121340400
I0520 13:50:37.117458 26529 layer_factory.hpp:77] Creating layer conv3
I0520 13:50:37.117487 26529 net.cpp:106] Creating Layer conv3
I0520 13:50:37.117501 26529 net.cpp:454] conv3 <- pool2
I0520 13:50:37.117517 26529 net.cpp:411] conv3 -> conv3
I0520 13:50:37.119469 26529 net.cpp:150] Setting up conv3
I0520 13:50:37.119494 26529 net.cpp:157] Top shape: 100 28 22 44 (2710400)
I0520 13:50:37.119515 26529 net.cpp:165] Memory required for data: 132182000
I0520 13:50:37.119539 26529 layer_factory.hpp:77] Creating layer relu3
I0520 13:50:37.119560 26529 net.cpp:106] Creating Layer relu3
I0520 13:50:37.119582 26529 net.cpp:454] relu3 <- conv3
I0520 13:50:37.119598 26529 net.cpp:397] relu3 -> conv3 (in-place)
I0520 13:50:37.120085 26529 net.cpp:150] Setting up relu3
I0520 13:50:37.120110 26529 net.cpp:157] Top shape: 100 28 22 44 (2710400)
I0520 13:50:37.120122 26529 net.cpp:165] Memory required for data: 143023600
I0520 13:50:37.120138 26529 layer_factory.hpp:77] Creating layer pool3
I0520 13:50:37.120153 26529 net.cpp:106] Creating Layer pool3
I0520 13:50:37.120175 26529 net.cpp:454] pool3 <- conv3
I0520 13:50:37.120192 26529 net.cpp:411] pool3 -> pool3
I0520 13:50:37.120272 26529 net.cpp:150] Setting up pool3
I0520 13:50:37.120290 26529 net.cpp:157] Top shape: 100 28 11 44 (1355200)
I0520 13:50:37.120306 26529 net.cpp:165] Memory required for data: 148444400
I0520 13:50:37.120317 26529 layer_factory.hpp:77] Creating layer conv4
I0520 13:50:37.120344 26529 net.cpp:106] Creating Layer conv4
I0520 13:50:37.120357 26529 net.cpp:454] conv4 <- pool3
I0520 13:50:37.120373 26529 net.cpp:411] conv4 -> conv4
I0520 13:50:37.123365 26529 net.cpp:150] Setting up conv4
I0520 13:50:37.123400 26529 net.cpp:157] Top shape: 100 36 6 42 (907200)
I0520 13:50:37.123414 26529 net.cpp:165] Memory required for data: 152073200
I0520 13:50:37.123438 26529 layer_factory.hpp:77] Creating layer relu4
I0520 13:50:37.123456 26529 net.cpp:106] Creating Layer relu4
I0520 13:50:37.123481 26529 net.cpp:454] relu4 <- conv4
I0520 13:50:37.123498 26529 net.cpp:397] relu4 -> conv4 (in-place)
I0520 13:50:37.123987 26529 net.cpp:150] Setting up relu4
I0520 13:50:37.124011 26529 net.cpp:157] Top shape: 100 36 6 42 (907200)
I0520 13:50:37.124023 26529 net.cpp:165] Memory required for data: 155702000
I0520 13:50:37.124039 26529 layer_factory.hpp:77] Creating layer pool4
I0520 13:50:37.124055 26529 net.cpp:106] Creating Layer pool4
I0520 13:50:37.124068 26529 net.cpp:454] pool4 <- conv4
I0520 13:50:37.124092 26529 net.cpp:411] pool4 -> pool4
I0520 13:50:37.124176 26529 net.cpp:150] Setting up pool4
I0520 13:50:37.124193 26529 net.cpp:157] Top shape: 100 36 3 42 (453600)
I0520 13:50:37.124208 26529 net.cpp:165] Memory required for data: 157516400
I0520 13:50:37.124220 26529 layer_factory.hpp:77] Creating layer ip1
I0520 13:50:37.124248 26529 net.cpp:106] Creating Layer ip1
I0520 13:50:37.124261 26529 net.cpp:454] ip1 <- pool4
I0520 13:50:37.124277 26529 net.cpp:411] ip1 -> ip1
I0520 13:50:37.139737 26529 net.cpp:150] Setting up ip1
I0520 13:50:37.139768 26529 net.cpp:157] Top shape: 100 196 (19600)
I0520 13:50:37.139789 26529 net.cpp:165] Memory required for data: 157594800
I0520 13:50:37.139816 26529 layer_factory.hpp:77] Creating layer relu5
I0520 13:50:37.139837 26529 net.cpp:106] Creating Layer relu5
I0520 13:50:37.139850 26529 net.cpp:454] relu5 <- ip1
I0520 13:50:37.139879 26529 net.cpp:397] relu5 -> ip1 (in-place)
I0520 13:50:37.140236 26529 net.cpp:150] Setting up relu5
I0520 13:50:37.140257 26529 net.cpp:157] Top shape: 100 196 (19600)
I0520 13:50:37.140270 26529 net.cpp:165] Memory required for data: 157673200
I0520 13:50:37.140285 26529 layer_factory.hpp:77] Creating layer drop1
I0520 13:50:37.140316 26529 net.cpp:106] Creating Layer drop1
I0520 13:50:37.140331 26529 net.cpp:454] drop1 <- ip1
I0520 13:50:37.140359 26529 net.cpp:397] drop1 -> ip1 (in-place)
I0520 13:50:37.140418 26529 net.cpp:150] Setting up drop1
I0520 13:50:37.140439 26529 net.cpp:157] Top shape: 100 196 (19600)
I0520 13:50:37.140452 26529 net.cpp:165] Memory required for data: 157751600
I0520 13:50:37.140465 26529 layer_factory.hpp:77] Creating layer ip2
I0520 13:50:37.140496 26529 net.cpp:106] Creating Layer ip2
I0520 13:50:37.140509 26529 net.cpp:454] ip2 <- ip1
I0520 13:50:37.140525 26529 net.cpp:411] ip2 -> ip2
I0520 13:50:37.141016 26529 net.cpp:150] Setting up ip2
I0520 13:50:37.141034 26529 net.cpp:157] Top shape: 100 98 (9800)
I0520 13:50:37.141047 26529 net.cpp:165] Memory required for data: 157790800
I0520 13:50:37.141067 26529 layer_factory.hpp:77] Creating layer relu6
I0520 13:50:37.141083 26529 net.cpp:106] Creating Layer relu6
I0520 13:50:37.141101 26529 net.cpp:454] relu6 <- ip2
I0520 13:50:37.141118 26529 net.cpp:397] relu6 -> ip2 (in-place)
I0520 13:50:37.141676 26529 net.cpp:150] Setting up relu6
I0520 13:50:37.141700 26529 net.cpp:157] Top shape: 100 98 (9800)
I0520 13:50:37.141713 26529 net.cpp:165] Memory required for data: 157830000
I0520 13:50:37.141729 26529 layer_factory.hpp:77] Creating layer drop2
I0520 13:50:37.141746 26529 net.cpp:106] Creating Layer drop2
I0520 13:50:37.141765 26529 net.cpp:454] drop2 <- ip2
I0520 13:50:37.141782 26529 net.cpp:397] drop2 -> ip2 (in-place)
I0520 13:50:37.141831 26529 net.cpp:150] Setting up drop2
I0520 13:50:37.141854 26529 net.cpp:157] Top shape: 100 98 (9800)
I0520 13:50:37.141866 26529 net.cpp:165] Memory required for data: 157869200
I0520 13:50:37.141880 26529 layer_factory.hpp:77] Creating layer ip3
I0520 13:50:37.141898 26529 net.cpp:106] Creating Layer ip3
I0520 13:50:37.141911 26529 net.cpp:454] ip3 <- ip2
I0520 13:50:37.141933 26529 net.cpp:411] ip3 -> ip3
I0520 13:50:37.142158 26529 net.cpp:150] Setting up ip3
I0520 13:50:37.142177 26529 net.cpp:157] Top shape: 100 11 (1100)
I0520 13:50:37.142189 26529 net.cpp:165] Memory required for data: 157873600
I0520 13:50:37.142210 26529 layer_factory.hpp:77] Creating layer drop3
I0520 13:50:37.142231 26529 net.cpp:106] Creating Layer drop3
I0520 13:50:37.142246 26529 net.cpp:454] drop3 <- ip3
I0520 13:50:37.142261 26529 net.cpp:397] drop3 -> ip3 (in-place)
I0520 13:50:37.142307 26529 net.cpp:150] Setting up drop3
I0520 13:50:37.142329 26529 net.cpp:157] Top shape: 100 11 (1100)
I0520 13:50:37.142343 26529 net.cpp:165] Memory required for data: 157878000
I0520 13:50:37.142360 26529 layer_factory.hpp:77] Creating layer loss
I0520 13:50:37.142382 26529 net.cpp:106] Creating Layer loss
I0520 13:50:37.142397 26529 net.cpp:454] loss <- ip3
I0520 13:50:37.142410 26529 net.cpp:454] loss <- label
I0520 13:50:37.142432 26529 net.cpp:411] loss -> loss
I0520 13:50:37.142452 26529 layer_factory.hpp:77] Creating layer loss
…
I0520 13:50:37.145201 26529 solver.cpp:181] Creating test net (#0) specified by net file: /lustre/atlas/proj-shared/hep105/caffe_titan/caffe_workflow/logs_batch_size_test/batch_size_100_2016-05-20T11.20.36.317441.prototxt
I0520 13:50:37.145280 26529 net.cpp:322] The NetState phase (1) differed from the phase (0) specified by a rule in layer data_hdf5
I0520 13:50:37.145658 26529 net.cpp:49] Initializing net from parameters: 
name: "caffe_test_127x50_x_unshifted"
state {
  phase: TEST
}
layer {
  name: "data_hdf5"
  type: "HDF5Data"
  top: "data"
  top: "label"
  include {
    phase: TEST
  }
  hdf5_data_param {
    source: "/lustre/atlas/proj-shared/hep105/caffe_titan/minosmatch_nukecczdefs_127x50_x_unshifted_me1Bmc.testlist"
    batch_size: 100
  }
}
layer {
  name: "conv1"
  type: "Convolution"
  bottom: "data"
  top: "conv1"
  convolution_param {
    num_output: 12
    pad: 0
    stride: 1
    weight_filler {
      type: "xavier"
    }
    bias_filler {
      type: "constant"
    }
    kernel_h: 8
    kernel_w: 3
  }
}
layer {
  name: "relu1"
  type: "ReLU"
  bottom: "conv1"
  top: "conv1"
}
layer {
  name: "pool1"
  type: "Pooling"
  bottom: "conv1"
  top: "pool1"
  pooling_param {
    pool: MAX
    kernel_h: 2
    kernel_w: 1
    stride_h: 2
    stride_w: 1
  }
}
layer {
  name: "conv2"
  type: "Convolution"
  bottom: "pool1"
  top: "conv2"
  convolution_param {
    num_output: 20
    pad: 0
    stride: 1
    weight_filler {
      type: "xavier"
    }
    bias_filler {
      type: "constant"
    }
    kernel_h: 7
    kernel_w: 3
  }
}
layer {
  name: "relu2"
  type: "ReLU"
  bottom: "conv2"
  top: "conv2"
}
layer {
  name: "pool2"
  type: "Pooling"
  bottom: "conv2"
  top: "pool2"
  pooling_param {
    pool: MAX
    kernel_h: 2
    kernel_w: 1
    stride_h: 2
    stride_w: 1
  }
}
layer {
  name: "conv3"
  type: "Convolution"
  bottom: "pool2"
  top: "conv3"
  convolution_param {
    num_output: 28
    pad: 0
    stride: 1
    weight_filler {
      type: "xavier"
    }
    bias_filler {
      type: "constant"
    }
    kernel_h: 6
    kernel_w: 3
  }
}
layer {
  name: "relu3"
  type: "ReLU"
  bottom: "conv3"
  top: "conv3"
}
layer {
  name: "pool3"
  type: "Pooling"
  bottom: "conv3"
  top: "pool3"
  pooling_param {
    pool: MAX
    kernel_h: 2
    kernel_w: 1
    stride_h: 2
    stride_w: 1
  }
}
layer {
  name: "conv4"
  type: "Convolution"
  bottom: "pool3"
  top: "conv4"
  convolution_param {
    num_output: 36
    pad: 0
    stride: 1
    weight_filler {
      type: "xavier"
    }
    bias_filler {
      type: "constant"
    }
    kernel_h: 6
    kernel_w: 3
  }
}
layer {
  name: "relu4"
  type: "ReLU"
  bottom: "conv4"
  top: "conv4"
}
layer {
  name: "pool4"
  type: "Pooling"
  bottom: "conv4"
  top: "pool4"
  pooling_param {
    pool: MAX
    kernel_h: 2
    kernel_w: 1
    stride_h: 2
    stride_w: 1
  }
}
layer {
  name: "ip1"
  type: "InnerProduct"
  bottom: "pool4"
  top: "ip1"
  inner_product_param {
    num_output: 196
    weight_filler {
      type: "xavier"
    }
    bias_filler {
      type: "constant"
    }
  }
}
layer {
  name: "relu5"
  type: "ReLU"
  bottom: "ip1"
  top: "ip1"
}
layer {
  name: "drop1"
  type: "Dropout"
  bottom: "ip1"
  top: "ip1"
  dropout_param {
    dropout_ratio: 0.5
  }
}
layer {
  name: "ip2"
  type: "InnerProduct"
  bottom: "ip1"
  top: "ip2"
  inner_product_param {
    num_output: 98
    weight_filler {
      type: "xavier"
    }
    bias_filler {
      type: "constant"
    }
  }
}
layer {
  name: "relu6"
  type: "ReLU"
  bottom: "ip2"
  top: "ip2"
}
layer {
  name: "drop2"
  type: "Dropout"
  bottom: "ip2"
  top: "ip2"
  dropout_param {
    dropout_ratio: 0.5
  }
}
layer {
  name: "ip3"
  type: "InnerProduct"
  bottom: "ip2"
  top: "ip3"
  inner_product_param {
    num_output: 11
    weight_filler {
      type: "xavier"
    }
    bias_filler {
      type: "constant"
    }
  }
}
layer {
  name: "drop3"
  type: "Dropout"
  bottom: "ip3"
  top: "ip3"
  dropout_param {
    dropout_ratio: 0.5
  }
}
layer {
  name: "accuracy"
  type: "Accuracy"
  bottom: "ip3"
  bottom: "label"
  top: "accuracy"
  include {
    phase: TEST
  }
}
layer {
  name: "loss"
  type: "SoftmaxWithLoss"
  bottom: "ip3"
  bottom: "label"
  top: "loss"
}
I0520 13:50:37.145880 26529 layer_factory.hpp:77] Creating layer data_hdf5
I0520 13:50:37.145900 26529 net.cpp:106] Creating Layer data_hdf5
I0520 13:50:37.145915 26529 net.cpp:411] data_hdf5 -> data
I0520 13:50:37.145937 26529 net.cpp:411] data_hdf5 -> label
I0520 13:50:37.145958 26529 hdf5_data_layer.cpp:79] Loading list of HDF5 filenames from: /lustre/atlas/proj-shared/hep105/caffe_titan/minosmatch_nukecczdefs_127x50_x_unshifted_me1Bmc.testlist
I0520 13:50:37.147264 26529 hdf5_data_layer.cpp:93] Number of HDF5 files: 3
I0520 13:50:58.481556 26529 net.cpp:150] Setting up data_hdf5
I0520 13:50:58.481726 26529 net.cpp:157] Top shape: 100 1 127 50 (635000)
I0520 13:50:58.481745 26529 net.cpp:157] Top shape: 100 (100)
I0520 13:50:58.481758 26529 net.cpp:165] Memory required for data: 2540400
I0520 13:50:58.481773 26529 layer_factory.hpp:77] Creating layer label_data_hdf5_1_split
I0520 13:50:58.481806 26529 net.cpp:106] Creating Layer label_data_hdf5_1_split
I0520 13:50:58.481839 26529 net.cpp:454] label_data_hdf5_1_split <- label
I0520 13:50:58.481856 26529 net.cpp:411] label_data_hdf5_1_split -> label_data_hdf5_1_split_0
I0520 13:50:58.481879 26529 net.cpp:411] label_data_hdf5_1_split -> label_data_hdf5_1_split_1
I0520 13:50:58.481966 26529 net.cpp:150] Setting up label_data_hdf5_1_split
I0520 13:50:58.481983 26529 net.cpp:157] Top shape: 100 (100)
I0520 13:50:58.481997 26529 net.cpp:157] Top shape: 100 (100)
I0520 13:50:58.482010 26529 net.cpp:165] Memory required for data: 2541200
I0520 13:50:58.482023 26529 layer_factory.hpp:77] Creating layer conv1
I0520 13:50:58.482054 26529 net.cpp:106] Creating Layer conv1
I0520 13:50:58.482069 26529 net.cpp:454] conv1 <- data
I0520 13:50:58.482086 26529 net.cpp:411] conv1 -> conv1
I0520 13:50:58.484048 26529 net.cpp:150] Setting up conv1
I0520 13:50:58.484074 26529 net.cpp:157] Top shape: 100 12 120 48 (6912000)
I0520 13:50:58.484096 26529 net.cpp:165] Memory required for data: 30189200
I0520 13:50:58.484119 26529 layer_factory.hpp:77] Creating layer relu1
I0520 13:50:58.484140 26529 net.cpp:106] Creating Layer relu1
I0520 13:50:58.484163 26529 net.cpp:454] relu1 <- conv1
I0520 13:50:58.484179 26529 net.cpp:397] relu1 -> conv1 (in-place)
I0520 13:50:58.484693 26529 net.cpp:150] Setting up relu1
I0520 13:50:58.484715 26529 net.cpp:157] Top shape: 100 12 120 48 (6912000)
I0520 13:50:58.484729 26529 net.cpp:165] Memory required for data: 57837200
I0520 13:50:58.484740 26529 layer_factory.hpp:77] Creating layer pool1
I0520 13:50:58.484762 26529 net.cpp:106] Creating Layer pool1
I0520 13:50:58.484777 26529 net.cpp:454] pool1 <- conv1
I0520 13:50:58.484793 26529 net.cpp:411] pool1 -> pool1
I0520 13:50:58.484891 26529 net.cpp:150] Setting up pool1
I0520 13:50:58.484908 26529 net.cpp:157] Top shape: 100 12 60 48 (3456000)
I0520 13:50:58.484923 26529 net.cpp:165] Memory required for data: 71661200
I0520 13:50:58.484941 26529 layer_factory.hpp:77] Creating layer conv2
I0520 13:50:58.484962 26529 net.cpp:106] Creating Layer conv2
I0520 13:50:58.484975 26529 net.cpp:454] conv2 <- pool1
I0520 13:50:58.484992 26529 net.cpp:411] conv2 -> conv2
I0520 13:50:58.486946 26529 net.cpp:150] Setting up conv2
I0520 13:50:58.486970 26529 net.cpp:157] Top shape: 100 20 54 46 (4968000)
I0520 13:50:58.486991 26529 net.cpp:165] Memory required for data: 91533200
I0520 13:50:58.487012 26529 layer_factory.hpp:77] Creating layer relu2
I0520 13:50:58.487032 26529 net.cpp:106] Creating Layer relu2
I0520 13:50:58.487054 26529 net.cpp:454] relu2 <- conv2
I0520 13:50:58.487071 26529 net.cpp:397] relu2 -> conv2 (in-place)
I0520 13:50:58.487421 26529 net.cpp:150] Setting up relu2
I0520 13:50:58.487440 26529 net.cpp:157] Top shape: 100 20 54 46 (4968000)
I0520 13:50:58.487453 26529 net.cpp:165] Memory required for data: 111405200
I0520 13:50:58.487465 26529 layer_factory.hpp:77] Creating layer pool2
I0520 13:50:58.487484 26529 net.cpp:106] Creating Layer pool2
I0520 13:50:58.487504 26529 net.cpp:454] pool2 <- conv2
I0520 13:50:58.487520 26529 net.cpp:411] pool2 -> pool2
I0520 13:50:58.487612 26529 net.cpp:150] Setting up pool2
I0520 13:50:58.487629 26529 net.cpp:157] Top shape: 100 20 27 46 (2484000)
I0520 13:50:58.487643 26529 net.cpp:165] Memory required for data: 121341200
I0520 13:50:58.487655 26529 layer_factory.hpp:77] Creating layer conv3
I0520 13:50:58.487680 26529 net.cpp:106] Creating Layer conv3
I0520 13:50:58.487694 26529 net.cpp:454] conv3 <- pool2
I0520 13:50:58.487718 26529 net.cpp:411] conv3 -> conv3
I0520 13:50:58.489749 26529 net.cpp:150] Setting up conv3
I0520 13:50:58.489775 26529 net.cpp:157] Top shape: 100 28 22 44 (2710400)
I0520 13:50:58.489789 26529 net.cpp:165] Memory required for data: 132182800
I0520 13:50:58.489827 26529 layer_factory.hpp:77] Creating layer relu3
I0520 13:50:58.489845 26529 net.cpp:106] Creating Layer relu3
I0520 13:50:58.489857 26529 net.cpp:454] relu3 <- conv3
I0520 13:50:58.489872 26529 net.cpp:397] relu3 -> conv3 (in-place)
I0520 13:50:58.490370 26529 net.cpp:150] Setting up relu3
I0520 13:50:58.490393 26529 net.cpp:157] Top shape: 100 28 22 44 (2710400)
I0520 13:50:58.490406 26529 net.cpp:165] Memory required for data: 143024400
I0520 13:50:58.490418 26529 layer_factory.hpp:77] Creating layer pool3
I0520 13:50:58.490434 26529 net.cpp:106] Creating Layer pool3
I0520 13:50:58.490448 26529 net.cpp:454] pool3 <- conv3
I0520 13:50:58.490464 26529 net.cpp:411] pool3 -> pool3
I0520 13:50:58.490547 26529 net.cpp:150] Setting up pool3
I0520 13:50:58.490564 26529 net.cpp:157] Top shape: 100 28 11 44 (1355200)
I0520 13:50:58.490576 26529 net.cpp:165] Memory required for data: 148445200
I0520 13:50:58.490589 26529 layer_factory.hpp:77] Creating layer conv4
I0520 13:50:58.490609 26529 net.cpp:106] Creating Layer conv4
I0520 13:50:58.490622 26529 net.cpp:454] conv4 <- pool3
I0520 13:50:58.490638 26529 net.cpp:411] conv4 -> conv4
I0520 13:50:58.492751 26529 net.cpp:150] Setting up conv4
I0520 13:50:58.492775 26529 net.cpp:157] Top shape: 100 36 6 42 (907200)
I0520 13:50:58.492795 26529 net.cpp:165] Memory required for data: 152074000
I0520 13:50:58.492815 26529 layer_factory.hpp:77] Creating layer relu4
I0520 13:50:58.492835 26529 net.cpp:106] Creating Layer relu4
I0520 13:50:58.492846 26529 net.cpp:454] relu4 <- conv4
I0520 13:50:58.492861 26529 net.cpp:397] relu4 -> conv4 (in-place)
I0520 13:50:58.493367 26529 net.cpp:150] Setting up relu4
I0520 13:50:58.493391 26529 net.cpp:157] Top shape: 100 36 6 42 (907200)
I0520 13:50:58.493405 26529 net.cpp:165] Memory required for data: 155702800
I0520 13:50:58.493417 26529 layer_factory.hpp:77] Creating layer pool4
I0520 13:50:58.493437 26529 net.cpp:106] Creating Layer pool4
I0520 13:50:58.493449 26529 net.cpp:454] pool4 <- conv4
I0520 13:50:58.493474 26529 net.cpp:411] pool4 -> pool4
I0520 13:50:58.493567 26529 net.cpp:150] Setting up pool4
I0520 13:50:58.493584 26529 net.cpp:157] Top shape: 100 36 3 42 (453600)
I0520 13:50:58.493598 26529 net.cpp:165] Memory required for data: 157517200
I0520 13:50:58.493610 26529 layer_factory.hpp:77] Creating layer ip1
I0520 13:50:58.493631 26529 net.cpp:106] Creating Layer ip1
I0520 13:50:58.493644 26529 net.cpp:454] ip1 <- pool4
I0520 13:50:58.493660 26529 net.cpp:411] ip1 -> ip1
I0520 13:50:58.509078 26529 net.cpp:150] Setting up ip1
I0520 13:50:58.509109 26529 net.cpp:157] Top shape: 100 196 (19600)
I0520 13:50:58.509131 26529 net.cpp:165] Memory required for data: 157595600
I0520 13:50:58.509162 26529 layer_factory.hpp:77] Creating layer relu5
I0520 13:50:58.509184 26529 net.cpp:106] Creating Layer relu5
I0520 13:50:58.509209 26529 net.cpp:454] relu5 <- ip1
I0520 13:50:58.509225 26529 net.cpp:397] relu5 -> ip1 (in-place)
I0520 13:50:58.509591 26529 net.cpp:150] Setting up relu5
I0520 13:50:58.509613 26529 net.cpp:157] Top shape: 100 196 (19600)
I0520 13:50:58.509625 26529 net.cpp:165] Memory required for data: 157674000
I0520 13:50:58.509641 26529 layer_factory.hpp:77] Creating layer drop1
I0520 13:50:58.509670 26529 net.cpp:106] Creating Layer drop1
I0520 13:50:58.509685 26529 net.cpp:454] drop1 <- ip1
I0520 13:50:58.509708 26529 net.cpp:397] drop1 -> ip1 (in-place)
I0520 13:50:58.509759 26529 net.cpp:150] Setting up drop1
I0520 13:50:58.509783 26529 net.cpp:157] Top shape: 100 196 (19600)
I0520 13:50:58.509794 26529 net.cpp:165] Memory required for data: 157752400
I0520 13:50:58.509807 26529 layer_factory.hpp:77] Creating layer ip2
I0520 13:50:58.509824 26529 net.cpp:106] Creating Layer ip2
I0520 13:50:58.509840 26529 net.cpp:454] ip2 <- ip1
I0520 13:50:58.509863 26529 net.cpp:411] ip2 -> ip2
I0520 13:50:58.510357 26529 net.cpp:150] Setting up ip2
I0520 13:50:58.510376 26529 net.cpp:157] Top shape: 100 98 (9800)
I0520 13:50:58.510390 26529 net.cpp:165] Memory required for data: 157791600
I0520 13:50:58.510411 26529 layer_factory.hpp:77] Creating layer relu6
I0520 13:50:58.510447 26529 net.cpp:106] Creating Layer relu6
I0520 13:50:58.510460 26529 net.cpp:454] relu6 <- ip2
I0520 13:50:58.510476 26529 net.cpp:397] relu6 -> ip2 (in-place)
I0520 13:50:58.511037 26529 net.cpp:150] Setting up relu6
I0520 13:50:58.511060 26529 net.cpp:157] Top shape: 100 98 (9800)
I0520 13:50:58.511073 26529 net.cpp:165] Memory required for data: 157830800
I0520 13:50:58.511086 26529 layer_factory.hpp:77] Creating layer drop2
I0520 13:50:58.511106 26529 net.cpp:106] Creating Layer drop2
I0520 13:50:58.511128 26529 net.cpp:454] drop2 <- ip2
I0520 13:50:58.511144 26529 net.cpp:397] drop2 -> ip2 (in-place)
I0520 13:50:58.511196 26529 net.cpp:150] Setting up drop2
I0520 13:50:58.511219 26529 net.cpp:157] Top shape: 100 98 (9800)
I0520 13:50:58.511231 26529 net.cpp:165] Memory required for data: 157870000
I0520 13:50:58.511250 26529 layer_factory.hpp:77] Creating layer ip3
I0520 13:50:58.511267 26529 net.cpp:106] Creating Layer ip3
I0520 13:50:58.511281 26529 net.cpp:454] ip3 <- ip2
I0520 13:50:58.511298 26529 net.cpp:411] ip3 -> ip3
I0520 13:50:58.511543 26529 net.cpp:150] Setting up ip3
I0520 13:50:58.511562 26529 net.cpp:157] Top shape: 100 11 (1100)
I0520 13:50:58.511575 26529 net.cpp:165] Memory required for data: 157874400
I0520 13:50:58.511596 26529 layer_factory.hpp:77] Creating layer drop3
I0520 13:50:58.511612 26529 net.cpp:106] Creating Layer drop3
I0520 13:50:58.511632 26529 net.cpp:454] drop3 <- ip3
I0520 13:50:58.511648 26529 net.cpp:397] drop3 -> ip3 (in-place)
I0520 13:50:58.511696 26529 net.cpp:150] Setting up drop3
I0520 13:50:58.511720 26529 net.cpp:157] Top shape: 100 11 (1100)
I0520 13:50:58.511732 26529 net.cpp:165] Memory required for data: 157878800
I0520 13:50:58.511745 26529 layer_factory.hpp:77] Creating layer ip3_drop3_0_split
I0520 13:50:58.511761 26529 net.cpp:106] Creating Layer ip3_drop3_0_split
I0520 13:50:58.511775 26529 net.cpp:454] ip3_drop3_0_split <- ip3
I0520 13:50:58.511791 26529 net.cpp:411] ip3_drop3_0_split -> ip3_drop3_0_split_0
I0520 13:50:58.511816 26529 net.cpp:411] ip3_drop3_0_split -> ip3_drop3_0_split_1
I0520 13:50:58.511905 26529 net.cpp:150] Setting up ip3_drop3_0_split
I0520 13:50:58.511927 26529 net.cpp:157] Top shape: 100 11 (1100)
I0520 13:50:58.511943 26529 net.cpp:157] Top shape: 100 11 (1100)
I0520 13:50:58.511957 26529 net.cpp:165] Memory required for data: 157887600
I0520 13:50:58.511970 26529 layer_factory.hpp:77] Creating layer accuracy
I0520 13:50:58.511998 26529 net.cpp:106] Creating Layer accuracy
I0520 13:50:58.512012 26529 net.cpp:454] accuracy <- ip3_drop3_0_split_0
I0520 13:50:58.512025 26529 net.cpp:454] accuracy <- label_data_hdf5_1_split_0
I0520 13:50:58.512042 26529 net.cpp:411] accuracy -> accuracy
…
