…
I0519 16:18:11.236940 22864 net.cpp:322] The NetState phase (0) differed from the phase (1) specified by a rule in layer data_hdf5
I0519 16:18:11.237004 22864 net.cpp:322] The NetState phase (0) differed from the phase (1) specified by a rule in layer accuracy
I0519 16:18:11.237383 22864 net.cpp:49] Initializing net from parameters: 
name: "caffe_test_127x50_x_unshifted"
state {
  phase: TRAIN
}
layer {
  name: "data_hdf5"
  type: "HDF5Data"
  top: "data"
  top: "label"
  include {
    phase: TRAIN
  }
  hdf5_data_param {
    source: "/lustre/atlas/proj-shared/hep105/caffe_titan/minosmatch_nukecczdefs_127x50_x_unshifted_me1Bmc.trainlist"
    batch_size: 100
  }
}
layer {
  name: "conv1"
  type: "Convolution"
  bottom: "data"
  top: "conv1"
  convolution_param {
    num_output: 12
    pad: 0
    stride: 1
    weight_filler {
      type: "xavier"
    }
    bias_filler {
      type: "constant"
    }
    kernel_h: 8
    kernel_w: 3
  }
}
layer {
  name: "relu1"
  type: "ReLU"
  bottom: "conv1"
  top: "conv1"
}
layer {
  name: "pool1"
  type: "Pooling"
  bottom: "conv1"
  top: "pool1"
  pooling_param {
    pool: MAX
    kernel_h: 2
    kernel_w: 1
    stride_h: 2
    stride_w: 1
  }
}
layer {
  name: "conv2"
  type: "Convolution"
  bottom: "pool1"
  top: "conv2"
  convolution_param {
    num_output: 20
    pad: 0
    stride: 1
    weight_filler {
      type: "xavier"
    }
    bias_filler {
      type: "constant"
    }
    kernel_h: 7
    kernel_w: 3
  }
}
layer {
  name: "relu2"
  type: "ReLU"
  bottom: "conv2"
  top: "conv2"
}
layer {
  name: "pool2"
  type: "Pooling"
  bottom: "conv2"
  top: "pool2"
  pooling_param {
    pool: MAX
    kernel_h: 2
    kernel_w: 1
    stride_h: 2
    stride_w: 1
  }
}
layer {
  name: "conv3"
  type: "Convolution"
  bottom: "pool2"
  top: "conv3"
  convolution_param {
    num_output: 28
    pad: 0
    stride: 1
    weight_filler {
      type: "xavier"
    }
    bias_filler {
      type: "constant"
    }
    kernel_h: 6
    kernel_w: 3
  }
}
layer {
  name: "relu3"
  type: "ReLU"
  bottom: "conv3"
  top: "conv3"
}
layer {
  name: "pool3"
  type: "Pooling"
  bottom: "conv3"
  top: "pool3"
  pooling_param {
    pool: MAX
    kernel_h: 2
    kernel_w: 1
    stride_h: 2
    stride_w: 1
  }
}
layer {
  name: "conv4"
  type: "Convolution"
  bottom: "pool3"
  top: "conv4"
  convolution_param {
    num_output: 36
    pad: 0
    stride: 1
    weight_filler {
      type: "xavier"
    }
    bias_filler {
      type: "constant"
    }
    kernel_h: 6
    kernel_w: 3
  }
}
layer {
  name: "relu4"
  type: "ReLU"
  bottom: "conv4"
  top: "conv4"
}
layer {
  name: "pool4"
  type: "Pooling"
  bottom: "conv4"
  top: "pool4"
  pooling_param {
    pool: MAX
    kernel_h: 2
    kernel_w: 1
    stride_h: 2
    stride_w: 1
  }
}
layer {
  name: "ip1"
  type: "InnerProduct"
  bottom: "pool4"
  top: "ip1"
  inner_product_param {
    num_output: 196
    weight_filler {
      type: "xavier"
    }
    bias_filler {
      type: "constant"
    }
  }
}
layer {
  name: "relu5"
  type: "ReLU"
  bottom: "ip1"
  top: "ip1"
}
layer {
  name: "drop1"
  type: "Dropout"
  bottom: "ip1"
  top: "ip1"
  dropout_param {
    dropout_ratio: 0.5
  }
}
layer {
  name: "ip2"
  type: "InnerProduct"
  bottom: "ip1"
  top: "ip2"
  inner_product_param {
    num_output: 98
    weight_filler {
      type: "xavier"
    }
    bias_filler {
      type: "constant"
    }
  }
}
layer {
  name: "relu6"
  type: "ReLU"
  bottom: "ip2"
  top: "ip2"
}
layer {
  name: "drop2"
  type: "Dropout"
  bottom: "ip2"
  top: "ip2"
  dropout_param {
    dropout_ratio: 0.5
  }
}
layer {
  name: "ip3"
  type: "InnerProduct"
  bottom: "ip2"
  top: "ip3"
  inner_product_param {
    num_output: 11
    weight_filler {
      type: "xavier"
    }
    bias_filler {
      type: "constant"
    }
  }
}
layer {
  name: "drop3"
  type: "Dropout"
  bottom: "ip3"
  top: "ip3"
  dropout_param {
    dropout_ratio: 0.5
  }
}
layer {
  name: "loss"
  type: "SoftmaxWithLoss"
  bottom: "ip3"
  bottom: "label"
  top: "loss"
}
I0519 16:18:11.237586 22864 layer_factory.hpp:77] Creating layer data_hdf5
I0519 16:18:11.237622 22864 net.cpp:106] Creating Layer data_hdf5
I0519 16:18:11.237639 22864 net.cpp:411] data_hdf5 -> data
I0519 16:18:11.237673 22864 net.cpp:411] data_hdf5 -> label
I0519 16:18:11.237716 22864 hdf5_data_layer.cpp:79] Loading list of HDF5 filenames from: /lustre/atlas/proj-shared/hep105/caffe_titan/minosmatch_nukecczdefs_127x50_x_unshifted_me1Bmc.trainlist
I0519 16:18:11.239506 22864 hdf5_data_layer.cpp:93] Number of HDF5 files: 15
I0519 16:18:11.242112 22864 hdf5.cpp:32] Datatype class: H5T_FLOAT
I0519 16:18:32.750263 22864 hdf5.cpp:35] Datatype class: H5T_INTEGER
I0519 16:18:32.755537 22864 net.cpp:150] Setting up data_hdf5
I0519 16:18:32.755578 22864 net.cpp:157] Top shape: 100 1 127 50 (635000)
I0519 16:18:32.755595 22864 net.cpp:157] Top shape: 100 (100)
I0519 16:18:32.755607 22864 net.cpp:165] Memory required for data: 2540400
I0519 16:18:32.755627 22864 layer_factory.hpp:77] Creating layer conv1
I0519 16:18:32.755673 22864 net.cpp:106] Creating Layer conv1
I0519 16:18:32.755687 22864 net.cpp:454] conv1 <- data
I0519 16:18:32.755712 22864 net.cpp:411] conv1 -> conv1
I0519 16:18:34.771158 22864 net.cpp:150] Setting up conv1
I0519 16:18:34.771212 22864 net.cpp:157] Top shape: 100 12 120 48 (6912000)
I0519 16:18:34.771227 22864 net.cpp:165] Memory required for data: 30188400
I0519 16:18:34.771258 22864 layer_factory.hpp:77] Creating layer relu1
I0519 16:18:34.771280 22864 net.cpp:106] Creating Layer relu1
I0519 16:18:34.771301 22864 net.cpp:454] relu1 <- conv1
I0519 16:18:34.771337 22864 net.cpp:397] relu1 -> conv1 (in-place)
I0519 16:18:34.771869 22864 net.cpp:150] Setting up relu1
I0519 16:18:34.771893 22864 net.cpp:157] Top shape: 100 12 120 48 (6912000)
I0519 16:18:34.771906 22864 net.cpp:165] Memory required for data: 57836400
I0519 16:18:34.771922 22864 layer_factory.hpp:77] Creating layer pool1
I0519 16:18:34.771950 22864 net.cpp:106] Creating Layer pool1
I0519 16:18:34.771963 22864 net.cpp:454] pool1 <- conv1
I0519 16:18:34.771980 22864 net.cpp:411] pool1 -> pool1
I0519 16:18:34.772073 22864 net.cpp:150] Setting up pool1
I0519 16:18:34.772091 22864 net.cpp:157] Top shape: 100 12 60 48 (3456000)
I0519 16:18:34.772106 22864 net.cpp:165] Memory required for data: 71660400
I0519 16:18:34.772126 22864 layer_factory.hpp:77] Creating layer conv2
I0519 16:18:34.772151 22864 net.cpp:106] Creating Layer conv2
I0519 16:18:34.772164 22864 net.cpp:454] conv2 <- pool1
I0519 16:18:34.772181 22864 net.cpp:411] conv2 -> conv2
I0519 16:18:34.774938 22864 net.cpp:150] Setting up conv2
I0519 16:18:34.774969 22864 net.cpp:157] Top shape: 100 20 54 46 (4968000)
I0519 16:18:34.774984 22864 net.cpp:165] Memory required for data: 91532400
I0519 16:18:34.775012 22864 layer_factory.hpp:77] Creating layer relu2
I0519 16:18:34.775040 22864 net.cpp:106] Creating Layer relu2
I0519 16:18:34.775054 22864 net.cpp:454] relu2 <- conv2
I0519 16:18:34.775070 22864 net.cpp:397] relu2 -> conv2 (in-place)
I0519 16:18:34.775421 22864 net.cpp:150] Setting up relu2
I0519 16:18:34.775441 22864 net.cpp:157] Top shape: 100 20 54 46 (4968000)
I0519 16:18:34.775454 22864 net.cpp:165] Memory required for data: 111404400
I0519 16:18:34.775467 22864 layer_factory.hpp:77] Creating layer pool2
I0519 16:18:34.775493 22864 net.cpp:106] Creating Layer pool2
I0519 16:18:34.775506 22864 net.cpp:454] pool2 <- conv2
I0519 16:18:34.775522 22864 net.cpp:411] pool2 -> pool2
I0519 16:18:34.775617 22864 net.cpp:150] Setting up pool2
I0519 16:18:34.775635 22864 net.cpp:157] Top shape: 100 20 27 46 (2484000)
I0519 16:18:34.775650 22864 net.cpp:165] Memory required for data: 121340400
I0519 16:18:34.775668 22864 layer_factory.hpp:77] Creating layer conv3
I0519 16:18:34.775689 22864 net.cpp:106] Creating Layer conv3
I0519 16:18:34.775712 22864 net.cpp:454] conv3 <- pool2
I0519 16:18:34.775728 22864 net.cpp:411] conv3 -> conv3
I0519 16:18:34.777680 22864 net.cpp:150] Setting up conv3
I0519 16:18:34.777705 22864 net.cpp:157] Top shape: 100 28 22 44 (2710400)
I0519 16:18:34.777725 22864 net.cpp:165] Memory required for data: 132182000
I0519 16:18:34.777748 22864 layer_factory.hpp:77] Creating layer relu3
I0519 16:18:34.777770 22864 net.cpp:106] Creating Layer relu3
I0519 16:18:34.777793 22864 net.cpp:454] relu3 <- conv3
I0519 16:18:34.777809 22864 net.cpp:397] relu3 -> conv3 (in-place)
I0519 16:18:34.778296 22864 net.cpp:150] Setting up relu3
I0519 16:18:34.778321 22864 net.cpp:157] Top shape: 100 28 22 44 (2710400)
I0519 16:18:34.778333 22864 net.cpp:165] Memory required for data: 143023600
I0519 16:18:34.778349 22864 layer_factory.hpp:77] Creating layer pool3
I0519 16:18:34.778365 22864 net.cpp:106] Creating Layer pool3
I0519 16:18:34.778388 22864 net.cpp:454] pool3 <- conv3
I0519 16:18:34.778405 22864 net.cpp:411] pool3 -> pool3
I0519 16:18:34.778488 22864 net.cpp:150] Setting up pool3
I0519 16:18:34.778511 22864 net.cpp:157] Top shape: 100 28 11 44 (1355200)
I0519 16:18:34.778523 22864 net.cpp:165] Memory required for data: 148444400
I0519 16:18:34.778538 22864 layer_factory.hpp:77] Creating layer conv4
I0519 16:18:34.778558 22864 net.cpp:106] Creating Layer conv4
I0519 16:18:34.778578 22864 net.cpp:454] conv4 <- pool3
I0519 16:18:34.778594 22864 net.cpp:411] conv4 -> conv4
I0519 16:18:34.781575 22864 net.cpp:150] Setting up conv4
I0519 16:18:34.781607 22864 net.cpp:157] Top shape: 100 36 6 42 (907200)
I0519 16:18:34.781622 22864 net.cpp:165] Memory required for data: 152073200
I0519 16:18:34.781641 22864 layer_factory.hpp:77] Creating layer relu4
I0519 16:18:34.781663 22864 net.cpp:106] Creating Layer relu4
I0519 16:18:34.781677 22864 net.cpp:454] relu4 <- conv4
I0519 16:18:34.781704 22864 net.cpp:397] relu4 -> conv4 (in-place)
I0519 16:18:34.782196 22864 net.cpp:150] Setting up relu4
I0519 16:18:34.782219 22864 net.cpp:157] Top shape: 100 36 6 42 (907200)
I0519 16:18:34.782232 22864 net.cpp:165] Memory required for data: 155702000
I0519 16:18:34.782248 22864 layer_factory.hpp:77] Creating layer pool4
I0519 16:18:34.782263 22864 net.cpp:106] Creating Layer pool4
I0519 16:18:34.782285 22864 net.cpp:454] pool4 <- conv4
I0519 16:18:34.782301 22864 net.cpp:411] pool4 -> pool4
I0519 16:18:34.782385 22864 net.cpp:150] Setting up pool4
I0519 16:18:34.782403 22864 net.cpp:157] Top shape: 100 36 3 42 (453600)
I0519 16:18:34.782418 22864 net.cpp:165] Memory required for data: 157516400
I0519 16:18:34.782430 22864 layer_factory.hpp:77] Creating layer ip1
I0519 16:18:34.782459 22864 net.cpp:106] Creating Layer ip1
I0519 16:18:34.782471 22864 net.cpp:454] ip1 <- pool4
I0519 16:18:34.782487 22864 net.cpp:411] ip1 -> ip1
I0519 16:18:34.798008 22864 net.cpp:150] Setting up ip1
I0519 16:18:34.798038 22864 net.cpp:157] Top shape: 100 196 (19600)
I0519 16:18:34.798059 22864 net.cpp:165] Memory required for data: 157594800
I0519 16:18:34.798085 22864 layer_factory.hpp:77] Creating layer relu5
I0519 16:18:34.798107 22864 net.cpp:106] Creating Layer relu5
I0519 16:18:34.798120 22864 net.cpp:454] relu5 <- ip1
I0519 16:18:34.798149 22864 net.cpp:397] relu5 -> ip1 (in-place)
I0519 16:18:34.798506 22864 net.cpp:150] Setting up relu5
I0519 16:18:34.798526 22864 net.cpp:157] Top shape: 100 196 (19600)
I0519 16:18:34.798538 22864 net.cpp:165] Memory required for data: 157673200
I0519 16:18:34.798553 22864 layer_factory.hpp:77] Creating layer drop1
I0519 16:18:34.798583 22864 net.cpp:106] Creating Layer drop1
I0519 16:18:34.798598 22864 net.cpp:454] drop1 <- ip1
I0519 16:18:34.798614 22864 net.cpp:397] drop1 -> ip1 (in-place)
I0519 16:18:34.798684 22864 net.cpp:150] Setting up drop1
I0519 16:18:34.798702 22864 net.cpp:157] Top shape: 100 196 (19600)
I0519 16:18:34.798714 22864 net.cpp:165] Memory required for data: 157751600
I0519 16:18:34.798730 22864 layer_factory.hpp:77] Creating layer ip2
I0519 16:18:34.798751 22864 net.cpp:106] Creating Layer ip2
I0519 16:18:34.798770 22864 net.cpp:454] ip2 <- ip1
I0519 16:18:34.798794 22864 net.cpp:411] ip2 -> ip2
I0519 16:18:34.799281 22864 net.cpp:150] Setting up ip2
I0519 16:18:34.799300 22864 net.cpp:157] Top shape: 100 98 (9800)
I0519 16:18:34.799314 22864 net.cpp:165] Memory required for data: 157790800
I0519 16:18:34.799335 22864 layer_factory.hpp:77] Creating layer relu6
I0519 16:18:34.799348 22864 net.cpp:106] Creating Layer relu6
I0519 16:18:34.799367 22864 net.cpp:454] relu6 <- ip2
I0519 16:18:34.799383 22864 net.cpp:397] relu6 -> ip2 (in-place)
I0519 16:18:34.799932 22864 net.cpp:150] Setting up relu6
I0519 16:18:34.799955 22864 net.cpp:157] Top shape: 100 98 (9800)
I0519 16:18:34.799968 22864 net.cpp:165] Memory required for data: 157830000
I0519 16:18:34.799983 22864 layer_factory.hpp:77] Creating layer drop2
I0519 16:18:34.799999 22864 net.cpp:106] Creating Layer drop2
I0519 16:18:34.800021 22864 net.cpp:454] drop2 <- ip2
I0519 16:18:34.800037 22864 net.cpp:397] drop2 -> ip2 (in-place)
I0519 16:18:34.800087 22864 net.cpp:150] Setting up drop2
I0519 16:18:34.800110 22864 net.cpp:157] Top shape: 100 98 (9800)
I0519 16:18:34.800122 22864 net.cpp:165] Memory required for data: 157869200
I0519 16:18:34.800135 22864 layer_factory.hpp:77] Creating layer ip3
I0519 16:18:34.800151 22864 net.cpp:106] Creating Layer ip3
I0519 16:18:34.800166 22864 net.cpp:454] ip3 <- ip2
I0519 16:18:34.800181 22864 net.cpp:411] ip3 -> ip3
I0519 16:18:34.800410 22864 net.cpp:150] Setting up ip3
I0519 16:18:34.800429 22864 net.cpp:157] Top shape: 100 11 (1100)
I0519 16:18:34.800442 22864 net.cpp:165] Memory required for data: 157873600
I0519 16:18:34.800462 22864 layer_factory.hpp:77] Creating layer drop3
I0519 16:18:34.800483 22864 net.cpp:106] Creating Layer drop3
I0519 16:18:34.800496 22864 net.cpp:454] drop3 <- ip3
I0519 16:18:34.800519 22864 net.cpp:397] drop3 -> ip3 (in-place)
I0519 16:18:34.800566 22864 net.cpp:150] Setting up drop3
I0519 16:18:34.800581 22864 net.cpp:157] Top shape: 100 11 (1100)
I0519 16:18:34.800601 22864 net.cpp:165] Memory required for data: 157878000
I0519 16:18:34.800614 22864 layer_factory.hpp:77] Creating layer loss
I0519 16:18:34.800638 22864 net.cpp:106] Creating Layer loss
I0519 16:18:34.800650 22864 net.cpp:454] loss <- ip3
I0519 16:18:34.800665 22864 net.cpp:454] loss <- label
I0519 16:18:34.800686 22864 net.cpp:411] loss -> loss
I0519 16:18:34.800707 22864 layer_factory.hpp:77] Creating layer loss
…
I0519 16:18:34.803504 22864 solver.cpp:181] Creating test net (#0) specified by net file: /lustre/atlas/proj-shared/hep105/caffe_titan/minosmatch_nukecczdefs_127x50_x_unshifted_me1Bmc.prototxt
I0519 16:18:34.803585 22864 net.cpp:322] The NetState phase (1) differed from the phase (0) specified by a rule in layer data_hdf5
I0519 16:18:34.803963 22864 net.cpp:49] Initializing net from parameters: 
name: "caffe_test_127x50_x_unshifted"
state {
  phase: TEST
}
layer {
  name: "data_hdf5"
  type: "HDF5Data"
  top: "data"
  top: "label"
  include {
    phase: TEST
  }
  hdf5_data_param {
    source: "/lustre/atlas/proj-shared/hep105/caffe_titan/minosmatch_nukecczdefs_127x50_x_unshifted_me1Bmc.testlist"
    batch_size: 100
  }
}
layer {
  name: "conv1"
  type: "Convolution"
  bottom: "data"
  top: "conv1"
  convolution_param {
    num_output: 12
    pad: 0
    stride: 1
    weight_filler {
      type: "xavier"
    }
    bias_filler {
      type: "constant"
    }
    kernel_h: 8
    kernel_w: 3
  }
}
layer {
  name: "relu1"
  type: "ReLU"
  bottom: "conv1"
  top: "conv1"
}
layer {
  name: "pool1"
  type: "Pooling"
  bottom: "conv1"
  top: "pool1"
  pooling_param {
    pool: MAX
    kernel_h: 2
    kernel_w: 1
    stride_h: 2
    stride_w: 1
  }
}
layer {
  name: "conv2"
  type: "Convolution"
  bottom: "pool1"
  top: "conv2"
  convolution_param {
    num_output: 20
    pad: 0
    stride: 1
    weight_filler {
      type: "xavier"
    }
    bias_filler {
      type: "constant"
    }
    kernel_h: 7
    kernel_w: 3
  }
}
layer {
  name: "relu2"
  type: "ReLU"
  bottom: "conv2"
  top: "conv2"
}
layer {
  name: "pool2"
  type: "Pooling"
  bottom: "conv2"
  top: "pool2"
  pooling_param {
    pool: MAX
    kernel_h: 2
    kernel_w: 1
    stride_h: 2
    stride_w: 1
  }
}
layer {
  name: "conv3"
  type: "Convolution"
  bottom: "pool2"
  top: "conv3"
  convolution_param {
    num_output: 28
    pad: 0
    stride: 1
    weight_filler {
      type: "xavier"
    }
    bias_filler {
      type: "constant"
    }
    kernel_h: 6
    kernel_w: 3
  }
}
layer {
  name: "relu3"
  type: "ReLU"
  bottom: "conv3"
  top: "conv3"
}
layer {
  name: "pool3"
  type: "Pooling"
  bottom: "conv3"
  top: "pool3"
  pooling_param {
    pool: MAX
    kernel_h: 2
    kernel_w: 1
    stride_h: 2
    stride_w: 1
  }
}
layer {
  name: "conv4"
  type: "Convolution"
  bottom: "pool3"
  top: "conv4"
  convolution_param {
    num_output: 36
    pad: 0
    stride: 1
    weight_filler {
      type: "xavier"
    }
    bias_filler {
      type: "constant"
    }
    kernel_h: 6
    kernel_w: 3
  }
}
layer {
  name: "relu4"
  type: "ReLU"
  bottom: "conv4"
  top: "conv4"
}
layer {
  name: "pool4"
  type: "Pooling"
  bottom: "conv4"
  top: "pool4"
  pooling_param {
    pool: MAX
    kernel_h: 2
    kernel_w: 1
    stride_h: 2
    stride_w: 1
  }
}
layer {
  name: "ip1"
  type: "InnerProduct"
  bottom: "pool4"
  top: "ip1"
  inner_product_param {
    num_output: 196
    weight_filler {
      type: "xavier"
    }
    bias_filler {
      type: "constant"
    }
  }
}
layer {
  name: "relu5"
  type: "ReLU"
  bottom: "ip1"
  top: "ip1"
}
layer {
  name: "drop1"
  type: "Dropout"
  bottom: "ip1"
  top: "ip1"
  dropout_param {
    dropout_ratio: 0.5
  }
}
layer {
  name: "ip2"
  type: "InnerProduct"
  bottom: "ip1"
  top: "ip2"
  inner_product_param {
    num_output: 98
    weight_filler {
      type: "xavier"
    }
    bias_filler {
      type: "constant"
    }
  }
}
layer {
  name: "relu6"
  type: "ReLU"
  bottom: "ip2"
  top: "ip2"
}
layer {
  name: "drop2"
  type: "Dropout"
  bottom: "ip2"
  top: "ip2"
  dropout_param {
    dropout_ratio: 0.5
  }
}
layer {
  name: "ip3"
  type: "InnerProduct"
  bottom: "ip2"
  top: "ip3"
  inner_product_param {
    num_output: 11
    weight_filler {
      type: "xavier"
    }
    bias_filler {
      type: "constant"
    }
  }
}
layer {
  name: "drop3"
  type: "Dropout"
  bottom: "ip3"
  top: "ip3"
  dropout_param {
    dropout_ratio: 0.5
  }
}
layer {
  name: "accuracy"
  type: "Accuracy"
  bottom: "ip3"
  bottom: "label"
  top: "accuracy"
  include {
    phase: TEST
  }
}
layer {
  name: "loss"
  type: "SoftmaxWithLoss"
  bottom: "ip3"
  bottom: "label"
  top: "loss"
}
I0519 16:18:34.804183 22864 layer_factory.hpp:77] Creating layer data_hdf5
I0519 16:18:34.804204 22864 net.cpp:106] Creating Layer data_hdf5
I0519 16:18:34.804220 22864 net.cpp:411] data_hdf5 -> data
I0519 16:18:34.804241 22864 net.cpp:411] data_hdf5 -> label
I0519 16:18:34.804260 22864 hdf5_data_layer.cpp:79] Loading list of HDF5 filenames from: /lustre/atlas/proj-shared/hep105/caffe_titan/minosmatch_nukecczdefs_127x50_x_unshifted_me1Bmc.testlist
I0519 16:18:34.819537 22864 hdf5_data_layer.cpp:93] Number of HDF5 files: 3
I0519 16:18:56.135190 22864 net.cpp:150] Setting up data_hdf5
I0519 16:18:56.135361 22864 net.cpp:157] Top shape: 100 1 127 50 (635000)
I0519 16:18:56.135381 22864 net.cpp:157] Top shape: 100 (100)
I0519 16:18:56.135393 22864 net.cpp:165] Memory required for data: 2540400
I0519 16:18:56.135408 22864 layer_factory.hpp:77] Creating layer label_data_hdf5_1_split
I0519 16:18:56.135442 22864 net.cpp:106] Creating Layer label_data_hdf5_1_split
I0519 16:18:56.135457 22864 net.cpp:454] label_data_hdf5_1_split <- label
I0519 16:18:56.135493 22864 net.cpp:411] label_data_hdf5_1_split -> label_data_hdf5_1_split_0
I0519 16:18:56.135515 22864 net.cpp:411] label_data_hdf5_1_split -> label_data_hdf5_1_split_1
I0519 16:18:56.135602 22864 net.cpp:150] Setting up label_data_hdf5_1_split
I0519 16:18:56.135620 22864 net.cpp:157] Top shape: 100 (100)
I0519 16:18:56.135635 22864 net.cpp:157] Top shape: 100 (100)
I0519 16:18:56.135648 22864 net.cpp:165] Memory required for data: 2541200
I0519 16:18:56.135659 22864 layer_factory.hpp:77] Creating layer conv1
I0519 16:18:56.135692 22864 net.cpp:106] Creating Layer conv1
I0519 16:18:56.135705 22864 net.cpp:454] conv1 <- data
I0519 16:18:56.135722 22864 net.cpp:411] conv1 -> conv1
I0519 16:18:56.137730 22864 net.cpp:150] Setting up conv1
I0519 16:18:56.137755 22864 net.cpp:157] Top shape: 100 12 120 48 (6912000)
I0519 16:18:56.137778 22864 net.cpp:165] Memory required for data: 30189200
I0519 16:18:56.137801 22864 layer_factory.hpp:77] Creating layer relu1
I0519 16:18:56.137822 22864 net.cpp:106] Creating Layer relu1
I0519 16:18:56.137845 22864 net.cpp:454] relu1 <- conv1
I0519 16:18:56.137863 22864 net.cpp:397] relu1 -> conv1 (in-place)
I0519 16:18:56.138381 22864 net.cpp:150] Setting up relu1
I0519 16:18:56.138404 22864 net.cpp:157] Top shape: 100 12 120 48 (6912000)
I0519 16:18:56.138417 22864 net.cpp:165] Memory required for data: 57837200
I0519 16:18:56.138429 22864 layer_factory.hpp:77] Creating layer pool1
I0519 16:18:56.138460 22864 net.cpp:106] Creating Layer pool1
I0519 16:18:56.138473 22864 net.cpp:454] pool1 <- conv1
I0519 16:18:56.138490 22864 net.cpp:411] pool1 -> pool1
I0519 16:18:56.138579 22864 net.cpp:150] Setting up pool1
I0519 16:18:56.138597 22864 net.cpp:157] Top shape: 100 12 60 48 (3456000)
I0519 16:18:56.138612 22864 net.cpp:165] Memory required for data: 71661200
I0519 16:18:56.138630 22864 layer_factory.hpp:77] Creating layer conv2
I0519 16:18:56.138650 22864 net.cpp:106] Creating Layer conv2
I0519 16:18:56.138664 22864 net.cpp:454] conv2 <- pool1
I0519 16:18:56.138680 22864 net.cpp:411] conv2 -> conv2
I0519 16:18:56.140647 22864 net.cpp:150] Setting up conv2
I0519 16:18:56.140672 22864 net.cpp:157] Top shape: 100 20 54 46 (4968000)
I0519 16:18:56.140693 22864 net.cpp:165] Memory required for data: 91533200
I0519 16:18:56.140714 22864 layer_factory.hpp:77] Creating layer relu2
I0519 16:18:56.140734 22864 net.cpp:106] Creating Layer relu2
I0519 16:18:56.140756 22864 net.cpp:454] relu2 <- conv2
I0519 16:18:56.140772 22864 net.cpp:397] relu2 -> conv2 (in-place)
I0519 16:18:56.141118 22864 net.cpp:150] Setting up relu2
I0519 16:18:56.141137 22864 net.cpp:157] Top shape: 100 20 54 46 (4968000)
I0519 16:18:56.141150 22864 net.cpp:165] Memory required for data: 111405200
I0519 16:18:56.141162 22864 layer_factory.hpp:77] Creating layer pool2
I0519 16:18:56.141180 22864 net.cpp:106] Creating Layer pool2
I0519 16:18:56.141193 22864 net.cpp:454] pool2 <- conv2
I0519 16:18:56.141209 22864 net.cpp:411] pool2 -> pool2
I0519 16:18:56.141326 22864 net.cpp:150] Setting up pool2
I0519 16:18:56.141345 22864 net.cpp:157] Top shape: 100 20 27 46 (2484000)
I0519 16:18:56.141358 22864 net.cpp:165] Memory required for data: 121341200
I0519 16:18:56.141373 22864 layer_factory.hpp:77] Creating layer conv3
I0519 16:18:56.141396 22864 net.cpp:106] Creating Layer conv3
I0519 16:18:56.141408 22864 net.cpp:454] conv3 <- pool2
I0519 16:18:56.141425 22864 net.cpp:411] conv3 -> conv3
I0519 16:18:56.143460 22864 net.cpp:150] Setting up conv3
I0519 16:18:56.143488 22864 net.cpp:157] Top shape: 100 28 22 44 (2710400)
I0519 16:18:56.143501 22864 net.cpp:165] Memory required for data: 132182800
I0519 16:18:56.143540 22864 layer_factory.hpp:77] Creating layer relu3
I0519 16:18:56.143566 22864 net.cpp:106] Creating Layer relu3
I0519 16:18:56.143580 22864 net.cpp:454] relu3 <- conv3
I0519 16:18:56.143604 22864 net.cpp:397] relu3 -> conv3 (in-place)
I0519 16:18:56.144103 22864 net.cpp:150] Setting up relu3
I0519 16:18:56.144125 22864 net.cpp:157] Top shape: 100 28 22 44 (2710400)
I0519 16:18:56.144139 22864 net.cpp:165] Memory required for data: 143024400
I0519 16:18:56.144155 22864 layer_factory.hpp:77] Creating layer pool3
I0519 16:18:56.144170 22864 net.cpp:106] Creating Layer pool3
I0519 16:18:56.144192 22864 net.cpp:454] pool3 <- conv3
I0519 16:18:56.144209 22864 net.cpp:411] pool3 -> pool3
I0519 16:18:56.144294 22864 net.cpp:150] Setting up pool3
I0519 16:18:56.144312 22864 net.cpp:157] Top shape: 100 28 11 44 (1355200)
I0519 16:18:56.144323 22864 net.cpp:165] Memory required for data: 148445200
I0519 16:18:56.144338 22864 layer_factory.hpp:77] Creating layer conv4
I0519 16:18:56.144366 22864 net.cpp:106] Creating Layer conv4
I0519 16:18:56.144378 22864 net.cpp:454] conv4 <- pool3
I0519 16:18:56.144402 22864 net.cpp:411] conv4 -> conv4
I0519 16:18:56.146564 22864 net.cpp:150] Setting up conv4
I0519 16:18:56.146587 22864 net.cpp:157] Top shape: 100 36 6 42 (907200)
I0519 16:18:56.146608 22864 net.cpp:165] Memory required for data: 152074000
I0519 16:18:56.146627 22864 layer_factory.hpp:77] Creating layer relu4
I0519 16:18:56.146646 22864 net.cpp:106] Creating Layer relu4
I0519 16:18:56.146659 22864 net.cpp:454] relu4 <- conv4
I0519 16:18:56.146683 22864 net.cpp:397] relu4 -> conv4 (in-place)
I0519 16:18:56.147178 22864 net.cpp:150] Setting up relu4
I0519 16:18:56.147200 22864 net.cpp:157] Top shape: 100 36 6 42 (907200)
I0519 16:18:56.147213 22864 net.cpp:165] Memory required for data: 155702800
I0519 16:18:56.147229 22864 layer_factory.hpp:77] Creating layer pool4
I0519 16:18:56.147245 22864 net.cpp:106] Creating Layer pool4
I0519 16:18:56.147266 22864 net.cpp:454] pool4 <- conv4
I0519 16:18:56.147284 22864 net.cpp:411] pool4 -> pool4
I0519 16:18:56.147370 22864 net.cpp:150] Setting up pool4
I0519 16:18:56.147388 22864 net.cpp:157] Top shape: 100 36 3 42 (453600)
I0519 16:18:56.147403 22864 net.cpp:165] Memory required for data: 157517200
I0519 16:18:56.147415 22864 layer_factory.hpp:77] Creating layer ip1
I0519 16:18:56.147433 22864 net.cpp:106] Creating Layer ip1
I0519 16:18:56.147452 22864 net.cpp:454] ip1 <- pool4
I0519 16:18:56.147475 22864 net.cpp:411] ip1 -> ip1
I0519 16:18:56.162984 22864 net.cpp:150] Setting up ip1
I0519 16:18:56.163017 22864 net.cpp:157] Top shape: 100 196 (19600)
I0519 16:18:56.163036 22864 net.cpp:165] Memory required for data: 157595600
I0519 16:18:56.163064 22864 layer_factory.hpp:77] Creating layer relu5
I0519 16:18:56.163084 22864 net.cpp:106] Creating Layer relu5
I0519 16:18:56.163097 22864 net.cpp:454] relu5 <- ip1
I0519 16:18:56.163126 22864 net.cpp:397] relu5 -> ip1 (in-place)
I0519 16:18:56.163496 22864 net.cpp:150] Setting up relu5
I0519 16:18:56.163516 22864 net.cpp:157] Top shape: 100 196 (19600)
I0519 16:18:56.163528 22864 net.cpp:165] Memory required for data: 157674000
I0519 16:18:56.163543 22864 layer_factory.hpp:77] Creating layer drop1
I0519 16:18:56.163573 22864 net.cpp:106] Creating Layer drop1
I0519 16:18:56.163586 22864 net.cpp:454] drop1 <- ip1
I0519 16:18:56.163604 22864 net.cpp:397] drop1 -> ip1 (in-place)
I0519 16:18:56.163655 22864 net.cpp:150] Setting up drop1
I0519 16:18:56.163679 22864 net.cpp:157] Top shape: 100 196 (19600)
I0519 16:18:56.163691 22864 net.cpp:165] Memory required for data: 157752400
I0519 16:18:56.163704 22864 layer_factory.hpp:77] Creating layer ip2
I0519 16:18:56.163723 22864 net.cpp:106] Creating Layer ip2
I0519 16:18:56.163735 22864 net.cpp:454] ip2 <- ip1
I0519 16:18:56.163758 22864 net.cpp:411] ip2 -> ip2
I0519 16:18:56.164252 22864 net.cpp:150] Setting up ip2
I0519 16:18:56.164270 22864 net.cpp:157] Top shape: 100 98 (9800)
I0519 16:18:56.164283 22864 net.cpp:165] Memory required for data: 157791600
I0519 16:18:56.164304 22864 layer_factory.hpp:77] Creating layer relu6
I0519 16:18:56.164340 22864 net.cpp:106] Creating Layer relu6
I0519 16:18:56.164353 22864 net.cpp:454] relu6 <- ip2
I0519 16:18:56.164369 22864 net.cpp:397] relu6 -> ip2 (in-place)
I0519 16:18:56.164953 22864 net.cpp:150] Setting up relu6
I0519 16:18:56.164976 22864 net.cpp:157] Top shape: 100 98 (9800)
I0519 16:18:56.164989 22864 net.cpp:165] Memory required for data: 157830800
I0519 16:18:56.165005 22864 layer_factory.hpp:77] Creating layer drop2
I0519 16:18:56.165021 22864 net.cpp:106] Creating Layer drop2
I0519 16:18:56.165035 22864 net.cpp:454] drop2 <- ip2
I0519 16:18:56.165052 22864 net.cpp:397] drop2 -> ip2 (in-place)
I0519 16:18:56.165107 22864 net.cpp:150] Setting up drop2
I0519 16:18:56.165141 22864 net.cpp:157] Top shape: 100 98 (9800)
I0519 16:18:56.165154 22864 net.cpp:165] Memory required for data: 157870000
I0519 16:18:56.165176 22864 layer_factory.hpp:77] Creating layer ip3
I0519 16:18:56.165194 22864 net.cpp:106] Creating Layer ip3
I0519 16:18:56.165210 22864 net.cpp:454] ip3 <- ip2
I0519 16:18:56.165225 22864 net.cpp:411] ip3 -> ip3
I0519 16:18:56.165473 22864 net.cpp:150] Setting up ip3
I0519 16:18:56.165493 22864 net.cpp:157] Top shape: 100 11 (1100)
I0519 16:18:56.165505 22864 net.cpp:165] Memory required for data: 157874400
I0519 16:18:56.165526 22864 layer_factory.hpp:77] Creating layer drop3
I0519 16:18:56.165541 22864 net.cpp:106] Creating Layer drop3
I0519 16:18:56.165555 22864 net.cpp:454] drop3 <- ip3
I0519 16:18:56.165577 22864 net.cpp:397] drop3 -> ip3 (in-place)
I0519 16:18:56.165626 22864 net.cpp:150] Setting up drop3
I0519 16:18:56.165647 22864 net.cpp:157] Top shape: 100 11 (1100)
I0519 16:18:56.165660 22864 net.cpp:165] Memory required for data: 157878800
I0519 16:18:56.165676 22864 layer_factory.hpp:77] Creating layer ip3_drop3_0_split
I0519 16:18:56.165693 22864 net.cpp:106] Creating Layer ip3_drop3_0_split
I0519 16:18:56.165704 22864 net.cpp:454] ip3_drop3_0_split <- ip3
I0519 16:18:56.165722 22864 net.cpp:411] ip3_drop3_0_split -> ip3_drop3_0_split_0
I0519 16:18:56.165746 22864 net.cpp:411] ip3_drop3_0_split -> ip3_drop3_0_split_1
I0519 16:18:56.165827 22864 net.cpp:150] Setting up ip3_drop3_0_split
I0519 16:18:56.165844 22864 net.cpp:157] Top shape: 100 11 (1100)
I0519 16:18:56.165869 22864 net.cpp:157] Top shape: 100 11 (1100)
I0519 16:18:56.165882 22864 net.cpp:165] Memory required for data: 157887600
I0519 16:18:56.165896 22864 layer_factory.hpp:77] Creating layer accuracy
I0519 16:18:56.165925 22864 net.cpp:106] Creating Layer accuracy
I0519 16:18:56.165940 22864 net.cpp:454] accuracy <- ip3_drop3_0_split_0
I0519 16:18:56.165956 22864 net.cpp:454] accuracy <- label_data_hdf5_1_split_0
I0519 16:18:56.165973 22864 net.cpp:411] accuracy -> accuracy
…
