…
I0519 17:12:52.897280 22126 net.cpp:322] The NetState phase (0) differed from the phase (1) specified by a rule in layer data_hdf5
I0519 17:12:52.897346 22126 net.cpp:322] The NetState phase (0) differed from the phase (1) specified by a rule in layer accuracy
I0519 17:12:52.897721 22126 net.cpp:49] Initializing net from parameters: 
name: "caffe_test_127x50_x_unshifted"
state {
  phase: TRAIN
}
layer {
  name: "data_hdf5"
  type: "HDF5Data"
  top: "data"
  top: "label"
  include {
    phase: TRAIN
  }
  hdf5_data_param {
    source: "/lustre/atlas/proj-shared/hep105/caffe_titan/minosmatch_nukecczdefs_127x50_x_unshifted_me1Bmc.trainlist"
    batch_size: 100
  }
}
layer {
  name: "conv1"
  type: "Convolution"
  bottom: "data"
  top: "conv1"
  convolution_param {
    num_output: 12
    pad: 0
    stride: 1
    weight_filler {
      type: "xavier"
    }
    bias_filler {
      type: "constant"
    }
    kernel_h: 8
    kernel_w: 3
  }
}
layer {
  name: "relu1"
  type: "ReLU"
  bottom: "conv1"
  top: "conv1"
}
layer {
  name: "pool1"
  type: "Pooling"
  bottom: "conv1"
  top: "pool1"
  pooling_param {
    pool: MAX
    kernel_h: 2
    kernel_w: 1
    stride_h: 2
    stride_w: 1
  }
}
layer {
  name: "conv2"
  type: "Convolution"
  bottom: "pool1"
  top: "conv2"
  convolution_param {
    num_output: 20
    pad: 0
    stride: 1
    weight_filler {
      type: "xavier"
    }
    bias_filler {
      type: "constant"
    }
    kernel_h: 7
    kernel_w: 3
  }
}
layer {
  name: "relu2"
  type: "ReLU"
  bottom: "conv2"
  top: "conv2"
}
layer {
  name: "pool2"
  type: "Pooling"
  bottom: "conv2"
  top: "pool2"
  pooling_param {
    pool: MAX
    kernel_h: 2
    kernel_w: 1
    stride_h: 2
    stride_w: 1
  }
}
layer {
  name: "conv3"
  type: "Convolution"
  bottom: "pool2"
  top: "conv3"
  convolution_param {
    num_output: 28
    pad: 0
    stride: 1
    weight_filler {
      type: "xavier"
    }
    bias_filler {
      type: "constant"
    }
    kernel_h: 6
    kernel_w: 3
  }
}
layer {
  name: "relu3"
  type: "ReLU"
  bottom: "conv3"
  top: "conv3"
}
layer {
  name: "pool3"
  type: "Pooling"
  bottom: "conv3"
  top: "pool3"
  pooling_param {
    pool: MAX
    kernel_h: 2
    kernel_w: 1
    stride_h: 2
    stride_w: 1
  }
}
layer {
  name: "conv4"
  type: "Convolution"
  bottom: "pool3"
  top: "conv4"
  convolution_param {
    num_output: 36
    pad: 0
    stride: 1
    weight_filler {
      type: "xavier"
    }
    bias_filler {
      type: "constant"
    }
    kernel_h: 6
    kernel_w: 3
  }
}
layer {
  name: "relu4"
  type: "ReLU"
  bottom: "conv4"
  top: "conv4"
}
layer {
  name: "pool4"
  type: "Pooling"
  bottom: "conv4"
  top: "pool4"
  pooling_param {
    pool: MAX
    kernel_h: 2
    kernel_w: 1
    stride_h: 2
    stride_w: 1
  }
}
layer {
  name: "ip1"
  type: "InnerProduct"
  bottom: "pool4"
  top: "ip1"
  inner_product_param {
    num_output: 196
    weight_filler {
      type: "xavier"
    }
    bias_filler {
      type: "constant"
    }
  }
}
layer {
  name: "relu5"
  type: "ReLU"
  bottom: "ip1"
  top: "ip1"
}
layer {
  name: "drop1"
  type: "Dropout"
  bottom: "ip1"
  top: "ip1"
  dropout_param {
    dropout_ratio: 0.5
  }
}
layer {
  name: "ip2"
  type: "InnerProduct"
  bottom: "ip1"
  top: "ip2"
  inner_product_param {
    num_output: 98
    weight_filler {
      type: "xavier"
    }
    bias_filler {
      type: "constant"
    }
  }
}
layer {
  name: "relu6"
  type: "ReLU"
  bottom: "ip2"
  top: "ip2"
}
layer {
  name: "drop2"
  type: "Dropout"
  bottom: "ip2"
  top: "ip2"
  dropout_param {
    dropout_ratio: 0.5
  }
}
layer {
  name: "ip3"
  type: "InnerProduct"
  bottom: "ip2"
  top: "ip3"
  inner_product_param {
    num_output: 11
    weight_filler {
      type: "xavier"
    }
    bias_filler {
      type: "constant"
    }
  }
}
layer {
  name: "drop3"
  type: "Dropout"
  bottom: "ip3"
  top: "ip3"
  dropout_param {
    dropout_ratio: 0.5
  }
}
layer {
  name: "loss"
  type: "SoftmaxWithLoss"
  bottom: "ip3"
  bottom: "label"
  top: "loss"
}
I0519 17:12:52.897924 22126 layer_factory.hpp:77] Creating layer data_hdf5
I0519 17:12:52.897953 22126 net.cpp:106] Creating Layer data_hdf5
I0519 17:12:52.897979 22126 net.cpp:411] data_hdf5 -> data
I0519 17:12:52.898012 22126 net.cpp:411] data_hdf5 -> label
I0519 17:12:52.898056 22126 hdf5_data_layer.cpp:79] Loading list of HDF5 filenames from: /lustre/atlas/proj-shared/hep105/caffe_titan/minosmatch_nukecczdefs_127x50_x_unshifted_me1Bmc.trainlist
I0519 17:12:52.899286 22126 hdf5_data_layer.cpp:93] Number of HDF5 files: 15
I0519 17:12:52.901521 22126 hdf5.cpp:32] Datatype class: H5T_FLOAT
I0519 17:13:14.452775 22126 hdf5.cpp:35] Datatype class: H5T_INTEGER
I0519 17:13:14.458050 22126 net.cpp:150] Setting up data_hdf5
I0519 17:13:14.458092 22126 net.cpp:157] Top shape: 100 1 127 50 (635000)
I0519 17:13:14.458111 22126 net.cpp:157] Top shape: 100 (100)
I0519 17:13:14.458123 22126 net.cpp:165] Memory required for data: 2540400
I0519 17:13:14.458142 22126 layer_factory.hpp:77] Creating layer conv1
I0519 17:13:14.458189 22126 net.cpp:106] Creating Layer conv1
I0519 17:13:14.458204 22126 net.cpp:454] conv1 <- data
I0519 17:13:14.458228 22126 net.cpp:411] conv1 -> conv1
I0519 17:13:15.337805 22126 net.cpp:150] Setting up conv1
I0519 17:13:15.337858 22126 net.cpp:157] Top shape: 100 12 120 48 (6912000)
I0519 17:13:15.337882 22126 net.cpp:165] Memory required for data: 30188400
I0519 17:13:15.337913 22126 layer_factory.hpp:77] Creating layer relu1
I0519 17:13:15.337935 22126 net.cpp:106] Creating Layer relu1
I0519 17:13:15.337955 22126 net.cpp:454] relu1 <- conv1
I0519 17:13:15.337991 22126 net.cpp:397] relu1 -> conv1 (in-place)
I0519 17:13:15.338523 22126 net.cpp:150] Setting up relu1
I0519 17:13:15.338546 22126 net.cpp:157] Top shape: 100 12 120 48 (6912000)
I0519 17:13:15.338560 22126 net.cpp:165] Memory required for data: 57836400
I0519 17:13:15.338577 22126 layer_factory.hpp:77] Creating layer pool1
I0519 17:13:15.338603 22126 net.cpp:106] Creating Layer pool1
I0519 17:13:15.338618 22126 net.cpp:454] pool1 <- conv1
I0519 17:13:15.338634 22126 net.cpp:411] pool1 -> pool1
I0519 17:13:15.338726 22126 net.cpp:150] Setting up pool1
I0519 17:13:15.338745 22126 net.cpp:157] Top shape: 100 12 60 48 (3456000)
I0519 17:13:15.338760 22126 net.cpp:165] Memory required for data: 71660400
I0519 17:13:15.338780 22126 layer_factory.hpp:77] Creating layer conv2
I0519 17:13:15.338804 22126 net.cpp:106] Creating Layer conv2
I0519 17:13:15.338819 22126 net.cpp:454] conv2 <- pool1
I0519 17:13:15.338835 22126 net.cpp:411] conv2 -> conv2
I0519 17:13:15.341581 22126 net.cpp:150] Setting up conv2
I0519 17:13:15.341612 22126 net.cpp:157] Top shape: 100 20 54 46 (4968000)
I0519 17:13:15.341629 22126 net.cpp:165] Memory required for data: 91532400
I0519 17:13:15.341656 22126 layer_factory.hpp:77] Creating layer relu2
I0519 17:13:15.341683 22126 net.cpp:106] Creating Layer relu2
I0519 17:13:15.341697 22126 net.cpp:454] relu2 <- conv2
I0519 17:13:15.341713 22126 net.cpp:397] relu2 -> conv2 (in-place)
I0519 17:13:15.342067 22126 net.cpp:150] Setting up relu2
I0519 17:13:15.342088 22126 net.cpp:157] Top shape: 100 20 54 46 (4968000)
I0519 17:13:15.342100 22126 net.cpp:165] Memory required for data: 111404400
I0519 17:13:15.342116 22126 layer_factory.hpp:77] Creating layer pool2
I0519 17:13:15.342138 22126 net.cpp:106] Creating Layer pool2
I0519 17:13:15.342151 22126 net.cpp:454] pool2 <- conv2
I0519 17:13:15.342167 22126 net.cpp:411] pool2 -> pool2
I0519 17:13:15.342263 22126 net.cpp:150] Setting up pool2
I0519 17:13:15.342280 22126 net.cpp:157] Top shape: 100 20 27 46 (2484000)
I0519 17:13:15.342295 22126 net.cpp:165] Memory required for data: 121340400
I0519 17:13:15.342316 22126 layer_factory.hpp:77] Creating layer conv3
I0519 17:13:15.342337 22126 net.cpp:106] Creating Layer conv3
I0519 17:13:15.342356 22126 net.cpp:454] conv3 <- pool2
I0519 17:13:15.342373 22126 net.cpp:411] conv3 -> conv3
I0519 17:13:15.344329 22126 net.cpp:150] Setting up conv3
I0519 17:13:15.344353 22126 net.cpp:157] Top shape: 100 28 22 44 (2710400)
I0519 17:13:15.344374 22126 net.cpp:165] Memory required for data: 132182000
I0519 17:13:15.344396 22126 layer_factory.hpp:77] Creating layer relu3
I0519 17:13:15.344419 22126 net.cpp:106] Creating Layer relu3
I0519 17:13:15.344442 22126 net.cpp:454] relu3 <- conv3
I0519 17:13:15.344458 22126 net.cpp:397] relu3 -> conv3 (in-place)
I0519 17:13:15.344944 22126 net.cpp:150] Setting up relu3
I0519 17:13:15.344969 22126 net.cpp:157] Top shape: 100 28 22 44 (2710400)
I0519 17:13:15.344982 22126 net.cpp:165] Memory required for data: 143023600
I0519 17:13:15.344998 22126 layer_factory.hpp:77] Creating layer pool3
I0519 17:13:15.345013 22126 net.cpp:106] Creating Layer pool3
I0519 17:13:15.345036 22126 net.cpp:454] pool3 <- conv3
I0519 17:13:15.345052 22126 net.cpp:411] pool3 -> pool3
I0519 17:13:15.345134 22126 net.cpp:150] Setting up pool3
I0519 17:13:15.345156 22126 net.cpp:157] Top shape: 100 28 11 44 (1355200)
I0519 17:13:15.345170 22126 net.cpp:165] Memory required for data: 148444400
I0519 17:13:15.345181 22126 layer_factory.hpp:77] Creating layer conv4
I0519 17:13:15.345211 22126 net.cpp:106] Creating Layer conv4
I0519 17:13:15.345223 22126 net.cpp:454] conv4 <- pool3
I0519 17:13:15.345240 22126 net.cpp:411] conv4 -> conv4
I0519 17:13:15.348212 22126 net.cpp:150] Setting up conv4
I0519 17:13:15.348244 22126 net.cpp:157] Top shape: 100 36 6 42 (907200)
I0519 17:13:15.348260 22126 net.cpp:165] Memory required for data: 152073200
I0519 17:13:15.348294 22126 layer_factory.hpp:77] Creating layer relu4
I0519 17:13:15.348325 22126 net.cpp:106] Creating Layer relu4
I0519 17:13:15.348340 22126 net.cpp:454] relu4 <- conv4
I0519 17:13:15.348356 22126 net.cpp:397] relu4 -> conv4 (in-place)
I0519 17:13:15.348851 22126 net.cpp:150] Setting up relu4
I0519 17:13:15.348875 22126 net.cpp:157] Top shape: 100 36 6 42 (907200)
I0519 17:13:15.348887 22126 net.cpp:165] Memory required for data: 155702000
I0519 17:13:15.348903 22126 layer_factory.hpp:77] Creating layer pool4
I0519 17:13:15.348919 22126 net.cpp:106] Creating Layer pool4
I0519 17:13:15.348940 22126 net.cpp:454] pool4 <- conv4
I0519 17:13:15.348956 22126 net.cpp:411] pool4 -> pool4
I0519 17:13:15.349040 22126 net.cpp:150] Setting up pool4
I0519 17:13:15.349061 22126 net.cpp:157] Top shape: 100 36 3 42 (453600)
I0519 17:13:15.349074 22126 net.cpp:165] Memory required for data: 157516400
I0519 17:13:15.349089 22126 layer_factory.hpp:77] Creating layer ip1
I0519 17:13:15.349117 22126 net.cpp:106] Creating Layer ip1
I0519 17:13:15.349130 22126 net.cpp:454] ip1 <- pool4
I0519 17:13:15.349145 22126 net.cpp:411] ip1 -> ip1
I0519 17:13:15.364586 22126 net.cpp:150] Setting up ip1
I0519 17:13:15.364617 22126 net.cpp:157] Top shape: 100 196 (19600)
I0519 17:13:15.364631 22126 net.cpp:165] Memory required for data: 157594800
I0519 17:13:15.364660 22126 layer_factory.hpp:77] Creating layer relu5
I0519 17:13:15.364677 22126 net.cpp:106] Creating Layer relu5
I0519 17:13:15.364691 22126 net.cpp:454] relu5 <- ip1
I0519 17:13:15.364718 22126 net.cpp:397] relu5 -> ip1 (in-place)
I0519 17:13:15.365079 22126 net.cpp:150] Setting up relu5
I0519 17:13:15.365099 22126 net.cpp:157] Top shape: 100 196 (19600)
I0519 17:13:15.365111 22126 net.cpp:165] Memory required for data: 157673200
I0519 17:13:15.365123 22126 layer_factory.hpp:77] Creating layer drop1
I0519 17:13:15.365166 22126 net.cpp:106] Creating Layer drop1
I0519 17:13:15.365180 22126 net.cpp:454] drop1 <- ip1
I0519 17:13:15.365195 22126 net.cpp:397] drop1 -> ip1 (in-place)
I0519 17:13:15.365268 22126 net.cpp:150] Setting up drop1
I0519 17:13:15.365285 22126 net.cpp:157] Top shape: 100 196 (19600)
I0519 17:13:15.365309 22126 net.cpp:165] Memory required for data: 157751600
I0519 17:13:15.365322 22126 layer_factory.hpp:77] Creating layer ip2
I0519 17:13:15.365345 22126 net.cpp:106] Creating Layer ip2
I0519 17:13:15.365358 22126 net.cpp:454] ip2 <- ip1
I0519 17:13:15.365386 22126 net.cpp:411] ip2 -> ip2
I0519 17:13:15.365870 22126 net.cpp:150] Setting up ip2
I0519 17:13:15.365890 22126 net.cpp:157] Top shape: 100 98 (9800)
I0519 17:13:15.365902 22126 net.cpp:165] Memory required for data: 157790800
I0519 17:13:15.365923 22126 layer_factory.hpp:77] Creating layer relu6
I0519 17:13:15.365945 22126 net.cpp:106] Creating Layer relu6
I0519 17:13:15.365958 22126 net.cpp:454] relu6 <- ip2
I0519 17:13:15.365973 22126 net.cpp:397] relu6 -> ip2 (in-place)
I0519 17:13:15.366526 22126 net.cpp:150] Setting up relu6
I0519 17:13:15.366549 22126 net.cpp:157] Top shape: 100 98 (9800)
I0519 17:13:15.366562 22126 net.cpp:165] Memory required for data: 157830000
I0519 17:13:15.366578 22126 layer_factory.hpp:77] Creating layer drop2
I0519 17:13:15.366593 22126 net.cpp:106] Creating Layer drop2
I0519 17:13:15.366614 22126 net.cpp:454] drop2 <- ip2
I0519 17:13:15.366631 22126 net.cpp:397] drop2 -> ip2 (in-place)
I0519 17:13:15.366679 22126 net.cpp:150] Setting up drop2
I0519 17:13:15.366701 22126 net.cpp:157] Top shape: 100 98 (9800)
I0519 17:13:15.366714 22126 net.cpp:165] Memory required for data: 157869200
I0519 17:13:15.366732 22126 layer_factory.hpp:77] Creating layer ip3
I0519 17:13:15.366750 22126 net.cpp:106] Creating Layer ip3
I0519 17:13:15.366761 22126 net.cpp:454] ip3 <- ip2
I0519 17:13:15.366780 22126 net.cpp:411] ip3 -> ip3
I0519 17:13:15.367010 22126 net.cpp:150] Setting up ip3
I0519 17:13:15.367029 22126 net.cpp:157] Top shape: 100 11 (1100)
I0519 17:13:15.367043 22126 net.cpp:165] Memory required for data: 157873600
I0519 17:13:15.367063 22126 layer_factory.hpp:77] Creating layer drop3
I0519 17:13:15.367077 22126 net.cpp:106] Creating Layer drop3
I0519 17:13:15.367097 22126 net.cpp:454] drop3 <- ip3
I0519 17:13:15.367112 22126 net.cpp:397] drop3 -> ip3 (in-place)
I0519 17:13:15.367159 22126 net.cpp:150] Setting up drop3
I0519 17:13:15.367182 22126 net.cpp:157] Top shape: 100 11 (1100)
I0519 17:13:15.367194 22126 net.cpp:165] Memory required for data: 157878000
I0519 17:13:15.367213 22126 layer_factory.hpp:77] Creating layer loss
I0519 17:13:15.367234 22126 net.cpp:106] Creating Layer loss
I0519 17:13:15.367249 22126 net.cpp:454] loss <- ip3
I0519 17:13:15.367269 22126 net.cpp:454] loss <- label
I0519 17:13:15.367285 22126 net.cpp:411] loss -> loss
I0519 17:13:15.367305 22126 layer_factory.hpp:77] Creating layer loss
…
I0519 17:13:15.370200 22126 solver.cpp:181] Creating test net (#0) specified by net file: /lustre/atlas/proj-shared/hep105/caffe_titan/minosmatch_nukecczdefs_127x50_x_unshifted_me1Bmc.prototxt
I0519 17:13:15.370275 22126 net.cpp:322] The NetState phase (1) differed from the phase (0) specified by a rule in layer data_hdf5
I0519 17:13:15.370633 22126 net.cpp:49] Initializing net from parameters: 
name: "caffe_test_127x50_x_unshifted"
state {
  phase: TEST
}
layer {
  name: "data_hdf5"
  type: "HDF5Data"
  top: "data"
  top: "label"
  include {
    phase: TEST
  }
  hdf5_data_param {
    source: "/lustre/atlas/proj-shared/hep105/caffe_titan/minosmatch_nukecczdefs_127x50_x_unshifted_me1Bmc.testlist"
    batch_size: 100
  }
}
layer {
  name: "conv1"
  type: "Convolution"
  bottom: "data"
  top: "conv1"
  convolution_param {
    num_output: 12
    pad: 0
    stride: 1
    weight_filler {
      type: "xavier"
    }
    bias_filler {
      type: "constant"
    }
    kernel_h: 8
    kernel_w: 3
  }
}
layer {
  name: "relu1"
  type: "ReLU"
  bottom: "conv1"
  top: "conv1"
}
layer {
  name: "pool1"
  type: "Pooling"
  bottom: "conv1"
  top: "pool1"
  pooling_param {
    pool: MAX
    kernel_h: 2
    kernel_w: 1
    stride_h: 2
    stride_w: 1
  }
}
layer {
  name: "conv2"
  type: "Convolution"
  bottom: "pool1"
  top: "conv2"
  convolution_param {
    num_output: 20
    pad: 0
    stride: 1
    weight_filler {
      type: "xavier"
    }
    bias_filler {
      type: "constant"
    }
    kernel_h: 7
    kernel_w: 3
  }
}
layer {
  name: "relu2"
  type: "ReLU"
  bottom: "conv2"
  top: "conv2"
}
layer {
  name: "pool2"
  type: "Pooling"
  bottom: "conv2"
  top: "pool2"
  pooling_param {
    pool: MAX
    kernel_h: 2
    kernel_w: 1
    stride_h: 2
    stride_w: 1
  }
}
layer {
  name: "conv3"
  type: "Convolution"
  bottom: "pool2"
  top: "conv3"
  convolution_param {
    num_output: 28
    pad: 0
    stride: 1
    weight_filler {
      type: "xavier"
    }
    bias_filler {
      type: "constant"
    }
    kernel_h: 6
    kernel_w: 3
  }
}
layer {
  name: "relu3"
  type: "ReLU"
  bottom: "conv3"
  top: "conv3"
}
layer {
  name: "pool3"
  type: "Pooling"
  bottom: "conv3"
  top: "pool3"
  pooling_param {
    pool: MAX
    kernel_h: 2
    kernel_w: 1
    stride_h: 2
    stride_w: 1
  }
}
layer {
  name: "conv4"
  type: "Convolution"
  bottom: "pool3"
  top: "conv4"
  convolution_param {
    num_output: 36
    pad: 0
    stride: 1
    weight_filler {
      type: "xavier"
    }
    bias_filler {
      type: "constant"
    }
    kernel_h: 6
    kernel_w: 3
  }
}
layer {
  name: "relu4"
  type: "ReLU"
  bottom: "conv4"
  top: "conv4"
}
layer {
  name: "pool4"
  type: "Pooling"
  bottom: "conv4"
  top: "pool4"
  pooling_param {
    pool: MAX
    kernel_h: 2
    kernel_w: 1
    stride_h: 2
    stride_w: 1
  }
}
layer {
  name: "ip1"
  type: "InnerProduct"
  bottom: "pool4"
  top: "ip1"
  inner_product_param {
    num_output: 196
    weight_filler {
      type: "xavier"
    }
    bias_filler {
      type: "constant"
    }
  }
}
layer {
  name: "relu5"
  type: "ReLU"
  bottom: "ip1"
  top: "ip1"
}
layer {
  name: "drop1"
  type: "Dropout"
  bottom: "ip1"
  top: "ip1"
  dropout_param {
    dropout_ratio: 0.5
  }
}
layer {
  name: "ip2"
  type: "InnerProduct"
  bottom: "ip1"
  top: "ip2"
  inner_product_param {
    num_output: 98
    weight_filler {
      type: "xavier"
    }
    bias_filler {
      type: "constant"
    }
  }
}
layer {
  name: "relu6"
  type: "ReLU"
  bottom: "ip2"
  top: "ip2"
}
layer {
  name: "drop2"
  type: "Dropout"
  bottom: "ip2"
  top: "ip2"
  dropout_param {
    dropout_ratio: 0.5
  }
}
layer {
  name: "ip3"
  type: "InnerProduct"
  bottom: "ip2"
  top: "ip3"
  inner_product_param {
    num_output: 11
    weight_filler {
      type: "xavier"
    }
    bias_filler {
      type: "constant"
    }
  }
}
layer {
  name: "drop3"
  type: "Dropout"
  bottom: "ip3"
  top: "ip3"
  dropout_param {
    dropout_ratio: 0.5
  }
}
layer {
  name: "accuracy"
  type: "Accuracy"
  bottom: "ip3"
  bottom: "label"
  top: "accuracy"
  include {
    phase: TEST
  }
}
layer {
  name: "loss"
  type: "SoftmaxWithLoss"
  bottom: "ip3"
  bottom: "label"
  top: "loss"
}
I0519 17:13:15.370832 22126 layer_factory.hpp:77] Creating layer data_hdf5
I0519 17:13:15.370851 22126 net.cpp:106] Creating Layer data_hdf5
I0519 17:13:15.370867 22126 net.cpp:411] data_hdf5 -> data
I0519 17:13:15.370887 22126 net.cpp:411] data_hdf5 -> label
I0519 17:13:15.370905 22126 hdf5_data_layer.cpp:79] Loading list of HDF5 filenames from: /lustre/atlas/proj-shared/hep105/caffe_titan/minosmatch_nukecczdefs_127x50_x_unshifted_me1Bmc.testlist
I0519 17:13:15.372318 22126 hdf5_data_layer.cpp:93] Number of HDF5 files: 3
I0519 17:13:36.723209 22126 net.cpp:150] Setting up data_hdf5
I0519 17:13:36.723381 22126 net.cpp:157] Top shape: 100 1 127 50 (635000)
I0519 17:13:36.723400 22126 net.cpp:157] Top shape: 100 (100)
I0519 17:13:36.723412 22126 net.cpp:165] Memory required for data: 2540400
I0519 17:13:36.723428 22126 layer_factory.hpp:77] Creating layer label_data_hdf5_1_split
I0519 17:13:36.723461 22126 net.cpp:106] Creating Layer label_data_hdf5_1_split
I0519 17:13:36.723474 22126 net.cpp:454] label_data_hdf5_1_split <- label
I0519 17:13:36.723491 22126 net.cpp:411] label_data_hdf5_1_split -> label_data_hdf5_1_split_0
I0519 17:13:36.723534 22126 net.cpp:411] label_data_hdf5_1_split -> label_data_hdf5_1_split_1
I0519 17:13:36.723613 22126 net.cpp:150] Setting up label_data_hdf5_1_split
I0519 17:13:36.723639 22126 net.cpp:157] Top shape: 100 (100)
I0519 17:13:36.723654 22126 net.cpp:157] Top shape: 100 (100)
I0519 17:13:36.723675 22126 net.cpp:165] Memory required for data: 2541200
I0519 17:13:36.723688 22126 layer_factory.hpp:77] Creating layer conv1
I0519 17:13:36.723714 22126 net.cpp:106] Creating Layer conv1
I0519 17:13:36.723733 22126 net.cpp:454] conv1 <- data
I0519 17:13:36.723752 22126 net.cpp:411] conv1 -> conv1
I0519 17:13:36.725720 22126 net.cpp:150] Setting up conv1
I0519 17:13:36.725746 22126 net.cpp:157] Top shape: 100 12 120 48 (6912000)
I0519 17:13:36.725766 22126 net.cpp:165] Memory required for data: 30189200
I0519 17:13:36.725790 22126 layer_factory.hpp:77] Creating layer relu1
I0519 17:13:36.725811 22126 net.cpp:106] Creating Layer relu1
I0519 17:13:36.725832 22126 net.cpp:454] relu1 <- conv1
I0519 17:13:36.725849 22126 net.cpp:397] relu1 -> conv1 (in-place)
I0519 17:13:36.726366 22126 net.cpp:150] Setting up relu1
I0519 17:13:36.726389 22126 net.cpp:157] Top shape: 100 12 120 48 (6912000)
I0519 17:13:36.726402 22126 net.cpp:165] Memory required for data: 57837200
I0519 17:13:36.726414 22126 layer_factory.hpp:77] Creating layer pool1
I0519 17:13:36.726444 22126 net.cpp:106] Creating Layer pool1
I0519 17:13:36.726459 22126 net.cpp:454] pool1 <- conv1
I0519 17:13:36.726475 22126 net.cpp:411] pool1 -> pool1
I0519 17:13:36.726565 22126 net.cpp:150] Setting up pool1
I0519 17:13:36.726588 22126 net.cpp:157] Top shape: 100 12 60 48 (3456000)
I0519 17:13:36.726601 22126 net.cpp:165] Memory required for data: 71661200
I0519 17:13:36.726615 22126 layer_factory.hpp:77] Creating layer conv2
I0519 17:13:36.726642 22126 net.cpp:106] Creating Layer conv2
I0519 17:13:36.726656 22126 net.cpp:454] conv2 <- pool1
I0519 17:13:36.726673 22126 net.cpp:411] conv2 -> conv2
I0519 17:13:36.728652 22126 net.cpp:150] Setting up conv2
I0519 17:13:36.728677 22126 net.cpp:157] Top shape: 100 20 54 46 (4968000)
I0519 17:13:36.728690 22126 net.cpp:165] Memory required for data: 91533200
I0519 17:13:36.728715 22126 layer_factory.hpp:77] Creating layer relu2
I0519 17:13:36.728732 22126 net.cpp:106] Creating Layer relu2
I0519 17:13:36.728755 22126 net.cpp:454] relu2 <- conv2
I0519 17:13:36.728771 22126 net.cpp:397] relu2 -> conv2 (in-place)
I0519 17:13:36.729130 22126 net.cpp:150] Setting up relu2
I0519 17:13:36.729151 22126 net.cpp:157] Top shape: 100 20 54 46 (4968000)
I0519 17:13:36.729163 22126 net.cpp:165] Memory required for data: 111405200
I0519 17:13:36.729178 22126 layer_factory.hpp:77] Creating layer pool2
I0519 17:13:36.729194 22126 net.cpp:106] Creating Layer pool2
I0519 17:13:36.729214 22126 net.cpp:454] pool2 <- conv2
I0519 17:13:36.729230 22126 net.cpp:411] pool2 -> pool2
I0519 17:13:36.729320 22126 net.cpp:150] Setting up pool2
I0519 17:13:36.729338 22126 net.cpp:157] Top shape: 100 20 27 46 (2484000)
I0519 17:13:36.729351 22126 net.cpp:165] Memory required for data: 121341200
I0519 17:13:36.729365 22126 layer_factory.hpp:77] Creating layer conv3
I0519 17:13:36.729393 22126 net.cpp:106] Creating Layer conv3
I0519 17:13:36.729406 22126 net.cpp:454] conv3 <- pool2
I0519 17:13:36.729424 22126 net.cpp:411] conv3 -> conv3
I0519 17:13:36.731454 22126 net.cpp:150] Setting up conv3
I0519 17:13:36.731479 22126 net.cpp:157] Top shape: 100 28 22 44 (2710400)
I0519 17:13:36.731498 22126 net.cpp:165] Memory required for data: 132182800
I0519 17:13:36.731536 22126 layer_factory.hpp:77] Creating layer relu3
I0519 17:13:36.731561 22126 net.cpp:106] Creating Layer relu3
I0519 17:13:36.731575 22126 net.cpp:454] relu3 <- conv3
I0519 17:13:36.731591 22126 net.cpp:397] relu3 -> conv3 (in-place)
I0519 17:13:36.732086 22126 net.cpp:150] Setting up relu3
I0519 17:13:36.732110 22126 net.cpp:157] Top shape: 100 28 22 44 (2710400)
I0519 17:13:36.732123 22126 net.cpp:165] Memory required for data: 143024400
I0519 17:13:36.732139 22126 layer_factory.hpp:77] Creating layer pool3
I0519 17:13:36.732163 22126 net.cpp:106] Creating Layer pool3
I0519 17:13:36.732177 22126 net.cpp:454] pool3 <- conv3
I0519 17:13:36.732194 22126 net.cpp:411] pool3 -> pool3
I0519 17:13:36.732287 22126 net.cpp:150] Setting up pool3
I0519 17:13:36.732305 22126 net.cpp:157] Top shape: 100 28 11 44 (1355200)
I0519 17:13:36.732319 22126 net.cpp:165] Memory required for data: 148445200
I0519 17:13:36.732331 22126 layer_factory.hpp:77] Creating layer conv4
I0519 17:13:36.732358 22126 net.cpp:106] Creating Layer conv4
I0519 17:13:36.732378 22126 net.cpp:454] conv4 <- pool3
I0519 17:13:36.732394 22126 net.cpp:411] conv4 -> conv4
I0519 17:13:36.734516 22126 net.cpp:150] Setting up conv4
I0519 17:13:36.734540 22126 net.cpp:157] Top shape: 100 36 6 42 (907200)
I0519 17:13:36.734560 22126 net.cpp:165] Memory required for data: 152074000
I0519 17:13:36.734580 22126 layer_factory.hpp:77] Creating layer relu4
I0519 17:13:36.734599 22126 net.cpp:106] Creating Layer relu4
I0519 17:13:36.734612 22126 net.cpp:454] relu4 <- conv4
I0519 17:13:36.734637 22126 net.cpp:397] relu4 -> conv4 (in-place)
I0519 17:13:36.735131 22126 net.cpp:150] Setting up relu4
I0519 17:13:36.735153 22126 net.cpp:157] Top shape: 100 36 6 42 (907200)
I0519 17:13:36.735167 22126 net.cpp:165] Memory required for data: 155702800
I0519 17:13:36.735183 22126 layer_factory.hpp:77] Creating layer pool4
I0519 17:13:36.735198 22126 net.cpp:106] Creating Layer pool4
I0519 17:13:36.735213 22126 net.cpp:454] pool4 <- conv4
I0519 17:13:36.735230 22126 net.cpp:411] pool4 -> pool4
I0519 17:13:36.735329 22126 net.cpp:150] Setting up pool4
I0519 17:13:36.735352 22126 net.cpp:157] Top shape: 100 36 3 42 (453600)
I0519 17:13:36.735364 22126 net.cpp:165] Memory required for data: 157517200
I0519 17:13:36.735376 22126 layer_factory.hpp:77] Creating layer ip1
I0519 17:13:36.735394 22126 net.cpp:106] Creating Layer ip1
I0519 17:13:36.735406 22126 net.cpp:454] ip1 <- pool4
I0519 17:13:36.735424 22126 net.cpp:411] ip1 -> ip1
I0519 17:13:36.750910 22126 net.cpp:150] Setting up ip1
I0519 17:13:36.750944 22126 net.cpp:157] Top shape: 100 196 (19600)
I0519 17:13:36.750965 22126 net.cpp:165] Memory required for data: 157595600
I0519 17:13:36.750991 22126 layer_factory.hpp:77] Creating layer relu5
I0519 17:13:36.751013 22126 net.cpp:106] Creating Layer relu5
I0519 17:13:36.751037 22126 net.cpp:454] relu5 <- ip1
I0519 17:13:36.751055 22126 net.cpp:397] relu5 -> ip1 (in-place)
I0519 17:13:36.751421 22126 net.cpp:150] Setting up relu5
I0519 17:13:36.751441 22126 net.cpp:157] Top shape: 100 196 (19600)
I0519 17:13:36.751454 22126 net.cpp:165] Memory required for data: 157674000
I0519 17:13:36.751469 22126 layer_factory.hpp:77] Creating layer drop1
I0519 17:13:36.751492 22126 net.cpp:106] Creating Layer drop1
I0519 17:13:36.751510 22126 net.cpp:454] drop1 <- ip1
I0519 17:13:36.751528 22126 net.cpp:397] drop1 -> ip1 (in-place)
I0519 17:13:36.751579 22126 net.cpp:150] Setting up drop1
I0519 17:13:36.751600 22126 net.cpp:157] Top shape: 100 196 (19600)
I0519 17:13:36.751613 22126 net.cpp:165] Memory required for data: 157752400
I0519 17:13:36.751626 22126 layer_factory.hpp:77] Creating layer ip2
I0519 17:13:36.751646 22126 net.cpp:106] Creating Layer ip2
I0519 17:13:36.751658 22126 net.cpp:454] ip2 <- ip1
I0519 17:13:36.751682 22126 net.cpp:411] ip2 -> ip2
I0519 17:13:36.752178 22126 net.cpp:150] Setting up ip2
I0519 17:13:36.752197 22126 net.cpp:157] Top shape: 100 98 (9800)
I0519 17:13:36.752210 22126 net.cpp:165] Memory required for data: 157791600
I0519 17:13:36.752231 22126 layer_factory.hpp:77] Creating layer relu6
I0519 17:13:36.752265 22126 net.cpp:106] Creating Layer relu6
I0519 17:13:36.752292 22126 net.cpp:454] relu6 <- ip2
I0519 17:13:36.752308 22126 net.cpp:397] relu6 -> ip2 (in-place)
I0519 17:13:36.752877 22126 net.cpp:150] Setting up relu6
I0519 17:13:36.752902 22126 net.cpp:157] Top shape: 100 98 (9800)
I0519 17:13:36.752914 22126 net.cpp:165] Memory required for data: 157830800
I0519 17:13:36.752930 22126 layer_factory.hpp:77] Creating layer drop2
I0519 17:13:36.752955 22126 net.cpp:106] Creating Layer drop2
I0519 17:13:36.752969 22126 net.cpp:454] drop2 <- ip2
I0519 17:13:36.752985 22126 net.cpp:397] drop2 -> ip2 (in-place)
I0519 17:13:36.753036 22126 net.cpp:150] Setting up drop2
I0519 17:13:36.753060 22126 net.cpp:157] Top shape: 100 98 (9800)
I0519 17:13:36.753072 22126 net.cpp:165] Memory required for data: 157870000
I0519 17:13:36.753087 22126 layer_factory.hpp:77] Creating layer ip3
I0519 17:13:36.753103 22126 net.cpp:106] Creating Layer ip3
I0519 17:13:36.753118 22126 net.cpp:454] ip3 <- ip2
I0519 17:13:36.753141 22126 net.cpp:411] ip3 -> ip3
I0519 17:13:36.753381 22126 net.cpp:150] Setting up ip3
I0519 17:13:36.753399 22126 net.cpp:157] Top shape: 100 11 (1100)
I0519 17:13:36.753412 22126 net.cpp:165] Memory required for data: 157874400
I0519 17:13:36.753433 22126 layer_factory.hpp:77] Creating layer drop3
I0519 17:13:36.753455 22126 net.cpp:106] Creating Layer drop3
I0519 17:13:36.753468 22126 net.cpp:454] drop3 <- ip3
I0519 17:13:36.753484 22126 net.cpp:397] drop3 -> ip3 (in-place)
I0519 17:13:36.753533 22126 net.cpp:150] Setting up drop3
I0519 17:13:36.753556 22126 net.cpp:157] Top shape: 100 11 (1100)
I0519 17:13:36.753567 22126 net.cpp:165] Memory required for data: 157878800
I0519 17:13:36.753582 22126 layer_factory.hpp:77] Creating layer ip3_drop3_0_split
I0519 17:13:36.753597 22126 net.cpp:106] Creating Layer ip3_drop3_0_split
I0519 17:13:36.753612 22126 net.cpp:454] ip3_drop3_0_split <- ip3
I0519 17:13:36.753633 22126 net.cpp:411] ip3_drop3_0_split -> ip3_drop3_0_split_0
I0519 17:13:36.753653 22126 net.cpp:411] ip3_drop3_0_split -> ip3_drop3_0_split_1
I0519 17:13:36.753738 22126 net.cpp:150] Setting up ip3_drop3_0_split
I0519 17:13:36.753762 22126 net.cpp:157] Top shape: 100 11 (1100)
I0519 17:13:36.753777 22126 net.cpp:157] Top shape: 100 11 (1100)
I0519 17:13:36.753788 22126 net.cpp:165] Memory required for data: 157887600
I0519 17:13:36.753803 22126 layer_factory.hpp:77] Creating layer accuracy
I0519 17:13:36.753831 22126 net.cpp:106] Creating Layer accuracy
I0519 17:13:36.753845 22126 net.cpp:454] accuracy <- ip3_drop3_0_split_0
I0519 17:13:36.753862 22126 net.cpp:454] accuracy <- label_data_hdf5_1_split_0
I0519 17:13:36.753880 22126 net.cpp:411] accuracy -> accuracy
…
