…
I0519 18:11:42.451170 12029 net.cpp:322] The NetState phase (0) differed from the phase (1) specified by a rule in layer data_hdf5
I0519 18:11:42.451233 12029 net.cpp:322] The NetState phase (0) differed from the phase (1) specified by a rule in layer accuracy
I0519 18:11:42.451576 12029 net.cpp:49] Initializing net from parameters: 
name: "caffe_test_127x50_x_unshifted"
state {
  phase: TRAIN
}
layer {
  name: "data_hdf5"
  type: "HDF5Data"
  top: "data"
  top: "label"
  include {
    phase: TRAIN
  }
  hdf5_data_param {
    source: "/lustre/atlas/proj-shared/hep105/caffe_titan/minosmatch_nukecczdefs_127x50_x_unshifted_me1Bmc.trainlist"
    batch_size: 100
  }
}
layer {
  name: "conv1"
  type: "Convolution"
  bottom: "data"
  top: "conv1"
  convolution_param {
    num_output: 12
    pad: 0
    stride: 1
    weight_filler {
      type: "xavier"
    }
    bias_filler {
      type: "constant"
    }
    kernel_h: 8
    kernel_w: 3
  }
}
layer {
  name: "relu1"
  type: "ReLU"
  bottom: "conv1"
  top: "conv1"
}
layer {
  name: "pool1"
  type: "Pooling"
  bottom: "conv1"
  top: "pool1"
  pooling_param {
    pool: MAX
    kernel_h: 2
    kernel_w: 1
    stride_h: 2
    stride_w: 1
  }
}
layer {
  name: "conv2"
  type: "Convolution"
  bottom: "pool1"
  top: "conv2"
  convolution_param {
    num_output: 20
    pad: 0
    stride: 1
    weight_filler {
      type: "xavier"
    }
    bias_filler {
      type: "constant"
    }
    kernel_h: 7
    kernel_w: 3
  }
}
layer {
  name: "relu2"
  type: "ReLU"
  bottom: "conv2"
  top: "conv2"
}
layer {
  name: "pool2"
  type: "Pooling"
  bottom: "conv2"
  top: "pool2"
  pooling_param {
    pool: MAX
    kernel_h: 2
    kernel_w: 1
    stride_h: 2
    stride_w: 1
  }
}
layer {
  name: "conv3"
  type: "Convolution"
  bottom: "pool2"
  top: "conv3"
  convolution_param {
    num_output: 28
    pad: 0
    stride: 1
    weight_filler {
      type: "xavier"
    }
    bias_filler {
      type: "constant"
    }
    kernel_h: 6
    kernel_w: 3
  }
}
layer {
  name: "relu3"
  type: "ReLU"
  bottom: "conv3"
  top: "conv3"
}
layer {
  name: "pool3"
  type: "Pooling"
  bottom: "conv3"
  top: "pool3"
  pooling_param {
    pool: MAX
    kernel_h: 2
    kernel_w: 1
    stride_h: 2
    stride_w: 1
  }
}
layer {
  name: "conv4"
  type: "Convolution"
  bottom: "pool3"
  top: "conv4"
  convolution_param {
    num_output: 36
    pad: 0
    stride: 1
    weight_filler {
      type: "xavier"
    }
    bias_filler {
      type: "constant"
    }
    kernel_h: 6
    kernel_w: 3
  }
}
layer {
  name: "relu4"
  type: "ReLU"
  bottom: "conv4"
  top: "conv4"
}
layer {
  name: "pool4"
  type: "Pooling"
  bottom: "conv4"
  top: "pool4"
  pooling_param {
    pool: MAX
    kernel_h: 2
    kernel_w: 1
    stride_h: 2
    stride_w: 1
  }
}
layer {
  name: "ip1"
  type: "InnerProduct"
  bottom: "pool4"
  top: "ip1"
  inner_product_param {
    num_output: 196
    weight_filler {
      type: "xavier"
    }
    bias_filler {
      type: "constant"
    }
  }
}
layer {
  name: "relu5"
  type: "ReLU"
  bottom: "ip1"
  top: "ip1"
}
layer {
  name: "drop1"
  type: "Dropout"
  bottom: "ip1"
  top: "ip1"
  dropout_param {
    dropout_ratio: 0.5
  }
}
layer {
  name: "ip2"
  type: "InnerProduct"
  bottom: "ip1"
  top: "ip2"
  inner_product_param {
    num_output: 98
    weight_filler {
      type: "xavier"
    }
    bias_filler {
      type: "constant"
    }
  }
}
layer {
  name: "relu6"
  type: "ReLU"
  bottom: "ip2"
  top: "ip2"
}
layer {
  name: "drop2"
  type: "Dropout"
  bottom: "ip2"
  top: "ip2"
  dropout_param {
    dropout_ratio: 0.5
  }
}
layer {
  name: "ip3"
  type: "InnerProduct"
  bottom: "ip2"
  top: "ip3"
  inner_product_param {
    num_output: 11
    weight_filler {
      type: "xavier"
    }
    bias_filler {
      type: "constant"
    }
  }
}
layer {
  name: "drop3"
  type: "Dropout"
  bottom: "ip3"
  top: "ip3"
  dropout_param {
    dropout_ratio: 0.5
  }
}
layer {
  name: "loss"
  type: "SoftmaxWithLoss"
  bottom: "ip3"
  bottom: "label"
  top: "loss"
}
I0519 18:11:42.451762 12029 layer_factory.hpp:77] Creating layer data_hdf5
I0519 18:11:42.451786 12029 net.cpp:106] Creating Layer data_hdf5
I0519 18:11:42.451800 12029 net.cpp:411] data_hdf5 -> data
I0519 18:11:42.451833 12029 net.cpp:411] data_hdf5 -> label
I0519 18:11:42.451866 12029 hdf5_data_layer.cpp:79] Loading list of HDF5 filenames from: /lustre/atlas/proj-shared/hep105/caffe_titan/minosmatch_nukecczdefs_127x50_x_unshifted_me1Bmc.trainlist
I0519 18:11:42.470351 12029 hdf5_data_layer.cpp:93] Number of HDF5 files: 15
I0519 18:11:42.508564 12029 hdf5.cpp:32] Datatype class: H5T_FLOAT
I0519 18:12:04.001461 12029 hdf5.cpp:35] Datatype class: H5T_INTEGER
I0519 18:12:04.006662 12029 net.cpp:150] Setting up data_hdf5
I0519 18:12:04.006707 12029 net.cpp:157] Top shape: 100 1 127 50 (635000)
I0519 18:12:04.006722 12029 net.cpp:157] Top shape: 100 (100)
I0519 18:12:04.006733 12029 net.cpp:165] Memory required for data: 2540400
I0519 18:12:04.006747 12029 layer_factory.hpp:77] Creating layer conv1
I0519 18:12:04.006780 12029 net.cpp:106] Creating Layer conv1
I0519 18:12:04.006793 12029 net.cpp:454] conv1 <- data
I0519 18:12:04.006816 12029 net.cpp:411] conv1 -> conv1
I0519 18:12:04.884413 12029 net.cpp:150] Setting up conv1
I0519 18:12:04.884459 12029 net.cpp:157] Top shape: 100 12 120 48 (6912000)
I0519 18:12:04.884469 12029 net.cpp:165] Memory required for data: 30188400
I0519 18:12:04.884500 12029 layer_factory.hpp:77] Creating layer relu1
I0519 18:12:04.884522 12029 net.cpp:106] Creating Layer relu1
I0519 18:12:04.884533 12029 net.cpp:454] relu1 <- conv1
I0519 18:12:04.884546 12029 net.cpp:397] relu1 -> conv1 (in-place)
I0519 18:12:04.885063 12029 net.cpp:150] Setting up relu1
I0519 18:12:04.885081 12029 net.cpp:157] Top shape: 100 12 120 48 (6912000)
I0519 18:12:04.885090 12029 net.cpp:165] Memory required for data: 57836400
I0519 18:12:04.885100 12029 layer_factory.hpp:77] Creating layer pool1
I0519 18:12:04.885118 12029 net.cpp:106] Creating Layer pool1
I0519 18:12:04.885126 12029 net.cpp:454] pool1 <- conv1
I0519 18:12:04.885141 12029 net.cpp:411] pool1 -> pool1
I0519 18:12:04.885221 12029 net.cpp:150] Setting up pool1
I0519 18:12:04.885236 12029 net.cpp:157] Top shape: 100 12 60 48 (3456000)
I0519 18:12:04.885246 12029 net.cpp:165] Memory required for data: 71660400
I0519 18:12:04.885253 12029 layer_factory.hpp:77] Creating layer conv2
I0519 18:12:04.885277 12029 net.cpp:106] Creating Layer conv2
I0519 18:12:04.885287 12029 net.cpp:454] conv2 <- pool1
I0519 18:12:04.885298 12029 net.cpp:411] conv2 -> conv2
I0519 18:12:04.888039 12029 net.cpp:150] Setting up conv2
I0519 18:12:04.888062 12029 net.cpp:157] Top shape: 100 20 54 46 (4968000)
I0519 18:12:04.888078 12029 net.cpp:165] Memory required for data: 91532400
I0519 18:12:04.888098 12029 layer_factory.hpp:77] Creating layer relu2
I0519 18:12:04.888113 12029 net.cpp:106] Creating Layer relu2
I0519 18:12:04.888123 12029 net.cpp:454] relu2 <- conv2
I0519 18:12:04.888135 12029 net.cpp:397] relu2 -> conv2 (in-place)
I0519 18:12:04.888465 12029 net.cpp:150] Setting up relu2
I0519 18:12:04.888480 12029 net.cpp:157] Top shape: 100 20 54 46 (4968000)
I0519 18:12:04.888490 12029 net.cpp:165] Memory required for data: 111404400
I0519 18:12:04.888500 12029 layer_factory.hpp:77] Creating layer pool2
I0519 18:12:04.888514 12029 net.cpp:106] Creating Layer pool2
I0519 18:12:04.888523 12029 net.cpp:454] pool2 <- conv2
I0519 18:12:04.888535 12029 net.cpp:411] pool2 -> pool2
I0519 18:12:04.888617 12029 net.cpp:150] Setting up pool2
I0519 18:12:04.888631 12029 net.cpp:157] Top shape: 100 20 27 46 (2484000)
I0519 18:12:04.888641 12029 net.cpp:165] Memory required for data: 121340400
I0519 18:12:04.888651 12029 layer_factory.hpp:77] Creating layer conv3
I0519 18:12:04.888669 12029 net.cpp:106] Creating Layer conv3
I0519 18:12:04.888679 12029 net.cpp:454] conv3 <- pool2
I0519 18:12:04.888694 12029 net.cpp:411] conv3 -> conv3
I0519 18:12:04.890619 12029 net.cpp:150] Setting up conv3
I0519 18:12:04.890641 12029 net.cpp:157] Top shape: 100 28 22 44 (2710400)
I0519 18:12:04.890653 12029 net.cpp:165] Memory required for data: 132182000
I0519 18:12:04.890672 12029 layer_factory.hpp:77] Creating layer relu3
I0519 18:12:04.890688 12029 net.cpp:106] Creating Layer relu3
I0519 18:12:04.890698 12029 net.cpp:454] relu3 <- conv3
I0519 18:12:04.890710 12029 net.cpp:397] relu3 -> conv3 (in-place)
I0519 18:12:04.891181 12029 net.cpp:150] Setting up relu3
I0519 18:12:04.891199 12029 net.cpp:157] Top shape: 100 28 22 44 (2710400)
I0519 18:12:04.891209 12029 net.cpp:165] Memory required for data: 143023600
I0519 18:12:04.891219 12029 layer_factory.hpp:77] Creating layer pool3
I0519 18:12:04.891232 12029 net.cpp:106] Creating Layer pool3
I0519 18:12:04.891242 12029 net.cpp:454] pool3 <- conv3
I0519 18:12:04.891254 12029 net.cpp:411] pool3 -> pool3
I0519 18:12:04.891322 12029 net.cpp:150] Setting up pool3
I0519 18:12:04.891335 12029 net.cpp:157] Top shape: 100 28 11 44 (1355200)
I0519 18:12:04.891345 12029 net.cpp:165] Memory required for data: 148444400
I0519 18:12:04.891355 12029 layer_factory.hpp:77] Creating layer conv4
I0519 18:12:04.891371 12029 net.cpp:106] Creating Layer conv4
I0519 18:12:04.891381 12029 net.cpp:454] conv4 <- pool3
I0519 18:12:04.891396 12029 net.cpp:411] conv4 -> conv4
I0519 18:12:04.894366 12029 net.cpp:150] Setting up conv4
I0519 18:12:04.894397 12029 net.cpp:157] Top shape: 100 36 6 42 (907200)
I0519 18:12:04.894407 12029 net.cpp:165] Memory required for data: 152073200
I0519 18:12:04.894423 12029 layer_factory.hpp:77] Creating layer relu4
I0519 18:12:04.894436 12029 net.cpp:106] Creating Layer relu4
I0519 18:12:04.894446 12029 net.cpp:454] relu4 <- conv4
I0519 18:12:04.894459 12029 net.cpp:397] relu4 -> conv4 (in-place)
I0519 18:12:04.894922 12029 net.cpp:150] Setting up relu4
I0519 18:12:04.894937 12029 net.cpp:157] Top shape: 100 36 6 42 (907200)
I0519 18:12:04.894948 12029 net.cpp:165] Memory required for data: 155702000
I0519 18:12:04.894958 12029 layer_factory.hpp:77] Creating layer pool4
I0519 18:12:04.894971 12029 net.cpp:106] Creating Layer pool4
I0519 18:12:04.894981 12029 net.cpp:454] pool4 <- conv4
I0519 18:12:04.894994 12029 net.cpp:411] pool4 -> pool4
I0519 18:12:04.895061 12029 net.cpp:150] Setting up pool4
I0519 18:12:04.895076 12029 net.cpp:157] Top shape: 100 36 3 42 (453600)
I0519 18:12:04.895086 12029 net.cpp:165] Memory required for data: 157516400
I0519 18:12:04.895094 12029 layer_factory.hpp:77] Creating layer ip1
I0519 18:12:04.895114 12029 net.cpp:106] Creating Layer ip1
I0519 18:12:04.895124 12029 net.cpp:454] ip1 <- pool4
I0519 18:12:04.895138 12029 net.cpp:411] ip1 -> ip1
I0519 18:12:04.910617 12029 net.cpp:150] Setting up ip1
I0519 18:12:04.910646 12029 net.cpp:157] Top shape: 100 196 (19600)
I0519 18:12:04.910660 12029 net.cpp:165] Memory required for data: 157594800
I0519 18:12:04.910681 12029 layer_factory.hpp:77] Creating layer relu5
I0519 18:12:04.910696 12029 net.cpp:106] Creating Layer relu5
I0519 18:12:04.910706 12029 net.cpp:454] relu5 <- ip1
I0519 18:12:04.910719 12029 net.cpp:397] relu5 -> ip1 (in-place)
I0519 18:12:04.911059 12029 net.cpp:150] Setting up relu5
I0519 18:12:04.911072 12029 net.cpp:157] Top shape: 100 196 (19600)
I0519 18:12:04.911082 12029 net.cpp:165] Memory required for data: 157673200
I0519 18:12:04.911092 12029 layer_factory.hpp:77] Creating layer drop1
I0519 18:12:04.911115 12029 net.cpp:106] Creating Layer drop1
I0519 18:12:04.911125 12029 net.cpp:454] drop1 <- ip1
I0519 18:12:04.911139 12029 net.cpp:397] drop1 -> ip1 (in-place)
I0519 18:12:04.911197 12029 net.cpp:150] Setting up drop1
I0519 18:12:04.911211 12029 net.cpp:157] Top shape: 100 196 (19600)
I0519 18:12:04.911221 12029 net.cpp:165] Memory required for data: 157751600
I0519 18:12:04.911229 12029 layer_factory.hpp:77] Creating layer ip2
I0519 18:12:04.911248 12029 net.cpp:106] Creating Layer ip2
I0519 18:12:04.911259 12029 net.cpp:454] ip2 <- ip1
I0519 18:12:04.911273 12029 net.cpp:411] ip2 -> ip2
I0519 18:12:04.911742 12029 net.cpp:150] Setting up ip2
I0519 18:12:04.911756 12029 net.cpp:157] Top shape: 100 98 (9800)
I0519 18:12:04.911767 12029 net.cpp:165] Memory required for data: 157790800
I0519 18:12:04.911782 12029 layer_factory.hpp:77] Creating layer relu6
I0519 18:12:04.911794 12029 net.cpp:106] Creating Layer relu6
I0519 18:12:04.911804 12029 net.cpp:454] relu6 <- ip2
I0519 18:12:04.911816 12029 net.cpp:397] relu6 -> ip2 (in-place)
I0519 18:12:04.912336 12029 net.cpp:150] Setting up relu6
I0519 18:12:04.912353 12029 net.cpp:157] Top shape: 100 98 (9800)
I0519 18:12:04.912364 12029 net.cpp:165] Memory required for data: 157830000
I0519 18:12:04.912372 12029 layer_factory.hpp:77] Creating layer drop2
I0519 18:12:04.912385 12029 net.cpp:106] Creating Layer drop2
I0519 18:12:04.912395 12029 net.cpp:454] drop2 <- ip2
I0519 18:12:04.912408 12029 net.cpp:397] drop2 -> ip2 (in-place)
I0519 18:12:04.912451 12029 net.cpp:150] Setting up drop2
I0519 18:12:04.912464 12029 net.cpp:157] Top shape: 100 98 (9800)
I0519 18:12:04.912474 12029 net.cpp:165] Memory required for data: 157869200
I0519 18:12:04.912484 12029 layer_factory.hpp:77] Creating layer ip3
I0519 18:12:04.912498 12029 net.cpp:106] Creating Layer ip3
I0519 18:12:04.912508 12029 net.cpp:454] ip3 <- ip2
I0519 18:12:04.912520 12029 net.cpp:411] ip3 -> ip3
I0519 18:12:04.912730 12029 net.cpp:150] Setting up ip3
I0519 18:12:04.912744 12029 net.cpp:157] Top shape: 100 11 (1100)
I0519 18:12:04.912753 12029 net.cpp:165] Memory required for data: 157873600
I0519 18:12:04.912768 12029 layer_factory.hpp:77] Creating layer drop3
I0519 18:12:04.912781 12029 net.cpp:106] Creating Layer drop3
I0519 18:12:04.912791 12029 net.cpp:454] drop3 <- ip3
I0519 18:12:04.912802 12029 net.cpp:397] drop3 -> ip3 (in-place)
I0519 18:12:04.912842 12029 net.cpp:150] Setting up drop3
I0519 18:12:04.912854 12029 net.cpp:157] Top shape: 100 11 (1100)
I0519 18:12:04.912865 12029 net.cpp:165] Memory required for data: 157878000
I0519 18:12:04.912874 12029 layer_factory.hpp:77] Creating layer loss
I0519 18:12:04.912894 12029 net.cpp:106] Creating Layer loss
I0519 18:12:04.912904 12029 net.cpp:454] loss <- ip3
I0519 18:12:04.912914 12029 net.cpp:454] loss <- label
I0519 18:12:04.912927 12029 net.cpp:411] loss -> loss
I0519 18:12:04.912945 12029 layer_factory.hpp:77] Creating layer loss
…
I0519 18:12:04.915709 12029 solver.cpp:181] Creating test net (#0) specified by net file: /lustre/atlas/proj-shared/hep105/caffe_titan/minosmatch_nukecczdefs_127x50_x_unshifted_me1Bmc.prototxt
I0519 18:12:04.915779 12029 net.cpp:322] The NetState phase (1) differed from the phase (0) specified by a rule in layer data_hdf5
I0519 18:12:04.916137 12029 net.cpp:49] Initializing net from parameters: 
name: "caffe_test_127x50_x_unshifted"
state {
  phase: TEST
}
layer {
  name: "data_hdf5"
  type: "HDF5Data"
  top: "data"
  top: "label"
  include {
    phase: TEST
  }
  hdf5_data_param {
    source: "/lustre/atlas/proj-shared/hep105/caffe_titan/minosmatch_nukecczdefs_127x50_x_unshifted_me1Bmc.testlist"
    batch_size: 100
  }
}
layer {
  name: "conv1"
  type: "Convolution"
  bottom: "data"
  top: "conv1"
  convolution_param {
    num_output: 12
    pad: 0
    stride: 1
    weight_filler {
      type: "xavier"
    }
    bias_filler {
      type: "constant"
    }
    kernel_h: 8
    kernel_w: 3
  }
}
layer {
  name: "relu1"
  type: "ReLU"
  bottom: "conv1"
  top: "conv1"
}
layer {
  name: "pool1"
  type: "Pooling"
  bottom: "conv1"
  top: "pool1"
  pooling_param {
    pool: MAX
    kernel_h: 2
    kernel_w: 1
    stride_h: 2
    stride_w: 1
  }
}
layer {
  name: "conv2"
  type: "Convolution"
  bottom: "pool1"
  top: "conv2"
  convolution_param {
    num_output: 20
    pad: 0
    stride: 1
    weight_filler {
      type: "xavier"
    }
    bias_filler {
      type: "constant"
    }
    kernel_h: 7
    kernel_w: 3
  }
}
layer {
  name: "relu2"
  type: "ReLU"
  bottom: "conv2"
  top: "conv2"
}
layer {
  name: "pool2"
  type: "Pooling"
  bottom: "conv2"
  top: "pool2"
  pooling_param {
    pool: MAX
    kernel_h: 2
    kernel_w: 1
    stride_h: 2
    stride_w: 1
  }
}
layer {
  name: "conv3"
  type: "Convolution"
  bottom: "pool2"
  top: "conv3"
  convolution_param {
    num_output: 28
    pad: 0
    stride: 1
    weight_filler {
      type: "xavier"
    }
    bias_filler {
      type: "constant"
    }
    kernel_h: 6
    kernel_w: 3
  }
}
layer {
  name: "relu3"
  type: "ReLU"
  bottom: "conv3"
  top: "conv3"
}
layer {
  name: "pool3"
  type: "Pooling"
  bottom: "conv3"
  top: "pool3"
  pooling_param {
    pool: MAX
    kernel_h: 2
    kernel_w: 1
    stride_h: 2
    stride_w: 1
  }
}
layer {
  name: "conv4"
  type: "Convolution"
  bottom: "pool3"
  top: "conv4"
  convolution_param {
    num_output: 36
    pad: 0
    stride: 1
    weight_filler {
      type: "xavier"
    }
    bias_filler {
      type: "constant"
    }
    kernel_h: 6
    kernel_w: 3
  }
}
layer {
  name: "relu4"
  type: "ReLU"
  bottom: "conv4"
  top: "conv4"
}
layer {
  name: "pool4"
  type: "Pooling"
  bottom: "conv4"
  top: "pool4"
  pooling_param {
    pool: MAX
    kernel_h: 2
    kernel_w: 1
    stride_h: 2
    stride_w: 1
  }
}
layer {
  name: "ip1"
  type: "InnerProduct"
  bottom: "pool4"
  top: "ip1"
  inner_product_param {
    num_output: 196
    weight_filler {
      type: "xavier"
    }
    bias_filler {
      type: "constant"
    }
  }
}
layer {
  name: "relu5"
  type: "ReLU"
  bottom: "ip1"
  top: "ip1"
}
layer {
  name: "drop1"
  type: "Dropout"
  bottom: "ip1"
  top: "ip1"
  dropout_param {
    dropout_ratio: 0.5
  }
}
layer {
  name: "ip2"
  type: "InnerProduct"
  bottom: "ip1"
  top: "ip2"
  inner_product_param {
    num_output: 98
    weight_filler {
      type: "xavier"
    }
    bias_filler {
      type: "constant"
    }
  }
}
layer {
  name: "relu6"
  type: "ReLU"
  bottom: "ip2"
  top: "ip2"
}
layer {
  name: "drop2"
  type: "Dropout"
  bottom: "ip2"
  top: "ip2"
  dropout_param {
    dropout_ratio: 0.5
  }
}
layer {
  name: "ip3"
  type: "InnerProduct"
  bottom: "ip2"
  top: "ip3"
  inner_product_param {
    num_output: 11
    weight_filler {
      type: "xavier"
    }
    bias_filler {
      type: "constant"
    }
  }
}
layer {
  name: "drop3"
  type: "Dropout"
  bottom: "ip3"
  top: "ip3"
  dropout_param {
    dropout_ratio: 0.5
  }
}
layer {
  name: "accuracy"
  type: "Accuracy"
  bottom: "ip3"
  bottom: "label"
  top: "accuracy"
  include {
    phase: TEST
  }
}
layer {
  name: "loss"
  type: "SoftmaxWithLoss"
  bottom: "ip3"
  bottom: "label"
  top: "loss"
}
I0519 18:12:04.916327 12029 layer_factory.hpp:77] Creating layer data_hdf5
I0519 18:12:04.916342 12029 net.cpp:106] Creating Layer data_hdf5
I0519 18:12:04.916354 12029 net.cpp:411] data_hdf5 -> data
I0519 18:12:04.916371 12029 net.cpp:411] data_hdf5 -> label
I0519 18:12:04.916388 12029 hdf5_data_layer.cpp:79] Loading list of HDF5 filenames from: /lustre/atlas/proj-shared/hep105/caffe_titan/minosmatch_nukecczdefs_127x50_x_unshifted_me1Bmc.testlist
I0519 18:12:04.917836 12029 hdf5_data_layer.cpp:93] Number of HDF5 files: 3
I0519 18:12:26.408649 12029 net.cpp:150] Setting up data_hdf5
I0519 18:12:26.408817 12029 net.cpp:157] Top shape: 100 1 127 50 (635000)
I0519 18:12:26.408831 12029 net.cpp:157] Top shape: 100 (100)
I0519 18:12:26.408843 12029 net.cpp:165] Memory required for data: 2540400
I0519 18:12:26.408857 12029 layer_factory.hpp:77] Creating layer label_data_hdf5_1_split
I0519 18:12:26.408885 12029 net.cpp:106] Creating Layer label_data_hdf5_1_split
I0519 18:12:26.408896 12029 net.cpp:454] label_data_hdf5_1_split <- label
I0519 18:12:26.408911 12029 net.cpp:411] label_data_hdf5_1_split -> label_data_hdf5_1_split_0
I0519 18:12:26.408932 12029 net.cpp:411] label_data_hdf5_1_split -> label_data_hdf5_1_split_1
I0519 18:12:26.409004 12029 net.cpp:150] Setting up label_data_hdf5_1_split
I0519 18:12:26.409018 12029 net.cpp:157] Top shape: 100 (100)
I0519 18:12:26.409029 12029 net.cpp:157] Top shape: 100 (100)
I0519 18:12:26.409039 12029 net.cpp:165] Memory required for data: 2541200
I0519 18:12:26.409050 12029 layer_factory.hpp:77] Creating layer conv1
I0519 18:12:26.409072 12029 net.cpp:106] Creating Layer conv1
I0519 18:12:26.409082 12029 net.cpp:454] conv1 <- data
I0519 18:12:26.409097 12029 net.cpp:411] conv1 -> conv1
I0519 18:12:26.411031 12029 net.cpp:150] Setting up conv1
I0519 18:12:26.411054 12029 net.cpp:157] Top shape: 100 12 120 48 (6912000)
I0519 18:12:26.411067 12029 net.cpp:165] Memory required for data: 30189200
I0519 18:12:26.411087 12029 layer_factory.hpp:77] Creating layer relu1
I0519 18:12:26.411100 12029 net.cpp:106] Creating Layer relu1
I0519 18:12:26.411110 12029 net.cpp:454] relu1 <- conv1
I0519 18:12:26.411123 12029 net.cpp:397] relu1 -> conv1 (in-place)
I0519 18:12:26.411705 12029 net.cpp:150] Setting up relu1
I0519 18:12:26.411726 12029 net.cpp:157] Top shape: 100 12 120 48 (6912000)
I0519 18:12:26.411736 12029 net.cpp:165] Memory required for data: 57837200
I0519 18:12:26.411747 12029 layer_factory.hpp:77] Creating layer pool1
I0519 18:12:26.411763 12029 net.cpp:106] Creating Layer pool1
I0519 18:12:26.411773 12029 net.cpp:454] pool1 <- conv1
I0519 18:12:26.411787 12029 net.cpp:411] pool1 -> pool1
I0519 18:12:26.411862 12029 net.cpp:150] Setting up pool1
I0519 18:12:26.411875 12029 net.cpp:157] Top shape: 100 12 60 48 (3456000)
I0519 18:12:26.411885 12029 net.cpp:165] Memory required for data: 71661200
I0519 18:12:26.411895 12029 layer_factory.hpp:77] Creating layer conv2
I0519 18:12:26.411913 12029 net.cpp:106] Creating Layer conv2
I0519 18:12:26.411923 12029 net.cpp:454] conv2 <- pool1
I0519 18:12:26.411937 12029 net.cpp:411] conv2 -> conv2
I0519 18:12:26.413866 12029 net.cpp:150] Setting up conv2
I0519 18:12:26.413882 12029 net.cpp:157] Top shape: 100 20 54 46 (4968000)
I0519 18:12:26.413893 12029 net.cpp:165] Memory required for data: 91533200
I0519 18:12:26.413910 12029 layer_factory.hpp:77] Creating layer relu2
I0519 18:12:26.413924 12029 net.cpp:106] Creating Layer relu2
I0519 18:12:26.413933 12029 net.cpp:454] relu2 <- conv2
I0519 18:12:26.413945 12029 net.cpp:397] relu2 -> conv2 (in-place)
I0519 18:12:26.414281 12029 net.cpp:150] Setting up relu2
I0519 18:12:26.414295 12029 net.cpp:157] Top shape: 100 20 54 46 (4968000)
I0519 18:12:26.414305 12029 net.cpp:165] Memory required for data: 111405200
I0519 18:12:26.414315 12029 layer_factory.hpp:77] Creating layer pool2
I0519 18:12:26.414329 12029 net.cpp:106] Creating Layer pool2
I0519 18:12:26.414338 12029 net.cpp:454] pool2 <- conv2
I0519 18:12:26.414350 12029 net.cpp:411] pool2 -> pool2
I0519 18:12:26.414423 12029 net.cpp:150] Setting up pool2
I0519 18:12:26.414436 12029 net.cpp:157] Top shape: 100 20 27 46 (2484000)
I0519 18:12:26.414446 12029 net.cpp:165] Memory required for data: 121341200
I0519 18:12:26.414456 12029 layer_factory.hpp:77] Creating layer conv3
I0519 18:12:26.414474 12029 net.cpp:106] Creating Layer conv3
I0519 18:12:26.414484 12029 net.cpp:454] conv3 <- pool2
I0519 18:12:26.414499 12029 net.cpp:411] conv3 -> conv3
I0519 18:12:26.416496 12029 net.cpp:150] Setting up conv3
I0519 18:12:26.416519 12029 net.cpp:157] Top shape: 100 28 22 44 (2710400)
I0519 18:12:26.416532 12029 net.cpp:165] Memory required for data: 132182800
I0519 18:12:26.416563 12029 layer_factory.hpp:77] Creating layer relu3
I0519 18:12:26.416577 12029 net.cpp:106] Creating Layer relu3
I0519 18:12:26.416587 12029 net.cpp:454] relu3 <- conv3
I0519 18:12:26.416600 12029 net.cpp:397] relu3 -> conv3 (in-place)
I0519 18:12:26.417075 12029 net.cpp:150] Setting up relu3
I0519 18:12:26.417091 12029 net.cpp:157] Top shape: 100 28 22 44 (2710400)
I0519 18:12:26.417103 12029 net.cpp:165] Memory required for data: 143024400
I0519 18:12:26.417112 12029 layer_factory.hpp:77] Creating layer pool3
I0519 18:12:26.417125 12029 net.cpp:106] Creating Layer pool3
I0519 18:12:26.417135 12029 net.cpp:454] pool3 <- conv3
I0519 18:12:26.417151 12029 net.cpp:411] pool3 -> pool3
I0519 18:12:26.417228 12029 net.cpp:150] Setting up pool3
I0519 18:12:26.417242 12029 net.cpp:157] Top shape: 100 28 11 44 (1355200)
I0519 18:12:26.417251 12029 net.cpp:165] Memory required for data: 148445200
I0519 18:12:26.417261 12029 layer_factory.hpp:77] Creating layer conv4
I0519 18:12:26.417279 12029 net.cpp:106] Creating Layer conv4
I0519 18:12:26.417289 12029 net.cpp:454] conv4 <- pool3
I0519 18:12:26.417304 12029 net.cpp:411] conv4 -> conv4
I0519 18:12:26.419394 12029 net.cpp:150] Setting up conv4
I0519 18:12:26.419416 12029 net.cpp:157] Top shape: 100 36 6 42 (907200)
I0519 18:12:26.419428 12029 net.cpp:165] Memory required for data: 152074000
I0519 18:12:26.419443 12029 layer_factory.hpp:77] Creating layer relu4
I0519 18:12:26.419456 12029 net.cpp:106] Creating Layer relu4
I0519 18:12:26.419466 12029 net.cpp:454] relu4 <- conv4
I0519 18:12:26.419479 12029 net.cpp:397] relu4 -> conv4 (in-place)
I0519 18:12:26.419960 12029 net.cpp:150] Setting up relu4
I0519 18:12:26.419976 12029 net.cpp:157] Top shape: 100 36 6 42 (907200)
I0519 18:12:26.419986 12029 net.cpp:165] Memory required for data: 155702800
I0519 18:12:26.419996 12029 layer_factory.hpp:77] Creating layer pool4
I0519 18:12:26.420011 12029 net.cpp:106] Creating Layer pool4
I0519 18:12:26.420019 12029 net.cpp:454] pool4 <- conv4
I0519 18:12:26.420033 12029 net.cpp:411] pool4 -> pool4
I0519 18:12:26.420104 12029 net.cpp:150] Setting up pool4
I0519 18:12:26.420116 12029 net.cpp:157] Top shape: 100 36 3 42 (453600)
I0519 18:12:26.420126 12029 net.cpp:165] Memory required for data: 157517200
I0519 18:12:26.420136 12029 layer_factory.hpp:77] Creating layer ip1
I0519 18:12:26.420152 12029 net.cpp:106] Creating Layer ip1
I0519 18:12:26.420162 12029 net.cpp:454] ip1 <- pool4
I0519 18:12:26.420176 12029 net.cpp:411] ip1 -> ip1
I0519 18:12:26.435669 12029 net.cpp:150] Setting up ip1
I0519 18:12:26.435693 12029 net.cpp:157] Top shape: 100 196 (19600)
I0519 18:12:26.435711 12029 net.cpp:165] Memory required for data: 157595600
I0519 18:12:26.435734 12029 layer_factory.hpp:77] Creating layer relu5
I0519 18:12:26.435750 12029 net.cpp:106] Creating Layer relu5
I0519 18:12:26.435760 12029 net.cpp:454] relu5 <- ip1
I0519 18:12:26.435777 12029 net.cpp:397] relu5 -> ip1 (in-place)
I0519 18:12:26.436127 12029 net.cpp:150] Setting up relu5
I0519 18:12:26.436141 12029 net.cpp:157] Top shape: 100 196 (19600)
I0519 18:12:26.436151 12029 net.cpp:165] Memory required for data: 157674000
I0519 18:12:26.436161 12029 layer_factory.hpp:77] Creating layer drop1
I0519 18:12:26.436179 12029 net.cpp:106] Creating Layer drop1
I0519 18:12:26.436189 12029 net.cpp:454] drop1 <- ip1
I0519 18:12:26.436203 12029 net.cpp:397] drop1 -> ip1 (in-place)
I0519 18:12:26.436246 12029 net.cpp:150] Setting up drop1
I0519 18:12:26.436259 12029 net.cpp:157] Top shape: 100 196 (19600)
I0519 18:12:26.436270 12029 net.cpp:165] Memory required for data: 157752400
I0519 18:12:26.436280 12029 layer_factory.hpp:77] Creating layer ip2
I0519 18:12:26.436295 12029 net.cpp:106] Creating Layer ip2
I0519 18:12:26.436305 12029 net.cpp:454] ip2 <- ip1
I0519 18:12:26.436318 12029 net.cpp:411] ip2 -> ip2
I0519 18:12:26.436799 12029 net.cpp:150] Setting up ip2
I0519 18:12:26.436811 12029 net.cpp:157] Top shape: 100 98 (9800)
I0519 18:12:26.436822 12029 net.cpp:165] Memory required for data: 157791600
I0519 18:12:26.436837 12029 layer_factory.hpp:77] Creating layer relu6
I0519 18:12:26.436862 12029 net.cpp:106] Creating Layer relu6
I0519 18:12:26.436872 12029 net.cpp:454] relu6 <- ip2
I0519 18:12:26.436885 12029 net.cpp:397] relu6 -> ip2 (in-place)
I0519 18:12:26.437427 12029 net.cpp:150] Setting up relu6
I0519 18:12:26.437448 12029 net.cpp:157] Top shape: 100 98 (9800)
I0519 18:12:26.437458 12029 net.cpp:165] Memory required for data: 157830800
I0519 18:12:26.437468 12029 layer_factory.hpp:77] Creating layer drop2
I0519 18:12:26.437481 12029 net.cpp:106] Creating Layer drop2
I0519 18:12:26.437491 12029 net.cpp:454] drop2 <- ip2
I0519 18:12:26.437505 12029 net.cpp:397] drop2 -> ip2 (in-place)
I0519 18:12:26.437548 12029 net.cpp:150] Setting up drop2
I0519 18:12:26.437561 12029 net.cpp:157] Top shape: 100 98 (9800)
I0519 18:12:26.437571 12029 net.cpp:165] Memory required for data: 157870000
I0519 18:12:26.437580 12029 layer_factory.hpp:77] Creating layer ip3
I0519 18:12:26.437594 12029 net.cpp:106] Creating Layer ip3
I0519 18:12:26.437603 12029 net.cpp:454] ip3 <- ip2
I0519 18:12:26.437618 12029 net.cpp:411] ip3 -> ip3
I0519 18:12:26.437841 12029 net.cpp:150] Setting up ip3
I0519 18:12:26.437855 12029 net.cpp:157] Top shape: 100 11 (1100)
I0519 18:12:26.437863 12029 net.cpp:165] Memory required for data: 157874400
I0519 18:12:26.437880 12029 layer_factory.hpp:77] Creating layer drop3
I0519 18:12:26.437891 12029 net.cpp:106] Creating Layer drop3
I0519 18:12:26.437901 12029 net.cpp:454] drop3 <- ip3
I0519 18:12:26.437914 12029 net.cpp:397] drop3 -> ip3 (in-place)
I0519 18:12:26.437955 12029 net.cpp:150] Setting up drop3
I0519 18:12:26.437968 12029 net.cpp:157] Top shape: 100 11 (1100)
I0519 18:12:26.437978 12029 net.cpp:165] Memory required for data: 157878800
I0519 18:12:26.437988 12029 layer_factory.hpp:77] Creating layer ip3_drop3_0_split
I0519 18:12:26.438000 12029 net.cpp:106] Creating Layer ip3_drop3_0_split
I0519 18:12:26.438009 12029 net.cpp:454] ip3_drop3_0_split <- ip3
I0519 18:12:26.438022 12029 net.cpp:411] ip3_drop3_0_split -> ip3_drop3_0_split_0
I0519 18:12:26.438037 12029 net.cpp:411] ip3_drop3_0_split -> ip3_drop3_0_split_1
I0519 18:12:26.438110 12029 net.cpp:150] Setting up ip3_drop3_0_split
I0519 18:12:26.438123 12029 net.cpp:157] Top shape: 100 11 (1100)
I0519 18:12:26.438135 12029 net.cpp:157] Top shape: 100 11 (1100)
I0519 18:12:26.438145 12029 net.cpp:165] Memory required for data: 157887600
I0519 18:12:26.438158 12029 layer_factory.hpp:77] Creating layer accuracy
I0519 18:12:26.438179 12029 net.cpp:106] Creating Layer accuracy
I0519 18:12:26.438189 12029 net.cpp:454] accuracy <- ip3_drop3_0_split_0
I0519 18:12:26.438200 12029 net.cpp:454] accuracy <- label_data_hdf5_1_split_0
I0519 18:12:26.438213 12029 net.cpp:411] accuracy -> accuracy
…
