…
I0505 16:28:33.617537 21364 net.cpp:322] The NetState phase (0) differed from the phase (1) specified by a rule in layer data_hdf5
I0505 16:28:33.617589 21364 net.cpp:322] The NetState phase (0) differed from the phase (1) specified by a rule in layer accuracy
I0505 16:28:33.618005 21364 net.cpp:49] Initializing net from parameters: 
name: "caffe_test_127x50_x_unshifted"
state {
  phase: TRAIN
}
layer {
  name: "data_hdf5"
  type: "HDF5Data"
  top: "data"
  top: "label"
  include {
    phase: TRAIN
  }
  hdf5_data_param {
    source: "/lustre/atlas/proj-shared/hep105/caffe_titan/minosmatch_nukecczdefs_127x50_x_unshifted_me1Bmc.trainlist"
    batch_size: 100
  }
}
layer {
  name: "conv1"
  type: "Convolution"
  bottom: "data"
  top: "conv1"
  param {
    lr_mult: 1
    decay_mult: 1
  }
  param {
    lr_mult: 2
    decay_mult: 0
  }
  convolution_param {
    num_output: 12
    weight_filler {
      type: "gaussian"
      std: 0.01
    }
    bias_filler {
      type: "constant"
      value: 0
    }
    kernel_h: 8
    kernel_w: 3
  }
}
layer {
  name: "relu1"
  type: "ReLU"
  bottom: "conv1"
  top: "conv1"
}
layer {
  name: "pool1"
  type: "Pooling"
  bottom: "conv1"
  top: "pool1"
  pooling_param {
    pool: MAX
    kernel_h: 2
    kernel_w: 1
    stride_h: 2
    stride_w: 1
  }
}
layer {
  name: "conv2"
  type: "Convolution"
  bottom: "pool1"
  top: "conv2"
  param {
    lr_mult: 1
    decay_mult: 1
  }
  param {
    lr_mult: 2
    decay_mult: 0
  }
  convolution_param {
    num_output: 20
    weight_filler {
      type: "gaussian"
      std: 0.01
    }
    bias_filler {
      type: "constant"
      value: 0
    }
    kernel_h: 7
    kernel_w: 3
  }
}
layer {
  name: "relu2"
  type: "ReLU"
  bottom: "conv2"
  top: "conv2"
}
layer {
  name: "pool2"
  type: "Pooling"
  bottom: "conv2"
  top: "pool2"
  pooling_param {
    pool: MAX
    kernel_h: 2
    kernel_w: 1
    stride_h: 2
    stride_w: 1
  }
}
layer {
  name: "conv3"
  type: "Convolution"
  bottom: "pool2"
  top: "conv3"
  param {
    lr_mult: 1
    decay_mult: 1
  }
  param {
    lr_mult: 2
    decay_mult: 0
  }
  convolution_param {
    num_output: 28
    weight_filler {
      type: "gaussian"
      std: 0.01
    }
    bias_filler {
      type: "constant"
      value: 0
    }
    kernel_h: 6
    kernel_w: 3
  }
}
layer {
  name: "relu3"
  type: "ReLU"
  bottom: "conv3"
  top: "conv3"
}
layer {
  name: "pool3"
  type: "Pooling"
  bottom: "conv3"
  top: "pool3"
  pooling_param {
    pool: MAX
    kernel_h: 2
    kernel_w: 1
    stride_h: 2
    stride_w: 1
  }
}
layer {
  name: "conv4"
  type: "Convolution"
  bottom: "pool3"
  top: "conv4"
  param {
    lr_mult: 1
    decay_mult: 1
  }
  param {
    lr_mult: 2
    decay_mult: 0
  }
  convolution_param {
    num_output: 36
    weight_filler {
      type: "gaussian"
      std: 0.01
    }
    bias_filler {
      type: "constant"
      value: 0
    }
    kernel_h: 6
    kernel_w: 3
  }
}
layer {
  name: "relu4"
  type: "ReLU"
  bottom: "conv4"
  top: "conv4"
}
layer {
  name: "pool4"
  type: "Pooling"
  bottom: "conv4"
  top: "pool4"
  pooling_param {
    pool: MAX
    kernel_h: 2
    kernel_w: 1
    stride_h: 2
    stride_w: 1
  }
}
layer {
  name: "ip1"
  type: "InnerProduct"
  bottom: "pool4"
  top: "ip1"
  param {
    lr_mult: 1
  }
  param {
    lr_mult: 2
  }
  inner_product_param {
    num_output: 196
    weight_filler {
      type: "xavier"
    }
    bias_filler {
      type: "constant"
    }
  }
}
layer {
  name: "relu5"
  type: "ReLU"
  bottom: "ip1"
  top: "ip1"
}
layer {
  name: "drop1"
  type: "Dropout"
  bottom: "ip1"
  top: "ip1"
  dropout_param {
    dropout_ratio: 0.5
  }
}
layer {
  name: "ip2"
  type: "InnerProduct"
  bottom: "ip1"
  top: "ip2"
  param {
    lr_mult: 1
  }
  param {
    lr_mult: 2
  }
  inner_product_param {
    num_output: 98
    weight_filler {
      type: "xavier"
    }
    bias_filler {
      type: "constant"
    }
  }
}
layer {
  name: "relu6"
  type: "ReLU"
  bottom: "ip2"
  top: "ip2"
}
layer {
  name: "drop2"
  type: "Dropout"
  bottom: "ip2"
  top: "ip2"
  dropout_param {
    dropout_ratio: 0.5
  }
}
layer {
  name: "ip3"
  type: "InnerProduct"
  bottom: "ip2"
  top: "ip3"
  param {
    lr_mult: 1
  }
  param {
    lr_mult: 2
  }
  inner_product_param {
    num_output: 11
    weight_filler {
      type: "xavier"
    }
    bias_filler {
      type: "constant"
    }
  }
}
layer {
  name: "relu6"
  type: "ReLU"
  bottom: "ip3"
  top: "ip3"
}
layer {
  name: "drop3"
  type: "Dropout"
  bottom: "ip3"
  top: "ip3"
  dropout_param {
    dropout_ratio: 0.5
  }
}
layer {
  name: "loss"
  type: "SoftmaxWithLoss"
  bottom: "ip3"
  bottom: "label"
  top: "loss"
}
I0505 16:28:33.618198 21364 layer_factory.hpp:77] Creating layer data_hdf5
I0505 16:28:33.618219 21364 net.cpp:106] Creating Layer data_hdf5
I0505 16:28:33.618237 21364 net.cpp:411] data_hdf5 -> data
I0505 16:28:33.618270 21364 net.cpp:411] data_hdf5 -> label
I0505 16:28:33.618299 21364 hdf5_data_layer.cpp:79] Loading list of HDF5 filenames from: /lustre/atlas/proj-shared/hep105/caffe_titan/minosmatch_nukecczdefs_127x50_x_unshifted_me1Bmc.trainlist
I0505 16:28:33.620389 21364 hdf5_data_layer.cpp:93] Number of HDF5 files: 15
I0505 16:28:33.622619 21364 hdf5.cpp:32] Datatype class: H5T_FLOAT
I0505 16:28:40.157253 21364 hdf5.cpp:35] Datatype class: H5T_INTEGER
I0505 16:28:40.160686 21364 net.cpp:150] Setting up data_hdf5
I0505 16:28:40.160733 21364 net.cpp:157] Top shape: 100 1 127 50 (635000)
I0505 16:28:40.160748 21364 net.cpp:157] Top shape: 100 (100)
I0505 16:28:40.160758 21364 net.cpp:165] Memory required for data: 2540400
I0505 16:28:40.160771 21364 layer_factory.hpp:77] Creating layer conv1
I0505 16:28:40.160806 21364 net.cpp:106] Creating Layer conv1
I0505 16:28:40.160818 21364 net.cpp:454] conv1 <- data
I0505 16:28:40.160840 21364 net.cpp:411] conv1 -> conv1
I0505 16:28:40.588317 21364 net.cpp:150] Setting up conv1
I0505 16:28:40.588357 21364 net.cpp:157] Top shape: 100 12 120 48 (6912000)
I0505 16:28:40.588368 21364 net.cpp:165] Memory required for data: 30188400
I0505 16:28:40.588402 21364 layer_factory.hpp:77] Creating layer relu1
I0505 16:28:40.588423 21364 net.cpp:106] Creating Layer relu1
I0505 16:28:40.588434 21364 net.cpp:454] relu1 <- conv1
I0505 16:28:40.588448 21364 net.cpp:397] relu1 -> conv1 (in-place)
I0505 16:28:40.588948 21364 net.cpp:150] Setting up relu1
I0505 16:28:40.588965 21364 net.cpp:157] Top shape: 100 12 120 48 (6912000)
I0505 16:28:40.588975 21364 net.cpp:165] Memory required for data: 57836400
I0505 16:28:40.588985 21364 layer_factory.hpp:77] Creating layer pool1
I0505 16:28:40.589002 21364 net.cpp:106] Creating Layer pool1
I0505 16:28:40.589011 21364 net.cpp:454] pool1 <- conv1
I0505 16:28:40.589025 21364 net.cpp:411] pool1 -> pool1
I0505 16:28:40.589104 21364 net.cpp:150] Setting up pool1
I0505 16:28:40.589118 21364 net.cpp:157] Top shape: 100 12 60 48 (3456000)
I0505 16:28:40.589128 21364 net.cpp:165] Memory required for data: 71660400
I0505 16:28:40.589135 21364 layer_factory.hpp:77] Creating layer conv2
I0505 16:28:40.589157 21364 net.cpp:106] Creating Layer conv2
I0505 16:28:40.589167 21364 net.cpp:454] conv2 <- pool1
I0505 16:28:40.589179 21364 net.cpp:411] conv2 -> conv2
I0505 16:28:40.592033 21364 net.cpp:150] Setting up conv2
I0505 16:28:40.592061 21364 net.cpp:157] Top shape: 100 20 54 46 (4968000)
I0505 16:28:40.592072 21364 net.cpp:165] Memory required for data: 91532400
I0505 16:28:40.592092 21364 layer_factory.hpp:77] Creating layer relu2
I0505 16:28:40.592120 21364 net.cpp:106] Creating Layer relu2
I0505 16:28:40.592131 21364 net.cpp:454] relu2 <- conv2
I0505 16:28:40.592144 21364 net.cpp:397] relu2 -> conv2 (in-place)
I0505 16:28:40.592485 21364 net.cpp:150] Setting up relu2
I0505 16:28:40.592499 21364 net.cpp:157] Top shape: 100 20 54 46 (4968000)
I0505 16:28:40.592509 21364 net.cpp:165] Memory required for data: 111404400
I0505 16:28:40.592519 21364 layer_factory.hpp:77] Creating layer pool2
I0505 16:28:40.592535 21364 net.cpp:106] Creating Layer pool2
I0505 16:28:40.592545 21364 net.cpp:454] pool2 <- conv2
I0505 16:28:40.592556 21364 net.cpp:411] pool2 -> pool2
I0505 16:28:40.592628 21364 net.cpp:150] Setting up pool2
I0505 16:28:40.592640 21364 net.cpp:157] Top shape: 100 20 27 46 (2484000)
I0505 16:28:40.592650 21364 net.cpp:165] Memory required for data: 121340400
I0505 16:28:40.592659 21364 layer_factory.hpp:77] Creating layer conv3
I0505 16:28:40.592681 21364 net.cpp:106] Creating Layer conv3
I0505 16:28:40.592692 21364 net.cpp:454] conv3 <- pool2
I0505 16:28:40.592706 21364 net.cpp:411] conv3 -> conv3
I0505 16:28:40.594750 21364 net.cpp:150] Setting up conv3
I0505 16:28:40.594777 21364 net.cpp:157] Top shape: 100 28 22 44 (2710400)
I0505 16:28:40.594787 21364 net.cpp:165] Memory required for data: 132182000
I0505 16:28:40.594805 21364 layer_factory.hpp:77] Creating layer relu3
I0505 16:28:40.594821 21364 net.cpp:106] Creating Layer relu3
I0505 16:28:40.594831 21364 net.cpp:454] relu3 <- conv3
I0505 16:28:40.594847 21364 net.cpp:397] relu3 -> conv3 (in-place)
I0505 16:28:40.595327 21364 net.cpp:150] Setting up relu3
I0505 16:28:40.595347 21364 net.cpp:157] Top shape: 100 28 22 44 (2710400)
I0505 16:28:40.595358 21364 net.cpp:165] Memory required for data: 143023600
I0505 16:28:40.595368 21364 layer_factory.hpp:77] Creating layer pool3
I0505 16:28:40.595381 21364 net.cpp:106] Creating Layer pool3
I0505 16:28:40.595391 21364 net.cpp:454] pool3 <- conv3
I0505 16:28:40.595407 21364 net.cpp:411] pool3 -> pool3
I0505 16:28:40.595475 21364 net.cpp:150] Setting up pool3
I0505 16:28:40.595489 21364 net.cpp:157] Top shape: 100 28 11 44 (1355200)
I0505 16:28:40.595499 21364 net.cpp:165] Memory required for data: 148444400
I0505 16:28:40.595509 21364 layer_factory.hpp:77] Creating layer conv4
I0505 16:28:40.595527 21364 net.cpp:106] Creating Layer conv4
I0505 16:28:40.595538 21364 net.cpp:454] conv4 <- pool3
I0505 16:28:40.595556 21364 net.cpp:411] conv4 -> conv4
I0505 16:28:40.598671 21364 net.cpp:150] Setting up conv4
I0505 16:28:40.598701 21364 net.cpp:157] Top shape: 100 36 6 42 (907200)
I0505 16:28:40.598711 21364 net.cpp:165] Memory required for data: 152073200
I0505 16:28:40.598726 21364 layer_factory.hpp:77] Creating layer relu4
I0505 16:28:40.598740 21364 net.cpp:106] Creating Layer relu4
I0505 16:28:40.598750 21364 net.cpp:454] relu4 <- conv4
I0505 16:28:40.598767 21364 net.cpp:397] relu4 -> conv4 (in-place)
I0505 16:28:40.599244 21364 net.cpp:150] Setting up relu4
I0505 16:28:40.599261 21364 net.cpp:157] Top shape: 100 36 6 42 (907200)
I0505 16:28:40.599270 21364 net.cpp:165] Memory required for data: 155702000
I0505 16:28:40.599280 21364 layer_factory.hpp:77] Creating layer pool4
I0505 16:28:40.599293 21364 net.cpp:106] Creating Layer pool4
I0505 16:28:40.599303 21364 net.cpp:454] pool4 <- conv4
I0505 16:28:40.599319 21364 net.cpp:411] pool4 -> pool4
I0505 16:28:40.599390 21364 net.cpp:150] Setting up pool4
I0505 16:28:40.599403 21364 net.cpp:157] Top shape: 100 36 3 42 (453600)
I0505 16:28:40.599413 21364 net.cpp:165] Memory required for data: 157516400
I0505 16:28:40.599423 21364 layer_factory.hpp:77] Creating layer ip1
I0505 16:28:40.599447 21364 net.cpp:106] Creating Layer ip1
I0505 16:28:40.599457 21364 net.cpp:454] ip1 <- pool4
I0505 16:28:40.599474 21364 net.cpp:411] ip1 -> ip1
I0505 16:28:40.615422 21364 net.cpp:150] Setting up ip1
I0505 16:28:40.615450 21364 net.cpp:157] Top shape: 100 196 (19600)
I0505 16:28:40.615465 21364 net.cpp:165] Memory required for data: 157594800
I0505 16:28:40.615488 21364 layer_factory.hpp:77] Creating layer relu5
I0505 16:28:40.615516 21364 net.cpp:106] Creating Layer relu5
I0505 16:28:40.615527 21364 net.cpp:454] relu5 <- ip1
I0505 16:28:40.615540 21364 net.cpp:397] relu5 -> ip1 (in-place)
I0505 16:28:40.615883 21364 net.cpp:150] Setting up relu5
I0505 16:28:40.615901 21364 net.cpp:157] Top shape: 100 196 (19600)
I0505 16:28:40.615911 21364 net.cpp:165] Memory required for data: 157673200
I0505 16:28:40.615921 21364 layer_factory.hpp:77] Creating layer drop1
I0505 16:28:40.615938 21364 net.cpp:106] Creating Layer drop1
I0505 16:28:40.615948 21364 net.cpp:454] drop1 <- ip1
I0505 16:28:40.615960 21364 net.cpp:397] drop1 -> ip1 (in-place)
I0505 16:28:40.616011 21364 net.cpp:150] Setting up drop1
I0505 16:28:40.616024 21364 net.cpp:157] Top shape: 100 196 (19600)
I0505 16:28:40.616034 21364 net.cpp:165] Memory required for data: 157751600
I0505 16:28:40.616042 21364 layer_factory.hpp:77] Creating layer ip2
I0505 16:28:40.616065 21364 net.cpp:106] Creating Layer ip2
I0505 16:28:40.616075 21364 net.cpp:454] ip2 <- ip1
I0505 16:28:40.616088 21364 net.cpp:411] ip2 -> ip2
I0505 16:28:40.616570 21364 net.cpp:150] Setting up ip2
I0505 16:28:40.616583 21364 net.cpp:157] Top shape: 100 98 (9800)
I0505 16:28:40.616593 21364 net.cpp:165] Memory required for data: 157790800
I0505 16:28:40.616608 21364 layer_factory.hpp:77] Creating layer relu6
I0505 16:28:40.616626 21364 net.cpp:106] Creating Layer relu6
I0505 16:28:40.616636 21364 net.cpp:454] relu6 <- ip2
I0505 16:28:40.616647 21364 net.cpp:397] relu6 -> ip2 (in-place)
I0505 16:28:40.617166 21364 net.cpp:150] Setting up relu6
I0505 16:28:40.617187 21364 net.cpp:157] Top shape: 100 98 (9800)
I0505 16:28:40.617197 21364 net.cpp:165] Memory required for data: 157830000
I0505 16:28:40.617207 21364 layer_factory.hpp:77] Creating layer drop2
I0505 16:28:40.617219 21364 net.cpp:106] Creating Layer drop2
I0505 16:28:40.617229 21364 net.cpp:454] drop2 <- ip2
I0505 16:28:40.617244 21364 net.cpp:397] drop2 -> ip2 (in-place)
I0505 16:28:40.617288 21364 net.cpp:150] Setting up drop2
I0505 16:28:40.617301 21364 net.cpp:157] Top shape: 100 98 (9800)
I0505 16:28:40.617311 21364 net.cpp:165] Memory required for data: 157869200
I0505 16:28:40.617321 21364 layer_factory.hpp:77] Creating layer ip3
I0505 16:28:40.617333 21364 net.cpp:106] Creating Layer ip3
I0505 16:28:40.617343 21364 net.cpp:454] ip3 <- ip2
I0505 16:28:40.617358 21364 net.cpp:411] ip3 -> ip3
I0505 16:28:40.617576 21364 net.cpp:150] Setting up ip3
I0505 16:28:40.617588 21364 net.cpp:157] Top shape: 100 11 (1100)
I0505 16:28:40.617599 21364 net.cpp:165] Memory required for data: 157873600
I0505 16:28:40.617612 21364 layer_factory.hpp:77] Creating layer relu6
I0505 16:28:40.617624 21364 net.cpp:106] Creating Layer relu6
I0505 16:28:40.617635 21364 net.cpp:454] relu6 <- ip3
I0505 16:28:40.617646 21364 net.cpp:397] relu6 -> ip3 (in-place)
I0505 16:28:40.618119 21364 net.cpp:150] Setting up relu6
I0505 16:28:40.618144 21364 net.cpp:157] Top shape: 100 11 (1100)
I0505 16:28:40.618155 21364 net.cpp:165] Memory required for data: 157878000
I0505 16:28:40.618165 21364 layer_factory.hpp:77] Creating layer drop3
I0505 16:28:40.618176 21364 net.cpp:106] Creating Layer drop3
I0505 16:28:40.618186 21364 net.cpp:454] drop3 <- ip3
I0505 16:28:40.618198 21364 net.cpp:397] drop3 -> ip3 (in-place)
I0505 16:28:40.618242 21364 net.cpp:150] Setting up drop3
I0505 16:28:40.618254 21364 net.cpp:157] Top shape: 100 11 (1100)
I0505 16:28:40.618264 21364 net.cpp:165] Memory required for data: 157882400
I0505 16:28:40.618273 21364 layer_factory.hpp:77] Creating layer loss
I0505 16:28:40.618289 21364 net.cpp:106] Creating Layer loss
I0505 16:28:40.618300 21364 net.cpp:454] loss <- ip3
I0505 16:28:40.618319 21364 net.cpp:454] loss <- label
I0505 16:28:40.618335 21364 net.cpp:411] loss -> loss
I0505 16:28:40.618362 21364 layer_factory.hpp:77] Creating layer loss
…
I0505 16:28:40.621002 21364 solver.cpp:181] Creating test net (#0) specified by net file: /lustre/atlas/proj-shared/hep105/caffe_titan/minosmatch_nukecczdefs_127x50_x_unshifted_me1Bmc.prototxt
I0505 16:28:40.621070 21364 net.cpp:322] The NetState phase (1) differed from the phase (0) specified by a rule in layer data_hdf5
I0505 16:28:40.621525 21364 net.cpp:49] Initializing net from parameters: 
name: "caffe_test_127x50_x_unshifted"
state {
  phase: TEST
}
layer {
  name: "data_hdf5"
  type: "HDF5Data"
  top: "data"
  top: "label"
  include {
    phase: TEST
  }
  hdf5_data_param {
    source: "/lustre/atlas/proj-shared/hep105/caffe_titan/minosmatch_nukecczdefs_127x50_x_unshifted_me1Bmc.testlist"
    batch_size: 100
  }
}
layer {
  name: "conv1"
  type: "Convolution"
  bottom: "data"
  top: "conv1"
  param {
    lr_mult: 1
    decay_mult: 1
  }
  param {
    lr_mult: 2
    decay_mult: 0
  }
  convolution_param {
    num_output: 12
    weight_filler {
      type: "gaussian"
      std: 0.01
    }
    bias_filler {
      type: "constant"
      value: 0
    }
    kernel_h: 8
    kernel_w: 3
  }
}
layer {
  name: "relu1"
  type: "ReLU"
  bottom: "conv1"
  top: "conv1"
}
layer {
  name: "pool1"
  type: "Pooling"
  bottom: "conv1"
  top: "pool1"
  pooling_param {
    pool: MAX
    kernel_h: 2
    kernel_w: 1
    stride_h: 2
    stride_w: 1
  }
}
layer {
  name: "conv2"
  type: "Convolution"
  bottom: "pool1"
  top: "conv2"
  param {
    lr_mult: 1
    decay_mult: 1
  }
  param {
    lr_mult: 2
    decay_mult: 0
  }
  convolution_param {
    num_output: 20
    weight_filler {
      type: "gaussian"
      std: 0.01
    }
    bias_filler {
      type: "constant"
      value: 0
    }
    kernel_h: 7
    kernel_w: 3
  }
}
layer {
  name: "relu2"
  type: "ReLU"
  bottom: "conv2"
  top: "conv2"
}
layer {
  name: "pool2"
  type: "Pooling"
  bottom: "conv2"
  top: "pool2"
  pooling_param {
    pool: MAX
    kernel_h: 2
    kernel_w: 1
    stride_h: 2
    stride_w: 1
  }
}
layer {
  name: "conv3"
  type: "Convolution"
  bottom: "pool2"
  top: "conv3"
  param {
    lr_mult: 1
    decay_mult: 1
  }
  param {
    lr_mult: 2
    decay_mult: 0
  }
  convolution_param {
    num_output: 28
    weight_filler {
      type: "gaussian"
      std: 0.01
    }
    bias_filler {
      type: "constant"
      value: 0
    }
    kernel_h: 6
    kernel_w: 3
  }
}
layer {
  name: "relu3"
  type: "ReLU"
  bottom: "conv3"
  top: "conv3"
}
layer {
  name: "pool3"
  type: "Pooling"
  bottom: "conv3"
  top: "pool3"
  pooling_param {
    pool: MAX
    kernel_h: 2
    kernel_w: 1
    stride_h: 2
    stride_w: 1
  }
}
layer {
  name: "conv4"
  type: "Convolution"
  bottom: "pool3"
  top: "conv4"
  param {
    lr_mult: 1
    decay_mult: 1
  }
  param {
    lr_mult: 2
    decay_mult: 0
  }
  convolution_param {
    num_output: 36
    weight_filler {
      type: "gaussian"
      std: 0.01
    }
    bias_filler {
      type: "constant"
      value: 0
    }
    kernel_h: 6
    kernel_w: 3
  }
}
layer {
  name: "relu4"
  type: "ReLU"
  bottom: "conv4"
  top: "conv4"
}
layer {
  name: "pool4"
  type: "Pooling"
  bottom: "conv4"
  top: "pool4"
  pooling_param {
    pool: MAX
    kernel_h: 2
    kernel_w: 1
    stride_h: 2
    stride_w: 1
  }
}
layer {
  name: "ip1"
  type: "InnerProduct"
  bottom: "pool4"
  top: "ip1"
  param {
    lr_mult: 1
  }
  param {
    lr_mult: 2
  }
  inner_product_param {
    num_output: 196
    weight_filler {
      type: "xavier"
    }
    bias_filler {
      type: "constant"
    }
  }
}
layer {
  name: "relu5"
  type: "ReLU"
  bottom: "ip1"
  top: "ip1"
}
layer {
  name: "drop1"
  type: "Dropout"
  bottom: "ip1"
  top: "ip1"
  dropout_param {
    dropout_ratio: 0.5
  }
}
layer {
  name: "ip2"
  type: "InnerProduct"
  bottom: "ip1"
  top: "ip2"
  param {
    lr_mult: 1
  }
  param {
    lr_mult: 2
  }
  inner_product_param {
    num_output: 98
    weight_filler {
      type: "xavier"
    }
    bias_filler {
      type: "constant"
    }
  }
}
layer {
  name: "relu6"
  type: "ReLU"
  bottom: "ip2"
  top: "ip2"
}
layer {
  name: "drop2"
  type: "Dropout"
  bottom: "ip2"
  top: "ip2"
  dropout_param {
    dropout_ratio: 0.5
  }
}
layer {
  name: "ip3"
  type: "InnerProduct"
  bottom: "ip2"
  top: "ip3"
  param {
    lr_mult: 1
  }
  param {
    lr_mult: 2
  }
  inner_product_param {
    num_output: 11
    weight_filler {
      type: "xavier"
    }
    bias_filler {
      type: "constant"
    }
  }
}
layer {
  name: "relu6"
  type: "ReLU"
  bottom: "ip3"
  top: "ip3"
}
layer {
  name: "drop3"
  type: "Dropout"
  bottom: "ip3"
  top: "ip3"
  dropout_param {
    dropout_ratio: 0.5
  }
}
layer {
  name: "accuracy"
  type: "Accuracy"
  bottom: "ip3"
  bottom: "label"
  top: "accuracy"
  include {
    phase: TEST
  }
}
layer {
  name: "loss"
  type: "SoftmaxWithLoss"
  bottom: "ip3"
  bottom: "label"
  top: "loss"
}
I0505 16:28:40.621729 21364 layer_factory.hpp:77] Creating layer data_hdf5
I0505 16:28:40.621744 21364 net.cpp:106] Creating Layer data_hdf5
I0505 16:28:40.621755 21364 net.cpp:411] data_hdf5 -> data
I0505 16:28:40.621772 21364 net.cpp:411] data_hdf5 -> label
I0505 16:28:40.621788 21364 hdf5_data_layer.cpp:79] Loading list of HDF5 filenames from: /lustre/atlas/proj-shared/hep105/caffe_titan/minosmatch_nukecczdefs_127x50_x_unshifted_me1Bmc.testlist
I0505 16:28:40.624106 21364 hdf5_data_layer.cpp:93] Number of HDF5 files: 3
I0505 16:28:47.128602 21364 net.cpp:150] Setting up data_hdf5
I0505 16:28:47.128643 21364 net.cpp:157] Top shape: 100 1 127 50 (635000)
I0505 16:28:47.128662 21364 net.cpp:157] Top shape: 100 (100)
I0505 16:28:47.128672 21364 net.cpp:165] Memory required for data: 2540400
I0505 16:28:47.128686 21364 layer_factory.hpp:77] Creating layer label_data_hdf5_1_split
I0505 16:28:47.128715 21364 net.cpp:106] Creating Layer label_data_hdf5_1_split
I0505 16:28:47.128726 21364 net.cpp:454] label_data_hdf5_1_split <- label
I0505 16:28:47.128741 21364 net.cpp:411] label_data_hdf5_1_split -> label_data_hdf5_1_split_0
I0505 16:28:47.128760 21364 net.cpp:411] label_data_hdf5_1_split -> label_data_hdf5_1_split_1
I0505 16:28:47.128832 21364 net.cpp:150] Setting up label_data_hdf5_1_split
I0505 16:28:47.128845 21364 net.cpp:157] Top shape: 100 (100)
I0505 16:28:47.128871 21364 net.cpp:157] Top shape: 100 (100)
I0505 16:28:47.128882 21364 net.cpp:165] Memory required for data: 2541200
I0505 16:28:47.128892 21364 layer_factory.hpp:77] Creating layer conv1
I0505 16:28:47.128913 21364 net.cpp:106] Creating Layer conv1
I0505 16:28:47.128923 21364 net.cpp:454] conv1 <- data
I0505 16:28:47.128937 21364 net.cpp:411] conv1 -> conv1
I0505 16:28:47.130909 21364 net.cpp:150] Setting up conv1
I0505 16:28:47.130939 21364 net.cpp:157] Top shape: 100 12 120 48 (6912000)
I0505 16:28:47.130949 21364 net.cpp:165] Memory required for data: 30189200
I0505 16:28:47.130969 21364 layer_factory.hpp:77] Creating layer relu1
I0505 16:28:47.130983 21364 net.cpp:106] Creating Layer relu1
I0505 16:28:47.130993 21364 net.cpp:454] relu1 <- conv1
I0505 16:28:47.131008 21364 net.cpp:397] relu1 -> conv1 (in-place)
I0505 16:28:47.131342 21364 net.cpp:150] Setting up relu1
I0505 16:28:47.131356 21364 net.cpp:157] Top shape: 100 12 120 48 (6912000)
I0505 16:28:47.131366 21364 net.cpp:165] Memory required for data: 57837200
I0505 16:28:47.131376 21364 layer_factory.hpp:77] Creating layer pool1
I0505 16:28:47.131391 21364 net.cpp:106] Creating Layer pool1
I0505 16:28:47.131400 21364 net.cpp:454] pool1 <- conv1
I0505 16:28:47.131415 21364 net.cpp:411] pool1 -> pool1
I0505 16:28:47.131487 21364 net.cpp:150] Setting up pool1
I0505 16:28:47.131500 21364 net.cpp:157] Top shape: 100 12 60 48 (3456000)
I0505 16:28:47.131510 21364 net.cpp:165] Memory required for data: 71661200
I0505 16:28:47.131518 21364 layer_factory.hpp:77] Creating layer conv2
I0505 16:28:47.131541 21364 net.cpp:106] Creating Layer conv2
I0505 16:28:47.131551 21364 net.cpp:454] conv2 <- pool1
I0505 16:28:47.131564 21364 net.cpp:411] conv2 -> conv2
I0505 16:28:47.133496 21364 net.cpp:150] Setting up conv2
I0505 16:28:47.133517 21364 net.cpp:157] Top shape: 100 20 54 46 (4968000)
I0505 16:28:47.133530 21364 net.cpp:165] Memory required for data: 91533200
I0505 16:28:47.133548 21364 layer_factory.hpp:77] Creating layer relu2
I0505 16:28:47.133560 21364 net.cpp:106] Creating Layer relu2
I0505 16:28:47.133570 21364 net.cpp:454] relu2 <- conv2
I0505 16:28:47.133589 21364 net.cpp:397] relu2 -> conv2 (in-place)
I0505 16:28:47.134075 21364 net.cpp:150] Setting up relu2
I0505 16:28:47.134096 21364 net.cpp:157] Top shape: 100 20 54 46 (4968000)
I0505 16:28:47.134106 21364 net.cpp:165] Memory required for data: 111405200
I0505 16:28:47.134116 21364 layer_factory.hpp:77] Creating layer pool2
I0505 16:28:47.134130 21364 net.cpp:106] Creating Layer pool2
I0505 16:28:47.134140 21364 net.cpp:454] pool2 <- conv2
I0505 16:28:47.134155 21364 net.cpp:411] pool2 -> pool2
I0505 16:28:47.134227 21364 net.cpp:150] Setting up pool2
I0505 16:28:47.134240 21364 net.cpp:157] Top shape: 100 20 27 46 (2484000)
I0505 16:28:47.134249 21364 net.cpp:165] Memory required for data: 121341200
I0505 16:28:47.134259 21364 layer_factory.hpp:77] Creating layer conv3
I0505 16:28:47.134284 21364 net.cpp:106] Creating Layer conv3
I0505 16:28:47.134294 21364 net.cpp:454] conv3 <- pool2
I0505 16:28:47.134315 21364 net.cpp:411] conv3 -> conv3
I0505 16:28:47.136363 21364 net.cpp:150] Setting up conv3
I0505 16:28:47.136379 21364 net.cpp:157] Top shape: 100 28 22 44 (2710400)
I0505 16:28:47.136390 21364 net.cpp:165] Memory required for data: 132182800
I0505 16:28:47.136409 21364 layer_factory.hpp:77] Creating layer relu3
I0505 16:28:47.136421 21364 net.cpp:106] Creating Layer relu3
I0505 16:28:47.136431 21364 net.cpp:454] relu3 <- conv3
I0505 16:28:47.136443 21364 net.cpp:397] relu3 -> conv3 (in-place)
I0505 16:28:47.136950 21364 net.cpp:150] Setting up relu3
I0505 16:28:47.136965 21364 net.cpp:157] Top shape: 100 28 22 44 (2710400)
I0505 16:28:47.136976 21364 net.cpp:165] Memory required for data: 143024400
I0505 16:28:47.136986 21364 layer_factory.hpp:77] Creating layer pool3
I0505 16:28:47.136998 21364 net.cpp:106] Creating Layer pool3
I0505 16:28:47.137008 21364 net.cpp:454] pool3 <- conv3
I0505 16:28:47.137023 21364 net.cpp:411] pool3 -> pool3
I0505 16:28:47.137095 21364 net.cpp:150] Setting up pool3
I0505 16:28:47.137117 21364 net.cpp:157] Top shape: 100 28 11 44 (1355200)
I0505 16:28:47.137127 21364 net.cpp:165] Memory required for data: 148445200
I0505 16:28:47.137137 21364 layer_factory.hpp:77] Creating layer conv4
I0505 16:28:47.137159 21364 net.cpp:106] Creating Layer conv4
I0505 16:28:47.137171 21364 net.cpp:454] conv4 <- pool3
I0505 16:28:47.137183 21364 net.cpp:411] conv4 -> conv4
I0505 16:28:47.139415 21364 net.cpp:150] Setting up conv4
I0505 16:28:47.139437 21364 net.cpp:157] Top shape: 100 36 6 42 (907200)
I0505 16:28:47.139451 21364 net.cpp:165] Memory required for data: 152074000
I0505 16:28:47.139464 21364 layer_factory.hpp:77] Creating layer relu4
I0505 16:28:47.139477 21364 net.cpp:106] Creating Layer relu4
I0505 16:28:47.139487 21364 net.cpp:454] relu4 <- conv4
I0505 16:28:47.139503 21364 net.cpp:397] relu4 -> conv4 (in-place)
I0505 16:28:47.139832 21364 net.cpp:150] Setting up relu4
I0505 16:28:47.139845 21364 net.cpp:157] Top shape: 100 36 6 42 (907200)
I0505 16:28:47.139855 21364 net.cpp:165] Memory required for data: 155702800
I0505 16:28:47.139865 21364 layer_factory.hpp:77] Creating layer pool4
I0505 16:28:47.139878 21364 net.cpp:106] Creating Layer pool4
I0505 16:28:47.139888 21364 net.cpp:454] pool4 <- conv4
I0505 16:28:47.139902 21364 net.cpp:411] pool4 -> pool4
I0505 16:28:47.139973 21364 net.cpp:150] Setting up pool4
I0505 16:28:47.139986 21364 net.cpp:157] Top shape: 100 36 3 42 (453600)
I0505 16:28:47.139997 21364 net.cpp:165] Memory required for data: 157517200
I0505 16:28:47.140007 21364 layer_factory.hpp:77] Creating layer ip1
I0505 16:28:47.140025 21364 net.cpp:106] Creating Layer ip1
I0505 16:28:47.140035 21364 net.cpp:454] ip1 <- pool4
I0505 16:28:47.140053 21364 net.cpp:411] ip1 -> ip1
I0505 16:28:47.155889 21364 net.cpp:150] Setting up ip1
I0505 16:28:47.155916 21364 net.cpp:157] Top shape: 100 196 (19600)
I0505 16:28:47.155927 21364 net.cpp:165] Memory required for data: 157595600
I0505 16:28:47.155948 21364 layer_factory.hpp:77] Creating layer relu5
I0505 16:28:47.155966 21364 net.cpp:106] Creating Layer relu5
I0505 16:28:47.155977 21364 net.cpp:454] relu5 <- ip1
I0505 16:28:47.155994 21364 net.cpp:397] relu5 -> ip1 (in-place)
I0505 16:28:47.156543 21364 net.cpp:150] Setting up relu5
I0505 16:28:47.156566 21364 net.cpp:157] Top shape: 100 196 (19600)
I0505 16:28:47.156579 21364 net.cpp:165] Memory required for data: 157674000
I0505 16:28:47.156589 21364 layer_factory.hpp:77] Creating layer drop1
I0505 16:28:47.156610 21364 net.cpp:106] Creating Layer drop1
I0505 16:28:47.156620 21364 net.cpp:454] drop1 <- ip1
I0505 16:28:47.156633 21364 net.cpp:397] drop1 -> ip1 (in-place)
I0505 16:28:47.156679 21364 net.cpp:150] Setting up drop1
I0505 16:28:47.156693 21364 net.cpp:157] Top shape: 100 196 (19600)
I0505 16:28:47.156702 21364 net.cpp:165] Memory required for data: 157752400
I0505 16:28:47.156713 21364 layer_factory.hpp:77] Creating layer ip2
I0505 16:28:47.156729 21364 net.cpp:106] Creating Layer ip2
I0505 16:28:47.156739 21364 net.cpp:454] ip2 <- ip1
I0505 16:28:47.156751 21364 net.cpp:411] ip2 -> ip2
I0505 16:28:47.157244 21364 net.cpp:150] Setting up ip2
I0505 16:28:47.157258 21364 net.cpp:157] Top shape: 100 98 (9800)
I0505 16:28:47.157268 21364 net.cpp:165] Memory required for data: 157791600
I0505 16:28:47.157282 21364 layer_factory.hpp:77] Creating layer relu6
I0505 16:28:47.157299 21364 net.cpp:106] Creating Layer relu6
I0505 16:28:47.157310 21364 net.cpp:454] relu6 <- ip2
I0505 16:28:47.157321 21364 net.cpp:397] relu6 -> ip2 (in-place)
I0505 16:28:47.157644 21364 net.cpp:150] Setting up relu6
I0505 16:28:47.157656 21364 net.cpp:157] Top shape: 100 98 (9800)
I0505 16:28:47.157666 21364 net.cpp:165] Memory required for data: 157830800
I0505 16:28:47.157676 21364 layer_factory.hpp:77] Creating layer drop2
I0505 16:28:47.157691 21364 net.cpp:106] Creating Layer drop2
I0505 16:28:47.157702 21364 net.cpp:454] drop2 <- ip2
I0505 16:28:47.157714 21364 net.cpp:397] drop2 -> ip2 (in-place)
I0505 16:28:47.157758 21364 net.cpp:150] Setting up drop2
I0505 16:28:47.157770 21364 net.cpp:157] Top shape: 100 98 (9800)
I0505 16:28:47.157790 21364 net.cpp:165] Memory required for data: 157870000
I0505 16:28:47.157800 21364 layer_factory.hpp:77] Creating layer ip3
I0505 16:28:47.157814 21364 net.cpp:106] Creating Layer ip3
I0505 16:28:47.157824 21364 net.cpp:454] ip3 <- ip2
I0505 16:28:47.157840 21364 net.cpp:411] ip3 -> ip3
I0505 16:28:47.158066 21364 net.cpp:150] Setting up ip3
I0505 16:28:47.158078 21364 net.cpp:157] Top shape: 100 11 (1100)
I0505 16:28:47.158088 21364 net.cpp:165] Memory required for data: 157874400
I0505 16:28:47.158103 21364 layer_factory.hpp:77] Creating layer relu6
I0505 16:28:47.158115 21364 net.cpp:106] Creating Layer relu6
I0505 16:28:47.158124 21364 net.cpp:454] relu6 <- ip3
I0505 16:28:47.158139 21364 net.cpp:397] relu6 -> ip3 (in-place)
I0505 16:28:47.158632 21364 net.cpp:150] Setting up relu6
I0505 16:28:47.158648 21364 net.cpp:157] Top shape: 100 11 (1100)
I0505 16:28:47.158658 21364 net.cpp:165] Memory required for data: 157878800
I0505 16:28:47.158668 21364 layer_factory.hpp:77] Creating layer drop3
I0505 16:28:47.158680 21364 net.cpp:106] Creating Layer drop3
I0505 16:28:47.158690 21364 net.cpp:454] drop3 <- ip3
I0505 16:28:47.158705 21364 net.cpp:397] drop3 -> ip3 (in-place)
I0505 16:28:47.158748 21364 net.cpp:150] Setting up drop3
I0505 16:28:47.158761 21364 net.cpp:157] Top shape: 100 11 (1100)
I0505 16:28:47.158769 21364 net.cpp:165] Memory required for data: 157883200
I0505 16:28:47.158779 21364 layer_factory.hpp:77] Creating layer ip3_drop3_0_split
I0505 16:28:47.158795 21364 net.cpp:106] Creating Layer ip3_drop3_0_split
I0505 16:28:47.158804 21364 net.cpp:454] ip3_drop3_0_split <- ip3
I0505 16:28:47.158815 21364 net.cpp:411] ip3_drop3_0_split -> ip3_drop3_0_split_0
I0505 16:28:47.158829 21364 net.cpp:411] ip3_drop3_0_split -> ip3_drop3_0_split_1
I0505 16:28:47.158906 21364 net.cpp:150] Setting up ip3_drop3_0_split
I0505 16:28:47.158918 21364 net.cpp:157] Top shape: 100 11 (1100)
I0505 16:28:47.158938 21364 net.cpp:157] Top shape: 100 11 (1100)
I0505 16:28:47.158948 21364 net.cpp:165] Memory required for data: 157892000
I0505 16:28:47.158958 21364 layer_factory.hpp:77] Creating layer accuracy
I0505 16:28:47.158977 21364 net.cpp:106] Creating Layer accuracy
I0505 16:28:47.158987 21364 net.cpp:454] accuracy <- ip3_drop3_0_split_0
I0505 16:28:47.158998 21364 net.cpp:454] accuracy <- label_data_hdf5_1_split_0
I0505 16:28:47.159010 21364 net.cpp:411] accuracy -> accuracy
…
