…
I0506 15:40:04.550905   548 net.cpp:322] The NetState phase (0) differed from the phase (1) specified by a rule in layer data_hdf5
I0506 15:40:04.550962   548 net.cpp:322] The NetState phase (0) differed from the phase (1) specified by a rule in layer accuracy
I0506 15:40:04.551339   548 net.cpp:49] Initializing net from parameters: 
name: "caffe_test_127x50_x_unshifted"
state {
  phase: TRAIN
}
layer {
  name: "data_hdf5"
  type: "HDF5Data"
  top: "data"
  top: "label"
  include {
    phase: TRAIN
  }
  hdf5_data_param {
    source: "/lustre/atlas/proj-shared/hep105/caffe_titan/minosmatch_nukecczdefs_127x50_x_unshifted_me1Bmc.trainlist"
    batch_size: 100
  }
}
layer {
  name: "conv1"
  type: "Convolution"
  bottom: "data"
  top: "conv1"
  convolution_param {
    num_output: 12
    pad: 0
    stride: 1
    weight_filler {
      type: "xavier"
    }
    bias_filler {
      type: "constant"
    }
    kernel_h: 8
    kernel_w: 3
  }
}
layer {
  name: "relu1"
  type: "ReLU"
  bottom: "conv1"
  top: "conv1"
}
layer {
  name: "pool1"
  type: "Pooling"
  bottom: "conv1"
  top: "pool1"
  pooling_param {
    pool: MAX
    kernel_h: 2
    kernel_w: 1
    stride_h: 2
    stride_w: 1
  }
}
layer {
  name: "conv2"
  type: "Convolution"
  bottom: "pool1"
  top: "conv2"
  convolution_param {
    num_output: 20
    pad: 0
    stride: 1
    weight_filler {
      type: "xavier"
    }
    bias_filler {
      type: "constant"
    }
    kernel_h: 7
    kernel_w: 3
  }
}
layer {
  name: "relu2"
  type: "ReLU"
  bottom: "conv2"
  top: "conv2"
}
layer {
  name: "pool2"
  type: "Pooling"
  bottom: "conv2"
  top: "pool2"
  pooling_param {
    pool: MAX
    kernel_h: 2
    kernel_w: 1
    stride_h: 2
    stride_w: 1
  }
}
layer {
  name: "conv3"
  type: "Convolution"
  bottom: "pool2"
  top: "conv3"
  convolution_param {
    num_output: 28
    pad: 0
    stride: 1
    weight_filler {
      type: "xavier"
    }
    bias_filler {
      type: "constant"
    }
    kernel_h: 6
    kernel_w: 3
  }
}
layer {
  name: "relu3"
  type: "ReLU"
  bottom: "conv3"
  top: "conv3"
}
layer {
  name: "pool3"
  type: "Pooling"
  bottom: "conv3"
  top: "pool3"
  pooling_param {
    pool: MAX
    kernel_h: 2
    kernel_w: 1
    stride_h: 2
    stride_w: 1
  }
}
layer {
  name: "conv4"
  type: "Convolution"
  bottom: "pool3"
  top: "conv4"
  convolution_param {
    num_output: 36
    pad: 0
    stride: 1
    weight_filler {
      type: "xavier"
    }
    bias_filler {
      type: "constant"
    }
    kernel_h: 6
    kernel_w: 3
  }
}
layer {
  name: "relu4"
  type: "ReLU"
  bottom: "conv4"
  top: "conv4"
}
layer {
  name: "pool4"
  type: "Pooling"
  bottom: "conv4"
  top: "pool4"
  pooling_param {
    pool: MAX
    kernel_h: 2
    kernel_w: 1
    stride_h: 2
    stride_w: 1
  }
}
layer {
  name: "ip1"
  type: "InnerProduct"
  bottom: "pool4"
  top: "ip1"
  inner_product_param {
    num_output: 196
    weight_filler {
      type: "xavier"
    }
    bias_filler {
      type: "constant"
    }
  }
}
layer {
  name: "relu5"
  type: "ReLU"
  bottom: "ip1"
  top: "ip1"
}
layer {
  name: "drop1"
  type: "Dropout"
  bottom: "ip1"
  top: "ip1"
  dropout_param {
    dropout_ratio: 0.5
  }
}
layer {
  name: "ip2"
  type: "InnerProduct"
  bottom: "ip1"
  top: "ip2"
  inner_product_param {
    num_output: 98
    weight_filler {
      type: "xavier"
    }
    bias_filler {
      type: "constant"
    }
  }
}
layer {
  name: "relu6"
  type: "ReLU"
  bottom: "ip2"
  top: "ip2"
}
layer {
  name: "drop2"
  type: "Dropout"
  bottom: "ip2"
  top: "ip2"
  dropout_param {
    dropout_ratio: 0.5
  }
}
layer {
  name: "ip3"
  type: "InnerProduct"
  bottom: "ip2"
  top: "ip3"
  inner_product_param {
    num_output: 11
    weight_filler {
      type: "xavier"
    }
    bias_filler {
      type: "constant"
    }
  }
}
layer {
  name: "drop3"
  type: "Dropout"
  bottom: "ip3"
  top: "ip3"
  dropout_param {
    dropout_ratio: 0.5
  }
}
layer {
  name: "loss"
  type: "SoftmaxWithLoss"
  bottom: "ip3"
  bottom: "label"
  top: "loss"
}
I0506 15:40:04.551539   548 layer_factory.hpp:77] Creating layer data_hdf5
I0506 15:40:04.551571   548 net.cpp:106] Creating Layer data_hdf5
I0506 15:40:04.551590   548 net.cpp:411] data_hdf5 -> data
I0506 15:40:04.551627   548 net.cpp:411] data_hdf5 -> label
I0506 15:40:04.551666   548 hdf5_data_layer.cpp:79] Loading list of HDF5 filenames from: /lustre/atlas/proj-shared/hep105/caffe_titan/minosmatch_nukecczdefs_127x50_x_unshifted_me1Bmc.trainlist
I0506 15:40:04.553884   548 hdf5_data_layer.cpp:93] Number of HDF5 files: 15
I0506 15:40:04.569049   548 hdf5.cpp:32] Datatype class: H5T_FLOAT
I0506 15:40:26.193478   548 hdf5.cpp:35] Datatype class: H5T_INTEGER
I0506 15:40:26.198796   548 net.cpp:150] Setting up data_hdf5
I0506 15:40:26.198850   548 net.cpp:157] Top shape: 100 1 127 50 (635000)
I0506 15:40:26.198868   548 net.cpp:157] Top shape: 100 (100)
I0506 15:40:26.198884   548 net.cpp:165] Memory required for data: 2540400
I0506 15:40:26.198911   548 layer_factory.hpp:77] Creating layer conv1
I0506 15:40:26.198948   548 net.cpp:106] Creating Layer conv1
I0506 15:40:26.198962   548 net.cpp:454] conv1 <- data
I0506 15:40:26.198988   548 net.cpp:411] conv1 -> conv1
I0506 15:40:29.253542   548 net.cpp:150] Setting up conv1
I0506 15:40:29.253599   548 net.cpp:157] Top shape: 100 12 120 48 (6912000)
I0506 15:40:29.253615   548 net.cpp:165] Memory required for data: 30188400
I0506 15:40:29.253648   548 layer_factory.hpp:77] Creating layer relu1
I0506 15:40:29.253669   548 net.cpp:106] Creating Layer relu1
I0506 15:40:29.253690   548 net.cpp:454] relu1 <- conv1
I0506 15:40:29.253726   548 net.cpp:397] relu1 -> conv1 (in-place)
I0506 15:40:29.254256   548 net.cpp:150] Setting up relu1
I0506 15:40:29.254278   548 net.cpp:157] Top shape: 100 12 120 48 (6912000)
I0506 15:40:29.254292   548 net.cpp:165] Memory required for data: 57836400
I0506 15:40:29.254305   548 layer_factory.hpp:77] Creating layer pool1
I0506 15:40:29.254334   548 net.cpp:106] Creating Layer pool1
I0506 15:40:29.254348   548 net.cpp:454] pool1 <- conv1
I0506 15:40:29.254364   548 net.cpp:411] pool1 -> pool1
I0506 15:40:29.254457   548 net.cpp:150] Setting up pool1
I0506 15:40:29.254474   548 net.cpp:157] Top shape: 100 12 60 48 (3456000)
I0506 15:40:29.254487   548 net.cpp:165] Memory required for data: 71660400
I0506 15:40:29.254501   548 layer_factory.hpp:77] Creating layer conv2
I0506 15:40:29.254534   548 net.cpp:106] Creating Layer conv2
I0506 15:40:29.254546   548 net.cpp:454] conv2 <- pool1
I0506 15:40:29.254562   548 net.cpp:411] conv2 -> conv2
I0506 15:40:29.257305   548 net.cpp:150] Setting up conv2
I0506 15:40:29.257339   548 net.cpp:157] Top shape: 100 20 54 46 (4968000)
I0506 15:40:29.257354   548 net.cpp:165] Memory required for data: 91532400
I0506 15:40:29.257381   548 layer_factory.hpp:77] Creating layer relu2
I0506 15:40:29.257408   548 net.cpp:106] Creating Layer relu2
I0506 15:40:29.257422   548 net.cpp:454] relu2 <- conv2
I0506 15:40:29.257438   548 net.cpp:397] relu2 -> conv2 (in-place)
I0506 15:40:29.257793   548 net.cpp:150] Setting up relu2
I0506 15:40:29.257813   548 net.cpp:157] Top shape: 100 20 54 46 (4968000)
I0506 15:40:29.257827   548 net.cpp:165] Memory required for data: 111404400
I0506 15:40:29.257839   548 layer_factory.hpp:77] Creating layer pool2
I0506 15:40:29.257864   548 net.cpp:106] Creating Layer pool2
I0506 15:40:29.257879   548 net.cpp:454] pool2 <- conv2
I0506 15:40:29.257894   548 net.cpp:411] pool2 -> pool2
I0506 15:40:29.257992   548 net.cpp:150] Setting up pool2
I0506 15:40:29.258023   548 net.cpp:157] Top shape: 100 20 27 46 (2484000)
I0506 15:40:29.258035   548 net.cpp:165] Memory required for data: 121340400
I0506 15:40:29.258050   548 layer_factory.hpp:77] Creating layer conv3
I0506 15:40:29.258076   548 net.cpp:106] Creating Layer conv3
I0506 15:40:29.258090   548 net.cpp:454] conv3 <- pool2
I0506 15:40:29.258106   548 net.cpp:411] conv3 -> conv3
I0506 15:40:29.260040   548 net.cpp:150] Setting up conv3
I0506 15:40:29.260064   548 net.cpp:157] Top shape: 100 28 22 44 (2710400)
I0506 15:40:29.260084   548 net.cpp:165] Memory required for data: 132182000
I0506 15:40:29.260107   548 layer_factory.hpp:77] Creating layer relu3
I0506 15:40:29.260129   548 net.cpp:106] Creating Layer relu3
I0506 15:40:29.260151   548 net.cpp:454] relu3 <- conv3
I0506 15:40:29.260167   548 net.cpp:397] relu3 -> conv3 (in-place)
I0506 15:40:29.260651   548 net.cpp:150] Setting up relu3
I0506 15:40:29.260673   548 net.cpp:157] Top shape: 100 28 22 44 (2710400)
I0506 15:40:29.260687   548 net.cpp:165] Memory required for data: 143023600
I0506 15:40:29.260699   548 layer_factory.hpp:77] Creating layer pool3
I0506 15:40:29.260718   548 net.cpp:106] Creating Layer pool3
I0506 15:40:29.260740   548 net.cpp:454] pool3 <- conv3
I0506 15:40:29.260756   548 net.cpp:411] pool3 -> pool3
I0506 15:40:29.260838   548 net.cpp:150] Setting up pool3
I0506 15:40:29.260855   548 net.cpp:157] Top shape: 100 28 11 44 (1355200)
I0506 15:40:29.260869   548 net.cpp:165] Memory required for data: 148444400
I0506 15:40:29.260880   548 layer_factory.hpp:77] Creating layer conv4
I0506 15:40:29.260902   548 net.cpp:106] Creating Layer conv4
I0506 15:40:29.260921   548 net.cpp:454] conv4 <- pool3
I0506 15:40:29.260938   548 net.cpp:411] conv4 -> conv4
I0506 15:40:29.263897   548 net.cpp:150] Setting up conv4
I0506 15:40:29.263932   548 net.cpp:157] Top shape: 100 36 6 42 (907200)
I0506 15:40:29.263947   548 net.cpp:165] Memory required for data: 152073200
I0506 15:40:29.263967   548 layer_factory.hpp:77] Creating layer relu4
I0506 15:40:29.263988   548 net.cpp:106] Creating Layer relu4
I0506 15:40:29.264014   548 net.cpp:454] relu4 <- conv4
I0506 15:40:29.264031   548 net.cpp:397] relu4 -> conv4 (in-place)
I0506 15:40:29.264519   548 net.cpp:150] Setting up relu4
I0506 15:40:29.264542   548 net.cpp:157] Top shape: 100 36 6 42 (907200)
I0506 15:40:29.264555   548 net.cpp:165] Memory required for data: 155702000
I0506 15:40:29.264567   548 layer_factory.hpp:77] Creating layer pool4
I0506 15:40:29.264587   548 net.cpp:106] Creating Layer pool4
I0506 15:40:29.264610   548 net.cpp:454] pool4 <- conv4
I0506 15:40:29.264626   548 net.cpp:411] pool4 -> pool4
I0506 15:40:29.264708   548 net.cpp:150] Setting up pool4
I0506 15:40:29.264730   548 net.cpp:157] Top shape: 100 36 3 42 (453600)
I0506 15:40:29.264744   548 net.cpp:165] Memory required for data: 157516400
I0506 15:40:29.264755   548 layer_factory.hpp:77] Creating layer ip1
I0506 15:40:29.264778   548 net.cpp:106] Creating Layer ip1
I0506 15:40:29.264792   548 net.cpp:454] ip1 <- pool4
I0506 15:40:29.264808   548 net.cpp:411] ip1 -> ip1
I0506 15:40:29.280603   548 net.cpp:150] Setting up ip1
I0506 15:40:29.280637   548 net.cpp:157] Top shape: 100 196 (19600)
I0506 15:40:29.280658   548 net.cpp:165] Memory required for data: 157594800
I0506 15:40:29.280685   548 layer_factory.hpp:77] Creating layer relu5
I0506 15:40:29.280707   548 net.cpp:106] Creating Layer relu5
I0506 15:40:29.280720   548 net.cpp:454] relu5 <- ip1
I0506 15:40:29.280748   548 net.cpp:397] relu5 -> ip1 (in-place)
I0506 15:40:29.281105   548 net.cpp:150] Setting up relu5
I0506 15:40:29.281126   548 net.cpp:157] Top shape: 100 196 (19600)
I0506 15:40:29.281138   548 net.cpp:165] Memory required for data: 157673200
I0506 15:40:29.281150   548 layer_factory.hpp:77] Creating layer drop1
I0506 15:40:29.281183   548 net.cpp:106] Creating Layer drop1
I0506 15:40:29.281195   548 net.cpp:454] drop1 <- ip1
I0506 15:40:29.281211   548 net.cpp:397] drop1 -> ip1 (in-place)
I0506 15:40:29.281265   548 net.cpp:150] Setting up drop1
I0506 15:40:29.281298   548 net.cpp:157] Top shape: 100 196 (19600)
I0506 15:40:29.281313   548 net.cpp:165] Memory required for data: 157751600
I0506 15:40:29.281325   548 layer_factory.hpp:77] Creating layer ip2
I0506 15:40:29.281348   548 net.cpp:106] Creating Layer ip2
I0506 15:40:29.281368   548 net.cpp:454] ip2 <- ip1
I0506 15:40:29.281385   548 net.cpp:411] ip2 -> ip2
I0506 15:40:29.281873   548 net.cpp:150] Setting up ip2
I0506 15:40:29.281893   548 net.cpp:157] Top shape: 100 98 (9800)
I0506 15:40:29.281904   548 net.cpp:165] Memory required for data: 157790800
I0506 15:40:29.281925   548 layer_factory.hpp:77] Creating layer relu6
I0506 15:40:29.281940   548 net.cpp:106] Creating Layer relu6
I0506 15:40:29.281960   548 net.cpp:454] relu6 <- ip2
I0506 15:40:29.281981   548 net.cpp:397] relu6 -> ip2 (in-place)
I0506 15:40:29.282526   548 net.cpp:150] Setting up relu6
I0506 15:40:29.282548   548 net.cpp:157] Top shape: 100 98 (9800)
I0506 15:40:29.282562   548 net.cpp:165] Memory required for data: 157830000
I0506 15:40:29.282577   548 layer_factory.hpp:77] Creating layer drop2
I0506 15:40:29.282593   548 net.cpp:106] Creating Layer drop2
I0506 15:40:29.282613   548 net.cpp:454] drop2 <- ip2
I0506 15:40:29.282629   548 net.cpp:397] drop2 -> ip2 (in-place)
I0506 15:40:29.282678   548 net.cpp:150] Setting up drop2
I0506 15:40:29.282701   548 net.cpp:157] Top shape: 100 98 (9800)
I0506 15:40:29.282714   548 net.cpp:165] Memory required for data: 157869200
I0506 15:40:29.282733   548 layer_factory.hpp:77] Creating layer ip3
I0506 15:40:29.282749   548 net.cpp:106] Creating Layer ip3
I0506 15:40:29.282762   548 net.cpp:454] ip3 <- ip2
I0506 15:40:29.282780   548 net.cpp:411] ip3 -> ip3
I0506 15:40:29.283004   548 net.cpp:150] Setting up ip3
I0506 15:40:29.283022   548 net.cpp:157] Top shape: 100 11 (1100)
I0506 15:40:29.283035   548 net.cpp:165] Memory required for data: 157873600
I0506 15:40:29.283056   548 layer_factory.hpp:77] Creating layer drop3
I0506 15:40:29.283077   548 net.cpp:106] Creating Layer drop3
I0506 15:40:29.283090   548 net.cpp:454] drop3 <- ip3
I0506 15:40:29.283107   548 net.cpp:397] drop3 -> ip3 (in-place)
I0506 15:40:29.283152   548 net.cpp:150] Setting up drop3
I0506 15:40:29.283174   548 net.cpp:157] Top shape: 100 11 (1100)
I0506 15:40:29.283186   548 net.cpp:165] Memory required for data: 157878000
I0506 15:40:29.283200   548 layer_factory.hpp:77] Creating layer loss
I0506 15:40:29.283218   548 net.cpp:106] Creating Layer loss
I0506 15:40:29.283233   548 net.cpp:454] loss <- ip3
I0506 15:40:29.283247   548 net.cpp:454] loss <- label
I0506 15:40:29.283270   548 net.cpp:411] loss -> loss
I0506 15:40:29.283299   548 layer_factory.hpp:77] Creating layer loss
…
I0506 15:40:29.286169   548 solver.cpp:181] Creating test net (#0) specified by net file: /lustre/atlas/proj-shared/hep105/caffe_titan/minosmatch_nukecczdefs_127x50_x_unshifted_me1Bmc.prototxt
I0506 15:40:29.286244   548 net.cpp:322] The NetState phase (1) differed from the phase (0) specified by a rule in layer data_hdf5
I0506 15:40:29.286618   548 net.cpp:49] Initializing net from parameters: 
name: "caffe_test_127x50_x_unshifted"
state {
  phase: TEST
}
layer {
  name: "data_hdf5"
  type: "HDF5Data"
  top: "data"
  top: "label"
  include {
    phase: TEST
  }
  hdf5_data_param {
    source: "/lustre/atlas/proj-shared/hep105/caffe_titan/minosmatch_nukecczdefs_127x50_x_unshifted_me1Bmc.testlist"
    batch_size: 100
  }
}
layer {
  name: "conv1"
  type: "Convolution"
  bottom: "data"
  top: "conv1"
  convolution_param {
    num_output: 12
    pad: 0
    stride: 1
    weight_filler {
      type: "xavier"
    }
    bias_filler {
      type: "constant"
    }
    kernel_h: 8
    kernel_w: 3
  }
}
layer {
  name: "relu1"
  type: "ReLU"
  bottom: "conv1"
  top: "conv1"
}
layer {
  name: "pool1"
  type: "Pooling"
  bottom: "conv1"
  top: "pool1"
  pooling_param {
    pool: MAX
    kernel_h: 2
    kernel_w: 1
    stride_h: 2
    stride_w: 1
  }
}
layer {
  name: "conv2"
  type: "Convolution"
  bottom: "pool1"
  top: "conv2"
  convolution_param {
    num_output: 20
    pad: 0
    stride: 1
    weight_filler {
      type: "xavier"
    }
    bias_filler {
      type: "constant"
    }
    kernel_h: 7
    kernel_w: 3
  }
}
layer {
  name: "relu2"
  type: "ReLU"
  bottom: "conv2"
  top: "conv2"
}
layer {
  name: "pool2"
  type: "Pooling"
  bottom: "conv2"
  top: "pool2"
  pooling_param {
    pool: MAX
    kernel_h: 2
    kernel_w: 1
    stride_h: 2
    stride_w: 1
  }
}
layer {
  name: "conv3"
  type: "Convolution"
  bottom: "pool2"
  top: "conv3"
  convolution_param {
    num_output: 28
    pad: 0
    stride: 1
    weight_filler {
      type: "xavier"
    }
    bias_filler {
      type: "constant"
    }
    kernel_h: 6
    kernel_w: 3
  }
}
layer {
  name: "relu3"
  type: "ReLU"
  bottom: "conv3"
  top: "conv3"
}
layer {
  name: "pool3"
  type: "Pooling"
  bottom: "conv3"
  top: "pool3"
  pooling_param {
    pool: MAX
    kernel_h: 2
    kernel_w: 1
    stride_h: 2
    stride_w: 1
  }
}
layer {
  name: "conv4"
  type: "Convolution"
  bottom: "pool3"
  top: "conv4"
  convolution_param {
    num_output: 36
    pad: 0
    stride: 1
    weight_filler {
      type: "xavier"
    }
    bias_filler {
      type: "constant"
    }
    kernel_h: 6
    kernel_w: 3
  }
}
layer {
  name: "relu4"
  type: "ReLU"
  bottom: "conv4"
  top: "conv4"
}
layer {
  name: "pool4"
  type: "Pooling"
  bottom: "conv4"
  top: "pool4"
  pooling_param {
    pool: MAX
    kernel_h: 2
    kernel_w: 1
    stride_h: 2
    stride_w: 1
  }
}
layer {
  name: "ip1"
  type: "InnerProduct"
  bottom: "pool4"
  top: "ip1"
  inner_product_param {
    num_output: 196
    weight_filler {
      type: "xavier"
    }
    bias_filler {
      type: "constant"
    }
  }
}
layer {
  name: "relu5"
  type: "ReLU"
  bottom: "ip1"
  top: "ip1"
}
layer {
  name: "drop1"
  type: "Dropout"
  bottom: "ip1"
  top: "ip1"
  dropout_param {
    dropout_ratio: 0.5
  }
}
layer {
  name: "ip2"
  type: "InnerProduct"
  bottom: "ip1"
  top: "ip2"
  inner_product_param {
    num_output: 98
    weight_filler {
      type: "xavier"
    }
    bias_filler {
      type: "constant"
    }
  }
}
layer {
  name: "relu6"
  type: "ReLU"
  bottom: "ip2"
  top: "ip2"
}
layer {
  name: "drop2"
  type: "Dropout"
  bottom: "ip2"
  top: "ip2"
  dropout_param {
    dropout_ratio: 0.5
  }
}
layer {
  name: "ip3"
  type: "InnerProduct"
  bottom: "ip2"
  top: "ip3"
  inner_product_param {
    num_output: 11
    weight_filler {
      type: "xavier"
    }
    bias_filler {
      type: "constant"
    }
  }
}
layer {
  name: "drop3"
  type: "Dropout"
  bottom: "ip3"
  top: "ip3"
  dropout_param {
    dropout_ratio: 0.5
  }
}
layer {
  name: "accuracy"
  type: "Accuracy"
  bottom: "ip3"
  bottom: "label"
  top: "accuracy"
  include {
    phase: TEST
  }
}
layer {
  name: "loss"
  type: "SoftmaxWithLoss"
  bottom: "ip3"
  bottom: "label"
  top: "loss"
}
I0506 15:40:29.286836   548 layer_factory.hpp:77] Creating layer data_hdf5
I0506 15:40:29.286856   548 net.cpp:106] Creating Layer data_hdf5
I0506 15:40:29.286871   548 net.cpp:411] data_hdf5 -> data
I0506 15:40:29.286891   548 net.cpp:411] data_hdf5 -> label
I0506 15:40:29.286912   548 hdf5_data_layer.cpp:79] Loading list of HDF5 filenames from: /lustre/atlas/proj-shared/hep105/caffe_titan/minosmatch_nukecczdefs_127x50_x_unshifted_me1Bmc.testlist
I0506 15:40:29.289252   548 hdf5_data_layer.cpp:93] Number of HDF5 files: 3
I0506 15:40:50.675746   548 net.cpp:150] Setting up data_hdf5
I0506 15:40:50.675914   548 net.cpp:157] Top shape: 100 1 127 50 (635000)
I0506 15:40:50.675931   548 net.cpp:157] Top shape: 100 (100)
I0506 15:40:50.675945   548 net.cpp:165] Memory required for data: 2540400
I0506 15:40:50.675959   548 layer_factory.hpp:77] Creating layer label_data_hdf5_1_split
I0506 15:40:50.675987   548 net.cpp:106] Creating Layer label_data_hdf5_1_split
I0506 15:40:50.676007   548 net.cpp:454] label_data_hdf5_1_split <- label
I0506 15:40:50.676023   548 net.cpp:411] label_data_hdf5_1_split -> label_data_hdf5_1_split_0
I0506 15:40:50.676065   548 net.cpp:411] label_data_hdf5_1_split -> label_data_hdf5_1_split_1
I0506 15:40:50.676144   548 net.cpp:150] Setting up label_data_hdf5_1_split
I0506 15:40:50.676162   548 net.cpp:157] Top shape: 100 (100)
I0506 15:40:50.676178   548 net.cpp:157] Top shape: 100 (100)
I0506 15:40:50.676199   548 net.cpp:165] Memory required for data: 2541200
I0506 15:40:50.676213   548 layer_factory.hpp:77] Creating layer conv1
I0506 15:40:50.676236   548 net.cpp:106] Creating Layer conv1
I0506 15:40:50.676249   548 net.cpp:454] conv1 <- data
I0506 15:40:50.676265   548 net.cpp:411] conv1 -> conv1
I0506 15:40:50.678200   548 net.cpp:150] Setting up conv1
I0506 15:40:50.678226   548 net.cpp:157] Top shape: 100 12 120 48 (6912000)
I0506 15:40:50.678249   548 net.cpp:165] Memory required for data: 30189200
I0506 15:40:50.678274   548 layer_factory.hpp:77] Creating layer relu1
I0506 15:40:50.678294   548 net.cpp:106] Creating Layer relu1
I0506 15:40:50.678316   548 net.cpp:454] relu1 <- conv1
I0506 15:40:50.678333   548 net.cpp:397] relu1 -> conv1 (in-place)
I0506 15:40:50.678845   548 net.cpp:150] Setting up relu1
I0506 15:40:50.678869   548 net.cpp:157] Top shape: 100 12 120 48 (6912000)
I0506 15:40:50.678881   548 net.cpp:165] Memory required for data: 57837200
I0506 15:40:50.678894   548 layer_factory.hpp:77] Creating layer pool1
I0506 15:40:50.678925   548 net.cpp:106] Creating Layer pool1
I0506 15:40:50.678938   548 net.cpp:454] pool1 <- conv1
I0506 15:40:50.678954   548 net.cpp:411] pool1 -> pool1
I0506 15:40:50.679042   548 net.cpp:150] Setting up pool1
I0506 15:40:50.679059   548 net.cpp:157] Top shape: 100 12 60 48 (3456000)
I0506 15:40:50.679075   548 net.cpp:165] Memory required for data: 71661200
I0506 15:40:50.679093   548 layer_factory.hpp:77] Creating layer conv2
I0506 15:40:50.679113   548 net.cpp:106] Creating Layer conv2
I0506 15:40:50.679126   548 net.cpp:454] conv2 <- pool1
I0506 15:40:50.679144   548 net.cpp:411] conv2 -> conv2
I0506 15:40:50.681104   548 net.cpp:150] Setting up conv2
I0506 15:40:50.681131   548 net.cpp:157] Top shape: 100 20 54 46 (4968000)
I0506 15:40:50.681146   548 net.cpp:165] Memory required for data: 91533200
I0506 15:40:50.681167   548 layer_factory.hpp:77] Creating layer relu2
I0506 15:40:50.681196   548 net.cpp:106] Creating Layer relu2
I0506 15:40:50.681210   548 net.cpp:454] relu2 <- conv2
I0506 15:40:50.681226   548 net.cpp:397] relu2 -> conv2 (in-place)
I0506 15:40:50.681576   548 net.cpp:150] Setting up relu2
I0506 15:40:50.681596   548 net.cpp:157] Top shape: 100 20 54 46 (4968000)
I0506 15:40:50.681608   548 net.cpp:165] Memory required for data: 111405200
I0506 15:40:50.681622   548 layer_factory.hpp:77] Creating layer pool2
I0506 15:40:50.681648   548 net.cpp:106] Creating Layer pool2
I0506 15:40:50.681660   548 net.cpp:454] pool2 <- conv2
I0506 15:40:50.681676   548 net.cpp:411] pool2 -> pool2
I0506 15:40:50.681769   548 net.cpp:150] Setting up pool2
I0506 15:40:50.681787   548 net.cpp:157] Top shape: 100 20 27 46 (2484000)
I0506 15:40:50.681800   548 net.cpp:165] Memory required for data: 121341200
I0506 15:40:50.681813   548 layer_factory.hpp:77] Creating layer conv3
I0506 15:40:50.681838   548 net.cpp:106] Creating Layer conv3
I0506 15:40:50.681857   548 net.cpp:454] conv3 <- pool2
I0506 15:40:50.681874   548 net.cpp:411] conv3 -> conv3
I0506 15:40:50.683883   548 net.cpp:150] Setting up conv3
I0506 15:40:50.683908   548 net.cpp:157] Top shape: 100 28 22 44 (2710400)
I0506 15:40:50.683928   548 net.cpp:165] Memory required for data: 132182800
I0506 15:40:50.683962   548 layer_factory.hpp:77] Creating layer relu3
I0506 15:40:50.683984   548 net.cpp:106] Creating Layer relu3
I0506 15:40:50.684007   548 net.cpp:454] relu3 <- conv3
I0506 15:40:50.684023   548 net.cpp:397] relu3 -> conv3 (in-place)
I0506 15:40:50.684517   548 net.cpp:150] Setting up relu3
I0506 15:40:50.684540   548 net.cpp:157] Top shape: 100 28 22 44 (2710400)
I0506 15:40:50.684553   548 net.cpp:165] Memory required for data: 143024400
I0506 15:40:50.684569   548 layer_factory.hpp:77] Creating layer pool3
I0506 15:40:50.684586   548 net.cpp:106] Creating Layer pool3
I0506 15:40:50.684607   548 net.cpp:454] pool3 <- conv3
I0506 15:40:50.684624   548 net.cpp:411] pool3 -> pool3
I0506 15:40:50.684710   548 net.cpp:150] Setting up pool3
I0506 15:40:50.684731   548 net.cpp:157] Top shape: 100 28 11 44 (1355200)
I0506 15:40:50.684743   548 net.cpp:165] Memory required for data: 148445200
I0506 15:40:50.684758   548 layer_factory.hpp:77] Creating layer conv4
I0506 15:40:50.684785   548 net.cpp:106] Creating Layer conv4
I0506 15:40:50.684798   548 net.cpp:454] conv4 <- pool3
I0506 15:40:50.684814   548 net.cpp:411] conv4 -> conv4
I0506 15:40:50.686934   548 net.cpp:150] Setting up conv4
I0506 15:40:50.686959   548 net.cpp:157] Top shape: 100 36 6 42 (907200)
I0506 15:40:50.686978   548 net.cpp:165] Memory required for data: 152074000
I0506 15:40:50.686998   548 layer_factory.hpp:77] Creating layer relu4
I0506 15:40:50.687017   548 net.cpp:106] Creating Layer relu4
I0506 15:40:50.687031   548 net.cpp:454] relu4 <- conv4
I0506 15:40:50.687054   548 net.cpp:397] relu4 -> conv4 (in-place)
I0506 15:40:50.687543   548 net.cpp:150] Setting up relu4
I0506 15:40:50.687567   548 net.cpp:157] Top shape: 100 36 6 42 (907200)
I0506 15:40:50.687580   548 net.cpp:165] Memory required for data: 155702800
I0506 15:40:50.687597   548 layer_factory.hpp:77] Creating layer pool4
I0506 15:40:50.687613   548 net.cpp:106] Creating Layer pool4
I0506 15:40:50.687634   548 net.cpp:454] pool4 <- conv4
I0506 15:40:50.687651   548 net.cpp:411] pool4 -> pool4
I0506 15:40:50.687737   548 net.cpp:150] Setting up pool4
I0506 15:40:50.687755   548 net.cpp:157] Top shape: 100 36 3 42 (453600)
I0506 15:40:50.687772   548 net.cpp:165] Memory required for data: 157517200
I0506 15:40:50.687783   548 layer_factory.hpp:77] Creating layer ip1
I0506 15:40:50.687801   548 net.cpp:106] Creating Layer ip1
I0506 15:40:50.687820   548 net.cpp:454] ip1 <- pool4
I0506 15:40:50.687844   548 net.cpp:411] ip1 -> ip1
I0506 15:40:50.703711   548 net.cpp:150] Setting up ip1
I0506 15:40:50.703743   548 net.cpp:157] Top shape: 100 196 (19600)
I0506 15:40:50.703764   548 net.cpp:165] Memory required for data: 157595600
I0506 15:40:50.703791   548 layer_factory.hpp:77] Creating layer relu5
I0506 15:40:50.703812   548 net.cpp:106] Creating Layer relu5
I0506 15:40:50.703825   548 net.cpp:454] relu5 <- ip1
I0506 15:40:50.703857   548 net.cpp:397] relu5 -> ip1 (in-place)
I0506 15:40:50.704219   548 net.cpp:150] Setting up relu5
I0506 15:40:50.704239   548 net.cpp:157] Top shape: 100 196 (19600)
I0506 15:40:50.704252   548 net.cpp:165] Memory required for data: 157674000
I0506 15:40:50.704264   548 layer_factory.hpp:77] Creating layer drop1
I0506 15:40:50.704296   548 net.cpp:106] Creating Layer drop1
I0506 15:40:50.704310   548 net.cpp:454] drop1 <- ip1
I0506 15:40:50.704326   548 net.cpp:397] drop1 -> ip1 (in-place)
I0506 15:40:50.704376   548 net.cpp:150] Setting up drop1
I0506 15:40:50.704399   548 net.cpp:157] Top shape: 100 196 (19600)
I0506 15:40:50.704412   548 net.cpp:165] Memory required for data: 157752400
I0506 15:40:50.704424   548 layer_factory.hpp:77] Creating layer ip2
I0506 15:40:50.704442   548 net.cpp:106] Creating Layer ip2
I0506 15:40:50.704457   548 net.cpp:454] ip2 <- ip1
I0506 15:40:50.704479   548 net.cpp:411] ip2 -> ip2
I0506 15:40:50.704979   548 net.cpp:150] Setting up ip2
I0506 15:40:50.704998   548 net.cpp:157] Top shape: 100 98 (9800)
I0506 15:40:50.705011   548 net.cpp:165] Memory required for data: 157791600
I0506 15:40:50.705032   548 layer_factory.hpp:77] Creating layer relu6
I0506 15:40:50.705067   548 net.cpp:106] Creating Layer relu6
I0506 15:40:50.705080   548 net.cpp:454] relu6 <- ip2
I0506 15:40:50.705097   548 net.cpp:397] relu6 -> ip2 (in-place)
I0506 15:40:50.705662   548 net.cpp:150] Setting up relu6
I0506 15:40:50.705685   548 net.cpp:157] Top shape: 100 98 (9800)
I0506 15:40:50.705698   548 net.cpp:165] Memory required for data: 157830800
I0506 15:40:50.705710   548 layer_factory.hpp:77] Creating layer drop2
I0506 15:40:50.705730   548 net.cpp:106] Creating Layer drop2
I0506 15:40:50.705752   548 net.cpp:454] drop2 <- ip2
I0506 15:40:50.705768   548 net.cpp:397] drop2 -> ip2 (in-place)
I0506 15:40:50.705819   548 net.cpp:150] Setting up drop2
I0506 15:40:50.705843   548 net.cpp:157] Top shape: 100 98 (9800)
I0506 15:40:50.705855   548 net.cpp:165] Memory required for data: 157870000
I0506 15:40:50.705874   548 layer_factory.hpp:77] Creating layer ip3
I0506 15:40:50.705891   548 net.cpp:106] Creating Layer ip3
I0506 15:40:50.705904   548 net.cpp:454] ip3 <- ip2
I0506 15:40:50.705922   548 net.cpp:411] ip3 -> ip3
I0506 15:40:50.706174   548 net.cpp:150] Setting up ip3
I0506 15:40:50.706194   548 net.cpp:157] Top shape: 100 11 (1100)
I0506 15:40:50.706207   548 net.cpp:165] Memory required for data: 157874400
I0506 15:40:50.706224   548 layer_factory.hpp:77] Creating layer drop3
I0506 15:40:50.706243   548 net.cpp:106] Creating Layer drop3
I0506 15:40:50.706264   548 net.cpp:454] drop3 <- ip3
I0506 15:40:50.706279   548 net.cpp:397] drop3 -> ip3 (in-place)
I0506 15:40:50.706324   548 net.cpp:150] Setting up drop3
I0506 15:40:50.706343   548 net.cpp:157] Top shape: 100 11 (1100)
I0506 15:40:50.706356   548 net.cpp:165] Memory required for data: 157878800
I0506 15:40:50.706374   548 layer_factory.hpp:77] Creating layer ip3_drop3_0_split
I0506 15:40:50.706393   548 net.cpp:106] Creating Layer ip3_drop3_0_split
I0506 15:40:50.706413   548 net.cpp:454] ip3_drop3_0_split <- ip3
I0506 15:40:50.706429   548 net.cpp:411] ip3_drop3_0_split -> ip3_drop3_0_split_0
I0506 15:40:50.706449   548 net.cpp:411] ip3_drop3_0_split -> ip3_drop3_0_split_1
I0506 15:40:50.706531   548 net.cpp:150] Setting up ip3_drop3_0_split
I0506 15:40:50.706550   548 net.cpp:157] Top shape: 100 11 (1100)
I0506 15:40:50.706571   548 net.cpp:157] Top shape: 100 11 (1100)
I0506 15:40:50.706584   548 net.cpp:165] Memory required for data: 157887600
I0506 15:40:50.706600   548 layer_factory.hpp:77] Creating layer accuracy
I0506 15:40:50.706624   548 net.cpp:106] Creating Layer accuracy
I0506 15:40:50.706637   548 net.cpp:454] accuracy <- ip3_drop3_0_split_0
I0506 15:40:50.706651   548 net.cpp:454] accuracy <- label_data_hdf5_1_split_0
I0506 15:40:50.706676   548 net.cpp:411] accuracy -> accuracy
…
